WARNING: Logging before InitGoogleLogging() is written to STDERR
I0805 09:38:13.074270 15979 net.cpp:49] Initializing net from parameters: 
state {
  phase: TEST
}
layer {
  name: "data"
  type: "Data"
  top: "data"
  top: "label"
  include {
    phase: TEST
  }
  transform_param {
    scale: 0.0039215689
    mirror: true
    mean_file: "examples/scene/scene_mean.binaryproto"
  }
  data_param {
    source: "examples/scene/scene_test_pairs.lmdb"
    batch_size: 64
    backend: LMDB
  }
}
layer {
  name: "th"
  type: "Threshold"
  bottom: "label"
  top: "th"
  threshold_param {
    threshold: 0
  }
}
layer {
  name: "i1"
  type: "Slice"
  bottom: "data"
  top: "i1"
  top: "i2"
  slice_param {
    slice_dim: 1
    slice_point: 3
  }
}
layer {
  name: "p1"
  type: "Pooling"
  bottom: "i1"
  top: "p1"
  pooling_param {
    pool: AVE
    kernel_size: 2
    stride: 2
  }
}
layer {
  name: "p2"
  type: "Pooling"
  bottom: "i2"
  top: "p2"
  pooling_param {
    pool: AVE
    kernel_size: 2
    stride: 2
  }
}
layer {
  name: "Input1"
  type: "Input"
  top: "Input1"
  include {
    phase: TEST
  }
  input_param {
    shape {
      dim: 64
      dim: 3
      dim: 64
      dim: 64
    }
  }
}
layer {
  name: "c11"
  type: "Crop"
  bottom: "i1"
  bottom: "Input1"
  top: "c11"
  crop_param {
    axis: 2
    offset: 0
    offset: 0
  }
}
layer {
  name: "Input2"
  type: "Input"
  top: "Input2"
  include {
    phase: TEST
  }
  input_param {
    shape {
      dim: 64
      dim: 3
      dim: 64
      dim: 64
    }
  }
}
layer {
  name: "c12"
  type: "Crop"
  bottom: "i1"
  bottom: "Input2"
  top: "c12"
  crop_param {
    axis: 2
    offset: 0
    offset: 32
  }
}
layer {
  name: "Input3"
  type: "Input"
  top: "Input3"
  include {
    phase: TEST
  }
  input_param {
    shape {
      dim: 64
      dim: 3
      dim: 64
      dim: 64
    }
  }
}
layer {
  name: "c13"
  type: "Crop"
  bottom: "i1"
  bottom: "Input3"
  top: "c13"
  crop_param {
    axis: 2
    offset: 0
    offset: 64
  }
}
layer {
  name: "Input4"
  type: "Input"
  top: "Input4"
  include {
    phase: TEST
  }
  input_param {
    shape {
      dim: 64
      dim: 3
      dim: 64
      dim: 64
    }
  }
}
layer {
  name: "c14"
  type: "Crop"
  bottom: "i1"
  bottom: "Input4"
  top: "c14"
  crop_param {
    axis: 2
    offset: 32
    offset: 0
  }
}
layer {
  name: "Input5"
  type: "Input"
  top: "Input5"
  include {
    phase: TEST
  }
  input_param {
    shape {
      dim: 64
      dim: 3
      dim: 64
      dim: 64
    }
  }
}
layer {
  name: "c15"
  type: "Crop"
  bottom: "i1"
  bottom: "Input5"
  top: "c15"
  crop_param {
    axis: 2
    offset: 32
    offset: 32
  }
}
layer {
  name: "Input6"
  type: "Input"
  top: "Input6"
  include {
    phase: TEST
  }
  input_param {
    shape {
      dim: 64
      dim: 3
      dim: 64
      dim: 64
    }
  }
}
layer {
  name: "c16"
  type: "Crop"
  bottom: "i1"
  bottom: "Input6"
  top: "c16"
  crop_param {
    axis: 2
    offset: 32
    offset: 64
  }
}
layer {
  name: "Input7"
  type: "Input"
  top: "Input7"
  include {
    phase: TEST
  }
  input_param {
    shape {
      dim: 64
      dim: 3
      dim: 64
      dim: 64
    }
  }
}
layer {
  name: "c17"
  type: "Crop"
  bottom: "i1"
  bottom: "Input7"
  top: "c17"
  crop_param {
    axis: 2
    offset: 64
    offset: 0
  }
}
layer {
  name: "Input8"
  type: "Input"
  top: "Input8"
  include {
    phase: TEST
  }
  input_param {
    shape {
      dim: 64
      dim: 3
      dim: 64
      dim: 64
    }
  }
}
layer {
  name: "c18"
  type: "Crop"
  bottom: "i1"
  bottom: "Input8"
  top: "c18"
  crop_param {
    axis: 2
    offset: 64
    offset: 32
  }
}
layer {
  name: "Input9"
  type: "Input"
  top: "Input9"
  include {
    phase: TEST
  }
  input_param {
    shape {
      dim: 64
      dim: 3
      dim: 64
      dim: 64
    }
  }
}
layer {
  name: "c19"
  type: "Crop"
  bottom: "i1"
  bottom: "Input9"
  top: "c19"
  crop_param {
    axis: 2
    offset: 64
    offset: 64
  }
}
layer {
  name: "Input10"
  type: "Input"
  top: "Input10"
  include {
    phase: TEST
  }
  input_param {
    shape {
      dim: 64
      dim: 3
      dim: 64
      dim: 64
    }
  }
}
layer {
  name: "c21"
  type: "Crop"
  bottom: "i2"
  bottom: "Input10"
  top: "c21"
  crop_param {
    axis: 2
    offset: 0
    offset: 0
  }
}
layer {
  name: "Input11"
  type: "Input"
  top: "Input11"
  include {
    phase: TEST
  }
  input_param {
    shape {
      dim: 64
      dim: 3
      dim: 64
      dim: 64
    }
  }
}
layer {
  name: "c22"
  type: "Crop"
  bottom: "i2"
  bottom: "Input11"
  top: "c22"
  crop_param {
    axis: 2
    offset: 0
    offset: 32
  }
}
layer {
  name: "Input12"
  type: "Input"
  top: "Input12"
  include {
    phase: TEST
  }
  input_param {
    shape {
      dim: 64
      dim: 3
      dim: 64
      dim: 64
    }
  }
}
layer {
  name: "c23"
  type: "Crop"
  bottom: "i2"
  bottom: "Input12"
  top: "c23"
  crop_param {
    axis: 2
    offset: 0
    offset: 64
  }
}
layer {
  name: "Input13"
  type: "Input"
  top: "Input13"
  include {
    phase: TEST
  }
  input_param {
    shape {
      dim: 64
      dim: 3
      dim: 64
      dim: 64
    }
  }
}
layer {
  name: "c24"
  type: "Crop"
  bottom: "i2"
  bottom: "Input13"
  top: "c24"
  crop_param {
    axis: 2
    offset: 32
    offset: 0
  }
}
layer {
  name: "Input14"
  type: "Input"
  top: "Input14"
  include {
    phase: TEST
  }
  input_param {
    shape {
      dim: 64
      dim: 3
      dim: 64
      dim: 64
    }
  }
}
layer {
  name: "c25"
  type: "Crop"
  bottom: "i2"
  bottom: "Input14"
  top: "c25"
  crop_param {
    axis: 2
    offset: 32
    offset: 32
  }
}
layer {
  name: "Input15"
  type: "Input"
  top: "Input15"
  include {
    phase: TEST
  }
  input_param {
    shape {
      dim: 64
      dim: 3
      dim: 64
      dim: 64
    }
  }
}
layer {
  name: "c26"
  type: "Crop"
  bottom: "i2"
  bottom: "Input15"
  top: "c26"
  crop_param {
    axis: 2
    offset: 32
    offset: 64
  }
}
layer {
  name: "Input16"
  type: "Input"
  top: "Input16"
  include {
    phase: TEST
  }
  input_param {
    shape {
      dim: 64
      dim: 3
      dim: 64
      dim: 64
    }
  }
}
layer {
  name: "c27"
  type: "Crop"
  bottom: "i2"
  bottom: "Input16"
  top: "c27"
  crop_param {
    axis: 2
    offset: 64
    offset: 0
  }
}
layer {
  name: "Input17"
  type: "Input"
  top: "Input17"
  include {
    phase: TEST
  }
  input_param {
    shape {
      dim: 64
      dim: 3
      dim: 64
      dim: 64
    }
  }
}
layer {
  name: "c28"
  type: "Crop"
  bottom: "i2"
  bottom: "Input17"
  top: "c28"
  crop_param {
    axis: 2
    offset: 64
    offset: 32
  }
}
layer {
  name: "Input18"
  type: "Input"
  top: "Input18"
  include {
    phase: TEST
  }
  input_param {
    shape {
      dim: 64
      dim: 3
      dim: 64
      dim: 64
    }
  }
}
layer {
  name: "c29"
  type: "Crop"
  bottom: "i2"
  bottom: "Input18"
  top: "c29"
  crop_param {
    axis: 2
    offset: 64
    offset: 64
  }
}
layer {
  name: "conv0"
  type: "Convolution"
  bottom: "p1"
  top: "Convolution1"
  param {
    lr_mult: 1
    decay_mult: 1
  }
  param {
    lr_mult: 2
    decay_mult: 0
  }
  convolution_param {
    num_output: 24
    pad: 3
    kernel_size: 7
    group: 1
    stride: 1
    weight_filler {
      type: "gaussian"
      std: 0.01
    }
    bias_filler {
      type: "constant"
      value: 0
    }
  }
}
layer {
  name: "ReLU1"
  type: "ReLU"
  bottom: "Convolution1"
  top: "Convolution1"
}
layer {
  name: "pool0"
  type: "Pooling"
  bottom: "Convolution1"
  top: "Pooling1"
  pooling_param {
    pool: MAX
    kernel_size: 3
    stride: 2
  }
}
layer {
  name: "conv1"
  type: "Convolution"
  bottom: "Pooling1"
  top: "Convolution2"
  param {
    lr_mult: 1
    decay_mult: 1
  }
  param {
    lr_mult: 2
    decay_mult: 0
  }
  convolution_param {
    num_output: 64
    pad: 2
    kernel_size: 5
    group: 1
    stride: 1
    weight_filler {
      type: "gaussian"
      std: 0.01
    }
    bias_filler {
      type: "constant"
      value: 0
    }
  }
}
layer {
  name: "ReLU2"
  type: "ReLU"
  bottom: "Convolution2"
  top: "Convolution2"
}
layer {
  name: "pool1"
  type: "Pooling"
  bottom: "Convolution2"
  top: "Pooling2"
  pooling_param {
    pool: MAX
    kernel_size: 3
    stride: 2
  }
}
layer {
  name: "conv2"
  type: "Convolution"
  bottom: "Pooling2"
  top: "Convolution3"
  param {
    lr_mult: 1
    decay_mult: 1
  }
  param {
    lr_mult: 2
    decay_mult: 0
  }
  convolution_param {
    num_output: 96
    pad: 1
    kernel_size: 3
    group: 1
    stride: 1
    weight_filler {
      type: "gaussian"
      std: 0.01
    }
    bias_filler {
      type: "constant"
      value: 0
    }
  }
}
layer {
  name: "ReLU3"
  type: "ReLU"
  bottom: "Convolution3"
  top: "Convolution3"
}
layer {
  name: "conv3"
  type: "Convolution"
  bottom: "Convolution3"
  top: "Convolution4"
  param {
    lr_mult: 1
    decay_mult: 1
  }
  param {
    lr_mult: 2
    decay_mult: 0
  }
  convolution_param {
    num_output: 96
    pad: 1
    kernel_size: 3
    group: 1
    stride: 1
    weight_filler {
      type: "gaussian"
      std: 0.01
    }
    bias_filler {
      type: "constant"
      value: 0
    }
  }
}
layer {
  name: "ReLU4"
  type: "ReLU"
  bottom: "Convolution4"
  top: "Convolution4"
}
layer {
  name: "conv4"
  type: "Convolution"
  bottom: "Convolution4"
  top: "Convolution5"
  param {
    lr_mult: 1
    decay_mult: 1
  }
  param {
    lr_mult: 2
    decay_mult: 0
  }
  convolution_param {
    num_output: 64
    pad: 1
    kernel_size: 3
    group: 1
    stride: 1
    weight_filler {
      type: "gaussian"
      std: 0.01
    }
    bias_filler {
      type: "constant"
      value: 0
    }
  }
}
layer {
  name: "ReLU5"
  type: "ReLU"
  bottom: "Convolution5"
  top: "Convolution5"
}
layer {
  name: "pool4"
  type: "Pooling"
  bottom: "Convolution5"
  top: "Pooling3"
  pooling_param {
    pool: MAX
    kernel_size: 3
    stride: 2
  }
}
layer {
  name: "conv0"
  type: "Convolution"
  bottom: "p2"
  top: "Convolution6"
  param {
    lr_mult: 1
    decay_mult: 1
  }
  param {
    lr_mult: 2
    decay_mult: 0
  }
  convolution_param {
    num_output: 24
    pad: 3
    kernel_size: 7
    group: 1
    stride: 1
    weight_filler {
      type: "gaussian"
      std: 0.01
    }
    bias_filler {
      type: "constant"
      value: 0
    }
  }
}
layer {
  name: "ReLU6"
  type: "ReLU"
  bottom: "Convolution6"
  top: "Convolution6"
}
layer {
  name: "pool0"
  type: "Pooling"
  bottom: "Convolution6"
  top: "Pooling4"
  pooling_param {
    pool: MAX
    kernel_size: 3
    stride: 2
  }
}
layer {
  name: "conv1"
  type: "Convolution"
  bottom: "Pooling4"
  top: "Convolution7"
  param {
    lr_mult: 1
    decay_mult: 1
  }
  param {
    lr_mult: 2
    decay_mult: 0
  }
  convolution_param {
    num_output: 64
    pad: 2
    kernel_size: 5
    group: 1
    stride: 1
    weight_filler {
      type: "gaussian"
      std: 0.01
    }
    bias_filler {
      type: "constant"
      value: 0
    }
  }
}
layer {
  name: "ReLU7"
  type: "ReLU"
  bottom: "Convolution7"
  top: "Convolution7"
}
layer {
  name: "pool1"
  type: "Pooling"
  bottom: "Convolution7"
  top: "Pooling5"
  pooling_param {
    pool: MAX
    kernel_size: 3
    stride: 2
  }
}
layer {
  name: "conv2"
  type: "Convolution"
  bottom: "Pooling5"
  top: "Convolution8"
  param {
    lr_mult: 1
    decay_mult: 1
  }
  param {
    lr_mult: 2
    decay_mult: 0
  }
  convolution_param {
    num_output: 96
    pad: 1
    kernel_size: 3
    group: 1
    stride: 1
    weight_filler {
      type: "gaussian"
      std: 0.01
    }
    bias_filler {
      type: "constant"
      value: 0
    }
  }
}
layer {
  name: "ReLU8"
  type: "ReLU"
  bottom: "Convolution8"
  top: "Convolution8"
}
layer {
  name: "conv3"
  type: "Convolution"
  bottom: "Convolution8"
  top: "Convolution9"
  param {
    lr_mult: 1
    decay_mult: 1
  }
  param {
    lr_mult: 2
    decay_mult: 0
  }
  convolution_param {
    num_output: 96
    pad: 1
    kernel_size: 3
    group: 1
    stride: 1
    weight_filler {
      type: "gaussian"
      std: 0.01
    }
    bias_filler {
      type: "constant"
      value: 0
    }
  }
}
layer {
  name: "ReLU9"
  type: "ReLU"
  bottom: "Convolution9"
  top: "Convolution9"
}
layer {
  name: "conv4"
  type: "Convolution"
  bottom: "Convolution9"
  top: "Convolution10"
  param {
    lr_mult: 1
    decay_mult: 1
  }
  param {
    lr_mult: 2
    decay_mult: 0
  }
  convolution_param {
    num_output: 64
    pad: 1
    kernel_size: 3
    group: 1
    stride: 1
    weight_filler {
      type: "gaussian"
      std: 0.01
    }
    bias_filler {
      type: "constant"
      value: 0
    }
  }
}
layer {
  name: "ReLU10"
  type: "ReLU"
  bottom: "Convolution10"
  top: "Convolution10"
}
layer {
  name: "pool4"
  type: "Pooling"
  bottom: "Convolution10"
  top: "Pooling6"
  pooling_param {
    pool: MAX
    kernel_size: 3
    stride: 2
  }
}
layer {
  name: "Concat1"
  type: "Concat"
  bottom: "Pooling3"
  bottom: "Pooling6"
  top: "Concat1"
  concat_param {
    axis: 1
  }
}
layer {
  name: "InnerProduct1"
  type: "InnerProduct"
  bottom: "Concat1"
  top: "InnerProduct1"
  param {
    name: "fc1_w"
    lr_mult: 1
  }
  param {
    name: "fc1_b"
    lr_mult: 2
  }
  inner_product_param {
    num_output: 128
    weight_filler {
      type: "xavier"
    }
    bias_filler {
      type: "constant"
    }
  }
}
layer {
  name: "ReLU11"
  type: "ReLU"
  bottom: "InnerProduct1"
  top: "InnerProduct1"
}
layer {
  name: "InnerProduct2"
  type: "InnerProduct"
  bottom: "InnerProduct1"
  top: "InnerProduct2"
  param {
    name: "fc2_w"
    lr_mult: 1
  }
  param {
    name: "fc2_b"
    lr_mult: 2
  }
  inner_product_param {
    num_output: 128
    weight_filler {
      type: "xavier"
    }
    bias_filler {
      type: "constant"
    }
  }
}
layer {
  name: "ReLU12"
  type: "ReLU"
  bottom: "InnerProduct2"
  top: "InnerProduct2"
}
layer {
  name: "dt0"
  type: "InnerProduct"
  bottom: "InnerProduct2"
  top: "dt0"
  param {
    name: "fc3_w"
    lr_mult: 1
  }
  param {
    name: "fc3_b"
    lr_mult: 2
  }
  inner_product_param {
    num_output: 1
    weight_filler {
      type: "xavier"
    }
    bias_filler {
      type: "constant"
    }
  }
}
layer {
  name: "conv0"
  type: "Convolution"
  bottom: "p1"
  top: "Convolution11"
  param {
    lr_mult: 1
    decay_mult: 1
  }
  param {
    lr_mult: 2
    decay_mult: 0
  }
  convolution_param {
    num_output: 24
    pad: 3
    kernel_size: 7
    group: 1
    stride: 1
    weight_filler {
      type: "gaussian"
      std: 0.01
    }
    bias_filler {
      type: "constant"
      value: 0
    }
  }
}
layer {
  name: "ReLU13"
  type: "ReLU"
  bottom: "Convolution11"
  top: "Convolution11"
}
layer {
  name: "pool0"
  type: "Pooling"
  bottom: "Convolution11"
  top: "Pooling7"
  pooling_param {
    pool: MAX
    kernel_size: 3
    stride: 2
  }
}
layer {
  name: "conv1"
  type: "Convolution"
  bottom: "Pooling7"
  top: "Convolution12"
  param {
    lr_mult: 1
    decay_mult: 1
  }
  param {
    lr_mult: 2
    decay_mult: 0
  }
  convolution_param {
    num_output: 64
    pad: 2
    kernel_size: 5
    group: 1
    stride: 1
    weight_filler {
      type: "gaussian"
      std: 0.01
    }
    bias_filler {
      type: "constant"
      value: 0
    }
  }
}
layer {
  name: "ReLU14"
  type: "ReLU"
  bottom: "Convolution12"
  top: "Convolution12"
}
layer {
  name: "pool1"
  type: "Pooling"
  bottom: "Convolution12"
  top: "Pooling8"
  pooling_param {
    pool: MAX
    kernel_size: 3
    stride: 2
  }
}
layer {
  name: "conv2"
  type: "Convolution"
  bottom: "Pooling8"
  top: "Convolution13"
  param {
    lr_mult: 1
    decay_mult: 1
  }
  param {
    lr_mult: 2
    decay_mult: 0
  }
  convolution_param {
    num_output: 96
    pad: 1
    kernel_size: 3
    group: 1
    stride: 1
    weight_filler {
      type: "gaussian"
      std: 0.01
    }
    bias_filler {
      type: "constant"
      value: 0
    }
  }
}
layer {
  name: "ReLU15"
  type: "ReLU"
  bottom: "Convolution13"
  top: "Convolution13"
}
layer {
  name: "conv3"
  type: "Convolution"
  bottom: "Convolution13"
  top: "Convolution14"
  param {
    lr_mult: 1
    decay_mult: 1
  }
  param {
    lr_mult: 2
    decay_mult: 0
  }
  convolution_param {
    num_output: 96
    pad: 1
    kernel_size: 3
    group: 1
    stride: 1
    weight_filler {
      type: "gaussian"
      std: 0.01
    }
    bias_filler {
      type: "constant"
      value: 0
    }
  }
}
layer {
  name: "ReLU16"
  type: "ReLU"
  bottom: "Convolution14"
  top: "Convolution14"
}
layer {
  name: "conv4"
  type: "Convolution"
  bottom: "Convolution14"
  top: "Convolution15"
  param {
    lr_mult: 1
    decay_mult: 1
  }
  param {
    lr_mult: 2
    decay_mult: 0
  }
  convolution_param {
    num_output: 64
    pad: 1
    kernel_size: 3
    group: 1
    stride: 1
    weight_filler {
      type: "gaussian"
      std: 0.01
    }
    bias_filler {
      type: "constant"
      value: 0
    }
  }
}
layer {
  name: "ReLU17"
  type: "ReLU"
  bottom: "Convolution15"
  top: "Convolution15"
}
layer {
  name: "pool4"
  type: "Pooling"
  bottom: "Convolution15"
  top: "Pooling9"
  pooling_param {
    pool: MAX
    kernel_size: 3
    stride: 2
  }
}
layer {
  name: "conv0"
  type: "Convolution"
  bottom: "c21"
  top: "Convolution16"
  param {
    lr_mult: 1
    decay_mult: 1
  }
  param {
    lr_mult: 2
    decay_mult: 0
  }
  convolution_param {
    num_output: 24
    pad: 3
    kernel_size: 7
    group: 1
    stride: 1
    weight_filler {
      type: "gaussian"
      std: 0.01
    }
    bias_filler {
      type: "constant"
      value: 0
    }
  }
}
layer {
  name: "ReLU18"
  type: "ReLU"
  bottom: "Convolution16"
  top: "Convolution16"
}
layer {
  name: "pool0"
  type: "Pooling"
  bottom: "Convolution16"
  top: "Pooling10"
  pooling_param {
    pool: MAX
    kernel_size: 3
    stride: 2
  }
}
layer {
  name: "conv1"
  type: "Convolution"
  bottom: "Pooling10"
  top: "Convolution17"
  param {
    lr_mult: 1
    decay_mult: 1
  }
  param {
    lr_mult: 2
    decay_mult: 0
  }
  convolution_param {
    num_output: 64
    pad: 2
    kernel_size: 5
    group: 1
    stride: 1
    weight_filler {
      type: "gaussian"
      std: 0.01
    }
    bias_filler {
      type: "constant"
      value: 0
    }
  }
}
layer {
  name: "ReLU19"
  type: "ReLU"
  bottom: "Convolution17"
  top: "Convolution17"
}
layer {
  name: "pool1"
  type: "Pooling"
  bottom: "Convolution17"
  top: "Pooling11"
  pooling_param {
    pool: MAX
    kernel_size: 3
    stride: 2
  }
}
layer {
  name: "conv2"
  type: "Convolution"
  bottom: "Pooling11"
  top: "Convolution18"
  param {
    lr_mult: 1
    decay_mult: 1
  }
  param {
    lr_mult: 2
    decay_mult: 0
  }
  convolution_param {
    num_output: 96
    pad: 1
    kernel_size: 3
    group: 1
    stride: 1
    weight_filler {
      type: "gaussian"
      std: 0.01
    }
    bias_filler {
      type: "constant"
      value: 0
    }
  }
}
layer {
  name: "ReLU20"
  type: "ReLU"
  bottom: "Convolution18"
  top: "Convolution18"
}
layer {
  name: "conv3"
  type: "Convolution"
  bottom: "Convolution18"
  top: "Convolution19"
  param {
    lr_mult: 1
    decay_mult: 1
  }
  param {
    lr_mult: 2
    decay_mult: 0
  }
  convolution_param {
    num_output: 96
    pad: 1
    kernel_size: 3
    group: 1
    stride: 1
    weight_filler {
      type: "gaussian"
      std: 0.01
    }
    bias_filler {
      type: "constant"
      value: 0
    }
  }
}
layer {
  name: "ReLU21"
  type: "ReLU"
  bottom: "Convolution19"
  top: "Convolution19"
}
layer {
  name: "conv4"
  type: "Convolution"
  bottom: "Convolution19"
  top: "Convolution20"
  param {
    lr_mult: 1
    decay_mult: 1
  }
  param {
    lr_mult: 2
    decay_mult: 0
  }
  convolution_param {
    num_output: 64
    pad: 1
    kernel_size: 3
    group: 1
    stride: 1
    weight_filler {
      type: "gaussian"
      std: 0.01
    }
    bias_filler {
      type: "constant"
      value: 0
    }
  }
}
layer {
  name: "ReLU22"
  type: "ReLU"
  bottom: "Convolution20"
  top: "Convolution20"
}
layer {
  name: "pool4"
  type: "Pooling"
  bottom: "Convolution20"
  top: "Pooling12"
  pooling_param {
    pool: MAX
    kernel_size: 3
    stride: 2
  }
}
layer {
  name: "Concat2"
  type: "Concat"
  bottom: "Pooling9"
  bottom: "Pooling12"
  top: "Concat2"
  concat_param {
    axis: 1
  }
}
layer {
  name: "InnerProduct3"
  type: "InnerProduct"
  bottom: "Concat2"
  top: "InnerProduct3"
  param {
    name: "fc1_w"
    lr_mult: 1
  }
  param {
    name: "fc1_b"
    lr_mult: 2
  }
  inner_product_param {
    num_output: 128
    weight_filler {
      type: "xavier"
    }
    bias_filler {
      type: "constant"
    }
  }
}
layer {
  name: "ReLU23"
  type: "ReLU"
  bottom: "InnerProduct3"
  top: "InnerProduct3"
}
layer {
  name: "InnerProduct4"
  type: "InnerProduct"
  bottom: "InnerProduct3"
  top: "InnerProduct4"
  param {
    name: "fc2_w"
    lr_mult: 1
  }
  param {
    name: "fc2_b"
    lr_mult: 2
  }
  inner_product_param {
    num_output: 128
    weight_filler {
      type: "xavier"
    }
    bias_filler {
      type: "constant"
    }
  }
}
layer {
  name: "ReLU24"
  type: "ReLU"
  bottom: "InnerProduct4"
  top: "InnerProduct4"
}
layer {
  name: "dt1"
  type: "InnerProduct"
  bottom: "InnerProduct4"
  top: "dt1"
  param {
    name: "fc3_w"
    lr_mult: 1
  }
  param {
    name: "fc3_b"
    lr_mult: 2
  }
  inner_product_param {
    num_output: 1
    weight_filler {
      type: "xavier"
    }
    bias_filler {
      type: "constant"
    }
  }
}
layer {
  name: "conv0"
  type: "Convolution"
  bottom: "p1"
  top: "Convolution21"
  param {
    lr_mult: 1
    decay_mult: 1
  }
  param {
    lr_mult: 2
    decay_mult: 0
  }
  convolution_param {
    num_output: 24
    pad: 3
    kernel_size: 7
    group: 1
    stride: 1
    weight_filler {
      type: "gaussian"
      std: 0.01
    }
    bias_filler {
      type: "constant"
      value: 0
    }
  }
}
layer {
  name: "ReLU25"
  type: "ReLU"
  bottom: "Convolution21"
  top: "Convolution21"
}
layer {
  name: "pool0"
  type: "Pooling"
  bottom: "Convolution21"
  top: "Pooling13"
  pooling_param {
    pool: MAX
    kernel_size: 3
    stride: 2
  }
}
layer {
  name: "conv1"
  type: "Convolution"
  bottom: "Pooling13"
  top: "Convolution22"
  param {
    lr_mult: 1
    decay_mult: 1
  }
  param {
    lr_mult: 2
    decay_mult: 0
  }
  convolution_param {
    num_output: 64
    pad: 2
    kernel_size: 5
    group: 1
    stride: 1
    weight_filler {
      type: "gaussian"
      std: 0.01
    }
    bias_filler {
      type: "constant"
      value: 0
    }
  }
}
layer {
  name: "ReLU26"
  type: "ReLU"
  bottom: "Convolution22"
  top: "Convolution22"
}
layer {
  name: "pool1"
  type: "Pooling"
  bottom: "Convolution22"
  top: "Pooling14"
  pooling_param {
    pool: MAX
    kernel_size: 3
    stride: 2
  }
}
layer {
  name: "conv2"
  type: "Convolution"
  bottom: "Pooling14"
  top: "Convolution23"
  param {
    lr_mult: 1
    decay_mult: 1
  }
  param {
    lr_mult: 2
    decay_mult: 0
  }
  convolution_param {
    num_output: 96
    pad: 1
    kernel_size: 3
    group: 1
    stride: 1
    weight_filler {
      type: "gaussian"
      std: 0.01
    }
    bias_filler {
      type: "constant"
      value: 0
    }
  }
}
layer {
  name: "ReLU27"
  type: "ReLU"
  bottom: "Convolution23"
  top: "Convolution23"
}
layer {
  name: "conv3"
  type: "Convolution"
  bottom: "Convolution23"
  top: "Convolution24"
  param {
    lr_mult: 1
    decay_mult: 1
  }
  param {
    lr_mult: 2
    decay_mult: 0
  }
  convolution_param {
    num_output: 96
    pad: 1
    kernel_size: 3
    group: 1
    stride: 1
    weight_filler {
      type: "gaussian"
      std: 0.01
    }
    bias_filler {
      type: "constant"
      value: 0
    }
  }
}
layer {
  name: "ReLU28"
  type: "ReLU"
  bottom: "Convolution24"
  top: "Convolution24"
}
layer {
  name: "conv4"
  type: "Convolution"
  bottom: "Convolution24"
  top: "Convolution25"
  param {
    lr_mult: 1
    decay_mult: 1
  }
  param {
    lr_mult: 2
    decay_mult: 0
  }
  convolution_param {
    num_output: 64
    pad: 1
    kernel_size: 3
    group: 1
    stride: 1
    weight_filler {
      type: "gaussian"
      std: 0.01
    }
    bias_filler {
      type: "constant"
      value: 0
    }
  }
}
layer {
  name: "ReLU29"
  type: "ReLU"
  bottom: "Convolution25"
  top: "Convolution25"
}
layer {
  name: "pool4"
  type: "Pooling"
  bottom: "Convolution25"
  top: "Pooling15"
  pooling_param {
    pool: MAX
    kernel_size: 3
    stride: 2
  }
}
layer {
  name: "conv0"
  type: "Convolution"
  bottom: "c22"
  top: "Convolution26"
  param {
    lr_mult: 1
    decay_mult: 1
  }
  param {
    lr_mult: 2
    decay_mult: 0
  }
  convolution_param {
    num_output: 24
    pad: 3
    kernel_size: 7
    group: 1
    stride: 1
    weight_filler {
      type: "gaussian"
      std: 0.01
    }
    bias_filler {
      type: "constant"
      value: 0
    }
  }
}
layer {
  name: "ReLU30"
  type: "ReLU"
  bottom: "Convolution26"
  top: "Convolution26"
}
layer {
  name: "pool0"
  type: "Pooling"
  bottom: "Convolution26"
  top: "Pooling16"
  pooling_param {
    pool: MAX
    kernel_size: 3
    stride: 2
  }
}
layer {
  name: "conv1"
  type: "Convolution"
  bottom: "Pooling16"
  top: "Convolution27"
  param {
    lr_mult: 1
    decay_mult: 1
  }
  param {
    lr_mult: 2
    decay_mult: 0
  }
  convolution_param {
    num_output: 64
    pad: 2
    kernel_size: 5
    group: 1
    stride: 1
    weight_filler {
      type: "gaussian"
      std: 0.01
    }
    bias_filler {
      type: "constant"
      value: 0
    }
  }
}
layer {
  name: "ReLU31"
  type: "ReLU"
  bottom: "Convolution27"
  top: "Convolution27"
}
layer {
  name: "pool1"
  type: "Pooling"
  bottom: "Convolution27"
  top: "Pooling17"
  pooling_param {
    pool: MAX
    kernel_size: 3
    stride: 2
  }
}
layer {
  name: "conv2"
  type: "Convolution"
  bottom: "Pooling17"
  top: "Convolution28"
  param {
    lr_mult: 1
    decay_mult: 1
  }
  param {
    lr_mult: 2
    decay_mult: 0
  }
  convolution_param {
    num_output: 96
    pad: 1
    kernel_size: 3
    group: 1
    stride: 1
    weight_filler {
      type: "gaussian"
      std: 0.01
    }
    bias_filler {
      type: "constant"
      value: 0
    }
  }
}
layer {
  name: "ReLU32"
  type: "ReLU"
  bottom: "Convolution28"
  top: "Convolution28"
}
layer {
  name: "conv3"
  type: "Convolution"
  bottom: "Convolution28"
  top: "Convolution29"
  param {
    lr_mult: 1
    decay_mult: 1
  }
  param {
    lr_mult: 2
    decay_mult: 0
  }
  convolution_param {
    num_output: 96
    pad: 1
    kernel_size: 3
    group: 1
    stride: 1
    weight_filler {
      type: "gaussian"
      std: 0.01
    }
    bias_filler {
      type: "constant"
      value: 0
    }
  }
}
layer {
  name: "ReLU33"
  type: "ReLU"
  bottom: "Convolution29"
  top: "Convolution29"
}
layer {
  name: "conv4"
  type: "Convolution"
  bottom: "Convolution29"
  top: "Convolution30"
  param {
    lr_mult: 1
    decay_mult: 1
  }
  param {
    lr_mult: 2
    decay_mult: 0
  }
  convolution_param {
    num_output: 64
    pad: 1
    kernel_size: 3
    group: 1
    stride: 1
    weight_filler {
      type: "gaussian"
      std: 0.01
    }
    bias_filler {
      type: "constant"
      value: 0
    }
  }
}
layer {
  name: "ReLU34"
  type: "ReLU"
  bottom: "Convolution30"
  top: "Convolution30"
}
layer {
  name: "pool4"
  type: "Pooling"
  bottom: "Convolution30"
  top: "Pooling18"
  pooling_param {
    pool: MAX
    kernel_size: 3
    stride: 2
  }
}
layer {
  name: "Concat3"
  type: "Concat"
  bottom: "Pooling15"
  bottom: "Pooling18"
  top: "Concat3"
  concat_param {
    axis: 1
  }
}
layer {
  name: "InnerProduct5"
  type: "InnerProduct"
  bottom: "Concat3"
  top: "InnerProduct5"
  param {
    name: "fc1_w"
    lr_mult: 1
  }
  param {
    name: "fc1_b"
    lr_mult: 2
  }
  inner_product_param {
    num_output: 128
    weight_filler {
      type: "xavier"
    }
    bias_filler {
      type: "constant"
    }
  }
}
layer {
  name: "ReLU35"
  type: "ReLU"
  bottom: "InnerProduct5"
  top: "InnerProduct5"
}
layer {
  name: "InnerProduct6"
  type: "InnerProduct"
  bottom: "InnerProduct5"
  top: "InnerProduct6"
  param {
    name: "fc2_w"
    lr_mult: 1
  }
  param {
    name: "fc2_b"
    lr_mult: 2
  }
  inner_product_param {
    num_output: 128
    weight_filler {
      type: "xavier"
    }
    bias_filler {
      type: "constant"
    }
  }
}
layer {
  name: "ReLU36"
  type: "ReLU"
  bottom: "InnerProduct6"
  top: "InnerProduct6"
}
layer {
  name: "dt2"
  type: "InnerProduct"
  bottom: "InnerProduct6"
  top: "dt2"
  param {
    name: "fc3_w"
    lr_mult: 1
  }
  param {
    name: "fc3_b"
    lr_mult: 2
  }
  inner_product_param {
    num_output: 1
    weight_filler {
      type: "xavier"
    }
    bias_filler {
      type: "constant"
    }
  }
}
layer {
  name: "conv0"
  type: "Convolution"
  bottom: "p1"
  top: "Convolution31"
  param {
    lr_mult: 1
    decay_mult: 1
  }
  param {
    lr_mult: 2
    decay_mult: 0
  }
  convolution_param {
    num_output: 24
    pad: 3
    kernel_size: 7
    group: 1
    stride: 1
    weight_filler {
      type: "gaussian"
      std: 0.01
    }
    bias_filler {
      type: "constant"
      value: 0
    }
  }
}
layer {
  name: "ReLU37"
  type: "ReLU"
  bottom: "Convolution31"
  top: "Convolution31"
}
layer {
  name: "pool0"
  type: "Pooling"
  bottom: "Convolution31"
  top: "Pooling19"
  pooling_param {
    pool: MAX
    kernel_size: 3
    stride: 2
  }
}
layer {
  name: "conv1"
  type: "Convolution"
  bottom: "Pooling19"
  top: "Convolution32"
  param {
    lr_mult: 1
    decay_mult: 1
  }
  param {
    lr_mult: 2
    decay_mult: 0
  }
  convolution_param {
    num_output: 64
    pad: 2
    kernel_size: 5
    group: 1
    stride: 1
    weight_filler {
      type: "gaussian"
      std: 0.01
    }
    bias_filler {
      type: "constant"
      value: 0
    }
  }
}
layer {
  name: "ReLU38"
  type: "ReLU"
  bo
I0805 09:38:13.079586 15979 layer_factory.hpp:77] Creating layer data
I0805 09:38:13.081197 15979 net.cpp:91] Creating Layer data
I0805 09:38:13.081212 15979 net.cpp:399] data -> data
I0805 09:38:13.081228 15979 net.cpp:399] data -> label
I0805 09:38:13.081245 15979 data_transformer.cpp:25] Loading mean file from: examples/scene/scene_mean.binaryproto
I0805 09:38:13.100682 16156 db_lmdb.cpp:35] Opened lmdb examples/scene/scene_test_pairs.lmdb
I0805 09:38:13.162050 15979 data_layer.cpp:41] output data size: 64,6,128,128
I0805 09:38:13.244510 15979 net.cpp:141] Setting up data
I0805 09:38:13.244730 15979 net.cpp:148] Top shape: 64 6 128 128 (6291456)
I0805 09:38:13.244848 15979 net.cpp:148] Top shape: 64 (64)
I0805 09:38:13.244961 15979 net.cpp:156] Memory required for data: 25166080
I0805 09:38:13.245075 15979 layer_factory.hpp:77] Creating layer label_data_1_split
I0805 09:38:13.245203 15979 net.cpp:91] Creating Layer label_data_1_split
I0805 09:38:13.245317 15979 net.cpp:425] label_data_1_split <- label
I0805 09:38:13.245432 15979 net.cpp:399] label_data_1_split -> label_data_1_split_0
I0805 09:38:13.245553 15979 net.cpp:399] label_data_1_split -> label_data_1_split_1
I0805 09:38:13.245729 15979 net.cpp:141] Setting up label_data_1_split
I0805 09:38:13.245847 15979 net.cpp:148] Top shape: 64 (64)
I0805 09:38:13.245961 15979 net.cpp:148] Top shape: 64 (64)
I0805 09:38:13.246074 15979 net.cpp:156] Memory required for data: 25166592
I0805 09:38:13.246189 15979 layer_factory.hpp:77] Creating layer th
I0805 09:38:13.246316 15979 net.cpp:91] Creating Layer th
I0805 09:38:13.246611 15979 net.cpp:425] th <- label_data_1_split_0
I0805 09:38:13.246738 15979 net.cpp:399] th -> th
I0805 09:38:13.246896 15979 net.cpp:141] Setting up th
I0805 09:38:13.247031 15979 net.cpp:148] Top shape: 64 (64)
I0805 09:38:13.247201 15979 net.cpp:156] Memory required for data: 25166848
I0805 09:38:13.247396 15979 layer_factory.hpp:77] Creating layer th_th_0_split
I0805 09:38:13.247501 15979 net.cpp:91] Creating Layer th_th_0_split
I0805 09:38:13.247598 15979 net.cpp:425] th_th_0_split <- th
I0805 09:38:13.247706 15979 net.cpp:399] th_th_0_split -> th_th_0_split_0
I0805 09:38:13.247822 15979 net.cpp:399] th_th_0_split -> th_th_0_split_1
I0805 09:38:13.252131 15979 net.cpp:141] Setting up th_th_0_split
I0805 09:38:13.252156 15979 net.cpp:148] Top shape: 64 (64)
I0805 09:38:13.252166 15979 net.cpp:148] Top shape: 64 (64)
I0805 09:38:13.252172 15979 net.cpp:156] Memory required for data: 25167360
I0805 09:38:13.252179 15979 layer_factory.hpp:77] Creating layer i1
I0805 09:38:13.252202 15979 net.cpp:91] Creating Layer i1
I0805 09:38:13.252210 15979 net.cpp:425] i1 <- data
I0805 09:38:13.252221 15979 net.cpp:399] i1 -> i1
I0805 09:38:13.252235 15979 net.cpp:399] i1 -> i2
I0805 09:38:13.252291 15979 net.cpp:141] Setting up i1
I0805 09:38:13.252301 15979 net.cpp:148] Top shape: 64 3 128 128 (3145728)
I0805 09:38:13.252310 15979 net.cpp:148] Top shape: 64 3 128 128 (3145728)
I0805 09:38:13.252316 15979 net.cpp:156] Memory required for data: 50333184
I0805 09:38:13.252322 15979 layer_factory.hpp:77] Creating layer i1_i1_0_split
I0805 09:38:13.252333 15979 net.cpp:91] Creating Layer i1_i1_0_split
I0805 09:38:13.252341 15979 net.cpp:425] i1_i1_0_split <- i1
I0805 09:38:13.252351 15979 net.cpp:399] i1_i1_0_split -> i1_i1_0_split_0
I0805 09:38:13.252362 15979 net.cpp:399] i1_i1_0_split -> i1_i1_0_split_1
I0805 09:38:13.252374 15979 net.cpp:399] i1_i1_0_split -> i1_i1_0_split_2
I0805 09:38:13.252388 15979 net.cpp:399] i1_i1_0_split -> i1_i1_0_split_3
I0805 09:38:13.252398 15979 net.cpp:399] i1_i1_0_split -> i1_i1_0_split_4
I0805 09:38:13.252411 15979 net.cpp:399] i1_i1_0_split -> i1_i1_0_split_5
I0805 09:38:13.252423 15979 net.cpp:399] i1_i1_0_split -> i1_i1_0_split_6
I0805 09:38:13.252434 15979 net.cpp:399] i1_i1_0_split -> i1_i1_0_split_7
I0805 09:38:13.252447 15979 net.cpp:399] i1_i1_0_split -> i1_i1_0_split_8
I0805 09:38:13.252459 15979 net.cpp:399] i1_i1_0_split -> i1_i1_0_split_9
I0805 09:38:13.252650 15979 net.cpp:141] Setting up i1_i1_0_split
I0805 09:38:13.252660 15979 net.cpp:148] Top shape: 64 3 128 128 (3145728)
I0805 09:38:13.252668 15979 net.cpp:148] Top shape: 64 3 128 128 (3145728)
I0805 09:38:13.252677 15979 net.cpp:148] Top shape: 64 3 128 128 (3145728)
I0805 09:38:13.252686 15979 net.cpp:148] Top shape: 64 3 128 128 (3145728)
I0805 09:38:13.252694 15979 net.cpp:148] Top shape: 64 3 128 128 (3145728)
I0805 09:38:13.252703 15979 net.cpp:148] Top shape: 64 3 128 128 (3145728)
I0805 09:38:13.252712 15979 net.cpp:148] Top shape: 64 3 128 128 (3145728)
I0805 09:38:13.252722 15979 net.cpp:148] Top shape: 64 3 128 128 (3145728)
I0805 09:38:13.252730 15979 net.cpp:148] Top shape: 64 3 128 128 (3145728)
I0805 09:38:13.252738 15979 net.cpp:148] Top shape: 64 3 128 128 (3145728)
I0805 09:38:13.252745 15979 net.cpp:156] Memory required for data: 176162304
I0805 09:38:13.252753 15979 layer_factory.hpp:77] Creating layer i2_i1_1_split
I0805 09:38:13.252763 15979 net.cpp:91] Creating Layer i2_i1_1_split
I0805 09:38:13.252769 15979 net.cpp:425] i2_i1_1_split <- i2
I0805 09:38:13.252779 15979 net.cpp:399] i2_i1_1_split -> i2_i1_1_split_0
I0805 09:38:13.252791 15979 net.cpp:399] i2_i1_1_split -> i2_i1_1_split_1
I0805 09:38:13.252804 15979 net.cpp:399] i2_i1_1_split -> i2_i1_1_split_2
I0805 09:38:13.252817 15979 net.cpp:399] i2_i1_1_split -> i2_i1_1_split_3
I0805 09:38:13.252828 15979 net.cpp:399] i2_i1_1_split -> i2_i1_1_split_4
I0805 09:38:13.252840 15979 net.cpp:399] i2_i1_1_split -> i2_i1_1_split_5
I0805 09:38:13.252852 15979 net.cpp:399] i2_i1_1_split -> i2_i1_1_split_6
I0805 09:38:13.252864 15979 net.cpp:399] i2_i1_1_split -> i2_i1_1_split_7
I0805 09:38:13.252876 15979 net.cpp:399] i2_i1_1_split -> i2_i1_1_split_8
I0805 09:38:13.252887 15979 net.cpp:399] i2_i1_1_split -> i2_i1_1_split_9
I0805 09:38:13.253084 15979 net.cpp:141] Setting up i2_i1_1_split
I0805 09:38:13.253094 15979 net.cpp:148] Top shape: 64 3 128 128 (3145728)
I0805 09:38:13.253103 15979 net.cpp:148] Top shape: 64 3 128 128 (3145728)
I0805 09:38:13.253111 15979 net.cpp:148] Top shape: 64 3 128 128 (3145728)
I0805 09:38:13.253119 15979 net.cpp:148] Top shape: 64 3 128 128 (3145728)
I0805 09:38:13.253129 15979 net.cpp:148] Top shape: 64 3 128 128 (3145728)
I0805 09:38:13.253136 15979 net.cpp:148] Top shape: 64 3 128 128 (3145728)
I0805 09:38:13.253144 15979 net.cpp:148] Top shape: 64 3 128 128 (3145728)
I0805 09:38:13.253152 15979 net.cpp:148] Top shape: 64 3 128 128 (3145728)
I0805 09:38:13.253161 15979 net.cpp:148] Top shape: 64 3 128 128 (3145728)
I0805 09:38:13.253170 15979 net.cpp:148] Top shape: 64 3 128 128 (3145728)
I0805 09:38:13.253175 15979 net.cpp:156] Memory required for data: 301991424
I0805 09:38:13.253181 15979 layer_factory.hpp:77] Creating layer p1
I0805 09:38:13.253192 15979 net.cpp:91] Creating Layer p1
I0805 09:38:13.253201 15979 net.cpp:425] p1 <- i1_i1_0_split_0
I0805 09:38:13.253209 15979 net.cpp:399] p1 -> p1
I0805 09:38:13.253249 15979 net.cpp:141] Setting up p1
I0805 09:38:13.253258 15979 net.cpp:148] Top shape: 64 3 64 64 (786432)
I0805 09:38:13.253265 15979 net.cpp:156] Memory required for data: 305137152
I0805 09:38:13.253271 15979 layer_factory.hpp:77] Creating layer p1_p1_0_split
I0805 09:38:13.253283 15979 net.cpp:91] Creating Layer p1_p1_0_split
I0805 09:38:13.253289 15979 net.cpp:425] p1_p1_0_split <- p1
I0805 09:38:13.253299 15979 net.cpp:399] p1_p1_0_split -> p1_p1_0_split_0
I0805 09:38:13.253311 15979 net.cpp:399] p1_p1_0_split -> p1_p1_0_split_1
I0805 09:38:13.253324 15979 net.cpp:399] p1_p1_0_split -> p1_p1_0_split_2
I0805 09:38:13.253340 15979 net.cpp:399] p1_p1_0_split -> p1_p1_0_split_3
I0805 09:38:13.253352 15979 net.cpp:399] p1_p1_0_split -> p1_p1_0_split_4
I0805 09:38:13.253365 15979 net.cpp:399] p1_p1_0_split -> p1_p1_0_split_5
I0805 09:38:13.253376 15979 net.cpp:399] p1_p1_0_split -> p1_p1_0_split_6
I0805 09:38:13.253388 15979 net.cpp:399] p1_p1_0_split -> p1_p1_0_split_7
I0805 09:38:13.253401 15979 net.cpp:399] p1_p1_0_split -> p1_p1_0_split_8
I0805 09:38:13.253412 15979 net.cpp:399] p1_p1_0_split -> p1_p1_0_split_9
I0805 09:38:13.253614 15979 net.cpp:141] Setting up p1_p1_0_split
I0805 09:38:13.253624 15979 net.cpp:148] Top shape: 64 3 64 64 (786432)
I0805 09:38:13.253633 15979 net.cpp:148] Top shape: 64 3 64 64 (786432)
I0805 09:38:13.253641 15979 net.cpp:148] Top shape: 64 3 64 64 (786432)
I0805 09:38:13.253650 15979 net.cpp:148] Top shape: 64 3 64 64 (786432)
I0805 09:38:13.253659 15979 net.cpp:148] Top shape: 64 3 64 64 (786432)
I0805 09:38:13.253667 15979 net.cpp:148] Top shape: 64 3 64 64 (786432)
I0805 09:38:13.253675 15979 net.cpp:148] Top shape: 64 3 64 64 (786432)
I0805 09:38:13.253684 15979 net.cpp:148] Top shape: 64 3 64 64 (786432)
I0805 09:38:13.253692 15979 net.cpp:148] Top shape: 64 3 64 64 (786432)
I0805 09:38:13.253700 15979 net.cpp:148] Top shape: 64 3 64 64 (786432)
I0805 09:38:13.253706 15979 net.cpp:156] Memory required for data: 336594432
I0805 09:38:13.253713 15979 layer_factory.hpp:77] Creating layer p2
I0805 09:38:13.253722 15979 net.cpp:91] Creating Layer p2
I0805 09:38:13.253729 15979 net.cpp:425] p2 <- i2_i1_1_split_0
I0805 09:38:13.253739 15979 net.cpp:399] p2 -> p2
I0805 09:38:13.253772 15979 net.cpp:141] Setting up p2
I0805 09:38:13.253780 15979 net.cpp:148] Top shape: 64 3 64 64 (786432)
I0805 09:38:13.253787 15979 net.cpp:156] Memory required for data: 339740160
I0805 09:38:13.253793 15979 layer_factory.hpp:77] Creating layer p2_p2_0_split
I0805 09:38:13.253803 15979 net.cpp:91] Creating Layer p2_p2_0_split
I0805 09:38:13.253809 15979 net.cpp:425] p2_p2_0_split <- p2
I0805 09:38:13.253819 15979 net.cpp:399] p2_p2_0_split -> p2_p2_0_split_0
I0805 09:38:13.253832 15979 net.cpp:399] p2_p2_0_split -> p2_p2_0_split_1
I0805 09:38:13.253845 15979 net.cpp:399] p2_p2_0_split -> p2_p2_0_split_2
I0805 09:38:13.253857 15979 net.cpp:399] p2_p2_0_split -> p2_p2_0_split_3
I0805 09:38:13.253870 15979 net.cpp:399] p2_p2_0_split -> p2_p2_0_split_4
I0805 09:38:13.253882 15979 net.cpp:399] p2_p2_0_split -> p2_p2_0_split_5
I0805 09:38:13.253895 15979 net.cpp:399] p2_p2_0_split -> p2_p2_0_split_6
I0805 09:38:13.253906 15979 net.cpp:399] p2_p2_0_split -> p2_p2_0_split_7
I0805 09:38:13.253917 15979 net.cpp:399] p2_p2_0_split -> p2_p2_0_split_8
I0805 09:38:13.253931 15979 net.cpp:399] p2_p2_0_split -> p2_p2_0_split_9
I0805 09:38:13.254130 15979 net.cpp:141] Setting up p2_p2_0_split
I0805 09:38:13.254139 15979 net.cpp:148] Top shape: 64 3 64 64 (786432)
I0805 09:38:13.254148 15979 net.cpp:148] Top shape: 64 3 64 64 (786432)
I0805 09:38:13.254156 15979 net.cpp:148] Top shape: 64 3 64 64 (786432)
I0805 09:38:13.254164 15979 net.cpp:148] Top shape: 64 3 64 64 (786432)
I0805 09:38:13.254173 15979 net.cpp:148] Top shape: 64 3 64 64 (786432)
I0805 09:38:13.254181 15979 net.cpp:148] Top shape: 64 3 64 64 (786432)
I0805 09:38:13.254190 15979 net.cpp:148] Top shape: 64 3 64 64 (786432)
I0805 09:38:13.254199 15979 net.cpp:148] Top shape: 64 3 64 64 (786432)
I0805 09:38:13.254206 15979 net.cpp:148] Top shape: 64 3 64 64 (786432)
I0805 09:38:13.254215 15979 net.cpp:148] Top shape: 64 3 64 64 (786432)
I0805 09:38:13.254221 15979 net.cpp:156] Memory required for data: 371197440
I0805 09:38:13.254227 15979 layer_factory.hpp:77] Creating layer Input1
I0805 09:38:13.254243 15979 net.cpp:91] Creating Layer Input1
I0805 09:38:13.254251 15979 net.cpp:399] Input1 -> Input1
I0805 09:38:13.254284 15979 net.cpp:141] Setting up Input1
I0805 09:38:13.254294 15979 net.cpp:148] Top shape: 64 3 64 64 (786432)
I0805 09:38:13.254300 15979 net.cpp:156] Memory required for data: 374343168
I0805 09:38:13.254307 15979 layer_factory.hpp:77] Creating layer c11
I0805 09:38:13.254322 15979 net.cpp:91] Creating Layer c11
I0805 09:38:13.254328 15979 net.cpp:425] c11 <- i1_i1_0_split_1
I0805 09:38:13.254336 15979 net.cpp:425] c11 <- Input1
I0805 09:38:13.254346 15979 net.cpp:399] c11 -> c11
I0805 09:38:13.254385 15979 net.cpp:141] Setting up c11
I0805 09:38:13.254395 15979 net.cpp:148] Top shape: 64 3 64 64 (786432)
I0805 09:38:13.254402 15979 net.cpp:156] Memory required for data: 377488896
I0805 09:38:13.254408 15979 layer_factory.hpp:77] Creating layer Input2
I0805 09:38:13.254417 15979 net.cpp:91] Creating Layer Input2
I0805 09:38:13.254426 15979 net.cpp:399] Input2 -> Input2
I0805 09:38:13.254458 15979 net.cpp:141] Setting up Input2
I0805 09:38:13.254467 15979 net.cpp:148] Top shape: 64 3 64 64 (786432)
I0805 09:38:13.254473 15979 net.cpp:156] Memory required for data: 380634624
I0805 09:38:13.254480 15979 layer_factory.hpp:77] Creating layer c12
I0805 09:38:13.254490 15979 net.cpp:91] Creating Layer c12
I0805 09:38:13.254498 15979 net.cpp:425] c12 <- i1_i1_0_split_2
I0805 09:38:13.254505 15979 net.cpp:425] c12 <- Input2
I0805 09:38:13.254514 15979 net.cpp:399] c12 -> c12
I0805 09:38:13.254546 15979 net.cpp:141] Setting up c12
I0805 09:38:13.254555 15979 net.cpp:148] Top shape: 64 3 64 64 (786432)
I0805 09:38:13.254562 15979 net.cpp:156] Memory required for data: 383780352
I0805 09:38:13.254570 15979 layer_factory.hpp:77] Creating layer Input3
I0805 09:38:13.254578 15979 net.cpp:91] Creating Layer Input3
I0805 09:38:13.254586 15979 net.cpp:399] Input3 -> Input3
I0805 09:38:13.254617 15979 net.cpp:141] Setting up Input3
I0805 09:38:13.254626 15979 net.cpp:148] Top shape: 64 3 64 64 (786432)
I0805 09:38:13.254632 15979 net.cpp:156] Memory required for data: 386926080
I0805 09:38:13.254638 15979 layer_factory.hpp:77] Creating layer c13
I0805 09:38:13.254649 15979 net.cpp:91] Creating Layer c13
I0805 09:38:13.254655 15979 net.cpp:425] c13 <- i1_i1_0_split_3
I0805 09:38:13.254663 15979 net.cpp:425] c13 <- Input3
I0805 09:38:13.254673 15979 net.cpp:399] c13 -> c13
I0805 09:38:13.254703 15979 net.cpp:141] Setting up c13
I0805 09:38:13.254710 15979 net.cpp:148] Top shape: 64 3 64 64 (786432)
I0805 09:38:13.254716 15979 net.cpp:156] Memory required for data: 390071808
I0805 09:38:13.254722 15979 layer_factory.hpp:77] Creating layer Input4
I0805 09:38:13.254730 15979 net.cpp:91] Creating Layer Input4
I0805 09:38:13.254739 15979 net.cpp:399] Input4 -> Input4
I0805 09:38:13.254766 15979 net.cpp:141] Setting up Input4
I0805 09:38:13.254776 15979 net.cpp:148] Top shape: 64 3 64 64 (786432)
I0805 09:38:13.254781 15979 net.cpp:156] Memory required for data: 393217536
I0805 09:38:13.254786 15979 layer_factory.hpp:77] Creating layer c14
I0805 09:38:13.254796 15979 net.cpp:91] Creating Layer c14
I0805 09:38:13.254801 15979 net.cpp:425] c14 <- i1_i1_0_split_4
I0805 09:38:13.254809 15979 net.cpp:425] c14 <- Input4
I0805 09:38:13.254818 15979 net.cpp:399] c14 -> c14
I0805 09:38:13.254847 15979 net.cpp:141] Setting up c14
I0805 09:38:13.254854 15979 net.cpp:148] Top shape: 64 3 64 64 (786432)
I0805 09:38:13.254860 15979 net.cpp:156] Memory required for data: 396363264
I0805 09:38:13.254868 15979 layer_factory.hpp:77] Creating layer Input5
I0805 09:38:13.254878 15979 net.cpp:91] Creating Layer Input5
I0805 09:38:13.254885 15979 net.cpp:399] Input5 -> Input5
I0805 09:38:13.254914 15979 net.cpp:141] Setting up Input5
I0805 09:38:13.254922 15979 net.cpp:148] Top shape: 64 3 64 64 (786432)
I0805 09:38:13.254928 15979 net.cpp:156] Memory required for data: 399508992
I0805 09:38:13.254935 15979 layer_factory.hpp:77] Creating layer c15
I0805 09:38:13.254942 15979 net.cpp:91] Creating Layer c15
I0805 09:38:13.254950 15979 net.cpp:425] c15 <- i1_i1_0_split_5
I0805 09:38:13.254957 15979 net.cpp:425] c15 <- Input5
I0805 09:38:13.254966 15979 net.cpp:399] c15 -> c15
I0805 09:38:13.254994 15979 net.cpp:141] Setting up c15
I0805 09:38:13.255002 15979 net.cpp:148] Top shape: 64 3 64 64 (786432)
I0805 09:38:13.255008 15979 net.cpp:156] Memory required for data: 402654720
I0805 09:38:13.255015 15979 layer_factory.hpp:77] Creating layer Input6
I0805 09:38:13.255025 15979 net.cpp:91] Creating Layer Input6
I0805 09:38:13.255033 15979 net.cpp:399] Input6 -> Input6
I0805 09:38:13.255065 15979 net.cpp:141] Setting up Input6
I0805 09:38:13.255074 15979 net.cpp:148] Top shape: 64 3 64 64 (786432)
I0805 09:38:13.255081 15979 net.cpp:156] Memory required for data: 405800448
I0805 09:38:13.255087 15979 layer_factory.hpp:77] Creating layer c16
I0805 09:38:13.255096 15979 net.cpp:91] Creating Layer c16
I0805 09:38:13.255102 15979 net.cpp:425] c16 <- i1_i1_0_split_6
I0805 09:38:13.255111 15979 net.cpp:425] c16 <- Input6
I0805 09:38:13.255120 15979 net.cpp:399] c16 -> c16
I0805 09:38:13.255154 15979 net.cpp:141] Setting up c16
I0805 09:38:13.255164 15979 net.cpp:148] Top shape: 64 3 64 64 (786432)
I0805 09:38:13.255172 15979 net.cpp:156] Memory required for data: 408946176
I0805 09:38:13.255182 15979 layer_factory.hpp:77] Creating layer Input7
I0805 09:38:13.255190 15979 net.cpp:91] Creating Layer Input7
I0805 09:38:13.255200 15979 net.cpp:399] Input7 -> Input7
I0805 09:38:13.255234 15979 net.cpp:141] Setting up Input7
I0805 09:38:13.255244 15979 net.cpp:148] Top shape: 64 3 64 64 (786432)
I0805 09:38:13.255249 15979 net.cpp:156] Memory required for data: 412091904
I0805 09:38:13.255255 15979 layer_factory.hpp:77] Creating layer c17
I0805 09:38:13.255264 15979 net.cpp:91] Creating Layer c17
I0805 09:38:13.255270 15979 net.cpp:425] c17 <- i1_i1_0_split_7
I0805 09:38:13.255385 15979 net.cpp:425] c17 <- Input7
I0805 09:38:13.255395 15979 net.cpp:399] c17 -> c17
I0805 09:38:13.255439 15979 net.cpp:141] Setting up c17
I0805 09:38:13.255450 15979 net.cpp:148] Top shape: 64 3 64 64 (786432)
I0805 09:38:13.255456 15979 net.cpp:156] Memory required for data: 415237632
I0805 09:38:13.255462 15979 layer_factory.hpp:77] Creating layer Input8
I0805 09:38:13.255470 15979 net.cpp:91] Creating Layer Input8
I0805 09:38:13.255478 15979 net.cpp:399] Input8 -> Input8
I0805 09:38:13.255508 15979 net.cpp:141] Setting up Input8
I0805 09:38:13.255517 15979 net.cpp:148] Top shape: 64 3 64 64 (786432)
I0805 09:38:13.255522 15979 net.cpp:156] Memory required for data: 418383360
I0805 09:38:13.255527 15979 layer_factory.hpp:77] Creating layer c18
I0805 09:38:13.255537 15979 net.cpp:91] Creating Layer c18
I0805 09:38:13.255542 15979 net.cpp:425] c18 <- i1_i1_0_split_8
I0805 09:38:13.255551 15979 net.cpp:425] c18 <- Input8
I0805 09:38:13.255560 15979 net.cpp:399] c18 -> c18
I0805 09:38:13.255589 15979 net.cpp:141] Setting up c18
I0805 09:38:13.255599 15979 net.cpp:148] Top shape: 64 3 64 64 (786432)
I0805 09:38:13.255605 15979 net.cpp:156] Memory required for data: 421529088
I0805 09:38:13.255611 15979 layer_factory.hpp:77] Creating layer Input9
I0805 09:38:13.255621 15979 net.cpp:91] Creating Layer Input9
I0805 09:38:13.255630 15979 net.cpp:399] Input9 -> Input9
I0805 09:38:13.255664 15979 net.cpp:141] Setting up Input9
I0805 09:38:13.255674 15979 net.cpp:148] Top shape: 64 3 64 64 (786432)
I0805 09:38:13.255681 15979 net.cpp:156] Memory required for data: 424674816
I0805 09:38:13.255686 15979 layer_factory.hpp:77] Creating layer c19
I0805 09:38:13.255694 15979 net.cpp:91] Creating Layer c19
I0805 09:38:13.255700 15979 net.cpp:425] c19 <- i1_i1_0_split_9
I0805 09:38:13.255708 15979 net.cpp:425] c19 <- Input9
I0805 09:38:13.255717 15979 net.cpp:399] c19 -> c19
I0805 09:38:13.255748 15979 net.cpp:141] Setting up c19
I0805 09:38:13.255758 15979 net.cpp:148] Top shape: 64 3 64 64 (786432)
I0805 09:38:13.255764 15979 net.cpp:156] Memory required for data: 427820544
I0805 09:38:13.255771 15979 layer_factory.hpp:77] Creating layer Input10
I0805 09:38:13.255779 15979 net.cpp:91] Creating Layer Input10
I0805 09:38:13.255787 15979 net.cpp:399] Input10 -> Input10
I0805 09:38:13.255818 15979 net.cpp:141] Setting up Input10
I0805 09:38:13.255827 15979 net.cpp:148] Top shape: 64 3 64 64 (786432)
I0805 09:38:13.255833 15979 net.cpp:156] Memory required for data: 430966272
I0805 09:38:13.255841 15979 layer_factory.hpp:77] Creating layer c21
I0805 09:38:13.255848 15979 net.cpp:91] Creating Layer c21
I0805 09:38:13.255856 15979 net.cpp:425] c21 <- i2_i1_1_split_1
I0805 09:38:13.255864 15979 net.cpp:425] c21 <- Input10
I0805 09:38:13.255875 15979 net.cpp:399] c21 -> c21
I0805 09:38:13.255908 15979 net.cpp:141] Setting up c21
I0805 09:38:13.255918 15979 net.cpp:148] Top shape: 64 3 64 64 (786432)
I0805 09:38:13.255925 15979 net.cpp:156] Memory required for data: 434112000
I0805 09:38:13.255933 15979 layer_factory.hpp:77] Creating layer Input11
I0805 09:38:13.255941 15979 net.cpp:91] Creating Layer Input11
I0805 09:38:13.255949 15979 net.cpp:399] Input11 -> Input11
I0805 09:38:13.255981 15979 net.cpp:141] Setting up Input11
I0805 09:38:13.255991 15979 net.cpp:148] Top shape: 64 3 64 64 (786432)
I0805 09:38:13.255996 15979 net.cpp:156] Memory required for data: 437257728
I0805 09:38:13.256003 15979 layer_factory.hpp:77] Creating layer c22
I0805 09:38:13.256017 15979 net.cpp:91] Creating Layer c22
I0805 09:38:13.256026 15979 net.cpp:425] c22 <- i2_i1_1_split_2
I0805 09:38:13.256033 15979 net.cpp:425] c22 <- Input11
I0805 09:38:13.256043 15979 net.cpp:399] c22 -> c22
I0805 09:38:13.256078 15979 net.cpp:141] Setting up c22
I0805 09:38:13.256086 15979 net.cpp:148] Top shape: 64 3 64 64 (786432)
I0805 09:38:13.256093 15979 net.cpp:156] Memory required for data: 440403456
I0805 09:38:13.256100 15979 layer_factory.hpp:77] Creating layer Input12
I0805 09:38:13.256109 15979 net.cpp:91] Creating Layer Input12
I0805 09:38:13.256117 15979 net.cpp:399] Input12 -> Input12
I0805 09:38:13.256160 15979 net.cpp:141] Setting up Input12
I0805 09:38:13.256175 15979 net.cpp:148] Top shape: 64 3 64 64 (786432)
I0805 09:38:13.256184 15979 net.cpp:156] Memory required for data: 443549184
I0805 09:38:13.256193 15979 layer_factory.hpp:77] Creating layer c23
I0805 09:38:13.256206 15979 net.cpp:91] Creating Layer c23
I0805 09:38:13.256216 15979 net.cpp:425] c23 <- i2_i1_1_split_3
I0805 09:38:13.256227 15979 net.cpp:425] c23 <- Input12
I0805 09:38:13.256237 15979 net.cpp:399] c23 -> c23
I0805 09:38:13.256269 15979 net.cpp:141] Setting up c23
I0805 09:38:13.256278 15979 net.cpp:148] Top shape: 64 3 64 64 (786432)
I0805 09:38:13.256285 15979 net.cpp:156] Memory required for data: 446694912
I0805 09:38:13.256292 15979 layer_factory.hpp:77] Creating layer Input13
I0805 09:38:13.256301 15979 net.cpp:91] Creating Layer Input13
I0805 09:38:13.256311 15979 net.cpp:399] Input13 -> Input13
I0805 09:38:13.256345 15979 net.cpp:141] Setting up Input13
I0805 09:38:13.256355 15979 net.cpp:148] Top shape: 64 3 64 64 (786432)
I0805 09:38:13.256361 15979 net.cpp:156] Memory required for data: 449840640
I0805 09:38:13.256368 15979 layer_factory.hpp:77] Creating layer c24
I0805 09:38:13.256377 15979 net.cpp:91] Creating Layer c24
I0805 09:38:13.256384 15979 net.cpp:425] c24 <- i2_i1_1_split_4
I0805 09:38:13.256392 15979 net.cpp:425] c24 <- Input13
I0805 09:38:13.256402 15979 net.cpp:399] c24 -> c24
I0805 09:38:13.256434 15979 net.cpp:141] Setting up c24
I0805 09:38:13.256443 15979 net.cpp:148] Top shape: 64 3 64 64 (786432)
I0805 09:38:13.256450 15979 net.cpp:156] Memory required for data: 452986368
I0805 09:38:13.256456 15979 layer_factory.hpp:77] Creating layer Input14
I0805 09:38:13.256465 15979 net.cpp:91] Creating Layer Input14
I0805 09:38:13.256474 15979 net.cpp:399] Input14 -> Input14
I0805 09:38:13.256506 15979 net.cpp:141] Setting up Input14
I0805 09:38:13.256516 15979 net.cpp:148] Top shape: 64 3 64 64 (786432)
I0805 09:38:13.256523 15979 net.cpp:156] Memory required for data: 456132096
I0805 09:38:13.256530 15979 layer_factory.hpp:77] Creating layer c25
I0805 09:38:13.256538 15979 net.cpp:91] Creating Layer c25
I0805 09:38:13.256546 15979 net.cpp:425] c25 <- i2_i1_1_split_5
I0805 09:38:13.256556 15979 net.cpp:425] c25 <- Input14
I0805 09:38:13.256566 15979 net.cpp:399] c25 -> c25
I0805 09:38:13.256598 15979 net.cpp:141] Setting up c25
I0805 09:38:13.256608 15979 net.cpp:148] Top shape: 64 3 64 64 (786432)
I0805 09:38:13.256614 15979 net.cpp:156] Memory required for data: 459277824
I0805 09:38:13.256620 15979 layer_factory.hpp:77] Creating layer Input15
I0805 09:38:13.256630 15979 net.cpp:91] Creating Layer Input15
I0805 09:38:13.256639 15979 net.cpp:399] Input15 -> Input15
I0805 09:38:13.256670 15979 net.cpp:141] Setting up Input15
I0805 09:38:13.256680 15979 net.cpp:148] Top shape: 64 3 64 64 (786432)
I0805 09:38:13.256686 15979 net.cpp:156] Memory required for data: 462423552
I0805 09:38:13.256692 15979 layer_factory.hpp:77] Creating layer c26
I0805 09:38:13.256701 15979 net.cpp:91] Creating Layer c26
I0805 09:38:13.256708 15979 net.cpp:425] c26 <- i2_i1_1_split_6
I0805 09:38:13.256717 15979 net.cpp:425] c26 <- Input15
I0805 09:38:13.256726 15979 net.cpp:399] c26 -> c26
I0805 09:38:13.256760 15979 net.cpp:141] Setting up c26
I0805 09:38:13.256770 15979 net.cpp:148] Top shape: 64 3 64 64 (786432)
I0805 09:38:13.256778 15979 net.cpp:156] Memory required for data: 465569280
I0805 09:38:13.256783 15979 layer_factory.hpp:77] Creating layer Input16
I0805 09:38:13.256793 15979 net.cpp:91] Creating Layer Input16
I0805 09:38:13.256803 15979 net.cpp:399] Input16 -> Input16
I0805 09:38:13.256835 15979 net.cpp:141] Setting up Input16
I0805 09:38:13.256845 15979 net.cpp:148] Top shape: 64 3 64 64 (786432)
I0805 09:38:13.256852 15979 net.cpp:156] Memory required for data: 468715008
I0805 09:38:13.256860 15979 layer_factory.hpp:77] Creating layer c27
I0805 09:38:13.256868 15979 net.cpp:91] Creating Layer c27
I0805 09:38:13.256875 15979 net.cpp:425] c27 <- i2_i1_1_split_7
I0805 09:38:13.256885 15979 net.cpp:425] c27 <- Input16
I0805 09:38:13.256894 15979 net.cpp:399] c27 -> c27
I0805 09:38:13.256927 15979 net.cpp:141] Setting up c27
I0805 09:38:13.256937 15979 net.cpp:148] Top shape: 64 3 64 64 (786432)
I0805 09:38:13.256942 15979 net.cpp:156] Memory required for data: 471860736
I0805 09:38:13.256947 15979 layer_factory.hpp:77] Creating layer Input17
I0805 09:38:13.256956 15979 net.cpp:91] Creating Layer Input17
I0805 09:38:13.256965 15979 net.cpp:399] Input17 -> Input17
I0805 09:38:13.256996 15979 net.cpp:141] Setting up Input17
I0805 09:38:13.257006 15979 net.cpp:148] Top shape: 64 3 64 64 (786432)
I0805 09:38:13.257014 15979 net.cpp:156] Memory required for data: 475006464
I0805 09:38:13.257021 15979 layer_factory.hpp:77] Creating layer c28
I0805 09:38:13.257030 15979 net.cpp:91] Creating Layer c28
I0805 09:38:13.257038 15979 net.cpp:425] c28 <- i2_i1_1_split_8
I0805 09:38:13.257047 15979 net.cpp:425] c28 <- Input17
I0805 09:38:13.257058 15979 net.cpp:399] c28 -> c28
I0805 09:38:13.257093 15979 net.cpp:141] Setting up c28
I0805 09:38:13.257103 15979 net.cpp:148] Top shape: 64 3 64 64 (786432)
I0805 09:38:13.257110 15979 net.cpp:156] Memory required for data: 478152192
I0805 09:38:13.257117 15979 layer_factory.hpp:77] Creating layer Input18
I0805 09:38:13.257125 15979 net.cpp:91] Creating Layer Input18
I0805 09:38:13.257134 15979 net.cpp:399] Input18 -> Input18
I0805 09:38:13.257166 15979 net.cpp:141] Setting up Input18
I0805 09:38:13.257176 15979 net.cpp:148] Top shape: 64 3 64 64 (786432)
I0805 09:38:13.257182 15979 net.cpp:156] Memory required for data: 481297920
I0805 09:38:13.257189 15979 layer_factory.hpp:77] Creating layer c29
I0805 09:38:13.257199 15979 net.cpp:91] Creating Layer c29
I0805 09:38:13.257205 15979 net.cpp:425] c29 <- i2_i1_1_split_9
I0805 09:38:13.257215 15979 net.cpp:425] c29 <- Input18
I0805 09:38:13.257223 15979 net.cpp:399] c29 -> c29
I0805 09:38:13.257256 15979 net.cpp:141] Setting up c29
I0805 09:38:13.257266 15979 net.cpp:148] Top shape: 64 3 64 64 (786432)
I0805 09:38:13.257272 15979 net.cpp:156] Memory required for data: 484443648
I0805 09:38:13.257279 15979 layer_factory.hpp:77] Creating layer conv0
I0805 09:38:13.257295 15979 net.cpp:91] Creating Layer conv0
I0805 09:38:13.257302 15979 net.cpp:425] conv0 <- p1_p1_0_split_0
I0805 09:38:13.257313 15979 net.cpp:399] conv0 -> Convolution1
I0805 09:38:13.258668 15979 net.cpp:141] Setting up conv0
I0805 09:38:13.258684 15979 net.cpp:148] Top shape: 64 24 64 64 (6291456)
I0805 09:38:13.258692 15979 net.cpp:156] Memory required for data: 509609472
I0805 09:38:13.258708 15979 layer_factory.hpp:77] Creating layer ReLU1
I0805 09:38:13.258719 15979 net.cpp:91] Creating Layer ReLU1
I0805 09:38:13.258726 15979 net.cpp:425] ReLU1 <- Convolution1
I0805 09:38:13.258738 15979 net.cpp:386] ReLU1 -> Convolution1 (in-place)
I0805 09:38:13.258749 15979 net.cpp:141] Setting up ReLU1
I0805 09:38:13.258757 15979 net.cpp:148] Top shape: 64 24 64 64 (6291456)
I0805 09:38:13.258764 15979 net.cpp:156] Memory required for data: 534775296
I0805 09:38:13.258770 15979 layer_factory.hpp:77] Creating layer pool0
I0805 09:38:13.258781 15979 net.cpp:91] Creating Layer pool0
I0805 09:38:13.258788 15979 net.cpp:425] pool0 <- Convolution1
I0805 09:38:13.258798 15979 net.cpp:399] pool0 -> Pooling1
I0805 09:38:13.258852 15979 net.cpp:141] Setting up pool0
I0805 09:38:13.258862 15979 net.cpp:148] Top shape: 64 24 32 32 (1572864)
I0805 09:38:13.258868 15979 net.cpp:156] Memory required for data: 541066752
I0805 09:38:13.258875 15979 layer_factory.hpp:77] Creating layer conv1
I0805 09:38:13.258888 15979 net.cpp:91] Creating Layer conv1
I0805 09:38:13.258896 15979 net.cpp:425] conv1 <- Pooling1
I0805 09:38:13.258906 15979 net.cpp:399] conv1 -> Convolution2
I0805 09:38:13.272353 15979 net.cpp:141] Setting up conv1
I0805 09:38:13.272384 15979 net.cpp:148] Top shape: 64 64 32 32 (4194304)
I0805 09:38:13.272392 15979 net.cpp:156] Memory required for data: 557843968
I0805 09:38:13.272410 15979 layer_factory.hpp:77] Creating layer ReLU2
I0805 09:38:13.272493 15979 net.cpp:91] Creating Layer ReLU2
I0805 09:38:13.272505 15979 net.cpp:425] ReLU2 <- Convolution2
I0805 09:38:13.272516 15979 net.cpp:386] ReLU2 -> Convolution2 (in-place)
I0805 09:38:13.272528 15979 net.cpp:141] Setting up ReLU2
I0805 09:38:13.272536 15979 net.cpp:148] Top shape: 64 64 32 32 (4194304)
I0805 09:38:13.272542 15979 net.cpp:156] Memory required for data: 574621184
I0805 09:38:13.272548 15979 layer_factory.hpp:77] Creating layer pool1
I0805 09:38:13.272558 15979 net.cpp:91] Creating Layer pool1
I0805 09:38:13.272564 15979 net.cpp:425] pool1 <- Convolution2
I0805 09:38:13.272574 15979 net.cpp:399] pool1 -> Pooling2
I0805 09:38:13.272639 15979 net.cpp:141] Setting up pool1
I0805 09:38:13.272650 15979 net.cpp:148] Top shape: 64 64 16 16 (1048576)
I0805 09:38:13.272655 15979 net.cpp:156] Memory required for data: 578815488
I0805 09:38:13.272661 15979 layer_factory.hpp:77] Creating layer conv2
I0805 09:38:13.272678 15979 net.cpp:91] Creating Layer conv2
I0805 09:38:13.272685 15979 net.cpp:425] conv2 <- Pooling2
I0805 09:38:13.272696 15979 net.cpp:399] conv2 -> Convolution3
I0805 09:38:13.276132 15979 net.cpp:141] Setting up conv2
I0805 09:38:13.276157 15979 net.cpp:148] Top shape: 64 96 16 16 (1572864)
I0805 09:38:13.276166 15979 net.cpp:156] Memory required for data: 585106944
I0805 09:38:13.276183 15979 layer_factory.hpp:77] Creating layer ReLU3
I0805 09:38:13.276198 15979 net.cpp:91] Creating Layer ReLU3
I0805 09:38:13.276209 15979 net.cpp:425] ReLU3 <- Convolution3
I0805 09:38:13.276222 15979 net.cpp:386] ReLU3 -> Convolution3 (in-place)
I0805 09:38:13.276234 15979 net.cpp:141] Setting up ReLU3
I0805 09:38:13.276247 15979 net.cpp:148] Top shape: 64 96 16 16 (1572864)
I0805 09:38:13.276254 15979 net.cpp:156] Memory required for data: 591398400
I0805 09:38:13.276264 15979 layer_factory.hpp:77] Creating layer conv3
I0805 09:38:13.276278 15979 net.cpp:91] Creating Layer conv3
I0805 09:38:13.276285 15979 net.cpp:425] conv3 <- Convolution3
I0805 09:38:13.276300 15979 net.cpp:399] conv3 -> Convolution4
I0805 09:38:13.280757 15979 net.cpp:141] Setting up conv3
I0805 09:38:13.280778 15979 net.cpp:148] Top shape: 64 96 16 16 (1572864)
I0805 09:38:13.280786 15979 net.cpp:156] Memory required for data: 597689856
I0805 09:38:13.280798 15979 layer_factory.hpp:77] Creating layer ReLU4
I0805 09:38:13.280809 15979 net.cpp:91] Creating Layer ReLU4
I0805 09:38:13.280817 15979 net.cpp:425] ReLU4 <- Convolution4
I0805 09:38:13.280827 15979 net.cpp:386] ReLU4 -> Convolution4 (in-place)
I0805 09:38:13.280838 15979 net.cpp:141] Setting up ReLU4
I0805 09:38:13.280848 15979 net.cpp:148] Top shape: 64 96 16 16 (1572864)
I0805 09:38:13.280853 15979 net.cpp:156] Memory required for data: 603981312
I0805 09:38:13.280859 15979 layer_factory.hpp:77] Creating layer conv4
I0805 09:38:13.280875 15979 net.cpp:91] Creating Layer conv4
I0805 09:38:13.280882 15979 net.cpp:425] conv4 <- Convolution4
I0805 09:38:13.280896 15979 net.cpp:399] conv4 -> Convolution5
I0805 09:38:13.284394 15979 net.cpp:141] Setting up conv4
I0805 09:38:13.284417 15979 net.cpp:148] Top shape: 64 64 16 16 (1048576)
I0805 09:38:13.284425 15979 net.cpp:156] Memory required for data: 608175616
I0805 09:38:13.284446 15979 layer_factory.hpp:77] Creating layer ReLU5
I0805 09:38:13.284457 15979 net.cpp:91] Creating Layer ReLU5
I0805 09:38:13.284471 15979 net.cpp:425] ReLU5 <- Convolution5
I0805 09:38:13.284488 15979 net.cpp:386] ReLU5 -> Convolution5 (in-place)
I0805 09:38:13.284503 15979 net.cpp:141] Setting up ReLU5
I0805 09:38:13.284512 15979 net.cpp:148] Top shape: 64 64 16 16 (1048576)
I0805 09:38:13.284518 15979 net.cpp:156] Memory required for data: 612369920
I0805 09:38:13.284524 15979 layer_factory.hpp:77] Creating layer pool4
I0805 09:38:13.284533 15979 net.cpp:91] Creating Layer pool4
I0805 09:38:13.284610 15979 net.cpp:425] pool4 <- Convolution5
I0805 09:38:13.284622 15979 net.cpp:399] pool4 -> Pooling3
I0805 09:38:13.284678 15979 net.cpp:141] Setting up pool4
I0805 09:38:13.284690 15979 net.cpp:148] Top shape: 64 64 8 8 (262144)
I0805 09:38:13.284698 15979 net.cpp:156] Memory required for data: 613418496
I0805 09:38:13.284708 15979 layer_factory.hpp:77] Creating layer conv0
I0805 09:38:13.284723 15979 net.cpp:91] Creating Layer conv0
I0805 09:38:13.284734 15979 net.cpp:425] conv0 <- p2_p2_0_split_0
I0805 09:38:13.284749 15979 net.cpp:399] conv0 -> Convolution6
I0805 09:38:13.285363 15979 net.cpp:141] Setting up conv0
I0805 09:38:13.285380 15979 net.cpp:148] Top shape: 64 24 64 64 (6291456)
I0805 09:38:13.285387 15979 net.cpp:156] Memory required for data: 638584320
I0805 09:38:13.285403 15979 layer_factory.hpp:77] Creating layer ReLU6
I0805 09:38:13.285414 15979 net.cpp:91] Creating Layer ReLU6
I0805 09:38:13.285423 15979 net.cpp:425] ReLU6 <- Convolution6
I0805 09:38:13.285431 15979 net.cpp:386] ReLU6 -> Convolution6 (in-place)
I0805 09:38:13.285503 15979 net.cpp:141] Setting up ReLU6
I0805 09:38:13.285514 15979 net.cpp:148] Top shape: 64 24 64 64 (6291456)
I0805 09:38:13.285521 15979 net.cpp:156] Memory required for data: 663750144
I0805 09:38:13.285527 15979 layer_factory.hpp:77] Creating layer pool0
I0805 09:38:13.285537 15979 net.cpp:91] Creating Layer pool0
I0805 09:38:13.285547 15979 net.cpp:425] pool0 <- Convolution6
I0805 09:38:13.285557 15979 net.cpp:399] pool0 -> Pooling4
I0805 09:38:13.285612 15979 net.cpp:141] Setting up pool0
I0805 09:38:13.285624 15979 net.cpp:148] Top shape: 64 24 32 32 (1572864)
I0805 09:38:13.285630 15979 net.cpp:156] Memory required for data: 670041600
I0805 09:38:13.285637 15979 layer_factory.hpp:77] Creating layer conv1
I0805 09:38:13.285656 15979 net.cpp:91] Creating Layer conv1
I0805 09:38:13.285665 15979 net.cpp:425] conv1 <- Pooling4
I0805 09:38:13.285676 15979 net.cpp:399] conv1 -> Convolution7
I0805 09:38:13.288389 15979 net.cpp:141] Setting up conv1
I0805 09:38:13.288411 15979 net.cpp:148] Top shape: 64 64 32 32 (4194304)
I0805 09:38:13.288419 15979 net.cpp:156] Memory required for data: 686818816
I0805 09:38:13.288430 15979 layer_factory.hpp:77] Creating layer ReLU7
I0805 09:38:13.288463 15979 net.cpp:91] Creating Layer ReLU7
I0805 09:38:13.288475 15979 net.cpp:425] ReLU7 <- Convolution7
I0805 09:38:13.288487 15979 net.cpp:386] ReLU7 -> Convolution7 (in-place)
I0805 09:38:13.288501 15979 net.cpp:141] Setting up ReLU7
I0805 09:38:13.288508 15979 net.cpp:148] Top shape: 64 64 32 32 (4194304)
I0805 09:38:13.288516 15979 net.cpp:156] Memory required for data: 703596032
I0805 09:38:13.288522 15979 layer_factory.hpp:77] Creating layer pool1
I0805 09:38:13.288534 15979 net.cpp:91] Creating Layer pool1
I0805 09:38:13.288542 15979 net.cpp:425] pool1 <- Convolution7
I0805 09:38:13.288552 15979 net.cpp:399] pool1 -> Pooling5
I0805 09:38:13.288672 15979 net.cpp:141] Setting up pool1
I0805 09:38:13.288684 15979 net.cpp:148] Top shape: 64 64 16 16 (1048576)
I0805 09:38:13.288691 15979 net.cpp:156] Memory required for data: 707790336
I0805 09:38:13.288702 15979 layer_factory.hpp:77] Creating layer conv2
I0805 09:38:13.288717 15979 net.cpp:91] Creating Layer conv2
I0805 09:38:13.288727 15979 net.cpp:425] conv2 <- Pooling5
I0805 09:38:13.288741 15979 net.cpp:399] conv2 -> Convolution8
I0805 09:38:13.292260 15979 net.cpp:141] Setting up conv2
I0805 09:38:13.292282 15979 net.cpp:148] Top shape: 64 96 16 16 (1572864)
I0805 09:38:13.292289 15979 net.cpp:156] Memory required for data: 714081792
I0805 09:38:13.292376 15979 layer_factory.hpp:77] Creating layer ReLU8
I0805 09:38:13.292390 15979 net.cpp:91] Creating Layer ReLU8
I0805 09:38:13.292398 15979 net.cpp:425] ReLU8 <- Convolution8
I0805 09:38:13.292408 15979 net.cpp:386] ReLU8 -> Convolution8 (in-place)
I0805 09:38:13.292420 15979 net.cpp:141] Setting up ReLU8
I0805 09:38:13.292430 15979 net.cpp:148] Top shape: 64 96 16 16 (1572864)
I0805 09:38:13.292436 15979 net.cpp:156] Memory required for data: 720373248
I0805 09:38:13.292443 15979 layer_factory.hpp:77] Creating layer conv3
I0805 09:38:13.292460 15979 net.cpp:91] Creating Layer conv3
I0805 09:38:13.292467 15979 net.cpp:425] conv3 <- Convolution8
I0805 09:38:13.292485 15979 net.cpp:399] conv3 -> Convolution9
I0805 09:38:13.298418 15979 net.cpp:141] Setting up conv3
I0805 09:38:13.298447 15979 net.cpp:148] Top shape: 64 96 16 16 (1572864)
I0805 09:38:13.298454 15979 net.cpp:156] Memory required for data: 726664704
I0805 09:38:13.298477 15979 layer_factory.hpp:77] Creating layer ReLU9
I0805 09:38:13.298494 15979 net.cpp:91] Creating Layer ReLU9
I0805 09:38:13.298504 15979 net.cpp:425] ReLU9 <- Convolution9
I0805 09:38:13.298519 15979 net.cpp:386] ReLU9 -> Convolution9 (in-place)
I0805 09:38:13.298532 15979 net.cpp:141] Setting up ReLU9
I0805 09:38:13.298540 15979 net.cpp:148] Top shape: 64 96 16 16 (1572864)
I0805 09:38:13.298547 15979 net.cpp:156] Memory required for data: 732956160
I0805 09:38:13.298553 15979 layer_factory.hpp:77] Creating layer conv4
I0805 09:38:13.298570 15979 net.cpp:91] Creating Layer conv4
I0805 09:38:13.298578 15979 net.cpp:425] conv4 <- Convolution9
I0805 09:38:13.298588 15979 net.cpp:399] conv4 -> Convolution10
I0805 09:38:13.311547 15979 net.cpp:141] Setting up conv4
I0805 09:38:13.311599 15979 net.cpp:148] Top shape: 64 64 16 16 (1048576)
I0805 09:38:13.311626 15979 net.cpp:156] Memory required for data: 737150464
I0805 09:38:13.311664 15979 layer_factory.hpp:77] Creating layer ReLU10
I0805 09:38:13.311700 15979 net.cpp:91] Creating Layer ReLU10
I0805 09:38:13.311733 15979 net.cpp:425] ReLU10 <- Convolution10
I0805 09:38:13.311769 15979 net.cpp:386] ReLU10 -> Convolution10 (in-place)
I0805 09:38:13.311806 15979 net.cpp:141] Setting up ReLU10
I0805 09:38:13.311836 15979 net.cpp:148] Top shape: 64 64 16 16 (1048576)
I0805 09:38:13.311862 15979 net.cpp:156] Memory required for data: 741344768
I0805 09:38:13.311889 15979 layer_factory.hpp:77] Creating layer pool4
I0805 09:38:13.311919 15979 net.cpp:91] Creating Layer pool4
I0805 09:38:13.311947 15979 net.cpp:425] pool4 <- Convolution10
I0805 09:38:13.311982 15979 net.cpp:399] pool4 -> Pooling6
I0805 09:38:13.312072 15979 net.cpp:141] Setting up pool4
I0805 09:38:13.312106 15979 net.cpp:148] Top shape: 64 64 8 8 (262144)
I0805 09:38:13.312132 15979 net.cpp:156] Memory required for data: 742393344
I0805 09:38:13.312157 15979 layer_factory.hpp:77] Creating layer Concat1
I0805 09:38:13.312196 15979 net.cpp:91] Creating Layer Concat1
I0805 09:38:13.312228 15979 net.cpp:425] Concat1 <- Pooling3
I0805 09:38:13.312258 15979 net.cpp:425] Concat1 <- Pooling6
I0805 09:38:13.312288 15979 net.cpp:399] Concat1 -> Concat1
I0805 09:38:13.312345 15979 net.cpp:141] Setting up Concat1
I0805 09:38:13.312376 15979 net.cpp:148] Top shape: 64 128 8 8 (524288)
I0805 09:38:13.312404 15979 net.cpp:156] Memory required for data: 744490496
I0805 09:38:13.312430 15979 layer_factory.hpp:77] Creating layer InnerProduct1
I0805 09:38:13.312465 15979 net.cpp:91] Creating Layer InnerProduct1
I0805 09:38:13.312494 15979 net.cpp:425] InnerProduct1 <- Concat1
I0805 09:38:13.312528 15979 net.cpp:399] InnerProduct1 -> InnerProduct1
I0805 09:38:13.325642 15979 net.cpp:141] Setting up InnerProduct1
I0805 09:38:13.325803 15979 net.cpp:148] Top shape: 64 128 (8192)
I0805 09:38:13.325830 15979 net.cpp:156] Memory required for data: 744523264
I0805 09:38:13.325865 15979 layer_factory.hpp:77] Creating layer ReLU11
I0805 09:38:13.325897 15979 net.cpp:91] Creating Layer ReLU11
I0805 09:38:13.325925 15979 net.cpp:425] ReLU11 <- InnerProduct1
I0805 09:38:13.325961 15979 net.cpp:386] ReLU11 -> InnerProduct1 (in-place)
I0805 09:38:13.325995 15979 net.cpp:141] Setting up ReLU11
I0805 09:38:13.326023 15979 net.cpp:148] Top shape: 64 128 (8192)
I0805 09:38:13.326048 15979 net.cpp:156] Memory required for data: 744556032
I0805 09:38:13.326076 15979 layer_factory.hpp:77] Creating layer InnerProduct2
I0805 09:38:13.326107 15979 net.cpp:91] Creating Layer InnerProduct2
I0805 09:38:13.326133 15979 net.cpp:425] InnerProduct2 <- InnerProduct1
I0805 09:38:13.326164 15979 net.cpp:399] InnerProduct2 -> InnerProduct2
I0805 09:38:13.327484 15979 net.cpp:141] Setting up InnerProduct2
I0805 09:38:13.327534 15979 net.cpp:148] Top shape: 64 128 (8192)
I0805 09:38:13.327628 15979 net.cpp:156] Memory required for data: 744588800
I0805 09:38:13.327659 15979 layer_factory.hpp:77] Creating layer ReLU12
I0805 09:38:13.327689 15979 net.cpp:91] Creating Layer ReLU12
I0805 09:38:13.327715 15979 net.cpp:425] ReLU12 <- InnerProduct2
I0805 09:38:13.327747 15979 net.cpp:386] ReLU12 -> InnerProduct2 (in-place)
I0805 09:38:13.327778 15979 net.cpp:141] Setting up ReLU12
I0805 09:38:13.327805 15979 net.cpp:148] Top shape: 64 128 (8192)
I0805 09:38:13.327829 15979 net.cpp:156] Memory required for data: 744621568
I0805 09:38:13.327853 15979 layer_factory.hpp:77] Creating layer dt0
I0805 09:38:13.327882 15979 net.cpp:91] Creating Layer dt0
I0805 09:38:13.327906 15979 net.cpp:425] dt0 <- InnerProduct2
I0805 09:38:13.327940 15979 net.cpp:399] dt0 -> dt0
I0805 09:38:13.328171 15979 net.cpp:141] Setting up dt0
I0805 09:38:13.328202 15979 net.cpp:148] Top shape: 64 1 (64)
I0805 09:38:13.328225 15979 net.cpp:156] Memory required for data: 744621824
I0805 09:38:13.328253 15979 layer_factory.hpp:77] Creating layer conv0
I0805 09:38:13.328289 15979 net.cpp:91] Creating Layer conv0
I0805 09:38:13.328315 15979 net.cpp:425] conv0 <- p1_p1_0_split_1
I0805 09:38:13.328346 15979 net.cpp:399] conv0 -> Convolution11
I0805 09:38:13.329042 15979 net.cpp:141] Setting up conv0
I0805 09:38:13.329077 15979 net.cpp:148] Top shape: 64 24 64 64 (6291456)
I0805 09:38:13.329100 15979 net.cpp:156] Memory required for data: 769787648
I0805 09:38:13.329131 15979 layer_factory.hpp:77] Creating layer ReLU13
I0805 09:38:13.329159 15979 net.cpp:91] Creating Layer ReLU13
I0805 09:38:13.329185 15979 net.cpp:425] ReLU13 <- Convolution11
I0805 09:38:13.329216 15979 net.cpp:386] ReLU13 -> Convolution11 (in-place)
I0805 09:38:13.329246 15979 net.cpp:141] Setting up ReLU13
I0805 09:38:13.329272 15979 net.cpp:148] Top shape: 64 24 64 64 (6291456)
I0805 09:38:13.329295 15979 net.cpp:156] Memory required for data: 794953472
I0805 09:38:13.329329 15979 layer_factory.hpp:77] Creating layer pool0
I0805 09:38:13.329427 15979 net.cpp:91] Creating Layer pool0
I0805 09:38:13.329453 15979 net.cpp:425] pool0 <- Convolution11
I0805 09:38:13.329485 15979 net.cpp:399] pool0 -> Pooling7
I0805 09:38:13.329565 15979 net.cpp:141] Setting up pool0
I0805 09:38:13.329593 15979 net.cpp:148] Top shape: 64 24 32 32 (1572864)
I0805 09:38:13.329617 15979 net.cpp:156] Memory required for data: 801244928
I0805 09:38:13.329641 15979 layer_factory.hpp:77] Creating layer conv1
I0805 09:38:13.329674 15979 net.cpp:91] Creating Layer conv1
I0805 09:38:13.329699 15979 net.cpp:425] conv1 <- Pooling7
I0805 09:38:13.329730 15979 net.cpp:399] conv1 -> Convolution12
I0805 09:38:13.332392 15979 net.cpp:141] Setting up conv1
I0805 09:38:13.332448 15979 net.cpp:148] Top shape: 64 64 32 32 (4194304)
I0805 09:38:13.332476 15979 net.cpp:156] Memory required for data: 818022144
I0805 09:38:13.332578 15979 layer_factory.hpp:77] Creating layer ReLU14
I0805 09:38:13.332608 15979 net.cpp:91] Creating Layer ReLU14
I0805 09:38:13.332636 15979 net.cpp:425] ReLU14 <- Convolution12
I0805 09:38:13.332664 15979 net.cpp:386] ReLU14 -> Convolution12 (in-place)
I0805 09:38:13.332697 15979 net.cpp:141] Setting up ReLU14
I0805 09:38:13.332726 15979 net.cpp:148] Top shape: 64 64 32 32 (4194304)
I0805 09:38:13.332751 15979 net.cpp:156] Memory required for data: 834799360
I0805 09:38:13.332777 15979 layer_factory.hpp:77] Creating layer pool1
I0805 09:38:13.332808 15979 net.cpp:91] Creating Layer pool1
I0805 09:38:13.332834 15979 net.cpp:425] pool1 <- Convolution12
I0805 09:38:13.332864 15979 net.cpp:399] pool1 -> Pooling8
I0805 09:38:13.333024 15979 net.cpp:141] Setting up pool1
I0805 09:38:13.333056 15979 net.cpp:148] Top shape: 64 64 16 16 (1048576)
I0805 09:38:13.333081 15979 net.cpp:156] Memory required for data: 838993664
I0805 09:38:13.333107 15979 layer_factory.hpp:77] Creating layer conv2
I0805 09:38:13.333143 15979 net.cpp:91] Creating Layer conv2
I0805 09:38:13.333171 15979 net.cpp:425] conv2 <- Pooling8
I0805 09:38:13.333209 15979 net.cpp:399] conv2 -> Convolution13
I0805 09:38:13.347241 15979 net.cpp:141] Setting up conv2
I0805 09:38:13.347283 15979 net.cpp:148] Top shape: 64 96 16 16 (1572864)
I0805 09:38:13.347291 15979 net.cpp:156] Memory required for data: 845285120
I0805 09:38:13.347306 15979 layer_factory.hpp:77] Creating layer ReLU15
I0805 09:38:13.347354 15979 net.cpp:91] Creating Layer ReLU15
I0805 09:38:13.347368 15979 net.cpp:425] ReLU15 <- Convolution13
I0805 09:38:13.347378 15979 net.cpp:386] ReLU15 -> Convolution13 (in-place)
I0805 09:38:13.347393 15979 net.cpp:141] Setting up ReLU15
I0805 09:38:13.347400 15979 net.cpp:148] Top shape: 64 96 16 16 (1572864)
I0805 09:38:13.347406 15979 net.cpp:156] Memory required for data: 851576576
I0805 09:38:13.347412 15979 layer_factory.hpp:77] Creating layer conv3
I0805 09:38:13.347430 15979 net.cpp:91] Creating Layer conv3
I0805 09:38:13.347440 15979 net.cpp:425] conv3 <- Convolution13
I0805 09:38:13.347451 15979 net.cpp:399] conv3 -> Convolution14
I0805 09:38:13.355648 15979 net.cpp:141] Setting up conv3
I0805 09:38:13.355672 15979 net.cpp:148] Top shape: 64 96 16 16 (1572864)
I0805 09:38:13.355679 15979 net.cpp:156] Memory required for data: 857868032
I0805 09:38:13.355711 15979 layer_factory.hpp:77] Creating layer ReLU16
I0805 09:38:13.355723 15979 net.cpp:91] Creating Layer ReLU16
I0805 09:38:13.355732 15979 net.cpp:425] ReLU16 <- Convolution14
I0805 09:38:13.355741 15979 net.cpp:386] ReLU16 -> Convolution14 (in-place)
I0805 09:38:13.355752 15979 net.cpp:141] Setting up ReLU16
I0805 09:38:13.355761 15979 net.cpp:148] Top shape: 64 96 16 16 (1572864)
I0805 09:38:13.355767 15979 net.cpp:156] Memory required for data: 864159488
I0805 09:38:13.355772 15979 layer_factory.hpp:77] Creating layer conv4
I0805 09:38:13.355787 15979 net.cpp:91] Creating Layer conv4
I0805 09:38:13.355794 15979 net.cpp:425] conv4 <- Convolution14
I0805 09:38:13.355808 15979 net.cpp:399] conv4 -> Convolution15
I0805 09:38:13.360890 15979 net.cpp:141] Setting up conv4
I0805 09:38:13.360911 15979 net.cpp:148] Top shape: 64 64 16 16 (1048576)
I0805 09:38:13.360918 15979 net.cpp:156] Memory required for data: 868353792
I0805 09:38:13.360929 15979 layer_factory.hpp:77] Creating layer ReLU17
I0805 09:38:13.360939 15979 net.cpp:91] Creating Layer ReLU17
I0805 09:38:13.360947 15979 net.cpp:425] ReLU17 <- Convolution15
I0805 09:38:13.363306 15979 net.cpp:386] ReLU17 -> Convolution15 (in-place)
I0805 09:38:13.363333 15979 net.cpp:141] Setting up ReLU17
I0805 09:38:13.363343 15979 net.cpp:148] Top shape: 64 64 16 16 (1048576)
I0805 09:38:13.363349 15979 net.cpp:156] Memory required for data: 872548096
I0805 09:38:13.363356 15979 layer_factory.hpp:77] Creating layer pool4
I0805 09:38:13.363368 15979 net.cpp:91] Creating Layer pool4
I0805 09:38:13.363374 15979 net.cpp:425] pool4 <- Convolution15
I0805 09:38:13.363389 15979 net.cpp:399] pool4 -> Pooling9
I0805 09:38:13.363458 15979 net.cpp:141] Setting up pool4
I0805 09:38:13.363469 15979 net.cpp:148] Top shape: 64 64 8 8 (262144)
I0805 09:38:13.363476 15979 net.cpp:156] Memory required for data: 873596672
I0805 09:38:13.363481 15979 layer_factory.hpp:77] Creating layer conv0
I0805 09:38:13.363497 15979 net.cpp:91] Creating Layer conv0
I0805 09:38:13.363503 15979 net.cpp:425] conv0 <- c21
I0805 09:38:13.363517 15979 net.cpp:399] conv0 -> Convolution16
I0805 09:38:13.364053 15979 net.cpp:141] Setting up conv0
I0805 09:38:13.364065 15979 net.cpp:148] Top shape: 64 24 64 64 (6291456)
I0805 09:38:13.364071 15979 net.cpp:156] Memory required for data: 898762496
I0805 09:38:13.364081 15979 layer_factory.hpp:77] Creating layer ReLU18
I0805 09:38:13.364091 15979 net.cpp:91] Creating Layer ReLU18
I0805 09:38:13.364097 15979 net.cpp:425] ReLU18 <- Convolution16
I0805 09:38:13.364106 15979 net.cpp:386] ReLU18 -> Convolution16 (in-place)
I0805 09:38:13.364116 15979 net.cpp:141] Setting up ReLU18
I0805 09:38:13.364123 15979 net.cpp:148] Top shape: 64 24 64 64 (6291456)
I0805 09:38:13.364130 15979 net.cpp:156] Memory required for data: 923928320
I0805 09:38:13.364135 15979 layer_factory.hpp:77] Creating layer pool0
I0805 09:38:13.364147 15979 net.cpp:91] Creating Layer pool0
I0805 09:38:13.364153 15979 net.cpp:425] pool0 <- Convolution16
I0805 09:38:13.364162 15979 net.cpp:399] pool0 -> Pooling10
I0805 09:38:13.364215 15979 net.cpp:141] Setting up pool0
I0805 09:38:13.364226 15979 net.cpp:148] Top shape: 64 24 32 32 (1572864)
I0805 09:38:13.364233 15979 net.cpp:156] Memory required for data: 930219776
I0805 09:38:13.364238 15979 layer_factory.hpp:77] Creating layer conv1
I0805 09:38:13.364251 15979 net.cpp:91] Creating Layer conv1
I0805 09:38:13.364258 15979 net.cpp:425] conv1 <- Pooling10
I0805 09:38:13.364280 15979 net.cpp:399] conv1 -> Convolution17
I0805 09:38:13.366487 15979 net.cpp:141] Setting up conv1
I0805 09:38:13.366502 15979 net.cpp:148] Top shape: 64 64 32 32 (4194304)
I0805 09:38:13.366508 15979 net.cpp:156] Memory required for data: 946996992
I0805 09:38:13.366518 15979 layer_factory.hpp:77] Creating layer ReLU19
I0805 09:38:13.366525 15979 net.cpp:91] Creating Layer ReLU19
I0805 09:38:13.366533 15979 net.cpp:425] ReLU19 <- Convolution17
I0805 09:38:13.366540 15979 net.cpp:386] ReLU19 -> Convolution17 (in-place)
I0805 09:38:13.366549 15979 net.cpp:141] Setting up ReLU19
I0805 09:38:13.366557 15979 net.cpp:148] Top shape: 64 64 32 32 (4194304)
I0805 09:38:13.366562 15979 net.cpp:156] Memory required for data: 963774208
I0805 09:38:13.366569 15979 layer_factory.hpp:77] Creating layer pool1
I0805 09:38:13.366576 15979 net.cpp:91] Creating Layer pool1
I0805 09:38:13.366583 15979 net.cpp:425] pool1 <- Convolution17
I0805 09:38:13.366595 15979 net.cpp:399] pool1 -> Pooling11
I0805 09:38:13.366643 15979 net.cpp:141] Setting up pool1
I0805 09:38:13.366652 15979 net.cpp:148] Top shape: 64 64 16 16 (1048576)
I0805 09:38:13.366657 15979 net.cpp:156] Memory required for data: 967968512
I0805 09:38:13.366663 15979 layer_factory.hpp:77] Creating layer conv2
I0805 09:38:13.366680 15979 net.cpp:91] Creating Layer conv2
I0805 09:38:13.366686 15979 net.cpp:425] conv2 <- Pooling11
I0805 09:38:13.366696 15979 net.cpp:399] conv2 -> Convolution18
I0805 09:38:13.381990 15979 net.cpp:141] Setting up conv2
I0805 09:38:13.382035 15979 net.cpp:148] Top shape: 64 96 16 16 (1572864)
I0805 09:38:13.382043 15979 net.cpp:156] Memory required for data: 974259968
I0805 09:38:13.382066 15979 layer_factory.hpp:77] Creating layer ReLU20
I0805 09:38:13.382087 15979 net.cpp:91] Creating Layer ReLU20
I0805 09:38:13.382100 15979 net.cpp:425] ReLU20 <- Convolution18
I0805 09:38:13.383016 15979 net.cpp:386] ReLU20 -> Convolution18 (in-place)
I0805 09:38:13.383147 15979 net.cpp:141] Setting up ReLU20
I0805 09:38:13.383263 15979 net.cpp:148] Top shape: 64 96 16 16 (1572864)
I0805 09:38:13.383357 15979 net.cpp:156] Memory required for data: 980551424
I0805 09:38:13.383385 15979 layer_factory.hpp:77] Creating layer conv3
I0805 09:38:13.383429 15979 net.cpp:91] Creating Layer conv3
I0805 09:38:13.383455 15979 net.cpp:425] conv3 <- Convolution18
I0805 09:38:13.383486 15979 net.cpp:399] conv3 -> Convolution19
I0805 09:38:13.395153 15979 net.cpp:141] Setting up conv3
I0805 09:38:13.395249 15979 net.cpp:148] Top shape: 64 96 16 16 (1572864)
I0805 09:38:13.395300 15979 net.cpp:156] Memory required for data: 986842880
I0805 09:38:13.395339 15979 layer_factory.hpp:77] Creating layer ReLU21
I0805 09:38:13.395375 15979 net.cpp:91] Creating Layer ReLU21
I0805 09:38:13.395406 15979 net.cpp:425] ReLU21 <- Convolution19
I0805 09:38:13.395440 15979 net.cpp:386] ReLU21 -> Convolution19 (in-place)
I0805 09:38:13.395474 15979 net.cpp:141] Setting up ReLU21
I0805 09:38:13.395503 15979 net.cpp:148] Top shape: 64 96 16 16 (1572864)
I0805 09:38:13.395527 15979 net.cpp:156] Memory required for data: 993134336
I0805 09:38:13.395553 15979 layer_factory.hpp:77] Creating layer conv4
I0805 09:38:13.395592 15979 net.cpp:91] Creating Layer conv4
I0805 09:38:13.395620 15979 net.cpp:425] conv4 <- Convolution19
I0805 09:38:13.395653 15979 net.cpp:399] conv4 -> Convolution20
I0805 09:38:13.405602 15979 net.cpp:141] Setting up conv4
I0805 09:38:13.407318 15979 net.cpp:148] Top shape: 64 64 16 16 (1048576)
I0805 09:38:13.407332 15979 net.cpp:156] Memory required for data: 997328640
I0805 09:38:13.407346 15979 layer_factory.hpp:77] Creating layer ReLU22
I0805 09:38:13.407359 15979 net.cpp:91] Creating Layer ReLU22
I0805 09:38:13.407369 15979 net.cpp:425] ReLU22 <- Convolution20
I0805 09:38:13.407379 15979 net.cpp:386] ReLU22 -> Convolution20 (in-place)
I0805 09:38:13.407392 15979 net.cpp:141] Setting up ReLU22
I0805 09:38:13.407400 15979 net.cpp:148] Top shape: 64 64 16 16 (1048576)
I0805 09:38:13.407405 15979 net.cpp:156] Memory required for data: 1001522944
I0805 09:38:13.407412 15979 layer_factory.hpp:77] Creating layer pool4
I0805 09:38:13.407428 15979 net.cpp:91] Creating Layer pool4
I0805 09:38:13.407434 15979 net.cpp:425] pool4 <- Convolution20
I0805 09:38:13.407444 15979 net.cpp:399] pool4 -> Pooling12
I0805 09:38:13.407510 15979 net.cpp:141] Setting up pool4
I0805 09:38:13.407517 15979 net.cpp:148] Top shape: 64 64 8 8 (262144)
I0805 09:38:13.407523 15979 net.cpp:156] Memory required for data: 1002571520
I0805 09:38:13.407529 15979 layer_factory.hpp:77] Creating layer Concat2
I0805 09:38:13.407538 15979 net.cpp:91] Creating Layer Concat2
I0805 09:38:13.407546 15979 net.cpp:425] Concat2 <- Pooling9
I0805 09:38:13.407553 15979 net.cpp:425] Concat2 <- Pooling12
I0805 09:38:13.407564 15979 net.cpp:399] Concat2 -> Concat2
I0805 09:38:13.407594 15979 net.cpp:141] Setting up Concat2
I0805 09:38:13.407603 15979 net.cpp:148] Top shape: 64 128 8 8 (524288)
I0805 09:38:13.407608 15979 net.cpp:156] Memory required for data: 1004668672
I0805 09:38:13.407614 15979 layer_factory.hpp:77] Creating layer InnerProduct3
I0805 09:38:13.407627 15979 net.cpp:91] Creating Layer InnerProduct3
I0805 09:38:13.407634 15979 net.cpp:425] InnerProduct3 <- Concat2
I0805 09:38:13.407683 15979 net.cpp:399] InnerProduct3 -> InnerProduct3
I0805 09:38:13.418761 15979 net.cpp:141] Setting up InnerProduct3
I0805 09:38:13.418790 15979 net.cpp:148] Top shape: 64 128 (8192)
I0805 09:38:13.418797 15979 net.cpp:156] Memory required for data: 1004701440
I0805 09:38:13.418805 15979 net.cpp:484] Sharing parameters 'fc1_w' owned by layer 'InnerProduct1', param index 0
I0805 09:38:13.418814 15979 net.cpp:484] Sharing parameters 'fc1_b' owned by layer 'InnerProduct1', param index 1
I0805 09:38:13.418822 15979 layer_factory.hpp:77] Creating layer ReLU23
I0805 09:38:13.418834 15979 net.cpp:91] Creating Layer ReLU23
I0805 09:38:13.418843 15979 net.cpp:425] ReLU23 <- InnerProduct3
I0805 09:38:13.418853 15979 net.cpp:386] ReLU23 -> InnerProduct3 (in-place)
I0805 09:38:13.418865 15979 net.cpp:141] Setting up ReLU23
I0805 09:38:13.418872 15979 net.cpp:148] Top shape: 64 128 (8192)
I0805 09:38:13.418879 15979 net.cpp:156] Memory required for data: 1004734208
I0805 09:38:13.418884 15979 layer_factory.hpp:77] Creating layer InnerProduct4
I0805 09:38:13.418898 15979 net.cpp:91] Creating Layer InnerProduct4
I0805 09:38:13.418905 15979 net.cpp:425] InnerProduct4 <- InnerProduct3
I0805 09:38:13.418915 15979 net.cpp:399] InnerProduct4 -> InnerProduct4
I0805 09:38:13.419215 15979 net.cpp:141] Setting up InnerProduct4
I0805 09:38:13.419224 15979 net.cpp:148] Top shape: 64 128 (8192)
I0805 09:38:13.419230 15979 net.cpp:156] Memory required for data: 1004766976
I0805 09:38:13.419236 15979 net.cpp:484] Sharing parameters 'fc2_w' owned by layer 'InnerProduct2', param index 0
I0805 09:38:13.419245 15979 net.cpp:484] Sharing parameters 'fc2_b' owned by layer 'InnerProduct2', param index 1
I0805 09:38:13.419251 15979 layer_factory.hpp:77] Creating layer ReLU24
I0805 09:38:13.419258 15979 net.cpp:91] Creating Layer ReLU24
I0805 09:38:13.419265 15979 net.cpp:425] ReLU24 <- InnerProduct4
I0805 09:38:13.419280 15979 net.cpp:386] ReLU24 -> InnerProduct4 (in-place)
I0805 09:38:13.419288 15979 net.cpp:141] Setting up ReLU24
I0805 09:38:13.419296 15979 net.cpp:148] Top shape: 64 128 (8192)
I0805 09:38:13.419301 15979 net.cpp:156] Memory required for data: 1004799744
I0805 09:38:13.419307 15979 layer_factory.hpp:77] Creating layer dt1
I0805 09:38:13.419317 15979 net.cpp:91] Creating Layer dt1
I0805 09:38:13.419323 15979 net.cpp:425] dt1 <- InnerProduct4
I0805 09:38:13.419337 15979 net.cpp:399] dt1 -> dt1
I0805 09:38:13.419476 15979 net.cpp:141] Setting up dt1
I0805 09:38:13.419483 15979 net.cpp:148] Top shape: 64 1 (64)
I0805 09:38:13.419489 15979 net.cpp:156] Memory required for data: 1004800000
I0805 09:38:13.419497 15979 net.cpp:484] Sharing parameters 'fc3_w' owned by layer 'dt0', param index 0
I0805 09:38:13.419503 15979 net.cpp:484] Sharing parameters 'fc3_b' owned by layer 'dt0', param index 1
I0805 09:38:13.419509 15979 layer_factory.hpp:77] Creating layer conv0
I0805 09:38:13.419526 15979 net.cpp:91] Creating Layer conv0
I0805 09:38:13.419533 15979 net.cpp:425] conv0 <- p1_p1_0_split_2
I0805 09:38:13.419544 15979 net.cpp:399] conv0 -> Convolution21
I0805 09:38:13.420081 15979 net.cpp:141] Setting up conv0
I0805 09:38:13.420089 15979 net.cpp:148] Top shape: 64 24 64 64 (6291456)
I0805 09:38:13.420095 15979 net.cpp:156] Memory required for data: 1029965824
I0805 09:38:13.420105 15979 layer_factory.hpp:77] Creating layer ReLU25
I0805 09:38:13.420114 15979 net.cpp:91] Creating Layer ReLU25
I0805 09:38:13.420120 15979 net.cpp:425] ReLU25 <- Convolution21
I0805 09:38:13.420135 15979 net.cpp:386] ReLU25 -> Convolution21 (in-place)
I0805 09:38:13.420145 15979 net.cpp:141] Setting up ReLU25
I0805 09:38:13.420153 15979 net.cpp:148] Top shape: 64 24 64 64 (6291456)
I0805 09:38:13.420159 15979 net.cpp:156] Memory required for data: 1055131648
I0805 09:38:13.420164 15979 layer_factory.hpp:77] Creating layer pool0
I0805 09:38:13.420174 15979 net.cpp:91] Creating Layer pool0
I0805 09:38:13.420181 15979 net.cpp:425] pool0 <- Convolution21
I0805 09:38:13.420191 15979 net.cpp:399] pool0 -> Pooling13
I0805 09:38:13.420272 15979 net.cpp:141] Setting up pool0
I0805 09:38:13.420281 15979 net.cpp:148] Top shape: 64 24 32 32 (1572864)
I0805 09:38:13.420287 15979 net.cpp:156] Memory required for data: 1061423104
I0805 09:38:13.420294 15979 layer_factory.hpp:77] Creating layer conv1
I0805 09:38:13.420307 15979 net.cpp:91] Creating Layer conv1
I0805 09:38:13.420315 15979 net.cpp:425] conv1 <- Pooling13
I0805 09:38:13.420326 15979 net.cpp:399] conv1 -> Convolution22
I0805 09:38:13.424742 15979 net.cpp:141] Setting up conv1
I0805 09:38:13.424767 15979 net.cpp:148] Top shape: 64 64 32 32 (4194304)
I0805 09:38:13.424773 15979 net.cpp:156] Memory required for data: 1078200320
I0805 09:38:13.424787 15979 layer_factory.hpp:77] Creating layer ReLU26
I0805 09:38:13.424803 15979 net.cpp:91] Creating Layer ReLU26
I0805 09:38:13.424813 15979 net.cpp:425] ReLU26 <- Convolution22
I0805 09:38:13.424821 15979 net.cpp:386] ReLU26 -> Convolution22 (in-place)
I0805 09:38:13.424834 15979 net.cpp:141] Setting up ReLU26
I0805 09:38:13.424842 15979 net.cpp:148] Top shape: 64 64 32 32 (4194304)
I0805 09:38:13.424847 15979 net.cpp:156] Memory required for data: 1094977536
I0805 09:38:13.424854 15979 layer_factory.hpp:77] Creating layer pool1
I0805 09:38:13.424865 15979 net.cpp:91] Creating Layer pool1
I0805 09:38:13.424872 15979 net.cpp:425] pool1 <- Convolution22
I0805 09:38:13.424881 15979 net.cpp:399] pool1 -> Pooling14
I0805 09:38:13.424933 15979 net.cpp:141] Setting up pool1
I0805 09:38:13.424947 15979 net.cpp:148] Top shape: 64 64 16 16 (1048576)
I0805 09:38:13.424952 15979 net.cpp:156] Memory required for data: 1099171840
I0805 09:38:13.424957 15979 layer_factory.hpp:77] Creating layer conv2
I0805 09:38:13.424973 15979 net.cpp:91] Creating Layer conv2
I0805 09:38:13.424979 15979 net.cpp:425] conv2 <- Pooling14
I0805 09:38:13.424988 15979 net.cpp:399] conv2 -> Convolution23
I0805 09:38:13.443003 15979 net.cpp:141] Setting up conv2
I0805 09:38:13.443034 15979 net.cpp:148] Top shape: 64 96 16 16 (1572864)
I0805 09:38:13.443042 15979 net.cpp:156] Memory required for data: 1105463296
I0805 09:38:13.443058 15979 layer_factory.hpp:77] Creating layer ReLU27
I0805 09:38:13.443073 15979 net.cpp:91] Creating Layer ReLU27
I0805 09:38:13.443084 15979 net.cpp:425] ReLU27 <- Convolution23
I0805 09:38:13.443099 15979 net.cpp:386] ReLU27 -> Convolution23 (in-place)
I0805 09:38:13.443112 15979 net.cpp:141] Setting up ReLU27
I0805 09:38:13.443122 15979 net.cpp:148] Top shape: 64 96 16 16 (1572864)
I0805 09:38:13.443128 15979 net.cpp:156] Memory required for data: 1111754752
I0805 09:38:13.443135 15979 layer_factory.hpp:77] Creating layer conv3
I0805 09:38:13.443153 15979 net.cpp:91] Creating Layer conv3
I0805 09:38:13.443162 15979 net.cpp:425] conv3 <- Convolution23
I0805 09:38:13.443173 15979 net.cpp:399] conv3 -> Convolution24
I0805 09:38:13.450573 15979 net.cpp:141] Setting up conv3
I0805 09:38:13.450598 15979 net.cpp:148] Top shape: 64 96 16 16 (1572864)
I0805 09:38:13.450603 15979 net.cpp:156] Memory required for data: 1118046208
I0805 09:38:13.450615 15979 layer_factory.hpp:77] Creating layer ReLU28
I0805 09:38:13.450625 15979 net.cpp:91] Creating Layer ReLU28
I0805 09:38:13.450634 15979 net.cpp:425] ReLU28 <- Convolution24
I0805 09:38:13.450642 15979 net.cpp:386] ReLU28 -> Convolution24 (in-place)
I0805 09:38:13.450654 15979 net.cpp:141] Setting up ReLU28
I0805 09:38:13.450661 15979 net.cpp:148] Top shape: 64 96 16 16 (1572864)
I0805 09:38:13.450666 15979 net.cpp:156] Memory required for data: 1124337664
I0805 09:38:13.450672 15979 layer_factory.hpp:77] Creating layer conv4
I0805 09:38:13.450690 15979 net.cpp:91] Creating Layer conv4
I0805 09:38:13.450696 15979 net.cpp:425] conv4 <- Convolution24
I0805 09:38:13.450706 15979 net.cpp:399] conv4 -> Convolution25
I0805 09:38:13.453773 15979 net.cpp:141] Setting up conv4
I0805 09:38:13.453788 15979 net.cpp:148] Top shape: 64 64 16 16 (1048576)
I0805 09:38:13.453794 15979 net.cpp:156] Memory required for data: 1128531968
I0805 09:38:13.453804 15979 layer_factory.hpp:77] Creating layer ReLU29
I0805 09:38:13.453812 15979 net.cpp:91] Creating Layer ReLU29
I0805 09:38:13.453819 15979 net.cpp:425] ReLU29 <- Convolution25
I0805 09:38:13.453827 15979 net.cpp:386] ReLU29 -> Convolution25 (in-place)
I0805 09:38:13.453836 15979 net.cpp:141] Setting up ReLU29
I0805 09:38:13.453843 15979 net.cpp:148] Top shape: 64 64 16 16 (1048576)
I0805 09:38:13.453850 15979 net.cpp:156] Memory required for data: 1132726272
I0805 09:38:13.453855 15979 layer_factory.hpp:77] Creating layer pool4
I0805 09:38:13.453866 15979 net.cpp:91] Creating Layer pool4
I0805 09:38:13.453873 15979 net.cpp:425] pool4 <- Convolution25
I0805 09:38:13.453882 15979 net.cpp:399] pool4 -> Pooling15
I0805 09:38:13.453954 15979 net.cpp:141] Setting up pool4
I0805 09:38:13.453963 15979 net.cpp:148] Top shape: 64 64 8 8 (262144)
I0805 09:38:13.453969 15979 net.cpp:156] Memory required for data: 1133774848
I0805 09:38:13.453975 15979 layer_factory.hpp:77] Creating layer conv0
I0805 09:38:13.453989 15979 net.cpp:91] Creating Layer conv0
I0805 09:38:13.453997 15979 net.cpp:425] conv0 <- c22
I0805 09:38:13.454007 15979 net.cpp:399] conv0 -> Convolution26
I0805 09:38:13.454547 15979 net.cpp:141] Setting up conv0
I0805 09:38:13.454558 15979 net.cpp:148] Top shape: 64 24 64 64 (6291456)
I0805 09:38:13.454565 15979 net.cpp:156] Memory required for data: 1158940672
I0805 09:38:13.454577 15979 layer_factory.hpp:77] Creating layer ReLU30
I0805 09:38:13.454586 15979 net.cpp:91] Creating Layer ReLU30
I0805 09:38:13.454594 15979 net.cpp:425] ReLU30 <- Convolution26
I0805 09:38:13.454607 15979 net.cpp:386] ReLU30 -> Convolution26 (in-place)
I0805 09:38:13.454618 15979 net.cpp:141] Setting up ReLU30
I0805 09:38:13.454627 15979 net.cpp:148] Top shape: 64 24 64 64 (6291456)
I0805 09:38:13.454634 15979 net.cpp:156] Memory required for data: 1184106496
I0805 09:38:13.454640 15979 layer_factory.hpp:77] Creating layer pool0
I0805 09:38:13.454650 15979 net.cpp:91] Creating Layer pool0
I0805 09:38:13.454658 15979 net.cpp:425] pool0 <- Convolution26
I0805 09:38:13.454670 15979 net.cpp:399] pool0 -> Pooling16
I0805 09:38:13.454727 15979 net.cpp:141] Setting up pool0
I0805 09:38:13.454741 15979 net.cpp:148] Top shape: 64 24 32 32 (1572864)
I0805 09:38:13.454748 15979 net.cpp:156] Memory required for data: 1190397952
I0805 09:38:13.454754 15979 layer_factory.hpp:77] Creating layer conv1
I0805 09:38:13.454766 15979 net.cpp:91] Creating Layer conv1
I0805 09:38:13.454774 15979 net.cpp:425] conv1 <- Pooling16
I0805 09:38:13.454789 15979 net.cpp:399] conv1 -> Convolution27
I0805 09:38:13.457814 15979 net.cpp:141] Setting up conv1
I0805 09:38:13.457875 15979 net.cpp:148] Top shape: 64 64 32 32 (4194304)
I0805 09:38:13.457901 15979 net.cpp:156] Memory required for data: 1207175168
I0805 09:38:13.457953 15979 layer_factory.hpp:77] Creating layer ReLU31
I0805 09:38:13.458019 15979 net.cpp:91] Creating Layer ReLU31
I0805 09:38:13.458045 15979 net.cpp:425] ReLU31 <- Convolution27
I0805 09:38:13.458072 15979 net.cpp:386] ReLU31 -> Convolution27 (in-place)
I0805 09:38:13.458102 15979 net.cpp:141] Setting up ReLU31
I0805 09:38:13.458128 15979 net.cpp:148] Top shape: 64 64 32 32 (4194304)
I0805 09:38:13.458151 15979 net.cpp:156] Memory required for data: 1223952384
I0805 09:38:13.458174 15979 layer_factory.hpp:77] Creating layer pool1
I0805 09:38:13.458204 15979 net.cpp:91] Creating Layer pool1
I0805 09:38:13.458230 15979 net.cpp:425] pool1 <- Convolution27
I0805 09:38:13.458256 15979 net.cpp:399] pool1 -> Pooling17
I0805 09:38:13.458330 15979 net.cpp:141] Setting up pool1
I0805 09:38:13.458358 15979 net.cpp:148] Top shape: 64 64 16 16 (1048576)
I0805 09:38:13.458462 15979 net.cpp:156] Memory required for data: 1228146688
I0805 09:38:13.458487 15979 layer_factory.hpp:77] Creating layer conv2
I0805 09:38:13.458523 15979 net.cpp:91] Creating Layer conv2
I0805 09:38:13.458549 15979 net.cpp:425] conv2 <- Pooling17
I0805 09:38:13.458575 15979 net.cpp:399] conv2 -> Convolution28
I0805 09:38:13.461860 15979 net.cpp:141] Setting up conv2
I0805 09:38:13.461910 15979 net.cpp:148] Top shape: 64 96 16 16 (1572864)
I0805 09:38:13.461941 15979 net.cpp:156] Memory required for data: 1234438144
I0805 09:38:13.461973 15979 layer_factory.hpp:77] Creating layer ReLU32
I0805 09:38:13.463656 15979 net.cpp:91] Creating Layer ReLU32
I0805 09:38:13.463698 15979 net.cpp:425] ReLU32 <- Convolution28
I0805 09:38:13.463737 15979 net.cpp:386] ReLU32 -> Convolution28 (in-place)
I0805 09:38:13.463773 15979 net.cpp:141] Setting up ReLU32
I0805 09:38:13.463800 15979 net.cpp:148] Top shape: 64 96 16 16 (1572864)
I0805 09:38:13.463824 15979 net.cpp:156] Memory required for data: 1240729600
I0805 09:38:13.463848 15979 layer_factory.hpp:77] Creating layer conv3
I0805 09:38:13.463886 15979 net.cpp:91] Creating Layer conv3
I0805 09:38:13.463914 15979 net.cpp:425] conv3 <- Convolution28
I0805 09:38:13.463946 15979 net.cpp:399] conv3 -> Convolution29
I0805 09:38:13.468531 15979 net.cpp:141] Setting up conv3
I0805 09:38:13.468569 15979 net.cpp:148] Top shape: 64 96 16 16 (1572864)
I0805 09:38:13.468592 15979 net.cpp:156] Memory required for data: 1247021056
I0805 09:38:13.468621 15979 layer_factory.hpp:77] Creating layer ReLU33
I0805 09:38:13.468648 15979 net.cpp:91] Creating Layer ReLU33
I0805 09:38:13.468672 15979 net.cpp:425] ReLU33 <- Convolution29
I0805 09:38:13.468703 15979 net.cpp:386] ReLU33 -> Convolution29 (in-place)
I0805 09:38:13.468732 15979 net.cpp:141] Setting up ReLU33
I0805 09:38:13.468757 15979 net.cpp:148] Top shape: 64 96 16 16 (1572864)
I0805 09:38:13.468780 15979 net.cpp:156] Memory required for data: 1253312512
I0805 09:38:13.468802 15979 layer_factory.hpp:77] Creating layer conv4
I0805 09:38:13.468835 15979 net.cpp:91] Creating Layer conv4
I0805 09:38:13.468863 15979 net.cpp:425] conv4 <- Convolution29
I0805 09:38:13.468890 15979 net.cpp:399] conv4 -> Convolution30
I0805 09:38:13.471961 15979 net.cpp:141] Setting up conv4
I0805 09:38:13.471998 15979 net.cpp:148] Top shape: 64 64 16 16 (1048576)
I0805 09:38:13.472023 15979 net.cpp:156] Memory required for data: 1257506816
I0805 09:38:13.472055 15979 layer_factory.hpp:77] Creating layer ReLU34
I0805 09:38:13.472082 15979 net.cpp:91] Creating Layer ReLU34
I0805 09:38:13.472107 15979 net.cpp:425] ReLU34 <- Convolution30
I0805 09:38:13.472134 15979 net.cpp:386] ReLU34 -> Convolution30 (in-place)
I0805 09:38:13.472162 15979 net.cpp:141] Setting up ReLU34
I0805 09:38:13.472188 15979 net.cpp:148] Top shape: 64 64 16 16 (1048576)
I0805 09:38:13.472215 15979 net.cpp:156] Memory required for data: 1261701120
I0805 09:38:13.472239 15979 layer_factory.hpp:77] Creating layer pool4
I0805 09:38:13.472270 15979 net.cpp:91] Creating Layer pool4
I0805 09:38:13.472293 15979 net.cpp:425] pool4 <- Convolution30
I0805 09:38:13.472321 15979 net.cpp:399] pool4 -> Pooling18
I0805 09:38:13.472386 15979 net.cpp:141] Setting up pool4
I0805 09:38:13.472414 15979 net.cpp:148] Top shape: 64 64 8 8 (262144)
I0805 09:38:13.472437 15979 net.cpp:156] Memory required for data: 1262749696
I0805 09:38:13.472460 15979 layer_factory.hpp:77] Creating layer Concat3
I0805 09:38:13.472489 15979 net.cpp:91] Creating Layer Concat3
I0805 09:38:13.472514 15979 net.cpp:425] Concat3 <- Pooling15
I0805 09:38:13.472539 15979 net.cpp:425] Concat3 <- Pooling18
I0805 09:38:13.472565 15979 net.cpp:399] Concat3 -> Concat3
I0805 09:38:13.472618 15979 net.cpp:141] Setting up Concat3
I0805 09:38:13.472645 15979 net.cpp:148] Top shape: 64 128 8 8 (524288)
I0805 09:38:13.472666 15979 net.cpp:156] Memory required for data: 1264846848
I0805 09:38:13.472688 15979 layer_factory.hpp:77] Creating layer InnerProduct5
I0805 09:38:13.472718 15979 net.cpp:91] Creating Layer InnerProduct5
I0805 09:38:13.472743 15979 net.cpp:425] InnerProduct5 <- Concat3
I0805 09:38:13.472771 15979 net.cpp:399] InnerProduct5 -> InnerProduct5
I0805 09:38:13.483927 15979 net.cpp:141] Setting up InnerProduct5
I0805 09:38:13.484040 15979 net.cpp:148] Top shape: 64 128 (8192)
I0805 09:38:13.484064 15979 net.cpp:156] Memory required for data: 1264879616
I0805 09:38:13.484092 15979 net.cpp:484] Sharing parameters 'fc1_w' owned by layer 'InnerProduct1', param index 0
I0805 09:38:13.484119 15979 net.cpp:484] Sharing parameters 'fc1_b' owned by layer 'InnerProduct1', param index 1
I0805 09:38:13.484144 15979 layer_factory.hpp:77] Creating layer ReLU35
I0805 09:38:13.484174 15979 net.cpp:91] Creating Layer ReLU35
I0805 09:38:13.484200 15979 net.cpp:425] ReLU35 <- InnerProduct5
I0805 09:38:13.484239 15979 net.cpp:386] ReLU35 -> InnerProduct5 (in-place)
I0805 09:38:13.484271 15979 net.cpp:141] Setting up ReLU35
I0805 09:38:13.484295 15979 net.cpp:148] Top shape: 64 128 (8192)
I0805 09:38:13.484318 15979 net.cpp:156] Memory required for data: 1264912384
I0805 09:38:13.484340 15979 layer_factory.hpp:77] Creating layer InnerProduct6
I0805 09:38:13.484372 15979 net.cpp:91] Creating Layer InnerProduct6
I0805 09:38:13.484396 15979 net.cpp:425] InnerProduct6 <- InnerProduct5
I0805 09:38:13.484423 15979 net.cpp:399] InnerProduct6 -> InnerProduct6
I0805 09:38:13.484724 15979 net.cpp:141] Setting up InnerProduct6
I0805 09:38:13.484751 15979 net.cpp:148] Top shape: 64 128 (8192)
I0805 09:38:13.484774 15979 net.cpp:156] Memory required for data: 1264945152
I0805 09:38:13.484797 15979 net.cpp:484] Sharing parameters 'fc2_w' owned by layer 'InnerProduct2', param index 0
I0805 09:38:13.484822 15979 net.cpp:484] Sharing parameters 'fc2_b' owned by layer 'InnerProduct2', param index 1
I0805 09:38:13.484846 15979 layer_factory.hpp:77] Creating layer ReLU36
I0805 09:38:13.484871 15979 net.cpp:91] Creating Layer ReLU36
I0805 09:38:13.484894 15979 net.cpp:425] ReLU36 <- InnerProduct6
I0805 09:38:13.484920 15979 net.cpp:386] ReLU36 -> InnerProduct6 (in-place)
I0805 09:38:13.484946 15979 net.cpp:141] Setting up ReLU36
I0805 09:38:13.484972 15979 net.cpp:148] Top shape: 64 128 (8192)
I0805 09:38:13.484993 15979 net.cpp:156] Memory required for data: 1264977920
I0805 09:38:13.485016 15979 layer_factory.hpp:77] Creating layer dt2
I0805 09:38:13.485043 15979 net.cpp:91] Creating Layer dt2
I0805 09:38:13.485065 15979 net.cpp:425] dt2 <- InnerProduct6
I0805 09:38:13.485097 15979 net.cpp:399] dt2 -> dt2
I0805 09:38:13.485261 15979 net.cpp:141] Setting up dt2
I0805 09:38:13.485288 15979 net.cpp:148] Top shape: 64 1 (64)
I0805 09:38:13.485311 15979 net.cpp:156] Memory required for data: 1264978176
I0805 09:38:13.485334 15979 net.cpp:484] Sharing parameters 'fc3_w' owned by layer 'dt0', param index 0
I0805 09:38:13.485359 15979 net.cpp:484] Sharing parameters 'fc3_b' owned by layer 'dt0', param index 1
I0805 09:38:13.485383 15979 layer_factory.hpp:77] Creating layer conv0
I0805 09:38:13.485419 15979 net.cpp:91] Creating Layer conv0
I0805 09:38:13.485443 15979 net.cpp:425] conv0 <- p1_p1_0_split_3
I0805 09:38:13.485471 15979 net.cpp:399] conv0 -> Convolution31
I0805 09:38:13.486029 15979 net.cpp:141] Setting up conv0
I0805 09:38:13.486059 15979 net.cpp:148] Top shape: 64 24 64 64 (6291456)
I0805 09:38:13.486083 15979 net.cpp:156] Memory required for data: 1290144000
I0805 09:38:13.486111 15979 layer_factory.hpp:77] Creating layer ReLU37
I0805 09:38:13.486136 15979 net.cpp:91] Creating Layer ReLU37
I0805 09:38:13.486160 15979 net.cpp:425] ReLU37 <- Convolution31
I0805 09:38:13.486187 15979 net.cpp:386] ReLU37 -> Convolution31 (in-place)
I0805 09:38:13.486213 15979 net.cpp:141] Setting up ReLU37
I0805 09:38:13.486238 15979 net.cpp:148] Top shape: 64 24 64 64 (6291456)
I0805 09:38:13.486260 15979 net.cpp:156] Memory required for data: 1315309824
I0805 09:38:13.486282 15979 layer_factory.hpp:77] Creating layer pool0
I0805 09:38:13.486309 15979 net.cpp:91] Creating Layer pool0
I0805 09:38:13.486331 15979 net.cpp:425] pool0 <- Convolution31
I0805 09:38:13.486357 15979 net.cpp:399] pool0 -> Pooling19
I0805 09:38:13.486433 15979 net.cpp:141] Setting up pool0
I0805 09:38:13.486459 15979 net.cpp:148] Top shape: 64 24 32 32 (1572864)
I0805 09:38:13.486481 15979 net.cpp:156] Memory required for data: 1321601280
I0805 09:38:13.486503 15979 layer_factory.hpp:77] Creating layer conv1
I0805 09:38:13.486536 15979 net.cpp:91] Creating Layer conv1
I0805 09:38:13.486558 15979 net.cpp:425] conv1 <- Pooling19
I0805 09:38:13.486588 15979 net.cpp:399] conv1 -> Convolution32
I0805 09:38:13.488950 15979 net.cpp:141] Setting up conv1
I0805 09:38:13.488981 15979 net.cpp:148] Top shape: 64 64 32 32 (4194304)
I0805 09:38:13.489002 15979 net.cpp:156] Memory required for data: 1338378496
I0805 09:38:13.489029 15979 layer_factory.hpp:77] Creating layer ReLU38
I0805 09:38:13.489065 15979 net.cpp:91] Creating Layer ReLU38
I0805 09:38:13.489089 15979 net.cpp:425] ReLU38 <- Convolution32
I0805 09:38:13.489112 15979 net.cpp:386] ReLU38 -> Convolution32 (in-place)
I0805 09:38:13.489138 15979 net.cpp:141] Setting up ReLU38
I0805 09:38:13.489162 15979 net.cpp:148] Top shape: 64 64 32 32 (4194304)
I0805 09:38:13.489182 15979 net.cpp:156] Memory required for data: 1355155712
I0805 09:38:13.489203 15979 layer_factory.hpp:77] Creating layer pool1
I0805 09:38:13.489230 15979 net.cpp:91] Creating Layer pool1
I0805 09:38:13.489253 15979 net.cpp:425] pool1 <- Convolution32
I0805 09:38:13.489277 15979 net.cpp:399] pool1 -> Pooling20
I0805 09:38:13.489357 15979 net.cpp:141] Setting up pool1
I0805 09:38:13.489383 15979 net.cpp:148] Top shape: 64 64 16 16 (1048576)
I0805 09:38:13.489404 15979 net.cpp:156] Memory required for data: 1359350016
I0805 09:38:13.489424 15979 layer_factory.hpp:77] Creating layer conv2
I0805 09:38:13.489455 15979 net.cpp:91] Creating Layer conv2
I0805 09:38:13.489477 15979 net.cpp:425] conv2 <- Pooling20
I0805 09:38:13.489503 15979 net.cpp:399] conv2 -> Convolution33
I0805 09:38:13.492684 15979 net.cpp:141] Setting up conv2
I0805 09:38:13.492727 15979 net.cpp:148] Top shape: 64 96 16 16 (1572864)
I0805 09:38:13.492750 15979 net.cpp:156] Memory required for data: 1365641472
I0805 09:38:13.492780 15979 layer_factory.hpp:77] Creating layer ReLU39
I0805 09:38:13.492808 15979 net.cpp:91] Creating Layer ReLU39
I0805 09:38:13.492832 15979 net.cpp:425] ReLU39 <- Convolution33
I0805 09:38:13.492861 15979 net.cpp:386] ReLU39 -> Convolution33 (in-place)
I0805 09:38:13.492892 15979 net.cpp:141] Setting up ReLU39
I0805 09:38:13.492916 15979 net.cpp:148] Top shape: 64 96 16 16 (1572864)
I0805 09:38:13.492939 15979 net.cpp:156] Memory required for data: 1371932928
I0805 09:38:13.492964 15979 layer_factory.hpp:77] Creating layer conv3
I0805 09:38:13.492995 15979 net.cpp:91] Creating Layer conv3
I0805 09:38:13.493019 15979 net.cpp:425] conv3 <- Convolution33
I0805 09:38:13.493047 15979 net.cpp:399] conv3 -> Convolution34
I0805 09:38:13.499390 15979 net.cpp:141] Setting up conv3
I0805 09:38:13.499465 15979 net.cpp:148] Top shape: 64 96 16 16 (1572864)
I0805 09:38:13.499490 15979 net.cpp:156] Memory required for data: 1378224384
I0805 09:38:13.499521 15979 layer_factory.hpp:77] Creating layer ReLU40
I0805 09:38:13.499550 15979 net.cpp:91] Creating Layer ReLU40
I0805 09:38:13.499577 15979 net.cpp:425] ReLU40 <- Convolution34
I0805 09:38:13.499603 15979 net.cpp:386] ReLU40 -> Convolution34 (in-place)
I0805 09:38:13.499632 15979 net.cpp:141] Setting up ReLU40
I0805 09:38:13.499657 15979 net.cpp:148] Top shape: 64 96 16 16 (1572864)
I0805 09:38:13.499680 15979 net.cpp:156] Memory required for data: 1384515840
I0805 09:38:13.499702 15979 layer_factory.hpp:77] Creating layer conv4
I0805 09:38:13.499735 15979 net.cpp:91] Creating Layer conv4
I0805 09:38:13.499759 15979 net.cpp:425] conv4 <- Convolution34
I0805 09:38:13.499788 15979 net.cpp:399] conv4 -> Convolution35
I0805 09:38:13.503686 15979 net.cpp:141] Setting up conv4
I0805 09:38:13.503732 15979 net.cpp:148] Top shape: 64 64 16 16 (1048576)
I0805 09:38:13.503760 15979 net.cpp:156] Memory required for data: 1388710144
I0805 09:38:13.503794 15979 layer_factory.hpp:77] Creating layer ReLU41
I0805 09:38:13.503825 15979 net.cpp:91] Creating Layer ReLU41
I0805 09:38:13.503854 15979 net.cpp:425] ReLU41 <- Convolution35
I0805 09:38:13.503885 15979 net.cpp:386] ReLU41 -> Convolution35 (in-place)
I0805 09:38:13.503917 15979 net.cpp:141] Setting up ReLU41
I0805 09:38:13.503947 15979 net.cpp:148] Top shape: 64 64 16 16 (1048576)
I0805 09:38:13.503973 15979 net.cpp:156] Memory required for data: 1392904448
I0805 09:38:13.504000 15979 layer_factory.hpp:77] Creating layer pool4
I0805 09:38:13.504034 15979 net.cpp:91] Creating Layer pool4
I0805 09:38:13.504138 15979 net.cpp:425] pool4 <- Convolution35
I0805 09:38:13.504169 15979 net.cpp:399] pool4 -> Pooling21
I0805 09:38:13.504243 15979 net.cpp:141] Setting up pool4
I0805 09:38:13.504278 15979 net.cpp:148] Top shape: 64 64 8 8 (262144)
I0805 09:38:13.504300 15979 net.cpp:156] Memory required for data: 1393953024
I0805 09:38:13.504324 15979 layer_factory.hpp:77] Creating layer conv0
I0805 09:38:13.504356 15979 net.cpp:91] Creating Layer conv0
I0805 09:38:13.504381 15979 net.cpp:425] conv0 <- c23
I0805 09:38:13.504410 15979 net.cpp:399] conv0 -> Convolution36
I0805 09:38:13.504964 15979 net.cpp:141] Setting up conv0
I0805 09:38:13.504992 15979 net.cpp:148] Top shape: 64 24 64 64 (6291456)
I0805 09:38:13.505014 15979 net.cpp:156] Memory required for data: 1419118848
I0805 09:38:13.505043 15979 layer_factory.hpp:77] Creating layer ReLU42
I0805 09:38:13.505067 15979 net.cpp:91] Creating Layer ReLU42
I0805 09:38:13.505090 15979 net.cpp:425] ReLU42 <- Convolution36
I0805 09:38:13.505120 15979 net.cpp:386] ReLU42 -> Convolution36 (in-place)
I0805 09:38:13.505147 15979 net.cpp:141] Setting up ReLU42
I0805 09:38:13.505172 15979 net.cpp:148] Top shape: 64 24 64 64 (6291456)
I0805 09:38:13.505194 15979 net.cpp:156] Memory required for data: 1444284672
I0805 09:38:13.505218 15979 layer_factory.hpp:77] Creating layer pool0
I0805 09:38:13.505242 15979 net.cpp:91] Creating Layer pool0
I0805 09:38:13.505266 15979 net.cpp:425] pool0 <- Convolution36
I0805 09:38:13.505295 15979 net.cpp:399] pool0 -> Pooling22
I0805 09:38:13.505369 15979 net.cpp:141] Setting up pool0
I0805 09:38:13.505399 15979 net.cpp:148] Top shape: 64 24 32 32 (1572864)
I0805 09:38:13.505424 15979 net.cpp:156] Memory required for data: 1450576128
I0805 09:38:13.505446 15979 layer_factory.hpp:77] Creating layer conv1
I0805 09:38:13.505478 15979 net.cpp:91] Creating Layer conv1
I0805 09:38:13.505501 15979 net.cpp:425] conv1 <- Pooling22
I0805 09:38:13.505533 15979 net.cpp:399] conv1 -> Convolution37
I0805 09:38:13.513578 15979 net.cpp:141] Setting up conv1
I0805 09:38:13.513675 15979 net.cpp:148] Top shape: 64 64 32 32 (4194304)
I0805 09:38:13.513703 15979 net.cpp:156] Memory required for data: 1467353344
I0805 09:38:13.513739 15979 layer_factory.hpp:77] Creating layer ReLU43
I0805 09:38:13.513773 15979 net.cpp:91] Creating Layer ReLU43
I0805 09:38:13.513804 15979 net.cpp:425] ReLU43 <- Convolution37
I0805 09:38:13.513835 15979 net.cpp:386] ReLU43 -> Convolution37 (in-place)
I0805 09:38:13.513870 15979 net.cpp:141] Setting up ReLU43
I0805 09:38:13.513898 15979 net.cpp:148] Top shape: 64 64 32 32 (4194304)
I0805 09:38:13.513924 15979 net.cpp:156] Memory required for data: 1484130560
I0805 09:38:13.513950 15979 layer_factory.hpp:77] Creating layer pool1
I0805 09:38:13.513985 15979 net.cpp:91] Creating Layer pool1
I0805 09:38:13.514014 15979 net.cpp:425] pool1 <- Convolution37
I0805 09:38:13.514045 15979 net.cpp:399] pool1 -> Pooling23
I0805 09:38:13.514132 15979 net.cpp:141] Setting up pool1
I0805 09:38:13.514163 15979 net.cpp:148] Top shape: 64 64 16 16 (1048576)
I0805 09:38:13.514189 15979 net.cpp:156] Memory required for data: 1488324864
I0805 09:38:13.514215 15979 layer_factory.hpp:77] Creating layer conv2
I0805 09:38:13.514251 15979 net.cpp:91] Creating Layer conv2
I0805 09:38:13.514279 15979 net.cpp:425] conv2 <- Pooling23
I0805 09:38:13.514314 15979 net.cpp:399] conv2 -> Convolution38
I0805 09:38:13.533424 15979 net.cpp:141] Setting up conv2
I0805 09:38:13.533471 15979 net.cpp:148] Top shape: 64 96 16 16 (1572864)
I0805 09:38:13.533479 15979 net.cpp:156] Memory required for data: 1494616320
I0805 09:38:13.534806 15979 layer_factory.hpp:77] Creating layer ReLU44
I0805 09:38:13.534831 15979 net.cpp:91] Creating Layer ReLU44
I0805 09:38:13.534844 15979 net.cpp:425] ReLU44 <- Convolution38
I0805 09:38:13.534855 15979 net.cpp:386] ReLU44 -> Convolution38 (in-place)
I0805 09:38:13.534870 15979 net.cpp:141] Setting up ReLU44
I0805 09:38:13.534879 15979 net.cpp:148] Top shape: 64 96 16 16 (1572864)
I0805 09:38:13.534886 15979 net.cpp:156] Memory required for data: 1500907776
I0805 09:38:13.534893 15979 layer_factory.hpp:77] Creating layer conv3
I0805 09:38:13.534915 15979 net.cpp:91] Creating Layer conv3
I0805 09:38:13.534924 15979 net.cpp:425] conv3 <- Convolution38
I0805 09:38:13.534937 15979 net.cpp:399] conv3 -> Convolution39
I0805 09:38:13.552485 15979 net.cpp:141] Setting up conv3
I0805 09:38:13.552525 15979 net.cpp:148] Top shape: 64 96 16 16 (1572864)
I0805 09:38:13.552532 15979 net.cpp:156] Memory required for data: 1507199232
I0805 09:38:13.552548 15979 layer_factory.hpp:77] Creating layer ReLU45
I0805 09:38:13.552563 15979 net.cpp:91] Creating Layer ReLU45
I0805 09:38:13.552574 15979 net.cpp:425] ReLU45 <- Convolution39
I0805 09:38:13.552585 15979 net.cpp:386] ReLU45 -> Convolution39 (in-place)
I0805 09:38:13.552601 15979 net.cpp:141] Setting up ReLU45
I0805 09:38:13.552609 15979 net.cpp:148] Top shape: 64 96 16 16 (1572864)
I0805 09:38:13.552615 15979 net.cpp:156] Memory required for data: 1513490688
I0805 09:38:13.552623 15979 layer_factory.hpp:77] Creating layer conv4
I0805 09:38:13.552644 15979 net.cpp:91] Creating Layer conv4
I0805 09:38:13.552651 15979 net.cpp:425] conv4 <- Convolution39
I0805 09:38:13.552666 15979 net.cpp:399] conv4 -> Convolution40
I0805 09:38:13.567837 15979 net.cpp:141] Setting up conv4
I0805 09:38:13.567869 15979 net.cpp:148] Top shape: 64 64 16 16 (1048576)
I0805 09:38:13.567876 15979 net.cpp:156] Memory required for data: 1517684992
I0805 09:38:13.567890 15979 layer_factory.hpp:77] Creating layer ReLU46
I0805 09:38:13.567908 15979 net.cpp:91] Creating Layer ReLU46
I0805 09:38:13.567919 15979 net.cpp:425] ReLU46 <- Convolution40
I0805 09:38:13.567929 15979 net.cpp:386] ReLU46 -> Convolution40 (in-place)
I0805 09:38:13.567942 15979 net.cpp:141] Setting up ReLU46
I0805 09:38:13.567951 15979 net.cpp:148] Top shape: 64 64 16 16 (1048576)
I0805 09:38:13.567957 15979 net.cpp:156] Memory required for data: 1521879296
I0805 09:38:13.567963 15979 layer_factory.hpp:77] Creating layer pool4
I0805 09:38:13.567976 15979 net.cpp:91] Creating Layer pool4
I0805 09:38:13.567983 15979 net.cpp:425] pool4 <- Convolution40
I0805 09:38:13.567994 15979 net.cpp:399] pool4 -> Pooling24
I0805 09:38:13.568048 15979 net.cpp:141] Setting up pool4
I0805 09:38:13.568060 15979 net.cpp:148] Top shape: 64 64 8 8 (262144)
I0805 09:38:13.568068 15979 net.cpp:156] Memory required for data: 1522927872
I0805 09:38:13.568073 15979 layer_factory.hpp:77] Creating layer Concat4
I0805 09:38:13.568086 15979 net.cpp:91] Creating Layer Concat4
I0805 09:38:13.568094 15979 net.cpp:425] Concat4 <- Pooling21
I0805 09:38:13.568101 15979 net.cpp:425] Concat4 <- Pooling24
I0805 09:38:13.568111 15979 net.cpp:399] Concat4 -> Concat4
I0805 09:38:13.568148 15979 net.cpp:141] Setting up Concat4
I0805 09:38:13.568161 15979 net.cpp:148] Top shape: 64 128 8 8 (524288)
I0805 09:38:13.568168 15979 net.cpp:156] Memory required for data: 1525025024
I0805 09:38:13.568174 15979 layer_factory.hpp:77] Creating layer InnerProduct7
I0805 09:38:13.568188 15979 net.cpp:91] Creating Layer InnerProduct7
I0805 09:38:13.568195 15979 net.cpp:425] InnerProduct7 <- Concat4
I0805 09:38:13.568207 15979 net.cpp:399] InnerProduct7 -> InnerProduct7
I0805 09:38:13.579154 15979 net.cpp:141] Setting up InnerProduct7
I0805 09:38:13.579190 15979 net.cpp:148] Top shape: 64 128 (8192)
I0805 09:38:13.579197 15979 net.cpp:156] Memory required for data: 1525057792
I0805 09:38:13.579207 15979 net.cpp:484] Sharing parameters 'fc1_w' owned by layer 'InnerProduct1', param index 0
I0805 09:38:13.579217 15979 net.cpp:484] Sharing parameters 'fc1_b' owned by layer 'InnerProduct1', param index 1
I0805 09:38:13.579226 15979 layer_factory.hpp:77] Creating layer ReLU47
I0805 09:38:13.579246 15979 net.cpp:91] Creating Layer ReLU47
I0805 09:38:13.579257 15979 net.cpp:425] ReLU47 <- InnerProduct7
I0805 09:38:13.579268 15979 net.cpp:386] ReLU47 -> InnerProduct7 (in-place)
I0805 09:38:13.582008 15979 net.cpp:141] Setting up ReLU47
I0805 09:38:13.582026 15979 net.cpp:148] Top shape: 64 128 (8192)
I0805 09:38:13.582032 15979 net.cpp:156] Memory required for data: 1525090560
I0805 09:38:13.582038 15979 layer_factory.hpp:77] Creating layer InnerProduct8
I0805 09:38:13.582052 15979 net.cpp:91] Creating Layer InnerProduct8
I0805 09:38:13.582058 15979 net.cpp:425] InnerProduct8 <- InnerProduct7
I0805 09:38:13.582069 15979 net.cpp:399] InnerProduct8 -> InnerProduct8
I0805 09:38:13.582392 15979 net.cpp:141] Setting up InnerProduct8
I0805 09:38:13.582412 15979 net.cpp:148] Top shape: 64 128 (8192)
I0805 09:38:13.582427 15979 net.cpp:156] Memory required for data: 1525123328
I0805 09:38:13.582437 15979 net.cpp:484] Sharing parameters 'fc2_w' owned by layer 'InnerProduct2', param index 0
I0805 09:38:13.582448 15979 net.cpp:484] Sharing parameters 'fc2_b' owned by layer 'InnerProduct2', param index 1
I0805 09:38:13.582458 15979 layer_factory.hpp:77] Creating layer ReLU48
I0805 09:38:13.582471 15979 net.cpp:91] Creating Layer ReLU48
I0805 09:38:13.582486 15979 net.cpp:425] ReLU48 <- InnerProduct8
I0805 09:38:13.582497 15979 net.cpp:386] ReLU48 -> InnerProduct8 (in-place)
I0805 09:38:13.582509 15979 net.cpp:141] Setting up ReLU48
I0805 09:38:13.582516 15979 net.cpp:148] Top shape: 64 128 (8192)
I0805 09:38:13.582522 15979 net.cpp:156] Memory required for data: 1525156096
I0805 09:38:13.582530 15979 layer_factory.hpp:77] Creating layer dt3
I0805 09:38:13.582543 15979 net.cpp:91] Creating Layer dt3
I0805 09:38:13.582551 15979 net.cpp:425] dt3 <- InnerProduct8
I0805 09:38:13.582767 15979 net.cpp:399] dt3 -> dt3
I0805 09:38:13.582926 15979 net.cpp:141] Setting up dt3
I0805 09:38:13.582936 15979 net.cpp:148] Top shape: 64 1 (64)
I0805 09:38:13.582942 15979 net.cpp:156] Memory required for data: 1525156352
I0805 09:38:13.582947 15979 net.cpp:484] Sharing parameters 'fc3_w' owned by layer 'dt0', param index 0
I0805 09:38:13.582954 15979 net.cpp:484] Sharing parameters 'fc3_b' owned by layer 'dt0', param index 1
I0805 09:38:13.582960 15979 layer_factory.hpp:77] Creating layer conv0
I0805 09:38:13.582972 15979 net.cpp:91] Creating Layer conv0
I0805 09:38:13.582978 15979 net.cpp:425] conv0 <- p1_p1_0_split_4
I0805 09:38:13.582991 15979 net.cpp:399] conv0 -> Convolution41
I0805 09:38:13.583513 15979 net.cpp:141] Setting up conv0
I0805 09:38:13.583524 15979 net.cpp:148] Top shape: 64 24 64 64 (6291456)
I0805 09:38:13.583529 15979 net.cpp:156] Memory required for data: 1550322176
I0805 09:38:13.583539 15979 layer_factory.hpp:77] Creating layer ReLU49
I0805 09:38:13.583546 15979 net.cpp:91] Creating Layer ReLU49
I0805 09:38:13.583552 15979 net.cpp:425] ReLU49 <- Convolution41
I0805 09:38:13.583559 15979 net.cpp:386] ReLU49 -> Convolution41 (in-place)
I0805 09:38:13.583567 15979 net.cpp:141] Setting up ReLU49
I0805 09:38:13.583575 15979 net.cpp:148] Top shape: 64 24 64 64 (6291456)
I0805 09:38:13.583580 15979 net.cpp:156] Memory required for data: 1575488000
I0805 09:38:13.583585 15979 layer_factory.hpp:77] Creating layer pool0
I0805 09:38:13.583597 15979 net.cpp:91] Creating Layer pool0
I0805 09:38:13.583603 15979 net.cpp:425] pool0 <- Convolution41
I0805 09:38:13.583612 15979 net.cpp:399] pool0 -> Pooling25
I0805 09:38:13.583662 15979 net.cpp:141] Setting up pool0
I0805 09:38:13.583672 15979 net.cpp:148] Top shape: 64 24 32 32 (1572864)
I0805 09:38:13.583676 15979 net.cpp:156] Memory required for data: 1581779456
I0805 09:38:13.583681 15979 layer_factory.hpp:77] Creating layer conv1
I0805 09:38:13.583694 15979 net.cpp:91] Creating Layer conv1
I0805 09:38:13.583699 15979 net.cpp:425] conv1 <- Pooling25
I0805 09:38:13.583709 15979 net.cpp:399] conv1 -> Convolution42
I0805 09:38:13.585973 15979 net.cpp:141] Setting up conv1
I0805 09:38:13.591311 15979 net.cpp:148] Top shape: 64 64 32 32 (4194304)
I0805 09:38:13.591367 15979 net.cpp:156] Memory required for data: 1598556672
I0805 09:38:13.591404 15979 layer_factory.hpp:77] Creating layer ReLU50
I0805 09:38:13.591445 15979 net.cpp:91] Creating Layer ReLU50
I0805 09:38:13.591476 15979 net.cpp:425] ReLU50 <- Convolution42
I0805 09:38:13.591506 15979 net.cpp:386] ReLU50 -> Convolution42 (in-place)
I0805 09:38:13.591538 15979 net.cpp:141] Setting up ReLU50
I0805 09:38:13.591565 15979 net.cpp:148] Top shape: 64 64 32 32 (4194304)
I0805 09:38:13.591588 15979 net.cpp:156] Memory required for data: 1615333888
I0805 09:38:13.591612 15979 layer_factory.hpp:77] Creating layer pool1
I0805 09:38:13.591650 15979 net.cpp:91] Creating Layer pool1
I0805 09:38:13.591675 15979 net.cpp:425] pool1 <- Convolution42
I0805 09:38:13.591709 15979 net.cpp:399] pool1 -> Pooling26
I0805 09:38:13.591809 15979 net.cpp:141] Setting up pool1
I0805 09:38:13.591836 15979 net.cpp:148] Top shape: 64 64 16 16 (1048576)
I0805 09:38:13.591859 15979 net.cpp:156] Memory required for data: 1619528192
I0805 09:38:13.591882 15979 layer_factory.hpp:77] Creating layer conv2
I0805 09:38:13.591920 15979 net.cpp:91] Creating Layer conv2
I0805 09:38:13.591945 15979 net.cpp:425] conv2 <- Pooling26
I0805 09:38:13.591974 15979 net.cpp:399] conv2 -> Convolution43
I0805 09:38:13.595813 15979 net.cpp:141] Setting up conv2
I0805 09:38:13.603310 15979 net.cpp:148] Top shape: 64 96 16 16 (1572864)
I0805 09:38:13.603364 15979 net.cpp:156] Memory required for data: 1625819648
I0805 09:38:13.603404 15979 layer_factory.hpp:77] Creating layer ReLU51
I0805 09:38:13.603440 15979 net.cpp:91] Creating Layer ReLU51
I0805 09:38:13.603471 15979 net.cpp:425] ReLU51 <- Convolution43
I0805 09:38:13.603502 15979 net.cpp:386] ReLU51 -> Convolution43 (in-place)
I0805 09:38:13.603538 15979 net.cpp:141] Setting up ReLU51
I0805 09:38:13.603567 15979 net.cpp:148] Top shape: 64 96 16 16 (1572864)
I0805 09:38:13.603593 15979 net.cpp:156] Memory required for data: 1632111104
I0805 09:38:13.603621 15979 layer_factory.hpp:77] Creating layer conv3
I0805 09:38:13.603663 15979 net.cpp:91] Creating Layer conv3
I0805 09:38:13.603688 15979 net.cpp:425] conv3 <- Convolution43
I0805 09:38:13.603718 15979 net.cpp:399] conv3 -> Convolution44
I0805 09:38:13.608214 15979 net.cpp:141] Setting up conv3
I0805 09:38:13.608268 15979 net.cpp:148] Top shape: 64 96 16 16 (1572864)
I0805 09:38:13.608295 15979 net.cpp:156] Memory required for data: 1638402560
I0805 09:38:13.608330 15979 layer_factory.hpp:77] Creating layer ReLU52
I0805 09:38:13.608367 15979 net.cpp:91] Creating Layer ReLU52
I0805 09:38:13.608397 15979 net.cpp:425] ReLU52 <- Convolution44
I0805 09:38:13.608427 15979 net.cpp:386] ReLU52 -> Convolution44 (in-place)
I0805 09:38:13.608459 15979 net.cpp:141] Setting up ReLU52
I0805 09:38:13.608489 15979 net.cpp:148] Top shape: 64 96 16 16 (1572864)
I0805 09:38:13.608513 15979 net.cpp:156] Memory required for data: 1644694016
I0805 09:38:13.608541 15979 layer_factory.hpp:77] Creating layer conv4
I0805 09:38:13.608578 15979 net.cpp:91] Creating Layer conv4
I0805 09:38:13.608606 15979 net.cpp:425] conv4 <- Convolution44
I0805 09:38:13.608642 15979 net.cpp:399] conv4 -> Convolution45
I0805 09:38:13.611753 15979 net.cpp:141] Setting up conv4
I0805 09:38:13.615305 15979 net.cpp:148] Top shape: 64 64 16 16 (1048576)
I0805 09:38:13.615356 15979 net.cpp:156] Memory required for data: 1648888320
I0805 09:38:13.615391 15979 layer_factory.hpp:77] Creating layer ReLU53
I0805 09:38:13.615424 15979 net.cpp:91] Creating Layer ReLU53
I0805 09:38:13.615453 15979 net.cpp:425] ReLU53 <- Convolution45
I0805 09:38:13.615483 15979 net.cpp:386] ReLU53 -> Convolution45 (in-place)
I0805 09:38:13.615519 15979 net.cpp:141] Setting up ReLU53
I0805 09:38:13.615547 15979 net.cpp:148] Top shape: 64 64 16 16 (1048576)
I0805 09:38:13.615572 15979 net.cpp:156] Memory required for data: 1653082624
I0805 09:38:13.615598 15979 layer_factory.hpp:77] Creating layer pool4
I0805 09:38:13.615628 15979 net.cpp:91] Creating Layer pool4
I0805 09:38:13.615655 15979 net.cpp:425] pool4 <- Convolution45
I0805 09:38:13.615694 15979 net.cpp:399] pool4 -> Pooling27
I0805 09:38:13.615789 15979 net.cpp:141] Setting up pool4
I0805 09:38:13.615824 15979 net.cpp:148] Top shape: 64 64 8 8 (262144)
I0805 09:38:13.615849 15979 net.cpp:156] Memory required for data: 1654131200
I0805 09:38:13.615875 15979 layer_factory.hpp:77] Creating layer conv0
I0805 09:38:13.615916 15979 net.cpp:91] Creating Layer conv0
I0805 09:38:13.615943 15979 net.cpp:425] conv0 <- c24
I0805 09:38:13.615973 15979 net.cpp:399] conv0 -> Convolution46
I0805 09:38:13.616585 15979 net.cpp:141] Setting up conv0
I0805 09:38:13.627321 15979 net.cpp:148] Top shape: 64 24 64 64 (6291456)
I0805 09:38:13.627400 15979 net.cpp:156] Memory required for data: 1679297024
I0805 09:38:13.627440 15979 layer_factory.hpp:77] Creating layer ReLU54
I0805 09:38:13.627478 15979 net.cpp:91] Creating Layer ReLU54
I0805 09:38:13.627509 15979 net.cpp:425] ReLU54 <- Convolution46
I0805 09:38:13.627547 15979 net.cpp:386] ReLU54 -> Convolution46 (in-place)
I0805 09:38:13.627583 15979 net.cpp:141] Setting up ReLU54
I0805 09:38:13.627611 15979 net.cpp:148] Top shape: 64 24 64 64 (6291456)
I0805 09:38:13.627636 15979 net.cpp:156] Memory required for data: 1704462848
I0805 09:38:13.627661 15979 layer_factory.hpp:77] Creating layer pool0
I0805 09:38:13.627691 15979 net.cpp:91] Creating Layer pool0
I0805 09:38:13.627718 15979 net.cpp:425] pool0 <- Convolution46
I0805 09:38:13.627748 15979 net.cpp:399] pool0 -> Pooling28
I0805 09:38:13.627890 15979 net.cpp:141] Setting up pool0
I0805 09:38:13.627928 15979 net.cpp:148] Top shape: 64 24 32 32 (1572864)
I0805 09:38:13.627954 15979 net.cpp:156] Memory required for data: 1710754304
I0805 09:38:13.627979 15979 layer_factory.hpp:77] Creating layer conv1
I0805 09:38:13.628016 15979 net.cpp:91] Creating Layer conv1
I0805 09:38:13.628044 15979 net.cpp:425] conv1 <- Pooling28
I0805 09:38:13.628078 15979 net.cpp:399] conv1 -> Convolution47
I0805 09:38:13.630381 15979 net.cpp:141] Setting up conv1
I0805 09:38:13.630430 15979 net.cpp:148] Top shape: 64 64 32 32 (4194304)
I0805 09:38:13.630457 15979 net.cpp:156] Memory required for data: 1727531520
I0805 09:38:13.630491 15979 layer_factory.hpp:77] Creating layer ReLU55
I0805 09:38:13.630524 15979 net.cpp:91] Creating Layer ReLU55
I0805 09:38:13.630553 15979 net.cpp:425] ReLU55 <- Convolution47
I0805 09:38:13.630581 15979 net.cpp:386] ReLU55 -> Convolution47 (in-place)
I0805 09:38:13.630616 15979 net.cpp:141] Setting up ReLU55
I0805 09:38:13.630645 15979 net.cpp:148] Top shape: 64 64 32 32 (4194304)
I0805 09:38:13.630669 15979 net.cpp:156] Memory required for data: 1744308736
I0805 09:38:13.630695 15979 layer_factory.hpp:77] Creating layer pool1
I0805 09:38:13.630726 15979 net.cpp:91] Creating Layer pool1
I0805 09:38:13.630753 15979 net.cpp:425] pool1 <- Convolution47
I0805 09:38:13.630785 15979 net.cpp:399] pool1 -> Pooling29
I0805 09:38:13.630868 15979 net.cpp:141] Setting up pool1
I0805 09:38:13.630903 15979 net.cpp:148] Top shape: 64 64 16 16 (1048576)
I0805 09:38:13.630928 15979 net.cpp:156] Memory required for data: 1748503040
I0805 09:38:13.630954 15979 layer_factory.hpp:77] Creating layer conv2
I0805 09:38:13.630990 15979 net.cpp:91] Creating Layer conv2
I0805 09:38:13.631018 15979 net.cpp:425] conv2 <- Pooling29
I0805 09:38:13.631053 15979 net.cpp:399] conv2 -> Convolution48
I0805 09:38:13.634160 15979 net.cpp:141] Setting up conv2
I0805 09:38:13.634209 15979 net.cpp:148] Top shape: 64 96 16 16 (1572864)
I0805 09:38:13.634233 15979 net.cpp:156] Memory required for data: 1754794496
I0805 09:38:13.634263 15979 layer_factory.hpp:77] Creating layer ReLU56
I0805 09:38:13.634294 15979 net.cpp:91] Creating Layer ReLU56
I0805 09:38:13.634320 15979 net.cpp:425] ReLU56 <- Convolution48
I0805 09:38:13.634347 15979 net.cpp:386] ReLU56 -> Convolution48 (in-place)
I0805 09:38:13.634377 15979 net.cpp:141] Setting up ReLU56
I0805 09:38:13.634402 15979 net.cpp:148] Top shape: 64 96 16 16 (1572864)
I0805 09:38:13.634424 15979 net.cpp:156] Memory required for data: 1761085952
I0805 09:38:13.634448 15979 layer_factory.hpp:77] Creating layer conv3
I0805 09:38:13.634480 15979 net.cpp:91] Creating Layer conv3
I0805 09:38:13.634505 15979 net.cpp:425] conv3 <- Convolution48
I0805 09:38:13.634539 15979 net.cpp:399] conv3 -> Convolution49
I0805 09:38:13.639003 15979 net.cpp:141] Setting up conv3
I0805 09:38:13.653153 15979 net.cpp:148] Top shape: 64 96 16 16 (1572864)
I0805 09:38:13.653235 15979 net.cpp:156] Memory required for data: 1767377408
I0805 09:38:13.653275 15979 layer_factory.hpp:77] Creating layer ReLU57
I0805 09:38:13.653313 15979 net.cpp:91] Creating Layer ReLU57
I0805 09:38:13.653344 15979 net.cpp:425] ReLU57 <- Convolution49
I0805 09:38:13.653386 15979 net.cpp:386] ReLU57 -> Convolution49 (in-place)
I0805 09:38:13.653421 15979 net.cpp:141] Setting up ReLU57
I0805 09:38:13.653450 15979 net.cpp:148] Top shape: 64 96 16 16 (1572864)
I0805 09:38:13.653475 15979 net.cpp:156] Memory required for data: 1773668864
I0805 09:38:13.653501 15979 layer_factory.hpp:77] Creating layer conv4
I0805 09:38:13.653551 15979 net.cpp:91] Creating Layer conv4
I0805 09:38:13.653583 15979 net.cpp:425] conv4 <- Convolution49
I0805 09:38:13.653617 15979 net.cpp:399] conv4 -> Convolution50
I0805 09:38:13.656796 15979 net.cpp:141] Setting up conv4
I0805 09:38:13.663311 15979 net.cpp:148] Top shape: 64 64 16 16 (1048576)
I0805 09:38:13.663372 15979 net.cpp:156] Memory required for data: 1777863168
I0805 09:38:13.663409 15979 layer_factory.hpp:77] Creating layer ReLU58
I0805 09:38:13.663449 15979 net.cpp:91] Creating Layer ReLU58
I0805 09:38:13.663480 15979 net.cpp:425] ReLU58 <- Convolution50
I0805 09:38:13.663606 15979 net.cpp:386] ReLU58 -> Convolution50 (in-place)
I0805 09:38:13.663647 15979 net.cpp:141] Setting up ReLU58
I0805 09:38:13.663676 15979 net.cpp:148] Top shape: 64 64 16 16 (1048576)
I0805 09:38:13.663702 15979 net.cpp:156] Memory required for data: 1782057472
I0805 09:38:13.663727 15979 layer_factory.hpp:77] Creating layer pool4
I0805 09:38:13.663756 15979 net.cpp:91] Creating Layer pool4
I0805 09:38:13.663784 15979 net.cpp:425] pool4 <- Convolution50
I0805 09:38:13.663816 15979 net.cpp:399] pool4 -> Pooling30
I0805 09:38:13.663933 15979 net.cpp:141] Setting up pool4
I0805 09:38:13.663967 15979 net.cpp:148] Top shape: 64 64 8 8 (262144)
I0805 09:38:13.663993 15979 net.cpp:156] Memory required for data: 1783106048
I0805 09:38:13.664018 15979 layer_factory.hpp:77] Creating layer Concat5
I0805 09:38:13.664048 15979 net.cpp:91] Creating Layer Concat5
I0805 09:38:13.664078 15979 net.cpp:425] Concat5 <- Pooling27
I0805 09:38:13.664106 15979 net.cpp:425] Concat5 <- Pooling30
I0805 09:38:13.664137 15979 net.cpp:399] Concat5 -> Concat5
I0805 09:38:13.664196 15979 net.cpp:141] Setting up Concat5
I0805 09:38:13.664228 15979 net.cpp:148] Top shape: 64 128 8 8 (524288)
I0805 09:38:13.664254 15979 net.cpp:156] Memory required for data: 1785203200
I0805 09:38:13.664279 15979 layer_factory.hpp:77] Creating layer InnerProduct9
I0805 09:38:13.664314 15979 net.cpp:91] Creating Layer InnerProduct9
I0805 09:38:13.664341 15979 net.cpp:425] InnerProduct9 <- Concat5
I0805 09:38:13.664376 15979 net.cpp:399] InnerProduct9 -> InnerProduct9
I0805 09:38:13.682976 15979 net.cpp:141] Setting up InnerProduct9
I0805 09:38:13.686951 15979 net.cpp:148] Top shape: 64 128 (8192)
I0805 09:38:13.687105 15979 net.cpp:156] Memory required for data: 1785235968
I0805 09:38:13.688329 15979 net.cpp:484] Sharing parameters 'fc1_w' owned by layer 'InnerProduct1', param index 0
I0805 09:38:13.688446 15979 net.cpp:484] Sharing parameters 'fc1_b' owned by layer 'InnerProduct1', param index 1
I0805 09:38:13.688549 15979 layer_factory.hpp:77] Creating layer ReLU59
I0805 09:38:13.688657 15979 net.cpp:91] Creating Layer ReLU59
I0805 09:38:13.688766 15979 net.cpp:425] ReLU59 <- InnerProduct9
I0805 09:38:13.688880 15979 net.cpp:386] ReLU59 -> InnerProduct9 (in-place)
I0805 09:38:13.688990 15979 net.cpp:141] Setting up ReLU59
I0805 09:38:13.689093 15979 net.cpp:148] Top shape: 64 128 (8192)
I0805 09:38:13.689193 15979 net.cpp:156] Memory required for data: 1785268736
I0805 09:38:13.689292 15979 layer_factory.hpp:77] Creating layer InnerProduct10
I0805 09:38:13.689396 15979 net.cpp:91] Creating Layer InnerProduct10
I0805 09:38:13.689497 15979 net.cpp:425] InnerProduct10 <- InnerProduct9
I0805 09:38:13.689606 15979 net.cpp:399] InnerProduct10 -> InnerProduct10
I0805 09:38:13.690047 15979 net.cpp:141] Setting up InnerProduct10
I0805 09:38:13.690157 15979 net.cpp:148] Top shape: 64 128 (8192)
I0805 09:38:13.690256 15979 net.cpp:156] Memory required for data: 1785301504
I0805 09:38:13.690359 15979 net.cpp:484] Sharing parameters 'fc2_w' owned by layer 'InnerProduct2', param index 0
I0805 09:38:13.690474 15979 net.cpp:484] Sharing parameters 'fc2_b' owned by layer 'InnerProduct2', param index 1
I0805 09:38:13.690574 15979 layer_factory.hpp:77] Creating layer ReLU60
I0805 09:38:13.690676 15979 net.cpp:91] Creating Layer ReLU60
I0805 09:38:13.690774 15979 net.cpp:425] ReLU60 <- InnerProduct10
I0805 09:38:13.690876 15979 net.cpp:386] ReLU60 -> InnerProduct10 (in-place)
I0805 09:38:13.690979 15979 net.cpp:141] Setting up ReLU60
I0805 09:38:13.691078 15979 net.cpp:148] Top shape: 64 128 (8192)
I0805 09:38:13.691174 15979 net.cpp:156] Memory required for data: 1785334272
I0805 09:38:13.691283 15979 layer_factory.hpp:77] Creating layer dt4
I0805 09:38:13.691390 15979 net.cpp:91] Creating Layer dt4
I0805 09:38:13.691488 15979 net.cpp:425] dt4 <- InnerProduct10
I0805 09:38:13.691596 15979 net.cpp:399] dt4 -> dt4
I0805 09:38:13.691856 15979 net.cpp:141] Setting up dt4
I0805 09:38:13.691962 15979 net.cpp:148] Top shape: 64 1 (64)
I0805 09:38:13.692057 15979 net.cpp:156] Memory required for data: 1785334528
I0805 09:38:13.692208 15979 net.cpp:484] Sharing parameters 'fc3_w' owned by layer 'dt0', param index 0
I0805 09:38:13.695298 15979 net.cpp:484] Sharing parameters 'fc3_b' owned by layer 'dt0', param index 1
I0805 09:38:13.695431 15979 layer_factory.hpp:77] Creating layer conv0
I0805 09:38:13.695546 15979 net.cpp:91] Creating Layer conv0
I0805 09:38:13.695652 15979 net.cpp:425] conv0 <- p1_p1_0_split_5
I0805 09:38:13.695766 15979 net.cpp:399] conv0 -> Convolution51
I0805 09:38:13.696475 15979 net.cpp:141] Setting up conv0
I0805 09:38:13.696600 15979 net.cpp:148] Top shape: 64 24 64 64 (6291456)
I0805 09:38:13.696702 15979 net.cpp:156] Memory required for data: 1810500352
I0805 09:38:13.696807 15979 layer_factory.hpp:77] Creating layer ReLU61
I0805 09:38:13.696909 15979 net.cpp:91] Creating Layer ReLU61
I0805 09:38:13.697010 15979 net.cpp:425] ReLU61 <- Convolution51
I0805 09:38:13.697110 15979 net.cpp:386] ReLU61 -> Convolution51 (in-place)
I0805 09:38:13.697212 15979 net.cpp:141] Setting up ReLU61
I0805 09:38:13.697312 15979 net.cpp:148] Top shape: 64 24 64 64 (6291456)
I0805 09:38:13.697408 15979 net.cpp:156] Memory required for data: 1835666176
I0805 09:38:13.697505 15979 layer_factory.hpp:77] Creating layer pool0
I0805 09:38:13.697609 15979 net.cpp:91] Creating Layer pool0
I0805 09:38:13.697707 15979 net.cpp:425] pool0 <- Convolution51
I0805 09:38:13.697809 15979 net.cpp:399] pool0 -> Pooling31
I0805 09:38:13.697970 15979 net.cpp:141] Setting up pool0
I0805 09:38:13.698047 15979 net.cpp:148] Top shape: 64 24 32 32 (1572864)
I0805 09:38:13.698071 15979 net.cpp:156] Memory required for data: 1841957632
I0805 09:38:13.698093 15979 layer_factory.hpp:77] Creating layer conv1
I0805 09:38:13.698125 15979 net.cpp:91] Creating Layer conv1
I0805 09:38:13.698149 15979 net.cpp:425] conv1 <- Pooling31
I0805 09:38:13.698182 15979 net.cpp:399] conv1 -> Convolution52
I0805 09:38:13.701237 15979 net.cpp:141] Setting up conv1
I0805 09:38:13.706435 15979 net.cpp:148] Top shape: 64 64 32 32 (4194304)
I0805 09:38:13.706490 15979 net.cpp:156] Memory required for data: 1858734848
I0805 09:38:13.706526 15979 layer_factory.hpp:77] Creating layer ReLU62
I0805 09:38:13.706559 15979 net.cpp:91] Creating Layer ReLU62
I0805 09:38:13.706588 15979 net.cpp:425] ReLU62 <- Convolution52
I0805 09:38:13.706624 15979 net.cpp:386] ReLU62 -> Convolution52 (in-place)
I0805 09:38:13.706662 15979 net.cpp:141] Setting up ReLU62
I0805 09:38:13.706692 15979 net.cpp:148] Top shape: 64 64 32 32 (4194304)
I0805 09:38:13.706717 15979 net.cpp:156] Memory required for data: 1875512064
I0805 09:38:13.706743 15979 layer_factory.hpp:77] Creating layer pool1
I0805 09:38:13.706773 15979 net.cpp:91] Creating Layer pool1
I0805 09:38:13.706799 15979 net.cpp:425] pool1 <- Convolution52
I0805 09:38:13.706831 15979 net.cpp:399] pool1 -> Pooling32
I0805 09:38:13.706939 15979 net.cpp:141] Setting up pool1
I0805 09:38:13.706974 15979 net.cpp:148] Top shape: 64 64 16 16 (1048576)
I0805 09:38:13.706998 15979 net.cpp:156] Memory required for data: 1879706368
I0805 09:38:13.707025 15979 layer_factory.hpp:77] Creating layer conv2
I0805 09:38:13.707067 15979 net.cpp:91] Creating Layer conv2
I0805 09:38:13.707094 15979 net.cpp:425] conv2 <- Pooling32
I0805 09:38:13.707129 15979 net.cpp:399] conv2 -> Convolution53
I0805 09:38:13.711774 15979 net.cpp:141] Setting up conv2
I0805 09:38:13.711833 15979 net.cpp:148] Top shape: 64 96 16 16 (1572864)
I0805 09:38:13.711860 15979 net.cpp:156] Memory required for data: 1885997824
I0805 09:38:13.711892 15979 layer_factory.hpp:77] Creating layer ReLU63
I0805 09:38:13.711923 15979 net.cpp:91] Creating Layer ReLU63
I0805 09:38:13.711951 15979 net.cpp:425] ReLU63 <- Convolution53
I0805 09:38:13.711984 15979 net.cpp:386] ReLU63 -> Convolution53 (in-place)
I0805 09:38:13.712020 15979 net.cpp:141] Setting up ReLU63
I0805 09:38:13.712049 15979 net.cpp:148] Top shape: 64 96 16 16 (1572864)
I0805 09:38:13.712074 15979 net.cpp:156] Memory required for data: 1892289280
I0805 09:38:13.712100 15979 layer_factory.hpp:77] Creating layer conv3
I0805 09:38:13.712137 15979 net.cpp:91] Creating Layer conv3
I0805 09:38:13.712163 15979 net.cpp:425] conv3 <- Convolution53
I0805 09:38:13.712194 15979 net.cpp:399] conv3 -> Convolution54
I0805 09:38:13.717367 15979 net.cpp:141] Setting up conv3
I0805 09:38:13.717432 15979 net.cpp:148] Top shape: 64 96 16 16 (1572864)
I0805 09:38:13.717458 15979 net.cpp:156] Memory required for data: 1898580736
I0805 09:38:13.717492 15979 layer_factory.hpp:77] Creating layer ReLU64
I0805 09:38:13.717522 15979 net.cpp:91] Creating Layer ReLU64
I0805 09:38:13.717550 15979 net.cpp:425] ReLU64 <- Convolution54
I0805 09:38:13.717579 15979 net.cpp:386] ReLU64 -> Convolution54 (in-place)
I0805 09:38:13.717612 15979 net.cpp:141] Setting up ReLU64
I0805 09:38:13.717643 15979 net.cpp:148] Top shape: 64 96 16 16 (1572864)
I0805 09:38:13.717669 15979 net.cpp:156] Memory required for data: 1904872192
I0805 09:38:13.717694 15979 layer_factory.hpp:77] Creating layer conv4
I0805 09:38:13.717735 15979 net.cpp:91] Creating Layer conv4
I0805 09:38:13.717762 15979 net.cpp:425] conv4 <- Convolution54
I0805 09:38:13.717793 15979 net.cpp:399] conv4 -> Convolution55
I0805 09:38:13.720911 15979 net.cpp:141] Setting up conv4
I0805 09:38:13.720964 15979 net.cpp:148] Top shape: 64 64 16 16 (1048576)
I0805 09:38:13.720991 15979 net.cpp:156] Memory required for data: 1909066496
I0805 09:38:13.721024 15979 layer_factory.hpp:77] Creating layer ReLU65
I0805 09:38:13.721053 15979 net.cpp:91] Creating Layer ReLU65
I0805 09:38:13.721081 15979 net.cpp:425] ReLU65 <- Convolution55
I0805 09:38:13.721109 15979 net.cpp:386] ReLU65 -> Convolution55 (in-place)
I0805 09:38:13.721143 15979 net.cpp:141] Setting up ReLU65
I0805 09:38:13.721173 15979 net.cpp:148] Top shape: 64 64 16 16 (1048576)
I0805 09:38:13.721197 15979 net.cpp:156] Memory required for data: 1913260800
I0805 09:38:13.721227 15979 layer_factory.hpp:77] Creating layer pool4
I0805 09:38:13.721259 15979 net.cpp:91] Creating Layer pool4
I0805 09:38:13.721287 15979 net.cpp:425] pool4 <- Convolution55
I0805 09:38:13.721314 15979 net.cpp:399] pool4 -> Pooling33
I0805 09:38:13.721390 15979 net.cpp:141] Setting up pool4
I0805 09:38:13.721418 15979 net.cpp:148] Top shape: 64 64 8 8 (262144)
I0805 09:38:13.721442 15979 net.cpp:156] Memory required for data: 1914309376
I0805 09:38:13.721467 15979 layer_factory.hpp:77] Creating layer conv0
I0805 09:38:13.721500 15979 net.cpp:91] Creating Layer conv0
I0805 09:38:13.721527 15979 net.cpp:425] conv0 <- c25
I0805 09:38:13.721555 15979 net.cpp:399] conv0 -> Convolution56
I0805 09:38:13.722152 15979 net.cpp:141] Setting up conv0
I0805 09:38:13.722189 15979 net.cpp:148] Top shape: 64 24 64 64 (6291456)
I0805 09:38:13.722213 15979 net.cpp:156] Memory required for data: 1939475200
I0805 09:38:13.722241 15979 layer_factory.hpp:77] Creating layer ReLU66
I0805 09:38:13.722270 15979 net.cpp:91] Creating Layer ReLU66
I0805 09:38:13.722293 15979 net.cpp:425] ReLU66 <- Convolution56
I0805 09:38:13.722323 15979 net.cpp:386] ReLU66 -> Convolution56 (in-place)
I0805 09:38:13.722352 15979 net.cpp:141] Setting up ReLU66
I0805 09:38:13.723588 15979 net.cpp:148] Top shape: 64 24 64 64 (6291456)
I0805 09:38:13.723633 15979 net.cpp:156] Memory required for data: 1964641024
I0805 09:38:13.723657 15979 layer_factory.hpp:77] Creating layer pool0
I0805 09:38:13.723685 15979 net.cpp:91] Creating Layer pool0
I0805 09:38:13.723711 15979 net.cpp:425] pool0 <- Convolution56
I0805 09:38:13.723747 15979 net.cpp:399] pool0 -> Pooling34
I0805 09:38:13.731420 15979 net.cpp:141] Setting up pool0
I0805 09:38:13.731475 15979 net.cpp:148] Top shape: 64 24 32 32 (1572864)
I0805 09:38:13.731494 15979 net.cpp:156] Memory required for data: 1970932480
I0805 09:38:13.731513 15979 layer_factory.hpp:77] Creating layer conv1
I0805 09:38:13.731540 15979 net.cpp:91] Creating Layer conv1
I0805 09:38:13.731559 15979 net.cpp:425] conv1 <- Pooling34
I0805 09:38:13.731588 15979 net.cpp:399] conv1 -> Convolution57
I0805 09:38:13.733856 15979 net.cpp:141] Setting up conv1
I0805 09:38:13.733921 15979 net.cpp:148] Top shape: 64 64 32 32 (4194304)
I0805 09:38:13.733944 15979 net.cpp:156] Memory required for data: 1987709696
I0805 09:38:13.733975 15979 layer_factory.hpp:77] Creating layer ReLU67
I0805 09:38:13.734004 15979 net.cpp:91] Creating Layer ReLU67
I0805 09:38:13.734027 15979 net.cpp:425] ReLU67 <- Convolution57
I0805 09:38:13.734055 15979 net.cpp:386] ReLU67 -> Convolution57 (in-place)
I0805 09:38:13.734083 15979 net.cpp:141] Setting up ReLU67
I0805 09:38:13.734108 15979 net.cpp:148] Top shape: 64 64 32 32 (4194304)
I0805 09:38:13.734132 15979 net.cpp:156] Memory required for data: 2004486912
I0805 09:38:13.734154 15979 layer_factory.hpp:77] Creating layer pool1
I0805 09:38:13.734184 15979 net.cpp:91] Creating Layer pool1
I0805 09:38:13.734208 15979 net.cpp:425] pool1 <- Convolution57
I0805 09:38:13.734236 15979 net.cpp:399] pool1 -> Pooling35
I0805 09:38:13.734314 15979 net.cpp:141] Setting up pool1
I0805 09:38:13.734343 15979 net.cpp:148] Top shape: 64 64 16 16 (1048576)
I0805 09:38:13.734365 15979 net.cpp:156] Memory required for data: 2008681216
I0805 09:38:13.734388 15979 layer_factory.hpp:77] Creating layer conv2
I0805 09:38:13.734419 15979 net.cpp:91] Creating Layer conv2
I0805 09:38:13.734443 15979 net.cpp:425] conv2 <- Pooling35
I0805 09:38:13.734475 15979 net.cpp:399] conv2 -> Convolution58
I0805 09:38:13.737581 15979 net.cpp:141] Setting up conv2
I0805 09:38:13.737630 15979 net.cpp:148] Top shape: 64 96 16 16 (1572864)
I0805 09:38:13.737658 15979 net.cpp:156] Memory required for data: 2014972672
I0805 09:38:13.737695 15979 layer_factory.hpp:77] Creating layer ReLU68
I0805 09:38:13.737727 15979 net.cpp:91] Creating Layer ReLU68
I0805 09:38:13.737756 15979 net.cpp:425] ReLU68 <- Convolution58
I0805 09:38:13.737785 15979 net.cpp:386] ReLU68 -> Convolution58 (in-place)
I0805 09:38:13.737823 15979 net.cpp:141] Setting up ReLU68
I0805 09:38:13.737853 15979 net.cpp:148] Top shape: 64 96 16 16 (1572864)
I0805 09:38:13.737879 15979 net.cpp:156] Memory required for data: 2021264128
I0805 09:38:13.737910 15979 layer_factory.hpp:77] Creating layer conv3
I0805 09:38:13.737949 15979 net.cpp:91] Creating Layer conv3
I0805 09:38:13.737982 15979 net.cpp:425] conv3 <- Convolution58
I0805 09:38:13.738016 15979 net.cpp:399] conv3 -> Convolution59
I0805 09:38:13.742594 15979 net.cpp:141] Setting up conv3
I0805 09:38:13.742646 15979 net.cpp:148] Top shape: 64 96 16 16 (1572864)
I0805 09:38:13.742671 15979 net.cpp:156] Memory required for data: 2027555584
I0805 09:38:13.742702 15979 layer_factory.hpp:77] Creating layer ReLU69
I0805 09:38:13.742733 15979 net.cpp:91] Creating Layer ReLU69
I0805 09:38:13.742760 15979 net.cpp:425] ReLU69 <- Convolution59
I0805 09:38:13.742792 15979 net.cpp:386] ReLU69 -> Convolution59 (in-place)
I0805 09:38:13.742823 15979 net.cpp:141] Setting up ReLU69
I0805 09:38:13.742852 15979 net.cpp:148] Top shape: 64 96 16 16 (1572864)
I0805 09:38:13.742875 15979 net.cpp:156] Memory required for data: 2033847040
I0805 09:38:13.742900 15979 layer_factory.hpp:77] Creating layer conv4
I0805 09:38:13.742933 15979 net.cpp:91] Creating Layer conv4
I0805 09:38:13.742960 15979 net.cpp:425] conv4 <- Convolution59
I0805 09:38:13.743002 15979 net.cpp:399] conv4 -> Convolution60
I0805 09:38:13.746861 15979 net.cpp:141] Setting up conv4
I0805 09:38:13.746937 15979 net.cpp:148] Top shape: 64 64 16 16 (1048576)
I0805 09:38:13.746963 15979 net.cpp:156] Memory required for data: 2038041344
I0805 09:38:13.746994 15979 layer_factory.hpp:77] Creating layer ReLU70
I0805 09:38:13.747030 15979 net.cpp:91] Creating Layer ReLU70
I0805 09:38:13.747056 15979 net.cpp:425] ReLU70 <- Convolution60
I0805 09:38:13.747082 15979 net.cpp:386] ReLU70 -> Convolution60 (in-place)
I0805 09:38:13.747112 15979 net.cpp:141] Setting up ReLU70
I0805 09:38:13.747135 15979 net.cpp:148] Top shape: 64 64 16 16 (1048576)
I0805 09:38:13.747159 15979 net.cpp:156] Memory required for data: 2042235648
I0805 09:38:13.747181 15979 layer_factory.hpp:77] Creating layer pool4
I0805 09:38:13.747210 15979 net.cpp:91] Creating Layer pool4
I0805 09:38:13.747234 15979 net.cpp:425] pool4 <- Convolution60
I0805 09:38:13.747262 15979 net.cpp:399] pool4 -> Pooling36
I0805 09:38:13.747347 15979 net.cpp:141] Setting up pool4
I0805 09:38:13.747376 15979 net.cpp:148] Top shape: 64 64 8 8 (262144)
I0805 09:38:13.747400 15979 net.cpp:156] Memory required for data: 2043284224
I0805 09:38:13.747422 15979 layer_factory.hpp:77] Creating layer Concat6
I0805 09:38:13.747452 15979 net.cpp:91] Creating Layer Concat6
I0805 09:38:13.747474 15979 net.cpp:425] Concat6 <- Pooling33
I0805 09:38:13.747499 15979 net.cpp:425] Concat6 <- Pooling36
I0805 09:38:13.747526 15979 net.cpp:399] Concat6 -> Concat6
I0805 09:38:13.747582 15979 net.cpp:141] Setting up Concat6
I0805 09:38:13.747609 15979 net.cpp:148] Top shape: 64 128 8 8 (524288)
I0805 09:38:13.747632 15979 net.cpp:156] Memory required for data: 2045381376
I0805 09:38:13.747654 15979 layer_factory.hpp:77] Creating layer InnerProduct11
I0805 09:38:13.747685 15979 net.cpp:91] Creating Layer InnerProduct11
I0805 09:38:13.747709 15979 net.cpp:425] InnerProduct11 <- Concat6
I0805 09:38:13.747737 15979 net.cpp:399] InnerProduct11 -> InnerProduct11
I0805 09:38:13.758999 15979 net.cpp:141] Setting up InnerProduct11
I0805 09:38:13.759114 15979 net.cpp:148] Top shape: 64 128 (8192)
I0805 09:38:13.759140 15979 net.cpp:156] Memory required for data: 2045414144
I0805 09:38:13.759172 15979 net.cpp:484] Sharing parameters 'fc1_w' owned by layer 'InnerProduct1', param index 0
I0805 09:38:13.759202 15979 net.cpp:484] Sharing parameters 'fc1_b' owned by layer 'InnerProduct1', param index 1
…
I0808 09:25:54.721472 15979 net.cpp:386] ReLU66 -> InnerProduct99 (in-place)
I0808 09:25:54.721504 15979 net.cpp:141] Setting up ReLU66
I0808 09:25:54.721531 15979 net.cpp:148] Top shape: 100 100 (10000)
I0808 09:25:54.721554 15979 net.cpp:156] Memory required for data: 2560798400
I0808 09:25:54.721577 15979 layer_factory.hpp:77] Creating layer InnerProduct100
I0808 09:25:54.721608 15979 net.cpp:91] Creating Layer InnerProduct100
I0808 09:25:54.721632 15979 net.cpp:425] InnerProduct100 <- InnerProduct99
I0808 09:25:54.721662 15979 net.cpp:399] InnerProduct100 -> InnerProduct100
I0808 09:25:54.721745 15979 net.cpp:141] Setting up InnerProduct100
I0808 09:25:54.721771 15979 net.cpp:148] Top shape: 100 50 (5000)
I0808 09:25:54.721794 15979 net.cpp:156] Memory required for data: 2560818400
I0808 09:25:54.721818 15979 net.cpp:484] Sharing parameters 'ip2_w' owned by layer 'InnerProduct2', param index 0
I0808 09:25:54.721844 15979 net.cpp:484] Sharing parameters 'ip2_b' owned by layer 'InnerProduct2', param index 1
I0808 09:25:54.721868 15979 layer_factory.hpp:77] Creating layer Concat17
I0808 09:25:54.721896 15979 net.cpp:91] Creating Layer Concat17
I0808 09:25:54.721920 15979 net.cpp:425] Concat17 <- InnerProduct98
I0808 09:25:54.721946 15979 net.cpp:425] Concat17 <- InnerProduct100
I0808 09:25:54.721973 15979 net.cpp:399] Concat17 -> Concat17
I0808 09:25:54.722002 15979 net.cpp:141] Setting up Concat17
I0808 09:25:54.722028 15979 net.cpp:148] Top shape: 100 100 (10000)
I0808 09:25:54.722050 15979 net.cpp:156] Memory required for data: 2560858400
I0808 09:25:54.722072 15979 layer_factory.hpp:77] Creating layer InnerProduct101
I0808 09:25:54.722111 15979 net.cpp:91] Creating Layer InnerProduct101
I0808 09:25:54.722136 15979 net.cpp:425] InnerProduct101 <- Concat17
I0808 09:25:54.722163 15979 net.cpp:399] InnerProduct101 -> InnerProduct101
I0808 09:25:54.722256 15979 net.cpp:141] Setting up InnerProduct101
I0808 09:25:54.722285 15979 net.cpp:148] Top shape: 100 64 (6400)
I0808 09:25:54.722308 15979 net.cpp:156] Memory required for data: 2560884000
I0808 09:25:54.722333 15979 net.cpp:484] Sharing parameters 'fc1_w' owned by layer 'InnerProduct5', param index 0
I0808 09:25:54.722359 15979 net.cpp:484] Sharing parameters 'fc1_b' owned by layer 'InnerProduct5', param index 1
I0808 09:25:54.722383 15979 layer_factory.hpp:77] Creating layer ReLU67
I0808 09:25:54.722409 15979 net.cpp:91] Creating Layer ReLU67
I0808 09:25:54.722434 15979 net.cpp:425] ReLU67 <- InnerProduct101
I0808 09:25:54.722460 15979 net.cpp:386] ReLU67 -> InnerProduct101 (in-place)
I0808 09:25:54.722486 15979 net.cpp:141] Setting up ReLU67
I0808 09:25:54.722510 15979 net.cpp:148] Top shape: 100 64 (6400)
I0808 09:25:54.722532 15979 net.cpp:156] Memory required for data: 2560909600
I0808 09:25:54.722554 15979 layer_factory.hpp:77] Creating layer InnerProduct102
I0808 09:25:54.722580 15979 net.cpp:91] Creating Layer InnerProduct102
I0808 09:25:54.722602 15979 net.cpp:425] InnerProduct102 <- InnerProduct101
I0808 09:25:54.722631 15979 net.cpp:399] InnerProduct102 -> InnerProduct102
I0808 09:25:54.722692 15979 net.cpp:141] Setting up InnerProduct102
I0808 09:25:54.722718 15979 net.cpp:148] Top shape: 100 32 (3200)
I0808 09:25:54.722743 15979 net.cpp:156] Memory required for data: 2560922400
I0808 09:25:54.722767 15979 net.cpp:484] Sharing parameters 'fc2_w' owned by layer 'InnerProduct6', param index 0
I0808 09:25:54.722791 15979 net.cpp:484] Sharing parameters 'fc2_b' owned by layer 'InnerProduct6', param index 1
I0808 09:25:54.722815 15979 layer_factory.hpp:77] Creating layer ReLU68
I0808 09:25:54.722841 15979 net.cpp:91] Creating Layer ReLU68
I0808 09:25:54.722864 15979 net.cpp:425] ReLU68 <- InnerProduct102
I0808 09:25:54.722889 15979 net.cpp:386] ReLU68 -> InnerProduct102 (in-place)
I0808 09:25:54.722918 15979 net.cpp:141] Setting up ReLU68
I0808 09:25:54.722941 15979 net.cpp:148] Top shape: 100 32 (3200)
I0808 09:25:54.722962 15979 net.cpp:156] Memory required for data: 2560935200
I0808 09:25:54.722983 15979 layer_factory.hpp:77] Creating layer dt16
I0808 09:25:54.723009 15979 net.cpp:91] Creating Layer dt16
I0808 09:25:54.723032 15979 net.cpp:425] dt16 <- InnerProduct102
I0808 09:25:54.723059 15979 net.cpp:399] dt16 -> dt16
I0808 09:25:54.723095 15979 net.cpp:141] Setting up dt16
I0808 09:25:54.723120 15979 net.cpp:148] Top shape: 100 1 (100)
I0808 09:25:54.723142 15979 net.cpp:156] Memory required for data: 2560935600
I0808 09:25:54.723165 15979 net.cpp:484] Sharing parameters 'fc3_w' owned by layer 'dt0', param index 0
I0808 09:25:54.723188 15979 net.cpp:484] Sharing parameters 'fc3_b' owned by layer 'dt0', param index 1
I0808 09:25:54.723212 15979 layer_factory.hpp:77] Creating layer Convolution69
I0808 09:25:54.723242 15979 net.cpp:91] Creating Layer Convolution69
I0808 09:25:54.723266 15979 net.cpp:425] Convolution69 <- p2_p2_0_split_8
I0808 09:25:54.723304 15979 net.cpp:399] Convolution69 -> Convolution69
I0808 09:25:54.723371 15979 net.cpp:141] Setting up Convolution69
I0808 09:25:54.723397 15979 net.cpp:148] Top shape: 100 20 60 60 (7200000)
I0808 09:25:54.723419 15979 net.cpp:156] Memory required for data: 2589735600
I0808 09:25:54.723444 15979 net.cpp:484] Sharing parameters 'conv1_w' owned by layer 'Convolution1', param index 0
I0808 09:25:54.723469 15979 net.cpp:484] Sharing parameters 'conv1_b' owned by layer 'Convolution1', param index 1
I0808 09:25:54.723491 15979 layer_factory.hpp:77] Creating layer Pooling69
I0808 09:25:54.723517 15979 net.cpp:91] Creating Layer Pooling69
I0808 09:25:54.723541 15979 net.cpp:425] Pooling69 <- Convolution69
I0808 09:25:54.723568 15979 net.cpp:399] Pooling69 -> Pooling69
I0808 09:25:54.723598 15979 net.cpp:141] Setting up Pooling69
I0808 09:25:54.723628 15979 net.cpp:148] Top shape: 100 20 30 30 (1800000)
I0808 09:25:54.723650 15979 net.cpp:156] Memory required for data: 2596935600
I0808 09:25:54.723672 15979 layer_factory.hpp:77] Creating layer Convolution70
I0808 09:25:54.723701 15979 net.cpp:91] Creating Layer Convolution70
I0808 09:25:54.723723 15979 net.cpp:425] Convolution70 <- Pooling69
I0808 09:25:54.723752 15979 net.cpp:399] Convolution70 -> Convolution70
I0808 09:25:54.724002 15979 net.cpp:141] Setting up Convolution70
I0808 09:25:54.724030 15979 net.cpp:148] Top shape: 100 50 26 26 (3380000)
I0808 09:25:54.724048 15979 net.cpp:156] Memory required for data: 2610455600
I0808 09:25:54.724074 15979 net.cpp:484] Sharing parameters 'conv2_w' owned by layer 'Convolution2', param index 0
I0808 09:25:54.724100 15979 net.cpp:484] Sharing parameters 'conv2_b' owned by layer 'Convolution2', param index 1
I0808 09:25:54.724123 15979 layer_factory.hpp:77] Creating layer Pooling70
I0808 09:25:54.724149 15979 net.cpp:91] Creating Layer Pooling70
I0808 09:25:54.724171 15979 net.cpp:425] Pooling70 <- Convolution70
I0808 09:25:54.724198 15979 net.cpp:399] Pooling70 -> Pooling70
I0808 09:25:54.724227 15979 net.cpp:141] Setting up Pooling70
I0808 09:25:54.724252 15979 net.cpp:148] Top shape: 100 50 13 13 (845000)
I0808 09:25:54.724274 15979 net.cpp:156] Memory required for data: 2613835600
I0808 09:25:54.724298 15979 layer_factory.hpp:77] Creating layer InnerProduct103
I0808 09:25:54.724325 15979 net.cpp:91] Creating Layer InnerProduct103
I0808 09:25:54.724349 15979 net.cpp:425] InnerProduct103 <- Pooling70
I0808 09:25:54.724375 15979 net.cpp:399] InnerProduct103 -> InnerProduct103
I0808 09:25:54.735522 15979 net.cpp:141] Setting up InnerProduct103
I0808 09:25:54.735620 15979 net.cpp:148] Top shape: 100 100 (10000)
I0808 09:25:54.735648 15979 net.cpp:156] Memory required for data: 2613875600
I0808 09:25:54.735677 15979 net.cpp:484] Sharing parameters 'ip1_w' owned by layer 'InnerProduct1', param index 0
I0808 09:25:54.735705 15979 net.cpp:484] Sharing parameters 'ip1_b' owned by layer 'InnerProduct1', param index 1
I0808 09:25:54.735731 15979 layer_factory.hpp:77] Creating layer ReLU69
I0808 09:25:54.735764 15979 net.cpp:91] Creating Layer ReLU69
I0808 09:25:54.735790 15979 net.cpp:425] ReLU69 <- InnerProduct103
I0808 09:25:54.735819 15979 net.cpp:386] ReLU69 -> InnerProduct103 (in-place)
I0808 09:25:54.735852 15979 net.cpp:141] Setting up ReLU69
I0808 09:25:54.735877 15979 net.cpp:148] Top shape: 100 100 (10000)
I0808 09:25:54.735901 15979 net.cpp:156] Memory required for data: 2613915600
I0808 09:25:54.735924 15979 layer_factory.hpp:77] Creating layer InnerProduct104
I0808 09:25:54.735954 15979 net.cpp:91] Creating Layer InnerProduct104
I0808 09:25:54.735977 15979 net.cpp:425] InnerProduct104 <- InnerProduct103
I0808 09:25:54.736007 15979 net.cpp:399] InnerProduct104 -> InnerProduct104
I0808 09:25:54.736098 15979 net.cpp:141] Setting up InnerProduct104
I0808 09:25:54.736127 15979 net.cpp:148] Top shape: 100 50 (5000)
I0808 09:25:54.736137 15979 net.cpp:156] Memory required for data: 2613935600
I0808 09:25:54.736145 15979 net.cpp:484] Sharing parameters 'ip2_w' owned by layer 'InnerProduct2', param index 0
I0808 09:25:54.736155 15979 net.cpp:484] Sharing parameters 'ip2_b' owned by layer 'InnerProduct2', param index 1
I0808 09:25:54.736176 15979 layer_factory.hpp:77] Creating layer Convolution71
I0808 09:25:54.736198 15979 net.cpp:91] Creating Layer Convolution71
I0808 09:25:54.736210 15979 net.cpp:425] Convolution71 <- c18
I0808 09:25:54.736224 15979 net.cpp:399] Convolution71 -> Convolution71
I0808 09:25:54.736279 15979 net.cpp:141] Setting up Convolution71
I0808 09:25:54.736290 15979 net.cpp:148] Top shape: 100 20 60 60 (7200000)
I0808 09:25:54.736299 15979 net.cpp:156] Memory required for data: 2642735600
I0808 09:25:54.736306 15979 net.cpp:484] Sharing parameters 'conv1_w' owned by layer 'Convolution1', param index 0
I0808 09:25:54.736315 15979 net.cpp:484] Sharing parameters 'conv1_b' owned by layer 'Convolution1', param index 1
I0808 09:25:54.736325 15979 layer_factory.hpp:77] Creating layer Pooling71
I0808 09:25:54.736335 15979 net.cpp:91] Creating Layer Pooling71
I0808 09:25:54.736342 15979 net.cpp:425] Pooling71 <- Convolution71
I0808 09:25:54.736356 15979 net.cpp:399] Pooling71 -> Pooling71
I0808 09:25:54.736372 15979 net.cpp:141] Setting up Pooling71
I0808 09:25:54.736382 15979 net.cpp:148] Top shape: 100 20 30 30 (1800000)
I0808 09:25:54.736388 15979 net.cpp:156] Memory required for data: 2649935600
I0808 09:25:54.736395 15979 layer_factory.hpp:77] Creating layer Convolution72
I0808 09:25:54.736409 15979 net.cpp:91] Creating Layer Convolution72
I0808 09:25:54.736418 15979 net.cpp:425] Convolution72 <- Pooling71
I0808 09:25:54.736428 15979 net.cpp:399] Convolution72 -> Convolution72
I0808 09:25:54.736659 15979 net.cpp:141] Setting up Convolution72
I0808 09:25:54.736670 15979 net.cpp:148] Top shape: 100 50 26 26 (3380000)
I0808 09:25:54.736677 15979 net.cpp:156] Memory required for data: 2663455600
I0808 09:25:54.736685 15979 net.cpp:484] Sharing parameters 'conv2_w' owned by layer 'Convolution2', param index 0
I0808 09:25:54.736695 15979 net.cpp:484] Sharing parameters 'conv2_b' owned by layer 'Convolution2', param index 1
I0808 09:25:54.736701 15979 layer_factory.hpp:77] Creating layer Pooling72
I0808 09:25:54.736711 15979 net.cpp:91] Creating Layer Pooling72
I0808 09:25:54.736719 15979 net.cpp:425] Pooling72 <- Convolution72
I0808 09:25:54.736729 15979 net.cpp:399] Pooling72 -> Pooling72
I0808 09:25:54.736743 15979 net.cpp:141] Setting up Pooling72
I0808 09:25:54.736752 15979 net.cpp:148] Top shape: 100 50 13 13 (845000)
I0808 09:25:54.736759 15979 net.cpp:156] Memory required for data: 2666835600
I0808 09:25:54.736766 15979 layer_factory.hpp:77] Creating layer InnerProduct105
I0808 09:25:54.736778 15979 net.cpp:91] Creating Layer InnerProduct105
I0808 09:25:54.736785 15979 net.cpp:425] InnerProduct105 <- Pooling72
I0808 09:25:54.736796 15979 net.cpp:399] InnerProduct105 -> InnerProduct105
I0808 09:25:54.750901 15979 net.cpp:141] Setting up InnerProduct105
I0808 09:25:54.750937 15979 net.cpp:148] Top shape: 100 100 (10000)
I0808 09:25:54.750946 15979 net.cpp:156] Memory required for data: 2666875600
I0808 09:25:54.750958 15979 net.cpp:484] Sharing parameters 'ip1_w' owned by layer 'InnerProduct1', param index 0
I0808 09:25:54.750969 15979 net.cpp:484] Sharing parameters 'ip1_b' owned by layer 'InnerProduct1', param index 1
I0808 09:25:54.750977 15979 layer_factory.hpp:77] Creating layer ReLU70
I0808 09:25:54.750990 15979 net.cpp:91] Creating Layer ReLU70
I0808 09:25:54.751001 15979 net.cpp:425] ReLU70 <- InnerProduct105
I0808 09:25:54.751013 15979 net.cpp:386] ReLU70 -> InnerProduct105 (in-place)
I0808 09:25:54.751026 15979 net.cpp:141] Setting up ReLU70
I0808 09:25:54.751035 15979 net.cpp:148] Top shape: 100 100 (10000)
I0808 09:25:54.751042 15979 net.cpp:156] Memory required for data: 2666915600
I0808 09:25:54.751049 15979 layer_factory.hpp:77] Creating layer InnerProduct106
I0808 09:25:54.751061 15979 net.cpp:91] Creating Layer InnerProduct106
I0808 09:25:54.751070 15979 net.cpp:425] InnerProduct106 <- InnerProduct105
I0808 09:25:54.751080 15979 net.cpp:399] InnerProduct106 -> InnerProduct106
I0808 09:25:54.751144 15979 net.cpp:141] Setting up InnerProduct106
I0808 09:25:54.751157 15979 net.cpp:148] Top shape: 100 50 (5000)
I0808 09:25:54.751164 15979 net.cpp:156] Memory required for data: 2666935600
I0808 09:25:54.751173 15979 net.cpp:484] Sharing parameters 'ip2_w' owned by layer 'InnerProduct2', param index 0
I0808 09:25:54.751181 15979 net.cpp:484] Sharing parameters 'ip2_b' owned by layer 'InnerProduct2', param index 1
I0808 09:25:54.751189 15979 layer_factory.hpp:77] Creating layer Concat18
I0808 09:25:54.751200 15979 net.cpp:91] Creating Layer Concat18
I0808 09:25:54.751207 15979 net.cpp:425] Concat18 <- InnerProduct104
I0808 09:25:54.751217 15979 net.cpp:425] Concat18 <- InnerProduct106
I0808 09:25:54.751229 15979 net.cpp:399] Concat18 -> Concat18
I0808 09:25:54.751242 15979 net.cpp:141] Setting up Concat18
I0808 09:25:54.751251 15979 net.cpp:148] Top shape: 100 100 (10000)
I0808 09:25:54.751258 15979 net.cpp:156] Memory required for data: 2666975600
I0808 09:25:54.751266 15979 layer_factory.hpp:77] Creating layer InnerProduct107
I0808 09:25:54.751291 15979 net.cpp:91] Creating Layer InnerProduct107
I0808 09:25:54.751298 15979 net.cpp:425] InnerProduct107 <- Concat18
I0808 09:25:54.751310 15979 net.cpp:399] InnerProduct107 -> InnerProduct107
I0808 09:25:54.751382 15979 net.cpp:141] Setting up InnerProduct107
I0808 09:25:54.751395 15979 net.cpp:148] Top shape: 100 64 (6400)
I0808 09:25:54.751402 15979 net.cpp:156] Memory required for data: 2667001200
I0808 09:25:54.751410 15979 net.cpp:484] Sharing parameters 'fc1_w' owned by layer 'InnerProduct5', param index 0
I0808 09:25:54.751418 15979 net.cpp:484] Sharing parameters 'fc1_b' owned by layer 'InnerProduct5', param index 1
I0808 09:25:54.751425 15979 layer_factory.hpp:77] Creating layer ReLU71
I0808 09:25:54.751435 15979 net.cpp:91] Creating Layer ReLU71
I0808 09:25:54.751442 15979 net.cpp:425] ReLU71 <- InnerProduct107
I0808 09:25:54.751452 15979 net.cpp:386] ReLU71 -> InnerProduct107 (in-place)
I0808 09:25:54.751462 15979 net.cpp:141] Setting up ReLU71
I0808 09:25:54.751471 15979 net.cpp:148] Top shape: 100 64 (6400)
I0808 09:25:54.751478 15979 net.cpp:156] Memory required for data: 2667026800
I0808 09:25:54.751485 15979 layer_factory.hpp:77] Creating layer InnerProduct108
I0808 09:25:54.751495 15979 net.cpp:91] Creating Layer InnerProduct108
I0808 09:25:54.751502 15979 net.cpp:425] InnerProduct108 <- InnerProduct107
I0808 09:25:54.751513 15979 net.cpp:399] InnerProduct108 -> InnerProduct108
I0808 09:25:54.751554 15979 net.cpp:141] Setting up InnerProduct108
I0808 09:25:54.751565 15979 net.cpp:148] Top shape: 100 32 (3200)
I0808 09:25:54.751572 15979 net.cpp:156] Memory required for data: 2667039600
I0808 09:25:54.751580 15979 net.cpp:484] Sharing parameters 'fc2_w' owned by layer 'InnerProduct6', param index 0
I0808 09:25:54.751588 15979 net.cpp:484] Sharing parameters 'fc2_b' owned by layer 'InnerProduct6', param index 1
I0808 09:25:54.751595 15979 layer_factory.hpp:77] Creating layer ReLU72
I0808 09:25:54.751605 15979 net.cpp:91] Creating Layer ReLU72
I0808 09:25:54.751612 15979 net.cpp:425] ReLU72 <- InnerProduct108
I0808 09:25:54.751622 15979 net.cpp:386] ReLU72 -> InnerProduct108 (in-place)
I0808 09:25:54.751632 15979 net.cpp:141] Setting up ReLU72
I0808 09:25:54.751641 15979 net.cpp:148] Top shape: 100 32 (3200)
I0808 09:25:54.751648 15979 net.cpp:156] Memory required for data: 2667052400
I0808 09:25:54.751654 15979 layer_factory.hpp:77] Creating layer dt17
I0808 09:25:54.751665 15979 net.cpp:91] Creating Layer dt17
I0808 09:25:54.751672 15979 net.cpp:425] dt17 <- InnerProduct108
I0808 09:25:54.751683 15979 net.cpp:399] dt17 -> dt17
I0808 09:25:54.751703 15979 net.cpp:141] Setting up dt17
I0808 09:25:54.751716 15979 net.cpp:148] Top shape: 100 1 (100)
I0808 09:25:54.751724 15979 net.cpp:156] Memory required for data: 2667052800
I0808 09:25:54.751731 15979 net.cpp:484] Sharing parameters 'fc3_w' owned by layer 'dt0', param index 0
I0808 09:25:54.751740 15979 net.cpp:484] Sharing parameters 'fc3_b' owned by layer 'dt0', param index 1
I0808 09:25:54.751749 15979 layer_factory.hpp:77] Creating layer Convolution73
I0808 09:25:54.751762 15979 net.cpp:91] Creating Layer Convolution73
I0808 09:25:54.751771 15979 net.cpp:425] Convolution73 <- p2_p2_0_split_9
I0808 09:25:54.751785 15979 net.cpp:399] Convolution73 -> Convolution73
I0808 09:25:54.751832 15979 net.cpp:141] Setting up Convolution73
I0808 09:25:54.751844 15979 net.cpp:148] Top shape: 100 20 60 60 (7200000)
I0808 09:25:54.751852 15979 net.cpp:156] Memory required for data: 2695852800
I0808 09:25:54.751858 15979 net.cpp:484] Sharing parameters 'conv1_w' owned by layer 'Convolution1', param index 0
I0808 09:25:54.751868 15979 net.cpp:484] Sharing parameters 'conv1_b' owned by layer 'Convolution1', param index 1
I0808 09:25:54.751875 15979 layer_factory.hpp:77] Creating layer Pooling73
I0808 09:25:54.751884 15979 net.cpp:91] Creating Layer Pooling73
I0808 09:25:54.751893 15979 net.cpp:425] Pooling73 <- Convolution73
I0808 09:25:54.751904 15979 net.cpp:399] Pooling73 -> Pooling73
I0808 09:25:54.751919 15979 net.cpp:141] Setting up Pooling73
I0808 09:25:54.751927 15979 net.cpp:148] Top shape: 100 20 30 30 (1800000)
I0808 09:25:54.751935 15979 net.cpp:156] Memory required for data: 2703052800
I0808 09:25:54.751941 15979 layer_factory.hpp:77] Creating layer Convolution74
I0808 09:25:54.751955 15979 net.cpp:91] Creating Layer Convolution74
I0808 09:25:54.751961 15979 net.cpp:425] Convolution74 <- Pooling73
I0808 09:25:54.751972 15979 net.cpp:399] Convolution74 -> Convolution74
I0808 09:25:54.752198 15979 net.cpp:141] Setting up Convolution74
I0808 09:25:54.752212 15979 net.cpp:148] Top shape: 100 50 26 26 (3380000)
I0808 09:25:54.752218 15979 net.cpp:156] Memory required for data: 2716572800
I0808 09:25:54.752225 15979 net.cpp:484] Sharing parameters 'conv2_w' owned by layer 'Convolution2', param index 0
I0808 09:25:54.752234 15979 net.cpp:484] Sharing parameters 'conv2_b' owned by layer 'Convolution2', param index 1
I0808 09:25:54.752241 15979 layer_factory.hpp:77] Creating layer Pooling74
I0808 09:25:54.752250 15979 net.cpp:91] Creating Layer Pooling74
I0808 09:25:54.752259 15979 net.cpp:425] Pooling74 <- Convolution74
I0808 09:25:54.752269 15979 net.cpp:399] Pooling74 -> Pooling74
I0808 09:25:54.752281 15979 net.cpp:141] Setting up Pooling74
I0808 09:25:54.752291 15979 net.cpp:148] Top shape: 100 50 13 13 (845000)
I0808 09:25:54.752297 15979 net.cpp:156] Memory required for data: 2719952800
I0808 09:25:54.752305 15979 layer_factory.hpp:77] Creating layer InnerProduct109
I0808 09:25:54.752315 15979 net.cpp:91] Creating Layer InnerProduct109
I0808 09:25:54.752322 15979 net.cpp:425] InnerProduct109 <- Pooling74
I0808 09:25:54.752333 15979 net.cpp:399] InnerProduct109 -> InnerProduct109
I0808 09:25:54.760144 15979 net.cpp:141] Setting up InnerProduct109
I0808 09:25:54.760165 15979 net.cpp:148] Top shape: 100 100 (10000)
I0808 09:25:54.760174 15979 net.cpp:156] Memory required for data: 2719992800
I0808 09:25:54.760182 15979 net.cpp:484] Sharing parameters 'ip1_w' owned by layer 'InnerProduct1', param index 0
I0808 09:25:54.760191 15979 net.cpp:484] Sharing parameters 'ip1_b' owned by layer 'InnerProduct1', param index 1
I0808 09:25:54.760200 15979 layer_factory.hpp:77] Creating layer ReLU73
I0808 09:25:54.760210 15979 net.cpp:91] Creating Layer ReLU73
I0808 09:25:54.760217 15979 net.cpp:425] ReLU73 <- InnerProduct109
I0808 09:25:54.760227 15979 net.cpp:386] ReLU73 -> InnerProduct109 (in-place)
I0808 09:25:54.760239 15979 net.cpp:141] Setting up ReLU73
I0808 09:25:54.760248 15979 net.cpp:148] Top shape: 100 100 (10000)
I0808 09:25:54.760254 15979 net.cpp:156] Memory required for data: 2720032800
I0808 09:25:54.760262 15979 layer_factory.hpp:77] Creating layer InnerProduct110
I0808 09:25:54.760272 15979 net.cpp:91] Creating Layer InnerProduct110
I0808 09:25:54.760280 15979 net.cpp:425] InnerProduct110 <- InnerProduct109
I0808 09:25:54.760291 15979 net.cpp:399] InnerProduct110 -> InnerProduct110
I0808 09:25:54.760351 15979 net.cpp:141] Setting up InnerProduct110
I0808 09:25:54.760365 15979 net.cpp:148] Top shape: 100 50 (5000)
I0808 09:25:54.760371 15979 net.cpp:156] Memory required for data: 2720052800
I0808 09:25:54.760380 15979 net.cpp:484] Sharing parameters 'ip2_w' owned by layer 'InnerProduct2', param index 0
I0808 09:25:54.760387 15979 net.cpp:484] Sharing parameters 'ip2_b' owned by layer 'InnerProduct2', param index 1
I0808 09:25:54.760396 15979 layer_factory.hpp:77] Creating layer Convolution75
I0808 09:25:54.760408 15979 net.cpp:91] Creating Layer Convolution75
I0808 09:25:54.760416 15979 net.cpp:425] Convolution75 <- c19
I0808 09:25:54.760427 15979 net.cpp:399] Convolution75 -> Convolution75
I0808 09:25:54.760474 15979 net.cpp:141] Setting up Convolution75
I0808 09:25:54.760488 15979 net.cpp:148] Top shape: 100 20 60 60 (7200000)
I0808 09:25:54.760494 15979 net.cpp:156] Memory required for data: 2748852800
I0808 09:25:54.760502 15979 net.cpp:484] Sharing parameters 'conv1_w' owned by layer 'Convolution1', param index 0
I0808 09:25:54.760511 15979 net.cpp:484] Sharing parameters 'conv1_b' owned by layer 'Convolution1', param index 1
I0808 09:25:54.760519 15979 layer_factory.hpp:77] Creating layer Pooling75
I0808 09:25:54.760529 15979 net.cpp:91] Creating Layer Pooling75
I0808 09:25:54.760536 15979 net.cpp:425] Pooling75 <- Convolution75
I0808 09:25:54.760546 15979 net.cpp:399] Pooling75 -> Pooling75
I0808 09:25:54.760560 15979 net.cpp:141] Setting up Pooling75
I0808 09:25:54.760571 15979 net.cpp:148] Top shape: 100 20 30 30 (1800000)
I0808 09:25:54.760576 15979 net.cpp:156] Memory required for data: 2756052800
I0808 09:25:54.760583 15979 layer_factory.hpp:77] Creating layer Convolution76
I0808 09:25:54.760596 15979 net.cpp:91] Creating Layer Convolution76
I0808 09:25:54.760603 15979 net.cpp:425] Convolution76 <- Pooling75
I0808 09:25:54.760615 15979 net.cpp:399] Convolution76 -> Convolution76
I0808 09:25:54.760840 15979 net.cpp:141] Setting up Convolution76
I0808 09:25:54.760851 15979 net.cpp:148] Top shape: 100 50 26 26 (3380000)
I0808 09:25:54.760859 15979 net.cpp:156] Memory required for data: 2769572800
I0808 09:25:54.760866 15979 net.cpp:484] Sharing parameters 'conv2_w' owned by layer 'Convolution2', param index 0
I0808 09:25:54.760874 15979 net.cpp:484] Sharing parameters 'conv2_b' owned by layer 'Convolution2', param index 1
I0808 09:25:54.760882 15979 layer_factory.hpp:77] Creating layer Pooling76
I0808 09:25:54.760891 15979 net.cpp:91] Creating Layer Pooling76
I0808 09:25:54.760898 15979 net.cpp:425] Pooling76 <- Convolution76
I0808 09:25:54.760910 15979 net.cpp:399] Pooling76 -> Pooling76
I0808 09:25:54.760922 15979 net.cpp:141] Setting up Pooling76
I0808 09:25:54.760931 15979 net.cpp:148] Top shape: 100 50 13 13 (845000)
I0808 09:25:54.760938 15979 net.cpp:156] Memory required for data: 2772952800
I0808 09:25:54.760946 15979 layer_factory.hpp:77] Creating layer InnerProduct111
I0808 09:25:54.760957 15979 net.cpp:91] Creating Layer InnerProduct111
I0808 09:25:54.760963 15979 net.cpp:425] InnerProduct111 <- Pooling76
I0808 09:25:54.760975 15979 net.cpp:399] InnerProduct111 -> InnerProduct111
I0808 09:25:54.782977 15979 net.cpp:141] Setting up InnerProduct111
I0808 09:25:54.783013 15979 net.cpp:148] Top shape: 100 100 (10000)
I0808 09:25:54.783021 15979 net.cpp:156] Memory required for data: 2772992800
I0808 09:25:54.783032 15979 net.cpp:484] Sharing parameters 'ip1_w' owned by layer 'InnerProduct1', param index 0
I0808 09:25:54.783042 15979 net.cpp:484] Sharing parameters 'ip1_b' owned by layer 'InnerProduct1', param index 1
I0808 09:25:54.783051 15979 layer_factory.hpp:77] Creating layer ReLU74
I0808 09:25:54.783063 15979 net.cpp:91] Creating Layer ReLU74
I0808 09:25:54.783072 15979 net.cpp:425] ReLU74 <- InnerProduct111
I0808 09:25:54.783083 15979 net.cpp:386] ReLU74 -> InnerProduct111 (in-place)
I0808 09:25:54.783097 15979 net.cpp:141] Setting up ReLU74
I0808 09:25:54.783107 15979 net.cpp:148] Top shape: 100 100 (10000)
I0808 09:25:54.783113 15979 net.cpp:156] Memory required for data: 2773032800
I0808 09:25:54.783119 15979 layer_factory.hpp:77] Creating layer InnerProduct112
I0808 09:25:54.783130 15979 net.cpp:91] Creating Layer InnerProduct112
I0808 09:25:54.783138 15979 net.cpp:425] InnerProduct112 <- InnerProduct111
I0808 09:25:54.783149 15979 net.cpp:399] InnerProduct112 -> InnerProduct112
I0808 09:25:54.783212 15979 net.cpp:141] Setting up InnerProduct112
I0808 09:25:54.783226 15979 net.cpp:148] Top shape: 100 50 (5000)
I0808 09:25:54.783232 15979 net.cpp:156] Memory required for data: 2773052800
I0808 09:25:54.783239 15979 net.cpp:484] Sharing parameters 'ip2_w' owned by layer 'InnerProduct2', param index 0
I0808 09:25:54.783248 15979 net.cpp:484] Sharing parameters 'ip2_b' owned by layer 'InnerProduct2', param index 1
I0808 09:25:54.783255 15979 layer_factory.hpp:77] Creating layer Concat19
I0808 09:25:54.783267 15979 net.cpp:91] Creating Layer Concat19
I0808 09:25:54.783278 15979 net.cpp:425] Concat19 <- InnerProduct110
I0808 09:25:54.783288 15979 net.cpp:425] Concat19 <- InnerProduct112
I0808 09:25:54.783299 15979 net.cpp:399] Concat19 -> Concat19
I0808 09:25:54.783313 15979 net.cpp:141] Setting up Concat19
I0808 09:25:54.783323 15979 net.cpp:148] Top shape: 100 100 (10000)
I0808 09:25:54.783329 15979 net.cpp:156] Memory required for data: 2773092800
I0808 09:25:54.783335 15979 layer_factory.hpp:77] Creating layer InnerProduct113
I0808 09:25:54.783346 15979 net.cpp:91] Creating Layer InnerProduct113
I0808 09:25:54.783354 15979 net.cpp:425] InnerProduct113 <- Concat19
I0808 09:25:54.783365 15979 net.cpp:399] InnerProduct113 -> InnerProduct113
I0808 09:25:54.783434 15979 net.cpp:141] Setting up InnerProduct113
I0808 09:25:54.783447 15979 net.cpp:148] Top shape: 100 64 (6400)
I0808 09:25:54.783454 15979 net.cpp:156] Memory required for data: 2773118400
I0808 09:25:54.783463 15979 net.cpp:484] Sharing parameters 'fc1_w' owned by layer 'InnerProduct5', param index 0
I0808 09:25:54.783471 15979 net.cpp:484] Sharing parameters 'fc1_b' owned by layer 'InnerProduct5', param index 1
I0808 09:25:54.783478 15979 layer_factory.hpp:77] Creating layer ReLU75
I0808 09:25:54.783488 15979 net.cpp:91] Creating Layer ReLU75
I0808 09:25:54.783495 15979 net.cpp:425] ReLU75 <- InnerProduct113
I0808 09:25:54.783504 15979 net.cpp:386] ReLU75 -> InnerProduct113 (in-place)
I0808 09:25:54.783515 15979 net.cpp:141] Setting up ReLU75
I0808 09:25:54.783524 15979 net.cpp:148] Top shape: 100 64 (6400)
I0808 09:25:54.783530 15979 net.cpp:156] Memory required for data: 2773144000
I0808 09:25:54.783536 15979 layer_factory.hpp:77] Creating layer InnerProduct114
I0808 09:25:54.783547 15979 net.cpp:91] Creating Layer InnerProduct114
I0808 09:25:54.783555 15979 net.cpp:425] InnerProduct114 <- InnerProduct113
I0808 09:25:54.783565 15979 net.cpp:399] InnerProduct114 -> InnerProduct114
I0808 09:25:54.783603 15979 net.cpp:141] Setting up InnerProduct114
I0808 09:25:54.783617 15979 net.cpp:148] Top shape: 100 32 (3200)
I0808 09:25:54.783623 15979 net.cpp:156] Memory required for data: 2773156800
I0808 09:25:54.783632 15979 net.cpp:484] Sharing parameters 'fc2_w' owned by layer 'InnerProduct6', param index 0
I0808 09:25:54.783639 15979 net.cpp:484] Sharing parameters 'fc2_b' owned by layer 'InnerProduct6', param index 1
I0808 09:25:54.783648 15979 layer_factory.hpp:77] Creating layer ReLU76
I0808 09:25:54.783656 15979 net.cpp:91] Creating Layer ReLU76
I0808 09:25:54.783664 15979 net.cpp:425] ReLU76 <- InnerProduct114
I0808 09:25:54.783673 15979 net.cpp:386] ReLU76 -> InnerProduct114 (in-place)
I0808 09:25:54.783684 15979 net.cpp:141] Setting up ReLU76
I0808 09:25:54.783691 15979 net.cpp:148] Top shape: 100 32 (3200)
I0808 09:25:54.783699 15979 net.cpp:156] Memory required for data: 2773169600
I0808 09:25:54.783705 15979 layer_factory.hpp:77] Creating layer dt18
I0808 09:25:54.783715 15979 net.cpp:91] Creating Layer dt18
I0808 09:25:54.783722 15979 net.cpp:425] dt18 <- InnerProduct114
I0808 09:25:54.783733 15979 net.cpp:399] dt18 -> dt18
I0808 09:25:54.783753 15979 net.cpp:141] Setting up dt18
I0808 09:25:54.783766 15979 net.cpp:148] Top shape: 100 1 (100)
I0808 09:25:54.783772 15979 net.cpp:156] Memory required for data: 2773170000
I0808 09:25:54.783781 15979 net.cpp:484] Sharing parameters 'fc3_w' owned by layer 'dt0', param index 0
I0808 09:25:54.783788 15979 net.cpp:484] Sharing parameters 'fc3_b' owned by layer 'dt0', param index 1
I0808 09:25:54.783797 15979 layer_factory.hpp:77] Creating layer con
I0808 09:25:54.783808 15979 net.cpp:91] Creating Layer con
…
I0808 09:25:54.783900 15979 net.cpp:425] con <- dt10
I0808 09:25:54.783907 15979 net.cpp:425] con <- dt11
I0808 09:25:54.783915 15979 net.cpp:425] con <- dt12
I0808 09:25:54.783923 15979 net.cpp:425] con <- dt13
I0808 09:25:54.783931 15979 net.cpp:425] con <- dt14
I0808 09:25:54.783938 15979 net.cpp:425] con <- dt15
I0808 09:25:54.783946 15979 net.cpp:425] con <- dt16
I0808 09:25:54.783953 15979 net.cpp:425] con <- dt17
I0808 09:25:54.783962 15979 net.cpp:425] con <- dt18
I0808 09:25:54.783972 15979 net.cpp:399] con -> con
I0808 09:25:54.783987 15979 net.cpp:141] Setting up con
I0808 09:25:54.783996 15979 net.cpp:148] Top shape: 100 19 (1900)
I0808 09:25:54.784003 15979 net.cpp:156] Memory required for data: 2773177600
I0808 09:25:54.784009 15979 layer_factory.hpp:77] Creating layer r1
I0808 09:25:54.784020 15979 net.cpp:91] Creating Layer r1
I0808 09:25:54.784027 15979 net.cpp:425] r1 <- con
I0808 09:25:54.784039 15979 net.cpp:399] r1 -> r1
I0808 09:25:54.784054 15979 net.cpp:141] Setting up r1
I0808 09:25:54.784062 15979 net.cpp:148] Top shape: 100 1 1 19 (1900)
I0808 09:25:54.784070 15979 net.cpp:156] Memory required for data: 2773185200
I0808 09:25:54.784076 15979 layer_factory.hpp:77] Creating layer p
I0808 09:25:54.784086 15979 net.cpp:91] Creating Layer p
I0808 09:25:54.784093 15979 net.cpp:425] p <- r1
I0808 09:25:54.784103 15979 net.cpp:399] p -> p
I0808 09:25:54.784117 15979 net.cpp:141] Setting up p
I0808 09:25:54.784131 15979 net.cpp:148] Top shape: 100 1 1 1 (100)
I0808 09:25:54.784137 15979 net.cpp:156] Memory required for data: 2773185600
I0808 09:25:54.784144 15979 layer_factory.hpp:77] Creating layer r2
I0808 09:25:54.784153 15979 net.cpp:91] Creating Layer r2
I0808 09:25:54.784160 15979 net.cpp:425] r2 <- p
I0808 09:25:54.784170 15979 net.cpp:399] r2 -> r2
I0808 09:25:54.784183 15979 net.cpp:141] Setting up r2
I0808 09:25:54.784191 15979 net.cpp:148] Top shape: 100 1 1 1 (100)
I0808 09:25:54.784198 15979 net.cpp:156] Memory required for data: 2773186000
I0808 09:25:54.784205 15979 layer_factory.hpp:77] Creating layer padL
I0808 09:25:54.784214 15979 net.cpp:91] Creating Layer padL
I0808 09:25:54.784221 15979 net.cpp:425] padL <- label_data_1_split_1
I0808 09:25:54.784231 15979 net.cpp:399] padL -> padL
I0808 09:25:54.784245 15979 net.cpp:141] Setting up padL
I0808 09:25:54.784255 15979 net.cpp:148] Top shape: 100 1 1 1 (100)
I0808 09:25:54.784260 15979 net.cpp:156] Memory required for data: 2773186400
I0808 09:25:54.784267 15979 layer_factory.hpp:77] Creating layer pad
I0808 09:25:54.784276 15979 net.cpp:91] Creating Layer pad
I0808 09:25:54.784283 15979 net.cpp:425] pad <- r2
I0808 09:25:54.784292 15979 net.cpp:425] pad <- padL
I0808 09:25:54.784301 15979 net.cpp:399] pad -> pad
I0808 09:25:54.784314 15979 net.cpp:141] Setting up pad
I0808 09:25:54.784322 15979 net.cpp:148] Top shape: 100 2 1 1 (200)
I0808 09:25:54.784329 15979 net.cpp:156] Memory required for data: 2773187200
I0808 09:25:54.784337 15979 layer_factory.hpp:77] Creating layer pad_pad_0_split
I0808 09:25:54.784345 15979 net.cpp:91] Creating Layer pad_pad_0_split
I0808 09:25:54.784353 15979 net.cpp:425] pad_pad_0_split <- pad
I0808 09:25:54.784363 15979 net.cpp:399] pad_pad_0_split -> pad_pad_0_split_0
I0808 09:25:54.784374 15979 net.cpp:399] pad_pad_0_split -> pad_pad_0_split_1
I0808 09:25:54.784386 15979 net.cpp:141] Setting up pad_pad_0_split
I0808 09:25:54.784395 15979 net.cpp:148] Top shape: 100 2 1 1 (200)
I0808 09:25:54.784404 15979 net.cpp:148] Top shape: 100 2 1 1 (200)
I0808 09:25:54.784411 15979 net.cpp:156] Memory required for data: 2773188800
I0808 09:25:54.784418 15979 layer_factory.hpp:77] Creating layer loss
I0808 09:25:54.784427 15979 net.cpp:91] Creating Layer loss
I0808 09:25:54.784435 15979 net.cpp:425] loss <- pad_pad_0_split_0
I0808 09:25:54.784443 15979 net.cpp:425] loss <- th_th_0_split_0
I0808 09:25:54.784453 15979 net.cpp:399] loss -> loss
…
I0808 15:48:50.571996 15979 upgrade_proto.cpp:66] Attempting to upgrade input file specified using deprecated input fields: /home/shaogangwang/Downloads/placesCNN_upgraded/places205CNN_deploy_upgraded.prototxt
I0808 15:48:50.572019 15979 upgrade_proto.cpp:69] Successfully upgraded file specified using deprecated input fields.
W0808 15:48:50.572031 15979 upgrade_proto.cpp:71] Note that future Caffe releases will only support input layers and not input fields.
I0808 15:48:50.573492 15979 net.cpp:49] Initializing net from parameters: 
name: "Places205-CNN"
state {
  phase: TEST
}
layer {
  name: "input"
  type: "Input"
  top: "data"
  input_param {
    shape {
      dim: 10
      dim: 3
      dim: 227
      dim: 227
    }
  }
}
layer {
  name: "conv1"
  type: "Convolution"
  bottom: "data"
  top: "conv1"
  param {
    lr_mult: 1
    decay_mult: 1
  }
  param {
    lr_mult: 2
    decay_mult: 0
  }
  convolution_param {
    num_output: 96
    kernel_size: 11
    stride: 4
    weight_filler {
      type: "gaussian"
      std: 0.01
    }
    bias_filler {
      type: "constant"
      value: 0
    }
  }
}
layer {
  name: "relu1"
  type: "ReLU"
  bottom: "conv1"
  top: "conv1"
}
layer {
  name: "pool1"
  type: "Pooling"
  bottom: "conv1"
  top: "pool1"
  pooling_param {
    pool: MAX
    kernel_size: 3
    stride: 2
  }
}
layer {
  name: "norm1"
  type: "LRN"
  bottom: "pool1"
  top: "norm1"
  lrn_param {
    local_size: 5
    alpha: 0.0001
    beta: 0.75
  }
}
layer {
  name: "conv2"
  type: "Convolution"
  bottom: "norm1"
  top: "conv2"
  param {
    lr_mult: 1
    decay_mult: 1
  }
  param {
    lr_mult: 2
    decay_mult: 0
  }
  convolution_param {
    num_output: 256
    pad: 2
    kernel_size: 5
    group: 2
    weight_filler {
      type: "gaussian"
      std: 0.01
    }
    bias_filler {
      type: "constant"
      value: 1
    }
  }
}
layer {
  name: "relu2"
  type: "ReLU"
  bottom: "conv2"
  top: "conv2"
}
layer {
  name: "pool2"
  type: "Pooling"
  bottom: "conv2"
  top: "pool2"
  pooling_param {
    pool: MAX
    kernel_size: 3
    stride: 2
  }
}
layer {
  name: "norm2"
  type: "LRN"
  bottom: "pool2"
  top: "norm2"
  lrn_param {
    local_size: 5
    alpha: 0.0001
    beta: 0.75
  }
}
layer {
  name: "conv3"
  type: "Convolution"
  bottom: "norm2"
  top: "conv3"
  param {
    lr_mult: 1
    decay_mult: 1
  }
  param {
    lr_mult: 2
    decay_mult: 0
  }
  convolution_param {
    num_output: 384
    pad: 1
    kernel_size: 3
    weight_filler {
      type: "gaussian"
      std: 0.01
    }
    bias_filler {
      type: "constant"
      value: 0
    }
  }
}
layer {
  name: "relu3"
  type: "ReLU"
  bottom: "conv3"
  top: "conv3"
}
layer {
  name: "conv4"
  type: "Convolution"
  bottom: "conv3"
  top: "conv4"
  param {
    lr_mult: 1
    decay_mult: 1
  }
  param {
    lr_mult: 2
    decay_mult: 0
  }
  convolution_param {
    num_output: 384
    pad: 1
    kernel_size: 3
    group: 2
    weight_filler {
      type: "gaussian"
      std: 0.01
    }
    bias_filler {
      type: "constant"
      value: 1
    }
  }
}
layer {
  name: "relu4"
  type: "ReLU"
  bottom: "conv4"
  top: "conv4"
}
layer {
  name: "conv5"
  type: "Convolution"
  bottom: "conv4"
  top: "conv5"
  param {
    lr_mult: 1
    decay_mult: 1
  }
  param {
    lr_mult: 2
    decay_mult: 0
  }
  convolution_param {
    num_output: 256
    pad: 1
    kernel_size: 3
    group: 2
    weight_filler {
      type: "gaussian"
      std: 0.01
    }
    bias_filler {
      type: "constant"
      value: 1
    }
  }
}
layer {
  name: "relu5"
  type: "ReLU"
  bottom: "conv5"
  top: "conv5"
}
layer {
  name: "pool5"
  type: "Pooling"
  bottom: "conv5"
  top: "pool5"
  pooling_param {
    pool: MAX
    kernel_size: 3
    stride: 2
  }
}
layer {
  name: "fc6"
  type: "InnerProduct"
  bottom: "pool5"
  top: "fc6"
  param {
    lr_mult: 1
    decay_mult: 1
  }
  param {
    lr_mult: 2
    decay_mult: 0
  }
  inner_product_param {
    num_output: 4096
    weight_filler {
      type: "gaussian"
      std: 0.005
    }
    bias_filler {
      type: "constant"
      value: 1
    }
  }
}
layer {
  name: "relu6"
  type: "ReLU"
  bottom: "fc6"
  top: "fc6"
}
layer {
  name: "drop6"
  type: "Dropout"
  bottom: "fc6"
  top: "fc6"
  dropout_param {
    dropout_ratio: 0.5
  }
}
layer {
  name: "fc7"
  type: "InnerProduct"
  bottom: "fc6"
  top: "fc7"
  param {
    lr_mult: 1
    decay_mult: 1
  }
  param {
    lr_mult: 2
    decay_mult: 0
  }
  inner_product_param {
    num_output: 4096
    weight_filler {
      type: "gaussian"
      std: 0.005
    }
    bias_filler {
      type: "constant"
      value: 1
    }
  }
}
layer {
  name: "relu7"
  type: "ReLU"
  bottom: "fc7"
  top: "fc7"
}
layer {
  name: "drop7"
  type: "Dropout"
  bottom: "fc7"
  top: "fc7"
  dropout_param {
    dropout_ratio: 0.5
  }
}
layer {
  name: "fc8"
  type: "InnerProduct"
  bottom: "fc7"
  top: "fc8"
  param {
    lr_mult: 1
    decay_mult: 1
  }
  param {
    lr_mult: 2
    decay_mult: 0
  }
  inner_product_param {
    num_output: 205
    weight_filler {
      type: "gaussian"
      std: 0.01
    }
    bias_filler {
      type: "constant"
      value: 0
    }
  }
}
layer {
  name: "prob"
  type: "Softmax"
  bottom: "fc8"
  top: "prob"
}
I0808 15:48:50.574661 15979 layer_factory.hpp:77] Creating layer input
I0808 15:48:50.583920 15979 net.cpp:91] Creating Layer input
I0808 15:48:50.583961 15979 net.cpp:399] input -> data
I0808 15:48:50.583992 15979 net.cpp:141] Setting up input
I0808 15:48:50.584009 15979 net.cpp:148] Top shape: 10 3 227 227 (1545870)
I0808 15:48:50.584022 15979 net.cpp:156] Memory required for data: 6183480
I0808 15:48:50.584034 15979 layer_factory.hpp:77] Creating layer conv1
I0808 15:48:50.584060 15979 net.cpp:91] Creating Layer conv1
I0808 15:48:50.584072 15979 net.cpp:425] conv1 <- data
I0808 15:48:50.584090 15979 net.cpp:399] conv1 -> conv1
I0808 15:48:50.587659 15979 net.cpp:141] Setting up conv1
I0808 15:48:50.587671 15979 net.cpp:148] Top shape: 10 96 55 55 (2904000)
I0808 15:48:50.587679 15979 net.cpp:156] Memory required for data: 17799480
I0808 15:48:50.587697 15979 layer_factory.hpp:77] Creating layer relu1
I0808 15:48:50.587710 15979 net.cpp:91] Creating Layer relu1
I0808 15:48:50.587718 15979 net.cpp:425] relu1 <- conv1
I0808 15:48:50.587728 15979 net.cpp:386] relu1 -> conv1 (in-place)
I0808 15:48:50.587740 15979 net.cpp:141] Setting up relu1
I0808 15:48:50.587750 15979 net.cpp:148] Top shape: 10 96 55 55 (2904000)
I0808 15:48:50.587757 15979 net.cpp:156] Memory required for data: 29415480
I0808 15:48:50.587765 15979 layer_factory.hpp:77] Creating layer pool1
I0808 15:48:50.587776 15979 net.cpp:91] Creating Layer pool1
I0808 15:48:50.587784 15979 net.cpp:425] pool1 <- conv1
I0808 15:48:50.587795 15979 net.cpp:399] pool1 -> pool1
I0808 15:48:50.610608 15979 net.cpp:141] Setting up pool1
I0808 15:48:50.610695 15979 net.cpp:148] Top shape: 10 96 27 27 (699840)
I0808 15:48:50.610735 15979 net.cpp:156] Memory required for data: 32214840
I0808 15:48:50.610774 15979 layer_factory.hpp:77] Creating layer norm1
I0808 15:48:50.610821 15979 net.cpp:91] Creating Layer norm1
I0808 15:48:50.610858 15979 net.cpp:425] norm1 <- pool1
I0808 15:48:50.610899 15979 net.cpp:399] norm1 -> norm1
I0808 15:48:50.610949 15979 net.cpp:141] Setting up norm1
I0808 15:48:50.610987 15979 net.cpp:148] Top shape: 10 96 27 27 (699840)
I0808 15:48:50.611021 15979 net.cpp:156] Memory required for data: 35014200
I0808 15:48:50.611057 15979 layer_factory.hpp:77] Creating layer conv2
I0808 15:48:50.611104 15979 net.cpp:91] Creating Layer conv2
I0808 15:48:50.611140 15979 net.cpp:425] conv2 <- norm1
I0808 15:48:50.611181 15979 net.cpp:399] conv2 -> conv2
I0808 15:48:50.626014 15979 net.cpp:141] Setting up conv2
I0808 15:48:50.626037 15979 net.cpp:148] Top shape: 10 256 27 27 (1866240)
I0808 15:48:50.626044 15979 net.cpp:156] Memory required for data: 42479160
I0808 15:48:50.626061 15979 layer_factory.hpp:77] Creating layer relu2
I0808 15:48:50.626075 15979 net.cpp:91] Creating Layer relu2
I0808 15:48:50.626106 15979 net.cpp:425] relu2 <- conv2
I0808 15:48:50.626119 15979 net.cpp:386] relu2 -> conv2 (in-place)
I0808 15:48:50.626132 15979 net.cpp:141] Setting up relu2
I0808 15:48:50.626145 15979 net.cpp:148] Top shape: 10 256 27 27 (1866240)
I0808 15:48:50.626173 15979 net.cpp:156] Memory required for data: 49944120
I0808 15:48:50.626183 15979 layer_factory.hpp:77] Creating layer pool2
I0808 15:48:50.626194 15979 net.cpp:91] Creating Layer pool2
I0808 15:48:50.626219 15979 net.cpp:425] pool2 <- conv2
I0808 15:48:50.626233 15979 net.cpp:399] pool2 -> pool2
I0808 15:48:50.626266 15979 net.cpp:141] Setting up pool2
I0808 15:48:50.626279 15979 net.cpp:148] Top shape: 10 256 13 13 (432640)
I0808 15:48:50.626286 15979 net.cpp:156] Memory required for data: 51674680
I0808 15:48:50.626292 15979 layer_factory.hpp:77] Creating layer norm2
I0808 15:48:50.626307 15979 net.cpp:91] Creating Layer norm2
I0808 15:48:50.626313 15979 net.cpp:425] norm2 <- pool2
I0808 15:48:50.626323 15979 net.cpp:399] norm2 -> norm2
I0808 15:48:50.626338 15979 net.cpp:141] Setting up norm2
I0808 15:48:50.626351 15979 net.cpp:148] Top shape: 10 256 13 13 (432640)
I0808 15:48:50.626379 15979 net.cpp:156] Memory required for data: 53405240
I0808 15:48:50.626387 15979 layer_factory.hpp:77] Creating layer conv3
I0808 15:48:50.626404 15979 net.cpp:91] Creating Layer conv3
I0808 15:48:50.626413 15979 net.cpp:425] conv3 <- norm2
I0808 15:48:50.626425 15979 net.cpp:399] conv3 -> conv3
I0808 15:48:50.670634 15979 net.cpp:141] Setting up conv3
I0808 15:48:50.670670 15979 net.cpp:148] Top shape: 10 384 13 13 (648960)
I0808 15:48:50.670678 15979 net.cpp:156] Memory required for data: 56001080
I0808 15:48:50.670699 15979 layer_factory.hpp:77] Creating layer relu3
I0808 15:48:50.670743 15979 net.cpp:91] Creating Layer relu3
I0808 15:48:50.670773 15979 net.cpp:425] relu3 <- conv3
I0808 15:48:50.670804 15979 net.cpp:386] relu3 -> conv3 (in-place)
I0808 15:48:50.670843 15979 net.cpp:141] Setting up relu3
I0808 15:48:50.670873 15979 net.cpp:148] Top shape: 10 384 13 13 (648960)
I0808 15:48:50.670898 15979 net.cpp:156] Memory required for data: 58596920
I0808 15:48:50.670924 15979 layer_factory.hpp:77] Creating layer conv4
I0808 15:48:50.670960 15979 net.cpp:91] Creating Layer conv4
I0808 15:48:50.670991 15979 net.cpp:425] conv4 <- conv3
I0808 15:48:50.671022 15979 net.cpp:399] conv4 -> conv4
I0808 15:48:50.702805 15979 net.cpp:141] Setting up conv4
I0808 15:48:50.702828 15979 net.cpp:148] Top shape: 10 384 13 13 (648960)
I0808 15:48:50.702836 15979 net.cpp:156] Memory required for data: 61192760
I0808 15:48:50.702850 15979 layer_factory.hpp:77] Creating layer relu4
I0808 15:48:50.702888 15979 net.cpp:91] Creating Layer relu4
I0808 15:48:50.702916 15979 net.cpp:425] relu4 <- conv4
I0808 15:48:50.702945 15979 net.cpp:386] relu4 -> conv4 (in-place)
I0808 15:48:50.702982 15979 net.cpp:141] Setting up relu4
I0808 15:48:50.703011 15979 net.cpp:148] Top shape: 10 384 13 13 (648960)
I0808 15:48:50.703037 15979 net.cpp:156] Memory required for data: 63788600
I0808 15:48:50.703063 15979 layer_factory.hpp:77] Creating layer conv5
I0808 15:48:50.703096 15979 net.cpp:91] Creating Layer conv5
I0808 15:48:50.703126 15979 net.cpp:425] conv5 <- conv4
I0808 15:48:50.703158 15979 net.cpp:399] conv5 -> conv5
I0808 15:48:50.724706 15979 net.cpp:141] Setting up conv5
I0808 15:48:50.724798 15979 net.cpp:148] Top shape: 10 256 13 13 (432640)
I0808 15:48:50.724830 15979 net.cpp:156] Memory required for data: 65519160
I0808 15:48:50.724874 15979 layer_factory.hpp:77] Creating layer relu5
I0808 15:48:50.724908 15979 net.cpp:91] Creating Layer relu5
I0808 15:48:50.724936 15979 net.cpp:425] relu5 <- conv5
I0808 15:48:50.724967 15979 net.cpp:386] relu5 -> conv5 (in-place)
I0808 15:48:50.724998 15979 net.cpp:141] Setting up relu5
I0808 15:48:50.725028 15979 net.cpp:148] Top shape: 10 256 13 13 (432640)
I0808 15:48:50.725052 15979 net.cpp:156] Memory required for data: 67249720
I0808 15:48:50.725077 15979 layer_factory.hpp:77] Creating layer pool5
I0808 15:48:50.725107 15979 net.cpp:91] Creating Layer pool5
I0808 15:48:50.725132 15979 net.cpp:425] pool5 <- conv5
I0808 15:48:50.725162 15979 net.cpp:399] pool5 -> pool5
I0808 15:48:50.725195 15979 net.cpp:141] Setting up pool5
I0808 15:48:50.725224 15979 net.cpp:148] Top shape: 10 256 6 6 (92160)
I0808 15:48:50.725249 15979 net.cpp:156] Memory required for data: 67618360
I0808 15:48:50.725275 15979 layer_factory.hpp:77] Creating layer fc6
I0808 15:48:50.725309 15979 net.cpp:91] Creating Layer fc6
I0808 15:48:50.725337 15979 net.cpp:425] fc6 <- pool5
I0808 15:48:50.725368 15979 net.cpp:399] fc6 -> fc6
I0808 15:48:53.431671 15979 net.cpp:141] Setting up fc6
I0808 15:48:53.431710 15979 net.cpp:148] Top shape: 10 4096 (40960)
I0808 15:48:53.431720 15979 net.cpp:156] Memory required for data: 67782200
I0808 15:48:53.431738 15979 layer_factory.hpp:77] Creating layer relu6
I0808 15:48:53.431754 15979 net.cpp:91] Creating Layer relu6
I0808 15:48:53.431762 15979 net.cpp:425] relu6 <- fc6
I0808 15:48:53.431773 15979 net.cpp:386] relu6 -> fc6 (in-place)
I0808 15:48:53.431788 15979 net.cpp:141] Setting up relu6
I0808 15:48:53.431798 15979 net.cpp:148] Top shape: 10 4096 (40960)
I0808 15:48:53.431805 15979 net.cpp:156] Memory required for data: 67946040
I0808 15:48:53.431813 15979 layer_factory.hpp:77] Creating layer drop6
I0808 15:48:53.431824 15979 net.cpp:91] Creating Layer drop6
I0808 15:48:53.431830 15979 net.cpp:425] drop6 <- fc6
I0808 15:48:53.431841 15979 net.cpp:386] drop6 -> fc6 (in-place)
I0808 15:48:53.431854 15979 net.cpp:141] Setting up drop6
I0808 15:48:53.431861 15979 net.cpp:148] Top shape: 10 4096 (40960)
I0808 15:48:53.431869 15979 net.cpp:156] Memory required for data: 68109880
I0808 15:48:53.431875 15979 layer_factory.hpp:77] Creating layer fc7
I0808 15:48:53.431890 15979 net.cpp:91] Creating Layer fc7
I0808 15:48:53.431896 15979 net.cpp:425] fc7 <- fc6
I0808 15:48:53.431908 15979 net.cpp:399] fc7 -> fc7
I0808 15:48:54.537470 15979 net.cpp:141] Setting up fc7
I0808 15:48:54.537508 15979 net.cpp:148] Top shape: 10 4096 (40960)
I0808 15:48:54.537518 15979 net.cpp:156] Memory required for data: 68273720
I0808 15:48:54.537534 15979 layer_factory.hpp:77] Creating layer relu7
I0808 15:48:54.537550 15979 net.cpp:91] Creating Layer relu7
I0808 15:48:54.537590 15979 net.cpp:425] relu7 <- fc7
I0808 15:48:54.537605 15979 net.cpp:386] relu7 -> fc7 (in-place)
I0808 15:48:54.537619 15979 net.cpp:141] Setting up relu7
I0808 15:48:54.537632 15979 net.cpp:148] Top shape: 10 4096 (40960)
I0808 15:48:54.537639 15979 net.cpp:156] Memory required for data: 68437560
I0808 15:48:54.537647 15979 layer_factory.hpp:77] Creating layer drop7
I0808 15:48:54.537657 15979 net.cpp:91] Creating Layer drop7
I0808 15:48:54.537678 15979 net.cpp:425] drop7 <- fc7
I0808 15:48:54.537694 15979 net.cpp:386] drop7 -> fc7 (in-place)
I0808 15:48:54.537709 15979 net.cpp:141] Setting up drop7
I0808 15:48:54.537719 15979 net.cpp:148] Top shape: 10 4096 (40960)
I0808 15:48:54.537725 15979 net.cpp:156] Memory required for data: 68601400
I0808 15:48:54.537732 15979 layer_factory.hpp:77] Creating layer fc8
I0808 15:48:54.537747 15979 net.cpp:91] Creating Layer fc8
I0808 15:48:54.537755 15979 net.cpp:425] fc8 <- fc7
I0808 15:48:54.537765 15979 net.cpp:399] fc8 -> fc8
I0808 15:48:54.580716 15979 net.cpp:141] Setting up fc8
I0808 15:48:54.580746 15979 net.cpp:148] Top shape: 10 205 (2050)
I0808 15:48:54.580754 15979 net.cpp:156] Memory required for data: 68609600
I0808 15:48:54.580770 15979 layer_factory.hpp:77] Creating layer prob
I0808 15:48:54.580785 15979 net.cpp:91] Creating Layer prob
I0808 15:48:54.580793 15979 net.cpp:425] prob <- fc8
I0808 15:48:54.580804 15979 net.cpp:399] prob -> prob
I0808 15:48:54.580826 15979 net.cpp:141] Setting up prob
I0808 15:48:54.580837 15979 net.cpp:148] Top shape: 10 205 (2050)
I0808 15:48:54.580842 15979 net.cpp:156] Memory required for data: 68617800
I0808 15:48:54.580850 15979 net.cpp:219] prob does not need backward computation.
I0808 15:48:54.580857 15979 net.cpp:219] fc8 does not need backward computation.
I0808 15:48:54.580865 15979 net.cpp:219] drop7 does not need backward computation.
I0808 15:48:54.580871 15979 net.cpp:219] relu7 does not need backward computation.
…
