…
snapshot: 5000
snapshot_prefix: "examples/scene/scene_met"
solver_mode: CPU
I0813 08:28:00.787205 18283 solver.cpp:81] Creating training net from train_net file: examples/scene/metNetTrain.prototxt
I0813 08:28:00.796303 18283 net.cpp:49] Initializing net from parameters: 
state {
  phase: TRAIN
}
layer {
  name: "data"
  type: "Data"
  top: "data"
  top: "label"
  include {
    phase: TRAIN
  }
  transform_param {
    scale: 1
    mirror: false
  }
  data_param {
    source: "/home/shaogang/Datasets/FeatsDB/featsTrain20k"
    batch_size: 100
    backend: LMDB
  }
}
layer {
  name: "th"
  type: "Threshold"
  bottom: "label"
  top: "th"
  threshold_param {
    threshold: 0
  }
}
layer {
  name: "i1"
  type: "Slice"
  bottom: "data"
  top: "i1"
  top: "i2"
  top: "i3"
  top: "i4"
  top: "i5"
  top: "i6"
  top: "i7"
  top: "i8"
  top: "i9"
  top: "i10"
  top: "i11"
  top: "i12"
  top: "i13"
  top: "i14"
  top: "i15"
  top: "i16"
  top: "i17"
  top: "i18"
  top: "i19"
  top: "i20"
  slice_param {
    slice_dim: 2
    slice_point: 1
    slice_point: 2
    slice_point: 3
    slice_point: 4
    slice_point: 5
    slice_point: 6
    slice_point: 7
    slice_point: 8
    slice_point: 9
    slice_point: 10
    slice_point: 11
    slice_point: 12
    slice_point: 13
    slice_point: 14
    slice_point: 15
    slice_point: 16
    slice_point: 17
    slice_point: 18
    slice_point: 19
  }
}
layer {
  name: "Concat1"
  type: "Concat"
  bottom: "i1"
  bottom: "i11"
  top: "Concat1"
  concat_param {
    axis: 1
  }
}
layer {
  name: "InnerProduct1"
  type: "InnerProduct"
  bottom: "Concat1"
  top: "InnerProduct1"
  param {
    name: "fc1_w"
    lr_mult: 1
  }
  param {
    name: "fc1_b"
    lr_mult: 2
  }
  inner_product_param {
    num_output: 256
    weight_filler {
      type: "xavier"
    }
    bias_filler {
      type: "constant"
    }
  }
}
layer {
  name: "ReLU1"
  type: "ReLU"
  bottom: "InnerProduct1"
  top: "InnerProduct1"
}
layer {
  name: "drop1"
  type: "Dropout"
  bottom: "InnerProduct1"
  top: "Dropout1"
  dropout_param {
    dropout_ratio: 0.5
  }
}
layer {
  name: "InnerProduct2"
  type: "InnerProduct"
  bottom: "Dropout1"
  top: "InnerProduct2"
  param {
    name: "fc2_w"
    lr_mult: 1
  }
  param {
    name: "fc2_b"
    lr_mult: 2
  }
  inner_product_param {
    num_output: 128
    weight_filler {
      type: "xavier"
    }
    bias_filler {
      type: "constant"
    }
  }
}
layer {
  name: "ReLU2"
  type: "ReLU"
  bottom: "InnerProduct2"
  top: "InnerProduct2"
}
layer {
  name: "drop2"
  type: "Dropout"
  bottom: "InnerProduct2"
  top: "Dropout2"
  dropout_param {
    dropout_ratio: 0.5
  }
}
layer {
  name: "m1"
  type: "InnerProduct"
  bottom: "Dropout2"
  top: "m1"
  param {
    name: "fc3_w"
    lr_mult: 1
  }
  param {
    name: "fc3_b"
    lr_mult: 2
  }
  inner_product_param {
    num_output: 1
    weight_filler {
      type: "xavier"
    }
    bias_filler {
      type: "constant"
    }
  }
}
layer {
  name: "Concat2"
  type: "Concat"
  bottom: "i1"
  bottom: "i12"
  top: "Concat2"
  concat_param {
    axis: 1
  }
}
layer {
  name: "InnerProduct3"
  type: "InnerProduct"
  bottom: "Concat2"
  top: "InnerProduct3"
  param {
    name: "fc1_w"
    lr_mult: 1
  }
  param {
    name: "fc1_b"
    lr_mult: 2
  }
  inner_product_param {
    num_output: 256
    weight_filler {
      type: "xavier"
    }
    bias_filler {
      type: "constant"
    }
  }
}
layer {
  name: "ReLU3"
  type: "ReLU"
  bottom: "InnerProduct3"
  top: "InnerProduct3"
}
layer {
  name: "drop1"
  type: "Dropout"
  bottom: "InnerProduct3"
  top: "Dropout3"
  dropout_param {
    dropout_ratio: 0.5
  }
}
layer {
  name: "InnerProduct4"
  type: "InnerProduct"
  bottom: "Dropout3"
  top: "InnerProduct4"
  param {
    name: "fc2_w"
    lr_mult: 1
  }
  param {
    name: "fc2_b"
    lr_mult: 2
  }
  inner_product_param {
    num_output: 128
    weight_filler {
      type: "xavier"
    }
    bias_filler {
      type: "constant"
    }
  }
}
layer {
  name: "ReLU4"
  type: "ReLU"
  bottom: "InnerProduct4"
  top: "InnerProduct4"
}
layer {
  name: "drop2"
  type: "Dropout"
  bottom: "InnerProduct4"
  top: "Dropout4"
  dropout_param {
    dropout_ratio: 0.5
  }
}
layer {
  name: "m2"
  type: "InnerProduct"
  bottom: "Dropout4"
  top: "m2"
  param {
    name: "fc3_w"
    lr_mult: 1
  }
  param {
    name: "fc3_b"
    lr_mult: 2
  }
  inner_product_param {
    num_output: 1
    weight_filler {
      type: "xavier"
    }
    bias_filler {
      type: "constant"
    }
  }
}
layer {
  name: "Concat3"
  type: "Concat"
  bottom: "i1"
  bottom: "i13"
  top: "Concat3"
  concat_param {
    axis: 1
  }
}
layer {
  name: "InnerProduct5"
  type: "InnerProduct"
  bottom: "Concat3"
  top: "InnerProduct5"
  param {
    name: "fc1_w"
    lr_mult: 1
  }
  param {
    name: "fc1_b"
    lr_mult: 2
  }
  inner_product_param {
    num_output: 256
    weight_filler {
      type: "xavier"
    }
    bias_filler {
      type: "constant"
    }
  }
}
layer {
  name: "ReLU5"
  type: "ReLU"
  bottom: "InnerProduct5"
  top: "InnerProduct5"
}
layer {
  name: "drop1"
  type: "Dropout"
  bottom: "InnerProduct5"
  top: "Dropout5"
  dropout_param {
    dropout_ratio: 0.5
  }
}
layer {
  name: "InnerProduct6"
  type: "InnerProduct"
  bottom: "Dropout5"
  top: "InnerProduct6"
  param {
    name: "fc2_w"
    lr_mult: 1
  }
  param {
    name: "fc2_b"
    lr_mult: 2
  }
  inner_product_param {
    num_output: 128
    weight_filler {
      type: "xavier"
    }
    bias_filler {
      type: "constant"
    }
  }
}
layer {
  name: "ReLU6"
  type: "ReLU"
  bottom: "InnerProduct6"
  top: "InnerProduct6"
}
layer {
  name: "drop2"
  type: "Dropout"
  bottom: "InnerProduct6"
  top: "Dropout6"
  dropout_param {
    dropout_ratio: 0.5
  }
}
layer {
  name: "m3"
  type: "InnerProduct"
  bottom: "Dropout6"
  top: "m3"
  param {
    name: "fc3_w"
    lr_mult: 1
  }
  param {
    name: "fc3_b"
    lr_mult: 2
  }
  inner_product_param {
    num_output: 1
    weight_filler {
      type: "xavier"
    }
    bias_filler {
      type: "constant"
    }
  }
}
layer {
  name: "Concat4"
  type: "Concat"
  bottom: "i1"
  bottom: "i14"
  top: "Concat4"
  concat_param {
    axis: 1
  }
}
layer {
  name: "InnerProduct7"
  type: "InnerProduct"
  bottom: "Concat4"
  top: "InnerProduct7"
  param {
    name: "fc1_w"
    lr_mult: 1
  }
  param {
    name: "fc1_b"
    lr_mult: 2
  }
  inner_product_param {
    num_output: 256
    weight_filler {
      type: "xavier"
    }
    bias_filler {
      type: "constant"
    }
  }
}
layer {
  name: "ReLU7"
  type: "ReLU"
  bottom: "InnerProduct7"
  top: "InnerProduct7"
}
layer {
  name: "drop1"
  type: "Dropout"
  bottom: "InnerProduct7"
  top: "Dropout7"
  dropout_param {
    dropout_ratio: 0.5
  }
}
layer {
  name: "InnerProduct8"
  type: "InnerProduct"
  bottom: "Dropout7"
  top: "InnerProduct8"
  param {
    name: "fc2_w"
    lr_mult: 1
  }
  param {
    name: "fc2_b"
    lr_mult: 2
  }
  inner_product_param {
    num_output: 128
    weight_filler {
      type: "xavier"
    }
    bias_filler {
      type: "constant"
    }
  }
}
layer {
  name: "ReLU8"
  type: "ReLU"
  bottom: "InnerProduct8"
  top: "InnerProduct8"
}
layer {
  name: "drop2"
  type: "Dropout"
  bottom: "InnerProduct8"
  top: "Dropout8"
  dropout_param {
    dropout_ratio: 0.5
  }
}
layer {
  name: "m4"
  type: "InnerProduct"
  bottom: "Dropout8"
  top: "m4"
  param {
    name: "fc3_w"
    lr_mult: 1
  }
  param {
    name: "fc3_b"
    lr_mult: 2
  }
  inner_product_param {
    num_output: 1
    weight_filler {
      type: "xavier"
    }
    bias_filler {
      type: "constant"
    }
  }
}
layer {
  name: "Concat5"
  type: "Concat"
  bottom: "i1"
  bottom: "i15"
  top: "Concat5"
  concat_param {
    axis: 1
  }
}
layer {
  name: "InnerProduct9"
  type: "InnerProduct"
  bottom: "Concat5"
  top: "InnerProduct9"
  param {
    name: "fc1_w"
    lr_mult: 1
  }
  param {
    name: "fc1_b"
    lr_mult: 2
  }
  inner_product_param {
    num_output: 256
    weight_filler {
      type: "xavier"
    }
    bias_filler {
      type: "constant"
    }
  }
}
layer {
  name: "ReLU9"
  type: "ReLU"
  bottom: "InnerProduct9"
  top: "InnerProduct9"
}
layer {
  name: "drop1"
  type: "Dropout"
  bottom: "InnerProduct9"
  top: "Dropout9"
  dropout_param {
    dropout_ratio: 0.5
  }
}
layer {
  name: "InnerProduct10"
  type: "InnerProduct"
  bottom: "Dropout9"
  top: "InnerProduct10"
  param {
    name: "fc2_w"
    lr_mult: 1
  }
  param {
    name: "fc2_b"
    lr_mult: 2
  }
  inner_product_param {
    num_output: 128
    weight_filler {
      type: "xavier"
    }
    bias_filler {
      type: "constant"
    }
  }
}
layer {
  name: "ReLU10"
  type: "ReLU"
  bottom: "InnerProduct10"
  top: "InnerProduct10"
}
layer {
  name: "drop2"
  type: "Dropout"
  bottom: "InnerProduct10"
  top: "Dropout10"
  dropout_param {
    dropout_ratio: 0.5
  }
}
layer {
  name: "m5"
  type: "InnerProduct"
  bottom: "Dropout10"
  top: "m5"
  param {
    name: "fc3_w"
    lr_mult: 1
  }
  param {
    name: "fc3_b"
    lr_mult: 2
  }
  inner_product_param {
    num_output: 1
    weight_filler {
      type: "xavier"
    }
    bias_filler {
      type: "constant"
    }
  }
}
layer {
  name: "Concat6"
  type: "Concat"
  bottom: "i1"
  bottom: "i16"
  top: "Concat6"
  concat_param {
    axis: 1
  }
}
layer {
  name: "InnerProduct11"
  type: "InnerProduct"
  bottom: "Concat6"
  top: "InnerProduct11"
  param {
    name: "fc1_w"
    lr_mult: 1
  }
  param {
    name: "fc1_b"
    lr_mult: 2
  }
  inner_product_param {
    num_output: 256
    weight_filler {
      type: "xavier"
    }
    bias_filler {
      type: "constant"
    }
  }
}
layer {
  name: "ReLU11"
  type: "ReLU"
  bottom: "InnerProduct11"
  top: "InnerProduct11"
}
layer {
  name: "drop1"
  type: "Dropout"
  bottom: "InnerProduct11"
  top: "Dropout11"
  dropout_param {
    dropout_ratio: 0.5
  }
}
layer {
  name: "InnerProduct12"
  type: "InnerProduct"
  bottom: "Dropout11"
  top: "InnerProduct12"
  param {
    name: "fc2_w"
    lr_mult: 1
  }
  param {
    name: "fc2_b"
    lr_mult: 2
  }
  inner_product_param {
    num_output: 128
    weight_filler {
      type: "xavier"
    }
    bias_filler {
      type: "constant"
    }
  }
}
layer {
  name: "ReLU12"
  type: "ReLU"
  bottom: "InnerProduct12"
  top: "InnerProduct12"
}
layer {
  name: "drop2"
  type: "Dropout"
  bottom: "InnerProduct12"
  top: "Dropout12"
  dropout_param {
    dropout_ratio: 0.5
  }
}
layer {
  name: "m6"
  type: "InnerProduct"
  bottom: "Dropout12"
  top: "m6"
  param {
    name: "fc3_w"
    lr_mult: 1
  }
  param {
    name: "fc3_b"
    lr_mult: 2
  }
  inner_product_param {
    num_output: 1
    weight_filler {
      type: "xavier"
    }
    bias_filler {
      type: "constant"
    }
  }
}
layer {
  name: "Concat7"
  type: "Concat"
  bottom: "i1"
  bottom: "i17"
  top: "Concat7"
  concat_param {
    axis: 1
  }
}
layer {
  name: "InnerProduct13"
  type: "InnerProduct"
  bottom: "Concat7"
  top: "InnerProduct13"
  param {
    name: "fc1_w"
    lr_mult: 1
  }
  param {
    name: "fc1_b"
    lr_mult: 2
  }
  inner_product_param {
    num_output: 256
    weight_filler {
      type: "xavier"
    }
    bias_filler {
      type: "constant"
    }
  }
}
layer {
  name: "ReLU13"
  type: "ReLU"
  bottom: "InnerProduct13"
  top: "InnerProduct13"
}
layer {
  name: "drop1"
  type: "Dropout"
  bottom: "InnerProduct13"
  top: "Dropout13"
  dropout_param {
    dropout_ratio: 0.5
  }
}
layer {
  name: "InnerProduct14"
  type: "InnerProduct"
  bottom: "Dropout13"
  top: "InnerProduct14"
  param {
    name: "fc2_w"
    lr_mult: 1
  }
  param {
    name: "fc2_b"
    lr_mult: 2
  }
  inner_product_param {
    num_output: 128
    weight_filler {
      type: "xavier"
    }
    bias_filler {
      type: "constant"
    }
  }
}
layer {
  name: "ReLU14"
  type: "ReLU"
  bottom: "InnerProduct14"
  top: "InnerProduct14"
}
layer {
  name: "drop2"
  type: "Dropout"
  bottom: "InnerProduct14"
  top: "Dropout14"
  dropout_param {
    dropout_ratio: 0.5
  }
}
layer {
  name: "m7"
  type: "InnerProduct"
  bottom: "Dropout14"
  top: "m7"
  param {
    name: "fc3_w"
    lr_mult: 1
  }
  param {
    name: "fc3_b"
    lr_mult: 2
  }
  inner_product_param {
    num_output: 1
    weight_filler {
      type: "xavier"
    }
    bias_filler {
      type: "constant"
    }
  }
}
layer {
  name: "Concat8"
  type: "Concat"
  bottom: "i1"
  bottom: "i18"
  top: "Concat8"
  concat_param {
    axis: 1
  }
}
layer {
  name: "InnerProduct15"
  type: "InnerProduct"
  bottom: "Concat8"
  top: "InnerProduct15"
  param {
    name: "fc1_w"
    lr_mult: 1
  }
  param {
    name: "fc1_b"
    lr_mult: 2
  }
  inner_product_param {
    num_output: 256
    weight_filler {
      type: "xavier"
    }
    bias_filler {
      type: "constant"
    }
  }
}
layer {
  name: "ReLU15"
  type: "ReLU"
  bottom: "InnerProduct15"
  top: "InnerProduct15"
}
layer {
  name: "drop1"
  type: "Dropout"
  bottom: "InnerProduct15"
  top: "Dropout15"
  dropout_param {
    dropout_ratio: 0.5
  }
}
layer {
  name: "InnerProduct16"
  type: "InnerProduct"
  bottom: "Dropout15"
  top: "InnerProduct16"
  param {
    name: "fc2_w"
    lr_mult: 1
  }
  param {
    name: "fc2_b"
    lr_mult: 2
  }
  inner_product_param {
    num_output: 128
    weight_filler {
      type: "xavier"
    }
    bias_filler {
      type: "constant"
    }
  }
}
layer {
  name: "ReLU16"
  type: "ReLU"
  bottom: "InnerProduct16"
  top: "InnerProduct16"
}
layer {
  name: "drop2"
  type: "Dropout"
  bottom: "InnerProduct16"
  top: "Dropout16"
  dropout_param {
    dropout_ratio: 0.5
  }
}
layer {
  name: "m8"
  type: "InnerProduct"
  bottom: "Dropout16"
  top: "m8"
  param {
    name: "fc3_w"
    lr_mult: 1
  }
  param {
    name: "fc3_b"
    lr_mult: 2
  }
  inner_product_param {
    num_output: 1
    weight_filler {
      type: "xavier"
    }
    bias_filler {
      type: "constant"
    }
  }
}
layer {
  name: "Concat9"
  type: "Concat"
  bottom: "i1"
  bottom: "i19"
  top: "Concat9"
  concat_param {
    axis: 1
  }
}
layer {
  name: "InnerProduct17"
  type: "InnerProduct"
  bottom: "Concat9"
  top: "InnerProduct17"
  param {
    name: "fc1_w"
    lr_mult: 1
  }
  param {
    name: "fc1_b"
    lr_mult: 2
  }
  inner_product_param {
    num_output: 256
    weight_filler {
      type: "xavier"
    }
    bias_filler {
      type: "constant"
    }
  }
}
layer {
  name: "ReLU17"
  type: "ReLU"
  bottom: "InnerProduct17"
  top: "InnerProduct17"
}
layer {
  name: "drop1"
  type: "Dropout"
  bottom: "InnerProduct17"
  top: "Dropout17"
  dropout_param {
    dropout_ratio: 0.5
  }
}
layer {
  name: "InnerProduct18"
  type: "InnerProduct"
  bottom: "Dropout17"
  top: "InnerProduct18"
  param {
    name: "fc2_w"
    lr_mult: 1
  }
  param {
    name: "fc2_b"
    lr_mult: 2
  }
  inner_product_param {
    num_output: 128
    weight_filler {
      type: "xavier"
    }
    bias_filler {
      type: "constant"
    }
  }
}
layer {
  name: "ReLU18"
  type: "ReLU"
  bottom: "InnerProduct18"
  top: "InnerProduct18"
}
layer {
  name: "drop2"
  type: "Dropout"
  bottom: "InnerProduct18"
  top: "Dropout18"
  dropout_param {
    dropout_ratio: 0.5
  }
}
layer {
  name: "m9"
  type: "InnerProduct"
  bottom: "Dropout18"
  top: "m9"
  param {
    name: "fc3_w"
    lr_mult: 1
  }
  param {
    name: "fc3_b"
    lr_mult: 2
  }
  inner_product_param {
    num_output: 1
    weight_filler {
      type: "xavier"
    }
    bias_filler {
      type: "constant"
    }
  }
}
layer {
  name: "Concat10"
  type: "Concat"
  bottom: "i1"
  bottom: "i20"
  top: "Concat10"
  concat_param {
    axis: 1
  }
}
layer {
  name: "InnerProduct19"
  type: "InnerProduct"
  bottom: "Concat10"
  top: "InnerProduct19"
  param {
    name: "fc1_w"
    lr_mult: 1
  }
  param {
    name: "fc1_b"
    lr_mult: 2
  }
  inner_product_param {
    num_output: 256
    weight_filler {
      type: "xavier"
    }
    bias_filler {
      type: "constant"
    }
  }
}
layer {
  name: "ReLU19"
  type: "ReLU"
  bottom: "InnerProduct19"
  top: "InnerProduct19"
}
layer {
  name: "drop1"
  type: "Dropout"
  bottom: "InnerProduct19"
  top: "Dropout19"
  dropout_param {
    dropout_ratio: 0.5
  }
}
layer {
  name: "InnerProduct20"
  type: "InnerProduct"
  bottom: "Dropout19"
  top: "InnerProduct20"
  param {
    name: "fc2_w"
    lr_mult: 1
  }
  param {
    name: "fc2_b"
    lr_mult: 2
  }
  inner_product_param {
    num_output: 128
    weight_filler {
      type: "xavier"
    }
    bias_filler {
      type: "constant"
    }
  }
}
layer {
  name: "ReLU20"
  type: "ReLU"
  bottom: "InnerProduct20"
  top: "InnerProduct20"
}
layer {
  name: "drop2"
  type: "Dropout"
  bottom: "InnerProduct20"
  top: "Dropout20"
  dropout_param {
    dropout_ratio: 0.5
  }
}
layer {
  name: "m10"
  type: "InnerProduct"
  bottom: "Dropout20"
  top: "m10"
  param {
    name: "fc3_w"
    lr_mult: 1
  }
  param {
    name: "fc3_b"
    lr_mult: 2
  }
  inner_product_param {
    num_output: 1
    weight_filler {
      type: "xavier"
    }
    bias_filler {
      type: "constant"
    }
  }
}
layer {
  name: "Concat11"
  type: "Concat"
  bottom: "i2"
  bottom: "i11"
  top: "Concat11"
  concat_param {
    axis: 1
  }
}
layer {
  name: "InnerProduct21"
  type: "InnerProduct"
  bottom: "Concat11"
  top: "InnerProduct21"
  param {
    name: "fc1_w"
    lr_mult: 1
  }
  param {
    name: "fc1_b"
    lr_mult: 2
  }
  inner_product_param {
    num_output: 256
    weight_filler {
      type: "xavier"
    }
    bias_filler {
      type: "constant"
    }
  }
}
layer {
  name: "ReLU21"
  type: "ReLU"
  bottom: "InnerProduct21"
  top: "InnerProduct21"
}
layer {
  name: "drop1"
  type: "Dropout"
  bottom: "InnerProduct21"
  top: "Dropout21"
  dropout_param {
    dropout_ratio: 0.5
  }
}
layer {
  name: "InnerProduct22"
  type: "InnerProduct"
  bottom: "Dropout21"
  top: "InnerProduct22"
  param {
    name: "fc2_w"
    lr_mult: 1
  }
  param {
    name: "fc2_b"
    lr_mult: 2
  }
  inner_product_param {
    num_output: 128
    weight_filler {
      type: "xavier"
    }
    bias_filler {
      type: "constant"
    }
  }
}
layer {
  name: "ReLU22"
  type: "ReLU"
  bottom: "InnerProduct22"
  top: "InnerProduct22"
}
layer {
  name: "drop2"
  type: "Dropout"
  bottom: "InnerProduct22"
  top: "Dropout22"
  dropout_param {
    dropout_ratio: 0.5
  }
}
layer {
  name: "m11"
  type: "InnerProduct"
  bottom: "Dropout22"
  top: "m11"
  param {
    name: "fc3_w"
    lr_mult: 1
  }
  param {
    name: "fc3_b"
    lr_mult: 2
  }
  inner_product_param {
    num_output: 1
    weight_filler {
      type: "xavier"
    }
    bias_filler {
      type: "constant"
    }
  }
}
layer {
  name: "Concat12"
  type: "Concat"
  bottom: "i3"
  bottom: "i11"
  top: "Concat12"
  concat_param {
    axis: 1
  }
}
layer {
  name: "InnerProduct23"
  type: "InnerProduct"
  bottom: "Concat12"
  top: "InnerProduct23"
  param {
    name: "fc1_w"
    lr_mult: 1
  }
  param {
    name: "fc1_b"
    lr_mult: 2
  }
  inner_product_param {
    num_output: 256
    weight_filler {
      type: "xavier"
    }
    bias_filler {
      type: "constant"
    }
  }
}
layer {
  name: "ReLU23"
  type: "ReLU"
  bottom: "InnerProduct23"
  top: "InnerProduct23"
}
layer {
  name: "drop1"
  type: "Dropout"
  bottom: "InnerProduct23"
  top: "Dropout23"
  dropout_param {
    dropout_ratio: 0.5
  }
}
layer {
  name: "InnerProduct24"
  type: "InnerProduct"
  bottom: "Dropout23"
  top: "InnerProduct24"
  param {
    name: "fc2_w"
    lr_mult: 1
  }
  param {
    name: "fc2_b"
    lr_mult: 2
  }
  inner_product_param {
    num_output: 128
    weight_filler {
      type: "xavier"
    }
    bias_filler {
      type: "constant"
    }
  }
}
layer {
  name: "ReLU24"
  type: "ReLU"
  bottom: "InnerProduct24"
  top: "InnerProduct24"
}
layer {
  name: "drop2"
  type: "Dropout"
  bottom: "InnerProduct24"
  top: "Dropout24"
  dropout_param {
    dropout_ratio: 0.5
  }
}
layer {
  name: "m12"
  type: "InnerProduct"
  bottom: "Dropout24"
  top: "m12"
  param {
    name: "fc3_w"
    lr_mult: 1
  }
  param {
    name: "fc3_b"
    lr_mult: 2
  }
  inner_product_param {
    num_output: 1
    weight_filler {
      type: "xavier"
    }
    bias_filler {
      type: "constant"
    }
  }
}
layer {
  name: "Concat13"
  type: "Concat"
  bottom: "i4"
  bottom: "i11"
  top: "Concat13"
  concat_param {
    axis: 1
  }
}
layer {
  name: "InnerProduct25"
  type: "InnerProduct"
  bottom: "Concat13"
  top: "InnerProduct25"
  param {
    name: "fc1_w"
    lr_mult: 1
  }
  param {
    name: "fc1_b"
    lr_mult: 2
  }
  inner_product_param {
    num_output: 256
    weight_filler {
      type: "xavier"
    }
    bias_filler {
      type: "constant"
    }
  }
}
layer {
  name: "ReLU25"
  type: "ReLU"
  bottom: "InnerProduct25"
  top: "InnerProduct25"
}
layer {
  name: "drop1"
  type: "Dropout"
  bottom: "InnerProduct25"
  top: "Dropout25"
  dropout_param {
    dropout_ratio: 0.5
  }
}
layer {
  name: "InnerProduct26"
  type: "InnerProduct"
  bottom: "Dropout25"
  top: "InnerProduct26"
  param {
    name: "fc2_w"
    lr_mult: 1
  }
  param {
    name: "fc2_b"
    lr_mult: 2
  }
  inner_product_param {
    num_output: 128
    weight_filler {
      type: "xavier"
    }
    bias_filler {
      type: "constant"
    }
  }
}
layer {
  name: "ReLU26"
  type: "ReLU"
  bottom: "InnerProduct26"
  top: "InnerProduct26"
}
layer {
  name: "drop2"
  type: "Dropout"
  bottom: "InnerProduct26"
  top: "Dropout26"
  dropout_param {
    dropout_ratio: 0.5
  }
}
layer {
  name: "m13"
  type: "InnerProduct"
  bottom: "Dropout26"
  top: "m13"
  param {
    name: "fc3_w"
    lr_mult: 1
  }
  param {
    name: "fc3_b"
    lr_mult: 2
  }
  inner_product_param {
    num_output: 1
    weight_filler {
      type: "xavier"
    }
    bias_filler {
      type: "constant"
    }
  }
}
layer {
  name: "Concat14"
  type: "Concat"
  bottom: "i5"
  bottom: "i11"
  top: "Concat14"
  concat_param {
    axis: 1
  }
}
layer {
  name: "InnerProduct27"
  type: "InnerProduct"
  bottom: "Concat14"
  top: "InnerProduct27"
  param {
    name: "fc1_w"
    lr_mult: 1
  }
  param {
    name: "fc1_b"
    lr_mult: 2
  }
  inner_product_param {
    num_output: 256
    weight_filler {
      type: "xavier"
    }
    bias_filler {
      type: "constant"
    }
  }
}
layer {
  name: "ReLU27"
  type: "ReLU"
  bottom: "InnerProduct27"
  top: "InnerProduct27"
}
layer {
  name: "drop1"
  type: "Dropout"
  bottom: "InnerProduct27"
  top: "Dropout27"
  dropout_param {
    dropout_ratio: 0.5
  }
}
layer {
  name: "InnerProduct28"
  type: "InnerProduct"
  bottom: "Dropout27"
  top: "InnerProduct28"
  param {
    name: "fc2_w"
    lr_mult: 1
  }
  param {
    name: "fc2_b"
    lr_mult: 2
  }
  inner_product_param {
    num_output: 128
    weight_filler {
      type: "xavier"
    }
    bias_filler {
      type: "constant"
    }
  }
}
layer {
  name: "ReLU28"
  type: "ReLU"
  bottom: "InnerProduct28"
  top: "InnerProduct28"
}
layer {
  name: "drop2"
  type: "Dropout"
  bottom: "InnerProduct28"
  top: "Dropout28"
  dropout_param {
    dropout_ratio: 0.5
  }
}
layer {
  name: "m14"
  type: "InnerProduct"
  bottom: "Dropout28"
  top: "m14"
  param {
    name: "fc3_w"
    lr_mult: 1
  }
  param {
    name: "fc3_b"
    lr_mult: 2
  }
  inner_product_param {
    num_output: 1
    weight_filler {
      type: "xavier"
    }
    bias_filler {
      type: "constant"
    }
  }
}
layer {
  name: "Concat15"
  type: "Concat"
  bottom: "i6"
  bottom: "i11"
  top: "Concat15"
  concat_param {
    axis: 1
  }
}
layer {
  name: "InnerProduct29"
  type: "InnerProduct"
  bottom: "Concat15"
  top: "InnerProduct29"
  param {
    name: "fc1_w"
    lr_mult: 1
  }
  param {
    name: "fc1_b"
    lr_mult: 2
  }
  inner_product_param {
    num_output: 256
    weight_filler {
      type: "xavier"
    }
    bias_filler {
      type: "constant"
    }
  }
}
layer {
  name: "ReLU29"
  type: "ReLU"
  bottom: "InnerProduct29"
  top: "InnerProduct29"
}
layer {
  name: "drop1"
  type: "Dropout"
  bottom: "InnerProduct29"
  top: "Dropout29"
  dropout_param {
    dropout_ratio: 0.5
  }
}
layer {
  name: "InnerProduct30"
  type: "InnerProduct"
  bottom: "Dropout29"
  top: "InnerProduct30"
  param {
    name: "fc2_w"
    lr_mult: 1
  }
  param {
    name: "fc2_b"
    lr_mult: 2
  }
  inner_product_param {
    num_output: 128
    weight_filler {
      type: "xavier"
    }
    bias_filler {
      type: "constant"
    }
  }
}
layer {
  name: "ReLU30"
  type: "ReLU"
  bottom: "InnerProduct30"
  top: "InnerProduct30"
}
layer {
  name: "drop2"
  type: "Dropout"
  bottom: "InnerProduct30"
  top: "Dropout30"
  dropout_param {
    dropout_ratio: 0.5
  }
}
layer {
  name: "m15"
  type: "InnerProduct"
  bottom: "Dropout30"
  top: "m15"
  param {
    name: "fc3_w"
    lr_mult: 1
  }
  param {
    name: "fc3_b"
    lr_mult: 2
  }
  inner_product_param {
    num_output: 1
    weight_filler {
      type: "xavier"
    }
    bias_filler {
      type: "constant"
    }
  }
}
layer {
  name: "Concat16"
  type: "Concat"
  bottom: "i7"
  bottom: "i11"
  top: "Concat16"
  concat_param {
    axis: 1
  }
}
layer {
  name: "InnerProduct31"
  type: "InnerProduct"
  bottom: "Concat16"
  top: "InnerProduct31"
  param {
    name: "fc1_w"
    lr_mult: 1
  }
  param {
    name: "fc1_b"
    lr_mult: 2
  }
  inner_product_param {
    num_output: 256
    weight_filler {
      type: "xavier"
    }
    bias_filler {
      type: "constant"
    }
  }
}
layer {
  name: "ReLU31"
  type: "ReLU"
  bottom: "InnerProduct31"
  top: "InnerProduct31"
}
layer {
  name: "drop1"
  type: "Dropout"
  bottom: "InnerProduct31"
  top: "Dropout31"
  dropout_param {
    dropout_ratio: 0.5
  }
}
layer {
  name: "InnerProduct32"
  type: "InnerProduct"
  bottom: "Dropout31"
  top: "InnerProduct32"
  param {
    name: "fc2_w"
    lr_mult: 1
  }
  param {
    name: "fc2_b"
    lr_mult: 2
  }
  inner_product_param {
    num_output: 128
    weight_filler {
      type: "xavier"
    }
    bias_filler {
      type: "constant"
    }
  }
}
layer {
  name: "ReLU32"
  type: "ReLU"
  bottom: "InnerProduct32"
  top: "InnerProduct32"
}
layer {
  name: "drop2"
  type: "Dropout"
  bottom: "InnerProduct32"
  top: "Dropout32"
  dropout_param {
    dropout_ratio: 0.5
  }
}
layer {
  name: "m16"
  type: "InnerProduct"
  bottom: "Dropout32"
  top: "m16"
  param {
    name: "fc3_w"
    lr_mult: 1
  }
  param {
    name: "fc3_b"
    lr_mult: 2
  }
  inner_product_param {
    num_output: 1
    weight_filler {
      type: "xavier"
    }
    bias_filler {
      type: "constant"
    }
  }
}
layer {
  name: "Concat17"
  type: "Concat"
  bottom: "i8"
  bottom: "i11"
  top: "Concat17"
  concat_param {
    axis: 1
  }
}
layer {
  name: "InnerProduct33"
  type: "InnerProduct"
  bottom: "Concat17"
  top: "InnerProduct33"
  param {
    name: "fc1_w"
    lr_mult: 1
  }
  param {
    name: "fc1_b"
    lr_mult: 2
  }
  inner_product_param {
    num_output: 256
    weight_filler {
      type: "xavier"
    }
    bias_filler {
      type: "constant"
    }
  }
}
layer {
  name: "ReLU33"
  type: "ReLU"
  bottom: "InnerProduct33"
  top: "InnerProduct33"
}
layer {
  name: "drop1"
  type: "Dropout"
  bottom: "InnerProduct33"
  top: "Dropout33"
  dropout_param {
    dropout_ratio: 0.5
  }
}
layer {
  name: "InnerProduct34"
  type: "InnerProduct"
  bottom: "Dropout33"
  top: "InnerProduct34"
  param {
    name: "fc2_w"
    lr_mult: 1
  }
  param {
    name: "fc2_b"
    lr_mult: 2
  }
  inner_product_param {
    num_output: 128
    weight_filler {
      type: "xavier"
    }
    bias_filler {
      type: "constant"
    }
  }
}
layer {
  name: "ReLU34"
  type: "ReLU"
  bottom: "InnerProduct34"
  top: "InnerProduct34"
}
layer {
  name: "drop2"
  type: "Dropout"
  bottom: "InnerProduct34"
  top: "Dropout34"
  dropout_param {
    dropout_ratio: 0.5
  }
}
layer {
  name: "m17"
  type: "InnerProduct"
  bottom: "Dropout34"
  top: "m17"
  param {
    name: "fc3_w"
    lr_mult: 1
  }
  param {
    name: "fc3_b"
    lr_mult: 2
  }
  inner_product_param {
    num_output: 1
    weight_filler {
      type: "xavier"
    }
    bias_filler {
      type: "constant"
    }
  }
}
layer {
  name: "Concat18"
  type: "Concat"
  bottom: "i9"
  bottom: "i11"
  top: "Concat18"
  concat_param {
    axis: 1
  }
}
layer {
  name: "InnerProduct35"
  type: "InnerProduct"
  bottom: "Concat18"
  top: "InnerProduct35"
  param {
    name: "fc1_w"
    lr_mult: 1
  }
  param {
    name: "fc1_b"
    lr_mult: 2
  }
  inner_product_param {
    num_output: 256
    weight_filler {
      type: "xavier"
    }
    bias_filler {
      type: "constant"
    }
  }
}
layer {
  name: "ReLU35"
  type: "ReLU"
  bottom: "InnerProduct35"
  top: "InnerProduct35"
}
layer {
  name: "drop1"
  type: "Dropout"
  bottom: "InnerProduct35"
  top: "Dropout35"
  dropout_param {
    dropout_ratio: 0.5
  }
}
layer {
  name: "InnerProduct36"
  type: "InnerProduct"
  bottom: "Dropout35"
  top: "InnerProduct36"
  param {
    name: "fc2_w"
    lr_mult: 1
  }
  param {
    name: "fc2_b"
    lr_mult: 2
  }
  inner_product_param {
    num_output: 128
    weight_filler {
      type: "xavier"
    }
    bias_filler {
      type: "constant"
    }
  }
}
layer {
  name: "ReLU36"
  type: "ReLU"
  bottom: "InnerProduct36"
  top: "InnerProduct36"
}
layer {
  name: "drop2"
  type: "Dropout"
  bottom: "InnerProduct36"
  top: "Dropout36"
  dropout_param {
    dropout_ratio: 0.5
  }
}
layer {
  name: "m18"
  type: "InnerProduct"
  bottom: "Dropout36"
  top: "m18"
  param {
    name: "fc3_w"
    lr_mult: 1
  }
  param {
    name: "fc3_b"
    lr_mult: 2
  }
  inner_product_param {
    num_output: 1
    weight_filler {
      type: "xavier"
    }
    bias_filler {
      type: "constant"
    }
  }
}
layer {
  name: "Concat19"
  type: "Concat"
  bottom: "i10"
  bottom: "i11"
  top: "Concat19"
  concat_param {
    axis: 1
  }
}
layer {
  name: "InnerProduct37"
  type: "InnerProduct"
  bottom: "Concat19"
  top: "InnerProduct37"
  param {
    name: "fc1_w"
    lr_mult: 1
  }
  param {
    name: "fc1_b"
    lr_mult: 2
  }
  inner_product_param {
    num_output: 256
    weight_filler {
      type: "xavier"
    }
    bias_filler {
      type: "constant"
    }
  }
}
layer {
  name: "ReLU3
I0813 08:28:00.798604 18283 layer_factory.hpp:77] Creating layer data
I0813 08:28:00.799871 18283 net.cpp:91] Creating Layer data
I0813 08:28:00.799950 18283 net.cpp:399] data -> data
I0813 08:28:00.800040 18283 net.cpp:399] data -> label
I0813 08:28:00.800103 18287 db_lmdb.cpp:35] Opened lmdb /home/shaogang/Datasets/FeatsDB/featsTrain20k
I0813 08:28:00.801668 18283 data_layer.cpp:41] output data size: 100,1,20,4096
I0813 08:28:00.853773 18283 net.cpp:141] Setting up data
I0813 08:28:00.853842 18283 net.cpp:148] Top shape: 100 1 20 4096 (8192000)
I0813 08:28:00.853859 18283 net.cpp:148] Top shape: 100 (100)
I0813 08:28:00.853870 18283 net.cpp:156] Memory required for data: 32768400
I0813 08:28:00.853895 18283 layer_factory.hpp:77] Creating layer label_data_1_split
I0813 08:28:00.853965 18283 net.cpp:91] Creating Layer label_data_1_split
I0813 08:28:00.853984 18283 net.cpp:425] label_data_1_split <- label
I0813 08:28:00.854013 18283 net.cpp:399] label_data_1_split -> label_data_1_split_0
I0813 08:28:00.854051 18283 net.cpp:399] label_data_1_split -> label_data_1_split_1
I0813 08:28:00.854092 18283 net.cpp:141] Setting up label_data_1_split
I0813 08:28:00.854110 18283 net.cpp:148] Top shape: 100 (100)
I0813 08:28:00.854125 18283 net.cpp:148] Top shape: 100 (100)
I0813 08:28:00.854135 18283 net.cpp:156] Memory required for data: 32769200
I0813 08:28:00.854146 18283 layer_factory.hpp:77] Creating layer th
I0813 08:28:00.854171 18283 net.cpp:91] Creating Layer th
I0813 08:28:00.854184 18283 net.cpp:425] th <- label_data_1_split_0
I0813 08:28:00.854203 18283 net.cpp:399] th -> th
I0813 08:28:00.854238 18283 net.cpp:141] Setting up th
I0813 08:28:00.854256 18283 net.cpp:148] Top shape: 100 (100)
I0813 08:28:00.854267 18283 net.cpp:156] Memory required for data: 32769600
I0813 08:28:00.854279 18283 layer_factory.hpp:77] Creating layer th_th_0_split
I0813 08:28:00.854297 18283 net.cpp:91] Creating Layer th_th_0_split
I0813 08:28:00.854310 18283 net.cpp:425] th_th_0_split <- th
I0813 08:28:00.854327 18283 net.cpp:399] th_th_0_split -> th_th_0_split_0
I0813 08:28:00.854347 18283 net.cpp:399] th_th_0_split -> th_th_0_split_1
I0813 08:28:00.854370 18283 net.cpp:141] Setting up th_th_0_split
I0813 08:28:00.854388 18283 net.cpp:148] Top shape: 100 (100)
I0813 08:28:00.854434 18283 net.cpp:148] Top shape: 100 (100)
I0813 08:28:00.854444 18283 net.cpp:156] Memory required for data: 32770400
I0813 08:28:00.854455 18283 layer_factory.hpp:77] Creating layer i1
I0813 08:28:00.854488 18283 net.cpp:91] Creating Layer i1
I0813 08:28:00.854501 18283 net.cpp:425] i1 <- data
I0813 08:28:00.854522 18283 net.cpp:399] i1 -> i1
I0813 08:28:00.854559 18283 net.cpp:399] i1 -> i2
I0813 08:28:00.854598 18283 net.cpp:399] i1 -> i3
I0813 08:28:00.854624 18283 net.cpp:399] i1 -> i4
I0813 08:28:00.854650 18283 net.cpp:399] i1 -> i5
I0813 08:28:00.854677 18283 net.cpp:399] i1 -> i6
I0813 08:28:00.854704 18283 net.cpp:399] i1 -> i7
I0813 08:28:00.854729 18283 net.cpp:399] i1 -> i8
I0813 08:28:00.854753 18283 net.cpp:399] i1 -> i9
I0813 08:28:00.854791 18283 net.cpp:399] i1 -> i10
I0813 08:28:00.854820 18283 net.cpp:399] i1 -> i11
I0813 08:28:00.854846 18283 net.cpp:399] i1 -> i12
I0813 08:28:00.854872 18283 net.cpp:399] i1 -> i13
I0813 08:28:00.854898 18283 net.cpp:399] i1 -> i14
I0813 08:28:00.854924 18283 net.cpp:399] i1 -> i15
I0813 08:28:00.854954 18283 net.cpp:399] i1 -> i16
I0813 08:28:00.854981 18283 net.cpp:399] i1 -> i17
I0813 08:28:00.855012 18283 net.cpp:399] i1 -> i18
I0813 08:28:00.855036 18283 net.cpp:399] i1 -> i19
I0813 08:28:00.855063 18283 net.cpp:399] i1 -> i20
I0813 08:28:00.855118 18283 net.cpp:141] Setting up i1
I0813 08:28:00.855134 18283 net.cpp:148] Top shape: 100 1 1 4096 (409600)
I0813 08:28:00.855149 18283 net.cpp:148] Top shape: 100 1 1 4096 (409600)
I0813 08:28:00.855162 18283 net.cpp:148] Top shape: 100 1 1 4096 (409600)
I0813 08:28:00.855175 18283 net.cpp:148] Top shape: 100 1 1 4096 (409600)
I0813 08:28:00.855192 18283 net.cpp:148] Top shape: 100 1 1 4096 (409600)
I0813 08:28:00.855211 18283 net.cpp:148] Top shape: 100 1 1 4096 (409600)
I0813 08:28:00.855226 18283 net.cpp:148] Top shape: 100 1 1 4096 (409600)
I0813 08:28:00.855239 18283 net.cpp:148] Top shape: 100 1 1 4096 (409600)
I0813 08:28:00.855252 18283 net.cpp:148] Top shape: 100 1 1 4096 (409600)
I0813 08:28:00.855264 18283 net.cpp:148] Top shape: 100 1 1 4096 (409600)
I0813 08:28:00.855278 18283 net.cpp:148] Top shape: 100 1 1 4096 (409600)
I0813 08:28:00.855295 18283 net.cpp:148] Top shape: 100 1 1 4096 (409600)
I0813 08:28:00.855309 18283 net.cpp:148] Top shape: 100 1 1 4096 (409600)
I0813 08:28:00.855322 18283 net.cpp:148] Top shape: 100 1 1 4096 (409600)
I0813 08:28:00.855335 18283 net.cpp:148] Top shape: 100 1 1 4096 (409600)
I0813 08:28:00.855348 18283 net.cpp:148] Top shape: 100 1 1 4096 (409600)
I0813 08:28:00.855360 18283 net.cpp:148] Top shape: 100 1 1 4096 (409600)
I0813 08:28:00.855373 18283 net.cpp:148] Top shape: 100 1 1 4096 (409600)
I0813 08:28:00.855474 18283 net.cpp:148] Top shape: 100 1 1 4096 (409600)
I0813 08:28:00.855487 18283 net.cpp:148] Top shape: 100 1 1 4096 (409600)
I0813 08:28:00.855499 18283 net.cpp:156] Memory required for data: 65538400
I0813 08:28:00.855509 18283 layer_factory.hpp:77] Creating layer i1_i1_0_split
I0813 08:28:00.855530 18283 net.cpp:91] Creating Layer i1_i1_0_split
I0813 08:28:00.855543 18283 net.cpp:425] i1_i1_0_split <- i1
I0813 08:28:00.855564 18283 net.cpp:399] i1_i1_0_split -> i1_i1_0_split_0
I0813 08:28:00.855589 18283 net.cpp:399] i1_i1_0_split -> i1_i1_0_split_1
I0813 08:28:00.855618 18283 net.cpp:399] i1_i1_0_split -> i1_i1_0_split_2
I0813 08:28:00.855641 18283 net.cpp:399] i1_i1_0_split -> i1_i1_0_split_3
I0813 08:28:00.855664 18283 net.cpp:399] i1_i1_0_split -> i1_i1_0_split_4
I0813 08:28:00.855687 18283 net.cpp:399] i1_i1_0_split -> i1_i1_0_split_5
I0813 08:28:00.855716 18283 net.cpp:399] i1_i1_0_split -> i1_i1_0_split_6
I0813 08:28:00.855737 18283 net.cpp:399] i1_i1_0_split -> i1_i1_0_split_7
I0813 08:28:00.855759 18283 net.cpp:399] i1_i1_0_split -> i1_i1_0_split_8
I0813 08:28:00.855782 18283 net.cpp:399] i1_i1_0_split -> i1_i1_0_split_9
I0813 08:28:00.855823 18283 net.cpp:141] Setting up i1_i1_0_split
I0813 08:28:00.855837 18283 net.cpp:148] Top shape: 100 1 1 4096 (409600)
I0813 08:28:00.855851 18283 net.cpp:148] Top shape: 100 1 1 4096 (409600)
I0813 08:28:00.855885 18283 net.cpp:148] Top shape: 100 1 1 4096 (409600)
I0813 08:28:00.855898 18283 net.cpp:148] Top shape: 100 1 1 4096 (409600)
I0813 08:28:00.855911 18283 net.cpp:148] Top shape: 100 1 1 4096 (409600)
I0813 08:28:00.855927 18283 net.cpp:148] Top shape: 100 1 1 4096 (409600)
I0813 08:28:00.855942 18283 net.cpp:148] Top shape: 100 1 1 4096 (409600)
I0813 08:28:00.855955 18283 net.cpp:148] Top shape: 100 1 1 4096 (409600)
I0813 08:28:00.855968 18283 net.cpp:148] Top shape: 100 1 1 4096 (409600)
I0813 08:28:00.855981 18283 net.cpp:148] Top shape: 100 1 1 4096 (409600)
I0813 08:28:00.855990 18283 net.cpp:156] Memory required for data: 81922400
I0813 08:28:00.856003 18283 layer_factory.hpp:77] Creating layer i11_i1_10_split
I0813 08:28:00.856022 18283 net.cpp:91] Creating Layer i11_i1_10_split
I0813 08:28:00.856070 18283 net.cpp:425] i11_i1_10_split <- i11
I0813 08:28:00.856091 18283 net.cpp:399] i11_i1_10_split -> i11_i1_10_split_0
I0813 08:28:00.856117 18283 net.cpp:399] i11_i1_10_split -> i11_i1_10_split_1
I0813 08:28:00.856143 18283 net.cpp:399] i11_i1_10_split -> i11_i1_10_split_2
I0813 08:28:00.856165 18283 net.cpp:399] i11_i1_10_split -> i11_i1_10_split_3
I0813 08:28:00.856187 18283 net.cpp:399] i11_i1_10_split -> i11_i1_10_split_4
I0813 08:28:00.856220 18283 net.cpp:399] i11_i1_10_split -> i11_i1_10_split_5
I0813 08:28:00.856245 18283 net.cpp:399] i11_i1_10_split -> i11_i1_10_split_6
I0813 08:28:00.856268 18283 net.cpp:399] i11_i1_10_split -> i11_i1_10_split_7
I0813 08:28:00.856290 18283 net.cpp:399] i11_i1_10_split -> i11_i1_10_split_8
I0813 08:28:00.856312 18283 net.cpp:399] i11_i1_10_split -> i11_i1_10_split_9
I0813 08:28:00.856344 18283 net.cpp:141] Setting up i11_i1_10_split
I0813 08:28:00.856359 18283 net.cpp:148] Top shape: 100 1 1 4096 (409600)
I0813 08:28:00.856377 18283 net.cpp:148] Top shape: 100 1 1 4096 (409600)
I0813 08:28:00.856391 18283 net.cpp:148] Top shape: 100 1 1 4096 (409600)
I0813 08:28:00.856402 18283 net.cpp:148] Top shape: 100 1 1 4096 (409600)
I0813 08:28:00.856415 18283 net.cpp:148] Top shape: 100 1 1 4096 (409600)
I0813 08:28:00.856426 18283 net.cpp:148] Top shape: 100 1 1 4096 (409600)
I0813 08:28:00.856438 18283 net.cpp:148] Top shape: 100 1 1 4096 (409600)
I0813 08:28:00.856451 18283 net.cpp:148] Top shape: 100 1 1 4096 (409600)
I0813 08:28:00.856465 18283 net.cpp:148] Top shape: 100 1 1 4096 (409600)
I0813 08:28:00.856477 18283 net.cpp:148] Top shape: 100 1 1 4096 (409600)
I0813 08:28:00.856492 18283 net.cpp:156] Memory required for data: 98306400
I0813 08:28:00.856503 18283 layer_factory.hpp:77] Creating layer Concat1
I0813 08:28:00.856523 18283 net.cpp:91] Creating Layer Concat1
I0813 08:28:00.856535 18283 net.cpp:425] Concat1 <- i1_i1_0_split_0
I0813 08:28:00.856549 18283 net.cpp:425] Concat1 <- i11_i1_10_split_0
I0813 08:28:00.856566 18283 net.cpp:399] Concat1 -> Concat1
I0813 08:28:00.856595 18283 net.cpp:141] Setting up Concat1
I0813 08:28:00.856613 18283 net.cpp:148] Top shape: 100 2 1 4096 (819200)
I0813 08:28:00.856624 18283 net.cpp:156] Memory required for data: 101583200
I0813 08:28:00.856634 18283 layer_factory.hpp:77] Creating layer InnerProduct1
I0813 08:28:00.856663 18283 net.cpp:91] Creating Layer InnerProduct1
I0813 08:28:00.856674 18283 net.cpp:425] InnerProduct1 <- Concat1
I0813 08:28:00.856693 18283 net.cpp:399] InnerProduct1 -> InnerProduct1
I0813 08:28:00.875891 18288 blocking_queue.cpp:50] Waiting for data
I0813 08:28:00.882659 18283 net.cpp:141] Setting up InnerProduct1
I0813 08:28:00.882707 18283 net.cpp:148] Top shape: 100 256 (25600)
I0813 08:28:00.882717 18283 net.cpp:156] Memory required for data: 101685600
I0813 08:28:00.882755 18283 layer_factory.hpp:77] Creating layer ReLU1
I0813 08:28:00.882796 18283 net.cpp:91] Creating Layer ReLU1
I0813 08:28:00.882810 18283 net.cpp:425] ReLU1 <- InnerProduct1
I0813 08:28:00.882830 18283 net.cpp:386] ReLU1 -> InnerProduct1 (in-place)
I0813 08:28:00.882856 18283 net.cpp:141] Setting up ReLU1
I0813 08:28:00.882870 18283 net.cpp:148] Top shape: 100 256 (25600)
I0813 08:28:00.882910 18283 net.cpp:156] Memory required for data: 101788000
I0813 08:28:00.882921 18283 layer_factory.hpp:77] Creating layer drop1
I0813 08:28:00.882954 18283 net.cpp:91] Creating Layer drop1
I0813 08:28:00.882967 18283 net.cpp:425] drop1 <- InnerProduct1
I0813 08:28:00.882982 18283 net.cpp:399] drop1 -> Dropout1
I0813 08:28:00.883009 18283 net.cpp:141] Setting up drop1
I0813 08:28:00.883023 18283 net.cpp:148] Top shape: 100 256 (25600)
I0813 08:28:00.883031 18283 net.cpp:156] Memory required for data: 101890400
I0813 08:28:00.883041 18283 layer_factory.hpp:77] Creating layer InnerProduct2
I0813 08:28:00.883064 18283 net.cpp:91] Creating Layer InnerProduct2
I0813 08:28:00.883076 18283 net.cpp:425] InnerProduct2 <- Dropout1
I0813 08:28:00.883095 18283 net.cpp:399] InnerProduct2 -> InnerProduct2
I0813 08:28:00.883478 18283 net.cpp:141] Setting up InnerProduct2
I0813 08:28:00.883494 18283 net.cpp:148] Top shape: 100 128 (12800)
I0813 08:28:00.883503 18283 net.cpp:156] Memory required for data: 101941600
I0813 08:28:00.883522 18283 layer_factory.hpp:77] Creating layer ReLU2
I0813 08:28:00.883539 18283 net.cpp:91] Creating Layer ReLU2
I0813 08:28:00.883549 18283 net.cpp:425] ReLU2 <- InnerProduct2
I0813 08:28:00.883565 18283 net.cpp:386] ReLU2 -> InnerProduct2 (in-place)
I0813 08:28:00.883581 18283 net.cpp:141] Setting up ReLU2
I0813 08:28:00.883594 18283 net.cpp:148] Top shape: 100 128 (12800)
I0813 08:28:00.883604 18283 net.cpp:156] Memory required for data: 101992800
I0813 08:28:00.883613 18283 layer_factory.hpp:77] Creating layer drop2
I0813 08:28:00.883630 18283 net.cpp:91] Creating Layer drop2
I0813 08:28:00.883641 18283 net.cpp:425] drop2 <- InnerProduct2
I0813 08:28:00.883654 18283 net.cpp:399] drop2 -> Dropout2
I0813 08:28:00.883673 18283 net.cpp:141] Setting up drop2
I0813 08:28:00.883688 18283 net.cpp:148] Top shape: 100 128 (12800)
I0813 08:28:00.883697 18283 net.cpp:156] Memory required for data: 102044000
I0813 08:28:00.883708 18283 layer_factory.hpp:77] Creating layer m1
I0813 08:28:00.883728 18283 net.cpp:91] Creating Layer m1
I0813 08:28:00.883738 18283 net.cpp:425] m1 <- Dropout2
I0813 08:28:00.883759 18283 net.cpp:399] m1 -> m1
I0813 08:28:00.883793 18283 net.cpp:141] Setting up m1
I0813 08:28:00.883805 18283 net.cpp:148] Top shape: 100 1 (100)
I0813 08:28:00.883816 18283 net.cpp:156] Memory required for data: 102044400
I0813 08:28:00.883832 18283 layer_factory.hpp:77] Creating layer Concat2
I0813 08:28:00.883852 18283 net.cpp:91] Creating Layer Concat2
I0813 08:28:00.883864 18283 net.cpp:425] Concat2 <- i1_i1_0_split_1
I0813 08:28:00.883879 18283 net.cpp:425] Concat2 <- i12
I0813 08:28:00.883898 18283 net.cpp:399] Concat2 -> Concat2
I0813 08:28:00.883920 18283 net.cpp:141] Setting up Concat2
I0813 08:28:00.883934 18283 net.cpp:148] Top shape: 100 2 1 4096 (819200)
I0813 08:28:00.883944 18283 net.cpp:156] Memory required for data: 105321200
I0813 08:28:00.883952 18283 layer_factory.hpp:77] Creating layer InnerProduct3
I0813 08:28:00.883977 18283 net.cpp:91] Creating Layer InnerProduct3
I0813 08:28:00.883988 18283 net.cpp:425] InnerProduct3 <- Concat2
I0813 08:28:00.884006 18283 net.cpp:399] InnerProduct3 -> InnerProduct3
I0813 08:28:00.904278 18283 net.cpp:141] Setting up InnerProduct3
I0813 08:28:00.904322 18283 net.cpp:148] Top shape: 100 256 (25600)
I0813 08:28:00.904330 18283 net.cpp:156] Memory required for data: 105423600
I0813 08:28:00.904345 18283 net.cpp:484] Sharing parameters 'fc1_w' owned by layer 'InnerProduct1', param index 0
I0813 08:28:00.904357 18283 net.cpp:484] Sharing parameters 'fc1_b' owned by layer 'InnerProduct1', param index 1
I0813 08:28:00.904366 18283 layer_factory.hpp:77] Creating layer ReLU3
I0813 08:28:00.904392 18283 net.cpp:91] Creating Layer ReLU3
I0813 08:28:00.904404 18283 net.cpp:425] ReLU3 <- InnerProduct3
I0813 08:28:00.904428 18283 net.cpp:386] ReLU3 -> InnerProduct3 (in-place)
I0813 08:28:00.904451 18283 net.cpp:141] Setting up ReLU3
I0813 08:28:00.904464 18283 net.cpp:148] Top shape: 100 256 (25600)
I0813 08:28:00.904471 18283 net.cpp:156] Memory required for data: 105526000
I0813 08:28:00.904508 18283 layer_factory.hpp:77] Creating layer drop1
I0813 08:28:00.904527 18283 net.cpp:91] Creating Layer drop1
I0813 08:28:00.904538 18283 net.cpp:425] drop1 <- InnerProduct3
I0813 08:28:00.904552 18283 net.cpp:399] drop1 -> Dropout3
I0813 08:28:00.904579 18283 net.cpp:141] Setting up drop1
I0813 08:28:00.904593 18283 net.cpp:148] Top shape: 100 256 (25600)
I0813 08:28:00.904602 18283 net.cpp:156] Memory required for data: 105628400
I0813 08:28:00.904609 18283 layer_factory.hpp:77] Creating layer InnerProduct4
I0813 08:28:00.904631 18283 net.cpp:91] Creating Layer InnerProduct4
I0813 08:28:00.904641 18283 net.cpp:425] InnerProduct4 <- Dropout3
I0813 08:28:00.904657 18283 net.cpp:399] InnerProduct4 -> InnerProduct4
I0813 08:28:00.904968 18283 net.cpp:141] Setting up InnerProduct4
I0813 08:28:00.904981 18283 net.cpp:148] Top shape: 100 128 (12800)
I0813 08:28:00.904989 18283 net.cpp:156] Memory required for data: 105679600
I0813 08:28:00.905006 18283 net.cpp:484] Sharing parameters 'fc2_w' owned by layer 'InnerProduct2', param index 0
I0813 08:28:00.905019 18283 net.cpp:484] Sharing parameters 'fc2_b' owned by layer 'InnerProduct2', param index 1
I0813 08:28:00.905026 18283 layer_factory.hpp:77] Creating layer ReLU4
I0813 08:28:00.905040 18283 net.cpp:91] Creating Layer ReLU4
I0813 08:28:00.905052 18283 net.cpp:425] ReLU4 <- InnerProduct4
I0813 08:28:00.905066 18283 net.cpp:386] ReLU4 -> InnerProduct4 (in-place)
I0813 08:28:00.905079 18283 net.cpp:141] Setting up ReLU4
I0813 08:28:00.905091 18283 net.cpp:148] Top shape: 100 128 (12800)
I0813 08:28:00.905097 18283 net.cpp:156] Memory required for data: 105730800
I0813 08:28:00.905104 18283 layer_factory.hpp:77] Creating layer drop2
I0813 08:28:00.905118 18283 net.cpp:91] Creating Layer drop2
I0813 08:28:00.905127 18283 net.cpp:425] drop2 <- InnerProduct4
I0813 08:28:00.905139 18283 net.cpp:399] drop2 -> Dropout4
I0813 08:28:00.905158 18283 net.cpp:141] Setting up drop2
I0813 08:28:00.905170 18283 net.cpp:148] Top shape: 100 128 (12800)
I0813 08:28:00.905179 18283 net.cpp:156] Memory required for data: 105782000
I0813 08:28:00.905186 18283 layer_factory.hpp:77] Creating layer m2
I0813 08:28:00.905205 18283 net.cpp:91] Creating Layer m2
I0813 08:28:00.905215 18283 net.cpp:425] m2 <- Dropout4
I0813 08:28:00.905230 18283 net.cpp:399] m2 -> m2
I0813 08:28:00.905261 18283 net.cpp:141] Setting up m2
I0813 08:28:00.905275 18283 net.cpp:148] Top shape: 100 1 (100)
I0813 08:28:00.905283 18283 net.cpp:156] Memory required for data: 105782400
I0813 08:28:00.905292 18283 net.cpp:484] Sharing parameters 'fc3_w' owned by layer 'm1', param index 0
I0813 08:28:00.905303 18283 net.cpp:484] Sharing parameters 'fc3_b' owned by layer 'm1', param index 1
I0813 08:28:00.905311 18283 layer_factory.hpp:77] Creating layer Concat3
I0813 08:28:00.905328 18283 net.cpp:91] Creating Layer Concat3
I0813 08:28:00.905340 18283 net.cpp:425] Concat3 <- i1_i1_0_split_2
I0813 08:28:00.905354 18283 net.cpp:425] Concat3 <- i13
I0813 08:28:00.905369 18283 net.cpp:399] Concat3 -> Concat3
I0813 08:28:00.905390 18283 net.cpp:141] Setting up Concat3
I0813 08:28:00.905401 18283 net.cpp:148] Top shape: 100 2 1 4096 (819200)
I0813 08:28:00.905410 18283 net.cpp:156] Memory required for data: 109059200
I0813 08:28:00.905416 18283 layer_factory.hpp:77] Creating layer InnerProduct5
I0813 08:28:00.905434 18283 net.cpp:91] Creating Layer InnerProduct5
I0813 08:28:00.905444 18283 net.cpp:425] InnerProduct5 <- Concat3
I0813 08:28:00.905460 18283 net.cpp:399] InnerProduct5 -> InnerProduct5
I0813 08:28:00.925454 18283 net.cpp:141] Setting up InnerProduct5
I0813 08:28:00.925496 18283 net.cpp:148] Top shape: 100 256 (25600)
I0813 08:28:00.925504 18283 net.cpp:156] Memory required for data: 109161600
I0813 08:28:00.925518 18283 net.cpp:484] Sharing parameters 'fc1_w' owned by layer 'InnerProduct1', param index 0
I0813 08:28:00.925529 18283 net.cpp:484] Sharing parameters 'fc1_b' owned by layer 'InnerProduct1', param index 1
I0813 08:28:00.925536 18283 layer_factory.hpp:77] Creating layer ReLU5
I0813 08:28:00.925596 18283 net.cpp:91] Creating Layer ReLU5
I0813 08:28:00.925613 18283 net.cpp:425] ReLU5 <- InnerProduct5
I0813 08:28:00.925631 18283 net.cpp:386] ReLU5 -> InnerProduct5 (in-place)
I0813 08:28:00.925653 18283 net.cpp:141] Setting up ReLU5
I0813 08:28:00.925667 18283 net.cpp:148] Top shape: 100 256 (25600)
I0813 08:28:00.925673 18283 net.cpp:156] Memory required for data: 109264000
I0813 08:28:00.925681 18283 layer_factory.hpp:77] Creating layer drop1
I0813 08:28:00.925698 18283 net.cpp:91] Creating Layer drop1
I0813 08:28:00.925709 18283 net.cpp:425] drop1 <- InnerProduct5
I0813 08:28:00.925721 18283 net.cpp:399] drop1 -> Dropout5
I0813 08:28:00.925742 18283 net.cpp:141] Setting up drop1
I0813 08:28:00.925755 18283 net.cpp:148] Top shape: 100 256 (25600)
I0813 08:28:00.925761 18283 net.cpp:156] Memory required for data: 109366400
I0813 08:28:00.925770 18283 layer_factory.hpp:77] Creating layer InnerProduct6
I0813 08:28:00.925792 18283 net.cpp:91] Creating Layer InnerProduct6
I0813 08:28:00.925801 18283 net.cpp:425] InnerProduct6 <- Dropout5
I0813 08:28:00.925817 18283 net.cpp:399] InnerProduct6 -> InnerProduct6
I0813 08:28:00.926118 18283 net.cpp:141] Setting up InnerProduct6
I0813 08:28:00.926131 18283 net.cpp:148] Top shape: 100 128 (12800)
I0813 08:28:00.926138 18283 net.cpp:156] Memory required for data: 109417600
I0813 08:28:00.926147 18283 net.cpp:484] Sharing parameters 'fc2_w' owned by layer 'InnerProduct2', param index 0
I0813 08:28:00.926157 18283 net.cpp:484] Sharing parameters 'fc2_b' owned by layer 'InnerProduct2', param index 1
I0813 08:28:00.926165 18283 layer_factory.hpp:77] Creating layer ReLU6
I0813 08:28:00.926177 18283 net.cpp:91] Creating Layer ReLU6
I0813 08:28:00.926187 18283 net.cpp:425] ReLU6 <- InnerProduct6
I0813 08:28:00.926199 18283 net.cpp:386] ReLU6 -> InnerProduct6 (in-place)
I0813 08:28:00.926214 18283 net.cpp:141] Setting up ReLU6
I0813 08:28:00.926224 18283 net.cpp:148] Top shape: 100 128 (12800)
I0813 08:28:00.926231 18283 net.cpp:156] Memory required for data: 109468800
I0813 08:28:00.926239 18283 layer_factory.hpp:77] Creating layer drop2
I0813 08:28:00.926252 18283 net.cpp:91] Creating Layer drop2
I0813 08:28:00.926261 18283 net.cpp:425] drop2 <- InnerProduct6
I0813 08:28:00.926273 18283 net.cpp:399] drop2 -> Dropout6
I0813 08:28:00.926288 18283 net.cpp:141] Setting up drop2
I0813 08:28:00.926301 18283 net.cpp:148] Top shape: 100 128 (12800)
I0813 08:28:00.926307 18283 net.cpp:156] Memory required for data: 109520000
I0813 08:28:00.926316 18283 layer_factory.hpp:77] Creating layer m3
I0813 08:28:00.926333 18283 net.cpp:91] Creating Layer m3
I0813 08:28:00.926343 18283 net.cpp:425] m3 <- Dropout6
I0813 08:28:00.926358 18283 net.cpp:399] m3 -> m3
I0813 08:28:00.926403 18283 net.cpp:141] Setting up m3
I0813 08:28:00.926416 18283 net.cpp:148] Top shape: 100 1 (100)
I0813 08:28:00.926424 18283 net.cpp:156] Memory required for data: 109520400
I0813 08:28:00.926440 18283 net.cpp:484] Sharing parameters 'fc3_w' owned by layer 'm1', param index 0
I0813 08:28:00.926451 18283 net.cpp:484] Sharing parameters 'fc3_b' owned by layer 'm1', param index 1
I0813 08:28:00.926460 18283 layer_factory.hpp:77] Creating layer Concat4
I0813 08:28:00.926476 18283 net.cpp:91] Creating Layer Concat4
I0813 08:28:00.926486 18283 net.cpp:425] Concat4 <- i1_i1_0_split_3
I0813 08:28:00.926498 18283 net.cpp:425] Concat4 <- i14
I0813 08:28:00.926512 18283 net.cpp:399] Concat4 -> Concat4
I0813 08:28:00.926532 18283 net.cpp:141] Setting up Concat4
I0813 08:28:00.926544 18283 net.cpp:148] Top shape: 100 2 1 4096 (819200)
I0813 08:28:00.926551 18283 net.cpp:156] Memory required for data: 112797200
I0813 08:28:00.926558 18283 layer_factory.hpp:77] Creating layer InnerProduct7
I0813 08:28:00.926584 18283 net.cpp:91] Creating Layer InnerProduct7
I0813 08:28:00.926594 18283 net.cpp:425] InnerProduct7 <- Concat4
I0813 08:28:00.926609 18283 net.cpp:399] InnerProduct7 -> InnerProduct7
I0813 08:28:00.945246 18283 net.cpp:141] Setting up InnerProduct7
I0813 08:28:00.945287 18283 net.cpp:148] Top shape: 100 256 (25600)
I0813 08:28:00.945332 18283 net.cpp:156] Memory required for data: 112899600
I0813 08:28:00.945351 18283 net.cpp:484] Sharing parameters 'fc1_w' owned by layer 'InnerProduct1', param index 0
I0813 08:28:00.945366 18283 net.cpp:484] Sharing parameters 'fc1_b' owned by layer 'InnerProduct1', param index 1
I0813 08:28:00.945375 18283 layer_factory.hpp:77] Creating layer ReLU7
I0813 08:28:00.945401 18283 net.cpp:91] Creating Layer ReLU7
I0813 08:28:00.945415 18283 net.cpp:425] ReLU7 <- InnerProduct7
I0813 08:28:00.945430 18283 net.cpp:386] ReLU7 -> InnerProduct7 (in-place)
I0813 08:28:00.945457 18283 net.cpp:141] Setting up ReLU7
I0813 08:28:00.945469 18283 net.cpp:148] Top shape: 100 256 (25600)
I0813 08:28:00.945475 18283 net.cpp:156] Memory required for data: 113002000
I0813 08:28:00.945483 18283 layer_factory.hpp:77] Creating layer drop1
I0813 08:28:00.945499 18283 net.cpp:91] Creating Layer drop1
I0813 08:28:00.945510 18283 net.cpp:425] drop1 <- InnerProduct7
I0813 08:28:00.945529 18283 net.cpp:399] drop1 -> Dropout7
I0813 08:28:00.945550 18283 net.cpp:141] Setting up drop1
I0813 08:28:00.945564 18283 net.cpp:148] Top shape: 100 256 (25600)
I0813 08:28:00.945571 18283 net.cpp:156] Memory required for data: 113104400
I0813 08:28:00.945579 18283 layer_factory.hpp:77] Creating layer InnerProduct8
I0813 08:28:00.945600 18283 net.cpp:91] Creating Layer InnerProduct8
I0813 08:28:00.945611 18283 net.cpp:425] InnerProduct8 <- Dropout7
I0813 08:28:00.945631 18283 net.cpp:399] InnerProduct8 -> InnerProduct8
I0813 08:28:00.945924 18283 net.cpp:141] Setting up InnerProduct8
I0813 08:28:00.945937 18283 net.cpp:148] Top shape: 100 128 (12800)
I0813 08:28:00.945945 18283 net.cpp:156] Memory required for data: 113155600
I0813 08:28:00.945955 18283 net.cpp:484] Sharing parameters 'fc2_w' owned by layer 'InnerProduct2', param index 0
I0813 08:28:00.945965 18283 net.cpp:484] Sharing parameters 'fc2_b' owned by layer 'InnerProduct2', param index 1
I0813 08:28:00.945976 18283 layer_factory.hpp:77] Creating layer ReLU8
I0813 08:28:00.945989 18283 net.cpp:91] Creating Layer ReLU8
I0813 08:28:00.945999 18283 net.cpp:425] ReLU8 <- InnerProduct8
I0813 08:28:00.946010 18283 net.cpp:386] ReLU8 -> InnerProduct8 (in-place)
I0813 08:28:00.946023 18283 net.cpp:141] Setting up ReLU8
I0813 08:28:00.946033 18283 net.cpp:148] Top shape: 100 128 (12800)
I0813 08:28:00.946039 18283 net.cpp:156] Memory required for data: 113206800
I0813 08:28:00.946048 18283 layer_factory.hpp:77] Creating layer drop2
I0813 08:28:00.946059 18283 net.cpp:91] Creating Layer drop2
I0813 08:28:00.946070 18283 net.cpp:425] drop2 <- InnerProduct8
I0813 08:28:00.946081 18283 net.cpp:399] drop2 -> Dropout8
I0813 08:28:00.946097 18283 net.cpp:141] Setting up drop2
I0813 08:28:00.946110 18283 net.cpp:148] Top shape: 100 128 (12800)
I0813 08:28:00.946116 18283 net.cpp:156] Memory required for data: 113258000
I0813 08:28:00.946123 18283 layer_factory.hpp:77] Creating layer m4
I0813 08:28:00.946141 18283 net.cpp:91] Creating Layer m4
I0813 08:28:00.946151 18283 net.cpp:425] m4 <- Dropout8
I0813 08:28:00.946167 18283 net.cpp:399] m4 -> m4
I0813 08:28:00.946269 18283 net.cpp:141] Setting up m4
I0813 08:28:00.946281 18283 net.cpp:148] Top shape: 100 1 (100)
I0813 08:28:00.946288 18283 net.cpp:156] Memory required for data: 113258400
I0813 08:28:00.946297 18283 net.cpp:484] Sharing parameters 'fc3_w' owned by layer 'm1', param index 0
I0813 08:28:00.946307 18283 net.cpp:484] Sharing parameters 'fc3_b' owned by layer 'm1', param index 1
I0813 08:28:00.946316 18283 layer_factory.hpp:77] Creating layer Concat5
I0813 08:28:00.946331 18283 net.cpp:91] Creating Layer Concat5
I0813 08:28:00.946342 18283 net.cpp:425] Concat5 <- i1_i1_0_split_4
I0813 08:28:00.946355 18283 net.cpp:425] Concat5 <- i15
I0813 08:28:00.946369 18283 net.cpp:399] Concat5 -> Concat5
I0813 08:28:00.946388 18283 net.cpp:141] Setting up Concat5
I0813 08:28:00.946400 18283 net.cpp:148] Top shape: 100 2 1 4096 (819200)
I0813 08:28:00.946408 18283 net.cpp:156] Memory required for data: 116535200
I0813 08:28:00.946414 18283 layer_factory.hpp:77] Creating layer InnerProduct9
I0813 08:28:00.946446 18283 net.cpp:91] Creating Layer InnerProduct9
I0813 08:28:00.946457 18283 net.cpp:425] InnerProduct9 <- Concat5
I0813 08:28:00.946471 18283 net.cpp:399] InnerProduct9 -> InnerProduct9
I0813 08:28:00.964457 18283 net.cpp:141] Setting up InnerProduct9
I0813 08:28:00.964496 18283 net.cpp:148] Top shape: 100 256 (25600)
I0813 08:28:00.964504 18283 net.cpp:156] Memory required for data: 116637600
I0813 08:28:00.964517 18283 net.cpp:484] Sharing parameters 'fc1_w' owned by layer 'InnerProduct1', param index 0
I0813 08:28:00.964529 18283 net.cpp:484] Sharing parameters 'fc1_b' owned by layer 'InnerProduct1', param index 1
I0813 08:28:00.964535 18283 layer_factory.hpp:77] Creating layer ReLU9
I0813 08:28:00.964557 18283 net.cpp:91] Creating Layer ReLU9
I0813 08:28:00.964570 18283 net.cpp:425] ReLU9 <- InnerProduct9
I0813 08:28:00.964593 18283 net.cpp:386] ReLU9 -> InnerProduct9 (in-place)
I0813 08:28:00.964615 18283 net.cpp:141] Setting up ReLU9
I0813 08:28:00.964627 18283 net.cpp:148] Top shape: 100 256 (25600)
I0813 08:28:00.964632 18283 net.cpp:156] Memory required for data: 116740000
I0813 08:28:00.964640 18283 layer_factory.hpp:77] Creating layer drop1
I0813 08:28:00.964655 18283 net.cpp:91] Creating Layer drop1
I0813 08:28:00.964665 18283 net.cpp:425] drop1 <- InnerProduct9
I0813 08:28:00.964679 18283 net.cpp:399] drop1 -> Dropout9
I0813 08:28:00.964701 18283 net.cpp:141] Setting up drop1
I0813 08:28:00.964712 18283 net.cpp:148] Top shape: 100 256 (25600)
I0813 08:28:00.964720 18283 net.cpp:156] Memory required for data: 116842400
I0813 08:28:00.964726 18283 layer_factory.hpp:77] Creating layer InnerProduct10
I0813 08:28:00.964746 18283 net.cpp:91] Creating Layer InnerProduct10
I0813 08:28:00.964754 18283 net.cpp:425] InnerProduct10 <- Dropout9
I0813 08:28:00.964768 18283 net.cpp:399] InnerProduct10 -> InnerProduct10
I0813 08:28:00.965028 18283 net.cpp:141] Setting up InnerProduct10
I0813 08:28:00.965039 18283 net.cpp:148] Top shape: 100 128 (12800)
I0813 08:28:00.965045 18283 net.cpp:156] Memory required for data: 116893600
I0813 08:28:00.965054 18283 net.cpp:484] Sharing parameters 'fc2_w' owned by layer 'InnerProduct2', param index 0
I0813 08:28:00.965064 18283 net.cpp:484] Sharing parameters 'fc2_b' owned by layer 'InnerProduct2', param index 1
I0813 08:28:00.965071 18283 layer_factory.hpp:77] Creating layer ReLU10
I0813 08:28:00.965081 18283 net.cpp:91] Creating Layer ReLU10
I0813 08:28:00.965090 18283 net.cpp:425] ReLU10 <- InnerProduct10
I0813 08:28:00.965101 18283 net.cpp:386] ReLU10 -> InnerProduct10 (in-place)
I0813 08:28:00.965113 18283 net.cpp:141] Setting up ReLU10
I0813 08:28:00.965123 18283 net.cpp:148] Top shape: 100 128 (12800)
I0813 08:28:00.965131 18283 net.cpp:156] Memory required for data: 116944800
I0813 08:28:00.965137 18283 layer_factory.hpp:77] Creating layer drop2
I0813 08:28:00.965148 18283 net.cpp:91] Creating Layer drop2
I0813 08:28:00.965157 18283 net.cpp:425] drop2 <- InnerProduct10
I0813 08:28:00.965169 18283 net.cpp:399] drop2 -> Dropout10
I0813 08:28:00.965183 18283 net.cpp:141] Setting up drop2
I0813 08:28:00.965193 18283 net.cpp:148] Top shape: 100 128 (12800)
I0813 08:28:00.965199 18283 net.cpp:156] Memory required for data: 116996000
I0813 08:28:00.965206 18283 layer_factory.hpp:77] Creating layer m5
I0813 08:28:00.965224 18283 net.cpp:91] Creating Layer m5
I0813 08:28:00.965232 18283 net.cpp:425] m5 <- Dropout10
I0813 08:28:00.965245 18283 net.cpp:399] m5 -> m5
I0813 08:28:00.965273 18283 net.cpp:141] Setting up m5
I0813 08:28:00.965283 18283 net.cpp:148] Top shape: 100 1 (100)
I0813 08:28:00.965289 18283 net.cpp:156] Memory required for data: 116996400
I0813 08:28:00.965297 18283 net.cpp:484] Sharing parameters 'fc3_w' owned by layer 'm1', param index 0
I0813 08:28:00.965307 18283 net.cpp:484] Sharing parameters 'fc3_b' owned by layer 'm1', param index 1
I0813 08:28:00.965314 18283 layer_factory.hpp:77] Creating layer Concat6
I0813 08:28:00.965332 18283 net.cpp:91] Creating Layer Concat6
I0813 08:28:00.965340 18283 net.cpp:425] Concat6 <- i1_i1_0_split_5
I0813 08:28:00.965373 18283 net.cpp:425] Concat6 <- i16
I0813 08:28:00.965387 18283 net.cpp:399] Concat6 -> Concat6
I0813 08:28:00.965406 18283 net.cpp:141] Setting up Concat6
I0813 08:28:00.965417 18283 net.cpp:148] Top shape: 100 2 1 4096 (819200)
I0813 08:28:00.965425 18283 net.cpp:156] Memory required for data: 120273200
I0813 08:28:00.965431 18283 layer_factory.hpp:77] Creating layer InnerProduct11
I0813 08:28:00.965445 18283 net.cpp:91] Creating Layer InnerProduct11
I0813 08:28:00.965454 18283 net.cpp:425] InnerProduct11 <- Concat6
I0813 08:28:00.965502 18283 net.cpp:399] InnerProduct11 -> InnerProduct11
I0813 08:28:00.982592 18283 net.cpp:141] Setting up InnerProduct11
I0813 08:28:00.982635 18283 net.cpp:148] Top shape: 100 256 (25600)
I0813 08:28:00.982642 18283 net.cpp:156] Memory required for data: 120375600
I0813 08:28:00.982655 18283 net.cpp:484] Sharing parameters 'fc1_w' owned by layer 'InnerProduct1', param index 0
I0813 08:28:00.982664 18283 net.cpp:484] Sharing parameters 'fc1_b' owned by layer 'InnerProduct1', param index 1
I0813 08:28:00.982671 18283 layer_factory.hpp:77] Creating layer ReLU11
I0813 08:28:00.982692 18283 net.cpp:91] Creating Layer ReLU11
I0813 08:28:00.982719 18283 net.cpp:425] ReLU11 <- InnerProduct11
I0813 08:28:00.982734 18283 net.cpp:386] ReLU11 -> InnerProduct11 (in-place)
I0813 08:28:00.982755 18283 net.cpp:141] Setting up ReLU11
I0813 08:28:00.982766 18283 net.cpp:148] Top shape: 100 256 (25600)
I0813 08:28:00.982772 18283 net.cpp:156] Memory required for data: 120478000
I0813 08:28:00.982779 18283 layer_factory.hpp:77] Creating layer drop1
I0813 08:28:00.982795 18283 net.cpp:91] Creating Layer drop1
I0813 08:28:00.982805 18283 net.cpp:425] drop1 <- InnerProduct11
I0813 08:28:00.982817 18283 net.cpp:399] drop1 -> Dropout11
I0813 08:28:00.982836 18283 net.cpp:141] Setting up drop1
I0813 08:28:00.982846 18283 net.cpp:148] Top shape: 100 256 (25600)
I0813 08:28:00.982852 18283 net.cpp:156] Memory required for data: 120580400
I0813 08:28:00.982859 18283 layer_factory.hpp:77] Creating layer InnerProduct12
I0813 08:28:00.982877 18283 net.cpp:91] Creating Layer InnerProduct12
I0813 08:28:00.982887 18283 net.cpp:425] InnerProduct12 <- Dropout11
I0813 08:28:00.982902 18283 net.cpp:399] InnerProduct12 -> InnerProduct12
I0813 08:28:00.983176 18283 net.cpp:141] Setting up InnerProduct12
I0813 08:28:00.983188 18283 net.cpp:148] Top shape: 100 128 (12800)
I0813 08:28:00.983194 18283 net.cpp:156] Memory required for data: 120631600
I0813 08:28:00.983216 18283 net.cpp:484] Sharing parameters 'fc2_w' owned by layer 'InnerProduct2', param index 0
I0813 08:28:00.983227 18283 net.cpp:484] Sharing parameters 'fc2_b' owned by layer 'InnerProduct2', param index 1
I0813 08:28:00.983233 18283 layer_factory.hpp:77] Creating layer ReLU12
I0813 08:28:00.983248 18283 net.cpp:91] Creating Layer ReLU12
I0813 08:28:00.983258 18283 net.cpp:425] ReLU12 <- InnerProduct12
I0813 08:28:00.983271 18283 net.cpp:386] ReLU12 -> InnerProduct12 (in-place)
I0813 08:28:00.983283 18283 net.cpp:141] Setting up ReLU12
I0813 08:28:00.983294 18283 net.cpp:148] Top shape: 100 128 (12800)
I0813 08:28:00.983299 18283 net.cpp:156] Memory required for data: 120682800
I0813 08:28:00.983306 18283 layer_factory.hpp:77] Creating layer drop2
I0813 08:28:00.983322 18283 net.cpp:91] Creating Layer drop2
I0813 08:28:00.983331 18283 net.cpp:425] drop2 <- InnerProduct12
I0813 08:28:00.983341 18283 net.cpp:399] drop2 -> Dropout12
I0813 08:28:00.983361 18283 net.cpp:141] Setting up drop2
I0813 08:28:00.983371 18283 net.cpp:148] Top shape: 100 128 (12800)
I0813 08:28:00.983377 18283 net.cpp:156] Memory required for data: 120734000
I0813 08:28:00.983384 18283 layer_factory.hpp:77] Creating layer m6
I0813 08:28:00.983403 18283 net.cpp:91] Creating Layer m6
I0813 08:28:00.983412 18283 net.cpp:425] m6 <- Dropout12
I0813 08:28:00.983425 18283 net.cpp:399] m6 -> m6
I0813 08:28:00.983455 18283 net.cpp:141] Setting up m6
I0813 08:28:00.983464 18283 net.cpp:148] Top shape: 100 1 (100)
I0813 08:28:00.983470 18283 net.cpp:156] Memory required for data: 120734400
I0813 08:28:00.983502 18283 net.cpp:484] Sharing parameters 'fc3_w' owned by layer 'm1', param index 0
I0813 08:28:00.983513 18283 net.cpp:484] Sharing parameters 'fc3_b' owned by layer 'm1', param index 1
I0813 08:28:00.983521 18283 layer_factory.hpp:77] Creating layer Concat7
I0813 08:28:00.983541 18283 net.cpp:91] Creating Layer Concat7
I0813 08:28:00.983551 18283 net.cpp:425] Concat7 <- i1_i1_0_split_6
I0813 08:28:00.983561 18283 net.cpp:425] Concat7 <- i17
I0813 08:28:00.983572 18283 net.cpp:399] Concat7 -> Concat7
I0813 08:28:00.983590 18283 net.cpp:141] Setting up Concat7
I0813 08:28:00.983600 18283 net.cpp:148] Top shape: 100 2 1 4096 (819200)
I0813 08:28:00.983610 18283 net.cpp:156] Memory required for data: 124011200
I0813 08:28:00.983618 18283 layer_factory.hpp:77] Creating layer InnerProduct13
I0813 08:28:00.983634 18283 net.cpp:91] Creating Layer InnerProduct13
I0813 08:28:00.983642 18283 net.cpp:425] InnerProduct13 <- Concat7
I0813 08:28:00.983652 18283 net.cpp:399] InnerProduct13 -> InnerProduct13
I0813 08:28:01.000309 18283 net.cpp:141] Setting up InnerProduct13
I0813 08:28:01.000356 18283 net.cpp:148] Top shape: 100 256 (25600)
I0813 08:28:01.000362 18283 net.cpp:156] Memory required for data: 124113600
I0813 08:28:01.000375 18283 net.cpp:484] Sharing parameters 'fc1_w' owned by layer 'InnerProduct1', param index 0
I0813 08:28:01.000385 18283 net.cpp:484] Sharing parameters 'fc1_b' owned by layer 'InnerProduct1', param index 1
I0813 08:28:01.000392 18283 layer_factory.hpp:77] Creating layer ReLU13
I0813 08:28:01.000413 18283 net.cpp:91] Creating Layer ReLU13
I0813 08:28:01.000424 18283 net.cpp:425] ReLU13 <- InnerProduct13
I0813 08:28:01.000447 18283 net.cpp:386] ReLU13 -> InnerProduct13 (in-place)
I0813 08:28:01.000469 18283 net.cpp:141] Setting up ReLU13
I0813 08:28:01.000478 18283 net.cpp:148] Top shape: 100 256 (25600)
I0813 08:28:01.000485 18283 net.cpp:156] Memory required for data: 124216000
I0813 08:28:01.000494 18283 layer_factory.hpp:77] Creating layer drop1
I0813 08:28:01.000505 18283 net.cpp:91] Creating Layer drop1
I0813 08:28:01.000515 18283 net.cpp:425] drop1 <- InnerProduct13
I0813 08:28:01.000531 18283 net.cpp:399] drop1 -> Dropout13
I0813 08:28:01.000550 18283 net.cpp:141] Setting up drop1
I0813 08:28:01.000560 18283 net.cpp:148] Top shape: 100 256 (25600)
I0813 08:28:01.000567 18283 net.cpp:156] Memory required for data: 124318400
I0813 08:28:01.000574 18283 layer_factory.hpp:77] Creating layer InnerProduct14
I0813 08:28:01.000594 18283 net.cpp:91] Creating Layer InnerProduct14
I0813 08:28:01.000602 18283 net.cpp:425] InnerProduct14 <- Dropout13
I0813 08:28:01.000612 18283 net.cpp:399] InnerProduct14 -> InnerProduct14
I0813 08:28:01.000915 18283 net.cpp:141] Setting up InnerProduct14
I0813 08:28:01.000926 18283 net.cpp:148] Top shape: 100 128 (12800)
I0813 08:28:01.000932 18283 net.cpp:156] Memory required for data: 124369600
I0813 08:28:01.000941 18283 net.cpp:484] Sharing parameters 'fc2_w' owned by layer 'InnerProduct2', param index 0
I0813 08:28:01.000949 18283 net.cpp:484] Sharing parameters 'fc2_b' owned by layer 'InnerProduct2', param index 1
I0813 08:28:01.000957 18283 layer_factory.hpp:77] Creating layer ReLU14
I0813 08:28:01.000969 18283 net.cpp:91] Creating Layer ReLU14
I0813 08:28:01.000978 18283 net.cpp:425] ReLU14 <- InnerProduct14
I0813 08:28:01.000988 18283 net.cpp:386] ReLU14 -> InnerProduct14 (in-place)
I0813 08:28:01.000998 18283 net.cpp:141] Setting up ReLU14
I0813 08:28:01.001008 18283 net.cpp:148] Top shape: 100 128 (12800)
I0813 08:28:01.001014 18283 net.cpp:156] Memory required for data: 124420800
I0813 08:28:01.001021 18283 layer_factory.hpp:77] Creating layer drop2
I0813 08:28:01.001031 18283 net.cpp:91] Creating Layer drop2
I0813 08:28:01.001039 18283 net.cpp:425] drop2 <- InnerProduct14
I0813 08:28:01.001051 18283 net.cpp:399] drop2 -> Dropout14
I0813 08:28:01.001066 18283 net.cpp:141] Setting up drop2
I0813 08:28:01.001076 18283 net.cpp:148] Top shape: 100 128 (12800)
I0813 08:28:01.001083 18283 net.cpp:156] Memory required for data: 124472000
I0813 08:28:01.001107 18283 layer_factory.hpp:77] Creating layer m7
I0813 08:28:01.001124 18283 net.cpp:91] Creating Layer m7
I0813 08:28:01.001133 18283 net.cpp:425] m7 <- Dropout14
I0813 08:28:01.001147 18283 net.cpp:399] m7 -> m7
I0813 08:28:01.001173 18283 net.cpp:141] Setting up m7
I0813 08:28:01.001184 18283 net.cpp:148] Top shape: 100 1 (100)
I0813 08:28:01.001190 18283 net.cpp:156] Memory required for data: 124472400
I0813 08:28:01.001199 18283 net.cpp:484] Sharing parameters 'fc3_w' owned by layer 'm1', param index 0
I0813 08:28:01.001206 18283 net.cpp:484] Sharing parameters 'fc3_b' owned by layer 'm1', param index 1
I0813 08:28:01.001214 18283 layer_factory.hpp:77] Creating layer Concat8
I0813 08:28:01.001230 18283 net.cpp:91] Creating Layer Concat8
I0813 08:28:01.001240 18283 net.cpp:425] Concat8 <- i1_i1_0_split_7
I0813 08:28:01.001251 18283 net.cpp:425] Concat8 <- i18
I0813 08:28:01.001265 18283 net.cpp:399] Concat8 -> Concat8
I0813 08:28:01.001282 18283 net.cpp:141] Setting up Concat8
I0813 08:28:01.001292 18283 net.cpp:148] Top shape: 100 2 1 4096 (819200)
I0813 08:28:01.001298 18283 net.cpp:156] Memory required for data: 127749200
I0813 08:28:01.001305 18283 layer_factory.hpp:77] Creating layer InnerProduct15
I0813 08:28:01.001337 18283 net.cpp:91] Creating Layer InnerProduct15
I0813 08:28:01.001344 18283 net.cpp:425] InnerProduct15 <- Concat8
I0813 08:28:01.001355 18283 net.cpp:399] InnerProduct15 -> InnerProduct15
I0813 08:28:01.017762 18283 net.cpp:141] Setting up InnerProduct15
I0813 08:28:01.017803 18283 net.cpp:148] Top shape: 100 256 (25600)
I0813 08:28:01.017809 18283 net.cpp:156] Memory required for data: 127851600
I0813 08:28:01.017822 18283 net.cpp:484] Sharing parameters 'fc1_w' owned by layer 'InnerProduct1', param index 0
I0813 08:28:01.017830 18283 net.cpp:484] Sharing parameters 'fc1_b' owned by layer 'InnerProduct1', param index 1
I0813 08:28:01.017839 18283 layer_factory.hpp:77] Creating layer ReLU15
I0813 08:28:01.017863 18283 net.cpp:91] Creating Layer ReLU15
I0813 08:28:01.017884 18283 net.cpp:425] ReLU15 <- InnerProduct15
I0813 08:28:01.017896 18283 net.cpp:386] ReLU15 -> InnerProduct15 (in-place)
I0813 08:28:01.017915 18283 net.cpp:141] Setting up ReLU15
I0813 08:28:01.017925 18283 net.cpp:148] Top shape: 100 256 (25600)
I0813 08:28:01.017931 18283 net.cpp:156] Memory required for data: 127954000
I0813 08:28:01.017938 18283 layer_factory.hpp:77] Creating layer drop1
I0813 08:28:01.017951 18283 net.cpp:91] Creating Layer drop1
I0813 08:28:01.017962 18283 net.cpp:425] drop1 <- InnerProduct15
I0813 08:28:01.017978 18283 net.cpp:399] drop1 -> Dropout15
I0813 08:28:01.017997 18283 net.cpp:141] Setting up drop1
I0813 08:28:01.018007 18283 net.cpp:148] Top shape: 100 256 (25600)
I0813 08:28:01.018014 18283 net.cpp:156] Memory required for data: 128056400
I0813 08:28:01.018021 18283 layer_factory.hpp:77] Creating layer InnerProduct16
I0813 08:28:01.018041 18283 net.cpp:91] Creating Layer InnerProduct16
I0813 08:28:01.018049 18283 net.cpp:425] InnerProduct16 <- Dropout15
I0813 08:28:01.018059 18283 net.cpp:399] InnerProduct16 -> InnerProduct16
I0813 08:28:01.018344 18283 net.cpp:141] Setting up InnerProduct16
I0813 08:28:01.018357 18283 net.cpp:148] Top shape: 100 128 (12800)
I0813 08:28:01.018362 18283 net.cpp:156] Memory required for data: 128107600
I0813 08:28:01.018370 18283 net.cpp:484] Sharing parameters 'fc2_w' owned by layer 'InnerProduct2', param index 0
I0813 08:28:01.018378 18283 net.cpp:484] Sharing parameters 'fc2_b' owned by layer 'InnerProduct2', param index 1
I0813 08:28:01.018386 18283 layer_factory.hpp:77] Creating layer ReLU16
I0813 08:28:01.018396 18283 net.cpp:91] Creating Layer ReLU16
I0813 08:28:01.018405 18283 net.cpp:425] ReLU16 <- InnerProduct16
I0813 08:28:01.018417 18283 net.cpp:386] ReLU16 -> InnerProduct16 (in-place)
I0813 08:28:01.018429 18283 net.cpp:141] Setting up ReLU16
I0813 08:28:01.018438 18283 net.cpp:148] Top shape: 100 128 (12800)
I0813 08:28:01.018445 18283 net.cpp:156] Memory required for data: 128158800
I0813 08:28:01.018473 18283 layer_factory.hpp:77] Creating layer drop2
I0813 08:28:01.018484 18283 net.cpp:91] Creating Layer drop2
I0813 08:28:01.018491 18283 net.cpp:425] drop2 <- InnerProduct16
I0813 08:28:01.018501 18283 net.cpp:399] drop2 -> Dropout16
I0813 08:28:01.018515 18283 net.cpp:141] Setting up drop2
I0813 08:28:01.018532 18283 net.cpp:148] Top shape: 100 128 (12800)
I0813 08:28:01.018542 18283 net.cpp:156] Memory required for data: 128210000
I0813 08:28:01.018548 18283 layer_factory.hpp:77] Creating layer m8
I0813 08:28:01.018560 18283 net.cpp:91] Creating Layer m8
I0813 08:28:01.018569 18283 net.cpp:425] m8 <- Dropout16
I0813 08:28:01.018584 18283 net.cpp:399] m8 -> m8
I0813 08:28:01.018612 18283 net.cpp:141] Setting up m8
I0813 08:28:01.018622 18283 net.cpp:148] Top shape: 100 1 (100)
I0813 08:28:01.018628 18283 net.cpp:156] Memory required for data: 128210400
I0813 08:28:01.018635 18283 net.cpp:484] Sharing parameters 'fc3_w' owned by layer 'm1', param index 0
I0813 08:28:01.018645 18283 net.cpp:484] Sharing parameters 'fc3_b' owned by layer 'm1', param index 1
I0813 08:28:01.018651 18283 layer_factory.hpp:77] Creating layer Concat9
I0813 08:28:01.018663 18283 net.cpp:91] Creating Layer Concat9
I0813 08:28:01.018673 18283 net.cpp:425] Concat9 <- i1_i1_0_split_8
I0813 08:28:01.018684 18283 net.cpp:425] Concat9 <- i19
I0813 08:28:01.018699 18283 net.cpp:399] Concat9 -> Concat9
I0813 08:28:01.018718 18283 net.cpp:141] Setting up Concat9
I0813 08:28:01.018728 18283 net.cpp:148] Top shape: 100 2 1 4096 (819200)
I0813 08:28:01.018733 18283 net.cpp:156] Memory required for data: 131487200
I0813 08:28:01.018740 18283 layer_factory.hpp:77] Creating layer InnerProduct17
I0813 08:28:01.018753 18283 net.cpp:91] Creating Layer InnerProduct17
I0813 08:28:01.018761 18283 net.cpp:425] InnerProduct17 <- Concat9
I0813 08:28:01.018775 18283 net.cpp:399] InnerProduct17 -> InnerProduct17
I0813 08:28:01.034945 18283 net.cpp:141] Setting up InnerProduct17
I0813 08:28:01.034992 18283 net.cpp:148] Top shape: 100 256 (25600)
I0813 08:28:01.034998 18283 net.cpp:156] Memory required for data: 131589600
I0813 08:28:01.035012 18283 net.cpp:484] Sharing parameters 'fc1_w' owned by layer 'InnerProduct1', param index 0
I0813 08:28:01.035022 18283 net.cpp:484] Sharing parameters 'fc1_b' owned by layer 'InnerProduct1', param index 1
I0813 08:28:01.035029 18283 layer_factory.hpp:77] Creating layer ReLU17
I0813 08:28:01.035050 18283 net.cpp:91] Creating Layer ReLU17
I0813 08:28:01.035063 18283 net.cpp:425] ReLU17 <- InnerProduct17
I0813 08:28:01.035095 18283 net.cpp:386] ReLU17 -> InnerProduct17 (in-place)
I0813 08:28:01.035117 18283 net.cpp:141] Setting up ReLU17
I0813 08:28:01.035127 18283 net.cpp:148] Top shape: 100 256 (25600)
I0813 08:28:01.035135 18283 net.cpp:156] Memory required for data: 131692000
I0813 08:28:01.035141 18283 layer_factory.hpp:77] Creating layer drop1
I0813 08:28:01.035156 18283 net.cpp:91] Creating Layer drop1
I0813 08:28:01.035164 18283 net.cpp:425] drop1 <- InnerProduct17
I0813 08:28:01.035182 18283 net.cpp:399] drop1 -> Dropout17
I0813 08:28:01.035202 18283 net.cpp:141] Setting up drop1
I0813 08:28:01.035213 18283 net.cpp:148] Top shape: 100 256 (25600)
I0813 08:28:01.035219 18283 net.cpp:156] Memory required for data: 131794400
I0813 08:28:01.035226 18283 layer_factory.hpp:77] Creating layer InnerProduct18
I0813 08:28:01.035244 18283 net.cpp:91] Creating Layer InnerProduct18
I0813 08:28:01.035251 18283 net.cpp:425] InnerProduct18 <- Dropout17
I0813 08:28:01.035266 18283 net.cpp:399] InnerProduct18 -> InnerProduct18
I0813 08:28:01.035581 18283 net.cpp:141] Setting up InnerProduct18
I0813 08:28:01.035596 18283 net.cpp:148] Top shape: 100 128 (12800)
I0813 08:28:01.035603 18283 net.cpp:156] Memory required for data: 131845600
I0813 08:28:01.035612 18283 net.cpp:484] Sharing parameters 'fc2_w' owned by layer 'InnerProduct2', param index 0
I0813 08:28:01.035621 18283 net.cpp:484] Sharing parameters 'fc2_b' owned by layer 'InnerProduct2', param index 1
I0813 08:28:01.035629 18283 layer_factory.hpp:77] Creating layer ReLU18
I0813 08:28:01.035666 18283 net.cpp:91] Creating Layer ReLU18
I0813 08:28:01.035676 18283 net.cpp:425] ReLU18 <- InnerProduct18
I0813 08:28:01.035691 18283 net.cpp:386] ReLU18 -> InnerProduct18 (in-place)
I0813 08:28:01.035706 18283 net.cpp:141] Setting up ReLU18
I0813 08:28:01.035715 18283 net.cpp:148] Top shape: 100 128 (12800)
I0813 08:28:01.035723 18283 net.cpp:156] Memory required for data: 131896800
I0813 08:28:01.035729 18283 layer_factory.hpp:77] Creating layer drop2
I0813 08:28:01.035742 18283 net.cpp:91] Creating Layer drop2
I0813 08:28:01.035750 18283 net.cpp:425] drop2 <- InnerProduct18
I0813 08:28:01.035760 18283 net.cpp:399] drop2 -> Dropout18
I0813 08:28:01.035780 18283 net.cpp:141] Setting up drop2
I0813 08:28:01.035790 18283 net.cpp:148] Top shape: 100 128 (12800)
I0813 08:28:01.035797 18283 net.cpp:156] Memory required for data: 131948000
I0813 08:28:01.035804 18283 layer_factory.hpp:77] Creating layer m9
I0813 08:28:01.035820 18283 net.cpp:91] Creating Layer m9
I0813 08:28:01.035828 18283 net.cpp:425] m9 <- Dropout18
I0813 08:28:01.035843 18283 net.cpp:399] m9 -> m9
I0813 08:28:01.035876 18283 net.cpp:141] Setting up m9
I0813 08:28:01.035886 18283 net.cpp:148] Top shape: 100 1 (100)
I0813 08:28:01.035892 18283 net.cpp:156] Memory required for data: 131948400
I0813 08:28:01.035900 18283 net.cpp:484] Sharing parameters 'fc3_w' owned by layer 'm1', param index 0
I0813 08:28:01.035908 18283 net.cpp:484] Sharing parameters 'fc3_b' owned by layer 'm1', param index 1
I0813 08:28:01.035917 18283 layer_factory.hpp:77] Creating layer Concat10
I0813 08:28:01.035928 18283 net.cpp:91] Creating Layer Concat10
I0813 08:28:01.035938 18283 net.cpp:425] Concat10 <- i1_i1_0_split_9
I0813 08:28:01.035949 18283 net.cpp:425] Concat10 <- i20
I0813 08:28:01.035965 18283 net.cpp:399] Concat10 -> Concat10
I0813 08:28:01.035984 18283 net.cpp:141] Setting up Concat10
I0813 08:28:01.035995 18283 net.cpp:148] Top shape: 100 2 1 4096 (819200)
I0813 08:28:01.036000 18283 net.cpp:156] Memory required for data: 135225200
I0813 08:28:01.036007 18283 layer_factory.hpp:77] Creating layer InnerProduct19
I0813 08:28:01.036022 18283 net.cpp:91] Creating Layer InnerProduct19
I0813 08:28:01.036053 18283 net.cpp:425] InnerProduct19 <- Concat10
I0813 08:28:01.036068 18283 net.cpp:399] InnerProduct19 -> InnerProduct19
I0813 08:28:01.052986 18283 net.cpp:141] Setting up InnerProduct19
I0813 08:28:01.053028 18283 net.cpp:148] Top shape: 100 256 (25600)
I0813 08:28:01.053035 18283 net.cpp:156] Memory required for data: 135327600
I0813 08:28:01.053047 18283 net.cpp:484] Sharing parameters 'fc1_w' owned by layer 'InnerProduct1', param index 0
I0813 08:28:01.053056 18283 net.cpp:484] Sharing parameters 'fc1_b' owned by layer 'InnerProduct1', param index 1
I0813 08:28:01.053063 18283 layer_factory.hpp:77] Creating layer ReLU19
I0813 08:28:01.053083 18283 net.cpp:91] Creating Layer ReLU19
I0813 08:28:01.053095 18283 net.cpp:425] ReLU19 <- InnerProduct19
I0813 08:28:01.053120 18283 net.cpp:386] ReLU19 -> InnerProduct19 (in-place)
I0813 08:28:01.053143 18283 net.cpp:141] Setting up ReLU19
I0813 08:28:01.053153 18283 net.cpp:148] Top shape: 100 256 (25600)
I0813 08:28:01.053158 18283 net.cpp:156] Memory required for data: 135430000
I0813 08:28:01.053165 18283 layer_factory.hpp:77] Creating layer drop1
I0813 08:28:01.053179 18283 net.cpp:91] Creating Layer drop1
I0813 08:28:01.053189 18283 net.cpp:425] drop1 <- InnerProduct19
I0813 08:28:01.053202 18283 net.cpp:399] drop1 -> Dropout19
I0813 08:28:01.053222 18283 net.cpp:141] Setting up drop1
I0813 08:28:01.053232 18283 net.cpp:148] Top shape: 100 256 (25600)
I0813 08:28:01.053239 18283 net.cpp:156] Memory required for data: 135532400
I0813 08:28:01.053246 18283 layer_factory.hpp:77] Creating layer InnerProduct20
I0813 08:28:01.053267 18283 net.cpp:91] Creating Layer InnerProduct20
I0813 08:28:01.053274 18283 net.cpp:425] InnerProduct20 <- Dropout19
I0813 08:28:01.053288 18283 net.cpp:399] InnerProduct20 -> InnerProduct20
I0813 08:28:01.053586 18283 net.cpp:141] Setting up InnerProduct20
I0813 08:28:01.053597 18283 net.cpp:148] Top shape: 100 128 (12800)
I0813 08:28:01.053628 18283 net.cpp:156] Memory required for data: 135583600
I0813 08:28:01.053637 18283 net.cpp:484] Sharing parameters 'fc2_w' owned by layer 'InnerProduct2', param index 0
I0813 08:28:01.053650 18283 net.cpp:484] Sharing parameters 'fc2_b' owned by layer 'InnerProduct2', param index 1
I0813 08:28:01.053659 18283 layer_factory.hpp:77] Creating layer ReLU20
I0813 08:28:01.053669 18283 net.cpp:91] Creating Layer ReLU20
I0813 08:28:01.053678 18283 net.cpp:425] ReLU20 <- InnerProduct20
I0813 08:28:01.053689 18283 net.cpp:386] ReLU20 -> InnerProduct20 (in-place)
I0813 08:28:01.053704 18283 net.cpp:141] Setting up ReLU20
I0813 08:28:01.053712 18283 net.cpp:148] Top shape: 100 128 (12800)
I0813 08:28:01.053719 18283 net.cpp:156] Memory required for data: 135634800
I0813 08:28:01.053725 18283 layer_factory.hpp:77] Creating layer drop2
I0813 08:28:01.053741 18283 net.cpp:91] Creating Layer drop2
I0813 08:28:01.053750 18283 net.cpp:425] drop2 <- InnerProduct20
I0813 08:28:01.053761 18283 net.cpp:399] drop2 -> Dropout20
I0813 08:28:01.053774 18283 net.cpp:141] Setting up drop2
I0813 08:28:01.053784 18283 net.cpp:148] Top shape: 100 128 (12800)
I0813 08:28:01.053791 18283 net.cpp:156] Memory required for data: 135686000
I0813 08:28:01.053797 18283 layer_factory.hpp:77] Creating layer m10
I0813 08:28:01.053814 18283 net.cpp:91] Creating Layer m10
I0813 08:28:01.053828 18283 net.cpp:425] m10 <- Dropout20
I0813 08:28:01.053841 18283 net.cpp:399] m10 -> m10
I0813 08:28:01.053876 18283 net.cpp:141] Setting up m10
I0813 08:28:01.053886 18283 net.cpp:148] Top shape: 100 1 (100)
I0813 08:28:01.053891 18283 net.cpp:156] Memory required for data: 135686400
I0813 08:28:01.053900 18283 net.cpp:484] Sharing parameters 'fc3_w' owned by layer 'm1', param index 0
I0813 08:28:01.053911 18283 net.cpp:484] Sharing parameters 'fc3_b' owned by layer 'm1', param index 1
I0813 08:28:01.053918 18283 layer_factory.hpp:77] Creating layer Concat11
I0813 08:28:01.053931 18283 net.cpp:91] Creating Layer Concat11
I0813 08:28:01.053941 18283 net.cpp:425] Concat11 <- i2
I0813 08:28:01.053952 18283 net.cpp:425] Concat11 <- i11_i1_10_split_1
I0813 08:28:01.053968 18283 net.cpp:399] Concat11 -> Concat11
I0813 08:28:01.053987 18283 net.cpp:141] Setting up Concat11
I0813 08:28:01.053999 18283 net.cpp:148] Top shape: 100 2 1 4096 (819200)
I0813 08:28:01.054005 18283 net.cpp:156] Memory required for data: 138963200
I0813 08:28:01.054013 18283 layer_factory.hpp:77] Creating layer InnerProduct21
I0813 08:28:01.054028 18283 net.cpp:91] Creating Layer InnerProduct21
I0813 08:28:01.054035 18283 net.cpp:425] InnerProduct21 <- Concat11
I0813 08:28:01.054050 18283 net.cpp:399] InnerProduct21 -> InnerProduct21
I0813 08:28:01.070482 18283 net.cpp:141] Setting up InnerProduct21
I0813 08:28:01.070524 18283 net.cpp:148] Top shape: 100 256 (25600)
I0813 08:28:01.070530 18283 net.cpp:156] Memory required for data: 139065600
I0813 08:28:01.070543 18283 net.cpp:484] Sharing parameters 'fc1_w' owned by layer 'InnerProduct1', param index 0
I0813 08:28:01.070552 18283 net.cpp:484] Sharing parameters 'fc1_b' owned by layer 'InnerProduct1', param index 1
I0813 08:28:01.070559 18283 layer_factory.hpp:77] Creating layer ReLU21
I0813 08:28:01.070577 18283 net.cpp:91] Creating Layer ReLU21
I0813 08:28:01.070590 18283 net.cpp:425] ReLU21 <- InnerProduct21
I0813 08:28:01.070607 18283 net.cpp:386] ReLU21 -> InnerProduct21 (in-place)
I0813 08:28:01.070631 18283 net.cpp:141] Setting up ReLU21
I0813 08:28:01.070642 18283 net.cpp:148] Top shape: 100 256 (25600)
I0813 08:28:01.070649 18283 net.cpp:156] Memory required for data: 139168000
I0813 08:28:01.070657 18283 layer_factory.hpp:77] Creating layer drop1
I0813 08:28:01.070669 18283 net.cpp:91] Creating Layer drop1
I0813 08:28:01.070680 18283 net.cpp:425] drop1 <- InnerProduct21
I0813 08:28:01.070703 18283 net.cpp:399] drop1 -> Dropout21
I0813 08:28:01.070722 18283 net.cpp:141] Setting up drop1
I0813 08:28:01.070734 18283 net.cpp:148] Top shape: 100 256 (25600)
I0813 08:28:01.070740 18283 net.cpp:156] Memory required for data: 139270400
I0813 08:28:01.070772 18283 layer_factory.hpp:77] Creating layer InnerProduct22
I0813 08:28:01.070790 18283 net.cpp:91] Creating Layer InnerProduct22
I0813 08:28:01.070799 18283 net.cpp:425] InnerProduct22 <- Dropout21
I0813 08:28:01.070814 18283 net.cpp:399] InnerProduct22 -> InnerProduct22
I0813 08:28:01.071107 18283 net.cpp:141] Setting up InnerProduct22
I0813 08:28:01.071118 18283 net.cpp:148] Top shape: 100 128 (12800)
I0813 08:28:01.071125 18283 net.cpp:156] Memory required for data: 139321600
I0813 08:28:01.071133 18283 net.cpp:484] Sharing parameters 'fc2_w' owned by layer 'InnerProduct2', param index 0
I0813 08:28:01.071142 18283 net.cpp:484] Sharing parameters 'fc2_b' owned by layer 'InnerProduct2', param index 1
I0813 08:28:01.071149 18283 layer_factory.hpp:77] Creating layer ReLU22
I0813 08:28:01.071159 18283 net.cpp:91] Creating Layer ReLU22
I0813 08:28:01.071166 18283 net.cpp:425] ReLU22 <- InnerProduct22
I0813 08:28:01.071176 18283 net.cpp:386] ReLU22 -> InnerProduct22 (in-place)
I0813 08:28:01.071187 18283 net.cpp:141] Setting up ReLU22
I0813 08:28:01.071197 18283 net.cpp:148] Top shape: 100 128 (12800)
I0813 08:28:01.071202 18283 net.cpp:156] Memory required for data: 139372800
I0813 08:28:01.071209 18283 layer_factory.hpp:77] Creating layer drop2
I0813 08:28:01.071223 18283 net.cpp:91] Creating Layer drop2
I0813 08:28:01.071231 18283 net.cpp:425] drop2 <- InnerProduct22
I0813 08:28:01.071241 18283 net.cpp:399] drop2 -> Dropout22
I0813 08:28:01.071254 18283 net.cpp:141] Setting up drop2
I0813 08:28:01.071269 18283 net.cpp:148] Top shape: 100 128 (12800)
I0813 08:28:01.071276 18283 net.cpp:156] Memory required for data: 139424000
I0813 08:28:01.071282 18283 layer_factory.hpp:77] Creating layer m11
I0813 08:28:01.071295 18283 net.cpp:91] Creating Layer m11
I0813 08:28:01.071305 18283 net.cpp:425] m11 <- Dropout22
I0813 08:28:01.071319 18283 net.cpp:399] m11 -> m11
I0813 08:28:01.071346 18283 net.cpp:141] Setting up m11
I0813 08:28:01.071355 18283 net.cpp:148] Top shape: 100 1 (100)
I0813 08:28:01.071362 18283 net.cpp:156] Memory required for data: 139424400
I0813 08:28:01.071388 18283 net.cpp:484] Sharing parameters 'fc3_w' owned by layer 'm1', param index 0
I0813 08:28:01.071398 18283 net.cpp:484] Sharing parameters 'fc3_b' owned by layer 'm1', param index 1
I0813 08:28:01.071404 18283 layer_factory.hpp:77] Creating layer Concat12
I0813 08:28:01.071419 18283 net.cpp:91] Creating Layer Concat12
I0813 08:28:01.071429 18283 net.cpp:425] Concat12 <- i3
I0813 08:28:01.071440 18283 net.cpp:425] Concat12 <- i11_i1_10_split_2
I0813 08:28:01.071452 18283 net.cpp:399] Concat12 -> Concat12
I0813 08:28:01.071470 18283 net.cpp:141] Setting up Concat12
I0813 08:28:01.071478 18283 net.cpp:148] Top shape: 100 2 1 4096 (819200)
I0813 08:28:01.071485 18283 net.cpp:156] Memory required for data: 142701200
I0813 08:28:01.071491 18283 layer_factory.hpp:77] Creating layer InnerProduct23
I0813 08:28:01.071504 18283 net.cpp:91] Creating Layer InnerProduct23
I0813 08:28:01.071513 18283 net.cpp:425] InnerProduct23 <- Concat12
I0813 08:28:01.071527 18283 net.cpp:399] InnerProduct23 -> InnerProduct23
I0813 08:28:01.088199 18283 net.cpp:141] Setting up InnerProduct23
I0813 08:28:01.088244 18283 net.cpp:148] Top shape: 100 256 (25600)
I0813 08:28:01.088250 18283 net.cpp:156] Memory required for data: 142803600
I0813 08:28:01.088263 18283 net.cpp:484] Sharing parameters 'fc1_w' owned by layer 'InnerProduct1', param index 0
I0813 08:28:01.088273 18283 net.cpp:484] Sharing parameters 'fc1_b' owned by layer 'InnerProduct1', param index 1
I0813 08:28:01.088280 18283 layer_factory.hpp:77] Creating layer ReLU23
I0813 08:28:01.088304 18283 net.cpp:91] Creating Layer ReLU23
I0813 08:28:01.088316 18283 net.cpp:425] ReLU23 <- InnerProduct23
I0813 08:28:01.088342 18283 net.cpp:386] ReLU23 -> InnerProduct23 (in-place)
I0813 08:28:01.088361 18283 net.cpp:141] Setting up ReLU23
I0813 08:28:01.088371 18283 net.cpp:148] Top shape: 100 256 (25600)
I0813 08:28:01.088378 18283 net.cpp:156] Memory required for data: 142906000
I0813 08:28:01.088410 18283 layer_factory.hpp:77] Creating layer drop1
I0813 08:28:01.088424 18283 net.cpp:91] Creating Layer drop1
I0813 08:28:01.088438 18283 net.cpp:425] drop1 <- InnerProduct23
I0813 08:28:01.088451 18283 net.cpp:399] drop1 -> Dropout23
I0813 08:28:01.088471 18283 net.cpp:141] Setting up drop1
I0813 08:28:01.088481 18283 net.cpp:148] Top shape: 100 256 (25600)
I0813 08:28:01.088487 18283 net.cpp:156] Memory required for data: 143008400
I0813 08:28:01.088495 18283 layer_factory.hpp:77] Creating layer InnerProduct24
I0813 08:28:01.088510 18283 net.cpp:91] Creating Layer InnerProduct24
I0813 08:28:01.088518 18283 net.cpp:425] InnerProduct24 <- Dropout23
I0813 08:28:01.088533 18283 net.cpp:399] InnerProduct24 -> InnerProduct24
I0813 08:28:01.088832 18283 net.cpp:141] Setting up InnerProduct24
I0813 08:28:01.088845 18283 net.cpp:148] Top shape: 100 128 (12800)
I0813 08:28:01.088850 18283 net.cpp:156] Memory required for data: 143059600
I0813 08:28:01.088858 18283 net.cpp:484] Sharing parameters 'fc2_w' owned by layer 'InnerProduct2', param index 0
I0813 08:28:01.088867 18283 net.cpp:484] Sharing parameters 'fc2_b' owned by layer 'InnerProduct2', param index 1
I0813 08:28:01.088874 18283 layer_factory.hpp:77] Creating layer ReLU24
I0813 08:28:01.088886 18283 net.cpp:91] Creating Layer ReLU24
I0813 08:28:01.088893 18283 net.cpp:425] ReLU24 <- InnerProduct24
I0813 08:28:01.088906 18283 net.cpp:386] ReLU24 -> InnerProduct24 (in-place)
I0813 08:28:01.088917 18283 net.cpp:141] Setting up ReLU24
I0813 08:28:01.088925 18283 net.cpp:148] Top shape: 100 128 (12800)
I0813 08:28:01.088932 18283 net.cpp:156] Memory required for data: 143110800
I0813 08:28:01.088937 18283 layer_factory.hpp:77] Creating layer drop2
I0813 08:28:01.088946 18283 net.cpp:91] Creating Layer drop2
I0813 08:28:01.088953 18283 net.cpp:425] drop2 <- InnerProduct24
I0813 08:28:01.088965 18283 net.cpp:399] drop2 -> Dropout24
I0813 08:28:01.088982 18283 net.cpp:141] Setting up drop2
I0813 08:28:01.088991 18283 net.cpp:148] Top shape: 100 128 (12800)
I0813 08:28:01.088997 18283 net.cpp:156] Memory required for data: 143162000
I0813 08:28:01.089004 18283 layer_factory.hpp:77] Creating layer m12
I0813 08:28:01.089017 18283 net.cpp:91] Creating Layer m12
I0813 08:28:01.089025 18283 net.cpp:425] m12 <- Dropout24
I0813 08:28:01.089040 18283 net.cpp:399] m12 -> m12
I0813 08:28:01.089064 18283 net.cpp:141] Setting up m12
I0813 08:28:01.089073 18283 net.cpp:148] Top shape: 100 1 (100)
I0813 08:28:01.089079 18283 net.cpp:156] Memory required for data: 143162400
I0813 08:28:01.089087 18283 net.cpp:484] Sharing parameters 'fc3_w' owned by layer 'm1', param index 0
I0813 08:28:01.089095 18283 net.cpp:484] Sharing parameters 'fc3_b' owned by layer 'm1', param index 1
I0813 08:28:01.089102 18283 layer_factory.hpp:77] Creating layer Concat13
I0813 08:28:01.089114 18283 net.cpp:91] Creating Layer Concat13
I0813 08:28:01.089123 18283 net.cpp:425] Concat13 <- i4
I0813 08:28:01.089133 18283 net.cpp:425] Concat13 <- i11_i1_10_split_3
I0813 08:28:01.089148 18283 net.cpp:399] Concat13 -> Concat13
I0813 08:28:01.089164 18283 net.cpp:141] Setting up Concat13
I0813 08:28:01.089174 18283 net.cpp:148] Top shape: 100 2 1 4096 (819200)
I0813 08:28:01.089181 18283 net.cpp:156] Memory required for data: 146439200
I0813 08:28:01.089189 18283 layer_factory.hpp:77] Creating layer InnerProduct25
I0813 08:28:01.089206 18283 net.cpp:91] Creating Layer InnerProduct25
I0813 08:28:01.089215 18283 net.cpp:425] InnerProduct25 <- Concat13
I0813 08:28:01.089224 18283 net.cpp:399] InnerProduct25 -> InnerProduct25
I0813 08:28:01.105451 18283 net.cpp:141] Setting up InnerProduct25
I0813 08:28:01.105494 18283 net.cpp:148] Top shape: 100 256 (25600)
I0813 08:28:01.105500 18283 net.cpp:156] Memory required for data: 146541600
I0813 08:28:01.105512 18283 net.cpp:484] Sharing parameters 'fc1_w' owned by layer 'InnerProduct1', param index 0
I0813 08:28:01.105522 18283 net.cpp:484] Sharing parameters 'fc1_b' owned by layer 'InnerProduct1', param index 1
I0813 08:28:01.105530 18283 layer_factory.hpp:77] Creating layer ReLU25
I0813 08:28:01.105589 18283 net.cpp:91] Creating Layer ReLU25
I0813 08:28:01.105602 18283 net.cpp:425] ReLU25 <- InnerProduct25
I0813 08:28:01.105617 18283 net.cpp:386] ReLU25 -> InnerProduct25 (in-place)
I0813 08:28:01.105640 18283 net.cpp:141] Setting up ReLU25
I0813 08:28:01.105650 18283 net.cpp:148] Top shape: 100 256 (25600)
I0813 08:28:01.105656 18283 net.cpp:156] Memory required for data: 146644000
I0813 08:28:01.105667 18283 layer_factory.hpp:77] Creating layer drop1
I0813 08:28:01.105681 18283 net.cpp:91] Creating Layer drop1
I0813 08:28:01.105692 18283 net.cpp:425] drop1 <- InnerProduct25
I0813 08:28:01.105708 18283 net.cpp:399] drop1 -> Dropout25
I0813 08:28:01.105729 18283 net.cpp:141] Setting up drop1
I0813 08:28:01.105741 18283 net.cpp:148] Top shape: 100 256 (25600)
I0813 08:28:01.105751 18283 net.cpp:156] Memory required for data: 146746400
I0813 08:28:01.105757 18283 layer_factory.hpp:77] Creating layer InnerProduct26
I0813 08:28:01.105777 18283 net.cpp:91] Creating Layer InnerProduct26
I0813 08:28:01.105784 18283 net.cpp:425] InnerProduct26 <- Dropout25
I0813 08:28:01.105795 18283 net.cpp:399] InnerProduct26 -> InnerProduct26
I0813 08:28:01.106084 18283 net.cpp:141] Setting up InnerProduct26
I0813 08:28:01.106096 18283 net.cpp:148] Top shape: 100 128 (12800)
I0813 08:28:01.106102 18283 net.cpp:156] Memory required for data: 146797600
I0813 08:28:01.106111 18283 net.cpp:484] Sharing parameters 'fc2_w' owned by layer 'InnerProduct2', param index 0
I0813 08:28:01.106118 18283 net.cpp:484] Sharing parameters 'fc2_b' owned by layer 'InnerProduct2', param index 1
I0813 08:28:01.106125 18283 layer_factory.hpp:77] Creating layer ReLU26
I0813 08:28:01.106137 18283 net.cpp:91] Creating Layer ReLU26
I0813 08:28:01.106145 18283 net.cpp:425] ReLU26 <- InnerProduct26
I0813 08:28:01.106154 18283 net.cpp:386] ReLU26 -> InnerProduct26 (in-place)
I0813 08:28:01.106165 18283 net.cpp:141] Setting up ReLU26
I0813 08:28:01.106175 18283 net.cpp:148] Top shape: 100 128 (12800)
I0813 08:28:01.106181 18283 net.cpp:156] Memory required for data: 146848800
I0813 08:28:01.106189 18283 layer_factory.hpp:77] Creating layer drop2
I0813 08:28:01.106199 18283 net.cpp:91] Creating Layer drop2
I0813 08:28:01.106206 18283 net.cpp:425] drop2 <- InnerProduct26
I0813 08:28:01.106220 18283 net.cpp:399] drop2 -> Dropout26
I0813 08:28:01.106235 18283 net.cpp:141] Setting up drop2
I0813 08:28:01.106245 18283 net.cpp:148] Top shape: 100 128 (12800)
I0813 08:28:01.106251 18283 net.cpp:156] Memory required for data: 146900000
I0813 08:28:01.106257 18283 layer_factory.hpp:77] Creating layer m13
I0813 08:28:01.106273 18283 net.cpp:91] Creating Layer m13
I0813 08:28:01.106281 18283 net.cpp:425] m13 <- Dropout26
I0813 08:28:01.106293 18283 net.cpp:399] m13 -> m13
I0813 08:28:01.106317 18283 net.cpp:141] Setting up m13
I0813 08:28:01.106326 18283 net.cpp:148] Top shape: 100 1 (100)
I0813 08:28:01.106333 18283 net.cpp:156] Memory required for data: 146900400
I0813 08:28:01.106340 18283 net.cpp:484] Sharing parameters 'fc3_w' owned by layer 'm1', param index 0
I0813 08:28:01.106348 18283 net.cpp:484] Sharing parameters 'fc3_b' owned by layer 'm1', param index 1
I0813 08:28:01.106355 18283 layer_factory.hpp:77] Creating layer Concat14
I0813 08:28:01.106371 18283 net.cpp:91] Creating Layer Concat14
I0813 08:28:01.106379 18283 net.cpp:425] Concat14 <- i5
I0813 08:28:01.106390 18283 net.cpp:425] Concat14 <- i11_i1_10_split_4
I0813 08:28:01.106403 18283 net.cpp:399] Concat14 -> Concat14
I0813 08:28:01.106420 18283 net.cpp:141] Setting up Concat14
I0813 08:28:01.106429 18283 net.cpp:148] Top shape: 100 2 1 4096 (819200)
I0813 08:28:01.106436 18283 net.cpp:156] Memory required for data: 150177200
I0813 08:28:01.106442 18283 layer_factory.hpp:77] Creating layer InnerProduct27
I0813 08:28:01.106458 18283 net.cpp:91] Creating Layer InnerProduct27
I0813 08:28:01.106467 18283 net.cpp:425] InnerProduct27 <- Concat14
I0813 08:28:01.106477 18283 net.cpp:399] InnerProduct27 -> InnerProduct27
I0813 08:28:01.122503 18283 net.cpp:141] Setting up InnerProduct27
I0813 08:28:01.122572 18283 net.cpp:148] Top shape: 100 256 (25600)
I0813 08:28:01.122586 18283 net.cpp:156] Memory required for data: 150279600
I0813 08:28:01.122598 18283 net.cpp:484] Sharing parameters 'fc1_w' owned by layer 'InnerProduct1', param index 0
I0813 08:28:01.122608 18283 net.cpp:484] Sharing parameters 'fc1_b' owned by layer 'InnerProduct1', param index 1
I0813 08:28:01.122617 18283 layer_factory.hpp:77] Creating layer ReLU27
I0813 08:28:01.122642 18283 net.cpp:91] Creating Layer ReLU27
I0813 08:28:01.122658 18283 net.cpp:425] ReLU27 <- InnerProduct27
I0813 08:28:01.122670 18283 net.cpp:386] ReLU27 -> InnerProduct27 (in-place)
I0813 08:28:01.122692 18283 net.cpp:141] Setting up ReLU27
I0813 08:28:01.122702 18283 net.cpp:148] Top shape: 100 256 (25600)
I0813 08:28:01.122709 18283 net.cpp:156] Memory required for data: 150382000
I0813 08:28:01.122715 18283 layer_factory.hpp:77] Creating layer drop1
I0813 08:28:01.122732 18283 net.cpp:91] Creating Layer drop1
I0813 08:28:01.122740 18283 net.cpp:425] drop1 <- InnerProduct27
I0813 08:28:01.122751 18283 net.cpp:399] drop1 -> Dropout27
I0813 08:28:01.122773 18283 net.cpp:141] Setting up drop1
I0813 08:28:01.122782 18283 net.cpp:148] Top shape: 100 256 (25600)
I0813 08:28:01.122788 18283 net.cpp:156] Memory required for data: 150484400
I0813 08:28:01.122794 18283 layer_factory.hpp:77] Creating layer InnerProduct28
I0813 08:28:01.122814 18283 net.cpp:91] Creating Layer InnerProduct28
I0813 08:28:01.122822 18283 net.cpp:425] InnerProduct28 <- Dropout27
I0813 08:28:01.122836 18283 net.cpp:399] InnerProduct28 -> InnerProduct28
I0813 08:28:01.123152 18283 net.cpp:141] Setting up InnerProduct28
I0813 08:28:01.123165 18283 net.cpp:148] Top shape: 100 128 (12800)
I0813 08:28:01.123172 18283 net.cpp:156] Memory required for data: 150535600
I0813 08:28:01.123179 18283 net.cpp:484] Sharing parameters 'fc2_w' owned by layer 'InnerProduct2', param index 0
I0813 08:28:01.123188 18283 net.cpp:484] Sharing parameters 'fc2_b' owned by layer 'InnerProduct2', param index 1
I0813 08:28:01.123196 18283 layer_factory.hpp:77] Creating layer ReLU28
I0813 08:28:01.123206 18283 net.cpp:91] Creating Layer ReLU28
I0813 08:28:01.123214 18283 net.cpp:425] ReLU28 <- InnerProduct28
I0813 08:28:01.123226 18283 net.cpp:386] ReLU28 -> InnerProduct28 (in-place)
I0813 08:28:01.123239 18283 net.cpp:141] Setting up ReLU28
I0813 08:28:01.123247 18283 net.cpp:148] Top shape: 100 128 (12800)
I0813 08:28:01.123253 18283 net.cpp:156] Memory required for data: 150586800
I0813 08:28:01.123260 18283 layer_factory.hpp:77] Creating layer drop2
I0813 08:28:01.123270 18283 net.cpp:91] Creating Layer drop2
I0813 08:28:01.123277 18283 net.cpp:425] drop2 <- InnerProduct28
I0813 08:28:01.123289 18283 net.cpp:399] drop2 -> Dropout28
I0813 08:28:01.123304 18283 net.cpp:141] Setting up drop2
I0813 08:28:01.123313 18283 net.cpp:148] Top shape: 100 128 (12800)
I0813 08:28:01.123319 18283 net.cpp:156] Memory required for data: 150638000
I0813 08:28:01.123327 18283 layer_factory.hpp:77] Creating layer m14
I0813 08:28:01.123339 18283 net.cpp:91] Creating Layer m14
I0813 08:28:01.123347 18283 net.cpp:425] m14 <- Dropout28
I0813 08:28:01.123360 18283 net.cpp:399] m14 -> m14
I0813 08:28:01.123386 18283 net.cpp:141] Setting up m14
I0813 08:28:01.123395 18283 net.cpp:148] Top shape: 100 1 (100)
I0813 08:28:01.123401 18283 net.cpp:156] Memory required for data: 150638400
I0813 08:28:01.123409 18283 net.cpp:484] Sharing parameters 'fc3_w' owned by layer 'm1', param index 0
I0813 08:28:01.123417 18283 net.cpp:484] Sharing parameters 'fc3_b' owned by layer 'm1', param index 1
I0813 08:28:01.123425 18283 layer_factory.hpp:77] Creating layer Concat15
I0813 08:28:01.123437 18283 net.cpp:91] Creating Layer Concat15
I0813 08:28:01.123446 18283 net.cpp:425] Concat15 <- i6
I0813 08:28:01.123456 18283 net.cpp:425] Concat15 <- i11_i1_10_split_5
I0813 08:28:01.123471 18283 net.cpp:399] Concat15 -> Concat15
I0813 08:28:01.123488 18283 net.cpp:141] Setting up Concat15
I0813 08:28:01.123497 18283 net.cpp:148] Top shape: 100 2 1 4096 (819200)
I0813 08:28:01.123517 18283 net.cpp:156] Memory required for data: 153915200
I0813 08:28:01.123524 18283 layer_factory.hpp:77] Creating layer InnerProduct29
I0813 08:28:01.123540 18283 net.cpp:91] Creating Layer InnerProduct29
I0813 08:28:01.123548 18283 net.cpp:425] InnerProduct29 <- Concat15
I0813 08:28:01.123559 18283 net.cpp:399] InnerProduct29 -> InnerProduct29
I0813 08:28:01.139685 18283 net.cpp:141] Setting up InnerProduct29
I0813 08:28:01.139729 18283 net.cpp:148] Top shape: 100 256 (25600)
I0813 08:28:01.139736 18283 net.cpp:156] Memory required for data: 154017600
I0813 08:28:01.139750 18283 net.cpp:484] Sharing parameters 'fc1_w' owned by layer 'InnerProduct1', param index 0
I0813 08:28:01.139758 18283 net.cpp:484] Sharing parameters 'fc1_b' owned by layer 'InnerProduct1', param index 1
I0813 08:28:01.139766 18283 layer_factory.hpp:77] Creating layer ReLU29
I0813 08:28:01.139787 18283 net.cpp:91] Creating Layer ReLU29
I0813 08:28:01.139799 18283 net.cpp:425] ReLU29 <- InnerProduct29
I0813 08:28:01.139817 18283 net.cpp:386] ReLU29 -> InnerProduct29 (in-place)
I0813 08:28:01.139838 18283 net.cpp:141] Setting up ReLU29
I0813 08:28:01.139847 18283 net.cpp:148] Top shape: 100 256 (25600)
I0813 08:28:01.139853 18283 net.cpp:156] Memory required for data: 154120000
I0813 08:28:01.139860 18283 layer_factory.hpp:77] Creating layer drop1
I0813 08:28:01.139873 18283 net.cpp:91] Creating Layer drop1
I0813 08:28:01.139884 18283 net.cpp:425] drop1 <- InnerProduct29
I0813 08:28:01.139900 18283 net.cpp:399] drop1 -> Dropout29
I0813 08:28:01.139919 18283 net.cpp:141] Setting up drop1
I0813 08:28:01.139930 18283 net.cpp:148] Top shape: 100 256 (25600)
I0813 08:28:01.139936 18283 net.cpp:156] Memory required for data: 154222400
I0813 08:28:01.139942 18283 layer_factory.hpp:77] Creating layer InnerProduct30
I0813 08:28:01.139962 18283 net.cpp:91] Creating Layer InnerProduct30
I0813 08:28:01.139971 18283 net.cpp:425] InnerProduct30 <- Dropout29
I0813 08:28:01.139983 18283 net.cpp:399] InnerProduct30 -> InnerProduct30
I0813 08:28:01.140287 18283 net.cpp:141] Setting up InnerProduct30
I0813 08:28:01.140367 18283 net.cpp:148] Top shape: 100 128 (12800)
I0813 08:28:01.140377 18283 net.cpp:156] Memory required for data: 154273600
I0813 08:28:01.140385 18283 net.cpp:484] Sharing parameters 'fc2_w' owned by layer 'InnerProduct2', param index 0
I0813 08:28:01.140394 18283 net.cpp:484] Sharing parameters 'fc2_b' owned by layer 'InnerProduct2', param index 1
I0813 08:28:01.140403 18283 layer_factory.hpp:77] Creating layer ReLU30
I0813 08:28:01.140415 18283 net.cpp:91] Creating Layer ReLU30
I0813 08:28:01.140425 18283 net.cpp:425] ReLU30 <- InnerProduct30
I0813 08:28:01.140434 18283 net.cpp:386] ReLU30 -> InnerProduct30 (in-place)
I0813 08:28:01.140446 18283 net.cpp:141] Setting up ReLU30
I0813 08:28:01.140455 18283 net.cpp:148] Top shape: 100 128 (12800)
I0813 08:28:01.140462 18283 net.cpp:156] Memory required for data: 154324800
I0813 08:28:01.140470 18283 layer_factory.hpp:77] Creating layer drop2
I0813 08:28:01.140480 18283 net.cpp:91] Creating Layer drop2
I0813 08:28:01.140486 18283 net.cpp:425] drop2 <- InnerProduct30
I0813 08:28:01.140499 18283 net.cpp:399] drop2 -> Dropout30
I0813 08:28:01.140514 18283 net.cpp:141] Setting up drop2
I0813 08:28:01.140524 18283 net.cpp:148] Top shape: 100 128 (12800)
I0813 08:28:01.140530 18283 net.cpp:156] Memory required for data: 154376000
I0813 08:28:01.140537 18283 layer_factory.hpp:77] Creating layer m15
I0813 08:28:01.140552 18283 net.cpp:91] Creating Layer m15
I0813 08:28:01.140560 18283 net.cpp:425] m15 <- Dropout30
I0813 08:28:01.140573 18283 net.cpp:399] m15 -> m15
I0813 08:28:01.140597 18283 net.cpp:141] Setting up m15
I0813 08:28:01.140606 18283 net.cpp:148] Top shape: 100 1 (100)
I0813 08:28:01.140614 18283 net.cpp:156] Memory required for data: 154376400
I0813 08:28:01.140620 18283 net.cpp:484] Sharing parameters 'fc3_w' owned by layer 'm1', param index 0
I0813 08:28:01.140630 18283 net.cpp:484] Sharing parameters 'fc3_b' owned by layer 'm1', param index 1
I0813 08:28:01.140657 18283 layer_factory.hpp:77] Creating layer Concat16
I0813 08:28:01.140674 18283 net.cpp:91] Creating Layer Concat16
I0813 08:28:01.140683 18283 net.cpp:425] Concat16 <- i7
I0813 08:28:01.140693 18283 net.cpp:425] Concat16 <- i11_i1_10_split_6
I0813 08:28:01.140707 18283 net.cpp:399] Concat16 -> Concat16
I0813 08:28:01.140727 18283 net.cpp:141] Setting up Concat16
I0813 08:28:01.140735 18283 net.cpp:148] Top shape: 100 2 1 4096 (819200)
I0813 08:28:01.140741 18283 net.cpp:156] Memory required for data: 157653200
I0813 08:28:01.140748 18283 layer_factory.hpp:77] Creating layer InnerProduct31
I0813 08:28:01.140789 18283 net.cpp:91] Creating Layer InnerProduct31
I0813 08:28:01.140796 18283 net.cpp:425] InnerProduct31 <- Concat16
I0813 08:28:01.140810 18283 net.cpp:399] InnerProduct31 -> InnerProduct31
I0813 08:28:01.156802 18283 net.cpp:141] Setting up InnerProduct31
I0813 08:28:01.156841 18283 net.cpp:148] Top shape: 100 256 (25600)
I0813 08:28:01.156847 18283 net.cpp:156] Memory required for data: 157755600
I0813 08:28:01.156859 18283 net.cpp:484] Sharing parameters 'fc1_w' owned by layer 'InnerProduct1', param index 0
I0813 08:28:01.156869 18283 net.cpp:484] Sharing parameters 'fc1_b' owned by layer 'InnerProduct1', param index 1
I0813 08:28:01.156878 18283 layer_factory.hpp:77] Creating layer ReLU31
I0813 08:28:01.156899 18283 net.cpp:91] Creating Layer ReLU31
I0813 08:28:01.156918 18283 net.cpp:425] ReLU31 <- InnerProduct31
I0813 08:28:01.156941 18283 net.cpp:386] ReLU31 -> InnerProduct31 (in-place)
I0813 08:28:01.156962 18283 net.cpp:141] Setting up ReLU31
I0813 08:28:01.156972 18283 net.cpp:148] Top shape: 100 256 (25600)
I0813 08:28:01.156980 18283 net.cpp:156] Memory required for data: 157858000
I0813 08:28:01.156986 18283 layer_factory.hpp:77] Creating layer drop1
I0813 08:28:01.157001 18283 net.cpp:91] Creating Layer drop1
I0813 08:28:01.157009 18283 net.cpp:425] drop1 <- InnerProduct31
I0813 08:28:01.157024 18283 net.cpp:399] drop1 -> Dropout31
I0813 08:28:01.157045 18283 net.cpp:141] Setting up drop1
I0813 08:28:01.157055 18283 net.cpp:148] Top shape: 100 256 (25600)
I0813 08:28:01.157061 18283 net.cpp:156] Memory required for data: 157960400
I0813 08:28:01.157068 18283 layer_factory.hpp:77] Creating layer InnerProduct32
I0813 08:28:01.157086 18283 net.cpp:91] Creating Layer InnerProduct32
I0813 08:28:01.157096 18283 net.cpp:425] InnerProduct32 <- Dropout31
I0813 08:28:01.157111 18283 net.cpp:399] InnerProduct32 -> InnerProduct32
I0813 08:28:01.157405 18283 net.cpp:141] Setting up InnerProduct32
I0813 08:28:01.157416 18283 net.cpp:148] Top shape: 100 128 (12800)
I0813 08:28:01.157423 18283 net.cpp:156] Memory required for data: 158011600
I0813 08:28:01.157430 18283 net.cpp:484] Sharing parameters 'fc2_w' owned by layer 'InnerProduct2', param index 0
I0813 08:28:01.157439 18283 net.cpp:484] Sharing parameters 'fc2_b' owned by layer 'InnerProduct2', param index 1
I0813 08:28:01.157447 18283 layer_factory.hpp:77] Creating layer ReLU32
I0813 08:28:01.157459 18283 net.cpp:91] Creating Layer ReLU32
I0813 08:28:01.157466 18283 net.cpp:425] ReLU32 <- InnerProduct32
I0813 08:28:01.157475 18283 net.cpp:386] ReLU32 -> InnerProduct32 (in-place)
I0813 08:28:01.157487 18283 net.cpp:141] Setting up ReLU32
I0813 08:28:01.157498 18283 net.cpp:148] Top shape: 100 128 (12800)
I0813 08:28:01.157505 18283 net.cpp:156] Memory required for data: 158062800
I0813 08:28:01.157511 18283 layer_factory.hpp:77] Creating layer drop2
I0813 08:28:01.157528 18283 net.cpp:91] Creating Layer drop2
I0813 08:28:01.157538 18283 net.cpp:425] drop2 <- InnerProduct32
I0813 08:28:01.157548 18283 net.cpp:399] drop2 -> Dropout32
I0813 08:28:01.157562 18283 net.cpp:141] Setting up drop2
I0813 08:28:01.157575 18283 net.cpp:148] Top shape: 100 128 (12800)
I0813 08:28:01.157584 18283 net.cpp:156] Memory required for data: 158114000
I0813 08:28:01.157591 18283 layer_factory.hpp:77] Creating layer m16
I0813 08:28:01.157604 18283 net.cpp:91] Creating Layer m16
I0813 08:28:01.157613 18283 net.cpp:425] m16 <- Dropout32
I0813 08:28:01.157629 18283 net.cpp:399] m16 -> m16
I0813 08:28:01.157675 18283 net.cpp:141] Setting up m16
I0813 08:28:01.157686 18283 net.cpp:148] Top shape: 100 1 (100)
I0813 08:28:01.157692 18283 net.cpp:156] Memory required for data: 158114400
I0813 08:28:01.157701 18283 net.cpp:484] Sharing parameters 'fc3_w' owned by layer 'm1', param index 0
I0813 08:28:01.157708 18283 net.cpp:484] Sharing parameters 'fc3_b' owned by layer 'm1', param index 1
I0813 08:28:01.157716 18283 layer_factory.hpp:77] Creating layer Concat17
I0813 08:28:01.157729 18283 net.cpp:91] Creating Layer Concat17
I0813 08:28:01.157739 18283 net.cpp:425] Concat17 <- i8
I0813 08:28:01.157750 18283 net.cpp:425] Concat17 <- i11_i1_10_split_7
I0813 08:28:01.157763 18283 net.cpp:399] Concat17 -> Concat17
I0813 08:28:01.157780 18283 net.cpp:141] Setting up Concat17
I0813 08:28:01.157789 18283 net.cpp:148] Top shape: 100 2 1 4096 (819200)
I0813 08:28:01.157795 18283 net.cpp:156] Memory required for data: 161391200
I0813 08:28:01.157802 18283 layer_factory.hpp:77] Creating layer InnerProduct33
I0813 08:28:01.157819 18283 net.cpp:91] Creating Layer InnerProduct33
I0813 08:28:01.157826 18283 net.cpp:425] InnerProduct33 <- Concat17
I0813 08:28:01.157840 18283 net.cpp:399] InnerProduct33 -> InnerProduct33
I0813 08:28:01.174221 18283 net.cpp:141] Setting up InnerProduct33
I0813 08:28:01.174262 18283 net.cpp:148] Top shape: 100 256 (25600)
I0813 08:28:01.174268 18283 net.cpp:156] Memory required for data: 161493600
I0813 08:28:01.174280 18283 net.cpp:484] Sharing parameters 'fc1_w' owned by layer 'InnerProduct1', param index 0
I0813 08:28:01.174289 18283 net.cpp:484] Sharing parameters 'fc1_b' owned by layer 'InnerProduct1', param index 1
I0813 08:28:01.174299 18283 layer_factory.hpp:77] Creating layer ReLU33
I0813 08:28:01.174321 18283 net.cpp:91] Creating Layer ReLU33
I0813 08:28:01.174340 18283 net.cpp:425] ReLU33 <- InnerProduct33
I0813 08:28:01.174360 18283 net.cpp:386] ReLU33 -> InnerProduct33 (in-place)
I0813 08:28:01.174382 18283 net.cpp:141] Setting up ReLU33
I0813 08:28:01.174393 18283 net.cpp:148] Top shape: 100 256 (25600)
I0813 08:28:01.174399 18283 net.cpp:156] Memory required for data: 161596000
I0813 08:28:01.174407 18283 layer_factory.hpp:77] Creating layer drop1
I0813 08:28:01.174422 18283 net.cpp:91] Creating Layer drop1
I0813 08:28:01.174430 18283 net.cpp:425] drop1 <- InnerProduct33
I0813 08:28:01.174444 18283 net.cpp:399] drop1 -> Dropout33
I0813 08:28:01.174463 18283 net.cpp:141] Setting up drop1
I0813 08:28:01.174481 18283 net.cpp:148] Top shape: 100 256 (25600)
I0813 08:28:01.174489 18283 net.cpp:156] Memory required for data: 161698400
I0813 08:28:01.174495 18283 layer_factory.hpp:77] Creating layer InnerProduct34
I0813 08:28:01.174512 18283 net.cpp:91] Creating Layer InnerProduct34
I0813 08:28:01.174522 18283 net.cpp:425] InnerProduct34 <- Dropout33
I0813 08:28:01.174537 18283 net.cpp:399] InnerProduct34 -> InnerProduct34
I0813 08:28:01.174829 18283 net.cpp:141] Setting up InnerProduct34
I0813 08:28:01.174839 18283 net.cpp:148] Top shape: 100 128 (12800)
I0813 08:28:01.174846 18283 net.cpp:156] Memory required for data: 161749600
I0813 08:28:01.174855 18283 net.cpp:484] Sharing parameters 'fc2_w' owned by layer 'InnerProduct2', param index 0
I0813 08:28:01.174865 18283 net.cpp:484] Sharing parameters 'fc2_b' owned by layer 'InnerProduct2', param index 1
I0813 08:28:01.174871 18283 layer_factory.hpp:77] Creating layer ReLU34
I0813 08:28:01.174881 18283 net.cpp:91] Creating Layer ReLU34
I0813 08:28:01.174892 18283 net.cpp:425] ReLU34 <- InnerProduct34
I0813 08:28:01.174906 18283 net.cpp:386] ReLU34 -> InnerProduct34 (in-place)
I0813 08:28:01.174922 18283 net.cpp:141] Setting up ReLU34
I0813 08:28:01.174934 18283 net.cpp:148] Top shape: 100 128 (12800)
I0813 08:28:01.174942 18283 net.cpp:156] Memory required for data: 161800800
I0813 08:28:01.174949 18283 layer_factory.hpp:77] Creating layer drop2
I0813 08:28:01.174959 18283 net.cpp:91] Creating Layer drop2
I0813 08:28:01.174967 18283 net.cpp:425] drop2 <- InnerProduct34
I0813 08:28:01.174978 18283 net.cpp:399] drop2 -> Dropout34
I0813 08:28:01.175014 18283 net.cpp:141] Setting up drop2
I0813 08:28:01.175027 18283 net.cpp:148] Top shape: 100 128 (12800)
I0813 08:28:01.175034 18283 net.cpp:156] Memory required for data: 161852000
I0813 08:28:01.175040 18283 layer_factory.hpp:77] Creating layer m17
I0813 08:28:01.175057 18283 net.cpp:91] Creating Layer m17
I0813 08:28:01.175068 18283 net.cpp:425] m17 <- Dropout34
I0813 08:28:01.175084 18283 net.cpp:399] m17 -> m17
I0813 08:28:01.175114 18283 net.cpp:141] Setting up m17
I0813 08:28:01.175124 18283 net.cpp:148] Top shape: 100 1 (100)
I0813 08:28:01.175130 18283 net.cpp:156] Memory required for data: 161852400
I0813 08:28:01.175137 18283 net.cpp:484] Sharing parameters 'fc3_w' owned by layer 'm1', param index 0
I0813 08:28:01.175145 18283 net.cpp:484] Sharing parameters 'fc3_b' owned by layer 'm1', param index 1
I0813 08:28:01.175153 18283 layer_factory.hpp:77] Creating layer Concat18
I0813 08:28:01.175165 18283 net.cpp:91] Creating Layer Concat18
I0813 08:28:01.175175 18283 net.cpp:425] Concat18 <- i9
I0813 08:28:01.175186 18283 net.cpp:425] Concat18 <- i11_i1_10_split_8
I0813 08:28:01.175202 18283 net.cpp:399] Concat18 -> Concat18
I0813 08:28:01.175220 18283 net.cpp:141] Setting up Concat18
I0813 08:28:01.175230 18283 net.cpp:148] Top shape: 100 2 1 4096 (819200)
I0813 08:28:01.175236 18283 net.cpp:156] Memory required for data: 165129200
I0813 08:28:01.175243 18283 layer_factory.hpp:77] Creating layer InnerProduct35
I0813 08:28:01.175256 18283 net.cpp:91] Creating Layer InnerProduct35
I0813 08:28:01.175264 18283 net.cpp:425] InnerProduct35 <- Concat18
I0813 08:28:01.175278 18283 net.cpp:399] InnerProduct35 -> InnerProduct35
I0813 08:28:01.191346 18283 net.cpp:141] Setting up InnerProduct35
I0813 08:28:01.191387 18283 net.cpp:148] Top shape: 100 256 (25600)
I0813 08:28:01.191395 18283 net.cpp:156] Memory required for data: 165231600
I0813 08:28:01.191406 18283 net.cpp:484] Sharing parameters 'fc1_w' owned by layer 'InnerProduct1', param index 0
I0813 08:28:01.191416 18283 net.cpp:484] Sharing parameters 'fc1_b' owned by layer 'InnerProduct1', param index 1
I0813 08:28:01.191424 18283 layer_factory.hpp:77] Creating layer ReLU35
I0813 08:28:01.191444 18283 net.cpp:91] Creating Layer ReLU35
I0813 08:28:01.191457 18283 net.cpp:425] ReLU35 <- InnerProduct35
I0813 08:28:01.191475 18283 net.cpp:386] ReLU35 -> InnerProduct35 (in-place)
I0813 08:28:01.191498 18283 net.cpp:141] Setting up ReLU35
I0813 08:28:01.191507 18283 net.cpp:148] Top shape: 100 256 (25600)
I0813 08:28:01.191514 18283 net.cpp:156] Memory required for data: 165334000
I0813 08:28:01.191521 18283 layer_factory.hpp:77] Creating layer drop1
I0813 08:28:01.191535 18283 net.cpp:91] Creating Layer drop1
I0813 08:28:01.191545 18283 net.cpp:425] drop1 <- InnerProduct35
I0813 08:28:01.191560 18283 net.cpp:399] drop1 -> Dropout35
I0813 08:28:01.191581 18283 net.cpp:141] Setting up drop1
I0813 08:28:01.191591 18283 net.cpp:148] Top shape: 100 256 (25600)
I0813 08:28:01.191598 18283 net.cpp:156] Memory required for data: 165436400
I0813 08:28:01.191606 18283 layer_factory.hpp:77] Creating layer InnerProduct36
I0813 08:28:01.191622 18283 net.cpp:91] Creating Layer InnerProduct36
I0813 08:28:01.191632 18283 net.cpp:425] InnerProduct36 <- Dropout35
I0813 08:28:01.191648 18283 net.cpp:399] InnerProduct36 -> InnerProduct36
I0813 08:28:01.191946 18283 net.cpp:141] Setting up InnerProduct36
I0813 08:28:01.191957 18283 net.cpp:148] Top shape: 100 128 (12800)
I0813 08:28:01.191963 18283 net.cpp:156] Memory required for data: 165487600
I0813 08:28:01.191972 18283 net.cpp:484] Sharing parameters 'fc2_w' owned by layer 'InnerProduct2', param index 0
I0813 08:28:01.191982 18283 net.cpp:484] Sharing parameters 'fc2_b' owned by layer 'InnerProduct2', param index 1
I0813 08:28:01.191989 18283 layer_factory.hpp:77] Creating layer ReLU36
I0813 08:28:01.192000 18283 net.cpp:91] Creating Layer ReLU36
I0813 08:28:01.192008 18283 net.cpp:425] ReLU36 <- InnerProduct36
I0813 08:28:01.192021 18283 net.cpp:386] ReLU36 -> InnerProduct36 (in-place)
I0813 08:28:01.192052 18283 net.cpp:141] Setting up ReLU36
I0813 08:28:01.192090 18283 net.cpp:148] Top shape: 100 128 (12800)
I0813 08:28:01.192097 18283 net.cpp:156] Memory required for data: 165538800
I0813 08:28:01.192104 18283 layer_factory.hpp:77] Creating layer drop2
I0813 08:28:01.192116 18283 net.cpp:91] Creating Layer drop2
I0813 08:28:01.192126 18283 net.cpp:425] drop2 <- InnerProduct36
I0813 08:28:01.192139 18283 net.cpp:399] drop2 -> Dropout36
I0813 08:28:01.192157 18283 net.cpp:141] Setting up drop2
I0813 08:28:01.192167 18283 net.cpp:148] Top shape: 100 128 (12800)
I0813 08:28:01.192173 18283 net.cpp:156] Memory required for data: 165590000
I0813 08:28:01.192179 18283 layer_factory.hpp:77] Creating layer m18
I0813 08:28:01.192193 18283 net.cpp:91] Creating Layer m18
I0813 08:28:01.192203 18283 net.cpp:425] m18 <- Dropout36
I0813 08:28:01.192217 18283 net.cpp:399] m18 -> m18
I0813 08:28:01.192246 18283 net.cpp:141] Setting up m18
I0813 08:28:01.192255 18283 net.cpp:148] Top shape: 100 1 (100)
I0813 08:28:01.192261 18283 net.cpp:156] Memory required for data: 165590400
I0813 08:28:01.192270 18283 net.cpp:484] Sharing parameters 'fc3_w' owned by layer 'm1', param index 0
I0813 08:28:01.192277 18283 net.cpp:484] Sharing parameters 'fc3_b' owned by layer 'm1', param index 1
I0813 08:28:01.192286 18283 layer_factory.hpp:77] Creating layer Concat19
I0813 08:28:01.192298 18283 net.cpp:91] Creating Layer Concat19
I0813 08:28:01.192306 18283 net.cpp:425] Concat19 <- i10
I0813 08:28:01.192317 18283 net.cpp:425] Concat19 <- i11_i1_10_split_9
I0813 08:28:01.192332 18283 net.cpp:399] Concat19 -> Concat19
I0813 08:28:01.192348 18283 net.cpp:141] Setting up Concat19
I0813 08:28:01.192358 18283 net.cpp:148] Top shape: 100 2 1 4096 (819200)
I0813 08:28:01.192364 18283 net.cpp:156] Memory required for data: 168867200
I0813 08:28:01.192371 18283 layer_factory.hpp:77] Creating layer InnerProduct37
I0813 08:28:01.192384 18283 net.cpp:91] Creating Layer InnerProduct37
I0813 08:28:01.192396 18283 net.cpp:425] InnerProduct37 <- Concat19
I0813 08:28:01.192407 18283 net.cpp:399] InnerProduct37 -> InnerProduct37
I0813 08:28:01.208822 18283 net.cpp:141] Setting up InnerProduct37
I0813 08:28:01.208868 18283 net.cpp:148] Top shape: 100 256 (25600)
I0813 08:28:01.208875 18283 net.cpp:156] Memory required for data: 168969600
I0813 08:28:01.208887 18283 net.cpp:484] Sharing parameters 'fc1_w' owned by layer 'InnerProduct1', param index 0
I0813 08:28:01.208897 18283 net.cpp:484] Sharing parameters 'fc1_b' owned by layer 'InnerProduct1', param index 1
I0813 08:28:01.208905 18283 layer_factory.hpp:77] Creating layer ReLU37
I0813 08:28:01.208930 18283 net.cpp:91] Creating Layer ReLU37
I0813 08:28:01.208945 18283 net.cpp:425] ReLU37 <- InnerProduct37
I0813 08:28:01.208958 18283 net.cpp:386] ReLU37 -> InnerProduct37 (in-place)
I0813 08:28:01.208978 18283 net.cpp:141] Setting up ReLU37
I0813 08:28:01.208988 18283 net.cpp:148] Top shape: 100 256 (25600)
I0813 08:28:01.208994 18283 net.cpp:156] Memory required for data: 169072000
I0813 08:28:01.209002 18283 layer_factory.hpp:77] Creating layer drop1
I0813 08:28:01.209015 18283 net.cpp:91] Creating Layer drop1
I0813 08:28:01.209024 18283 net.cpp:425] drop1 <- InnerProduct37
I0813 08:28:01.209039 18283 net.cpp:399] drop1 -> Dropout37
I0813 08:28:01.209059 18283 net.cpp:141] Setting up drop1
I0813 08:28:01.209069 18283 net.cpp:148] Top shape: 100 256 (25600)
I0813 08:28:01.209076 18283 net.cpp:156] Memory required for data: 169174400
I0813 08:28:01.209084 18283 layer_factory.hpp:77] Creating layer InnerProduct38
I0813 08:28:01.209108 18283 net.cpp:91] Creating Layer InnerProduct38
I0813 08:28:01.209116 18283 net.cpp:425] InnerProduct38 <- Dropout37
I0813 08:28:01.209128 18283 net.cpp:399] InnerProduct38 -> InnerProduct38
I0813 08:28:01.209431 18283 net.cpp:141] Setting up InnerProduct38
I0813 08:28:01.209444 18283 net.cpp:148] Top shape: 100 128 (12800)
I0813 08:28:01.209450 18283 net.cpp:156] Memory required for data: 169225600
I0813 08:28:01.209458 18283 net.cpp:484] Sharing parameters 'fc2_w' owned by layer 'InnerProduct2', param index 0
I0813 08:28:01.209489 18283 net.cpp:484] Sharing parameters 'fc2_b' owned by layer 'InnerProduct2', param index 1
I0813 08:28:01.209498 18283 layer_factory.hpp:77] Creating layer ReLU38
I0813 08:28:01.209517 18283 net.cpp:91] Creating Layer ReLU38
I0813 08:28:01.209527 18283 net.cpp:425] ReLU38 <- InnerProduct38
I0813 08:28:01.209537 18283 net.cpp:386] ReLU38 -> InnerProduct38 (in-place)
I0813 08:28:01.209548 18283 net.cpp:141] Setting up ReLU38
I0813 08:28:01.209558 18283 net.cpp:148] Top shape: 100 128 (12800)
I0813 08:28:01.209565 18283 net.cpp:156] Memory required for data: 169276800
I0813 08:28:01.209573 18283 layer_factory.hpp:77] Creating layer drop2
I0813 08:28:01.209583 18283 net.cpp:91] Creating Layer drop2
I0813 08:28:01.209590 18283 net.cpp:425] drop2 <- InnerProduct38
I0813 08:28:01.209607 18283 net.cpp:399] drop2 -> Dropout38
I0813 08:28:01.209625 18283 net.cpp:141] Setting up drop2
I0813 08:28:01.209635 18283 net.cpp:148] Top shape: 100 128 (12800)
I0813 08:28:01.209640 18283 net.cpp:156] Memory required for data: 169328000
I0813 08:28:01.209647 18283 layer_factory.hpp:77] Creating layer m19
I0813 08:28:01.209659 18283 net.cpp:91] Creating Layer m19
I0813 08:28:01.209671 18283 net.cpp:425] m19 <- Dropout38
I0813 08:28:01.209688 18283 net.cpp:399] m19 -> m19
I0813 08:28:01.209717 18283 net.cpp:141] Setting up m19
I0813 08:28:01.209727 18283 net.cpp:148] Top shape: 100 1 (100)
I0813 08:28:01.209731 18283 net.cpp:156] Memory required for data: 169328400
I0813 08:28:01.209739 18283 net.cpp:484] Sharing parameters 'fc3_w' owned by layer 'm1', param index 0
I0813 08:28:01.209748 18283 net.cpp:484] Sharing parameters 'fc3_b' owned by layer 'm1', param index 1
I0813 08:28:01.209755 18283 layer_factory.hpp:77] Creating layer con
I0813 08:28:01.209779 18283 net.cpp:91] Creating Layer con
…
I0813 08:28:01.209873 18283 net.cpp:425] con <- m11
I0813 08:28:01.209880 18283 net.cpp:425] con <- m12
I0813 08:28:01.209887 18283 net.cpp:425] con <- m13
I0813 08:28:01.209894 18283 net.cpp:425] con <- m14
I0813 08:28:01.209903 18283 net.cpp:425] con <- m15
I0813 08:28:01.209909 18283 net.cpp:425] con <- m16
I0813 08:28:01.209918 18283 net.cpp:425] con <- m17
I0813 08:28:01.209925 18283 net.cpp:425] con <- m18
I0813 08:28:01.209933 18283 net.cpp:425] con <- m19
I0813 08:28:01.209945 18283 net.cpp:399] con -> con
I0813 08:28:01.209970 18283 net.cpp:141] Setting up con
I0813 08:28:01.209980 18283 net.cpp:148] Top shape: 100 19 (1900)
I0813 08:28:01.209985 18283 net.cpp:156] Memory required for data: 169336000
I0813 08:28:01.209992 18283 layer_factory.hpp:77] Creating layer r1
I0813 08:28:01.210011 18283 net.cpp:91] Creating Layer r1
I0813 08:28:01.210021 18283 net.cpp:425] r1 <- con
I0813 08:28:01.210031 18283 net.cpp:399] r1 -> r1
I0813 08:28:01.210060 18283 net.cpp:141] Setting up r1
I0813 08:28:01.210072 18283 net.cpp:148] Top shape: 100 1 1 19 (1900)
I0813 08:28:01.210078 18283 net.cpp:156] Memory required for data: 169343600
I0813 08:28:01.210083 18283 layer_factory.hpp:77] Creating layer p
I0813 08:28:01.210099 18283 net.cpp:91] Creating Layer p
I0813 08:28:01.210109 18283 net.cpp:425] p <- r1
I0813 08:28:01.210124 18283 net.cpp:399] p -> p
I0813 08:28:01.210161 18283 net.cpp:141] Setting up p
I0813 08:28:01.210172 18283 net.cpp:148] Top shape: 100 1 1 1 (100)
I0813 08:28:01.210178 18283 net.cpp:156] Memory required for data: 169344000
I0813 08:28:01.210185 18283 layer_factory.hpp:77] Creating layer r2
I0813 08:28:01.210196 18283 net.cpp:91] Creating Layer r2
I0813 08:28:01.210203 18283 net.cpp:425] r2 <- p
I0813 08:28:01.210232 18283 net.cpp:399] r2 -> r2
I0813 08:28:01.210250 18283 net.cpp:141] Setting up r2
I0813 08:28:01.210261 18283 net.cpp:148] Top shape: 100 1 1 1 (100)
I0813 08:28:01.210268 18283 net.cpp:156] Memory required for data: 169344400
I0813 08:28:01.210274 18283 layer_factory.hpp:77] Creating layer padL
I0813 08:28:01.210285 18283 net.cpp:91] Creating Layer padL
I0813 08:28:01.210292 18283 net.cpp:425] padL <- label_data_1_split_1
I0813 08:28:01.210309 18283 net.cpp:399] padL -> padL
I0813 08:28:01.210325 18283 net.cpp:141] Setting up padL
I0813 08:28:01.210335 18283 net.cpp:148] Top shape: 100 1 1 1 (100)
I0813 08:28:01.210340 18283 net.cpp:156] Memory required for data: 169344800
I0813 08:28:01.210347 18283 layer_factory.hpp:77] Creating layer pad
I0813 08:28:01.210358 18283 net.cpp:91] Creating Layer pad
I0813 08:28:01.210371 18283 net.cpp:425] pad <- r2
I0813 08:28:01.210379 18283 net.cpp:425] pad <- padL
I0813 08:28:01.210392 18283 net.cpp:399] pad -> pad
I0813 08:28:01.210407 18283 net.cpp:141] Setting up pad
I0813 08:28:01.210418 18283 net.cpp:148] Top shape: 100 2 1 1 (200)
I0813 08:28:01.210424 18283 net.cpp:156] Memory required for data: 169345600
I0813 08:28:01.210432 18283 layer_factory.hpp:77] Creating layer pad_pad_0_split
I0813 08:28:01.210443 18283 net.cpp:91] Creating Layer pad_pad_0_split
I0813 08:28:01.210450 18283 net.cpp:425] pad_pad_0_split <- pad
I0813 08:28:01.210463 18283 net.cpp:399] pad_pad_0_split -> pad_pad_0_split_0
I0813 08:28:01.210479 18283 net.cpp:399] pad_pad_0_split -> pad_pad_0_split_1
I0813 08:28:01.210492 18283 net.cpp:141] Setting up pad_pad_0_split
I0813 08:28:01.210503 18283 net.cpp:148] Top shape: 100 2 1 1 (200)
I0813 08:28:01.210511 18283 net.cpp:148] Top shape: 100 2 1 1 (200)
I0813 08:28:01.210517 18283 net.cpp:156] Memory required for data: 169347200
I0813 08:28:01.210525 18283 layer_factory.hpp:77] Creating layer loss
I0813 08:28:01.210536 18283 net.cpp:91] Creating Layer loss
I0813 08:28:01.210544 18283 net.cpp:425] loss <- pad_pad_0_split_0
I0813 08:28:01.210556 18283 net.cpp:425] loss <- th_th_0_split_0
I0813 08:28:01.210566 18283 net.cpp:399] loss -> loss
…
