…
snapshot: 5000
snapshot_prefix: "examples/scene/scene"
solver_mode: CPU
I0810 12:46:19.047082 13394 solver.cpp:81] Creating training net from train_net file: examples/scene/metNetTrain.prototxt
I0810 12:46:19.056403 13394 net.cpp:49] Initializing net from parameters: 
state {
  phase: TRAIN
}
layer {
  name: "data"
  type: "Data"
  top: "data"
  top: "label"
  include {
    phase: TRAIN
  }
  transform_param {
    scale: 1
    mirror: false
  }
  data_param {
    source: "/home/shaogangwang/Datasets/FeatsDB/featsTrain10k"
    batch_size: 64
    backend: LMDB
  }
}
layer {
  name: "th"
  type: "Threshold"
  bottom: "label"
  top: "th"
  threshold_param {
    threshold: 0
  }
}
layer {
  name: "i1"
  type: "Slice"
  bottom: "data"
  top: "i1"
  top: "i2"
  top: "i3"
  top: "i4"
  top: "i5"
  top: "i6"
  top: "i7"
  top: "i8"
  top: "i9"
  top: "i10"
  top: "i11"
  top: "i12"
  top: "i13"
  top: "i14"
  top: "i15"
  top: "i16"
  top: "i17"
  top: "i18"
  top: "i19"
  top: "i20"
  slice_param {
    slice_dim: 2
    slice_point: 1
    slice_point: 2
    slice_point: 3
    slice_point: 4
    slice_point: 5
    slice_point: 6
    slice_point: 7
    slice_point: 8
    slice_point: 9
    slice_point: 10
    slice_point: 11
    slice_point: 12
    slice_point: 13
    slice_point: 14
    slice_point: 15
    slice_point: 16
    slice_point: 17
    slice_point: 18
    slice_point: 19
  }
}
layer {
  name: "Concat1"
  type: "Concat"
  bottom: "i1"
  bottom: "i11"
  top: "Concat1"
  concat_param {
    axis: 1
  }
}
layer {
  name: "InnerProduct1"
  type: "InnerProduct"
  bottom: "Concat1"
  top: "InnerProduct1"
  param {
    name: "fc1_w"
    lr_mult: 1
  }
  param {
    name: "fc1_b"
    lr_mult: 2
  }
  inner_product_param {
    num_output: 64
    weight_filler {
      type: "xavier"
    }
    bias_filler {
      type: "constant"
    }
  }
}
layer {
  name: "ReLU1"
  type: "ReLU"
  bottom: "InnerProduct1"
  top: "InnerProduct1"
}
layer {
  name: "drop1"
  type: "Dropout"
  bottom: "InnerProduct1"
  top: "Dropout1"
  dropout_param {
    dropout_ratio: 0.5
  }
}
layer {
  name: "InnerProduct2"
  type: "InnerProduct"
  bottom: "Dropout1"
  top: "InnerProduct2"
  param {
    name: "fc2_w"
    lr_mult: 1
  }
  param {
    name: "fc2_b"
    lr_mult: 2
  }
  inner_product_param {
    num_output: 64
    weight_filler {
      type: "xavier"
    }
    bias_filler {
      type: "constant"
    }
  }
}
layer {
  name: "ReLU2"
  type: "ReLU"
  bottom: "InnerProduct2"
  top: "InnerProduct2"
}
layer {
  name: "drop2"
  type: "Dropout"
  bottom: "InnerProduct2"
  top: "Dropout2"
  dropout_param {
    dropout_ratio: 0.5
  }
}
layer {
  name: "m1"
  type: "InnerProduct"
  bottom: "Dropout2"
  top: "m1"
  param {
    name: "fc3_w"
    lr_mult: 1
  }
  param {
    name: "fc3_b"
    lr_mult: 2
  }
  inner_product_param {
    num_output: 1
    weight_filler {
      type: "xavier"
    }
    bias_filler {
      type: "constant"
    }
  }
}
layer {
  name: "Concat2"
  type: "Concat"
  bottom: "i1"
  bottom: "i12"
  top: "Concat2"
  concat_param {
    axis: 1
  }
}
layer {
  name: "InnerProduct3"
  type: "InnerProduct"
  bottom: "Concat2"
  top: "InnerProduct3"
  param {
    name: "fc1_w"
    lr_mult: 1
  }
  param {
    name: "fc1_b"
    lr_mult: 2
  }
  inner_product_param {
    num_output: 64
    weight_filler {
      type: "xavier"
    }
    bias_filler {
      type: "constant"
    }
  }
}
layer {
  name: "ReLU3"
  type: "ReLU"
  bottom: "InnerProduct3"
  top: "InnerProduct3"
}
layer {
  name: "drop1"
  type: "Dropout"
  bottom: "InnerProduct3"
  top: "Dropout3"
  dropout_param {
    dropout_ratio: 0.5
  }
}
layer {
  name: "InnerProduct4"
  type: "InnerProduct"
  bottom: "Dropout3"
  top: "InnerProduct4"
  param {
    name: "fc2_w"
    lr_mult: 1
  }
  param {
    name: "fc2_b"
    lr_mult: 2
  }
  inner_product_param {
    num_output: 64
    weight_filler {
      type: "xavier"
    }
    bias_filler {
      type: "constant"
    }
  }
}
layer {
  name: "ReLU4"
  type: "ReLU"
  bottom: "InnerProduct4"
  top: "InnerProduct4"
}
layer {
  name: "drop2"
  type: "Dropout"
  bottom: "InnerProduct4"
  top: "Dropout4"
  dropout_param {
    dropout_ratio: 0.5
  }
}
layer {
  name: "m2"
  type: "InnerProduct"
  bottom: "Dropout4"
  top: "m2"
  param {
    name: "fc3_w"
    lr_mult: 1
  }
  param {
    name: "fc3_b"
    lr_mult: 2
  }
  inner_product_param {
    num_output: 1
    weight_filler {
      type: "xavier"
    }
    bias_filler {
      type: "constant"
    }
  }
}
layer {
  name: "Concat3"
  type: "Concat"
  bottom: "i1"
  bottom: "i13"
  top: "Concat3"
  concat_param {
    axis: 1
  }
}
layer {
  name: "InnerProduct5"
  type: "InnerProduct"
  bottom: "Concat3"
  top: "InnerProduct5"
  param {
    name: "fc1_w"
    lr_mult: 1
  }
  param {
    name: "fc1_b"
    lr_mult: 2
  }
  inner_product_param {
    num_output: 64
    weight_filler {
      type: "xavier"
    }
    bias_filler {
      type: "constant"
    }
  }
}
layer {
  name: "ReLU5"
  type: "ReLU"
  bottom: "InnerProduct5"
  top: "InnerProduct5"
}
layer {
  name: "drop1"
  type: "Dropout"
  bottom: "InnerProduct5"
  top: "Dropout5"
  dropout_param {
    dropout_ratio: 0.5
  }
}
layer {
  name: "InnerProduct6"
  type: "InnerProduct"
  bottom: "Dropout5"
  top: "InnerProduct6"
  param {
    name: "fc2_w"
    lr_mult: 1
  }
  param {
    name: "fc2_b"
    lr_mult: 2
  }
  inner_product_param {
    num_output: 64
    weight_filler {
      type: "xavier"
    }
    bias_filler {
      type: "constant"
    }
  }
}
layer {
  name: "ReLU6"
  type: "ReLU"
  bottom: "InnerProduct6"
  top: "InnerProduct6"
}
layer {
  name: "drop2"
  type: "Dropout"
  bottom: "InnerProduct6"
  top: "Dropout6"
  dropout_param {
    dropout_ratio: 0.5
  }
}
layer {
  name: "m3"
  type: "InnerProduct"
  bottom: "Dropout6"
  top: "m3"
  param {
    name: "fc3_w"
    lr_mult: 1
  }
  param {
    name: "fc3_b"
    lr_mult: 2
  }
  inner_product_param {
    num_output: 1
    weight_filler {
      type: "xavier"
    }
    bias_filler {
      type: "constant"
    }
  }
}
layer {
  name: "Concat4"
  type: "Concat"
  bottom: "i1"
  bottom: "i14"
  top: "Concat4"
  concat_param {
    axis: 1
  }
}
layer {
  name: "InnerProduct7"
  type: "InnerProduct"
  bottom: "Concat4"
  top: "InnerProduct7"
  param {
    name: "fc1_w"
    lr_mult: 1
  }
  param {
    name: "fc1_b"
    lr_mult: 2
  }
  inner_product_param {
    num_output: 64
    weight_filler {
      type: "xavier"
    }
    bias_filler {
      type: "constant"
    }
  }
}
layer {
  name: "ReLU7"
  type: "ReLU"
  bottom: "InnerProduct7"
  top: "InnerProduct7"
}
layer {
  name: "drop1"
  type: "Dropout"
  bottom: "InnerProduct7"
  top: "Dropout7"
  dropout_param {
    dropout_ratio: 0.5
  }
}
layer {
  name: "InnerProduct8"
  type: "InnerProduct"
  bottom: "Dropout7"
  top: "InnerProduct8"
  param {
    name: "fc2_w"
    lr_mult: 1
  }
  param {
    name: "fc2_b"
    lr_mult: 2
  }
  inner_product_param {
    num_output: 64
    weight_filler {
      type: "xavier"
    }
    bias_filler {
      type: "constant"
    }
  }
}
layer {
  name: "ReLU8"
  type: "ReLU"
  bottom: "InnerProduct8"
  top: "InnerProduct8"
}
layer {
  name: "drop2"
  type: "Dropout"
  bottom: "InnerProduct8"
  top: "Dropout8"
  dropout_param {
    dropout_ratio: 0.5
  }
}
layer {
  name: "m4"
  type: "InnerProduct"
  bottom: "Dropout8"
  top: "m4"
  param {
    name: "fc3_w"
    lr_mult: 1
  }
  param {
    name: "fc3_b"
    lr_mult: 2
  }
  inner_product_param {
    num_output: 1
    weight_filler {
      type: "xavier"
    }
    bias_filler {
      type: "constant"
    }
  }
}
layer {
  name: "Concat5"
  type: "Concat"
  bottom: "i1"
  bottom: "i15"
  top: "Concat5"
  concat_param {
    axis: 1
  }
}
layer {
  name: "InnerProduct9"
  type: "InnerProduct"
  bottom: "Concat5"
  top: "InnerProduct9"
  param {
    name: "fc1_w"
    lr_mult: 1
  }
  param {
    name: "fc1_b"
    lr_mult: 2
  }
  inner_product_param {
    num_output: 64
    weight_filler {
      type: "xavier"
    }
    bias_filler {
      type: "constant"
    }
  }
}
layer {
  name: "ReLU9"
  type: "ReLU"
  bottom: "InnerProduct9"
  top: "InnerProduct9"
}
layer {
  name: "drop1"
  type: "Dropout"
  bottom: "InnerProduct9"
  top: "Dropout9"
  dropout_param {
    dropout_ratio: 0.5
  }
}
layer {
  name: "InnerProduct10"
  type: "InnerProduct"
  bottom: "Dropout9"
  top: "InnerProduct10"
  param {
    name: "fc2_w"
    lr_mult: 1
  }
  param {
    name: "fc2_b"
    lr_mult: 2
  }
  inner_product_param {
    num_output: 64
    weight_filler {
      type: "xavier"
    }
    bias_filler {
      type: "constant"
    }
  }
}
layer {
  name: "ReLU10"
  type: "ReLU"
  bottom: "InnerProduct10"
  top: "InnerProduct10"
}
layer {
  name: "drop2"
  type: "Dropout"
  bottom: "InnerProduct10"
  top: "Dropout10"
  dropout_param {
    dropout_ratio: 0.5
  }
}
layer {
  name: "m5"
  type: "InnerProduct"
  bottom: "Dropout10"
  top: "m5"
  param {
    name: "fc3_w"
    lr_mult: 1
  }
  param {
    name: "fc3_b"
    lr_mult: 2
  }
  inner_product_param {
    num_output: 1
    weight_filler {
      type: "xavier"
    }
    bias_filler {
      type: "constant"
    }
  }
}
layer {
  name: "Concat6"
  type: "Concat"
  bottom: "i1"
  bottom: "i16"
  top: "Concat6"
  concat_param {
    axis: 1
  }
}
layer {
  name: "InnerProduct11"
  type: "InnerProduct"
  bottom: "Concat6"
  top: "InnerProduct11"
  param {
    name: "fc1_w"
    lr_mult: 1
  }
  param {
    name: "fc1_b"
    lr_mult: 2
  }
  inner_product_param {
    num_output: 64
    weight_filler {
      type: "xavier"
    }
    bias_filler {
      type: "constant"
    }
  }
}
layer {
  name: "ReLU11"
  type: "ReLU"
  bottom: "InnerProduct11"
  top: "InnerProduct11"
}
layer {
  name: "drop1"
  type: "Dropout"
  bottom: "InnerProduct11"
  top: "Dropout11"
  dropout_param {
    dropout_ratio: 0.5
  }
}
layer {
  name: "InnerProduct12"
  type: "InnerProduct"
  bottom: "Dropout11"
  top: "InnerProduct12"
  param {
    name: "fc2_w"
    lr_mult: 1
  }
  param {
    name: "fc2_b"
    lr_mult: 2
  }
  inner_product_param {
    num_output: 64
    weight_filler {
      type: "xavier"
    }
    bias_filler {
      type: "constant"
    }
  }
}
layer {
  name: "ReLU12"
  type: "ReLU"
  bottom: "InnerProduct12"
  top: "InnerProduct12"
}
layer {
  name: "drop2"
  type: "Dropout"
  bottom: "InnerProduct12"
  top: "Dropout12"
  dropout_param {
    dropout_ratio: 0.5
  }
}
layer {
  name: "m6"
  type: "InnerProduct"
  bottom: "Dropout12"
  top: "m6"
  param {
    name: "fc3_w"
    lr_mult: 1
  }
  param {
    name: "fc3_b"
    lr_mult: 2
  }
  inner_product_param {
    num_output: 1
    weight_filler {
      type: "xavier"
    }
    bias_filler {
      type: "constant"
    }
  }
}
layer {
  name: "Concat7"
  type: "Concat"
  bottom: "i1"
  bottom: "i17"
  top: "Concat7"
  concat_param {
    axis: 1
  }
}
layer {
  name: "InnerProduct13"
  type: "InnerProduct"
  bottom: "Concat7"
  top: "InnerProduct13"
  param {
    name: "fc1_w"
    lr_mult: 1
  }
  param {
    name: "fc1_b"
    lr_mult: 2
  }
  inner_product_param {
    num_output: 64
    weight_filler {
      type: "xavier"
    }
    bias_filler {
      type: "constant"
    }
  }
}
layer {
  name: "ReLU13"
  type: "ReLU"
  bottom: "InnerProduct13"
  top: "InnerProduct13"
}
layer {
  name: "drop1"
  type: "Dropout"
  bottom: "InnerProduct13"
  top: "Dropout13"
  dropout_param {
    dropout_ratio: 0.5
  }
}
layer {
  name: "InnerProduct14"
  type: "InnerProduct"
  bottom: "Dropout13"
  top: "InnerProduct14"
  param {
    name: "fc2_w"
    lr_mult: 1
  }
  param {
    name: "fc2_b"
    lr_mult: 2
  }
  inner_product_param {
    num_output: 64
    weight_filler {
      type: "xavier"
    }
    bias_filler {
      type: "constant"
    }
  }
}
layer {
  name: "ReLU14"
  type: "ReLU"
  bottom: "InnerProduct14"
  top: "InnerProduct14"
}
layer {
  name: "drop2"
  type: "Dropout"
  bottom: "InnerProduct14"
  top: "Dropout14"
  dropout_param {
    dropout_ratio: 0.5
  }
}
layer {
  name: "m7"
  type: "InnerProduct"
  bottom: "Dropout14"
  top: "m7"
  param {
    name: "fc3_w"
    lr_mult: 1
  }
  param {
    name: "fc3_b"
    lr_mult: 2
  }
  inner_product_param {
    num_output: 1
    weight_filler {
      type: "xavier"
    }
    bias_filler {
      type: "constant"
    }
  }
}
layer {
  name: "Concat8"
  type: "Concat"
  bottom: "i1"
  bottom: "i18"
  top: "Concat8"
  concat_param {
    axis: 1
  }
}
layer {
  name: "InnerProduct15"
  type: "InnerProduct"
  bottom: "Concat8"
  top: "InnerProduct15"
  param {
    name: "fc1_w"
    lr_mult: 1
  }
  param {
    name: "fc1_b"
    lr_mult: 2
  }
  inner_product_param {
    num_output: 64
    weight_filler {
      type: "xavier"
    }
    bias_filler {
      type: "constant"
    }
  }
}
layer {
  name: "ReLU15"
  type: "ReLU"
  bottom: "InnerProduct15"
  top: "InnerProduct15"
}
layer {
  name: "drop1"
  type: "Dropout"
  bottom: "InnerProduct15"
  top: "Dropout15"
  dropout_param {
    dropout_ratio: 0.5
  }
}
layer {
  name: "InnerProduct16"
  type: "InnerProduct"
  bottom: "Dropout15"
  top: "InnerProduct16"
  param {
    name: "fc2_w"
    lr_mult: 1
  }
  param {
    name: "fc2_b"
    lr_mult: 2
  }
  inner_product_param {
    num_output: 64
    weight_filler {
      type: "xavier"
    }
    bias_filler {
      type: "constant"
    }
  }
}
layer {
  name: "ReLU16"
  type: "ReLU"
  bottom: "InnerProduct16"
  top: "InnerProduct16"
}
layer {
  name: "drop2"
  type: "Dropout"
  bottom: "InnerProduct16"
  top: "Dropout16"
  dropout_param {
    dropout_ratio: 0.5
  }
}
layer {
  name: "m8"
  type: "InnerProduct"
  bottom: "Dropout16"
  top: "m8"
  param {
    name: "fc3_w"
    lr_mult: 1
  }
  param {
    name: "fc3_b"
    lr_mult: 2
  }
  inner_product_param {
    num_output: 1
    weight_filler {
      type: "xavier"
    }
    bias_filler {
      type: "constant"
    }
  }
}
layer {
  name: "Concat9"
  type: "Concat"
  bottom: "i1"
  bottom: "i19"
  top: "Concat9"
  concat_param {
    axis: 1
  }
}
layer {
  name: "InnerProduct17"
  type: "InnerProduct"
  bottom: "Concat9"
  top: "InnerProduct17"
  param {
    name: "fc1_w"
    lr_mult: 1
  }
  param {
    name: "fc1_b"
    lr_mult: 2
  }
  inner_product_param {
    num_output: 64
    weight_filler {
      type: "xavier"
    }
    bias_filler {
      type: "constant"
    }
  }
}
layer {
  name: "ReLU17"
  type: "ReLU"
  bottom: "InnerProduct17"
  top: "InnerProduct17"
}
layer {
  name: "drop1"
  type: "Dropout"
  bottom: "InnerProduct17"
  top: "Dropout17"
  dropout_param {
    dropout_ratio: 0.5
  }
}
layer {
  name: "InnerProduct18"
  type: "InnerProduct"
  bottom: "Dropout17"
  top: "InnerProduct18"
  param {
    name: "fc2_w"
    lr_mult: 1
  }
  param {
    name: "fc2_b"
    lr_mult: 2
  }
  inner_product_param {
    num_output: 64
    weight_filler {
      type: "xavier"
    }
    bias_filler {
      type: "constant"
    }
  }
}
layer {
  name: "ReLU18"
  type: "ReLU"
  bottom: "InnerProduct18"
  top: "InnerProduct18"
}
layer {
  name: "drop2"
  type: "Dropout"
  bottom: "InnerProduct18"
  top: "Dropout18"
  dropout_param {
    dropout_ratio: 0.5
  }
}
layer {
  name: "m9"
  type: "InnerProduct"
  bottom: "Dropout18"
  top: "m9"
  param {
    name: "fc3_w"
    lr_mult: 1
  }
  param {
    name: "fc3_b"
    lr_mult: 2
  }
  inner_product_param {
    num_output: 1
    weight_filler {
      type: "xavier"
    }
    bias_filler {
      type: "constant"
    }
  }
}
layer {
  name: "Concat10"
  type: "Concat"
  bottom: "i1"
  bottom: "i20"
  top: "Concat10"
  concat_param {
    axis: 1
  }
}
layer {
  name: "InnerProduct19"
  type: "InnerProduct"
  bottom: "Concat10"
  top: "InnerProduct19"
  param {
    name: "fc1_w"
    lr_mult: 1
  }
  param {
    name: "fc1_b"
    lr_mult: 2
  }
  inner_product_param {
    num_output: 64
    weight_filler {
      type: "xavier"
    }
    bias_filler {
      type: "constant"
    }
  }
}
layer {
  name: "ReLU19"
  type: "ReLU"
  bottom: "InnerProduct19"
  top: "InnerProduct19"
}
layer {
  name: "drop1"
  type: "Dropout"
  bottom: "InnerProduct19"
  top: "Dropout19"
  dropout_param {
    dropout_ratio: 0.5
  }
}
layer {
  name: "InnerProduct20"
  type: "InnerProduct"
  bottom: "Dropout19"
  top: "InnerProduct20"
  param {
    name: "fc2_w"
    lr_mult: 1
  }
  param {
    name: "fc2_b"
    lr_mult: 2
  }
  inner_product_param {
    num_output: 64
    weight_filler {
      type: "xavier"
    }
    bias_filler {
      type: "constant"
    }
  }
}
layer {
  name: "ReLU20"
  type: "ReLU"
  bottom: "InnerProduct20"
  top: "InnerProduct20"
}
layer {
  name: "drop2"
  type: "Dropout"
  bottom: "InnerProduct20"
  top: "Dropout20"
  dropout_param {
    dropout_ratio: 0.5
  }
}
layer {
  name: "m10"
  type: "InnerProduct"
  bottom: "Dropout20"
  top: "m10"
  param {
    name: "fc3_w"
    lr_mult: 1
  }
  param {
    name: "fc3_b"
    lr_mult: 2
  }
  inner_product_param {
    num_output: 1
    weight_filler {
      type: "xavier"
    }
    bias_filler {
      type: "constant"
    }
  }
}
layer {
  name: "Concat11"
  type: "Concat"
  bottom: "i2"
  bottom: "i11"
  top: "Concat11"
  concat_param {
    axis: 1
  }
}
layer {
  name: "InnerProduct21"
  type: "InnerProduct"
  bottom: "Concat11"
  top: "InnerProduct21"
  param {
    name: "fc1_w"
    lr_mult: 1
  }
  param {
    name: "fc1_b"
    lr_mult: 2
  }
  inner_product_param {
    num_output: 64
    weight_filler {
      type: "xavier"
    }
    bias_filler {
      type: "constant"
    }
  }
}
layer {
  name: "ReLU21"
  type: "ReLU"
  bottom: "InnerProduct21"
  top: "InnerProduct21"
}
layer {
  name: "drop1"
  type: "Dropout"
  bottom: "InnerProduct21"
  top: "Dropout21"
  dropout_param {
    dropout_ratio: 0.5
  }
}
layer {
  name: "InnerProduct22"
  type: "InnerProduct"
  bottom: "Dropout21"
  top: "InnerProduct22"
  param {
    name: "fc2_w"
    lr_mult: 1
  }
  param {
    name: "fc2_b"
    lr_mult: 2
  }
  inner_product_param {
    num_output: 64
    weight_filler {
      type: "xavier"
    }
    bias_filler {
      type: "constant"
    }
  }
}
layer {
  name: "ReLU22"
  type: "ReLU"
  bottom: "InnerProduct22"
  top: "InnerProduct22"
}
layer {
  name: "drop2"
  type: "Dropout"
  bottom: "InnerProduct22"
  top: "Dropout22"
  dropout_param {
    dropout_ratio: 0.5
  }
}
layer {
  name: "m11"
  type: "InnerProduct"
  bottom: "Dropout22"
  top: "m11"
  param {
    name: "fc3_w"
    lr_mult: 1
  }
  param {
    name: "fc3_b"
    lr_mult: 2
  }
  inner_product_param {
    num_output: 1
    weight_filler {
      type: "xavier"
    }
    bias_filler {
      type: "constant"
    }
  }
}
layer {
  name: "Concat12"
  type: "Concat"
  bottom: "i3"
  bottom: "i11"
  top: "Concat12"
  concat_param {
    axis: 1
  }
}
layer {
  name: "InnerProduct23"
  type: "InnerProduct"
  bottom: "Concat12"
  top: "InnerProduct23"
  param {
    name: "fc1_w"
    lr_mult: 1
  }
  param {
    name: "fc1_b"
    lr_mult: 2
  }
  inner_product_param {
    num_output: 64
    weight_filler {
      type: "xavier"
    }
    bias_filler {
      type: "constant"
    }
  }
}
layer {
  name: "ReLU23"
  type: "ReLU"
  bottom: "InnerProduct23"
  top: "InnerProduct23"
}
layer {
  name: "drop1"
  type: "Dropout"
  bottom: "InnerProduct23"
  top: "Dropout23"
  dropout_param {
    dropout_ratio: 0.5
  }
}
layer {
  name: "InnerProduct24"
  type: "InnerProduct"
  bottom: "Dropout23"
  top: "InnerProduct24"
  param {
    name: "fc2_w"
    lr_mult: 1
  }
  param {
    name: "fc2_b"
    lr_mult: 2
  }
  inner_product_param {
    num_output: 64
    weight_filler {
      type: "xavier"
    }
    bias_filler {
      type: "constant"
    }
  }
}
layer {
  name: "ReLU24"
  type: "ReLU"
  bottom: "InnerProduct24"
  top: "InnerProduct24"
}
layer {
  name: "drop2"
  type: "Dropout"
  bottom: "InnerProduct24"
  top: "Dropout24"
  dropout_param {
    dropout_ratio: 0.5
  }
}
layer {
  name: "m12"
  type: "InnerProduct"
  bottom: "Dropout24"
  top: "m12"
  param {
    name: "fc3_w"
    lr_mult: 1
  }
  param {
    name: "fc3_b"
    lr_mult: 2
  }
  inner_product_param {
    num_output: 1
    weight_filler {
      type: "xavier"
    }
    bias_filler {
      type: "constant"
    }
  }
}
layer {
  name: "Concat13"
  type: "Concat"
  bottom: "i4"
  bottom: "i11"
  top: "Concat13"
  concat_param {
    axis: 1
  }
}
layer {
  name: "InnerProduct25"
  type: "InnerProduct"
  bottom: "Concat13"
  top: "InnerProduct25"
  param {
    name: "fc1_w"
    lr_mult: 1
  }
  param {
    name: "fc1_b"
    lr_mult: 2
  }
  inner_product_param {
    num_output: 64
    weight_filler {
      type: "xavier"
    }
    bias_filler {
      type: "constant"
    }
  }
}
layer {
  name: "ReLU25"
  type: "ReLU"
  bottom: "InnerProduct25"
  top: "InnerProduct25"
}
layer {
  name: "drop1"
  type: "Dropout"
  bottom: "InnerProduct25"
  top: "Dropout25"
  dropout_param {
    dropout_ratio: 0.5
  }
}
layer {
  name: "InnerProduct26"
  type: "InnerProduct"
  bottom: "Dropout25"
  top: "InnerProduct26"
  param {
    name: "fc2_w"
    lr_mult: 1
  }
  param {
    name: "fc2_b"
    lr_mult: 2
  }
  inner_product_param {
    num_output: 64
    weight_filler {
      type: "xavier"
    }
    bias_filler {
      type: "constant"
    }
  }
}
layer {
  name: "ReLU26"
  type: "ReLU"
  bottom: "InnerProduct26"
  top: "InnerProduct26"
}
layer {
  name: "drop2"
  type: "Dropout"
  bottom: "InnerProduct26"
  top: "Dropout26"
  dropout_param {
    dropout_ratio: 0.5
  }
}
layer {
  name: "m13"
  type: "InnerProduct"
  bottom: "Dropout26"
  top: "m13"
  param {
    name: "fc3_w"
    lr_mult: 1
  }
  param {
    name: "fc3_b"
    lr_mult: 2
  }
  inner_product_param {
    num_output: 1
    weight_filler {
      type: "xavier"
    }
    bias_filler {
      type: "constant"
    }
  }
}
layer {
  name: "Concat14"
  type: "Concat"
  bottom: "i5"
  bottom: "i11"
  top: "Concat14"
  concat_param {
    axis: 1
  }
}
layer {
  name: "InnerProduct27"
  type: "InnerProduct"
  bottom: "Concat14"
  top: "InnerProduct27"
  param {
    name: "fc1_w"
    lr_mult: 1
  }
  param {
    name: "fc1_b"
    lr_mult: 2
  }
  inner_product_param {
    num_output: 64
    weight_filler {
      type: "xavier"
    }
    bias_filler {
      type: "constant"
    }
  }
}
layer {
  name: "ReLU27"
  type: "ReLU"
  bottom: "InnerProduct27"
  top: "InnerProduct27"
}
layer {
  name: "drop1"
  type: "Dropout"
  bottom: "InnerProduct27"
  top: "Dropout27"
  dropout_param {
    dropout_ratio: 0.5
  }
}
layer {
  name: "InnerProduct28"
  type: "InnerProduct"
  bottom: "Dropout27"
  top: "InnerProduct28"
  param {
    name: "fc2_w"
    lr_mult: 1
  }
  param {
    name: "fc2_b"
    lr_mult: 2
  }
  inner_product_param {
    num_output: 64
    weight_filler {
      type: "xavier"
    }
    bias_filler {
      type: "constant"
    }
  }
}
layer {
  name: "ReLU28"
  type: "ReLU"
  bottom: "InnerProduct28"
  top: "InnerProduct28"
}
layer {
  name: "drop2"
  type: "Dropout"
  bottom: "InnerProduct28"
  top: "Dropout28"
  dropout_param {
    dropout_ratio: 0.5
  }
}
layer {
  name: "m14"
  type: "InnerProduct"
  bottom: "Dropout28"
  top: "m14"
  param {
    name: "fc3_w"
    lr_mult: 1
  }
  param {
    name: "fc3_b"
    lr_mult: 2
  }
  inner_product_param {
    num_output: 1
    weight_filler {
      type: "xavier"
    }
    bias_filler {
      type: "constant"
    }
  }
}
layer {
  name: "Concat15"
  type: "Concat"
  bottom: "i6"
  bottom: "i11"
  top: "Concat15"
  concat_param {
    axis: 1
  }
}
layer {
  name: "InnerProduct29"
  type: "InnerProduct"
  bottom: "Concat15"
  top: "InnerProduct29"
  param {
    name: "fc1_w"
    lr_mult: 1
  }
  param {
    name: "fc1_b"
    lr_mult: 2
  }
  inner_product_param {
    num_output: 64
    weight_filler {
      type: "xavier"
    }
    bias_filler {
      type: "constant"
    }
  }
}
layer {
  name: "ReLU29"
  type: "ReLU"
  bottom: "InnerProduct29"
  top: "InnerProduct29"
}
layer {
  name: "drop1"
  type: "Dropout"
  bottom: "InnerProduct29"
  top: "Dropout29"
  dropout_param {
    dropout_ratio: 0.5
  }
}
layer {
  name: "InnerProduct30"
  type: "InnerProduct"
  bottom: "Dropout29"
  top: "InnerProduct30"
  param {
    name: "fc2_w"
    lr_mult: 1
  }
  param {
    name: "fc2_b"
    lr_mult: 2
  }
  inner_product_param {
    num_output: 64
    weight_filler {
      type: "xavier"
    }
    bias_filler {
      type: "constant"
    }
  }
}
layer {
  name: "ReLU30"
  type: "ReLU"
  bottom: "InnerProduct30"
  top: "InnerProduct30"
}
layer {
  name: "drop2"
  type: "Dropout"
  bottom: "InnerProduct30"
  top: "Dropout30"
  dropout_param {
    dropout_ratio: 0.5
  }
}
layer {
  name: "m15"
  type: "InnerProduct"
  bottom: "Dropout30"
  top: "m15"
  param {
    name: "fc3_w"
    lr_mult: 1
  }
  param {
    name: "fc3_b"
    lr_mult: 2
  }
  inner_product_param {
    num_output: 1
    weight_filler {
      type: "xavier"
    }
    bias_filler {
      type: "constant"
    }
  }
}
layer {
  name: "Concat16"
  type: "Concat"
  bottom: "i7"
  bottom: "i11"
  top: "Concat16"
  concat_param {
    axis: 1
  }
}
layer {
  name: "InnerProduct31"
  type: "InnerProduct"
  bottom: "Concat16"
  top: "InnerProduct31"
  param {
    name: "fc1_w"
    lr_mult: 1
  }
  param {
    name: "fc1_b"
    lr_mult: 2
  }
  inner_product_param {
    num_output: 64
    weight_filler {
      type: "xavier"
    }
    bias_filler {
      type: "constant"
    }
  }
}
layer {
  name: "ReLU31"
  type: "ReLU"
  bottom: "InnerProduct31"
  top: "InnerProduct31"
}
layer {
  name: "drop1"
  type: "Dropout"
  bottom: "InnerProduct31"
  top: "Dropout31"
  dropout_param {
    dropout_ratio: 0.5
  }
}
layer {
  name: "InnerProduct32"
  type: "InnerProduct"
  bottom: "Dropout31"
  top: "InnerProduct32"
  param {
    name: "fc2_w"
    lr_mult: 1
  }
  param {
    name: "fc2_b"
    lr_mult: 2
  }
  inner_product_param {
    num_output: 64
    weight_filler {
      type: "xavier"
    }
    bias_filler {
      type: "constant"
    }
  }
}
layer {
  name: "ReLU32"
  type: "ReLU"
  bottom: "InnerProduct32"
  top: "InnerProduct32"
}
layer {
  name: "drop2"
  type: "Dropout"
  bottom: "InnerProduct32"
  top: "Dropout32"
  dropout_param {
    dropout_ratio: 0.5
  }
}
layer {
  name: "m16"
  type: "InnerProduct"
  bottom: "Dropout32"
  top: "m16"
  param {
    name: "fc3_w"
    lr_mult: 1
  }
  param {
    name: "fc3_b"
    lr_mult: 2
  }
  inner_product_param {
    num_output: 1
    weight_filler {
      type: "xavier"
    }
    bias_filler {
      type: "constant"
    }
  }
}
layer {
  name: "Concat17"
  type: "Concat"
  bottom: "i8"
  bottom: "i11"
  top: "Concat17"
  concat_param {
    axis: 1
  }
}
layer {
  name: "InnerProduct33"
  type: "InnerProduct"
  bottom: "Concat17"
  top: "InnerProduct33"
  param {
    name: "fc1_w"
    lr_mult: 1
  }
  param {
    name: "fc1_b"
    lr_mult: 2
  }
  inner_product_param {
    num_output: 64
    weight_filler {
      type: "xavier"
    }
    bias_filler {
      type: "constant"
    }
  }
}
layer {
  name: "ReLU33"
  type: "ReLU"
  bottom: "InnerProduct33"
  top: "InnerProduct33"
}
layer {
  name: "drop1"
  type: "Dropout"
  bottom: "InnerProduct33"
  top: "Dropout33"
  dropout_param {
    dropout_ratio: 0.5
  }
}
layer {
  name: "InnerProduct34"
  type: "InnerProduct"
  bottom: "Dropout33"
  top: "InnerProduct34"
  param {
    name: "fc2_w"
    lr_mult: 1
  }
  param {
    name: "fc2_b"
    lr_mult: 2
  }
  inner_product_param {
    num_output: 64
    weight_filler {
      type: "xavier"
    }
    bias_filler {
      type: "constant"
    }
  }
}
layer {
  name: "ReLU34"
  type: "ReLU"
  bottom: "InnerProduct34"
  top: "InnerProduct34"
}
layer {
  name: "drop2"
  type: "Dropout"
  bottom: "InnerProduct34"
  top: "Dropout34"
  dropout_param {
    dropout_ratio: 0.5
  }
}
layer {
  name: "m17"
  type: "InnerProduct"
  bottom: "Dropout34"
  top: "m17"
  param {
    name: "fc3_w"
    lr_mult: 1
  }
  param {
    name: "fc3_b"
    lr_mult: 2
  }
  inner_product_param {
    num_output: 1
    weight_filler {
      type: "xavier"
    }
    bias_filler {
      type: "constant"
    }
  }
}
layer {
  name: "Concat18"
  type: "Concat"
  bottom: "i9"
  bottom: "i11"
  top: "Concat18"
  concat_param {
    axis: 1
  }
}
layer {
  name: "InnerProduct35"
  type: "InnerProduct"
  bottom: "Concat18"
  top: "InnerProduct35"
  param {
    name: "fc1_w"
    lr_mult: 1
  }
  param {
    name: "fc1_b"
    lr_mult: 2
  }
  inner_product_param {
    num_output: 64
    weight_filler {
      type: "xavier"
    }
    bias_filler {
      type: "constant"
    }
  }
}
layer {
  name: "ReLU35"
  type: "ReLU"
  bottom: "InnerProduct35"
  top: "InnerProduct35"
}
layer {
  name: "drop1"
  type: "Dropout"
  bottom: "InnerProduct35"
  top: "Dropout35"
  dropout_param {
    dropout_ratio: 0.5
  }
}
layer {
  name: "InnerProduct36"
  type: "InnerProduct"
  bottom: "Dropout35"
  top: "InnerProduct36"
  param {
    name: "fc2_w"
    lr_mult: 1
  }
  param {
    name: "fc2_b"
    lr_mult: 2
  }
  inner_product_param {
    num_output: 64
    weight_filler {
      type: "xavier"
    }
    bias_filler {
      type: "constant"
    }
  }
}
layer {
  name: "ReLU36"
  type: "ReLU"
  bottom: "InnerProduct36"
  top: "InnerProduct36"
}
layer {
  name: "drop2"
  type: "Dropout"
  bottom: "InnerProduct36"
  top: "Dropout36"
  dropout_param {
    dropout_ratio: 0.5
  }
}
layer {
  name: "m18"
  type: "InnerProduct"
  bottom: "Dropout36"
  top: "m18"
  param {
    name: "fc3_w"
    lr_mult: 1
  }
  param {
    name: "fc3_b"
    lr_mult: 2
  }
  inner_product_param {
    num_output: 1
    weight_filler {
      type: "xavier"
    }
    bias_filler {
      type: "constant"
    }
  }
}
layer {
  name: "Concat19"
  type: "Concat"
  bottom: "i10"
  bottom: "i11"
  top: "Concat19"
  concat_param {
    axis: 1
  }
}
layer {
  name: "InnerProduct37"
  type: "InnerProduct"
  bottom: "Concat19"
  top: "InnerProduct37"
  param {
    name: "fc1_w"
    lr_mult: 1
  }
  param {
    name: "fc1_b"
    lr_mult: 2
  }
  inner_product_param {
    num_output: 64
    weight_filler {
      type: "xavier"
    }
    bias_filler {
      type: "constant"
    }
  }
}
layer {
  name: "ReLU37"
  type: "ReLU"
  bottom: "Inner
I0810 12:46:19.057708 13394 layer_factory.hpp:77] Creating layer data
I0810 12:46:19.058820 13394 net.cpp:91] Creating Layer data
I0810 12:46:19.058841 13394 net.cpp:399] data -> data
I0810 12:46:19.058879 13394 net.cpp:399] data -> label
I0810 12:46:19.091855 13400 db_lmdb.cpp:35] Opened lmdb /home/shaogangwang/Datasets/FeatsDB/featsTrain10k
I0810 12:46:19.159485 13394 data_layer.cpp:41] output data size: 64,1,20,4096
I0810 12:46:19.722736 13394 net.cpp:141] Setting up data
I0810 12:46:19.723131 13394 net.cpp:148] Top shape: 64 1 20 4096 (5242880)
I0810 12:46:19.723264 13394 net.cpp:148] Top shape: 64 (64)
I0810 12:46:19.723529 13394 net.cpp:156] Memory required for data: 20971776
I0810 12:46:19.723788 13394 layer_factory.hpp:77] Creating layer label_data_1_split
I0810 12:46:19.723928 13394 net.cpp:91] Creating Layer label_data_1_split
I0810 12:46:19.724043 13394 net.cpp:425] label_data_1_split <- label
I0810 12:46:19.724165 13394 net.cpp:399] label_data_1_split -> label_data_1_split_0
I0810 12:46:19.724369 13394 net.cpp:399] label_data_1_split -> label_data_1_split_1
I0810 12:46:19.724493 13394 net.cpp:141] Setting up label_data_1_split
I0810 12:46:19.724611 13394 net.cpp:148] Top shape: 64 (64)
I0810 12:46:19.725426 13394 net.cpp:148] Top shape: 64 (64)
I0810 12:46:19.725554 13394 net.cpp:156] Memory required for data: 20972288
I0810 12:46:19.725664 13394 layer_factory.hpp:77] Creating layer th
I0810 12:46:19.725786 13394 net.cpp:91] Creating Layer th
I0810 12:46:19.725894 13394 net.cpp:425] th <- label_data_1_split_0
I0810 12:46:19.726007 13394 net.cpp:399] th -> th
I0810 12:46:19.726127 13394 net.cpp:141] Setting up th
I0810 12:46:19.726239 13394 net.cpp:148] Top shape: 64 (64)
I0810 12:46:19.726436 13394 net.cpp:156] Memory required for data: 20972544
I0810 12:46:19.726547 13394 layer_factory.hpp:77] Creating layer th_th_0_split
I0810 12:46:19.726662 13394 net.cpp:91] Creating Layer th_th_0_split
I0810 12:46:19.726771 13394 net.cpp:425] th_th_0_split <- th
I0810 12:46:19.726882 13394 net.cpp:399] th_th_0_split -> th_th_0_split_0
I0810 12:46:19.727006 13394 net.cpp:399] th_th_0_split -> th_th_0_split_1
I0810 12:46:19.727185 13394 net.cpp:141] Setting up th_th_0_split
I0810 12:46:19.727309 13394 net.cpp:148] Top shape: 64 (64)
I0810 12:46:19.727437 13394 net.cpp:148] Top shape: 64 (64)
I0810 12:46:19.727545 13394 net.cpp:156] Memory required for data: 20973056
I0810 12:46:19.728142 13394 layer_factory.hpp:77] Creating layer i1
I0810 12:46:19.728278 13394 net.cpp:91] Creating Layer i1
I0810 12:46:19.728385 13394 net.cpp:425] i1 <- data
I0810 12:46:19.728502 13394 net.cpp:399] i1 -> i1
I0810 12:46:19.728627 13394 net.cpp:399] i1 -> i2
I0810 12:46:19.728746 13394 net.cpp:399] i1 -> i3
I0810 12:46:19.728863 13394 net.cpp:399] i1 -> i4
I0810 12:46:19.728977 13394 net.cpp:399] i1 -> i5
I0810 12:46:19.729142 13394 net.cpp:399] i1 -> i6
I0810 12:46:19.727027 13401 blocking_queue.cpp:50] Waiting for data
I0810 12:46:19.729579 13394 net.cpp:399] i1 -> i7
I0810 12:46:19.729704 13394 net.cpp:399] i1 -> i8
I0810 12:46:19.729840 13394 net.cpp:399] i1 -> i9
I0810 12:46:19.729965 13394 net.cpp:399] i1 -> i10
I0810 12:46:19.730084 13394 net.cpp:399] i1 -> i11
I0810 12:46:19.730201 13394 net.cpp:399] i1 -> i12
I0810 12:46:19.730316 13394 net.cpp:399] i1 -> i13
I0810 12:46:19.730432 13394 net.cpp:399] i1 -> i14
I0810 12:46:19.730546 13394 net.cpp:399] i1 -> i15
I0810 12:46:19.730664 13394 net.cpp:399] i1 -> i16
I0810 12:46:19.730779 13394 net.cpp:399] i1 -> i17
I0810 12:46:19.730895 13394 net.cpp:399] i1 -> i18
I0810 12:46:19.731011 13394 net.cpp:399] i1 -> i19
I0810 12:46:19.731166 13394 net.cpp:399] i1 -> i20
I0810 12:46:19.731324 13394 net.cpp:141] Setting up i1
I0810 12:46:19.731441 13394 net.cpp:148] Top shape: 64 1 1 4096 (262144)
I0810 12:46:19.731551 13394 net.cpp:148] Top shape: 64 1 1 4096 (262144)
I0810 12:46:19.731662 13394 net.cpp:148] Top shape: 64 1 1 4096 (262144)
I0810 12:46:19.731771 13394 net.cpp:148] Top shape: 64 1 1 4096 (262144)
I0810 12:46:19.731879 13394 net.cpp:148] Top shape: 64 1 1 4096 (262144)
I0810 12:46:19.731988 13394 net.cpp:148] Top shape: 64 1 1 4096 (262144)
I0810 12:46:19.732111 13394 net.cpp:148] Top shape: 64 1 1 4096 (262144)
I0810 12:46:19.732249 13394 net.cpp:148] Top shape: 64 1 1 4096 (262144)
I0810 12:46:19.732385 13394 net.cpp:148] Top shape: 64 1 1 4096 (262144)
I0810 12:46:19.732523 13394 net.cpp:148] Top shape: 64 1 1 4096 (262144)
I0810 12:46:19.732661 13394 net.cpp:148] Top shape: 64 1 1 4096 (262144)
I0810 12:46:19.732750 13394 net.cpp:148] Top shape: 64 1 1 4096 (262144)
I0810 12:46:19.732782 13394 net.cpp:148] Top shape: 64 1 1 4096 (262144)
I0810 12:46:19.732813 13394 net.cpp:148] Top shape: 64 1 1 4096 (262144)
I0810 12:46:19.732846 13394 net.cpp:148] Top shape: 64 1 1 4096 (262144)
I0810 12:46:19.732874 13394 net.cpp:148] Top shape: 64 1 1 4096 (262144)
I0810 12:46:19.732902 13394 net.cpp:148] Top shape: 64 1 1 4096 (262144)
I0810 12:46:19.732928 13394 net.cpp:148] Top shape: 64 1 1 4096 (262144)
I0810 12:46:19.732952 13394 net.cpp:148] Top shape: 64 1 1 4096 (262144)
I0810 12:46:19.732981 13394 net.cpp:148] Top shape: 64 1 1 4096 (262144)
I0810 12:46:19.733006 13394 net.cpp:156] Memory required for data: 41944576
I0810 12:46:19.733029 13394 layer_factory.hpp:77] Creating layer i1_i1_0_split
I0810 12:46:19.733062 13394 net.cpp:91] Creating Layer i1_i1_0_split
I0810 12:46:19.733088 13394 net.cpp:425] i1_i1_0_split <- i1
I0810 12:46:19.733116 13394 net.cpp:399] i1_i1_0_split -> i1_i1_0_split_0
I0810 12:46:19.733152 13394 net.cpp:399] i1_i1_0_split -> i1_i1_0_split_1
I0810 12:46:19.733191 13394 net.cpp:399] i1_i1_0_split -> i1_i1_0_split_2
I0810 12:46:19.733227 13394 net.cpp:399] i1_i1_0_split -> i1_i1_0_split_3
I0810 12:46:19.733263 13394 net.cpp:399] i1_i1_0_split -> i1_i1_0_split_4
I0810 12:46:19.733304 13394 net.cpp:399] i1_i1_0_split -> i1_i1_0_split_5
I0810 12:46:19.733352 13394 net.cpp:399] i1_i1_0_split -> i1_i1_0_split_6
I0810 12:46:19.733391 13394 net.cpp:399] i1_i1_0_split -> i1_i1_0_split_7
I0810 12:46:19.733433 13394 net.cpp:399] i1_i1_0_split -> i1_i1_0_split_8
I0810 12:46:19.733479 13394 net.cpp:399] i1_i1_0_split -> i1_i1_0_split_9
I0810 12:46:19.733525 13394 net.cpp:141] Setting up i1_i1_0_split
I0810 12:46:19.733552 13394 net.cpp:148] Top shape: 64 1 1 4096 (262144)
I0810 12:46:19.733593 13394 net.cpp:148] Top shape: 64 1 1 4096 (262144)
I0810 12:46:19.733625 13394 net.cpp:148] Top shape: 64 1 1 4096 (262144)
I0810 12:46:19.733654 13394 net.cpp:148] Top shape: 64 1 1 4096 (262144)
I0810 12:46:19.733686 13394 net.cpp:148] Top shape: 64 1 1 4096 (262144)
I0810 12:46:19.733716 13394 net.cpp:148] Top shape: 64 1 1 4096 (262144)
I0810 12:46:19.733754 13394 net.cpp:148] Top shape: 64 1 1 4096 (262144)
I0810 12:46:19.735177 13394 net.cpp:148] Top shape: 64 1 1 4096 (262144)
I0810 12:46:19.735208 13394 net.cpp:148] Top shape: 64 1 1 4096 (262144)
I0810 12:46:19.735234 13394 net.cpp:148] Top shape: 64 1 1 4096 (262144)
I0810 12:46:19.735255 13394 net.cpp:156] Memory required for data: 52430336
I0810 12:46:19.735291 13394 layer_factory.hpp:77] Creating layer i11_i1_10_split
I0810 12:46:19.735326 13394 net.cpp:91] Creating Layer i11_i1_10_split
I0810 12:46:19.735348 13394 net.cpp:425] i11_i1_10_split <- i11
I0810 12:46:19.735374 13394 net.cpp:399] i11_i1_10_split -> i11_i1_10_split_0
I0810 12:46:19.735404 13394 net.cpp:399] i11_i1_10_split -> i11_i1_10_split_1
I0810 12:46:19.735433 13394 net.cpp:399] i11_i1_10_split -> i11_i1_10_split_2
I0810 12:46:19.735460 13394 net.cpp:399] i11_i1_10_split -> i11_i1_10_split_3
I0810 12:46:19.735488 13394 net.cpp:399] i11_i1_10_split -> i11_i1_10_split_4
I0810 12:46:19.735517 13394 net.cpp:399] i11_i1_10_split -> i11_i1_10_split_5
I0810 12:46:19.735543 13394 net.cpp:399] i11_i1_10_split -> i11_i1_10_split_6
I0810 12:46:19.735571 13394 net.cpp:399] i11_i1_10_split -> i11_i1_10_split_7
I0810 12:46:19.735599 13394 net.cpp:399] i11_i1_10_split -> i11_i1_10_split_8
I0810 12:46:19.735632 13394 net.cpp:399] i11_i1_10_split -> i11_i1_10_split_9
I0810 12:46:19.735671 13394 net.cpp:141] Setting up i11_i1_10_split
I0810 12:46:19.735700 13394 net.cpp:148] Top shape: 64 1 1 4096 (262144)
I0810 12:46:19.735728 13394 net.cpp:148] Top shape: 64 1 1 4096 (262144)
I0810 12:46:19.735754 13394 net.cpp:148] Top shape: 64 1 1 4096 (262144)
I0810 12:46:19.735780 13394 net.cpp:148] Top shape: 64 1 1 4096 (262144)
I0810 12:46:19.735807 13394 net.cpp:148] Top shape: 64 1 1 4096 (262144)
I0810 12:46:19.737210 13394 net.cpp:148] Top shape: 64 1 1 4096 (262144)
I0810 12:46:19.737323 13394 net.cpp:148] Top shape: 64 1 1 4096 (262144)
I0810 12:46:19.737431 13394 net.cpp:148] Top shape: 64 1 1 4096 (262144)
I0810 12:46:19.737536 13394 net.cpp:148] Top shape: 64 1 1 4096 (262144)
I0810 12:46:19.737642 13394 net.cpp:148] Top shape: 64 1 1 4096 (262144)
I0810 12:46:19.737743 13394 net.cpp:156] Memory required for data: 62916096
I0810 12:46:19.737848 13394 layer_factory.hpp:77] Creating layer Concat1
I0810 12:46:19.737972 13394 net.cpp:91] Creating Layer Concat1
I0810 12:46:19.738104 13394 net.cpp:425] Concat1 <- i1_i1_0_split_0
I0810 12:46:19.738278 13394 net.cpp:425] Concat1 <- i11_i1_10_split_0
I0810 12:46:19.738407 13394 net.cpp:399] Concat1 -> Concat1
I0810 12:46:19.738545 13394 net.cpp:141] Setting up Concat1
I0810 12:46:19.738698 13394 net.cpp:148] Top shape: 64 2 1 4096 (524288)
I0810 12:46:19.738816 13394 net.cpp:156] Memory required for data: 65013248
I0810 12:46:19.738929 13394 layer_factory.hpp:77] Creating layer InnerProduct1
I0810 12:46:19.739051 13394 net.cpp:91] Creating Layer InnerProduct1
I0810 12:46:19.739162 13394 net.cpp:425] InnerProduct1 <- Concat1
I0810 12:46:19.739301 13394 net.cpp:399] InnerProduct1 -> InnerProduct1
I0810 12:46:19.744856 13394 net.cpp:141] Setting up InnerProduct1
I0810 12:46:19.745046 13394 net.cpp:148] Top shape: 64 64 (4096)
I0810 12:46:19.745160 13394 net.cpp:156] Memory required for data: 65029632
I0810 12:46:19.745286 13394 layer_factory.hpp:77] Creating layer ReLU1
I0810 12:46:19.745406 13394 net.cpp:91] Creating Layer ReLU1
I0810 12:46:19.745517 13394 net.cpp:425] ReLU1 <- InnerProduct1
I0810 12:46:19.745628 13394 net.cpp:386] ReLU1 -> InnerProduct1 (in-place)
I0810 12:46:19.745754 13394 net.cpp:141] Setting up ReLU1
I0810 12:46:19.745865 13394 net.cpp:148] Top shape: 64 64 (4096)
I0810 12:46:19.745973 13394 net.cpp:156] Memory required for data: 65046016
I0810 12:46:19.746161 13394 layer_factory.hpp:77] Creating layer drop1
I0810 12:46:19.746340 13394 net.cpp:91] Creating Layer drop1
I0810 12:46:19.746448 13394 net.cpp:425] drop1 <- InnerProduct1
I0810 12:46:19.746562 13394 net.cpp:399] drop1 -> Dropout1
I0810 12:46:19.746681 13394 net.cpp:141] Setting up drop1
I0810 12:46:19.746793 13394 net.cpp:148] Top shape: 64 64 (4096)
I0810 12:46:19.746860 13394 net.cpp:156] Memory required for data: 65062400
I0810 12:46:19.746883 13394 layer_factory.hpp:77] Creating layer InnerProduct2
I0810 12:46:19.746915 13394 net.cpp:91] Creating Layer InnerProduct2
I0810 12:46:19.746938 13394 net.cpp:425] InnerProduct2 <- Dropout1
I0810 12:46:19.746966 13394 net.cpp:399] InnerProduct2 -> InnerProduct2
I0810 12:46:19.747051 13394 net.cpp:141] Setting up InnerProduct2
I0810 12:46:19.747076 13394 net.cpp:148] Top shape: 64 64 (4096)
I0810 12:46:19.747097 13394 net.cpp:156] Memory required for data: 65078784
I0810 12:46:19.747125 13394 layer_factory.hpp:77] Creating layer ReLU2
I0810 12:46:19.747150 13394 net.cpp:91] Creating Layer ReLU2
I0810 12:46:19.747174 13394 net.cpp:425] ReLU2 <- InnerProduct2
I0810 12:46:19.747200 13394 net.cpp:386] ReLU2 -> InnerProduct2 (in-place)
I0810 12:46:19.747228 13394 net.cpp:141] Setting up ReLU2
I0810 12:46:19.747252 13394 net.cpp:148] Top shape: 64 64 (4096)
I0810 12:46:19.747287 13394 net.cpp:156] Memory required for data: 65095168
I0810 12:46:19.747313 13394 layer_factory.hpp:77] Creating layer drop2
I0810 12:46:19.747337 13394 net.cpp:91] Creating Layer drop2
I0810 12:46:19.747361 13394 net.cpp:425] drop2 <- InnerProduct2
I0810 12:46:19.747387 13394 net.cpp:399] drop2 -> Dropout2
I0810 12:46:19.747416 13394 net.cpp:141] Setting up drop2
I0810 12:46:19.747442 13394 net.cpp:148] Top shape: 64 64 (4096)
I0810 12:46:19.747463 13394 net.cpp:156] Memory required for data: 65111552
I0810 12:46:19.747485 13394 layer_factory.hpp:77] Creating layer m1
I0810 12:46:19.747515 13394 net.cpp:91] Creating Layer m1
I0810 12:46:19.747539 13394 net.cpp:425] m1 <- Dropout2
I0810 12:46:19.747565 13394 net.cpp:399] m1 -> m1
I0810 12:46:19.747604 13394 net.cpp:141] Setting up m1
I0810 12:46:19.747629 13394 net.cpp:148] Top shape: 64 1 (64)
I0810 12:46:19.747653 13394 net.cpp:156] Memory required for data: 65111808
I0810 12:46:19.747680 13394 layer_factory.hpp:77] Creating layer Concat2
I0810 12:46:19.747706 13394 net.cpp:91] Creating Layer Concat2
I0810 12:46:19.747730 13394 net.cpp:425] Concat2 <- i1_i1_0_split_1
I0810 12:46:19.747755 13394 net.cpp:425] Concat2 <- i12
I0810 12:46:19.747781 13394 net.cpp:399] Concat2 -> Concat2
I0810 12:46:19.747810 13394 net.cpp:141] Setting up Concat2
I0810 12:46:19.747835 13394 net.cpp:148] Top shape: 64 2 1 4096 (524288)
I0810 12:46:19.747859 13394 net.cpp:156] Memory required for data: 67208960
I0810 12:46:19.747880 13394 layer_factory.hpp:77] Creating layer InnerProduct3
I0810 12:46:19.747916 13394 net.cpp:91] Creating Layer InnerProduct3
I0810 12:46:19.747939 13394 net.cpp:425] InnerProduct3 <- Concat2
I0810 12:46:19.747967 13394 net.cpp:399] InnerProduct3 -> InnerProduct3
I0810 12:46:19.754503 13394 net.cpp:141] Setting up InnerProduct3
I0810 12:46:19.754528 13394 net.cpp:148] Top shape: 64 64 (4096)
I0810 12:46:19.754534 13394 net.cpp:156] Memory required for data: 67225344
I0810 12:46:19.754542 13394 net.cpp:484] Sharing parameters 'fc1_w' owned by layer 'InnerProduct1', param index 0
I0810 12:46:19.754551 13394 net.cpp:484] Sharing parameters 'fc1_b' owned by layer 'InnerProduct1', param index 1
I0810 12:46:19.754559 13394 layer_factory.hpp:77] Creating layer ReLU3
I0810 12:46:19.754570 13394 net.cpp:91] Creating Layer ReLU3
I0810 12:46:19.754580 13394 net.cpp:425] ReLU3 <- InnerProduct3
I0810 12:46:19.754593 13394 net.cpp:386] ReLU3 -> InnerProduct3 (in-place)
I0810 12:46:19.754606 13394 net.cpp:141] Setting up ReLU3
I0810 12:46:19.754616 13394 net.cpp:148] Top shape: 64 64 (4096)
I0810 12:46:19.754622 13394 net.cpp:156] Memory required for data: 67241728
I0810 12:46:19.754629 13394 layer_factory.hpp:77] Creating layer drop1
I0810 12:46:19.754659 13394 net.cpp:91] Creating Layer drop1
I0810 12:46:19.754667 13394 net.cpp:425] drop1 <- InnerProduct3
I0810 12:46:19.754678 13394 net.cpp:399] drop1 -> Dropout3
I0810 12:46:19.754693 13394 net.cpp:141] Setting up drop1
I0810 12:46:19.754701 13394 net.cpp:148] Top shape: 64 64 (4096)
I0810 12:46:19.754709 13394 net.cpp:156] Memory required for data: 67258112
I0810 12:46:19.754715 13394 layer_factory.hpp:77] Creating layer InnerProduct4
I0810 12:46:19.754727 13394 net.cpp:91] Creating Layer InnerProduct4
I0810 12:46:19.754734 13394 net.cpp:425] InnerProduct4 <- Dropout3
I0810 12:46:19.754750 13394 net.cpp:399] InnerProduct4 -> InnerProduct4
I0810 12:46:19.754823 13394 net.cpp:141] Setting up InnerProduct4
I0810 12:46:19.754833 13394 net.cpp:148] Top shape: 64 64 (4096)
I0810 12:46:19.754840 13394 net.cpp:156] Memory required for data: 67274496
I0810 12:46:19.754850 13394 net.cpp:484] Sharing parameters 'fc2_w' owned by layer 'InnerProduct2', param index 0
I0810 12:46:19.754858 13394 net.cpp:484] Sharing parameters 'fc2_b' owned by layer 'InnerProduct2', param index 1
I0810 12:46:19.754864 13394 layer_factory.hpp:77] Creating layer ReLU4
I0810 12:46:19.754873 13394 net.cpp:91] Creating Layer ReLU4
I0810 12:46:19.754879 13394 net.cpp:425] ReLU4 <- InnerProduct4
I0810 12:46:19.754889 13394 net.cpp:386] ReLU4 -> InnerProduct4 (in-place)
I0810 12:46:19.754897 13394 net.cpp:141] Setting up ReLU4
I0810 12:46:19.754906 13394 net.cpp:148] Top shape: 64 64 (4096)
I0810 12:46:19.754912 13394 net.cpp:156] Memory required for data: 67290880
I0810 12:46:19.754919 13394 layer_factory.hpp:77] Creating layer drop2
I0810 12:46:19.754930 13394 net.cpp:91] Creating Layer drop2
I0810 12:46:19.754937 13394 net.cpp:425] drop2 <- InnerProduct4
I0810 12:46:19.754947 13394 net.cpp:399] drop2 -> Dropout4
I0810 12:46:19.754959 13394 net.cpp:141] Setting up drop2
I0810 12:46:19.754967 13394 net.cpp:148] Top shape: 64 64 (4096)
I0810 12:46:19.754973 13394 net.cpp:156] Memory required for data: 67307264
I0810 12:46:19.754979 13394 layer_factory.hpp:77] Creating layer m2
I0810 12:46:19.754989 13394 net.cpp:91] Creating Layer m2
I0810 12:46:19.754997 13394 net.cpp:425] m2 <- Dropout4
I0810 12:46:19.755009 13394 net.cpp:399] m2 -> m2
I0810 12:46:19.755029 13394 net.cpp:141] Setting up m2
I0810 12:46:19.755038 13394 net.cpp:148] Top shape: 64 1 (64)
I0810 12:46:19.755044 13394 net.cpp:156] Memory required for data: 67307520
I0810 12:46:19.755051 13394 net.cpp:484] Sharing parameters 'fc3_w' owned by layer 'm1', param index 0
I0810 12:46:19.755059 13394 net.cpp:484] Sharing parameters 'fc3_b' owned by layer 'm1', param index 1
I0810 12:46:19.755065 13394 layer_factory.hpp:77] Creating layer Concat3
I0810 12:46:19.755074 13394 net.cpp:91] Creating Layer Concat3
I0810 12:46:19.755081 13394 net.cpp:425] Concat3 <- i1_i1_0_split_2
I0810 12:46:19.755090 13394 net.cpp:425] Concat3 <- i13
I0810 12:46:19.755100 13394 net.cpp:399] Concat3 -> Concat3
I0810 12:46:19.755111 13394 net.cpp:141] Setting up Concat3
I0810 12:46:19.755120 13394 net.cpp:148] Top shape: 64 2 1 4096 (524288)
I0810 12:46:19.755126 13394 net.cpp:156] Memory required for data: 69404672
I0810 12:46:19.755133 13394 layer_factory.hpp:77] Creating layer InnerProduct5
I0810 12:46:19.755146 13394 net.cpp:91] Creating Layer InnerProduct5
I0810 12:46:19.755152 13394 net.cpp:425] InnerProduct5 <- Concat3
I0810 12:46:19.755162 13394 net.cpp:399] InnerProduct5 -> InnerProduct5
I0810 12:46:19.763165 13394 net.cpp:141] Setting up InnerProduct5
I0810 12:46:19.763190 13394 net.cpp:148] Top shape: 64 64 (4096)
I0810 12:46:19.763198 13394 net.cpp:156] Memory required for data: 69421056
I0810 12:46:19.763207 13394 net.cpp:484] Sharing parameters 'fc1_w' owned by layer 'InnerProduct1', param index 0
I0810 12:46:19.763216 13394 net.cpp:484] Sharing parameters 'fc1_b' owned by layer 'InnerProduct1', param index 1
I0810 12:46:19.763222 13394 layer_factory.hpp:77] Creating layer ReLU5
I0810 12:46:19.763237 13394 net.cpp:91] Creating Layer ReLU5
I0810 12:46:19.763245 13394 net.cpp:425] ReLU5 <- InnerProduct5
I0810 12:46:19.763286 13394 net.cpp:386] ReLU5 -> InnerProduct5 (in-place)
I0810 12:46:19.763299 13394 net.cpp:141] Setting up ReLU5
I0810 12:46:19.763309 13394 net.cpp:148] Top shape: 64 64 (4096)
I0810 12:46:19.763314 13394 net.cpp:156] Memory required for data: 69437440
I0810 12:46:19.763321 13394 layer_factory.hpp:77] Creating layer drop1
I0810 12:46:19.763335 13394 net.cpp:91] Creating Layer drop1
I0810 12:46:19.763342 13394 net.cpp:425] drop1 <- InnerProduct5
I0810 12:46:19.763352 13394 net.cpp:399] drop1 -> Dropout5
I0810 12:46:19.763365 13394 net.cpp:141] Setting up drop1
I0810 12:46:19.763375 13394 net.cpp:148] Top shape: 64 64 (4096)
I0810 12:46:19.763381 13394 net.cpp:156] Memory required for data: 69453824
I0810 12:46:19.763386 13394 layer_factory.hpp:77] Creating layer InnerProduct6
I0810 12:46:19.763401 13394 net.cpp:91] Creating Layer InnerProduct6
I0810 12:46:19.763407 13394 net.cpp:425] InnerProduct6 <- Dropout5
I0810 12:46:19.763418 13394 net.cpp:399] InnerProduct6 -> InnerProduct6
I0810 12:46:19.763496 13394 net.cpp:141] Setting up InnerProduct6
I0810 12:46:19.763504 13394 net.cpp:148] Top shape: 64 64 (4096)
I0810 12:46:19.763510 13394 net.cpp:156] Memory required for data: 69470208
I0810 12:46:19.763517 13394 net.cpp:484] Sharing parameters 'fc2_w' owned by layer 'InnerProduct2', param index 0
I0810 12:46:19.763525 13394 net.cpp:484] Sharing parameters 'fc2_b' owned by layer 'InnerProduct2', param index 1
I0810 12:46:19.763531 13394 layer_factory.hpp:77] Creating layer ReLU6
I0810 12:46:19.763540 13394 net.cpp:91] Creating Layer ReLU6
I0810 12:46:19.763546 13394 net.cpp:425] ReLU6 <- InnerProduct6
I0810 12:46:19.763558 13394 net.cpp:386] ReLU6 -> InnerProduct6 (in-place)
I0810 12:46:19.763568 13394 net.cpp:141] Setting up ReLU6
I0810 12:46:19.763576 13394 net.cpp:148] Top shape: 64 64 (4096)
I0810 12:46:19.763582 13394 net.cpp:156] Memory required for data: 69486592
I0810 12:46:19.763588 13394 layer_factory.hpp:77] Creating layer drop2
I0810 12:46:19.763597 13394 net.cpp:91] Creating Layer drop2
I0810 12:46:19.763603 13394 net.cpp:425] drop2 <- InnerProduct6
I0810 12:46:19.763613 13394 net.cpp:399] drop2 -> Dropout6
I0810 12:46:19.763625 13394 net.cpp:141] Setting up drop2
I0810 12:46:19.763633 13394 net.cpp:148] Top shape: 64 64 (4096)
I0810 12:46:19.763639 13394 net.cpp:156] Memory required for data: 69502976
I0810 12:46:19.763645 13394 layer_factory.hpp:77] Creating layer m3
I0810 12:46:19.763655 13394 net.cpp:91] Creating Layer m3
I0810 12:46:19.763661 13394 net.cpp:425] m3 <- Dropout6
I0810 12:46:19.763674 13394 net.cpp:399] m3 -> m3
I0810 12:46:19.763706 13394 net.cpp:141] Setting up m3
I0810 12:46:19.763718 13394 net.cpp:148] Top shape: 64 1 (64)
I0810 12:46:19.763725 13394 net.cpp:156] Memory required for data: 69503232
I0810 12:46:19.763736 13394 net.cpp:484] Sharing parameters 'fc3_w' owned by layer 'm1', param index 0
I0810 12:46:19.763746 13394 net.cpp:484] Sharing parameters 'fc3_b' owned by layer 'm1', param index 1
I0810 12:46:19.763751 13394 layer_factory.hpp:77] Creating layer Concat4
I0810 12:46:19.763761 13394 net.cpp:91] Creating Layer Concat4
I0810 12:46:19.763768 13394 net.cpp:425] Concat4 <- i1_i1_0_split_3
I0810 12:46:19.763777 13394 net.cpp:425] Concat4 <- i14
I0810 12:46:19.763787 13394 net.cpp:399] Concat4 -> Concat4
I0810 12:46:19.763798 13394 net.cpp:141] Setting up Concat4
I0810 12:46:19.763808 13394 net.cpp:148] Top shape: 64 2 1 4096 (524288)
I0810 12:46:19.763813 13394 net.cpp:156] Memory required for data: 71600384
I0810 12:46:19.763823 13394 layer_factory.hpp:77] Creating layer InnerProduct7
I0810 12:46:19.763842 13394 net.cpp:91] Creating Layer InnerProduct7
I0810 12:46:19.763849 13394 net.cpp:425] InnerProduct7 <- Concat4
I0810 12:46:19.763862 13394 net.cpp:399] InnerProduct7 -> InnerProduct7
I0810 12:46:19.769325 13394 net.cpp:141] Setting up InnerProduct7
I0810 12:46:19.769346 13394 net.cpp:148] Top shape: 64 64 (4096)
I0810 12:46:19.769354 13394 net.cpp:156] Memory required for data: 71616768
I0810 12:46:19.769364 13394 net.cpp:484] Sharing parameters 'fc1_w' owned by layer 'InnerProduct1', param index 0
I0810 12:46:19.769415 13394 net.cpp:484] Sharing parameters 'fc1_b' owned by layer 'InnerProduct1', param index 1
I0810 12:46:19.769426 13394 layer_factory.hpp:77] Creating layer ReLU7
I0810 12:46:19.769438 13394 net.cpp:91] Creating Layer ReLU7
I0810 12:46:19.769451 13394 net.cpp:425] ReLU7 <- InnerProduct7
I0810 12:46:19.769469 13394 net.cpp:386] ReLU7 -> InnerProduct7 (in-place)
I0810 12:46:19.769485 13394 net.cpp:141] Setting up ReLU7
I0810 12:46:19.769500 13394 net.cpp:148] Top shape: 64 64 (4096)
I0810 12:46:19.769511 13394 net.cpp:156] Memory required for data: 71633152
I0810 12:46:19.769518 13394 layer_factory.hpp:77] Creating layer drop1
I0810 12:46:19.769532 13394 net.cpp:91] Creating Layer drop1
I0810 12:46:19.769542 13394 net.cpp:425] drop1 <- InnerProduct7
I0810 12:46:19.769561 13394 net.cpp:399] drop1 -> Dropout7
I0810 12:46:19.769578 13394 net.cpp:141] Setting up drop1
I0810 12:46:19.769590 13394 net.cpp:148] Top shape: 64 64 (4096)
I0810 12:46:19.769600 13394 net.cpp:156] Memory required for data: 71649536
I0810 12:46:19.769608 13394 layer_factory.hpp:77] Creating layer InnerProduct8
I0810 12:46:19.769623 13394 net.cpp:91] Creating Layer InnerProduct8
I0810 12:46:19.769632 13394 net.cpp:425] InnerProduct8 <- Dropout7
I0810 12:46:19.769647 13394 net.cpp:399] InnerProduct8 -> InnerProduct8
I0810 12:46:19.769722 13394 net.cpp:141] Setting up InnerProduct8
I0810 12:46:19.769734 13394 net.cpp:148] Top shape: 64 64 (4096)
I0810 12:46:19.769743 13394 net.cpp:156] Memory required for data: 71665920
I0810 12:46:19.769754 13394 net.cpp:484] Sharing parameters 'fc2_w' owned by layer 'InnerProduct2', param index 0
I0810 12:46:19.769767 13394 net.cpp:484] Sharing parameters 'fc2_b' owned by layer 'InnerProduct2', param index 1
I0810 12:46:19.769775 13394 layer_factory.hpp:77] Creating layer ReLU8
I0810 12:46:19.769788 13394 net.cpp:91] Creating Layer ReLU8
I0810 12:46:19.769798 13394 net.cpp:425] ReLU8 <- InnerProduct8
I0810 12:46:19.769812 13394 net.cpp:386] ReLU8 -> InnerProduct8 (in-place)
I0810 12:46:19.769825 13394 net.cpp:141] Setting up ReLU8
I0810 12:46:19.769837 13394 net.cpp:148] Top shape: 64 64 (4096)
I0810 12:46:19.769847 13394 net.cpp:156] Memory required for data: 71682304
I0810 12:46:19.769855 13394 layer_factory.hpp:77] Creating layer drop2
I0810 12:46:19.769868 13394 net.cpp:91] Creating Layer drop2
I0810 12:46:19.769878 13394 net.cpp:425] drop2 <- InnerProduct8
I0810 12:46:19.769889 13394 net.cpp:399] drop2 -> Dropout8
I0810 12:46:19.769906 13394 net.cpp:141] Setting up drop2
I0810 12:46:19.769917 13394 net.cpp:148] Top shape: 64 64 (4096)
I0810 12:46:19.769927 13394 net.cpp:156] Memory required for data: 71698688
I0810 12:46:19.769935 13394 layer_factory.hpp:77] Creating layer m4
I0810 12:46:19.769949 13394 net.cpp:91] Creating Layer m4
I0810 12:46:19.769959 13394 net.cpp:425] m4 <- Dropout8
I0810 12:46:19.769974 13394 net.cpp:399] m4 -> m4
I0810 12:46:19.769999 13394 net.cpp:141] Setting up m4
I0810 12:46:19.770010 13394 net.cpp:148] Top shape: 64 1 (64)
I0810 12:46:19.770020 13394 net.cpp:156] Memory required for data: 71698944
I0810 12:46:19.770030 13394 net.cpp:484] Sharing parameters 'fc3_w' owned by layer 'm1', param index 0
I0810 12:46:19.770041 13394 net.cpp:484] Sharing parameters 'fc3_b' owned by layer 'm1', param index 1
I0810 12:46:19.770051 13394 layer_factory.hpp:77] Creating layer Concat5
I0810 12:46:19.770064 13394 net.cpp:91] Creating Layer Concat5
I0810 12:46:19.770073 13394 net.cpp:425] Concat5 <- i1_i1_0_split_4
I0810 12:46:19.770083 13394 net.cpp:425] Concat5 <- i15
I0810 12:46:19.770097 13394 net.cpp:399] Concat5 -> Concat5
I0810 12:46:19.770113 13394 net.cpp:141] Setting up Concat5
I0810 12:46:19.770126 13394 net.cpp:148] Top shape: 64 2 1 4096 (524288)
I0810 12:46:19.770135 13394 net.cpp:156] Memory required for data: 73796096
I0810 12:46:19.770146 13394 layer_factory.hpp:77] Creating layer InnerProduct9
I0810 12:46:19.770162 13394 net.cpp:91] Creating Layer InnerProduct9
I0810 12:46:19.770172 13394 net.cpp:425] InnerProduct9 <- Concat5
I0810 12:46:19.770198 13394 net.cpp:399] InnerProduct9 -> InnerProduct9
I0810 12:46:19.775758 13394 net.cpp:141] Setting up InnerProduct9
I0810 12:46:19.775781 13394 net.cpp:148] Top shape: 64 64 (4096)
I0810 12:46:19.775789 13394 net.cpp:156] Memory required for data: 73812480
I0810 12:46:19.775799 13394 net.cpp:484] Sharing parameters 'fc1_w' owned by layer 'InnerProduct1', param index 0
I0810 12:46:19.775812 13394 net.cpp:484] Sharing parameters 'fc1_b' owned by layer 'InnerProduct1', param index 1
I0810 12:46:19.775823 13394 layer_factory.hpp:77] Creating layer ReLU9
I0810 12:46:19.775840 13394 net.cpp:91] Creating Layer ReLU9
I0810 12:46:19.775851 13394 net.cpp:425] ReLU9 <- InnerProduct9
I0810 12:46:19.775866 13394 net.cpp:386] ReLU9 -> InnerProduct9 (in-place)
I0810 12:46:19.775882 13394 net.cpp:141] Setting up ReLU9
I0810 12:46:19.775893 13394 net.cpp:148] Top shape: 64 64 (4096)
I0810 12:46:19.775903 13394 net.cpp:156] Memory required for data: 73828864
I0810 12:46:19.775910 13394 layer_factory.hpp:77] Creating layer drop1
I0810 12:46:19.775926 13394 net.cpp:91] Creating Layer drop1
I0810 12:46:19.775936 13394 net.cpp:425] drop1 <- InnerProduct9
I0810 12:46:19.775949 13394 net.cpp:399] drop1 -> Dropout9
I0810 12:46:19.775966 13394 net.cpp:141] Setting up drop1
I0810 12:46:19.775977 13394 net.cpp:148] Top shape: 64 64 (4096)
I0810 12:46:19.775988 13394 net.cpp:156] Memory required for data: 73845248
I0810 12:46:19.775995 13394 layer_factory.hpp:77] Creating layer InnerProduct10
I0810 12:46:19.776015 13394 net.cpp:91] Creating Layer InnerProduct10
I0810 12:46:19.776024 13394 net.cpp:425] InnerProduct10 <- Dropout9
I0810 12:46:19.776039 13394 net.cpp:399] InnerProduct10 -> InnerProduct10
I0810 12:46:19.776113 13394 net.cpp:141] Setting up InnerProduct10
I0810 12:46:19.776124 13394 net.cpp:148] Top shape: 64 64 (4096)
I0810 12:46:19.776134 13394 net.cpp:156] Memory required for data: 73861632
I0810 12:46:19.776141 13394 net.cpp:484] Sharing parameters 'fc2_w' owned by layer 'InnerProduct2', param index 0
I0810 12:46:19.776152 13394 net.cpp:484] Sharing parameters 'fc2_b' owned by layer 'InnerProduct2', param index 1
I0810 12:46:19.776161 13394 layer_factory.hpp:77] Creating layer ReLU10
I0810 12:46:19.776171 13394 net.cpp:91] Creating Layer ReLU10
I0810 12:46:19.776181 13394 net.cpp:425] ReLU10 <- InnerProduct10
I0810 12:46:19.776195 13394 net.cpp:386] ReLU10 -> InnerProduct10 (in-place)
I0810 12:46:19.776208 13394 net.cpp:141] Setting up ReLU10
I0810 12:46:19.776221 13394 net.cpp:148] Top shape: 64 64 (4096)
I0810 12:46:19.776231 13394 net.cpp:156] Memory required for data: 73878016
I0810 12:46:19.776237 13394 layer_factory.hpp:77] Creating layer drop2
I0810 12:46:19.776250 13394 net.cpp:91] Creating Layer drop2
I0810 12:46:19.776260 13394 net.cpp:425] drop2 <- InnerProduct10
I0810 12:46:19.776274 13394 net.cpp:399] drop2 -> Dropout10
I0810 12:46:19.776290 13394 net.cpp:141] Setting up drop2
I0810 12:46:19.776302 13394 net.cpp:148] Top shape: 64 64 (4096)
I0810 12:46:19.776312 13394 net.cpp:156] Memory required for data: 73894400
I0810 12:46:19.776320 13394 layer_factory.hpp:77] Creating layer m5
I0810 12:46:19.776335 13394 net.cpp:91] Creating Layer m5
I0810 12:46:19.776345 13394 net.cpp:425] m5 <- Dropout10
I0810 12:46:19.776360 13394 net.cpp:399] m5 -> m5
I0810 12:46:19.776384 13394 net.cpp:141] Setting up m5
I0810 12:46:19.776396 13394 net.cpp:148] Top shape: 64 1 (64)
I0810 12:46:19.776404 13394 net.cpp:156] Memory required for data: 73894656
I0810 12:46:19.776412 13394 net.cpp:484] Sharing parameters 'fc3_w' owned by layer 'm1', param index 0
I0810 12:46:19.776423 13394 net.cpp:484] Sharing parameters 'fc3_b' owned by layer 'm1', param index 1
I0810 12:46:19.776433 13394 layer_factory.hpp:77] Creating layer Concat6
I0810 12:46:19.776446 13394 net.cpp:91] Creating Layer Concat6
I0810 12:46:19.776456 13394 net.cpp:425] Concat6 <- i1_i1_0_split_5
I0810 12:46:19.776466 13394 net.cpp:425] Concat6 <- i16
I0810 12:46:19.776482 13394 net.cpp:399] Concat6 -> Concat6
I0810 12:46:19.776499 13394 net.cpp:141] Setting up Concat6
I0810 12:46:19.776527 13394 net.cpp:148] Top shape: 64 2 1 4096 (524288)
I0810 12:46:19.776538 13394 net.cpp:156] Memory required for data: 75991808
I0810 12:46:19.776546 13394 layer_factory.hpp:77] Creating layer InnerProduct11
I0810 12:46:19.776561 13394 net.cpp:91] Creating Layer InnerProduct11
I0810 12:46:19.776569 13394 net.cpp:425] InnerProduct11 <- Concat6
I0810 12:46:19.776582 13394 net.cpp:399] InnerProduct11 -> InnerProduct11
I0810 12:46:19.781965 13394 net.cpp:141] Setting up InnerProduct11
I0810 12:46:19.781986 13394 net.cpp:148] Top shape: 64 64 (4096)
I0810 12:46:19.781994 13394 net.cpp:156] Memory required for data: 76008192
I0810 12:46:19.782032 13394 net.cpp:484] Sharing parameters 'fc1_w' owned by layer 'InnerProduct1', param index 0
I0810 12:46:19.782043 13394 net.cpp:484] Sharing parameters 'fc1_b' owned by layer 'InnerProduct1', param index 1
I0810 12:46:19.782054 13394 layer_factory.hpp:77] Creating layer ReLU11
I0810 12:46:19.782069 13394 net.cpp:91] Creating Layer ReLU11
I0810 12:46:19.782080 13394 net.cpp:425] ReLU11 <- InnerProduct11
I0810 12:46:19.782095 13394 net.cpp:386] ReLU11 -> InnerProduct11 (in-place)
I0810 12:46:19.782110 13394 net.cpp:141] Setting up ReLU11
I0810 12:46:19.782122 13394 net.cpp:148] Top shape: 64 64 (4096)
I0810 12:46:19.782131 13394 net.cpp:156] Memory required for data: 76024576
I0810 12:46:19.782140 13394 layer_factory.hpp:77] Creating layer drop1
I0810 12:46:19.782152 13394 net.cpp:91] Creating Layer drop1
I0810 12:46:19.782162 13394 net.cpp:425] drop1 <- InnerProduct11
I0810 12:46:19.782174 13394 net.cpp:399] drop1 -> Dropout11
I0810 12:46:19.782192 13394 net.cpp:141] Setting up drop1
I0810 12:46:19.782203 13394 net.cpp:148] Top shape: 64 64 (4096)
I0810 12:46:19.782213 13394 net.cpp:156] Memory required for data: 76040960
I0810 12:46:19.782220 13394 layer_factory.hpp:77] Creating layer InnerProduct12
I0810 12:46:19.782240 13394 net.cpp:91] Creating Layer InnerProduct12
I0810 12:46:19.782250 13394 net.cpp:425] InnerProduct12 <- Dropout11
I0810 12:46:19.782265 13394 net.cpp:399] InnerProduct12 -> InnerProduct12
I0810 12:46:19.782337 13394 net.cpp:141] Setting up InnerProduct12
I0810 12:46:19.782349 13394 net.cpp:148] Top shape: 64 64 (4096)
I0810 12:46:19.782358 13394 net.cpp:156] Memory required for data: 76057344
I0810 12:46:19.782379 13394 net.cpp:484] Sharing parameters 'fc2_w' owned by layer 'InnerProduct2', param index 0
I0810 12:46:19.782390 13394 net.cpp:484] Sharing parameters 'fc2_b' owned by layer 'InnerProduct2', param index 1
I0810 12:46:19.782400 13394 layer_factory.hpp:77] Creating layer ReLU12
I0810 12:46:19.782413 13394 net.cpp:91] Creating Layer ReLU12
I0810 12:46:19.782423 13394 net.cpp:425] ReLU12 <- InnerProduct12
I0810 12:46:19.782433 13394 net.cpp:386] ReLU12 -> InnerProduct12 (in-place)
I0810 12:46:19.782446 13394 net.cpp:141] Setting up ReLU12
I0810 12:46:19.782459 13394 net.cpp:148] Top shape: 64 64 (4096)
I0810 12:46:19.782469 13394 net.cpp:156] Memory required for data: 76073728
I0810 12:46:19.782476 13394 layer_factory.hpp:77] Creating layer drop2
I0810 12:46:19.782490 13394 net.cpp:91] Creating Layer drop2
I0810 12:46:19.782500 13394 net.cpp:425] drop2 <- InnerProduct12
I0810 12:46:19.782516 13394 net.cpp:399] drop2 -> Dropout12
I0810 12:46:19.782532 13394 net.cpp:141] Setting up drop2
I0810 12:46:19.782546 13394 net.cpp:148] Top shape: 64 64 (4096)
I0810 12:46:19.782554 13394 net.cpp:156] Memory required for data: 76090112
I0810 12:46:19.782562 13394 layer_factory.hpp:77] Creating layer m6
I0810 12:46:19.782577 13394 net.cpp:91] Creating Layer m6
I0810 12:46:19.782587 13394 net.cpp:425] m6 <- Dropout12
I0810 12:46:19.782598 13394 net.cpp:399] m6 -> m6
I0810 12:46:19.782624 13394 net.cpp:141] Setting up m6
I0810 12:46:19.782636 13394 net.cpp:148] Top shape: 64 1 (64)
I0810 12:46:19.782645 13394 net.cpp:156] Memory required for data: 76090368
I0810 12:46:19.782654 13394 net.cpp:484] Sharing parameters 'fc3_w' owned by layer 'm1', param index 0
I0810 12:46:19.782663 13394 net.cpp:484] Sharing parameters 'fc3_b' owned by layer 'm1', param index 1
I0810 12:46:19.782686 13394 layer_factory.hpp:77] Creating layer Concat7
I0810 12:46:19.782697 13394 net.cpp:91] Creating Layer Concat7
I0810 12:46:19.782707 13394 net.cpp:425] Concat7 <- i1_i1_0_split_6
I0810 12:46:19.782716 13394 net.cpp:425] Concat7 <- i17
I0810 12:46:19.782729 13394 net.cpp:399] Concat7 -> Concat7
I0810 12:46:19.782747 13394 net.cpp:141] Setting up Concat7
I0810 12:46:19.782758 13394 net.cpp:148] Top shape: 64 2 1 4096 (524288)
I0810 12:46:19.782768 13394 net.cpp:156] Memory required for data: 78187520
I0810 12:46:19.782775 13394 layer_factory.hpp:77] Creating layer InnerProduct13
I0810 12:46:19.782789 13394 net.cpp:91] Creating Layer InnerProduct13
I0810 12:46:19.782799 13394 net.cpp:425] InnerProduct13 <- Concat7
I0810 12:46:19.782815 13394 net.cpp:399] InnerProduct13 -> InnerProduct13
I0810 12:46:19.788178 13394 net.cpp:141] Setting up InnerProduct13
I0810 12:46:19.788203 13394 net.cpp:148] Top shape: 64 64 (4096)
I0810 12:46:19.788210 13394 net.cpp:156] Memory required for data: 78203904
I0810 12:46:19.788219 13394 net.cpp:484] Sharing parameters 'fc1_w' owned by layer 'InnerProduct1', param index 0
I0810 12:46:19.788231 13394 net.cpp:484] Sharing parameters 'fc1_b' owned by layer 'InnerProduct1', param index 1
I0810 12:46:19.788242 13394 layer_factory.hpp:77] Creating layer ReLU13
I0810 12:46:19.788254 13394 net.cpp:91] Creating Layer ReLU13
I0810 12:46:19.788265 13394 net.cpp:425] ReLU13 <- InnerProduct13
I0810 12:46:19.788280 13394 net.cpp:386] ReLU13 -> InnerProduct13 (in-place)
I0810 12:46:19.788295 13394 net.cpp:141] Setting up ReLU13
I0810 12:46:19.788307 13394 net.cpp:148] Top shape: 64 64 (4096)
I0810 12:46:19.788316 13394 net.cpp:156] Memory required for data: 78220288
I0810 12:46:19.788326 13394 layer_factory.hpp:77] Creating layer drop1
I0810 12:46:19.788342 13394 net.cpp:91] Creating Layer drop1
I0810 12:46:19.788353 13394 net.cpp:425] drop1 <- InnerProduct13
I0810 12:46:19.788365 13394 net.cpp:399] drop1 -> Dropout13
I0810 12:46:19.788383 13394 net.cpp:141] Setting up drop1
I0810 12:46:19.788399 13394 net.cpp:148] Top shape: 64 64 (4096)
I0810 12:46:19.788408 13394 net.cpp:156] Memory required for data: 78236672
I0810 12:46:19.788416 13394 layer_factory.hpp:77] Creating layer InnerProduct14
I0810 12:46:19.788431 13394 net.cpp:91] Creating Layer InnerProduct14
I0810 12:46:19.788442 13394 net.cpp:425] InnerProduct14 <- Dropout13
I0810 12:46:19.788457 13394 net.cpp:399] InnerProduct14 -> InnerProduct14
I0810 12:46:19.788548 13394 net.cpp:141] Setting up InnerProduct14
I0810 12:46:19.788564 13394 net.cpp:148] Top shape: 64 64 (4096)
I0810 12:46:19.788574 13394 net.cpp:156] Memory required for data: 78253056
I0810 12:46:19.788583 13394 net.cpp:484] Sharing parameters 'fc2_w' owned by layer 'InnerProduct2', param index 0
I0810 12:46:19.788594 13394 net.cpp:484] Sharing parameters 'fc2_b' owned by layer 'InnerProduct2', param index 1
I0810 12:46:19.788604 13394 layer_factory.hpp:77] Creating layer ReLU14
I0810 12:46:19.788615 13394 net.cpp:91] Creating Layer ReLU14
I0810 12:46:19.788625 13394 net.cpp:425] ReLU14 <- InnerProduct14
I0810 12:46:19.788635 13394 net.cpp:386] ReLU14 -> InnerProduct14 (in-place)
I0810 12:46:19.788648 13394 net.cpp:141] Setting up ReLU14
I0810 12:46:19.788661 13394 net.cpp:148] Top shape: 64 64 (4096)
I0810 12:46:19.788671 13394 net.cpp:156] Memory required for data: 78269440
I0810 12:46:19.788678 13394 layer_factory.hpp:77] Creating layer drop2
I0810 12:46:19.788691 13394 net.cpp:91] Creating Layer drop2
I0810 12:46:19.788727 13394 net.cpp:425] drop2 <- InnerProduct14
I0810 12:46:19.788748 13394 net.cpp:399] drop2 -> Dropout14
I0810 12:46:19.788765 13394 net.cpp:141] Setting up drop2
I0810 12:46:19.788776 13394 net.cpp:148] Top shape: 64 64 (4096)
I0810 12:46:19.788785 13394 net.cpp:156] Memory required for data: 78285824
I0810 12:46:19.788794 13394 layer_factory.hpp:77] Creating layer m7
I0810 12:46:19.788805 13394 net.cpp:91] Creating Layer m7
I0810 12:46:19.788815 13394 net.cpp:425] m7 <- Dropout14
I0810 12:46:19.788828 13394 net.cpp:399] m7 -> m7
I0810 12:46:19.788873 13394 net.cpp:141] Setting up m7
I0810 12:46:19.788887 13394 net.cpp:148] Top shape: 64 1 (64)
I0810 12:46:19.788895 13394 net.cpp:156] Memory required for data: 78286080
I0810 12:46:19.788907 13394 net.cpp:484] Sharing parameters 'fc3_w' owned by layer 'm1', param index 0
I0810 12:46:19.788918 13394 net.cpp:484] Sharing parameters 'fc3_b' owned by layer 'm1', param index 1
I0810 12:46:19.788928 13394 layer_factory.hpp:77] Creating layer Concat8
I0810 12:46:19.788939 13394 net.cpp:91] Creating Layer Concat8
I0810 12:46:19.788949 13394 net.cpp:425] Concat8 <- i1_i1_0_split_7
I0810 12:46:19.788959 13394 net.cpp:425] Concat8 <- i18
I0810 12:46:19.788974 13394 net.cpp:399] Concat8 -> Concat8
I0810 12:46:19.788990 13394 net.cpp:141] Setting up Concat8
I0810 12:46:19.789003 13394 net.cpp:148] Top shape: 64 2 1 4096 (524288)
I0810 12:46:19.791316 13394 net.cpp:156] Memory required for data: 80383232
I0810 12:46:19.791326 13394 layer_factory.hpp:77] Creating layer InnerProduct15
I0810 12:46:19.791365 13394 net.cpp:91] Creating Layer InnerProduct15
I0810 12:46:19.791374 13394 net.cpp:425] InnerProduct15 <- Concat8
I0810 12:46:19.791388 13394 net.cpp:399] InnerProduct15 -> InnerProduct15
I0810 12:46:19.797130 13394 net.cpp:141] Setting up InnerProduct15
I0810 12:46:19.797153 13394 net.cpp:148] Top shape: 64 64 (4096)
I0810 12:46:19.797160 13394 net.cpp:156] Memory required for data: 80399616
I0810 12:46:19.797169 13394 net.cpp:484] Sharing parameters 'fc1_w' owned by layer 'InnerProduct1', param index 0
I0810 12:46:19.797178 13394 net.cpp:484] Sharing parameters 'fc1_b' owned by layer 'InnerProduct1', param index 1
I0810 12:46:19.797186 13394 layer_factory.hpp:77] Creating layer ReLU15
I0810 12:46:19.797197 13394 net.cpp:91] Creating Layer ReLU15
I0810 12:46:19.797205 13394 net.cpp:425] ReLU15 <- InnerProduct15
I0810 12:46:19.797219 13394 net.cpp:386] ReLU15 -> InnerProduct15 (in-place)
I0810 12:46:19.797230 13394 net.cpp:141] Setting up ReLU15
I0810 12:46:19.797240 13394 net.cpp:148] Top shape: 64 64 (4096)
I0810 12:46:19.797245 13394 net.cpp:156] Memory required for data: 80416000
I0810 12:46:19.797253 13394 layer_factory.hpp:77] Creating layer drop1
I0810 12:46:19.797264 13394 net.cpp:91] Creating Layer drop1
I0810 12:46:19.797272 13394 net.cpp:425] drop1 <- InnerProduct15
I0810 12:46:19.797284 13394 net.cpp:399] drop1 -> Dropout15
I0810 12:46:19.797302 13394 net.cpp:141] Setting up drop1
I0810 12:46:19.797310 13394 net.cpp:148] Top shape: 64 64 (4096)
I0810 12:46:19.797320 13394 net.cpp:156] Memory required for data: 80432384
I0810 12:46:19.797327 13394 layer_factory.hpp:77] Creating layer InnerProduct16
I0810 12:46:19.797343 13394 net.cpp:91] Creating Layer InnerProduct16
I0810 12:46:19.797353 13394 net.cpp:425] InnerProduct16 <- Dropout15
I0810 12:46:19.797366 13394 net.cpp:399] InnerProduct16 -> InnerProduct16
I0810 12:46:19.797431 13394 net.cpp:141] Setting up InnerProduct16
I0810 12:46:19.797442 13394 net.cpp:148] Top shape: 64 64 (4096)
I0810 12:46:19.797448 13394 net.cpp:156] Memory required for data: 80448768
I0810 12:46:19.797456 13394 net.cpp:484] Sharing parameters 'fc2_w' owned by layer 'InnerProduct2', param index 0
I0810 12:46:19.797463 13394 net.cpp:484] Sharing parameters 'fc2_b' owned by layer 'InnerProduct2', param index 1
I0810 12:46:19.797471 13394 layer_factory.hpp:77] Creating layer ReLU16
I0810 12:46:19.797482 13394 net.cpp:91] Creating Layer ReLU16
I0810 12:46:19.797488 13394 net.cpp:425] ReLU16 <- InnerProduct16
I0810 12:46:19.797499 13394 net.cpp:386] ReLU16 -> InnerProduct16 (in-place)
I0810 12:46:19.797513 13394 net.cpp:141] Setting up ReLU16
I0810 12:46:19.797528 13394 net.cpp:148] Top shape: 64 64 (4096)
I0810 12:46:19.797534 13394 net.cpp:156] Memory required for data: 80465152
I0810 12:46:19.797544 13394 layer_factory.hpp:77] Creating layer drop2
I0810 12:46:19.797554 13394 net.cpp:91] Creating Layer drop2
I0810 12:46:19.797560 13394 net.cpp:425] drop2 <- InnerProduct16
I0810 12:46:19.797570 13394 net.cpp:399] drop2 -> Dropout16
I0810 12:46:19.797585 13394 net.cpp:141] Setting up drop2
I0810 12:46:19.797621 13394 net.cpp:148] Top shape: 64 64 (4096)
I0810 12:46:19.797627 13394 net.cpp:156] Memory required for data: 80481536
I0810 12:46:19.797637 13394 layer_factory.hpp:77] Creating layer m8
I0810 12:46:19.797652 13394 net.cpp:91] Creating Layer m8
I0810 12:46:19.797662 13394 net.cpp:425] m8 <- Dropout16
I0810 12:46:19.797672 13394 net.cpp:399] m8 -> m8
I0810 12:46:19.797698 13394 net.cpp:141] Setting up m8
I0810 12:46:19.797709 13394 net.cpp:148] Top shape: 64 1 (64)
I0810 12:46:19.797716 13394 net.cpp:156] Memory required for data: 80481792
I0810 12:46:19.797727 13394 net.cpp:484] Sharing parameters 'fc3_w' owned by layer 'm1', param index 0
I0810 12:46:19.797735 13394 net.cpp:484] Sharing parameters 'fc3_b' owned by layer 'm1', param index 1
I0810 12:46:19.797744 13394 layer_factory.hpp:77] Creating layer Concat9
I0810 12:46:19.797755 13394 net.cpp:91] Creating Layer Concat9
I0810 12:46:19.797765 13394 net.cpp:425] Concat9 <- i1_i1_0_split_8
I0810 12:46:19.797775 13394 net.cpp:425] Concat9 <- i19
I0810 12:46:19.797793 13394 net.cpp:399] Concat9 -> Concat9
I0810 12:46:19.797809 13394 net.cpp:141] Setting up Concat9
I0810 12:46:19.797821 13394 net.cpp:148] Top shape: 64 2 1 4096 (524288)
I0810 12:46:19.797830 13394 net.cpp:156] Memory required for data: 82578944
I0810 12:46:19.797838 13394 layer_factory.hpp:77] Creating layer InnerProduct17
I0810 12:46:19.797852 13394 net.cpp:91] Creating Layer InnerProduct17
I0810 12:46:19.797860 13394 net.cpp:425] InnerProduct17 <- Concat9
I0810 12:46:19.797871 13394 net.cpp:399] InnerProduct17 -> InnerProduct17
I0810 12:46:19.803134 13394 net.cpp:141] Setting up InnerProduct17
I0810 12:46:19.803156 13394 net.cpp:148] Top shape: 64 64 (4096)
I0810 12:46:19.803163 13394 net.cpp:156] Memory required for data: 82595328
I0810 12:46:19.803170 13394 net.cpp:484] Sharing parameters 'fc1_w' owned by layer 'InnerProduct1', param index 0
I0810 12:46:19.803182 13394 net.cpp:484] Sharing parameters 'fc1_b' owned by layer 'InnerProduct1', param index 1
I0810 12:46:19.803189 13394 layer_factory.hpp:77] Creating layer ReLU17
I0810 12:46:19.803202 13394 net.cpp:91] Creating Layer ReLU17
I0810 12:46:19.803213 13394 net.cpp:425] ReLU17 <- InnerProduct17
I0810 12:46:19.803226 13394 net.cpp:386] ReLU17 -> InnerProduct17 (in-place)
I0810 12:46:19.803243 13394 net.cpp:141] Setting up ReLU17
I0810 12:46:19.803256 13394 net.cpp:148] Top shape: 64 64 (4096)
I0810 12:46:19.803266 13394 net.cpp:156] Memory required for data: 82611712
I0810 12:46:19.803278 13394 layer_factory.hpp:77] Creating layer drop1
I0810 12:46:19.803288 13394 net.cpp:91] Creating Layer drop1
I0810 12:46:19.803299 13394 net.cpp:425] drop1 <- InnerProduct17
I0810 12:46:19.803311 13394 net.cpp:399] drop1 -> Dropout17
I0810 12:46:19.803330 13394 net.cpp:141] Setting up drop1
I0810 12:46:19.803341 13394 net.cpp:148] Top shape: 64 64 (4096)
I0810 12:46:19.803347 13394 net.cpp:156] Memory required for data: 82628096
I0810 12:46:19.803356 13394 layer_factory.hpp:77] Creating layer InnerProduct18
I0810 12:46:19.803370 13394 net.cpp:91] Creating Layer InnerProduct18
I0810 12:46:19.803380 13394 net.cpp:425] InnerProduct18 <- Dropout17
I0810 12:46:19.803397 13394 net.cpp:399] InnerProduct18 -> InnerProduct18
I0810 12:46:19.803468 13394 net.cpp:141] Setting up InnerProduct18
I0810 12:46:19.803481 13394 net.cpp:148] Top shape: 64 64 (4096)
I0810 12:46:19.803491 13394 net.cpp:156] Memory required for data: 82644480
I0810 12:46:19.803500 13394 net.cpp:484] Sharing parameters 'fc2_w' owned by layer 'InnerProduct2', param index 0
I0810 12:46:19.803510 13394 net.cpp:484] Sharing parameters 'fc2_b' owned by layer 'InnerProduct2', param index 1
I0810 12:46:19.803517 13394 layer_factory.hpp:77] Creating layer ReLU18
I0810 12:46:19.803534 13394 net.cpp:91] Creating Layer ReLU18
I0810 12:46:19.803542 13394 net.cpp:425] ReLU18 <- InnerProduct18
I0810 12:46:19.803551 13394 net.cpp:386] ReLU18 -> InnerProduct18 (in-place)
I0810 12:46:19.803565 13394 net.cpp:141] Setting up ReLU18
I0810 12:46:19.803573 13394 net.cpp:148] Top shape: 64 64 (4096)
I0810 12:46:19.803601 13394 net.cpp:156] Memory required for data: 82660864
I0810 12:46:19.803607 13394 layer_factory.hpp:77] Creating layer drop2
I0810 12:46:19.803622 13394 net.cpp:91] Creating Layer drop2
I0810 12:46:19.803632 13394 net.cpp:425] drop2 <- InnerProduct18
I0810 12:46:19.803643 13394 net.cpp:399] drop2 -> Dropout18
I0810 12:46:19.803659 13394 net.cpp:141] Setting up drop2
I0810 12:46:19.803671 13394 net.cpp:148] Top shape: 64 64 (4096)
I0810 12:46:19.803681 13394 net.cpp:156] Memory required for data: 82677248
I0810 12:46:19.803692 13394 layer_factory.hpp:77] Creating layer m9
I0810 12:46:19.803707 13394 net.cpp:91] Creating Layer m9
I0810 12:46:19.803716 13394 net.cpp:425] m9 <- Dropout18
I0810 12:46:19.803726 13394 net.cpp:399] m9 -> m9
I0810 12:46:19.803747 13394 net.cpp:141] Setting up m9
I0810 12:46:19.803756 13394 net.cpp:148] Top shape: 64 1 (64)
I0810 12:46:19.803762 13394 net.cpp:156] Memory required for data: 82677504
I0810 12:46:19.803769 13394 net.cpp:484] Sharing parameters 'fc3_w' owned by layer 'm1', param index 0
I0810 12:46:19.803777 13394 net.cpp:484] Sharing parameters 'fc3_b' owned by layer 'm1', param index 1
I0810 12:46:19.803784 13394 layer_factory.hpp:77] Creating layer Concat10
I0810 12:46:19.803798 13394 net.cpp:91] Creating Layer Concat10
I0810 12:46:19.803805 13394 net.cpp:425] Concat10 <- i1_i1_0_split_9
I0810 12:46:19.803814 13394 net.cpp:425] Concat10 <- i20
I0810 12:46:19.803825 13394 net.cpp:399] Concat10 -> Concat10
I0810 12:46:19.803840 13394 net.cpp:141] Setting up Concat10
I0810 12:46:19.803849 13394 net.cpp:148] Top shape: 64 2 1 4096 (524288)
I0810 12:46:19.803856 13394 net.cpp:156] Memory required for data: 84774656
I0810 12:46:19.803864 13394 layer_factory.hpp:77] Creating layer InnerProduct19
I0810 12:46:19.803875 13394 net.cpp:91] Creating Layer InnerProduct19
I0810 12:46:19.803884 13394 net.cpp:425] InnerProduct19 <- Concat10
I0810 12:46:19.803895 13394 net.cpp:399] InnerProduct19 -> InnerProduct19
I0810 12:46:19.811077 13394 net.cpp:141] Setting up InnerProduct19
I0810 12:46:19.811095 13394 net.cpp:148] Top shape: 64 64 (4096)
I0810 12:46:19.811103 13394 net.cpp:156] Memory required for data: 84791040
I0810 12:46:19.811112 13394 net.cpp:484] Sharing parameters 'fc1_w' owned by layer 'InnerProduct1', param index 0
I0810 12:46:19.811120 13394 net.cpp:484] Sharing parameters 'fc1_b' owned by layer 'InnerProduct1', param index 1
I0810 12:46:19.811128 13394 layer_factory.hpp:77] Creating layer ReLU19
I0810 12:46:19.811142 13394 net.cpp:91] Creating Layer ReLU19
I0810 12:46:19.811151 13394 net.cpp:425] ReLU19 <- InnerProduct19
I0810 12:46:19.811162 13394 net.cpp:386] ReLU19 -> InnerProduct19 (in-place)
I0810 12:46:19.811175 13394 net.cpp:141] Setting up ReLU19
I0810 12:46:19.811184 13394 net.cpp:148] Top shape: 64 64 (4096)
I0810 12:46:19.811192 13394 net.cpp:156] Memory required for data: 84807424
I0810 12:46:19.811200 13394 layer_factory.hpp:77] Creating layer drop1
I0810 12:46:19.811210 13394 net.cpp:91] Creating Layer drop1
I0810 12:46:19.811218 13394 net.cpp:425] drop1 <- InnerProduct19
I0810 12:46:19.811231 13394 net.cpp:399] drop1 -> Dropout19
I0810 12:46:19.811245 13394 net.cpp:141] Setting up drop1
I0810 12:46:19.811254 13394 net.cpp:148] Top shape: 64 64 (4096)
I0810 12:46:19.811259 13394 net.cpp:156] Memory required for data: 84823808
I0810 12:46:19.811266 13394 layer_factory.hpp:77] Creating layer InnerProduct20
I0810 12:46:19.811286 13394 net.cpp:91] Creating Layer InnerProduct20
I0810 12:46:19.811293 13394 net.cpp:425] InnerProduct20 <- Dropout19
I0810 12:46:19.811306 13394 net.cpp:399] InnerProduct20 -> InnerProduct20
I0810 12:46:19.811375 13394 net.cpp:141] Setting up InnerProduct20
I0810 12:46:19.811385 13394 net.cpp:148] Top shape: 64 64 (4096)
I0810 12:46:19.811393 13394 net.cpp:156] Memory required for data: 84840192
I0810 12:46:19.811403 13394 net.cpp:484] Sharing parameters 'fc2_w' owned by layer 'InnerProduct2', param index 0
I0810 12:46:19.811410 13394 net.cpp:484] Sharing parameters 'fc2_b' owned by layer 'InnerProduct2', param index 1
I0810 12:46:19.811434 13394 layer_factory.hpp:77] Creating layer ReLU20
I0810 12:46:19.811444 13394 net.cpp:91] Creating Layer ReLU20
I0810 12:46:19.811450 13394 net.cpp:425] ReLU20 <- InnerProduct20
I0810 12:46:19.811462 13394 net.cpp:386] ReLU20 -> InnerProduct20 (in-place)
I0810 12:46:19.811472 13394 net.cpp:141] Setting up ReLU20
I0810 12:46:19.811481 13394 net.cpp:148] Top shape: 64 64 (4096)
I0810 12:46:19.811487 13394 net.cpp:156] Memory required for data: 84856576
I0810 12:46:19.811496 13394 layer_factory.hpp:77] Creating layer drop2
I0810 12:46:19.811506 13394 net.cpp:91] Creating Layer drop2
I0810 12:46:19.811514 13394 net.cpp:425] drop2 <- InnerProduct20
I0810 12:46:19.811524 13394 net.cpp:399] drop2 -> Dropout20
I0810 12:46:19.811538 13394 net.cpp:141] Setting up drop2
I0810 12:46:19.811549 13394 net.cpp:148] Top shape: 64 64 (4096)
I0810 12:46:19.811555 13394 net.cpp:156] Memory required for data: 84872960
I0810 12:46:19.811563 13394 layer_factory.hpp:77] Creating layer m10
I0810 12:46:19.811578 13394 net.cpp:91] Creating Layer m10
I0810 12:46:19.811584 13394 net.cpp:425] m10 <- Dropout20
I0810 12:46:19.811595 13394 net.cpp:399] m10 -> m10
I0810 12:46:19.811617 13394 net.cpp:141] Setting up m10
I0810 12:46:19.811628 13394 net.cpp:148] Top shape: 64 1 (64)
I0810 12:46:19.811635 13394 net.cpp:156] Memory required for data: 84873216
I0810 12:46:19.811642 13394 net.cpp:484] Sharing parameters 'fc3_w' owned by layer 'm1', param index 0
I0810 12:46:19.811650 13394 net.cpp:484] Sharing parameters 'fc3_b' owned by layer 'm1', param index 1
I0810 12:46:19.811656 13394 layer_factory.hpp:77] Creating layer Concat11
I0810 12:46:19.811666 13394 net.cpp:91] Creating Layer Concat11
I0810 12:46:19.811672 13394 net.cpp:425] Concat11 <- i2
I0810 12:46:19.811681 13394 net.cpp:425] Concat11 <- i11_i1_10_split_1
I0810 12:46:19.811691 13394 net.cpp:399] Concat11 -> Concat11
I0810 12:46:19.811702 13394 net.cpp:141] Setting up Concat11
I0810 12:46:19.811710 13394 net.cpp:148] Top shape: 64 2 1 4096 (524288)
I0810 12:46:19.811717 13394 net.cpp:156] Memory required for data: 86970368
I0810 12:46:19.811723 13394 layer_factory.hpp:77] Creating layer InnerProduct21
I0810 12:46:19.811733 13394 net.cpp:91] Creating Layer InnerProduct21
I0810 12:46:19.811739 13394 net.cpp:425] InnerProduct21 <- Concat11
I0810 12:46:19.811753 13394 net.cpp:399] InnerProduct21 -> InnerProduct21
I0810 12:46:19.816946 13394 net.cpp:141] Setting up InnerProduct21
I0810 12:46:19.816963 13394 net.cpp:148] Top shape: 64 64 (4096)
I0810 12:46:19.816970 13394 net.cpp:156] Memory required for data: 86986752
I0810 12:46:19.816978 13394 net.cpp:484] Sharing parameters 'fc1_w' owned by layer 'InnerProduct1', param index 0
I0810 12:46:19.816987 13394 net.cpp:484] Sharing parameters 'fc1_b' owned by layer 'InnerProduct1', param index 1
I0810 12:46:19.816993 13394 layer_factory.hpp:77] Creating layer ReLU21
I0810 12:46:19.817004 13394 net.cpp:91] Creating Layer ReLU21
I0810 12:46:19.817013 13394 net.cpp:425] ReLU21 <- InnerProduct21
I0810 12:46:19.817023 13394 net.cpp:386] ReLU21 -> InnerProduct21 (in-place)
I0810 12:46:19.817034 13394 net.cpp:141] Setting up ReLU21
I0810 12:46:19.817044 13394 net.cpp:148] Top shape: 64 64 (4096)
I0810 12:46:19.817050 13394 net.cpp:156] Memory required for data: 87003136
I0810 12:46:19.817057 13394 layer_factory.hpp:77] Creating layer drop1
I0810 12:46:19.817072 13394 net.cpp:91] Creating Layer drop1
I0810 12:46:19.817080 13394 net.cpp:425] drop1 <- InnerProduct21
I0810 12:46:19.817090 13394 net.cpp:399] drop1 -> Dropout21
I0810 12:46:19.817103 13394 net.cpp:141] Setting up drop1
I0810 12:46:19.817111 13394 net.cpp:148] Top shape: 64 64 (4096)
I0810 12:46:19.817117 13394 net.cpp:156] Memory required for data: 87019520
I0810 12:46:19.817123 13394 layer_factory.hpp:77] Creating layer InnerProduct22
I0810 12:46:19.817137 13394 net.cpp:91] Creating Layer InnerProduct22
I0810 12:46:19.817145 13394 net.cpp:425] InnerProduct22 <- Dropout21
I0810 12:46:19.817157 13394 net.cpp:399] InnerProduct22 -> InnerProduct22
I0810 12:46:19.817226 13394 net.cpp:141] Setting up InnerProduct22
I0810 12:46:19.817252 13394 net.cpp:148] Top shape: 64 64 (4096)
I0810 12:46:19.817260 13394 net.cpp:156] Memory required for data: 87035904
I0810 12:46:19.817267 13394 net.cpp:484] Sharing parameters 'fc2_w' owned by layer 'InnerProduct2', param index 0
I0810 12:46:19.817276 13394 net.cpp:484] Sharing parameters 'fc2_b' owned by layer 'InnerProduct2', param index 1
I0810 12:46:19.817284 13394 layer_factory.hpp:77] Creating layer ReLU22
I0810 12:46:19.817296 13394 net.cpp:91] Creating Layer ReLU22
I0810 12:46:19.817303 13394 net.cpp:425] ReLU22 <- InnerProduct22
I0810 12:46:19.817312 13394 net.cpp:386] ReLU22 -> InnerProduct22 (in-place)
I0810 12:46:19.817322 13394 net.cpp:141] Setting up ReLU22
I0810 12:46:19.817330 13394 net.cpp:148] Top shape: 64 64 (4096)
I0810 12:46:19.817337 13394 net.cpp:156] Memory required for data: 87052288
I0810 12:46:19.817343 13394 layer_factory.hpp:77] Creating layer drop2
I0810 12:46:19.817353 13394 net.cpp:91] Creating Layer drop2
I0810 12:46:19.817360 13394 net.cpp:425] drop2 <- InnerProduct22
I0810 12:46:19.817373 13394 net.cpp:399] drop2 -> Dropout22
I0810 12:46:19.817385 13394 net.cpp:141] Setting up drop2
I0810 12:46:19.817394 13394 net.cpp:148] Top shape: 64 64 (4096)
I0810 12:46:19.817402 13394 net.cpp:156] Memory required for data: 87068672
I0810 12:46:19.817410 13394 layer_factory.hpp:77] Creating layer m11
I0810 12:46:19.817421 13394 net.cpp:91] Creating Layer m11
I0810 12:46:19.817430 13394 net.cpp:425] m11 <- Dropout22
I0810 12:46:19.817440 13394 net.cpp:399] m11 -> m11
I0810 12:46:19.817462 13394 net.cpp:141] Setting up m11
I0810 12:46:19.817471 13394 net.cpp:148] Top shape: 64 1 (64)
I0810 12:46:19.817476 13394 net.cpp:156] Memory required for data: 87068928
I0810 12:46:19.817504 13394 net.cpp:484] Sharing parameters 'fc3_w' owned by layer 'm1', param index 0
I0810 12:46:19.817513 13394 net.cpp:484] Sharing parameters 'fc3_b' owned by layer 'm1', param index 1
I0810 12:46:19.817520 13394 layer_factory.hpp:77] Creating layer Concat12
I0810 12:46:19.817534 13394 net.cpp:91] Creating Layer Concat12
I0810 12:46:19.817543 13394 net.cpp:425] Concat12 <- i3
I0810 12:46:19.817553 13394 net.cpp:425] Concat12 <- i11_i1_10_split_2
I0810 12:46:19.817564 13394 net.cpp:399] Concat12 -> Concat12
I0810 12:46:19.817576 13394 net.cpp:141] Setting up Concat12
I0810 12:46:19.817586 13394 net.cpp:148] Top shape: 64 2 1 4096 (524288)
I0810 12:46:19.817594 13394 net.cpp:156] Memory required for data: 89166080
I0810 12:46:19.817600 13394 layer_factory.hpp:77] Creating layer InnerProduct23
I0810 12:46:19.817613 13394 net.cpp:91] Creating Layer InnerProduct23
I0810 12:46:19.817620 13394 net.cpp:425] InnerProduct23 <- Concat12
I0810 12:46:19.817632 13394 net.cpp:399] InnerProduct23 -> InnerProduct23
I0810 12:46:19.826068 13394 net.cpp:141] Setting up InnerProduct23
I0810 12:46:19.826094 13394 net.cpp:148] Top shape: 64 64 (4096)
I0810 12:46:19.826102 13394 net.cpp:156] Memory required for data: 89182464
I0810 12:46:19.826112 13394 net.cpp:484] Sharing parameters 'fc1_w' owned by layer 'InnerProduct1', param index 0
I0810 12:46:19.826123 13394 net.cpp:484] Sharing parameters 'fc1_b' owned by layer 'InnerProduct1', param index 1
I0810 12:46:19.826134 13394 layer_factory.hpp:77] Creating layer ReLU23
I0810 12:46:19.826150 13394 net.cpp:91] Creating Layer ReLU23
I0810 12:46:19.826162 13394 net.cpp:425] ReLU23 <- InnerProduct23
I0810 12:46:19.826182 13394 net.cpp:386] ReLU23 -> InnerProduct23 (in-place)
I0810 12:46:19.826200 13394 net.cpp:141] Setting up ReLU23
I0810 12:46:19.826212 13394 net.cpp:148] Top shape: 64 64 (4096)
I0810 12:46:19.826222 13394 net.cpp:156] Memory required for data: 89198848
I0810 12:46:19.826232 13394 layer_factory.hpp:77] Creating layer drop1
I0810 12:46:19.826242 13394 net.cpp:91] Creating Layer drop1
I0810 12:46:19.826253 13394 net.cpp:425] drop1 <- InnerProduct23
I0810 12:46:19.826264 13394 net.cpp:399] drop1 -> Dropout23
I0810 12:46:19.826278 13394 net.cpp:141] Setting up drop1
I0810 12:46:19.826292 13394 net.cpp:148] Top shape: 64 64 (4096)
I0810 12:46:19.826320 13394 net.cpp:156] Memory required for data: 89215232
I0810 12:46:19.826328 13394 layer_factory.hpp:77] Creating layer InnerProduct24
I0810 12:46:19.826339 13394 net.cpp:91] Creating Layer InnerProduct24
I0810 12:46:19.826349 13394 net.cpp:425] InnerProduct24 <- Dropout23
I0810 12:46:19.826361 13394 net.cpp:399] InnerProduct24 -> InnerProduct24
I0810 12:46:19.826434 13394 net.cpp:141] Setting up InnerProduct24
I0810 12:46:19.826447 13394 net.cpp:148] Top shape: 64 64 (4096)
I0810 12:46:19.826455 13394 net.cpp:156] Memory required for data: 89231616
I0810 12:46:19.826463 13394 net.cpp:484] Sharing parameters 'fc2_w' owned by layer 'InnerProduct2', param index 0
I0810 12:46:19.826474 13394 net.cpp:484] Sharing parameters 'fc2_b' owned by layer 'InnerProduct2', param index 1
I0810 12:46:19.826485 13394 layer_factory.hpp:77] Creating layer ReLU24
I0810 12:46:19.826493 13394 net.cpp:91] Creating Layer ReLU24
I0810 12:46:19.826503 13394 net.cpp:425] ReLU24 <- InnerProduct24
I0810 12:46:19.826516 13394 net.cpp:386] ReLU24 -> InnerProduct24 (in-place)
I0810 12:46:19.826531 13394 net.cpp:141] Setting up ReLU24
I0810 12:46:19.826542 13394 net.cpp:148] Top shape: 64 64 (4096)
I0810 12:46:19.826552 13394 net.cpp:156] Memory required for data: 89248000
I0810 12:46:19.826560 13394 layer_factory.hpp:77] Creating layer drop2
I0810 12:46:19.826571 13394 net.cpp:91] Creating Layer drop2
I0810 12:46:19.826581 13394 net.cpp:425] drop2 <- InnerProduct24
I0810 12:46:19.826596 13394 net.cpp:399] drop2 -> Dropout24
I0810 12:46:19.826611 13394 net.cpp:141] Setting up drop2
I0810 12:46:19.826623 13394 net.cpp:148] Top shape: 64 64 (4096)
I0810 12:46:19.826630 13394 net.cpp:156] Memory required for data: 89264384
I0810 12:46:19.826640 13394 layer_factory.hpp:77] Creating layer m12
I0810 12:46:19.826654 13394 net.cpp:91] Creating Layer m12
I0810 12:46:19.826663 13394 net.cpp:425] m12 <- Dropout24
I0810 12:46:19.826674 13394 net.cpp:399] m12 -> m12
I0810 12:46:19.826699 13394 net.cpp:141] Setting up m12
I0810 12:46:19.826711 13394 net.cpp:148] Top shape: 64 1 (64)
I0810 12:46:19.826720 13394 net.cpp:156] Memory required for data: 89264640
I0810 12:46:19.826728 13394 net.cpp:484] Sharing parameters 'fc3_w' owned by layer 'm1', param index 0
I0810 12:46:19.826740 13394 net.cpp:484] Sharing parameters 'fc3_b' owned by layer 'm1', param index 1
I0810 12:46:19.826750 13394 layer_factory.hpp:77] Creating layer Concat13
I0810 12:46:19.826762 13394 net.cpp:91] Creating Layer Concat13
I0810 12:46:19.826773 13394 net.cpp:425] Concat13 <- i4
I0810 12:46:19.826782 13394 net.cpp:425] Concat13 <- i11_i1_10_split_3
I0810 12:46:19.826795 13394 net.cpp:399] Concat13 -> Concat13
I0810 12:46:19.826812 13394 net.cpp:141] Setting up Concat13
I0810 12:46:19.826823 13394 net.cpp:148] Top shape: 64 2 1 4096 (524288)
I0810 12:46:19.826834 13394 net.cpp:156] Memory required for data: 91361792
I0810 12:46:19.826844 13394 layer_factory.hpp:77] Creating layer InnerProduct25
I0810 12:46:19.826856 13394 net.cpp:91] Creating Layer InnerProduct25
I0810 12:46:19.826865 13394 net.cpp:425] InnerProduct25 <- Concat13
I0810 12:46:19.826876 13394 net.cpp:399] InnerProduct25 -> InnerProduct25
I0810 12:46:19.834173 13394 net.cpp:141] Setting up InnerProduct25
I0810 12:46:19.834271 13394 net.cpp:148] Top shape: 64 64 (4096)
I0810 12:46:19.834345 13394 net.cpp:156] Memory required for data: 91378176
I0810 12:46:19.834374 13394 net.cpp:484] Sharing parameters 'fc1_w' owned by layer 'InnerProduct1', param index 0
I0810 12:46:19.834401 13394 net.cpp:484] Sharing parameters 'fc1_b' owned by layer 'InnerProduct1', param index 1
I0810 12:46:19.834427 13394 layer_factory.hpp:77] Creating layer ReLU25
I0810 12:46:19.834460 13394 net.cpp:91] Creating Layer ReLU25
I0810 12:46:19.834486 13394 net.cpp:425] ReLU25 <- InnerProduct25
I0810 12:46:19.834513 13394 net.cpp:386] ReLU25 -> InnerProduct25 (in-place)
I0810 12:46:19.834552 13394 net.cpp:141] Setting up ReLU25
I0810 12:46:19.834578 13394 net.cpp:148] Top shape: 64 64 (4096)
I0810 12:46:19.834604 13394 net.cpp:156] Memory required for data: 91394560
I0810 12:46:19.834645 13394 layer_factory.hpp:77] Creating layer drop1
I0810 12:46:19.834771 13394 net.cpp:91] Creating Layer drop1
I0810 12:46:19.834797 13394 net.cpp:425] drop1 <- InnerProduct25
I0810 12:46:19.834827 13394 net.cpp:399] drop1 -> Dropout25
I0810 12:46:19.834859 13394 net.cpp:141] Setting up drop1
I0810 12:46:19.834878 13394 net.cpp:148] Top shape: 64 64 (4096)
I0810 12:46:19.834884 13394 net.cpp:156] Memory required for data: 91410944
I0810 12:46:19.834892 13394 layer_factory.hpp:77] Creating layer InnerProduct26
I0810 12:46:19.834905 13394 net.cpp:91] Creating Layer InnerProduct26
I0810 12:46:19.834913 13394 net.cpp:425] InnerProduct26 <- Dropout25
I0810 12:46:19.834923 13394 net.cpp:399] InnerProduct26 -> InnerProduct26
I0810 12:46:19.834990 13394 net.cpp:141] Setting up InnerProduct26
I0810 12:46:19.834997 13394 net.cpp:148] Top shape: 64 64 (4096)
I0810 12:46:19.835003 13394 net.cpp:156] Memory required for data: 91427328
I0810 12:46:19.835011 13394 net.cpp:484] Sharing parameters 'fc2_w' owned by layer 'InnerProduct2', param index 0
I0810 12:46:19.835018 13394 net.cpp:484] Sharing parameters 'fc2_b' owned by layer 'InnerProduct2', param index 1
I0810 12:46:19.835024 13394 layer_factory.hpp:77] Creating layer ReLU26
I0810 12:46:19.835033 13394 net.cpp:91] Creating Layer ReLU26
I0810 12:46:19.835039 13394 net.cpp:425] ReLU26 <- InnerProduct26
I0810 12:46:19.835052 13394 net.cpp:386] ReLU26 -> InnerProduct26 (in-place)
I0810 12:46:19.835062 13394 net.cpp:141] Setting up ReLU26
I0810 12:46:19.835070 13394 net.cpp:148] Top shape: 64 64 (4096)
I0810 12:46:19.835077 13394 net.cpp:156] Memory required for data: 91443712
I0810 12:46:19.835083 13394 layer_factory.hpp:77] Creating layer drop2
I0810 12:46:19.835091 13394 net.cpp:91] Creating Layer drop2
I0810 12:46:19.835098 13394 net.cpp:425] drop2 <- InnerProduct26
I0810 12:46:19.835108 13394 net.cpp:399] drop2 -> Dropout26
I0810 12:46:19.835119 13394 net.cpp:141] Setting up drop2
I0810 12:46:19.835127 13394 net.cpp:148] Top shape: 64 64 (4096)
I0810 12:46:19.835134 13394 net.cpp:156] Memory required for data: 91460096
I0810 12:46:19.835139 13394 layer_factory.hpp:77] Creating layer m13
I0810 12:46:19.835151 13394 net.cpp:91] Creating Layer m13
I0810 12:46:19.835158 13394 net.cpp:425] m13 <- Dropout26
I0810 12:46:19.835168 13394 net.cpp:399] m13 -> m13
I0810 12:46:19.835191 13394 net.cpp:141] Setting up m13
I0810 12:46:19.835199 13394 net.cpp:148] Top shape: 64 1 (64)
I0810 12:46:19.835206 13394 net.cpp:156] Memory required for data: 91460352
I0810 12:46:19.835211 13394 net.cpp:484] Sharing parameters 'fc3_w' owned by layer 'm1', param index 0
I0810 12:46:19.835219 13394 net.cpp:484] Sharing parameters 'fc3_b' owned by layer 'm1', param index 1
I0810 12:46:19.835225 13394 layer_factory.hpp:77] Creating layer Concat14
I0810 12:46:19.835235 13394 net.cpp:91] Creating Layer Concat14
I0810 12:46:19.835242 13394 net.cpp:425] Concat14 <- i5
I0810 12:46:19.835250 13394 net.cpp:425] Concat14 <- i11_i1_10_split_4
I0810 12:46:19.835260 13394 net.cpp:399] Concat14 -> Concat14
I0810 12:46:19.835279 13394 net.cpp:141] Setting up Concat14
I0810 12:46:19.835289 13394 net.cpp:148] Top shape: 64 2 1 4096 (524288)
I0810 12:46:19.835294 13394 net.cpp:156] Memory required for data: 93557504
I0810 12:46:19.835301 13394 layer_factory.hpp:77] Creating layer InnerProduct27
I0810 12:46:19.835311 13394 net.cpp:91] Creating Layer InnerProduct27
I0810 12:46:19.835319 13394 net.cpp:425] InnerProduct27 <- Concat14
I0810 12:46:19.835331 13394 net.cpp:399] InnerProduct27 -> InnerProduct27
I0810 12:46:19.841308 13394 net.cpp:141] Setting up InnerProduct27
I0810 12:46:19.841328 13394 net.cpp:148] Top shape: 64 64 (4096)
I0810 12:46:19.841336 13394 net.cpp:156] Memory required for data: 93573888
I0810 12:46:19.841344 13394 net.cpp:484] Sharing parameters 'fc1_w' owned by layer 'InnerProduct1', param index 0
I0810 12:46:19.841352 13394 net.cpp:484] Sharing parameters 'fc1_b' owned by layer 'InnerProduct1', param index 1
I0810 12:46:19.841359 13394 layer_factory.hpp:77] Creating layer ReLU27
I0810 12:46:19.841387 13394 net.cpp:91] Creating Layer ReLU27
I0810 12:46:19.841395 13394 net.cpp:425] ReLU27 <- InnerProduct27
I0810 12:46:19.841405 13394 net.cpp:386] ReLU27 -> InnerProduct27 (in-place)
I0810 12:46:19.841418 13394 net.cpp:141] Setting up ReLU27
I0810 12:46:19.841425 13394 net.cpp:148] Top shape: 64 64 (4096)
I0810 12:46:19.841433 13394 net.cpp:156] Memory required for data: 93590272
I0810 12:46:19.841439 13394 layer_factory.hpp:77] Creating layer drop1
I0810 12:46:19.841451 13394 net.cpp:91] Creating Layer drop1
I0810 12:46:19.841459 13394 net.cpp:425] drop1 <- InnerProduct27
I0810 12:46:19.841469 13394 net.cpp:399] drop1 -> Dropout27
I0810 12:46:19.841482 13394 net.cpp:141] Setting up drop1
I0810 12:46:19.841502 13394 net.cpp:148] Top shape: 64 64 (4096)
I0810 12:46:19.841518 13394 net.cpp:156] Memory required for data: 93606656
I0810 12:46:19.841531 13394 layer_factory.hpp:77] Creating layer InnerProduct28
I0810 12:46:19.841555 13394 net.cpp:91] Creating Layer InnerProduct28
I0810 12:46:19.841567 13394 net.cpp:425] InnerProduct28 <- Dropout27
I0810 12:46:19.841594 13394 net.cpp:399] InnerProduct28 -> InnerProduct28
I0810 12:46:19.841722 13394 net.cpp:141] Setting up InnerProduct28
I0810 12:46:19.841743 13394 net.cpp:148] Top shape: 64 64 (4096)
I0810 12:46:19.841758 13394 net.cpp:156] Memory required for data: 93623040
I0810 12:46:19.841774 13394 net.cpp:484] Sharing parameters 'fc2_w' owned by layer 'InnerProduct2', param index 0
I0810 12:46:19.841783 13394 net.cpp:484] Sharing parameters 'fc2_b' owned by layer 'InnerProduct2', param index 1
I0810 12:46:19.841789 13394 layer_factory.hpp:77] Creating layer ReLU28
I0810 12:46:19.841799 13394 net.cpp:91] Creating Layer ReLU28
I0810 12:46:19.841805 13394 net.cpp:425] ReLU28 <- InnerProduct28
I0810 12:46:19.841814 13394 net.cpp:386] ReLU28 -> InnerProduct28 (in-place)
I0810 12:46:19.841825 13394 net.cpp:141] Setting up ReLU28
I0810 12:46:19.841833 13394 net.cpp:148] Top shape: 64 64 (4096)
I0810 12:46:19.841840 13394 net.cpp:156] Memory required for data: 93639424
I0810 12:46:19.841845 13394 layer_factory.hpp:77] Creating layer drop2
I0810 12:46:19.841855 13394 net.cpp:91] Creating Layer drop2
I0810 12:46:19.841861 13394 net.cpp:425] drop2 <- InnerProduct28
I0810 12:46:19.841869 13394 net.cpp:399] drop2 -> Dropout28
I0810 12:46:19.841881 13394 net.cpp:141] Setting up drop2
I0810 12:46:19.841889 13394 net.cpp:148] Top shape: 64 64 (4096)
I0810 12:46:19.841895 13394 net.cpp:156] Memory required for data: 93655808
I0810 12:46:19.841902 13394 layer_factory.hpp:77] Creating layer m14
I0810 12:46:19.841915 13394 net.cpp:91] Creating Layer m14
I0810 12:46:19.841922 13394 net.cpp:425] m14 <- Dropout28
I0810 12:46:19.841931 13394 net.cpp:399] m14 -> m14
I0810 12:46:19.841954 13394 net.cpp:141] Setting up m14
I0810 12:46:19.841962 13394 net.cpp:148] Top shape: 64 1 (64)
I0810 12:46:19.841969 13394 net.cpp:156] Memory required for data: 93656064
I0810 12:46:19.841975 13394 net.cpp:484] Sharing parameters 'fc3_w' owned by layer 'm1', param index 0
I0810 12:46:19.841984 13394 net.cpp:484] Sharing parameters 'fc3_b' owned by layer 'm1', param index 1
I0810 12:46:19.841989 13394 layer_factory.hpp:77] Creating layer Concat15
I0810 12:46:19.841998 13394 net.cpp:91] Creating Layer Concat15
I0810 12:46:19.842005 13394 net.cpp:425] Concat15 <- i6
I0810 12:46:19.842013 13394 net.cpp:425] Concat15 <- i11_i1_10_split_5
I0810 12:46:19.842025 13394 net.cpp:399] Concat15 -> Concat15
I0810 12:46:19.842037 13394 net.cpp:141] Setting up Concat15
I0810 12:46:19.842046 13394 net.cpp:148] Top shape: 64 2 1 4096 (524288)
I0810 12:46:19.842052 13394 net.cpp:156] Memory required for data: 95753216
I0810 12:46:19.842058 13394 layer_factory.hpp:77] Creating layer InnerProduct29
I0810 12:46:19.842068 13394 net.cpp:91] Creating Layer InnerProduct29
I0810 12:46:19.842074 13394 net.cpp:425] InnerProduct29 <- Concat15
I0810 12:46:19.842087 13394 net.cpp:399] InnerProduct29 -> InnerProduct29
I0810 12:46:19.847399 13394 net.cpp:141] Setting up InnerProduct29
I0810 12:46:19.847439 13394 net.cpp:148] Top shape: 64 64 (4096)
I0810 12:46:19.847445 13394 net.cpp:156] Memory required for data: 95769600
I0810 12:46:19.847453 13394 net.cpp:484] Sharing parameters 'fc1_w' owned by layer 'InnerProduct1', param index 0
I0810 12:46:19.847461 13394 net.cpp:484] Sharing parameters 'fc1_b' owned by layer 'InnerProduct1', param index 1
I0810 12:46:19.847470 13394 layer_factory.hpp:77] Creating layer ReLU29
I0810 12:46:19.847479 13394 net.cpp:91] Creating Layer ReLU29
I0810 12:46:19.847486 13394 net.cpp:425] ReLU29 <- InnerProduct29
I0810 12:46:19.847496 13394 net.cpp:386] ReLU29 -> InnerProduct29 (in-place)
I0810 12:46:19.847508 13394 net.cpp:141] Setting up ReLU29
I0810 12:46:19.847517 13394 net.cpp:148] Top shape: 64 64 (4096)
I0810 12:46:19.847522 13394 net.cpp:156] Memory required for data: 95785984
I0810 12:46:19.847529 13394 layer_factory.hpp:77] Creating layer drop1
I0810 12:46:19.847542 13394 net.cpp:91] Creating Layer drop1
I0810 12:46:19.847548 13394 net.cpp:425] drop1 <- InnerProduct29
I0810 12:46:19.847558 13394 net.cpp:399] drop1 -> Dropout29
I0810 12:46:19.847571 13394 net.cpp:141] Setting up drop1
I0810 12:46:19.847579 13394 net.cpp:148] Top shape: 64 64 (4096)
I0810 12:46:19.847585 13394 net.cpp:156] Memory required for data: 95802368
I0810 12:46:19.847591 13394 layer_factory.hpp:77] Creating layer InnerProduct30
I0810 12:46:19.847604 13394 net.cpp:91] Creating Layer InnerProduct30
I0810 12:46:19.847611 13394 net.cpp:425] InnerProduct30 <- Dropout29
I0810 12:46:19.847621 13394 net.cpp:399] InnerProduct30 -> InnerProduct30
I0810 12:46:19.847684 13394 net.cpp:141] Setting up InnerProduct30
I0810 12:46:19.847692 13394 net.cpp:148] Top shape: 64 64 (4096)
I0810 12:46:19.847698 13394 net.cpp:156] Memory required for data: 95818752
I0810 12:46:19.847705 13394 net.cpp:484] Sharing parameters 'fc2_w' owned by layer 'InnerProduct2', param index 0
I0810 12:46:19.847712 13394 net.cpp:484] Sharing parameters 'fc2_b' owned by layer 'InnerProduct2', param index 1
I0810 12:46:19.847719 13394 layer_factory.hpp:77] Creating layer ReLU30
I0810 12:46:19.847729 13394 net.cpp:91] Creating Layer ReLU30
I0810 12:46:19.847736 13394 net.cpp:425] ReLU30 <- InnerProduct30
I0810 12:46:19.847744 13394 net.cpp:386] ReLU30 -> InnerProduct30 (in-place)
I0810 12:46:19.847754 13394 net.cpp:141] Setting up ReLU30
I0810 12:46:19.847762 13394 net.cpp:148] Top shape: 64 64 (4096)
I0810 12:46:19.847769 13394 net.cpp:156] Memory required for data: 95835136
I0810 12:46:19.847774 13394 layer_factory.hpp:77] Creating layer drop2
I0810 12:46:19.847784 13394 net.cpp:91] Creating Layer drop2
I0810 12:46:19.847790 13394 net.cpp:425] drop2 <- InnerProduct30
I0810 12:46:19.847802 13394 net.cpp:399] drop2 -> Dropout30
I0810 12:46:19.847815 13394 net.cpp:141] Setting up drop2
I0810 12:46:19.847822 13394 net.cpp:148] Top shape: 64 64 (4096)
I0810 12:46:19.847828 13394 net.cpp:156] Memory required for data: 95851520
I0810 12:46:19.847834 13394 layer_factory.hpp:77] Creating layer m15
I0810 12:46:19.847844 13394 net.cpp:91] Creating Layer m15
I0810 12:46:19.847851 13394 net.cpp:425] m15 <- Dropout30
I0810 12:46:19.847862 13394 net.cpp:399] m15 -> m15
I0810 12:46:19.847885 13394 net.cpp:141] Setting up m15
I0810 12:46:19.847893 13394 net.cpp:148] Top shape: 64 1 (64)
I0810 12:46:19.847899 13394 net.cpp:156] Memory required for data: 95851776
I0810 12:46:19.847905 13394 net.cpp:484] Sharing parameters 'fc3_w' owned by layer 'm1', param index 0
I0810 12:46:19.847913 13394 net.cpp:484] Sharing parameters 'fc3_b' owned by layer 'm1', param index 1
I0810 12:46:19.847919 13394 layer_factory.hpp:77] Creating layer Concat16
I0810 12:46:19.847929 13394 net.cpp:91] Creating Layer Concat16
I0810 12:46:19.847935 13394 net.cpp:425] Concat16 <- i7
I0810 12:46:19.847944 13394 net.cpp:425] Concat16 <- i11_i1_10_split_6
I0810 12:46:19.847954 13394 net.cpp:399] Concat16 -> Concat16
I0810 12:46:19.847966 13394 net.cpp:141] Setting up Concat16
I0810 12:46:19.847975 13394 net.cpp:148] Top shape: 64 2 1 4096 (524288)
I0810 12:46:19.847980 13394 net.cpp:156] Memory required for data: 97948928
I0810 12:46:19.847995 13394 layer_factory.hpp:77] Creating layer InnerProduct31
I0810 12:46:19.848048 13394 net.cpp:91] Creating Layer InnerProduct31
I0810 12:46:19.848055 13394 net.cpp:425] InnerProduct31 <- Concat16
I0810 12:46:19.848069 13394 net.cpp:399] InnerProduct31 -> InnerProduct31
I0810 12:46:19.857823 13394 net.cpp:141] Setting up InnerProduct31
I0810 12:46:19.857861 13394 net.cpp:148] Top shape: 64 64 (4096)
I0810 12:46:19.857868 13394 net.cpp:156] Memory required for data: 97965312
I0810 12:46:19.857878 13394 net.cpp:484] Sharing parameters 'fc1_w' owned by layer 'InnerProduct1', param index 0
I0810 12:46:19.857887 13394 net.cpp:484] Sharing parameters 'fc1_b' owned by layer 'InnerProduct1', param index 1
I0810 12:46:19.857897 13394 layer_factory.hpp:77] Creating layer ReLU31
I0810 12:46:19.857908 13394 net.cpp:91] Creating Layer ReLU31
I0810 12:46:19.857918 13394 net.cpp:425] ReLU31 <- InnerProduct31
I0810 12:46:19.857928 13394 net.cpp:386] ReLU31 -> InnerProduct31 (in-place)
I0810 12:46:19.857942 13394 net.cpp:141] Setting up ReLU31
I0810 12:46:19.857951 13394 net.cpp:148] Top shape: 64 64 (4096)
I0810 12:46:19.857957 13394 net.cpp:156] Memory required for data: 97981696
I0810 12:46:19.857964 13394 layer_factory.hpp:77] Creating layer drop1
I0810 12:46:19.857975 13394 net.cpp:91] Creating Layer drop1
I0810 12:46:19.857981 13394 net.cpp:425] drop1 <- InnerProduct31
I0810 12:46:19.857995 13394 net.cpp:399] drop1 -> Dropout31
I0810 12:46:19.858009 13394 net.cpp:141] Setting up drop1
I0810 12:46:19.858017 13394 net.cpp:148] Top shape: 64 64 (4096)
I0810 12:46:19.858026 13394 net.cpp:156] Memory required for data: 97998080
I0810 12:46:19.858032 13394 layer_factory.hpp:77] Creating layer InnerProduct32
I0810 12:46:19.858048 13394 net.cpp:91] Creating Layer InnerProduct32
I0810 12:46:19.858057 13394 net.cpp:425] InnerProduct32 <- Dropout31
I0810 12:46:19.858067 13394 net.cpp:399] InnerProduct32 -> InnerProduct32
I0810 12:46:19.858134 13394 net.cpp:141] Setting up InnerProduct32
I0810 12:46:19.858144 13394 net.cpp:148] Top shape: 64 64 (4096)
I0810 12:46:19.858150 13394 net.cpp:156] Memory required for data: 98014464
I0810 12:46:19.858158 13394 net.cpp:484] Sharing parameters 'fc2_w' owned by layer 'InnerProduct2', param index 0
I0810 12:46:19.858166 13394 net.cpp:484] Sharing parameters 'fc2_b' owned by layer 'InnerProduct2', param index 1
I0810 12:46:19.858175 13394 layer_factory.hpp:77] Creating layer ReLU32
I0810 12:46:19.858184 13394 net.cpp:91] Creating Layer ReLU32
I0810 12:46:19.858191 13394 net.cpp:425] ReLU32 <- InnerProduct32
I0810 12:46:19.858204 13394 net.cpp:386] ReLU32 -> InnerProduct32 (in-place)
I0810 12:46:19.858214 13394 net.cpp:141] Setting up ReLU32
I0810 12:46:19.858223 13394 net.cpp:148] Top shape: 64 64 (4096)
I0810 12:46:19.858229 13394 net.cpp:156] Memory required for data: 98030848
I0810 12:46:19.858237 13394 layer_factory.hpp:77] Creating layer drop2
I0810 12:46:19.858244 13394 net.cpp:91] Creating Layer drop2
I0810 12:46:19.858252 13394 net.cpp:425] drop2 <- InnerProduct32
I0810 12:46:19.858263 13394 net.cpp:399] drop2 -> Dropout32
I0810 12:46:19.858275 13394 net.cpp:141] Setting up drop2
I0810 12:46:19.858289 13394 net.cpp:148] Top shape: 64 64 (4096)
I0810 12:46:19.858296 13394 net.cpp:156] Memory required for data: 98047232
I0810 12:46:19.858304 13394 layer_factory.hpp:77] Creating layer m16
I0810 12:46:19.858314 13394 net.cpp:91] Creating Layer m16
I0810 12:46:19.858321 13394 net.cpp:425] m16 <- Dropout32
I0810 12:46:19.858333 13394 net.cpp:399] m16 -> m16
I0810 12:46:19.858358 13394 net.cpp:141] Setting up m16
I0810 12:46:19.858366 13394 net.cpp:148] Top shape: 64 1 (64)
I0810 12:46:19.858373 13394 net.cpp:156] Memory required for data: 98047488
I0810 12:46:19.858379 13394 net.cpp:484] Sharing parameters 'fc3_w' owned by layer 'm1', param index 0
I0810 12:46:19.858388 13394 net.cpp:484] Sharing parameters 'fc3_b' owned by layer 'm1', param index 1
I0810 12:46:19.858395 13394 layer_factory.hpp:77] Creating layer Concat17
I0810 12:46:19.858405 13394 net.cpp:91] Creating Layer Concat17
I0810 12:46:19.858428 13394 net.cpp:425] Concat17 <- i8
I0810 12:46:19.858438 13394 net.cpp:425] Concat17 <- i11_i1_10_split_7
I0810 12:46:19.858448 13394 net.cpp:399] Concat17 -> Concat17
I0810 12:46:19.858461 13394 net.cpp:141] Setting up Concat17
I0810 12:46:19.858471 13394 net.cpp:148] Top shape: 64 2 1 4096 (524288)
I0810 12:46:19.858479 13394 net.cpp:156] Memory required for data: 100144640
I0810 12:46:19.858485 13394 layer_factory.hpp:77] Creating layer InnerProduct33
I0810 12:46:19.858496 13394 net.cpp:91] Creating Layer InnerProduct33
I0810 12:46:19.858505 13394 net.cpp:425] InnerProduct33 <- Concat17
I0810 12:46:19.858520 13394 net.cpp:399] InnerProduct33 -> InnerProduct33
I0810 12:46:19.863837 13394 net.cpp:141] Setting up InnerProduct33
I0810 12:46:19.863857 13394 net.cpp:148] Top shape: 64 64 (4096)
I0810 12:46:19.863863 13394 net.cpp:156] Memory required for data: 100161024
I0810 12:46:19.863873 13394 net.cpp:484] Sharing parameters 'fc1_w' owned by layer 'InnerProduct1', param index 0
I0810 12:46:19.863883 13394 net.cpp:484] Sharing parameters 'fc1_b' owned by layer 'InnerProduct1', param index 1
I0810 12:46:19.863891 13394 layer_factory.hpp:77] Creating layer ReLU33
I0810 12:46:19.863903 13394 net.cpp:91] Creating Layer ReLU33
I0810 12:46:19.863911 13394 net.cpp:425] ReLU33 <- InnerProduct33
I0810 12:46:19.863921 13394 net.cpp:386] ReLU33 -> InnerProduct33 (in-place)
I0810 12:46:19.863936 13394 net.cpp:141] Setting up ReLU33
I0810 12:46:19.863945 13394 net.cpp:148] Top shape: 64 64 (4096)
I0810 12:46:19.863951 13394 net.cpp:156] Memory required for data: 100177408
I0810 12:46:19.863957 13394 layer_factory.hpp:77] Creating layer drop1
I0810 12:46:19.863972 13394 net.cpp:91] Creating Layer drop1
I0810 12:46:19.863979 13394 net.cpp:425] drop1 <- InnerProduct33
I0810 12:46:19.863991 13394 net.cpp:399] drop1 -> Dropout33
I0810 12:46:19.864006 13394 net.cpp:141] Setting up drop1
I0810 12:46:19.864013 13394 net.cpp:148] Top shape: 64 64 (4096)
I0810 12:46:19.864020 13394 net.cpp:156] Memory required for data: 100193792
I0810 12:46:19.864028 13394 layer_factory.hpp:77] Creating layer InnerProduct34
I0810 12:46:19.864043 13394 net.cpp:91] Creating Layer InnerProduct34
I0810 12:46:19.864050 13394 net.cpp:425] InnerProduct34 <- Dropout33
I0810 12:46:19.864064 13394 net.cpp:399] InnerProduct34 -> InnerProduct34
I0810 12:46:19.864132 13394 net.cpp:141] Setting up InnerProduct34
I0810 12:46:19.864146 13394 net.cpp:148] Top shape: 64 64 (4096)
I0810 12:46:19.864152 13394 net.cpp:156] Memory required for data: 100210176
I0810 12:46:19.864161 13394 net.cpp:484] Sharing parameters 'fc2_w' owned by layer 'InnerProduct2', param index 0
I0810 12:46:19.864169 13394 net.cpp:484] Sharing parameters 'fc2_b' owned by layer 'InnerProduct2', param index 1
I0810 12:46:19.864176 13394 layer_factory.hpp:77] Creating layer ReLU34
I0810 12:46:19.864186 13394 net.cpp:91] Creating Layer ReLU34
I0810 12:46:19.864192 13394 net.cpp:425] ReLU34 <- InnerProduct34
I0810 12:46:19.864202 13394 net.cpp:386] ReLU34 -> InnerProduct34 (in-place)
I0810 12:46:19.864212 13394 net.cpp:141] Setting up ReLU34
I0810 12:46:19.864222 13394 net.cpp:148] Top shape: 64 64 (4096)
I0810 12:46:19.864228 13394 net.cpp:156] Memory required for data: 100226560
I0810 12:46:19.864234 13394 layer_factory.hpp:77] Creating layer drop2
I0810 12:46:19.864244 13394 net.cpp:91] Creating Layer drop2
I0810 12:46:19.864253 13394 net.cpp:425] drop2 <- InnerProduct34
I0810 12:46:19.864265 13394 net.cpp:399] drop2 -> Dropout34
I0810 12:46:19.864279 13394 net.cpp:141] Setting up drop2
I0810 12:46:19.864289 13394 net.cpp:148] Top shape: 64 64 (4096)
I0810 12:46:19.864295 13394 net.cpp:156] Memory required for data: 100242944
I0810 12:46:19.864300 13394 layer_factory.hpp:77] Creating layer m17
I0810 12:46:19.864310 13394 net.cpp:91] Creating Layer m17
I0810 12:46:19.864316 13394 net.cpp:425] m17 <- Dropout34
I0810 12:46:19.864327 13394 net.cpp:399] m17 -> m17
I0810 12:46:19.864351 13394 net.cpp:141] Setting up m17
I0810 12:46:19.864358 13394 net.cpp:148] Top shape: 64 1 (64)
I0810 12:46:19.864384 13394 net.cpp:156] Memory required for data: 100243200
I0810 12:46:19.864392 13394 net.cpp:484] Sharing parameters 'fc3_w' owned by layer 'm1', param index 0
I0810 12:46:19.864400 13394 net.cpp:484] Sharing parameters 'fc3_b' owned by layer 'm1', param index 1
I0810 12:46:19.864406 13394 layer_factory.hpp:77] Creating layer Concat18
I0810 12:46:19.864416 13394 net.cpp:91] Creating Layer Concat18
I0810 12:46:19.864423 13394 net.cpp:425] Concat18 <- i9
I0810 12:46:19.864433 13394 net.cpp:425] Concat18 <- i11_i1_10_split_8
I0810 12:46:19.864442 13394 net.cpp:399] Concat18 -> Concat18
I0810 12:46:19.864456 13394 net.cpp:141] Setting up Concat18
I0810 12:46:19.864466 13394 net.cpp:148] Top shape: 64 2 1 4096 (524288)
I0810 12:46:19.864473 13394 net.cpp:156] Memory required for data: 102340352
I0810 12:46:19.864480 13394 layer_factory.hpp:77] Creating layer InnerProduct35
I0810 12:46:19.864490 13394 net.cpp:91] Creating Layer InnerProduct35
I0810 12:46:19.864498 13394 net.cpp:425] InnerProduct35 <- Concat18
I0810 12:46:19.864514 13394 net.cpp:399] InnerProduct35 -> InnerProduct35
I0810 12:46:19.873811 13394 net.cpp:141] Setting up InnerProduct35
I0810 12:46:19.873836 13394 net.cpp:148] Top shape: 64 64 (4096)
I0810 12:46:19.873844 13394 net.cpp:156] Memory required for data: 102356736
I0810 12:46:19.873857 13394 net.cpp:484] Sharing parameters 'fc1_w' owned by layer 'InnerProduct1', param index 0
I0810 12:46:19.873867 13394 net.cpp:484] Sharing parameters 'fc1_b' owned by layer 'InnerProduct1', param index 1
I0810 12:46:19.873877 13394 layer_factory.hpp:77] Creating layer ReLU35
I0810 12:46:19.873888 13394 net.cpp:91] Creating Layer ReLU35
I0810 12:46:19.873900 13394 net.cpp:425] ReLU35 <- InnerProduct35
I0810 12:46:19.873921 13394 net.cpp:386] ReLU35 -> InnerProduct35 (in-place)
I0810 12:46:19.873936 13394 net.cpp:141] Setting up ReLU35
I0810 12:46:19.873946 13394 net.cpp:148] Top shape: 64 64 (4096)
I0810 12:46:19.873953 13394 net.cpp:156] Memory required for data: 102373120
I0810 12:46:19.873961 13394 layer_factory.hpp:77] Creating layer drop1
I0810 12:46:19.873972 13394 net.cpp:91] Creating Layer drop1
I0810 12:46:19.873981 13394 net.cpp:425] drop1 <- InnerProduct35
I0810 12:46:19.873997 13394 net.cpp:399] drop1 -> Dropout35
I0810 12:46:19.874012 13394 net.cpp:141] Setting up drop1
I0810 12:46:19.874022 13394 net.cpp:148] Top shape: 64 64 (4096)
I0810 12:46:19.874030 13394 net.cpp:156] Memory required for data: 102389504
I0810 12:46:19.874037 13394 layer_factory.hpp:77] Creating layer InnerProduct36
I0810 12:46:19.874053 13394 net.cpp:91] Creating Layer InnerProduct36
I0810 12:46:19.874060 13394 net.cpp:425] InnerProduct36 <- Dropout35
I0810 12:46:19.874078 13394 net.cpp:399] InnerProduct36 -> InnerProduct36
I0810 12:46:19.874152 13394 net.cpp:141] Setting up InnerProduct36
I0810 12:46:19.874164 13394 net.cpp:148] Top shape: 64 64 (4096)
I0810 12:46:19.874171 13394 net.cpp:156] Memory required for data: 102405888
I0810 12:46:19.874179 13394 net.cpp:484] Sharing parameters 'fc2_w' owned by layer 'InnerProduct2', param index 0
I0810 12:46:19.874188 13394 net.cpp:484] Sharing parameters 'fc2_b' owned by layer 'InnerProduct2', param index 1
I0810 12:46:19.874196 13394 layer_factory.hpp:77] Creating layer ReLU36
I0810 12:46:19.874207 13394 net.cpp:91] Creating Layer ReLU36
I0810 12:46:19.874213 13394 net.cpp:425] ReLU36 <- InnerProduct36
I0810 12:46:19.874225 13394 net.cpp:386] ReLU36 -> InnerProduct36 (in-place)
I0810 12:46:19.874238 13394 net.cpp:141] Setting up ReLU36
I0810 12:46:19.874249 13394 net.cpp:148] Top shape: 64 64 (4096)
I0810 12:46:19.874256 13394 net.cpp:156] Memory required for data: 102422272
I0810 12:46:19.874264 13394 layer_factory.hpp:77] Creating layer drop2
I0810 12:46:19.874276 13394 net.cpp:91] Creating Layer drop2
I0810 12:46:19.874284 13394 net.cpp:425] drop2 <- InnerProduct36
I0810 12:46:19.874296 13394 net.cpp:399] drop2 -> Dropout36
I0810 12:46:19.874313 13394 net.cpp:141] Setting up drop2
I0810 12:46:19.874325 13394 net.cpp:148] Top shape: 64 64 (4096)
I0810 12:46:19.874354 13394 net.cpp:156] Memory required for data: 102438656
I0810 12:46:19.874363 13394 layer_factory.hpp:77] Creating layer m18
I0810 12:46:19.874377 13394 net.cpp:91] Creating Layer m18
I0810 12:46:19.874384 13394 net.cpp:425] m18 <- Dropout36
I0810 12:46:19.874397 13394 net.cpp:399] m18 -> m18
I0810 12:46:19.874428 13394 net.cpp:141] Setting up m18
I0810 12:46:19.874439 13394 net.cpp:148] Top shape: 64 1 (64)
I0810 12:46:19.874445 13394 net.cpp:156] Memory required for data: 102438912
I0810 12:46:19.874454 13394 net.cpp:484] Sharing parameters 'fc3_w' owned by layer 'm1', param index 0
I0810 12:46:19.874465 13394 net.cpp:484] Sharing parameters 'fc3_b' owned by layer 'm1', param index 1
I0810 12:46:19.874472 13394 layer_factory.hpp:77] Creating layer Concat19
I0810 12:46:19.874482 13394 net.cpp:91] Creating Layer Concat19
I0810 12:46:19.874488 13394 net.cpp:425] Concat19 <- i10
I0810 12:46:19.874500 13394 net.cpp:425] Concat19 <- i11_i1_10_split_9
I0810 12:46:19.874512 13394 net.cpp:399] Concat19 -> Concat19
I0810 12:46:19.874529 13394 net.cpp:141] Setting up Concat19
I0810 12:46:19.874541 13394 net.cpp:148] Top shape: 64 2 1 4096 (524288)
I0810 12:46:19.874547 13394 net.cpp:156] Memory required for data: 104536064
I0810 12:46:19.874555 13394 layer_factory.hpp:77] Creating layer InnerProduct37
I0810 12:46:19.874570 13394 net.cpp:91] Creating Layer InnerProduct37
I0810 12:46:19.874577 13394 net.cpp:425] InnerProduct37 <- Concat19
I0810 12:46:19.874589 13394 net.cpp:399] InnerProduct37 -> InnerProduct37
I0810 12:46:19.880071 13394 net.cpp:141] Setting up InnerProduct37
I0810 12:46:19.880095 13394 net.cpp:148] Top shape: 64 64 (4096)
I0810 12:46:19.880103 13394 net.cpp:156] Memory required for data: 104552448
I0810 12:46:19.880115 13394 net.cpp:484] Sharing parameters 'fc1_w' owned by layer 'InnerProduct1', param index 0
I0810 12:46:19.880125 13394 net.cpp:484] Sharing parameters 'fc1_b' owned by layer 'InnerProduct1', param index 1
I0810 12:46:19.880132 13394 layer_factory.hpp:77] Creating layer ReLU37
I0810 12:46:19.880143 13394 net.cpp:91] Creating Layer ReLU37
I0810 12:46:19.880152 13394 net.cpp:425] ReLU37 <- InnerProduct37
I0810 12:46:19.880169 13394 net.cpp:386] ReLU37 -> InnerProduct37 (in-place)
I0810 12:46:19.880184 13394 net.cpp:141] Setting up ReLU37
I0810 12:46:19.880195 13394 net.cpp:148] Top shape: 64 64 (4096)
I0810 12:46:19.880203 13394 net.cpp:156] Memory required for data: 104568832
I0810 12:46:19.880210 13394 layer_factory.hpp:77] Creating layer drop1
I0810 12:46:19.880221 13394 net.cpp:91] Creating Layer drop1
I0810 12:46:19.880228 13394 net.cpp:425] drop1 <- InnerProduct37
I0810 12:46:19.880244 13394 net.cpp:399] drop1 -> Dropout37
I0810 12:46:19.880259 13394 net.cpp:141] Setting up drop1
I0810 12:46:19.880270 13394 net.cpp:148] Top shape: 64 64 (4096)
I0810 12:46:19.880278 13394 net.cpp:156] Memory required for data: 104585216
I0810 12:46:19.880286 13394 layer_factory.hpp:77] Creating layer InnerProduct38
I0810 12:46:19.880298 13394 net.cpp:91] Creating Layer InnerProduct38
I0810 12:46:19.880306 13394 net.cpp:425] InnerProduct38 <- Dropout37
I0810 12:46:19.880321 13394 net.cpp:399] InnerProduct38 -> InnerProduct38
I0810 12:46:19.880399 13394 net.cpp:141] Setting up InnerProduct38
I0810 12:46:19.880411 13394 net.cpp:148] Top shape: 64 64 (4096)
I0810 12:46:19.880419 13394 net.cpp:156] Memory required for data: 104601600
I0810 12:46:19.880426 13394 net.cpp:484] Sharing parameters 'fc2_w' owned by layer 'InnerProduct2', param index 0
I0810 12:46:19.880436 13394 net.cpp:484] Sharing parameters 'fc2_b' owned by layer 'InnerProduct2', param index 1
I0810 12:46:19.880445 13394 layer_factory.hpp:77] Creating layer ReLU38
I0810 12:46:19.880455 13394 net.cpp:91] Creating Layer ReLU38
I0810 12:46:19.880463 13394 net.cpp:425] ReLU38 <- InnerProduct38
I0810 12:46:19.880476 13394 net.cpp:386] ReLU38 -> InnerProduct38 (in-place)
I0810 12:46:19.880489 13394 net.cpp:141] Setting up ReLU38
I0810 12:46:19.880499 13394 net.cpp:148] Top shape: 64 64 (4096)
I0810 12:46:19.880506 13394 net.cpp:156] Memory required for data: 104617984
I0810 12:46:19.880534 13394 layer_factory.hpp:77] Creating layer drop2
I0810 12:46:19.880544 13394 net.cpp:91] Creating Layer drop2
I0810 12:46:19.880551 13394 net.cpp:425] drop2 <- InnerProduct38
I0810 12:46:19.880563 13394 net.cpp:399] drop2 -> Dropout38
I0810 12:46:19.880579 13394 net.cpp:141] Setting up drop2
I0810 12:46:19.880590 13394 net.cpp:148] Top shape: 64 64 (4096)
I0810 12:46:19.880599 13394 net.cpp:156] Memory required for data: 104634368
I0810 12:46:19.880606 13394 layer_factory.hpp:77] Creating layer m19
I0810 12:46:19.880619 13394 net.cpp:91] Creating Layer m19
I0810 12:46:19.880625 13394 net.cpp:425] m19 <- Dropout38
I0810 12:46:19.880640 13394 net.cpp:399] m19 -> m19
I0810 12:46:19.880666 13394 net.cpp:141] Setting up m19
I0810 12:46:19.880677 13394 net.cpp:148] Top shape: 64 1 (64)
I0810 12:46:19.880686 13394 net.cpp:156] Memory required for data: 104634624
I0810 12:46:19.880694 13394 net.cpp:484] Sharing parameters 'fc3_w' owned by layer 'm1', param index 0
I0810 12:46:19.880703 13394 net.cpp:484] Sharing parameters 'fc3_b' owned by layer 'm1', param index 1
I0810 12:46:19.880710 13394 layer_factory.hpp:77] Creating layer con
I0810 12:46:19.880723 13394 net.cpp:91] Creating Layer con
…
I0810 12:46:19.880823 13394 net.cpp:425] con <- m11
I0810 12:46:19.880833 13394 net.cpp:425] con <- m12
I0810 12:46:19.880843 13394 net.cpp:425] con <- m13
I0810 12:46:19.880851 13394 net.cpp:425] con <- m14
I0810 12:46:19.880859 13394 net.cpp:425] con <- m15
I0810 12:46:19.880867 13394 net.cpp:425] con <- m16
I0810 12:46:19.880875 13394 net.cpp:425] con <- m17
I0810 12:46:19.880884 13394 net.cpp:425] con <- m18
I0810 12:46:19.880892 13394 net.cpp:425] con <- m19
I0810 12:46:19.880913 13394 net.cpp:399] con -> con
I0810 12:46:19.880934 13394 net.cpp:141] Setting up con
I0810 12:46:19.880944 13394 net.cpp:148] Top shape: 64 19 (1216)
I0810 12:46:19.880951 13394 net.cpp:156] Memory required for data: 104639488
I0810 12:46:19.880959 13394 layer_factory.hpp:77] Creating layer r1
I0810 12:46:19.880972 13394 net.cpp:91] Creating Layer r1
I0810 12:46:19.880980 13394 net.cpp:425] r1 <- con
I0810 12:46:19.880991 13394 net.cpp:399] r1 -> r1
I0810 12:46:19.881016 13394 net.cpp:141] Setting up r1
I0810 12:46:19.881027 13394 net.cpp:148] Top shape: 64 1 1 19 (1216)
I0810 12:46:19.881036 13394 net.cpp:156] Memory required for data: 104644352
I0810 12:46:19.881043 13394 layer_factory.hpp:77] Creating layer p
I0810 12:46:19.881055 13394 net.cpp:91] Creating Layer p
I0810 12:46:19.881063 13394 net.cpp:425] p <- r1
I0810 12:46:19.881073 13394 net.cpp:399] p -> p
I0810 12:46:19.881099 13394 net.cpp:141] Setting up p
I0810 12:46:19.881109 13394 net.cpp:148] Top shape: 64 1 1 1 (64)
I0810 12:46:19.881119 13394 net.cpp:156] Memory required for data: 104644608
I0810 12:46:19.881125 13394 layer_factory.hpp:77] Creating layer r2
I0810 12:46:19.881141 13394 net.cpp:91] Creating Layer r2
I0810 12:46:19.881150 13394 net.cpp:425] r2 <- p
I0810 12:46:19.881162 13394 net.cpp:399] r2 -> r2
I0810 12:46:19.881177 13394 net.cpp:141] Setting up r2
I0810 12:46:19.881188 13394 net.cpp:148] Top shape: 64 1 1 1 (64)
I0810 12:46:19.881196 13394 net.cpp:156] Memory required for data: 104644864
I0810 12:46:19.881203 13394 layer_factory.hpp:77] Creating layer padL
I0810 12:46:19.881214 13394 net.cpp:91] Creating Layer padL
I0810 12:46:19.881224 13394 net.cpp:425] padL <- label_data_1_split_1
I0810 12:46:19.881237 13394 net.cpp:399] padL -> padL
I0810 12:46:19.881250 13394 net.cpp:141] Setting up padL
I0810 12:46:19.881259 13394 net.cpp:148] Top shape: 64 1 1 1 (64)
I0810 12:46:19.881280 13394 net.cpp:156] Memory required for data: 104645120
I0810 12:46:19.881289 13394 layer_factory.hpp:77] Creating layer pad
I0810 12:46:19.881305 13394 net.cpp:91] Creating Layer pad
I0810 12:46:19.881314 13394 net.cpp:425] pad <- r2
I0810 12:46:19.881325 13394 net.cpp:425] pad <- padL
I0810 12:46:19.881335 13394 net.cpp:399] pad -> pad
I0810 12:46:19.881348 13394 net.cpp:141] Setting up pad
I0810 12:46:19.881363 13394 net.cpp:148] Top shape: 64 2 1 1 (128)
I0810 12:46:19.881369 13394 net.cpp:156] Memory required for data: 104645632
I0810 12:46:19.881378 13394 layer_factory.hpp:77] Creating layer pad_pad_0_split
I0810 12:46:19.881388 13394 net.cpp:91] Creating Layer pad_pad_0_split
I0810 12:46:19.881397 13394 net.cpp:425] pad_pad_0_split <- pad
I0810 12:46:19.881407 13394 net.cpp:399] pad_pad_0_split -> pad_pad_0_split_0
I0810 12:46:19.881420 13394 net.cpp:399] pad_pad_0_split -> pad_pad_0_split_1
I0810 12:46:19.881434 13394 net.cpp:141] Setting up pad_pad_0_split
I0810 12:46:19.881445 13394 net.cpp:148] Top shape: 64 2 1 1 (128)
I0810 12:46:19.881454 13394 net.cpp:148] Top shape: 64 2 1 1 (128)
I0810 12:46:19.881460 13394 net.cpp:156] Memory required for data: 104646656
I0810 12:46:19.881466 13394 layer_factory.hpp:77] Creating layer loss
I0810 12:46:19.881481 13394 net.cpp:91] Creating Layer loss
I0810 12:46:19.881489 13394 net.cpp:425] loss <- pad_pad_0_split_0
I0810 12:46:19.881500 13394 net.cpp:425] loss <- th_th_0_split_0
I0810 12:46:19.881510 13394 net.cpp:399] loss -> loss
…
