…
snapshot: 5000
snapshot_prefix: "examples/scene/scene_met"
solver_mode: CPU
I0810 21:28:35.092274 24399 solver.cpp:81] Creating training net from train_net file: examples/scene/metNetTrain.prototxt
I0810 21:28:35.098266 24399 net.cpp:49] Initializing net from parameters: 
state {
  phase: TRAIN
}
layer {
  name: "data"
  type: "Data"
  top: "data"
  top: "label"
  include {
    phase: TRAIN
  }
  transform_param {
    scale: 1
    mirror: false
  }
  data_param {
    source: "/home/shaogang/Datasets/FeatsDB/featsTrain20k"
    batch_size: 200
    backend: LMDB
  }
}
layer {
  name: "th"
  type: "Threshold"
  bottom: "label"
  top: "th"
  threshold_param {
    threshold: 0
  }
}
layer {
  name: "i1"
  type: "Slice"
  bottom: "data"
  top: "i1"
  top: "i2"
  top: "i3"
  top: "i4"
  top: "i5"
  top: "i6"
  top: "i7"
  top: "i8"
  top: "i9"
  top: "i10"
  top: "i11"
  top: "i12"
  top: "i13"
  top: "i14"
  top: "i15"
  top: "i16"
  top: "i17"
  top: "i18"
  top: "i19"
  top: "i20"
  slice_param {
    slice_dim: 2
    slice_point: 1
    slice_point: 2
    slice_point: 3
    slice_point: 4
    slice_point: 5
    slice_point: 6
    slice_point: 7
    slice_point: 8
    slice_point: 9
    slice_point: 10
    slice_point: 11
    slice_point: 12
    slice_point: 13
    slice_point: 14
    slice_point: 15
    slice_point: 16
    slice_point: 17
    slice_point: 18
    slice_point: 19
  }
}
layer {
  name: "Concat1"
  type: "Concat"
  bottom: "i1"
  bottom: "i11"
  top: "Concat1"
  concat_param {
    axis: 1
  }
}
layer {
  name: "InnerProduct1"
  type: "InnerProduct"
  bottom: "Concat1"
  top: "InnerProduct1"
  param {
    name: "fc1_w"
    lr_mult: 1
  }
  param {
    name: "fc1_b"
    lr_mult: 2
  }
  inner_product_param {
    num_output: 64
    weight_filler {
      type: "xavier"
    }
    bias_filler {
      type: "constant"
    }
  }
}
layer {
  name: "ReLU1"
  type: "ReLU"
  bottom: "InnerProduct1"
  top: "InnerProduct1"
}
layer {
  name: "drop1"
  type: "Dropout"
  bottom: "InnerProduct1"
  top: "Dropout1"
  dropout_param {
    dropout_ratio: 0.5
  }
}
layer {
  name: "InnerProduct2"
  type: "InnerProduct"
  bottom: "Dropout1"
  top: "InnerProduct2"
  param {
    name: "fc2_w"
    lr_mult: 1
  }
  param {
    name: "fc2_b"
    lr_mult: 2
  }
  inner_product_param {
    num_output: 64
    weight_filler {
      type: "xavier"
    }
    bias_filler {
      type: "constant"
    }
  }
}
layer {
  name: "ReLU2"
  type: "ReLU"
  bottom: "InnerProduct2"
  top: "InnerProduct2"
}
layer {
  name: "drop2"
  type: "Dropout"
  bottom: "InnerProduct2"
  top: "Dropout2"
  dropout_param {
    dropout_ratio: 0.5
  }
}
layer {
  name: "m1"
  type: "InnerProduct"
  bottom: "Dropout2"
  top: "m1"
  param {
    name: "fc3_w"
    lr_mult: 1
  }
  param {
    name: "fc3_b"
    lr_mult: 2
  }
  inner_product_param {
    num_output: 1
    weight_filler {
      type: "xavier"
    }
    bias_filler {
      type: "constant"
    }
  }
}
layer {
  name: "Concat2"
  type: "Concat"
  bottom: "i1"
  bottom: "i12"
  top: "Concat2"
  concat_param {
    axis: 1
  }
}
layer {
  name: "InnerProduct3"
  type: "InnerProduct"
  bottom: "Concat2"
  top: "InnerProduct3"
  param {
    name: "fc1_w"
    lr_mult: 1
  }
  param {
    name: "fc1_b"
    lr_mult: 2
  }
  inner_product_param {
    num_output: 64
    weight_filler {
      type: "xavier"
    }
    bias_filler {
      type: "constant"
    }
  }
}
layer {
  name: "ReLU3"
  type: "ReLU"
  bottom: "InnerProduct3"
  top: "InnerProduct3"
}
layer {
  name: "drop1"
  type: "Dropout"
  bottom: "InnerProduct3"
  top: "Dropout3"
  dropout_param {
    dropout_ratio: 0.5
  }
}
layer {
  name: "InnerProduct4"
  type: "InnerProduct"
  bottom: "Dropout3"
  top: "InnerProduct4"
  param {
    name: "fc2_w"
    lr_mult: 1
  }
  param {
    name: "fc2_b"
    lr_mult: 2
  }
  inner_product_param {
    num_output: 64
    weight_filler {
      type: "xavier"
    }
    bias_filler {
      type: "constant"
    }
  }
}
layer {
  name: "ReLU4"
  type: "ReLU"
  bottom: "InnerProduct4"
  top: "InnerProduct4"
}
layer {
  name: "drop2"
  type: "Dropout"
  bottom: "InnerProduct4"
  top: "Dropout4"
  dropout_param {
    dropout_ratio: 0.5
  }
}
layer {
  name: "m2"
  type: "InnerProduct"
  bottom: "Dropout4"
  top: "m2"
  param {
    name: "fc3_w"
    lr_mult: 1
  }
  param {
    name: "fc3_b"
    lr_mult: 2
  }
  inner_product_param {
    num_output: 1
    weight_filler {
      type: "xavier"
    }
    bias_filler {
      type: "constant"
    }
  }
}
layer {
  name: "Concat3"
  type: "Concat"
  bottom: "i1"
  bottom: "i13"
  top: "Concat3"
  concat_param {
    axis: 1
  }
}
layer {
  name: "InnerProduct5"
  type: "InnerProduct"
  bottom: "Concat3"
  top: "InnerProduct5"
  param {
    name: "fc1_w"
    lr_mult: 1
  }
  param {
    name: "fc1_b"
    lr_mult: 2
  }
  inner_product_param {
    num_output: 64
    weight_filler {
      type: "xavier"
    }
    bias_filler {
      type: "constant"
    }
  }
}
layer {
  name: "ReLU5"
  type: "ReLU"
  bottom: "InnerProduct5"
  top: "InnerProduct5"
}
layer {
  name: "drop1"
  type: "Dropout"
  bottom: "InnerProduct5"
  top: "Dropout5"
  dropout_param {
    dropout_ratio: 0.5
  }
}
layer {
  name: "InnerProduct6"
  type: "InnerProduct"
  bottom: "Dropout5"
  top: "InnerProduct6"
  param {
    name: "fc2_w"
    lr_mult: 1
  }
  param {
    name: "fc2_b"
    lr_mult: 2
  }
  inner_product_param {
    num_output: 64
    weight_filler {
      type: "xavier"
    }
    bias_filler {
      type: "constant"
    }
  }
}
layer {
  name: "ReLU6"
  type: "ReLU"
  bottom: "InnerProduct6"
  top: "InnerProduct6"
}
layer {
  name: "drop2"
  type: "Dropout"
  bottom: "InnerProduct6"
  top: "Dropout6"
  dropout_param {
    dropout_ratio: 0.5
  }
}
layer {
  name: "m3"
  type: "InnerProduct"
  bottom: "Dropout6"
  top: "m3"
  param {
    name: "fc3_w"
    lr_mult: 1
  }
  param {
    name: "fc3_b"
    lr_mult: 2
  }
  inner_product_param {
    num_output: 1
    weight_filler {
      type: "xavier"
    }
    bias_filler {
      type: "constant"
    }
  }
}
layer {
  name: "Concat4"
  type: "Concat"
  bottom: "i1"
  bottom: "i14"
  top: "Concat4"
  concat_param {
    axis: 1
  }
}
layer {
  name: "InnerProduct7"
  type: "InnerProduct"
  bottom: "Concat4"
  top: "InnerProduct7"
  param {
    name: "fc1_w"
    lr_mult: 1
  }
  param {
    name: "fc1_b"
    lr_mult: 2
  }
  inner_product_param {
    num_output: 64
    weight_filler {
      type: "xavier"
    }
    bias_filler {
      type: "constant"
    }
  }
}
layer {
  name: "ReLU7"
  type: "ReLU"
  bottom: "InnerProduct7"
  top: "InnerProduct7"
}
layer {
  name: "drop1"
  type: "Dropout"
  bottom: "InnerProduct7"
  top: "Dropout7"
  dropout_param {
    dropout_ratio: 0.5
  }
}
layer {
  name: "InnerProduct8"
  type: "InnerProduct"
  bottom: "Dropout7"
  top: "InnerProduct8"
  param {
    name: "fc2_w"
    lr_mult: 1
  }
  param {
    name: "fc2_b"
    lr_mult: 2
  }
  inner_product_param {
    num_output: 64
    weight_filler {
      type: "xavier"
    }
    bias_filler {
      type: "constant"
    }
  }
}
layer {
  name: "ReLU8"
  type: "ReLU"
  bottom: "InnerProduct8"
  top: "InnerProduct8"
}
layer {
  name: "drop2"
  type: "Dropout"
  bottom: "InnerProduct8"
  top: "Dropout8"
  dropout_param {
    dropout_ratio: 0.5
  }
}
layer {
  name: "m4"
  type: "InnerProduct"
  bottom: "Dropout8"
  top: "m4"
  param {
    name: "fc3_w"
    lr_mult: 1
  }
  param {
    name: "fc3_b"
    lr_mult: 2
  }
  inner_product_param {
    num_output: 1
    weight_filler {
      type: "xavier"
    }
    bias_filler {
      type: "constant"
    }
  }
}
layer {
  name: "Concat5"
  type: "Concat"
  bottom: "i1"
  bottom: "i15"
  top: "Concat5"
  concat_param {
    axis: 1
  }
}
layer {
  name: "InnerProduct9"
  type: "InnerProduct"
  bottom: "Concat5"
  top: "InnerProduct9"
  param {
    name: "fc1_w"
    lr_mult: 1
  }
  param {
    name: "fc1_b"
    lr_mult: 2
  }
  inner_product_param {
    num_output: 64
    weight_filler {
      type: "xavier"
    }
    bias_filler {
      type: "constant"
    }
  }
}
layer {
  name: "ReLU9"
  type: "ReLU"
  bottom: "InnerProduct9"
  top: "InnerProduct9"
}
layer {
  name: "drop1"
  type: "Dropout"
  bottom: "InnerProduct9"
  top: "Dropout9"
  dropout_param {
    dropout_ratio: 0.5
  }
}
layer {
  name: "InnerProduct10"
  type: "InnerProduct"
  bottom: "Dropout9"
  top: "InnerProduct10"
  param {
    name: "fc2_w"
    lr_mult: 1
  }
  param {
    name: "fc2_b"
    lr_mult: 2
  }
  inner_product_param {
    num_output: 64
    weight_filler {
      type: "xavier"
    }
    bias_filler {
      type: "constant"
    }
  }
}
layer {
  name: "ReLU10"
  type: "ReLU"
  bottom: "InnerProduct10"
  top: "InnerProduct10"
}
layer {
  name: "drop2"
  type: "Dropout"
  bottom: "InnerProduct10"
  top: "Dropout10"
  dropout_param {
    dropout_ratio: 0.5
  }
}
layer {
  name: "m5"
  type: "InnerProduct"
  bottom: "Dropout10"
  top: "m5"
  param {
    name: "fc3_w"
    lr_mult: 1
  }
  param {
    name: "fc3_b"
    lr_mult: 2
  }
  inner_product_param {
    num_output: 1
    weight_filler {
      type: "xavier"
    }
    bias_filler {
      type: "constant"
    }
  }
}
layer {
  name: "Concat6"
  type: "Concat"
  bottom: "i1"
  bottom: "i16"
  top: "Concat6"
  concat_param {
    axis: 1
  }
}
layer {
  name: "InnerProduct11"
  type: "InnerProduct"
  bottom: "Concat6"
  top: "InnerProduct11"
  param {
    name: "fc1_w"
    lr_mult: 1
  }
  param {
    name: "fc1_b"
    lr_mult: 2
  }
  inner_product_param {
    num_output: 64
    weight_filler {
      type: "xavier"
    }
    bias_filler {
      type: "constant"
    }
  }
}
layer {
  name: "ReLU11"
  type: "ReLU"
  bottom: "InnerProduct11"
  top: "InnerProduct11"
}
layer {
  name: "drop1"
  type: "Dropout"
  bottom: "InnerProduct11"
  top: "Dropout11"
  dropout_param {
    dropout_ratio: 0.5
  }
}
layer {
  name: "InnerProduct12"
  type: "InnerProduct"
  bottom: "Dropout11"
  top: "InnerProduct12"
  param {
    name: "fc2_w"
    lr_mult: 1
  }
  param {
    name: "fc2_b"
    lr_mult: 2
  }
  inner_product_param {
    num_output: 64
    weight_filler {
      type: "xavier"
    }
    bias_filler {
      type: "constant"
    }
  }
}
layer {
  name: "ReLU12"
  type: "ReLU"
  bottom: "InnerProduct12"
  top: "InnerProduct12"
}
layer {
  name: "drop2"
  type: "Dropout"
  bottom: "InnerProduct12"
  top: "Dropout12"
  dropout_param {
    dropout_ratio: 0.5
  }
}
layer {
  name: "m6"
  type: "InnerProduct"
  bottom: "Dropout12"
  top: "m6"
  param {
    name: "fc3_w"
    lr_mult: 1
  }
  param {
    name: "fc3_b"
    lr_mult: 2
  }
  inner_product_param {
    num_output: 1
    weight_filler {
      type: "xavier"
    }
    bias_filler {
      type: "constant"
    }
  }
}
layer {
  name: "Concat7"
  type: "Concat"
  bottom: "i1"
  bottom: "i17"
  top: "Concat7"
  concat_param {
    axis: 1
  }
}
layer {
  name: "InnerProduct13"
  type: "InnerProduct"
  bottom: "Concat7"
  top: "InnerProduct13"
  param {
    name: "fc1_w"
    lr_mult: 1
  }
  param {
    name: "fc1_b"
    lr_mult: 2
  }
  inner_product_param {
    num_output: 64
    weight_filler {
      type: "xavier"
    }
    bias_filler {
      type: "constant"
    }
  }
}
layer {
  name: "ReLU13"
  type: "ReLU"
  bottom: "InnerProduct13"
  top: "InnerProduct13"
}
layer {
  name: "drop1"
  type: "Dropout"
  bottom: "InnerProduct13"
  top: "Dropout13"
  dropout_param {
    dropout_ratio: 0.5
  }
}
layer {
  name: "InnerProduct14"
  type: "InnerProduct"
  bottom: "Dropout13"
  top: "InnerProduct14"
  param {
    name: "fc2_w"
    lr_mult: 1
  }
  param {
    name: "fc2_b"
    lr_mult: 2
  }
  inner_product_param {
    num_output: 64
    weight_filler {
      type: "xavier"
    }
    bias_filler {
      type: "constant"
    }
  }
}
layer {
  name: "ReLU14"
  type: "ReLU"
  bottom: "InnerProduct14"
  top: "InnerProduct14"
}
layer {
  name: "drop2"
  type: "Dropout"
  bottom: "InnerProduct14"
  top: "Dropout14"
  dropout_param {
    dropout_ratio: 0.5
  }
}
layer {
  name: "m7"
  type: "InnerProduct"
  bottom: "Dropout14"
  top: "m7"
  param {
    name: "fc3_w"
    lr_mult: 1
  }
  param {
    name: "fc3_b"
    lr_mult: 2
  }
  inner_product_param {
    num_output: 1
    weight_filler {
      type: "xavier"
    }
    bias_filler {
      type: "constant"
    }
  }
}
layer {
  name: "Concat8"
  type: "Concat"
  bottom: "i1"
  bottom: "i18"
  top: "Concat8"
  concat_param {
    axis: 1
  }
}
layer {
  name: "InnerProduct15"
  type: "InnerProduct"
  bottom: "Concat8"
  top: "InnerProduct15"
  param {
    name: "fc1_w"
    lr_mult: 1
  }
  param {
    name: "fc1_b"
    lr_mult: 2
  }
  inner_product_param {
    num_output: 64
    weight_filler {
      type: "xavier"
    }
    bias_filler {
      type: "constant"
    }
  }
}
layer {
  name: "ReLU15"
  type: "ReLU"
  bottom: "InnerProduct15"
  top: "InnerProduct15"
}
layer {
  name: "drop1"
  type: "Dropout"
  bottom: "InnerProduct15"
  top: "Dropout15"
  dropout_param {
    dropout_ratio: 0.5
  }
}
layer {
  name: "InnerProduct16"
  type: "InnerProduct"
  bottom: "Dropout15"
  top: "InnerProduct16"
  param {
    name: "fc2_w"
    lr_mult: 1
  }
  param {
    name: "fc2_b"
    lr_mult: 2
  }
  inner_product_param {
    num_output: 64
    weight_filler {
      type: "xavier"
    }
    bias_filler {
      type: "constant"
    }
  }
}
layer {
  name: "ReLU16"
  type: "ReLU"
  bottom: "InnerProduct16"
  top: "InnerProduct16"
}
layer {
  name: "drop2"
  type: "Dropout"
  bottom: "InnerProduct16"
  top: "Dropout16"
  dropout_param {
    dropout_ratio: 0.5
  }
}
layer {
  name: "m8"
  type: "InnerProduct"
  bottom: "Dropout16"
  top: "m8"
  param {
    name: "fc3_w"
    lr_mult: 1
  }
  param {
    name: "fc3_b"
    lr_mult: 2
  }
  inner_product_param {
    num_output: 1
    weight_filler {
      type: "xavier"
    }
    bias_filler {
      type: "constant"
    }
  }
}
layer {
  name: "Concat9"
  type: "Concat"
  bottom: "i1"
  bottom: "i19"
  top: "Concat9"
  concat_param {
    axis: 1
  }
}
layer {
  name: "InnerProduct17"
  type: "InnerProduct"
  bottom: "Concat9"
  top: "InnerProduct17"
  param {
    name: "fc1_w"
    lr_mult: 1
  }
  param {
    name: "fc1_b"
    lr_mult: 2
  }
  inner_product_param {
    num_output: 64
    weight_filler {
      type: "xavier"
    }
    bias_filler {
      type: "constant"
    }
  }
}
layer {
  name: "ReLU17"
  type: "ReLU"
  bottom: "InnerProduct17"
  top: "InnerProduct17"
}
layer {
  name: "drop1"
  type: "Dropout"
  bottom: "InnerProduct17"
  top: "Dropout17"
  dropout_param {
    dropout_ratio: 0.5
  }
}
layer {
  name: "InnerProduct18"
  type: "InnerProduct"
  bottom: "Dropout17"
  top: "InnerProduct18"
  param {
    name: "fc2_w"
    lr_mult: 1
  }
  param {
    name: "fc2_b"
    lr_mult: 2
  }
  inner_product_param {
    num_output: 64
    weight_filler {
      type: "xavier"
    }
    bias_filler {
      type: "constant"
    }
  }
}
layer {
  name: "ReLU18"
  type: "ReLU"
  bottom: "InnerProduct18"
  top: "InnerProduct18"
}
layer {
  name: "drop2"
  type: "Dropout"
  bottom: "InnerProduct18"
  top: "Dropout18"
  dropout_param {
    dropout_ratio: 0.5
  }
}
layer {
  name: "m9"
  type: "InnerProduct"
  bottom: "Dropout18"
  top: "m9"
  param {
    name: "fc3_w"
    lr_mult: 1
  }
  param {
    name: "fc3_b"
    lr_mult: 2
  }
  inner_product_param {
    num_output: 1
    weight_filler {
      type: "xavier"
    }
    bias_filler {
      type: "constant"
    }
  }
}
layer {
  name: "Concat10"
  type: "Concat"
  bottom: "i1"
  bottom: "i20"
  top: "Concat10"
  concat_param {
    axis: 1
  }
}
layer {
  name: "InnerProduct19"
  type: "InnerProduct"
  bottom: "Concat10"
  top: "InnerProduct19"
  param {
    name: "fc1_w"
    lr_mult: 1
  }
  param {
    name: "fc1_b"
    lr_mult: 2
  }
  inner_product_param {
    num_output: 64
    weight_filler {
      type: "xavier"
    }
    bias_filler {
      type: "constant"
    }
  }
}
layer {
  name: "ReLU19"
  type: "ReLU"
  bottom: "InnerProduct19"
  top: "InnerProduct19"
}
layer {
  name: "drop1"
  type: "Dropout"
  bottom: "InnerProduct19"
  top: "Dropout19"
  dropout_param {
    dropout_ratio: 0.5
  }
}
layer {
  name: "InnerProduct20"
  type: "InnerProduct"
  bottom: "Dropout19"
  top: "InnerProduct20"
  param {
    name: "fc2_w"
    lr_mult: 1
  }
  param {
    name: "fc2_b"
    lr_mult: 2
  }
  inner_product_param {
    num_output: 64
    weight_filler {
      type: "xavier"
    }
    bias_filler {
      type: "constant"
    }
  }
}
layer {
  name: "ReLU20"
  type: "ReLU"
  bottom: "InnerProduct20"
  top: "InnerProduct20"
}
layer {
  name: "drop2"
  type: "Dropout"
  bottom: "InnerProduct20"
  top: "Dropout20"
  dropout_param {
    dropout_ratio: 0.5
  }
}
layer {
  name: "m10"
  type: "InnerProduct"
  bottom: "Dropout20"
  top: "m10"
  param {
    name: "fc3_w"
    lr_mult: 1
  }
  param {
    name: "fc3_b"
    lr_mult: 2
  }
  inner_product_param {
    num_output: 1
    weight_filler {
      type: "xavier"
    }
    bias_filler {
      type: "constant"
    }
  }
}
layer {
  name: "Concat11"
  type: "Concat"
  bottom: "i2"
  bottom: "i11"
  top: "Concat11"
  concat_param {
    axis: 1
  }
}
layer {
  name: "InnerProduct21"
  type: "InnerProduct"
  bottom: "Concat11"
  top: "InnerProduct21"
  param {
    name: "fc1_w"
    lr_mult: 1
  }
  param {
    name: "fc1_b"
    lr_mult: 2
  }
  inner_product_param {
    num_output: 64
    weight_filler {
      type: "xavier"
    }
    bias_filler {
      type: "constant"
    }
  }
}
layer {
  name: "ReLU21"
  type: "ReLU"
  bottom: "InnerProduct21"
  top: "InnerProduct21"
}
layer {
  name: "drop1"
  type: "Dropout"
  bottom: "InnerProduct21"
  top: "Dropout21"
  dropout_param {
    dropout_ratio: 0.5
  }
}
layer {
  name: "InnerProduct22"
  type: "InnerProduct"
  bottom: "Dropout21"
  top: "InnerProduct22"
  param {
    name: "fc2_w"
    lr_mult: 1
  }
  param {
    name: "fc2_b"
    lr_mult: 2
  }
  inner_product_param {
    num_output: 64
    weight_filler {
      type: "xavier"
    }
    bias_filler {
      type: "constant"
    }
  }
}
layer {
  name: "ReLU22"
  type: "ReLU"
  bottom: "InnerProduct22"
  top: "InnerProduct22"
}
layer {
  name: "drop2"
  type: "Dropout"
  bottom: "InnerProduct22"
  top: "Dropout22"
  dropout_param {
    dropout_ratio: 0.5
  }
}
layer {
  name: "m11"
  type: "InnerProduct"
  bottom: "Dropout22"
  top: "m11"
  param {
    name: "fc3_w"
    lr_mult: 1
  }
  param {
    name: "fc3_b"
    lr_mult: 2
  }
  inner_product_param {
    num_output: 1
    weight_filler {
      type: "xavier"
    }
    bias_filler {
      type: "constant"
    }
  }
}
layer {
  name: "Concat12"
  type: "Concat"
  bottom: "i3"
  bottom: "i11"
  top: "Concat12"
  concat_param {
    axis: 1
  }
}
layer {
  name: "InnerProduct23"
  type: "InnerProduct"
  bottom: "Concat12"
  top: "InnerProduct23"
  param {
    name: "fc1_w"
    lr_mult: 1
  }
  param {
    name: "fc1_b"
    lr_mult: 2
  }
  inner_product_param {
    num_output: 64
    weight_filler {
      type: "xavier"
    }
    bias_filler {
      type: "constant"
    }
  }
}
layer {
  name: "ReLU23"
  type: "ReLU"
  bottom: "InnerProduct23"
  top: "InnerProduct23"
}
layer {
  name: "drop1"
  type: "Dropout"
  bottom: "InnerProduct23"
  top: "Dropout23"
  dropout_param {
    dropout_ratio: 0.5
  }
}
layer {
  name: "InnerProduct24"
  type: "InnerProduct"
  bottom: "Dropout23"
  top: "InnerProduct24"
  param {
    name: "fc2_w"
    lr_mult: 1
  }
  param {
    name: "fc2_b"
    lr_mult: 2
  }
  inner_product_param {
    num_output: 64
    weight_filler {
      type: "xavier"
    }
    bias_filler {
      type: "constant"
    }
  }
}
layer {
  name: "ReLU24"
  type: "ReLU"
  bottom: "InnerProduct24"
  top: "InnerProduct24"
}
layer {
  name: "drop2"
  type: "Dropout"
  bottom: "InnerProduct24"
  top: "Dropout24"
  dropout_param {
    dropout_ratio: 0.5
  }
}
layer {
  name: "m12"
  type: "InnerProduct"
  bottom: "Dropout24"
  top: "m12"
  param {
    name: "fc3_w"
    lr_mult: 1
  }
  param {
    name: "fc3_b"
    lr_mult: 2
  }
  inner_product_param {
    num_output: 1
    weight_filler {
      type: "xavier"
    }
    bias_filler {
      type: "constant"
    }
  }
}
layer {
  name: "Concat13"
  type: "Concat"
  bottom: "i4"
  bottom: "i11"
  top: "Concat13"
  concat_param {
    axis: 1
  }
}
layer {
  name: "InnerProduct25"
  type: "InnerProduct"
  bottom: "Concat13"
  top: "InnerProduct25"
  param {
    name: "fc1_w"
    lr_mult: 1
  }
  param {
    name: "fc1_b"
    lr_mult: 2
  }
  inner_product_param {
    num_output: 64
    weight_filler {
      type: "xavier"
    }
    bias_filler {
      type: "constant"
    }
  }
}
layer {
  name: "ReLU25"
  type: "ReLU"
  bottom: "InnerProduct25"
  top: "InnerProduct25"
}
layer {
  name: "drop1"
  type: "Dropout"
  bottom: "InnerProduct25"
  top: "Dropout25"
  dropout_param {
    dropout_ratio: 0.5
  }
}
layer {
  name: "InnerProduct26"
  type: "InnerProduct"
  bottom: "Dropout25"
  top: "InnerProduct26"
  param {
    name: "fc2_w"
    lr_mult: 1
  }
  param {
    name: "fc2_b"
    lr_mult: 2
  }
  inner_product_param {
    num_output: 64
    weight_filler {
      type: "xavier"
    }
    bias_filler {
      type: "constant"
    }
  }
}
layer {
  name: "ReLU26"
  type: "ReLU"
  bottom: "InnerProduct26"
  top: "InnerProduct26"
}
layer {
  name: "drop2"
  type: "Dropout"
  bottom: "InnerProduct26"
  top: "Dropout26"
  dropout_param {
    dropout_ratio: 0.5
  }
}
layer {
  name: "m13"
  type: "InnerProduct"
  bottom: "Dropout26"
  top: "m13"
  param {
    name: "fc3_w"
    lr_mult: 1
  }
  param {
    name: "fc3_b"
    lr_mult: 2
  }
  inner_product_param {
    num_output: 1
    weight_filler {
      type: "xavier"
    }
    bias_filler {
      type: "constant"
    }
  }
}
layer {
  name: "Concat14"
  type: "Concat"
  bottom: "i5"
  bottom: "i11"
  top: "Concat14"
  concat_param {
    axis: 1
  }
}
layer {
  name: "InnerProduct27"
  type: "InnerProduct"
  bottom: "Concat14"
  top: "InnerProduct27"
  param {
    name: "fc1_w"
    lr_mult: 1
  }
  param {
    name: "fc1_b"
    lr_mult: 2
  }
  inner_product_param {
    num_output: 64
    weight_filler {
      type: "xavier"
    }
    bias_filler {
      type: "constant"
    }
  }
}
layer {
  name: "ReLU27"
  type: "ReLU"
  bottom: "InnerProduct27"
  top: "InnerProduct27"
}
layer {
  name: "drop1"
  type: "Dropout"
  bottom: "InnerProduct27"
  top: "Dropout27"
  dropout_param {
    dropout_ratio: 0.5
  }
}
layer {
  name: "InnerProduct28"
  type: "InnerProduct"
  bottom: "Dropout27"
  top: "InnerProduct28"
  param {
    name: "fc2_w"
    lr_mult: 1
  }
  param {
    name: "fc2_b"
    lr_mult: 2
  }
  inner_product_param {
    num_output: 64
    weight_filler {
      type: "xavier"
    }
    bias_filler {
      type: "constant"
    }
  }
}
layer {
  name: "ReLU28"
  type: "ReLU"
  bottom: "InnerProduct28"
  top: "InnerProduct28"
}
layer {
  name: "drop2"
  type: "Dropout"
  bottom: "InnerProduct28"
  top: "Dropout28"
  dropout_param {
    dropout_ratio: 0.5
  }
}
layer {
  name: "m14"
  type: "InnerProduct"
  bottom: "Dropout28"
  top: "m14"
  param {
    name: "fc3_w"
    lr_mult: 1
  }
  param {
    name: "fc3_b"
    lr_mult: 2
  }
  inner_product_param {
    num_output: 1
    weight_filler {
      type: "xavier"
    }
    bias_filler {
      type: "constant"
    }
  }
}
layer {
  name: "Concat15"
  type: "Concat"
  bottom: "i6"
  bottom: "i11"
  top: "Concat15"
  concat_param {
    axis: 1
  }
}
layer {
  name: "InnerProduct29"
  type: "InnerProduct"
  bottom: "Concat15"
  top: "InnerProduct29"
  param {
    name: "fc1_w"
    lr_mult: 1
  }
  param {
    name: "fc1_b"
    lr_mult: 2
  }
  inner_product_param {
    num_output: 64
    weight_filler {
      type: "xavier"
    }
    bias_filler {
      type: "constant"
    }
  }
}
layer {
  name: "ReLU29"
  type: "ReLU"
  bottom: "InnerProduct29"
  top: "InnerProduct29"
}
layer {
  name: "drop1"
  type: "Dropout"
  bottom: "InnerProduct29"
  top: "Dropout29"
  dropout_param {
    dropout_ratio: 0.5
  }
}
layer {
  name: "InnerProduct30"
  type: "InnerProduct"
  bottom: "Dropout29"
  top: "InnerProduct30"
  param {
    name: "fc2_w"
    lr_mult: 1
  }
  param {
    name: "fc2_b"
    lr_mult: 2
  }
  inner_product_param {
    num_output: 64
    weight_filler {
      type: "xavier"
    }
    bias_filler {
      type: "constant"
    }
  }
}
layer {
  name: "ReLU30"
  type: "ReLU"
  bottom: "InnerProduct30"
  top: "InnerProduct30"
}
layer {
  name: "drop2"
  type: "Dropout"
  bottom: "InnerProduct30"
  top: "Dropout30"
  dropout_param {
    dropout_ratio: 0.5
  }
}
layer {
  name: "m15"
  type: "InnerProduct"
  bottom: "Dropout30"
  top: "m15"
  param {
    name: "fc3_w"
    lr_mult: 1
  }
  param {
    name: "fc3_b"
    lr_mult: 2
  }
  inner_product_param {
    num_output: 1
    weight_filler {
      type: "xavier"
    }
    bias_filler {
      type: "constant"
    }
  }
}
layer {
  name: "Concat16"
  type: "Concat"
  bottom: "i7"
  bottom: "i11"
  top: "Concat16"
  concat_param {
    axis: 1
  }
}
layer {
  name: "InnerProduct31"
  type: "InnerProduct"
  bottom: "Concat16"
  top: "InnerProduct31"
  param {
    name: "fc1_w"
    lr_mult: 1
  }
  param {
    name: "fc1_b"
    lr_mult: 2
  }
  inner_product_param {
    num_output: 64
    weight_filler {
      type: "xavier"
    }
    bias_filler {
      type: "constant"
    }
  }
}
layer {
  name: "ReLU31"
  type: "ReLU"
  bottom: "InnerProduct31"
  top: "InnerProduct31"
}
layer {
  name: "drop1"
  type: "Dropout"
  bottom: "InnerProduct31"
  top: "Dropout31"
  dropout_param {
    dropout_ratio: 0.5
  }
}
layer {
  name: "InnerProduct32"
  type: "InnerProduct"
  bottom: "Dropout31"
  top: "InnerProduct32"
  param {
    name: "fc2_w"
    lr_mult: 1
  }
  param {
    name: "fc2_b"
    lr_mult: 2
  }
  inner_product_param {
    num_output: 64
    weight_filler {
      type: "xavier"
    }
    bias_filler {
      type: "constant"
    }
  }
}
layer {
  name: "ReLU32"
  type: "ReLU"
  bottom: "InnerProduct32"
  top: "InnerProduct32"
}
layer {
  name: "drop2"
  type: "Dropout"
  bottom: "InnerProduct32"
  top: "Dropout32"
  dropout_param {
    dropout_ratio: 0.5
  }
}
layer {
  name: "m16"
  type: "InnerProduct"
  bottom: "Dropout32"
  top: "m16"
  param {
    name: "fc3_w"
    lr_mult: 1
  }
  param {
    name: "fc3_b"
    lr_mult: 2
  }
  inner_product_param {
    num_output: 1
    weight_filler {
      type: "xavier"
    }
    bias_filler {
      type: "constant"
    }
  }
}
layer {
  name: "Concat17"
  type: "Concat"
  bottom: "i8"
  bottom: "i11"
  top: "Concat17"
  concat_param {
    axis: 1
  }
}
layer {
  name: "InnerProduct33"
  type: "InnerProduct"
  bottom: "Concat17"
  top: "InnerProduct33"
  param {
    name: "fc1_w"
    lr_mult: 1
  }
  param {
    name: "fc1_b"
    lr_mult: 2
  }
  inner_product_param {
    num_output: 64
    weight_filler {
      type: "xavier"
    }
    bias_filler {
      type: "constant"
    }
  }
}
layer {
  name: "ReLU33"
  type: "ReLU"
  bottom: "InnerProduct33"
  top: "InnerProduct33"
}
layer {
  name: "drop1"
  type: "Dropout"
  bottom: "InnerProduct33"
  top: "Dropout33"
  dropout_param {
    dropout_ratio: 0.5
  }
}
layer {
  name: "InnerProduct34"
  type: "InnerProduct"
  bottom: "Dropout33"
  top: "InnerProduct34"
  param {
    name: "fc2_w"
    lr_mult: 1
  }
  param {
    name: "fc2_b"
    lr_mult: 2
  }
  inner_product_param {
    num_output: 64
    weight_filler {
      type: "xavier"
    }
    bias_filler {
      type: "constant"
    }
  }
}
layer {
  name: "ReLU34"
  type: "ReLU"
  bottom: "InnerProduct34"
  top: "InnerProduct34"
}
layer {
  name: "drop2"
  type: "Dropout"
  bottom: "InnerProduct34"
  top: "Dropout34"
  dropout_param {
    dropout_ratio: 0.5
  }
}
layer {
  name: "m17"
  type: "InnerProduct"
  bottom: "Dropout34"
  top: "m17"
  param {
    name: "fc3_w"
    lr_mult: 1
  }
  param {
    name: "fc3_b"
    lr_mult: 2
  }
  inner_product_param {
    num_output: 1
    weight_filler {
      type: "xavier"
    }
    bias_filler {
      type: "constant"
    }
  }
}
layer {
  name: "Concat18"
  type: "Concat"
  bottom: "i9"
  bottom: "i11"
  top: "Concat18"
  concat_param {
    axis: 1
  }
}
layer {
  name: "InnerProduct35"
  type: "InnerProduct"
  bottom: "Concat18"
  top: "InnerProduct35"
  param {
    name: "fc1_w"
    lr_mult: 1
  }
  param {
    name: "fc1_b"
    lr_mult: 2
  }
  inner_product_param {
    num_output: 64
    weight_filler {
      type: "xavier"
    }
    bias_filler {
      type: "constant"
    }
  }
}
layer {
  name: "ReLU35"
  type: "ReLU"
  bottom: "InnerProduct35"
  top: "InnerProduct35"
}
layer {
  name: "drop1"
  type: "Dropout"
  bottom: "InnerProduct35"
  top: "Dropout35"
  dropout_param {
    dropout_ratio: 0.5
  }
}
layer {
  name: "InnerProduct36"
  type: "InnerProduct"
  bottom: "Dropout35"
  top: "InnerProduct36"
  param {
    name: "fc2_w"
    lr_mult: 1
  }
  param {
    name: "fc2_b"
    lr_mult: 2
  }
  inner_product_param {
    num_output: 64
    weight_filler {
      type: "xavier"
    }
    bias_filler {
      type: "constant"
    }
  }
}
layer {
  name: "ReLU36"
  type: "ReLU"
  bottom: "InnerProduct36"
  top: "InnerProduct36"
}
layer {
  name: "drop2"
  type: "Dropout"
  bottom: "InnerProduct36"
  top: "Dropout36"
  dropout_param {
    dropout_ratio: 0.5
  }
}
layer {
  name: "m18"
  type: "InnerProduct"
  bottom: "Dropout36"
  top: "m18"
  param {
    name: "fc3_w"
    lr_mult: 1
  }
  param {
    name: "fc3_b"
    lr_mult: 2
  }
  inner_product_param {
    num_output: 1
    weight_filler {
      type: "xavier"
    }
    bias_filler {
      type: "constant"
    }
  }
}
layer {
  name: "Concat19"
  type: "Concat"
  bottom: "i10"
  bottom: "i11"
  top: "Concat19"
  concat_param {
    axis: 1
  }
}
layer {
  name: "InnerProduct37"
  type: "InnerProduct"
  bottom: "Concat19"
  top: "InnerProduct37"
  param {
    name: "fc1_w"
    lr_mult: 1
  }
  param {
    name: "fc1_b"
    lr_mult: 2
  }
  inner_product_param {
    num_output: 64
    weight_filler {
      type: "xavier"
    }
    bias_filler {
      type: "constant"
    }
  }
}
layer {
  name: "ReLU37"
  type: "ReLU"
  bottom: "InnerPro
I0810 21:28:35.099261 24399 layer_factory.hpp:77] Creating layer data
I0810 21:28:35.100041 24399 net.cpp:91] Creating Layer data
I0810 21:28:35.100062 24399 net.cpp:399] data -> data
I0810 21:28:35.100100 24399 net.cpp:399] data -> label
I0810 21:28:35.100340 24403 db_lmdb.cpp:35] Opened lmdb /home/shaogang/Datasets/FeatsDB/featsTrain20k
I0810 21:28:35.102016 24399 data_layer.cpp:41] output data size: 200,1,20,4096
I0810 21:28:35.181993 24399 net.cpp:141] Setting up data
I0810 21:28:35.182041 24399 net.cpp:148] Top shape: 200 1 20 4096 (16384000)
I0810 21:28:35.182051 24399 net.cpp:148] Top shape: 200 (200)
I0810 21:28:35.182057 24399 net.cpp:156] Memory required for data: 65536800
I0810 21:28:35.182071 24399 layer_factory.hpp:77] Creating layer label_data_1_split
I0810 21:28:35.182092 24399 net.cpp:91] Creating Layer label_data_1_split
I0810 21:28:35.182101 24399 net.cpp:425] label_data_1_split <- label
I0810 21:28:35.182117 24399 net.cpp:399] label_data_1_split -> label_data_1_split_0
I0810 21:28:35.182139 24399 net.cpp:399] label_data_1_split -> label_data_1_split_1
I0810 21:28:35.182160 24399 net.cpp:141] Setting up label_data_1_split
I0810 21:28:35.182168 24399 net.cpp:148] Top shape: 200 (200)
I0810 21:28:35.182173 24399 net.cpp:148] Top shape: 200 (200)
I0810 21:28:35.182176 24399 net.cpp:156] Memory required for data: 65538400
I0810 21:28:35.182181 24399 layer_factory.hpp:77] Creating layer th
I0810 21:28:35.182193 24399 net.cpp:91] Creating Layer th
I0810 21:28:35.182198 24399 net.cpp:425] th <- label_data_1_split_0
I0810 21:28:35.182207 24399 net.cpp:399] th -> th
I0810 21:28:35.182224 24399 net.cpp:141] Setting up th
I0810 21:28:35.182230 24399 net.cpp:148] Top shape: 200 (200)
I0810 21:28:35.182235 24399 net.cpp:156] Memory required for data: 65539200
I0810 21:28:35.182240 24399 layer_factory.hpp:77] Creating layer th_th_0_split
I0810 21:28:35.182246 24399 net.cpp:91] Creating Layer th_th_0_split
I0810 21:28:35.182252 24399 net.cpp:425] th_th_0_split <- th
I0810 21:28:35.182260 24399 net.cpp:399] th_th_0_split -> th_th_0_split_0
I0810 21:28:35.182266 24399 net.cpp:399] th_th_0_split -> th_th_0_split_1
I0810 21:28:35.182277 24399 net.cpp:141] Setting up th_th_0_split
I0810 21:28:35.182282 24399 net.cpp:148] Top shape: 200 (200)
I0810 21:28:35.182318 24399 net.cpp:148] Top shape: 200 (200)
I0810 21:28:35.182323 24399 net.cpp:156] Memory required for data: 65540800
I0810 21:28:35.182327 24399 layer_factory.hpp:77] Creating layer i1
I0810 21:28:35.182346 24399 net.cpp:91] Creating Layer i1
I0810 21:28:35.182355 24399 net.cpp:425] i1 <- data
I0810 21:28:35.182366 24399 net.cpp:399] i1 -> i1
I0810 21:28:35.182379 24399 net.cpp:399] i1 -> i2
I0810 21:28:35.182394 24399 net.cpp:399] i1 -> i3
I0810 21:28:35.182404 24399 net.cpp:399] i1 -> i4
I0810 21:28:35.182411 24399 net.cpp:399] i1 -> i5
I0810 21:28:35.182422 24399 net.cpp:399] i1 -> i6
I0810 21:28:35.182431 24399 net.cpp:399] i1 -> i7
I0810 21:28:35.182441 24399 net.cpp:399] i1 -> i8
I0810 21:28:35.182453 24399 net.cpp:399] i1 -> i9
I0810 21:28:35.182463 24399 net.cpp:399] i1 -> i10
I0810 21:28:35.182473 24399 net.cpp:399] i1 -> i11
I0810 21:28:35.182484 24399 net.cpp:399] i1 -> i12
I0810 21:28:35.182494 24399 net.cpp:399] i1 -> i13
I0810 21:28:35.182502 24399 net.cpp:399] i1 -> i14
I0810 21:28:35.182515 24399 net.cpp:399] i1 -> i15
I0810 21:28:35.182523 24399 net.cpp:399] i1 -> i16
I0810 21:28:35.182533 24399 net.cpp:399] i1 -> i17
I0810 21:28:35.182545 24399 net.cpp:399] i1 -> i18
I0810 21:28:35.182554 24399 net.cpp:399] i1 -> i19
I0810 21:28:35.182562 24399 net.cpp:399] i1 -> i20
I0810 21:28:35.182587 24399 net.cpp:141] Setting up i1
I0810 21:28:35.182595 24399 net.cpp:148] Top shape: 200 1 1 4096 (819200)
I0810 21:28:35.182601 24399 net.cpp:148] Top shape: 200 1 1 4096 (819200)
I0810 21:28:35.182607 24399 net.cpp:148] Top shape: 200 1 1 4096 (819200)
I0810 21:28:35.182612 24399 net.cpp:148] Top shape: 200 1 1 4096 (819200)
I0810 21:28:35.182618 24399 net.cpp:148] Top shape: 200 1 1 4096 (819200)
I0810 21:28:35.182623 24399 net.cpp:148] Top shape: 200 1 1 4096 (819200)
I0810 21:28:35.182628 24399 net.cpp:148] Top shape: 200 1 1 4096 (819200)
I0810 21:28:35.182633 24399 net.cpp:148] Top shape: 200 1 1 4096 (819200)
I0810 21:28:35.182638 24399 net.cpp:148] Top shape: 200 1 1 4096 (819200)
I0810 21:28:35.182643 24399 net.cpp:148] Top shape: 200 1 1 4096 (819200)
I0810 21:28:35.182649 24399 net.cpp:148] Top shape: 200 1 1 4096 (819200)
I0810 21:28:35.182654 24399 net.cpp:148] Top shape: 200 1 1 4096 (819200)
I0810 21:28:35.182660 24399 net.cpp:148] Top shape: 200 1 1 4096 (819200)
I0810 21:28:35.182665 24399 net.cpp:148] Top shape: 200 1 1 4096 (819200)
I0810 21:28:35.182670 24399 net.cpp:148] Top shape: 200 1 1 4096 (819200)
I0810 21:28:35.182675 24399 net.cpp:148] Top shape: 200 1 1 4096 (819200)
I0810 21:28:35.182680 24399 net.cpp:148] Top shape: 200 1 1 4096 (819200)
I0810 21:28:35.182685 24399 net.cpp:148] Top shape: 200 1 1 4096 (819200)
I0810 21:28:35.182690 24399 net.cpp:148] Top shape: 200 1 1 4096 (819200)
I0810 21:28:35.182696 24399 net.cpp:148] Top shape: 200 1 1 4096 (819200)
I0810 21:28:35.182700 24399 net.cpp:156] Memory required for data: 131076800
I0810 21:28:35.182704 24399 layer_factory.hpp:77] Creating layer i1_i1_0_split
I0810 21:28:35.182713 24399 net.cpp:91] Creating Layer i1_i1_0_split
I0810 21:28:35.182721 24399 net.cpp:425] i1_i1_0_split <- i1
I0810 21:28:35.182730 24399 net.cpp:399] i1_i1_0_split -> i1_i1_0_split_0
I0810 21:28:35.182739 24399 net.cpp:399] i1_i1_0_split -> i1_i1_0_split_1
I0810 21:28:35.182746 24399 net.cpp:399] i1_i1_0_split -> i1_i1_0_split_2
I0810 21:28:35.182756 24399 net.cpp:399] i1_i1_0_split -> i1_i1_0_split_3
I0810 21:28:35.182763 24399 net.cpp:399] i1_i1_0_split -> i1_i1_0_split_4
I0810 21:28:35.182771 24399 net.cpp:399] i1_i1_0_split -> i1_i1_0_split_5
I0810 21:28:35.182785 24399 net.cpp:399] i1_i1_0_split -> i1_i1_0_split_6
I0810 21:28:35.182795 24399 net.cpp:399] i1_i1_0_split -> i1_i1_0_split_7
I0810 21:28:35.182802 24399 net.cpp:399] i1_i1_0_split -> i1_i1_0_split_8
I0810 21:28:35.182811 24399 net.cpp:399] i1_i1_0_split -> i1_i1_0_split_9
I0810 21:28:35.182824 24399 net.cpp:141] Setting up i1_i1_0_split
I0810 21:28:35.182833 24399 net.cpp:148] Top shape: 200 1 1 4096 (819200)
I0810 21:28:35.182838 24399 net.cpp:148] Top shape: 200 1 1 4096 (819200)
I0810 21:28:35.182852 24399 net.cpp:148] Top shape: 200 1 1 4096 (819200)
I0810 21:28:35.182857 24399 net.cpp:148] Top shape: 200 1 1 4096 (819200)
I0810 21:28:35.182862 24399 net.cpp:148] Top shape: 200 1 1 4096 (819200)
I0810 21:28:35.182868 24399 net.cpp:148] Top shape: 200 1 1 4096 (819200)
I0810 21:28:35.182873 24399 net.cpp:148] Top shape: 200 1 1 4096 (819200)
I0810 21:28:35.182878 24399 net.cpp:148] Top shape: 200 1 1 4096 (819200)
I0810 21:28:35.182883 24399 net.cpp:148] Top shape: 200 1 1 4096 (819200)
I0810 21:28:35.182888 24399 net.cpp:148] Top shape: 200 1 1 4096 (819200)
I0810 21:28:35.182893 24399 net.cpp:156] Memory required for data: 163844800
I0810 21:28:35.182898 24399 layer_factory.hpp:77] Creating layer i11_i1_10_split
I0810 21:28:35.182907 24399 net.cpp:91] Creating Layer i11_i1_10_split
I0810 21:28:35.182912 24399 net.cpp:425] i11_i1_10_split <- i11
I0810 21:28:35.182919 24399 net.cpp:399] i11_i1_10_split -> i11_i1_10_split_0
I0810 21:28:35.182931 24399 net.cpp:399] i11_i1_10_split -> i11_i1_10_split_1
I0810 21:28:35.182940 24399 net.cpp:399] i11_i1_10_split -> i11_i1_10_split_2
I0810 21:28:35.182946 24399 net.cpp:399] i11_i1_10_split -> i11_i1_10_split_3
I0810 21:28:35.182953 24399 net.cpp:399] i11_i1_10_split -> i11_i1_10_split_4
I0810 21:28:35.182963 24399 net.cpp:399] i11_i1_10_split -> i11_i1_10_split_5
I0810 21:28:35.182971 24399 net.cpp:399] i11_i1_10_split -> i11_i1_10_split_6
I0810 21:28:35.182977 24399 net.cpp:399] i11_i1_10_split -> i11_i1_10_split_7
I0810 21:28:35.182987 24399 net.cpp:399] i11_i1_10_split -> i11_i1_10_split_8
I0810 21:28:35.182996 24399 net.cpp:399] i11_i1_10_split -> i11_i1_10_split_9
I0810 21:28:35.183007 24399 net.cpp:141] Setting up i11_i1_10_split
I0810 21:28:35.183015 24399 net.cpp:148] Top shape: 200 1 1 4096 (819200)
I0810 21:28:35.183023 24399 net.cpp:148] Top shape: 200 1 1 4096 (819200)
I0810 21:28:35.183029 24399 net.cpp:148] Top shape: 200 1 1 4096 (819200)
I0810 21:28:35.183034 24399 net.cpp:148] Top shape: 200 1 1 4096 (819200)
I0810 21:28:35.183039 24399 net.cpp:148] Top shape: 200 1 1 4096 (819200)
I0810 21:28:35.183044 24399 net.cpp:148] Top shape: 200 1 1 4096 (819200)
I0810 21:28:35.183049 24399 net.cpp:148] Top shape: 200 1 1 4096 (819200)
I0810 21:28:35.183053 24399 net.cpp:148] Top shape: 200 1 1 4096 (819200)
I0810 21:28:35.183058 24399 net.cpp:148] Top shape: 200 1 1 4096 (819200)
I0810 21:28:35.183064 24399 net.cpp:148] Top shape: 200 1 1 4096 (819200)
I0810 21:28:35.183068 24399 net.cpp:156] Memory required for data: 196612800
I0810 21:28:35.183073 24399 layer_factory.hpp:77] Creating layer Concat1
I0810 21:28:35.183082 24399 net.cpp:91] Creating Layer Concat1
I0810 21:28:35.183089 24399 net.cpp:425] Concat1 <- i1_i1_0_split_0
I0810 21:28:35.183095 24399 net.cpp:425] Concat1 <- i11_i1_10_split_0
I0810 21:28:35.183104 24399 net.cpp:399] Concat1 -> Concat1
I0810 21:28:35.183116 24399 net.cpp:141] Setting up Concat1
I0810 21:28:35.183122 24399 net.cpp:148] Top shape: 200 2 1 4096 (1638400)
I0810 21:28:35.183126 24399 net.cpp:156] Memory required for data: 203166400
I0810 21:28:35.183131 24399 layer_factory.hpp:77] Creating layer InnerProduct1
I0810 21:28:35.183143 24399 net.cpp:91] Creating Layer InnerProduct1
I0810 21:28:35.183151 24399 net.cpp:425] InnerProduct1 <- Concat1
I0810 21:28:35.183158 24399 net.cpp:399] InnerProduct1 -> InnerProduct1
I0810 21:28:35.187950 24399 net.cpp:141] Setting up InnerProduct1
I0810 21:28:35.187980 24399 net.cpp:148] Top shape: 200 64 (12800)
I0810 21:28:35.187986 24399 net.cpp:156] Memory required for data: 203217600
I0810 21:28:35.188011 24399 layer_factory.hpp:77] Creating layer ReLU1
I0810 21:28:35.188035 24399 net.cpp:91] Creating Layer ReLU1
I0810 21:28:35.188045 24399 net.cpp:425] ReLU1 <- InnerProduct1
I0810 21:28:35.188058 24399 net.cpp:386] ReLU1 -> InnerProduct1 (in-place)
I0810 21:28:35.188081 24399 net.cpp:141] Setting up ReLU1
I0810 21:28:35.188091 24399 net.cpp:148] Top shape: 200 64 (12800)
I0810 21:28:35.188097 24399 net.cpp:156] Memory required for data: 203268800
I0810 21:28:35.188127 24399 layer_factory.hpp:77] Creating layer drop1
I0810 21:28:35.188154 24399 net.cpp:91] Creating Layer drop1
I0810 21:28:35.188164 24399 net.cpp:425] drop1 <- InnerProduct1
I0810 21:28:35.188176 24399 net.cpp:399] drop1 -> Dropout1
I0810 21:28:35.188199 24399 net.cpp:141] Setting up drop1
I0810 21:28:35.188205 24399 net.cpp:148] Top shape: 200 64 (12800)
I0810 21:28:35.188210 24399 net.cpp:156] Memory required for data: 203320000
I0810 21:28:35.188215 24399 layer_factory.hpp:77] Creating layer InnerProduct2
I0810 21:28:35.188227 24399 net.cpp:91] Creating Layer InnerProduct2
I0810 21:28:35.188236 24399 net.cpp:425] InnerProduct2 <- Dropout1
I0810 21:28:35.188246 24399 net.cpp:399] InnerProduct2 -> InnerProduct2
I0810 21:28:35.188294 24399 net.cpp:141] Setting up InnerProduct2
I0810 21:28:35.188303 24399 net.cpp:148] Top shape: 200 64 (12800)
I0810 21:28:35.188308 24399 net.cpp:156] Memory required for data: 203371200
I0810 21:28:35.188316 24399 layer_factory.hpp:77] Creating layer ReLU2
I0810 21:28:35.188325 24399 net.cpp:91] Creating Layer ReLU2
I0810 21:28:35.188330 24399 net.cpp:425] ReLU2 <- InnerProduct2
I0810 21:28:35.188338 24399 net.cpp:386] ReLU2 -> InnerProduct2 (in-place)
I0810 21:28:35.188345 24399 net.cpp:141] Setting up ReLU2
I0810 21:28:35.188352 24399 net.cpp:148] Top shape: 200 64 (12800)
I0810 21:28:35.188356 24399 net.cpp:156] Memory required for data: 203422400
I0810 21:28:35.188361 24399 layer_factory.hpp:77] Creating layer drop2
I0810 21:28:35.188369 24399 net.cpp:91] Creating Layer drop2
I0810 21:28:35.188377 24399 net.cpp:425] drop2 <- InnerProduct2
I0810 21:28:35.188385 24399 net.cpp:399] drop2 -> Dropout2
I0810 21:28:35.188392 24399 net.cpp:141] Setting up drop2
I0810 21:28:35.188398 24399 net.cpp:148] Top shape: 200 64 (12800)
I0810 21:28:35.188403 24399 net.cpp:156] Memory required for data: 203473600
I0810 21:28:35.188407 24399 layer_factory.hpp:77] Creating layer m1
I0810 21:28:35.188416 24399 net.cpp:91] Creating Layer m1
I0810 21:28:35.188423 24399 net.cpp:425] m1 <- Dropout2
I0810 21:28:35.188431 24399 net.cpp:399] m1 -> m1
I0810 21:28:35.188446 24399 net.cpp:141] Setting up m1
I0810 21:28:35.188474 24399 net.cpp:148] Top shape: 200 1 (200)
I0810 21:28:35.188482 24399 net.cpp:156] Memory required for data: 203474400
I0810 21:28:35.188489 24399 layer_factory.hpp:77] Creating layer Concat2
I0810 21:28:35.188501 24399 net.cpp:91] Creating Layer Concat2
I0810 21:28:35.188508 24399 net.cpp:425] Concat2 <- i1_i1_0_split_1
I0810 21:28:35.188513 24399 net.cpp:425] Concat2 <- i12
I0810 21:28:35.188524 24399 net.cpp:399] Concat2 -> Concat2
I0810 21:28:35.188535 24399 net.cpp:141] Setting up Concat2
I0810 21:28:35.188542 24399 net.cpp:148] Top shape: 200 2 1 4096 (1638400)
I0810 21:28:35.188546 24399 net.cpp:156] Memory required for data: 210028000
I0810 21:28:35.188551 24399 layer_factory.hpp:77] Creating layer InnerProduct3
I0810 21:28:35.188562 24399 net.cpp:91] Creating Layer InnerProduct3
I0810 21:28:35.188568 24399 net.cpp:425] InnerProduct3 <- Concat2
I0810 21:28:35.188586 24399 net.cpp:399] InnerProduct3 -> InnerProduct3
I0810 21:28:35.193290 24399 net.cpp:141] Setting up InnerProduct3
I0810 21:28:35.193321 24399 net.cpp:148] Top shape: 200 64 (12800)
I0810 21:28:35.193327 24399 net.cpp:156] Memory required for data: 210079200
I0810 21:28:35.193336 24399 net.cpp:484] Sharing parameters 'fc1_w' owned by layer 'InnerProduct1', param index 0
I0810 21:28:35.193344 24399 net.cpp:484] Sharing parameters 'fc1_b' owned by layer 'InnerProduct1', param index 1
I0810 21:28:35.193351 24399 layer_factory.hpp:77] Creating layer ReLU3
I0810 21:28:35.193362 24399 net.cpp:91] Creating Layer ReLU3
I0810 21:28:35.193369 24399 net.cpp:425] ReLU3 <- InnerProduct3
I0810 21:28:35.193379 24399 net.cpp:386] ReLU3 -> InnerProduct3 (in-place)
I0810 21:28:35.193392 24399 net.cpp:141] Setting up ReLU3
I0810 21:28:35.193397 24399 net.cpp:148] Top shape: 200 64 (12800)
I0810 21:28:35.193402 24399 net.cpp:156] Memory required for data: 210130400
I0810 21:28:35.193405 24399 layer_factory.hpp:77] Creating layer drop1
I0810 21:28:35.193436 24399 net.cpp:91] Creating Layer drop1
I0810 21:28:35.193449 24399 net.cpp:425] drop1 <- InnerProduct3
I0810 21:28:35.193460 24399 net.cpp:399] drop1 -> Dropout3
I0810 21:28:35.193477 24399 net.cpp:141] Setting up drop1
I0810 21:28:35.193491 24399 net.cpp:148] Top shape: 200 64 (12800)
I0810 21:28:35.193495 24399 net.cpp:156] Memory required for data: 210181600
I0810 21:28:35.193500 24399 layer_factory.hpp:77] Creating layer InnerProduct4
I0810 21:28:35.193511 24399 net.cpp:91] Creating Layer InnerProduct4
I0810 21:28:35.193516 24399 net.cpp:425] InnerProduct4 <- Dropout3
I0810 21:28:35.193526 24399 net.cpp:399] InnerProduct4 -> InnerProduct4
I0810 21:28:35.193572 24399 net.cpp:141] Setting up InnerProduct4
I0810 21:28:35.193578 24399 net.cpp:148] Top shape: 200 64 (12800)
I0810 21:28:35.193583 24399 net.cpp:156] Memory required for data: 210232800
I0810 21:28:35.193590 24399 net.cpp:484] Sharing parameters 'fc2_w' owned by layer 'InnerProduct2', param index 0
I0810 21:28:35.193596 24399 net.cpp:484] Sharing parameters 'fc2_b' owned by layer 'InnerProduct2', param index 1
I0810 21:28:35.193601 24399 layer_factory.hpp:77] Creating layer ReLU4
I0810 21:28:35.193608 24399 net.cpp:91] Creating Layer ReLU4
I0810 21:28:35.193613 24399 net.cpp:425] ReLU4 <- InnerProduct4
I0810 21:28:35.193620 24399 net.cpp:386] ReLU4 -> InnerProduct4 (in-place)
I0810 21:28:35.193626 24399 net.cpp:141] Setting up ReLU4
I0810 21:28:35.193632 24399 net.cpp:148] Top shape: 200 64 (12800)
I0810 21:28:35.193639 24399 net.cpp:156] Memory required for data: 210284000
I0810 21:28:35.193644 24399 layer_factory.hpp:77] Creating layer drop2
I0810 21:28:35.193650 24399 net.cpp:91] Creating Layer drop2
I0810 21:28:35.193655 24399 net.cpp:425] drop2 <- InnerProduct4
I0810 21:28:35.193661 24399 net.cpp:399] drop2 -> Dropout4
I0810 21:28:35.193670 24399 net.cpp:141] Setting up drop2
I0810 21:28:35.193675 24399 net.cpp:148] Top shape: 200 64 (12800)
I0810 21:28:35.193678 24399 net.cpp:156] Memory required for data: 210335200
I0810 21:28:35.193683 24399 layer_factory.hpp:77] Creating layer m2
I0810 21:28:35.193692 24399 net.cpp:91] Creating Layer m2
I0810 21:28:35.193697 24399 net.cpp:425] m2 <- Dropout4
I0810 21:28:35.193706 24399 net.cpp:399] m2 -> m2
I0810 21:28:35.193719 24399 net.cpp:141] Setting up m2
I0810 21:28:35.193725 24399 net.cpp:148] Top shape: 200 1 (200)
I0810 21:28:35.193728 24399 net.cpp:156] Memory required for data: 210336000
I0810 21:28:35.193733 24399 net.cpp:484] Sharing parameters 'fc3_w' owned by layer 'm1', param index 0
I0810 21:28:35.193738 24399 net.cpp:484] Sharing parameters 'fc3_b' owned by layer 'm1', param index 1
I0810 21:28:35.193743 24399 layer_factory.hpp:77] Creating layer Concat3
I0810 21:28:35.193753 24399 net.cpp:91] Creating Layer Concat3
I0810 21:28:35.193758 24399 net.cpp:425] Concat3 <- i1_i1_0_split_2
I0810 21:28:35.193765 24399 net.cpp:425] Concat3 <- i13
I0810 21:28:35.193773 24399 net.cpp:399] Concat3 -> Concat3
I0810 21:28:35.193783 24399 net.cpp:141] Setting up Concat3
I0810 21:28:35.193789 24399 net.cpp:148] Top shape: 200 2 1 4096 (1638400)
I0810 21:28:35.193792 24399 net.cpp:156] Memory required for data: 216889600
I0810 21:28:35.193796 24399 layer_factory.hpp:77] Creating layer InnerProduct5
I0810 21:28:35.193805 24399 net.cpp:91] Creating Layer InnerProduct5
I0810 21:28:35.193809 24399 net.cpp:425] InnerProduct5 <- Concat3
I0810 21:28:35.193817 24399 net.cpp:399] InnerProduct5 -> InnerProduct5
I0810 21:28:35.198549 24399 net.cpp:141] Setting up InnerProduct5
I0810 21:28:35.198592 24399 net.cpp:148] Top shape: 200 64 (12800)
I0810 21:28:35.198599 24399 net.cpp:156] Memory required for data: 216940800
I0810 21:28:35.198611 24399 net.cpp:484] Sharing parameters 'fc1_w' owned by layer 'InnerProduct1', param index 0
I0810 21:28:35.198621 24399 net.cpp:484] Sharing parameters 'fc1_b' owned by layer 'InnerProduct1', param index 1
I0810 21:28:35.198628 24399 layer_factory.hpp:77] Creating layer ReLU5
I0810 21:28:35.198647 24399 net.cpp:91] Creating Layer ReLU5
I0810 21:28:35.198659 24399 net.cpp:425] ReLU5 <- InnerProduct5
I0810 21:28:35.198710 24399 net.cpp:386] ReLU5 -> InnerProduct5 (in-place)
I0810 21:28:35.198732 24399 net.cpp:141] Setting up ReLU5
I0810 21:28:35.198743 24399 net.cpp:148] Top shape: 200 64 (12800)
I0810 21:28:35.198750 24399 net.cpp:156] Memory required for data: 216992000
I0810 21:28:35.198757 24399 layer_factory.hpp:77] Creating layer drop1
I0810 21:28:35.198771 24399 net.cpp:91] Creating Layer drop1
I0810 21:28:35.198781 24399 net.cpp:425] drop1 <- InnerProduct5
I0810 21:28:35.198792 24399 net.cpp:399] drop1 -> Dropout5
I0810 21:28:35.198812 24399 net.cpp:141] Setting up drop1
I0810 21:28:35.198822 24399 net.cpp:148] Top shape: 200 64 (12800)
I0810 21:28:35.198829 24399 net.cpp:156] Memory required for data: 217043200
I0810 21:28:35.198837 24399 layer_factory.hpp:77] Creating layer InnerProduct6
I0810 21:28:35.198853 24399 net.cpp:91] Creating Layer InnerProduct6
I0810 21:28:35.198861 24399 net.cpp:425] InnerProduct6 <- Dropout5
I0810 21:28:35.198875 24399 net.cpp:399] InnerProduct6 -> InnerProduct6
I0810 21:28:35.198933 24399 net.cpp:141] Setting up InnerProduct6
I0810 21:28:35.198943 24399 net.cpp:148] Top shape: 200 64 (12800)
I0810 21:28:35.198951 24399 net.cpp:156] Memory required for data: 217094400
I0810 21:28:35.198958 24399 net.cpp:484] Sharing parameters 'fc2_w' owned by layer 'InnerProduct2', param index 0
I0810 21:28:35.198967 24399 net.cpp:484] Sharing parameters 'fc2_b' owned by layer 'InnerProduct2', param index 1
I0810 21:28:35.198974 24399 layer_factory.hpp:77] Creating layer ReLU6
I0810 21:28:35.198984 24399 net.cpp:91] Creating Layer ReLU6
I0810 21:28:35.198992 24399 net.cpp:425] ReLU6 <- InnerProduct6
I0810 21:28:35.199002 24399 net.cpp:386] ReLU6 -> InnerProduct6 (in-place)
I0810 21:28:35.199015 24399 net.cpp:141] Setting up ReLU6
I0810 21:28:35.199028 24399 net.cpp:148] Top shape: 200 64 (12800)
I0810 21:28:35.199035 24399 net.cpp:156] Memory required for data: 217145600
I0810 21:28:35.199043 24399 layer_factory.hpp:77] Creating layer drop2
I0810 21:28:35.199053 24399 net.cpp:91] Creating Layer drop2
I0810 21:28:35.199060 24399 net.cpp:425] drop2 <- InnerProduct6
I0810 21:28:35.199071 24399 net.cpp:399] drop2 -> Dropout6
I0810 21:28:35.199085 24399 net.cpp:141] Setting up drop2
I0810 21:28:35.199096 24399 net.cpp:148] Top shape: 200 64 (12800)
I0810 21:28:35.199103 24399 net.cpp:156] Memory required for data: 217196800
I0810 21:28:35.199110 24399 layer_factory.hpp:77] Creating layer m3
I0810 21:28:35.199125 24399 net.cpp:91] Creating Layer m3
I0810 21:28:35.199132 24399 net.cpp:425] m3 <- Dropout6
I0810 21:28:35.199146 24399 net.cpp:399] m3 -> m3
I0810 21:28:35.199179 24399 net.cpp:141] Setting up m3
I0810 21:28:35.199190 24399 net.cpp:148] Top shape: 200 1 (200)
I0810 21:28:35.199198 24399 net.cpp:156] Memory required for data: 217197600
I0810 21:28:35.199213 24399 net.cpp:484] Sharing parameters 'fc3_w' owned by layer 'm1', param index 0
I0810 21:28:35.199223 24399 net.cpp:484] Sharing parameters 'fc3_b' owned by layer 'm1', param index 1
I0810 21:28:35.199230 24399 layer_factory.hpp:77] Creating layer Concat4
I0810 21:28:35.199244 24399 net.cpp:91] Creating Layer Concat4
I0810 21:28:35.199254 24399 net.cpp:425] Concat4 <- i1_i1_0_split_3
I0810 21:28:35.199264 24399 net.cpp:425] Concat4 <- i14
I0810 21:28:35.199276 24399 net.cpp:399] Concat4 -> Concat4
I0810 21:28:35.199295 24399 net.cpp:141] Setting up Concat4
I0810 21:28:35.199306 24399 net.cpp:148] Top shape: 200 2 1 4096 (1638400)
I0810 21:28:35.199311 24399 net.cpp:156] Memory required for data: 223751200
I0810 21:28:35.199318 24399 layer_factory.hpp:77] Creating layer InnerProduct7
I0810 21:28:35.199339 24399 net.cpp:91] Creating Layer InnerProduct7
I0810 21:28:35.199347 24399 net.cpp:425] InnerProduct7 <- Concat4
I0810 21:28:35.199360 24399 net.cpp:399] InnerProduct7 -> InnerProduct7
I0810 21:28:35.204017 24399 net.cpp:141] Setting up InnerProduct7
I0810 21:28:35.204057 24399 net.cpp:148] Top shape: 200 64 (12800)
I0810 21:28:35.204064 24399 net.cpp:156] Memory required for data: 223802400
I0810 21:28:35.204123 24399 net.cpp:484] Sharing parameters 'fc1_w' owned by layer 'InnerProduct1', param index 0
I0810 21:28:35.204136 24399 net.cpp:484] Sharing parameters 'fc1_b' owned by layer 'InnerProduct1', param index 1
I0810 21:28:35.204145 24399 layer_factory.hpp:77] Creating layer ReLU7
I0810 21:28:35.204169 24399 net.cpp:91] Creating Layer ReLU7
I0810 21:28:35.204180 24399 net.cpp:425] ReLU7 <- InnerProduct7
I0810 21:28:35.204195 24399 net.cpp:386] ReLU7 -> InnerProduct7 (in-place)
I0810 21:28:35.204213 24399 net.cpp:141] Setting up ReLU7
I0810 21:28:35.204223 24399 net.cpp:148] Top shape: 200 64 (12800)
I0810 21:28:35.204229 24399 net.cpp:156] Memory required for data: 223853600
I0810 21:28:35.204236 24399 layer_factory.hpp:77] Creating layer drop1
I0810 21:28:35.204249 24399 net.cpp:91] Creating Layer drop1
I0810 21:28:35.204258 24399 net.cpp:425] drop1 <- InnerProduct7
I0810 21:28:35.204270 24399 net.cpp:399] drop1 -> Dropout7
I0810 21:28:35.204289 24399 net.cpp:141] Setting up drop1
I0810 21:28:35.204299 24399 net.cpp:148] Top shape: 200 64 (12800)
I0810 21:28:35.204306 24399 net.cpp:156] Memory required for data: 223904800
I0810 21:28:35.204313 24399 layer_factory.hpp:77] Creating layer InnerProduct8
I0810 21:28:35.204330 24399 net.cpp:91] Creating Layer InnerProduct8
I0810 21:28:35.204339 24399 net.cpp:425] InnerProduct8 <- Dropout7
I0810 21:28:35.204351 24399 net.cpp:399] InnerProduct8 -> InnerProduct8
I0810 21:28:35.204409 24399 net.cpp:141] Setting up InnerProduct8
I0810 21:28:35.204419 24399 net.cpp:148] Top shape: 200 64 (12800)
I0810 21:28:35.204427 24399 net.cpp:156] Memory required for data: 223956000
I0810 21:28:35.204434 24399 net.cpp:484] Sharing parameters 'fc2_w' owned by layer 'InnerProduct2', param index 0
I0810 21:28:35.204443 24399 net.cpp:484] Sharing parameters 'fc2_b' owned by layer 'InnerProduct2', param index 1
I0810 21:28:35.204468 24399 layer_factory.hpp:77] Creating layer ReLU8
I0810 21:28:35.204480 24399 net.cpp:91] Creating Layer ReLU8
I0810 21:28:35.204489 24399 net.cpp:425] ReLU8 <- InnerProduct8
I0810 21:28:35.204499 24399 net.cpp:386] ReLU8 -> InnerProduct8 (in-place)
I0810 21:28:35.204512 24399 net.cpp:141] Setting up ReLU8
I0810 21:28:35.204532 24399 net.cpp:148] Top shape: 200 64 (12800)
I0810 21:28:35.204540 24399 net.cpp:156] Memory required for data: 224007200
I0810 21:28:35.204546 24399 layer_factory.hpp:77] Creating layer drop2
I0810 21:28:35.204556 24399 net.cpp:91] Creating Layer drop2
I0810 21:28:35.204565 24399 net.cpp:425] drop2 <- InnerProduct8
I0810 21:28:35.204574 24399 net.cpp:399] drop2 -> Dropout8
I0810 21:28:35.204589 24399 net.cpp:141] Setting up drop2
I0810 21:28:35.204602 24399 net.cpp:148] Top shape: 200 64 (12800)
I0810 21:28:35.204608 24399 net.cpp:156] Memory required for data: 224058400
I0810 21:28:35.204615 24399 layer_factory.hpp:77] Creating layer m4
I0810 21:28:35.204629 24399 net.cpp:91] Creating Layer m4
I0810 21:28:35.204638 24399 net.cpp:425] m4 <- Dropout8
I0810 21:28:35.204650 24399 net.cpp:399] m4 -> m4
I0810 21:28:35.204674 24399 net.cpp:141] Setting up m4
I0810 21:28:35.204684 24399 net.cpp:148] Top shape: 200 1 (200)
I0810 21:28:35.204690 24399 net.cpp:156] Memory required for data: 224059200
I0810 21:28:35.204699 24399 net.cpp:484] Sharing parameters 'fc3_w' owned by layer 'm1', param index 0
I0810 21:28:35.204707 24399 net.cpp:484] Sharing parameters 'fc3_b' owned by layer 'm1', param index 1
I0810 21:28:35.204715 24399 layer_factory.hpp:77] Creating layer Concat5
I0810 21:28:35.204727 24399 net.cpp:91] Creating Layer Concat5
I0810 21:28:35.204736 24399 net.cpp:425] Concat5 <- i1_i1_0_split_4
I0810 21:28:35.204746 24399 net.cpp:425] Concat5 <- i15
I0810 21:28:35.204759 24399 net.cpp:399] Concat5 -> Concat5
I0810 21:28:35.204777 24399 net.cpp:141] Setting up Concat5
I0810 21:28:35.204787 24399 net.cpp:148] Top shape: 200 2 1 4096 (1638400)
I0810 21:28:35.204794 24399 net.cpp:156] Memory required for data: 230612800
I0810 21:28:35.204802 24399 layer_factory.hpp:77] Creating layer InnerProduct9
I0810 21:28:35.204813 24399 net.cpp:91] Creating Layer InnerProduct9
I0810 21:28:35.204834 24399 net.cpp:425] InnerProduct9 <- Concat5
I0810 21:28:35.204849 24399 net.cpp:399] InnerProduct9 -> InnerProduct9
I0810 21:28:35.209342 24399 net.cpp:141] Setting up InnerProduct9
I0810 21:28:35.209378 24399 net.cpp:148] Top shape: 200 64 (12800)
I0810 21:28:35.209383 24399 net.cpp:156] Memory required for data: 230664000
I0810 21:28:35.209395 24399 net.cpp:484] Sharing parameters 'fc1_w' owned by layer 'InnerProduct1', param index 0
I0810 21:28:35.209404 24399 net.cpp:484] Sharing parameters 'fc1_b' owned by layer 'InnerProduct1', param index 1
I0810 21:28:35.209411 24399 layer_factory.hpp:77] Creating layer ReLU9
I0810 21:28:35.209426 24399 net.cpp:91] Creating Layer ReLU9
I0810 21:28:35.209436 24399 net.cpp:425] ReLU9 <- InnerProduct9
I0810 21:28:35.209450 24399 net.cpp:386] ReLU9 -> InnerProduct9 (in-place)
I0810 21:28:35.209473 24399 net.cpp:141] Setting up ReLU9
I0810 21:28:35.209484 24399 net.cpp:148] Top shape: 200 64 (12800)
I0810 21:28:35.209491 24399 net.cpp:156] Memory required for data: 230715200
I0810 21:28:35.209497 24399 layer_factory.hpp:77] Creating layer drop1
I0810 21:28:35.209511 24399 net.cpp:91] Creating Layer drop1
I0810 21:28:35.209519 24399 net.cpp:425] drop1 <- InnerProduct9
I0810 21:28:35.209530 24399 net.cpp:399] drop1 -> Dropout9
I0810 21:28:35.209548 24399 net.cpp:141] Setting up drop1
I0810 21:28:35.209558 24399 net.cpp:148] Top shape: 200 64 (12800)
I0810 21:28:35.209565 24399 net.cpp:156] Memory required for data: 230766400
I0810 21:28:35.209571 24399 layer_factory.hpp:77] Creating layer InnerProduct10
I0810 21:28:35.209588 24399 net.cpp:91] Creating Layer InnerProduct10
I0810 21:28:35.209594 24399 net.cpp:425] InnerProduct10 <- Dropout9
I0810 21:28:35.209617 24399 net.cpp:399] InnerProduct10 -> InnerProduct10
I0810 21:28:35.209671 24399 net.cpp:141] Setting up InnerProduct10
I0810 21:28:35.209681 24399 net.cpp:148] Top shape: 200 64 (12800)
I0810 21:28:35.209687 24399 net.cpp:156] Memory required for data: 230817600
I0810 21:28:35.209695 24399 net.cpp:484] Sharing parameters 'fc2_w' owned by layer 'InnerProduct2', param index 0
I0810 21:28:35.209704 24399 net.cpp:484] Sharing parameters 'fc2_b' owned by layer 'InnerProduct2', param index 1
I0810 21:28:35.209712 24399 layer_factory.hpp:77] Creating layer ReLU10
I0810 21:28:35.209722 24399 net.cpp:91] Creating Layer ReLU10
I0810 21:28:35.209730 24399 net.cpp:425] ReLU10 <- InnerProduct10
I0810 21:28:35.209740 24399 net.cpp:386] ReLU10 -> InnerProduct10 (in-place)
I0810 21:28:35.209751 24399 net.cpp:141] Setting up ReLU10
I0810 21:28:35.209761 24399 net.cpp:148] Top shape: 200 64 (12800)
I0810 21:28:35.209767 24399 net.cpp:156] Memory required for data: 230868800
I0810 21:28:35.209774 24399 layer_factory.hpp:77] Creating layer drop2
I0810 21:28:35.209785 24399 net.cpp:91] Creating Layer drop2
I0810 21:28:35.209794 24399 net.cpp:425] drop2 <- InnerProduct10
I0810 21:28:35.209803 24399 net.cpp:399] drop2 -> Dropout10
I0810 21:28:35.209818 24399 net.cpp:141] Setting up drop2
I0810 21:28:35.209830 24399 net.cpp:148] Top shape: 200 64 (12800)
I0810 21:28:35.209836 24399 net.cpp:156] Memory required for data: 230920000
I0810 21:28:35.209842 24399 layer_factory.hpp:77] Creating layer m5
I0810 21:28:35.209856 24399 net.cpp:91] Creating Layer m5
I0810 21:28:35.209863 24399 net.cpp:425] m5 <- Dropout10
I0810 21:28:35.209877 24399 net.cpp:399] m5 -> m5
I0810 21:28:35.209899 24399 net.cpp:141] Setting up m5
I0810 21:28:35.209908 24399 net.cpp:148] Top shape: 200 1 (200)
I0810 21:28:35.209915 24399 net.cpp:156] Memory required for data: 230920800
I0810 21:28:35.209923 24399 net.cpp:484] Sharing parameters 'fc3_w' owned by layer 'm1', param index 0
I0810 21:28:35.209930 24399 net.cpp:484] Sharing parameters 'fc3_b' owned by layer 'm1', param index 1
I0810 21:28:35.209939 24399 layer_factory.hpp:77] Creating layer Concat6
I0810 21:28:35.209951 24399 net.cpp:91] Creating Layer Concat6
I0810 21:28:35.209959 24399 net.cpp:425] Concat6 <- i1_i1_0_split_5
I0810 21:28:35.209969 24399 net.cpp:425] Concat6 <- i16
I0810 21:28:35.210002 24399 net.cpp:399] Concat6 -> Concat6
I0810 21:28:35.210022 24399 net.cpp:141] Setting up Concat6
I0810 21:28:35.210032 24399 net.cpp:148] Top shape: 200 2 1 4096 (1638400)
I0810 21:28:35.210039 24399 net.cpp:156] Memory required for data: 237474400
I0810 21:28:35.210047 24399 layer_factory.hpp:77] Creating layer InnerProduct11
I0810 21:28:35.210057 24399 net.cpp:91] Creating Layer InnerProduct11
I0810 21:28:35.210067 24399 net.cpp:425] InnerProduct11 <- Concat6
I0810 21:28:35.210078 24399 net.cpp:399] InnerProduct11 -> InnerProduct11
I0810 21:28:35.214473 24399 net.cpp:141] Setting up InnerProduct11
I0810 21:28:35.214505 24399 net.cpp:148] Top shape: 200 64 (12800)
I0810 21:28:35.214511 24399 net.cpp:156] Memory required for data: 237525600
I0810 21:28:35.214539 24399 net.cpp:484] Sharing parameters 'fc1_w' owned by layer 'InnerProduct1', param index 0
I0810 21:28:35.214546 24399 net.cpp:484] Sharing parameters 'fc1_b' owned by layer 'InnerProduct1', param index 1
I0810 21:28:35.214553 24399 layer_factory.hpp:77] Creating layer ReLU11
I0810 21:28:35.214570 24399 net.cpp:91] Creating Layer ReLU11
I0810 21:28:35.214578 24399 net.cpp:425] ReLU11 <- InnerProduct11
I0810 21:28:35.214591 24399 net.cpp:386] ReLU11 -> InnerProduct11 (in-place)
I0810 21:28:35.214619 24399 net.cpp:141] Setting up ReLU11
I0810 21:28:35.214629 24399 net.cpp:148] Top shape: 200 64 (12800)
I0810 21:28:35.214635 24399 net.cpp:156] Memory required for data: 237576800
I0810 21:28:35.214643 24399 layer_factory.hpp:77] Creating layer drop1
I0810 21:28:35.214654 24399 net.cpp:91] Creating Layer drop1
I0810 21:28:35.214663 24399 net.cpp:425] drop1 <- InnerProduct11
I0810 21:28:35.214674 24399 net.cpp:399] drop1 -> Dropout11
I0810 21:28:35.214691 24399 net.cpp:141] Setting up drop1
I0810 21:28:35.214702 24399 net.cpp:148] Top shape: 200 64 (12800)
I0810 21:28:35.214709 24399 net.cpp:156] Memory required for data: 237628000
I0810 21:28:35.214716 24399 layer_factory.hpp:77] Creating layer InnerProduct12
I0810 21:28:35.214732 24399 net.cpp:91] Creating Layer InnerProduct12
I0810 21:28:35.214741 24399 net.cpp:425] InnerProduct12 <- Dropout11
I0810 21:28:35.214753 24399 net.cpp:399] InnerProduct12 -> InnerProduct12
I0810 21:28:35.214807 24399 net.cpp:141] Setting up InnerProduct12
I0810 21:28:35.214817 24399 net.cpp:148] Top shape: 200 64 (12800)
I0810 21:28:35.214823 24399 net.cpp:156] Memory required for data: 237679200
I0810 21:28:35.214840 24399 net.cpp:484] Sharing parameters 'fc2_w' owned by layer 'InnerProduct2', param index 0
I0810 21:28:35.214851 24399 net.cpp:484] Sharing parameters 'fc2_b' owned by layer 'InnerProduct2', param index 1
I0810 21:28:35.214859 24399 layer_factory.hpp:77] Creating layer ReLU12
I0810 21:28:35.214869 24399 net.cpp:91] Creating Layer ReLU12
I0810 21:28:35.214876 24399 net.cpp:425] ReLU12 <- InnerProduct12
I0810 21:28:35.214885 24399 net.cpp:386] ReLU12 -> InnerProduct12 (in-place)
I0810 21:28:35.214897 24399 net.cpp:141] Setting up ReLU12
I0810 21:28:35.214906 24399 net.cpp:148] Top shape: 200 64 (12800)
I0810 21:28:35.214912 24399 net.cpp:156] Memory required for data: 237730400
I0810 21:28:35.214920 24399 layer_factory.hpp:77] Creating layer drop2
I0810 21:28:35.214929 24399 net.cpp:91] Creating Layer drop2
I0810 21:28:35.214937 24399 net.cpp:425] drop2 <- InnerProduct12
I0810 21:28:35.214947 24399 net.cpp:399] drop2 -> Dropout12
I0810 21:28:35.214961 24399 net.cpp:141] Setting up drop2
I0810 21:28:35.214970 24399 net.cpp:148] Top shape: 200 64 (12800)
I0810 21:28:35.214977 24399 net.cpp:156] Memory required for data: 237781600
I0810 21:28:35.214983 24399 layer_factory.hpp:77] Creating layer m6
I0810 21:28:35.214995 24399 net.cpp:91] Creating Layer m6
I0810 21:28:35.215003 24399 net.cpp:425] m6 <- Dropout12
I0810 21:28:35.215015 24399 net.cpp:399] m6 -> m6
I0810 21:28:35.215039 24399 net.cpp:141] Setting up m6
I0810 21:28:35.215049 24399 net.cpp:148] Top shape: 200 1 (200)
I0810 21:28:35.215056 24399 net.cpp:156] Memory required for data: 237782400
I0810 21:28:35.215064 24399 net.cpp:484] Sharing parameters 'fc3_w' owned by layer 'm1', param index 0
I0810 21:28:35.215095 24399 net.cpp:484] Sharing parameters 'fc3_b' owned by layer 'm1', param index 1
I0810 21:28:35.215102 24399 layer_factory.hpp:77] Creating layer Concat7
I0810 21:28:35.215116 24399 net.cpp:91] Creating Layer Concat7
I0810 21:28:35.215126 24399 net.cpp:425] Concat7 <- i1_i1_0_split_6
I0810 21:28:35.215134 24399 net.cpp:425] Concat7 <- i17
I0810 21:28:35.215148 24399 net.cpp:399] Concat7 -> Concat7
I0810 21:28:35.215165 24399 net.cpp:141] Setting up Concat7
I0810 21:28:35.215175 24399 net.cpp:148] Top shape: 200 2 1 4096 (1638400)
I0810 21:28:35.215183 24399 net.cpp:156] Memory required for data: 244336000
I0810 21:28:35.215189 24399 layer_factory.hpp:77] Creating layer InnerProduct13
I0810 21:28:35.215203 24399 net.cpp:91] Creating Layer InnerProduct13
I0810 21:28:35.215210 24399 net.cpp:425] InnerProduct13 <- Concat7
I0810 21:28:35.215222 24399 net.cpp:399] InnerProduct13 -> InnerProduct13
I0810 21:28:35.219637 24399 net.cpp:141] Setting up InnerProduct13
I0810 21:28:35.219671 24399 net.cpp:148] Top shape: 200 64 (12800)
I0810 21:28:35.219677 24399 net.cpp:156] Memory required for data: 244387200
I0810 21:28:35.219689 24399 net.cpp:484] Sharing parameters 'fc1_w' owned by layer 'InnerProduct1', param index 0
I0810 21:28:35.219699 24399 net.cpp:484] Sharing parameters 'fc1_b' owned by layer 'InnerProduct1', param index 1
I0810 21:28:35.219707 24399 layer_factory.hpp:77] Creating layer ReLU13
I0810 21:28:35.219728 24399 net.cpp:91] Creating Layer ReLU13
I0810 21:28:35.219738 24399 net.cpp:425] ReLU13 <- InnerProduct13
I0810 21:28:35.219751 24399 net.cpp:386] ReLU13 -> InnerProduct13 (in-place)
I0810 21:28:35.219774 24399 net.cpp:141] Setting up ReLU13
I0810 21:28:35.219784 24399 net.cpp:148] Top shape: 200 64 (12800)
I0810 21:28:35.219790 24399 net.cpp:156] Memory required for data: 244438400
I0810 21:28:35.219797 24399 layer_factory.hpp:77] Creating layer drop1
I0810 21:28:35.219811 24399 net.cpp:91] Creating Layer drop1
I0810 21:28:35.219820 24399 net.cpp:425] drop1 <- InnerProduct13
I0810 21:28:35.219830 24399 net.cpp:399] drop1 -> Dropout13
I0810 21:28:35.219849 24399 net.cpp:141] Setting up drop1
I0810 21:28:35.219858 24399 net.cpp:148] Top shape: 200 64 (12800)
I0810 21:28:35.219866 24399 net.cpp:156] Memory required for data: 244489600
I0810 21:28:35.219872 24399 layer_factory.hpp:77] Creating layer InnerProduct14
I0810 21:28:35.219888 24399 net.cpp:91] Creating Layer InnerProduct14
I0810 21:28:35.219897 24399 net.cpp:425] InnerProduct14 <- Dropout13
I0810 21:28:35.219909 24399 net.cpp:399] InnerProduct14 -> InnerProduct14
I0810 21:28:35.219962 24399 net.cpp:141] Setting up InnerProduct14
I0810 21:28:35.219974 24399 net.cpp:148] Top shape: 200 64 (12800)
I0810 21:28:35.219980 24399 net.cpp:156] Memory required for data: 244540800
I0810 21:28:35.219987 24399 net.cpp:484] Sharing parameters 'fc2_w' owned by layer 'InnerProduct2', param index 0
I0810 21:28:35.219995 24399 net.cpp:484] Sharing parameters 'fc2_b' owned by layer 'InnerProduct2', param index 1
I0810 21:28:35.220002 24399 layer_factory.hpp:77] Creating layer ReLU14
I0810 21:28:35.220016 24399 net.cpp:91] Creating Layer ReLU14
I0810 21:28:35.220024 24399 net.cpp:425] ReLU14 <- InnerProduct14
I0810 21:28:35.220036 24399 net.cpp:386] ReLU14 -> InnerProduct14 (in-place)
I0810 21:28:35.220047 24399 net.cpp:141] Setting up ReLU14
I0810 21:28:35.220055 24399 net.cpp:148] Top shape: 200 64 (12800)
I0810 21:28:35.220062 24399 net.cpp:156] Memory required for data: 244592000
I0810 21:28:35.220068 24399 layer_factory.hpp:77] Creating layer drop2
I0810 21:28:35.220079 24399 net.cpp:91] Creating Layer drop2
I0810 21:28:35.220088 24399 net.cpp:425] drop2 <- InnerProduct14
I0810 21:28:35.220098 24399 net.cpp:399] drop2 -> Dropout14
I0810 21:28:35.220110 24399 net.cpp:141] Setting up drop2
I0810 21:28:35.220121 24399 net.cpp:148] Top shape: 200 64 (12800)
I0810 21:28:35.220129 24399 net.cpp:156] Memory required for data: 244643200
I0810 21:28:35.220134 24399 layer_factory.hpp:77] Creating layer m7
I0810 21:28:35.220167 24399 net.cpp:91] Creating Layer m7
I0810 21:28:35.220177 24399 net.cpp:425] m7 <- Dropout14
I0810 21:28:35.220191 24399 net.cpp:399] m7 -> m7
I0810 21:28:35.220216 24399 net.cpp:141] Setting up m7
I0810 21:28:35.220224 24399 net.cpp:148] Top shape: 200 1 (200)
I0810 21:28:35.220230 24399 net.cpp:156] Memory required for data: 244644000
I0810 21:28:35.220237 24399 net.cpp:484] Sharing parameters 'fc3_w' owned by layer 'm1', param index 0
I0810 21:28:35.220245 24399 net.cpp:484] Sharing parameters 'fc3_b' owned by layer 'm1', param index 1
I0810 21:28:35.220252 24399 layer_factory.hpp:77] Creating layer Concat8
I0810 21:28:35.220264 24399 net.cpp:91] Creating Layer Concat8
I0810 21:28:35.220274 24399 net.cpp:425] Concat8 <- i1_i1_0_split_7
I0810 21:28:35.220283 24399 net.cpp:425] Concat8 <- i18
I0810 21:28:35.220295 24399 net.cpp:399] Concat8 -> Concat8
I0810 21:28:35.220312 24399 net.cpp:141] Setting up Concat8
I0810 21:28:35.220324 24399 net.cpp:148] Top shape: 200 2 1 4096 (1638400)
I0810 21:28:35.220329 24399 net.cpp:156] Memory required for data: 251197600
I0810 21:28:35.220336 24399 layer_factory.hpp:77] Creating layer InnerProduct15
I0810 21:28:35.220361 24399 net.cpp:91] Creating Layer InnerProduct15
I0810 21:28:35.220368 24399 net.cpp:425] InnerProduct15 <- Concat8
I0810 21:28:35.220381 24399 net.cpp:399] InnerProduct15 -> InnerProduct15
I0810 21:28:35.224854 24399 net.cpp:141] Setting up InnerProduct15
I0810 21:28:35.224889 24399 net.cpp:148] Top shape: 200 64 (12800)
I0810 21:28:35.224895 24399 net.cpp:156] Memory required for data: 251248800
I0810 21:28:35.224905 24399 net.cpp:484] Sharing parameters 'fc1_w' owned by layer 'InnerProduct1', param index 0
I0810 21:28:35.224915 24399 net.cpp:484] Sharing parameters 'fc1_b' owned by layer 'InnerProduct1', param index 1
I0810 21:28:35.224922 24399 layer_factory.hpp:77] Creating layer ReLU15
I0810 21:28:35.224941 24399 net.cpp:91] Creating Layer ReLU15
I0810 21:28:35.224951 24399 net.cpp:425] ReLU15 <- InnerProduct15
I0810 21:28:35.224964 24399 net.cpp:386] ReLU15 -> InnerProduct15 (in-place)
I0810 21:28:35.225006 24399 net.cpp:141] Setting up ReLU15
I0810 21:28:35.225018 24399 net.cpp:148] Top shape: 200 64 (12800)
I0810 21:28:35.225024 24399 net.cpp:156] Memory required for data: 251300000
I0810 21:28:35.225030 24399 layer_factory.hpp:77] Creating layer drop1
I0810 21:28:35.225044 24399 net.cpp:91] Creating Layer drop1
I0810 21:28:35.225052 24399 net.cpp:425] drop1 <- InnerProduct15
I0810 21:28:35.225064 24399 net.cpp:399] drop1 -> Dropout15
I0810 21:28:35.225080 24399 net.cpp:141] Setting up drop1
I0810 21:28:35.225090 24399 net.cpp:148] Top shape: 200 64 (12800)
I0810 21:28:35.225096 24399 net.cpp:156] Memory required for data: 251351200
I0810 21:28:35.225103 24399 layer_factory.hpp:77] Creating layer InnerProduct16
I0810 21:28:35.225119 24399 net.cpp:91] Creating Layer InnerProduct16
I0810 21:28:35.225128 24399 net.cpp:425] InnerProduct16 <- Dropout15
I0810 21:28:35.225141 24399 net.cpp:399] InnerProduct16 -> InnerProduct16
I0810 21:28:35.225191 24399 net.cpp:141] Setting up InnerProduct16
I0810 21:28:35.225200 24399 net.cpp:148] Top shape: 200 64 (12800)
I0810 21:28:35.225206 24399 net.cpp:156] Memory required for data: 251402400
I0810 21:28:35.225214 24399 net.cpp:484] Sharing parameters 'fc2_w' owned by layer 'InnerProduct2', param index 0
I0810 21:28:35.225222 24399 net.cpp:484] Sharing parameters 'fc2_b' owned by layer 'InnerProduct2', param index 1
I0810 21:28:35.225229 24399 layer_factory.hpp:77] Creating layer ReLU16
I0810 21:28:35.225239 24399 net.cpp:91] Creating Layer ReLU16
I0810 21:28:35.225246 24399 net.cpp:425] ReLU16 <- InnerProduct16
I0810 21:28:35.225255 24399 net.cpp:386] ReLU16 -> InnerProduct16 (in-place)
I0810 21:28:35.225266 24399 net.cpp:141] Setting up ReLU16
I0810 21:28:35.225275 24399 net.cpp:148] Top shape: 200 64 (12800)
I0810 21:28:35.225281 24399 net.cpp:156] Memory required for data: 251453600
I0810 21:28:35.225288 24399 layer_factory.hpp:77] Creating layer drop2
I0810 21:28:35.225298 24399 net.cpp:91] Creating Layer drop2
I0810 21:28:35.225327 24399 net.cpp:425] drop2 <- InnerProduct16
I0810 21:28:35.225338 24399 net.cpp:399] drop2 -> Dropout16
I0810 21:28:35.225353 24399 net.cpp:141] Setting up drop2
I0810 21:28:35.225363 24399 net.cpp:148] Top shape: 200 64 (12800)
I0810 21:28:35.225370 24399 net.cpp:156] Memory required for data: 251504800
I0810 21:28:35.225378 24399 layer_factory.hpp:77] Creating layer m8
I0810 21:28:35.225390 24399 net.cpp:91] Creating Layer m8
I0810 21:28:35.225399 24399 net.cpp:425] m8 <- Dropout16
I0810 21:28:35.225411 24399 net.cpp:399] m8 -> m8
I0810 21:28:35.225435 24399 net.cpp:141] Setting up m8
I0810 21:28:35.225445 24399 net.cpp:148] Top shape: 200 1 (200)
I0810 21:28:35.225451 24399 net.cpp:156] Memory required for data: 251505600
I0810 21:28:35.225460 24399 net.cpp:484] Sharing parameters 'fc3_w' owned by layer 'm1', param index 0
I0810 21:28:35.225467 24399 net.cpp:484] Sharing parameters 'fc3_b' owned by layer 'm1', param index 1
I0810 21:28:35.225474 24399 layer_factory.hpp:77] Creating layer Concat9
I0810 21:28:35.225486 24399 net.cpp:91] Creating Layer Concat9
I0810 21:28:35.225495 24399 net.cpp:425] Concat9 <- i1_i1_0_split_8
I0810 21:28:35.225505 24399 net.cpp:425] Concat9 <- i19
I0810 21:28:35.225517 24399 net.cpp:399] Concat9 -> Concat9
I0810 21:28:35.225534 24399 net.cpp:141] Setting up Concat9
I0810 21:28:35.225544 24399 net.cpp:148] Top shape: 200 2 1 4096 (1638400)
I0810 21:28:35.225551 24399 net.cpp:156] Memory required for data: 258059200
I0810 21:28:35.225558 24399 layer_factory.hpp:77] Creating layer InnerProduct17
I0810 21:28:35.225570 24399 net.cpp:91] Creating Layer InnerProduct17
I0810 21:28:35.225579 24399 net.cpp:425] InnerProduct17 <- Concat9
I0810 21:28:35.225589 24399 net.cpp:399] InnerProduct17 -> InnerProduct17
I0810 21:28:35.230047 24399 net.cpp:141] Setting up InnerProduct17
I0810 21:28:35.230082 24399 net.cpp:148] Top shape: 200 64 (12800)
I0810 21:28:35.230089 24399 net.cpp:156] Memory required for data: 258110400
I0810 21:28:35.230099 24399 net.cpp:484] Sharing parameters 'fc1_w' owned by layer 'InnerProduct1', param index 0
I0810 21:28:35.230109 24399 net.cpp:484] Sharing parameters 'fc1_b' owned by layer 'InnerProduct1', param index 1
I0810 21:28:35.230116 24399 layer_factory.hpp:77] Creating layer ReLU17
I0810 21:28:35.230132 24399 net.cpp:91] Creating Layer ReLU17
I0810 21:28:35.230141 24399 net.cpp:425] ReLU17 <- InnerProduct17
I0810 21:28:35.230156 24399 net.cpp:386] ReLU17 -> InnerProduct17 (in-place)
I0810 21:28:35.230185 24399 net.cpp:141] Setting up ReLU17
I0810 21:28:35.230195 24399 net.cpp:148] Top shape: 200 64 (12800)
I0810 21:28:35.230202 24399 net.cpp:156] Memory required for data: 258161600
I0810 21:28:35.230209 24399 layer_factory.hpp:77] Creating layer drop1
I0810 21:28:35.230222 24399 net.cpp:91] Creating Layer drop1
I0810 21:28:35.230232 24399 net.cpp:425] drop1 <- InnerProduct17
I0810 21:28:35.230242 24399 net.cpp:399] drop1 -> Dropout17
I0810 21:28:35.230258 24399 net.cpp:141] Setting up drop1
I0810 21:28:35.230269 24399 net.cpp:148] Top shape: 200 64 (12800)
I0810 21:28:35.230275 24399 net.cpp:156] Memory required for data: 258212800
I0810 21:28:35.230283 24399 layer_factory.hpp:77] Creating layer InnerProduct18
I0810 21:28:35.230298 24399 net.cpp:91] Creating Layer InnerProduct18
I0810 21:28:35.230306 24399 net.cpp:425] InnerProduct18 <- Dropout17
I0810 21:28:35.230319 24399 net.cpp:399] InnerProduct18 -> InnerProduct18
I0810 21:28:35.230370 24399 net.cpp:141] Setting up InnerProduct18
I0810 21:28:35.230381 24399 net.cpp:148] Top shape: 200 64 (12800)
I0810 21:28:35.230387 24399 net.cpp:156] Memory required for data: 258264000
I0810 21:28:35.230396 24399 net.cpp:484] Sharing parameters 'fc2_w' owned by layer 'InnerProduct2', param index 0
I0810 21:28:35.230403 24399 net.cpp:484] Sharing parameters 'fc2_b' owned by layer 'InnerProduct2', param index 1
I0810 21:28:35.230410 24399 layer_factory.hpp:77] Creating layer ReLU18
I0810 21:28:35.230420 24399 net.cpp:91] Creating Layer ReLU18
I0810 21:28:35.230427 24399 net.cpp:425] ReLU18 <- InnerProduct18
I0810 21:28:35.230458 24399 net.cpp:386] ReLU18 -> InnerProduct18 (in-place)
I0810 21:28:35.230470 24399 net.cpp:141] Setting up ReLU18
I0810 21:28:35.230479 24399 net.cpp:148] Top shape: 200 64 (12800)
I0810 21:28:35.230486 24399 net.cpp:156] Memory required for data: 258315200
I0810 21:28:35.230492 24399 layer_factory.hpp:77] Creating layer drop2
I0810 21:28:35.230504 24399 net.cpp:91] Creating Layer drop2
I0810 21:28:35.230511 24399 net.cpp:425] drop2 <- InnerProduct18
I0810 21:28:35.230521 24399 net.cpp:399] drop2 -> Dropout18
I0810 21:28:35.230536 24399 net.cpp:141] Setting up drop2
I0810 21:28:35.230546 24399 net.cpp:148] Top shape: 200 64 (12800)
I0810 21:28:35.230552 24399 net.cpp:156] Memory required for data: 258366400
I0810 21:28:35.230558 24399 layer_factory.hpp:77] Creating layer m9
I0810 21:28:35.230572 24399 net.cpp:91] Creating Layer m9
I0810 21:28:35.230581 24399 net.cpp:425] m9 <- Dropout18
I0810 21:28:35.230593 24399 net.cpp:399] m9 -> m9
I0810 21:28:35.230618 24399 net.cpp:141] Setting up m9
I0810 21:28:35.230628 24399 net.cpp:148] Top shape: 200 1 (200)
I0810 21:28:35.230634 24399 net.cpp:156] Memory required for data: 258367200
I0810 21:28:35.230643 24399 net.cpp:484] Sharing parameters 'fc3_w' owned by layer 'm1', param index 0
I0810 21:28:35.230651 24399 net.cpp:484] Sharing parameters 'fc3_b' owned by layer 'm1', param index 1
I0810 21:28:35.230659 24399 layer_factory.hpp:77] Creating layer Concat10
I0810 21:28:35.230670 24399 net.cpp:91] Creating Layer Concat10
I0810 21:28:35.230679 24399 net.cpp:425] Concat10 <- i1_i1_0_split_9
I0810 21:28:35.230689 24399 net.cpp:425] Concat10 <- i20
I0810 21:28:35.230701 24399 net.cpp:399] Concat10 -> Concat10
I0810 21:28:35.230718 24399 net.cpp:141] Setting up Concat10
I0810 21:28:35.230729 24399 net.cpp:148] Top shape: 200 2 1 4096 (1638400)
I0810 21:28:35.230736 24399 net.cpp:156] Memory required for data: 264920800
I0810 21:28:35.230742 24399 layer_factory.hpp:77] Creating layer InnerProduct19
I0810 21:28:35.230754 24399 net.cpp:91] Creating Layer InnerProduct19
I0810 21:28:35.230762 24399 net.cpp:425] InnerProduct19 <- Concat10
I0810 21:28:35.230775 24399 net.cpp:399] InnerProduct19 -> InnerProduct19
I0810 21:28:35.235155 24399 net.cpp:141] Setting up InnerProduct19
I0810 21:28:35.235191 24399 net.cpp:148] Top shape: 200 64 (12800)
I0810 21:28:35.235198 24399 net.cpp:156] Memory required for data: 264972000
I0810 21:28:35.235210 24399 net.cpp:484] Sharing parameters 'fc1_w' owned by layer 'InnerProduct1', param index 0
I0810 21:28:35.235219 24399 net.cpp:484] Sharing parameters 'fc1_b' owned by layer 'InnerProduct1', param index 1
I0810 21:28:35.235225 24399 layer_factory.hpp:77] Creating layer ReLU19
I0810 21:28:35.235241 24399 net.cpp:91] Creating Layer ReLU19
I0810 21:28:35.235252 24399 net.cpp:425] ReLU19 <- InnerProduct19
I0810 21:28:35.235266 24399 net.cpp:386] ReLU19 -> InnerProduct19 (in-place)
I0810 21:28:35.235291 24399 net.cpp:141] Setting up ReLU19
I0810 21:28:35.235301 24399 net.cpp:148] Top shape: 200 64 (12800)
I0810 21:28:35.235307 24399 net.cpp:156] Memory required for data: 265023200
I0810 21:28:35.235314 24399 layer_factory.hpp:77] Creating layer drop1
I0810 21:28:35.235327 24399 net.cpp:91] Creating Layer drop1
I0810 21:28:35.235335 24399 net.cpp:425] drop1 <- InnerProduct19
I0810 21:28:35.235347 24399 net.cpp:399] drop1 -> Dropout19
I0810 21:28:35.235364 24399 net.cpp:141] Setting up drop1
I0810 21:28:35.235374 24399 net.cpp:148] Top shape: 200 64 (12800)
I0810 21:28:35.235380 24399 net.cpp:156] Memory required for data: 265074400
I0810 21:28:35.235388 24399 layer_factory.hpp:77] Creating layer InnerProduct20
I0810 21:28:35.235404 24399 net.cpp:91] Creating Layer InnerProduct20
I0810 21:28:35.235411 24399 net.cpp:425] InnerProduct20 <- Dropout19
I0810 21:28:35.235424 24399 net.cpp:399] InnerProduct20 -> InnerProduct20
I0810 21:28:35.235478 24399 net.cpp:141] Setting up InnerProduct20
I0810 21:28:35.235487 24399 net.cpp:148] Top shape: 200 64 (12800)
I0810 21:28:35.235494 24399 net.cpp:156] Memory required for data: 265125600
I0810 21:28:35.235525 24399 net.cpp:484] Sharing parameters 'fc2_w' owned by layer 'InnerProduct2', param index 0
I0810 21:28:35.235534 24399 net.cpp:484] Sharing parameters 'fc2_b' owned by layer 'InnerProduct2', param index 1
I0810 21:28:35.235541 24399 layer_factory.hpp:77] Creating layer ReLU20
I0810 21:28:35.235551 24399 net.cpp:91] Creating Layer ReLU20
I0810 21:28:35.235559 24399 net.cpp:425] ReLU20 <- InnerProduct20
I0810 21:28:35.235569 24399 net.cpp:386] ReLU20 -> InnerProduct20 (in-place)
I0810 21:28:35.235582 24399 net.cpp:141] Setting up ReLU20
I0810 21:28:35.235592 24399 net.cpp:148] Top shape: 200 64 (12800)
I0810 21:28:35.235599 24399 net.cpp:156] Memory required for data: 265176800
I0810 21:28:35.235605 24399 layer_factory.hpp:77] Creating layer drop2
I0810 21:28:35.235615 24399 net.cpp:91] Creating Layer drop2
I0810 21:28:35.235623 24399 net.cpp:425] drop2 <- InnerProduct20
I0810 21:28:35.235632 24399 net.cpp:399] drop2 -> Dropout20
I0810 21:28:35.235646 24399 net.cpp:141] Setting up drop2
I0810 21:28:35.235656 24399 net.cpp:148] Top shape: 200 64 (12800)
I0810 21:28:35.235661 24399 net.cpp:156] Memory required for data: 265228000
I0810 21:28:35.235668 24399 layer_factory.hpp:77] Creating layer m10
I0810 21:28:35.235680 24399 net.cpp:91] Creating Layer m10
I0810 21:28:35.235692 24399 net.cpp:425] m10 <- Dropout20
I0810 21:28:35.235704 24399 net.cpp:399] m10 -> m10
I0810 21:28:35.235728 24399 net.cpp:141] Setting up m10
I0810 21:28:35.235738 24399 net.cpp:148] Top shape: 200 1 (200)
I0810 21:28:35.235743 24399 net.cpp:156] Memory required for data: 265228800
I0810 21:28:35.235751 24399 net.cpp:484] Sharing parameters 'fc3_w' owned by layer 'm1', param index 0
I0810 21:28:35.235760 24399 net.cpp:484] Sharing parameters 'fc3_b' owned by layer 'm1', param index 1
I0810 21:28:35.235767 24399 layer_factory.hpp:77] Creating layer Concat11
I0810 21:28:35.235780 24399 net.cpp:91] Creating Layer Concat11
I0810 21:28:35.235790 24399 net.cpp:425] Concat11 <- i2
I0810 21:28:35.235800 24399 net.cpp:425] Concat11 <- i11_i1_10_split_1
I0810 21:28:35.235813 24399 net.cpp:399] Concat11 -> Concat11
I0810 21:28:35.235829 24399 net.cpp:141] Setting up Concat11
I0810 21:28:35.235839 24399 net.cpp:148] Top shape: 200 2 1 4096 (1638400)
I0810 21:28:35.235846 24399 net.cpp:156] Memory required for data: 271782400
I0810 21:28:35.235852 24399 layer_factory.hpp:77] Creating layer InnerProduct21
I0810 21:28:35.235864 24399 net.cpp:91] Creating Layer InnerProduct21
I0810 21:28:35.235872 24399 net.cpp:425] InnerProduct21 <- Concat11
I0810 21:28:35.235884 24399 net.cpp:399] InnerProduct21 -> InnerProduct21
I0810 21:28:35.240289 24399 net.cpp:141] Setting up InnerProduct21
I0810 21:28:35.240329 24399 net.cpp:148] Top shape: 200 64 (12800)
I0810 21:28:35.240335 24399 net.cpp:156] Memory required for data: 271833600
I0810 21:28:35.240347 24399 net.cpp:484] Sharing parameters 'fc1_w' owned by layer 'InnerProduct1', param index 0
I0810 21:28:35.240355 24399 net.cpp:484] Sharing parameters 'fc1_b' owned by layer 'InnerProduct1', param index 1
I0810 21:28:35.240362 24399 layer_factory.hpp:77] Creating layer ReLU21
I0810 21:28:35.240380 24399 net.cpp:91] Creating Layer ReLU21
I0810 21:28:35.240389 24399 net.cpp:425] ReLU21 <- InnerProduct21
I0810 21:28:35.240403 24399 net.cpp:386] ReLU21 -> InnerProduct21 (in-place)
I0810 21:28:35.240423 24399 net.cpp:141] Setting up ReLU21
I0810 21:28:35.240434 24399 net.cpp:148] Top shape: 200 64 (12800)
I0810 21:28:35.240440 24399 net.cpp:156] Memory required for data: 271884800
I0810 21:28:35.240447 24399 layer_factory.hpp:77] Creating layer drop1
I0810 21:28:35.240485 24399 net.cpp:91] Creating Layer drop1
I0810 21:28:35.240496 24399 net.cpp:425] drop1 <- InnerProduct21
I0810 21:28:35.240509 24399 net.cpp:399] drop1 -> Dropout21
I0810 21:28:35.240525 24399 net.cpp:141] Setting up drop1
I0810 21:28:35.240536 24399 net.cpp:148] Top shape: 200 64 (12800)
I0810 21:28:35.240542 24399 net.cpp:156] Memory required for data: 271936000
I0810 21:28:35.240550 24399 layer_factory.hpp:77] Creating layer InnerProduct22
I0810 21:28:35.240597 24399 net.cpp:91] Creating Layer InnerProduct22
I0810 21:28:35.240607 24399 net.cpp:425] InnerProduct22 <- Dropout21
I0810 21:28:35.240622 24399 net.cpp:399] InnerProduct22 -> InnerProduct22
I0810 21:28:35.240679 24399 net.cpp:141] Setting up InnerProduct22
I0810 21:28:35.240689 24399 net.cpp:148] Top shape: 200 64 (12800)
I0810 21:28:35.240694 24399 net.cpp:156] Memory required for data: 271987200
I0810 21:28:35.240702 24399 net.cpp:484] Sharing parameters 'fc2_w' owned by layer 'InnerProduct2', param index 0
I0810 21:28:35.240710 24399 net.cpp:484] Sharing parameters 'fc2_b' owned by layer 'InnerProduct2', param index 1
I0810 21:28:35.240717 24399 layer_factory.hpp:77] Creating layer ReLU22
I0810 21:28:35.240727 24399 net.cpp:91] Creating Layer ReLU22
I0810 21:28:35.240736 24399 net.cpp:425] ReLU22 <- InnerProduct22
I0810 21:28:35.240746 24399 net.cpp:386] ReLU22 -> InnerProduct22 (in-place)
I0810 21:28:35.240757 24399 net.cpp:141] Setting up ReLU22
I0810 21:28:35.240766 24399 net.cpp:148] Top shape: 200 64 (12800)
I0810 21:28:35.240773 24399 net.cpp:156] Memory required for data: 272038400
I0810 21:28:35.240780 24399 layer_factory.hpp:77] Creating layer drop2
I0810 21:28:35.240792 24399 net.cpp:91] Creating Layer drop2
I0810 21:28:35.240798 24399 net.cpp:425] drop2 <- InnerProduct22
I0810 21:28:35.240808 24399 net.cpp:399] drop2 -> Dropout22
I0810 21:28:35.240821 24399 net.cpp:141] Setting up drop2
I0810 21:28:35.240833 24399 net.cpp:148] Top shape: 200 64 (12800)
I0810 21:28:35.240839 24399 net.cpp:156] Memory required for data: 272089600
I0810 21:28:35.240845 24399 layer_factory.hpp:77] Creating layer m11
I0810 21:28:35.240859 24399 net.cpp:91] Creating Layer m11
I0810 21:28:35.240866 24399 net.cpp:425] m11 <- Dropout22
I0810 21:28:35.240883 24399 net.cpp:399] m11 -> m11
I0810 21:28:35.240907 24399 net.cpp:141] Setting up m11
I0810 21:28:35.240916 24399 net.cpp:148] Top shape: 200 1 (200)
I0810 21:28:35.240923 24399 net.cpp:156] Memory required for data: 272090400
I0810 21:28:35.240947 24399 net.cpp:484] Sharing parameters 'fc3_w' owned by layer 'm1', param index 0
I0810 21:28:35.240957 24399 net.cpp:484] Sharing parameters 'fc3_b' owned by layer 'm1', param index 1
I0810 21:28:35.240965 24399 layer_factory.hpp:77] Creating layer Concat12
I0810 21:28:35.240978 24399 net.cpp:91] Creating Layer Concat12
I0810 21:28:35.240986 24399 net.cpp:425] Concat12 <- i3
I0810 21:28:35.240996 24399 net.cpp:425] Concat12 <- i11_i1_10_split_2
I0810 21:28:35.241009 24399 net.cpp:399] Concat12 -> Concat12
I0810 21:28:35.241025 24399 net.cpp:141] Setting up Concat12
I0810 21:28:35.241035 24399 net.cpp:148] Top shape: 200 2 1 4096 (1638400)
I0810 21:28:35.241044 24399 net.cpp:156] Memory required for data: 278644000
I0810 21:28:35.241050 24399 layer_factory.hpp:77] Creating layer InnerProduct23
I0810 21:28:35.241062 24399 net.cpp:91] Creating Layer InnerProduct23
I0810 21:28:35.241070 24399 net.cpp:425] InnerProduct23 <- Concat12
I0810 21:28:35.241082 24399 net.cpp:399] InnerProduct23 -> InnerProduct23
I0810 21:28:35.245509 24399 net.cpp:141] Setting up InnerProduct23
I0810 21:28:35.245545 24399 net.cpp:148] Top shape: 200 64 (12800)
I0810 21:28:35.245551 24399 net.cpp:156] Memory required for data: 278695200
I0810 21:28:35.245563 24399 net.cpp:484] Sharing parameters 'fc1_w' owned by layer 'InnerProduct1', param index 0
I0810 21:28:35.245573 24399 net.cpp:484] Sharing parameters 'fc1_b' owned by layer 'InnerProduct1', param index 1
I0810 21:28:35.245579 24399 layer_factory.hpp:77] Creating layer ReLU23
I0810 21:28:35.245596 24399 net.cpp:91] Creating Layer ReLU23
I0810 21:28:35.245606 24399 net.cpp:425] ReLU23 <- InnerProduct23
I0810 21:28:35.245620 24399 net.cpp:386] ReLU23 -> InnerProduct23 (in-place)
I0810 21:28:35.245654 24399 net.cpp:141] Setting up ReLU23
I0810 21:28:35.245666 24399 net.cpp:148] Top shape: 200 64 (12800)
I0810 21:28:35.245673 24399 net.cpp:156] Memory required for data: 278746400
I0810 21:28:35.245681 24399 layer_factory.hpp:77] Creating layer drop1
I0810 21:28:35.245693 24399 net.cpp:91] Creating Layer drop1
I0810 21:28:35.245719 24399 net.cpp:425] drop1 <- InnerProduct23
I0810 21:28:35.245733 24399 net.cpp:399] drop1 -> Dropout23
I0810 21:28:35.245754 24399 net.cpp:141] Setting up drop1
I0810 21:28:35.245762 24399 net.cpp:148] Top shape: 200 64 (12800)
I0810 21:28:35.245769 24399 net.cpp:156] Memory required for data: 278797600
I0810 21:28:35.245776 24399 layer_factory.hpp:77] Creating layer InnerProduct24
I0810 21:28:35.245793 24399 net.cpp:91] Creating Layer InnerProduct24
I0810 21:28:35.245800 24399 net.cpp:425] InnerProduct24 <- Dropout23
I0810 21:28:35.245813 24399 net.cpp:399] InnerProduct24 -> InnerProduct24
I0810 21:28:35.245868 24399 net.cpp:141] Setting up InnerProduct24
I0810 21:28:35.245879 24399 net.cpp:148] Top shape: 200 64 (12800)
I0810 21:28:35.245885 24399 net.cpp:156] Memory required for data: 278848800
I0810 21:28:35.245893 24399 net.cpp:484] Sharing parameters 'fc2_w' owned by layer 'InnerProduct2', param index 0
I0810 21:28:35.245901 24399 net.cpp:484] Sharing parameters 'fc2_b' owned by layer 'InnerProduct2', param index 1
I0810 21:28:35.245908 24399 layer_factory.hpp:77] Creating layer ReLU24
I0810 21:28:35.245919 24399 net.cpp:91] Creating Layer ReLU24
I0810 21:28:35.245928 24399 net.cpp:425] ReLU24 <- InnerProduct24
I0810 21:28:35.245937 24399 net.cpp:386] ReLU24 -> InnerProduct24 (in-place)
I0810 21:28:35.245947 24399 net.cpp:141] Setting up ReLU24
I0810 21:28:35.245957 24399 net.cpp:148] Top shape: 200 64 (12800)
I0810 21:28:35.245964 24399 net.cpp:156] Memory required for data: 278900000
I0810 21:28:35.245970 24399 layer_factory.hpp:77] Creating layer drop2
I0810 21:28:35.245980 24399 net.cpp:91] Creating Layer drop2
I0810 21:28:35.245986 24399 net.cpp:425] drop2 <- InnerProduct24
I0810 21:28:35.245996 24399 net.cpp:399] drop2 -> Dropout24
I0810 21:28:35.246011 24399 net.cpp:141] Setting up drop2
I0810 21:28:35.246021 24399 net.cpp:148] Top shape: 200 64 (12800)
I0810 21:28:35.246027 24399 net.cpp:156] Memory required for data: 278951200
I0810 21:28:35.246034 24399 layer_factory.hpp:77] Creating layer m12
I0810 21:28:35.246047 24399 net.cpp:91] Creating Layer m12
I0810 21:28:35.246055 24399 net.cpp:425] m12 <- Dropout24
I0810 21:28:35.246068 24399 net.cpp:399] m12 -> m12
I0810 21:28:35.246090 24399 net.cpp:141] Setting up m12
I0810 21:28:35.246099 24399 net.cpp:148] Top shape: 200 1 (200)
I0810 21:28:35.246105 24399 net.cpp:156] Memory required for data: 278952000
I0810 21:28:35.246114 24399 net.cpp:484] Sharing parameters 'fc3_w' owned by layer 'm1', param index 0
I0810 21:28:35.246121 24399 net.cpp:484] Sharing parameters 'fc3_b' owned by layer 'm1', param index 1
I0810 21:28:35.246129 24399 layer_factory.hpp:77] Creating layer Concat13
I0810 21:28:35.246141 24399 net.cpp:91] Creating Layer Concat13
I0810 21:28:35.246150 24399 net.cpp:425] Concat13 <- i4
I0810 21:28:35.246160 24399 net.cpp:425] Concat13 <- i11_i1_10_split_3
I0810 21:28:35.246172 24399 net.cpp:399] Concat13 -> Concat13
I0810 21:28:35.246189 24399 net.cpp:141] Setting up Concat13
I0810 21:28:35.246199 24399 net.cpp:148] Top shape: 200 2 1 4096 (1638400)
I0810 21:28:35.246206 24399 net.cpp:156] Memory required for data: 285505600
I0810 21:28:35.246212 24399 layer_factory.hpp:77] Creating layer InnerProduct25
I0810 21:28:35.246225 24399 net.cpp:91] Creating Layer InnerProduct25
I0810 21:28:35.246234 24399 net.cpp:425] InnerProduct25 <- Concat13
I0810 21:28:35.246245 24399 net.cpp:399] InnerProduct25 -> InnerProduct25
I0810 21:28:35.250650 24399 net.cpp:141] Setting up InnerProduct25
I0810 21:28:35.250684 24399 net.cpp:148] Top shape: 200 64 (12800)
I0810 21:28:35.250690 24399 net.cpp:156] Memory required for data: 285556800
I0810 21:28:35.250702 24399 net.cpp:484] Sharing parameters 'fc1_w' owned by layer 'InnerProduct1', param index 0
I0810 21:28:35.250710 24399 net.cpp:484] Sharing parameters 'fc1_b' owned by layer 'InnerProduct1', param index 1
I0810 21:28:35.250717 24399 layer_factory.hpp:77] Creating layer ReLU25
I0810 21:28:35.250733 24399 net.cpp:91] Creating Layer ReLU25
I0810 21:28:35.250743 24399 net.cpp:425] ReLU25 <- InnerProduct25
I0810 21:28:35.250789 24399 net.cpp:386] ReLU25 -> InnerProduct25 (in-place)
I0810 21:28:35.250809 24399 net.cpp:141] Setting up ReLU25
I0810 21:28:35.250819 24399 net.cpp:148] Top shape: 200 64 (12800)
I0810 21:28:35.250825 24399 net.cpp:156] Memory required for data: 285608000
I0810 21:28:35.250833 24399 layer_factory.hpp:77] Creating layer drop1
I0810 21:28:35.250845 24399 net.cpp:91] Creating Layer drop1
I0810 21:28:35.250854 24399 net.cpp:425] drop1 <- InnerProduct25
I0810 21:28:35.250867 24399 net.cpp:399] drop1 -> Dropout25
I0810 21:28:35.250885 24399 net.cpp:141] Setting up drop1
I0810 21:28:35.250895 24399 net.cpp:148] Top shape: 200 64 (12800)
I0810 21:28:35.250901 24399 net.cpp:156] Memory required for data: 285659200
I0810 21:28:35.250908 24399 layer_factory.hpp:77] Creating layer InnerProduct26
I0810 21:28:35.250924 24399 net.cpp:91] Creating Layer InnerProduct26
I0810 21:28:35.250932 24399 net.cpp:425] InnerProduct26 <- Dropout25
I0810 21:28:35.250946 24399 net.cpp:399] InnerProduct26 -> InnerProduct26
I0810 21:28:35.250999 24399 net.cpp:141] Setting up InnerProduct26
I0810 21:28:35.251009 24399 net.cpp:148] Top shape: 200 64 (12800)
I0810 21:28:35.251016 24399 net.cpp:156] Memory required for data: 285710400
I0810 21:28:35.251024 24399 net.cpp:484] Sharing parameters 'fc2_w' owned by layer 'InnerProduct2', param index 0
I0810 21:28:35.251032 24399 net.cpp:484] Sharing parameters 'fc2_b' owned by layer 'InnerProduct2', param index 1
I0810 21:28:35.251040 24399 layer_factory.hpp:77] Creating layer ReLU26
I0810 21:28:35.251051 24399 net.cpp:91] Creating Layer ReLU26
I0810 21:28:35.251060 24399 net.cpp:425] ReLU26 <- InnerProduct26
I0810 21:28:35.251070 24399 net.cpp:386] ReLU26 -> InnerProduct26 (in-place)
I0810 21:28:35.251080 24399 net.cpp:141] Setting up ReLU26
I0810 21:28:35.251090 24399 net.cpp:148] Top shape: 200 64 (12800)
I0810 21:28:35.251096 24399 net.cpp:156] Memory required for data: 285761600
I0810 21:28:35.251101 24399 layer_factory.hpp:77] Creating layer drop2
I0810 21:28:35.251111 24399 net.cpp:91] Creating Layer drop2
I0810 21:28:35.251118 24399 net.cpp:425] drop2 <- InnerProduct26
I0810 21:28:35.251128 24399 net.cpp:399] drop2 -> Dropout26
I0810 21:28:35.251142 24399 net.cpp:141] Setting up drop2
I0810 21:28:35.251152 24399 net.cpp:148] Top shape: 200 64 (12800)
I0810 21:28:35.251159 24399 net.cpp:156] Memory required for data: 285812800
I0810 21:28:35.251166 24399 layer_factory.hpp:77] Creating layer m13
I0810 21:28:35.251179 24399 net.cpp:91] Creating Layer m13
I0810 21:28:35.251188 24399 net.cpp:425] m13 <- Dropout26
I0810 21:28:35.251199 24399 net.cpp:399] m13 -> m13
I0810 21:28:35.251219 24399 net.cpp:141] Setting up m13
I0810 21:28:35.251229 24399 net.cpp:148] Top shape: 200 1 (200)
I0810 21:28:35.251235 24399 net.cpp:156] Memory required for data: 285813600
I0810 21:28:35.251241 24399 net.cpp:484] Sharing parameters 'fc3_w' owned by layer 'm1', param index 0
I0810 21:28:35.251250 24399 net.cpp:484] Sharing parameters 'fc3_b' owned by layer 'm1', param index 1
I0810 21:28:35.251257 24399 layer_factory.hpp:77] Creating layer Concat14
I0810 21:28:35.251269 24399 net.cpp:91] Creating Layer Concat14
I0810 21:28:35.251277 24399 net.cpp:425] Concat14 <- i5
I0810 21:28:35.251286 24399 net.cpp:425] Concat14 <- i11_i1_10_split_4
I0810 21:28:35.251299 24399 net.cpp:399] Concat14 -> Concat14
I0810 21:28:35.251317 24399 net.cpp:141] Setting up Concat14
I0810 21:28:35.251327 24399 net.cpp:148] Top shape: 200 2 1 4096 (1638400)
I0810 21:28:35.251333 24399 net.cpp:156] Memory required for data: 292367200
I0810 21:28:35.251340 24399 layer_factory.hpp:77] Creating layer InnerProduct27
I0810 21:28:35.251353 24399 net.cpp:91] Creating Layer InnerProduct27
I0810 21:28:35.251363 24399 net.cpp:425] InnerProduct27 <- Concat14
I0810 21:28:35.251374 24399 net.cpp:399] InnerProduct27 -> InnerProduct27
I0810 21:28:35.255733 24399 net.cpp:141] Setting up InnerProduct27
I0810 21:28:35.255770 24399 net.cpp:148] Top shape: 200 64 (12800)
I0810 21:28:35.255777 24399 net.cpp:156] Memory required for data: 292418400
I0810 21:28:35.255831 24399 net.cpp:484] Sharing parameters 'fc1_w' owned by layer 'InnerProduct1', param index 0
I0810 21:28:35.255852 24399 net.cpp:484] Sharing parameters 'fc1_b' owned by layer 'InnerProduct1', param index 1
I0810 21:28:35.255861 24399 layer_factory.hpp:77] Creating layer ReLU27
I0810 21:28:35.255878 24399 net.cpp:91] Creating Layer ReLU27
I0810 21:28:35.255889 24399 net.cpp:425] ReLU27 <- InnerProduct27
I0810 21:28:35.255904 24399 net.cpp:386] ReLU27 -> InnerProduct27 (in-place)
I0810 21:28:35.255921 24399 net.cpp:141] Setting up ReLU27
I0810 21:28:35.255933 24399 net.cpp:148] Top shape: 200 64 (12800)
I0810 21:28:35.255939 24399 net.cpp:156] Memory required for data: 292469600
I0810 21:28:35.255945 24399 layer_factory.hpp:77] Creating layer drop1
I0810 21:28:35.255959 24399 net.cpp:91] Creating Layer drop1
I0810 21:28:35.255966 24399 net.cpp:425] drop1 <- InnerProduct27
I0810 21:28:35.255978 24399 net.cpp:399] drop1 -> Dropout27
I0810 21:28:35.255995 24399 net.cpp:141] Setting up drop1
I0810 21:28:35.256006 24399 net.cpp:148] Top shape: 200 64 (12800)
I0810 21:28:35.256012 24399 net.cpp:156] Memory required for data: 292520800
I0810 21:28:35.256018 24399 layer_factory.hpp:77] Creating layer InnerProduct28
I0810 21:28:35.256036 24399 net.cpp:91] Creating Layer InnerProduct28
I0810 21:28:35.256043 24399 net.cpp:425] InnerProduct28 <- Dropout27
I0810 21:28:35.256055 24399 net.cpp:399] InnerProduct28 -> InnerProduct28
I0810 21:28:35.256132 24399 net.cpp:141] Setting up InnerProduct28
I0810 21:28:35.256145 24399 net.cpp:148] Top shape: 200 64 (12800)
I0810 21:28:35.256152 24399 net.cpp:156] Memory required for data: 292572000
I0810 21:28:35.256160 24399 net.cpp:484] Sharing parameters 'fc2_w' owned by layer 'InnerProduct2', param index 0
I0810 21:28:35.256168 24399 net.cpp:484] Sharing parameters 'fc2_b' owned by layer 'InnerProduct2', param index 1
I0810 21:28:35.256175 24399 layer_factory.hpp:77] Creating layer ReLU28
I0810 21:28:35.256186 24399 net.cpp:91] Creating Layer ReLU28
I0810 21:28:35.256194 24399 net.cpp:425] ReLU28 <- InnerProduct28
I0810 21:28:35.256204 24399 net.cpp:386] ReLU28 -> InnerProduct28 (in-place)
I0810 21:28:35.256216 24399 net.cpp:141] Setting up ReLU28
I0810 21:28:35.256224 24399 net.cpp:148] Top shape: 200 64 (12800)
I0810 21:28:35.256230 24399 net.cpp:156] Memory required for data: 292623200
I0810 21:28:35.256237 24399 layer_factory.hpp:77] Creating layer drop2
I0810 21:28:35.256247 24399 net.cpp:91] Creating Layer drop2
I0810 21:28:35.256255 24399 net.cpp:425] drop2 <- InnerProduct28
I0810 21:28:35.256265 24399 net.cpp:399] drop2 -> Dropout28
I0810 21:28:35.256278 24399 net.cpp:141] Setting up drop2
I0810 21:28:35.256289 24399 net.cpp:148] Top shape: 200 64 (12800)
I0810 21:28:35.256295 24399 net.cpp:156] Memory required for data: 292674400
I0810 21:28:35.256301 24399 layer_factory.hpp:77] Creating layer m14
I0810 21:28:35.256314 24399 net.cpp:91] Creating Layer m14
I0810 21:28:35.256322 24399 net.cpp:425] m14 <- Dropout28
I0810 21:28:35.256335 24399 net.cpp:399] m14 -> m14
I0810 21:28:35.256356 24399 net.cpp:141] Setting up m14
I0810 21:28:35.256366 24399 net.cpp:148] Top shape: 200 1 (200)
I0810 21:28:35.256372 24399 net.cpp:156] Memory required for data: 292675200
I0810 21:28:35.256381 24399 net.cpp:484] Sharing parameters 'fc3_w' owned by layer 'm1', param index 0
I0810 21:28:35.256389 24399 net.cpp:484] Sharing parameters 'fc3_b' owned by layer 'm1', param index 1
I0810 21:28:35.256397 24399 layer_factory.hpp:77] Creating layer Concat15
I0810 21:28:35.256409 24399 net.cpp:91] Creating Layer Concat15
I0810 21:28:35.256417 24399 net.cpp:425] Concat15 <- i6
I0810 21:28:35.256428 24399 net.cpp:425] Concat15 <- i11_i1_10_split_5
I0810 21:28:35.256438 24399 net.cpp:399] Concat15 -> Concat15
I0810 21:28:35.256479 24399 net.cpp:141] Setting up Concat15
I0810 21:28:35.256492 24399 net.cpp:148] Top shape: 200 2 1 4096 (1638400)
I0810 21:28:35.256499 24399 net.cpp:156] Memory required for data: 299228800
I0810 21:28:35.256505 24399 layer_factory.hpp:77] Creating layer InnerProduct29
I0810 21:28:35.256532 24399 net.cpp:91] Creating Layer InnerProduct29
I0810 21:28:35.256542 24399 net.cpp:425] InnerProduct29 <- Concat15
I0810 21:28:35.256561 24399 net.cpp:399] InnerProduct29 -> InnerProduct29
I0810 21:28:35.260988 24399 net.cpp:141] Setting up InnerProduct29
I0810 21:28:35.261025 24399 net.cpp:148] Top shape: 200 64 (12800)
I0810 21:28:35.261032 24399 net.cpp:156] Memory required for data: 299280000
I0810 21:28:35.261042 24399 net.cpp:484] Sharing parameters 'fc1_w' owned by layer 'InnerProduct1', param index 0
I0810 21:28:35.261051 24399 net.cpp:484] Sharing parameters 'fc1_b' owned by layer 'InnerProduct1', param index 1
I0810 21:28:35.261059 24399 layer_factory.hpp:77] Creating layer ReLU29
I0810 21:28:35.261075 24399 net.cpp:91] Creating Layer ReLU29
I0810 21:28:35.261085 24399 net.cpp:425] ReLU29 <- InnerProduct29
I0810 21:28:35.261098 24399 net.cpp:386] ReLU29 -> InnerProduct29 (in-place)
I0810 21:28:35.261128 24399 net.cpp:141] Setting up ReLU29
I0810 21:28:35.261139 24399 net.cpp:148] Top shape: 200 64 (12800)
I0810 21:28:35.261147 24399 net.cpp:156] Memory required for data: 299331200
I0810 21:28:35.261153 24399 layer_factory.hpp:77] Creating layer drop1
I0810 21:28:35.261168 24399 net.cpp:91] Creating Layer drop1
I0810 21:28:35.261178 24399 net.cpp:425] drop1 <- InnerProduct29
I0810 21:28:35.261189 24399 net.cpp:399] drop1 -> Dropout29
I0810 21:28:35.261205 24399 net.cpp:141] Setting up drop1
I0810 21:28:35.261214 24399 net.cpp:148] Top shape: 200 64 (12800)
I0810 21:28:35.261221 24399 net.cpp:156] Memory required for data: 299382400
I0810 21:28:35.261229 24399 layer_factory.hpp:77] Creating layer InnerProduct30
I0810 21:28:35.261246 24399 net.cpp:91] Creating Layer InnerProduct30
I0810 21:28:35.261255 24399 net.cpp:425] InnerProduct30 <- Dropout29
I0810 21:28:35.261267 24399 net.cpp:399] InnerProduct30 -> InnerProduct30
I0810 21:28:35.261318 24399 net.cpp:141] Setting up InnerProduct30
I0810 21:28:35.261328 24399 net.cpp:148] Top shape: 200 64 (12800)
I0810 21:28:35.261335 24399 net.cpp:156] Memory required for data: 299433600
I0810 21:28:35.261343 24399 net.cpp:484] Sharing parameters 'fc2_w' owned by layer 'InnerProduct2', param index 0
I0810 21:28:35.261351 24399 net.cpp:484] Sharing parameters 'fc2_b' owned by layer 'InnerProduct2', param index 1
I0810 21:28:35.261358 24399 layer_factory.hpp:77] Creating layer ReLU30
I0810 21:28:35.261368 24399 net.cpp:91] Creating Layer ReLU30
I0810 21:28:35.261379 24399 net.cpp:425] ReLU30 <- InnerProduct30
I0810 21:28:35.261389 24399 net.cpp:386] ReLU30 -> InnerProduct30 (in-place)
I0810 21:28:35.261400 24399 net.cpp:141] Setting up ReLU30
I0810 21:28:35.261409 24399 net.cpp:148] Top shape: 200 64 (12800)
I0810 21:28:35.261416 24399 net.cpp:156] Memory required for data: 299484800
I0810 21:28:35.261423 24399 layer_factory.hpp:77] Creating layer drop2
I0810 21:28:35.261433 24399 net.cpp:91] Creating Layer drop2
I0810 21:28:35.261440 24399 net.cpp:425] drop2 <- InnerProduct30
I0810 21:28:35.261451 24399 net.cpp:399] drop2 -> Dropout30
I0810 21:28:35.261464 24399 net.cpp:141] Setting up drop2
I0810 21:28:35.261474 24399 net.cpp:148] Top shape: 200 64 (12800)
I0810 21:28:35.261482 24399 net.cpp:156] Memory required for data: 299536000
I0810 21:28:35.261488 24399 layer_factory.hpp:77] Creating layer m15
I0810 21:28:35.261502 24399 net.cpp:91] Creating Layer m15
I0810 21:28:35.261510 24399 net.cpp:425] m15 <- Dropout30
I0810 21:28:35.261523 24399 net.cpp:399] m15 -> m15
I0810 21:28:35.261544 24399 net.cpp:141] Setting up m15
I0810 21:28:35.261554 24399 net.cpp:148] Top shape: 200 1 (200)
I0810 21:28:35.261561 24399 net.cpp:156] Memory required for data: 299536800
I0810 21:28:35.261569 24399 net.cpp:484] Sharing parameters 'fc3_w' owned by layer 'm1', param index 0
I0810 21:28:35.261576 24399 net.cpp:484] Sharing parameters 'fc3_b' owned by layer 'm1', param index 1
I0810 21:28:35.261584 24399 layer_factory.hpp:77] Creating layer Concat16
I0810 21:28:35.261596 24399 net.cpp:91] Creating Layer Concat16
I0810 21:28:35.261627 24399 net.cpp:425] Concat16 <- i7
I0810 21:28:35.261637 24399 net.cpp:425] Concat16 <- i11_i1_10_split_6
I0810 21:28:35.261651 24399 net.cpp:399] Concat16 -> Concat16
I0810 21:28:35.261667 24399 net.cpp:141] Setting up Concat16
I0810 21:28:35.261677 24399 net.cpp:148] Top shape: 200 2 1 4096 (1638400)
I0810 21:28:35.261683 24399 net.cpp:156] Memory required for data: 306090400
I0810 21:28:35.261690 24399 layer_factory.hpp:77] Creating layer InnerProduct31
I0810 21:28:35.261723 24399 net.cpp:91] Creating Layer InnerProduct31
I0810 21:28:35.261731 24399 net.cpp:425] InnerProduct31 <- Concat16
I0810 21:28:35.261744 24399 net.cpp:399] InnerProduct31 -> InnerProduct31
I0810 21:28:35.264446 24404 blocking_queue.cpp:50] Waiting for data
I0810 21:28:35.266155 24399 net.cpp:141] Setting up InnerProduct31
I0810 21:28:35.266173 24399 net.cpp:148] Top shape: 200 64 (12800)
I0810 21:28:35.266180 24399 net.cpp:156] Memory required for data: 306141600
I0810 21:28:35.266192 24399 net.cpp:484] Sharing parameters 'fc1_w' owned by layer 'InnerProduct1', param index 0
I0810 21:28:35.266211 24399 net.cpp:484] Sharing parameters 'fc1_b' owned by layer 'InnerProduct1', param index 1
I0810 21:28:35.266222 24399 layer_factory.hpp:77] Creating layer ReLU31
I0810 21:28:35.266242 24399 net.cpp:91] Creating Layer ReLU31
I0810 21:28:35.266253 24399 net.cpp:425] ReLU31 <- InnerProduct31
I0810 21:28:35.266266 24399 net.cpp:386] ReLU31 -> InnerProduct31 (in-place)
I0810 21:28:35.266284 24399 net.cpp:141] Setting up ReLU31
I0810 21:28:35.266294 24399 net.cpp:148] Top shape: 200 64 (12800)
I0810 21:28:35.266301 24399 net.cpp:156] Memory required for data: 306192800
I0810 21:28:35.266309 24399 layer_factory.hpp:77] Creating layer drop1
I0810 21:28:35.266321 24399 net.cpp:91] Creating Layer drop1
I0810 21:28:35.266330 24399 net.cpp:425] drop1 <- InnerProduct31
I0810 21:28:35.266342 24399 net.cpp:399] drop1 -> Dropout31
I0810 21:28:35.266358 24399 net.cpp:141] Setting up drop1
I0810 21:28:35.266369 24399 net.cpp:148] Top shape: 200 64 (12800)
I0810 21:28:35.266376 24399 net.cpp:156] Memory required for data: 306244000
I0810 21:28:35.266382 24399 layer_factory.hpp:77] Creating layer InnerProduct32
I0810 21:28:35.266398 24399 net.cpp:91] Creating Layer InnerProduct32
I0810 21:28:35.266407 24399 net.cpp:425] InnerProduct32 <- Dropout31
I0810 21:28:35.266418 24399 net.cpp:399] InnerProduct32 -> InnerProduct32
I0810 21:28:35.266469 24399 net.cpp:141] Setting up InnerProduct32
I0810 21:28:35.266479 24399 net.cpp:148] Top shape: 200 64 (12800)
I0810 21:28:35.266486 24399 net.cpp:156] Memory required for data: 306295200
I0810 21:28:35.266494 24399 net.cpp:484] Sharing parameters 'fc2_w' owned by layer 'InnerProduct2', param index 0
I0810 21:28:35.266502 24399 net.cpp:484] Sharing parameters 'fc2_b' owned by layer 'InnerProduct2', param index 1
I0810 21:28:35.266510 24399 layer_factory.hpp:77] Creating layer ReLU32
I0810 21:28:35.266520 24399 net.cpp:91] Creating Layer ReLU32
I0810 21:28:35.266528 24399 net.cpp:425] ReLU32 <- InnerProduct32
I0810 21:28:35.266538 24399 net.cpp:386] ReLU32 -> InnerProduct32 (in-place)
I0810 21:28:35.266551 24399 net.cpp:141] Setting up ReLU32
I0810 21:28:35.266562 24399 net.cpp:148] Top shape: 200 64 (12800)
I0810 21:28:35.266569 24399 net.cpp:156] Memory required for data: 306346400
I0810 21:28:35.266577 24399 layer_factory.hpp:77] Creating layer drop2
I0810 21:28:35.266587 24399 net.cpp:91] Creating Layer drop2
I0810 21:28:35.266594 24399 net.cpp:425] drop2 <- InnerProduct32
I0810 21:28:35.266604 24399 net.cpp:399] drop2 -> Dropout32
I0810 21:28:35.266618 24399 net.cpp:141] Setting up drop2
I0810 21:28:35.266628 24399 net.cpp:148] Top shape: 200 64 (12800)
I0810 21:28:35.266634 24399 net.cpp:156] Memory required for data: 306397600
I0810 21:28:35.266641 24399 layer_factory.hpp:77] Creating layer m16
I0810 21:28:35.266654 24399 net.cpp:91] Creating Layer m16
I0810 21:28:35.266662 24399 net.cpp:425] m16 <- Dropout32
I0810 21:28:35.266674 24399 net.cpp:399] m16 -> m16
I0810 21:28:35.266700 24399 net.cpp:141] Setting up m16
I0810 21:28:35.266727 24399 net.cpp:148] Top shape: 200 1 (200)
I0810 21:28:35.266734 24399 net.cpp:156] Memory required for data: 306398400
I0810 21:28:35.266741 24399 net.cpp:484] Sharing parameters 'fc3_w' owned by layer 'm1', param index 0
I0810 21:28:35.266751 24399 net.cpp:484] Sharing parameters 'fc3_b' owned by layer 'm1', param index 1
I0810 21:28:35.266757 24399 layer_factory.hpp:77] Creating layer Concat17
I0810 21:28:35.266772 24399 net.cpp:91] Creating Layer Concat17
I0810 21:28:35.266780 24399 net.cpp:425] Concat17 <- i8
I0810 21:28:35.266789 24399 net.cpp:425] Concat17 <- i11_i1_10_split_7
I0810 21:28:35.266803 24399 net.cpp:399] Concat17 -> Concat17
I0810 21:28:35.266819 24399 net.cpp:141] Setting up Concat17
I0810 21:28:35.266830 24399 net.cpp:148] Top shape: 200 2 1 4096 (1638400)
I0810 21:28:35.266837 24399 net.cpp:156] Memory required for data: 312952000
I0810 21:28:35.266844 24399 layer_factory.hpp:77] Creating layer InnerProduct33
I0810 21:28:35.266856 24399 net.cpp:91] Creating Layer InnerProduct33
I0810 21:28:35.266865 24399 net.cpp:425] InnerProduct33 <- Concat17
I0810 21:28:35.266876 24399 net.cpp:399] InnerProduct33 -> InnerProduct33
I0810 21:28:35.271296 24399 net.cpp:141] Setting up InnerProduct33
I0810 21:28:35.271327 24399 net.cpp:148] Top shape: 200 64 (12800)
I0810 21:28:35.271332 24399 net.cpp:156] Memory required for data: 313003200
I0810 21:28:35.271343 24399 net.cpp:484] Sharing parameters 'fc1_w' owned by layer 'InnerProduct1', param index 0
I0810 21:28:35.271353 24399 net.cpp:484] Sharing parameters 'fc1_b' owned by layer 'InnerProduct1', param index 1
I0810 21:28:35.271358 24399 layer_factory.hpp:77] Creating layer ReLU33
I0810 21:28:35.271375 24399 net.cpp:91] Creating Layer ReLU33
I0810 21:28:35.271384 24399 net.cpp:425] ReLU33 <- InnerProduct33
I0810 21:28:35.271397 24399 net.cpp:386] ReLU33 -> InnerProduct33 (in-place)
I0810 21:28:35.271425 24399 net.cpp:141] Setting up ReLU33
I0810 21:28:35.271440 24399 net.cpp:148] Top shape: 200 64 (12800)
I0810 21:28:35.271446 24399 net.cpp:156] Memory required for data: 313054400
I0810 21:28:35.271456 24399 layer_factory.hpp:77] Creating layer drop1
I0810 21:28:35.271468 24399 net.cpp:91] Creating Layer drop1
I0810 21:28:35.271477 24399 net.cpp:425] drop1 <- InnerProduct33
I0810 21:28:35.271489 24399 net.cpp:399] drop1 -> Dropout33
I0810 21:28:35.271508 24399 net.cpp:141] Setting up drop1
I0810 21:28:35.271518 24399 net.cpp:148] Top shape: 200 64 (12800)
I0810 21:28:35.271525 24399 net.cpp:156] Memory required for data: 313105600
I0810 21:28:35.271533 24399 layer_factory.hpp:77] Creating layer InnerProduct34
I0810 21:28:35.271548 24399 net.cpp:91] Creating Layer InnerProduct34
I0810 21:28:35.271556 24399 net.cpp:425] InnerProduct34 <- Dropout33
I0810 21:28:35.271569 24399 net.cpp:399] InnerProduct34 -> InnerProduct34
I0810 21:28:35.271621 24399 net.cpp:141] Setting up InnerProduct34
I0810 21:28:35.271631 24399 net.cpp:148] Top shape: 200 64 (12800)
I0810 21:28:35.271637 24399 net.cpp:156] Memory required for data: 313156800
I0810 21:28:35.271646 24399 net.cpp:484] Sharing parameters 'fc2_w' owned by layer 'InnerProduct2', param index 0
I0810 21:28:35.271653 24399 net.cpp:484] Sharing parameters 'fc2_b' owned by layer 'InnerProduct2', param index 1
I0810 21:28:35.271661 24399 layer_factory.hpp:77] Creating layer ReLU34
I0810 21:28:35.271670 24399 net.cpp:91] Creating Layer ReLU34
I0810 21:28:35.271677 24399 net.cpp:425] ReLU34 <- InnerProduct34
I0810 21:28:35.271687 24399 net.cpp:386] ReLU34 -> InnerProduct34 (in-place)
I0810 21:28:35.271700 24399 net.cpp:141] Setting up ReLU34
I0810 21:28:35.271710 24399 net.cpp:148] Top shape: 200 64 (12800)
I0810 21:28:35.271716 24399 net.cpp:156] Memory required for data: 313208000
I0810 21:28:35.271723 24399 layer_factory.hpp:77] Creating layer drop2
I0810 21:28:35.271733 24399 net.cpp:91] Creating Layer drop2
I0810 21:28:35.271740 24399 net.cpp:425] drop2 <- InnerProduct34
I0810 21:28:35.271750 24399 net.cpp:399] drop2 -> Dropout34
I0810 21:28:35.271764 24399 net.cpp:141] Setting up drop2
I0810 21:28:35.271798 24399 net.cpp:148] Top shape: 200 64 (12800)
I0810 21:28:35.271806 24399 net.cpp:156] Memory required for data: 313259200
I0810 21:28:35.271812 24399 layer_factory.hpp:77] Creating layer m17
I0810 21:28:35.271826 24399 net.cpp:91] Creating Layer m17
I0810 21:28:35.271833 24399 net.cpp:425] m17 <- Dropout34
I0810 21:28:35.271847 24399 net.cpp:399] m17 -> m17
I0810 21:28:35.271872 24399 net.cpp:141] Setting up m17
I0810 21:28:35.271881 24399 net.cpp:148] Top shape: 200 1 (200)
I0810 21:28:35.271888 24399 net.cpp:156] Memory required for data: 313260000
I0810 21:28:35.271895 24399 net.cpp:484] Sharing parameters 'fc3_w' owned by layer 'm1', param index 0
I0810 21:28:35.271903 24399 net.cpp:484] Sharing parameters 'fc3_b' owned by layer 'm1', param index 1
I0810 21:28:35.271910 24399 layer_factory.hpp:77] Creating layer Concat18
I0810 21:28:35.271924 24399 net.cpp:91] Creating Layer Concat18
I0810 21:28:35.271931 24399 net.cpp:425] Concat18 <- i9
I0810 21:28:35.271940 24399 net.cpp:425] Concat18 <- i11_i1_10_split_8
I0810 21:28:35.271953 24399 net.cpp:399] Concat18 -> Concat18
I0810 21:28:35.271970 24399 net.cpp:141] Setting up Concat18
I0810 21:28:35.271981 24399 net.cpp:148] Top shape: 200 2 1 4096 (1638400)
I0810 21:28:35.271989 24399 net.cpp:156] Memory required for data: 319813600
I0810 21:28:35.271996 24399 layer_factory.hpp:77] Creating layer InnerProduct35
I0810 21:28:35.272008 24399 net.cpp:91] Creating Layer InnerProduct35
I0810 21:28:35.272017 24399 net.cpp:425] InnerProduct35 <- Concat18
I0810 21:28:35.272028 24399 net.cpp:399] InnerProduct35 -> InnerProduct35
I0810 21:28:35.276361 24399 net.cpp:141] Setting up InnerProduct35
I0810 21:28:35.276391 24399 net.cpp:148] Top shape: 200 64 (12800)
I0810 21:28:35.276397 24399 net.cpp:156] Memory required for data: 319864800
I0810 21:28:35.276407 24399 net.cpp:484] Sharing parameters 'fc1_w' owned by layer 'InnerProduct1', param index 0
I0810 21:28:35.276417 24399 net.cpp:484] Sharing parameters 'fc1_b' owned by layer 'InnerProduct1', param index 1
I0810 21:28:35.276423 24399 layer_factory.hpp:77] Creating layer ReLU35
I0810 21:28:35.276438 24399 net.cpp:91] Creating Layer ReLU35
I0810 21:28:35.276448 24399 net.cpp:425] ReLU35 <- InnerProduct35
I0810 21:28:35.276475 24399 net.cpp:386] ReLU35 -> InnerProduct35 (in-place)
I0810 21:28:35.276491 24399 net.cpp:141] Setting up ReLU35
I0810 21:28:35.276504 24399 net.cpp:148] Top shape: 200 64 (12800)
I0810 21:28:35.276511 24399 net.cpp:156] Memory required for data: 319916000
I0810 21:28:35.276518 24399 layer_factory.hpp:77] Creating layer drop1
I0810 21:28:35.276530 24399 net.cpp:91] Creating Layer drop1
I0810 21:28:35.276541 24399 net.cpp:425] drop1 <- InnerProduct35
I0810 21:28:35.276556 24399 net.cpp:399] drop1 -> Dropout35
I0810 21:28:35.276572 24399 net.cpp:141] Setting up drop1
I0810 21:28:35.276583 24399 net.cpp:148] Top shape: 200 64 (12800)
I0810 21:28:35.276589 24399 net.cpp:156] Memory required for data: 319967200
I0810 21:28:35.276597 24399 layer_factory.hpp:77] Creating layer InnerProduct36
I0810 21:28:35.276612 24399 net.cpp:91] Creating Layer InnerProduct36
I0810 21:28:35.276620 24399 net.cpp:425] InnerProduct36 <- Dropout35
I0810 21:28:35.276633 24399 net.cpp:399] InnerProduct36 -> InnerProduct36
I0810 21:28:35.276690 24399 net.cpp:141] Setting up InnerProduct36
I0810 21:28:35.276700 24399 net.cpp:148] Top shape: 200 64 (12800)
I0810 21:28:35.276706 24399 net.cpp:156] Memory required for data: 320018400
I0810 21:28:35.276713 24399 net.cpp:484] Sharing parameters 'fc2_w' owned by layer 'InnerProduct2', param index 0
I0810 21:28:35.276721 24399 net.cpp:484] Sharing parameters 'fc2_b' owned by layer 'InnerProduct2', param index 1
I0810 21:28:35.276728 24399 layer_factory.hpp:77] Creating layer ReLU36
I0810 21:28:35.276738 24399 net.cpp:91] Creating Layer ReLU36
I0810 21:28:35.276746 24399 net.cpp:425] ReLU36 <- InnerProduct36
I0810 21:28:35.276756 24399 net.cpp:386] ReLU36 -> InnerProduct36 (in-place)
I0810 21:28:35.276767 24399 net.cpp:141] Setting up ReLU36
I0810 21:28:35.276777 24399 net.cpp:148] Top shape: 200 64 (12800)
I0810 21:28:35.276800 24399 net.cpp:156] Memory required for data: 320069600
I0810 21:28:35.276808 24399 layer_factory.hpp:77] Creating layer drop2
I0810 21:28:35.276819 24399 net.cpp:91] Creating Layer drop2
I0810 21:28:35.276826 24399 net.cpp:425] drop2 <- InnerProduct36
I0810 21:28:35.276837 24399 net.cpp:399] drop2 -> Dropout36
I0810 21:28:35.276851 24399 net.cpp:141] Setting up drop2
I0810 21:28:35.276862 24399 net.cpp:148] Top shape: 200 64 (12800)
I0810 21:28:35.276868 24399 net.cpp:156] Memory required for data: 320120800
I0810 21:28:35.276875 24399 layer_factory.hpp:77] Creating layer m18
I0810 21:28:35.276888 24399 net.cpp:91] Creating Layer m18
I0810 21:28:35.276896 24399 net.cpp:425] m18 <- Dropout36
I0810 21:28:35.276907 24399 net.cpp:399] m18 -> m18
I0810 21:28:35.276932 24399 net.cpp:141] Setting up m18
I0810 21:28:35.276942 24399 net.cpp:148] Top shape: 200 1 (200)
I0810 21:28:35.276948 24399 net.cpp:156] Memory required for data: 320121600
I0810 21:28:35.276955 24399 net.cpp:484] Sharing parameters 'fc3_w' owned by layer 'm1', param index 0
I0810 21:28:35.276963 24399 net.cpp:484] Sharing parameters 'fc3_b' owned by layer 'm1', param index 1
I0810 21:28:35.276970 24399 layer_factory.hpp:77] Creating layer Concat19
I0810 21:28:35.276983 24399 net.cpp:91] Creating Layer Concat19
I0810 21:28:35.276990 24399 net.cpp:425] Concat19 <- i10
I0810 21:28:35.276999 24399 net.cpp:425] Concat19 <- i11_i1_10_split_9
I0810 21:28:35.277010 24399 net.cpp:399] Concat19 -> Concat19
I0810 21:28:35.277025 24399 net.cpp:141] Setting up Concat19
I0810 21:28:35.277034 24399 net.cpp:148] Top shape: 200 2 1 4096 (1638400)
I0810 21:28:35.277041 24399 net.cpp:156] Memory required for data: 326675200
I0810 21:28:35.277047 24399 layer_factory.hpp:77] Creating layer InnerProduct37
I0810 21:28:35.277060 24399 net.cpp:91] Creating Layer InnerProduct37
I0810 21:28:35.277068 24399 net.cpp:425] InnerProduct37 <- Concat19
I0810 21:28:35.277081 24399 net.cpp:399] InnerProduct37 -> InnerProduct37
I0810 21:28:35.281425 24399 net.cpp:141] Setting up InnerProduct37
I0810 21:28:35.281457 24399 net.cpp:148] Top shape: 200 64 (12800)
I0810 21:28:35.281463 24399 net.cpp:156] Memory required for data: 326726400
I0810 21:28:35.281473 24399 net.cpp:484] Sharing parameters 'fc1_w' owned by layer 'InnerProduct1', param index 0
I0810 21:28:35.281482 24399 net.cpp:484] Sharing parameters 'fc1_b' owned by layer 'InnerProduct1', param index 1
I0810 21:28:35.281488 24399 layer_factory.hpp:77] Creating layer ReLU37
I0810 21:28:35.281504 24399 net.cpp:91] Creating Layer ReLU37
I0810 21:28:35.281515 24399 net.cpp:425] ReLU37 <- InnerProduct37
I0810 21:28:35.281528 24399 net.cpp:386] ReLU37 -> InnerProduct37 (in-place)
I0810 21:28:35.281543 24399 net.cpp:141] Setting up ReLU37
I0810 21:28:35.281555 24399 net.cpp:148] Top shape: 200 64 (12800)
I0810 21:28:35.281563 24399 net.cpp:156] Memory required for data: 326777600
I0810 21:28:35.281569 24399 layer_factory.hpp:77] Creating layer drop1
I0810 21:28:35.281581 24399 net.cpp:91] Creating Layer drop1
I0810 21:28:35.281594 24399 net.cpp:425] drop1 <- InnerProduct37
I0810 21:28:35.281608 24399 net.cpp:399] drop1 -> Dropout37
I0810 21:28:35.281625 24399 net.cpp:141] Setting up drop1
I0810 21:28:35.281635 24399 net.cpp:148] Top shape: 200 64 (12800)
I0810 21:28:35.281641 24399 net.cpp:156] Memory required for data: 326828800
I0810 21:28:35.281648 24399 layer_factory.hpp:77] Creating layer InnerProduct38
I0810 21:28:35.281663 24399 net.cpp:91] Creating Layer InnerProduct38
I0810 21:28:35.281671 24399 net.cpp:425] InnerProduct38 <- Dropout37
I0810 21:28:35.281682 24399 net.cpp:399] InnerProduct38 -> InnerProduct38
I0810 21:28:35.281745 24399 net.cpp:141] Setting up InnerProduct38
I0810 21:28:35.281759 24399 net.cpp:148] Top shape: 200 64 (12800)
I0810 21:28:35.281766 24399 net.cpp:156] Memory required for data: 326880000
I0810 21:28:35.281774 24399 net.cpp:484] Sharing parameters 'fc2_w' owned by layer 'InnerProduct2', param index 0
I0810 21:28:35.281781 24399 net.cpp:484] Sharing parameters 'fc2_b' owned by layer 'InnerProduct2', param index 1
I0810 21:28:35.281810 24399 layer_factory.hpp:77] Creating layer ReLU38
I0810 21:28:35.281821 24399 net.cpp:91] Creating Layer ReLU38
I0810 21:28:35.281828 24399 net.cpp:425] ReLU38 <- InnerProduct38
I0810 21:28:35.281837 24399 net.cpp:386] ReLU38 -> InnerProduct38 (in-place)
I0810 21:28:35.281848 24399 net.cpp:141] Setting up ReLU38
I0810 21:28:35.281858 24399 net.cpp:148] Top shape: 200 64 (12800)
I0810 21:28:35.281865 24399 net.cpp:156] Memory required for data: 326931200
I0810 21:28:35.281872 24399 layer_factory.hpp:77] Creating layer drop2
I0810 21:28:35.281882 24399 net.cpp:91] Creating Layer drop2
I0810 21:28:35.281889 24399 net.cpp:425] drop2 <- InnerProduct38
I0810 21:28:35.281903 24399 net.cpp:399] drop2 -> Dropout38
I0810 21:28:35.281918 24399 net.cpp:141] Setting up drop2
I0810 21:28:35.281927 24399 net.cpp:148] Top shape: 200 64 (12800)
I0810 21:28:35.281934 24399 net.cpp:156] Memory required for data: 326982400
I0810 21:28:35.281940 24399 layer_factory.hpp:77] Creating layer m19
I0810 21:28:35.281955 24399 net.cpp:91] Creating Layer m19
I0810 21:28:35.281962 24399 net.cpp:425] m19 <- Dropout38
I0810 21:28:35.281973 24399 net.cpp:399] m19 -> m19
I0810 21:28:35.281998 24399 net.cpp:141] Setting up m19
I0810 21:28:35.282007 24399 net.cpp:148] Top shape: 200 1 (200)
I0810 21:28:35.282013 24399 net.cpp:156] Memory required for data: 326983200
I0810 21:28:35.282021 24399 net.cpp:484] Sharing parameters 'fc3_w' owned by layer 'm1', param index 0
I0810 21:28:35.282028 24399 net.cpp:484] Sharing parameters 'fc3_b' owned by layer 'm1', param index 1
I0810 21:28:35.282035 24399 layer_factory.hpp:77] Creating layer con
I0810 21:28:35.282052 24399 net.cpp:91] Creating Layer con
…
I0810 21:28:35.282142 24399 net.cpp:425] con <- m11
I0810 21:28:35.282150 24399 net.cpp:425] con <- m12
I0810 21:28:35.282157 24399 net.cpp:425] con <- m13
I0810 21:28:35.282165 24399 net.cpp:425] con <- m14
I0810 21:28:35.282171 24399 net.cpp:425] con <- m15
I0810 21:28:35.282178 24399 net.cpp:425] con <- m16
I0810 21:28:35.282186 24399 net.cpp:425] con <- m17
I0810 21:28:35.282192 24399 net.cpp:425] con <- m18
I0810 21:28:35.282201 24399 net.cpp:425] con <- m19
I0810 21:28:35.282217 24399 net.cpp:399] con -> con
I0810 21:28:35.282236 24399 net.cpp:141] Setting up con
I0810 21:28:35.282245 24399 net.cpp:148] Top shape: 200 19 (3800)
I0810 21:28:35.282251 24399 net.cpp:156] Memory required for data: 326998400
I0810 21:28:35.282258 24399 layer_factory.hpp:77] Creating layer r1
I0810 21:28:35.282271 24399 net.cpp:91] Creating Layer r1
I0810 21:28:35.282279 24399 net.cpp:425] r1 <- con
I0810 21:28:35.282289 24399 net.cpp:399] r1 -> r1
I0810 21:28:35.282315 24399 net.cpp:141] Setting up r1
I0810 21:28:35.282326 24399 net.cpp:148] Top shape: 200 1 1 19 (3800)
I0810 21:28:35.282333 24399 net.cpp:156] Memory required for data: 327013600
I0810 21:28:35.282340 24399 layer_factory.hpp:77] Creating layer p
I0810 21:28:35.282351 24399 net.cpp:91] Creating Layer p
I0810 21:28:35.282359 24399 net.cpp:425] p <- r1
I0810 21:28:35.282369 24399 net.cpp:399] p -> p
I0810 21:28:35.282402 24399 net.cpp:141] Setting up p
I0810 21:28:35.282412 24399 net.cpp:148] Top shape: 200 1 1 1 (200)
I0810 21:28:35.282418 24399 net.cpp:156] Memory required for data: 327014400
I0810 21:28:35.282424 24399 layer_factory.hpp:77] Creating layer r2
I0810 21:28:35.282438 24399 net.cpp:91] Creating Layer r2
I0810 21:28:35.282445 24399 net.cpp:425] r2 <- p
I0810 21:28:35.282455 24399 net.cpp:399] r2 -> r2
I0810 21:28:35.282469 24399 net.cpp:141] Setting up r2
I0810 21:28:35.282491 24399 net.cpp:148] Top shape: 200 1 1 1 (200)
I0810 21:28:35.282498 24399 net.cpp:156] Memory required for data: 327015200
I0810 21:28:35.282505 24399 layer_factory.hpp:77] Creating layer padL
I0810 21:28:35.282518 24399 net.cpp:91] Creating Layer padL
I0810 21:28:35.282526 24399 net.cpp:425] padL <- label_data_1_split_1
I0810 21:28:35.282537 24399 net.cpp:399] padL -> padL
I0810 21:28:35.282552 24399 net.cpp:141] Setting up padL
I0810 21:28:35.282560 24399 net.cpp:148] Top shape: 200 1 1 1 (200)
I0810 21:28:35.282567 24399 net.cpp:156] Memory required for data: 327016000
I0810 21:28:35.282572 24399 layer_factory.hpp:77] Creating layer pad
I0810 21:28:35.282582 24399 net.cpp:91] Creating Layer pad
I0810 21:28:35.282589 24399 net.cpp:425] pad <- r2
I0810 21:28:35.282598 24399 net.cpp:425] pad <- padL
I0810 21:28:35.282610 24399 net.cpp:399] pad -> pad
I0810 21:28:35.282625 24399 net.cpp:141] Setting up pad
I0810 21:28:35.282635 24399 net.cpp:148] Top shape: 200 2 1 1 (400)
I0810 21:28:35.282642 24399 net.cpp:156] Memory required for data: 327017600
I0810 21:28:35.282649 24399 layer_factory.hpp:77] Creating layer pad_pad_0_split
I0810 21:28:35.282658 24399 net.cpp:91] Creating Layer pad_pad_0_split
I0810 21:28:35.282666 24399 net.cpp:425] pad_pad_0_split <- pad
I0810 21:28:35.282677 24399 net.cpp:399] pad_pad_0_split -> pad_pad_0_split_0
I0810 21:28:35.282690 24399 net.cpp:399] pad_pad_0_split -> pad_pad_0_split_1
I0810 21:28:35.282702 24399 net.cpp:141] Setting up pad_pad_0_split
I0810 21:28:35.282712 24399 net.cpp:148] Top shape: 200 2 1 1 (400)
I0810 21:28:35.282721 24399 net.cpp:148] Top shape: 200 2 1 1 (400)
I0810 21:28:35.282727 24399 net.cpp:156] Memory required for data: 327020800
I0810 21:28:35.282733 24399 layer_factory.hpp:77] Creating layer loss
I0810 21:28:35.282743 24399 net.cpp:91] Creating Layer loss
I0810 21:28:35.282752 24399 net.cpp:425] loss <- pad_pad_0_split_0
I0810 21:28:35.282759 24399 net.cpp:425] loss <- th_th_0_split_0
I0810 21:28:35.282771 24399 net.cpp:399] loss -> loss
…
I0810 21:28:35.284437 24399 net.cpp:274] Network initialization done.
I0810 21:28:35.288162 24399 solver.cpp:181] Creating test net (#0) specified by test_net file: examples/scene/metNetTest.prototxt
I0810 21:28:35.289338 24399 net.cpp:49] Initializing net from parameters: 
state {
  phase: TEST
}
layer {
  name: "data"
  type: "Data"
  top: "data"
  top: "label"
  include {
    phase: TEST
  }
  transform_param {
    scale: 1
    mirror: false
  }
  data_param {
    source: "/home/shaogang/Datasets/FeatsDB/featsTest1k"
    batch_size: 100
    backend: LMDB
  }
}
layer {
  name: "th"
  type: "Threshold"
  bottom: "label"
  top: "th"
  threshold_param {
    threshold: 0
  }
}
layer {
  name: "i1"
  type: "Slice"
  bottom: "data"
  top: "i1"
  top: "i2"
  top: "i3"
  top: "i4"
  top: "i5"
  top: "i6"
  top: "i7"
  top: "i8"
  top: "i9"
  top: "i10"
  top: "i11"
  top: "i12"
  top: "i13"
  top: "i14"
  top: "i15"
  top: "i16"
  top: "i17"
  top: "i18"
  top: "i19"
  top: "i20"
  slice_param {
    slice_dim: 2
    slice_point: 1
    slice_point: 2
    slice_point: 3
    slice_point: 4
    slice_point: 5
    slice_point: 6
    slice_point: 7
    slice_point: 8
    slice_point: 9
    slice_point: 10
    slice_point: 11
    slice_point: 12
    slice_point: 13
    slice_point: 14
    slice_point: 15
    slice_point: 16
    slice_point: 17
    slice_point: 18
    slice_point: 19
  }
}
layer {
  name: "Concat1"
  type: "Concat"
  bottom: "i1"
  bottom: "i11"
  top: "Concat1"
  concat_param {
    axis: 1
  }
}
layer {
  name: "InnerProduct1"
  type: "InnerProduct"
  bottom: "Concat1"
  top: "InnerProduct1"
  param {
    name: "fc1_w"
    lr_mult: 1
  }
  param {
    name: "fc1_b"
    lr_mult: 2
  }
  inner_product_param {
    num_output: 64
    weight_filler {
      type: "xavier"
    }
    bias_filler {
      type: "constant"
    }
  }
}
layer {
  name: "ReLU1"
  type: "ReLU"
  bottom: "InnerProduct1"
  top: "InnerProduct1"
}
layer {
  name: "drop1"
  type: "Dropout"
  bottom: "InnerProduct1"
  top: "Dropout1"
  dropout_param {
    dropout_ratio: 0.5
  }
}
layer {
  name: "InnerProduct2"
  type: "InnerProduct"
  bottom: "Dropout1"
  top: "InnerProduct2"
  param {
    name: "fc2_w"
    lr_mult: 1
  }
  param {
    name: "fc2_b"
    lr_mult: 2
  }
  inner_product_param {
    num_output: 64
    weight_filler {
      type: "xavier"
    }
    bias_filler {
      type: "constant"
    }
  }
}
layer {
  name: "ReLU2"
  type: "ReLU"
  bottom: "InnerProduct2"
  top: "InnerProduct2"
}
layer {
  name: "drop2"
  type: "Dropout"
  bottom: "InnerProduct2"
  top: "Dropout2"
  dropout_param {
    dropout_ratio: 0.5
  }
}
layer {
  name: "m1"
  type: "InnerProduct"
  bottom: "Dropout2"
  top: "m1"
  param {
    name: "fc3_w"
    lr_mult: 1
  }
  param {
    name: "fc3_b"
    lr_mult: 2
  }
  inner_product_param {
    num_output: 1
    weight_filler {
      type: "xavier"
    }
    bias_filler {
      type: "constant"
    }
  }
}
layer {
  name: "Concat2"
  type: "Concat"
  bottom: "i1"
  bottom: "i12"
  top: "Concat2"
  concat_param {
    axis: 1
  }
}
layer {
  name: "InnerProduct3"
  type: "InnerProduct"
  bottom: "Concat2"
  top: "InnerProduct3"
  param {
    name: "fc1_w"
    lr_mult: 1
  }
  param {
    name: "fc1_b"
    lr_mult: 2
  }
  inner_product_param {
    num_output: 64
    weight_filler {
      type: "xavier"
    }
    bias_filler {
      type: "constant"
    }
  }
}
layer {
  name: "ReLU3"
  type: "ReLU"
  bottom: "InnerProduct3"
  top: "InnerProduct3"
}
layer {
  name: "drop1"
  type: "Dropout"
  bottom: "InnerProduct3"
  top: "Dropout3"
  dropout_param {
    dropout_ratio: 0.5
  }
}
layer {
  name: "InnerProduct4"
  type: "InnerProduct"
  bottom: "Dropout3"
  top: "InnerProduct4"
  param {
    name: "fc2_w"
    lr_mult: 1
  }
  param {
    name: "fc2_b"
    lr_mult: 2
  }
  inner_product_param {
    num_output: 64
    weight_filler {
      type: "xavier"
    }
    bias_filler {
      type: "constant"
    }
  }
}
layer {
  name: "ReLU4"
  type: "ReLU"
  bottom: "InnerProduct4"
  top: "InnerProduct4"
}
layer {
  name: "drop2"
  type: "Dropout"
  bottom: "InnerProduct4"
  top: "Dropout4"
  dropout_param {
    dropout_ratio: 0.5
  }
}
layer {
  name: "m2"
  type: "InnerProduct"
  bottom: "Dropout4"
  top: "m2"
  param {
    name: "fc3_w"
    lr_mult: 1
  }
  param {
    name: "fc3_b"
    lr_mult: 2
  }
  inner_product_param {
    num_output: 1
    weight_filler {
      type: "xavier"
    }
    bias_filler {
      type: "constant"
    }
  }
}
layer {
  name: "Concat3"
  type: "Concat"
  bottom: "i1"
  bottom: "i13"
  top: "Concat3"
  concat_param {
    axis: 1
  }
}
layer {
  name: "InnerProduct5"
  type: "InnerProduct"
  bottom: "Concat3"
  top: "InnerProduct5"
  param {
    name: "fc1_w"
    lr_mult: 1
  }
  param {
    name: "fc1_b"
    lr_mult: 2
  }
  inner_product_param {
    num_output: 64
    weight_filler {
      type: "xavier"
    }
    bias_filler {
      type: "constant"
    }
  }
}
layer {
  name: "ReLU5"
  type: "ReLU"
  bottom: "InnerProduct5"
  top: "InnerProduct5"
}
layer {
  name: "drop1"
  type: "Dropout"
  bottom: "InnerProduct5"
  top: "Dropout5"
  dropout_param {
    dropout_ratio: 0.5
  }
}
layer {
  name: "InnerProduct6"
  type: "InnerProduct"
  bottom: "Dropout5"
  top: "InnerProduct6"
  param {
    name: "fc2_w"
    lr_mult: 1
  }
  param {
    name: "fc2_b"
    lr_mult: 2
  }
  inner_product_param {
    num_output: 64
    weight_filler {
      type: "xavier"
    }
    bias_filler {
      type: "constant"
    }
  }
}
layer {
  name: "ReLU6"
  type: "ReLU"
  bottom: "InnerProduct6"
  top: "InnerProduct6"
}
layer {
  name: "drop2"
  type: "Dropout"
  bottom: "InnerProduct6"
  top: "Dropout6"
  dropout_param {
    dropout_ratio: 0.5
  }
}
layer {
  name: "m3"
  type: "InnerProduct"
  bottom: "Dropout6"
  top: "m3"
  param {
    name: "fc3_w"
    lr_mult: 1
  }
  param {
    name: "fc3_b"
    lr_mult: 2
  }
  inner_product_param {
    num_output: 1
    weight_filler {
      type: "xavier"
    }
    bias_filler {
      type: "constant"
    }
  }
}
layer {
  name: "Concat4"
  type: "Concat"
  bottom: "i1"
  bottom: "i14"
  top: "Concat4"
  concat_param {
    axis: 1
  }
}
layer {
  name: "InnerProduct7"
  type: "InnerProduct"
  bottom: "Concat4"
  top: "InnerProduct7"
  param {
    name: "fc1_w"
    lr_mult: 1
  }
  param {
    name: "fc1_b"
    lr_mult: 2
  }
  inner_product_param {
    num_output: 64
    weight_filler {
      type: "xavier"
    }
    bias_filler {
      type: "constant"
    }
  }
}
layer {
  name: "ReLU7"
  type: "ReLU"
  bottom: "InnerProduct7"
  top: "InnerProduct7"
}
layer {
  name: "drop1"
  type: "Dropout"
  bottom: "InnerProduct7"
  top: "Dropout7"
  dropout_param {
    dropout_ratio: 0.5
  }
}
layer {
  name: "InnerProduct8"
  type: "InnerProduct"
  bottom: "Dropout7"
  top: "InnerProduct8"
  param {
    name: "fc2_w"
    lr_mult: 1
  }
  param {
    name: "fc2_b"
    lr_mult: 2
  }
  inner_product_param {
    num_output: 64
    weight_filler {
      type: "xavier"
    }
    bias_filler {
      type: "constant"
    }
  }
}
layer {
  name: "ReLU8"
  type: "ReLU"
  bottom: "InnerProduct8"
  top: "InnerProduct8"
}
layer {
  name: "drop2"
  type: "Dropout"
  bottom: "InnerProduct8"
  top: "Dropout8"
  dropout_param {
    dropout_ratio: 0.5
  }
}
layer {
  name: "m4"
  type: "InnerProduct"
  bottom: "Dropout8"
  top: "m4"
  param {
    name: "fc3_w"
    lr_mult: 1
  }
  param {
    name: "fc3_b"
    lr_mult: 2
  }
  inner_product_param {
    num_output: 1
    weight_filler {
      type: "xavier"
    }
    bias_filler {
      type: "constant"
    }
  }
}
layer {
  name: "Concat5"
  type: "Concat"
  bottom: "i1"
  bottom: "i15"
  top: "Concat5"
  concat_param {
    axis: 1
  }
}
layer {
  name: "InnerProduct9"
  type: "InnerProduct"
  bottom: "Concat5"
  top: "InnerProduct9"
  param {
    name: "fc1_w"
    lr_mult: 1
  }
  param {
    name: "fc1_b"
    lr_mult: 2
  }
  inner_product_param {
    num_output: 64
    weight_filler {
      type: "xavier"
    }
    bias_filler {
      type: "constant"
    }
  }
}
layer {
  name: "ReLU9"
  type: "ReLU"
  bottom: "InnerProduct9"
  top: "InnerProduct9"
}
layer {
  name: "drop1"
  type: "Dropout"
  bottom: "InnerProduct9"
  top: "Dropout9"
  dropout_param {
    dropout_ratio: 0.5
  }
}
layer {
  name: "InnerProduct10"
  type: "InnerProduct"
  bottom: "Dropout9"
  top: "InnerProduct10"
  param {
    name: "fc2_w"
    lr_mult: 1
  }
  param {
    name: "fc2_b"
    lr_mult: 2
  }
  inner_product_param {
    num_output: 64
    weight_filler {
      type: "xavier"
    }
    bias_filler {
      type: "constant"
    }
  }
}
layer {
  name: "ReLU10"
  type: "ReLU"
  bottom: "InnerProduct10"
  top: "InnerProduct10"
}
layer {
  name: "drop2"
  type: "Dropout"
  bottom: "InnerProduct10"
  top: "Dropout10"
  dropout_param {
    dropout_ratio: 0.5
  }
}
layer {
  name: "m5"
  type: "InnerProduct"
  bottom: "Dropout10"
  top: "m5"
  param {
    name: "fc3_w"
    lr_mult: 1
  }
  param {
    name: "fc3_b"
    lr_mult: 2
  }
  inner_product_param {
    num_output: 1
    weight_filler {
      type: "xavier"
    }
    bias_filler {
      type: "constant"
    }
  }
}
layer {
  name: "Concat6"
  type: "Concat"
  bottom: "i1"
  bottom: "i16"
  top: "Concat6"
  concat_param {
    axis: 1
  }
}
layer {
  name: "InnerProduct11"
  type: "InnerProduct"
  bottom: "Concat6"
  top: "InnerProduct11"
  param {
    name: "fc1_w"
    lr_mult: 1
  }
  param {
    name: "fc1_b"
    lr_mult: 2
  }
  inner_product_param {
    num_output: 64
    weight_filler {
      type: "xavier"
    }
    bias_filler {
      type: "constant"
    }
  }
}
layer {
  name: "ReLU11"
  type: "ReLU"
  bottom: "InnerProduct11"
  top: "InnerProduct11"
}
layer {
  name: "drop1"
  type: "Dropout"
  bottom: "InnerProduct11"
  top: "Dropout11"
  dropout_param {
    dropout_ratio: 0.5
  }
}
layer {
  name: "InnerProduct12"
  type: "InnerProduct"
  bottom: "Dropout11"
  top: "InnerProduct12"
  param {
    name: "fc2_w"
    lr_mult: 1
  }
  param {
    name: "fc2_b"
    lr_mult: 2
  }
  inner_product_param {
    num_output: 64
    weight_filler {
      type: "xavier"
    }
    bias_filler {
      type: "constant"
    }
  }
}
layer {
  name: "ReLU12"
  type: "ReLU"
  bottom: "InnerProduct12"
  top: "InnerProduct12"
}
layer {
  name: "drop2"
  type: "Dropout"
  bottom: "InnerProduct12"
  top: "Dropout12"
  dropout_param {
    dropout_ratio: 0.5
  }
}
layer {
  name: "m6"
  type: "InnerProduct"
  bottom: "Dropout12"
  top: "m6"
  param {
    name: "fc3_w"
    lr_mult: 1
  }
  param {
    name: "fc3_b"
    lr_mult: 2
  }
  inner_product_param {
    num_output: 1
    weight_filler {
      type: "xavier"
    }
    bias_filler {
      type: "constant"
    }
  }
}
layer {
  name: "Concat7"
  type: "Concat"
  bottom: "i1"
  bottom: "i17"
  top: "Concat7"
  concat_param {
    axis: 1
  }
}
layer {
  name: "InnerProduct13"
  type: "InnerProduct"
  bottom: "Concat7"
  top: "InnerProduct13"
  param {
    name: "fc1_w"
    lr_mult: 1
  }
  param {
    name: "fc1_b"
    lr_mult: 2
  }
  inner_product_param {
    num_output: 64
    weight_filler {
      type: "xavier"
    }
    bias_filler {
      type: "constant"
    }
  }
}
layer {
  name: "ReLU13"
  type: "ReLU"
  bottom: "InnerProduct13"
  top: "InnerProduct13"
}
layer {
  name: "drop1"
  type: "Dropout"
  bottom: "InnerProduct13"
  top: "Dropout13"
  dropout_param {
    dropout_ratio: 0.5
  }
}
layer {
  name: "InnerProduct14"
  type: "InnerProduct"
  bottom: "Dropout13"
  top: "InnerProduct14"
  param {
    name: "fc2_w"
    lr_mult: 1
  }
  param {
    name: "fc2_b"
    lr_mult: 2
  }
  inner_product_param {
    num_output: 64
    weight_filler {
      type: "xavier"
    }
    bias_filler {
      type: "constant"
    }
  }
}
layer {
  name: "ReLU14"
  type: "ReLU"
  bottom: "InnerProduct14"
  top: "InnerProduct14"
}
layer {
  name: "drop2"
  type: "Dropout"
  bottom: "InnerProduct14"
  top: "Dropout14"
  dropout_param {
    dropout_ratio: 0.5
  }
}
layer {
  name: "m7"
  type: "InnerProduct"
  bottom: "Dropout14"
  top: "m7"
  param {
    name: "fc3_w"
    lr_mult: 1
  }
  param {
    name: "fc3_b"
    lr_mult: 2
  }
  inner_product_param {
    num_output: 1
    weight_filler {
      type: "xavier"
    }
    bias_filler {
      type: "constant"
    }
  }
}
layer {
  name: "Concat8"
  type: "Concat"
  bottom: "i1"
  bottom: "i18"
  top: "Concat8"
  concat_param {
    axis: 1
  }
}
layer {
  name: "InnerProduct15"
  type: "InnerProduct"
  bottom: "Concat8"
  top: "InnerProduct15"
  param {
    name: "fc1_w"
    lr_mult: 1
  }
  param {
    name: "fc1_b"
    lr_mult: 2
  }
  inner_product_param {
    num_output: 64
    weight_filler {
      type: "xavier"
    }
    bias_filler {
      type: "constant"
    }
  }
}
layer {
  name: "ReLU15"
  type: "ReLU"
  bottom: "InnerProduct15"
  top: "InnerProduct15"
}
layer {
  name: "drop1"
  type: "Dropout"
  bottom: "InnerProduct15"
  top: "Dropout15"
  dropout_param {
    dropout_ratio: 0.5
  }
}
layer {
  name: "InnerProduct16"
  type: "InnerProduct"
  bottom: "Dropout15"
  top: "InnerProduct16"
  param {
    name: "fc2_w"
    lr_mult: 1
  }
  param {
    name: "fc2_b"
    lr_mult: 2
  }
  inner_product_param {
    num_output: 64
    weight_filler {
      type: "xavier"
    }
    bias_filler {
      type: "constant"
    }
  }
}
layer {
  name: "ReLU16"
  type: "ReLU"
  bottom: "InnerProduct16"
  top: "InnerProduct16"
}
layer {
  name: "drop2"
  type: "Dropout"
  bottom: "InnerProduct16"
  top: "Dropout16"
  dropout_param {
    dropout_ratio: 0.5
  }
}
layer {
  name: "m8"
  type: "InnerProduct"
  bottom: "Dropout16"
  top: "m8"
  param {
    name: "fc3_w"
    lr_mult: 1
  }
  param {
    name: "fc3_b"
    lr_mult: 2
  }
  inner_product_param {
    num_output: 1
    weight_filler {
      type: "xavier"
    }
    bias_filler {
      type: "constant"
    }
  }
}
layer {
  name: "Concat9"
  type: "Concat"
  bottom: "i1"
  bottom: "i19"
  top: "Concat9"
  concat_param {
    axis: 1
  }
}
layer {
  name: "InnerProduct17"
  type: "InnerProduct"
  bottom: "Concat9"
  top: "InnerProduct17"
  param {
    name: "fc1_w"
    lr_mult: 1
  }
  param {
    name: "fc1_b"
    lr_mult: 2
  }
  inner_product_param {
    num_output: 64
    weight_filler {
      type: "xavier"
    }
    bias_filler {
      type: "constant"
    }
  }
}
layer {
  name: "ReLU17"
  type: "ReLU"
  bottom: "InnerProduct17"
  top: "InnerProduct17"
}
layer {
  name: "drop1"
  type: "Dropout"
  bottom: "InnerProduct17"
  top: "Dropout17"
  dropout_param {
    dropout_ratio: 0.5
  }
}
layer {
  name: "InnerProduct18"
  type: "InnerProduct"
  bottom: "Dropout17"
  top: "InnerProduct18"
  param {
    name: "fc2_w"
    lr_mult: 1
  }
  param {
    name: "fc2_b"
    lr_mult: 2
  }
  inner_product_param {
    num_output: 64
    weight_filler {
      type: "xavier"
    }
    bias_filler {
      type: "constant"
    }
  }
}
layer {
  name: "ReLU18"
  type: "ReLU"
  bottom: "InnerProduct18"
  top: "InnerProduct18"
}
layer {
  name: "drop2"
  type: "Dropout"
  bottom: "InnerProduct18"
  top: "Dropout18"
  dropout_param {
    dropout_ratio: 0.5
  }
}
layer {
  name: "m9"
  type: "InnerProduct"
  bottom: "Dropout18"
  top: "m9"
  param {
    name: "fc3_w"
    lr_mult: 1
  }
  param {
    name: "fc3_b"
    lr_mult: 2
  }
  inner_product_param {
    num_output: 1
    weight_filler {
      type: "xavier"
    }
    bias_filler {
      type: "constant"
    }
  }
}
layer {
  name: "Concat10"
  type: "Concat"
  bottom: "i1"
  bottom: "i20"
  top: "Concat10"
  concat_param {
    axis: 1
  }
}
layer {
  name: "InnerProduct19"
  type: "InnerProduct"
  bottom: "Concat10"
  top: "InnerProduct19"
  param {
    name: "fc1_w"
    lr_mult: 1
  }
  param {
    name: "fc1_b"
    lr_mult: 2
  }
  inner_product_param {
    num_output: 64
    weight_filler {
      type: "xavier"
    }
    bias_filler {
      type: "constant"
    }
  }
}
layer {
  name: "ReLU19"
  type: "ReLU"
  bottom: "InnerProduct19"
  top: "InnerProduct19"
}
layer {
  name: "drop1"
  type: "Dropout"
  bottom: "InnerProduct19"
  top: "Dropout19"
  dropout_param {
    dropout_ratio: 0.5
  }
}
layer {
  name: "InnerProduct20"
  type: "InnerProduct"
  bottom: "Dropout19"
  top: "InnerProduct20"
  param {
    name: "fc2_w"
    lr_mult: 1
  }
  param {
    name: "fc2_b"
    lr_mult: 2
  }
  inner_product_param {
    num_output: 64
    weight_filler {
      type: "xavier"
    }
    bias_filler {
      type: "constant"
    }
  }
}
layer {
  name: "ReLU20"
  type: "ReLU"
  bottom: "InnerProduct20"
  top: "InnerProduct20"
}
layer {
  name: "drop2"
  type: "Dropout"
  bottom: "InnerProduct20"
  top: "Dropout20"
  dropout_param {
    dropout_ratio: 0.5
  }
}
layer {
  name: "m10"
  type: "InnerProduct"
  bottom: "Dropout20"
  top: "m10"
  param {
    name: "fc3_w"
    lr_mult: 1
  }
  param {
    name: "fc3_b"
    lr_mult: 2
  }
  inner_product_param {
    num_output: 1
    weight_filler {
      type: "xavier"
    }
    bias_filler {
      type: "constant"
    }
  }
}
layer {
  name: "Concat11"
  type: "Concat"
  bottom: "i2"
  bottom: "i11"
  top: "Concat11"
  concat_param {
    axis: 1
  }
}
layer {
  name: "InnerProduct21"
  type: "InnerProduct"
  bottom: "Concat11"
  top: "InnerProduct21"
  param {
    name: "fc1_w"
    lr_mult: 1
  }
  param {
    name: "fc1_b"
    lr_mult: 2
  }
  inner_product_param {
    num_output: 64
    weight_filler {
      type: "xavier"
    }
    bias_filler {
      type: "constant"
    }
  }
}
layer {
  name: "ReLU21"
  type: "ReLU"
  bottom: "InnerProduct21"
  top: "InnerProduct21"
}
layer {
  name: "drop1"
  type: "Dropout"
  bottom: "InnerProduct21"
  top: "Dropout21"
  dropout_param {
    dropout_ratio: 0.5
  }
}
layer {
  name: "InnerProduct22"
  type: "InnerProduct"
  bottom: "Dropout21"
  top: "InnerProduct22"
  param {
    name: "fc2_w"
    lr_mult: 1
  }
  param {
    name: "fc2_b"
    lr_mult: 2
  }
  inner_product_param {
    num_output: 64
    weight_filler {
      type: "xavier"
    }
    bias_filler {
      type: "constant"
    }
  }
}
layer {
  name: "ReLU22"
  type: "ReLU"
  bottom: "InnerProduct22"
  top: "InnerProduct22"
}
layer {
  name: "drop2"
  type: "Dropout"
  bottom: "InnerProduct22"
  top: "Dropout22"
  dropout_param {
    dropout_ratio: 0.5
  }
}
layer {
  name: "m11"
  type: "InnerProduct"
  bottom: "Dropout22"
  top: "m11"
  param {
    name: "fc3_w"
    lr_mult: 1
  }
  param {
    name: "fc3_b"
    lr_mult: 2
  }
  inner_product_param {
    num_output: 1
    weight_filler {
      type: "xavier"
    }
    bias_filler {
      type: "constant"
    }
  }
}
layer {
  name: "Concat12"
  type: "Concat"
  bottom: "i3"
  bottom: "i11"
  top: "Concat12"
  concat_param {
    axis: 1
  }
}
layer {
  name: "InnerProduct23"
  type: "InnerProduct"
  bottom: "Concat12"
  top: "InnerProduct23"
  param {
    name: "fc1_w"
    lr_mult: 1
  }
  param {
    name: "fc1_b"
    lr_mult: 2
  }
  inner_product_param {
    num_output: 64
    weight_filler {
      type: "xavier"
    }
    bias_filler {
      type: "constant"
    }
  }
}
layer {
  name: "ReLU23"
  type: "ReLU"
  bottom: "InnerProduct23"
  top: "InnerProduct23"
}
layer {
  name: "drop1"
  type: "Dropout"
  bottom: "InnerProduct23"
  top: "Dropout23"
  dropout_param {
    dropout_ratio: 0.5
  }
}
layer {
  name: "InnerProduct24"
  type: "InnerProduct"
  bottom: "Dropout23"
  top: "InnerProduct24"
  param {
    name: "fc2_w"
    lr_mult: 1
  }
  param {
    name: "fc2_b"
    lr_mult: 2
  }
  inner_product_param {
    num_output: 64
    weight_filler {
      type: "xavier"
    }
    bias_filler {
      type: "constant"
    }
  }
}
layer {
  name: "ReLU24"
  type: "ReLU"
  bottom: "InnerProduct24"
  top: "InnerProduct24"
}
layer {
  name: "drop2"
  type: "Dropout"
  bottom: "InnerProduct24"
  top: "Dropout24"
  dropout_param {
    dropout_ratio: 0.5
  }
}
layer {
  name: "m12"
  type: "InnerProduct"
  bottom: "Dropout24"
  top: "m12"
  param {
    name: "fc3_w"
    lr_mult: 1
  }
  param {
    name: "fc3_b"
    lr_mult: 2
  }
  inner_product_param {
    num_output: 1
    weight_filler {
      type: "xavier"
    }
    bias_filler {
      type: "constant"
    }
  }
}
layer {
  name: "Concat13"
  type: "Concat"
  bottom: "i4"
  bottom: "i11"
  top: "Concat13"
  concat_param {
    axis: 1
  }
}
layer {
  name: "InnerProduct25"
  type: "InnerProduct"
  bottom: "Concat13"
  top: "InnerProduct25"
  param {
    name: "fc1_w"
    lr_mult: 1
  }
  param {
    name: "fc1_b"
    lr_mult: 2
  }
  inner_product_param {
    num_output: 64
    weight_filler {
      type: "xavier"
    }
    bias_filler {
      type: "constant"
    }
  }
}
layer {
  name: "ReLU25"
  type: "ReLU"
  bottom: "InnerProduct25"
  top: "InnerProduct25"
}
layer {
  name: "drop1"
  type: "Dropout"
  bottom: "InnerProduct25"
  top: "Dropout25"
  dropout_param {
    dropout_ratio: 0.5
  }
}
layer {
  name: "InnerProduct26"
  type: "InnerProduct"
  bottom: "Dropout25"
  top: "InnerProduct26"
  param {
    name: "fc2_w"
    lr_mult: 1
  }
  param {
    name: "fc2_b"
    lr_mult: 2
  }
  inner_product_param {
    num_output: 64
    weight_filler {
      type: "xavier"
    }
    bias_filler {
      type: "constant"
    }
  }
}
layer {
  name: "ReLU26"
  type: "ReLU"
  bottom: "InnerProduct26"
  top: "InnerProduct26"
}
layer {
  name: "drop2"
  type: "Dropout"
  bottom: "InnerProduct26"
  top: "Dropout26"
  dropout_param {
    dropout_ratio: 0.5
  }
}
layer {
  name: "m13"
  type: "InnerProduct"
  bottom: "Dropout26"
  top: "m13"
  param {
    name: "fc3_w"
    lr_mult: 1
  }
  param {
    name: "fc3_b"
    lr_mult: 2
  }
  inner_product_param {
    num_output: 1
    weight_filler {
      type: "xavier"
    }
    bias_filler {
      type: "constant"
…
I0810 21:28:35.367038 24399 net.cpp:141] Setting up drop2
I0810 21:28:35.367048 24399 net.cpp:148] Top shape: 100 64 (6400)
I0810 21:28:35.367053 24399 net.cpp:156] Memory required for data: 129183200
I0810 21:28:35.367059 24399 layer_factory.hpp:77] Creating layer m9
I0810 21:28:35.367074 24399 net.cpp:91] Creating Layer m9
I0810 21:28:35.367081 24399 net.cpp:425] m9 <- Dropout18
I0810 21:28:35.367095 24399 net.cpp:399] m9 -> m9
I0810 21:28:35.367117 24399 net.cpp:141] Setting up m9
I0810 21:28:35.367126 24399 net.cpp:148] Top shape: 100 1 (100)
I0810 21:28:35.367131 24399 net.cpp:156] Memory required for data: 129183600
I0810 21:28:35.367138 24399 net.cpp:484] Sharing parameters 'fc3_w' owned by layer 'm1', param index 0
I0810 21:28:35.367146 24399 net.cpp:484] Sharing parameters 'fc3_b' owned by layer 'm1', param index 1
I0810 21:28:35.367152 24399 layer_factory.hpp:77] Creating layer Concat10
I0810 21:28:35.367164 24399 net.cpp:91] Creating Layer Concat10
I0810 21:28:35.367172 24399 net.cpp:425] Concat10 <- i1_i1_0_split_9
I0810 21:28:35.367179 24399 net.cpp:425] Concat10 <- i20
I0810 21:28:35.367190 24399 net.cpp:399] Concat10 -> Concat10
I0810 21:28:35.367203 24399 net.cpp:141] Setting up Concat10
I0810 21:28:35.367211 24399 net.cpp:148] Top shape: 100 2 1 4096 (819200)
I0810 21:28:35.367218 24399 net.cpp:156] Memory required for data: 132460400
I0810 21:28:35.367223 24399 layer_factory.hpp:77] Creating layer InnerProduct19
I0810 21:28:35.367233 24399 net.cpp:91] Creating Layer InnerProduct19
I0810 21:28:35.367240 24399 net.cpp:425] InnerProduct19 <- Concat10
I0810 21:28:35.367250 24399 net.cpp:399] InnerProduct19 -> InnerProduct19
I0810 21:28:35.372229 24399 net.cpp:141] Setting up InnerProduct19
I0810 21:28:35.372262 24399 net.cpp:148] Top shape: 100 64 (6400)
I0810 21:28:35.372267 24399 net.cpp:156] Memory required for data: 132486000
I0810 21:28:35.372277 24399 net.cpp:484] Sharing parameters 'fc1_w' owned by layer 'InnerProduct1', param index 0
I0810 21:28:35.372282 24399 net.cpp:484] Sharing parameters 'fc1_b' owned by layer 'InnerProduct1', param index 1
I0810 21:28:35.372289 24399 layer_factory.hpp:77] Creating layer ReLU19
I0810 21:28:35.372305 24399 net.cpp:91] Creating Layer ReLU19
I0810 21:28:35.372315 24399 net.cpp:425] ReLU19 <- InnerProduct19
I0810 21:28:35.372329 24399 net.cpp:386] ReLU19 -> InnerProduct19 (in-place)
I0810 21:28:35.372345 24399 net.cpp:141] Setting up ReLU19
I0810 21:28:35.372354 24399 net.cpp:148] Top shape: 100 64 (6400)
I0810 21:28:35.372359 24399 net.cpp:156] Memory required for data: 132511600
I0810 21:28:35.372364 24399 layer_factory.hpp:77] Creating layer drop1
I0810 21:28:35.372376 24399 net.cpp:91] Creating Layer drop1
I0810 21:28:35.372385 24399 net.cpp:425] drop1 <- InnerProduct19
I0810 21:28:35.372395 24399 net.cpp:399] drop1 -> Dropout19
I0810 21:28:35.372411 24399 net.cpp:141] Setting up drop1
I0810 21:28:35.372421 24399 net.cpp:148] Top shape: 100 64 (6400)
I0810 21:28:35.372426 24399 net.cpp:156] Memory required for data: 132537200
I0810 21:28:35.372431 24399 layer_factory.hpp:77] Creating layer InnerProduct20
I0810 21:28:35.372447 24399 net.cpp:91] Creating Layer InnerProduct20
I0810 21:28:35.372488 24399 net.cpp:425] InnerProduct20 <- Dropout19
I0810 21:28:35.372500 24399 net.cpp:399] InnerProduct20 -> InnerProduct20
I0810 21:28:35.372552 24399 net.cpp:141] Setting up InnerProduct20
I0810 21:28:35.372563 24399 net.cpp:148] Top shape: 100 64 (6400)
I0810 21:28:35.372570 24399 net.cpp:156] Memory required for data: 132562800
I0810 21:28:35.372576 24399 net.cpp:484] Sharing parameters 'fc2_w' owned by layer 'InnerProduct2', param index 0
I0810 21:28:35.372583 24399 net.cpp:484] Sharing parameters 'fc2_b' owned by layer 'InnerProduct2', param index 1
I0810 21:28:35.372591 24399 layer_factory.hpp:77] Creating layer ReLU20
I0810 21:28:35.372601 24399 net.cpp:91] Creating Layer ReLU20
I0810 21:28:35.372606 24399 net.cpp:425] ReLU20 <- InnerProduct20
I0810 21:28:35.372617 24399 net.cpp:386] ReLU20 -> InnerProduct20 (in-place)
I0810 21:28:35.372627 24399 net.cpp:141] Setting up ReLU20
I0810 21:28:35.372653 24399 net.cpp:148] Top shape: 100 64 (6400)
I0810 21:28:35.372659 24399 net.cpp:156] Memory required for data: 132588400
I0810 21:28:35.372665 24399 layer_factory.hpp:77] Creating layer drop2
I0810 21:28:35.372676 24399 net.cpp:91] Creating Layer drop2
I0810 21:28:35.372687 24399 net.cpp:425] drop2 <- InnerProduct20
I0810 21:28:35.372697 24399 net.cpp:399] drop2 -> Dropout20
I0810 21:28:35.372712 24399 net.cpp:141] Setting up drop2
I0810 21:28:35.372722 24399 net.cpp:148] Top shape: 100 64 (6400)
I0810 21:28:35.372728 24399 net.cpp:156] Memory required for data: 132614000
I0810 21:28:35.372735 24399 layer_factory.hpp:77] Creating layer m10
I0810 21:28:35.372750 24399 net.cpp:91] Creating Layer m10
I0810 21:28:35.372756 24399 net.cpp:425] m10 <- Dropout20
I0810 21:28:35.372768 24399 net.cpp:399] m10 -> m10
I0810 21:28:35.372792 24399 net.cpp:141] Setting up m10
I0810 21:28:35.372800 24399 net.cpp:148] Top shape: 100 1 (100)
I0810 21:28:35.372805 24399 net.cpp:156] Memory required for data: 132614400
I0810 21:28:35.372812 24399 net.cpp:484] Sharing parameters 'fc3_w' owned by layer 'm1', param index 0
I0810 21:28:35.372820 24399 net.cpp:484] Sharing parameters 'fc3_b' owned by layer 'm1', param index 1
I0810 21:28:35.372826 24399 layer_factory.hpp:77] Creating layer Concat11
I0810 21:28:35.372838 24399 net.cpp:91] Creating Layer Concat11
I0810 21:28:35.372846 24399 net.cpp:425] Concat11 <- i2
I0810 21:28:35.372856 24399 net.cpp:425] Concat11 <- i11_i1_10_split_1
I0810 21:28:35.372867 24399 net.cpp:399] Concat11 -> Concat11
I0810 21:28:35.372882 24399 net.cpp:141] Setting up Concat11
I0810 21:28:35.372892 24399 net.cpp:148] Top shape: 100 2 1 4096 (819200)
I0810 21:28:35.372898 24399 net.cpp:156] Memory required for data: 135891200
I0810 21:28:35.372905 24399 layer_factory.hpp:77] Creating layer InnerProduct21
I0810 21:28:35.372916 24399 net.cpp:91] Creating Layer InnerProduct21
I0810 21:28:35.372925 24399 net.cpp:425] InnerProduct21 <- Concat11
I0810 21:28:35.372936 24399 net.cpp:399] InnerProduct21 -> InnerProduct21
I0810 21:28:35.377672 24399 net.cpp:141] Setting up InnerProduct21
I0810 21:28:35.377707 24399 net.cpp:148] Top shape: 100 64 (6400)
I0810 21:28:35.377714 24399 net.cpp:156] Memory required for data: 135916800
I0810 21:28:35.377725 24399 net.cpp:484] Sharing parameters 'fc1_w' owned by layer 'InnerProduct1', param index 0
I0810 21:28:35.377735 24399 net.cpp:484] Sharing parameters 'fc1_b' owned by layer 'InnerProduct1', param index 1
I0810 21:28:35.377743 24399 layer_factory.hpp:77] Creating layer ReLU21
I0810 21:28:35.377760 24399 net.cpp:91] Creating Layer ReLU21
I0810 21:28:35.377773 24399 net.cpp:425] ReLU21 <- InnerProduct21
I0810 21:28:35.377787 24399 net.cpp:386] ReLU21 -> InnerProduct21 (in-place)
I0810 21:28:35.377805 24399 net.cpp:141] Setting up ReLU21
I0810 21:28:35.377815 24399 net.cpp:148] Top shape: 100 64 (6400)
I0810 21:28:35.377821 24399 net.cpp:156] Memory required for data: 135942400
I0810 21:28:35.377828 24399 layer_factory.hpp:77] Creating layer drop1
I0810 21:28:35.377841 24399 net.cpp:91] Creating Layer drop1
I0810 21:28:35.377851 24399 net.cpp:425] drop1 <- InnerProduct21
I0810 21:28:35.377863 24399 net.cpp:399] drop1 -> Dropout21
I0810 21:28:35.377881 24399 net.cpp:141] Setting up drop1
I0810 21:28:35.377893 24399 net.cpp:148] Top shape: 100 64 (6400)
I0810 21:28:35.377899 24399 net.cpp:156] Memory required for data: 135968000
I0810 21:28:35.377905 24399 layer_factory.hpp:77] Creating layer InnerProduct22
I0810 21:28:35.377921 24399 net.cpp:91] Creating Layer InnerProduct22
I0810 21:28:35.377929 24399 net.cpp:425] InnerProduct22 <- Dropout21
I0810 21:28:35.377943 24399 net.cpp:399] InnerProduct22 -> InnerProduct22
I0810 21:28:35.377995 24399 net.cpp:141] Setting up InnerProduct22
I0810 21:28:35.378005 24399 net.cpp:148] Top shape: 100 64 (6400)
I0810 21:28:35.378012 24399 net.cpp:156] Memory required for data: 135993600
I0810 21:28:35.378021 24399 net.cpp:484] Sharing parameters 'fc2_w' owned by layer 'InnerProduct2', param index 0
I0810 21:28:35.378051 24399 net.cpp:484] Sharing parameters 'fc2_b' owned by layer 'InnerProduct2', param index 1
I0810 21:28:35.378059 24399 layer_factory.hpp:77] Creating layer ReLU22
I0810 21:28:35.378070 24399 net.cpp:91] Creating Layer ReLU22
I0810 21:28:35.378077 24399 net.cpp:425] ReLU22 <- InnerProduct22
I0810 21:28:35.378088 24399 net.cpp:386] ReLU22 -> InnerProduct22 (in-place)
I0810 21:28:35.378101 24399 net.cpp:141] Setting up ReLU22
I0810 21:28:35.378113 24399 net.cpp:148] Top shape: 100 64 (6400)
I0810 21:28:35.378119 24399 net.cpp:156] Memory required for data: 136019200
I0810 21:28:35.378126 24399 layer_factory.hpp:77] Creating layer drop2
I0810 21:28:35.378136 24399 net.cpp:91] Creating Layer drop2
I0810 21:28:35.378144 24399 net.cpp:425] drop2 <- InnerProduct22
I0810 21:28:35.378154 24399 net.cpp:399] drop2 -> Dropout22
I0810 21:28:35.378167 24399 net.cpp:141] Setting up drop2
I0810 21:28:35.378176 24399 net.cpp:148] Top shape: 100 64 (6400)
I0810 21:28:35.378183 24399 net.cpp:156] Memory required for data: 136044800
I0810 21:28:35.378190 24399 layer_factory.hpp:77] Creating layer m11
I0810 21:28:35.378202 24399 net.cpp:91] Creating Layer m11
I0810 21:28:35.378211 24399 net.cpp:425] m11 <- Dropout22
I0810 21:28:35.378222 24399 net.cpp:399] m11 -> m11
I0810 21:28:35.378247 24399 net.cpp:141] Setting up m11
I0810 21:28:35.378254 24399 net.cpp:148] Top shape: 100 1 (100)
I0810 21:28:35.378262 24399 net.cpp:156] Memory required for data: 136045200
I0810 21:28:35.378284 24399 net.cpp:484] Sharing parameters 'fc3_w' owned by layer 'm1', param index 0
I0810 21:28:35.378293 24399 net.cpp:484] Sharing parameters 'fc3_b' owned by layer 'm1', param index 1
I0810 21:28:35.378299 24399 layer_factory.hpp:77] Creating layer Concat12
I0810 21:28:35.378312 24399 net.cpp:91] Creating Layer Concat12
I0810 21:28:35.378320 24399 net.cpp:425] Concat12 <- i3
I0810 21:28:35.378329 24399 net.cpp:425] Concat12 <- i11_i1_10_split_2
I0810 21:28:35.378341 24399 net.cpp:399] Concat12 -> Concat12
I0810 21:28:35.378358 24399 net.cpp:141] Setting up Concat12
I0810 21:28:35.378367 24399 net.cpp:148] Top shape: 100 2 1 4096 (819200)
I0810 21:28:35.378373 24399 net.cpp:156] Memory required for data: 139322000
I0810 21:28:35.378381 24399 layer_factory.hpp:77] Creating layer InnerProduct23
I0810 21:28:35.378394 24399 net.cpp:91] Creating Layer InnerProduct23
I0810 21:28:35.378401 24399 net.cpp:425] InnerProduct23 <- Concat12
I0810 21:28:35.378412 24399 net.cpp:399] InnerProduct23 -> InnerProduct23
I0810 21:28:35.382596 24399 net.cpp:141] Setting up InnerProduct23
I0810 21:28:35.382627 24399 net.cpp:148] Top shape: 100 64 (6400)
I0810 21:28:35.382632 24399 net.cpp:156] Memory required for data: 139347600
I0810 21:28:35.382644 24399 net.cpp:484] Sharing parameters 'fc1_w' owned by layer 'InnerProduct1', param index 0
I0810 21:28:35.382652 24399 net.cpp:484] Sharing parameters 'fc1_b' owned by layer 'InnerProduct1', param index 1
I0810 21:28:35.382659 24399 layer_factory.hpp:77] Creating layer ReLU23
I0810 21:28:35.382676 24399 net.cpp:91] Creating Layer ReLU23
I0810 21:28:35.382688 24399 net.cpp:425] ReLU23 <- InnerProduct23
I0810 21:28:35.382702 24399 net.cpp:386] ReLU23 -> InnerProduct23 (in-place)
I0810 21:28:35.382728 24399 net.cpp:141] Setting up ReLU23
I0810 21:28:35.382737 24399 net.cpp:148] Top shape: 100 64 (6400)
I0810 21:28:35.382745 24399 net.cpp:156] Memory required for data: 139373200
I0810 21:28:35.382751 24399 layer_factory.hpp:77] Creating layer drop1
I0810 21:28:35.382766 24399 net.cpp:91] Creating Layer drop1
I0810 21:28:35.382772 24399 net.cpp:425] drop1 <- InnerProduct23
I0810 21:28:35.382784 24399 net.cpp:399] drop1 -> Dropout23
I0810 21:28:35.382799 24399 net.cpp:141] Setting up drop1
I0810 21:28:35.382808 24399 net.cpp:148] Top shape: 100 64 (6400)
I0810 21:28:35.382815 24399 net.cpp:156] Memory required for data: 139398800
I0810 21:28:35.382822 24399 layer_factory.hpp:77] Creating layer InnerProduct24
I0810 21:28:35.382838 24399 net.cpp:91] Creating Layer InnerProduct24
I0810 21:28:35.382845 24399 net.cpp:425] InnerProduct24 <- Dropout23
I0810 21:28:35.382885 24399 net.cpp:399] InnerProduct24 -> InnerProduct24
I0810 21:28:35.382938 24399 net.cpp:141] Setting up InnerProduct24
I0810 21:28:35.382946 24399 net.cpp:148] Top shape: 100 64 (6400)
I0810 21:28:35.382952 24399 net.cpp:156] Memory required for data: 139424400
I0810 21:28:35.382959 24399 net.cpp:484] Sharing parameters 'fc2_w' owned by layer 'InnerProduct2', param index 0
I0810 21:28:35.382967 24399 net.cpp:484] Sharing parameters 'fc2_b' owned by layer 'InnerProduct2', param index 1
I0810 21:28:35.382974 24399 layer_factory.hpp:77] Creating layer ReLU24
I0810 21:28:35.382985 24399 net.cpp:91] Creating Layer ReLU24
I0810 21:28:35.382993 24399 net.cpp:425] ReLU24 <- InnerProduct24
I0810 21:28:35.383003 24399 net.cpp:386] ReLU24 -> InnerProduct24 (in-place)
I0810 21:28:35.383013 24399 net.cpp:141] Setting up ReLU24
I0810 21:28:35.383021 24399 net.cpp:148] Top shape: 100 64 (6400)
I0810 21:28:35.383028 24399 net.cpp:156] Memory required for data: 139450000
I0810 21:28:35.383033 24399 layer_factory.hpp:77] Creating layer drop2
I0810 21:28:35.383044 24399 net.cpp:91] Creating Layer drop2
I0810 21:28:35.383051 24399 net.cpp:425] drop2 <- InnerProduct24
I0810 21:28:35.383061 24399 net.cpp:399] drop2 -> Dropout24
I0810 21:28:35.383075 24399 net.cpp:141] Setting up drop2
I0810 21:28:35.383085 24399 net.cpp:148] Top shape: 100 64 (6400)
I0810 21:28:35.383091 24399 net.cpp:156] Memory required for data: 139475600
I0810 21:28:35.383098 24399 layer_factory.hpp:77] Creating layer m12
I0810 21:28:35.383112 24399 net.cpp:91] Creating Layer m12
I0810 21:28:35.383121 24399 net.cpp:425] m12 <- Dropout24
I0810 21:28:35.383134 24399 net.cpp:399] m12 -> m12
I0810 21:28:35.383157 24399 net.cpp:141] Setting up m12
I0810 21:28:35.383167 24399 net.cpp:148] Top shape: 100 1 (100)
I0810 21:28:35.383172 24399 net.cpp:156] Memory required for data: 139476000
I0810 21:28:35.383180 24399 net.cpp:484] Sharing parameters 'fc3_w' owned by layer 'm1', param index 0
I0810 21:28:35.383188 24399 net.cpp:484] Sharing parameters 'fc3_b' owned by layer 'm1', param index 1
I0810 21:28:35.383194 24399 layer_factory.hpp:77] Creating layer Concat13
I0810 21:28:35.383206 24399 net.cpp:91] Creating Layer Concat13
I0810 21:28:35.383214 24399 net.cpp:425] Concat13 <- i4
I0810 21:28:35.383222 24399 net.cpp:425] Concat13 <- i11_i1_10_split_3
I0810 21:28:35.383235 24399 net.cpp:399] Concat13 -> Concat13
I0810 21:28:35.383252 24399 net.cpp:141] Setting up Concat13
I0810 21:28:35.383262 24399 net.cpp:148] Top shape: 100 2 1 4096 (819200)
I0810 21:28:35.383268 24399 net.cpp:156] Memory required for data: 142752800
I0810 21:28:35.383275 24399 layer_factory.hpp:77] Creating layer InnerProduct25
I0810 21:28:35.383287 24399 net.cpp:91] Creating Layer InnerProduct25
I0810 21:28:35.383298 24399 net.cpp:425] InnerProduct25 <- Concat13
I0810 21:28:35.383309 24399 net.cpp:399] InnerProduct25 -> InnerProduct25
I0810 21:28:35.387408 24399 net.cpp:141] Setting up InnerProduct25
I0810 21:28:35.387439 24399 net.cpp:148] Top shape: 100 64 (6400)
I0810 21:28:35.387445 24399 net.cpp:156] Memory required for data: 142778400
I0810 21:28:35.387456 24399 net.cpp:484] Sharing parameters 'fc1_w' owned by layer 'InnerProduct1', param index 0
I0810 21:28:35.387465 24399 net.cpp:484] Sharing parameters 'fc1_b' owned by layer 'InnerProduct1', param index 1
I0810 21:28:35.387472 24399 layer_factory.hpp:77] Creating layer ReLU25
I0810 21:28:35.387490 24399 net.cpp:91] Creating Layer ReLU25
I0810 21:28:35.387501 24399 net.cpp:425] ReLU25 <- InnerProduct25
I0810 21:28:35.387516 24399 net.cpp:386] ReLU25 -> InnerProduct25 (in-place)
I0810 21:28:35.387543 24399 net.cpp:141] Setting up ReLU25
I0810 21:28:35.387552 24399 net.cpp:148] Top shape: 100 64 (6400)
I0810 21:28:35.387558 24399 net.cpp:156] Memory required for data: 142804000
I0810 21:28:35.387565 24399 layer_factory.hpp:77] Creating layer drop1
I0810 21:28:35.387578 24399 net.cpp:91] Creating Layer drop1
I0810 21:28:35.387586 24399 net.cpp:425] drop1 <- InnerProduct25
I0810 21:28:35.387599 24399 net.cpp:399] drop1 -> Dropout25
I0810 21:28:35.387634 24399 net.cpp:141] Setting up drop1
I0810 21:28:35.387647 24399 net.cpp:148] Top shape: 100 64 (6400)
I0810 21:28:35.387655 24399 net.cpp:156] Memory required for data: 142829600
I0810 21:28:35.387660 24399 layer_factory.hpp:77] Creating layer InnerProduct26
I0810 21:28:35.387677 24399 net.cpp:91] Creating Layer InnerProduct26
I0810 21:28:35.387686 24399 net.cpp:425] InnerProduct26 <- Dropout25
I0810 21:28:35.387696 24399 net.cpp:399] InnerProduct26 -> InnerProduct26
I0810 21:28:35.387748 24399 net.cpp:141] Setting up InnerProduct26
I0810 21:28:35.387756 24399 net.cpp:148] Top shape: 100 64 (6400)
I0810 21:28:35.387763 24399 net.cpp:156] Memory required for data: 142855200
I0810 21:28:35.387769 24399 net.cpp:484] Sharing parameters 'fc2_w' owned by layer 'InnerProduct2', param index 0
I0810 21:28:35.387778 24399 net.cpp:484] Sharing parameters 'fc2_b' owned by layer 'InnerProduct2', param index 1
I0810 21:28:35.387784 24399 layer_factory.hpp:77] Creating layer ReLU26
I0810 21:28:35.387794 24399 net.cpp:91] Creating Layer ReLU26
I0810 21:28:35.387801 24399 net.cpp:425] ReLU26 <- InnerProduct26
I0810 21:28:35.387811 24399 net.cpp:386] ReLU26 -> InnerProduct26 (in-place)
I0810 21:28:35.387821 24399 net.cpp:141] Setting up ReLU26
I0810 21:28:35.387830 24399 net.cpp:148] Top shape: 100 64 (6400)
I0810 21:28:35.387835 24399 net.cpp:156] Memory required for data: 142880800
I0810 21:28:35.387841 24399 layer_factory.hpp:77] Creating layer drop2
I0810 21:28:35.387852 24399 net.cpp:91] Creating Layer drop2
I0810 21:28:35.387861 24399 net.cpp:425] drop2 <- InnerProduct26
I0810 21:28:35.387871 24399 net.cpp:399] drop2 -> Dropout26
I0810 21:28:35.387882 24399 net.cpp:141] Setting up drop2
I0810 21:28:35.387893 24399 net.cpp:148] Top shape: 100 64 (6400)
I0810 21:28:35.387899 24399 net.cpp:156] Memory required for data: 142906400
I0810 21:28:35.387905 24399 layer_factory.hpp:77] Creating layer m13
I0810 21:28:35.387919 24399 net.cpp:91] Creating Layer m13
I0810 21:28:35.387930 24399 net.cpp:425] m13 <- Dropout26
I0810 21:28:35.387940 24399 net.cpp:399] m13 -> m13
I0810 21:28:35.387960 24399 net.cpp:141] Setting up m13
I0810 21:28:35.387969 24399 net.cpp:148] Top shape: 100 1 (100)
I0810 21:28:35.387974 24399 net.cpp:156] Memory required for data: 142906800
I0810 21:28:35.387981 24399 net.cpp:484] Sharing parameters 'fc3_w' owned by layer 'm1', param index 0
I0810 21:28:35.387989 24399 net.cpp:484] Sharing parameters 'fc3_b' owned by layer 'm1', param index 1
I0810 21:28:35.387995 24399 layer_factory.hpp:77] Creating layer Concat14
I0810 21:28:35.388007 24399 net.cpp:91] Creating Layer Concat14
I0810 21:28:35.388015 24399 net.cpp:425] Concat14 <- i5
I0810 21:28:35.388023 24399 net.cpp:425] Concat14 <- i11_i1_10_split_4
I0810 21:28:35.388036 24399 net.cpp:399] Concat14 -> Concat14
I0810 21:28:35.388051 24399 net.cpp:141] Setting up Concat14
I0810 21:28:35.388062 24399 net.cpp:148] Top shape: 100 2 1 4096 (819200)
I0810 21:28:35.388069 24399 net.cpp:156] Memory required for data: 146183600
I0810 21:28:35.388075 24399 layer_factory.hpp:77] Creating layer InnerProduct27
I0810 21:28:35.388087 24399 net.cpp:91] Creating Layer InnerProduct27
I0810 21:28:35.388095 24399 net.cpp:425] InnerProduct27 <- Concat14
I0810 21:28:35.388106 24399 net.cpp:399] InnerProduct27 -> InnerProduct27
I0810 21:28:35.392269 24399 net.cpp:141] Setting up InnerProduct27
I0810 21:28:35.392302 24399 net.cpp:148] Top shape: 100 64 (6400)
I0810 21:28:35.392308 24399 net.cpp:156] Memory required for data: 146209200
I0810 21:28:35.392319 24399 net.cpp:484] Sharing parameters 'fc1_w' owned by layer 'InnerProduct1', param index 0
I0810 21:28:35.392328 24399 net.cpp:484] Sharing parameters 'fc1_b' owned by layer 'InnerProduct1', param index 1
I0810 21:28:35.392335 24399 layer_factory.hpp:77] Creating layer ReLU27
I0810 21:28:35.392351 24399 net.cpp:91] Creating Layer ReLU27
I0810 21:28:35.392362 24399 net.cpp:425] ReLU27 <- InnerProduct27
I0810 21:28:35.392376 24399 net.cpp:386] ReLU27 -> InnerProduct27 (in-place)
I0810 21:28:35.392403 24399 net.cpp:141] Setting up ReLU27
I0810 21:28:35.392431 24399 net.cpp:148] Top shape: 100 64 (6400)
I0810 21:28:35.392437 24399 net.cpp:156] Memory required for data: 146234800
I0810 21:28:35.392444 24399 layer_factory.hpp:77] Creating layer drop1
I0810 21:28:35.392491 24399 net.cpp:91] Creating Layer drop1
I0810 21:28:35.392500 24399 net.cpp:425] drop1 <- InnerProduct27
I0810 21:28:35.392513 24399 net.cpp:399] drop1 -> Dropout27
I0810 21:28:35.392531 24399 net.cpp:141] Setting up drop1
I0810 21:28:35.392540 24399 net.cpp:148] Top shape: 100 64 (6400)
I0810 21:28:35.392546 24399 net.cpp:156] Memory required for data: 146260400
I0810 21:28:35.392554 24399 layer_factory.hpp:77] Creating layer InnerProduct28
I0810 21:28:35.392570 24399 net.cpp:91] Creating Layer InnerProduct28
I0810 21:28:35.392580 24399 net.cpp:425] InnerProduct28 <- Dropout27
I0810 21:28:35.392591 24399 net.cpp:399] InnerProduct28 -> InnerProduct28
I0810 21:28:35.392662 24399 net.cpp:141] Setting up InnerProduct28
I0810 21:28:35.392674 24399 net.cpp:148] Top shape: 100 64 (6400)
I0810 21:28:35.392681 24399 net.cpp:156] Memory required for data: 146286000
I0810 21:28:35.392688 24399 net.cpp:484] Sharing parameters 'fc2_w' owned by layer 'InnerProduct2', param index 0
I0810 21:28:35.392693 24399 net.cpp:484] Sharing parameters 'fc2_b' owned by layer 'InnerProduct2', param index 1
I0810 21:28:35.392696 24399 layer_factory.hpp:77] Creating layer ReLU28
I0810 21:28:35.392704 24399 net.cpp:91] Creating Layer ReLU28
I0810 21:28:35.392709 24399 net.cpp:425] ReLU28 <- InnerProduct28
I0810 21:28:35.392715 24399 net.cpp:386] ReLU28 -> InnerProduct28 (in-place)
I0810 21:28:35.392721 24399 net.cpp:141] Setting up ReLU28
I0810 21:28:35.392726 24399 net.cpp:148] Top shape: 100 64 (6400)
I0810 21:28:35.392730 24399 net.cpp:156] Memory required for data: 146311600
I0810 21:28:35.392735 24399 layer_factory.hpp:77] Creating layer drop2
I0810 21:28:35.392740 24399 net.cpp:91] Creating Layer drop2
I0810 21:28:35.392745 24399 net.cpp:425] drop2 <- InnerProduct28
I0810 21:28:35.392750 24399 net.cpp:399] drop2 -> Dropout28
I0810 21:28:35.392757 24399 net.cpp:141] Setting up drop2
I0810 21:28:35.392762 24399 net.cpp:148] Top shape: 100 64 (6400)
I0810 21:28:35.392765 24399 net.cpp:156] Memory required for data: 146337200
I0810 21:28:35.392770 24399 layer_factory.hpp:77] Creating layer m14
I0810 21:28:35.392776 24399 net.cpp:91] Creating Layer m14
I0810 21:28:35.392781 24399 net.cpp:425] m14 <- Dropout28
I0810 21:28:35.392788 24399 net.cpp:399] m14 -> m14
I0810 21:28:35.392802 24399 net.cpp:141] Setting up m14
I0810 21:28:35.392807 24399 net.cpp:148] Top shape: 100 1 (100)
I0810 21:28:35.392812 24399 net.cpp:156] Memory required for data: 146337600
I0810 21:28:35.392815 24399 net.cpp:484] Sharing parameters 'fc3_w' owned by layer 'm1', param index 0
I0810 21:28:35.392820 24399 net.cpp:484] Sharing parameters 'fc3_b' owned by layer 'm1', param index 1
I0810 21:28:35.392824 24399 layer_factory.hpp:77] Creating layer Concat15
I0810 21:28:35.392833 24399 net.cpp:91] Creating Layer Concat15
I0810 21:28:35.392838 24399 net.cpp:425] Concat15 <- i6
I0810 21:28:35.392844 24399 net.cpp:425] Concat15 <- i11_i1_10_split_5
I0810 21:28:35.392853 24399 net.cpp:399] Concat15 -> Concat15
I0810 21:28:35.392861 24399 net.cpp:141] Setting up Concat15
I0810 21:28:35.392868 24399 net.cpp:148] Top shape: 100 2 1 4096 (819200)
I0810 21:28:35.392870 24399 net.cpp:156] Memory required for data: 149614400
I0810 21:28:35.392874 24399 layer_factory.hpp:77] Creating layer InnerProduct29
I0810 21:28:35.392881 24399 net.cpp:91] Creating Layer InnerProduct29
I0810 21:28:35.392886 24399 net.cpp:425] InnerProduct29 <- Concat15
I0810 21:28:35.392892 24399 net.cpp:399] InnerProduct29 -> InnerProduct29
I0810 21:28:35.397732 24399 net.cpp:141] Setting up InnerProduct29
I0810 21:28:35.397768 24399 net.cpp:148] Top shape: 100 64 (6400)
I0810 21:28:35.397776 24399 net.cpp:156] Memory required for data: 149640000
I0810 21:28:35.397788 24399 net.cpp:484] Sharing parameters 'fc1_w' owned by layer 'InnerProduct1', param index 0
I0810 21:28:35.397840 24399 net.cpp:484] Sharing parameters 'fc1_b' owned by layer 'InnerProduct1', param index 1
I0810 21:28:35.397847 24399 layer_factory.hpp:77] Creating layer ReLU29
I0810 21:28:35.397866 24399 net.cpp:91] Creating Layer ReLU29
I0810 21:28:35.397876 24399 net.cpp:425] ReLU29 <- InnerProduct29
I0810 21:28:35.397888 24399 net.cpp:386] ReLU29 -> InnerProduct29 (in-place)
I0810 21:28:35.397904 24399 net.cpp:141] Setting up ReLU29
I0810 21:28:35.397912 24399 net.cpp:148] Top shape: 100 64 (6400)
I0810 21:28:35.397917 24399 net.cpp:156] Memory required for data: 149665600
I0810 21:28:35.397923 24399 layer_factory.hpp:77] Creating layer drop1
I0810 21:28:35.397936 24399 net.cpp:91] Creating Layer drop1
I0810 21:28:35.397943 24399 net.cpp:425] drop1 <- InnerProduct29
I0810 21:28:35.397953 24399 net.cpp:399] drop1 -> Dropout29
I0810 21:28:35.397969 24399 net.cpp:141] Setting up drop1
I0810 21:28:35.397976 24399 net.cpp:148] Top shape: 100 64 (6400)
I0810 21:28:35.397982 24399 net.cpp:156] Memory required for data: 149691200
I0810 21:28:35.397989 24399 layer_factory.hpp:77] Creating layer InnerProduct30
I0810 21:28:35.398005 24399 net.cpp:91] Creating Layer InnerProduct30
I0810 21:28:35.398010 24399 net.cpp:425] InnerProduct30 <- Dropout29
I0810 21:28:35.398022 24399 net.cpp:399] InnerProduct30 -> InnerProduct30
I0810 21:28:35.398089 24399 net.cpp:141] Setting up InnerProduct30
I0810 21:28:35.398099 24399 net.cpp:148] Top shape: 100 64 (6400)
I0810 21:28:35.398104 24399 net.cpp:156] Memory required for data: 149716800
I0810 21:28:35.398110 24399 net.cpp:484] Sharing parameters 'fc2_w' owned by layer 'InnerProduct2', param index 0
I0810 21:28:35.398118 24399 net.cpp:484] Sharing parameters 'fc2_b' owned by layer 'InnerProduct2', param index 1
I0810 21:28:35.398123 24399 layer_factory.hpp:77] Creating layer ReLU30
I0810 21:28:35.398133 24399 net.cpp:91] Creating Layer ReLU30
I0810 21:28:35.398138 24399 net.cpp:425] ReLU30 <- InnerProduct30
I0810 21:28:35.398149 24399 net.cpp:386] ReLU30 -> InnerProduct30 (in-place)
I0810 21:28:35.398157 24399 net.cpp:141] Setting up ReLU30
I0810 21:28:35.398165 24399 net.cpp:148] Top shape: 100 64 (6400)
I0810 21:28:35.398170 24399 net.cpp:156] Memory required for data: 149742400
I0810 21:28:35.398175 24399 layer_factory.hpp:77] Creating layer drop2
I0810 21:28:35.398185 24399 net.cpp:91] Creating Layer drop2
I0810 21:28:35.398191 24399 net.cpp:425] drop2 <- InnerProduct30
I0810 21:28:35.398205 24399 net.cpp:399] drop2 -> Dropout30
I0810 21:28:35.398217 24399 net.cpp:141] Setting up drop2
I0810 21:28:35.398226 24399 net.cpp:148] Top shape: 100 64 (6400)
I0810 21:28:35.398231 24399 net.cpp:156] Memory required for data: 149768000
I0810 21:28:35.398236 24399 layer_factory.hpp:77] Creating layer m15
I0810 21:28:35.398248 24399 net.cpp:91] Creating Layer m15
I0810 21:28:35.398257 24399 net.cpp:425] m15 <- Dropout30
I0810 21:28:35.398269 24399 net.cpp:399] m15 -> m15
I0810 21:28:35.398291 24399 net.cpp:141] Setting up m15
I0810 21:28:35.398298 24399 net.cpp:148] Top shape: 100 1 (100)
I0810 21:28:35.398304 24399 net.cpp:156] Memory required for data: 149768400
I0810 21:28:35.398311 24399 net.cpp:484] Sharing parameters 'fc3_w' owned by layer 'm1', param index 0
I0810 21:28:35.398319 24399 net.cpp:484] Sharing parameters 'fc3_b' owned by layer 'm1', param index 1
I0810 21:28:35.398324 24399 layer_factory.hpp:77] Creating layer Concat16
I0810 21:28:35.398336 24399 net.cpp:91] Creating Layer Concat16
I0810 21:28:35.398344 24399 net.cpp:425] Concat16 <- i7
I0810 21:28:35.398351 24399 net.cpp:425] Concat16 <- i11_i1_10_split_6
I0810 21:28:35.398362 24399 net.cpp:399] Concat16 -> Concat16
I0810 21:28:35.398376 24399 net.cpp:141] Setting up Concat16
I0810 21:28:35.398386 24399 net.cpp:148] Top shape: 100 2 1 4096 (819200)
I0810 21:28:35.398391 24399 net.cpp:156] Memory required for data: 153045200
I0810 21:28:35.398396 24399 layer_factory.hpp:77] Creating layer InnerProduct31
I0810 21:28:35.398434 24399 net.cpp:91] Creating Layer InnerProduct31
I0810 21:28:35.398442 24399 net.cpp:425] InnerProduct31 <- Concat16
I0810 21:28:35.398464 24399 net.cpp:399] InnerProduct31 -> InnerProduct31
I0810 21:28:35.402698 24399 net.cpp:141] Setting up InnerProduct31
I0810 21:28:35.402732 24399 net.cpp:148] Top shape: 100 64 (6400)
I0810 21:28:35.402740 24399 net.cpp:156] Memory required for data: 153070800
I0810 21:28:35.402750 24399 net.cpp:484] Sharing parameters 'fc1_w' owned by layer 'InnerProduct1', param index 0
I0810 21:28:35.402760 24399 net.cpp:484] Sharing parameters 'fc1_b' owned by layer 'InnerProduct1', param index 1
I0810 21:28:35.402767 24399 layer_factory.hpp:77] Creating layer ReLU31
I0810 21:28:35.402786 24399 net.cpp:91] Creating Layer ReLU31
I0810 21:28:35.402796 24399 net.cpp:425] ReLU31 <- InnerProduct31
I0810 21:28:35.402808 24399 net.cpp:386] ReLU31 -> InnerProduct31 (in-place)
I0810 21:28:35.402819 24399 net.cpp:141] Setting up ReLU31
I0810 21:28:35.402824 24399 net.cpp:148] Top shape: 100 64 (6400)
I0810 21:28:35.402828 24399 net.cpp:156] Memory required for data: 153096400
I0810 21:28:35.402832 24399 layer_factory.hpp:77] Creating layer drop1
I0810 21:28:35.402842 24399 net.cpp:91] Creating Layer drop1
I0810 21:28:35.402847 24399 net.cpp:425] drop1 <- InnerProduct31
I0810 21:28:35.402854 24399 net.cpp:399] drop1 -> Dropout31
I0810 21:28:35.402865 24399 net.cpp:141] Setting up drop1
I0810 21:28:35.402870 24399 net.cpp:148] Top shape: 100 64 (6400)
I0810 21:28:35.402873 24399 net.cpp:156] Memory required for data: 153122000
I0810 21:28:35.402878 24399 layer_factory.hpp:77] Creating layer InnerProduct32
I0810 21:28:35.402889 24399 net.cpp:91] Creating Layer InnerProduct32
I0810 21:28:35.402894 24399 net.cpp:425] InnerProduct32 <- Dropout31
I0810 21:28:35.402900 24399 net.cpp:399] InnerProduct32 -> InnerProduct32
I0810 21:28:35.402942 24399 net.cpp:141] Setting up InnerProduct32
I0810 21:28:35.402947 24399 net.cpp:148] Top shape: 100 64 (6400)
I0810 21:28:35.402951 24399 net.cpp:156] Memory required for data: 153147600
I0810 21:28:35.402956 24399 net.cpp:484] Sharing parameters 'fc2_w' owned by layer 'InnerProduct2', param index 0
I0810 21:28:35.402961 24399 net.cpp:484] Sharing parameters 'fc2_b' owned by layer 'InnerProduct2', param index 1
I0810 21:28:35.402966 24399 layer_factory.hpp:77] Creating layer ReLU32
I0810 21:28:35.402972 24399 net.cpp:91] Creating Layer ReLU32
I0810 21:28:35.402976 24399 net.cpp:425] ReLU32 <- InnerProduct32
I0810 21:28:35.402984 24399 net.cpp:386] ReLU32 -> InnerProduct32 (in-place)
I0810 21:28:35.402992 24399 net.cpp:141] Setting up ReLU32
I0810 21:28:35.402997 24399 net.cpp:148] Top shape: 100 64 (6400)
I0810 21:28:35.403000 24399 net.cpp:156] Memory required for data: 153173200
I0810 21:28:35.403004 24399 layer_factory.hpp:77] Creating layer drop2
I0810 21:28:35.403010 24399 net.cpp:91] Creating Layer drop2
I0810 21:28:35.403014 24399 net.cpp:425] drop2 <- InnerProduct32
I0810 21:28:35.403022 24399 net.cpp:399] drop2 -> Dropout32
I0810 21:28:35.403028 24399 net.cpp:141] Setting up drop2
I0810 21:28:35.403033 24399 net.cpp:148] Top shape: 100 64 (6400)
I0810 21:28:35.403038 24399 net.cpp:156] Memory required for data: 153198800
I0810 21:28:35.403041 24399 layer_factory.hpp:77] Creating layer m16
I0810 21:28:35.403049 24399 net.cpp:91] Creating Layer m16
I0810 21:28:35.403054 24399 net.cpp:425] m16 <- Dropout32
I0810 21:28:35.403064 24399 net.cpp:399] m16 -> m16
I0810 21:28:35.403075 24399 net.cpp:141] Setting up m16
I0810 21:28:35.403080 24399 net.cpp:148] Top shape: 100 1 (100)
I0810 21:28:35.403084 24399 net.cpp:156] Memory required for data: 153199200
I0810 21:28:35.403089 24399 net.cpp:484] Sharing parameters 'fc3_w' owned by layer 'm1', param index 0
I0810 21:28:35.403093 24399 net.cpp:484] Sharing parameters 'fc3_b' owned by layer 'm1', param index 1
I0810 21:28:35.403097 24399 layer_factory.hpp:77] Creating layer Concat17
I0810 21:28:35.403105 24399 net.cpp:91] Creating Layer Concat17
I0810 21:28:35.403110 24399 net.cpp:425] Concat17 <- i8
I0810 21:28:35.403116 24399 net.cpp:425] Concat17 <- i11_i1_10_split_7
I0810 21:28:35.403126 24399 net.cpp:399] Concat17 -> Concat17
I0810 21:28:35.403154 24399 net.cpp:141] Setting up Concat17
I0810 21:28:35.403159 24399 net.cpp:148] Top shape: 100 2 1 4096 (819200)
I0810 21:28:35.403165 24399 net.cpp:156] Memory required for data: 156476000
I0810 21:28:35.403170 24399 layer_factory.hpp:77] Creating layer InnerProduct33
I0810 21:28:35.403178 24399 net.cpp:91] Creating Layer InnerProduct33
I0810 21:28:35.403183 24399 net.cpp:425] InnerProduct33 <- Concat17
I0810 21:28:35.403190 24399 net.cpp:399] InnerProduct33 -> InnerProduct33
I0810 21:28:35.407347 24399 net.cpp:141] Setting up InnerProduct33
I0810 21:28:35.407376 24399 net.cpp:148] Top shape: 100 64 (6400)
I0810 21:28:35.407380 24399 net.cpp:156] Memory required for data: 156501600
I0810 21:28:35.407388 24399 net.cpp:484] Sharing parameters 'fc1_w' owned by layer 'InnerProduct1', param index 0
I0810 21:28:35.407395 24399 net.cpp:484] Sharing parameters 'fc1_b' owned by layer 'InnerProduct1', param index 1
I0810 21:28:35.407399 24399 layer_factory.hpp:77] Creating layer ReLU33
I0810 21:28:35.407413 24399 net.cpp:91] Creating Layer ReLU33
I0810 21:28:35.407420 24399 net.cpp:425] ReLU33 <- InnerProduct33
I0810 21:28:35.407430 24399 net.cpp:386] ReLU33 -> InnerProduct33 (in-place)
I0810 21:28:35.407443 24399 net.cpp:141] Setting up ReLU33
I0810 21:28:35.407446 24399 net.cpp:148] Top shape: 100 64 (6400)
I0810 21:28:35.407450 24399 net.cpp:156] Memory required for data: 156527200
I0810 21:28:35.407454 24399 layer_factory.hpp:77] Creating layer drop1
I0810 21:28:35.407464 24399 net.cpp:91] Creating Layer drop1
I0810 21:28:35.407467 24399 net.cpp:425] drop1 <- InnerProduct33
I0810 21:28:35.407475 24399 net.cpp:399] drop1 -> Dropout33
I0810 21:28:35.407487 24399 net.cpp:141] Setting up drop1
I0810 21:28:35.407492 24399 net.cpp:148] Top shape: 100 64 (6400)
I0810 21:28:35.407496 24399 net.cpp:156] Memory required for data: 156552800
I0810 21:28:35.407500 24399 layer_factory.hpp:77] Creating layer InnerProduct34
I0810 21:28:35.407511 24399 net.cpp:91] Creating Layer InnerProduct34
I0810 21:28:35.407516 24399 net.cpp:425] InnerProduct34 <- Dropout33
I0810 21:28:35.407522 24399 net.cpp:399] InnerProduct34 -> InnerProduct34
I0810 21:28:35.407574 24399 net.cpp:141] Setting up InnerProduct34
I0810 21:28:35.407582 24399 net.cpp:148] Top shape: 100 64 (6400)
I0810 21:28:35.407587 24399 net.cpp:156] Memory required for data: 156578400
I0810 21:28:35.407590 24399 net.cpp:484] Sharing parameters 'fc2_w' owned by layer 'InnerProduct2', param index 0
I0810 21:28:35.407595 24399 net.cpp:484] Sharing parameters 'fc2_b' owned by layer 'InnerProduct2', param index 1
I0810 21:28:35.407598 24399 layer_factory.hpp:77] Creating layer ReLU34
I0810 21:28:35.407605 24399 net.cpp:91] Creating Layer ReLU34
I0810 21:28:35.407610 24399 net.cpp:425] ReLU34 <- InnerProduct34
I0810 21:28:35.407618 24399 net.cpp:386] ReLU34 -> InnerProduct34 (in-place)
I0810 21:28:35.407624 24399 net.cpp:141] Setting up ReLU34
I0810 21:28:35.407629 24399 net.cpp:148] Top shape: 100 64 (6400)
I0810 21:28:35.407632 24399 net.cpp:156] Memory required for data: 156604000
I0810 21:28:35.407635 24399 layer_factory.hpp:77] Creating layer drop2
I0810 21:28:35.407642 24399 net.cpp:91] Creating Layer drop2
I0810 21:28:35.407646 24399 net.cpp:425] drop2 <- InnerProduct34
I0810 21:28:35.407651 24399 net.cpp:399] drop2 -> Dropout34
I0810 21:28:35.407658 24399 net.cpp:141] Setting up drop2
I0810 21:28:35.407663 24399 net.cpp:148] Top shape: 100 64 (6400)
I0810 21:28:35.407668 24399 net.cpp:156] Memory required for data: 156629600
I0810 21:28:35.407672 24399 layer_factory.hpp:77] Creating layer m17
I0810 21:28:35.407681 24399 net.cpp:91] Creating Layer m17
I0810 21:28:35.407685 24399 net.cpp:425] m17 <- Dropout34
I0810 21:28:35.407693 24399 net.cpp:399] m17 -> m17
I0810 21:28:35.407706 24399 net.cpp:141] Setting up m17
I0810 21:28:35.407711 24399 net.cpp:148] Top shape: 100 1 (100)
I0810 21:28:35.407714 24399 net.cpp:156] Memory required for data: 156630000
I0810 21:28:35.407719 24399 net.cpp:484] Sharing parameters 'fc3_w' owned by layer 'm1', param index 0
I0810 21:28:35.407740 24399 net.cpp:484] Sharing parameters 'fc3_b' owned by layer 'm1', param index 1
I0810 21:28:35.407744 24399 layer_factory.hpp:77] Creating layer Concat18
I0810 21:28:35.407752 24399 net.cpp:91] Creating Layer Concat18
I0810 21:28:35.407757 24399 net.cpp:425] Concat18 <- i9
I0810 21:28:35.407763 24399 net.cpp:425] Concat18 <- i11_i1_10_split_8
I0810 21:28:35.407771 24399 net.cpp:399] Concat18 -> Concat18
I0810 21:28:35.407781 24399 net.cpp:141] Setting up Concat18
I0810 21:28:35.407788 24399 net.cpp:148] Top shape: 100 2 1 4096 (819200)
I0810 21:28:35.407790 24399 net.cpp:156] Memory required for data: 159906800
I0810 21:28:35.407794 24399 layer_factory.hpp:77] Creating layer InnerProduct35
I0810 21:28:35.407801 24399 net.cpp:91] Creating Layer InnerProduct35
I0810 21:28:35.407806 24399 net.cpp:425] InnerProduct35 <- Concat18
I0810 21:28:35.407812 24399 net.cpp:399] InnerProduct35 -> InnerProduct35
I0810 21:28:35.411875 24399 net.cpp:141] Setting up InnerProduct35
I0810 21:28:35.411900 24399 net.cpp:148] Top shape: 100 64 (6400)
I0810 21:28:35.411905 24399 net.cpp:156] Memory required for data: 159932400
I0810 21:28:35.411912 24399 net.cpp:484] Sharing parameters 'fc1_w' owned by layer 'InnerProduct1', param index 0
I0810 21:28:35.411919 24399 net.cpp:484] Sharing parameters 'fc1_b' owned by layer 'InnerProduct1', param index 1
I0810 21:28:35.411923 24399 layer_factory.hpp:77] Creating layer ReLU35
I0810 21:28:35.411936 24399 net.cpp:91] Creating Layer ReLU35
I0810 21:28:35.411942 24399 net.cpp:425] ReLU35 <- InnerProduct35
I0810 21:28:35.411952 24399 net.cpp:386] ReLU35 -> InnerProduct35 (in-place)
I0810 21:28:35.411963 24399 net.cpp:141] Setting up ReLU35
I0810 21:28:35.411968 24399 net.cpp:148] Top shape: 100 64 (6400)
I0810 21:28:35.411972 24399 net.cpp:156] Memory required for data: 159958000
I0810 21:28:35.411976 24399 layer_factory.hpp:77] Creating layer drop1
I0810 21:28:35.411986 24399 net.cpp:91] Creating Layer drop1
I0810 21:28:35.411991 24399 net.cpp:425] drop1 <- InnerProduct35
I0810 21:28:35.411999 24399 net.cpp:399] drop1 -> Dropout35
I0810 21:28:35.412009 24399 net.cpp:141] Setting up drop1
I0810 21:28:35.412014 24399 net.cpp:148] Top shape: 100 64 (6400)
I0810 21:28:35.412019 24399 net.cpp:156] Memory required for data: 159983600
I0810 21:28:35.412024 24399 layer_factory.hpp:77] Creating layer InnerProduct36
I0810 21:28:35.412034 24399 net.cpp:91] Creating Layer InnerProduct36
I0810 21:28:35.412039 24399 net.cpp:425] InnerProduct36 <- Dropout35
I0810 21:28:35.412046 24399 net.cpp:399] InnerProduct36 -> InnerProduct36
I0810 21:28:35.412088 24399 net.cpp:141] Setting up InnerProduct36
I0810 21:28:35.412094 24399 net.cpp:148] Top shape: 100 64 (6400)
I0810 21:28:35.412098 24399 net.cpp:156] Memory required for data: 160009200
I0810 21:28:35.412102 24399 net.cpp:484] Sharing parameters 'fc2_w' owned by layer 'InnerProduct2', param index 0
I0810 21:28:35.412107 24399 net.cpp:484] Sharing parameters 'fc2_b' owned by layer 'InnerProduct2', param index 1
I0810 21:28:35.412111 24399 layer_factory.hpp:77] Creating layer ReLU36
I0810 21:28:35.412117 24399 net.cpp:91] Creating Layer ReLU36
I0810 21:28:35.412122 24399 net.cpp:425] ReLU36 <- InnerProduct36
I0810 21:28:35.412127 24399 net.cpp:386] ReLU36 -> InnerProduct36 (in-place)
I0810 21:28:35.412133 24399 net.cpp:141] Setting up ReLU36
I0810 21:28:35.412137 24399 net.cpp:148] Top shape: 100 64 (6400)
I0810 21:28:35.412142 24399 net.cpp:156] Memory required for data: 160034800
I0810 21:28:35.412144 24399 layer_factory.hpp:77] Creating layer drop2
I0810 21:28:35.412152 24399 net.cpp:91] Creating Layer drop2
I0810 21:28:35.412155 24399 net.cpp:425] drop2 <- InnerProduct36
I0810 21:28:35.412161 24399 net.cpp:399] drop2 -> Dropout36
I0810 21:28:35.412168 24399 net.cpp:141] Setting up drop2
I0810 21:28:35.412174 24399 net.cpp:148] Top shape: 100 64 (6400)
I0810 21:28:35.412178 24399 net.cpp:156] Memory required for data: 160060400
I0810 21:28:35.412184 24399 layer_factory.hpp:77] Creating layer m18
I0810 21:28:35.412191 24399 net.cpp:91] Creating Layer m18
I0810 21:28:35.412221 24399 net.cpp:425] m18 <- Dropout36
I0810 21:28:35.412230 24399 net.cpp:399] m18 -> m18
I0810 21:28:35.412242 24399 net.cpp:141] Setting up m18
I0810 21:28:35.412247 24399 net.cpp:148] Top shape: 100 1 (100)
I0810 21:28:35.412251 24399 net.cpp:156] Memory required for data: 160060800
I0810 21:28:35.412256 24399 net.cpp:484] Sharing parameters 'fc3_w' owned by layer 'm1', param index 0
I0810 21:28:35.412261 24399 net.cpp:484] Sharing parameters 'fc3_b' owned by layer 'm1', param index 1
I0810 21:28:35.412264 24399 layer_factory.hpp:77] Creating layer Concat19
I0810 21:28:35.412273 24399 net.cpp:91] Creating Layer Concat19
I0810 21:28:35.412277 24399 net.cpp:425] Concat19 <- i10
I0810 21:28:35.412283 24399 net.cpp:425] Concat19 <- i11_i1_10_split_9
I0810 21:28:35.412292 24399 net.cpp:399] Concat19 -> Concat19
I0810 21:28:35.412299 24399 net.cpp:141] Setting up Concat19
I0810 21:28:35.412307 24399 net.cpp:148] Top shape: 100 2 1 4096 (819200)
I0810 21:28:35.412312 24399 net.cpp:156] Memory required for data: 163337600
I0810 21:28:35.412317 24399 layer_factory.hpp:77] Creating layer InnerProduct37
I0810 21:28:35.412323 24399 net.cpp:91] Creating Layer InnerProduct37
I0810 21:28:35.412328 24399 net.cpp:425] InnerProduct37 <- Concat19
I0810 21:28:35.412335 24399 net.cpp:399] InnerProduct37 -> InnerProduct37
I0810 21:28:35.416404 24399 net.cpp:141] Setting up InnerProduct37
I0810 21:28:35.416429 24399 net.cpp:148] Top shape: 100 64 (6400)
I0810 21:28:35.416434 24399 net.cpp:156] Memory required for data: 163363200
I0810 21:28:35.416440 24399 net.cpp:484] Sharing parameters 'fc1_w' owned by layer 'InnerProduct1', param index 0
I0810 21:28:35.416447 24399 net.cpp:484] Sharing parameters 'fc1_b' owned by layer 'InnerProduct1', param index 1
I0810 21:28:35.416478 24399 layer_factory.hpp:77] Creating layer ReLU37
I0810 21:28:35.416491 24399 net.cpp:91] Creating Layer ReLU37
I0810 21:28:35.416497 24399 net.cpp:425] ReLU37 <- InnerProduct37
I0810 21:28:35.416507 24399 net.cpp:386] ReLU37 -> InnerProduct37 (in-place)
I0810 21:28:35.416518 24399 net.cpp:141] Setting up ReLU37
I0810 21:28:35.416523 24399 net.cpp:148] Top shape: 100 64 (6400)
I0810 21:28:35.416527 24399 net.cpp:156] Memory required for data: 163388800
I0810 21:28:35.416532 24399 layer_factory.hpp:77] Creating layer drop1
I0810 21:28:35.416539 24399 net.cpp:91] Creating Layer drop1
I0810 21:28:35.416545 24399 net.cpp:425] drop1 <- InnerProduct37
I0810 21:28:35.416553 24399 net.cpp:399] drop1 -> Dropout37
I0810 21:28:35.416563 24399 net.cpp:141] Setting up drop1
I0810 21:28:35.416568 24399 net.cpp:148] Top shape: 100 64 (6400)
I0810 21:28:35.416571 24399 net.cpp:156] Memory required for data: 163414400
I0810 21:28:35.416575 24399 layer_factory.hpp:77] Creating layer InnerProduct38
I0810 21:28:35.416585 24399 net.cpp:91] Creating Layer InnerProduct38
I0810 21:28:35.416590 24399 net.cpp:425] InnerProduct38 <- Dropout37
I0810 21:28:35.416596 24399 net.cpp:399] InnerProduct38 -> InnerProduct38
I0810 21:28:35.416640 24399 net.cpp:141] Setting up InnerProduct38
I0810 21:28:35.416646 24399 net.cpp:148] Top shape: 100 64 (6400)
I0810 21:28:35.416648 24399 net.cpp:156] Memory required for data: 163440000
I0810 21:28:35.416653 24399 net.cpp:484] Sharing parameters 'fc2_w' owned by layer 'InnerProduct2', param index 0
I0810 21:28:35.416658 24399 net.cpp:484] Sharing parameters 'fc2_b' owned by layer 'InnerProduct2', param index 1
I0810 21:28:35.416661 24399 layer_factory.hpp:77] Creating layer ReLU38
I0810 21:28:35.416668 24399 net.cpp:91] Creating Layer ReLU38
I0810 21:28:35.416672 24399 net.cpp:425] ReLU38 <- InnerProduct38
I0810 21:28:35.416678 24399 net.cpp:386] ReLU38 -> InnerProduct38 (in-place)
I0810 21:28:35.416684 24399 net.cpp:141] Setting up ReLU38
I0810 21:28:35.416688 24399 net.cpp:148] Top shape: 100 64 (6400)
I0810 21:28:35.416692 24399 net.cpp:156] Memory required for data: 163465600
I0810 21:28:35.416697 24399 layer_factory.hpp:77] Creating layer drop2
I0810 21:28:35.416702 24399 net.cpp:91] Creating Layer drop2
I0810 21:28:35.416707 24399 net.cpp:425] drop2 <- InnerProduct38
I0810 21:28:35.416739 24399 net.cpp:399] drop2 -> Dropout38
I0810 21:28:35.416748 24399 net.cpp:141] Setting up drop2
I0810 21:28:35.416754 24399 net.cpp:148] Top shape: 100 64 (6400)
I0810 21:28:35.416756 24399 net.cpp:156] Memory required for data: 163491200
I0810 21:28:35.416760 24399 layer_factory.hpp:77] Creating layer m19
I0810 21:28:35.416769 24399 net.cpp:91] Creating Layer m19
I0810 21:28:35.416774 24399 net.cpp:425] m19 <- Dropout38
I0810 21:28:35.416784 24399 net.cpp:399] m19 -> m19
I0810 21:28:35.416795 24399 net.cpp:141] Setting up m19
I0810 21:28:35.416800 24399 net.cpp:148] Top shape: 100 1 (100)
I0810 21:28:35.416805 24399 net.cpp:156] Memory required for data: 163491600
I0810 21:28:35.416808 24399 net.cpp:484] Sharing parameters 'fc3_w' owned by layer 'm1', param index 0
I0810 21:28:35.416815 24399 net.cpp:484] Sharing parameters 'fc3_b' owned by layer 'm1', param index 1
I0810 21:28:35.416821 24399 layer_factory.hpp:77] Creating layer con
I0810 21:28:35.416834 24399 net.cpp:91] Creating Layer con
…
I0810 21:28:35.416890 24399 net.cpp:425] con <- m11
I0810 21:28:35.416895 24399 net.cpp:425] con <- m12
I0810 21:28:35.416899 24399 net.cpp:425] con <- m13
I0810 21:28:35.416903 24399 net.cpp:425] con <- m14
I0810 21:28:35.416908 24399 net.cpp:425] con <- m15
I0810 21:28:35.416913 24399 net.cpp:425] con <- m16
I0810 21:28:35.416916 24399 net.cpp:425] con <- m17
I0810 21:28:35.416923 24399 net.cpp:425] con <- m18
I0810 21:28:35.416926 24399 net.cpp:425] con <- m19
I0810 21:28:35.416934 24399 net.cpp:399] con -> con
I0810 21:28:35.416945 24399 net.cpp:141] Setting up con
I0810 21:28:35.416950 24399 net.cpp:148] Top shape: 100 19 (1900)
I0810 21:28:35.416954 24399 net.cpp:156] Memory required for data: 163499200
I0810 21:28:35.416959 24399 layer_factory.hpp:77] Creating layer r1
I0810 21:28:35.416967 24399 net.cpp:91] Creating Layer r1
I0810 21:28:35.416971 24399 net.cpp:425] r1 <- con
I0810 21:28:35.416978 24399 net.cpp:399] r1 -> r1
I0810 21:28:35.416990 24399 net.cpp:141] Setting up r1
I0810 21:28:35.416995 24399 net.cpp:148] Top shape: 100 1 1 19 (1900)
I0810 21:28:35.416998 24399 net.cpp:156] Memory required for data: 163506800
I0810 21:28:35.417003 24399 layer_factory.hpp:77] Creating layer p
I0810 21:28:35.417011 24399 net.cpp:91] Creating Layer p
I0810 21:28:35.417016 24399 net.cpp:425] p <- r1
I0810 21:28:35.417021 24399 net.cpp:399] p -> p
I0810 21:28:35.417032 24399 net.cpp:141] Setting up p
I0810 21:28:35.417037 24399 net.cpp:148] Top shape: 100 1 1 1 (100)
I0810 21:28:35.417040 24399 net.cpp:156] Memory required for data: 163507200
I0810 21:28:35.417044 24399 layer_factory.hpp:77] Creating layer r2
I0810 21:28:35.417050 24399 net.cpp:91] Creating Layer r2
I0810 21:28:35.417054 24399 net.cpp:425] r2 <- p
I0810 21:28:35.417062 24399 net.cpp:399] r2 -> r2
I0810 21:28:35.417068 24399 net.cpp:141] Setting up r2
I0810 21:28:35.417073 24399 net.cpp:148] Top shape: 100 1 1 1 (100)
I0810 21:28:35.417078 24399 net.cpp:156] Memory required for data: 163507600
I0810 21:28:35.417081 24399 layer_factory.hpp:77] Creating layer padL
I0810 21:28:35.417086 24399 net.cpp:91] Creating Layer padL
I0810 21:28:35.417091 24399 net.cpp:425] padL <- label_data_1_split_1
I0810 21:28:35.417096 24399 net.cpp:399] padL -> padL
I0810 21:28:35.417104 24399 net.cpp:141] Setting up padL
I0810 21:28:35.417109 24399 net.cpp:148] Top shape: 100 1 1 1 (100)
I0810 21:28:35.417112 24399 net.cpp:156] Memory required for data: 163508000
I0810 21:28:35.417116 24399 layer_factory.hpp:77] Creating layer pad
I0810 21:28:35.417130 24399 net.cpp:91] Creating Layer pad
I0810 21:28:35.417135 24399 net.cpp:425] pad <- r2
I0810 21:28:35.417140 24399 net.cpp:425] pad <- padL
I0810 21:28:35.417147 24399 net.cpp:399] pad -> pad
I0810 21:28:35.417153 24399 net.cpp:141] Setting up pad
I0810 21:28:35.417160 24399 net.cpp:148] Top shape: 100 2 1 1 (200)
I0810 21:28:35.417163 24399 net.cpp:156] Memory required for data: 163508800
I0810 21:28:35.417167 24399 layer_factory.hpp:77] Creating layer pad_pad_0_split
I0810 21:28:35.417174 24399 net.cpp:91] Creating Layer pad_pad_0_split
I0810 21:28:35.417179 24399 net.cpp:425] pad_pad_0_split <- pad
I0810 21:28:35.417184 24399 net.cpp:399] pad_pad_0_split -> pad_pad_0_split_0
I0810 21:28:35.417191 24399 net.cpp:399] pad_pad_0_split -> pad_pad_0_split_1
I0810 21:28:35.417198 24399 net.cpp:141] Setting up pad_pad_0_split
I0810 21:28:35.417203 24399 net.cpp:148] Top shape: 100 2 1 1 (200)
I0810 21:28:35.417208 24399 net.cpp:148] Top shape: 100 2 1 1 (200)
I0810 21:28:35.417212 24399 net.cpp:156] Memory required for data: 163510400
I0810 21:28:35.417215 24399 layer_factory.hpp:77] Creating layer loss
I0810 21:28:35.417222 24399 net.cpp:91] Creating Layer loss
I0810 21:28:35.417227 24399 net.cpp:425] loss <- pad_pad_0_split_0
I0810 21:28:35.417232 24399 net.cpp:425] loss <- th_th_0_split_0
I0810 21:28:35.417237 24399 net.cpp:399] loss -> loss
…
