…
snapshot: 10000
snapshot_prefix: "examples/scene/scene_met"
solver_mode: CPU
I0813 23:14:22.192385 21738 solver.cpp:81] Creating training net from train_net file: examples/scene/metNetTrain.prototxt
I0813 23:14:22.202103 21738 net.cpp:49] Initializing net from parameters: 
state {
  phase: TRAIN
}
layer {
  name: "data"
  type: "Data"
  top: "data"
  top: "label"
  include {
    phase: TRAIN
  }
  transform_param {
    scale: 1
    mirror: false
  }
  data_param {
    source: "/home/shaogang/Datasets/FeatsDB/featsTrain20k"
    batch_size: 200
    backend: LMDB
  }
}
layer {
  name: "th"
  type: "Threshold"
  bottom: "label"
  top: "th"
  threshold_param {
    threshold: 0
  }
}
layer {
  name: "i1"
  type: "Slice"
  bottom: "data"
  top: "i1"
  top: "i2"
  top: "i3"
  top: "i4"
  top: "i5"
  top: "i6"
  top: "i7"
  top: "i8"
  top: "i9"
  top: "i10"
  top: "i11"
  top: "i12"
  top: "i13"
  top: "i14"
  top: "i15"
  top: "i16"
  top: "i17"
  top: "i18"
  top: "i19"
  top: "i20"
  slice_param {
    slice_dim: 2
    slice_point: 1
    slice_point: 2
    slice_point: 3
    slice_point: 4
    slice_point: 5
    slice_point: 6
    slice_point: 7
    slice_point: 8
    slice_point: 9
    slice_point: 10
    slice_point: 11
    slice_point: 12
    slice_point: 13
    slice_point: 14
    slice_point: 15
    slice_point: 16
    slice_point: 17
    slice_point: 18
    slice_point: 19
  }
}
layer {
  name: "Concat1"
  type: "Concat"
  bottom: "i1"
  bottom: "i11"
  top: "Concat1"
  concat_param {
    axis: 1
  }
}
layer {
  name: "InnerProduct1"
  type: "InnerProduct"
  bottom: "Concat1"
  top: "InnerProduct1"
  param {
    name: "fc1_w"
    lr_mult: 1
  }
  param {
    name: "fc1_b"
    lr_mult: 2
  }
  inner_product_param {
    num_output: 256
    weight_filler {
      type: "xavier"
    }
    bias_filler {
      type: "constant"
    }
  }
}
layer {
  name: "ReLU1"
  type: "ReLU"
  bottom: "InnerProduct1"
  top: "InnerProduct1"
}
layer {
  name: "drop1"
  type: "Dropout"
  bottom: "InnerProduct1"
  top: "Dropout1"
  dropout_param {
    dropout_ratio: 0.5
  }
}
layer {
  name: "InnerProduct2"
  type: "InnerProduct"
  bottom: "Dropout1"
  top: "InnerProduct2"
  param {
    name: "fc2_w"
    lr_mult: 1
  }
  param {
    name: "fc2_b"
    lr_mult: 2
  }
  inner_product_param {
    num_output: 128
    weight_filler {
      type: "xavier"
    }
    bias_filler {
      type: "constant"
    }
  }
}
layer {
  name: "ReLU2"
  type: "ReLU"
  bottom: "InnerProduct2"
  top: "InnerProduct2"
}
layer {
  name: "drop2"
  type: "Dropout"
  bottom: "InnerProduct2"
  top: "Dropout2"
  dropout_param {
    dropout_ratio: 0.5
  }
}
layer {
  name: "m1"
  type: "InnerProduct"
  bottom: "Dropout2"
  top: "m1"
  param {
    name: "fc3_w"
    lr_mult: 1
  }
  param {
    name: "fc3_b"
    lr_mult: 2
  }
  inner_product_param {
    num_output: 1
    weight_filler {
      type: "xavier"
    }
    bias_filler {
      type: "constant"
    }
  }
}
layer {
  name: "Concat2"
  type: "Concat"
  bottom: "i1"
  bottom: "i12"
  top: "Concat2"
  concat_param {
    axis: 1
  }
}
layer {
  name: "InnerProduct3"
  type: "InnerProduct"
  bottom: "Concat2"
  top: "InnerProduct3"
  param {
    name: "fc1_w"
    lr_mult: 1
  }
  param {
    name: "fc1_b"
    lr_mult: 2
  }
  inner_product_param {
    num_output: 256
    weight_filler {
      type: "xavier"
    }
    bias_filler {
      type: "constant"
    }
  }
}
layer {
  name: "ReLU3"
  type: "ReLU"
  bottom: "InnerProduct3"
  top: "InnerProduct3"
}
layer {
  name: "drop1"
  type: "Dropout"
  bottom: "InnerProduct3"
  top: "Dropout3"
  dropout_param {
    dropout_ratio: 0.5
  }
}
layer {
  name: "InnerProduct4"
  type: "InnerProduct"
  bottom: "Dropout3"
  top: "InnerProduct4"
  param {
    name: "fc2_w"
    lr_mult: 1
  }
  param {
    name: "fc2_b"
    lr_mult: 2
  }
  inner_product_param {
    num_output: 128
    weight_filler {
      type: "xavier"
    }
    bias_filler {
      type: "constant"
    }
  }
}
layer {
  name: "ReLU4"
  type: "ReLU"
  bottom: "InnerProduct4"
  top: "InnerProduct4"
}
layer {
  name: "drop2"
  type: "Dropout"
  bottom: "InnerProduct4"
  top: "Dropout4"
  dropout_param {
    dropout_ratio: 0.5
  }
}
layer {
  name: "m2"
  type: "InnerProduct"
  bottom: "Dropout4"
  top: "m2"
  param {
    name: "fc3_w"
    lr_mult: 1
  }
  param {
    name: "fc3_b"
    lr_mult: 2
  }
  inner_product_param {
    num_output: 1
    weight_filler {
      type: "xavier"
    }
    bias_filler {
      type: "constant"
    }
  }
}
layer {
  name: "Concat3"
  type: "Concat"
  bottom: "i1"
  bottom: "i13"
  top: "Concat3"
  concat_param {
    axis: 1
  }
}
layer {
  name: "InnerProduct5"
  type: "InnerProduct"
  bottom: "Concat3"
  top: "InnerProduct5"
  param {
    name: "fc1_w"
    lr_mult: 1
  }
  param {
    name: "fc1_b"
    lr_mult: 2
  }
  inner_product_param {
    num_output: 256
    weight_filler {
      type: "xavier"
    }
    bias_filler {
      type: "constant"
    }
  }
}
layer {
  name: "ReLU5"
  type: "ReLU"
  bottom: "InnerProduct5"
  top: "InnerProduct5"
}
layer {
  name: "drop1"
  type: "Dropout"
  bottom: "InnerProduct5"
  top: "Dropout5"
  dropout_param {
    dropout_ratio: 0.5
  }
}
layer {
  name: "InnerProduct6"
  type: "InnerProduct"
  bottom: "Dropout5"
  top: "InnerProduct6"
  param {
    name: "fc2_w"
    lr_mult: 1
  }
  param {
    name: "fc2_b"
    lr_mult: 2
  }
  inner_product_param {
    num_output: 128
    weight_filler {
      type: "xavier"
    }
    bias_filler {
      type: "constant"
    }
  }
}
layer {
  name: "ReLU6"
  type: "ReLU"
  bottom: "InnerProduct6"
  top: "InnerProduct6"
}
layer {
  name: "drop2"
  type: "Dropout"
  bottom: "InnerProduct6"
  top: "Dropout6"
  dropout_param {
    dropout_ratio: 0.5
  }
}
layer {
  name: "m3"
  type: "InnerProduct"
  bottom: "Dropout6"
  top: "m3"
  param {
    name: "fc3_w"
    lr_mult: 1
  }
  param {
    name: "fc3_b"
    lr_mult: 2
  }
  inner_product_param {
    num_output: 1
    weight_filler {
      type: "xavier"
    }
    bias_filler {
      type: "constant"
    }
  }
}
layer {
  name: "Concat4"
  type: "Concat"
  bottom: "i1"
  bottom: "i14"
  top: "Concat4"
  concat_param {
    axis: 1
  }
}
layer {
  name: "InnerProduct7"
  type: "InnerProduct"
  bottom: "Concat4"
  top: "InnerProduct7"
  param {
    name: "fc1_w"
    lr_mult: 1
  }
  param {
    name: "fc1_b"
    lr_mult: 2
  }
  inner_product_param {
    num_output: 256
    weight_filler {
      type: "xavier"
    }
    bias_filler {
      type: "constant"
    }
  }
}
layer {
  name: "ReLU7"
  type: "ReLU"
  bottom: "InnerProduct7"
  top: "InnerProduct7"
}
layer {
  name: "drop1"
  type: "Dropout"
  bottom: "InnerProduct7"
  top: "Dropout7"
  dropout_param {
    dropout_ratio: 0.5
  }
}
layer {
  name: "InnerProduct8"
  type: "InnerProduct"
  bottom: "Dropout7"
  top: "InnerProduct8"
  param {
    name: "fc2_w"
    lr_mult: 1
  }
  param {
    name: "fc2_b"
    lr_mult: 2
  }
  inner_product_param {
    num_output: 128
    weight_filler {
      type: "xavier"
    }
    bias_filler {
      type: "constant"
    }
  }
}
layer {
  name: "ReLU8"
  type: "ReLU"
  bottom: "InnerProduct8"
  top: "InnerProduct8"
}
layer {
  name: "drop2"
  type: "Dropout"
  bottom: "InnerProduct8"
  top: "Dropout8"
  dropout_param {
    dropout_ratio: 0.5
  }
}
layer {
  name: "m4"
  type: "InnerProduct"
  bottom: "Dropout8"
  top: "m4"
  param {
    name: "fc3_w"
    lr_mult: 1
  }
  param {
    name: "fc3_b"
    lr_mult: 2
  }
  inner_product_param {
    num_output: 1
    weight_filler {
      type: "xavier"
    }
    bias_filler {
      type: "constant"
    }
  }
}
layer {
  name: "Concat5"
  type: "Concat"
  bottom: "i1"
  bottom: "i15"
  top: "Concat5"
  concat_param {
    axis: 1
  }
}
layer {
  name: "InnerProduct9"
  type: "InnerProduct"
  bottom: "Concat5"
  top: "InnerProduct9"
  param {
    name: "fc1_w"
    lr_mult: 1
  }
  param {
    name: "fc1_b"
    lr_mult: 2
  }
  inner_product_param {
    num_output: 256
    weight_filler {
      type: "xavier"
    }
    bias_filler {
      type: "constant"
    }
  }
}
layer {
  name: "ReLU9"
  type: "ReLU"
  bottom: "InnerProduct9"
  top: "InnerProduct9"
}
layer {
  name: "drop1"
  type: "Dropout"
  bottom: "InnerProduct9"
  top: "Dropout9"
  dropout_param {
    dropout_ratio: 0.5
  }
}
layer {
  name: "InnerProduct10"
  type: "InnerProduct"
  bottom: "Dropout9"
  top: "InnerProduct10"
  param {
    name: "fc2_w"
    lr_mult: 1
  }
  param {
    name: "fc2_b"
    lr_mult: 2
  }
  inner_product_param {
    num_output: 128
    weight_filler {
      type: "xavier"
    }
    bias_filler {
      type: "constant"
    }
  }
}
layer {
  name: "ReLU10"
  type: "ReLU"
  bottom: "InnerProduct10"
  top: "InnerProduct10"
}
layer {
  name: "drop2"
  type: "Dropout"
  bottom: "InnerProduct10"
  top: "Dropout10"
  dropout_param {
    dropout_ratio: 0.5
  }
}
layer {
  name: "m5"
  type: "InnerProduct"
  bottom: "Dropout10"
  top: "m5"
  param {
    name: "fc3_w"
    lr_mult: 1
  }
  param {
    name: "fc3_b"
    lr_mult: 2
  }
  inner_product_param {
    num_output: 1
    weight_filler {
      type: "xavier"
    }
    bias_filler {
      type: "constant"
    }
  }
}
layer {
  name: "Concat6"
  type: "Concat"
  bottom: "i1"
  bottom: "i16"
  top: "Concat6"
  concat_param {
    axis: 1
  }
}
layer {
  name: "InnerProduct11"
  type: "InnerProduct"
  bottom: "Concat6"
  top: "InnerProduct11"
  param {
    name: "fc1_w"
    lr_mult: 1
  }
  param {
    name: "fc1_b"
    lr_mult: 2
  }
  inner_product_param {
    num_output: 256
    weight_filler {
      type: "xavier"
    }
    bias_filler {
      type: "constant"
    }
  }
}
layer {
  name: "ReLU11"
  type: "ReLU"
  bottom: "InnerProduct11"
  top: "InnerProduct11"
}
layer {
  name: "drop1"
  type: "Dropout"
  bottom: "InnerProduct11"
  top: "Dropout11"
  dropout_param {
    dropout_ratio: 0.5
  }
}
layer {
  name: "InnerProduct12"
  type: "InnerProduct"
  bottom: "Dropout11"
  top: "InnerProduct12"
  param {
    name: "fc2_w"
    lr_mult: 1
  }
  param {
    name: "fc2_b"
    lr_mult: 2
  }
  inner_product_param {
    num_output: 128
    weight_filler {
      type: "xavier"
    }
    bias_filler {
      type: "constant"
    }
  }
}
layer {
  name: "ReLU12"
  type: "ReLU"
  bottom: "InnerProduct12"
  top: "InnerProduct12"
}
layer {
  name: "drop2"
  type: "Dropout"
  bottom: "InnerProduct12"
  top: "Dropout12"
  dropout_param {
    dropout_ratio: 0.5
  }
}
layer {
  name: "m6"
  type: "InnerProduct"
  bottom: "Dropout12"
  top: "m6"
  param {
    name: "fc3_w"
    lr_mult: 1
  }
  param {
    name: "fc3_b"
    lr_mult: 2
  }
  inner_product_param {
    num_output: 1
    weight_filler {
      type: "xavier"
    }
    bias_filler {
      type: "constant"
    }
  }
}
layer {
  name: "Concat7"
  type: "Concat"
  bottom: "i1"
  bottom: "i17"
  top: "Concat7"
  concat_param {
    axis: 1
  }
}
layer {
  name: "InnerProduct13"
  type: "InnerProduct"
  bottom: "Concat7"
  top: "InnerProduct13"
  param {
    name: "fc1_w"
    lr_mult: 1
  }
  param {
    name: "fc1_b"
    lr_mult: 2
  }
  inner_product_param {
    num_output: 256
    weight_filler {
      type: "xavier"
    }
    bias_filler {
      type: "constant"
    }
  }
}
layer {
  name: "ReLU13"
  type: "ReLU"
  bottom: "InnerProduct13"
  top: "InnerProduct13"
}
layer {
  name: "drop1"
  type: "Dropout"
  bottom: "InnerProduct13"
  top: "Dropout13"
  dropout_param {
    dropout_ratio: 0.5
  }
}
layer {
  name: "InnerProduct14"
  type: "InnerProduct"
  bottom: "Dropout13"
  top: "InnerProduct14"
  param {
    name: "fc2_w"
    lr_mult: 1
  }
  param {
    name: "fc2_b"
    lr_mult: 2
  }
  inner_product_param {
    num_output: 128
    weight_filler {
      type: "xavier"
    }
    bias_filler {
      type: "constant"
    }
  }
}
layer {
  name: "ReLU14"
  type: "ReLU"
  bottom: "InnerProduct14"
  top: "InnerProduct14"
}
layer {
  name: "drop2"
  type: "Dropout"
  bottom: "InnerProduct14"
  top: "Dropout14"
  dropout_param {
    dropout_ratio: 0.5
  }
}
layer {
  name: "m7"
  type: "InnerProduct"
  bottom: "Dropout14"
  top: "m7"
  param {
    name: "fc3_w"
    lr_mult: 1
  }
  param {
    name: "fc3_b"
    lr_mult: 2
  }
  inner_product_param {
    num_output: 1
    weight_filler {
      type: "xavier"
    }
    bias_filler {
      type: "constant"
    }
  }
}
layer {
  name: "Concat8"
  type: "Concat"
  bottom: "i1"
  bottom: "i18"
  top: "Concat8"
  concat_param {
    axis: 1
  }
}
layer {
  name: "InnerProduct15"
  type: "InnerProduct"
  bottom: "Concat8"
  top: "InnerProduct15"
  param {
    name: "fc1_w"
    lr_mult: 1
  }
  param {
    name: "fc1_b"
    lr_mult: 2
  }
  inner_product_param {
    num_output: 256
    weight_filler {
      type: "xavier"
    }
    bias_filler {
      type: "constant"
    }
  }
}
layer {
  name: "ReLU15"
  type: "ReLU"
  bottom: "InnerProduct15"
  top: "InnerProduct15"
}
layer {
  name: "drop1"
  type: "Dropout"
  bottom: "InnerProduct15"
  top: "Dropout15"
  dropout_param {
    dropout_ratio: 0.5
  }
}
layer {
  name: "InnerProduct16"
  type: "InnerProduct"
  bottom: "Dropout15"
  top: "InnerProduct16"
  param {
    name: "fc2_w"
    lr_mult: 1
  }
  param {
    name: "fc2_b"
    lr_mult: 2
  }
  inner_product_param {
    num_output: 128
    weight_filler {
      type: "xavier"
    }
    bias_filler {
      type: "constant"
    }
  }
}
layer {
  name: "ReLU16"
  type: "ReLU"
  bottom: "InnerProduct16"
  top: "InnerProduct16"
}
layer {
  name: "drop2"
  type: "Dropout"
  bottom: "InnerProduct16"
  top: "Dropout16"
  dropout_param {
    dropout_ratio: 0.5
  }
}
layer {
  name: "m8"
  type: "InnerProduct"
  bottom: "Dropout16"
  top: "m8"
  param {
    name: "fc3_w"
    lr_mult: 1
  }
  param {
    name: "fc3_b"
    lr_mult: 2
  }
  inner_product_param {
    num_output: 1
    weight_filler {
      type: "xavier"
    }
    bias_filler {
      type: "constant"
    }
  }
}
layer {
  name: "Concat9"
  type: "Concat"
  bottom: "i1"
  bottom: "i19"
  top: "Concat9"
  concat_param {
    axis: 1
  }
}
layer {
  name: "InnerProduct17"
  type: "InnerProduct"
  bottom: "Concat9"
  top: "InnerProduct17"
  param {
    name: "fc1_w"
    lr_mult: 1
  }
  param {
    name: "fc1_b"
    lr_mult: 2
  }
  inner_product_param {
    num_output: 256
    weight_filler {
      type: "xavier"
    }
    bias_filler {
      type: "constant"
    }
  }
}
layer {
  name: "ReLU17"
  type: "ReLU"
  bottom: "InnerProduct17"
  top: "InnerProduct17"
}
layer {
  name: "drop1"
  type: "Dropout"
  bottom: "InnerProduct17"
  top: "Dropout17"
  dropout_param {
    dropout_ratio: 0.5
  }
}
layer {
  name: "InnerProduct18"
  type: "InnerProduct"
  bottom: "Dropout17"
  top: "InnerProduct18"
  param {
    name: "fc2_w"
    lr_mult: 1
  }
  param {
    name: "fc2_b"
    lr_mult: 2
  }
  inner_product_param {
    num_output: 128
    weight_filler {
      type: "xavier"
    }
    bias_filler {
      type: "constant"
    }
  }
}
layer {
  name: "ReLU18"
  type: "ReLU"
  bottom: "InnerProduct18"
  top: "InnerProduct18"
}
layer {
  name: "drop2"
  type: "Dropout"
  bottom: "InnerProduct18"
  top: "Dropout18"
  dropout_param {
    dropout_ratio: 0.5
  }
}
layer {
  name: "m9"
  type: "InnerProduct"
  bottom: "Dropout18"
  top: "m9"
  param {
    name: "fc3_w"
    lr_mult: 1
  }
  param {
    name: "fc3_b"
    lr_mult: 2
  }
  inner_product_param {
    num_output: 1
    weight_filler {
      type: "xavier"
    }
    bias_filler {
      type: "constant"
    }
  }
}
layer {
  name: "Concat10"
  type: "Concat"
  bottom: "i1"
  bottom: "i20"
  top: "Concat10"
  concat_param {
    axis: 1
  }
}
layer {
  name: "InnerProduct19"
  type: "InnerProduct"
  bottom: "Concat10"
  top: "InnerProduct19"
  param {
    name: "fc1_w"
    lr_mult: 1
  }
  param {
    name: "fc1_b"
    lr_mult: 2
  }
  inner_product_param {
    num_output: 256
    weight_filler {
      type: "xavier"
    }
    bias_filler {
      type: "constant"
    }
  }
}
layer {
  name: "ReLU19"
  type: "ReLU"
  bottom: "InnerProduct19"
  top: "InnerProduct19"
}
layer {
  name: "drop1"
  type: "Dropout"
  bottom: "InnerProduct19"
  top: "Dropout19"
  dropout_param {
    dropout_ratio: 0.5
  }
}
layer {
  name: "InnerProduct20"
  type: "InnerProduct"
  bottom: "Dropout19"
  top: "InnerProduct20"
  param {
    name: "fc2_w"
    lr_mult: 1
  }
  param {
    name: "fc2_b"
    lr_mult: 2
  }
  inner_product_param {
    num_output: 128
    weight_filler {
      type: "xavier"
    }
    bias_filler {
      type: "constant"
    }
  }
}
layer {
  name: "ReLU20"
  type: "ReLU"
  bottom: "InnerProduct20"
  top: "InnerProduct20"
}
layer {
  name: "drop2"
  type: "Dropout"
  bottom: "InnerProduct20"
  top: "Dropout20"
  dropout_param {
    dropout_ratio: 0.5
  }
}
layer {
  name: "m10"
  type: "InnerProduct"
  bottom: "Dropout20"
  top: "m10"
  param {
    name: "fc3_w"
    lr_mult: 1
  }
  param {
    name: "fc3_b"
    lr_mult: 2
  }
  inner_product_param {
    num_output: 1
    weight_filler {
      type: "xavier"
    }
    bias_filler {
      type: "constant"
    }
  }
}
layer {
  name: "Concat11"
  type: "Concat"
  bottom: "i2"
  bottom: "i11"
  top: "Concat11"
  concat_param {
    axis: 1
  }
}
layer {
  name: "InnerProduct21"
  type: "InnerProduct"
  bottom: "Concat11"
  top: "InnerProduct21"
  param {
    name: "fc1_w"
    lr_mult: 1
  }
  param {
    name: "fc1_b"
    lr_mult: 2
  }
  inner_product_param {
    num_output: 256
    weight_filler {
      type: "xavier"
    }
    bias_filler {
      type: "constant"
    }
  }
}
layer {
  name: "ReLU21"
  type: "ReLU"
  bottom: "InnerProduct21"
  top: "InnerProduct21"
}
layer {
  name: "drop1"
  type: "Dropout"
  bottom: "InnerProduct21"
  top: "Dropout21"
  dropout_param {
    dropout_ratio: 0.5
  }
}
layer {
  name: "InnerProduct22"
  type: "InnerProduct"
  bottom: "Dropout21"
  top: "InnerProduct22"
  param {
    name: "fc2_w"
    lr_mult: 1
  }
  param {
    name: "fc2_b"
    lr_mult: 2
  }
  inner_product_param {
    num_output: 128
    weight_filler {
      type: "xavier"
    }
    bias_filler {
      type: "constant"
    }
  }
}
layer {
  name: "ReLU22"
  type: "ReLU"
  bottom: "InnerProduct22"
  top: "InnerProduct22"
}
layer {
  name: "drop2"
  type: "Dropout"
  bottom: "InnerProduct22"
  top: "Dropout22"
  dropout_param {
    dropout_ratio: 0.5
  }
}
layer {
  name: "m11"
  type: "InnerProduct"
  bottom: "Dropout22"
  top: "m11"
  param {
    name: "fc3_w"
    lr_mult: 1
  }
  param {
    name: "fc3_b"
    lr_mult: 2
  }
  inner_product_param {
    num_output: 1
    weight_filler {
      type: "xavier"
    }
    bias_filler {
      type: "constant"
    }
  }
}
layer {
  name: "Concat12"
  type: "Concat"
  bottom: "i3"
  bottom: "i11"
  top: "Concat12"
  concat_param {
    axis: 1
  }
}
layer {
  name: "InnerProduct23"
  type: "InnerProduct"
  bottom: "Concat12"
  top: "InnerProduct23"
  param {
    name: "fc1_w"
    lr_mult: 1
  }
  param {
    name: "fc1_b"
    lr_mult: 2
  }
  inner_product_param {
    num_output: 256
    weight_filler {
      type: "xavier"
    }
    bias_filler {
      type: "constant"
    }
  }
}
layer {
  name: "ReLU23"
  type: "ReLU"
  bottom: "InnerProduct23"
  top: "InnerProduct23"
}
layer {
  name: "drop1"
  type: "Dropout"
  bottom: "InnerProduct23"
  top: "Dropout23"
  dropout_param {
    dropout_ratio: 0.5
  }
}
layer {
  name: "InnerProduct24"
  type: "InnerProduct"
  bottom: "Dropout23"
  top: "InnerProduct24"
  param {
    name: "fc2_w"
    lr_mult: 1
  }
  param {
    name: "fc2_b"
    lr_mult: 2
  }
  inner_product_param {
    num_output: 128
    weight_filler {
      type: "xavier"
    }
    bias_filler {
      type: "constant"
    }
  }
}
layer {
  name: "ReLU24"
  type: "ReLU"
  bottom: "InnerProduct24"
  top: "InnerProduct24"
}
layer {
  name: "drop2"
  type: "Dropout"
  bottom: "InnerProduct24"
  top: "Dropout24"
  dropout_param {
    dropout_ratio: 0.5
  }
}
layer {
  name: "m12"
  type: "InnerProduct"
  bottom: "Dropout24"
  top: "m12"
  param {
    name: "fc3_w"
    lr_mult: 1
  }
  param {
    name: "fc3_b"
    lr_mult: 2
  }
  inner_product_param {
    num_output: 1
    weight_filler {
      type: "xavier"
    }
    bias_filler {
      type: "constant"
    }
  }
}
layer {
  name: "Concat13"
  type: "Concat"
  bottom: "i4"
  bottom: "i11"
  top: "Concat13"
  concat_param {
    axis: 1
  }
}
layer {
  name: "InnerProduct25"
  type: "InnerProduct"
  bottom: "Concat13"
  top: "InnerProduct25"
  param {
    name: "fc1_w"
    lr_mult: 1
  }
  param {
    name: "fc1_b"
    lr_mult: 2
  }
  inner_product_param {
    num_output: 256
    weight_filler {
      type: "xavier"
    }
    bias_filler {
      type: "constant"
    }
  }
}
layer {
  name: "ReLU25"
  type: "ReLU"
  bottom: "InnerProduct25"
  top: "InnerProduct25"
}
layer {
  name: "drop1"
  type: "Dropout"
  bottom: "InnerProduct25"
  top: "Dropout25"
  dropout_param {
    dropout_ratio: 0.5
  }
}
layer {
  name: "InnerProduct26"
  type: "InnerProduct"
  bottom: "Dropout25"
  top: "InnerProduct26"
  param {
    name: "fc2_w"
    lr_mult: 1
  }
  param {
    name: "fc2_b"
    lr_mult: 2
  }
  inner_product_param {
    num_output: 128
    weight_filler {
      type: "xavier"
    }
    bias_filler {
      type: "constant"
    }
  }
}
layer {
  name: "ReLU26"
  type: "ReLU"
  bottom: "InnerProduct26"
  top: "InnerProduct26"
}
layer {
  name: "drop2"
  type: "Dropout"
  bottom: "InnerProduct26"
  top: "Dropout26"
  dropout_param {
    dropout_ratio: 0.5
  }
}
layer {
  name: "m13"
  type: "InnerProduct"
  bottom: "Dropout26"
  top: "m13"
  param {
    name: "fc3_w"
    lr_mult: 1
  }
  param {
    name: "fc3_b"
    lr_mult: 2
  }
  inner_product_param {
    num_output: 1
    weight_filler {
      type: "xavier"
    }
    bias_filler {
      type: "constant"
    }
  }
}
layer {
  name: "Concat14"
  type: "Concat"
  bottom: "i5"
  bottom: "i11"
  top: "Concat14"
  concat_param {
    axis: 1
  }
}
layer {
  name: "InnerProduct27"
  type: "InnerProduct"
  bottom: "Concat14"
  top: "InnerProduct27"
  param {
    name: "fc1_w"
    lr_mult: 1
  }
  param {
    name: "fc1_b"
    lr_mult: 2
  }
  inner_product_param {
    num_output: 256
    weight_filler {
      type: "xavier"
    }
    bias_filler {
      type: "constant"
    }
  }
}
layer {
  name: "ReLU27"
  type: "ReLU"
  bottom: "InnerProduct27"
  top: "InnerProduct27"
}
layer {
  name: "drop1"
  type: "Dropout"
  bottom: "InnerProduct27"
  top: "Dropout27"
  dropout_param {
    dropout_ratio: 0.5
  }
}
layer {
  name: "InnerProduct28"
  type: "InnerProduct"
  bottom: "Dropout27"
  top: "InnerProduct28"
  param {
    name: "fc2_w"
    lr_mult: 1
  }
  param {
    name: "fc2_b"
    lr_mult: 2
  }
  inner_product_param {
    num_output: 128
    weight_filler {
      type: "xavier"
    }
    bias_filler {
      type: "constant"
    }
  }
}
layer {
  name: "ReLU28"
  type: "ReLU"
  bottom: "InnerProduct28"
  top: "InnerProduct28"
}
layer {
  name: "drop2"
  type: "Dropout"
  bottom: "InnerProduct28"
  top: "Dropout28"
  dropout_param {
    dropout_ratio: 0.5
  }
}
layer {
  name: "m14"
  type: "InnerProduct"
  bottom: "Dropout28"
  top: "m14"
  param {
    name: "fc3_w"
    lr_mult: 1
  }
  param {
    name: "fc3_b"
    lr_mult: 2
  }
  inner_product_param {
    num_output: 1
    weight_filler {
      type: "xavier"
    }
    bias_filler {
      type: "constant"
    }
  }
}
layer {
  name: "Concat15"
  type: "Concat"
  bottom: "i6"
  bottom: "i11"
  top: "Concat15"
  concat_param {
    axis: 1
  }
}
layer {
  name: "InnerProduct29"
  type: "InnerProduct"
  bottom: "Concat15"
  top: "InnerProduct29"
  param {
    name: "fc1_w"
    lr_mult: 1
  }
  param {
    name: "fc1_b"
    lr_mult: 2
  }
  inner_product_param {
    num_output: 256
    weight_filler {
      type: "xavier"
    }
    bias_filler {
      type: "constant"
    }
  }
}
layer {
  name: "ReLU29"
  type: "ReLU"
  bottom: "InnerProduct29"
  top: "InnerProduct29"
}
layer {
  name: "drop1"
  type: "Dropout"
  bottom: "InnerProduct29"
  top: "Dropout29"
  dropout_param {
    dropout_ratio: 0.5
  }
}
layer {
  name: "InnerProduct30"
  type: "InnerProduct"
  bottom: "Dropout29"
  top: "InnerProduct30"
  param {
    name: "fc2_w"
    lr_mult: 1
  }
  param {
    name: "fc2_b"
    lr_mult: 2
  }
  inner_product_param {
    num_output: 128
    weight_filler {
      type: "xavier"
    }
    bias_filler {
      type: "constant"
    }
  }
}
layer {
  name: "ReLU30"
  type: "ReLU"
  bottom: "InnerProduct30"
  top: "InnerProduct30"
}
layer {
  name: "drop2"
  type: "Dropout"
  bottom: "InnerProduct30"
  top: "Dropout30"
  dropout_param {
    dropout_ratio: 0.5
  }
}
layer {
  name: "m15"
  type: "InnerProduct"
  bottom: "Dropout30"
  top: "m15"
  param {
    name: "fc3_w"
    lr_mult: 1
  }
  param {
    name: "fc3_b"
    lr_mult: 2
  }
  inner_product_param {
    num_output: 1
    weight_filler {
      type: "xavier"
    }
    bias_filler {
      type: "constant"
    }
  }
}
layer {
  name: "Concat16"
  type: "Concat"
  bottom: "i7"
  bottom: "i11"
  top: "Concat16"
  concat_param {
    axis: 1
  }
}
layer {
  name: "InnerProduct31"
  type: "InnerProduct"
  bottom: "Concat16"
  top: "InnerProduct31"
  param {
    name: "fc1_w"
    lr_mult: 1
  }
  param {
    name: "fc1_b"
    lr_mult: 2
  }
  inner_product_param {
    num_output: 256
    weight_filler {
      type: "xavier"
    }
    bias_filler {
      type: "constant"
    }
  }
}
layer {
  name: "ReLU31"
  type: "ReLU"
  bottom: "InnerProduct31"
  top: "InnerProduct31"
}
layer {
  name: "drop1"
  type: "Dropout"
  bottom: "InnerProduct31"
  top: "Dropout31"
  dropout_param {
    dropout_ratio: 0.5
  }
}
layer {
  name: "InnerProduct32"
  type: "InnerProduct"
  bottom: "Dropout31"
  top: "InnerProduct32"
  param {
    name: "fc2_w"
    lr_mult: 1
  }
  param {
    name: "fc2_b"
    lr_mult: 2
  }
  inner_product_param {
    num_output: 128
    weight_filler {
      type: "xavier"
    }
    bias_filler {
      type: "constant"
    }
  }
}
layer {
  name: "ReLU32"
  type: "ReLU"
  bottom: "InnerProduct32"
  top: "InnerProduct32"
}
layer {
  name: "drop2"
  type: "Dropout"
  bottom: "InnerProduct32"
  top: "Dropout32"
  dropout_param {
    dropout_ratio: 0.5
  }
}
layer {
  name: "m16"
  type: "InnerProduct"
  bottom: "Dropout32"
  top: "m16"
  param {
    name: "fc3_w"
    lr_mult: 1
  }
  param {
    name: "fc3_b"
    lr_mult: 2
  }
  inner_product_param {
    num_output: 1
    weight_filler {
      type: "xavier"
    }
    bias_filler {
      type: "constant"
    }
  }
}
layer {
  name: "Concat17"
  type: "Concat"
  bottom: "i8"
  bottom: "i11"
  top: "Concat17"
  concat_param {
    axis: 1
  }
}
layer {
  name: "InnerProduct33"
  type: "InnerProduct"
  bottom: "Concat17"
  top: "InnerProduct33"
  param {
    name: "fc1_w"
    lr_mult: 1
  }
  param {
    name: "fc1_b"
    lr_mult: 2
  }
  inner_product_param {
    num_output: 256
    weight_filler {
      type: "xavier"
    }
    bias_filler {
      type: "constant"
    }
  }
}
layer {
  name: "ReLU33"
  type: "ReLU"
  bottom: "InnerProduct33"
  top: "InnerProduct33"
}
layer {
  name: "drop1"
  type: "Dropout"
  bottom: "InnerProduct33"
  top: "Dropout33"
  dropout_param {
    dropout_ratio: 0.5
  }
}
layer {
  name: "InnerProduct34"
  type: "InnerProduct"
  bottom: "Dropout33"
  top: "InnerProduct34"
  param {
    name: "fc2_w"
    lr_mult: 1
  }
  param {
    name: "fc2_b"
    lr_mult: 2
  }
  inner_product_param {
    num_output: 128
    weight_filler {
      type: "xavier"
    }
    bias_filler {
      type: "constant"
    }
  }
}
layer {
  name: "ReLU34"
  type: "ReLU"
  bottom: "InnerProduct34"
  top: "InnerProduct34"
}
layer {
  name: "drop2"
  type: "Dropout"
  bottom: "InnerProduct34"
  top: "Dropout34"
  dropout_param {
    dropout_ratio: 0.5
  }
}
layer {
  name: "m17"
  type: "InnerProduct"
  bottom: "Dropout34"
  top: "m17"
  param {
    name: "fc3_w"
    lr_mult: 1
  }
  param {
    name: "fc3_b"
    lr_mult: 2
  }
  inner_product_param {
    num_output: 1
    weight_filler {
      type: "xavier"
    }
    bias_filler {
      type: "constant"
    }
  }
}
layer {
  name: "Concat18"
  type: "Concat"
  bottom: "i9"
  bottom: "i11"
  top: "Concat18"
  concat_param {
    axis: 1
  }
}
layer {
  name: "InnerProduct35"
  type: "InnerProduct"
  bottom: "Concat18"
  top: "InnerProduct35"
  param {
    name: "fc1_w"
    lr_mult: 1
  }
  param {
    name: "fc1_b"
    lr_mult: 2
  }
  inner_product_param {
    num_output: 256
    weight_filler {
      type: "xavier"
    }
    bias_filler {
      type: "constant"
    }
  }
}
layer {
  name: "ReLU35"
  type: "ReLU"
  bottom: "InnerProduct35"
  top: "InnerProduct35"
}
layer {
  name: "drop1"
  type: "Dropout"
  bottom: "InnerProduct35"
  top: "Dropout35"
  dropout_param {
    dropout_ratio: 0.5
  }
}
layer {
  name: "InnerProduct36"
  type: "InnerProduct"
  bottom: "Dropout35"
  top: "InnerProduct36"
  param {
    name: "fc2_w"
    lr_mult: 1
  }
  param {
    name: "fc2_b"
    lr_mult: 2
  }
  inner_product_param {
    num_output: 128
    weight_filler {
      type: "xavier"
    }
    bias_filler {
      type: "constant"
    }
  }
}
layer {
  name: "ReLU36"
  type: "ReLU"
  bottom: "InnerProduct36"
  top: "InnerProduct36"
}
layer {
  name: "drop2"
  type: "Dropout"
  bottom: "InnerProduct36"
  top: "Dropout36"
  dropout_param {
    dropout_ratio: 0.5
  }
}
layer {
  name: "m18"
  type: "InnerProduct"
  bottom: "Dropout36"
  top: "m18"
  param {
    name: "fc3_w"
    lr_mult: 1
  }
  param {
    name: "fc3_b"
    lr_mult: 2
  }
  inner_product_param {
    num_output: 1
    weight_filler {
      type: "xavier"
    }
    bias_filler {
      type: "constant"
    }
  }
}
layer {
  name: "Concat19"
  type: "Concat"
  bottom: "i10"
  bottom: "i11"
  top: "Concat19"
  concat_param {
    axis: 1
  }
}
layer {
  name: "InnerProduct37"
  type: "InnerProduct"
  bottom: "Concat19"
  top: "InnerProduct37"
  param {
    name: "fc1_w"
    lr_mult: 1
  }
  param {
    name: "fc1_b"
    lr_mult: 2
  }
  inner_product_param {
    num_output: 256
    weight_filler {
      type: "xavier"
    }
    bias_filler {
      type: "constant"
    }
  }
}
layer {
  name: "ReLU3
I0813 23:14:22.204566 21738 layer_factory.hpp:77] Creating layer data
I0813 23:14:22.206110 21738 net.cpp:91] Creating Layer data
I0813 23:14:22.206146 21738 net.cpp:399] data -> data
I0813 23:14:22.206229 21738 net.cpp:399] data -> label
I0813 23:14:22.206362 21742 db_lmdb.cpp:35] Opened lmdb /home/shaogang/Datasets/FeatsDB/featsTrain20k
I0813 23:14:22.207762 21738 data_layer.cpp:41] output data size: 200,1,20,4096
I0813 23:14:22.302897 21738 net.cpp:141] Setting up data
I0813 23:14:22.302973 21738 net.cpp:148] Top shape: 200 1 20 4096 (16384000)
I0813 23:14:22.302986 21738 net.cpp:148] Top shape: 200 (200)
I0813 23:14:22.302994 21738 net.cpp:156] Memory required for data: 65536800
I0813 23:14:22.303016 21738 layer_factory.hpp:77] Creating layer label_data_1_split
I0813 23:14:22.303043 21738 net.cpp:91] Creating Layer label_data_1_split
I0813 23:14:22.303057 21738 net.cpp:425] label_data_1_split <- label
I0813 23:14:22.303077 21738 net.cpp:399] label_data_1_split -> label_data_1_split_0
I0813 23:14:22.303100 21738 net.cpp:399] label_data_1_split -> label_data_1_split_1
I0813 23:14:22.303144 21738 net.cpp:141] Setting up label_data_1_split
I0813 23:14:22.303159 21738 net.cpp:148] Top shape: 200 (200)
I0813 23:14:22.303167 21738 net.cpp:148] Top shape: 200 (200)
I0813 23:14:22.303174 21738 net.cpp:156] Memory required for data: 65538400
I0813 23:14:22.303189 21738 layer_factory.hpp:77] Creating layer th
I0813 23:14:22.303206 21738 net.cpp:91] Creating Layer th
I0813 23:14:22.303215 21738 net.cpp:425] th <- label_data_1_split_0
I0813 23:14:22.303227 21738 net.cpp:399] th -> th
I0813 23:14:22.303246 21738 net.cpp:141] Setting up th
I0813 23:14:22.303256 21738 net.cpp:148] Top shape: 200 (200)
I0813 23:14:22.303262 21738 net.cpp:156] Memory required for data: 65539200
I0813 23:14:22.303269 21738 layer_factory.hpp:77] Creating layer th_th_0_split
I0813 23:14:22.303280 21738 net.cpp:91] Creating Layer th_th_0_split
I0813 23:14:22.303288 21738 net.cpp:425] th_th_0_split <- th
I0813 23:14:22.303298 21738 net.cpp:399] th_th_0_split -> th_th_0_split_0
I0813 23:14:22.303310 21738 net.cpp:399] th_th_0_split -> th_th_0_split_1
I0813 23:14:22.303323 21738 net.cpp:141] Setting up th_th_0_split
I0813 23:14:22.303333 21738 net.cpp:148] Top shape: 200 (200)
I0813 23:14:22.303375 21738 net.cpp:148] Top shape: 200 (200)
I0813 23:14:22.303382 21738 net.cpp:156] Memory required for data: 65540800
I0813 23:14:22.303390 21738 layer_factory.hpp:77] Creating layer i1
I0813 23:14:22.303418 21738 net.cpp:91] Creating Layer i1
I0813 23:14:22.303429 21738 net.cpp:425] i1 <- data
I0813 23:14:22.303444 21738 net.cpp:399] i1 -> i1
I0813 23:14:22.303467 21738 net.cpp:399] i1 -> i2
I0813 23:14:22.303488 21738 net.cpp:399] i1 -> i3
I0813 23:14:22.303506 21738 net.cpp:399] i1 -> i4
I0813 23:14:22.303519 21738 net.cpp:399] i1 -> i5
I0813 23:14:22.303535 21738 net.cpp:399] i1 -> i6
I0813 23:14:22.303550 21738 net.cpp:399] i1 -> i7
I0813 23:14:22.303565 21738 net.cpp:399] i1 -> i8
I0813 23:14:22.303580 21738 net.cpp:399] i1 -> i9
I0813 23:14:22.303596 21738 net.cpp:399] i1 -> i10
I0813 23:14:22.303616 21738 net.cpp:399] i1 -> i11
I0813 23:14:22.303632 21738 net.cpp:399] i1 -> i12
I0813 23:14:22.303645 21738 net.cpp:399] i1 -> i13
I0813 23:14:22.303660 21738 net.cpp:399] i1 -> i14
I0813 23:14:22.303678 21738 net.cpp:399] i1 -> i15
I0813 23:14:22.303691 21738 net.cpp:399] i1 -> i16
I0813 23:14:22.303704 21738 net.cpp:399] i1 -> i17
I0813 23:14:22.303719 21738 net.cpp:399] i1 -> i18
I0813 23:14:22.303736 21738 net.cpp:399] i1 -> i19
I0813 23:14:22.303750 21738 net.cpp:399] i1 -> i20
I0813 23:14:22.303784 21738 net.cpp:141] Setting up i1
I0813 23:14:22.303797 21738 net.cpp:148] Top shape: 200 1 1 4096 (819200)
I0813 23:14:22.303805 21738 net.cpp:148] Top shape: 200 1 1 4096 (819200)
I0813 23:14:22.303813 21738 net.cpp:148] Top shape: 200 1 1 4096 (819200)
I0813 23:14:22.303822 21738 net.cpp:148] Top shape: 200 1 1 4096 (819200)
I0813 23:14:22.303828 21738 net.cpp:148] Top shape: 200 1 1 4096 (819200)
I0813 23:14:22.303835 21738 net.cpp:148] Top shape: 200 1 1 4096 (819200)
I0813 23:14:22.303843 21738 net.cpp:148] Top shape: 200 1 1 4096 (819200)
I0813 23:14:22.303851 21738 net.cpp:148] Top shape: 200 1 1 4096 (819200)
I0813 23:14:22.303859 21738 net.cpp:148] Top shape: 200 1 1 4096 (819200)
I0813 23:14:22.303867 21738 net.cpp:148] Top shape: 200 1 1 4096 (819200)
I0813 23:14:22.303874 21738 net.cpp:148] Top shape: 200 1 1 4096 (819200)
I0813 23:14:22.303882 21738 net.cpp:148] Top shape: 200 1 1 4096 (819200)
I0813 23:14:22.303889 21738 net.cpp:148] Top shape: 200 1 1 4096 (819200)
I0813 23:14:22.303896 21738 net.cpp:148] Top shape: 200 1 1 4096 (819200)
I0813 23:14:22.303905 21738 net.cpp:148] Top shape: 200 1 1 4096 (819200)
I0813 23:14:22.303912 21738 net.cpp:148] Top shape: 200 1 1 4096 (819200)
I0813 23:14:22.303920 21738 net.cpp:148] Top shape: 200 1 1 4096 (819200)
I0813 23:14:22.303927 21738 net.cpp:148] Top shape: 200 1 1 4096 (819200)
I0813 23:14:22.303935 21738 net.cpp:148] Top shape: 200 1 1 4096 (819200)
I0813 23:14:22.303941 21738 net.cpp:148] Top shape: 200 1 1 4096 (819200)
I0813 23:14:22.303948 21738 net.cpp:156] Memory required for data: 131076800
I0813 23:14:22.303956 21738 layer_factory.hpp:77] Creating layer i1_i1_0_split
I0813 23:14:22.303969 21738 net.cpp:91] Creating Layer i1_i1_0_split
I0813 23:14:22.303975 21738 net.cpp:425] i1_i1_0_split <- i1
I0813 23:14:22.303987 21738 net.cpp:399] i1_i1_0_split -> i1_i1_0_split_0
I0813 23:14:22.303999 21738 net.cpp:399] i1_i1_0_split -> i1_i1_0_split_1
I0813 23:14:22.304011 21738 net.cpp:399] i1_i1_0_split -> i1_i1_0_split_2
I0813 23:14:22.304023 21738 net.cpp:399] i1_i1_0_split -> i1_i1_0_split_3
I0813 23:14:22.304059 21738 net.cpp:399] i1_i1_0_split -> i1_i1_0_split_4
I0813 23:14:22.304093 21738 net.cpp:399] i1_i1_0_split -> i1_i1_0_split_5
I0813 23:14:22.304121 21738 net.cpp:399] i1_i1_0_split -> i1_i1_0_split_6
I0813 23:14:22.304132 21738 net.cpp:399] i1_i1_0_split -> i1_i1_0_split_7
I0813 23:14:22.304144 21738 net.cpp:399] i1_i1_0_split -> i1_i1_0_split_8
I0813 23:14:22.304157 21738 net.cpp:399] i1_i1_0_split -> i1_i1_0_split_9
I0813 23:14:22.304178 21738 net.cpp:141] Setting up i1_i1_0_split
I0813 23:14:22.304193 21738 net.cpp:148] Top shape: 200 1 1 4096 (819200)
I0813 23:14:22.304201 21738 net.cpp:148] Top shape: 200 1 1 4096 (819200)
I0813 23:14:22.304225 21738 net.cpp:148] Top shape: 200 1 1 4096 (819200)
I0813 23:14:22.304232 21738 net.cpp:148] Top shape: 200 1 1 4096 (819200)
I0813 23:14:22.304240 21738 net.cpp:148] Top shape: 200 1 1 4096 (819200)
I0813 23:14:22.304249 21738 net.cpp:148] Top shape: 200 1 1 4096 (819200)
I0813 23:14:22.304255 21738 net.cpp:148] Top shape: 200 1 1 4096 (819200)
I0813 23:14:22.304263 21738 net.cpp:148] Top shape: 200 1 1 4096 (819200)
I0813 23:14:22.304271 21738 net.cpp:148] Top shape: 200 1 1 4096 (819200)
I0813 23:14:22.304278 21738 net.cpp:148] Top shape: 200 1 1 4096 (819200)
I0813 23:14:22.304285 21738 net.cpp:156] Memory required for data: 163844800
I0813 23:14:22.304291 21738 layer_factory.hpp:77] Creating layer i11_i1_10_split
I0813 23:14:22.304304 21738 net.cpp:91] Creating Layer i11_i1_10_split
I0813 23:14:22.304311 21738 net.cpp:425] i11_i1_10_split <- i11
I0813 23:14:22.304323 21738 net.cpp:399] i11_i1_10_split -> i11_i1_10_split_0
I0813 23:14:22.304335 21738 net.cpp:399] i11_i1_10_split -> i11_i1_10_split_1
I0813 23:14:22.304357 21738 net.cpp:399] i11_i1_10_split -> i11_i1_10_split_2
I0813 23:14:22.304368 21738 net.cpp:399] i11_i1_10_split -> i11_i1_10_split_3
I0813 23:14:22.304379 21738 net.cpp:399] i11_i1_10_split -> i11_i1_10_split_4
I0813 23:14:22.304390 21738 net.cpp:399] i11_i1_10_split -> i11_i1_10_split_5
I0813 23:14:22.304402 21738 net.cpp:399] i11_i1_10_split -> i11_i1_10_split_6
I0813 23:14:22.304414 21738 net.cpp:399] i11_i1_10_split -> i11_i1_10_split_7
I0813 23:14:22.304425 21738 net.cpp:399] i11_i1_10_split -> i11_i1_10_split_8
I0813 23:14:22.304437 21738 net.cpp:399] i11_i1_10_split -> i11_i1_10_split_9
I0813 23:14:22.304455 21738 net.cpp:141] Setting up i11_i1_10_split
I0813 23:14:22.304464 21738 net.cpp:148] Top shape: 200 1 1 4096 (819200)
I0813 23:14:22.304472 21738 net.cpp:148] Top shape: 200 1 1 4096 (819200)
I0813 23:14:22.304479 21738 net.cpp:148] Top shape: 200 1 1 4096 (819200)
I0813 23:14:22.304486 21738 net.cpp:148] Top shape: 200 1 1 4096 (819200)
I0813 23:14:22.304493 21738 net.cpp:148] Top shape: 200 1 1 4096 (819200)
I0813 23:14:22.304500 21738 net.cpp:148] Top shape: 200 1 1 4096 (819200)
I0813 23:14:22.304508 21738 net.cpp:148] Top shape: 200 1 1 4096 (819200)
I0813 23:14:22.304515 21738 net.cpp:148] Top shape: 200 1 1 4096 (819200)
I0813 23:14:22.304522 21738 net.cpp:148] Top shape: 200 1 1 4096 (819200)
I0813 23:14:22.304529 21738 net.cpp:148] Top shape: 200 1 1 4096 (819200)
I0813 23:14:22.304535 21738 net.cpp:156] Memory required for data: 196612800
I0813 23:14:22.304543 21738 layer_factory.hpp:77] Creating layer Concat1
I0813 23:14:22.304555 21738 net.cpp:91] Creating Layer Concat1
I0813 23:14:22.304563 21738 net.cpp:425] Concat1 <- i1_i1_0_split_0
I0813 23:14:22.304571 21738 net.cpp:425] Concat1 <- i11_i1_10_split_0
I0813 23:14:22.304582 21738 net.cpp:399] Concat1 -> Concat1
I0813 23:14:22.304602 21738 net.cpp:141] Setting up Concat1
I0813 23:14:22.304611 21738 net.cpp:148] Top shape: 200 2 1 4096 (1638400)
I0813 23:14:22.304617 21738 net.cpp:156] Memory required for data: 203166400
I0813 23:14:22.304623 21738 layer_factory.hpp:77] Creating layer InnerProduct1
I0813 23:14:22.304642 21738 net.cpp:91] Creating Layer InnerProduct1
I0813 23:14:22.304648 21738 net.cpp:425] InnerProduct1 <- Concat1
I0813 23:14:22.304661 21738 net.cpp:399] InnerProduct1 -> InnerProduct1
I0813 23:14:22.338968 21738 net.cpp:141] Setting up InnerProduct1
I0813 23:14:22.339023 21738 net.cpp:148] Top shape: 200 256 (51200)
I0813 23:14:22.339035 21738 net.cpp:156] Memory required for data: 203371200
I0813 23:14:22.339067 21738 layer_factory.hpp:77] Creating layer ReLU1
I0813 23:14:22.339092 21738 net.cpp:91] Creating Layer ReLU1
I0813 23:14:22.339103 21738 net.cpp:425] ReLU1 <- InnerProduct1
I0813 23:14:22.339118 21738 net.cpp:386] ReLU1 -> InnerProduct1 (in-place)
I0813 23:14:22.339138 21738 net.cpp:141] Setting up ReLU1
I0813 23:14:22.339146 21738 net.cpp:148] Top shape: 200 256 (51200)
I0813 23:14:22.339154 21738 net.cpp:156] Memory required for data: 203576000
I0813 23:14:22.339207 21738 layer_factory.hpp:77] Creating layer drop1
I0813 23:14:22.339236 21738 net.cpp:91] Creating Layer drop1
I0813 23:14:22.339243 21738 net.cpp:425] drop1 <- InnerProduct1
I0813 23:14:22.339256 21738 net.cpp:399] drop1 -> Dropout1
I0813 23:14:22.339280 21738 net.cpp:141] Setting up drop1
I0813 23:14:22.339300 21738 net.cpp:148] Top shape: 200 256 (51200)
I0813 23:14:22.339308 21738 net.cpp:156] Memory required for data: 203780800
I0813 23:14:22.339314 21738 layer_factory.hpp:77] Creating layer InnerProduct2
I0813 23:14:22.339332 21738 net.cpp:91] Creating Layer InnerProduct2
I0813 23:14:22.339340 21738 net.cpp:425] InnerProduct2 <- Dropout1
I0813 23:14:22.339354 21738 net.cpp:399] InnerProduct2 -> InnerProduct2
I0813 23:14:22.339881 21738 net.cpp:141] Setting up InnerProduct2
I0813 23:14:22.339901 21738 net.cpp:148] Top shape: 200 128 (25600)
I0813 23:14:22.339910 21738 net.cpp:156] Memory required for data: 203883200
I0813 23:14:22.339926 21738 layer_factory.hpp:77] Creating layer ReLU2
I0813 23:14:22.339938 21738 net.cpp:91] Creating Layer ReLU2
I0813 23:14:22.339946 21738 net.cpp:425] ReLU2 <- InnerProduct2
I0813 23:14:22.339958 21738 net.cpp:386] ReLU2 -> InnerProduct2 (in-place)
I0813 23:14:22.339972 21738 net.cpp:141] Setting up ReLU2
I0813 23:14:22.339980 21738 net.cpp:148] Top shape: 200 128 (25600)
I0813 23:14:22.339987 21738 net.cpp:156] Memory required for data: 203985600
I0813 23:14:22.339993 21738 layer_factory.hpp:77] Creating layer drop2
I0813 23:14:22.340005 21738 net.cpp:91] Creating Layer drop2
I0813 23:14:22.340013 21738 net.cpp:425] drop2 <- InnerProduct2
I0813 23:14:22.340039 21738 net.cpp:399] drop2 -> Dropout2
I0813 23:14:22.340055 21738 net.cpp:141] Setting up drop2
I0813 23:14:22.340065 21738 net.cpp:148] Top shape: 200 128 (25600)
I0813 23:14:22.340072 21738 net.cpp:156] Memory required for data: 204088000
I0813 23:14:22.340080 21738 layer_factory.hpp:77] Creating layer m1
I0813 23:14:22.340095 21738 net.cpp:91] Creating Layer m1
I0813 23:14:22.340103 21738 net.cpp:425] m1 <- Dropout2
I0813 23:14:22.340116 21738 net.cpp:399] m1 -> m1
I0813 23:14:22.340143 21738 net.cpp:141] Setting up m1
I0813 23:14:22.340154 21738 net.cpp:148] Top shape: 200 1 (200)
I0813 23:14:22.340162 21738 net.cpp:156] Memory required for data: 204088800
I0813 23:14:22.340175 21738 layer_factory.hpp:77] Creating layer Concat2
I0813 23:14:22.340190 21738 net.cpp:91] Creating Layer Concat2
I0813 23:14:22.340198 21738 net.cpp:425] Concat2 <- i1_i1_0_split_1
I0813 23:14:22.340209 21738 net.cpp:425] Concat2 <- i12
I0813 23:14:22.340221 21738 net.cpp:399] Concat2 -> Concat2
I0813 23:14:22.340239 21738 net.cpp:141] Setting up Concat2
I0813 23:14:22.340248 21738 net.cpp:148] Top shape: 200 2 1 4096 (1638400)
I0813 23:14:22.340255 21738 net.cpp:156] Memory required for data: 210642400
I0813 23:14:22.340262 21738 layer_factory.hpp:77] Creating layer InnerProduct3
I0813 23:14:22.340281 21738 net.cpp:91] Creating Layer InnerProduct3
I0813 23:14:22.340292 21738 net.cpp:425] InnerProduct3 <- Concat2
I0813 23:14:22.340318 21738 net.cpp:399] InnerProduct3 -> InnerProduct3
I0813 23:14:22.374928 21738 net.cpp:141] Setting up InnerProduct3
I0813 23:14:22.374989 21738 net.cpp:148] Top shape: 200 256 (51200)
I0813 23:14:22.374999 21738 net.cpp:156] Memory required for data: 210847200
I0813 23:14:22.375016 21738 net.cpp:484] Sharing parameters 'fc1_w' owned by layer 'InnerProduct1', param index 0
I0813 23:14:22.375030 21738 net.cpp:484] Sharing parameters 'fc1_b' owned by layer 'InnerProduct1', param index 1
I0813 23:14:22.375041 21738 layer_factory.hpp:77] Creating layer ReLU3
I0813 23:14:22.375062 21738 net.cpp:91] Creating Layer ReLU3
I0813 23:14:22.375108 21738 net.cpp:425] ReLU3 <- InnerProduct3
I0813 23:14:22.375144 21738 net.cpp:386] ReLU3 -> InnerProduct3 (in-place)
I0813 23:14:22.375171 21738 net.cpp:141] Setting up ReLU3
I0813 23:14:22.375187 21738 net.cpp:148] Top shape: 200 256 (51200)
I0813 23:14:22.375196 21738 net.cpp:156] Memory required for data: 211052000
I0813 23:14:22.375208 21738 layer_factory.hpp:77] Creating layer drop1
I0813 23:14:22.375257 21738 net.cpp:91] Creating Layer drop1
I0813 23:14:22.375267 21738 net.cpp:425] drop1 <- InnerProduct3
I0813 23:14:22.375283 21738 net.cpp:399] drop1 -> Dropout3
I0813 23:14:22.375305 21738 net.cpp:141] Setting up drop1
I0813 23:14:22.375320 21738 net.cpp:148] Top shape: 200 256 (51200)
I0813 23:14:22.375329 21738 net.cpp:156] Memory required for data: 211256800
I0813 23:14:22.375337 21738 layer_factory.hpp:77] Creating layer InnerProduct4
I0813 23:14:22.375356 21738 net.cpp:91] Creating Layer InnerProduct4
I0813 23:14:22.375365 21738 net.cpp:425] InnerProduct4 <- Dropout3
I0813 23:14:22.375381 21738 net.cpp:399] InnerProduct4 -> InnerProduct4
I0813 23:14:22.375970 21738 net.cpp:141] Setting up InnerProduct4
I0813 23:14:22.375993 21738 net.cpp:148] Top shape: 200 128 (25600)
I0813 23:14:22.376001 21738 net.cpp:156] Memory required for data: 211359200
I0813 23:14:22.376019 21738 net.cpp:484] Sharing parameters 'fc2_w' owned by layer 'InnerProduct2', param index 0
I0813 23:14:22.376065 21738 net.cpp:484] Sharing parameters 'fc2_b' owned by layer 'InnerProduct2', param index 1
I0813 23:14:22.376075 21738 layer_factory.hpp:77] Creating layer ReLU4
I0813 23:14:22.376090 21738 net.cpp:91] Creating Layer ReLU4
I0813 23:14:22.376099 21738 net.cpp:425] ReLU4 <- InnerProduct4
I0813 23:14:22.376113 21738 net.cpp:386] ReLU4 -> InnerProduct4 (in-place)
I0813 23:14:22.376129 21738 net.cpp:141] Setting up ReLU4
I0813 23:14:22.376139 21738 net.cpp:148] Top shape: 200 128 (25600)
I0813 23:14:22.376150 21738 net.cpp:156] Memory required for data: 211461600
I0813 23:14:22.376158 21738 layer_factory.hpp:77] Creating layer drop2
I0813 23:14:22.376173 21738 net.cpp:91] Creating Layer drop2
I0813 23:14:22.376180 21738 net.cpp:425] drop2 <- InnerProduct4
I0813 23:14:22.376194 21738 net.cpp:399] drop2 -> Dropout4
I0813 23:14:22.376211 21738 net.cpp:141] Setting up drop2
I0813 23:14:22.376222 21738 net.cpp:148] Top shape: 200 128 (25600)
I0813 23:14:22.376230 21738 net.cpp:156] Memory required for data: 211564000
I0813 23:14:22.376238 21738 layer_factory.hpp:77] Creating layer m2
I0813 23:14:22.376255 21738 net.cpp:91] Creating Layer m2
I0813 23:14:22.376262 21738 net.cpp:425] m2 <- Dropout4
I0813 23:14:22.376277 21738 net.cpp:399] m2 -> m2
I0813 23:14:22.376312 21738 net.cpp:141] Setting up m2
I0813 23:14:22.376327 21738 net.cpp:148] Top shape: 200 1 (200)
I0813 23:14:22.376337 21738 net.cpp:156] Memory required for data: 211564800
I0813 23:14:22.376345 21738 net.cpp:484] Sharing parameters 'fc3_w' owned by layer 'm1', param index 0
I0813 23:14:22.376356 21738 net.cpp:484] Sharing parameters 'fc3_b' owned by layer 'm1', param index 1
I0813 23:14:22.376364 21738 layer_factory.hpp:77] Creating layer Concat3
I0813 23:14:22.376379 21738 net.cpp:91] Creating Layer Concat3
I0813 23:14:22.376390 21738 net.cpp:425] Concat3 <- i1_i1_0_split_2
I0813 23:14:22.376404 21738 net.cpp:425] Concat3 <- i13
I0813 23:14:22.376417 21738 net.cpp:399] Concat3 -> Concat3
I0813 23:14:22.376436 21738 net.cpp:141] Setting up Concat3
I0813 23:14:22.376447 21738 net.cpp:148] Top shape: 200 2 1 4096 (1638400)
I0813 23:14:22.376456 21738 net.cpp:156] Memory required for data: 218118400
I0813 23:14:22.376464 21738 layer_factory.hpp:77] Creating layer InnerProduct5
I0813 23:14:22.376482 21738 net.cpp:91] Creating Layer InnerProduct5
I0813 23:14:22.376490 21738 net.cpp:425] InnerProduct5 <- Concat3
I0813 23:14:22.376504 21738 net.cpp:399] InnerProduct5 -> InnerProduct5
I0813 23:14:22.393599 21743 blocking_queue.cpp:50] Waiting for data
I0813 23:14:22.411628 21738 net.cpp:141] Setting up InnerProduct5
I0813 23:14:22.411677 21738 net.cpp:148] Top shape: 200 256 (51200)
I0813 23:14:22.411690 21738 net.cpp:156] Memory required for data: 218323200
I0813 23:14:22.411705 21738 net.cpp:484] Sharing parameters 'fc1_w' owned by layer 'InnerProduct1', param index 0
I0813 23:14:22.411716 21738 net.cpp:484] Sharing parameters 'fc1_b' owned by layer 'InnerProduct1', param index 1
I0813 23:14:22.411725 21738 layer_factory.hpp:77] Creating layer ReLU5
I0813 23:14:22.411775 21738 net.cpp:91] Creating Layer ReLU5
I0813 23:14:22.411788 21738 net.cpp:425] ReLU5 <- InnerProduct5
I0813 23:14:22.411803 21738 net.cpp:386] ReLU5 -> InnerProduct5 (in-place)
I0813 23:14:22.411823 21738 net.cpp:141] Setting up ReLU5
I0813 23:14:22.411834 21738 net.cpp:148] Top shape: 200 256 (51200)
I0813 23:14:22.411841 21738 net.cpp:156] Memory required for data: 218528000
I0813 23:14:22.411849 21738 layer_factory.hpp:77] Creating layer drop1
I0813 23:14:22.411864 21738 net.cpp:91] Creating Layer drop1
I0813 23:14:22.411871 21738 net.cpp:425] drop1 <- InnerProduct5
I0813 23:14:22.411883 21738 net.cpp:399] drop1 -> Dropout5
I0813 23:14:22.411900 21738 net.cpp:141] Setting up drop1
I0813 23:14:22.411911 21738 net.cpp:148] Top shape: 200 256 (51200)
I0813 23:14:22.411918 21738 net.cpp:156] Memory required for data: 218732800
I0813 23:14:22.411926 21738 layer_factory.hpp:77] Creating layer InnerProduct6
I0813 23:14:22.411942 21738 net.cpp:91] Creating Layer InnerProduct6
I0813 23:14:22.411950 21738 net.cpp:425] InnerProduct6 <- Dropout5
I0813 23:14:22.411963 21738 net.cpp:399] InnerProduct6 -> InnerProduct6
I0813 23:14:22.412467 21738 net.cpp:141] Setting up InnerProduct6
I0813 23:14:22.412485 21738 net.cpp:148] Top shape: 200 128 (25600)
I0813 23:14:22.412492 21738 net.cpp:156] Memory required for data: 218835200
I0813 23:14:22.412500 21738 net.cpp:484] Sharing parameters 'fc2_w' owned by layer 'InnerProduct2', param index 0
I0813 23:14:22.412509 21738 net.cpp:484] Sharing parameters 'fc2_b' owned by layer 'InnerProduct2', param index 1
I0813 23:14:22.412518 21738 layer_factory.hpp:77] Creating layer ReLU6
I0813 23:14:22.412528 21738 net.cpp:91] Creating Layer ReLU6
I0813 23:14:22.412535 21738 net.cpp:425] ReLU6 <- InnerProduct6
I0813 23:14:22.412546 21738 net.cpp:386] ReLU6 -> InnerProduct6 (in-place)
I0813 23:14:22.412559 21738 net.cpp:141] Setting up ReLU6
I0813 23:14:22.412569 21738 net.cpp:148] Top shape: 200 128 (25600)
I0813 23:14:22.412575 21738 net.cpp:156] Memory required for data: 218937600
I0813 23:14:22.412582 21738 layer_factory.hpp:77] Creating layer drop2
I0813 23:14:22.412592 21738 net.cpp:91] Creating Layer drop2
I0813 23:14:22.412600 21738 net.cpp:425] drop2 <- InnerProduct6
I0813 23:14:22.412609 21738 net.cpp:399] drop2 -> Dropout6
I0813 23:14:22.412622 21738 net.cpp:141] Setting up drop2
I0813 23:14:22.412632 21738 net.cpp:148] Top shape: 200 128 (25600)
I0813 23:14:22.412638 21738 net.cpp:156] Memory required for data: 219040000
I0813 23:14:22.412645 21738 layer_factory.hpp:77] Creating layer m3
I0813 23:14:22.412662 21738 net.cpp:91] Creating Layer m3
I0813 23:14:22.412669 21738 net.cpp:425] m3 <- Dropout6
I0813 23:14:22.412681 21738 net.cpp:399] m3 -> m3
I0813 23:14:22.412724 21738 net.cpp:141] Setting up m3
I0813 23:14:22.412735 21738 net.cpp:148] Top shape: 200 1 (200)
I0813 23:14:22.412744 21738 net.cpp:156] Memory required for data: 219040800
I0813 23:14:22.412758 21738 net.cpp:484] Sharing parameters 'fc3_w' owned by layer 'm1', param index 0
I0813 23:14:22.412767 21738 net.cpp:484] Sharing parameters 'fc3_b' owned by layer 'm1', param index 1
I0813 23:14:22.412775 21738 layer_factory.hpp:77] Creating layer Concat4
I0813 23:14:22.412788 21738 net.cpp:91] Creating Layer Concat4
I0813 23:14:22.412797 21738 net.cpp:425] Concat4 <- i1_i1_0_split_3
I0813 23:14:22.412806 21738 net.cpp:425] Concat4 <- i14
I0813 23:14:22.412817 21738 net.cpp:399] Concat4 -> Concat4
I0813 23:14:22.412834 21738 net.cpp:141] Setting up Concat4
I0813 23:14:22.412843 21738 net.cpp:148] Top shape: 200 2 1 4096 (1638400)
I0813 23:14:22.412850 21738 net.cpp:156] Memory required for data: 225594400
I0813 23:14:22.412858 21738 layer_factory.hpp:77] Creating layer InnerProduct7
I0813 23:14:22.412878 21738 net.cpp:91] Creating Layer InnerProduct7
I0813 23:14:22.412884 21738 net.cpp:425] InnerProduct7 <- Concat4
I0813 23:14:22.412896 21738 net.cpp:399] InnerProduct7 -> InnerProduct7
I0813 23:14:22.441792 21738 net.cpp:141] Setting up InnerProduct7
I0813 23:14:22.441841 21738 net.cpp:148] Top shape: 200 256 (51200)
I0813 23:14:22.441891 21738 net.cpp:156] Memory required for data: 225799200
I0813 23:14:22.441949 21738 net.cpp:484] Sharing parameters 'fc1_w' owned by layer 'InnerProduct1', param index 0
I0813 23:14:22.442005 21738 net.cpp:484] Sharing parameters 'fc1_b' owned by layer 'InnerProduct1', param index 1
I0813 23:14:22.442056 21738 layer_factory.hpp:77] Creating layer ReLU7
I0813 23:14:22.442106 21738 net.cpp:91] Creating Layer ReLU7
I0813 23:14:22.442153 21738 net.cpp:425] ReLU7 <- InnerProduct7
I0813 23:14:22.442201 21738 net.cpp:386] ReLU7 -> InnerProduct7 (in-place)
I0813 23:14:22.442258 21738 net.cpp:141] Setting up ReLU7
I0813 23:14:22.442309 21738 net.cpp:148] Top shape: 200 256 (51200)
I0813 23:14:22.442345 21738 net.cpp:156] Memory required for data: 226004000
I0813 23:14:22.442378 21738 layer_factory.hpp:77] Creating layer drop1
I0813 23:14:22.442421 21738 net.cpp:91] Creating Layer drop1
I0813 23:14:22.442437 21738 net.cpp:425] drop1 <- InnerProduct7
I0813 23:14:22.442456 21738 net.cpp:399] drop1 -> Dropout7
I0813 23:14:22.442512 21738 net.cpp:141] Setting up drop1
I0813 23:14:22.442558 21738 net.cpp:148] Top shape: 200 256 (51200)
I0813 23:14:22.442594 21738 net.cpp:156] Memory required for data: 226208800
I0813 23:14:22.442626 21738 layer_factory.hpp:77] Creating layer InnerProduct8
I0813 23:14:22.442677 21738 net.cpp:91] Creating Layer InnerProduct8
I0813 23:14:22.442718 21738 net.cpp:425] InnerProduct8 <- Dropout7
I0813 23:14:22.442764 21738 net.cpp:399] InnerProduct8 -> InnerProduct8
I0813 23:14:22.443200 21738 net.cpp:141] Setting up InnerProduct8
I0813 23:14:22.443222 21738 net.cpp:148] Top shape: 200 128 (25600)
I0813 23:14:22.443233 21738 net.cpp:156] Memory required for data: 226311200
I0813 23:14:22.443277 21738 net.cpp:484] Sharing parameters 'fc2_w' owned by layer 'InnerProduct2', param index 0
I0813 23:14:22.443320 21738 net.cpp:484] Sharing parameters 'fc2_b' owned by layer 'InnerProduct2', param index 1
I0813 23:14:22.443358 21738 layer_factory.hpp:77] Creating layer ReLU8
I0813 23:14:22.443399 21738 net.cpp:91] Creating Layer ReLU8
I0813 23:14:22.443434 21738 net.cpp:425] ReLU8 <- InnerProduct8
I0813 23:14:22.443475 21738 net.cpp:386] ReLU8 -> InnerProduct8 (in-place)
I0813 23:14:22.443518 21738 net.cpp:141] Setting up ReLU8
I0813 23:14:22.443562 21738 net.cpp:148] Top shape: 200 128 (25600)
I0813 23:14:22.443595 21738 net.cpp:156] Memory required for data: 226413600
I0813 23:14:22.443629 21738 layer_factory.hpp:77] Creating layer drop2
I0813 23:14:22.443670 21738 net.cpp:91] Creating Layer drop2
I0813 23:14:22.443686 21738 net.cpp:425] drop2 <- InnerProduct8
I0813 23:14:22.443702 21738 net.cpp:399] drop2 -> Dropout8
I0813 23:14:22.443755 21738 net.cpp:141] Setting up drop2
I0813 23:14:22.443776 21738 net.cpp:148] Top shape: 200 128 (25600)
I0813 23:14:22.443788 21738 net.cpp:156] Memory required for data: 226516000
I0813 23:14:22.443799 21738 layer_factory.hpp:77] Creating layer m4
I0813 23:14:22.443847 21738 net.cpp:91] Creating Layer m4
I0813 23:14:22.443888 21738 net.cpp:425] m4 <- Dropout8
I0813 23:14:22.443936 21738 net.cpp:399] m4 -> m4
I0813 23:14:22.443989 21738 net.cpp:141] Setting up m4
I0813 23:14:22.444007 21738 net.cpp:148] Top shape: 200 1 (200)
I0813 23:14:22.444020 21738 net.cpp:156] Memory required for data: 226516800
I0813 23:14:22.444061 21738 net.cpp:484] Sharing parameters 'fc3_w' owned by layer 'm1', param index 0
I0813 23:14:22.444077 21738 net.cpp:484] Sharing parameters 'fc3_b' owned by layer 'm1', param index 1
I0813 23:14:22.444089 21738 layer_factory.hpp:77] Creating layer Concat5
I0813 23:14:22.444109 21738 net.cpp:91] Creating Layer Concat5
I0813 23:14:22.444124 21738 net.cpp:425] Concat5 <- i1_i1_0_split_4
I0813 23:14:22.444139 21738 net.cpp:425] Concat5 <- i15
I0813 23:14:22.444156 21738 net.cpp:399] Concat5 -> Concat5
I0813 23:14:22.444178 21738 net.cpp:141] Setting up Concat5
I0813 23:14:22.444188 21738 net.cpp:148] Top shape: 200 2 1 4096 (1638400)
I0813 23:14:22.444195 21738 net.cpp:156] Memory required for data: 233070400
I0813 23:14:22.444201 21738 layer_factory.hpp:77] Creating layer InnerProduct9
I0813 23:14:22.444234 21738 net.cpp:91] Creating Layer InnerProduct9
I0813 23:14:22.444243 21738 net.cpp:425] InnerProduct9 <- Concat5
I0813 23:14:22.444260 21738 net.cpp:399] InnerProduct9 -> InnerProduct9
I0813 23:14:22.469813 21738 net.cpp:141] Setting up InnerProduct9
I0813 23:14:22.469849 21738 net.cpp:148] Top shape: 200 256 (51200)
I0813 23:14:22.469856 21738 net.cpp:156] Memory required for data: 233275200
I0813 23:14:22.469866 21738 net.cpp:484] Sharing parameters 'fc1_w' owned by layer 'InnerProduct1', param index 0
I0813 23:14:22.469874 21738 net.cpp:484] Sharing parameters 'fc1_b' owned by layer 'InnerProduct1', param index 1
I0813 23:14:22.469882 21738 layer_factory.hpp:77] Creating layer ReLU9
I0813 23:14:22.469897 21738 net.cpp:91] Creating Layer ReLU9
I0813 23:14:22.469909 21738 net.cpp:425] ReLU9 <- InnerProduct9
I0813 23:14:22.469924 21738 net.cpp:386] ReLU9 -> InnerProduct9 (in-place)
I0813 23:14:22.469944 21738 net.cpp:141] Setting up ReLU9
I0813 23:14:22.469980 21738 net.cpp:148] Top shape: 200 256 (51200)
I0813 23:14:22.469990 21738 net.cpp:156] Memory required for data: 233480000
I0813 23:14:22.469998 21738 layer_factory.hpp:77] Creating layer drop1
I0813 23:14:22.470015 21738 net.cpp:91] Creating Layer drop1
I0813 23:14:22.470026 21738 net.cpp:425] drop1 <- InnerProduct9
I0813 23:14:22.470041 21738 net.cpp:399] drop1 -> Dropout9
I0813 23:14:22.470062 21738 net.cpp:141] Setting up drop1
I0813 23:14:22.470077 21738 net.cpp:148] Top shape: 200 256 (51200)
I0813 23:14:22.470090 21738 net.cpp:156] Memory required for data: 233684800
I0813 23:14:22.470101 21738 layer_factory.hpp:77] Creating layer InnerProduct10
I0813 23:14:22.470141 21738 net.cpp:91] Creating Layer InnerProduct10
I0813 23:14:22.470151 21738 net.cpp:425] InnerProduct10 <- Dropout9
I0813 23:14:22.470162 21738 net.cpp:399] InnerProduct10 -> InnerProduct10
I0813 23:14:22.470469 21738 net.cpp:141] Setting up InnerProduct10
I0813 23:14:22.470484 21738 net.cpp:148] Top shape: 200 128 (25600)
I0813 23:14:22.470500 21738 net.cpp:156] Memory required for data: 233787200
I0813 23:14:22.470509 21738 net.cpp:484] Sharing parameters 'fc2_w' owned by layer 'InnerProduct2', param index 0
I0813 23:14:22.470515 21738 net.cpp:484] Sharing parameters 'fc2_b' owned by layer 'InnerProduct2', param index 1
I0813 23:14:22.470522 21738 layer_factory.hpp:77] Creating layer ReLU10
I0813 23:14:22.470531 21738 net.cpp:91] Creating Layer ReLU10
I0813 23:14:22.470540 21738 net.cpp:425] ReLU10 <- InnerProduct10
I0813 23:14:22.470547 21738 net.cpp:386] ReLU10 -> InnerProduct10 (in-place)
I0813 23:14:22.470558 21738 net.cpp:141] Setting up ReLU10
I0813 23:14:22.470566 21738 net.cpp:148] Top shape: 200 128 (25600)
I0813 23:14:22.470571 21738 net.cpp:156] Memory required for data: 233889600
I0813 23:14:22.470577 21738 layer_factory.hpp:77] Creating layer drop2
I0813 23:14:22.470585 21738 net.cpp:91] Creating Layer drop2
I0813 23:14:22.470592 21738 net.cpp:425] drop2 <- InnerProduct10
I0813 23:14:22.470599 21738 net.cpp:399] drop2 -> Dropout10
I0813 23:14:22.470612 21738 net.cpp:141] Setting up drop2
I0813 23:14:22.470618 21738 net.cpp:148] Top shape: 200 128 (25600)
I0813 23:14:22.470623 21738 net.cpp:156] Memory required for data: 233992000
I0813 23:14:22.470628 21738 layer_factory.hpp:77] Creating layer m5
I0813 23:14:22.470638 21738 net.cpp:91] Creating Layer m5
I0813 23:14:22.470643 21738 net.cpp:425] m5 <- Dropout10
I0813 23:14:22.470652 21738 net.cpp:399] m5 -> m5
I0813 23:14:22.470670 21738 net.cpp:141] Setting up m5
I0813 23:14:22.470679 21738 net.cpp:148] Top shape: 200 1 (200)
I0813 23:14:22.470685 21738 net.cpp:156] Memory required for data: 233992800
I0813 23:14:22.470690 21738 net.cpp:484] Sharing parameters 'fc3_w' owned by layer 'm1', param index 0
I0813 23:14:22.470696 21738 net.cpp:484] Sharing parameters 'fc3_b' owned by layer 'm1', param index 1
I0813 23:14:22.470701 21738 layer_factory.hpp:77] Creating layer Concat6
I0813 23:14:22.470712 21738 net.cpp:91] Creating Layer Concat6
I0813 23:14:22.470719 21738 net.cpp:425] Concat6 <- i1_i1_0_split_5
I0813 23:14:22.470746 21738 net.cpp:425] Concat6 <- i16
I0813 23:14:22.470755 21738 net.cpp:399] Concat6 -> Concat6
I0813 23:14:22.470767 21738 net.cpp:141] Setting up Concat6
I0813 23:14:22.470774 21738 net.cpp:148] Top shape: 200 2 1 4096 (1638400)
I0813 23:14:22.470778 21738 net.cpp:156] Memory required for data: 240546400
I0813 23:14:22.470783 21738 layer_factory.hpp:77] Creating layer InnerProduct11
I0813 23:14:22.470793 21738 net.cpp:91] Creating Layer InnerProduct11
I0813 23:14:22.470798 21738 net.cpp:425] InnerProduct11 <- Concat6
I0813 23:14:22.470805 21738 net.cpp:399] InnerProduct11 -> InnerProduct11
I0813 23:14:22.496413 21738 net.cpp:141] Setting up InnerProduct11
I0813 23:14:22.496461 21738 net.cpp:148] Top shape: 200 256 (51200)
I0813 23:14:22.496470 21738 net.cpp:156] Memory required for data: 240751200
I0813 23:14:22.496482 21738 net.cpp:484] Sharing parameters 'fc1_w' owned by layer 'InnerProduct1', param index 0
I0813 23:14:22.496492 21738 net.cpp:484] Sharing parameters 'fc1_b' owned by layer 'InnerProduct1', param index 1
I0813 23:14:22.496500 21738 layer_factory.hpp:77] Creating layer ReLU11
I0813 23:14:22.496523 21738 net.cpp:91] Creating Layer ReLU11
I0813 23:14:22.496533 21738 net.cpp:425] ReLU11 <- InnerProduct11
I0813 23:14:22.496548 21738 net.cpp:386] ReLU11 -> InnerProduct11 (in-place)
I0813 23:14:22.496567 21738 net.cpp:141] Setting up ReLU11
I0813 23:14:22.496579 21738 net.cpp:148] Top shape: 200 256 (51200)
I0813 23:14:22.496585 21738 net.cpp:156] Memory required for data: 240956000
I0813 23:14:22.496592 21738 layer_factory.hpp:77] Creating layer drop1
I0813 23:14:22.496605 21738 net.cpp:91] Creating Layer drop1
I0813 23:14:22.496613 21738 net.cpp:425] drop1 <- InnerProduct11
I0813 23:14:22.496624 21738 net.cpp:399] drop1 -> Dropout11
I0813 23:14:22.496639 21738 net.cpp:141] Setting up drop1
I0813 23:14:22.496647 21738 net.cpp:148] Top shape: 200 256 (51200)
I0813 23:14:22.496654 21738 net.cpp:156] Memory required for data: 241160800
I0813 23:14:22.496660 21738 layer_factory.hpp:77] Creating layer InnerProduct12
I0813 23:14:22.496676 21738 net.cpp:91] Creating Layer InnerProduct12
I0813 23:14:22.496686 21738 net.cpp:425] InnerProduct12 <- Dropout11
I0813 23:14:22.496697 21738 net.cpp:399] InnerProduct12 -> InnerProduct12
I0813 23:14:22.497217 21738 net.cpp:141] Setting up InnerProduct12
I0813 23:14:22.497236 21738 net.cpp:148] Top shape: 200 128 (25600)
I0813 23:14:22.497241 21738 net.cpp:156] Memory required for data: 241263200
I0813 23:14:22.497262 21738 net.cpp:484] Sharing parameters 'fc2_w' owned by layer 'InnerProduct2', param index 0
I0813 23:14:22.497272 21738 net.cpp:484] Sharing parameters 'fc2_b' owned by layer 'InnerProduct2', param index 1
I0813 23:14:22.497278 21738 layer_factory.hpp:77] Creating layer ReLU12
I0813 23:14:22.497292 21738 net.cpp:91] Creating Layer ReLU12
I0813 23:14:22.497298 21738 net.cpp:425] ReLU12 <- InnerProduct12
I0813 23:14:22.497309 21738 net.cpp:386] ReLU12 -> InnerProduct12 (in-place)
I0813 23:14:22.497323 21738 net.cpp:141] Setting up ReLU12
I0813 23:14:22.497331 21738 net.cpp:148] Top shape: 200 128 (25600)
I0813 23:14:22.497337 21738 net.cpp:156] Memory required for data: 241365600
I0813 23:14:22.497344 21738 layer_factory.hpp:77] Creating layer drop2
I0813 23:14:22.497354 21738 net.cpp:91] Creating Layer drop2
I0813 23:14:22.497360 21738 net.cpp:425] drop2 <- InnerProduct12
I0813 23:14:22.497370 21738 net.cpp:399] drop2 -> Dropout12
I0813 23:14:22.497383 21738 net.cpp:141] Setting up drop2
I0813 23:14:22.497398 21738 net.cpp:148] Top shape: 200 128 (25600)
I0813 23:14:22.497406 21738 net.cpp:156] Memory required for data: 241468000
I0813 23:14:22.497412 21738 layer_factory.hpp:77] Creating layer m6
I0813 23:14:22.497426 21738 net.cpp:91] Creating Layer m6
I0813 23:14:22.497437 21738 net.cpp:425] m6 <- Dropout12
I0813 23:14:22.497449 21738 net.cpp:399] m6 -> m6
I0813 23:14:22.497473 21738 net.cpp:141] Setting up m6
I0813 23:14:22.497484 21738 net.cpp:148] Top shape: 200 1 (200)
I0813 23:14:22.497493 21738 net.cpp:156] Memory required for data: 241468800
I0813 23:14:22.497524 21738 net.cpp:484] Sharing parameters 'fc3_w' owned by layer 'm1', param index 0
I0813 23:14:22.497534 21738 net.cpp:484] Sharing parameters 'fc3_b' owned by layer 'm1', param index 1
I0813 23:14:22.497540 21738 layer_factory.hpp:77] Creating layer Concat7
I0813 23:14:22.497558 21738 net.cpp:91] Creating Layer Concat7
I0813 23:14:22.497570 21738 net.cpp:425] Concat7 <- i1_i1_0_split_6
I0813 23:14:22.497581 21738 net.cpp:425] Concat7 <- i17
I0813 23:14:22.497591 21738 net.cpp:399] Concat7 -> Concat7
I0813 23:14:22.497608 21738 net.cpp:141] Setting up Concat7
I0813 23:14:22.497617 21738 net.cpp:148] Top shape: 200 2 1 4096 (1638400)
I0813 23:14:22.497627 21738 net.cpp:156] Memory required for data: 248022400
I0813 23:14:22.497632 21738 layer_factory.hpp:77] Creating layer InnerProduct13
I0813 23:14:22.497647 21738 net.cpp:91] Creating Layer InnerProduct13
I0813 23:14:22.497655 21738 net.cpp:425] InnerProduct13 <- Concat7
I0813 23:14:22.497666 21738 net.cpp:399] InnerProduct13 -> InnerProduct13
I0813 23:14:22.518251 21738 net.cpp:141] Setting up InnerProduct13
I0813 23:14:22.518303 21738 net.cpp:148] Top shape: 200 256 (51200)
I0813 23:14:22.518311 21738 net.cpp:156] Memory required for data: 248227200
I0813 23:14:22.518321 21738 net.cpp:484] Sharing parameters 'fc1_w' owned by layer 'InnerProduct1', param index 0
I0813 23:14:22.518329 21738 net.cpp:484] Sharing parameters 'fc1_b' owned by layer 'InnerProduct1', param index 1
I0813 23:14:22.518337 21738 layer_factory.hpp:77] Creating layer ReLU13
I0813 23:14:22.518362 21738 net.cpp:91] Creating Layer ReLU13
I0813 23:14:22.518373 21738 net.cpp:425] ReLU13 <- InnerProduct13
I0813 23:14:22.518389 21738 net.cpp:386] ReLU13 -> InnerProduct13 (in-place)
I0813 23:14:22.518411 21738 net.cpp:141] Setting up ReLU13
I0813 23:14:22.518422 21738 net.cpp:148] Top shape: 200 256 (51200)
I0813 23:14:22.518429 21738 net.cpp:156] Memory required for data: 248432000
I0813 23:14:22.518436 21738 layer_factory.hpp:77] Creating layer drop1
I0813 23:14:22.518450 21738 net.cpp:91] Creating Layer drop1
I0813 23:14:22.518457 21738 net.cpp:425] drop1 <- InnerProduct13
I0813 23:14:22.518471 21738 net.cpp:399] drop1 -> Dropout13
I0813 23:14:22.518488 21738 net.cpp:141] Setting up drop1
I0813 23:14:22.518501 21738 net.cpp:148] Top shape: 200 256 (51200)
I0813 23:14:22.518508 21738 net.cpp:156] Memory required for data: 248636800
I0813 23:14:22.518517 21738 layer_factory.hpp:77] Creating layer InnerProduct14
I0813 23:14:22.518533 21738 net.cpp:91] Creating Layer InnerProduct14
I0813 23:14:22.518543 21738 net.cpp:425] InnerProduct14 <- Dropout13
I0813 23:14:22.518558 21738 net.cpp:399] InnerProduct14 -> InnerProduct14
I0813 23:14:22.518890 21738 net.cpp:141] Setting up InnerProduct14
I0813 23:14:22.518904 21738 net.cpp:148] Top shape: 200 128 (25600)
I0813 23:14:22.518913 21738 net.cpp:156] Memory required for data: 248739200
I0813 23:14:22.518921 21738 net.cpp:484] Sharing parameters 'fc2_w' owned by layer 'InnerProduct2', param index 0
I0813 23:14:22.518931 21738 net.cpp:484] Sharing parameters 'fc2_b' owned by layer 'InnerProduct2', param index 1
I0813 23:14:22.518939 21738 layer_factory.hpp:77] Creating layer ReLU14
I0813 23:14:22.518952 21738 net.cpp:91] Creating Layer ReLU14
I0813 23:14:22.518960 21738 net.cpp:425] ReLU14 <- InnerProduct14
I0813 23:14:22.518972 21738 net.cpp:386] ReLU14 -> InnerProduct14 (in-place)
I0813 23:14:22.518988 21738 net.cpp:141] Setting up ReLU14
I0813 23:14:22.518998 21738 net.cpp:148] Top shape: 200 128 (25600)
I0813 23:14:22.519006 21738 net.cpp:156] Memory required for data: 248841600
I0813 23:14:22.519013 21738 layer_factory.hpp:77] Creating layer drop2
I0813 23:14:22.519026 21738 net.cpp:91] Creating Layer drop2
I0813 23:14:22.519034 21738 net.cpp:425] drop2 <- InnerProduct14
I0813 23:14:22.519047 21738 net.cpp:399] drop2 -> Dropout14
I0813 23:14:22.519062 21738 net.cpp:141] Setting up drop2
I0813 23:14:22.519073 21738 net.cpp:148] Top shape: 200 128 (25600)
I0813 23:14:22.519081 21738 net.cpp:156] Memory required for data: 248944000
I0813 23:14:22.519112 21738 layer_factory.hpp:77] Creating layer m7
I0813 23:14:22.519129 21738 net.cpp:91] Creating Layer m7
I0813 23:14:22.519139 21738 net.cpp:425] m7 <- Dropout14
I0813 23:14:22.519155 21738 net.cpp:399] m7 -> m7
I0813 23:14:22.519182 21738 net.cpp:141] Setting up m7
I0813 23:14:22.519192 21738 net.cpp:148] Top shape: 200 1 (200)
I0813 23:14:22.519201 21738 net.cpp:156] Memory required for data: 248944800
I0813 23:14:22.519210 21738 net.cpp:484] Sharing parameters 'fc3_w' owned by layer 'm1', param index 0
I0813 23:14:22.519219 21738 net.cpp:484] Sharing parameters 'fc3_b' owned by layer 'm1', param index 1
I0813 23:14:22.519227 21738 layer_factory.hpp:77] Creating layer Concat8
I0813 23:14:22.519239 21738 net.cpp:91] Creating Layer Concat8
I0813 23:14:22.519249 21738 net.cpp:425] Concat8 <- i1_i1_0_split_7
I0813 23:14:22.519265 21738 net.cpp:425] Concat8 <- i18
I0813 23:14:22.519280 21738 net.cpp:399] Concat8 -> Concat8
I0813 23:14:22.519299 21738 net.cpp:141] Setting up Concat8
I0813 23:14:22.519312 21738 net.cpp:148] Top shape: 200 2 1 4096 (1638400)
I0813 23:14:22.519320 21738 net.cpp:156] Memory required for data: 255498400
I0813 23:14:22.519327 21738 layer_factory.hpp:77] Creating layer InnerProduct15
I0813 23:14:22.519352 21738 net.cpp:91] Creating Layer InnerProduct15
I0813 23:14:22.519361 21738 net.cpp:425] InnerProduct15 <- Concat8
I0813 23:14:22.519373 21738 net.cpp:399] InnerProduct15 -> InnerProduct15
I0813 23:14:22.536356 21738 net.cpp:141] Setting up InnerProduct15
I0813 23:14:22.536406 21738 net.cpp:148] Top shape: 200 256 (51200)
I0813 23:14:22.536412 21738 net.cpp:156] Memory required for data: 255703200
I0813 23:14:22.536425 21738 net.cpp:484] Sharing parameters 'fc1_w' owned by layer 'InnerProduct1', param index 0
I0813 23:14:22.536434 21738 net.cpp:484] Sharing parameters 'fc1_b' owned by layer 'InnerProduct1', param index 1
I0813 23:14:22.536443 21738 layer_factory.hpp:77] Creating layer ReLU15
I0813 23:14:22.536463 21738 net.cpp:91] Creating Layer ReLU15
I0813 23:14:22.536473 21738 net.cpp:425] ReLU15 <- InnerProduct15
I0813 23:14:22.536486 21738 net.cpp:386] ReLU15 -> InnerProduct15 (in-place)
I0813 23:14:22.536512 21738 net.cpp:141] Setting up ReLU15
I0813 23:14:22.536525 21738 net.cpp:148] Top shape: 200 256 (51200)
I0813 23:14:22.536530 21738 net.cpp:156] Memory required for data: 255908000
I0813 23:14:22.536537 21738 layer_factory.hpp:77] Creating layer drop1
I0813 23:14:22.536551 21738 net.cpp:91] Creating Layer drop1
I0813 23:14:22.536558 21738 net.cpp:425] drop1 <- InnerProduct15
I0813 23:14:22.536571 21738 net.cpp:399] drop1 -> Dropout15
I0813 23:14:22.536594 21738 net.cpp:141] Setting up drop1
I0813 23:14:22.536605 21738 net.cpp:148] Top shape: 200 256 (51200)
I0813 23:14:22.536612 21738 net.cpp:156] Memory required for data: 256112800
I0813 23:14:22.536619 21738 layer_factory.hpp:77] Creating layer InnerProduct16
I0813 23:14:22.536636 21738 net.cpp:91] Creating Layer InnerProduct16
I0813 23:14:22.536650 21738 net.cpp:425] InnerProduct16 <- Dropout15
I0813 23:14:22.536664 21738 net.cpp:399] InnerProduct16 -> InnerProduct16
I0813 23:14:22.536976 21738 net.cpp:141] Setting up InnerProduct16
I0813 23:14:22.536990 21738 net.cpp:148] Top shape: 200 128 (25600)
I0813 23:14:22.536996 21738 net.cpp:156] Memory required for data: 256215200
I0813 23:14:22.537005 21738 net.cpp:484] Sharing parameters 'fc2_w' owned by layer 'InnerProduct2', param index 0
I0813 23:14:22.537014 21738 net.cpp:484] Sharing parameters 'fc2_b' owned by layer 'InnerProduct2', param index 1
I0813 23:14:22.537021 21738 layer_factory.hpp:77] Creating layer ReLU16
I0813 23:14:22.537031 21738 net.cpp:91] Creating Layer ReLU16
I0813 23:14:22.537039 21738 net.cpp:425] ReLU16 <- InnerProduct16
I0813 23:14:22.537050 21738 net.cpp:386] ReLU16 -> InnerProduct16 (in-place)
I0813 23:14:22.537061 21738 net.cpp:141] Setting up ReLU16
I0813 23:14:22.537072 21738 net.cpp:148] Top shape: 200 128 (25600)
I0813 23:14:22.537080 21738 net.cpp:156] Memory required for data: 256317600
I0813 23:14:22.537108 21738 layer_factory.hpp:77] Creating layer drop2
I0813 23:14:22.537120 21738 net.cpp:91] Creating Layer drop2
I0813 23:14:22.537128 21738 net.cpp:425] drop2 <- InnerProduct16
I0813 23:14:22.537139 21738 net.cpp:399] drop2 -> Dropout16
I0813 23:14:22.537153 21738 net.cpp:141] Setting up drop2
I0813 23:14:22.537163 21738 net.cpp:148] Top shape: 200 128 (25600)
I0813 23:14:22.537173 21738 net.cpp:156] Memory required for data: 256420000
I0813 23:14:22.537178 21738 layer_factory.hpp:77] Creating layer m8
I0813 23:14:22.537194 21738 net.cpp:91] Creating Layer m8
I0813 23:14:22.537200 21738 net.cpp:425] m8 <- Dropout16
I0813 23:14:22.537214 21738 net.cpp:399] m8 -> m8
I0813 23:14:22.537237 21738 net.cpp:141] Setting up m8
I0813 23:14:22.537247 21738 net.cpp:148] Top shape: 200 1 (200)
I0813 23:14:22.537253 21738 net.cpp:156] Memory required for data: 256420800
I0813 23:14:22.537261 21738 net.cpp:484] Sharing parameters 'fc3_w' owned by layer 'm1', param index 0
I0813 23:14:22.537271 21738 net.cpp:484] Sharing parameters 'fc3_b' owned by layer 'm1', param index 1
I0813 23:14:22.537278 21738 layer_factory.hpp:77] Creating layer Concat9
I0813 23:14:22.537292 21738 net.cpp:91] Creating Layer Concat9
I0813 23:14:22.537299 21738 net.cpp:425] Concat9 <- i1_i1_0_split_8
I0813 23:14:22.537310 21738 net.cpp:425] Concat9 <- i19
I0813 23:14:22.537322 21738 net.cpp:399] Concat9 -> Concat9
I0813 23:14:22.537339 21738 net.cpp:141] Setting up Concat9
I0813 23:14:22.537348 21738 net.cpp:148] Top shape: 200 2 1 4096 (1638400)
I0813 23:14:22.537355 21738 net.cpp:156] Memory required for data: 262974400
I0813 23:14:22.537363 21738 layer_factory.hpp:77] Creating layer InnerProduct17
I0813 23:14:22.537374 21738 net.cpp:91] Creating Layer InnerProduct17
I0813 23:14:22.537381 21738 net.cpp:425] InnerProduct17 <- Concat9
I0813 23:14:22.537394 21738 net.cpp:399] InnerProduct17 -> InnerProduct17
I0813 23:14:22.553850 21738 net.cpp:141] Setting up InnerProduct17
I0813 23:14:22.553890 21738 net.cpp:148] Top shape: 200 256 (51200)
I0813 23:14:22.553897 21738 net.cpp:156] Memory required for data: 263179200
I0813 23:14:22.553910 21738 net.cpp:484] Sharing parameters 'fc1_w' owned by layer 'InnerProduct1', param index 0
I0813 23:14:22.553918 21738 net.cpp:484] Sharing parameters 'fc1_b' owned by layer 'InnerProduct1', param index 1
I0813 23:14:22.553925 21738 layer_factory.hpp:77] Creating layer ReLU17
I0813 23:14:22.553944 21738 net.cpp:91] Creating Layer ReLU17
I0813 23:14:22.553954 21738 net.cpp:425] ReLU17 <- InnerProduct17
I0813 23:14:22.553971 21738 net.cpp:386] ReLU17 -> InnerProduct17 (in-place)
I0813 23:14:22.553999 21738 net.cpp:141] Setting up ReLU17
I0813 23:14:22.554011 21738 net.cpp:148] Top shape: 200 256 (51200)
I0813 23:14:22.554018 21738 net.cpp:156] Memory required for data: 263384000
I0813 23:14:22.554024 21738 layer_factory.hpp:77] Creating layer drop1
I0813 23:14:22.554038 21738 net.cpp:91] Creating Layer drop1
I0813 23:14:22.554045 21738 net.cpp:425] drop1 <- InnerProduct17
I0813 23:14:22.554057 21738 net.cpp:399] drop1 -> Dropout17
I0813 23:14:22.554077 21738 net.cpp:141] Setting up drop1
I0813 23:14:22.554088 21738 net.cpp:148] Top shape: 200 256 (51200)
I0813 23:14:22.554095 21738 net.cpp:156] Memory required for data: 263588800
I0813 23:14:22.554102 21738 layer_factory.hpp:77] Creating layer InnerProduct18
I0813 23:14:22.554117 21738 net.cpp:91] Creating Layer InnerProduct18
I0813 23:14:22.554127 21738 net.cpp:425] InnerProduct18 <- Dropout17
I0813 23:14:22.554141 21738 net.cpp:399] InnerProduct18 -> InnerProduct18
I0813 23:14:22.554445 21738 net.cpp:141] Setting up InnerProduct18
I0813 23:14:22.554461 21738 net.cpp:148] Top shape: 200 128 (25600)
I0813 23:14:22.554468 21738 net.cpp:156] Memory required for data: 263691200
I0813 23:14:22.554476 21738 net.cpp:484] Sharing parameters 'fc2_w' owned by layer 'InnerProduct2', param index 0
I0813 23:14:22.554486 21738 net.cpp:484] Sharing parameters 'fc2_b' owned by layer 'InnerProduct2', param index 1
I0813 23:14:22.554492 21738 layer_factory.hpp:77] Creating layer ReLU18
I0813 23:14:22.554523 21738 net.cpp:91] Creating Layer ReLU18
I0813 23:14:22.554532 21738 net.cpp:425] ReLU18 <- InnerProduct18
I0813 23:14:22.554541 21738 net.cpp:386] ReLU18 -> InnerProduct18 (in-place)
I0813 23:14:22.554554 21738 net.cpp:141] Setting up ReLU18
I0813 23:14:22.554563 21738 net.cpp:148] Top shape: 200 128 (25600)
I0813 23:14:22.554570 21738 net.cpp:156] Memory required for data: 263793600
I0813 23:14:22.554577 21738 layer_factory.hpp:77] Creating layer drop2
I0813 23:14:22.554586 21738 net.cpp:91] Creating Layer drop2
I0813 23:14:22.554594 21738 net.cpp:425] drop2 <- InnerProduct18
I0813 23:14:22.554606 21738 net.cpp:399] drop2 -> Dropout18
I0813 23:14:22.554621 21738 net.cpp:141] Setting up drop2
I0813 23:14:22.554632 21738 net.cpp:148] Top shape: 200 128 (25600)
I0813 23:14:22.554638 21738 net.cpp:156] Memory required for data: 263896000
I0813 23:14:22.554647 21738 layer_factory.hpp:77] Creating layer m9
I0813 23:14:22.554664 21738 net.cpp:91] Creating Layer m9
I0813 23:14:22.554672 21738 net.cpp:425] m9 <- Dropout18
I0813 23:14:22.554683 21738 net.cpp:399] m9 -> m9
I0813 23:14:22.554713 21738 net.cpp:141] Setting up m9
I0813 23:14:22.554721 21738 net.cpp:148] Top shape: 200 1 (200)
I0813 23:14:22.554728 21738 net.cpp:156] Memory required for data: 263896800
I0813 23:14:22.554735 21738 net.cpp:484] Sharing parameters 'fc3_w' owned by layer 'm1', param index 0
I0813 23:14:22.554744 21738 net.cpp:484] Sharing parameters 'fc3_b' owned by layer 'm1', param index 1
I0813 23:14:22.554750 21738 layer_factory.hpp:77] Creating layer Concat10
I0813 23:14:22.554762 21738 net.cpp:91] Creating Layer Concat10
I0813 23:14:22.554772 21738 net.cpp:425] Concat10 <- i1_i1_0_split_9
I0813 23:14:22.554781 21738 net.cpp:425] Concat10 <- i20
I0813 23:14:22.554795 21738 net.cpp:399] Concat10 -> Concat10
I0813 23:14:22.554812 21738 net.cpp:141] Setting up Concat10
I0813 23:14:22.554821 21738 net.cpp:148] Top shape: 200 2 1 4096 (1638400)
I0813 23:14:22.554828 21738 net.cpp:156] Memory required for data: 270450400
I0813 23:14:22.554836 21738 layer_factory.hpp:77] Creating layer InnerProduct19
I0813 23:14:22.554850 21738 net.cpp:91] Creating Layer InnerProduct19
I0813 23:14:22.554859 21738 net.cpp:425] InnerProduct19 <- Concat10
I0813 23:14:22.554872 21738 net.cpp:399] InnerProduct19 -> InnerProduct19
I0813 23:14:22.571094 21738 net.cpp:141] Setting up InnerProduct19
I0813 23:14:22.571132 21738 net.cpp:148] Top shape: 200 256 (51200)
I0813 23:14:22.571140 21738 net.cpp:156] Memory required for data: 270655200
I0813 23:14:22.571151 21738 net.cpp:484] Sharing parameters 'fc1_w' owned by layer 'InnerProduct1', param index 0
I0813 23:14:22.571162 21738 net.cpp:484] Sharing parameters 'fc1_b' owned by layer 'InnerProduct1', param index 1
I0813 23:14:22.571169 21738 layer_factory.hpp:77] Creating layer ReLU19
I0813 23:14:22.571187 21738 net.cpp:91] Creating Layer ReLU19
I0813 23:14:22.571197 21738 net.cpp:425] ReLU19 <- InnerProduct19
I0813 23:14:22.571214 21738 net.cpp:386] ReLU19 -> InnerProduct19 (in-place)
I0813 23:14:22.571233 21738 net.cpp:141] Setting up ReLU19
I0813 23:14:22.571249 21738 net.cpp:148] Top shape: 200 256 (51200)
I0813 23:14:22.571256 21738 net.cpp:156] Memory required for data: 270860000
I0813 23:14:22.571264 21738 layer_factory.hpp:77] Creating layer drop1
I0813 23:14:22.571276 21738 net.cpp:91] Creating Layer drop1
I0813 23:14:22.571290 21738 net.cpp:425] drop1 <- InnerProduct19
I0813 23:14:22.571300 21738 net.cpp:399] drop1 -> Dropout19
I0813 23:14:22.571316 21738 net.cpp:141] Setting up drop1
I0813 23:14:22.571329 21738 net.cpp:148] Top shape: 200 256 (51200)
I0813 23:14:22.571336 21738 net.cpp:156] Memory required for data: 271064800
I0813 23:14:22.571342 21738 layer_factory.hpp:77] Creating layer InnerProduct20
I0813 23:14:22.571359 21738 net.cpp:91] Creating Layer InnerProduct20
I0813 23:14:22.571372 21738 net.cpp:425] InnerProduct20 <- Dropout19
I0813 23:14:22.571389 21738 net.cpp:399] InnerProduct20 -> InnerProduct20
I0813 23:14:22.571686 21738 net.cpp:141] Setting up InnerProduct20
I0813 23:14:22.571715 21738 net.cpp:148] Top shape: 200 128 (25600)
I0813 23:14:22.571722 21738 net.cpp:156] Memory required for data: 271167200
I0813 23:14:22.571730 21738 net.cpp:484] Sharing parameters 'fc2_w' owned by layer 'InnerProduct2', param index 0
I0813 23:14:22.571738 21738 net.cpp:484] Sharing parameters 'fc2_b' owned by layer 'InnerProduct2', param index 1
I0813 23:14:22.571748 21738 layer_factory.hpp:77] Creating layer ReLU20
I0813 23:14:22.571759 21738 net.cpp:91] Creating Layer ReLU20
I0813 23:14:22.571766 21738 net.cpp:425] ReLU20 <- InnerProduct20
I0813 23:14:22.571779 21738 net.cpp:386] ReLU20 -> InnerProduct20 (in-place)
I0813 23:14:22.571791 21738 net.cpp:141] Setting up ReLU20
I0813 23:14:22.571802 21738 net.cpp:148] Top shape: 200 128 (25600)
I0813 23:14:22.571808 21738 net.cpp:156] Memory required for data: 271269600
I0813 23:14:22.571815 21738 layer_factory.hpp:77] Creating layer drop2
I0813 23:14:22.571825 21738 net.cpp:91] Creating Layer drop2
I0813 23:14:22.571832 21738 net.cpp:425] drop2 <- InnerProduct20
I0813 23:14:22.571841 21738 net.cpp:399] drop2 -> Dropout20
I0813 23:14:22.571856 21738 net.cpp:141] Setting up drop2
I0813 23:14:22.571863 21738 net.cpp:148] Top shape: 200 128 (25600)
I0813 23:14:22.571869 21738 net.cpp:156] Memory required for data: 271372000
I0813 23:14:22.571877 21738 layer_factory.hpp:77] Creating layer m10
I0813 23:14:22.571892 21738 net.cpp:91] Creating Layer m10
I0813 23:14:22.571902 21738 net.cpp:425] m10 <- Dropout20
I0813 23:14:22.571916 21738 net.cpp:399] m10 -> m10
I0813 23:14:22.571941 21738 net.cpp:141] Setting up m10
I0813 23:14:22.571950 21738 net.cpp:148] Top shape: 200 1 (200)
I0813 23:14:22.571956 21738 net.cpp:156] Memory required for data: 271372800
I0813 23:14:22.571964 21738 net.cpp:484] Sharing parameters 'fc3_w' owned by layer 'm1', param index 0
I0813 23:14:22.571972 21738 net.cpp:484] Sharing parameters 'fc3_b' owned by layer 'm1', param index 1
I0813 23:14:22.571979 21738 layer_factory.hpp:77] Creating layer Concat11
I0813 23:14:22.571992 21738 net.cpp:91] Creating Layer Concat11
I0813 23:14:22.572002 21738 net.cpp:425] Concat11 <- i2
I0813 23:14:22.572013 21738 net.cpp:425] Concat11 <- i11_i1_10_split_1
I0813 23:14:22.572043 21738 net.cpp:399] Concat11 -> Concat11
I0813 23:14:22.572063 21738 net.cpp:141] Setting up Concat11
I0813 23:14:22.572073 21738 net.cpp:148] Top shape: 200 2 1 4096 (1638400)
I0813 23:14:22.572079 21738 net.cpp:156] Memory required for data: 277926400
I0813 23:14:22.572087 21738 layer_factory.hpp:77] Creating layer InnerProduct21
I0813 23:14:22.572098 21738 net.cpp:91] Creating Layer InnerProduct21
I0813 23:14:22.572106 21738 net.cpp:425] InnerProduct21 <- Concat11
I0813 23:14:22.572121 21738 net.cpp:399] InnerProduct21 -> InnerProduct21
I0813 23:14:22.588155 21738 net.cpp:141] Setting up InnerProduct21
I0813 23:14:22.588193 21738 net.cpp:148] Top shape: 200 256 (51200)
I0813 23:14:22.588199 21738 net.cpp:156] Memory required for data: 278131200
I0813 23:14:22.588212 21738 net.cpp:484] Sharing parameters 'fc1_w' owned by layer 'InnerProduct1', param index 0
I0813 23:14:22.588222 21738 net.cpp:484] Sharing parameters 'fc1_b' owned by layer 'InnerProduct1', param index 1
I0813 23:14:22.588228 21738 layer_factory.hpp:77] Creating layer ReLU21
I0813 23:14:22.588248 21738 net.cpp:91] Creating Layer ReLU21
I0813 23:14:22.588258 21738 net.cpp:425] ReLU21 <- InnerProduct21
I0813 23:14:22.588275 21738 net.cpp:386] ReLU21 -> InnerProduct21 (in-place)
I0813 23:14:22.588297 21738 net.cpp:141] Setting up ReLU21
I0813 23:14:22.588309 21738 net.cpp:148] Top shape: 200 256 (51200)
I0813 23:14:22.588315 21738 net.cpp:156] Memory required for data: 278336000
I0813 23:14:22.588322 21738 layer_factory.hpp:77] Creating layer drop1
I0813 23:14:22.588335 21738 net.cpp:91] Creating Layer drop1
I0813 23:14:22.588346 21738 net.cpp:425] drop1 <- InnerProduct21
I0813 23:14:22.588361 21738 net.cpp:399] drop1 -> Dropout21
I0813 23:14:22.588381 21738 net.cpp:141] Setting up drop1
I0813 23:14:22.588392 21738 net.cpp:148] Top shape: 200 256 (51200)
I0813 23:14:22.588397 21738 net.cpp:156] Memory required for data: 278540800
I0813 23:14:22.588429 21738 layer_factory.hpp:77] Creating layer InnerProduct22
I0813 23:14:22.588445 21738 net.cpp:91] Creating Layer InnerProduct22
I0813 23:14:22.588454 21738 net.cpp:425] InnerProduct22 <- Dropout21
I0813 23:14:22.588469 21738 net.cpp:399] InnerProduct22 -> InnerProduct22
I0813 23:14:22.588778 21738 net.cpp:141] Setting up InnerProduct22
I0813 23:14:22.588788 21738 net.cpp:148] Top shape: 200 128 (25600)
I0813 23:14:22.588794 21738 net.cpp:156] Memory required for data: 278643200
I0813 23:14:22.588802 21738 net.cpp:484] Sharing parameters 'fc2_w' owned by layer 'InnerProduct2', param index 0
I0813 23:14:22.588810 21738 net.cpp:484] Sharing parameters 'fc2_b' owned by layer 'InnerProduct2', param index 1
I0813 23:14:22.588817 21738 layer_factory.hpp:77] Creating layer ReLU22
I0813 23:14:22.588827 21738 net.cpp:91] Creating Layer ReLU22
I0813 23:14:22.588835 21738 net.cpp:425] ReLU22 <- InnerProduct22
I0813 23:14:22.588847 21738 net.cpp:386] ReLU22 -> InnerProduct22 (in-place)
I0813 23:14:22.588860 21738 net.cpp:141] Setting up ReLU22
I0813 23:14:22.588871 21738 net.cpp:148] Top shape: 200 128 (25600)
I0813 23:14:22.588877 21738 net.cpp:156] Memory required for data: 278745600
I0813 23:14:22.588883 21738 layer_factory.hpp:77] Creating layer drop2
I0813 23:14:22.588893 21738 net.cpp:91] Creating Layer drop2
I0813 23:14:22.588901 21738 net.cpp:425] drop2 <- InnerProduct22
I0813 23:14:22.588912 21738 net.cpp:399] drop2 -> Dropout22
I0813 23:14:22.588927 21738 net.cpp:141] Setting up drop2
I0813 23:14:22.588938 21738 net.cpp:148] Top shape: 200 128 (25600)
I0813 23:14:22.588944 21738 net.cpp:156] Memory required for data: 278848000
I0813 23:14:22.588951 21738 layer_factory.hpp:77] Creating layer m11
I0813 23:14:22.588963 21738 net.cpp:91] Creating Layer m11
I0813 23:14:22.588971 21738 net.cpp:425] m11 <- Dropout22
I0813 23:14:22.588986 21738 net.cpp:399] m11 -> m11
I0813 23:14:22.589012 21738 net.cpp:141] Setting up m11
I0813 23:14:22.589021 21738 net.cpp:148] Top shape: 200 1 (200)
I0813 23:14:22.589027 21738 net.cpp:156] Memory required for data: 278848800
I0813 23:14:22.589056 21738 net.cpp:484] Sharing parameters 'fc3_w' owned by layer 'm1', param index 0
I0813 23:14:22.589066 21738 net.cpp:484] Sharing parameters 'fc3_b' owned by layer 'm1', param index 1
I0813 23:14:22.589072 21738 layer_factory.hpp:77] Creating layer Concat12
I0813 23:14:22.589087 21738 net.cpp:91] Creating Layer Concat12
I0813 23:14:22.589095 21738 net.cpp:425] Concat12 <- i3
I0813 23:14:22.589104 21738 net.cpp:425] Concat12 <- i11_i1_10_split_2
I0813 23:14:22.589115 21738 net.cpp:399] Concat12 -> Concat12
I0813 23:14:22.589134 21738 net.cpp:141] Setting up Concat12
I0813 23:14:22.589144 21738 net.cpp:148] Top shape: 200 2 1 4096 (1638400)
I0813 23:14:22.589150 21738 net.cpp:156] Memory required for data: 285402400
I0813 23:14:22.589157 21738 layer_factory.hpp:77] Creating layer InnerProduct23
I0813 23:14:22.589174 21738 net.cpp:91] Creating Layer InnerProduct23
I0813 23:14:22.589182 21738 net.cpp:425] InnerProduct23 <- Concat12
I0813 23:14:22.589195 21738 net.cpp:399] InnerProduct23 -> InnerProduct23
I0813 23:14:22.605365 21738 net.cpp:141] Setting up InnerProduct23
I0813 23:14:22.605408 21738 net.cpp:148] Top shape: 200 256 (51200)
I0813 23:14:22.605417 21738 net.cpp:156] Memory required for data: 285607200
I0813 23:14:22.605427 21738 net.cpp:484] Sharing parameters 'fc1_w' owned by layer 'InnerProduct1', param index 0
I0813 23:14:22.605435 21738 net.cpp:484] Sharing parameters 'fc1_b' owned by layer 'InnerProduct1', param index 1
I0813 23:14:22.605440 21738 layer_factory.hpp:77] Creating layer ReLU23
I0813 23:14:22.605454 21738 net.cpp:91] Creating Layer ReLU23
I0813 23:14:22.605465 21738 net.cpp:425] ReLU23 <- InnerProduct23
I0813 23:14:22.605474 21738 net.cpp:386] ReLU23 -> InnerProduct23 (in-place)
I0813 23:14:22.605486 21738 net.cpp:141] Setting up ReLU23
I0813 23:14:22.605492 21738 net.cpp:148] Top shape: 200 256 (51200)
I0813 23:14:22.605496 21738 net.cpp:156] Memory required for data: 285812000
I0813 23:14:22.605521 21738 layer_factory.hpp:77] Creating layer drop1
I0813 23:14:22.605530 21738 net.cpp:91] Creating Layer drop1
I0813 23:14:22.605535 21738 net.cpp:425] drop1 <- InnerProduct23
I0813 23:14:22.605542 21738 net.cpp:399] drop1 -> Dropout23
I0813 23:14:22.605552 21738 net.cpp:141] Setting up drop1
I0813 23:14:22.605563 21738 net.cpp:148] Top shape: 200 256 (51200)
I0813 23:14:22.605566 21738 net.cpp:156] Memory required for data: 286016800
I0813 23:14:22.605571 21738 layer_factory.hpp:77] Creating layer InnerProduct24
I0813 23:14:22.605581 21738 net.cpp:91] Creating Layer InnerProduct24
I0813 23:14:22.605586 21738 net.cpp:425] InnerProduct24 <- Dropout23
I0813 23:14:22.605593 21738 net.cpp:399] InnerProduct24 -> InnerProduct24
I0813 23:14:22.605867 21738 net.cpp:141] Setting up InnerProduct24
I0813 23:14:22.605877 21738 net.cpp:148] Top shape: 200 128 (25600)
I0813 23:14:22.605881 21738 net.cpp:156] Memory required for data: 286119200
I0813 23:14:22.605886 21738 net.cpp:484] Sharing parameters 'fc2_w' owned by layer 'InnerProduct2', param index 0
I0813 23:14:22.605891 21738 net.cpp:484] Sharing parameters 'fc2_b' owned by layer 'InnerProduct2', param index 1
I0813 23:14:22.605895 21738 layer_factory.hpp:77] Creating layer ReLU24
I0813 23:14:22.605903 21738 net.cpp:91] Creating Layer ReLU24
I0813 23:14:22.605908 21738 net.cpp:425] ReLU24 <- InnerProduct24
I0813 23:14:22.605914 21738 net.cpp:386] ReLU24 -> InnerProduct24 (in-place)
I0813 23:14:22.605921 21738 net.cpp:141] Setting up ReLU24
I0813 23:14:22.605926 21738 net.cpp:148] Top shape: 200 128 (25600)
I0813 23:14:22.605929 21738 net.cpp:156] Memory required for data: 286221600
I0813 23:14:22.605933 21738 layer_factory.hpp:77] Creating layer drop2
I0813 23:14:22.605939 21738 net.cpp:91] Creating Layer drop2
I0813 23:14:22.605943 21738 net.cpp:425] drop2 <- InnerProduct24
I0813 23:14:22.605950 21738 net.cpp:399] drop2 -> Dropout24
I0813 23:14:22.605958 21738 net.cpp:141] Setting up drop2
I0813 23:14:22.605963 21738 net.cpp:148] Top shape: 200 128 (25600)
I0813 23:14:22.605967 21738 net.cpp:156] Memory required for data: 286324000
I0813 23:14:22.605970 21738 layer_factory.hpp:77] Creating layer m12
I0813 23:14:22.605978 21738 net.cpp:91] Creating Layer m12
I0813 23:14:22.605984 21738 net.cpp:425] m12 <- Dropout24
I0813 23:14:22.605990 21738 net.cpp:399] m12 -> m12
I0813 23:14:22.606007 21738 net.cpp:141] Setting up m12
I0813 23:14:22.606012 21738 net.cpp:148] Top shape: 200 1 (200)
I0813 23:14:22.606016 21738 net.cpp:156] Memory required for data: 286324800
I0813 23:14:22.606020 21738 net.cpp:484] Sharing parameters 'fc3_w' owned by layer 'm1', param index 0
I0813 23:14:22.606026 21738 net.cpp:484] Sharing parameters 'fc3_b' owned by layer 'm1', param index 1
I0813 23:14:22.606030 21738 layer_factory.hpp:77] Creating layer Concat13
I0813 23:14:22.606040 21738 net.cpp:91] Creating Layer Concat13
I0813 23:14:22.606045 21738 net.cpp:425] Concat13 <- i4
I0813 23:14:22.606051 21738 net.cpp:425] Concat13 <- i11_i1_10_split_3
I0813 23:14:22.606057 21738 net.cpp:399] Concat13 -> Concat13
I0813 23:14:22.606066 21738 net.cpp:141] Setting up Concat13
I0813 23:14:22.606072 21738 net.cpp:148] Top shape: 200 2 1 4096 (1638400)
I0813 23:14:22.606076 21738 net.cpp:156] Memory required for data: 292878400
I0813 23:14:22.606081 21738 layer_factory.hpp:77] Creating layer InnerProduct25
I0813 23:14:22.606089 21738 net.cpp:91] Creating Layer InnerProduct25
I0813 23:14:22.606094 21738 net.cpp:425] InnerProduct25 <- Concat13
I0813 23:14:22.606099 21738 net.cpp:399] InnerProduct25 -> InnerProduct25
I0813 23:14:22.621948 21738 net.cpp:141] Setting up InnerProduct25
I0813 23:14:22.621986 21738 net.cpp:148] Top shape: 200 256 (51200)
I0813 23:14:22.621991 21738 net.cpp:156] Memory required for data: 293083200
I0813 23:14:22.622002 21738 net.cpp:484] Sharing parameters 'fc1_w' owned by layer 'InnerProduct1', param index 0
I0813 23:14:22.622009 21738 net.cpp:484] Sharing parameters 'fc1_b' owned by layer 'InnerProduct1', param index 1
I0813 23:14:22.622015 21738 layer_factory.hpp:77] Creating layer ReLU25
I0813 23:14:22.622057 21738 net.cpp:91] Creating Layer ReLU25
I0813 23:14:22.622067 21738 net.cpp:425] ReLU25 <- InnerProduct25
I0813 23:14:22.622081 21738 net.cpp:386] ReLU25 -> InnerProduct25 (in-place)
I0813 23:14:22.622098 21738 net.cpp:141] Setting up ReLU25
I0813 23:14:22.622105 21738 net.cpp:148] Top shape: 200 256 (51200)
I0813 23:14:22.622108 21738 net.cpp:156] Memory required for data: 293288000
I0813 23:14:22.622113 21738 layer_factory.hpp:77] Creating layer drop1
I0813 23:14:22.622123 21738 net.cpp:91] Creating Layer drop1
I0813 23:14:22.622128 21738 net.cpp:425] drop1 <- InnerProduct25
I0813 23:14:22.622135 21738 net.cpp:399] drop1 -> Dropout25
I0813 23:14:22.622148 21738 net.cpp:141] Setting up drop1
I0813 23:14:22.622153 21738 net.cpp:148] Top shape: 200 256 (51200)
I0813 23:14:22.622156 21738 net.cpp:156] Memory required for data: 293492800
I0813 23:14:22.622160 21738 layer_factory.hpp:77] Creating layer InnerProduct26
I0813 23:14:22.622174 21738 net.cpp:91] Creating Layer InnerProduct26
I0813 23:14:22.622179 21738 net.cpp:425] InnerProduct26 <- Dropout25
I0813 23:14:22.622187 21738 net.cpp:399] InnerProduct26 -> InnerProduct26
I0813 23:14:22.622488 21738 net.cpp:141] Setting up InnerProduct26
I0813 23:14:22.622499 21738 net.cpp:148] Top shape: 200 128 (25600)
I0813 23:14:22.622503 21738 net.cpp:156] Memory required for data: 293595200
I0813 23:14:22.622509 21738 net.cpp:484] Sharing parameters 'fc2_w' owned by layer 'InnerProduct2', param index 0
I0813 23:14:22.622514 21738 net.cpp:484] Sharing parameters 'fc2_b' owned by layer 'InnerProduct2', param index 1
I0813 23:14:22.622519 21738 layer_factory.hpp:77] Creating layer ReLU26
I0813 23:14:22.622527 21738 net.cpp:91] Creating Layer ReLU26
I0813 23:14:22.622532 21738 net.cpp:425] ReLU26 <- InnerProduct26
I0813 23:14:22.622540 21738 net.cpp:386] ReLU26 -> InnerProduct26 (in-place)
I0813 23:14:22.622547 21738 net.cpp:141] Setting up ReLU26
I0813 23:14:22.622552 21738 net.cpp:148] Top shape: 200 128 (25600)
I0813 23:14:22.622556 21738 net.cpp:156] Memory required for data: 293697600
I0813 23:14:22.622560 21738 layer_factory.hpp:77] Creating layer drop2
I0813 23:14:22.622567 21738 net.cpp:91] Creating Layer drop2
I0813 23:14:22.622571 21738 net.cpp:425] drop2 <- InnerProduct26
I0813 23:14:22.622577 21738 net.cpp:399] drop2 -> Dropout26
I0813 23:14:22.622586 21738 net.cpp:141] Setting up drop2
I0813 23:14:22.622591 21738 net.cpp:148] Top shape: 200 128 (25600)
I0813 23:14:22.622593 21738 net.cpp:156] Memory required for data: 293800000
I0813 23:14:22.622597 21738 layer_factory.hpp:77] Creating layer m13
I0813 23:14:22.622608 21738 net.cpp:91] Creating Layer m13
I0813 23:14:22.622612 21738 net.cpp:425] m13 <- Dropout26
I0813 23:14:22.622622 21738 net.cpp:399] m13 -> m13
I0813 23:14:22.622638 21738 net.cpp:141] Setting up m13
I0813 23:14:22.622643 21738 net.cpp:148] Top shape: 200 1 (200)
I0813 23:14:22.622648 21738 net.cpp:156] Memory required for data: 293800800
I0813 23:14:22.622653 21738 net.cpp:484] Sharing parameters 'fc3_w' owned by layer 'm1', param index 0
I0813 23:14:22.622658 21738 net.cpp:484] Sharing parameters 'fc3_b' owned by layer 'm1', param index 1
I0813 23:14:22.622661 21738 layer_factory.hpp:77] Creating layer Concat14
I0813 23:14:22.622669 21738 net.cpp:91] Creating Layer Concat14
I0813 23:14:22.622674 21738 net.cpp:425] Concat14 <- i5
I0813 23:14:22.622680 21738 net.cpp:425] Concat14 <- i11_i1_10_split_4
I0813 23:14:22.622689 21738 net.cpp:399] Concat14 -> Concat14
I0813 23:14:22.622699 21738 net.cpp:141] Setting up Concat14
I0813 23:14:22.622704 21738 net.cpp:148] Top shape: 200 2 1 4096 (1638400)
I0813 23:14:22.622709 21738 net.cpp:156] Memory required for data: 300354400
I0813 23:14:22.622712 21738 layer_factory.hpp:77] Creating layer InnerProduct27
I0813 23:14:22.622720 21738 net.cpp:91] Creating Layer InnerProduct27
I0813 23:14:22.622725 21738 net.cpp:425] InnerProduct27 <- Concat14
I0813 23:14:22.622732 21738 net.cpp:399] InnerProduct27 -> InnerProduct27
I0813 23:14:22.638973 21738 net.cpp:141] Setting up InnerProduct27
I0813 23:14:22.639034 21738 net.cpp:148] Top shape: 200 256 (51200)
I0813 23:14:22.639039 21738 net.cpp:156] Memory required for data: 300559200
I0813 23:14:22.639048 21738 net.cpp:484] Sharing parameters 'fc1_w' owned by layer 'InnerProduct1', param index 0
I0813 23:14:22.639055 21738 net.cpp:484] Sharing parameters 'fc1_b' owned by layer 'InnerProduct1', param index 1
I0813 23:14:22.639060 21738 layer_factory.hpp:77] Creating layer ReLU27
I0813 23:14:22.639076 21738 net.cpp:91] Creating Layer ReLU27
I0813 23:14:22.639086 21738 net.cpp:425] ReLU27 <- InnerProduct27
I0813 23:14:22.639093 21738 net.cpp:386] ReLU27 -> InnerProduct27 (in-place)
I0813 23:14:22.639106 21738 net.cpp:141] Setting up ReLU27
I0813 23:14:22.639111 21738 net.cpp:148] Top shape: 200 256 (51200)
I0813 23:14:22.639114 21738 net.cpp:156] Memory required for data: 300764000
I0813 23:14:22.639118 21738 layer_factory.hpp:77] Creating layer drop1
I0813 23:14:22.639129 21738 net.cpp:91] Creating Layer drop1
I0813 23:14:22.639133 21738 net.cpp:425] drop1 <- InnerProduct27
I0813 23:14:22.639140 21738 net.cpp:399] drop1 -> Dropout27
I0813 23:14:22.639152 21738 net.cpp:141] Setting up drop1
I0813 23:14:22.639156 21738 net.cpp:148] Top shape: 200 256 (51200)
I0813 23:14:22.639160 21738 net.cpp:156] Memory required for data: 300968800
I0813 23:14:22.639164 21738 layer_factory.hpp:77] Creating layer InnerProduct28
I0813 23:14:22.639176 21738 net.cpp:91] Creating Layer InnerProduct28
I0813 23:14:22.639181 21738 net.cpp:425] InnerProduct28 <- Dropout27
I0813 23:14:22.639188 21738 net.cpp:399] InnerProduct28 -> InnerProduct28
I0813 23:14:22.639492 21738 net.cpp:141] Setting up InnerProduct28
I0813 23:14:22.639500 21738 net.cpp:148] Top shape: 200 128 (25600)
I0813 23:14:22.639504 21738 net.cpp:156] Memory required for data: 301071200
I0813 23:14:22.639510 21738 net.cpp:484] Sharing parameters 'fc2_w' owned by layer 'InnerProduct2', param index 0
I0813 23:14:22.639515 21738 net.cpp:484] Sharing parameters 'fc2_b' owned by layer 'InnerProduct2', param index 1
I0813 23:14:22.639519 21738 layer_factory.hpp:77] Creating layer ReLU28
I0813 23:14:22.639536 21738 net.cpp:91] Creating Layer ReLU28
I0813 23:14:22.639541 21738 net.cpp:425] ReLU28 <- InnerProduct28
I0813 23:14:22.639547 21738 net.cpp:386] ReLU28 -> InnerProduct28 (in-place)
I0813 23:14:22.639554 21738 net.cpp:141] Setting up ReLU28
I0813 23:14:22.639559 21738 net.cpp:148] Top shape: 200 128 (25600)
I0813 23:14:22.639562 21738 net.cpp:156] Memory required for data: 301173600
I0813 23:14:22.639566 21738 layer_factory.hpp:77] Creating layer drop2
I0813 23:14:22.639572 21738 net.cpp:91] Creating Layer drop2
I0813 23:14:22.639576 21738 net.cpp:425] drop2 <- InnerProduct28
I0813 23:14:22.639583 21738 net.cpp:399] drop2 -> Dropout28
I0813 23:14:22.639590 21738 net.cpp:141] Setting up drop2
I0813 23:14:22.639595 21738 net.cpp:148] Top shape: 200 128 (25600)
I0813 23:14:22.639600 21738 net.cpp:156] Memory required for data: 301276000
I0813 23:14:22.639603 21738 layer_factory.hpp:77] Creating layer m14
I0813 23:14:22.639611 21738 net.cpp:91] Creating Layer m14
I0813 23:14:22.639614 21738 net.cpp:425] m14 <- Dropout28
I0813 23:14:22.639623 21738 net.cpp:399] m14 -> m14
I0813 23:14:22.639638 21738 net.cpp:141] Setting up m14
I0813 23:14:22.639643 21738 net.cpp:148] Top shape: 200 1 (200)
I0813 23:14:22.639647 21738 net.cpp:156] Memory required for data: 301276800
I0813 23:14:22.639652 21738 net.cpp:484] Sharing parameters 'fc3_w' owned by layer 'm1', param index 0
I0813 23:14:22.639657 21738 net.cpp:484] Sharing parameters 'fc3_b' owned by layer 'm1', param index 1
I0813 23:14:22.639660 21738 layer_factory.hpp:77] Creating layer Concat15
I0813 23:14:22.639672 21738 net.cpp:91] Creating Layer Concat15
I0813 23:14:22.639677 21738 net.cpp:425] Concat15 <- i6
I0813 23:14:22.639683 21738 net.cpp:425] Concat15 <- i11_i1_10_split_5
I0813 23:14:22.639688 21738 net.cpp:399] Concat15 -> Concat15
I0813 23:14:22.639698 21738 net.cpp:141] Setting up Concat15
I0813 23:14:22.639704 21738 net.cpp:148] Top shape: 200 2 1 4096 (1638400)
I0813 23:14:22.639716 21738 net.cpp:156] Memory required for data: 307830400
I0813 23:14:22.639721 21738 layer_factory.hpp:77] Creating layer InnerProduct29
I0813 23:14:22.639729 21738 net.cpp:91] Creating Layer InnerProduct29
I0813 23:14:22.639734 21738 net.cpp:425] InnerProduct29 <- Concat15
I0813 23:14:22.639739 21738 net.cpp:399] InnerProduct29 -> InnerProduct29
I0813 23:14:22.655792 21738 net.cpp:141] Setting up InnerProduct29
I0813 23:14:22.655833 21738 net.cpp:148] Top shape: 200 256 (51200)
I0813 23:14:22.655839 21738 net.cpp:156] Memory required for data: 308035200
I0813 23:14:22.655848 21738 net.cpp:484] Sharing parameters 'fc1_w' owned by layer 'InnerProduct1', param index 0
I0813 23:14:22.655855 21738 net.cpp:484] Sharing parameters 'fc1_b' owned by layer 'InnerProduct1', param index 1
I0813 23:14:22.655861 21738 layer_factory.hpp:77] Creating layer ReLU29
I0813 23:14:22.655874 21738 net.cpp:91] Creating Layer ReLU29
I0813 23:14:22.655882 21738 net.cpp:425] ReLU29 <- InnerProduct29
I0813 23:14:22.655894 21738 net.cpp:386] ReLU29 -> InnerProduct29 (in-place)
I0813 23:14:22.655907 21738 net.cpp:141] Setting up ReLU29
I0813 23:14:22.655920 21738 net.cpp:148] Top shape: 200 256 (51200)
I0813 23:14:22.655925 21738 net.cpp:156] Memory required for data: 308240000
I0813 23:14:22.655930 21738 layer_factory.hpp:77] Creating layer drop1
I0813 23:14:22.655939 21738 net.cpp:91] Creating Layer drop1
I0813 23:14:22.655943 21738 net.cpp:425] drop1 <- InnerProduct29
I0813 23:14:22.655951 21738 net.cpp:399] drop1 -> Dropout29
I0813 23:14:22.655962 21738 net.cpp:141] Setting up drop1
I0813 23:14:22.655971 21738 net.cpp:148] Top shape: 200 256 (51200)
I0813 23:14:22.655974 21738 net.cpp:156] Memory required for data: 308444800
I0813 23:14:22.655979 21738 layer_factory.hpp:77] Creating layer InnerProduct30
I0813 23:14:22.655992 21738 net.cpp:91] Creating Layer InnerProduct30
I0813 23:14:22.655998 21738 net.cpp:425] InnerProduct30 <- Dropout29
I0813 23:14:22.656013 21738 net.cpp:399] InnerProduct30 -> InnerProduct30
I0813 23:14:22.656352 21738 net.cpp:141] Setting up InnerProduct30
I0813 23:14:22.656365 21738 net.cpp:148] Top shape: 200 128 (25600)
I0813 23:14:22.656370 21738 net.cpp:156] Memory required for data: 308547200
I0813 23:14:22.656375 21738 net.cpp:484] Sharing parameters 'fc2_w' owned by layer 'InnerProduct2', param index 0
I0813 23:14:22.656381 21738 net.cpp:484] Sharing parameters 'fc2_b' owned by layer 'InnerProduct2', param index 1
I0813 23:14:22.656385 21738 layer_factory.hpp:77] Creating layer ReLU30
I0813 23:14:22.656393 21738 net.cpp:91] Creating Layer ReLU30
I0813 23:14:22.656397 21738 net.cpp:425] ReLU30 <- InnerProduct30
I0813 23:14:22.656405 21738 net.cpp:386] ReLU30 -> InnerProduct30 (in-place)
I0813 23:14:22.656414 21738 net.cpp:141] Setting up ReLU30
I0813 23:14:22.656424 21738 net.cpp:148] Top shape: 200 128 (25600)
I0813 23:14:22.656429 21738 net.cpp:156] Memory required for data: 308649600
I0813 23:14:22.656432 21738 layer_factory.hpp:77] Creating layer drop2
I0813 23:14:22.656440 21738 net.cpp:91] Creating Layer drop2
I0813 23:14:22.656445 21738 net.cpp:425] drop2 <- InnerProduct30
I0813 23:14:22.656455 21738 net.cpp:399] drop2 -> Dropout30
I0813 23:14:22.656463 21738 net.cpp:141] Setting up drop2
I0813 23:14:22.656469 21738 net.cpp:148] Top shape: 200 128 (25600)
I0813 23:14:22.656473 21738 net.cpp:156] Memory required for data: 308752000
I0813 23:14:22.656478 21738 layer_factory.hpp:77] Creating layer m15
I0813 23:14:22.656486 21738 net.cpp:91] Creating Layer m15
I0813 23:14:22.656494 21738 net.cpp:425] m15 <- Dropout30
I0813 23:14:22.656504 21738 net.cpp:399] m15 -> m15
I0813 23:14:22.656523 21738 net.cpp:141] Setting up m15
I0813 23:14:22.656530 21738 net.cpp:148] Top shape: 200 1 (200)
I0813 23:14:22.656534 21738 net.cpp:156] Memory required for data: 308752800
I0813 23:14:22.656539 21738 net.cpp:484] Sharing parameters 'fc3_w' owned by layer 'm1', param index 0
I0813 23:14:22.656545 21738 net.cpp:484] Sharing parameters 'fc3_b' owned by layer 'm1', param index 1
I0813 23:14:22.656571 21738 layer_factory.hpp:77] Creating layer Concat16
I0813 23:14:22.656584 21738 net.cpp:91] Creating Layer Concat16
I0813 23:14:22.656591 21738 net.cpp:425] Concat16 <- i7
I0813 23:14:22.656599 21738 net.cpp:425] Concat16 <- i11_i1_10_split_6
I0813 23:14:22.656608 21738 net.cpp:399] Concat16 -> Concat16
I0813 23:14:22.656620 21738 net.cpp:141] Setting up Concat16
I0813 23:14:22.656625 21738 net.cpp:148] Top shape: 200 2 1 4096 (1638400)
I0813 23:14:22.656628 21738 net.cpp:156] Memory required for data: 315306400
I0813 23:14:22.656633 21738 layer_factory.hpp:77] Creating layer InnerProduct31
I0813 23:14:22.656668 21738 net.cpp:91] Creating Layer InnerProduct31
I0813 23:14:22.656677 21738 net.cpp:425] InnerProduct31 <- Concat16
I0813 23:14:22.656684 21738 net.cpp:399] InnerProduct31 -> InnerProduct31
I0813 23:14:22.672711 21738 net.cpp:141] Setting up InnerProduct31
I0813 23:14:22.672749 21738 net.cpp:148] Top shape: 200 256 (51200)
I0813 23:14:22.672755 21738 net.cpp:156] Memory required for data: 315511200
I0813 23:14:22.672763 21738 net.cpp:484] Sharing parameters 'fc1_w' owned by layer 'InnerProduct1', param index 0
I0813 23:14:22.672770 21738 net.cpp:484] Sharing parameters 'fc1_b' owned by layer 'InnerProduct1', param index 1
I0813 23:14:22.672777 21738 layer_factory.hpp:77] Creating layer ReLU31
I0813 23:14:22.672791 21738 net.cpp:91] Creating Layer ReLU31
I0813 23:14:22.672802 21738 net.cpp:425] ReLU31 <- InnerProduct31
I0813 23:14:22.672811 21738 net.cpp:386] ReLU31 -> InnerProduct31 (in-place)
I0813 23:14:22.672823 21738 net.cpp:141] Setting up ReLU31
I0813 23:14:22.672832 21738 net.cpp:148] Top shape: 200 256 (51200)
I0813 23:14:22.672837 21738 net.cpp:156] Memory required for data: 315716000
I0813 23:14:22.672840 21738 layer_factory.hpp:77] Creating layer drop1
I0813 23:14:22.672848 21738 net.cpp:91] Creating Layer drop1
I0813 23:14:22.672852 21738 net.cpp:425] drop1 <- InnerProduct31
I0813 23:14:22.672860 21738 net.cpp:399] drop1 -> Dropout31
I0813 23:14:22.672871 21738 net.cpp:141] Setting up drop1
I0813 23:14:22.672880 21738 net.cpp:148] Top shape: 200 256 (51200)
I0813 23:14:22.672885 21738 net.cpp:156] Memory required for data: 315920800
I0813 23:14:22.672889 21738 layer_factory.hpp:77] Creating layer InnerProduct32
I0813 23:14:22.672899 21738 net.cpp:91] Creating Layer InnerProduct32
I0813 23:14:22.672904 21738 net.cpp:425] InnerProduct32 <- Dropout31
I0813 23:14:22.672912 21738 net.cpp:399] InnerProduct32 -> InnerProduct32
I0813 23:14:22.673207 21738 net.cpp:141] Setting up InnerProduct32
I0813 23:14:22.673218 21738 net.cpp:148] Top shape: 200 128 (25600)
I0813 23:14:22.673221 21738 net.cpp:156] Memory required for data: 316023200
I0813 23:14:22.673226 21738 net.cpp:484] Sharing parameters 'fc2_w' owned by layer 'InnerProduct2', param index 0
I0813 23:14:22.673231 21738 net.cpp:484] Sharing parameters 'fc2_b' owned by layer 'InnerProduct2', param index 1
I0813 23:14:22.673236 21738 layer_factory.hpp:77] Creating layer ReLU32
I0813 23:14:22.673244 21738 net.cpp:91] Creating Layer ReLU32
I0813 23:14:22.673249 21738 net.cpp:425] ReLU32 <- InnerProduct32
I0813 23:14:22.673255 21738 net.cpp:386] ReLU32 -> InnerProduct32 (in-place)
I0813 23:14:22.673261 21738 net.cpp:141] Setting up ReLU32
I0813 23:14:22.673266 21738 net.cpp:148] Top shape: 200 128 (25600)
I0813 23:14:22.673270 21738 net.cpp:156] Memory required for data: 316125600
I0813 23:14:22.673275 21738 layer_factory.hpp:77] Creating layer drop2
I0813 23:14:22.673281 21738 net.cpp:91] Creating Layer drop2
I0813 23:14:22.673285 21738 net.cpp:425] drop2 <- InnerProduct32
I0813 23:14:22.673293 21738 net.cpp:399] drop2 -> Dropout32
I0813 23:14:22.673300 21738 net.cpp:141] Setting up drop2
I0813 23:14:22.673305 21738 net.cpp:148] Top shape: 200 128 (25600)
I0813 23:14:22.673310 21738 net.cpp:156] Memory required for data: 316228000
I0813 23:14:22.673313 21738 layer_factory.hpp:77] Creating layer m16
I0813 23:14:22.673321 21738 net.cpp:91] Creating Layer m16
I0813 23:14:22.673332 21738 net.cpp:425] m16 <- Dropout32
I0813 23:14:22.673339 21738 net.cpp:399] m16 -> m16
I0813 23:14:22.673375 21738 net.cpp:141] Setting up m16
I0813 23:14:22.673382 21738 net.cpp:148] Top shape: 200 1 (200)
I0813 23:14:22.673385 21738 net.cpp:156] Memory required for data: 316228800
I0813 23:14:22.673390 21738 net.cpp:484] Sharing parameters 'fc3_w' owned by layer 'm1', param index 0
I0813 23:14:22.673395 21738 net.cpp:484] Sharing parameters 'fc3_b' owned by layer 'm1', param index 1
I0813 23:14:22.673399 21738 layer_factory.hpp:77] Creating layer Concat17
I0813 23:14:22.673409 21738 net.cpp:91] Creating Layer Concat17
I0813 23:14:22.673414 21738 net.cpp:425] Concat17 <- i8
I0813 23:14:22.673420 21738 net.cpp:425] Concat17 <- i11_i1_10_split_7
I0813 23:14:22.673429 21738 net.cpp:399] Concat17 -> Concat17
I0813 23:14:22.673442 21738 net.cpp:141] Setting up Concat17
I0813 23:14:22.673447 21738 net.cpp:148] Top shape: 200 2 1 4096 (1638400)
I0813 23:14:22.673451 21738 net.cpp:156] Memory required for data: 322782400
I0813 23:14:22.673455 21738 layer_factory.hpp:77] Creating layer InnerProduct33
I0813 23:14:22.673465 21738 net.cpp:91] Creating Layer InnerProduct33
I0813 23:14:22.673470 21738 net.cpp:425] InnerProduct33 <- Concat17
I0813 23:14:22.673476 21738 net.cpp:399] InnerProduct33 -> InnerProduct33
I0813 23:14:22.689628 21738 net.cpp:141] Setting up InnerProduct33
I0813 23:14:22.689666 21738 net.cpp:148] Top shape: 200 256 (51200)
I0813 23:14:22.689671 21738 net.cpp:156] Memory required for data: 322987200
I0813 23:14:22.689680 21738 net.cpp:484] Sharing parameters 'fc1_w' owned by layer 'InnerProduct1', param index 0
I0813 23:14:22.689687 21738 net.cpp:484] Sharing parameters 'fc1_b' owned by layer 'InnerProduct1', param index 1
I0813 23:14:22.689692 21738 layer_factory.hpp:77] Creating layer ReLU33
I0813 23:14:22.689707 21738 net.cpp:91] Creating Layer ReLU33
I0813 23:14:22.689713 21738 net.cpp:425] ReLU33 <- InnerProduct33
I0813 23:14:22.689726 21738 net.cpp:386] ReLU33 -> InnerProduct33 (in-place)
I0813 23:14:22.689741 21738 net.cpp:141] Setting up ReLU33
I0813 23:14:22.689746 21738 net.cpp:148] Top shape: 200 256 (51200)
I0813 23:14:22.689750 21738 net.cpp:156] Memory required for data: 323192000
I0813 23:14:22.689755 21738 layer_factory.hpp:77] Creating layer drop1
I0813 23:14:22.689764 21738 net.cpp:91] Creating Layer drop1
I0813 23:14:22.689769 21738 net.cpp:425] drop1 <- InnerProduct33
I0813 23:14:22.689776 21738 net.cpp:399] drop1 -> Dropout33
I0813 23:14:22.689787 21738 net.cpp:141] Setting up drop1
I0813 23:14:22.689793 21738 net.cpp:148] Top shape: 200 256 (51200)
I0813 23:14:22.689797 21738 net.cpp:156] Memory required for data: 323396800
I0813 23:14:22.689801 21738 layer_factory.hpp:77] Creating layer InnerProduct34
I0813 23:14:22.689813 21738 net.cpp:91] Creating Layer InnerProduct34
I0813 23:14:22.689826 21738 net.cpp:425] InnerProduct34 <- Dropout33
I0813 23:14:22.689836 21738 net.cpp:399] InnerProduct34 -> InnerProduct34
I0813 23:14:22.690134 21738 net.cpp:141] Setting up InnerProduct34
I0813 23:14:22.690145 21738 net.cpp:148] Top shape: 200 128 (25600)
I0813 23:14:22.690150 21738 net.cpp:156] Memory required for data: 323499200
I0813 23:14:22.690155 21738 net.cpp:484] Sharing parameters 'fc2_w' owned by layer 'InnerProduct2', param index 0
I0813 23:14:22.690160 21738 net.cpp:484] Sharing parameters 'fc2_b' owned by layer 'InnerProduct2', param index 1
I0813 23:14:22.690165 21738 layer_factory.hpp:77] Creating layer ReLU34
I0813 23:14:22.690172 21738 net.cpp:91] Creating Layer ReLU34
I0813 23:14:22.690178 21738 net.cpp:425] ReLU34 <- InnerProduct34
I0813 23:14:22.690191 21738 net.cpp:386] ReLU34 -> InnerProduct34 (in-place)
I0813 23:14:22.690197 21738 net.cpp:141] Setting up ReLU34
I0813 23:14:22.690202 21738 net.cpp:148] Top shape: 200 128 (25600)
I0813 23:14:22.690207 21738 net.cpp:156] Memory required for data: 323601600
I0813 23:14:22.690212 21738 layer_factory.hpp:77] Creating layer drop2
I0813 23:14:22.690217 21738 net.cpp:91] Creating Layer drop2
I0813 23:14:22.690222 21738 net.cpp:425] drop2 <- InnerProduct34
I0813 23:14:22.690227 21738 net.cpp:399] drop2 -> Dropout34
I0813 23:14:22.690251 21738 net.cpp:141] Setting up drop2
I0813 23:14:22.690260 21738 net.cpp:148] Top shape: 200 128 (25600)
I0813 23:14:22.690263 21738 net.cpp:156] Memory required for data: 323704000
I0813 23:14:22.690269 21738 layer_factory.hpp:77] Creating layer m17
I0813 23:14:22.690281 21738 net.cpp:91] Creating Layer m17
I0813 23:14:22.690287 21738 net.cpp:425] m17 <- Dropout34
I0813 23:14:22.690296 21738 net.cpp:399] m17 -> m17
I0813 23:14:22.690315 21738 net.cpp:141] Setting up m17
I0813 23:14:22.690321 21738 net.cpp:148] Top shape: 200 1 (200)
I0813 23:14:22.690326 21738 net.cpp:156] Memory required for data: 323704800
I0813 23:14:22.690331 21738 net.cpp:484] Sharing parameters 'fc3_w' owned by layer 'm1', param index 0
I0813 23:14:22.690336 21738 net.cpp:484] Sharing parameters 'fc3_b' owned by layer 'm1', param index 1
I0813 23:14:22.690340 21738 layer_factory.hpp:77] Creating layer Concat18
I0813 23:14:22.690349 21738 net.cpp:91] Creating Layer Concat18
I0813 23:14:22.690354 21738 net.cpp:425] Concat18 <- i9
I0813 23:14:22.690361 21738 net.cpp:425] Concat18 <- i11_i1_10_split_8
I0813 23:14:22.690374 21738 net.cpp:399] Concat18 -> Concat18
I0813 23:14:22.690384 21738 net.cpp:141] Setting up Concat18
I0813 23:14:22.690390 21738 net.cpp:148] Top shape: 200 2 1 4096 (1638400)
I0813 23:14:22.690394 21738 net.cpp:156] Memory required for data: 330258400
I0813 23:14:22.690398 21738 layer_factory.hpp:77] Creating layer InnerProduct35
I0813 23:14:22.690407 21738 net.cpp:91] Creating Layer InnerProduct35
I0813 23:14:22.690413 21738 net.cpp:425] InnerProduct35 <- Concat18
I0813 23:14:22.690423 21738 net.cpp:399] InnerProduct35 -> InnerProduct35
I0813 23:14:22.706375 21738 net.cpp:141] Setting up InnerProduct35
I0813 23:14:22.706413 21738 net.cpp:148] Top shape: 200 256 (51200)
I0813 23:14:22.706418 21738 net.cpp:156] Memory required for data: 330463200
I0813 23:14:22.706428 21738 net.cpp:484] Sharing parameters 'fc1_w' owned by layer 'InnerProduct1', param index 0
I0813 23:14:22.706434 21738 net.cpp:484] Sharing parameters 'fc1_b' owned by layer 'InnerProduct1', param index 1
I0813 23:14:22.706439 21738 layer_factory.hpp:77] Creating layer ReLU35
I0813 23:14:22.706457 21738 net.cpp:91] Creating Layer ReLU35
I0813 23:14:22.706465 21738 net.cpp:425] ReLU35 <- InnerProduct35
I0813 23:14:22.706475 21738 net.cpp:386] ReLU35 -> InnerProduct35 (in-place)
I0813 23:14:22.706492 21738 net.cpp:141] Setting up ReLU35
I0813 23:14:22.706498 21738 net.cpp:148] Top shape: 200 256 (51200)
I0813 23:14:22.706502 21738 net.cpp:156] Memory required for data: 330668000
I0813 23:14:22.706506 21738 layer_factory.hpp:77] Creating layer drop1
I0813 23:14:22.706517 21738 net.cpp:91] Creating Layer drop1
I0813 23:14:22.706521 21738 net.cpp:425] drop1 <- InnerProduct35
I0813 23:14:22.706528 21738 net.cpp:399] drop1 -> Dropout35
I0813 23:14:22.706539 21738 net.cpp:141] Setting up drop1
I0813 23:14:22.706545 21738 net.cpp:148] Top shape: 200 256 (51200)
I0813 23:14:22.706549 21738 net.cpp:156] Memory required for data: 330872800
I0813 23:14:22.706553 21738 layer_factory.hpp:77] Creating layer InnerProduct36
I0813 23:14:22.706565 21738 net.cpp:91] Creating Layer InnerProduct36
I0813 23:14:22.706573 21738 net.cpp:425] InnerProduct36 <- Dropout35
I0813 23:14:22.706579 21738 net.cpp:399] InnerProduct36 -> InnerProduct36
I0813 23:14:22.706862 21738 net.cpp:141] Setting up InnerProduct36
I0813 23:14:22.706871 21738 net.cpp:148] Top shape: 200 128 (25600)
I0813 23:14:22.706874 21738 net.cpp:156] Memory required for data: 330975200
I0813 23:14:22.706879 21738 net.cpp:484] Sharing parameters 'fc2_w' owned by layer 'InnerProduct2', param index 0
I0813 23:14:22.706885 21738 net.cpp:484] Sharing parameters 'fc2_b' owned by layer 'InnerProduct2', param index 1
I0813 23:14:22.706890 21738 layer_factory.hpp:77] Creating layer ReLU36
I0813 23:14:22.706898 21738 net.cpp:91] Creating Layer ReLU36
I0813 23:14:22.706903 21738 net.cpp:425] ReLU36 <- InnerProduct36
I0813 23:14:22.706908 21738 net.cpp:386] ReLU36 -> InnerProduct36 (in-place)
I0813 23:14:22.706935 21738 net.cpp:141] Setting up ReLU36
I0813 23:14:22.706941 21738 net.cpp:148] Top shape: 200 128 (25600)
I0813 23:14:22.706945 21738 net.cpp:156] Memory required for data: 331077600
I0813 23:14:22.706949 21738 layer_factory.hpp:77] Creating layer drop2
I0813 23:14:22.706957 21738 net.cpp:91] Creating Layer drop2
I0813 23:14:22.706961 21738 net.cpp:425] drop2 <- InnerProduct36
I0813 23:14:22.706967 21738 net.cpp:399] drop2 -> Dropout36
I0813 23:14:22.706979 21738 net.cpp:141] Setting up drop2
I0813 23:14:22.706984 21738 net.cpp:148] Top shape: 200 128 (25600)
I0813 23:14:22.706986 21738 net.cpp:156] Memory required for data: 331180000
I0813 23:14:22.706990 21738 layer_factory.hpp:77] Creating layer m18
I0813 23:14:22.707000 21738 net.cpp:91] Creating Layer m18
I0813 23:14:22.707006 21738 net.cpp:425] m18 <- Dropout36
I0813 23:14:22.707015 21738 net.cpp:399] m18 -> m18
I0813 23:14:22.707032 21738 net.cpp:141] Setting up m18
I0813 23:14:22.707041 21738 net.cpp:148] Top shape: 200 1 (200)
I0813 23:14:22.707044 21738 net.cpp:156] Memory required for data: 331180800
I0813 23:14:22.707048 21738 net.cpp:484] Sharing parameters 'fc3_w' owned by layer 'm1', param index 0
I0813 23:14:22.707053 21738 net.cpp:484] Sharing parameters 'fc3_b' owned by layer 'm1', param index 1
I0813 23:14:22.707058 21738 layer_factory.hpp:77] Creating layer Concat19
I0813 23:14:22.707067 21738 net.cpp:91] Creating Layer Concat19
I0813 23:14:22.707072 21738 net.cpp:425] Concat19 <- i10
I0813 23:14:22.707078 21738 net.cpp:425] Concat19 <- i11_i1_10_split_9
I0813 23:14:22.707087 21738 net.cpp:399] Concat19 -> Concat19
I0813 23:14:22.707099 21738 net.cpp:141] Setting up Concat19
I0813 23:14:22.707106 21738 net.cpp:148] Top shape: 200 2 1 4096 (1638400)
I0813 23:14:22.707110 21738 net.cpp:156] Memory required for data: 337734400
I0813 23:14:22.707114 21738 layer_factory.hpp:77] Creating layer InnerProduct37
I0813 23:14:22.707121 21738 net.cpp:91] Creating Layer InnerProduct37
I0813 23:14:22.707125 21738 net.cpp:425] InnerProduct37 <- Concat19
I0813 23:14:22.707134 21738 net.cpp:399] InnerProduct37 -> InnerProduct37
I0813 23:14:22.723104 21738 net.cpp:141] Setting up InnerProduct37
I0813 23:14:22.723137 21738 net.cpp:148] Top shape: 200 256 (51200)
I0813 23:14:22.723142 21738 net.cpp:156] Memory required for data: 337939200
I0813 23:14:22.723152 21738 net.cpp:484] Sharing parameters 'fc1_w' owned by layer 'InnerProduct1', param index 0
I0813 23:14:22.723158 21738 net.cpp:484] Sharing parameters 'fc1_b' owned by layer 'InnerProduct1', param index 1
I0813 23:14:22.723165 21738 layer_factory.hpp:77] Creating layer ReLU37
I0813 23:14:22.723178 21738 net.cpp:91] Creating Layer ReLU37
I0813 23:14:22.723187 21738 net.cpp:425] ReLU37 <- InnerProduct37
I0813 23:14:22.723199 21738 net.cpp:386] ReLU37 -> InnerProduct37 (in-place)
I0813 23:14:22.723213 21738 net.cpp:141] Setting up ReLU37
I0813 23:14:22.723218 21738 net.cpp:148] Top shape: 200 256 (51200)
I0813 23:14:22.723223 21738 net.cpp:156] Memory required for data: 338144000
I0813 23:14:22.723227 21738 layer_factory.hpp:77] Creating layer drop1
I0813 23:14:22.723237 21738 net.cpp:91] Creating Layer drop1
I0813 23:14:22.723242 21738 net.cpp:425] drop1 <- InnerProduct37
I0813 23:14:22.723250 21738 net.cpp:399] drop1 -> Dropout37
I0813 23:14:22.723265 21738 net.cpp:141] Setting up drop1
I0813 23:14:22.723274 21738 net.cpp:148] Top shape: 200 256 (51200)
I0813 23:14:22.723278 21738 net.cpp:156] Memory required for data: 338348800
I0813 23:14:22.723284 21738 layer_factory.hpp:77] Creating layer InnerProduct38
I0813 23:14:22.723294 21738 net.cpp:91] Creating Layer InnerProduct38
I0813 23:14:22.723299 21738 net.cpp:425] InnerProduct38 <- Dropout37
I0813 23:14:22.723309 21738 net.cpp:399] InnerProduct38 -> InnerProduct38
I0813 23:14:22.723595 21738 net.cpp:141] Setting up InnerProduct38
I0813 23:14:22.723604 21738 net.cpp:148] Top shape: 200 128 (25600)
I0813 23:14:22.723608 21738 net.cpp:156] Memory required for data: 338451200
I0813 23:14:22.723613 21738 net.cpp:484] Sharing parameters 'fc2_w' owned by layer 'InnerProduct2', param index 0
I0813 23:14:22.723641 21738 net.cpp:484] Sharing parameters 'fc2_b' owned by layer 'InnerProduct2', param index 1
I0813 23:14:22.723646 21738 layer_factory.hpp:77] Creating layer ReLU38
I0813 23:14:22.723652 21738 net.cpp:91] Creating Layer ReLU38
I0813 23:14:22.723657 21738 net.cpp:425] ReLU38 <- InnerProduct38
I0813 23:14:22.723665 21738 net.cpp:386] ReLU38 -> InnerProduct38 (in-place)
I0813 23:14:22.723671 21738 net.cpp:141] Setting up ReLU38
I0813 23:14:22.723677 21738 net.cpp:148] Top shape: 200 128 (25600)
I0813 23:14:22.723680 21738 net.cpp:156] Memory required for data: 338553600
I0813 23:14:22.723685 21738 layer_factory.hpp:77] Creating layer drop2
I0813 23:14:22.723690 21738 net.cpp:91] Creating Layer drop2
I0813 23:14:22.723695 21738 net.cpp:425] drop2 <- InnerProduct38
I0813 23:14:22.723702 21738 net.cpp:399] drop2 -> Dropout38
I0813 23:14:22.723712 21738 net.cpp:141] Setting up drop2
I0813 23:14:22.723717 21738 net.cpp:148] Top shape: 200 128 (25600)
I0813 23:14:22.723721 21738 net.cpp:156] Memory required for data: 338656000
I0813 23:14:22.723724 21738 layer_factory.hpp:77] Creating layer m19
I0813 23:14:22.723732 21738 net.cpp:91] Creating Layer m19
I0813 23:14:22.723737 21738 net.cpp:425] m19 <- Dropout38
I0813 23:14:22.723747 21738 net.cpp:399] m19 -> m19
I0813 23:14:22.723764 21738 net.cpp:141] Setting up m19
I0813 23:14:22.723770 21738 net.cpp:148] Top shape: 200 1 (200)
I0813 23:14:22.723774 21738 net.cpp:156] Memory required for data: 338656800
I0813 23:14:22.723779 21738 net.cpp:484] Sharing parameters 'fc3_w' owned by layer 'm1', param index 0
I0813 23:14:22.723784 21738 net.cpp:484] Sharing parameters 'fc3_b' owned by layer 'm1', param index 1
I0813 23:14:22.723788 21738 layer_factory.hpp:77] Creating layer con
I0813 23:14:22.723800 21738 net.cpp:91] Creating Layer con
…
I0813 23:14:22.723856 21738 net.cpp:425] con <- m11
I0813 23:14:22.723860 21738 net.cpp:425] con <- m12
I0813 23:14:22.723865 21738 net.cpp:425] con <- m13
I0813 23:14:22.723870 21738 net.cpp:425] con <- m14
I0813 23:14:22.723875 21738 net.cpp:425] con <- m15
I0813 23:14:22.723878 21738 net.cpp:425] con <- m16
I0813 23:14:22.723882 21738 net.cpp:425] con <- m17
I0813 23:14:22.723887 21738 net.cpp:425] con <- m18
I0813 23:14:22.723891 21738 net.cpp:425] con <- m19
I0813 23:14:22.723901 21738 net.cpp:399] con -> con
I0813 23:14:22.723917 21738 net.cpp:141] Setting up con
I0813 23:14:22.723922 21738 net.cpp:148] Top shape: 200 19 (3800)
I0813 23:14:22.723927 21738 net.cpp:156] Memory required for data: 338672000
I0813 23:14:22.723932 21738 layer_factory.hpp:77] Creating layer r1
I0813 23:14:22.723940 21738 net.cpp:91] Creating Layer r1
I0813 23:14:22.723947 21738 net.cpp:425] r1 <- con
I0813 23:14:22.723953 21738 net.cpp:399] r1 -> r1
I0813 23:14:22.723973 21738 net.cpp:141] Setting up r1
I0813 23:14:22.723978 21738 net.cpp:148] Top shape: 200 1 1 19 (3800)
I0813 23:14:22.723983 21738 net.cpp:156] Memory required for data: 338687200
I0813 23:14:22.723986 21738 layer_factory.hpp:77] Creating layer p
I0813 23:14:22.723996 21738 net.cpp:91] Creating Layer p
I0813 23:14:22.724002 21738 net.cpp:425] p <- r1
I0813 23:14:22.724007 21738 net.cpp:399] p -> p
I0813 23:14:22.724043 21738 net.cpp:141] Setting up p
I0813 23:14:22.724053 21738 net.cpp:148] Top shape: 200 1 1 1 (200)
I0813 23:14:22.724057 21738 net.cpp:156] Memory required for data: 338688000
I0813 23:14:22.724061 21738 layer_factory.hpp:77] Creating layer r2
I0813 23:14:22.724068 21738 net.cpp:91] Creating Layer r2
I0813 23:14:22.724072 21738 net.cpp:425] r2 <- p
I0813 23:14:22.724092 21738 net.cpp:399] r2 -> r2
I0813 23:14:22.724102 21738 net.cpp:141] Setting up r2
I0813 23:14:22.724108 21738 net.cpp:148] Top shape: 200 1 1 1 (200)
I0813 23:14:22.724112 21738 net.cpp:156] Memory required for data: 338688800
I0813 23:14:22.724117 21738 layer_factory.hpp:77] Creating layer padL
I0813 23:14:22.724124 21738 net.cpp:91] Creating Layer padL
I0813 23:14:22.724131 21738 net.cpp:425] padL <- label_data_1_split_1
I0813 23:14:22.724138 21738 net.cpp:399] padL -> padL
I0813 23:14:22.724145 21738 net.cpp:141] Setting up padL
I0813 23:14:22.724153 21738 net.cpp:148] Top shape: 200 1 1 1 (200)
I0813 23:14:22.724156 21738 net.cpp:156] Memory required for data: 338689600
I0813 23:14:22.724161 21738 layer_factory.hpp:77] Creating layer pad
I0813 23:14:22.724169 21738 net.cpp:91] Creating Layer pad
I0813 23:14:22.724174 21738 net.cpp:425] pad <- r2
I0813 23:14:22.724179 21738 net.cpp:425] pad <- padL
I0813 23:14:22.724184 21738 net.cpp:399] pad -> pad
I0813 23:14:22.724192 21738 net.cpp:141] Setting up pad
I0813 23:14:22.724197 21738 net.cpp:148] Top shape: 200 2 1 1 (400)
I0813 23:14:22.724203 21738 net.cpp:156] Memory required for data: 338691200
I0813 23:14:22.724207 21738 layer_factory.hpp:77] Creating layer pad_pad_0_split
I0813 23:14:22.724215 21738 net.cpp:91] Creating Layer pad_pad_0_split
I0813 23:14:22.724218 21738 net.cpp:425] pad_pad_0_split <- pad
I0813 23:14:22.724225 21738 net.cpp:399] pad_pad_0_split -> pad_pad_0_split_0
I0813 23:14:22.724232 21738 net.cpp:399] pad_pad_0_split -> pad_pad_0_split_1
I0813 23:14:22.724241 21738 net.cpp:141] Setting up pad_pad_0_split
I0813 23:14:22.724247 21738 net.cpp:148] Top shape: 200 2 1 1 (400)
I0813 23:14:22.724251 21738 net.cpp:148] Top shape: 200 2 1 1 (400)
I0813 23:14:22.724256 21738 net.cpp:156] Memory required for data: 338694400
I0813 23:14:22.724259 21738 layer_factory.hpp:77] Creating layer loss
I0813 23:14:22.724267 21738 net.cpp:91] Creating Layer loss
I0813 23:14:22.724272 21738 net.cpp:425] loss <- pad_pad_0_split_0
I0813 23:14:22.724277 21738 net.cpp:425] loss <- th_th_0_split_0
I0813 23:14:22.724283 21738 net.cpp:399] loss -> loss
…
