…
I0808 13:44:08.343070 20451 solver.cpp:81] Creating training net from train_net file: examples/scene/matchNetTrainHingeMini.prototxt
I0808 13:44:08.371104 20451 net.cpp:49] Initializing net from parameters: 
state {
  phase: TRAIN
}
layer {
  name: "data"
  type: "Data"
  top: "data"
  top: "label"
  include {
    phase: TRAIN
  }
  transform_param {
    scale: 0.0039215689
    mirror: true
    mean_file: "examples/scene/scene_mean.binaryproto"
  }
  data_param {
    source: "examples/scene/train11_pairs_300000_pad.lmdb"
    batch_size: 64
    backend: LMDB
  }
}
layer {
  name: "th"
  type: "Threshold"
  bottom: "label"
  top: "th"
  threshold_param {
    threshold: 0
  }
}
layer {
  name: "i1"
  type: "Slice"
  bottom: "data"
  top: "i1"
  top: "i2"
  slice_param {
    slice_dim: 1
    slice_point: 3
  }
}
layer {
  name: "p1"
  type: "Pooling"
  bottom: "i1"
  top: "p1"
  pooling_param {
    pool: AVE
    kernel_size: 2
    stride: 2
  }
}
layer {
  name: "p2"
  type: "Pooling"
  bottom: "i2"
  top: "p2"
  pooling_param {
    pool: AVE
    kernel_size: 2
    stride: 2
  }
}
layer {
  name: "Input1"
  type: "Input"
  top: "Input1"
  include {
    phase: TRAIN
  }
  input_param {
    shape {
      dim: 64
      dim: 3
      dim: 64
      dim: 64
    }
  }
}
layer {
  name: "c11"
  type: "Crop"
  bottom: "i1"
  bottom: "Input1"
  top: "c11"
  crop_param {
    axis: 2
    offset: 0
    offset: 0
  }
}
layer {
  name: "Input2"
  type: "Input"
  top: "Input2"
  include {
    phase: TRAIN
  }
  input_param {
    shape {
      dim: 64
      dim: 3
      dim: 64
      dim: 64
    }
  }
}
layer {
  name: "c12"
  type: "Crop"
  bottom: "i1"
  bottom: "Input2"
  top: "c12"
  crop_param {
    axis: 2
    offset: 0
    offset: 32
  }
}
layer {
  name: "Input3"
  type: "Input"
  top: "Input3"
  include {
    phase: TRAIN
  }
  input_param {
    shape {
      dim: 64
      dim: 3
      dim: 64
      dim: 64
    }
  }
}
layer {
  name: "c13"
  type: "Crop"
  bottom: "i1"
  bottom: "Input3"
  top: "c13"
  crop_param {
    axis: 2
    offset: 0
    offset: 64
  }
}
layer {
  name: "Input4"
  type: "Input"
  top: "Input4"
  include {
    phase: TRAIN
  }
  input_param {
    shape {
      dim: 64
      dim: 3
      dim: 64
      dim: 64
    }
  }
}
layer {
  name: "c14"
  type: "Crop"
  bottom: "i1"
  bottom: "Input4"
  top: "c14"
  crop_param {
    axis: 2
    offset: 32
    offset: 0
  }
}
layer {
  name: "Input5"
  type: "Input"
  top: "Input5"
  include {
    phase: TRAIN
  }
  input_param {
    shape {
      dim: 64
      dim: 3
      dim: 64
      dim: 64
    }
  }
}
layer {
  name: "c15"
  type: "Crop"
  bottom: "i1"
  bottom: "Input5"
  top: "c15"
  crop_param {
    axis: 2
    offset: 32
    offset: 32
  }
}
layer {
  name: "Input6"
  type: "Input"
  top: "Input6"
  include {
    phase: TRAIN
  }
  input_param {
    shape {
      dim: 64
      dim: 3
      dim: 64
      dim: 64
    }
  }
}
layer {
  name: "c16"
  type: "Crop"
  bottom: "i1"
  bottom: "Input6"
  top: "c16"
  crop_param {
    axis: 2
    offset: 32
    offset: 64
  }
}
layer {
  name: "Input7"
  type: "Input"
  top: "Input7"
  include {
    phase: TRAIN
  }
  input_param {
    shape {
      dim: 64
      dim: 3
      dim: 64
      dim: 64
    }
  }
}
layer {
  name: "c17"
  type: "Crop"
  bottom: "i1"
  bottom: "Input7"
  top: "c17"
  crop_param {
    axis: 2
    offset: 64
    offset: 0
  }
}
layer {
  name: "Input8"
  type: "Input"
  top: "Input8"
  include {
    phase: TRAIN
  }
  input_param {
    shape {
      dim: 64
      dim: 3
      dim: 64
      dim: 64
    }
  }
}
layer {
  name: "c18"
  type: "Crop"
  bottom: "i1"
  bottom: "Input8"
  top: "c18"
  crop_param {
    axis: 2
    offset: 64
    offset: 32
  }
}
layer {
  name: "Input9"
  type: "Input"
  top: "Input9"
  include {
    phase: TRAIN
  }
  input_param {
    shape {
      dim: 64
      dim: 3
      dim: 64
      dim: 64
    }
  }
}
layer {
  name: "c19"
  type: "Crop"
  bottom: "i1"
  bottom: "Input9"
  top: "c19"
  crop_param {
    axis: 2
    offset: 64
    offset: 64
  }
}
layer {
  name: "Input10"
  type: "Input"
  top: "Input10"
  include {
    phase: TRAIN
  }
  input_param {
    shape {
      dim: 64
      dim: 3
      dim: 64
      dim: 64
    }
  }
}
layer {
  name: "c21"
  type: "Crop"
  bottom: "i2"
  bottom: "Input10"
  top: "c21"
  crop_param {
    axis: 2
    offset: 0
    offset: 0
  }
}
layer {
  name: "Input11"
  type: "Input"
  top: "Input11"
  include {
    phase: TRAIN
  }
  input_param {
    shape {
      dim: 64
      dim: 3
      dim: 64
      dim: 64
    }
  }
}
layer {
  name: "c22"
  type: "Crop"
  bottom: "i2"
  bottom: "Input11"
  top: "c22"
  crop_param {
    axis: 2
    offset: 0
    offset: 32
  }
}
layer {
  name: "Input12"
  type: "Input"
  top: "Input12"
  include {
    phase: TRAIN
  }
  input_param {
    shape {
      dim: 64
      dim: 3
      dim: 64
      dim: 64
    }
  }
}
layer {
  name: "c23"
  type: "Crop"
  bottom: "i2"
  bottom: "Input12"
  top: "c23"
  crop_param {
    axis: 2
    offset: 0
    offset: 64
  }
}
layer {
  name: "Input13"
  type: "Input"
  top: "Input13"
  include {
    phase: TRAIN
  }
  input_param {
    shape {
      dim: 64
      dim: 3
      dim: 64
      dim: 64
    }
  }
}
layer {
  name: "c24"
  type: "Crop"
  bottom: "i2"
  bottom: "Input13"
  top: "c24"
  crop_param {
    axis: 2
    offset: 32
    offset: 0
  }
}
layer {
  name: "Input14"
  type: "Input"
  top: "Input14"
  include {
    phase: TRAIN
  }
  input_param {
    shape {
      dim: 64
      dim: 3
      dim: 64
      dim: 64
    }
  }
}
layer {
  name: "c25"
  type: "Crop"
  bottom: "i2"
  bottom: "Input14"
  top: "c25"
  crop_param {
    axis: 2
    offset: 32
    offset: 32
  }
}
layer {
  name: "Input15"
  type: "Input"
  top: "Input15"
  include {
    phase: TRAIN
  }
  input_param {
    shape {
      dim: 64
      dim: 3
      dim: 64
      dim: 64
    }
  }
}
layer {
  name: "c26"
  type: "Crop"
  bottom: "i2"
  bottom: "Input15"
  top: "c26"
  crop_param {
    axis: 2
    offset: 32
    offset: 64
  }
}
layer {
  name: "Input16"
  type: "Input"
  top: "Input16"
  include {
    phase: TRAIN
  }
  input_param {
    shape {
      dim: 64
      dim: 3
      dim: 64
      dim: 64
    }
  }
}
layer {
  name: "c27"
  type: "Crop"
  bottom: "i2"
  bottom: "Input16"
  top: "c27"
  crop_param {
    axis: 2
    offset: 64
    offset: 0
  }
}
layer {
  name: "Input17"
  type: "Input"
  top: "Input17"
  include {
    phase: TRAIN
  }
  input_param {
    shape {
      dim: 64
      dim: 3
      dim: 64
      dim: 64
    }
  }
}
layer {
  name: "c28"
  type: "Crop"
  bottom: "i2"
  bottom: "Input17"
  top: "c28"
  crop_param {
    axis: 2
    offset: 64
    offset: 32
  }
}
layer {
  name: "Input18"
  type: "Input"
  top: "Input18"
  include {
    phase: TRAIN
  }
  input_param {
    shape {
      dim: 64
      dim: 3
      dim: 64
      dim: 64
    }
  }
}
layer {
  name: "c29"
  type: "Crop"
  bottom: "i2"
  bottom: "Input18"
  top: "c29"
  crop_param {
    axis: 2
    offset: 64
    offset: 64
  }
}
layer {
  name: "Convolution1"
  type: "Convolution"
  bottom: "p1"
  top: "Convolution1"
  param {
    name: "conv1_w"
    lr_mult: 1
  }
  param {
    name: "conv1_b"
    lr_mult: 2
  }
  convolution_param {
    num_output: 20
    kernel_size: 5
    stride: 1
    weight_filler {
      type: "xavier"
    }
    bias_filler {
      type: "constant"
    }
  }
}
layer {
  name: "Pooling1"
  type: "Pooling"
  bottom: "Convolution1"
  top: "Pooling1"
  pooling_param {
    pool: MAX
    kernel_size: 2
    stride: 2
  }
}
layer {
  name: "Convolution2"
  type: "Convolution"
  bottom: "Pooling1"
  top: "Convolution2"
  param {
    name: "conv2_w"
    lr_mult: 1
  }
  param {
    name: "conv2_b"
    lr_mult: 2
  }
  convolution_param {
    num_output: 50
    kernel_size: 5
    stride: 1
    weight_filler {
      type: "xavier"
    }
    bias_filler {
      type: "constant"
    }
  }
}
layer {
  name: "Pooling2"
  type: "Pooling"
  bottom: "Convolution2"
  top: "Pooling2"
  pooling_param {
    pool: MAX
    kernel_size: 2
    stride: 2
  }
}
layer {
  name: "Convolution3"
  type: "Convolution"
  bottom: "Pooling2"
  top: "Convolution3"
  param {
    name: "conv3_w"
    lr_mult: 1
  }
  param {
    name: "conv3_b"
    lr_mult: 2
  }
  convolution_param {
    num_output: 50
    kernel_size: 5
    stride: 1
    weight_filler {
      type: "xavier"
    }
    bias_filler {
      type: "constant"
    }
  }
}
layer {
  name: "Pooling3"
  type: "Pooling"
  bottom: "Convolution3"
  top: "Pooling3"
  pooling_param {
    pool: MAX
    kernel_size: 2
    stride: 2
  }
}
layer {
  name: "InnerProduct1"
  type: "InnerProduct"
  bottom: "Pooling3"
  top: "InnerProduct1"
  param {
    name: "ip1_w"
    lr_mult: 1
  }
  param {
    name: "ip1_b"
    lr_mult: 2
  }
  inner_product_param {
    num_output: 100
    weight_filler {
      type: "xavier"
    }
    bias_filler {
      type: "constant"
    }
  }
}
layer {
  name: "ReLU1"
  type: "ReLU"
  bottom: "InnerProduct1"
  top: "InnerProduct1"
}
layer {
  name: "InnerProduct2"
  type: "InnerProduct"
  bottom: "InnerProduct1"
  top: "InnerProduct2"
  param {
    name: "ip2_w"
    lr_mult: 1
  }
  param {
    name: "ip2_b"
    lr_mult: 2
  }
  inner_product_param {
    num_output: 50
    weight_filler {
      type: "xavier"
    }
    bias_filler {
      type: "constant"
    }
  }
}
layer {
  name: "Convolution4"
  type: "Convolution"
  bottom: "p2"
  top: "Convolution4"
  param {
    name: "conv1_w"
    lr_mult: 1
  }
  param {
    name: "conv1_b"
    lr_mult: 2
  }
  convolution_param {
    num_output: 20
    kernel_size: 5
    stride: 1
    weight_filler {
      type: "xavier"
    }
    bias_filler {
      type: "constant"
    }
  }
}
layer {
  name: "Pooling4"
  type: "Pooling"
  bottom: "Convolution4"
  top: "Pooling4"
  pooling_param {
    pool: MAX
    kernel_size: 2
    stride: 2
  }
}
layer {
  name: "Convolution5"
  type: "Convolution"
  bottom: "Pooling4"
  top: "Convolution5"
  param {
    name: "conv2_w"
    lr_mult: 1
  }
  param {
    name: "conv2_b"
    lr_mult: 2
  }
  convolution_param {
    num_output: 50
    kernel_size: 5
    stride: 1
    weight_filler {
      type: "xavier"
    }
    bias_filler {
      type: "constant"
    }
  }
}
layer {
  name: "Pooling5"
  type: "Pooling"
  bottom: "Convolution5"
  top: "Pooling5"
  pooling_param {
    pool: MAX
    kernel_size: 2
    stride: 2
  }
}
layer {
  name: "Convolution6"
  type: "Convolution"
  bottom: "Pooling5"
  top: "Convolution6"
  param {
    name: "conv3_w"
    lr_mult: 1
  }
  param {
    name: "conv3_b"
    lr_mult: 2
  }
  convolution_param {
    num_output: 50
    kernel_size: 5
    stride: 1
    weight_filler {
      type: "xavier"
    }
    bias_filler {
      type: "constant"
    }
  }
}
layer {
  name: "Pooling6"
  type: "Pooling"
  bottom: "Convolution6"
  top: "Pooling6"
  pooling_param {
    pool: MAX
    kernel_size: 2
    stride: 2
  }
}
layer {
  name: "InnerProduct3"
  type: "InnerProduct"
  bottom: "Pooling6"
  top: "InnerProduct3"
  param {
    name: "ip1_w"
    lr_mult: 1
  }
  param {
    name: "ip1_b"
    lr_mult: 2
  }
  inner_product_param {
    num_output: 100
    weight_filler {
      type: "xavier"
    }
    bias_filler {
      type: "constant"
    }
  }
}
layer {
  name: "ReLU2"
  type: "ReLU"
  bottom: "InnerProduct3"
  top: "InnerProduct3"
}
layer {
  name: "InnerProduct4"
  type: "InnerProduct"
  bottom: "InnerProduct3"
  top: "InnerProduct4"
  param {
    name: "ip2_w"
    lr_mult: 1
  }
  param {
    name: "ip2_b"
    lr_mult: 2
  }
  inner_product_param {
    num_output: 50
    weight_filler {
      type: "xavier"
    }
    bias_filler {
      type: "constant"
    }
  }
}
layer {
  name: "Concat1"
  type: "Concat"
  bottom: "InnerProduct2"
  bottom: "InnerProduct4"
  top: "Concat1"
  concat_param {
    axis: 1
  }
}
layer {
  name: "InnerProduct5"
  type: "InnerProduct"
  bottom: "Concat1"
  top: "InnerProduct5"
  param {
    name: "fc1_w"
    lr_mult: 1
  }
  param {
    name: "fc1_b"
    lr_mult: 2
  }
  inner_product_param {
    num_output: 64
    weight_filler {
      type: "xavier"
    }
    bias_filler {
      type: "constant"
    }
  }
}
layer {
  name: "ReLU3"
  type: "ReLU"
  bottom: "InnerProduct5"
  top: "InnerProduct5"
}
layer {
  name: "drop1"
  type: "Dropout"
  bottom: "InnerProduct5"
  top: "Dropout1"
  dropout_param {
    dropout_ratio: 0.5
  }
}
layer {
  name: "InnerProduct6"
  type: "InnerProduct"
  bottom: "Dropout1"
  top: "InnerProduct6"
  param {
    name: "fc2_w"
    lr_mult: 1
  }
  param {
    name: "fc2_b"
    lr_mult: 2
  }
  inner_product_param {
    num_output: 32
    weight_filler {
      type: "xavier"
    }
    bias_filler {
      type: "constant"
    }
  }
}
layer {
  name: "ReLU4"
  type: "ReLU"
  bottom: "InnerProduct6"
  top: "InnerProduct6"
}
layer {
  name: "drop2"
  type: "Dropout"
  bottom: "InnerProduct6"
  top: "Dropout2"
  dropout_param {
    dropout_ratio: 0.5
  }
}
layer {
  name: "dt0"
  type: "InnerProduct"
  bottom: "Dropout2"
  top: "dt0"
  param {
    name: "fc3_w"
    lr_mult: 1
  }
  param {
    name: "fc3_b"
    lr_mult: 2
  }
  inner_product_param {
    num_output: 1
    weight_filler {
      type: "xavier"
    }
    bias_filler {
      type: "constant"
    }
  }
}
layer {
  name: "Convolution7"
  type: "Convolution"
  bottom: "p1"
  top: "Convolution7"
  param {
    name: "conv1_w"
    lr_mult: 1
  }
  param {
    name: "conv1_b"
    lr_mult: 2
  }
  convolution_param {
    num_output: 20
    kernel_size: 5
    stride: 1
    weight_filler {
      type: "xavier"
    }
    bias_filler {
      type: "constant"
    }
  }
}
layer {
  name: "Pooling7"
  type: "Pooling"
  bottom: "Convolution7"
  top: "Pooling7"
  pooling_param {
    pool: MAX
    kernel_size: 2
    stride: 2
  }
}
layer {
  name: "Convolution8"
  type: "Convolution"
  bottom: "Pooling7"
  top: "Convolution8"
  param {
    name: "conv2_w"
    lr_mult: 1
  }
  param {
    name: "conv2_b"
    lr_mult: 2
  }
  convolution_param {
    num_output: 50
    kernel_size: 5
    stride: 1
    weight_filler {
      type: "xavier"
    }
    bias_filler {
      type: "constant"
    }
  }
}
layer {
  name: "Pooling8"
  type: "Pooling"
  bottom: "Convolution8"
  top: "Pooling8"
  pooling_param {
    pool: MAX
    kernel_size: 2
    stride: 2
  }
}
layer {
  name: "Convolution9"
  type: "Convolution"
  bottom: "Pooling8"
  top: "Convolution9"
  param {
    name: "conv3_w"
    lr_mult: 1
  }
  param {
    name: "conv3_b"
    lr_mult: 2
  }
  convolution_param {
    num_output: 50
    kernel_size: 5
    stride: 1
    weight_filler {
      type: "xavier"
    }
    bias_filler {
      type: "constant"
    }
  }
}
layer {
  name: "Pooling9"
  type: "Pooling"
  bottom: "Convolution9"
  top: "Pooling9"
  pooling_param {
    pool: MAX
    kernel_size: 2
    stride: 2
  }
}
layer {
  name: "InnerProduct7"
  type: "InnerProduct"
  bottom: "Pooling9"
  top: "InnerProduct7"
  param {
    name: "ip1_w"
    lr_mult: 1
  }
  param {
    name: "ip1_b"
    lr_mult: 2
  }
  inner_product_param {
    num_output: 100
    weight_filler {
      type: "xavier"
    }
    bias_filler {
      type: "constant"
    }
  }
}
layer {
  name: "ReLU5"
  type: "ReLU"
  bottom: "InnerProduct7"
  top: "InnerProduct7"
}
layer {
  name: "InnerProduct8"
  type: "InnerProduct"
  bottom: "InnerProduct7"
  top: "InnerProduct8"
  param {
    name: "ip2_w"
    lr_mult: 1
  }
  param {
    name: "ip2_b"
    lr_mult: 2
  }
  inner_product_param {
    num_output: 50
    weight_filler {
      type: "xavier"
    }
    bias_filler {
      type: "constant"
    }
  }
}
layer {
  name: "Convolution10"
  type: "Convolution"
  bottom: "c21"
  top: "Convolution10"
  param {
    name: "conv1_w"
    lr_mult: 1
  }
  param {
    name: "conv1_b"
    lr_mult: 2
  }
  convolution_param {
    num_output: 20
    kernel_size: 5
    stride: 1
    weight_filler {
      type: "xavier"
    }
    bias_filler {
      type: "constant"
    }
  }
}
layer {
  name: "Pooling10"
  type: "Pooling"
  bottom: "Convolution10"
  top: "Pooling10"
  pooling_param {
    pool: MAX
    kernel_size: 2
    stride: 2
  }
}
layer {
  name: "Convolution11"
  type: "Convolution"
  bottom: "Pooling10"
  top: "Convolution11"
  param {
    name: "conv2_w"
    lr_mult: 1
  }
  param {
    name: "conv2_b"
    lr_mult: 2
  }
  convolution_param {
    num_output: 50
    kernel_size: 5
    stride: 1
    weight_filler {
      type: "xavier"
    }
    bias_filler {
      type: "constant"
    }
  }
}
layer {
  name: "Pooling11"
  type: "Pooling"
  bottom: "Convolution11"
  top: "Pooling11"
  pooling_param {
    pool: MAX
    kernel_size: 2
    stride: 2
  }
}
layer {
  name: "Convolution12"
  type: "Convolution"
  bottom: "Pooling11"
  top: "Convolution12"
  param {
    name: "conv3_w"
    lr_mult: 1
  }
  param {
    name: "conv3_b"
    lr_mult: 2
  }
  convolution_param {
    num_output: 50
    kernel_size: 5
    stride: 1
    weight_filler {
      type: "xavier"
    }
    bias_filler {
      type: "constant"
    }
  }
}
layer {
  name: "Pooling12"
  type: "Pooling"
  bottom: "Convolution12"
  top: "Pooling12"
  pooling_param {
    pool: MAX
    kernel_size: 2
    stride: 2
  }
}
layer {
  name: "InnerProduct9"
  type: "InnerProduct"
  bottom: "Pooling12"
  top: "InnerProduct9"
  param {
    name: "ip1_w"
    lr_mult: 1
  }
  param {
    name: "ip1_b"
    lr_mult: 2
  }
  inner_product_param {
    num_output: 100
    weight_filler {
      type: "xavier"
    }
    bias_filler {
      type: "constant"
    }
  }
}
layer {
  name: "ReLU6"
  type: "ReLU"
  bottom: "InnerProduct9"
  top: "InnerProduct9"
}
layer {
  name: "InnerProduct10"
  type: "InnerProduct"
  bottom: "InnerProduct9"
  top: "InnerProduct10"
  param {
    name: "ip2_w"
    lr_mult: 1
  }
  param {
    name: "ip2_b"
    lr_mult: 2
  }
  inner_product_param {
    num_output: 50
    weight_filler {
      type: "xavier"
    }
    bias_filler {
      type: "constant"
    }
  }
}
layer {
  name: "Concat2"
  type: "Concat"
  bottom: "InnerProduct8"
  bottom: "InnerProduct10"
  top: "Concat2"
  concat_param {
    axis: 1
  }
}
layer {
  name: "InnerProduct11"
  type: "InnerProduct"
  bottom: "Concat2"
  top: "InnerProduct11"
  param {
    name: "fc1_w"
    lr_mult: 1
  }
  param {
    name: "fc1_b"
    lr_mult: 2
  }
  inner_product_param {
    num_output: 64
    weight_filler {
      type: "xavier"
    }
    bias_filler {
      type: "constant"
    }
  }
}
layer {
  name: "ReLU7"
  type: "ReLU"
  bottom: "InnerProduct11"
  top: "InnerProduct11"
}
layer {
  name: "drop1"
  type: "Dropout"
  bottom: "InnerProduct11"
  top: "Dropout3"
  dropout_param {
    dropout_ratio: 0.5
  }
}
layer {
  name: "InnerProduct12"
  type: "InnerProduct"
  bottom: "Dropout3"
  top: "InnerProduct12"
  param {
    name: "fc2_w"
    lr_mult: 1
  }
  param {
    name: "fc2_b"
    lr_mult: 2
  }
  inner_product_param {
    num_output: 32
    weight_filler {
      type: "xavier"
    }
    bias_filler {
      type: "constant"
    }
  }
}
layer {
  name: "ReLU8"
  type: "ReLU"
  bottom: "InnerProduct12"
  top: "InnerProduct12"
}
layer {
  name: "drop2"
  type: "Dropout"
  bottom: "InnerProduct12"
  top: "Dropout4"
  dropout_param {
    dropout_ratio: 0.5
  }
}
layer {
  name: "dt1"
  type: "InnerProduct"
  bottom: "Dropout4"
  top: "dt1"
  param {
    name: "fc3_w"
    lr_mult: 1
  }
  param {
    name: "fc3_b"
    lr_mult: 2
  }
  inner_product_param {
    num_output: 1
    weight_filler {
      type: "xavier"
    }
    bias_filler {
      type: "constant"
    }
  }
}
layer {
  name: "Convolution13"
  type: "Convolution"
  bottom: "p1"
  top: "Convolution13"
  param {
    name: "conv1_w"
    lr_mult: 1
  }
  param {
    name: "conv1_b"
    lr_mult: 2
  }
  convolution_param {
    num_output: 20
    kernel_size: 5
    stride: 1
    weight_filler {
      type: "xavier"
    }
    bias_filler {
      type: "constant"
    }
  }
}
layer {
  name: "Pooling13"
  type: "Pooling"
  bottom: "Convolution13"
  top: "Pooling13"
  pooling_param {
    pool: MAX
    kernel_size: 2
    stride: 2
  }
}
layer {
  name: "Convolution14"
  type: "Convolution"
  bottom: "Pooling13"
  top: "Convolution14"
  param {
    name: "conv2_w"
    lr_mult: 1
  }
  param {
    name: "conv2_b"
    lr_mult: 2
  }
  convolution_param {
    num_output: 50
    kernel_size: 5
    stride: 1
    weight_filler {
      type: "xavier"
    }
    bias_filler {
      type: "constant"
    }
  }
}
layer {
  name: "Pooling14"
  type: "Pooling"
  bottom: "Convolution14"
  top: "Pooling14"
  pooling_param {
    pool: MAX
    kernel_size: 2
    stride: 2
  }
}
layer {
  name: "Convolution15"
  type: "Convolution"
  bottom: "Pooling14"
  top: "Convolution15"
  param {
    name: "conv3_w"
    lr_mult: 1
  }
  param {
    name: "conv3_b"
    lr_mult: 2
  }
  convolution_param {
    num_output: 50
    kernel_size: 5
    stride: 1
    weight_filler {
      type: "xavier"
    }
    bias_filler {
      type: "constant"
    }
  }
}
layer {
  name: "Pooling15"
  type: "Pooling"
  bottom: "Convolution15"
  top: "Pooling15"
  pooling_param {
    pool: MAX
    kernel_size: 2
    stride: 2
  }
}
layer {
  name: "InnerProduct13"
  type: "InnerProduct"
  bottom: "Pooling15"
  top: "InnerProduct13"
  param {
    name: "ip1_w"
    lr_mult: 1
  }
  param {
    name: "ip1_b"
    lr_mult: 2
  }
  inner_product_param {
    num_output: 100
    weight_filler {
      type: "xavier"
    }
    bias_filler {
      type: "constant"
    }
  }
}
layer {
  name: "ReLU9"
  type: "ReLU"
  bottom: "InnerProduct13"
  top: "InnerProduct13"
}
layer {
  name: "InnerProduct14"
  type: "InnerProduct"
  bottom: "InnerProduct13"
  top: "InnerProduct14"
  param {
    name: "ip2_w"
    lr_mult: 1
  }
  param {
    name: "ip2_b"
    lr_mult: 2
  }
  inner_product_param {
    num_output: 50
    weight_filler {
      type: "xavier"
    }
    bias_filler {
      type: "constant"
    }
  }
}
layer {
  name: "Convolution16"
  type: "Convolution"
  bottom: "c22"
  top: "Convolution16"
  param {
    name: "conv1_w"
    lr_mult: 1
  }
  param {
    name: "conv1_b"
    lr_mult: 2
  }
  convolution_param {
    num_output: 20
    kernel_size: 5
    stride: 1
    weight_filler {
      type: "xavier"
    }
    bias_filler {
      type: "constant"
    }
  }
}
layer {
  name: "Pooling16"
  type: "Pooling"
  bottom: "Convolution16"
  top: "Pooling16"
  pooling_param {
    pool: MAX
    kernel_size: 2
    stride: 2
  }
}
layer {
  name: "Convolution17"
  type: "Convolution"
  bottom: "Pooling16"
  top: "Convolution17"
  param {
    name: "conv2_w"
    lr_mult: 1
  }
  param {
    name: "conv2_b"
    lr_mult: 2
  }
  convolution_param {
    num_output: 50
    kernel_size: 5
    stride: 1
    weight_filler {
      type: "xavier"
    }
    bias_filler {
      type: "constant"
    }
  }
}
layer {
  name: "Pooling17"
  type: "Pooling"
  bottom: "Convolution17"
  top: "Pooling17"
  pooling_param {
    pool: MAX
    kernel_size: 2
    stride: 2
  }
}
layer {
  name: "Convolution18"
  type: "Convolution"
  bottom: "Pooling17"
  top: "Convolution18"
  param {
    name: "conv3_w"
    lr_mult: 1
  }
  param {
    name: "conv3_b"
    lr_mult: 2
  }
  convolution_param {
    num_output: 50
    kernel_size: 5
    stride: 1
    weight_filler {
      type: "xavier"
    }
    bias_filler {
      type: "constant"
    }
  }
}
layer {
  name: "Pooling18"
  type: "Pooling"
  bottom: "Convolution18"
  top: "Pooling18"
  pooling_param {
    pool: MAX
    kernel_size: 2
    stride: 2
  }
}
layer {
  name: "InnerProduct15"
  type: "InnerProduct"
  bottom: "Pooling18"
  top: "InnerProduct15"
  param {
    name: "ip1_w"
    lr_mult: 1
  }
  param {
    name: "ip1_b"
    lr_mult: 2
  }
  inner_product_param {
    num_output: 100
    weight_filler {
      type: "xavier"
    }
    bias_filler {
      type: "constant"
    }
  }
}
layer {
  name: "ReLU10"
  type: "ReLU"
  bottom: "InnerProduct15"
  top: "InnerProduct15"
}
layer {
  name: "InnerProduct16"
  type: "InnerProduct"
  bottom: "InnerProduct15"
  top: "InnerProduct16"
  param {
    name: "ip2_w"
    lr_mult: 1
  }
  param {
    name: "ip2_b"
    lr_mult: 2
  }
  inner_product_param {
    num_output: 50
    weight_filler {
      type: "xavier"
    }
    bias_filler {
      type: "constant"
    }
  }
}
layer {
  name: "Concat3"
  type: "Concat"
  bottom: "InnerProduct14"
  bottom: "InnerProduct16"
  top: "Concat3"
  concat_param {
    axis: 1
  }
}
layer {
  name: "InnerProduct17"
  type: "InnerProduct"
  bottom: "Concat3"
  top: "InnerProduct17"
  param {
    name: "fc1_w"
    lr_mult: 1
  }
  param {
    name: "fc1_b"
    lr_mult: 2
  }
  inner_product_param {
    num_output: 64
    weight_filler {
      type: "xavier"
    }
    bias_filler {
      type: "constant"
    }
  }
}
layer {
  name: "ReLU11"
  type: "ReLU"
  bottom: "InnerProduct17"
  top: "InnerProduct17"
}
layer {
  name: "drop1"
  type: "Dropout"
  bottom: "InnerProduct17"
  top: "Dropout5"
  dropout_param {
    dropout_ratio: 0.5
  }
}
layer {
  name: "InnerProduct18"
  type: "InnerProduct"
  bottom: "Dropout5"
  top: "InnerProduct18"
  param {
    name: "fc2_w"
    lr_mult: 1
  }
  param {
    name: "fc2_b"
    lr_mult: 2
  }
  inner_product_param {
    num_output: 32
    weight_filler {
      type: "xavier"
    }
    bias_filler {
      type: "constant"
    }
  }
}
layer {
  name: "ReLU12"
  type: "ReLU"
  bottom: "InnerProduct18"
  top: "InnerProduct18"
}
layer {
  name: "drop2"
  type: "Dropout"
  bottom: "InnerProduct18"
  top: "Dropout6"
  dropout_param {
    dropout_ratio: 0.5
  }
}
layer {
  name: "dt2"
  type: "InnerProduct"
  bottom: "Dropout6"
  top: "dt2"
  param {
    name: "fc3_w"
    lr_mult: 1
  }
  param {
    name: "fc3_b"
    lr_mult: 2
  }
  inner_product_param {
    num_output: 1
    weight_filler {
      type: "xavier"
    }
    bias_filler {
      type: "constant"
    }
  }
}
layer {
  name: "Convolution19"
  type: "Convolution"
  bottom: "p1"
  top: "Convolution19"
  param {
    name: "conv1_w"
    lr_mult: 1
  }
  param {
    name: "conv1_b"
    lr_mult: 2
  }
  convolution_param {
    num_output: 20
    kernel_size: 5
    stride: 1
    weight_filler {
      type: "xavier"
    }
    bias_filler {
      type: "constant"
    }
  }
}
layer {
  name: "Pooling19"
  type: "Pooling"
  bottom: "Convolution19"
  top: "Pooling19"
  pooling_param {
    pool: MAX
    kernel_size: 2
    stride: 2
  }
}
layer {
  name: "Convolution20"
  type: "Convolution"
  bottom: "Pooling19"
  top: "Convolution20"
  param {
    name: "conv2_w"
    lr_mult: 1
  }
  param {
    name: "conv2_b"
    lr_mult: 2
  }
  convolution_param {
    num_output: 50
    kernel_size: 5
    stride: 1
    weight_filler {
      type: "xavier"
    }
    bias_filler {
      type: "constant"
    }
  }
}
layer {
  name: "Pooling20"
  type: "Pooling"
  bottom: "Convolution20"
  top: "Pooling20"
  pooling_param {
    pool: MAX
    kernel_size: 2
    stride: 2
  }
}
layer {
  name: "Convolution21"
  type: "Convolution"
  bottom: "Pooling20"
  top: "Convolution21"
  param {
    name: "conv3_w"
    lr_mult: 1
  }
  param {
    name: "conv3_b"
    lr_mult: 2
  }
  convolution_param {
    num_output: 50
    kernel_size: 5
    stride: 1
    weight_filler {
      type: "xavier"
    }
    bias_filler {
      type: "constant"
    }
  }
}
layer {
  name: "Pooling21"
  type: "Pooling"
  bottom: "Convolution21"
  top: "Pooling21"
  pooling_param {
    pool: MAX
    kernel_size: 2
    stride: 2
  }
}
layer {
  name: "InnerProduct19"
  type: "InnerProduct"
  bottom: "Pooling21"
  top: "InnerProduct19"
  param {
    name: "ip1_w"
    lr_mult: 1
  }
  param {
    name: "ip1_b"
    lr_mult: 2
  }
  inner_product_param {
    num_output: 100
    weight_filler {
      type: "xavier"
    }
    bias_filler {
      type: "constant"
    }
  }
}
layer {
  name: "ReLU13"
  type: "ReLU"
  bottom: "InnerProduct19"
  top: "InnerProduct19"
}
layer {
  name: "InnerProduct20"
  type: "InnerProduct"
  bottom: "InnerProduct19"
  top: "InnerProduct20"
  param {
    name: "ip2_w"
    lr_mult: 1
  }
  param {
    name: "ip2_b"
    lr_mult: 2
  }
  inner_product_param {
    num_output: 50
    weight_filler {
      type: "xavier"
    }
    bias_filler {
      type: "constant"
    }
  }
}
layer {
  name: "Convolution22"
  type: "Convolution"
  bottom: "c23"
  top: "Convolution22"
  param {
    name: "conv1_w"
    lr_mult: 1
  }
  param {
    name: "conv1_b"
    lr_mult: 2
  }
  convolution_param {
    num_output: 20
    kernel_size: 5
    stride: 1
    weight_filler {
      type: "xavier"
    }
    bias_filler {
      type: "constant"
    }
  }
}
layer {
  name: "Pooling22"
  type: "Pooling"
  bottom: "Convolution22"
  top: "Pooling22"
  pooling_param {
    pool: MAX
    kernel_size: 2
    stride: 2
  }
}
layer {
  name: "Convolution23"
  type: "Convolution"
  bottom: "Pooling22"
  top: "Convolution23"
  param {
    name: "conv2_w"
    lr_mult: 1
  }
  param {
    name: "conv2_b"
    lr_mult: 2
  }
  convolution_param {
    num_output: 50
    kernel_size: 5
    stride: 1
    weight_filler {
      type: "xavier"
    }
    bias_filler {
      type: "constant"
    }
  }
}
layer {
  name: "Pooling23"
  type: "Pooling"
  bottom: "Convolution23"
  top: "Pooling23"
  pooling_param {
    pool: MAX
    kernel_size: 2
    stride: 2
  }
}
layer {
  name: "Convolution24"
  type: "Convolution"
  bottom: "Pooling23"
  top: "Convolution24"
  param {
    name: "conv3_w"
    lr_mult: 1
  }
  param {
    name: "conv3_b"
    lr_mult: 2
  }
  convolution_param {
    num_output: 50
    kernel_size: 5
    stride: 1
    weight_filler {
      type: "xavier"
    }
    bias_filler {
      type: "constant"
    }
  }
}
layer {
  name: "Pooling24"
  type: "Pooling"
  bottom: "Convolution24"
  top: "Pooling24"
  pooling_param {
    pool: MAX
    kernel_size: 2
    stride: 2
  }
}
layer {
  name: "InnerProduct21"
  type: "InnerProduct"
  bottom: "Pooling24"
  top: "InnerProduct21"
  param {
    name: "ip1_w"
    lr_mult: 1
  }
  param {
    name: "ip1_b"
    lr_mult: 2
I0808 13:44:08.375856 20451 layer_factory.hpp:77] Creating layer data
I0808 13:44:08.376302 20451 net.cpp:91] Creating Layer data
I0808 13:44:08.376313 20451 net.cpp:399] data -> data
I0808 13:44:08.376344 20451 net.cpp:399] data -> label
I0808 13:44:08.376368 20451 data_transformer.cpp:25] Loading mean file from: examples/scene/scene_mean.binaryproto
I0808 13:44:08.377996 20457 db_lmdb.cpp:35] Opened lmdb examples/scene/train11_pairs_300000_pad.lmdb
I0808 13:44:08.398247 20451 data_layer.cpp:41] output data size: 64,6,128,128
I0808 13:44:08.462949 20451 net.cpp:141] Setting up data
I0808 13:44:08.462983 20451 net.cpp:148] Top shape: 64 6 128 128 (6291456)
I0808 13:44:08.463004 20451 net.cpp:148] Top shape: 64 (64)
I0808 13:44:08.463011 20451 net.cpp:156] Memory required for data: 25166080
I0808 13:44:08.463027 20451 layer_factory.hpp:77] Creating layer label_data_1_split
I0808 13:44:08.463064 20451 net.cpp:91] Creating Layer label_data_1_split
I0808 13:44:08.463078 20451 net.cpp:425] label_data_1_split <- label
I0808 13:44:08.463093 20451 net.cpp:399] label_data_1_split -> label_data_1_split_0
I0808 13:44:08.463114 20451 net.cpp:399] label_data_1_split -> label_data_1_split_1
I0808 13:44:08.463294 20451 net.cpp:141] Setting up label_data_1_split
I0808 13:44:08.463309 20451 net.cpp:148] Top shape: 64 (64)
I0808 13:44:08.463317 20451 net.cpp:148] Top shape: 64 (64)
I0808 13:44:08.463325 20451 net.cpp:156] Memory required for data: 25166592
I0808 13:44:08.463332 20451 layer_factory.hpp:77] Creating layer th
I0808 13:44:08.463349 20451 net.cpp:91] Creating Layer th
I0808 13:44:08.463357 20451 net.cpp:425] th <- label_data_1_split_0
I0808 13:44:08.463367 20451 net.cpp:399] th -> th
I0808 13:44:08.463409 20451 net.cpp:141] Setting up th
I0808 13:44:08.463424 20451 net.cpp:148] Top shape: 64 (64)
I0808 13:44:08.463431 20451 net.cpp:156] Memory required for data: 25166848
I0808 13:44:08.463439 20451 layer_factory.hpp:77] Creating layer th_th_0_split
I0808 13:44:08.463449 20451 net.cpp:91] Creating Layer th_th_0_split
I0808 13:44:08.463457 20451 net.cpp:425] th_th_0_split <- th
I0808 13:44:08.463469 20451 net.cpp:399] th_th_0_split -> th_th_0_split_0
I0808 13:44:08.463501 20451 net.cpp:399] th_th_0_split -> th_th_0_split_1
I0808 13:44:08.463554 20451 net.cpp:141] Setting up th_th_0_split
I0808 13:44:08.463569 20451 net.cpp:148] Top shape: 64 (64)
I0808 13:44:08.463582 20451 net.cpp:148] Top shape: 64 (64)
I0808 13:44:08.463588 20451 net.cpp:156] Memory required for data: 25167360
I0808 13:44:08.463594 20451 layer_factory.hpp:77] Creating layer i1
I0808 13:44:08.463613 20451 net.cpp:91] Creating Layer i1
I0808 13:44:08.463619 20451 net.cpp:425] i1 <- data
I0808 13:44:08.463630 20451 net.cpp:399] i1 -> i1
I0808 13:44:08.463646 20451 net.cpp:399] i1 -> i2
I0808 13:44:08.463702 20451 net.cpp:141] Setting up i1
I0808 13:44:08.463714 20451 net.cpp:148] Top shape: 64 3 128 128 (3145728)
I0808 13:44:08.463724 20451 net.cpp:148] Top shape: 64 3 128 128 (3145728)
I0808 13:44:08.463731 20451 net.cpp:156] Memory required for data: 50333184
I0808 13:44:08.463737 20451 layer_factory.hpp:77] Creating layer i1_i1_0_split
I0808 13:44:08.463748 20451 net.cpp:91] Creating Layer i1_i1_0_split
I0808 13:44:08.463757 20451 net.cpp:425] i1_i1_0_split <- i1
I0808 13:44:08.463769 20451 net.cpp:399] i1_i1_0_split -> i1_i1_0_split_0
I0808 13:44:08.463783 20451 net.cpp:399] i1_i1_0_split -> i1_i1_0_split_1
I0808 13:44:08.463801 20451 net.cpp:399] i1_i1_0_split -> i1_i1_0_split_2
I0808 13:44:08.463821 20451 net.cpp:399] i1_i1_0_split -> i1_i1_0_split_3
I0808 13:44:08.463840 20451 net.cpp:399] i1_i1_0_split -> i1_i1_0_split_4
I0808 13:44:08.463855 20451 net.cpp:399] i1_i1_0_split -> i1_i1_0_split_5
I0808 13:44:08.463868 20451 net.cpp:399] i1_i1_0_split -> i1_i1_0_split_6
I0808 13:44:08.463882 20451 net.cpp:399] i1_i1_0_split -> i1_i1_0_split_7
I0808 13:44:08.463898 20451 net.cpp:399] i1_i1_0_split -> i1_i1_0_split_8
I0808 13:44:08.463917 20451 net.cpp:399] i1_i1_0_split -> i1_i1_0_split_9
I0808 13:44:08.464195 20451 net.cpp:141] Setting up i1_i1_0_split
I0808 13:44:08.464211 20451 net.cpp:148] Top shape: 64 3 128 128 (3145728)
I0808 13:44:08.464221 20451 net.cpp:148] Top shape: 64 3 128 128 (3145728)
I0808 13:44:08.464229 20451 net.cpp:148] Top shape: 64 3 128 128 (3145728)
I0808 13:44:08.464238 20451 net.cpp:148] Top shape: 64 3 128 128 (3145728)
I0808 13:44:08.464247 20451 net.cpp:148] Top shape: 64 3 128 128 (3145728)
I0808 13:44:08.464257 20451 net.cpp:148] Top shape: 64 3 128 128 (3145728)
I0808 13:44:08.464267 20451 net.cpp:148] Top shape: 64 3 128 128 (3145728)
I0808 13:44:08.464277 20451 net.cpp:148] Top shape: 64 3 128 128 (3145728)
I0808 13:44:08.464287 20451 net.cpp:148] Top shape: 64 3 128 128 (3145728)
I0808 13:44:08.464296 20451 net.cpp:148] Top shape: 64 3 128 128 (3145728)
I0808 13:44:08.464303 20451 net.cpp:156] Memory required for data: 176162304
I0808 13:44:08.464310 20451 layer_factory.hpp:77] Creating layer i2_i1_1_split
I0808 13:44:08.464321 20451 net.cpp:91] Creating Layer i2_i1_1_split
I0808 13:44:08.464329 20451 net.cpp:425] i2_i1_1_split <- i2
I0808 13:44:08.464341 20451 net.cpp:399] i2_i1_1_split -> i2_i1_1_split_0
I0808 13:44:08.464356 20451 net.cpp:399] i2_i1_1_split -> i2_i1_1_split_1
I0808 13:44:08.464370 20451 net.cpp:399] i2_i1_1_split -> i2_i1_1_split_2
I0808 13:44:08.464385 20451 net.cpp:399] i2_i1_1_split -> i2_i1_1_split_3
I0808 13:44:08.464401 20451 net.cpp:399] i2_i1_1_split -> i2_i1_1_split_4
I0808 13:44:08.464416 20451 net.cpp:399] i2_i1_1_split -> i2_i1_1_split_5
I0808 13:44:08.464431 20451 net.cpp:399] i2_i1_1_split -> i2_i1_1_split_6
I0808 13:44:08.464445 20451 net.cpp:399] i2_i1_1_split -> i2_i1_1_split_7
I0808 13:44:08.464460 20451 net.cpp:399] i2_i1_1_split -> i2_i1_1_split_8
I0808 13:44:08.464476 20451 net.cpp:399] i2_i1_1_split -> i2_i1_1_split_9
I0808 13:44:08.468286 20451 net.cpp:141] Setting up i2_i1_1_split
I0808 13:44:08.468308 20451 net.cpp:148] Top shape: 64 3 128 128 (3145728)
I0808 13:44:08.468317 20451 net.cpp:148] Top shape: 64 3 128 128 (3145728)
I0808 13:44:08.468327 20451 net.cpp:148] Top shape: 64 3 128 128 (3145728)
I0808 13:44:08.468335 20451 net.cpp:148] Top shape: 64 3 128 128 (3145728)
I0808 13:44:08.468363 20451 net.cpp:148] Top shape: 64 3 128 128 (3145728)
I0808 13:44:08.468370 20451 net.cpp:148] Top shape: 64 3 128 128 (3145728)
I0808 13:44:08.468379 20451 net.cpp:148] Top shape: 64 3 128 128 (3145728)
I0808 13:44:08.468387 20451 net.cpp:148] Top shape: 64 3 128 128 (3145728)
I0808 13:44:08.468395 20451 net.cpp:148] Top shape: 64 3 128 128 (3145728)
I0808 13:44:08.468403 20451 net.cpp:148] Top shape: 64 3 128 128 (3145728)
I0808 13:44:08.468410 20451 net.cpp:156] Memory required for data: 301991424
I0808 13:44:08.468417 20451 layer_factory.hpp:77] Creating layer p1
I0808 13:44:08.468432 20451 net.cpp:91] Creating Layer p1
I0808 13:44:08.468439 20451 net.cpp:425] p1 <- i1_i1_0_split_0
I0808 13:44:08.468451 20451 net.cpp:399] p1 -> p1
I0808 13:44:08.468500 20451 net.cpp:141] Setting up p1
I0808 13:44:08.468511 20451 net.cpp:148] Top shape: 64 3 64 64 (786432)
I0808 13:44:08.468518 20451 net.cpp:156] Memory required for data: 305137152
I0808 13:44:08.468525 20451 layer_factory.hpp:77] Creating layer p1_p1_0_split
I0808 13:44:08.468539 20451 net.cpp:91] Creating Layer p1_p1_0_split
I0808 13:44:08.468546 20451 net.cpp:425] p1_p1_0_split <- p1
I0808 13:44:08.468557 20451 net.cpp:399] p1_p1_0_split -> p1_p1_0_split_0
I0808 13:44:08.468571 20451 net.cpp:399] p1_p1_0_split -> p1_p1_0_split_1
I0808 13:44:08.468585 20451 net.cpp:399] p1_p1_0_split -> p1_p1_0_split_2
I0808 13:44:08.468602 20451 net.cpp:399] p1_p1_0_split -> p1_p1_0_split_3
I0808 13:44:08.468616 20451 net.cpp:399] p1_p1_0_split -> p1_p1_0_split_4
I0808 13:44:08.468628 20451 net.cpp:399] p1_p1_0_split -> p1_p1_0_split_5
I0808 13:44:08.468641 20451 net.cpp:399] p1_p1_0_split -> p1_p1_0_split_6
I0808 13:44:08.468654 20451 net.cpp:399] p1_p1_0_split -> p1_p1_0_split_7
I0808 13:44:08.468667 20451 net.cpp:399] p1_p1_0_split -> p1_p1_0_split_8
I0808 13:44:08.468680 20451 net.cpp:399] p1_p1_0_split -> p1_p1_0_split_9
I0808 13:44:08.468858 20451 net.cpp:141] Setting up p1_p1_0_split
I0808 13:44:08.468871 20451 net.cpp:148] Top shape: 64 3 64 64 (786432)
I0808 13:44:08.468879 20451 net.cpp:148] Top shape: 64 3 64 64 (786432)
I0808 13:44:08.468889 20451 net.cpp:148] Top shape: 64 3 64 64 (786432)
I0808 13:44:08.468897 20451 net.cpp:148] Top shape: 64 3 64 64 (786432)
I0808 13:44:08.468906 20451 net.cpp:148] Top shape: 64 3 64 64 (786432)
I0808 13:44:08.468914 20451 net.cpp:148] Top shape: 64 3 64 64 (786432)
I0808 13:44:08.468924 20451 net.cpp:148] Top shape: 64 3 64 64 (786432)
I0808 13:44:08.468931 20451 net.cpp:148] Top shape: 64 3 64 64 (786432)
I0808 13:44:08.468940 20451 net.cpp:148] Top shape: 64 3 64 64 (786432)
I0808 13:44:08.468948 20451 net.cpp:148] Top shape: 64 3 64 64 (786432)
I0808 13:44:08.468955 20451 net.cpp:156] Memory required for data: 336594432
I0808 13:44:08.468961 20451 layer_factory.hpp:77] Creating layer p2
I0808 13:44:08.468971 20451 net.cpp:91] Creating Layer p2
I0808 13:44:08.468977 20451 net.cpp:425] p2 <- i2_i1_1_split_0
I0808 13:44:08.468987 20451 net.cpp:399] p2 -> p2
I0808 13:44:08.469017 20451 net.cpp:141] Setting up p2
I0808 13:44:08.469027 20451 net.cpp:148] Top shape: 64 3 64 64 (786432)
I0808 13:44:08.469033 20451 net.cpp:156] Memory required for data: 339740160
I0808 13:44:08.469040 20451 layer_factory.hpp:77] Creating layer p2_p2_0_split
I0808 13:44:08.469049 20451 net.cpp:91] Creating Layer p2_p2_0_split
I0808 13:44:08.469056 20451 net.cpp:425] p2_p2_0_split <- p2
I0808 13:44:08.469068 20451 net.cpp:399] p2_p2_0_split -> p2_p2_0_split_0
I0808 13:44:08.469080 20451 net.cpp:399] p2_p2_0_split -> p2_p2_0_split_1
I0808 13:44:08.469094 20451 net.cpp:399] p2_p2_0_split -> p2_p2_0_split_2
I0808 13:44:08.469108 20451 net.cpp:399] p2_p2_0_split -> p2_p2_0_split_3
I0808 13:44:08.469120 20451 net.cpp:399] p2_p2_0_split -> p2_p2_0_split_4
I0808 13:44:08.469135 20451 net.cpp:399] p2_p2_0_split -> p2_p2_0_split_5
I0808 13:44:08.469147 20451 net.cpp:399] p2_p2_0_split -> p2_p2_0_split_6
I0808 13:44:08.469159 20451 net.cpp:399] p2_p2_0_split -> p2_p2_0_split_7
I0808 13:44:08.469172 20451 net.cpp:399] p2_p2_0_split -> p2_p2_0_split_8
I0808 13:44:08.469197 20451 net.cpp:399] p2_p2_0_split -> p2_p2_0_split_9
I0808 13:44:08.469372 20451 net.cpp:141] Setting up p2_p2_0_split
I0808 13:44:08.469383 20451 net.cpp:148] Top shape: 64 3 64 64 (786432)
I0808 13:44:08.469393 20451 net.cpp:148] Top shape: 64 3 64 64 (786432)
I0808 13:44:08.469400 20451 net.cpp:148] Top shape: 64 3 64 64 (786432)
I0808 13:44:08.469408 20451 net.cpp:148] Top shape: 64 3 64 64 (786432)
I0808 13:44:08.469416 20451 net.cpp:148] Top shape: 64 3 64 64 (786432)
I0808 13:44:08.469424 20451 net.cpp:148] Top shape: 64 3 64 64 (786432)
I0808 13:44:08.469434 20451 net.cpp:148] Top shape: 64 3 64 64 (786432)
I0808 13:44:08.469441 20451 net.cpp:148] Top shape: 64 3 64 64 (786432)
I0808 13:44:08.469449 20451 net.cpp:148] Top shape: 64 3 64 64 (786432)
I0808 13:44:08.469457 20451 net.cpp:148] Top shape: 64 3 64 64 (786432)
I0808 13:44:08.469463 20451 net.cpp:156] Memory required for data: 371197440
I0808 13:44:08.469470 20451 layer_factory.hpp:77] Creating layer Input1
I0808 13:44:08.469482 20451 net.cpp:91] Creating Layer Input1
I0808 13:44:08.469491 20451 net.cpp:399] Input1 -> Input1
I0808 13:44:08.469527 20451 net.cpp:141] Setting up Input1
I0808 13:44:08.469537 20451 net.cpp:148] Top shape: 64 3 64 64 (786432)
I0808 13:44:08.469542 20451 net.cpp:156] Memory required for data: 374343168
I0808 13:44:08.469549 20451 layer_factory.hpp:77] Creating layer c11
I0808 13:44:08.469565 20451 net.cpp:91] Creating Layer c11
I0808 13:44:08.469573 20451 net.cpp:425] c11 <- i1_i1_0_split_1
I0808 13:44:08.469581 20451 net.cpp:425] c11 <- Input1
I0808 13:44:08.469591 20451 net.cpp:399] c11 -> c11
I0808 13:44:08.469630 20451 net.cpp:141] Setting up c11
I0808 13:44:08.469641 20451 net.cpp:148] Top shape: 64 3 64 64 (786432)
I0808 13:44:08.469648 20451 net.cpp:156] Memory required for data: 377488896
I0808 13:44:08.469655 20451 layer_factory.hpp:77] Creating layer Input2
I0808 13:44:08.469665 20451 net.cpp:91] Creating Layer Input2
I0808 13:44:08.469672 20451 net.cpp:399] Input2 -> Input2
I0808 13:44:08.469702 20451 net.cpp:141] Setting up Input2
I0808 13:44:08.469712 20451 net.cpp:148] Top shape: 64 3 64 64 (786432)
I0808 13:44:08.469717 20451 net.cpp:156] Memory required for data: 380634624
I0808 13:44:08.469724 20451 layer_factory.hpp:77] Creating layer c12
I0808 13:44:08.469733 20451 net.cpp:91] Creating Layer c12
I0808 13:44:08.469740 20451 net.cpp:425] c12 <- i1_i1_0_split_2
I0808 13:44:08.469749 20451 net.cpp:425] c12 <- Input2
I0808 13:44:08.469758 20451 net.cpp:399] c12 -> c12
I0808 13:44:08.469789 20451 net.cpp:141] Setting up c12
I0808 13:44:08.469797 20451 net.cpp:148] Top shape: 64 3 64 64 (786432)
I0808 13:44:08.469804 20451 net.cpp:156] Memory required for data: 383780352
I0808 13:44:08.469810 20451 layer_factory.hpp:77] Creating layer Input3
I0808 13:44:08.469820 20451 net.cpp:91] Creating Layer Input3
I0808 13:44:08.469827 20451 net.cpp:399] Input3 -> Input3
I0808 13:44:08.469857 20451 net.cpp:141] Setting up Input3
I0808 13:44:08.469866 20451 net.cpp:148] Top shape: 64 3 64 64 (786432)
I0808 13:44:08.469873 20451 net.cpp:156] Memory required for data: 386926080
I0808 13:44:08.469879 20451 layer_factory.hpp:77] Creating layer c13
I0808 13:44:08.469893 20451 net.cpp:91] Creating Layer c13
I0808 13:44:08.469900 20451 net.cpp:425] c13 <- i1_i1_0_split_3
I0808 13:44:08.469909 20451 net.cpp:425] c13 <- Input3
I0808 13:44:08.469919 20451 net.cpp:399] c13 -> c13
I0808 13:44:08.469949 20451 net.cpp:141] Setting up c13
I0808 13:44:08.469962 20451 net.cpp:148] Top shape: 64 3 64 64 (786432)
I0808 13:44:08.469969 20451 net.cpp:156] Memory required for data: 390071808
I0808 13:44:08.469974 20451 layer_factory.hpp:77] Creating layer Input4
I0808 13:44:08.469985 20451 net.cpp:91] Creating Layer Input4
I0808 13:44:08.469992 20451 net.cpp:399] Input4 -> Input4
I0808 13:44:08.470022 20451 net.cpp:141] Setting up Input4
I0808 13:44:08.470033 20451 net.cpp:148] Top shape: 64 3 64 64 (786432)
I0808 13:44:08.470041 20451 net.cpp:156] Memory required for data: 393217536
I0808 13:44:08.470046 20451 layer_factory.hpp:77] Creating layer c14
I0808 13:44:08.470065 20451 net.cpp:91] Creating Layer c14
I0808 13:44:08.470072 20451 net.cpp:425] c14 <- i1_i1_0_split_4
I0808 13:44:08.470082 20451 net.cpp:425] c14 <- Input4
I0808 13:44:08.470091 20451 net.cpp:399] c14 -> c14
I0808 13:44:08.470123 20451 net.cpp:141] Setting up c14
I0808 13:44:08.470130 20451 net.cpp:148] Top shape: 64 3 64 64 (786432)
I0808 13:44:08.470137 20451 net.cpp:156] Memory required for data: 396363264
I0808 13:44:08.470144 20451 layer_factory.hpp:77] Creating layer Input5
I0808 13:44:08.470152 20451 net.cpp:91] Creating Layer Input5
I0808 13:44:08.470161 20451 net.cpp:399] Input5 -> Input5
I0808 13:44:08.470191 20451 net.cpp:141] Setting up Input5
I0808 13:44:08.470201 20451 net.cpp:148] Top shape: 64 3 64 64 (786432)
I0808 13:44:08.470207 20451 net.cpp:156] Memory required for data: 399508992
I0808 13:44:08.470213 20451 layer_factory.hpp:77] Creating layer c15
I0808 13:44:08.470222 20451 net.cpp:91] Creating Layer c15
I0808 13:44:08.470229 20451 net.cpp:425] c15 <- i1_i1_0_split_5
I0808 13:44:08.470238 20451 net.cpp:425] c15 <- Input5
I0808 13:44:08.470248 20451 net.cpp:399] c15 -> c15
I0808 13:44:08.470278 20451 net.cpp:141] Setting up c15
I0808 13:44:08.470288 20451 net.cpp:148] Top shape: 64 3 64 64 (786432)
I0808 13:44:08.470293 20451 net.cpp:156] Memory required for data: 402654720
I0808 13:44:08.470300 20451 layer_factory.hpp:77] Creating layer Input6
I0808 13:44:08.470309 20451 net.cpp:91] Creating Layer Input6
I0808 13:44:08.470317 20451 net.cpp:399] Input6 -> Input6
I0808 13:44:08.470346 20451 net.cpp:141] Setting up Input6
I0808 13:44:08.470355 20451 net.cpp:148] Top shape: 64 3 64 64 (786432)
I0808 13:44:08.470361 20451 net.cpp:156] Memory required for data: 405800448
I0808 13:44:08.470367 20451 layer_factory.hpp:77] Creating layer c16
I0808 13:44:08.470376 20451 net.cpp:91] Creating Layer c16
I0808 13:44:08.470383 20451 net.cpp:425] c16 <- i1_i1_0_split_6
I0808 13:44:08.470392 20451 net.cpp:425] c16 <- Input6
I0808 13:44:08.470402 20451 net.cpp:399] c16 -> c16
I0808 13:44:08.470432 20451 net.cpp:141] Setting up c16
I0808 13:44:08.470440 20451 net.cpp:148] Top shape: 64 3 64 64 (786432)
I0808 13:44:08.470448 20451 net.cpp:156] Memory required for data: 408946176
I0808 13:44:08.470453 20451 layer_factory.hpp:77] Creating layer Input7
I0808 13:44:08.470463 20451 net.cpp:91] Creating Layer Input7
I0808 13:44:08.470471 20451 net.cpp:399] Input7 -> Input7
I0808 13:44:08.470499 20451 net.cpp:141] Setting up Input7
I0808 13:44:08.470510 20451 net.cpp:148] Top shape: 64 3 64 64 (786432)
I0808 13:44:08.470516 20451 net.cpp:156] Memory required for data: 412091904
I0808 13:44:08.470523 20451 layer_factory.hpp:77] Creating layer c17
I0808 13:44:08.470532 20451 net.cpp:91] Creating Layer c17
I0808 13:44:08.470540 20451 net.cpp:425] c17 <- i1_i1_0_split_7
I0808 13:44:08.470548 20451 net.cpp:425] c17 <- Input7
I0808 13:44:08.470558 20451 net.cpp:399] c17 -> c17
I0808 13:44:08.470595 20451 net.cpp:141] Setting up c17
I0808 13:44:08.470607 20451 net.cpp:148] Top shape: 64 3 64 64 (786432)
I0808 13:44:08.470613 20451 net.cpp:156] Memory required for data: 415237632
I0808 13:44:08.470620 20451 layer_factory.hpp:77] Creating layer Input8
I0808 13:44:08.470629 20451 net.cpp:91] Creating Layer Input8
I0808 13:44:08.470638 20451 net.cpp:399] Input8 -> Input8
I0808 13:44:08.470669 20451 net.cpp:141] Setting up Input8
I0808 13:44:08.470679 20451 net.cpp:148] Top shape: 64 3 64 64 (786432)
I0808 13:44:08.470685 20451 net.cpp:156] Memory required for data: 418383360
I0808 13:44:08.470692 20451 layer_factory.hpp:77] Creating layer c18
I0808 13:44:08.470701 20451 net.cpp:91] Creating Layer c18
I0808 13:44:08.470707 20451 net.cpp:425] c18 <- i1_i1_0_split_8
I0808 13:44:08.470716 20451 net.cpp:425] c18 <- Input8
I0808 13:44:08.470726 20451 net.cpp:399] c18 -> c18
I0808 13:44:08.470757 20451 net.cpp:141] Setting up c18
I0808 13:44:08.470765 20451 net.cpp:148] Top shape: 64 3 64 64 (786432)
I0808 13:44:08.470772 20451 net.cpp:156] Memory required for data: 421529088
I0808 13:44:08.470779 20451 layer_factory.hpp:77] Creating layer Input9
I0808 13:44:08.470798 20451 net.cpp:91] Creating Layer Input9
I0808 13:44:08.470806 20451 net.cpp:399] Input9 -> Input9
I0808 13:44:08.470836 20451 net.cpp:141] Setting up Input9
I0808 13:44:08.470845 20451 net.cpp:148] Top shape: 64 3 64 64 (786432)
I0808 13:44:08.470851 20451 net.cpp:156] Memory required for data: 424674816
I0808 13:44:08.470859 20451 layer_factory.hpp:77] Creating layer c19
I0808 13:44:08.470867 20451 net.cpp:91] Creating Layer c19
I0808 13:44:08.470875 20451 net.cpp:425] c19 <- i1_i1_0_split_9
I0808 13:44:08.470882 20451 net.cpp:425] c19 <- Input9
I0808 13:44:08.470892 20451 net.cpp:399] c19 -> c19
I0808 13:44:08.470922 20451 net.cpp:141] Setting up c19
I0808 13:44:08.470932 20451 net.cpp:148] Top shape: 64 3 64 64 (786432)
I0808 13:44:08.470937 20451 net.cpp:156] Memory required for data: 427820544
I0808 13:44:08.470944 20451 layer_factory.hpp:77] Creating layer Input10
I0808 13:44:08.470953 20451 net.cpp:91] Creating Layer Input10
I0808 13:44:08.470963 20451 net.cpp:399] Input10 -> Input10
I0808 13:44:08.470991 20451 net.cpp:141] Setting up Input10
I0808 13:44:08.471000 20451 net.cpp:148] Top shape: 64 3 64 64 (786432)
I0808 13:44:08.471006 20451 net.cpp:156] Memory required for data: 430966272
I0808 13:44:08.471014 20451 layer_factory.hpp:77] Creating layer c21
I0808 13:44:08.471022 20451 net.cpp:91] Creating Layer c21
I0808 13:44:08.471029 20451 net.cpp:425] c21 <- i2_i1_1_split_1
I0808 13:44:08.471037 20451 net.cpp:425] c21 <- Input10
I0808 13:44:08.471047 20451 net.cpp:399] c21 -> c21
I0808 13:44:08.471077 20451 net.cpp:141] Setting up c21
I0808 13:44:08.471086 20451 net.cpp:148] Top shape: 64 3 64 64 (786432)
I0808 13:44:08.471092 20451 net.cpp:156] Memory required for data: 434112000
I0808 13:44:08.471099 20451 layer_factory.hpp:77] Creating layer Input11
I0808 13:44:08.471108 20451 net.cpp:91] Creating Layer Input11
I0808 13:44:08.471117 20451 net.cpp:399] Input11 -> Input11
I0808 13:44:08.471146 20451 net.cpp:141] Setting up Input11
I0808 13:44:08.471155 20451 net.cpp:148] Top shape: 64 3 64 64 (786432)
I0808 13:44:08.471161 20451 net.cpp:156] Memory required for data: 437257728
I0808 13:44:08.471168 20451 layer_factory.hpp:77] Creating layer c22
I0808 13:44:08.471181 20451 net.cpp:91] Creating Layer c22
I0808 13:44:08.471189 20451 net.cpp:425] c22 <- i2_i1_1_split_2
I0808 13:44:08.471197 20451 net.cpp:425] c22 <- Input11
I0808 13:44:08.471207 20451 net.cpp:399] c22 -> c22
I0808 13:44:08.471237 20451 net.cpp:141] Setting up c22
I0808 13:44:08.471246 20451 net.cpp:148] Top shape: 64 3 64 64 (786432)
I0808 13:44:08.471252 20451 net.cpp:156] Memory required for data: 440403456
I0808 13:44:08.471259 20451 layer_factory.hpp:77] Creating layer Input12
I0808 13:44:08.471268 20451 net.cpp:91] Creating Layer Input12
I0808 13:44:08.471292 20451 net.cpp:399] Input12 -> Input12
I0808 13:44:08.471325 20451 net.cpp:141] Setting up Input12
I0808 13:44:08.471338 20451 net.cpp:148] Top shape: 64 3 64 64 (786432)
I0808 13:44:08.471343 20451 net.cpp:156] Memory required for data: 443549184
I0808 13:44:08.471350 20451 layer_factory.hpp:77] Creating layer c23
I0808 13:44:08.471359 20451 net.cpp:91] Creating Layer c23
I0808 13:44:08.471366 20451 net.cpp:425] c23 <- i2_i1_1_split_3
I0808 13:44:08.471375 20451 net.cpp:425] c23 <- Input12
I0808 13:44:08.471385 20451 net.cpp:399] c23 -> c23
I0808 13:44:08.471415 20451 net.cpp:141] Setting up c23
I0808 13:44:08.471426 20451 net.cpp:148] Top shape: 64 3 64 64 (786432)
I0808 13:44:08.471431 20451 net.cpp:156] Memory required for data: 446694912
I0808 13:44:08.471441 20451 layer_factory.hpp:77] Creating layer Input13
I0808 13:44:08.471449 20451 net.cpp:91] Creating Layer Input13
I0808 13:44:08.471457 20451 net.cpp:399] Input13 -> Input13
I0808 13:44:08.471487 20451 net.cpp:141] Setting up Input13
I0808 13:44:08.471496 20451 net.cpp:148] Top shape: 64 3 64 64 (786432)
I0808 13:44:08.471503 20451 net.cpp:156] Memory required for data: 449840640
I0808 13:44:08.471509 20451 layer_factory.hpp:77] Creating layer c24
I0808 13:44:08.471529 20451 net.cpp:91] Creating Layer c24
I0808 13:44:08.471536 20451 net.cpp:425] c24 <- i2_i1_1_split_4
I0808 13:44:08.471545 20451 net.cpp:425] c24 <- Input13
I0808 13:44:08.471555 20451 net.cpp:399] c24 -> c24
I0808 13:44:08.471586 20451 net.cpp:141] Setting up c24
I0808 13:44:08.471596 20451 net.cpp:148] Top shape: 64 3 64 64 (786432)
I0808 13:44:08.471601 20451 net.cpp:156] Memory required for data: 452986368
I0808 13:44:08.471607 20451 layer_factory.hpp:77] Creating layer Input14
I0808 13:44:08.471618 20451 net.cpp:91] Creating Layer Input14
I0808 13:44:08.471626 20451 net.cpp:399] Input14 -> Input14
I0808 13:44:08.471657 20451 net.cpp:141] Setting up Input14
I0808 13:44:08.471668 20451 net.cpp:148] Top shape: 64 3 64 64 (786432)
I0808 13:44:08.471673 20451 net.cpp:156] Memory required for data: 456132096
I0808 13:44:08.471679 20451 layer_factory.hpp:77] Creating layer c25
I0808 13:44:08.471688 20451 net.cpp:91] Creating Layer c25
I0808 13:44:08.471695 20451 net.cpp:425] c25 <- i2_i1_1_split_5
I0808 13:44:08.471704 20451 net.cpp:425] c25 <- Input14
I0808 13:44:08.471714 20451 net.cpp:399] c25 -> c25
I0808 13:44:08.471745 20451 net.cpp:141] Setting up c25
I0808 13:44:08.471752 20451 net.cpp:148] Top shape: 64 3 64 64 (786432)
I0808 13:44:08.471760 20451 net.cpp:156] Memory required for data: 459277824
I0808 13:44:08.471765 20451 layer_factory.hpp:77] Creating layer Input15
I0808 13:44:08.471774 20451 net.cpp:91] Creating Layer Input15
I0808 13:44:08.471783 20451 net.cpp:399] Input15 -> Input15
I0808 13:44:08.471812 20451 net.cpp:141] Setting up Input15
I0808 13:44:08.471822 20451 net.cpp:148] Top shape: 64 3 64 64 (786432)
I0808 13:44:08.471827 20451 net.cpp:156] Memory required for data: 462423552
I0808 13:44:08.471834 20451 layer_factory.hpp:77] Creating layer c26
I0808 13:44:08.471843 20451 net.cpp:91] Creating Layer c26
I0808 13:44:08.471849 20451 net.cpp:425] c26 <- i2_i1_1_split_6
I0808 13:44:08.471858 20451 net.cpp:425] c26 <- Input15
I0808 13:44:08.471868 20451 net.cpp:399] c26 -> c26
I0808 13:44:08.471899 20451 net.cpp:141] Setting up c26
I0808 13:44:08.471907 20451 net.cpp:148] Top shape: 64 3 64 64 (786432)
I0808 13:44:08.471913 20451 net.cpp:156] Memory required for data: 465569280
I0808 13:44:08.471920 20451 layer_factory.hpp:77] Creating layer Input16
I0808 13:44:08.471928 20451 net.cpp:91] Creating Layer Input16
I0808 13:44:08.471937 20451 net.cpp:399] Input16 -> Input16
I0808 13:44:08.471966 20451 net.cpp:141] Setting up Input16
I0808 13:44:08.471976 20451 net.cpp:148] Top shape: 64 3 64 64 (786432)
I0808 13:44:08.471982 20451 net.cpp:156] Memory required for data: 468715008
I0808 13:44:08.471988 20451 layer_factory.hpp:77] Creating layer c27
I0808 13:44:08.471997 20451 net.cpp:91] Creating Layer c27
I0808 13:44:08.472003 20451 net.cpp:425] c27 <- i2_i1_1_split_7
I0808 13:44:08.472012 20451 net.cpp:425] c27 <- Input16
I0808 13:44:08.472023 20451 net.cpp:399] c27 -> c27
I0808 13:44:08.472053 20451 net.cpp:141] Setting up c27
I0808 13:44:08.472061 20451 net.cpp:148] Top shape: 64 3 64 64 (786432)
I0808 13:44:08.472067 20451 net.cpp:156] Memory required for data: 471860736
I0808 13:44:08.472074 20451 layer_factory.hpp:77] Creating layer Input17
I0808 13:44:08.472084 20451 net.cpp:91] Creating Layer Input17
I0808 13:44:08.472091 20451 net.cpp:399] Input17 -> Input17
I0808 13:44:08.472121 20451 net.cpp:141] Setting up Input17
I0808 13:44:08.472131 20451 net.cpp:148] Top shape: 64 3 64 64 (786432)
I0808 13:44:08.472136 20451 net.cpp:156] Memory required for data: 475006464
I0808 13:44:08.472143 20451 layer_factory.hpp:77] Creating layer c28
I0808 13:44:08.472152 20451 net.cpp:91] Creating Layer c28
I0808 13:44:08.472159 20451 net.cpp:425] c28 <- i2_i1_1_split_8
I0808 13:44:08.472167 20451 net.cpp:425] c28 <- Input17
I0808 13:44:08.472178 20451 net.cpp:399] c28 -> c28
I0808 13:44:08.472208 20451 net.cpp:141] Setting up c28
I0808 13:44:08.472218 20451 net.cpp:148] Top shape: 64 3 64 64 (786432)
I0808 13:44:08.472223 20451 net.cpp:156] Memory required for data: 478152192
I0808 13:44:08.472229 20451 layer_factory.hpp:77] Creating layer Input18
I0808 13:44:08.472249 20451 net.cpp:91] Creating Layer Input18
I0808 13:44:08.472257 20451 net.cpp:399] Input18 -> Input18
I0808 13:44:08.472286 20451 net.cpp:141] Setting up Input18
I0808 13:44:08.472295 20451 net.cpp:148] Top shape: 64 3 64 64 (786432)
I0808 13:44:08.472301 20451 net.cpp:156] Memory required for data: 481297920
I0808 13:44:08.472308 20451 layer_factory.hpp:77] Creating layer c29
I0808 13:44:08.472317 20451 net.cpp:91] Creating Layer c29
I0808 13:44:08.472324 20451 net.cpp:425] c29 <- i2_i1_1_split_9
I0808 13:44:08.472332 20451 net.cpp:425] c29 <- Input18
I0808 13:44:08.472342 20451 net.cpp:399] c29 -> c29
I0808 13:44:08.472373 20451 net.cpp:141] Setting up c29
I0808 13:44:08.472381 20451 net.cpp:148] Top shape: 64 3 64 64 (786432)
I0808 13:44:08.472388 20451 net.cpp:156] Memory required for data: 484443648
I0808 13:44:08.472394 20451 layer_factory.hpp:77] Creating layer Convolution1
I0808 13:44:08.472414 20451 net.cpp:91] Creating Layer Convolution1
I0808 13:44:08.472421 20451 net.cpp:425] Convolution1 <- p1_p1_0_split_0
I0808 13:44:08.472432 20451 net.cpp:399] Convolution1 -> Convolution1
I0808 13:44:08.473487 20451 net.cpp:141] Setting up Convolution1
I0808 13:44:08.473501 20451 net.cpp:148] Top shape: 64 20 60 60 (4608000)
I0808 13:44:08.473507 20451 net.cpp:156] Memory required for data: 502875648
I0808 13:44:08.473526 20451 layer_factory.hpp:77] Creating layer Pooling1
I0808 13:44:08.473536 20451 net.cpp:91] Creating Layer Pooling1
I0808 13:44:08.473543 20451 net.cpp:425] Pooling1 <- Convolution1
I0808 13:44:08.473554 20451 net.cpp:399] Pooling1 -> Pooling1
I0808 13:44:08.473603 20451 net.cpp:141] Setting up Pooling1
I0808 13:44:08.473613 20451 net.cpp:148] Top shape: 64 20 30 30 (1152000)
I0808 13:44:08.473618 20451 net.cpp:156] Memory required for data: 507483648
I0808 13:44:08.473625 20451 layer_factory.hpp:77] Creating layer Convolution2
I0808 13:44:08.473639 20451 net.cpp:91] Creating Layer Convolution2
I0808 13:44:08.473646 20451 net.cpp:425] Convolution2 <- Pooling1
I0808 13:44:08.473657 20451 net.cpp:399] Convolution2 -> Convolution2
I0808 13:44:08.475450 20451 net.cpp:141] Setting up Convolution2
I0808 13:44:08.475466 20451 net.cpp:148] Top shape: 64 50 26 26 (2163200)
I0808 13:44:08.475473 20451 net.cpp:156] Memory required for data: 516136448
I0808 13:44:08.475487 20451 layer_factory.hpp:77] Creating layer Pooling2
I0808 13:44:08.475498 20451 net.cpp:91] Creating Layer Pooling2
I0808 13:44:08.475507 20451 net.cpp:425] Pooling2 <- Convolution2
I0808 13:44:08.475517 20451 net.cpp:399] Pooling2 -> Pooling2
I0808 13:44:08.475570 20451 net.cpp:141] Setting up Pooling2
I0808 13:44:08.475579 20451 net.cpp:148] Top shape: 64 50 13 13 (540800)
I0808 13:44:08.475585 20451 net.cpp:156] Memory required for data: 518299648
I0808 13:44:08.475592 20451 layer_factory.hpp:77] Creating layer Convolution3
I0808 13:44:08.475606 20451 net.cpp:91] Creating Layer Convolution3
I0808 13:44:08.475613 20451 net.cpp:425] Convolution3 <- Pooling2
I0808 13:44:08.475625 20451 net.cpp:399] Convolution3 -> Convolution3
I0808 13:44:08.476485 20451 net.cpp:141] Setting up Convolution3
I0808 13:44:08.476495 20451 net.cpp:148] Top shape: 64 50 9 9 (259200)
I0808 13:44:08.476501 20451 net.cpp:156] Memory required for data: 519336448
I0808 13:44:08.476513 20451 layer_factory.hpp:77] Creating layer Pooling3
I0808 13:44:08.476522 20451 net.cpp:91] Creating Layer Pooling3
I0808 13:44:08.476529 20451 net.cpp:425] Pooling3 <- Convolution3
I0808 13:44:08.476541 20451 net.cpp:399] Pooling3 -> Pooling3
I0808 13:44:08.476590 20451 net.cpp:141] Setting up Pooling3
I0808 13:44:08.476599 20451 net.cpp:148] Top shape: 64 50 5 5 (80000)
I0808 13:44:08.476606 20451 net.cpp:156] Memory required for data: 519656448
I0808 13:44:08.476613 20451 layer_factory.hpp:77] Creating layer InnerProduct1
I0808 13:44:08.476624 20451 net.cpp:91] Creating Layer InnerProduct1
I0808 13:44:08.476630 20451 net.cpp:425] InnerProduct1 <- Pooling3
I0808 13:44:08.476642 20451 net.cpp:399] InnerProduct1 -> InnerProduct1
I0808 13:44:08.477965 20451 net.cpp:141] Setting up InnerProduct1
I0808 13:44:08.477975 20451 net.cpp:148] Top shape: 64 100 (6400)
I0808 13:44:08.477982 20451 net.cpp:156] Memory required for data: 519682048
I0808 13:44:08.477991 20451 layer_factory.hpp:77] Creating layer ReLU1
I0808 13:44:08.478000 20451 net.cpp:91] Creating Layer ReLU1
I0808 13:44:08.478008 20451 net.cpp:425] ReLU1 <- InnerProduct1
I0808 13:44:08.478018 20451 net.cpp:386] ReLU1 -> InnerProduct1 (in-place)
I0808 13:44:08.478029 20451 net.cpp:141] Setting up ReLU1
I0808 13:44:08.478037 20451 net.cpp:148] Top shape: 64 100 (6400)
I0808 13:44:08.478044 20451 net.cpp:156] Memory required for data: 519707648
I0808 13:44:08.478050 20451 layer_factory.hpp:77] Creating layer InnerProduct2
I0808 13:44:08.478060 20451 net.cpp:91] Creating Layer InnerProduct2
I0808 13:44:08.478067 20451 net.cpp:425] InnerProduct2 <- InnerProduct1
I0808 13:44:08.478080 20451 net.cpp:399] InnerProduct2 -> InnerProduct2
I0808 13:44:08.478919 20451 net.cpp:141] Setting up InnerProduct2
I0808 13:44:08.478932 20451 net.cpp:148] Top shape: 64 50 (3200)
I0808 13:44:08.478938 20451 net.cpp:156] Memory required for data: 519720448
I0808 13:44:08.478953 20451 layer_factory.hpp:77] Creating layer Convolution4
I0808 13:44:08.478968 20451 net.cpp:91] Creating Layer Convolution4
I0808 13:44:08.478976 20451 net.cpp:425] Convolution4 <- p2_p2_0_split_0
I0808 13:44:08.478989 20451 net.cpp:399] Convolution4 -> Convolution4
I0808 13:44:08.479367 20451 net.cpp:141] Setting up Convolution4
I0808 13:44:08.479377 20451 net.cpp:148] Top shape: 64 20 60 60 (4608000)
I0808 13:44:08.479382 20451 net.cpp:156] Memory required for data: 538152448
I0808 13:44:08.479388 20451 net.cpp:484] Sharing parameters 'conv1_w' owned by layer 'Convolution1', param index 0
I0808 13:44:08.479396 20451 net.cpp:484] Sharing parameters 'conv1_b' owned by layer 'Convolution1', param index 1
I0808 13:44:08.479403 20451 layer_factory.hpp:77] Creating layer Pooling4
I0808 13:44:08.479411 20451 net.cpp:91] Creating Layer Pooling4
I0808 13:44:08.479418 20451 net.cpp:425] Pooling4 <- Convolution4
I0808 13:44:08.479427 20451 net.cpp:399] Pooling4 -> Pooling4
I0808 13:44:08.479473 20451 net.cpp:141] Setting up Pooling4
I0808 13:44:08.479481 20451 net.cpp:148] Top shape: 64 20 30 30 (1152000)
I0808 13:44:08.479487 20451 net.cpp:156] Memory required for data: 542760448
I0808 13:44:08.479492 20451 layer_factory.hpp:77] Creating layer Convolution5
I0808 13:44:08.479506 20451 net.cpp:91] Creating Layer Convolution5
I0808 13:44:08.479513 20451 net.cpp:425] Convolution5 <- Pooling4
I0808 13:44:08.479523 20451 net.cpp:399] Convolution5 -> Convolution5
I0808 13:44:08.480015 20451 net.cpp:141] Setting up Convolution5
I0808 13:44:08.480023 20451 net.cpp:148] Top shape: 64 50 26 26 (2163200)
I0808 13:44:08.480029 20451 net.cpp:156] Memory required for data: 551413248
I0808 13:44:08.480036 20451 net.cpp:484] Sharing parameters 'conv2_w' owned by layer 'Convolution2', param index 0
I0808 13:44:08.480043 20451 net.cpp:484] Sharing parameters 'conv2_b' owned by layer 'Convolution2', param index 1
I0808 13:44:08.480049 20451 layer_factory.hpp:77] Creating layer Pooling5
I0808 13:44:08.480060 20451 net.cpp:91] Creating Layer Pooling5
I0808 13:44:08.480067 20451 net.cpp:425] Pooling5 <- Convolution5
I0808 13:44:08.480075 20451 net.cpp:399] Pooling5 -> Pooling5
I0808 13:44:08.480121 20451 net.cpp:141] Setting up Pooling5
I0808 13:44:08.480129 20451 net.cpp:148] Top shape: 64 50 13 13 (540800)
I0808 13:44:08.480135 20451 net.cpp:156] Memory required for data: 553576448
I0808 13:44:08.480141 20451 layer_factory.hpp:77] Creating layer Convolution6
I0808 13:44:08.480154 20451 net.cpp:91] Creating Layer Convolution6
I0808 13:44:08.480161 20451 net.cpp:425] Convolution6 <- Pooling5
I0808 13:44:08.480171 20451 net.cpp:399] Convolution6 -> Convolution6
I0808 13:44:08.480957 20451 net.cpp:141] Setting up Convolution6
I0808 13:44:08.480965 20451 net.cpp:148] Top shape: 64 50 9 9 (259200)
I0808 13:44:08.480972 20451 net.cpp:156] Memory required for data: 554613248
I0808 13:44:08.480993 20451 net.cpp:484] Sharing parameters 'conv3_w' owned by layer 'Convolution3', param index 0
I0808 13:44:08.480999 20451 net.cpp:484] Sharing parameters 'conv3_b' owned by layer 'Convolution3', param index 1
I0808 13:44:08.481005 20451 layer_factory.hpp:77] Creating layer Pooling6
I0808 13:44:08.481015 20451 net.cpp:91] Creating Layer Pooling6
I0808 13:44:08.481022 20451 net.cpp:425] Pooling6 <- Convolution6
I0808 13:44:08.481034 20451 net.cpp:399] Pooling6 -> Pooling6
I0808 13:44:08.481081 20451 net.cpp:141] Setting up Pooling6
I0808 13:44:08.481088 20451 net.cpp:148] Top shape: 64 50 5 5 (80000)
I0808 13:44:08.481094 20451 net.cpp:156] Memory required for data: 554933248
I0808 13:44:08.481101 20451 layer_factory.hpp:77] Creating layer InnerProduct3
I0808 13:44:08.481112 20451 net.cpp:91] Creating Layer InnerProduct3
I0808 13:44:08.481118 20451 net.cpp:425] InnerProduct3 <- Pooling6
I0808 13:44:08.481128 20451 net.cpp:399] InnerProduct3 -> InnerProduct3
I0808 13:44:08.482895 20451 net.cpp:141] Setting up InnerProduct3
I0808 13:44:08.482910 20451 net.cpp:148] Top shape: 64 100 (6400)
I0808 13:44:08.482916 20451 net.cpp:156] Memory required for data: 554958848
I0808 13:44:08.482928 20451 net.cpp:484] Sharing parameters 'ip1_w' owned by layer 'InnerProduct1', param index 0
I0808 13:44:08.482936 20451 net.cpp:484] Sharing parameters 'ip1_b' owned by layer 'InnerProduct1', param index 1
I0808 13:44:08.482944 20451 layer_factory.hpp:77] Creating layer ReLU2
I0808 13:44:08.482955 20451 net.cpp:91] Creating Layer ReLU2
I0808 13:44:08.482962 20451 net.cpp:425] ReLU2 <- InnerProduct3
I0808 13:44:08.482971 20451 net.cpp:386] ReLU2 -> InnerProduct3 (in-place)
I0808 13:44:08.482982 20451 net.cpp:141] Setting up ReLU2
I0808 13:44:08.482990 20451 net.cpp:148] Top shape: 64 100 (6400)
I0808 13:44:08.482995 20451 net.cpp:156] Memory required for data: 554984448
I0808 13:44:08.483001 20451 layer_factory.hpp:77] Creating layer InnerProduct4
I0808 13:44:08.483028 20451 net.cpp:91] Creating Layer InnerProduct4
I0808 13:44:08.483036 20451 net.cpp:425] InnerProduct4 <- InnerProduct3
I0808 13:44:08.483045 20451 net.cpp:399] InnerProduct4 -> InnerProduct4
I0808 13:44:08.483214 20451 net.cpp:141] Setting up InnerProduct4
I0808 13:44:08.483222 20451 net.cpp:148] Top shape: 64 50 (3200)
I0808 13:44:08.483228 20451 net.cpp:156] Memory required for data: 554997248
I0808 13:44:08.483234 20451 net.cpp:484] Sharing parameters 'ip2_w' owned by layer 'InnerProduct2', param index 0
I0808 13:44:08.483242 20451 net.cpp:484] Sharing parameters 'ip2_b' owned by layer 'InnerProduct2', param index 1
I0808 13:44:08.483249 20451 layer_factory.hpp:77] Creating layer Concat1
I0808 13:44:08.483265 20451 net.cpp:91] Creating Layer Concat1
I0808 13:44:08.483278 20451 net.cpp:425] Concat1 <- InnerProduct2
I0808 13:44:08.483286 20451 net.cpp:425] Concat1 <- InnerProduct4
I0808 13:44:08.483295 20451 net.cpp:399] Concat1 -> Concat1
I0808 13:44:08.483326 20451 net.cpp:141] Setting up Concat1
I0808 13:44:08.483335 20451 net.cpp:148] Top shape: 64 100 (6400)
I0808 13:44:08.483340 20451 net.cpp:156] Memory required for data: 555022848
I0808 13:44:08.483346 20451 layer_factory.hpp:77] Creating layer InnerProduct5
I0808 13:44:08.483357 20451 net.cpp:91] Creating Layer InnerProduct5
I0808 13:44:08.483364 20451 net.cpp:425] InnerProduct5 <- Concat1
I0808 13:44:08.483374 20451 net.cpp:399] InnerProduct5 -> InnerProduct5
I0808 13:44:08.483548 20451 net.cpp:141] Setting up InnerProduct5
I0808 13:44:08.483556 20451 net.cpp:148] Top shape: 64 64 (4096)
I0808 13:44:08.483561 20451 net.cpp:156] Memory required for data: 555039232
I0808 13:44:08.483571 20451 layer_factory.hpp:77] Creating layer ReLU3
I0808 13:44:08.483578 20451 net.cpp:91] Creating Layer ReLU3
I0808 13:44:08.483585 20451 net.cpp:425] ReLU3 <- InnerProduct5
I0808 13:44:08.483593 20451 net.cpp:386] ReLU3 -> InnerProduct5 (in-place)
I0808 13:44:08.483603 20451 net.cpp:141] Setting up ReLU3
I0808 13:44:08.483610 20451 net.cpp:148] Top shape: 64 64 (4096)
I0808 13:44:08.483615 20451 net.cpp:156] Memory required for data: 555055616
I0808 13:44:08.483635 20451 layer_factory.hpp:77] Creating layer drop1
I0808 13:44:08.483644 20451 net.cpp:91] Creating Layer drop1
I0808 13:44:08.483650 20451 net.cpp:425] drop1 <- InnerProduct5
I0808 13:44:08.483664 20451 net.cpp:399] drop1 -> Dropout1
I0808 13:44:08.483713 20451 net.cpp:141] Setting up drop1
I0808 13:44:08.483721 20451 net.cpp:148] Top shape: 64 64 (4096)
I0808 13:44:08.483726 20451 net.cpp:156] Memory required for data: 555072000
I0808 13:44:08.483732 20451 layer_factory.hpp:77] Creating layer InnerProduct6
I0808 13:44:08.483743 20451 net.cpp:91] Creating Layer InnerProduct6
I0808 13:44:08.483749 20451 net.cpp:425] InnerProduct6 <- Dropout1
I0808 13:44:08.483763 20451 net.cpp:399] InnerProduct6 -> InnerProduct6
I0808 13:44:08.483922 20451 net.cpp:141] Setting up InnerProduct6
I0808 13:44:08.483930 20451 net.cpp:148] Top shape: 64 32 (2048)
I0808 13:44:08.483935 20451 net.cpp:156] Memory required for data: 555080192
I0808 13:44:08.483944 20451 layer_factory.hpp:77] Creating layer ReLU4
I0808 13:44:08.483952 20451 net.cpp:91] Creating Layer ReLU4
I0808 13:44:08.483958 20451 net.cpp:425] ReLU4 <- InnerProduct6
I0808 13:44:08.483965 20451 net.cpp:386] ReLU4 -> InnerProduct6 (in-place)
I0808 13:44:08.483974 20451 net.cpp:141] Setting up ReLU4
I0808 13:44:08.483983 20451 net.cpp:148] Top shape: 64 32 (2048)
I0808 13:44:08.483989 20451 net.cpp:156] Memory required for data: 555088384
I0808 13:44:08.483994 20451 layer_factory.hpp:77] Creating layer drop2
I0808 13:44:08.484004 20451 net.cpp:91] Creating Layer drop2
I0808 13:44:08.484010 20451 net.cpp:425] drop2 <- InnerProduct6
I0808 13:44:08.484019 20451 net.cpp:399] drop2 -> Dropout2
I0808 13:44:08.484064 20451 net.cpp:141] Setting up drop2
I0808 13:44:08.484072 20451 net.cpp:148] Top shape: 64 32 (2048)
I0808 13:44:08.484078 20451 net.cpp:156] Memory required for data: 555096576
I0808 13:44:08.484084 20451 layer_factory.hpp:77] Creating layer dt0
I0808 13:44:08.484092 20451 net.cpp:91] Creating Layer dt0
I0808 13:44:08.484098 20451 net.cpp:425] dt0 <- Dropout2
I0808 13:44:08.484108 20451 net.cpp:399] dt0 -> dt0
I0808 13:44:08.484232 20451 net.cpp:141] Setting up dt0
I0808 13:44:08.484241 20451 net.cpp:148] Top shape: 64 1 (64)
I0808 13:44:08.484246 20451 net.cpp:156] Memory required for data: 555096832
I0808 13:44:08.484254 20451 layer_factory.hpp:77] Creating layer Convolution7
I0808 13:44:08.484269 20451 net.cpp:91] Creating Layer Convolution7
I0808 13:44:08.484277 20451 net.cpp:425] Convolution7 <- p1_p1_0_split_1
I0808 13:44:08.484289 20451 net.cpp:399] Convolution7 -> Convolution7
I0808 13:44:08.484593 20451 net.cpp:141] Setting up Convolution7
I0808 13:44:08.484601 20451 net.cpp:148] Top shape: 64 20 60 60 (4608000)
I0808 13:44:08.484606 20451 net.cpp:156] Memory required for data: 573528832
I0808 13:44:08.484612 20451 net.cpp:484] Sharing parameters 'conv1_w' owned by layer 'Convolution1', param index 0
I0808 13:44:08.484619 20451 net.cpp:484] Sharing parameters 'conv1_b' owned by layer 'Convolution1', param index 1
I0808 13:44:08.484625 20451 layer_factory.hpp:77] Creating layer Pooling7
I0808 13:44:08.484634 20451 net.cpp:91] Creating Layer Pooling7
I0808 13:44:08.484640 20451 net.cpp:425] Pooling7 <- Convolution7
I0808 13:44:08.484652 20451 net.cpp:399] Pooling7 -> Pooling7
I0808 13:44:08.484697 20451 net.cpp:141] Setting up Pooling7
I0808 13:44:08.484704 20451 net.cpp:148] Top shape: 64 20 30 30 (1152000)
I0808 13:44:08.484710 20451 net.cpp:156] Memory required for data: 578136832
I0808 13:44:08.484715 20451 layer_factory.hpp:77] Creating layer Convolution8
I0808 13:44:08.484729 20451 net.cpp:91] Creating Layer Convolution8
I0808 13:44:08.484735 20451 net.cpp:425] Convolution8 <- Pooling7
I0808 13:44:08.484747 20451 net.cpp:399] Convolution8 -> Convolution8
I0808 13:44:08.485245 20451 net.cpp:141] Setting up Convolution8
I0808 13:44:08.485254 20451 net.cpp:148] Top shape: 64 50 26 26 (2163200)
I0808 13:44:08.485260 20451 net.cpp:156] Memory required for data: 586789632
I0808 13:44:08.485265 20451 net.cpp:484] Sharing parameters 'conv2_w' owned by layer 'Convolution2', param index 0
I0808 13:44:08.485280 20451 net.cpp:484] Sharing parameters 'conv2_b' owned by layer 'Convolution2', param index 1
I0808 13:44:08.485287 20451 layer_factory.hpp:77] Creating layer Pooling8
I0808 13:44:08.485298 20451 net.cpp:91] Creating Layer Pooling8
I0808 13:44:08.485304 20451 net.cpp:425] Pooling8 <- Convolution8
I0808 13:44:08.485313 20451 net.cpp:399] Pooling8 -> Pooling8
I0808 13:44:08.485359 20451 net.cpp:141] Setting up Pooling8
I0808 13:44:08.485368 20451 net.cpp:148] Top shape: 64 50 13 13 (540800)
I0808 13:44:08.485373 20451 net.cpp:156] Memory required for data: 588952832
I0808 13:44:08.485378 20451 layer_factory.hpp:77] Creating layer Convolution9
I0808 13:44:08.485402 20451 net.cpp:91] Creating Layer Convolution9
I0808 13:44:08.485409 20451 net.cpp:425] Convolution9 <- Pooling8
I0808 13:44:08.485419 20451 net.cpp:399] Convolution9 -> Convolution9
I0808 13:44:08.486872 20451 net.cpp:141] Setting up Convolution9
I0808 13:44:08.486886 20451 net.cpp:148] Top shape: 64 50 9 9 (259200)
I0808 13:44:08.486892 20451 net.cpp:156] Memory required for data: 589989632
I0808 13:44:08.486901 20451 net.cpp:484] Sharing parameters 'conv3_w' owned by layer 'Convolution3', param index 0
I0808 13:44:08.486908 20451 net.cpp:484] Sharing parameters 'conv3_b' owned by layer 'Convolution3', param index 1
I0808 13:44:08.486915 20451 layer_factory.hpp:77] Creating layer Pooling9
I0808 13:44:08.486928 20451 net.cpp:91] Creating Layer Pooling9
I0808 13:44:08.486937 20451 net.cpp:425] Pooling9 <- Convolution9
I0808 13:44:08.486948 20451 net.cpp:399] Pooling9 -> Pooling9
I0808 13:44:08.487004 20451 net.cpp:141] Setting up Pooling9
I0808 13:44:08.487011 20451 net.cpp:148] Top shape: 64 50 5 5 (80000)
I0808 13:44:08.487018 20451 net.cpp:156] Memory required for data: 590309632
I0808 13:44:08.487025 20451 layer_factory.hpp:77] Creating layer InnerProduct7
I0808 13:44:08.487036 20451 net.cpp:91] Creating Layer InnerProduct7
I0808 13:44:08.487043 20451 net.cpp:425] InnerProduct7 <- Pooling9
I0808 13:44:08.487054 20451 net.cpp:399] InnerProduct7 -> InnerProduct7
I0808 13:44:08.488293 20451 net.cpp:141] Setting up InnerProduct7
I0808 13:44:08.488303 20451 net.cpp:148] Top shape: 64 100 (6400)
I0808 13:44:08.488309 20451 net.cpp:156] Memory required for data: 590335232
I0808 13:44:08.488328 20451 net.cpp:484] Sharing parameters 'ip1_w' owned by layer 'InnerProduct1', param index 0
I0808 13:44:08.488337 20451 net.cpp:484] Sharing parameters 'ip1_b' owned by layer 'InnerProduct1', param index 1
I0808 13:44:08.488344 20451 layer_factory.hpp:77] Creating layer ReLU5
I0808 13:44:08.488353 20451 net.cpp:91] Creating Layer ReLU5
I0808 13:44:08.488360 20451 net.cpp:425] ReLU5 <- InnerProduct7
I0808 13:44:08.488373 20451 net.cpp:386] ReLU5 -> InnerProduct7 (in-place)
I0808 13:44:08.488384 20451 net.cpp:141] Setting up ReLU5
I0808 13:44:08.488391 20451 net.cpp:148] Top shape: 64 100 (6400)
I0808 13:44:08.488397 20451 net.cpp:156] Memory required for data: 590360832
I0808 13:44:08.488404 20451 layer_factory.hpp:77] Creating layer InnerProduct8
I0808 13:44:08.488415 20451 net.cpp:91] Creating Layer InnerProduct8
I0808 13:44:08.488420 20451 net.cpp:425] InnerProduct8 <- InnerProduct7
I0808 13:44:08.488433 20451 net.cpp:399] InnerProduct8 -> InnerProduct8
I0808 13:44:08.488611 20451 net.cpp:141] Setting up InnerProduct8
I0808 13:44:08.488620 20451 net.cpp:148] Top shape: 64 50 (3200)
I0808 13:44:08.488625 20451 net.cpp:156] Memory required for data: 590373632
I0808 13:44:08.488631 20451 net.cpp:484] Sharing parameters 'ip2_w' owned by layer 'InnerProduct2', param index 0
I0808 13:44:08.488638 20451 net.cpp:484] Sharing parameters 'ip2_b' owned by layer 'InnerProduct2', param index 1
I0808 13:44:08.488644 20451 layer_factory.hpp:77] Creating layer Convolution10
I0808 13:44:08.488658 20451 net.cpp:91] Creating Layer Convolution10
I0808 13:44:08.488665 20451 net.cpp:425] Convolution10 <- c21
I0808 13:44:08.488679 20451 net.cpp:399] Convolution10 -> Convolution10
I0808 13:44:08.488992 20451 net.cpp:141] Setting up Convolution10
I0808 13:44:08.489015 20451 net.cpp:148] Top shape: 64 20 60 60 (4608000)
I0808 13:44:08.489022 20451 net.cpp:156] Memory required for data: 608805632
I0808 13:44:08.489027 20451 net.cpp:484] Sharing parameters 'conv1_w' owned by layer 'Convolution1', param index 0
I0808 13:44:08.489034 20451 net.cpp:484] Sharing parameters 'conv1_b' owned by layer 'Convolution1', param index 1
I0808 13:44:08.489040 20451 layer_factory.hpp:77] Creating layer Pooling10
I0808 13:44:08.489053 20451 net.cpp:91] Creating Layer Pooling10
I0808 13:44:08.489059 20451 net.cpp:425] Pooling10 <- Convolution10
I0808 13:44:08.489068 20451 net.cpp:399] Pooling10 -> Pooling10
I0808 13:44:08.489117 20451 net.cpp:141] Setting up Pooling10
I0808 13:44:08.489125 20451 net.cpp:148] Top shape: 64 20 30 30 (1152000)
I0808 13:44:08.489131 20451 net.cpp:156] Memory required for data: 613413632
I0808 13:44:08.489136 20451 layer_factory.hpp:77] Creating layer Convolution11
I0808 13:44:08.489151 20451 net.cpp:91] Creating Layer Convolution11
I0808 13:44:08.489157 20451 net.cpp:425] Convolution11 <- Pooling10
I0808 13:44:08.489171 20451 net.cpp:399] Convolution11 -> Convolution11
I0808 13:44:08.489673 20451 net.cpp:141] Setting up Convolution11
I0808 13:44:08.489681 20451 net.cpp:148] Top shape: 64 50 26 26 (2163200)
I0808 13:44:08.489687 20451 net.cpp:156] Memory required for data: 622066432
I0808 13:44:08.489694 20451 net.cpp:484] Sharing parameters 'conv2_w' owned by layer 'Convolution2', param index 0
I0808 13:44:08.489701 20451 net.cpp:484] Sharing parameters 'conv2_b' owned by layer 'Convolution2', param index 1
I0808 13:44:08.489707 20451 layer_factory.hpp:77] Creating layer Pooling11
I0808 13:44:08.489715 20451 net.cpp:91] Creating Layer Pooling11
I0808 13:44:08.489722 20451 net.cpp:425] Pooling11 <- Convolution11
I0808 13:44:08.489733 20451 net.cpp:399] Pooling11 -> Pooling11
I0808 13:44:08.489778 20451 net.cpp:141] Setting up Pooling11
I0808 13:44:08.489787 20451 net.cpp:148] Top shape: 64 50 13 13 (540800)
I0808 13:44:08.489802 20451 net.cpp:156] Memory required for data: 624229632
I0808 13:44:08.489807 20451 layer_factory.hpp:77] Creating layer Convolution12
I0808 13:44:08.489821 20451 net.cpp:91] Creating Layer Convolution12
I0808 13:44:08.489827 20451 net.cpp:425] Convolution12 <- Pooling11
I0808 13:44:08.489840 20451 net.cpp:399] Convolution12 -> Convolution12
I0808 13:44:08.490610 20451 net.cpp:141] Setting up Convolution12
I0808 13:44:08.490619 20451 net.cpp:148] Top shape: 64 50 9 9 (259200)
I0808 13:44:08.490624 20451 net.cpp:156] Memory required for data: 625266432
I0808 13:44:08.490630 20451 net.cpp:484] Sharing parameters 'conv3_w' owned by layer 'Convolution3', param index 0
I0808 13:44:08.490638 20451 net.cpp:484] Sharing parameters 'conv3_b' owned by layer 'Convolution3', param index 1
I0808 13:44:08.490643 20451 layer_factory.hpp:77] Creating layer Pooling12
I0808 13:44:08.490651 20451 net.cpp:91] Creating Layer Pooling12
I0808 13:44:08.490658 20451 net.cpp:425] Pooling12 <- Convolution12
I0808 13:44:08.490669 20451 net.cpp:399] Pooling12 -> Pooling12
I0808 13:44:08.490712 20451 net.cpp:141] Setting up Pooling12
I0808 13:44:08.490720 20451 net.cpp:148] Top shape: 64 50 5 5 (80000)
I0808 13:44:08.490725 20451 net.cpp:156] Memory required for data: 625586432
I0808 13:44:08.490731 20451 layer_factory.hpp:77] Creating layer InnerProduct9
I0808 13:44:08.490742 20451 net.cpp:91] Creating Layer InnerProduct9
I0808 13:44:08.490748 20451 net.cpp:425] InnerProduct9 <- Pooling12
I0808 13:44:08.490761 20451 net.cpp:399] InnerProduct9 -> InnerProduct9
I0808 13:44:08.492533 20451 net.cpp:141] Setting up InnerProduct9
I0808 13:44:08.492549 20451 net.cpp:148] Top shape: 64 100 (6400)
I0808 13:44:08.492555 20451 net.cpp:156] Memory required for data: 625612032
I0808 13:44:08.492564 20451 net.cpp:484] Sharing parameters 'ip1_w' owned by layer 'InnerProduct1', param index 0
I0808 13:44:08.492573 20451 net.cpp:484] Sharing parameters 'ip1_b' owned by layer 'InnerProduct1', param index 1
I0808 13:44:08.492580 20451 layer_factory.hpp:77] Creating layer ReLU6
I0808 13:44:08.492609 20451 net.cpp:91] Creating Layer ReLU6
I0808 13:44:08.492617 20451 net.cpp:425] ReLU6 <- InnerProduct9
I0808 13:44:08.492627 20451 net.cpp:386] ReLU6 -> InnerProduct9 (in-place)
I0808 13:44:08.492640 20451 net.cpp:141] Setting up ReLU6
I0808 13:44:08.492648 20451 net.cpp:148] Top shape: 64 100 (6400)
I0808 13:44:08.492655 20451 net.cpp:156] Memory required for data: 625637632
I0808 13:44:08.492661 20451 layer_factory.hpp:77] Creating layer InnerProduct10
I0808 13:44:08.492676 20451 net.cpp:91] Creating Layer InnerProduct10
I0808 13:44:08.492682 20451 net.cpp:425] InnerProduct10 <- InnerProduct9
I0808 13:44:08.492692 20451 net.cpp:399] InnerProduct10 -> InnerProduct10
I0808 13:44:08.492882 20451 net.cpp:141] Setting up InnerProduct10
I0808 13:44:08.492890 20451 net.cpp:148] Top shape: 64 50 (3200)
I0808 13:44:08.492897 20451 net.cpp:156] Memory required for data: 625650432
I0808 13:44:08.492903 20451 net.cpp:484] Sharing parameters 'ip2_w' owned by layer 'InnerProduct2', param index 0
I0808 13:44:08.492913 20451 net.cpp:484] Sharing parameters 'ip2_b' owned by layer 'InnerProduct2', param index 1
I0808 13:44:08.492920 20451 layer_factory.hpp:77] Creating layer Concat2
I0808 13:44:08.492934 20451 net.cpp:91] Creating Layer Concat2
I0808 13:44:08.492943 20451 net.cpp:425] Concat2 <- InnerProduct8
I0808 13:44:08.492951 20451 net.cpp:425] Concat2 <- InnerProduct10
I0808 13:44:08.492961 20451 net.cpp:399] Concat2 -> Concat2
I0808 13:44:08.493000 20451 net.cpp:141] Setting up Concat2
I0808 13:44:08.493010 20451 net.cpp:148] Top shape: 64 100 (6400)
I0808 13:44:08.493016 20451 net.cpp:156] Memory required for data: 625676032
I0808 13:44:08.493026 20451 layer_factory.hpp:77] Creating layer InnerProduct11
I0808 13:44:08.493036 20451 net.cpp:91] Creating Layer InnerProduct11
I0808 13:44:08.493043 20451 net.cpp:425] InnerProduct11 <- Concat2
I0808 13:44:08.493059 20451 net.cpp:399] InnerProduct11 -> InnerProduct11
I0808 13:44:08.493258 20451 net.cpp:141] Setting up InnerProduct11
I0808 13:44:08.493268 20451 net.cpp:148] Top shape: 64 64 (4096)
I0808 13:44:08.493273 20451 net.cpp:156] Memory required for data: 625692416
I0808 13:44:08.493281 20451 net.cpp:484] Sharing parameters 'fc1_w' owned by layer 'InnerProduct5', param index 0
I0808 13:44:08.493289 20451 net.cpp:484] Sharing parameters 'fc1_b' owned by layer 'InnerProduct5', param index 1
I0808 13:44:08.493296 20451 layer_factory.hpp:77] Creating layer ReLU7
I0808 13:44:08.493304 20451 net.cpp:91] Creating Layer ReLU7
I0808 13:44:08.493311 20451 net.cpp:425] ReLU7 <- InnerProduct11
I0808 13:44:08.493324 20451 net.cpp:386] ReLU7 -> InnerProduct11 (in-place)
I0808 13:44:08.493335 20451 net.cpp:141] Setting up ReLU7
I0808 13:44:08.493345 20451 net.cpp:148] Top shape: 64 64 (4096)
I0808 13:44:08.493353 20451 net.cpp:156] Memory required for data: 625708800
I0808 13:44:08.493360 20451 layer_factory.hpp:77] Creating layer drop1
I0808 13:44:08.493372 20451 net.cpp:91] Creating Layer drop1
I0808 13:44:08.493379 20451 net.cpp:425] drop1 <- InnerProduct11
I0808 13:44:08.493391 20451 net.cpp:399] drop1 -> Dropout3
I0808 13:44:08.493449 20451 net.cpp:141] Setting up drop1
I0808 13:44:08.493460 20451 net.cpp:148] Top shape: 64 64 (4096)
I0808 13:44:08.493468 20451 net.cpp:156] Memory required for data: 625725184
I0808 13:44:08.493474 20451 layer_factory.hpp:77] Creating layer InnerProduct12
I0808 13:44:08.493495 20451 net.cpp:91] Creating Layer InnerProduct12
I0808 13:44:08.493502 20451 net.cpp:425] InnerProduct12 <- Dropout3
I0808 13:44:08.493517 20451 net.cpp:399] InnerProduct12 -> InnerProduct12
I0808 13:44:08.493724 20451 net.cpp:141] Setting up InnerProduct12
I0808 13:44:08.493739 20451 net.cpp:148] Top shape: 64 32 (2048)
I0808 13:44:08.493746 20451 net.cpp:156] Memory required for data: 625733376
I0808 13:44:08.493754 20451 net.cpp:484] Sharing parameters 'fc2_w' owned by layer 'InnerProduct6', param index 0
I0808 13:44:08.493763 20451 net.cpp:484] Sharing parameters 'fc2_b' owned by layer 'InnerProduct6', param index 1
I0808 13:44:08.493772 20451 layer_factory.hpp:77] Creating layer ReLU8
I0808 13:44:08.493793 20451 net.cpp:91] Creating Layer ReLU8
I0808 13:44:08.493800 20451 net.cpp:425] ReLU8 <- InnerProduct12
I0808 13:44:08.493809 20451 net.cpp:386] ReLU8 -> InnerProduct12 (in-place)
I0808 13:44:08.493820 20451 net.cpp:141] Setting up ReLU8
I0808 13:44:08.493829 20451 net.cpp:148] Top shape: 64 32 (2048)
I0808 13:44:08.493835 20451 net.cpp:156] Memory required for data: 625741568
I0808 13:44:08.493842 20451 layer_factory.hpp:77] Creating layer drop2
I0808 13:44:08.493851 20451 net.cpp:91] Creating Layer drop2
I0808 13:44:08.493859 20451 net.cpp:425] drop2 <- InnerProduct12
I0808 13:44:08.493867 20451 net.cpp:399] drop2 -> Dropout4
I0808 13:44:08.493918 20451 net.cpp:141] Setting up drop2
I0808 13:44:08.493928 20451 net.cpp:148] Top shape: 64 32 (2048)
I0808 13:44:08.493935 20451 net.cpp:156] Memory required for data: 625749760
I0808 13:44:08.493943 20451 layer_factory.hpp:77] Creating layer dt1
I0808 13:44:08.493957 20451 net.cpp:91] Creating Layer dt1
I0808 13:44:08.493963 20451 net.cpp:425] dt1 <- Dropout4
I0808 13:44:08.493978 20451 net.cpp:399] dt1 -> dt1
I0808 13:44:08.494138 20451 net.cpp:141] Setting up dt1
I0808 13:44:08.494151 20451 net.cpp:148] Top shape: 64 1 (64)
I0808 13:44:08.494159 20451 net.cpp:156] Memory required for data: 625750016
I0808 13:44:08.494168 20451 net.cpp:484] Sharing parameters 'fc3_w' owned by layer 'dt0', param index 0
I0808 13:44:08.494176 20451 net.cpp:484] Sharing parameters 'fc3_b' owned by layer 'dt0', param index 1
I0808 13:44:08.494184 20451 layer_factory.hpp:77] Creating layer Convolution13
I0808 13:44:08.494199 20451 net.cpp:91] Creating Layer Convolution13
I0808 13:44:08.494209 20451 net.cpp:425] Convolution13 <- p1_p1_0_split_2
I0808 13:44:08.494225 20451 net.cpp:399] Convolution13 -> Convolution13
I0808 13:44:08.494602 20451 net.cpp:141] Setting up Convolution13
I0808 13:44:08.494613 20451 net.cpp:148] Top shape: 64 20 60 60 (4608000)
I0808 13:44:08.494621 20451 net.cpp:156] Memory required for data: 644182016
I0808 13:44:08.494628 20451 net.cpp:484] Sharing parameters 'conv1_w' owned by layer 'Convolution1', param index 0
I0808 13:44:08.494637 20451 net.cpp:484] Sharing parameters 'conv1_b' owned by layer 'Convolution1', param index 1
I0808 13:44:08.494644 20451 layer_factory.hpp:77] Creating layer Pooling13
I0808 13:44:08.494655 20451 net.cpp:91] Creating Layer Pooling13
I0808 13:44:08.494663 20451 net.cpp:425] Pooling13 <- Convolution13
I0808 13:44:08.494676 20451 net.cpp:399] Pooling13 -> Pooling13
I0808 13:44:08.494729 20451 net.cpp:141] Setting up Pooling13
I0808 13:44:08.494740 20451 net.cpp:148] Top shape: 64 20 30 30 (1152000)
I0808 13:44:08.494745 20451 net.cpp:156] Memory required for data: 648790016
I0808 13:44:08.494752 20451 layer_factory.hpp:77] Creating layer Convolution14
I0808 13:44:08.494771 20451 net.cpp:91] Creating Layer Convolution14
I0808 13:44:08.494777 20451 net.cpp:425] Convolution14 <- Pooling13
I0808 13:44:08.494788 20451 net.cpp:399] Convolution14 -> Convolution14
I0808 13:44:08.495409 20451 net.cpp:141] Setting up Convolution14
I0808 13:44:08.495427 20451 net.cpp:148] Top shape: 64 50 26 26 (2163200)
I0808 13:44:08.495436 20451 net.cpp:156] Memory required for data: 657442816
I0808 13:44:08.495446 20451 net.cpp:484] Sharing parameters 'conv2_w' owned by layer 'Convolution2', param index 0
I0808 13:44:08.495456 20451 net.cpp:484] Sharing parameters 'conv2_b' owned by layer 'Convolution2', param index 1
I0808 13:44:08.495465 20451 layer_factory.hpp:77] Creating layer Pooling14
I0808 13:44:08.495478 20451 net.cpp:91] Creating Layer Pooling14
I0808 13:44:08.495486 20451 net.cpp:425] Pooling14 <- Convolution14
I0808 13:44:08.495499 20451 net.cpp:399] Pooling14 -> Pooling14
I0808 13:44:08.495565 20451 net.cpp:141] Setting up Pooling14
I0808 13:44:08.495578 20451 net.cpp:148] Top shape: 64 50 13 13 (540800)
I0808 13:44:08.495585 20451 net.cpp:156] Memory required for data: 659606016
I0808 13:44:08.495594 20451 layer_factory.hpp:77] Creating layer Convolution15
I0808 13:44:08.495614 20451 net.cpp:91] Creating Layer Convolution15
I0808 13:44:08.495640 20451 net.cpp:425] Convolution15 <- Pooling14
I0808 13:44:08.495657 20451 net.cpp:399] Convolution15 -> Convolution15
I0808 13:44:08.496551 20451 net.cpp:141] Setting up Convolution15
I0808 13:44:08.496562 20451 net.cpp:148] Top shape: 64 50 9 9 (259200)
I0808 13:44:08.496568 20451 net.cpp:156] Memory required for data: 660642816
I0808 13:44:08.496575 20451 net.cpp:484] Sharing parameters 'conv3_w' owned by layer 'Convolution3', param index 0
I0808 13:44:08.496583 20451 net.cpp:484] Sharing parameters 'conv3_b' owned by layer 'Convolution3', param index 1
I0808 13:44:08.496589 20451 layer_factory.hpp:77] Creating layer Pooling15
I0808 13:44:08.496598 20451 net.cpp:91] Creating Layer Pooling15
I0808 13:44:08.496605 20451 net.cpp:425] Pooling15 <- Convolution15
I0808 13:44:08.496616 20451 net.cpp:399] Pooling15 -> Pooling15
I0808 13:44:08.496666 20451 net.cpp:141] Setting up Pooling15
I0808 13:44:08.496676 20451 net.cpp:148] Top shape: 64 50 5 5 (80000)
I0808 13:44:08.496682 20451 net.cpp:156] Memory required for data: 660962816
I0808 13:44:08.496688 20451 layer_factory.hpp:77] Creating layer InnerProduct13
I0808 13:44:08.496698 20451 net.cpp:91] Creating Layer InnerProduct13
I0808 13:44:08.496704 20451 net.cpp:425] InnerProduct13 <- Pooling15
I0808 13:44:08.496716 20451 net.cpp:399] InnerProduct13 -> InnerProduct13
I0808 13:44:08.497906 20451 net.cpp:141] Setting up InnerProduct13
I0808 13:44:08.497923 20451 net.cpp:148] Top shape: 64 100 (6400)
I0808 13:44:08.497931 20451 net.cpp:156] Memory required for data: 660988416
I0808 13:44:08.497941 20451 net.cpp:484] Sharing parameters 'ip1_w' owned by layer 'InnerProduct1', param index 0
I0808 13:44:08.497949 20451 net.cpp:484] Sharing parameters 'ip1_b' owned by layer 'InnerProduct1', param index 1
I0808 13:44:08.497956 20451 layer_factory.hpp:77] Creating layer ReLU9
I0808 13:44:08.497968 20451 net.cpp:91] Creating Layer ReLU9
I0808 13:44:08.497977 20451 net.cpp:425] ReLU9 <- InnerProduct13
I0808 13:44:08.497987 20451 net.cpp:386] ReLU9 -> InnerProduct13 (in-place)
I0808 13:44:08.498003 20451 net.cpp:141] Setting up ReLU9
I0808 13:44:08.498010 20451 net.cpp:148] Top shape: 64 100 (6400)
I0808 13:44:08.498018 20451 net.cpp:156] Memory required for data: 661014016
I0808 13:44:08.498023 20451 layer_factory.hpp:77] Creating layer InnerProduct14
I0808 13:44:08.498034 20451 net.cpp:91] Creating Layer InnerProduct14
I0808 13:44:08.498041 20451 net.cpp:425] InnerProduct14 <- InnerProduct13
I0808 13:44:08.498051 20451 net.cpp:399] InnerProduct14 -> InnerProduct14
I0808 13:44:08.498245 20451 net.cpp:141] Setting up InnerProduct14
I0808 13:44:08.498256 20451 net.cpp:148] Top shape: 64 50 (3200)
I0808 13:44:08.498263 20451 net.cpp:156] Memory required for data: 661026816
I0808 13:44:08.498271 20451 net.cpp:484] Sharing parameters 'ip2_w' owned by layer 'InnerProduct2', param index 0
I0808 13:44:08.498281 20451 net.cpp:484] Sharing parameters 'ip2_b' owned by layer 'InnerProduct2', param index 1
I0808 13:44:08.498288 20451 layer_factory.hpp:77] Creating layer Convolution16
I0808 13:44:08.498307 20451 net.cpp:91] Creating Layer Convolution16
I0808 13:44:08.498317 20451 net.cpp:425] Convolution16 <- c22
I0808 13:44:08.498330 20451 net.cpp:399] Convolution16 -> Convolution16
I0808 13:44:08.498742 20451 net.cpp:141] Setting up Convolution16
I0808 13:44:08.498756 20451 net.cpp:148] Top shape: 64 20 60 60 (4608000)
I0808 13:44:08.498764 20451 net.cpp:156] Memory required for data: 679458816
I0808 13:44:08.498772 20451 net.cpp:484] Sharing parameters 'conv1_w' owned by layer 'Convolution1', param index 0
I0808 13:44:08.498781 20451 net.cpp:484] Sharing parameters 'conv1_b' owned by layer 'Convolution1', param index 1
I0808 13:44:08.498790 20451 layer_factory.hpp:77] Creating layer Pooling16
I0808 13:44:08.498803 20451 net.cpp:91] Creating Layer Pooling16
I0808 13:44:08.498811 20451 net.cpp:425] Pooling16 <- Convolution16
I0808 13:44:08.498822 20451 net.cpp:399] Pooling16 -> Pooling16
I0808 13:44:08.498924 20451 net.cpp:141] Setting up Pooling16
I0808 13:44:08.498970 20451 net.cpp:148] Top shape: 64 20 30 30 (1152000)
I0808 13:44:08.498983 20451 net.cpp:156] Memory required for data: 684066816
I0808 13:44:08.498994 20451 layer_factory.hpp:77] Creating layer Convolution17
I0808 13:44:08.499013 20451 net.cpp:91] Creating Layer Convolution17
I0808 13:44:08.499022 20451 net.cpp:425] Convolution17 <- Pooling16
I0808 13:44:08.499033 20451 net.cpp:399] Convolution17 -> Convolution17
I0808 13:44:08.499634 20451 net.cpp:141] Setting up Convolution17
I0808 13:44:08.499649 20451 net.cpp:148] Top shape: 64 50 26 26 (2163200)
I0808 13:44:08.499655 20451 net.cpp:156] Memory required for data: 692719616
I0808 13:44:08.499686 20451 net.cpp:484] Sharing parameters 'conv2_w' owned by layer 'Convolution2', param index 0
I0808 13:44:08.499694 20451 net.cpp:484] Sharing parameters 'conv2_b' owned by layer 'Convolution2', param index 1
I0808 13:44:08.499701 20451 layer_factory.hpp:77] Creating layer Pooling17
I0808 13:44:08.499711 20451 net.cpp:91] Creating Layer Pooling17
I0808 13:44:08.499717 20451 net.cpp:425] Pooling17 <- Convolution17
I0808 13:44:08.499730 20451 net.cpp:399] Pooling17 -> Pooling17
I0808 13:44:08.499778 20451 net.cpp:141] Setting up Pooling17
I0808 13:44:08.499786 20451 net.cpp:148] Top shape: 64 50 13 13 (540800)
I0808 13:44:08.499791 20451 net.cpp:156] Memory required for data: 694882816
I0808 13:44:08.499797 20451 layer_factory.hpp:77] Creating layer Convolution18
I0808 13:44:08.499814 20451 net.cpp:91] Creating Layer Convolution18
I0808 13:44:08.499819 20451 net.cpp:425] Convolution18 <- Pooling17
I0808 13:44:08.499830 20451 net.cpp:399] Convolution18 -> Convolution18
I0808 13:44:08.501294 20451 net.cpp:141] Setting up Convolution18
I0808 13:44:08.501309 20451 net.cpp:148] Top shape: 64 50 9 9 (259200)
I0808 13:44:08.501315 20451 net.cpp:156] Memory required for data: 695919616
I0808 13:44:08.501322 20451 net.cpp:484] Sharing parameters 'conv3_w' owned by layer 'Convolution3', param index 0
I0808 13:44:08.501330 20451 net.cpp:484] Sharing parameters 'conv3_b' owned by layer 'Convolution3', param index 1
I0808 13:44:08.501337 20451 layer_factory.hpp:77] Creating layer Pooling18
I0808 13:44:08.501346 20451 net.cpp:91] Creating Layer Pooling18
I0808 13:44:08.501353 20451 net.cpp:425] Pooling18 <- Convolution18
I0808 13:44:08.501363 20451 net.cpp:399] Pooling18 -> Pooling18
I0808 13:44:08.501418 20451 net.cpp:141] Setting up Pooling18
I0808 13:44:08.501426 20451 net.cpp:148] Top shape: 64 50 5 5 (80000)
I0808 13:44:08.501432 20451 net.cpp:156] Memory required for data: 696239616
I0808 13:44:08.501437 20451 layer_factory.hpp:77] Creating layer InnerProduct15
I0808 13:44:08.501447 20451 net.cpp:91] Creating Layer InnerProduct15
I0808 13:44:08.501453 20451 net.cpp:425] InnerProduct15 <- Pooling18
I0808 13:44:08.501466 20451 net.cpp:399] InnerProduct15 -> InnerProduct15
I0808 13:44:08.509694 20451 net.cpp:141] Setting up InnerProduct15
I0808 13:44:08.509711 20451 net.cpp:148] Top shape: 64 100 (6400)
I0808 13:44:08.509717 20451 net.cpp:156] Memory required for data: 696265216
I0808 13:44:08.509726 20451 net.cpp:484] Sharing parameters 'ip1_w' owned by layer 'InnerProduct1', param index 0
I0808 13:44:08.509732 20451 net.cpp:484] Sharing parameters 'ip1_b' owned by layer 'InnerProduct1', param index 1
I0808 13:44:08.509739 20451 layer_factory.hpp:77] Creating layer ReLU10
I0808 13:44:08.509748 20451 net.cpp:91] Creating Layer ReLU10
I0808 13:44:08.509755 20451 net.cpp:425] ReLU10 <- InnerProduct15
I0808 13:44:08.509764 20451 net.cpp:386] ReLU10 -> InnerProduct15 (in-place)
I0808 13:44:08.509776 20451 net.cpp:141] Setting up ReLU10
I0808 13:44:08.509783 20451 net.cpp:148] Top shape: 64 100 (6400)
I0808 13:44:08.509789 20451 net.cpp:156] Memory required for data: 696290816
I0808 13:44:08.509794 20451 layer_factory.hpp:77] Creating layer InnerProduct16
I0808 13:44:08.509806 20451 net.cpp:91] Creating Layer InnerProduct16
I0808 13:44:08.509814 20451 net.cpp:425] InnerProduct16 <- InnerProduct15
I0808 13:44:08.509824 20451 net.cpp:399] InnerProduct16 -> InnerProduct16
I0808 13:44:08.510012 20451 net.cpp:141] Setting up InnerProduct16
I0808 13:44:08.510020 20451 net.cpp:148] Top shape: 64 50 (3200)
I0808 13:44:08.510026 20451 net.cpp:156] Memory required for data: 696303616
I0808 13:44:08.510032 20451 net.cpp:484] Sharing parameters 'ip2_w' owned by layer 'InnerProduct2', param index 0
I0808 13:44:08.510040 20451 net.cpp:484] Sharing parameters 'ip2_b' owned by layer 'InnerProduct2', param index 1
I0808 13:44:08.510046 20451 layer_factory.hpp:77] Creating layer Concat3
I0808 13:44:08.510056 20451 net.cpp:91] Creating Layer Concat3
I0808 13:44:08.510061 20451 net.cpp:425] Concat3 <- InnerProduct14
I0808 13:44:08.510068 20451 net.cpp:425] Concat3 <- InnerProduct16
I0808 13:44:08.510077 20451 net.cpp:399] Concat3 -> Concat3
I0808 13:44:08.510108 20451 net.cpp:141] Setting up Concat3
I0808 13:44:08.510116 20451 net.cpp:148] Top shape: 64 100 (6400)
I0808 13:44:08.510121 20451 net.cpp:156] Memory required for data: 696329216
I0808 13:44:08.510128 20451 layer_factory.hpp:77] Creating layer InnerProduct17
I0808 13:44:08.510138 20451 net.cpp:91] Creating Layer InnerProduct17
I0808 13:44:08.510144 20451 net.cpp:425] InnerProduct17 <- Concat3
I0808 13:44:08.510154 20451 net.cpp:399] InnerProduct17 -> InnerProduct17
I0808 13:44:08.510334 20451 net.cpp:141] Setting up InnerProduct17
I0808 13:44:08.510341 20451 net.cpp:148] Top shape: 64 64 (4096)
I0808 13:44:08.510346 20451 net.cpp:156] Memory required for data: 696345600
I0808 13:44:08.510354 20451 net.cpp:484] Sharing parameters 'fc1_w' owned by layer 'InnerProduct5', param index 0
I0808 13:44:08.510360 20451 net.cpp:484] Sharing parameters 'fc1_b' owned by layer 'InnerProduct5', param index 1
I0808 13:44:08.510366 20451 layer_factory.hpp:77] Creating layer ReLU11
I0808 13:44:08.510373 20451 net.cpp:91] Creating Layer ReLU11
I0808 13:44:08.510380 20451 net.cpp:425] ReLU11 <- InnerProduct17
I0808 13:44:08.510390 20451 net.cpp:386] ReLU11 -> InnerProduct17 (in-place)
I0808 13:44:08.510399 20451 net.cpp:141] Setting up ReLU11
I0808 13:44:08.510407 20451 net.cpp:148] Top shape: 64 64 (4096)
I0808 13:44:08.510412 20451 net.cpp:156] Memory required for data: 696361984
I0808 13:44:08.510418 20451 layer_factory.hpp:77] Creating layer drop1
I0808 13:44:08.510426 20451 net.cpp:91] Creating Layer drop1
I0808 13:44:08.510432 20451 net.cpp:425] drop1 <- InnerProduct17
I0808 13:44:08.510444 20451 net.cpp:399] drop1 -> Dropout5
I0808 13:44:08.510489 20451 net.cpp:141] Setting up drop1
I0808 13:44:08.510498 20451 net.cpp:148] Top shape: 64 64 (4096)
I0808 13:44:08.510505 20451 net.cpp:156] Memory required for data: 696378368
I0808 13:44:08.510511 20451 layer_factory.hpp:77] Creating layer InnerProduct18
I0808 13:44:08.510519 20451 net.cpp:91] Creating Layer InnerProduct18
I0808 13:44:08.510525 20451 net.cpp:425] InnerProduct18 <- Dropout5
I0808 13:44:08.510537 20451 net.cpp:399] InnerProduct18 -> InnerProduct18
I0808 13:44:08.510684 20451 net.cpp:141] Setting up InnerProduct18
I0808 13:44:08.510691 20451 net.cpp:148] Top shape: 64 32 (2048)
I0808 13:44:08.510697 20451 net.cpp:156] Memory required for data: 696386560
I0808 13:44:08.510704 20451 net.cpp:484] Sharing parameters 'fc2_w' owned by layer 'InnerProduct6', param index 0
I0808 13:44:08.510710 20451 net.cpp:484] Sharing parameters 'fc2_b' owned by layer 'InnerProduct6', param index 1
I0808 13:44:08.510716 20451 layer_factory.hpp:77] Creating layer ReLU12
I0808 13:44:08.510726 20451 net.cpp:91] Creating Layer ReLU12
I0808 13:44:08.510732 20451 net.cpp:425] ReLU12 <- InnerProduct18
I0808 13:44:08.510740 20451 net.cpp:386] ReLU12 -> InnerProduct18 (in-place)
I0808 13:44:08.510749 20451 net.cpp:141] Setting up ReLU12
I0808 13:44:08.510757 20451 net.cpp:148] Top shape: 64 32 (2048)
I0808 13:44:08.510762 20451 net.cpp:156] Memory required for data: 696394752
I0808 13:44:08.510768 20451 layer_factory.hpp:77] Creating layer drop2
I0808 13:44:08.510778 20451 net.cpp:91] Creating Layer drop2
I0808 13:44:08.510784 20451 net.cpp:425] drop2 <- InnerProduct18
I0808 13:44:08.510793 20451 net.cpp:399] drop2 -> Dropout6
I0808 13:44:08.510845 20451 net.cpp:141] Setting up drop2
I0808 13:44:08.510854 20451 net.cpp:148] Top shape: 64 32 (2048)
I0808 13:44:08.510859 20451 net.cpp:156] Memory required for data: 696402944
I0808 13:44:08.510864 20451 layer_factory.hpp:77] Creating layer dt2
I0808 13:44:08.510874 20451 net.cpp:91] Creating Layer dt2
I0808 13:44:08.510879 20451 net.cpp:425] dt2 <- Dropout6
I0808 13:44:08.510892 20451 net.cpp:399] dt2 -> dt2
I0808 13:44:08.511019 20451 net.cpp:141] Setting up dt2
I0808 13:44:08.511026 20451 net.cpp:148] Top shape: 64 1 (64)
I0808 13:44:08.511032 20451 net.cpp:156] Memory required for data: 696403200
I0808 13:44:08.511039 20451 net.cpp:484] Sharing parameters 'fc3_w' owned by layer 'dt0', param index 0
I0808 13:44:08.511045 20451 net.cpp:484] Sharing parameters 'fc3_b' owned by layer 'dt0', param index 1
I0808 13:44:08.511051 20451 layer_factory.hpp:77] Creating layer Convolution19
I0808 13:44:08.511066 20451 net.cpp:91] Creating Layer Convolution19
I0808 13:44:08.511072 20451 net.cpp:425] Convolution19 <- p1_p1_0_split_3
I0808 13:44:08.511083 20451 net.cpp:399] Convolution19 -> Convolution19
I0808 13:44:08.511406 20451 net.cpp:141] Setting up Convolution19
I0808 13:44:08.511416 20451 net.cpp:148] Top shape: 64 20 60 60 (4608000)
I0808 13:44:08.511422 20451 net.cpp:156] Memory required for data: 714835200
I0808 13:44:08.511428 20451 net.cpp:484] Sharing parameters 'conv1_w' owned by layer 'Convolution1', param index 0
I0808 13:44:08.511435 20451 net.cpp:484] Sharing parameters 'conv1_b' owned by layer 'Convolution1', param index 1
I0808 13:44:08.511442 20451 layer_factory.hpp:77] Creating layer Pooling19
I0808 13:44:08.511451 20451 net.cpp:91] Creating Layer Pooling19
I0808 13:44:08.511456 20451 net.cpp:425] Pooling19 <- Convolution19
I0808 13:44:08.511466 20451 net.cpp:399] Pooling19 -> Pooling19
I0808 13:44:08.511513 20451 net.cpp:141] Setting up Pooling19
I0808 13:44:08.511521 20451 net.cpp:148] Top shape: 64 20 30 30 (1152000)
I0808 13:44:08.511528 20451 net.cpp:156] Memory required for data: 719443200
I0808 13:44:08.511533 20451 layer_factory.hpp:77] Creating layer Convolution20
I0808 13:44:08.511548 20451 net.cpp:91] Creating Layer Convolution20
I0808 13:44:08.511554 20451 net.cpp:425] Convolution20 <- Pooling19
I0808 13:44:08.511569 20451 net.cpp:399] Convolution20 -> Convolution20
I0808 13:44:08.512079 20451 net.cpp:141] Setting up Convolution20
I0808 13:44:08.512087 20451 net.cpp:148] Top shape: 64 50 26 26 (2163200)
I0808 13:44:08.512094 20451 net.cpp:156] Memory required for data: 728096000
I0808 13:44:08.512099 20451 net.cpp:484] Sharing parameters 'conv2_w' owned by layer 'Convolution2', param index 0
I0808 13:44:08.512106 20451 net.cpp:484] Sharing parameters 'conv2_b' owned by layer 'Convolution2', param index 1
I0808 13:44:08.512112 20451 layer_factory.hpp:77] Creating layer Pooling20
I0808 13:44:08.512156 20451 net.cpp:91] Creating Layer Pooling20
I0808 13:44:08.512162 20451 net.cpp:425] Pooling20 <- Convolution20
I0808 13:44:08.512172 20451 net.cpp:399] Pooling20 -> Pooling20
I0808 13:44:08.512220 20451 net.cpp:141] Setting up Pooling20
I0808 13:44:08.512228 20451 net.cpp:148] Top shape: 64 50 13 13 (540800)
I0808 13:44:08.512235 20451 net.cpp:156] Memory required for data: 730259200
I0808 13:44:08.512241 20451 layer_factory.hpp:77] Creating layer Convolution21
I0808 13:44:08.512256 20451 net.cpp:91] Creating Layer Convolution21
I0808 13:44:08.512262 20451 net.cpp:425] Convolution21 <- Pooling20
I0808 13:44:08.512274 20451 net.cpp:399] Convolution21 -> Convolution21
I0808 13:44:08.513064 20451 net.cpp:141] Setting up Convolution21
I0808 13:44:08.513075 20451 net.cpp:148] Top shape: 64 50 9 9 (259200)
I0808 13:44:08.513082 20451 net.cpp:156] Memory required for data: 731296000
I0808 13:44:08.513089 20451 net.cpp:484] Sharing parameters 'conv3_w' owned by layer 'Convolution3', param index 0
I0808 13:44:08.513098 20451 net.cpp:484] Sharing parameters 'conv3_b' owned by layer 'Convolution3', param index 1
I0808 13:44:08.513105 20451 layer_factory.hpp:77] Creating layer Pooling21
I0808 13:44:08.513129 20451 net.cpp:91] Creating Layer Pooling21
I0808 13:44:08.513139 20451 net.cpp:425] Pooling21 <- Convolution21
I0808 13:44:08.513150 20451 net.cpp:399] Pooling21 -> Pooling21
I0808 13:44:08.513202 20451 net.cpp:141] Setting up Pooling21
I0808 13:44:08.513211 20451 net.cpp:148] Top shape: 64 50 5 5 (80000)
I0808 13:44:08.513216 20451 net.cpp:156] Memory required for data: 731616000
I0808 13:44:08.513221 20451 layer_factory.hpp:77] Creating layer InnerProduct19
I0808 13:44:08.513232 20451 net.cpp:91] Creating Layer InnerProduct19
I0808 13:44:08.513239 20451 net.cpp:425] InnerProduct19 <- Pooling21
I0808 13:44:08.513250 20451 net.cpp:399] InnerProduct19 -> InnerProduct19
I0808 13:44:08.514366 20451 net.cpp:141] Setting up InnerProduct19
I0808 13:44:08.514376 20451 net.cpp:148] Top shape: 64 100 (6400)
I0808 13:44:08.514382 20451 net.cpp:156] Memory required for data: 731641600
I0808 13:44:08.514390 20451 net.cpp:484] Sharing parameters 'ip1_w' owned by layer 'InnerProduct1', param index 0
I0808 13:44:08.514400 20451 net.cpp:484] Sharing parameters 'ip1_b' owned by layer 'InnerProduct1', param index 1
I0808 13:44:08.514406 20451 layer_factory.hpp:77] Creating layer ReLU13
I0808 13:44:08.514417 20451 net.cpp:91] Creating Layer ReLU13
I0808 13:44:08.514426 20451 net.cpp:425] ReLU13 <- InnerProduct19
I0808 13:44:08.514436 20451 net.cpp:386] ReLU13 -> InnerProduct19 (in-place)
I0808 13:44:08.514448 20451 net.cpp:141] Setting up ReLU13
I0808 13:44:08.514459 20451 net.cpp:148] Top shape: 64 100 (6400)
I0808 13:44:08.514467 20451 net.cpp:156] Memory required for data: 731667200
I0808 13:44:08.514474 20451 layer_factory.hpp:77] Creating layer InnerProduct20
I0808 13:44:08.514489 20451 net.cpp:91] Creating Layer InnerProduct20
I0808 13:44:08.514497 20451 net.cpp:425] InnerProduct20 <- InnerProduct19
I0808 13:44:08.514513 20451 net.cpp:399] InnerProduct20 -> InnerProduct20
I0808 13:44:08.514684 20451 net.cpp:141] Setting up InnerProduct20
I0808 13:44:08.514693 20451 net.cpp:148] Top shape: 64 50 (3200)
I0808 13:44:08.514698 20451 net.cpp:156] Memory required for data: 731680000
I0808 13:44:08.514704 20451 net.cpp:484] Sharing parameters 'ip2_w' owned by layer 'InnerProduct2', param index 0
I0808 13:44:08.514711 20451 net.cpp:484] Sharing parameters 'ip2_b' owned by layer 'InnerProduct2', param index 1
I0808 13:44:08.514717 20451 layer_factory.hpp:77] Creating layer Convolution22
I0808 13:44:08.514729 20451 net.cpp:91] Creating Layer Convolution22
I0808 13:44:08.514735 20451 net.cpp:425] Convolution22 <- c23
I0808 13:44:08.514749 20451 net.cpp:399] Convolution22 -> Convolution22
I0808 13:44:08.515081 20451 net.cpp:141] Setting up Convolution22
I0808 13:44:08.515089 20451 net.cpp:148] Top shape: 64 20 60 60 (4608000)
I0808 13:44:08.515094 20451 net.cpp:156] Memory required for data: 750112000
I0808 13:44:08.515101 20451 net.cpp:484] Sharing parameters 'conv1_w' owned by layer 'Convolution1', param index 0
I0808 13:44:08.515108 20451 net.cpp:484] Sharing parameters 'conv1_b' owned by layer 'Convolution1', param index 1
I0808 13:44:08.515115 20451 layer_factory.hpp:77] Creating layer Pooling22
I0808 13:44:08.515122 20451 net.cpp:91] Creating Layer Pooling22
I0808 13:44:08.515128 20451 net.cpp:425] Pooling22 <- Convolution22
I0808 13:44:08.515139 20451 net.cpp:399] Pooling22 -> Pooling22
I0808 13:44:08.515187 20451 net.cpp:141] Setting up Pooling22
I0808 13:44:08.515193 20451 net.cpp:148] Top shape: 64 20 30 30 (1152000)
I0808 13:44:08.515199 20451 net.cpp:156] Memory required for data: 754720000
I0808 13:44:08.515204 20451 layer_factory.hpp:77] Creating layer Convolution23
I0808 13:44:08.515220 20451 net.cpp:91] Creating Layer Convolution23
I0808 13:44:08.515226 20451 net.cpp:425] Convolution23 <- Pooling22
I0808 13:44:08.515236 20451 net.cpp:399] Convolution23 -> Convolution23
I0808 13:44:08.515825 20451 net.cpp:141] Setting up Convolution23
I0808 13:44:08.515836 20451 net.cpp:148] Top shape: 64 50 26 26 (2163200)
I0808 13:44:08.515841 20451 net.cpp:156] Memory required for data: 763372800
I0808 13:44:08.515849 20451 net.cpp:484] Sharing parameters 'conv2_w' owned by layer 'Convolution2', param index 0
I0808 13:44:08.515871 20451 net.cpp:484] Sharing parameters 'conv2_b' owned by layer 'Convolution2', param index 1
I0808 13:44:08.515877 20451 layer_factory.hpp:77] Creating layer Pooling23
I0808 13:44:08.515887 20451 net.cpp:91] Creating Layer Pooling23
I0808 13:44:08.515893 20451 net.cpp:425] Pooling23 <- Convolution23
I0808 13:44:08.515903 20451 net.cpp:399] Pooling23 -> Pooling23
I0808 13:44:08.515959 20451 net.cpp:141] Setting up Pooling23
I0808 13:44:08.515967 20451 net.cpp:148] Top shape: 64 50 13 13 (540800)
I0808 13:44:08.515974 20451 net.cpp:156] Memory required for data: 765536000
I0808 13:44:08.515980 20451 layer_factory.hpp:77] Creating layer Convolution24
I0808 13:44:08.515995 20451 net.cpp:91] Creating Layer Convolution24
I0808 13:44:08.516001 20451 net.cpp:425] Convolution24 <- Pooling23
I0808 13:44:08.516016 20451 net.cpp:399] Convolution24 -> Convolution24
I0808 13:44:08.516914 20451 net.cpp:141] Setting up Convolution24
I0808 13:44:08.516924 20451 net.cpp:148] Top shape: 64 50 9 9 (259200)
I0808 13:44:08.516930 20451 net.cpp:156] Memory required for data: 766572800
I0808 13:44:08.516937 20451 net.cpp:484] Sharing parameters 'conv3_w' owned by layer 'Convolution3', param index 0
I0808 13:44:08.516944 20451 net.cpp:484] Sharing parameters 'conv3_b' owned by layer 'Convolution3', param index 1
I0808 13:44:08.516952 20451 layer_factory.hpp:77] Creating layer Pooling24
I0808 13:44:08.516960 20451 net.cpp:91] Creating Layer Pooling24
I0808 13:44:08.516969 20451 net.cpp:425] Pooling24 <- Convolution24
I0808 13:44:08.516979 20451 net.cpp:399] Pooling24 -> Pooling24
I0808 13:44:08.517035 20451 net.cpp:141] Setting up Pooling24
I0808 13:44:08.517043 20451 net.cpp:148] Top shape: 64 50 5 5 (80000)
I0808 13:44:08.517050 20451 net.cpp:156] Memory required for data: 766892800
I0808 13:44:08.517055 20451 layer_factory.hpp:77] Creating layer InnerProduct21
I0808 13:44:08.517066 20451 net.cpp:91] Creating Layer InnerProduct21
I0808 13:44:08.517072 20451 net.cpp:425] InnerProduct21 <- Pooling24
I0808 13:44:08.517086 20451 net.cpp:399] InnerProduct21 -> InnerProduct21
I0808 13:44:08.519049 20451 net.cpp:141] Setting up InnerProduct21
I0808 13:44:08.519065 20451 net.cpp:148] Top shape: 64 100 (6400)
I0808 13:44:08.519073 20451 net.cpp:156] Memory required for data: 766918400
I0808 13:44:08.519080 20451 net.cpp:484] Sharing parameters 'ip1_w' owned by layer 'InnerProduct1', param index 0
I0808 13:44:08.519088 20451 net.cpp:484] Sharing parameters 'ip1_b' owned by layer 'InnerProduct1', param index 1
I0808 13:44:08.519095 20451 layer_factory.hpp:77] Creating layer ReLU14
I0808 13:44:08.519105 20451 net.cpp:91] Creating Layer ReLU14
I0808 13:44:08.519112 20451 net.cpp:425] ReLU14 <- InnerProduct21
I0808 13:44:08.519122 20451 net.cpp:386] ReLU14 -> InnerProduct21 (in-place)
I0808 13:44:08.519134 20451 net.cpp:141] Setting up ReLU14
I0808 13:44:08.519142 20451 net.cpp:148] Top shape: 64 100 (6400)
I0808 13:44:08.519148 20451 net.cpp:156] Memory required for data: 766944000
I0808 13:44:08.519155 20451 layer_factory.hpp:77] Creating layer InnerProduct22
I0808 13:44:08.519165 20451 net.cpp:91] Creating Layer InnerProduct22
I0808 13:44:08.519172 20451 net.cpp:425] InnerProduct22 <- InnerProduct21
I0808 13:44:08.519197 20451 net.cpp:399] InnerProduct22 -> InnerProduct22
I0808 13:44:08.519402 20451 net.cpp:141] Setting up InnerProduct22
I0808 13:44:08.519412 20451 net.cpp:148] Top shape: 64 50 (3200)
I0808 13:44:08.519418 20451 net.cpp:156] Memory required for data: 766956800
I0808 13:44:08.519424 20451 net.cpp:484] Sharing parameters 'ip2_w' owned by layer 'InnerProduct2', param index 0
I0808 13:44:08.519431 20451 net.cpp:484] Sharing parameters 'ip2_b' owned by layer 'InnerProduct2', param index 1
I0808 13:44:08.519438 20451 layer_factory.hpp:77] Creating layer Concat4
I0808 13:44:08.519448 20451 net.cpp:91] Creating Layer Concat4
I0808 13:44:08.519455 20451 net.cpp:425] Concat4 <- InnerProduct20
I0808 13:44:08.519464 20451 net.cpp:425] Concat4 <- InnerProduct22
I0808 13:44:08.519490 20451 net.cpp:399] Concat4 -> Concat4
I0808 13:44:08.519521 20451 net.cpp:141] Setting up Concat4
I0808 13:44:08.519531 20451 net.cpp:148] Top shape: 64 100 (6400)
I0808 13:44:08.519536 20451 net.cpp:156] Memory required for data: 766982400
I0808 13:44:08.519542 20451 layer_factory.hpp:77] Creating layer InnerProduct23
I0808 13:44:08.519558 20451 net.cpp:91] Creating Layer InnerProduct23
I0808 13:44:08.519567 20451 net.cpp:425] InnerProduct23 <- Concat4
I0808 13:44:08.519587 20451 net.cpp:399] InnerProduct23 -> InnerProduct23
I0808 13:44:08.519798 20451 net.cpp:141] Setting up InnerProduct23
I0808 13:44:08.519807 20451 net.cpp:148] Top shape: 64 64 (4096)
I0808 13:44:08.519814 20451 net.cpp:156] Memory required for data: 766998784
I0808 13:44:08.519820 20451 net.cpp:484] Sharing parameters 'fc1_w' owned by layer 'InnerProduct5', param index 0
I0808 13:44:08.519829 20451 net.cpp:484] Sharing parameters 'fc1_b' owned by layer 'InnerProduct5', param index 1
I0808 13:44:08.519837 20451 layer_factory.hpp:77] Creating layer ReLU15
I0808 13:44:08.519845 20451 net.cpp:91] Creating Layer ReLU15
I0808 13:44:08.519852 20451 net.cpp:425] ReLU15 <- InnerProduct23
I0808 13:44:08.519861 20451 net.cpp:386] ReLU15 -> InnerProduct23 (in-place)
I0808 13:44:08.519872 20451 net.cpp:141] Setting up ReLU15
I0808 13:44:08.519881 20451 net.cpp:148] Top shape: 64 64 (4096)
I0808 13:44:08.519887 20451 net.cpp:156] Memory required for data: 767015168
I0808 13:44:08.519893 20451 layer_factory.hpp:77] Creating layer drop1
I0808 13:44:08.519906 20451 net.cpp:91] Creating Layer drop1
I0808 13:44:08.519912 20451 net.cpp:425] drop1 <- InnerProduct23
I0808 13:44:08.519922 20451 net.cpp:399] drop1 -> Dropout7
I0808 13:44:08.519976 20451 net.cpp:141] Setting up drop1
I0808 13:44:08.519984 20451 net.cpp:148] Top shape: 64 64 (4096)
I0808 13:44:08.519990 20451 net.cpp:156] Memory required for data: 767031552
I0808 13:44:08.519996 20451 layer_factory.hpp:77] Creating layer InnerProduct24
I0808 13:44:08.520009 20451 net.cpp:91] Creating Layer InnerProduct24
I0808 13:44:08.520015 20451 net.cpp:425] InnerProduct24 <- Dropout7
I0808 13:44:08.520026 20451 net.cpp:399] InnerProduct24 -> InnerProduct24
I0808 13:44:08.520192 20451 net.cpp:141] Setting up InnerProduct24
I0808 13:44:08.520201 20451 net.cpp:148] Top shape: 64 32 (2048)
I0808 13:44:08.520207 20451 net.cpp:156] Memory required for data: 767039744
I0808 13:44:08.520215 20451 net.cpp:484] Sharing parameters 'fc2_w' owned by layer 'InnerProduct6', param index 0
I0808 13:44:08.520222 20451 net.cpp:484] Sharing parameters 'fc2_b' owned by layer 'InnerProduct6', param index 1
I0808 13:44:08.520229 20451 layer_factory.hpp:77] Creating layer ReLU16
I0808 13:44:08.520237 20451 net.cpp:91] Creating Layer ReLU16
I0808 13:44:08.520244 20451 net.cpp:425] ReLU16 <- InnerProduct24
I0808 13:44:08.520256 20451 net.cpp:386] ReLU16 -> InnerProduct24 (in-place)
I0808 13:44:08.520267 20451 net.cpp:141] Setting up ReLU16
I0808 13:44:08.520274 20451 net.cpp:148] Top shape: 64 32 (2048)
I0808 13:44:08.520280 20451 net.cpp:156] Memory required for data: 767047936
I0808 13:44:08.520287 20451 layer_factory.hpp:77] Creating layer drop2
I0808 13:44:08.520297 20451 net.cpp:91] Creating Layer drop2
I0808 13:44:08.520303 20451 net.cpp:425] drop2 <- InnerProduct24
I0808 13:44:08.520318 20451 net.cpp:399] drop2 -> Dropout8
I0808 13:44:08.520368 20451 net.cpp:141] Setting up drop2
I0808 13:44:08.520376 20451 net.cpp:148] Top shape: 64 32 (2048)
I0808 13:44:08.520382 20451 net.cpp:156] Memory required for data: 767056128
I0808 13:44:08.520390 20451 layer_factory.hpp:77] Creating layer dt3
I0808 13:44:08.520398 20451 net.cpp:91] Creating Layer dt3
I0808 13:44:08.520406 20451 net.cpp:425] dt3 <- Dropout8
I0808 13:44:08.520416 20451 net.cpp:399] dt3 -> dt3
I0808 13:44:08.520561 20451 net.cpp:141] Setting up dt3
I0808 13:44:08.520570 20451 net.cpp:148] Top shape: 64 1 (64)
I0808 13:44:08.520576 20451 net.cpp:156] Memory required for data: 767056384
I0808 13:44:08.520583 20451 net.cpp:484] Sharing parameters 'fc3_w' owned by layer 'dt0', param index 0
I0808 13:44:08.520602 20451 net.cpp:484] Sharing parameters 'fc3_b' owned by layer 'dt0', param index 1
I0808 13:44:08.520609 20451 layer_factory.hpp:77] Creating layer Convolution25
I0808 13:44:08.520627 20451 net.cpp:91] Creating Layer Convolution25
I0808 13:44:08.520634 20451 net.cpp:425] Convolution25 <- p1_p1_0_split_4
I0808 13:44:08.520647 20451 net.cpp:399] Convolution25 -> Convolution25
I0808 13:44:08.521008 20451 net.cpp:141] Setting up Convolution25
I0808 13:44:08.521018 20451 net.cpp:148] Top shape: 64 20 60 60 (4608000)
I0808 13:44:08.521023 20451 net.cpp:156] Memory required for data: 785488384
I0808 13:44:08.521030 20451 net.cpp:484] Sharing parameters 'conv1_w' owned by layer 'Convolution1', param index 0
I0808 13:44:08.521039 20451 net.cpp:484] Sharing parameters 'conv1_b' owned by layer 'Convolution1', param index 1
I0808 13:44:08.521044 20451 layer_factory.hpp:77] Creating layer Pooling25
I0808 13:44:08.521057 20451 net.cpp:91] Creating Layer Pooling25
I0808 13:44:08.521064 20451 net.cpp:425] Pooling25 <- Convolution25
I0808 13:44:08.521075 20451 net.cpp:399] Pooling25 -> Pooling25
I0808 13:44:08.521129 20451 net.cpp:141] Setting up Pooling25
I0808 13:44:08.521138 20451 net.cpp:148] Top shape: 64 20 30 30 (1152000)
I0808 13:44:08.521144 20451 net.cpp:156] Memory required for data: 790096384
I0808 13:44:08.521150 20451 layer_factory.hpp:77] Creating layer Convolution26
I0808 13:44:08.521165 20451 net.cpp:91] Creating Layer Convolution26
I0808 13:44:08.521173 20451 net.cpp:425] Convolution26 <- Pooling25
I0808 13:44:08.521184 20451 net.cpp:399] Convolution26 -> Convolution26
I0808 13:44:08.521762 20451 net.cpp:141] Setting up Convolution26
I0808 13:44:08.521771 20451 net.cpp:148] Top shape: 64 50 26 26 (2163200)
I0808 13:44:08.521777 20451 net.cpp:156] Memory required for data: 798749184
I0808 13:44:08.521785 20451 net.cpp:484] Sharing parameters 'conv2_w' owned by layer 'Convolution2', param index 0
I0808 13:44:08.521792 20451 net.cpp:484] Sharing parameters 'conv2_b' owned by layer 'Convolution2', param index 1
I0808 13:44:08.521800 20451 layer_factory.hpp:77] Creating layer Pooling26
I0808 13:44:08.521811 20451 net.cpp:91] Creating Layer Pooling26
I0808 13:44:08.521818 20451 net.cpp:425] Pooling26 <- Convolution26
I0808 13:44:08.521828 20451 net.cpp:399] Pooling26 -> Pooling26
I0808 13:44:08.521881 20451 net.cpp:141] Setting up Pooling26
I0808 13:44:08.521890 20451 net.cpp:148] Top shape: 64 50 13 13 (540800)
I0808 13:44:08.521896 20451 net.cpp:156] Memory required for data: 800912384
I0808 13:44:08.521903 20451 layer_factory.hpp:77] Creating layer Convolution27
I0808 13:44:08.521917 20451 net.cpp:91] Creating Layer Convolution27
I0808 13:44:08.521924 20451 net.cpp:425] Convolution27 <- Pooling26
I0808 13:44:08.521939 20451 net.cpp:399] Convolution27 -> Convolution27
I0808 13:44:08.523602 20451 net.cpp:141] Setting up Convolution27
I0808 13:44:08.523619 20451 net.cpp:148] Top shape: 64 50 9 9 (259200)
I0808 13:44:08.523627 20451 net.cpp:156] Memory required for data: 801949184
I0808 13:44:08.523636 20451 net.cpp:484] Sharing parameters 'conv3_w' owned by layer 'Convolution3', param index 0
I0808 13:44:08.523646 20451 net.cpp:484] Sharing parameters 'conv3_b' owned by layer 'Convolution3', param index 1
I0808 13:44:08.523654 20451 layer_factory.hpp:77] Creating layer Pooling27
I0808 13:44:08.523668 20451 net.cpp:91] Creating Layer Pooling27
I0808 13:44:08.523676 20451 net.cpp:425] Pooling27 <- Convolution27
I0808 13:44:08.523692 20451 net.cpp:399] Pooling27 -> Pooling27
I0808 13:44:08.523757 20451 net.cpp:141] Setting up Pooling27
I0808 13:44:08.523768 20451 net.cpp:148] Top shape: 64 50 5 5 (80000)
I0808 13:44:08.523775 20451 net.cpp:156] Memory required for data: 802269184
I0808 13:44:08.523782 20451 layer_factory.hpp:77] Creating layer InnerProduct25
I0808 13:44:08.523797 20451 net.cpp:91] Creating Layer InnerProduct25
I0808 13:44:08.523805 20451 net.cpp:425] InnerProduct25 <- Pooling27
I0808 13:44:08.523818 20451 net.cpp:399] InnerProduct25 -> InnerProduct25
I0808 13:44:08.525169 20451 net.cpp:141] Setting up InnerProduct25
I0808 13:44:08.525185 20451 net.cpp:148] Top shape: 64 100 (6400)
I0808 13:44:08.525192 20451 net.cpp:156] Memory required for data: 802294784
I0808 13:44:08.525202 20451 net.cpp:484] Sharing parameters 'ip1_w' owned by layer 'InnerProduct1', param index 0
I0808 13:44:08.525215 20451 net.cpp:484] Sharing parameters 'ip1_b' owned by layer 'InnerProduct1', param index 1
I0808 13:44:08.525224 20451 layer_factory.hpp:77] Creating layer ReLU17
I0808 13:44:08.525243 20451 net.cpp:91] Creating Layer ReLU17
I0808 13:44:08.525250 20451 net.cpp:425] ReLU17 <- InnerProduct25
I0808 13:44:08.525261 20451 net.cpp:386] ReLU17 -> InnerProduct25 (in-place)
I0808 13:44:08.525275 20451 net.cpp:141] Setting up ReLU17
I0808 13:44:08.525285 20451 net.cpp:148] Top shape: 64 100 (6400)
I0808 13:44:08.525291 20451 net.cpp:156] Memory required for data: 802320384
I0808 13:44:08.525298 20451 layer_factory.hpp:77] Creating layer InnerProduct26
I0808 13:44:08.525315 20451 net.cpp:91] Creating Layer InnerProduct26
I0808 13:44:08.525324 20451 net.cpp:425] InnerProduct26 <- InnerProduct25
I0808 13:44:08.525337 20451 net.cpp:399] InnerProduct26 -> InnerProduct26
I0808 13:44:08.525568 20451 net.cpp:141] Setting up InnerProduct26
I0808 13:44:08.525581 20451 net.cpp:148] Top shape: 64 50 (3200)
I0808 13:44:08.525590 20451 net.cpp:156] Memory required for data: 802333184
I0808 13:44:08.525599 20451 net.cpp:484] Sharing parameters 'ip2_w' owned by layer 'InnerProduct2', param index 0
I0808 13:44:08.525610 20451 net.cpp:484] Sharing parameters 'ip2_b' owned by layer 'InnerProduct2', param index 1
I0808 13:44:08.525619 20451 layer_factory.hpp:77] Creating layer Convolution28
I0808 13:44:08.525640 20451 net.cpp:91] Creating Layer Convolution28
I0808 13:44:08.525650 20451 net.cpp:425] Convolution28 <- c24
I0808 13:44:08.525668 20451 net.cpp:399] Convolution28 -> Convolution28
I0808 13:44:08.526108 20451 net.cpp:141] Setting up Convolution28
I0808 13:44:08.526118 20451 net.cpp:148] Top shape: 64 20 60 60 (4608000)
I0808 13:44:08.526126 20451 net.cpp:156] Memory required for data: 820765184
I0808 13:44:08.526134 20451 net.cpp:484] Sharing parameters 'conv1_w' owned by layer 'Convolution1', param index 0
I0808 13:44:08.526144 20451 net.cpp:484] Sharing parameters 'conv1_b' owned by layer 'Convolution1', param index 1
I0808 13:44:08.526154 20451 layer_factory.hpp:77] Creating layer Pooling28
I0808 13:44:08.526165 20451 net.cpp:91] Creating Layer Pooling28
I0808 13:44:08.526175 20451 net.cpp:425] Pooling28 <- Convolution28
I0808 13:44:08.526191 20451 net.cpp:399] Pooling28 -> Pooling28
I0808 13:44:08.526263 20451 net.cpp:141] Setting up Pooling28
I0808 13:44:08.526276 20451 net.cpp:148] Top shape: 64 20 30 30 (1152000)
I0808 13:44:08.526284 20451 net.cpp:156] Memory required for data: 825373184
I0808 13:44:08.526293 20451 layer_factory.hpp:77] Creating layer Convolution29
I0808 13:44:08.526310 20451 net.cpp:91] Creating Layer Convolution29
I0808 13:44:08.526319 20451 net.cpp:425] Convolution29 <- Pooling28
I0808 13:44:08.526336 20451 net.cpp:399] Convolution29 -> Convolution29
I0808 13:44:08.527020 20451 net.cpp:141] Setting up Convolution29
I0808 13:44:08.527034 20451 net.cpp:148] Top shape: 64 50 26 26 (2163200)
I0808 13:44:08.527042 20451 net.cpp:156] Memory required for data: 834025984
I0808 13:44:08.527052 20451 net.cpp:484] Sharing parameters 'conv2_w' owned by layer 'Convolution2', param index 0
I0808 13:44:08.527062 20451 net.cpp:484] Sharing parameters 'conv2_b' owned by layer 'Convolution2', param index 1
I0808 13:44:08.527072 20451 layer_factory.hpp:77] Creating layer Pooling29
I0808 13:44:08.527086 20451 net.cpp:91] Creating Layer Pooling29
I0808 13:44:08.527096 20451 net.cpp:425] Pooling29 <- Convolution29
I0808 13:44:08.527109 20451 net.cpp:399] Pooling29 -> Pooling29
I0808 13:44:08.527182 20451 net.cpp:141] Setting up Pooling29
I0808 13:44:08.527194 20451 net.cpp:148] Top shape: 64 50 13 13 (540800)
I0808 13:44:08.527204 20451 net.cpp:156] Memory required for data: 836189184
I0808 13:44:08.527235 20451 layer_factory.hpp:77] Creating layer Convolution30
I0808 13:44:08.527254 20451 net.cpp:91] Creating Layer Convolution30
I0808 13:44:08.527263 20451 net.cpp:425] Convolution30 <- Pooling29
I0808 13:44:08.527307 20451 net.cpp:399] Convolution30 -> Convolution30
I0808 13:44:08.528180 20451 net.cpp:141] Setting up Convolution30
I0808 13:44:08.528192 20451 net.cpp:148] Top shape: 64 50 9 9 (259200)
I0808 13:44:08.528198 20451 net.cpp:156] Memory required for data: 837225984
I0808 13:44:08.528204 20451 net.cpp:484] Sharing parameters 'conv3_w' owned by layer 'Convolution3', param index 0
I0808 13:44:08.528213 20451 net.cpp:484] Sharing parameters 'conv3_b' owned by layer 'Convolution3', param index 1
I0808 13:44:08.528218 20451 layer_factory.hpp:77] Creating layer Pooling30
I0808 13:44:08.528228 20451 net.cpp:91] Creating Layer Pooling30
I0808 13:44:08.528234 20451 net.cpp:425] Pooling30 <- Convolution30
I0808 13:44:08.528246 20451 net.cpp:399] Pooling30 -> Pooling30
I0808 13:44:08.528295 20451 net.cpp:141] Setting up Pooling30
I0808 13:44:08.528303 20451 net.cpp:148] Top shape: 64 50 5 5 (80000)
I0808 13:44:08.528309 20451 net.cpp:156] Memory required for data: 837545984
I0808 13:44:08.528314 20451 layer_factory.hpp:77] Creating layer InnerProduct27
I0808 13:44:08.528326 20451 net.cpp:91] Creating Layer InnerProduct27
I0808 13:44:08.528333 20451 net.cpp:425] InnerProduct27 <- Pooling30
I0808 13:44:08.528347 20451 net.cpp:399] InnerProduct27 -> InnerProduct27
I0808 13:44:08.530311 20451 net.cpp:141] Setting up InnerProduct27
I0808 13:44:08.530338 20451 net.cpp:148] Top shape: 64 100 (6400)
I0808 13:44:08.530344 20451 net.cpp:156] Memory required for data: 837571584
I0808 13:44:08.530354 20451 net.cpp:484] Sharing parameters 'ip1_w' owned by layer 'InnerProduct1', param index 0
I0808 13:44:08.530362 20451 net.cpp:484] Sharing parameters 'ip1_b' owned by layer 'InnerProduct1', param index 1
I0808 13:44:08.530369 20451 layer_factory.hpp:77] Creating layer ReLU18
I0808 13:44:08.530381 20451 net.cpp:91] Creating Layer ReLU18
I0808 13:44:08.530393 20451 net.cpp:425] ReLU18 <- InnerProduct27
I0808 13:44:08.530408 20451 net.cpp:386] ReLU18 -> InnerProduct27 (in-place)
I0808 13:44:08.530423 20451 net.cpp:141] Setting up ReLU18
I0808 13:44:08.530436 20451 net.cpp:148] Top shape: 64 100 (6400)
I0808 13:44:08.530443 20451 net.cpp:156] Memory required for data: 837597184
I0808 13:44:08.530450 20451 layer_factory.hpp:77] Creating layer InnerProduct28
I0808 13:44:08.530465 20451 net.cpp:91] Creating Layer InnerProduct28
I0808 13:44:08.530473 20451 net.cpp:425] InnerProduct28 <- InnerProduct27
I0808 13:44:08.530488 20451 net.cpp:399] InnerProduct28 -> InnerProduct28
I0808 13:44:08.530714 20451 net.cpp:141] Setting up InnerProduct28
I0808 13:44:08.530727 20451 net.cpp:148] Top shape: 64 50 (3200)
I0808 13:44:08.530735 20451 net.cpp:156] Memory required for data: 837609984
I0808 13:44:08.530745 20451 net.cpp:484] Sharing parameters 'ip2_w' owned by layer 'InnerProduct2', param index 0
I0808 13:44:08.530753 20451 net.cpp:484] Sharing parameters 'ip2_b' owned by layer 'InnerProduct2', param index 1
I0808 13:44:08.530761 20451 layer_factory.hpp:77] Creating layer Concat5
I0808 13:44:08.530771 20451 net.cpp:91] Creating Layer Concat5
I0808 13:44:08.530778 20451 net.cpp:425] Concat5 <- InnerProduct26
I0808 13:44:08.530786 20451 net.cpp:425] Concat5 <- InnerProduct28
I0808 13:44:08.530799 20451 net.cpp:399] Concat5 -> Concat5
I0808 13:44:08.530832 20451 net.cpp:141] Setting up Concat5
I0808 13:44:08.530843 20451 net.cpp:148] Top shape: 64 100 (6400)
I0808 13:44:08.530849 20451 net.cpp:156] Memory required for data: 837635584
I0808 13:44:08.530854 20451 layer_factory.hpp:77] Creating layer InnerProduct29
I0808 13:44:08.530864 20451 net.cpp:91] Creating Layer InnerProduct29
I0808 13:44:08.530870 20451 net.cpp:425] InnerProduct29 <- Concat5
I0808 13:44:08.530882 20451 net.cpp:399] InnerProduct29 -> InnerProduct29
I0808 13:44:08.531071 20451 net.cpp:141] Setting up InnerProduct29
I0808 13:44:08.531080 20451 net.cpp:148] Top shape: 64 64 (4096)
I0808 13:44:08.531101 20451 net.cpp:156] Memory required for data: 837651968
I0808 13:44:08.531108 20451 net.cpp:484] Sharing parameters 'fc1_w' owned by layer 'InnerProduct5', param index 0
I0808 13:44:08.531116 20451 net.cpp:484] Sharing parameters 'fc1_b' owned by layer 'InnerProduct5', param index 1
I0808 13:44:08.531122 20451 layer_factory.hpp:77] Creating layer ReLU19
I0808 13:44:08.531132 20451 net.cpp:91] Creating Layer ReLU19
I0808 13:44:08.531138 20451 net.cpp:425] ReLU19 <- InnerProduct29
I0808 13:44:08.531147 20451 net.cpp:386] ReLU19 -> InnerProduct29 (in-place)
I0808 13:44:08.531157 20451 net.cpp:141] Setting up ReLU19
I0808 13:44:08.531164 20451 net.cpp:148] Top shape: 64 64 (4096)
I0808 13:44:08.531170 20451 net.cpp:156] Memory required for data: 837668352
I0808 13:44:08.531175 20451 layer_factory.hpp:77] Creating layer drop1
I0808 13:44:08.531188 20451 net.cpp:91] Creating Layer drop1
I0808 13:44:08.531193 20451 net.cpp:425] drop1 <- InnerProduct29
I0808 13:44:08.531203 20451 net.cpp:399] drop1 -> Dropout9
I0808 13:44:08.531252 20451 net.cpp:141] Setting up drop1
I0808 13:44:08.531260 20451 net.cpp:148] Top shape: 64 64 (4096)
I0808 13:44:08.531265 20451 net.cpp:156] Memory required for data: 837684736
I0808 13:44:08.531277 20451 layer_factory.hpp:77] Creating layer InnerProduct30
I0808 13:44:08.531287 20451 net.cpp:91] Creating Layer InnerProduct30
I0808 13:44:08.531292 20451 net.cpp:425] InnerProduct30 <- Dropout9
I0808 13:44:08.531304 20451 net.cpp:399] InnerProduct30 -> InnerProduct30
I0808 13:44:08.531456 20451 net.cpp:141] Setting up InnerProduct30
I0808 13:44:08.531464 20451 net.cpp:148] Top shape: 64 32 (2048)
I0808 13:44:08.531469 20451 net.cpp:156] Memory required for data: 837692928
I0808 13:44:08.531476 20451 net.cpp:484] Sharing parameters 'fc2_w' owned by layer 'InnerProduct6', param index 0
I0808 13:44:08.531483 20451 net.cpp:484] Sharing parameters 'fc2_b' owned by layer 'InnerProduct6', param index 1
I0808 13:44:08.531489 20451 layer_factory.hpp:77] Creating layer ReLU20
I0808 13:44:08.531497 20451 net.cpp:91] Creating Layer ReLU20
I0808 13:44:08.531502 20451 net.cpp:425] ReLU20 <- InnerProduct30
I0808 13:44:08.531513 20451 net.cpp:386] ReLU20 -> InnerProduct30 (in-place)
I0808 13:44:08.531523 20451 net.cpp:141] Setting up ReLU20
I0808 13:44:08.531530 20451 net.cpp:148] Top shape: 64 32 (2048)
I0808 13:44:08.531536 20451 net.cpp:156] Memory required for data: 837701120
I0808 13:44:08.531541 20451 layer_factory.hpp:77] Creating layer drop2
I0808 13:44:08.531550 20451 net.cpp:91] Creating Layer drop2
I0808 13:44:08.531558 20451 net.cpp:425] drop2 <- InnerProduct30
I0808 13:44:08.531566 20451 net.cpp:399] drop2 -> Dropout10
I0808 13:44:08.531612 20451 net.cpp:141] Setting up drop2
I0808 13:44:08.531620 20451 net.cpp:148] Top shape: 64 32 (2048)
I0808 13:44:08.531625 20451 net.cpp:156] Memory required for data: 837709312
I0808 13:44:08.531631 20451 layer_factory.hpp:77] Creating layer dt4
I0808 13:44:08.531642 20451 net.cpp:91] Creating Layer dt4
I0808 13:44:08.531648 20451 net.cpp:425] dt4 <- Dropout10
I0808 13:44:08.531658 20451 net.cpp:399] dt4 -> dt4
I0808 13:44:08.531786 20451 net.cpp:141] Setting up dt4
I0808 13:44:08.531795 20451 net.cpp:148] Top shape: 64 1 (64)
I0808 13:44:08.531800 20451 net.cpp:156] Memory required for data: 837709568
I0808 13:44:08.531847 20451 net.cpp:484] Sharing parameters 'fc3_w' owned by layer 'dt0', param index 0
I0808 13:44:08.531857 20451 net.cpp:484] Sharing parameters 'fc3_b' owned by layer 'dt0', param index 1
I0808 13:44:08.531862 20451 layer_factory.hpp:77] Creating layer Convolution31
I0808 13:44:08.531877 20451 net.cpp:91] Creating Layer Convolution31
I0808 13:44:08.531884 20451 net.cpp:425] Convolution31 <- p1_p1_0_split_5
I0808 13:44:08.531895 20451 net.cpp:399] Convolution31 -> Convolution31
I0808 13:44:08.532230 20451 net.cpp:141] Setting up Convolution31
I0808 13:44:08.532239 20451 net.cpp:148] Top shape: 64 20 60 60 (4608000)
I0808 13:44:08.532245 20451 net.cpp:156] Memory required for data: 856141568
I0808 13:44:08.532251 20451 net.cpp:484] Sharing parameters 'conv1_w' owned by layer 'Convolution1', param index 0
I0808 13:44:08.532269 20451 net.cpp:484] Sharing parameters 'conv1_b' owned by layer 'Convolution1', param index 1
I0808 13:44:08.532275 20451 layer_factory.hpp:77] Creating layer Pooling31
I0808 13:44:08.532286 20451 net.cpp:91] Creating Layer Pooling31
I0808 13:44:08.532292 20451 net.cpp:425] Pooling31 <- Convolution31
I0808 13:44:08.532302 20451 net.cpp:399] Pooling31 -> Pooling31
I0808 13:44:08.532353 20451 net.cpp:141] Setting up Pooling31
I0808 13:44:08.532361 20451 net.cpp:148] Top shape: 64 20 30 30 (1152000)
I0808 13:44:08.532367 20451 net.cpp:156] Memory required for data: 860749568
I0808 13:44:08.532372 20451 layer_factory.hpp:77] Creating layer Convolution32
I0808 13:44:08.532385 20451 net.cpp:91] Creating Layer Convolution32
I0808 13:44:08.532392 20451 net.cpp:425] Convolution32 <- Pooling31
I0808 13:44:08.532404 20451 net.cpp:399] Convolution32 -> Convolution32
I0808 13:44:08.532930 20451 net.cpp:141] Setting up Convolution32
I0808 13:44:08.532938 20451 net.cpp:148] Top shape: 64 50 26 26 (2163200)
I0808 13:44:08.532944 20451 net.cpp:156] Memory required for data: 869402368
I0808 13:44:08.532950 20451 net.cpp:484] Sharing parameters 'conv2_w' owned by layer 'Convolution2', param index 0
I0808 13:44:08.532958 20451 net.cpp:484] Sharing parameters 'conv2_b' owned by layer 'Convolution2', param index 1
I0808 13:44:08.532963 20451 layer_factory.hpp:77] Creating layer Pooling32
I0808 13:44:08.532971 20451 net.cpp:91] Creating Layer Pooling32
I0808 13:44:08.532977 20451 net.cpp:425] Pooling32 <- Convolution32
I0808 13:44:08.532989 20451 net.cpp:399] Pooling32 -> Pooling32
I0808 13:44:08.533035 20451 net.cpp:141] Setting up Pooling32
I0808 13:44:08.533043 20451 net.cpp:148] Top shape: 64 50 13 13 (540800)
I0808 13:44:08.533048 20451 net.cpp:156] Memory required for data: 871565568
I0808 13:44:08.533054 20451 layer_factory.hpp:77] Creating layer Convolution33
I0808 13:44:08.533069 20451 net.cpp:91] Creating Layer Convolution33
I0808 13:44:08.533076 20451 net.cpp:425] Convolution33 <- Pooling32
I0808 13:44:08.533085 20451 net.cpp:399] Convolution33 -> Convolution33
I0808 13:44:08.533910 20451 net.cpp:141] Setting up Convolution33
I0808 13:44:08.533920 20451 net.cpp:148] Top shape: 64 50 9 9 (259200)
I0808 13:44:08.533926 20451 net.cpp:156] Memory required for data: 872602368
I0808 13:44:08.533931 20451 net.cpp:484] Sharing parameters 'conv3_w' owned by layer 'Convolution3', param index 0
I0808 13:44:08.533938 20451 net.cpp:484] Sharing parameters 'conv3_b' owned by layer 'Convolution3', param index 1
I0808 13:44:08.533946 20451 layer_factory.hpp:77] Creating layer Pooling33
I0808 13:44:08.533953 20451 net.cpp:91] Creating Layer Pooling33
I0808 13:44:08.533959 20451 net.cpp:425] Pooling33 <- Convolution33
I0808 13:44:08.533968 20451 net.cpp:399] Pooling33 -> Pooling33
I0808 13:44:08.534019 20451 net.cpp:141] Setting up Pooling33
I0808 13:44:08.534027 20451 net.cpp:148] Top shape: 64 50 5 5 (80000)
I0808 13:44:08.534034 20451 net.cpp:156] Memory required for data: 872922368
I0808 13:44:08.534039 20451 layer_factory.hpp:77] Creating layer InnerProduct31
I0808 13:44:08.534047 20451 net.cpp:91] Creating Layer InnerProduct31
I0808 13:44:08.534054 20451 net.cpp:425] InnerProduct31 <- Pooling33
I0808 13:44:08.534065 20451 net.cpp:399] InnerProduct31 -> InnerProduct31
I0808 13:44:08.535193 20451 net.cpp:141] Setting up InnerProduct31
I0808 13:44:08.535202 20451 net.cpp:148] Top shape: 64 100 (6400)
I0808 13:44:08.535207 20451 net.cpp:156] Memory required for data: 872947968
I0808 13:44:08.535213 20451 net.cpp:484] Sharing parameters 'ip1_w' owned by layer 'InnerProduct1', param index 0
I0808 13:44:08.535220 20451 net.cpp:484] Sharing parameters 'ip1_b' owned by layer 'InnerProduct1', param index 1
I0808 13:44:08.535226 20451 layer_factory.hpp:77] Creating layer ReLU21
I0808 13:44:08.535234 20451 net.cpp:91] Creating Layer ReLU21
I0808 13:44:08.535243 20451 net.cpp:425] ReLU21 <- InnerProduct31
I0808 13:44:08.535250 20451 net.cpp:386] ReLU21 -> InnerProduct31 (in-place)
I0808 13:44:08.535270 20451 net.cpp:141] Setting up ReLU21
I0808 13:44:08.535284 20451 net.cpp:148] Top shape: 64 100 (6400)
I0808 13:44:08.535289 20451 net.cpp:156] Memory required for data: 872973568
I0808 13:44:08.535295 20451 layer_factory.hpp:77] Creating layer InnerProduct32
I0808 13:44:08.535303 20451 net.cpp:91] Creating Layer InnerProduct32
I0808 13:44:08.535310 20451 net.cpp:425] InnerProduct32 <- InnerProduct31
I0808 13:44:08.535321 20451 net.cpp:399] InnerProduct32 -> InnerProduct32
I0808 13:44:08.535490 20451 net.cpp:141] Setting up InnerProduct32
I0808 13:44:08.535497 20451 net.cpp:148] Top shape: 64 50 (3200)
I0808 13:44:08.535503 20451 net.cpp:156] Memory required for data: 872986368
I0808 13:44:08.535509 20451 net.cpp:484] Sharing parameters 'ip2_w' owned by layer 'InnerProduct2', param index 0
I0808 13:44:08.535516 20451 net.cpp:484] Sharing parameters 'ip2_b' owned by layer 'InnerProduct2', param index 1
I0808 13:44:08.535522 20451 layer_factory.hpp:77] Creating layer Convolution34
I0808 13:44:08.535537 20451 net.cpp:91] Creating Layer Convolution34
I0808 13:44:08.535542 20451 net.cpp:425] Convolution34 <- c25
I0808 13:44:08.535553 20451 net.cpp:399] Convolution34 -> Convolution34
I0808 13:44:08.535887 20451 net.cpp:141] Setting up Convolution34
I0808 13:44:08.535897 20451 net.cpp:148] Top shape: 64 20 60 60 (4608000)
I0808 13:44:08.535903 20451 net.cpp:156] Memory required for data: 891418368
I0808 13:44:08.535909 20451 net.cpp:484] Sharing parameters 'conv1_w' owned by layer 'Convolution1', param index 0
I0808 13:44:08.535917 20451 net.cpp:484] Sharing parameters 'conv1_b' owned by layer 'Convolution1', param index 1
I0808 13:44:08.535923 20451 layer_factory.hpp:77] Creating layer Pooling34
I0808 13:44:08.535930 20451 net.cpp:91] Creating Layer Pooling34
I0808 13:44:08.535936 20451 net.cpp:425] Pooling34 <- Convolution34
I0808 13:44:08.535945 20451 net.cpp:399] Pooling34 -> Pooling34
I0808 13:44:08.535996 20451 net.cpp:141] Setting up Pooling34
I0808 13:44:08.536005 20451 net.cpp:148] Top shape: 64 20 30 30 (1152000)
I0808 13:44:08.536010 20451 net.cpp:156] Memory required for data: 896026368
I0808 13:44:08.536015 20451 layer_factory.hpp:77] Creating layer Convolution35
I0808 13:44:08.536028 20451 net.cpp:91] Creating Layer Convolution35
I0808 13:44:08.536034 20451 net.cpp:425] Convolution35 <- Pooling34
I0808 13:44:08.536046 20451 net.cpp:399] Convolution35 -> Convolution35
I0808 13:44:08.537228 20451 net.cpp:141] Setting up Convolution35
I0808 13:44:08.537241 20451 net.cpp:148] Top shape: 64 50 26 26 (2163200)
I0808 13:44:08.537247 20451 net.cpp:156] Memory required for data: 904679168
I0808 13:44:08.537255 20451 net.cpp:484] Sharing parameters 'conv2_w' owned by layer 'Convolution2', param index 0
I0808 13:44:08.537261 20451 net.cpp:484] Sharing parameters 'conv2_b' owned by layer 'Convolution2', param index 1
I0808 13:44:08.537267 20451 layer_factory.hpp:77] Creating layer Pooling35
I0808 13:44:08.537276 20451 net.cpp:91] Creating Layer Pooling35
I0808 13:44:08.537283 20451 net.cpp:425] Pooling35 <- Convolution35
I0808 13:44:08.537293 20451 net.cpp:399] Pooling35 -> Pooling35
I0808 13:44:08.537344 20451 net.cpp:141] Setting up Pooling35
I0808 13:44:08.537353 20451 net.cpp:148] Top shape: 64 50 13 13 (540800)
I0808 13:44:08.537358 20451 net.cpp:156] Memory required for data: 906842368
I0808 13:44:08.537364 20451 layer_factory.hpp:77] Creating layer Convolution36
I0808 13:44:08.537377 20451 net.cpp:91] Creating Layer Convolution36
I0808 13:44:08.537384 20451 net.cpp:425] Convolution36 <- Pooling35
I0808 13:44:08.537396 20451 net.cpp:399] Convolution36 -> Convolution36
I0808 13:44:08.538183 20451 net.cpp:141] Setting up Convolution36
I0808 13:44:08.538192 20451 net.cpp:148] Top shape: 64 50 9 9 (259200)
I0808 13:44:08.538197 20451 net.cpp:156] Memory required for data: 907879168
I0808 13:44:08.538203 20451 net.cpp:484] Sharing parameters 'conv3_w' owned by layer 'Convolution3', param index 0
I0808 13:44:08.538210 20451 net.cpp:484] Sharing parameters 'conv3_b' owned by layer 'Convolution3', param index 1
I0808 13:44:08.538231 20451 layer_factory.hpp:77] Creating layer Pooling36
I0808 13:44:08.538244 20451 net.cpp:91] Creating Layer Pooling36
I0808 13:44:08.538249 20451 net.cpp:425] Pooling36 <- Convolution36
I0808 13:44:08.538259 20451 net.cpp:399] Pooling36 -> Pooling36
I0808 13:44:08.538311 20451 net.cpp:141] Setting up Pooling36
I0808 13:44:08.538318 20451 net.cpp:148] Top shape: 64 50 5 5 (80000)
I0808 13:44:08.538324 20451 net.cpp:156] Memory required for data: 908199168
I0808 13:44:08.538329 20451 layer_factory.hpp:77] Creating layer InnerProduct33
I0808 13:44:08.538339 20451 net.cpp:91] Creating Layer InnerProduct33
I0808 13:44:08.538346 20451 net.cpp:425] InnerProduct33 <- Pooling36
I0808 13:44:08.538359 20451 net.cpp:399] InnerProduct33 -> InnerProduct33
I0808 13:44:08.555948 20451 net.cpp:141] Setting up InnerProduct33
I0808 13:44:08.555979 20451 net.cpp:148] Top shape: 64 100 (6400)
I0808 13:44:08.555987 20451 net.cpp:156] Memory required for data: 908224768
I0808 13:44:08.555999 20451 net.cpp:484] Sharing parameters 'ip1_w' owned by layer 'InnerProduct1', param index 0
I0808 13:44:08.556010 20451 net.cpp:484] Sharing parameters 'ip1_b' owned by layer 'InnerProduct1', param index 1
I0808 13:44:08.556016 20451 layer_factory.hpp:77] Creating layer ReLU22
I0808 13:44:08.556031 20451 net.cpp:91] Creating Layer ReLU22
I0808 13:44:08.556041 20451 net.cpp:425] ReLU22 <- InnerProduct33
I0808 13:44:08.556053 20451 net.cpp:386] ReLU22 -> InnerProduct33 (in-place)
I0808 13:44:08.556067 20451 net.cpp:141] Setting up ReLU22
I0808 13:44:08.556077 20451 net.cpp:148] Top shape: 64 100 (6400)
I0808 13:44:08.556084 20451 net.cpp:156] Memory required for data: 908250368
I0808 13:44:08.556092 20451 layer_factory.hpp:77] Creating layer InnerProduct34
I0808 13:44:08.556110 20451 net.cpp:91] Creating Layer InnerProduct34
I0808 13:44:08.556118 20451 net.cpp:425] InnerProduct34 <- InnerProduct33
I0808 13:44:08.556133 20451 net.cpp:399] InnerProduct34 -> InnerProduct34
I0808 13:44:08.556359 20451 net.cpp:141] Setting up InnerProduct34
I0808 13:44:08.556370 20451 net.cpp:148] Top shape: 64 50 (3200)
I0808 13:44:08.556375 20451 net.cpp:156] Memory required for data: 908263168
I0808 13:44:08.556383 20451 net.cpp:484] Sharing parameters 'ip2_w' owned by layer 'InnerProduct2', param index 0
I0808 13:44:08.556393 20451 net.cpp:484] Sharing parameters 'ip2_b' owned by layer 'InnerProduct2', param index 1
I0808 13:44:08.556401 20451 layer_factory.hpp:77] Creating layer Concat6
I0808 13:44:08.556412 20451 net.cpp:91] Creating Layer Concat6
I0808 13:44:08.556421 20451 net.cpp:425] Concat6 <- InnerProduct32
I0808 13:44:08.556430 20451 net.cpp:425] Concat6 <- InnerProduct34
I0808 13:44:08.556442 20451 net.cpp:399] Concat6 -> Concat6
I0808 13:44:08.556479 20451 net.cpp:141] Setting up Concat6
I0808 13:44:08.556489 20451 net.cpp:148] Top shape: 64 100 (6400)
I0808 13:44:08.556496 20451 net.cpp:156] Memory required for data: 908288768
I0808 13:44:08.556502 20451 layer_factory.hpp:77] Creating layer InnerProduct35
I0808 13:44:08.556514 20451 net.cpp:91] Creating Layer InnerProduct35
I0808 13:44:08.556520 20451 net.cpp:425] InnerProduct35 <- Concat6
I0808 13:44:08.556535 20451 net.cpp:399] InnerProduct35 -> InnerProduct35
I0808 13:44:08.556757 20451 net.cpp:141] Setting up InnerProduct35
I0808 13:44:08.556768 20451 net.cpp:148] Top shape: 64 64 (4096)
I0808 13:44:08.556777 20451 net.cpp:156] Memory required for data: 908305152
I0808 13:44:08.556784 20451 net.cpp:484] Sharing parameters 'fc1_w' owned by layer 'InnerProduct5', param index 0
I0808 13:44:08.556794 20451 net.cpp:484] Sharing parameters 'fc1_b' owned by layer 'InnerProduct5', param index 1
I0808 13:44:08.556802 20451 layer_factory.hpp:77] Creating layer ReLU23
I0808 13:44:08.556815 20451 net.cpp:91] Creating Layer ReLU23
I0808 13:44:08.556823 20451 net.cpp:425] ReLU23 <- InnerProduct35
I0808 13:44:08.556838 20451 net.cpp:386] ReLU23 -> InnerProduct35 (in-place)
I0808 13:44:08.556850 20451 net.cpp:141] Setting up ReLU23
I0808 13:44:08.556860 20451 net.cpp:148] Top shape: 64 64 (4096)
I0808 13:44:08.556890 20451 net.cpp:156] Memory required for data: 908321536
I0808 13:44:08.556896 20451 layer_factory.hpp:77] Creating layer drop1
I0808 13:44:08.556906 20451 net.cpp:91] Creating Layer drop1
I0808 13:44:08.556913 20451 net.cpp:425] drop1 <- InnerProduct35
I0808 13:44:08.556923 20451 net.cpp:399] drop1 -> Dropout11
I0808 13:44:08.556984 20451 net.cpp:141] Setting up drop1
I0808 13:44:08.556995 20451 net.cpp:148] Top shape: 64 64 (4096)
I0808 13:44:08.557004 20451 net.cpp:156] Memory required for data: 908337920
I0808 13:44:08.557010 20451 layer_factory.hpp:77] Creating layer InnerProduct36
I0808 13:44:08.557025 20451 net.cpp:91] Creating Layer InnerProduct36
I0808 13:44:08.557032 20451 net.cpp:425] InnerProduct36 <- Dropout11
I0808 13:44:08.557044 20451 net.cpp:399] InnerProduct36 -> InnerProduct36
I0808 13:44:08.557260 20451 net.cpp:141] Setting up InnerProduct36
I0808 13:44:08.557271 20451 net.cpp:148] Top shape: 64 32 (2048)
I0808 13:44:08.557279 20451 net.cpp:156] Memory required for data: 908346112
I0808 13:44:08.557288 20451 net.cpp:484] Sharing parameters 'fc2_w' owned by layer 'InnerProduct6', param index 0
I0808 13:44:08.557299 20451 net.cpp:484] Sharing parameters 'fc2_b' owned by layer 'InnerProduct6', param index 1
I0808 13:44:08.557308 20451 layer_factory.hpp:77] Creating layer ReLU24
I0808 13:44:08.557319 20451 net.cpp:91] Creating Layer ReLU24
I0808 13:44:08.557327 20451 net.cpp:425] ReLU24 <- InnerProduct36
I0808 13:44:08.557343 20451 net.cpp:386] ReLU24 -> InnerProduct36 (in-place)
I0808 13:44:08.557355 20451 net.cpp:141] Setting up ReLU24
I0808 13:44:08.557366 20451 net.cpp:148] Top shape: 64 32 (2048)
I0808 13:44:08.557374 20451 net.cpp:156] Memory required for data: 908354304
I0808 13:44:08.557382 20451 layer_factory.hpp:77] Creating layer drop2
I0808 13:44:08.557392 20451 net.cpp:91] Creating Layer drop2
I0808 13:44:08.557401 20451 net.cpp:425] drop2 <- InnerProduct36
I0808 13:44:08.557416 20451 net.cpp:399] drop2 -> Dropout12
I0808 13:44:08.557482 20451 net.cpp:141] Setting up drop2
I0808 13:44:08.557492 20451 net.cpp:148] Top shape: 64 32 (2048)
I0808 13:44:08.557499 20451 net.cpp:156] Memory required for data: 908362496
I0808 13:44:08.557507 20451 layer_factory.hpp:77] Creating layer dt5
I0808 13:44:08.557518 20451 net.cpp:91] Creating Layer dt5
I0808 13:44:08.557528 20451 net.cpp:425] dt5 <- Dropout12
I0808 13:44:08.557546 20451 net.cpp:399] dt5 -> dt5
I0808 13:44:08.557729 20451 net.cpp:141] Setting up dt5
I0808 13:44:08.557741 20451 net.cpp:148] Top shape: 64 1 (64)
I0808 13:44:08.557749 20451 net.cpp:156] Memory required for data: 908362752
I0808 13:44:08.557757 20451 net.cpp:484] Sharing parameters 'fc3_w' owned by layer 'dt0', param index 0
I0808 13:44:08.557766 20451 net.cpp:484] Sharing parameters 'fc3_b' owned by layer 'dt0', param index 1
I0808 13:44:08.557775 20451 layer_factory.hpp:77] Creating layer Convolution37
I0808 13:44:08.557798 20451 net.cpp:91] Creating Layer Convolution37
…
I0808 13:44:08.962236 20451 net.cpp:148] Top shape: 64 50 26 26 (2163200)
I0808 13:44:08.962241 20451 net.cpp:156] Memory required for data: 1646587392
I0808 13:44:08.962249 20451 net.cpp:484] Sharing parameters 'conv2_w' owned by layer 'Convolution2', param index 0
I0808 13:44:08.962255 20451 net.cpp:484] Sharing parameters 'conv2_b' owned by layer 'Convolution2', param index 1
I0808 13:44:08.962260 20451 layer_factory.hpp:77] Creating layer Pooling98
I0808 13:44:08.962275 20451 net.cpp:91] Creating Layer Pooling98
I0808 13:44:08.962280 20451 net.cpp:425] Pooling98 <- Convolution98
I0808 13:44:08.962290 20451 net.cpp:399] Pooling98 -> Pooling98
I0808 13:44:08.962340 20451 net.cpp:141] Setting up Pooling98
I0808 13:44:08.962347 20451 net.cpp:148] Top shape: 64 50 13 13 (540800)
I0808 13:44:08.962353 20451 net.cpp:156] Memory required for data: 1648750592
I0808 13:44:08.962358 20451 layer_factory.hpp:77] Creating layer Convolution99
I0808 13:44:08.962373 20451 net.cpp:91] Creating Layer Convolution99
I0808 13:44:08.962378 20451 net.cpp:425] Convolution99 <- Pooling98
I0808 13:44:08.962388 20451 net.cpp:399] Convolution99 -> Convolution99
I0808 13:44:08.963212 20451 net.cpp:141] Setting up Convolution99
I0808 13:44:08.963219 20451 net.cpp:148] Top shape: 64 50 9 9 (259200)
I0808 13:44:08.963225 20451 net.cpp:156] Memory required for data: 1649787392
I0808 13:44:08.963232 20451 net.cpp:484] Sharing parameters 'conv3_w' owned by layer 'Convolution3', param index 0
I0808 13:44:08.963238 20451 net.cpp:484] Sharing parameters 'conv3_b' owned by layer 'Convolution3', param index 1
I0808 13:44:08.963244 20451 layer_factory.hpp:77] Creating layer Pooling99
I0808 13:44:08.963254 20451 net.cpp:91] Creating Layer Pooling99
I0808 13:44:08.963260 20451 net.cpp:425] Pooling99 <- Convolution99
I0808 13:44:08.963269 20451 net.cpp:399] Pooling99 -> Pooling99
I0808 13:44:08.963336 20451 net.cpp:141] Setting up Pooling99
I0808 13:44:08.963345 20451 net.cpp:148] Top shape: 64 50 5 5 (80000)
I0808 13:44:08.963349 20451 net.cpp:156] Memory required for data: 1650107392
I0808 13:44:08.963366 20451 layer_factory.hpp:77] Creating layer InnerProduct97
I0808 13:44:08.963378 20451 net.cpp:91] Creating Layer InnerProduct97
I0808 13:44:08.963384 20451 net.cpp:425] InnerProduct97 <- Pooling99
I0808 13:44:08.963393 20451 net.cpp:399] InnerProduct97 -> InnerProduct97
I0808 13:44:08.964514 20451 net.cpp:141] Setting up InnerProduct97
I0808 13:44:08.964524 20451 net.cpp:148] Top shape: 64 100 (6400)
I0808 13:44:08.964529 20451 net.cpp:156] Memory required for data: 1650132992
I0808 13:44:08.964536 20451 net.cpp:484] Sharing parameters 'ip1_w' owned by layer 'InnerProduct1', param index 0
I0808 13:44:08.964545 20451 net.cpp:484] Sharing parameters 'ip1_b' owned by layer 'InnerProduct1', param index 1
I0808 13:44:08.964550 20451 layer_factory.hpp:77] Creating layer ReLU65
I0808 13:44:08.964561 20451 net.cpp:91] Creating Layer ReLU65
I0808 13:44:08.964567 20451 net.cpp:425] ReLU65 <- InnerProduct97
I0808 13:44:08.964576 20451 net.cpp:386] ReLU65 -> InnerProduct97 (in-place)
I0808 13:44:08.964586 20451 net.cpp:141] Setting up ReLU65
I0808 13:44:08.964592 20451 net.cpp:148] Top shape: 64 100 (6400)
I0808 13:44:08.964598 20451 net.cpp:156] Memory required for data: 1650158592
I0808 13:44:08.964603 20451 layer_factory.hpp:77] Creating layer InnerProduct98
I0808 13:44:08.964615 20451 net.cpp:91] Creating Layer InnerProduct98
I0808 13:44:08.964622 20451 net.cpp:425] InnerProduct98 <- InnerProduct97
I0808 13:44:08.964632 20451 net.cpp:399] InnerProduct98 -> InnerProduct98
I0808 13:44:08.964802 20451 net.cpp:141] Setting up InnerProduct98
I0808 13:44:08.964810 20451 net.cpp:148] Top shape: 64 50 (3200)
I0808 13:44:08.964817 20451 net.cpp:156] Memory required for data: 1650171392
I0808 13:44:08.964823 20451 net.cpp:484] Sharing parameters 'ip2_w' owned by layer 'InnerProduct2', param index 0
I0808 13:44:08.964829 20451 net.cpp:484] Sharing parameters 'ip2_b' owned by layer 'InnerProduct2', param index 1
I0808 13:44:08.964835 20451 layer_factory.hpp:77] Creating layer Convolution100
I0808 13:44:08.964848 20451 net.cpp:91] Creating Layer Convolution100
I0808 13:44:08.964855 20451 net.cpp:425] Convolution100 <- c17
I0808 13:44:08.964869 20451 net.cpp:399] Convolution100 -> Convolution100
I0808 13:44:08.965225 20451 net.cpp:141] Setting up Convolution100
I0808 13:44:08.965234 20451 net.cpp:148] Top shape: 64 20 60 60 (4608000)
I0808 13:44:08.965240 20451 net.cpp:156] Memory required for data: 1668603392
I0808 13:44:08.965245 20451 net.cpp:484] Sharing parameters 'conv1_w' owned by layer 'Convolution1', param index 0
I0808 13:44:08.965252 20451 net.cpp:484] Sharing parameters 'conv1_b' owned by layer 'Convolution1', param index 1
I0808 13:44:08.965258 20451 layer_factory.hpp:77] Creating layer Pooling100
I0808 13:44:08.965266 20451 net.cpp:91] Creating Layer Pooling100
I0808 13:44:08.965272 20451 net.cpp:425] Pooling100 <- Convolution100
I0808 13:44:08.965283 20451 net.cpp:399] Pooling100 -> Pooling100
I0808 13:44:08.965332 20451 net.cpp:141] Setting up Pooling100
I0808 13:44:08.965340 20451 net.cpp:148] Top shape: 64 20 30 30 (1152000)
I0808 13:44:08.984473 20451 net.cpp:156] Memory required for data: 1673211392
I0808 13:44:08.984490 20451 layer_factory.hpp:77] Creating layer Convolution101
I0808 13:44:08.984520 20451 net.cpp:91] Creating Layer Convolution101
I0808 13:44:08.984531 20451 net.cpp:425] Convolution101 <- Pooling100
I0808 13:44:08.984555 20451 net.cpp:399] Convolution101 -> Convolution101
I0808 13:44:08.985868 20451 net.cpp:141] Setting up Convolution101
I0808 13:44:08.985885 20451 net.cpp:148] Top shape: 64 50 26 26 (2163200)
I0808 13:44:08.985893 20451 net.cpp:156] Memory required for data: 1681864192
I0808 13:44:08.985903 20451 net.cpp:484] Sharing parameters 'conv2_w' owned by layer 'Convolution2', param index 0
I0808 13:44:08.985913 20451 net.cpp:484] Sharing parameters 'conv2_b' owned by layer 'Convolution2', param index 1
I0808 13:44:08.985919 20451 layer_factory.hpp:77] Creating layer Pooling101
I0808 13:44:08.985931 20451 net.cpp:91] Creating Layer Pooling101
I0808 13:44:08.985940 20451 net.cpp:425] Pooling101 <- Convolution101
I0808 13:44:08.985973 20451 net.cpp:399] Pooling101 -> Pooling101
I0808 13:44:08.986040 20451 net.cpp:141] Setting up Pooling101
I0808 13:44:08.986052 20451 net.cpp:148] Top shape: 64 50 13 13 (540800)
I0808 13:44:08.986058 20451 net.cpp:156] Memory required for data: 1684027392
I0808 13:44:08.986065 20451 layer_factory.hpp:77] Creating layer Convolution102
I0808 13:44:08.986083 20451 net.cpp:91] Creating Layer Convolution102
I0808 13:44:08.986091 20451 net.cpp:425] Convolution102 <- Pooling101
I0808 13:44:08.986104 20451 net.cpp:399] Convolution102 -> Convolution102
I0808 13:44:08.986912 20451 net.cpp:141] Setting up Convolution102
I0808 13:44:08.986920 20451 net.cpp:148] Top shape: 64 50 9 9 (259200)
I0808 13:44:08.986925 20451 net.cpp:156] Memory required for data: 1685064192
I0808 13:44:08.986932 20451 net.cpp:484] Sharing parameters 'conv3_w' owned by layer 'Convolution3', param index 0
I0808 13:44:08.986939 20451 net.cpp:484] Sharing parameters 'conv3_b' owned by layer 'Convolution3', param index 1
I0808 13:44:08.986945 20451 layer_factory.hpp:77] Creating layer Pooling102
I0808 13:44:08.986955 20451 net.cpp:91] Creating Layer Pooling102
I0808 13:44:08.986963 20451 net.cpp:425] Pooling102 <- Convolution102
I0808 13:44:08.986971 20451 net.cpp:399] Pooling102 -> Pooling102
I0808 13:44:08.987025 20451 net.cpp:141] Setting up Pooling102
I0808 13:44:08.987033 20451 net.cpp:148] Top shape: 64 50 5 5 (80000)
I0808 13:44:08.987038 20451 net.cpp:156] Memory required for data: 1685384192
I0808 13:44:08.987045 20451 layer_factory.hpp:77] Creating layer InnerProduct99
I0808 13:44:08.987056 20451 net.cpp:91] Creating Layer InnerProduct99
I0808 13:44:08.987062 20451 net.cpp:425] InnerProduct99 <- Pooling102
I0808 13:44:08.987072 20451 net.cpp:399] InnerProduct99 -> InnerProduct99
I0808 13:44:08.988884 20451 net.cpp:141] Setting up InnerProduct99
I0808 13:44:08.988901 20451 net.cpp:148] Top shape: 64 100 (6400)
I0808 13:44:08.988909 20451 net.cpp:156] Memory required for data: 1685409792
I0808 13:44:08.988919 20451 net.cpp:484] Sharing parameters 'ip1_w' owned by layer 'InnerProduct1', param index 0
I0808 13:44:08.988929 20451 net.cpp:484] Sharing parameters 'ip1_b' owned by layer 'InnerProduct1', param index 1
I0808 13:44:08.988937 20451 layer_factory.hpp:77] Creating layer ReLU66
I0808 13:44:08.988948 20451 net.cpp:91] Creating Layer ReLU66
I0808 13:44:08.988956 20451 net.cpp:425] ReLU66 <- InnerProduct99
I0808 13:44:08.988968 20451 net.cpp:386] ReLU66 -> InnerProduct99 (in-place)
I0808 13:44:08.988986 20451 net.cpp:141] Setting up ReLU66
I0808 13:44:08.988996 20451 net.cpp:148] Top shape: 64 100 (6400)
I0808 13:44:08.989001 20451 net.cpp:156] Memory required for data: 1685435392
I0808 13:44:08.989009 20451 layer_factory.hpp:77] Creating layer InnerProduct100
I0808 13:44:08.989022 20451 net.cpp:91] Creating Layer InnerProduct100
I0808 13:44:08.989030 20451 net.cpp:425] InnerProduct100 <- InnerProduct99
I0808 13:44:08.989042 20451 net.cpp:399] InnerProduct100 -> InnerProduct100
I0808 13:44:08.989272 20451 net.cpp:141] Setting up InnerProduct100
I0808 13:44:08.989284 20451 net.cpp:148] Top shape: 64 50 (3200)
I0808 13:44:08.989291 20451 net.cpp:156] Memory required for data: 1685448192
I0808 13:44:08.989300 20451 net.cpp:484] Sharing parameters 'ip2_w' owned by layer 'InnerProduct2', param index 0
I0808 13:44:08.989308 20451 net.cpp:484] Sharing parameters 'ip2_b' owned by layer 'InnerProduct2', param index 1
I0808 13:44:08.989315 20451 layer_factory.hpp:77] Creating layer Concat17
I0808 13:44:08.989331 20451 net.cpp:91] Creating Layer Concat17
I0808 13:44:08.989338 20451 net.cpp:425] Concat17 <- InnerProduct98
I0808 13:44:08.989347 20451 net.cpp:425] Concat17 <- InnerProduct100
I0808 13:44:08.989358 20451 net.cpp:399] Concat17 -> Concat17
I0808 13:44:08.989400 20451 net.cpp:141] Setting up Concat17
I0808 13:44:08.989410 20451 net.cpp:148] Top shape: 64 100 (6400)
I0808 13:44:08.989416 20451 net.cpp:156] Memory required for data: 1685473792
I0808 13:44:08.989423 20451 layer_factory.hpp:77] Creating layer InnerProduct101
I0808 13:44:08.989455 20451 net.cpp:91] Creating Layer InnerProduct101
I0808 13:44:08.989464 20451 net.cpp:425] InnerProduct101 <- Concat17
I0808 13:44:08.989475 20451 net.cpp:399] InnerProduct101 -> InnerProduct101
I0808 13:44:08.989698 20451 net.cpp:141] Setting up InnerProduct101
I0808 13:44:08.989711 20451 net.cpp:148] Top shape: 64 64 (4096)
I0808 13:44:08.989719 20451 net.cpp:156] Memory required for data: 1685490176
I0808 13:44:08.989727 20451 net.cpp:484] Sharing parameters 'fc1_w' owned by layer 'InnerProduct5', param index 0
I0808 13:44:08.989737 20451 net.cpp:484] Sharing parameters 'fc1_b' owned by layer 'InnerProduct5', param index 1
I0808 13:44:08.989744 20451 layer_factory.hpp:77] Creating layer ReLU67
I0808 13:44:08.989758 20451 net.cpp:91] Creating Layer ReLU67
I0808 13:44:08.989765 20451 net.cpp:425] ReLU67 <- InnerProduct101
I0808 13:44:08.989776 20451 net.cpp:386] ReLU67 -> InnerProduct101 (in-place)
I0808 13:44:08.989792 20451 net.cpp:141] Setting up ReLU67
I0808 13:44:08.989807 20451 net.cpp:148] Top shape: 64 64 (4096)
I0808 13:44:08.989819 20451 net.cpp:156] Memory required for data: 1685506560
I0808 13:44:08.989828 20451 layer_factory.hpp:77] Creating layer drop1
I0808 13:44:08.989841 20451 net.cpp:91] Creating Layer drop1
I0808 13:44:08.989853 20451 net.cpp:425] drop1 <- InnerProduct101
I0808 13:44:08.989871 20451 net.cpp:399] drop1 -> Dropout33
I0808 13:44:08.989936 20451 net.cpp:141] Setting up drop1
I0808 13:44:08.989946 20451 net.cpp:148] Top shape: 64 64 (4096)
I0808 13:44:08.989954 20451 net.cpp:156] Memory required for data: 1685522944
I0808 13:44:08.989961 20451 layer_factory.hpp:77] Creating layer InnerProduct102
I0808 13:44:08.989976 20451 net.cpp:91] Creating Layer InnerProduct102
I0808 13:44:08.989984 20451 net.cpp:425] InnerProduct102 <- Dropout33
I0808 13:44:08.989997 20451 net.cpp:399] InnerProduct102 -> InnerProduct102
I0808 13:44:08.990200 20451 net.cpp:141] Setting up InnerProduct102
I0808 13:44:08.990212 20451 net.cpp:148] Top shape: 64 32 (2048)
I0808 13:44:08.990218 20451 net.cpp:156] Memory required for data: 1685531136
I0808 13:44:08.990224 20451 net.cpp:484] Sharing parameters 'fc2_w' owned by layer 'InnerProduct6', param index 0
I0808 13:44:08.990232 20451 net.cpp:484] Sharing parameters 'fc2_b' owned by layer 'InnerProduct6', param index 1
I0808 13:44:08.990238 20451 layer_factory.hpp:77] Creating layer ReLU68
I0808 13:44:08.990247 20451 net.cpp:91] Creating Layer ReLU68
I0808 13:44:08.990252 20451 net.cpp:425] ReLU68 <- InnerProduct102
I0808 13:44:08.990262 20451 net.cpp:386] ReLU68 -> InnerProduct102 (in-place)
I0808 13:44:08.990270 20451 net.cpp:141] Setting up ReLU68
I0808 13:44:08.990278 20451 net.cpp:148] Top shape: 64 32 (2048)
I0808 13:44:08.990283 20451 net.cpp:156] Memory required for data: 1685539328
I0808 13:44:08.990289 20451 layer_factory.hpp:77] Creating layer drop2
I0808 13:44:08.990298 20451 net.cpp:91] Creating Layer drop2
I0808 13:44:08.990303 20451 net.cpp:425] drop2 <- InnerProduct102
I0808 13:44:08.992241 20451 net.cpp:399] drop2 -> Dropout34
I0808 13:44:08.992316 20451 net.cpp:141] Setting up drop2
I0808 13:44:08.992326 20451 net.cpp:148] Top shape: 64 32 (2048)
I0808 13:44:08.992331 20451 net.cpp:156] Memory required for data: 1685547520
I0808 13:44:08.992337 20451 layer_factory.hpp:77] Creating layer dt16
I0808 13:44:08.992350 20451 net.cpp:91] Creating Layer dt16
I0808 13:44:08.992357 20451 net.cpp:425] dt16 <- Dropout34
I0808 13:44:08.992368 20451 net.cpp:399] dt16 -> dt16
I0808 13:44:08.992518 20451 net.cpp:141] Setting up dt16
I0808 13:44:08.992527 20451 net.cpp:148] Top shape: 64 1 (64)
I0808 13:44:08.992532 20451 net.cpp:156] Memory required for data: 1685547776
I0808 13:44:08.992538 20451 net.cpp:484] Sharing parameters 'fc3_w' owned by layer 'dt0', param index 0
I0808 13:44:08.992547 20451 net.cpp:484] Sharing parameters 'fc3_b' owned by layer 'dt0', param index 1
I0808 13:44:08.992552 20451 layer_factory.hpp:77] Creating layer Convolution103
I0808 13:44:08.992566 20451 net.cpp:91] Creating Layer Convolution103
I0808 13:44:08.992588 20451 net.cpp:425] Convolution103 <- p2_p2_0_split_8
I0808 13:44:08.992601 20451 net.cpp:399] Convolution103 -> Convolution103
I0808 13:44:08.992964 20451 net.cpp:141] Setting up Convolution103
I0808 13:44:08.992971 20451 net.cpp:148] Top shape: 64 20 60 60 (4608000)
I0808 13:44:08.992976 20451 net.cpp:156] Memory required for data: 1703979776
I0808 13:44:08.992983 20451 net.cpp:484] Sharing parameters 'conv1_w' owned by layer 'Convolution1', param index 0
I0808 13:44:08.992990 20451 net.cpp:484] Sharing parameters 'conv1_b' owned by layer 'Convolution1', param index 1
I0808 13:44:08.992996 20451 layer_factory.hpp:77] Creating layer Pooling103
I0808 13:44:08.993007 20451 net.cpp:91] Creating Layer Pooling103
I0808 13:44:08.993013 20451 net.cpp:425] Pooling103 <- Convolution103
I0808 13:44:08.993023 20451 net.cpp:399] Pooling103 -> Pooling103
I0808 13:44:08.993075 20451 net.cpp:141] Setting up Pooling103
I0808 13:44:08.993083 20451 net.cpp:148] Top shape: 64 20 30 30 (1152000)
I0808 13:44:08.993088 20451 net.cpp:156] Memory required for data: 1708587776
I0808 13:44:08.993093 20451 layer_factory.hpp:77] Creating layer Convolution104
I0808 13:44:08.993106 20451 net.cpp:91] Creating Layer Convolution104
I0808 13:44:08.993113 20451 net.cpp:425] Convolution104 <- Pooling103
I0808 13:44:08.993124 20451 net.cpp:399] Convolution104 -> Convolution104
I0808 13:44:08.993682 20451 net.cpp:141] Setting up Convolution104
I0808 13:44:08.993691 20451 net.cpp:148] Top shape: 64 50 26 26 (2163200)
I0808 13:44:08.993703 20451 net.cpp:156] Memory required for data: 1717240576
I0808 13:44:08.993711 20451 net.cpp:484] Sharing parameters 'conv2_w' owned by layer 'Convolution2', param index 0
I0808 13:44:08.993721 20451 net.cpp:484] Sharing parameters 'conv2_b' owned by layer 'Convolution2', param index 1
I0808 13:44:08.993727 20451 layer_factory.hpp:77] Creating layer Pooling104
I0808 13:44:08.993738 20451 net.cpp:91] Creating Layer Pooling104
I0808 13:44:08.993746 20451 net.cpp:425] Pooling104 <- Convolution104
I0808 13:44:08.993759 20451 net.cpp:399] Pooling104 -> Pooling104
I0808 13:44:08.993818 20451 net.cpp:141] Setting up Pooling104
I0808 13:44:08.993827 20451 net.cpp:148] Top shape: 64 50 13 13 (540800)
I0808 13:44:08.993834 20451 net.cpp:156] Memory required for data: 1719403776
I0808 13:44:08.993841 20451 layer_factory.hpp:77] Creating layer Convolution105
I0808 13:44:08.993860 20451 net.cpp:91] Creating Layer Convolution105
I0808 13:44:08.993867 20451 net.cpp:425] Convolution105 <- Pooling104
I0808 13:44:08.993880 20451 net.cpp:399] Convolution105 -> Convolution105
I0808 13:44:08.994743 20451 net.cpp:141] Setting up Convolution105
I0808 13:44:08.994755 20451 net.cpp:148] Top shape: 64 50 9 9 (259200)
I0808 13:44:08.994761 20451 net.cpp:156] Memory required for data: 1720440576
I0808 13:44:08.994767 20451 net.cpp:484] Sharing parameters 'conv3_w' owned by layer 'Convolution3', param index 0
I0808 13:44:08.994774 20451 net.cpp:484] Sharing parameters 'conv3_b' owned by layer 'Convolution3', param index 1
I0808 13:44:08.994781 20451 layer_factory.hpp:77] Creating layer Pooling105
I0808 13:44:08.994791 20451 net.cpp:91] Creating Layer Pooling105
I0808 13:44:08.994796 20451 net.cpp:425] Pooling105 <- Convolution105
I0808 13:44:08.994806 20451 net.cpp:399] Pooling105 -> Pooling105
I0808 13:44:08.994860 20451 net.cpp:141] Setting up Pooling105
I0808 13:44:08.994868 20451 net.cpp:148] Top shape: 64 50 5 5 (80000)
I0808 13:44:08.994874 20451 net.cpp:156] Memory required for data: 1720760576
I0808 13:44:08.994879 20451 layer_factory.hpp:77] Creating layer InnerProduct103
I0808 13:44:08.994889 20451 net.cpp:91] Creating Layer InnerProduct103
I0808 13:44:08.994894 20451 net.cpp:425] InnerProduct103 <- Pooling105
I0808 13:44:08.994906 20451 net.cpp:399] InnerProduct103 -> InnerProduct103
I0808 13:44:08.996158 20451 net.cpp:141] Setting up InnerProduct103
I0808 13:44:08.996168 20451 net.cpp:148] Top shape: 64 100 (6400)
I0808 13:44:08.996175 20451 net.cpp:156] Memory required for data: 1720786176
I0808 13:44:08.996182 20451 net.cpp:484] Sharing parameters 'ip1_w' owned by layer 'InnerProduct1', param index 0
I0808 13:44:08.996204 20451 net.cpp:484] Sharing parameters 'ip1_b' owned by layer 'InnerProduct1', param index 1
I0808 13:44:08.996212 20451 layer_factory.hpp:77] Creating layer ReLU69
I0808 13:44:08.996220 20451 net.cpp:91] Creating Layer ReLU69
I0808 13:44:08.996227 20451 net.cpp:425] ReLU69 <- InnerProduct103
I0808 13:44:08.996239 20451 net.cpp:386] ReLU69 -> InnerProduct103 (in-place)
I0808 13:44:08.996250 20451 net.cpp:141] Setting up ReLU69
I0808 13:44:08.996258 20451 net.cpp:148] Top shape: 64 100 (6400)
I0808 13:44:08.996264 20451 net.cpp:156] Memory required for data: 1720811776
I0808 13:44:08.996270 20451 layer_factory.hpp:77] Creating layer InnerProduct104
I0808 13:44:08.996280 20451 net.cpp:91] Creating Layer InnerProduct104
I0808 13:44:08.996287 20451 net.cpp:425] InnerProduct104 <- InnerProduct103
I0808 13:44:08.996300 20451 net.cpp:399] InnerProduct104 -> InnerProduct104
I0808 13:44:08.996495 20451 net.cpp:141] Setting up InnerProduct104
I0808 13:44:08.996505 20451 net.cpp:148] Top shape: 64 50 (3200)
I0808 13:44:08.996510 20451 net.cpp:156] Memory required for data: 1720824576
I0808 13:44:08.996517 20451 net.cpp:484] Sharing parameters 'ip2_w' owned by layer 'InnerProduct2', param index 0
I0808 13:44:08.996526 20451 net.cpp:484] Sharing parameters 'ip2_b' owned by layer 'InnerProduct2', param index 1
I0808 13:44:08.996531 20451 layer_factory.hpp:77] Creating layer Convolution106
I0808 13:44:08.996546 20451 net.cpp:91] Creating Layer Convolution106
I0808 13:44:08.996553 20451 net.cpp:425] Convolution106 <- c18
I0808 13:44:08.996565 20451 net.cpp:399] Convolution106 -> Convolution106
I0808 13:44:08.996966 20451 net.cpp:141] Setting up Convolution106
I0808 13:44:08.996978 20451 net.cpp:148] Top shape: 64 20 60 60 (4608000)
I0808 13:44:08.996984 20451 net.cpp:156] Memory required for data: 1739256576
I0808 13:44:08.996991 20451 net.cpp:484] Sharing parameters 'conv1_w' owned by layer 'Convolution1', param index 0
I0808 13:44:08.996999 20451 net.cpp:484] Sharing parameters 'conv1_b' owned by layer 'Convolution1', param index 1
I0808 13:44:08.997005 20451 layer_factory.hpp:77] Creating layer Pooling106
I0808 13:44:08.997014 20451 net.cpp:91] Creating Layer Pooling106
I0808 13:44:08.997021 20451 net.cpp:425] Pooling106 <- Convolution106
I0808 13:44:08.997031 20451 net.cpp:399] Pooling106 -> Pooling106
I0808 13:44:08.997087 20451 net.cpp:141] Setting up Pooling106
I0808 13:44:08.997097 20451 net.cpp:148] Top shape: 64 20 30 30 (1152000)
I0808 13:44:08.997102 20451 net.cpp:156] Memory required for data: 1743864576
I0808 13:44:08.997108 20451 layer_factory.hpp:77] Creating layer Convolution107
I0808 13:44:08.997123 20451 net.cpp:91] Creating Layer Convolution107
I0808 13:44:08.997130 20451 net.cpp:425] Convolution107 <- Pooling106
I0808 13:44:08.997143 20451 net.cpp:399] Convolution107 -> Convolution107
I0808 13:44:08.997758 20451 net.cpp:141] Setting up Convolution107
I0808 13:44:09.021653 20451 net.cpp:148] Top shape: 64 50 26 26 (2163200)
I0808 13:44:09.021666 20451 net.cpp:156] Memory required for data: 1752517376
I0808 13:44:09.021677 20451 net.cpp:484] Sharing parameters 'conv2_w' owned by layer 'Convolution2', param index 0
I0808 13:44:09.021688 20451 net.cpp:484] Sharing parameters 'conv2_b' owned by layer 'Convolution2', param index 1
I0808 13:44:09.021695 20451 layer_factory.hpp:77] Creating layer Pooling107
I0808 13:44:09.021708 20451 net.cpp:91] Creating Layer Pooling107
I0808 13:44:09.021715 20451 net.cpp:425] Pooling107 <- Convolution107
I0808 13:44:09.021731 20451 net.cpp:399] Pooling107 -> Pooling107
I0808 13:44:09.021812 20451 net.cpp:141] Setting up Pooling107
I0808 13:44:09.021823 20451 net.cpp:148] Top shape: 64 50 13 13 (540800)
I0808 13:44:09.021831 20451 net.cpp:156] Memory required for data: 1754680576
I0808 13:44:09.021836 20451 layer_factory.hpp:77] Creating layer Convolution108
I0808 13:44:09.021850 20451 net.cpp:91] Creating Layer Convolution108
I0808 13:44:09.021857 20451 net.cpp:425] Convolution108 <- Pooling107
I0808 13:44:09.021888 20451 net.cpp:399] Convolution108 -> Convolution108
I0808 13:44:09.023627 20451 net.cpp:141] Setting up Convolution108
I0808 13:44:09.023643 20451 net.cpp:148] Top shape: 64 50 9 9 (259200)
I0808 13:44:09.023650 20451 net.cpp:156] Memory required for data: 1755717376
I0808 13:44:09.023658 20451 net.cpp:484] Sharing parameters 'conv3_w' owned by layer 'Convolution3', param index 0
I0808 13:44:09.023668 20451 net.cpp:484] Sharing parameters 'conv3_b' owned by layer 'Convolution3', param index 1
I0808 13:44:09.023674 20451 layer_factory.hpp:77] Creating layer Pooling108
I0808 13:44:09.023687 20451 net.cpp:91] Creating Layer Pooling108
I0808 13:44:09.023695 20451 net.cpp:425] Pooling108 <- Convolution108
I0808 13:44:09.023706 20451 net.cpp:399] Pooling108 -> Pooling108
I0808 13:44:09.023772 20451 net.cpp:141] Setting up Pooling108
I0808 13:44:09.023779 20451 net.cpp:148] Top shape: 64 50 5 5 (80000)
I0808 13:44:09.023787 20451 net.cpp:156] Memory required for data: 1756037376
I0808 13:44:09.023792 20451 layer_factory.hpp:77] Creating layer InnerProduct105
I0808 13:44:09.023803 20451 net.cpp:91] Creating Layer InnerProduct105
I0808 13:44:09.023813 20451 net.cpp:425] InnerProduct105 <- Pooling108
I0808 13:44:09.023830 20451 net.cpp:399] InnerProduct105 -> InnerProduct105
I0808 13:44:09.025745 20451 net.cpp:141] Setting up InnerProduct105
I0808 13:44:09.025763 20451 net.cpp:148] Top shape: 64 100 (6400)
I0808 13:44:09.025769 20451 net.cpp:156] Memory required for data: 1756062976
I0808 13:44:09.025779 20451 net.cpp:484] Sharing parameters 'ip1_w' owned by layer 'InnerProduct1', param index 0
I0808 13:44:09.025787 20451 net.cpp:484] Sharing parameters 'ip1_b' owned by layer 'InnerProduct1', param index 1
I0808 13:44:09.025794 20451 layer_factory.hpp:77] Creating layer ReLU70
I0808 13:44:09.025804 20451 net.cpp:91] Creating Layer ReLU70
I0808 13:44:09.025812 20451 net.cpp:425] ReLU70 <- InnerProduct105
I0808 13:44:09.025822 20451 net.cpp:386] ReLU70 -> InnerProduct105 (in-place)
I0808 13:44:09.025835 20451 net.cpp:141] Setting up ReLU70
I0808 13:44:09.025842 20451 net.cpp:148] Top shape: 64 100 (6400)
I0808 13:44:09.025848 20451 net.cpp:156] Memory required for data: 1756088576
I0808 13:44:09.025854 20451 layer_factory.hpp:77] Creating layer InnerProduct106
I0808 13:44:09.025868 20451 net.cpp:91] Creating Layer InnerProduct106
I0808 13:44:09.025876 20451 net.cpp:425] InnerProduct106 <- InnerProduct105
I0808 13:44:09.025887 20451 net.cpp:399] InnerProduct106 -> InnerProduct106
I0808 13:44:09.026108 20451 net.cpp:141] Setting up InnerProduct106
I0808 13:44:09.026118 20451 net.cpp:148] Top shape: 64 50 (3200)
I0808 13:44:09.026124 20451 net.cpp:156] Memory required for data: 1756101376
I0808 13:44:09.026131 20451 net.cpp:484] Sharing parameters 'ip2_w' owned by layer 'InnerProduct2', param index 0
I0808 13:44:09.026139 20451 net.cpp:484] Sharing parameters 'ip2_b' owned by layer 'InnerProduct2', param index 1
I0808 13:44:09.026146 20451 layer_factory.hpp:77] Creating layer Concat18
I0808 13:44:09.026157 20451 net.cpp:91] Creating Layer Concat18
I0808 13:44:09.026165 20451 net.cpp:425] Concat18 <- InnerProduct104
I0808 13:44:09.026172 20451 net.cpp:425] Concat18 <- InnerProduct106
I0808 13:44:09.026185 20451 net.cpp:399] Concat18 -> Concat18
I0808 13:44:09.026217 20451 net.cpp:141] Setting up Concat18
I0808 13:44:09.026229 20451 net.cpp:148] Top shape: 64 100 (6400)
I0808 13:44:09.026235 20451 net.cpp:156] Memory required for data: 1756126976
I0808 13:44:09.026242 20451 layer_factory.hpp:77] Creating layer InnerProduct107
I0808 13:44:09.026252 20451 net.cpp:91] Creating Layer InnerProduct107
I0808 13:44:09.026258 20451 net.cpp:425] InnerProduct107 <- Concat18
I0808 13:44:09.026271 20451 net.cpp:399] InnerProduct107 -> InnerProduct107
I0808 13:44:09.026489 20451 net.cpp:141] Setting up InnerProduct107
I0808 13:44:09.026497 20451 net.cpp:148] Top shape: 64 64 (4096)
I0808 13:44:09.026504 20451 net.cpp:156] Memory required for data: 1756143360
I0808 13:44:09.026510 20451 net.cpp:484] Sharing parameters 'fc1_w' owned by layer 'InnerProduct5', param index 0
I0808 13:44:09.026535 20451 net.cpp:484] Sharing parameters 'fc1_b' owned by layer 'InnerProduct5', param index 1
I0808 13:44:09.026540 20451 layer_factory.hpp:77] Creating layer ReLU71
I0808 13:44:09.026549 20451 net.cpp:91] Creating Layer ReLU71
I0808 13:44:09.026556 20451 net.cpp:425] ReLU71 <- InnerProduct107
I0808 13:44:09.026568 20451 net.cpp:386] ReLU71 -> InnerProduct107 (in-place)
I0808 13:44:09.026578 20451 net.cpp:141] Setting up ReLU71
I0808 13:44:09.026587 20451 net.cpp:148] Top shape: 64 64 (4096)
I0808 13:44:09.026593 20451 net.cpp:156] Memory required for data: 1756159744
I0808 13:44:09.026599 20451 layer_factory.hpp:77] Creating layer drop1
I0808 13:44:09.026608 20451 net.cpp:91] Creating Layer drop1
I0808 13:44:09.026615 20451 net.cpp:425] drop1 <- InnerProduct107
I0808 13:44:09.026626 20451 net.cpp:399] drop1 -> Dropout35
I0808 13:44:09.026684 20451 net.cpp:141] Setting up drop1
I0808 13:44:09.026693 20451 net.cpp:148] Top shape: 64 64 (4096)
I0808 13:44:09.026700 20451 net.cpp:156] Memory required for data: 1756176128
I0808 13:44:09.026705 20451 layer_factory.hpp:77] Creating layer InnerProduct108
I0808 13:44:09.026717 20451 net.cpp:91] Creating Layer InnerProduct108
I0808 13:44:09.026724 20451 net.cpp:425] InnerProduct108 <- Dropout35
I0808 13:44:09.026734 20451 net.cpp:399] InnerProduct108 -> InnerProduct108
I0808 13:44:09.026921 20451 net.cpp:141] Setting up InnerProduct108
I0808 13:44:09.026931 20451 net.cpp:148] Top shape: 64 32 (2048)
I0808 13:44:09.026937 20451 net.cpp:156] Memory required for data: 1756184320
I0808 13:44:09.026943 20451 net.cpp:484] Sharing parameters 'fc2_w' owned by layer 'InnerProduct6', param index 0
I0808 13:44:09.026952 20451 net.cpp:484] Sharing parameters 'fc2_b' owned by layer 'InnerProduct6', param index 1
I0808 13:44:09.026958 20451 layer_factory.hpp:77] Creating layer ReLU72
I0808 13:44:09.027112 20451 net.cpp:91] Creating Layer ReLU72
I0808 13:44:09.027120 20451 net.cpp:425] ReLU72 <- InnerProduct108
I0808 13:44:09.027129 20451 net.cpp:386] ReLU72 -> InnerProduct108 (in-place)
I0808 13:44:09.027140 20451 net.cpp:141] Setting up ReLU72
I0808 13:44:09.027148 20451 net.cpp:148] Top shape: 64 32 (2048)
I0808 13:44:09.027154 20451 net.cpp:156] Memory required for data: 1756192512
I0808 13:44:09.027161 20451 layer_factory.hpp:77] Creating layer drop2
I0808 13:44:09.027170 20451 net.cpp:91] Creating Layer drop2
I0808 13:44:09.027178 20451 net.cpp:425] drop2 <- InnerProduct108
I0808 13:44:09.027187 20451 net.cpp:399] drop2 -> Dropout36
I0808 13:44:09.027245 20451 net.cpp:141] Setting up drop2
I0808 13:44:09.027254 20451 net.cpp:148] Top shape: 64 32 (2048)
I0808 13:44:09.027261 20451 net.cpp:156] Memory required for data: 1756200704
I0808 13:44:09.027266 20451 layer_factory.hpp:77] Creating layer dt17
I0808 13:44:09.027285 20451 net.cpp:91] Creating Layer dt17
I0808 13:44:09.046077 20451 net.cpp:425] dt17 <- Dropout36
I0808 13:44:09.046124 20451 net.cpp:399] dt17 -> dt17
I0808 13:44:09.046316 20451 net.cpp:141] Setting up dt17
I0808 13:44:09.046329 20451 net.cpp:148] Top shape: 64 1 (64)
I0808 13:44:09.046335 20451 net.cpp:156] Memory required for data: 1756200960
I0808 13:44:09.046344 20451 net.cpp:484] Sharing parameters 'fc3_w' owned by layer 'dt0', param index 0
I0808 13:44:09.046353 20451 net.cpp:484] Sharing parameters 'fc3_b' owned by layer 'dt0', param index 1
I0808 13:44:09.046360 20451 layer_factory.hpp:77] Creating layer Convolution109
I0808 13:44:09.046380 20451 net.cpp:91] Creating Layer Convolution109
I0808 13:44:09.046387 20451 net.cpp:425] Convolution109 <- p2_p2_0_split_9
I0808 13:44:09.046399 20451 net.cpp:399] Convolution109 -> Convolution109
I0808 13:44:09.046805 20451 net.cpp:141] Setting up Convolution109
I0808 13:44:09.046815 20451 net.cpp:148] Top shape: 64 20 60 60 (4608000)
I0808 13:44:09.046821 20451 net.cpp:156] Memory required for data: 1774632960
I0808 13:44:09.046828 20451 net.cpp:484] Sharing parameters 'conv1_w' owned by layer 'Convolution1', param index 0
I0808 13:44:09.046836 20451 net.cpp:484] Sharing parameters 'conv1_b' owned by layer 'Convolution1', param index 1
I0808 13:44:09.046856 20451 layer_factory.hpp:77] Creating layer Pooling109
I0808 13:44:09.046869 20451 net.cpp:91] Creating Layer Pooling109
I0808 13:44:09.046876 20451 net.cpp:425] Pooling109 <- Convolution109
I0808 13:44:09.046886 20451 net.cpp:399] Pooling109 -> Pooling109
I0808 13:44:09.046946 20451 net.cpp:141] Setting up Pooling109
I0808 13:44:09.046954 20451 net.cpp:148] Top shape: 64 20 30 30 (1152000)
I0808 13:44:09.046960 20451 net.cpp:156] Memory required for data: 1779240960
I0808 13:44:09.046967 20451 layer_factory.hpp:77] Creating layer Convolution110
I0808 13:44:09.046980 20451 net.cpp:91] Creating Layer Convolution110
I0808 13:44:09.046988 20451 net.cpp:425] Convolution110 <- Pooling109
I0808 13:44:09.047001 20451 net.cpp:399] Convolution110 -> Convolution110
I0808 13:44:09.048022 20451 net.cpp:141] Setting up Convolution110
I0808 13:44:09.048044 20451 net.cpp:148] Top shape: 64 50 26 26 (2163200)
I0808 13:44:09.048058 20451 net.cpp:156] Memory required for data: 1787893760
I0808 13:44:09.048071 20451 net.cpp:484] Sharing parameters 'conv2_w' owned by layer 'Convolution2', param index 0
I0808 13:44:09.048086 20451 net.cpp:484] Sharing parameters 'conv2_b' owned by layer 'Convolution2', param index 1
I0808 13:44:09.048100 20451 layer_factory.hpp:77] Creating layer Pooling110
I0808 13:44:09.048123 20451 net.cpp:91] Creating Layer Pooling110
I0808 13:44:09.048137 20451 net.cpp:425] Pooling110 <- Convolution110
I0808 13:44:09.048161 20451 net.cpp:399] Pooling110 -> Pooling110
I0808 13:44:09.048275 20451 net.cpp:141] Setting up Pooling110
I0808 13:44:09.048298 20451 net.cpp:148] Top shape: 64 50 13 13 (540800)
I0808 13:44:09.048313 20451 net.cpp:156] Memory required for data: 1790056960
I0808 13:44:09.048327 20451 layer_factory.hpp:77] Creating layer Convolution111
I0808 13:44:09.048362 20451 net.cpp:91] Creating Layer Convolution111
I0808 13:44:09.048380 20451 net.cpp:425] Convolution111 <- Pooling110
I0808 13:44:09.048413 20451 net.cpp:399] Convolution111 -> Convolution111
I0808 13:44:09.050305 20451 net.cpp:141] Setting up Convolution111
I0808 13:44:09.050329 20451 net.cpp:148] Top shape: 64 50 9 9 (259200)
I0808 13:44:09.050343 20451 net.cpp:156] Memory required for data: 1791093760
I0808 13:44:09.050357 20451 net.cpp:484] Sharing parameters 'conv3_w' owned by layer 'Convolution3', param index 0
I0808 13:44:09.050374 20451 net.cpp:484] Sharing parameters 'conv3_b' owned by layer 'Convolution3', param index 1
I0808 13:44:09.050386 20451 layer_factory.hpp:77] Creating layer Pooling111
I0808 13:44:09.050405 20451 net.cpp:91] Creating Layer Pooling111
I0808 13:44:09.050420 20451 net.cpp:425] Pooling111 <- Convolution111
I0808 13:44:09.050444 20451 net.cpp:399] Pooling111 -> Pooling111
I0808 13:44:09.050554 20451 net.cpp:141] Setting up Pooling111
I0808 13:44:09.050572 20451 net.cpp:148] Top shape: 64 50 5 5 (80000)
I0808 13:44:09.050585 20451 net.cpp:156] Memory required for data: 1791413760
I0808 13:44:09.050596 20451 layer_factory.hpp:77] Creating layer InnerProduct109
I0808 13:44:09.050621 20451 net.cpp:91] Creating Layer InnerProduct109
I0808 13:44:09.050634 20451 net.cpp:425] InnerProduct109 <- Pooling111
I0808 13:44:09.050659 20451 net.cpp:399] InnerProduct109 -> InnerProduct109
I0808 13:44:09.053136 20451 net.cpp:141] Setting up InnerProduct109
I0808 13:44:09.053160 20451 net.cpp:148] Top shape: 64 100 (6400)
I0808 13:44:09.053172 20451 net.cpp:156] Memory required for data: 1791439360
I0808 13:44:09.053187 20451 net.cpp:484] Sharing parameters 'ip1_w' owned by layer 'InnerProduct1', param index 0
I0808 13:44:09.053203 20451 net.cpp:484] Sharing parameters 'ip1_b' owned by layer 'InnerProduct1', param index 1
I0808 13:44:09.053216 20451 layer_factory.hpp:77] Creating layer ReLU73
I0808 13:44:09.053234 20451 net.cpp:91] Creating Layer ReLU73
I0808 13:44:09.053248 20451 net.cpp:425] ReLU73 <- InnerProduct109
I0808 13:44:09.053267 20451 net.cpp:386] ReLU73 -> InnerProduct109 (in-place)
I0808 13:44:09.053287 20451 net.cpp:141] Setting up ReLU73
I0808 13:44:09.053331 20451 net.cpp:148] Top shape: 64 100 (6400)
I0808 13:44:09.053344 20451 net.cpp:156] Memory required for data: 1791464960
I0808 13:44:09.053356 20451 layer_factory.hpp:77] Creating layer InnerProduct110
I0808 13:44:09.053380 20451 net.cpp:91] Creating Layer InnerProduct110
I0808 13:44:09.053395 20451 net.cpp:425] InnerProduct110 <- InnerProduct109
I0808 13:44:09.053419 20451 net.cpp:399] InnerProduct110 -> InnerProduct110
I0808 13:44:09.053800 20451 net.cpp:141] Setting up InnerProduct110
I0808 13:44:09.053818 20451 net.cpp:148] Top shape: 64 50 (3200)
I0808 13:44:09.053830 20451 net.cpp:156] Memory required for data: 1791477760
I0808 13:44:09.053843 20451 net.cpp:484] Sharing parameters 'ip2_w' owned by layer 'InnerProduct2', param index 0
I0808 13:44:09.053858 20451 net.cpp:484] Sharing parameters 'ip2_b' owned by layer 'InnerProduct2', param index 1
I0808 13:44:09.053871 20451 layer_factory.hpp:77] Creating layer Convolution112
I0808 13:44:09.053895 20451 net.cpp:91] Creating Layer Convolution112
I0808 13:44:09.053910 20451 net.cpp:425] Convolution112 <- c19
I0808 13:44:09.053936 20451 net.cpp:399] Convolution112 -> Convolution112
I0808 13:44:09.054743 20451 net.cpp:141] Setting up Convolution112
I0808 13:44:09.054760 20451 net.cpp:148] Top shape: 64 20 60 60 (4608000)
I0808 13:44:09.054772 20451 net.cpp:156] Memory required for data: 1809909760
I0808 13:44:09.054785 20451 net.cpp:484] Sharing parameters 'conv1_w' owned by layer 'Convolution1', param index 0
I0808 13:44:09.054800 20451 net.cpp:484] Sharing parameters 'conv1_b' owned by layer 'Convolution1', param index 1
I0808 13:44:09.054813 20451 layer_factory.hpp:77] Creating layer Pooling112
I0808 13:44:09.054836 20451 net.cpp:91] Creating Layer Pooling112
I0808 13:44:09.054849 20451 net.cpp:425] Pooling112 <- Convolution112
I0808 13:44:09.054869 20451 net.cpp:399] Pooling112 -> Pooling112
I0808 13:44:09.054980 20451 net.cpp:141] Setting up Pooling112
I0808 13:44:09.054997 20451 net.cpp:148] Top shape: 64 20 30 30 (1152000)
I0808 13:44:09.055009 20451 net.cpp:156] Memory required for data: 1814517760
I0808 13:44:09.055022 20451 layer_factory.hpp:77] Creating layer Convolution113
I0808 13:44:09.055048 20451 net.cpp:91] Creating Layer Convolution113
I0808 13:44:09.055063 20451 net.cpp:425] Convolution113 <- Pooling112
I0808 13:44:09.055083 20451 net.cpp:399] Convolution113 -> Convolution113
I0808 13:44:09.055816 20451 net.cpp:141] Setting up Convolution113
I0808 13:44:09.055825 20451 net.cpp:148] Top shape: 64 50 26 26 (2163200)
I0808 13:44:09.055830 20451 net.cpp:156] Memory required for data: 1823170560
I0808 13:44:09.055837 20451 net.cpp:484] Sharing parameters 'conv2_w' owned by layer 'Convolution2', param index 0
I0808 13:44:09.055843 20451 net.cpp:484] Sharing parameters 'conv2_b' owned by layer 'Convolution2', param index 1
I0808 13:44:09.077016 20451 layer_factory.hpp:77] Creating layer Pooling113
I0808 13:44:09.077051 20451 net.cpp:91] Creating Layer Pooling113
I0808 13:44:09.077070 20451 net.cpp:425] Pooling113 <- Convolution113
I0808 13:44:09.077090 20451 net.cpp:399] Pooling113 -> Pooling113
I0808 13:44:09.077169 20451 net.cpp:141] Setting up Pooling113
I0808 13:44:09.077178 20451 net.cpp:148] Top shape: 64 50 13 13 (540800)
I0808 13:44:09.077184 20451 net.cpp:156] Memory required for data: 1825333760
I0808 13:44:09.077190 20451 layer_factory.hpp:77] Creating layer Convolution114
I0808 13:44:09.077204 20451 net.cpp:91] Creating Layer Convolution114
I0808 13:44:09.077211 20451 net.cpp:425] Convolution114 <- Pooling113
I0808 13:44:09.077224 20451 net.cpp:399] Convolution114 -> Convolution114
I0808 13:44:09.078059 20451 net.cpp:141] Setting up Convolution114
I0808 13:44:09.078068 20451 net.cpp:148] Top shape: 64 50 9 9 (259200)
I0808 13:44:09.078073 20451 net.cpp:156] Memory required for data: 1826370560
I0808 13:44:09.078080 20451 net.cpp:484] Sharing parameters 'conv3_w' owned by layer 'Convolution3', param index 0
I0808 13:44:09.078088 20451 net.cpp:484] Sharing parameters 'conv3_b' owned by layer 'Convolution3', param index 1
I0808 13:44:09.078105 20451 layer_factory.hpp:77] Creating layer Pooling114
I0808 13:44:09.078116 20451 net.cpp:91] Creating Layer Pooling114
I0808 13:44:09.078122 20451 net.cpp:425] Pooling114 <- Convolution114
I0808 13:44:09.078132 20451 net.cpp:399] Pooling114 -> Pooling114
I0808 13:44:09.078186 20451 net.cpp:141] Setting up Pooling114
I0808 13:44:09.078193 20451 net.cpp:148] Top shape: 64 50 5 5 (80000)
I0808 13:44:09.078198 20451 net.cpp:156] Memory required for data: 1826690560
I0808 13:44:09.078204 20451 layer_factory.hpp:77] Creating layer InnerProduct111
I0808 13:44:09.078213 20451 net.cpp:91] Creating Layer InnerProduct111
I0808 13:44:09.078219 20451 net.cpp:425] InnerProduct111 <- Pooling114
I0808 13:44:09.078233 20451 net.cpp:399] InnerProduct111 -> InnerProduct111
I0808 13:44:09.080027 20451 net.cpp:141] Setting up InnerProduct111
I0808 13:44:09.080042 20451 net.cpp:148] Top shape: 64 100 (6400)
I0808 13:44:09.080049 20451 net.cpp:156] Memory required for data: 1826716160
I0808 13:44:09.080056 20451 net.cpp:484] Sharing parameters 'ip1_w' owned by layer 'InnerProduct1', param index 0
I0808 13:44:09.080065 20451 net.cpp:484] Sharing parameters 'ip1_b' owned by layer 'InnerProduct1', param index 1
I0808 13:44:09.080070 20451 layer_factory.hpp:77] Creating layer ReLU74
I0808 13:44:09.080080 20451 net.cpp:91] Creating Layer ReLU74
I0808 13:44:09.080087 20451 net.cpp:425] ReLU74 <- InnerProduct111
I0808 13:44:09.080096 20451 net.cpp:386] ReLU74 -> InnerProduct111 (in-place)
I0808 13:44:09.080107 20451 net.cpp:141] Setting up ReLU74
I0808 13:44:09.080114 20451 net.cpp:148] Top shape: 64 100 (6400)
I0808 13:44:09.080121 20451 net.cpp:156] Memory required for data: 1826741760
I0808 13:44:09.080126 20451 layer_factory.hpp:77] Creating layer InnerProduct112
I0808 13:44:09.080138 20451 net.cpp:91] Creating Layer InnerProduct112
I0808 13:44:09.080144 20451 net.cpp:425] InnerProduct112 <- InnerProduct111
I0808 13:44:09.080157 20451 net.cpp:399] InnerProduct112 -> InnerProduct112
I0808 13:44:09.080343 20451 net.cpp:141] Setting up InnerProduct112
I0808 13:44:09.080351 20451 net.cpp:148] Top shape: 64 50 (3200)
I0808 13:44:09.080356 20451 net.cpp:156] Memory required for data: 1826754560
I0808 13:44:09.080363 20451 net.cpp:484] Sharing parameters 'ip2_w' owned by layer 'InnerProduct2', param index 0
I0808 13:44:09.080369 20451 net.cpp:484] Sharing parameters 'ip2_b' owned by layer 'InnerProduct2', param index 1
I0808 13:44:09.080375 20451 layer_factory.hpp:77] Creating layer Concat19
I0808 13:44:09.080384 20451 net.cpp:91] Creating Layer Concat19
I0808 13:44:09.080390 20451 net.cpp:425] Concat19 <- InnerProduct110
I0808 13:44:09.080399 20451 net.cpp:425] Concat19 <- InnerProduct112
I0808 13:44:09.080407 20451 net.cpp:399] Concat19 -> Concat19
I0808 13:44:09.080440 20451 net.cpp:141] Setting up Concat19
I0808 13:44:09.080447 20451 net.cpp:148] Top shape: 64 100 (6400)
I0808 13:44:09.080453 20451 net.cpp:156] Memory required for data: 1826780160
I0808 13:44:09.080458 20451 layer_factory.hpp:77] Creating layer InnerProduct113
I0808 13:44:09.080471 20451 net.cpp:91] Creating Layer InnerProduct113
I0808 13:44:09.080476 20451 net.cpp:425] InnerProduct113 <- Concat19
I0808 13:44:09.080485 20451 net.cpp:399] InnerProduct113 -> InnerProduct113
I0808 13:44:09.080682 20451 net.cpp:141] Setting up InnerProduct113
I0808 13:44:09.080689 20451 net.cpp:148] Top shape: 64 64 (4096)
I0808 13:44:09.080694 20451 net.cpp:156] Memory required for data: 1826796544
I0808 13:44:09.080700 20451 net.cpp:484] Sharing parameters 'fc1_w' owned by layer 'InnerProduct5', param index 0
I0808 13:44:09.080708 20451 net.cpp:484] Sharing parameters 'fc1_b' owned by layer 'InnerProduct5', param index 1
I0808 13:44:09.080713 20451 layer_factory.hpp:77] Creating layer ReLU75
I0808 13:44:09.080721 20451 net.cpp:91] Creating Layer ReLU75
I0808 13:44:09.080727 20451 net.cpp:425] ReLU75 <- InnerProduct113
I0808 13:44:09.080739 20451 net.cpp:386] ReLU75 -> InnerProduct113 (in-place)
I0808 13:44:09.080747 20451 net.cpp:141] Setting up ReLU75
I0808 13:44:09.080754 20451 net.cpp:148] Top shape: 64 64 (4096)
I0808 13:44:09.080775 20451 net.cpp:156] Memory required for data: 1826812928
I0808 13:44:09.080780 20451 layer_factory.hpp:77] Creating layer drop1
I0808 13:44:09.080790 20451 net.cpp:91] Creating Layer drop1
I0808 13:44:09.080796 20451 net.cpp:425] drop1 <- InnerProduct113
I0808 13:44:09.080807 20451 net.cpp:399] drop1 -> Dropout37
I0808 13:44:09.080870 20451 net.cpp:141] Setting up drop1
I0808 13:44:09.080881 20451 net.cpp:148] Top shape: 64 64 (4096)
I0808 13:44:09.080888 20451 net.cpp:156] Memory required for data: 1826829312
I0808 13:44:09.080896 20451 layer_factory.hpp:77] Creating layer InnerProduct114
I0808 13:44:09.080909 20451 net.cpp:91] Creating Layer InnerProduct114
I0808 13:44:09.080915 20451 net.cpp:425] InnerProduct114 <- Dropout37
I0808 13:44:09.080925 20451 net.cpp:399] InnerProduct114 -> InnerProduct114
I0808 13:44:09.081095 20451 net.cpp:141] Setting up InnerProduct114
I0808 13:44:09.081104 20451 net.cpp:148] Top shape: 64 32 (2048)
I0808 13:44:09.081110 20451 net.cpp:156] Memory required for data: 1826837504
I0808 13:44:09.081115 20451 net.cpp:484] Sharing parameters 'fc2_w' owned by layer 'InnerProduct6', param index 0
I0808 13:44:09.081123 20451 net.cpp:484] Sharing parameters 'fc2_b' owned by layer 'InnerProduct6', param index 1
I0808 13:44:09.081128 20451 layer_factory.hpp:77] Creating layer ReLU76
I0808 13:44:09.081138 20451 net.cpp:91] Creating Layer ReLU76
I0808 13:44:09.081146 20451 net.cpp:425] ReLU76 <- InnerProduct114
I0808 13:44:09.081153 20451 net.cpp:386] ReLU76 -> InnerProduct114 (in-place)
I0808 13:44:09.081162 20451 net.cpp:141] Setting up ReLU76
I0808 13:44:09.081171 20451 net.cpp:148] Top shape: 64 32 (2048)
I0808 13:44:09.081176 20451 net.cpp:156] Memory required for data: 1826845696
I0808 13:44:09.081182 20451 layer_factory.hpp:77] Creating layer drop2
I0808 13:44:09.081190 20451 net.cpp:91] Creating Layer drop2
I0808 13:44:09.081197 20451 net.cpp:425] drop2 <- InnerProduct114
I0808 13:44:09.081207 20451 net.cpp:399] drop2 -> Dropout38
I0808 13:44:09.081254 20451 net.cpp:141] Setting up drop2
I0808 13:44:09.081262 20451 net.cpp:148] Top shape: 64 32 (2048)
I0808 13:44:09.081267 20451 net.cpp:156] Memory required for data: 1826853888
I0808 13:44:09.081274 20451 layer_factory.hpp:77] Creating layer dt18
I0808 13:44:09.081282 20451 net.cpp:91] Creating Layer dt18
I0808 13:44:09.081288 20451 net.cpp:425] dt18 <- Dropout38
I0808 13:44:09.081301 20451 net.cpp:399] dt18 -> dt18
I0808 13:44:09.081444 20451 net.cpp:141] Setting up dt18
I0808 13:44:09.081452 20451 net.cpp:148] Top shape: 64 1 (64)
I0808 13:44:09.081457 20451 net.cpp:156] Memory required for data: 1826854144
I0808 13:44:09.081465 20451 net.cpp:484] Sharing parameters 'fc3_w' owned by layer 'dt0', param index 0
I0808 13:44:09.082108 20451 net.cpp:484] Sharing parameters 'fc3_b' owned by layer 'dt0', param index 1
I0808 13:44:09.082116 20451 layer_factory.hpp:77] Creating layer con
I0808 13:44:09.082129 20451 net.cpp:91] Creating Layer con
…
I0808 13:44:09.082214 20451 net.cpp:425] con <- dt10
I0808 13:44:09.082221 20451 net.cpp:425] con <- dt11
I0808 13:44:09.082228 20451 net.cpp:425] con <- dt12
I0808 13:44:09.082236 20451 net.cpp:425] con <- dt13
I0808 13:44:09.082242 20451 net.cpp:425] con <- dt14
I0808 13:44:09.082248 20451 net.cpp:425] con <- dt15
I0808 13:44:09.082254 20451 net.cpp:425] con <- dt16
I0808 13:44:09.082262 20451 net.cpp:425] con <- dt17
I0808 13:44:09.082267 20451 net.cpp:425] con <- dt18
I0808 13:44:09.082279 20451 net.cpp:399] con -> con
I0808 13:44:09.082325 20451 net.cpp:141] Setting up con
I0808 13:44:09.082332 20451 net.cpp:148] Top shape: 64 19 (1216)
I0808 13:44:09.082339 20451 net.cpp:156] Memory required for data: 1826859008
I0808 13:44:09.082345 20451 layer_factory.hpp:77] Creating layer r1
I0808 13:44:09.082357 20451 net.cpp:91] Creating Layer r1
I0808 13:44:09.082363 20451 net.cpp:425] r1 <- con
I0808 13:44:09.082372 20451 net.cpp:399] r1 -> r1
I0808 13:44:09.082411 20451 net.cpp:141] Setting up r1
I0808 13:44:09.082417 20451 net.cpp:148] Top shape: 64 1 1 19 (1216)
I0808 13:44:09.082423 20451 net.cpp:156] Memory required for data: 1826863872
I0808 13:44:09.082428 20451 layer_factory.hpp:77] Creating layer p
I0808 13:44:09.082437 20451 net.cpp:91] Creating Layer p
I0808 13:44:09.082443 20451 net.cpp:425] p <- r1
I0808 13:44:09.082454 20451 net.cpp:399] p -> p
I0808 13:44:09.082504 20451 net.cpp:141] Setting up p
I0808 13:44:09.082511 20451 net.cpp:148] Top shape: 64 1 1 1 (64)
I0808 13:44:09.082516 20451 net.cpp:156] Memory required for data: 1826864128
I0808 13:44:09.082522 20451 layer_factory.hpp:77] Creating layer r2
I0808 13:44:09.082532 20451 net.cpp:91] Creating Layer r2
I0808 13:44:09.082538 20451 net.cpp:425] r2 <- p
I0808 13:44:09.082546 20451 net.cpp:399] r2 -> r2
I0808 13:44:09.082576 20451 net.cpp:141] Setting up r2
I0808 13:44:09.082583 20451 net.cpp:148] Top shape: 64 1 1 1 (64)
I0808 13:44:09.082588 20451 net.cpp:156] Memory required for data: 1826864384
I0808 13:44:09.082594 20451 layer_factory.hpp:77] Creating layer padL
I0808 13:44:09.082604 20451 net.cpp:91] Creating Layer padL
I0808 13:44:09.082610 20451 net.cpp:425] padL <- label_data_1_split_1
I0808 13:44:09.082619 20451 net.cpp:399] padL -> padL
I0808 13:44:09.082648 20451 net.cpp:141] Setting up padL
I0808 13:44:09.082656 20451 net.cpp:148] Top shape: 64 1 1 1 (64)
I0808 13:44:09.082661 20451 net.cpp:156] Memory required for data: 1826864640
I0808 13:44:09.082667 20451 layer_factory.hpp:77] Creating layer pad
I0808 13:44:09.082674 20451 net.cpp:91] Creating Layer pad
I0808 13:44:09.082680 20451 net.cpp:425] pad <- r2
I0808 13:44:09.082687 20451 net.cpp:425] pad <- padL
I0808 13:44:09.082698 20451 net.cpp:399] pad -> pad
I0808 13:44:09.082726 20451 net.cpp:141] Setting up pad
I0808 13:44:09.082737 20451 net.cpp:148] Top shape: 64 2 1 1 (128)
I0808 13:44:09.082742 20451 net.cpp:156] Memory required for data: 1826865152
I0808 13:44:09.082747 20451 layer_factory.hpp:77] Creating layer pad_pad_0_split
I0808 13:44:09.082756 20451 net.cpp:91] Creating Layer pad_pad_0_split
I0808 13:44:09.082762 20451 net.cpp:425] pad_pad_0_split <- pad
I0808 13:44:09.082769 20451 net.cpp:399] pad_pad_0_split -> pad_pad_0_split_0
I0808 13:44:09.082779 20451 net.cpp:399] pad_pad_0_split -> pad_pad_0_split_1
I0808 13:44:09.082981 20451 net.cpp:141] Setting up pad_pad_0_split
I0808 13:44:09.082993 20451 net.cpp:148] Top shape: 64 2 1 1 (128)
I0808 13:44:09.083009 20451 net.cpp:148] Top shape: 64 2 1 1 (128)
I0808 13:44:09.083015 20451 net.cpp:156] Memory required for data: 1826866176
I0808 13:44:09.083032 20451 layer_factory.hpp:77] Creating layer loss
I0808 13:44:09.083042 20451 net.cpp:91] Creating Layer loss
I0808 13:44:09.083050 20451 net.cpp:425] loss <- pad_pad_0_split_0
I0808 13:44:09.083058 20451 net.cpp:425] loss <- th_th_0_split_0
I0808 13:44:09.083070 20451 net.cpp:399] loss -> loss
…
