…
I0728 23:23:59.968272  8697 solver.cpp:81] Creating training net from train_net file: examples/scene/matchNetTrainHingeMini.prototxt
I0728 23:23:59.971797  8697 net.cpp:49] Initializing net from parameters: 
state {
  phase: TRAIN
}
layer {
  name: "data"
  type: "Data"
  top: "data"
  top: "label"
  include {
    phase: TRAIN
  }
  transform_param {
    scale: 0.0039215689
    mirror: true
    mean_file: "examples/scene/scene_mean.binaryproto"
  }
  data_param {
    source: "examples/scene/train_pairs_unseen_hinge.lmdb"
    batch_size: 32
    backend: LMDB
  }
}
layer {
  name: "i1"
  type: "Slice"
  bottom: "data"
  top: "i1"
  top: "i2"
  slice_param {
    slice_dim: 1
    slice_point: 3
  }
}
layer {
  name: "p1"
  type: "Pooling"
  bottom: "i1"
  top: "p1"
  pooling_param {
    pool: AVE
    kernel_size: 2
    stride: 2
  }
}
layer {
  name: "p2"
  type: "Pooling"
  bottom: "i2"
  top: "p2"
  pooling_param {
    pool: AVE
    kernel_size: 2
    stride: 2
  }
}
layer {
  name: "Input1"
  type: "Input"
  top: "Input1"
  include {
    phase: TRAIN
  }
  input_param {
    shape {
      dim: 32
      dim: 3
      dim: 64
      dim: 64
    }
  }
}
layer {
  name: "c11"
  type: "Crop"
  bottom: "i1"
  bottom: "Input1"
  top: "c11"
  crop_param {
    axis: 2
    offset: 32
    offset: 32
  }
}
layer {
  name: "Input2"
  type: "Input"
  top: "Input2"
  include {
    phase: TRAIN
  }
  input_param {
    shape {
      dim: 32
      dim: 3
      dim: 64
      dim: 64
    }
  }
}
layer {
  name: "c21"
  type: "Crop"
  bottom: "i2"
  bottom: "Input2"
  top: "c21"
  crop_param {
    axis: 2
    offset: 32
    offset: 32
  }
}
layer {
  name: "Convolution1"
  type: "Convolution"
  bottom: "p1"
  top: "Convolution1"
  param {
    name: "conv1_w"
    lr_mult: 1
  }
  param {
    name: "conv1_b"
    lr_mult: 2
  }
  convolution_param {
    num_output: 20
    kernel_size: 5
    stride: 1
    weight_filler {
      type: "xavier"
    }
    bias_filler {
      type: "constant"
    }
  }
}
layer {
  name: "Pooling1"
  type: "Pooling"
  bottom: "Convolution1"
  top: "Pooling1"
  pooling_param {
    pool: MAX
    kernel_size: 2
    stride: 2
  }
}
layer {
  name: "Convolution2"
  type: "Convolution"
  bottom: "Pooling1"
  top: "Convolution2"
  param {
    name: "conv2_w"
    lr_mult: 1
  }
  param {
    name: "conv2_b"
    lr_mult: 2
  }
  convolution_param {
    num_output: 50
    kernel_size: 5
    stride: 1
    weight_filler {
      type: "xavier"
    }
    bias_filler {
      type: "constant"
    }
  }
}
layer {
  name: "Pooling2"
  type: "Pooling"
  bottom: "Convolution2"
  top: "Pooling2"
  pooling_param {
    pool: MAX
    kernel_size: 2
    stride: 2
  }
}
layer {
  name: "InnerProduct1"
  type: "InnerProduct"
  bottom: "Pooling2"
  top: "InnerProduct1"
  param {
    name: "ip1_w"
    lr_mult: 1
  }
  param {
    name: "ip1_b"
    lr_mult: 2
  }
  inner_product_param {
    num_output: 100
    weight_filler {
      type: "xavier"
    }
    bias_filler {
      type: "constant"
    }
  }
}
layer {
  name: "ReLU1"
  type: "ReLU"
  bottom: "InnerProduct1"
  top: "InnerProduct1"
}
layer {
  name: "InnerProduct2"
  type: "InnerProduct"
  bottom: "InnerProduct1"
  top: "InnerProduct2"
  param {
    name: "ip2_w"
    lr_mult: 1
  }
  param {
    name: "ip2_b"
    lr_mult: 2
  }
  inner_product_param {
    num_output: 50
    weight_filler {
      type: "xavier"
    }
    bias_filler {
      type: "constant"
    }
  }
}
layer {
  name: "Convolution3"
  type: "Convolution"
  bottom: "p2"
  top: "Convolution3"
  param {
    name: "conv1_w"
    lr_mult: 1
  }
  param {
    name: "conv1_b"
    lr_mult: 2
  }
  convolution_param {
    num_output: 20
    kernel_size: 5
    stride: 1
    weight_filler {
      type: "xavier"
    }
    bias_filler {
      type: "constant"
    }
  }
}
layer {
  name: "Pooling3"
  type: "Pooling"
  bottom: "Convolution3"
  top: "Pooling3"
  pooling_param {
    pool: MAX
    kernel_size: 2
    stride: 2
  }
}
layer {
  name: "Convolution4"
  type: "Convolution"
  bottom: "Pooling3"
  top: "Convolution4"
  param {
    name: "conv2_w"
    lr_mult: 1
  }
  param {
    name: "conv2_b"
    lr_mult: 2
  }
  convolution_param {
    num_output: 50
    kernel_size: 5
    stride: 1
    weight_filler {
      type: "xavier"
    }
    bias_filler {
      type: "constant"
    }
  }
}
layer {
  name: "Pooling4"
  type: "Pooling"
  bottom: "Convolution4"
  top: "Pooling4"
  pooling_param {
    pool: MAX
    kernel_size: 2
    stride: 2
  }
}
layer {
  name: "InnerProduct3"
  type: "InnerProduct"
  bottom: "Pooling4"
  top: "InnerProduct3"
  param {
    name: "ip1_w"
    lr_mult: 1
  }
  param {
    name: "ip1_b"
    lr_mult: 2
  }
  inner_product_param {
    num_output: 100
    weight_filler {
      type: "xavier"
    }
    bias_filler {
      type: "constant"
    }
  }
}
layer {
  name: "ReLU2"
  type: "ReLU"
  bottom: "InnerProduct3"
  top: "InnerProduct3"
}
layer {
  name: "InnerProduct4"
  type: "InnerProduct"
  bottom: "InnerProduct3"
  top: "InnerProduct4"
  param {
    name: "ip2_w"
    lr_mult: 1
  }
  param {
    name: "ip2_b"
    lr_mult: 2
  }
  inner_product_param {
    num_output: 50
    weight_filler {
      type: "xavier"
    }
    bias_filler {
      type: "constant"
    }
  }
}
layer {
  name: "Concat1"
  type: "Concat"
  bottom: "InnerProduct2"
  bottom: "InnerProduct4"
  top: "Concat1"
  concat_param {
    axis: 1
  }
}
layer {
  name: "InnerProduct5"
  type: "InnerProduct"
  bottom: "Concat1"
  top: "InnerProduct5"
  param {
    name: "fc1_w"
    lr_mult: 1
  }
  param {
    name: "fc1_b"
    lr_mult: 2
  }
  inner_product_param {
    num_output: 64
    weight_filler {
      type: "xavier"
    }
    bias_filler {
      type: "constant"
    }
  }
}
layer {
  name: "ReLU3"
  type: "ReLU"
  bottom: "InnerProduct5"
  top: "InnerProduct5"
}
layer {
  name: "InnerProduct6"
  type: "InnerProduct"
  bottom: "InnerProduct5"
  top: "InnerProduct6"
  param {
    name: "fc2_w"
    lr_mult: 1
  }
  param {
    name: "fc2_b"
    lr_mult: 2
  }
  inner_product_param {
    num_output: 32
    weight_filler {
      type: "xavier"
    }
    bias_filler {
      type: "constant"
    }
  }
}
layer {
  name: "ReLU4"
  type: "ReLU"
  bottom: "InnerProduct6"
  top: "InnerProduct6"
}
layer {
  name: "dt"
  type: "InnerProduct"
  bottom: "InnerProduct6"
  top: "dt"
  param {
    name: "fc3_w"
    lr_mult: 1
  }
  param {
    name: "fc3_b"
    lr_mult: 2
  }
  inner_product_param {
    num_output: 1
    weight_filler {
      type: "xavier"
    }
    bias_filler {
      type: "constant"
    }
  }
}
layer {
  name: "Convolution5"
  type: "Convolution"
  bottom: "p1"
  top: "Convolution5"
  param {
    name: "conv1_w"
    lr_mult: 1
  }
  param {
    name: "conv1_b"
    lr_mult: 2
  }
  convolution_param {
    num_output: 20
    kernel_size: 5
    stride: 1
    weight_filler {
      type: "xavier"
    }
    bias_filler {
      type: "constant"
    }
  }
}
layer {
  name: "Pooling5"
  type: "Pooling"
  bottom: "Convolution5"
  top: "Pooling5"
  pooling_param {
    pool: MAX
    kernel_size: 2
    stride: 2
  }
}
layer {
  name: "Convolution6"
  type: "Convolution"
  bottom: "Pooling5"
  top: "Convolution6"
  param {
    name: "conv2_w"
    lr_mult: 1
  }
  param {
    name: "conv2_b"
    lr_mult: 2
  }
  convolution_param {
    num_output: 50
    kernel_size: 5
    stride: 1
    weight_filler {
      type: "xavier"
    }
    bias_filler {
      type: "constant"
    }
  }
}
layer {
  name: "Pooling6"
  type: "Pooling"
  bottom: "Convolution6"
  top: "Pooling6"
  pooling_param {
    pool: MAX
    kernel_size: 2
    stride: 2
  }
}
layer {
  name: "InnerProduct7"
  type: "InnerProduct"
  bottom: "Pooling6"
  top: "InnerProduct7"
  param {
    name: "ip1_w"
    lr_mult: 1
  }
  param {
    name: "ip1_b"
    lr_mult: 2
  }
  inner_product_param {
    num_output: 100
    weight_filler {
      type: "xavier"
    }
    bias_filler {
      type: "constant"
    }
  }
}
layer {
  name: "ReLU5"
  type: "ReLU"
  bottom: "InnerProduct7"
  top: "InnerProduct7"
}
layer {
  name: "InnerProduct8"
  type: "InnerProduct"
  bottom: "InnerProduct7"
  top: "InnerProduct8"
  param {
    name: "ip2_w"
    lr_mult: 1
  }
  param {
    name: "ip2_b"
    lr_mult: 2
  }
  inner_product_param {
    num_output: 50
    weight_filler {
      type: "xavier"
    }
    bias_filler {
      type: "constant"
    }
  }
}
layer {
  name: "Convolution7"
  type: "Convolution"
  bottom: "c21"
  top: "Convolution7"
  param {
    name: "conv1_w"
    lr_mult: 1
  }
  param {
    name: "conv1_b"
    lr_mult: 2
  }
  convolution_param {
    num_output: 20
    kernel_size: 5
    stride: 1
    weight_filler {
      type: "xavier"
    }
    bias_filler {
      type: "constant"
    }
  }
}
layer {
  name: "Pooling7"
  type: "Pooling"
  bottom: "Convolution7"
  top: "Pooling7"
  pooling_param {
    pool: MAX
    kernel_size: 2
    stride: 2
  }
}
layer {
  name: "Convolution8"
  type: "Convolution"
  bottom: "Pooling7"
  top: "Convolution8"
  param {
    name: "conv2_w"
    lr_mult: 1
  }
  param {
    name: "conv2_b"
    lr_mult: 2
  }
  convolution_param {
    num_output: 50
    kernel_size: 5
    stride: 1
    weight_filler {
      type: "xavier"
    }
    bias_filler {
      type: "constant"
    }
  }
}
layer {
  name: "Pooling8"
  type: "Pooling"
  bottom: "Convolution8"
  top: "Pooling8"
  pooling_param {
    pool: MAX
    kernel_size: 2
    stride: 2
  }
}
layer {
  name: "InnerProduct9"
  type: "InnerProduct"
  bottom: "Pooling8"
  top: "InnerProduct9"
  param {
    name: "ip1_w"
    lr_mult: 1
  }
  param {
    name: "ip1_b"
    lr_mult: 2
  }
  inner_product_param {
    num_output: 100
    weight_filler {
      type: "xavier"
    }
    bias_filler {
      type: "constant"
    }
  }
}
layer {
  name: "ReLU6"
  type: "ReLU"
  bottom: "InnerProduct9"
  top: "InnerProduct9"
}
layer {
  name: "InnerProduct10"
  type: "InnerProduct"
  bottom: "InnerProduct9"
  top: "InnerProduct10"
  param {
    name: "ip2_w"
    lr_mult: 1
  }
  param {
    name: "ip2_b"
    lr_mult: 2
  }
  inner_product_param {
    num_output: 50
    weight_filler {
      type: "xavier"
    }
    bias_filler {
      type: "constant"
    }
  }
}
layer {
  name: "Concat2"
  type: "Concat"
  bottom: "InnerProduct8"
  bottom: "InnerProduct10"
  top: "Concat2"
  concat_param {
    axis: 1
  }
}
layer {
  name: "InnerProduct11"
  type: "InnerProduct"
  bottom: "Concat2"
  top: "InnerProduct11"
  param {
    name: "fc1_w"
    lr_mult: 1
  }
  param {
    name: "fc1_b"
    lr_mult: 2
  }
  inner_product_param {
    num_output: 64
    weight_filler {
      type: "xavier"
    }
    bias_filler {
      type: "constant"
    }
  }
}
layer {
  name: "ReLU7"
  type: "ReLU"
  bottom: "InnerProduct11"
  top: "InnerProduct11"
}
layer {
  name: "InnerProduct12"
  type: "InnerProduct"
  bottom: "InnerProduct11"
  top: "InnerProduct12"
  param {
    name: "fc2_w"
    lr_mult: 1
  }
  param {
    name: "fc2_b"
    lr_mult: 2
  }
  inner_product_param {
    num_output: 32
    weight_filler {
      type: "xavier"
    }
    bias_filler {
      type: "constant"
    }
  }
}
layer {
  name: "ReLU8"
  type: "ReLU"
  bottom: "InnerProduct12"
  top: "InnerProduct12"
}
layer {
  name: "dt1"
  type: "InnerProduct"
  bottom: "InnerProduct12"
  top: "dt1"
  param {
    name: "fc3_w"
    lr_mult: 1
  }
  param {
    name: "fc3_b"
    lr_mult: 2
  }
  inner_product_param {
    num_output: 1
    weight_filler {
      type: "xavier"
    }
    bias_filler {
      type: "constant"
    }
  }
}
layer {
  name: "Convolution9"
  type: "Convolution"
  bottom: "p2"
  top: "Convolution9"
  param {
    name: "conv1_w"
    lr_mult: 1
  }
  param {
    name: "conv1_b"
    lr_mult: 2
  }
  convolution_param {
    num_output: 20
    kernel_size: 5
    stride: 1
    weight_filler {
      type: "xavier"
    }
    bias_filler {
      type: "constant"
    }
  }
}
layer {
  name: "Pooling9"
  type: "Pooling"
  bottom: "Convolution9"
  top: "Pooling9"
  pooling_param {
    pool: MAX
    kernel_size: 2
    stride: 2
  }
}
layer {
  name: "Convolution10"
  type: "Convolution"
  bottom: "Pooling9"
  top: "Convolution10"
  param {
    name: "conv2_w"
    lr_mult: 1
  }
  param {
    name: "conv2_b"
    lr_mult: 2
  }
  convolution_param {
    num_output: 50
    kernel_size: 5
    stride: 1
    weight_filler {
      type: "xavier"
    }
    bias_filler {
      type: "constant"
    }
  }
}
layer {
  name: "Pooling10"
  type: "Pooling"
  bottom: "Convolution10"
  top: "Pooling10"
  pooling_param {
    pool: MAX
    kernel_size: 2
    stride: 2
  }
}
layer {
  name: "InnerProduct13"
  type: "InnerProduct"
  bottom: "Pooling10"
  top: "InnerProduct13"
  param {
    name: "ip1_w"
    lr_mult: 1
  }
  param {
    name: "ip1_b"
    lr_mult: 2
  }
  inner_product_param {
    num_output: 100
    weight_filler {
      type: "xavier"
    }
    bias_filler {
      type: "constant"
    }
  }
}
layer {
  name: "ReLU9"
  type: "ReLU"
  bottom: "InnerProduct13"
  top: "InnerProduct13"
}
layer {
  name: "InnerProduct14"
  type: "InnerProduct"
  bottom: "InnerProduct13"
  top: "InnerProduct14"
  param {
    name: "ip2_w"
    lr_mult: 1
  }
  param {
    name: "ip2_b"
    lr_mult: 2
  }
  inner_product_param {
    num_output: 50
    weight_filler {
      type: "xavier"
    }
    bias_filler {
      type: "constant"
    }
  }
}
layer {
  name: "Convolution11"
  type: "Convolution"
  bottom: "c11"
  top: "Convolution11"
  param {
    name: "conv1_w"
    lr_mult: 1
  }
  param {
    name: "conv1_b"
    lr_mult: 2
  }
  convolution_param {
    num_output: 20
    kernel_size: 5
    stride: 1
    weight_filler {
      type: "xavier"
    }
    bias_filler {
      type: "constant"
    }
  }
}
layer {
  name: "Pooling11"
  type: "Pooling"
  bottom: "Convolution11"
  top: "Pooling11"
  pooling_param {
    pool: MAX
    kernel_size: 2
    stride: 2
  }
}
layer {
  name: "Convolution12"
  type: "Convolution"
  bottom: "Pooling11"
  top: "Convolution12"
  param {
    name: "conv2_w"
    lr_mult: 1
  }
  param {
    name: "conv2_b"
    lr_mult: 2
  }
  convolution_param {
    num_output: 50
    kernel_size: 5
    stride: 1
    weight_filler {
      type: "xavier"
    }
    bias_filler {
      type: "constant"
    }
  }
}
layer {
  name: "Pooling12"
  type: "Pooling"
  bottom: "Convolution12"
  top: "Pooling12"
  pooling_param {
    pool: MAX
    kernel_size: 2
    stride: 2
  }
}
layer {
  name: "InnerProduct15"
  type: "InnerProduct"
  bottom: "Pooling12"
  top: "InnerProduct15"
  param {
    name: "ip1_w"
    lr_mult: 1
  }
  param {
    name: "ip1_b"
    lr_mult: 2
  }
  inner_product_param {
    num_output: 100
    weight_filler {
      type: "xavier"
    }
    bias_filler {
      type: "constant"
    }
  }
}
layer {
  name: "ReLU10"
  type: "ReLU"
  bottom: "InnerProduct15"
  top: "InnerProduct15"
}
layer {
  name: "InnerProduct16"
  type: "InnerProduct"
  bottom: "InnerProduct15"
  top: "InnerProduct16"
  param {
    name: "ip2_w"
    lr_mult: 1
  }
  param {
    name: "ip2_b"
    lr_mult: 2
  }
  inner_product_param {
    num_output: 50
    weight_filler {
      type: "xavier"
    }
    bias_filler {
      type: "constant"
    }
  }
}
layer {
  name: "Concat3"
  type: "Concat"
  bottom: "InnerProduct14"
  bottom: "InnerProduct16"
  top: "Concat3"
  concat_param {
    axis: 1
  }
}
layer {
  name: "InnerProduct17"
  type: "InnerProduct"
  bottom: "Concat3"
  top: "InnerProduct17"
  param {
    name: "fc1_w"
    lr_mult: 1
  }
  param {
    name: "fc1_b"
    lr_mult: 2
  }
  inner_product_param {
    num_output: 64
    weight_filler {
      type: "xavier"
    }
    bias_filler {
      type: "constant"
    }
  }
}
layer {
  name: "ReLU11"
  type: "ReLU"
  bottom: "InnerProduct17"
  top: "InnerProduct17"
}
layer {
  name: "InnerProduct18"
  type: "InnerProduct"
  bottom: "InnerProduct17"
  top: "InnerProduct18"
  param {
    name: "fc2_w"
    lr_mult: 1
  }
  param {
    name: "fc2_b"
    lr_mult: 2
  }
  inner_product_param {
    num_output: 32
    weight_filler {
      type: "xavier"
    }
    bias_filler {
      type: "constant"
    }
  }
}
layer {
  name: "ReLU12"
  type: "ReLU"
  bottom: "InnerProduct18"
  top: "InnerProduct18"
}
layer {
  name: "dt2"
  type: "InnerProduct"
  bottom: "InnerProduct18"
  top: "dt2"
  param {
    name: "fc3_w"
    lr_mult: 1
  }
  param {
    name: "fc3_b"
    lr_mult: 2
  }
  inner_product_param {
    num_output: 1
    weight_filler {
      type: "xavier"
    }
    bias_filler {
      type: "constant"
    }
  }
}
layer {
  name: "con"
  type: "Concat"
  bottom: "dt"
  bottom: "dt1"
  bottom: "dt2"
  top: "con"
  concat_param {
    axis: -1
  }
}
layer {
  name: "r1"
  type: "Reshape"
  bottom: "con"
  top: "r1"
  reshape_param {
    shape {
      dim: 0
      dim: 1
      dim: 1
      dim: -1
    }
  }
}
layer {
  name: "p"
  type: "Pooling"
  bottom: "r1"
  top: "p"
  pooling_param {
    pool: MAX
    stride: 1
    kernel_h: 1
    kernel_w: 3
  }
}
layer {
  name: "r2"
  type: "Reshape"
  bottom: "p"
  top: "r2"
  reshape_param {
    shape {
      dim: 0
      dim: 1
      dim: 1
      dim: -1
    }
  }
}
layer {
  name: "padL"
  type: "Reshape"
  bottom: "label"
  top: "padL"
  reshape_param {
    shape {
      dim: 0
      dim: 1
      dim: 1
      dim: -1
    }
  }
}
layer {
  name: "pad"
  type: "Concat"
  bottom: "r2"
  bottom: "padL"
  top: "pad"
  concat_param {
    axis: 1
  }
}
layer {
  name: "accuracy"
  type: "Accuracy"
  bottom: "pad"
  bottom: "label"
  top: "accuracy"
  include {
    phase: TRAIN
  }
}
layer {
  name: "loss"
  type: "HingeLoss"
  bottom: "pad"
  bottom: "label"
  top: "loss"
}
I0728 23:23:59.972273  8697 layer_factory.hpp:77] Creating layer data
I0728 23:23:59.972874  8697 net.cpp:91] Creating Layer data
I0728 23:23:59.972892  8697 net.cpp:399] data -> data
I0728 23:23:59.972916  8697 net.cpp:399] data -> label
I0728 23:23:59.972929  8697 data_transformer.cpp:25] Loading mean file from: examples/scene/scene_mean.binaryproto
I0728 23:23:59.974174  8701 db_lmdb.cpp:35] Opened lmdb examples/scene/train_pairs_unseen_hinge.lmdb
I0728 23:23:59.974354  8697 data_layer.cpp:41] output data size: 32,6,128,128
I0728 23:23:59.982421  8697 net.cpp:141] Setting up data
I0728 23:23:59.982482  8697 net.cpp:148] Top shape: 32 6 128 128 (3145728)
I0728 23:23:59.982488  8697 net.cpp:148] Top shape: 32 (32)
I0728 23:23:59.982491  8697 net.cpp:156] Memory required for data: 12583040
I0728 23:23:59.982502  8697 layer_factory.hpp:77] Creating layer label_data_1_split
I0728 23:23:59.982514  8697 net.cpp:91] Creating Layer label_data_1_split
I0728 23:23:59.982519  8697 net.cpp:425] label_data_1_split <- label
I0728 23:23:59.982529  8697 net.cpp:399] label_data_1_split -> label_data_1_split_0
I0728 23:23:59.982538  8697 net.cpp:399] label_data_1_split -> label_data_1_split_1
I0728 23:23:59.982542  8697 net.cpp:399] label_data_1_split -> label_data_1_split_2
I0728 23:23:59.982554  8697 net.cpp:141] Setting up label_data_1_split
I0728 23:23:59.982558  8697 net.cpp:148] Top shape: 32 (32)
I0728 23:23:59.982561  8697 net.cpp:148] Top shape: 32 (32)
I0728 23:23:59.982564  8697 net.cpp:148] Top shape: 32 (32)
I0728 23:23:59.982568  8697 net.cpp:156] Memory required for data: 12583424
I0728 23:23:59.982569  8697 layer_factory.hpp:77] Creating layer i1
I0728 23:23:59.982580  8697 net.cpp:91] Creating Layer i1
I0728 23:23:59.982583  8697 net.cpp:425] i1 <- data
I0728 23:23:59.982587  8697 net.cpp:399] i1 -> i1
I0728 23:23:59.982594  8697 net.cpp:399] i1 -> i2
I0728 23:23:59.982599  8697 net.cpp:141] Setting up i1
I0728 23:23:59.982602  8697 net.cpp:148] Top shape: 32 3 128 128 (1572864)
I0728 23:23:59.982606  8697 net.cpp:148] Top shape: 32 3 128 128 (1572864)
I0728 23:23:59.982609  8697 net.cpp:156] Memory required for data: 25166336
I0728 23:23:59.982610  8697 layer_factory.hpp:77] Creating layer i1_i1_0_split
I0728 23:23:59.982614  8697 net.cpp:91] Creating Layer i1_i1_0_split
I0728 23:23:59.982616  8697 net.cpp:425] i1_i1_0_split <- i1
I0728 23:23:59.982620  8697 net.cpp:399] i1_i1_0_split -> i1_i1_0_split_0
I0728 23:23:59.982645  8697 net.cpp:399] i1_i1_0_split -> i1_i1_0_split_1
I0728 23:23:59.982650  8697 net.cpp:141] Setting up i1_i1_0_split
I0728 23:23:59.982653  8697 net.cpp:148] Top shape: 32 3 128 128 (1572864)
I0728 23:23:59.982657  8697 net.cpp:148] Top shape: 32 3 128 128 (1572864)
I0728 23:23:59.982659  8697 net.cpp:156] Memory required for data: 37749248
I0728 23:23:59.982662  8697 layer_factory.hpp:77] Creating layer i2_i1_1_split
I0728 23:23:59.982666  8697 net.cpp:91] Creating Layer i2_i1_1_split
I0728 23:23:59.982668  8697 net.cpp:425] i2_i1_1_split <- i2
I0728 23:23:59.982672  8697 net.cpp:399] i2_i1_1_split -> i2_i1_1_split_0
I0728 23:23:59.982676  8697 net.cpp:399] i2_i1_1_split -> i2_i1_1_split_1
I0728 23:23:59.982681  8697 net.cpp:141] Setting up i2_i1_1_split
I0728 23:23:59.982684  8697 net.cpp:148] Top shape: 32 3 128 128 (1572864)
I0728 23:23:59.982687  8697 net.cpp:148] Top shape: 32 3 128 128 (1572864)
I0728 23:23:59.982689  8697 net.cpp:156] Memory required for data: 50332160
I0728 23:23:59.982692  8697 layer_factory.hpp:77] Creating layer p1
I0728 23:23:59.982698  8697 net.cpp:91] Creating Layer p1
I0728 23:23:59.982700  8697 net.cpp:425] p1 <- i1_i1_0_split_0
I0728 23:23:59.982704  8697 net.cpp:399] p1 -> p1
I0728 23:23:59.982722  8697 net.cpp:141] Setting up p1
I0728 23:23:59.982727  8697 net.cpp:148] Top shape: 32 3 64 64 (393216)
I0728 23:23:59.982729  8697 net.cpp:156] Memory required for data: 51905024
I0728 23:23:59.982731  8697 layer_factory.hpp:77] Creating layer p1_p1_0_split
I0728 23:23:59.982735  8697 net.cpp:91] Creating Layer p1_p1_0_split
I0728 23:23:59.982738  8697 net.cpp:425] p1_p1_0_split <- p1
I0728 23:23:59.982741  8697 net.cpp:399] p1_p1_0_split -> p1_p1_0_split_0
I0728 23:23:59.982745  8697 net.cpp:399] p1_p1_0_split -> p1_p1_0_split_1
I0728 23:23:59.982749  8697 net.cpp:141] Setting up p1_p1_0_split
I0728 23:23:59.982753  8697 net.cpp:148] Top shape: 32 3 64 64 (393216)
I0728 23:23:59.982755  8697 net.cpp:148] Top shape: 32 3 64 64 (393216)
I0728 23:23:59.982758  8697 net.cpp:156] Memory required for data: 55050752
I0728 23:23:59.982759  8697 layer_factory.hpp:77] Creating layer p2
I0728 23:23:59.982764  8697 net.cpp:91] Creating Layer p2
I0728 23:23:59.982766  8697 net.cpp:425] p2 <- i2_i1_1_split_0
I0728 23:23:59.982770  8697 net.cpp:399] p2 -> p2
I0728 23:23:59.982774  8697 net.cpp:141] Setting up p2
I0728 23:23:59.982777  8697 net.cpp:148] Top shape: 32 3 64 64 (393216)
I0728 23:23:59.982779  8697 net.cpp:156] Memory required for data: 56623616
I0728 23:23:59.982781  8697 layer_factory.hpp:77] Creating layer p2_p2_0_split
I0728 23:23:59.982786  8697 net.cpp:91] Creating Layer p2_p2_0_split
I0728 23:23:59.982789  8697 net.cpp:425] p2_p2_0_split <- p2
I0728 23:23:59.982792  8697 net.cpp:399] p2_p2_0_split -> p2_p2_0_split_0
I0728 23:23:59.982795  8697 net.cpp:399] p2_p2_0_split -> p2_p2_0_split_1
I0728 23:23:59.982801  8697 net.cpp:141] Setting up p2_p2_0_split
I0728 23:23:59.982805  8697 net.cpp:148] Top shape: 32 3 64 64 (393216)
I0728 23:23:59.982807  8697 net.cpp:148] Top shape: 32 3 64 64 (393216)
I0728 23:23:59.982810  8697 net.cpp:156] Memory required for data: 59769344
I0728 23:23:59.982812  8697 layer_factory.hpp:77] Creating layer Input1
I0728 23:23:59.982822  8697 net.cpp:91] Creating Layer Input1
I0728 23:23:59.982826  8697 net.cpp:399] Input1 -> Input1
I0728 23:23:59.982836  8697 net.cpp:141] Setting up Input1
I0728 23:23:59.982838  8697 net.cpp:148] Top shape: 32 3 64 64 (393216)
I0728 23:23:59.982841  8697 net.cpp:156] Memory required for data: 61342208
I0728 23:23:59.982843  8697 layer_factory.hpp:77] Creating layer c11
I0728 23:23:59.982848  8697 net.cpp:91] Creating Layer c11
I0728 23:23:59.982851  8697 net.cpp:425] c11 <- i1_i1_0_split_1
I0728 23:23:59.982853  8697 net.cpp:425] c11 <- Input1
I0728 23:23:59.982857  8697 net.cpp:399] c11 -> c11
I0728 23:23:59.982866  8697 net.cpp:141] Setting up c11
I0728 23:23:59.982868  8697 net.cpp:148] Top shape: 32 3 64 64 (393216)
I0728 23:23:59.982872  8697 net.cpp:156] Memory required for data: 62915072
I0728 23:23:59.982880  8697 layer_factory.hpp:77] Creating layer Input2
I0728 23:23:59.982885  8697 net.cpp:91] Creating Layer Input2
I0728 23:23:59.982888  8697 net.cpp:399] Input2 -> Input2
I0728 23:23:59.982893  8697 net.cpp:141] Setting up Input2
I0728 23:23:59.982897  8697 net.cpp:148] Top shape: 32 3 64 64 (393216)
I0728 23:23:59.982898  8697 net.cpp:156] Memory required for data: 64487936
I0728 23:23:59.982902  8697 layer_factory.hpp:77] Creating layer c21
I0728 23:23:59.982905  8697 net.cpp:91] Creating Layer c21
I0728 23:23:59.982908  8697 net.cpp:425] c21 <- i2_i1_1_split_1
I0728 23:23:59.982911  8697 net.cpp:425] c21 <- Input2
I0728 23:23:59.982915  8697 net.cpp:399] c21 -> c21
I0728 23:23:59.982919  8697 net.cpp:141] Setting up c21
I0728 23:23:59.982923  8697 net.cpp:148] Top shape: 32 3 64 64 (393216)
I0728 23:23:59.982924  8697 net.cpp:156] Memory required for data: 66060800
I0728 23:23:59.982928  8697 layer_factory.hpp:77] Creating layer Convolution1
I0728 23:23:59.982939  8697 net.cpp:91] Creating Layer Convolution1
I0728 23:23:59.982941  8697 net.cpp:425] Convolution1 <- p1_p1_0_split_0
I0728 23:23:59.982945  8697 net.cpp:399] Convolution1 -> Convolution1
I0728 23:23:59.982995  8697 net.cpp:141] Setting up Convolution1
I0728 23:23:59.983000  8697 net.cpp:148] Top shape: 32 20 60 60 (2304000)
I0728 23:23:59.983001  8697 net.cpp:156] Memory required for data: 75276800
I0728 23:23:59.983011  8697 layer_factory.hpp:77] Creating layer Pooling1
I0728 23:23:59.983016  8697 net.cpp:91] Creating Layer Pooling1
I0728 23:23:59.983017  8697 net.cpp:425] Pooling1 <- Convolution1
I0728 23:23:59.983021  8697 net.cpp:399] Pooling1 -> Pooling1
I0728 23:23:59.983027  8697 net.cpp:141] Setting up Pooling1
I0728 23:23:59.983031  8697 net.cpp:148] Top shape: 32 20 30 30 (576000)
I0728 23:23:59.983032  8697 net.cpp:156] Memory required for data: 77580800
I0728 23:23:59.983036  8697 layer_factory.hpp:77] Creating layer Convolution2
I0728 23:23:59.983042  8697 net.cpp:91] Creating Layer Convolution2
I0728 23:23:59.983044  8697 net.cpp:425] Convolution2 <- Pooling1
I0728 23:23:59.983047  8697 net.cpp:399] Convolution2 -> Convolution2
I0728 23:23:59.983286  8697 net.cpp:141] Setting up Convolution2
I0728 23:23:59.983296  8697 net.cpp:148] Top shape: 32 50 26 26 (1081600)
I0728 23:23:59.983299  8697 net.cpp:156] Memory required for data: 81907200
I0728 23:23:59.983304  8697 layer_factory.hpp:77] Creating layer Pooling2
I0728 23:23:59.983312  8697 net.cpp:91] Creating Layer Pooling2
I0728 23:23:59.983315  8697 net.cpp:425] Pooling2 <- Convolution2
I0728 23:23:59.983319  8697 net.cpp:399] Pooling2 -> Pooling2
I0728 23:23:59.983325  8697 net.cpp:141] Setting up Pooling2
I0728 23:23:59.983332  8697 net.cpp:148] Top shape: 32 50 13 13 (270400)
I0728 23:23:59.983335  8697 net.cpp:156] Memory required for data: 82988800
I0728 23:23:59.983336  8697 layer_factory.hpp:77] Creating layer InnerProduct1
I0728 23:23:59.983345  8697 net.cpp:91] Creating Layer InnerProduct1
I0728 23:23:59.983348  8697 net.cpp:425] InnerProduct1 <- Pooling2
I0728 23:23:59.983353  8697 net.cpp:399] InnerProduct1 -> InnerProduct1
I0728 23:23:59.996040  8697 net.cpp:141] Setting up InnerProduct1
I0728 23:23:59.997750  8697 net.cpp:148] Top shape: 32 100 (3200)
I0728 23:23:59.997782  8697 net.cpp:156] Memory required for data: 83001600
I0728 23:23:59.997812  8697 layer_factory.hpp:77] Creating layer ReLU1
I0728 23:23:59.997828  8697 net.cpp:91] Creating Layer ReLU1
I0728 23:23:59.997836  8697 net.cpp:425] ReLU1 <- InnerProduct1
I0728 23:23:59.997845  8697 net.cpp:386] ReLU1 -> InnerProduct1 (in-place)
I0728 23:23:59.997860  8697 net.cpp:141] Setting up ReLU1
I0728 23:23:59.997869  8697 net.cpp:148] Top shape: 32 100 (3200)
I0728 23:23:59.997874  8697 net.cpp:156] Memory required for data: 83014400
I0728 23:23:59.997879  8697 layer_factory.hpp:77] Creating layer InnerProduct2
I0728 23:23:59.997897  8697 net.cpp:91] Creating Layer InnerProduct2
I0728 23:23:59.997905  8697 net.cpp:425] InnerProduct2 <- InnerProduct1
I0728 23:23:59.998045  8697 net.cpp:399] InnerProduct2 -> InnerProduct2
I0728 23:23:59.998137  8697 net.cpp:141] Setting up InnerProduct2
I0728 23:23:59.998148  8697 net.cpp:148] Top shape: 32 50 (1600)
I0728 23:23:59.998153  8697 net.cpp:156] Memory required for data: 83020800
I0728 23:23:59.998162  8697 layer_factory.hpp:77] Creating layer Convolution3
I0728 23:23:59.998178  8697 net.cpp:91] Creating Layer Convolution3
I0728 23:23:59.998184  8697 net.cpp:425] Convolution3 <- p2_p2_0_split_0
I0728 23:23:59.998194  8697 net.cpp:399] Convolution3 -> Convolution3
I0728 23:23:59.998255  8697 net.cpp:141] Setting up Convolution3
I0728 23:23:59.998265  8697 net.cpp:148] Top shape: 32 20 60 60 (2304000)
I0728 23:23:59.998270  8697 net.cpp:156] Memory required for data: 92236800
I0728 23:23:59.998278  8697 net.cpp:484] Sharing parameters 'conv1_w' owned by layer 'Convolution1', param index 0
I0728 23:23:59.998286  8697 net.cpp:484] Sharing parameters 'conv1_b' owned by layer 'Convolution1', param index 1
I0728 23:23:59.998291  8697 layer_factory.hpp:77] Creating layer Pooling3
I0728 23:23:59.998303  8697 net.cpp:91] Creating Layer Pooling3
I0728 23:23:59.998308  8697 net.cpp:425] Pooling3 <- Convolution3
I0728 23:23:59.998317  8697 net.cpp:399] Pooling3 -> Pooling3
I0728 23:23:59.998330  8697 net.cpp:141] Setting up Pooling3
I0728 23:23:59.998337  8697 net.cpp:148] Top shape: 32 20 30 30 (576000)
I0728 23:23:59.998342  8697 net.cpp:156] Memory required for data: 94540800
I0728 23:23:59.998347  8697 layer_factory.hpp:77] Creating layer Convolution4
I0728 23:23:59.998363  8697 net.cpp:91] Creating Layer Convolution4
I0728 23:23:59.998368  8697 net.cpp:425] Convolution4 <- Pooling3
I0728 23:23:59.998378  8697 net.cpp:399] Convolution4 -> Convolution4
I0728 23:23:59.998708  8697 net.cpp:141] Setting up Convolution4
I0728 23:23:59.998725  8697 net.cpp:148] Top shape: 32 50 26 26 (1081600)
I0728 23:23:59.998730  8697 net.cpp:156] Memory required for data: 98867200
I0728 23:23:59.998738  8697 net.cpp:484] Sharing parameters 'conv2_w' owned by layer 'Convolution2', param index 0
I0728 23:23:59.998744  8697 net.cpp:484] Sharing parameters 'conv2_b' owned by layer 'Convolution2', param index 1
I0728 23:23:59.998750  8697 layer_factory.hpp:77] Creating layer Pooling4
I0728 23:23:59.998761  8697 net.cpp:91] Creating Layer Pooling4
I0728 23:23:59.998767  8697 net.cpp:425] Pooling4 <- Convolution4
I0728 23:23:59.998778  8697 net.cpp:399] Pooling4 -> Pooling4
I0728 23:23:59.998793  8697 net.cpp:141] Setting up Pooling4
I0728 23:23:59.998800  8697 net.cpp:148] Top shape: 32 50 13 13 (270400)
I0728 23:23:59.998805  8697 net.cpp:156] Memory required for data: 99948800
I0728 23:23:59.998809  8697 layer_factory.hpp:77] Creating layer InnerProduct3
I0728 23:23:59.998823  8697 net.cpp:91] Creating Layer InnerProduct3
I0728 23:23:59.998829  8697 net.cpp:425] InnerProduct3 <- Pooling4
I0728 23:23:59.998838  8697 net.cpp:399] InnerProduct3 -> InnerProduct3
I0728 23:24:00.033846  8697 net.cpp:141] Setting up InnerProduct3
I0728 23:24:00.033938  8697 net.cpp:148] Top shape: 32 100 (3200)
I0728 23:24:00.033956  8697 net.cpp:156] Memory required for data: 99961600
I0728 23:24:00.033973  8697 net.cpp:484] Sharing parameters 'ip1_w' owned by layer 'InnerProduct1', param index 0
I0728 23:24:00.033989  8697 net.cpp:484] Sharing parameters 'ip1_b' owned by layer 'InnerProduct1', param index 1
I0728 23:24:00.034003  8697 layer_factory.hpp:77] Creating layer ReLU2
I0728 23:24:00.034027  8697 net.cpp:91] Creating Layer ReLU2
I0728 23:24:00.034042  8697 net.cpp:425] ReLU2 <- InnerProduct3
I0728 23:24:00.034059  8697 net.cpp:386] ReLU2 -> InnerProduct3 (in-place)
I0728 23:24:00.034087  8697 net.cpp:141] Setting up ReLU2
I0728 23:24:00.034102  8697 net.cpp:148] Top shape: 32 100 (3200)
I0728 23:24:00.034114  8697 net.cpp:156] Memory required for data: 99974400
I0728 23:24:00.034126  8697 layer_factory.hpp:77] Creating layer InnerProduct4
I0728 23:24:00.034145  8697 net.cpp:91] Creating Layer InnerProduct4
I0728 23:24:00.034159  8697 net.cpp:425] InnerProduct4 <- InnerProduct3
I0728 23:24:00.034265  8697 net.cpp:399] InnerProduct4 -> InnerProduct4
I0728 23:24:00.034343  8697 net.cpp:141] Setting up InnerProduct4
I0728 23:24:00.034361  8697 net.cpp:148] Top shape: 32 50 (1600)
I0728 23:24:00.034374  8697 net.cpp:156] Memory required for data: 99980800
I0728 23:24:00.034387  8697 net.cpp:484] Sharing parameters 'ip2_w' owned by layer 'InnerProduct2', param index 0
I0728 23:24:00.034401  8697 net.cpp:484] Sharing parameters 'ip2_b' owned by layer 'InnerProduct2', param index 1
I0728 23:24:00.034413  8697 layer_factory.hpp:77] Creating layer Concat1
I0728 23:24:00.034430  8697 net.cpp:91] Creating Layer Concat1
I0728 23:24:00.034442  8697 net.cpp:425] Concat1 <- InnerProduct2
I0728 23:24:00.034456  8697 net.cpp:425] Concat1 <- InnerProduct4
I0728 23:24:00.034471  8697 net.cpp:399] Concat1 -> Concat1
I0728 23:24:00.034492  8697 net.cpp:141] Setting up Concat1
I0728 23:24:00.034507  8697 net.cpp:148] Top shape: 32 100 (3200)
I0728 23:24:00.034518  8697 net.cpp:156] Memory required for data: 99993600
I0728 23:24:00.034530  8697 layer_factory.hpp:77] Creating layer InnerProduct5
I0728 23:24:00.034548  8697 net.cpp:91] Creating Layer InnerProduct5
I0728 23:24:00.034561  8697 net.cpp:425] InnerProduct5 <- Concat1
I0728 23:24:00.034577  8697 net.cpp:399] InnerProduct5 -> InnerProduct5
I0728 23:24:00.034643  8697 net.cpp:141] Setting up InnerProduct5
I0728 23:24:00.034658  8697 net.cpp:148] Top shape: 32 64 (2048)
I0728 23:24:00.034670  8697 net.cpp:156] Memory required for data: 100001792
I0728 23:24:00.034689  8697 layer_factory.hpp:77] Creating layer ReLU3
I0728 23:24:00.034706  8697 net.cpp:91] Creating Layer ReLU3
I0728 23:24:00.034719  8697 net.cpp:425] ReLU3 <- InnerProduct5
I0728 23:24:00.041574  8697 net.cpp:386] ReLU3 -> InnerProduct5 (in-place)
I0728 23:24:00.041674  8697 net.cpp:141] Setting up ReLU3
I0728 23:24:00.041712  8697 net.cpp:148] Top shape: 32 64 (2048)
I0728 23:24:00.041733  8697 net.cpp:156] Memory required for data: 100009984
I0728 23:24:00.041750  8697 layer_factory.hpp:77] Creating layer InnerProduct6
I0728 23:24:00.041774  8697 net.cpp:91] Creating Layer InnerProduct6
I0728 23:24:00.041792  8697 net.cpp:425] InnerProduct6 <- InnerProduct5
I0728 23:24:00.041820  8697 net.cpp:399] InnerProduct6 -> InnerProduct6
I0728 23:24:00.041874  8697 net.cpp:141] Setting up InnerProduct6
I0728 23:24:00.041893  8697 net.cpp:148] Top shape: 32 32 (1024)
I0728 23:24:00.041906  8697 net.cpp:156] Memory required for data: 100014080
I0728 23:24:00.041923  8697 layer_factory.hpp:77] Creating layer ReLU4
I0728 23:24:00.041940  8697 net.cpp:91] Creating Layer ReLU4
I0728 23:24:00.041954  8697 net.cpp:425] ReLU4 <- InnerProduct6
I0728 23:24:00.041968  8697 net.cpp:386] ReLU4 -> InnerProduct6 (in-place)
I0728 23:24:00.041985  8697 net.cpp:141] Setting up ReLU4
I0728 23:24:00.041999  8697 net.cpp:148] Top shape: 32 32 (1024)
I0728 23:24:00.042011  8697 net.cpp:156] Memory required for data: 100018176
I0728 23:24:00.042022  8697 layer_factory.hpp:77] Creating layer dt
I0728 23:24:00.042048  8697 net.cpp:91] Creating Layer dt
I0728 23:24:00.042063  8697 net.cpp:425] dt <- InnerProduct6
I0728 23:24:00.042080  8697 net.cpp:399] dt -> dt
I0728 23:24:00.042105  8697 net.cpp:141] Setting up dt
I0728 23:24:00.042120  8697 net.cpp:148] Top shape: 32 1 (32)
I0728 23:24:00.042132  8697 net.cpp:156] Memory required for data: 100018304
I0728 23:24:00.042147  8697 layer_factory.hpp:77] Creating layer Convolution5
I0728 23:24:00.042170  8697 net.cpp:91] Creating Layer Convolution5
I0728 23:24:00.042184  8697 net.cpp:425] Convolution5 <- p1_p1_0_split_1
I0728 23:24:00.042201  8697 net.cpp:399] Convolution5 -> Convolution5
I0728 23:24:00.042256  8697 net.cpp:141] Setting up Convolution5
I0728 23:24:00.042276  8697 net.cpp:148] Top shape: 32 20 60 60 (2304000)
I0728 23:24:00.042289  8697 net.cpp:156] Memory required for data: 109234304
I0728 23:24:00.044100  8697 net.cpp:484] Sharing parameters 'conv1_w' owned by layer 'Convolution1', param index 0
I0728 23:24:00.044183  8697 net.cpp:484] Sharing parameters 'conv1_b' owned by layer 'Convolution1', param index 1
I0728 23:24:00.044271  8697 layer_factory.hpp:77] Creating layer Pooling5
I0728 23:24:00.044323  8697 net.cpp:91] Creating Layer Pooling5
I0728 23:24:00.044358  8697 net.cpp:425] Pooling5 <- Convolution5
I0728 23:24:00.044397  8697 net.cpp:399] Pooling5 -> Pooling5
I0728 23:24:00.044443  8697 net.cpp:141] Setting up Pooling5
I0728 23:24:00.044476  8697 net.cpp:148] Top shape: 32 20 30 30 (576000)
I0728 23:24:00.044497  8697 net.cpp:156] Memory required for data: 111538304
I0728 23:24:00.044519  8697 layer_factory.hpp:77] Creating layer Convolution6
I0728 23:24:00.044553  8697 net.cpp:91] Creating Layer Convolution6
I0728 23:24:00.044576  8697 net.cpp:425] Convolution6 <- Pooling5
I0728 23:24:00.044610  8697 net.cpp:399] Convolution6 -> Convolution6
I0728 23:24:00.044924  8697 net.cpp:141] Setting up Convolution6
I0728 23:24:00.044980  8697 net.cpp:148] Top shape: 32 50 26 26 (1081600)
I0728 23:24:00.045277  8697 net.cpp:156] Memory required for data: 115864704
I0728 23:24:00.045336  8697 net.cpp:484] Sharing parameters 'conv2_w' owned by layer 'Convolution2', param index 0
I0728 23:24:00.051897  8697 net.cpp:484] Sharing parameters 'conv2_b' owned by layer 'Convolution2', param index 1
I0728 23:24:00.051936  8697 layer_factory.hpp:77] Creating layer Pooling6
I0728 23:24:00.051972  8697 net.cpp:91] Creating Layer Pooling6
I0728 23:24:00.051992  8697 net.cpp:425] Pooling6 <- Convolution6
I0728 23:24:00.052012  8697 net.cpp:399] Pooling6 -> Pooling6
I0728 23:24:00.052044  8697 net.cpp:141] Setting up Pooling6
I0728 23:24:00.052067  8697 net.cpp:148] Top shape: 32 50 13 13 (270400)
I0728 23:24:00.052081  8697 net.cpp:156] Memory required for data: 116946304
I0728 23:24:00.052095  8697 layer_factory.hpp:77] Creating layer InnerProduct7
I0728 23:24:00.052115  8697 net.cpp:91] Creating Layer InnerProduct7
I0728 23:24:00.052131  8697 net.cpp:425] InnerProduct7 <- Pooling6
I0728 23:24:00.052151  8697 net.cpp:399] InnerProduct7 -> InnerProduct7
I0728 23:24:00.072839  8697 net.cpp:141] Setting up InnerProduct7
I0728 23:24:00.072975  8697 net.cpp:148] Top shape: 32 100 (3200)
I0728 23:24:00.073022  8697 net.cpp:156] Memory required for data: 116959104
I0728 23:24:00.073056  8697 net.cpp:484] Sharing parameters 'ip1_w' owned by layer 'InnerProduct1', param index 0
I0728 23:24:00.073086  8697 net.cpp:484] Sharing parameters 'ip1_b' owned by layer 'InnerProduct1', param index 1
I0728 23:24:00.073112  8697 layer_factory.hpp:77] Creating layer ReLU5
I0728 23:24:00.073140  8697 net.cpp:91] Creating Layer ReLU5
I0728 23:24:00.073164  8697 net.cpp:425] ReLU5 <- InnerProduct7
I0728 23:24:00.073191  8697 net.cpp:386] ReLU5 -> InnerProduct7 (in-place)
I0728 23:24:00.073222  8697 net.cpp:141] Setting up ReLU5
I0728 23:24:00.073248  8697 net.cpp:148] Top shape: 32 100 (3200)
I0728 23:24:00.073268  8697 net.cpp:156] Memory required for data: 116971904
I0728 23:24:00.073292  8697 layer_factory.hpp:77] Creating layer InnerProduct8
I0728 23:24:00.073344  8697 net.cpp:91] Creating Layer InnerProduct8
I0728 23:24:00.073374  8697 net.cpp:425] InnerProduct8 <- InnerProduct7
I0728 23:24:00.073401  8697 net.cpp:399] InnerProduct8 -> InnerProduct8
I0728 23:24:00.073510  8697 net.cpp:141] Setting up InnerProduct8
I0728 23:24:00.073539  8697 net.cpp:148] Top shape: 32 50 (1600)
I0728 23:24:00.073565  8697 net.cpp:156] Memory required for data: 116978304
I0728 23:24:00.073583  8697 net.cpp:484] Sharing parameters 'ip2_w' owned by layer 'InnerProduct2', param index 0
I0728 23:24:00.073603  8697 net.cpp:484] Sharing parameters 'ip2_b' owned by layer 'InnerProduct2', param index 1
I0728 23:24:00.073621  8697 layer_factory.hpp:77] Creating layer Convolution7
I0728 23:24:00.073652  8697 net.cpp:91] Creating Layer Convolution7
I0728 23:24:00.073671  8697 net.cpp:425] Convolution7 <- c21
I0728 23:24:00.073696  8697 net.cpp:399] Convolution7 -> Convolution7
I0728 23:24:00.073762  8697 net.cpp:141] Setting up Convolution7
I0728 23:24:00.073789  8697 net.cpp:148] Top shape: 32 20 60 60 (2304000)
I0728 23:24:00.077942  8697 net.cpp:156] Memory required for data: 126194304
I0728 23:24:00.078035  8697 net.cpp:484] Sharing parameters 'conv1_w' owned by layer 'Convolution1', param index 0
I0728 23:24:00.078096  8697 net.cpp:484] Sharing parameters 'conv1_b' owned by layer 'Convolution1', param index 1
I0728 23:24:00.078125  8697 layer_factory.hpp:77] Creating layer Pooling7
I0728 23:24:00.078240  8697 net.cpp:91] Creating Layer Pooling7
I0728 23:24:00.078263  8697 net.cpp:425] Pooling7 <- Convolution7
I0728 23:24:00.078284  8697 net.cpp:399] Pooling7 -> Pooling7
I0728 23:24:00.078313  8697 net.cpp:141] Setting up Pooling7
I0728 23:24:00.078335  8697 net.cpp:148] Top shape: 32 20 30 30 (576000)
I0728 23:24:00.078348  8697 net.cpp:156] Memory required for data: 128498304
I0728 23:24:00.078362  8697 layer_factory.hpp:77] Creating layer Convolution8
I0728 23:24:00.078390  8697 net.cpp:91] Creating Layer Convolution8
I0728 23:24:00.078407  8697 net.cpp:425] Convolution8 <- Pooling7
I0728 23:24:00.078424  8697 net.cpp:399] Convolution8 -> Convolution8
I0728 23:24:00.078670  8697 net.cpp:141] Setting up Convolution8
I0728 23:24:00.078692  8697 net.cpp:148] Top shape: 32 50 26 26 (1081600)
I0728 23:24:00.078706  8697 net.cpp:156] Memory required for data: 132824704
I0728 23:24:00.078727  8697 net.cpp:484] Sharing parameters 'conv2_w' owned by layer 'Convolution2', param index 0
I0728 23:24:00.078744  8697 net.cpp:484] Sharing parameters 'conv2_b' owned by layer 'Convolution2', param index 1
I0728 23:24:00.078758  8697 layer_factory.hpp:77] Creating layer Pooling8
I0728 23:24:00.078778  8697 net.cpp:91] Creating Layer Pooling8
I0728 23:24:00.078794  8697 net.cpp:425] Pooling8 <- Convolution8
I0728 23:24:00.078810  8697 net.cpp:399] Pooling8 -> Pooling8
I0728 23:24:00.078830  8697 net.cpp:141] Setting up Pooling8
I0728 23:24:00.078846  8697 net.cpp:148] Top shape: 32 50 13 13 (270400)
I0728 23:24:00.078860  8697 net.cpp:156] Memory required for data: 133906304
I0728 23:24:00.078872  8697 layer_factory.hpp:77] Creating layer InnerProduct9
I0728 23:24:00.078893  8697 net.cpp:91] Creating Layer InnerProduct9
I0728 23:24:00.078908  8697 net.cpp:425] InnerProduct9 <- Pooling8
I0728 23:24:00.078925  8697 net.cpp:399] InnerProduct9 -> InnerProduct9
I0728 23:24:00.094632  8697 net.cpp:141] Setting up InnerProduct9
I0728 23:24:00.094899  8697 net.cpp:148] Top shape: 32 100 (3200)
I0728 23:24:00.095558  8697 net.cpp:156] Memory required for data: 133919104
I0728 23:24:00.095626  8697 net.cpp:484] Sharing parameters 'ip1_w' owned by layer 'InnerProduct1', param index 0
I0728 23:24:00.095687  8697 net.cpp:484] Sharing parameters 'ip1_b' owned by layer 'InnerProduct1', param index 1
I0728 23:24:00.095728  8697 layer_factory.hpp:77] Creating layer ReLU6
I0728 23:24:00.095758  8697 net.cpp:91] Creating Layer ReLU6
I0728 23:24:00.095782  8697 net.cpp:425] ReLU6 <- InnerProduct9
I0728 23:24:00.095819  8697 net.cpp:386] ReLU6 -> InnerProduct9 (in-place)
I0728 23:24:00.095854  8697 net.cpp:141] Setting up ReLU6
I0728 23:24:00.095877  8697 net.cpp:148] Top shape: 32 100 (3200)
I0728 23:24:00.095892  8697 net.cpp:156] Memory required for data: 133931904
I0728 23:24:00.095908  8697 layer_factory.hpp:77] Creating layer InnerProduct10
I0728 23:24:00.095930  8697 net.cpp:91] Creating Layer InnerProduct10
I0728 23:24:00.095948  8697 net.cpp:425] InnerProduct10 <- InnerProduct9
I0728 23:24:00.095969  8697 net.cpp:399] InnerProduct10 -> InnerProduct10
I0728 23:24:00.096045  8697 net.cpp:141] Setting up InnerProduct10
I0728 23:24:00.096067  8697 net.cpp:148] Top shape: 32 50 (1600)
I0728 23:24:00.096081  8697 net.cpp:156] Memory required for data: 133938304
I0728 23:24:00.096096  8697 net.cpp:484] Sharing parameters 'ip2_w' owned by layer 'InnerProduct2', param index 0
I0728 23:24:00.096113  8697 net.cpp:484] Sharing parameters 'ip2_b' owned by layer 'InnerProduct2', param index 1
I0728 23:24:00.096127  8697 layer_factory.hpp:77] Creating layer Concat2
I0728 23:24:00.096144  8697 net.cpp:91] Creating Layer Concat2
I0728 23:24:00.096159  8697 net.cpp:425] Concat2 <- InnerProduct8
I0728 23:24:00.096194  8697 net.cpp:425] Concat2 <- InnerProduct10
I0728 23:24:00.096218  8697 net.cpp:399] Concat2 -> Concat2
I0728 23:24:00.096240  8697 net.cpp:141] Setting up Concat2
I0728 23:24:00.096256  8697 net.cpp:148] Top shape: 32 100 (3200)
I0728 23:24:00.096269  8697 net.cpp:156] Memory required for data: 133951104
I0728 23:24:00.096335  8697 layer_factory.hpp:77] Creating layer InnerProduct11
I0728 23:24:00.096359  8697 net.cpp:91] Creating Layer InnerProduct11
I0728 23:24:00.096374  8697 net.cpp:425] InnerProduct11 <- Concat2
I0728 23:24:00.096395  8697 net.cpp:399] InnerProduct11 -> InnerProduct11
I0728 23:24:00.096472  8697 net.cpp:141] Setting up InnerProduct11
I0728 23:24:00.096490  8697 net.cpp:148] Top shape: 32 64 (2048)
I0728 23:24:00.096503  8697 net.cpp:156] Memory required for data: 133959296
I0728 23:24:00.096518  8697 net.cpp:484] Sharing parameters 'fc1_w' owned by layer 'InnerProduct5', param index 0
I0728 23:24:00.096532  8697 net.cpp:484] Sharing parameters 'fc1_b' owned by layer 'InnerProduct5', param index 1
I0728 23:24:00.096545  8697 layer_factory.hpp:77] Creating layer ReLU7
I0728 23:24:00.096563  8697 net.cpp:91] Creating Layer ReLU7
I0728 23:24:00.096585  8697 net.cpp:425] ReLU7 <- InnerProduct11
I0728 23:24:00.096601  8697 net.cpp:386] ReLU7 -> InnerProduct11 (in-place)
I0728 23:24:00.096616  8697 net.cpp:141] Setting up ReLU7
I0728 23:24:00.096631  8697 net.cpp:148] Top shape: 32 64 (2048)
I0728 23:24:00.096642  8697 net.cpp:156] Memory required for data: 133967488
I0728 23:24:00.096654  8697 layer_factory.hpp:77] Creating layer InnerProduct12
I0728 23:24:00.096669  8697 net.cpp:91] Creating Layer InnerProduct12
I0728 23:24:00.096683  8697 net.cpp:425] InnerProduct12 <- InnerProduct11
I0728 23:24:00.096698  8697 net.cpp:399] InnerProduct12 -> InnerProduct12
I0728 23:24:00.096737  8697 net.cpp:141] Setting up InnerProduct12
I0728 23:24:00.096753  8697 net.cpp:148] Top shape: 32 32 (1024)
I0728 23:24:00.096765  8697 net.cpp:156] Memory required for data: 133971584
I0728 23:24:00.096778  8697 net.cpp:484] Sharing parameters 'fc2_w' owned by layer 'InnerProduct6', param index 0
I0728 23:24:00.096791  8697 net.cpp:484] Sharing parameters 'fc2_b' owned by layer 'InnerProduct6', param index 1
I0728 23:24:00.096804  8697 layer_factory.hpp:77] Creating layer ReLU8
I0728 23:24:00.096819  8697 net.cpp:91] Creating Layer ReLU8
I0728 23:24:00.096832  8697 net.cpp:425] ReLU8 <- InnerProduct12
I0728 23:24:00.096848  8697 net.cpp:386] ReLU8 -> InnerProduct12 (in-place)
I0728 23:24:00.096864  8697 net.cpp:141] Setting up ReLU8
I0728 23:24:00.096879  8697 net.cpp:148] Top shape: 32 32 (1024)
I0728 23:24:00.096889  8697 net.cpp:156] Memory required for data: 133975680
I0728 23:24:00.096902  8697 layer_factory.hpp:77] Creating layer dt1
I0728 23:24:00.096918  8697 net.cpp:91] Creating Layer dt1
I0728 23:24:00.096931  8697 net.cpp:425] dt1 <- InnerProduct12
I0728 23:24:00.096949  8697 net.cpp:399] dt1 -> dt1
I0728 23:24:00.096976  8697 net.cpp:141] Setting up dt1
I0728 23:24:00.096999  8697 net.cpp:148] Top shape: 32 1 (32)
I0728 23:24:00.097012  8697 net.cpp:156] Memory required for data: 133975808
I0728 23:24:00.097028  8697 net.cpp:484] Sharing parameters 'fc3_w' owned by layer 'dt', param index 0
I0728 23:24:00.097044  8697 net.cpp:484] Sharing parameters 'fc3_b' owned by layer 'dt', param index 1
I0728 23:24:00.097060  8697 layer_factory.hpp:77] Creating layer Convolution9
I0728 23:24:00.097087  8697 net.cpp:91] Creating Layer Convolution9
I0728 23:24:00.097105  8697 net.cpp:425] Convolution9 <- p2_p2_0_split_1
I0728 23:24:00.097132  8697 net.cpp:399] Convolution9 -> Convolution9
I0728 23:24:00.097194  8697 net.cpp:141] Setting up Convolution9
I0728 23:24:00.097213  8697 net.cpp:148] Top shape: 32 20 60 60 (2304000)
I0728 23:24:00.097224  8697 net.cpp:156] Memory required for data: 143191808
I0728 23:24:00.097239  8697 net.cpp:484] Sharing parameters 'conv1_w' owned by layer 'Convolution1', param index 0
I0728 23:24:00.097252  8697 net.cpp:484] Sharing parameters 'conv1_b' owned by layer 'Convolution1', param index 1
I0728 23:24:00.097282  8697 layer_factory.hpp:77] Creating layer Pooling9
I0728 23:24:00.097302  8697 net.cpp:91] Creating Layer Pooling9
I0728 23:24:00.097316  8697 net.cpp:425] Pooling9 <- Convolution9
I0728 23:24:00.097332  8697 net.cpp:399] Pooling9 -> Pooling9
I0728 23:24:00.097352  8697 net.cpp:141] Setting up Pooling9
I0728 23:24:00.097367  8697 net.cpp:148] Top shape: 32 20 30 30 (576000)
I0728 23:24:00.097378  8697 net.cpp:156] Memory required for data: 145495808
I0728 23:24:00.097389  8697 layer_factory.hpp:77] Creating layer Convolution10
I0728 23:24:00.097409  8697 net.cpp:91] Creating Layer Convolution10
I0728 23:24:00.097424  8697 net.cpp:425] Convolution10 <- Pooling9
I0728 23:24:00.097439  8697 net.cpp:399] Convolution10 -> Convolution10
I0728 23:24:00.097669  8697 net.cpp:141] Setting up Convolution10
I0728 23:24:00.097693  8697 net.cpp:148] Top shape: 32 50 26 26 (1081600)
I0728 23:24:00.097707  8697 net.cpp:156] Memory required for data: 149822208
I0728 23:24:00.097721  8697 net.cpp:484] Sharing parameters 'conv2_w' owned by layer 'Convolution2', param index 0
I0728 23:24:00.097736  8697 net.cpp:484] Sharing parameters 'conv2_b' owned by layer 'Convolution2', param index 1
I0728 23:24:00.097750  8697 layer_factory.hpp:77] Creating layer Pooling10
I0728 23:24:00.097769  8697 net.cpp:91] Creating Layer Pooling10
I0728 23:24:00.097784  8697 net.cpp:425] Pooling10 <- Convolution10
I0728 23:24:00.097800  8697 net.cpp:399] Pooling10 -> Pooling10
I0728 23:24:00.097820  8697 net.cpp:141] Setting up Pooling10
I0728 23:24:00.097836  8697 net.cpp:148] Top shape: 32 50 13 13 (270400)
I0728 23:24:00.097848  8697 net.cpp:156] Memory required for data: 150903808
I0728 23:24:00.097862  8697 layer_factory.hpp:77] Creating layer InnerProduct13
I0728 23:24:00.097882  8697 net.cpp:91] Creating Layer InnerProduct13
I0728 23:24:00.097899  8697 net.cpp:425] InnerProduct13 <- Pooling10
I0728 23:24:00.097920  8697 net.cpp:399] InnerProduct13 -> InnerProduct13
I0728 23:24:00.104729  8697 net.cpp:141] Setting up InnerProduct13
I0728 23:24:00.104876  8697 net.cpp:148] Top shape: 32 100 (3200)
I0728 23:24:00.104909  8697 net.cpp:156] Memory required for data: 150916608
I0728 23:24:00.104948  8697 net.cpp:484] Sharing parameters 'ip1_w' owned by layer 'InnerProduct1', param index 0
I0728 23:24:00.104986  8697 net.cpp:484] Sharing parameters 'ip1_b' owned by layer 'InnerProduct1', param index 1
I0728 23:24:00.105018  8697 layer_factory.hpp:77] Creating layer ReLU9
I0728 23:24:00.105083  8697 net.cpp:91] Creating Layer ReLU9
I0728 23:24:00.105119  8697 net.cpp:425] ReLU9 <- InnerProduct13
I0728 23:24:00.105151  8697 net.cpp:386] ReLU9 -> InnerProduct13 (in-place)
I0728 23:24:00.105192  8697 net.cpp:141] Setting up ReLU9
I0728 23:24:00.105231  8697 net.cpp:148] Top shape: 32 100 (3200)
I0728 23:24:00.105253  8697 net.cpp:156] Memory required for data: 150929408
I0728 23:24:00.105278  8697 layer_factory.hpp:77] Creating layer InnerProduct14
I0728 23:24:00.105315  8697 net.cpp:91] Creating Layer InnerProduct14
I0728 23:24:00.105345  8697 net.cpp:425] InnerProduct14 <- InnerProduct13
I0728 23:24:00.105375  8697 net.cpp:399] InnerProduct14 -> InnerProduct14
I0728 23:24:00.105487  8697 net.cpp:141] Setting up InnerProduct14
I0728 23:24:00.105522  8697 net.cpp:148] Top shape: 32 50 (1600)
I0728 23:24:00.105545  8697 net.cpp:156] Memory required for data: 150935808
I0728 23:24:00.105571  8697 net.cpp:484] Sharing parameters 'ip2_w' owned by layer 'InnerProduct2', param index 0
I0728 23:24:00.105597  8697 net.cpp:484] Sharing parameters 'ip2_b' owned by layer 'InnerProduct2', param index 1
I0728 23:24:00.105623  8697 layer_factory.hpp:77] Creating layer Convolution11
I0728 23:24:00.105662  8697 net.cpp:91] Creating Layer Convolution11
I0728 23:24:00.105691  8697 net.cpp:425] Convolution11 <- c11
I0728 23:24:00.105723  8697 net.cpp:399] Convolution11 -> Convolution11
I0728 23:24:00.105805  8697 net.cpp:141] Setting up Convolution11
I0728 23:24:00.105839  8697 net.cpp:148] Top shape: 32 20 60 60 (2304000)
I0728 23:24:00.105880  8697 net.cpp:156] Memory required for data: 160151808
I0728 23:24:00.105926  8697 net.cpp:484] Sharing parameters 'conv1_w' owned by layer 'Convolution1', param index 0
I0728 23:24:00.105954  8697 net.cpp:484] Sharing parameters 'conv1_b' owned by layer 'Convolution1', param index 1
I0728 23:24:00.105980  8697 layer_factory.hpp:77] Creating layer Pooling11
I0728 23:24:00.106009  8697 net.cpp:91] Creating Layer Pooling11
I0728 23:24:00.106036  8697 net.cpp:425] Pooling11 <- Convolution11
I0728 23:24:00.106068  8697 net.cpp:399] Pooling11 -> Pooling11
I0728 23:24:00.106107  8697 net.cpp:141] Setting up Pooling11
I0728 23:24:00.106135  8697 net.cpp:148] Top shape: 32 20 30 30 (576000)
I0728 23:24:00.106158  8697 net.cpp:156] Memory required for data: 162455808
I0728 23:24:00.106196  8697 layer_factory.hpp:77] Creating layer Convolution12
I0728 23:24:00.106251  8697 net.cpp:91] Creating Layer Convolution12
I0728 23:24:00.106299  8697 net.cpp:425] Convolution12 <- Pooling11
I0728 23:24:00.106356  8697 net.cpp:399] Convolution12 -> Convolution12
I0728 23:24:00.106740  8697 net.cpp:141] Setting up Convolution12
I0728 23:24:00.106861  8697 net.cpp:148] Top shape: 32 50 26 26 (1081600)
I0728 23:24:00.106912  8697 net.cpp:156] Memory required for data: 166782208
I0728 23:24:00.106964  8697 net.cpp:484] Sharing parameters 'conv2_w' owned by layer 'Convolution2', param index 0
I0728 23:24:00.107012  8697 net.cpp:484] Sharing parameters 'conv2_b' owned by layer 'Convolution2', param index 1
I0728 23:24:00.107060  8697 layer_factory.hpp:77] Creating layer Pooling12
I0728 23:24:00.107128  8697 net.cpp:91] Creating Layer Pooling12
I0728 23:24:00.107156  8697 net.cpp:425] Pooling12 <- Convolution12
I0728 23:24:00.107182  8697 net.cpp:399] Pooling12 -> Pooling12
I0728 23:24:00.107215  8697 net.cpp:141] Setting up Pooling12
I0728 23:24:00.107241  8697 net.cpp:148] Top shape: 32 50 13 13 (270400)
I0728 23:24:00.107261  8697 net.cpp:156] Memory required for data: 167863808
I0728 23:24:00.107280  8697 layer_factory.hpp:77] Creating layer InnerProduct15
I0728 23:24:00.107319  8697 net.cpp:91] Creating Layer InnerProduct15
I0728 23:24:00.107344  8697 net.cpp:425] InnerProduct15 <- Pooling12
I0728 23:24:00.107372  8697 net.cpp:399] InnerProduct15 -> InnerProduct15
I0728 23:24:00.122052  8697 net.cpp:141] Setting up InnerProduct15
I0728 23:24:00.126585  8697 net.cpp:148] Top shape: 32 100 (3200)
I0728 23:24:00.126783  8697 net.cpp:156] Memory required for data: 167876608
I0728 23:24:00.126845  8697 net.cpp:484] Sharing parameters 'ip1_w' owned by layer 'InnerProduct1', param index 0
I0728 23:24:00.126866  8697 net.cpp:484] Sharing parameters 'ip1_b' owned by layer 'InnerProduct1', param index 1
I0728 23:24:00.126883  8697 layer_factory.hpp:77] Creating layer ReLU10
I0728 23:24:00.126905  8697 net.cpp:91] Creating Layer ReLU10
I0728 23:24:00.126922  8697 net.cpp:425] ReLU10 <- InnerProduct15
I0728 23:24:00.126947  8697 net.cpp:386] ReLU10 -> InnerProduct15 (in-place)
I0728 23:24:00.126981  8697 net.cpp:141] Setting up ReLU10
I0728 23:24:00.126997  8697 net.cpp:148] Top shape: 32 100 (3200)
I0728 23:24:00.127012  8697 net.cpp:156] Memory required for data: 167889408
I0728 23:24:00.127025  8697 layer_factory.hpp:77] Creating layer InnerProduct16
I0728 23:24:00.127480  8697 net.cpp:91] Creating Layer InnerProduct16
I0728 23:24:00.133832  8697 net.cpp:425] InnerProduct16 <- InnerProduct15
I0728 23:24:00.133909  8697 net.cpp:399] InnerProduct16 -> InnerProduct16
I0728 23:24:00.134037  8697 net.cpp:141] Setting up InnerProduct16
I0728 23:24:00.134071  8697 net.cpp:148] Top shape: 32 50 (1600)
I0728 23:24:00.134091  8697 net.cpp:156] Memory required for data: 167895808
I0728 23:24:00.134114  8697 net.cpp:484] Sharing parameters 'ip2_w' owned by layer 'InnerProduct2', param index 0
I0728 23:24:00.134137  8697 net.cpp:484] Sharing parameters 'ip2_b' owned by layer 'InnerProduct2', param index 1
I0728 23:24:00.134158  8697 layer_factory.hpp:77] Creating layer Concat3
I0728 23:24:00.134184  8697 net.cpp:91] Creating Layer Concat3
I0728 23:24:00.134217  8697 net.cpp:425] Concat3 <- InnerProduct14
I0728 23:24:00.134254  8697 net.cpp:425] Concat3 <- InnerProduct16
I0728 23:24:00.134280  8697 net.cpp:399] Concat3 -> Concat3
I0728 23:24:00.134308  8697 net.cpp:141] Setting up Concat3
I0728 23:24:00.134332  8697 net.cpp:148] Top shape: 32 100 (3200)
I0728 23:24:00.134351  8697 net.cpp:156] Memory required for data: 167908608
I0728 23:24:00.134372  8697 layer_factory.hpp:77] Creating layer InnerProduct17
I0728 23:24:00.134402  8697 net.cpp:91] Creating Layer InnerProduct17
I0728 23:24:00.134423  8697 net.cpp:425] InnerProduct17 <- Concat3
I0728 23:24:00.134448  8697 net.cpp:399] InnerProduct17 -> InnerProduct17
I0728 23:24:00.134552  8697 net.cpp:141] Setting up InnerProduct17
I0728 23:24:00.134616  8697 net.cpp:148] Top shape: 32 64 (2048)
I0728 23:24:00.134642  8697 net.cpp:156] Memory required for data: 167916800
I0728 23:24:00.134665  8697 net.cpp:484] Sharing parameters 'fc1_w' owned by layer 'InnerProduct5', param index 0
I0728 23:24:00.134687  8697 net.cpp:484] Sharing parameters 'fc1_b' owned by layer 'InnerProduct5', param index 1
I0728 23:24:00.134709  8697 layer_factory.hpp:77] Creating layer ReLU11
I0728 23:24:00.134734  8697 net.cpp:91] Creating Layer ReLU11
I0728 23:24:00.134755  8697 net.cpp:425] ReLU11 <- InnerProduct17
I0728 23:24:00.134778  8697 net.cpp:386] ReLU11 -> InnerProduct17 (in-place)
I0728 23:24:00.134804  8697 net.cpp:141] Setting up ReLU11
I0728 23:24:00.134827  8697 net.cpp:148] Top shape: 32 64 (2048)
I0728 23:24:00.134847  8697 net.cpp:156] Memory required for data: 167924992
I0728 23:24:00.134867  8697 layer_factory.hpp:77] Creating layer InnerProduct18
I0728 23:24:00.134891  8697 net.cpp:91] Creating Layer InnerProduct18
I0728 23:24:00.134912  8697 net.cpp:425] InnerProduct18 <- InnerProduct17
I0728 23:24:00.134940  8697 net.cpp:399] InnerProduct18 -> InnerProduct18
I0728 23:24:00.135000  8697 net.cpp:141] Setting up InnerProduct18
I0728 23:24:00.135025  8697 net.cpp:148] Top shape: 32 32 (1024)
I0728 23:24:00.135043  8697 net.cpp:156] Memory required for data: 167929088
I0728 23:24:00.135064  8697 net.cpp:484] Sharing parameters 'fc2_w' owned by layer 'InnerProduct6', param index 0
I0728 23:24:00.135085  8697 net.cpp:484] Sharing parameters 'fc2_b' owned by layer 'InnerProduct6', param index 1
I0728 23:24:00.135107  8697 layer_factory.hpp:77] Creating layer ReLU12
I0728 23:24:00.135130  8697 net.cpp:91] Creating Layer ReLU12
I0728 23:24:00.135151  8697 net.cpp:425] ReLU12 <- InnerProduct18
I0728 23:24:00.135174  8697 net.cpp:386] ReLU12 -> InnerProduct18 (in-place)
I0728 23:24:00.135197  8697 net.cpp:141] Setting up ReLU12
I0728 23:24:00.135220  8697 net.cpp:148] Top shape: 32 32 (1024)
I0728 23:24:00.135238  8697 net.cpp:156] Memory required for data: 167933184
I0728 23:24:00.135258  8697 layer_factory.hpp:77] Creating layer dt2
I0728 23:24:00.135282  8697 net.cpp:91] Creating Layer dt2
I0728 23:24:00.135303  8697 net.cpp:425] dt2 <- InnerProduct18
I0728 23:24:00.135330  8697 net.cpp:399] dt2 -> dt2
I0728 23:24:00.135367  8697 net.cpp:141] Setting up dt2
I0728 23:24:00.135391  8697 net.cpp:148] Top shape: 32 1 (32)
I0728 23:24:00.135411  8697 net.cpp:156] Memory required for data: 167933312
I0728 23:24:00.135443  8697 net.cpp:484] Sharing parameters 'fc3_w' owned by layer 'dt', param index 0
I0728 23:24:00.135468  8697 net.cpp:484] Sharing parameters 'fc3_b' owned by layer 'dt', param index 1
I0728 23:24:00.135489  8697 layer_factory.hpp:77] Creating layer con
I0728 23:24:00.135514  8697 net.cpp:91] Creating Layer con
I0728 23:24:00.135535  8697 net.cpp:425] con <- dt
I0728 23:24:00.135556  8697 net.cpp:425] con <- dt1
I0728 23:24:00.135577  8697 net.cpp:425] con <- dt2
I0728 23:24:00.135601  8697 net.cpp:399] con -> con
I0728 23:24:00.135627  8697 net.cpp:141] Setting up con
I0728 23:24:00.135649  8697 net.cpp:148] Top shape: 32 3 (96)
I0728 23:24:00.135668  8697 net.cpp:156] Memory required for data: 167933696
I0728 23:24:00.135690  8697 layer_factory.hpp:77] Creating layer r1
I0728 23:24:00.135727  8697 net.cpp:91] Creating Layer r1
I0728 23:24:00.135808  8697 net.cpp:425] r1 <- con
I0728 23:24:00.135838  8697 net.cpp:399] r1 -> r1
I0728 23:24:00.135874  8697 net.cpp:141] Setting up r1
I0728 23:24:00.135898  8697 net.cpp:148] Top shape: 32 1 1 3 (96)
I0728 23:24:00.135917  8697 net.cpp:156] Memory required for data: 167934080
I0728 23:24:00.135936  8697 layer_factory.hpp:77] Creating layer p
I0728 23:24:00.135959  8697 net.cpp:91] Creating Layer p
I0728 23:24:00.135980  8697 net.cpp:425] p <- r1
I0728 23:24:00.136003  8697 net.cpp:399] p -> p
I0728 23:24:00.136032  8697 net.cpp:141] Setting up p
I0728 23:24:00.136054  8697 net.cpp:148] Top shape: 32 1 1 1 (32)
I0728 23:24:00.136073  8697 net.cpp:156] Memory required for data: 167934208
I0728 23:24:00.136092  8697 layer_factory.hpp:77] Creating layer r2
I0728 23:24:00.136114  8697 net.cpp:91] Creating Layer r2
I0728 23:24:00.136134  8697 net.cpp:425] r2 <- p
I0728 23:24:00.136159  8697 net.cpp:399] r2 -> r2
I0728 23:24:00.136186  8697 net.cpp:141] Setting up r2
I0728 23:24:00.136209  8697 net.cpp:148] Top shape: 32 1 1 1 (32)
I0728 23:24:00.136227  8697 net.cpp:156] Memory required for data: 167934336
I0728 23:24:00.136247  8697 layer_factory.hpp:77] Creating layer padL
I0728 23:24:00.136329  8697 net.cpp:91] Creating Layer padL
I0728 23:24:00.136358  8697 net.cpp:425] padL <- label_data_1_split_0
I0728 23:24:00.136386  8697 net.cpp:399] padL -> padL
I0728 23:24:00.136463  8697 net.cpp:141] Setting up padL
I0728 23:24:00.136497  8697 net.cpp:148] Top shape: 32 1 1 1 (32)
I0728 23:24:00.136519  8697 net.cpp:156] Memory required for data: 167934464
I0728 23:24:00.136610  8697 layer_factory.hpp:77] Creating layer pad
I0728 23:24:00.136652  8697 net.cpp:91] Creating Layer pad
I0728 23:24:00.136677  8697 net.cpp:425] pad <- r2
I0728 23:24:00.136708  8697 net.cpp:425] pad <- padL
I0728 23:24:00.136744  8697 net.cpp:399] pad -> pad
I0728 23:24:00.136822  8697 net.cpp:141] Setting up pad
I0728 23:24:00.136864  8697 net.cpp:148] Top shape: 32 2 1 1 (64)
I0728 23:24:00.136893  8697 net.cpp:156] Memory required for data: 167934720
I0728 23:24:00.136919  8697 layer_factory.hpp:77] Creating layer pad_pad_0_split
I0728 23:24:00.136971  8697 net.cpp:91] Creating Layer pad_pad_0_split
I0728 23:24:00.136999  8697 net.cpp:425] pad_pad_0_split <- pad
I0728 23:24:00.137028  8697 net.cpp:399] pad_pad_0_split -> pad_pad_0_split_0
I0728 23:24:00.137061  8697 net.cpp:399] pad_pad_0_split -> pad_pad_0_split_1
I0728 23:24:00.137097  8697 net.cpp:141] Setting up pad_pad_0_split
I0728 23:24:00.137130  8697 net.cpp:148] Top shape: 32 2 1 1 (64)
I0728 23:24:00.137161  8697 net.cpp:148] Top shape: 32 2 1 1 (64)
I0728 23:24:00.137186  8697 net.cpp:156] Memory required for data: 167935232
I0728 23:24:00.137214  8697 layer_factory.hpp:77] Creating layer accuracy
I0728 23:24:00.137246  8697 net.cpp:91] Creating Layer accuracy
I0728 23:24:00.137276  8697 net.cpp:425] accuracy <- pad_pad_0_split_0
I0728 23:24:00.137305  8697 net.cpp:425] accuracy <- label_data_1_split_1
I0728 23:24:00.137337  8697 net.cpp:399] accuracy -> accuracy
…
I0728 23:24:00.144073  8697 solver.cpp:181] Creating test net (#0) specified by test_net file: examples/scene/matchNetTestHingeMini.prototxt
I0728 23:24:00.144628  8697 net.cpp:49] Initializing net from parameters: 
state {
  phase: TEST
}
layer {
  name: "data"
  type: "Data"
  top: "data"
  top: "label"
  include {
    phase: TEST
  }
  transform_param {
    scale: 0.0039215689
    mirror: true
    mean_file: "examples/scene/scene_mean.binaryproto"
  }
  data_param {
    source: "examples/scene/test_pairs_unseen_hinge.lmdb"
    batch_size: 50
    backend: LMDB
  }
}
layer {
  name: "i1"
  type: "Slice"
  bottom: "data"
  top: "i1"
  top: "i2"
  slice_param {
    slice_dim: 1
    slice_point: 3
  }
}
layer {
  name: "p1"
  type: "Pooling"
  bottom: "i1"
  top: "p1"
  pooling_param {
    pool: AVE
    kernel_size: 2
    stride: 2
  }
}
layer {
  name: "p2"
  type: "Pooling"
  bottom: "i2"
  top: "p2"
  pooling_param {
    pool: AVE
    kernel_size: 2
    stride: 2
  }
}
layer {
  name: "Input1"
  type: "Input"
  top: "Input1"
  include {
    phase: TEST
  }
  input_param {
    shape {
      dim: 50
      dim: 3
      dim: 64
      dim: 64
    }
  }
}
layer {
  name: "c11"
  type: "Crop"
  bottom: "i1"
  bottom: "Input1"
  top: "c11"
  crop_param {
    axis: 2
    offset: 32
    offset: 32
  }
}
layer {
  name: "Input2"
  type: "Input"
  top: "Input2"
  include {
    phase: TEST
  }
  input_param {
    shape {
      dim: 50
      dim: 3
      dim: 64
      dim: 64
    }
  }
}
layer {
  name: "c21"
  type: "Crop"
  bottom: "i2"
  bottom: "Input2"
  top: "c21"
  crop_param {
    axis: 2
    offset: 32
    offset: 32
  }
}
layer {
  name: "Convolution1"
  type: "Convolution"
  bottom: "p1"
  top: "Convolution1"
  param {
    name: "conv1_w"
    lr_mult: 1
  }
  param {
    name: "conv1_b"
    lr_mult: 2
  }
  convolution_param {
    num_output: 20
    kernel_size: 5
    stride: 1
    weight_filler {
      type: "xavier"
    }
    bias_filler {
      type: "constant"
    }
  }
}
layer {
  name: "Pooling1"
  type: "Pooling"
  bottom: "Convolution1"
  top: "Pooling1"
  pooling_param {
    pool: MAX
    kernel_size: 2
    stride: 2
  }
}
layer {
  name: "Convolution2"
  type: "Convolution"
  bottom: "Pooling1"
  top: "Convolution2"
  param {
    name: "conv2_w"
    lr_mult: 1
  }
  param {
    name: "conv2_b"
    lr_mult: 2
  }
  convolution_param {
    num_output: 50
    kernel_size: 5
    stride: 1
    weight_filler {
      type: "xavier"
    }
    bias_filler {
      type: "constant"
    }
  }
}
layer {
  name: "Pooling2"
  type: "Pooling"
  bottom: "Convolution2"
  top: "Pooling2"
  pooling_param {
    pool: MAX
    kernel_size: 2
    stride: 2
  }
}
layer {
  name: "InnerProduct1"
  type: "InnerProduct"
  bottom: "Pooling2"
  top: "InnerProduct1"
  param {
    name: "ip1_w"
    lr_mult: 1
  }
  param {
    name: "ip1_b"
    lr_mult: 2
  }
  inner_product_param {
    num_output: 100
    weight_filler {
      type: "xavier"
    }
    bias_filler {
      type: "constant"
    }
  }
}
layer {
  name: "ReLU1"
  type: "ReLU"
  bottom: "InnerProduct1"
  top: "InnerProduct1"
}
layer {
  name: "InnerProduct2"
  type: "InnerProduct"
  bottom: "InnerProduct1"
  top: "InnerProduct2"
  param {
    name: "ip2_w"
    lr_mult: 1
  }
  param {
    name: "ip2_b"
    lr_mult: 2
  }
  inner_product_param {
    num_output: 50
    weight_filler {
      type: "xavier"
    }
    bias_filler {
      type: "constant"
    }
  }
}
layer {
  name: "Convolution3"
  type: "Convolution"
  bottom: "p2"
  top: "Convolution3"
  param {
    name: "conv1_w"
    lr_mult: 1
  }
  param {
    name: "conv1_b"
    lr_mult: 2
  }
  convolution_param {
    num_output: 20
    kernel_size: 5
    stride: 1
    weight_filler {
      type: "xavier"
    }
    bias_filler {
      type: "constant"
    }
  }
}
layer {
  name: "Pooling3"
  type: "Pooling"
  bottom: "Convolution3"
  top: "Pooling3"
  pooling_param {
    pool: MAX
    kernel_size: 2
    stride: 2
  }
}
layer {
  name: "Convolution4"
  type: "Convolution"
  bottom: "Pooling3"
  top: "Convolution4"
  param {
    name: "conv2_w"
    lr_mult: 1
  }
  param {
    name: "conv2_b"
    lr_mult: 2
  }
  convolution_param {
    num_output: 50
    kernel_size: 5
    stride: 1
    weight_filler {
      type: "xavier"
    }
    bias_filler {
      type: "constant"
    }
  }
}
layer {
  name: "Pooling4"
  type: "Pooling"
  bottom: "Convolution4"
  top: "Pooling4"
  pooling_param {
    pool: MAX
    kernel_size: 2
    stride: 2
  }
}
layer {
  name: "InnerProduct3"
  type: "InnerProduct"
  bottom: "Pooling4"
  top: "InnerProduct3"
  param {
    name: "ip1_w"
    lr_mult: 1
  }
  param {
    name: "ip1_b"
    lr_mult: 2
  }
  inner_product_param {
    num_output: 100
    weight_filler {
      type: "xavier"
    }
    bias_filler {
      type: "constant"
    }
  }
}
layer {
  name: "ReLU2"
  type: "ReLU"
  bottom: "InnerProduct3"
  top: "InnerProduct3"
}
layer {
  name: "InnerProduct4"
  type: "InnerProduct"
  bottom: "InnerProduct3"
  top: "InnerProduct4"
  param {
    name: "ip2_w"
    lr_mult: 1
  }
  param {
    name: "ip2_b"
    lr_mult: 2
  }
  inner_product_param {
    num_output: 50
    weight_filler {
      type: "xavier"
    }
    bias_filler {
      type: "constant"
    }
  }
}
layer {
  name: "Concat1"
  type: "Concat"
  bottom: "InnerProduct2"
  bottom: "InnerProduct4"
  top: "Concat1"
  concat_param {
    axis: 1
  }
}
layer {
  name: "InnerProduct5"
  type: "InnerProduct"
  bottom: "Concat1"
  top: "InnerProduct5"
  param {
    name: "fc1_w"
    lr_mult: 1
  }
  param {
    name: "fc1_b"
    lr_mult: 2
  }
  inner_product_param {
    num_output: 64
    weight_filler {
      type: "xavier"
    }
    bias_filler {
      type: "constant"
    }
  }
}
layer {
  name: "ReLU3"
  type: "ReLU"
  bottom: "InnerProduct5"
  top: "InnerProduct5"
}
layer {
  name: "InnerProduct6"
  type: "InnerProduct"
  bottom: "InnerProduct5"
  top: "InnerProduct6"
  param {
    name: "fc2_w"
    lr_mult: 1
  }
  param {
    name: "fc2_b"
    lr_mult: 2
  }
  inner_product_param {
    num_output: 32
    weight_filler {
      type: "xavier"
    }
    bias_filler {
      type: "constant"
    }
  }
}
layer {
  name: "ReLU4"
  type: "ReLU"
  bottom: "InnerProduct6"
  top: "InnerProduct6"
}
layer {
  name: "dt"
  type: "InnerProduct"
  bottom: "InnerProduct6"
  top: "dt"
  param {
    name: "fc3_w"
    lr_mult: 1
  }
  param {
    name: "fc3_b"
    lr_mult: 2
  }
  inner_product_param {
    num_output: 1
    weight_filler {
      type: "xavier"
    }
    bias_filler {
      type: "constant"
    }
  }
}
layer {
  name: "Convolution5"
  type: "Convolution"
  bottom: "p1"
  top: "Convolution5"
  param {
    name: "conv1_w"
    lr_mult: 1
  }
  param {
    name: "conv1_b"
    lr_mult: 2
  }
  convolution_param {
    num_output: 20
    kernel_size: 5
    stride: 1
    weight_filler {
      type: "xavier"
    }
    bias_filler {
      type: "constant"
    }
  }
}
layer {
  name: "Pooling5"
  type: "Pooling"
  bottom: "Convolution5"
  top: "Pooling5"
  pooling_param {
    pool: MAX
    kernel_size: 2
    stride: 2
  }
}
layer {
  name: "Convolution6"
  type: "Convolution"
  bottom: "Pooling5"
  top: "Convolution6"
  param {
    name: "conv2_w"
    lr_mult: 1
  }
  param {
    name: "conv2_b"
    lr_mult: 2
  }
  convolution_param {
    num_output: 50
    kernel_size: 5
    stride: 1
    weight_filler {
      type: "xavier"
    }
    bias_filler {
      type: "constant"
    }
  }
}
layer {
  name: "Pooling6"
  type: "Pooling"
  bottom: "Convolution6"
  top: "Pooling6"
  pooling_param {
    pool: MAX
    kernel_size: 2
    stride: 2
  }
}
layer {
  name: "InnerProduct7"
  type: "InnerProduct"
  bottom: "Pooling6"
  top: "InnerProduct7"
  param {
    name: "ip1_w"
    lr_mult: 1
  }
  param {
    name: "ip1_b"
    lr_mult: 2
  }
  inner_product_param {
    num_output: 100
    weight_filler {
      type: "xavier"
    }
    bias_filler {
      type: "constant"
    }
  }
}
layer {
  name: "ReLU5"
  type: "ReLU"
  bottom: "InnerProduct7"
  top: "InnerProduct7"
}
layer {
  name: "InnerProduct8"
  type: "InnerProduct"
  bottom: "InnerProduct7"
  top: "InnerProduct8"
  param {
    name: "ip2_w"
    lr_mult: 1
  }
  param {
    name: "ip2_b"
    lr_mult: 2
  }
  inner_product_param {
    num_output: 50
    weight_filler {
      type: "xavier"
    }
    bias_filler {
      type: "constant"
    }
  }
}
layer {
  name: "Convolution7"
  type: "Convolution"
  bottom: "c21"
  top: "Convolution7"
  param {
    name: "conv1_w"
    lr_mult: 1
  }
  param {
    name: "conv1_b"
    lr_mult: 2
  }
  convolution_param {
    num_output: 20
    kernel_size: 5
    stride: 1
    weight_filler {
      type: "xavier"
    }
    bias_filler {
      type: "constant"
    }
  }
}
layer {
  name: "Pooling7"
  type: "Pooling"
  bottom: "Convolution7"
  top: "Pooling7"
  pooling_param {
    pool: MAX
    kernel_size: 2
    stride: 2
  }
}
layer {
  name: "Convolution8"
  type: "Convolution"
  bottom: "Pooling7"
  top: "Convolution8"
  param {
    name: "conv2_w"
    lr_mult: 1
  }
  param {
    name: "conv2_b"
    lr_mult: 2
  }
  convolution_param {
    num_output: 50
    kernel_size: 5
    stride: 1
    weight_filler {
      type: "xavier"
    }
    bias_filler {
      type: "constant"
    }
  }
}
layer {
  name: "Pooling8"
  type: "Pooling"
  bottom: "Convolution8"
  top: "Pooling8"
  pooling_param {
    pool: MAX
    kernel_size: 2
    stride: 2
  }
}
layer {
  name: "InnerProduct9"
  type: "InnerProduct"
  bottom: "Pooling8"
  top: "InnerProduct9"
  param {
    name: "ip1_w"
    lr_mult: 1
  }
  param {
    name: "ip1_b"
    lr_mult: 2
  }
  inner_product_param {
    num_output: 100
    weight_filler {
      type: "xavier"
    }
    bias_filler {
      type: "constant"
    }
  }
}
layer {
  name: "ReLU6"
  type: "ReLU"
  bottom: "InnerProduct9"
  top: "InnerProduct9"
}
layer {
  name: "InnerProduct10"
  type: "InnerProduct"
  bottom: "InnerProduct9"
  top: "InnerProduct10"
  param {
    name: "ip2_w"
    lr_mult: 1
  }
  param {
    name: "ip2_b"
    lr_mult: 2
  }
  inner_product_param {
    num_output: 50
    weight_filler {
      type: "xavier"
    }
    bias_filler {
      type: "constant"
    }
  }
}
layer {
  name: "Concat2"
  type: "Concat"
  bottom: "InnerProduct8"
  bottom: "InnerProduct10"
  top: "Concat2"
  concat_param {
    axis: 1
  }
}
layer {
  name: "InnerProduct11"
  type: "InnerProduct"
  bottom: "Concat2"
  top: "InnerProduct11"
  param {
    name: "fc1_w"
    lr_mult: 1
  }
  param {
    name: "fc1_b"
    lr_mult: 2
  }
  inner_product_param {
    num_output: 64
    weight_filler {
      type: "xavier"
    }
    bias_filler {
      type: "constant"
    }
  }
}
layer {
  name: "ReLU7"
  type: "ReLU"
  bottom: "InnerProduct11"
  top: "InnerProduct11"
}
layer {
  name: "InnerProduct12"
  type: "InnerProduct"
  bottom: "InnerProduct11"
  top: "InnerProduct12"
  param {
    name: "fc2_w"
    lr_mult: 1
  }
  param {
    name: "fc2_b"
    lr_mult: 2
  }
  inner_product_param {
    num_output: 32
    weight_filler {
      type: "xavier"
    }
    bias_filler {
      type: "constant"
    }
  }
}
layer {
  name: "ReLU8"
  type: "ReLU"
  bottom: "InnerProduct12"
  top: "InnerProduct12"
}
layer {
  name: "dt1"
  type: "InnerProduct"
  bottom: "InnerProduct12"
  top: "dt1"
  param {
    name: "fc3_w"
    lr_mult: 1
  }
  param {
    name: "fc3_b"
    lr_mult: 2
  }
  inner_product_param {
    num_output: 1
    weight_filler {
      type: "xavier"
    }
    bias_filler {
      type: "constant"
    }
  }
}
layer {
  name: "Convolution9"
  type: "Convolution"
  bottom: "p2"
  top: "Convolution9"
  param {
    name: "conv1_w"
    lr_mult: 1
  }
  param {
    name: "conv1_b"
    lr_mult: 2
  }
  convolution_param {
    num_output: 20
    kernel_size: 5
    stride: 1
    weight_filler {
      type: "xavier"
    }
    bias_filler {
      type: "constant"
    }
  }
}
layer {
  name: "Pooling9"
  type: "Pooling"
  bottom: "Convolution9"
  top: "Pooling9"
  pooling_param {
    pool: MAX
    kernel_size: 2
    stride: 2
  }
}
layer {
  name: "Convolution10"
  type: "Convolution"
  bottom: "Pooling9"
  top: "Convolution10"
  param {
    name: "conv2_w"
    lr_mult: 1
  }
  param {
    name: "conv2_b"
    lr_mult: 2
  }
  convolution_param {
    num_output: 50
    kernel_size: 5
    stride: 1
    weight_filler {
      type: "xavier"
    }
    bias_filler {
      type: "constant"
    }
  }
}
layer {
  name: "Pooling10"
  type: "Pooling"
  bottom: "Convolution10"
  top: "Pooling10"
  pooling_param {
    pool: MAX
    kernel_size: 2
    stride: 2
  }
}
layer {
  name: "InnerProduct13"
  type: "InnerProduct"
  bottom: "Pooling10"
  top: "InnerProduct13"
  param {
    name: "ip1_w"
    lr_mult: 1
  }
  param {
    name: "ip1_b"
    lr_mult: 2
  }
  inner_product_param {
    num_output: 100
    weight_filler {
      type: "xavier"
    }
    bias_filler {
      type: "constant"
    }
  }
}
layer {
  name: "ReLU9"
  type: "ReLU"
  bottom: "InnerProduct13"
  top: "InnerProduct13"
}
layer {
  name: "InnerProduct14"
  type: "InnerProduct"
  bottom: "InnerProduct13"
  top: "InnerProduct14"
  param {
    name: "ip2_w"
    lr_mult: 1
  }
  param {
    name: "ip2_b"
    lr_mult: 2
  }
  inner_product_param {
    num_output: 50
    weight_filler {
      type: "xavier"
    }
    bias_filler {
      type: "constant"
    }
  }
}
layer {
  name: "Convolution11"
  type: "Convolution"
  bottom: "c11"
  top: "Convolution11"
  param {
    name: "conv1_w"
    lr_mult: 1
  }
  param {
    name: "conv1_b"
    lr_mult: 2
  }
  convolution_param {
    num_output: 20
    kernel_size: 5
    stride: 1
    weight_filler {
      type: "xavier"
    }
    bias_filler {
      type: "constant"
    }
  }
}
layer {
  name: "Pooling11"
  type: "Pooling"
  bottom: "Convolution11"
  top: "Pooling11"
  pooling_param {
    pool: MAX
    kernel_size: 2
    stride: 2
  }
}
layer {
  name: "Convolution12"
  type: "Convolution"
  bottom: "Pooling11"
  top: "Convolution12"
  param {
    name: "conv2_w"
    lr_mult: 1
  }
  param {
    name: "conv2_b"
    lr_mult: 2
  }
  convolution_param {
    num_output: 50
    kernel_size: 5
    stride: 1
    weight_filler {
      type: "xavier"
    }
    bias_filler {
      type: "constant"
    }
  }
}
layer {
  name: "Pooling12"
  type: "Pooling"
  bottom: "Convolution12"
  top: "Pooling12"
  pooling_param {
    pool: MAX
    kernel_size: 2
    stride: 2
  }
}
layer {
  name: "InnerProduct15"
  type: "InnerProduct"
  bottom: "Pooling12"
  top: "InnerProduct15"
  param {
    name: "ip1_w"
    lr_mult: 1
  }
  param {
    name: "ip1_b"
    lr_mult: 2
  }
  inner_product_param {
    num_output: 100
    weight_filler {
      type: "xavier"
    }
    bias_filler {
      type: "constant"
    }
  }
}
layer {
  name: "ReLU10"
  type: "ReLU"
  bottom: "InnerProduct15"
  top: "InnerProduct15"
}
layer {
  name: "InnerProduct16"
  type: "InnerProduct"
  bottom: "InnerProduct15"
  top: "InnerProduct16"
  param {
    name: "ip2_w"
    lr_mult: 1
  }
  param {
    name: "ip2_b"
    lr_mult: 2
  }
  inner_product_param {
    num_output: 50
    weight_filler {
      type: "xavier"
    }
    bias_filler {
      type: "constant"
    }
  }
}
layer {
  name: "Concat3"
  type: "Concat"
  bottom: "InnerProduct14"
  bottom: "InnerProduct16"
  top: "Concat3"
  concat_param {
    axis: 1
  }
}
layer {
  name: "InnerProduct17"
  type: "InnerProduct"
  bottom: "Concat3"
  top: "InnerProduct17"
  param {
    name: "fc1_w"
    lr_mult: 1
  }
  param {
    name: "fc1_b"
    lr_mult: 2
  }
  inner_product_param {
    num_output: 64
    weight_filler {
      type: "xavier"
    }
    bias_filler {
      type: "constant"
    }
  }
}
layer {
  name: "ReLU11"
  type: "ReLU"
  bottom: "InnerProduct17"
  top: "InnerProduct17"
}
layer {
  name: "InnerProduct18"
  type: "InnerProduct"
  bottom: "InnerProduct17"
  top: "InnerProduct18"
  param {
    name: "fc2_w"
    lr_mult: 1
  }
  param {
    name: "fc2_b"
    lr_mult: 2
  }
  inner_product_param {
    num_output: 32
    weight_filler {
      type: "xavier"
    }
    bias_filler {
      type: "constant"
    }
  }
}
layer {
  name: "ReLU12"
  type: "ReLU"
  bottom: "InnerProduct18"
  top: "InnerProduct18"
}
layer {
  name: "dt2"
  type: "InnerProduct"
  bottom: "InnerProduct18"
  top: "dt2"
  param {
    name: "fc3_w"
    lr_mult: 1
  }
  param {
    name: "fc3_b"
    lr_mult: 2
  }
  inner_product_param {
    num_output: 1
    weight_filler {
      type: "xavier"
    }
    bias_filler {
      type: "constant"
    }
  }
}
layer {
  name: "con"
  type: "Concat"
  bottom: "dt"
  bottom: "dt1"
  bottom: "dt2"
  top: "con"
  concat_param {
    axis: -1
  }
}
layer {
  name: "r1"
  type: "Reshape"
  bottom: "con"
  top: "r1"
  reshape_param {
    shape {
      dim: 0
      dim: 1
      dim: 1
      dim: -1
    }
  }
}
layer {
  name: "p"
  type: "Pooling"
  bottom: "r1"
  top: "p"
  pooling_param {
    pool: MAX
    stride: 1
    kernel_h: 1
    kernel_w: 3
  }
}
layer {
  name: "r2"
  type: "Reshape"
  bottom: "p"
  top: "r2"
  reshape_param {
    shape {
      dim: 0
      dim: 1
      dim: 1
      dim: -1
    }
  }
}
layer {
  name: "padL"
  type: "Reshape"
  bottom: "label"
  top: "padL"
  reshape_param {
    shape {
      dim: 0
      dim: 1
      dim: 1
      dim: -1
    }
  }
}
layer {
  name: "pad"
  type: "Concat"
  bottom: "r2"
  bottom: "padL"
  top: "pad"
  concat_param {
    axis: 1
  }
}
layer {
  name: "accuracy"
  type: "Accuracy"
  bottom: "pad"
  bottom: "label"
  top: "accuracy"
  include {
    phase: TEST
  }
}
layer {
  name: "loss"
  type: "HingeLoss"
  bottom: "pad"
  bottom: "label"
  top: "loss"
}
I0728 23:24:00.146653  8697 layer_factory.hpp:77] Creating layer data
I0728 23:24:00.146788  8697 net.cpp:91] Creating Layer data
I0728 23:24:00.146800  8697 net.cpp:399] data -> data
I0728 23:24:00.146814  8697 net.cpp:399] data -> label
I0728 23:24:00.146826  8697 data_transformer.cpp:25] Loading mean file from: examples/scene/scene_mean.binaryproto
I0728 23:24:00.147722  8703 db_lmdb.cpp:35] Opened lmdb examples/scene/test_pairs_unseen_hinge.lmdb
I0728 23:24:00.147867  8697 data_layer.cpp:41] output data size: 50,6,128,128
I0728 23:24:00.192692  8697 net.cpp:141] Setting up data
I0728 23:24:00.192772  8697 net.cpp:148] Top shape: 50 6 128 128 (4915200)
I0728 23:24:00.192854  8697 net.cpp:148] Top shape: 50 (50)
I0728 23:24:00.192886  8697 net.cpp:156] Memory required for data: 19661000
I0728 23:24:00.192919  8697 layer_factory.hpp:77] Creating layer label_data_1_split
I0728 23:24:00.192962  8697 net.cpp:91] Creating Layer label_data_1_split
I0728 23:24:00.192991  8697 net.cpp:425] label_data_1_split <- label
I0728 23:24:00.193025  8697 net.cpp:399] label_data_1_split -> label_data_1_split_0
I0728 23:24:00.193068  8697 net.cpp:399] label_data_1_split -> label_data_1_split_1
I0728 23:24:00.193099  8697 net.cpp:399] label_data_1_split -> label_data_1_split_2
I0728 23:24:00.193125  8697 net.cpp:141] Setting up label_data_1_split
I0728 23:24:00.193142  8697 net.cpp:148] Top shape: 50 (50)
I0728 23:24:00.193157  8697 net.cpp:148] Top shape: 50 (50)
I0728 23:24:00.193171  8697 net.cpp:148] Top shape: 50 (50)
I0728 23:24:00.193184  8697 net.cpp:156] Memory required for data: 19661600
I0728 23:24:00.193198  8697 layer_factory.hpp:77] Creating layer i1
I0728 23:24:00.193219  8697 net.cpp:91] Creating Layer i1
I0728 23:24:00.193233  8697 net.cpp:425] i1 <- data
I0728 23:24:00.193250  8697 net.cpp:399] i1 -> i1
I0728 23:24:00.193269  8697 net.cpp:399] i1 -> i2
I0728 23:24:00.193298  8697 net.cpp:141] Setting up i1
I0728 23:24:00.193315  8697 net.cpp:148] Top shape: 50 3 128 128 (2457600)
I0728 23:24:00.193330  8697 net.cpp:148] Top shape: 50 3 128 128 (2457600)
I0728 23:24:00.193342  8697 net.cpp:156] Memory required for data: 39322400
I0728 23:24:00.193356  8697 layer_factory.hpp:77] Creating layer i1_i1_0_split
I0728 23:24:00.193375  8697 net.cpp:91] Creating Layer i1_i1_0_split
I0728 23:24:00.193389  8697 net.cpp:425] i1_i1_0_split <- i1
I0728 23:24:00.193405  8697 net.cpp:399] i1_i1_0_split -> i1_i1_0_split_0
I0728 23:24:00.193423  8697 net.cpp:399] i1_i1_0_split -> i1_i1_0_split_1
I0728 23:24:00.193444  8697 net.cpp:141] Setting up i1_i1_0_split
I0728 23:24:00.193459  8697 net.cpp:148] Top shape: 50 3 128 128 (2457600)
I0728 23:24:00.193475  8697 net.cpp:148] Top shape: 50 3 128 128 (2457600)
I0728 23:24:00.193487  8697 net.cpp:156] Memory required for data: 58983200
I0728 23:24:00.193500  8697 layer_factory.hpp:77] Creating layer i2_i1_1_split
I0728 23:24:00.193517  8697 net.cpp:91] Creating Layer i2_i1_1_split
I0728 23:24:00.193532  8697 net.cpp:425] i2_i1_1_split <- i2
I0728 23:24:00.193548  8697 net.cpp:399] i2_i1_1_split -> i2_i1_1_split_0
I0728 23:24:00.193567  8697 net.cpp:399] i2_i1_1_split -> i2_i1_1_split_1
I0728 23:24:00.193583  8697 net.cpp:141] Setting up i2_i1_1_split
I0728 23:24:00.193598  8697 net.cpp:148] Top shape: 50 3 128 128 (2457600)
I0728 23:24:00.193614  8697 net.cpp:148] Top shape: 50 3 128 128 (2457600)
I0728 23:24:00.193626  8697 net.cpp:156] Memory required for data: 78644000
I0728 23:24:00.193639  8697 layer_factory.hpp:77] Creating layer p1
I0728 23:24:00.193658  8697 net.cpp:91] Creating Layer p1
I0728 23:24:00.193672  8697 net.cpp:425] p1 <- i1_i1_0_split_0
I0728 23:24:00.193688  8697 net.cpp:399] p1 -> p1
I0728 23:24:00.193708  8697 net.cpp:141] Setting up p1
I0728 23:24:00.193724  8697 net.cpp:148] Top shape: 50 3 64 64 (614400)
I0728 23:24:00.193737  8697 net.cpp:156] Memory required for data: 81101600
I0728 23:24:00.193752  8697 layer_factory.hpp:77] Creating layer p1_p1_0_split
I0728 23:24:00.193766  8697 net.cpp:91] Creating Layer p1_p1_0_split
I0728 23:24:00.193781  8697 net.cpp:425] p1_p1_0_split <- p1
I0728 23:24:00.193797  8697 net.cpp:399] p1_p1_0_split -> p1_p1_0_split_0
I0728 23:24:00.193814  8697 net.cpp:399] p1_p1_0_split -> p1_p1_0_split_1
I0728 23:24:00.193832  8697 net.cpp:141] Setting up p1_p1_0_split
I0728 23:24:00.193848  8697 net.cpp:148] Top shape: 50 3 64 64 (614400)
I0728 23:24:00.193873  8697 net.cpp:148] Top shape: 50 3 64 64 (614400)
I0728 23:24:00.193964  8697 net.cpp:156] Memory required for data: 86016800
I0728 23:24:00.193989  8697 layer_factory.hpp:77] Creating layer p2
I0728 23:24:00.194011  8697 net.cpp:91] Creating Layer p2
I0728 23:24:00.194026  8697 net.cpp:425] p2 <- i2_i1_1_split_0
I0728 23:24:00.194042  8697 net.cpp:399] p2 -> p2
I0728 23:24:00.194062  8697 net.cpp:141] Setting up p2
I0728 23:24:00.194078  8697 net.cpp:148] Top shape: 50 3 64 64 (614400)
I0728 23:24:00.194092  8697 net.cpp:156] Memory required for data: 88474400
I0728 23:24:00.194105  8697 layer_factory.hpp:77] Creating layer p2_p2_0_split
I0728 23:24:00.194123  8697 net.cpp:91] Creating Layer p2_p2_0_split
I0728 23:24:00.194136  8697 net.cpp:425] p2_p2_0_split <- p2
I0728 23:24:00.194152  8697 net.cpp:399] p2_p2_0_split -> p2_p2_0_split_0
I0728 23:24:00.194169  8697 net.cpp:399] p2_p2_0_split -> p2_p2_0_split_1
I0728 23:24:00.194190  8697 net.cpp:141] Setting up p2_p2_0_split
I0728 23:24:00.194205  8697 net.cpp:148] Top shape: 50 3 64 64 (614400)
I0728 23:24:00.194218  8697 net.cpp:148] Top shape: 50 3 64 64 (614400)
I0728 23:24:00.194231  8697 net.cpp:156] Memory required for data: 93389600
I0728 23:24:00.194245  8697 layer_factory.hpp:77] Creating layer Input1
I0728 23:24:00.194263  8697 net.cpp:91] Creating Layer Input1
I0728 23:24:00.194278  8697 net.cpp:399] Input1 -> Input1
I0728 23:24:00.194298  8697 net.cpp:141] Setting up Input1
I0728 23:24:00.194314  8697 net.cpp:148] Top shape: 50 3 64 64 (614400)
I0728 23:24:00.194326  8697 net.cpp:156] Memory required for data: 95847200
I0728 23:24:00.194339  8697 layer_factory.hpp:77] Creating layer c11
I0728 23:24:00.194355  8697 net.cpp:91] Creating Layer c11
I0728 23:24:00.194370  8697 net.cpp:425] c11 <- i1_i1_0_split_1
I0728 23:24:00.194385  8697 net.cpp:425] c11 <- Input1
I0728 23:24:00.194401  8697 net.cpp:399] c11 -> c11
I0728 23:24:00.194422  8697 net.cpp:141] Setting up c11
I0728 23:24:00.194439  8697 net.cpp:148] Top shape: 50 3 64 64 (614400)
I0728 23:24:00.194453  8697 net.cpp:156] Memory required for data: 98304800
I0728 23:24:00.194466  8697 layer_factory.hpp:77] Creating layer Input2
I0728 23:24:00.194533  8697 net.cpp:91] Creating Layer Input2
I0728 23:24:00.194560  8697 net.cpp:399] Input2 -> Input2
I0728 23:24:00.194581  8697 net.cpp:141] Setting up Input2
I0728 23:24:00.194597  8697 net.cpp:148] Top shape: 50 3 64 64 (614400)
I0728 23:24:00.194609  8697 net.cpp:156] Memory required for data: 100762400
I0728 23:24:00.194622  8697 layer_factory.hpp:77] Creating layer c21
I0728 23:24:00.194639  8697 net.cpp:91] Creating Layer c21
I0728 23:24:00.194653  8697 net.cpp:425] c21 <- i2_i1_1_split_1
I0728 23:24:00.194669  8697 net.cpp:425] c21 <- Input2
I0728 23:24:00.194684  8697 net.cpp:399] c21 -> c21
I0728 23:24:00.194703  8697 net.cpp:141] Setting up c21
I0728 23:24:00.194720  8697 net.cpp:148] Top shape: 50 3 64 64 (614400)
I0728 23:24:00.194732  8697 net.cpp:156] Memory required for data: 103220000
I0728 23:24:00.194746  8697 layer_factory.hpp:77] Creating layer Convolution1
I0728 23:24:00.194767  8697 net.cpp:91] Creating Layer Convolution1
I0728 23:24:00.194782  8697 net.cpp:425] Convolution1 <- p1_p1_0_split_0
I0728 23:24:00.194799  8697 net.cpp:399] Convolution1 -> Convolution1
I0728 23:24:00.194852  8697 net.cpp:141] Setting up Convolution1
I0728 23:24:00.194870  8697 net.cpp:148] Top shape: 50 20 60 60 (3600000)
I0728 23:24:00.194883  8697 net.cpp:156] Memory required for data: 117620000
I0728 23:24:00.194903  8697 layer_factory.hpp:77] Creating layer Pooling1
I0728 23:24:00.194921  8697 net.cpp:91] Creating Layer Pooling1
I0728 23:24:00.194936  8697 net.cpp:425] Pooling1 <- Convolution1
I0728 23:24:00.194950  8697 net.cpp:399] Pooling1 -> Pooling1
I0728 23:24:00.194972  8697 net.cpp:141] Setting up Pooling1
I0728 23:24:00.194988  8697 net.cpp:148] Top shape: 50 20 30 30 (900000)
I0728 23:24:00.195000  8697 net.cpp:156] Memory required for data: 121220000
I0728 23:24:00.195013  8697 layer_factory.hpp:77] Creating layer Convolution2
I0728 23:24:00.195040  8697 net.cpp:91] Creating Layer Convolution2
I0728 23:24:00.195068  8697 net.cpp:425] Convolution2 <- Pooling1
I0728 23:24:00.195086  8697 net.cpp:399] Convolution2 -> Convolution2
I0728 23:24:00.195294  8697 net.cpp:141] Setting up Convolution2
I0728 23:24:00.195314  8697 net.cpp:148] Top shape: 50 50 26 26 (1690000)
I0728 23:24:00.195327  8697 net.cpp:156] Memory required for data: 127980000
I0728 23:24:00.195345  8697 layer_factory.hpp:77] Creating layer Pooling2
I0728 23:24:00.195364  8697 net.cpp:91] Creating Layer Pooling2
I0728 23:24:00.195379  8697 net.cpp:425] Pooling2 <- Convolution2
I0728 23:24:00.195395  8697 net.cpp:399] Pooling2 -> Pooling2
I0728 23:24:00.195415  8697 net.cpp:141] Setting up Pooling2
I0728 23:24:00.195431  8697 net.cpp:148] Top shape: 50 50 13 13 (422500)
I0728 23:24:00.195444  8697 net.cpp:156] Memory required for data: 129670000
I0728 23:24:00.195457  8697 layer_factory.hpp:77] Creating layer InnerProduct1
I0728 23:24:00.195475  8697 net.cpp:91] Creating Layer InnerProduct1
I0728 23:24:00.195489  8697 net.cpp:425] InnerProduct1 <- Pooling2
I0728 23:24:00.195507  8697 net.cpp:399] InnerProduct1 -> InnerProduct1
I0728 23:24:00.207640  8697 net.cpp:141] Setting up InnerProduct1
I0728 23:24:00.210784  8697 net.cpp:148] Top shape: 50 100 (5000)
I0728 23:24:00.211592  8697 net.cpp:156] Memory required for data: 129690000
I0728 23:24:00.211825  8697 layer_factory.hpp:77] Creating layer ReLU1
I0728 23:24:00.211984  8697 net.cpp:91] Creating Layer ReLU1
I0728 23:24:00.212082  8697 net.cpp:425] ReLU1 <- InnerProduct1
I0728 23:24:00.212373  8697 net.cpp:386] ReLU1 -> InnerProduct1 (in-place)
I0728 23:24:00.213088  8697 net.cpp:141] Setting up ReLU1
I0728 23:24:00.213178  8697 net.cpp:148] Top shape: 50 100 (5000)
I0728 23:24:00.213227  8697 net.cpp:156] Memory required for data: 129710000
I0728 23:24:00.213274  8697 layer_factory.hpp:77] Creating layer InnerProduct2
I0728 23:24:00.213421  8697 net.cpp:91] Creating Layer InnerProduct2
I0728 23:24:00.213527  8697 net.cpp:425] InnerProduct2 <- InnerProduct1
I0728 23:24:00.213563  8697 net.cpp:399] InnerProduct2 -> InnerProduct2
I0728 23:24:00.213656  8697 net.cpp:141] Setting up InnerProduct2
I0728 23:24:00.214159  8697 net.cpp:148] Top shape: 50 50 (2500)
I0728 23:24:00.214185  8697 net.cpp:156] Memory required for data: 129720000
I0728 23:24:00.214210  8697 layer_factory.hpp:77] Creating layer Convolution3
I0728 23:24:00.214241  8697 net.cpp:91] Creating Layer Convolution3
I0728 23:24:00.214262  8697 net.cpp:425] Convolution3 <- p2_p2_0_split_0
I0728 23:24:00.214287  8697 net.cpp:399] Convolution3 -> Convolution3
I0728 23:24:00.214361  8697 net.cpp:141] Setting up Convolution3
I0728 23:24:00.214398  8697 net.cpp:148] Top shape: 50 20 60 60 (3600000)
I0728 23:24:00.214421  8697 net.cpp:156] Memory required for data: 144120000
I0728 23:24:00.214452  8697 net.cpp:484] Sharing parameters 'conv1_w' owned by layer 'Convolution1', param index 0
I0728 23:24:00.214479  8697 net.cpp:484] Sharing parameters 'conv1_b' owned by layer 'Convolution1', param index 1
I0728 23:24:00.214503  8697 layer_factory.hpp:77] Creating layer Pooling3
I0728 23:24:00.214529  8697 net.cpp:91] Creating Layer Pooling3
I0728 23:24:00.214552  8697 net.cpp:425] Pooling3 <- Convolution3
I0728 23:24:00.214578  8697 net.cpp:399] Pooling3 -> Pooling3
I0728 23:24:00.214612  8697 net.cpp:141] Setting up Pooling3
I0728 23:24:00.214637  8697 net.cpp:148] Top shape: 50 20 30 30 (900000)
I0728 23:24:00.214655  8697 net.cpp:156] Memory required for data: 147720000
I0728 23:24:00.214675  8697 layer_factory.hpp:77] Creating layer Convolution4
I0728 23:24:00.214797  8697 net.cpp:91] Creating Layer Convolution4
I0728 23:24:00.215255  8697 net.cpp:425] Convolution4 <- Pooling3
I0728 23:24:00.215315  8697 net.cpp:399] Convolution4 -> Convolution4
I0728 23:24:00.215554  8697 net.cpp:141] Setting up Convolution4
I0728 23:24:00.215589  8697 net.cpp:148] Top shape: 50 50 26 26 (1690000)
I0728 23:24:00.215602  8697 net.cpp:156] Memory required for data: 154480000
I0728 23:24:00.215636  8697 net.cpp:484] Sharing parameters 'conv2_w' owned by layer 'Convolution2', param index 0
I0728 23:24:00.215667  8697 net.cpp:484] Sharing parameters 'conv2_b' owned by layer 'Convolution2', param index 1
I0728 23:24:00.215680  8697 layer_factory.hpp:77] Creating layer Pooling4
I0728 23:24:00.215698  8697 net.cpp:91] Creating Layer Pooling4
I0728 23:24:00.215714  8697 net.cpp:425] Pooling4 <- Convolution4
I0728 23:24:00.215733  8697 net.cpp:399] Pooling4 -> Pooling4
I0728 23:24:00.215754  8697 net.cpp:141] Setting up Pooling4
I0728 23:24:00.215771  8697 net.cpp:148] Top shape: 50 50 13 13 (422500)
I0728 23:24:00.215945  8697 net.cpp:156] Memory required for data: 156170000
I0728 23:24:00.216619  8697 layer_factory.hpp:77] Creating layer InnerProduct3
I0728 23:24:00.216778  8697 net.cpp:91] Creating Layer InnerProduct3
I0728 23:24:00.216835  8697 net.cpp:425] InnerProduct3 <- Pooling4
I0728 23:24:00.216881  8697 net.cpp:399] InnerProduct3 -> InnerProduct3
I0728 23:24:00.237411  8697 net.cpp:141] Setting up InnerProduct3
I0728 23:24:00.237546  8697 net.cpp:148] Top shape: 50 100 (5000)
I0728 23:24:00.237584  8697 net.cpp:156] Memory required for data: 156190000
I0728 23:24:00.237617  8697 net.cpp:484] Sharing parameters 'ip1_w' owned by layer 'InnerProduct1', param index 0
I0728 23:24:00.237644  8697 net.cpp:484] Sharing parameters 'ip1_b' owned by layer 'InnerProduct1', param index 1
I0728 23:24:00.238051  8697 layer_factory.hpp:77] Creating layer ReLU2
I0728 23:24:00.238090  8697 net.cpp:91] Creating Layer ReLU2
I0728 23:24:00.238116  8697 net.cpp:425] ReLU2 <- InnerProduct3
I0728 23:24:00.238144  8697 net.cpp:386] ReLU2 -> InnerProduct3 (in-place)
I0728 23:24:00.238179  8697 net.cpp:141] Setting up ReLU2
I0728 23:24:00.238205  8697 net.cpp:148] Top shape: 50 100 (5000)
I0728 23:24:00.238225  8697 net.cpp:156] Memory required for data: 156210000
I0728 23:24:00.238245  8697 layer_factory.hpp:77] Creating layer InnerProduct4
I0728 23:24:00.238275  8697 net.cpp:91] Creating Layer InnerProduct4
I0728 23:24:00.238296  8697 net.cpp:425] InnerProduct4 <- InnerProduct3
I0728 23:24:00.238322  8697 net.cpp:399] InnerProduct4 -> InnerProduct4
I0728 23:24:00.238420  8697 net.cpp:141] Setting up InnerProduct4
I0728 23:24:00.238447  8697 net.cpp:148] Top shape: 50 50 (2500)
I0728 23:24:00.238466  8697 net.cpp:156] Memory required for data: 156220000
I0728 23:24:00.238487  8697 net.cpp:484] Sharing parameters 'ip2_w' owned by layer 'InnerProduct2', param index 0
I0728 23:24:00.238508  8697 net.cpp:484] Sharing parameters 'ip2_b' owned by layer 'InnerProduct2', param index 1
I0728 23:24:00.238528  8697 layer_factory.hpp:77] Creating layer Concat1
I0728 23:24:00.238553  8697 net.cpp:91] Creating Layer Concat1
I0728 23:24:00.238574  8697 net.cpp:425] Concat1 <- InnerProduct2
I0728 23:24:00.238595  8697 net.cpp:425] Concat1 <- InnerProduct4
I0728 23:24:00.238620  8697 net.cpp:399] Concat1 -> Concat1
I0728 23:24:00.238648  8697 net.cpp:141] Setting up Concat1
I0728 23:24:00.239189  8697 net.cpp:148] Top shape: 50 100 (5000)
I0728 23:24:00.239220  8697 net.cpp:156] Memory required for data: 156240000
I0728 23:24:00.239240  8697 layer_factory.hpp:77] Creating layer InnerProduct5
I0728 23:24:00.239265  8697 net.cpp:91] Creating Layer InnerProduct5
I0728 23:24:00.239287  8697 net.cpp:425] InnerProduct5 <- Concat1
I0728 23:24:00.239312  8697 net.cpp:399] InnerProduct5 -> InnerProduct5
I0728 23:24:00.239413  8697 net.cpp:141] Setting up InnerProduct5
I0728 23:24:00.239437  8697 net.cpp:148] Top shape: 50 64 (3200)
I0728 23:24:00.239511  8697 net.cpp:156] Memory required for data: 156252800
I0728 23:24:00.239547  8697 layer_factory.hpp:77] Creating layer ReLU3
I0728 23:24:00.239573  8697 net.cpp:91] Creating Layer ReLU3
I0728 23:24:00.239593  8697 net.cpp:425] ReLU3 <- InnerProduct5
I0728 23:24:00.239616  8697 net.cpp:386] ReLU3 -> InnerProduct5 (in-place)
I0728 23:24:00.239642  8697 net.cpp:141] Setting up ReLU3
I0728 23:24:00.239665  8697 net.cpp:148] Top shape: 50 64 (3200)
I0728 23:24:00.239683  8697 net.cpp:156] Memory required for data: 156265600
I0728 23:24:00.239717  8697 layer_factory.hpp:77] Creating layer InnerProduct6
I0728 23:24:00.239758  8697 net.cpp:91] Creating Layer InnerProduct6
I0728 23:24:00.239779  8697 net.cpp:425] InnerProduct6 <- InnerProduct5
I0728 23:24:00.239804  8697 net.cpp:399] InnerProduct6 -> InnerProduct6
I0728 23:24:00.239861  8697 net.cpp:141] Setting up InnerProduct6
I0728 23:24:00.239886  8697 net.cpp:148] Top shape: 50 32 (1600)
I0728 23:24:00.239905  8697 net.cpp:156] Memory required for data: 156272000
I0728 23:24:00.239928  8697 layer_factory.hpp:77] Creating layer ReLU4
I0728 23:24:00.239953  8697 net.cpp:91] Creating Layer ReLU4
I0728 23:24:00.239972  8697 net.cpp:425] ReLU4 <- InnerProduct6
I0728 23:24:00.240003  8697 net.cpp:386] ReLU4 -> InnerProduct6 (in-place)
I0728 23:24:00.240618  8697 net.cpp:141] Setting up ReLU4
I0728 23:24:00.240654  8697 net.cpp:148] Top shape: 50 32 (1600)
I0728 23:24:00.240674  8697 net.cpp:156] Memory required for data: 156278400
I0728 23:24:00.240695  8697 layer_factory.hpp:77] Creating layer dt
I0728 23:24:00.240727  8697 net.cpp:91] Creating Layer dt
I0728 23:24:00.240748  8697 net.cpp:425] dt <- InnerProduct6
I0728 23:24:00.240774  8697 net.cpp:399] dt -> dt
I0728 23:24:00.240810  8697 net.cpp:141] Setting up dt
I0728 23:24:00.240834  8697 net.cpp:148] Top shape: 50 1 (50)
I0728 23:24:00.240854  8697 net.cpp:156] Memory required for data: 156278600
I0728 23:24:00.240876  8697 layer_factory.hpp:77] Creating layer Convolution5
I0728 23:24:00.240906  8697 net.cpp:91] Creating Layer Convolution5
I0728 23:24:00.240928  8697 net.cpp:425] Convolution5 <- p1_p1_0_split_1
I0728 23:24:00.240955  8697 net.cpp:399] Convolution5 -> Convolution5
I0728 23:24:00.241080  8697 net.cpp:141] Setting up Convolution5
I0728 23:24:00.241127  8697 net.cpp:148] Top shape: 50 20 60 60 (3600000)
I0728 23:24:00.241262  8697 net.cpp:156] Memory required for data: 170678600
I0728 23:24:00.242349  8697 net.cpp:484] Sharing parameters 'conv1_w' owned by layer 'Convolution1', param index 0
I0728 23:24:00.242610  8697 net.cpp:484] Sharing parameters 'conv1_b' owned by layer 'Convolution1', param index 1
I0728 23:24:00.242751  8697 layer_factory.hpp:77] Creating layer Pooling5
I0728 23:24:00.242892  8697 net.cpp:91] Creating Layer Pooling5
I0728 23:24:00.243003  8697 net.cpp:425] Pooling5 <- Convolution5
I0728 23:24:00.243126  8697 net.cpp:399] Pooling5 -> Pooling5
I0728 23:24:00.243276  8697 net.cpp:141] Setting up Pooling5
I0728 23:24:00.243723  8697 net.cpp:148] Top shape: 50 20 30 30 (900000)
I0728 23:24:00.244390  8697 net.cpp:156] Memory required for data: 174278600
I0728 23:24:00.244436  8697 layer_factory.hpp:77] Creating layer Convolution6
I0728 23:24:00.244472  8697 net.cpp:91] Creating Layer Convolution6
I0728 23:24:00.244951  8697 net.cpp:425] Convolution6 <- Pooling5
I0728 23:24:00.244987  8697 net.cpp:399] Convolution6 -> Convolution6
I0728 23:24:00.245211  8697 net.cpp:141] Setting up Convolution6
I0728 23:24:00.245237  8697 net.cpp:148] Top shape: 50 50 26 26 (1690000)
I0728 23:24:00.245252  8697 net.cpp:156] Memory required for data: 181038600
I0728 23:24:00.245268  8697 net.cpp:484] Sharing parameters 'conv2_w' owned by layer 'Convolution2', param index 0
I0728 23:24:00.245286  8697 net.cpp:484] Sharing parameters 'conv2_b' owned by layer 'Convolution2', param index 1
I0728 23:24:00.245301  8697 layer_factory.hpp:77] Creating layer Pooling6
I0728 23:24:00.245321  8697 net.cpp:91] Creating Layer Pooling6
I0728 23:24:00.245337  8697 net.cpp:425] Pooling6 <- Convolution6
I0728 23:24:00.245354  8697 net.cpp:399] Pooling6 -> Pooling6
I0728 23:24:00.245378  8697 net.cpp:141] Setting up Pooling6
I0728 23:24:00.245394  8697 net.cpp:148] Top shape: 50 50 13 13 (422500)
I0728 23:24:00.245409  8697 net.cpp:156] Memory required for data: 182728600
I0728 23:24:00.245422  8697 layer_factory.hpp:77] Creating layer InnerProduct7
I0728 23:24:00.245440  8697 net.cpp:91] Creating Layer InnerProduct7
I0728 23:24:00.245455  8697 net.cpp:425] InnerProduct7 <- Pooling6
I0728 23:24:00.245473  8697 net.cpp:399] InnerProduct7 -> InnerProduct7
I0728 23:24:00.264750  8697 net.cpp:141] Setting up InnerProduct7
I0728 23:24:00.265327  8697 net.cpp:148] Top shape: 50 100 (5000)
I0728 23:24:00.265395  8697 net.cpp:156] Memory required for data: 182748600
I0728 23:24:00.265416  8697 net.cpp:484] Sharing parameters 'ip1_w' owned by layer 'InnerProduct1', param index 0
I0728 23:24:00.265434  8697 net.cpp:484] Sharing parameters 'ip1_b' owned by layer 'InnerProduct1', param index 1
I0728 23:24:00.265450  8697 layer_factory.hpp:77] Creating layer ReLU5
I0728 23:24:00.265472  8697 net.cpp:91] Creating Layer ReLU5
I0728 23:24:00.265489  8697 net.cpp:425] ReLU5 <- InnerProduct7
I0728 23:24:00.265509  8697 net.cpp:386] ReLU5 -> InnerProduct7 (in-place)
I0728 23:24:00.265532  8697 net.cpp:141] Setting up ReLU5
I0728 23:24:00.265548  8697 net.cpp:148] Top shape: 50 100 (5000)
I0728 23:24:00.265563  8697 net.cpp:156] Memory required for data: 182768600
I0728 23:24:00.265576  8697 layer_factory.hpp:77] Creating layer InnerProduct8
I0728 23:24:00.265595  8697 net.cpp:91] Creating Layer InnerProduct8
I0728 23:24:00.265610  8697 net.cpp:425] InnerProduct8 <- InnerProduct7
I0728 23:24:00.265630  8697 net.cpp:399] InnerProduct8 -> InnerProduct8
I0728 23:24:00.265696  8697 net.cpp:141] Setting up InnerProduct8
I0728 23:24:00.265713  8697 net.cpp:148] Top shape: 50 50 (2500)
I0728 23:24:00.265727  8697 net.cpp:156] Memory required for data: 182778600
I0728 23:24:00.265743  8697 net.cpp:484] Sharing parameters 'ip2_w' owned by layer 'InnerProduct2', param index 0
I0728 23:24:00.265759  8697 net.cpp:484] Sharing parameters 'ip2_b' owned by layer 'InnerProduct2', param index 1
I0728 23:24:00.265774  8697 layer_factory.hpp:77] Creating layer Convolution7
I0728 23:24:00.265795  8697 net.cpp:91] Creating Layer Convolution7
I0728 23:24:00.265811  8697 net.cpp:425] Convolution7 <- c21
I0728 23:24:00.265830  8697 net.cpp:399] Convolution7 -> Convolution7
I0728 23:24:00.265883  8697 net.cpp:141] Setting up Convolution7
I0728 23:24:00.265903  8697 net.cpp:148] Top shape: 50 20 60 60 (3600000)
I0728 23:24:00.265918  8697 net.cpp:156] Memory required for data: 197178600
I0728 23:24:00.265933  8697 net.cpp:484] Sharing parameters 'conv1_w' owned by layer 'Convolution1', param index 0
I0728 23:24:00.265947  8697 net.cpp:484] Sharing parameters 'conv1_b' owned by layer 'Convolution1', param index 1
I0728 23:24:00.266010  8697 layer_factory.hpp:77] Creating layer Pooling7
I0728 23:24:00.266429  8697 net.cpp:91] Creating Layer Pooling7
I0728 23:24:00.266449  8697 net.cpp:425] Pooling7 <- Convolution7
I0728 23:24:00.266466  8697 net.cpp:399] Pooling7 -> Pooling7
I0728 23:24:00.266489  8697 net.cpp:141] Setting up Pooling7
I0728 23:24:00.266506  8697 net.cpp:148] Top shape: 50 20 30 30 (900000)
I0728 23:24:00.266520  8697 net.cpp:156] Memory required for data: 200778600
I0728 23:24:00.266533  8697 layer_factory.hpp:77] Creating layer Convolution8
I0728 23:24:00.266553  8697 net.cpp:91] Creating Layer Convolution8
I0728 23:24:00.266568  8697 net.cpp:425] Convolution8 <- Pooling7
I0728 23:24:00.266587  8697 net.cpp:399] Convolution8 -> Convolution8
I0728 23:24:00.266811  8697 net.cpp:141] Setting up Convolution8
I0728 23:24:00.266832  8697 net.cpp:148] Top shape: 50 50 26 26 (1690000)
I0728 23:24:00.266846  8697 net.cpp:156] Memory required for data: 207538600
I0728 23:24:00.266866  8697 net.cpp:484] Sharing parameters 'conv2_w' owned by layer 'Convolution2', param index 0
I0728 23:24:00.266883  8697 net.cpp:484] Sharing parameters 'conv2_b' owned by layer 'Convolution2', param index 1
I0728 23:24:00.266897  8697 layer_factory.hpp:77] Creating layer Pooling8
I0728 23:24:00.266913  8697 net.cpp:91] Creating Layer Pooling8
I0728 23:24:00.266928  8697 net.cpp:425] Pooling8 <- Convolution8
I0728 23:24:00.266944  8697 net.cpp:399] Pooling8 -> Pooling8
I0728 23:24:00.266964  8697 net.cpp:141] Setting up Pooling8
I0728 23:24:00.267413  8697 net.cpp:148] Top shape: 50 50 13 13 (422500)
I0728 23:24:00.267432  8697 net.cpp:156] Memory required for data: 209228600
I0728 23:24:00.267446  8697 layer_factory.hpp:77] Creating layer InnerProduct9
I0728 23:24:00.267482  8697 net.cpp:91] Creating Layer InnerProduct9
I0728 23:24:00.267498  8697 net.cpp:425] InnerProduct9 <- Pooling8
I0728 23:24:00.267515  8697 net.cpp:399] InnerProduct9 -> InnerProduct9
I0728 23:24:00.273748  8697 net.cpp:141] Setting up InnerProduct9
I0728 23:24:00.273854  8697 net.cpp:148] Top shape: 50 100 (5000)
I0728 23:24:00.273870  8697 net.cpp:156] Memory required for data: 209248600
I0728 23:24:00.273998  8697 net.cpp:484] Sharing parameters 'ip1_w' owned by layer 'InnerProduct1', param index 0
I0728 23:24:00.274019  8697 net.cpp:484] Sharing parameters 'ip1_b' owned by layer 'InnerProduct1', param index 1
I0728 23:24:00.274034  8697 layer_factory.hpp:77] Creating layer ReLU6
I0728 23:24:00.274054  8697 net.cpp:91] Creating Layer ReLU6
I0728 23:24:00.274068  8697 net.cpp:425] ReLU6 <- InnerProduct9
I0728 23:24:00.274085  8697 net.cpp:386] ReLU6 -> InnerProduct9 (in-place)
I0728 23:24:00.274104  8697 net.cpp:141] Setting up ReLU6
I0728 23:24:00.274119  8697 net.cpp:148] Top shape: 50 100 (5000)
I0728 23:24:00.274132  8697 net.cpp:156] Memory required for data: 209268600
I0728 23:24:00.274143  8697 layer_factory.hpp:77] Creating layer InnerProduct10
I0728 23:24:00.274160  8697 net.cpp:91] Creating Layer InnerProduct10
I0728 23:24:00.274174  8697 net.cpp:425] InnerProduct10 <- InnerProduct9
I0728 23:24:00.274190  8697 net.cpp:399] InnerProduct10 -> InnerProduct10
I0728 23:24:00.274256  8697 net.cpp:141] Setting up InnerProduct10
I0728 23:24:00.274354  8697 net.cpp:148] Top shape: 50 50 (2500)
I0728 23:24:00.274370  8697 net.cpp:156] Memory required for data: 209278600
I0728 23:24:00.274384  8697 net.cpp:484] Sharing parameters 'ip2_w' owned by layer 'InnerProduct2', param index 0
I0728 23:24:00.274399  8697 net.cpp:484] Sharing parameters 'ip2_b' owned by layer 'InnerProduct2', param index 1
I0728 23:24:00.274411  8697 layer_factory.hpp:77] Creating layer Concat2
I0728 23:24:00.274427  8697 net.cpp:91] Creating Layer Concat2
I0728 23:24:00.274441  8697 net.cpp:425] Concat2 <- InnerProduct8
I0728 23:24:00.274456  8697 net.cpp:425] Concat2 <- InnerProduct10
I0728 23:24:00.274471  8697 net.cpp:399] Concat2 -> Concat2
I0728 23:24:00.274492  8697 net.cpp:141] Setting up Concat2
I0728 23:24:00.274505  8697 net.cpp:148] Top shape: 50 100 (5000)
I0728 23:24:00.274518  8697 net.cpp:156] Memory required for data: 209298600
I0728 23:24:00.274529  8697 layer_factory.hpp:77] Creating layer InnerProduct11
I0728 23:24:00.274549  8697 net.cpp:91] Creating Layer InnerProduct11
I0728 23:24:00.274562  8697 net.cpp:425] InnerProduct11 <- Concat2
I0728 23:24:00.274580  8697 net.cpp:399] InnerProduct11 -> InnerProduct11
I0728 23:24:00.274651  8697 net.cpp:141] Setting up InnerProduct11
I0728 23:24:00.274729  8697 net.cpp:148] Top shape: 50 64 (3200)
I0728 23:24:00.274749  8697 net.cpp:156] Memory required for data: 209311400
I0728 23:24:00.274762  8697 net.cpp:484] Sharing parameters 'fc1_w' owned by layer 'InnerProduct5', param index 0
I0728 23:24:00.274776  8697 net.cpp:484] Sharing parameters 'fc1_b' owned by layer 'InnerProduct5', param index 1
I0728 23:24:00.274790  8697 layer_factory.hpp:77] Creating layer ReLU7
I0728 23:24:00.274804  8697 net.cpp:91] Creating Layer ReLU7
I0728 23:24:00.274818  8697 net.cpp:425] ReLU7 <- InnerProduct11
I0728 23:24:00.274832  8697 net.cpp:386] ReLU7 -> InnerProduct11 (in-place)
I0728 23:24:00.274848  8697 net.cpp:141] Setting up ReLU7
I0728 23:24:00.274863  8697 net.cpp:148] Top shape: 50 64 (3200)
I0728 23:24:00.274874  8697 net.cpp:156] Memory required for data: 209324200
I0728 23:24:00.274886  8697 layer_factory.hpp:77] Creating layer InnerProduct12
I0728 23:24:00.274902  8697 net.cpp:91] Creating Layer InnerProduct12
I0728 23:24:00.274915  8697 net.cpp:425] InnerProduct12 <- InnerProduct11
I0728 23:24:00.274932  8697 net.cpp:399] InnerProduct12 -> InnerProduct12
I0728 23:24:00.274971  8697 net.cpp:141] Setting up InnerProduct12
I0728 23:24:00.274987  8697 net.cpp:148] Top shape: 50 32 (1600)
I0728 23:24:00.274998  8697 net.cpp:156] Memory required for data: 209330600
I0728 23:24:00.275089  8697 net.cpp:484] Sharing parameters 'fc2_w' owned by layer 'InnerProduct6', param index 0
I0728 23:24:00.275111  8697 net.cpp:484] Sharing parameters 'fc2_b' owned by layer 'InnerProduct6', param index 1
I0728 23:24:00.275125  8697 layer_factory.hpp:77] Creating layer ReLU8
I0728 23:24:00.275142  8697 net.cpp:91] Creating Layer ReLU8
I0728 23:24:00.275156  8697 net.cpp:425] ReLU8 <- InnerProduct12
I0728 23:24:00.275171  8697 net.cpp:386] ReLU8 -> InnerProduct12 (in-place)
I0728 23:24:00.275187  8697 net.cpp:141] Setting up ReLU8
I0728 23:24:00.275200  8697 net.cpp:148] Top shape: 50 32 (1600)
I0728 23:24:00.275212  8697 net.cpp:156] Memory required for data: 209337000
I0728 23:24:00.275223  8697 layer_factory.hpp:77] Creating layer dt1
I0728 23:24:00.275239  8697 net.cpp:91] Creating Layer dt1
I0728 23:24:00.275254  8697 net.cpp:425] dt1 <- InnerProduct12
I0728 23:24:00.275270  8697 net.cpp:399] dt1 -> dt1
I0728 23:24:00.275295  8697 net.cpp:141] Setting up dt1
I0728 23:24:00.275310  8697 net.cpp:148] Top shape: 50 1 (50)
I0728 23:24:00.275322  8697 net.cpp:156] Memory required for data: 209337200
I0728 23:24:00.275334  8697 net.cpp:484] Sharing parameters 'fc3_w' owned by layer 'dt', param index 0
I0728 23:24:00.275347  8697 net.cpp:484] Sharing parameters 'fc3_b' owned by layer 'dt', param index 1
I0728 23:24:00.275360  8697 layer_factory.hpp:77] Creating layer Convolution9
I0728 23:24:00.275380  8697 net.cpp:91] Creating Layer Convolution9
I0728 23:24:00.275535  8697 net.cpp:425] Convolution9 <- p2_p2_0_split_1
I0728 23:24:00.275575  8697 net.cpp:399] Convolution9 -> Convolution9
I0728 23:24:00.275625  8697 net.cpp:141] Setting up Convolution9
I0728 23:24:00.275643  8697 net.cpp:148] Top shape: 50 20 60 60 (3600000)
I0728 23:24:00.275655  8697 net.cpp:156] Memory required for data: 223737200
I0728 23:24:00.275668  8697 net.cpp:484] Sharing parameters 'conv1_w' owned by layer 'Convolution1', param index 0
I0728 23:24:00.275682  8697 net.cpp:484] Sharing parameters 'conv1_b' owned by layer 'Convolution1', param index 1
I0728 23:24:00.275696  8697 layer_factory.hpp:77] Creating layer Pooling9
I0728 23:24:00.275710  8697 net.cpp:91] Creating Layer Pooling9
I0728 23:24:00.275723  8697 net.cpp:425] Pooling9 <- Convolution9
I0728 23:24:00.275738  8697 net.cpp:399] Pooling9 -> Pooling9
I0728 23:24:00.275758  8697 net.cpp:141] Setting up Pooling9
I0728 23:24:00.275846  8697 net.cpp:148] Top shape: 50 20 30 30 (900000)
I0728 23:24:00.275859  8697 net.cpp:156] Memory required for data: 227337200
I0728 23:24:00.275871  8697 layer_factory.hpp:77] Creating layer Convolution10
I0728 23:24:00.275892  8697 net.cpp:91] Creating Layer Convolution10
I0728 23:24:00.275907  8697 net.cpp:425] Convolution10 <- Pooling9
I0728 23:24:00.275923  8697 net.cpp:399] Convolution10 -> Convolution10
I0728 23:24:00.276217  8697 net.cpp:141] Setting up Convolution10
I0728 23:24:00.276245  8697 net.cpp:148] Top shape: 50 50 26 26 (1690000)
I0728 23:24:00.276257  8697 net.cpp:156] Memory required for data: 234097200
I0728 23:24:00.276271  8697 net.cpp:484] Sharing parameters 'conv2_w' owned by layer 'Convolution2', param index 0
I0728 23:24:00.276285  8697 net.cpp:484] Sharing parameters 'conv2_b' owned by layer 'Convolution2', param index 1
I0728 23:24:00.276298  8697 layer_factory.hpp:77] Creating layer Pooling10
I0728 23:24:00.276312  8697 net.cpp:91] Creating Layer Pooling10
I0728 23:24:00.276325  8697 net.cpp:425] Pooling10 <- Convolution10
I0728 23:24:00.276341  8697 net.cpp:399] Pooling10 -> Pooling10
I0728 23:24:00.276360  8697 net.cpp:141] Setting up Pooling10
I0728 23:24:00.276374  8697 net.cpp:148] Top shape: 50 50 13 13 (422500)
I0728 23:24:00.276386  8697 net.cpp:156] Memory required for data: 235787200
I0728 23:24:00.276398  8697 layer_factory.hpp:77] Creating layer InnerProduct13
I0728 23:24:00.276417  8697 net.cpp:91] Creating Layer InnerProduct13
I0728 23:24:00.276429  8697 net.cpp:425] InnerProduct13 <- Pooling10
I0728 23:24:00.276446  8697 net.cpp:399] InnerProduct13 -> InnerProduct13
I0728 23:24:00.282299  8697 net.cpp:141] Setting up InnerProduct13
I0728 23:24:00.282390  8697 net.cpp:148] Top shape: 50 100 (5000)
I0728 23:24:00.282403  8697 net.cpp:156] Memory required for data: 235807200
I0728 23:24:00.282420  8697 net.cpp:484] Sharing parameters 'ip1_w' owned by layer 'InnerProduct1', param index 0
I0728 23:24:00.282434  8697 net.cpp:484] Sharing parameters 'ip1_b' owned by layer 'InnerProduct1', param index 1
I0728 23:24:00.282447  8697 layer_factory.hpp:77] Creating layer ReLU9
I0728 23:24:00.282467  8697 net.cpp:91] Creating Layer ReLU9
I0728 23:24:00.282485  8697 net.cpp:425] ReLU9 <- InnerProduct13
I0728 23:24:00.282500  8697 net.cpp:386] ReLU9 -> InnerProduct13 (in-place)
I0728 23:24:00.282519  8697 net.cpp:141] Setting up ReLU9
I0728 23:24:00.282533  8697 net.cpp:148] Top shape: 50 100 (5000)
I0728 23:24:00.282546  8697 net.cpp:156] Memory required for data: 235827200
I0728 23:24:00.282557  8697 layer_factory.hpp:77] Creating layer InnerProduct14
I0728 23:24:00.282573  8697 net.cpp:91] Creating Layer InnerProduct14
I0728 23:24:00.282588  8697 net.cpp:425] InnerProduct14 <- InnerProduct13
I0728 23:24:00.282603  8697 net.cpp:399] InnerProduct14 -> InnerProduct14
I0728 23:24:00.282665  8697 net.cpp:141] Setting up InnerProduct14
I0728 23:24:00.282682  8697 net.cpp:148] Top shape: 50 50 (2500)
I0728 23:24:00.282694  8697 net.cpp:156] Memory required for data: 235837200
I0728 23:24:00.282707  8697 net.cpp:484] Sharing parameters 'ip2_w' owned by layer 'InnerProduct2', param index 0
I0728 23:24:00.282721  8697 net.cpp:484] Sharing parameters 'ip2_b' owned by layer 'InnerProduct2', param index 1
I0728 23:24:00.282734  8697 layer_factory.hpp:77] Creating layer Convolution11
I0728 23:24:00.282753  8697 net.cpp:91] Creating Layer Convolution11
I0728 23:24:00.282768  8697 net.cpp:425] Convolution11 <- c11
I0728 23:24:00.282786  8697 net.cpp:399] Convolution11 -> Convolution11
I0728 23:24:00.282835  8697 net.cpp:141] Setting up Convolution11
I0728 23:24:00.282852  8697 net.cpp:148] Top shape: 50 20 60 60 (3600000)
I0728 23:24:00.282863  8697 net.cpp:156] Memory required for data: 250237200
I0728 23:24:00.282876  8697 net.cpp:484] Sharing parameters 'conv1_w' owned by layer 'Convolution1', param index 0
I0728 23:24:00.282891  8697 net.cpp:484] Sharing parameters 'conv1_b' owned by layer 'Convolution1', param index 1
I0728 23:24:00.282903  8697 layer_factory.hpp:77] Creating layer Pooling11
I0728 23:24:00.282918  8697 net.cpp:91] Creating Layer Pooling11
I0728 23:24:00.282932  8697 net.cpp:425] Pooling11 <- Convolution11
I0728 23:24:00.283022  8697 net.cpp:399] Pooling11 -> Pooling11
I0728 23:24:00.283053  8697 net.cpp:141] Setting up Pooling11
I0728 23:24:00.283069  8697 net.cpp:148] Top shape: 50 20 30 30 (900000)
I0728 23:24:00.283082  8697 net.cpp:156] Memory required for data: 253837200
I0728 23:24:00.283094  8697 layer_factory.hpp:77] Creating layer Convolution12
I0728 23:24:00.283114  8697 net.cpp:91] Creating Layer Convolution12
I0728 23:24:00.283128  8697 net.cpp:425] Convolution12 <- Pooling11
I0728 23:24:00.283144  8697 net.cpp:399] Convolution12 -> Convolution12
I0728 23:24:00.283359  8697 net.cpp:141] Setting up Convolution12
I0728 23:24:00.283385  8697 net.cpp:148] Top shape: 50 50 26 26 (1690000)
I0728 23:24:00.283396  8697 net.cpp:156] Memory required for data: 260597200
I0728 23:24:00.283411  8697 net.cpp:484] Sharing parameters 'conv2_w' owned by layer 'Convolution2', param index 0
I0728 23:24:00.283424  8697 net.cpp:484] Sharing parameters 'conv2_b' owned by layer 'Convolution2', param index 1
I0728 23:24:00.283445  8697 layer_factory.hpp:77] Creating layer Pooling12
I0728 23:24:00.283463  8697 net.cpp:91] Creating Layer Pooling12
I0728 23:24:00.283479  8697 net.cpp:425] Pooling12 <- Convolution12
I0728 23:24:00.283496  8697 net.cpp:399] Pooling12 -> Pooling12
I0728 23:24:00.283516  8697 net.cpp:141] Setting up Pooling12
I0728 23:24:00.283532  8697 net.cpp:148] Top shape: 50 50 13 13 (422500)
I0728 23:24:00.283545  8697 net.cpp:156] Memory required for data: 262287200
I0728 23:24:00.283568  8697 layer_factory.hpp:77] Creating layer InnerProduct15
I0728 23:24:00.283610  8697 net.cpp:91] Creating Layer InnerProduct15
I0728 23:24:00.283628  8697 net.cpp:425] InnerProduct15 <- Pooling12
I0728 23:24:00.283646  8697 net.cpp:399] InnerProduct15 -> InnerProduct15
I0728 23:24:00.290242  8697 net.cpp:141] Setting up InnerProduct15
I0728 23:24:00.290315  8697 net.cpp:148] Top shape: 50 100 (5000)
I0728 23:24:00.290329  8697 net.cpp:156] Memory required for data: 262307200
I0728 23:24:00.290347  8697 net.cpp:484] Sharing parameters 'ip1_w' owned by layer 'InnerProduct1', param index 0
I0728 23:24:00.290364  8697 net.cpp:484] Sharing parameters 'ip1_b' owned by layer 'InnerProduct1', param index 1
I0728 23:24:00.290380  8697 layer_factory.hpp:77] Creating layer ReLU10
I0728 23:24:00.290400  8697 net.cpp:91] Creating Layer ReLU10
I0728 23:24:00.290417  8697 net.cpp:425] ReLU10 <- InnerProduct15
I0728 23:24:00.290433  8697 net.cpp:386] ReLU10 -> InnerProduct15 (in-place)
I0728 23:24:00.290454  8697 net.cpp:141] Setting up ReLU10
I0728 23:24:00.290469  8697 net.cpp:148] Top shape: 50 100 (5000)
I0728 23:24:00.290482  8697 net.cpp:156] Memory required for data: 262327200
I0728 23:24:00.290496  8697 layer_factory.hpp:77] Creating layer InnerProduct16
I0728 23:24:00.290516  8697 net.cpp:91] Creating Layer InnerProduct16
I0728 23:24:00.290532  8697 net.cpp:425] InnerProduct16 <- InnerProduct15
I0728 23:24:00.290549  8697 net.cpp:399] InnerProduct16 -> InnerProduct16
I0728 23:24:00.290629  8697 net.cpp:141] Setting up InnerProduct16
I0728 23:24:00.290645  8697 net.cpp:148] Top shape: 50 50 (2500)
I0728 23:24:00.290648  8697 net.cpp:156] Memory required for data: 262337200
I0728 23:24:00.290653  8697 net.cpp:484] Sharing parameters 'ip2_w' owned by layer 'InnerProduct2', param index 0
I0728 23:24:00.290657  8697 net.cpp:484] Sharing parameters 'ip2_b' owned by layer 'InnerProduct2', param index 1
I0728 23:24:00.290660  8697 layer_factory.hpp:77] Creating layer Concat3
I0728 23:24:00.290666  8697 net.cpp:91] Creating Layer Concat3
I0728 23:24:00.290670  8697 net.cpp:425] Concat3 <- InnerProduct14
I0728 23:24:00.290674  8697 net.cpp:425] Concat3 <- InnerProduct16
I0728 23:24:00.290679  8697 net.cpp:399] Concat3 -> Concat3
I0728 23:24:00.290690  8697 net.cpp:141] Setting up Concat3
I0728 23:24:00.290695  8697 net.cpp:148] Top shape: 50 100 (5000)
I0728 23:24:00.290699  8697 net.cpp:156] Memory required for data: 262357200
I0728 23:24:00.290701  8697 layer_factory.hpp:77] Creating layer InnerProduct17
I0728 23:24:00.290707  8697 net.cpp:91] Creating Layer InnerProduct17
I0728 23:24:00.290710  8697 net.cpp:425] InnerProduct17 <- Concat3
I0728 23:24:00.290716  8697 net.cpp:399] InnerProduct17 -> InnerProduct17
I0728 23:24:00.290776  8697 net.cpp:141] Setting up InnerProduct17
I0728 23:24:00.290781  8697 net.cpp:148] Top shape: 50 64 (3200)
I0728 23:24:00.290783  8697 net.cpp:156] Memory required for data: 262370000
I0728 23:24:00.290786  8697 net.cpp:484] Sharing parameters 'fc1_w' owned by layer 'InnerProduct5', param index 0
I0728 23:24:00.290789  8697 net.cpp:484] Sharing parameters 'fc1_b' owned by layer 'InnerProduct5', param index 1
I0728 23:24:00.290792  8697 layer_factory.hpp:77] Creating layer ReLU11
I0728 23:24:00.290796  8697 net.cpp:91] Creating Layer ReLU11
I0728 23:24:00.290799  8697 net.cpp:425] ReLU11 <- InnerProduct17
I0728 23:24:00.290804  8697 net.cpp:386] ReLU11 -> InnerProduct17 (in-place)
I0728 23:24:00.290808  8697 net.cpp:141] Setting up ReLU11
I0728 23:24:00.290812  8697 net.cpp:148] Top shape: 50 64 (3200)
I0728 23:24:00.290814  8697 net.cpp:156] Memory required for data: 262382800
I0728 23:24:00.290817  8697 layer_factory.hpp:77] Creating layer InnerProduct18
I0728 23:24:00.290823  8697 net.cpp:91] Creating Layer InnerProduct18
I0728 23:24:00.290825  8697 net.cpp:425] InnerProduct18 <- InnerProduct17
I0728 23:24:00.290830  8697 net.cpp:399] InnerProduct18 -> InnerProduct18
I0728 23:24:00.290855  8697 net.cpp:141] Setting up InnerProduct18
I0728 23:24:00.290859  8697 net.cpp:148] Top shape: 50 32 (1600)
I0728 23:24:00.290861  8697 net.cpp:156] Memory required for data: 262389200
I0728 23:24:00.290879  8697 net.cpp:484] Sharing parameters 'fc2_w' owned by layer 'InnerProduct6', param index 0
I0728 23:24:00.290881  8697 net.cpp:484] Sharing parameters 'fc2_b' owned by layer 'InnerProduct6', param index 1
I0728 23:24:00.290884  8697 layer_factory.hpp:77] Creating layer ReLU12
I0728 23:24:00.290889  8697 net.cpp:91] Creating Layer ReLU12
I0728 23:24:00.290892  8697 net.cpp:425] ReLU12 <- InnerProduct18
I0728 23:24:00.290896  8697 net.cpp:386] ReLU12 -> InnerProduct18 (in-place)
I0728 23:24:00.290901  8697 net.cpp:141] Setting up ReLU12
I0728 23:24:00.290904  8697 net.cpp:148] Top shape: 50 32 (1600)
I0728 23:24:00.290906  8697 net.cpp:156] Memory required for data: 262395600
I0728 23:24:00.290910  8697 layer_factory.hpp:77] Creating layer dt2
I0728 23:24:00.290916  8697 net.cpp:91] Creating Layer dt2
I0728 23:24:00.290918  8697 net.cpp:425] dt2 <- InnerProduct18
I0728 23:24:00.290923  8697 net.cpp:399] dt2 -> dt2
I0728 23:24:00.290933  8697 net.cpp:141] Setting up dt2
I0728 23:24:00.290937  8697 net.cpp:148] Top shape: 50 1 (50)
I0728 23:24:00.290940  8697 net.cpp:156] Memory required for data: 262395800
I0728 23:24:00.290951  8697 net.cpp:484] Sharing parameters 'fc3_w' owned by layer 'dt', param index 0
I0728 23:24:00.290956  8697 net.cpp:484] Sharing parameters 'fc3_b' owned by layer 'dt', param index 1
I0728 23:24:00.290959  8697 layer_factory.hpp:77] Creating layer con
I0728 23:24:00.290963  8697 net.cpp:91] Creating Layer con
I0728 23:24:00.290966  8697 net.cpp:425] con <- dt
I0728 23:24:00.290971  8697 net.cpp:425] con <- dt1
I0728 23:24:00.290976  8697 net.cpp:425] con <- dt2
I0728 23:24:00.290980  8697 net.cpp:399] con -> con
I0728 23:24:00.290985  8697 net.cpp:141] Setting up con
I0728 23:24:00.290989  8697 net.cpp:148] Top shape: 50 3 (150)
I0728 23:24:00.290992  8697 net.cpp:156] Memory required for data: 262396400
I0728 23:24:00.290994  8697 layer_factory.hpp:77] Creating layer r1
I0728 23:24:00.291002  8697 net.cpp:91] Creating Layer r1
I0728 23:24:00.291005  8697 net.cpp:425] r1 <- con
I0728 23:24:00.291010  8697 net.cpp:399] r1 -> r1
I0728 23:24:00.291018  8697 net.cpp:141] Setting up r1
I0728 23:24:00.291021  8697 net.cpp:148] Top shape: 50 1 1 3 (150)
I0728 23:24:00.291024  8697 net.cpp:156] Memory required for data: 262397000
I0728 23:24:00.291028  8697 layer_factory.hpp:77] Creating layer p
I0728 23:24:00.291033  8697 net.cpp:91] Creating Layer p
I0728 23:24:00.291036  8697 net.cpp:425] p <- r1
I0728 23:24:00.291040  8697 net.cpp:399] p -> p
I0728 23:24:00.291048  8697 net.cpp:141] Setting up p
I0728 23:24:00.291051  8697 net.cpp:148] Top shape: 50 1 1 1 (50)
I0728 23:24:00.291054  8697 net.cpp:156] Memory required for data: 262397200
I0728 23:24:00.291056  8697 layer_factory.hpp:77] Creating layer r2
I0728 23:24:00.291061  8697 net.cpp:91] Creating Layer r2
I0728 23:24:00.291064  8697 net.cpp:425] r2 <- p
I0728 23:24:00.291067  8697 net.cpp:399] r2 -> r2
I0728 23:24:00.291074  8697 net.cpp:141] Setting up r2
I0728 23:24:00.291076  8697 net.cpp:148] Top shape: 50 1 1 1 (50)
I0728 23:24:00.291079  8697 net.cpp:156] Memory required for data: 262397400
I0728 23:24:00.291081  8697 layer_factory.hpp:77] Creating layer padL
I0728 23:24:00.291087  8697 net.cpp:91] Creating Layer padL
I0728 23:24:00.291090  8697 net.cpp:425] padL <- label_data_1_split_0
I0728 23:24:00.291095  8697 net.cpp:399] padL -> padL
I0728 23:24:00.291100  8697 net.cpp:141] Setting up padL
I0728 23:24:00.291103  8697 net.cpp:148] Top shape: 50 1 1 1 (50)
I0728 23:24:00.291106  8697 net.cpp:156] Memory required for data: 262397600
I0728 23:24:00.291108  8697 layer_factory.hpp:77] Creating layer pad
I0728 23:24:00.291113  8697 net.cpp:91] Creating Layer pad
I0728 23:24:00.291115  8697 net.cpp:425] pad <- r2
I0728 23:24:00.291120  8697 net.cpp:425] pad <- padL
I0728 23:24:00.291123  8697 net.cpp:399] pad -> pad
I0728 23:24:00.291128  8697 net.cpp:141] Setting up pad
I0728 23:24:00.291132  8697 net.cpp:148] Top shape: 50 2 1 1 (100)
I0728 23:24:00.291134  8697 net.cpp:156] Memory required for data: 262398000
I0728 23:24:00.291144  8697 layer_factory.hpp:77] Creating layer pad_pad_0_split
I0728 23:24:00.291149  8697 net.cpp:91] Creating Layer pad_pad_0_split
I0728 23:24:00.291152  8697 net.cpp:425] pad_pad_0_split <- pad
I0728 23:24:00.291157  8697 net.cpp:399] pad_pad_0_split -> pad_pad_0_split_0
I0728 23:24:00.291163  8697 net.cpp:399] pad_pad_0_split -> pad_pad_0_split_1
I0728 23:24:00.291168  8697 net.cpp:141] Setting up pad_pad_0_split
I0728 23:24:00.291172  8697 net.cpp:148] Top shape: 50 2 1 1 (100)
I0728 23:24:00.291175  8697 net.cpp:148] Top shape: 50 2 1 1 (100)
I0728 23:24:00.291178  8697 net.cpp:156] Memory required for data: 262398800
I0728 23:24:00.291180  8697 layer_factory.hpp:77] Creating layer accuracy
I0728 23:24:00.291187  8697 net.cpp:91] Creating Layer accuracy
I0728 23:24:00.291190  8697 net.cpp:425] accuracy <- pad_pad_0_split_0
I0728 23:24:00.291193  8697 net.cpp:425] accuracy <- label_data_1_split_1
I0728 23:24:00.291198  8697 net.cpp:399] accuracy -> accuracy
…
