…
I0808 08:30:57.987658 15710 solver.cpp:81] Creating training net from train_net file: examples/scene/matchNetTrainHingeMini.prototxt
I0808 08:30:58.011998 15710 net.cpp:49] Initializing net from parameters: 
state {
  phase: TRAIN
}
layer {
  name: "data"
  type: "Data"
  top: "data"
  top: "label"
  include {
    phase: TRAIN
  }
  transform_param {
    scale: 0.0039215689
    mirror: true
    mean_file: "examples/scene/scene_mean.binaryproto"
  }
  data_param {
    source: "examples/scene/train11_pairs_300000_pad.lmdb"
    batch_size: 64
    backend: LMDB
  }
}
layer {
  name: "th"
  type: "Threshold"
  bottom: "label"
  top: "th"
  threshold_param {
    threshold: 0
  }
}
layer {
  name: "i1"
  type: "Slice"
  bottom: "data"
  top: "i1"
  top: "i2"
  slice_param {
    slice_dim: 1
    slice_point: 3
  }
}
layer {
  name: "p1"
  type: "Pooling"
  bottom: "i1"
  top: "p1"
  pooling_param {
    pool: AVE
    kernel_size: 2
    stride: 2
  }
}
layer {
  name: "p2"
  type: "Pooling"
  bottom: "i2"
  top: "p2"
  pooling_param {
    pool: AVE
    kernel_size: 2
    stride: 2
  }
}
layer {
  name: "Input1"
  type: "Input"
  top: "Input1"
  include {
    phase: TRAIN
  }
  input_param {
    shape {
      dim: 64
      dim: 3
      dim: 64
      dim: 64
    }
  }
}
layer {
  name: "c11"
  type: "Crop"
  bottom: "i1"
  bottom: "Input1"
  top: "c11"
  crop_param {
    axis: 2
    offset: 0
    offset: 0
  }
}
layer {
  name: "Input2"
  type: "Input"
  top: "Input2"
  include {
    phase: TRAIN
  }
  input_param {
    shape {
      dim: 64
      dim: 3
      dim: 64
      dim: 64
    }
  }
}
layer {
  name: "c12"
  type: "Crop"
  bottom: "i1"
  bottom: "Input2"
  top: "c12"
  crop_param {
    axis: 2
    offset: 0
    offset: 32
  }
}
layer {
  name: "Input3"
  type: "Input"
  top: "Input3"
  include {
    phase: TRAIN
  }
  input_param {
    shape {
      dim: 64
      dim: 3
      dim: 64
      dim: 64
    }
  }
}
layer {
  name: "c13"
  type: "Crop"
  bottom: "i1"
  bottom: "Input3"
  top: "c13"
  crop_param {
    axis: 2
    offset: 0
    offset: 64
  }
}
layer {
  name: "Input4"
  type: "Input"
  top: "Input4"
  include {
    phase: TRAIN
  }
  input_param {
    shape {
      dim: 64
      dim: 3
      dim: 64
      dim: 64
    }
  }
}
layer {
  name: "c14"
  type: "Crop"
  bottom: "i1"
  bottom: "Input4"
  top: "c14"
  crop_param {
    axis: 2
    offset: 32
    offset: 0
  }
}
layer {
  name: "Input5"
  type: "Input"
  top: "Input5"
  include {
    phase: TRAIN
  }
  input_param {
    shape {
      dim: 64
      dim: 3
      dim: 64
      dim: 64
    }
  }
}
layer {
  name: "c15"
  type: "Crop"
  bottom: "i1"
  bottom: "Input5"
  top: "c15"
  crop_param {
    axis: 2
    offset: 32
    offset: 32
  }
}
layer {
  name: "Input6"
  type: "Input"
  top: "Input6"
  include {
    phase: TRAIN
  }
  input_param {
    shape {
      dim: 64
      dim: 3
      dim: 64
      dim: 64
    }
  }
}
layer {
  name: "c16"
  type: "Crop"
  bottom: "i1"
  bottom: "Input6"
  top: "c16"
  crop_param {
    axis: 2
    offset: 32
    offset: 64
  }
}
layer {
  name: "Input7"
  type: "Input"
  top: "Input7"
  include {
    phase: TRAIN
  }
  input_param {
    shape {
      dim: 64
      dim: 3
      dim: 64
      dim: 64
    }
  }
}
layer {
  name: "c17"
  type: "Crop"
  bottom: "i1"
  bottom: "Input7"
  top: "c17"
  crop_param {
    axis: 2
    offset: 64
    offset: 0
  }
}
layer {
  name: "Input8"
  type: "Input"
  top: "Input8"
  include {
    phase: TRAIN
  }
  input_param {
    shape {
      dim: 64
      dim: 3
      dim: 64
      dim: 64
    }
  }
}
layer {
  name: "c18"
  type: "Crop"
  bottom: "i1"
  bottom: "Input8"
  top: "c18"
  crop_param {
    axis: 2
    offset: 64
    offset: 32
  }
}
layer {
  name: "Input9"
  type: "Input"
  top: "Input9"
  include {
    phase: TRAIN
  }
  input_param {
    shape {
      dim: 64
      dim: 3
      dim: 64
      dim: 64
    }
  }
}
layer {
  name: "c19"
  type: "Crop"
  bottom: "i1"
  bottom: "Input9"
  top: "c19"
  crop_param {
    axis: 2
    offset: 64
    offset: 64
  }
}
layer {
  name: "Input10"
  type: "Input"
  top: "Input10"
  include {
    phase: TRAIN
  }
  input_param {
    shape {
      dim: 64
      dim: 3
      dim: 64
      dim: 64
    }
  }
}
layer {
  name: "c21"
  type: "Crop"
  bottom: "i2"
  bottom: "Input10"
  top: "c21"
  crop_param {
    axis: 2
    offset: 0
    offset: 0
  }
}
layer {
  name: "Input11"
  type: "Input"
  top: "Input11"
  include {
    phase: TRAIN
  }
  input_param {
    shape {
      dim: 64
      dim: 3
      dim: 64
      dim: 64
    }
  }
}
layer {
  name: "c22"
  type: "Crop"
  bottom: "i2"
  bottom: "Input11"
  top: "c22"
  crop_param {
    axis: 2
    offset: 0
    offset: 32
  }
}
layer {
  name: "Input12"
  type: "Input"
  top: "Input12"
  include {
    phase: TRAIN
  }
  input_param {
    shape {
      dim: 64
      dim: 3
      dim: 64
      dim: 64
    }
  }
}
layer {
  name: "c23"
  type: "Crop"
  bottom: "i2"
  bottom: "Input12"
  top: "c23"
  crop_param {
    axis: 2
    offset: 0
    offset: 64
  }
}
layer {
  name: "Input13"
  type: "Input"
  top: "Input13"
  include {
    phase: TRAIN
  }
  input_param {
    shape {
      dim: 64
      dim: 3
      dim: 64
      dim: 64
    }
  }
}
layer {
  name: "c24"
  type: "Crop"
  bottom: "i2"
  bottom: "Input13"
  top: "c24"
  crop_param {
    axis: 2
    offset: 32
    offset: 0
  }
}
layer {
  name: "Input14"
  type: "Input"
  top: "Input14"
  include {
    phase: TRAIN
  }
  input_param {
    shape {
      dim: 64
      dim: 3
      dim: 64
      dim: 64
    }
  }
}
layer {
  name: "c25"
  type: "Crop"
  bottom: "i2"
  bottom: "Input14"
  top: "c25"
  crop_param {
    axis: 2
    offset: 32
    offset: 32
  }
}
layer {
  name: "Input15"
  type: "Input"
  top: "Input15"
  include {
    phase: TRAIN
  }
  input_param {
    shape {
      dim: 64
      dim: 3
      dim: 64
      dim: 64
    }
  }
}
layer {
  name: "c26"
  type: "Crop"
  bottom: "i2"
  bottom: "Input15"
  top: "c26"
  crop_param {
    axis: 2
    offset: 32
    offset: 64
  }
}
layer {
  name: "Input16"
  type: "Input"
  top: "Input16"
  include {
    phase: TRAIN
  }
  input_param {
    shape {
      dim: 64
      dim: 3
      dim: 64
      dim: 64
    }
  }
}
layer {
  name: "c27"
  type: "Crop"
  bottom: "i2"
  bottom: "Input16"
  top: "c27"
  crop_param {
    axis: 2
    offset: 64
    offset: 0
  }
}
layer {
  name: "Input17"
  type: "Input"
  top: "Input17"
  include {
    phase: TRAIN
  }
  input_param {
    shape {
      dim: 64
      dim: 3
      dim: 64
      dim: 64
    }
  }
}
layer {
  name: "c28"
  type: "Crop"
  bottom: "i2"
  bottom: "Input17"
  top: "c28"
  crop_param {
    axis: 2
    offset: 64
    offset: 32
  }
}
layer {
  name: "Input18"
  type: "Input"
  top: "Input18"
  include {
    phase: TRAIN
  }
  input_param {
    shape {
      dim: 64
      dim: 3
      dim: 64
      dim: 64
    }
  }
}
layer {
  name: "c29"
  type: "Crop"
  bottom: "i2"
  bottom: "Input18"
  top: "c29"
  crop_param {
    axis: 2
    offset: 64
    offset: 64
  }
}
layer {
  name: "Convolution1"
  type: "Convolution"
  bottom: "p1"
  top: "Convolution1"
  param {
    name: "conv1_w"
    lr_mult: 1
  }
  param {
    name: "conv1_b"
    lr_mult: 2
  }
  convolution_param {
    num_output: 20
    kernel_size: 5
    stride: 1
    weight_filler {
      type: "xavier"
    }
    bias_filler {
      type: "constant"
    }
  }
}
layer {
  name: "Pooling1"
  type: "Pooling"
  bottom: "Convolution1"
  top: "Pooling1"
  pooling_param {
    pool: MAX
    kernel_size: 2
    stride: 2
  }
}
layer {
  name: "Convolution2"
  type: "Convolution"
  bottom: "Pooling1"
  top: "Convolution2"
  param {
    name: "conv2_w"
    lr_mult: 1
  }
  param {
    name: "conv2_b"
    lr_mult: 2
  }
  convolution_param {
    num_output: 50
    kernel_size: 5
    stride: 1
    weight_filler {
      type: "xavier"
    }
    bias_filler {
      type: "constant"
    }
  }
}
layer {
  name: "Pooling2"
  type: "Pooling"
  bottom: "Convolution2"
  top: "Pooling2"
  pooling_param {
    pool: MAX
    kernel_size: 2
    stride: 2
  }
}
layer {
  name: "InnerProduct1"
  type: "InnerProduct"
  bottom: "Pooling2"
  top: "InnerProduct1"
  param {
    name: "ip1_w"
    lr_mult: 1
  }
  param {
    name: "ip1_b"
    lr_mult: 2
  }
  inner_product_param {
    num_output: 100
    weight_filler {
      type: "xavier"
    }
    bias_filler {
      type: "constant"
    }
  }
}
layer {
  name: "ReLU1"
  type: "ReLU"
  bottom: "InnerProduct1"
  top: "InnerProduct1"
}
layer {
  name: "InnerProduct2"
  type: "InnerProduct"
  bottom: "InnerProduct1"
  top: "InnerProduct2"
  param {
    name: "ip2_w"
    lr_mult: 1
  }
  param {
    name: "ip2_b"
    lr_mult: 2
  }
  inner_product_param {
    num_output: 50
    weight_filler {
      type: "xavier"
    }
    bias_filler {
      type: "constant"
    }
  }
}
layer {
  name: "Convolution3"
  type: "Convolution"
  bottom: "p2"
  top: "Convolution3"
  param {
    name: "conv1_w"
    lr_mult: 1
  }
  param {
    name: "conv1_b"
    lr_mult: 2
  }
  convolution_param {
    num_output: 20
    kernel_size: 5
    stride: 1
    weight_filler {
      type: "xavier"
    }
    bias_filler {
      type: "constant"
    }
  }
}
layer {
  name: "Pooling3"
  type: "Pooling"
  bottom: "Convolution3"
  top: "Pooling3"
  pooling_param {
    pool: MAX
    kernel_size: 2
    stride: 2
  }
}
layer {
  name: "Convolution4"
  type: "Convolution"
  bottom: "Pooling3"
  top: "Convolution4"
  param {
    name: "conv2_w"
    lr_mult: 1
  }
  param {
    name: "conv2_b"
    lr_mult: 2
  }
  convolution_param {
    num_output: 50
    kernel_size: 5
    stride: 1
    weight_filler {
      type: "xavier"
    }
    bias_filler {
      type: "constant"
    }
  }
}
layer {
  name: "Pooling4"
  type: "Pooling"
  bottom: "Convolution4"
  top: "Pooling4"
  pooling_param {
    pool: MAX
    kernel_size: 2
    stride: 2
  }
}
layer {
  name: "InnerProduct3"
  type: "InnerProduct"
  bottom: "Pooling4"
  top: "InnerProduct3"
  param {
    name: "ip1_w"
    lr_mult: 1
  }
  param {
    name: "ip1_b"
    lr_mult: 2
  }
  inner_product_param {
    num_output: 100
    weight_filler {
      type: "xavier"
    }
    bias_filler {
      type: "constant"
    }
  }
}
layer {
  name: "ReLU2"
  type: "ReLU"
  bottom: "InnerProduct3"
  top: "InnerProduct3"
}
layer {
  name: "InnerProduct4"
  type: "InnerProduct"
  bottom: "InnerProduct3"
  top: "InnerProduct4"
  param {
    name: "ip2_w"
    lr_mult: 1
  }
  param {
    name: "ip2_b"
    lr_mult: 2
  }
  inner_product_param {
    num_output: 50
    weight_filler {
      type: "xavier"
    }
    bias_filler {
      type: "constant"
    }
  }
}
layer {
  name: "Concat1"
  type: "Concat"
  bottom: "InnerProduct2"
  bottom: "InnerProduct4"
  top: "Concat1"
  concat_param {
    axis: 1
  }
}
layer {
  name: "InnerProduct5"
  type: "InnerProduct"
  bottom: "Concat1"
  top: "InnerProduct5"
  param {
    name: "fc1_w"
    lr_mult: 1
  }
  param {
    name: "fc1_b"
    lr_mult: 2
  }
  inner_product_param {
    num_output: 64
    weight_filler {
      type: "xavier"
    }
    bias_filler {
      type: "constant"
    }
  }
}
layer {
  name: "ReLU3"
  type: "ReLU"
  bottom: "InnerProduct5"
  top: "InnerProduct5"
}
layer {
  name: "InnerProduct6"
  type: "InnerProduct"
  bottom: "InnerProduct5"
  top: "InnerProduct6"
  param {
    name: "fc2_w"
    lr_mult: 1
  }
  param {
    name: "fc2_b"
    lr_mult: 2
  }
  inner_product_param {
    num_output: 32
    weight_filler {
      type: "xavier"
    }
    bias_filler {
      type: "constant"
    }
  }
}
layer {
  name: "ReLU4"
  type: "ReLU"
  bottom: "InnerProduct6"
  top: "InnerProduct6"
}
layer {
  name: "dt0"
  type: "InnerProduct"
  bottom: "InnerProduct6"
  top: "dt0"
  param {
    name: "fc3_w"
    lr_mult: 1
  }
  param {
    name: "fc3_b"
    lr_mult: 2
  }
  inner_product_param {
    num_output: 1
    weight_filler {
      type: "xavier"
    }
    bias_filler {
      type: "constant"
    }
  }
}
layer {
  name: "Convolution5"
  type: "Convolution"
  bottom: "p1"
  top: "Convolution5"
  param {
    name: "conv1_w"
    lr_mult: 1
  }
  param {
    name: "conv1_b"
    lr_mult: 2
  }
  convolution_param {
    num_output: 20
    kernel_size: 5
    stride: 1
    weight_filler {
      type: "xavier"
    }
    bias_filler {
      type: "constant"
    }
  }
}
layer {
  name: "Pooling5"
  type: "Pooling"
  bottom: "Convolution5"
  top: "Pooling5"
  pooling_param {
    pool: MAX
    kernel_size: 2
    stride: 2
  }
}
layer {
  name: "Convolution6"
  type: "Convolution"
  bottom: "Pooling5"
  top: "Convolution6"
  param {
    name: "conv2_w"
    lr_mult: 1
  }
  param {
    name: "conv2_b"
    lr_mult: 2
  }
  convolution_param {
    num_output: 50
    kernel_size: 5
    stride: 1
    weight_filler {
      type: "xavier"
    }
    bias_filler {
      type: "constant"
    }
  }
}
layer {
  name: "Pooling6"
  type: "Pooling"
  bottom: "Convolution6"
  top: "Pooling6"
  pooling_param {
    pool: MAX
    kernel_size: 2
    stride: 2
  }
}
layer {
  name: "InnerProduct7"
  type: "InnerProduct"
  bottom: "Pooling6"
  top: "InnerProduct7"
  param {
    name: "ip1_w"
    lr_mult: 1
  }
  param {
    name: "ip1_b"
    lr_mult: 2
  }
  inner_product_param {
    num_output: 100
    weight_filler {
      type: "xavier"
    }
    bias_filler {
      type: "constant"
    }
  }
}
layer {
  name: "ReLU5"
  type: "ReLU"
  bottom: "InnerProduct7"
  top: "InnerProduct7"
}
layer {
  name: "InnerProduct8"
  type: "InnerProduct"
  bottom: "InnerProduct7"
  top: "InnerProduct8"
  param {
    name: "ip2_w"
    lr_mult: 1
  }
  param {
    name: "ip2_b"
    lr_mult: 2
  }
  inner_product_param {
    num_output: 50
    weight_filler {
      type: "xavier"
    }
    bias_filler {
      type: "constant"
    }
  }
}
layer {
  name: "Convolution7"
  type: "Convolution"
  bottom: "c21"
  top: "Convolution7"
  param {
    name: "conv1_w"
    lr_mult: 1
  }
  param {
    name: "conv1_b"
    lr_mult: 2
  }
  convolution_param {
    num_output: 20
    kernel_size: 5
    stride: 1
    weight_filler {
      type: "xavier"
    }
    bias_filler {
      type: "constant"
    }
  }
}
layer {
  name: "Pooling7"
  type: "Pooling"
  bottom: "Convolution7"
  top: "Pooling7"
  pooling_param {
    pool: MAX
    kernel_size: 2
    stride: 2
  }
}
layer {
  name: "Convolution8"
  type: "Convolution"
  bottom: "Pooling7"
  top: "Convolution8"
  param {
    name: "conv2_w"
    lr_mult: 1
  }
  param {
    name: "conv2_b"
    lr_mult: 2
  }
  convolution_param {
    num_output: 50
    kernel_size: 5
    stride: 1
    weight_filler {
      type: "xavier"
    }
    bias_filler {
      type: "constant"
    }
  }
}
layer {
  name: "Pooling8"
  type: "Pooling"
  bottom: "Convolution8"
  top: "Pooling8"
  pooling_param {
    pool: MAX
    kernel_size: 2
    stride: 2
  }
}
layer {
  name: "InnerProduct9"
  type: "InnerProduct"
  bottom: "Pooling8"
  top: "InnerProduct9"
  param {
    name: "ip1_w"
    lr_mult: 1
  }
  param {
    name: "ip1_b"
    lr_mult: 2
  }
  inner_product_param {
    num_output: 100
    weight_filler {
      type: "xavier"
    }
    bias_filler {
      type: "constant"
    }
  }
}
layer {
  name: "ReLU6"
  type: "ReLU"
  bottom: "InnerProduct9"
  top: "InnerProduct9"
}
layer {
  name: "InnerProduct10"
  type: "InnerProduct"
  bottom: "InnerProduct9"
  top: "InnerProduct10"
  param {
    name: "ip2_w"
    lr_mult: 1
  }
  param {
    name: "ip2_b"
    lr_mult: 2
  }
  inner_product_param {
    num_output: 50
    weight_filler {
      type: "xavier"
    }
    bias_filler {
      type: "constant"
    }
  }
}
layer {
  name: "Concat2"
  type: "Concat"
  bottom: "InnerProduct8"
  bottom: "InnerProduct10"
  top: "Concat2"
  concat_param {
    axis: 1
  }
}
layer {
  name: "InnerProduct11"
  type: "InnerProduct"
  bottom: "Concat2"
  top: "InnerProduct11"
  param {
    name: "fc1_w"
    lr_mult: 1
  }
  param {
    name: "fc1_b"
    lr_mult: 2
  }
  inner_product_param {
    num_output: 64
    weight_filler {
      type: "xavier"
    }
    bias_filler {
      type: "constant"
    }
  }
}
layer {
  name: "ReLU7"
  type: "ReLU"
  bottom: "InnerProduct11"
  top: "InnerProduct11"
}
layer {
  name: "InnerProduct12"
  type: "InnerProduct"
  bottom: "InnerProduct11"
  top: "InnerProduct12"
  param {
    name: "fc2_w"
    lr_mult: 1
  }
  param {
    name: "fc2_b"
    lr_mult: 2
  }
  inner_product_param {
    num_output: 32
    weight_filler {
      type: "xavier"
    }
    bias_filler {
      type: "constant"
    }
  }
}
layer {
  name: "ReLU8"
  type: "ReLU"
  bottom: "InnerProduct12"
  top: "InnerProduct12"
}
layer {
  name: "dt1"
  type: "InnerProduct"
  bottom: "InnerProduct12"
  top: "dt1"
  param {
    name: "fc3_w"
    lr_mult: 1
  }
  param {
    name: "fc3_b"
    lr_mult: 2
  }
  inner_product_param {
    num_output: 1
    weight_filler {
      type: "xavier"
    }
    bias_filler {
      type: "constant"
    }
  }
}
layer {
  name: "Convolution9"
  type: "Convolution"
  bottom: "p1"
  top: "Convolution9"
  param {
    name: "conv1_w"
    lr_mult: 1
  }
  param {
    name: "conv1_b"
    lr_mult: 2
  }
  convolution_param {
    num_output: 20
    kernel_size: 5
    stride: 1
    weight_filler {
      type: "xavier"
    }
    bias_filler {
      type: "constant"
    }
  }
}
layer {
  name: "Pooling9"
  type: "Pooling"
  bottom: "Convolution9"
  top: "Pooling9"
  pooling_param {
    pool: MAX
    kernel_size: 2
    stride: 2
  }
}
layer {
  name: "Convolution10"
  type: "Convolution"
  bottom: "Pooling9"
  top: "Convolution10"
  param {
    name: "conv2_w"
    lr_mult: 1
  }
  param {
    name: "conv2_b"
    lr_mult: 2
  }
  convolution_param {
    num_output: 50
    kernel_size: 5
    stride: 1
    weight_filler {
      type: "xavier"
    }
    bias_filler {
      type: "constant"
    }
  }
}
layer {
  name: "Pooling10"
  type: "Pooling"
  bottom: "Convolution10"
  top: "Pooling10"
  pooling_param {
    pool: MAX
    kernel_size: 2
    stride: 2
  }
}
layer {
  name: "InnerProduct13"
  type: "InnerProduct"
  bottom: "Pooling10"
  top: "InnerProduct13"
  param {
    name: "ip1_w"
    lr_mult: 1
  }
  param {
    name: "ip1_b"
    lr_mult: 2
  }
  inner_product_param {
    num_output: 100
    weight_filler {
      type: "xavier"
    }
    bias_filler {
      type: "constant"
    }
  }
}
layer {
  name: "ReLU9"
  type: "ReLU"
  bottom: "InnerProduct13"
  top: "InnerProduct13"
}
layer {
  name: "InnerProduct14"
  type: "InnerProduct"
  bottom: "InnerProduct13"
  top: "InnerProduct14"
  param {
    name: "ip2_w"
    lr_mult: 1
  }
  param {
    name: "ip2_b"
    lr_mult: 2
  }
  inner_product_param {
    num_output: 50
    weight_filler {
      type: "xavier"
    }
    bias_filler {
      type: "constant"
    }
  }
}
layer {
  name: "Convolution11"
  type: "Convolution"
  bottom: "c22"
  top: "Convolution11"
  param {
    name: "conv1_w"
    lr_mult: 1
  }
  param {
    name: "conv1_b"
    lr_mult: 2
  }
  convolution_param {
    num_output: 20
    kernel_size: 5
    stride: 1
    weight_filler {
      type: "xavier"
    }
    bias_filler {
      type: "constant"
    }
  }
}
layer {
  name: "Pooling11"
  type: "Pooling"
  bottom: "Convolution11"
  top: "Pooling11"
  pooling_param {
    pool: MAX
    kernel_size: 2
    stride: 2
  }
}
layer {
  name: "Convolution12"
  type: "Convolution"
  bottom: "Pooling11"
  top: "Convolution12"
  param {
    name: "conv2_w"
    lr_mult: 1
  }
  param {
    name: "conv2_b"
    lr_mult: 2
  }
  convolution_param {
    num_output: 50
    kernel_size: 5
    stride: 1
    weight_filler {
      type: "xavier"
    }
    bias_filler {
      type: "constant"
    }
  }
}
layer {
  name: "Pooling12"
  type: "Pooling"
  bottom: "Convolution12"
  top: "Pooling12"
  pooling_param {
    pool: MAX
    kernel_size: 2
    stride: 2
  }
}
layer {
  name: "InnerProduct15"
  type: "InnerProduct"
  bottom: "Pooling12"
  top: "InnerProduct15"
  param {
    name: "ip1_w"
    lr_mult: 1
  }
  param {
    name: "ip1_b"
    lr_mult: 2
  }
  inner_product_param {
    num_output: 100
    weight_filler {
      type: "xavier"
    }
    bias_filler {
      type: "constant"
    }
  }
}
layer {
  name: "ReLU10"
  type: "ReLU"
  bottom: "InnerProduct15"
  top: "InnerProduct15"
}
layer {
  name: "InnerProduct16"
  type: "InnerProduct"
  bottom: "InnerProduct15"
  top: "InnerProduct16"
  param {
    name: "ip2_w"
    lr_mult: 1
  }
  param {
    name: "ip2_b"
    lr_mult: 2
  }
  inner_product_param {
    num_output: 50
    weight_filler {
      type: "xavier"
    }
    bias_filler {
      type: "constant"
    }
  }
}
layer {
  name: "Concat3"
  type: "Concat"
  bottom: "InnerProduct14"
  bottom: "InnerProduct16"
  top: "Concat3"
  concat_param {
    axis: 1
  }
}
layer {
  name: "InnerProduct17"
  type: "InnerProduct"
  bottom: "Concat3"
  top: "InnerProduct17"
  param {
    name: "fc1_w"
    lr_mult: 1
  }
  param {
    name: "fc1_b"
    lr_mult: 2
  }
  inner_product_param {
    num_output: 64
    weight_filler {
      type: "xavier"
    }
    bias_filler {
      type: "constant"
    }
  }
}
layer {
  name: "ReLU11"
  type: "ReLU"
  bottom: "InnerProduct17"
  top: "InnerProduct17"
}
layer {
  name: "InnerProduct18"
  type: "InnerProduct"
  bottom: "InnerProduct17"
  top: "InnerProduct18"
  param {
    name: "fc2_w"
    lr_mult: 1
  }
  param {
    name: "fc2_b"
    lr_mult: 2
  }
  inner_product_param {
    num_output: 32
    weight_filler {
      type: "xavier"
    }
    bias_filler {
      type: "constant"
    }
  }
}
layer {
  name: "ReLU12"
  type: "ReLU"
  bottom: "InnerProduct18"
  top: "InnerProduct18"
}
layer {
  name: "dt2"
  type: "InnerProduct"
  bottom: "InnerProduct18"
  top: "dt2"
  param {
    name: "fc3_w"
    lr_mult: 1
  }
  param {
    name: "fc3_b"
    lr_mult: 2
  }
  inner_product_param {
    num_output: 1
    weight_filler {
      type: "xavier"
    }
    bias_filler {
      type: "constant"
    }
  }
}
layer {
  name: "Convolution13"
  type: "Convolution"
  bottom: "p1"
  top: "Convolution13"
  param {
    name: "conv1_w"
    lr_mult: 1
  }
  param {
    name: "conv1_b"
    lr_mult: 2
  }
  convolution_param {
    num_output: 20
    kernel_size: 5
    stride: 1
    weight_filler {
      type: "xavier"
    }
    bias_filler {
      type: "constant"
    }
  }
}
layer {
  name: "Pooling13"
  type: "Pooling"
  bottom: "Convolution13"
  top: "Pooling13"
  pooling_param {
    pool: MAX
    kernel_size: 2
    stride: 2
  }
}
layer {
  name: "Convolution14"
  type: "Convolution"
  bottom: "Pooling13"
  top: "Convolution14"
  param {
    name: "conv2_w"
    lr_mult: 1
  }
  param {
    name: "conv2_b"
    lr_mult: 2
  }
  convolution_param {
    num_output: 50
    kernel_size: 5
    stride: 1
    weight_filler {
      type: "xavier"
    }
    bias_filler {
      type: "constant"
    }
  }
}
layer {
  name: "Pooling14"
  type: "Pooling"
  bottom: "Convolution14"
  top: "Pooling14"
  pooling_param {
    pool: MAX
    kernel_size: 2
    stride: 2
  }
}
layer {
  name: "InnerProduct19"
  type: "InnerProduct"
  bottom: "Pooling14"
  top: "InnerProduct19"
  param {
    name: "ip1_w"
    lr_mult: 1
  }
  param {
    name: "ip1_b"
    lr_mult: 2
  }
  inner_product_param {
    num_output: 100
    weight_filler {
      type: "xavier"
    }
    bias_filler {
      type: "constant"
    }
  }
}
layer {
  name: "ReLU13"
  type: "ReLU"
  bottom: "InnerProduct19"
  top: "InnerProduct19"
}
layer {
  name: "InnerProduct20"
  type: "InnerProduct"
  bottom: "InnerProduct19"
  top: "InnerProduct20"
  param {
    name: "ip2_w"
    lr_mult: 1
  }
  param {
    name: "ip2_b"
    lr_mult: 2
  }
  inner_product_param {
    num_output: 50
    weight_filler {
      type: "xavier"
    }
    bias_filler {
      type: "constant"
    }
  }
}
layer {
  name: "Convolution15"
  type: "Convolution"
  bottom: "c23"
  top: "Convolution15"
  param {
    name: "conv1_w"
    lr_mult: 1
  }
  param {
    name: "conv1_b"
    lr_mult: 2
  }
  convolution_param {
    num_output: 20
    kernel_size: 5
    stride: 1
    weight_filler {
      type: "xavier"
    }
    bias_filler {
      type: "constant"
    }
  }
}
layer {
  name: "Pooling15"
  type: "Pooling"
  bottom: "Convolution15"
  top: "Pooling15"
  pooling_param {
    pool: MAX
    kernel_size: 2
    stride: 2
  }
}
layer {
  name: "Convolution16"
  type: "Convolution"
  bottom: "Pooling15"
  top: "Convolution16"
  param {
    name: "conv2_w"
    lr_mult: 1
  }
  param {
    name: "conv2_b"
    lr_mult: 2
  }
  convolution_param {
    num_output: 50
    kernel_size: 5
    stride: 1
    weight_filler {
      type: "xavier"
    }
    bias_filler {
      type: "constant"
    }
  }
}
layer {
  name: "Pooling16"
  type: "Pooling"
  bottom: "Convolution16"
  top: "Pooling16"
  pooling_param {
    pool: MAX
    kernel_size: 2
    stride: 2
  }
}
layer {
  name: "InnerProduct21"
  type: "InnerProduct"
  bottom: "Pooling16"
  top: "InnerProduct21"
  param {
    name: "ip1_w"
    lr_mult: 1
  }
  param {
    name: "ip1_b"
    lr_mult: 2
  }
  inner_product_param {
    num_output: 100
    weight_filler {
      type: "xavier"
    }
    bias_filler {
      type: "constant"
    }
  }
}
layer {
  name: "ReLU14"
  type: "ReLU"
  bottom: "InnerProduct21"
  top: "InnerProduct21"
}
layer {
  name: "InnerProduct22"
  type: "InnerProduct"
  bottom: "InnerProduct21"
  top: "InnerProduct22"
  param {
    name: "ip2_w"
    lr_mult: 1
  }
  param {
    name: "ip2_b"
    lr_mult: 2
  }
  inner_product_param {
    num_output: 50
    weight_filler {
      type: "xavier"
    }
    bias_filler {
      type: "constant"
    }
  }
}
layer {
  name: "Concat4"
  type: "Concat"
  bottom: "InnerProduct20"
  bottom: "InnerProduct22"
  top: "Concat4"
  concat_param {
    axis: 1
  }
}
layer {
  name: "InnerProduct23"
  type: "InnerProduct"
  bottom: "Concat4"
  top: "InnerProduct23"
  param {
    name: "fc1_w"
    lr_mult: 1
  }
  param {
    name: "fc1_b"
    lr_mult: 2
  }
  inner_product_param {
    num_output: 64
    weight_filler {
      type: "xavier"
    }
    bias_filler {
      type: "constant"
    }
  }
}
layer {
  name: "ReLU15"
  type: "ReLU"
  bottom: "InnerProduct23"
  top: "InnerProduct23"
}
layer {
  name: "InnerProduct24"
  type: "InnerProduct"
  bottom: "InnerProduct23"
  top: "InnerProduct24"
  param {
    name: "fc2_w"
    lr_mult: 1
  }
  param {
    name: "fc2_b"
    lr_mult: 2
  }
  inner_product_param {
    num_output: 32
    weight_filler {
      type: "xavier"
    }
    bias_filler {
      type: "constant"
    }
  }
}
layer {
  name: "ReLU16"
  type: "ReLU"
  bottom: "InnerProduct24"
  top: "InnerProduct24"
}
layer {
  name: "dt3"
  type: "InnerProduct"
  bottom: "InnerProduct24"
  top: "dt3"
  param {
    name: "fc3_w"
    lr_mult: 1
  }
  param {
    name: "fc3_b"
    lr_mult: 2
  }
  inner_product_param {
    num_output: 1
    weight_filler {
      type: "xavier"
    }
    bias_filler {
      type: "constant"
    }
  }
}
layer {
  name: "Convolution17"
  type: "Convolution"
  bottom: "p1"
  top: "Convolution17"
  param {
    name: "conv1_w"
    lr_mult: 1
  }
  param {
    name: "conv1_b"
    lr_mult: 2
  }
  convolution_param {
    num_output: 20
    kernel_size: 5
    stride: 1
    weight_filler {
      type: "xavier"
    }
    bias_filler {
      type: "constant"
    }
  }
}
layer {
  name: "Pooling17"
  type: "Pooling"
  bottom: "Convolution17"
  top: "Pooling17"
  pooling_param {
    pool: MAX
    kernel_size: 2
    stride: 2
  }
}
layer {
  name: "Convolution18"
  type: "Convolution"
  bottom: "Pooling17"
  top: "Convolution18"
  param {
    name: "conv2_w"
    lr_mult: 1
  }
  param {
    name: "conv2_b"
    lr_mult: 2
  }
  convolution_param {
    num_output: 50
    kernel_size: 5
    stride: 1
    weight_filler {
      type: "xavier"
    }
    bias_filler {
      type: "constant"
    }
  }
}
layer {
  name: "Pooling18"
  type: "Pooling"
  bottom: "Convolution18"
  top: "Pooling18"
  pooling_param {
    pool: MAX
    kernel_size: 2
    stride: 2
  }
}
layer {
  name: "InnerProduct25"
  type: "InnerProduct"
  bottom: "Pooling18"
  top: "InnerProduct25"
  param {
    name: "ip1_w"
    lr_mult: 1
  }
  param {
    name: "ip1_b"
    lr_mult: 2
  }
  inner_product_param {
    num_output: 100
    weight_filler {
      type: "xavier"
    }
    bias_filler {
      type: "constant"
    }
  }
}
layer {
  name: "ReLU17"
  type: "ReLU"
  bottom: "InnerProduct25"
  top: "InnerProduct25"
}
layer {
  name: "InnerProduct26"
  type: "InnerProduct"
  bottom: "InnerProduct25"
  top: "InnerProduct26"
  param {
    name: "ip2_w"
    lr_mult: 1
  }
  param {
    name: "ip2_b"
    lr_mult: 2
  }
  inner_product_param {
    num_output: 50
    weight_filler {
      type: "xavier"
    }
    bias_filler {
      type: "constant"
    }
  }
}
layer {
  name: "Convolution19"
  type: "Convolution"
  bottom: "c24"
  top: "Convolution19"
  param {
    name: "conv1_w"
    lr_mult: 1
  }
  param {
    name: "conv1_b"
    lr_mult: 2
  }
  convolution_param {
    num_output: 20
    kernel_size: 5
    stride: 1
    weight_filler {
      type: "xavier"
    }
    bias_filler {
      type: "constant"
    }
  }
}
layer {
  name: "Pooling19"
  type: "Pooling"
  bottom: "Convolution19"
  top: "Pooling19"
  pooling_param {
    pool: MAX
    kernel_size: 2
    stride: 2
  }
}
layer {
  name: "Convolution20"
  type: "Convolution"
  bottom: "Pooling19"
  top: "Convolution20"
  param {
    name: "conv2_w"
    lr_mult: 1
  }
  param {
    name: "conv2_b"
    lr_mult: 2
  }
  convolution_param {
    num_output: 50
    kernel_size: 5
    stride: 1
    weight_filler {
      type: "xavier"
    }
    bias_filler {
      type: "constant"
    }
  }
}
layer {
  name: "Pooling20"
  type: "Pooling"
  bottom: "Convolution20"
  top: "Pooling20"
  pooling_param {
    pool: MAX
    kernel_size: 2
    stride: 2
  }
}
layer {
  name: "InnerProduct27"
  type: "InnerProduct"
  bottom: "Pooling20"
  top: "InnerProduct27"
  param {
    name: "ip1_w"
    lr_mult: 1
  }
  param {
    name: "ip1_b"
    lr_mult: 2
  }
  inner_product_p
I0808 08:30:58.014989 15710 layer_factory.hpp:77] Creating layer data
I0808 08:30:58.015445 15710 net.cpp:91] Creating Layer data
I0808 08:30:58.015483 15710 net.cpp:399] data -> data
I0808 08:30:58.015516 15710 net.cpp:399] data -> label
I0808 08:30:58.015533 15710 data_transformer.cpp:25] Loading mean file from: examples/scene/scene_mean.binaryproto
I0808 08:30:58.062665 15718 db_lmdb.cpp:35] Opened lmdb examples/scene/train11_pairs_300000_pad.lmdb
I0808 08:30:58.141422 15710 data_layer.cpp:41] output data size: 64,6,128,128
I0808 08:30:58.205601 15710 net.cpp:141] Setting up data
I0808 08:30:58.205638 15710 net.cpp:148] Top shape: 64 6 128 128 (6291456)
I0808 08:30:58.205657 15710 net.cpp:148] Top shape: 64 (64)
I0808 08:30:58.205663 15710 net.cpp:156] Memory required for data: 25166080
I0808 08:30:58.205682 15710 layer_factory.hpp:77] Creating layer label_data_1_split
I0808 08:30:58.205706 15710 net.cpp:91] Creating Layer label_data_1_split
I0808 08:30:58.205716 15710 net.cpp:425] label_data_1_split <- label
I0808 08:30:58.205734 15710 net.cpp:399] label_data_1_split -> label_data_1_split_0
I0808 08:30:58.205756 15710 net.cpp:399] label_data_1_split -> label_data_1_split_1
I0808 08:30:58.205812 15710 net.cpp:141] Setting up label_data_1_split
I0808 08:30:58.205821 15710 net.cpp:148] Top shape: 64 (64)
I0808 08:30:58.205829 15710 net.cpp:148] Top shape: 64 (64)
I0808 08:30:58.205835 15710 net.cpp:156] Memory required for data: 25166592
I0808 08:30:58.205842 15710 layer_factory.hpp:77] Creating layer th
I0808 08:30:58.206110 15710 net.cpp:91] Creating Layer th
I0808 08:30:58.206118 15710 net.cpp:425] th <- label_data_1_split_0
I0808 08:30:58.206133 15710 net.cpp:399] th -> th
I0808 08:30:58.206184 15710 net.cpp:141] Setting up th
I0808 08:30:58.206198 15710 net.cpp:148] Top shape: 64 (64)
I0808 08:30:58.206208 15710 net.cpp:156] Memory required for data: 25166848
I0808 08:30:58.206218 15710 layer_factory.hpp:77] Creating layer th_th_0_split
I0808 08:30:58.206235 15710 net.cpp:91] Creating Layer th_th_0_split
I0808 08:30:58.206244 15710 net.cpp:425] th_th_0_split <- th
I0808 08:30:58.206255 15710 net.cpp:399] th_th_0_split -> th_th_0_split_0
I0808 08:30:58.206296 15710 net.cpp:399] th_th_0_split -> th_th_0_split_1
I0808 08:30:58.206400 15710 net.cpp:141] Setting up th_th_0_split
I0808 08:30:58.206409 15710 net.cpp:148] Top shape: 64 (64)
I0808 08:30:58.206418 15710 net.cpp:148] Top shape: 64 (64)
I0808 08:30:58.206423 15710 net.cpp:156] Memory required for data: 25167360
I0808 08:30:58.206429 15710 layer_factory.hpp:77] Creating layer i1
I0808 08:30:58.206445 15710 net.cpp:91] Creating Layer i1
I0808 08:30:58.206451 15710 net.cpp:425] i1 <- data
I0808 08:30:58.206461 15710 net.cpp:399] i1 -> i1
I0808 08:30:58.206475 15710 net.cpp:399] i1 -> i2
I0808 08:30:58.206517 15710 net.cpp:141] Setting up i1
I0808 08:30:58.206526 15710 net.cpp:148] Top shape: 64 3 128 128 (3145728)
I0808 08:30:58.206534 15710 net.cpp:148] Top shape: 64 3 128 128 (3145728)
I0808 08:30:58.206540 15710 net.cpp:156] Memory required for data: 50333184
I0808 08:30:58.206547 15710 layer_factory.hpp:77] Creating layer i1_i1_0_split
I0808 08:30:58.206555 15710 net.cpp:91] Creating Layer i1_i1_0_split
I0808 08:30:58.206562 15710 net.cpp:425] i1_i1_0_split <- i1
I0808 08:30:58.206570 15710 net.cpp:399] i1_i1_0_split -> i1_i1_0_split_0
I0808 08:30:58.206583 15710 net.cpp:399] i1_i1_0_split -> i1_i1_0_split_1
I0808 08:30:58.206594 15710 net.cpp:399] i1_i1_0_split -> i1_i1_0_split_2
I0808 08:30:58.206605 15710 net.cpp:399] i1_i1_0_split -> i1_i1_0_split_3
I0808 08:30:58.206616 15710 net.cpp:399] i1_i1_0_split -> i1_i1_0_split_4
I0808 08:30:58.206629 15710 net.cpp:399] i1_i1_0_split -> i1_i1_0_split_5
I0808 08:30:58.206640 15710 net.cpp:399] i1_i1_0_split -> i1_i1_0_split_6
I0808 08:30:58.206650 15710 net.cpp:399] i1_i1_0_split -> i1_i1_0_split_7
I0808 08:30:58.206665 15710 net.cpp:399] i1_i1_0_split -> i1_i1_0_split_8
I0808 08:30:58.206676 15710 net.cpp:399] i1_i1_0_split -> i1_i1_0_split_9
I0808 08:30:58.206884 15710 net.cpp:141] Setting up i1_i1_0_split
I0808 08:30:58.206902 15710 net.cpp:148] Top shape: 64 3 128 128 (3145728)
I0808 08:30:58.206913 15710 net.cpp:148] Top shape: 64 3 128 128 (3145728)
I0808 08:30:58.206920 15710 net.cpp:148] Top shape: 64 3 128 128 (3145728)
I0808 08:30:58.206928 15710 net.cpp:148] Top shape: 64 3 128 128 (3145728)
I0808 08:30:58.206935 15710 net.cpp:148] Top shape: 64 3 128 128 (3145728)
I0808 08:30:58.206943 15710 net.cpp:148] Top shape: 64 3 128 128 (3145728)
I0808 08:30:58.206950 15710 net.cpp:148] Top shape: 64 3 128 128 (3145728)
I0808 08:30:58.206959 15710 net.cpp:148] Top shape: 64 3 128 128 (3145728)
I0808 08:30:58.206966 15710 net.cpp:148] Top shape: 64 3 128 128 (3145728)
I0808 08:30:58.206974 15710 net.cpp:148] Top shape: 64 3 128 128 (3145728)
I0808 08:30:58.206980 15710 net.cpp:156] Memory required for data: 176162304
I0808 08:30:58.206987 15710 layer_factory.hpp:77] Creating layer i2_i1_1_split
I0808 08:30:58.206996 15710 net.cpp:91] Creating Layer i2_i1_1_split
I0808 08:30:58.207003 15710 net.cpp:425] i2_i1_1_split <- i2
I0808 08:30:58.207013 15710 net.cpp:399] i2_i1_1_split -> i2_i1_1_split_0
I0808 08:30:58.207026 15710 net.cpp:399] i2_i1_1_split -> i2_i1_1_split_1
I0808 08:30:58.207039 15710 net.cpp:399] i2_i1_1_split -> i2_i1_1_split_2
I0808 08:30:58.207052 15710 net.cpp:399] i2_i1_1_split -> i2_i1_1_split_3
I0808 08:30:58.207064 15710 net.cpp:399] i2_i1_1_split -> i2_i1_1_split_4
I0808 08:30:58.207077 15710 net.cpp:399] i2_i1_1_split -> i2_i1_1_split_5
I0808 08:30:58.207089 15710 net.cpp:399] i2_i1_1_split -> i2_i1_1_split_6
I0808 08:30:58.207103 15710 net.cpp:399] i2_i1_1_split -> i2_i1_1_split_7
I0808 08:30:58.207114 15710 net.cpp:399] i2_i1_1_split -> i2_i1_1_split_8
I0808 08:30:58.207125 15710 net.cpp:399] i2_i1_1_split -> i2_i1_1_split_9
I0808 08:30:58.207304 15710 net.cpp:141] Setting up i2_i1_1_split
I0808 08:30:58.207315 15710 net.cpp:148] Top shape: 64 3 128 128 (3145728)
I0808 08:30:58.207324 15710 net.cpp:148] Top shape: 64 3 128 128 (3145728)
I0808 08:30:58.207331 15710 net.cpp:148] Top shape: 64 3 128 128 (3145728)
I0808 08:30:58.207339 15710 net.cpp:148] Top shape: 64 3 128 128 (3145728)
I0808 08:30:58.207358 15710 net.cpp:148] Top shape: 64 3 128 128 (3145728)
I0808 08:30:58.207365 15710 net.cpp:148] Top shape: 64 3 128 128 (3145728)
I0808 08:30:58.207373 15710 net.cpp:148] Top shape: 64 3 128 128 (3145728)
I0808 08:30:58.207381 15710 net.cpp:148] Top shape: 64 3 128 128 (3145728)
I0808 08:30:58.207387 15710 net.cpp:148] Top shape: 64 3 128 128 (3145728)
I0808 08:30:58.207396 15710 net.cpp:148] Top shape: 64 3 128 128 (3145728)
I0808 08:30:58.207401 15710 net.cpp:156] Memory required for data: 301991424
I0808 08:30:58.207406 15710 layer_factory.hpp:77] Creating layer p1
I0808 08:30:58.207418 15710 net.cpp:91] Creating Layer p1
I0808 08:30:58.207425 15710 net.cpp:425] p1 <- i1_i1_0_split_0
I0808 08:30:58.207434 15710 net.cpp:399] p1 -> p1
I0808 08:30:58.207475 15710 net.cpp:141] Setting up p1
I0808 08:30:58.207484 15710 net.cpp:148] Top shape: 64 3 64 64 (786432)
I0808 08:30:58.207489 15710 net.cpp:156] Memory required for data: 305137152
I0808 08:30:58.207495 15710 layer_factory.hpp:77] Creating layer p1_p1_0_split
I0808 08:30:58.207505 15710 net.cpp:91] Creating Layer p1_p1_0_split
I0808 08:30:58.207512 15710 net.cpp:425] p1_p1_0_split <- p1
I0808 08:30:58.207522 15710 net.cpp:399] p1_p1_0_split -> p1_p1_0_split_0
I0808 08:30:58.207535 15710 net.cpp:399] p1_p1_0_split -> p1_p1_0_split_1
I0808 08:30:58.207546 15710 net.cpp:399] p1_p1_0_split -> p1_p1_0_split_2
I0808 08:30:58.207562 15710 net.cpp:399] p1_p1_0_split -> p1_p1_0_split_3
I0808 08:30:58.207573 15710 net.cpp:399] p1_p1_0_split -> p1_p1_0_split_4
I0808 08:30:58.207586 15710 net.cpp:399] p1_p1_0_split -> p1_p1_0_split_5
I0808 08:30:58.207597 15710 net.cpp:399] p1_p1_0_split -> p1_p1_0_split_6
I0808 08:30:58.207608 15710 net.cpp:399] p1_p1_0_split -> p1_p1_0_split_7
I0808 08:30:58.207620 15710 net.cpp:399] p1_p1_0_split -> p1_p1_0_split_8
I0808 08:30:58.207633 15710 net.cpp:399] p1_p1_0_split -> p1_p1_0_split_9
I0808 08:30:58.207792 15710 net.cpp:141] Setting up p1_p1_0_split
I0808 08:30:58.207799 15710 net.cpp:148] Top shape: 64 3 64 64 (786432)
I0808 08:30:58.207806 15710 net.cpp:148] Top shape: 64 3 64 64 (786432)
I0808 08:30:58.207815 15710 net.cpp:148] Top shape: 64 3 64 64 (786432)
I0808 08:30:58.207823 15710 net.cpp:148] Top shape: 64 3 64 64 (786432)
I0808 08:30:58.207830 15710 net.cpp:148] Top shape: 64 3 64 64 (786432)
I0808 08:30:58.207839 15710 net.cpp:148] Top shape: 64 3 64 64 (786432)
I0808 08:30:58.207845 15710 net.cpp:148] Top shape: 64 3 64 64 (786432)
I0808 08:30:58.207854 15710 net.cpp:148] Top shape: 64 3 64 64 (786432)
I0808 08:30:58.207860 15710 net.cpp:148] Top shape: 64 3 64 64 (786432)
I0808 08:30:58.207868 15710 net.cpp:148] Top shape: 64 3 64 64 (786432)
I0808 08:30:58.207875 15710 net.cpp:156] Memory required for data: 336594432
I0808 08:30:58.207900 15710 layer_factory.hpp:77] Creating layer p2
I0808 08:30:58.207912 15710 net.cpp:91] Creating Layer p2
I0808 08:30:58.207921 15710 net.cpp:425] p2 <- i2_i1_1_split_0
I0808 08:30:58.207932 15710 net.cpp:399] p2 -> p2
I0808 08:30:58.207972 15710 net.cpp:141] Setting up p2
I0808 08:30:58.207989 15710 net.cpp:148] Top shape: 64 3 64 64 (786432)
I0808 08:30:58.207999 15710 net.cpp:156] Memory required for data: 339740160
I0808 08:30:58.208011 15710 layer_factory.hpp:77] Creating layer p2_p2_0_split
I0808 08:30:58.208025 15710 net.cpp:91] Creating Layer p2_p2_0_split
I0808 08:30:58.208034 15710 net.cpp:425] p2_p2_0_split <- p2
I0808 08:30:58.208050 15710 net.cpp:399] p2_p2_0_split -> p2_p2_0_split_0
I0808 08:30:58.208070 15710 net.cpp:399] p2_p2_0_split -> p2_p2_0_split_1
I0808 08:30:58.208096 15710 net.cpp:399] p2_p2_0_split -> p2_p2_0_split_2
I0808 08:30:58.208117 15710 net.cpp:399] p2_p2_0_split -> p2_p2_0_split_3
I0808 08:30:58.208132 15710 net.cpp:399] p2_p2_0_split -> p2_p2_0_split_4
I0808 08:30:58.208144 15710 net.cpp:399] p2_p2_0_split -> p2_p2_0_split_5
I0808 08:30:58.208155 15710 net.cpp:399] p2_p2_0_split -> p2_p2_0_split_6
I0808 08:30:58.208168 15710 net.cpp:399] p2_p2_0_split -> p2_p2_0_split_7
I0808 08:30:58.208179 15710 net.cpp:399] p2_p2_0_split -> p2_p2_0_split_8
I0808 08:30:58.208202 15710 net.cpp:399] p2_p2_0_split -> p2_p2_0_split_9
I0808 08:30:58.208374 15710 net.cpp:141] Setting up p2_p2_0_split
I0808 08:30:58.208386 15710 net.cpp:148] Top shape: 64 3 64 64 (786432)
I0808 08:30:58.208395 15710 net.cpp:148] Top shape: 64 3 64 64 (786432)
I0808 08:30:58.208402 15710 net.cpp:148] Top shape: 64 3 64 64 (786432)
I0808 08:30:58.208410 15710 net.cpp:148] Top shape: 64 3 64 64 (786432)
I0808 08:30:58.208417 15710 net.cpp:148] Top shape: 64 3 64 64 (786432)
I0808 08:30:58.208425 15710 net.cpp:148] Top shape: 64 3 64 64 (786432)
I0808 08:30:58.208432 15710 net.cpp:148] Top shape: 64 3 64 64 (786432)
I0808 08:30:58.208439 15710 net.cpp:148] Top shape: 64 3 64 64 (786432)
I0808 08:30:58.208447 15710 net.cpp:148] Top shape: 64 3 64 64 (786432)
I0808 08:30:58.208454 15710 net.cpp:148] Top shape: 64 3 64 64 (786432)
I0808 08:30:58.208461 15710 net.cpp:156] Memory required for data: 371197440
I0808 08:30:58.208467 15710 layer_factory.hpp:77] Creating layer Input1
I0808 08:30:58.208478 15710 net.cpp:91] Creating Layer Input1
I0808 08:30:58.208487 15710 net.cpp:399] Input1 -> Input1
I0808 08:30:58.208525 15710 net.cpp:141] Setting up Input1
I0808 08:30:58.208534 15710 net.cpp:148] Top shape: 64 3 64 64 (786432)
I0808 08:30:58.208540 15710 net.cpp:156] Memory required for data: 374343168
I0808 08:30:58.208546 15710 layer_factory.hpp:77] Creating layer c11
I0808 08:30:58.208561 15710 net.cpp:91] Creating Layer c11
I0808 08:30:58.208567 15710 net.cpp:425] c11 <- i1_i1_0_split_1
I0808 08:30:58.208575 15710 net.cpp:425] c11 <- Input1
I0808 08:30:58.208585 15710 net.cpp:399] c11 -> c11
I0808 08:30:58.212479 15710 net.cpp:141] Setting up c11
I0808 08:30:58.212499 15710 net.cpp:148] Top shape: 64 3 64 64 (786432)
I0808 08:30:58.212505 15710 net.cpp:156] Memory required for data: 377488896
I0808 08:30:58.212512 15710 layer_factory.hpp:77] Creating layer Input2
I0808 08:30:58.212523 15710 net.cpp:91] Creating Layer Input2
I0808 08:30:58.212532 15710 net.cpp:399] Input2 -> Input2
I0808 08:30:58.212564 15710 net.cpp:141] Setting up Input2
I0808 08:30:58.212573 15710 net.cpp:148] Top shape: 64 3 64 64 (786432)
I0808 08:30:58.212579 15710 net.cpp:156] Memory required for data: 380634624
I0808 08:30:58.212584 15710 layer_factory.hpp:77] Creating layer c12
I0808 08:30:58.212594 15710 net.cpp:91] Creating Layer c12
I0808 08:30:58.212600 15710 net.cpp:425] c12 <- i1_i1_0_split_2
I0808 08:30:58.212609 15710 net.cpp:425] c12 <- Input2
I0808 08:30:58.212618 15710 net.cpp:399] c12 -> c12
I0808 08:30:58.212646 15710 net.cpp:141] Setting up c12
I0808 08:30:58.212654 15710 net.cpp:148] Top shape: 64 3 64 64 (786432)
I0808 08:30:58.212661 15710 net.cpp:156] Memory required for data: 383780352
I0808 08:30:58.212666 15710 layer_factory.hpp:77] Creating layer Input3
I0808 08:30:58.212674 15710 net.cpp:91] Creating Layer Input3
I0808 08:30:58.212682 15710 net.cpp:399] Input3 -> Input3
I0808 08:30:58.212709 15710 net.cpp:141] Setting up Input3
I0808 08:30:58.212718 15710 net.cpp:148] Top shape: 64 3 64 64 (786432)
I0808 08:30:58.212723 15710 net.cpp:156] Memory required for data: 386926080
I0808 08:30:58.212729 15710 layer_factory.hpp:77] Creating layer c13
I0808 08:30:58.212740 15710 net.cpp:91] Creating Layer c13
I0808 08:30:58.212746 15710 net.cpp:425] c13 <- i1_i1_0_split_3
I0808 08:30:58.212754 15710 net.cpp:425] c13 <- Input3
I0808 08:30:58.212764 15710 net.cpp:399] c13 -> c13
I0808 08:30:58.212791 15710 net.cpp:141] Setting up c13
I0808 08:30:58.212800 15710 net.cpp:148] Top shape: 64 3 64 64 (786432)
I0808 08:30:58.212805 15710 net.cpp:156] Memory required for data: 390071808
I0808 08:30:58.212811 15710 layer_factory.hpp:77] Creating layer Input4
I0808 08:30:58.212821 15710 net.cpp:91] Creating Layer Input4
I0808 08:30:58.212827 15710 net.cpp:399] Input4 -> Input4
I0808 08:30:58.212854 15710 net.cpp:141] Setting up Input4
I0808 08:30:58.212862 15710 net.cpp:148] Top shape: 64 3 64 64 (786432)
I0808 08:30:58.212867 15710 net.cpp:156] Memory required for data: 393217536
I0808 08:30:58.212873 15710 layer_factory.hpp:77] Creating layer c14
I0808 08:30:58.212899 15710 net.cpp:91] Creating Layer c14
I0808 08:30:58.212908 15710 net.cpp:425] c14 <- i1_i1_0_split_4
I0808 08:30:58.212916 15710 net.cpp:425] c14 <- Input4
I0808 08:30:58.212929 15710 net.cpp:399] c14 -> c14
I0808 08:30:58.212975 15710 net.cpp:141] Setting up c14
I0808 08:30:58.212991 15710 net.cpp:148] Top shape: 64 3 64 64 (786432)
I0808 08:30:58.213003 15710 net.cpp:156] Memory required for data: 396363264
I0808 08:30:58.213012 15710 layer_factory.hpp:77] Creating layer Input5
I0808 08:30:58.213023 15710 net.cpp:91] Creating Layer Input5
I0808 08:30:58.213037 15710 net.cpp:399] Input5 -> Input5
I0808 08:30:58.213085 15710 net.cpp:141] Setting up Input5
I0808 08:30:58.213100 15710 net.cpp:148] Top shape: 64 3 64 64 (786432)
I0808 08:30:58.213107 15710 net.cpp:156] Memory required for data: 399508992
I0808 08:30:58.213117 15710 layer_factory.hpp:77] Creating layer c15
I0808 08:30:58.213127 15710 net.cpp:91] Creating Layer c15
I0808 08:30:58.213134 15710 net.cpp:425] c15 <- i1_i1_0_split_5
I0808 08:30:58.213141 15710 net.cpp:425] c15 <- Input5
I0808 08:30:58.213151 15710 net.cpp:399] c15 -> c15
I0808 08:30:58.213181 15710 net.cpp:141] Setting up c15
I0808 08:30:58.213188 15710 net.cpp:148] Top shape: 64 3 64 64 (786432)
I0808 08:30:58.213193 15710 net.cpp:156] Memory required for data: 402654720
I0808 08:30:58.213199 15710 layer_factory.hpp:77] Creating layer Input6
I0808 08:30:58.213208 15710 net.cpp:91] Creating Layer Input6
I0808 08:30:58.213217 15710 net.cpp:399] Input6 -> Input6
I0808 08:30:58.213243 15710 net.cpp:141] Setting up Input6
I0808 08:30:58.213250 15710 net.cpp:148] Top shape: 64 3 64 64 (786432)
I0808 08:30:58.213256 15710 net.cpp:156] Memory required for data: 405800448
I0808 08:30:58.213263 15710 layer_factory.hpp:77] Creating layer c16
I0808 08:30:58.213270 15710 net.cpp:91] Creating Layer c16
I0808 08:30:58.213276 15710 net.cpp:425] c16 <- i1_i1_0_split_6
I0808 08:30:58.213284 15710 net.cpp:425] c16 <- Input6
I0808 08:30:58.213294 15710 net.cpp:399] c16 -> c16
I0808 08:30:58.213320 15710 net.cpp:141] Setting up c16
I0808 08:30:58.213328 15710 net.cpp:148] Top shape: 64 3 64 64 (786432)
I0808 08:30:58.213335 15710 net.cpp:156] Memory required for data: 408946176
I0808 08:30:58.213340 15710 layer_factory.hpp:77] Creating layer Input7
I0808 08:30:58.213348 15710 net.cpp:91] Creating Layer Input7
I0808 08:30:58.213356 15710 net.cpp:399] Input7 -> Input7
I0808 08:30:58.213382 15710 net.cpp:141] Setting up Input7
I0808 08:30:58.213390 15710 net.cpp:148] Top shape: 64 3 64 64 (786432)
I0808 08:30:58.213397 15710 net.cpp:156] Memory required for data: 412091904
I0808 08:30:58.213402 15710 layer_factory.hpp:77] Creating layer c17
I0808 08:30:58.213410 15710 net.cpp:91] Creating Layer c17
I0808 08:30:58.213416 15710 net.cpp:425] c17 <- i1_i1_0_split_7
I0808 08:30:58.213424 15710 net.cpp:425] c17 <- Input7
I0808 08:30:58.213433 15710 net.cpp:399] c17 -> c17
I0808 08:30:58.213469 15710 net.cpp:141] Setting up c17
I0808 08:30:58.213477 15710 net.cpp:148] Top shape: 64 3 64 64 (786432)
I0808 08:30:58.213484 15710 net.cpp:156] Memory required for data: 415237632
I0808 08:30:58.213490 15710 layer_factory.hpp:77] Creating layer Input8
I0808 08:30:58.213497 15710 net.cpp:91] Creating Layer Input8
I0808 08:30:58.213505 15710 net.cpp:399] Input8 -> Input8
I0808 08:30:58.213532 15710 net.cpp:141] Setting up Input8
I0808 08:30:58.213541 15710 net.cpp:148] Top shape: 64 3 64 64 (786432)
I0808 08:30:58.213546 15710 net.cpp:156] Memory required for data: 418383360
I0808 08:30:58.213551 15710 layer_factory.hpp:77] Creating layer c18
I0808 08:30:58.213559 15710 net.cpp:91] Creating Layer c18
I0808 08:30:58.213565 15710 net.cpp:425] c18 <- i1_i1_0_split_8
I0808 08:30:58.213573 15710 net.cpp:425] c18 <- Input8
I0808 08:30:58.213582 15710 net.cpp:399] c18 -> c18
I0808 08:30:58.213609 15710 net.cpp:141] Setting up c18
I0808 08:30:58.213618 15710 net.cpp:148] Top shape: 64 3 64 64 (786432)
I0808 08:30:58.213624 15710 net.cpp:156] Memory required for data: 421529088
I0808 08:30:58.213629 15710 layer_factory.hpp:77] Creating layer Input9
I0808 08:30:58.213647 15710 net.cpp:91] Creating Layer Input9
I0808 08:30:58.213655 15710 net.cpp:399] Input9 -> Input9
I0808 08:30:58.213682 15710 net.cpp:141] Setting up Input9
I0808 08:30:58.213690 15710 net.cpp:148] Top shape: 64 3 64 64 (786432)
I0808 08:30:58.213696 15710 net.cpp:156] Memory required for data: 424674816
I0808 08:30:58.213702 15710 layer_factory.hpp:77] Creating layer c19
I0808 08:30:58.213711 15710 net.cpp:91] Creating Layer c19
I0808 08:30:58.213716 15710 net.cpp:425] c19 <- i1_i1_0_split_9
I0808 08:30:58.213724 15710 net.cpp:425] c19 <- Input9
I0808 08:30:58.213733 15710 net.cpp:399] c19 -> c19
I0808 08:30:58.213760 15710 net.cpp:141] Setting up c19
I0808 08:30:58.213768 15710 net.cpp:148] Top shape: 64 3 64 64 (786432)
I0808 08:30:58.213774 15710 net.cpp:156] Memory required for data: 427820544
I0808 08:30:58.213780 15710 layer_factory.hpp:77] Creating layer Input10
I0808 08:30:58.213788 15710 net.cpp:91] Creating Layer Input10
I0808 08:30:58.213796 15710 net.cpp:399] Input10 -> Input10
I0808 08:30:58.213824 15710 net.cpp:141] Setting up Input10
I0808 08:30:58.213830 15710 net.cpp:148] Top shape: 64 3 64 64 (786432)
I0808 08:30:58.213836 15710 net.cpp:156] Memory required for data: 430966272
I0808 08:30:58.213842 15710 layer_factory.hpp:77] Creating layer c21
I0808 08:30:58.213850 15710 net.cpp:91] Creating Layer c21
I0808 08:30:58.213856 15710 net.cpp:425] c21 <- i2_i1_1_split_1
I0808 08:30:58.213865 15710 net.cpp:425] c21 <- Input10
I0808 08:30:58.213873 15710 net.cpp:399] c21 -> c21
I0808 08:30:58.213901 15710 net.cpp:141] Setting up c21
I0808 08:30:58.213908 15710 net.cpp:148] Top shape: 64 3 64 64 (786432)
I0808 08:30:58.213914 15710 net.cpp:156] Memory required for data: 434112000
I0808 08:30:58.213920 15710 layer_factory.hpp:77] Creating layer Input11
I0808 08:30:58.213928 15710 net.cpp:91] Creating Layer Input11
I0808 08:30:58.213937 15710 net.cpp:399] Input11 -> Input11
I0808 08:30:58.213963 15710 net.cpp:141] Setting up Input11
I0808 08:30:58.213970 15710 net.cpp:148] Top shape: 64 3 64 64 (786432)
I0808 08:30:58.213976 15710 net.cpp:156] Memory required for data: 437257728
I0808 08:30:58.213981 15710 layer_factory.hpp:77] Creating layer c22
I0808 08:30:58.213994 15710 net.cpp:91] Creating Layer c22
I0808 08:30:58.214001 15710 net.cpp:425] c22 <- i2_i1_1_split_2
I0808 08:30:58.214010 15710 net.cpp:425] c22 <- Input11
I0808 08:30:58.214020 15710 net.cpp:399] c22 -> c22
I0808 08:30:58.214054 15710 net.cpp:141] Setting up c22
I0808 08:30:58.214064 15710 net.cpp:148] Top shape: 64 3 64 64 (786432)
I0808 08:30:58.214071 15710 net.cpp:156] Memory required for data: 440403456
I0808 08:30:58.214082 15710 layer_factory.hpp:77] Creating layer Input12
I0808 08:30:58.214093 15710 net.cpp:91] Creating Layer Input12
I0808 08:30:58.214107 15710 net.cpp:399] Input12 -> Input12
I0808 08:30:58.214159 15710 net.cpp:141] Setting up Input12
I0808 08:30:58.214169 15710 net.cpp:148] Top shape: 64 3 64 64 (786432)
I0808 08:30:58.214176 15710 net.cpp:156] Memory required for data: 443549184
I0808 08:30:58.214182 15710 layer_factory.hpp:77] Creating layer c23
I0808 08:30:58.214191 15710 net.cpp:91] Creating Layer c23
I0808 08:30:58.214197 15710 net.cpp:425] c23 <- i2_i1_1_split_3
I0808 08:30:58.214206 15710 net.cpp:425] c23 <- Input12
I0808 08:30:58.214215 15710 net.cpp:399] c23 -> c23
I0808 08:30:58.214243 15710 net.cpp:141] Setting up c23
I0808 08:30:58.214252 15710 net.cpp:148] Top shape: 64 3 64 64 (786432)
I0808 08:30:58.214257 15710 net.cpp:156] Memory required for data: 446694912
I0808 08:30:58.214263 15710 layer_factory.hpp:77] Creating layer Input13
I0808 08:30:58.214272 15710 net.cpp:91] Creating Layer Input13
I0808 08:30:58.214280 15710 net.cpp:399] Input13 -> Input13
I0808 08:30:58.214306 15710 net.cpp:141] Setting up Input13
I0808 08:30:58.214314 15710 net.cpp:148] Top shape: 64 3 64 64 (786432)
I0808 08:30:58.214320 15710 net.cpp:156] Memory required for data: 449840640
I0808 08:30:58.214326 15710 layer_factory.hpp:77] Creating layer c24
I0808 08:30:58.214344 15710 net.cpp:91] Creating Layer c24
I0808 08:30:58.214350 15710 net.cpp:425] c24 <- i2_i1_1_split_4
I0808 08:30:58.214359 15710 net.cpp:425] c24 <- Input13
I0808 08:30:58.214368 15710 net.cpp:399] c24 -> c24
I0808 08:30:58.214396 15710 net.cpp:141] Setting up c24
I0808 08:30:58.214404 15710 net.cpp:148] Top shape: 64 3 64 64 (786432)
I0808 08:30:58.214411 15710 net.cpp:156] Memory required for data: 452986368
I0808 08:30:58.214416 15710 layer_factory.hpp:77] Creating layer Input14
I0808 08:30:58.214424 15710 net.cpp:91] Creating Layer Input14
I0808 08:30:58.214432 15710 net.cpp:399] Input14 -> Input14
I0808 08:30:58.214459 15710 net.cpp:141] Setting up Input14
I0808 08:30:58.214468 15710 net.cpp:148] Top shape: 64 3 64 64 (786432)
I0808 08:30:58.214473 15710 net.cpp:156] Memory required for data: 456132096
I0808 08:30:58.214478 15710 layer_factory.hpp:77] Creating layer c25
I0808 08:30:58.214486 15710 net.cpp:91] Creating Layer c25
I0808 08:30:58.214493 15710 net.cpp:425] c25 <- i2_i1_1_split_5
I0808 08:30:58.214501 15710 net.cpp:425] c25 <- Input14
I0808 08:30:58.214510 15710 net.cpp:399] c25 -> c25
I0808 08:30:58.214537 15710 net.cpp:141] Setting up c25
I0808 08:30:58.214545 15710 net.cpp:148] Top shape: 64 3 64 64 (786432)
I0808 08:30:58.214551 15710 net.cpp:156] Memory required for data: 459277824
I0808 08:30:58.214557 15710 layer_factory.hpp:77] Creating layer Input15
I0808 08:30:58.214565 15710 net.cpp:91] Creating Layer Input15
I0808 08:30:58.214573 15710 net.cpp:399] Input15 -> Input15
I0808 08:30:58.214599 15710 net.cpp:141] Setting up Input15
I0808 08:30:58.214607 15710 net.cpp:148] Top shape: 64 3 64 64 (786432)
I0808 08:30:58.214613 15710 net.cpp:156] Memory required for data: 462423552
I0808 08:30:58.214619 15710 layer_factory.hpp:77] Creating layer c26
I0808 08:30:58.214627 15710 net.cpp:91] Creating Layer c26
I0808 08:30:58.214633 15710 net.cpp:425] c26 <- i2_i1_1_split_6
I0808 08:30:58.214642 15710 net.cpp:425] c26 <- Input15
I0808 08:30:58.214651 15710 net.cpp:399] c26 -> c26
I0808 08:30:58.214678 15710 net.cpp:141] Setting up c26
I0808 08:30:58.214685 15710 net.cpp:148] Top shape: 64 3 64 64 (786432)
I0808 08:30:58.214691 15710 net.cpp:156] Memory required for data: 465569280
I0808 08:30:58.214697 15710 layer_factory.hpp:77] Creating layer Input16
I0808 08:30:58.214706 15710 net.cpp:91] Creating Layer Input16
I0808 08:30:58.214715 15710 net.cpp:399] Input16 -> Input16
I0808 08:30:58.214740 15710 net.cpp:141] Setting up Input16
I0808 08:30:58.214747 15710 net.cpp:148] Top shape: 64 3 64 64 (786432)
I0808 08:30:58.214753 15710 net.cpp:156] Memory required for data: 468715008
I0808 08:30:58.214759 15710 layer_factory.hpp:77] Creating layer c27
I0808 08:30:58.214767 15710 net.cpp:91] Creating Layer c27
I0808 08:30:58.214774 15710 net.cpp:425] c27 <- i2_i1_1_split_7
I0808 08:30:58.214782 15710 net.cpp:425] c27 <- Input16
I0808 08:30:58.214792 15710 net.cpp:399] c27 -> c27
I0808 08:30:58.214818 15710 net.cpp:141] Setting up c27
I0808 08:30:58.214826 15710 net.cpp:148] Top shape: 64 3 64 64 (786432)
I0808 08:30:58.214831 15710 net.cpp:156] Memory required for data: 471860736
I0808 08:30:58.214838 15710 layer_factory.hpp:77] Creating layer Input17
I0808 08:30:58.214845 15710 net.cpp:91] Creating Layer Input17
I0808 08:30:58.214854 15710 net.cpp:399] Input17 -> Input17
I0808 08:30:58.214880 15710 net.cpp:141] Setting up Input17
I0808 08:30:58.214889 15710 net.cpp:148] Top shape: 64 3 64 64 (786432)
I0808 08:30:58.214895 15710 net.cpp:156] Memory required for data: 475006464
I0808 08:30:58.214900 15710 layer_factory.hpp:77] Creating layer c28
I0808 08:30:58.214910 15710 net.cpp:91] Creating Layer c28
I0808 08:30:58.214915 15710 net.cpp:425] c28 <- i2_i1_1_split_8
I0808 08:30:58.214923 15710 net.cpp:425] c28 <- Input17
I0808 08:30:58.214932 15710 net.cpp:399] c28 -> c28
I0808 08:30:58.214961 15710 net.cpp:141] Setting up c28
I0808 08:30:58.214967 15710 net.cpp:148] Top shape: 64 3 64 64 (786432)
I0808 08:30:58.214973 15710 net.cpp:156] Memory required for data: 478152192
I0808 08:30:58.214979 15710 layer_factory.hpp:77] Creating layer Input18
I0808 08:30:58.214998 15710 net.cpp:91] Creating Layer Input18
I0808 08:30:58.215005 15710 net.cpp:399] Input18 -> Input18
I0808 08:30:58.215032 15710 net.cpp:141] Setting up Input18
I0808 08:30:58.215040 15710 net.cpp:148] Top shape: 64 3 64 64 (786432)
I0808 08:30:58.215045 15710 net.cpp:156] Memory required for data: 481297920
I0808 08:30:58.215051 15710 layer_factory.hpp:77] Creating layer c29
I0808 08:30:58.215060 15710 net.cpp:91] Creating Layer c29
I0808 08:30:58.215066 15710 net.cpp:425] c29 <- i2_i1_1_split_9
I0808 08:30:58.215075 15710 net.cpp:425] c29 <- Input18
I0808 08:30:58.215083 15710 net.cpp:399] c29 -> c29
I0808 08:30:58.215111 15710 net.cpp:141] Setting up c29
I0808 08:30:58.215118 15710 net.cpp:148] Top shape: 64 3 64 64 (786432)
I0808 08:30:58.215124 15710 net.cpp:156] Memory required for data: 484443648
I0808 08:30:58.215131 15710 layer_factory.hpp:77] Creating layer Convolution1
I0808 08:30:58.215152 15710 net.cpp:91] Creating Layer Convolution1
I0808 08:30:58.215162 15710 net.cpp:425] Convolution1 <- p1_p1_0_split_0
I0808 08:30:58.215174 15710 net.cpp:399] Convolution1 -> Convolution1
I0808 08:30:58.216192 15710 net.cpp:141] Setting up Convolution1
I0808 08:30:58.216207 15710 net.cpp:148] Top shape: 64 20 60 60 (4608000)
I0808 08:30:58.216213 15710 net.cpp:156] Memory required for data: 502875648
I0808 08:30:58.216230 15710 layer_factory.hpp:77] Creating layer Pooling1
I0808 08:30:58.216240 15710 net.cpp:91] Creating Layer Pooling1
I0808 08:30:58.216248 15710 net.cpp:425] Pooling1 <- Convolution1
I0808 08:30:58.216282 15710 net.cpp:399] Pooling1 -> Pooling1
I0808 08:30:58.216346 15710 net.cpp:141] Setting up Pooling1
I0808 08:30:58.216361 15710 net.cpp:148] Top shape: 64 20 30 30 (1152000)
I0808 08:30:58.216372 15710 net.cpp:156] Memory required for data: 507483648
I0808 08:30:58.216384 15710 layer_factory.hpp:77] Creating layer Convolution2
I0808 08:30:58.216408 15710 net.cpp:91] Creating Layer Convolution2
I0808 08:30:58.216415 15710 net.cpp:425] Convolution2 <- Pooling1
I0808 08:30:58.216434 15710 net.cpp:399] Convolution2 -> Convolution2
I0808 08:30:58.218250 15710 net.cpp:141] Setting up Convolution2
I0808 08:30:58.218273 15710 net.cpp:148] Top shape: 64 50 26 26 (2163200)
I0808 08:30:58.218281 15710 net.cpp:156] Memory required for data: 516136448
I0808 08:30:58.218299 15710 layer_factory.hpp:77] Creating layer Pooling2
I0808 08:30:58.218312 15710 net.cpp:91] Creating Layer Pooling2
I0808 08:30:58.218322 15710 net.cpp:425] Pooling2 <- Convolution2
I0808 08:30:58.218338 15710 net.cpp:399] Pooling2 -> Pooling2
I0808 08:30:58.218394 15710 net.cpp:141] Setting up Pooling2
I0808 08:30:58.218408 15710 net.cpp:148] Top shape: 64 50 13 13 (540800)
I0808 08:30:58.218416 15710 net.cpp:156] Memory required for data: 518299648
I0808 08:30:58.218425 15710 layer_factory.hpp:77] Creating layer InnerProduct1
I0808 08:30:58.218441 15710 net.cpp:91] Creating Layer InnerProduct1
I0808 08:30:58.218449 15710 net.cpp:425] InnerProduct1 <- Pooling2
I0808 08:30:58.218462 15710 net.cpp:399] InnerProduct1 -> InnerProduct1
I0808 08:30:58.228219 15710 net.cpp:141] Setting up InnerProduct1
I0808 08:30:58.228258 15710 net.cpp:148] Top shape: 64 100 (6400)
I0808 08:30:58.228268 15710 net.cpp:156] Memory required for data: 518325248
I0808 08:30:58.228296 15710 layer_factory.hpp:77] Creating layer ReLU1
I0808 08:30:58.228317 15710 net.cpp:91] Creating Layer ReLU1
I0808 08:30:58.228329 15710 net.cpp:425] ReLU1 <- InnerProduct1
I0808 08:30:58.228343 15710 net.cpp:386] ReLU1 -> InnerProduct1 (in-place)
I0808 08:30:58.228361 15710 net.cpp:141] Setting up ReLU1
I0808 08:30:58.228381 15710 net.cpp:148] Top shape: 64 100 (6400)
I0808 08:30:58.228389 15710 net.cpp:156] Memory required for data: 518350848
I0808 08:30:58.228399 15710 layer_factory.hpp:77] Creating layer InnerProduct2
I0808 08:30:58.228415 15710 net.cpp:91] Creating Layer InnerProduct2
I0808 08:30:58.228425 15710 net.cpp:425] InnerProduct2 <- InnerProduct1
I0808 08:30:58.228440 15710 net.cpp:399] InnerProduct2 -> InnerProduct2
I0808 08:30:58.229396 15710 net.cpp:141] Setting up InnerProduct2
I0808 08:30:58.229418 15710 net.cpp:148] Top shape: 64 50 (3200)
I0808 08:30:58.229427 15710 net.cpp:156] Memory required for data: 518363648
I0808 08:30:58.229441 15710 layer_factory.hpp:77] Creating layer Convolution3
I0808 08:30:58.229465 15710 net.cpp:91] Creating Layer Convolution3
I0808 08:30:58.229480 15710 net.cpp:425] Convolution3 <- p2_p2_0_split_0
I0808 08:30:58.229501 15710 net.cpp:399] Convolution3 -> Convolution3
I0808 08:30:58.229980 15710 net.cpp:141] Setting up Convolution3
I0808 08:30:58.229997 15710 net.cpp:148] Top shape: 64 20 60 60 (4608000)
I0808 08:30:58.230006 15710 net.cpp:156] Memory required for data: 536795648
I0808 08:30:58.230021 15710 net.cpp:484] Sharing parameters 'conv1_w' owned by layer 'Convolution1', param index 0
I0808 08:30:58.230033 15710 net.cpp:484] Sharing parameters 'conv1_b' owned by layer 'Convolution1', param index 1
I0808 08:30:58.230043 15710 layer_factory.hpp:77] Creating layer Pooling3
I0808 08:30:58.230060 15710 net.cpp:91] Creating Layer Pooling3
I0808 08:30:58.230072 15710 net.cpp:425] Pooling3 <- Convolution3
I0808 08:30:58.230085 15710 net.cpp:399] Pooling3 -> Pooling3
I0808 08:30:58.230150 15710 net.cpp:141] Setting up Pooling3
I0808 08:30:58.230165 15710 net.cpp:148] Top shape: 64 20 30 30 (1152000)
I0808 08:30:58.230173 15710 net.cpp:156] Memory required for data: 541403648
I0808 08:30:58.230182 15710 layer_factory.hpp:77] Creating layer Convolution4
I0808 08:30:58.230203 15710 net.cpp:91] Creating Layer Convolution4
I0808 08:30:58.230213 15710 net.cpp:425] Convolution4 <- Pooling3
I0808 08:30:58.230228 15710 net.cpp:399] Convolution4 -> Convolution4
I0808 08:30:58.230811 15710 net.cpp:141] Setting up Convolution4
I0808 08:30:58.230829 15710 net.cpp:148] Top shape: 64 50 26 26 (2163200)
I0808 08:30:58.230839 15710 net.cpp:156] Memory required for data: 550056448
I0808 08:30:58.230849 15710 net.cpp:484] Sharing parameters 'conv2_w' owned by layer 'Convolution2', param index 0
I0808 08:30:58.230859 15710 net.cpp:484] Sharing parameters 'conv2_b' owned by layer 'Convolution2', param index 1
I0808 08:30:58.230870 15710 layer_factory.hpp:77] Creating layer Pooling4
I0808 08:30:58.230881 15710 net.cpp:91] Creating Layer Pooling4
I0808 08:30:58.230890 15710 net.cpp:425] Pooling4 <- Convolution4
I0808 08:30:58.230904 15710 net.cpp:399] Pooling4 -> Pooling4
I0808 08:30:58.230988 15710 net.cpp:141] Setting up Pooling4
I0808 08:30:58.231009 15710 net.cpp:148] Top shape: 64 50 13 13 (540800)
I0808 08:30:58.231017 15710 net.cpp:156] Memory required for data: 552219648
I0808 08:30:58.231026 15710 layer_factory.hpp:77] Creating layer InnerProduct3
I0808 08:30:58.231045 15710 net.cpp:91] Creating Layer InnerProduct3
I0808 08:30:58.231053 15710 net.cpp:425] InnerProduct3 <- Pooling4
I0808 08:30:58.231071 15710 net.cpp:399] InnerProduct3 -> InnerProduct3
I0808 08:30:58.239804 15710 net.cpp:141] Setting up InnerProduct3
I0808 08:30:58.239842 15710 net.cpp:148] Top shape: 64 100 (6400)
I0808 08:30:58.239851 15710 net.cpp:156] Memory required for data: 552245248
I0808 08:30:58.239866 15710 net.cpp:484] Sharing parameters 'ip1_w' owned by layer 'InnerProduct1', param index 0
I0808 08:30:58.239877 15710 net.cpp:484] Sharing parameters 'ip1_b' owned by layer 'InnerProduct1', param index 1
I0808 08:30:58.239886 15710 layer_factory.hpp:77] Creating layer ReLU2
I0808 08:30:58.239902 15710 net.cpp:91] Creating Layer ReLU2
I0808 08:30:58.239912 15710 net.cpp:425] ReLU2 <- InnerProduct3
I0808 08:30:58.239925 15710 net.cpp:386] ReLU2 -> InnerProduct3 (in-place)
I0808 08:30:58.239943 15710 net.cpp:141] Setting up ReLU2
I0808 08:30:58.239953 15710 net.cpp:148] Top shape: 64 100 (6400)
I0808 08:30:58.239960 15710 net.cpp:156] Memory required for data: 552270848
I0808 08:30:58.239969 15710 layer_factory.hpp:77] Creating layer InnerProduct4
I0808 08:30:58.239986 15710 net.cpp:91] Creating Layer InnerProduct4
I0808 08:30:58.239996 15710 net.cpp:425] InnerProduct4 <- InnerProduct3
I0808 08:30:58.240010 15710 net.cpp:399] InnerProduct4 -> InnerProduct4
I0808 08:30:58.240219 15710 net.cpp:141] Setting up InnerProduct4
I0808 08:30:58.240234 15710 net.cpp:148] Top shape: 64 50 (3200)
I0808 08:30:58.240242 15710 net.cpp:156] Memory required for data: 552283648
I0808 08:30:58.240252 15710 net.cpp:484] Sharing parameters 'ip2_w' owned by layer 'InnerProduct2', param index 0
I0808 08:30:58.240260 15710 net.cpp:484] Sharing parameters 'ip2_b' owned by layer 'InnerProduct2', param index 1
I0808 08:30:58.240268 15710 layer_factory.hpp:77] Creating layer Concat1
I0808 08:30:58.240294 15710 net.cpp:91] Creating Layer Concat1
I0808 08:30:58.240303 15710 net.cpp:425] Concat1 <- InnerProduct2
I0808 08:30:58.240314 15710 net.cpp:425] Concat1 <- InnerProduct4
I0808 08:30:58.240326 15710 net.cpp:399] Concat1 -> Concat1
I0808 08:30:58.240367 15710 net.cpp:141] Setting up Concat1
I0808 08:30:58.240381 15710 net.cpp:148] Top shape: 64 100 (6400)
I0808 08:30:58.240388 15710 net.cpp:156] Memory required for data: 552309248
I0808 08:30:58.240396 15710 layer_factory.hpp:77] Creating layer InnerProduct5
I0808 08:30:58.240409 15710 net.cpp:91] Creating Layer InnerProduct5
I0808 08:30:58.240418 15710 net.cpp:425] InnerProduct5 <- Concat1
I0808 08:30:58.240432 15710 net.cpp:399] InnerProduct5 -> InnerProduct5
I0808 08:30:58.240641 15710 net.cpp:141] Setting up InnerProduct5
I0808 08:30:58.240656 15710 net.cpp:148] Top shape: 64 64 (4096)
I0808 08:30:58.240664 15710 net.cpp:156] Memory required for data: 552325632
I0808 08:30:58.240684 15710 layer_factory.hpp:77] Creating layer ReLU3
I0808 08:30:58.240700 15710 net.cpp:91] Creating Layer ReLU3
I0808 08:30:58.240710 15710 net.cpp:425] ReLU3 <- InnerProduct5
I0808 08:30:58.240720 15710 net.cpp:386] ReLU3 -> InnerProduct5 (in-place)
I0808 08:30:58.240783 15710 net.cpp:141] Setting up ReLU3
I0808 08:30:58.240797 15710 net.cpp:148] Top shape: 64 64 (4096)
I0808 08:30:58.240803 15710 net.cpp:156] Memory required for data: 552342016
I0808 08:30:58.240811 15710 layer_factory.hpp:77] Creating layer InnerProduct6
I0808 08:30:58.240844 15710 net.cpp:91] Creating Layer InnerProduct6
I0808 08:30:58.240856 15710 net.cpp:425] InnerProduct6 <- InnerProduct5
I0808 08:30:58.240870 15710 net.cpp:399] InnerProduct6 -> InnerProduct6
I0808 08:30:58.241029 15710 net.cpp:141] Setting up InnerProduct6
I0808 08:30:58.241041 15710 net.cpp:148] Top shape: 64 32 (2048)
I0808 08:30:58.241050 15710 net.cpp:156] Memory required for data: 552350208
I0808 08:30:58.241061 15710 layer_factory.hpp:77] Creating layer ReLU4
I0808 08:30:58.241072 15710 net.cpp:91] Creating Layer ReLU4
I0808 08:30:58.241080 15710 net.cpp:425] ReLU4 <- InnerProduct6
I0808 08:30:58.241091 15710 net.cpp:386] ReLU4 -> InnerProduct6 (in-place)
I0808 08:30:58.241103 15710 net.cpp:141] Setting up ReLU4
I0808 08:30:58.241113 15710 net.cpp:148] Top shape: 64 32 (2048)
I0808 08:30:58.241120 15710 net.cpp:156] Memory required for data: 552358400
I0808 08:30:58.241128 15710 layer_factory.hpp:77] Creating layer dt0
I0808 08:30:58.241143 15710 net.cpp:91] Creating Layer dt0
I0808 08:30:58.241152 15710 net.cpp:425] dt0 <- InnerProduct6
I0808 08:30:58.241168 15710 net.cpp:399] dt0 -> dt0
I0808 08:30:58.241300 15710 net.cpp:141] Setting up dt0
I0808 08:30:58.241313 15710 net.cpp:148] Top shape: 64 1 (64)
I0808 08:30:58.241322 15710 net.cpp:156] Memory required for data: 552358656
I0808 08:30:58.241333 15710 layer_factory.hpp:77] Creating layer Convolution5
I0808 08:30:58.241353 15710 net.cpp:91] Creating Layer Convolution5
I0808 08:30:58.241364 15710 net.cpp:425] Convolution5 <- p1_p1_0_split_1
I0808 08:30:58.241399 15710 net.cpp:399] Convolution5 -> Convolution5
I0808 08:30:58.241780 15710 net.cpp:141] Setting up Convolution5
I0808 08:30:58.241794 15710 net.cpp:148] Top shape: 64 20 60 60 (4608000)
I0808 08:30:58.241802 15710 net.cpp:156] Memory required for data: 570790656
I0808 08:30:58.241811 15710 net.cpp:484] Sharing parameters 'conv1_w' owned by layer 'Convolution1', param index 0
I0808 08:30:58.241822 15710 net.cpp:484] Sharing parameters 'conv1_b' owned by layer 'Convolution1', param index 1
I0808 08:30:58.241844 15710 layer_factory.hpp:77] Creating layer Pooling5
I0808 08:30:58.241861 15710 net.cpp:91] Creating Layer Pooling5
I0808 08:30:58.241870 15710 net.cpp:425] Pooling5 <- Convolution5
I0808 08:30:58.241883 15710 net.cpp:399] Pooling5 -> Pooling5
I0808 08:30:58.241940 15710 net.cpp:141] Setting up Pooling5
I0808 08:30:58.241953 15710 net.cpp:148] Top shape: 64 20 30 30 (1152000)
I0808 08:30:58.241961 15710 net.cpp:156] Memory required for data: 575398656
I0808 08:30:58.241969 15710 layer_factory.hpp:77] Creating layer Convolution6
I0808 08:30:58.241987 15710 net.cpp:91] Creating Layer Convolution6
I0808 08:30:58.241997 15710 net.cpp:425] Convolution6 <- Pooling5
I0808 08:30:58.242012 15710 net.cpp:399] Convolution6 -> Convolution6
I0808 08:30:58.242557 15710 net.cpp:141] Setting up Convolution6
I0808 08:30:58.242573 15710 net.cpp:148] Top shape: 64 50 26 26 (2163200)
I0808 08:30:58.242580 15710 net.cpp:156] Memory required for data: 584051456
I0808 08:30:58.242589 15710 net.cpp:484] Sharing parameters 'conv2_w' owned by layer 'Convolution2', param index 0
I0808 08:30:58.242599 15710 net.cpp:484] Sharing parameters 'conv2_b' owned by layer 'Convolution2', param index 1
I0808 08:30:58.242607 15710 layer_factory.hpp:77] Creating layer Pooling6
I0808 08:30:58.242619 15710 net.cpp:91] Creating Layer Pooling6
I0808 08:30:58.242626 15710 net.cpp:425] Pooling6 <- Convolution6
I0808 08:30:58.242638 15710 net.cpp:399] Pooling6 -> Pooling6
I0808 08:30:58.242714 15710 net.cpp:141] Setting up Pooling6
I0808 08:30:58.242733 15710 net.cpp:148] Top shape: 64 50 13 13 (540800)
I0808 08:30:58.242740 15710 net.cpp:156] Memory required for data: 586214656
I0808 08:30:58.242748 15710 layer_factory.hpp:77] Creating layer InnerProduct7
I0808 08:30:58.242763 15710 net.cpp:91] Creating Layer InnerProduct7
I0808 08:30:58.242771 15710 net.cpp:425] InnerProduct7 <- Pooling6
I0808 08:30:58.242787 15710 net.cpp:399] InnerProduct7 -> InnerProduct7
I0808 08:30:58.254420 15710 net.cpp:141] Setting up InnerProduct7
I0808 08:30:58.254457 15710 net.cpp:148] Top shape: 64 100 (6400)
I0808 08:30:58.254465 15710 net.cpp:156] Memory required for data: 586240256
I0808 08:30:58.254478 15710 net.cpp:484] Sharing parameters 'ip1_w' owned by layer 'InnerProduct1', param index 0
I0808 08:30:58.254489 15710 net.cpp:484] Sharing parameters 'ip1_b' owned by layer 'InnerProduct1', param index 1
I0808 08:30:58.254499 15710 layer_factory.hpp:77] Creating layer ReLU5
I0808 08:30:58.254513 15710 net.cpp:91] Creating Layer ReLU5
I0808 08:30:58.254523 15710 net.cpp:425] ReLU5 <- InnerProduct7
I0808 08:30:58.254535 15710 net.cpp:386] ReLU5 -> InnerProduct7 (in-place)
I0808 08:30:58.254551 15710 net.cpp:141] Setting up ReLU5
I0808 08:30:58.254561 15710 net.cpp:148] Top shape: 64 100 (6400)
I0808 08:30:58.254568 15710 net.cpp:156] Memory required for data: 586265856
I0808 08:30:58.254577 15710 layer_factory.hpp:77] Creating layer InnerProduct8
I0808 08:30:58.254595 15710 net.cpp:91] Creating Layer InnerProduct8
I0808 08:30:58.254602 15710 net.cpp:425] InnerProduct8 <- InnerProduct7
I0808 08:30:58.254618 15710 net.cpp:399] InnerProduct8 -> InnerProduct8
I0808 08:30:58.254812 15710 net.cpp:141] Setting up InnerProduct8
I0808 08:30:58.254827 15710 net.cpp:148] Top shape: 64 50 (3200)
I0808 08:30:58.254834 15710 net.cpp:156] Memory required for data: 586278656
I0808 08:30:58.254843 15710 net.cpp:484] Sharing parameters 'ip2_w' owned by layer 'InnerProduct2', param index 0
I0808 08:30:58.254853 15710 net.cpp:484] Sharing parameters 'ip2_b' owned by layer 'InnerProduct2', param index 1
I0808 08:30:58.254861 15710 layer_factory.hpp:77] Creating layer Convolution7
I0808 08:30:58.254879 15710 net.cpp:91] Creating Layer Convolution7
I0808 08:30:58.254889 15710 net.cpp:425] Convolution7 <- c21
I0808 08:30:58.254906 15710 net.cpp:399] Convolution7 -> Convolution7
I0808 08:30:58.255252 15710 net.cpp:141] Setting up Convolution7
I0808 08:30:58.255266 15710 net.cpp:148] Top shape: 64 20 60 60 (4608000)
I0808 08:30:58.255300 15710 net.cpp:156] Memory required for data: 604710656
I0808 08:30:58.255331 15710 net.cpp:484] Sharing parameters 'conv1_w' owned by layer 'Convolution1', param index 0
I0808 08:30:58.255342 15710 net.cpp:484] Sharing parameters 'conv1_b' owned by layer 'Convolution1', param index 1
I0808 08:30:58.255352 15710 layer_factory.hpp:77] Creating layer Pooling7
I0808 08:30:58.255368 15710 net.cpp:91] Creating Layer Pooling7
I0808 08:30:58.255378 15710 net.cpp:425] Pooling7 <- Convolution7
I0808 08:30:58.255393 15710 net.cpp:399] Pooling7 -> Pooling7
I0808 08:30:58.255460 15710 net.cpp:141] Setting up Pooling7
I0808 08:30:58.255475 15710 net.cpp:148] Top shape: 64 20 30 30 (1152000)
I0808 08:30:58.255482 15710 net.cpp:156] Memory required for data: 609318656
I0808 08:30:58.255491 15710 layer_factory.hpp:77] Creating layer Convolution8
I0808 08:30:58.255513 15710 net.cpp:91] Creating Layer Convolution8
I0808 08:30:58.255522 15710 net.cpp:425] Convolution8 <- Pooling7
I0808 08:30:58.255537 15710 net.cpp:399] Convolution8 -> Convolution8
I0808 08:30:58.256145 15710 net.cpp:141] Setting up Convolution8
I0808 08:30:58.256161 15710 net.cpp:148] Top shape: 64 50 26 26 (2163200)
I0808 08:30:58.256170 15710 net.cpp:156] Memory required for data: 617971456
I0808 08:30:58.256192 15710 net.cpp:484] Sharing parameters 'conv2_w' owned by layer 'Convolution2', param index 0
I0808 08:30:58.256204 15710 net.cpp:484] Sharing parameters 'conv2_b' owned by layer 'Convolution2', param index 1
I0808 08:30:58.256213 15710 layer_factory.hpp:77] Creating layer Pooling8
I0808 08:30:58.256229 15710 net.cpp:91] Creating Layer Pooling8
I0808 08:30:58.256239 15710 net.cpp:425] Pooling8 <- Convolution8
I0808 08:30:58.256253 15710 net.cpp:399] Pooling8 -> Pooling8
I0808 08:30:58.256317 15710 net.cpp:141] Setting up Pooling8
I0808 08:30:58.256331 15710 net.cpp:148] Top shape: 64 50 13 13 (540800)
I0808 08:30:58.256340 15710 net.cpp:156] Memory required for data: 620134656
I0808 08:30:58.256350 15710 layer_factory.hpp:77] Creating layer InnerProduct9
I0808 08:30:58.256366 15710 net.cpp:91] Creating Layer InnerProduct9
I0808 08:30:58.256376 15710 net.cpp:425] InnerProduct9 <- Pooling8
I0808 08:30:58.256389 15710 net.cpp:399] InnerProduct9 -> InnerProduct9
I0808 08:30:58.265923 15710 net.cpp:141] Setting up InnerProduct9
I0808 08:30:58.265957 15710 net.cpp:148] Top shape: 64 100 (6400)
I0808 08:30:58.265966 15710 net.cpp:156] Memory required for data: 620160256
I0808 08:30:58.265980 15710 net.cpp:484] Sharing parameters 'ip1_w' owned by layer 'InnerProduct1', param index 0
I0808 08:30:58.265993 15710 net.cpp:484] Sharing parameters 'ip1_b' owned by layer 'InnerProduct1', param index 1
I0808 08:30:58.266003 15710 layer_factory.hpp:77] Creating layer ReLU6
I0808 08:30:58.266023 15710 net.cpp:91] Creating Layer ReLU6
I0808 08:30:58.266034 15710 net.cpp:425] ReLU6 <- InnerProduct9
I0808 08:30:58.266049 15710 net.cpp:386] ReLU6 -> InnerProduct9 (in-place)
I0808 08:30:58.266067 15710 net.cpp:141] Setting up ReLU6
I0808 08:30:58.266085 15710 net.cpp:148] Top shape: 64 100 (6400)
I0808 08:30:58.266094 15710 net.cpp:156] Memory required for data: 620185856
I0808 08:30:58.266103 15710 layer_factory.hpp:77] Creating layer InnerProduct10
I0808 08:30:58.266121 15710 net.cpp:91] Creating Layer InnerProduct10
I0808 08:30:58.266131 15710 net.cpp:425] InnerProduct10 <- InnerProduct9
I0808 08:30:58.266145 15710 net.cpp:399] InnerProduct10 -> InnerProduct10
I0808 08:30:58.266356 15710 net.cpp:141] Setting up InnerProduct10
I0808 08:30:58.266371 15710 net.cpp:148] Top shape: 64 50 (3200)
I0808 08:30:58.266379 15710 net.cpp:156] Memory required for data: 620198656
I0808 08:30:58.266388 15710 net.cpp:484] Sharing parameters 'ip2_w' owned by layer 'InnerProduct2', param index 0
I0808 08:30:58.266401 15710 net.cpp:484] Sharing parameters 'ip2_b' owned by layer 'InnerProduct2', param index 1
I0808 08:30:58.266409 15710 layer_factory.hpp:77] Creating layer Concat2
I0808 08:30:58.266422 15710 net.cpp:91] Creating Layer Concat2
I0808 08:30:58.266432 15710 net.cpp:425] Concat2 <- InnerProduct8
I0808 08:30:58.266444 15710 net.cpp:425] Concat2 <- InnerProduct10
I0808 08:30:58.266481 15710 net.cpp:399] Concat2 -> Concat2
I0808 08:30:58.266528 15710 net.cpp:141] Setting up Concat2
I0808 08:30:58.266546 15710 net.cpp:148] Top shape: 64 100 (6400)
I0808 08:30:58.266554 15710 net.cpp:156] Memory required for data: 620224256
I0808 08:30:58.266562 15710 layer_factory.hpp:77] Creating layer InnerProduct11
I0808 08:30:58.266577 15710 net.cpp:91] Creating Layer InnerProduct11
I0808 08:30:58.266585 15710 net.cpp:425] InnerProduct11 <- Concat2
I0808 08:30:58.266603 15710 net.cpp:399] InnerProduct11 -> InnerProduct11
I0808 08:30:58.266844 15710 net.cpp:141] Setting up InnerProduct11
I0808 08:30:58.266860 15710 net.cpp:148] Top shape: 64 64 (4096)
I0808 08:30:58.266868 15710 net.cpp:156] Memory required for data: 620240640
I0808 08:30:58.266878 15710 net.cpp:484] Sharing parameters 'fc1_w' owned by layer 'InnerProduct5', param index 0
I0808 08:30:58.266891 15710 net.cpp:484] Sharing parameters 'fc1_b' owned by layer 'InnerProduct5', param index 1
I0808 08:30:58.266899 15710 layer_factory.hpp:77] Creating layer ReLU7
I0808 08:30:58.266911 15710 net.cpp:91] Creating Layer ReLU7
I0808 08:30:58.266919 15710 net.cpp:425] ReLU7 <- InnerProduct11
I0808 08:30:58.266935 15710 net.cpp:386] ReLU7 -> InnerProduct11 (in-place)
I0808 08:30:58.266950 15710 net.cpp:141] Setting up ReLU7
I0808 08:30:58.266962 15710 net.cpp:148] Top shape: 64 64 (4096)
I0808 08:30:58.266970 15710 net.cpp:156] Memory required for data: 620257024
I0808 08:30:58.266979 15710 layer_factory.hpp:77] Creating layer InnerProduct12
I0808 08:30:58.266993 15710 net.cpp:91] Creating Layer InnerProduct12
I0808 08:30:58.267004 15710 net.cpp:425] InnerProduct12 <- InnerProduct11
I0808 08:30:58.267022 15710 net.cpp:399] InnerProduct12 -> InnerProduct12
I0808 08:30:58.267197 15710 net.cpp:141] Setting up InnerProduct12
I0808 08:30:58.267212 15710 net.cpp:148] Top shape: 64 32 (2048)
I0808 08:30:58.267220 15710 net.cpp:156] Memory required for data: 620265216
I0808 08:30:58.267230 15710 net.cpp:484] Sharing parameters 'fc2_w' owned by layer 'InnerProduct6', param index 0
I0808 08:30:58.267241 15710 net.cpp:484] Sharing parameters 'fc2_b' owned by layer 'InnerProduct6', param index 1
I0808 08:30:58.267251 15710 layer_factory.hpp:77] Creating layer ReLU8
I0808 08:30:58.267266 15710 net.cpp:91] Creating Layer ReLU8
I0808 08:30:58.267300 15710 net.cpp:425] ReLU8 <- InnerProduct12
I0808 08:30:58.267313 15710 net.cpp:386] ReLU8 -> InnerProduct12 (in-place)
I0808 08:30:58.267325 15710 net.cpp:141] Setting up ReLU8
I0808 08:30:58.267335 15710 net.cpp:148] Top shape: 64 32 (2048)
I0808 08:30:58.267343 15710 net.cpp:156] Memory required for data: 620273408
I0808 08:30:58.267351 15710 layer_factory.hpp:77] Creating layer dt1
I0808 08:30:58.267364 15710 net.cpp:91] Creating Layer dt1
I0808 08:30:58.267371 15710 net.cpp:425] dt1 <- InnerProduct12
I0808 08:30:58.267385 15710 net.cpp:399] dt1 -> dt1
I0808 08:30:58.267523 15710 net.cpp:141] Setting up dt1
I0808 08:30:58.267536 15710 net.cpp:148] Top shape: 64 1 (64)
I0808 08:30:58.267544 15710 net.cpp:156] Memory required for data: 620273664
I0808 08:30:58.267552 15710 net.cpp:484] Sharing parameters 'fc3_w' owned by layer 'dt0', param index 0
I0808 08:30:58.267562 15710 net.cpp:484] Sharing parameters 'fc3_b' owned by layer 'dt0', param index 1
I0808 08:30:58.267570 15710 layer_factory.hpp:77] Creating layer Convolution9
I0808 08:30:58.267590 15710 net.cpp:91] Creating Layer Convolution9
I0808 08:30:58.267599 15710 net.cpp:425] Convolution9 <- p1_p1_0_split_2
I0808 08:30:58.267613 15710 net.cpp:399] Convolution9 -> Convolution9
I0808 08:30:58.268023 15710 net.cpp:141] Setting up Convolution9
I0808 08:30:58.268038 15710 net.cpp:148] Top shape: 64 20 60 60 (4608000)
I0808 08:30:58.268046 15710 net.cpp:156] Memory required for data: 638705664
I0808 08:30:58.268055 15710 net.cpp:484] Sharing parameters 'conv1_w' owned by layer 'Convolution1', param index 0
I0808 08:30:58.268065 15710 net.cpp:484] Sharing parameters 'conv1_b' owned by layer 'Convolution1', param index 1
I0808 08:30:58.268074 15710 layer_factory.hpp:77] Creating layer Pooling9
I0808 08:30:58.268100 15710 net.cpp:91] Creating Layer Pooling9
I0808 08:30:58.268108 15710 net.cpp:425] Pooling9 <- Convolution9
I0808 08:30:58.268124 15710 net.cpp:399] Pooling9 -> Pooling9
I0808 08:30:58.268182 15710 net.cpp:141] Setting up Pooling9
I0808 08:30:58.268196 15710 net.cpp:148] Top shape: 64 20 30 30 (1152000)
I0808 08:30:58.268204 15710 net.cpp:156] Memory required for data: 643313664
I0808 08:30:58.268213 15710 layer_factory.hpp:77] Creating layer Convolution10
I0808 08:30:58.268230 15710 net.cpp:91] Creating Layer Convolution10
I0808 08:30:58.268239 15710 net.cpp:425] Convolution10 <- Pooling9
I0808 08:30:58.268252 15710 net.cpp:399] Convolution10 -> Convolution10
I0808 08:30:58.268815 15710 net.cpp:141] Setting up Convolution10
I0808 08:30:58.268878 15710 net.cpp:148] Top shape: 64 50 26 26 (2163200)
I0808 08:30:58.268905 15710 net.cpp:156] Memory required for data: 651966464
I0808 08:30:58.268918 15710 net.cpp:484] Sharing parameters 'conv2_w' owned by layer 'Convolution2', param index 0
I0808 08:30:58.268926 15710 net.cpp:484] Sharing parameters 'conv2_b' owned by layer 'Convolution2', param index 1
I0808 08:30:58.268935 15710 layer_factory.hpp:77] Creating layer Pooling10
I0808 08:30:58.268951 15710 net.cpp:91] Creating Layer Pooling10
I0808 08:30:58.268959 15710 net.cpp:425] Pooling10 <- Convolution10
I0808 08:30:58.268971 15710 net.cpp:399] Pooling10 -> Pooling10
I0808 08:30:58.269032 15710 net.cpp:141] Setting up Pooling10
I0808 08:30:58.269044 15710 net.cpp:148] Top shape: 64 50 13 13 (540800)
I0808 08:30:58.269052 15710 net.cpp:156] Memory required for data: 654129664
I0808 08:30:58.269059 15710 layer_factory.hpp:77] Creating layer InnerProduct13
I0808 08:30:58.269075 15710 net.cpp:91] Creating Layer InnerProduct13
I0808 08:30:58.269084 15710 net.cpp:425] InnerProduct13 <- Pooling10
I0808 08:30:58.269096 15710 net.cpp:399] InnerProduct13 -> InnerProduct13
I0808 08:30:58.278071 15710 net.cpp:141] Setting up InnerProduct13
I0808 08:30:58.278108 15710 net.cpp:148] Top shape: 64 100 (6400)
I0808 08:30:58.278117 15710 net.cpp:156] Memory required for data: 654155264
I0808 08:30:58.278131 15710 net.cpp:484] Sharing parameters 'ip1_w' owned by layer 'InnerProduct1', param index 0
I0808 08:30:58.278143 15710 net.cpp:484] Sharing parameters 'ip1_b' owned by layer 'InnerProduct1', param index 1
I0808 08:30:58.278152 15710 layer_factory.hpp:77] Creating layer ReLU9
I0808 08:30:58.278168 15710 net.cpp:91] Creating Layer ReLU9
I0808 08:30:58.278179 15710 net.cpp:425] ReLU9 <- InnerProduct13
I0808 08:30:58.278195 15710 net.cpp:386] ReLU9 -> InnerProduct13 (in-place)
I0808 08:30:58.278213 15710 net.cpp:141] Setting up ReLU9
I0808 08:30:58.278249 15710 net.cpp:148] Top shape: 64 100 (6400)
I0808 08:30:58.278286 15710 net.cpp:156] Memory required for data: 654180864
I0808 08:30:58.278322 15710 layer_factory.hpp:77] Creating layer InnerProduct14
I0808 08:30:58.278376 15710 net.cpp:91] Creating Layer InnerProduct14
I0808 08:30:58.278403 15710 net.cpp:425] InnerProduct14 <- InnerProduct13
I0808 08:30:58.278424 15710 net.cpp:399] InnerProduct14 -> InnerProduct14
I0808 08:30:58.278609 15710 net.cpp:141] Setting up InnerProduct14
I0808 08:30:58.278622 15710 net.cpp:148] Top shape: 64 50 (3200)
I0808 08:30:58.278630 15710 net.cpp:156] Memory required for data: 654193664
I0808 08:30:58.278640 15710 net.cpp:484] Sharing parameters 'ip2_w' owned by layer 'InnerProduct2', param index 0
I0808 08:30:58.278650 15710 net.cpp:484] Sharing parameters 'ip2_b' owned by layer 'InnerProduct2', param index 1
I0808 08:30:58.278657 15710 layer_factory.hpp:77] Creating layer Convolution11
I0808 08:30:58.278678 15710 net.cpp:91] Creating Layer Convolution11
I0808 08:30:58.278692 15710 net.cpp:425] Convolution11 <- c22
I0808 08:30:58.278708 15710 net.cpp:399] Convolution11 -> Convolution11
I0808 08:30:58.279053 15710 net.cpp:141] Setting up Convolution11
I0808 08:30:58.279067 15710 net.cpp:148] Top shape: 64 20 60 60 (4608000)
I0808 08:30:58.279075 15710 net.cpp:156] Memory required for data: 672625664
I0808 08:30:58.279104 15710 net.cpp:484] Sharing parameters 'conv1_w' owned by layer 'Convolution1', param index 0
I0808 08:30:58.279114 15710 net.cpp:484] Sharing parameters 'conv1_b' owned by layer 'Convolution1', param index 1
I0808 08:30:58.279122 15710 layer_factory.hpp:77] Creating layer Pooling11
I0808 08:30:58.279139 15710 net.cpp:91] Creating Layer Pooling11
I0808 08:30:58.279147 15710 net.cpp:425] Pooling11 <- Convolution11
I0808 08:30:58.279160 15710 net.cpp:399] Pooling11 -> Pooling11
I0808 08:30:58.279219 15710 net.cpp:141] Setting up Pooling11
I0808 08:30:58.279232 15710 net.cpp:148] Top shape: 64 20 30 30 (1152000)
I0808 08:30:58.279239 15710 net.cpp:156] Memory required for data: 677233664
I0808 08:30:58.279247 15710 layer_factory.hpp:77] Creating layer Convolution12
I0808 08:30:58.279265 15710 net.cpp:91] Creating Layer Convolution12
I0808 08:30:58.279290 15710 net.cpp:425] Convolution12 <- Pooling11
I0808 08:30:58.279309 15710 net.cpp:399] Convolution12 -> Convolution12
I0808 08:30:58.279881 15710 net.cpp:141] Setting up Convolution12
I0808 08:30:58.279896 15710 net.cpp:148] Top shape: 64 50 26 26 (2163200)
I0808 08:30:58.279904 15710 net.cpp:156] Memory required for data: 685886464
I0808 08:30:58.279913 15710 net.cpp:484] Sharing parameters 'conv2_w' owned by layer 'Convolution2', param index 0
I0808 08:30:58.279923 15710 net.cpp:484] Sharing parameters 'conv2_b' owned by layer 'Convolution2', param index 1
I0808 08:30:58.279932 15710 layer_factory.hpp:77] Creating layer Pooling12
I0808 08:30:58.279943 15710 net.cpp:91] Creating Layer Pooling12
I0808 08:30:58.279952 15710 net.cpp:425] Pooling12 <- Convolution12
I0808 08:30:58.279966 15710 net.cpp:399] Pooling12 -> Pooling12
I0808 08:30:58.280048 15710 net.cpp:141] Setting up Pooling12
I0808 08:30:58.280066 15710 net.cpp:148] Top shape: 64 50 13 13 (540800)
I0808 08:30:58.280074 15710 net.cpp:156] Memory required for data: 688049664
I0808 08:30:58.280082 15710 layer_factory.hpp:77] Creating layer InnerProduct15
I0808 08:30:58.280098 15710 net.cpp:91] Creating Layer InnerProduct15
I0808 08:30:58.280107 15710 net.cpp:425] InnerProduct15 <- Pooling12
I0808 08:30:58.280119 15710 net.cpp:399] InnerProduct15 -> InnerProduct15
I0808 08:30:58.291456 15710 net.cpp:141] Setting up InnerProduct15
I0808 08:30:58.291491 15710 net.cpp:148] Top shape: 64 100 (6400)
I0808 08:30:58.291501 15710 net.cpp:156] Memory required for data: 688075264
I0808 08:30:58.291513 15710 net.cpp:484] Sharing parameters 'ip1_w' owned by layer 'InnerProduct1', param index 0
I0808 08:30:58.291525 15710 net.cpp:484] Sharing parameters 'ip1_b' owned by layer 'InnerProduct1', param index 1
I0808 08:30:58.291535 15710 layer_factory.hpp:77] Creating layer ReLU10
I0808 08:30:58.291550 15710 net.cpp:91] Creating Layer ReLU10
I0808 08:30:58.291563 15710 net.cpp:425] ReLU10 <- InnerProduct15
I0808 08:30:58.291576 15710 net.cpp:386] ReLU10 -> InnerProduct15 (in-place)
I0808 08:30:58.291594 15710 net.cpp:141] Setting up ReLU10
I0808 08:30:58.291606 15710 net.cpp:148] Top shape: 64 100 (6400)
I0808 08:30:58.291615 15710 net.cpp:156] Memory required for data: 688100864
I0808 08:30:58.291623 15710 layer_factory.hpp:77] Creating layer InnerProduct16
I0808 08:30:58.291637 15710 net.cpp:91] Creating Layer InnerProduct16
I0808 08:30:58.291647 15710 net.cpp:425] InnerProduct16 <- InnerProduct15
I0808 08:30:58.291666 15710 net.cpp:399] InnerProduct16 -> InnerProduct16
I0808 08:30:58.291908 15710 net.cpp:141] Setting up InnerProduct16
I0808 08:30:58.291923 15710 net.cpp:148] Top shape: 64 50 (3200)
I0808 08:30:58.291932 15710 net.cpp:156] Memory required for data: 688113664
I0808 08:30:58.291942 15710 net.cpp:484] Sharing parameters 'ip2_w' owned by layer 'InnerProduct2', param index 0
I0808 08:30:58.291952 15710 net.cpp:484] Sharing parameters 'ip2_b' owned by layer 'InnerProduct2', param index 1
I0808 08:30:58.291962 15710 layer_factory.hpp:77] Creating layer Concat3
I0808 08:30:58.291980 15710 net.cpp:91] Creating Layer Concat3
I0808 08:30:58.291988 15710 net.cpp:425] Concat3 <- InnerProduct14
I0808 08:30:58.292026 15710 net.cpp:425] Concat3 <- InnerProduct16
I0808 08:30:58.292040 15710 net.cpp:399] Concat3 -> Concat3
I0808 08:30:58.292083 15710 net.cpp:141] Setting up Concat3
I0808 08:30:58.292096 15710 net.cpp:148] Top shape: 64 100 (6400)
I0808 08:30:58.292105 15710 net.cpp:156] Memory required for data: 688139264
I0808 08:30:58.292114 15710 layer_factory.hpp:77] Creating layer InnerProduct17
I0808 08:30:58.292130 15710 net.cpp:91] Creating Layer InnerProduct17
I0808 08:30:58.292140 15710 net.cpp:425] InnerProduct17 <- Concat3
I0808 08:30:58.292155 15710 net.cpp:399] InnerProduct17 -> InnerProduct17
I0808 08:30:58.292363 15710 net.cpp:141] Setting up InnerProduct17
I0808 08:30:58.292378 15710 net.cpp:148] Top shape: 64 64 (4096)
I0808 08:30:58.292387 15710 net.cpp:156] Memory required for data: 688155648
I0808 08:30:58.292397 15710 net.cpp:484] Sharing parameters 'fc1_w' owned by layer 'InnerProduct5', param index 0
I0808 08:30:58.292407 15710 net.cpp:484] Sharing parameters 'fc1_b' owned by layer 'InnerProduct5', param index 1
I0808 08:30:58.292418 15710 layer_factory.hpp:77] Creating layer ReLU11
I0808 08:30:58.292428 15710 net.cpp:91] Creating Layer ReLU11
I0808 08:30:58.292438 15710 net.cpp:425] ReLU11 <- InnerProduct17
I0808 08:30:58.292450 15710 net.cpp:386] ReLU11 -> InnerProduct17 (in-place)
I0808 08:30:58.292464 15710 net.cpp:141] Setting up ReLU11
I0808 08:30:58.292475 15710 net.cpp:148] Top shape: 64 64 (4096)
I0808 08:30:58.292484 15710 net.cpp:156] Memory required for data: 688172032
I0808 08:30:58.292492 15710 layer_factory.hpp:77] Creating layer InnerProduct18
I0808 08:30:58.292505 15710 net.cpp:91] Creating Layer InnerProduct18
I0808 08:30:58.292513 15710 net.cpp:425] InnerProduct18 <- InnerProduct17
I0808 08:30:58.292531 15710 net.cpp:399] InnerProduct18 -> InnerProduct18
I0808 08:30:58.292707 15710 net.cpp:141] Setting up InnerProduct18
I0808 08:30:58.292721 15710 net.cpp:148] Top shape: 64 32 (2048)
I0808 08:30:58.292731 15710 net.cpp:156] Memory required for data: 688180224
I0808 08:30:58.292739 15710 net.cpp:484] Sharing parameters 'fc2_w' owned by layer 'InnerProduct6', param index 0
I0808 08:30:58.292749 15710 net.cpp:484] Sharing parameters 'fc2_b' owned by layer 'InnerProduct6', param index 1
I0808 08:30:58.292758 15710 layer_factory.hpp:77] Creating layer ReLU12
I0808 08:30:58.292769 15710 net.cpp:91] Creating Layer ReLU12
I0808 08:30:58.292796 15710 net.cpp:425] ReLU12 <- InnerProduct18
I0808 08:30:58.292809 15710 net.cpp:386] ReLU12 -> InnerProduct18 (in-place)
I0808 08:30:58.292824 15710 net.cpp:141] Setting up ReLU12
I0808 08:30:58.292835 15710 net.cpp:148] Top shape: 64 32 (2048)
I0808 08:30:58.292843 15710 net.cpp:156] Memory required for data: 688188416
I0808 08:30:58.292852 15710 layer_factory.hpp:77] Creating layer dt2
I0808 08:30:58.292866 15710 net.cpp:91] Creating Layer dt2
I0808 08:30:58.292876 15710 net.cpp:425] dt2 <- InnerProduct18
I0808 08:30:58.292894 15710 net.cpp:399] dt2 -> dt2
I0808 08:30:58.293052 15710 net.cpp:141] Setting up dt2
I0808 08:30:58.293068 15710 net.cpp:148] Top shape: 64 1 (64)
I0808 08:30:58.293076 15710 net.cpp:156] Memory required for data: 688188672
I0808 08:30:58.293107 15710 net.cpp:484] Sharing parameters 'fc3_w' owned by layer 'dt0', param index 0
I0808 08:30:58.293123 15710 net.cpp:484] Sharing parameters 'fc3_b' owned by layer 'dt0', param index 1
I0808 08:30:58.293131 15710 layer_factory.hpp:77] Creating layer Convolution13
I0808 08:30:58.293154 15710 net.cpp:91] Creating Layer Convolution13
I0808 08:30:58.293165 15710 net.cpp:425] Convolution13 <- p1_p1_0_split_3
I0808 08:30:58.293184 15710 net.cpp:399] Convolution13 -> Convolution13
I0808 08:30:58.293552 15710 net.cpp:141] Setting up Convolution13
I0808 08:30:58.293568 15710 net.cpp:148] Top shape: 64 20 60 60 (4608000)
I0808 08:30:58.293577 15710 net.cpp:156] Memory required for data: 706620672
I0808 08:30:58.293587 15710 net.cpp:484] Sharing parameters 'conv1_w' owned by layer 'Convolution1', param index 0
I0808 08:30:58.293597 15710 net.cpp:484] Sharing parameters 'conv1_b' owned by layer 'Convolution1', param index 1
I0808 08:30:58.293620 15710 layer_factory.hpp:77] Creating layer Pooling13
I0808 08:30:58.293639 15710 net.cpp:91] Creating Layer Pooling13
I0808 08:30:58.293648 15710 net.cpp:425] Pooling13 <- Convolution13
I0808 08:30:58.293663 15710 net.cpp:399] Pooling13 -> Pooling13
I0808 08:30:58.293730 15710 net.cpp:141] Setting up Pooling13
I0808 08:30:58.293745 15710 net.cpp:148] Top shape: 64 20 30 30 (1152000)
I0808 08:30:58.293753 15710 net.cpp:156] Memory required for data: 711228672
I0808 08:30:58.293762 15710 layer_factory.hpp:77] Creating layer Convolution14
I0808 08:30:58.293781 15710 net.cpp:91] Creating Layer Convolution14
I0808 08:30:58.293792 15710 net.cpp:425] Convolution14 <- Pooling13
I0808 08:30:58.293808 15710 net.cpp:399] Convolution14 -> Convolution14
I0808 08:30:58.294474 15710 net.cpp:141] Setting up Convolution14
I0808 08:30:58.294492 15710 net.cpp:148] Top shape: 64 50 26 26 (2163200)
I0808 08:30:58.294502 15710 net.cpp:156] Memory required for data: 719881472
I0808 08:30:58.294512 15710 net.cpp:484] Sharing parameters 'conv2_w' owned by layer 'Convolution2', param index 0
I0808 08:30:58.294523 15710 net.cpp:484] Sharing parameters 'conv2_b' owned by layer 'Convolution2', param index 1
I0808 08:30:58.294531 15710 layer_factory.hpp:77] Creating layer Pooling14
I0808 08:30:58.294544 15710 net.cpp:91] Creating Layer Pooling14
I0808 08:30:58.294554 15710 net.cpp:425] Pooling14 <- Convolution14
I0808 08:30:58.294571 15710 net.cpp:399] Pooling14 -> Pooling14
I0808 08:30:58.294632 15710 net.cpp:141] Setting up Pooling14
I0808 08:30:58.294647 15710 net.cpp:148] Top shape: 64 50 13 13 (540800)
I0808 08:30:58.294656 15710 net.cpp:156] Memory required for data: 722044672
I0808 08:30:58.294664 15710 layer_factory.hpp:77] Creating layer InnerProduct19
I0808 08:30:58.294682 15710 net.cpp:91] Creating Layer InnerProduct19
I0808 08:30:58.294692 15710 net.cpp:425] InnerProduct19 <- Pooling14
I0808 08:30:58.294709 15710 net.cpp:399] InnerProduct19 -> InnerProduct19
I0808 08:30:58.304623 15710 net.cpp:141] Setting up InnerProduct19
I0808 08:30:58.304713 15710 net.cpp:148] Top shape: 64 100 (6400)
I0808 08:30:58.304745 15710 net.cpp:156] Memory required for data: 722070272
I0808 08:30:58.304778 15710 net.cpp:484] Sharing parameters 'ip1_w' owned by layer 'InnerProduct1', param index 0
I0808 08:30:58.304811 15710 net.cpp:484] Sharing parameters 'ip1_b' owned by layer 'InnerProduct1', param index 1
I0808 08:30:58.304842 15710 layer_factory.hpp:77] Creating layer ReLU13
I0808 08:30:58.304883 15710 net.cpp:91] Creating Layer ReLU13
I0808 08:30:58.304980 15710 net.cpp:425] ReLU13 <- InnerProduct19
I0808 08:30:58.305034 15710 net.cpp:386] ReLU13 -> InnerProduct19 (in-place)
I0808 08:30:58.305073 15710 net.cpp:141] Setting up ReLU13
I0808 08:30:58.305086 15710 net.cpp:148] Top shape: 64 100 (6400)
I0808 08:30:58.305094 15710 net.cpp:156] Memory required for data: 722095872
I0808 08:30:58.305102 15710 layer_factory.hpp:77] Creating layer InnerProduct20
I0808 08:30:58.305121 15710 net.cpp:91] Creating Layer InnerProduct20
I0808 08:30:58.305130 15710 net.cpp:425] InnerProduct20 <- InnerProduct19
I0808 08:30:58.305143 15710 net.cpp:399] InnerProduct20 -> InnerProduct20
I0808 08:30:58.305341 15710 net.cpp:141] Setting up InnerProduct20
I0808 08:30:58.305354 15710 net.cpp:148] Top shape: 64 50 (3200)
I0808 08:30:58.305362 15710 net.cpp:156] Memory required for data: 722108672
I0808 08:30:58.305371 15710 net.cpp:484] Sharing parameters 'ip2_w' owned by layer 'InnerProduct2', param index 0
I0808 08:30:58.305382 15710 net.cpp:484] Sharing parameters 'ip2_b' owned by layer 'InnerProduct2', param index 1
I0808 08:30:58.305390 15710 layer_factory.hpp:77] Creating layer Convolution15
I0808 08:30:58.305411 15710 net.cpp:91] Creating Layer Convolution15
I0808 08:30:58.305423 15710 net.cpp:425] Convolution15 <- c23
I0808 08:30:58.305441 15710 net.cpp:399] Convolution15 -> Convolution15
I0808 08:30:58.305845 15710 net.cpp:141] Setting up Convolution15
I0808 08:30:58.305860 15710 net.cpp:148] Top shape: 64 20 60 60 (4608000)
I0808 08:30:58.305888 15710 net.cpp:156] Memory required for data: 740540672
I0808 08:30:58.305898 15710 net.cpp:484] Sharing parameters 'conv1_w' owned by layer 'Convolution1', param index 0
I0808 08:30:58.305908 15710 net.cpp:484] Sharing parameters 'conv1_b' owned by layer 'Convolution1', param index 1
I0808 08:30:58.305917 15710 layer_factory.hpp:77] Creating layer Pooling15
I0808 08:30:58.305929 15710 net.cpp:91] Creating Layer Pooling15
I0808 08:30:58.305938 15710 net.cpp:425] Pooling15 <- Convolution15
I0808 08:30:58.305953 15710 net.cpp:399] Pooling15 -> Pooling15
I0808 08:30:58.306011 15710 net.cpp:141] Setting up Pooling15
I0808 08:30:58.306051 15710 net.cpp:148] Top shape: 64 20 30 30 (1152000)
I0808 08:30:58.306079 15710 net.cpp:156] Memory required for data: 745148672
I0808 08:30:58.306119 15710 layer_factory.hpp:77] Creating layer Convolution16
I0808 08:30:58.306169 15710 net.cpp:91] Creating Layer Convolution16
I0808 08:30:58.306207 15710 net.cpp:425] Convolution16 <- Pooling15
I0808 08:30:58.306255 15710 net.cpp:399] Convolution16 -> Convolution16
I0808 08:30:58.306843 15710 net.cpp:141] Setting up Convolution16
I0808 08:30:58.306857 15710 net.cpp:148] Top shape: 64 50 26 26 (2163200)
I0808 08:30:58.306865 15710 net.cpp:156] Memory required for data: 753801472
I0808 08:30:58.306874 15710 net.cpp:484] Sharing parameters 'conv2_w' owned by layer 'Convolution2', param index 0
I0808 08:30:58.306885 15710 net.cpp:484] Sharing parameters 'conv2_b' owned by layer 'Convolution2', param index 1
I0808 08:30:58.306895 15710 layer_factory.hpp:77] Creating layer Pooling16
I0808 08:30:58.306908 15710 net.cpp:91] Creating Layer Pooling16
I0808 08:30:58.306917 15710 net.cpp:425] Pooling16 <- Convolution16
I0808 08:30:58.306929 15710 net.cpp:399] Pooling16 -> Pooling16
I0808 08:30:58.306988 15710 net.cpp:141] Setting up Pooling16
I0808 08:30:58.307001 15710 net.cpp:148] Top shape: 64 50 13 13 (540800)
I0808 08:30:58.307009 15710 net.cpp:156] Memory required for data: 755964672
I0808 08:30:58.307016 15710 layer_factory.hpp:77] Creating layer InnerProduct21
I0808 08:30:58.307031 15710 net.cpp:91] Creating Layer InnerProduct21
I0808 08:30:58.307040 15710 net.cpp:425] InnerProduct21 <- Pooling16
I0808 08:30:58.307052 15710 net.cpp:399] InnerProduct21 -> InnerProduct21
I0808 08:30:58.315575 15710 net.cpp:141] Setting up InnerProduct21
I0808 08:30:58.315606 15710 net.cpp:148] Top shape: 64 100 (6400)
I0808 08:30:58.315615 15710 net.cpp:156] Memory required for data: 755990272
I0808 08:30:58.315629 15710 net.cpp:484] Sharing parameters 'ip1_w' owned by layer 'InnerProduct1', param index 0
I0808 08:30:58.315639 15710 net.cpp:484] Sharing parameters 'ip1_b' owned by layer 'InnerProduct1', param index 1
I0808 08:30:58.315649 15710 layer_factory.hpp:77] Creating layer ReLU14
I0808 08:30:58.315662 15710 net.cpp:91] Creating Layer ReLU14
I0808 08:30:58.315672 15710 net.cpp:425] ReLU14 <- InnerProduct21
I0808 08:30:58.315685 15710 net.cpp:386] ReLU14 -> InnerProduct21 (in-place)
I0808 08:30:58.315701 15710 net.cpp:141] Setting up ReLU14
I0808 08:30:58.315711 15710 net.cpp:148] Top shape: 64 100 (6400)
I0808 08:30:58.315719 15710 net.cpp:156] Memory required for data: 756015872
I0808 08:30:58.315727 15710 layer_factory.hpp:77] Creating layer InnerProduct22
I0808 08:30:58.315744 15710 net.cpp:91] Creating Layer InnerProduct22
I0808 08:30:58.315752 15710 net.cpp:425] InnerProduct22 <- InnerProduct21
I0808 08:30:58.315765 15710 net.cpp:399] InnerProduct22 -> InnerProduct22
I0808 08:30:58.315956 15710 net.cpp:141] Setting up InnerProduct22
I0808 08:30:58.315969 15710 net.cpp:148] Top shape: 64 50 (3200)
I0808 08:30:58.315978 15710 net.cpp:156] Memory required for data: 756028672
I0808 08:30:58.315986 15710 net.cpp:484] Sharing parameters 'ip2_w' owned by layer 'InnerProduct2', param index 0
I0808 08:30:58.315996 15710 net.cpp:484] Sharing parameters 'ip2_b' owned by layer 'InnerProduct2', param index 1
I0808 08:30:58.316005 15710 layer_factory.hpp:77] Creating layer Concat4
I0808 08:30:58.316020 15710 net.cpp:91] Creating Layer Concat4
I0808 08:30:58.316052 15710 net.cpp:425] Concat4 <- InnerProduct20
I0808 08:30:58.316063 15710 net.cpp:425] Concat4 <- InnerProduct22
I0808 08:30:58.316076 15710 net.cpp:399] Concat4 -> Concat4
I0808 08:30:58.316114 15710 net.cpp:141] Setting up Concat4
I0808 08:30:58.316126 15710 net.cpp:148] Top shape: 64 100 (6400)
I0808 08:30:58.316134 15710 net.cpp:156] Memory required for data: 756054272
I0808 08:30:58.316141 15710 layer_factory.hpp:77] Creating layer InnerProduct23
I0808 08:30:58.316154 15710 net.cpp:91] Creating Layer InnerProduct23
I0808 08:30:58.316162 15710 net.cpp:425] InnerProduct23 <- Concat4
I0808 08:30:58.316179 15710 net.cpp:399] InnerProduct23 -> InnerProduct23
I0808 08:30:58.316406 15710 net.cpp:141] Setting up InnerProduct23
I0808 08:30:58.316421 15710 net.cpp:148] Top shape: 64 64 (4096)
I0808 08:30:58.316429 15710 net.cpp:156] Memory required for data: 756070656
I0808 08:30:58.316438 15710 net.cpp:484] Sharing parameters 'fc1_w' owned by layer 'InnerProduct5', param index 0
I0808 08:30:58.316448 15710 net.cpp:484] Sharing parameters 'fc1_b' owned by layer 'InnerProduct5', param index 1
I0808 08:30:58.316457 15710 layer_factory.hpp:77] Creating layer ReLU15
I0808 08:30:58.316470 15710 net.cpp:91] Creating Layer ReLU15
I0808 08:30:58.316478 15710 net.cpp:425] ReLU15 <- InnerProduct23
I0808 08:30:58.316489 15710 net.cpp:386] ReLU15 -> InnerProduct23 (in-place)
I0808 08:30:58.316503 15710 net.cpp:141] Setting up ReLU15
I0808 08:30:58.316514 15710 net.cpp:148] Top shape: 64 64 (4096)
I0808 08:30:58.316520 15710 net.cpp:156] Memory required for data: 756087040
I0808 08:30:58.316529 15710 layer_factory.hpp:77] Creating layer InnerProduct24
I0808 08:30:58.316540 15710 net.cpp:91] Creating Layer InnerProduct24
I0808 08:30:58.316548 15710 net.cpp:425] InnerProduct24 <- InnerProduct23
I0808 08:30:58.316565 15710 net.cpp:399] InnerProduct24 -> InnerProduct24
I0808 08:30:58.316725 15710 net.cpp:141] Setting up InnerProduct24
I0808 08:30:58.316737 15710 net.cpp:148] Top shape: 64 32 (2048)
I0808 08:30:58.316745 15710 net.cpp:156] Memory required for data: 756095232
I0808 08:30:58.316753 15710 net.cpp:484] Sharing parameters 'fc2_w' owned by layer 'InnerProduct6', param index 0
I0808 08:30:58.316763 15710 net.cpp:484] Sharing parameters 'fc2_b' owned by layer 'InnerProduct6', param index 1
I0808 08:30:58.316772 15710 layer_factory.hpp:77] Creating layer ReLU16
I0808 08:30:58.316782 15710 net.cpp:91] Creating Layer ReLU16
I0808 08:30:58.316790 15710 net.cpp:425] ReLU16 <- InnerProduct24
I0808 08:30:58.316800 15710 net.cpp:386] ReLU16 -> InnerProduct24 (in-place)
I0808 08:30:58.316813 15710 net.cpp:141] Setting up ReLU16
I0808 08:30:58.316823 15710 net.cpp:148] Top shape: 64 32 (2048)
I0808 08:30:58.316831 15710 net.cpp:156] Memory required for data: 756103424
I0808 08:30:58.316839 15710 layer_factory.hpp:77] Creating layer dt3
I0808 08:30:58.316851 15710 net.cpp:91] Creating Layer dt3
I0808 08:30:58.316859 15710 net.cpp:425] dt3 <- InnerProduct24
I0808 08:30:58.316875 15710 net.cpp:399] dt3 -> dt3
I0808 08:30:58.317014 15710 net.cpp:141] Setting up dt3
I0808 08:30:58.317028 15710 net.cpp:148] Top shape: 64 1 (64)
I0808 08:30:58.317034 15710 net.cpp:156] Memory required for data: 756103680
I0808 08:30:58.317044 15710 net.cpp:484] Sharing parameters 'fc3_w' owned by layer 'dt0', param index 0
I0808 08:30:58.317054 15710 net.cpp:484] Sharing parameters 'fc3_b' owned by layer 'dt0', param index 1
I0808 08:30:58.317061 15710 layer_factory.hpp:77] Creating layer Convolution17
I0808 08:30:58.317081 15710 net.cpp:91] Creating Layer Convolution17
I0808 08:30:58.317090 15710 net.cpp:425] Convolution17 <- p1_p1_0_split_4
I0808 08:30:58.317106 15710 net.cpp:399] Convolution17 -> Convolution17
I0808 08:30:58.317448 15710 net.cpp:141] Setting up Convolution17
I0808 08:30:58.317462 15710 net.cpp:148] Top shape: 64 20 60 60 (4608000)
I0808 08:30:58.317469 15710 net.cpp:156] Memory required for data: 774535680
I0808 08:30:58.317478 15710 net.cpp:484] Sharing parameters 'conv1_w' owned by layer 'Convolution1', param index 0
I0808 08:30:58.317499 15710 net.cpp:484] Sharing parameters 'conv1_b' owned by layer 'Convolution1', param index 1
I0808 08:30:58.317508 15710 layer_factory.hpp:77] Creating layer Pooling17
I0808 08:30:58.317561 15710 net.cpp:91] Creating Layer Pooling17
I0808 08:30:58.317572 15710 net.cpp:425] Pooling17 <- Convolution17
I0808 08:30:58.317586 15710 net.cpp:399] Pooling17 -> Pooling17
I0808 08:30:58.317590 15719 blocking_queue.cpp:50] Waiting for data
I0808 08:30:58.317646 15710 net.cpp:141] Setting up Pooling17
I0808 08:30:58.317661 15710 net.cpp:148] Top shape: 64 20 30 30 (1152000)
I0808 08:30:58.317668 15710 net.cpp:156] Memory required for data: 779143680
I0808 08:30:58.317677 15710 layer_factory.hpp:77] Creating layer Convolution18
I0808 08:30:58.317694 15710 net.cpp:91] Creating Layer Convolution18
I0808 08:30:58.317703 15710 net.cpp:425] Convolution18 <- Pooling17
I0808 08:30:58.317719 15710 net.cpp:399] Convolution18 -> Convolution18
I0808 08:30:58.318260 15710 net.cpp:141] Setting up Convolution18
I0808 08:30:58.318275 15710 net.cpp:148] Top shape: 64 50 26 26 (2163200)
I0808 08:30:58.318282 15710 net.cpp:156] Memory required for data: 787796480
I0808 08:30:58.318291 15710 net.cpp:484] Sharing parameters 'conv2_w' owned by layer 'Convolution2', param index 0
I0808 08:30:58.318301 15710 net.cpp:484] Sharing parameters 'conv2_b' owned by layer 'Convolution2', param index 1
I0808 08:30:58.318310 15710 layer_factory.hpp:77] Creating layer Pooling18
I0808 08:30:58.318325 15710 net.cpp:91] Creating Layer Pooling18
I0808 08:30:58.318332 15710 net.cpp:425] Pooling18 <- Convolution18
I0808 08:30:58.318344 15710 net.cpp:399] Pooling18 -> Pooling18
I0808 08:30:58.318402 15710 net.cpp:141] Setting up Pooling18
I0808 08:30:58.318414 15710 net.cpp:148] Top shape: 64 50 13 13 (540800)
I0808 08:30:58.318423 15710 net.cpp:156] Memory required for data: 789959680
I0808 08:30:58.318429 15710 layer_factory.hpp:77] Creating layer InnerProduct25
I0808 08:30:58.318442 15710 net.cpp:91] Creating Layer InnerProduct25
I0808 08:30:58.318450 15710 net.cpp:425] InnerProduct25 <- Pooling18
I0808 08:30:58.318467 15710 net.cpp:399] InnerProduct25 -> InnerProduct25
I0808 08:30:58.327033 15710 net.cpp:141] Setting up InnerProduct25
I0808 08:30:58.327059 15710 net.cpp:148] Top shape: 64 100 (6400)
I0808 08:30:58.327066 15710 net.cpp:156] Memory required for data: 789985280
I0808 08:30:58.327077 15710 net.cpp:484] Sharing parameters 'ip1_w' owned by layer 'InnerProduct1', param index 0
I0808 08:30:58.327088 15710 net.cpp:484] Sharing parameters 'ip1_b' owned by layer 'InnerProduct1', param index 1
I0808 08:30:58.327097 15710 layer_factory.hpp:77] Creating layer ReLU17
I0808 08:30:58.327113 15710 net.cpp:91] Creating Layer ReLU17
I0808 08:30:58.327124 15710 net.cpp:425] ReLU17 <- InnerProduct25
I0808 08:30:58.327136 15710 net.cpp:386] ReLU17 -> InnerProduct25 (in-place)
I0808 08:30:58.327152 15710 net.cpp:141] Setting up ReLU17
I0808 08:30:58.327162 15710 net.cpp:148] Top shape: 64 100 (6400)
I0808 08:30:58.327170 15710 net.cpp:156] Memory required for data: 790010880
I0808 08:30:58.327178 15710 layer_factory.hpp:77] Creating layer InnerProduct26
I0808 08:30:58.327194 15710 net.cpp:91] Creating Layer InnerProduct26
I0808 08:30:58.327203 15710 net.cpp:425] InnerProduct26 <- InnerProduct25
I0808 08:30:58.327214 15710 net.cpp:399] InnerProduct26 -> InnerProduct26
I0808 08:30:58.327441 15710 net.cpp:141] Setting up InnerProduct26
I0808 08:30:58.327453 15710 net.cpp:148] Top shape: 64 50 (3200)
I0808 08:30:58.327461 15710 net.cpp:156] Memory required for data: 790023680
I0808 08:30:58.327468 15710 net.cpp:484] Sharing parameters 'ip2_w' owned by layer 'InnerProduct2', param index 0
I0808 08:30:58.327476 15710 net.cpp:484] Sharing parameters 'ip2_b' owned by layer 'InnerProduct2', param index 1
I0808 08:30:58.327484 15710 layer_factory.hpp:77] Creating layer Convolution19
I0808 08:30:58.327502 15710 net.cpp:91] Creating Layer Convolution19
I0808 08:30:58.327510 15710 net.cpp:425] Convolution19 <- c24
I0808 08:30:58.327525 15710 net.cpp:399] Convolution19 -> Convolution19
I0808 08:30:58.327952 15710 net.cpp:141] Setting up Convolution19
I0808 08:30:58.327962 15710 net.cpp:148] Top shape: 64 20 60 60 (4608000)
I0808 08:30:58.327970 15710 net.cpp:156] Memory required for data: 808455680
I0808 08:30:58.327976 15710 net.cpp:484] Sharing parameters 'conv1_w' owned by layer 'Convolution1', param index 0
I0808 08:30:58.327986 15710 net.cpp:484] Sharing parameters 'conv1_b' owned by layer 'Convolution1', param index 1
I0808 08:30:58.327992 15710 layer_factory.hpp:77] Creating layer Pooling19
I0808 08:30:58.328003 15710 net.cpp:91] Creating Layer Pooling19
I0808 08:30:58.328011 15710 net.cpp:425] Pooling19 <- Convolution19
I0808 08:30:58.328023 15710 net.cpp:399] Pooling19 -> Pooling19
I0808 08:30:58.328083 15710 net.cpp:141] Setting up Pooling19
I0808 08:30:58.328093 15710 net.cpp:148] Top shape: 64 20 30 30 (1152000)
I0808 08:30:58.328099 15710 net.cpp:156] Memory required for data: 813063680
I0808 08:30:58.328106 15710 layer_factory.hpp:77] Creating layer Convolution20
I0808 08:30:58.328122 15710 net.cpp:91] Creating Layer Convolution20
I0808 08:30:58.328130 15710 net.cpp:425] Convolution20 <- Pooling19
I0808 08:30:58.328145 15710 net.cpp:399] Convolution20 -> Convolution20
I0808 08:30:58.328732 15710 net.cpp:141] Setting up Convolution20
I0808 08:30:58.328742 15710 net.cpp:148] Top shape: 64 50 26 26 (2163200)
I0808 08:30:58.328749 15710 net.cpp:156] Memory required for data: 821716480
I0808 08:30:58.328757 15710 net.cpp:484] Sharing parameters 'conv2_w' owned by layer 'Convolution2', param index 0
I0808 08:30:58.328764 15710 net.cpp:484] Sharing parameters 'conv2_b' owned by layer 'Convolution2', param index 1
I0808 08:30:58.328773 15710 layer_factory.hpp:77] Creating layer Pooling20
I0808 08:30:58.328783 15710 net.cpp:91] Creating Layer Pooling20
I0808 08:30:58.328790 15710 net.cpp:425] Pooling20 <- Convolution20
I0808 08:30:58.328804 15710 net.cpp:399] Pooling20 -> Pooling20
I0808 08:30:58.328866 15710 net.cpp:141] Setting up Pooling20
I0808 08:30:58.328908 15710 net.cpp:148] Top shape: 64 50 13 13 (540800)
I0808 08:30:58.328940 15710 net.cpp:156] Memory required for data: 823879680
I0808 08:30:58.328970 15710 layer_factory.hpp:77] Creating layer InnerProduct27
I0808 08:30:58.329006 15710 net.cpp:91] Creating Layer InnerProduct27
I0808 08:30:58.329035 15710 net.cpp:425] InnerProduct27 <- Pooling20
I0808 08:30:58.329067 15710 net.cpp:399] InnerProduct27 -> InnerProduct27
I0808 08:30:58.337801 15710 net.cpp:141] Setting up InnerProduct27
I0808 08:30:58.337841 15710 net.cpp:148] Top shape: 64 100 (6400)
I0808 08:30:58.337846 15710 net.cpp:156] Memory required for data: 823905280
I0808 08:30:58.337857 15710 net.cpp:484] Sharing parameters 'ip1_w' owned by layer 'InnerProduct1', param index 0
I0808 08:30:58.337865 15710 net.cpp:484] Sharing parameters 'ip1_b' owned by layer 'InnerProduct1', param index 1
I0808 08:30:58.337872 15710 layer_factory.hpp:77] Creating layer ReLU18
I0808 08:30:58.337901 15710 net.cpp:91] Creating Layer ReLU18
I0808 08:30:58.337913 15710 net.cpp:425] ReLU18 <- InnerProduct27
I0808 08:30:58.337923 15710 net.cpp:386] ReLU18 -> InnerProduct27 (in-place)
I0808 08:30:58.337935 15710 net.cpp:141] Setting up ReLU18
I0808 08:30:58.337942 15710 net.cpp:148] Top shape: 64 100 (6400)
I0808 08:30:58.337949 15710 net.cpp:156] Memory required for data: 823930880
I0808 08:30:58.337954 15710 layer_factory.hpp:77] Creating layer InnerProduct28
I0808 08:30:58.337986 15710 net.cpp:91] Creating Layer InnerProduct28
I0808 08:30:58.337996 15710 net.cpp:425] InnerProduct28 <- InnerProduct27
I0808 08:30:58.338008 15710 net.cpp:399] InnerProduct28 -> InnerProduct28
I0808 08:30:58.338227 15710 net.cpp:141] Setting up InnerProduct28
I0808 08:30:58.338239 15710 net.cpp:148] Top shape: 64 50 (3200)
I0808 08:30:58.338245 15710 net.cpp:156] Memory required for data: 823943680
I0808 08:30:58.338253 15710 net.cpp:484] Sharing parameters 'ip2_w' owned by layer 'InnerProduct2', param index 0
I0808 08:30:58.338259 15710 net.cpp:484] Sharing parameters 'ip2_b' owned by layer 'InnerProduct2', param index 1
I0808 08:30:58.338289 15710 layer_factory.hpp:77] Creating layer Concat5
I0808 08:30:58.338301 15710 net.cpp:91] Creating Layer Concat5
I0808 08:30:58.338309 15710 net.cpp:425] Concat5 <- InnerProduct26
I0808 08:30:58.338316 15710 net.cpp:425] Concat5 <- InnerProduct28
I0808 08:30:58.338326 15710 net.cpp:399] Concat5 -> Concat5
I0808 08:30:58.338359 15710 net.cpp:141] Setting up Concat5
I0808 08:30:58.338369 15710 net.cpp:148] Top shape: 64 100 (6400)
I0808 08:30:58.338376 15710 net.cpp:156] Memory required for data: 823969280
I0808 08:30:58.338381 15710 layer_factory.hpp:77] Creating layer InnerProduct29
I0808 08:30:58.338390 15710 net.cpp:91] Creating Layer InnerProduct29
I0808 08:30:58.338397 15710 net.cpp:425] InnerProduct29 <- Concat5
I0808 08:30:58.338408 15710 net.cpp:399] InnerProduct29 -> InnerProduct29
I0808 08:30:58.338594 15710 net.cpp:141] Setting up InnerProduct29
I0808 08:30:58.338604 15710 net.cpp:148] Top shape: 64 64 (4096)
I0808 08:30:58.338609 15710 net.cpp:156] Memory required for data: 823985664
I0808 08:30:58.338616 15710 net.cpp:484] Sharing parameters 'fc1_w' owned by layer 'InnerProduct5', param index 0
I0808 08:30:58.338624 15710 net.cpp:484] Sharing parameters 'fc1_b' owned by layer 'InnerProduct5', param index 1
I0808 08:30:58.338630 15710 layer_factory.hpp:77] Creating layer ReLU19
I0808 08:30:58.338639 15710 net.cpp:91] Creating Layer ReLU19
I0808 08:30:58.338644 15710 net.cpp:425] ReLU19 <- InnerProduct29
I0808 08:30:58.338654 15710 net.cpp:386] ReLU19 -> InnerProduct29 (in-place)
I0808 08:30:58.338665 15710 net.cpp:141] Setting up ReLU19
I0808 08:30:58.338671 15710 net.cpp:148] Top shape: 64 64 (4096)
I0808 08:30:58.338677 15710 net.cpp:156] Memory required for data: 824002048
I0808 08:30:58.338683 15710 layer_factory.hpp:77] Creating layer InnerProduct30
I0808 08:30:58.338692 15710 net.cpp:91] Creating Layer InnerProduct30
I0808 08:30:58.338698 15710 net.cpp:425] InnerProduct30 <- InnerProduct29
I0808 08:30:58.338713 15710 net.cpp:399] InnerProduct30 -> InnerProduct30
I0808 08:30:58.338870 15710 net.cpp:141] Setting up InnerProduct30
I0808 08:30:58.338879 15710 net.cpp:148] Top shape: 64 32 (2048)
I0808 08:30:58.338886 15710 net.cpp:156] Memory required for data: 824010240
I0808 08:30:58.338891 15710 net.cpp:484] Sharing parameters 'fc2_w' owned by layer 'InnerProduct6', param index 0
I0808 08:30:58.338899 15710 net.cpp:484] Sharing parameters 'fc2_b' owned by layer 'InnerProduct6', param index 1
I0808 08:30:58.338907 15710 layer_factory.hpp:77] Creating layer ReLU20
I0808 08:30:58.338914 15710 net.cpp:91] Creating Layer ReLU20
I0808 08:30:58.338922 15710 net.cpp:425] ReLU20 <- InnerProduct30
I0808 08:30:58.338929 15710 net.cpp:386] ReLU20 -> InnerProduct30 (in-place)
I0808 08:30:58.338938 15710 net.cpp:141] Setting up ReLU20
I0808 08:30:58.338945 15710 net.cpp:148] Top shape: 64 32 (2048)
I0808 08:30:58.338951 15710 net.cpp:156] Memory required for data: 824018432
I0808 08:30:58.338958 15710 layer_factory.hpp:77] Creating layer dt4
I0808 08:30:58.338966 15710 net.cpp:91] Creating Layer dt4
I0808 08:30:58.338973 15710 net.cpp:425] dt4 <- InnerProduct30
I0808 08:30:58.338985 15710 net.cpp:399] dt4 -> dt4
I0808 08:30:58.339154 15710 net.cpp:141] Setting up dt4
I0808 08:30:58.339171 15710 net.cpp:148] Top shape: 64 1 (64)
I0808 08:30:58.339184 15710 net.cpp:156] Memory required for data: 824018688
I0808 08:30:58.339197 15710 net.cpp:484] Sharing parameters 'fc3_w' owned by layer 'dt0', param index 0
I0808 08:30:58.339215 15710 net.cpp:484] Sharing parameters 'fc3_b' owned by layer 'dt0', param index 1
I0808 08:30:58.339222 15710 layer_factory.hpp:77] Creating layer Convolution21
I0808 08:30:58.339241 15710 net.cpp:91] Creating Layer Convolution21
I0808 08:30:58.339251 15710 net.cpp:425] Convolution21 <- p1_p1_0_split_5
I0808 08:30:58.339262 15710 net.cpp:399] Convolution21 -> Convolution21
I0808 08:30:58.339624 15710 net.cpp:141] Setting up Convolution21
I0808 08:30:58.339637 15710 net.cpp:148] Top shape: 64 20 60 60 (4608000)
I0808 08:30:58.339643 15710 net.cpp:156] Memory required for data: 842450688
I0808 08:30:58.339661 15710 net.cpp:484] Sharing parameters 'conv1_w' owned by layer 'Convolution1', param index 0
I0808 08:30:58.339669 15710 net.cpp:484] Sharing parameters 'conv1_b' owned by layer 'Convolution1', param index 1
I0808 08:30:58.339675 15710 layer_factory.hpp:77] Creating layer Pooling21
I0808 08:30:58.339687 15710 net.cpp:91] Creating Layer Pooling21
I0808 08:30:58.339694 15710 net.cpp:425] Pooling21 <- Convolution21
I0808 08:30:58.339704 15710 net.cpp:399] Pooling21 -> Pooling21
I0808 08:30:58.339756 15710 net.cpp:141] Setting up Pooling21
I0808 08:30:58.339766 15710 net.cpp:148] Top shape: 64 20 30 30 (1152000)
I0808 08:30:58.339772 15710 net.cpp:156] Memory required for data: 847058688
I0808 08:30:58.339777 15710 layer_factory.hpp:77] Creating layer Convolution22
I0808 08:30:58.339792 15710 net.cpp:91] Creating Layer Convolution22
I0808 08:30:58.339798 15710 net.cpp:425] Convolution22 <- Pooling21
I0808 08:30:58.339809 15710 net.cpp:399] Convolution22 -> Convolution22
I0808 08:30:58.341047 15710 net.cpp:141] Setting up Convolution22
I0808 08:30:58.341073 15710 net.cpp:148] Top shape: 64 50 26 26 (2163200)
I0808 08:30:58.341078 15710 net.cpp:156] Memory required for data: 855711488
I0808 08:30:58.341085 15710 net.cpp:484] Sharing parameters 'conv2_w' owned by layer 'Convolution2', param index 0
I0808 08:30:58.341094 15710 net.cpp:484] Sharing parameters 'conv2_b' owned by layer 'Convolution2', param index 1
I0808 08:30:58.341099 15710 layer_factory.hpp:77] Creating layer Pooling22
I0808 08:30:58.341111 15710 net.cpp:91] Creating Layer Pooling22
I0808 08:30:58.341119 15710 net.cpp:425] Pooling22 <- Convolution22
I0808 08:30:58.341137 15710 net.cpp:399] Pooling22 -> Pooling22
I0808 08:30:58.341190 15710 net.cpp:141] Setting up Pooling22
I0808 08:30:58.341198 15710 net.cpp:148] Top shape: 64 50 13 13 (540800)
I0808 08:30:58.341203 15710 net.cpp:156] Memory required for data: 857874688
I0808 08:30:58.341209 15710 layer_factory.hpp:77] Creating layer InnerProduct31
I0808 08:30:58.341219 15710 net.cpp:91] Creating Layer InnerProduct31
I0808 08:30:58.341225 15710 net.cpp:425] InnerProduct31 <- Pooling22
I0808 08:30:58.341238 15710 net.cpp:399] InnerProduct31 -> InnerProduct31
I0808 08:30:58.349571 15710 net.cpp:141] Setting up InnerProduct31
I0808 08:30:58.349607 15710 net.cpp:148] Top shape: 64 100 (6400)
I0808 08:30:58.349614 15710 net.cpp:156] Memory required for data: 857900288
I0808 08:30:58.349623 15710 net.cpp:484] Sharing parameters 'ip1_w' owned by layer 'InnerProduct1', param index 0
I0808 08:30:58.349630 15710 net.cpp:484] Sharing parameters 'ip1_b' owned by layer 'InnerProduct1', param index 1
I0808 08:30:58.349637 15710 layer_factory.hpp:77] Creating layer ReLU21
I0808 08:30:58.349647 15710 net.cpp:91] Creating Layer ReLU21
I0808 08:30:58.349663 15710 net.cpp:425] ReLU21 <- InnerProduct31
I0808 08:30:58.349673 15710 net.cpp:386] ReLU21 -> InnerProduct31 (in-place)
I0808 08:30:58.349684 15710 net.cpp:141] Setting up ReLU21
I0808 08:30:58.349692 15710 net.cpp:148] Top shape: 64 100 (6400)
I0808 08:30:58.349697 15710 net.cpp:156] Memory required for data: 857925888
I0808 08:30:58.349704 15710 layer_factory.hpp:77] Creating layer InnerProduct32
I0808 08:30:58.349715 15710 net.cpp:91] Creating Layer InnerProduct32
I0808 08:30:58.349722 15710 net.cpp:425] InnerProduct32 <- InnerProduct31
I0808 08:30:58.349733 15710 net.cpp:399] InnerProduct32 -> InnerProduct32
I0808 08:30:58.349908 15710 net.cpp:141] Setting up InnerProduct32
I0808 08:30:58.349917 15710 net.cpp:148] Top shape: 64 50 (3200)
I0808 08:30:58.349922 15710 net.cpp:156] Memory required for data: 857938688
I0808 08:30:58.349930 15710 net.cpp:484] Sharing parameters 'ip2_w' owned by layer 'InnerProduct2', param index 0
I0808 08:30:58.349936 15710 net.cpp:484] Sharing parameters 'ip2_b' owned by layer 'InnerProduct2', param index 1
I0808 08:30:58.349942 15710 layer_factory.hpp:77] Creating layer Convolution23
I0808 08:30:58.349954 15710 net.cpp:91] Creating Layer Convolution23
I0808 08:30:58.349962 15710 net.cpp:425] Convolution23 <- c25
I0808 08:30:58.349993 15710 net.cpp:399] Convolution23 -> Convolution23
I0808 08:30:58.350342 15710 net.cpp:141] Setting up Convolution23
I0808 08:30:58.350349 15710 net.cpp:148] Top shape: 64 20 60 60 (4608000)
I0808 08:30:58.350355 15710 net.cpp:156] Memory required for data: 876370688
I0808 08:30:58.350361 15710 net.cpp:484] Sharing parameters 'conv1_w' owned by layer 'Convolution1', param index 0
I0808 08:30:58.350368 15710 net.cpp:484] Sharing parameters 'conv1_b' owned by layer 'Convolution1', param index 1
I0808 08:30:58.350374 15710 layer_factory.hpp:77] Creating layer Pooling23
I0808 08:30:58.350383 15710 net.cpp:91] Creating Layer Pooling23
I0808 08:30:58.350389 15710 net.cpp:425] Pooling23 <- Convolution23
I0808 08:30:58.350402 15710 net.cpp:399] Pooling23 -> Pooling23
I0808 08:30:58.350451 15710 net.cpp:141] Setting up Pooling23
I0808 08:30:58.350460 15710 net.cpp:148] Top shape: 64 20 30 30 (1152000)
I0808 08:30:58.350466 15710 net.cpp:156] Memory required for data: 880978688
I0808 08:30:58.350471 15710 layer_factory.hpp:77] Creating layer Convolution24
I0808 08:30:58.350486 15710 net.cpp:91] Creating Layer Convolution24
I0808 08:30:58.350492 15710 net.cpp:425] Convolution24 <- Pooling23
I0808 08:30:58.350502 15710 net.cpp:399] Convolution24 -> Convolution24
I0808 08:30:58.351073 15710 net.cpp:141] Setting up Convolution24
I0808 08:30:58.351086 15710 net.cpp:148] Top shape: 64 50 26 26 (2163200)
I0808 08:30:58.351091 15710 net.cpp:156] Memory required for data: 889631488
I0808 08:30:58.351099 15710 net.cpp:484] Sharing parameters 'conv2_w' owned by layer 'Convolution2', param index 0
I0808 08:30:58.351105 15710 net.cpp:484] Sharing parameters 'conv2_b' owned by layer 'Convolution2', param index 1
I0808 08:30:58.351111 15710 layer_factory.hpp:77] Creating layer Pooling24
I0808 08:30:58.351119 15710 net.cpp:91] Creating Layer Pooling24
I0808 08:30:58.351125 15710 net.cpp:425] Pooling24 <- Convolution24
I0808 08:30:58.351135 15710 net.cpp:399] Pooling24 -> Pooling24
I0808 08:30:58.351186 15710 net.cpp:141] Setting up Pooling24
I0808 08:30:58.351194 15710 net.cpp:148] Top shape: 64 50 13 13 (540800)
I0808 08:30:58.351199 15710 net.cpp:156] Memory required for data: 891794688
I0808 08:30:58.351204 15710 layer_factory.hpp:77] Creating layer InnerProduct33
I0808 08:30:58.351217 15710 net.cpp:91] Creating Layer InnerProduct33
I0808 08:30:58.351222 15710 net.cpp:425] InnerProduct33 <- Pooling24
I0808 08:30:58.351232 15710 net.cpp:399] InnerProduct33 -> InnerProduct33
I0808 08:30:58.359654 15710 net.cpp:141] Setting up InnerProduct33
I0808 08:30:58.359691 15710 net.cpp:148] Top shape: 64 100 (6400)
I0808 08:30:58.359704 15710 net.cpp:156] Memory required for data: 891820288
I0808 08:30:58.359714 15710 net.cpp:484] Sharing parameters 'ip1_w' owned by layer 'InnerProduct1', param index 0
I0808 08:30:58.359724 15710 net.cpp:484] Sharing parameters 'ip1_b' owned by layer 'InnerProduct1', param index 1
I0808 08:30:58.359731 15710 layer_factory.hpp:77] Creating layer ReLU22
I0808 08:30:58.359745 15710 net.cpp:91] Creating Layer ReLU22
I0808 08:30:58.359752 15710 net.cpp:425] ReLU22 <- InnerProduct33
I0808 08:30:58.359762 15710 net.cpp:386] ReLU22 -> InnerProduct33 (in-place)
I0808 08:30:58.359774 15710 net.cpp:141] Setting up ReLU22
I0808 08:30:58.359782 15710 net.cpp:148] Top shape: 64 100 (6400)
I0808 08:30:58.359787 15710 net.cpp:156] Memory required for data: 891845888
I0808 08:30:58.359793 15710 layer_factory.hpp:77] Creating layer InnerProduct34
I0808 08:30:58.359812 15710 net.cpp:91] Creating Layer InnerProduct34
I0808 08:30:58.359818 15710 net.cpp:425] InnerProduct34 <- InnerProduct33
I0808 08:30:58.359830 15710 net.cpp:399] InnerProduct34 -> InnerProduct34
I0808 08:30:58.360018 15710 net.cpp:141] Setting up InnerProduct34
I0808 08:30:58.360026 15710 net.cpp:148] Top shape: 64 50 (3200)
I0808 08:30:58.360033 15710 net.cpp:156] Memory required for data: 891858688
I0808 08:30:58.360038 15710 net.cpp:484] Sharing parameters 'ip2_w' owned by layer 'InnerProduct2', param index 0
I0808 08:30:58.360045 15710 net.cpp:484] Sharing parameters 'ip2_b' owned by layer 'InnerProduct2', param index 1
I0808 08:30:58.360069 15710 layer_factory.hpp:77] Creating layer Concat6
I0808 08:30:58.360079 15710 net.cpp:91] Creating Layer Concat6
I0808 08:30:58.360085 15710 net.cpp:425] Concat6 <- InnerProduct32
I0808 08:30:58.360092 15710 net.cpp:425] Concat6 <- InnerProduct34
I0808 08:30:58.360102 15710 net.cpp:399] Concat6 -> Concat6
I0808 08:30:58.360134 15710 net.cpp:141] Setting up Concat6
I0808 08:30:58.360142 15710 net.cpp:148] Top shape: 64 100 (6400)
I0808 08:30:58.360148 15710 net.cpp:156] Memory required for data: 891884288
I0808 08:30:58.360154 15710 layer_factory.hpp:77] Creating layer InnerProduct35
I0808 08:30:58.360165 15710 net.cpp:91] Creating Layer InnerProduct35
I0808 08:30:58.360172 15710 net.cpp:425] InnerProduct35 <- Concat6
I0808 08:30:58.360182 15710 net.cpp:399] InnerProduct35 -> InnerProduct35
I0808 08:30:58.360369 15710 net.cpp:141] Setting up InnerProduct35
I0808 08:30:58.360378 15710 net.cpp:148] Top shape: 64 64 (4096)
I0808 08:30:58.360383 15710 net.cpp:156] Memory required for data: 891900672
I0808 08:30:58.360389 15710 net.cpp:484] Sharing parameters 'fc1_w' owned by layer 'InnerProduct5', param index 0
I0808 08:30:58.360397 15710 net.cpp:484] Sharing parameters 'fc1_b' owned by layer 'InnerProduct5', param index 1
I0808 08:30:58.360404 15710 layer_factory.hpp:77] Creating layer ReLU23
I0808 08:30:58.360414 15710 net.cpp:91] Creating Layer ReLU23
I0808 08:30:58.360420 15710 net.cpp:425] ReLU23 <- InnerProduct35
I0808 08:30:58.360429 15710 net.cpp:386] ReLU23 -> InnerProduct35 (in-place)
I0808 08:30:58.360437 15710 net.cpp:141] Setting up ReLU23
I0808 08:30:58.360445 15710 net.cpp:148] Top shape: 64 64 (4096)
I0808 08:30:58.360450 15710 net.cpp:156] Memory required for data: 891917056
I0808 08:30:58.360456 15710 layer_factory.hpp:77] Creating layer InnerProduct36
I0808 08:30:58.360467 15710 net.cpp:91] Creating Layer InnerProduct36
I0808 08:30:58.360474 15710 net.cpp:425] InnerProduct36 <- InnerProduct35
I0808 08:30:58.360483 15710 net.cpp:399] InnerProduct36 -> InnerProduct36
I0808 08:30:58.360644 15710 net.cpp:141] Setting up InnerProduct36
I0808 08:30:58.360652 15710 net.cpp:148] Top shape: 64 32 (2048)
I0808 08:30:58.360682 15710 net.cpp:156] Memory required for data: 891925248
I0808 08:30:58.360749 15710 net.cpp:484] Sharing parameters 'fc2_w' owned by layer 'InnerProduct6', param index 0
I0808 08:30:58.360764 15710 net.cpp:484] Sharing parameters 'fc2_b' owned by layer 'InnerProduct6', param index 1
I0808 08:30:58.360774 15710 layer_factory.hpp:77] Creating layer ReLU24
I0808 08:30:58.360782 15710 net.cpp:91] Creating Layer ReLU24
I0808 08:30:58.360790 15710 net.cpp:425] ReLU24 <- InnerProduct36
I0808 08:30:58.360800 15710 net.cpp:386] ReLU24 -> InnerProduct36 (in-place)
I0808 08:30:58.360810 15710 net.cpp:141] Setting up ReLU24
I0808 08:30:58.360819 15710 net.cpp:148] Top shape: 64 32 (2048)
I0808 08:30:58.360826 15710 net.cpp:156] Memory required for data: 891933440
I0808 08:30:58.360831 15710 layer_factory.hpp:77] Creating layer dt5
I0808 08:30:58.360841 15710 net.cpp:91] Creating Layer dt5
I0808 08:30:58.360846 15710 net.cpp:425] dt5 <- InnerProduct36
I0808 08:30:58.360857 15710 net.cpp:399] dt5 -> dt5
I0808 08:30:58.360999 15710 net.cpp:141] Setting up dt5
I0808 08:30:58.361007 15710 net.cpp:148] Top shape: 64 1 (64)
I0808 08:30:58.361013 15710 net.cpp:156] Memory required for data: 891933696
I0808 08:30:58.361019 15710 net.cpp:484] Sharing parameters 'fc3_w' owned by layer 'dt0', param index 0
I0808 08:30:58.361027 15710 net.cpp:484] Sharing parameters 'fc3_b' owned by layer 'dt0', param index 1
I0808 08:30:58.361033 15710 layer_factory.hpp:77] Creating layer Convolution25
I0808 08:30:58.361047 15710 net.cpp:91] Creating Layer Convolution25
I0808 08:30:58.361053 15710 net.cpp:425] Convolution25 <- p1_p1_0_split_6
I0808 08:30:58.361068 15710 net.cpp:399] Convolution25 -> Convolution25
I0808 08:30:58.361424 15710 net.cpp:141] Setting up Convolution25
I0808 08:30:58.361433 15710 net.cpp:148] Top shape: 64 20 60 60 (4608000)
I0808 08:30:58.361451 15710 net.cpp:156] Memory required for data: 910365696
I0808 08:30:58.361457 15710 net.cpp:484] Sharing parameters 'conv1_w' owned by layer 'Convolution1', param index 0
I0808 08:30:58.361465 15710 net.cpp:484] Sharing parameters 'conv1_b' owned by layer 'Convolution1', param index 1
I0808 08:30:58.361471 15710 layer_factory.hpp:77] Creating layer Pooling25
I0808 08:30:58.361480 15710 net.cpp:91] Creating Layer Pooling25
I0808 08:30:58.361487 15710 net.cpp:425] Pooling25 <- Convolution25
I0808 08:30:58.361500 15710 net.cpp:399] Pooling25 -> Pooling25
I0808 08:30:58.361549 15710 net.cpp:141] Setting up Pooling25
I0808 08:30:58.361559 15710 net.cpp:148] Top shape: 64 20 30 30 (1152000)
I0808 08:30:58.361565 15710 net.cpp:156] Memory required for data: 914973696
I0808 08:30:58.361572 15710 layer_factory.hpp:77] Creating layer Convolution26
I0808 08:30:58.361582 15710 net.cpp:91] Creating Layer Convolution26
I0808 08:30:58.361588 15710 net.cpp:425] Convolution26 <- Pooling25
I0808 08:30:58.361601 15710 net.cpp:399] Convolution26 -> Convolution26
I0808 08:30:58.362145 15710 net.cpp:141] Setting up Convolution26
I0808 08:30:58.362155 15710 net.cpp:148] Top shape: 64 50 26 26 (2163200)
I0808 08:30:58.362161 15710 net.cpp:156] Memory required for data: 923626496
I0808 08:30:58.362167 15710 net.cpp:484] Sharing parameters 'conv2_w' owned by layer 'Convolution2', param index 0
I0808 08:30:58.362174 15710 net.cpp:484] Sharing parameters 'conv2_b' owned by layer 'Convolution2', param index 1
I0808 08:30:58.362181 15710 layer_factory.hpp:77] Creating layer Pooling26
I0808 08:30:58.362191 15710 net.cpp:91] Creating Layer Pooling26
I0808 08:30:58.362198 15710 net.cpp:425] Pooling26 <- Convolution26
I0808 08:30:58.362207 15710 net.cpp:399] Pooling26 -> Pooling26
I0808 08:30:58.362258 15710 net.cpp:141] Setting up Pooling26
I0808 08:30:58.362268 15710 net.cpp:148] Top shape: 64 50 13 13 (540800)
I0808 08:30:58.362275 15710 net.cpp:156] Memory required for data: 925789696
I0808 08:30:58.362282 15710 layer_factory.hpp:77] Creating layer InnerProduct37
I0808 08:30:58.362298 15710 net.cpp:91] Creating Layer InnerProduct37
I0808 08:30:58.362308 15710 net.cpp:425] InnerProduct37 <- Pooling26
I0808 08:30:58.362320 15710 net.cpp:399] InnerProduct37 -> InnerProduct37
I0808 08:30:58.371053 15710 net.cpp:141] Setting up InnerProduct37
I0808 08:30:58.371088 15710 net.cpp:148] Top shape: 64 100 (6400)
I0808 08:30:58.371094 15710 net.cpp:156] Memory required for data: 925815296
I0808 08:30:58.371104 15710 net.cpp:484] Sharing parameters 'ip1_w' owned by layer 'InnerProduct1', param index 0
I0808 08:30:58.371111 15710 net.cpp:484] Sharing parameters 'ip1_b' owned by layer 'InnerProduct1', param index 1
I0808 08:30:58.371119 15710 layer_factory.hpp:77] Creating layer ReLU25
I0808 08:30:58.371129 15710 net.cpp:91] Creating Layer ReLU25
I0808 08:30:58.371148 15710 net.cpp:425] ReLU25 <- InnerProduct37
I0808 08:30:58.371161 15710 net.cpp:386] ReLU25 -> InnerProduct37 (in-place)
I0808 08:30:58.371175 15710 net.cpp:141] Setting up ReLU25
I0808 08:30:58.371182 15710 net.cpp:148] Top shape: 64 100 (6400)
I0808 08:30:58.371188 15710 net.cpp:156] Memory required for data: 925840896
I0808 08:30:58.371193 15710 layer_factory.hpp:77] Creating layer InnerProduct38
I0808 08:30:58.371204 15710 net.cpp:91] Creating Layer InnerProduct38
I0808 08:30:58.371211 15710 net.cpp:425] InnerProduct38 <- InnerProduct37
I0808 08:30:58.371222 15710 net.cpp:399] InnerProduct38 -> InnerProduct38
I0808 08:30:58.371408 15710 net.cpp:141] Setting up InnerProduct38
I0808 08:30:58.371417 15710 net.cpp:148] Top shape: 64 50 (3200)
I0808 08:30:58.371423 15710 net.cpp:156] Memory required for data: 925853696
I0808 08:30:58.371428 15710 net.cpp:484] Sharing parameters 'ip2_w' owned by layer 'InnerProduct2', param index 0
I0808 08:30:58.371436 15710 net.cpp:484] Sharing parameters 'ip2_b' owned by layer 'InnerProduct2', param index 1
I0808 08:30:58.371443 15710 layer_factory.hpp:77] Creating layer Convolution27
I0808 08:30:58.371457 15710 net.cpp:91] Creating Layer Convolution27
I0808 08:30:58.371481 15710 net.cpp:425] Convolution27 <- c26
I0808 08:30:58.371495 15710 net.cpp:399] Convolution27 -> Convolution27
I0808 08:30:58.371855 15710 net.cpp:141] Setting up Convolution27
I0808 08:30:58.371865 15710 net.cpp:148] Top shape: 64 20 60 60 (4608000)
I0808 08:30:58.371873 15710 net.cpp:156] Memory required for data: 944285696
I0808 08:30:58.371883 15710 net.cpp:484] Sharing parameters 'conv1_w' owned by layer 'Convolution1', param index 0
I0808 08:30:58.371892 15710 net.cpp:484] Sharing parameters 'conv1_b' owned by layer 'Convolution1', param index 1
I0808 08:30:58.371899 15710 layer_factory.hpp:77] Creating layer Pooling27
I0808 08:30:58.371913 15710 net.cpp:91] Creating Layer Pooling27
I0808 08:30:58.371923 15710 net.cpp:425] Pooling27 <- Convolution27
I0808 08:30:58.371939 15710 net.cpp:399] Pooling27 -> Pooling27
I0808 08:30:58.372019 15710 net.cpp:141] Setting up Pooling27
I0808 08:30:58.372026 15710 net.cpp:148] Top shape: 64 20 30 30 (1152000)
I0808 08:30:58.372032 15710 net.cpp:156] Memory required for data: 948893696
I0808 08:30:58.372037 15710 layer_factory.hpp:77] Creating layer Convolution28
I0808 08:30:58.372051 15710 net.cpp:91] Creating Layer Convolution28
I0808 08:30:58.372058 15710 net.cpp:425] Convolution28 <- Pooling27
I0808 08:30:58.372068 15710 net.cpp:399] Convolution28 -> Convolution28
I0808 08:30:58.372616 15710 net.cpp:141] Setting up Convolution28
I0808 08:30:58.372624 15710 net.cpp:148] Top shape: 64 50 26 26 (2163200)
I0808 08:30:58.372629 15710 net.cpp:156] Memory required for data: 957546496
I0808 08:30:58.372637 15710 net.cpp:484] Sharing parameters 'conv2_w' owned by layer 'Convolution2', param index 0
I0808 08:30:58.372643 15710 net.cpp:484] Sharing parameters 'conv2_b' owned by layer 'Convolution2', param index 1
I0808 08:30:58.372649 15710 layer_factory.hpp:77] Creating layer Pooling28
I0808 08:30:58.372660 15710 net.cpp:91] Creating Layer Pooling28
I0808 08:30:58.372666 15710 net.cpp:425] Pooling28 <- Convolution28
I0808 08:30:58.372678 15710 net.cpp:399] Pooling28 -> Pooling28
I0808 08:30:58.372726 15710 net.cpp:141] Setting up Pooling28
I0808 08:30:58.372735 15710 net.cpp:148] Top shape: 64 50 13 13 (540800)
I0808 08:30:58.372740 15710 net.cpp:156] Memory required for data: 959709696
I0808 08:30:58.372745 15710 layer_factory.hpp:77] Creating layer InnerProduct39
I0808 08:30:58.372756 15710 net.cpp:91] Creating Layer InnerProduct39
I0808 08:30:58.372763 15710 net.cpp:425] InnerProduct39 <- Pooling28
I0808 08:30:58.372772 15710 net.cpp:399] InnerProduct39 -> InnerProduct39
I0808 08:30:58.380951 15710 net.cpp:141] Setting up InnerProduct39
I0808 08:30:58.380969 15710 net.cpp:148] Top shape: 64 100 (6400)
I0808 08:30:58.380975 15710 net.cpp:156] Memory required for data: 959735296
I0808 08:30:58.380982 15710 net.cpp:484] Sharing parameters 'ip1_w' owned by layer 'InnerProduct1', param index 0
I0808 08:30:58.380990 15710 net.cpp:484] Sharing parameters 'ip1_b' owned by layer 'InnerProduct1', param index 1
I0808 08:30:58.380998 15710 layer_factory.hpp:77] Creating layer ReLU26
I0808 08:30:58.381008 15710 net.cpp:91] Creating Layer ReLU26
I0808 08:30:58.381016 15710 net.cpp:425] ReLU26 <- InnerProduct39
I0808 08:30:58.381026 15710 net.cpp:386] ReLU26 -> InnerProduct39 (in-place)
I0808 08:30:58.381037 15710 net.cpp:141] Setting up ReLU26
I0808 08:30:58.381044 15710 net.cpp:148] Top shape: 64 100 (6400)
I0808 08:30:58.381050 15710 net.cpp:156] Memory required for data: 959760896
I0808 08:30:58.381057 15710 layer_factory.hpp:77] Creating layer InnerProduct40
I0808 08:30:58.381067 15710 net.cpp:91] Creating Layer InnerProduct40
I0808 08:30:58.381072 15710 net.cpp:425] InnerProduct40 <- InnerProduct39
I0808 08:30:58.381083 15710 net.cpp:399] InnerProduct40 -> InnerProduct40
I0808 08:30:58.381281 15710 net.cpp:141] Setting up InnerProduct40
I0808 08:30:58.381289 15710 net.cpp:148] Top shape: 64 50 (3200)
I0808 08:30:58.381295 15710 net.cpp:156] Memory required for data: 959773696
I0808 08:30:58.381301 15710 net.cpp:484] Sharing parameters 'ip2_w' owned by layer 'InnerProduct2', param index 0
I0808 08:30:58.381323 15710 net.cpp:484] Sharing parameters 'ip2_b' owned by layer 'InnerProduct2', param index 1
I0808 08:30:58.381330 15710 layer_factory.hpp:77] Creating layer Concat7
I0808 08:30:58.381338 15710 net.cpp:91] Creating Layer Concat7
I0808 08:30:58.381345 15710 net.cpp:425] Concat7 <- InnerProduct38
I0808 08:30:58.381352 15710 net.cpp:425] Concat7 <- InnerProduct40
I0808 08:30:58.381364 15710 net.cpp:399] Concat7 -> Concat7
I0808 08:30:58.381394 15710 net.cpp:141] Setting up Concat7
I0808 08:30:58.381402 15710 net.cpp:148] Top shape: 64 100 (6400)
I0808 08:30:58.381407 15710 net.cpp:156] Memory required for data: 959799296
I0808 08:30:58.381412 15710 layer_factory.hpp:77] Creating layer InnerProduct41
I0808 08:30:58.381423 15710 net.cpp:91] Creating Layer InnerProduct41
I0808 08:30:58.381429 15710 net.cpp:425] InnerProduct41 <- Concat7
I0808 08:30:58.381443 15710 net.cpp:399] InnerProduct41 -> InnerProduct41
I0808 08:30:58.381625 15710 net.cpp:141] Setting up InnerProduct41
I0808 08:30:58.381633 15710 net.cpp:148] Top shape: 64 64 (4096)
I0808 08:30:58.381639 15710 net.cpp:156] Memory required for data: 959815680
I0808 08:30:58.381645 15710 net.cpp:484] Sharing parameters 'fc1_w' owned by layer 'InnerProduct5', param index 0
I0808 08:30:58.381652 15710 net.cpp:484] Sharing parameters 'fc1_b' owned by layer 'InnerProduct5', param index 1
I0808 08:30:58.381659 15710 layer_factory.hpp:77] Creating layer ReLU27
I0808 08:30:58.381666 15710 net.cpp:91] Creating Layer ReLU27
I0808 08:30:58.381672 15710 net.cpp:425] ReLU27 <- InnerProduct41
I0808 08:30:58.381680 15710 net.cpp:386] ReLU27 -> InnerProduct41 (in-place)
I0808 08:30:58.381688 15710 net.cpp:141] Setting up ReLU27
I0808 08:30:58.381695 15710 net.cpp:148] Top shape: 64 64 (4096)
I0808 08:30:58.381701 15710 net.cpp:156] Memory required for data: 959832064
I0808 08:30:58.381706 15710 layer_factory.hpp:77] Creating layer InnerProduct42
I0808 08:30:58.381717 15710 net.cpp:91] Creating Layer InnerProduct42
I0808 08:30:58.381723 15710 net.cpp:425] InnerProduct42 <- InnerProduct41
I0808 08:30:58.381733 15710 net.cpp:399] InnerProduct42 -> InnerProduct42
I0808 08:30:58.381887 15710 net.cpp:141] Setting up InnerProduct42
I0808 08:30:58.381896 15710 net.cpp:148] Top shape: 64 32 (2048)
I0808 08:30:58.381901 15710 net.cpp:156] Memory required for data: 959840256
I0808 08:30:58.381906 15710 net.cpp:484] Sharing parameters 'fc2_w' owned by layer 'InnerProduct6', param index 0
I0808 08:30:58.381914 15710 net.cpp:484] Sharing parameters 'fc2_b' owned by layer 'InnerProduct6', param index 1
I0808 08:30:58.381920 15710 layer_factory.hpp:77] Creating layer ReLU28
I0808 08:30:58.381927 15710 net.cpp:91] Creating Layer ReLU28
I0808 08:30:58.381933 15710 net.cpp:425] ReLU28 <- InnerProduct42
I0808 08:30:58.381942 15710 net.cpp:386] ReLU28 -> InnerProduct42 (in-place)
I0808 08:30:58.381950 15710 net.cpp:141] Setting up ReLU28
I0808 08:30:58.381958 15710 net.cpp:148] Top shape: 64 32 (2048)
I0808 08:30:58.381963 15710 net.cpp:156] Memory required for data: 959848448
I0808 08:30:58.381969 15710 layer_factory.hpp:77] Creating layer dt6
I0808 08:30:58.381978 15710 net.cpp:91] Creating Layer dt6
I0808 08:30:58.381983 15710 net.cpp:425] dt6 <- InnerProduct42
I0808 08:30:58.381995 15710 net.cpp:399] dt6 -> dt6
I0808 08:30:58.382131 15710 net.cpp:141] Setting up dt6
I0808 08:30:58.382139 15710 net.cpp:148] Top shape: 64 1 (64)
I0808 08:30:58.382144 15710 net.cpp:156] Memory required for data: 959848704
I0808 08:30:58.382150 15710 net.cpp:484] Sharing parameters 'fc3_w' owned by layer 'dt0', param index 0
I0808 08:30:58.382158 15710 net.cpp:484] Sharing parameters 'fc3_b' owned by layer 'dt0', param index 1
I0808 08:30:58.382164 15710 layer_factory.hpp:77] Creating layer Convolution29
I0808 08:30:58.382175 15710 net.cpp:91] Creating Layer Convolution29
I0808 08:30:58.382181 15710 net.cpp:425] Convolution29 <- p1_p1_0_split_7
I0808 08:30:58.382194 15710 net.cpp:399] Convolution29 -> Convolution29
I0808 08:30:58.382601 15710 net.cpp:141] Setting up Convolution29
I0808 08:30:58.382619 15710 net.cpp:148] Top shape: 64 20 60 60 (4608000)
I0808 08:30:58.382625 15710 net.cpp:156] Memory required for data: 978280704
I0808 08:30:58.382632 15710 net.cpp:484] Sharing parameters 'conv1_w' owned by layer 'Convolution1', param index 0
I0808 08:30:58.382639 15710 net.cpp:484] Sharing parameters 'conv1_b' owned by layer 'Convolution1', param index 1
I0808 08:30:58.382645 15710 layer_factory.hpp:77] Creating layer Pooling29
I0808 08:30:58.382653 15710 net.cpp:91] Creating Layer Pooling29
I0808 08:30:58.382660 15710 net.cpp:425] Pooling29 <- Convolution29
I0808 08:30:58.382669 15710 net.cpp:399] Pooling29 -> Pooling29
I0808 08:30:58.382722 15710 net.cpp:141] Setting up Pooling29
I0808 08:30:58.382730 15710 net.cpp:148] Top shape: 64 20 30 30 (1152000)
I0808 08:30:58.382735 15710 net.cpp:156] Memory required for data: 982888704
I0808 08:30:58.382740 15710 layer_factory.hpp:77] Creating layer Convolution30
I0808 08:30:58.382755 15710 net.cpp:91] Creating Layer Convolution30
I0808 08:30:58.382761 15710 net.cpp:425] Convolution30 <- Pooling29
I0808 08:30:58.382772 15710 net.cpp:399] Convolution30 -> Convolution30
I0808 08:30:58.383299 15710 net.cpp:141] Setting up Convolution30
I0808 08:30:58.383308 15710 net.cpp:148] Top shape: 64 50 26 26 (2163200)
I0808 08:30:58.383314 15710 net.cpp:156] Memory required for data: 991541504
I0808 08:30:58.383321 15710 net.cpp:484] Sharing parameters 'conv2_w' owned by layer 'Convolution2', param index 0
I0808 08:30:58.383327 15710 net.cpp:484] Sharing parameters 'conv2_b' owned by layer 'Convolution2', param index 1
I0808 08:30:58.383333 15710 layer_factory.hpp:77] Creating layer Pooling30
I0808 08:30:58.383342 15710 net.cpp:91] Creating Layer Pooling30
I0808 08:30:58.383349 15710 net.cpp:425] Pooling30 <- Convolution30
I0808 08:30:58.383358 15710 net.cpp:399] Pooling30 -> Pooling30
I0808 08:30:58.383407 15710 net.cpp:141] Setting up Pooling30
I0808 08:30:58.383415 15710 net.cpp:148] Top shape: 64 50 13 13 (540800)
I0808 08:30:58.383420 15710 net.cpp:156] Memory required for data: 993704704
I0808 08:30:58.383426 15710 layer_factory.hpp:77] Creating layer InnerProduct43
I0808 08:30:58.383435 15710 net.cpp:91] Creating Layer InnerProduct43
I0808 08:30:58.383441 15710 net.cpp:425] InnerProduct43 <- Pooling30
I0808 08:30:58.383452 15710 net.cpp:399] InnerProduct43 -> InnerProduct43
I0808 08:30:58.391844 15710 net.cpp:141] Setting up InnerProduct43
I0808 08:30:58.391862 15710 net.cpp:148] Top shape: 64 100 (6400)
I0808 08:30:58.391870 15710 net.cpp:156] Memory required for data: 993730304
I0808 08:30:58.391877 15710 net.cpp:484] Sharing parameters 'ip1_w' owned by layer 'InnerProduct1', param index 0
I0808 08:30:58.391885 15710 net.cpp:484] Sharing parameters 'ip1_b' owned by layer 'InnerProduct1', param index 1
I0808 08:30:58.391892 15710 layer_factory.hpp:77] Creating layer ReLU29
I0808 08:30:58.391906 15710 net.cpp:91] Creating Layer ReLU29
I0808 08:30:58.391913 15710 net.cpp:425] ReLU29 <- InnerProduct43
I0808 08:30:58.391923 15710 net.cpp:386] ReLU29 -> InnerProduct43 (in-place)
I0808 08:30:58.391935 15710 net.cpp:141] Setting up ReLU29
I0808 08:30:58.391943 15710 net.cpp:148] Top shape: 64 100 (6400)
I0808 08:30:58.391948 15710 net.cpp:156] Memory required for data: 993755904
I0808 08:30:58.391954 15710 layer_factory.hpp:77] Creating layer InnerProduct44
I0808 08:30:58.391965 15710 net.cpp:91] Creating Layer InnerProduct44
I0808 08:30:58.391971 15710 net.cpp:425] InnerProduct44 <- InnerProduct43
I0808 08:30:58.391983 15710 net.cpp:399] InnerProduct44 -> InnerProduct44
I0808 08:30:58.392166 15710 net.cpp:141] Setting up InnerProduct44
I0808 08:30:58.392174 15710 net.cpp:148] Top shape: 64 50 (3200)
I0808 08:30:58.392179 15710 net.cpp:156] Memory required for data: 993768704
I0808 08:30:58.392186 15710 net.cpp:484] Sharing parameters 'ip2_w' owned by layer 'InnerProduct2', param index 0
I0808 08:30:58.392194 15710 net.cpp:484] Sharing parameters 'ip2_b' owned by layer 'InnerProduct2', param index 1
I0808 08:30:58.392199 15710 layer_factory.hpp:77] Creating layer Convolution31
I0808 08:30:58.392231 15710 net.cpp:91] Creating Layer Convolution31
I0808 08:30:58.392240 15710 net.cpp:425] Convolution31 <- c27
I0808 08:30:58.392251 15710 net.cpp:399] Convolution31 -> Convolution31
I0808 08:30:58.392696 15710 net.cpp:141] Setting up Convolution31
I0808 08:30:58.392711 15710 net.cpp:148] Top shape: 64 20 60 60 (4608000)
I0808 08:30:58.392719 15710 net.cpp:156] Memory required for data: 1012200704
I0808 08:30:58.392727 15710 net.cpp:484] Sharing parameters 'conv1_w' owned by layer 'Convolution1', param index 0
I0808 08:30:58.392736 15710 net.cpp:484] Sharing parameters 'conv1_b' owned by layer 'Convolution1', param index 1
I0808 08:30:58.392743 15710 layer_factory.hpp:77] Creating layer Pooling31
I0808 08:30:58.392755 15710 net.cpp:91] Creating Layer Pooling31
I0808 08:30:58.392763 15710 net.cpp:425] Pooling31 <- Convolution31
I0808 08:30:58.392776 15710 net.cpp:399] Pooling31 -> Pooling31
I0808 08:30:58.392835 15710 net.cpp:141] Setting up Pooling31
I0808 08:30:58.392843 15710 net.cpp:148] Top shape: 64 20 30 30 (1152000)
I0808 08:30:58.392849 15710 net.cpp:156] Memory required for data: 1016808704
I0808 08:30:58.392854 15710 layer_factory.hpp:77] Creating layer Convolution32
I0808 08:30:58.392868 15710 net.cpp:91] Creating Layer Convolution32
I0808 08:30:58.392875 15710 net.cpp:425] Convolution32 <- Pooling31
I0808 08:30:58.392887 15710 net.cpp:399] Convolution32 -> Convolution32
I0808 08:30:58.393424 15710 net.cpp:141] Setting up Convolution32
I0808 08:30:58.393434 15710 net.cpp:148] Top shape: 64 50 26 26 (2163200)
I0808 08:30:58.393438 15710 net.cpp:156] Memory required for data: 1025461504
I0808 08:30:58.393445 15710 net.cpp:484] Sharing parameters 'conv2_w' owned by layer 'Convolution2', param index 0
I0808 08:30:58.393452 15710 net.cpp:484] Sharing parameters 'conv2_b' owned by layer 'Convolution2', param index 1
I0808 08:30:58.393458 15710 layer_factory.hpp:77] Creating layer Pooling32
I0808 08:30:58.393466 15710 net.cpp:91] Creating Layer Pooling32
I0808 08:30:58.393473 15710 net.cpp:425] Pooling32 <- Convolution32
I0808 08:30:58.393484 15710 net.cpp:399] Pooling32 -> Pooling32
I0808 08:30:58.393533 15710 net.cpp:141] Setting up Pooling32
I0808 08:30:58.393543 15710 net.cpp:148] Top shape: 64 50 13 13 (540800)
I0808 08:30:58.393549 15710 net.cpp:156] Memory required for data: 1027624704
I0808 08:30:58.393554 15710 layer_factory.hpp:77] Creating layer InnerProduct45
I0808 08:30:58.393564 15710 net.cpp:91] Creating Layer InnerProduct45
I0808 08:30:58.393570 15710 net.cpp:425] InnerProduct45 <- Pooling32
I0808 08:30:58.393582 15710 net.cpp:399] InnerProduct45 -> InnerProduct45
I0808 08:30:58.402412 15710 net.cpp:141] Setting up InnerProduct45
I0808 08:30:58.402436 15710 net.cpp:148] Top shape: 64 100 (6400)
I0808 08:30:58.402446 15710 net.cpp:156] Memory required for data: 1027650304
I0808 08:30:58.402456 15710 net.cpp:484] Sharing parameters 'ip1_w' owned by layer 'InnerProduct1', param index 0
…
I0808 08:30:58.562894 15710 net.cpp:91] Creating Layer InnerProduct92
I0808 08:30:58.562901 15710 net.cpp:425] InnerProduct92 <- InnerProduct91
I0808 08:30:58.562912 15710 net.cpp:399] InnerProduct92 -> InnerProduct92
I0808 08:30:58.563097 15710 net.cpp:141] Setting up InnerProduct92
I0808 08:30:58.563105 15710 net.cpp:148] Top shape: 64 50 (3200)
I0808 08:30:58.563110 15710 net.cpp:156] Memory required for data: 1537088768
I0808 08:30:58.563117 15710 net.cpp:484] Sharing parameters 'ip2_w' owned by layer 'InnerProduct2', param index 0
I0808 08:30:58.563124 15710 net.cpp:484] Sharing parameters 'ip2_b' owned by layer 'InnerProduct2', param index 1
I0808 08:30:58.563130 15710 layer_factory.hpp:77] Creating layer Convolution63
I0808 08:30:58.563144 15710 net.cpp:91] Creating Layer Convolution63
I0808 08:30:58.563151 15710 net.cpp:425] Convolution63 <- c16
I0808 08:30:58.563164 15710 net.cpp:399] Convolution63 -> Convolution63
I0808 08:30:58.563535 15710 net.cpp:141] Setting up Convolution63
I0808 08:30:58.563544 15710 net.cpp:148] Top shape: 64 20 60 60 (4608000)
I0808 08:30:58.563549 15710 net.cpp:156] Memory required for data: 1555520768
I0808 08:30:58.563555 15710 net.cpp:484] Sharing parameters 'conv1_w' owned by layer 'Convolution1', param index 0
I0808 08:30:58.563563 15710 net.cpp:484] Sharing parameters 'conv1_b' owned by layer 'Convolution1', param index 1
I0808 08:30:58.563568 15710 layer_factory.hpp:77] Creating layer Pooling63
I0808 08:30:58.563580 15710 net.cpp:91] Creating Layer Pooling63
I0808 08:30:58.563587 15710 net.cpp:425] Pooling63 <- Convolution63
I0808 08:30:58.563596 15710 net.cpp:399] Pooling63 -> Pooling63
I0808 08:30:58.563648 15710 net.cpp:141] Setting up Pooling63
I0808 08:30:58.563658 15710 net.cpp:148] Top shape: 64 20 30 30 (1152000)
I0808 08:30:58.563664 15710 net.cpp:156] Memory required for data: 1560128768
I0808 08:30:58.563671 15710 layer_factory.hpp:77] Creating layer Convolution64
I0808 08:30:58.563690 15710 net.cpp:91] Creating Layer Convolution64
I0808 08:30:58.563699 15710 net.cpp:425] Convolution64 <- Pooling63
I0808 08:30:58.563712 15710 net.cpp:399] Convolution64 -> Convolution64
I0808 08:30:58.564357 15710 net.cpp:141] Setting up Convolution64
I0808 08:30:58.564366 15710 net.cpp:148] Top shape: 64 50 26 26 (2163200)
I0808 08:30:58.564371 15710 net.cpp:156] Memory required for data: 1568781568
I0808 08:30:58.564378 15710 net.cpp:484] Sharing parameters 'conv2_w' owned by layer 'Convolution2', param index 0
I0808 08:30:58.564385 15710 net.cpp:484] Sharing parameters 'conv2_b' owned by layer 'Convolution2', param index 1
I0808 08:30:58.564391 15710 layer_factory.hpp:77] Creating layer Pooling64
I0808 08:30:58.564402 15710 net.cpp:91] Creating Layer Pooling64
I0808 08:30:58.564409 15710 net.cpp:425] Pooling64 <- Convolution64
I0808 08:30:58.564420 15710 net.cpp:399] Pooling64 -> Pooling64
I0808 08:30:58.564472 15710 net.cpp:141] Setting up Pooling64
I0808 08:30:58.564481 15710 net.cpp:148] Top shape: 64 50 13 13 (540800)
I0808 08:30:58.564486 15710 net.cpp:156] Memory required for data: 1570944768
I0808 08:30:58.564491 15710 layer_factory.hpp:77] Creating layer InnerProduct93
I0808 08:30:58.564504 15710 net.cpp:91] Creating Layer InnerProduct93
I0808 08:30:58.564510 15710 net.cpp:425] InnerProduct93 <- Pooling64
I0808 08:30:58.564519 15710 net.cpp:399] InnerProduct93 -> InnerProduct93
I0808 08:30:58.572752 15710 net.cpp:141] Setting up InnerProduct93
I0808 08:30:58.572770 15710 net.cpp:148] Top shape: 64 100 (6400)
I0808 08:30:58.572777 15710 net.cpp:156] Memory required for data: 1570970368
I0808 08:30:58.572784 15710 net.cpp:484] Sharing parameters 'ip1_w' owned by layer 'InnerProduct1', param index 0
I0808 08:30:58.572793 15710 net.cpp:484] Sharing parameters 'ip1_b' owned by layer 'InnerProduct1', param index 1
I0808 08:30:58.572799 15710 layer_factory.hpp:77] Creating layer ReLU62
I0808 08:30:58.572809 15710 net.cpp:91] Creating Layer ReLU62
I0808 08:30:58.572834 15710 net.cpp:425] ReLU62 <- InnerProduct93
I0808 08:30:58.572845 15710 net.cpp:386] ReLU62 -> InnerProduct93 (in-place)
I0808 08:30:58.572857 15710 net.cpp:141] Setting up ReLU62
I0808 08:30:58.572865 15710 net.cpp:148] Top shape: 64 100 (6400)
I0808 08:30:58.572870 15710 net.cpp:156] Memory required for data: 1570995968
I0808 08:30:58.572876 15710 layer_factory.hpp:77] Creating layer InnerProduct94
I0808 08:30:58.572886 15710 net.cpp:91] Creating Layer InnerProduct94
I0808 08:30:58.572892 15710 net.cpp:425] InnerProduct94 <- InnerProduct93
I0808 08:30:58.572906 15710 net.cpp:399] InnerProduct94 -> InnerProduct94
I0808 08:30:58.573104 15710 net.cpp:141] Setting up InnerProduct94
I0808 08:30:58.573112 15710 net.cpp:148] Top shape: 64 50 (3200)
I0808 08:30:58.573118 15710 net.cpp:156] Memory required for data: 1571008768
I0808 08:30:58.573124 15710 net.cpp:484] Sharing parameters 'ip2_w' owned by layer 'InnerProduct2', param index 0
I0808 08:30:58.573132 15710 net.cpp:484] Sharing parameters 'ip2_b' owned by layer 'InnerProduct2', param index 1
I0808 08:30:58.573137 15710 layer_factory.hpp:77] Creating layer Concat16
I0808 08:30:58.573146 15710 net.cpp:91] Creating Layer Concat16
I0808 08:30:58.573153 15710 net.cpp:425] Concat16 <- InnerProduct92
I0808 08:30:58.573160 15710 net.cpp:425] Concat16 <- InnerProduct94
I0808 08:30:58.573173 15710 net.cpp:399] Concat16 -> Concat16
I0808 08:30:58.573204 15710 net.cpp:141] Setting up Concat16
I0808 08:30:58.573211 15710 net.cpp:148] Top shape: 64 100 (6400)
I0808 08:30:58.573216 15710 net.cpp:156] Memory required for data: 1571034368
I0808 08:30:58.573222 15710 layer_factory.hpp:77] Creating layer InnerProduct95
I0808 08:30:58.573235 15710 net.cpp:91] Creating Layer InnerProduct95
I0808 08:30:58.573242 15710 net.cpp:425] InnerProduct95 <- Concat16
I0808 08:30:58.573253 15710 net.cpp:399] InnerProduct95 -> InnerProduct95
I0808 08:30:58.574087 15710 net.cpp:141] Setting up InnerProduct95
I0808 08:30:58.574100 15710 net.cpp:148] Top shape: 64 64 (4096)
I0808 08:30:58.574107 15710 net.cpp:156] Memory required for data: 1571050752
I0808 08:30:58.574115 15710 net.cpp:484] Sharing parameters 'fc1_w' owned by layer 'InnerProduct5', param index 0
I0808 08:30:58.574122 15710 net.cpp:484] Sharing parameters 'fc1_b' owned by layer 'InnerProduct5', param index 1
I0808 08:30:58.574128 15710 layer_factory.hpp:77] Creating layer ReLU63
I0808 08:30:58.574137 15710 net.cpp:91] Creating Layer ReLU63
I0808 08:30:58.574144 15710 net.cpp:425] ReLU63 <- InnerProduct95
I0808 08:30:58.574156 15710 net.cpp:386] ReLU63 -> InnerProduct95 (in-place)
I0808 08:30:58.574167 15710 net.cpp:141] Setting up ReLU63
I0808 08:30:58.574174 15710 net.cpp:148] Top shape: 64 64 (4096)
I0808 08:30:58.574180 15710 net.cpp:156] Memory required for data: 1571067136
I0808 08:30:58.574185 15710 layer_factory.hpp:77] Creating layer InnerProduct96
I0808 08:30:58.574195 15710 net.cpp:91] Creating Layer InnerProduct96
I0808 08:30:58.574201 15710 net.cpp:425] InnerProduct96 <- InnerProduct95
I0808 08:30:58.574213 15710 net.cpp:399] InnerProduct96 -> InnerProduct96
I0808 08:30:58.574385 15710 net.cpp:141] Setting up InnerProduct96
I0808 08:30:58.574393 15710 net.cpp:148] Top shape: 64 32 (2048)
I0808 08:30:58.574399 15710 net.cpp:156] Memory required for data: 1571075328
I0808 08:30:58.574405 15710 net.cpp:484] Sharing parameters 'fc2_w' owned by layer 'InnerProduct6', param index 0
I0808 08:30:58.574412 15710 net.cpp:484] Sharing parameters 'fc2_b' owned by layer 'InnerProduct6', param index 1
I0808 08:30:58.574419 15710 layer_factory.hpp:77] Creating layer ReLU64
I0808 08:30:58.574426 15710 net.cpp:91] Creating Layer ReLU64
I0808 08:30:58.574432 15710 net.cpp:425] ReLU64 <- InnerProduct96
I0808 08:30:58.574443 15710 net.cpp:386] ReLU64 -> InnerProduct96 (in-place)
I0808 08:30:58.574452 15710 net.cpp:141] Setting up ReLU64
I0808 08:30:58.574460 15710 net.cpp:148] Top shape: 64 32 (2048)
I0808 08:30:58.574465 15710 net.cpp:156] Memory required for data: 1571083520
I0808 08:30:58.574486 15710 layer_factory.hpp:77] Creating layer dt15
I0808 08:30:58.574494 15710 net.cpp:91] Creating Layer dt15
I0808 08:30:58.574501 15710 net.cpp:425] dt15 <- InnerProduct96
I0808 08:30:58.574514 15710 net.cpp:399] dt15 -> dt15
I0808 08:30:58.574662 15710 net.cpp:141] Setting up dt15
I0808 08:30:58.574671 15710 net.cpp:148] Top shape: 64 1 (64)
I0808 08:30:58.574676 15710 net.cpp:156] Memory required for data: 1571083776
I0808 08:30:58.574682 15710 net.cpp:484] Sharing parameters 'fc3_w' owned by layer 'dt0', param index 0
I0808 08:30:58.574690 15710 net.cpp:484] Sharing parameters 'fc3_b' owned by layer 'dt0', param index 1
I0808 08:30:58.574697 15710 layer_factory.hpp:77] Creating layer Convolution65
I0808 08:30:58.574712 15710 net.cpp:91] Creating Layer Convolution65
I0808 08:30:58.574719 15710 net.cpp:425] Convolution65 <- p2_p2_0_split_7
I0808 08:30:58.574730 15710 net.cpp:399] Convolution65 -> Convolution65
I0808 08:30:58.575156 15710 net.cpp:141] Setting up Convolution65
I0808 08:30:58.575166 15710 net.cpp:148] Top shape: 64 20 60 60 (4608000)
I0808 08:30:58.575172 15710 net.cpp:156] Memory required for data: 1589515776
I0808 08:30:58.575178 15710 net.cpp:484] Sharing parameters 'conv1_w' owned by layer 'Convolution1', param index 0
I0808 08:30:58.575186 15710 net.cpp:484] Sharing parameters 'conv1_b' owned by layer 'Convolution1', param index 1
I0808 08:30:58.575192 15710 layer_factory.hpp:77] Creating layer Pooling65
I0808 08:30:58.575203 15710 net.cpp:91] Creating Layer Pooling65
I0808 08:30:58.575211 15710 net.cpp:425] Pooling65 <- Convolution65
I0808 08:30:58.575220 15710 net.cpp:399] Pooling65 -> Pooling65
I0808 08:30:58.575284 15710 net.cpp:141] Setting up Pooling65
I0808 08:30:58.575292 15710 net.cpp:148] Top shape: 64 20 30 30 (1152000)
I0808 08:30:58.575299 15710 net.cpp:156] Memory required for data: 1594123776
I0808 08:30:58.575304 15710 layer_factory.hpp:77] Creating layer Convolution66
I0808 08:30:58.575317 15710 net.cpp:91] Creating Layer Convolution66
I0808 08:30:58.575323 15710 net.cpp:425] Convolution66 <- Pooling65
I0808 08:30:58.575333 15710 net.cpp:399] Convolution66 -> Convolution66
I0808 08:30:58.575899 15710 net.cpp:141] Setting up Convolution66
I0808 08:30:58.575907 15710 net.cpp:148] Top shape: 64 50 26 26 (2163200)
I0808 08:30:58.575913 15710 net.cpp:156] Memory required for data: 1602776576
I0808 08:30:58.575920 15710 net.cpp:484] Sharing parameters 'conv2_w' owned by layer 'Convolution2', param index 0
I0808 08:30:58.575927 15710 net.cpp:484] Sharing parameters 'conv2_b' owned by layer 'Convolution2', param index 1
I0808 08:30:58.575933 15710 layer_factory.hpp:77] Creating layer Pooling66
I0808 08:30:58.575942 15710 net.cpp:91] Creating Layer Pooling66
I0808 08:30:58.575948 15710 net.cpp:425] Pooling66 <- Convolution66
I0808 08:30:58.575958 15710 net.cpp:399] Pooling66 -> Pooling66
I0808 08:30:58.576011 15710 net.cpp:141] Setting up Pooling66
I0808 08:30:58.576020 15710 net.cpp:148] Top shape: 64 50 13 13 (540800)
I0808 08:30:58.576025 15710 net.cpp:156] Memory required for data: 1604939776
I0808 08:30:58.576030 15710 layer_factory.hpp:77] Creating layer InnerProduct97
I0808 08:30:58.576045 15710 net.cpp:91] Creating Layer InnerProduct97
I0808 08:30:58.576052 15710 net.cpp:425] InnerProduct97 <- Pooling66
I0808 08:30:58.576068 15710 net.cpp:399] InnerProduct97 -> InnerProduct97
I0808 08:30:58.584764 15710 net.cpp:141] Setting up InnerProduct97
I0808 08:30:58.584787 15710 net.cpp:148] Top shape: 64 100 (6400)
I0808 08:30:58.584794 15710 net.cpp:156] Memory required for data: 1604965376
I0808 08:30:58.584805 15710 net.cpp:484] Sharing parameters 'ip1_w' owned by layer 'InnerProduct1', param index 0
I0808 08:30:58.584812 15710 net.cpp:484] Sharing parameters 'ip1_b' owned by layer 'InnerProduct1', param index 1
I0808 08:30:58.584820 15710 layer_factory.hpp:77] Creating layer ReLU65
I0808 08:30:58.584831 15710 net.cpp:91] Creating Layer ReLU65
I0808 08:30:58.584841 15710 net.cpp:425] ReLU65 <- InnerProduct97
I0808 08:30:58.584853 15710 net.cpp:386] ReLU65 -> InnerProduct97 (in-place)
I0808 08:30:58.584887 15710 net.cpp:141] Setting up ReLU65
I0808 08:30:58.584898 15710 net.cpp:148] Top shape: 64 100 (6400)
I0808 08:30:58.584905 15710 net.cpp:156] Memory required for data: 1604990976
I0808 08:30:58.584913 15710 layer_factory.hpp:77] Creating layer InnerProduct98
I0808 08:30:58.584926 15710 net.cpp:91] Creating Layer InnerProduct98
I0808 08:30:58.584938 15710 net.cpp:425] InnerProduct98 <- InnerProduct97
I0808 08:30:58.584961 15710 net.cpp:399] InnerProduct98 -> InnerProduct98
I0808 08:30:58.585160 15710 net.cpp:141] Setting up InnerProduct98
I0808 08:30:58.585168 15710 net.cpp:148] Top shape: 64 50 (3200)
I0808 08:30:58.585175 15710 net.cpp:156] Memory required for data: 1605003776
I0808 08:30:58.585180 15710 net.cpp:484] Sharing parameters 'ip2_w' owned by layer 'InnerProduct2', param index 0
I0808 08:30:58.585188 15710 net.cpp:484] Sharing parameters 'ip2_b' owned by layer 'InnerProduct2', param index 1
I0808 08:30:58.585194 15710 layer_factory.hpp:77] Creating layer Convolution67
I0808 08:30:58.585211 15710 net.cpp:91] Creating Layer Convolution67
I0808 08:30:58.585217 15710 net.cpp:425] Convolution67 <- c17
I0808 08:30:58.585229 15710 net.cpp:399] Convolution67 -> Convolution67
I0808 08:30:58.585624 15710 net.cpp:141] Setting up Convolution67
I0808 08:30:58.585633 15710 net.cpp:148] Top shape: 64 20 60 60 (4608000)
I0808 08:30:58.585638 15710 net.cpp:156] Memory required for data: 1623435776
I0808 08:30:58.585644 15710 net.cpp:484] Sharing parameters 'conv1_w' owned by layer 'Convolution1', param index 0
I0808 08:30:58.585651 15710 net.cpp:484] Sharing parameters 'conv1_b' owned by layer 'Convolution1', param index 1
I0808 08:30:58.585657 15710 layer_factory.hpp:77] Creating layer Pooling67
I0808 08:30:58.585671 15710 net.cpp:91] Creating Layer Pooling67
I0808 08:30:58.585677 15710 net.cpp:425] Pooling67 <- Convolution67
I0808 08:30:58.585687 15710 net.cpp:399] Pooling67 -> Pooling67
I0808 08:30:58.585742 15710 net.cpp:141] Setting up Pooling67
I0808 08:30:58.585750 15710 net.cpp:148] Top shape: 64 20 30 30 (1152000)
I0808 08:30:58.585757 15710 net.cpp:156] Memory required for data: 1628043776
I0808 08:30:58.585762 15710 layer_factory.hpp:77] Creating layer Convolution68
I0808 08:30:58.585775 15710 net.cpp:91] Creating Layer Convolution68
I0808 08:30:58.585782 15710 net.cpp:425] Convolution68 <- Pooling67
I0808 08:30:58.585793 15710 net.cpp:399] Convolution68 -> Convolution68
I0808 08:30:58.586377 15710 net.cpp:141] Setting up Convolution68
I0808 08:30:58.586387 15710 net.cpp:148] Top shape: 64 50 26 26 (2163200)
I0808 08:30:58.586393 15710 net.cpp:156] Memory required for data: 1636696576
I0808 08:30:58.586400 15710 net.cpp:484] Sharing parameters 'conv2_w' owned by layer 'Convolution2', param index 0
I0808 08:30:58.586407 15710 net.cpp:484] Sharing parameters 'conv2_b' owned by layer 'Convolution2', param index 1
I0808 08:30:58.586413 15710 layer_factory.hpp:77] Creating layer Pooling68
I0808 08:30:58.586421 15710 net.cpp:91] Creating Layer Pooling68
I0808 08:30:58.586428 15710 net.cpp:425] Pooling68 <- Convolution68
I0808 08:30:58.586439 15710 net.cpp:399] Pooling68 -> Pooling68
I0808 08:30:58.586493 15710 net.cpp:141] Setting up Pooling68
I0808 08:30:58.586501 15710 net.cpp:148] Top shape: 64 50 13 13 (540800)
I0808 08:30:58.586508 15710 net.cpp:156] Memory required for data: 1638859776
I0808 08:30:58.586513 15710 layer_factory.hpp:77] Creating layer InnerProduct99
I0808 08:30:58.586524 15710 net.cpp:91] Creating Layer InnerProduct99
I0808 08:30:58.586530 15710 net.cpp:425] InnerProduct99 <- Pooling68
I0808 08:30:58.586542 15710 net.cpp:399] InnerProduct99 -> InnerProduct99
I0808 08:30:58.594811 15710 net.cpp:141] Setting up InnerProduct99
I0808 08:30:58.594828 15710 net.cpp:148] Top shape: 64 100 (6400)
I0808 08:30:58.594835 15710 net.cpp:156] Memory required for data: 1638885376
I0808 08:30:58.594842 15710 net.cpp:484] Sharing parameters 'ip1_w' owned by layer 'InnerProduct1', param index 0
I0808 08:30:58.594851 15710 net.cpp:484] Sharing parameters 'ip1_b' owned by layer 'InnerProduct1', param index 1
I0808 08:30:58.594871 15710 layer_factory.hpp:77] Creating layer ReLU66
I0808 08:30:58.594888 15710 net.cpp:91] Creating Layer ReLU66
I0808 08:30:58.594895 15710 net.cpp:425] ReLU66 <- InnerProduct99
I0808 08:30:58.594904 15710 net.cpp:386] ReLU66 -> InnerProduct99 (in-place)
I0808 08:30:58.594916 15710 net.cpp:141] Setting up ReLU66
I0808 08:30:58.594923 15710 net.cpp:148] Top shape: 64 100 (6400)
I0808 08:30:58.594928 15710 net.cpp:156] Memory required for data: 1638910976
I0808 08:30:58.594934 15710 layer_factory.hpp:77] Creating layer InnerProduct100
I0808 08:30:58.594946 15710 net.cpp:91] Creating Layer InnerProduct100
I0808 08:30:58.594952 15710 net.cpp:425] InnerProduct100 <- InnerProduct99
I0808 08:30:58.594962 15710 net.cpp:399] InnerProduct100 -> InnerProduct100
I0808 08:30:58.595784 15710 net.cpp:141] Setting up InnerProduct100
I0808 08:30:58.595798 15710 net.cpp:148] Top shape: 64 50 (3200)
I0808 08:30:58.595804 15710 net.cpp:156] Memory required for data: 1638923776
I0808 08:30:58.595813 15710 net.cpp:484] Sharing parameters 'ip2_w' owned by layer 'InnerProduct2', param index 0
I0808 08:30:58.595820 15710 net.cpp:484] Sharing parameters 'ip2_b' owned by layer 'InnerProduct2', param index 1
I0808 08:30:58.595826 15710 layer_factory.hpp:77] Creating layer Concat17
I0808 08:30:58.595839 15710 net.cpp:91] Creating Layer Concat17
I0808 08:30:58.595846 15710 net.cpp:425] Concat17 <- InnerProduct98
I0808 08:30:58.595855 15710 net.cpp:425] Concat17 <- InnerProduct100
I0808 08:30:58.595865 15710 net.cpp:399] Concat17 -> Concat17
I0808 08:30:58.595898 15710 net.cpp:141] Setting up Concat17
I0808 08:30:58.595906 15710 net.cpp:148] Top shape: 64 100 (6400)
I0808 08:30:58.595912 15710 net.cpp:156] Memory required for data: 1638949376
I0808 08:30:58.595917 15710 layer_factory.hpp:77] Creating layer InnerProduct101
I0808 08:30:58.595929 15710 net.cpp:91] Creating Layer InnerProduct101
I0808 08:30:58.595935 15710 net.cpp:425] InnerProduct101 <- Concat17
I0808 08:30:58.595947 15710 net.cpp:399] InnerProduct101 -> InnerProduct101
I0808 08:30:58.596127 15710 net.cpp:141] Setting up InnerProduct101
I0808 08:30:58.596138 15710 net.cpp:148] Top shape: 64 64 (4096)
I0808 08:30:58.596143 15710 net.cpp:156] Memory required for data: 1638965760
I0808 08:30:58.596149 15710 net.cpp:484] Sharing parameters 'fc1_w' owned by layer 'InnerProduct5', param index 0
I0808 08:30:58.596158 15710 net.cpp:484] Sharing parameters 'fc1_b' owned by layer 'InnerProduct5', param index 1
I0808 08:30:58.596163 15710 layer_factory.hpp:77] Creating layer ReLU67
I0808 08:30:58.596171 15710 net.cpp:91] Creating Layer ReLU67
I0808 08:30:58.596177 15710 net.cpp:425] ReLU67 <- InnerProduct101
I0808 08:30:58.596185 15710 net.cpp:386] ReLU67 -> InnerProduct101 (in-place)
I0808 08:30:58.596194 15710 net.cpp:141] Setting up ReLU67
I0808 08:30:58.596202 15710 net.cpp:148] Top shape: 64 64 (4096)
I0808 08:30:58.596207 15710 net.cpp:156] Memory required for data: 1638982144
I0808 08:30:58.596213 15710 layer_factory.hpp:77] Creating layer InnerProduct102
I0808 08:30:58.596222 15710 net.cpp:91] Creating Layer InnerProduct102
I0808 08:30:58.596235 15710 net.cpp:425] InnerProduct102 <- InnerProduct101
I0808 08:30:58.596247 15710 net.cpp:399] InnerProduct102 -> InnerProduct102
I0808 08:30:58.596403 15710 net.cpp:141] Setting up InnerProduct102
I0808 08:30:58.596411 15710 net.cpp:148] Top shape: 64 32 (2048)
I0808 08:30:58.596417 15710 net.cpp:156] Memory required for data: 1638990336
I0808 08:30:58.596423 15710 net.cpp:484] Sharing parameters 'fc2_w' owned by layer 'InnerProduct6', param index 0
I0808 08:30:58.596431 15710 net.cpp:484] Sharing parameters 'fc2_b' owned by layer 'InnerProduct6', param index 1
I0808 08:30:58.596437 15710 layer_factory.hpp:77] Creating layer ReLU68
I0808 08:30:58.596444 15710 net.cpp:91] Creating Layer ReLU68
I0808 08:30:58.596451 15710 net.cpp:425] ReLU68 <- InnerProduct102
I0808 08:30:58.596458 15710 net.cpp:386] ReLU68 -> InnerProduct102 (in-place)
I0808 08:30:58.596467 15710 net.cpp:141] Setting up ReLU68
I0808 08:30:58.596475 15710 net.cpp:148] Top shape: 64 32 (2048)
I0808 08:30:58.596495 15710 net.cpp:156] Memory required for data: 1638998528
I0808 08:30:58.596501 15710 layer_factory.hpp:77] Creating layer dt16
I0808 08:30:58.596511 15710 net.cpp:91] Creating Layer dt16
I0808 08:30:58.596518 15710 net.cpp:425] dt16 <- InnerProduct102
I0808 08:30:58.596530 15710 net.cpp:399] dt16 -> dt16
I0808 08:30:58.596663 15710 net.cpp:141] Setting up dt16
I0808 08:30:58.596673 15710 net.cpp:148] Top shape: 64 1 (64)
I0808 08:30:58.596678 15710 net.cpp:156] Memory required for data: 1638998784
I0808 08:30:58.596684 15710 net.cpp:484] Sharing parameters 'fc3_w' owned by layer 'dt0', param index 0
I0808 08:30:58.596691 15710 net.cpp:484] Sharing parameters 'fc3_b' owned by layer 'dt0', param index 1
I0808 08:30:58.596698 15710 layer_factory.hpp:77] Creating layer Convolution69
I0808 08:30:58.596709 15710 net.cpp:91] Creating Layer Convolution69
I0808 08:30:58.596716 15710 net.cpp:425] Convolution69 <- p2_p2_0_split_8
I0808 08:30:58.596727 15710 net.cpp:399] Convolution69 -> Convolution69
I0808 08:30:58.597057 15710 net.cpp:141] Setting up Convolution69
I0808 08:30:58.597067 15710 net.cpp:148] Top shape: 64 20 60 60 (4608000)
I0808 08:30:58.597074 15710 net.cpp:156] Memory required for data: 1657430784
I0808 08:30:58.597079 15710 net.cpp:484] Sharing parameters 'conv1_w' owned by layer 'Convolution1', param index 0
I0808 08:30:58.597087 15710 net.cpp:484] Sharing parameters 'conv1_b' owned by layer 'Convolution1', param index 1
I0808 08:30:58.597093 15710 layer_factory.hpp:77] Creating layer Pooling69
I0808 08:30:58.597102 15710 net.cpp:91] Creating Layer Pooling69
I0808 08:30:58.597108 15710 net.cpp:425] Pooling69 <- Convolution69
I0808 08:30:58.597118 15710 net.cpp:399] Pooling69 -> Pooling69
I0808 08:30:58.597167 15710 net.cpp:141] Setting up Pooling69
I0808 08:30:58.597175 15710 net.cpp:148] Top shape: 64 20 30 30 (1152000)
I0808 08:30:58.597180 15710 net.cpp:156] Memory required for data: 1662038784
I0808 08:30:58.597187 15710 layer_factory.hpp:77] Creating layer Convolution70
I0808 08:30:58.597203 15710 net.cpp:91] Creating Layer Convolution70
I0808 08:30:58.597209 15710 net.cpp:425] Convolution70 <- Pooling69
I0808 08:30:58.597223 15710 net.cpp:399] Convolution70 -> Convolution70
I0808 08:30:58.597734 15710 net.cpp:141] Setting up Convolution70
I0808 08:30:58.597743 15710 net.cpp:148] Top shape: 64 50 26 26 (2163200)
I0808 08:30:58.597748 15710 net.cpp:156] Memory required for data: 1670691584
I0808 08:30:58.597755 15710 net.cpp:484] Sharing parameters 'conv2_w' owned by layer 'Convolution2', param index 0
I0808 08:30:58.597762 15710 net.cpp:484] Sharing parameters 'conv2_b' owned by layer 'Convolution2', param index 1
I0808 08:30:58.597769 15710 layer_factory.hpp:77] Creating layer Pooling70
I0808 08:30:58.597776 15710 net.cpp:91] Creating Layer Pooling70
I0808 08:30:58.597782 15710 net.cpp:425] Pooling70 <- Convolution70
I0808 08:30:58.597793 15710 net.cpp:399] Pooling70 -> Pooling70
I0808 08:30:58.597837 15710 net.cpp:141] Setting up Pooling70
I0808 08:30:58.597847 15710 net.cpp:148] Top shape: 64 50 13 13 (540800)
I0808 08:30:58.597853 15710 net.cpp:156] Memory required for data: 1672854784
I0808 08:30:58.597858 15710 layer_factory.hpp:77] Creating layer InnerProduct103
I0808 08:30:58.597867 15710 net.cpp:91] Creating Layer InnerProduct103
I0808 08:30:58.597873 15710 net.cpp:425] InnerProduct103 <- Pooling70
I0808 08:30:58.597884 15710 net.cpp:399] InnerProduct103 -> InnerProduct103
I0808 08:30:58.606148 15710 net.cpp:141] Setting up InnerProduct103
I0808 08:30:58.606168 15710 net.cpp:148] Top shape: 64 100 (6400)
I0808 08:30:58.606173 15710 net.cpp:156] Memory required for data: 1672880384
I0808 08:30:58.606181 15710 net.cpp:484] Sharing parameters 'ip1_w' owned by layer 'InnerProduct1', param index 0
I0808 08:30:58.606189 15710 net.cpp:484] Sharing parameters 'ip1_b' owned by layer 'InnerProduct1', param index 1
I0808 08:30:58.606195 15710 layer_factory.hpp:77] Creating layer ReLU69
I0808 08:30:58.606206 15710 net.cpp:91] Creating Layer ReLU69
I0808 08:30:58.606228 15710 net.cpp:425] ReLU69 <- InnerProduct103
I0808 08:30:58.606237 15710 net.cpp:386] ReLU69 -> InnerProduct103 (in-place)
I0808 08:30:58.606248 15710 net.cpp:141] Setting up ReLU69
I0808 08:30:58.606256 15710 net.cpp:148] Top shape: 64 100 (6400)
I0808 08:30:58.606261 15710 net.cpp:156] Memory required for data: 1672905984
I0808 08:30:58.606267 15710 layer_factory.hpp:77] Creating layer InnerProduct104
I0808 08:30:58.606277 15710 net.cpp:91] Creating Layer InnerProduct104
I0808 08:30:58.606283 15710 net.cpp:425] InnerProduct104 <- InnerProduct103
I0808 08:30:58.606295 15710 net.cpp:399] InnerProduct104 -> InnerProduct104
I0808 08:30:58.606474 15710 net.cpp:141] Setting up InnerProduct104
I0808 08:30:58.606482 15710 net.cpp:148] Top shape: 64 50 (3200)
I0808 08:30:58.606488 15710 net.cpp:156] Memory required for data: 1672918784
I0808 08:30:58.606494 15710 net.cpp:484] Sharing parameters 'ip2_w' owned by layer 'InnerProduct2', param index 0
I0808 08:30:58.606503 15710 net.cpp:484] Sharing parameters 'ip2_b' owned by layer 'InnerProduct2', param index 1
I0808 08:30:58.606508 15710 layer_factory.hpp:77] Creating layer Convolution71
I0808 08:30:58.606520 15710 net.cpp:91] Creating Layer Convolution71
I0808 08:30:58.606526 15710 net.cpp:425] Convolution71 <- c18
I0808 08:30:58.606537 15710 net.cpp:399] Convolution71 -> Convolution71
I0808 08:30:58.606890 15710 net.cpp:141] Setting up Convolution71
I0808 08:30:58.606899 15710 net.cpp:148] Top shape: 64 20 60 60 (4608000)
I0808 08:30:58.606904 15710 net.cpp:156] Memory required for data: 1691350784
I0808 08:30:58.606910 15710 net.cpp:484] Sharing parameters 'conv1_w' owned by layer 'Convolution1', param index 0
I0808 08:30:58.606917 15710 net.cpp:484] Sharing parameters 'conv1_b' owned by layer 'Convolution1', param index 1
I0808 08:30:58.606923 15710 layer_factory.hpp:77] Creating layer Pooling71
I0808 08:30:58.606932 15710 net.cpp:91] Creating Layer Pooling71
I0808 08:30:58.606938 15710 net.cpp:425] Pooling71 <- Convolution71
I0808 08:30:58.606947 15710 net.cpp:399] Pooling71 -> Pooling71
I0808 08:30:58.606997 15710 net.cpp:141] Setting up Pooling71
I0808 08:30:58.607005 15710 net.cpp:148] Top shape: 64 20 30 30 (1152000)
I0808 08:30:58.607012 15710 net.cpp:156] Memory required for data: 1695958784
I0808 08:30:58.607017 15710 layer_factory.hpp:77] Creating layer Convolution72
I0808 08:30:58.607029 15710 net.cpp:91] Creating Layer Convolution72
I0808 08:30:58.607036 15710 net.cpp:425] Convolution72 <- Pooling71
I0808 08:30:58.607048 15710 net.cpp:399] Convolution72 -> Convolution72
I0808 08:30:58.607573 15710 net.cpp:141] Setting up Convolution72
I0808 08:30:58.607581 15710 net.cpp:148] Top shape: 64 50 26 26 (2163200)
I0808 08:30:58.607586 15710 net.cpp:156] Memory required for data: 1704611584
I0808 08:30:58.607594 15710 net.cpp:484] Sharing parameters 'conv2_w' owned by layer 'Convolution2', param index 0
I0808 08:30:58.607600 15710 net.cpp:484] Sharing parameters 'conv2_b' owned by layer 'Convolution2', param index 1
I0808 08:30:58.607606 15710 layer_factory.hpp:77] Creating layer Pooling72
I0808 08:30:58.607616 15710 net.cpp:91] Creating Layer Pooling72
I0808 08:30:58.607623 15710 net.cpp:425] Pooling72 <- Convolution72
I0808 08:30:58.607631 15710 net.cpp:399] Pooling72 -> Pooling72
I0808 08:30:58.607679 15710 net.cpp:141] Setting up Pooling72
I0808 08:30:58.607688 15710 net.cpp:148] Top shape: 64 50 13 13 (540800)
I0808 08:30:58.607693 15710 net.cpp:156] Memory required for data: 1706774784
I0808 08:30:58.607699 15710 layer_factory.hpp:77] Creating layer InnerProduct105
I0808 08:30:58.607708 15710 net.cpp:91] Creating Layer InnerProduct105
I0808 08:30:58.607714 15710 net.cpp:425] InnerProduct105 <- Pooling72
I0808 08:30:58.607727 15710 net.cpp:399] InnerProduct105 -> InnerProduct105
I0808 08:30:58.616027 15710 net.cpp:141] Setting up InnerProduct105
I0808 08:30:58.616044 15710 net.cpp:148] Top shape: 64 100 (6400)
I0808 08:30:58.616051 15710 net.cpp:156] Memory required for data: 1706800384
I0808 08:30:58.616060 15710 net.cpp:484] Sharing parameters 'ip1_w' owned by layer 'InnerProduct1', param index 0
I0808 08:30:58.616082 15710 net.cpp:484] Sharing parameters 'ip1_b' owned by layer 'InnerProduct1', param index 1
I0808 08:30:58.616089 15710 layer_factory.hpp:77] Creating layer ReLU70
I0808 08:30:58.616098 15710 net.cpp:91] Creating Layer ReLU70
I0808 08:30:58.616106 15710 net.cpp:425] ReLU70 <- InnerProduct105
I0808 08:30:58.616114 15710 net.cpp:386] ReLU70 -> InnerProduct105 (in-place)
I0808 08:30:58.616127 15710 net.cpp:141] Setting up ReLU70
I0808 08:30:58.616133 15710 net.cpp:148] Top shape: 64 100 (6400)
I0808 08:30:58.616138 15710 net.cpp:156] Memory required for data: 1706825984
I0808 08:30:58.616144 15710 layer_factory.hpp:77] Creating layer InnerProduct106
I0808 08:30:58.616160 15710 net.cpp:91] Creating Layer InnerProduct106
I0808 08:30:58.616166 15710 net.cpp:425] InnerProduct106 <- InnerProduct105
I0808 08:30:58.616175 15710 net.cpp:399] InnerProduct106 -> InnerProduct106
I0808 08:30:58.616356 15710 net.cpp:141] Setting up InnerProduct106
I0808 08:30:58.616364 15710 net.cpp:148] Top shape: 64 50 (3200)
I0808 08:30:58.616369 15710 net.cpp:156] Memory required for data: 1706838784
I0808 08:30:58.616375 15710 net.cpp:484] Sharing parameters 'ip2_w' owned by layer 'InnerProduct2', param index 0
I0808 08:30:58.616382 15710 net.cpp:484] Sharing parameters 'ip2_b' owned by layer 'InnerProduct2', param index 1
I0808 08:30:58.616389 15710 layer_factory.hpp:77] Creating layer Concat18
I0808 08:30:58.616397 15710 net.cpp:91] Creating Layer Concat18
I0808 08:30:58.616403 15710 net.cpp:425] Concat18 <- InnerProduct104
I0808 08:30:58.616410 15710 net.cpp:425] Concat18 <- InnerProduct106
I0808 08:30:58.616420 15710 net.cpp:399] Concat18 -> Concat18
I0808 08:30:58.616451 15710 net.cpp:141] Setting up Concat18
I0808 08:30:58.616458 15710 net.cpp:148] Top shape: 64 100 (6400)
I0808 08:30:58.616464 15710 net.cpp:156] Memory required for data: 1706864384
I0808 08:30:58.616471 15710 layer_factory.hpp:77] Creating layer InnerProduct107
I0808 08:30:58.616482 15710 net.cpp:91] Creating Layer InnerProduct107
I0808 08:30:58.616487 15710 net.cpp:425] InnerProduct107 <- Concat18
I0808 08:30:58.616497 15710 net.cpp:399] InnerProduct107 -> InnerProduct107
I0808 08:30:58.616675 15710 net.cpp:141] Setting up InnerProduct107
I0808 08:30:58.616683 15710 net.cpp:148] Top shape: 64 64 (4096)
I0808 08:30:58.616688 15710 net.cpp:156] Memory required for data: 1706880768
I0808 08:30:58.616694 15710 net.cpp:484] Sharing parameters 'fc1_w' owned by layer 'InnerProduct5', param index 0
I0808 08:30:58.616703 15710 net.cpp:484] Sharing parameters 'fc1_b' owned by layer 'InnerProduct5', param index 1
I0808 08:30:58.616708 15710 layer_factory.hpp:77] Creating layer ReLU71
I0808 08:30:58.616715 15710 net.cpp:91] Creating Layer ReLU71
I0808 08:30:58.616721 15710 net.cpp:425] ReLU71 <- InnerProduct107
I0808 08:30:58.616731 15710 net.cpp:386] ReLU71 -> InnerProduct107 (in-place)
I0808 08:30:58.616740 15710 net.cpp:141] Setting up ReLU71
I0808 08:30:58.616749 15710 net.cpp:148] Top shape: 64 64 (4096)
I0808 08:30:58.616753 15710 net.cpp:156] Memory required for data: 1706897152
I0808 08:30:58.616760 15710 layer_factory.hpp:77] Creating layer InnerProduct108
I0808 08:30:58.616767 15710 net.cpp:91] Creating Layer InnerProduct108
I0808 08:30:58.616773 15710 net.cpp:425] InnerProduct108 <- InnerProduct107
I0808 08:30:58.616785 15710 net.cpp:399] InnerProduct108 -> InnerProduct108
I0808 08:30:58.616942 15710 net.cpp:141] Setting up InnerProduct108
I0808 08:30:58.616950 15710 net.cpp:148] Top shape: 64 32 (2048)
I0808 08:30:58.616955 15710 net.cpp:156] Memory required for data: 1706905344
I0808 08:30:58.616961 15710 net.cpp:484] Sharing parameters 'fc2_w' owned by layer 'InnerProduct6', param index 0
I0808 08:30:58.616968 15710 net.cpp:484] Sharing parameters 'fc2_b' owned by layer 'InnerProduct6', param index 1
I0808 08:30:58.616974 15710 layer_factory.hpp:77] Creating layer ReLU72
I0808 08:30:58.616981 15710 net.cpp:91] Creating Layer ReLU72
I0808 08:30:58.616987 15710 net.cpp:425] ReLU72 <- InnerProduct108
I0808 08:30:58.617003 15710 net.cpp:386] ReLU72 -> InnerProduct108 (in-place)
I0808 08:30:58.617012 15710 net.cpp:141] Setting up ReLU72
I0808 08:30:58.617019 15710 net.cpp:148] Top shape: 64 32 (2048)
I0808 08:30:58.617025 15710 net.cpp:156] Memory required for data: 1706913536
I0808 08:30:58.617030 15710 layer_factory.hpp:77] Creating layer dt17
I0808 08:30:58.617043 15710 net.cpp:91] Creating Layer dt17
I0808 08:30:58.617048 15710 net.cpp:425] dt17 <- InnerProduct108
I0808 08:30:58.617060 15710 net.cpp:399] dt17 -> dt17
I0808 08:30:58.617189 15710 net.cpp:141] Setting up dt17
I0808 08:30:58.617197 15710 net.cpp:148] Top shape: 64 1 (64)
I0808 08:30:58.617202 15710 net.cpp:156] Memory required for data: 1706913792
I0808 08:30:58.617208 15710 net.cpp:484] Sharing parameters 'fc3_w' owned by layer 'dt0', param index 0
I0808 08:30:58.617215 15710 net.cpp:484] Sharing parameters 'fc3_b' owned by layer 'dt0', param index 1
I0808 08:30:58.617221 15710 layer_factory.hpp:77] Creating layer Convolution73
I0808 08:30:58.617233 15710 net.cpp:91] Creating Layer Convolution73
I0808 08:30:58.617240 15710 net.cpp:425] Convolution73 <- p2_p2_0_split_9
I0808 08:30:58.617254 15710 net.cpp:399] Convolution73 -> Convolution73
I0808 08:30:58.617586 15710 net.cpp:141] Setting up Convolution73
I0808 08:30:58.617594 15710 net.cpp:148] Top shape: 64 20 60 60 (4608000)
I0808 08:30:58.617600 15710 net.cpp:156] Memory required for data: 1725345792
I0808 08:30:58.617606 15710 net.cpp:484] Sharing parameters 'conv1_w' owned by layer 'Convolution1', param index 0
I0808 08:30:58.617614 15710 net.cpp:484] Sharing parameters 'conv1_b' owned by layer 'Convolution1', param index 1
I0808 08:30:58.617619 15710 layer_factory.hpp:77] Creating layer Pooling73
I0808 08:30:58.617627 15710 net.cpp:91] Creating Layer Pooling73
I0808 08:30:58.617633 15710 net.cpp:425] Pooling73 <- Convolution73
I0808 08:30:58.617645 15710 net.cpp:399] Pooling73 -> Pooling73
I0808 08:30:58.617697 15710 net.cpp:141] Setting up Pooling73
I0808 08:30:58.617703 15710 net.cpp:148] Top shape: 64 20 30 30 (1152000)
I0808 08:30:58.617709 15710 net.cpp:156] Memory required for data: 1729953792
I0808 08:30:58.617714 15710 layer_factory.hpp:77] Creating layer Convolution74
I0808 08:30:58.617730 15710 net.cpp:91] Creating Layer Convolution74
I0808 08:30:58.617736 15710 net.cpp:425] Convolution74 <- Pooling73
I0808 08:30:58.617745 15710 net.cpp:399] Convolution74 -> Convolution74
I0808 08:30:58.618255 15710 net.cpp:141] Setting up Convolution74
I0808 08:30:58.618263 15710 net.cpp:148] Top shape: 64 50 26 26 (2163200)
I0808 08:30:58.618268 15710 net.cpp:156] Memory required for data: 1738606592
I0808 08:30:58.618275 15710 net.cpp:484] Sharing parameters 'conv2_w' owned by layer 'Convolution2', param index 0
I0808 08:30:58.618283 15710 net.cpp:484] Sharing parameters 'conv2_b' owned by layer 'Convolution2', param index 1
I0808 08:30:58.618288 15710 layer_factory.hpp:77] Creating layer Pooling74
I0808 08:30:58.618296 15710 net.cpp:91] Creating Layer Pooling74
I0808 08:30:58.618302 15710 net.cpp:425] Pooling74 <- Convolution74
I0808 08:30:58.618310 15710 net.cpp:399] Pooling74 -> Pooling74
I0808 08:30:58.618358 15710 net.cpp:141] Setting up Pooling74
I0808 08:30:58.618366 15710 net.cpp:148] Top shape: 64 50 13 13 (540800)
I0808 08:30:58.618371 15710 net.cpp:156] Memory required for data: 1740769792
I0808 08:30:58.618377 15710 layer_factory.hpp:77] Creating layer InnerProduct109
I0808 08:30:58.618388 15710 net.cpp:91] Creating Layer InnerProduct109
I0808 08:30:58.618394 15710 net.cpp:425] InnerProduct109 <- Pooling74
I0808 08:30:58.618403 15710 net.cpp:399] InnerProduct109 -> InnerProduct109
I0808 08:30:58.626441 15710 net.cpp:141] Setting up InnerProduct109
I0808 08:30:58.626457 15710 net.cpp:148] Top shape: 64 100 (6400)
I0808 08:30:58.626463 15710 net.cpp:156] Memory required for data: 1740795392
I0808 08:30:58.626471 15710 net.cpp:484] Sharing parameters 'ip1_w' owned by layer 'InnerProduct1', param index 0
I0808 08:30:58.626477 15710 net.cpp:484] Sharing parameters 'ip1_b' owned by layer 'InnerProduct1', param index 1
I0808 08:30:58.626498 15710 layer_factory.hpp:77] Creating layer ReLU73
I0808 08:30:58.626508 15710 net.cpp:91] Creating Layer ReLU73
I0808 08:30:58.626515 15710 net.cpp:425] ReLU73 <- InnerProduct109
I0808 08:30:58.626526 15710 net.cpp:386] ReLU73 -> InnerProduct109 (in-place)
I0808 08:30:58.626538 15710 net.cpp:141] Setting up ReLU73
I0808 08:30:58.626546 15710 net.cpp:148] Top shape: 64 100 (6400)
I0808 08:30:58.626551 15710 net.cpp:156] Memory required for data: 1740820992
I0808 08:30:58.626557 15710 layer_factory.hpp:77] Creating layer InnerProduct110
I0808 08:30:58.626566 15710 net.cpp:91] Creating Layer InnerProduct110
I0808 08:30:58.626572 15710 net.cpp:425] InnerProduct110 <- InnerProduct109
I0808 08:30:58.626585 15710 net.cpp:399] InnerProduct110 -> InnerProduct110
I0808 08:30:58.626751 15710 net.cpp:141] Setting up InnerProduct110
I0808 08:30:58.626760 15710 net.cpp:148] Top shape: 64 50 (3200)
I0808 08:30:58.626765 15710 net.cpp:156] Memory required for data: 1740833792
I0808 08:30:58.626771 15710 net.cpp:484] Sharing parameters 'ip2_w' owned by layer 'InnerProduct2', param index 0
I0808 08:30:58.626777 15710 net.cpp:484] Sharing parameters 'ip2_b' owned by layer 'InnerProduct2', param index 1
I0808 08:30:58.626783 15710 layer_factory.hpp:77] Creating layer Convolution75
I0808 08:30:58.626796 15710 net.cpp:91] Creating Layer Convolution75
I0808 08:30:58.626802 15710 net.cpp:425] Convolution75 <- c19
I0808 08:30:58.626814 15710 net.cpp:399] Convolution75 -> Convolution75
I0808 08:30:58.627156 15710 net.cpp:141] Setting up Convolution75
I0808 08:30:58.627164 15710 net.cpp:148] Top shape: 64 20 60 60 (4608000)
I0808 08:30:58.627169 15710 net.cpp:156] Memory required for data: 1759265792
I0808 08:30:58.627176 15710 net.cpp:484] Sharing parameters 'conv1_w' owned by layer 'Convolution1', param index 0
I0808 08:30:58.627182 15710 net.cpp:484] Sharing parameters 'conv1_b' owned by layer 'Convolution1', param index 1
I0808 08:30:58.627188 15710 layer_factory.hpp:77] Creating layer Pooling75
I0808 08:30:58.627200 15710 net.cpp:91] Creating Layer Pooling75
I0808 08:30:58.627207 15710 net.cpp:425] Pooling75 <- Convolution75
I0808 08:30:58.627216 15710 net.cpp:399] Pooling75 -> Pooling75
I0808 08:30:58.627264 15710 net.cpp:141] Setting up Pooling75
I0808 08:30:58.627285 15710 net.cpp:148] Top shape: 64 20 30 30 (1152000)
I0808 08:30:58.627291 15710 net.cpp:156] Memory required for data: 1763873792
I0808 08:30:58.627296 15710 layer_factory.hpp:77] Creating layer Convolution76
I0808 08:30:58.627310 15710 net.cpp:91] Creating Layer Convolution76
I0808 08:30:58.627316 15710 net.cpp:425] Convolution76 <- Pooling75
I0808 08:30:58.627326 15710 net.cpp:399] Convolution76 -> Convolution76
I0808 08:30:58.627837 15710 net.cpp:141] Setting up Convolution76
I0808 08:30:58.627846 15710 net.cpp:148] Top shape: 64 50 26 26 (2163200)
I0808 08:30:58.627851 15710 net.cpp:156] Memory required for data: 1772526592
I0808 08:30:58.627857 15710 net.cpp:484] Sharing parameters 'conv2_w' owned by layer 'Convolution2', param index 0
I0808 08:30:58.627864 15710 net.cpp:484] Sharing parameters 'conv2_b' owned by layer 'Convolution2', param index 1
I0808 08:30:58.627871 15710 layer_factory.hpp:77] Creating layer Pooling76
I0808 08:30:58.627878 15710 net.cpp:91] Creating Layer Pooling76
I0808 08:30:58.627884 15710 net.cpp:425] Pooling76 <- Convolution76
I0808 08:30:58.627894 15710 net.cpp:399] Pooling76 -> Pooling76
I0808 08:30:58.627941 15710 net.cpp:141] Setting up Pooling76
I0808 08:30:58.627949 15710 net.cpp:148] Top shape: 64 50 13 13 (540800)
I0808 08:30:58.627954 15710 net.cpp:156] Memory required for data: 1774689792
I0808 08:30:58.627960 15710 layer_factory.hpp:77] Creating layer InnerProduct111
I0808 08:30:58.627971 15710 net.cpp:91] Creating Layer InnerProduct111
I0808 08:30:58.627977 15710 net.cpp:425] InnerProduct111 <- Pooling76
I0808 08:30:58.627988 15710 net.cpp:399] InnerProduct111 -> InnerProduct111
I0808 08:30:58.636142 15710 net.cpp:141] Setting up InnerProduct111
I0808 08:30:58.636159 15710 net.cpp:148] Top shape: 64 100 (6400)
I0808 08:30:58.636181 15710 net.cpp:156] Memory required for data: 1774715392
I0808 08:30:58.636189 15710 net.cpp:484] Sharing parameters 'ip1_w' owned by layer 'InnerProduct1', param index 0
I0808 08:30:58.636198 15710 net.cpp:484] Sharing parameters 'ip1_b' owned by layer 'InnerProduct1', param index 1
I0808 08:30:58.636204 15710 layer_factory.hpp:77] Creating layer ReLU74
I0808 08:30:58.636214 15710 net.cpp:91] Creating Layer ReLU74
I0808 08:30:58.636220 15710 net.cpp:425] ReLU74 <- InnerProduct111
I0808 08:30:58.636236 15710 net.cpp:386] ReLU74 -> InnerProduct111 (in-place)
I0808 08:30:58.636247 15710 net.cpp:141] Setting up ReLU74
I0808 08:30:58.636255 15710 net.cpp:148] Top shape: 64 100 (6400)
I0808 08:30:58.636261 15710 net.cpp:156] Memory required for data: 1774740992
I0808 08:30:58.636266 15710 layer_factory.hpp:77] Creating layer InnerProduct112
I0808 08:30:58.636276 15710 net.cpp:91] Creating Layer InnerProduct112
I0808 08:30:58.636283 15710 net.cpp:425] InnerProduct112 <- InnerProduct111
I0808 08:30:58.636294 15710 net.cpp:399] InnerProduct112 -> InnerProduct112
I0808 08:30:58.636479 15710 net.cpp:141] Setting up InnerProduct112
I0808 08:30:58.636487 15710 net.cpp:148] Top shape: 64 50 (3200)
I0808 08:30:58.636492 15710 net.cpp:156] Memory required for data: 1774753792
I0808 08:30:58.636499 15710 net.cpp:484] Sharing parameters 'ip2_w' owned by layer 'InnerProduct2', param index 0
I0808 08:30:58.636507 15710 net.cpp:484] Sharing parameters 'ip2_b' owned by layer 'InnerProduct2', param index 1
I0808 08:30:58.636512 15710 layer_factory.hpp:77] Creating layer Concat19
I0808 08:30:58.636523 15710 net.cpp:91] Creating Layer Concat19
I0808 08:30:58.636528 15710 net.cpp:425] Concat19 <- InnerProduct110
I0808 08:30:58.636536 15710 net.cpp:425] Concat19 <- InnerProduct112
I0808 08:30:58.636548 15710 net.cpp:399] Concat19 -> Concat19
I0808 08:30:58.636577 15710 net.cpp:141] Setting up Concat19
I0808 08:30:58.636587 15710 net.cpp:148] Top shape: 64 100 (6400)
I0808 08:30:58.636593 15710 net.cpp:156] Memory required for data: 1774779392
I0808 08:30:58.636598 15710 layer_factory.hpp:77] Creating layer InnerProduct113
I0808 08:30:58.636608 15710 net.cpp:91] Creating Layer InnerProduct113
I0808 08:30:58.636615 15710 net.cpp:425] InnerProduct113 <- Concat19
I0808 08:30:58.636626 15710 net.cpp:399] InnerProduct113 -> InnerProduct113
I0808 08:30:58.636813 15710 net.cpp:141] Setting up InnerProduct113
I0808 08:30:58.636821 15710 net.cpp:148] Top shape: 64 64 (4096)
I0808 08:30:58.636827 15710 net.cpp:156] Memory required for data: 1774795776
I0808 08:30:58.636833 15710 net.cpp:484] Sharing parameters 'fc1_w' owned by layer 'InnerProduct5', param index 0
I0808 08:30:58.636842 15710 net.cpp:484] Sharing parameters 'fc1_b' owned by layer 'InnerProduct5', param index 1
I0808 08:30:58.636847 15710 layer_factory.hpp:77] Creating layer ReLU75
I0808 08:30:58.636857 15710 net.cpp:91] Creating Layer ReLU75
I0808 08:30:58.636863 15710 net.cpp:425] ReLU75 <- InnerProduct113
I0808 08:30:58.636871 15710 net.cpp:386] ReLU75 -> InnerProduct113 (in-place)
I0808 08:30:58.636880 15710 net.cpp:141] Setting up ReLU75
I0808 08:30:58.636888 15710 net.cpp:148] Top shape: 64 64 (4096)
I0808 08:30:58.636893 15710 net.cpp:156] Memory required for data: 1774812160
I0808 08:30:58.636899 15710 layer_factory.hpp:77] Creating layer InnerProduct114
I0808 08:30:58.636912 15710 net.cpp:91] Creating Layer InnerProduct114
I0808 08:30:58.636919 15710 net.cpp:425] InnerProduct114 <- InnerProduct113
I0808 08:30:58.636927 15710 net.cpp:399] InnerProduct114 -> InnerProduct114
I0808 08:30:58.637115 15710 net.cpp:141] Setting up InnerProduct114
I0808 08:30:58.637128 15710 net.cpp:148] Top shape: 64 32 (2048)
I0808 08:30:58.637138 15710 net.cpp:156] Memory required for data: 1774820352
I0808 08:30:58.637151 15710 net.cpp:484] Sharing parameters 'fc2_w' owned by layer 'InnerProduct6', param index 0
I0808 08:30:58.637164 15710 net.cpp:484] Sharing parameters 'fc2_b' owned by layer 'InnerProduct6', param index 1
I0808 08:30:58.637173 15710 layer_factory.hpp:77] Creating layer ReLU76
I0808 08:30:58.637197 15710 net.cpp:91] Creating Layer ReLU76
I0808 08:30:58.637205 15710 net.cpp:425] ReLU76 <- InnerProduct114
I0808 08:30:58.637217 15710 net.cpp:386] ReLU76 -> InnerProduct114 (in-place)
I0808 08:30:58.637228 15710 net.cpp:141] Setting up ReLU76
I0808 08:30:58.637238 15710 net.cpp:148] Top shape: 64 32 (2048)
I0808 08:30:58.637245 15710 net.cpp:156] Memory required for data: 1774828544
I0808 08:30:58.637253 15710 layer_factory.hpp:77] Creating layer dt18
I0808 08:30:58.637264 15710 net.cpp:91] Creating Layer dt18
I0808 08:30:58.637272 15710 net.cpp:425] dt18 <- InnerProduct114
I0808 08:30:58.637286 15710 net.cpp:399] dt18 -> dt18
I0808 08:30:58.637444 15710 net.cpp:141] Setting up dt18
I0808 08:30:58.637452 15710 net.cpp:148] Top shape: 64 1 (64)
I0808 08:30:58.637459 15710 net.cpp:156] Memory required for data: 1774828800
I0808 08:30:58.637465 15710 net.cpp:484] Sharing parameters 'fc3_w' owned by layer 'dt0', param index 0
I0808 08:30:58.637472 15710 net.cpp:484] Sharing parameters 'fc3_b' owned by layer 'dt0', param index 1
I0808 08:30:58.637478 15710 layer_factory.hpp:77] Creating layer con
I0808 08:30:58.637490 15710 net.cpp:91] Creating Layer con
…
I0808 08:30:58.637572 15710 net.cpp:425] con <- dt10
I0808 08:30:58.637578 15710 net.cpp:425] con <- dt11
I0808 08:30:58.637585 15710 net.cpp:425] con <- dt12
I0808 08:30:58.637591 15710 net.cpp:425] con <- dt13
I0808 08:30:58.637598 15710 net.cpp:425] con <- dt14
I0808 08:30:58.637605 15710 net.cpp:425] con <- dt15
I0808 08:30:58.637611 15710 net.cpp:425] con <- dt16
I0808 08:30:58.637619 15710 net.cpp:425] con <- dt17
I0808 08:30:58.637625 15710 net.cpp:425] con <- dt18
I0808 08:30:58.637636 15710 net.cpp:399] con -> con
I0808 08:30:58.637672 15710 net.cpp:141] Setting up con
I0808 08:30:58.637681 15710 net.cpp:148] Top shape: 64 19 (1216)
I0808 08:30:58.637686 15710 net.cpp:156] Memory required for data: 1774833664
I0808 08:30:58.637691 15710 layer_factory.hpp:77] Creating layer r1
I0808 08:30:58.637702 15710 net.cpp:91] Creating Layer r1
I0808 08:30:58.637708 15710 net.cpp:425] r1 <- con
I0808 08:30:58.637719 15710 net.cpp:399] r1 -> r1
I0808 08:30:58.637759 15710 net.cpp:141] Setting up r1
I0808 08:30:58.637768 15710 net.cpp:148] Top shape: 64 1 1 19 (1216)
I0808 08:30:58.637773 15710 net.cpp:156] Memory required for data: 1774838528
I0808 08:30:58.637778 15710 layer_factory.hpp:77] Creating layer p
I0808 08:30:58.637786 15710 net.cpp:91] Creating Layer p
I0808 08:30:58.637794 15710 net.cpp:425] p <- r1
I0808 08:30:58.637801 15710 net.cpp:399] p -> p
I0808 08:30:58.637850 15710 net.cpp:141] Setting up p
I0808 08:30:58.637858 15710 net.cpp:148] Top shape: 64 1 1 1 (64)
I0808 08:30:58.637864 15710 net.cpp:156] Memory required for data: 1774838784
I0808 08:30:58.637869 15710 layer_factory.hpp:77] Creating layer r2
I0808 08:30:58.637877 15710 net.cpp:91] Creating Layer r2
I0808 08:30:58.637882 15710 net.cpp:425] r2 <- p
I0808 08:30:58.637893 15710 net.cpp:399] r2 -> r2
I0808 08:30:58.637923 15710 net.cpp:141] Setting up r2
I0808 08:30:58.637930 15710 net.cpp:148] Top shape: 64 1 1 1 (64)
I0808 08:30:58.637935 15710 net.cpp:156] Memory required for data: 1774839040
I0808 08:30:58.637941 15710 layer_factory.hpp:77] Creating layer padL
I0808 08:30:58.637949 15710 net.cpp:91] Creating Layer padL
I0808 08:30:58.637955 15710 net.cpp:425] padL <- label_data_1_split_1
I0808 08:30:58.637966 15710 net.cpp:399] padL -> padL
I0808 08:30:58.637995 15710 net.cpp:141] Setting up padL
I0808 08:30:58.638006 15710 net.cpp:148] Top shape: 64 1 1 1 (64)
I0808 08:30:58.638021 15710 net.cpp:156] Memory required for data: 1774839296
I0808 08:30:58.638027 15710 layer_factory.hpp:77] Creating layer pad
I0808 08:30:58.638036 15710 net.cpp:91] Creating Layer pad
I0808 08:30:58.638042 15710 net.cpp:425] pad <- r2
I0808 08:30:58.638049 15710 net.cpp:425] pad <- padL
I0808 08:30:58.638057 15710 net.cpp:399] pad -> pad
I0808 08:30:58.638088 15710 net.cpp:141] Setting up pad
I0808 08:30:58.638097 15710 net.cpp:148] Top shape: 64 2 1 1 (128)
I0808 08:30:58.638103 15710 net.cpp:156] Memory required for data: 1774839808
I0808 08:30:58.638108 15710 layer_factory.hpp:77] Creating layer pad_pad_0_split
I0808 08:30:58.638116 15710 net.cpp:91] Creating Layer pad_pad_0_split
I0808 08:30:58.638121 15710 net.cpp:425] pad_pad_0_split <- pad
I0808 08:30:58.638133 15710 net.cpp:399] pad_pad_0_split -> pad_pad_0_split_0
I0808 08:30:58.638142 15710 net.cpp:399] pad_pad_0_split -> pad_pad_0_split_1
I0808 08:30:58.638190 15710 net.cpp:141] Setting up pad_pad_0_split
I0808 08:30:58.638197 15710 net.cpp:148] Top shape: 64 2 1 1 (128)
I0808 08:30:58.638205 15710 net.cpp:148] Top shape: 64 2 1 1 (128)
I0808 08:30:58.638211 15710 net.cpp:156] Memory required for data: 1774840832
I0808 08:30:58.638216 15710 layer_factory.hpp:77] Creating layer loss
I0808 08:30:58.638224 15710 net.cpp:91] Creating Layer loss
I0808 08:30:58.638229 15710 net.cpp:425] loss <- pad_pad_0_split_0
I0808 08:30:58.638237 15710 net.cpp:425] loss <- th_th_0_split_0
I0808 08:30:58.638245 15710 net.cpp:399] loss -> loss
…
