…
I0804 17:27:37.092459 10721 solver.cpp:81] Creating training net from train_net file: examples/scene/matchNetTrainHingeMini.prototxt
I0804 17:27:37.126016 10721 net.cpp:49] Initializing net from parameters: 
state {
  phase: TRAIN
}
layer {
  name: "data"
  type: "Data"
  top: "data"
  top: "label"
  include {
    phase: TRAIN
  }
  transform_param {
    scale: 0.0039215689
    mirror: true
    mean_file: "examples/scene/scene_mean.binaryproto"
  }
  data_param {
    source: "examples/scene/scene_train7_pairs_20000_pad.lmdb"
    batch_size: 64
    backend: LMDB
  }
}
layer {
  name: "th"
  type: "Threshold"
  bottom: "label"
  top: "th"
  threshold_param {
    threshold: 0
  }
}
layer {
  name: "i1"
  type: "Slice"
  bottom: "data"
  top: "i1"
  top: "i2"
  slice_param {
    slice_dim: 1
    slice_point: 3
  }
}
layer {
  name: "p1"
  type: "Pooling"
  bottom: "i1"
  top: "p1"
  pooling_param {
    pool: AVE
    kernel_size: 2
    stride: 2
  }
}
layer {
  name: "p2"
  type: "Pooling"
  bottom: "i2"
  top: "p2"
  pooling_param {
    pool: AVE
    kernel_size: 2
    stride: 2
  }
}
layer {
  name: "Input1"
  type: "Input"
  top: "Input1"
  include {
    phase: TRAIN
  }
  input_param {
    shape {
      dim: 64
      dim: 3
      dim: 64
      dim: 64
    }
  }
}
layer {
  name: "c11"
  type: "Crop"
  bottom: "i1"
  bottom: "Input1"
  top: "c11"
  crop_param {
    axis: 2
    offset: 0
    offset: 0
  }
}
layer {
  name: "Input2"
  type: "Input"
  top: "Input2"
  include {
    phase: TRAIN
  }
  input_param {
    shape {
      dim: 64
      dim: 3
      dim: 64
      dim: 64
    }
  }
}
layer {
  name: "c12"
  type: "Crop"
  bottom: "i1"
  bottom: "Input2"
  top: "c12"
  crop_param {
    axis: 2
    offset: 0
    offset: 32
  }
}
layer {
  name: "Input3"
  type: "Input"
  top: "Input3"
  include {
    phase: TRAIN
  }
  input_param {
    shape {
      dim: 64
      dim: 3
      dim: 64
      dim: 64
    }
  }
}
layer {
  name: "c13"
  type: "Crop"
  bottom: "i1"
  bottom: "Input3"
  top: "c13"
  crop_param {
    axis: 2
    offset: 0
    offset: 64
  }
}
layer {
  name: "Input4"
  type: "Input"
  top: "Input4"
  include {
    phase: TRAIN
  }
  input_param {
    shape {
      dim: 64
      dim: 3
      dim: 64
      dim: 64
    }
  }
}
layer {
  name: "c14"
  type: "Crop"
  bottom: "i1"
  bottom: "Input4"
  top: "c14"
  crop_param {
    axis: 2
    offset: 32
    offset: 0
  }
}
layer {
  name: "Input5"
  type: "Input"
  top: "Input5"
  include {
    phase: TRAIN
  }
  input_param {
    shape {
      dim: 64
      dim: 3
      dim: 64
      dim: 64
    }
  }
}
layer {
  name: "c15"
  type: "Crop"
  bottom: "i1"
  bottom: "Input5"
  top: "c15"
  crop_param {
    axis: 2
    offset: 32
    offset: 32
  }
}
layer {
  name: "Input6"
  type: "Input"
  top: "Input6"
  include {
    phase: TRAIN
  }
  input_param {
    shape {
      dim: 64
      dim: 3
      dim: 64
      dim: 64
    }
  }
}
layer {
  name: "c16"
  type: "Crop"
  bottom: "i1"
  bottom: "Input6"
  top: "c16"
  crop_param {
    axis: 2
    offset: 32
    offset: 64
  }
}
layer {
  name: "Input7"
  type: "Input"
  top: "Input7"
  include {
    phase: TRAIN
  }
  input_param {
    shape {
      dim: 64
      dim: 3
      dim: 64
      dim: 64
    }
  }
}
layer {
  name: "c17"
  type: "Crop"
  bottom: "i1"
  bottom: "Input7"
  top: "c17"
  crop_param {
    axis: 2
    offset: 64
    offset: 0
  }
}
layer {
  name: "Input8"
  type: "Input"
  top: "Input8"
  include {
    phase: TRAIN
  }
  input_param {
    shape {
      dim: 64
      dim: 3
      dim: 64
      dim: 64
    }
  }
}
layer {
  name: "c18"
  type: "Crop"
  bottom: "i1"
  bottom: "Input8"
  top: "c18"
  crop_param {
    axis: 2
    offset: 64
    offset: 32
  }
}
layer {
  name: "Input9"
  type: "Input"
  top: "Input9"
  include {
    phase: TRAIN
  }
  input_param {
    shape {
      dim: 64
      dim: 3
      dim: 64
      dim: 64
    }
  }
}
layer {
  name: "c19"
  type: "Crop"
  bottom: "i1"
  bottom: "Input9"
  top: "c19"
  crop_param {
    axis: 2
    offset: 64
    offset: 64
  }
}
layer {
  name: "Input10"
  type: "Input"
  top: "Input10"
  include {
    phase: TRAIN
  }
  input_param {
    shape {
      dim: 64
      dim: 3
      dim: 64
      dim: 64
    }
  }
}
layer {
  name: "c21"
  type: "Crop"
  bottom: "i2"
  bottom: "Input10"
  top: "c21"
  crop_param {
    axis: 2
    offset: 0
    offset: 0
  }
}
layer {
  name: "Input11"
  type: "Input"
  top: "Input11"
  include {
    phase: TRAIN
  }
  input_param {
    shape {
      dim: 64
      dim: 3
      dim: 64
      dim: 64
    }
  }
}
layer {
  name: "c22"
  type: "Crop"
  bottom: "i2"
  bottom: "Input11"
  top: "c22"
  crop_param {
    axis: 2
    offset: 0
    offset: 32
  }
}
layer {
  name: "Input12"
  type: "Input"
  top: "Input12"
  include {
    phase: TRAIN
  }
  input_param {
    shape {
      dim: 64
      dim: 3
      dim: 64
      dim: 64
    }
  }
}
layer {
  name: "c23"
  type: "Crop"
  bottom: "i2"
  bottom: "Input12"
  top: "c23"
  crop_param {
    axis: 2
    offset: 0
    offset: 64
  }
}
layer {
  name: "Input13"
  type: "Input"
  top: "Input13"
  include {
    phase: TRAIN
  }
  input_param {
    shape {
      dim: 64
      dim: 3
      dim: 64
      dim: 64
    }
  }
}
layer {
  name: "c24"
  type: "Crop"
  bottom: "i2"
  bottom: "Input13"
  top: "c24"
  crop_param {
    axis: 2
    offset: 32
    offset: 0
  }
}
layer {
  name: "Input14"
  type: "Input"
  top: "Input14"
  include {
    phase: TRAIN
  }
  input_param {
    shape {
      dim: 64
      dim: 3
      dim: 64
      dim: 64
    }
  }
}
layer {
  name: "c25"
  type: "Crop"
  bottom: "i2"
  bottom: "Input14"
  top: "c25"
  crop_param {
    axis: 2
    offset: 32
    offset: 32
  }
}
layer {
  name: "Input15"
  type: "Input"
  top: "Input15"
  include {
    phase: TRAIN
  }
  input_param {
    shape {
      dim: 64
      dim: 3
      dim: 64
      dim: 64
    }
  }
}
layer {
  name: "c26"
  type: "Crop"
  bottom: "i2"
  bottom: "Input15"
  top: "c26"
  crop_param {
    axis: 2
    offset: 32
    offset: 64
  }
}
layer {
  name: "Input16"
  type: "Input"
  top: "Input16"
  include {
    phase: TRAIN
  }
  input_param {
    shape {
      dim: 64
      dim: 3
      dim: 64
      dim: 64
    }
  }
}
layer {
  name: "c27"
  type: "Crop"
  bottom: "i2"
  bottom: "Input16"
  top: "c27"
  crop_param {
    axis: 2
    offset: 64
    offset: 0
  }
}
layer {
  name: "Input17"
  type: "Input"
  top: "Input17"
  include {
    phase: TRAIN
  }
  input_param {
    shape {
      dim: 64
      dim: 3
      dim: 64
      dim: 64
    }
  }
}
layer {
  name: "c28"
  type: "Crop"
  bottom: "i2"
  bottom: "Input17"
  top: "c28"
  crop_param {
    axis: 2
    offset: 64
    offset: 32
  }
}
layer {
  name: "Input18"
  type: "Input"
  top: "Input18"
  include {
    phase: TRAIN
  }
  input_param {
    shape {
      dim: 64
      dim: 3
      dim: 64
      dim: 64
    }
  }
}
layer {
  name: "c29"
  type: "Crop"
  bottom: "i2"
  bottom: "Input18"
  top: "c29"
  crop_param {
    axis: 2
    offset: 64
    offset: 64
  }
}
layer {
  name: "conv0"
  type: "Convolution"
  bottom: "p1"
  top: "Convolution1"
  param {
    lr_mult: 1
    decay_mult: 1
  }
  param {
    lr_mult: 2
    decay_mult: 0
  }
  convolution_param {
    num_output: 24
    pad: 3
    kernel_size: 7
    group: 1
    stride: 1
    weight_filler {
      type: "gaussian"
      std: 0.01
    }
    bias_filler {
      type: "constant"
      value: 0
    }
  }
}
layer {
  name: "ReLU1"
  type: "ReLU"
  bottom: "Convolution1"
  top: "Convolution1"
}
layer {
  name: "pool0"
  type: "Pooling"
  bottom: "Convolution1"
  top: "Pooling1"
  pooling_param {
    pool: MAX
    kernel_size: 3
    stride: 2
  }
}
layer {
  name: "conv1"
  type: "Convolution"
  bottom: "Pooling1"
  top: "Convolution2"
  param {
    lr_mult: 1
    decay_mult: 1
  }
  param {
    lr_mult: 2
    decay_mult: 0
  }
  convolution_param {
    num_output: 64
    pad: 2
    kernel_size: 5
    group: 1
    stride: 1
    weight_filler {
      type: "gaussian"
      std: 0.01
    }
    bias_filler {
      type: "constant"
      value: 0
    }
  }
}
layer {
  name: "ReLU2"
  type: "ReLU"
  bottom: "Convolution2"
  top: "Convolution2"
}
layer {
  name: "pool1"
  type: "Pooling"
  bottom: "Convolution2"
  top: "Pooling2"
  pooling_param {
    pool: MAX
    kernel_size: 3
    stride: 2
  }
}
layer {
  name: "conv2"
  type: "Convolution"
  bottom: "Pooling2"
  top: "Convolution3"
  param {
    lr_mult: 1
    decay_mult: 1
  }
  param {
    lr_mult: 2
    decay_mult: 0
  }
  convolution_param {
    num_output: 96
    pad: 1
    kernel_size: 3
    group: 1
    stride: 1
    weight_filler {
      type: "gaussian"
      std: 0.01
    }
    bias_filler {
      type: "constant"
      value: 0
    }
  }
}
layer {
  name: "ReLU3"
  type: "ReLU"
  bottom: "Convolution3"
  top: "Convolution3"
}
layer {
  name: "conv3"
  type: "Convolution"
  bottom: "Convolution3"
  top: "Convolution4"
  param {
    lr_mult: 1
    decay_mult: 1
  }
  param {
    lr_mult: 2
    decay_mult: 0
  }
  convolution_param {
    num_output: 96
    pad: 1
    kernel_size: 3
    group: 1
    stride: 1
    weight_filler {
      type: "gaussian"
      std: 0.01
    }
    bias_filler {
      type: "constant"
      value: 0
    }
  }
}
layer {
  name: "ReLU4"
  type: "ReLU"
  bottom: "Convolution4"
  top: "Convolution4"
}
layer {
  name: "conv4"
  type: "Convolution"
  bottom: "Convolution4"
  top: "Convolution5"
  param {
    lr_mult: 1
    decay_mult: 1
  }
  param {
    lr_mult: 2
    decay_mult: 0
  }
  convolution_param {
    num_output: 64
    pad: 1
    kernel_size: 3
    group: 1
    stride: 1
    weight_filler {
      type: "gaussian"
      std: 0.01
    }
    bias_filler {
      type: "constant"
      value: 0
    }
  }
}
layer {
  name: "ReLU5"
  type: "ReLU"
  bottom: "Convolution5"
  top: "Convolution5"
}
layer {
  name: "pool4"
  type: "Pooling"
  bottom: "Convolution5"
  top: "Pooling3"
  pooling_param {
    pool: MAX
    kernel_size: 3
    stride: 2
  }
}
layer {
  name: "conv0"
  type: "Convolution"
  bottom: "p2"
  top: "Convolution6"
  param {
    lr_mult: 1
    decay_mult: 1
  }
  param {
    lr_mult: 2
    decay_mult: 0
  }
  convolution_param {
    num_output: 24
    pad: 3
    kernel_size: 7
    group: 1
    stride: 1
    weight_filler {
      type: "gaussian"
      std: 0.01
    }
    bias_filler {
      type: "constant"
      value: 0
    }
  }
}
layer {
  name: "ReLU6"
  type: "ReLU"
  bottom: "Convolution6"
  top: "Convolution6"
}
layer {
  name: "pool0"
  type: "Pooling"
  bottom: "Convolution6"
  top: "Pooling4"
  pooling_param {
    pool: MAX
    kernel_size: 3
    stride: 2
  }
}
layer {
  name: "conv1"
  type: "Convolution"
  bottom: "Pooling4"
  top: "Convolution7"
  param {
    lr_mult: 1
    decay_mult: 1
  }
  param {
    lr_mult: 2
    decay_mult: 0
  }
  convolution_param {
    num_output: 64
    pad: 2
    kernel_size: 5
    group: 1
    stride: 1
    weight_filler {
      type: "gaussian"
      std: 0.01
    }
    bias_filler {
      type: "constant"
      value: 0
    }
  }
}
layer {
  name: "ReLU7"
  type: "ReLU"
  bottom: "Convolution7"
  top: "Convolution7"
}
layer {
  name: "pool1"
  type: "Pooling"
  bottom: "Convolution7"
  top: "Pooling5"
  pooling_param {
    pool: MAX
    kernel_size: 3
    stride: 2
  }
}
layer {
  name: "conv2"
  type: "Convolution"
  bottom: "Pooling5"
  top: "Convolution8"
  param {
    lr_mult: 1
    decay_mult: 1
  }
  param {
    lr_mult: 2
    decay_mult: 0
  }
  convolution_param {
    num_output: 96
    pad: 1
    kernel_size: 3
    group: 1
    stride: 1
    weight_filler {
      type: "gaussian"
      std: 0.01
    }
    bias_filler {
      type: "constant"
      value: 0
    }
  }
}
layer {
  name: "ReLU8"
  type: "ReLU"
  bottom: "Convolution8"
  top: "Convolution8"
}
layer {
  name: "conv3"
  type: "Convolution"
  bottom: "Convolution8"
  top: "Convolution9"
  param {
    lr_mult: 1
    decay_mult: 1
  }
  param {
    lr_mult: 2
    decay_mult: 0
  }
  convolution_param {
    num_output: 96
    pad: 1
    kernel_size: 3
    group: 1
    stride: 1
    weight_filler {
      type: "gaussian"
      std: 0.01
    }
    bias_filler {
      type: "constant"
      value: 0
    }
  }
}
layer {
  name: "ReLU9"
  type: "ReLU"
  bottom: "Convolution9"
  top: "Convolution9"
}
layer {
  name: "conv4"
  type: "Convolution"
  bottom: "Convolution9"
  top: "Convolution10"
  param {
    lr_mult: 1
    decay_mult: 1
  }
  param {
    lr_mult: 2
    decay_mult: 0
  }
  convolution_param {
    num_output: 64
    pad: 1
    kernel_size: 3
    group: 1
    stride: 1
    weight_filler {
      type: "gaussian"
      std: 0.01
    }
    bias_filler {
      type: "constant"
      value: 0
    }
  }
}
layer {
  name: "ReLU10"
  type: "ReLU"
  bottom: "Convolution10"
  top: "Convolution10"
}
layer {
  name: "pool4"
  type: "Pooling"
  bottom: "Convolution10"
  top: "Pooling6"
  pooling_param {
    pool: MAX
    kernel_size: 3
    stride: 2
  }
}
layer {
  name: "Concat1"
  type: "Concat"
  bottom: "Pooling3"
  bottom: "Pooling6"
  top: "Concat1"
  concat_param {
    axis: 1
  }
}
layer {
  name: "InnerProduct1"
  type: "InnerProduct"
  bottom: "Concat1"
  top: "InnerProduct1"
  param {
    name: "fc1_w"
    lr_mult: 1
  }
  param {
    name: "fc1_b"
    lr_mult: 2
  }
  inner_product_param {
    num_output: 128
    weight_filler {
      type: "xavier"
    }
    bias_filler {
      type: "constant"
    }
  }
}
layer {
  name: "ReLU11"
  type: "ReLU"
  bottom: "InnerProduct1"
  top: "InnerProduct1"
}
layer {
  name: "InnerProduct2"
  type: "InnerProduct"
  bottom: "InnerProduct1"
  top: "InnerProduct2"
  param {
    name: "fc2_w"
    lr_mult: 1
  }
  param {
    name: "fc2_b"
    lr_mult: 2
  }
  inner_product_param {
    num_output: 128
    weight_filler {
      type: "xavier"
    }
    bias_filler {
      type: "constant"
    }
  }
}
layer {
  name: "ReLU12"
  type: "ReLU"
  bottom: "InnerProduct2"
  top: "InnerProduct2"
}
layer {
  name: "dt0"
  type: "InnerProduct"
  bottom: "InnerProduct2"
  top: "dt0"
  param {
    name: "fc3_w"
    lr_mult: 1
  }
  param {
    name: "fc3_b"
    lr_mult: 2
  }
  inner_product_param {
    num_output: 1
    weight_filler {
      type: "xavier"
    }
    bias_filler {
      type: "constant"
    }
  }
}
layer {
  name: "conv0"
  type: "Convolution"
  bottom: "p1"
  top: "Convolution11"
  param {
    lr_mult: 1
    decay_mult: 1
  }
  param {
    lr_mult: 2
    decay_mult: 0
  }
  convolution_param {
    num_output: 24
    pad: 3
    kernel_size: 7
    group: 1
    stride: 1
    weight_filler {
      type: "gaussian"
      std: 0.01
    }
    bias_filler {
      type: "constant"
      value: 0
    }
  }
}
layer {
  name: "ReLU13"
  type: "ReLU"
  bottom: "Convolution11"
  top: "Convolution11"
}
layer {
  name: "pool0"
  type: "Pooling"
  bottom: "Convolution11"
  top: "Pooling7"
  pooling_param {
    pool: MAX
    kernel_size: 3
    stride: 2
  }
}
layer {
  name: "conv1"
  type: "Convolution"
  bottom: "Pooling7"
  top: "Convolution12"
  param {
    lr_mult: 1
    decay_mult: 1
  }
  param {
    lr_mult: 2
    decay_mult: 0
  }
  convolution_param {
    num_output: 64
    pad: 2
    kernel_size: 5
    group: 1
    stride: 1
    weight_filler {
      type: "gaussian"
      std: 0.01
    }
    bias_filler {
      type: "constant"
      value: 0
    }
  }
}
layer {
  name: "ReLU14"
  type: "ReLU"
  bottom: "Convolution12"
  top: "Convolution12"
}
layer {
  name: "pool1"
  type: "Pooling"
  bottom: "Convolution12"
  top: "Pooling8"
  pooling_param {
    pool: MAX
    kernel_size: 3
    stride: 2
  }
}
layer {
  name: "conv2"
  type: "Convolution"
  bottom: "Pooling8"
  top: "Convolution13"
  param {
    lr_mult: 1
    decay_mult: 1
  }
  param {
    lr_mult: 2
    decay_mult: 0
  }
  convolution_param {
    num_output: 96
    pad: 1
    kernel_size: 3
    group: 1
    stride: 1
    weight_filler {
      type: "gaussian"
      std: 0.01
    }
    bias_filler {
      type: "constant"
      value: 0
    }
  }
}
layer {
  name: "ReLU15"
  type: "ReLU"
  bottom: "Convolution13"
  top: "Convolution13"
}
layer {
  name: "conv3"
  type: "Convolution"
  bottom: "Convolution13"
  top: "Convolution14"
  param {
    lr_mult: 1
    decay_mult: 1
  }
  param {
    lr_mult: 2
    decay_mult: 0
  }
  convolution_param {
    num_output: 96
    pad: 1
    kernel_size: 3
    group: 1
    stride: 1
    weight_filler {
      type: "gaussian"
      std: 0.01
    }
    bias_filler {
      type: "constant"
      value: 0
    }
  }
}
layer {
  name: "ReLU16"
  type: "ReLU"
  bottom: "Convolution14"
  top: "Convolution14"
}
layer {
  name: "conv4"
  type: "Convolution"
  bottom: "Convolution14"
  top: "Convolution15"
  param {
    lr_mult: 1
    decay_mult: 1
  }
  param {
    lr_mult: 2
    decay_mult: 0
  }
  convolution_param {
    num_output: 64
    pad: 1
    kernel_size: 3
    group: 1
    stride: 1
    weight_filler {
      type: "gaussian"
      std: 0.01
    }
    bias_filler {
      type: "constant"
      value: 0
    }
  }
}
layer {
  name: "ReLU17"
  type: "ReLU"
  bottom: "Convolution15"
  top: "Convolution15"
}
layer {
  name: "pool4"
  type: "Pooling"
  bottom: "Convolution15"
  top: "Pooling9"
  pooling_param {
    pool: MAX
    kernel_size: 3
    stride: 2
  }
}
layer {
  name: "conv0"
  type: "Convolution"
  bottom: "c21"
  top: "Convolution16"
  param {
    lr_mult: 1
    decay_mult: 1
  }
  param {
    lr_mult: 2
    decay_mult: 0
  }
  convolution_param {
    num_output: 24
    pad: 3
    kernel_size: 7
    group: 1
    stride: 1
    weight_filler {
      type: "gaussian"
      std: 0.01
    }
    bias_filler {
      type: "constant"
      value: 0
    }
  }
}
layer {
  name: "ReLU18"
  type: "ReLU"
  bottom: "Convolution16"
  top: "Convolution16"
}
layer {
  name: "pool0"
  type: "Pooling"
  bottom: "Convolution16"
  top: "Pooling10"
  pooling_param {
    pool: MAX
    kernel_size: 3
    stride: 2
  }
}
layer {
  name: "conv1"
  type: "Convolution"
  bottom: "Pooling10"
  top: "Convolution17"
  param {
    lr_mult: 1
    decay_mult: 1
  }
  param {
    lr_mult: 2
    decay_mult: 0
  }
  convolution_param {
    num_output: 64
    pad: 2
    kernel_size: 5
    group: 1
    stride: 1
    weight_filler {
      type: "gaussian"
      std: 0.01
    }
    bias_filler {
      type: "constant"
      value: 0
    }
  }
}
layer {
  name: "ReLU19"
  type: "ReLU"
  bottom: "Convolution17"
  top: "Convolution17"
}
layer {
  name: "pool1"
  type: "Pooling"
  bottom: "Convolution17"
  top: "Pooling11"
  pooling_param {
    pool: MAX
    kernel_size: 3
    stride: 2
  }
}
layer {
  name: "conv2"
  type: "Convolution"
  bottom: "Pooling11"
  top: "Convolution18"
  param {
    lr_mult: 1
    decay_mult: 1
  }
  param {
    lr_mult: 2
    decay_mult: 0
  }
  convolution_param {
    num_output: 96
    pad: 1
    kernel_size: 3
    group: 1
    stride: 1
    weight_filler {
      type: "gaussian"
      std: 0.01
    }
    bias_filler {
      type: "constant"
      value: 0
    }
  }
}
layer {
  name: "ReLU20"
  type: "ReLU"
  bottom: "Convolution18"
  top: "Convolution18"
}
layer {
  name: "conv3"
  type: "Convolution"
  bottom: "Convolution18"
  top: "Convolution19"
  param {
    lr_mult: 1
    decay_mult: 1
  }
  param {
    lr_mult: 2
    decay_mult: 0
  }
  convolution_param {
    num_output: 96
    pad: 1
    kernel_size: 3
    group: 1
    stride: 1
    weight_filler {
      type: "gaussian"
      std: 0.01
    }
    bias_filler {
      type: "constant"
      value: 0
    }
  }
}
layer {
  name: "ReLU21"
  type: "ReLU"
  bottom: "Convolution19"
  top: "Convolution19"
}
layer {
  name: "conv4"
  type: "Convolution"
  bottom: "Convolution19"
  top: "Convolution20"
  param {
    lr_mult: 1
    decay_mult: 1
  }
  param {
    lr_mult: 2
    decay_mult: 0
  }
  convolution_param {
    num_output: 64
    pad: 1
    kernel_size: 3
    group: 1
    stride: 1
    weight_filler {
      type: "gaussian"
      std: 0.01
    }
    bias_filler {
      type: "constant"
      value: 0
    }
  }
}
layer {
  name: "ReLU22"
  type: "ReLU"
  bottom: "Convolution20"
  top: "Convolution20"
}
layer {
  name: "pool4"
  type: "Pooling"
  bottom: "Convolution20"
  top: "Pooling12"
  pooling_param {
    pool: MAX
    kernel_size: 3
    stride: 2
  }
}
layer {
  name: "Concat2"
  type: "Concat"
  bottom: "Pooling9"
  bottom: "Pooling12"
  top: "Concat2"
  concat_param {
    axis: 1
  }
}
layer {
  name: "InnerProduct3"
  type: "InnerProduct"
  bottom: "Concat2"
  top: "InnerProduct3"
  param {
    name: "fc1_w"
    lr_mult: 1
  }
  param {
    name: "fc1_b"
    lr_mult: 2
  }
  inner_product_param {
    num_output: 128
    weight_filler {
      type: "xavier"
    }
    bias_filler {
      type: "constant"
    }
  }
}
layer {
  name: "ReLU23"
  type: "ReLU"
  bottom: "InnerProduct3"
  top: "InnerProduct3"
}
layer {
  name: "InnerProduct4"
  type: "InnerProduct"
  bottom: "InnerProduct3"
  top: "InnerProduct4"
  param {
    name: "fc2_w"
    lr_mult: 1
  }
  param {
    name: "fc2_b"
    lr_mult: 2
  }
  inner_product_param {
    num_output: 128
    weight_filler {
      type: "xavier"
    }
    bias_filler {
      type: "constant"
    }
  }
}
layer {
  name: "ReLU24"
  type: "ReLU"
  bottom: "InnerProduct4"
  top: "InnerProduct4"
}
layer {
  name: "dt1"
  type: "InnerProduct"
  bottom: "InnerProduct4"
  top: "dt1"
  param {
    name: "fc3_w"
    lr_mult: 1
  }
  param {
    name: "fc3_b"
    lr_mult: 2
  }
  inner_product_param {
    num_output: 1
    weight_filler {
      type: "xavier"
    }
    bias_filler {
      type: "constant"
    }
  }
}
layer {
  name: "conv0"
  type: "Convolution"
  bottom: "p1"
  top: "Convolution21"
  param {
    lr_mult: 1
    decay_mult: 1
  }
  param {
    lr_mult: 2
    decay_mult: 0
  }
  convolution_param {
    num_output: 24
    pad: 3
    kernel_size: 7
    group: 1
    stride: 1
    weight_filler {
      type: "gaussian"
      std: 0.01
    }
    bias_filler {
      type: "constant"
      value: 0
    }
  }
}
layer {
  name: "ReLU25"
  type: "ReLU"
  bottom: "Convolution21"
  top: "Convolution21"
}
layer {
  name: "pool0"
  type: "Pooling"
  bottom: "Convolution21"
  top: "Pooling13"
  pooling_param {
    pool: MAX
    kernel_size: 3
    stride: 2
  }
}
layer {
  name: "conv1"
  type: "Convolution"
  bottom: "Pooling13"
  top: "Convolution22"
  param {
    lr_mult: 1
    decay_mult: 1
  }
  param {
    lr_mult: 2
    decay_mult: 0
  }
  convolution_param {
    num_output: 64
    pad: 2
    kernel_size: 5
    group: 1
    stride: 1
    weight_filler {
      type: "gaussian"
      std: 0.01
    }
    bias_filler {
      type: "constant"
      value: 0
    }
  }
}
layer {
  name: "ReLU26"
  type: "ReLU"
  bottom: "Convolution22"
  top: "Convolution22"
}
layer {
  name: "pool1"
  type: "Pooling"
  bottom: "Convolution22"
  top: "Pooling14"
  pooling_param {
    pool: MAX
    kernel_size: 3
    stride: 2
  }
}
layer {
  name: "conv2"
  type: "Convolution"
  bottom: "Pooling14"
  top: "Convolution23"
  param {
    lr_mult: 1
    decay_mult: 1
  }
  param {
    lr_mult: 2
    decay_mult: 0
  }
  convolution_param {
    num_output: 96
    pad: 1
    kernel_size: 3
    group: 1
    stride: 1
    weight_filler {
      type: "gaussian"
      std: 0.01
    }
    bias_filler {
      type: "constant"
      value: 0
    }
  }
}
layer {
  name: "ReLU27"
  type: "ReLU"
  bottom: "Convolution23"
  top: "Convolution23"
}
layer {
  name: "conv3"
  type: "Convolution"
  bottom: "Convolution23"
  top: "Convolution24"
  param {
    lr_mult: 1
    decay_mult: 1
  }
  param {
    lr_mult: 2
    decay_mult: 0
  }
  convolution_param {
    num_output: 96
    pad: 1
    kernel_size: 3
    group: 1
    stride: 1
    weight_filler {
      type: "gaussian"
      std: 0.01
    }
    bias_filler {
      type: "constant"
      value: 0
    }
  }
}
layer {
  name: "ReLU28"
  type: "ReLU"
  bottom: "Convolution24"
  top: "Convolution24"
}
layer {
  name: "conv4"
  type: "Convolution"
  bottom: "Convolution24"
  top: "Convolution25"
  param {
    lr_mult: 1
    decay_mult: 1
  }
  param {
    lr_mult: 2
    decay_mult: 0
  }
  convolution_param {
    num_output: 64
    pad: 1
    kernel_size: 3
    group: 1
    stride: 1
    weight_filler {
      type: "gaussian"
      std: 0.01
    }
    bias_filler {
      type: "constant"
      value: 0
    }
  }
}
layer {
  name: "ReLU29"
  type: "ReLU"
  bottom: "Convolution25"
  top: "Convolution25"
}
layer {
  name: "pool4"
  type: "Pooling"
  bottom: "Convolution25"
  top: "Pooling15"
  pooling_param {
    pool: MAX
    kernel_size: 3
    stride: 2
  }
}
layer {
  name: "conv0"
  type: "Convolution"
  bottom: "c22"
  top: "Convolution26"
  param {
    lr_mult: 1
    decay_mult: 1
  }
  param {
    lr_mult: 2
    decay_mult: 0
  }
  convolution_param {
    num_output: 24
    pad: 3
    kernel_size: 7
    group: 1
    stride: 1
    weight_filler {
      type: "gaussian"
      std: 0.01
    }
    bias_filler {
      type: "constant"
      value: 0
    }
  }
}
layer {
  name: "ReLU30"
  type: "ReLU"
  bottom: "Convolution26"
  top: "Convolution26"
}
layer {
  name: "pool0"
  type: "Pooling"
  bottom: "Convolution26"
  top: "Pooling16"
  pooling_param {
    pool: MAX
    kernel_size: 3
    stride: 2
  }
}
layer {
  name: "conv1"
  type: "Convolution"
  bottom: "Pooling16"
  top: "Convolution27"
  param {
    lr_mult: 1
    decay_mult: 1
  }
  param {
    lr_mult: 2
    decay_mult: 0
  }
  convolution_param {
    num_output: 64
    pad: 2
    kernel_size: 5
    group: 1
    stride: 1
    weight_filler {
      type: "gaussian"
      std: 0.01
    }
    bias_filler {
      type: "constant"
      value: 0
    }
  }
}
layer {
  name: "ReLU31"
  type: "ReLU"
  bottom: "Convolution27"
  top: "Convolution27"
}
layer {
  name: "pool1"
  type: "Pooling"
  bottom: "Convolution27"
  top: "Pooling17"
  pooling_param {
    pool: MAX
    kernel_size: 3
    stride: 2
  }
}
layer {
  name: "conv2"
  type: "Convolution"
  bottom: "Pooling17"
  top: "Convolution28"
  param {
    lr_mult: 1
    decay_mult: 1
  }
  param {
    lr_mult: 2
    decay_mult: 0
  }
  convolution_param {
    num_output: 96
    pad: 1
    kernel_size: 3
    group: 1
    stride: 1
    weight_filler {
      type: "gaussian"
      std: 0.01
    }
    bias_filler {
      type: "constant"
      value: 0
    }
  }
}
layer {
  name: "ReLU32"
  type: "ReLU"
  bottom: "Convolution28"
  top: "Convolution28"
}
layer {
  name: "conv3"
  type: "Convolution"
  bottom: "Convolution28"
  top: "Convolution29"
  param {
    lr_mult: 1
    decay_mult: 1
  }
  param {
    lr_mult: 2
    decay_mult: 0
  }
  convolution_param {
    num_output: 96
    pad: 1
    kernel_size: 3
    group: 1
    stride: 1
    weight_filler {
      type: "gaussian"
      std: 0.01
    }
    bias_filler {
      type: "constant"
      value: 0
    }
  }
}
layer {
  name: "ReLU33"
  type: "ReLU"
  bottom: "Convolution29"
  top: "Convolution29"
}
layer {
  name: "conv4"
  type: "Convolution"
  bottom: "Convolution29"
  top: "Convolution30"
  param {
    lr_mult: 1
    decay_mult: 1
  }
  param {
    lr_mult: 2
    decay_mult: 0
  }
  convolution_param {
    num_output: 64
    pad: 1
    kernel_size: 3
    group: 1
    stride: 1
    weight_filler {
      type: "gaussian"
      std: 0.01
    }
    bias_filler {
      type: "constant"
      value: 0
    }
  }
}
layer {
  name: "ReLU34"
  type: "ReLU"
  bottom: "Convolution30"
  top: "Convolution30"
}
layer {
  name: "pool4"
  type: "Pooling"
  bottom: "Convolution30"
  top: "Pooling18"
  pooling_param {
    pool: MAX
    kernel_size: 3
    stride: 2
  }
}
layer {
  name: "Concat3"
  type: "Concat"
  bottom: "Pooling15"
  bottom: "Pooling18"
  top: "Concat3"
  concat_param {
    axis: 1
  }
}
layer {
  name: "InnerProduct5"
  type: "InnerProduct"
  bottom: "Concat3"
  top: "InnerProduct5"
  param {
    name: "fc1_w"
    lr_mult: 1
  }
  param {
    name: "fc1_b"
    lr_mult: 2
  }
  inner_product_param {
    num_output: 128
    weight_filler {
      type: "xavier"
    }
    bias_filler {
      type: "constant"
    }
  }
}
layer {
  name: "ReLU35"
  type: "ReLU"
  bottom: "InnerProduct5"
  top: "InnerProduct5"
}
layer {
  name: "InnerProduct6"
  type: "InnerProduct"
  bottom: "InnerProduct5"
  top: "InnerProduct6"
  param {
    name: "fc2_w"
    lr_mult: 1
  }
  param {
    name: "fc2_b"
    lr_mult: 2
  }
  inner_product_param {
    num_output: 128
    weight_filler {
      type: "xavier"
    }
    bias_filler {
      type: "constant"
    }
  }
}
layer {
  name: "ReLU36"
  type: "ReLU"
  bottom: "InnerProduct6"
  top: "InnerProduct6"
}
layer {
  name: "dt2"
  type: "InnerProduct"
  bottom: "InnerProduct6"
  top: "dt2"
  param {
    name: "fc3_w"
    lr_mult: 1
  }
  param {
    name: "fc3_b"
    lr_mult: 2
  }
  inner_product_param {
    num_output: 1
    weight_filler {
      type: "xavier"
    }
    bias_filler {
      type: "constant"
    }
  }
}
layer {
  name: "conv0"
  type: "Convolution"
  bottom: "p1"
  top: "Convolution31"
  param {
    lr_mult: 1
    decay_mult: 1
  }
  param {
    lr_mult: 2
    decay_mult: 0
  }
  convolution_param {
    num_output: 24
    pad: 3
    kernel_size: 7
    group: 1
    stride: 1
    weight_filler {
      type: "gaussian"
      std: 0.01
    }
    bias_filler {
      type: "constant"
      value: 0
    }
  }
}
layer {
  name: "ReLU37"
  type: "ReLU"
  bottom: "Convolution31"
  top: "Convolution31"
}
layer {
  name: "pool0"
  type: "Pooling"
  bottom: "Convolution31"
  top: "Pooling19"
  pooling_param {
    pool: MAX
    kernel_size: 3
    stride: 2
  }
}
layer {
  name: "conv1"
  type: "Convolution"
  bottom: "Pooling19"
  top: "Convolution32"
  param {
    lr_mult: 1
    decay_mult: 1
  }
  param {
    lr_mult: 2
    decay_mult: 0
  }
  convolution_param {
    num_output: 64
    pad: 2
    kernel_size: 5
    group: 1
    stride: 1
    weight_filler {
      type: "gaussian"
      std: 0.01
    }
    bias_filler {
      type: "constant"
      value: 0
    }
  }
}
layer {
  na
I0804 17:27:37.130251 10721 layer_factory.hpp:77] Creating layer data
I0804 17:27:37.131029 10721 net.cpp:91] Creating Layer data
I0804 17:27:37.131045 10721 net.cpp:399] data -> data
I0804 17:27:37.131079 10721 net.cpp:399] data -> label
I0804 17:27:37.131098 10721 data_transformer.cpp:25] Loading mean file from: examples/scene/scene_mean.binaryproto
I0804 17:27:37.132666 10727 db_lmdb.cpp:35] Opened lmdb examples/scene/scene_train7_pairs_20000_pad.lmdb
I0804 17:27:37.153472 10721 data_layer.cpp:41] output data size: 64,6,128,128
I0804 17:27:37.216650 10721 net.cpp:141] Setting up data
I0804 17:27:37.216696 10721 net.cpp:148] Top shape: 64 6 128 128 (6291456)
I0804 17:27:37.216711 10721 net.cpp:148] Top shape: 64 (64)
I0804 17:27:37.216718 10721 net.cpp:156] Memory required for data: 25166080
I0804 17:27:37.216735 10721 layer_factory.hpp:77] Creating layer label_data_1_split
I0804 17:27:37.216763 10721 net.cpp:91] Creating Layer label_data_1_split
I0804 17:27:37.216774 10721 net.cpp:425] label_data_1_split <- label
I0804 17:27:37.216792 10721 net.cpp:399] label_data_1_split -> label_data_1_split_0
I0804 17:27:37.216812 10721 net.cpp:399] label_data_1_split -> label_data_1_split_1
I0804 17:27:37.216913 10721 net.cpp:141] Setting up label_data_1_split
I0804 17:27:37.216928 10721 net.cpp:148] Top shape: 64 (64)
I0804 17:27:37.216939 10721 net.cpp:148] Top shape: 64 (64)
I0804 17:27:37.216948 10721 net.cpp:156] Memory required for data: 25166592
I0804 17:27:37.216955 10721 layer_factory.hpp:77] Creating layer th
I0804 17:27:37.216975 10721 net.cpp:91] Creating Layer th
I0804 17:27:37.216989 10721 net.cpp:425] th <- label_data_1_split_0
I0804 17:27:37.217000 10721 net.cpp:399] th -> th
I0804 17:27:37.217044 10721 net.cpp:141] Setting up th
I0804 17:27:37.217059 10721 net.cpp:148] Top shape: 64 (64)
I0804 17:27:37.217067 10721 net.cpp:156] Memory required for data: 25166848
I0804 17:27:37.217075 10721 layer_factory.hpp:77] Creating layer th_th_0_split
I0804 17:27:37.217087 10721 net.cpp:91] Creating Layer th_th_0_split
I0804 17:27:37.217093 10721 net.cpp:425] th_th_0_split <- th
I0804 17:27:37.217106 10721 net.cpp:399] th_th_0_split -> th_th_0_split_0
I0804 17:27:37.217142 10721 net.cpp:399] th_th_0_split -> th_th_0_split_1
I0804 17:27:37.217195 10721 net.cpp:141] Setting up th_th_0_split
I0804 17:27:37.217207 10721 net.cpp:148] Top shape: 64 (64)
I0804 17:27:37.217217 10721 net.cpp:148] Top shape: 64 (64)
I0804 17:27:37.217224 10721 net.cpp:156] Memory required for data: 25167360
I0804 17:27:37.217232 10721 layer_factory.hpp:77] Creating layer i1
I0804 17:27:37.217252 10721 net.cpp:91] Creating Layer i1
I0804 17:27:37.217260 10721 net.cpp:425] i1 <- data
I0804 17:27:37.217272 10721 net.cpp:399] i1 -> i1
I0804 17:27:37.217289 10721 net.cpp:399] i1 -> i2
I0804 17:27:37.217340 10721 net.cpp:141] Setting up i1
I0804 17:27:37.217355 10721 net.cpp:148] Top shape: 64 3 128 128 (3145728)
I0804 17:27:37.217365 10721 net.cpp:148] Top shape: 64 3 128 128 (3145728)
I0804 17:27:37.217373 10721 net.cpp:156] Memory required for data: 50333184
I0804 17:27:37.217381 10721 layer_factory.hpp:77] Creating layer i1_i1_0_split
I0804 17:27:37.217392 10721 net.cpp:91] Creating Layer i1_i1_0_split
I0804 17:27:37.217401 10721 net.cpp:425] i1_i1_0_split <- i1
I0804 17:27:37.217413 10721 net.cpp:399] i1_i1_0_split -> i1_i1_0_split_0
I0804 17:27:37.217428 10721 net.cpp:399] i1_i1_0_split -> i1_i1_0_split_1
I0804 17:27:37.217443 10721 net.cpp:399] i1_i1_0_split -> i1_i1_0_split_2
I0804 17:27:37.217459 10721 net.cpp:399] i1_i1_0_split -> i1_i1_0_split_3
I0804 17:27:37.217476 10721 net.cpp:399] i1_i1_0_split -> i1_i1_0_split_4
I0804 17:27:37.217494 10721 net.cpp:399] i1_i1_0_split -> i1_i1_0_split_5
I0804 17:27:37.217510 10721 net.cpp:399] i1_i1_0_split -> i1_i1_0_split_6
I0804 17:27:37.217530 10721 net.cpp:399] i1_i1_0_split -> i1_i1_0_split_7
I0804 17:27:37.217548 10721 net.cpp:399] i1_i1_0_split -> i1_i1_0_split_8
I0804 17:27:37.217568 10721 net.cpp:399] i1_i1_0_split -> i1_i1_0_split_9
I0804 17:27:37.217736 10721 net.cpp:141] Setting up i1_i1_0_split
I0804 17:27:37.217751 10721 net.cpp:148] Top shape: 64 3 128 128 (3145728)
I0804 17:27:37.217761 10721 net.cpp:148] Top shape: 64 3 128 128 (3145728)
I0804 17:27:37.217772 10721 net.cpp:148] Top shape: 64 3 128 128 (3145728)
I0804 17:27:37.217782 10721 net.cpp:148] Top shape: 64 3 128 128 (3145728)
I0804 17:27:37.217792 10721 net.cpp:148] Top shape: 64 3 128 128 (3145728)
I0804 17:27:37.217802 10721 net.cpp:148] Top shape: 64 3 128 128 (3145728)
I0804 17:27:37.217811 10721 net.cpp:148] Top shape: 64 3 128 128 (3145728)
I0804 17:27:37.217823 10721 net.cpp:148] Top shape: 64 3 128 128 (3145728)
I0804 17:27:37.217833 10721 net.cpp:148] Top shape: 64 3 128 128 (3145728)
I0804 17:27:37.217844 10721 net.cpp:148] Top shape: 64 3 128 128 (3145728)
I0804 17:27:37.217851 10721 net.cpp:156] Memory required for data: 176162304
I0804 17:27:37.217859 10721 layer_factory.hpp:77] Creating layer i2_i1_1_split
I0804 17:27:37.217870 10721 net.cpp:91] Creating Layer i2_i1_1_split
I0804 17:27:37.217878 10721 net.cpp:425] i2_i1_1_split <- i2
I0804 17:27:37.217891 10721 net.cpp:399] i2_i1_1_split -> i2_i1_1_split_0
I0804 17:27:37.217906 10721 net.cpp:399] i2_i1_1_split -> i2_i1_1_split_1
I0804 17:27:37.217922 10721 net.cpp:399] i2_i1_1_split -> i2_i1_1_split_2
I0804 17:27:37.217938 10721 net.cpp:399] i2_i1_1_split -> i2_i1_1_split_3
I0804 17:27:37.217957 10721 net.cpp:399] i2_i1_1_split -> i2_i1_1_split_4
I0804 17:27:37.217974 10721 net.cpp:399] i2_i1_1_split -> i2_i1_1_split_5
I0804 17:27:37.217993 10721 net.cpp:399] i2_i1_1_split -> i2_i1_1_split_6
I0804 17:27:37.218009 10721 net.cpp:399] i2_i1_1_split -> i2_i1_1_split_7
I0804 17:27:37.218026 10721 net.cpp:399] i2_i1_1_split -> i2_i1_1_split_8
I0804 17:27:37.218045 10721 net.cpp:399] i2_i1_1_split -> i2_i1_1_split_9
I0804 17:27:37.218258 10721 net.cpp:141] Setting up i2_i1_1_split
I0804 17:27:37.218273 10721 net.cpp:148] Top shape: 64 3 128 128 (3145728)
I0804 17:27:37.218283 10721 net.cpp:148] Top shape: 64 3 128 128 (3145728)
I0804 17:27:37.218293 10721 net.cpp:148] Top shape: 64 3 128 128 (3145728)
I0804 17:27:37.218303 10721 net.cpp:148] Top shape: 64 3 128 128 (3145728)
I0804 17:27:37.218327 10721 net.cpp:148] Top shape: 64 3 128 128 (3145728)
I0804 17:27:37.218338 10721 net.cpp:148] Top shape: 64 3 128 128 (3145728)
I0804 17:27:37.218348 10721 net.cpp:148] Top shape: 64 3 128 128 (3145728)
I0804 17:27:37.218358 10721 net.cpp:148] Top shape: 64 3 128 128 (3145728)
I0804 17:27:37.218369 10721 net.cpp:148] Top shape: 64 3 128 128 (3145728)
I0804 17:27:37.218379 10721 net.cpp:148] Top shape: 64 3 128 128 (3145728)
I0804 17:27:37.218386 10721 net.cpp:156] Memory required for data: 301991424
I0804 17:27:37.218394 10721 layer_factory.hpp:77] Creating layer p1
I0804 17:27:37.218410 10721 net.cpp:91] Creating Layer p1
I0804 17:27:37.218418 10721 net.cpp:425] p1 <- i1_i1_0_split_0
I0804 17:27:37.218431 10721 net.cpp:399] p1 -> p1
I0804 17:27:37.218487 10721 net.cpp:141] Setting up p1
I0804 17:27:37.218500 10721 net.cpp:148] Top shape: 64 3 64 64 (786432)
I0804 17:27:37.218508 10721 net.cpp:156] Memory required for data: 305137152
I0804 17:27:37.218516 10721 layer_factory.hpp:77] Creating layer p1_p1_0_split
I0804 17:27:37.218529 10721 net.cpp:91] Creating Layer p1_p1_0_split
I0804 17:27:37.218538 10721 net.cpp:425] p1_p1_0_split <- p1
I0804 17:27:37.218551 10721 net.cpp:399] p1_p1_0_split -> p1_p1_0_split_0
I0804 17:27:37.218567 10721 net.cpp:399] p1_p1_0_split -> p1_p1_0_split_1
I0804 17:27:37.218583 10721 net.cpp:399] p1_p1_0_split -> p1_p1_0_split_2
I0804 17:27:37.218607 10721 net.cpp:399] p1_p1_0_split -> p1_p1_0_split_3
I0804 17:27:37.218624 10721 net.cpp:399] p1_p1_0_split -> p1_p1_0_split_4
I0804 17:27:37.218644 10721 net.cpp:399] p1_p1_0_split -> p1_p1_0_split_5
I0804 17:27:37.218662 10721 net.cpp:399] p1_p1_0_split -> p1_p1_0_split_6
I0804 17:27:37.218680 10721 net.cpp:399] p1_p1_0_split -> p1_p1_0_split_7
I0804 17:27:37.218699 10721 net.cpp:399] p1_p1_0_split -> p1_p1_0_split_8
I0804 17:27:37.218719 10721 net.cpp:399] p1_p1_0_split -> p1_p1_0_split_9
I0804 17:27:37.222575 10721 net.cpp:141] Setting up p1_p1_0_split
I0804 17:27:37.222599 10721 net.cpp:148] Top shape: 64 3 64 64 (786432)
I0804 17:27:37.222609 10721 net.cpp:148] Top shape: 64 3 64 64 (786432)
I0804 17:27:37.222620 10721 net.cpp:148] Top shape: 64 3 64 64 (786432)
I0804 17:27:37.222630 10721 net.cpp:148] Top shape: 64 3 64 64 (786432)
I0804 17:27:37.222641 10721 net.cpp:148] Top shape: 64 3 64 64 (786432)
I0804 17:27:37.222652 10721 net.cpp:148] Top shape: 64 3 64 64 (786432)
I0804 17:27:37.222662 10721 net.cpp:148] Top shape: 64 3 64 64 (786432)
I0804 17:27:37.222672 10721 net.cpp:148] Top shape: 64 3 64 64 (786432)
I0804 17:27:37.222683 10721 net.cpp:148] Top shape: 64 3 64 64 (786432)
I0804 17:27:37.222693 10721 net.cpp:148] Top shape: 64 3 64 64 (786432)
I0804 17:27:37.222702 10721 net.cpp:156] Memory required for data: 336594432
I0804 17:27:37.222710 10721 layer_factory.hpp:77] Creating layer p2
I0804 17:27:37.222724 10721 net.cpp:91] Creating Layer p2
I0804 17:27:37.222733 10721 net.cpp:425] p2 <- i2_i1_1_split_0
I0804 17:27:37.222746 10721 net.cpp:399] p2 -> p2
I0804 17:27:37.222782 10721 net.cpp:141] Setting up p2
I0804 17:27:37.222796 10721 net.cpp:148] Top shape: 64 3 64 64 (786432)
I0804 17:27:37.222803 10721 net.cpp:156] Memory required for data: 339740160
I0804 17:27:37.222811 10721 layer_factory.hpp:77] Creating layer p2_p2_0_split
I0804 17:27:37.222823 10721 net.cpp:91] Creating Layer p2_p2_0_split
I0804 17:27:37.222831 10721 net.cpp:425] p2_p2_0_split <- p2
I0804 17:27:37.222843 10721 net.cpp:399] p2_p2_0_split -> p2_p2_0_split_0
I0804 17:27:37.222858 10721 net.cpp:399] p2_p2_0_split -> p2_p2_0_split_1
I0804 17:27:37.222875 10721 net.cpp:399] p2_p2_0_split -> p2_p2_0_split_2
I0804 17:27:37.222895 10721 net.cpp:399] p2_p2_0_split -> p2_p2_0_split_3
I0804 17:27:37.222913 10721 net.cpp:399] p2_p2_0_split -> p2_p2_0_split_4
I0804 17:27:37.222932 10721 net.cpp:399] p2_p2_0_split -> p2_p2_0_split_5
I0804 17:27:37.222951 10721 net.cpp:399] p2_p2_0_split -> p2_p2_0_split_6
I0804 17:27:37.222967 10721 net.cpp:399] p2_p2_0_split -> p2_p2_0_split_7
I0804 17:27:37.222982 10721 net.cpp:399] p2_p2_0_split -> p2_p2_0_split_8
I0804 17:27:37.223014 10721 net.cpp:399] p2_p2_0_split -> p2_p2_0_split_9
I0804 17:27:37.223186 10721 net.cpp:141] Setting up p2_p2_0_split
I0804 17:27:37.223198 10721 net.cpp:148] Top shape: 64 3 64 64 (786432)
I0804 17:27:37.223208 10721 net.cpp:148] Top shape: 64 3 64 64 (786432)
I0804 17:27:37.223218 10721 net.cpp:148] Top shape: 64 3 64 64 (786432)
I0804 17:27:37.223228 10721 net.cpp:148] Top shape: 64 3 64 64 (786432)
I0804 17:27:37.223238 10721 net.cpp:148] Top shape: 64 3 64 64 (786432)
I0804 17:27:37.223248 10721 net.cpp:148] Top shape: 64 3 64 64 (786432)
I0804 17:27:37.223258 10721 net.cpp:148] Top shape: 64 3 64 64 (786432)
I0804 17:27:37.223268 10721 net.cpp:148] Top shape: 64 3 64 64 (786432)
I0804 17:27:37.223304 10721 net.cpp:148] Top shape: 64 3 64 64 (786432)
I0804 17:27:37.223315 10721 net.cpp:148] Top shape: 64 3 64 64 (786432)
I0804 17:27:37.223322 10721 net.cpp:156] Memory required for data: 371197440
I0804 17:27:37.223330 10721 layer_factory.hpp:77] Creating layer Input1
I0804 17:27:37.223345 10721 net.cpp:91] Creating Layer Input1
I0804 17:27:37.223354 10721 net.cpp:399] Input1 -> Input1
I0804 17:27:37.223395 10721 net.cpp:141] Setting up Input1
I0804 17:27:37.223408 10721 net.cpp:148] Top shape: 64 3 64 64 (786432)
I0804 17:27:37.223417 10721 net.cpp:156] Memory required for data: 374343168
I0804 17:27:37.223424 10721 layer_factory.hpp:77] Creating layer c11
I0804 17:27:37.223443 10721 net.cpp:91] Creating Layer c11
I0804 17:27:37.223451 10721 net.cpp:425] c11 <- i1_i1_0_split_1
I0804 17:27:37.223462 10721 net.cpp:425] c11 <- Input1
I0804 17:27:37.223474 10721 net.cpp:399] c11 -> c11
I0804 17:27:37.223512 10721 net.cpp:141] Setting up c11
I0804 17:27:37.223525 10721 net.cpp:148] Top shape: 64 3 64 64 (786432)
I0804 17:27:37.223532 10721 net.cpp:156] Memory required for data: 377488896
I0804 17:27:37.223541 10721 layer_factory.hpp:77] Creating layer Input2
I0804 17:27:37.223551 10721 net.cpp:91] Creating Layer Input2
I0804 17:27:37.223562 10721 net.cpp:399] Input2 -> Input2
I0804 17:27:37.223597 10721 net.cpp:141] Setting up Input2
I0804 17:27:37.223608 10721 net.cpp:148] Top shape: 64 3 64 64 (786432)
I0804 17:27:37.223616 10721 net.cpp:156] Memory required for data: 380634624
I0804 17:27:37.223623 10721 layer_factory.hpp:77] Creating layer c12
I0804 17:27:37.223634 10721 net.cpp:91] Creating Layer c12
I0804 17:27:37.223642 10721 net.cpp:425] c12 <- i1_i1_0_split_2
I0804 17:27:37.223654 10721 net.cpp:425] c12 <- Input2
I0804 17:27:37.223664 10721 net.cpp:399] c12 -> c12
I0804 17:27:37.223700 10721 net.cpp:141] Setting up c12
I0804 17:27:37.223711 10721 net.cpp:148] Top shape: 64 3 64 64 (786432)
I0804 17:27:37.223719 10721 net.cpp:156] Memory required for data: 383780352
I0804 17:27:37.223727 10721 layer_factory.hpp:77] Creating layer Input3
I0804 17:27:37.223738 10721 net.cpp:91] Creating Layer Input3
I0804 17:27:37.223748 10721 net.cpp:399] Input3 -> Input3
I0804 17:27:37.223783 10721 net.cpp:141] Setting up Input3
I0804 17:27:37.223795 10721 net.cpp:148] Top shape: 64 3 64 64 (786432)
I0804 17:27:37.223803 10721 net.cpp:156] Memory required for data: 386926080
I0804 17:27:37.223810 10721 layer_factory.hpp:77] Creating layer c13
I0804 17:27:37.223824 10721 net.cpp:91] Creating Layer c13
I0804 17:27:37.223834 10721 net.cpp:425] c13 <- i1_i1_0_split_3
I0804 17:27:37.223844 10721 net.cpp:425] c13 <- Input3
I0804 17:27:37.223855 10721 net.cpp:399] c13 -> c13
I0804 17:27:37.223891 10721 net.cpp:141] Setting up c13
I0804 17:27:37.223903 10721 net.cpp:148] Top shape: 64 3 64 64 (786432)
I0804 17:27:37.223912 10721 net.cpp:156] Memory required for data: 390071808
I0804 17:27:37.223918 10721 layer_factory.hpp:77] Creating layer Input4
I0804 17:27:37.223930 10721 net.cpp:91] Creating Layer Input4
I0804 17:27:37.223940 10721 net.cpp:399] Input4 -> Input4
I0804 17:27:37.223974 10721 net.cpp:141] Setting up Input4
I0804 17:27:37.223986 10721 net.cpp:148] Top shape: 64 3 64 64 (786432)
I0804 17:27:37.223994 10721 net.cpp:156] Memory required for data: 393217536
I0804 17:27:37.224002 10721 layer_factory.hpp:77] Creating layer c14
I0804 17:27:37.224027 10721 net.cpp:91] Creating Layer c14
I0804 17:27:37.224036 10721 net.cpp:425] c14 <- i1_i1_0_split_4
I0804 17:27:37.224046 10721 net.cpp:425] c14 <- Input4
I0804 17:27:37.224058 10721 net.cpp:399] c14 -> c14
I0804 17:27:37.224093 10721 net.cpp:141] Setting up c14
I0804 17:27:37.224105 10721 net.cpp:148] Top shape: 64 3 64 64 (786432)
I0804 17:27:37.224113 10721 net.cpp:156] Memory required for data: 396363264
I0804 17:27:37.224122 10721 layer_factory.hpp:77] Creating layer Input5
I0804 17:27:37.224131 10721 net.cpp:91] Creating Layer Input5
I0804 17:27:37.224143 10721 net.cpp:399] Input5 -> Input5
I0804 17:27:37.224177 10721 net.cpp:141] Setting up Input5
I0804 17:27:37.224189 10721 net.cpp:148] Top shape: 64 3 64 64 (786432)
I0804 17:27:37.224196 10721 net.cpp:156] Memory required for data: 399508992
I0804 17:27:37.224205 10721 layer_factory.hpp:77] Creating layer c15
I0804 17:27:37.224215 10721 net.cpp:91] Creating Layer c15
I0804 17:27:37.224223 10721 net.cpp:425] c15 <- i1_i1_0_split_5
I0804 17:27:37.224234 10721 net.cpp:425] c15 <- Input5
I0804 17:27:37.224246 10721 net.cpp:399] c15 -> c15
I0804 17:27:37.224280 10721 net.cpp:141] Setting up c15
I0804 17:27:37.224292 10721 net.cpp:148] Top shape: 64 3 64 64 (786432)
I0804 17:27:37.224299 10721 net.cpp:156] Memory required for data: 402654720
I0804 17:27:37.224308 10721 layer_factory.hpp:77] Creating layer Input6
I0804 17:27:37.224318 10721 net.cpp:91] Creating Layer Input6
I0804 17:27:37.224328 10721 net.cpp:399] Input6 -> Input6
I0804 17:27:37.224362 10721 net.cpp:141] Setting up Input6
I0804 17:27:37.224375 10721 net.cpp:148] Top shape: 64 3 64 64 (786432)
I0804 17:27:37.224382 10721 net.cpp:156] Memory required for data: 405800448
I0804 17:27:37.224390 10721 layer_factory.hpp:77] Creating layer c16
I0804 17:27:37.224400 10721 net.cpp:91] Creating Layer c16
I0804 17:27:37.224409 10721 net.cpp:425] c16 <- i1_i1_0_split_6
I0804 17:27:37.224421 10721 net.cpp:425] c16 <- Input6
I0804 17:27:37.224432 10721 net.cpp:399] c16 -> c16
I0804 17:27:37.224467 10721 net.cpp:141] Setting up c16
I0804 17:27:37.224479 10721 net.cpp:148] Top shape: 64 3 64 64 (786432)
I0804 17:27:37.224486 10721 net.cpp:156] Memory required for data: 408946176
I0804 17:27:37.224494 10721 layer_factory.hpp:77] Creating layer Input7
I0804 17:27:37.224505 10721 net.cpp:91] Creating Layer Input7
I0804 17:27:37.224516 10721 net.cpp:399] Input7 -> Input7
I0804 17:27:37.224550 10721 net.cpp:141] Setting up Input7
I0804 17:27:37.224562 10721 net.cpp:148] Top shape: 64 3 64 64 (786432)
I0804 17:27:37.224570 10721 net.cpp:156] Memory required for data: 412091904
I0804 17:27:37.224577 10721 layer_factory.hpp:77] Creating layer c17
I0804 17:27:37.224588 10721 net.cpp:91] Creating Layer c17
I0804 17:27:37.224596 10721 net.cpp:425] c17 <- i1_i1_0_split_7
I0804 17:27:37.224606 10721 net.cpp:425] c17 <- Input7
I0804 17:27:37.224618 10721 net.cpp:399] c17 -> c17
I0804 17:27:37.224660 10721 net.cpp:141] Setting up c17
I0804 17:27:37.224673 10721 net.cpp:148] Top shape: 64 3 64 64 (786432)
I0804 17:27:37.224681 10721 net.cpp:156] Memory required for data: 415237632
I0804 17:27:37.224689 10721 layer_factory.hpp:77] Creating layer Input8
I0804 17:27:37.224700 10721 net.cpp:91] Creating Layer Input8
I0804 17:27:37.224710 10721 net.cpp:399] Input8 -> Input8
I0804 17:27:37.224746 10721 net.cpp:141] Setting up Input8
I0804 17:27:37.224758 10721 net.cpp:148] Top shape: 64 3 64 64 (786432)
I0804 17:27:37.224766 10721 net.cpp:156] Memory required for data: 418383360
I0804 17:27:37.224773 10721 layer_factory.hpp:77] Creating layer c18
I0804 17:27:37.224783 10721 net.cpp:91] Creating Layer c18
I0804 17:27:37.224792 10721 net.cpp:425] c18 <- i1_i1_0_split_8
I0804 17:27:37.224802 10721 net.cpp:425] c18 <- Input8
I0804 17:27:37.224813 10721 net.cpp:399] c18 -> c18
I0804 17:27:37.224848 10721 net.cpp:141] Setting up c18
I0804 17:27:37.224861 10721 net.cpp:148] Top shape: 64 3 64 64 (786432)
I0804 17:27:37.224869 10721 net.cpp:156] Memory required for data: 421529088
I0804 17:27:37.224877 10721 layer_factory.hpp:77] Creating layer Input9
I0804 17:27:37.224900 10721 net.cpp:91] Creating Layer Input9
I0804 17:27:37.224912 10721 net.cpp:399] Input9 -> Input9
I0804 17:27:37.224947 10721 net.cpp:141] Setting up Input9
I0804 17:27:37.224959 10721 net.cpp:148] Top shape: 64 3 64 64 (786432)
I0804 17:27:37.224967 10721 net.cpp:156] Memory required for data: 424674816
I0804 17:27:37.224975 10721 layer_factory.hpp:77] Creating layer c19
I0804 17:27:37.224987 10721 net.cpp:91] Creating Layer c19
I0804 17:27:37.224994 10721 net.cpp:425] c19 <- i1_i1_0_split_9
I0804 17:27:37.225004 10721 net.cpp:425] c19 <- Input9
I0804 17:27:37.225016 10721 net.cpp:399] c19 -> c19
I0804 17:27:37.225051 10721 net.cpp:141] Setting up c19
I0804 17:27:37.225064 10721 net.cpp:148] Top shape: 64 3 64 64 (786432)
I0804 17:27:37.225071 10721 net.cpp:156] Memory required for data: 427820544
I0804 17:27:37.225080 10721 layer_factory.hpp:77] Creating layer Input10
I0804 17:27:37.225090 10721 net.cpp:91] Creating Layer Input10
I0804 17:27:37.225100 10721 net.cpp:399] Input10 -> Input10
I0804 17:27:37.225134 10721 net.cpp:141] Setting up Input10
I0804 17:27:37.225147 10721 net.cpp:148] Top shape: 64 3 64 64 (786432)
I0804 17:27:37.225154 10721 net.cpp:156] Memory required for data: 430966272
I0804 17:27:37.225162 10721 layer_factory.hpp:77] Creating layer c21
I0804 17:27:37.225172 10721 net.cpp:91] Creating Layer c21
I0804 17:27:37.225180 10721 net.cpp:425] c21 <- i2_i1_1_split_1
I0804 17:27:37.225191 10721 net.cpp:425] c21 <- Input10
I0804 17:27:37.225203 10721 net.cpp:399] c21 -> c21
I0804 17:27:37.225237 10721 net.cpp:141] Setting up c21
I0804 17:27:37.225250 10721 net.cpp:148] Top shape: 64 3 64 64 (786432)
I0804 17:27:37.225258 10721 net.cpp:156] Memory required for data: 434112000
I0804 17:27:37.225265 10721 layer_factory.hpp:77] Creating layer Input11
I0804 17:27:37.225276 10721 net.cpp:91] Creating Layer Input11
I0804 17:27:37.225287 10721 net.cpp:399] Input11 -> Input11
I0804 17:27:37.225322 10721 net.cpp:141] Setting up Input11
I0804 17:27:37.225333 10721 net.cpp:148] Top shape: 64 3 64 64 (786432)
I0804 17:27:37.225342 10721 net.cpp:156] Memory required for data: 437257728
I0804 17:27:37.225349 10721 layer_factory.hpp:77] Creating layer c22
I0804 17:27:37.225365 10721 net.cpp:91] Creating Layer c22
I0804 17:27:37.225373 10721 net.cpp:425] c22 <- i2_i1_1_split_2
I0804 17:27:37.225383 10721 net.cpp:425] c22 <- Input11
I0804 17:27:37.225395 10721 net.cpp:399] c22 -> c22
I0804 17:27:37.225431 10721 net.cpp:141] Setting up c22
I0804 17:27:37.225443 10721 net.cpp:148] Top shape: 64 3 64 64 (786432)
I0804 17:27:37.225451 10721 net.cpp:156] Memory required for data: 440403456
I0804 17:27:37.225460 10721 layer_factory.hpp:77] Creating layer Input12
I0804 17:27:37.225471 10721 net.cpp:91] Creating Layer Input12
I0804 17:27:37.225481 10721 net.cpp:399] Input12 -> Input12
I0804 17:27:37.225514 10721 net.cpp:141] Setting up Input12
I0804 17:27:37.225527 10721 net.cpp:148] Top shape: 64 3 64 64 (786432)
I0804 17:27:37.225534 10721 net.cpp:156] Memory required for data: 443549184
I0804 17:27:37.225543 10721 layer_factory.hpp:77] Creating layer c23
I0804 17:27:37.225553 10721 net.cpp:91] Creating Layer c23
I0804 17:27:37.225561 10721 net.cpp:425] c23 <- i2_i1_1_split_3
I0804 17:27:37.225572 10721 net.cpp:425] c23 <- Input12
I0804 17:27:37.225584 10721 net.cpp:399] c23 -> c23
I0804 17:27:37.225620 10721 net.cpp:141] Setting up c23
I0804 17:27:37.225631 10721 net.cpp:148] Top shape: 64 3 64 64 (786432)
I0804 17:27:37.225638 10721 net.cpp:156] Memory required for data: 446694912
I0804 17:27:37.225646 10721 layer_factory.hpp:77] Creating layer Input13
I0804 17:27:37.225657 10721 net.cpp:91] Creating Layer Input13
I0804 17:27:37.225667 10721 net.cpp:399] Input13 -> Input13
I0804 17:27:37.225702 10721 net.cpp:141] Setting up Input13
I0804 17:27:37.225713 10721 net.cpp:148] Top shape: 64 3 64 64 (786432)
I0804 17:27:37.225721 10721 net.cpp:156] Memory required for data: 449840640
I0804 17:27:37.225728 10721 layer_factory.hpp:77] Creating layer c24
I0804 17:27:37.225749 10721 net.cpp:91] Creating Layer c24
I0804 17:27:37.225759 10721 net.cpp:425] c24 <- i2_i1_1_split_4
I0804 17:27:37.225769 10721 net.cpp:425] c24 <- Input13
I0804 17:27:37.225781 10721 net.cpp:399] c24 -> c24
I0804 17:27:37.225817 10721 net.cpp:141] Setting up c24
I0804 17:27:37.225831 10721 net.cpp:148] Top shape: 64 3 64 64 (786432)
I0804 17:27:37.225838 10721 net.cpp:156] Memory required for data: 452986368
I0804 17:27:37.225846 10721 layer_factory.hpp:77] Creating layer Input14
I0804 17:27:37.225857 10721 net.cpp:91] Creating Layer Input14
I0804 17:27:37.225867 10721 net.cpp:399] Input14 -> Input14
I0804 17:27:37.225901 10721 net.cpp:141] Setting up Input14
I0804 17:27:37.225914 10721 net.cpp:148] Top shape: 64 3 64 64 (786432)
I0804 17:27:37.225922 10721 net.cpp:156] Memory required for data: 456132096
I0804 17:27:37.225929 10721 layer_factory.hpp:77] Creating layer c25
I0804 17:27:37.225939 10721 net.cpp:91] Creating Layer c25
I0804 17:27:37.225949 10721 net.cpp:425] c25 <- i2_i1_1_split_5
I0804 17:27:37.225958 10721 net.cpp:425] c25 <- Input14
I0804 17:27:37.225967 10721 net.cpp:399] c25 -> c25
I0804 17:27:37.225996 10721 net.cpp:141] Setting up c25
I0804 17:27:37.226004 10721 net.cpp:148] Top shape: 64 3 64 64 (786432)
I0804 17:27:37.226011 10721 net.cpp:156] Memory required for data: 459277824
I0804 17:27:37.226016 10721 layer_factory.hpp:77] Creating layer Input15
I0804 17:27:37.226024 10721 net.cpp:91] Creating Layer Input15
I0804 17:27:37.226032 10721 net.cpp:399] Input15 -> Input15
I0804 17:27:37.226059 10721 net.cpp:141] Setting up Input15
I0804 17:27:37.226068 10721 net.cpp:148] Top shape: 64 3 64 64 (786432)
I0804 17:27:37.226073 10721 net.cpp:156] Memory required for data: 462423552
I0804 17:27:37.226079 10721 layer_factory.hpp:77] Creating layer c26
I0804 17:27:37.226088 10721 net.cpp:91] Creating Layer c26
I0804 17:27:37.226094 10721 net.cpp:425] c26 <- i2_i1_1_split_6
I0804 17:27:37.226101 10721 net.cpp:425] c26 <- Input15
I0804 17:27:37.226110 10721 net.cpp:399] c26 -> c26
I0804 17:27:37.226138 10721 net.cpp:141] Setting up c26
I0804 17:27:37.226145 10721 net.cpp:148] Top shape: 64 3 64 64 (786432)
I0804 17:27:37.226151 10721 net.cpp:156] Memory required for data: 465569280
I0804 17:27:37.226157 10721 layer_factory.hpp:77] Creating layer Input16
I0804 17:27:37.226166 10721 net.cpp:91] Creating Layer Input16
I0804 17:27:37.226173 10721 net.cpp:399] Input16 -> Input16
I0804 17:27:37.226200 10721 net.cpp:141] Setting up Input16
I0804 17:27:37.226208 10721 net.cpp:148] Top shape: 64 3 64 64 (786432)
I0804 17:27:37.226213 10721 net.cpp:156] Memory required for data: 468715008
I0804 17:27:37.226219 10721 layer_factory.hpp:77] Creating layer c27
I0804 17:27:37.226227 10721 net.cpp:91] Creating Layer c27
I0804 17:27:37.226233 10721 net.cpp:425] c27 <- i2_i1_1_split_7
I0804 17:27:37.226241 10721 net.cpp:425] c27 <- Input16
I0804 17:27:37.226250 10721 net.cpp:399] c27 -> c27
I0804 17:27:37.226277 10721 net.cpp:141] Setting up c27
I0804 17:27:37.226285 10721 net.cpp:148] Top shape: 64 3 64 64 (786432)
I0804 17:27:37.226291 10721 net.cpp:156] Memory required for data: 471860736
I0804 17:27:37.226297 10721 layer_factory.hpp:77] Creating layer Input17
I0804 17:27:37.226305 10721 net.cpp:91] Creating Layer Input17
I0804 17:27:37.226312 10721 net.cpp:399] Input17 -> Input17
I0804 17:27:37.226341 10721 net.cpp:141] Setting up Input17
I0804 17:27:37.226348 10721 net.cpp:148] Top shape: 64 3 64 64 (786432)
I0804 17:27:37.226353 10721 net.cpp:156] Memory required for data: 475006464
I0804 17:27:37.226359 10721 layer_factory.hpp:77] Creating layer c28
I0804 17:27:37.226367 10721 net.cpp:91] Creating Layer c28
I0804 17:27:37.226373 10721 net.cpp:425] c28 <- i2_i1_1_split_8
I0804 17:27:37.226382 10721 net.cpp:425] c28 <- Input17
I0804 17:27:37.226392 10721 net.cpp:399] c28 -> c28
I0804 17:27:37.226418 10721 net.cpp:141] Setting up c28
I0804 17:27:37.226426 10721 net.cpp:148] Top shape: 64 3 64 64 (786432)
I0804 17:27:37.226433 10721 net.cpp:156] Memory required for data: 478152192
I0804 17:27:37.226438 10721 layer_factory.hpp:77] Creating layer Input18
I0804 17:27:37.226455 10721 net.cpp:91] Creating Layer Input18
I0804 17:27:37.226464 10721 net.cpp:399] Input18 -> Input18
I0804 17:27:37.226491 10721 net.cpp:141] Setting up Input18
I0804 17:27:37.226500 10721 net.cpp:148] Top shape: 64 3 64 64 (786432)
I0804 17:27:37.226505 10721 net.cpp:156] Memory required for data: 481297920
I0804 17:27:37.226511 10721 layer_factory.hpp:77] Creating layer c29
I0804 17:27:37.226519 10721 net.cpp:91] Creating Layer c29
I0804 17:27:37.226526 10721 net.cpp:425] c29 <- i2_i1_1_split_9
I0804 17:27:37.226533 10721 net.cpp:425] c29 <- Input18
I0804 17:27:37.226542 10721 net.cpp:399] c29 -> c29
I0804 17:27:37.226570 10721 net.cpp:141] Setting up c29
I0804 17:27:37.226578 10721 net.cpp:148] Top shape: 64 3 64 64 (786432)
I0804 17:27:37.226583 10721 net.cpp:156] Memory required for data: 484443648
I0804 17:27:37.226589 10721 layer_factory.hpp:77] Creating layer conv0
I0804 17:27:37.226608 10721 net.cpp:91] Creating Layer conv0
I0804 17:27:37.226614 10721 net.cpp:425] conv0 <- p1_p1_0_split_0
I0804 17:27:37.226625 10721 net.cpp:399] conv0 -> Convolution1
I0804 17:27:37.227777 10721 net.cpp:141] Setting up conv0
I0804 17:27:37.227790 10721 net.cpp:148] Top shape: 64 24 64 64 (6291456)
I0804 17:27:37.227797 10721 net.cpp:156] Memory required for data: 509609472
I0804 17:27:37.227816 10721 layer_factory.hpp:77] Creating layer ReLU1
I0804 17:27:37.227826 10721 net.cpp:91] Creating Layer ReLU1
I0804 17:27:37.227833 10721 net.cpp:425] ReLU1 <- Convolution1
I0804 17:27:37.227843 10721 net.cpp:386] ReLU1 -> Convolution1 (in-place)
I0804 17:27:37.227854 10721 net.cpp:141] Setting up ReLU1
I0804 17:27:37.227860 10721 net.cpp:148] Top shape: 64 24 64 64 (6291456)
I0804 17:27:37.227866 10721 net.cpp:156] Memory required for data: 534775296
I0804 17:27:37.227872 10721 layer_factory.hpp:77] Creating layer pool0
I0804 17:27:37.227881 10721 net.cpp:91] Creating Layer pool0
I0804 17:27:37.227888 10721 net.cpp:425] pool0 <- Convolution1
I0804 17:27:37.227897 10721 net.cpp:399] pool0 -> Pooling1
I0804 17:27:37.227942 10721 net.cpp:141] Setting up pool0
I0804 17:27:37.227951 10721 net.cpp:148] Top shape: 64 24 32 32 (1572864)
I0804 17:27:37.227957 10721 net.cpp:156] Memory required for data: 541066752
I0804 17:27:37.227962 10721 layer_factory.hpp:77] Creating layer conv1
I0804 17:27:37.227974 10721 net.cpp:91] Creating Layer conv1
I0804 17:27:37.227982 10721 net.cpp:425] conv1 <- Pooling1
I0804 17:27:37.227991 10721 net.cpp:399] conv1 -> Convolution2
I0804 17:27:37.231323 10721 net.cpp:141] Setting up conv1
I0804 17:27:37.231339 10721 net.cpp:148] Top shape: 64 64 32 32 (4194304)
I0804 17:27:37.231345 10721 net.cpp:156] Memory required for data: 557843968
I0804 17:27:37.231362 10721 layer_factory.hpp:77] Creating layer ReLU2
I0804 17:27:37.231374 10721 net.cpp:91] Creating Layer ReLU2
I0804 17:27:37.231380 10721 net.cpp:425] ReLU2 <- Convolution2
I0804 17:27:37.231390 10721 net.cpp:386] ReLU2 -> Convolution2 (in-place)
I0804 17:27:37.231401 10721 net.cpp:141] Setting up ReLU2
I0804 17:27:37.231410 10721 net.cpp:148] Top shape: 64 64 32 32 (4194304)
I0804 17:27:37.231415 10721 net.cpp:156] Memory required for data: 574621184
I0804 17:27:37.231420 10721 layer_factory.hpp:77] Creating layer pool1
I0804 17:27:37.231429 10721 net.cpp:91] Creating Layer pool1
I0804 17:27:37.231436 10721 net.cpp:425] pool1 <- Convolution2
I0804 17:27:37.231446 10721 net.cpp:399] pool1 -> Pooling2
I0804 17:27:37.231494 10721 net.cpp:141] Setting up pool1
I0804 17:27:37.231503 10721 net.cpp:148] Top shape: 64 64 16 16 (1048576)
I0804 17:27:37.231508 10721 net.cpp:156] Memory required for data: 578815488
I0804 17:27:37.231513 10721 layer_factory.hpp:77] Creating layer conv2
I0804 17:27:37.231526 10721 net.cpp:91] Creating Layer conv2
I0804 17:27:37.231534 10721 net.cpp:425] conv2 <- Pooling2
I0804 17:27:37.231544 10721 net.cpp:399] conv2 -> Convolution3
I0804 17:27:37.234488 10721 net.cpp:141] Setting up conv2
I0804 17:27:37.234495 10721 net.cpp:148] Top shape: 64 96 16 16 (1572864)
I0804 17:27:37.234501 10721 net.cpp:156] Memory required for data: 585106944
I0804 17:27:37.234534 10721 layer_factory.hpp:77] Creating layer ReLU3
I0804 17:27:37.234541 10721 net.cpp:91] Creating Layer ReLU3
I0804 17:27:37.234547 10721 net.cpp:425] ReLU3 <- Convolution3
I0804 17:27:37.234556 10721 net.cpp:386] ReLU3 -> Convolution3 (in-place)
I0804 17:27:37.234566 10721 net.cpp:141] Setting up ReLU3
I0804 17:27:37.234573 10721 net.cpp:148] Top shape: 64 96 16 16 (1572864)
I0804 17:27:37.234580 10721 net.cpp:156] Memory required for data: 591398400
I0804 17:27:37.234586 10721 layer_factory.hpp:77] Creating layer conv3
I0804 17:27:37.234597 10721 net.cpp:91] Creating Layer conv3
I0804 17:27:37.234603 10721 net.cpp:425] conv3 <- Convolution3
I0804 17:27:37.234614 10721 net.cpp:399] conv3 -> Convolution4
I0804 17:27:37.238893 10721 net.cpp:141] Setting up conv3
I0804 17:27:37.238901 10721 net.cpp:148] Top shape: 64 96 16 16 (1572864)
I0804 17:27:37.238908 10721 net.cpp:156] Memory required for data: 597689856
I0804 17:27:37.238919 10721 layer_factory.hpp:77] Creating layer ReLU4
I0804 17:27:37.238926 10721 net.cpp:91] Creating Layer ReLU4
I0804 17:27:37.238932 10721 net.cpp:425] ReLU4 <- Convolution4
I0804 17:27:37.238941 10721 net.cpp:386] ReLU4 -> Convolution4 (in-place)
I0804 17:27:37.238950 10721 net.cpp:141] Setting up ReLU4
I0804 17:27:37.238957 10721 net.cpp:148] Top shape: 64 96 16 16 (1572864)
I0804 17:27:37.238963 10721 net.cpp:156] Memory required for data: 603981312
I0804 17:27:37.238970 10721 layer_factory.hpp:77] Creating layer conv4
I0804 17:27:37.238981 10721 net.cpp:91] Creating Layer conv4
I0804 17:27:37.238987 10721 net.cpp:425] conv4 <- Convolution4
I0804 17:27:37.238997 10721 net.cpp:399] conv4 -> Convolution5
I0804 17:27:37.241952 10721 net.cpp:141] Setting up conv4
I0804 17:27:37.241963 10721 net.cpp:148] Top shape: 64 64 16 16 (1048576)
I0804 17:27:37.241969 10721 net.cpp:156] Memory required for data: 608175616
I0804 17:27:37.241986 10721 layer_factory.hpp:77] Creating layer ReLU5
I0804 17:27:37.241993 10721 net.cpp:91] Creating Layer ReLU5
I0804 17:27:37.242000 10721 net.cpp:425] ReLU5 <- Convolution5
I0804 17:27:37.242009 10721 net.cpp:386] ReLU5 -> Convolution5 (in-place)
I0804 17:27:37.242019 10721 net.cpp:141] Setting up ReLU5
I0804 17:27:37.242027 10721 net.cpp:148] Top shape: 64 64 16 16 (1048576)
I0804 17:27:37.242033 10721 net.cpp:156] Memory required for data: 612369920
I0804 17:27:37.242038 10721 layer_factory.hpp:77] Creating layer pool4
I0804 17:27:37.242048 10721 net.cpp:91] Creating Layer pool4
I0804 17:27:37.242053 10721 net.cpp:425] pool4 <- Convolution5
I0804 17:27:37.242063 10721 net.cpp:399] pool4 -> Pooling3
I0804 17:27:37.242103 10721 net.cpp:141] Setting up pool4
I0804 17:27:37.242111 10721 net.cpp:148] Top shape: 64 64 8 8 (262144)
I0804 17:27:37.242120 10721 net.cpp:156] Memory required for data: 613418496
I0804 17:27:37.242127 10721 layer_factory.hpp:77] Creating layer conv0
I0804 17:27:37.242141 10721 net.cpp:91] Creating Layer conv0
I0804 17:27:37.242148 10721 net.cpp:425] conv0 <- p2_p2_0_split_0
I0804 17:27:37.242159 10721 net.cpp:399] conv0 -> Convolution6
I0804 17:27:37.242626 10721 net.cpp:141] Setting up conv0
I0804 17:27:37.242635 10721 net.cpp:148] Top shape: 64 24 64 64 (6291456)
I0804 17:27:37.242641 10721 net.cpp:156] Memory required for data: 638584320
I0804 17:27:37.242651 10721 layer_factory.hpp:77] Creating layer ReLU6
I0804 17:27:37.242660 10721 net.cpp:91] Creating Layer ReLU6
I0804 17:27:37.242666 10721 net.cpp:425] ReLU6 <- Convolution6
I0804 17:27:37.242674 10721 net.cpp:386] ReLU6 -> Convolution6 (in-place)
I0804 17:27:37.242684 10721 net.cpp:141] Setting up ReLU6
I0804 17:27:37.242691 10721 net.cpp:148] Top shape: 64 24 64 64 (6291456)
I0804 17:27:37.242697 10721 net.cpp:156] Memory required for data: 663750144
I0804 17:27:37.242703 10721 layer_factory.hpp:77] Creating layer pool0
I0804 17:27:37.242712 10721 net.cpp:91] Creating Layer pool0
I0804 17:27:37.242717 10721 net.cpp:425] pool0 <- Convolution6
I0804 17:27:37.242727 10721 net.cpp:399] pool0 -> Pooling4
I0804 17:27:37.242784 10721 net.cpp:141] Setting up pool0
I0804 17:27:37.242792 10721 net.cpp:148] Top shape: 64 24 32 32 (1572864)
I0804 17:27:37.242799 10721 net.cpp:156] Memory required for data: 670041600
I0804 17:27:37.242805 10721 layer_factory.hpp:77] Creating layer conv1
I0804 17:27:37.242816 10721 net.cpp:91] Creating Layer conv1
I0804 17:27:37.242822 10721 net.cpp:425] conv1 <- Pooling4
I0804 17:27:37.242833 10721 net.cpp:399] conv1 -> Convolution7
I0804 17:27:37.245090 10721 net.cpp:141] Setting up conv1
I0804 17:27:37.245116 10721 net.cpp:148] Top shape: 64 64 32 32 (4194304)
I0804 17:27:37.245126 10721 net.cpp:156] Memory required for data: 686818816
I0804 17:27:37.245141 10721 layer_factory.hpp:77] Creating layer ReLU7
I0804 17:27:37.245175 10721 net.cpp:91] Creating Layer ReLU7
I0804 17:27:37.245185 10721 net.cpp:425] ReLU7 <- Convolution7
I0804 17:27:37.245198 10721 net.cpp:386] ReLU7 -> Convolution7 (in-place)
I0804 17:27:37.245218 10721 net.cpp:141] Setting up ReLU7
I0804 17:27:37.245228 10721 net.cpp:148] Top shape: 64 64 32 32 (4194304)
I0804 17:27:37.245235 10721 net.cpp:156] Memory required for data: 703596032
I0804 17:27:37.245245 10721 layer_factory.hpp:77] Creating layer pool1
I0804 17:27:37.245257 10721 net.cpp:91] Creating Layer pool1
I0804 17:27:37.245266 10721 net.cpp:425] pool1 <- Convolution7
I0804 17:27:37.245280 10721 net.cpp:399] pool1 -> Pooling5
I0804 17:27:37.245342 10721 net.cpp:141] Setting up pool1
I0804 17:27:37.245354 10721 net.cpp:148] Top shape: 64 64 16 16 (1048576)
I0804 17:27:37.245362 10721 net.cpp:156] Memory required for data: 707790336
I0804 17:27:37.245370 10721 layer_factory.hpp:77] Creating layer conv2
I0804 17:27:37.245388 10721 net.cpp:91] Creating Layer conv2
I0804 17:27:37.245396 10721 net.cpp:425] conv2 <- Pooling5
I0804 17:27:37.245411 10721 net.cpp:399] conv2 -> Convolution8
I0804 17:27:37.249264 10721 net.cpp:141] Setting up conv2
I0804 17:27:37.249296 10721 net.cpp:148] Top shape: 64 96 16 16 (1572864)
I0804 17:27:37.249305 10721 net.cpp:156] Memory required for data: 714081792
I0804 17:27:37.249318 10721 layer_factory.hpp:77] Creating layer ReLU8
I0804 17:27:37.249330 10721 net.cpp:91] Creating Layer ReLU8
I0804 17:27:37.249337 10721 net.cpp:425] ReLU8 <- Convolution8
I0804 17:27:37.249347 10721 net.cpp:386] ReLU8 -> Convolution8 (in-place)
I0804 17:27:37.249361 10721 net.cpp:141] Setting up ReLU8
I0804 17:27:37.249367 10721 net.cpp:148] Top shape: 64 96 16 16 (1572864)
I0804 17:27:37.249373 10721 net.cpp:156] Memory required for data: 720373248
I0804 17:27:37.249379 10721 layer_factory.hpp:77] Creating layer conv3
I0804 17:27:37.249393 10721 net.cpp:91] Creating Layer conv3
I0804 17:27:37.249399 10721 net.cpp:425] conv3 <- Convolution8
I0804 17:27:37.249410 10721 net.cpp:399] conv3 -> Convolution9
I0804 17:27:37.254396 10721 net.cpp:141] Setting up conv3
I0804 17:27:37.254413 10721 net.cpp:148] Top shape: 64 96 16 16 (1572864)
I0804 17:27:37.254420 10721 net.cpp:156] Memory required for data: 726664704
I0804 17:27:37.254441 10721 layer_factory.hpp:77] Creating layer ReLU9
I0804 17:27:37.254451 10721 net.cpp:91] Creating Layer ReLU9
I0804 17:27:37.254459 10721 net.cpp:425] ReLU9 <- Convolution9
I0804 17:27:37.254468 10721 net.cpp:386] ReLU9 -> Convolution9 (in-place)
I0804 17:27:37.254479 10721 net.cpp:141] Setting up ReLU9
I0804 17:27:37.254487 10721 net.cpp:148] Top shape: 64 96 16 16 (1572864)
I0804 17:27:37.254493 10721 net.cpp:156] Memory required for data: 732956160
I0804 17:27:37.254499 10721 layer_factory.hpp:77] Creating layer conv4
I0804 17:27:37.254513 10721 net.cpp:91] Creating Layer conv4
I0804 17:27:37.254520 10721 net.cpp:425] conv4 <- Convolution9
I0804 17:27:37.254531 10721 net.cpp:399] conv4 -> Convolution10
I0804 17:27:37.260721 10721 net.cpp:141] Setting up conv4
I0804 17:27:37.260741 10721 net.cpp:148] Top shape: 64 64 16 16 (1048576)
I0804 17:27:37.260748 10721 net.cpp:156] Memory required for data: 737150464
I0804 17:27:37.260761 10721 layer_factory.hpp:77] Creating layer ReLU10
I0804 17:27:37.260773 10721 net.cpp:91] Creating Layer ReLU10
I0804 17:27:37.260803 10721 net.cpp:425] ReLU10 <- Convolution10
I0804 17:27:37.260814 10721 net.cpp:386] ReLU10 -> Convolution10 (in-place)
I0804 17:27:37.260828 10721 net.cpp:141] Setting up ReLU10
I0804 17:27:37.260836 10721 net.cpp:148] Top shape: 64 64 16 16 (1048576)
I0804 17:27:37.260843 10721 net.cpp:156] Memory required for data: 741344768
I0804 17:27:37.260848 10721 layer_factory.hpp:77] Creating layer pool4
I0804 17:27:37.260859 10721 net.cpp:91] Creating Layer pool4
I0804 17:27:37.260867 10721 net.cpp:425] pool4 <- Convolution10
I0804 17:27:37.260879 10721 net.cpp:399] pool4 -> Pooling6
I0804 17:27:37.260932 10721 net.cpp:141] Setting up pool4
I0804 17:27:37.260942 10721 net.cpp:148] Top shape: 64 64 8 8 (262144)
I0804 17:27:37.260951 10721 net.cpp:156] Memory required for data: 742393344
I0804 17:27:37.260960 10721 layer_factory.hpp:77] Creating layer Concat1
I0804 17:27:37.260990 10721 net.cpp:91] Creating Layer Concat1
I0804 17:27:37.260998 10721 net.cpp:425] Concat1 <- Pooling3
I0804 17:27:37.261006 10721 net.cpp:425] Concat1 <- Pooling6
I0804 17:27:37.261016 10721 net.cpp:399] Concat1 -> Concat1
I0804 17:27:37.261049 10721 net.cpp:141] Setting up Concat1
I0804 17:27:37.261056 10721 net.cpp:148] Top shape: 64 128 8 8 (524288)
I0804 17:27:37.261062 10721 net.cpp:156] Memory required for data: 744490496
I0804 17:27:37.261067 10721 layer_factory.hpp:77] Creating layer InnerProduct1
I0804 17:27:37.261078 10721 net.cpp:91] Creating Layer InnerProduct1
I0804 17:27:37.261085 10721 net.cpp:425] InnerProduct1 <- Concat1
I0804 17:27:37.261095 10721 net.cpp:399] InnerProduct1 -> InnerProduct1
I0804 17:27:37.271638 10721 net.cpp:141] Setting up InnerProduct1
I0804 17:27:37.271667 10721 net.cpp:148] Top shape: 64 128 (8192)
I0804 17:27:37.271672 10721 net.cpp:156] Memory required for data: 744523264
I0804 17:27:37.271687 10721 layer_factory.hpp:77] Creating layer ReLU11
I0804 17:27:37.271702 10721 net.cpp:91] Creating Layer ReLU11
I0804 17:27:37.271710 10721 net.cpp:425] ReLU11 <- InnerProduct1
I0804 17:27:37.271721 10721 net.cpp:386] ReLU11 -> InnerProduct1 (in-place)
I0804 17:27:37.271733 10721 net.cpp:141] Setting up ReLU11
I0804 17:27:37.271741 10721 net.cpp:148] Top shape: 64 128 (8192)
I0804 17:27:37.271746 10721 net.cpp:156] Memory required for data: 744556032
I0804 17:27:37.271752 10721 layer_factory.hpp:77] Creating layer InnerProduct2
I0804 17:27:37.271764 10721 net.cpp:91] Creating Layer InnerProduct2
I0804 17:27:37.271770 10721 net.cpp:425] InnerProduct2 <- InnerProduct1
I0804 17:27:37.271781 10721 net.cpp:399] InnerProduct2 -> InnerProduct2
I0804 17:27:37.272770 10721 net.cpp:141] Setting up InnerProduct2
I0804 17:27:37.272784 10721 net.cpp:148] Top shape: 64 128 (8192)
I0804 17:27:37.272790 10721 net.cpp:156] Memory required for data: 744588800
I0804 17:27:37.272800 10721 layer_factory.hpp:77] Creating layer ReLU12
I0804 17:27:37.272809 10721 net.cpp:91] Creating Layer ReLU12
I0804 17:27:37.272816 10721 net.cpp:425] ReLU12 <- InnerProduct2
I0804 17:27:37.272826 10721 net.cpp:386] ReLU12 -> InnerProduct2 (in-place)
I0804 17:27:37.272836 10721 net.cpp:141] Setting up ReLU12
I0804 17:27:37.272843 10721 net.cpp:148] Top shape: 64 128 (8192)
I0804 17:27:37.272852 10721 net.cpp:156] Memory required for data: 744621568
I0804 17:27:37.272861 10721 layer_factory.hpp:77] Creating layer dt0
I0804 17:27:37.272876 10721 net.cpp:91] Creating Layer dt0
I0804 17:27:37.272886 10721 net.cpp:425] dt0 <- InnerProduct2
I0804 17:27:37.272909 10721 net.cpp:399] dt0 -> dt0
I0804 17:27:37.273049 10721 net.cpp:141] Setting up dt0
I0804 17:27:37.273061 10721 net.cpp:148] Top shape: 64 1 (64)
I0804 17:27:37.273069 10721 net.cpp:156] Memory required for data: 744621824
I0804 17:27:37.273080 10721 layer_factory.hpp:77] Creating layer conv0
I0804 17:27:37.273097 10721 net.cpp:91] Creating Layer conv0
I0804 17:27:37.273105 10721 net.cpp:425] conv0 <- p1_p1_0_split_1
I0804 17:27:37.273118 10721 net.cpp:399] conv0 -> Convolution11
I0804 17:27:37.273661 10721 net.cpp:141] Setting up conv0
I0804 17:27:37.273672 10721 net.cpp:148] Top shape: 64 24 64 64 (6291456)
I0804 17:27:37.273696 10721 net.cpp:156] Memory required for data: 769787648
I0804 17:27:37.273710 10721 layer_factory.hpp:77] Creating layer ReLU13
I0804 17:27:37.273720 10721 net.cpp:91] Creating Layer ReLU13
I0804 17:27:37.273727 10721 net.cpp:425] ReLU13 <- Convolution11
I0804 17:27:37.273737 10721 net.cpp:386] ReLU13 -> Convolution11 (in-place)
I0804 17:27:37.273749 10721 net.cpp:141] Setting up ReLU13
I0804 17:27:37.273758 10721 net.cpp:148] Top shape: 64 24 64 64 (6291456)
I0804 17:27:37.273764 10721 net.cpp:156] Memory required for data: 794953472
I0804 17:27:37.273772 10721 layer_factory.hpp:77] Creating layer pool0
I0804 17:27:37.273782 10721 net.cpp:91] Creating Layer pool0
I0804 17:27:37.273788 10721 net.cpp:425] pool0 <- Convolution11
I0804 17:27:37.273800 10721 net.cpp:399] pool0 -> Pooling7
I0804 17:27:37.273855 10721 net.cpp:141] Setting up pool0
I0804 17:27:37.273865 10721 net.cpp:148] Top shape: 64 24 32 32 (1572864)
I0804 17:27:37.273872 10721 net.cpp:156] Memory required for data: 801244928
I0804 17:27:37.273880 10721 layer_factory.hpp:77] Creating layer conv1
I0804 17:27:37.273893 10721 net.cpp:91] Creating Layer conv1
I0804 17:27:37.273900 10721 net.cpp:425] conv1 <- Pooling7
I0804 17:27:37.273912 10721 net.cpp:399] conv1 -> Convolution12
I0804 17:27:37.276942 10721 net.cpp:141] Setting up conv1
I0804 17:27:37.276967 10721 net.cpp:148] Top shape: 64 64 32 32 (4194304)
I0804 17:27:37.276975 10721 net.cpp:156] Memory required for data: 818022144
I0804 17:27:37.276993 10721 layer_factory.hpp:77] Creating layer ReLU14
I0804 17:27:37.277009 10721 net.cpp:91] Creating Layer ReLU14
I0804 17:27:37.277020 10721 net.cpp:425] ReLU14 <- Convolution12
I0804 17:27:37.277036 10721 net.cpp:386] ReLU14 -> Convolution12 (in-place)
I0804 17:27:37.277053 10721 net.cpp:141] Setting up ReLU14
I0804 17:27:37.277065 10721 net.cpp:148] Top shape: 64 64 32 32 (4194304)
I0804 17:27:37.277073 10721 net.cpp:156] Memory required for data: 834799360
I0804 17:27:37.277083 10721 layer_factory.hpp:77] Creating layer pool1
I0804 17:27:37.277097 10721 net.cpp:91] Creating Layer pool1
I0804 17:27:37.277107 10721 net.cpp:425] pool1 <- Convolution12
I0804 17:27:37.277120 10721 net.cpp:399] pool1 -> Pooling8
I0804 17:27:37.277181 10721 net.cpp:141] Setting up pool1
I0804 17:27:37.277191 10721 net.cpp:148] Top shape: 64 64 16 16 (1048576)
I0804 17:27:37.277199 10721 net.cpp:156] Memory required for data: 838993664
I0804 17:27:37.277209 10721 layer_factory.hpp:77] Creating layer conv2
I0804 17:27:37.277226 10721 net.cpp:91] Creating Layer conv2
I0804 17:27:37.277236 10721 net.cpp:425] conv2 <- Pooling8
I0804 17:27:37.277251 10721 net.cpp:399] conv2 -> Convolution13
I0804 17:27:37.280485 10721 net.cpp:141] Setting up conv2
I0804 17:27:37.280500 10721 net.cpp:148] Top shape: 64 96 16 16 (1572864)
I0804 17:27:37.280506 10721 net.cpp:156] Memory required for data: 845285120
I0804 17:27:37.280517 10721 layer_factory.hpp:77] Creating layer ReLU15
I0804 17:27:37.280525 10721 net.cpp:91] Creating Layer ReLU15
I0804 17:27:37.280532 10721 net.cpp:425] ReLU15 <- Convolution13
I0804 17:27:37.280541 10721 net.cpp:386] ReLU15 -> Convolution13 (in-place)
I0804 17:27:37.280552 10721 net.cpp:141] Setting up ReLU15
I0804 17:27:37.280561 10721 net.cpp:148] Top shape: 64 96 16 16 (1572864)
I0804 17:27:37.280567 10721 net.cpp:156] Memory required for data: 851576576
I0804 17:27:37.280573 10721 layer_factory.hpp:77] Creating layer conv3
I0804 17:27:37.280586 10721 net.cpp:91] Creating Layer conv3
I0804 17:27:37.280592 10721 net.cpp:425] conv3 <- Convolution13
I0804 17:27:37.280603 10721 net.cpp:399] conv3 -> Convolution14
I0804 17:27:37.284873 10721 net.cpp:141] Setting up conv3
I0804 17:27:37.284884 10721 net.cpp:148] Top shape: 64 96 16 16 (1572864)
I0804 17:27:37.284890 10721 net.cpp:156] Memory required for data: 857868032
I0804 17:27:37.284915 10721 layer_factory.hpp:77] Creating layer ReLU16
I0804 17:27:37.284924 10721 net.cpp:91] Creating Layer ReLU16
I0804 17:27:37.284931 10721 net.cpp:425] ReLU16 <- Convolution14
I0804 17:27:37.284940 10721 net.cpp:386] ReLU16 -> Convolution14 (in-place)
I0804 17:27:37.284972 10721 net.cpp:141] Setting up ReLU16
I0804 17:27:37.284981 10721 net.cpp:148] Top shape: 64 96 16 16 (1572864)
I0804 17:27:37.284986 10721 net.cpp:156] Memory required for data: 864159488
I0804 17:27:37.284992 10721 layer_factory.hpp:77] Creating layer conv4
I0804 17:27:37.285004 10721 net.cpp:91] Creating Layer conv4
I0804 17:27:37.285010 10721 net.cpp:425] conv4 <- Convolution14
I0804 17:27:37.285022 10721 net.cpp:399] conv4 -> Convolution15
I0804 17:27:37.287961 10721 net.cpp:141] Setting up conv4
I0804 17:27:37.287969 10721 net.cpp:148] Top shape: 64 64 16 16 (1048576)
I0804 17:27:37.287976 10721 net.cpp:156] Memory required for data: 868353792
I0804 17:27:37.287986 10721 layer_factory.hpp:77] Creating layer ReLU17
I0804 17:27:37.287993 10721 net.cpp:91] Creating Layer ReLU17
I0804 17:27:37.287999 10721 net.cpp:425] ReLU17 <- Convolution15
I0804 17:27:37.288007 10721 net.cpp:386] ReLU17 -> Convolution15 (in-place)
I0804 17:27:37.288017 10721 net.cpp:141] Setting up ReLU17
I0804 17:27:37.288025 10721 net.cpp:148] Top shape: 64 64 16 16 (1048576)
I0804 17:27:37.288030 10721 net.cpp:156] Memory required for data: 872548096
I0804 17:27:37.288036 10721 layer_factory.hpp:77] Creating layer pool4
I0804 17:27:37.288045 10721 net.cpp:91] Creating Layer pool4
I0804 17:27:37.288051 10721 net.cpp:425] pool4 <- Convolution15
I0804 17:27:37.288061 10721 net.cpp:399] pool4 -> Pooling9
I0804 17:27:37.288101 10721 net.cpp:141] Setting up pool4
I0804 17:27:37.288110 10721 net.cpp:148] Top shape: 64 64 8 8 (262144)
I0804 17:27:37.288115 10721 net.cpp:156] Memory required for data: 873596672
I0804 17:27:37.288120 10721 layer_factory.hpp:77] Creating layer conv0
I0804 17:27:37.288132 10721 net.cpp:91] Creating Layer conv0
I0804 17:27:37.288141 10721 net.cpp:425] conv0 <- c21
I0804 17:27:37.288151 10721 net.cpp:399] conv0 -> Convolution16
I0804 17:27:37.288630 10721 net.cpp:141] Setting up conv0
I0804 17:27:37.288637 10721 net.cpp:148] Top shape: 64 24 64 64 (6291456)
I0804 17:27:37.288642 10721 net.cpp:156] Memory required for data: 898762496
I0804 17:27:37.288652 10721 layer_factory.hpp:77] Creating layer ReLU18
I0804 17:27:37.288661 10721 net.cpp:91] Creating Layer ReLU18
I0804 17:27:37.288667 10721 net.cpp:425] ReLU18 <- Convolution16
I0804 17:27:37.288676 10721 net.cpp:386] ReLU18 -> Convolution16 (in-place)
I0804 17:27:37.288686 10721 net.cpp:141] Setting up ReLU18
I0804 17:27:37.288692 10721 net.cpp:148] Top shape: 64 24 64 64 (6291456)
I0804 17:27:37.288697 10721 net.cpp:156] Memory required for data: 923928320
I0804 17:27:37.288703 10721 layer_factory.hpp:77] Creating layer pool0
I0804 17:27:37.288712 10721 net.cpp:91] Creating Layer pool0
I0804 17:27:37.288717 10721 net.cpp:425] pool0 <- Convolution16
I0804 17:27:37.288727 10721 net.cpp:399] pool0 -> Pooling10
I0804 17:27:37.288772 10721 net.cpp:141] Setting up pool0
I0804 17:27:37.288780 10721 net.cpp:148] Top shape: 64 24 32 32 (1572864)
I0804 17:27:37.288785 10721 net.cpp:156] Memory required for data: 930219776
I0804 17:27:37.288791 10721 layer_factory.hpp:77] Creating layer conv1
I0804 17:27:37.288803 10721 net.cpp:91] Creating Layer conv1
I0804 17:27:37.288810 10721 net.cpp:425] conv1 <- Pooling10
I0804 17:27:37.288820 10721 net.cpp:399] conv1 -> Convolution17
I0804 17:27:37.290974 10721 net.cpp:141] Setting up conv1
I0804 17:27:37.290983 10721 net.cpp:148] Top shape: 64 64 32 32 (4194304)
I0804 17:27:37.290988 10721 net.cpp:156] Memory required for data: 946996992
I0804 17:27:37.290999 10721 layer_factory.hpp:77] Creating layer ReLU19
I0804 17:27:37.291007 10721 net.cpp:91] Creating Layer ReLU19
I0804 17:27:37.291013 10721 net.cpp:425] ReLU19 <- Convolution17
I0804 17:27:37.291023 10721 net.cpp:386] ReLU19 -> Convolution17 (in-place)
I0804 17:27:37.291031 10721 net.cpp:141] Setting up ReLU19
I0804 17:27:37.291039 10721 net.cpp:148] Top shape: 64 64 32 32 (4194304)
I0804 17:27:37.291045 10721 net.cpp:156] Memory required for data: 963774208
I0804 17:27:37.291051 10721 layer_factory.hpp:77] Creating layer pool1
I0804 17:27:37.291069 10721 net.cpp:91] Creating Layer pool1
I0804 17:27:37.291076 10721 net.cpp:425] pool1 <- Convolution17
I0804 17:27:37.291086 10721 net.cpp:399] pool1 -> Pooling11
I0804 17:27:37.291131 10721 net.cpp:141] Setting up pool1
I0804 17:27:37.291139 10721 net.cpp:148] Top shape: 64 64 16 16 (1048576)
I0804 17:27:37.291146 10721 net.cpp:156] Memory required for data: 967968512
I0804 17:27:37.291152 10721 layer_factory.hpp:77] Creating layer conv2
I0804 17:27:37.291164 10721 net.cpp:91] Creating Layer conv2
I0804 17:27:37.291170 10721 net.cpp:425] conv2 <- Pooling11
I0804 17:27:37.291180 10721 net.cpp:399] conv2 -> Convolution18
I0804 17:27:37.297881 10721 net.cpp:141] Setting up conv2
I0804 17:27:37.297899 10721 net.cpp:148] Top shape: 64 96 16 16 (1572864)
I0804 17:27:37.297906 10721 net.cpp:156] Memory required for data: 974259968
I0804 17:27:37.297919 10721 layer_factory.hpp:77] Creating layer ReLU20
I0804 17:27:37.297929 10721 net.cpp:91] Creating Layer ReLU20
I0804 17:27:37.297936 10721 net.cpp:425] ReLU20 <- Convolution18
I0804 17:27:37.297946 10721 net.cpp:386] ReLU20 -> Convolution18 (in-place)
I0804 17:27:37.297957 10721 net.cpp:141] Setting up ReLU20
I0804 17:27:37.297966 10721 net.cpp:148] Top shape: 64 96 16 16 (1572864)
I0804 17:27:37.297971 10721 net.cpp:156] Memory required for data: 980551424
I0804 17:27:37.297977 10721 layer_factory.hpp:77] Creating layer conv3
I0804 17:27:37.297991 10721 net.cpp:91] Creating Layer conv3
I0804 17:27:37.297996 10721 net.cpp:425] conv3 <- Convolution18
I0804 17:27:37.298007 10721 net.cpp:399] conv3 -> Convolution19
I0804 17:27:37.302275 10721 net.cpp:141] Setting up conv3
I0804 17:27:37.302284 10721 net.cpp:148] Top shape: 64 96 16 16 (1572864)
I0804 17:27:37.302290 10721 net.cpp:156] Memory required for data: 986842880
I0804 17:27:37.302301 10721 layer_factory.hpp:77] Creating layer ReLU21
I0804 17:27:37.302309 10721 net.cpp:91] Creating Layer ReLU21
I0804 17:27:37.302316 10721 net.cpp:425] ReLU21 <- Convolution19
I0804 17:27:37.302325 10721 net.cpp:386] ReLU21 -> Convolution19 (in-place)
I0804 17:27:37.302335 10721 net.cpp:141] Setting up ReLU21
I0804 17:27:37.302342 10721 net.cpp:148] Top shape: 64 96 16 16 (1572864)
I0804 17:27:37.302348 10721 net.cpp:156] Memory required for data: 993134336
I0804 17:27:37.302355 10721 layer_factory.hpp:77] Creating layer conv4
I0804 17:27:37.302366 10721 net.cpp:91] Creating Layer conv4
I0804 17:27:37.302372 10721 net.cpp:425] conv4 <- Convolution19
I0804 17:27:37.302383 10721 net.cpp:399] conv4 -> Convolution20
I0804 17:27:37.305654 10721 net.cpp:141] Setting up conv4
I0804 17:27:37.305675 10721 net.cpp:148] Top shape: 64 64 16 16 (1048576)
I0804 17:27:37.305683 10721 net.cpp:156] Memory required for data: 997328640
I0804 17:27:37.305698 10721 layer_factory.hpp:77] Creating layer ReLU22
I0804 17:27:37.305719 10721 net.cpp:91] Creating Layer ReLU22
I0804 17:27:37.305776 10721 net.cpp:425] ReLU22 <- Convolution20
I0804 17:27:37.305816 10721 net.cpp:386] ReLU22 -> Convolution20 (in-place)
I0804 17:27:37.305852 10721 net.cpp:141] Setting up ReLU22
I0804 17:27:37.305882 10721 net.cpp:148] Top shape: 64 64 16 16 (1048576)
I0804 17:27:37.305909 10721 net.cpp:156] Memory required for data: 1001522944
I0804 17:27:37.305938 10721 layer_factory.hpp:77] Creating layer pool4
I0804 17:27:37.305970 10721 net.cpp:91] Creating Layer pool4
I0804 17:27:37.306001 10721 net.cpp:425] pool4 <- Convolution20
I0804 17:27:37.306036 10721 net.cpp:399] pool4 -> Pooling12
I0804 17:27:37.306121 10721 net.cpp:141] Setting up pool4
I0804 17:27:37.306154 10721 net.cpp:148] Top shape: 64 64 8 8 (262144)
I0804 17:27:37.306180 10721 net.cpp:156] Memory required for data: 1002571520
I0804 17:27:37.306210 10721 layer_factory.hpp:77] Creating layer Concat2
I0804 17:27:37.306247 10721 net.cpp:91] Creating Layer Concat2
I0804 17:27:37.306285 10721 net.cpp:425] Concat2 <- Pooling9
I0804 17:27:37.306318 10721 net.cpp:425] Concat2 <- Pooling12
I0804 17:27:37.306354 10721 net.cpp:399] Concat2 -> Concat2
I0804 17:27:37.306427 10721 net.cpp:141] Setting up Concat2
I0804 17:27:37.307164 10721 net.cpp:148] Top shape: 64 128 8 8 (524288)
I0804 17:27:37.307193 10721 net.cpp:156] Memory required for data: 1004668672
I0804 17:27:37.307204 10721 layer_factory.hpp:77] Creating layer InnerProduct3
I0804 17:27:37.307219 10721 net.cpp:91] Creating Layer InnerProduct3
I0804 17:27:37.307229 10721 net.cpp:425] InnerProduct3 <- Concat2
I0804 17:27:37.307246 10721 net.cpp:399] InnerProduct3 -> InnerProduct3
I0804 17:27:37.319011 10721 net.cpp:141] Setting up InnerProduct3
I0804 17:27:37.319052 10721 net.cpp:148] Top shape: 64 128 (8192)
I0804 17:27:37.319061 10721 net.cpp:156] Memory required for data: 1004701440
I0804 17:27:37.319075 10721 net.cpp:484] Sharing parameters 'fc1_w' owned by layer 'InnerProduct1', param index 0
I0804 17:27:37.319087 10721 net.cpp:484] Sharing parameters 'fc1_b' owned by layer 'InnerProduct1', param index 1
I0804 17:27:37.319095 10721 layer_factory.hpp:77] Creating layer ReLU23
I0804 17:27:37.319115 10721 net.cpp:91] Creating Layer ReLU23
I0804 17:27:37.319126 10721 net.cpp:425] ReLU23 <- InnerProduct3
I0804 17:27:37.319140 10721 net.cpp:386] ReLU23 -> InnerProduct3 (in-place)
I0804 17:27:37.319157 10721 net.cpp:141] Setting up ReLU23
I0804 17:27:37.319167 10721 net.cpp:148] Top shape: 64 128 (8192)
I0804 17:27:37.319175 10721 net.cpp:156] Memory required for data: 1004734208
I0804 17:27:37.319182 10721 layer_factory.hpp:77] Creating layer InnerProduct4
I0804 17:27:37.319197 10721 net.cpp:91] Creating Layer InnerProduct4
I0804 17:27:37.319206 10721 net.cpp:425] InnerProduct4 <- InnerProduct3
I0804 17:27:37.319219 10721 net.cpp:399] InnerProduct4 -> InnerProduct4
I0804 17:27:37.319497 10721 net.cpp:141] Setting up InnerProduct4
I0804 17:27:37.319514 10721 net.cpp:148] Top shape: 64 128 (8192)
I0804 17:27:37.319521 10721 net.cpp:156] Memory required for data: 1004766976
I0804 17:27:37.319530 10721 net.cpp:484] Sharing parameters 'fc2_w' owned by layer 'InnerProduct2', param index 0
I0804 17:27:37.319540 10721 net.cpp:484] Sharing parameters 'fc2_b' owned by layer 'InnerProduct2', param index 1
I0804 17:27:37.319547 10721 layer_factory.hpp:77] Creating layer ReLU24
I0804 17:27:37.319558 10721 net.cpp:91] Creating Layer ReLU24
I0804 17:27:37.319566 10721 net.cpp:425] ReLU24 <- InnerProduct4
I0804 17:27:37.319578 10721 net.cpp:386] ReLU24 -> InnerProduct4 (in-place)
I0804 17:27:37.319591 10721 net.cpp:141] Setting up ReLU24
I0804 17:27:37.319602 10721 net.cpp:148] Top shape: 64 128 (8192)
I0804 17:27:37.319608 10721 net.cpp:156] Memory required for data: 1004799744
I0804 17:27:37.319617 10721 layer_factory.hpp:77] Creating layer dt1
I0804 17:27:37.319631 10721 net.cpp:91] Creating Layer dt1
I0804 17:27:37.319640 10721 net.cpp:425] dt1 <- InnerProduct4
I0804 17:27:37.319654 10721 net.cpp:399] dt1 -> dt1
I0804 17:27:37.319795 10721 net.cpp:141] Setting up dt1
I0804 17:27:37.319810 10721 net.cpp:148] Top shape: 64 1 (64)
I0804 17:27:37.319818 10721 net.cpp:156] Memory required for data: 1004800000
I0804 17:27:37.319828 10721 net.cpp:484] Sharing parameters 'fc3_w' owned by layer 'dt0', param index 0
I0804 17:27:37.319836 10721 net.cpp:484] Sharing parameters 'fc3_b' owned by layer 'dt0', param index 1
I0804 17:27:37.319845 10721 layer_factory.hpp:77] Creating layer conv0
I0804 17:27:37.319864 10721 net.cpp:91] Creating Layer conv0
I0804 17:27:37.319874 10721 net.cpp:425] conv0 <- p1_p1_0_split_2
I0804 17:27:37.319887 10721 net.cpp:399] conv0 -> Convolution21
I0804 17:27:37.320405 10721 net.cpp:141] Setting up conv0
I0804 17:27:37.320425 10721 net.cpp:148] Top shape: 64 24 64 64 (6291456)
I0804 17:27:37.320432 10721 net.cpp:156] Memory required for data: 1029965824
I0804 17:27:37.320446 10721 layer_factory.hpp:77] Creating layer ReLU25
I0804 17:27:37.320457 10721 net.cpp:91] Creating Layer ReLU25
I0804 17:27:37.320466 10721 net.cpp:425] ReLU25 <- Convolution21
I0804 17:27:37.320477 10721 net.cpp:386] ReLU25 -> Convolution21 (in-place)
I0804 17:27:37.320490 10721 net.cpp:141] Setting up ReLU25
I0804 17:27:37.320502 10721 net.cpp:148] Top shape: 64 24 64 64 (6291456)
I0804 17:27:37.320528 10721 net.cpp:156] Memory required for data: 1055131648
I0804 17:27:37.320538 10721 layer_factory.hpp:77] Creating layer pool0
I0804 17:27:37.320551 10721 net.cpp:91] Creating Layer pool0
I0804 17:27:37.320560 10721 net.cpp:425] pool0 <- Convolution21
I0804 17:27:37.320574 10721 net.cpp:399] pool0 -> Pooling13
I0804 17:27:37.320663 10721 net.cpp:141] Setting up pool0
I0804 17:27:37.320678 10721 net.cpp:148] Top shape: 64 24 32 32 (1572864)
I0804 17:27:37.320686 10721 net.cpp:156] Memory required for data: 1061423104
I0804 17:27:37.320693 10721 layer_factory.hpp:77] Creating layer conv1
I0804 17:27:37.320714 10721 net.cpp:91] Creating Layer conv1
I0804 17:27:37.320724 10721 net.cpp:425] conv1 <- Pooling13
I0804 17:27:37.320736 10721 net.cpp:399] conv1 -> Convolution22
I0804 17:27:37.322913 10721 net.cpp:141] Setting up conv1
I0804 17:27:37.322931 10721 net.cpp:148] Top shape: 64 64 32 32 (4194304)
I0804 17:27:37.322938 10721 net.cpp:156] Memory required for data: 1078200320
I0804 17:27:37.322952 10721 layer_factory.hpp:77] Creating layer ReLU26
I0804 17:27:37.322962 10721 net.cpp:91] Creating Layer ReLU26
I0804 17:27:37.322971 10721 net.cpp:425] ReLU26 <- Convolution22
I0804 17:27:37.322985 10721 net.cpp:386] ReLU26 -> Convolution22 (in-place)
I0804 17:27:37.322999 10721 net.cpp:141] Setting up ReLU26
I0804 17:27:37.323009 10721 net.cpp:148] Top shape: 64 64 32 32 (4194304)
I0804 17:27:37.323016 10721 net.cpp:156] Memory required for data: 1094977536
I0804 17:27:37.323024 10721 layer_factory.hpp:77] Creating layer pool1
I0804 17:27:37.323035 10721 net.cpp:91] Creating Layer pool1
I0804 17:27:37.323042 10721 net.cpp:425] pool1 <- Convolution22
I0804 17:27:37.323055 10721 net.cpp:399] pool1 -> Pooling14
I0804 17:27:37.323109 10721 net.cpp:141] Setting up pool1
I0804 17:27:37.323123 10721 net.cpp:148] Top shape: 64 64 16 16 (1048576)
I0804 17:27:37.323130 10721 net.cpp:156] Memory required for data: 1099171840
I0804 17:27:37.323138 10721 layer_factory.hpp:77] Creating layer conv2
I0804 17:27:37.323153 10721 net.cpp:91] Creating Layer conv2
I0804 17:27:37.323161 10721 net.cpp:425] conv2 <- Pooling14
I0804 17:27:37.323179 10721 net.cpp:399] conv2 -> Convolution23
I0804 17:27:37.326179 10721 net.cpp:141] Setting up conv2
I0804 17:27:37.326195 10721 net.cpp:148] Top shape: 64 96 16 16 (1572864)
I0804 17:27:37.326202 10721 net.cpp:156] Memory required for data: 1105463296
I0804 17:27:37.326217 10721 layer_factory.hpp:77] Creating layer ReLU27
I0804 17:27:37.326227 10721 net.cpp:91] Creating Layer ReLU27
I0804 17:27:37.326236 10721 net.cpp:425] ReLU27 <- Convolution23
I0804 17:27:37.326251 10721 net.cpp:386] ReLU27 -> Convolution23 (in-place)
I0804 17:27:37.326263 10721 net.cpp:141] Setting up ReLU27
I0804 17:27:37.326273 10721 net.cpp:148] Top shape: 64 96 16 16 (1572864)
I0804 17:27:37.326282 10721 net.cpp:156] Memory required for data: 1111754752
I0804 17:27:37.326289 10721 layer_factory.hpp:77] Creating layer conv3
I0804 17:27:37.326304 10721 net.cpp:91] Creating Layer conv3
I0804 17:27:37.326313 10721 net.cpp:425] conv3 <- Convolution23
I0804 17:27:37.326328 10721 net.cpp:399] conv3 -> Convolution24
I0804 17:27:37.331385 10721 net.cpp:141] Setting up conv3
I0804 17:27:37.331409 10721 net.cpp:148] Top shape: 64 96 16 16 (1572864)
I0804 17:27:37.331418 10721 net.cpp:156] Memory required for data: 1118046208
I0804 17:27:37.331434 10721 layer_factory.hpp:77] Creating layer ReLU28
I0804 17:27:37.331449 10721 net.cpp:91] Creating Layer ReLU28
I0804 17:27:37.331460 10721 net.cpp:425] ReLU28 <- Convolution24
I0804 17:27:37.331471 10721 net.cpp:386] ReLU28 -> Convolution24 (in-place)
I0804 17:27:37.331486 10721 net.cpp:141] Setting up ReLU28
I0804 17:27:37.331496 10721 net.cpp:148] Top shape: 64 96 16 16 (1572864)
I0804 17:27:37.331504 10721 net.cpp:156] Memory required for data: 1124337664
I0804 17:27:37.331512 10721 layer_factory.hpp:77] Creating layer conv4
I0804 17:27:37.331532 10721 net.cpp:91] Creating Layer conv4
I0804 17:27:37.331539 10721 net.cpp:425] conv4 <- Convolution24
I0804 17:27:37.331554 10721 net.cpp:399] conv4 -> Convolution25
I0804 17:27:37.334556 10721 net.cpp:141] Setting up conv4
I0804 17:27:37.334573 10721 net.cpp:148] Top shape: 64 64 16 16 (1048576)
I0804 17:27:37.334580 10721 net.cpp:156] Memory required for data: 1128531968
I0804 17:27:37.334592 10721 layer_factory.hpp:77] Creating layer ReLU29
I0804 17:27:37.334604 10721 net.cpp:91] Creating Layer ReLU29
I0804 17:27:37.334611 10721 net.cpp:425] ReLU29 <- Convolution25
I0804 17:27:37.334621 10721 net.cpp:386] ReLU29 -> Convolution25 (in-place)
I0804 17:27:37.334632 10721 net.cpp:141] Setting up ReLU29
I0804 17:27:37.334641 10721 net.cpp:148] Top shape: 64 64 16 16 (1048576)
I0804 17:27:37.334648 10721 net.cpp:156] Memory required for data: 1132726272
I0804 17:27:37.334656 10721 layer_factory.hpp:77] Creating layer pool4
I0804 17:27:37.334666 10721 net.cpp:91] Creating Layer pool4
I0804 17:27:37.334673 10721 net.cpp:425] pool4 <- Convolution25
I0804 17:27:37.334687 10721 net.cpp:399] pool4 -> Pooling15
I0804 17:27:37.334738 10721 net.cpp:141] Setting up pool4
I0804 17:27:37.334748 10721 net.cpp:148] Top shape: 64 64 8 8 (262144)
I0804 17:27:37.334753 10721 net.cpp:156] Memory required for data: 1133774848
I0804 17:27:37.334760 10721 layer_factory.hpp:77] Creating layer conv0
I0804 17:27:37.334777 10721 net.cpp:91] Creating Layer conv0
I0804 17:27:37.334785 10721 net.cpp:425] conv0 <- c22
I0804 17:27:37.334800 10721 net.cpp:399] conv0 -> Convolution26
I0804 17:27:37.335351 10721 net.cpp:141] Setting up conv0
I0804 17:27:37.335374 10721 net.cpp:148] Top shape: 64 24 64 64 (6291456)
I0804 17:27:37.335381 10721 net.cpp:156] Memory required for data: 1158940672
I0804 17:27:37.335394 10721 layer_factory.hpp:77] Creating layer ReLU30
I0804 17:27:37.335405 10721 net.cpp:91] Creating Layer ReLU30
I0804 17:27:37.335412 10721 net.cpp:425] ReLU30 <- Convolution26
I0804 17:27:37.335432 10721 net.cpp:386] ReLU30 -> Convolution26 (in-place)
I0804 17:27:37.335448 10721 net.cpp:141] Setting up ReLU30
I0804 17:27:37.335456 10721 net.cpp:148] Top shape: 64 24 64 64 (6291456)
I0804 17:27:37.335464 10721 net.cpp:156] Memory required for data: 1184106496
I0804 17:27:37.335470 10721 layer_factory.hpp:77] Creating layer pool0
I0804 17:27:37.335480 10721 net.cpp:91] Creating Layer pool0
I0804 17:27:37.335489 10721 net.cpp:425] pool0 <- Convolution26
I0804 17:27:37.335500 10721 net.cpp:399] pool0 -> Pooling16
I0804 17:27:37.335567 10721 net.cpp:141] Setting up pool0
I0804 17:27:37.335585 10721 net.cpp:148] Top shape: 64 24 32 32 (1572864)
I0804 17:27:37.335594 10721 net.cpp:156] Memory required for data: 1190397952
I0804 17:27:37.335604 10721 layer_factory.hpp:77] Creating layer conv1
I0804 17:27:37.335620 10721 net.cpp:91] Creating Layer conv1
I0804 17:27:37.335628 10721 net.cpp:425] conv1 <- Pooling16
I0804 17:27:37.335644 10721 net.cpp:399] conv1 -> Convolution27
I0804 17:27:37.338547 10721 net.cpp:141] Setting up conv1
I0804 17:27:37.338567 10721 net.cpp:148] Top shape: 64 64 32 32 (4194304)
I0804 17:27:37.338573 10721 net.cpp:156] Memory required for data: 1207175168
I0804 17:27:37.338609 10721 layer_factory.hpp:77] Creating layer ReLU31
I0804 17:27:37.338657 10721 net.cpp:91] Creating Layer ReLU31
I0804 17:27:37.338666 10721 net.cpp:425] ReLU31 <- Convolution27
I0804 17:27:37.338676 10721 net.cpp:386] ReLU31 -> Convolution27 (in-place)
I0804 17:27:37.338687 10721 net.cpp:141] Setting up ReLU31
I0804 17:27:37.338696 10721 net.cpp:148] Top shape: 64 64 32 32 (4194304)
I0804 17:27:37.338701 10721 net.cpp:156] Memory required for data: 1223952384
I0804 17:27:37.338707 10721 layer_factory.hpp:77] Creating layer pool1
I0804 17:27:37.338718 10721 net.cpp:91] Creating Layer pool1
I0804 17:27:37.338724 10721 net.cpp:425] pool1 <- Convolution27
I0804 17:27:37.338734 10721 net.cpp:399] pool1 -> Pooling17
I0804 17:27:37.338783 10721 net.cpp:141] Setting up pool1
I0804 17:27:37.338793 10721 net.cpp:148] Top shape: 64 64 16 16 (1048576)
I0804 17:27:37.338799 10721 net.cpp:156] Memory required for data: 1228146688
I0804 17:27:37.338804 10721 layer_factory.hpp:77] Creating layer conv2
I0804 17:27:37.338836 10721 net.cpp:91] Creating Layer conv2
I0804 17:27:37.338845 10721 net.cpp:425] conv2 <- Pooling17
I0804 17:27:37.338865 10721 net.cpp:399] conv2 -> Convolution28
I0804 17:27:37.341887 10721 net.cpp:141] Setting up conv2
I0804 17:27:37.341902 10721 net.cpp:148] Top shape: 64 96 16 16 (1572864)
I0804 17:27:37.341907 10721 net.cpp:156] Memory required for data: 1234438144
I0804 17:27:37.341918 10721 layer_factory.hpp:77] Creating layer ReLU32
I0804 17:27:37.341928 10721 net.cpp:91] Creating Layer ReLU32
I0804 17:27:37.341933 10721 net.cpp:425] ReLU32 <- Convolution28
I0804 17:27:37.341943 10721 net.cpp:386] ReLU32 -> Convolution28 (in-place)
I0804 17:27:37.341953 10721 net.cpp:141] Setting up ReLU32
I0804 17:27:37.341959 10721 net.cpp:148] Top shape: 64 96 16 16 (1572864)
I0804 17:27:37.341965 10721 net.cpp:156] Memory required for data: 1240729600
I0804 17:27:37.341970 10721 layer_factory.hpp:77] Creating layer conv3
I0804 17:27:37.341987 10721 net.cpp:91] Creating Layer conv3
I0804 17:27:37.341994 10721 net.cpp:425] conv3 <- Convolution28
I0804 17:27:37.342005 10721 net.cpp:399] conv3 -> Convolution29
I0804 17:27:37.346225 10721 net.cpp:141] Setting up conv3
I0804 17:27:37.346246 10721 net.cpp:148] Top shape: 64 96 16 16 (1572864)
I0804 17:27:37.346252 10721 net.cpp:156] Memory required for data: 1247021056
I0804 17:27:37.346261 10721 layer_factory.hpp:77] Creating layer ReLU33
I0804 17:27:37.346269 10721 net.cpp:91] Creating Layer ReLU33
I0804 17:27:37.346276 10721 net.cpp:425] ReLU33 <- Convolution29
I0804 17:27:37.346287 10721 net.cpp:386] ReLU33 -> Convolution29 (in-place)
I0804 17:27:37.346303 10721 net.cpp:141] Setting up ReLU33
I0804 17:27:37.346312 10721 net.cpp:148] Top shape: 64 96 16 16 (1572864)
I0804 17:27:37.346316 10721 net.cpp:156] Memory required for data: 1253312512
I0804 17:27:37.346323 10721 layer_factory.hpp:77] Creating layer conv4
I0804 17:27:37.346334 10721 net.cpp:91] Creating Layer conv4
I0804 17:27:37.346341 10721 net.cpp:425] conv4 <- Convolution29
I0804 17:27:37.346354 10721 net.cpp:399] conv4 -> Convolution30
I0804 17:27:37.349254 10721 net.cpp:141] Setting up conv4
I0804 17:27:37.349277 10721 net.cpp:148] Top shape: 64 64 16 16 (1048576)
I0804 17:27:37.349282 10721 net.cpp:156] Memory required for data: 1257506816
I0804 17:27:37.349293 10721 layer_factory.hpp:77] Creating layer ReLU34
I0804 17:27:37.349303 10721 net.cpp:91] Creating Layer ReLU34
I0804 17:27:37.349310 10721 net.cpp:425] ReLU34 <- Convolution30
I0804 17:27:37.349318 10721 net.cpp:386] ReLU34 -> Convolution30 (in-place)
I0804 17:27:37.349335 10721 net.cpp:141] Setting up ReLU34
I0804 17:27:37.349342 10721 net.cpp:148] Top shape: 64 64 16 16 (1048576)
I0804 17:27:37.349349 10721 net.cpp:156] Memory required for data: 1261701120
I0804 17:27:37.349354 10721 layer_factory.hpp:77] Creating layer pool4
I0804 17:27:37.349362 10721 net.cpp:91] Creating Layer pool4
I0804 17:27:37.349369 10721 net.cpp:425] pool4 <- Convolution30
I0804 17:27:37.349380 10721 net.cpp:399] pool4 -> Pooling18
I0804 17:27:37.349421 10721 net.cpp:141] Setting up pool4
I0804 17:27:37.349428 10721 net.cpp:148] Top shape: 64 64 8 8 (262144)
I0804 17:27:37.349434 10721 net.cpp:156] Memory required for data: 1262749696
I0804 17:27:37.349441 10721 layer_factory.hpp:77] Creating layer Concat3
I0804 17:27:37.349448 10721 net.cpp:91] Creating Layer Concat3
I0804 17:27:37.349457 10721 net.cpp:425] Concat3 <- Pooling15
I0804 17:27:37.349464 10721 net.cpp:425] Concat3 <- Pooling18
I0804 17:27:37.349473 10721 net.cpp:399] Concat3 -> Concat3
I0804 17:27:37.349503 10721 net.cpp:141] Setting up Concat3
I0804 17:27:37.349509 10721 net.cpp:148] Top shape: 64 128 8 8 (524288)
I0804 17:27:37.349515 10721 net.cpp:156] Memory required for data: 1264846848
I0804 17:27:37.349520 10721 layer_factory.hpp:77] Creating layer InnerProduct5
I0804 17:27:37.349532 10721 net.cpp:91] Creating Layer InnerProduct5
I0804 17:27:37.349539 10721 net.cpp:425] InnerProduct5 <- Concat3
I0804 17:27:37.349550 10721 net.cpp:399] InnerProduct5 -> InnerProduct5
I0804 17:27:37.359581 10721 net.cpp:141] Setting up InnerProduct5
I0804 17:27:37.359628 10721 net.cpp:148] Top shape: 64 128 (8192)
I0804 17:27:37.359634 10721 net.cpp:156] Memory required for data: 1264879616
I0804 17:27:37.359642 10721 net.cpp:484] Sharing parameters 'fc1_w' owned by layer 'InnerProduct1', param index 0
I0804 17:27:37.359649 10721 net.cpp:484] Sharing parameters 'fc1_b' owned by layer 'InnerProduct1', param index 1
I0804 17:27:37.359655 10721 layer_factory.hpp:77] Creating layer ReLU35
I0804 17:27:37.359664 10721 net.cpp:91] Creating Layer ReLU35
I0804 17:27:37.359671 10721 net.cpp:425] ReLU35 <- InnerProduct5
I0804 17:27:37.359694 10721 net.cpp:386] ReLU35 -> InnerProduct5 (in-place)
I0804 17:27:37.359704 10721 net.cpp:141] Setting up ReLU35
I0804 17:27:37.359711 10721 net.cpp:148] Top shape: 64 128 (8192)
I0804 17:27:37.359717 10721 net.cpp:156] Memory required for data: 1264912384
I0804 17:27:37.359722 10721 layer_factory.hpp:77] Creating layer InnerProduct6
I0804 17:27:37.359732 10721 net.cpp:91] Creating Layer InnerProduct6
I0804 17:27:37.359738 10721 net.cpp:425] InnerProduct6 <- InnerProduct5
I0804 17:27:37.359748 10721 net.cpp:399] InnerProduct6 -> InnerProduct6
I0804 17:27:37.360002 10721 net.cpp:141] Setting up InnerProduct6
I0804 17:27:37.360011 10721 net.cpp:148] Top shape: 64 128 (8192)
I0804 17:27:37.360018 10721 net.cpp:156] Memory required for data: 1264945152
I0804 17:27:37.360023 10721 net.cpp:484] Sharing parameters 'fc2_w' owned by layer 'InnerProduct2', param index 0
I0804 17:27:37.360030 10721 net.cpp:484] Sharing parameters 'fc2_b' owned by layer 'InnerProduct2', param index 1
I0804 17:27:37.360036 10721 layer_factory.hpp:77] Creating layer ReLU36
I0804 17:27:37.360044 10721 net.cpp:91] Creating Layer ReLU36
I0804 17:27:37.360050 10721 net.cpp:425] ReLU36 <- InnerProduct6
I0804 17:27:37.360059 10721 net.cpp:386] ReLU36 -> InnerProduct6 (in-place)
I0804 17:27:37.360067 10721 net.cpp:141] Setting up ReLU36
I0804 17:27:37.360074 10721 net.cpp:148] Top shape: 64 128 (8192)
I0804 17:27:37.360080 10721 net.cpp:156] Memory required for data: 1264977920
I0804 17:27:37.360085 10721 layer_factory.hpp:77] Creating layer dt2
I0804 17:27:37.360095 10721 net.cpp:91] Creating Layer dt2
I0804 17:27:37.360100 10721 net.cpp:425] dt2 <- InnerProduct6
I0804 17:27:37.360113 10721 net.cpp:399] dt2 -> dt2
I0804 17:27:37.360242 10721 net.cpp:141] Setting up dt2
I0804 17:27:37.360254 10721 net.cpp:148] Top shape: 64 1 (64)
I0804 17:27:37.360258 10721 net.cpp:156] Memory required for data: 1264978176
I0804 17:27:37.360265 10721 net.cpp:484] Sharing parameters 'fc3_w' owned by layer 'dt0', param index 0
I0804 17:27:37.360272 10721 net.cpp:484] Sharing parameters 'fc3_b' owned by layer 'dt0', param index 1
I0804 17:27:37.360278 10721 layer_factory.hpp:77] Creating layer conv0
I0804 17:27:37.360290 10721 net.cpp:91] Creating Layer conv0
I0804 17:27:37.360296 10721 net.cpp:425] conv0 <- p1_p1_0_split_3
I0804 17:27:37.360307 10721 net.cpp:399] conv0 -> Convolution31
I0804 17:27:37.360806 10721 net.cpp:141] Setting up conv0
I0804 17:27:37.360822 10721 net.cpp:148] Top shape: 64 24 64 64 (6291456)
I0804 17:27:37.360827 10721 net.cpp:156] Memory required for data: 1290144000
I0804 17:27:37.360838 10721 layer_factory.hpp:77] Creating layer ReLU37
I0804 17:27:37.360846 10721 net.cpp:91] Creating Layer ReLU37
I0804 17:27:37.360852 10721 net.cpp:425] ReLU37 <- Convolution31
I0804 17:27:37.360860 10721 net.cpp:386] ReLU37 -> Convolution31 (in-place)
I0804 17:27:37.360869 10721 net.cpp:141] Setting up ReLU37
I0804 17:27:37.360877 10721 net.cpp:148] Top shape: 64 24 64 64 (6291456)
I0804 17:27:37.360882 10721 net.cpp:156] Memory required for data: 1315309824
I0804 17:27:37.360888 10721 layer_factory.hpp:77] Creating layer pool0
I0804 17:27:37.360896 10721 net.cpp:91] Creating Layer pool0
I0804 17:27:37.360903 10721 net.cpp:425] pool0 <- Convolution31
I0804 17:27:37.360914 10721 net.cpp:399] pool0 -> Pooling19
I0804 17:27:37.360961 10721 net.cpp:141] Setting up pool0
I0804 17:27:37.360970 10721 net.cpp:148] Top shape: 64 24 32 32 (1572864)
I0804 17:27:37.360983 10721 net.cpp:156] Memory required for data: 1321601280
I0804 17:27:37.360990 10721 layer_factory.hpp:77] Creating layer conv1
I0804 17:27:37.361004 10721 net.cpp:91] Creating Layer conv1
I0804 17:27:37.361011 10721 net.cpp:425] conv1 <- Pooling19
I0804 17:27:37.361021 10721 net.cpp:399] conv1 -> Convolution32
I0804 17:27:37.363126 10721 net.cpp:141] Setting up conv1
I0804 17:27:37.363132 10721 net.cpp:148] Top shape: 64 64 32 32 (4194304)
I0804 17:27:37.363138 10721 net.cpp:156] Memory required for data: 1338378496
I0804 17:27:37.363147 10721 layer_factory.hpp:77] Creating layer ReLU38
I0804 17:27:37.363155 10721 net.cpp:91] Creating Layer ReLU38
I0804 17:27:37.363162 10721 net.cpp:425] ReLU38 <- Convolution32
I0804 17:27:37.363171 10721 net.cpp:386] ReLU38 -> Convolution32 (in-place)
I0804 17:27:37.363180 10721 net.cpp:141] Setting up ReLU38
I0804 17:27:37.363188 10721 net.cpp:148] Top shape: 64 64 32 32 (4194304)
I0804 17:27:37.363193 10721 net.cpp:156] Memory required for data: 1355155712
I0804 17:27:37.363198 10721 layer_factory.hpp:77] Creating layer pool1
I0804 17:27:37.363206 10721 net.cpp:91] Creating Layer pool1
I0804 17:27:37.363212 10721 net.cpp:425] pool1 <- Convolution32
I0804 17:27:37.363220 10721 net.cpp:399] pool1 -> Pooling20
I0804 17:27:37.363281 10721 net.cpp:141] Setting up pool1
I0804 17:27:37.363289 10721 net.cpp:148] Top shape: 64 64 16 16 (1048576)
I0804 17:27:37.363296 10721 net.cpp:156] Memory required for data: 1359350016
I0804 17:27:37.363301 10721 layer_factory.hpp:77] Creating layer conv2
I0804 17:27:37.363313 10721 net.cpp:91] Creating Layer conv2
I0804 17:27:37.363319 10721 net.cpp:425] conv2 <- Pooling20
I0804 17:27:37.363332 10721 net.cpp:399] conv2 -> Convolution33
I0804 17:27:37.366333 10721 net.cpp:141] Setting up conv2
I0804 17:27:37.366345 10721 net.cpp:148] Top shape: 64 96 16 16 (1572864)
I0804 17:27:37.366353 10721 net.cpp:156] Memory required for data: 1365641472
I0804 17:27:37.366367 10721 layer_factory.hpp:77] Creating layer ReLU39
I0804 17:27:37.366379 10721 net.cpp:91] Creating Layer ReLU39
I0804 17:27:37.366385 10721 net.cpp:425] ReLU39 <- Convolution33
I0804 17:27:37.366400 10721 net.cpp:386] ReLU39 -> Convolution33 (in-place)
I0804 17:27:37.366412 10721 net.cpp:141] Setting up ReLU39
I0804 17:27:37.366422 10721 net.cpp:148] Top shape: 64 96 16 16 (1572864)
I0804 17:27:37.366430 10721 net.cpp:156] Memory required for data: 1371932928
I0804 17:27:37.366436 10721 layer_factory.hpp:77] Creating layer conv3
I0804 17:27:37.366451 10721 net.cpp:91] Creating Layer conv3
I0804 17:27:37.366463 10721 net.cpp:425] conv3 <- Convolution33
I0804 17:27:37.366479 10721 net.cpp:399] conv3 -> Convolution34
I0804 17:27:37.370841 10721 net.cpp:141] Setting up conv3
I0804 17:27:37.370862 10721 net.cpp:148] Top shape: 64 96 16 16 (1572864)
I0804 17:27:37.370869 10721 net.cpp:156] Memory required for data: 1378224384
I0804 17:27:37.370883 10721 layer_factory.hpp:77] Creating layer ReLU40
I0804 17:27:37.370894 10721 net.cpp:91] Creating Layer ReLU40
I0804 17:27:37.370903 10721 net.cpp:425] ReLU40 <- Convolution34
I0804 17:27:37.370914 10721 net.cpp:386] ReLU40 -> Convolution34 (in-place)
I0804 17:27:37.370928 10721 net.cpp:141] Setting up ReLU40
I0804 17:27:37.370937 10721 net.cpp:148] Top shape: 64 96 16 16 (1572864)
I0804 17:27:37.370945 10721 net.cpp:156] Memory required for data: 1384515840
I0804 17:27:37.370952 10721 layer_factory.hpp:77] Creating layer conv4
I0804 17:27:37.370970 10721 net.cpp:91] Creating Layer conv4
I0804 17:27:37.370980 10721 net.cpp:425] conv4 <- Convolution34
I0804 17:27:37.370995 10721 net.cpp:399] conv4 -> Convolution35
I0804 17:27:37.374586 10721 net.cpp:141] Setting up conv4
I0804 17:27:37.374606 10721 net.cpp:148] Top shape: 64 64 16 16 (1048576)
I0804 17:27:37.374614 10721 net.cpp:156] Memory required for data: 1388710144
I0804 17:27:37.374629 10721 layer_factory.hpp:77] Creating layer ReLU41
I0804 17:27:37.374642 10721 net.cpp:91] Creating Layer ReLU41
I0804 17:27:37.374652 10721 net.cpp:425] ReLU41 <- Convolution35
I0804 17:27:37.374663 10721 net.cpp:386] ReLU41 -> Convolution35 (in-place)
I0804 17:27:37.374696 10721 net.cpp:141] Setting up ReLU41
I0804 17:27:37.374711 10721 net.cpp:148] Top shape: 64 64 16 16 (1048576)
I0804 17:27:37.374718 10721 net.cpp:156] Memory required for data: 1392904448
I0804 17:27:37.374725 10721 layer_factory.hpp:77] Creating layer pool4
I0804 17:27:37.374737 10721 net.cpp:91] Creating Layer pool4
I0804 17:27:37.374745 10721 net.cpp:425] pool4 <- Convolution35
I0804 17:27:37.374760 10721 net.cpp:399] pool4 -> Pooling21
I0804 17:27:37.374811 10721 net.cpp:141] Setting up pool4
I0804 17:27:37.374825 10721 net.cpp:148] Top shape: 64 64 8 8 (262144)
I0804 17:27:37.374832 10721 net.cpp:156] Memory required for data: 1393953024
I0804 17:27:37.374840 10721 layer_factory.hpp:77] Creating layer conv0
I0804 17:27:37.374857 10721 net.cpp:91] Creating Layer conv0
I0804 17:27:37.374866 10721 net.cpp:425] conv0 <- c23
I0804 17:27:37.374882 10721 net.cpp:399] conv0 -> Convolution36
I0804 17:27:37.375392 10721 net.cpp:141] Setting up conv0
I0804 17:27:37.375406 10721 net.cpp:148] Top shape: 64 24 64 64 (6291456)
I0804 17:27:37.375414 10721 net.cpp:156] Memory required for data: 1419118848
I0804 17:27:37.375427 10721 layer_factory.hpp:77] Creating layer ReLU42
I0804 17:27:37.375438 10721 net.cpp:91] Creating Layer ReLU42
I0804 17:27:37.375445 10721 net.cpp:425] ReLU42 <- Convolution36
I0804 17:27:37.375458 10721 net.cpp:386] ReLU42 -> Convolution36 (in-place)
I0804 17:27:37.375471 10721 net.cpp:141] Setting up ReLU42
I0804 17:27:37.375480 10721 net.cpp:148] Top shape: 64 24 64 64 (6291456)
I0804 17:27:37.375488 10721 net.cpp:156] Memory required for data: 1444284672
I0804 17:27:37.375495 10721 layer_factory.hpp:77] Creating layer pool0
I0804 17:27:37.375505 10721 net.cpp:91] Creating Layer pool0
I0804 17:27:37.375514 10721 net.cpp:425] pool0 <- Convolution36
I0804 17:27:37.375525 10721 net.cpp:399] pool0 -> Pooling22
I0804 17:27:37.375583 10721 net.cpp:141] Setting up pool0
I0804 17:27:37.375597 10721 net.cpp:148] Top shape: 64 24 32 32 (1572864)
I0804 17:27:37.375604 10721 net.cpp:156] Memory required for data: 1450576128
I0804 17:27:37.375612 10721 layer_factory.hpp:77] Creating layer conv1
I0804 17:27:37.375628 10721 net.cpp:91] Creating Layer conv1
I0804 17:27:37.375638 10721 net.cpp:425] conv1 <- Pooling22
I0804 17:27:37.375653 10721 net.cpp:399] conv1 -> Convolution37
I0804 17:27:37.377770 10721 net.cpp:141] Setting up conv1
I0804 17:27:37.377785 10721 net.cpp:148] Top shape: 64 64 32 32 (4194304)
I0804 17:27:37.377794 10721 net.cpp:156] Memory required for data: 1467353344
I0804 17:27:37.377806 10721 layer_factory.hpp:77] Creating layer ReLU43
I0804 17:27:37.377820 10721 net.cpp:91] Creating Layer ReLU43
I0804 17:27:37.377828 10721 net.cpp:425] ReLU43 <- Convolution37
I0804 17:27:37.377838 10721 net.cpp:386] ReLU43 -> Convolution37 (in-place)
I0804 17:27:37.377851 10721 net.cpp:141] Setting up ReLU43
I0804 17:27:37.377861 10721 net.cpp:148] Top shape: 64 64 32 32 (4194304)
I0804 17:27:37.377868 10721 net.cpp:156] Memory required for data: 1484130560
I0804 17:27:37.377876 10721 layer_factory.hpp:77] Creating layer pool1
I0804 17:27:37.377890 10721 net.cpp:91] Creating Layer pool1
I0804 17:27:37.377898 10721 net.cpp:425] pool1 <- Convolution37
I0804 17:27:37.377910 10721 net.cpp:399] pool1 -> Pooling23
I0804 17:27:37.377966 10721 net.cpp:141] Setting up pool1
I0804 17:27:37.377984 10721 net.cpp:148] Top shape: 64 64 16 16 (1048576)
I0804 17:27:37.377991 10721 net.cpp:156] Memory required for data: 1488324864
I0804 17:27:37.377998 10721 layer_factory.hpp:77] Creating layer conv2
I0804 17:27:37.378016 10721 net.cpp:91] Creating Layer conv2
I0804 17:27:37.378024 10721 net.cpp:425] conv2 <- Pooling23
I0804 17:27:37.378039 10721 net.cpp:399] conv2 -> Convolution38
I0804 17:27:37.381002 10721 net.cpp:141] Setting up conv2
I0804 17:27:37.381023 10721 net.cpp:148] Top shape: 64 96 16 16 (1572864)
I0804 17:27:37.381031 10721 net.cpp:156] Memory required for data: 1494616320
I0804 17:27:37.381045 10721 layer_factory.hpp:77] Creating layer ReLU44
I0804 17:27:37.381072 10721 net.cpp:91] Creating Layer ReLU44
I0804 17:27:37.381080 10721 net.cpp:425] ReLU44 <- Convolution38
I0804 17:27:37.381094 10721 net.cpp:386] ReLU44 -> Convolution38 (in-place)
I0804 17:27:37.381108 10721 net.cpp:141] Setting up ReLU44
I0804 17:27:37.381116 10721 net.cpp:148] Top shape: 64 96 16 16 (1572864)
I0804 17:27:37.381124 10721 net.cpp:156] Memory required for data: 1500907776
I0804 17:27:37.381131 10721 layer_factory.hpp:77] Creating layer conv3
I0804 17:27:37.381148 10721 net.cpp:91] Creating Layer conv3
I0804 17:27:37.381157 10721 net.cpp:425] conv3 <- Convolution38
I0804 17:27:37.381170 10721 net.cpp:399] conv3 -> Convolution39
I0804 17:27:37.385952 10721 net.cpp:141] Setting up conv3
I0804 17:27:37.385972 10721 net.cpp:148] Top shape: 64 96 16 16 (1572864)
I0804 17:27:37.385979 10721 net.cpp:156] Memory required for data: 1507199232
I0804 17:27:37.385993 10721 layer_factory.hpp:77] Creating layer ReLU45
I0804 17:27:37.386004 10721 net.cpp:91] Creating Layer ReLU45
I0804 17:27:37.386013 10721 net.cpp:425] ReLU45 <- Convolution39
I0804 17:27:37.386026 10721 net.cpp:386] ReLU45 -> Convolution39 (in-place)
I0804 17:27:37.386039 10721 net.cpp:141] Setting up ReLU45
I0804 17:27:37.386050 10721 net.cpp:148] Top shape: 64 96 16 16 (1572864)
I0804 17:27:37.386057 10721 net.cpp:156] Memory required for data: 1513490688
I0804 17:27:37.386065 10721 layer_factory.hpp:77] Creating layer conv4
I0804 17:27:37.386082 10721 net.cpp:91] Creating Layer conv4
I0804 17:27:37.386090 10721 net.cpp:425] conv4 <- Convolution39
I0804 17:27:37.386102 10721 net.cpp:399] conv4 -> Convolution40
I0804 17:27:37.389005 10721 net.cpp:141] Setting up conv4
I0804 17:27:37.389019 10721 net.cpp:148] Top shape: 64 64 16 16 (1048576)
I0804 17:27:37.389027 10721 net.cpp:156] Memory required for data: 1517684992
I0804 17:27:37.389040 10721 layer_factory.hpp:77] Creating layer ReLU46
I0804 17:27:37.389051 10721 net.cpp:91] Creating Layer ReLU46
I0804 17:27:37.389058 10721 net.cpp:425] ReLU46 <- Convolution40
I0804 17:27:37.389072 10721 net.cpp:386] ReLU46 -> Convolution40 (in-place)
I0804 17:27:37.389084 10721 net.cpp:141] Setting up ReLU46
I0804 17:27:37.389094 10721 net.cpp:148] Top shape: 64 64 16 16 (1048576)
I0804 17:27:37.389101 10721 net.cpp:156] Memory required for data: 1521879296
I0804 17:27:37.389109 10721 layer_factory.hpp:77] Creating layer pool4
I0804 17:27:37.389119 10721 net.cpp:91] Creating Layer pool4
I0804 17:27:37.389127 10721 net.cpp:425] pool4 <- Convolution40
I0804 17:27:37.389139 10721 net.cpp:399] pool4 -> Pooling24
I0804 17:27:37.389191 10721 net.cpp:141] Setting up pool4
I0804 17:27:37.389205 10721 net.cpp:148] Top shape: 64 64 8 8 (262144)
I0804 17:27:37.389212 10721 net.cpp:156] Memory required for data: 1522927872
I0804 17:27:37.389220 10721 layer_factory.hpp:77] Creating layer Concat4
I0804 17:27:37.389231 10721 net.cpp:91] Creating Layer Concat4
I0804 17:27:37.389238 10721 net.cpp:425] Concat4 <- Pooling21
I0804 17:27:37.389248 10721 net.cpp:425] Concat4 <- Pooling24
I0804 17:27:37.389263 10721 net.cpp:399] Concat4 -> Concat4
I0804 17:27:37.389298 10721 net.cpp:141] Setting up Concat4
I0804 17:27:37.389314 10721 net.cpp:148] Top shape: 64 128 8 8 (524288)
I0804 17:27:37.389322 10721 net.cpp:156] Memory required for data: 1525025024
I0804 17:27:37.389329 10721 layer_factory.hpp:77] Creating layer InnerProduct7
I0804 17:27:37.389341 10721 net.cpp:91] Creating Layer InnerProduct7
I0804 17:27:37.389349 10721 net.cpp:425] InnerProduct7 <- Concat4
I0804 17:27:37.389364 10721 net.cpp:399] InnerProduct7 -> InnerProduct7
I0804 17:27:37.399623 10721 net.cpp:141] Setting up InnerProduct7
I0804 17:27:37.399660 10721 net.cpp:148] Top shape: 64 128 (8192)
I0804 17:27:37.399669 10721 net.cpp:156] Memory required for data: 1525057792
I0804 17:27:37.399680 10721 net.cpp:484] Sharing parameters 'fc1_w' owned by layer 'InnerProduct1', param index 0
I0804 17:27:37.399690 10721 net.cpp:484] Sharing parameters 'fc1_b' owned by layer 'InnerProduct1', param index 1
I0804 17:27:37.399698 10721 layer_factory.hpp:77] Creating layer ReLU47
I0804 17:27:37.399729 10721 net.cpp:91] Creating Layer ReLU47
I0804 17:27:37.399739 10721 net.cpp:425] ReLU47 <- InnerProduct7
I0804 17:27:37.399754 10721 net.cpp:386] ReLU47 -> InnerProduct7 (in-place)
I0804 17:27:37.399770 10721 net.cpp:141] Setting up ReLU47
I0804 17:27:37.399780 10721 net.cpp:148] Top shape: 64 128 (8192)
I0804 17:27:37.399786 10721 net.cpp:156] Memory required for data: 1525090560
I0804 17:27:37.399794 10721 layer_factory.hpp:77] Creating layer InnerProduct8
I0804 17:27:37.399808 10721 net.cpp:91] Creating Layer InnerProduct8
I0804 17:27:37.399816 10721 net.cpp:425] InnerProduct8 <- InnerProduct7
I0804 17:27:37.399832 10721 net.cpp:399] InnerProduct8 -> InnerProduct8
I0804 17:27:37.400100 10721 net.cpp:141] Setting up InnerProduct8
I0804 17:27:37.400115 10721 net.cpp:148] Top shape: 64 128 (8192)
I0804 17:27:37.400122 10721 net.cpp:156] Memory required for data: 1525123328
I0804 17:27:37.400131 10721 net.cpp:484] Sharing parameters 'fc2_w' owned by layer 'InnerProduct2', param index 0
I0804 17:27:37.400141 10721 net.cpp:484] Sharing parameters 'fc2_b' owned by layer 'InnerProduct2', param index 1
I0804 17:27:37.400148 10721 layer_factory.hpp:77] Creating layer ReLU48
I0804 17:27:37.400158 10721 net.cpp:91] Creating Layer ReLU48
I0804 17:27:37.400166 10721 net.cpp:425] ReLU48 <- InnerProduct8
I0804 17:27:37.400179 10721 net.cpp:386] ReLU48 -> InnerProduct8 (in-place)
I0804 17:27:37.400192 10721 net.cpp:141] Setting up ReLU48
I0804 17:27:37.400202 10721 net.cpp:148] Top shape: 64 128 (8192)
I0804 17:27:37.400209 10721 net.cpp:156] Memory required for data: 1525156096
I0804 17:27:37.400218 10721 layer_factory.hpp:77] Creating layer dt3
I0804 17:27:37.400230 10721 net.cpp:91] Creating Layer dt3
I0804 17:27:37.400238 10721 net.cpp:425] dt3 <- InnerProduct8
I0804 17:27:37.400251 10721 net.cpp:399] dt3 -> dt3
I0804 17:27:37.400391 10721 net.cpp:141] Setting up dt3
I0804 17:27:37.400405 10721 net.cpp:148] Top shape: 64 1 (64)
I0804 17:27:37.400413 10721 net.cpp:156] Memory required for data: 1525156352
I0804 17:27:37.400423 10721 net.cpp:484] Sharing parameters 'fc3_w' owned by layer 'dt0', param index 0
I0804 17:27:37.400431 10721 net.cpp:484] Sharing parameters 'fc3_b' owned by layer 'dt0', param index 1
I0804 17:27:37.400439 10721 layer_factory.hpp:77] Creating layer conv0
I0804 17:27:37.400459 10721 net.cpp:91] Creating Layer conv0
I0804 17:27:37.400467 10721 net.cpp:425] conv0 <- p1_p1_0_split_4
I0804 17:27:37.400481 10721 net.cpp:399] conv0 -> Convolution41
I0804 17:27:37.400998 10721 net.cpp:141] Setting up conv0
I0804 17:27:37.401013 10721 net.cpp:148] Top shape: 64 24 64 64 (6291456)
I0804 17:27:37.401021 10721 net.cpp:156] Memory required for data: 1550322176
I0804 17:27:37.401034 10721 layer_factory.hpp:77] Creating layer ReLU49
I0804 17:27:37.401044 10721 net.cpp:91] Creating Layer ReLU49
I0804 17:27:37.401053 10721 net.cpp:425] ReLU49 <- Convolution41
I0804 17:27:37.401067 10721 net.cpp:386] ReLU49 -> Convolution41 (in-place)
I0804 17:27:37.401079 10721 net.cpp:141] Setting up ReLU49
I0804 17:27:37.401090 10721 net.cpp:148] Top shape: 64 24 64 64 (6291456)
I0804 17:27:37.401098 10721 net.cpp:156] Memory required for data: 1575488000
I0804 17:27:37.401104 10721 layer_factory.hpp:77] Creating layer pool0
I0804 17:27:37.401115 10721 net.cpp:91] Creating Layer pool0
I0804 17:27:37.401124 10721 net.cpp:425] pool0 <- Convolution41
I0804 17:27:37.401139 10721 net.cpp:399] pool0 -> Pooling25
I0804 17:27:37.401196 10721 net.cpp:141] Setting up pool0
I0804 17:27:37.401209 10721 net.cpp:148] Top shape: 64 24 32 32 (1572864)
I0804 17:27:37.401216 10721 net.cpp:156] Memory required for data: 1581779456
I0804 17:27:37.401224 10721 layer_factory.hpp:77] Creating layer conv1
I0804 17:27:37.401242 10721 net.cpp:91] Creating Layer conv1
I0804 17:27:37.401250 10721 net.cpp:425] conv1 <- Pooling25
I0804 17:27:37.401267 10721 net.cpp:399] conv1 -> Convolution42
I0804 17:27:37.403424 10721 net.cpp:141] Setting up conv1
I0804 17:27:37.403439 10721 net.cpp:148] Top shape: 64 64 32 32 (4194304)
I0804 17:27:37.403461 10721 net.cpp:156] Memory required for data: 1598556672
I0804 17:27:37.403475 10721 layer_factory.hpp:77] Creating layer ReLU50
I0804 17:27:37.403486 10721 net.cpp:91] Creating Layer ReLU50
I0804 17:27:37.403493 10721 net.cpp:425] ReLU50 <- Convolution42
I0804 17:27:37.403503 10721 net.cpp:386] ReLU50 -> Convolution42 (in-place)
I0804 17:27:37.403517 10721 net.cpp:141] Setting up ReLU50
I0804 17:27:37.403525 10721 net.cpp:148] Top shape: 64 64 32 32 (4194304)
I0804 17:27:37.403533 10721 net.cpp:156] Memory required for data: 1615333888
I0804 17:27:37.403540 10721 layer_factory.hpp:77] Creating layer pool1
I0804 17:27:37.403553 10721 net.cpp:91] Creating Layer pool1
I0804 17:27:37.403563 10721 net.cpp:425] pool1 <- Convolution42
I0804 17:27:37.403573 10721 net.cpp:399] pool1 -> Pooling26
I0804 17:27:37.403631 10721 net.cpp:141] Setting up pool1
I0804 17:27:37.403645 10721 net.cpp:148] Top shape: 64 64 16 16 (1048576)
I0804 17:27:37.403652 10721 net.cpp:156] Memory required for data: 1619528192
I0804 17:27:37.403659 10721 layer_factory.hpp:77] Creating layer conv2
I0804 17:27:37.403676 10721 net.cpp:91] Creating Layer conv2
I0804 17:27:37.403686 10721 net.cpp:425] conv2 <- Pooling26
I0804 17:27:37.403697 10721 net.cpp:399] conv2 -> Convolution43
I0804 17:27:37.407205 10721 net.cpp:141] Setting up conv2
I0804 17:27:37.407224 10721 net.cpp:148] Top shape: 64 96 16 16 (1572864)
I0804 17:27:37.407232 10721 net.cpp:156] Memory required for data: 1625819648
I0804 17:27:37.407246 10721 layer_factory.hpp:77] Creating layer ReLU51
I0804 17:27:37.407258 10721 net.cpp:91] Creating Layer ReLU51
I0804 17:27:37.407266 10721 net.cpp:425] ReLU51 <- Convolution43
I0804 17:27:37.407301 10721 net.cpp:386] ReLU51 -> Convolution43 (in-place)
I0804 17:27:37.407315 10721 net.cpp:141] Setting up ReLU51
I0804 17:27:37.407325 10721 net.cpp:148] Top shape: 64 96 16 16 (1572864)
I0804 17:27:37.407332 10721 net.cpp:156] Memory required for data: 1632111104
I0804 17:27:37.407341 10721 layer_factory.hpp:77] Creating layer conv3
I0804 17:27:37.407364 10721 net.cpp:91] Creating Layer conv3
I0804 17:27:37.407373 10721 net.cpp:425] conv3 <- Convolution43
I0804 17:27:37.407387 10721 net.cpp:399] conv3 -> Convolution44
I0804 17:27:37.411664 10721 net.cpp:141] Setting up conv3
I0804 17:27:37.411679 10721 net.cpp:148] Top shape: 64 96 16 16 (1572864)
I0804 17:27:37.411685 10721 net.cpp:156] Memory required for data: 1638402560
I0804 17:27:37.411707 10721 layer_factory.hpp:77] Creating layer ReLU52
I0804 17:27:37.411717 10721 net.cpp:91] Creating Layer ReLU52
I0804 17:27:37.411725 10721 net.cpp:425] ReLU52 <- Convolution44
I0804 17:27:37.411742 10721 net.cpp:386] ReLU52 -> Convolution44 (in-place)
I0804 17:27:37.411754 10721 net.cpp:141] Setting up ReLU52
I0804 17:27:37.411772 10721 net.cpp:148] Top shape: 64 96 16 16 (1572864)
I0804 17:27:37.411779 10721 net.cpp:156] Memory required for data: 1644694016
I0804 17:27:37.411787 10721 layer_factory.hpp:77] Creating layer conv4
I0804 17:27:37.411804 10721 net.cpp:91] Creating Layer conv4
I0804 17:27:37.411813 10721 net.cpp:425] conv4 <- Convolution44
I0804 17:27:37.411825 10721 net.cpp:399] conv4 -> Convolution45
I0804 17:27:37.414739 10721 net.cpp:141] Setting up conv4
I0804 17:27:37.414753 10721 net.cpp:148] Top shape: 64 64 16 16 (1048576)
I0804 17:27:37.414762 10721 net.cpp:156] Memory required for data: 1648888320
I0804 17:27:37.414774 10721 layer_factory.hpp:77] Creating layer ReLU53
I0804 17:27:37.414784 10721 net.cpp:91] Creating Layer ReLU53
I0804 17:27:37.414793 10721 net.cpp:425] ReLU53 <- Convolution45
I0804 17:27:37.414806 10721 net.cpp:386] ReLU53 -> Convolution45 (in-place)
I0804 17:27:37.414819 10721 net.cpp:141] Setting up ReLU53
I0804 17:27:37.414829 10721 net.cpp:148] Top shape: 64 64 16 16 (1048576)
I0804 17:27:37.414835 10721 net.cpp:156] Memory required for data: 1653082624
I0804 17:27:37.414842 10721 layer_factory.hpp:77] Creating layer pool4
I0804 17:27:37.414854 10721 net.cpp:91] Creating Layer pool4
I0804 17:27:37.414862 10721 net.cpp:425] pool4 <- Convolution45
I0804 17:27:37.414891 10721 net.cpp:399] pool4 -> Pooling27
I0804 17:27:37.414944 10721 net.cpp:141] Setting up pool4
I0804 17:27:37.414958 10721 net.cpp:148] Top shape: 64 64 8 8 (262144)
I0804 17:27:37.414965 10721 net.cpp:156] Memory required for data: 1654131200
I0804 17:27:37.414973 10721 layer_factory.hpp:77] Creating layer conv0
I0804 17:27:37.414990 10721 net.cpp:91] Creating Layer conv0
I0804 17:27:37.415004 10721 net.cpp:425] conv0 <- c24
I0804 17:27:37.415021 10721 net.cpp:399] conv0 -> Convolution46
I0804 17:27:37.415527 10721 net.cpp:141] Setting up conv0
I0804 17:27:37.415541 10721 net.cpp:148] Top shape: 64 24 64 64 (6291456)
I0804 17:27:37.415549 10721 net.cpp:156] Memory required for data: 1679297024
I0804 17:27:37.415562 10721 layer_factory.hpp:77] Creating layer ReLU54
I0804 17:27:37.415572 10721 net.cpp:91] Creating Layer ReLU54
I0804 17:27:37.415580 10721 net.cpp:425] ReLU54 <- Convolution46
I0804 17:27:37.415591 10721 net.cpp:386] ReLU54 -> Convolution46 (in-place)
I0804 17:27:37.415602 10721 net.cpp:141] Setting up ReLU54
I0804 17:27:37.415612 10721 net.cpp:148] Top shape: 64 24 64 64 (6291456)
I0804 17:27:37.415621 10721 net.cpp:156] Memory required for data: 1704462848
I0804 17:27:37.415627 10721 layer_factory.hpp:77] Creating layer pool0
I0804 17:27:37.415640 10721 net.cpp:91] Creating Layer pool0
I0804 17:27:37.415649 10721 net.cpp:425] pool0 <- Convolution46
I0804 17:27:37.415660 10721 net.cpp:399] pool0 -> Pooling28
I0804 17:27:37.415717 10721 net.cpp:141] Setting up pool0
I0804 17:27:37.415730 10721 net.cpp:148] Top shape: 64 24 32 32 (1572864)
I0804 17:27:37.415737 10721 net.cpp:156] Memory required for data: 1710754304
I0804 17:27:37.415745 10721 layer_factory.hpp:77] Creating layer conv1
I0804 17:27:37.415765 10721 net.cpp:91] Creating Layer conv1
I0804 17:27:37.415776 10721 net.cpp:425] conv1 <- Pooling28
I0804 17:27:37.415789 10721 net.cpp:399] conv1 -> Convolution47
I0804 17:27:37.417918 10721 net.cpp:141] Setting up conv1
I0804 17:27:37.417933 10721 net.cpp:148] Top shape: 64 64 32 32 (4194304)
I0804 17:27:37.417942 10721 net.cpp:156] Memory required for data: 1727531520
I0804 17:27:37.417954 10721 layer_factory.hpp:77] Creating layer ReLU55
I0804 17:27:37.417965 10721 net.cpp:91] Creating Layer ReLU55
I0804 17:27:37.417973 10721 net.cpp:425] ReLU55 <- Convolution47
I0804 17:27:37.418061 10721 net.cpp:386] ReLU55 -> Convolution47 (in-place)
I0804 17:27:37.418074 10721 net.cpp:141] Setting up ReLU55
I0804 17:27:37.418084 10721 net.cpp:148] Top shape: 64 64 32 32 (4194304)
I0804 17:27:37.418092 10721 net.cpp:156] Memory required for data: 1744308736
I0804 17:27:37.418099 10721 layer_factory.hpp:77] Creating layer pool1
I0804 17:27:37.418110 10721 net.cpp:91] Creating Layer pool1
I0804 17:27:37.418118 10721 net.cpp:425] pool1 <- Convolution47
I0804 17:27:37.418130 10721 net.cpp:399] pool1 -> Pooling29
I0804 17:27:37.418190 10721 net.cpp:141] Setting up pool1
I0804 17:27:37.418203 10721 net.cpp:148] Top shape: 64 64 16 16 (1048576)
I0804 17:27:37.418211 10721 net.cpp:156] Memory required for data: 1748503040
I0804 17:27:37.418220 10721 layer_factory.hpp:77] Creating layer conv2
I0804 17:27:37.418236 10721 net.cpp:91] Creating Layer conv2
I0804 17:27:37.418246 10721 net.cpp:425] conv2 <- Pooling29
I0804 17:27:37.418262 10721 net.cpp:399] conv2 -> Convolution48
I0804 17:27:37.421212 10721 net.cpp:141] Setting up conv2
I0804 17:27:37.421223 10721 net.cpp:148] Top shape: 64 96 16 16 (1572864)
I0804 17:27:37.421229 10721 net.cpp:156] Memory required for data: 1754794496
I0804 17:27:37.421239 10721 layer_factory.hpp:77] Creating layer ReLU56
I0804 17:27:37.421247 10721 net.cpp:91] Creating Layer ReLU56
I0804 17:27:37.421253 10721 net.cpp:425] ReLU56 <- Convolution48
I0804 17:27:37.421263 10721 net.cpp:386] ReLU56 -> Convolution48 (in-place)
I0804 17:27:37.421272 10721 net.cpp:141] Setting up ReLU56
I0804 17:27:37.421280 10721 net.cpp:148] Top shape: 64 96 16 16 (1572864)
I0804 17:27:37.421285 10721 net.cpp:156] Memory required for data: 1761085952
I0804 17:27:37.421291 10721 layer_factory.hpp:77] Creating layer conv3
I0804 17:27:37.421313 10721 net.cpp:91] Creating Layer conv3
I0804 17:27:37.421319 10721 net.cpp:425] conv3 <- Convolution48
I0804 17:27:37.421332 10721 net.cpp:399] conv3 -> Convolution49
I0804 17:27:37.425637 10721 net.cpp:141] Setting up conv3
I0804 17:27:37.425662 10721 net.cpp:148] Top shape: 64 96 16 16 (1572864)
I0804 17:27:37.425669 10721 net.cpp:156] Memory required for data: 1767377408
I0804 17:27:37.425681 10721 layer_factory.hpp:77] Creating layer ReLU57
I0804 17:27:37.425691 10721 net.cpp:91] Creating Layer ReLU57
I0804 17:27:37.425698 10721 net.cpp:425] ReLU57 <- Convolution49
I0804 17:27:37.425709 10721 net.cpp:386] ReLU57 -> Convolution49 (in-place)
I0804 17:27:37.425719 10721 net.cpp:141] Setting up ReLU57
I0804 17:27:37.425731 10721 net.cpp:148] Top shape: 64 96 16 16 (1572864)
I0804 17:27:37.425737 10721 net.cpp:156] Memory required for data: 1773668864
I0804 17:27:37.425745 10721 layer_factory.hpp:77] Creating layer conv4
I0804 17:27:37.425762 10721 net.cpp:91] Creating Layer conv4
I0804 17:27:37.425770 10721 net.cpp:425] conv4 <- Convolution49
I0804 17:27:37.425781 10721 net.cpp:399] conv4 -> Convolution50
I0804 17:27:37.428836 10721 net.cpp:141] Setting up conv4
I0804 17:27:37.428854 10721 net.cpp:148] Top shape: 64 64 16 16 (1048576)
I0804 17:27:37.428861 10721 net.cpp:156] Memory required for data: 1777863168
I0804 17:27:37.428872 10721 layer_factory.hpp:77] Creating layer ReLU58
I0804 17:27:37.428881 10721 net.cpp:91] Creating Layer ReLU58
I0804 17:27:37.428889 10721 net.cpp:425] ReLU58 <- Convolution50
I0804 17:27:37.428899 10721 net.cpp:386] ReLU58 -> Convolution50 (in-place)
I0804 17:27:37.428911 10721 net.cpp:141] Setting up ReLU58
I0804 17:27:37.428920 10721 net.cpp:148] Top shape: 64 64 16 16 (1048576)
I0804 17:27:37.428925 10721 net.cpp:156] Memory required for data: 1782057472
I0804 17:27:37.428930 10721 layer_factory.hpp:77] Creating layer pool4
I0804 17:27:37.428938 10721 net.cpp:91] Creating Layer pool4
I0804 17:27:37.428946 10721 net.cpp:425] pool4 <- Convolution50
I0804 17:27:37.428954 10721 net.cpp:399] pool4 -> Pooling30
I0804 17:27:37.428999 10721 net.cpp:141] Setting up pool4
I0804 17:27:37.429009 10721 net.cpp:148] Top shape: 64 64 8 8 (262144)
I0804 17:27:37.429015 10721 net.cpp:156] Memory required for data: 1783106048
I0804 17:27:37.429021 10721 layer_factory.hpp:77] Creating layer Concat5
I0804 17:27:37.429030 10721 net.cpp:91] Creating Layer Concat5
I0804 17:27:37.429036 10721 net.cpp:425] Concat5 <- Pooling27
I0804 17:27:37.429044 10721 net.cpp:425] Concat5 <- Pooling30
I0804 17:27:37.429054 10721 net.cpp:399] Concat5 -> Concat5
I0804 17:27:37.429085 10721 net.cpp:141] Setting up Concat5
I0804 17:27:37.429095 10721 net.cpp:148] Top shape: 64 128 8 8 (524288)
I0804 17:27:37.429100 10721 net.cpp:156] Memory required for data: 1785203200
I0804 17:27:37.429106 10721 layer_factory.hpp:77] Creating layer InnerProduct9
I0804 17:27:37.429118 10721 net.cpp:91] Creating Layer InnerProduct9
I0804 17:27:37.429124 10721 net.cpp:425] InnerProduct9 <- Concat5
I0804 17:27:37.429134 10721 net.cpp:399] InnerProduct9 -> InnerProduct9
I0804 17:27:37.439420 10721 net.cpp:141] Setting up InnerProduct9
I0804 17:27:37.439453 10721 net.cpp:148] Top shape: 64 128 (8192)
I0804 17:27:37.439460 10721 net.cpp:156] Memory required for data: 1785235968
I0804 17:27:37.439468 10721 net.cpp:484] Sharing parameters 'fc1_w' owned by layer 'InnerProduct1', param index 0
I0804 17:27:37.439476 10721 net.cpp:484] Sharing parameters 'fc1_b' owned by layer 'InnerProduct1', param index 1
I0804 17:27:37.439481 10721 layer_factory.hpp:77] Creating layer ReLU59
I0804 17:27:37.439492 10721 net.cpp:91] Creating Layer ReLU59
I0804 17:27:37.439507 10721 net.cpp:425] ReLU59 <- InnerProduct9
I0804 17:27:37.439517 10721 net.cpp:386] ReLU59 -> InnerProduct9 (in-place)
I0804 17:27:37.439527 10721 net.cpp:141] Setting up ReLU59
I0804 17:27:37.439535 10721 net.cpp:148] Top shape: 64 128 (8192)
I0804 17:27:37.439541 10721 net.cpp:156] Memory required for data: 1785268736
I0804 17:27:37.439548 10721 layer_factory.hpp:77] Creating layer InnerProduct10
I0804 17:27:37.439575 10721 net.cpp:91] Creating Layer InnerProduct10
I0804 17:27:37.439581 10721 net.cpp:425] InnerProduct10 <- InnerProduct9
I0804 17:27:37.439591 10721 net.cpp:399] InnerProduct10 -> InnerProduct10
I0804 17:27:37.439851 10721 net.cpp:141] Setting up InnerProduct10
I0804 17:27:37.439862 10721 net.cpp:148] Top shape: 64 128 (8192)
I0804 17:27:37.439867 10721 net.cpp:156] Memory required for data: 1785301504
I0804 17:27:37.439873 10721 net.cpp:484] Sharing parameters 'fc2_w' owned by layer 'InnerProduct2', param index 0
I0804 17:27:37.439880 10721 net.cpp:484] Sharing parameters 'fc2_b' owned by layer 'InnerProduct2', param index 1
I0804 17:27:37.439887 10721 layer_factory.hpp:77] Creating layer ReLU60
I0804 17:27:37.439894 10721 net.cpp:91] Creating Layer ReLU60
I0804 17:27:37.439900 10721 net.cpp:425] ReLU60 <- InnerProduct10
I0804 17:27:37.439908 10721 net.cpp:386] ReLU60 -> InnerProduct10 (in-place)
I0804 17:27:37.439918 10721 net.cpp:141] Setting up ReLU60
I0804 17:27:37.439924 10721 net.cpp:148] Top shape: 64 128 (8192)
I0804 17:27:37.439930 10721 net.cpp:156] Memory required for data: 1785334272
I0804 17:27:37.439936 10721 layer_factory.hpp:77] Creating layer dt4
I0804 17:27:37.439949 10721 net.cpp:91] Creating Layer dt4
I0804 17:27:37.439955 10721 net.cpp:425] dt4 <- InnerProduct10
I0804 17:27:37.439967 10721 net.cpp:399] dt4 -> dt4
I0804 17:27:37.440102 10721 net.cpp:141] Setting up dt4
I0804 17:27:37.440112 10721 net.cpp:148] Top shape: 64 1 (64)
I0804 17:27:37.440119 10721 net.cpp:156] Memory required for data: 1785334528
I0804 17:27:37.440165 10721 net.cpp:484] Sharing parameters 'fc3_w' owned by layer 'dt0', param index 0
I0804 17:27:37.440176 10721 net.cpp:484] Sharing parameters 'fc3_b' owned by layer 'dt0', param index 1
I0804 17:27:37.440181 10721 layer_factory.hpp:77] Creating layer conv0
I0804 17:27:37.440199 10721 net.cpp:91] Creating Layer conv0
I0804 17:27:37.440208 10721 net.cpp:425] conv0 <- p1_p1_0_split_5
I0804 17:27:37.440222 10721 net.cpp:399] conv0 -> Convolution51
I0804 17:27:37.440745 10721 net.cpp:141] Setting up conv0
I0804 17:27:37.440755 10721 net.cpp:148] Top shape: 64 24 64 64 (6291456)
I0804 17:27:37.440760 10721 net.cpp:156] Memory required for data: 1810500352
I0804 17:27:37.440771 10721 layer_factory.hpp:77] Creating layer ReLU61
I0804 17:27:37.440781 10721 net.cpp:91] Creating Layer ReLU61
I0804 17:27:37.440788 10721 net.cpp:425] ReLU61 <- Convolution51
I0804 17:27:37.440796 10721 net.cpp:386] ReLU61 -> Convolution51 (in-place)
I0804 17:27:37.440805 10721 net.cpp:141] Setting up ReLU61
I0804 17:27:37.440812 10721 net.cpp:148] Top shape: 64 24 64 64 (6291456)
I0804 17:27:37.440819 10721 net.cpp:156] Memory required for data: 1835666176
I0804 17:27:37.440824 10721 layer_factory.hpp:77] Creating layer pool0
I0804 17:27:37.440835 10721 net.cpp:91] Creating Layer pool0
I0804 17:27:37.440841 10721 net.cpp:425] pool0 <- Convolution51
I0804 17:27:37.440850 10721 net.cpp:399] pool0 -> Pooling31
I0804 17:27:37.440902 10721 net.cpp:141] Setting up pool0
I0804 17:27:37.440910 10721 net.cpp:148] Top shape: 64 24 32 32 (1572864)
I0804 17:27:37.440917 10721 net.cpp:156] Memory required for data: 1841957632
I0804 17:27:37.440922 10721 layer_factory.hpp:77] Creating layer conv1
I0804 17:27:37.440935 10721 net.cpp:91] Creating Layer conv1
I0804 17:27:37.440942 10721 net.cpp:425] conv1 <- Pooling31
I0804 17:27:37.440951 10721 net.cpp:399] conv1 -> Convolution52
I0804 17:27:37.443660 10721 net.cpp:141] Setting up conv1
I0804 17:27:37.443686 10721 net.cpp:148] Top shape: 64 64 32 32 (4194304)
I0804 17:27:37.443691 10721 net.cpp:156] Memory required for data: 1858734848
I0804 17:27:37.443701 10721 layer_factory.hpp:77] Creating layer ReLU62
I0804 17:27:37.443709 10721 net.cpp:91] Creating Layer ReLU62
I0804 17:27:37.443717 10721 net.cpp:425] ReLU62 <- Convolution52
I0804 17:27:37.443724 10721 net.cpp:386] ReLU62 -> Convolution52 (in-place)
I0804 17:27:37.443742 10721 net.cpp:141] Setting up ReLU62
I0804 17:27:37.443749 10721 net.cpp:148] Top shape: 64 64 32 32 (4194304)
I0804 17:27:37.443770 10721 net.cpp:156] Memory required for data: 1875512064
I0804 17:27:37.443775 10721 layer_factory.hpp:77] Creating layer pool1
I0804 17:27:37.443786 10721 net.cpp:91] Creating Layer pool1
I0804 17:27:37.443792 10721 net.cpp:425] pool1 <- Convolution52
I0804 17:27:37.443801 10721 net.cpp:399] pool1 -> Pooling32
I0804 17:27:37.443853 10721 net.cpp:141] Setting up pool1
I0804 17:27:37.443861 10721 net.cpp:148] Top shape: 64 64 16 16 (1048576)
I0804 17:27:37.443866 10721 net.cpp:156] Memory required for data: 1879706368
I0804 17:27:37.443871 10721 layer_factory.hpp:77] Creating layer conv2
I0804 17:27:37.443886 10721 net.cpp:91] Creating Layer conv2
I0804 17:27:37.443892 10721 net.cpp:425] conv2 <- Pooling32
I0804 17:27:37.443905 10721 net.cpp:399] conv2 -> Convolution53
I0804 17:27:37.446820 10721 net.cpp:141] Setting up conv2
I0804 17:27:37.446841 10721 net.cpp:148] Top shape: 64 96 16 16 (1572864)
I0804 17:27:37.446847 10721 net.cpp:156] Memory required for data: 1885997824
I0804 17:27:37.446856 10721 layer_factory.hpp:77] Creating layer ReLU63
I0804 17:27:37.446866 10721 net.cpp:91] Creating Layer ReLU63
I0804 17:27:37.446872 10721 net.cpp:425] ReLU63 <- Convolution53
I0804 17:27:37.446880 10721 net.cpp:386] ReLU63 -> Convolution53 (in-place)
I0804 17:27:37.446892 10721 net.cpp:141] Setting up ReLU63
I0804 17:27:37.446904 10721 net.cpp:148] Top shape: 64 96 16 16 (1572864)
I0804 17:27:37.446910 10721 net.cpp:156] Memory required for data: 1892289280
I0804 17:27:37.446916 10721 layer_factory.hpp:77] Creating layer conv3
I0804 17:27:37.446930 10721 net.cpp:91] Creating Layer conv3
I0804 17:27:37.446936 10721 net.cpp:425] conv3 <- Convolution53
I0804 17:27:37.446949 10721 net.cpp:399] conv3 -> Convolution54
I0804 17:27:37.451797 10721 net.cpp:141] Setting up conv3
I0804 17:27:37.451823 10721 net.cpp:148] Top shape: 64 96 16 16 (1572864)
I0804 17:27:37.451829 10721 net.cpp:156] Memory required for data: 1898580736
I0804 17:27:37.451840 10721 layer_factory.hpp:77] Creating layer ReLU64
I0804 17:27:37.451851 10721 net.cpp:91] Creating Layer ReLU64
I0804 17:27:37.451858 10721 net.cpp:425] ReLU64 <- Convolution54
I0804 17:27:37.451867 10721 net.cpp:386] ReLU64 -> Convolution54 (in-place)
I0804 17:27:37.451884 10721 net.cpp:141] Setting up ReLU64
I0804 17:27:37.451892 10721 net.cpp:148] Top shape: 64 96 16 16 (1572864)
I0804 17:27:37.451897 10721 net.cpp:156] Memory required for data: 1904872192
I0804 17:27:37.451903 10721 layer_factory.hpp:77] Creating layer conv4
I0804 17:27:37.451917 10721 net.cpp:91] Creating Layer conv4
I0804 17:27:37.451923 10721 net.cpp:425] conv4 <- Convolution54
I0804 17:27:37.451934 10721 net.cpp:399] conv4 -> Convolution55
I0804 17:27:37.454865 10721 net.cpp:141] Setting up conv4
I0804 17:27:37.454875 10721 net.cpp:148] Top shape: 64 64 16 16 (1048576)
I0804 17:27:37.454882 10721 net.cpp:156] Memory required for data: 1909066496
I0804 17:27:37.454892 10721 layer_factory.hpp:77] Creating layer ReLU65
I0804 17:27:37.454903 10721 net.cpp:91] Creating Layer ReLU65
I0804 17:27:37.454910 10721 net.cpp:425] ReLU65 <- Convolution55
I0804 17:27:37.454917 10721 net.cpp:386] ReLU65 -> Convolution55 (in-place)
I0804 17:27:37.454926 10721 net.cpp:141] Setting up ReLU65
I0804 17:27:37.454933 10721 net.cpp:148] Top shape: 64 64 16 16 (1048576)
I0804 17:27:37.454947 10721 net.cpp:156] Memory required for data: 1913260800
I0804 17:27:37.454952 10721 layer_factory.hpp:77] Creating layer pool4
I0804 17:27:37.454962 10721 net.cpp:91] Creating Layer pool4
I0804 17:27:37.454967 10721 net.cpp:425] pool4 <- Convolution55
I0804 17:27:37.454978 10721 net.cpp:399] pool4 -> Pooling33
I0804 17:27:37.455025 10721 net.cpp:141] Setting up pool4
I0804 17:27:37.455034 10721 net.cpp:148] Top shape: 64 64 8 8 (262144)
I0804 17:27:37.455039 10721 net.cpp:156] Memory required for data: 1914309376
I0804 17:27:37.455044 10721 layer_factory.hpp:77] Creating layer conv0
I0804 17:27:37.455056 10721 net.cpp:91] Creating Layer conv0
I0804 17:27:37.455063 10721 net.cpp:425] conv0 <- c25
I0804 17:27:37.455076 10721 net.cpp:399] conv0 -> Convolution56
I0804 17:27:37.455602 10721 net.cpp:141] Setting up conv0
I0804 17:27:37.455611 10721 net.cpp:148] Top shape: 64 24 64 64 (6291456)
I0804 17:27:37.455616 10721 net.cpp:156] Memory required for data: 1939475200
I0804 17:27:37.455626 10721 layer_factory.hpp:77] Creating layer ReLU66
I0804 17:27:37.455634 10721 net.cpp:91] Creating Layer ReLU66
I0804 17:27:37.455641 10721 net.cpp:425] ReLU66 <- Convolution56
I0804 17:27:37.455651 10721 net.cpp:386] ReLU66 -> Convolution56 (in-place)
I0804 17:27:37.455660 10721 net.cpp:141] Setting up ReLU66
I0804 17:27:37.455668 10721 net.cpp:148] Top shape: 64 24 64 64 (6291456)
I0804 17:27:37.455673 10721 net.cpp:156] Memory required for data: 1964641024
I0804 17:27:37.455678 10721 layer_factory.hpp:77] Creating layer pool0
I0804 17:27:37.455687 10721 net.cpp:91] Creating Layer pool0
I0804 17:27:37.455693 10721 net.cpp:425] pool0 <- Convolution56
I0804 17:27:37.455701 10721 net.cpp:399] pool0 -> Pooling34
I0804 17:27:37.455761 10721 net.cpp:141] Setting up pool0
I0804 17:27:37.455780 10721 net.cpp:148] Top shape: 64 24 32 32 (1572864)
I0804 17:27:37.455787 10721 net.cpp:156] Memory required for data: 1970932480
I0804 17:27:37.455795 10721 layer_factory.hpp:77] Creating layer conv1
I0804 17:27:37.455811 10721 net.cpp:91] Creating Layer conv1
I0804 17:27:37.455818 10721 net.cpp:425] conv1 <- Pooling34
I0804 17:27:37.455832 10721 net.cpp:399] conv1 -> Convolution57
I0804 17:27:37.458041 10721 net.cpp:141] Setting up conv1
I0804 17:27:37.458056 10721 net.cpp:148] Top shape: 64 64 32 32 (4194304)
I0804 17:27:37.458065 10721 net.cpp:156] Memory required for data: 1987709696
I0804 17:27:37.458078 10721 layer_factory.hpp:77] Creating layer ReLU67
I0804 17:27:37.458094 10721 net.cpp:91] Creating Layer ReLU67
I0804 17:27:37.458102 10721 net.cpp:425] ReLU67 <- Convolution57
I0804 17:27:37.458114 10721 net.cpp:386] ReLU67 -> Convolution57 (in-place)
I0804 17:27:37.458127 10721 net.cpp:141] Setting up ReLU67
I0804 17:27:37.458137 10721 net.cpp:148] Top shape: 64 64 32 32 (4194304)
I0804 17:27:37.458143 10721 net.cpp:156] Memory required for data: 2004486912
I0804 17:27:37.458150 10721 layer_factory.hpp:77] Creating layer pool1
I0804 17:27:37.458163 10721 net.cpp:91] Creating Layer pool1
I0804 17:27:37.458171 10721 net.cpp:425] pool1 <- Convolution57
I0804 17:27:37.458184 10721 net.cpp:399] pool1 -> Pooling35
I0804 17:27:37.458250 10721 net.cpp:141] Setting up pool1
I0804 17:27:37.458261 10721 net.cpp:148] Top shape: 64 64 16 16 (1048576)
I0804 17:27:37.458268 10721 net.cpp:156] Memory required for data: 2008681216
I0804 17:27:37.458274 10721 layer_factory.hpp:77] Creating layer conv2
I0804 17:27:37.458290 10721 net.cpp:91] Creating Layer conv2
I0804 17:27:37.458297 10721 net.cpp:425] conv2 <- Pooling35
I0804 17:27:37.458309 10721 net.cpp:399] conv2 -> Convolution58
I0804 17:27:37.461415 10721 net.cpp:141] Setting up conv2
I0804 17:27:37.461429 10721 net.cpp:148] Top shape: 64 96 16 16 (1572864)
I0804 17:27:37.461436 10721 net.cpp:156] Memory required for data: 2014972672
I0804 17:27:37.461447 10721 layer_factory.hpp:77] Creating layer ReLU68
I0804 17:27:37.461455 10721 net.cpp:91] Creating Layer ReLU68
I0804 17:27:37.461462 10721 net.cpp:425] ReLU68 <- Convolution58
I0804 17:27:37.461475 10721 net.cpp:386] ReLU68 -> Convolution58 (in-place)
I0804 17:27:37.461485 10721 net.cpp:141] Setting up ReLU68
I0804 17:27:37.461493 10721 net.cpp:148] Top shape: 64 96 16 16 (1572864)
I0804 17:27:37.461499 10721 net.cpp:156] Memory required for data: 2021264128
I0804 17:27:37.461505 10721 layer_factory.hpp:77] Creating layer conv3
I0804 17:27:37.461519 10721 net.cpp:91] Creating Layer conv3
I0804 17:27:37.461525 10721 net.cpp:425] conv3 <- Convolution58
I0804 17:27:37.461536 10721 net.cpp:399] conv3 -> Convolution59
I0804 17:27:37.465759 10721 net.cpp:141] Setting up conv3
I0804 17:27:37.465781 10721 net.cpp:148] Top shape: 64 96 16 16 (1572864)
I0804 17:27:37.465786 10721 net.cpp:156] Memory required for data: 2027555584
I0804 17:27:37.465796 10721 layer_factory.hpp:77] Creating layer ReLU69
I0804 17:27:37.465819 10721 net.cpp:91] Creating Layer ReLU69
I0804 17:27:37.465826 10721 net.cpp:425] ReLU69 <- Convolution59
I0804 17:27:37.465843 10721 net.cpp:386] ReLU69 -> Convolution59 (in-place)
I0804 17:27:37.465853 10721 net.cpp:141] Setting up ReLU69
I0804 17:27:37.465862 10721 net.cpp:148] Top shape: 64 96 16 16 (1572864)
I0804 17:27:37.465867 10721 net.cpp:156] Memory required for data: 2033847040
I0804 17:27:37.465873 10721 layer_factory.hpp:77] Creating layer conv4
I0804 17:27:37.465885 10721 net.cpp:91] Creating Layer conv4
I0804 17:27:37.465893 10721 net.cpp:425] conv4 <- Convolution59
I0804 17:27:37.465903 10721 net.cpp:399] conv4 -> Convolution60
I0804 17:27:37.469465 10721 net.cpp:141] Setting up conv4
I0804 17:27:37.469491 10721 net.cpp:148] Top shape: 64 64 16 16 (1048576)
I0804 17:27:37.469497 10721 net.cpp:156] Memory required for data: 2038041344
I0804 17:27:37.469508 10721 layer_factory.hpp:77] Creating layer ReLU70
I0804 17:27:37.469516 10721 net.cpp:91] Creating Layer ReLU70
I0804 17:27:37.469523 10721 net.cpp:425] ReLU70 <- Convolution60
I0804 17:27:37.469533 10721 net.cpp:386] ReLU70 -> Convolution60 (in-place)
I0804 17:27:37.469552 10721 net.cpp:141] Setting up ReLU70
I0804 17:27:37.469559 10721 net.cpp:148] Top shape: 64 64 16 16 (1048576)
I0804 17:27:37.469566 10721 net.cpp:156] Memory required for data: 2042235648
I0804 17:27:37.469573 10721 layer_factory.hpp:77] Creating layer pool4
I0804 17:27:37.469580 10721 net.cpp:91] Creating Layer pool4
I0804 17:27:37.469586 10721 net.cpp:425] pool4 <- Convolution60
I0804 17:27:37.469595 10721 net.cpp:399] pool4 -> Pooling36
I0804 17:27:37.469643 10721 net.cpp:141] Setting up pool4
I0804 17:27:37.469650 10721 net.cpp:148] Top shape: 64 64 8 8 (262144)
I0804 17:27:37.469656 10721 net.cpp:156] Memory required for data: 2043284224
I0804 17:27:37.469661 10721 layer_factory.hpp:77] Creating layer Concat6
I0804 17:27:37.469671 10721 net.cpp:91] Creating Layer Concat6
I0804 17:27:37.469676 10721 net.cpp:425] Concat6 <- Pooling33
I0804 17:27:37.469684 10721 net.cpp:425] Concat6 <- Pooling36
I0804 17:27:37.469696 10721 net.cpp:399] Concat6 -> Concat6
I0804 17:27:37.469729 10721 net.cpp:141] Setting up Concat6
I0804 17:27:37.469739 10721 net.cpp:148] Top shape: 64 128 8 8 (524288)
I0804 17:27:37.469745 10721 net.cpp:156] Memory required for data: 2045381376
I0804 17:27:37.469750 10721 layer_factory.hpp:77] Creating layer InnerProduct11
I0804 17:27:37.469760 10721 net.cpp:91] Creating Layer InnerProduct11
I0804 17:27:37.469766 10721 net.cpp:425] InnerProduct11 <- Concat6
I0804 17:27:37.469780 10721 net.cpp:399] InnerProduct11 -> InnerProduct11
I0804 17:27:37.479818 10721 net.cpp:141] Setting up InnerProduct11
I0804 17:27:37.479838 10721 net.cpp:148] Top shape: 64 128 (8192)
I0804 17:27:37.479846 10721 net.cpp:156] Memory required for data: 2045414144
I0804 17:27:37.479852 10721 net.cpp:484] Sharing parameters 'fc1_w' owned by layer 'InnerProduct1', param index 0
…
I0804 17:27:37.885052 10721 net.cpp:141] Setting up ReLU194
I0804 17:27:37.885059 10721 net.cpp:148] Top shape: 64 64 32 32 (4194304)
I0804 17:27:37.885066 10721 net.cpp:156] Memory required for data: 4737472000
I0804 17:27:37.885080 10721 layer_factory.hpp:77] Creating layer pool1
I0804 17:27:37.885089 10721 net.cpp:91] Creating Layer pool1
I0804 17:27:37.885095 10721 net.cpp:425] pool1 <- Convolution162
I0804 17:27:37.885104 10721 net.cpp:399] pool1 -> Pooling98
I0804 17:27:37.885157 10721 net.cpp:141] Setting up pool1
I0804 17:27:37.885165 10721 net.cpp:148] Top shape: 64 64 16 16 (1048576)
I0804 17:27:37.885171 10721 net.cpp:156] Memory required for data: 4741666304
I0804 17:27:37.885176 10721 layer_factory.hpp:77] Creating layer conv2
I0804 17:27:37.885190 10721 net.cpp:91] Creating Layer conv2
I0804 17:27:37.885196 10721 net.cpp:425] conv2 <- Pooling98
I0804 17:27:37.885208 10721 net.cpp:399] conv2 -> Convolution163
I0804 17:27:37.888288 10721 net.cpp:141] Setting up conv2
I0804 17:27:37.888303 10721 net.cpp:148] Top shape: 64 96 16 16 (1572864)
I0804 17:27:37.888310 10721 net.cpp:156] Memory required for data: 4747957760
I0804 17:27:37.888324 10721 layer_factory.hpp:77] Creating layer ReLU195
I0804 17:27:37.888345 10721 net.cpp:91] Creating Layer ReLU195
I0804 17:27:37.888353 10721 net.cpp:425] ReLU195 <- Convolution163
I0804 17:27:37.888365 10721 net.cpp:386] ReLU195 -> Convolution163 (in-place)
I0804 17:27:37.888375 10721 net.cpp:141] Setting up ReLU195
I0804 17:27:37.888383 10721 net.cpp:148] Top shape: 64 96 16 16 (1572864)
I0804 17:27:37.888388 10721 net.cpp:156] Memory required for data: 4754249216
I0804 17:27:37.888396 10721 layer_factory.hpp:77] Creating layer conv3
I0804 17:27:37.888411 10721 net.cpp:91] Creating Layer conv3
I0804 17:27:37.888419 10721 net.cpp:425] conv3 <- Convolution163
I0804 17:27:37.888435 10721 net.cpp:399] conv3 -> Convolution164
I0804 17:27:37.892787 10721 net.cpp:141] Setting up conv3
I0804 17:27:37.892802 10721 net.cpp:148] Top shape: 64 96 16 16 (1572864)
I0804 17:27:37.892807 10721 net.cpp:156] Memory required for data: 4760540672
I0804 17:27:37.892820 10721 layer_factory.hpp:77] Creating layer ReLU196
I0804 17:27:37.892828 10721 net.cpp:91] Creating Layer ReLU196
I0804 17:27:37.892834 10721 net.cpp:425] ReLU196 <- Convolution164
I0804 17:27:37.892843 10721 net.cpp:386] ReLU196 -> Convolution164 (in-place)
I0804 17:27:37.892853 10721 net.cpp:141] Setting up ReLU196
I0804 17:27:37.892860 10721 net.cpp:148] Top shape: 64 96 16 16 (1572864)
I0804 17:27:37.892865 10721 net.cpp:156] Memory required for data: 4766832128
I0804 17:27:37.892871 10721 layer_factory.hpp:77] Creating layer conv4
I0804 17:27:37.892885 10721 net.cpp:91] Creating Layer conv4
I0804 17:27:37.892891 10721 net.cpp:425] conv4 <- Convolution164
I0804 17:27:37.892904 10721 net.cpp:399] conv4 -> Convolution165
I0804 17:27:37.895874 10721 net.cpp:141] Setting up conv4
I0804 17:27:37.895894 10721 net.cpp:148] Top shape: 64 64 16 16 (1048576)
I0804 17:27:37.895900 10721 net.cpp:156] Memory required for data: 4771026432
I0804 17:27:37.895910 10721 layer_factory.hpp:77] Creating layer ReLU197
I0804 17:27:37.895920 10721 net.cpp:91] Creating Layer ReLU197
I0804 17:27:37.895926 10721 net.cpp:425] ReLU197 <- Convolution165
I0804 17:27:37.895934 10721 net.cpp:386] ReLU197 -> Convolution165 (in-place)
I0804 17:27:37.895944 10721 net.cpp:141] Setting up ReLU197
I0804 17:27:37.895951 10721 net.cpp:148] Top shape: 64 64 16 16 (1048576)
I0804 17:27:37.895957 10721 net.cpp:156] Memory required for data: 4775220736
I0804 17:27:37.895962 10721 layer_factory.hpp:77] Creating layer pool4
I0804 17:27:37.895973 10721 net.cpp:91] Creating Layer pool4
I0804 17:27:37.895980 10721 net.cpp:425] pool4 <- Convolution165
I0804 17:27:37.895989 10721 net.cpp:399] pool4 -> Pooling99
I0804 17:27:37.896034 10721 net.cpp:141] Setting up pool4
I0804 17:27:37.896044 10721 net.cpp:148] Top shape: 64 64 8 8 (262144)
I0804 17:27:37.896049 10721 net.cpp:156] Memory required for data: 4776269312
I0804 17:27:37.896055 10721 layer_factory.hpp:77] Creating layer conv0
I0804 17:27:37.896069 10721 net.cpp:91] Creating Layer conv0
I0804 17:27:37.896075 10721 net.cpp:425] conv0 <- c17
I0804 17:27:37.896085 10721 net.cpp:399] conv0 -> Convolution166
I0804 17:27:37.896625 10721 net.cpp:141] Setting up conv0
I0804 17:27:37.896636 10721 net.cpp:148] Top shape: 64 24 64 64 (6291456)
I0804 17:27:37.896644 10721 net.cpp:156] Memory required for data: 4801435136
I0804 17:27:37.896654 10721 layer_factory.hpp:77] Creating layer ReLU198
I0804 17:27:37.896662 10721 net.cpp:91] Creating Layer ReLU198
I0804 17:27:37.896668 10721 net.cpp:425] ReLU198 <- Convolution166
I0804 17:27:37.896679 10721 net.cpp:386] ReLU198 -> Convolution166 (in-place)
I0804 17:27:37.896689 10721 net.cpp:141] Setting up ReLU198
I0804 17:27:37.896697 10721 net.cpp:148] Top shape: 64 24 64 64 (6291456)
I0804 17:27:37.896702 10721 net.cpp:156] Memory required for data: 4826600960
I0804 17:27:37.896708 10721 layer_factory.hpp:77] Creating layer pool0
I0804 17:27:37.896715 10721 net.cpp:91] Creating Layer pool0
I0804 17:27:37.896721 10721 net.cpp:425] pool0 <- Convolution166
I0804 17:27:37.896733 10721 net.cpp:399] pool0 -> Pooling100
I0804 17:27:37.896783 10721 net.cpp:141] Setting up pool0
I0804 17:27:37.896791 10721 net.cpp:148] Top shape: 64 24 32 32 (1572864)
I0804 17:27:37.896796 10721 net.cpp:156] Memory required for data: 4832892416
I0804 17:27:37.896802 10721 layer_factory.hpp:77] Creating layer conv1
I0804 17:27:37.896816 10721 net.cpp:91] Creating Layer conv1
I0804 17:27:37.896822 10721 net.cpp:425] conv1 <- Pooling100
I0804 17:27:37.896836 10721 net.cpp:399] conv1 -> Convolution167
I0804 17:27:37.898972 10721 net.cpp:141] Setting up conv1
I0804 17:27:37.898982 10721 net.cpp:148] Top shape: 64 64 32 32 (4194304)
I0804 17:27:37.898991 10721 net.cpp:156] Memory required for data: 4849669632
I0804 17:27:37.899001 10721 layer_factory.hpp:77] Creating layer ReLU199
I0804 17:27:37.899009 10721 net.cpp:91] Creating Layer ReLU199
I0804 17:27:37.899015 10721 net.cpp:425] ReLU199 <- Convolution167
I0804 17:27:37.899024 10721 net.cpp:386] ReLU199 -> Convolution167 (in-place)
I0804 17:27:37.899032 10721 net.cpp:141] Setting up ReLU199
I0804 17:27:37.899039 10721 net.cpp:148] Top shape: 64 64 32 32 (4194304)
I0804 17:27:37.899052 10721 net.cpp:156] Memory required for data: 4866446848
I0804 17:27:37.899058 10721 layer_factory.hpp:77] Creating layer pool1
I0804 17:27:37.899070 10721 net.cpp:91] Creating Layer pool1
I0804 17:27:37.899076 10721 net.cpp:425] pool1 <- Convolution167
I0804 17:27:37.899085 10721 net.cpp:399] pool1 -> Pooling101
I0804 17:27:37.899138 10721 net.cpp:141] Setting up pool1
I0804 17:27:37.899147 10721 net.cpp:148] Top shape: 64 64 16 16 (1048576)
I0804 17:27:37.899152 10721 net.cpp:156] Memory required for data: 4870641152
I0804 17:27:37.899158 10721 layer_factory.hpp:77] Creating layer conv2
I0804 17:27:37.899170 10721 net.cpp:91] Creating Layer conv2
I0804 17:27:37.899176 10721 net.cpp:425] conv2 <- Pooling101
I0804 17:27:37.899186 10721 net.cpp:399] conv2 -> Convolution168
I0804 17:27:37.902757 10721 net.cpp:141] Setting up conv2
I0804 17:27:37.902783 10721 net.cpp:148] Top shape: 64 96 16 16 (1572864)
I0804 17:27:37.902789 10721 net.cpp:156] Memory required for data: 4876932608
I0804 17:27:37.902801 10721 layer_factory.hpp:77] Creating layer ReLU200
I0804 17:27:37.902808 10721 net.cpp:91] Creating Layer ReLU200
I0804 17:27:37.902815 10721 net.cpp:425] ReLU200 <- Convolution168
I0804 17:27:37.902827 10721 net.cpp:386] ReLU200 -> Convolution168 (in-place)
I0804 17:27:37.902844 10721 net.cpp:141] Setting up ReLU200
I0804 17:27:37.902851 10721 net.cpp:148] Top shape: 64 96 16 16 (1572864)
I0804 17:27:37.902858 10721 net.cpp:156] Memory required for data: 4883224064
I0804 17:27:37.902863 10721 layer_factory.hpp:77] Creating layer conv3
I0804 17:27:37.902878 10721 net.cpp:91] Creating Layer conv3
I0804 17:27:37.902884 10721 net.cpp:425] conv3 <- Convolution168
I0804 17:27:37.902894 10721 net.cpp:399] conv3 -> Convolution169
I0804 17:27:37.907138 10721 net.cpp:141] Setting up conv3
I0804 17:27:37.907160 10721 net.cpp:148] Top shape: 64 96 16 16 (1572864)
I0804 17:27:37.907166 10721 net.cpp:156] Memory required for data: 4889515520
I0804 17:27:37.907176 10721 layer_factory.hpp:77] Creating layer ReLU201
I0804 17:27:37.907199 10721 net.cpp:91] Creating Layer ReLU201
I0804 17:27:37.907207 10721 net.cpp:425] ReLU201 <- Convolution169
I0804 17:27:37.907227 10721 net.cpp:386] ReLU201 -> Convolution169 (in-place)
I0804 17:27:37.907236 10721 net.cpp:141] Setting up ReLU201
I0804 17:27:37.907244 10721 net.cpp:148] Top shape: 64 96 16 16 (1572864)
I0804 17:27:37.907249 10721 net.cpp:156] Memory required for data: 4895806976
I0804 17:27:37.907255 10721 layer_factory.hpp:77] Creating layer conv4
I0804 17:27:37.907269 10721 net.cpp:91] Creating Layer conv4
I0804 17:27:37.907280 10721 net.cpp:425] conv4 <- Convolution169
I0804 17:27:37.907289 10721 net.cpp:399] conv4 -> Convolution170
I0804 17:27:37.910215 10721 net.cpp:141] Setting up conv4
I0804 17:27:37.910224 10721 net.cpp:148] Top shape: 64 64 16 16 (1048576)
I0804 17:27:37.910230 10721 net.cpp:156] Memory required for data: 4900001280
I0804 17:27:37.910239 10721 layer_factory.hpp:77] Creating layer ReLU202
I0804 17:27:37.910248 10721 net.cpp:91] Creating Layer ReLU202
I0804 17:27:37.910254 10721 net.cpp:425] ReLU202 <- Convolution170
I0804 17:27:37.910264 10721 net.cpp:386] ReLU202 -> Convolution170 (in-place)
I0804 17:27:37.910272 10721 net.cpp:141] Setting up ReLU202
I0804 17:27:37.910280 10721 net.cpp:148] Top shape: 64 64 16 16 (1048576)
I0804 17:27:37.910285 10721 net.cpp:156] Memory required for data: 4904195584
I0804 17:27:37.910290 10721 layer_factory.hpp:77] Creating layer pool4
I0804 17:27:37.910298 10721 net.cpp:91] Creating Layer pool4
I0804 17:27:37.910305 10721 net.cpp:425] pool4 <- Convolution170
I0804 17:27:37.910315 10721 net.cpp:399] pool4 -> Pooling102
I0804 17:27:37.910359 10721 net.cpp:141] Setting up pool4
I0804 17:27:37.910367 10721 net.cpp:148] Top shape: 64 64 8 8 (262144)
I0804 17:27:37.910372 10721 net.cpp:156] Memory required for data: 4905244160
I0804 17:27:37.910377 10721 layer_factory.hpp:77] Creating layer Concat17
I0804 17:27:37.910385 10721 net.cpp:91] Creating Layer Concat17
I0804 17:27:37.910392 10721 net.cpp:425] Concat17 <- Pooling99
I0804 17:27:37.910399 10721 net.cpp:425] Concat17 <- Pooling102
I0804 17:27:37.910410 10721 net.cpp:399] Concat17 -> Concat17
I0804 17:27:37.910440 10721 net.cpp:141] Setting up Concat17
I0804 17:27:37.910447 10721 net.cpp:148] Top shape: 64 128 8 8 (524288)
I0804 17:27:37.910452 10721 net.cpp:156] Memory required for data: 4907341312
I0804 17:27:37.910459 10721 layer_factory.hpp:77] Creating layer InnerProduct33
I0804 17:27:37.910471 10721 net.cpp:91] Creating Layer InnerProduct33
I0804 17:27:37.910477 10721 net.cpp:425] InnerProduct33 <- Concat17
I0804 17:27:37.910490 10721 net.cpp:399] InnerProduct33 -> InnerProduct33
I0804 17:27:37.920861 10721 net.cpp:141] Setting up InnerProduct33
I0804 17:27:37.920886 10721 net.cpp:148] Top shape: 64 128 (8192)
I0804 17:27:37.920892 10721 net.cpp:156] Memory required for data: 4907374080
I0804 17:27:37.920902 10721 net.cpp:484] Sharing parameters 'fc1_w' owned by layer 'InnerProduct1', param index 0
I0804 17:27:37.920909 10721 net.cpp:484] Sharing parameters 'fc1_b' owned by layer 'InnerProduct1', param index 1
I0804 17:27:37.920915 10721 layer_factory.hpp:77] Creating layer ReLU203
I0804 17:27:37.920928 10721 net.cpp:91] Creating Layer ReLU203
I0804 17:27:37.920936 10721 net.cpp:425] ReLU203 <- InnerProduct33
I0804 17:27:37.920948 10721 net.cpp:386] ReLU203 -> InnerProduct33 (in-place)
I0804 17:27:37.920961 10721 net.cpp:141] Setting up ReLU203
I0804 17:27:37.920969 10721 net.cpp:148] Top shape: 64 128 (8192)
I0804 17:27:37.920974 10721 net.cpp:156] Memory required for data: 4907406848
I0804 17:27:37.920980 10721 layer_factory.hpp:77] Creating layer InnerProduct34
I0804 17:27:37.920991 10721 net.cpp:91] Creating Layer InnerProduct34
I0804 17:27:37.920999 10721 net.cpp:425] InnerProduct34 <- InnerProduct33
I0804 17:27:37.921010 10721 net.cpp:399] InnerProduct34 -> InnerProduct34
I0804 17:27:37.921937 10721 net.cpp:141] Setting up InnerProduct34
I0804 17:27:37.921963 10721 net.cpp:148] Top shape: 64 128 (8192)
I0804 17:27:37.921969 10721 net.cpp:156] Memory required for data: 4907439616
I0804 17:27:37.921993 10721 net.cpp:484] Sharing parameters 'fc2_w' owned by layer 'InnerProduct2', param index 0
I0804 17:27:37.922001 10721 net.cpp:484] Sharing parameters 'fc2_b' owned by layer 'InnerProduct2', param index 1
I0804 17:27:37.922008 10721 layer_factory.hpp:77] Creating layer ReLU204
I0804 17:27:37.922027 10721 net.cpp:91] Creating Layer ReLU204
I0804 17:27:37.922034 10721 net.cpp:425] ReLU204 <- InnerProduct34
I0804 17:27:37.922042 10721 net.cpp:386] ReLU204 -> InnerProduct34 (in-place)
I0804 17:27:37.922052 10721 net.cpp:141] Setting up ReLU204
I0804 17:27:37.922060 10721 net.cpp:148] Top shape: 64 128 (8192)
I0804 17:27:37.922065 10721 net.cpp:156] Memory required for data: 4907472384
I0804 17:27:37.922070 10721 layer_factory.hpp:77] Creating layer dt16
I0804 17:27:37.922083 10721 net.cpp:91] Creating Layer dt16
I0804 17:27:37.922089 10721 net.cpp:425] dt16 <- InnerProduct34
I0804 17:27:37.922102 10721 net.cpp:399] dt16 -> dt16
I0804 17:27:37.922243 10721 net.cpp:141] Setting up dt16
I0804 17:27:37.922255 10721 net.cpp:148] Top shape: 64 1 (64)
I0804 17:27:37.922260 10721 net.cpp:156] Memory required for data: 4907472640
I0804 17:27:37.922266 10721 net.cpp:484] Sharing parameters 'fc3_w' owned by layer 'dt0', param index 0
I0804 17:27:37.922273 10721 net.cpp:484] Sharing parameters 'fc3_b' owned by layer 'dt0', param index 1
I0804 17:27:37.922279 10721 layer_factory.hpp:77] Creating layer conv0
I0804 17:27:37.922292 10721 net.cpp:91] Creating Layer conv0
I0804 17:27:37.922300 10721 net.cpp:425] conv0 <- p2_p2_0_split_8
I0804 17:27:37.922314 10721 net.cpp:399] conv0 -> Convolution171
I0804 17:27:37.923450 10721 net.cpp:141] Setting up conv0
I0804 17:27:37.923478 10721 net.cpp:148] Top shape: 64 24 64 64 (6291456)
I0804 17:27:37.923485 10721 net.cpp:156] Memory required for data: 4932638464
I0804 17:27:37.923496 10721 layer_factory.hpp:77] Creating layer ReLU205
I0804 17:27:37.923504 10721 net.cpp:91] Creating Layer ReLU205
I0804 17:27:37.923511 10721 net.cpp:425] ReLU205 <- Convolution171
I0804 17:27:37.923521 10721 net.cpp:386] ReLU205 -> Convolution171 (in-place)
I0804 17:27:37.923543 10721 net.cpp:141] Setting up ReLU205
I0804 17:27:37.923550 10721 net.cpp:148] Top shape: 64 24 64 64 (6291456)
I0804 17:27:37.923557 10721 net.cpp:156] Memory required for data: 4957804288
I0804 17:27:37.923562 10721 layer_factory.hpp:77] Creating layer pool0
I0804 17:27:37.923571 10721 net.cpp:91] Creating Layer pool0
I0804 17:27:37.923578 10721 net.cpp:425] pool0 <- Convolution171
I0804 17:27:37.923588 10721 net.cpp:399] pool0 -> Pooling103
I0804 17:27:37.923642 10721 net.cpp:141] Setting up pool0
I0804 17:27:37.923652 10721 net.cpp:148] Top shape: 64 24 32 32 (1572864)
I0804 17:27:37.923660 10721 net.cpp:156] Memory required for data: 4964095744
I0804 17:27:37.923666 10721 layer_factory.hpp:77] Creating layer conv1
I0804 17:27:37.923679 10721 net.cpp:91] Creating Layer conv1
I0804 17:27:37.923694 10721 net.cpp:425] conv1 <- Pooling103
I0804 17:27:37.923712 10721 net.cpp:399] conv1 -> Convolution172
I0804 17:27:37.925892 10721 net.cpp:141] Setting up conv1
I0804 17:27:37.925907 10721 net.cpp:148] Top shape: 64 64 32 32 (4194304)
I0804 17:27:37.925915 10721 net.cpp:156] Memory required for data: 4980872960
I0804 17:27:37.925940 10721 layer_factory.hpp:77] Creating layer ReLU206
I0804 17:27:37.925951 10721 net.cpp:91] Creating Layer ReLU206
I0804 17:27:37.925957 10721 net.cpp:425] ReLU206 <- Convolution172
I0804 17:27:37.925966 10721 net.cpp:386] ReLU206 -> Convolution172 (in-place)
I0804 17:27:37.925974 10721 net.cpp:141] Setting up ReLU206
I0804 17:27:37.925982 10721 net.cpp:148] Top shape: 64 64 32 32 (4194304)
I0804 17:27:37.925995 10721 net.cpp:156] Memory required for data: 4997650176
I0804 17:27:37.926000 10721 layer_factory.hpp:77] Creating layer pool1
I0804 17:27:37.926012 10721 net.cpp:91] Creating Layer pool1
I0804 17:27:37.926020 10721 net.cpp:425] pool1 <- Convolution172
I0804 17:27:37.926029 10721 net.cpp:399] pool1 -> Pooling104
I0804 17:27:37.926082 10721 net.cpp:141] Setting up pool1
I0804 17:27:37.926105 10721 net.cpp:148] Top shape: 64 64 16 16 (1048576)
I0804 17:27:37.926110 10721 net.cpp:156] Memory required for data: 5001844480
I0804 17:27:37.926116 10721 layer_factory.hpp:77] Creating layer conv2
I0804 17:27:37.926131 10721 net.cpp:91] Creating Layer conv2
I0804 17:27:37.926136 10721 net.cpp:425] conv2 <- Pooling104
I0804 17:27:37.926147 10721 net.cpp:399] conv2 -> Convolution173
I0804 17:27:37.929112 10721 net.cpp:141] Setting up conv2
I0804 17:27:37.929134 10721 net.cpp:148] Top shape: 64 96 16 16 (1572864)
I0804 17:27:37.929139 10721 net.cpp:156] Memory required for data: 5008135936
I0804 17:27:37.929149 10721 layer_factory.hpp:77] Creating layer ReLU207
I0804 17:27:37.929157 10721 net.cpp:91] Creating Layer ReLU207
I0804 17:27:37.929162 10721 net.cpp:425] ReLU207 <- Convolution173
I0804 17:27:37.929172 10721 net.cpp:386] ReLU207 -> Convolution173 (in-place)
I0804 17:27:37.929183 10721 net.cpp:141] Setting up ReLU207
I0804 17:27:37.929199 10721 net.cpp:148] Top shape: 64 96 16 16 (1572864)
I0804 17:27:37.929204 10721 net.cpp:156] Memory required for data: 5014427392
I0804 17:27:37.929210 10721 layer_factory.hpp:77] Creating layer conv3
I0804 17:27:37.929224 10721 net.cpp:91] Creating Layer conv3
I0804 17:27:37.929231 10721 net.cpp:425] conv3 <- Convolution173
I0804 17:27:37.929240 10721 net.cpp:399] conv3 -> Convolution174
I0804 17:27:37.934135 10721 net.cpp:141] Setting up conv3
I0804 17:27:37.934161 10721 net.cpp:148] Top shape: 64 96 16 16 (1572864)
I0804 17:27:37.934167 10721 net.cpp:156] Memory required for data: 5020718848
I0804 17:27:37.934178 10721 layer_factory.hpp:77] Creating layer ReLU208
I0804 17:27:37.934186 10721 net.cpp:91] Creating Layer ReLU208
I0804 17:27:37.934193 10721 net.cpp:425] ReLU208 <- Convolution174
I0804 17:27:37.934204 10721 net.cpp:386] ReLU208 -> Convolution174 (in-place)
I0804 17:27:37.934224 10721 net.cpp:141] Setting up ReLU208
I0804 17:27:37.934232 10721 net.cpp:148] Top shape: 64 96 16 16 (1572864)
I0804 17:27:37.934237 10721 net.cpp:156] Memory required for data: 5027010304
I0804 17:27:37.934243 10721 layer_factory.hpp:77] Creating layer conv4
I0804 17:27:37.934257 10721 net.cpp:91] Creating Layer conv4
I0804 17:27:37.934264 10721 net.cpp:425] conv4 <- Convolution174
I0804 17:27:37.934273 10721 net.cpp:399] conv4 -> Convolution175
I0804 17:27:37.937233 10721 net.cpp:141] Setting up conv4
I0804 17:27:37.937255 10721 net.cpp:148] Top shape: 64 64 16 16 (1048576)
I0804 17:27:37.937260 10721 net.cpp:156] Memory required for data: 5031204608
I0804 17:27:37.937270 10721 layer_factory.hpp:77] Creating layer ReLU209
I0804 17:27:37.937278 10721 net.cpp:91] Creating Layer ReLU209
I0804 17:27:37.937284 10721 net.cpp:425] ReLU209 <- Convolution175
I0804 17:27:37.937296 10721 net.cpp:386] ReLU209 -> Convolution175 (in-place)
I0804 17:27:37.937314 10721 net.cpp:141] Setting up ReLU209
I0804 17:27:37.937321 10721 net.cpp:148] Top shape: 64 64 16 16 (1048576)
I0804 17:27:37.937326 10721 net.cpp:156] Memory required for data: 5035398912
I0804 17:27:37.937332 10721 layer_factory.hpp:77] Creating layer pool4
I0804 17:27:37.937340 10721 net.cpp:91] Creating Layer pool4
I0804 17:27:37.937347 10721 net.cpp:425] pool4 <- Convolution175
I0804 17:27:37.937356 10721 net.cpp:399] pool4 -> Pooling105
I0804 17:27:37.937403 10721 net.cpp:141] Setting up pool4
I0804 17:27:37.937412 10721 net.cpp:148] Top shape: 64 64 8 8 (262144)
I0804 17:27:37.937417 10721 net.cpp:156] Memory required for data: 5036447488
I0804 17:27:37.937422 10721 layer_factory.hpp:77] Creating layer conv0
I0804 17:27:37.937435 10721 net.cpp:91] Creating Layer conv0
I0804 17:27:37.937443 10721 net.cpp:425] conv0 <- c18
I0804 17:27:37.937455 10721 net.cpp:399] conv0 -> Convolution176
I0804 17:27:37.937969 10721 net.cpp:141] Setting up conv0
I0804 17:27:37.937979 10721 net.cpp:148] Top shape: 64 24 64 64 (6291456)
I0804 17:27:37.937985 10721 net.cpp:156] Memory required for data: 5061613312
I0804 17:27:37.937995 10721 layer_factory.hpp:77] Creating layer ReLU210
I0804 17:27:37.938005 10721 net.cpp:91] Creating Layer ReLU210
I0804 17:27:37.938025 10721 net.cpp:425] ReLU210 <- Convolution176
I0804 17:27:37.938035 10721 net.cpp:386] ReLU210 -> Convolution176 (in-place)
I0804 17:27:37.938043 10721 net.cpp:141] Setting up ReLU210
I0804 17:27:37.938051 10721 net.cpp:148] Top shape: 64 24 64 64 (6291456)
I0804 17:27:37.938060 10721 net.cpp:156] Memory required for data: 5086779136
I0804 17:27:37.938066 10721 layer_factory.hpp:77] Creating layer pool0
I0804 17:27:37.938076 10721 net.cpp:91] Creating Layer pool0
I0804 17:27:37.938081 10721 net.cpp:425] pool0 <- Convolution176
I0804 17:27:37.938091 10721 net.cpp:399] pool0 -> Pooling106
I0804 17:27:37.938144 10721 net.cpp:141] Setting up pool0
I0804 17:27:37.938151 10721 net.cpp:148] Top shape: 64 24 32 32 (1572864)
I0804 17:27:37.938158 10721 net.cpp:156] Memory required for data: 5093070592
I0804 17:27:37.938163 10721 layer_factory.hpp:77] Creating layer conv1
I0804 17:27:37.938176 10721 net.cpp:91] Creating Layer conv1
I0804 17:27:37.938182 10721 net.cpp:425] conv1 <- Pooling106
I0804 17:27:37.938192 10721 net.cpp:399] conv1 -> Convolution177
I0804 17:27:37.940975 10721 net.cpp:141] Setting up conv1
I0804 17:27:37.940989 10721 net.cpp:148] Top shape: 64 64 32 32 (4194304)
I0804 17:27:37.940994 10721 net.cpp:156] Memory required for data: 5109847808
I0804 17:27:37.941005 10721 layer_factory.hpp:77] Creating layer ReLU211
I0804 17:27:37.941014 10721 net.cpp:91] Creating Layer ReLU211
I0804 17:27:37.941020 10721 net.cpp:425] ReLU211 <- Convolution177
I0804 17:27:37.941031 10721 net.cpp:386] ReLU211 -> Convolution177 (in-place)
I0804 17:27:37.941041 10721 net.cpp:141] Setting up ReLU211
I0804 17:27:37.941050 10721 net.cpp:148] Top shape: 64 64 32 32 (4194304)
I0804 17:27:37.941054 10721 net.cpp:156] Memory required for data: 5126625024
I0804 17:27:37.941061 10721 layer_factory.hpp:77] Creating layer pool1
I0804 17:27:37.941068 10721 net.cpp:91] Creating Layer pool1
I0804 17:27:37.941074 10721 net.cpp:425] pool1 <- Convolution177
I0804 17:27:37.941083 10721 net.cpp:399] pool1 -> Pooling107
I0804 17:27:37.941135 10721 net.cpp:141] Setting up pool1
I0804 17:27:37.941143 10721 net.cpp:148] Top shape: 64 64 16 16 (1048576)
I0804 17:27:37.941148 10721 net.cpp:156] Memory required for data: 5130819328
I0804 17:27:37.941154 10721 layer_factory.hpp:77] Creating layer conv2
I0804 17:27:37.941167 10721 net.cpp:91] Creating Layer conv2
I0804 17:27:37.941174 10721 net.cpp:425] conv2 <- Pooling107
I0804 17:27:37.941185 10721 net.cpp:399] conv2 -> Convolution178
I0804 17:27:37.944207 10721 net.cpp:141] Setting up conv2
I0804 17:27:37.944219 10721 net.cpp:148] Top shape: 64 96 16 16 (1572864)
I0804 17:27:37.944227 10721 net.cpp:156] Memory required for data: 5137110784
I0804 17:27:37.944239 10721 layer_factory.hpp:77] Creating layer ReLU212
I0804 17:27:37.944249 10721 net.cpp:91] Creating Layer ReLU212
I0804 17:27:37.944258 10721 net.cpp:425] ReLU212 <- Convolution178
I0804 17:27:37.944270 10721 net.cpp:386] ReLU212 -> Convolution178 (in-place)
I0804 17:27:37.944283 10721 net.cpp:141] Setting up ReLU212
I0804 17:27:37.944290 10721 net.cpp:148] Top shape: 64 96 16 16 (1572864)
I0804 17:27:37.944298 10721 net.cpp:156] Memory required for data: 5143402240
I0804 17:27:37.944303 10721 layer_factory.hpp:77] Creating layer conv3
I0804 17:27:37.944317 10721 net.cpp:91] Creating Layer conv3
I0804 17:27:37.944324 10721 net.cpp:425] conv3 <- Convolution178
I0804 17:27:37.944339 10721 net.cpp:399] conv3 -> Convolution179
I0804 17:27:37.948865 10721 net.cpp:141] Setting up conv3
I0804 17:27:37.948889 10721 net.cpp:148] Top shape: 64 96 16 16 (1572864)
I0804 17:27:37.948896 10721 net.cpp:156] Memory required for data: 5149693696
I0804 17:27:37.948911 10721 layer_factory.hpp:77] Creating layer ReLU213
I0804 17:27:37.948925 10721 net.cpp:91] Creating Layer ReLU213
I0804 17:27:37.948933 10721 net.cpp:425] ReLU213 <- Convolution179
I0804 17:27:37.948942 10721 net.cpp:386] ReLU213 -> Convolution179 (in-place)
I0804 17:27:37.948953 10721 net.cpp:141] Setting up ReLU213
I0804 17:27:37.948961 10721 net.cpp:148] Top shape: 64 96 16 16 (1572864)
I0804 17:27:37.948981 10721 net.cpp:156] Memory required for data: 5155985152
I0804 17:27:37.948987 10721 layer_factory.hpp:77] Creating layer conv4
I0804 17:27:37.949002 10721 net.cpp:91] Creating Layer conv4
I0804 17:27:37.949008 10721 net.cpp:425] conv4 <- Convolution179
I0804 17:27:37.949021 10721 net.cpp:399] conv4 -> Convolution180
I0804 17:27:37.952059 10721 net.cpp:141] Setting up conv4
I0804 17:27:37.952088 10721 net.cpp:148] Top shape: 64 64 16 16 (1048576)
I0804 17:27:37.952095 10721 net.cpp:156] Memory required for data: 5160179456
I0804 17:27:37.952105 10721 layer_factory.hpp:77] Creating layer ReLU214
I0804 17:27:37.952116 10721 net.cpp:91] Creating Layer ReLU214
I0804 17:27:37.952124 10721 net.cpp:425] ReLU214 <- Convolution180
I0804 17:27:37.952133 10721 net.cpp:386] ReLU214 -> Convolution180 (in-place)
I0804 17:27:37.952155 10721 net.cpp:141] Setting up ReLU214
I0804 17:27:37.952163 10721 net.cpp:148] Top shape: 64 64 16 16 (1048576)
I0804 17:27:37.952169 10721 net.cpp:156] Memory required for data: 5164373760
I0804 17:27:37.952174 10721 layer_factory.hpp:77] Creating layer pool4
I0804 17:27:37.952188 10721 net.cpp:91] Creating Layer pool4
I0804 17:27:37.952193 10721 net.cpp:425] pool4 <- Convolution180
I0804 17:27:37.952203 10721 net.cpp:399] pool4 -> Pooling108
I0804 17:27:37.952250 10721 net.cpp:141] Setting up pool4
I0804 17:27:37.952262 10721 net.cpp:148] Top shape: 64 64 8 8 (262144)
I0804 17:27:37.952268 10721 net.cpp:156] Memory required for data: 5165422336
I0804 17:27:37.952275 10721 layer_factory.hpp:77] Creating layer Concat18
I0804 17:27:37.952283 10721 net.cpp:91] Creating Layer Concat18
I0804 17:27:37.952289 10721 net.cpp:425] Concat18 <- Pooling105
I0804 17:27:37.952296 10721 net.cpp:425] Concat18 <- Pooling108
I0804 17:27:37.952306 10721 net.cpp:399] Concat18 -> Concat18
I0804 17:27:37.952340 10721 net.cpp:141] Setting up Concat18
I0804 17:27:37.952349 10721 net.cpp:148] Top shape: 64 128 8 8 (524288)
I0804 17:27:37.952355 10721 net.cpp:156] Memory required for data: 5167519488
I0804 17:27:37.952361 10721 layer_factory.hpp:77] Creating layer InnerProduct35
I0804 17:27:37.952374 10721 net.cpp:91] Creating Layer InnerProduct35
I0804 17:27:37.952384 10721 net.cpp:425] InnerProduct35 <- Concat18
I0804 17:27:37.952395 10721 net.cpp:399] InnerProduct35 -> InnerProduct35
I0804 17:27:37.962373 10721 net.cpp:141] Setting up InnerProduct35
I0804 17:27:37.962402 10721 net.cpp:148] Top shape: 64 128 (8192)
I0804 17:27:37.962409 10721 net.cpp:156] Memory required for data: 5167552256
I0804 17:27:37.962416 10721 net.cpp:484] Sharing parameters 'fc1_w' owned by layer 'InnerProduct1', param index 0
I0804 17:27:37.962424 10721 net.cpp:484] Sharing parameters 'fc1_b' owned by layer 'InnerProduct1', param index 1
I0804 17:27:37.962430 10721 layer_factory.hpp:77] Creating layer ReLU215
I0804 17:27:37.962445 10721 net.cpp:91] Creating Layer ReLU215
I0804 17:27:37.962463 10721 net.cpp:425] ReLU215 <- InnerProduct35
I0804 17:27:37.962472 10721 net.cpp:386] ReLU215 -> InnerProduct35 (in-place)
I0804 17:27:37.962482 10721 net.cpp:141] Setting up ReLU215
I0804 17:27:37.962491 10721 net.cpp:148] Top shape: 64 128 (8192)
I0804 17:27:37.962496 10721 net.cpp:156] Memory required for data: 5167585024
I0804 17:27:37.962502 10721 layer_factory.hpp:77] Creating layer InnerProduct36
I0804 17:27:37.962512 10721 net.cpp:91] Creating Layer InnerProduct36
I0804 17:27:37.962517 10721 net.cpp:425] InnerProduct36 <- InnerProduct35
I0804 17:27:37.962527 10721 net.cpp:399] InnerProduct36 -> InnerProduct36
I0804 17:27:37.962792 10721 net.cpp:141] Setting up InnerProduct36
I0804 17:27:37.962803 10721 net.cpp:148] Top shape: 64 128 (8192)
I0804 17:27:37.962812 10721 net.cpp:156] Memory required for data: 5167617792
I0804 17:27:37.962818 10721 net.cpp:484] Sharing parameters 'fc2_w' owned by layer 'InnerProduct2', param index 0
I0804 17:27:37.962826 10721 net.cpp:484] Sharing parameters 'fc2_b' owned by layer 'InnerProduct2', param index 1
I0804 17:27:37.962831 10721 layer_factory.hpp:77] Creating layer ReLU216
I0804 17:27:37.962857 10721 net.cpp:91] Creating Layer ReLU216
I0804 17:27:37.962862 10721 net.cpp:425] ReLU216 <- InnerProduct36
I0804 17:27:37.962872 10721 net.cpp:386] ReLU216 -> InnerProduct36 (in-place)
I0804 17:27:37.962880 10721 net.cpp:141] Setting up ReLU216
I0804 17:27:37.962888 10721 net.cpp:148] Top shape: 64 128 (8192)
I0804 17:27:37.962893 10721 net.cpp:156] Memory required for data: 5167650560
I0804 17:27:37.962898 10721 layer_factory.hpp:77] Creating layer dt17
I0804 17:27:37.962910 10721 net.cpp:91] Creating Layer dt17
I0804 17:27:37.962916 10721 net.cpp:425] dt17 <- InnerProduct36
I0804 17:27:37.962929 10721 net.cpp:399] dt17 -> dt17
I0804 17:27:37.963071 10721 net.cpp:141] Setting up dt17
I0804 17:27:37.963081 10721 net.cpp:148] Top shape: 64 1 (64)
I0804 17:27:37.963089 10721 net.cpp:156] Memory required for data: 5167650816
I0804 17:27:37.963095 10721 net.cpp:484] Sharing parameters 'fc3_w' owned by layer 'dt0', param index 0
I0804 17:27:37.963102 10721 net.cpp:484] Sharing parameters 'fc3_b' owned by layer 'dt0', param index 1
I0804 17:27:37.963109 10721 layer_factory.hpp:77] Creating layer conv0
I0804 17:27:37.963120 10721 net.cpp:91] Creating Layer conv0
I0804 17:27:37.963129 10721 net.cpp:425] conv0 <- p2_p2_0_split_9
I0804 17:27:37.963142 10721 net.cpp:399] conv0 -> Convolution181
I0804 17:27:37.963696 10721 net.cpp:141] Setting up conv0
I0804 17:27:37.963707 10721 net.cpp:148] Top shape: 64 24 64 64 (6291456)
I0804 17:27:37.963712 10721 net.cpp:156] Memory required for data: 5192816640
I0804 17:27:37.963723 10721 layer_factory.hpp:77] Creating layer ReLU217
I0804 17:27:37.963731 10721 net.cpp:91] Creating Layer ReLU217
I0804 17:27:37.963737 10721 net.cpp:425] ReLU217 <- Convolution181
I0804 17:27:37.963745 10721 net.cpp:386] ReLU217 -> Convolution181 (in-place)
I0804 17:27:37.963754 10721 net.cpp:141] Setting up ReLU217
I0804 17:27:37.963762 10721 net.cpp:148] Top shape: 64 24 64 64 (6291456)
I0804 17:27:37.963768 10721 net.cpp:156] Memory required for data: 5217982464
I0804 17:27:37.963773 10721 layer_factory.hpp:77] Creating layer pool0
I0804 17:27:37.963784 10721 net.cpp:91] Creating Layer pool0
I0804 17:27:37.963790 10721 net.cpp:425] pool0 <- Convolution181
I0804 17:27:37.963799 10721 net.cpp:399] pool0 -> Pooling109
I0804 17:27:37.963856 10721 net.cpp:141] Setting up pool0
I0804 17:27:37.963865 10721 net.cpp:148] Top shape: 64 24 32 32 (1572864)
I0804 17:27:37.963871 10721 net.cpp:156] Memory required for data: 5224273920
I0804 17:27:37.963876 10721 layer_factory.hpp:77] Creating layer conv1
I0804 17:27:37.963888 10721 net.cpp:91] Creating Layer conv1
I0804 17:27:37.963896 10721 net.cpp:425] conv1 <- Pooling109
I0804 17:27:37.963907 10721 net.cpp:399] conv1 -> Convolution182
I0804 17:27:37.966063 10721 net.cpp:141] Setting up conv1
I0804 17:27:37.966071 10721 net.cpp:148] Top shape: 64 64 32 32 (4194304)
I0804 17:27:37.966078 10721 net.cpp:156] Memory required for data: 5241051136
I0804 17:27:37.966087 10721 layer_factory.hpp:77] Creating layer ReLU218
I0804 17:27:37.966095 10721 net.cpp:91] Creating Layer ReLU218
I0804 17:27:37.966101 10721 net.cpp:425] ReLU218 <- Convolution182
I0804 17:27:37.966109 10721 net.cpp:386] ReLU218 -> Convolution182 (in-place)
I0804 17:27:37.966117 10721 net.cpp:141] Setting up ReLU218
I0804 17:27:37.966125 10721 net.cpp:148] Top shape: 64 64 32 32 (4194304)
I0804 17:27:37.966130 10721 net.cpp:156] Memory required for data: 5257828352
I0804 17:27:37.966135 10721 layer_factory.hpp:77] Creating layer pool1
I0804 17:27:37.966143 10721 net.cpp:91] Creating Layer pool1
I0804 17:27:37.966150 10721 net.cpp:425] pool1 <- Convolution182
I0804 17:27:37.966161 10721 net.cpp:399] pool1 -> Pooling110
I0804 17:27:37.966210 10721 net.cpp:141] Setting up pool1
I0804 17:27:37.966218 10721 net.cpp:148] Top shape: 64 64 16 16 (1048576)
I0804 17:27:37.966223 10721 net.cpp:156] Memory required for data: 5262022656
I0804 17:27:37.966228 10721 layer_factory.hpp:77] Creating layer conv2
I0804 17:27:37.966243 10721 net.cpp:91] Creating Layer conv2
I0804 17:27:37.966249 10721 net.cpp:425] conv2 <- Pooling110
I0804 17:27:37.966269 10721 net.cpp:399] conv2 -> Convolution183
I0804 17:27:37.969225 10721 net.cpp:141] Setting up conv2
I0804 17:27:37.969233 10721 net.cpp:148] Top shape: 64 96 16 16 (1572864)
I0804 17:27:37.969239 10721 net.cpp:156] Memory required for data: 5268314112
I0804 17:27:37.969249 10721 layer_factory.hpp:77] Creating layer ReLU219
I0804 17:27:37.969259 10721 net.cpp:91] Creating Layer ReLU219
I0804 17:27:37.969265 10721 net.cpp:425] ReLU219 <- Convolution183
I0804 17:27:37.969274 10721 net.cpp:386] ReLU219 -> Convolution183 (in-place)
I0804 17:27:37.969283 10721 net.cpp:141] Setting up ReLU219
I0804 17:27:37.969291 10721 net.cpp:148] Top shape: 64 96 16 16 (1572864)
I0804 17:27:37.969296 10721 net.cpp:156] Memory required for data: 5274605568
I0804 17:27:37.969302 10721 layer_factory.hpp:77] Creating layer conv3
I0804 17:27:37.969316 10721 net.cpp:91] Creating Layer conv3
I0804 17:27:37.969322 10721 net.cpp:425] conv3 <- Convolution183
I0804 17:27:37.969334 10721 net.cpp:399] conv3 -> Convolution184
I0804 17:27:37.973618 10721 net.cpp:141] Setting up conv3
I0804 17:27:37.973629 10721 net.cpp:148] Top shape: 64 96 16 16 (1572864)
I0804 17:27:37.973635 10721 net.cpp:156] Memory required for data: 5280897024
I0804 17:27:37.973647 10721 layer_factory.hpp:77] Creating layer ReLU220
I0804 17:27:37.973656 10721 net.cpp:91] Creating Layer ReLU220
I0804 17:27:37.973664 10721 net.cpp:425] ReLU220 <- Convolution184
I0804 17:27:37.973676 10721 net.cpp:386] ReLU220 -> Convolution184 (in-place)
I0804 17:27:37.973687 10721 net.cpp:141] Setting up ReLU220
I0804 17:27:37.973696 10721 net.cpp:148] Top shape: 64 96 16 16 (1572864)
I0804 17:27:37.973703 10721 net.cpp:156] Memory required for data: 5287188480
I0804 17:27:37.973709 10721 layer_factory.hpp:77] Creating layer conv4
I0804 17:27:37.973726 10721 net.cpp:91] Creating Layer conv4
I0804 17:27:37.973733 10721 net.cpp:425] conv4 <- Convolution184
I0804 17:27:37.973744 10721 net.cpp:399] conv4 -> Convolution185
I0804 17:27:37.977531 10721 net.cpp:141] Setting up conv4
I0804 17:27:37.977548 10721 net.cpp:148] Top shape: 64 64 16 16 (1048576)
I0804 17:27:37.977555 10721 net.cpp:156] Memory required for data: 5291382784
I0804 17:27:37.977566 10721 layer_factory.hpp:77] Creating layer ReLU221
I0804 17:27:37.977577 10721 net.cpp:91] Creating Layer ReLU221
I0804 17:27:37.977586 10721 net.cpp:425] ReLU221 <- Convolution185
I0804 17:27:37.977594 10721 net.cpp:386] ReLU221 -> Convolution185 (in-place)
I0804 17:27:37.977605 10721 net.cpp:141] Setting up ReLU221
I0804 17:27:37.977613 10721 net.cpp:148] Top shape: 64 64 16 16 (1048576)
I0804 17:27:37.977618 10721 net.cpp:156] Memory required for data: 5295577088
I0804 17:27:37.977624 10721 layer_factory.hpp:77] Creating layer pool4
I0804 17:27:37.977635 10721 net.cpp:91] Creating Layer pool4
I0804 17:27:37.977643 10721 net.cpp:425] pool4 <- Convolution185
I0804 17:27:37.977653 10721 net.cpp:399] pool4 -> Pooling111
I0804 17:27:37.977699 10721 net.cpp:141] Setting up pool4
I0804 17:27:37.977711 10721 net.cpp:148] Top shape: 64 64 8 8 (262144)
I0804 17:27:37.977720 10721 net.cpp:156] Memory required for data: 5296625664
I0804 17:27:37.977725 10721 layer_factory.hpp:77] Creating layer conv0
I0804 17:27:37.977741 10721 net.cpp:91] Creating Layer conv0
I0804 17:27:37.977754 10721 net.cpp:425] conv0 <- c19
I0804 17:27:37.977768 10721 net.cpp:399] conv0 -> Convolution186
I0804 17:27:37.978310 10721 net.cpp:141] Setting up conv0
I0804 17:27:37.978325 10721 net.cpp:148] Top shape: 64 24 64 64 (6291456)
I0804 17:27:37.978333 10721 net.cpp:156] Memory required for data: 5321791488
I0804 17:27:37.978353 10721 layer_factory.hpp:77] Creating layer ReLU222
I0804 17:27:37.978364 10721 net.cpp:91] Creating Layer ReLU222
I0804 17:27:37.978370 10721 net.cpp:425] ReLU222 <- Convolution186
I0804 17:27:37.978379 10721 net.cpp:386] ReLU222 -> Convolution186 (in-place)
I0804 17:27:37.978389 10721 net.cpp:141] Setting up ReLU222
I0804 17:27:37.978396 10721 net.cpp:148] Top shape: 64 24 64 64 (6291456)
I0804 17:27:37.978402 10721 net.cpp:156] Memory required for data: 5346957312
I0804 17:27:37.978422 10721 layer_factory.hpp:77] Creating layer pool0
I0804 17:27:37.978431 10721 net.cpp:91] Creating Layer pool0
I0804 17:27:37.978437 10721 net.cpp:425] pool0 <- Convolution186
I0804 17:27:37.978449 10721 net.cpp:399] pool0 -> Pooling112
I0804 17:27:37.978503 10721 net.cpp:141] Setting up pool0
I0804 17:27:37.978512 10721 net.cpp:148] Top shape: 64 24 32 32 (1572864)
I0804 17:27:37.978516 10721 net.cpp:156] Memory required for data: 5353248768
I0804 17:27:37.978523 10721 layer_factory.hpp:77] Creating layer conv1
I0804 17:27:37.978538 10721 net.cpp:91] Creating Layer conv1
I0804 17:27:37.978544 10721 net.cpp:425] conv1 <- Pooling112
I0804 17:27:37.978557 10721 net.cpp:399] conv1 -> Convolution187
I0804 17:27:37.980820 10721 net.cpp:141] Setting up conv1
I0804 17:27:37.980837 10721 net.cpp:148] Top shape: 64 64 32 32 (4194304)
I0804 17:27:37.980845 10721 net.cpp:156] Memory required for data: 5370025984
I0804 17:27:37.980857 10721 layer_factory.hpp:77] Creating layer ReLU223
I0804 17:27:37.980868 10721 net.cpp:91] Creating Layer ReLU223
I0804 17:27:37.980877 10721 net.cpp:425] ReLU223 <- Convolution187
I0804 17:27:37.980892 10721 net.cpp:386] ReLU223 -> Convolution187 (in-place)
I0804 17:27:37.980904 10721 net.cpp:141] Setting up ReLU223
I0804 17:27:37.980913 10721 net.cpp:148] Top shape: 64 64 32 32 (4194304)
I0804 17:27:37.980921 10721 net.cpp:156] Memory required for data: 5386803200
I0804 17:27:37.980927 10721 layer_factory.hpp:77] Creating layer pool1
I0804 17:27:37.980938 10721 net.cpp:91] Creating Layer pool1
I0804 17:27:37.980947 10721 net.cpp:425] pool1 <- Convolution187
I0804 17:27:37.980958 10721 net.cpp:399] pool1 -> Pooling113
I0804 17:27:37.981030 10721 net.cpp:141] Setting up pool1
I0804 17:27:37.981041 10721 net.cpp:148] Top shape: 64 64 16 16 (1048576)
I0804 17:27:37.981047 10721 net.cpp:156] Memory required for data: 5390997504
I0804 17:27:37.981053 10721 layer_factory.hpp:77] Creating layer conv2
I0804 17:27:37.981070 10721 net.cpp:91] Creating Layer conv2
I0804 17:27:37.981076 10721 net.cpp:425] conv2 <- Pooling113
I0804 17:27:37.981088 10721 net.cpp:399] conv2 -> Convolution188
I0804 17:27:37.984153 10721 net.cpp:141] Setting up conv2
I0804 17:27:37.984169 10721 net.cpp:148] Top shape: 64 96 16 16 (1572864)
I0804 17:27:37.984177 10721 net.cpp:156] Memory required for data: 5397288960
I0804 17:27:37.984190 10721 layer_factory.hpp:77] Creating layer ReLU224
I0804 17:27:37.984203 10721 net.cpp:91] Creating Layer ReLU224
I0804 17:27:37.984212 10721 net.cpp:425] ReLU224 <- Convolution188
I0804 17:27:37.984225 10721 net.cpp:386] ReLU224 -> Convolution188 (in-place)
I0804 17:27:37.984236 10721 net.cpp:141] Setting up ReLU224
I0804 17:27:37.984246 10721 net.cpp:148] Top shape: 64 96 16 16 (1572864)
I0804 17:27:37.984251 10721 net.cpp:156] Memory required for data: 5403580416
I0804 17:27:37.984259 10721 layer_factory.hpp:77] Creating layer conv3
I0804 17:27:37.984277 10721 net.cpp:91] Creating Layer conv3
I0804 17:27:37.984284 10721 net.cpp:425] conv3 <- Convolution188
I0804 17:27:37.984300 10721 net.cpp:399] conv3 -> Convolution189
I0804 17:27:37.989393 10721 net.cpp:141] Setting up conv3
I0804 17:27:37.989415 10721 net.cpp:148] Top shape: 64 96 16 16 (1572864)
I0804 17:27:37.989424 10721 net.cpp:156] Memory required for data: 5409871872
I0804 17:27:37.989435 10721 layer_factory.hpp:77] Creating layer ReLU225
I0804 17:27:37.989447 10721 net.cpp:91] Creating Layer ReLU225
I0804 17:27:37.989455 10721 net.cpp:425] ReLU225 <- Convolution189
I0804 17:27:37.989464 10721 net.cpp:386] ReLU225 -> Convolution189 (in-place)
I0804 17:27:37.989475 10721 net.cpp:141] Setting up ReLU225
I0804 17:27:37.989483 10721 net.cpp:148] Top shape: 64 96 16 16 (1572864)
I0804 17:27:37.989488 10721 net.cpp:156] Memory required for data: 5416163328
I0804 17:27:37.989495 10721 layer_factory.hpp:77] Creating layer conv4
I0804 17:27:37.989508 10721 net.cpp:91] Creating Layer conv4
I0804 17:27:37.989514 10721 net.cpp:425] conv4 <- Convolution189
I0804 17:27:37.989527 10721 net.cpp:399] conv4 -> Convolution190
I0804 17:27:37.992542 10721 net.cpp:141] Setting up conv4
I0804 17:27:37.992558 10721 net.cpp:148] Top shape: 64 64 16 16 (1048576)
I0804 17:27:37.992563 10721 net.cpp:156] Memory required for data: 5420357632
I0804 17:27:37.992574 10721 layer_factory.hpp:77] Creating layer ReLU226
I0804 17:27:37.992583 10721 net.cpp:91] Creating Layer ReLU226
I0804 17:27:37.992588 10721 net.cpp:425] ReLU226 <- Convolution190
I0804 17:27:37.992596 10721 net.cpp:386] ReLU226 -> Convolution190 (in-place)
I0804 17:27:37.992606 10721 net.cpp:141] Setting up ReLU226
I0804 17:27:37.992614 10721 net.cpp:148] Top shape: 64 64 16 16 (1048576)
I0804 17:27:37.992619 10721 net.cpp:156] Memory required for data: 5424551936
I0804 17:27:37.992624 10721 layer_factory.hpp:77] Creating layer pool4
I0804 17:27:37.992633 10721 net.cpp:91] Creating Layer pool4
I0804 17:27:37.992640 10721 net.cpp:425] pool4 <- Convolution190
I0804 17:27:37.992651 10721 net.cpp:399] pool4 -> Pooling114
I0804 17:27:37.992698 10721 net.cpp:141] Setting up pool4
I0804 17:27:37.992705 10721 net.cpp:148] Top shape: 64 64 8 8 (262144)
I0804 17:27:37.992712 10721 net.cpp:156] Memory required for data: 5425600512
I0804 17:27:37.992717 10721 layer_factory.hpp:77] Creating layer Concat19
I0804 17:27:37.992727 10721 net.cpp:91] Creating Layer Concat19
I0804 17:27:37.992733 10721 net.cpp:425] Concat19 <- Pooling111
I0804 17:27:37.992741 10721 net.cpp:425] Concat19 <- Pooling114
I0804 17:27:37.992753 10721 net.cpp:399] Concat19 -> Concat19
I0804 17:27:37.992785 10721 net.cpp:141] Setting up Concat19
I0804 17:27:37.992792 10721 net.cpp:148] Top shape: 64 128 8 8 (524288)
I0804 17:27:37.992799 10721 net.cpp:156] Memory required for data: 5427697664
I0804 17:27:37.992804 10721 layer_factory.hpp:77] Creating layer InnerProduct37
I0804 17:27:37.992815 10721 net.cpp:91] Creating Layer InnerProduct37
I0804 17:27:37.992820 10721 net.cpp:425] InnerProduct37 <- Concat19
I0804 17:27:37.992833 10721 net.cpp:399] InnerProduct37 -> InnerProduct37
I0804 17:27:38.002861 10721 net.cpp:141] Setting up InnerProduct37
I0804 17:27:38.002878 10721 net.cpp:148] Top shape: 64 128 (8192)
I0804 17:27:38.002884 10721 net.cpp:156] Memory required for data: 5427730432
I0804 17:27:38.002892 10721 net.cpp:484] Sharing parameters 'fc1_w' owned by layer 'InnerProduct1', param index 0
I0804 17:27:38.002899 10721 net.cpp:484] Sharing parameters 'fc1_b' owned by layer 'InnerProduct1', param index 1
I0804 17:27:38.002905 10721 layer_factory.hpp:77] Creating layer ReLU227
I0804 17:27:38.002914 10721 net.cpp:91] Creating Layer ReLU227
I0804 17:27:38.002921 10721 net.cpp:425] ReLU227 <- InnerProduct37
I0804 17:27:38.002930 10721 net.cpp:386] ReLU227 -> InnerProduct37 (in-place)
I0804 17:27:38.002941 10721 net.cpp:141] Setting up ReLU227
I0804 17:27:38.002948 10721 net.cpp:148] Top shape: 64 128 (8192)
I0804 17:27:38.002954 10721 net.cpp:156] Memory required for data: 5427763200
I0804 17:27:38.002959 10721 layer_factory.hpp:77] Creating layer InnerProduct38
I0804 17:27:38.002969 10721 net.cpp:91] Creating Layer InnerProduct38
I0804 17:27:38.002975 10721 net.cpp:425] InnerProduct38 <- InnerProduct37
I0804 17:27:38.002987 10721 net.cpp:399] InnerProduct38 -> InnerProduct38
I0804 17:27:38.003247 10721 net.cpp:141] Setting up InnerProduct38
I0804 17:27:38.003254 10721 net.cpp:148] Top shape: 64 128 (8192)
I0804 17:27:38.003260 10721 net.cpp:156] Memory required for data: 5427795968
I0804 17:27:38.003267 10721 net.cpp:484] Sharing parameters 'fc2_w' owned by layer 'InnerProduct2', param index 0
I0804 17:27:38.003279 10721 net.cpp:484] Sharing parameters 'fc2_b' owned by layer 'InnerProduct2', param index 1
I0804 17:27:38.003285 10721 layer_factory.hpp:77] Creating layer ReLU228
I0804 17:27:38.003295 10721 net.cpp:91] Creating Layer ReLU228
I0804 17:27:38.003301 10721 net.cpp:425] ReLU228 <- InnerProduct38
I0804 17:27:38.003309 10721 net.cpp:386] ReLU228 -> InnerProduct38 (in-place)
I0804 17:27:38.003319 10721 net.cpp:141] Setting up ReLU228
I0804 17:27:38.003325 10721 net.cpp:148] Top shape: 64 128 (8192)
I0804 17:27:38.003345 10721 net.cpp:156] Memory required for data: 5427828736
I0804 17:27:38.003351 10721 layer_factory.hpp:77] Creating layer dt18
I0804 17:27:38.003360 10721 net.cpp:91] Creating Layer dt18
I0804 17:27:38.003366 10721 net.cpp:425] dt18 <- InnerProduct38
I0804 17:27:38.003376 10721 net.cpp:399] dt18 -> dt18
I0804 17:27:38.003518 10721 net.cpp:141] Setting up dt18
I0804 17:27:38.003525 10721 net.cpp:148] Top shape: 64 1 (64)
I0804 17:27:38.003531 10721 net.cpp:156] Memory required for data: 5427828992
I0804 17:27:38.003538 10721 net.cpp:484] Sharing parameters 'fc3_w' owned by layer 'dt0', param index 0
I0804 17:27:38.003547 10721 net.cpp:484] Sharing parameters 'fc3_b' owned by layer 'dt0', param index 1
I0804 17:27:38.003556 10721 layer_factory.hpp:77] Creating layer con
I0804 17:27:38.003571 10721 net.cpp:91] Creating Layer con
…
I0804 17:27:38.003684 10721 net.cpp:425] con <- dt10
I0804 17:27:38.003692 10721 net.cpp:425] con <- dt11
I0804 17:27:38.003700 10721 net.cpp:425] con <- dt12
I0804 17:27:38.003707 10721 net.cpp:425] con <- dt13
I0804 17:27:38.003715 10721 net.cpp:425] con <- dt14
I0804 17:27:38.003722 10721 net.cpp:425] con <- dt15
I0804 17:27:38.003731 10721 net.cpp:425] con <- dt16
I0804 17:27:38.003738 10721 net.cpp:425] con <- dt17
I0804 17:27:38.003746 10721 net.cpp:425] con <- dt18
I0804 17:27:38.003759 10721 net.cpp:399] con -> con
I0804 17:27:38.003799 10721 net.cpp:141] Setting up con
I0804 17:27:38.003808 10721 net.cpp:148] Top shape: 64 19 (1216)
I0804 17:27:38.003815 10721 net.cpp:156] Memory required for data: 5427833856
I0804 17:27:38.003823 10721 layer_factory.hpp:77] Creating layer r1
I0804 17:27:38.003834 10721 net.cpp:91] Creating Layer r1
I0804 17:27:38.003840 10721 net.cpp:425] r1 <- con
I0804 17:27:38.003855 10721 net.cpp:399] r1 -> r1
I0804 17:27:38.003901 10721 net.cpp:141] Setting up r1
I0804 17:27:38.003913 10721 net.cpp:148] Top shape: 64 1 1 19 (1216)
I0804 17:27:38.003921 10721 net.cpp:156] Memory required for data: 5427838720
I0804 17:27:38.003926 10721 layer_factory.hpp:77] Creating layer p
I0804 17:27:38.003937 10721 net.cpp:91] Creating Layer p
I0804 17:27:38.003943 10721 net.cpp:425] p <- r1
I0804 17:27:38.003952 10721 net.cpp:399] p -> p
I0804 17:27:38.004014 10721 net.cpp:141] Setting up p
I0804 17:27:38.004024 10721 net.cpp:148] Top shape: 64 1 1 1 (64)
I0804 17:27:38.004029 10721 net.cpp:156] Memory required for data: 5427838976
I0804 17:27:38.004036 10721 layer_factory.hpp:77] Creating layer r2
I0804 17:27:38.004045 10721 net.cpp:91] Creating Layer r2
I0804 17:27:38.004052 10721 net.cpp:425] r2 <- p
I0804 17:27:38.004065 10721 net.cpp:399] r2 -> r2
I0804 17:27:38.004102 10721 net.cpp:141] Setting up r2
I0804 17:27:38.004112 10721 net.cpp:148] Top shape: 64 1 1 1 (64)
I0804 17:27:38.004118 10721 net.cpp:156] Memory required for data: 5427839232
I0804 17:27:38.004125 10721 layer_factory.hpp:77] Creating layer padL
I0804 17:27:38.004137 10721 net.cpp:91] Creating Layer padL
I0804 17:27:38.004144 10721 net.cpp:425] padL <- label_data_1_split_1
I0804 17:27:38.004154 10721 net.cpp:399] padL -> padL
I0804 17:27:38.004196 10721 net.cpp:141] Setting up padL
I0804 17:27:38.004206 10721 net.cpp:148] Top shape: 64 1 1 1 (64)
I0804 17:27:38.004214 10721 net.cpp:156] Memory required for data: 5427839488
I0804 17:27:38.004220 10721 layer_factory.hpp:77] Creating layer pad
I0804 17:27:38.004231 10721 net.cpp:91] Creating Layer pad
I0804 17:27:38.004237 10721 net.cpp:425] pad <- r2
I0804 17:27:38.004246 10721 net.cpp:425] pad <- padL
I0804 17:27:38.004256 10721 net.cpp:399] pad -> pad
I0804 17:27:38.004304 10721 net.cpp:141] Setting up pad
I0804 17:27:38.004313 10721 net.cpp:148] Top shape: 64 2 1 1 (128)
I0804 17:27:38.004319 10721 net.cpp:156] Memory required for data: 5427840000
I0804 17:27:38.004326 10721 layer_factory.hpp:77] Creating layer pad_pad_0_split
I0804 17:27:38.004335 10721 net.cpp:91] Creating Layer pad_pad_0_split
I0804 17:27:38.004343 10721 net.cpp:425] pad_pad_0_split <- pad
I0804 17:27:38.004354 10721 net.cpp:399] pad_pad_0_split -> pad_pad_0_split_0
I0804 17:27:38.004365 10721 net.cpp:399] pad_pad_0_split -> pad_pad_0_split_1
I0804 17:27:38.004422 10721 net.cpp:141] Setting up pad_pad_0_split
I0804 17:27:38.004431 10721 net.cpp:148] Top shape: 64 2 1 1 (128)
I0804 17:27:38.004441 10721 net.cpp:148] Top shape: 64 2 1 1 (128)
I0804 17:27:38.004446 10721 net.cpp:156] Memory required for data: 5427841024
I0804 17:27:38.004453 10721 layer_factory.hpp:77] Creating layer loss
I0804 17:27:38.004462 10721 net.cpp:91] Creating Layer loss
I0804 17:27:38.004468 10721 net.cpp:425] loss <- pad_pad_0_split_0
I0804 17:27:38.004477 10721 net.cpp:425] loss <- th_th_0_split_0
I0804 17:27:38.004487 10721 net.cpp:399] loss -> loss
…
