…
I0812 14:13:13.021508  5858 solver.cpp:81] Creating training net from train_net file: examples/scene/matchNetTrainHingeMini.prototxt
I0812 14:13:13.064707  5858 net.cpp:49] Initializing net from parameters: 
state {
  phase: TRAIN
}
layer {
  name: "data"
  type: "Data"
  top: "data"
  top: "label"
  include {
    phase: TRAIN
  }
  transform_param {
    scale: 0.0039215689
    mirror: true
    mean_file: "examples/scene/scene_mean.binaryproto"
  }
  data_param {
    source: "examples/scene/train11_pairs_300000_pad.lmdb"
    batch_size: 200
    backend: LMDB
  }
}
layer {
  name: "th"
  type: "Threshold"
  bottom: "label"
  top: "th"
  threshold_param {
    threshold: 0
  }
}
layer {
  name: "i1"
  type: "Slice"
  bottom: "data"
  top: "i1"
  top: "i2"
  slice_param {
    slice_dim: 1
    slice_point: 3
  }
}
layer {
  name: "p1"
  type: "Pooling"
  bottom: "i1"
  top: "p1"
  pooling_param {
    pool: AVE
    kernel_size: 2
    stride: 2
  }
}
layer {
  name: "p2"
  type: "Pooling"
  bottom: "i2"
  top: "p2"
  pooling_param {
    pool: AVE
    kernel_size: 2
    stride: 2
  }
}
layer {
  name: "Convolution1"
  type: "Convolution"
  bottom: "p1"
  top: "Convolution1"
  param {
    name: "conv1_w"
    lr_mult: 1
  }
  param {
    name: "conv1_b"
    lr_mult: 2
  }
  convolution_param {
    num_output: 50
    kernel_size: 5
    stride: 1
    weight_filler {
      type: "xavier"
    }
    bias_filler {
      type: "constant"
    }
  }
}
layer {
  name: "Pooling1"
  type: "Pooling"
  bottom: "Convolution1"
  top: "Pooling1"
  pooling_param {
    pool: MAX
    kernel_size: 2
    stride: 2
  }
}
layer {
  name: "Convolution2"
  type: "Convolution"
  bottom: "Pooling1"
  top: "Convolution2"
  param {
    name: "conv2_w"
    lr_mult: 1
  }
  param {
    name: "conv2_b"
    lr_mult: 2
  }
  convolution_param {
    num_output: 100
    kernel_size: 5
    stride: 1
    weight_filler {
      type: "xavier"
    }
    bias_filler {
      type: "constant"
    }
  }
}
layer {
  name: "Pooling2"
  type: "Pooling"
  bottom: "Convolution2"
  top: "Pooling2"
  pooling_param {
    pool: MAX
    kernel_size: 2
    stride: 2
  }
}
layer {
  name: "Convolution3"
  type: "Convolution"
  bottom: "Pooling2"
  top: "Convolution3"
  param {
    name: "conv3_w"
    lr_mult: 1
  }
  param {
    name: "conv3_b"
    lr_mult: 2
  }
  convolution_param {
    num_output: 100
    kernel_size: 5
    stride: 1
    weight_filler {
      type: "xavier"
    }
    bias_filler {
      type: "constant"
    }
  }
}
layer {
  name: "Pooling3"
  type: "Pooling"
  bottom: "Convolution3"
  top: "Pooling3"
  pooling_param {
    pool: MAX
    kernel_size: 2
    stride: 2
  }
}
layer {
  name: "InnerProduct1"
  type: "InnerProduct"
  bottom: "Pooling3"
  top: "InnerProduct1"
  param {
    name: "ip1_w"
    lr_mult: 1
  }
  param {
    name: "ip1_b"
    lr_mult: 2
  }
  inner_product_param {
    num_output: 200
    weight_filler {
      type: "xavier"
    }
    bias_filler {
      type: "constant"
    }
  }
}
layer {
  name: "ReLU1"
  type: "ReLU"
  bottom: "InnerProduct1"
  top: "InnerProduct1"
}
layer {
  name: "InnerProduct2"
  type: "InnerProduct"
  bottom: "InnerProduct1"
  top: "InnerProduct2"
  param {
    name: "ip2_w"
    lr_mult: 1
  }
  param {
    name: "ip2_b"
    lr_mult: 2
  }
  inner_product_param {
    num_output: 100
    weight_filler {
      type: "xavier"
    }
    bias_filler {
      type: "constant"
    }
  }
}
layer {
  name: "Convolution4"
  type: "Convolution"
  bottom: "p2"
  top: "Convolution4"
  param {
    name: "conv1_w"
    lr_mult: 1
  }
  param {
    name: "conv1_b"
    lr_mult: 2
  }
  convolution_param {
    num_output: 50
    kernel_size: 5
    stride: 1
    weight_filler {
      type: "xavier"
    }
    bias_filler {
      type: "constant"
    }
  }
}
layer {
  name: "Pooling4"
  type: "Pooling"
  bottom: "Convolution4"
  top: "Pooling4"
  pooling_param {
    pool: MAX
    kernel_size: 2
    stride: 2
  }
}
layer {
  name: "Convolution5"
  type: "Convolution"
  bottom: "Pooling4"
  top: "Convolution5"
  param {
    name: "conv2_w"
    lr_mult: 1
  }
  param {
    name: "conv2_b"
    lr_mult: 2
  }
  convolution_param {
    num_output: 100
    kernel_size: 5
    stride: 1
    weight_filler {
      type: "xavier"
    }
    bias_filler {
      type: "constant"
    }
  }
}
layer {
  name: "Pooling5"
  type: "Pooling"
  bottom: "Convolution5"
  top: "Pooling5"
  pooling_param {
    pool: MAX
    kernel_size: 2
    stride: 2
  }
}
layer {
  name: "Convolution6"
  type: "Convolution"
  bottom: "Pooling5"
  top: "Convolution6"
  param {
    name: "conv3_w"
    lr_mult: 1
  }
  param {
    name: "conv3_b"
    lr_mult: 2
  }
  convolution_param {
    num_output: 100
    kernel_size: 5
    stride: 1
    weight_filler {
      type: "xavier"
    }
    bias_filler {
      type: "constant"
    }
  }
}
layer {
  name: "Pooling6"
  type: "Pooling"
  bottom: "Convolution6"
  top: "Pooling6"
  pooling_param {
    pool: MAX
    kernel_size: 2
    stride: 2
  }
}
layer {
  name: "InnerProduct3"
  type: "InnerProduct"
  bottom: "Pooling6"
  top: "InnerProduct3"
  param {
    name: "ip1_w"
    lr_mult: 1
  }
  param {
    name: "ip1_b"
    lr_mult: 2
  }
  inner_product_param {
    num_output: 200
    weight_filler {
      type: "xavier"
    }
    bias_filler {
      type: "constant"
    }
  }
}
layer {
  name: "ReLU2"
  type: "ReLU"
  bottom: "InnerProduct3"
  top: "InnerProduct3"
}
layer {
  name: "InnerProduct4"
  type: "InnerProduct"
  bottom: "InnerProduct3"
  top: "InnerProduct4"
  param {
    name: "ip2_w"
    lr_mult: 1
  }
  param {
    name: "ip2_b"
    lr_mult: 2
  }
  inner_product_param {
    num_output: 100
    weight_filler {
      type: "xavier"
    }
    bias_filler {
      type: "constant"
    }
  }
}
layer {
  name: "Concat1"
  type: "Concat"
  bottom: "InnerProduct2"
  bottom: "InnerProduct4"
  top: "Concat1"
  concat_param {
    axis: 1
  }
}
layer {
  name: "InnerProduct5"
  type: "InnerProduct"
  bottom: "Concat1"
  top: "InnerProduct5"
  param {
    name: "fc1_w"
    lr_mult: 1
  }
  param {
    name: "fc1_b"
    lr_mult: 2
  }
  inner_product_param {
    num_output: 200
    weight_filler {
      type: "xavier"
    }
    bias_filler {
      type: "constant"
    }
  }
}
layer {
  name: "ReLU3"
  type: "ReLU"
  bottom: "InnerProduct5"
  top: "InnerProduct5"
}
layer {
  name: "InnerProduct6"
  type: "InnerProduct"
  bottom: "InnerProduct5"
  top: "InnerProduct6"
  param {
    name: "fc2_w"
    lr_mult: 1
  }
  param {
    name: "fc2_b"
    lr_mult: 2
  }
  inner_product_param {
    num_output: 100
    weight_filler {
      type: "xavier"
    }
    bias_filler {
      type: "constant"
    }
  }
}
layer {
  name: "ReLU4"
  type: "ReLU"
  bottom: "InnerProduct6"
  top: "InnerProduct6"
}
layer {
  name: "dt"
  type: "InnerProduct"
  bottom: "InnerProduct6"
  top: "dt"
  param {
    name: "fc3_w"
    lr_mult: 1
  }
  param {
    name: "fc3_b"
    lr_mult: 2
  }
  inner_product_param {
    num_output: 1
    weight_filler {
      type: "xavier"
    }
    bias_filler {
      type: "constant"
    }
  }
}
layer {
  name: "r2"
  type: "Reshape"
  bottom: "dt"
  top: "r2"
  reshape_param {
    shape {
      dim: 0
      dim: 1
      dim: 1
      dim: -1
    }
  }
}
layer {
  name: "padL"
  type: "Reshape"
  bottom: "label"
  top: "padL"
  reshape_param {
    shape {
      dim: 0
      dim: 1
      dim: 1
      dim: -1
    }
  }
}
layer {
  name: "pad"
  type: "Concat"
  bottom: "r2"
  bottom: "padL"
  top: "pad"
  concat_param {
    axis: 1
  }
}
layer {
  name: "accuracy"
  type: "Accuracy"
  bottom: "pad"
  bottom: "th"
  top: "accuracy"
  include {
    phase: TRAIN
  }
}
layer {
  name: "loss"
  type: "HingeLoss"
  bottom: "pad"
  bottom: "th"
  top: "loss"
}
I0812 14:13:13.069811  5858 layer_factory.hpp:77] Creating layer data
I0812 14:13:13.081660  5858 net.cpp:91] Creating Layer data
I0812 14:13:13.081707  5858 net.cpp:399] data -> data
I0812 14:13:13.081784  5858 net.cpp:399] data -> label
I0812 14:13:13.081892  5858 data_transformer.cpp:25] Loading mean file from: examples/scene/scene_mean.binaryproto
I0812 14:13:13.131549  5866 db_lmdb.cpp:35] Opened lmdb examples/scene/train11_pairs_300000_pad.lmdb
I0812 14:13:13.724872  5858 data_layer.cpp:41] output data size: 200,6,128,128
I0812 14:13:13.925276  5858 net.cpp:141] Setting up data
I0812 14:13:13.925323  5858 net.cpp:148] Top shape: 200 6 128 128 (19660800)
I0812 14:13:13.925338  5858 net.cpp:148] Top shape: 200 (200)
I0812 14:13:13.925348  5858 net.cpp:156] Memory required for data: 78644000
I0812 14:13:13.925367  5858 layer_factory.hpp:77] Creating layer label_data_1_split
I0812 14:13:13.926838  5858 net.cpp:91] Creating Layer label_data_1_split
I0812 14:13:13.926862  5858 net.cpp:425] label_data_1_split <- label
I0812 14:13:13.926878  5858 net.cpp:399] label_data_1_split -> label_data_1_split_0
I0812 14:13:13.926897  5858 net.cpp:399] label_data_1_split -> label_data_1_split_1
I0812 14:13:13.938863  5858 net.cpp:141] Setting up label_data_1_split
I0812 14:13:13.938889  5858 net.cpp:148] Top shape: 200 (200)
I0812 14:13:13.938899  5858 net.cpp:148] Top shape: 200 (200)
I0812 14:13:13.938908  5858 net.cpp:156] Memory required for data: 78645600
I0812 14:13:13.938949  5858 layer_factory.hpp:77] Creating layer th
I0812 14:13:13.938974  5858 net.cpp:91] Creating Layer th
I0812 14:13:13.938985  5858 net.cpp:425] th <- label_data_1_split_0
I0812 14:13:13.938999  5858 net.cpp:399] th -> th
I0812 14:13:13.939671  5858 net.cpp:141] Setting up th
I0812 14:13:13.939736  5858 net.cpp:148] Top shape: 200 (200)
I0812 14:13:13.939769  5858 net.cpp:156] Memory required for data: 78646400
I0812 14:13:13.939800  5858 layer_factory.hpp:77] Creating layer th_th_0_split
I0812 14:13:13.939834  5858 net.cpp:91] Creating Layer th_th_0_split
I0812 14:13:13.939875  5858 net.cpp:425] th_th_0_split <- th
I0812 14:13:13.939910  5858 net.cpp:399] th_th_0_split -> th_th_0_split_0
I0812 14:13:13.939949  5858 net.cpp:399] th_th_0_split -> th_th_0_split_1
I0812 14:13:13.940032  5858 net.cpp:141] Setting up th_th_0_split
I0812 14:13:13.940071  5858 net.cpp:148] Top shape: 200 (200)
I0812 14:13:13.940104  5858 net.cpp:148] Top shape: 200 (200)
I0812 14:13:13.940132  5858 net.cpp:156] Memory required for data: 78648000
I0812 14:13:13.940161  5858 layer_factory.hpp:77] Creating layer i1
I0812 14:13:13.940743  5858 net.cpp:91] Creating Layer i1
I0812 14:13:13.940826  5858 net.cpp:425] i1 <- data
I0812 14:13:13.940899  5858 net.cpp:399] i1 -> i1
I0812 14:13:13.940979  5858 net.cpp:399] i1 -> i2
I0812 14:13:13.941176  5858 net.cpp:141] Setting up i1
I0812 14:13:13.941257  5858 net.cpp:148] Top shape: 200 3 128 128 (9830400)
I0812 14:13:13.941324  5858 net.cpp:148] Top shape: 200 3 128 128 (9830400)
I0812 14:13:13.941382  5858 net.cpp:156] Memory required for data: 157291200
I0812 14:13:13.941440  5858 layer_factory.hpp:77] Creating layer p1
I0812 14:13:13.941517  5858 net.cpp:91] Creating Layer p1
I0812 14:13:13.941576  5858 net.cpp:425] p1 <- i1
I0812 14:13:13.941642  5858 net.cpp:399] p1 -> p1
I0812 14:13:13.941794  5858 net.cpp:141] Setting up p1
I0812 14:13:13.941870  5858 net.cpp:148] Top shape: 200 3 64 64 (2457600)
I0812 14:13:13.941928  5858 net.cpp:156] Memory required for data: 167121600
I0812 14:13:13.941987  5858 layer_factory.hpp:77] Creating layer p2
I0812 14:13:13.942051  5858 net.cpp:91] Creating Layer p2
I0812 14:13:13.942109  5858 net.cpp:425] p2 <- i2
I0812 14:13:13.942173  5858 net.cpp:399] p2 -> p2
I0812 14:13:13.942296  5858 net.cpp:141] Setting up p2
I0812 14:13:13.942386  5858 net.cpp:148] Top shape: 200 3 64 64 (2457600)
I0812 14:13:13.942445  5858 net.cpp:156] Memory required for data: 176952000
I0812 14:13:13.942503  5858 layer_factory.hpp:77] Creating layer Convolution1
I0812 14:13:13.942622  5858 net.cpp:91] Creating Layer Convolution1
I0812 14:13:13.942683  5858 net.cpp:425] Convolution1 <- p1
I0812 14:13:13.942754  5858 net.cpp:399] Convolution1 -> Convolution1
I0812 14:13:13.945010  5858 net.cpp:141] Setting up Convolution1
I0812 14:13:13.945045  5858 net.cpp:148] Top shape: 200 50 60 60 (36000000)
I0812 14:13:13.945058  5858 net.cpp:156] Memory required for data: 320952000
I0812 14:13:13.945089  5858 layer_factory.hpp:77] Creating layer Pooling1
I0812 14:13:13.945112  5858 net.cpp:91] Creating Layer Pooling1
I0812 14:13:13.945125  5858 net.cpp:425] Pooling1 <- Convolution1
I0812 14:13:13.945143  5858 net.cpp:399] Pooling1 -> Pooling1
I0812 14:13:13.945237  5858 net.cpp:141] Setting up Pooling1
I0812 14:13:13.945271  5858 net.cpp:148] Top shape: 200 50 30 30 (9000000)
I0812 14:13:13.945336  5858 net.cpp:156] Memory required for data: 356952000
I0812 14:13:13.945384  5858 layer_factory.hpp:77] Creating layer Convolution2
I0812 14:13:13.945413  5858 net.cpp:91] Creating Layer Convolution2
I0812 14:13:13.945425  5858 net.cpp:425] Convolution2 <- Pooling1
I0812 14:13:13.945446  5858 net.cpp:399] Convolution2 -> Convolution2
I0812 14:13:13.948359  5858 net.cpp:141] Setting up Convolution2
I0812 14:13:13.948392  5858 net.cpp:148] Top shape: 200 100 26 26 (13520000)
I0812 14:13:13.948405  5858 net.cpp:156] Memory required for data: 411032000
I0812 14:13:13.948429  5858 layer_factory.hpp:77] Creating layer Pooling2
I0812 14:13:13.948449  5858 net.cpp:91] Creating Layer Pooling2
I0812 14:13:13.948462  5858 net.cpp:425] Pooling2 <- Convolution2
I0812 14:13:13.948482  5858 net.cpp:399] Pooling2 -> Pooling2
I0812 14:13:13.948565  5858 net.cpp:141] Setting up Pooling2
I0812 14:13:13.948585  5858 net.cpp:148] Top shape: 200 100 13 13 (3380000)
I0812 14:13:13.948597  5858 net.cpp:156] Memory required for data: 424552000
I0812 14:13:13.948608  5858 layer_factory.hpp:77] Creating layer Convolution3
I0812 14:13:13.948632  5858 net.cpp:91] Creating Layer Convolution3
I0812 14:13:13.948645  5858 net.cpp:425] Convolution3 <- Pooling2
I0812 14:13:13.948663  5858 net.cpp:399] Convolution3 -> Convolution3
I0812 14:13:13.952671  5858 net.cpp:141] Setting up Convolution3
I0812 14:13:13.952739  5858 net.cpp:148] Top shape: 200 100 9 9 (1620000)
I0812 14:13:13.952785  5858 net.cpp:156] Memory required for data: 431032000
I0812 14:13:13.952826  5858 layer_factory.hpp:77] Creating layer Pooling3
I0812 14:13:13.952867  5858 net.cpp:91] Creating Layer Pooling3
I0812 14:13:13.952901  5858 net.cpp:425] Pooling3 <- Convolution3
I0812 14:13:13.952934  5858 net.cpp:399] Pooling3 -> Pooling3
I0812 14:13:13.953029  5858 net.cpp:141] Setting up Pooling3
I0812 14:13:13.953073  5858 net.cpp:148] Top shape: 200 100 5 5 (500000)
I0812 14:13:13.953102  5858 net.cpp:156] Memory required for data: 433032000
I0812 14:13:13.953127  5858 layer_factory.hpp:77] Creating layer InnerProduct1
I0812 14:13:13.953166  5858 net.cpp:91] Creating Layer InnerProduct1
I0812 14:13:13.953191  5858 net.cpp:425] InnerProduct1 <- Pooling3
I0812 14:13:13.953238  5858 net.cpp:399] InnerProduct1 -> InnerProduct1
I0812 14:13:13.958838  5858 net.cpp:141] Setting up InnerProduct1
I0812 14:13:13.958914  5858 net.cpp:148] Top shape: 200 200 (40000)
I0812 14:13:13.958925  5858 net.cpp:156] Memory required for data: 433192000
I0812 14:13:13.958943  5858 layer_factory.hpp:77] Creating layer ReLU1
I0812 14:13:13.958958  5858 net.cpp:91] Creating Layer ReLU1
I0812 14:13:13.958968  5858 net.cpp:425] ReLU1 <- InnerProduct1
I0812 14:13:13.958981  5858 net.cpp:386] ReLU1 -> InnerProduct1 (in-place)
I0812 14:13:13.958997  5858 net.cpp:141] Setting up ReLU1
I0812 14:13:13.959007  5858 net.cpp:148] Top shape: 200 200 (40000)
I0812 14:13:13.959015  5858 net.cpp:156] Memory required for data: 433352000
I0812 14:13:13.959023  5858 layer_factory.hpp:77] Creating layer InnerProduct2
I0812 14:13:13.959038  5858 net.cpp:91] Creating Layer InnerProduct2
I0812 14:13:13.959046  5858 net.cpp:425] InnerProduct2 <- InnerProduct1
I0812 14:13:13.959060  5858 net.cpp:399] InnerProduct2 -> InnerProduct2
I0812 14:13:13.960177  5858 net.cpp:141] Setting up InnerProduct2
I0812 14:13:13.960199  5858 net.cpp:148] Top shape: 200 100 (20000)
I0812 14:13:13.960207  5858 net.cpp:156] Memory required for data: 433432000
I0812 14:13:13.960230  5858 layer_factory.hpp:77] Creating layer Convolution4
I0812 14:13:13.960256  5858 net.cpp:91] Creating Layer Convolution4
I0812 14:13:13.960268  5858 net.cpp:425] Convolution4 <- p2
I0812 14:13:13.960283  5858 net.cpp:399] Convolution4 -> Convolution4
I0812 14:13:13.960646  5858 net.cpp:141] Setting up Convolution4
I0812 14:13:13.960711  5858 net.cpp:148] Top shape: 200 50 60 60 (36000000)
I0812 14:13:13.960741  5858 net.cpp:156] Memory required for data: 577432000
I0812 14:13:13.960770  5858 net.cpp:484] Sharing parameters 'conv1_w' owned by layer 'Convolution1', param index 0
I0812 14:13:13.960783  5858 net.cpp:484] Sharing parameters 'conv1_b' owned by layer 'Convolution1', param index 1
I0812 14:13:13.960791  5858 layer_factory.hpp:77] Creating layer Pooling4
I0812 14:13:13.960804  5858 net.cpp:91] Creating Layer Pooling4
I0812 14:13:13.960813  5858 net.cpp:425] Pooling4 <- Convolution4
I0812 14:13:13.960825  5858 net.cpp:399] Pooling4 -> Pooling4
I0812 14:13:13.960881  5858 net.cpp:141] Setting up Pooling4
I0812 14:13:13.960894  5858 net.cpp:148] Top shape: 200 50 30 30 (9000000)
I0812 14:13:13.960902  5858 net.cpp:156] Memory required for data: 613432000
I0812 14:13:13.960911  5858 layer_factory.hpp:77] Creating layer Convolution5
I0812 14:13:13.960927  5858 net.cpp:91] Creating Layer Convolution5
I0812 14:13:13.960935  5858 net.cpp:425] Convolution5 <- Pooling4
I0812 14:13:13.960948  5858 net.cpp:399] Convolution5 -> Convolution5
I0812 14:13:13.962934  5858 net.cpp:141] Setting up Convolution5
I0812 14:13:13.962992  5858 net.cpp:148] Top shape: 200 100 26 26 (13520000)
I0812 14:13:13.963003  5858 net.cpp:156] Memory required for data: 667512000
I0812 14:13:13.963013  5858 net.cpp:484] Sharing parameters 'conv2_w' owned by layer 'Convolution2', param index 0
I0812 14:13:13.963023  5858 net.cpp:484] Sharing parameters 'conv2_b' owned by layer 'Convolution2', param index 1
I0812 14:13:13.963032  5858 layer_factory.hpp:77] Creating layer Pooling5
I0812 14:13:13.963045  5858 net.cpp:91] Creating Layer Pooling5
I0812 14:13:13.963053  5858 net.cpp:425] Pooling5 <- Convolution5
I0812 14:13:13.963066  5858 net.cpp:399] Pooling5 -> Pooling5
I0812 14:13:13.963122  5858 net.cpp:141] Setting up Pooling5
I0812 14:13:13.963136  5858 net.cpp:148] Top shape: 200 100 13 13 (3380000)
I0812 14:13:13.963145  5858 net.cpp:156] Memory required for data: 681032000
I0812 14:13:13.963152  5858 layer_factory.hpp:77] Creating layer Convolution6
I0812 14:13:13.963168  5858 net.cpp:91] Creating Layer Convolution6
I0812 14:13:13.963176  5858 net.cpp:425] Convolution6 <- Pooling5
I0812 14:13:13.963189  5858 net.cpp:399] Convolution6 -> Convolution6
I0812 14:13:13.966122  5858 net.cpp:141] Setting up Convolution6
I0812 14:13:13.966164  5858 net.cpp:148] Top shape: 200 100 9 9 (1620000)
I0812 14:13:13.966204  5858 net.cpp:156] Memory required for data: 687512000
I0812 14:13:13.966250  5858 net.cpp:484] Sharing parameters 'conv3_w' owned by layer 'Convolution3', param index 0
I0812 14:13:13.966287  5858 net.cpp:484] Sharing parameters 'conv3_b' owned by layer 'Convolution3', param index 1
I0812 14:13:13.966315  5858 layer_factory.hpp:77] Creating layer Pooling6
I0812 14:13:13.966331  5858 net.cpp:91] Creating Layer Pooling6
I0812 14:13:13.966339  5858 net.cpp:425] Pooling6 <- Convolution6
I0812 14:13:13.966353  5858 net.cpp:399] Pooling6 -> Pooling6
I0812 14:13:13.966413  5858 net.cpp:141] Setting up Pooling6
I0812 14:13:13.966426  5858 net.cpp:148] Top shape: 200 100 5 5 (500000)
I0812 14:13:13.966434  5858 net.cpp:156] Memory required for data: 689512000
I0812 14:13:13.966442  5858 layer_factory.hpp:77] Creating layer InnerProduct3
I0812 14:13:13.966456  5858 net.cpp:91] Creating Layer InnerProduct3
I0812 14:13:13.966464  5858 net.cpp:425] InnerProduct3 <- Pooling6
I0812 14:13:13.966478  5858 net.cpp:399] InnerProduct3 -> InnerProduct3
I0812 14:13:13.971700  5858 net.cpp:141] Setting up InnerProduct3
I0812 14:13:13.971724  5858 net.cpp:148] Top shape: 200 200 (40000)
I0812 14:13:13.971734  5858 net.cpp:156] Memory required for data: 689672000
I0812 14:13:13.971751  5858 net.cpp:484] Sharing parameters 'ip1_w' owned by layer 'InnerProduct1', param index 0
I0812 14:13:13.971762  5858 net.cpp:484] Sharing parameters 'ip1_b' owned by layer 'InnerProduct1', param index 1
I0812 14:13:13.971772  5858 layer_factory.hpp:77] Creating layer ReLU2
I0812 14:13:13.971789  5858 net.cpp:91] Creating Layer ReLU2
I0812 14:13:13.971798  5858 net.cpp:425] ReLU2 <- InnerProduct3
I0812 14:13:13.971812  5858 net.cpp:386] ReLU2 -> InnerProduct3 (in-place)
I0812 14:13:13.971827  5858 net.cpp:141] Setting up ReLU2
I0812 14:13:13.971837  5858 net.cpp:148] Top shape: 200 200 (40000)
I0812 14:13:13.971844  5858 net.cpp:156] Memory required for data: 689832000
I0812 14:13:13.971853  5858 layer_factory.hpp:77] Creating layer InnerProduct4
I0812 14:13:13.971865  5858 net.cpp:91] Creating Layer InnerProduct4
I0812 14:13:13.971874  5858 net.cpp:425] InnerProduct4 <- InnerProduct3
I0812 14:13:13.971886  5858 net.cpp:399] InnerProduct4 -> InnerProduct4
I0812 14:13:13.972188  5858 net.cpp:141] Setting up InnerProduct4
I0812 14:13:13.972201  5858 net.cpp:148] Top shape: 200 100 (20000)
I0812 14:13:13.972209  5858 net.cpp:156] Memory required for data: 689912000
I0812 14:13:13.972218  5858 net.cpp:484] Sharing parameters 'ip2_w' owned by layer 'InnerProduct2', param index 0
I0812 14:13:13.972242  5858 net.cpp:484] Sharing parameters 'ip2_b' owned by layer 'InnerProduct2', param index 1
I0812 14:13:13.972251  5858 layer_factory.hpp:77] Creating layer Concat1
I0812 14:13:13.978477  5858 net.cpp:91] Creating Layer Concat1
I0812 14:13:13.978507  5858 net.cpp:425] Concat1 <- InnerProduct2
I0812 14:13:13.978520  5858 net.cpp:425] Concat1 <- InnerProduct4
I0812 14:13:13.978561  5858 net.cpp:399] Concat1 -> Concat1
I0812 14:13:13.978642  5858 net.cpp:141] Setting up Concat1
I0812 14:13:13.978659  5858 net.cpp:148] Top shape: 200 200 (40000)
I0812 14:13:13.978667  5858 net.cpp:156] Memory required for data: 690072000
I0812 14:13:13.978677  5858 layer_factory.hpp:77] Creating layer InnerProduct5
I0812 14:13:13.978691  5858 net.cpp:91] Creating Layer InnerProduct5
I0812 14:13:13.978699  5858 net.cpp:425] InnerProduct5 <- Concat1
I0812 14:13:13.978716  5858 net.cpp:399] InnerProduct5 -> InnerProduct5
I0812 14:13:13.979184  5858 net.cpp:141] Setting up InnerProduct5
I0812 14:13:13.979199  5858 net.cpp:148] Top shape: 200 200 (40000)
I0812 14:13:13.979207  5858 net.cpp:156] Memory required for data: 690232000
I0812 14:13:13.979219  5858 layer_factory.hpp:77] Creating layer ReLU3
I0812 14:13:13.979231  5858 net.cpp:91] Creating Layer ReLU3
I0812 14:13:13.979239  5858 net.cpp:425] ReLU3 <- InnerProduct5
I0812 14:13:13.979254  5858 net.cpp:386] ReLU3 -> InnerProduct5 (in-place)
I0812 14:13:13.979265  5858 net.cpp:141] Setting up ReLU3
I0812 14:13:13.979297  5858 net.cpp:148] Top shape: 200 200 (40000)
I0812 14:13:13.979307  5858 net.cpp:156] Memory required for data: 690392000
I0812 14:13:13.979316  5858 layer_factory.hpp:77] Creating layer InnerProduct6
I0812 14:13:13.979329  5858 net.cpp:91] Creating Layer InnerProduct6
I0812 14:13:13.979338  5858 net.cpp:425] InnerProduct6 <- InnerProduct5
I0812 14:13:13.979357  5858 net.cpp:399] InnerProduct6 -> InnerProduct6
I0812 14:13:13.979688  5858 net.cpp:141] Setting up InnerProduct6
I0812 14:13:13.979704  5858 net.cpp:148] Top shape: 200 100 (20000)
I0812 14:13:13.979713  5858 net.cpp:156] Memory required for data: 690472000
I0812 14:13:13.979727  5858 layer_factory.hpp:77] Creating layer ReLU4
I0812 14:13:13.979738  5858 net.cpp:91] Creating Layer ReLU4
I0812 14:13:13.979748  5858 net.cpp:425] ReLU4 <- InnerProduct6
I0812 14:13:13.979759  5858 net.cpp:386] ReLU4 -> InnerProduct6 (in-place)
I0812 14:13:13.979773  5858 net.cpp:141] Setting up ReLU4
I0812 14:13:13.979784  5858 net.cpp:148] Top shape: 200 100 (20000)
I0812 14:13:13.979816  5858 net.cpp:156] Memory required for data: 690552000
I0812 14:13:13.979825  5858 layer_factory.hpp:77] Creating layer dt
I0812 14:13:13.979840  5858 net.cpp:91] Creating Layer dt
I0812 14:13:13.979848  5858 net.cpp:425] dt <- InnerProduct6
I0812 14:13:13.979862  5858 net.cpp:399] dt -> dt
I0812 14:13:13.980016  5858 net.cpp:141] Setting up dt
I0812 14:13:13.980031  5858 net.cpp:148] Top shape: 200 1 (200)
I0812 14:13:13.980041  5858 net.cpp:156] Memory required for data: 690552800
I0812 14:13:13.980053  5858 layer_factory.hpp:77] Creating layer r2
I0812 14:13:13.980073  5858 net.cpp:91] Creating Layer r2
I0812 14:13:13.980082  5858 net.cpp:425] r2 <- dt
I0812 14:13:13.980095  5858 net.cpp:399] r2 -> r2
I0812 14:13:13.980140  5858 net.cpp:141] Setting up r2
I0812 14:13:13.980155  5858 net.cpp:148] Top shape: 200 1 1 1 (200)
I0812 14:13:13.980165  5858 net.cpp:156] Memory required for data: 690553600
I0812 14:13:13.980172  5858 layer_factory.hpp:77] Creating layer padL
I0812 14:13:13.980198  5858 net.cpp:91] Creating Layer padL
I0812 14:13:13.980211  5858 net.cpp:425] padL <- label_data_1_split_1
I0812 14:13:13.980231  5858 net.cpp:399] padL -> padL
I0812 14:13:13.980276  5858 net.cpp:141] Setting up padL
I0812 14:13:13.980293  5858 net.cpp:148] Top shape: 200 1 1 1 (200)
I0812 14:13:13.980301  5858 net.cpp:156] Memory required for data: 690554400
I0812 14:13:13.980309  5858 layer_factory.hpp:77] Creating layer pad
I0812 14:13:13.980325  5858 net.cpp:91] Creating Layer pad
I0812 14:13:13.980334  5858 net.cpp:425] pad <- r2
I0812 14:13:13.980345  5858 net.cpp:425] pad <- padL
I0812 14:13:13.980357  5858 net.cpp:399] pad -> pad
I0812 14:13:13.980396  5858 net.cpp:141] Setting up pad
I0812 14:13:13.980409  5858 net.cpp:148] Top shape: 200 2 1 1 (400)
I0812 14:13:13.980418  5858 net.cpp:156] Memory required for data: 690556000
I0812 14:13:13.980427  5858 layer_factory.hpp:77] Creating layer pad_pad_0_split
I0812 14:13:13.980438  5858 net.cpp:91] Creating Layer pad_pad_0_split
I0812 14:13:13.980446  5858 net.cpp:425] pad_pad_0_split <- pad
I0812 14:13:13.980463  5858 net.cpp:399] pad_pad_0_split -> pad_pad_0_split_0
I0812 14:13:13.980478  5858 net.cpp:399] pad_pad_0_split -> pad_pad_0_split_1
I0812 14:13:13.980533  5858 net.cpp:141] Setting up pad_pad_0_split
I0812 14:13:13.980551  5858 net.cpp:148] Top shape: 200 2 1 1 (400)
I0812 14:13:13.980561  5858 net.cpp:148] Top shape: 200 2 1 1 (400)
I0812 14:13:13.980569  5858 net.cpp:156] Memory required for data: 690559200
I0812 14:13:13.980578  5858 layer_factory.hpp:77] Creating layer accuracy
I0812 14:13:13.980590  5858 net.cpp:91] Creating Layer accuracy
I0812 14:13:13.980599  5858 net.cpp:425] accuracy <- pad_pad_0_split_0
I0812 14:13:13.980610  5858 net.cpp:425] accuracy <- th_th_0_split_0
I0812 14:13:13.980626  5858 net.cpp:399] accuracy -> accuracy
…
I0812 14:13:13.984520  5858 solver.cpp:181] Creating test net (#0) specified by test_net file: examples/scene/matchNetTestHingeMini.prototxt
I0812 14:13:13.985026  5858 net.cpp:49] Initializing net from parameters: 
state {
  phase: TEST
}
layer {
  name: "data"
  type: "Data"
  top: "data"
  top: "label"
  include {
    phase: TEST
  }
  transform_param {
    scale: 0.0039215689
    mirror: true
    mean_file: "examples/scene/scene_mean.binaryproto"
  }
  data_param {
    source: "examples/scene/test_pairs_1000_pad.lmdb"
    batch_size: 100
    backend: LMDB
  }
}
layer {
  name: "th"
  type: "Threshold"
  bottom: "label"
  top: "th"
  threshold_param {
    threshold: 0
  }
}
layer {
  name: "i1"
  type: "Slice"
  bottom: "data"
  top: "i1"
  top: "i2"
  slice_param {
    slice_dim: 1
    slice_point: 3
  }
}
layer {
  name: "p1"
  type: "Pooling"
  bottom: "i1"
  top: "p1"
  pooling_param {
    pool: AVE
    kernel_size: 2
    stride: 2
  }
}
layer {
  name: "p2"
  type: "Pooling"
  bottom: "i2"
  top: "p2"
  pooling_param {
    pool: AVE
    kernel_size: 2
    stride: 2
  }
}
layer {
  name: "Convolution1"
  type: "Convolution"
  bottom: "p1"
  top: "Convolution1"
  param {
    name: "conv1_w"
    lr_mult: 1
  }
  param {
    name: "conv1_b"
    lr_mult: 2
  }
  convolution_param {
    num_output: 50
    kernel_size: 5
    stride: 1
    weight_filler {
      type: "xavier"
    }
    bias_filler {
      type: "constant"
    }
  }
}
layer {
  name: "Pooling1"
  type: "Pooling"
  bottom: "Convolution1"
  top: "Pooling1"
  pooling_param {
    pool: MAX
    kernel_size: 2
    stride: 2
  }
}
layer {
  name: "Convolution2"
  type: "Convolution"
  bottom: "Pooling1"
  top: "Convolution2"
  param {
    name: "conv2_w"
    lr_mult: 1
  }
  param {
    name: "conv2_b"
    lr_mult: 2
  }
  convolution_param {
    num_output: 100
    kernel_size: 5
    stride: 1
    weight_filler {
      type: "xavier"
    }
    bias_filler {
      type: "constant"
    }
  }
}
layer {
  name: "Pooling2"
  type: "Pooling"
  bottom: "Convolution2"
  top: "Pooling2"
  pooling_param {
    pool: MAX
    kernel_size: 2
    stride: 2
  }
}
layer {
  name: "Convolution3"
  type: "Convolution"
  bottom: "Pooling2"
  top: "Convolution3"
  param {
    name: "conv3_w"
    lr_mult: 1
  }
  param {
    name: "conv3_b"
    lr_mult: 2
  }
  convolution_param {
    num_output: 100
    kernel_size: 5
    stride: 1
    weight_filler {
      type: "xavier"
    }
    bias_filler {
      type: "constant"
    }
  }
}
layer {
  name: "Pooling3"
  type: "Pooling"
  bottom: "Convolution3"
  top: "Pooling3"
  pooling_param {
    pool: MAX
    kernel_size: 2
    stride: 2
  }
}
layer {
  name: "InnerProduct1"
  type: "InnerProduct"
  bottom: "Pooling3"
  top: "InnerProduct1"
  param {
    name: "ip1_w"
    lr_mult: 1
  }
  param {
    name: "ip1_b"
    lr_mult: 2
  }
  inner_product_param {
    num_output: 200
    weight_filler {
      type: "xavier"
    }
    bias_filler {
      type: "constant"
    }
  }
}
layer {
  name: "ReLU1"
  type: "ReLU"
  bottom: "InnerProduct1"
  top: "InnerProduct1"
}
layer {
  name: "InnerProduct2"
  type: "InnerProduct"
  bottom: "InnerProduct1"
  top: "InnerProduct2"
  param {
    name: "ip2_w"
    lr_mult: 1
  }
  param {
    name: "ip2_b"
    lr_mult: 2
  }
  inner_product_param {
    num_output: 100
    weight_filler {
      type: "xavier"
    }
    bias_filler {
      type: "constant"
    }
  }
}
layer {
  name: "Convolution4"
  type: "Convolution"
  bottom: "p2"
  top: "Convolution4"
  param {
    name: "conv1_w"
    lr_mult: 1
  }
  param {
    name: "conv1_b"
    lr_mult: 2
  }
  convolution_param {
    num_output: 50
    kernel_size: 5
    stride: 1
    weight_filler {
      type: "xavier"
    }
    bias_filler {
      type: "constant"
    }
  }
}
layer {
  name: "Pooling4"
  type: "Pooling"
  bottom: "Convolution4"
  top: "Pooling4"
  pooling_param {
    pool: MAX
    kernel_size: 2
    stride: 2
  }
}
layer {
  name: "Convolution5"
  type: "Convolution"
  bottom: "Pooling4"
  top: "Convolution5"
  param {
    name: "conv2_w"
    lr_mult: 1
  }
  param {
    name: "conv2_b"
    lr_mult: 2
  }
  convolution_param {
    num_output: 100
    kernel_size: 5
    stride: 1
    weight_filler {
      type: "xavier"
    }
    bias_filler {
      type: "constant"
    }
  }
}
layer {
  name: "Pooling5"
  type: "Pooling"
  bottom: "Convolution5"
  top: "Pooling5"
  pooling_param {
    pool: MAX
    kernel_size: 2
    stride: 2
  }
}
layer {
  name: "Convolution6"
  type: "Convolution"
  bottom: "Pooling5"
  top: "Convolution6"
  param {
    name: "conv3_w"
    lr_mult: 1
  }
  param {
    name: "conv3_b"
    lr_mult: 2
  }
  convolution_param {
    num_output: 100
    kernel_size: 5
    stride: 1
    weight_filler {
      type: "xavier"
    }
    bias_filler {
      type: "constant"
    }
  }
}
layer {
  name: "Pooling6"
  type: "Pooling"
  bottom: "Convolution6"
  top: "Pooling6"
  pooling_param {
    pool: MAX
    kernel_size: 2
    stride: 2
  }
}
layer {
  name: "InnerProduct3"
  type: "InnerProduct"
  bottom: "Pooling6"
  top: "InnerProduct3"
  param {
    name: "ip1_w"
    lr_mult: 1
  }
  param {
    name: "ip1_b"
    lr_mult: 2
  }
  inner_product_param {
    num_output: 200
    weight_filler {
      type: "xavier"
    }
    bias_filler {
      type: "constant"
    }
  }
}
layer {
  name: "ReLU2"
  type: "ReLU"
  bottom: "InnerProduct3"
  top: "InnerProduct3"
}
layer {
  name: "InnerProduct4"
  type: "InnerProduct"
  bottom: "InnerProduct3"
  top: "InnerProduct4"
  param {
    name: "ip2_w"
    lr_mult: 1
  }
  param {
    name: "ip2_b"
    lr_mult: 2
  }
  inner_product_param {
    num_output: 100
    weight_filler {
      type: "xavier"
    }
    bias_filler {
      type: "constant"
    }
  }
}
layer {
  name: "Concat1"
  type: "Concat"
  bottom: "InnerProduct2"
  bottom: "InnerProduct4"
  top: "Concat1"
  concat_param {
    axis: 1
  }
}
layer {
  name: "InnerProduct5"
  type: "InnerProduct"
  bottom: "Concat1"
  top: "InnerProduct5"
  param {
    name: "fc1_w"
    lr_mult: 1
  }
  param {
    name: "fc1_b"
    lr_mult: 2
  }
  inner_product_param {
    num_output: 200
    weight_filler {
      type: "xavier"
    }
    bias_filler {
      type: "constant"
    }
  }
}
layer {
  name: "ReLU3"
  type: "ReLU"
  bottom: "InnerProduct5"
  top: "InnerProduct5"
}
layer {
  name: "InnerProduct6"
  type: "InnerProduct"
  bottom: "InnerProduct5"
  top: "InnerProduct6"
  param {
    name: "fc2_w"
    lr_mult: 1
  }
  param {
    name: "fc2_b"
    lr_mult: 2
  }
  inner_product_param {
    num_output: 100
    weight_filler {
      type: "xavier"
    }
    bias_filler {
      type: "constant"
    }
  }
}
layer {
  name: "ReLU4"
  type: "ReLU"
  bottom: "InnerProduct6"
  top: "InnerProduct6"
}
layer {
  name: "dt"
  type: "InnerProduct"
  bottom: "InnerProduct6"
  top: "dt"
  param {
    name: "fc3_w"
    lr_mult: 1
  }
  param {
    name: "fc3_b"
    lr_mult: 2
  }
  inner_product_param {
    num_output: 1
    weight_filler {
      type: "xavier"
    }
    bias_filler {
      type: "constant"
    }
  }
}
layer {
  name: "r2"
  type: "Reshape"
  bottom: "dt"
  top: "r2"
  reshape_param {
    shape {
      dim: 0
      dim: 1
      dim: 1
      dim: -1
    }
  }
}
layer {
  name: "padL"
  type: "Reshape"
  bottom: "label"
  top: "padL"
  reshape_param {
    shape {
      dim: 0
      dim: 1
      dim: 1
      dim: -1
    }
  }
}
layer {
  name: "pad"
  type: "Concat"
  bottom: "r2"
  bottom: "padL"
  top: "pad"
  concat_param {
    axis: 1
  }
}
layer {
  name: "accuracy"
  type: "Accuracy"
  bottom: "pad"
  bottom: "th"
  top: "accuracy"
  include {
    phase: TEST
  }
}
layer {
  name: "loss"
  type: "HingeLoss"
  bottom: "pad"
  bottom: "th"
  top: "loss"
}
I0812 14:13:13.985357  5858 layer_factory.hpp:77] Creating layer data
I0812 14:13:13.985574  5858 net.cpp:91] Creating Layer data
I0812 14:13:13.985587  5858 net.cpp:399] data -> data
I0812 14:13:13.985608  5858 net.cpp:399] data -> label
I0812 14:13:13.985625  5858 data_transformer.cpp:25] Loading mean file from: examples/scene/scene_mean.binaryproto
I0812 14:13:14.017979  5868 db_lmdb.cpp:35] Opened lmdb examples/scene/test_pairs_1000_pad.lmdb
I0812 14:13:14.018426  5858 data_layer.cpp:41] output data size: 100,6,128,128
I0812 14:13:14.118639  5867 blocking_queue.cpp:50] Waiting for data
I0812 14:13:14.135180  5858 net.cpp:141] Setting up data
I0812 14:13:14.135217  5858 net.cpp:148] Top shape: 100 6 128 128 (9830400)
I0812 14:13:14.135229  5858 net.cpp:148] Top shape: 100 (100)
I0812 14:13:14.135237  5858 net.cpp:156] Memory required for data: 39322000
I0812 14:13:14.135249  5858 layer_factory.hpp:77] Creating layer label_data_1_split
I0812 14:13:14.135269  5858 net.cpp:91] Creating Layer label_data_1_split
I0812 14:13:14.135285  5858 net.cpp:425] label_data_1_split <- label
I0812 14:13:14.135298  5858 net.cpp:399] label_data_1_split -> label_data_1_split_0
I0812 14:13:14.135316  5858 net.cpp:399] label_data_1_split -> label_data_1_split_1
I0812 14:13:14.135393  5858 net.cpp:141] Setting up label_data_1_split
I0812 14:13:14.135406  5858 net.cpp:148] Top shape: 100 (100)
I0812 14:13:14.135416  5858 net.cpp:148] Top shape: 100 (100)
I0812 14:13:14.135423  5858 net.cpp:156] Memory required for data: 39322800
I0812 14:13:14.135432  5858 layer_factory.hpp:77] Creating layer th
I0812 14:13:14.135444  5858 net.cpp:91] Creating Layer th
I0812 14:13:14.135452  5858 net.cpp:425] th <- label_data_1_split_0
I0812 14:13:14.135463  5858 net.cpp:399] th -> th
I0812 14:13:14.135541  5858 net.cpp:141] Setting up th
I0812 14:13:14.135560  5858 net.cpp:148] Top shape: 100 (100)
I0812 14:13:14.135567  5858 net.cpp:156] Memory required for data: 39323200
I0812 14:13:14.135576  5858 layer_factory.hpp:77] Creating layer th_th_0_split
I0812 14:13:14.135584  5858 net.cpp:91] Creating Layer th_th_0_split
I0812 14:13:14.135592  5858 net.cpp:425] th_th_0_split <- th
I0812 14:13:14.135602  5858 net.cpp:399] th_th_0_split -> th_th_0_split_0
I0812 14:13:14.135615  5858 net.cpp:399] th_th_0_split -> th_th_0_split_1
I0812 14:13:14.135684  5858 net.cpp:141] Setting up th_th_0_split
I0812 14:13:14.135697  5858 net.cpp:148] Top shape: 100 (100)
I0812 14:13:14.135707  5858 net.cpp:148] Top shape: 100 (100)
I0812 14:13:14.135715  5858 net.cpp:156] Memory required for data: 39324000
I0812 14:13:14.135722  5858 layer_factory.hpp:77] Creating layer i1
I0812 14:13:14.135736  5858 net.cpp:91] Creating Layer i1
I0812 14:13:14.135745  5858 net.cpp:425] i1 <- data
I0812 14:13:14.135756  5858 net.cpp:399] i1 -> i1
I0812 14:13:14.135769  5858 net.cpp:399] i1 -> i2
I0812 14:13:14.135831  5858 net.cpp:141] Setting up i1
I0812 14:13:14.135845  5858 net.cpp:148] Top shape: 100 3 128 128 (4915200)
I0812 14:13:14.135855  5858 net.cpp:148] Top shape: 100 3 128 128 (4915200)
I0812 14:13:14.135864  5858 net.cpp:156] Memory required for data: 78645600
I0812 14:13:14.135870  5858 layer_factory.hpp:77] Creating layer p1
I0812 14:13:14.135884  5858 net.cpp:91] Creating Layer p1
I0812 14:13:14.135891  5858 net.cpp:425] p1 <- i1
I0812 14:13:14.135903  5858 net.cpp:399] p1 -> p1
I0812 14:13:14.135941  5858 net.cpp:141] Setting up p1
I0812 14:13:14.135953  5858 net.cpp:148] Top shape: 100 3 64 64 (1228800)
I0812 14:13:14.135960  5858 net.cpp:156] Memory required for data: 83560800
I0812 14:13:14.135968  5858 layer_factory.hpp:77] Creating layer p2
I0812 14:13:14.135979  5858 net.cpp:91] Creating Layer p2
I0812 14:13:14.135987  5858 net.cpp:425] p2 <- i2
I0812 14:13:14.135998  5858 net.cpp:399] p2 -> p2
I0812 14:13:14.136034  5858 net.cpp:141] Setting up p2
I0812 14:13:14.136045  5858 net.cpp:148] Top shape: 100 3 64 64 (1228800)
I0812 14:13:14.136052  5858 net.cpp:156] Memory required for data: 88476000
I0812 14:13:14.136060  5858 layer_factory.hpp:77] Creating layer Convolution1
I0812 14:13:14.136080  5858 net.cpp:91] Creating Layer Convolution1
I0812 14:13:14.136086  5858 net.cpp:425] Convolution1 <- p1
I0812 14:13:14.136099  5858 net.cpp:399] Convolution1 -> Convolution1
I0812 14:13:14.136698  5858 net.cpp:141] Setting up Convolution1
I0812 14:13:14.136713  5858 net.cpp:148] Top shape: 100 50 60 60 (18000000)
I0812 14:13:14.136721  5858 net.cpp:156] Memory required for data: 160476000
I0812 14:13:14.136739  5858 layer_factory.hpp:77] Creating layer Pooling1
I0812 14:13:14.136754  5858 net.cpp:91] Creating Layer Pooling1
I0812 14:13:14.136761  5858 net.cpp:425] Pooling1 <- Convolution1
I0812 14:13:14.136772  5858 net.cpp:399] Pooling1 -> Pooling1
I0812 14:13:14.136828  5858 net.cpp:141] Setting up Pooling1
I0812 14:13:14.136840  5858 net.cpp:148] Top shape: 100 50 30 30 (4500000)
I0812 14:13:14.136848  5858 net.cpp:156] Memory required for data: 178476000
I0812 14:13:14.136855  5858 layer_factory.hpp:77] Creating layer Convolution2
I0812 14:13:14.136871  5858 net.cpp:91] Creating Layer Convolution2
I0812 14:13:14.136878  5858 net.cpp:425] Convolution2 <- Pooling1
I0812 14:13:14.136893  5858 net.cpp:399] Convolution2 -> Convolution2
I0812 14:13:14.143755  5858 net.cpp:141] Setting up Convolution2
I0812 14:13:14.143813  5858 net.cpp:148] Top shape: 100 100 26 26 (6760000)
I0812 14:13:14.143839  5858 net.cpp:156] Memory required for data: 205516000
I0812 14:13:14.143874  5858 layer_factory.hpp:77] Creating layer Pooling2
I0812 14:13:14.143894  5858 net.cpp:91] Creating Layer Pooling2
I0812 14:13:14.143904  5858 net.cpp:425] Pooling2 <- Convolution2
I0812 14:13:14.143916  5858 net.cpp:399] Pooling2 -> Pooling2
I0812 14:13:14.143975  5858 net.cpp:141] Setting up Pooling2
I0812 14:13:14.143990  5858 net.cpp:148] Top shape: 100 100 13 13 (1690000)
I0812 14:13:14.144016  5858 net.cpp:156] Memory required for data: 212276000
I0812 14:13:14.144023  5858 layer_factory.hpp:77] Creating layer Convolution3
I0812 14:13:14.144040  5858 net.cpp:91] Creating Layer Convolution3
I0812 14:13:14.144048  5858 net.cpp:425] Convolution3 <- Pooling2
I0812 14:13:14.144062  5858 net.cpp:399] Convolution3 -> Convolution3
I0812 14:13:14.147214  5858 net.cpp:141] Setting up Convolution3
I0812 14:13:14.147240  5858 net.cpp:148] Top shape: 100 100 9 9 (810000)
I0812 14:13:14.147248  5858 net.cpp:156] Memory required for data: 215516000
I0812 14:13:14.147326  5858 layer_factory.hpp:77] Creating layer Pooling3
I0812 14:13:14.147351  5858 net.cpp:91] Creating Layer Pooling3
I0812 14:13:14.147363  5858 net.cpp:425] Pooling3 <- Convolution3
I0812 14:13:14.147382  5858 net.cpp:399] Pooling3 -> Pooling3
I0812 14:13:14.147472  5858 net.cpp:141] Setting up Pooling3
I0812 14:13:14.147493  5858 net.cpp:148] Top shape: 100 100 5 5 (250000)
I0812 14:13:14.147505  5858 net.cpp:156] Memory required for data: 216516000
I0812 14:13:14.147516  5858 layer_factory.hpp:77] Creating layer InnerProduct1
I0812 14:13:14.147536  5858 net.cpp:91] Creating Layer InnerProduct1
I0812 14:13:14.147547  5858 net.cpp:425] InnerProduct1 <- Pooling3
I0812 14:13:14.147564  5858 net.cpp:399] InnerProduct1 -> InnerProduct1
I0812 14:13:14.155612  5858 net.cpp:141] Setting up InnerProduct1
I0812 14:13:14.155648  5858 net.cpp:148] Top shape: 100 200 (20000)
I0812 14:13:14.155656  5858 net.cpp:156] Memory required for data: 216596000
I0812 14:13:14.155676  5858 layer_factory.hpp:77] Creating layer ReLU1
I0812 14:13:14.155692  5858 net.cpp:91] Creating Layer ReLU1
I0812 14:13:14.155701  5858 net.cpp:425] ReLU1 <- InnerProduct1
I0812 14:13:14.155714  5858 net.cpp:386] ReLU1 -> InnerProduct1 (in-place)
I0812 14:13:14.155730  5858 net.cpp:141] Setting up ReLU1
I0812 14:13:14.155740  5858 net.cpp:148] Top shape: 100 200 (20000)
I0812 14:13:14.155746  5858 net.cpp:156] Memory required for data: 216676000
I0812 14:13:14.155755  5858 layer_factory.hpp:77] Creating layer InnerProduct2
I0812 14:13:14.155768  5858 net.cpp:91] Creating Layer InnerProduct2
I0812 14:13:14.155776  5858 net.cpp:425] InnerProduct2 <- InnerProduct1
I0812 14:13:14.155788  5858 net.cpp:399] InnerProduct2 -> InnerProduct2
I0812 14:13:14.156117  5858 net.cpp:141] Setting up InnerProduct2
I0812 14:13:14.156131  5858 net.cpp:148] Top shape: 100 100 (10000)
I0812 14:13:14.156138  5858 net.cpp:156] Memory required for data: 216716000
I0812 14:13:14.156155  5858 layer_factory.hpp:77] Creating layer Convolution4
I0812 14:13:14.156179  5858 net.cpp:91] Creating Layer Convolution4
I0812 14:13:14.156188  5858 net.cpp:425] Convolution4 <- p2
I0812 14:13:14.156203  5858 net.cpp:399] Convolution4 -> Convolution4
I0812 14:13:14.156659  5858 net.cpp:141] Setting up Convolution4
I0812 14:13:14.156675  5858 net.cpp:148] Top shape: 100 50 60 60 (18000000)
I0812 14:13:14.156683  5858 net.cpp:156] Memory required for data: 288716000
I0812 14:13:14.156692  5858 net.cpp:484] Sharing parameters 'conv1_w' owned by layer 'Convolution1', param index 0
I0812 14:13:14.156702  5858 net.cpp:484] Sharing parameters 'conv1_b' owned by layer 'Convolution1', param index 1
I0812 14:13:14.156710  5858 layer_factory.hpp:77] Creating layer Pooling4
I0812 14:13:14.156723  5858 net.cpp:91] Creating Layer Pooling4
I0812 14:13:14.156730  5858 net.cpp:425] Pooling4 <- Convolution4
I0812 14:13:14.156743  5858 net.cpp:399] Pooling4 -> Pooling4
I0812 14:13:14.156800  5858 net.cpp:141] Setting up Pooling4
I0812 14:13:14.156813  5858 net.cpp:148] Top shape: 100 50 30 30 (4500000)
I0812 14:13:14.156821  5858 net.cpp:156] Memory required for data: 306716000
I0812 14:13:14.156828  5858 layer_factory.hpp:77] Creating layer Convolution5
I0812 14:13:14.156844  5858 net.cpp:91] Creating Layer Convolution5
I0812 14:13:14.156852  5858 net.cpp:425] Convolution5 <- Pooling4
I0812 14:13:14.156865  5858 net.cpp:399] Convolution5 -> Convolution5
I0812 14:13:14.162853  5858 net.cpp:141] Setting up Convolution5
I0812 14:13:14.162935  5858 net.cpp:148] Top shape: 100 100 26 26 (6760000)
I0812 14:13:14.162992  5858 net.cpp:156] Memory required for data: 333756000
I0812 14:13:14.163009  5858 net.cpp:484] Sharing parameters 'conv2_w' owned by layer 'Convolution2', param index 0
I0812 14:13:14.163024  5858 net.cpp:484] Sharing parameters 'conv2_b' owned by layer 'Convolution2', param index 1
I0812 14:13:14.163038  5858 layer_factory.hpp:77] Creating layer Pooling5
I0812 14:13:14.163060  5858 net.cpp:91] Creating Layer Pooling5
I0812 14:13:14.163070  5858 net.cpp:425] Pooling5 <- Convolution5
I0812 14:13:14.163084  5858 net.cpp:399] Pooling5 -> Pooling5
I0812 14:13:14.163156  5858 net.cpp:141] Setting up Pooling5
I0812 14:13:14.163167  5858 net.cpp:148] Top shape: 100 100 13 13 (1690000)
I0812 14:13:14.163174  5858 net.cpp:156] Memory required for data: 340516000
I0812 14:13:14.163182  5858 layer_factory.hpp:77] Creating layer Convolution6
I0812 14:13:14.163200  5858 net.cpp:91] Creating Layer Convolution6
I0812 14:13:14.163208  5858 net.cpp:425] Convolution6 <- Pooling5
I0812 14:13:14.163221  5858 net.cpp:399] Convolution6 -> Convolution6
I0812 14:13:14.166502  5858 net.cpp:141] Setting up Convolution6
I0812 14:13:14.166532  5858 net.cpp:148] Top shape: 100 100 9 9 (810000)
I0812 14:13:14.166539  5858 net.cpp:156] Memory required for data: 343756000
I0812 14:13:14.166550  5858 net.cpp:484] Sharing parameters 'conv3_w' owned by layer 'Convolution3', param index 0
I0812 14:13:14.166561  5858 net.cpp:484] Sharing parameters 'conv3_b' owned by layer 'Convolution3', param index 1
I0812 14:13:14.166569  5858 layer_factory.hpp:77] Creating layer Pooling6
I0812 14:13:14.166584  5858 net.cpp:91] Creating Layer Pooling6
I0812 14:13:14.166592  5858 net.cpp:425] Pooling6 <- Convolution6
I0812 14:13:14.166605  5858 net.cpp:399] Pooling6 -> Pooling6
I0812 14:13:14.166671  5858 net.cpp:141] Setting up Pooling6
I0812 14:13:14.166684  5858 net.cpp:148] Top shape: 100 100 5 5 (250000)
I0812 14:13:14.166692  5858 net.cpp:156] Memory required for data: 344756000
I0812 14:13:14.166699  5858 layer_factory.hpp:77] Creating layer InnerProduct3
I0812 14:13:14.166713  5858 net.cpp:91] Creating Layer InnerProduct3
I0812 14:13:14.166721  5858 net.cpp:425] InnerProduct3 <- Pooling6
I0812 14:13:14.166733  5858 net.cpp:399] InnerProduct3 -> InnerProduct3
I0812 14:13:14.173131  5858 net.cpp:141] Setting up InnerProduct3
I0812 14:13:14.173167  5858 net.cpp:148] Top shape: 100 200 (20000)
I0812 14:13:14.173177  5858 net.cpp:156] Memory required for data: 344836000
I0812 14:13:14.173226  5858 net.cpp:484] Sharing parameters 'ip1_w' owned by layer 'InnerProduct1', param index 0
I0812 14:13:14.173244  5858 net.cpp:484] Sharing parameters 'ip1_b' owned by layer 'InnerProduct1', param index 1
I0812 14:13:14.173254  5858 layer_factory.hpp:77] Creating layer ReLU2
I0812 14:13:14.173270  5858 net.cpp:91] Creating Layer ReLU2
I0812 14:13:14.173281  5858 net.cpp:425] ReLU2 <- InnerProduct3
I0812 14:13:14.173295  5858 net.cpp:386] ReLU2 -> InnerProduct3 (in-place)
I0812 14:13:14.173313  5858 net.cpp:141] Setting up ReLU2
I0812 14:13:14.173327  5858 net.cpp:148] Top shape: 100 200 (20000)
I0812 14:13:14.173336  5858 net.cpp:156] Memory required for data: 344916000
I0812 14:13:14.173344  5858 layer_factory.hpp:77] Creating layer InnerProduct4
I0812 14:13:14.173359  5858 net.cpp:91] Creating Layer InnerProduct4
I0812 14:13:14.173368  5858 net.cpp:425] InnerProduct4 <- InnerProduct3
I0812 14:13:14.173382  5858 net.cpp:399] InnerProduct4 -> InnerProduct4
I0812 14:13:14.173771  5858 net.cpp:141] Setting up InnerProduct4
I0812 14:13:14.173786  5858 net.cpp:148] Top shape: 100 100 (10000)
I0812 14:13:14.173794  5858 net.cpp:156] Memory required for data: 344956000
I0812 14:13:14.173804  5858 net.cpp:484] Sharing parameters 'ip2_w' owned by layer 'InnerProduct2', param index 0
I0812 14:13:14.173815  5858 net.cpp:484] Sharing parameters 'ip2_b' owned by layer 'InnerProduct2', param index 1
I0812 14:13:14.173823  5858 layer_factory.hpp:77] Creating layer Concat1
I0812 14:13:14.173836  5858 net.cpp:91] Creating Layer Concat1
I0812 14:13:14.173866  5858 net.cpp:425] Concat1 <- InnerProduct2
I0812 14:13:14.173878  5858 net.cpp:425] Concat1 <- InnerProduct4
I0812 14:13:14.173892  5858 net.cpp:399] Concat1 -> Concat1
I0812 14:13:14.173935  5858 net.cpp:141] Setting up Concat1
I0812 14:13:14.173951  5858 net.cpp:148] Top shape: 100 200 (20000)
I0812 14:13:14.173959  5858 net.cpp:156] Memory required for data: 345036000
I0812 14:13:14.173969  5858 layer_factory.hpp:77] Creating layer InnerProduct5
I0812 14:13:14.173981  5858 net.cpp:91] Creating Layer InnerProduct5
I0812 14:13:14.173990  5858 net.cpp:425] InnerProduct5 <- Concat1
I0812 14:13:14.174003  5858 net.cpp:399] InnerProduct5 -> InnerProduct5
I0812 14:13:14.174549  5858 net.cpp:141] Setting up InnerProduct5
I0812 14:13:14.174568  5858 net.cpp:148] Top shape: 100 200 (20000)
I0812 14:13:14.174577  5858 net.cpp:156] Memory required for data: 345116000
I0812 14:13:14.174592  5858 layer_factory.hpp:77] Creating layer ReLU3
I0812 14:13:14.174603  5858 net.cpp:91] Creating Layer ReLU3
I0812 14:13:14.174612  5858 net.cpp:425] ReLU3 <- InnerProduct5
I0812 14:13:14.174625  5858 net.cpp:386] ReLU3 -> InnerProduct5 (in-place)
I0812 14:13:14.174639  5858 net.cpp:141] Setting up ReLU3
I0812 14:13:14.174650  5858 net.cpp:148] Top shape: 100 200 (20000)
I0812 14:13:14.174659  5858 net.cpp:156] Memory required for data: 345196000
I0812 14:13:14.174666  5858 layer_factory.hpp:77] Creating layer InnerProduct6
I0812 14:13:14.174680  5858 net.cpp:91] Creating Layer InnerProduct6
I0812 14:13:14.174688  5858 net.cpp:425] InnerProduct6 <- InnerProduct5
I0812 14:13:14.174702  5858 net.cpp:399] InnerProduct6 -> InnerProduct6
I0812 14:13:14.175065  5858 net.cpp:141] Setting up InnerProduct6
I0812 14:13:14.175079  5858 net.cpp:148] Top shape: 100 100 (10000)
I0812 14:13:14.175087  5858 net.cpp:156] Memory required for data: 345236000
I0812 14:13:14.175098  5858 layer_factory.hpp:77] Creating layer ReLU4
I0812 14:13:14.175112  5858 net.cpp:91] Creating Layer ReLU4
I0812 14:13:14.175122  5858 net.cpp:425] ReLU4 <- InnerProduct6
I0812 14:13:14.175137  5858 net.cpp:386] ReLU4 -> InnerProduct6 (in-place)
I0812 14:13:14.175150  5858 net.cpp:141] Setting up ReLU4
I0812 14:13:14.175163  5858 net.cpp:148] Top shape: 100 100 (10000)
I0812 14:13:14.175173  5858 net.cpp:156] Memory required for data: 345276000
I0812 14:13:14.175186  5858 layer_factory.hpp:77] Creating layer dt
I0812 14:13:14.175207  5858 net.cpp:91] Creating Layer dt
I0812 14:13:14.175222  5858 net.cpp:425] dt <- InnerProduct6
I0812 14:13:14.175236  5858 net.cpp:399] dt -> dt
I0812 14:13:14.175441  5858 net.cpp:141] Setting up dt
I0812 14:13:14.175458  5858 net.cpp:148] Top shape: 100 1 (100)
I0812 14:13:14.175467  5858 net.cpp:156] Memory required for data: 345276400
I0812 14:13:14.175479  5858 layer_factory.hpp:77] Creating layer r2
I0812 14:13:14.175494  5858 net.cpp:91] Creating Layer r2
I0812 14:13:14.175503  5858 net.cpp:425] r2 <- dt
I0812 14:13:14.175516  5858 net.cpp:399] r2 -> r2
I0812 14:13:14.175559  5858 net.cpp:141] Setting up r2
I0812 14:13:14.175572  5858 net.cpp:148] Top shape: 100 1 1 1 (100)
I0812 14:13:14.175580  5858 net.cpp:156] Memory required for data: 345276800
I0812 14:13:14.175588  5858 layer_factory.hpp:77] Creating layer padL
I0812 14:13:14.175611  5858 net.cpp:91] Creating Layer padL
I0812 14:13:14.175621  5858 net.cpp:425] padL <- label_data_1_split_1
I0812 14:13:14.175634  5858 net.cpp:399] padL -> padL
I0812 14:13:14.175689  5858 net.cpp:141] Setting up padL
I0812 14:13:14.175707  5858 net.cpp:148] Top shape: 100 1 1 1 (100)
I0812 14:13:14.175734  5858 net.cpp:156] Memory required for data: 345277200
I0812 14:13:14.175745  5858 layer_factory.hpp:77] Creating layer pad
I0812 14:13:14.175761  5858 net.cpp:91] Creating Layer pad
I0812 14:13:14.175770  5858 net.cpp:425] pad <- r2
I0812 14:13:14.175783  5858 net.cpp:425] pad <- padL
I0812 14:13:14.175802  5858 net.cpp:399] pad -> pad
I0812 14:13:14.175856  5858 net.cpp:141] Setting up pad
I0812 14:13:14.175868  5858 net.cpp:148] Top shape: 100 2 1 1 (200)
I0812 14:13:14.175895  5858 net.cpp:156] Memory required for data: 345278000
I0812 14:13:14.175904  5858 layer_factory.hpp:77] Creating layer pad_pad_0_split
I0812 14:13:14.175915  5858 net.cpp:91] Creating Layer pad_pad_0_split
I0812 14:13:14.175923  5858 net.cpp:425] pad_pad_0_split <- pad
I0812 14:13:14.175935  5858 net.cpp:399] pad_pad_0_split -> pad_pad_0_split_0
I0812 14:13:14.175951  5858 net.cpp:399] pad_pad_0_split -> pad_pad_0_split_1
I0812 14:13:14.176018  5858 net.cpp:141] Setting up pad_pad_0_split
I0812 14:13:14.176033  5858 net.cpp:148] Top shape: 100 2 1 1 (200)
I0812 14:13:14.176044  5858 net.cpp:148] Top shape: 100 2 1 1 (200)
I0812 14:13:14.176054  5858 net.cpp:156] Memory required for data: 345279600
I0812 14:13:14.176061  5858 layer_factory.hpp:77] Creating layer accuracy
I0812 14:13:14.176074  5858 net.cpp:91] Creating Layer accuracy
I0812 14:13:14.176082  5858 net.cpp:425] accuracy <- pad_pad_0_split_0
I0812 14:13:14.176095  5858 net.cpp:425] accuracy <- th_th_0_split_0
I0812 14:13:14.176107  5858 net.cpp:399] accuracy -> accuracy
…
