…
I0802 15:29:42.383522 20651 solver.cpp:81] Creating training net from train_net file: examples/scene/matchNetTrainHingeMini.prototxt
I0802 15:29:42.405369 20651 net.cpp:49] Initializing net from parameters: 
state {
  phase: TRAIN
}
layer {
  name: "data"
  type: "Data"
  top: "data"
  top: "label"
  include {
    phase: TRAIN
  }
  transform_param {
    scale: 0.0039215689
    mirror: true
    mean_file: "examples/scene/scene_mean.binaryproto"
  }
  data_param {
    source: "examples/scene/scene_train7_pairs_20000.lmdb"
    batch_size: 100
    backend: LMDB
  }
}
layer {
  name: "i1"
  type: "Slice"
  bottom: "data"
  top: "i1"
  top: "i2"
  slice_param {
    slice_dim: 1
    slice_point: 3
  }
}
layer {
  name: "p1"
  type: "Pooling"
  bottom: "i1"
  top: "p1"
  pooling_param {
    pool: AVE
    kernel_size: 2
    stride: 2
  }
}
layer {
  name: "p2"
  type: "Pooling"
  bottom: "i2"
  top: "p2"
  pooling_param {
    pool: AVE
    kernel_size: 2
    stride: 2
  }
}
layer {
  name: "Input1"
  type: "Input"
  top: "Input1"
  include {
    phase: TRAIN
  }
  input_param {
    shape {
      dim: 100
      dim: 3
      dim: 64
      dim: 64
    }
  }
}
layer {
  name: "c11"
  type: "Crop"
  bottom: "i1"
  bottom: "Input1"
  top: "c11"
  crop_param {
    axis: 2
    offset: 0
    offset: 0
  }
}
layer {
  name: "Input2"
  type: "Input"
  top: "Input2"
  include {
    phase: TRAIN
  }
  input_param {
    shape {
      dim: 100
      dim: 3
      dim: 64
      dim: 64
    }
  }
}
layer {
  name: "c12"
  type: "Crop"
  bottom: "i1"
  bottom: "Input2"
  top: "c12"
  crop_param {
    axis: 2
    offset: 0
    offset: 32
  }
}
layer {
  name: "Input3"
  type: "Input"
  top: "Input3"
  include {
    phase: TRAIN
  }
  input_param {
    shape {
      dim: 100
      dim: 3
      dim: 64
      dim: 64
    }
  }
}
layer {
  name: "c13"
  type: "Crop"
  bottom: "i1"
  bottom: "Input3"
  top: "c13"
  crop_param {
    axis: 2
    offset: 0
    offset: 64
  }
}
layer {
  name: "Input4"
  type: "Input"
  top: "Input4"
  include {
    phase: TRAIN
  }
  input_param {
    shape {
      dim: 100
      dim: 3
      dim: 64
      dim: 64
    }
  }
}
layer {
  name: "c14"
  type: "Crop"
  bottom: "i1"
  bottom: "Input4"
  top: "c14"
  crop_param {
    axis: 2
    offset: 32
    offset: 0
  }
}
layer {
  name: "Input5"
  type: "Input"
  top: "Input5"
  include {
    phase: TRAIN
  }
  input_param {
    shape {
      dim: 100
      dim: 3
      dim: 64
      dim: 64
    }
  }
}
layer {
  name: "c15"
  type: "Crop"
  bottom: "i1"
  bottom: "Input5"
  top: "c15"
  crop_param {
    axis: 2
    offset: 32
    offset: 32
  }
}
layer {
  name: "Input6"
  type: "Input"
  top: "Input6"
  include {
    phase: TRAIN
  }
  input_param {
    shape {
      dim: 100
      dim: 3
      dim: 64
      dim: 64
    }
  }
}
layer {
  name: "c16"
  type: "Crop"
  bottom: "i1"
  bottom: "Input6"
  top: "c16"
  crop_param {
    axis: 2
    offset: 32
    offset: 64
  }
}
layer {
  name: "Input7"
  type: "Input"
  top: "Input7"
  include {
    phase: TRAIN
  }
  input_param {
    shape {
      dim: 100
      dim: 3
      dim: 64
      dim: 64
    }
  }
}
layer {
  name: "c17"
  type: "Crop"
  bottom: "i1"
  bottom: "Input7"
  top: "c17"
  crop_param {
    axis: 2
    offset: 64
    offset: 0
  }
}
layer {
  name: "Input8"
  type: "Input"
  top: "Input8"
  include {
    phase: TRAIN
  }
  input_param {
    shape {
      dim: 100
      dim: 3
      dim: 64
      dim: 64
    }
  }
}
layer {
  name: "c18"
  type: "Crop"
  bottom: "i1"
  bottom: "Input8"
  top: "c18"
  crop_param {
    axis: 2
    offset: 64
    offset: 32
  }
}
layer {
  name: "Input9"
  type: "Input"
  top: "Input9"
  include {
    phase: TRAIN
  }
  input_param {
    shape {
      dim: 100
      dim: 3
      dim: 64
      dim: 64
    }
  }
}
layer {
  name: "c19"
  type: "Crop"
  bottom: "i1"
  bottom: "Input9"
  top: "c19"
  crop_param {
    axis: 2
    offset: 64
    offset: 64
  }
}
layer {
  name: "Input10"
  type: "Input"
  top: "Input10"
  include {
    phase: TRAIN
  }
  input_param {
    shape {
      dim: 100
      dim: 3
      dim: 64
      dim: 64
    }
  }
}
layer {
  name: "c21"
  type: "Crop"
  bottom: "i2"
  bottom: "Input10"
  top: "c21"
  crop_param {
    axis: 2
    offset: 0
    offset: 0
  }
}
layer {
  name: "Input11"
  type: "Input"
  top: "Input11"
  include {
    phase: TRAIN
  }
  input_param {
    shape {
      dim: 100
      dim: 3
      dim: 64
      dim: 64
    }
  }
}
layer {
  name: "c22"
  type: "Crop"
  bottom: "i2"
  bottom: "Input11"
  top: "c22"
  crop_param {
    axis: 2
    offset: 0
    offset: 32
  }
}
layer {
  name: "Input12"
  type: "Input"
  top: "Input12"
  include {
    phase: TRAIN
  }
  input_param {
    shape {
      dim: 100
      dim: 3
      dim: 64
      dim: 64
    }
  }
}
layer {
  name: "c23"
  type: "Crop"
  bottom: "i2"
  bottom: "Input12"
  top: "c23"
  crop_param {
    axis: 2
    offset: 0
    offset: 64
  }
}
layer {
  name: "Input13"
  type: "Input"
  top: "Input13"
  include {
    phase: TRAIN
  }
  input_param {
    shape {
      dim: 100
      dim: 3
      dim: 64
      dim: 64
    }
  }
}
layer {
  name: "c24"
  type: "Crop"
  bottom: "i2"
  bottom: "Input13"
  top: "c24"
  crop_param {
    axis: 2
    offset: 32
    offset: 0
  }
}
layer {
  name: "Input14"
  type: "Input"
  top: "Input14"
  include {
    phase: TRAIN
  }
  input_param {
    shape {
      dim: 100
      dim: 3
      dim: 64
      dim: 64
    }
  }
}
layer {
  name: "c25"
  type: "Crop"
  bottom: "i2"
  bottom: "Input14"
  top: "c25"
  crop_param {
    axis: 2
    offset: 32
    offset: 32
  }
}
layer {
  name: "Input15"
  type: "Input"
  top: "Input15"
  include {
    phase: TRAIN
  }
  input_param {
    shape {
      dim: 100
      dim: 3
      dim: 64
      dim: 64
    }
  }
}
layer {
  name: "c26"
  type: "Crop"
  bottom: "i2"
  bottom: "Input15"
  top: "c26"
  crop_param {
    axis: 2
    offset: 32
    offset: 64
  }
}
layer {
  name: "Input16"
  type: "Input"
  top: "Input16"
  include {
    phase: TRAIN
  }
  input_param {
    shape {
      dim: 100
      dim: 3
      dim: 64
      dim: 64
    }
  }
}
layer {
  name: "c27"
  type: "Crop"
  bottom: "i2"
  bottom: "Input16"
  top: "c27"
  crop_param {
    axis: 2
    offset: 64
    offset: 0
  }
}
layer {
  name: "Input17"
  type: "Input"
  top: "Input17"
  include {
    phase: TRAIN
  }
  input_param {
    shape {
      dim: 100
      dim: 3
      dim: 64
      dim: 64
    }
  }
}
layer {
  name: "c28"
  type: "Crop"
  bottom: "i2"
  bottom: "Input17"
  top: "c28"
  crop_param {
    axis: 2
    offset: 64
    offset: 32
  }
}
layer {
  name: "Input18"
  type: "Input"
  top: "Input18"
  include {
    phase: TRAIN
  }
  input_param {
    shape {
      dim: 100
      dim: 3
      dim: 64
      dim: 64
    }
  }
}
layer {
  name: "c29"
  type: "Crop"
  bottom: "i2"
  bottom: "Input18"
  top: "c29"
  crop_param {
    axis: 2
    offset: 64
    offset: 64
  }
}
layer {
  name: "Convolution1"
  type: "Convolution"
  bottom: "p1"
  top: "Convolution1"
  param {
    name: "conv1_w"
    lr_mult: 1
  }
  param {
    name: "conv1_b"
    lr_mult: 2
  }
  convolution_param {
    num_output: 20
    kernel_size: 5
    stride: 1
    weight_filler {
      type: "xavier"
    }
    bias_filler {
      type: "constant"
    }
  }
}
layer {
  name: "Pooling1"
  type: "Pooling"
  bottom: "Convolution1"
  top: "Pooling1"
  pooling_param {
    pool: MAX
    kernel_size: 2
    stride: 2
  }
}
layer {
  name: "Convolution2"
  type: "Convolution"
  bottom: "Pooling1"
  top: "Convolution2"
  param {
    name: "conv2_w"
    lr_mult: 1
  }
  param {
    name: "conv2_b"
    lr_mult: 2
  }
  convolution_param {
    num_output: 50
    kernel_size: 5
    stride: 1
    weight_filler {
      type: "xavier"
    }
    bias_filler {
      type: "constant"
    }
  }
}
layer {
  name: "Pooling2"
  type: "Pooling"
  bottom: "Convolution2"
  top: "Pooling2"
  pooling_param {
    pool: MAX
    kernel_size: 2
    stride: 2
  }
}
layer {
  name: "InnerProduct1"
  type: "InnerProduct"
  bottom: "Pooling2"
  top: "InnerProduct1"
  param {
    name: "ip1_w"
    lr_mult: 1
  }
  param {
    name: "ip1_b"
    lr_mult: 2
  }
  inner_product_param {
    num_output: 100
    weight_filler {
      type: "xavier"
    }
    bias_filler {
      type: "constant"
    }
  }
}
layer {
  name: "ReLU1"
  type: "ReLU"
  bottom: "InnerProduct1"
  top: "InnerProduct1"
}
layer {
  name: "InnerProduct2"
  type: "InnerProduct"
  bottom: "InnerProduct1"
  top: "InnerProduct2"
  param {
    name: "ip2_w"
    lr_mult: 1
  }
  param {
    name: "ip2_b"
    lr_mult: 2
  }
  inner_product_param {
    num_output: 50
    weight_filler {
      type: "xavier"
    }
    bias_filler {
      type: "constant"
    }
  }
}
layer {
  name: "Convolution3"
  type: "Convolution"
  bottom: "p2"
  top: "Convolution3"
  param {
    name: "conv1_w"
    lr_mult: 1
  }
  param {
    name: "conv1_b"
    lr_mult: 2
  }
  convolution_param {
    num_output: 20
    kernel_size: 5
    stride: 1
    weight_filler {
      type: "xavier"
    }
    bias_filler {
      type: "constant"
    }
  }
}
layer {
  name: "Pooling3"
  type: "Pooling"
  bottom: "Convolution3"
  top: "Pooling3"
  pooling_param {
    pool: MAX
    kernel_size: 2
    stride: 2
  }
}
layer {
  name: "Convolution4"
  type: "Convolution"
  bottom: "Pooling3"
  top: "Convolution4"
  param {
    name: "conv2_w"
    lr_mult: 1
  }
  param {
    name: "conv2_b"
    lr_mult: 2
  }
  convolution_param {
    num_output: 50
    kernel_size: 5
    stride: 1
    weight_filler {
      type: "xavier"
    }
    bias_filler {
      type: "constant"
    }
  }
}
layer {
  name: "Pooling4"
  type: "Pooling"
  bottom: "Convolution4"
  top: "Pooling4"
  pooling_param {
    pool: MAX
    kernel_size: 2
    stride: 2
  }
}
layer {
  name: "InnerProduct3"
  type: "InnerProduct"
  bottom: "Pooling4"
  top: "InnerProduct3"
  param {
    name: "ip1_w"
    lr_mult: 1
  }
  param {
    name: "ip1_b"
    lr_mult: 2
  }
  inner_product_param {
    num_output: 100
    weight_filler {
      type: "xavier"
    }
    bias_filler {
      type: "constant"
    }
  }
}
layer {
  name: "ReLU2"
  type: "ReLU"
  bottom: "InnerProduct3"
  top: "InnerProduct3"
}
layer {
  name: "InnerProduct4"
  type: "InnerProduct"
  bottom: "InnerProduct3"
  top: "InnerProduct4"
  param {
    name: "ip2_w"
    lr_mult: 1
  }
  param {
    name: "ip2_b"
    lr_mult: 2
  }
  inner_product_param {
    num_output: 50
    weight_filler {
      type: "xavier"
    }
    bias_filler {
      type: "constant"
    }
  }
}
layer {
  name: "Concat1"
  type: "Concat"
  bottom: "InnerProduct2"
  bottom: "InnerProduct4"
  top: "Concat1"
  concat_param {
    axis: 1
  }
}
layer {
  name: "InnerProduct5"
  type: "InnerProduct"
  bottom: "Concat1"
  top: "InnerProduct5"
  param {
    name: "fc1_w"
    lr_mult: 1
  }
  param {
    name: "fc1_b"
    lr_mult: 2
  }
  inner_product_param {
    num_output: 64
    weight_filler {
      type: "xavier"
    }
    bias_filler {
      type: "constant"
    }
  }
}
layer {
  name: "ReLU3"
  type: "ReLU"
  bottom: "InnerProduct5"
  top: "InnerProduct5"
}
layer {
  name: "InnerProduct6"
  type: "InnerProduct"
  bottom: "InnerProduct5"
  top: "InnerProduct6"
  param {
    name: "fc2_w"
    lr_mult: 1
  }
  param {
    name: "fc2_b"
    lr_mult: 2
  }
  inner_product_param {
    num_output: 32
    weight_filler {
      type: "xavier"
    }
    bias_filler {
      type: "constant"
    }
  }
}
layer {
  name: "ReLU4"
  type: "ReLU"
  bottom: "InnerProduct6"
  top: "InnerProduct6"
}
layer {
  name: "dt0"
  type: "InnerProduct"
  bottom: "InnerProduct6"
  top: "dt0"
  param {
    name: "fc3_w"
    lr_mult: 1
  }
  param {
    name: "fc3_b"
    lr_mult: 2
  }
  inner_product_param {
    num_output: 2
    weight_filler {
      type: "xavier"
    }
    bias_filler {
      type: "constant"
    }
  }
}
layer {
  name: "Convolution5"
  type: "Convolution"
  bottom: "p1"
  top: "Convolution5"
  param {
    name: "conv1_w"
    lr_mult: 1
  }
  param {
    name: "conv1_b"
    lr_mult: 2
  }
  convolution_param {
    num_output: 20
    kernel_size: 5
    stride: 1
    weight_filler {
      type: "xavier"
    }
    bias_filler {
      type: "constant"
    }
  }
}
layer {
  name: "Pooling5"
  type: "Pooling"
  bottom: "Convolution5"
  top: "Pooling5"
  pooling_param {
    pool: MAX
    kernel_size: 2
    stride: 2
  }
}
layer {
  name: "Convolution6"
  type: "Convolution"
  bottom: "Pooling5"
  top: "Convolution6"
  param {
    name: "conv2_w"
    lr_mult: 1
  }
  param {
    name: "conv2_b"
    lr_mult: 2
  }
  convolution_param {
    num_output: 50
    kernel_size: 5
    stride: 1
    weight_filler {
      type: "xavier"
    }
    bias_filler {
      type: "constant"
    }
  }
}
layer {
  name: "Pooling6"
  type: "Pooling"
  bottom: "Convolution6"
  top: "Pooling6"
  pooling_param {
    pool: MAX
    kernel_size: 2
    stride: 2
  }
}
layer {
  name: "InnerProduct7"
  type: "InnerProduct"
  bottom: "Pooling6"
  top: "InnerProduct7"
  param {
    name: "ip1_w"
    lr_mult: 1
  }
  param {
    name: "ip1_b"
    lr_mult: 2
  }
  inner_product_param {
    num_output: 100
    weight_filler {
      type: "xavier"
    }
    bias_filler {
      type: "constant"
    }
  }
}
layer {
  name: "ReLU5"
  type: "ReLU"
  bottom: "InnerProduct7"
  top: "InnerProduct7"
}
layer {
  name: "InnerProduct8"
  type: "InnerProduct"
  bottom: "InnerProduct7"
  top: "InnerProduct8"
  param {
    name: "ip2_w"
    lr_mult: 1
  }
  param {
    name: "ip2_b"
    lr_mult: 2
  }
  inner_product_param {
    num_output: 50
    weight_filler {
      type: "xavier"
    }
    bias_filler {
      type: "constant"
    }
  }
}
layer {
  name: "Convolution7"
  type: "Convolution"
  bottom: "c21"
  top: "Convolution7"
  param {
    name: "conv1_w"
    lr_mult: 1
  }
  param {
    name: "conv1_b"
    lr_mult: 2
  }
  convolution_param {
    num_output: 20
    kernel_size: 5
    stride: 1
    weight_filler {
      type: "xavier"
    }
    bias_filler {
      type: "constant"
    }
  }
}
layer {
  name: "Pooling7"
  type: "Pooling"
  bottom: "Convolution7"
  top: "Pooling7"
  pooling_param {
    pool: MAX
    kernel_size: 2
    stride: 2
  }
}
layer {
  name: "Convolution8"
  type: "Convolution"
  bottom: "Pooling7"
  top: "Convolution8"
  param {
    name: "conv2_w"
    lr_mult: 1
  }
  param {
    name: "conv2_b"
    lr_mult: 2
  }
  convolution_param {
    num_output: 50
    kernel_size: 5
    stride: 1
    weight_filler {
      type: "xavier"
    }
    bias_filler {
      type: "constant"
    }
  }
}
layer {
  name: "Pooling8"
  type: "Pooling"
  bottom: "Convolution8"
  top: "Pooling8"
  pooling_param {
    pool: MAX
    kernel_size: 2
    stride: 2
  }
}
layer {
  name: "InnerProduct9"
  type: "InnerProduct"
  bottom: "Pooling8"
  top: "InnerProduct9"
  param {
    name: "ip1_w"
    lr_mult: 1
  }
  param {
    name: "ip1_b"
    lr_mult: 2
  }
  inner_product_param {
    num_output: 100
    weight_filler {
      type: "xavier"
    }
    bias_filler {
      type: "constant"
    }
  }
}
layer {
  name: "ReLU6"
  type: "ReLU"
  bottom: "InnerProduct9"
  top: "InnerProduct9"
}
layer {
  name: "InnerProduct10"
  type: "InnerProduct"
  bottom: "InnerProduct9"
  top: "InnerProduct10"
  param {
    name: "ip2_w"
    lr_mult: 1
  }
  param {
    name: "ip2_b"
    lr_mult: 2
  }
  inner_product_param {
    num_output: 50
    weight_filler {
      type: "xavier"
    }
    bias_filler {
      type: "constant"
    }
  }
}
layer {
  name: "Concat2"
  type: "Concat"
  bottom: "InnerProduct8"
  bottom: "InnerProduct10"
  top: "Concat2"
  concat_param {
    axis: 1
  }
}
layer {
  name: "InnerProduct11"
  type: "InnerProduct"
  bottom: "Concat2"
  top: "InnerProduct11"
  param {
    name: "fc1_w"
    lr_mult: 1
  }
  param {
    name: "fc1_b"
    lr_mult: 2
  }
  inner_product_param {
    num_output: 64
    weight_filler {
      type: "xavier"
    }
    bias_filler {
      type: "constant"
    }
  }
}
layer {
  name: "ReLU7"
  type: "ReLU"
  bottom: "InnerProduct11"
  top: "InnerProduct11"
}
layer {
  name: "InnerProduct12"
  type: "InnerProduct"
  bottom: "InnerProduct11"
  top: "InnerProduct12"
  param {
    name: "fc2_w"
    lr_mult: 1
  }
  param {
    name: "fc2_b"
    lr_mult: 2
  }
  inner_product_param {
    num_output: 32
    weight_filler {
      type: "xavier"
    }
    bias_filler {
      type: "constant"
    }
  }
}
layer {
  name: "ReLU8"
  type: "ReLU"
  bottom: "InnerProduct12"
  top: "InnerProduct12"
}
layer {
  name: "dt1"
  type: "InnerProduct"
  bottom: "InnerProduct12"
  top: "dt1"
  param {
    name: "fc3_w"
    lr_mult: 1
  }
  param {
    name: "fc3_b"
    lr_mult: 2
  }
  inner_product_param {
    num_output: 2
    weight_filler {
      type: "xavier"
    }
    bias_filler {
      type: "constant"
    }
  }
}
layer {
  name: "Convolution9"
  type: "Convolution"
  bottom: "p1"
  top: "Convolution9"
  param {
    name: "conv1_w"
    lr_mult: 1
  }
  param {
    name: "conv1_b"
    lr_mult: 2
  }
  convolution_param {
    num_output: 20
    kernel_size: 5
    stride: 1
    weight_filler {
      type: "xavier"
    }
    bias_filler {
      type: "constant"
    }
  }
}
layer {
  name: "Pooling9"
  type: "Pooling"
  bottom: "Convolution9"
  top: "Pooling9"
  pooling_param {
    pool: MAX
    kernel_size: 2
    stride: 2
  }
}
layer {
  name: "Convolution10"
  type: "Convolution"
  bottom: "Pooling9"
  top: "Convolution10"
  param {
    name: "conv2_w"
    lr_mult: 1
  }
  param {
    name: "conv2_b"
    lr_mult: 2
  }
  convolution_param {
    num_output: 50
    kernel_size: 5
    stride: 1
    weight_filler {
      type: "xavier"
    }
    bias_filler {
      type: "constant"
    }
  }
}
layer {
  name: "Pooling10"
  type: "Pooling"
  bottom: "Convolution10"
  top: "Pooling10"
  pooling_param {
    pool: MAX
    kernel_size: 2
    stride: 2
  }
}
layer {
  name: "InnerProduct13"
  type: "InnerProduct"
  bottom: "Pooling10"
  top: "InnerProduct13"
  param {
    name: "ip1_w"
    lr_mult: 1
  }
  param {
    name: "ip1_b"
    lr_mult: 2
  }
  inner_product_param {
    num_output: 100
    weight_filler {
      type: "xavier"
    }
    bias_filler {
      type: "constant"
    }
  }
}
layer {
  name: "ReLU9"
  type: "ReLU"
  bottom: "InnerProduct13"
  top: "InnerProduct13"
}
layer {
  name: "InnerProduct14"
  type: "InnerProduct"
  bottom: "InnerProduct13"
  top: "InnerProduct14"
  param {
    name: "ip2_w"
    lr_mult: 1
  }
  param {
    name: "ip2_b"
    lr_mult: 2
  }
  inner_product_param {
    num_output: 50
    weight_filler {
      type: "xavier"
    }
    bias_filler {
      type: "constant"
    }
  }
}
layer {
  name: "Convolution11"
  type: "Convolution"
  bottom: "c22"
  top: "Convolution11"
  param {
    name: "conv1_w"
    lr_mult: 1
  }
  param {
    name: "conv1_b"
    lr_mult: 2
  }
  convolution_param {
    num_output: 20
    kernel_size: 5
    stride: 1
    weight_filler {
      type: "xavier"
    }
    bias_filler {
      type: "constant"
    }
  }
}
layer {
  name: "Pooling11"
  type: "Pooling"
  bottom: "Convolution11"
  top: "Pooling11"
  pooling_param {
    pool: MAX
    kernel_size: 2
    stride: 2
  }
}
layer {
  name: "Convolution12"
  type: "Convolution"
  bottom: "Pooling11"
  top: "Convolution12"
  param {
    name: "conv2_w"
    lr_mult: 1
  }
  param {
    name: "conv2_b"
    lr_mult: 2
  }
  convolution_param {
    num_output: 50
    kernel_size: 5
    stride: 1
    weight_filler {
      type: "xavier"
    }
    bias_filler {
      type: "constant"
    }
  }
}
layer {
  name: "Pooling12"
  type: "Pooling"
  bottom: "Convolution12"
  top: "Pooling12"
  pooling_param {
    pool: MAX
    kernel_size: 2
    stride: 2
  }
}
layer {
  name: "InnerProduct15"
  type: "InnerProduct"
  bottom: "Pooling12"
  top: "InnerProduct15"
  param {
    name: "ip1_w"
    lr_mult: 1
  }
  param {
    name: "ip1_b"
    lr_mult: 2
  }
  inner_product_param {
    num_output: 100
    weight_filler {
      type: "xavier"
    }
    bias_filler {
      type: "constant"
    }
  }
}
layer {
  name: "ReLU10"
  type: "ReLU"
  bottom: "InnerProduct15"
  top: "InnerProduct15"
}
layer {
  name: "InnerProduct16"
  type: "InnerProduct"
  bottom: "InnerProduct15"
  top: "InnerProduct16"
  param {
    name: "ip2_w"
    lr_mult: 1
  }
  param {
    name: "ip2_b"
    lr_mult: 2
  }
  inner_product_param {
    num_output: 50
    weight_filler {
      type: "xavier"
    }
    bias_filler {
      type: "constant"
    }
  }
}
layer {
  name: "Concat3"
  type: "Concat"
  bottom: "InnerProduct14"
  bottom: "InnerProduct16"
  top: "Concat3"
  concat_param {
    axis: 1
  }
}
layer {
  name: "InnerProduct17"
  type: "InnerProduct"
  bottom: "Concat3"
  top: "InnerProduct17"
  param {
    name: "fc1_w"
    lr_mult: 1
  }
  param {
    name: "fc1_b"
    lr_mult: 2
  }
  inner_product_param {
    num_output: 64
    weight_filler {
      type: "xavier"
    }
    bias_filler {
      type: "constant"
    }
  }
}
layer {
  name: "ReLU11"
  type: "ReLU"
  bottom: "InnerProduct17"
  top: "InnerProduct17"
}
layer {
  name: "InnerProduct18"
  type: "InnerProduct"
  bottom: "InnerProduct17"
  top: "InnerProduct18"
  param {
    name: "fc2_w"
    lr_mult: 1
  }
  param {
    name: "fc2_b"
    lr_mult: 2
  }
  inner_product_param {
    num_output: 32
    weight_filler {
      type: "xavier"
    }
    bias_filler {
      type: "constant"
    }
  }
}
layer {
  name: "ReLU12"
  type: "ReLU"
  bottom: "InnerProduct18"
  top: "InnerProduct18"
}
layer {
  name: "dt2"
  type: "InnerProduct"
  bottom: "InnerProduct18"
  top: "dt2"
  param {
    name: "fc3_w"
    lr_mult: 1
  }
  param {
    name: "fc3_b"
    lr_mult: 2
  }
  inner_product_param {
    num_output: 2
    weight_filler {
      type: "xavier"
    }
    bias_filler {
      type: "constant"
    }
  }
}
layer {
  name: "Convolution13"
  type: "Convolution"
  bottom: "p1"
  top: "Convolution13"
  param {
    name: "conv1_w"
    lr_mult: 1
  }
  param {
    name: "conv1_b"
    lr_mult: 2
  }
  convolution_param {
    num_output: 20
    kernel_size: 5
    stride: 1
    weight_filler {
      type: "xavier"
    }
    bias_filler {
      type: "constant"
    }
  }
}
layer {
  name: "Pooling13"
  type: "Pooling"
  bottom: "Convolution13"
  top: "Pooling13"
  pooling_param {
    pool: MAX
    kernel_size: 2
    stride: 2
  }
}
layer {
  name: "Convolution14"
  type: "Convolution"
  bottom: "Pooling13"
  top: "Convolution14"
  param {
    name: "conv2_w"
    lr_mult: 1
  }
  param {
    name: "conv2_b"
    lr_mult: 2
  }
  convolution_param {
    num_output: 50
    kernel_size: 5
    stride: 1
    weight_filler {
      type: "xavier"
    }
    bias_filler {
      type: "constant"
    }
  }
}
layer {
  name: "Pooling14"
  type: "Pooling"
  bottom: "Convolution14"
  top: "Pooling14"
  pooling_param {
    pool: MAX
    kernel_size: 2
    stride: 2
  }
}
layer {
  name: "InnerProduct19"
  type: "InnerProduct"
  bottom: "Pooling14"
  top: "InnerProduct19"
  param {
    name: "ip1_w"
    lr_mult: 1
  }
  param {
    name: "ip1_b"
    lr_mult: 2
  }
  inner_product_param {
    num_output: 100
    weight_filler {
      type: "xavier"
    }
    bias_filler {
      type: "constant"
    }
  }
}
layer {
  name: "ReLU13"
  type: "ReLU"
  bottom: "InnerProduct19"
  top: "InnerProduct19"
}
layer {
  name: "InnerProduct20"
  type: "InnerProduct"
  bottom: "InnerProduct19"
  top: "InnerProduct20"
  param {
    name: "ip2_w"
    lr_mult: 1
  }
  param {
    name: "ip2_b"
    lr_mult: 2
  }
  inner_product_param {
    num_output: 50
    weight_filler {
      type: "xavier"
    }
    bias_filler {
      type: "constant"
    }
  }
}
layer {
  name: "Convolution15"
  type: "Convolution"
  bottom: "c23"
  top: "Convolution15"
  param {
    name: "conv1_w"
    lr_mult: 1
  }
  param {
    name: "conv1_b"
    lr_mult: 2
  }
  convolution_param {
    num_output: 20
    kernel_size: 5
    stride: 1
    weight_filler {
      type: "xavier"
    }
    bias_filler {
      type: "constant"
    }
  }
}
layer {
  name: "Pooling15"
  type: "Pooling"
  bottom: "Convolution15"
  top: "Pooling15"
  pooling_param {
    pool: MAX
    kernel_size: 2
    stride: 2
  }
}
layer {
  name: "Convolution16"
  type: "Convolution"
  bottom: "Pooling15"
  top: "Convolution16"
  param {
    name: "conv2_w"
    lr_mult: 1
  }
  param {
    name: "conv2_b"
    lr_mult: 2
  }
  convolution_param {
    num_output: 50
    kernel_size: 5
    stride: 1
    weight_filler {
      type: "xavier"
    }
    bias_filler {
      type: "constant"
    }
  }
}
layer {
  name: "Pooling16"
  type: "Pooling"
  bottom: "Convolution16"
  top: "Pooling16"
  pooling_param {
    pool: MAX
    kernel_size: 2
    stride: 2
  }
}
layer {
  name: "InnerProduct21"
  type: "InnerProduct"
  bottom: "Pooling16"
  top: "InnerProduct21"
  param {
    name: "ip1_w"
    lr_mult: 1
  }
  param {
    name: "ip1_b"
    lr_mult: 2
  }
  inner_product_param {
    num_output: 100
    weight_filler {
      type: "xavier"
    }
    bias_filler {
      type: "constant"
    }
  }
}
layer {
  name: "ReLU14"
  type: "ReLU"
  bottom: "InnerProduct21"
  top: "InnerProduct21"
}
layer {
  name: "InnerProduct22"
  type: "InnerProduct"
  bottom: "InnerProduct21"
  top: "InnerProduct22"
  param {
    name: "ip2_w"
    lr_mult: 1
  }
  param {
    name: "ip2_b"
    lr_mult: 2
  }
  inner_product_param {
    num_output: 50
    weight_filler {
      type: "xavier"
    }
    bias_filler {
      type: "constant"
    }
  }
}
layer {
  name: "Concat4"
  type: "Concat"
  bottom: "InnerProduct20"
  bottom: "InnerProduct22"
  top: "Concat4"
  concat_param {
    axis: 1
  }
}
layer {
  name: "InnerProduct23"
  type: "InnerProduct"
  bottom: "Concat4"
  top: "InnerProduct23"
  param {
    name: "fc1_w"
    lr_mult: 1
  }
  param {
    name: "fc1_b"
    lr_mult: 2
  }
  inner_product_param {
    num_output: 64
    weight_filler {
      type: "xavier"
    }
    bias_filler {
      type: "constant"
    }
  }
}
layer {
  name: "ReLU15"
  type: "ReLU"
  bottom: "InnerProduct23"
  top: "InnerProduct23"
}
layer {
  name: "InnerProduct24"
  type: "InnerProduct"
  bottom: "InnerProduct23"
  top: "InnerProduct24"
  param {
    name: "fc2_w"
    lr_mult: 1
  }
  param {
    name: "fc2_b"
    lr_mult: 2
  }
  inner_product_param {
    num_output: 32
    weight_filler {
      type: "xavier"
    }
    bias_filler {
      type: "constant"
    }
  }
}
layer {
  name: "ReLU16"
  type: "ReLU"
  bottom: "InnerProduct24"
  top: "InnerProduct24"
}
layer {
  name: "dt3"
  type: "InnerProduct"
  bottom: "InnerProduct24"
  top: "dt3"
  param {
    name: "fc3_w"
    lr_mult: 1
  }
  param {
    name: "fc3_b"
    lr_mult: 2
  }
  inner_product_param {
    num_output: 2
    weight_filler {
      type: "xavier"
    }
    bias_filler {
      type: "constant"
    }
  }
}
layer {
  name: "Convolution17"
  type: "Convolution"
  bottom: "p1"
  top: "Convolution17"
  param {
    name: "conv1_w"
    lr_mult: 1
  }
  param {
    name: "conv1_b"
    lr_mult: 2
  }
  convolution_param {
    num_output: 20
    kernel_size: 5
    stride: 1
    weight_filler {
      type: "xavier"
    }
    bias_filler {
      type: "constant"
    }
  }
}
layer {
  name: "Pooling17"
  type: "Pooling"
  bottom: "Convolution17"
  top: "Pooling17"
  pooling_param {
    pool: MAX
    kernel_size: 2
    stride: 2
  }
}
layer {
  name: "Convolution18"
  type: "Convolution"
  bottom: "Pooling17"
  top: "Convolution18"
  param {
    name: "conv2_w"
    lr_mult: 1
  }
  param {
    name: "conv2_b"
    lr_mult: 2
  }
  convolution_param {
    num_output: 50
    kernel_size: 5
    stride: 1
    weight_filler {
      type: "xavier"
    }
    bias_filler {
      type: "constant"
    }
  }
}
layer {
  name: "Pooling18"
  type: "Pooling"
  bottom: "Convolution18"
  top: "Pooling18"
  pooling_param {
    pool: MAX
    kernel_size: 2
    stride: 2
  }
}
layer {
  name: "InnerProduct25"
  type: "InnerProduct"
  bottom: "Pooling18"
  top: "InnerProduct25"
  param {
    name: "ip1_w"
    lr_mult: 1
  }
  param {
    name: "ip1_b"
    lr_mult: 2
  }
  inner_product_param {
    num_output: 100
    weight_filler {
      type: "xavier"
    }
    bias_filler {
      type: "constant"
    }
  }
}
layer {
  name: "ReLU17"
  type: "ReLU"
  bottom: "InnerProduct25"
  top: "InnerProduct25"
}
layer {
  name: "InnerProduct26"
  type: "InnerProduct"
  bottom: "InnerProduct25"
  top: "InnerProduct26"
  param {
    name: "ip2_w"
    lr_mult: 1
  }
  param {
    name: "ip2_b"
    lr_mult: 2
  }
  inner_product_param {
    num_output: 50
    weight_filler {
      type: "xavier"
    }
    bias_filler {
      type: "constant"
    }
  }
}
layer {
  name: "Convolution19"
  type: "Convolution"
  bottom: "c24"
  top: "Convolution19"
  param {
    name: "conv1_w"
    lr_mult: 1
  }
  param {
    name: "conv1_b"
    lr_mult: 2
  }
  convolution_param {
    num_output: 20
    kernel_size: 5
    stride: 1
    weight_filler {
      type: "xavier"
    }
    bias_filler {
      type: "constant"
    }
  }
}
layer {
  name: "Pooling19"
  type: "Pooling"
  bottom: "Convolution19"
  top: "Pooling19"
  pooling_param {
    pool: MAX
    kernel_size: 2
    stride: 2
  }
}
layer {
  name: "Convolution20"
  type: "Convolution"
  bottom: "Pooling19"
  top: "Convolution20"
  param {
    name: "conv2_w"
    lr_mult: 1
  }
  param {
    name: "conv2_b"
    lr_mult: 2
  }
  convolution_param {
    num_output: 50
    kernel_size: 5
    stride: 1
    weight_filler {
      type: "xavier"
    }
    bias_filler {
      type: "constant"
    }
  }
}
layer {
  name: "Pooling20"
  type: "Pooling"
  bottom: "Convolution20"
  top: "Pooling20"
  pooling_param {
    pool: MAX
    kernel_size: 2
    stride: 2
  }
}
layer {
  name: "InnerProduct27"
  type: "InnerProduct"
  bottom: "Pooling20"
  top: "InnerProduct27"
  param {
    name: "ip1_w"
    lr_mult: 1
  }
  param {
    name: "ip1_b"
    lr_mult: 2
  }
  inner_product_param {
    num_output: 100
    weight_filler {
      type: "xavier"
    }
    bias_filler {
   
I0802 15:29:42.408304 20651 layer_factory.hpp:77] Creating layer data
I0802 15:29:42.408773 20651 net.cpp:91] Creating Layer data
I0802 15:29:42.408807 20651 net.cpp:399] data -> data
I0802 15:29:42.408838 20651 net.cpp:399] data -> label
I0802 15:29:42.408854 20651 data_transformer.cpp:25] Loading mean file from: examples/scene/scene_mean.binaryproto
I0802 15:29:42.410056 20657 db_lmdb.cpp:35] Opened lmdb examples/scene/scene_train7_pairs_20000.lmdb
I0802 15:29:42.431869 20651 data_layer.cpp:41] output data size: 100,6,128,128
I0802 15:29:42.530926 20651 net.cpp:141] Setting up data
I0802 15:29:42.530961 20651 net.cpp:148] Top shape: 100 6 128 128 (9830400)
I0802 15:29:42.530977 20651 net.cpp:148] Top shape: 100 (100)
I0802 15:29:42.530982 20651 net.cpp:156] Memory required for data: 39322000
I0802 15:29:42.530997 20651 layer_factory.hpp:77] Creating layer label_data_1_split
I0802 15:29:42.531029 20651 net.cpp:91] Creating Layer label_data_1_split
I0802 15:29:42.531038 20651 net.cpp:425] label_data_1_split <- label
I0802 15:29:42.531054 20651 net.cpp:399] label_data_1_split -> label_data_1_split_0
I0802 15:29:42.531069 20651 net.cpp:399] label_data_1_split -> label_data_1_split_1
I0802 15:29:42.531191 20651 net.cpp:141] Setting up label_data_1_split
I0802 15:29:42.531203 20651 net.cpp:148] Top shape: 100 (100)
I0802 15:29:42.531213 20651 net.cpp:148] Top shape: 100 (100)
I0802 15:29:42.531219 20651 net.cpp:156] Memory required for data: 39322800
I0802 15:29:42.531229 20651 layer_factory.hpp:77] Creating layer i1
I0802 15:29:42.531247 20651 net.cpp:91] Creating Layer i1
I0802 15:29:42.531255 20651 net.cpp:425] i1 <- data
I0802 15:29:42.531266 20651 net.cpp:399] i1 -> i1
I0802 15:29:42.531291 20651 net.cpp:399] i1 -> i2
I0802 15:29:42.531355 20651 net.cpp:141] Setting up i1
I0802 15:29:42.531374 20651 net.cpp:148] Top shape: 100 3 128 128 (4915200)
I0802 15:29:42.531384 20651 net.cpp:148] Top shape: 100 3 128 128 (4915200)
I0802 15:29:42.531393 20651 net.cpp:156] Memory required for data: 78644400
I0802 15:29:42.531400 20651 layer_factory.hpp:77] Creating layer i1_i1_0_split
I0802 15:29:42.531411 20651 net.cpp:91] Creating Layer i1_i1_0_split
I0802 15:29:42.531441 20651 net.cpp:425] i1_i1_0_split <- i1
I0802 15:29:42.531453 20651 net.cpp:399] i1_i1_0_split -> i1_i1_0_split_0
I0802 15:29:42.531467 20651 net.cpp:399] i1_i1_0_split -> i1_i1_0_split_1
I0802 15:29:42.531482 20651 net.cpp:399] i1_i1_0_split -> i1_i1_0_split_2
I0802 15:29:42.531498 20651 net.cpp:399] i1_i1_0_split -> i1_i1_0_split_3
I0802 15:29:42.531512 20651 net.cpp:399] i1_i1_0_split -> i1_i1_0_split_4
I0802 15:29:42.531525 20651 net.cpp:399] i1_i1_0_split -> i1_i1_0_split_5
I0802 15:29:42.531538 20651 net.cpp:399] i1_i1_0_split -> i1_i1_0_split_6
I0802 15:29:42.531553 20651 net.cpp:399] i1_i1_0_split -> i1_i1_0_split_7
I0802 15:29:42.531566 20651 net.cpp:399] i1_i1_0_split -> i1_i1_0_split_8
I0802 15:29:42.531579 20651 net.cpp:399] i1_i1_0_split -> i1_i1_0_split_9
I0802 15:29:42.531762 20651 net.cpp:141] Setting up i1_i1_0_split
I0802 15:29:42.531774 20651 net.cpp:148] Top shape: 100 3 128 128 (4915200)
I0802 15:29:42.531780 20651 net.cpp:148] Top shape: 100 3 128 128 (4915200)
I0802 15:29:42.531788 20651 net.cpp:148] Top shape: 100 3 128 128 (4915200)
I0802 15:29:42.531800 20651 net.cpp:148] Top shape: 100 3 128 128 (4915200)
I0802 15:29:42.531808 20651 net.cpp:148] Top shape: 100 3 128 128 (4915200)
I0802 15:29:42.531817 20651 net.cpp:148] Top shape: 100 3 128 128 (4915200)
I0802 15:29:42.531826 20651 net.cpp:148] Top shape: 100 3 128 128 (4915200)
I0802 15:29:42.531836 20651 net.cpp:148] Top shape: 100 3 128 128 (4915200)
I0802 15:29:42.531846 20651 net.cpp:148] Top shape: 100 3 128 128 (4915200)
I0802 15:29:42.531854 20651 net.cpp:148] Top shape: 100 3 128 128 (4915200)
I0802 15:29:42.531862 20651 net.cpp:156] Memory required for data: 275252400
I0802 15:29:42.531868 20651 layer_factory.hpp:77] Creating layer i2_i1_1_split
I0802 15:29:42.531880 20651 net.cpp:91] Creating Layer i2_i1_1_split
I0802 15:29:42.531888 20651 net.cpp:425] i2_i1_1_split <- i2
I0802 15:29:42.531899 20651 net.cpp:399] i2_i1_1_split -> i2_i1_1_split_0
I0802 15:29:42.531915 20651 net.cpp:399] i2_i1_1_split -> i2_i1_1_split_1
I0802 15:29:42.531929 20651 net.cpp:399] i2_i1_1_split -> i2_i1_1_split_2
I0802 15:29:42.531944 20651 net.cpp:399] i2_i1_1_split -> i2_i1_1_split_3
I0802 15:29:42.531956 20651 net.cpp:399] i2_i1_1_split -> i2_i1_1_split_4
I0802 15:29:42.531970 20651 net.cpp:399] i2_i1_1_split -> i2_i1_1_split_5
I0802 15:29:42.531985 20651 net.cpp:399] i2_i1_1_split -> i2_i1_1_split_6
I0802 15:29:42.531997 20651 net.cpp:399] i2_i1_1_split -> i2_i1_1_split_7
I0802 15:29:42.532009 20651 net.cpp:399] i2_i1_1_split -> i2_i1_1_split_8
I0802 15:29:42.532023 20651 net.cpp:399] i2_i1_1_split -> i2_i1_1_split_9
I0802 15:29:42.532187 20651 net.cpp:141] Setting up i2_i1_1_split
I0802 15:29:42.532198 20651 net.cpp:148] Top shape: 100 3 128 128 (4915200)
I0802 15:29:42.532205 20651 net.cpp:148] Top shape: 100 3 128 128 (4915200)
I0802 15:29:42.532217 20651 net.cpp:148] Top shape: 100 3 128 128 (4915200)
I0802 15:29:42.532227 20651 net.cpp:148] Top shape: 100 3 128 128 (4915200)
I0802 15:29:42.532235 20651 net.cpp:148] Top shape: 100 3 128 128 (4915200)
I0802 15:29:42.532243 20651 net.cpp:148] Top shape: 100 3 128 128 (4915200)
I0802 15:29:42.532250 20651 net.cpp:148] Top shape: 100 3 128 128 (4915200)
I0802 15:29:42.532258 20651 net.cpp:148] Top shape: 100 3 128 128 (4915200)
I0802 15:29:42.532264 20651 net.cpp:148] Top shape: 100 3 128 128 (4915200)
I0802 15:29:42.532271 20651 net.cpp:148] Top shape: 100 3 128 128 (4915200)
I0802 15:29:42.532277 20651 net.cpp:156] Memory required for data: 471860400
I0802 15:29:42.532284 20651 layer_factory.hpp:77] Creating layer p1
I0802 15:29:42.532294 20651 net.cpp:91] Creating Layer p1
I0802 15:29:42.532300 20651 net.cpp:425] p1 <- i1_i1_0_split_0
I0802 15:29:42.532310 20651 net.cpp:399] p1 -> p1
I0802 15:29:42.532366 20651 net.cpp:141] Setting up p1
I0802 15:29:42.532374 20651 net.cpp:148] Top shape: 100 3 64 64 (1228800)
I0802 15:29:42.532380 20651 net.cpp:156] Memory required for data: 476775600
I0802 15:29:42.532387 20651 layer_factory.hpp:77] Creating layer p1_p1_0_split
I0802 15:29:42.532407 20651 net.cpp:91] Creating Layer p1_p1_0_split
I0802 15:29:42.532413 20651 net.cpp:425] p1_p1_0_split <- p1
I0802 15:29:42.532423 20651 net.cpp:399] p1_p1_0_split -> p1_p1_0_split_0
I0802 15:29:42.532434 20651 net.cpp:399] p1_p1_0_split -> p1_p1_0_split_1
I0802 15:29:42.532445 20651 net.cpp:399] p1_p1_0_split -> p1_p1_0_split_2
I0802 15:29:42.532457 20651 net.cpp:399] p1_p1_0_split -> p1_p1_0_split_3
I0802 15:29:42.532467 20651 net.cpp:399] p1_p1_0_split -> p1_p1_0_split_4
I0802 15:29:42.532480 20651 net.cpp:399] p1_p1_0_split -> p1_p1_0_split_5
I0802 15:29:42.532493 20651 net.cpp:399] p1_p1_0_split -> p1_p1_0_split_6
I0802 15:29:42.532505 20651 net.cpp:399] p1_p1_0_split -> p1_p1_0_split_7
I0802 15:29:42.532515 20651 net.cpp:399] p1_p1_0_split -> p1_p1_0_split_8
I0802 15:29:42.532526 20651 net.cpp:399] p1_p1_0_split -> p1_p1_0_split_9
I0802 15:29:42.539263 20651 net.cpp:141] Setting up p1_p1_0_split
I0802 15:29:42.539299 20651 net.cpp:148] Top shape: 100 3 64 64 (1228800)
I0802 15:29:42.539309 20651 net.cpp:148] Top shape: 100 3 64 64 (1228800)
I0802 15:29:42.539319 20651 net.cpp:148] Top shape: 100 3 64 64 (1228800)
I0802 15:29:42.539330 20651 net.cpp:148] Top shape: 100 3 64 64 (1228800)
I0802 15:29:42.539340 20651 net.cpp:148] Top shape: 100 3 64 64 (1228800)
I0802 15:29:42.539352 20651 net.cpp:148] Top shape: 100 3 64 64 (1228800)
I0802 15:29:42.539363 20651 net.cpp:148] Top shape: 100 3 64 64 (1228800)
I0802 15:29:42.539374 20651 net.cpp:148] Top shape: 100 3 64 64 (1228800)
I0802 15:29:42.539386 20651 net.cpp:148] Top shape: 100 3 64 64 (1228800)
I0802 15:29:42.539397 20651 net.cpp:148] Top shape: 100 3 64 64 (1228800)
I0802 15:29:42.539405 20651 net.cpp:156] Memory required for data: 525927600
I0802 15:29:42.539413 20651 layer_factory.hpp:77] Creating layer p2
I0802 15:29:42.539427 20651 net.cpp:91] Creating Layer p2
I0802 15:29:42.539438 20651 net.cpp:425] p2 <- i2_i1_1_split_0
I0802 15:29:42.539453 20651 net.cpp:399] p2 -> p2
I0802 15:29:42.539505 20651 net.cpp:141] Setting up p2
I0802 15:29:42.539518 20651 net.cpp:148] Top shape: 100 3 64 64 (1228800)
I0802 15:29:42.539527 20651 net.cpp:156] Memory required for data: 530842800
I0802 15:29:42.539536 20651 layer_factory.hpp:77] Creating layer p2_p2_0_split
I0802 15:29:42.539551 20651 net.cpp:91] Creating Layer p2_p2_0_split
I0802 15:29:42.539558 20651 net.cpp:425] p2_p2_0_split <- p2
I0802 15:29:42.539572 20651 net.cpp:399] p2_p2_0_split -> p2_p2_0_split_0
I0802 15:29:42.539587 20651 net.cpp:399] p2_p2_0_split -> p2_p2_0_split_1
I0802 15:29:42.539608 20651 net.cpp:399] p2_p2_0_split -> p2_p2_0_split_2
I0802 15:29:42.539626 20651 net.cpp:399] p2_p2_0_split -> p2_p2_0_split_3
I0802 15:29:42.539647 20651 net.cpp:399] p2_p2_0_split -> p2_p2_0_split_4
I0802 15:29:42.539667 20651 net.cpp:399] p2_p2_0_split -> p2_p2_0_split_5
I0802 15:29:42.539683 20651 net.cpp:399] p2_p2_0_split -> p2_p2_0_split_6
I0802 15:29:42.539700 20651 net.cpp:399] p2_p2_0_split -> p2_p2_0_split_7
I0802 15:29:42.539716 20651 net.cpp:399] p2_p2_0_split -> p2_p2_0_split_8
I0802 15:29:42.539731 20651 net.cpp:399] p2_p2_0_split -> p2_p2_0_split_9
I0802 15:29:42.539961 20651 net.cpp:141] Setting up p2_p2_0_split
I0802 15:29:42.539975 20651 net.cpp:148] Top shape: 100 3 64 64 (1228800)
I0802 15:29:42.539984 20651 net.cpp:148] Top shape: 100 3 64 64 (1228800)
I0802 15:29:42.539994 20651 net.cpp:148] Top shape: 100 3 64 64 (1228800)
I0802 15:29:42.540006 20651 net.cpp:148] Top shape: 100 3 64 64 (1228800)
I0802 15:29:42.540017 20651 net.cpp:148] Top shape: 100 3 64 64 (1228800)
I0802 15:29:42.540026 20651 net.cpp:148] Top shape: 100 3 64 64 (1228800)
I0802 15:29:42.540035 20651 net.cpp:148] Top shape: 100 3 64 64 (1228800)
I0802 15:29:42.540045 20651 net.cpp:148] Top shape: 100 3 64 64 (1228800)
I0802 15:29:42.540056 20651 net.cpp:148] Top shape: 100 3 64 64 (1228800)
I0802 15:29:42.540066 20651 net.cpp:148] Top shape: 100 3 64 64 (1228800)
I0802 15:29:42.540074 20651 net.cpp:156] Memory required for data: 579994800
I0802 15:29:42.540091 20651 layer_factory.hpp:77] Creating layer Input1
I0802 15:29:42.540138 20651 net.cpp:91] Creating Layer Input1
I0802 15:29:42.540155 20651 net.cpp:399] Input1 -> Input1
I0802 15:29:42.540215 20651 net.cpp:141] Setting up Input1
I0802 15:29:42.540228 20651 net.cpp:148] Top shape: 100 3 64 64 (1228800)
I0802 15:29:42.540240 20651 net.cpp:156] Memory required for data: 584910000
I0802 15:29:42.540251 20651 layer_factory.hpp:77] Creating layer c11
I0802 15:29:42.540272 20651 net.cpp:91] Creating Layer c11
I0802 15:29:42.540288 20651 net.cpp:425] c11 <- i1_i1_0_split_1
I0802 15:29:42.540302 20651 net.cpp:425] c11 <- Input1
I0802 15:29:42.540323 20651 net.cpp:399] c11 -> c11
I0802 15:29:42.540383 20651 net.cpp:141] Setting up c11
I0802 15:29:42.540400 20651 net.cpp:148] Top shape: 100 3 64 64 (1228800)
I0802 15:29:42.540412 20651 net.cpp:156] Memory required for data: 589825200
I0802 15:29:42.540424 20651 layer_factory.hpp:77] Creating layer Input2
I0802 15:29:42.540439 20651 net.cpp:91] Creating Layer Input2
I0802 15:29:42.540457 20651 net.cpp:399] Input2 -> Input2
I0802 15:29:42.540503 20651 net.cpp:141] Setting up Input2
I0802 15:29:42.540518 20651 net.cpp:148] Top shape: 100 3 64 64 (1228800)
I0802 15:29:42.540525 20651 net.cpp:156] Memory required for data: 594740400
I0802 15:29:42.540534 20651 layer_factory.hpp:77] Creating layer c12
I0802 15:29:42.540546 20651 net.cpp:91] Creating Layer c12
I0802 15:29:42.540555 20651 net.cpp:425] c12 <- i1_i1_0_split_2
I0802 15:29:42.540566 20651 net.cpp:425] c12 <- Input2
I0802 15:29:42.540580 20651 net.cpp:399] c12 -> c12
I0802 15:29:42.540619 20651 net.cpp:141] Setting up c12
I0802 15:29:42.540634 20651 net.cpp:148] Top shape: 100 3 64 64 (1228800)
I0802 15:29:42.540642 20651 net.cpp:156] Memory required for data: 599655600
I0802 15:29:42.540650 20651 layer_factory.hpp:77] Creating layer Input3
I0802 15:29:42.540663 20651 net.cpp:91] Creating Layer Input3
I0802 15:29:42.540674 20651 net.cpp:399] Input3 -> Input3
I0802 15:29:42.540714 20651 net.cpp:141] Setting up Input3
I0802 15:29:42.540729 20651 net.cpp:148] Top shape: 100 3 64 64 (1228800)
I0802 15:29:42.540736 20651 net.cpp:156] Memory required for data: 604570800
I0802 15:29:42.540745 20651 layer_factory.hpp:77] Creating layer c13
I0802 15:29:42.540756 20651 net.cpp:91] Creating Layer c13
I0802 15:29:42.540766 20651 net.cpp:425] c13 <- i1_i1_0_split_3
I0802 15:29:42.540776 20651 net.cpp:425] c13 <- Input3
I0802 15:29:42.540789 20651 net.cpp:399] c13 -> c13
I0802 15:29:42.540828 20651 net.cpp:141] Setting up c13
I0802 15:29:42.540843 20651 net.cpp:148] Top shape: 100 3 64 64 (1228800)
I0802 15:29:42.540850 20651 net.cpp:156] Memory required for data: 609486000
I0802 15:29:42.540858 20651 layer_factory.hpp:77] Creating layer Input4
I0802 15:29:42.540870 20651 net.cpp:91] Creating Layer Input4
I0802 15:29:42.540881 20651 net.cpp:399] Input4 -> Input4
I0802 15:29:42.540920 20651 net.cpp:141] Setting up Input4
I0802 15:29:42.540933 20651 net.cpp:148] Top shape: 100 3 64 64 (1228800)
I0802 15:29:42.540942 20651 net.cpp:156] Memory required for data: 614401200
I0802 15:29:42.540951 20651 layer_factory.hpp:77] Creating layer c14
I0802 15:29:42.540966 20651 net.cpp:91] Creating Layer c14
I0802 15:29:42.540974 20651 net.cpp:425] c14 <- i1_i1_0_split_4
I0802 15:29:42.540985 20651 net.cpp:425] c14 <- Input4
I0802 15:29:42.540998 20651 net.cpp:399] c14 -> c14
I0802 15:29:42.541040 20651 net.cpp:141] Setting up c14
I0802 15:29:42.541054 20651 net.cpp:148] Top shape: 100 3 64 64 (1228800)
I0802 15:29:42.541062 20651 net.cpp:156] Memory required for data: 619316400
I0802 15:29:42.541070 20651 layer_factory.hpp:77] Creating layer Input5
I0802 15:29:42.541084 20651 net.cpp:91] Creating Layer Input5
I0802 15:29:42.541095 20651 net.cpp:399] Input5 -> Input5
I0802 15:29:42.541133 20651 net.cpp:141] Setting up Input5
I0802 15:29:42.541144 20651 net.cpp:148] Top shape: 100 3 64 64 (1228800)
I0802 15:29:42.541152 20651 net.cpp:156] Memory required for data: 624231600
I0802 15:29:42.541162 20651 layer_factory.hpp:77] Creating layer c15
I0802 15:29:42.541172 20651 net.cpp:91] Creating Layer c15
I0802 15:29:42.541199 20651 net.cpp:425] c15 <- i1_i1_0_split_5
I0802 15:29:42.541210 20651 net.cpp:425] c15 <- Input5
I0802 15:29:42.541227 20651 net.cpp:399] c15 -> c15
I0802 15:29:42.541278 20651 net.cpp:141] Setting up c15
I0802 15:29:42.541297 20651 net.cpp:148] Top shape: 100 3 64 64 (1228800)
I0802 15:29:42.541307 20651 net.cpp:156] Memory required for data: 629146800
I0802 15:29:42.541316 20651 layer_factory.hpp:77] Creating layer Input6
I0802 15:29:42.541332 20651 net.cpp:91] Creating Layer Input6
I0802 15:29:42.541345 20651 net.cpp:399] Input6 -> Input6
I0802 15:29:42.541393 20651 net.cpp:141] Setting up Input6
I0802 15:29:42.541410 20651 net.cpp:148] Top shape: 100 3 64 64 (1228800)
I0802 15:29:42.541425 20651 net.cpp:156] Memory required for data: 634062000
I0802 15:29:42.541513 20651 layer_factory.hpp:77] Creating layer c16
I0802 15:29:42.541534 20651 net.cpp:91] Creating Layer c16
I0802 15:29:42.541545 20651 net.cpp:425] c16 <- i1_i1_0_split_6
I0802 15:29:42.541558 20651 net.cpp:425] c16 <- Input6
I0802 15:29:42.541574 20651 net.cpp:399] c16 -> c16
I0802 15:29:42.541627 20651 net.cpp:141] Setting up c16
I0802 15:29:42.541646 20651 net.cpp:148] Top shape: 100 3 64 64 (1228800)
I0802 15:29:42.541657 20651 net.cpp:156] Memory required for data: 638977200
I0802 15:29:42.541668 20651 layer_factory.hpp:77] Creating layer Input7
I0802 15:29:42.541684 20651 net.cpp:91] Creating Layer Input7
I0802 15:29:42.541700 20651 net.cpp:399] Input7 -> Input7
I0802 15:29:42.541746 20651 net.cpp:141] Setting up Input7
I0802 15:29:42.541764 20651 net.cpp:148] Top shape: 100 3 64 64 (1228800)
I0802 15:29:42.541776 20651 net.cpp:156] Memory required for data: 643892400
I0802 15:29:42.541787 20651 layer_factory.hpp:77] Creating layer c17
I0802 15:29:42.541802 20651 net.cpp:91] Creating Layer c17
I0802 15:29:42.541815 20651 net.cpp:425] c17 <- i1_i1_0_split_7
I0802 15:29:42.541831 20651 net.cpp:425] c17 <- Input7
I0802 15:29:42.541849 20651 net.cpp:399] c17 -> c17
I0802 15:29:42.541904 20651 net.cpp:141] Setting up c17
I0802 15:29:42.541923 20651 net.cpp:148] Top shape: 100 3 64 64 (1228800)
I0802 15:29:42.542016 20651 net.cpp:156] Memory required for data: 648807600
I0802 15:29:42.542033 20651 layer_factory.hpp:77] Creating layer Input8
I0802 15:29:42.542049 20651 net.cpp:91] Creating Layer Input8
I0802 15:29:42.542067 20651 net.cpp:399] Input8 -> Input8
I0802 15:29:42.542125 20651 net.cpp:141] Setting up Input8
I0802 15:29:42.542145 20651 net.cpp:148] Top shape: 100 3 64 64 (1228800)
I0802 15:29:42.542157 20651 net.cpp:156] Memory required for data: 653722800
I0802 15:29:42.542167 20651 layer_factory.hpp:77] Creating layer c18
I0802 15:29:42.542183 20651 net.cpp:91] Creating Layer c18
I0802 15:29:42.542199 20651 net.cpp:425] c18 <- i1_i1_0_split_8
I0802 15:29:42.542213 20651 net.cpp:425] c18 <- Input8
I0802 15:29:42.542233 20651 net.cpp:399] c18 -> c18
I0802 15:29:42.542290 20651 net.cpp:141] Setting up c18
I0802 15:29:42.542310 20651 net.cpp:148] Top shape: 100 3 64 64 (1228800)
I0802 15:29:42.542325 20651 net.cpp:156] Memory required for data: 658638000
I0802 15:29:42.542336 20651 layer_factory.hpp:77] Creating layer Input9
I0802 15:29:42.542356 20651 net.cpp:91] Creating Layer Input9
I0802 15:29:42.542374 20651 net.cpp:399] Input9 -> Input9
I0802 15:29:42.542449 20651 net.cpp:141] Setting up Input9
I0802 15:29:42.542471 20651 net.cpp:148] Top shape: 100 3 64 64 (1228800)
I0802 15:29:42.542482 20651 net.cpp:156] Memory required for data: 663553200
I0802 15:29:42.542495 20651 layer_factory.hpp:77] Creating layer c19
I0802 15:29:42.542510 20651 net.cpp:91] Creating Layer c19
I0802 15:29:42.542522 20651 net.cpp:425] c19 <- i1_i1_0_split_9
I0802 15:29:42.542541 20651 net.cpp:425] c19 <- Input9
I0802 15:29:42.542558 20651 net.cpp:399] c19 -> c19
I0802 15:29:42.542616 20651 net.cpp:141] Setting up c19
I0802 15:29:42.542635 20651 net.cpp:148] Top shape: 100 3 64 64 (1228800)
I0802 15:29:42.542646 20651 net.cpp:156] Memory required for data: 668468400
I0802 15:29:42.542657 20651 layer_factory.hpp:77] Creating layer Input10
I0802 15:29:42.542697 20651 net.cpp:91] Creating Layer Input10
I0802 15:29:42.542714 20651 net.cpp:399] Input10 -> Input10
I0802 15:29:42.542770 20651 net.cpp:141] Setting up Input10
I0802 15:29:42.542796 20651 net.cpp:148] Top shape: 100 3 64 64 (1228800)
I0802 15:29:42.542820 20651 net.cpp:156] Memory required for data: 673383600
I0802 15:29:42.542845 20651 layer_factory.hpp:77] Creating layer c21
I0802 15:29:42.542870 20651 net.cpp:91] Creating Layer c21
I0802 15:29:42.542887 20651 net.cpp:425] c21 <- i2_i1_1_split_1
I0802 15:29:42.542902 20651 net.cpp:425] c21 <- Input10
I0802 15:29:42.542919 20651 net.cpp:399] c21 -> c21
I0802 15:29:42.542973 20651 net.cpp:141] Setting up c21
I0802 15:29:42.542992 20651 net.cpp:148] Top shape: 100 3 64 64 (1228800)
I0802 15:29:42.543006 20651 net.cpp:156] Memory required for data: 678298800
I0802 15:29:42.543017 20651 layer_factory.hpp:77] Creating layer Input11
I0802 15:29:42.543033 20651 net.cpp:91] Creating Layer Input11
I0802 15:29:42.543051 20651 net.cpp:399] Input11 -> Input11
I0802 15:29:42.543107 20651 net.cpp:141] Setting up Input11
I0802 15:29:42.543124 20651 net.cpp:148] Top shape: 100 3 64 64 (1228800)
I0802 15:29:42.543140 20651 net.cpp:156] Memory required for data: 683214000
I0802 15:29:42.543155 20651 layer_factory.hpp:77] Creating layer c22
I0802 15:29:42.543170 20651 net.cpp:91] Creating Layer c22
I0802 15:29:42.543187 20651 net.cpp:425] c22 <- i2_i1_1_split_2
I0802 15:29:42.543205 20651 net.cpp:425] c22 <- Input11
I0802 15:29:42.543223 20651 net.cpp:399] c22 -> c22
I0802 15:29:42.543292 20651 net.cpp:141] Setting up c22
I0802 15:29:42.543313 20651 net.cpp:148] Top shape: 100 3 64 64 (1228800)
I0802 15:29:42.543328 20651 net.cpp:156] Memory required for data: 688129200
I0802 15:29:42.543339 20651 layer_factory.hpp:77] Creating layer Input12
I0802 15:29:42.543356 20651 net.cpp:91] Creating Layer Input12
I0802 15:29:42.543433 20651 net.cpp:399] Input12 -> Input12
I0802 15:29:42.543485 20651 net.cpp:141] Setting up Input12
I0802 15:29:42.543499 20651 net.cpp:148] Top shape: 100 3 64 64 (1228800)
I0802 15:29:42.543509 20651 net.cpp:156] Memory required for data: 693044400
I0802 15:29:42.543516 20651 layer_factory.hpp:77] Creating layer c23
I0802 15:29:42.543536 20651 net.cpp:91] Creating Layer c23
I0802 15:29:42.543547 20651 net.cpp:425] c23 <- i2_i1_1_split_3
I0802 15:29:42.543560 20651 net.cpp:425] c23 <- Input12
I0802 15:29:42.543573 20651 net.cpp:399] c23 -> c23
I0802 15:29:42.543617 20651 net.cpp:141] Setting up c23
I0802 15:29:42.543632 20651 net.cpp:148] Top shape: 100 3 64 64 (1228800)
I0802 15:29:42.543639 20651 net.cpp:156] Memory required for data: 697959600
I0802 15:29:42.543648 20651 layer_factory.hpp:77] Creating layer Input13
I0802 15:29:42.543659 20651 net.cpp:91] Creating Layer Input13
I0802 15:29:42.543670 20651 net.cpp:399] Input13 -> Input13
I0802 15:29:42.543710 20651 net.cpp:141] Setting up Input13
I0802 15:29:42.543725 20651 net.cpp:148] Top shape: 100 3 64 64 (1228800)
I0802 15:29:42.543732 20651 net.cpp:156] Memory required for data: 702874800
I0802 15:29:42.543740 20651 layer_factory.hpp:77] Creating layer c24
I0802 15:29:42.543751 20651 net.cpp:91] Creating Layer c24
I0802 15:29:42.543761 20651 net.cpp:425] c24 <- i2_i1_1_split_4
I0802 15:29:42.543772 20651 net.cpp:425] c24 <- Input13
I0802 15:29:42.543787 20651 net.cpp:399] c24 -> c24
I0802 15:29:42.543828 20651 net.cpp:141] Setting up c24
I0802 15:29:42.543838 20651 net.cpp:148] Top shape: 100 3 64 64 (1228800)
I0802 15:29:42.543846 20651 net.cpp:156] Memory required for data: 707790000
I0802 15:29:42.543854 20651 layer_factory.hpp:77] Creating layer Input14
I0802 15:29:42.543866 20651 net.cpp:91] Creating Layer Input14
I0802 15:29:42.543877 20651 net.cpp:399] Input14 -> Input14
I0802 15:29:42.543917 20651 net.cpp:141] Setting up Input14
I0802 15:29:42.543931 20651 net.cpp:148] Top shape: 100 3 64 64 (1228800)
I0802 15:29:42.543939 20651 net.cpp:156] Memory required for data: 712705200
I0802 15:29:42.543947 20651 layer_factory.hpp:77] Creating layer c25
I0802 15:29:42.543958 20651 net.cpp:91] Creating Layer c25
I0802 15:29:42.543989 20651 net.cpp:425] c25 <- i2_i1_1_split_5
I0802 15:29:42.544001 20651 net.cpp:425] c25 <- Input14
I0802 15:29:42.544014 20651 net.cpp:399] c25 -> c25
I0802 15:29:42.544059 20651 net.cpp:141] Setting up c25
I0802 15:29:42.544071 20651 net.cpp:148] Top shape: 100 3 64 64 (1228800)
I0802 15:29:42.544080 20651 net.cpp:156] Memory required for data: 717620400
I0802 15:29:42.544087 20651 layer_factory.hpp:77] Creating layer Input15
I0802 15:29:42.544100 20651 net.cpp:91] Creating Layer Input15
I0802 15:29:42.544111 20651 net.cpp:399] Input15 -> Input15
I0802 15:29:42.544150 20651 net.cpp:141] Setting up Input15
I0802 15:29:42.544164 20651 net.cpp:148] Top shape: 100 3 64 64 (1228800)
I0802 15:29:42.544173 20651 net.cpp:156] Memory required for data: 722535600
I0802 15:29:42.544180 20651 layer_factory.hpp:77] Creating layer c26
I0802 15:29:42.544191 20651 net.cpp:91] Creating Layer c26
I0802 15:29:42.544200 20651 net.cpp:425] c26 <- i2_i1_1_split_6
I0802 15:29:42.544211 20651 net.cpp:425] c26 <- Input15
I0802 15:29:42.544224 20651 net.cpp:399] c26 -> c26
I0802 15:29:42.544266 20651 net.cpp:141] Setting up c26
I0802 15:29:42.544276 20651 net.cpp:148] Top shape: 100 3 64 64 (1228800)
I0802 15:29:42.544284 20651 net.cpp:156] Memory required for data: 727450800
I0802 15:29:42.544293 20651 layer_factory.hpp:77] Creating layer Input16
I0802 15:29:42.544306 20651 net.cpp:91] Creating Layer Input16
I0802 15:29:42.544317 20651 net.cpp:399] Input16 -> Input16
I0802 15:29:42.544355 20651 net.cpp:141] Setting up Input16
I0802 15:29:42.544368 20651 net.cpp:148] Top shape: 100 3 64 64 (1228800)
I0802 15:29:42.544376 20651 net.cpp:156] Memory required for data: 732366000
I0802 15:29:42.544384 20651 layer_factory.hpp:77] Creating layer c27
I0802 15:29:42.544396 20651 net.cpp:91] Creating Layer c27
I0802 15:29:42.544405 20651 net.cpp:425] c27 <- i2_i1_1_split_7
I0802 15:29:42.544416 20651 net.cpp:425] c27 <- Input16
I0802 15:29:42.544430 20651 net.cpp:399] c27 -> c27
I0802 15:29:42.544469 20651 net.cpp:141] Setting up c27
I0802 15:29:42.544482 20651 net.cpp:148] Top shape: 100 3 64 64 (1228800)
I0802 15:29:42.544491 20651 net.cpp:156] Memory required for data: 737281200
I0802 15:29:42.544498 20651 layer_factory.hpp:77] Creating layer Input17
I0802 15:29:42.544510 20651 net.cpp:91] Creating Layer Input17
I0802 15:29:42.544522 20651 net.cpp:399] Input17 -> Input17
I0802 15:29:42.544561 20651 net.cpp:141] Setting up Input17
I0802 15:29:42.544575 20651 net.cpp:148] Top shape: 100 3 64 64 (1228800)
I0802 15:29:42.544584 20651 net.cpp:156] Memory required for data: 742196400
I0802 15:29:42.544591 20651 layer_factory.hpp:77] Creating layer c28
I0802 15:29:42.544602 20651 net.cpp:91] Creating Layer c28
I0802 15:29:42.544611 20651 net.cpp:425] c28 <- i2_i1_1_split_8
I0802 15:29:42.544622 20651 net.cpp:425] c28 <- Input17
I0802 15:29:42.544636 20651 net.cpp:399] c28 -> c28
I0802 15:29:42.544675 20651 net.cpp:141] Setting up c28
I0802 15:29:42.544689 20651 net.cpp:148] Top shape: 100 3 64 64 (1228800)
I0802 15:29:42.544697 20651 net.cpp:156] Memory required for data: 747111600
I0802 15:29:42.544705 20651 layer_factory.hpp:77] Creating layer Input18
I0802 15:29:42.544718 20651 net.cpp:91] Creating Layer Input18
I0802 15:29:42.544728 20651 net.cpp:399] Input18 -> Input18
I0802 15:29:42.544769 20651 net.cpp:141] Setting up Input18
I0802 15:29:42.544780 20651 net.cpp:148] Top shape: 100 3 64 64 (1228800)
I0802 15:29:42.544788 20651 net.cpp:156] Memory required for data: 752026800
I0802 15:29:42.544796 20651 layer_factory.hpp:77] Creating layer c29
I0802 15:29:42.544808 20651 net.cpp:91] Creating Layer c29
I0802 15:29:42.544817 20651 net.cpp:425] c29 <- i2_i1_1_split_9
I0802 15:29:42.544828 20651 net.cpp:425] c29 <- Input18
I0802 15:29:42.544842 20651 net.cpp:399] c29 -> c29
I0802 15:29:42.544884 20651 net.cpp:141] Setting up c29
I0802 15:29:42.544898 20651 net.cpp:148] Top shape: 100 3 64 64 (1228800)
I0802 15:29:42.544905 20651 net.cpp:156] Memory required for data: 756942000
I0802 15:29:42.544914 20651 layer_factory.hpp:77] Creating layer Convolution1
I0802 15:29:42.544953 20651 net.cpp:91] Creating Layer Convolution1
I0802 15:29:42.544965 20651 net.cpp:425] Convolution1 <- p1_p1_0_split_0
I0802 15:29:42.544981 20651 net.cpp:399] Convolution1 -> Convolution1
I0802 15:29:42.546321 20651 net.cpp:141] Setting up Convolution1
I0802 15:29:42.546344 20651 net.cpp:148] Top shape: 100 20 60 60 (7200000)
I0802 15:29:42.546352 20651 net.cpp:156] Memory required for data: 785742000
I0802 15:29:42.546375 20651 layer_factory.hpp:77] Creating layer Pooling1
I0802 15:29:42.546392 20651 net.cpp:91] Creating Layer Pooling1
I0802 15:29:42.546403 20651 net.cpp:425] Pooling1 <- Convolution1
I0802 15:29:42.546417 20651 net.cpp:399] Pooling1 -> Pooling1
I0802 15:29:42.546486 20651 net.cpp:141] Setting up Pooling1
I0802 15:29:42.546501 20651 net.cpp:148] Top shape: 100 20 30 30 (1800000)
I0802 15:29:42.546510 20651 net.cpp:156] Memory required for data: 792942000
I0802 15:29:42.546519 20651 layer_factory.hpp:77] Creating layer Convolution2
I0802 15:29:42.546535 20651 net.cpp:91] Creating Layer Convolution2
I0802 15:29:42.546545 20651 net.cpp:425] Convolution2 <- Pooling1
I0802 15:29:42.546560 20651 net.cpp:399] Convolution2 -> Convolution2
I0802 15:29:42.548511 20651 net.cpp:141] Setting up Convolution2
I0802 15:29:42.548532 20651 net.cpp:148] Top shape: 100 50 26 26 (3380000)
I0802 15:29:42.548538 20651 net.cpp:156] Memory required for data: 806462000
I0802 15:29:42.548552 20651 layer_factory.hpp:77] Creating layer Pooling2
I0802 15:29:42.548564 20651 net.cpp:91] Creating Layer Pooling2
I0802 15:29:42.548573 20651 net.cpp:425] Pooling2 <- Convolution2
I0802 15:29:42.548583 20651 net.cpp:399] Pooling2 -> Pooling2
I0802 15:29:42.548637 20651 net.cpp:141] Setting up Pooling2
I0802 15:29:42.548647 20651 net.cpp:148] Top shape: 100 50 13 13 (845000)
I0802 15:29:42.548655 20651 net.cpp:156] Memory required for data: 809842000
I0802 15:29:42.548661 20651 layer_factory.hpp:77] Creating layer InnerProduct1
I0802 15:29:42.548673 20651 net.cpp:91] Creating Layer InnerProduct1
I0802 15:29:42.548681 20651 net.cpp:425] InnerProduct1 <- Pooling2
I0802 15:29:42.548693 20651 net.cpp:399] InnerProduct1 -> InnerProduct1
I0802 15:29:42.557909 20651 net.cpp:141] Setting up InnerProduct1
I0802 15:29:42.557945 20651 net.cpp:148] Top shape: 100 100 (10000)
I0802 15:29:42.557952 20651 net.cpp:156] Memory required for data: 809882000
I0802 15:29:42.557976 20651 layer_factory.hpp:77] Creating layer ReLU1
I0802 15:29:42.557991 20651 net.cpp:91] Creating Layer ReLU1
I0802 15:29:42.558001 20651 net.cpp:425] ReLU1 <- InnerProduct1
I0802 15:29:42.558012 20651 net.cpp:386] ReLU1 -> InnerProduct1 (in-place)
I0802 15:29:42.558027 20651 net.cpp:141] Setting up ReLU1
I0802 15:29:42.558035 20651 net.cpp:148] Top shape: 100 100 (10000)
I0802 15:29:42.558042 20651 net.cpp:156] Memory required for data: 809922000
I0802 15:29:42.558048 20651 layer_factory.hpp:77] Creating layer InnerProduct2
I0802 15:29:42.558060 20651 net.cpp:91] Creating Layer InnerProduct2
I0802 15:29:42.558068 20651 net.cpp:425] InnerProduct2 <- InnerProduct1
I0802 15:29:42.558079 20651 net.cpp:399] InnerProduct2 -> InnerProduct2
I0802 15:29:42.558993 20651 net.cpp:141] Setting up InnerProduct2
I0802 15:29:42.559005 20651 net.cpp:148] Top shape: 100 50 (5000)
I0802 15:29:42.559012 20651 net.cpp:156] Memory required for data: 809942000
I0802 15:29:42.559022 20651 layer_factory.hpp:77] Creating layer Convolution3
I0802 15:29:42.559038 20651 net.cpp:91] Creating Layer Convolution3
I0802 15:29:42.559046 20651 net.cpp:425] Convolution3 <- p2_p2_0_split_0
I0802 15:29:42.559058 20651 net.cpp:399] Convolution3 -> Convolution3
I0802 15:29:42.559439 20651 net.cpp:141] Setting up Convolution3
I0802 15:29:42.559448 20651 net.cpp:148] Top shape: 100 20 60 60 (7200000)
I0802 15:29:42.559454 20651 net.cpp:156] Memory required for data: 838742000
I0802 15:29:42.559463 20651 net.cpp:484] Sharing parameters 'conv1_w' owned by layer 'Convolution1', param index 0
I0802 15:29:42.559471 20651 net.cpp:484] Sharing parameters 'conv1_b' owned by layer 'Convolution1', param index 1
I0802 15:29:42.559501 20651 layer_factory.hpp:77] Creating layer Pooling3
I0802 15:29:42.559511 20651 net.cpp:91] Creating Layer Pooling3
I0802 15:29:42.559517 20651 net.cpp:425] Pooling3 <- Convolution3
I0802 15:29:42.559527 20651 net.cpp:399] Pooling3 -> Pooling3
I0802 15:29:42.559573 20651 net.cpp:141] Setting up Pooling3
I0802 15:29:42.559581 20651 net.cpp:148] Top shape: 100 20 30 30 (1800000)
I0802 15:29:42.559587 20651 net.cpp:156] Memory required for data: 845942000
I0802 15:29:42.559592 20651 layer_factory.hpp:77] Creating layer Convolution4
I0802 15:29:42.559604 20651 net.cpp:91] Creating Layer Convolution4
I0802 15:29:42.559610 20651 net.cpp:425] Convolution4 <- Pooling3
I0802 15:29:42.559622 20651 net.cpp:399] Convolution4 -> Convolution4
I0802 15:29:42.560117 20651 net.cpp:141] Setting up Convolution4
I0802 15:29:42.560125 20651 net.cpp:148] Top shape: 100 50 26 26 (3380000)
I0802 15:29:42.560132 20651 net.cpp:156] Memory required for data: 859462000
I0802 15:29:42.560137 20651 net.cpp:484] Sharing parameters 'conv2_w' owned by layer 'Convolution2', param index 0
I0802 15:29:42.560144 20651 net.cpp:484] Sharing parameters 'conv2_b' owned by layer 'Convolution2', param index 1
I0802 15:29:42.560150 20651 layer_factory.hpp:77] Creating layer Pooling4
I0802 15:29:42.560158 20651 net.cpp:91] Creating Layer Pooling4
I0802 15:29:42.560164 20651 net.cpp:425] Pooling4 <- Convolution4
I0802 15:29:42.560173 20651 net.cpp:399] Pooling4 -> Pooling4
I0802 15:29:42.560216 20651 net.cpp:141] Setting up Pooling4
I0802 15:29:42.560223 20651 net.cpp:148] Top shape: 100 50 13 13 (845000)
I0802 15:29:42.560230 20651 net.cpp:156] Memory required for data: 862842000
I0802 15:29:42.560235 20651 layer_factory.hpp:77] Creating layer InnerProduct3
I0802 15:29:42.560245 20651 net.cpp:91] Creating Layer InnerProduct3
I0802 15:29:42.560250 20651 net.cpp:425] InnerProduct3 <- Pooling4
I0802 15:29:42.560261 20651 net.cpp:399] InnerProduct3 -> InnerProduct3
I0802 15:29:42.568675 20651 net.cpp:141] Setting up InnerProduct3
I0802 15:29:42.568711 20651 net.cpp:148] Top shape: 100 100 (10000)
I0802 15:29:42.568719 20651 net.cpp:156] Memory required for data: 862882000
I0802 15:29:42.568733 20651 net.cpp:484] Sharing parameters 'ip1_w' owned by layer 'InnerProduct1', param index 0
I0802 15:29:42.568743 20651 net.cpp:484] Sharing parameters 'ip1_b' owned by layer 'InnerProduct1', param index 1
I0802 15:29:42.568753 20651 layer_factory.hpp:77] Creating layer ReLU2
I0802 15:29:42.568768 20651 net.cpp:91] Creating Layer ReLU2
I0802 15:29:42.568778 20651 net.cpp:425] ReLU2 <- InnerProduct3
I0802 15:29:42.568790 20651 net.cpp:386] ReLU2 -> InnerProduct3 (in-place)
I0802 15:29:42.568806 20651 net.cpp:141] Setting up ReLU2
I0802 15:29:42.568819 20651 net.cpp:148] Top shape: 100 100 (10000)
I0802 15:29:42.568827 20651 net.cpp:156] Memory required for data: 862922000
I0802 15:29:42.568836 20651 layer_factory.hpp:77] Creating layer InnerProduct4
I0802 15:29:42.568852 20651 net.cpp:91] Creating Layer InnerProduct4
I0802 15:29:42.568866 20651 net.cpp:425] InnerProduct4 <- InnerProduct3
I0802 15:29:42.568879 20651 net.cpp:399] InnerProduct4 -> InnerProduct4
I0802 15:29:42.569089 20651 net.cpp:141] Setting up InnerProduct4
I0802 15:29:42.569099 20651 net.cpp:148] Top shape: 100 50 (5000)
I0802 15:29:42.569106 20651 net.cpp:156] Memory required for data: 862942000
I0802 15:29:42.569113 20651 net.cpp:484] Sharing parameters 'ip2_w' owned by layer 'InnerProduct2', param index 0
I0802 15:29:42.569121 20651 net.cpp:484] Sharing parameters 'ip2_b' owned by layer 'InnerProduct2', param index 1
I0802 15:29:42.569128 20651 layer_factory.hpp:77] Creating layer Concat1
I0802 15:29:42.569155 20651 net.cpp:91] Creating Layer Concat1
I0802 15:29:42.569162 20651 net.cpp:425] Concat1 <- InnerProduct2
I0802 15:29:42.569171 20651 net.cpp:425] Concat1 <- InnerProduct4
I0802 15:29:42.569182 20651 net.cpp:399] Concat1 -> Concat1
I0802 15:29:42.569216 20651 net.cpp:141] Setting up Concat1
I0802 15:29:42.569226 20651 net.cpp:148] Top shape: 100 100 (10000)
I0802 15:29:42.569252 20651 net.cpp:156] Memory required for data: 862982000
I0802 15:29:42.569260 20651 layer_factory.hpp:77] Creating layer InnerProduct5
I0802 15:29:42.569272 20651 net.cpp:91] Creating Layer InnerProduct5
I0802 15:29:42.569279 20651 net.cpp:425] InnerProduct5 <- Concat1
I0802 15:29:42.569290 20651 net.cpp:399] InnerProduct5 -> InnerProduct5
I0802 15:29:42.569506 20651 net.cpp:141] Setting up InnerProduct5
I0802 15:29:42.569519 20651 net.cpp:148] Top shape: 100 64 (6400)
I0802 15:29:42.569526 20651 net.cpp:156] Memory required for data: 863007600
I0802 15:29:42.569545 20651 layer_factory.hpp:77] Creating layer ReLU3
I0802 15:29:42.569556 20651 net.cpp:91] Creating Layer ReLU3
I0802 15:29:42.569566 20651 net.cpp:425] ReLU3 <- InnerProduct5
I0802 15:29:42.569577 20651 net.cpp:386] ReLU3 -> InnerProduct5 (in-place)
I0802 15:29:42.569588 20651 net.cpp:141] Setting up ReLU3
I0802 15:29:42.569597 20651 net.cpp:148] Top shape: 100 64 (6400)
I0802 15:29:42.569603 20651 net.cpp:156] Memory required for data: 863033200
I0802 15:29:42.569612 20651 layer_factory.hpp:77] Creating layer InnerProduct6
I0802 15:29:42.569622 20651 net.cpp:91] Creating Layer InnerProduct6
I0802 15:29:42.569630 20651 net.cpp:425] InnerProduct6 <- InnerProduct5
I0802 15:29:42.569643 20651 net.cpp:399] InnerProduct6 -> InnerProduct6
I0802 15:29:42.569840 20651 net.cpp:141] Setting up InnerProduct6
I0802 15:29:42.569857 20651 net.cpp:148] Top shape: 100 32 (3200)
I0802 15:29:42.569869 20651 net.cpp:156] Memory required for data: 863046000
I0802 15:29:42.569881 20651 layer_factory.hpp:77] Creating layer ReLU4
I0802 15:29:42.569891 20651 net.cpp:91] Creating Layer ReLU4
I0802 15:29:42.569900 20651 net.cpp:425] ReLU4 <- InnerProduct6
I0802 15:29:42.569910 20651 net.cpp:386] ReLU4 -> InnerProduct6 (in-place)
I0802 15:29:42.569921 20651 net.cpp:141] Setting up ReLU4
I0802 15:29:42.569931 20651 net.cpp:148] Top shape: 100 32 (3200)
I0802 15:29:42.569939 20651 net.cpp:156] Memory required for data: 863058800
I0802 15:29:42.569947 20651 layer_factory.hpp:77] Creating layer dt0
I0802 15:29:42.569975 20651 net.cpp:91] Creating Layer dt0
I0802 15:29:42.569983 20651 net.cpp:425] dt0 <- InnerProduct6
I0802 15:29:42.569998 20651 net.cpp:399] dt0 -> dt0
I0802 15:29:42.570160 20651 net.cpp:141] Setting up dt0
I0802 15:29:42.570173 20651 net.cpp:148] Top shape: 100 2 (200)
I0802 15:29:42.570180 20651 net.cpp:156] Memory required for data: 863059600
I0802 15:29:42.570193 20651 layer_factory.hpp:77] Creating layer Convolution5
I0802 15:29:42.570211 20651 net.cpp:91] Creating Layer Convolution5
I0802 15:29:42.570221 20651 net.cpp:425] Convolution5 <- p1_p1_0_split_1
I0802 15:29:42.570235 20651 net.cpp:399] Convolution5 -> Convolution5
I0802 15:29:42.570621 20651 net.cpp:141] Setting up Convolution5
I0802 15:29:42.570632 20651 net.cpp:148] Top shape: 100 20 60 60 (7200000)
I0802 15:29:42.570641 20651 net.cpp:156] Memory required for data: 891859600
I0802 15:29:42.570648 20651 net.cpp:484] Sharing parameters 'conv1_w' owned by layer 'Convolution1', param index 0
I0802 15:29:42.570657 20651 net.cpp:484] Sharing parameters 'conv1_b' owned by layer 'Convolution1', param index 1
I0802 15:29:42.570664 20651 layer_factory.hpp:77] Creating layer Pooling5
I0802 15:29:42.570677 20651 net.cpp:91] Creating Layer Pooling5
I0802 15:29:42.570685 20651 net.cpp:425] Pooling5 <- Convolution5
I0802 15:29:42.570696 20651 net.cpp:399] Pooling5 -> Pooling5
I0802 15:29:42.570751 20651 net.cpp:141] Setting up Pooling5
I0802 15:29:42.570761 20651 net.cpp:148] Top shape: 100 20 30 30 (1800000)
I0802 15:29:42.570770 20651 net.cpp:156] Memory required for data: 899059600
I0802 15:29:42.570776 20651 layer_factory.hpp:77] Creating layer Convolution6
I0802 15:29:42.570792 20651 net.cpp:91] Creating Layer Convolution6
I0802 15:29:42.570801 20651 net.cpp:425] Convolution6 <- Pooling5
I0802 15:29:42.570813 20651 net.cpp:399] Convolution6 -> Convolution6
I0802 15:29:42.571444 20651 net.cpp:141] Setting up Convolution6
I0802 15:29:42.571460 20651 net.cpp:148] Top shape: 100 50 26 26 (3380000)
I0802 15:29:42.571487 20651 net.cpp:156] Memory required for data: 912579600
I0802 15:29:42.571496 20651 net.cpp:484] Sharing parameters 'conv2_w' owned by layer 'Convolution2', param index 0
I0802 15:29:42.571507 20651 net.cpp:484] Sharing parameters 'conv2_b' owned by layer 'Convolution2', param index 1
I0802 15:29:42.571516 20651 layer_factory.hpp:77] Creating layer Pooling6
I0802 15:29:42.571527 20651 net.cpp:91] Creating Layer Pooling6
I0802 15:29:42.571537 20651 net.cpp:425] Pooling6 <- Convolution6
I0802 15:29:42.571549 20651 net.cpp:399] Pooling6 -> Pooling6
I0802 15:29:42.571615 20651 net.cpp:141] Setting up Pooling6
I0802 15:29:42.571626 20651 net.cpp:148] Top shape: 100 50 13 13 (845000)
I0802 15:29:42.571635 20651 net.cpp:156] Memory required for data: 915959600
I0802 15:29:42.571642 20651 layer_factory.hpp:77] Creating layer InnerProduct7
I0802 15:29:42.571658 20651 net.cpp:91] Creating Layer InnerProduct7
I0802 15:29:42.571667 20651 net.cpp:425] InnerProduct7 <- Pooling6
I0802 15:29:42.571683 20651 net.cpp:399] InnerProduct7 -> InnerProduct7
I0802 15:29:42.580445 20651 net.cpp:141] Setting up InnerProduct7
I0802 15:29:42.580482 20651 net.cpp:148] Top shape: 100 100 (10000)
I0802 15:29:42.580488 20651 net.cpp:156] Memory required for data: 915999600
I0802 15:29:42.580502 20651 net.cpp:484] Sharing parameters 'ip1_w' owned by layer 'InnerProduct1', param index 0
I0802 15:29:42.580510 20651 net.cpp:484] Sharing parameters 'ip1_b' owned by layer 'InnerProduct1', param index 1
I0802 15:29:42.580518 20651 layer_factory.hpp:77] Creating layer ReLU5
I0802 15:29:42.580531 20651 net.cpp:91] Creating Layer ReLU5
I0802 15:29:42.580540 20651 net.cpp:425] ReLU5 <- InnerProduct7
I0802 15:29:42.580554 20651 net.cpp:386] ReLU5 -> InnerProduct7 (in-place)
I0802 15:29:42.580567 20651 net.cpp:141] Setting up ReLU5
I0802 15:29:42.580575 20651 net.cpp:148] Top shape: 100 100 (10000)
I0802 15:29:42.580580 20651 net.cpp:156] Memory required for data: 916039600
I0802 15:29:42.580586 20651 layer_factory.hpp:77] Creating layer InnerProduct8
I0802 15:29:42.580600 20651 net.cpp:91] Creating Layer InnerProduct8
I0802 15:29:42.580607 20651 net.cpp:425] InnerProduct8 <- InnerProduct7
I0802 15:29:42.580617 20651 net.cpp:399] InnerProduct8 -> InnerProduct8
I0802 15:29:42.580793 20651 net.cpp:141] Setting up InnerProduct8
I0802 15:29:42.580804 20651 net.cpp:148] Top shape: 100 50 (5000)
I0802 15:29:42.580811 20651 net.cpp:156] Memory required for data: 916059600
I0802 15:29:42.580817 20651 net.cpp:484] Sharing parameters 'ip2_w' owned by layer 'InnerProduct2', param index 0
I0802 15:29:42.580824 20651 net.cpp:484] Sharing parameters 'ip2_b' owned by layer 'InnerProduct2', param index 1
I0802 15:29:42.580832 20651 layer_factory.hpp:77] Creating layer Convolution7
I0802 15:29:42.580845 20651 net.cpp:91] Creating Layer Convolution7
I0802 15:29:42.580852 20651 net.cpp:425] Convolution7 <- c21
I0802 15:29:42.580867 20651 net.cpp:399] Convolution7 -> Convolution7
I0802 15:29:42.581202 20651 net.cpp:141] Setting up Convolution7
I0802 15:29:42.581212 20651 net.cpp:148] Top shape: 100 20 60 60 (7200000)
I0802 15:29:42.581217 20651 net.cpp:156] Memory required for data: 944859600
I0802 15:29:42.581223 20651 net.cpp:484] Sharing parameters 'conv1_w' owned by layer 'Convolution1', param index 0
I0802 15:29:42.581231 20651 net.cpp:484] Sharing parameters 'conv1_b' owned by layer 'Convolution1', param index 1
I0802 15:29:42.581238 20651 layer_factory.hpp:77] Creating layer Pooling7
I0802 15:29:42.581248 20651 net.cpp:91] Creating Layer Pooling7
I0802 15:29:42.581254 20651 net.cpp:425] Pooling7 <- Convolution7
I0802 15:29:42.581264 20651 net.cpp:399] Pooling7 -> Pooling7
I0802 15:29:42.581315 20651 net.cpp:141] Setting up Pooling7
I0802 15:29:42.581322 20651 net.cpp:148] Top shape: 100 20 30 30 (1800000)
I0802 15:29:42.581328 20651 net.cpp:156] Memory required for data: 952059600
I0802 15:29:42.581334 20651 layer_factory.hpp:77] Creating layer Convolution8
I0802 15:29:42.581347 20651 net.cpp:91] Creating Layer Convolution8
I0802 15:29:42.581353 20651 net.cpp:425] Convolution8 <- Pooling7
I0802 15:29:42.581385 20651 net.cpp:399] Convolution8 -> Convolution8
I0802 15:29:42.581897 20651 net.cpp:141] Setting up Convolution8
I0802 15:29:42.581907 20651 net.cpp:148] Top shape: 100 50 26 26 (3380000)
I0802 15:29:42.581912 20651 net.cpp:156] Memory required for data: 965579600
I0802 15:29:42.581928 20651 net.cpp:484] Sharing parameters 'conv2_w' owned by layer 'Convolution2', param index 0
I0802 15:29:42.581935 20651 net.cpp:484] Sharing parameters 'conv2_b' owned by layer 'Convolution2', param index 1
I0802 15:29:42.581941 20651 layer_factory.hpp:77] Creating layer Pooling8
I0802 15:29:42.581949 20651 net.cpp:91] Creating Layer Pooling8
I0802 15:29:42.581955 20651 net.cpp:425] Pooling8 <- Convolution8
I0802 15:29:42.581967 20651 net.cpp:399] Pooling8 -> Pooling8
I0802 15:29:42.582012 20651 net.cpp:141] Setting up Pooling8
I0802 15:29:42.582020 20651 net.cpp:148] Top shape: 100 50 13 13 (845000)
I0802 15:29:42.582026 20651 net.cpp:156] Memory required for data: 968959600
I0802 15:29:42.582031 20651 layer_factory.hpp:77] Creating layer InnerProduct9
I0802 15:29:42.582041 20651 net.cpp:91] Creating Layer InnerProduct9
I0802 15:29:42.582047 20651 net.cpp:425] InnerProduct9 <- Pooling8
I0802 15:29:42.582058 20651 net.cpp:399] InnerProduct9 -> InnerProduct9
I0802 15:29:42.590479 20651 net.cpp:141] Setting up InnerProduct9
I0802 15:29:42.590498 20651 net.cpp:148] Top shape: 100 100 (10000)
I0802 15:29:42.590504 20651 net.cpp:156] Memory required for data: 968999600
I0802 15:29:42.590513 20651 net.cpp:484] Sharing parameters 'ip1_w' owned by layer 'InnerProduct1', param index 0
I0802 15:29:42.590520 20651 net.cpp:484] Sharing parameters 'ip1_b' owned by layer 'InnerProduct1', param index 1
I0802 15:29:42.590526 20651 layer_factory.hpp:77] Creating layer ReLU6
I0802 15:29:42.590539 20651 net.cpp:91] Creating Layer ReLU6
I0802 15:29:42.590546 20651 net.cpp:425] ReLU6 <- InnerProduct9
I0802 15:29:42.590556 20651 net.cpp:386] ReLU6 -> InnerProduct9 (in-place)
I0802 15:29:42.590567 20651 net.cpp:141] Setting up ReLU6
I0802 15:29:42.590574 20651 net.cpp:148] Top shape: 100 100 (10000)
I0802 15:29:42.590580 20651 net.cpp:156] Memory required for data: 969039600
I0802 15:29:42.590585 20651 layer_factory.hpp:77] Creating layer InnerProduct10
I0802 15:29:42.590598 20651 net.cpp:91] Creating Layer InnerProduct10
I0802 15:29:42.590605 20651 net.cpp:425] InnerProduct10 <- InnerProduct9
I0802 15:29:42.590615 20651 net.cpp:399] InnerProduct10 -> InnerProduct10
I0802 15:29:42.590788 20651 net.cpp:141] Setting up InnerProduct10
I0802 15:29:42.590795 20651 net.cpp:148] Top shape: 100 50 (5000)
I0802 15:29:42.590801 20651 net.cpp:156] Memory required for data: 969059600
I0802 15:29:42.590808 20651 net.cpp:484] Sharing parameters 'ip2_w' owned by layer 'InnerProduct2', param index 0
I0802 15:29:42.590816 20651 net.cpp:484] Sharing parameters 'ip2_b' owned by layer 'InnerProduct2', param index 1
I0802 15:29:42.590821 20651 layer_factory.hpp:77] Creating layer Concat2
I0802 15:29:42.590831 20651 net.cpp:91] Creating Layer Concat2
I0802 15:29:42.590837 20651 net.cpp:425] Concat2 <- InnerProduct8
I0802 15:29:42.590843 20651 net.cpp:425] Concat2 <- InnerProduct10
I0802 15:29:42.590855 20651 net.cpp:399] Concat2 -> Concat2
I0802 15:29:42.590883 20651 net.cpp:141] Setting up Concat2
I0802 15:29:42.590893 20651 net.cpp:148] Top shape: 100 100 (10000)
I0802 15:29:42.590898 20651 net.cpp:156] Memory required for data: 969099600
I0802 15:29:42.590904 20651 layer_factory.hpp:77] Creating layer InnerProduct11
I0802 15:29:42.590914 20651 net.cpp:91] Creating Layer InnerProduct11
I0802 15:29:42.590919 20651 net.cpp:425] InnerProduct11 <- Concat2
I0802 15:29:42.590931 20651 net.cpp:399] InnerProduct11 -> InnerProduct11
I0802 15:29:42.597081 20651 net.cpp:141] Setting up InnerProduct11
I0802 15:29:42.597100 20651 net.cpp:148] Top shape: 100 64 (6400)
I0802 15:29:42.597105 20651 net.cpp:156] Memory required for data: 969125200
I0802 15:29:42.597113 20651 net.cpp:484] Sharing parameters 'fc1_w' owned by layer 'InnerProduct5', param index 0
I0802 15:29:42.597139 20651 net.cpp:484] Sharing parameters 'fc1_b' owned by layer 'InnerProduct5', param index 1
I0802 15:29:42.597146 20651 layer_factory.hpp:77] Creating layer ReLU7
I0802 15:29:42.597156 20651 net.cpp:91] Creating Layer ReLU7
I0802 15:29:42.597162 20651 net.cpp:425] ReLU7 <- InnerProduct11
I0802 15:29:42.597175 20651 net.cpp:386] ReLU7 -> InnerProduct11 (in-place)
I0802 15:29:42.597187 20651 net.cpp:141] Setting up ReLU7
I0802 15:29:42.597193 20651 net.cpp:148] Top shape: 100 64 (6400)
I0802 15:29:42.597199 20651 net.cpp:156] Memory required for data: 969150800
I0802 15:29:42.597204 20651 layer_factory.hpp:77] Creating layer InnerProduct12
I0802 15:29:42.597214 20651 net.cpp:91] Creating Layer InnerProduct12
I0802 15:29:42.597220 20651 net.cpp:425] InnerProduct12 <- InnerProduct11
I0802 15:29:42.597232 20651 net.cpp:399] InnerProduct12 -> InnerProduct12
I0802 15:29:42.597381 20651 net.cpp:141] Setting up InnerProduct12
I0802 15:29:42.597388 20651 net.cpp:148] Top shape: 100 32 (3200)
I0802 15:29:42.597394 20651 net.cpp:156] Memory required for data: 969163600
I0802 15:29:42.597399 20651 net.cpp:484] Sharing parameters 'fc2_w' owned by layer 'InnerProduct6', param index 0
I0802 15:29:42.597407 20651 net.cpp:484] Sharing parameters 'fc2_b' owned by layer 'InnerProduct6', param index 1
I0802 15:29:42.597414 20651 layer_factory.hpp:77] Creating layer ReLU8
I0802 15:29:42.597424 20651 net.cpp:91] Creating Layer ReLU8
I0802 15:29:42.597429 20651 net.cpp:425] ReLU8 <- InnerProduct12
I0802 15:29:42.597437 20651 net.cpp:386] ReLU8 -> InnerProduct12 (in-place)
I0802 15:29:42.597446 20651 net.cpp:141] Setting up ReLU8
I0802 15:29:42.597453 20651 net.cpp:148] Top shape: 100 32 (3200)
I0802 15:29:42.597458 20651 net.cpp:156] Memory required for data: 969176400
I0802 15:29:42.597463 20651 layer_factory.hpp:77] Creating layer dt1
I0802 15:29:42.597472 20651 net.cpp:91] Creating Layer dt1
I0802 15:29:42.597477 20651 net.cpp:425] dt1 <- InnerProduct12
I0802 15:29:42.597487 20651 net.cpp:399] dt1 -> dt1
I0802 15:29:42.597612 20651 net.cpp:141] Setting up dt1
I0802 15:29:42.597620 20651 net.cpp:148] Top shape: 100 2 (200)
I0802 15:29:42.597625 20651 net.cpp:156] Memory required for data: 969177200
I0802 15:29:42.597631 20651 net.cpp:484] Sharing parameters 'fc3_w' owned by layer 'dt0', param index 0
I0802 15:29:42.597638 20651 net.cpp:484] Sharing parameters 'fc3_b' owned by layer 'dt0', param index 1
I0802 15:29:42.597645 20651 layer_factory.hpp:77] Creating layer Convolution9
I0802 15:29:42.597658 20651 net.cpp:91] Creating Layer Convolution9
I0802 15:29:42.597664 20651 net.cpp:425] Convolution9 <- p1_p1_0_split_2
I0802 15:29:42.597676 20651 net.cpp:399] Convolution9 -> Convolution9
I0802 15:29:42.598001 20651 net.cpp:141] Setting up Convolution9
I0802 15:29:42.598008 20651 net.cpp:148] Top shape: 100 20 60 60 (7200000)
I0802 15:29:42.598013 20651 net.cpp:156] Memory required for data: 997977200
I0802 15:29:42.598019 20651 net.cpp:484] Sharing parameters 'conv1_w' owned by layer 'Convolution1', param index 0
I0802 15:29:42.598026 20651 net.cpp:484] Sharing parameters 'conv1_b' owned by layer 'Convolution1', param index 1
I0802 15:29:42.598032 20651 layer_factory.hpp:77] Creating layer Pooling9
I0802 15:29:42.598042 20651 net.cpp:91] Creating Layer Pooling9
I0802 15:29:42.598047 20651 net.cpp:425] Pooling9 <- Convolution9
I0802 15:29:42.598058 20651 net.cpp:399] Pooling9 -> Pooling9
I0802 15:29:42.598104 20651 net.cpp:141] Setting up Pooling9
I0802 15:29:42.598112 20651 net.cpp:148] Top shape: 100 20 30 30 (1800000)
I0802 15:29:42.598117 20651 net.cpp:156] Memory required for data: 1005177200
I0802 15:29:42.598122 20651 layer_factory.hpp:77] Creating layer Convolution10
I0802 15:29:42.598136 20651 net.cpp:91] Creating Layer Convolution10
I0802 15:29:42.598142 20651 net.cpp:425] Convolution10 <- Pooling9
I0802 15:29:42.598155 20651 net.cpp:399] Convolution10 -> Convolution10
I0802 15:29:42.598688 20651 net.cpp:141] Setting up Convolution10
I0802 15:29:42.598701 20651 net.cpp:148] Top shape: 100 50 26 26 (3380000)
I0802 15:29:42.598716 20651 net.cpp:156] Memory required for data: 1018697200
I0802 15:29:42.598724 20651 net.cpp:484] Sharing parameters 'conv2_w' owned by layer 'Convolution2', param index 0
I0802 15:29:42.598732 20651 net.cpp:484] Sharing parameters 'conv2_b' owned by layer 'Convolution2', param index 1
I0802 15:29:42.598738 20651 layer_factory.hpp:77] Creating layer Pooling10
I0802 15:29:42.598750 20651 net.cpp:91] Creating Layer Pooling10
I0802 15:29:42.598758 20651 net.cpp:425] Pooling10 <- Convolution10
I0802 15:29:42.598768 20651 net.cpp:399] Pooling10 -> Pooling10
I0802 15:29:42.598824 20651 net.cpp:141] Setting up Pooling10
I0802 15:29:42.598832 20651 net.cpp:148] Top shape: 100 50 13 13 (845000)
I0802 15:29:42.598839 20651 net.cpp:156] Memory required for data: 1022077200
I0802 15:29:42.598845 20651 layer_factory.hpp:77] Creating layer InnerProduct13
I0802 15:29:42.598857 20651 net.cpp:91] Creating Layer InnerProduct13
I0802 15:29:42.598865 20651 net.cpp:425] InnerProduct13 <- Pooling10
I0802 15:29:42.598875 20651 net.cpp:399] InnerProduct13 -> InnerProduct13
I0802 15:29:42.610110 20651 net.cpp:141] Setting up InnerProduct13
I0802 15:29:42.610147 20651 net.cpp:148] Top shape: 100 100 (10000)
I0802 15:29:42.610153 20651 net.cpp:156] Memory required for data: 1022117200
I0802 15:29:42.610165 20651 net.cpp:484] Sharing parameters 'ip1_w' owned by layer 'InnerProduct1', param index 0
I0802 15:29:42.610173 20651 net.cpp:484] Sharing parameters 'ip1_b' owned by layer 'InnerProduct1', param index 1
I0802 15:29:42.610180 20651 layer_factory.hpp:77] Creating layer ReLU9
I0802 15:29:42.610193 20651 net.cpp:91] Creating Layer ReLU9
I0802 15:29:42.610201 20651 net.cpp:425] ReLU9 <- InnerProduct13
I0802 15:29:42.610211 20651 net.cpp:386] ReLU9 -> InnerProduct13 (in-place)
I0802 15:29:42.610227 20651 net.cpp:141] Setting up ReLU9
I0802 15:29:42.610234 20651 net.cpp:148] Top shape: 100 100 (10000)
I0802 15:29:42.610240 20651 net.cpp:156] Memory required for data: 1022157200
I0802 15:29:42.610245 20651 layer_factory.hpp:77] Creating layer InnerProduct14
I0802 15:29:42.610256 20651 net.cpp:91] Creating Layer InnerProduct14
I0802 15:29:42.610262 20651 net.cpp:425] InnerProduct14 <- InnerProduct13
I0802 15:29:42.610272 20651 net.cpp:399] InnerProduct14 -> InnerProduct14
I0802 15:29:42.610446 20651 net.cpp:141] Setting up InnerProduct14
I0802 15:29:42.610455 20651 net.cpp:148] Top shape: 100 50 (5000)
I0802 15:29:42.610460 20651 net.cpp:156] Memory required for data: 1022177200
I0802 15:29:42.610466 20651 net.cpp:484] Sharing parameters 'ip2_w' owned by layer 'InnerProduct2', param index 0
I0802 15:29:42.610472 20651 net.cpp:484] Sharing parameters 'ip2_b' owned by layer 'InnerProduct2', param index 1
I0802 15:29:42.610478 20651 layer_factory.hpp:77] Creating layer Convolution11
I0802 15:29:42.610494 20651 net.cpp:91] Creating Layer Convolution11
I0802 15:29:42.610502 20651 net.cpp:425] Convolution11 <- c22
I0802 15:29:42.610514 20651 net.cpp:399] Convolution11 -> Convolution11
I0802 15:29:42.610864 20651 net.cpp:141] Setting up Convolution11
I0802 15:29:42.610872 20651 net.cpp:148] Top shape: 100 20 60 60 (7200000)
I0802 15:29:42.610877 20651 net.cpp:156] Memory required for data: 1050977200
I0802 15:29:42.610883 20651 net.cpp:484] Sharing parameters 'conv1_w' owned by layer 'Convolution1', param index 0
I0802 15:29:42.610890 20651 net.cpp:484] Sharing parameters 'conv1_b' owned by layer 'Convolution1', param index 1
I0802 15:29:42.610896 20651 layer_factory.hpp:77] Creating layer Pooling11
I0802 15:29:42.610909 20651 net.cpp:91] Creating Layer Pooling11
I0802 15:29:42.610915 20651 net.cpp:425] Pooling11 <- Convolution11
I0802 15:29:42.610925 20651 net.cpp:399] Pooling11 -> Pooling11
I0802 15:29:42.610975 20651 net.cpp:141] Setting up Pooling11
I0802 15:29:42.610982 20651 net.cpp:148] Top shape: 100 20 30 30 (1800000)
I0802 15:29:42.610988 20651 net.cpp:156] Memory required for data: 1058177200
I0802 15:29:42.610993 20651 layer_factory.hpp:77] Creating layer Convolution12
I0802 15:29:42.611008 20651 net.cpp:91] Creating Layer Convolution12
I0802 15:29:42.611037 20651 net.cpp:425] Convolution12 <- Pooling11
I0802 15:29:42.611047 20651 net.cpp:399] Convolution12 -> Convolution12
I0802 15:29:42.611574 20651 net.cpp:141] Setting up Convolution12
I0802 15:29:42.611583 20651 net.cpp:148] Top shape: 100 50 26 26 (3380000)
I0802 15:29:42.611588 20651 net.cpp:156] Memory required for data: 1071697200
I0802 15:29:42.611595 20651 net.cpp:484] Sharing parameters 'conv2_w' owned by layer 'Convolution2', param index 0
I0802 15:29:42.611603 20651 net.cpp:484] Sharing parameters 'conv2_b' owned by layer 'Convolution2', param index 1
I0802 15:29:42.611608 20651 layer_factory.hpp:77] Creating layer Pooling12
I0802 15:29:42.611618 20651 net.cpp:91] Creating Layer Pooling12
I0802 15:29:42.611624 20651 net.cpp:425] Pooling12 <- Convolution12
I0802 15:29:42.611634 20651 net.cpp:399] Pooling12 -> Pooling12
I0802 15:29:42.611681 20651 net.cpp:141] Setting up Pooling12
I0802 15:29:42.611690 20651 net.cpp:148] Top shape: 100 50 13 13 (845000)
I0802 15:29:42.611695 20651 net.cpp:156] Memory required for data: 1075077200
I0802 15:29:42.611701 20651 layer_factory.hpp:77] Creating layer InnerProduct15
I0802 15:29:42.611712 20651 net.cpp:91] Creating Layer InnerProduct15
I0802 15:29:42.611717 20651 net.cpp:425] InnerProduct15 <- Pooling12
I0802 15:29:42.611727 20651 net.cpp:399] InnerProduct15 -> InnerProduct15
I0802 15:29:42.620121 20651 net.cpp:141] Setting up InnerProduct15
I0802 15:29:42.620149 20651 net.cpp:148] Top shape: 100 100 (10000)
I0802 15:29:42.620157 20651 net.cpp:156] Memory required for data: 1075117200
I0802 15:29:42.620169 20651 net.cpp:484] Sharing parameters 'ip1_w' owned by layer 'InnerProduct1', param index 0
I0802 15:29:42.620178 20651 net.cpp:484] Sharing parameters 'ip1_b' owned by layer 'InnerProduct1', param index 1
I0802 15:29:42.620185 20651 layer_factory.hpp:77] Creating layer ReLU10
I0802 15:29:42.620198 20651 net.cpp:91] Creating Layer ReLU10
I0802 15:29:42.620205 20651 net.cpp:425] ReLU10 <- InnerProduct15
I0802 15:29:42.620218 20651 net.cpp:386] ReLU10 -> InnerProduct15 (in-place)
I0802 15:29:42.620231 20651 net.cpp:141] Setting up ReLU10
I0802 15:29:42.620239 20651 net.cpp:148] Top shape: 100 100 (10000)
I0802 15:29:42.620244 20651 net.cpp:156] Memory required for data: 1075157200
I0802 15:29:42.620249 20651 layer_factory.hpp:77] Creating layer InnerProduct16
I0802 15:29:42.620260 20651 net.cpp:91] Creating Layer InnerProduct16
I0802 15:29:42.620266 20651 net.cpp:425] InnerProduct16 <- InnerProduct15
I0802 15:29:42.620278 20651 net.cpp:399] InnerProduct16 -> InnerProduct16
I0802 15:29:42.620462 20651 net.cpp:141] Setting up InnerProduct16
I0802 15:29:42.620471 20651 net.cpp:148] Top shape: 100 50 (5000)
I0802 15:29:42.620476 20651 net.cpp:156] Memory required for data: 1075177200
I0802 15:29:42.620482 20651 net.cpp:484] Sharing parameters 'ip2_w' owned by layer 'InnerProduct2', param index 0
I0802 15:29:42.620489 20651 net.cpp:484] Sharing parameters 'ip2_b' owned by layer 'InnerProduct2', param index 1
I0802 15:29:42.620496 20651 layer_factory.hpp:77] Creating layer Concat3
I0802 15:29:42.620506 20651 net.cpp:91] Creating Layer Concat3
I0802 15:29:42.620512 20651 net.cpp:425] Concat3 <- InnerProduct14
I0802 15:29:42.620518 20651 net.cpp:425] Concat3 <- InnerProduct16
I0802 15:29:42.620527 20651 net.cpp:399] Concat3 -> Concat3
I0802 15:29:42.620594 20651 net.cpp:141] Setting up Concat3
I0802 15:29:42.620602 20651 net.cpp:148] Top shape: 100 100 (10000)
I0802 15:29:42.620607 20651 net.cpp:156] Memory required for data: 1075217200
I0802 15:29:42.620614 20651 layer_factory.hpp:77] Creating layer InnerProduct17
I0802 15:29:42.620623 20651 net.cpp:91] Creating Layer InnerProduct17
I0802 15:29:42.620630 20651 net.cpp:425] InnerProduct17 <- Concat3
I0802 15:29:42.620640 20651 net.cpp:399] InnerProduct17 -> InnerProduct17
I0802 15:29:42.620822 20651 net.cpp:141] Setting up InnerProduct17
I0802 15:29:42.620831 20651 net.cpp:148] Top shape: 100 64 (6400)
I0802 15:29:42.620836 20651 net.cpp:156] Memory required for data: 1075242800
I0802 15:29:42.620870 20651 net.cpp:484] Sharing parameters 'fc1_w' owned by layer 'InnerProduct5', param index 0
I0802 15:29:42.620878 20651 net.cpp:484] Sharing parameters 'fc1_b' owned by layer 'InnerProduct5', param index 1
I0802 15:29:42.620884 20651 layer_factory.hpp:77] Creating layer ReLU11
I0802 15:29:42.620894 20651 net.cpp:91] Creating Layer ReLU11
I0802 15:29:42.620900 20651 net.cpp:425] ReLU11 <- InnerProduct17
I0802 15:29:42.620908 20651 net.cpp:386] ReLU11 -> InnerProduct17 (in-place)
I0802 15:29:42.620918 20651 net.cpp:141] Setting up ReLU11
I0802 15:29:42.620924 20651 net.cpp:148] Top shape: 100 64 (6400)
I0802 15:29:42.620929 20651 net.cpp:156] Memory required for data: 1075268400
I0802 15:29:42.620934 20651 layer_factory.hpp:77] Creating layer InnerProduct18
I0802 15:29:42.620944 20651 net.cpp:91] Creating Layer InnerProduct18
I0802 15:29:42.620949 20651 net.cpp:425] InnerProduct18 <- InnerProduct17
I0802 15:29:42.620960 20651 net.cpp:399] InnerProduct18 -> InnerProduct18
I0802 15:29:42.621109 20651 net.cpp:141] Setting up InnerProduct18
I0802 15:29:42.621115 20651 net.cpp:148] Top shape: 100 32 (3200)
I0802 15:29:42.621120 20651 net.cpp:156] Memory required for data: 1075281200
I0802 15:29:42.621127 20651 net.cpp:484] Sharing parameters 'fc2_w' owned by layer 'InnerProduct6', param index 0
I0802 15:29:42.621134 20651 net.cpp:484] Sharing parameters 'fc2_b' owned by layer 'InnerProduct6', param index 1
I0802 15:29:42.621140 20651 layer_factory.hpp:77] Creating layer ReLU12
I0802 15:29:42.621146 20651 net.cpp:91] Creating Layer ReLU12
I0802 15:29:42.621152 20651 net.cpp:425] ReLU12 <- InnerProduct18
I0802 15:29:42.621160 20651 net.cpp:386] ReLU12 -> InnerProduct18 (in-place)
I0802 15:29:42.621168 20651 net.cpp:141] Setting up ReLU12
I0802 15:29:42.621176 20651 net.cpp:148] Top shape: 100 32 (3200)
I0802 15:29:42.621181 20651 net.cpp:156] Memory required for data: 1075294000
I0802 15:29:42.621186 20651 layer_factory.hpp:77] Creating layer dt2
I0802 15:29:42.621194 20651 net.cpp:91] Creating Layer dt2
I0802 15:29:42.621199 20651 net.cpp:425] dt2 <- InnerProduct18
I0802 15:29:42.621212 20651 net.cpp:399] dt2 -> dt2
I0802 15:29:42.621343 20651 net.cpp:141] Setting up dt2
I0802 15:29:42.621351 20651 net.cpp:148] Top shape: 100 2 (200)
I0802 15:29:42.621356 20651 net.cpp:156] Memory required for data: 1075294800
I0802 15:29:42.621381 20651 net.cpp:484] Sharing parameters 'fc3_w' owned by layer 'dt0', param index 0
I0802 15:29:42.621389 20651 net.cpp:484] Sharing parameters 'fc3_b' owned by layer 'dt0', param index 1
I0802 15:29:42.621395 20651 layer_factory.hpp:77] Creating layer Convolution13
I0802 15:29:42.621410 20651 net.cpp:91] Creating Layer Convolution13
I0802 15:29:42.621417 20651 net.cpp:425] Convolution13 <- p1_p1_0_split_3
I0802 15:29:42.621428 20651 net.cpp:399] Convolution13 -> Convolution13
I0802 15:29:42.621754 20651 net.cpp:141] Setting up Convolution13
I0802 15:29:42.621762 20651 net.cpp:148] Top shape: 100 20 60 60 (7200000)
I0802 15:29:42.621767 20651 net.cpp:156] Memory required for data: 1104094800
I0802 15:29:42.621773 20651 net.cpp:484] Sharing parameters 'conv1_w' owned by layer 'Convolution1', param index 0
I0802 15:29:42.621780 20651 net.cpp:484] Sharing parameters 'conv1_b' owned by layer 'Convolution1', param index 1
I0802 15:29:42.621786 20651 layer_factory.hpp:77] Creating layer Pooling13
I0802 15:29:42.621798 20651 net.cpp:91] Creating Layer Pooling13
I0802 15:29:42.621804 20651 net.cpp:425] Pooling13 <- Convolution13
I0802 15:29:42.621814 20651 net.cpp:399] Pooling13 -> Pooling13
I0802 15:29:42.621870 20651 net.cpp:141] Setting up Pooling13
I0802 15:29:42.621877 20651 net.cpp:148] Top shape: 100 20 30 30 (1800000)
I0802 15:29:42.621882 20651 net.cpp:156] Memory required for data: 1111294800
I0802 15:29:42.621887 20651 layer_factory.hpp:77] Creating layer Convolution14
I0802 15:29:42.621901 20651 net.cpp:91] Creating Layer Convolution14
I0802 15:29:42.621906 20651 net.cpp:425] Convolution14 <- Pooling13
I0802 15:29:42.621918 20651 net.cpp:399] Convolution14 -> Convolution14
I0802 15:29:42.622440 20651 net.cpp:141] Setting up Convolution14
I0802 15:29:42.622448 20651 net.cpp:148] Top shape: 100 50 26 26 (3380000)
I0802 15:29:42.622455 20651 net.cpp:156] Memory required for data: 1124814800
I0802 15:29:42.622462 20651 net.cpp:484] Sharing parameters 'conv2_w' owned by layer 'Convolution2', param index 0
I0802 15:29:42.622468 20651 net.cpp:484] Sharing parameters 'conv2_b' owned by layer 'Convolution2', param index 1
I0802 15:29:42.622473 20651 layer_factory.hpp:77] Creating layer Pooling14
I0802 15:29:42.622481 20651 net.cpp:91] Creating Layer Pooling14
I0802 15:29:42.622488 20651 net.cpp:425] Pooling14 <- Convolution14
I0802 15:29:42.622498 20651 net.cpp:399] Pooling14 -> Pooling14
I0802 15:29:42.622544 20651 net.cpp:141] Setting up Pooling14
I0802 15:29:42.622551 20651 net.cpp:148] Top shape: 100 50 13 13 (845000)
I0802 15:29:42.622556 20651 net.cpp:156] Memory required for data: 1128194800
I0802 15:29:42.622561 20651 layer_factory.hpp:77] Creating layer InnerProduct19
I0802 15:29:42.622573 20651 net.cpp:91] Creating Layer InnerProduct19
I0802 15:29:42.622578 20651 net.cpp:425] InnerProduct19 <- Pooling14
I0802 15:29:42.622591 20651 net.cpp:399] InnerProduct19 -> InnerProduct19
I0802 15:29:42.631162 20651 net.cpp:141] Setting up InnerProduct19
I0802 15:29:42.631194 20651 net.cpp:148] Top shape: 100 100 (10000)
I0802 15:29:42.631202 20651 net.cpp:156] Memory required for data: 1128234800
I0802 15:29:42.631214 20651 net.cpp:484] Sharing parameters 'ip1_w' owned by layer 'InnerProduct1', param index 0
I0802 15:29:42.631224 20651 net.cpp:484] Sharing parameters 'ip1_b' owned by layer 'InnerProduct1', param index 1
I0802 15:29:42.631232 20651 layer_factory.hpp:77] Creating layer ReLU13
I0802 15:29:42.631250 20651 net.cpp:91] Creating Layer ReLU13
I0802 15:29:42.631259 20651 net.cpp:425] ReLU13 <- InnerProduct19
I0802 15:29:42.631294 20651 net.cpp:386] ReLU13 -> InnerProduct19 (in-place)
I0802 15:29:42.631310 20651 net.cpp:141] Setting up ReLU13
I0802 15:29:42.631319 20651 net.cpp:148] Top shape: 100 100 (10000)
I0802 15:29:42.631325 20651 net.cpp:156] Memory required for data: 1128274800
I0802 15:29:42.631332 20651 layer_factory.hpp:77] Creating layer InnerProduct20
I0802 15:29:42.631347 20651 net.cpp:91] Creating Layer InnerProduct20
I0802 15:29:42.631355 20651 net.cpp:425] InnerProduct20 <- InnerProduct19
I0802 15:29:42.631366 20651 net.cpp:399] InnerProduct20 -> InnerProduct20
I0802 15:29:42.631577 20651 net.cpp:141] Setting up InnerProduct20
I0802 15:29:42.631588 20651 net.cpp:148] Top shape: 100 50 (5000)
I0802 15:29:42.631597 20651 net.cpp:156] Memory required for data: 1128294800
I0802 15:29:42.631604 20651 net.cpp:484] Sharing parameters 'ip2_w' owned by layer 'InnerProduct2', param index 0
I0802 15:29:42.631613 20651 net.cpp:484] Sharing parameters 'ip2_b' owned by layer 'InnerProduct2', param index 1
I0802 15:29:42.631619 20651 layer_factory.hpp:77] Creating layer Convolution15
I0802 15:29:42.631639 20651 net.cpp:91] Creating Layer Convolution15
I0802 15:29:42.631649 20651 net.cpp:425] Convolution15 <- c23
I0802 15:29:42.631667 20651 net.cpp:399] Convolution15 -> Convolution15
I0802 15:29:42.632138 20651 net.cpp:141] Setting up Convolution15
I0802 15:29:42.632153 20651 net.cpp:148] Top shape: 100 20 60 60 (7200000)
I0802 15:29:42.632159 20651 net.cpp:156] Memory required for data: 1157094800
I0802 15:29:42.632167 20651 net.cpp:484] Sharing parameters 'conv1_w' owned by layer 'Convolution1', param index 0
I0802 15:29:42.632176 20651 net.cpp:484] Sharing parameters 'conv1_b' owned by layer 'Convolution1', param index 1
I0802 15:29:42.632185 20651 layer_factory.hpp:77] Creating layer Pooling15
I0802 15:29:42.632196 20651 net.cpp:91] Creating Layer Pooling15
I0802 15:29:42.632205 20651 net.cpp:425] Pooling15 <- Convolution15
I0802 15:29:42.632220 20651 net.cpp:399] Pooling15 -> Pooling15
I0802 15:29:42.632284 20651 net.cpp:141] Setting up Pooling15
I0802 15:29:42.632295 20651 net.cpp:148] Top shape: 100 20 30 30 (1800000)
I0802 15:29:42.632302 20651 net.cpp:156] Memory required for data: 1164294800
I0802 15:29:42.632328 20651 layer_factory.hpp:77] Creating layer Convolution16
I0802 15:29:42.632347 20651 net.cpp:91] Creating Layer Convolution16
I0802 15:29:42.632356 20651 net.cpp:425] Convolution16 <- Pooling15
I0802 15:29:42.632372 20651 net.cpp:399] Convolution16 -> Convolution16
I0802 15:29:42.632977 20651 net.cpp:141] Setting up Convolution16
I0802 15:29:42.632989 20651 net.cpp:148] Top shape: 100 50 26 26 (3380000)
I0802 15:29:42.632997 20651 net.cpp:156] Memory required for data: 1177814800
I0802 15:29:42.633005 20651 net.cpp:484] Sharing parameters 'conv2_w' owned by layer 'Convolution2', param index 0
I0802 15:29:42.633014 20651 net.cpp:484] Sharing parameters 'conv2_b' owned by layer 'Convolution2', param index 1
I0802 15:29:42.633023 20651 layer_factory.hpp:77] Creating layer Pooling16
I0802 15:29:42.633033 20651 net.cpp:91] Creating Layer Pooling16
I0802 15:29:42.633040 20651 net.cpp:425] Pooling16 <- Convolution16
I0802 15:29:42.633055 20651 net.cpp:399] Pooling16 -> Pooling16
I0802 15:29:42.633121 20651 net.cpp:141] Setting up Pooling16
I0802 15:29:42.633132 20651 net.cpp:148] Top shape: 100 50 13 13 (845000)
I0802 15:29:42.633138 20651 net.cpp:156] Memory required for data: 1181194800
I0802 15:29:42.633146 20651 layer_factory.hpp:77] Creating layer InnerProduct21
I0802 15:29:42.633157 20651 net.cpp:91] Creating Layer InnerProduct21
I0802 15:29:42.633164 20651 net.cpp:425] InnerProduct21 <- Pooling16
I0802 15:29:42.633179 20651 net.cpp:399] InnerProduct21 -> InnerProduct21
I0802 15:29:42.641993 20651 net.cpp:141] Setting up InnerProduct21
I0802 15:29:42.642021 20651 net.cpp:148] Top shape: 100 100 (10000)
I0802 15:29:42.642027 20651 net.cpp:156] Memory required for data: 1181234800
I0802 15:29:42.642038 20651 net.cpp:484] Sharing parameters 'ip1_w' owned by layer 'InnerProduct1', param index 0
I0802 15:29:42.642047 20651 net.cpp:484] Sharing parameters 'ip1_b' owned by layer 'InnerProduct1', param index 1
I0802 15:29:42.642055 20651 layer_factory.hpp:77] Creating layer ReLU14
I0802 15:29:42.642069 20651 net.cpp:91] Creating Layer ReLU14
I0802 15:29:42.642078 20651 net.cpp:425] ReLU14 <- InnerProduct21
I0802 15:29:42.642088 20651 net.cpp:386] ReLU14 -> InnerProduct21 (in-place)
I0802 15:29:42.642102 20651 net.cpp:141] Setting up ReLU14
I0802 15:29:42.642109 20651 net.cpp:148] Top shape: 100 100 (10000)
I0802 15:29:42.642114 20651 net.cpp:156] Memory required for data: 1181274800
I0802 15:29:42.642120 20651 layer_factory.hpp:77] Creating layer InnerProduct22
I0802 15:29:42.642133 20651 net.cpp:91] Creating Layer InnerProduct22
I0802 15:29:42.642139 20651 net.cpp:425] InnerProduct22 <- InnerProduct21
I0802 15:29:42.642149 20651 net.cpp:399] InnerProduct22 -> InnerProduct22
I0802 15:29:42.642355 20651 net.cpp:141] Setting up InnerProduct22
I0802 15:29:42.642364 20651 net.cpp:148] Top shape: 100 50 (5000)
I0802 15:29:42.642369 20651 net.cpp:156] Memory required for data: 1181294800
I0802 15:29:42.642374 20651 net.cpp:484] Sharing parameters 'ip2_w' owned by layer 'InnerProduct2', param index 0
I0802 15:29:42.642382 20651 net.cpp:484] Sharing parameters 'ip2_b' owned by layer 'InnerProduct2', param index 1
I0802 15:29:42.642388 20651 layer_factory.hpp:77] Creating layer Concat4
I0802 15:29:42.642400 20651 net.cpp:91] Creating Layer Concat4
I0802 15:29:42.642406 20651 net.cpp:425] Concat4 <- InnerProduct20
I0802 15:29:42.642415 20651 net.cpp:425] Concat4 <- InnerProduct22
I0802 15:29:42.642423 20651 net.cpp:399] Concat4 -> Concat4
I0802 15:29:42.642457 20651 net.cpp:141] Setting up Concat4
I0802 15:29:42.642463 20651 net.cpp:148] Top shape: 100 100 (10000)
I0802 15:29:42.642469 20651 net.cpp:156] Memory required for data: 1181334800
I0802 15:29:42.642474 20651 layer_factory.hpp:77] Creating layer InnerProduct23
I0802 15:29:42.642483 20651 net.cpp:91] Creating Layer InnerProduct23
I0802 15:29:42.642489 20651 net.cpp:425] InnerProduct23 <- Concat4
I0802 15:29:42.642501 20651 net.cpp:399] InnerProduct23 -> InnerProduct23
I0802 15:29:42.642689 20651 net.cpp:141] Setting up InnerProduct23
I0802 15:29:42.642721 20651 net.cpp:148] Top shape: 100 64 (6400)
I0802 15:29:42.642727 20651 net.cpp:156] Memory required for data: 1181360400
I0802 15:29:42.642734 20651 net.cpp:484] Sharing parameters 'fc1_w' owned by layer 'InnerProduct5', param index 0
I0802 15:29:42.642740 20651 net.cpp:484] Sharing parameters 'fc1_b' owned by layer 'InnerProduct5', param index 1
I0802 15:29:42.642746 20651 layer_factory.hpp:77] Creating layer ReLU15
I0802 15:29:42.642753 20651 net.cpp:91] Creating Layer ReLU15
I0802 15:29:42.642760 20651 net.cpp:425] ReLU15 <- InnerProduct23
I0802 15:29:42.642770 20651 net.cpp:386] ReLU15 -> InnerProduct23 (in-place)
I0802 15:29:42.642779 20651 net.cpp:141] Setting up ReLU15
I0802 15:29:42.642786 20651 net.cpp:148] Top shape: 100 64 (6400)
I0802 15:29:42.642791 20651 net.cpp:156] Memory required for data: 1181386000
I0802 15:29:42.642797 20651 layer_factory.hpp:77] Creating layer InnerProduct24
I0802 15:29:42.642805 20651 net.cpp:91] Creating Layer InnerProduct24
I0802 15:29:42.642812 20651 net.cpp:425] InnerProduct24 <- InnerProduct23
I0802 15:29:42.642825 20651 net.cpp:399] InnerProduct24 -> InnerProduct24
I0802 15:29:42.642982 20651 net.cpp:141] Setting up InnerProduct24
I0802 15:29:42.642990 20651 net.cpp:148] Top shape: 100 32 (3200)
I0802 15:29:42.642995 20651 net.cpp:156] Memory required for data: 1181398800
I0802 15:29:42.643002 20651 net.cpp:484] Sharing parameters 'fc2_w' owned by layer 'InnerProduct6', param index 0
I0802 15:29:42.643008 20651 net.cpp:484] Sharing parameters 'fc2_b' owned by layer 'InnerProduct6', param index 1
I0802 15:29:42.643015 20651 layer_factory.hpp:77] Creating layer ReLU16
I0802 15:29:42.643023 20651 net.cpp:91] Creating Layer ReLU16
I0802 15:29:42.643028 20651 net.cpp:425] ReLU16 <- InnerProduct24
I0802 15:29:42.643036 20651 net.cpp:386] ReLU16 -> InnerProduct24 (in-place)
I0802 15:29:42.643045 20651 net.cpp:141] Setting up ReLU16
I0802 15:29:42.643052 20651 net.cpp:148] Top shape: 100 32 (3200)
I0802 15:29:42.643057 20651 net.cpp:156] Memory required for data: 1181411600
I0802 15:29:42.643064 20651 layer_factory.hpp:77] Creating layer dt3
I0802 15:29:42.643072 20651 net.cpp:91] Creating Layer dt3
I0802 15:29:42.643077 20651 net.cpp:425] dt3 <- InnerProduct24
I0802 15:29:42.643090 20651 net.cpp:399] dt3 -> dt3
I0802 15:29:42.643225 20651 net.cpp:141] Setting up dt3
I0802 15:29:42.643232 20651 net.cpp:148] Top shape: 100 2 (200)
I0802 15:29:42.643237 20651 net.cpp:156] Memory required for data: 1181412400
I0802 15:29:42.643244 20651 net.cpp:484] Sharing parameters 'fc3_w' owned by layer 'dt0', param index 0
I0802 15:29:42.643251 20651 net.cpp:484] Sharing parameters 'fc3_b' owned by layer 'dt0', param index 1
I0802 15:29:42.643256 20651 layer_factory.hpp:77] Creating layer Convolution17
I0802 15:29:42.643288 20651 net.cpp:91] Creating Layer Convolution17
I0802 15:29:42.643296 20651 net.cpp:425] Convolution17 <- p1_p1_0_split_4
I0802 15:29:42.643306 20651 net.cpp:399] Convolution17 -> Convolution17
I0802 15:29:42.643648 20651 net.cpp:141] Setting up Convolution17
I0802 15:29:42.643656 20651 net.cpp:148] Top shape: 100 20 60 60 (7200000)
I0802 15:29:42.643662 20651 net.cpp:156] Memory required for data: 1210212400
I0802 15:29:42.643668 20651 net.cpp:484] Sharing parameters 'conv1_w' owned by layer 'Convolution1', param index 0
I0802 15:29:42.643676 20651 net.cpp:484] Sharing parameters 'conv1_b' owned by layer 'Convolution1', param index 1
I0802 15:29:42.643682 20651 layer_factory.hpp:77] Creating layer Pooling17
I0802 15:29:42.643692 20651 net.cpp:91] Creating Layer Pooling17
I0802 15:29:42.643698 20651 net.cpp:425] Pooling17 <- Convolution17
I0802 15:29:42.643708 20651 net.cpp:399] Pooling17 -> Pooling17
I0802 15:29:42.643760 20651 net.cpp:141] Setting up Pooling17
I0802 15:29:42.643767 20651 net.cpp:148] Top shape: 100 20 30 30 (1800000)
I0802 15:29:42.643774 20651 net.cpp:156] Memory required for data: 1217412400
I0802 15:29:42.643779 20651 layer_factory.hpp:77] Creating layer Convolution18
I0802 15:29:42.643791 20651 net.cpp:91] Creating Layer Convolution18
I0802 15:29:42.643807 20651 net.cpp:425] Convolution18 <- Pooling17
I0802 15:29:42.643817 20651 net.cpp:399] Convolution18 -> Convolution18
I0802 15:29:42.644351 20651 net.cpp:141] Setting up Convolution18
I0802 15:29:42.644359 20651 net.cpp:148] Top shape: 100 50 26 26 (3380000)
I0802 15:29:42.644366 20651 net.cpp:156] Memory required for data: 1230932400
I0802 15:29:42.644371 20651 net.cpp:484] Sharing parameters 'conv2_w' owned by layer 'Convolution2', param index 0
I0802 15:29:42.644378 20651 net.cpp:484] Sharing parameters 'conv2_b' owned by layer 'Convolution2', param index 1
I0802 15:29:42.644384 20651 layer_factory.hpp:77] Creating layer Pooling18
I0802 15:29:42.644430 20651 net.cpp:91] Creating Layer Pooling18
I0802 15:29:42.644436 20651 net.cpp:425] Pooling18 <- Convolution18
I0802 15:29:42.644445 20651 net.cpp:399] Pooling18 -> Pooling18
I0802 15:29:42.644493 20651 net.cpp:141] Setting up Pooling18
I0802 15:29:42.644500 20651 net.cpp:148] Top shape: 100 50 13 13 (845000)
I0802 15:29:42.644506 20651 net.cpp:156] Memory required for data: 1234312400
I0802 15:29:42.644512 20651 layer_factory.hpp:77] Creating layer InnerProduct25
I0802 15:29:42.644523 20651 net.cpp:91] Creating Layer InnerProduct25
I0802 15:29:42.644529 20651 net.cpp:425] InnerProduct25 <- Pooling18
I0802 15:29:42.644541 20651 net.cpp:399] InnerProduct25 -> InnerProduct25
I0802 15:29:42.656352 20651 net.cpp:141] Setting up InnerProduct25
I0802 15:29:42.656368 20651 net.cpp:148] Top shape: 100 100 (10000)
I0802 15:29:42.656374 20651 net.cpp:156] Memory required for data: 1234352400
I0802 15:29:42.656383 20651 net.cpp:484] Sharing parameters 'ip1_w' owned by layer 'InnerProduct1', param index 0
I0802 15:29:42.656389 20651 net.cpp:484] Sharing parameters 'ip1_b' owned by layer 'InnerProduct1', param index 1
I0802 15:29:42.656395 20651 layer_factory.hpp:77] Creating layer ReLU17
I0802 15:29:42.656407 20651 net.cpp:91] Creating Layer ReLU17
I0802 15:29:42.656414 20651 net.cpp:425] ReLU17 <- InnerProduct25
I0802 15:29:42.656424 20651 net.cpp:386] ReLU17 -> InnerProduct25 (in-place)
I0802 15:29:42.656435 20651 net.cpp:141] Setting up ReLU17
I0802 15:29:42.656441 20651 net.cpp:148] Top shape: 100 100 (10000)
I0802 15:29:42.656446 20651 net.cpp:156] Memory required for data: 1234392400
I0802 15:29:42.656452 20651 layer_factory.hpp:77] Creating layer InnerProduct26
I0802 15:29:42.656461 20651 net.cpp:91] Creating Layer InnerProduct26
I0802 15:29:42.656467 20651 net.cpp:425] InnerProduct26 <- InnerProduct25
I0802 15:29:42.656477 20651 net.cpp:399] InnerProduct26 -> InnerProduct26
I0802 15:29:42.656662 20651 net.cpp:141] Setting up InnerProduct26
I0802 15:29:42.656671 20651 net.cpp:148] Top shape: 100 50 (5000)
I0802 15:29:42.656675 20651 net.cpp:156] Memory required for data: 1234412400
I0802 15:29:42.656682 20651 net.cpp:484] Sharing parameters 'ip2_w' owned by layer 'InnerProduct2', param index 0
I0802 15:29:42.656688 20651 net.cpp:484] Sharing parameters 'ip2_b' owned by layer 'InnerProduct2', param index 1
I0802 15:29:42.656694 20651 layer_factory.hpp:77] Creating layer Convolution19
I0802 15:29:42.656710 20651 net.cpp:91] Creating Layer Convolution19
I0802 15:29:42.656718 20651 net.cpp:425] Convolution19 <- c24
I0802 15:29:42.656729 20651 net.cpp:399] Convolution19 -> Convolution19
I0802 15:29:42.657066 20651 net.cpp:141] Setting up Convolution19
I0802 15:29:42.657074 20651 net.cpp:148] Top shape: 100 20 60 60 (7200000)
I0802 15:29:42.657079 20651 net.cpp:156] Memory required for data: 1263212400
I0802 15:29:42.657085 20651 net.cpp:484] Sharing parameters 'conv1_w' owned by layer 'Convolution1', param index 0
I0802 15:29:42.657093 20651 net.cpp:484] Sharing parameters 'conv1_b' owned by layer 'Convolution1', param index 1
I0802 15:29:42.657099 20651 layer_factory.hpp:77] Creating layer Pooling19
I0802 15:29:42.657106 20651 net.cpp:91] Creating Layer Pooling19
I0802 15:29:42.657112 20651 net.cpp:425] Pooling19 <- Convolution19
I0802 15:29:42.657124 20651 net.cpp:399] Pooling19 -> Pooling19
I0802 15:29:42.657172 20651 net.cpp:141] Setting up Pooling19
I0802 15:29:42.657181 20651 net.cpp:148] Top shape: 100 20 30 30 (1800000)
I0802 15:29:42.657203 20651 net.cpp:156] Memory required for data: 1270412400
I0802 15:29:42.657209 20651 layer_factory.hpp:77] Creating layer Convolution20
I0802 15:29:42.657220 20651 net.cpp:91] Creating Layer Convolution20
I0802 15:29:42.657227 20651 net.cpp:425] Convolution20 <- Pooling19
I0802 15:29:42.657238 20651 net.cpp:399] Convolution20 -> Convolution20
I0802 15:29:42.657760 20651 net.cpp:141] Setting up Convolution20
I0802 15:29:42.657769 20651 net.cpp:148] Top shape: 100 50 26 26 (3380000)
I0802 15:29:42.657774 20651 net.cpp:156] Memory required for data: 1283932400
I0802 15:29:42.657780 20651 net.cpp:484] Sharing parameters 'conv2_w' owned by layer 'Convolution2', param index 0
I0802 15:29:42.657786 20651 net.cpp:484] Sharing parameters 'conv2_b' owned by layer 'Convolution2', param index 1
I0802 15:29:42.657793 20651 layer_factory.hpp:77] Creating layer Pooling20
I0802 15:29:42.657804 20651 net.cpp:91] Creating Layer Pooling20
I0802 15:29:42.657809 20651 net.cpp:425] Pooling20 <- Convolution20
I0802 15:29:42.657819 20651 net.cpp:399] Pooling20 -> Pooling20
I0802 15:29:42.657867 20651 net.cpp:141] Setting up Pooling20
I0802 15:29:42.657874 20651 net.cpp:148] Top shape: 100 50 13 13 (845000)
I0802 15:29:42.657881 20651 net.cpp:156] Memory required for data: 1287312400
I0802 15:29:42.657886 20651 layer_factory.hpp:77] Creating layer InnerProduct27
I0802 15:29:42.657897 20651 net.cpp:91] Creating Layer InnerProduct27
I0802 15:29:42.657903 20651 net.cpp:425] InnerProduct27 <- Pooling20
I0802 15:29:42.657913 20651 net.cpp:399] InnerProduct27 -> InnerProduct27
I0802 15:29:42.666692 20651 net.cpp:141] Setting up InnerProduct27
I0802 15:29:42.666725 20651 net.cpp:148] Top shape: 100 100 (10000)
I0802 15:29:42.666733 20651 net.cpp:156] Memory required for data: 1287352400
I0802 15:29:42.666746 20651 net.cpp:484] Sharing parameters 'ip1_w' owned by layer 'InnerProduct1', param index 0
I0802 15:29:42.666759 20651 net.cpp:484] Sharing parameters 'ip1_b' owned by layer 'InnerProduct1', param index 1
I0802 15:29:42.666766 20651 layer_factory.hpp:77] Creating layer ReLU18
I0802 15:29:42.666782 20651 net.cpp:91] Creating Layer ReLU18
I0802 15:29:42.666793 20651 net.cpp:425] ReLU18 <- InnerProduct27
I0802 15:29:42.666806 20651 net.cpp:386] ReLU18 -> InnerProduct27 (in-place)
I0802 15:29:42.666827 20651 net.cpp:141] Setting up ReLU18
I0802 15:29:42.666838 20651 net.cpp:148] Top shape: 100 100 (10000)
I0802 15:29:42.666846 20651 net.cpp:156] Memory required for data: 1287392400
I0802 15:29:42.666852 20651 layer_factory.hpp:77] Creating layer InnerProduct28
I0802 15:29:42.666867 20651 net.cpp:91] Creating Layer InnerProduct28
I0802 15:29:42.666874 20651 net.cpp:425] InnerProduct28 <- InnerProduct27
I0802 15:29:42.666887 20651 net.cpp:399] InnerProduct28 -> InnerProduct28
I0802 15:29:42.667124 20651 net.cpp:141] Setting up InnerProduct28
I0802 15:29:42.667136 20651 net.cpp:148] Top shape: 100 50 (5000)
I0802 15:29:42.667145 20651 net.cpp:156] Memory required for data: 1287412400
I0802 15:29:42.667152 20651 net.cpp:484] Sharing parameters 'ip2_w' owned by layer 'InnerProduct2', param index 0
I0802 15:29:42.667161 20651 net.cpp:484] Sharing parameters 'ip2_b' owned by layer 'InnerProduct2', param index 1
I0802 15:29:42.667168 20651 layer_factory.hpp:77] Creating layer Concat5
I0802 15:29:42.667183 20651 net.cpp:91] Creating Layer Concat5
I0802 15:29:42.667191 20651 net.cpp:425] Concat5 <- InnerProduct26
I0802 15:29:42.667201 20651 net.cpp:425] Concat5 <- InnerProduct28
I0802 15:29:42.667213 20651 net.cpp:399] Concat5 -> Concat5
I0802 15:29:42.667255 20651 net.cpp:141] Setting up Concat5
I0802 15:29:42.667265 20651 net.cpp:148] Top shape: 100 100 (10000)
I0802 15:29:42.667289 20651 net.cpp:156] Memory required for data: 1287452400
I0802 15:29:42.667297 20651 layer_factory.hpp:77] Creating layer InnerProduct29
I0802 15:29:42.667312 20651 net.cpp:91] Creating Layer InnerProduct29
I0802 15:29:42.667321 20651 net.cpp:425] InnerProduct29 <- Concat5
I0802 15:29:42.667333 20651 net.cpp:399] InnerProduct29 -> InnerProduct29
I0802 15:29:42.667604 20651 net.cpp:141] Setting up InnerProduct29
I0802 15:29:42.667618 20651 net.cpp:148] Top shape: 100 64 (6400)
I0802 15:29:42.667624 20651 net.cpp:156] Memory required for data: 1287478000
I0802 15:29:42.667634 20651 net.cpp:484] Sharing parameters 'fc1_w' owned by layer 'InnerProduct5', param index 0
I0802 15:29:42.667642 20651 net.cpp:484] Sharing parameters 'fc1_b' owned by layer 'InnerProduct5', param index 1
I0802 15:29:42.667649 20651 layer_factory.hpp:77] Creating layer ReLU19
I0802 15:29:42.667664 20651 net.cpp:91] Creating Layer ReLU19
I0802 15:29:42.667676 20651 net.cpp:425] ReLU19 <- InnerProduct29
I0802 15:29:42.667686 20651 net.cpp:386] ReLU19 -> InnerProduct29 (in-place)
I0802 15:29:42.667697 20651 net.cpp:141] Setting up ReLU19
I0802 15:29:42.667706 20651 net.cpp:148] Top shape: 100 64 (6400)
I0802 15:29:42.667713 20651 net.cpp:156] Memory required for data: 1287503600
I0802 15:29:42.667719 20651 layer_factory.hpp:77] Creating layer InnerProduct30
I0802 15:29:42.667734 20651 net.cpp:91] Creating Layer InnerProduct30
I0802 15:29:42.667742 20651 net.cpp:425] InnerProduct30 <- InnerProduct29
I0802 15:29:42.667760 20651 net.cpp:399] InnerProduct30 -> InnerProduct30
I0802 15:29:42.668007 20651 net.cpp:141] Setting up InnerProduct30
I0802 15:29:42.668017 20651 net.cpp:148] Top shape: 100 32 (3200)
I0802 15:29:42.668023 20651 net.cpp:156] Memory required for data: 1287516400
I0802 15:29:42.668030 20651 net.cpp:484] Sharing parameters 'fc2_w' owned by layer 'InnerProduct6', param index 0
I0802 15:29:42.668037 20651 net.cpp:484] Sharing parameters 'fc2_b' owned by layer 'InnerProduct6', param index 1
I0802 15:29:42.668043 20651 layer_factory.hpp:77] Creating layer ReLU20
I0802 15:29:42.668051 20651 net.cpp:91] Creating Layer ReLU20
I0802 15:29:42.668058 20651 net.cpp:425] ReLU20 <- InnerProduct30
I0802 15:29:42.668066 20651 net.cpp:386] ReLU20 -> InnerProduct30 (in-place)
I0802 15:29:42.668076 20651 net.cpp:141] Setting up ReLU20
I0802 15:29:42.668083 20651 net.cpp:148] Top shape: 100 32 (3200)
I0802 15:29:42.668088 20651 net.cpp:156] Memory required for data: 1287529200
I0802 15:29:42.668094 20651 layer_factory.hpp:77] Creating layer dt4
I0802 15:29:42.668102 20651 net.cpp:91] Creating Layer dt4
I0802 15:29:42.668108 20651 net.cpp:425] dt4 <- InnerProduct30
I0802 15:29:42.668123 20651 net.cpp:399] dt4 -> dt4
I0802 15:29:42.668262 20651 net.cpp:141] Setting up dt4
I0802 15:29:42.668269 20651 net.cpp:148] Top shape: 100 2 (200)
I0802 15:29:42.668274 20651 net.cpp:156] Memory required for data: 1287530000
I0802 15:29:42.668282 20651 net.cpp:484] Sharing parameters 'fc3_w' owned by layer 'dt0', param index 0
I0802 15:29:42.668288 20651 net.cpp:484] Sharing parameters 'fc3_b' owned by layer 'dt0', param index 1
I0802 15:29:42.668294 20651 layer_factory.hpp:77] Creating layer Convolution21
I0802 15:29:42.668310 20651 net.cpp:91] Creating Layer Convolution21
I0802 15:29:42.668318 20651 net.cpp:425] Convolution21 <- p1_p1_0_split_5
I0802 15:29:42.668328 20651 net.cpp:399] Convolution21 -> Convolution21
I0802 15:29:42.668674 20651 net.cpp:141] Setting up Convolution21
I0802 15:29:42.668683 20651 net.cpp:148] Top shape: 100 20 60 60 (7200000)
I0802 15:29:42.668687 20651 net.cpp:156] Memory required for data: 1316330000
I0802 15:29:42.668694 20651 net.cpp:484] Sharing parameters 'conv1_w' owned by layer 'Convolution1', param index 0
I0802 15:29:42.668700 20651 net.cpp:484] Sharing parameters 'conv1_b' owned by layer 'Convolution1', param index 1
I0802 15:29:42.668705 20651 layer_factory.hpp:77] Creating layer Pooling21
I0802 15:29:42.668717 20651 net.cpp:91] Creating Layer Pooling21
I0802 15:29:42.668723 20651 net.cpp:425] Pooling21 <- Convolution21
I0802 15:29:42.668733 20651 net.cpp:399] Pooling21 -> Pooling21
I0802 15:29:42.668787 20651 net.cpp:141] Setting up Pooling21
I0802 15:29:42.668794 20651 net.cpp:148] Top shape: 100 20 30 30 (1800000)
I0802 15:29:42.668799 20651 net.cpp:156] Memory required for data: 1323530000
I0802 15:29:42.668804 20651 layer_factory.hpp:77] Creating layer Convolution22
I0802 15:29:42.668831 20651 net.cpp:91] Creating Layer Convolution22
I0802 15:29:42.668838 20651 net.cpp:425] Convolution22 <- Pooling21
I0802 15:29:42.668849 20651 net.cpp:399] Convolution22 -> Convolution22
I0802 15:29:42.670034 20651 net.cpp:141] Setting up Convolution22
I0802 15:29:42.670048 20651 net.cpp:148] Top shape: 100 50 26 26 (3380000)
I0802 15:29:42.670054 20651 net.cpp:156] Memory required for data: 1337050000
I0802 15:29:42.670061 20651 net.cpp:484] Sharing parameters 'conv2_w' owned by layer 'Convolution2', param index 0
I0802 15:29:42.670068 20651 net.cpp:484] Sharing parameters 'conv2_b' owned by layer 'Convolution2', param index 1
I0802 15:29:42.670074 20651 layer_factory.hpp:77] Creating layer Pooling22
I0802 15:29:42.670083 20651 net.cpp:91] Creating Layer Pooling22
I0802 15:29:42.670090 20651 net.cpp:425] Pooling22 <- Convolution22
I0802 15:29:42.670100 20651 net.cpp:399] Pooling22 -> Pooling22
I0802 15:29:42.670151 20651 net.cpp:141] Setting up Pooling22
I0802 15:29:42.670158 20651 net.cpp:148] Top shape: 100 50 13 13 (845000)
I0802 15:29:42.670164 20651 net.cpp:156] Memory required for data: 1340430000
I0802 15:29:42.670169 20651 layer_factory.hpp:77] Creating layer InnerProduct31
I0802 15:29:42.670178 20651 net.cpp:91] Creating Layer InnerProduct31
I0802 15:29:42.670184 20651 net.cpp:425] InnerProduct31 <- Pooling22
I0802 15:29:42.670197 20651 net.cpp:399] InnerProduct31 -> InnerProduct31
I0802 15:29:42.678491 20651 net.cpp:141] Setting up InnerProduct31
I0802 15:29:42.678520 20651 net.cpp:148] Top shape: 100 100 (10000)
I0802 15:29:42.678527 20651 net.cpp:156] Memory required for data: 1340470000
I0802 15:29:42.678537 20651 net.cpp:484] Sharing parameters 'ip1_w' owned by layer 'InnerProduct1', param index 0
I0802 15:29:42.678545 20651 net.cpp:484] Sharing parameters 'ip1_b' owned by layer 'InnerProduct1', param index 1
I0802 15:29:42.678552 20651 layer_factory.hpp:77] Creating layer ReLU21
I0802 15:29:42.678565 20651 net.cpp:91] Creating Layer ReLU21
I0802 15:29:42.678575 20651 net.cpp:425] ReLU21 <- InnerProduct31
I0802 15:29:42.678587 20651 net.cpp:386] ReLU21 -> InnerProduct31 (in-place)
I0802 15:29:42.678601 20651 net.cpp:141] Setting up ReLU21
I0802 15:29:42.678607 20651 net.cpp:148] Top shape: 100 100 (10000)
I0802 15:29:42.678612 20651 net.cpp:156] Memory required for data: 1340510000
I0802 15:29:42.678618 20651 layer_factory.hpp:77] Creating layer InnerProduct32
I0802 15:29:42.678632 20651 net.cpp:91] Creating Layer InnerProduct32
I0802 15:29:42.678637 20651 net.cpp:425] InnerProduct32 <- InnerProduct31
I0802 15:29:42.678648 20651 net.cpp:399] InnerProduct32 -> InnerProduct32
I0802 15:29:42.678829 20651 net.cpp:141] Setting up InnerProduct32
I0802 15:29:42.678836 20651 net.cpp:148] Top shape: 100 50 (5000)
I0802 15:29:42.678841 20651 net.cpp:156] Memory required for data: 1340530000
I0802 15:29:42.678848 20651 net.cpp:484] Sharing parameters 'ip2_w' owned by layer 'InnerProduct2', param index 0
I0802 15:29:42.678855 20651 net.cpp:484] Sharing parameters 'ip2_b' owned by layer 'InnerProduct2', param index 1
I0802 15:29:42.678861 20651 layer_factory.hpp:77] Creating layer Convolution23
I0802 15:29:42.678874 20651 net.cpp:91] Creating Layer Convolution23
I0802 15:29:42.678881 20651 net.cpp:425] Convolution23 <- c25
I0802 15:29:42.678895 20651 net.cpp:399] Convolution23 -> Convolution23
I0802 15:29:42.679255 20651 net.cpp:141] Setting up Convolution23
I0802 15:29:42.679262 20651 net.cpp:148] Top shape: 100 20 60 60 (7200000)
I0802 15:29:42.679267 20651 net.cpp:156] Memory required for data: 1369330000
I0802 15:29:42.679296 20651 net.cpp:484] Sharing parameters 'conv1_w' owned by layer 'Convolution1', param index 0
I0802 15:29:42.679302 20651 net.cpp:484] Sharing parameters 'conv1_b' owned by layer 'Convolution1', param index 1
I0802 15:29:42.679308 20651 layer_factory.hpp:77] Creating layer Pooling23
I0802 15:29:42.679316 20651 net.cpp:91] Creating Layer Pooling23
I0802 15:29:42.679322 20651 net.cpp:425] Pooling23 <- Convolution23
I0802 15:29:42.679335 20651 net.cpp:399] Pooling23 -> Pooling23
I0802 15:29:42.679411 20651 net.cpp:141] Setting up Pooling23
I0802 15:29:42.679419 20651 net.cpp:148] Top shape: 100 20 30 30 (1800000)
I0802 15:29:42.679425 20651 net.cpp:156] Memory required for data: 1376530000
I0802 15:29:42.679430 20651 layer_factory.hpp:77] Creating layer Convolution24
I0802 15:29:42.679445 20651 net.cpp:91] Creating Layer Convolution24
I0802 15:29:42.679451 20651 net.cpp:425] Convolution24 <- Pooling23
I0802 15:29:42.679461 20651 net.cpp:399] Convolution24 -> Convolution24
I0802 15:29:42.679996 20651 net.cpp:141] Setting up Convolution24
I0802 15:29:42.680003 20651 net.cpp:148] Top shape: 100 50 26 26 (3380000)
I0802 15:29:42.680008 20651 net.cpp:156] Memory required for data: 1390050000
I0802 15:29:42.680014 20651 net.cpp:484] Sharing parameters 'conv2_w' owned by layer 'Convolution2', param index 0
I0802 15:29:42.680022 20651 net.cpp:484] Sharing parameters 'conv2_b' owned by layer 'Convolution2', param index 1
I0802 15:29:42.680027 20651 layer_factory.hpp:77] Creating layer Pooling24
I0802 15:29:42.680035 20651 net.cpp:91] Creating Layer Pooling24
I0802 15:29:42.680042 20651 net.cpp:425] Pooling24 <- Convolution24
I0802 15:29:42.680049 20651 net.cpp:399] Pooling24 -> Pooling24
I0802 15:29:42.680099 20651 net.cpp:141] Setting up Pooling24
I0802 15:29:42.680107 20651 net.cpp:148] Top shape: 100 50 13 13 (845000)
I0802 15:29:42.680112 20651 net.cpp:156] Memory required for data: 1393430000
I0802 15:29:42.680117 20651 layer_factory.hpp:77] Creating layer InnerProduct33
I0802 15:29:42.680130 20651 net.cpp:91] Creating Layer InnerProduct33
I0802 15:29:42.680135 20651 net.cpp:425] InnerProduct33 <- Pooling24
I0802 15:29:42.680146 20651 net.cpp:399] InnerProduct33 -> InnerProduct33
I0802 15:29:42.688626 20651 net.cpp:141] Setting up InnerProduct33
I0802 15:29:42.688654 20651 net.cpp:148] Top shape: 100 100 (10000)
I0802 15:29:42.688662 20651 net.cpp:156] Memory required for data: 1393470000
I0802 15:29:42.688671 20651 net.cpp:484] Sharing parameters 'ip1_w' owned by layer 'InnerProduct1', param index 0
I0802 15:29:42.688679 20651 net.cpp:484] Sharing parameters 'ip1_b' owned by layer 'InnerProduct1', param index 1
I0802 15:29:42.688685 20651 layer_factory.hpp:77] Creating layer ReLU22
I0802 15:29:42.688699 20651 net.cpp:91] Creating Layer ReLU22
I0802 15:29:42.688707 20651 net.cpp:425] ReLU22 <- InnerProduct33
I0802 15:29:42.688726 20651 net.cpp:386] ReLU22 -> InnerProduct33 (in-place)
I0802 15:29:42.688740 20651 net.cpp:141] Setting up ReLU22
I0802 15:29:42.688748 20651 net.cpp:148] Top shape: 100 100 (10000)
I0802 15:29:42.688753 20651 net.cpp:156] Memory required for data: 1393510000
I0802 15:29:42.688758 20651 layer_factory.hpp:77] Creating layer InnerProduct34
I0802 15:29:42.688769 20651 net.cpp:91] Creating Layer InnerProduct34
I0802 15:29:42.688776 20651 net.cpp:425] InnerProduct34 <- InnerProduct33
I0802 15:29:42.688787 20651 net.cpp:399] InnerProduct34 -> InnerProduct34
I0802 15:29:42.688982 20651 net.cpp:141] Setting up InnerProduct34
I0802 15:29:42.688989 20651 net.cpp:148] Top shape: 100 50 (5000)
I0802 15:29:42.688994 20651 net.cpp:156] Memory required for data: 1393530000
I0802 15:29:42.689000 20651 net.cpp:484] Sharing parameters 'ip2_w' owned by layer 'InnerProduct2', param index 0
I0802 15:29:42.689008 20651 net.cpp:484] Sharing parameters 'ip2_b' owned by layer 'InnerProduct2', param index 1
I0802 15:29:42.689013 20651 layer_factory.hpp:77] Creating layer Concat6
I0802 15:29:42.689023 20651 net.cpp:91] Creating Layer Concat6
I0802 15:29:42.689029 20651 net.cpp:425] Concat6 <- InnerProduct32
I0802 15:29:42.689036 20651 net.cpp:425] Concat6 <- InnerProduct34
I0802 15:29:42.689046 20651 net.cpp:399] Concat6 -> Concat6
I0802 15:29:42.689077 20651 net.cpp:141] Setting up Concat6
I0802 15:29:42.689085 20651 net.cpp:148] Top shape: 100 100 (10000)
I0802 15:29:42.689090 20651 net.cpp:156] Memory required for data: 1393570000
I0802 15:29:42.689095 20651 layer_factory.hpp:77] Creating layer InnerProduct35
I0802 15:29:42.689106 20651 net.cpp:91] Creating Layer InnerProduct35
I0802 15:29:42.689139 20651 net.cpp:425] InnerProduct35 <- Concat6
I0802 15:29:42.689148 20651 net.cpp:399] InnerProduct35 -> InnerProduct35
I0802 15:29:42.689342 20651 net.cpp:141] Setting up InnerProduct35
I0802 15:29:42.689349 20651 net.cpp:148] Top shape: 100 64 (6400)
I0802 15:29:42.689354 20651 net.cpp:156] Memory required for data: 1393595600
I0802 15:29:42.689362 20651 net.cpp:484] Sharing parameters 'fc1_w' owned by layer 'InnerProduct5', param index 0
I0802 15:29:42.689368 20651 net.cpp:484] Sharing parameters 'fc1_b' owned by layer 'InnerProduct5', param index 1
I0802 15:29:42.689374 20651 layer_factory.hpp:77] Creating layer ReLU23
I0802 15:29:42.689384 20651 net.cpp:91] Creating Layer ReLU23
I0802 15:29:42.689390 20651 net.cpp:425] ReLU23 <- InnerProduct35
I0802 15:29:42.689399 20651 net.cpp:386] ReLU23 -> InnerProduct35 (in-place)
I0802 15:29:42.689406 20651 net.cpp:141] Setting up ReLU23
I0802 15:29:42.689414 20651 net.cpp:148] Top shape: 100 64 (6400)
I0802 15:29:42.689419 20651 net.cpp:156] Memory required for data: 1393621200
I0802 15:29:42.689424 20651 layer_factory.hpp:77] Creating layer InnerProduct36
I0802 15:29:42.689435 20651 net.cpp:91] Creating Layer InnerProduct36
I0802 15:29:42.689441 20651 net.cpp:425] InnerProduct36 <- InnerProduct35
I0802 15:29:42.689450 20651 net.cpp:399] InnerProduct36 -> InnerProduct36
I0802 15:29:42.689611 20651 net.cpp:141] Setting up InnerProduct36
I0802 15:29:42.689618 20651 net.cpp:148] Top shape: 100 32 (3200)
I0802 15:29:42.689625 20651 net.cpp:156] Memory required for data: 1393634000
I0802 15:29:42.689671 20651 net.cpp:484] Sharing parameters 'fc2_w' owned by layer 'InnerProduct6', param index 0
I0802 15:29:42.689678 20651 net.cpp:484] Sharing parameters 'fc2_b' owned by layer 'InnerProduct6', param index 1
I0802 15:29:42.689684 20651 layer_factory.hpp:77] Creating layer ReLU24
I0802 15:29:42.689692 20651 net.cpp:91] Creating Layer ReLU24
I0802 15:29:42.689700 20651 net.cpp:425] ReLU24 <- InnerProduct36
I0802 15:29:42.689708 20651 net.cpp:386] ReLU24 -> InnerProduct36 (in-place)
I0802 15:29:42.689718 20651 net.cpp:141] Setting up ReLU24
I0802 15:29:42.689725 20651 net.cpp:148] Top shape: 100 32 (3200)
I0802 15:29:42.689730 20651 net.cpp:156] Memory required for data: 1393646800
I0802 15:29:42.689735 20651 layer_factory.hpp:77] Creating layer dt5
I0802 15:29:42.689744 20651 net.cpp:91] Creating Layer dt5
I0802 15:29:42.689750 20651 net.cpp:425] dt5 <- InnerProduct36
I0802 15:29:42.689760 20651 net.cpp:399] dt5 -> dt5
I0802 15:29:42.689898 20651 net.cpp:141] Setting up dt5
I0802 15:29:42.689905 20651 net.cpp:148] Top shape: 100 2 (200)
I0802 15:29:42.689910 20651 net.cpp:156] Memory required for data: 1393647600
I0802 15:29:42.689916 20651 net.cpp:484] Sharing parameters 'fc3_w' owned by layer 'dt0', param index 0
I0802 15:29:42.689924 20651 net.cpp:484] Sharing parameters 'fc3_b' owned by layer 'dt0', param index 1
I0802 15:29:42.689929 20651 layer_factory.hpp:77] Creating layer Convolution25
I0802 15:29:42.689945 20651 net.cpp:91] Creating Layer Convolution25
I0802 15:29:42.689952 20651 net.cpp:425] Convolution25 <- p1_p1_0_split_6
I0802 15:29:42.689963 20651 net.cpp:399] Convolution25 -> Convolution25
I0802 15:29:42.690346 20651 net.cpp:141] Setting up Convolution25
I0802 15:29:42.690356 20651 net.cpp:148] Top shape: 100 20 60 60 (7200000)
I0802 15:29:42.690362 20651 net.cpp:156] Memory required for data: 1422447600
I0802 15:29:42.690369 20651 net.cpp:484] Sharing parameters 'conv1_w' owned by layer 'Convolution1', param index 0
I0802 15:29:42.690377 20651 net.cpp:484] Sharing parameters 'conv1_b' owned by layer 'Convolution1', param index 1
I0802 15:29:42.690384 20651 layer_factory.hpp:77] Creating layer Pooling25
I0802 15:29:42.690398 20651 net.cpp:91] Creating Layer Pooling25
I0802 15:29:42.690405 20651 net.cpp:425] Pooling25 <- Convolution25
I0802 15:29:42.690418 20651 net.cpp:399] Pooling25 -> Pooling25
I0802 15:29:42.690479 20651 net.cpp:141] Setting up Pooling25
I0802 15:29:42.690487 20651 net.cpp:148] Top shape: 100 20 30 30 (1800000)
I0802 15:29:42.690505 20651 net.cpp:156] Memory required for data: 1429647600
I0802 15:29:42.690512 20651 layer_factory.hpp:77] Creating layer Convolution26
I0802 15:29:42.690527 20651 net.cpp:91] Creating Layer Convolution26
I0802 15:29:42.690534 20651 net.cpp:425] Convolution26 <- Pooling25
I0802 15:29:42.690546 20651 net.cpp:399] Convolution26 -> Convolution26
I0802 15:29:42.691161 20651 net.cpp:141] Setting up Convolution26
I0802 15:29:42.691172 20651 net.cpp:148] Top shape: 100 50 26 26 (3380000)
I0802 15:29:42.691179 20651 net.cpp:156] Memory required for data: 1443167600
I0802 15:29:42.691185 20651 net.cpp:484] Sharing parameters 'conv2_w' owned by layer 'Convolution2', param index 0
I0802 15:29:42.691193 20651 net.cpp:484] Sharing parameters 'conv2_b' owned by layer 'Convolution2', param index 1
I0802 15:29:42.691200 20651 layer_factory.hpp:77] Creating layer Pooling26
I0802 15:29:42.691211 20651 net.cpp:91] Creating Layer Pooling26
I0802 15:29:42.691218 20651 net.cpp:425] Pooling26 <- Convolution26
I0802 15:29:42.691228 20651 net.cpp:399] Pooling26 -> Pooling26
I0802 15:29:42.691304 20651 net.cpp:141] Setting up Pooling26
I0802 15:29:42.691314 20651 net.cpp:148] Top shape: 100 50 13 13 (845000)
I0802 15:29:42.691320 20651 net.cpp:156] Memory required for data: 1446547600
I0802 15:29:42.691326 20651 layer_factory.hpp:77] Creating layer InnerProduct37
I0802 15:29:42.691341 20651 net.cpp:91] Creating Layer InnerProduct37
I0802 15:29:42.691349 20651 net.cpp:425] InnerProduct37 <- Pooling26
I0802 15:29:42.691359 20651 net.cpp:399] InnerProduct37 -> InnerProduct37
I0802 15:29:42.700350 20651 net.cpp:141] Setting up InnerProduct37
I0802 15:29:42.700379 20651 net.cpp:148] Top shape: 100 100 (10000)
I0802 15:29:42.700387 20651 net.cpp:156] Memory required for data: 1446587600
I0802 15:29:42.700397 20651 net.cpp:484] Sharing parameters 'ip1_w' owned by layer 'InnerProduct1', param index 0
I0802 15:29:42.700405 20651 net.cpp:484] Sharing parameters 'ip1_b' owned by layer 'InnerProduct1', param index 1
I0802 15:29:42.700412 20651 layer_factory.hpp:77] Creating layer ReLU25
I0802 15:29:42.700426 20651 net.cpp:91] Creating Layer ReLU25
I0802 15:29:42.700435 20651 net.cpp:425] ReLU25 <- InnerProduct37
I0802 15:29:42.700448 20651 net.cpp:386] ReLU25 -> InnerProduct37 (in-place)
I0802 15:29:42.700461 20651 net.cpp:141] Setting up ReLU25
I0802 15:29:42.700469 20651 net.cpp:148] Top shape: 100 100 (10000)
I0802 15:29:42.700474 20651 net.cpp:156] Memory required for data: 1446627600
I0802 15:29:42.700479 20651 layer_factory.hpp:77] Creating layer InnerProduct38
I0802 15:29:42.700490 20651 net.cpp:91] Creating Layer InnerProduct38
I0802 15:29:42.700496 20651 net.cpp:425] InnerProduct38 <- InnerProduct37
I0802 15:29:42.700510 20651 net.cpp:399] InnerProduct38 -> InnerProduct38
I0802 15:29:42.700698 20651 net.cpp:141] Setting up InnerProduct38
I0802 15:29:42.700706 20651 net.cpp:148] Top shape: 100 50 (5000)
I0802 15:29:42.700712 20651 net.cpp:156] Memory required for data: 1446647600
I0802 15:29:42.700718 20651 net.cpp:484] Sharing parameters 'ip2_w' owned by layer 'InnerProduct2', param index 0
I0802 15:29:42.700726 20651 net.cpp:484] Sharing parameters 'ip2_b' owned by layer 'InnerProduct2', param index 1
I0802 15:29:42.700731 20651 layer_factory.hpp:77] Creating layer Convolution27
I0802 15:29:42.700749 20651 net.cpp:91] Creating Layer Convolution27
I0802 15:29:42.700758 20651 net.cpp:425] Convolution27 <- c26
I0802 15:29:42.700772 20651 net.cpp:399] Convolution27 -> Convolution27
I0802 15:29:42.701169 20651 net.cpp:141] Setting up Convolution27
I0802 15:29:42.701176 20651 net.cpp:148] Top shape: 100 20 60 60 (7200000)
I0802 15:29:42.701182 20651 net.cpp:156] Memory required for data: 1475447600
I0802 15:29:42.701189 20651 net.cpp:484] Sharing parameters 'conv1_w' owned by layer 'Convolution1', param index 0
I0802 15:29:42.701195 20651 net.cpp:484] Sharing parameters 'conv1_b' owned by layer 'Convolution1', param index 1
I0802 15:29:42.701201 20651 layer_factory.hpp:77] Creating layer Pooling27
I0802 15:29:42.701215 20651 net.cpp:91] Creating Layer Pooling27
I0802 15:29:42.701243 20651 net.cpp:425] Pooling27 <- Convolution27
I0802 15:29:42.701253 20651 net.cpp:399] Pooling27 -> Pooling27
I0802 15:29:42.701308 20651 net.cpp:141] Setting up Pooling27
I0802 15:29:42.701316 20651 net.cpp:148] Top shape: 100 20 30 30 (1800000)
I0802 15:29:42.701321 20651 net.cpp:156] Memory required for data: 1482647600
I0802 15:29:42.701326 20651 layer_factory.hpp:77] Creating layer Convolution28
I0802 15:29:42.701340 20651 net.cpp:91] Creating Layer Convolution28
I0802 15:29:42.701346 20651 net.cpp:425] Convolution28 <- Pooling27
I0802 15:29:42.701359 20651 net.cpp:399] Convolution28 -> Convolution28
I0802 15:29:42.701908 20651 net.cpp:141] Setting up Convolution28
I0802 15:29:42.701916 20651 net.cpp:148] Top shape: 100 50 26 26 (3380000)
I0802 15:29:42.701921 20651 net.cpp:156] Memory required for data: 1496167600
I0802 15:29:42.701927 20651 net.cpp:484] Sharing parameters 'conv2_w' owned by layer 'Convolution2', param index 0
I0802 15:29:42.701934 20651 net.cpp:484] Sharing parameters 'conv2_b' owned by layer 'Convolution2', param index 1
I0802 15:29:42.701941 20651 layer_factory.hpp:77] Creating layer Pooling28
I0802 15:29:42.701948 20651 net.cpp:91] Creating Layer Pooling28
I0802 15:29:42.701954 20651 net.cpp:425] Pooling28 <- Convolution28
I0802 15:29:42.701967 20651 net.cpp:399] Pooling28 -> Pooling28
I0802 15:29:42.702016 20651 net.cpp:141] Setting up Pooling28
I0802 15:29:42.702024 20651 net.cpp:148] Top shape: 100 50 13 13 (845000)
I0802 15:29:42.702029 20651 net.cpp:156] Memory required for data: 1499547600
I0802 15:29:42.702034 20651 layer_factory.hpp:77] Creating layer InnerProduct39
I0802 15:29:42.702047 20651 net.cpp:91] Creating Layer InnerProduct39
I0802 15:29:42.702054 20651 net.cpp:425] InnerProduct39 <- Pooling28
I0802 15:29:42.702065 20651 net.cpp:399] InnerProduct39 -> InnerProduct39
I0802 15:29:42.714764 20651 net.cpp:141] Setting up InnerProduct39
I0802 15:29:42.714781 20651 net.cpp:148] Top shape: 100 100 (10000)
I0802 15:29:42.714787 20651 net.cpp:156] Memory required for data: 1499587600
I0802 15:29:42.714795 20651 net.cpp:484] Sharing parameters 'ip1_w' owned by layer 'InnerProduct1', param index 0
I0802 15:29:42.714803 20651 net.cpp:484] Sharing parameters 'ip1_b' owned by layer 'InnerProduct1', param index 1
I0802 15:29:42.714809 20651 layer_factory.hpp:77] Creating layer ReLU26
I0802 15:29:42.714821 20651 net.cpp:91] Creating Layer ReLU26
I0802 15:29:42.714828 20651 net.cpp:425] ReLU26 <- InnerProduct39
I0802 15:29:42.714838 20651 net.cpp:386] ReLU26 -> InnerProduct39 (in-place)
I0802 15:29:42.714849 20651 net.cpp:141] Setting up ReLU26
I0802 15:29:42.714856 20651 net.cpp:148] Top shape: 100 100 (10000)
I0802 15:29:42.714862 20651 net.cpp:156] Memory required for data: 1499627600
I0802 15:29:42.714867 20651 layer_factory.hpp:77] Creating layer InnerProduct40
I0802 15:29:42.714877 20651 net.cpp:91] Creating Layer InnerProduct40
I0802 15:29:42.714884 20651 net.cpp:425] InnerProduct40 <- InnerProduct39
I0802 15:29:42.714895 20651 net.cpp:399] InnerProduct40 -> InnerProduct40
I0802 15:29:42.715080 20651 net.cpp:141] Setting up InnerProduct40
I0802 15:29:42.715086 20651 net.cpp:148] Top shape: 100 50 (5000)
I0802 15:29:42.715091 20651 net.cpp:156] Memory required for data: 1499647600
I0802 15:29:42.715097 20651 net.cpp:484] Sharing parameters 'ip2_w' owned by layer 'InnerProduct2', param index 0
I0802 15:29:42.715104 20651 net.cpp:484] Sharing parameters 'ip2_b' owned by layer 'InnerProduct2', param index 1
I0802 15:29:42.715111 20651 layer_factory.hpp:77] Creating layer Concat7
I0802 15:29:42.715121 20651 net.cpp:91] Creating Layer Concat7
I0802 15:29:42.715126 20651 net.cpp:425] Concat7 <- InnerProduct38
I0802 15:29:42.715134 20651 net.cpp:425] Concat7 <- InnerProduct40
I0802 15:29:42.715143 20651 net.cpp:399] Concat7 -> Concat7
I0802 15:29:42.715173 20651 net.cpp:141] Setting up Concat7
I0802 15:29:42.715180 20651 net.cpp:148] Top shape: 100 100 (10000)
I0802 15:29:42.715185 20651 net.cpp:156] Memory required for data: 1499687600
I0802 15:29:42.715207 20651 layer_factory.hpp:77] Creating layer InnerProduct41
I0802 15:29:42.715219 20651 net.cpp:91] Creating Layer InnerProduct41
I0802 15:29:42.715224 20651 net.cpp:425] InnerProduct41 <- Concat7
I0802 15:29:42.715236 20651 net.cpp:399] InnerProduct41 -> InnerProduct41
I0802 15:29:42.715442 20651 net.cpp:141] Setting up InnerProduct41
I0802 15:29:42.715451 20651 net.cpp:148] Top shape: 100 64 (6400)
I0802 15:29:42.715456 20651 net.cpp:156] Memory required for data: 1499713200
I0802 15:29:42.715462 20651 net.cpp:484] Sharing parameters 'fc1_w' owned by layer 'InnerProduct5', param index 0
I0802 15:29:42.715469 20651 net.cpp:484] Sharing parameters 'fc1_b' owned by layer 'InnerProduct5', param index 1
I0802 15:29:42.715476 20651 layer_factory.hpp:77] Creating layer ReLU27
I0802 15:29:42.715482 20651 net.cpp:91] Creating Layer ReLU27
I0802 15:29:42.715488 20651 net.cpp:425] ReLU27 <- InnerProduct41
I0802 15:29:42.715497 20651 net.cpp:386] ReLU27 -> InnerProduct41 (in-place)
I0802 15:29:42.715504 20651 net.cpp:141] Setting up ReLU27
I0802 15:29:42.715512 20651 net.cpp:148] Top shape: 100 64 (6400)
I0802 15:29:42.715517 20651 net.cpp:156] Memory required for data: 1499738800
I0802 15:29:42.715523 20651 layer_factory.hpp:77] Creating layer InnerProduct42
I0802 15:29:42.715533 20651 net.cpp:91] Creating Layer InnerProduct42
I0802 15:29:42.715539 20651 net.cpp:425] InnerProduct42 <- InnerProduct41
I0802 15:29:42.715551 20651 net.cpp:399] InnerProduct42 -> InnerProduct42
I0802 15:29:42.715709 20651 net.cpp:141] Setting up InnerProduct42
I0802 15:29:42.715716 20651 net.cpp:148] Top shape: 100 32 (3200)
I0802 15:29:42.715723 20651 net.cpp:156] Memory required for data: 1499751600
I0802 15:29:42.715728 20651 net.cpp:484] Sharing parameters 'fc2_w' owned by layer 'InnerProduct6', param index 0
I0802 15:29:42.715734 20651 net.cpp:484] Sharing parameters 'fc2_b' owned by layer 'InnerProduct6', param index 1
I0802 15:29:42.715740 20651 layer_factory.hpp:77] Creating layer ReLU28
I0802 15:29:42.715747 20651 net.cpp:91] Creating Layer ReLU28
I0802 15:29:42.715754 20651 net.cpp:425] ReLU28 <- InnerProduct42
I0802 15:29:42.715760 20651 net.cpp:386] ReLU28 -> InnerProduct42 (in-place)
I0802 15:29:42.715770 20651 net.cpp:141] Setting up ReLU28
I0802 15:29:42.715776 20651 net.cpp:148] Top shape: 100 32 (3200)
I0802 15:29:42.715781 20651 net.cpp:156] Memory required for data: 1499764400
I0802 15:29:42.715786 20651 layer_factory.hpp:77] Creating layer dt6
I0802 15:29:42.715795 20651 net.cpp:91] Creating Layer dt6
I0802 15:29:42.715801 20651 net.cpp:425] dt6 <- InnerProduct42
I0802 15:29:42.715812 20651 net.cpp:399] dt6 -> dt6
I0802 15:29:42.715952 20651 net.cpp:141] Setting up dt6
I0802 15:29:42.715960 20651 net.cpp:148] Top shape: 100 2 (200)
I0802 15:29:42.715965 20651 net.cpp:156] Memory required for data: 1499765200
I0802 15:29:42.715970 20651 net.cpp:484] Sharing parameters 'fc3_w' owned by layer 'dt0', param index 0
I0802 15:29:42.715977 20651 net.cpp:484] Sharing parameters 'fc3_b' owned by layer 'dt0', param index 1
I0802 15:29:42.715983 20651 layer_factory.hpp:77] Creating layer Convolution29
I0802 15:29:42.715994 20651 net.cpp:91] Creating Layer Convolution29
I0802 15:29:42.716001 20651 net.cpp:425] Convolution29 <- p1_p1_0_split_7
I0802 15:29:42.716013 20651 net.cpp:399] Convolution29 -> Convolution29
I0802 15:29:42.716366 20651 net.cpp:141] Setting up Convolution29
I0802 15:29:42.716373 20651 net.cpp:148] Top shape: 100 20 60 60 (7200000)
I0802 15:29:42.716378 20651 net.cpp:156] Memory required for data: 1528565200
I0802 15:29:42.716384 20651 net.cpp:484] Sharing parameters 'conv1_w' owned by layer 'Convolution1', param index 0
I0802 15:29:42.716392 20651 net.cpp:484] Sharing parameters 'conv1_b' owned by layer 'Convolution1', param index 1
I0802 15:29:42.716398 20651 layer_factory.hpp:77] Creating layer Pooling29
I0802 15:29:42.716405 20651 net.cpp:91] Creating Layer Pooling29
I0802 15:29:42.716411 20651 net.cpp:425] Pooling29 <- Convolution29
I0802 15:29:42.716420 20651 net.cpp:399] Pooling29 -> Pooling29
I0802 15:29:42.716482 20651 net.cpp:141] Setting up Pooling29
I0802 15:29:42.716490 20651 net.cpp:148] Top shape: 100 20 30 30 (1800000)
I0802 15:29:42.716495 20651 net.cpp:156] Memory required for data: 1535765200
I0802 15:29:42.716500 20651 layer_factory.hpp:77] Creating layer Convolution30
I0802 15:29:42.716514 20651 net.cpp:91] Creating Layer Convolution30
I0802 15:29:42.716519 20651 net.cpp:425] Convolution30 <- Pooling29
I0802 15:29:42.716531 20651 net.cpp:399] Convolution30 -> Convolution30
I0802 15:29:42.717066 20651 net.cpp:141] Setting up Convolution30
I0802 15:29:42.717073 20651 net.cpp:148] Top shape: 100 50 26 26 (3380000)
I0802 15:29:42.717078 20651 net.cpp:156] Memory required for data: 1549285200
I0802 15:29:42.717084 20651 net.cpp:484] Sharing parameters 'conv2_w' owned by layer 'Convolution2', param index 0
I0802 15:29:42.717092 20651 net.cpp:484] Sharing parameters 'conv2_b' owned by layer 'Convolution2', param index 1
I0802 15:29:42.717097 20651 layer_factory.hpp:77] Creating layer Pooling30
I0802 15:29:42.717108 20651 net.cpp:91] Creating Layer Pooling30
I0802 15:29:42.717113 20651 net.cpp:425] Pooling30 <- Convolution30
I0802 15:29:42.717121 20651 net.cpp:399] Pooling30 -> Pooling30
I0802 15:29:42.717171 20651 net.cpp:141] Setting up Pooling30
I0802 15:29:42.717178 20651 net.cpp:148] Top shape: 100 50 13 13 (845000)
I0802 15:29:42.717185 20651 net.cpp:156] Memory required for data: 1552665200
I0802 15:29:42.717190 20651 layer_factory.hpp:77] Creating layer InnerProduct43
I0802 15:29:42.717198 20651 net.cpp:91] Creating Layer InnerProduct43
I0802 15:29:42.717203 20651 net.cpp:425] InnerProduct43 <- Pooling30
I0802 15:29:42.717216 20651 net.cpp:399] InnerProduct43 -> InnerProduct43
I0802 15:29:42.725410 20651 net.cpp:141] Setting up InnerProduct43
I0802 15:29:42.725428 20651 net.cpp:148] Top shape: 100 100 (10000)
I0802 15:29:42.725435 20651 net.cpp:156] Memory required for data: 1552705200
I0802 15:29:42.725442 20651 net.cpp:484] Sharing parameters 'ip1_w' owned by layer 'InnerProduct1', param index 0
I0802 15:29:42.725450 20651 net.cpp:484] Sharing parameters 'ip1_b' owned by layer 'InnerProduct1', param index 1
I0802 15:29:42.725456 20651 layer_factory.hpp:77] Creating layer ReLU29
I0802 15:29:42.725466 20651 net.cpp:91] Creating Layer ReLU29
I0802 15:29:42.725473 20651 net.cpp:425] ReLU29 <- InnerProduct43
I0802 15:29:42.725482 20651 net.cpp:386] ReLU29 -> InnerProduct43 (in-place)
I0802 15:29:42.725492 20651 net.cpp:141] Setting up ReLU29
I0802 15:29:42.725499 20651 net.cpp:148] Top shape: 100 100 (10000)
I0802 15:29:42.725505 20651 net.cpp:156] Memory required for data: 1552745200
I0802 15:29:42.725510 20651 layer_factory.hpp:77] Creating layer InnerProduct44
I0802 15:29:42.725522 20651 net.cpp:91] Creating Layer InnerProduct44
I0802 15:29:42.725528 20651 net.cpp:425] InnerProduct44 <- InnerProduct43
I0802 15:29:42.725538 20651 net.cpp:399] InnerProduct44 -> InnerProduct44
I0802 15:29:42.725719 20651 net.cpp:141] Setting up InnerProduct44
I0802 15:29:42.725728 20651 net.cpp:148] Top shape: 100 50 (5000)
I0802 15:29:42.725733 20651 net.cpp:156] Memory required for data: 1552765200
I0802 15:29:42.725740 20651 net.cpp:484] Sharing parameters 'ip2_w' owned by layer 'InnerProduct2', param index 0
I0802 15:29:42.725749 20651 net.cpp:484] Sharing parameters 'ip2_b' owned by layer 'InnerProduct2', param index 1
I0802 15:29:42.725759 20651 layer_factory.hpp:77] Creating layer Convolution31
I0802 15:29:42.725775 20651 net.cpp:91] Creating Layer Convolution31
I0802 15:29:42.725781 20651 net.cpp:425] Convolution31 <- c27
I0802 15:29:42.725798 20651 net.cpp:399] Convolution31 -> Convolution31
I0802 15:29:42.726214 20651 net.cpp:141] Setting up Convolution31
I0802 15:29:42.726227 20651 net.cpp:148] Top shape: 100 20 60 60 (7200000)
I0802 15:29:42.726233 20651 net.cpp:156] Memory required for data: 1581565200
I0802 15:29:42.726241 20651 net.cpp:484] Sharing parameters 'conv1_w' owned by layer 'Convolution1', param index 0
I0802 15:29:42.726250 20651 net.cpp:484] Sharing parameters 'conv1_b' owned by layer 'Convolution1', param index 1
I0802 15:29:42.726277 20651 layer_factory.hpp:77] Creating layer Pooling31
I0802 15:29:42.726289 20651 net.cpp:91] Creating Layer Pooling31
I0802 15:29:42.726296 20651 net.cpp:425] Pooling31 <- Convolution31
I0802 15:29:42.726315 20651 net.cpp:399] Pooling31 -> Pooling31
I0802 15:29:42.726377 20651 net.cpp:141] Setting up Pooling31
I0802 15:29:42.726390 20651 net.cpp:148] Top shape: 100 20 30 30 (1800000)
I0802 15:29:42.726397 20651 net.cpp:156] Memory required for data: 1588765200
I0802 15:29:42.726404 20651 layer_factory.hpp:77] Creating layer Convolution32
I0802 15:29:42.726425 20651 net.cpp:91] Creating Layer Convolution32
I0802 15:29:42.726434 20651 net.cpp:425] Convolution32 <- Pooling31
I0802 15:29:42.726447 20651 net.cpp:399] Convolution32 -> Convolution32
I0802 15:29:42.727097 20651 net.cpp:141] Setting up Convolution32
I0802 15:29:42.727128 20651 net.cpp:148] Top shape: 100 50 26 26 (3380000)
I0802 15:29:42.727138 20651 net.cpp:156] Memory required for data: 1602285200
I0802 15:29:42.727152 20651 net.cpp:484] Sharing parameters 'conv2_w' owned by layer 'Convolution2', param index 0
I0802 15:29:42.727161 20651 net.cpp:484] Sharing parameters 'conv2_b' owned by layer 'Convolution2', param index 1
I0802 15:29:42.727169 20651 layer_factory.hpp:77] Creating layer Pooling32
I0802 15:29:42.727180 20651 net.cpp:91] Creating Layer Pooling32
I0802 15:29:42.727188 20651 net.cpp:425] Pooling32 <- Convolution32
I0802 15:29:42.727198 20651 net.cpp:399] Pooling32 -> Pooling32
I0802 15:29:42.727265 20651 net.cpp:141] Setting up Pooling32
I0802 15:29:42.727293 20651 net.cpp:148] Top shape: 100 50 13 13 (845000)
I0802 15:29:42.727301 20651 net.cpp:156] Memory required for data: 1605665200
I0802 15:29:42.727308 20651 layer_factory.hpp:77] Creating layer InnerProduct45
I0802 15:29:42.727324 20651 net.cpp:91] Creating Layer InnerProduct45
I0802 15:29:42.727332 20651 net.cpp:425] InnerProduct45 <- Pooling32
I0802 15:29:42.727347 20651 net.cpp:399] InnerProduct45 -> InnerProduct45
I0802 15:29:42.735451 20651 net.cpp:141] Setting up InnerProduct45
I0802 15:29:42.735469 20651 net.cpp:148] Top shape: 100 100 (10000)
I0802 15:29:42.735474 20651 net.cpp:156] Memory required for data: 1605705200
I0802 15:29:42.735482 20651 net.cpp:484] Sharing parameters 'ip1_w' owned by layer 'InnerProduct1', param index 0
I0802 15:29:42.735491 20651 net.cpp:484] Sharing parameters 'ip1_b' owned by layer 'InnerProduct1', param index 1
I0802 15:29:42.735496 20651 layer_factory.hpp:77] Creating layer ReLU30
I0802 15:29:42.735507 20651 net.cpp:91] Creating Layer ReLU30
I0802 15:29:42.735513 20651 net.cpp:425] ReLU30 <- InnerProduct45
I0802 15:29:42.735522 20651 net.cpp:386] ReLU30 -> InnerProduct45 (in-place)
I0802 15:29:42.735533 20651 net.cpp:141] Setting up ReLU30
I0802 15:29:42.735540 20651 net.cpp:148] Top shape: 100 100 (10000)
I0802 15:29:42.735545 20651 net.cpp:156] Memory required for data: 1605745200
I0802 15:29:42.735551 20651 layer_factory.hpp:77] Creating layer InnerProduct46
…
I0802 15:29:42.892989 20651 net.cpp:156] Memory required for data: 2401646000
I0802 15:29:42.893000 20651 net.cpp:484] Sharing parameters 'ip1_w' owned by layer 'InnerProduct1', param index 0
I0802 15:29:42.893010 20651 net.cpp:484] Sharing parameters 'ip1_b' owned by layer 'InnerProduct1', param index 1
I0802 15:29:42.893018 20651 layer_factory.hpp:77] Creating layer ReLU61
I0802 15:29:42.893030 20651 net.cpp:91] Creating Layer ReLU61
I0802 15:29:42.893040 20651 net.cpp:425] ReLU61 <- InnerProduct91
I0802 15:29:42.893051 20651 net.cpp:386] ReLU61 -> InnerProduct91 (in-place)
I0802 15:29:42.893065 20651 net.cpp:141] Setting up ReLU61
I0802 15:29:42.893074 20651 net.cpp:148] Top shape: 100 100 (10000)
I0802 15:29:42.893080 20651 net.cpp:156] Memory required for data: 2401686000
I0802 15:29:42.893086 20651 layer_factory.hpp:77] Creating layer InnerProduct92
I0802 15:29:42.893101 20651 net.cpp:91] Creating Layer InnerProduct92
I0802 15:29:42.893108 20651 net.cpp:425] InnerProduct92 <- InnerProduct91
I0802 15:29:42.893120 20651 net.cpp:399] InnerProduct92 -> InnerProduct92
I0802 15:29:42.893348 20651 net.cpp:141] Setting up InnerProduct92
I0802 15:29:42.893378 20651 net.cpp:148] Top shape: 100 50 (5000)
I0802 15:29:42.893384 20651 net.cpp:156] Memory required for data: 2401706000
I0802 15:29:42.893391 20651 net.cpp:484] Sharing parameters 'ip2_w' owned by layer 'InnerProduct2', param index 0
I0802 15:29:42.893399 20651 net.cpp:484] Sharing parameters 'ip2_b' owned by layer 'InnerProduct2', param index 1
I0802 15:29:42.893406 20651 layer_factory.hpp:77] Creating layer Convolution63
I0802 15:29:42.893422 20651 net.cpp:91] Creating Layer Convolution63
I0802 15:29:42.893429 20651 net.cpp:425] Convolution63 <- c16
I0802 15:29:42.893445 20651 net.cpp:399] Convolution63 -> Convolution63
I0802 15:29:42.893904 20651 net.cpp:141] Setting up Convolution63
I0802 15:29:42.893914 20651 net.cpp:148] Top shape: 100 20 60 60 (7200000)
I0802 15:29:42.893920 20651 net.cpp:156] Memory required for data: 2430506000
I0802 15:29:42.893929 20651 net.cpp:484] Sharing parameters 'conv1_w' owned by layer 'Convolution1', param index 0
I0802 15:29:42.893936 20651 net.cpp:484] Sharing parameters 'conv1_b' owned by layer 'Convolution1', param index 1
I0802 15:29:42.893944 20651 layer_factory.hpp:77] Creating layer Pooling63
I0802 15:29:42.893954 20651 net.cpp:91] Creating Layer Pooling63
I0802 15:29:42.893960 20651 net.cpp:425] Pooling63 <- Convolution63
I0802 15:29:42.893975 20651 net.cpp:399] Pooling63 -> Pooling63
I0802 15:29:42.894037 20651 net.cpp:141] Setting up Pooling63
I0802 15:29:42.894045 20651 net.cpp:148] Top shape: 100 20 30 30 (1800000)
I0802 15:29:42.894052 20651 net.cpp:156] Memory required for data: 2437706000
I0802 15:29:42.894058 20651 layer_factory.hpp:77] Creating layer Convolution64
I0802 15:29:42.894075 20651 net.cpp:91] Creating Layer Convolution64
I0802 15:29:42.894083 20651 net.cpp:425] Convolution64 <- Pooling63
I0802 15:29:42.894093 20651 net.cpp:399] Convolution64 -> Convolution64
I0802 15:29:42.894716 20651 net.cpp:141] Setting up Convolution64
I0802 15:29:42.894726 20651 net.cpp:148] Top shape: 100 50 26 26 (3380000)
I0802 15:29:42.894732 20651 net.cpp:156] Memory required for data: 2451226000
I0802 15:29:42.894739 20651 net.cpp:484] Sharing parameters 'conv2_w' owned by layer 'Convolution2', param index 0
I0802 15:29:42.894747 20651 net.cpp:484] Sharing parameters 'conv2_b' owned by layer 'Convolution2', param index 1
I0802 15:29:42.894753 20651 layer_factory.hpp:77] Creating layer Pooling64
I0802 15:29:42.894765 20651 net.cpp:91] Creating Layer Pooling64
I0802 15:29:42.894773 20651 net.cpp:425] Pooling64 <- Convolution64
I0802 15:29:42.894783 20651 net.cpp:399] Pooling64 -> Pooling64
I0802 15:29:42.894843 20651 net.cpp:141] Setting up Pooling64
I0802 15:29:42.894852 20651 net.cpp:148] Top shape: 100 50 13 13 (845000)
I0802 15:29:42.894858 20651 net.cpp:156] Memory required for data: 2454606000
I0802 15:29:42.894865 20651 layer_factory.hpp:77] Creating layer InnerProduct93
I0802 15:29:42.894875 20651 net.cpp:91] Creating Layer InnerProduct93
I0802 15:29:42.894881 20651 net.cpp:425] InnerProduct93 <- Pooling64
I0802 15:29:42.894894 20651 net.cpp:399] InnerProduct93 -> InnerProduct93
I0802 15:29:42.903677 20651 net.cpp:141] Setting up InnerProduct93
I0802 15:29:42.903698 20651 net.cpp:148] Top shape: 100 100 (10000)
I0802 15:29:42.903705 20651 net.cpp:156] Memory required for data: 2454646000
I0802 15:29:42.903714 20651 net.cpp:484] Sharing parameters 'ip1_w' owned by layer 'InnerProduct1', param index 0
I0802 15:29:42.903723 20651 net.cpp:484] Sharing parameters 'ip1_b' owned by layer 'InnerProduct1', param index 1
I0802 15:29:42.903730 20651 layer_factory.hpp:77] Creating layer ReLU62
I0802 15:29:42.903743 20651 net.cpp:91] Creating Layer ReLU62
I0802 15:29:42.903750 20651 net.cpp:425] ReLU62 <- InnerProduct93
I0802 15:29:42.903760 20651 net.cpp:386] ReLU62 -> InnerProduct93 (in-place)
I0802 15:29:42.903774 20651 net.cpp:141] Setting up ReLU62
I0802 15:29:42.903782 20651 net.cpp:148] Top shape: 100 100 (10000)
I0802 15:29:42.903789 20651 net.cpp:156] Memory required for data: 2454686000
I0802 15:29:42.903795 20651 layer_factory.hpp:77] Creating layer InnerProduct94
I0802 15:29:42.903833 20651 net.cpp:91] Creating Layer InnerProduct94
I0802 15:29:42.903841 20651 net.cpp:425] InnerProduct94 <- InnerProduct93
I0802 15:29:42.903853 20651 net.cpp:399] InnerProduct94 -> InnerProduct94
I0802 15:29:42.904075 20651 net.cpp:141] Setting up InnerProduct94
I0802 15:29:42.904085 20651 net.cpp:148] Top shape: 100 50 (5000)
I0802 15:29:42.904093 20651 net.cpp:156] Memory required for data: 2454706000
I0802 15:29:42.904099 20651 net.cpp:484] Sharing parameters 'ip2_w' owned by layer 'InnerProduct2', param index 0
I0802 15:29:42.904106 20651 net.cpp:484] Sharing parameters 'ip2_b' owned by layer 'InnerProduct2', param index 1
I0802 15:29:42.904114 20651 layer_factory.hpp:77] Creating layer Concat16
I0802 15:29:42.904124 20651 net.cpp:91] Creating Layer Concat16
I0802 15:29:42.904130 20651 net.cpp:425] Concat16 <- InnerProduct92
I0802 15:29:42.904139 20651 net.cpp:425] Concat16 <- InnerProduct94
I0802 15:29:42.904150 20651 net.cpp:399] Concat16 -> Concat16
I0802 15:29:42.904187 20651 net.cpp:141] Setting up Concat16
I0802 15:29:42.904196 20651 net.cpp:148] Top shape: 100 100 (10000)
I0802 15:29:42.904201 20651 net.cpp:156] Memory required for data: 2454746000
I0802 15:29:42.904208 20651 layer_factory.hpp:77] Creating layer InnerProduct95
I0802 15:29:42.904220 20651 net.cpp:91] Creating Layer InnerProduct95
I0802 15:29:42.904227 20651 net.cpp:425] InnerProduct95 <- Concat16
I0802 15:29:42.904237 20651 net.cpp:399] InnerProduct95 -> InnerProduct95
I0802 15:29:42.905118 20651 net.cpp:141] Setting up InnerProduct95
I0802 15:29:42.905131 20651 net.cpp:148] Top shape: 100 64 (6400)
I0802 15:29:42.905138 20651 net.cpp:156] Memory required for data: 2454771600
I0802 15:29:42.905146 20651 net.cpp:484] Sharing parameters 'fc1_w' owned by layer 'InnerProduct5', param index 0
I0802 15:29:42.905154 20651 net.cpp:484] Sharing parameters 'fc1_b' owned by layer 'InnerProduct5', param index 1
I0802 15:29:42.905161 20651 layer_factory.hpp:77] Creating layer ReLU63
I0802 15:29:42.905170 20651 net.cpp:91] Creating Layer ReLU63
I0802 15:29:42.905182 20651 net.cpp:425] ReLU63 <- InnerProduct95
I0802 15:29:42.905194 20651 net.cpp:386] ReLU63 -> InnerProduct95 (in-place)
I0802 15:29:42.905206 20651 net.cpp:141] Setting up ReLU63
I0802 15:29:42.905215 20651 net.cpp:148] Top shape: 100 64 (6400)
I0802 15:29:42.905221 20651 net.cpp:156] Memory required for data: 2454797200
I0802 15:29:42.905227 20651 layer_factory.hpp:77] Creating layer InnerProduct96
I0802 15:29:42.905238 20651 net.cpp:91] Creating Layer InnerProduct96
I0802 15:29:42.905244 20651 net.cpp:425] InnerProduct96 <- InnerProduct95
I0802 15:29:42.905259 20651 net.cpp:399] InnerProduct96 -> InnerProduct96
I0802 15:29:42.905457 20651 net.cpp:141] Setting up InnerProduct96
I0802 15:29:42.905465 20651 net.cpp:148] Top shape: 100 32 (3200)
I0802 15:29:42.905472 20651 net.cpp:156] Memory required for data: 2454810000
I0802 15:29:42.905478 20651 net.cpp:484] Sharing parameters 'fc2_w' owned by layer 'InnerProduct6', param index 0
I0802 15:29:42.905486 20651 net.cpp:484] Sharing parameters 'fc2_b' owned by layer 'InnerProduct6', param index 1
I0802 15:29:42.905493 20651 layer_factory.hpp:77] Creating layer ReLU64
I0802 15:29:42.905503 20651 net.cpp:91] Creating Layer ReLU64
I0802 15:29:42.905510 20651 net.cpp:425] ReLU64 <- InnerProduct96
I0802 15:29:42.905519 20651 net.cpp:386] ReLU64 -> InnerProduct96 (in-place)
I0802 15:29:42.905530 20651 net.cpp:141] Setting up ReLU64
I0802 15:29:42.905539 20651 net.cpp:148] Top shape: 100 32 (3200)
I0802 15:29:42.905545 20651 net.cpp:156] Memory required for data: 2454822800
I0802 15:29:42.905551 20651 layer_factory.hpp:77] Creating layer dt15
I0802 15:29:42.905563 20651 net.cpp:91] Creating Layer dt15
I0802 15:29:42.905570 20651 net.cpp:425] dt15 <- InnerProduct96
I0802 15:29:42.905581 20651 net.cpp:399] dt15 -> dt15
I0802 15:29:42.905755 20651 net.cpp:141] Setting up dt15
I0802 15:29:42.905763 20651 net.cpp:148] Top shape: 100 2 (200)
I0802 15:29:42.905769 20651 net.cpp:156] Memory required for data: 2454823600
I0802 15:29:42.905776 20651 net.cpp:484] Sharing parameters 'fc3_w' owned by layer 'dt0', param index 0
I0802 15:29:42.905798 20651 net.cpp:484] Sharing parameters 'fc3_b' owned by layer 'dt0', param index 1
I0802 15:29:42.905805 20651 layer_factory.hpp:77] Creating layer Convolution65
I0802 15:29:42.905822 20651 net.cpp:91] Creating Layer Convolution65
I0802 15:29:42.905830 20651 net.cpp:425] Convolution65 <- p2_p2_0_split_7
I0802 15:29:42.905843 20651 net.cpp:399] Convolution65 -> Convolution65
I0802 15:29:42.906277 20651 net.cpp:141] Setting up Convolution65
I0802 15:29:42.906286 20651 net.cpp:148] Top shape: 100 20 60 60 (7200000)
I0802 15:29:42.906293 20651 net.cpp:156] Memory required for data: 2483623600
I0802 15:29:42.906299 20651 net.cpp:484] Sharing parameters 'conv1_w' owned by layer 'Convolution1', param index 0
I0802 15:29:42.906307 20651 net.cpp:484] Sharing parameters 'conv1_b' owned by layer 'Convolution1', param index 1
I0802 15:29:42.906314 20651 layer_factory.hpp:77] Creating layer Pooling65
I0802 15:29:42.906323 20651 net.cpp:91] Creating Layer Pooling65
I0802 15:29:42.906330 20651 net.cpp:425] Pooling65 <- Convolution65
I0802 15:29:42.906343 20651 net.cpp:399] Pooling65 -> Pooling65
I0802 15:29:42.906404 20651 net.cpp:141] Setting up Pooling65
I0802 15:29:42.906414 20651 net.cpp:148] Top shape: 100 20 30 30 (1800000)
I0802 15:29:42.906421 20651 net.cpp:156] Memory required for data: 2490823600
I0802 15:29:42.906427 20651 layer_factory.hpp:77] Creating layer Convolution66
I0802 15:29:42.906440 20651 net.cpp:91] Creating Layer Convolution66
I0802 15:29:42.906446 20651 net.cpp:425] Convolution66 <- Pooling65
I0802 15:29:42.906460 20651 net.cpp:399] Convolution66 -> Convolution66
I0802 15:29:42.907088 20651 net.cpp:141] Setting up Convolution66
I0802 15:29:42.907097 20651 net.cpp:148] Top shape: 100 50 26 26 (3380000)
I0802 15:29:42.907104 20651 net.cpp:156] Memory required for data: 2504343600
I0802 15:29:42.907110 20651 net.cpp:484] Sharing parameters 'conv2_w' owned by layer 'Convolution2', param index 0
I0802 15:29:42.907119 20651 net.cpp:484] Sharing parameters 'conv2_b' owned by layer 'Convolution2', param index 1
I0802 15:29:42.907125 20651 layer_factory.hpp:77] Creating layer Pooling66
I0802 15:29:42.907136 20651 net.cpp:91] Creating Layer Pooling66
I0802 15:29:42.907143 20651 net.cpp:425] Pooling66 <- Convolution66
I0802 15:29:42.907153 20651 net.cpp:399] Pooling66 -> Pooling66
I0802 15:29:42.907215 20651 net.cpp:141] Setting up Pooling66
I0802 15:29:42.907223 20651 net.cpp:148] Top shape: 100 50 13 13 (845000)
I0802 15:29:42.907230 20651 net.cpp:156] Memory required for data: 2507723600
I0802 15:29:42.907236 20651 layer_factory.hpp:77] Creating layer InnerProduct97
I0802 15:29:42.907248 20651 net.cpp:91] Creating Layer InnerProduct97
I0802 15:29:42.907255 20651 net.cpp:425] InnerProduct97 <- Pooling66
I0802 15:29:42.907265 20651 net.cpp:399] InnerProduct97 -> InnerProduct97
I0802 15:29:42.915776 20651 net.cpp:141] Setting up InnerProduct97
I0802 15:29:42.915801 20651 net.cpp:148] Top shape: 100 100 (10000)
I0802 15:29:42.915807 20651 net.cpp:156] Memory required for data: 2507763600
I0802 15:29:42.915817 20651 net.cpp:484] Sharing parameters 'ip1_w' owned by layer 'InnerProduct1', param index 0
I0802 15:29:42.915825 20651 net.cpp:484] Sharing parameters 'ip1_b' owned by layer 'InnerProduct1', param index 1
I0802 15:29:42.915832 20651 layer_factory.hpp:77] Creating layer ReLU65
I0802 15:29:42.915843 20651 net.cpp:91] Creating Layer ReLU65
I0802 15:29:42.915853 20651 net.cpp:425] ReLU65 <- InnerProduct97
I0802 15:29:42.915865 20651 net.cpp:386] ReLU65 -> InnerProduct97 (in-place)
I0802 15:29:42.915879 20651 net.cpp:141] Setting up ReLU65
I0802 15:29:42.915885 20651 net.cpp:148] Top shape: 100 100 (10000)
I0802 15:29:42.915890 20651 net.cpp:156] Memory required for data: 2507803600
I0802 15:29:42.915896 20651 layer_factory.hpp:77] Creating layer InnerProduct98
I0802 15:29:42.915906 20651 net.cpp:91] Creating Layer InnerProduct98
I0802 15:29:42.915912 20651 net.cpp:425] InnerProduct98 <- InnerProduct97
I0802 15:29:42.915943 20651 net.cpp:399] InnerProduct98 -> InnerProduct98
I0802 15:29:42.916149 20651 net.cpp:141] Setting up InnerProduct98
I0802 15:29:42.916157 20651 net.cpp:148] Top shape: 100 50 (5000)
I0802 15:29:42.916162 20651 net.cpp:156] Memory required for data: 2507823600
I0802 15:29:42.916169 20651 net.cpp:484] Sharing parameters 'ip2_w' owned by layer 'InnerProduct2', param index 0
I0802 15:29:42.916177 20651 net.cpp:484] Sharing parameters 'ip2_b' owned by layer 'InnerProduct2', param index 1
I0802 15:29:42.916182 20651 layer_factory.hpp:77] Creating layer Convolution67
I0802 15:29:42.916198 20651 net.cpp:91] Creating Layer Convolution67
I0802 15:29:42.916204 20651 net.cpp:425] Convolution67 <- c17
I0802 15:29:42.916218 20651 net.cpp:399] Convolution67 -> Convolution67
I0802 15:29:42.916621 20651 net.cpp:141] Setting up Convolution67
I0802 15:29:42.916630 20651 net.cpp:148] Top shape: 100 20 60 60 (7200000)
I0802 15:29:42.916635 20651 net.cpp:156] Memory required for data: 2536623600
I0802 15:29:42.916641 20651 net.cpp:484] Sharing parameters 'conv1_w' owned by layer 'Convolution1', param index 0
I0802 15:29:42.916648 20651 net.cpp:484] Sharing parameters 'conv1_b' owned by layer 'Convolution1', param index 1
I0802 15:29:42.916653 20651 layer_factory.hpp:77] Creating layer Pooling67
I0802 15:29:42.916666 20651 net.cpp:91] Creating Layer Pooling67
I0802 15:29:42.916672 20651 net.cpp:425] Pooling67 <- Convolution67
I0802 15:29:42.916682 20651 net.cpp:399] Pooling67 -> Pooling67
I0802 15:29:42.916738 20651 net.cpp:141] Setting up Pooling67
I0802 15:29:42.916745 20651 net.cpp:148] Top shape: 100 20 30 30 (1800000)
I0802 15:29:42.916750 20651 net.cpp:156] Memory required for data: 2543823600
I0802 15:29:42.916756 20651 layer_factory.hpp:77] Creating layer Convolution68
I0802 15:29:42.916769 20651 net.cpp:91] Creating Layer Convolution68
I0802 15:29:42.916776 20651 net.cpp:425] Convolution68 <- Pooling67
I0802 15:29:42.916785 20651 net.cpp:399] Convolution68 -> Convolution68
I0802 15:29:42.917351 20651 net.cpp:141] Setting up Convolution68
I0802 15:29:42.917358 20651 net.cpp:148] Top shape: 100 50 26 26 (3380000)
I0802 15:29:42.917364 20651 net.cpp:156] Memory required for data: 2557343600
I0802 15:29:42.917369 20651 net.cpp:484] Sharing parameters 'conv2_w' owned by layer 'Convolution2', param index 0
I0802 15:29:42.917376 20651 net.cpp:484] Sharing parameters 'conv2_b' owned by layer 'Convolution2', param index 1
I0802 15:29:42.917382 20651 layer_factory.hpp:77] Creating layer Pooling68
I0802 15:29:42.917392 20651 net.cpp:91] Creating Layer Pooling68
I0802 15:29:42.917397 20651 net.cpp:425] Pooling68 <- Convolution68
I0802 15:29:42.917405 20651 net.cpp:399] Pooling68 -> Pooling68
I0802 15:29:42.917459 20651 net.cpp:141] Setting up Pooling68
I0802 15:29:42.917465 20651 net.cpp:148] Top shape: 100 50 13 13 (845000)
I0802 15:29:42.917470 20651 net.cpp:156] Memory required for data: 2560723600
I0802 15:29:42.917475 20651 layer_factory.hpp:77] Creating layer InnerProduct99
I0802 15:29:42.917486 20651 net.cpp:91] Creating Layer InnerProduct99
I0802 15:29:42.917491 20651 net.cpp:425] InnerProduct99 <- Pooling68
I0802 15:29:42.917500 20651 net.cpp:399] InnerProduct99 -> InnerProduct99
I0802 15:29:42.925654 20651 net.cpp:141] Setting up InnerProduct99
I0802 15:29:42.925670 20651 net.cpp:148] Top shape: 100 100 (10000)
I0802 15:29:42.925675 20651 net.cpp:156] Memory required for data: 2560763600
I0802 15:29:42.925683 20651 net.cpp:484] Sharing parameters 'ip1_w' owned by layer 'InnerProduct1', param index 0
I0802 15:29:42.925690 20651 net.cpp:484] Sharing parameters 'ip1_b' owned by layer 'InnerProduct1', param index 1
I0802 15:29:42.925695 20651 layer_factory.hpp:77] Creating layer ReLU66
I0802 15:29:42.925704 20651 net.cpp:91] Creating Layer ReLU66
I0802 15:29:42.925711 20651 net.cpp:425] ReLU66 <- InnerProduct99
I0802 15:29:42.925722 20651 net.cpp:386] ReLU66 -> InnerProduct99 (in-place)
I0802 15:29:42.925734 20651 net.cpp:141] Setting up ReLU66
I0802 15:29:42.925740 20651 net.cpp:148] Top shape: 100 100 (10000)
I0802 15:29:42.925745 20651 net.cpp:156] Memory required for data: 2560803600
I0802 15:29:42.925765 20651 layer_factory.hpp:77] Creating layer InnerProduct100
I0802 15:29:42.925776 20651 net.cpp:91] Creating Layer InnerProduct100
I0802 15:29:42.925781 20651 net.cpp:425] InnerProduct100 <- InnerProduct99
I0802 15:29:42.925792 20651 net.cpp:399] InnerProduct100 -> InnerProduct100
I0802 15:29:42.925984 20651 net.cpp:141] Setting up InnerProduct100
I0802 15:29:42.925992 20651 net.cpp:148] Top shape: 100 50 (5000)
I0802 15:29:42.925997 20651 net.cpp:156] Memory required for data: 2560823600
I0802 15:29:42.926003 20651 net.cpp:484] Sharing parameters 'ip2_w' owned by layer 'InnerProduct2', param index 0
I0802 15:29:42.926010 20651 net.cpp:484] Sharing parameters 'ip2_b' owned by layer 'InnerProduct2', param index 1
I0802 15:29:42.926015 20651 layer_factory.hpp:77] Creating layer Concat17
I0802 15:29:42.926024 20651 net.cpp:91] Creating Layer Concat17
I0802 15:29:42.926029 20651 net.cpp:425] Concat17 <- InnerProduct98
I0802 15:29:42.926036 20651 net.cpp:425] Concat17 <- InnerProduct100
I0802 15:29:42.926048 20651 net.cpp:399] Concat17 -> Concat17
I0802 15:29:42.926079 20651 net.cpp:141] Setting up Concat17
I0802 15:29:42.926086 20651 net.cpp:148] Top shape: 100 100 (10000)
I0802 15:29:42.926091 20651 net.cpp:156] Memory required for data: 2560863600
I0802 15:29:42.926096 20651 layer_factory.hpp:77] Creating layer InnerProduct101
I0802 15:29:42.926107 20651 net.cpp:91] Creating Layer InnerProduct101
I0802 15:29:42.926113 20651 net.cpp:425] InnerProduct101 <- Concat17
I0802 15:29:42.926125 20651 net.cpp:399] InnerProduct101 -> InnerProduct101
I0802 15:29:42.926869 20651 net.cpp:141] Setting up InnerProduct101
I0802 15:29:42.926880 20651 net.cpp:148] Top shape: 100 64 (6400)
I0802 15:29:42.926885 20651 net.cpp:156] Memory required for data: 2560889200
I0802 15:29:42.926892 20651 net.cpp:484] Sharing parameters 'fc1_w' owned by layer 'InnerProduct5', param index 0
I0802 15:29:42.926899 20651 net.cpp:484] Sharing parameters 'fc1_b' owned by layer 'InnerProduct5', param index 1
I0802 15:29:42.926904 20651 layer_factory.hpp:77] Creating layer ReLU67
I0802 15:29:42.926913 20651 net.cpp:91] Creating Layer ReLU67
I0802 15:29:42.926918 20651 net.cpp:425] ReLU67 <- InnerProduct101
I0802 15:29:42.926929 20651 net.cpp:386] ReLU67 -> InnerProduct101 (in-place)
I0802 15:29:42.926939 20651 net.cpp:141] Setting up ReLU67
I0802 15:29:42.926945 20651 net.cpp:148] Top shape: 100 64 (6400)
I0802 15:29:42.926950 20651 net.cpp:156] Memory required for data: 2560914800
I0802 15:29:42.926956 20651 layer_factory.hpp:77] Creating layer InnerProduct102
I0802 15:29:42.926964 20651 net.cpp:91] Creating Layer InnerProduct102
I0802 15:29:42.926970 20651 net.cpp:425] InnerProduct102 <- InnerProduct101
I0802 15:29:42.926981 20651 net.cpp:399] InnerProduct102 -> InnerProduct102
I0802 15:29:42.927126 20651 net.cpp:141] Setting up InnerProduct102
I0802 15:29:42.927134 20651 net.cpp:148] Top shape: 100 32 (3200)
I0802 15:29:42.927139 20651 net.cpp:156] Memory required for data: 2560927600
I0802 15:29:42.927145 20651 net.cpp:484] Sharing parameters 'fc2_w' owned by layer 'InnerProduct6', param index 0
I0802 15:29:42.927151 20651 net.cpp:484] Sharing parameters 'fc2_b' owned by layer 'InnerProduct6', param index 1
I0802 15:29:42.927156 20651 layer_factory.hpp:77] Creating layer ReLU68
I0802 15:29:42.927163 20651 net.cpp:91] Creating Layer ReLU68
I0802 15:29:42.927170 20651 net.cpp:425] ReLU68 <- InnerProduct102
I0802 15:29:42.927176 20651 net.cpp:386] ReLU68 -> InnerProduct102 (in-place)
I0802 15:29:42.927186 20651 net.cpp:141] Setting up ReLU68
I0802 15:29:42.927192 20651 net.cpp:148] Top shape: 100 32 (3200)
I0802 15:29:42.927197 20651 net.cpp:156] Memory required for data: 2560940400
I0802 15:29:42.927202 20651 layer_factory.hpp:77] Creating layer dt16
I0802 15:29:42.927212 20651 net.cpp:91] Creating Layer dt16
I0802 15:29:42.927218 20651 net.cpp:425] dt16 <- InnerProduct102
I0802 15:29:42.927230 20651 net.cpp:399] dt16 -> dt16
I0802 15:29:42.927361 20651 net.cpp:141] Setting up dt16
I0802 15:29:42.927381 20651 net.cpp:148] Top shape: 100 2 (200)
I0802 15:29:42.927386 20651 net.cpp:156] Memory required for data: 2560941200
I0802 15:29:42.927392 20651 net.cpp:484] Sharing parameters 'fc3_w' owned by layer 'dt0', param index 0
I0802 15:29:42.927399 20651 net.cpp:484] Sharing parameters 'fc3_b' owned by layer 'dt0', param index 1
I0802 15:29:42.927404 20651 layer_factory.hpp:77] Creating layer Convolution69
I0802 15:29:42.927417 20651 net.cpp:91] Creating Layer Convolution69
I0802 15:29:42.927423 20651 net.cpp:425] Convolution69 <- p2_p2_0_split_8
I0802 15:29:42.927436 20651 net.cpp:399] Convolution69 -> Convolution69
I0802 15:29:42.927757 20651 net.cpp:141] Setting up Convolution69
I0802 15:29:42.927764 20651 net.cpp:148] Top shape: 100 20 60 60 (7200000)
I0802 15:29:42.927769 20651 net.cpp:156] Memory required for data: 2589741200
I0802 15:29:42.927774 20651 net.cpp:484] Sharing parameters 'conv1_w' owned by layer 'Convolution1', param index 0
I0802 15:29:42.927781 20651 net.cpp:484] Sharing parameters 'conv1_b' owned by layer 'Convolution1', param index 1
I0802 15:29:42.927788 20651 layer_factory.hpp:77] Creating layer Pooling69
I0802 15:29:42.927795 20651 net.cpp:91] Creating Layer Pooling69
I0802 15:29:42.927800 20651 net.cpp:425] Pooling69 <- Convolution69
I0802 15:29:42.927811 20651 net.cpp:399] Pooling69 -> Pooling69
I0802 15:29:42.927855 20651 net.cpp:141] Setting up Pooling69
I0802 15:29:42.927863 20651 net.cpp:148] Top shape: 100 20 30 30 (1800000)
I0802 15:29:42.927868 20651 net.cpp:156] Memory required for data: 2596941200
I0802 15:29:42.927873 20651 layer_factory.hpp:77] Creating layer Convolution70
I0802 15:29:42.927888 20651 net.cpp:91] Creating Layer Convolution70
I0802 15:29:42.927893 20651 net.cpp:425] Convolution70 <- Pooling69
I0802 15:29:42.927903 20651 net.cpp:399] Convolution70 -> Convolution70
I0802 15:29:42.928406 20651 net.cpp:141] Setting up Convolution70
I0802 15:29:42.928413 20651 net.cpp:148] Top shape: 100 50 26 26 (3380000)
I0802 15:29:42.928418 20651 net.cpp:156] Memory required for data: 2610461200
I0802 15:29:42.928423 20651 net.cpp:484] Sharing parameters 'conv2_w' owned by layer 'Convolution2', param index 0
I0802 15:29:42.928431 20651 net.cpp:484] Sharing parameters 'conv2_b' owned by layer 'Convolution2', param index 1
I0802 15:29:42.928436 20651 layer_factory.hpp:77] Creating layer Pooling70
I0802 15:29:42.928443 20651 net.cpp:91] Creating Layer Pooling70
I0802 15:29:42.928448 20651 net.cpp:425] Pooling70 <- Convolution70
I0802 15:29:42.928457 20651 net.cpp:399] Pooling70 -> Pooling70
I0802 15:29:42.928503 20651 net.cpp:141] Setting up Pooling70
I0802 15:29:42.928510 20651 net.cpp:148] Top shape: 100 50 13 13 (845000)
I0802 15:29:42.928515 20651 net.cpp:156] Memory required for data: 2613841200
I0802 15:29:42.928520 20651 layer_factory.hpp:77] Creating layer InnerProduct103
I0802 15:29:42.928531 20651 net.cpp:91] Creating Layer InnerProduct103
I0802 15:29:42.928537 20651 net.cpp:425] InnerProduct103 <- Pooling70
I0802 15:29:42.928549 20651 net.cpp:399] InnerProduct103 -> InnerProduct103
I0802 15:29:42.936594 20651 net.cpp:141] Setting up InnerProduct103
I0802 15:29:42.936611 20651 net.cpp:148] Top shape: 100 100 (10000)
I0802 15:29:42.936617 20651 net.cpp:156] Memory required for data: 2613881200
I0802 15:29:42.936625 20651 net.cpp:484] Sharing parameters 'ip1_w' owned by layer 'InnerProduct1', param index 0
I0802 15:29:42.936631 20651 net.cpp:484] Sharing parameters 'ip1_b' owned by layer 'InnerProduct1', param index 1
I0802 15:29:42.936637 20651 layer_factory.hpp:77] Creating layer ReLU69
I0802 15:29:42.936646 20651 net.cpp:91] Creating Layer ReLU69
I0802 15:29:42.936653 20651 net.cpp:425] ReLU69 <- InnerProduct103
I0802 15:29:42.936664 20651 net.cpp:386] ReLU69 -> InnerProduct103 (in-place)
I0802 15:29:42.936676 20651 net.cpp:141] Setting up ReLU69
I0802 15:29:42.936682 20651 net.cpp:148] Top shape: 100 100 (10000)
I0802 15:29:42.936687 20651 net.cpp:156] Memory required for data: 2613921200
I0802 15:29:42.936693 20651 layer_factory.hpp:77] Creating layer InnerProduct104
I0802 15:29:42.936717 20651 net.cpp:91] Creating Layer InnerProduct104
I0802 15:29:42.936723 20651 net.cpp:425] InnerProduct104 <- InnerProduct103
I0802 15:29:42.936735 20651 net.cpp:399] InnerProduct104 -> InnerProduct104
I0802 15:29:42.936904 20651 net.cpp:141] Setting up InnerProduct104
I0802 15:29:42.936911 20651 net.cpp:148] Top shape: 100 50 (5000)
I0802 15:29:42.936918 20651 net.cpp:156] Memory required for data: 2613941200
I0802 15:29:42.936923 20651 net.cpp:484] Sharing parameters 'ip2_w' owned by layer 'InnerProduct2', param index 0
I0802 15:29:42.936929 20651 net.cpp:484] Sharing parameters 'ip2_b' owned by layer 'InnerProduct2', param index 1
I0802 15:29:42.936935 20651 layer_factory.hpp:77] Creating layer Convolution71
I0802 15:29:42.936947 20651 net.cpp:91] Creating Layer Convolution71
I0802 15:29:42.936954 20651 net.cpp:425] Convolution71 <- c18
I0802 15:29:42.936966 20651 net.cpp:399] Convolution71 -> Convolution71
I0802 15:29:42.937312 20651 net.cpp:141] Setting up Convolution71
I0802 15:29:42.937320 20651 net.cpp:148] Top shape: 100 20 60 60 (7200000)
I0802 15:29:42.937325 20651 net.cpp:156] Memory required for data: 2642741200
I0802 15:29:42.937331 20651 net.cpp:484] Sharing parameters 'conv1_w' owned by layer 'Convolution1', param index 0
I0802 15:29:42.937338 20651 net.cpp:484] Sharing parameters 'conv1_b' owned by layer 'Convolution1', param index 1
I0802 15:29:42.937343 20651 layer_factory.hpp:77] Creating layer Pooling71
I0802 15:29:42.937355 20651 net.cpp:91] Creating Layer Pooling71
I0802 15:29:42.937361 20651 net.cpp:425] Pooling71 <- Convolution71
I0802 15:29:42.937369 20651 net.cpp:399] Pooling71 -> Pooling71
I0802 15:29:42.937418 20651 net.cpp:141] Setting up Pooling71
I0802 15:29:42.937427 20651 net.cpp:148] Top shape: 100 20 30 30 (1800000)
I0802 15:29:42.937432 20651 net.cpp:156] Memory required for data: 2649941200
I0802 15:29:42.937438 20651 layer_factory.hpp:77] Creating layer Convolution72
I0802 15:29:42.937450 20651 net.cpp:91] Creating Layer Convolution72
I0802 15:29:42.937456 20651 net.cpp:425] Convolution72 <- Pooling71
I0802 15:29:42.937465 20651 net.cpp:399] Convolution72 -> Convolution72
I0802 15:29:42.937989 20651 net.cpp:141] Setting up Convolution72
I0802 15:29:42.937997 20651 net.cpp:148] Top shape: 100 50 26 26 (3380000)
I0802 15:29:42.938002 20651 net.cpp:156] Memory required for data: 2663461200
I0802 15:29:42.938009 20651 net.cpp:484] Sharing parameters 'conv2_w' owned by layer 'Convolution2', param index 0
I0802 15:29:42.938015 20651 net.cpp:484] Sharing parameters 'conv2_b' owned by layer 'Convolution2', param index 1
I0802 15:29:42.938021 20651 layer_factory.hpp:77] Creating layer Pooling72
I0802 15:29:42.938030 20651 net.cpp:91] Creating Layer Pooling72
I0802 15:29:42.938035 20651 net.cpp:425] Pooling72 <- Convolution72
I0802 15:29:42.938046 20651 net.cpp:399] Pooling72 -> Pooling72
I0802 15:29:42.938092 20651 net.cpp:141] Setting up Pooling72
I0802 15:29:42.938100 20651 net.cpp:148] Top shape: 100 50 13 13 (845000)
I0802 15:29:42.938105 20651 net.cpp:156] Memory required for data: 2666841200
I0802 15:29:42.938110 20651 layer_factory.hpp:77] Creating layer InnerProduct105
I0802 15:29:42.938122 20651 net.cpp:91] Creating Layer InnerProduct105
I0802 15:29:42.938127 20651 net.cpp:425] InnerProduct105 <- Pooling72
I0802 15:29:42.938138 20651 net.cpp:399] InnerProduct105 -> InnerProduct105
I0802 15:29:42.946600 20651 net.cpp:141] Setting up InnerProduct105
I0802 15:29:42.946620 20651 net.cpp:148] Top shape: 100 100 (10000)
I0802 15:29:42.946626 20651 net.cpp:156] Memory required for data: 2666881200
I0802 15:29:42.946637 20651 net.cpp:484] Sharing parameters 'ip1_w' owned by layer 'InnerProduct1', param index 0
I0802 15:29:42.946645 20651 net.cpp:484] Sharing parameters 'ip1_b' owned by layer 'InnerProduct1', param index 1
I0802 15:29:42.946651 20651 layer_factory.hpp:77] Creating layer ReLU70
I0802 15:29:42.946662 20651 net.cpp:91] Creating Layer ReLU70
I0802 15:29:42.946671 20651 net.cpp:425] ReLU70 <- InnerProduct105
I0802 15:29:42.946687 20651 net.cpp:386] ReLU70 -> InnerProduct105 (in-place)
I0802 15:29:42.946717 20651 net.cpp:141] Setting up ReLU70
I0802 15:29:42.946723 20651 net.cpp:148] Top shape: 100 100 (10000)
I0802 15:29:42.946728 20651 net.cpp:156] Memory required for data: 2666921200
I0802 15:29:42.946734 20651 layer_factory.hpp:77] Creating layer InnerProduct106
I0802 15:29:42.946744 20651 net.cpp:91] Creating Layer InnerProduct106
I0802 15:29:42.946750 20651 net.cpp:425] InnerProduct106 <- InnerProduct105
I0802 15:29:42.946761 20651 net.cpp:399] InnerProduct106 -> InnerProduct106
I0802 15:29:42.946952 20651 net.cpp:141] Setting up InnerProduct106
I0802 15:29:42.946959 20651 net.cpp:148] Top shape: 100 50 (5000)
I0802 15:29:42.946964 20651 net.cpp:156] Memory required for data: 2666941200
I0802 15:29:42.946970 20651 net.cpp:484] Sharing parameters 'ip2_w' owned by layer 'InnerProduct2', param index 0
I0802 15:29:42.946977 20651 net.cpp:484] Sharing parameters 'ip2_b' owned by layer 'InnerProduct2', param index 1
I0802 15:29:42.946984 20651 layer_factory.hpp:77] Creating layer Concat18
I0802 15:29:42.946992 20651 net.cpp:91] Creating Layer Concat18
I0802 15:29:42.946997 20651 net.cpp:425] Concat18 <- InnerProduct104
I0802 15:29:42.947005 20651 net.cpp:425] Concat18 <- InnerProduct106
I0802 15:29:42.947017 20651 net.cpp:399] Concat18 -> Concat18
I0802 15:29:42.947046 20651 net.cpp:141] Setting up Concat18
I0802 15:29:42.947055 20651 net.cpp:148] Top shape: 100 100 (10000)
I0802 15:29:42.947062 20651 net.cpp:156] Memory required for data: 2666981200
I0802 15:29:42.947067 20651 layer_factory.hpp:77] Creating layer InnerProduct107
I0802 15:29:42.947074 20651 net.cpp:91] Creating Layer InnerProduct107
I0802 15:29:42.947080 20651 net.cpp:425] InnerProduct107 <- Concat18
I0802 15:29:42.947091 20651 net.cpp:399] InnerProduct107 -> InnerProduct107
I0802 15:29:42.947288 20651 net.cpp:141] Setting up InnerProduct107
I0802 15:29:42.947295 20651 net.cpp:148] Top shape: 100 64 (6400)
I0802 15:29:42.947300 20651 net.cpp:156] Memory required for data: 2667006800
I0802 15:29:42.947306 20651 net.cpp:484] Sharing parameters 'fc1_w' owned by layer 'InnerProduct5', param index 0
I0802 15:29:42.947314 20651 net.cpp:484] Sharing parameters 'fc1_b' owned by layer 'InnerProduct5', param index 1
I0802 15:29:42.947319 20651 layer_factory.hpp:77] Creating layer ReLU71
I0802 15:29:42.947326 20651 net.cpp:91] Creating Layer ReLU71
I0802 15:29:42.947340 20651 net.cpp:425] ReLU71 <- InnerProduct107
I0802 15:29:42.947348 20651 net.cpp:386] ReLU71 -> InnerProduct107 (in-place)
I0802 15:29:42.947356 20651 net.cpp:141] Setting up ReLU71
I0802 15:29:42.947363 20651 net.cpp:148] Top shape: 100 64 (6400)
I0802 15:29:42.947368 20651 net.cpp:156] Memory required for data: 2667032400
I0802 15:29:42.947373 20651 layer_factory.hpp:77] Creating layer InnerProduct108
I0802 15:29:42.947384 20651 net.cpp:91] Creating Layer InnerProduct108
I0802 15:29:42.947389 20651 net.cpp:425] InnerProduct108 <- InnerProduct107
I0802 15:29:42.947398 20651 net.cpp:399] InnerProduct108 -> InnerProduct108
I0802 15:29:42.947556 20651 net.cpp:141] Setting up InnerProduct108
I0802 15:29:42.947563 20651 net.cpp:148] Top shape: 100 32 (3200)
I0802 15:29:42.947568 20651 net.cpp:156] Memory required for data: 2667045200
I0802 15:29:42.947573 20651 net.cpp:484] Sharing parameters 'fc2_w' owned by layer 'InnerProduct6', param index 0
I0802 15:29:42.947580 20651 net.cpp:484] Sharing parameters 'fc2_b' owned by layer 'InnerProduct6', param index 1
I0802 15:29:42.947587 20651 layer_factory.hpp:77] Creating layer ReLU72
I0802 15:29:42.947595 20651 net.cpp:91] Creating Layer ReLU72
I0802 15:29:42.947602 20651 net.cpp:425] ReLU72 <- InnerProduct108
I0802 15:29:42.947608 20651 net.cpp:386] ReLU72 -> InnerProduct108 (in-place)
I0802 15:29:42.947616 20651 net.cpp:141] Setting up ReLU72
I0802 15:29:42.947623 20651 net.cpp:148] Top shape: 100 32 (3200)
I0802 15:29:42.947628 20651 net.cpp:156] Memory required for data: 2667058000
I0802 15:29:42.947633 20651 layer_factory.hpp:77] Creating layer dt17
I0802 15:29:42.947643 20651 net.cpp:91] Creating Layer dt17
I0802 15:29:42.947657 20651 net.cpp:425] dt17 <- InnerProduct108
I0802 15:29:42.947667 20651 net.cpp:399] dt17 -> dt17
I0802 15:29:42.947798 20651 net.cpp:141] Setting up dt17
I0802 15:29:42.947805 20651 net.cpp:148] Top shape: 100 2 (200)
I0802 15:29:42.947810 20651 net.cpp:156] Memory required for data: 2667058800
I0802 15:29:42.947816 20651 net.cpp:484] Sharing parameters 'fc3_w' owned by layer 'dt0', param index 0
I0802 15:29:42.947823 20651 net.cpp:484] Sharing parameters 'fc3_b' owned by layer 'dt0', param index 1
I0802 15:29:42.947829 20651 layer_factory.hpp:77] Creating layer Convolution73
I0802 15:29:42.947841 20651 net.cpp:91] Creating Layer Convolution73
I0802 15:29:42.947849 20651 net.cpp:425] Convolution73 <- p2_p2_0_split_9
I0802 15:29:42.947861 20651 net.cpp:399] Convolution73 -> Convolution73
I0802 15:29:42.948204 20651 net.cpp:141] Setting up Convolution73
I0802 15:29:42.948211 20651 net.cpp:148] Top shape: 100 20 60 60 (7200000)
I0802 15:29:42.948216 20651 net.cpp:156] Memory required for data: 2695858800
I0802 15:29:42.948222 20651 net.cpp:484] Sharing parameters 'conv1_w' owned by layer 'Convolution1', param index 0
I0802 15:29:42.948230 20651 net.cpp:484] Sharing parameters 'conv1_b' owned by layer 'Convolution1', param index 1
I0802 15:29:42.948235 20651 layer_factory.hpp:77] Creating layer Pooling73
I0802 15:29:42.948243 20651 net.cpp:91] Creating Layer Pooling73
I0802 15:29:42.948249 20651 net.cpp:425] Pooling73 <- Convolution73
I0802 15:29:42.948261 20651 net.cpp:399] Pooling73 -> Pooling73
I0802 15:29:42.948308 20651 net.cpp:141] Setting up Pooling73
I0802 15:29:42.948317 20651 net.cpp:148] Top shape: 100 20 30 30 (1800000)
I0802 15:29:42.948321 20651 net.cpp:156] Memory required for data: 2703058800
I0802 15:29:42.948326 20651 layer_factory.hpp:77] Creating layer Convolution74
I0802 15:29:42.948338 20651 net.cpp:91] Creating Layer Convolution74
I0802 15:29:42.948344 20651 net.cpp:425] Convolution74 <- Pooling73
I0802 15:29:42.948356 20651 net.cpp:399] Convolution74 -> Convolution74
I0802 15:29:42.948873 20651 net.cpp:141] Setting up Convolution74
I0802 15:29:42.948880 20651 net.cpp:148] Top shape: 100 50 26 26 (3380000)
I0802 15:29:42.948886 20651 net.cpp:156] Memory required for data: 2716578800
I0802 15:29:42.948891 20651 net.cpp:484] Sharing parameters 'conv2_w' owned by layer 'Convolution2', param index 0
I0802 15:29:42.948899 20651 net.cpp:484] Sharing parameters 'conv2_b' owned by layer 'Convolution2', param index 1
I0802 15:29:42.948904 20651 layer_factory.hpp:77] Creating layer Pooling74
I0802 15:29:42.948915 20651 net.cpp:91] Creating Layer Pooling74
I0802 15:29:42.948920 20651 net.cpp:425] Pooling74 <- Convolution74
I0802 15:29:42.948928 20651 net.cpp:399] Pooling74 -> Pooling74
I0802 15:29:42.948976 20651 net.cpp:141] Setting up Pooling74
I0802 15:29:42.948984 20651 net.cpp:148] Top shape: 100 50 13 13 (845000)
I0802 15:29:42.948989 20651 net.cpp:156] Memory required for data: 2719958800
I0802 15:29:42.948994 20651 layer_factory.hpp:77] Creating layer InnerProduct109
I0802 15:29:42.949002 20651 net.cpp:91] Creating Layer InnerProduct109
I0802 15:29:42.949008 20651 net.cpp:425] InnerProduct109 <- Pooling74
I0802 15:29:42.949019 20651 net.cpp:399] InnerProduct109 -> InnerProduct109
I0802 15:29:42.957134 20651 net.cpp:141] Setting up InnerProduct109
I0802 15:29:42.957149 20651 net.cpp:148] Top shape: 100 100 (10000)
I0802 15:29:42.957155 20651 net.cpp:156] Memory required for data: 2719998800
I0802 15:29:42.957162 20651 net.cpp:484] Sharing parameters 'ip1_w' owned by layer 'InnerProduct1', param index 0
I0802 15:29:42.957170 20651 net.cpp:484] Sharing parameters 'ip1_b' owned by layer 'InnerProduct1', param index 1
I0802 15:29:42.957175 20651 layer_factory.hpp:77] Creating layer ReLU73
I0802 15:29:42.957186 20651 net.cpp:91] Creating Layer ReLU73
I0802 15:29:42.957193 20651 net.cpp:425] ReLU73 <- InnerProduct109
I0802 15:29:42.957202 20651 net.cpp:386] ReLU73 -> InnerProduct109 (in-place)
I0802 15:29:42.957213 20651 net.cpp:141] Setting up ReLU73
I0802 15:29:42.957219 20651 net.cpp:148] Top shape: 100 100 (10000)
I0802 15:29:42.957242 20651 net.cpp:156] Memory required for data: 2720038800
I0802 15:29:42.957247 20651 layer_factory.hpp:77] Creating layer InnerProduct110
I0802 15:29:42.957257 20651 net.cpp:91] Creating Layer InnerProduct110
I0802 15:29:42.957263 20651 net.cpp:425] InnerProduct110 <- InnerProduct109
I0802 15:29:42.957273 20651 net.cpp:399] InnerProduct110 -> InnerProduct110
I0802 15:29:42.957443 20651 net.cpp:141] Setting up InnerProduct110
I0802 15:29:42.957451 20651 net.cpp:148] Top shape: 100 50 (5000)
I0802 15:29:42.957456 20651 net.cpp:156] Memory required for data: 2720058800
I0802 15:29:42.957463 20651 net.cpp:484] Sharing parameters 'ip2_w' owned by layer 'InnerProduct2', param index 0
I0802 15:29:42.957468 20651 net.cpp:484] Sharing parameters 'ip2_b' owned by layer 'InnerProduct2', param index 1
I0802 15:29:42.957474 20651 layer_factory.hpp:77] Creating layer Convolution75
I0802 15:29:42.957489 20651 net.cpp:91] Creating Layer Convolution75
I0802 15:29:42.957494 20651 net.cpp:425] Convolution75 <- c19
I0802 15:29:42.957506 20651 net.cpp:399] Convolution75 -> Convolution75
I0802 15:29:42.957857 20651 net.cpp:141] Setting up Convolution75
I0802 15:29:42.957865 20651 net.cpp:148] Top shape: 100 20 60 60 (7200000)
I0802 15:29:42.957870 20651 net.cpp:156] Memory required for data: 2748858800
I0802 15:29:42.957876 20651 net.cpp:484] Sharing parameters 'conv1_w' owned by layer 'Convolution1', param index 0
I0802 15:29:42.957883 20651 net.cpp:484] Sharing parameters 'conv1_b' owned by layer 'Convolution1', param index 1
I0802 15:29:42.957888 20651 layer_factory.hpp:77] Creating layer Pooling75
I0802 15:29:42.957896 20651 net.cpp:91] Creating Layer Pooling75
I0802 15:29:42.957902 20651 net.cpp:425] Pooling75 <- Convolution75
I0802 15:29:42.957914 20651 net.cpp:399] Pooling75 -> Pooling75
I0802 15:29:42.957960 20651 net.cpp:141] Setting up Pooling75
I0802 15:29:42.957970 20651 net.cpp:148] Top shape: 100 20 30 30 (1800000)
I0802 15:29:42.957975 20651 net.cpp:156] Memory required for data: 2756058800
I0802 15:29:42.957980 20651 layer_factory.hpp:77] Creating layer Convolution76
I0802 15:29:42.957991 20651 net.cpp:91] Creating Layer Convolution76
I0802 15:29:42.957998 20651 net.cpp:425] Convolution76 <- Pooling75
I0802 15:29:42.958009 20651 net.cpp:399] Convolution76 -> Convolution76
I0802 15:29:42.958524 20651 net.cpp:141] Setting up Convolution76
I0802 15:29:42.958533 20651 net.cpp:148] Top shape: 100 50 26 26 (3380000)
I0802 15:29:42.958537 20651 net.cpp:156] Memory required for data: 2769578800
I0802 15:29:42.958544 20651 net.cpp:484] Sharing parameters 'conv2_w' owned by layer 'Convolution2', param index 0
I0802 15:29:42.958549 20651 net.cpp:484] Sharing parameters 'conv2_b' owned by layer 'Convolution2', param index 1
I0802 15:29:42.958555 20651 layer_factory.hpp:77] Creating layer Pooling76
I0802 15:29:42.958564 20651 net.cpp:91] Creating Layer Pooling76
I0802 15:29:42.958570 20651 net.cpp:425] Pooling76 <- Convolution76
I0802 15:29:42.958578 20651 net.cpp:399] Pooling76 -> Pooling76
I0802 15:29:42.958627 20651 net.cpp:141] Setting up Pooling76
I0802 15:29:42.958634 20651 net.cpp:148] Top shape: 100 50 13 13 (845000)
I0802 15:29:42.958639 20651 net.cpp:156] Memory required for data: 2772958800
I0802 15:29:42.958644 20651 layer_factory.hpp:77] Creating layer InnerProduct111
I0802 15:29:42.958655 20651 net.cpp:91] Creating Layer InnerProduct111
I0802 15:29:42.958662 20651 net.cpp:425] InnerProduct111 <- Pooling76
I0802 15:29:42.958670 20651 net.cpp:399] InnerProduct111 -> InnerProduct111
I0802 15:29:42.966716 20651 net.cpp:141] Setting up InnerProduct111
I0802 15:29:42.966730 20651 net.cpp:148] Top shape: 100 100 (10000)
I0802 15:29:42.966735 20651 net.cpp:156] Memory required for data: 2772998800
I0802 15:29:42.966743 20651 net.cpp:484] Sharing parameters 'ip1_w' owned by layer 'InnerProduct1', param index 0
I0802 15:29:42.966750 20651 net.cpp:484] Sharing parameters 'ip1_b' owned by layer 'InnerProduct1', param index 1
I0802 15:29:42.966756 20651 layer_factory.hpp:77] Creating layer ReLU74
I0802 15:29:42.966780 20651 net.cpp:91] Creating Layer ReLU74
I0802 15:29:42.966787 20651 net.cpp:425] ReLU74 <- InnerProduct111
I0802 15:29:42.966799 20651 net.cpp:386] ReLU74 -> InnerProduct111 (in-place)
I0802 15:29:42.966809 20651 net.cpp:141] Setting up ReLU74
I0802 15:29:42.966817 20651 net.cpp:148] Top shape: 100 100 (10000)
I0802 15:29:42.966822 20651 net.cpp:156] Memory required for data: 2773038800
I0802 15:29:42.966827 20651 layer_factory.hpp:77] Creating layer InnerProduct112
I0802 15:29:42.966837 20651 net.cpp:91] Creating Layer InnerProduct112
I0802 15:29:42.966842 20651 net.cpp:425] InnerProduct112 <- InnerProduct111
I0802 15:29:42.966855 20651 net.cpp:399] InnerProduct112 -> InnerProduct112
I0802 15:29:42.967038 20651 net.cpp:141] Setting up InnerProduct112
I0802 15:29:42.967046 20651 net.cpp:148] Top shape: 100 50 (5000)
I0802 15:29:42.967051 20651 net.cpp:156] Memory required for data: 2773058800
I0802 15:29:42.967057 20651 net.cpp:484] Sharing parameters 'ip2_w' owned by layer 'InnerProduct2', param index 0
I0802 15:29:42.967064 20651 net.cpp:484] Sharing parameters 'ip2_b' owned by layer 'InnerProduct2', param index 1
I0802 15:29:42.967069 20651 layer_factory.hpp:77] Creating layer Concat19
I0802 15:29:42.967080 20651 net.cpp:91] Creating Layer Concat19
I0802 15:29:42.967087 20651 net.cpp:425] Concat19 <- InnerProduct110
I0802 15:29:42.967093 20651 net.cpp:425] Concat19 <- InnerProduct112
I0802 15:29:42.967103 20651 net.cpp:399] Concat19 -> Concat19
I0802 15:29:42.967134 20651 net.cpp:141] Setting up Concat19
I0802 15:29:42.967141 20651 net.cpp:148] Top shape: 100 100 (10000)
I0802 15:29:42.967147 20651 net.cpp:156] Memory required for data: 2773098800
I0802 15:29:42.967152 20651 layer_factory.hpp:77] Creating layer InnerProduct113
I0802 15:29:42.967164 20651 net.cpp:91] Creating Layer InnerProduct113
I0802 15:29:42.967170 20651 net.cpp:425] InnerProduct113 <- Concat19
I0802 15:29:42.967178 20651 net.cpp:399] InnerProduct113 -> InnerProduct113
I0802 15:29:42.967386 20651 net.cpp:141] Setting up InnerProduct113
I0802 15:29:42.967393 20651 net.cpp:148] Top shape: 100 64 (6400)
I0802 15:29:42.967399 20651 net.cpp:156] Memory required for data: 2773124400
I0802 15:29:42.967406 20651 net.cpp:484] Sharing parameters 'fc1_w' owned by layer 'InnerProduct5', param index 0
I0802 15:29:42.967412 20651 net.cpp:484] Sharing parameters 'fc1_b' owned by layer 'InnerProduct5', param index 1
I0802 15:29:42.967417 20651 layer_factory.hpp:77] Creating layer ReLU75
I0802 15:29:42.967425 20651 net.cpp:91] Creating Layer ReLU75
I0802 15:29:42.967432 20651 net.cpp:425] ReLU75 <- InnerProduct113
I0802 15:29:42.967439 20651 net.cpp:386] ReLU75 -> InnerProduct113 (in-place)
I0802 15:29:42.967448 20651 net.cpp:141] Setting up ReLU75
I0802 15:29:42.967455 20651 net.cpp:148] Top shape: 100 64 (6400)
I0802 15:29:42.967460 20651 net.cpp:156] Memory required for data: 2773150000
I0802 15:29:42.967465 20651 layer_factory.hpp:77] Creating layer InnerProduct114
I0802 15:29:42.967474 20651 net.cpp:91] Creating Layer InnerProduct114
I0802 15:29:42.967479 20651 net.cpp:425] InnerProduct114 <- InnerProduct113
I0802 15:29:42.967492 20651 net.cpp:399] InnerProduct114 -> InnerProduct114
I0802 15:29:42.967655 20651 net.cpp:141] Setting up InnerProduct114
I0802 15:29:42.967664 20651 net.cpp:148] Top shape: 100 32 (3200)
I0802 15:29:42.967669 20651 net.cpp:156] Memory required for data: 2773162800
I0802 15:29:42.967674 20651 net.cpp:484] Sharing parameters 'fc2_w' owned by layer 'InnerProduct6', param index 0
I0802 15:29:42.967680 20651 net.cpp:484] Sharing parameters 'fc2_b' owned by layer 'InnerProduct6', param index 1
I0802 15:29:42.967686 20651 layer_factory.hpp:77] Creating layer ReLU76
I0802 15:29:42.967694 20651 net.cpp:91] Creating Layer ReLU76
I0802 15:29:42.967700 20651 net.cpp:425] ReLU76 <- InnerProduct114
I0802 15:29:42.967706 20651 net.cpp:386] ReLU76 -> InnerProduct114 (in-place)
I0802 15:29:42.967716 20651 net.cpp:141] Setting up ReLU76
I0802 15:29:42.967723 20651 net.cpp:148] Top shape: 100 32 (3200)
I0802 15:29:42.967738 20651 net.cpp:156] Memory required for data: 2773175600
I0802 15:29:42.967744 20651 layer_factory.hpp:77] Creating layer dt18
I0802 15:29:42.967752 20651 net.cpp:91] Creating Layer dt18
I0802 15:29:42.967758 20651 net.cpp:425] dt18 <- InnerProduct114
I0802 15:29:42.967770 20651 net.cpp:399] dt18 -> dt18
I0802 15:29:42.967914 20651 net.cpp:141] Setting up dt18
I0802 15:29:42.967921 20651 net.cpp:148] Top shape: 100 2 (200)
I0802 15:29:42.967926 20651 net.cpp:156] Memory required for data: 2773176400
I0802 15:29:42.967932 20651 net.cpp:484] Sharing parameters 'fc3_w' owned by layer 'dt0', param index 0
I0802 15:29:42.967939 20651 net.cpp:484] Sharing parameters 'fc3_b' owned by layer 'dt0', param index 1
I0802 15:29:42.967946 20651 layer_factory.hpp:77] Creating layer con
I0802 15:29:42.967954 20651 net.cpp:91] Creating Layer con
…
I0802 15:29:42.968030 20651 net.cpp:425] con <- dt10
I0802 15:29:42.968036 20651 net.cpp:425] con <- dt11
I0802 15:29:42.968044 20651 net.cpp:425] con <- dt12
I0802 15:29:42.968050 20651 net.cpp:425] con <- dt13
I0802 15:29:42.968055 20651 net.cpp:425] con <- dt14
I0802 15:29:42.968061 20651 net.cpp:425] con <- dt15
I0802 15:29:42.968067 20651 net.cpp:425] con <- dt16
I0802 15:29:42.968075 20651 net.cpp:425] con <- dt17
I0802 15:29:42.968080 20651 net.cpp:425] con <- dt18
I0802 15:29:42.968091 20651 net.cpp:399] con -> con
I0802 15:29:42.968124 20651 net.cpp:141] Setting up con
I0802 15:29:42.968132 20651 net.cpp:148] Top shape: 100 38 (3800)
I0802 15:29:42.968137 20651 net.cpp:156] Memory required for data: 2773191600
I0802 15:29:42.968142 20651 layer_factory.hpp:77] Creating layer r1
I0802 15:29:42.968152 20651 net.cpp:91] Creating Layer r1
I0802 15:29:42.968158 20651 net.cpp:425] r1 <- con
I0802 15:29:42.968166 20651 net.cpp:399] r1 -> r1
I0802 15:29:42.968205 20651 net.cpp:141] Setting up r1
I0802 15:29:42.968212 20651 net.cpp:148] Top shape: 100 1 2 19 (3800)
I0802 15:29:42.968217 20651 net.cpp:156] Memory required for data: 2773206800
I0802 15:29:42.968224 20651 layer_factory.hpp:77] Creating layer p
I0802 15:29:42.968231 20651 net.cpp:91] Creating Layer p
I0802 15:29:42.968236 20651 net.cpp:425] p <- r1
I0802 15:29:42.968247 20651 net.cpp:399] p -> p
I0802 15:29:42.968281 20651 net.cpp:141] Setting up p
I0802 15:29:42.968287 20651 net.cpp:148] Top shape: 100 1 2 1 (200)
I0802 15:29:42.968292 20651 net.cpp:156] Memory required for data: 2773207600
I0802 15:29:42.968298 20651 layer_factory.hpp:77] Creating layer r2
I0802 15:29:42.968305 20651 net.cpp:91] Creating Layer r2
I0802 15:29:42.968310 20651 net.cpp:425] r2 <- p
I0802 15:29:42.968322 20651 net.cpp:399] r2 -> r2
I0802 15:29:42.968349 20651 net.cpp:141] Setting up r2
I0802 15:29:42.968358 20651 net.cpp:148] Top shape: 100 2 1 1 (200)
I0802 15:29:42.968363 20651 net.cpp:156] Memory required for data: 2773208400
I0802 15:29:42.968367 20651 layer_factory.hpp:77] Creating layer r2_r2_0_split
I0802 15:29:42.968375 20651 net.cpp:91] Creating Layer r2_r2_0_split
I0802 15:29:42.968380 20651 net.cpp:425] r2_r2_0_split <- r2
I0802 15:29:42.968389 20651 net.cpp:399] r2_r2_0_split -> r2_r2_0_split_0
I0802 15:29:42.968397 20651 net.cpp:399] r2_r2_0_split -> r2_r2_0_split_1
I0802 15:29:42.968446 20651 net.cpp:141] Setting up r2_r2_0_split
I0802 15:29:42.968452 20651 net.cpp:148] Top shape: 100 2 1 1 (200)
I0802 15:29:42.968459 20651 net.cpp:148] Top shape: 100 2 1 1 (200)
I0802 15:29:42.968466 20651 net.cpp:156] Memory required for data: 2773210000
I0802 15:29:42.968472 20651 layer_factory.hpp:77] Creating layer loss
I0802 15:29:42.968487 20651 net.cpp:91] Creating Layer loss
I0802 15:29:42.968492 20651 net.cpp:425] loss <- r2_r2_0_split_0
I0802 15:29:42.968499 20651 net.cpp:425] loss <- label_data_1_split_0
I0802 15:29:42.968510 20651 net.cpp:399] loss -> loss
…
