…
I0718 16:16:07.354665  9288 net.cpp:313] The NetState phase (0) differed from the phase (1) specified by a rule in layer accuracy
I0718 16:16:07.355074  9288 net.cpp:49] Initializing net from parameters: 
name: "mnist_siamese_train_test_sim_large"
state {
  phase: TRAIN
}
layer {
  name: "pair_data"
  type: "Data"
  top: "pair_data"
  top: "label"
  include {
    phase: TRAIN
  }
  transform_param {
    scale: 0.00390625
    mirror: true
    mean_file: "examples/scene/scene_mean.binaryproto"
  }
  data_param {
    source: "examples/scene/train_pairs.lmdb"
    batch_size: 128
    backend: LMDB
  }
}
layer {
  name: "slice_pair"
  type: "Slice"
  bottom: "pair_data"
  top: "data"
  top: "data_p"
  slice_param {
    slice_dim: 1
    slice_point: 3
  }
}
layer {
  name: "conv1"
  type: "Convolution"
  bottom: "data"
  top: "conv1"
  param {
    name: "conv1_w"
    lr_mult: 1
  }
  param {
    name: "conv1_b"
    lr_mult: 2
  }
  convolution_param {
    num_output: 20
    kernel_size: 5
    stride: 1
    weight_filler {
      type: "xavier"
    }
    bias_filler {
      type: "constant"
    }
  }
}
layer {
  name: "pool1"
  type: "Pooling"
  bottom: "conv1"
  top: "pool1"
  pooling_param {
    pool: MAX
    kernel_size: 2
    stride: 2
  }
}
layer {
  name: "conv2"
  type: "Convolution"
  bottom: "pool1"
  top: "conv2"
  param {
    name: "conv2_w"
    lr_mult: 1
  }
  param {
    name: "conv2_b"
    lr_mult: 2
  }
  convolution_param {
    num_output: 50
    kernel_size: 5
    stride: 1
    weight_filler {
      type: "xavier"
    }
    bias_filler {
      type: "constant"
    }
  }
}
layer {
  name: "pool2"
  type: "Pooling"
  bottom: "conv2"
  top: "pool2"
  pooling_param {
    pool: MAX
    kernel_size: 2
    stride: 2
  }
}
layer {
  name: "ip1"
  type: "InnerProduct"
  bottom: "pool2"
  top: "ip1"
  param {
    name: "ip1_w"
    lr_mult: 1
  }
  param {
    name: "ip1_b"
    lr_mult: 2
  }
  inner_product_param {
    num_output: 500
    weight_filler {
      type: "xavier"
    }
    bias_filler {
      type: "constant"
    }
  }
}
layer {
  name: "relu1"
  type: "ReLU"
  bottom: "ip1"
  top: "ip1"
}
layer {
  name: "ip2"
  type: "InnerProduct"
  bottom: "ip1"
  top: "ip2"
  param {
    name: "ip2_w"
    lr_mult: 1
  }
  param {
    name: "ip2_b"
    lr_mult: 2
  }
  inner_product_param {
    num_output: 500
    weight_filler {
      type: "xavier"
    }
    bias_filler {
      type: "constant"
    }
  }
}
layer {
  name: "feat"
  type: "InnerProduct"
  bottom: "ip2"
  top: "feat"
  param {
    name: "feat_w"
    lr_mult: 1
  }
  param {
    name: "feat_b"
    lr_mult: 2
  }
  inner_product_param {
    num_output: 2
    weight_filler {
      type: "xavier"
    }
    bias_filler {
      type: "constant"
    }
  }
}
layer {
  name: "conv1_p"
  type: "Convolution"
  bottom: "data_p"
  top: "conv1_p"
  param {
    name: "conv1_w"
    lr_mult: 1
  }
  param {
    name: "conv1_b"
    lr_mult: 2
  }
  convolution_param {
    num_output: 20
    kernel_size: 5
    stride: 1
    weight_filler {
      type: "xavier"
    }
    bias_filler {
      type: "constant"
    }
  }
}
layer {
  name: "pool1_p"
  type: "Pooling"
  bottom: "conv1_p"
  top: "pool1_p"
  pooling_param {
    pool: MAX
    kernel_size: 2
    stride: 2
  }
}
layer {
  name: "conv2_p"
  type: "Convolution"
  bottom: "pool1_p"
  top: "conv2_p"
  param {
    name: "conv2_w"
    lr_mult: 1
  }
  param {
    name: "conv2_b"
    lr_mult: 2
  }
  convolution_param {
    num_output: 50
    kernel_size: 5
    stride: 1
    weight_filler {
      type: "xavier"
    }
    bias_filler {
      type: "constant"
    }
  }
}
layer {
  name: "pool2_p"
  type: "Pooling"
  bottom: "conv2_p"
  top: "pool2_p"
  pooling_param {
    pool: MAX
    kernel_size: 2
    stride: 2
  }
}
layer {
  name: "ip1_p"
  type: "InnerProduct"
  bottom: "pool2_p"
  top: "ip1_p"
  param {
    name: "ip1_w"
    lr_mult: 1
  }
  param {
    name: "ip1_b"
    lr_mult: 2
  }
  inner_product_param {
    num_output: 500
    weight_filler {
      type: "xavier"
    }
    bias_filler {
      type: "constant"
    }
  }
}
layer {
  name: "relu1_p"
  type: "ReLU"
  bottom: "ip1_p"
  top: "ip1_p"
}
layer {
  name: "ip2_p"
  type: "InnerProduct"
  bottom: "ip1_p"
  top: "ip2_p"
  param {
    name: "ip2_w"
    lr_mult: 1
  }
  param {
    name: "ip2_b"
    lr_mult: 2
  }
  inner_product_param {
    num_output: 500
    weight_filler {
      type: "xavier"
    }
    bias_filler {
      type: "constant"
    }
  }
}
layer {
  name: "feat_p"
  type: "InnerProduct"
  bottom: "ip2_p"
  top: "feat_p"
  param {
    name: "feat_w"
    lr_mult: 1
  }
  param {
    name: "feat_b"
    lr_mult: 2
  }
  inner_product_param {
    num_output: 2
    weight_filler {
      type: "xavier"
    }
    bias_filler {
      type: "constant"
    }
  }
}
layer {
  name: "concat"
  type: "Concat"
  bottom: "feat"
  bottom: "feat_p"
  top: "comb"
  concat_param {
    axis: 1
  }
}
layer {
  name: "fc1"
  type: "InnerProduct"
  bottom: "comb"
  top: "fc1"
  param {
    name: "fc1_w"
    lr_mult: 1
  }
  param {
    name: "fc1_b"
    lr_mult: 2
  }
  inner_product_param {
    num_output: 1024
    weight_filler {
      type: "xavier"
    }
    bias_filler {
      type: "constant"
    }
  }
}
layer {
  name: "relu1_fc1"
  type: "ReLU"
  bottom: "fc1"
  top: "fc1"
}
layer {
  name: "fc2"
  type: "InnerProduct"
  bottom: "fc1"
  top: "fc2"
  param {
    name: "fc2_w"
    lr_mult: 1
  }
  param {
    name: "fc2_b"
    lr_mult: 2
  }
  inner_product_param {
    num_output: 1024
    weight_filler {
      type: "xavier"
    }
    bias_filler {
      type: "constant"
    }
  }
}
layer {
  name: "relu2_fc2"
  type: "ReLU"
  bottom: "fc2"
  top: "fc2"
}
layer {
  name: "fc3"
  type: "InnerProduct"
  bottom: "fc2"
  top: "fc3"
  param {
    name: "fc3_w"
    lr_mult: 1
  }
  param {
    name: "fc3_b"
    lr_mult: 2
  }
  inner_product_param {
    num_output: 2
    weight_filler {
      type: "xavier"
    }
    bias_filler {
      type: "constant"
    }
  }
}
layer {
  name: "loss"
  type: "SoftmaxWithLoss"
  bottom: "fc3"
  bottom: "label"
  top: "loss"
}
I0718 16:16:07.355465  9288 layer_factory.hpp:77] Creating layer pair_data
I0718 16:16:07.356436  9288 net.cpp:91] Creating Layer pair_data
I0718 16:16:07.356467  9288 net.cpp:399] pair_data -> pair_data
I0718 16:16:07.356520  9288 net.cpp:399] pair_data -> label
I0718 16:16:07.356560  9288 data_transformer.cpp:25] Loading mean file from: examples/scene/scene_mean.binaryproto
I0718 16:16:07.358196  9294 db_lmdb.cpp:35] Opened lmdb examples/scene/train_pairs.lmdb
I0718 16:16:07.516988  9288 data_layer.cpp:41] output data size: 128,6,128,128
I0718 16:16:07.641940  9288 net.cpp:141] Setting up pair_data
I0718 16:16:07.641979  9288 net.cpp:148] Top shape: 128 6 128 128 (12582912)
I0718 16:16:07.641988  9288 net.cpp:148] Top shape: 128 (128)
I0718 16:16:07.641995  9288 net.cpp:156] Memory required for data: 50332160
I0718 16:16:07.642009  9288 layer_factory.hpp:77] Creating layer slice_pair
I0718 16:16:07.642033  9288 net.cpp:91] Creating Layer slice_pair
I0718 16:16:07.642042  9288 net.cpp:425] slice_pair <- pair_data
I0718 16:16:07.642060  9288 net.cpp:399] slice_pair -> data
I0718 16:16:07.642076  9288 net.cpp:399] slice_pair -> data_p
I0718 16:16:07.642185  9288 net.cpp:141] Setting up slice_pair
I0718 16:16:07.642201  9288 net.cpp:148] Top shape: 128 3 128 128 (6291456)
I0718 16:16:07.642210  9288 net.cpp:148] Top shape: 128 3 128 128 (6291456)
I0718 16:16:07.642215  9288 net.cpp:156] Memory required for data: 100663808
I0718 16:16:07.642248  9288 layer_factory.hpp:77] Creating layer conv1
I0718 16:16:07.642271  9288 net.cpp:91] Creating Layer conv1
I0718 16:16:07.642277  9288 net.cpp:425] conv1 <- data
I0718 16:16:07.642287  9288 net.cpp:399] conv1 -> conv1
I0718 16:16:07.644397  9288 net.cpp:141] Setting up conv1
I0718 16:16:07.644417  9288 net.cpp:148] Top shape: 128 20 124 124 (39362560)
I0718 16:16:07.644423  9288 net.cpp:156] Memory required for data: 258114048
I0718 16:16:07.644440  9288 layer_factory.hpp:77] Creating layer pool1
I0718 16:16:07.644454  9288 net.cpp:91] Creating Layer pool1
I0718 16:16:07.644459  9288 net.cpp:425] pool1 <- conv1
I0718 16:16:07.644469  9288 net.cpp:399] pool1 -> pool1
I0718 16:16:07.652277  9288 net.cpp:141] Setting up pool1
I0718 16:16:07.652299  9288 net.cpp:148] Top shape: 128 20 62 62 (9840640)
I0718 16:16:07.652307  9288 net.cpp:156] Memory required for data: 297476608
I0718 16:16:07.652314  9288 layer_factory.hpp:77] Creating layer conv2
I0718 16:16:07.652335  9288 net.cpp:91] Creating Layer conv2
I0718 16:16:07.652345  9288 net.cpp:425] conv2 <- pool1
I0718 16:16:07.652357  9288 net.cpp:399] conv2 -> conv2
I0718 16:16:07.653457  9288 net.cpp:141] Setting up conv2
I0718 16:16:07.653471  9288 net.cpp:148] Top shape: 128 50 58 58 (21529600)
I0718 16:16:07.653477  9288 net.cpp:156] Memory required for data: 383595008
I0718 16:16:07.653489  9288 layer_factory.hpp:77] Creating layer pool2
I0718 16:16:07.653499  9288 net.cpp:91] Creating Layer pool2
I0718 16:16:07.653506  9288 net.cpp:425] pool2 <- conv2
I0718 16:16:07.653515  9288 net.cpp:399] pool2 -> pool2
I0718 16:16:07.653559  9288 net.cpp:141] Setting up pool2
I0718 16:16:07.653571  9288 net.cpp:148] Top shape: 128 50 29 29 (5382400)
I0718 16:16:07.653578  9288 net.cpp:156] Memory required for data: 405124608
I0718 16:16:07.653584  9288 layer_factory.hpp:77] Creating layer ip1
I0718 16:16:07.653594  9288 net.cpp:91] Creating Layer ip1
I0718 16:16:07.653600  9288 net.cpp:425] ip1 <- pool2
I0718 16:16:07.653609  9288 net.cpp:399] ip1 -> ip1
I0718 16:16:07.872170  9288 net.cpp:141] Setting up ip1
I0718 16:16:07.872207  9288 net.cpp:148] Top shape: 128 500 (64000)
I0718 16:16:07.872215  9288 net.cpp:156] Memory required for data: 405380608
I0718 16:16:07.872236  9288 layer_factory.hpp:77] Creating layer relu1
I0718 16:16:07.872254  9288 net.cpp:91] Creating Layer relu1
I0718 16:16:07.872264  9288 net.cpp:425] relu1 <- ip1
I0718 16:16:07.872277  9288 net.cpp:386] relu1 -> ip1 (in-place)
I0718 16:16:07.872294  9288 net.cpp:141] Setting up relu1
I0718 16:16:07.872304  9288 net.cpp:148] Top shape: 128 500 (64000)
I0718 16:16:07.872311  9288 net.cpp:156] Memory required for data: 405636608
I0718 16:16:07.872318  9288 layer_factory.hpp:77] Creating layer ip2
I0718 16:16:07.872333  9288 net.cpp:91] Creating Layer ip2
I0718 16:16:07.872339  9288 net.cpp:425] ip2 <- ip1
I0718 16:16:07.872349  9288 net.cpp:399] ip2 -> ip2
I0718 16:16:07.874929  9288 net.cpp:141] Setting up ip2
I0718 16:16:07.874948  9288 net.cpp:148] Top shape: 128 500 (64000)
I0718 16:16:07.874953  9288 net.cpp:156] Memory required for data: 405892608
I0718 16:16:07.874963  9288 layer_factory.hpp:77] Creating layer feat
I0718 16:16:07.874974  9288 net.cpp:91] Creating Layer feat
I0718 16:16:07.874979  9288 net.cpp:425] feat <- ip2
I0718 16:16:07.874989  9288 net.cpp:399] feat -> feat
I0718 16:16:07.875113  9288 net.cpp:141] Setting up feat
I0718 16:16:07.875123  9288 net.cpp:148] Top shape: 128 2 (256)
I0718 16:16:07.875129  9288 net.cpp:156] Memory required for data: 405893632
I0718 16:16:07.875141  9288 layer_factory.hpp:77] Creating layer conv1_p
I0718 16:16:07.875155  9288 net.cpp:91] Creating Layer conv1_p
I0718 16:16:07.875161  9288 net.cpp:425] conv1_p <- data_p
I0718 16:16:07.875171  9288 net.cpp:399] conv1_p -> conv1_p
I0718 16:16:07.875497  9288 net.cpp:141] Setting up conv1_p
I0718 16:16:07.875510  9288 net.cpp:148] Top shape: 128 20 124 124 (39362560)
I0718 16:16:07.875519  9288 net.cpp:156] Memory required for data: 563343872
I0718 16:16:07.875553  9288 net.cpp:484] Sharing parameters 'conv1_w' owned by layer 'conv1', param index 0
I0718 16:16:07.875561  9288 net.cpp:484] Sharing parameters 'conv1_b' owned by layer 'conv1', param index 1
I0718 16:16:07.875568  9288 layer_factory.hpp:77] Creating layer pool1_p
I0718 16:16:07.875578  9288 net.cpp:91] Creating Layer pool1_p
I0718 16:16:07.875584  9288 net.cpp:425] pool1_p <- conv1_p
I0718 16:16:07.875592  9288 net.cpp:399] pool1_p -> pool1_p
I0718 16:16:07.875638  9288 net.cpp:141] Setting up pool1_p
I0718 16:16:07.875648  9288 net.cpp:148] Top shape: 128 20 62 62 (9840640)
I0718 16:16:07.875654  9288 net.cpp:156] Memory required for data: 602706432
I0718 16:16:07.875660  9288 layer_factory.hpp:77] Creating layer conv2_p
I0718 16:16:07.875671  9288 net.cpp:91] Creating Layer conv2_p
I0718 16:16:07.875677  9288 net.cpp:425] conv2_p <- pool1_p
I0718 16:16:07.875687  9288 net.cpp:399] conv2_p -> conv2_p
I0718 16:16:07.876195  9288 net.cpp:141] Setting up conv2_p
I0718 16:16:07.876206  9288 net.cpp:148] Top shape: 128 50 58 58 (21529600)
I0718 16:16:07.876212  9288 net.cpp:156] Memory required for data: 688824832
I0718 16:16:07.876219  9288 net.cpp:484] Sharing parameters 'conv2_w' owned by layer 'conv2', param index 0
I0718 16:16:07.876226  9288 net.cpp:484] Sharing parameters 'conv2_b' owned by layer 'conv2', param index 1
I0718 16:16:07.876232  9288 layer_factory.hpp:77] Creating layer pool2_p
I0718 16:16:07.876240  9288 net.cpp:91] Creating Layer pool2_p
I0718 16:16:07.876246  9288 net.cpp:425] pool2_p <- conv2_p
I0718 16:16:07.876255  9288 net.cpp:399] pool2_p -> pool2_p
I0718 16:16:07.876296  9288 net.cpp:141] Setting up pool2_p
I0718 16:16:07.876304  9288 net.cpp:148] Top shape: 128 50 29 29 (5382400)
I0718 16:16:07.876309  9288 net.cpp:156] Memory required for data: 710354432
I0718 16:16:07.876315  9288 layer_factory.hpp:77] Creating layer ip1_p
I0718 16:16:07.876328  9288 net.cpp:91] Creating Layer ip1_p
I0718 16:16:07.876333  9288 net.cpp:425] ip1_p <- pool2_p
I0718 16:16:07.876343  9288 net.cpp:399] ip1_p -> ip1_p
I0718 16:16:08.080526  9288 net.cpp:141] Setting up ip1_p
I0718 16:16:08.080574  9288 net.cpp:148] Top shape: 128 500 (64000)
I0718 16:16:08.080581  9288 net.cpp:156] Memory required for data: 710610432
I0718 16:16:08.080592  9288 net.cpp:484] Sharing parameters 'ip1_w' owned by layer 'ip1', param index 0
I0718 16:16:08.080601  9288 net.cpp:484] Sharing parameters 'ip1_b' owned by layer 'ip1', param index 1
I0718 16:16:08.080608  9288 layer_factory.hpp:77] Creating layer relu1_p
I0718 16:16:08.080621  9288 net.cpp:91] Creating Layer relu1_p
I0718 16:16:08.080628  9288 net.cpp:425] relu1_p <- ip1_p
I0718 16:16:08.080643  9288 net.cpp:386] relu1_p -> ip1_p (in-place)
I0718 16:16:08.080657  9288 net.cpp:141] Setting up relu1_p
I0718 16:16:08.080665  9288 net.cpp:148] Top shape: 128 500 (64000)
I0718 16:16:08.080670  9288 net.cpp:156] Memory required for data: 710866432
I0718 16:16:08.080678  9288 layer_factory.hpp:77] Creating layer ip2_p
I0718 16:16:08.080695  9288 net.cpp:91] Creating Layer ip2_p
I0718 16:16:08.080701  9288 net.cpp:425] ip2_p <- ip1_p
I0718 16:16:08.080710  9288 net.cpp:399] ip2_p -> ip2_p
I0718 16:16:08.083369  9288 net.cpp:141] Setting up ip2_p
I0718 16:16:08.083396  9288 net.cpp:148] Top shape: 128 500 (64000)
I0718 16:16:08.083402  9288 net.cpp:156] Memory required for data: 711122432
I0718 16:16:08.083415  9288 net.cpp:484] Sharing parameters 'ip2_w' owned by layer 'ip2', param index 0
I0718 16:16:08.083423  9288 net.cpp:484] Sharing parameters 'ip2_b' owned by layer 'ip2', param index 1
I0718 16:16:08.083430  9288 layer_factory.hpp:77] Creating layer feat_p
I0718 16:16:08.083439  9288 net.cpp:91] Creating Layer feat_p
I0718 16:16:08.083453  9288 net.cpp:425] feat_p <- ip2_p
I0718 16:16:08.083464  9288 net.cpp:399] feat_p -> feat_p
I0718 16:16:08.083593  9288 net.cpp:141] Setting up feat_p
I0718 16:16:08.083601  9288 net.cpp:148] Top shape: 128 2 (256)
I0718 16:16:08.083607  9288 net.cpp:156] Memory required for data: 711123456
I0718 16:16:08.083614  9288 net.cpp:484] Sharing parameters 'feat_w' owned by layer 'feat', param index 0
I0718 16:16:08.083645  9288 net.cpp:484] Sharing parameters 'feat_b' owned by layer 'feat', param index 1
I0718 16:16:08.083652  9288 layer_factory.hpp:77] Creating layer concat
I0718 16:16:08.083670  9288 net.cpp:91] Creating Layer concat
I0718 16:16:08.083676  9288 net.cpp:425] concat <- feat
I0718 16:16:08.083684  9288 net.cpp:425] concat <- feat_p
I0718 16:16:08.083693  9288 net.cpp:399] concat -> comb
I0718 16:16:08.083739  9288 net.cpp:141] Setting up concat
I0718 16:16:08.083748  9288 net.cpp:148] Top shape: 128 4 (512)
I0718 16:16:08.083755  9288 net.cpp:156] Memory required for data: 711125504
I0718 16:16:08.083760  9288 layer_factory.hpp:77] Creating layer fc1
I0718 16:16:08.083770  9288 net.cpp:91] Creating Layer fc1
I0718 16:16:08.083775  9288 net.cpp:425] fc1 <- comb
I0718 16:16:08.083784  9288 net.cpp:399] fc1 -> fc1
I0718 16:16:08.083942  9288 net.cpp:141] Setting up fc1
I0718 16:16:08.083951  9288 net.cpp:148] Top shape: 128 1024 (131072)
I0718 16:16:08.083956  9288 net.cpp:156] Memory required for data: 711649792
I0718 16:16:08.083966  9288 layer_factory.hpp:77] Creating layer relu1_fc1
I0718 16:16:08.083976  9288 net.cpp:91] Creating Layer relu1_fc1
I0718 16:16:08.083981  9288 net.cpp:425] relu1_fc1 <- fc1
I0718 16:16:08.083989  9288 net.cpp:386] relu1_fc1 -> fc1 (in-place)
I0718 16:16:08.083998  9288 net.cpp:141] Setting up relu1_fc1
I0718 16:16:08.084007  9288 net.cpp:148] Top shape: 128 1024 (131072)
I0718 16:16:08.084012  9288 net.cpp:156] Memory required for data: 712174080
I0718 16:16:08.084017  9288 layer_factory.hpp:77] Creating layer fc2
I0718 16:16:08.084027  9288 net.cpp:91] Creating Layer fc2
I0718 16:16:08.084036  9288 net.cpp:425] fc2 <- fc1
I0718 16:16:08.084049  9288 net.cpp:399] fc2 -> fc2
I0718 16:16:08.094492  9288 net.cpp:141] Setting up fc2
I0718 16:16:08.094516  9288 net.cpp:148] Top shape: 128 1024 (131072)
I0718 16:16:08.094522  9288 net.cpp:156] Memory required for data: 712698368
I0718 16:16:08.094533  9288 layer_factory.hpp:77] Creating layer relu2_fc2
I0718 16:16:08.094543  9288 net.cpp:91] Creating Layer relu2_fc2
I0718 16:16:08.094550  9288 net.cpp:425] relu2_fc2 <- fc2
I0718 16:16:08.094559  9288 net.cpp:386] relu2_fc2 -> fc2 (in-place)
I0718 16:16:08.094570  9288 net.cpp:141] Setting up relu2_fc2
I0718 16:16:08.094578  9288 net.cpp:148] Top shape: 128 1024 (131072)
I0718 16:16:08.094583  9288 net.cpp:156] Memory required for data: 713222656
I0718 16:16:08.094589  9288 layer_factory.hpp:77] Creating layer fc3
I0718 16:16:08.094599  9288 net.cpp:91] Creating Layer fc3
I0718 16:16:08.094605  9288 net.cpp:425] fc3 <- fc2
I0718 16:16:08.094615  9288 net.cpp:399] fc3 -> fc3
I0718 16:16:08.094746  9288 net.cpp:141] Setting up fc3
I0718 16:16:08.094754  9288 net.cpp:148] Top shape: 128 2 (256)
I0718 16:16:08.094759  9288 net.cpp:156] Memory required for data: 713223680
I0718 16:16:08.094769  9288 layer_factory.hpp:77] Creating layer loss
I0718 16:16:08.094776  9288 net.cpp:91] Creating Layer loss
I0718 16:16:08.094782  9288 net.cpp:425] loss <- fc3
I0718 16:16:08.094789  9288 net.cpp:425] loss <- label
I0718 16:16:08.094799  9288 net.cpp:399] loss -> loss
I0718 16:16:08.094815  9288 layer_factory.hpp:77] Creating layer loss
…
I0718 16:16:08.112090  9288 net.cpp:313] The NetState phase (1) differed from the phase (0) specified by a rule in layer pair_data
I0718 16:16:08.112529  9288 net.cpp:49] Initializing net from parameters: 
name: "mnist_siamese_train_test_sim_large"
state {
  phase: TEST
}
layer {
  name: "pair_data"
  type: "Data"
  top: "pair_data"
  top: "label"
  include {
    phase: TEST
  }
  transform_param {
    scale: 0.00390625
    mirror: false
    mean_file: "examples/scene/scene_mean.binaryproto"
  }
  data_param {
    source: "examples/scene/test_pairs.lmdb"
    batch_size: 100
    backend: LMDB
  }
}
layer {
  name: "slice_pair"
  type: "Slice"
  bottom: "pair_data"
  top: "data"
  top: "data_p"
  slice_param {
    slice_dim: 1
    slice_point: 3
  }
}
layer {
  name: "conv1"
  type: "Convolution"
  bottom: "data"
  top: "conv1"
  param {
    name: "conv1_w"
    lr_mult: 1
  }
  param {
    name: "conv1_b"
    lr_mult: 2
  }
  convolution_param {
    num_output: 20
    kernel_size: 5
    stride: 1
    weight_filler {
      type: "xavier"
    }
    bias_filler {
      type: "constant"
    }
  }
}
layer {
  name: "pool1"
  type: "Pooling"
  bottom: "conv1"
  top: "pool1"
  pooling_param {
    pool: MAX
    kernel_size: 2
    stride: 2
  }
}
layer {
  name: "conv2"
  type: "Convolution"
  bottom: "pool1"
  top: "conv2"
  param {
    name: "conv2_w"
    lr_mult: 1
  }
  param {
    name: "conv2_b"
    lr_mult: 2
  }
  convolution_param {
    num_output: 50
    kernel_size: 5
    stride: 1
    weight_filler {
      type: "xavier"
    }
    bias_filler {
      type: "constant"
    }
  }
}
layer {
  name: "pool2"
  type: "Pooling"
  bottom: "conv2"
  top: "pool2"
  pooling_param {
    pool: MAX
    kernel_size: 2
    stride: 2
  }
}
layer {
  name: "ip1"
  type: "InnerProduct"
  bottom: "pool2"
  top: "ip1"
  param {
    name: "ip1_w"
    lr_mult: 1
  }
  param {
    name: "ip1_b"
    lr_mult: 2
  }
  inner_product_param {
    num_output: 500
    weight_filler {
      type: "xavier"
    }
    bias_filler {
      type: "constant"
    }
  }
}
layer {
  name: "relu1"
  type: "ReLU"
  bottom: "ip1"
  top: "ip1"
}
layer {
  name: "ip2"
  type: "InnerProduct"
  bottom: "ip1"
  top: "ip2"
  param {
    name: "ip2_w"
    lr_mult: 1
  }
  param {
    name: "ip2_b"
    lr_mult: 2
  }
  inner_product_param {
    num_output: 500
    weight_filler {
      type: "xavier"
    }
    bias_filler {
      type: "constant"
    }
  }
}
layer {
  name: "feat"
  type: "InnerProduct"
  bottom: "ip2"
  top: "feat"
  param {
    name: "feat_w"
    lr_mult: 1
  }
  param {
    name: "feat_b"
    lr_mult: 2
  }
  inner_product_param {
    num_output: 2
    weight_filler {
      type: "xavier"
    }
    bias_filler {
      type: "constant"
    }
  }
}
layer {
  name: "conv1_p"
  type: "Convolution"
  bottom: "data_p"
  top: "conv1_p"
  param {
    name: "conv1_w"
    lr_mult: 1
  }
  param {
    name: "conv1_b"
    lr_mult: 2
  }
  convolution_param {
    num_output: 20
    kernel_size: 5
    stride: 1
    weight_filler {
      type: "xavier"
    }
    bias_filler {
      type: "constant"
    }
  }
}
layer {
  name: "pool1_p"
  type: "Pooling"
  bottom: "conv1_p"
  top: "pool1_p"
  pooling_param {
    pool: MAX
    kernel_size: 2
    stride: 2
  }
}
layer {
  name: "conv2_p"
  type: "Convolution"
  bottom: "pool1_p"
  top: "conv2_p"
  param {
    name: "conv2_w"
    lr_mult: 1
  }
  param {
    name: "conv2_b"
    lr_mult: 2
  }
  convolution_param {
    num_output: 50
    kernel_size: 5
    stride: 1
    weight_filler {
      type: "xavier"
    }
    bias_filler {
      type: "constant"
    }
  }
}
layer {
  name: "pool2_p"
  type: "Pooling"
  bottom: "conv2_p"
  top: "pool2_p"
  pooling_param {
    pool: MAX
    kernel_size: 2
    stride: 2
  }
}
layer {
  name: "ip1_p"
  type: "InnerProduct"
  bottom: "pool2_p"
  top: "ip1_p"
  param {
    name: "ip1_w"
    lr_mult: 1
  }
  param {
    name: "ip1_b"
    lr_mult: 2
  }
  inner_product_param {
    num_output: 500
    weight_filler {
      type: "xavier"
    }
    bias_filler {
      type: "constant"
    }
  }
}
layer {
  name: "relu1_p"
  type: "ReLU"
  bottom: "ip1_p"
  top: "ip1_p"
}
layer {
  name: "ip2_p"
  type: "InnerProduct"
  bottom: "ip1_p"
  top: "ip2_p"
  param {
    name: "ip2_w"
    lr_mult: 1
  }
  param {
    name: "ip2_b"
    lr_mult: 2
  }
  inner_product_param {
    num_output: 500
    weight_filler {
      type: "xavier"
    }
    bias_filler {
      type: "constant"
    }
  }
}
layer {
  name: "feat_p"
  type: "InnerProduct"
  bottom: "ip2_p"
  top: "feat_p"
  param {
    name: "feat_w"
    lr_mult: 1
  }
  param {
    name: "feat_b"
    lr_mult: 2
  }
  inner_product_param {
    num_output: 2
    weight_filler {
      type: "xavier"
    }
    bias_filler {
      type: "constant"
    }
  }
}
layer {
  name: "concat"
  type: "Concat"
  bottom: "feat"
  bottom: "feat_p"
  top: "comb"
  concat_param {
    axis: 1
  }
}
layer {
  name: "fc1"
  type: "InnerProduct"
  bottom: "comb"
  top: "fc1"
  param {
    name: "fc1_w"
    lr_mult: 1
  }
  param {
    name: "fc1_b"
    lr_mult: 2
  }
  inner_product_param {
    num_output: 1024
    weight_filler {
      type: "xavier"
    }
    bias_filler {
      type: "constant"
    }
  }
}
layer {
  name: "relu1_fc1"
  type: "ReLU"
  bottom: "fc1"
  top: "fc1"
}
layer {
  name: "fc2"
  type: "InnerProduct"
  bottom: "fc1"
  top: "fc2"
  param {
    name: "fc2_w"
    lr_mult: 1
  }
  param {
    name: "fc2_b"
    lr_mult: 2
  }
  inner_product_param {
    num_output: 1024
    weight_filler {
      type: "xavier"
    }
    bias_filler {
      type: "constant"
    }
  }
}
layer {
  name: "relu2_fc2"
  type: "ReLU"
  bottom: "fc2"
  top: "fc2"
}
layer {
  name: "fc3"
  type: "InnerProduct"
  bottom: "fc2"
  top: "fc3"
  param {
    name: "fc3_w"
    lr_mult: 1
  }
  param {
    name: "fc3_b"
    lr_mult: 2
  }
  inner_product_param {
    num_output: 2
    weight_filler {
      type: "xavier"
    }
    bias_filler {
      type: "constant"
    }
  }
}
layer {
  name: "loss"
  type: "SoftmaxWithLoss"
  bottom: "fc3"
  bottom: "label"
  top: "loss"
}
layer {
  name: "accuracy"
  type: "Accuracy"
  bottom: "fc3"
  bottom: "label"
  top: "accuracy"
  include {
    phase: TEST
  }
}
I0718 16:16:08.112777  9288 layer_factory.hpp:77] Creating layer pair_data
I0718 16:16:08.112962  9288 net.cpp:91] Creating Layer pair_data
I0718 16:16:08.112982  9288 net.cpp:399] pair_data -> pair_data
I0718 16:16:08.113003  9288 net.cpp:399] pair_data -> label
I0718 16:16:08.113032  9288 data_transformer.cpp:25] Loading mean file from: examples/scene/scene_mean.binaryproto
I0718 16:16:08.132436  9296 db_lmdb.cpp:35] Opened lmdb examples/scene/test_pairs.lmdb
I0718 16:16:08.132856  9288 data_layer.cpp:41] output data size: 100,6,128,128
I0718 16:16:08.232447  9288 net.cpp:141] Setting up pair_data
I0718 16:16:08.232486  9288 net.cpp:148] Top shape: 100 6 128 128 (9830400)
I0718 16:16:08.232508  9288 net.cpp:148] Top shape: 100 (100)
I0718 16:16:08.232517  9288 net.cpp:156] Memory required for data: 39322000
I0718 16:16:08.232527  9288 layer_factory.hpp:77] Creating layer label_pair_data_1_split
I0718 16:16:08.232547  9288 net.cpp:91] Creating Layer label_pair_data_1_split
I0718 16:16:08.232559  9288 net.cpp:425] label_pair_data_1_split <- label
I0718 16:16:08.232575  9288 net.cpp:399] label_pair_data_1_split -> label_pair_data_1_split_0
I0718 16:16:08.232599  9288 net.cpp:399] label_pair_data_1_split -> label_pair_data_1_split_1
I0718 16:16:08.232703  9288 net.cpp:141] Setting up label_pair_data_1_split
I0718 16:16:08.232718  9288 net.cpp:148] Top shape: 100 (100)
I0718 16:16:08.232728  9288 net.cpp:148] Top shape: 100 (100)
I0718 16:16:08.232739  9288 net.cpp:156] Memory required for data: 39322800
I0718 16:16:08.232748  9288 layer_factory.hpp:77] Creating layer slice_pair
I0718 16:16:08.232765  9288 net.cpp:91] Creating Layer slice_pair
I0718 16:16:08.232774  9288 net.cpp:425] slice_pair <- pair_data
I0718 16:16:08.232789  9288 net.cpp:399] slice_pair -> data
I0718 16:16:08.232805  9288 net.cpp:399] slice_pair -> data_p
I0718 16:16:08.232873  9288 net.cpp:141] Setting up slice_pair
I0718 16:16:08.232889  9288 net.cpp:148] Top shape: 100 3 128 128 (4915200)
I0718 16:16:08.232899  9288 net.cpp:148] Top shape: 100 3 128 128 (4915200)
I0718 16:16:08.232908  9288 net.cpp:156] Memory required for data: 78644400
I0718 16:16:08.232916  9288 layer_factory.hpp:77] Creating layer conv1
I0718 16:16:08.232934  9288 net.cpp:91] Creating Layer conv1
I0718 16:16:08.232942  9288 net.cpp:425] conv1 <- data
I0718 16:16:08.232959  9288 net.cpp:399] conv1 -> conv1
I0718 16:16:08.233333  9288 net.cpp:141] Setting up conv1
I0718 16:16:08.233351  9288 net.cpp:148] Top shape: 100 20 124 124 (30752000)
I0718 16:16:08.233362  9288 net.cpp:156] Memory required for data: 201652400
I0718 16:16:08.233378  9288 layer_factory.hpp:77] Creating layer pool1
I0718 16:16:08.233394  9288 net.cpp:91] Creating Layer pool1
I0718 16:16:08.233403  9288 net.cpp:425] pool1 <- conv1
I0718 16:16:08.233414  9288 net.cpp:399] pool1 -> pool1
I0718 16:16:08.239536  9288 net.cpp:141] Setting up pool1
I0718 16:16:08.239562  9288 net.cpp:148] Top shape: 100 20 62 62 (7688000)
I0718 16:16:08.239569  9288 net.cpp:156] Memory required for data: 232404400
I0718 16:16:08.239578  9288 layer_factory.hpp:77] Creating layer conv2
I0718 16:16:08.239603  9288 net.cpp:91] Creating Layer conv2
I0718 16:16:08.239614  9288 net.cpp:425] conv2 <- pool1
I0718 16:16:08.239629  9288 net.cpp:399] conv2 -> conv2
I0718 16:16:08.240406  9288 net.cpp:141] Setting up conv2
I0718 16:16:08.240430  9288 net.cpp:148] Top shape: 100 50 58 58 (16820000)
I0718 16:16:08.240442  9288 net.cpp:156] Memory required for data: 299684400
I0718 16:16:08.240461  9288 layer_factory.hpp:77] Creating layer pool2
I0718 16:16:08.240481  9288 net.cpp:91] Creating Layer pool2
I0718 16:16:08.240492  9288 net.cpp:425] pool2 <- conv2
I0718 16:16:08.240509  9288 net.cpp:399] pool2 -> pool2
I0718 16:16:08.240593  9288 net.cpp:141] Setting up pool2
I0718 16:16:08.240613  9288 net.cpp:148] Top shape: 100 50 29 29 (4205000)
I0718 16:16:08.240628  9288 net.cpp:156] Memory required for data: 316504400
I0718 16:16:08.240638  9288 layer_factory.hpp:77] Creating layer ip1
I0718 16:16:08.240659  9288 net.cpp:91] Creating Layer ip1
I0718 16:16:08.240672  9288 net.cpp:425] ip1 <- pool2
I0718 16:16:08.240689  9288 net.cpp:399] ip1 -> ip1
I0718 16:16:08.458189  9288 net.cpp:141] Setting up ip1
I0718 16:16:08.458232  9288 net.cpp:148] Top shape: 100 500 (50000)
I0718 16:16:08.458246  9288 net.cpp:156] Memory required for data: 316704400
I0718 16:16:08.458307  9288 layer_factory.hpp:77] Creating layer relu1
I0718 16:16:08.458328  9288 net.cpp:91] Creating Layer relu1
I0718 16:16:08.458339  9288 net.cpp:425] relu1 <- ip1
I0718 16:16:08.458353  9288 net.cpp:386] relu1 -> ip1 (in-place)
I0718 16:16:08.458369  9288 net.cpp:141] Setting up relu1
I0718 16:16:08.458379  9288 net.cpp:148] Top shape: 100 500 (50000)
I0718 16:16:08.458387  9288 net.cpp:156] Memory required for data: 316904400
I0718 16:16:08.458395  9288 layer_factory.hpp:77] Creating layer ip2
I0718 16:16:08.458410  9288 net.cpp:91] Creating Layer ip2
I0718 16:16:08.458417  9288 net.cpp:425] ip2 <- ip1
I0718 16:16:08.458430  9288 net.cpp:399] ip2 -> ip2
I0718 16:16:08.461097  9288 net.cpp:141] Setting up ip2
I0718 16:16:08.461117  9288 net.cpp:148] Top shape: 100 500 (50000)
I0718 16:16:08.461133  9288 net.cpp:156] Memory required for data: 317104400
I0718 16:16:08.461145  9288 layer_factory.hpp:77] Creating layer feat
I0718 16:16:08.461159  9288 net.cpp:91] Creating Layer feat
I0718 16:16:08.461166  9288 net.cpp:425] feat <- ip2
I0718 16:16:08.461179  9288 net.cpp:399] feat -> feat
I0718 16:16:08.461328  9288 net.cpp:141] Setting up feat
I0718 16:16:08.461343  9288 net.cpp:148] Top shape: 100 2 (200)
I0718 16:16:08.461350  9288 net.cpp:156] Memory required for data: 317105200
I0718 16:16:08.461366  9288 layer_factory.hpp:77] Creating layer conv1_p
I0718 16:16:08.461383  9288 net.cpp:91] Creating Layer conv1_p
I0718 16:16:08.461392  9288 net.cpp:425] conv1_p <- data_p
I0718 16:16:08.461406  9288 net.cpp:399] conv1_p -> conv1_p
I0718 16:16:08.461760  9288 net.cpp:141] Setting up conv1_p
I0718 16:16:08.461776  9288 net.cpp:148] Top shape: 100 20 124 124 (30752000)
I0718 16:16:08.461783  9288 net.cpp:156] Memory required for data: 440113200
I0718 16:16:08.461791  9288 net.cpp:484] Sharing parameters 'conv1_w' owned by layer 'conv1', param index 0
I0718 16:16:08.461802  9288 net.cpp:484] Sharing parameters 'conv1_b' owned by layer 'conv1', param index 1
I0718 16:16:08.461809  9288 layer_factory.hpp:77] Creating layer pool1_p
I0718 16:16:08.461822  9288 net.cpp:91] Creating Layer pool1_p
I0718 16:16:08.461829  9288 net.cpp:425] pool1_p <- conv1_p
I0718 16:16:08.461841  9288 net.cpp:399] pool1_p -> pool1_p
I0718 16:16:08.461894  9288 net.cpp:141] Setting up pool1_p
I0718 16:16:08.461910  9288 net.cpp:148] Top shape: 100 20 62 62 (7688000)
I0718 16:16:08.461916  9288 net.cpp:156] Memory required for data: 470865200
I0718 16:16:08.461923  9288 layer_factory.hpp:77] Creating layer conv2_p
I0718 16:16:08.461938  9288 net.cpp:91] Creating Layer conv2_p
I0718 16:16:08.461946  9288 net.cpp:425] conv2_p <- pool1_p
I0718 16:16:08.461959  9288 net.cpp:399] conv2_p -> conv2_p
I0718 16:16:08.462474  9288 net.cpp:141] Setting up conv2_p
I0718 16:16:08.462489  9288 net.cpp:148] Top shape: 100 50 58 58 (16820000)
I0718 16:16:08.462496  9288 net.cpp:156] Memory required for data: 538145200
I0718 16:16:08.462505  9288 net.cpp:484] Sharing parameters 'conv2_w' owned by layer 'conv2', param index 0
I0718 16:16:08.462514  9288 net.cpp:484] Sharing parameters 'conv2_b' owned by layer 'conv2', param index 1
I0718 16:16:08.462522  9288 layer_factory.hpp:77] Creating layer pool2_p
I0718 16:16:08.462532  9288 net.cpp:91] Creating Layer pool2_p
I0718 16:16:08.462540  9288 net.cpp:425] pool2_p <- conv2_p
I0718 16:16:08.462551  9288 net.cpp:399] pool2_p -> pool2_p
I0718 16:16:08.462606  9288 net.cpp:141] Setting up pool2_p
I0718 16:16:08.462621  9288 net.cpp:148] Top shape: 100 50 29 29 (4205000)
I0718 16:16:08.462628  9288 net.cpp:156] Memory required for data: 554965200
I0718 16:16:08.462635  9288 layer_factory.hpp:77] Creating layer ip1_p
I0718 16:16:08.462647  9288 net.cpp:91] Creating Layer ip1_p
I0718 16:16:08.462656  9288 net.cpp:425] ip1_p <- pool2_p
I0718 16:16:08.462668  9288 net.cpp:399] ip1_p -> ip1_p
I0718 16:16:08.666211  9288 net.cpp:141] Setting up ip1_p
I0718 16:16:08.666255  9288 net.cpp:148] Top shape: 100 500 (50000)
I0718 16:16:08.666263  9288 net.cpp:156] Memory required for data: 555165200
I0718 16:16:08.666321  9288 net.cpp:484] Sharing parameters 'ip1_w' owned by layer 'ip1', param index 0
I0718 16:16:08.666332  9288 net.cpp:484] Sharing parameters 'ip1_b' owned by layer 'ip1', param index 1
I0718 16:16:08.666348  9288 layer_factory.hpp:77] Creating layer relu1_p
I0718 16:16:08.666371  9288 net.cpp:91] Creating Layer relu1_p
I0718 16:16:08.666380  9288 net.cpp:425] relu1_p <- ip1_p
I0718 16:16:08.666393  9288 net.cpp:386] relu1_p -> ip1_p (in-place)
I0718 16:16:08.666410  9288 net.cpp:141] Setting up relu1_p
I0718 16:16:08.666420  9288 net.cpp:148] Top shape: 100 500 (50000)
I0718 16:16:08.666427  9288 net.cpp:156] Memory required for data: 555365200
I0718 16:16:08.666435  9288 layer_factory.hpp:77] Creating layer ip2_p
I0718 16:16:08.666450  9288 net.cpp:91] Creating Layer ip2_p
I0718 16:16:08.666456  9288 net.cpp:425] ip2_p <- ip1_p
I0718 16:16:08.666468  9288 net.cpp:399] ip2_p -> ip2_p
I0718 16:16:08.669157  9288 net.cpp:141] Setting up ip2_p
I0718 16:16:08.669178  9288 net.cpp:148] Top shape: 100 500 (50000)
I0718 16:16:08.669195  9288 net.cpp:156] Memory required for data: 555565200
I0718 16:16:08.669212  9288 net.cpp:484] Sharing parameters 'ip2_w' owned by layer 'ip2', param index 0
I0718 16:16:08.669224  9288 net.cpp:484] Sharing parameters 'ip2_b' owned by layer 'ip2', param index 1
I0718 16:16:08.669231  9288 layer_factory.hpp:77] Creating layer feat_p
I0718 16:16:08.669245  9288 net.cpp:91] Creating Layer feat_p
I0718 16:16:08.669261  9288 net.cpp:425] feat_p <- ip2_p
I0718 16:16:08.669275  9288 net.cpp:399] feat_p -> feat_p
I0718 16:16:08.669420  9288 net.cpp:141] Setting up feat_p
I0718 16:16:08.669435  9288 net.cpp:148] Top shape: 100 2 (200)
I0718 16:16:08.669441  9288 net.cpp:156] Memory required for data: 555566000
I0718 16:16:08.669450  9288 net.cpp:484] Sharing parameters 'feat_w' owned by layer 'feat', param index 0
I0718 16:16:08.669459  9288 net.cpp:484] Sharing parameters 'feat_b' owned by layer 'feat', param index 1
I0718 16:16:08.669467  9288 layer_factory.hpp:77] Creating layer concat
I0718 16:16:08.669479  9288 net.cpp:91] Creating Layer concat
I0718 16:16:08.669487  9288 net.cpp:425] concat <- feat
I0718 16:16:08.669497  9288 net.cpp:425] concat <- feat_p
I0718 16:16:08.669508  9288 net.cpp:399] concat -> comb
I0718 16:16:08.669544  9288 net.cpp:141] Setting up concat
I0718 16:16:08.669559  9288 net.cpp:148] Top shape: 100 4 (400)
I0718 16:16:08.669565  9288 net.cpp:156] Memory required for data: 555567600
I0718 16:16:08.669572  9288 layer_factory.hpp:77] Creating layer fc1
I0718 16:16:08.669584  9288 net.cpp:91] Creating Layer fc1
I0718 16:16:08.669592  9288 net.cpp:425] fc1 <- comb
I0718 16:16:08.669605  9288 net.cpp:399] fc1 -> fc1
I0718 16:16:08.669777  9288 net.cpp:141] Setting up fc1
I0718 16:16:08.669791  9288 net.cpp:148] Top shape: 100 1024 (102400)
I0718 16:16:08.669800  9288 net.cpp:156] Memory required for data: 555977200
I0718 16:16:08.669811  9288 layer_factory.hpp:77] Creating layer relu1_fc1
I0718 16:16:08.669821  9288 net.cpp:91] Creating Layer relu1_fc1
I0718 16:16:08.669828  9288 net.cpp:425] relu1_fc1 <- fc1
I0718 16:16:08.669839  9288 net.cpp:386] relu1_fc1 -> fc1 (in-place)
I0718 16:16:08.669852  9288 net.cpp:141] Setting up relu1_fc1
I0718 16:16:08.669862  9288 net.cpp:148] Top shape: 100 1024 (102400)
I0718 16:16:08.669868  9288 net.cpp:156] Memory required for data: 556386800
I0718 16:16:08.669877  9288 layer_factory.hpp:77] Creating layer fc2
I0718 16:16:08.669888  9288 net.cpp:91] Creating Layer fc2
I0718 16:16:08.669896  9288 net.cpp:425] fc2 <- fc1
I0718 16:16:08.669908  9288 net.cpp:399] fc2 -> fc2
I0718 16:16:08.679934  9288 net.cpp:141] Setting up fc2
I0718 16:16:08.679957  9288 net.cpp:148] Top shape: 100 1024 (102400)
I0718 16:16:08.679965  9288 net.cpp:156] Memory required for data: 556796400
I0718 16:16:08.679980  9288 layer_factory.hpp:77] Creating layer relu2_fc2
I0718 16:16:08.679992  9288 net.cpp:91] Creating Layer relu2_fc2
I0718 16:16:08.680001  9288 net.cpp:425] relu2_fc2 <- fc2
I0718 16:16:08.680012  9288 net.cpp:386] relu2_fc2 -> fc2 (in-place)
I0718 16:16:08.680043  9288 net.cpp:141] Setting up relu2_fc2
I0718 16:16:08.680055  9288 net.cpp:148] Top shape: 100 1024 (102400)
I0718 16:16:08.680063  9288 net.cpp:156] Memory required for data: 557206000
I0718 16:16:08.680070  9288 layer_factory.hpp:77] Creating layer fc3
I0718 16:16:08.680083  9288 net.cpp:91] Creating Layer fc3
I0718 16:16:08.680091  9288 net.cpp:425] fc3 <- fc2
I0718 16:16:08.680104  9288 net.cpp:399] fc3 -> fc3
I0718 16:16:08.680356  9288 net.cpp:141] Setting up fc3
I0718 16:16:08.680372  9288 net.cpp:148] Top shape: 100 2 (200)
I0718 16:16:08.680380  9288 net.cpp:156] Memory required for data: 557206800
I0718 16:16:08.680392  9288 layer_factory.hpp:77] Creating layer fc3_fc3_0_split
I0718 16:16:08.680403  9288 net.cpp:91] Creating Layer fc3_fc3_0_split
I0718 16:16:08.680411  9288 net.cpp:425] fc3_fc3_0_split <- fc3
I0718 16:16:08.680423  9288 net.cpp:399] fc3_fc3_0_split -> fc3_fc3_0_split_0
I0718 16:16:08.680438  9288 net.cpp:399] fc3_fc3_0_split -> fc3_fc3_0_split_1
I0718 16:16:08.680488  9288 net.cpp:141] Setting up fc3_fc3_0_split
I0718 16:16:08.680503  9288 net.cpp:148] Top shape: 100 2 (200)
I0718 16:16:08.680512  9288 net.cpp:148] Top shape: 100 2 (200)
I0718 16:16:08.680521  9288 net.cpp:156] Memory required for data: 557208400
I0718 16:16:08.680528  9288 layer_factory.hpp:77] Creating layer loss
I0718 16:16:08.680538  9288 net.cpp:91] Creating Layer loss
I0718 16:16:08.680546  9288 net.cpp:425] loss <- fc3_fc3_0_split_0
I0718 16:16:08.680557  9288 net.cpp:425] loss <- label_pair_data_1_split_0
I0718 16:16:08.680567  9288 net.cpp:399] loss -> loss
…
