…
I0815 15:50:12.372598 16501 solver.cpp:81] Creating training net from train_net file: examples/scene/matchNetTrainHingeMini.prototxt
I0815 15:50:12.414870 16501 net.cpp:49] Initializing net from parameters: 
state {
  phase: TRAIN
}
layer {
  name: "data"
  type: "Data"
  top: "data"
  top: "label"
  include {
    phase: TRAIN
  }
  transform_param {
    scale: 0.0039215689
    mirror: true
    mean_file: "examples/scene/scene_mean.binaryproto"
  }
  data_param {
    source: "examples/scene/scene_train3_pairs_4000_pad.lmdb"
    batch_size: 100
    backend: LMDB
  }
}
layer {
  name: "th"
  type: "Threshold"
  bottom: "label"
  top: "th"
  threshold_param {
    threshold: 0
  }
}
layer {
  name: "i1"
  type: "Slice"
  bottom: "data"
  top: "i1"
  top: "i2"
  slice_param {
    slice_dim: 1
    slice_point: 3
  }
}
layer {
  name: "p1"
  type: "Pooling"
  bottom: "i1"
  top: "p1"
  pooling_param {
    pool: AVE
    kernel_size: 2
    stride: 2
  }
}
layer {
  name: "p2"
  type: "Pooling"
  bottom: "i2"
  top: "p2"
  pooling_param {
    pool: AVE
    kernel_size: 2
    stride: 2
  }
}
layer {
  name: "Input1"
  type: "Input"
  top: "Input1"
  include {
    phase: TRAIN
  }
  input_param {
    shape {
      dim: 100
      dim: 3
      dim: 64
      dim: 64
    }
  }
}
layer {
  name: "c11"
  type: "Crop"
  bottom: "i1"
  bottom: "Input1"
  top: "c11"
  crop_param {
    axis: 2
    offset: 0
    offset: 0
  }
}
layer {
  name: "Input2"
  type: "Input"
  top: "Input2"
  include {
    phase: TRAIN
  }
  input_param {
    shape {
      dim: 100
      dim: 3
      dim: 64
      dim: 64
    }
  }
}
layer {
  name: "c12"
  type: "Crop"
  bottom: "i1"
  bottom: "Input2"
  top: "c12"
  crop_param {
    axis: 2
    offset: 0
    offset: 32
  }
}
layer {
  name: "Input3"
  type: "Input"
  top: "Input3"
  include {
    phase: TRAIN
  }
  input_param {
    shape {
      dim: 100
      dim: 3
      dim: 64
      dim: 64
    }
  }
}
layer {
  name: "c13"
  type: "Crop"
  bottom: "i1"
  bottom: "Input3"
  top: "c13"
  crop_param {
    axis: 2
    offset: 0
    offset: 64
  }
}
layer {
  name: "Input4"
  type: "Input"
  top: "Input4"
  include {
    phase: TRAIN
  }
  input_param {
    shape {
      dim: 100
      dim: 3
      dim: 64
      dim: 64
    }
  }
}
layer {
  name: "c14"
  type: "Crop"
  bottom: "i1"
  bottom: "Input4"
  top: "c14"
  crop_param {
    axis: 2
    offset: 32
    offset: 0
  }
}
layer {
  name: "Input5"
  type: "Input"
  top: "Input5"
  include {
    phase: TRAIN
  }
  input_param {
    shape {
      dim: 100
      dim: 3
      dim: 64
      dim: 64
    }
  }
}
layer {
  name: "c15"
  type: "Crop"
  bottom: "i1"
  bottom: "Input5"
  top: "c15"
  crop_param {
    axis: 2
    offset: 32
    offset: 32
  }
}
layer {
  name: "Input6"
  type: "Input"
  top: "Input6"
  include {
    phase: TRAIN
  }
  input_param {
    shape {
      dim: 100
      dim: 3
      dim: 64
      dim: 64
    }
  }
}
layer {
  name: "c16"
  type: "Crop"
  bottom: "i1"
  bottom: "Input6"
  top: "c16"
  crop_param {
    axis: 2
    offset: 32
    offset: 64
  }
}
layer {
  name: "Input7"
  type: "Input"
  top: "Input7"
  include {
    phase: TRAIN
  }
  input_param {
    shape {
      dim: 100
      dim: 3
      dim: 64
      dim: 64
    }
  }
}
layer {
  name: "c17"
  type: "Crop"
  bottom: "i1"
  bottom: "Input7"
  top: "c17"
  crop_param {
    axis: 2
    offset: 64
    offset: 0
  }
}
layer {
  name: "Input8"
  type: "Input"
  top: "Input8"
  include {
    phase: TRAIN
  }
  input_param {
    shape {
      dim: 100
      dim: 3
      dim: 64
      dim: 64
    }
  }
}
layer {
  name: "c18"
  type: "Crop"
  bottom: "i1"
  bottom: "Input8"
  top: "c18"
  crop_param {
    axis: 2
    offset: 64
    offset: 32
  }
}
layer {
  name: "Input9"
  type: "Input"
  top: "Input9"
  include {
    phase: TRAIN
  }
  input_param {
    shape {
      dim: 100
      dim: 3
      dim: 64
      dim: 64
    }
  }
}
layer {
  name: "c19"
  type: "Crop"
  bottom: "i1"
  bottom: "Input9"
  top: "c19"
  crop_param {
    axis: 2
    offset: 64
    offset: 64
  }
}
layer {
  name: "Input10"
  type: "Input"
  top: "Input10"
  include {
    phase: TRAIN
  }
  input_param {
    shape {
      dim: 100
      dim: 3
      dim: 64
      dim: 64
    }
  }
}
layer {
  name: "c21"
  type: "Crop"
  bottom: "i2"
  bottom: "Input10"
  top: "c21"
  crop_param {
    axis: 2
    offset: 0
    offset: 0
  }
}
layer {
  name: "Input11"
  type: "Input"
  top: "Input11"
  include {
    phase: TRAIN
  }
  input_param {
    shape {
      dim: 100
      dim: 3
      dim: 64
      dim: 64
    }
  }
}
layer {
  name: "c22"
  type: "Crop"
  bottom: "i2"
  bottom: "Input11"
  top: "c22"
  crop_param {
    axis: 2
    offset: 0
    offset: 32
  }
}
layer {
  name: "Input12"
  type: "Input"
  top: "Input12"
  include {
    phase: TRAIN
  }
  input_param {
    shape {
      dim: 100
      dim: 3
      dim: 64
      dim: 64
    }
  }
}
layer {
  name: "c23"
  type: "Crop"
  bottom: "i2"
  bottom: "Input12"
  top: "c23"
  crop_param {
    axis: 2
    offset: 0
    offset: 64
  }
}
layer {
  name: "Input13"
  type: "Input"
  top: "Input13"
  include {
    phase: TRAIN
  }
  input_param {
    shape {
      dim: 100
      dim: 3
      dim: 64
      dim: 64
    }
  }
}
layer {
  name: "c24"
  type: "Crop"
  bottom: "i2"
  bottom: "Input13"
  top: "c24"
  crop_param {
    axis: 2
    offset: 32
    offset: 0
  }
}
layer {
  name: "Input14"
  type: "Input"
  top: "Input14"
  include {
    phase: TRAIN
  }
  input_param {
    shape {
      dim: 100
      dim: 3
      dim: 64
      dim: 64
    }
  }
}
layer {
  name: "c25"
  type: "Crop"
  bottom: "i2"
  bottom: "Input14"
  top: "c25"
  crop_param {
    axis: 2
    offset: 32
    offset: 32
  }
}
layer {
  name: "Input15"
  type: "Input"
  top: "Input15"
  include {
    phase: TRAIN
  }
  input_param {
    shape {
      dim: 100
      dim: 3
      dim: 64
      dim: 64
    }
  }
}
layer {
  name: "c26"
  type: "Crop"
  bottom: "i2"
  bottom: "Input15"
  top: "c26"
  crop_param {
    axis: 2
    offset: 32
    offset: 64
  }
}
layer {
  name: "Input16"
  type: "Input"
  top: "Input16"
  include {
    phase: TRAIN
  }
  input_param {
    shape {
      dim: 100
      dim: 3
      dim: 64
      dim: 64
    }
  }
}
layer {
  name: "c27"
  type: "Crop"
  bottom: "i2"
  bottom: "Input16"
  top: "c27"
  crop_param {
    axis: 2
    offset: 64
    offset: 0
  }
}
layer {
  name: "Input17"
  type: "Input"
  top: "Input17"
  include {
    phase: TRAIN
  }
  input_param {
    shape {
      dim: 100
      dim: 3
      dim: 64
      dim: 64
    }
  }
}
layer {
  name: "c28"
  type: "Crop"
  bottom: "i2"
  bottom: "Input17"
  top: "c28"
  crop_param {
    axis: 2
    offset: 64
    offset: 32
  }
}
layer {
  name: "Input18"
  type: "Input"
  top: "Input18"
  include {
    phase: TRAIN
  }
  input_param {
    shape {
      dim: 100
      dim: 3
      dim: 64
      dim: 64
    }
  }
}
layer {
  name: "c29"
  type: "Crop"
  bottom: "i2"
  bottom: "Input18"
  top: "c29"
  crop_param {
    axis: 2
    offset: 64
    offset: 64
  }
}
layer {
  name: "conv1"
  type: "Convolution"
  bottom: "p1"
  top: "Convolution1"
  param {
    lr_mult: 0
    decay_mult: 0
  }
  param {
    lr_mult: 0
    decay_mult: 0
  }
  convolution_param {
    num_output: 96
    pad: 7
    kernel_size: 11
    group: 1
    stride: 4
    weight_filler {
      type: "gaussian"
      std: 0.01
    }
    bias_filler {
      type: "constant"
      value: 0
    }
  }
}
layer {
  name: "ReLU1"
  type: "ReLU"
  bottom: "Convolution1"
  top: "Convolution1"
}
layer {
  name: "norm1"
  type: "LRN"
  bottom: "Convolution1"
  top: "LRN1"
  lrn_param {
    local_size: 5
    alpha: 0.0001
    beta: 0.75
  }
}
layer {
  name: "pool1"
  type: "Pooling"
  bottom: "LRN1"
  top: "Pooling1"
  pooling_param {
    pool: MAX
    kernel_size: 3
    stride: 2
  }
}
layer {
  name: "conv2"
  type: "Convolution"
  bottom: "Pooling1"
  top: "Convolution2"
  param {
    lr_mult: 0
    decay_mult: 0
  }
  param {
    lr_mult: 0
    decay_mult: 0
  }
  convolution_param {
    num_output: 256
    pad: 2
    kernel_size: 5
    group: 2
    stride: 1
    weight_filler {
      type: "gaussian"
      std: 0.01
    }
    bias_filler {
      type: "constant"
      value: 0.1
    }
  }
}
layer {
  name: "ReLU2"
  type: "ReLU"
  bottom: "Convolution2"
  top: "Convolution2"
}
layer {
  name: "norm2"
  type: "LRN"
  bottom: "Convolution2"
  top: "LRN2"
  lrn_param {
    local_size: 5
    alpha: 0.0001
    beta: 0.75
  }
}
layer {
  name: "pool2"
  type: "Pooling"
  bottom: "LRN2"
  top: "Pooling2"
  pooling_param {
    pool: MAX
    kernel_size: 3
    stride: 2
  }
}
layer {
  name: "conv3"
  type: "Convolution"
  bottom: "Pooling2"
  top: "Convolution3"
  param {
    lr_mult: 0
    decay_mult: 0
  }
  param {
    lr_mult: 0
    decay_mult: 0
  }
  convolution_param {
    num_output: 384
    pad: 1
    kernel_size: 3
    group: 1
    stride: 1
    weight_filler {
      type: "gaussian"
      std: 0.01
    }
    bias_filler {
      type: "constant"
      value: 0
    }
  }
}
layer {
  name: "ReLU3"
  type: "ReLU"
  bottom: "Convolution3"
  top: "Convolution3"
}
layer {
  name: "conv4"
  type: "Convolution"
  bottom: "Convolution3"
  top: "Convolution4"
  param {
    lr_mult: 0
    decay_mult: 0
  }
  param {
    lr_mult: 0
    decay_mult: 0
  }
  convolution_param {
    num_output: 384
    pad: 1
    kernel_size: 3
    group: 2
    stride: 1
    weight_filler {
      type: "gaussian"
      std: 0.01
    }
    bias_filler {
      type: "constant"
      value: 0.1
    }
  }
}
layer {
  name: "ReLU4"
  type: "ReLU"
  bottom: "Convolution4"
  top: "Convolution4"
}
layer {
  name: "conv5"
  type: "Convolution"
  bottom: "Convolution4"
  top: "Convolution5"
  param {
    lr_mult: 0
    decay_mult: 0
  }
  param {
    lr_mult: 0
    decay_mult: 0
  }
  convolution_param {
    num_output: 256
    pad: 1
    kernel_size: 3
    group: 2
    stride: 1
    weight_filler {
      type: "gaussian"
      std: 0.01
    }
    bias_filler {
      type: "constant"
      value: 0.1
    }
  }
}
layer {
  name: "pool5"
  type: "Pooling"
  bottom: "Convolution5"
  top: "Pooling3"
  pooling_param {
    pool: MAX
    kernel_size: 3
    stride: 2
  }
}
layer {
  name: "InnerProduct1"
  type: "InnerProduct"
  bottom: "Pooling3"
  top: "InnerProduct1"
  param {
    name: "fc6_w"
    lr_mult: 1
  }
  param {
    name: "fc6_b"
    lr_mult: 2
  }
  inner_product_param {
    num_output: 256
    weight_filler {
      type: "xavier"
    }
    bias_filler {
      type: "constant"
    }
  }
}
layer {
  name: "ReLU5"
  type: "ReLU"
  bottom: "InnerProduct1"
  top: "InnerProduct1"
}
layer {
  name: "InnerProduct2"
  type: "InnerProduct"
  bottom: "InnerProduct1"
  top: "InnerProduct2"
  param {
    name: "fc7_w"
    lr_mult: 1
  }
  param {
    name: "fc7_b"
    lr_mult: 2
  }
  inner_product_param {
    num_output: 256
    weight_filler {
      type: "xavier"
    }
    bias_filler {
      type: "constant"
    }
  }
}
layer {
  name: "ReLU6"
  type: "ReLU"
  bottom: "InnerProduct2"
  top: "InnerProduct2"
}
layer {
  name: "conv1"
  type: "Convolution"
  bottom: "p2"
  top: "Convolution6"
  param {
    lr_mult: 0
    decay_mult: 0
  }
  param {
    lr_mult: 0
    decay_mult: 0
  }
  convolution_param {
    num_output: 96
    pad: 7
    kernel_size: 11
    group: 1
    stride: 4
    weight_filler {
      type: "gaussian"
      std: 0.01
    }
    bias_filler {
      type: "constant"
      value: 0
    }
  }
}
layer {
  name: "ReLU7"
  type: "ReLU"
  bottom: "Convolution6"
  top: "Convolution6"
}
layer {
  name: "norm1"
  type: "LRN"
  bottom: "Convolution6"
  top: "LRN3"
  lrn_param {
    local_size: 5
    alpha: 0.0001
    beta: 0.75
  }
}
layer {
  name: "pool1"
  type: "Pooling"
  bottom: "LRN3"
  top: "Pooling4"
  pooling_param {
    pool: MAX
    kernel_size: 3
    stride: 2
  }
}
layer {
  name: "conv2"
  type: "Convolution"
  bottom: "Pooling4"
  top: "Convolution7"
  param {
    lr_mult: 0
    decay_mult: 0
  }
  param {
    lr_mult: 0
    decay_mult: 0
  }
  convolution_param {
    num_output: 256
    pad: 2
    kernel_size: 5
    group: 2
    stride: 1
    weight_filler {
      type: "gaussian"
      std: 0.01
    }
    bias_filler {
      type: "constant"
      value: 0.1
    }
  }
}
layer {
  name: "ReLU8"
  type: "ReLU"
  bottom: "Convolution7"
  top: "Convolution7"
}
layer {
  name: "norm2"
  type: "LRN"
  bottom: "Convolution7"
  top: "LRN4"
  lrn_param {
    local_size: 5
    alpha: 0.0001
    beta: 0.75
  }
}
layer {
  name: "pool2"
  type: "Pooling"
  bottom: "LRN4"
  top: "Pooling5"
  pooling_param {
    pool: MAX
    kernel_size: 3
    stride: 2
  }
}
layer {
  name: "conv3"
  type: "Convolution"
  bottom: "Pooling5"
  top: "Convolution8"
  param {
    lr_mult: 0
    decay_mult: 0
  }
  param {
    lr_mult: 0
    decay_mult: 0
  }
  convolution_param {
    num_output: 384
    pad: 1
    kernel_size: 3
    group: 1
    stride: 1
    weight_filler {
      type: "gaussian"
      std: 0.01
    }
    bias_filler {
      type: "constant"
      value: 0
    }
  }
}
layer {
  name: "ReLU9"
  type: "ReLU"
  bottom: "Convolution8"
  top: "Convolution8"
}
layer {
  name: "conv4"
  type: "Convolution"
  bottom: "Convolution8"
  top: "Convolution9"
  param {
    lr_mult: 0
    decay_mult: 0
  }
  param {
    lr_mult: 0
    decay_mult: 0
  }
  convolution_param {
    num_output: 384
    pad: 1
    kernel_size: 3
    group: 2
    stride: 1
    weight_filler {
      type: "gaussian"
      std: 0.01
    }
    bias_filler {
      type: "constant"
      value: 0.1
    }
  }
}
layer {
  name: "ReLU10"
  type: "ReLU"
  bottom: "Convolution9"
  top: "Convolution9"
}
layer {
  name: "conv5"
  type: "Convolution"
  bottom: "Convolution9"
  top: "Convolution10"
  param {
    lr_mult: 0
    decay_mult: 0
  }
  param {
    lr_mult: 0
    decay_mult: 0
  }
  convolution_param {
    num_output: 256
    pad: 1
    kernel_size: 3
    group: 2
    stride: 1
    weight_filler {
      type: "gaussian"
      std: 0.01
    }
    bias_filler {
      type: "constant"
      value: 0.1
    }
  }
}
layer {
  name: "pool5"
  type: "Pooling"
  bottom: "Convolution10"
  top: "Pooling6"
  pooling_param {
    pool: MAX
    kernel_size: 3
    stride: 2
  }
}
layer {
  name: "InnerProduct3"
  type: "InnerProduct"
  bottom: "Pooling6"
  top: "InnerProduct3"
  param {
    name: "fc6_w"
    lr_mult: 1
  }
  param {
    name: "fc6_b"
    lr_mult: 2
  }
  inner_product_param {
    num_output: 256
    weight_filler {
      type: "xavier"
    }
    bias_filler {
      type: "constant"
    }
  }
}
layer {
  name: "ReLU11"
  type: "ReLU"
  bottom: "InnerProduct3"
  top: "InnerProduct3"
}
layer {
  name: "InnerProduct4"
  type: "InnerProduct"
  bottom: "InnerProduct3"
  top: "InnerProduct4"
  param {
    name: "fc7_w"
    lr_mult: 1
  }
  param {
    name: "fc7_b"
    lr_mult: 2
  }
  inner_product_param {
    num_output: 256
    weight_filler {
      type: "xavier"
    }
    bias_filler {
      type: "constant"
    }
  }
}
layer {
  name: "ReLU12"
  type: "ReLU"
  bottom: "InnerProduct4"
  top: "InnerProduct4"
}
layer {
  name: "Concat1"
  type: "Concat"
  bottom: "InnerProduct2"
  bottom: "InnerProduct4"
  top: "Concat1"
  concat_param {
    axis: 1
  }
}
layer {
  name: "InnerProduct5"
  type: "InnerProduct"
  bottom: "Concat1"
  top: "InnerProduct5"
  param {
    name: "fc8_w"
    lr_mult: 1
  }
  param {
    name: "fc8_b"
    lr_mult: 2
  }
  inner_product_param {
    num_output: 256
    weight_filler {
      type: "xavier"
    }
    bias_filler {
      type: "constant"
    }
  }
}
layer {
  name: "ReLU13"
  type: "ReLU"
  bottom: "InnerProduct5"
  top: "InnerProduct5"
}
layer {
  name: "InnerProduct6"
  type: "InnerProduct"
  bottom: "InnerProduct5"
  top: "InnerProduct6"
  param {
    name: "fc9_w"
    lr_mult: 1
  }
  param {
    name: "fc9_b"
    lr_mult: 2
  }
  inner_product_param {
    num_output: 128
    weight_filler {
      type: "xavier"
    }
    bias_filler {
      type: "constant"
    }
  }
}
layer {
  name: "ReLU14"
  type: "ReLU"
  bottom: "InnerProduct6"
  top: "InnerProduct6"
}
layer {
  name: "dt0"
  type: "InnerProduct"
  bottom: "InnerProduct6"
  top: "dt0"
  param {
    name: "fc10_w"
    lr_mult: 1
  }
  param {
    name: "fc10_b"
    lr_mult: 2
  }
  inner_product_param {
    num_output: 1
    weight_filler {
      type: "xavier"
    }
    bias_filler {
      type: "constant"
    }
  }
}
layer {
  name: "conv1"
  type: "Convolution"
  bottom: "p1"
  top: "Convolution11"
  param {
    lr_mult: 0
    decay_mult: 0
  }
  param {
    lr_mult: 0
    decay_mult: 0
  }
  convolution_param {
    num_output: 96
    pad: 7
    kernel_size: 11
    group: 1
    stride: 4
    weight_filler {
      type: "gaussian"
      std: 0.01
    }
    bias_filler {
      type: "constant"
      value: 0
    }
  }
}
layer {
  name: "ReLU15"
  type: "ReLU"
  bottom: "Convolution11"
  top: "Convolution11"
}
layer {
  name: "norm1"
  type: "LRN"
  bottom: "Convolution11"
  top: "LRN5"
  lrn_param {
    local_size: 5
    alpha: 0.0001
    beta: 0.75
  }
}
layer {
  name: "pool1"
  type: "Pooling"
  bottom: "LRN5"
  top: "Pooling7"
  pooling_param {
    pool: MAX
    kernel_size: 3
    stride: 2
  }
}
layer {
  name: "conv2"
  type: "Convolution"
  bottom: "Pooling7"
  top: "Convolution12"
  param {
    lr_mult: 0
    decay_mult: 0
  }
  param {
    lr_mult: 0
    decay_mult: 0
  }
  convolution_param {
    num_output: 256
    pad: 2
    kernel_size: 5
    group: 2
    stride: 1
    weight_filler {
      type: "gaussian"
      std: 0.01
    }
    bias_filler {
      type: "constant"
      value: 0.1
    }
  }
}
layer {
  name: "ReLU16"
  type: "ReLU"
  bottom: "Convolution12"
  top: "Convolution12"
}
layer {
  name: "norm2"
  type: "LRN"
  bottom: "Convolution12"
  top: "LRN6"
  lrn_param {
    local_size: 5
    alpha: 0.0001
    beta: 0.75
  }
}
layer {
  name: "pool2"
  type: "Pooling"
  bottom: "LRN6"
  top: "Pooling8"
  pooling_param {
    pool: MAX
    kernel_size: 3
    stride: 2
  }
}
layer {
  name: "conv3"
  type: "Convolution"
  bottom: "Pooling8"
  top: "Convolution13"
  param {
    lr_mult: 0
    decay_mult: 0
  }
  param {
    lr_mult: 0
    decay_mult: 0
  }
  convolution_param {
    num_output: 384
    pad: 1
    kernel_size: 3
    group: 1
    stride: 1
    weight_filler {
      type: "gaussian"
      std: 0.01
    }
    bias_filler {
      type: "constant"
      value: 0
    }
  }
}
layer {
  name: "ReLU17"
  type: "ReLU"
  bottom: "Convolution13"
  top: "Convolution13"
}
layer {
  name: "conv4"
  type: "Convolution"
  bottom: "Convolution13"
  top: "Convolution14"
  param {
    lr_mult: 0
    decay_mult: 0
  }
  param {
    lr_mult: 0
    decay_mult: 0
  }
  convolution_param {
    num_output: 384
    pad: 1
    kernel_size: 3
    group: 2
    stride: 1
    weight_filler {
      type: "gaussian"
      std: 0.01
    }
    bias_filler {
      type: "constant"
      value: 0.1
    }
  }
}
layer {
  name: "ReLU18"
  type: "ReLU"
  bottom: "Convolution14"
  top: "Convolution14"
}
layer {
  name: "conv5"
  type: "Convolution"
  bottom: "Convolution14"
  top: "Convolution15"
  param {
    lr_mult: 0
    decay_mult: 0
  }
  param {
    lr_mult: 0
    decay_mult: 0
  }
  convolution_param {
    num_output: 256
    pad: 1
    kernel_size: 3
    group: 2
    stride: 1
    weight_filler {
      type: "gaussian"
      std: 0.01
    }
    bias_filler {
      type: "constant"
      value: 0.1
    }
  }
}
layer {
  name: "pool5"
  type: "Pooling"
  bottom: "Convolution15"
  top: "Pooling9"
  pooling_param {
    pool: MAX
    kernel_size: 3
    stride: 2
  }
}
layer {
  name: "InnerProduct7"
  type: "InnerProduct"
  bottom: "Pooling9"
  top: "InnerProduct7"
  param {
    name: "fc6_w"
    lr_mult: 1
  }
  param {
    name: "fc6_b"
    lr_mult: 2
  }
  inner_product_param {
    num_output: 256
    weight_filler {
      type: "xavier"
    }
    bias_filler {
      type: "constant"
    }
  }
}
layer {
  name: "ReLU19"
  type: "ReLU"
  bottom: "InnerProduct7"
  top: "InnerProduct7"
}
layer {
  name: "InnerProduct8"
  type: "InnerProduct"
  bottom: "InnerProduct7"
  top: "InnerProduct8"
  param {
    name: "fc7_w"
    lr_mult: 1
  }
  param {
    name: "fc7_b"
    lr_mult: 2
  }
  inner_product_param {
    num_output: 256
    weight_filler {
      type: "xavier"
    }
    bias_filler {
      type: "constant"
    }
  }
}
layer {
  name: "ReLU20"
  type: "ReLU"
  bottom: "InnerProduct8"
  top: "InnerProduct8"
}
layer {
  name: "conv1"
  type: "Convolution"
  bottom: "c21"
  top: "Convolution16"
  param {
    lr_mult: 0
    decay_mult: 0
  }
  param {
    lr_mult: 0
    decay_mult: 0
  }
  convolution_param {
    num_output: 96
    pad: 7
    kernel_size: 11
    group: 1
    stride: 4
    weight_filler {
      type: "gaussian"
      std: 0.01
    }
    bias_filler {
      type: "constant"
      value: 0
    }
  }
}
layer {
  name: "ReLU21"
  type: "ReLU"
  bottom: "Convolution16"
  top: "Convolution16"
}
layer {
  name: "norm1"
  type: "LRN"
  bottom: "Convolution16"
  top: "LRN7"
  lrn_param {
    local_size: 5
    alpha: 0.0001
    beta: 0.75
  }
}
layer {
  name: "pool1"
  type: "Pooling"
  bottom: "LRN7"
  top: "Pooling10"
  pooling_param {
    pool: MAX
    kernel_size: 3
    stride: 2
  }
}
layer {
  name: "conv2"
  type: "Convolution"
  bottom: "Pooling10"
  top: "Convolution17"
  param {
    lr_mult: 0
    decay_mult: 0
  }
  param {
    lr_mult: 0
    decay_mult: 0
  }
  convolution_param {
    num_output: 256
    pad: 2
    kernel_size: 5
    group: 2
    stride: 1
    weight_filler {
      type: "gaussian"
      std: 0.01
    }
    bias_filler {
      type: "constant"
      value: 0.1
    }
  }
}
layer {
  name: "ReLU22"
  type: "ReLU"
  bottom: "Convolution17"
  top: "Convolution17"
}
layer {
  name: "norm2"
  type: "LRN"
  bottom: "Convolution17"
  top: "LRN8"
  lrn_param {
    local_size: 5
    alpha: 0.0001
    beta: 0.75
  }
}
layer {
  name: "pool2"
  type: "Pooling"
  bottom: "LRN8"
  top: "Pooling11"
  pooling_param {
    pool: MAX
    kernel_size: 3
    stride: 2
  }
}
layer {
  name: "conv3"
  type: "Convolution"
  bottom: "Pooling11"
  top: "Convolution18"
  param {
    lr_mult: 0
    decay_mult: 0
  }
  param {
    lr_mult: 0
    decay_mult: 0
  }
  convolution_param {
    num_output: 384
    pad: 1
    kernel_size: 3
    group: 1
    stride: 1
    weight_filler {
      type: "gaussian"
      std: 0.01
    }
    bias_filler {
      type: "constant"
      value: 0
    }
  }
}
layer {
  name: "ReLU23"
  type: "ReLU"
  bottom: "Convolution18"
  top: "Convolution18"
}
layer {
  name: "conv4"
  type: "Convolution"
  bottom: "Convolution18"
  top: "Convolution19"
  param {
    lr_mult: 0
    decay_mult: 0
  }
  param {
    lr_mult: 0
    decay_mult: 0
  }
  convolution_param {
    num_output: 384
    pad: 1
    kernel_size: 3
    group: 2
    stride: 1
    weight_filler {
      type: "gaussian"
      std: 0.01
    }
    bias_filler {
      type: "constant"
      value: 0.1
    }
  }
}
layer {
  name: "ReLU24"
  type: "ReLU"
  bottom: "Convolution19"
  top: "Convolution19"
}
layer {
  name: "conv5"
  type: "Convolution"
  bottom: "Convolution19"
  top: "Convolution20"
  param {
    lr_mult: 0
    decay_mult: 0
  }
  param {
    lr_mult: 0
    decay_mult: 0
  }
  convolution_param {
    num_output: 256
    pad: 1
    kernel_size: 3
    group: 2
    stride: 1
    weight_filler {
      type: "gaussian"
      std: 0.01
    }
    bias_filler {
      type: "constant"
      value: 0.1
    }
  }
}
layer {
  name: "pool5"
  type: "Pooling"
  bottom: "Convolution20"
  top: "Pooling12"
  pooling_param {
    pool: MAX
    kernel_size: 3
    stride: 2
  }
}
layer {
  name: "InnerProduct9"
  type: "InnerProduct"
  bottom: "Pooling12"
  top: "InnerProduct9"
  param {
    name: "fc6_w"
    lr_mult: 1
  }
  param {
    name: "fc6_b"
    lr_mult: 2
  }
  inner_product_param {
    num_output: 256
    weight_filler {
      type: "xavier"
    }
    bias_filler {
      type: "constant"
    }
  }
}
layer {
  name: "ReLU25"
  type: "ReLU"
  bottom: "InnerProduct9"
  top: "InnerProduct9"
}
layer {
  name: "InnerProduct10"
  type: "InnerProduct"
  bottom: "InnerProduct9"
  top: "InnerProduct10"
  param {
    name: "fc7_w"
    lr_mult: 1
  }
  param {
    name: "fc7_b"
    lr_mult: 2
  }
  inner_product_param {
    num_output: 256
    weight_filler {
      type: "xavier"
    }
    bias_filler {
      type: "constant"
    }
  }
}
layer {
  name: "ReLU26"
  type: "ReLU"
  bottom: "InnerProduct10"
  top: "InnerProduct10"
}
layer {
  name: "Concat2"
  type: "Concat"
  bottom: "InnerProduct8"
  bottom: "InnerProduct10"
  top: "Concat2"
  concat_param {
    axis: 1
  }
}
layer {
  name: "InnerProduct11"
  type: "InnerProduct"
  bottom: "Concat2"
  top: "InnerProduct11"
  param {
    name: "fc8_w"
    lr_mult: 1
  }
  param {
    name: "fc8_b"
    lr_mult: 2
  }
  inner_product_param {
    num_output: 256
    weight_filler {
      type: "xavier"
    }
    bias_filler {
      type: "constant"
    }
  }
}
layer {
  name: "ReLU27"
  type: "ReLU"
  bottom: "InnerProduct11"
  top: "InnerProduct11"
}
layer {
  name: "InnerProduct12"
  type: "InnerProduct"
  bottom: "InnerProduct11"
  top: "InnerProduct12"
  param {
    name: "fc9_w"
    lr_mult: 1
  }
  param {
    name: "fc9_b"
    lr_mult: 2
  }
  inner_product_param {
    num_output: 128
    weight_filler {
      type: "xavier"
    }
    bias_filler {
      type: "constant"
    }
  }
}
layer {
  name: "ReLU28"
  type: "ReLU"
  bottom: "InnerProduct12"
  top: "InnerProduct12"
}
layer {
  name: "dt1"
  type: "InnerProduct"
  bottom: "InnerProduct12"
  top: "dt1"
  param {
    name: "fc10_w"
    lr_mult: 1
  }
  param {
    name: "fc10_b"
    lr_mult: 2
  }
  inner_product_param {
    num_output: 1
    weight_filler {
      type: "xavier"
    }
    bias_filler {
      type: "constant"
    }
  }
}
layer {
  name: "conv1"
  type: "Convolution"
  bottom: "p1"
  top: "Convolution21"
  param {
    lr_mult: 0
    decay_mult: 0
  }
  param {
    lr_mult: 0
    decay_mult: 0
  }
  convolution_param {
    num_output: 96
    pad: 7
    kernel_size: 11
    group: 1
    stride: 4
    weight_filler {
      type: "gaussian"
      std: 0.01
    }
    bias_filler {
      type: "constant"
      value: 0
    }
  }
}
layer {
  name: "ReLU29"
  type: "ReLU"
  bottom: "Convolution21"
  top: "Convolution21"
}
layer {
  name: "norm1"
  type: "LRN"
  bottom: "Convolution21"
  top: "LRN9"
  lrn_param {
    local_size: 5
    alpha: 0.0001
    beta: 0.75
  }
}
layer {
  name: "pool1"
  type: "Pooling"
  bottom: "LRN9"
  top: "Pooling13"
  pooling_param {
    pool: MAX
    kernel_size: 3
    stride: 2
  }
}
layer {
  name: "conv2"
  type: "Convolution"
  bottom: "Pooling13"
  top: "Convolution22"
  param {
    lr_mult: 0
    decay_mult: 0
  }
  param {
    lr_mult: 0
    decay_mult: 0
  }
  convolution_param {
    num_output: 256
    pad: 2
    kernel_size: 5
    group: 2
    stride: 1
    weight_filler {
      type: "gaussian"
      std: 0.01
    }
    bias_filler {
      type: "constant"
      value: 0.1
    }
  }
}
layer {
  name: "ReLU30"
  type: "ReLU"
  bottom: "Convolution22"
  top: "Convolution22"
}
layer {
  name: "norm2"
  type: "LRN"
  bottom: "Convolution22"
  top: "LRN10"
  lrn_param {
    local_size: 5
    alpha: 0.0001
    beta: 0.75
  }
}
layer {
  name: "pool2"
  type: "Pooling"
  bottom: "LRN10"
  top: "Pooling14"
  pooling_param {
    pool: MAX
    kernel_size: 3
    stride: 2
  }
}
layer {
  name: "conv3"
  type: "Convolution"
  bottom: "Pooling14"
  top: "Convolution23"
  param {
    lr_mult: 0
    decay_mult: 0
  }
  param {
    lr_mult: 0
    decay_mult: 0
  }
  convolution_param {
    num_output: 384
    pad: 1
    kernel_size: 3
    group: 1
    stride: 1
    weight_filler {
      type: "gaussian"
      std: 0.01
    }
    bias_filler {
      type: "constant"
      value: 0
    }
  }
}
layer {
  name: "ReLU31"
  type: "ReLU"
  bottom: "Convolution23"
  top: "Convolution23"
}
layer {
  name: "conv4"
  type: "Convolution"
  bottom: "Convolution23"
  top: "Convolution24"
  param {
    lr_mult: 0
    decay_mult: 0
  }
  param {
    lr_mult: 0
    decay_mult: 0
  }
  convolution_param {
    num_output: 384
    pad: 1
    kernel_size: 3
    group: 2
    stride: 1
    weight_filler {
      type: "gaussian"
      std: 0.01
    }
    bias_filler {
      type: "constant"
      value: 0.1
    }
  }
}
layer {
  name: "ReLU32"
  type: "ReLU"
  bottom: "Convolution24"
  top: "Convolution24"
}
layer {
  name: "conv5"
  type: "Convolution"
  bottom: "Convolution24"
  top: "Convolution25"
  param {
    lr_mult: 0
    decay_mult: 0
  }
  param {
    lr_mult: 0
    decay_mult: 0
  }
  convolution_param {
    num_output: 256
    pad: 1
    kernel_size: 3
    group: 2
    stride: 1
    weight_filler {
      type: "gaussian"
      std: 0.01
    }
    bias_filler {
      type: "constant"
      value: 0.1
    }
  }
}
layer {
  name: "pool5"
  type: "Pooling"
  bottom: "Convolution25"
  top: "Pooling15"
  pooling_param {
    pool: MAX
    kernel_size: 3
    stride: 2
  }
}
layer {
  name: "InnerProduct13"
  type: "InnerProduct"
  bottom: "Pooling15"
  top: "InnerProduct13"
  param {
    name: "fc6_w"
    lr_mult: 1
  }
  param {
    name: "fc6_b"
    lr_mult: 2
  }
  inner_product_param {
    num_output: 256
    weight_filler {
      type: "xavier"
    }
    bias_filler {
      type: "constant"
    }
  }
}
layer {
  name: "ReLU33"
  type: "ReLU"
  bottom: "InnerProduct13"
  top: "InnerProduct13"
}
layer {
  name: "InnerProduct14"
  type: "InnerProduct"
  bottom: "InnerProduct13"
  top: "InnerProduct14"
  param {
    name: "fc7_w"
    lr_mult: 1
  }
  param {
    name: "fc7_b"
    lr_mult: 2
  }
  inner_product_param {
    num_output: 256
    weight_filler {
      type: "xavier"
    }
    bias_filler {
      type: "constant"
    }
  }
}
layer {
  name: "ReLU34"
  type: "ReLU"
  bottom: "InnerProduct14"
  top: "InnerProduct14"
}
layer {
  name: "conv1"
  type: "Convolu
I0815 15:50:12.420747 16501 layer_factory.hpp:77] Creating layer data
I0815 15:50:12.421228 16501 net.cpp:91] Creating Layer data
I0815 15:50:12.421241 16501 net.cpp:399] data -> data
I0815 15:50:12.421273 16501 net.cpp:399] data -> label
I0815 15:50:12.421294 16501 data_transformer.cpp:25] Loading mean file from: examples/scene/scene_mean.binaryproto
I0815 15:50:12.452080 16507 db_lmdb.cpp:35] Opened lmdb examples/scene/scene_train3_pairs_4000_pad.lmdb
I0815 15:50:12.470290 16501 data_layer.cpp:41] output data size: 100,6,128,128
I0815 15:50:12.565438 16501 net.cpp:141] Setting up data
I0815 15:50:12.565479 16501 net.cpp:148] Top shape: 100 6 128 128 (9830400)
I0815 15:50:12.565488 16501 net.cpp:148] Top shape: 100 (100)
I0815 15:50:12.565495 16501 net.cpp:156] Memory required for data: 39322000
I0815 15:50:12.565510 16501 layer_factory.hpp:77] Creating layer label_data_1_split
I0815 15:50:12.565532 16501 net.cpp:91] Creating Layer label_data_1_split
I0815 15:50:12.565541 16501 net.cpp:425] label_data_1_split <- label
I0815 15:50:12.565557 16501 net.cpp:399] label_data_1_split -> label_data_1_split_0
I0815 15:50:12.565572 16501 net.cpp:399] label_data_1_split -> label_data_1_split_1
I0815 15:50:12.565696 16501 net.cpp:141] Setting up label_data_1_split
I0815 15:50:12.565709 16501 net.cpp:148] Top shape: 100 (100)
I0815 15:50:12.565719 16501 net.cpp:148] Top shape: 100 (100)
I0815 15:50:12.565727 16501 net.cpp:156] Memory required for data: 39322800
I0815 15:50:12.565734 16501 layer_factory.hpp:77] Creating layer th
I0815 15:50:12.565754 16501 net.cpp:91] Creating Layer th
I0815 15:50:12.565762 16501 net.cpp:425] th <- label_data_1_split_0
I0815 15:50:12.565773 16501 net.cpp:399] th -> th
I0815 15:50:12.565817 16501 net.cpp:141] Setting up th
I0815 15:50:12.565829 16501 net.cpp:148] Top shape: 100 (100)
I0815 15:50:12.565836 16501 net.cpp:156] Memory required for data: 39323200
I0815 15:50:12.565843 16501 layer_factory.hpp:77] Creating layer th_th_0_split
I0815 15:50:12.565853 16501 net.cpp:91] Creating Layer th_th_0_split
I0815 15:50:12.565861 16501 net.cpp:425] th_th_0_split <- th
I0815 15:50:12.565872 16501 net.cpp:399] th_th_0_split -> th_th_0_split_0
I0815 15:50:12.565910 16501 net.cpp:399] th_th_0_split -> th_th_0_split_1
I0815 15:50:12.565963 16501 net.cpp:141] Setting up th_th_0_split
I0815 15:50:12.565974 16501 net.cpp:148] Top shape: 100 (100)
I0815 15:50:12.565984 16501 net.cpp:148] Top shape: 100 (100)
I0815 15:50:12.565990 16501 net.cpp:156] Memory required for data: 39324000
I0815 15:50:12.565999 16501 layer_factory.hpp:77] Creating layer i1
I0815 15:50:12.566018 16501 net.cpp:91] Creating Layer i1
I0815 15:50:12.566026 16501 net.cpp:425] i1 <- data
I0815 15:50:12.566037 16501 net.cpp:399] i1 -> i1
I0815 15:50:12.566054 16501 net.cpp:399] i1 -> i2
I0815 15:50:12.566112 16501 net.cpp:141] Setting up i1
I0815 15:50:12.566123 16501 net.cpp:148] Top shape: 100 3 128 128 (4915200)
I0815 15:50:12.566133 16501 net.cpp:148] Top shape: 100 3 128 128 (4915200)
I0815 15:50:12.566140 16501 net.cpp:156] Memory required for data: 78645600
I0815 15:50:12.566148 16501 layer_factory.hpp:77] Creating layer i1_i1_0_split
I0815 15:50:12.566159 16501 net.cpp:91] Creating Layer i1_i1_0_split
I0815 15:50:12.566165 16501 net.cpp:425] i1_i1_0_split <- i1
I0815 15:50:12.566177 16501 net.cpp:399] i1_i1_0_split -> i1_i1_0_split_0
I0815 15:50:12.566191 16501 net.cpp:399] i1_i1_0_split -> i1_i1_0_split_1
I0815 15:50:12.566205 16501 net.cpp:399] i1_i1_0_split -> i1_i1_0_split_2
I0815 15:50:12.566220 16501 net.cpp:399] i1_i1_0_split -> i1_i1_0_split_3
I0815 15:50:12.566233 16501 net.cpp:399] i1_i1_0_split -> i1_i1_0_split_4
I0815 15:50:12.566247 16501 net.cpp:399] i1_i1_0_split -> i1_i1_0_split_5
I0815 15:50:12.566262 16501 net.cpp:399] i1_i1_0_split -> i1_i1_0_split_6
I0815 15:50:12.566274 16501 net.cpp:399] i1_i1_0_split -> i1_i1_0_split_7
I0815 15:50:12.566290 16501 net.cpp:399] i1_i1_0_split -> i1_i1_0_split_8
I0815 15:50:12.566305 16501 net.cpp:399] i1_i1_0_split -> i1_i1_0_split_9
I0815 15:50:12.566470 16501 net.cpp:141] Setting up i1_i1_0_split
I0815 15:50:12.566481 16501 net.cpp:148] Top shape: 100 3 128 128 (4915200)
I0815 15:50:12.566491 16501 net.cpp:148] Top shape: 100 3 128 128 (4915200)
I0815 15:50:12.566501 16501 net.cpp:148] Top shape: 100 3 128 128 (4915200)
I0815 15:50:12.566510 16501 net.cpp:148] Top shape: 100 3 128 128 (4915200)
I0815 15:50:12.566519 16501 net.cpp:148] Top shape: 100 3 128 128 (4915200)
I0815 15:50:12.566529 16501 net.cpp:148] Top shape: 100 3 128 128 (4915200)
I0815 15:50:12.566539 16501 net.cpp:148] Top shape: 100 3 128 128 (4915200)
I0815 15:50:12.566548 16501 net.cpp:148] Top shape: 100 3 128 128 (4915200)
I0815 15:50:12.566558 16501 net.cpp:148] Top shape: 100 3 128 128 (4915200)
I0815 15:50:12.566568 16501 net.cpp:148] Top shape: 100 3 128 128 (4915200)
I0815 15:50:12.566576 16501 net.cpp:156] Memory required for data: 275253600
I0815 15:50:12.566584 16501 layer_factory.hpp:77] Creating layer i2_i1_1_split
I0815 15:50:12.566598 16501 net.cpp:91] Creating Layer i2_i1_1_split
I0815 15:50:12.566606 16501 net.cpp:425] i2_i1_1_split <- i2
I0815 15:50:12.566619 16501 net.cpp:399] i2_i1_1_split -> i2_i1_1_split_0
I0815 15:50:12.566632 16501 net.cpp:399] i2_i1_1_split -> i2_i1_1_split_1
I0815 15:50:12.566644 16501 net.cpp:399] i2_i1_1_split -> i2_i1_1_split_2
I0815 15:50:12.566656 16501 net.cpp:399] i2_i1_1_split -> i2_i1_1_split_3
I0815 15:50:12.566668 16501 net.cpp:399] i2_i1_1_split -> i2_i1_1_split_4
I0815 15:50:12.566679 16501 net.cpp:399] i2_i1_1_split -> i2_i1_1_split_5
I0815 15:50:12.566691 16501 net.cpp:399] i2_i1_1_split -> i2_i1_1_split_6
I0815 15:50:12.566704 16501 net.cpp:399] i2_i1_1_split -> i2_i1_1_split_7
I0815 15:50:12.566715 16501 net.cpp:399] i2_i1_1_split -> i2_i1_1_split_8
I0815 15:50:12.566726 16501 net.cpp:399] i2_i1_1_split -> i2_i1_1_split_9
I0815 15:50:12.572955 16501 net.cpp:141] Setting up i2_i1_1_split
I0815 15:50:12.572979 16501 net.cpp:148] Top shape: 100 3 128 128 (4915200)
I0815 15:50:12.572988 16501 net.cpp:148] Top shape: 100 3 128 128 (4915200)
I0815 15:50:12.572995 16501 net.cpp:148] Top shape: 100 3 128 128 (4915200)
I0815 15:50:12.573004 16501 net.cpp:148] Top shape: 100 3 128 128 (4915200)
I0815 15:50:12.573029 16501 net.cpp:148] Top shape: 100 3 128 128 (4915200)
I0815 15:50:12.573036 16501 net.cpp:148] Top shape: 100 3 128 128 (4915200)
I0815 15:50:12.573045 16501 net.cpp:148] Top shape: 100 3 128 128 (4915200)
I0815 15:50:12.573052 16501 net.cpp:148] Top shape: 100 3 128 128 (4915200)
I0815 15:50:12.573060 16501 net.cpp:148] Top shape: 100 3 128 128 (4915200)
I0815 15:50:12.573066 16501 net.cpp:148] Top shape: 100 3 128 128 (4915200)
I0815 15:50:12.573072 16501 net.cpp:156] Memory required for data: 471861600
I0815 15:50:12.573079 16501 layer_factory.hpp:77] Creating layer p1
I0815 15:50:12.573093 16501 net.cpp:91] Creating Layer p1
I0815 15:50:12.573101 16501 net.cpp:425] p1 <- i1_i1_0_split_0
I0815 15:50:12.573112 16501 net.cpp:399] p1 -> p1
I0815 15:50:12.573156 16501 net.cpp:141] Setting up p1
I0815 15:50:12.573168 16501 net.cpp:148] Top shape: 100 3 64 64 (1228800)
I0815 15:50:12.573174 16501 net.cpp:156] Memory required for data: 476776800
I0815 15:50:12.573181 16501 layer_factory.hpp:77] Creating layer p1_p1_0_split
I0815 15:50:12.573194 16501 net.cpp:91] Creating Layer p1_p1_0_split
I0815 15:50:12.573200 16501 net.cpp:425] p1_p1_0_split <- p1
I0815 15:50:12.573210 16501 net.cpp:399] p1_p1_0_split -> p1_p1_0_split_0
I0815 15:50:12.573222 16501 net.cpp:399] p1_p1_0_split -> p1_p1_0_split_1
I0815 15:50:12.573235 16501 net.cpp:399] p1_p1_0_split -> p1_p1_0_split_2
I0815 15:50:12.573251 16501 net.cpp:399] p1_p1_0_split -> p1_p1_0_split_3
I0815 15:50:12.573266 16501 net.cpp:399] p1_p1_0_split -> p1_p1_0_split_4
I0815 15:50:12.573277 16501 net.cpp:399] p1_p1_0_split -> p1_p1_0_split_5
I0815 15:50:12.573292 16501 net.cpp:399] p1_p1_0_split -> p1_p1_0_split_6
I0815 15:50:12.573303 16501 net.cpp:399] p1_p1_0_split -> p1_p1_0_split_7
I0815 15:50:12.573318 16501 net.cpp:399] p1_p1_0_split -> p1_p1_0_split_8
I0815 15:50:12.573329 16501 net.cpp:399] p1_p1_0_split -> p1_p1_0_split_9
I0815 15:50:12.573494 16501 net.cpp:141] Setting up p1_p1_0_split
I0815 15:50:12.573503 16501 net.cpp:148] Top shape: 100 3 64 64 (1228800)
I0815 15:50:12.573511 16501 net.cpp:148] Top shape: 100 3 64 64 (1228800)
I0815 15:50:12.573519 16501 net.cpp:148] Top shape: 100 3 64 64 (1228800)
I0815 15:50:12.573528 16501 net.cpp:148] Top shape: 100 3 64 64 (1228800)
I0815 15:50:12.573535 16501 net.cpp:148] Top shape: 100 3 64 64 (1228800)
I0815 15:50:12.573542 16501 net.cpp:148] Top shape: 100 3 64 64 (1228800)
I0815 15:50:12.573550 16501 net.cpp:148] Top shape: 100 3 64 64 (1228800)
I0815 15:50:12.573557 16501 net.cpp:148] Top shape: 100 3 64 64 (1228800)
I0815 15:50:12.573565 16501 net.cpp:148] Top shape: 100 3 64 64 (1228800)
I0815 15:50:12.573572 16501 net.cpp:148] Top shape: 100 3 64 64 (1228800)
I0815 15:50:12.573578 16501 net.cpp:156] Memory required for data: 525928800
I0815 15:50:12.573585 16501 layer_factory.hpp:77] Creating layer p2
I0815 15:50:12.573592 16501 net.cpp:91] Creating Layer p2
I0815 15:50:12.573598 16501 net.cpp:425] p2 <- i2_i1_1_split_0
I0815 15:50:12.573607 16501 net.cpp:399] p2 -> p2
I0815 15:50:12.573634 16501 net.cpp:141] Setting up p2
I0815 15:50:12.573644 16501 net.cpp:148] Top shape: 100 3 64 64 (1228800)
I0815 15:50:12.573650 16501 net.cpp:156] Memory required for data: 530844000
I0815 15:50:12.573657 16501 layer_factory.hpp:77] Creating layer p2_p2_0_split
I0815 15:50:12.573667 16501 net.cpp:91] Creating Layer p2_p2_0_split
I0815 15:50:12.573673 16501 net.cpp:425] p2_p2_0_split <- p2
I0815 15:50:12.573683 16501 net.cpp:399] p2_p2_0_split -> p2_p2_0_split_0
I0815 15:50:12.573695 16501 net.cpp:399] p2_p2_0_split -> p2_p2_0_split_1
I0815 15:50:12.573707 16501 net.cpp:399] p2_p2_0_split -> p2_p2_0_split_2
I0815 15:50:12.573719 16501 net.cpp:399] p2_p2_0_split -> p2_p2_0_split_3
I0815 15:50:12.573731 16501 net.cpp:399] p2_p2_0_split -> p2_p2_0_split_4
I0815 15:50:12.573743 16501 net.cpp:399] p2_p2_0_split -> p2_p2_0_split_5
I0815 15:50:12.573755 16501 net.cpp:399] p2_p2_0_split -> p2_p2_0_split_6
I0815 15:50:12.573766 16501 net.cpp:399] p2_p2_0_split -> p2_p2_0_split_7
I0815 15:50:12.573777 16501 net.cpp:399] p2_p2_0_split -> p2_p2_0_split_8
I0815 15:50:12.573802 16501 net.cpp:399] p2_p2_0_split -> p2_p2_0_split_9
I0815 15:50:12.573962 16501 net.cpp:141] Setting up p2_p2_0_split
I0815 15:50:12.573973 16501 net.cpp:148] Top shape: 100 3 64 64 (1228800)
I0815 15:50:12.573981 16501 net.cpp:148] Top shape: 100 3 64 64 (1228800)
I0815 15:50:12.573988 16501 net.cpp:148] Top shape: 100 3 64 64 (1228800)
I0815 15:50:12.573995 16501 net.cpp:148] Top shape: 100 3 64 64 (1228800)
I0815 15:50:12.574002 16501 net.cpp:148] Top shape: 100 3 64 64 (1228800)
I0815 15:50:12.574009 16501 net.cpp:148] Top shape: 100 3 64 64 (1228800)
I0815 15:50:12.574017 16501 net.cpp:148] Top shape: 100 3 64 64 (1228800)
I0815 15:50:12.574024 16501 net.cpp:148] Top shape: 100 3 64 64 (1228800)
I0815 15:50:12.574031 16501 net.cpp:148] Top shape: 100 3 64 64 (1228800)
I0815 15:50:12.574038 16501 net.cpp:148] Top shape: 100 3 64 64 (1228800)
I0815 15:50:12.574043 16501 net.cpp:156] Memory required for data: 579996000
I0815 15:50:12.574050 16501 layer_factory.hpp:77] Creating layer Input1
I0815 15:50:12.574061 16501 net.cpp:91] Creating Layer Input1
I0815 15:50:12.574069 16501 net.cpp:399] Input1 -> Input1
I0815 15:50:12.574100 16501 net.cpp:141] Setting up Input1
I0815 15:50:12.574110 16501 net.cpp:148] Top shape: 100 3 64 64 (1228800)
I0815 15:50:12.574116 16501 net.cpp:156] Memory required for data: 584911200
I0815 15:50:12.574122 16501 layer_factory.hpp:77] Creating layer c11
I0815 15:50:12.574137 16501 net.cpp:91] Creating Layer c11
I0815 15:50:12.574144 16501 net.cpp:425] c11 <- i1_i1_0_split_1
I0815 15:50:12.574152 16501 net.cpp:425] c11 <- Input1
I0815 15:50:12.574162 16501 net.cpp:399] c11 -> c11
I0815 15:50:12.574195 16501 net.cpp:141] Setting up c11
I0815 15:50:12.574205 16501 net.cpp:148] Top shape: 100 3 64 64 (1228800)
I0815 15:50:12.574210 16501 net.cpp:156] Memory required for data: 589826400
I0815 15:50:12.574218 16501 layer_factory.hpp:77] Creating layer Input2
I0815 15:50:12.574228 16501 net.cpp:91] Creating Layer Input2
I0815 15:50:12.574234 16501 net.cpp:399] Input2 -> Input2
I0815 15:50:12.574261 16501 net.cpp:141] Setting up Input2
I0815 15:50:12.574271 16501 net.cpp:148] Top shape: 100 3 64 64 (1228800)
I0815 15:50:12.574276 16501 net.cpp:156] Memory required for data: 594741600
I0815 15:50:12.574283 16501 layer_factory.hpp:77] Creating layer c12
I0815 15:50:12.574291 16501 net.cpp:91] Creating Layer c12
I0815 15:50:12.574297 16501 net.cpp:425] c12 <- i1_i1_0_split_2
I0815 15:50:12.574306 16501 net.cpp:425] c12 <- Input2
I0815 15:50:12.574314 16501 net.cpp:399] c12 -> c12
I0815 15:50:12.574340 16501 net.cpp:141] Setting up c12
I0815 15:50:12.574350 16501 net.cpp:148] Top shape: 100 3 64 64 (1228800)
I0815 15:50:12.574357 16501 net.cpp:156] Memory required for data: 599656800
I0815 15:50:12.574362 16501 layer_factory.hpp:77] Creating layer Input3
I0815 15:50:12.574370 16501 net.cpp:91] Creating Layer Input3
I0815 15:50:12.574378 16501 net.cpp:399] Input3 -> Input3
I0815 15:50:12.574404 16501 net.cpp:141] Setting up Input3
I0815 15:50:12.574415 16501 net.cpp:148] Top shape: 100 3 64 64 (1228800)
I0815 15:50:12.574421 16501 net.cpp:156] Memory required for data: 604572000
I0815 15:50:12.574426 16501 layer_factory.hpp:77] Creating layer c13
I0815 15:50:12.574437 16501 net.cpp:91] Creating Layer c13
I0815 15:50:12.574443 16501 net.cpp:425] c13 <- i1_i1_0_split_3
I0815 15:50:12.574451 16501 net.cpp:425] c13 <- Input3
I0815 15:50:12.574460 16501 net.cpp:399] c13 -> c13
I0815 15:50:12.574488 16501 net.cpp:141] Setting up c13
I0815 15:50:12.574498 16501 net.cpp:148] Top shape: 100 3 64 64 (1228800)
I0815 15:50:12.574503 16501 net.cpp:156] Memory required for data: 609487200
I0815 15:50:12.574509 16501 layer_factory.hpp:77] Creating layer Input4
I0815 15:50:12.574517 16501 net.cpp:91] Creating Layer Input4
I0815 15:50:12.574525 16501 net.cpp:399] Input4 -> Input4
I0815 15:50:12.574553 16501 net.cpp:141] Setting up Input4
I0815 15:50:12.574563 16501 net.cpp:148] Top shape: 100 3 64 64 (1228800)
I0815 15:50:12.574568 16501 net.cpp:156] Memory required for data: 614402400
I0815 15:50:12.574582 16501 layer_factory.hpp:77] Creating layer c14
I0815 15:50:12.574590 16501 net.cpp:91] Creating Layer c14
I0815 15:50:12.574596 16501 net.cpp:425] c14 <- i1_i1_0_split_4
I0815 15:50:12.574604 16501 net.cpp:425] c14 <- Input4
I0815 15:50:12.574614 16501 net.cpp:399] c14 -> c14
I0815 15:50:12.574641 16501 net.cpp:141] Setting up c14
I0815 15:50:12.574651 16501 net.cpp:148] Top shape: 100 3 64 64 (1228800)
I0815 15:50:12.574657 16501 net.cpp:156] Memory required for data: 619317600
I0815 15:50:12.574662 16501 layer_factory.hpp:77] Creating layer Input5
I0815 15:50:12.574671 16501 net.cpp:91] Creating Layer Input5
I0815 15:50:12.574678 16501 net.cpp:399] Input5 -> Input5
I0815 15:50:12.574705 16501 net.cpp:141] Setting up Input5
I0815 15:50:12.574715 16501 net.cpp:148] Top shape: 100 3 64 64 (1228800)
I0815 15:50:12.574722 16501 net.cpp:156] Memory required for data: 624232800
I0815 15:50:12.574728 16501 layer_factory.hpp:77] Creating layer c15
I0815 15:50:12.574736 16501 net.cpp:91] Creating Layer c15
I0815 15:50:12.574743 16501 net.cpp:425] c15 <- i1_i1_0_split_5
I0815 15:50:12.574750 16501 net.cpp:425] c15 <- Input5
I0815 15:50:12.574759 16501 net.cpp:399] c15 -> c15
I0815 15:50:12.574786 16501 net.cpp:141] Setting up c15
I0815 15:50:12.574796 16501 net.cpp:148] Top shape: 100 3 64 64 (1228800)
I0815 15:50:12.574801 16501 net.cpp:156] Memory required for data: 629148000
I0815 15:50:12.574807 16501 layer_factory.hpp:77] Creating layer Input6
I0815 15:50:12.574815 16501 net.cpp:91] Creating Layer Input6
I0815 15:50:12.574823 16501 net.cpp:399] Input6 -> Input6
I0815 15:50:12.574849 16501 net.cpp:141] Setting up Input6
I0815 15:50:12.574861 16501 net.cpp:148] Top shape: 100 3 64 64 (1228800)
I0815 15:50:12.574865 16501 net.cpp:156] Memory required for data: 634063200
I0815 15:50:12.574872 16501 layer_factory.hpp:77] Creating layer c16
I0815 15:50:12.574879 16501 net.cpp:91] Creating Layer c16
I0815 15:50:12.574885 16501 net.cpp:425] c16 <- i1_i1_0_split_6
I0815 15:50:12.574893 16501 net.cpp:425] c16 <- Input6
I0815 15:50:12.574903 16501 net.cpp:399] c16 -> c16
I0815 15:50:12.574930 16501 net.cpp:141] Setting up c16
I0815 15:50:12.574940 16501 net.cpp:148] Top shape: 100 3 64 64 (1228800)
I0815 15:50:12.574945 16501 net.cpp:156] Memory required for data: 638978400
I0815 15:50:12.574951 16501 layer_factory.hpp:77] Creating layer Input7
I0815 15:50:12.574960 16501 net.cpp:91] Creating Layer Input7
I0815 15:50:12.574967 16501 net.cpp:399] Input7 -> Input7
I0815 15:50:12.574995 16501 net.cpp:141] Setting up Input7
I0815 15:50:12.575004 16501 net.cpp:148] Top shape: 100 3 64 64 (1228800)
I0815 15:50:12.575011 16501 net.cpp:156] Memory required for data: 643893600
I0815 15:50:12.575016 16501 layer_factory.hpp:77] Creating layer c17
I0815 15:50:12.575024 16501 net.cpp:91] Creating Layer c17
I0815 15:50:12.575029 16501 net.cpp:425] c17 <- i1_i1_0_split_7
I0815 15:50:12.575037 16501 net.cpp:425] c17 <- Input7
I0815 15:50:12.575047 16501 net.cpp:399] c17 -> c17
I0815 15:50:12.575081 16501 net.cpp:141] Setting up c17
I0815 15:50:12.575091 16501 net.cpp:148] Top shape: 100 3 64 64 (1228800)
I0815 15:50:12.575098 16501 net.cpp:156] Memory required for data: 648808800
I0815 15:50:12.575103 16501 layer_factory.hpp:77] Creating layer Input8
I0815 15:50:12.575111 16501 net.cpp:91] Creating Layer Input8
I0815 15:50:12.575119 16501 net.cpp:399] Input8 -> Input8
I0815 15:50:12.575146 16501 net.cpp:141] Setting up Input8
I0815 15:50:12.575156 16501 net.cpp:148] Top shape: 100 3 64 64 (1228800)
I0815 15:50:12.575161 16501 net.cpp:156] Memory required for data: 653724000
I0815 15:50:12.575168 16501 layer_factory.hpp:77] Creating layer c18
I0815 15:50:12.575176 16501 net.cpp:91] Creating Layer c18
I0815 15:50:12.575182 16501 net.cpp:425] c18 <- i1_i1_0_split_8
I0815 15:50:12.575191 16501 net.cpp:425] c18 <- Input8
I0815 15:50:12.575199 16501 net.cpp:399] c18 -> c18
I0815 15:50:12.575227 16501 net.cpp:141] Setting up c18
I0815 15:50:12.575237 16501 net.cpp:148] Top shape: 100 3 64 64 (1228800)
I0815 15:50:12.575250 16501 net.cpp:156] Memory required for data: 658639200
I0815 15:50:12.575256 16501 layer_factory.hpp:77] Creating layer Input9
I0815 15:50:12.575264 16501 net.cpp:91] Creating Layer Input9
I0815 15:50:12.575304 16501 net.cpp:399] Input9 -> Input9
I0815 15:50:12.575350 16501 net.cpp:141] Setting up Input9
I0815 15:50:12.575364 16501 net.cpp:148] Top shape: 100 3 64 64 (1228800)
I0815 15:50:12.575372 16501 net.cpp:156] Memory required for data: 663554400
I0815 15:50:12.575381 16501 layer_factory.hpp:77] Creating layer c19
I0815 15:50:12.575393 16501 net.cpp:91] Creating Layer c19
I0815 15:50:12.575402 16501 net.cpp:425] c19 <- i1_i1_0_split_9
I0815 15:50:12.575414 16501 net.cpp:425] c19 <- Input9
I0815 15:50:12.575428 16501 net.cpp:399] c19 -> c19
I0815 15:50:12.575470 16501 net.cpp:141] Setting up c19
I0815 15:50:12.575484 16501 net.cpp:148] Top shape: 100 3 64 64 (1228800)
I0815 15:50:12.575492 16501 net.cpp:156] Memory required for data: 668469600
I0815 15:50:12.575501 16501 layer_factory.hpp:77] Creating layer Input10
I0815 15:50:12.575512 16501 net.cpp:91] Creating Layer Input10
I0815 15:50:12.575525 16501 net.cpp:399] Input10 -> Input10
I0815 15:50:12.575563 16501 net.cpp:141] Setting up Input10
I0815 15:50:12.575577 16501 net.cpp:148] Top shape: 100 3 64 64 (1228800)
I0815 15:50:12.575585 16501 net.cpp:156] Memory required for data: 673384800
I0815 15:50:12.575593 16501 layer_factory.hpp:77] Creating layer c21
I0815 15:50:12.575605 16501 net.cpp:91] Creating Layer c21
I0815 15:50:12.575614 16501 net.cpp:425] c21 <- i2_i1_1_split_1
I0815 15:50:12.575626 16501 net.cpp:425] c21 <- Input10
I0815 15:50:12.575639 16501 net.cpp:399] c21 -> c21
I0815 15:50:12.575687 16501 net.cpp:141] Setting up c21
I0815 15:50:12.575707 16501 net.cpp:148] Top shape: 100 3 64 64 (1228800)
I0815 15:50:12.575717 16501 net.cpp:156] Memory required for data: 678300000
I0815 15:50:12.575728 16501 layer_factory.hpp:77] Creating layer Input11
I0815 15:50:12.575744 16501 net.cpp:91] Creating Layer Input11
I0815 15:50:12.575762 16501 net.cpp:399] Input11 -> Input11
I0815 15:50:12.575817 16501 net.cpp:141] Setting up Input11
I0815 15:50:12.575835 16501 net.cpp:148] Top shape: 100 3 64 64 (1228800)
I0815 15:50:12.575848 16501 net.cpp:156] Memory required for data: 683215200
I0815 15:50:12.575860 16501 layer_factory.hpp:77] Creating layer c22
I0815 15:50:12.575881 16501 net.cpp:91] Creating Layer c22
I0815 15:50:12.575894 16501 net.cpp:425] c22 <- i2_i1_1_split_2
I0815 15:50:12.575907 16501 net.cpp:425] c22 <- Input11
I0815 15:50:12.575927 16501 net.cpp:399] c22 -> c22
I0815 15:50:12.575976 16501 net.cpp:141] Setting up c22
I0815 15:50:12.575994 16501 net.cpp:148] Top shape: 100 3 64 64 (1228800)
I0815 15:50:12.576004 16501 net.cpp:156] Memory required for data: 688130400
I0815 15:50:12.576014 16501 layer_factory.hpp:77] Creating layer Input12
I0815 15:50:12.576027 16501 net.cpp:91] Creating Layer Input12
I0815 15:50:12.576042 16501 net.cpp:399] Input12 -> Input12
I0815 15:50:12.576092 16501 net.cpp:141] Setting up Input12
I0815 15:50:12.576107 16501 net.cpp:148] Top shape: 100 3 64 64 (1228800)
I0815 15:50:12.576117 16501 net.cpp:156] Memory required for data: 693045600
I0815 15:50:12.576128 16501 layer_factory.hpp:77] Creating layer c23
I0815 15:50:12.576140 16501 net.cpp:91] Creating Layer c23
I0815 15:50:12.576153 16501 net.cpp:425] c23 <- i2_i1_1_split_3
I0815 15:50:12.576167 16501 net.cpp:425] c23 <- Input12
I0815 15:50:12.576184 16501 net.cpp:399] c23 -> c23
I0815 15:50:12.576233 16501 net.cpp:141] Setting up c23
I0815 15:50:12.576253 16501 net.cpp:148] Top shape: 100 3 64 64 (1228800)
I0815 15:50:12.576264 16501 net.cpp:156] Memory required for data: 697960800
I0815 15:50:12.576274 16501 layer_factory.hpp:77] Creating layer Input13
I0815 15:50:12.576287 16501 net.cpp:91] Creating Layer Input13
I0815 15:50:12.576303 16501 net.cpp:399] Input13 -> Input13
I0815 15:50:12.576349 16501 net.cpp:141] Setting up Input13
I0815 15:50:12.576364 16501 net.cpp:148] Top shape: 100 3 64 64 (1228800)
I0815 15:50:12.576375 16501 net.cpp:156] Memory required for data: 702876000
I0815 15:50:12.576403 16501 layer_factory.hpp:77] Creating layer c24
I0815 15:50:12.576417 16501 net.cpp:91] Creating Layer c24
I0815 15:50:12.576431 16501 net.cpp:425] c24 <- i2_i1_1_split_4
I0815 15:50:12.576444 16501 net.cpp:425] c24 <- Input13
I0815 15:50:12.576459 16501 net.cpp:399] c24 -> c24
I0815 15:50:12.576508 16501 net.cpp:141] Setting up c24
I0815 15:50:12.576525 16501 net.cpp:148] Top shape: 100 3 64 64 (1228800)
I0815 15:50:12.576539 16501 net.cpp:156] Memory required for data: 707791200
I0815 15:50:12.576548 16501 layer_factory.hpp:77] Creating layer Input14
I0815 15:50:12.576562 16501 net.cpp:91] Creating Layer Input14
I0815 15:50:12.576580 16501 net.cpp:399] Input14 -> Input14
I0815 15:50:12.576628 16501 net.cpp:141] Setting up Input14
I0815 15:50:12.576645 16501 net.cpp:148] Top shape: 100 3 64 64 (1228800)
I0815 15:50:12.576654 16501 net.cpp:156] Memory required for data: 712706400
I0815 15:50:12.576664 16501 layer_factory.hpp:77] Creating layer c25
I0815 15:50:12.576678 16501 net.cpp:91] Creating Layer c25
I0815 15:50:12.576691 16501 net.cpp:425] c25 <- i2_i1_1_split_5
I0815 15:50:12.576704 16501 net.cpp:425] c25 <- Input14
I0815 15:50:12.576720 16501 net.cpp:399] c25 -> c25
I0815 15:50:12.576768 16501 net.cpp:141] Setting up c25
I0815 15:50:12.576786 16501 net.cpp:148] Top shape: 100 3 64 64 (1228800)
I0815 15:50:12.576795 16501 net.cpp:156] Memory required for data: 717621600
I0815 15:50:12.576805 16501 layer_factory.hpp:77] Creating layer Input15
I0815 15:50:12.576819 16501 net.cpp:91] Creating Layer Input15
I0815 15:50:12.576833 16501 net.cpp:399] Input15 -> Input15
I0815 15:50:12.576880 16501 net.cpp:141] Setting up Input15
I0815 15:50:12.576896 16501 net.cpp:148] Top shape: 100 3 64 64 (1228800)
I0815 15:50:12.576906 16501 net.cpp:156] Memory required for data: 722536800
I0815 15:50:12.576916 16501 layer_factory.hpp:77] Creating layer c26
I0815 15:50:12.576930 16501 net.cpp:91] Creating Layer c26
I0815 15:50:12.576943 16501 net.cpp:425] c26 <- i2_i1_1_split_6
I0815 15:50:12.576956 16501 net.cpp:425] c26 <- Input15
I0815 15:50:12.576974 16501 net.cpp:399] c26 -> c26
I0815 15:50:12.577026 16501 net.cpp:141] Setting up c26
I0815 15:50:12.577044 16501 net.cpp:148] Top shape: 100 3 64 64 (1228800)
I0815 15:50:12.577057 16501 net.cpp:156] Memory required for data: 727452000
I0815 15:50:12.577067 16501 layer_factory.hpp:77] Creating layer Input16
I0815 15:50:12.577080 16501 net.cpp:91] Creating Layer Input16
I0815 15:50:12.577093 16501 net.cpp:399] Input16 -> Input16
I0815 15:50:12.577142 16501 net.cpp:141] Setting up Input16
I0815 15:50:12.577160 16501 net.cpp:148] Top shape: 100 3 64 64 (1228800)
I0815 15:50:12.577173 16501 net.cpp:156] Memory required for data: 732367200
I0815 15:50:12.577183 16501 layer_factory.hpp:77] Creating layer c27
I0815 15:50:12.577198 16501 net.cpp:91] Creating Layer c27
I0815 15:50:12.577211 16501 net.cpp:425] c27 <- i2_i1_1_split_7
I0815 15:50:12.577225 16501 net.cpp:425] c27 <- Input16
I0815 15:50:12.577245 16501 net.cpp:399] c27 -> c27
I0815 15:50:12.577299 16501 net.cpp:141] Setting up c27
I0815 15:50:12.577322 16501 net.cpp:148] Top shape: 100 3 64 64 (1228800)
I0815 15:50:12.577335 16501 net.cpp:156] Memory required for data: 737282400
I0815 15:50:12.577345 16501 layer_factory.hpp:77] Creating layer Input17
I0815 15:50:12.577363 16501 net.cpp:91] Creating Layer Input17
I0815 15:50:12.577379 16501 net.cpp:399] Input17 -> Input17
I0815 15:50:12.577432 16501 net.cpp:141] Setting up Input17
I0815 15:50:12.577450 16501 net.cpp:148] Top shape: 100 3 64 64 (1228800)
I0815 15:50:12.577462 16501 net.cpp:156] Memory required for data: 742197600
I0815 15:50:12.577472 16501 layer_factory.hpp:77] Creating layer c28
I0815 15:50:12.577492 16501 net.cpp:91] Creating Layer c28
I0815 15:50:12.577509 16501 net.cpp:425] c28 <- i2_i1_1_split_8
I0815 15:50:12.577523 16501 net.cpp:425] c28 <- Input17
I0815 15:50:12.577541 16501 net.cpp:399] c28 -> c28
I0815 15:50:12.577587 16501 net.cpp:141] Setting up c28
I0815 15:50:12.577600 16501 net.cpp:148] Top shape: 100 3 64 64 (1228800)
I0815 15:50:12.577627 16501 net.cpp:156] Memory required for data: 747112800
I0815 15:50:12.577638 16501 layer_factory.hpp:77] Creating layer Input18
I0815 15:50:12.577654 16501 net.cpp:91] Creating Layer Input18
I0815 15:50:12.577667 16501 net.cpp:399] Input18 -> Input18
I0815 15:50:12.577718 16501 net.cpp:141] Setting up Input18
I0815 15:50:12.577733 16501 net.cpp:148] Top shape: 100 3 64 64 (1228800)
I0815 15:50:12.577744 16501 net.cpp:156] Memory required for data: 752028000
I0815 15:50:12.577752 16501 layer_factory.hpp:77] Creating layer c29
I0815 15:50:12.577766 16501 net.cpp:91] Creating Layer c29
I0815 15:50:12.577776 16501 net.cpp:425] c29 <- i2_i1_1_split_9
I0815 15:50:12.577790 16501 net.cpp:425] c29 <- Input18
I0815 15:50:12.577805 16501 net.cpp:399] c29 -> c29
I0815 15:50:12.577853 16501 net.cpp:141] Setting up c29
I0815 15:50:12.577868 16501 net.cpp:148] Top shape: 100 3 64 64 (1228800)
I0815 15:50:12.577878 16501 net.cpp:156] Memory required for data: 756943200
I0815 15:50:12.577888 16501 layer_factory.hpp:77] Creating layer conv1
I0815 15:50:12.577916 16501 net.cpp:91] Creating Layer conv1
I0815 15:50:12.577926 16501 net.cpp:425] conv1 <- p1_p1_0_split_0
I0815 15:50:12.577944 16501 net.cpp:399] conv1 -> Convolution1
I0815 15:50:12.583019 16501 net.cpp:141] Setting up conv1
I0815 15:50:12.583060 16501 net.cpp:148] Top shape: 100 96 17 17 (2774400)
I0815 15:50:12.583072 16501 net.cpp:156] Memory required for data: 768040800
I0815 15:50:12.583109 16501 layer_factory.hpp:77] Creating layer ReLU1
I0815 15:50:12.583130 16501 net.cpp:91] Creating Layer ReLU1
I0815 15:50:12.583147 16501 net.cpp:425] ReLU1 <- Convolution1
I0815 15:50:12.583164 16501 net.cpp:386] ReLU1 -> Convolution1 (in-place)
I0815 15:50:12.583189 16501 net.cpp:141] Setting up ReLU1
I0815 15:50:12.583204 16501 net.cpp:148] Top shape: 100 96 17 17 (2774400)
I0815 15:50:12.583217 16501 net.cpp:156] Memory required for data: 779138400
I0815 15:50:12.583227 16501 layer_factory.hpp:77] Creating layer norm1
I0815 15:50:12.583243 16501 net.cpp:91] Creating Layer norm1
I0815 15:50:12.583256 16501 net.cpp:425] norm1 <- Convolution1
I0815 15:50:12.583312 16501 net.cpp:399] norm1 -> LRN1
I0815 15:50:12.583381 16501 net.cpp:141] Setting up norm1
I0815 15:50:12.583395 16501 net.cpp:148] Top shape: 100 96 17 17 (2774400)
I0815 15:50:12.583403 16501 net.cpp:156] Memory required for data: 790236000
I0815 15:50:12.583411 16501 layer_factory.hpp:77] Creating layer pool1
I0815 15:50:12.583423 16501 net.cpp:91] Creating Layer pool1
I0815 15:50:12.583431 16501 net.cpp:425] pool1 <- LRN1
I0815 15:50:12.583443 16501 net.cpp:399] pool1 -> Pooling1
I0815 15:50:12.583498 16501 net.cpp:141] Setting up pool1
I0815 15:50:12.583510 16501 net.cpp:148] Top shape: 100 96 8 8 (614400)
I0815 15:50:12.583518 16501 net.cpp:156] Memory required for data: 792693600
I0815 15:50:12.583524 16501 layer_factory.hpp:77] Creating layer conv2
I0815 15:50:12.583540 16501 net.cpp:91] Creating Layer conv2
I0815 15:50:12.583549 16501 net.cpp:425] conv2 <- Pooling1
I0815 15:50:12.583560 16501 net.cpp:399] conv2 -> Convolution2
I0815 15:50:12.599685 16501 net.cpp:141] Setting up conv2
I0815 15:50:12.599722 16501 net.cpp:148] Top shape: 100 256 8 8 (1638400)
I0815 15:50:12.599730 16501 net.cpp:156] Memory required for data: 799247200
I0815 15:50:12.599756 16501 layer_factory.hpp:77] Creating layer ReLU2
I0815 15:50:12.599773 16501 net.cpp:91] Creating Layer ReLU2
I0815 15:50:12.599784 16501 net.cpp:425] ReLU2 <- Convolution2
I0815 15:50:12.599800 16501 net.cpp:386] ReLU2 -> Convolution2 (in-place)
I0815 15:50:12.599819 16501 net.cpp:141] Setting up ReLU2
I0815 15:50:12.599830 16501 net.cpp:148] Top shape: 100 256 8 8 (1638400)
I0815 15:50:12.599838 16501 net.cpp:156] Memory required for data: 805800800
I0815 15:50:12.599844 16501 layer_factory.hpp:77] Creating layer norm2
I0815 15:50:12.599856 16501 net.cpp:91] Creating Layer norm2
I0815 15:50:12.599864 16501 net.cpp:425] norm2 <- Convolution2
I0815 15:50:12.599876 16501 net.cpp:399] norm2 -> LRN2
I0815 15:50:12.599936 16501 net.cpp:141] Setting up norm2
I0815 15:50:12.599977 16501 net.cpp:148] Top shape: 100 256 8 8 (1638400)
I0815 15:50:12.599983 16501 net.cpp:156] Memory required for data: 812354400
I0815 15:50:12.599992 16501 layer_factory.hpp:77] Creating layer pool2
I0815 15:50:12.600003 16501 net.cpp:91] Creating Layer pool2
I0815 15:50:12.600010 16501 net.cpp:425] pool2 <- LRN2
I0815 15:50:12.600020 16501 net.cpp:399] pool2 -> Pooling2
I0815 15:50:12.600076 16501 net.cpp:141] Setting up pool2
I0815 15:50:12.600090 16501 net.cpp:148] Top shape: 100 256 4 4 (409600)
I0815 15:50:12.600096 16501 net.cpp:156] Memory required for data: 813992800
I0815 15:50:12.600102 16501 layer_factory.hpp:77] Creating layer conv3
I0815 15:50:12.600121 16501 net.cpp:91] Creating Layer conv3
I0815 15:50:12.600131 16501 net.cpp:425] conv3 <- Pooling2
I0815 15:50:12.600142 16501 net.cpp:399] conv3 -> Convolution3
I0815 15:50:12.645579 16501 net.cpp:141] Setting up conv3
I0815 15:50:12.645615 16501 net.cpp:148] Top shape: 100 384 4 4 (614400)
I0815 15:50:12.645623 16501 net.cpp:156] Memory required for data: 816450400
I0815 15:50:12.645648 16501 layer_factory.hpp:77] Creating layer ReLU3
I0815 15:50:12.645670 16501 net.cpp:91] Creating Layer ReLU3
I0815 15:50:12.645683 16501 net.cpp:425] ReLU3 <- Convolution3
I0815 15:50:12.645696 16501 net.cpp:386] ReLU3 -> Convolution3 (in-place)
I0815 15:50:12.645716 16501 net.cpp:141] Setting up ReLU3
I0815 15:50:12.645730 16501 net.cpp:148] Top shape: 100 384 4 4 (614400)
I0815 15:50:12.645737 16501 net.cpp:156] Memory required for data: 818908000
I0815 15:50:12.645745 16501 layer_factory.hpp:77] Creating layer conv4
I0815 15:50:12.645766 16501 net.cpp:91] Creating Layer conv4
I0815 15:50:12.645773 16501 net.cpp:425] conv4 <- Convolution3
I0815 15:50:12.645787 16501 net.cpp:399] conv4 -> Convolution4
I0815 15:50:12.679476 16501 net.cpp:141] Setting up conv4
I0815 15:50:12.679514 16501 net.cpp:148] Top shape: 100 384 4 4 (614400)
I0815 15:50:12.679522 16501 net.cpp:156] Memory required for data: 821365600
I0815 15:50:12.679543 16501 layer_factory.hpp:77] Creating layer ReLU4
I0815 15:50:12.679566 16501 net.cpp:91] Creating Layer ReLU4
I0815 15:50:12.679579 16501 net.cpp:425] ReLU4 <- Convolution4
I0815 15:50:12.679594 16501 net.cpp:386] ReLU4 -> Convolution4 (in-place)
I0815 15:50:12.679615 16501 net.cpp:141] Setting up ReLU4
I0815 15:50:12.679626 16501 net.cpp:148] Top shape: 100 384 4 4 (614400)
I0815 15:50:12.679635 16501 net.cpp:156] Memory required for data: 823823200
I0815 15:50:12.679642 16501 layer_factory.hpp:77] Creating layer conv5
I0815 15:50:12.679664 16501 net.cpp:91] Creating Layer conv5
I0815 15:50:12.679673 16501 net.cpp:425] conv5 <- Convolution4
I0815 15:50:12.679689 16501 net.cpp:399] conv5 -> Convolution5
I0815 15:50:12.704720 16501 net.cpp:141] Setting up conv5
I0815 15:50:12.704762 16501 net.cpp:148] Top shape: 100 256 4 4 (409600)
I0815 15:50:12.704772 16501 net.cpp:156] Memory required for data: 825461600
I0815 15:50:12.704799 16501 layer_factory.hpp:77] Creating layer pool5
I0815 15:50:12.704850 16501 net.cpp:91] Creating Layer pool5
I0815 15:50:12.704885 16501 net.cpp:425] pool5 <- Convolution5
I0815 15:50:12.704921 16501 net.cpp:399] pool5 -> Pooling3
I0815 15:50:12.705019 16501 net.cpp:141] Setting up pool5
I0815 15:50:12.705036 16501 net.cpp:148] Top shape: 100 256 2 2 (102400)
I0815 15:50:12.705044 16501 net.cpp:156] Memory required for data: 825871200
I0815 15:50:12.705051 16501 layer_factory.hpp:77] Creating layer InnerProduct1
I0815 15:50:12.705090 16501 net.cpp:91] Creating Layer InnerProduct1
I0815 15:50:12.705118 16501 net.cpp:425] InnerProduct1 <- Pooling3
I0815 15:50:12.705154 16501 net.cpp:399] InnerProduct1 -> InnerProduct1
I0815 15:50:12.707989 16501 net.cpp:141] Setting up InnerProduct1
I0815 15:50:12.708012 16501 net.cpp:148] Top shape: 100 256 (25600)
I0815 15:50:12.708020 16501 net.cpp:156] Memory required for data: 825973600
I0815 15:50:12.708034 16501 layer_factory.hpp:77] Creating layer ReLU5
I0815 15:50:12.708046 16501 net.cpp:91] Creating Layer ReLU5
I0815 15:50:12.708097 16501 net.cpp:425] ReLU5 <- InnerProduct1
I0815 15:50:12.708130 16501 net.cpp:386] ReLU5 -> InnerProduct1 (in-place)
I0815 15:50:12.708164 16501 net.cpp:141] Setting up ReLU5
I0815 15:50:12.708194 16501 net.cpp:148] Top shape: 100 256 (25600)
I0815 15:50:12.708220 16501 net.cpp:156] Memory required for data: 826076000
I0815 15:50:12.708245 16501 layer_factory.hpp:77] Creating layer InnerProduct2
I0815 15:50:12.708281 16501 net.cpp:91] Creating Layer InnerProduct2
I0815 15:50:12.708317 16501 net.cpp:425] InnerProduct2 <- InnerProduct1
I0815 15:50:12.708350 16501 net.cpp:399] InnerProduct2 -> InnerProduct2
I0815 15:50:12.709030 16501 net.cpp:141] Setting up InnerProduct2
I0815 15:50:12.709045 16501 net.cpp:148] Top shape: 100 256 (25600)
I0815 15:50:12.709053 16501 net.cpp:156] Memory required for data: 826178400
I0815 15:50:12.709064 16501 layer_factory.hpp:77] Creating layer ReLU6
I0815 15:50:12.709117 16501 net.cpp:91] Creating Layer ReLU6
I0815 15:50:12.709131 16501 net.cpp:425] ReLU6 <- InnerProduct2
I0815 15:50:12.709142 16501 net.cpp:386] ReLU6 -> InnerProduct2 (in-place)
I0815 15:50:12.709157 16501 net.cpp:141] Setting up ReLU6
I0815 15:50:12.709189 16501 net.cpp:148] Top shape: 100 256 (25600)
I0815 15:50:12.709215 16501 net.cpp:156] Memory required for data: 826280800
I0815 15:50:12.709242 16501 layer_factory.hpp:77] Creating layer conv1
I0815 15:50:12.709285 16501 net.cpp:91] Creating Layer conv1
I0815 15:50:12.709311 16501 net.cpp:425] conv1 <- p2_p2_0_split_0
I0815 15:50:12.709344 16501 net.cpp:399] conv1 -> Convolution6
I0815 15:50:12.711369 16501 net.cpp:141] Setting up conv1
I0815 15:50:12.711385 16501 net.cpp:148] Top shape: 100 96 17 17 (2774400)
I0815 15:50:12.711393 16501 net.cpp:156] Memory required for data: 837378400
I0815 15:50:12.711406 16501 layer_factory.hpp:77] Creating layer ReLU7
I0815 15:50:12.711441 16501 net.cpp:91] Creating Layer ReLU7
I0815 15:50:12.711469 16501 net.cpp:425] ReLU7 <- Convolution6
I0815 15:50:12.711503 16501 net.cpp:386] ReLU7 -> Convolution6 (in-place)
I0815 15:50:12.711541 16501 net.cpp:141] Setting up ReLU7
I0815 15:50:12.711571 16501 net.cpp:148] Top shape: 100 96 17 17 (2774400)
I0815 15:50:12.711598 16501 net.cpp:156] Memory required for data: 848476000
I0815 15:50:12.711624 16501 layer_factory.hpp:77] Creating layer norm1
I0815 15:50:12.711653 16501 net.cpp:91] Creating Layer norm1
I0815 15:50:12.711686 16501 net.cpp:425] norm1 <- Convolution6
I0815 15:50:12.711717 16501 net.cpp:399] norm1 -> LRN3
I0815 15:50:12.711799 16501 net.cpp:141] Setting up norm1
I0815 15:50:12.711814 16501 net.cpp:148] Top shape: 100 96 17 17 (2774400)
I0815 15:50:12.711822 16501 net.cpp:156] Memory required for data: 859573600
I0815 15:50:12.711828 16501 layer_factory.hpp:77] Creating layer pool1
I0815 15:50:12.711868 16501 net.cpp:91] Creating Layer pool1
I0815 15:50:12.711894 16501 net.cpp:425] pool1 <- LRN3
I0815 15:50:12.711910 16501 net.cpp:399] pool1 -> Pooling4
I0815 15:50:12.711966 16501 net.cpp:141] Setting up pool1
I0815 15:50:12.711980 16501 net.cpp:148] Top shape: 100 96 8 8 (614400)
I0815 15:50:12.711992 16501 net.cpp:156] Memory required for data: 862031200
I0815 15:50:12.712002 16501 layer_factory.hpp:77] Creating layer conv2
I0815 15:50:12.712026 16501 net.cpp:91] Creating Layer conv2
I0815 15:50:12.712039 16501 net.cpp:425] conv2 <- Pooling4
I0815 15:50:12.712055 16501 net.cpp:399] conv2 -> Convolution7
I0815 15:50:12.727941 16501 net.cpp:141] Setting up conv2
I0815 15:50:12.727978 16501 net.cpp:148] Top shape: 100 256 8 8 (1638400)
I0815 15:50:12.727988 16501 net.cpp:156] Memory required for data: 868584800
I0815 15:50:12.728016 16501 layer_factory.hpp:77] Creating layer ReLU8
I0815 15:50:12.728065 16501 net.cpp:91] Creating Layer ReLU8
I0815 15:50:12.728099 16501 net.cpp:425] ReLU8 <- Convolution7
I0815 15:50:12.728133 16501 net.cpp:386] ReLU8 -> Convolution7 (in-place)
I0815 15:50:12.728183 16501 net.cpp:141] Setting up ReLU8
I0815 15:50:12.728199 16501 net.cpp:148] Top shape: 100 256 8 8 (1638400)
I0815 15:50:12.728206 16501 net.cpp:156] Memory required for data: 875138400
I0815 15:50:12.728251 16501 layer_factory.hpp:77] Creating layer norm2
I0815 15:50:12.728287 16501 net.cpp:91] Creating Layer norm2
I0815 15:50:12.728315 16501 net.cpp:425] norm2 <- Convolution7
I0815 15:50:12.728348 16501 net.cpp:399] norm2 -> LRN4
I0815 15:50:12.728431 16501 net.cpp:141] Setting up norm2
I0815 15:50:12.728446 16501 net.cpp:148] Top shape: 100 256 8 8 (1638400)
I0815 15:50:12.728453 16501 net.cpp:156] Memory required for data: 881692000
I0815 15:50:12.728461 16501 layer_factory.hpp:77] Creating layer pool2
I0815 15:50:12.728473 16501 net.cpp:91] Creating Layer pool2
I0815 15:50:12.728504 16501 net.cpp:425] pool2 <- LRN4
I0815 15:50:12.728541 16501 net.cpp:399] pool2 -> Pooling5
I0815 15:50:12.728621 16501 net.cpp:141] Setting up pool2
I0815 15:50:12.728634 16501 net.cpp:148] Top shape: 100 256 4 4 (409600)
I0815 15:50:12.728642 16501 net.cpp:156] Memory required for data: 883330400
I0815 15:50:12.728649 16501 layer_factory.hpp:77] Creating layer conv3
I0815 15:50:12.728672 16501 net.cpp:91] Creating Layer conv3
I0815 15:50:12.728703 16501 net.cpp:425] conv3 <- Pooling5
I0815 15:50:12.728737 16501 net.cpp:399] conv3 -> Convolution8
I0815 15:50:12.773327 16501 net.cpp:141] Setting up conv3
I0815 15:50:12.773365 16501 net.cpp:148] Top shape: 100 384 4 4 (614400)
I0815 15:50:12.773375 16501 net.cpp:156] Memory required for data: 885788000
I0815 15:50:12.773391 16501 layer_factory.hpp:77] Creating layer ReLU9
I0815 15:50:12.773407 16501 net.cpp:91] Creating Layer ReLU9
I0815 15:50:12.773448 16501 net.cpp:425] ReLU9 <- Convolution8
I0815 15:50:12.773466 16501 net.cpp:386] ReLU9 -> Convolution8 (in-place)
I0815 15:50:12.773483 16501 net.cpp:141] Setting up ReLU9
I0815 15:50:12.773494 16501 net.cpp:148] Top shape: 100 384 4 4 (614400)
I0815 15:50:12.773502 16501 net.cpp:156] Memory required for data: 888245600
I0815 15:50:12.773510 16501 layer_factory.hpp:77] Creating layer conv4
I0815 15:50:12.773530 16501 net.cpp:91] Creating Layer conv4
I0815 15:50:12.773540 16501 net.cpp:425] conv4 <- Convolution8
I0815 15:50:12.773556 16501 net.cpp:399] conv4 -> Convolution9
I0815 15:50:12.807008 16501 net.cpp:141] Setting up conv4
I0815 15:50:12.807046 16501 net.cpp:148] Top shape: 100 384 4 4 (614400)
I0815 15:50:12.807054 16501 net.cpp:156] Memory required for data: 890703200
I0815 15:50:12.807066 16501 layer_factory.hpp:77] Creating layer ReLU10
I0815 15:50:12.807080 16501 net.cpp:91] Creating Layer ReLU10
I0815 15:50:12.807090 16501 net.cpp:425] ReLU10 <- Convolution9
I0815 15:50:12.807103 16501 net.cpp:386] ReLU10 -> Convolution9 (in-place)
I0815 15:50:12.807116 16501 net.cpp:141] Setting up ReLU10
I0815 15:50:12.807124 16501 net.cpp:148] Top shape: 100 384 4 4 (614400)
I0815 15:50:12.807131 16501 net.cpp:156] Memory required for data: 893160800
I0815 15:50:12.807135 16501 layer_factory.hpp:77] Creating layer conv5
I0815 15:50:12.807149 16501 net.cpp:91] Creating Layer conv5
I0815 15:50:12.807155 16501 net.cpp:425] conv5 <- Convolution9
I0815 15:50:12.807174 16501 net.cpp:399] conv5 -> Convolution10
I0815 15:50:12.829880 16501 net.cpp:141] Setting up conv5
I0815 15:50:12.829978 16501 net.cpp:148] Top shape: 100 256 4 4 (409600)
I0815 15:50:12.830008 16501 net.cpp:156] Memory required for data: 894799200
I0815 15:50:12.830044 16501 layer_factory.hpp:77] Creating layer pool5
I0815 15:50:12.830080 16501 net.cpp:91] Creating Layer pool5
I0815 15:50:12.830109 16501 net.cpp:425] pool5 <- Convolution10
I0815 15:50:12.830147 16501 net.cpp:399] pool5 -> Pooling6
I0815 15:50:12.830238 16501 net.cpp:141] Setting up pool5
I0815 15:50:12.830270 16501 net.cpp:148] Top shape: 100 256 2 2 (102400)
I0815 15:50:12.830294 16501 net.cpp:156] Memory required for data: 895208800
I0815 15:50:12.830320 16501 layer_factory.hpp:77] Creating layer InnerProduct3
I0815 15:50:12.830355 16501 net.cpp:91] Creating Layer InnerProduct3
I0815 15:50:12.830390 16501 net.cpp:425] InnerProduct3 <- Pooling6
I0815 15:50:12.830425 16501 net.cpp:399] InnerProduct3 -> InnerProduct3
I0815 15:50:12.833465 16501 net.cpp:141] Setting up InnerProduct3
I0815 15:50:12.833549 16501 net.cpp:148] Top shape: 100 256 (25600)
I0815 15:50:12.833573 16501 net.cpp:156] Memory required for data: 895311200
I0815 15:50:12.833606 16501 net.cpp:484] Sharing parameters 'fc6_w' owned by layer 'InnerProduct1', param index 0
I0815 15:50:12.833636 16501 net.cpp:484] Sharing parameters 'fc6_b' owned by layer 'InnerProduct1', param index 1
I0815 15:50:12.833664 16501 layer_factory.hpp:77] Creating layer ReLU11
I0815 15:50:12.833698 16501 net.cpp:91] Creating Layer ReLU11
I0815 15:50:12.833725 16501 net.cpp:425] ReLU11 <- InnerProduct3
I0815 15:50:12.833757 16501 net.cpp:386] ReLU11 -> InnerProduct3 (in-place)
I0815 15:50:12.833796 16501 net.cpp:141] Setting up ReLU11
I0815 15:50:12.833825 16501 net.cpp:148] Top shape: 100 256 (25600)
I0815 15:50:12.833850 16501 net.cpp:156] Memory required for data: 895413600
I0815 15:50:12.833876 16501 layer_factory.hpp:77] Creating layer InnerProduct4
I0815 15:50:12.833909 16501 net.cpp:91] Creating Layer InnerProduct4
I0815 15:50:12.833935 16501 net.cpp:425] InnerProduct4 <- InnerProduct3
I0815 15:50:12.833967 16501 net.cpp:399] InnerProduct4 -> InnerProduct4
I0815 15:50:12.834676 16501 net.cpp:141] Setting up InnerProduct4
I0815 15:50:12.834712 16501 net.cpp:148] Top shape: 100 256 (25600)
I0815 15:50:12.834738 16501 net.cpp:156] Memory required for data: 895516000
I0815 15:50:12.834764 16501 net.cpp:484] Sharing parameters 'fc7_w' owned by layer 'InnerProduct2', param index 0
I0815 15:50:12.834792 16501 net.cpp:484] Sharing parameters 'fc7_b' owned by layer 'InnerProduct2', param index 1
I0815 15:50:12.834820 16501 layer_factory.hpp:77] Creating layer ReLU12
I0815 15:50:12.834846 16501 net.cpp:91] Creating Layer ReLU12
I0815 15:50:12.834873 16501 net.cpp:425] ReLU12 <- InnerProduct4
I0815 15:50:12.834908 16501 net.cpp:386] ReLU12 -> InnerProduct4 (in-place)
I0815 15:50:12.834942 16501 net.cpp:141] Setting up ReLU12
I0815 15:50:12.834971 16501 net.cpp:148] Top shape: 100 256 (25600)
I0815 15:50:12.834996 16501 net.cpp:156] Memory required for data: 895618400
I0815 15:50:12.835022 16501 layer_factory.hpp:77] Creating layer Concat1
I0815 15:50:12.835063 16501 net.cpp:91] Creating Layer Concat1
I0815 15:50:12.835094 16501 net.cpp:425] Concat1 <- InnerProduct2
I0815 15:50:12.835121 16501 net.cpp:425] Concat1 <- InnerProduct4
I0815 15:50:12.835155 16501 net.cpp:399] Concat1 -> Concat1
I0815 15:50:12.835218 16501 net.cpp:141] Setting up Concat1
I0815 15:50:12.835252 16501 net.cpp:148] Top shape: 100 512 (51200)
I0815 15:50:12.835297 16501 net.cpp:156] Memory required for data: 895823200
I0815 15:50:12.835328 16501 layer_factory.hpp:77] Creating layer InnerProduct5
I0815 15:50:12.835366 16501 net.cpp:91] Creating Layer InnerProduct5
I0815 15:50:12.835392 16501 net.cpp:425] InnerProduct5 <- Concat1
I0815 15:50:12.835429 16501 net.cpp:399] InnerProduct5 -> InnerProduct5
I0815 15:50:12.836678 16501 net.cpp:141] Setting up InnerProduct5
I0815 15:50:12.836724 16501 net.cpp:148] Top shape: 100 256 (25600)
I0815 15:50:12.836747 16501 net.cpp:156] Memory required for data: 895925600
I0815 15:50:12.836777 16501 layer_factory.hpp:77] Creating layer ReLU13
I0815 15:50:12.836807 16501 net.cpp:91] Creating Layer ReLU13
I0815 15:50:12.836832 16501 net.cpp:425] ReLU13 <- InnerProduct5
I0815 15:50:12.836863 16501 net.cpp:386] ReLU13 -> InnerProduct5 (in-place)
I0815 15:50:12.836895 16501 net.cpp:141] Setting up ReLU13
I0815 15:50:12.836921 16501 net.cpp:148] Top shape: 100 256 (25600)
I0815 15:50:12.836947 16501 net.cpp:156] Memory required for data: 896028000
I0815 15:50:12.836969 16501 layer_factory.hpp:77] Creating layer InnerProduct6
I0815 15:50:12.836997 16501 net.cpp:91] Creating Layer InnerProduct6
I0815 15:50:12.837020 16501 net.cpp:425] InnerProduct6 <- InnerProduct5
I0815 15:50:12.837054 16501 net.cpp:399] InnerProduct6 -> InnerProduct6
I0815 15:50:12.837489 16501 net.cpp:141] Setting up InnerProduct6
I0815 15:50:12.837525 16501 net.cpp:148] Top shape: 100 128 (12800)
I0815 15:50:12.837549 16501 net.cpp:156] Memory required for data: 896079200
I0815 15:50:12.837580 16501 layer_factory.hpp:77] Creating layer ReLU14
I0815 15:50:12.837620 16501 net.cpp:91] Creating Layer ReLU14
I0815 15:50:12.837646 16501 net.cpp:425] ReLU14 <- InnerProduct6
I0815 15:50:12.837679 16501 net.cpp:386] ReLU14 -> InnerProduct6 (in-place)
I0815 15:50:12.837709 16501 net.cpp:141] Setting up ReLU14
I0815 15:50:12.837736 16501 net.cpp:148] Top shape: 100 128 (12800)
I0815 15:50:12.837760 16501 net.cpp:156] Memory required for data: 896130400
I0815 15:50:12.837786 16501 layer_factory.hpp:77] Creating layer dt0
I0815 15:50:12.837815 16501 net.cpp:91] Creating Layer dt0
I0815 15:50:12.837841 16501 net.cpp:425] dt0 <- InnerProduct6
I0815 15:50:12.837872 16501 net.cpp:399] dt0 -> dt0
I0815 15:50:12.838049 16501 net.cpp:141] Setting up dt0
I0815 15:50:12.838080 16501 net.cpp:148] Top shape: 100 1 (100)
I0815 15:50:12.838104 16501 net.cpp:156] Memory required for data: 896130800
I0815 15:50:12.838147 16501 layer_factory.hpp:77] Creating layer conv1
I0815 15:50:12.838186 16501 net.cpp:91] Creating Layer conv1
I0815 15:50:12.838212 16501 net.cpp:425] conv1 <- p1_p1_0_split_1
I0815 15:50:12.838245 16501 net.cpp:399] conv1 -> Convolution11
I0815 15:50:12.841135 16501 net.cpp:141] Setting up conv1
I0815 15:50:12.841214 16501 net.cpp:148] Top shape: 100 96 17 17 (2774400)
I0815 15:50:12.841241 16501 net.cpp:156] Memory required for data: 907228400
I0815 15:50:12.841276 16501 layer_factory.hpp:77] Creating layer ReLU15
I0815 15:50:12.841308 16501 net.cpp:91] Creating Layer ReLU15
I0815 15:50:12.841336 16501 net.cpp:425] ReLU15 <- Convolution11
I0815 15:50:12.841368 16501 net.cpp:386] ReLU15 -> Convolution11 (in-place)
I0815 15:50:12.841403 16501 net.cpp:141] Setting up ReLU15
I0815 15:50:12.841434 16501 net.cpp:148] Top shape: 100 96 17 17 (2774400)
I0815 15:50:12.841459 16501 net.cpp:156] Memory required for data: 918326000
I0815 15:50:12.841485 16501 layer_factory.hpp:77] Creating layer norm1
I0815 15:50:12.841518 16501 net.cpp:91] Creating Layer norm1
I0815 15:50:12.841544 16501 net.cpp:425] norm1 <- Convolution11
I0815 15:50:12.841573 16501 net.cpp:399] norm1 -> LRN5
I0815 15:50:12.841651 16501 net.cpp:141] Setting up norm1
I0815 15:50:12.841678 16501 net.cpp:148] Top shape: 100 96 17 17 (2774400)
I0815 15:50:12.841701 16501 net.cpp:156] Memory required for data: 929423600
I0815 15:50:12.841727 16501 layer_factory.hpp:77] Creating layer pool1
I0815 15:50:12.841754 16501 net.cpp:91] Creating Layer pool1
I0815 15:50:12.841778 16501 net.cpp:425] pool1 <- LRN5
I0815 15:50:12.841807 16501 net.cpp:399] pool1 -> Pooling7
I0815 15:50:12.841884 16501 net.cpp:141] Setting up pool1
I0815 15:50:12.841917 16501 net.cpp:148] Top shape: 100 96 8 8 (614400)
I0815 15:50:12.841941 16501 net.cpp:156] Memory required for data: 931881200
I0815 15:50:12.841966 16501 layer_factory.hpp:77] Creating layer conv2
I0815 15:50:12.842000 16501 net.cpp:91] Creating Layer conv2
I0815 15:50:12.842025 16501 net.cpp:425] conv2 <- Pooling7
I0815 15:50:12.842061 16501 net.cpp:399] conv2 -> Convolution12
I0815 15:50:12.858258 16501 net.cpp:141] Setting up conv2
I0815 15:50:12.858355 16501 net.cpp:148] Top shape: 100 256 8 8 (1638400)
I0815 15:50:12.858381 16501 net.cpp:156] Memory required for data: 938434800
I0815 15:50:12.858419 16501 layer_factory.hpp:77] Creating layer ReLU16
I0815 15:50:12.858454 16501 net.cpp:91] Creating Layer ReLU16
I0815 15:50:12.858484 16501 net.cpp:425] ReLU16 <- Convolution12
I0815 15:50:12.858516 16501 net.cpp:386] ReLU16 -> Convolution12 (in-place)
I0815 15:50:12.858551 16501 net.cpp:141] Setting up ReLU16
I0815 15:50:12.858580 16501 net.cpp:148] Top shape: 100 256 8 8 (1638400)
I0815 15:50:12.858605 16501 net.cpp:156] Memory required for data: 944988400
I0815 15:50:12.858629 16501 layer_factory.hpp:77] Creating layer norm2
I0815 15:50:12.858662 16501 net.cpp:91] Creating Layer norm2
I0815 15:50:12.858688 16501 net.cpp:425] norm2 <- Convolution12
I0815 15:50:12.858728 16501 net.cpp:399] norm2 -> LRN6
I0815 15:50:12.858820 16501 net.cpp:141] Setting up norm2
I0815 15:50:12.858853 16501 net.cpp:148] Top shape: 100 256 8 8 (1638400)
I0815 15:50:12.858892 16501 net.cpp:156] Memory required for data: 951542000
I0815 15:50:12.858919 16501 layer_factory.hpp:77] Creating layer pool2
I0815 15:50:12.858952 16501 net.cpp:91] Creating Layer pool2
I0815 15:50:12.858981 16501 net.cpp:425] pool2 <- LRN6
I0815 15:50:12.859011 16501 net.cpp:399] pool2 -> Pooling8
I0815 15:50:12.859100 16501 net.cpp:141] Setting up pool2
I0815 15:50:12.859134 16501 net.cpp:148] Top shape: 100 256 4 4 (409600)
I0815 15:50:12.859160 16501 net.cpp:156] Memory required for data: 953180400
I0815 15:50:12.859187 16501 layer_factory.hpp:77] Creating layer conv3
I0815 15:50:12.859225 16501 net.cpp:91] Creating Layer conv3
I0815 15:50:12.859251 16501 net.cpp:425] conv3 <- Pooling8
I0815 15:50:12.859302 16501 net.cpp:399] conv3 -> Convolution13
I0815 15:50:12.904587 16501 net.cpp:141] Setting up conv3
I0815 15:50:12.904628 16501 net.cpp:148] Top shape: 100 384 4 4 (614400)
I0815 15:50:12.904638 16501 net.cpp:156] Memory required for data: 955638000
I0815 15:50:12.904655 16501 layer_factory.hpp:77] Creating layer ReLU17
I0815 15:50:12.904677 16501 net.cpp:91] Creating Layer ReLU17
I0815 15:50:12.904691 16501 net.cpp:425] ReLU17 <- Convolution13
I0815 15:50:12.904736 16501 net.cpp:386] ReLU17 -> Convolution13 (in-place)
I0815 15:50:12.904774 16501 net.cpp:141] Setting up ReLU17
I0815 15:50:12.904810 16501 net.cpp:148] Top shape: 100 384 4 4 (614400)
I0815 15:50:12.904836 16501 net.cpp:156] Memory required for data: 958095600
I0815 15:50:12.904865 16501 layer_factory.hpp:77] Creating layer conv4
I0815 15:50:12.904904 16501 net.cpp:91] Creating Layer conv4
I0815 15:50:12.904932 16501 net.cpp:425] conv4 <- Convolution13
I0815 15:50:12.904969 16501 net.cpp:399] conv4 -> Convolution14
I0815 15:50:12.938853 16501 net.cpp:141] Setting up conv4
I0815 15:50:12.938891 16501 net.cpp:148] Top shape: 100 384 4 4 (614400)
I0815 15:50:12.938900 16501 net.cpp:156] Memory required for data: 960553200
I0815 15:50:12.938918 16501 layer_factory.hpp:77] Creating layer ReLU18
I0815 15:50:12.938937 16501 net.cpp:91] Creating Layer ReLU18
I0815 15:50:12.938977 16501 net.cpp:425] ReLU18 <- Convolution14
I0815 15:50:12.939021 16501 net.cpp:386] ReLU18 -> Convolution14 (in-place)
I0815 15:50:12.939066 16501 net.cpp:141] Setting up ReLU18
I0815 15:50:12.939096 16501 net.cpp:148] Top shape: 100 384 4 4 (614400)
I0815 15:50:12.939122 16501 net.cpp:156] Memory required for data: 963010800
I0815 15:50:12.939151 16501 layer_factory.hpp:77] Creating layer conv5
I0815 15:50:12.939190 16501 net.cpp:91] Creating Layer conv5
I0815 15:50:12.939218 16501 net.cpp:425] conv5 <- Convolution14
I0815 15:50:12.939250 16501 net.cpp:399] conv5 -> Convolution15
I0815 15:50:12.961905 16501 net.cpp:141] Setting up conv5
I0815 15:50:12.961948 16501 net.cpp:148] Top shape: 100 256 4 4 (409600)
I0815 15:50:12.961957 16501 net.cpp:156] Memory required for data: 964649200
I0815 15:50:12.961976 16501 layer_factory.hpp:77] Creating layer pool5
I0815 15:50:12.961994 16501 net.cpp:91] Creating Layer pool5
I0815 15:50:12.962035 16501 net.cpp:425] pool5 <- Convolution15
I0815 15:50:12.962075 16501 net.cpp:399] pool5 -> Pooling9
I0815 15:50:12.962167 16501 net.cpp:141] Setting up pool5
I0815 15:50:12.962198 16501 net.cpp:148] Top shape: 100 256 2 2 (102400)
I0815 15:50:12.962224 16501 net.cpp:156] Memory required for data: 965058800
I0815 15:50:12.962251 16501 layer_factory.hpp:77] Creating layer InnerProduct7
I0815 15:50:12.962291 16501 net.cpp:91] Creating Layer InnerProduct7
I0815 15:50:12.962318 16501 net.cpp:425] InnerProduct7 <- Pooling9
I0815 15:50:12.962354 16501 net.cpp:399] InnerProduct7 -> InnerProduct7
I0815 15:50:12.965493 16501 net.cpp:141] Setting up InnerProduct7
I0815 15:50:12.965553 16501 net.cpp:148] Top shape: 100 256 (25600)
I0815 15:50:12.965581 16501 net.cpp:156] Memory required for data: 965161200
I0815 15:50:12.965613 16501 net.cpp:484] Sharing parameters 'fc6_w' owned by layer 'InnerProduct1', param index 0
I0815 15:50:12.965654 16501 net.cpp:484] Sharing parameters 'fc6_b' owned by layer 'InnerProduct1', param index 1
I0815 15:50:12.965703 16501 layer_factory.hpp:77] Creating layer ReLU19
I0815 15:50:12.965735 16501 net.cpp:91] Creating Layer ReLU19
I0815 15:50:12.965761 16501 net.cpp:425] ReLU19 <- InnerProduct7
I0815 15:50:12.965790 16501 net.cpp:386] ReLU19 -> InnerProduct7 (in-place)
I0815 15:50:12.965823 16501 net.cpp:141] Setting up ReLU19
I0815 15:50:12.965850 16501 net.cpp:148] Top shape: 100 256 (25600)
I0815 15:50:12.965873 16501 net.cpp:156] Memory required for data: 965263600
I0815 15:50:12.965898 16501 layer_factory.hpp:77] Creating layer InnerProduct8
I0815 15:50:12.965934 16501 net.cpp:91] Creating Layer InnerProduct8
I0815 15:50:12.965960 16501 net.cpp:425] InnerProduct8 <- InnerProduct7
I0815 15:50:12.965992 16501 net.cpp:399] InnerProduct8 -> InnerProduct8
I0815 15:50:12.966737 16501 net.cpp:141] Setting up InnerProduct8
I0815 15:50:12.966783 16501 net.cpp:148] Top shape: 100 256 (25600)
I0815 15:50:12.966809 16501 net.cpp:156] Memory required for data: 965366000
I0815 15:50:12.966840 16501 net.cpp:484] Sharing parameters 'fc7_w' owned by layer 'InnerProduct2', param index 0
I0815 15:50:12.966871 16501 net.cpp:484] Sharing parameters 'fc7_b' owned by layer 'InnerProduct2', param index 1
I0815 15:50:12.966902 16501 layer_factory.hpp:77] Creating layer ReLU20
I0815 15:50:12.966936 16501 net.cpp:91] Creating Layer ReLU20
I0815 15:50:12.966984 16501 net.cpp:425] ReLU20 <- InnerProduct8
I0815 15:50:12.967051 16501 net.cpp:386] ReLU20 -> InnerProduct8 (in-place)
I0815 15:50:12.967113 16501 net.cpp:141] Setting up ReLU20
I0815 15:50:12.967170 16501 net.cpp:148] Top shape: 100 256 (25600)
I0815 15:50:12.967221 16501 net.cpp:156] Memory required for data: 965468400
I0815 15:50:12.967253 16501 layer_factory.hpp:77] Creating layer conv1
I0815 15:50:12.967314 16501 net.cpp:91] Creating Layer conv1
I0815 15:50:12.967345 16501 net.cpp:425] conv1 <- c21
I0815 15:50:12.967386 16501 net.cpp:399] conv1 -> Convolution16
I0815 15:50:12.969480 16501 net.cpp:141] Setting up conv1
I0815 15:50:12.969502 16501 net.cpp:148] Top shape: 100 96 17 17 (2774400)
I0815 15:50:12.969511 16501 net.cpp:156] Memory required for data: 976566000
I0815 15:50:12.969526 16501 layer_factory.hpp:77] Creating layer ReLU21
I0815 15:50:12.969563 16501 net.cpp:91] Creating Layer ReLU21
I0815 15:50:12.969593 16501 net.cpp:425] ReLU21 <- Convolution16
I0815 15:50:12.969626 16501 net.cpp:386] ReLU21 -> Convolution16 (in-place)
I0815 15:50:12.969658 16501 net.cpp:141] Setting up ReLU21
I0815 15:50:12.969691 16501 net.cpp:148] Top shape: 100 96 17 17 (2774400)
I0815 15:50:12.969719 16501 net.cpp:156] Memory required for data: 987663600
I0815 15:50:12.969746 16501 layer_factory.hpp:77] Creating layer norm1
I0815 15:50:12.969780 16501 net.cpp:91] Creating Layer norm1
I0815 15:50:12.969807 16501 net.cpp:425] norm1 <- Convolution16
I0815 15:50:12.969840 16501 net.cpp:399] norm1 -> LRN7
I0815 15:50:12.969954 16501 net.cpp:141] Setting up norm1
I0815 15:50:12.969974 16501 net.cpp:148] Top shape: 100 96 17 17 (2774400)
I0815 15:50:12.969981 16501 net.cpp:156] Memory required for data: 998761200
I0815 15:50:12.970012 16501 layer_factory.hpp:77] Creating layer pool1
I0815 15:50:12.970043 16501 net.cpp:91] Creating Layer pool1
I0815 15:50:12.970055 16501 net.cpp:425] pool1 <- LRN7
I0815 15:50:12.970067 16501 net.cpp:399] pool1 -> Pooling10
I0815 15:50:12.970129 16501 net.cpp:141] Setting up pool1
I0815 15:50:12.970142 16501 net.cpp:148] Top shape: 100 96 8 8 (614400)
I0815 15:50:12.970150 16501 net.cpp:156] Memory required for data: 1001218800
I0815 15:50:12.970160 16501 layer_factory.hpp:77] Creating layer conv2
I0815 15:50:12.970180 16501 net.cpp:91] Creating Layer conv2
I0815 15:50:12.970191 16501 net.cpp:425] conv2 <- Pooling10
I0815 15:50:12.970209 16501 net.cpp:399] conv2 -> Convolution17
I0815 15:50:12.986232 16501 net.cpp:141] Setting up conv2
I0815 15:50:12.986332 16501 net.cpp:148] Top shape: 100 256 8 8 (1638400)
I0815 15:50:12.986373 16501 net.cpp:156] Memory required for data: 1007772400
I0815 15:50:12.986410 16501 layer_factory.hpp:77] Creating layer ReLU22
I0815 15:50:12.986459 16501 net.cpp:91] Creating Layer ReLU22
I0815 15:50:12.986486 16501 net.cpp:425] ReLU22 <- Convolution17
I0815 15:50:12.986518 16501 net.cpp:386] ReLU22 -> Convolution17 (in-place)
I0815 15:50:12.986553 16501 net.cpp:141] Setting up ReLU22
I0815 15:50:12.986579 16501 net.cpp:148] Top shape: 100 256 8 8 (1638400)
I0815 15:50:12.986603 16501 net.cpp:156] Memory required for data: 1014326000
I0815 15:50:12.986626 16501 layer_factory.hpp:77] Creating layer norm2
I0815 15:50:12.986655 16501 net.cpp:91] Creating Layer norm2
I0815 15:50:12.986680 16501 net.cpp:425] norm2 <- Convolution17
I0815 15:50:12.986711 16501 net.cpp:399] norm2 -> LRN8
I0815 15:50:12.986788 16501 net.cpp:141] Setting up norm2
I0815 15:50:12.986816 16501 net.cpp:148] Top shape: 100 256 8 8 (1638400)
I0815 15:50:12.986840 16501 net.cpp:156] Memory required for data: 1020879600
I0815 15:50:12.986861 16501 layer_factory.hpp:77] Creating layer pool2
I0815 15:50:12.986891 16501 net.cpp:91] Creating Layer pool2
I0815 15:50:12.986914 16501 net.cpp:425] pool2 <- LRN8
I0815 15:50:12.986943 16501 net.cpp:399] pool2 -> Pooling11
I0815 15:50:12.987022 16501 net.cpp:141] Setting up pool2
I0815 15:50:12.987049 16501 net.cpp:148] Top shape: 100 256 4 4 (409600)
I0815 15:50:12.987072 16501 net.cpp:156] Memory required for data: 1022518000
I0815 15:50:12.987095 16501 layer_factory.hpp:77] Creating layer conv3
I0815 15:50:12.987130 16501 net.cpp:91] Creating Layer conv3
I0815 15:50:12.987154 16501 net.cpp:425] conv3 <- Pooling11
I0815 15:50:12.987186 16501 net.cpp:399] conv3 -> Convolution18
I0815 15:50:13.032074 16501 net.cpp:141] Setting up conv3
I0815 15:50:13.032163 16501 net.cpp:148] Top shape: 100 384 4 4 (614400)
I0815 15:50:13.032193 16501 net.cpp:156] Memory required for data: 1024975600
I0815 15:50:13.032232 16501 layer_factory.hpp:77] Creating layer ReLU23
I0815 15:50:13.032271 16501 net.cpp:91] Creating Layer ReLU23
I0815 15:50:13.032302 16501 net.cpp:425] ReLU23 <- Convolution18
I0815 15:50:13.032333 16501 net.cpp:386] ReLU23 -> Convolution18 (in-place)
I0815 15:50:13.032369 16501 net.cpp:141] Setting up ReLU23
I0815 15:50:13.032399 16501 net.cpp:148] Top shape: 100 384 4 4 (614400)
I0815 15:50:13.032425 16501 net.cpp:156] Memory required for data: 1027433200
I0815 15:50:13.032450 16501 layer_factory.hpp:77] Creating layer conv4
I0815 15:50:13.032488 16501 net.cpp:91] Creating Layer conv4
I0815 15:50:13.032512 16501 net.cpp:425] conv4 <- Convolution18
I0815 15:50:13.032546 16501 net.cpp:399] conv4 -> Convolution19
I0815 15:50:13.066494 16501 net.cpp:141] Setting up conv4
I0815 15:50:13.066531 16501 net.cpp:148] Top shape: 100 384 4 4 (614400)
I0815 15:50:13.066540 16501 net.cpp:156] Memory required for data: 1029890800
I0815 15:50:13.066557 16501 layer_factory.hpp:77] Creating layer ReLU24
I0815 15:50:13.066591 16501 net.cpp:91] Creating Layer ReLU24
I0815 15:50:13.066611 16501 net.cpp:425] ReLU24 <- Convolution19
I0815 15:50:13.066628 16501 net.cpp:386] ReLU24 -> Convolution19 (in-place)
I0815 15:50:13.066653 16501 net.cpp:141] Setting up ReLU24
I0815 15:50:13.066668 16501 net.cpp:148] Top shape: 100 384 4 4 (614400)
I0815 15:50:13.066676 16501 net.cpp:156] Memory required for data: 1032348400
I0815 15:50:13.066684 16501 layer_factory.hpp:77] Creating layer conv5
I0815 15:50:13.066707 16501 net.cpp:91] Creating Layer conv5
I0815 15:50:13.066720 16501 net.cpp:425] conv5 <- Convolution19
I0815 15:50:13.066735 16501 net.cpp:399] conv5 -> Convolution20
I0815 15:50:13.088762 16501 net.cpp:141] Setting up conv5
I0815 15:50:13.088783 16501 net.cpp:148] Top shape: 100 256 4 4 (409600)
I0815 15:50:13.088802 16501 net.cpp:156] Memory required for data: 1033986800
I0815 15:50:13.088817 16501 layer_factory.hpp:77] Creating layer pool5
I0815 15:50:13.088831 16501 net.cpp:91] Creating Layer pool5
I0815 15:50:13.088840 16501 net.cpp:425] pool5 <- Convolution20
I0815 15:50:13.088858 16501 net.cpp:399] pool5 -> Pooling12
I0815 15:50:13.088930 16501 net.cpp:141] Setting up pool5
I0815 15:50:13.088944 16501 net.cpp:148] Top shape: 100 256 2 2 (102400)
I0815 15:50:13.088973 16501 net.cpp:156] Memory required for data: 1034396400
I0815 15:50:13.088981 16501 layer_factory.hpp:77] Creating layer InnerProduct9
I0815 15:50:13.088999 16501 net.cpp:91] Creating Layer InnerProduct9
I0815 15:50:13.089007 16501 net.cpp:425] InnerProduct9 <- Pooling12
I0815 15:50:13.089023 16501 net.cpp:399] InnerProduct9 -> InnerProduct9
I0815 15:50:13.091702 16501 net.cpp:141] Setting up InnerProduct9
I0815 15:50:13.091722 16501 net.cpp:148] Top shape: 100 256 (25600)
I0815 15:50:13.091729 16501 net.cpp:156] Memory required for data: 1034498800
I0815 15:50:13.091747 16501 net.cpp:484] Sharing parameters 'fc6_w' owned by layer 'InnerProduct1', param index 0
I0815 15:50:13.091758 16501 net.cpp:484] Sharing parameters 'fc6_b' owned by layer 'InnerProduct1', param index 1
I0815 15:50:13.091765 16501 layer_factory.hpp:77] Creating layer ReLU25
I0815 15:50:13.091776 16501 net.cpp:91] Creating Layer ReLU25
I0815 15:50:13.091785 16501 net.cpp:425] ReLU25 <- InnerProduct9
I0815 15:50:13.091809 16501 net.cpp:386] ReLU25 -> InnerProduct9 (in-place)
I0815 15:50:13.091822 16501 net.cpp:141] Setting up ReLU25
I0815 15:50:13.091832 16501 net.cpp:148] Top shape: 100 256 (25600)
I0815 15:50:13.091840 16501 net.cpp:156] Memory required for data: 1034601200
I0815 15:50:13.091848 16501 layer_factory.hpp:77] Creating layer InnerProduct10
I0815 15:50:13.091861 16501 net.cpp:91] Creating Layer InnerProduct10
I0815 15:50:13.091868 16501 net.cpp:425] InnerProduct10 <- InnerProduct9
I0815 15:50:13.091884 16501 net.cpp:399] InnerProduct10 -> InnerProduct10
I0815 15:50:13.092531 16501 net.cpp:141] Setting up InnerProduct10
I0815 15:50:13.092546 16501 net.cpp:148] Top shape: 100 256 (25600)
I0815 15:50:13.092562 16501 net.cpp:156] Memory required for data: 1034703600
I0815 15:50:13.092571 16501 net.cpp:484] Sharing parameters 'fc7_w' owned by layer 'InnerProduct2', param index 0
I0815 15:50:13.092581 16501 net.cpp:484] Sharing parameters 'fc7_b' owned by layer 'InnerProduct2', param index 1
I0815 15:50:13.092587 16501 layer_factory.hpp:77] Creating layer ReLU26
I0815 15:50:13.092598 16501 net.cpp:91] Creating Layer ReLU26
I0815 15:50:13.092607 16501 net.cpp:425] ReLU26 <- InnerProduct10
I0815 15:50:13.092619 16501 net.cpp:386] ReLU26 -> InnerProduct10 (in-place)
I0815 15:50:13.092633 16501 net.cpp:141] Setting up ReLU26
I0815 15:50:13.092643 16501 net.cpp:148] Top shape: 100 256 (25600)
I0815 15:50:13.092649 16501 net.cpp:156] Memory required for data: 1034806000
I0815 15:50:13.092658 16501 layer_factory.hpp:77] Creating layer Concat2
I0815 15:50:13.092669 16501 net.cpp:91] Creating Layer Concat2
I0815 15:50:13.092676 16501 net.cpp:425] Concat2 <- InnerProduct8
I0815 15:50:13.092686 16501 net.cpp:425] Concat2 <- InnerProduct10
I0815 15:50:13.092701 16501 net.cpp:399] Concat2 -> Concat2
I0815 15:50:13.092738 16501 net.cpp:141] Setting up Concat2
I0815 15:50:13.092756 16501 net.cpp:148] Top shape: 100 512 (51200)
I0815 15:50:13.092763 16501 net.cpp:156] Memory required for data: 1035010800
I0815 15:50:13.092772 16501 layer_factory.hpp:77] Creating layer InnerProduct11
I0815 15:50:13.092783 16501 net.cpp:91] Creating Layer InnerProduct11
I0815 15:50:13.092792 16501 net.cpp:425] InnerProduct11 <- Concat2
I0815 15:50:13.092806 16501 net.cpp:399] InnerProduct11 -> InnerProduct11
I0815 15:50:13.094491 16501 net.cpp:141] Setting up InnerProduct11
I0815 15:50:13.094511 16501 net.cpp:148] Top shape: 100 256 (25600)
I0815 15:50:13.094518 16501 net.cpp:156] Memory required for data: 1035113200
I0815 15:50:13.094528 16501 net.cpp:484] Sharing parameters 'fc8_w' owned by layer 'InnerProduct5', param index 0
I0815 15:50:13.094537 16501 net.cpp:484] Sharing parameters 'fc8_b' owned by layer 'InnerProduct5', param index 1
I0815 15:50:13.094547 16501 layer_factory.hpp:77] Creating layer ReLU27
I0815 15:50:13.094558 16501 net.cpp:91] Creating Layer ReLU27
I0815 15:50:13.094566 16501 net.cpp:425] ReLU27 <- InnerProduct11
I0815 15:50:13.094580 16501 net.cpp:386] ReLU27 -> InnerProduct11 (in-place)
I0815 15:50:13.094594 16501 net.cpp:141] Setting up ReLU27
I0815 15:50:13.094620 16501 net.cpp:148] Top shape: 100 256 (25600)
I0815 15:50:13.094627 16501 net.cpp:156] Memory required for data: 1035215600
I0815 15:50:13.094635 16501 layer_factory.hpp:77] Creating layer InnerProduct12
I0815 15:50:13.094684 16501 net.cpp:91] Creating Layer InnerProduct12
I0815 15:50:13.094696 16501 net.cpp:425] InnerProduct12 <- InnerProduct11
I0815 15:50:13.094709 16501 net.cpp:399] InnerProduct12 -> InnerProduct12
I0815 15:50:13.095098 16501 net.cpp:141] Setting up InnerProduct12
I0815 15:50:13.095111 16501 net.cpp:148] Top shape: 100 128 (12800)
I0815 15:50:13.095119 16501 net.cpp:156] Memory required for data: 1035266800
I0815 15:50:13.095150 16501 net.cpp:484] Sharing parameters 'fc9_w' owned by layer 'InnerProduct6', param index 0
I0815 15:50:13.095163 16501 net.cpp:484] Sharing parameters 'fc9_b' owned by layer 'InnerProduct6', param index 1
I0815 15:50:13.095172 16501 layer_factory.hpp:77] Creating layer ReLU28
I0815 15:50:13.095183 16501 net.cpp:91] Creating Layer ReLU28
I0815 15:50:13.095191 16501 net.cpp:425] ReLU28 <- InnerProduct12
I0815 15:50:13.095206 16501 net.cpp:386] ReLU28 -> InnerProduct12 (in-place)
I0815 15:50:13.095217 16501 net.cpp:141] Setting up ReLU28
I0815 15:50:13.095227 16501 net.cpp:148] Top shape: 100 128 (12800)
I0815 15:50:13.095235 16501 net.cpp:156] Memory required for data: 1035318000
I0815 15:50:13.095242 16501 layer_factory.hpp:77] Creating layer dt1
I0815 15:50:13.095262 16501 net.cpp:91] Creating Layer dt1
I0815 15:50:13.095268 16501 net.cpp:425] dt1 <- InnerProduct12
I0815 15:50:13.095302 16501 net.cpp:399] dt1 -> dt1
I0815 15:50:13.095449 16501 net.cpp:141] Setting up dt1
I0815 15:50:13.095464 16501 net.cpp:148] Top shape: 100 1 (100)
I0815 15:50:13.095473 16501 net.cpp:156] Memory required for data: 1035318400
I0815 15:50:13.095480 16501 net.cpp:484] Sharing parameters 'fc10_w' owned by layer 'dt0', param index 0
I0815 15:50:13.095489 16501 net.cpp:484] Sharing parameters 'fc10_b' owned by layer 'dt0', param index 1
I0815 15:50:13.095497 16501 layer_factory.hpp:77] Creating layer conv1
I0815 15:50:13.095515 16501 net.cpp:91] Creating Layer conv1
I0815 15:50:13.095525 16501 net.cpp:425] conv1 <- p1_p1_0_split_2
I0815 15:50:13.095541 16501 net.cpp:399] conv1 -> Convolution21
I0815 15:50:13.098116 16501 net.cpp:141] Setting up conv1
I0815 15:50:13.098135 16501 net.cpp:148] Top shape: 100 96 17 17 (2774400)
I0815 15:50:13.098143 16501 net.cpp:156] Memory required for data: 1046416000
I0815 15:50:13.098157 16501 layer_factory.hpp:77] Creating layer ReLU29
I0815 15:50:13.098168 16501 net.cpp:91] Creating Layer ReLU29
I0815 15:50:13.098177 16501 net.cpp:425] ReLU29 <- Convolution21
I0815 15:50:13.098189 16501 net.cpp:386] ReLU29 -> Convolution21 (in-place)
I0815 15:50:13.098202 16501 net.cpp:141] Setting up ReLU29
I0815 15:50:13.098212 16501 net.cpp:148] Top shape: 100 96 17 17 (2774400)
I0815 15:50:13.098220 16501 net.cpp:156] Memory required for data: 1057513600
I0815 15:50:13.098227 16501 layer_factory.hpp:77] Creating layer norm1
I0815 15:50:13.098243 16501 net.cpp:91] Creating Layer norm1
I0815 15:50:13.098251 16501 net.cpp:425] norm1 <- Convolution21
I0815 15:50:13.098263 16501 net.cpp:399] norm1 -> LRN9
I0815 15:50:13.098323 16501 net.cpp:141] Setting up norm1
I0815 15:50:13.098337 16501 net.cpp:148] Top shape: 100 96 17 17 (2774400)
I0815 15:50:13.098345 16501 net.cpp:156] Memory required for data: 1068611200
I0815 15:50:13.098353 16501 layer_factory.hpp:77] Creating layer pool1
I0815 15:50:13.098364 16501 net.cpp:91] Creating Layer pool1
I0815 15:50:13.098372 16501 net.cpp:425] pool1 <- LRN9
I0815 15:50:13.098387 16501 net.cpp:399] pool1 -> Pooling13
I0815 15:50:13.098443 16501 net.cpp:141] Setting up pool1
I0815 15:50:13.098459 16501 net.cpp:148] Top shape: 100 96 8 8 (614400)
I0815 15:50:13.098466 16501 net.cpp:156] Memory required for data: 1071068800
I0815 15:50:13.098474 16501 layer_factory.hpp:77] Creating layer conv2
I0815 15:50:13.098491 16501 net.cpp:91] Creating Layer conv2
I0815 15:50:13.098501 16501 net.cpp:425] conv2 <- Pooling13
I0815 15:50:13.098531 16501 net.cpp:399] conv2 -> Convolution22
I0815 15:50:13.114135 16501 net.cpp:141] Setting up conv2
I0815 15:50:13.114159 16501 net.cpp:148] Top shape: 100 256 8 8 (1638400)
I0815 15:50:13.114172 16501 net.cpp:156] Memory required for data: 1077622400
I0815 15:50:13.114187 16501 layer_factory.hpp:77] Creating layer ReLU30
I0815 15:50:13.114199 16501 net.cpp:91] Creating Layer ReLU30
I0815 15:50:13.114208 16501 net.cpp:425] ReLU30 <- Convolution22
I0815 15:50:13.114224 16501 net.cpp:386] ReLU30 -> Convolution22 (in-place)
I0815 15:50:13.114238 16501 net.cpp:141] Setting up ReLU30
I0815 15:50:13.114249 16501 net.cpp:148] Top shape: 100 256 8 8 (1638400)
I0815 15:50:13.114258 16501 net.cpp:156] Memory required for data: 1084176000
I0815 15:50:13.114264 16501 layer_factory.hpp:77] Creating layer norm2
I0815 15:50:13.114276 16501 net.cpp:91] Creating Layer norm2
I0815 15:50:13.114285 16501 net.cpp:425] norm2 <- Convolution22
I0815 15:50:13.114297 16501 net.cpp:399] norm2 -> LRN10
I0815 15:50:13.114357 16501 net.cpp:141] Setting up norm2
I0815 15:50:13.114372 16501 net.cpp:148] Top shape: 100 256 8 8 (1638400)
I0815 15:50:13.114379 16501 net.cpp:156] Memory required for data: 1090729600
I0815 15:50:13.114387 16501 layer_factory.hpp:77] Creating layer pool2
I0815 15:50:13.114400 16501 net.cpp:91] Creating Layer pool2
I0815 15:50:13.114408 16501 net.cpp:425] pool2 <- LRN10
I0815 15:50:13.114420 16501 net.cpp:399] pool2 -> Pooling14
I0815 15:50:13.114480 16501 net.cpp:141] Setting up pool2
I0815 15:50:13.114493 16501 net.cpp:148] Top shape: 100 256 4 4 (409600)
I0815 15:50:13.114501 16501 net.cpp:156] Memory required for data: 1092368000
I0815 15:50:13.114509 16501 layer_factory.hpp:77] Creating layer conv3
I0815 15:50:13.114528 16501 net.cpp:91] Creating Layer conv3
I0815 15:50:13.114537 16501 net.cpp:425] conv3 <- Pooling14
I0815 15:50:13.114552 16501 net.cpp:399] conv3 -> Convolution23
I0815 15:50:13.158339 16501 net.cpp:141] Setting up conv3
I0815 15:50:13.158370 16501 net.cpp:148] Top shape: 100 384 4 4 (614400)
I0815 15:50:13.158388 16501 net.cpp:156] Memory required for data: 1094825600
I0815 15:50:13.158404 16501 layer_factory.hpp:77] Creating layer ReLU31
I0815 15:50:13.158422 16501 net.cpp:91] Creating Layer ReLU31
I0815 15:50:13.158433 16501 net.cpp:425] ReLU31 <- Convolution23
I0815 15:50:13.158452 16501 net.cpp:386] ReLU31 -> Convolution23 (in-place)
I0815 15:50:13.158468 16501 net.cpp:141] Setting up ReLU31
I0815 15:50:13.158478 16501 net.cpp:148] Top shape: 100 384 4 4 (614400)
I0815 15:50:13.158486 16501 net.cpp:156] Memory required for data: 1097283200
I0815 15:50:13.158493 16501 layer_factory.hpp:77] Creating layer conv4
I0815 15:50:13.158514 16501 net.cpp:91] Creating Layer conv4
I0815 15:50:13.158522 16501 net.cpp:425] conv4 <- Convolution23
I0815 15:50:13.158540 16501 net.cpp:399] conv4 -> Convolution24
I0815 15:50:13.191473 16501 net.cpp:141] Setting up conv4
I0815 15:50:13.191503 16501 net.cpp:148] Top shape: 100 384 4 4 (614400)
I0815 15:50:13.191510 16501 net.cpp:156] Memory required for data: 1099740800
I0815 15:50:13.191526 16501 layer_factory.hpp:77] Creating layer ReLU32
I0815 15:50:13.191540 16501 net.cpp:91] Creating Layer ReLU32
I0815 15:50:13.191551 16501 net.cpp:425] ReLU32 <- Convolution24
I0815 15:50:13.191563 16501 net.cpp:386] ReLU32 -> Convolution24 (in-place)
I0815 15:50:13.191579 16501 net.cpp:141] Setting up ReLU32
I0815 15:50:13.191589 16501 net.cpp:148] Top shape: 100 384 4 4 (614400)
I0815 15:50:13.191596 16501 net.cpp:156] Memory required for data: 1102198400
I0815 15:50:13.191604 16501 layer_factory.hpp:77] Creating layer conv5
I0815 15:50:13.191627 16501 net.cpp:91] Creating Layer conv5
I0815 15:50:13.191642 16501 net.cpp:425] conv5 <- Convolution24
I0815 15:50:13.191656 16501 net.cpp:399] conv5 -> Convolution25
I0815 15:50:13.213598 16501 net.cpp:141] Setting up conv5
I0815 15:50:13.213619 16501 net.cpp:148] Top shape: 100 256 4 4 (409600)
I0815 15:50:13.213639 16501 net.cpp:156] Memory required for data: 1103836800
I0815 15:50:13.213654 16501 layer_factory.hpp:77] Creating layer pool5
I0815 15:50:13.213683 16501 net.cpp:91] Creating Layer pool5
I0815 15:50:13.213695 16501 net.cpp:425] pool5 <- Convolution25
I0815 15:50:13.213716 16501 net.cpp:399] pool5 -> Pooling15
I0815 15:50:13.213781 16501 net.cpp:141] Setting up pool5
I0815 15:50:13.213795 16501 net.cpp:148] Top shape: 100 256 2 2 (102400)
I0815 15:50:13.213804 16501 net.cpp:156] Memory required for data: 1104246400
I0815 15:50:13.213811 16501 layer_factory.hpp:77] Creating layer InnerProduct13
I0815 15:50:13.213829 16501 net.cpp:91] Creating Layer InnerProduct13
I0815 15:50:13.213836 16501 net.cpp:425] InnerProduct13 <- Pooling15
I0815 15:50:13.213852 16501 net.cpp:399] InnerProduct13 -> InnerProduct13
I0815 15:50:13.216548 16501 net.cpp:141] Setting up InnerProduct13
I0815 15:50:13.216569 16501 net.cpp:148] Top shape: 100 256 (25600)
I0815 15:50:13.216578 16501 net.cpp:156] Memory required for data: 1104348800
I0815 15:50:13.216588 16501 net.cpp:484] Sharing parameters 'fc6_w' owned by layer 'InnerProduct1', param index 0
I0815 15:50:13.216598 16501 net.cpp:484] Sharing parameters 'fc6_b' owned by layer 'InnerProduct1', param index 1
I0815 15:50:13.216606 16501 layer_factory.hpp:77] Creating layer ReLU33
I0815 15:50:13.216617 16501 net.cpp:91] Creating Layer ReLU33
I0815 15:50:13.216626 16501 net.cpp:425] ReLU33 <- InnerProduct13
I0815 15:50:13.216637 16501 net.cpp:386] ReLU33 -> InnerProduct13 (in-place)
I0815 15:50:13.216650 16501 net.cpp:141] Setting up ReLU33
I0815 15:50:13.216661 16501 net.cpp:148] Top shape: 100 256 (25600)
I0815 15:50:13.216668 16501 net.cpp:156] Memory required for data: 1104451200
I0815 15:50:13.216676 16501 layer_factory.hpp:77] Creating layer InnerProduct14
I0815 15:50:13.216691 16501 net.cpp:91] Creating Layer InnerProduct14
I0815 15:50:13.216699 16501 net.cpp:425] InnerProduct14 <- InnerProduct13
I0815 15:50:13.216714 16501 net.cpp:399] InnerProduct14 -> InnerProduct14
I0815 15:50:13.217370 16501 net.cpp:141] Setting up InnerProduct14
I0815 15:50:13.217386 16501 net.cpp:148] Top shape: 100 256 (25600)
I0815 15:50:13.217392 16501 net.cpp:156] Memory required for data: 1104553600
I0815 15:50:13.217401 16501 net.cpp:484] Sharing parameters 'fc7_w' owned by layer 'InnerProduct2', param index 0
I0815 15:50:13.217411 16501 net.cpp:484] Sharing parameters 'fc7_b' owned by layer 'InnerProduct2', param index 1
I0815 15:50:13.217418 16501 layer_factory.hpp:77] Creating layer ReLU34
I0815 15:50:13.217428 16501 net.cpp:91] Creating Layer ReLU34
I0815 15:50:13.217437 16501 net.cpp:425] ReLU34 <- InnerProduct14
I0815 15:50:13.217447 16501 net.cpp:386] ReLU34 -> InnerProduct14 (in-place)
I0815 15:50:13.217459 16501 net.cpp:141] Setting up ReLU34
I0815 15:50:13.217468 16501 net.cpp:148] Top shape: 100 256 (25600)
I0815 15:50:13.217476 16501 net.cpp:156] Memory required for data: 1104656000
I0815 15:50:13.217484 16501 layer_factory.hpp:77] Creating layer conv1
I0815 15:50:13.217502 16501 net.cpp:91] Creating Layer conv1
I0815 15:50:13.217512 16501 net.cpp:425] conv1 <- c22
I0815 15:50:13.217528 16501 net.cpp:399] conv1 -> Convolution26
I0815 15:50:13.219539 16501 net.cpp:141] Setting up conv1
I0815 15:50:13.219554 16501 net.cpp:148] Top shape: 100 96 17 17 (2774400)
I0815 15:50:13.219563 16501 net.cpp:156] Memory required for data: 1115753600
I0815 15:50:13.219576 16501 layer_factory.hpp:77] Creating layer ReLU35
I0815 15:50:13.219588 16501 net.cpp:91] Creating Layer ReLU35
I0815 15:50:13.219595 16501 net.cpp:425] ReLU35 <- Convolution26
I0815 15:50:13.219609 16501 net.cpp:386] ReLU35 -> Convolution26 (in-place)
I0815 15:50:13.219622 16501 net.cpp:141] Setting up ReLU35
I0815 15:50:13.219632 16501 net.cpp:148] Top shape: 100 96 17 17 (2774400)
I0815 15:50:13.219640 16501 net.cpp:156] Memory required for data: 1126851200
I0815 15:50:13.219647 16501 layer_factory.hpp:77] Creating layer norm1
I0815 15:50:13.219661 16501 net.cpp:91] Creating Layer norm1
I0815 15:50:13.219671 16501 net.cpp:425] norm1 <- Convolution26
I0815 15:50:13.219682 16501 net.cpp:399] norm1 -> LRN11
I0815 15:50:13.219743 16501 net.cpp:141] Setting up norm1
I0815 15:50:13.219771 16501 net.cpp:148] Top shape: 100 96 17 17 (2774400)
I0815 15:50:13.219779 16501 net.cpp:156] Memory required for data: 1137948800
I0815 15:50:13.219786 16501 layer_factory.hpp:77] Creating layer pool1
I0815 15:50:13.219797 16501 net.cpp:91] Creating Layer pool1
I0815 15:50:13.219805 16501 net.cpp:425] pool1 <- LRN11
I0815 15:50:13.219817 16501 net.cpp:399] pool1 -> Pooling16
I0815 15:50:13.219877 16501 net.cpp:141] Setting up pool1
I0815 15:50:13.219890 16501 net.cpp:148] Top shape: 100 96 8 8 (614400)
I0815 15:50:13.219898 16501 net.cpp:156] Memory required for data: 1140406400
I0815 15:50:13.219905 16501 layer_factory.hpp:77] Creating layer conv2
I0815 15:50:13.219923 16501 net.cpp:91] Creating Layer conv2
I0815 15:50:13.219933 16501 net.cpp:425] conv2 <- Pooling16
I0815 15:50:13.219949 16501 net.cpp:399] conv2 -> Convolution27
I0815 15:50:13.235556 16501 net.cpp:141] Setting up conv2
I0815 15:50:13.235579 16501 net.cpp:148] Top shape: 100 256 8 8 (1638400)
I0815 15:50:13.235587 16501 net.cpp:156] Memory required for data: 1146960000
I0815 15:50:13.235612 16501 layer_factory.hpp:77] Creating layer ReLU36
I0815 15:50:13.235628 16501 net.cpp:91] Creating Layer ReLU36
I0815 15:50:13.235637 16501 net.cpp:425] ReLU36 <- Convolution27
I0815 15:50:13.235648 16501 net.cpp:386] ReLU36 -> Convolution27 (in-place)
I0815 15:50:13.235663 16501 net.cpp:141] Setting up ReLU36
I0815 15:50:13.235683 16501 net.cpp:148] Top shape: 100 256 8 8 (1638400)
I0815 15:50:13.235692 16501 net.cpp:156] Memory required for data: 1153513600
I0815 15:50:13.235699 16501 layer_factory.hpp:77] Creating layer norm2
I0815 15:50:13.235710 16501 net.cpp:91] Creating Layer norm2
I0815 15:50:13.235719 16501 net.cpp:425] norm2 <- Convolution27
I0815 15:50:13.235734 16501 net.cpp:399] norm2 -> LRN12
I0815 15:50:13.235792 16501 net.cpp:141] Setting up norm2
I0815 15:50:13.235806 16501 net.cpp:148] Top shape: 100 256 8 8 (1638400)
I0815 15:50:13.235813 16501 net.cpp:156] Memory required for data: 1160067200
I0815 15:50:13.235821 16501 layer_factory.hpp:77] Creating layer pool2
I0815 15:50:13.235834 16501 net.cpp:91] Creating Layer pool2
I0815 15:50:13.235842 16501 net.cpp:425] pool2 <- LRN12
I0815 15:50:13.235857 16501 net.cpp:399] pool2 -> Pooling17
I0815 15:50:13.235913 16501 net.cpp:141] Setting up pool2
I0815 15:50:13.235927 16501 net.cpp:148] Top shape: 100 256 4 4 (409600)
I0815 15:50:13.235934 16501 net.cpp:156] Memory required for data: 1161705600
I0815 15:50:13.235942 16501 layer_factory.hpp:77] Creating layer conv3
I0815 15:50:13.235960 16501 net.cpp:91] Creating Layer conv3
I0815 15:50:13.235968 16501 net.cpp:425] conv3 <- Pooling17
I0815 15:50:13.235985 16501 net.cpp:399] conv3 -> Convolution28
I0815 15:50:13.279543 16501 net.cpp:141] Setting up conv3
I0815 15:50:13.279574 16501 net.cpp:148] Top shape: 100 384 4 4 (614400)
I0815 15:50:13.279583 16501 net.cpp:156] Memory required for data: 1164163200
I0815 15:50:13.279608 16501 layer_factory.hpp:77] Creating layer ReLU37
I0815 15:50:13.279623 16501 net.cpp:91] Creating Layer ReLU37
I0815 15:50:13.279634 16501 net.cpp:425] ReLU37 <- Convolution28
I0815 15:50:13.279646 16501 net.cpp:386] ReLU37 -> Convolution28 (in-place)
I0815 15:50:13.279662 16501 net.cpp:141] Setting up ReLU37
I0815 15:50:13.279672 16501 net.cpp:148] Top shape: 100 384 4 4 (614400)
I0815 15:50:13.279680 16501 net.cpp:156] Memory required for data: 1166620800
I0815 15:50:13.279687 16501 layer_factory.hpp:77] Creating layer conv4
I0815 15:50:13.279707 16501 net.cpp:91] Creating Layer conv4
I0815 15:50:13.279716 16501 net.cpp:425] conv4 <- Convolution28
I0815 15:50:13.279733 16501 net.cpp:399] conv4 -> Convolution29
I0815 15:50:13.312861 16501 net.cpp:141] Setting up conv4
I0815 15:50:13.312889 16501 net.cpp:148] Top shape: 100 384 4 4 (614400)
I0815 15:50:13.312897 16501 net.cpp:156] Memory required for data: 1169078400
I0815 15:50:13.312914 16501 layer_factory.hpp:77] Creating layer ReLU38
I0815 15:50:13.312928 16501 net.cpp:91] Creating Layer ReLU38
I0815 15:50:13.312939 16501 net.cpp:425] ReLU38 <- Convolution29
I0815 15:50:13.312971 16501 net.cpp:386] ReLU38 -> Convolution29 (in-place)
I0815 15:50:13.312988 16501 net.cpp:141] Setting up ReLU38
I0815 15:50:13.313002 16501 net.cpp:148] Top shape: 100 384 4 4 (614400)
I0815 15:50:13.313009 16501 net.cpp:156] Memory required for data: 1171536000
I0815 15:50:13.313019 16501 layer_factory.hpp:77] Creating layer conv5
I0815 15:50:13.313035 16501 net.cpp:91] Creating Layer conv5
I0815 15:50:13.313043 16501 net.cpp:425] conv5 <- Convolution29
I0815 15:50:13.313066 16501 net.cpp:399] conv5 -> Convolution30
I0815 15:50:13.335103 16501 net.cpp:141] Setting up conv5
I0815 15:50:13.335125 16501 net.cpp:148] Top shape: 100 256 4 4 (409600)
I0815 15:50:13.335132 16501 net.cpp:156] Memory required for data: 1173174400
I0815 15:50:13.335155 16501 layer_factory.hpp:77] Creating layer pool5
I0815 15:50:13.335173 16501 net.cpp:91] Creating Layer pool5
I0815 15:50:13.335182 16501 net.cpp:425] pool5 <- Convolution30
I0815 15:50:13.335196 16501 net.cpp:399] pool5 -> Pooling18
I0815 15:50:13.335268 16501 net.cpp:141] Setting up pool5
I0815 15:50:13.335288 16501 net.cpp:148] Top shape: 100 256 2 2 (102400)
I0815 15:50:13.335295 16501 net.cpp:156] Memory required for data: 1173584000
I0815 15:50:13.335302 16501 layer_factory.hpp:77] Creating layer InnerProduct15
I0815 15:50:13.335319 16501 net.cpp:91] Creating Layer InnerProduct15
I0815 15:50:13.335327 16501 net.cpp:425] InnerProduct15 <- Pooling18
I0815 15:50:13.335340 16501 net.cpp:399] InnerProduct15 -> InnerProduct15
I0815 15:50:13.338059 16501 net.cpp:141] Setting up InnerProduct15
I0815 15:50:13.338078 16501 net.cpp:148] Top shape: 100 256 (25600)
I0815 15:50:13.338086 16501 net.cpp:156] Memory required for data: 1173686400
I0815 15:50:13.338104 16501 net.cpp:484] Sharing parameters 'fc6_w' owned by layer 'InnerProduct1', param index 0
I0815 15:50:13.338114 16501 net.cpp:484] Sharing parameters 'fc6_b' owned by layer 'InnerProduct1', param index 1
I0815 15:50:13.338122 16501 layer_factory.hpp:77] Creating layer ReLU39
I0815 15:50:13.338136 16501 net.cpp:91] Creating Layer ReLU39
I0815 15:50:13.338145 16501 net.cpp:425] ReLU39 <- InnerProduct15
I0815 15:50:13.338167 16501 net.cpp:386] ReLU39 -> InnerProduct15 (in-place)
I0815 15:50:13.338181 16501 net.cpp:141] Setting up ReLU39
I0815 15:50:13.338191 16501 net.cpp:148] Top shape: 100 256 (25600)
I0815 15:50:13.338198 16501 net.cpp:156] Memory required for data: 1173788800
I0815 15:50:13.338207 16501 layer_factory.hpp:77] Creating layer InnerProduct16
I0815 15:50:13.338222 16501 net.cpp:91] Creating Layer InnerProduct16
I0815 15:50:13.338230 16501 net.cpp:425] InnerProduct16 <- InnerProduct15
I0815 15:50:13.338243 16501 net.cpp:399] InnerProduct16 -> InnerProduct16
I0815 15:50:13.338902 16501 net.cpp:141] Setting up InnerProduct16
I0815 15:50:13.338917 16501 net.cpp:148] Top shape: 100 256 (25600)
I0815 15:50:13.338924 16501 net.cpp:156] Memory required for data: 1173891200
I0815 15:50:13.338932 16501 net.cpp:484] Sharing parameters 'fc7_w' owned by layer 'InnerProduct2', param index 0
I0815 15:50:13.338942 16501 net.cpp:484] Sharing parameters 'fc7_b' owned by layer 'InnerProduct2', param index 1
I0815 15:50:13.338949 16501 layer_factory.hpp:77] Creating layer ReLU40
I0815 15:50:13.338959 16501 net.cpp:91] Creating Layer ReLU40
I0815 15:50:13.338968 16501 net.cpp:425] ReLU40 <- InnerProduct16
I0815 15:50:13.338981 16501 net.cpp:386] ReLU40 -> InnerProduct16 (in-place)
I0815 15:50:13.338994 16501 net.cpp:141] Setting up ReLU40
I0815 15:50:13.339004 16501 net.cpp:148] Top shape: 100 256 (25600)
I0815 15:50:13.339011 16501 net.cpp:156] Memory required for data: 1173993600
I0815 15:50:13.339020 16501 layer_factory.hpp:77] Creating layer Concat3
I0815 15:50:13.339030 16501 net.cpp:91] Creating Layer Concat3
I0815 15:50:13.339037 16501 net.cpp:425] Concat3 <- InnerProduct14
I0815 15:50:13.339047 16501 net.cpp:425] Concat3 <- InnerProduct16
I0815 15:50:13.339062 16501 net.cpp:399] Concat3 -> Concat3
I0815 15:50:13.339100 16501 net.cpp:141] Setting up Concat3
I0815 15:50:13.339114 16501 net.cpp:148] Top shape: 100 512 (51200)
I0815 15:50:13.339140 16501 net.cpp:156] Memory required for data: 1174198400
I0815 15:50:13.339148 16501 layer_factory.hpp:77] Creating layer InnerProduct17
I0815 15:50:13.339164 16501 net.cpp:91] Creating Layer InnerProduct17
I0815 15:50:13.339171 16501 net.cpp:425] InnerProduct17 <- Concat3
I0815 15:50:13.339187 16501 net.cpp:399] InnerProduct17 -> InnerProduct17
I0815 15:50:13.340374 16501 net.cpp:141] Setting up InnerProduct17
I0815 15:50:13.340391 16501 net.cpp:148] Top shape: 100 256 (25600)
I0815 15:50:13.340399 16501 net.cpp:156] Memory required for data: 1174300800
I0815 15:50:13.340407 16501 net.cpp:484] Sharing parameters 'fc8_w' owned by layer 'InnerProduct5', param index 0
I0815 15:50:13.340417 16501 net.cpp:484] Sharing parameters 'fc8_b' owned by layer 'InnerProduct5', param index 1
I0815 15:50:13.340425 16501 layer_factory.hpp:77] Creating layer ReLU41
I0815 15:50:13.340440 16501 net.cpp:91] Creating Layer ReLU41
I0815 15:50:13.340447 16501 net.cpp:425] ReLU41 <- InnerProduct17
I0815 15:50:13.340458 16501 net.cpp:386] ReLU41 -> InnerProduct17 (in-place)
I0815 15:50:13.340471 16501 net.cpp:141] Setting up ReLU41
I0815 15:50:13.340481 16501 net.cpp:148] Top shape: 100 256 (25600)
I0815 15:50:13.340489 16501 net.cpp:156] Memory required for data: 1174403200
I0815 15:50:13.340497 16501 layer_factory.hpp:77] Creating layer InnerProduct18
I0815 15:50:13.340512 16501 net.cpp:91] Creating Layer InnerProduct18
I0815 15:50:13.340519 16501 net.cpp:425] InnerProduct18 <- InnerProduct17
I0815 15:50:13.340533 16501 net.cpp:399] InnerProduct18 -> InnerProduct18
I0815 15:50:13.340951 16501 net.cpp:141] Setting up InnerProduct18
I0815 15:50:13.340968 16501 net.cpp:148] Top shape: 100 128 (12800)
I0815 15:50:13.340975 16501 net.cpp:156] Memory required for data: 1174454400
I0815 15:50:13.340983 16501 net.cpp:484] Sharing parameters 'fc9_w' owned by layer 'InnerProduct6', param index 0
I0815 15:50:13.340991 16501 net.cpp:484] Sharing parameters 'fc9_b' owned by layer 'InnerProduct6', param index 1
I0815 15:50:13.340999 16501 layer_factory.hpp:77] Creating layer ReLU42
I0815 15:50:13.341009 16501 net.cpp:91] Creating Layer ReLU42
I0815 15:50:13.341017 16501 net.cpp:425] ReLU42 <- InnerProduct18
I0815 15:50:13.341028 16501 net.cpp:386] ReLU42 -> InnerProduct18 (in-place)
I0815 15:50:13.341073 16501 net.cpp:141] Setting up ReLU42
I0815 15:50:13.341085 16501 net.cpp:148] Top shape: 100 128 (12800)
I0815 15:50:13.341092 16501 net.cpp:156] Memory required for data: 1174505600
I0815 15:50:13.341100 16501 layer_factory.hpp:77] Creating layer dt2
I0815 15:50:13.341115 16501 net.cpp:91] Creating Layer dt2
I0815 15:50:13.341130 16501 net.cpp:425] dt2 <- InnerProduct18
I0815 15:50:13.341145 16501 net.cpp:399] dt2 -> dt2
I0815 15:50:13.341337 16501 net.cpp:141] Setting up dt2
I0815 15:50:13.341351 16501 net.cpp:148] Top shape: 100 1 (100)
I0815 15:50:13.341358 16501 net.cpp:156] Memory required for data: 1174506000
I0815 15:50:13.341367 16501 net.cpp:484] Sharing parameters 'fc10_w' owned by layer 'dt0', param index 0
I0815 15:50:13.341382 16501 net.cpp:484] Sharing parameters 'fc10_b' owned by layer 'dt0', param index 1
I0815 15:50:13.341390 16501 layer_factory.hpp:77] Creating layer conv1
I0815 15:50:13.341408 16501 net.cpp:91] Creating Layer conv1
I0815 15:50:13.341419 16501 net.cpp:425] conv1 <- p1_p1_0_split_3
I0815 15:50:13.341437 16501 net.cpp:399] conv1 -> Convolution31
I0815 15:50:13.344190 16501 net.cpp:141] Setting up conv1
I0815 15:50:13.344208 16501 net.cpp:148] Top shape: 100 96 17 17 (2774400)
I0815 15:50:13.344214 16501 net.cpp:156] Memory required for data: 1185603600
I0815 15:50:13.344228 16501 layer_factory.hpp:77] Creating layer ReLU43
I0815 15:50:13.344238 16501 net.cpp:91] Creating Layer ReLU43
I0815 15:50:13.344244 16501 net.cpp:425] ReLU43 <- Convolution31
I0815 15:50:13.344256 16501 net.cpp:386] ReLU43 -> Convolution31 (in-place)
I0815 15:50:13.344267 16501 net.cpp:141] Setting up ReLU43
I0815 15:50:13.344275 16501 net.cpp:148] Top shape: 100 96 17 17 (2774400)
I0815 15:50:13.344281 16501 net.cpp:156] Memory required for data: 1196701200
I0815 15:50:13.344307 16501 layer_factory.hpp:77] Creating layer norm1
I0815 15:50:13.344322 16501 net.cpp:91] Creating Layer norm1
I0815 15:50:13.344331 16501 net.cpp:425] norm1 <- Convolution31
I0815 15:50:13.344343 16501 net.cpp:399] norm1 -> LRN13
I0815 15:50:13.344403 16501 net.cpp:141] Setting up norm1
I0815 15:50:13.344419 16501 net.cpp:148] Top shape: 100 96 17 17 (2774400)
I0815 15:50:13.344426 16501 net.cpp:156] Memory required for data: 1207798800
I0815 15:50:13.344434 16501 layer_factory.hpp:77] Creating layer pool1
I0815 15:50:13.344445 16501 net.cpp:91] Creating Layer pool1
I0815 15:50:13.344452 16501 net.cpp:425] pool1 <- LRN13
I0815 15:50:13.344465 16501 net.cpp:399] pool1 -> Pooling19
I0815 15:50:13.344524 16501 net.cpp:141] Setting up pool1
I0815 15:50:13.344538 16501 net.cpp:148] Top shape: 100 96 8 8 (614400)
I0815 15:50:13.344547 16501 net.cpp:156] Memory required for data: 1210256400
I0815 15:50:13.344553 16501 layer_factory.hpp:77] Creating layer conv2
I0815 15:50:13.344573 16501 net.cpp:91] Creating Layer conv2
I0815 15:50:13.344583 16501 net.cpp:425] conv2 <- Pooling19
I0815 15:50:13.344599 16501 net.cpp:399] conv2 -> Convolution32
I0815 15:50:13.360075 16501 net.cpp:141] Setting up conv2
I0815 15:50:13.360100 16501 net.cpp:148] Top shape: 100 256 8 8 (1638400)
I0815 15:50:13.360108 16501 net.cpp:156] Memory required for data: 1216810000
I0815 15:50:13.360134 16501 layer_factory.hpp:77] Creating layer ReLU44
I0815 15:50:13.360146 16501 net.cpp:91] Creating Layer ReLU44
I0815 15:50:13.360155 16501 net.cpp:425] ReLU44 <- Convolution32
I0815 15:50:13.360167 16501 net.cpp:386] ReLU44 -> Convolution32 (in-place)
I0815 15:50:13.360182 16501 net.cpp:141] Setting up ReLU44
I0815 15:50:13.360200 16501 net.cpp:148] Top shape: 100 256 8 8 (1638400)
I0815 15:50:13.360208 16501 net.cpp:156] Memory required for data: 1223363600
I0815 15:50:13.360216 16501 layer_factory.hpp:77] Creating layer norm2
I0815 15:50:13.360230 16501 net.cpp:91] Creating Layer norm2
I0815 15:50:13.360239 16501 net.cpp:425] norm2 <- Convolution32
I0815 15:50:13.360251 16501 net.cpp:399] norm2 -> LRN14
I0815 15:50:13.360313 16501 net.cpp:141] Setting up norm2
I0815 15:50:13.360328 16501 net.cpp:148] Top shape: 100 256 8 8 (1638400)
I0815 15:50:13.360335 16501 net.cpp:156] Memory required for data: 1229917200
I0815 15:50:13.360343 16501 layer_factory.hpp:77] Creating layer pool2
I0815 15:50:13.360353 16501 net.cpp:91] Creating Layer pool2
I0815 15:50:13.360361 16501 net.cpp:425] pool2 <- LRN14
I0815 15:50:13.360376 16501 net.cpp:399] pool2 -> Pooling20
I0815 15:50:13.360435 16501 net.cpp:141] Setting up pool2
I0815 15:50:13.360451 16501 net.cpp:148] Top shape: 100 256 4 4 (409600)
I0815 15:50:13.360458 16501 net.cpp:156] Memory required for data: 1231555600
I0815 15:50:13.360466 16501 layer_factory.hpp:77] Creating layer conv3
I0815 15:50:13.360486 16501 net.cpp:91] Creating Layer conv3
I0815 15:50:13.360493 16501 net.cpp:425] conv3 <- Pooling20
I0815 15:50:13.360507 16501 net.cpp:399] conv3 -> Convolution33
I0815 15:50:13.404299 16501 net.cpp:141] Setting up conv3
I0815 15:50:13.404330 16501 net.cpp:148] Top shape: 100 384 4 4 (614400)
I0815 15:50:13.404340 16501 net.cpp:156] Memory required for data: 1234013200
I0815 15:50:13.404356 16501 layer_factory.hpp:77] Creating layer ReLU45
I0815 15:50:13.404371 16501 net.cpp:91] Creating Layer ReLU45
I0815 15:50:13.404383 16501 net.cpp:425] ReLU45 <- Convolution33
I0815 15:50:13.404399 16501 net.cpp:386] ReLU45 -> Convolution33 (in-place)
I0815 15:50:13.404417 16501 net.cpp:141] Setting up ReLU45
I0815 15:50:13.404427 16501 net.cpp:148] Top shape: 100 384 4 4 (614400)
I0815 15:50:13.404433 16501 net.cpp:156] Memory required for data: 1236470800
I0815 15:50:13.404441 16501 layer_factory.hpp:77] Creating layer conv4
I0815 15:50:13.404462 16501 net.cpp:91] Creating Layer conv4
I0815 15:50:13.404470 16501 net.cpp:425] conv4 <- Convolution33
I0815 15:50:13.404484 16501 net.cpp:399] conv4 -> Convolution34
I0815 15:50:13.437656 16501 net.cpp:141] Setting up conv4
I0815 15:50:13.437706 16501 net.cpp:148] Top shape: 100 384 4 4 (614400)
I0815 15:50:13.437716 16501 net.cpp:156] Memory required for data: 1238928400
I0815 15:50:13.437732 16501 layer_factory.hpp:77] Creating layer ReLU46
I0815 15:50:13.437752 16501 net.cpp:91] Creating Layer ReLU46
I0815 15:50:13.437763 16501 net.cpp:425] ReLU46 <- Convolution34
I0815 15:50:13.437777 16501 net.cpp:386] ReLU46 -> Convolution34 (in-place)
I0815 15:50:13.437793 16501 net.cpp:141] Setting up ReLU46
I0815 15:50:13.437803 16501 net.cpp:148] Top shape: 100 384 4 4 (614400)
I0815 15:50:13.437810 16501 net.cpp:156] Memory required for data: 1241386000
I0815 15:50:13.437819 16501 layer_factory.hpp:77] Creating layer conv5
I0815 15:50:13.437839 16501 net.cpp:91] Creating Layer conv5
I0815 15:50:13.437852 16501 net.cpp:425] conv5 <- Convolution34
I0815 15:50:13.437870 16501 net.cpp:399] conv5 -> Convolution35
I0815 15:50:13.459832 16501 net.cpp:141] Setting up conv5
I0815 15:50:13.459857 16501 net.cpp:148] Top shape: 100 256 4 4 (409600)
I0815 15:50:13.459864 16501 net.cpp:156] Memory required for data: 1243024400
I0815 15:50:13.459888 16501 layer_factory.hpp:77] Creating layer pool5
I0815 15:50:13.459906 16501 net.cpp:91] Creating Layer pool5
I0815 15:50:13.459916 16501 net.cpp:425] pool5 <- Convolution35
I0815 15:50:13.459931 16501 net.cpp:399] pool5 -> Pooling21
I0815 15:50:13.460008 16501 net.cpp:141] Setting up pool5
I0815 15:50:13.460022 16501 net.cpp:148] Top shape: 100 256 2 2 (102400)
I0815 15:50:13.460029 16501 net.cpp:156] Memory required for data: 1243434000
I0815 15:50:13.460037 16501 layer_factory.hpp:77] Creating layer InnerProduct19
I0815 15:50:13.460053 16501 net.cpp:91] Creating Layer InnerProduct19
I0815 15:50:13.460062 16501 net.cpp:425] InnerProduct19 <- Pooling21
I0815 15:50:13.460075 16501 net.cpp:399] InnerProduct19 -> InnerProduct19
I0815 15:50:13.462795 16501 net.cpp:141] Setting up InnerProduct19
I0815 15:50:13.462813 16501 net.cpp:148] Top shape: 100 256 (25600)
I0815 15:50:13.462821 16501 net.cpp:156] Memory required for data: 1243536400
I0815 15:50:13.462831 16501 net.cpp:484] Sharing parameters 'fc6_w' owned by layer 'InnerProduct1', param index 0
I0815 15:50:13.462841 16501 net.cpp:484] Sharing parameters 'fc6_b' owned by layer 'InnerProduct1', param index 1
I0815 15:50:13.462851 16501 layer_factory.hpp:77] Creating layer ReLU47
I0815 15:50:13.462865 16501 net.cpp:91] Creating Layer ReLU47
I0815 15:50:13.462874 16501 net.cpp:425] ReLU47 <- InnerProduct19
I0815 15:50:13.462885 16501 net.cpp:386] ReLU47 -> InnerProduct19 (in-place)
I0815 15:50:13.462899 16501 net.cpp:141] Setting up ReLU47
I0815 15:50:13.462909 16501 net.cpp:148] Top shape: 100 256 (25600)
I0815 15:50:13.462918 16501 net.cpp:156] Memory required for data: 1243638800
I0815 15:50:13.462924 16501 layer_factory.hpp:77] Creating layer InnerProduct20
I0815 15:50:13.462939 16501 net.cpp:91] Creating Layer InnerProduct20
I0815 15:50:13.462949 16501 net.cpp:425] InnerProduct20 <- InnerProduct19
I0815 15:50:13.462960 16501 net.cpp:399] InnerProduct20 -> InnerProduct20
I0815 15:50:13.463680 16501 net.cpp:141] Setting up InnerProduct20
I0815 15:50:13.463698 16501 net.cpp:148] Top shape: 100 256 (25600)
I0815 15:50:13.463706 16501 net.cpp:156] Memory required for data: 1243741200
I0815 15:50:13.463716 16501 net.cpp:484] Sharing parameters 'fc7_w' owned by layer 'InnerProduct2', param index 0
I0815 15:50:13.463724 16501 net.cpp:484] Sharing parameters 'fc7_b' owned by layer 'InnerProduct2', param index 1
I0815 15:50:13.463733 16501 layer_factory.hpp:77] Creating layer ReLU48
I0815 15:50:13.463744 16501 net.cpp:91] Creating Layer ReLU48
I0815 15:50:13.463752 16501 net.cpp:425] ReLU48 <- InnerProduct20
I0815 15:50:13.463763 16501 net.cpp:386] ReLU48 -> InnerProduct20 (in-place)
I0815 15:50:13.463778 16501 net.cpp:141] Setting up ReLU48
I0815 15:50:13.463788 16501 net.cpp:148] Top shape: 100 256 (25600)
I0815 15:50:13.463794 16501 net.cpp:156] Memory required for data: 1243843600
I0815 15:50:13.463802 16501 layer_factory.hpp:77] Creating layer conv1
I0815 15:50:13.463840 16501 net.cpp:91] Creating Layer conv1
I0815 15:50:13.463850 16501 net.cpp:425] conv1 <- c23
I0815 15:50:13.463863 16501 net.cpp:399] conv1 -> Convolution36
I0815 15:50:13.465894 16501 net.cpp:141] Setting up conv1
I0815 15:50:13.465909 16501 net.cpp:148] Top shape: 100 96 17 17 (2774400)
I0815 15:50:13.465917 16501 net.cpp:156] Memory required for data: 1254941200
I0815 15:50:13.465931 16501 layer_factory.hpp:77] Creating layer ReLU49
I0815 15:50:13.465942 16501 net.cpp:91] Creating Layer ReLU49
I0815 15:50:13.465951 16501 net.cpp:425] ReLU49 <- Convolution36
I0815 15:50:13.465965 16501 net.cpp:386] ReLU49 -> Convolution36 (in-place)
I0815 15:50:13.465978 16501 net.cpp:141] Setting up ReLU49
I0815 15:50:13.465988 16501 net.cpp:148] Top shape: 100 96 17 17 (2774400)
I0815 15:50:13.465996 16501 net.cpp:156] Memory required for data: 1266038800
I0815 15:50:13.466003 16501 layer_factory.hpp:77] Creating layer norm1
I0815 15:50:13.466015 16501 net.cpp:91] Creating Layer norm1
I0815 15:50:13.466023 16501 net.cpp:425] norm1 <- Convolution36
I0815 15:50:13.466037 16501 net.cpp:399] norm1 -> LRN15
I0815 15:50:13.466099 16501 net.cpp:141] Setting up norm1
I0815 15:50:13.466112 16501 net.cpp:148] Top shape: 100 96 17 17 (2774400)
I0815 15:50:13.466120 16501 net.cpp:156] Memory required for data: 1277136400
I0815 15:50:13.466128 16501 layer_factory.hpp:77] Creating layer pool1
I0815 15:50:13.466142 16501 net.cpp:91] Creating Layer pool1
I0815 15:50:13.466151 16501 net.cpp:425] pool1 <- LRN15
I0815 15:50:13.466162 16501 net.cpp:399] pool1 -> Pooling22
I0815 15:50:13.466224 16501 net.cpp:141] Setting up pool1
I0815 15:50:13.466238 16501 net.cpp:148] Top shape: 100 96 8 8 (614400)
I0815 15:50:13.466246 16501 net.cpp:156] Memory required for data: 1279594000
I0815 15:50:13.466253 16501 layer_factory.hpp:77] Creating layer conv2
I0815 15:50:13.466271 16501 net.cpp:91] Creating Layer conv2
I0815 15:50:13.466279 16501 net.cpp:425] conv2 <- Pooling22
I0815 15:50:13.466294 16501 net.cpp:399] conv2 -> Convolution37
I0815 15:50:13.481716 16501 net.cpp:141] Setting up conv2
I0815 15:50:13.481739 16501 net.cpp:148] Top shape: 100 256 8 8 (1638400)
I0815 15:50:13.481747 16501 net.cpp:156] Memory required for data: 1286147600
I0815 15:50:13.481773 16501 layer_factory.hpp:77] Creating layer ReLU50
I0815 15:50:13.481786 16501 net.cpp:91] Creating Layer ReLU50
I0815 15:50:13.481796 16501 net.cpp:425] ReLU50 <- Convolution37
I0815 15:50:13.481807 16501 net.cpp:386] ReLU50 -> Convolution37 (in-place)
I0815 15:50:13.481822 16501 net.cpp:141] Setting up ReLU50
I0815 15:50:13.481837 16501 net.cpp:148] Top shape: 100 256 8 8 (1638400)
I0815 15:50:13.481845 16501 net.cpp:156] Memory required for data: 1292701200
I0815 15:50:13.481853 16501 layer_factory.hpp:77] Creating layer norm2
I0815 15:50:13.481868 16501 net.cpp:91] Creating Layer norm2
I0815 15:50:13.481876 16501 net.cpp:425] norm2 <- Convolution37
I0815 15:50:13.481891 16501 net.cpp:399] norm2 -> LRN16
I0815 15:50:13.481952 16501 net.cpp:141] Setting up norm2
I0815 15:50:13.481966 16501 net.cpp:148] Top shape: 100 256 8 8 (1638400)
I0815 15:50:13.481973 16501 net.cpp:156] Memory required for data: 1299254800
I0815 15:50:13.481981 16501 layer_factory.hpp:77] Creating layer pool2
I0815 15:50:13.481994 16501 net.cpp:91] Creating Layer pool2
I0815 15:50:13.482002 16501 net.cpp:425] pool2 <- LRN16
I0815 15:50:13.482014 16501 net.cpp:399] pool2 -> Pooling23
I0815 15:50:13.482075 16501 net.cpp:141] Setting up pool2
I0815 15:50:13.482089 16501 net.cpp:148] Top shape: 100 256 4 4 (409600)
I0815 15:50:13.482096 16501 net.cpp:156] Memory required for data: 1300893200
I0815 15:50:13.482105 16501 layer_factory.hpp:77] Creating layer conv3
I0815 15:50:13.482125 16501 net.cpp:91] Creating Layer conv3
I0815 15:50:13.482137 16501 net.cpp:425] conv3 <- Pooling23
I0815 15:50:13.482153 16501 net.cpp:399] conv3 -> Convolution38
I0815 15:50:13.525828 16501 net.cpp:141] Setting up conv3
I0815 15:50:13.525863 16501 net.cpp:148] Top shape: 100 384 4 4 (614400)
I0815 15:50:13.525882 16501 net.cpp:156] Memory required for data: 1303350800
I0815 15:50:13.525918 16501 layer_factory.hpp:77] Creating layer ReLU51
I0815 15:50:13.525931 16501 net.cpp:91] Creating Layer ReLU51
I0815 15:50:13.525954 16501 net.cpp:425] ReLU51 <- Convolution38
I0815 15:50:13.525966 16501 net.cpp:386] ReLU51 -> Convolution38 (in-place)
I0815 15:50:13.525982 16501 net.cpp:141] Setting up ReLU51
I0815 15:50:13.526000 16501 net.cpp:148] Top shape: 100 384 4 4 (614400)
I0815 15:50:13.526006 16501 net.cpp:156] Memory required for data: 1305808400
I0815 15:50:13.526015 16501 layer_factory.hpp:77] Creating layer conv4
I0815 15:50:13.526034 16501 net.cpp:91] Creating Layer conv4
I0815 15:50:13.526048 16501 net.cpp:425] conv4 <- Convolution38
I0815 15:50:13.526067 16501 net.cpp:399] conv4 -> Convolution39
I0815 15:50:13.559084 16501 net.cpp:141] Setting up conv4
I0815 15:50:13.559114 16501 net.cpp:148] Top shape: 100 384 4 4 (614400)
I0815 15:50:13.559123 16501 net.cpp:156] Memory required for data: 1308266000
I0815 15:50:13.559139 16501 layer_factory.hpp:77] Creating layer ReLU52
I0815 15:50:13.559154 16501 net.cpp:91] Creating Layer ReLU52
I0815 15:50:13.559165 16501 net.cpp:425] ReLU52 <- Convolution39
I0815 15:50:13.559180 16501 net.cpp:386] ReLU52 -> Convolution39 (in-place)
I0815 15:50:13.559195 16501 net.cpp:141] Setting up ReLU52
I0815 15:50:13.559206 16501 net.cpp:148] Top shape: 100 384 4 4 (614400)
I0815 15:50:13.559212 16501 net.cpp:156] Memory required for data: 1310723600
I0815 15:50:13.559221 16501 layer_factory.hpp:77] Creating layer conv5
I0815 15:50:13.559237 16501 net.cpp:91] Creating Layer conv5
I0815 15:50:13.559247 16501 net.cpp:425] conv5 <- Convolution39
I0815 15:50:13.559278 16501 net.cpp:399] conv5 -> Convolution40
I0815 15:50:13.581360 16501 net.cpp:141] Setting up conv5
I0815 15:50:13.581383 16501 net.cpp:148] Top shape: 100 256 4 4 (409600)
I0815 15:50:13.581392 16501 net.cpp:156] Memory required for data: 1312362000
I0815 15:50:13.581414 16501 layer_factory.hpp:77] Creating layer pool5
I0815 15:50:13.581429 16501 net.cpp:91] Creating Layer pool5
I0815 15:50:13.581437 16501 net.cpp:425] pool5 <- Convolution40
I0815 15:50:13.581454 16501 net.cpp:399] pool5 -> Pooling24
I0815 15:50:13.581528 16501 net.cpp:141] Setting up pool5
I0815 15:50:13.581543 16501 net.cpp:148] Top shape: 100 256 2 2 (102400)
I0815 15:50:13.581550 16501 net.cpp:156] Memory required for data: 1312771600
I0815 15:50:13.581558 16501 layer_factory.hpp:77] Creating layer InnerProduct21
I0815 15:50:13.581574 16501 net.cpp:91] Creating Layer InnerProduct21
I0815 15:50:13.581583 16501 net.cpp:425] InnerProduct21 <- Pooling24
I0815 15:50:13.581598 16501 net.cpp:399] InnerProduct21 -> InnerProduct21
I0815 15:50:13.584322 16501 net.cpp:141] Setting up InnerProduct21
I0815 15:50:13.584344 16501 net.cpp:148] Top shape: 100 256 (25600)
I0815 15:50:13.584352 16501 net.cpp:156] Memory required for data: 1312874000
I0815 15:50:13.584365 16501 net.cpp:484] Sharing parameters 'fc6_w' owned by layer 'InnerProduct1', param index 0
I0815 15:50:13.584377 16501 net.cpp:484] Sharing parameters 'fc6_b' owned by layer 'InnerProduct1', param index 1
I0815 15:50:13.584385 16501 layer_factory.hpp:77] Creating layer ReLU53
I0815 15:50:13.584398 16501 net.cpp:91] Creating Layer ReLU53
I0815 15:50:13.584405 16501 net.cpp:425] ReLU53 <- InnerProduct21
I0815 15:50:13.584420 16501 net.cpp:386] ReLU53 -> InnerProduct21 (in-place)
I0815 15:50:13.584434 16501 net.cpp:141] Setting up ReLU53
I0815 15:50:13.584444 16501 net.cpp:148] Top shape: 100 256 (25600)
I0815 15:50:13.584452 16501 net.cpp:156] Memory required for data: 1312976400
I0815 15:50:13.584460 16501 layer_factory.hpp:77] Creating layer InnerProduct22
I0815 15:50:13.584472 16501 net.cpp:91] Creating Layer InnerProduct22
I0815 15:50:13.584481 16501 net.cpp:425] InnerProduct22 <- InnerProduct21
I0815 15:50:13.584496 16501 net.cpp:399] InnerProduct22 -> InnerProduct22
I0815 15:50:13.585172 16501 net.cpp:141] Setting up InnerProduct22
I0815 15:50:13.585187 16501 net.cpp:148] Top shape: 100 256 (25600)
I0815 15:50:13.585196 16501 net.cpp:156] Memory required for data: 1313078800
I0815 15:50:13.585268 16501 net.cpp:484] Sharing parameters 'fc7_w' owned by layer 'InnerProduct2', param index 0
I0815 15:50:13.585283 16501 net.cpp:484] Sharing parameters 'fc7_b' owned by layer 'InnerProduct2', param index 1
I0815 15:50:13.585290 16501 layer_factory.hpp:77] Creating layer ReLU54
I0815 15:50:13.585305 16501 net.cpp:91] Creating Layer ReLU54
I0815 15:50:13.585314 16501 net.cpp:425] ReLU54 <- InnerProduct22
I0815 15:50:13.585325 16501 net.cpp:386] ReLU54 -> InnerProduct22 (in-place)
I0815 15:50:13.585338 16501 net.cpp:141] Setting up ReLU54
I0815 15:50:13.585348 16501 net.cpp:148] Top shape: 100 256 (25600)
I0815 15:50:13.585356 16501 net.cpp:156] Memory required for data: 1313181200
I0815 15:50:13.585363 16501 layer_factory.hpp:77] Creating layer Concat4
I0815 15:50:13.585376 16501 net.cpp:91] Creating Layer Concat4
I0815 15:50:13.585383 16501 net.cpp:425] Concat4 <- InnerProduct20
I0815 15:50:13.585393 16501 net.cpp:425] Concat4 <- InnerProduct22
I0815 15:50:13.585407 16501 net.cpp:399] Concat4 -> Concat4
I0815 15:50:13.585448 16501 net.cpp:141] Setting up Concat4
I0815 15:50:13.585460 16501 net.cpp:148] Top shape: 100 512 (51200)
I0815 15:50:13.585469 16501 net.cpp:156] Memory required for data: 1313386000
I0815 15:50:13.585475 16501 layer_factory.hpp:77] Creating layer InnerProduct23
I0815 15:50:13.585487 16501 net.cpp:91] Creating Layer InnerProduct23
I0815 15:50:13.585495 16501 net.cpp:425] InnerProduct23 <- Concat4
I0815 15:50:13.585507 16501 net.cpp:399] InnerProduct23 -> InnerProduct23
I0815 15:50:13.587257 16501 net.cpp:141] Setting up InnerProduct23
I0815 15:50:13.587286 16501 net.cpp:148] Top shape: 100 256 (25600)
I0815 15:50:13.587294 16501 net.cpp:156] Memory required for data: 1313488400
I0815 15:50:13.587304 16501 net.cpp:484] Sharing parameters 'fc8_w' owned by layer 'InnerProduct5', param index 0
I0815 15:50:13.587314 16501 net.cpp:484] Sharing parameters 'fc8_b' owned by layer 'InnerProduct5', param index 1
I0815 15:50:13.587322 16501 layer_factory.hpp:77] Creating layer ReLU55
I0815 15:50:13.587333 16501 net.cpp:91] Creating Layer ReLU55
I0815 15:50:13.587342 16501 net.cpp:425] ReLU55 <- InnerProduct23
I0815 15:50:13.587357 16501 net.cpp:386] ReLU55 -> InnerProduct23 (in-place)
I0815 15:50:13.587371 16501 net.cpp:141] Setting up ReLU55
I0815 15:50:13.587381 16501 net.cpp:148] Top shape: 100 256 (25600)
I0815 15:50:13.587389 16501 net.cpp:156] Memory required for data: 1313590800
I0815 15:50:13.587396 16501 layer_factory.hpp:77] Creating layer InnerProduct24
I0815 15:50:13.587409 16501 net.cpp:91] Creating Layer InnerProduct24
I0815 15:50:13.587417 16501 net.cpp:425] InnerProduct24 <- InnerProduct23
I0815 15:50:13.587430 16501 net.cpp:399] InnerProduct24 -> InnerProduct24
I0815 15:50:13.587831 16501 net.cpp:141] Setting up InnerProduct24
I0815 15:50:13.587846 16501 net.cpp:148] Top shape: 100 128 (12800)
I0815 15:50:13.587853 16501 net.cpp:156] Memory required for data: 1313642000
I0815 15:50:13.587862 16501 net.cpp:484] Sharing parameters 'fc9_w' owned by layer 'InnerProduct6', param index 0
I0815 15:50:13.587872 16501 net.cpp:484] Sharing parameters 'fc9_b' owned by layer 'InnerProduct6', param index 1
I0815 15:50:13.587879 16501 layer_factory.hpp:77] Creating layer ReLU56
I0815 15:50:13.587889 16501 net.cpp:91] Creating Layer ReLU56
I0815 15:50:13.587898 16501 net.cpp:425] ReLU56 <- InnerProduct24
I0815 15:50:13.587908 16501 net.cpp:386] ReLU56 -> InnerProduct24 (in-place)
I0815 15:50:13.587921 16501 net.cpp:141] Setting up ReLU56
I0815 15:50:13.587931 16501 net.cpp:148] Top shape: 100 128 (12800)
I0815 15:50:13.587939 16501 net.cpp:156] Memory required for data: 1313693200
I0815 15:50:13.587946 16501 layer_factory.hpp:77] Creating layer dt3
I0815 15:50:13.587960 16501 net.cpp:91] Creating Layer dt3
I0815 15:50:13.587967 16501 net.cpp:425] dt3 <- InnerProduct24
I0815 15:50:13.587983 16501 net.cpp:399] dt3 -> dt3
I0815 15:50:13.588136 16501 net.cpp:141] Setting up dt3
I0815 15:50:13.588150 16501 net.cpp:148] Top shape: 100 1 (100)
I0815 15:50:13.588176 16501 net.cpp:156] Memory required for data: 1313693600
I0815 15:50:13.588186 16501 net.cpp:484] Sharing parameters 'fc10_w' owned by layer 'dt0', param index 0
I0815 15:50:13.588196 16501 net.cpp:484] Sharing parameters 'fc10_b' owned by layer 'dt0', param index 1
I0815 15:50:13.588203 16501 layer_factory.hpp:77] Creating layer conv1
I0815 15:50:13.588219 16501 net.cpp:91] Creating Layer conv1
I0815 15:50:13.588227 16501 net.cpp:425] conv1 <- p1_p1_0_split_4
I0815 15:50:13.588241 16501 net.cpp:399] conv1 -> Convolution41
I0815 15:50:13.590878 16501 net.cpp:141] Setting up conv1
I0815 15:50:13.590898 16501 net.cpp:148] Top shape: 100 96 17 17 (2774400)
I0815 15:50:13.590906 16501 net.cpp:156] Memory required for data: 1324791200
I0815 15:50:13.590922 16501 layer_factory.hpp:77] Creating layer ReLU57
I0815 15:50:13.590934 16501 net.cpp:91] Creating Layer ReLU57
I0815 15:50:13.590944 16501 net.cpp:425] ReLU57 <- Convolution41
I0815 15:50:13.590958 16501 net.cpp:386] ReLU57 -> Convolution41 (in-place)
I0815 15:50:13.590972 16501 net.cpp:141] Setting up ReLU57
I0815 15:50:13.590982 16501 net.cpp:148] Top shape: 100 96 17 17 (2774400)
I0815 15:50:13.590991 16501 net.cpp:156] Memory required for data: 1335888800
I0815 15:50:13.590997 16501 layer_factory.hpp:77] Creating layer norm1
I0815 15:50:13.591009 16501 net.cpp:91] Creating Layer norm1
I0815 15:50:13.591020 16501 net.cpp:425] norm1 <- Convolution41
I0815 15:50:13.591033 16501 net.cpp:399] norm1 -> LRN17
I0815 15:50:13.591091 16501 net.cpp:141] Setting up norm1
I0815 15:50:13.591109 16501 net.cpp:148] Top shape: 100 96 17 17 (2774400)
I0815 15:50:13.591116 16501 net.cpp:156] Memory required for data: 1346986400
I0815 15:50:13.591123 16501 layer_factory.hpp:77] Creating layer pool1
I0815 15:50:13.591135 16501 net.cpp:91] Creating Layer pool1
I0815 15:50:13.591142 16501 net.cpp:425] pool1 <- LRN17
I0815 15:50:13.591155 16501 net.cpp:399] pool1 -> Pooling25
I0815 15:50:13.591215 16501 net.cpp:141] Setting up pool1
I0815 15:50:13.591228 16501 net.cpp:148] Top shape: 100 96 8 8 (614400)
I0815 15:50:13.591236 16501 net.cpp:156] Memory required for data: 1349444000
I0815 15:50:13.591243 16501 layer_factory.hpp:77] Creating layer conv2
I0815 15:50:13.591261 16501 net.cpp:91] Creating Layer conv2
I0815 15:50:13.591269 16501 net.cpp:425] conv2 <- Pooling25
I0815 15:50:13.591301 16501 net.cpp:399] conv2 -> Convolution42
I0815 15:50:13.606930 16501 net.cpp:141] Setting up conv2
I0815 15:50:13.606956 16501 net.cpp:148] Top shape: 100 256 8 8 (1638400)
I0815 15:50:13.606964 16501 net.cpp:156] Memory required for data: 1355997600
I0815 15:50:13.606988 16501 layer_factory.hpp:77] Creating layer ReLU58
I0815 15:50:13.607000 16501 net.cpp:91] Creating Layer ReLU58
I0815 15:50:13.607010 16501 net.cpp:425] ReLU58 <- Convolution42
I0815 15:50:13.607022 16501 net.cpp:386] ReLU58 -> Convolution42 (in-place)
I0815 15:50:13.607035 16501 net.cpp:141] Setting up ReLU58
I0815 15:50:13.607053 16501 net.cpp:148] Top shape: 100 256 8 8 (1638400)
I0815 15:50:13.607059 16501 net.cpp:156] Memory required for data: 1362551200
I0815 15:50:13.607066 16501 layer_factory.hpp:77] Creating layer norm2
I0815 15:50:13.607081 16501 net.cpp:91] Creating Layer norm2
I0815 15:50:13.607090 16501 net.cpp:425] norm2 <- Convolution42
I0815 15:50:13.607102 16501 net.cpp:399] norm2 -> LRN18
I0815 15:50:13.607167 16501 net.cpp:141] Setting up norm2
I0815 15:50:13.607180 16501 net.cpp:148] Top shape: 100 256 8 8 (1638400)
I0815 15:50:13.607188 16501 net.cpp:156] Memory required for data: 1369104800
I0815 15:50:13.607195 16501 layer_factory.hpp:77] Creating layer pool2
I0815 15:50:13.607206 16501 net.cpp:91] Creating Layer pool2
I0815 15:50:13.607214 16501 net.cpp:425] pool2 <- LRN18
I0815 15:50:13.607228 16501 net.cpp:399] pool2 -> Pooling26
I0815 15:50:13.607292 16501 net.cpp:141] Setting up pool2
I0815 15:50:13.607311 16501 net.cpp:148] Top shape: 100 256 4 4 (409600)
I0815 15:50:13.607317 16501 net.cpp:156] Memory required for data: 1370743200
I0815 15:50:13.607326 16501 layer_factory.hpp:77] Creating layer conv3
I0815 15:50:13.607362 16501 net.cpp:91] Creating Layer conv3
I0815 15:50:13.607373 16501 net.cpp:425] conv3 <- Pooling26
I0815 15:50:13.607390 16501 net.cpp:399] conv3 -> Convolution43
I0815 15:50:13.651294 16501 net.cpp:141] Setting up conv3
I0815 15:50:13.651330 16501 net.cpp:148] Top shape: 100 384 4 4 (614400)
I0815 15:50:13.651338 16501 net.cpp:156] Memory required for data: 1373200800
I0815 15:50:13.651355 16501 layer_factory.hpp:77] Creating layer ReLU59
I0815 15:50:13.651370 16501 net.cpp:91] Creating Layer ReLU59
I0815 15:50:13.651422 16501 net.cpp:425] ReLU59 <- Convolution43
I0815 15:50:13.651446 16501 net.cpp:386] ReLU59 -> Convolution43 (in-place)
I0815 15:50:13.651466 16501 net.cpp:141] Setting up ReLU59
I0815 15:50:13.651478 16501 net.cpp:148] Top shape: 100 384 4 4 (614400)
I0815 15:50:13.651485 16501 net.cpp:156] Memory required for data: 1375658400
I0815 15:50:13.651494 16501 layer_factory.hpp:77] Creating layer conv4
I0815 15:50:13.651516 16501 net.cpp:91] Creating Layer conv4
I0815 15:50:13.651527 16501 net.cpp:425] conv4 <- Convolution43
I0815 15:50:13.651543 16501 net.cpp:399] conv4 -> Convolution44
I0815 15:50:13.684695 16501 net.cpp:141] Setting up conv4
I0815 15:50:13.684732 16501 net.cpp:148] Top shape: 100 384 4 4 (614400)
I0815 15:50:13.684738 16501 net.cpp:156] Memory required for data: 1378116000
I0815 15:50:13.684751 16501 layer_factory.hpp:77] Creating layer ReLU60
I0815 15:50:13.684772 16501 net.cpp:91] Creating Layer ReLU60
I0815 15:50:13.684793 16501 net.cpp:425] ReLU60 <- Convolution44
I0815 15:50:13.684803 16501 net.cpp:386] ReLU60 -> Convolution44 (in-place)
I0815 15:50:13.684818 16501 net.cpp:141] Setting up ReLU60
I0815 15:50:13.684824 16501 net.cpp:148] Top shape: 100 384 4 4 (614400)
I0815 15:50:13.684830 16501 net.cpp:156] Memory required for data: 1380573600
I0815 15:50:13.684836 16501 layer_factory.hpp:77] Creating layer conv5
I0815 15:50:13.684852 16501 net.cpp:91] Creating Layer conv5
I0815 15:50:13.684865 16501 net.cpp:425] conv5 <- Convolution44
I0815 15:50:13.684881 16501 net.cpp:399] conv5 -> Convolution45
I0815 15:50:13.706961 16501 net.cpp:141] Setting up conv5
I0815 15:50:13.706984 16501 net.cpp:148] Top shape: 100 256 4 4 (409600)
I0815 15:50:13.706992 16501 net.cpp:156] Memory required for data: 1382212000
I0815 15:50:13.707016 16501 layer_factory.hpp:77] Creating layer pool5
I0815 15:50:13.707034 16501 net.cpp:91] Creating Layer pool5
I0815 15:50:13.707044 16501 net.cpp:425] pool5 <- Convolution45
I0815 15:50:13.707058 16501 net.cpp:399] pool5 -> Pooling27
I0815 15:50:13.707135 16501 net.cpp:141] Setting up pool5
I0815 15:50:13.707149 16501 net.cpp:148] Top shape: 100 256 2 2 (102400)
I0815 15:50:13.707157 16501 net.cpp:156] Memory required for data: 1382621600
I0815 15:50:13.707165 16501 layer_factory.hpp:77] Creating layer InnerProduct25
I0815 15:50:13.707182 16501 net.cpp:91] Creating Layer InnerProduct25
I0815 15:50:13.707190 16501 net.cpp:425] InnerProduct25 <- Pooling27
…
I0815 15:50:16.799356 16501 net.cpp:91] Creating Layer ReLU237
I0815 15:50:16.799363 16501 net.cpp:425] ReLU237 <- InnerProduct101
I0815 15:50:16.799371 16501 net.cpp:386] ReLU237 -> InnerProduct101 (in-place)
I0815 15:50:16.799381 16501 net.cpp:141] Setting up ReLU237
I0815 15:50:16.799388 16501 net.cpp:148] Top shape: 100 256 (25600)
I0815 15:50:16.799393 16501 net.cpp:156] Memory required for data: 3123029600
I0815 15:50:16.799401 16501 layer_factory.hpp:77] Creating layer InnerProduct102
I0815 15:50:16.799410 16501 net.cpp:91] Creating Layer InnerProduct102
I0815 15:50:16.799417 16501 net.cpp:425] InnerProduct102 <- InnerProduct101
I0815 15:50:16.799427 16501 net.cpp:399] InnerProduct102 -> InnerProduct102
I0815 15:50:16.799813 16501 net.cpp:141] Setting up InnerProduct102
I0815 15:50:16.799823 16501 net.cpp:148] Top shape: 100 128 (12800)
I0815 15:50:16.799829 16501 net.cpp:156] Memory required for data: 3123080800
I0815 15:50:16.799835 16501 net.cpp:484] Sharing parameters 'fc9_w' owned by layer 'InnerProduct6', param index 0
I0815 15:50:16.799842 16501 net.cpp:484] Sharing parameters 'fc9_b' owned by layer 'InnerProduct6', param index 1
I0815 15:50:16.799849 16501 layer_factory.hpp:77] Creating layer ReLU238
I0815 15:50:16.799856 16501 net.cpp:91] Creating Layer ReLU238
I0815 15:50:16.799862 16501 net.cpp:425] ReLU238 <- InnerProduct102
I0815 15:50:16.799875 16501 net.cpp:386] ReLU238 -> InnerProduct102 (in-place)
I0815 15:50:16.799885 16501 net.cpp:141] Setting up ReLU238
I0815 15:50:16.799891 16501 net.cpp:148] Top shape: 100 128 (12800)
I0815 15:50:16.799897 16501 net.cpp:156] Memory required for data: 3123132000
I0815 15:50:16.799902 16501 layer_factory.hpp:77] Creating layer dt16
I0815 15:50:16.799911 16501 net.cpp:91] Creating Layer dt16
I0815 15:50:16.799917 16501 net.cpp:425] dt16 <- InnerProduct102
I0815 15:50:16.799928 16501 net.cpp:399] dt16 -> dt16
I0815 15:50:16.800057 16501 net.cpp:141] Setting up dt16
I0815 15:50:16.800068 16501 net.cpp:148] Top shape: 100 1 (100)
I0815 15:50:16.800086 16501 net.cpp:156] Memory required for data: 3123132400
I0815 15:50:16.800091 16501 net.cpp:484] Sharing parameters 'fc10_w' owned by layer 'dt0', param index 0
I0815 15:50:16.800098 16501 net.cpp:484] Sharing parameters 'fc10_b' owned by layer 'dt0', param index 1
I0815 15:50:16.800104 16501 layer_factory.hpp:77] Creating layer conv1
I0815 15:50:16.800117 16501 net.cpp:91] Creating Layer conv1
I0815 15:50:16.800124 16501 net.cpp:425] conv1 <- p2_p2_0_split_8
I0815 15:50:16.800137 16501 net.cpp:399] conv1 -> Convolution171
I0815 15:50:16.802770 16501 net.cpp:141] Setting up conv1
I0815 15:50:16.802795 16501 net.cpp:148] Top shape: 100 96 17 17 (2774400)
I0815 15:50:16.802801 16501 net.cpp:156] Memory required for data: 3134230000
I0815 15:50:16.802812 16501 layer_factory.hpp:77] Creating layer ReLU239
I0815 15:50:16.802824 16501 net.cpp:91] Creating Layer ReLU239
I0815 15:50:16.802831 16501 net.cpp:425] ReLU239 <- Convolution171
I0815 15:50:16.802840 16501 net.cpp:386] ReLU239 -> Convolution171 (in-place)
I0815 15:50:16.802861 16501 net.cpp:141] Setting up ReLU239
I0815 15:50:16.802870 16501 net.cpp:148] Top shape: 100 96 17 17 (2774400)
I0815 15:50:16.802878 16501 net.cpp:156] Memory required for data: 3145327600
I0815 15:50:16.802884 16501 layer_factory.hpp:77] Creating layer norm1
I0815 15:50:16.802896 16501 net.cpp:91] Creating Layer norm1
I0815 15:50:16.802901 16501 net.cpp:425] norm1 <- Convolution171
I0815 15:50:16.802912 16501 net.cpp:399] norm1 -> LRN69
I0815 15:50:16.802964 16501 net.cpp:141] Setting up norm1
I0815 15:50:16.802974 16501 net.cpp:148] Top shape: 100 96 17 17 (2774400)
I0815 15:50:16.802979 16501 net.cpp:156] Memory required for data: 3156425200
I0815 15:50:16.802985 16501 layer_factory.hpp:77] Creating layer pool1
I0815 15:50:16.802994 16501 net.cpp:91] Creating Layer pool1
I0815 15:50:16.803000 16501 net.cpp:425] pool1 <- LRN69
I0815 15:50:16.803011 16501 net.cpp:399] pool1 -> Pooling103
I0815 15:50:16.803061 16501 net.cpp:141] Setting up pool1
I0815 15:50:16.803071 16501 net.cpp:148] Top shape: 100 96 8 8 (614400)
I0815 15:50:16.803076 16501 net.cpp:156] Memory required for data: 3158882800
I0815 15:50:16.803081 16501 layer_factory.hpp:77] Creating layer conv2
I0815 15:50:16.803097 16501 net.cpp:91] Creating Layer conv2
I0815 15:50:16.803107 16501 net.cpp:425] conv2 <- Pooling103
I0815 15:50:16.803115 16501 net.cpp:399] conv2 -> Convolution172
I0815 15:50:16.818467 16501 net.cpp:141] Setting up conv2
I0815 15:50:16.818496 16501 net.cpp:148] Top shape: 100 256 8 8 (1638400)
I0815 15:50:16.818502 16501 net.cpp:156] Memory required for data: 3165436400
I0815 15:50:16.818513 16501 layer_factory.hpp:77] Creating layer ReLU240
I0815 15:50:16.818522 16501 net.cpp:91] Creating Layer ReLU240
I0815 15:50:16.818531 16501 net.cpp:425] ReLU240 <- Convolution172
I0815 15:50:16.818541 16501 net.cpp:386] ReLU240 -> Convolution172 (in-place)
I0815 15:50:16.818559 16501 net.cpp:141] Setting up ReLU240
I0815 15:50:16.818567 16501 net.cpp:148] Top shape: 100 256 8 8 (1638400)
I0815 15:50:16.818577 16501 net.cpp:156] Memory required for data: 3171990000
I0815 15:50:16.818581 16501 layer_factory.hpp:77] Creating layer norm2
I0815 15:50:16.818590 16501 net.cpp:91] Creating Layer norm2
I0815 15:50:16.818596 16501 net.cpp:425] norm2 <- Convolution172
I0815 15:50:16.818608 16501 net.cpp:399] norm2 -> LRN70
I0815 15:50:16.818657 16501 net.cpp:141] Setting up norm2
I0815 15:50:16.818667 16501 net.cpp:148] Top shape: 100 256 8 8 (1638400)
I0815 15:50:16.818673 16501 net.cpp:156] Memory required for data: 3178543600
I0815 15:50:16.818678 16501 layer_factory.hpp:77] Creating layer pool2
I0815 15:50:16.818689 16501 net.cpp:91] Creating Layer pool2
I0815 15:50:16.818696 16501 net.cpp:425] pool2 <- LRN70
I0815 15:50:16.818704 16501 net.cpp:399] pool2 -> Pooling104
I0815 15:50:16.818756 16501 net.cpp:141] Setting up pool2
I0815 15:50:16.818766 16501 net.cpp:148] Top shape: 100 256 4 4 (409600)
I0815 15:50:16.818773 16501 net.cpp:156] Memory required for data: 3180182000
I0815 15:50:16.818794 16501 layer_factory.hpp:77] Creating layer conv3
I0815 15:50:16.818809 16501 net.cpp:91] Creating Layer conv3
I0815 15:50:16.818816 16501 net.cpp:425] conv3 <- Pooling104
I0815 15:50:16.818828 16501 net.cpp:399] conv3 -> Convolution173
I0815 15:50:16.862581 16501 net.cpp:141] Setting up conv3
I0815 15:50:16.862619 16501 net.cpp:148] Top shape: 100 384 4 4 (614400)
I0815 15:50:16.862625 16501 net.cpp:156] Memory required for data: 3182639600
I0815 15:50:16.862642 16501 layer_factory.hpp:77] Creating layer ReLU241
I0815 15:50:16.862654 16501 net.cpp:91] Creating Layer ReLU241
I0815 15:50:16.862665 16501 net.cpp:425] ReLU241 <- Convolution173
I0815 15:50:16.862684 16501 net.cpp:386] ReLU241 -> Convolution173 (in-place)
I0815 15:50:16.862697 16501 net.cpp:141] Setting up ReLU241
I0815 15:50:16.862704 16501 net.cpp:148] Top shape: 100 384 4 4 (614400)
I0815 15:50:16.862710 16501 net.cpp:156] Memory required for data: 3185097200
I0815 15:50:16.862715 16501 layer_factory.hpp:77] Creating layer conv4
I0815 15:50:16.862732 16501 net.cpp:91] Creating Layer conv4
I0815 15:50:16.862738 16501 net.cpp:425] conv4 <- Convolution173
I0815 15:50:16.862756 16501 net.cpp:399] conv4 -> Convolution174
I0815 15:50:16.895799 16501 net.cpp:141] Setting up conv4
I0815 15:50:16.895835 16501 net.cpp:148] Top shape: 100 384 4 4 (614400)
I0815 15:50:16.895841 16501 net.cpp:156] Memory required for data: 3187554800
I0815 15:50:16.895853 16501 layer_factory.hpp:77] Creating layer ReLU242
I0815 15:50:16.895866 16501 net.cpp:91] Creating Layer ReLU242
I0815 15:50:16.895875 16501 net.cpp:425] ReLU242 <- Convolution174
I0815 15:50:16.895897 16501 net.cpp:386] ReLU242 -> Convolution174 (in-place)
I0815 15:50:16.895911 16501 net.cpp:141] Setting up ReLU242
I0815 15:50:16.895918 16501 net.cpp:148] Top shape: 100 384 4 4 (614400)
I0815 15:50:16.895925 16501 net.cpp:156] Memory required for data: 3190012400
I0815 15:50:16.895930 16501 layer_factory.hpp:77] Creating layer conv5
I0815 15:50:16.895946 16501 net.cpp:91] Creating Layer conv5
I0815 15:50:16.895952 16501 net.cpp:425] conv5 <- Convolution174
I0815 15:50:16.895962 16501 net.cpp:399] conv5 -> Convolution175
I0815 15:50:16.918066 16501 net.cpp:141] Setting up conv5
I0815 15:50:16.918097 16501 net.cpp:148] Top shape: 100 256 4 4 (409600)
I0815 15:50:16.918108 16501 net.cpp:156] Memory required for data: 3191650800
I0815 15:50:16.918123 16501 layer_factory.hpp:77] Creating layer pool5
I0815 15:50:16.918138 16501 net.cpp:91] Creating Layer pool5
I0815 15:50:16.918148 16501 net.cpp:425] pool5 <- Convolution175
I0815 15:50:16.918169 16501 net.cpp:399] pool5 -> Pooling105
I0815 15:50:16.918298 16501 net.cpp:141] Setting up pool5
I0815 15:50:16.918316 16501 net.cpp:148] Top shape: 100 256 2 2 (102400)
I0815 15:50:16.918325 16501 net.cpp:156] Memory required for data: 3192060400
I0815 15:50:16.918334 16501 layer_factory.hpp:77] Creating layer InnerProduct103
I0815 15:50:16.918349 16501 net.cpp:91] Creating Layer InnerProduct103
I0815 15:50:16.918385 16501 net.cpp:425] InnerProduct103 <- Pooling105
I0815 15:50:16.918407 16501 net.cpp:399] InnerProduct103 -> InnerProduct103
I0815 15:50:16.921208 16501 net.cpp:141] Setting up InnerProduct103
I0815 15:50:16.921231 16501 net.cpp:148] Top shape: 100 256 (25600)
I0815 15:50:16.921238 16501 net.cpp:156] Memory required for data: 3192162800
I0815 15:50:16.921249 16501 net.cpp:484] Sharing parameters 'fc6_w' owned by layer 'InnerProduct1', param index 0
I0815 15:50:16.921260 16501 net.cpp:484] Sharing parameters 'fc6_b' owned by layer 'InnerProduct1', param index 1
I0815 15:50:16.921269 16501 layer_factory.hpp:77] Creating layer ReLU243
I0815 15:50:16.921280 16501 net.cpp:91] Creating Layer ReLU243
I0815 15:50:16.921289 16501 net.cpp:425] ReLU243 <- InnerProduct103
I0815 15:50:16.921304 16501 net.cpp:386] ReLU243 -> InnerProduct103 (in-place)
I0815 15:50:16.921319 16501 net.cpp:141] Setting up ReLU243
I0815 15:50:16.921329 16501 net.cpp:148] Top shape: 100 256 (25600)
I0815 15:50:16.921337 16501 net.cpp:156] Memory required for data: 3192265200
I0815 15:50:16.921361 16501 layer_factory.hpp:77] Creating layer InnerProduct104
I0815 15:50:16.921375 16501 net.cpp:91] Creating Layer InnerProduct104
I0815 15:50:16.921385 16501 net.cpp:425] InnerProduct104 <- InnerProduct103
I0815 15:50:16.921399 16501 net.cpp:399] InnerProduct104 -> InnerProduct104
I0815 15:50:16.922066 16501 net.cpp:141] Setting up InnerProduct104
I0815 15:50:16.922081 16501 net.cpp:148] Top shape: 100 256 (25600)
I0815 15:50:16.922091 16501 net.cpp:156] Memory required for data: 3192367600
I0815 15:50:16.922098 16501 net.cpp:484] Sharing parameters 'fc7_w' owned by layer 'InnerProduct2', param index 0
I0815 15:50:16.922108 16501 net.cpp:484] Sharing parameters 'fc7_b' owned by layer 'InnerProduct2', param index 1
I0815 15:50:16.922116 16501 layer_factory.hpp:77] Creating layer ReLU244
I0815 15:50:16.922130 16501 net.cpp:91] Creating Layer ReLU244
I0815 15:50:16.922139 16501 net.cpp:425] ReLU244 <- InnerProduct104
I0815 15:50:16.922150 16501 net.cpp:386] ReLU244 -> InnerProduct104 (in-place)
I0815 15:50:16.922163 16501 net.cpp:141] Setting up ReLU244
I0815 15:50:16.922173 16501 net.cpp:148] Top shape: 100 256 (25600)
I0815 15:50:16.922180 16501 net.cpp:156] Memory required for data: 3192470000
I0815 15:50:16.922188 16501 layer_factory.hpp:77] Creating layer conv1
I0815 15:50:16.922205 16501 net.cpp:91] Creating Layer conv1
I0815 15:50:16.922214 16501 net.cpp:425] conv1 <- c18
I0815 15:50:16.922231 16501 net.cpp:399] conv1 -> Convolution176
I0815 15:50:16.924283 16501 net.cpp:141] Setting up conv1
I0815 15:50:16.924299 16501 net.cpp:148] Top shape: 100 96 17 17 (2774400)
I0815 15:50:16.924312 16501 net.cpp:156] Memory required for data: 3203567600
I0815 15:50:16.924326 16501 layer_factory.hpp:77] Creating layer ReLU245
I0815 15:50:16.924337 16501 net.cpp:91] Creating Layer ReLU245
I0815 15:50:16.924346 16501 net.cpp:425] ReLU245 <- Convolution176
I0815 15:50:16.924357 16501 net.cpp:386] ReLU245 -> Convolution176 (in-place)
I0815 15:50:16.924371 16501 net.cpp:141] Setting up ReLU245
I0815 15:50:16.924381 16501 net.cpp:148] Top shape: 100 96 17 17 (2774400)
I0815 15:50:16.924388 16501 net.cpp:156] Memory required for data: 3214665200
I0815 15:50:16.924396 16501 layer_factory.hpp:77] Creating layer norm1
I0815 15:50:16.924412 16501 net.cpp:91] Creating Layer norm1
I0815 15:50:16.924419 16501 net.cpp:425] norm1 <- Convolution176
I0815 15:50:16.924432 16501 net.cpp:399] norm1 -> LRN71
I0815 15:50:16.924489 16501 net.cpp:141] Setting up norm1
I0815 15:50:16.924504 16501 net.cpp:148] Top shape: 100 96 17 17 (2774400)
I0815 15:50:16.924511 16501 net.cpp:156] Memory required for data: 3225762800
I0815 15:50:16.924518 16501 layer_factory.hpp:77] Creating layer pool1
I0815 15:50:16.924532 16501 net.cpp:91] Creating Layer pool1
I0815 15:50:16.924540 16501 net.cpp:425] pool1 <- LRN71
I0815 15:50:16.924556 16501 net.cpp:399] pool1 -> Pooling106
I0815 15:50:16.924613 16501 net.cpp:141] Setting up pool1
I0815 15:50:16.924626 16501 net.cpp:148] Top shape: 100 96 8 8 (614400)
I0815 15:50:16.924634 16501 net.cpp:156] Memory required for data: 3228220400
I0815 15:50:16.924641 16501 layer_factory.hpp:77] Creating layer conv2
I0815 15:50:16.924659 16501 net.cpp:91] Creating Layer conv2
I0815 15:50:16.924669 16501 net.cpp:425] conv2 <- Pooling106
I0815 15:50:16.924685 16501 net.cpp:399] conv2 -> Convolution177
I0815 15:50:16.940253 16501 net.cpp:141] Setting up conv2
I0815 15:50:16.940274 16501 net.cpp:148] Top shape: 100 256 8 8 (1638400)
I0815 15:50:16.940281 16501 net.cpp:156] Memory required for data: 3234774000
I0815 15:50:16.940295 16501 layer_factory.hpp:77] Creating layer ReLU246
I0815 15:50:16.940311 16501 net.cpp:91] Creating Layer ReLU246
I0815 15:50:16.940320 16501 net.cpp:425] ReLU246 <- Convolution177
I0815 15:50:16.940332 16501 net.cpp:386] ReLU246 -> Convolution177 (in-place)
I0815 15:50:16.940346 16501 net.cpp:141] Setting up ReLU246
I0815 15:50:16.940356 16501 net.cpp:148] Top shape: 100 256 8 8 (1638400)
I0815 15:50:16.940364 16501 net.cpp:156] Memory required for data: 3241327600
I0815 15:50:16.940372 16501 layer_factory.hpp:77] Creating layer norm2
I0815 15:50:16.940400 16501 net.cpp:91] Creating Layer norm2
I0815 15:50:16.940409 16501 net.cpp:425] norm2 <- Convolution177
I0815 15:50:16.940421 16501 net.cpp:399] norm2 -> LRN72
I0815 15:50:16.940482 16501 net.cpp:141] Setting up norm2
I0815 15:50:16.940497 16501 net.cpp:148] Top shape: 100 256 8 8 (1638400)
I0815 15:50:16.940505 16501 net.cpp:156] Memory required for data: 3247881200
I0815 15:50:16.940511 16501 layer_factory.hpp:77] Creating layer pool2
I0815 15:50:16.940522 16501 net.cpp:91] Creating Layer pool2
I0815 15:50:16.940531 16501 net.cpp:425] pool2 <- LRN72
I0815 15:50:16.940544 16501 net.cpp:399] pool2 -> Pooling107
I0815 15:50:16.940601 16501 net.cpp:141] Setting up pool2
I0815 15:50:16.940615 16501 net.cpp:148] Top shape: 100 256 4 4 (409600)
I0815 15:50:16.940623 16501 net.cpp:156] Memory required for data: 3249519600
I0815 15:50:16.940630 16501 layer_factory.hpp:77] Creating layer conv3
I0815 15:50:16.940651 16501 net.cpp:91] Creating Layer conv3
I0815 15:50:16.940663 16501 net.cpp:425] conv3 <- Pooling107
I0815 15:50:16.940677 16501 net.cpp:399] conv3 -> Convolution178
I0815 15:50:16.984493 16501 net.cpp:141] Setting up conv3
I0815 15:50:16.984524 16501 net.cpp:148] Top shape: 100 384 4 4 (614400)
I0815 15:50:16.984540 16501 net.cpp:156] Memory required for data: 3251977200
I0815 15:50:16.984557 16501 layer_factory.hpp:77] Creating layer ReLU247
I0815 15:50:16.984572 16501 net.cpp:91] Creating Layer ReLU247
I0815 15:50:16.984583 16501 net.cpp:425] ReLU247 <- Convolution178
I0815 15:50:16.984609 16501 net.cpp:386] ReLU247 -> Convolution178 (in-place)
I0815 15:50:16.984627 16501 net.cpp:141] Setting up ReLU247
I0815 15:50:16.984642 16501 net.cpp:148] Top shape: 100 384 4 4 (614400)
I0815 15:50:16.984649 16501 net.cpp:156] Memory required for data: 3254434800
I0815 15:50:16.984658 16501 layer_factory.hpp:77] Creating layer conv4
I0815 15:50:16.984678 16501 net.cpp:91] Creating Layer conv4
I0815 15:50:16.984686 16501 net.cpp:425] conv4 <- Convolution178
I0815 15:50:16.984700 16501 net.cpp:399] conv4 -> Convolution179
I0815 15:50:17.017935 16501 net.cpp:141] Setting up conv4
I0815 15:50:17.017967 16501 net.cpp:148] Top shape: 100 384 4 4 (614400)
I0815 15:50:17.017976 16501 net.cpp:156] Memory required for data: 3256892400
I0815 15:50:17.017992 16501 layer_factory.hpp:77] Creating layer ReLU248
I0815 15:50:17.018010 16501 net.cpp:91] Creating Layer ReLU248
I0815 15:50:17.018021 16501 net.cpp:425] ReLU248 <- Convolution179
I0815 15:50:17.018034 16501 net.cpp:386] ReLU248 -> Convolution179 (in-place)
I0815 15:50:17.018050 16501 net.cpp:141] Setting up ReLU248
I0815 15:50:17.018060 16501 net.cpp:148] Top shape: 100 384 4 4 (614400)
I0815 15:50:17.018069 16501 net.cpp:156] Memory required for data: 3259350000
I0815 15:50:17.018076 16501 layer_factory.hpp:77] Creating layer conv5
I0815 15:50:17.018102 16501 net.cpp:91] Creating Layer conv5
I0815 15:50:17.018113 16501 net.cpp:425] conv5 <- Convolution179
I0815 15:50:17.018131 16501 net.cpp:399] conv5 -> Convolution180
I0815 15:50:17.040093 16501 net.cpp:141] Setting up conv5
I0815 15:50:17.040117 16501 net.cpp:148] Top shape: 100 256 4 4 (409600)
I0815 15:50:17.040123 16501 net.cpp:156] Memory required for data: 3260988400
I0815 15:50:17.040146 16501 layer_factory.hpp:77] Creating layer pool5
I0815 15:50:17.040165 16501 net.cpp:91] Creating Layer pool5
I0815 15:50:17.040175 16501 net.cpp:425] pool5 <- Convolution180
I0815 15:50:17.040189 16501 net.cpp:399] pool5 -> Pooling108
I0815 15:50:17.040263 16501 net.cpp:141] Setting up pool5
I0815 15:50:17.040278 16501 net.cpp:148] Top shape: 100 256 2 2 (102400)
I0815 15:50:17.040287 16501 net.cpp:156] Memory required for data: 3261398000
I0815 15:50:17.040293 16501 layer_factory.hpp:77] Creating layer InnerProduct105
I0815 15:50:17.040307 16501 net.cpp:91] Creating Layer InnerProduct105
I0815 15:50:17.040316 16501 net.cpp:425] InnerProduct105 <- Pooling108
I0815 15:50:17.040333 16501 net.cpp:399] InnerProduct105 -> InnerProduct105
I0815 15:50:17.043030 16501 net.cpp:141] Setting up InnerProduct105
I0815 15:50:17.043066 16501 net.cpp:148] Top shape: 100 256 (25600)
I0815 15:50:17.043083 16501 net.cpp:156] Memory required for data: 3261500400
I0815 15:50:17.043093 16501 net.cpp:484] Sharing parameters 'fc6_w' owned by layer 'InnerProduct1', param index 0
I0815 15:50:17.043104 16501 net.cpp:484] Sharing parameters 'fc6_b' owned by layer 'InnerProduct1', param index 1
I0815 15:50:17.043112 16501 layer_factory.hpp:77] Creating layer ReLU249
I0815 15:50:17.043125 16501 net.cpp:91] Creating Layer ReLU249
I0815 15:50:17.043135 16501 net.cpp:425] ReLU249 <- InnerProduct105
I0815 15:50:17.043154 16501 net.cpp:386] ReLU249 -> InnerProduct105 (in-place)
I0815 15:50:17.043169 16501 net.cpp:141] Setting up ReLU249
I0815 15:50:17.043179 16501 net.cpp:148] Top shape: 100 256 (25600)
I0815 15:50:17.043185 16501 net.cpp:156] Memory required for data: 3261602800
I0815 15:50:17.043193 16501 layer_factory.hpp:77] Creating layer InnerProduct106
I0815 15:50:17.043206 16501 net.cpp:91] Creating Layer InnerProduct106
I0815 15:50:17.043215 16501 net.cpp:425] InnerProduct106 <- InnerProduct105
I0815 15:50:17.043229 16501 net.cpp:399] InnerProduct106 -> InnerProduct106
I0815 15:50:17.043903 16501 net.cpp:141] Setting up InnerProduct106
I0815 15:50:17.043920 16501 net.cpp:148] Top shape: 100 256 (25600)
I0815 15:50:17.043926 16501 net.cpp:156] Memory required for data: 3261705200
I0815 15:50:17.043937 16501 net.cpp:484] Sharing parameters 'fc7_w' owned by layer 'InnerProduct2', param index 0
I0815 15:50:17.043947 16501 net.cpp:484] Sharing parameters 'fc7_b' owned by layer 'InnerProduct2', param index 1
I0815 15:50:17.043956 16501 layer_factory.hpp:77] Creating layer ReLU250
I0815 15:50:17.043965 16501 net.cpp:91] Creating Layer ReLU250
I0815 15:50:17.043973 16501 net.cpp:425] ReLU250 <- InnerProduct106
I0815 15:50:17.043984 16501 net.cpp:386] ReLU250 -> InnerProduct106 (in-place)
I0815 15:50:17.043998 16501 net.cpp:141] Setting up ReLU250
I0815 15:50:17.044008 16501 net.cpp:148] Top shape: 100 256 (25600)
I0815 15:50:17.044015 16501 net.cpp:156] Memory required for data: 3261807600
I0815 15:50:17.044023 16501 layer_factory.hpp:77] Creating layer Concat18
I0815 15:50:17.044034 16501 net.cpp:91] Creating Layer Concat18
I0815 15:50:17.044044 16501 net.cpp:425] Concat18 <- InnerProduct104
I0815 15:50:17.044054 16501 net.cpp:425] Concat18 <- InnerProduct106
I0815 15:50:17.044067 16501 net.cpp:399] Concat18 -> Concat18
I0815 15:50:17.044108 16501 net.cpp:141] Setting up Concat18
I0815 15:50:17.044122 16501 net.cpp:148] Top shape: 100 512 (51200)
I0815 15:50:17.044129 16501 net.cpp:156] Memory required for data: 3262012400
I0815 15:50:17.044137 16501 layer_factory.hpp:77] Creating layer InnerProduct107
I0815 15:50:17.044153 16501 net.cpp:91] Creating Layer InnerProduct107
I0815 15:50:17.044162 16501 net.cpp:425] InnerProduct107 <- Concat18
I0815 15:50:17.044174 16501 net.cpp:399] InnerProduct107 -> InnerProduct107
I0815 15:50:17.045883 16501 net.cpp:141] Setting up InnerProduct107
I0815 15:50:17.045903 16501 net.cpp:148] Top shape: 100 256 (25600)
I0815 15:50:17.045910 16501 net.cpp:156] Memory required for data: 3262114800
I0815 15:50:17.045920 16501 net.cpp:484] Sharing parameters 'fc8_w' owned by layer 'InnerProduct5', param index 0
I0815 15:50:17.045930 16501 net.cpp:484] Sharing parameters 'fc8_b' owned by layer 'InnerProduct5', param index 1
I0815 15:50:17.045938 16501 layer_factory.hpp:77] Creating layer ReLU251
I0815 15:50:17.045949 16501 net.cpp:91] Creating Layer ReLU251
I0815 15:50:17.045958 16501 net.cpp:425] ReLU251 <- InnerProduct107
I0815 15:50:17.045974 16501 net.cpp:386] ReLU251 -> InnerProduct107 (in-place)
I0815 15:50:17.045986 16501 net.cpp:141] Setting up ReLU251
I0815 15:50:17.045996 16501 net.cpp:148] Top shape: 100 256 (25600)
I0815 15:50:17.046003 16501 net.cpp:156] Memory required for data: 3262217200
I0815 15:50:17.046011 16501 layer_factory.hpp:77] Creating layer InnerProduct108
I0815 15:50:17.046025 16501 net.cpp:91] Creating Layer InnerProduct108
I0815 15:50:17.046032 16501 net.cpp:425] InnerProduct108 <- InnerProduct107
I0815 15:50:17.046062 16501 net.cpp:399] InnerProduct108 -> InnerProduct108
I0815 15:50:17.046463 16501 net.cpp:141] Setting up InnerProduct108
I0815 15:50:17.046478 16501 net.cpp:148] Top shape: 100 128 (12800)
I0815 15:50:17.046485 16501 net.cpp:156] Memory required for data: 3262268400
I0815 15:50:17.046494 16501 net.cpp:484] Sharing parameters 'fc9_w' owned by layer 'InnerProduct6', param index 0
I0815 15:50:17.046504 16501 net.cpp:484] Sharing parameters 'fc9_b' owned by layer 'InnerProduct6', param index 1
I0815 15:50:17.046512 16501 layer_factory.hpp:77] Creating layer ReLU252
I0815 15:50:17.046522 16501 net.cpp:91] Creating Layer ReLU252
I0815 15:50:17.046531 16501 net.cpp:425] ReLU252 <- InnerProduct108
I0815 15:50:17.046541 16501 net.cpp:386] ReLU252 -> InnerProduct108 (in-place)
I0815 15:50:17.046555 16501 net.cpp:141] Setting up ReLU252
I0815 15:50:17.046564 16501 net.cpp:148] Top shape: 100 128 (12800)
I0815 15:50:17.046571 16501 net.cpp:156] Memory required for data: 3262319600
I0815 15:50:17.046579 16501 layer_factory.hpp:77] Creating layer dt17
I0815 15:50:17.046591 16501 net.cpp:91] Creating Layer dt17
I0815 15:50:17.046599 16501 net.cpp:425] dt17 <- InnerProduct108
I0815 15:50:17.046617 16501 net.cpp:399] dt17 -> dt17
I0815 15:50:17.046761 16501 net.cpp:141] Setting up dt17
I0815 15:50:17.046777 16501 net.cpp:148] Top shape: 100 1 (100)
I0815 15:50:17.046783 16501 net.cpp:156] Memory required for data: 3262320000
I0815 15:50:17.046792 16501 net.cpp:484] Sharing parameters 'fc10_w' owned by layer 'dt0', param index 0
I0815 15:50:17.046800 16501 net.cpp:484] Sharing parameters 'fc10_b' owned by layer 'dt0', param index 1
I0815 15:50:17.046808 16501 layer_factory.hpp:77] Creating layer conv1
I0815 15:50:17.046824 16501 net.cpp:91] Creating Layer conv1
I0815 15:50:17.046833 16501 net.cpp:425] conv1 <- p2_p2_0_split_9
I0815 15:50:17.046849 16501 net.cpp:399] conv1 -> Convolution181
I0815 15:50:17.049500 16501 net.cpp:141] Setting up conv1
I0815 15:50:17.049521 16501 net.cpp:148] Top shape: 100 96 17 17 (2774400)
I0815 15:50:17.049530 16501 net.cpp:156] Memory required for data: 3273417600
I0815 15:50:17.049543 16501 layer_factory.hpp:77] Creating layer ReLU253
I0815 15:50:17.049556 16501 net.cpp:91] Creating Layer ReLU253
I0815 15:50:17.049564 16501 net.cpp:425] ReLU253 <- Convolution181
I0815 15:50:17.049581 16501 net.cpp:386] ReLU253 -> Convolution181 (in-place)
I0815 15:50:17.049594 16501 net.cpp:141] Setting up ReLU253
I0815 15:50:17.049604 16501 net.cpp:148] Top shape: 100 96 17 17 (2774400)
I0815 15:50:17.049612 16501 net.cpp:156] Memory required for data: 3284515200
I0815 15:50:17.049619 16501 layer_factory.hpp:77] Creating layer norm1
I0815 15:50:17.049634 16501 net.cpp:91] Creating Layer norm1
I0815 15:50:17.049643 16501 net.cpp:425] norm1 <- Convolution181
I0815 15:50:17.049655 16501 net.cpp:399] norm1 -> LRN73
I0815 15:50:17.049715 16501 net.cpp:141] Setting up norm1
I0815 15:50:17.049731 16501 net.cpp:148] Top shape: 100 96 17 17 (2774400)
I0815 15:50:17.049739 16501 net.cpp:156] Memory required for data: 3295612800
I0815 15:50:17.049746 16501 layer_factory.hpp:77] Creating layer pool1
I0815 15:50:17.049757 16501 net.cpp:91] Creating Layer pool1
I0815 15:50:17.049765 16501 net.cpp:425] pool1 <- LRN73
I0815 15:50:17.049777 16501 net.cpp:399] pool1 -> Pooling109
I0815 15:50:17.049836 16501 net.cpp:141] Setting up pool1
I0815 15:50:17.049850 16501 net.cpp:148] Top shape: 100 96 8 8 (614400)
I0815 15:50:17.049859 16501 net.cpp:156] Memory required for data: 3298070400
I0815 15:50:17.049866 16501 layer_factory.hpp:77] Creating layer conv2
I0815 15:50:17.049883 16501 net.cpp:91] Creating Layer conv2
I0815 15:50:17.049892 16501 net.cpp:425] conv2 <- Pooling109
I0815 15:50:17.049909 16501 net.cpp:399] conv2 -> Convolution182
I0815 15:50:17.065309 16501 net.cpp:141] Setting up conv2
I0815 15:50:17.065335 16501 net.cpp:148] Top shape: 100 256 8 8 (1638400)
I0815 15:50:17.065343 16501 net.cpp:156] Memory required for data: 3304624000
I0815 15:50:17.065358 16501 layer_factory.hpp:77] Creating layer ReLU254
I0815 15:50:17.065402 16501 net.cpp:91] Creating Layer ReLU254
I0815 15:50:17.065412 16501 net.cpp:425] ReLU254 <- Convolution182
I0815 15:50:17.065423 16501 net.cpp:386] ReLU254 -> Convolution182 (in-place)
I0815 15:50:17.065448 16501 net.cpp:141] Setting up ReLU254
I0815 15:50:17.065460 16501 net.cpp:148] Top shape: 100 256 8 8 (1638400)
I0815 15:50:17.065469 16501 net.cpp:156] Memory required for data: 3311177600
I0815 15:50:17.065476 16501 layer_factory.hpp:77] Creating layer norm2
I0815 15:50:17.065491 16501 net.cpp:91] Creating Layer norm2
I0815 15:50:17.065500 16501 net.cpp:425] norm2 <- Convolution182
I0815 15:50:17.065512 16501 net.cpp:399] norm2 -> LRN74
I0815 15:50:17.065573 16501 net.cpp:141] Setting up norm2
I0815 15:50:17.065588 16501 net.cpp:148] Top shape: 100 256 8 8 (1638400)
I0815 15:50:17.065595 16501 net.cpp:156] Memory required for data: 3317731200
I0815 15:50:17.065603 16501 layer_factory.hpp:77] Creating layer pool2
I0815 15:50:17.065613 16501 net.cpp:91] Creating Layer pool2
I0815 15:50:17.065621 16501 net.cpp:425] pool2 <- LRN74
I0815 15:50:17.065636 16501 net.cpp:399] pool2 -> Pooling110
I0815 15:50:17.065693 16501 net.cpp:141] Setting up pool2
I0815 15:50:17.065711 16501 net.cpp:148] Top shape: 100 256 4 4 (409600)
I0815 15:50:17.065719 16501 net.cpp:156] Memory required for data: 3319369600
I0815 15:50:17.065726 16501 layer_factory.hpp:77] Creating layer conv3
I0815 15:50:17.065742 16501 net.cpp:91] Creating Layer conv3
I0815 15:50:17.065750 16501 net.cpp:425] conv3 <- Pooling110
I0815 15:50:17.065767 16501 net.cpp:399] conv3 -> Convolution183
I0815 15:50:17.109333 16501 net.cpp:141] Setting up conv3
I0815 15:50:17.109364 16501 net.cpp:148] Top shape: 100 384 4 4 (614400)
I0815 15:50:17.109372 16501 net.cpp:156] Memory required for data: 3321827200
I0815 15:50:17.109395 16501 layer_factory.hpp:77] Creating layer ReLU255
I0815 15:50:17.109411 16501 net.cpp:91] Creating Layer ReLU255
I0815 15:50:17.109422 16501 net.cpp:425] ReLU255 <- Convolution183
I0815 15:50:17.109438 16501 net.cpp:386] ReLU255 -> Convolution183 (in-place)
I0815 15:50:17.109462 16501 net.cpp:141] Setting up ReLU255
I0815 15:50:17.109472 16501 net.cpp:148] Top shape: 100 384 4 4 (614400)
I0815 15:50:17.109479 16501 net.cpp:156] Memory required for data: 3324284800
I0815 15:50:17.109488 16501 layer_factory.hpp:77] Creating layer conv4
I0815 15:50:17.109508 16501 net.cpp:91] Creating Layer conv4
I0815 15:50:17.109516 16501 net.cpp:425] conv4 <- Convolution183
I0815 15:50:17.109530 16501 net.cpp:399] conv4 -> Convolution184
I0815 15:50:17.142704 16501 net.cpp:141] Setting up conv4
I0815 15:50:17.142735 16501 net.cpp:148] Top shape: 100 384 4 4 (614400)
I0815 15:50:17.142753 16501 net.cpp:156] Memory required for data: 3326742400
I0815 15:50:17.142770 16501 layer_factory.hpp:77] Creating layer ReLU256
I0815 15:50:17.142792 16501 net.cpp:91] Creating Layer ReLU256
I0815 15:50:17.142804 16501 net.cpp:425] ReLU256 <- Convolution184
I0815 15:50:17.142827 16501 net.cpp:386] ReLU256 -> Convolution184 (in-place)
I0815 15:50:17.142844 16501 net.cpp:141] Setting up ReLU256
I0815 15:50:17.142854 16501 net.cpp:148] Top shape: 100 384 4 4 (614400)
I0815 15:50:17.142863 16501 net.cpp:156] Memory required for data: 3329200000
I0815 15:50:17.142869 16501 layer_factory.hpp:77] Creating layer conv5
I0815 15:50:17.142889 16501 net.cpp:91] Creating Layer conv5
I0815 15:50:17.142897 16501 net.cpp:425] conv5 <- Convolution184
I0815 15:50:17.142913 16501 net.cpp:399] conv5 -> Convolution185
I0815 15:50:17.164907 16501 net.cpp:141] Setting up conv5
I0815 15:50:17.164929 16501 net.cpp:148] Top shape: 100 256 4 4 (409600)
I0815 15:50:17.164947 16501 net.cpp:156] Memory required for data: 3330838400
I0815 15:50:17.164961 16501 layer_factory.hpp:77] Creating layer pool5
I0815 15:50:17.164979 16501 net.cpp:91] Creating Layer pool5
I0815 15:50:17.164989 16501 net.cpp:425] pool5 <- Convolution185
I0815 15:50:17.165014 16501 net.cpp:399] pool5 -> Pooling111
I0815 15:50:17.165082 16501 net.cpp:141] Setting up pool5
I0815 15:50:17.165097 16501 net.cpp:148] Top shape: 100 256 2 2 (102400)
I0815 15:50:17.165127 16501 net.cpp:156] Memory required for data: 3331248000
I0815 15:50:17.165134 16501 layer_factory.hpp:77] Creating layer InnerProduct109
I0815 15:50:17.165151 16501 net.cpp:91] Creating Layer InnerProduct109
I0815 15:50:17.165159 16501 net.cpp:425] InnerProduct109 <- Pooling111
I0815 15:50:17.165174 16501 net.cpp:399] InnerProduct109 -> InnerProduct109
I0815 15:50:17.167927 16501 net.cpp:141] Setting up InnerProduct109
I0815 15:50:17.167946 16501 net.cpp:148] Top shape: 100 256 (25600)
I0815 15:50:17.167954 16501 net.cpp:156] Memory required for data: 3331350400
I0815 15:50:17.167963 16501 net.cpp:484] Sharing parameters 'fc6_w' owned by layer 'InnerProduct1', param index 0
I0815 15:50:17.167974 16501 net.cpp:484] Sharing parameters 'fc6_b' owned by layer 'InnerProduct1', param index 1
I0815 15:50:17.167982 16501 layer_factory.hpp:77] Creating layer ReLU257
I0815 15:50:17.167996 16501 net.cpp:91] Creating Layer ReLU257
I0815 15:50:17.168005 16501 net.cpp:425] ReLU257 <- InnerProduct109
I0815 15:50:17.168017 16501 net.cpp:386] ReLU257 -> InnerProduct109 (in-place)
I0815 15:50:17.168031 16501 net.cpp:141] Setting up ReLU257
I0815 15:50:17.168041 16501 net.cpp:148] Top shape: 100 256 (25600)
I0815 15:50:17.168050 16501 net.cpp:156] Memory required for data: 3331452800
I0815 15:50:17.168056 16501 layer_factory.hpp:77] Creating layer InnerProduct110
I0815 15:50:17.168073 16501 net.cpp:91] Creating Layer InnerProduct110
I0815 15:50:17.168081 16501 net.cpp:425] InnerProduct110 <- InnerProduct109
I0815 15:50:17.168093 16501 net.cpp:399] InnerProduct110 -> InnerProduct110
I0815 15:50:17.168757 16501 net.cpp:141] Setting up InnerProduct110
I0815 15:50:17.168771 16501 net.cpp:148] Top shape: 100 256 (25600)
I0815 15:50:17.168779 16501 net.cpp:156] Memory required for data: 3331555200
I0815 15:50:17.168787 16501 net.cpp:484] Sharing parameters 'fc7_w' owned by layer 'InnerProduct2', param index 0
I0815 15:50:17.168797 16501 net.cpp:484] Sharing parameters 'fc7_b' owned by layer 'InnerProduct2', param index 1
I0815 15:50:17.168805 16501 layer_factory.hpp:77] Creating layer ReLU258
I0815 15:50:17.168814 16501 net.cpp:91] Creating Layer ReLU258
I0815 15:50:17.168823 16501 net.cpp:425] ReLU258 <- InnerProduct110
I0815 15:50:17.168833 16501 net.cpp:386] ReLU258 -> InnerProduct110 (in-place)
I0815 15:50:17.168845 16501 net.cpp:141] Setting up ReLU258
I0815 15:50:17.168855 16501 net.cpp:148] Top shape: 100 256 (25600)
I0815 15:50:17.168862 16501 net.cpp:156] Memory required for data: 3331657600
I0815 15:50:17.168870 16501 layer_factory.hpp:77] Creating layer conv1
I0815 15:50:17.168891 16501 net.cpp:91] Creating Layer conv1
I0815 15:50:17.168901 16501 net.cpp:425] conv1 <- c19
I0815 15:50:17.168915 16501 net.cpp:399] conv1 -> Convolution186
I0815 15:50:17.170960 16501 net.cpp:141] Setting up conv1
I0815 15:50:17.170975 16501 net.cpp:148] Top shape: 100 96 17 17 (2774400)
I0815 15:50:17.170984 16501 net.cpp:156] Memory required for data: 3342755200
I0815 15:50:17.170997 16501 layer_factory.hpp:77] Creating layer ReLU259
I0815 15:50:17.171008 16501 net.cpp:91] Creating Layer ReLU259
I0815 15:50:17.171017 16501 net.cpp:425] ReLU259 <- Convolution186
I0815 15:50:17.171027 16501 net.cpp:386] ReLU259 -> Convolution186 (in-place)
I0815 15:50:17.171043 16501 net.cpp:141] Setting up ReLU259
I0815 15:50:17.171053 16501 net.cpp:148] Top shape: 100 96 17 17 (2774400)
I0815 15:50:17.171061 16501 net.cpp:156] Memory required for data: 3353852800
I0815 15:50:17.171068 16501 layer_factory.hpp:77] Creating layer norm1
I0815 15:50:17.171080 16501 net.cpp:91] Creating Layer norm1
I0815 15:50:17.171088 16501 net.cpp:425] norm1 <- Convolution186
I0815 15:50:17.171102 16501 net.cpp:399] norm1 -> LRN75
I0815 15:50:17.171164 16501 net.cpp:141] Setting up norm1
I0815 15:50:17.171178 16501 net.cpp:148] Top shape: 100 96 17 17 (2774400)
I0815 15:50:17.171185 16501 net.cpp:156] Memory required for data: 3364950400
I0815 15:50:17.171193 16501 layer_factory.hpp:77] Creating layer pool1
I0815 15:50:17.171221 16501 net.cpp:91] Creating Layer pool1
I0815 15:50:17.171231 16501 net.cpp:425] pool1 <- LRN75
I0815 15:50:17.171244 16501 net.cpp:399] pool1 -> Pooling112
I0815 15:50:17.171317 16501 net.cpp:141] Setting up pool1
I0815 15:50:17.171334 16501 net.cpp:148] Top shape: 100 96 8 8 (614400)
I0815 15:50:17.171340 16501 net.cpp:156] Memory required for data: 3367408000
I0815 15:50:17.171347 16501 layer_factory.hpp:77] Creating layer conv2
I0815 15:50:17.171365 16501 net.cpp:91] Creating Layer conv2
I0815 15:50:17.171375 16501 net.cpp:425] conv2 <- Pooling112
I0815 15:50:17.171387 16501 net.cpp:399] conv2 -> Convolution187
I0815 15:50:17.186897 16501 net.cpp:141] Setting up conv2
I0815 15:50:17.186919 16501 net.cpp:148] Top shape: 100 256 8 8 (1638400)
I0815 15:50:17.186928 16501 net.cpp:156] Memory required for data: 3373961600
I0815 15:50:17.186951 16501 layer_factory.hpp:77] Creating layer ReLU260
I0815 15:50:17.186964 16501 net.cpp:91] Creating Layer ReLU260
I0815 15:50:17.186974 16501 net.cpp:425] ReLU260 <- Convolution187
I0815 15:50:17.186985 16501 net.cpp:386] ReLU260 -> Convolution187 (in-place)
I0815 15:50:17.187000 16501 net.cpp:141] Setting up ReLU260
I0815 15:50:17.187017 16501 net.cpp:148] Top shape: 100 256 8 8 (1638400)
I0815 15:50:17.187026 16501 net.cpp:156] Memory required for data: 3380515200
I0815 15:50:17.187032 16501 layer_factory.hpp:77] Creating layer norm2
I0815 15:50:17.187048 16501 net.cpp:91] Creating Layer norm2
I0815 15:50:17.187057 16501 net.cpp:425] norm2 <- Convolution187
I0815 15:50:17.187072 16501 net.cpp:399] norm2 -> LRN76
I0815 15:50:17.187132 16501 net.cpp:141] Setting up norm2
I0815 15:50:17.187146 16501 net.cpp:148] Top shape: 100 256 8 8 (1638400)
I0815 15:50:17.187153 16501 net.cpp:156] Memory required for data: 3387068800
I0815 15:50:17.187160 16501 layer_factory.hpp:77] Creating layer pool2
I0815 15:50:17.187175 16501 net.cpp:91] Creating Layer pool2
I0815 15:50:17.187182 16501 net.cpp:425] pool2 <- LRN76
I0815 15:50:17.187194 16501 net.cpp:399] pool2 -> Pooling113
I0815 15:50:17.187257 16501 net.cpp:141] Setting up pool2
I0815 15:50:17.187274 16501 net.cpp:148] Top shape: 100 256 4 4 (409600)
I0815 15:50:17.187283 16501 net.cpp:156] Memory required for data: 3388707200
I0815 15:50:17.187290 16501 layer_factory.hpp:77] Creating layer conv3
I0815 15:50:17.187309 16501 net.cpp:91] Creating Layer conv3
I0815 15:50:17.187319 16501 net.cpp:425] conv3 <- Pooling113
I0815 15:50:17.187335 16501 net.cpp:399] conv3 -> Convolution188
I0815 15:50:17.230993 16501 net.cpp:141] Setting up conv3
I0815 15:50:17.231027 16501 net.cpp:148] Top shape: 100 384 4 4 (614400)
I0815 15:50:17.231046 16501 net.cpp:156] Memory required for data: 3391164800
I0815 15:50:17.231063 16501 layer_factory.hpp:77] Creating layer ReLU261
I0815 15:50:17.231078 16501 net.cpp:91] Creating Layer ReLU261
I0815 15:50:17.231091 16501 net.cpp:425] ReLU261 <- Convolution188
I0815 15:50:17.231112 16501 net.cpp:386] ReLU261 -> Convolution188 (in-place)
I0815 15:50:17.231128 16501 net.cpp:141] Setting up ReLU261
I0815 15:50:17.231139 16501 net.cpp:148] Top shape: 100 384 4 4 (614400)
I0815 15:50:17.231147 16501 net.cpp:156] Memory required for data: 3393622400
I0815 15:50:17.231153 16501 layer_factory.hpp:77] Creating layer conv4
I0815 15:50:17.231173 16501 net.cpp:91] Creating Layer conv4
I0815 15:50:17.231183 16501 net.cpp:425] conv4 <- Convolution188
I0815 15:50:17.231199 16501 net.cpp:399] conv4 -> Convolution189
I0815 15:50:17.264271 16501 net.cpp:141] Setting up conv4
I0815 15:50:17.264304 16501 net.cpp:148] Top shape: 100 384 4 4 (614400)
I0815 15:50:17.264312 16501 net.cpp:156] Memory required for data: 3396080000
I0815 15:50:17.264329 16501 layer_factory.hpp:77] Creating layer ReLU262
I0815 15:50:17.264348 16501 net.cpp:91] Creating Layer ReLU262
I0815 15:50:17.264359 16501 net.cpp:425] ReLU262 <- Convolution189
I0815 15:50:17.264375 16501 net.cpp:386] ReLU262 -> Convolution189 (in-place)
I0815 15:50:17.264392 16501 net.cpp:141] Setting up ReLU262
I0815 15:50:17.264402 16501 net.cpp:148] Top shape: 100 384 4 4 (614400)
I0815 15:50:17.264432 16501 net.cpp:156] Memory required for data: 3398537600
I0815 15:50:17.264441 16501 layer_factory.hpp:77] Creating layer conv5
I0815 15:50:17.264457 16501 net.cpp:91] Creating Layer conv5
I0815 15:50:17.264467 16501 net.cpp:425] conv5 <- Convolution189
I0815 15:50:17.264482 16501 net.cpp:399] conv5 -> Convolution190
I0815 15:50:17.286449 16501 net.cpp:141] Setting up conv5
I0815 15:50:17.286473 16501 net.cpp:148] Top shape: 100 256 4 4 (409600)
I0815 15:50:17.286490 16501 net.cpp:156] Memory required for data: 3400176000
I0815 15:50:17.286505 16501 layer_factory.hpp:77] Creating layer pool5
I0815 15:50:17.286519 16501 net.cpp:91] Creating Layer pool5
I0815 15:50:17.286528 16501 net.cpp:425] pool5 <- Convolution190
I0815 15:50:17.286552 16501 net.cpp:399] pool5 -> Pooling114
I0815 15:50:17.286620 16501 net.cpp:141] Setting up pool5
I0815 15:50:17.286635 16501 net.cpp:148] Top shape: 100 256 2 2 (102400)
I0815 15:50:17.286643 16501 net.cpp:156] Memory required for data: 3400585600
I0815 15:50:17.286649 16501 layer_factory.hpp:77] Creating layer InnerProduct111
I0815 15:50:17.286665 16501 net.cpp:91] Creating Layer InnerProduct111
I0815 15:50:17.286674 16501 net.cpp:425] InnerProduct111 <- Pooling114
I0815 15:50:17.286689 16501 net.cpp:399] InnerProduct111 -> InnerProduct111
I0815 15:50:17.289405 16501 net.cpp:141] Setting up InnerProduct111
I0815 15:50:17.289425 16501 net.cpp:148] Top shape: 100 256 (25600)
I0815 15:50:17.289433 16501 net.cpp:156] Memory required for data: 3400688000
I0815 15:50:17.289451 16501 net.cpp:484] Sharing parameters 'fc6_w' owned by layer 'InnerProduct1', param index 0
I0815 15:50:17.289461 16501 net.cpp:484] Sharing parameters 'fc6_b' owned by layer 'InnerProduct1', param index 1
I0815 15:50:17.289469 16501 layer_factory.hpp:77] Creating layer ReLU263
I0815 15:50:17.289480 16501 net.cpp:91] Creating Layer ReLU263
I0815 15:50:17.289489 16501 net.cpp:425] ReLU263 <- InnerProduct111
I0815 15:50:17.289512 16501 net.cpp:386] ReLU263 -> InnerProduct111 (in-place)
I0815 15:50:17.289527 16501 net.cpp:141] Setting up ReLU263
I0815 15:50:17.289537 16501 net.cpp:148] Top shape: 100 256 (25600)
I0815 15:50:17.289544 16501 net.cpp:156] Memory required for data: 3400790400
I0815 15:50:17.289552 16501 layer_factory.hpp:77] Creating layer InnerProduct112
I0815 15:50:17.289564 16501 net.cpp:91] Creating Layer InnerProduct112
I0815 15:50:17.289573 16501 net.cpp:425] InnerProduct112 <- InnerProduct111
I0815 15:50:17.289585 16501 net.cpp:399] InnerProduct112 -> InnerProduct112
I0815 15:50:17.290254 16501 net.cpp:141] Setting up InnerProduct112
I0815 15:50:17.290268 16501 net.cpp:148] Top shape: 100 256 (25600)
I0815 15:50:17.290277 16501 net.cpp:156] Memory required for data: 3400892800
I0815 15:50:17.290284 16501 net.cpp:484] Sharing parameters 'fc7_w' owned by layer 'InnerProduct2', param index 0
I0815 15:50:17.290294 16501 net.cpp:484] Sharing parameters 'fc7_b' owned by layer 'InnerProduct2', param index 1
I0815 15:50:17.290302 16501 layer_factory.hpp:77] Creating layer ReLU264
I0815 15:50:17.290313 16501 net.cpp:91] Creating Layer ReLU264
I0815 15:50:17.290320 16501 net.cpp:425] ReLU264 <- InnerProduct112
I0815 15:50:17.290334 16501 net.cpp:386] ReLU264 -> InnerProduct112 (in-place)
I0815 15:50:17.290347 16501 net.cpp:141] Setting up ReLU264
I0815 15:50:17.290357 16501 net.cpp:148] Top shape: 100 256 (25600)
I0815 15:50:17.290365 16501 net.cpp:156] Memory required for data: 3400995200
I0815 15:50:17.290372 16501 layer_factory.hpp:77] Creating layer Concat19
I0815 15:50:17.290383 16501 net.cpp:91] Creating Layer Concat19
I0815 15:50:17.290391 16501 net.cpp:425] Concat19 <- InnerProduct110
I0815 15:50:17.290401 16501 net.cpp:425] Concat19 <- InnerProduct112
I0815 15:50:17.290417 16501 net.cpp:399] Concat19 -> Concat19
I0815 15:50:17.290457 16501 net.cpp:141] Setting up Concat19
I0815 15:50:17.290469 16501 net.cpp:148] Top shape: 100 512 (51200)
I0815 15:50:17.290477 16501 net.cpp:156] Memory required for data: 3401200000
I0815 15:50:17.290485 16501 layer_factory.hpp:77] Creating layer InnerProduct113
I0815 15:50:17.290514 16501 net.cpp:91] Creating Layer InnerProduct113
I0815 15:50:17.290525 16501 net.cpp:425] InnerProduct113 <- Concat19
I0815 15:50:17.290544 16501 net.cpp:399] InnerProduct113 -> InnerProduct113
I0815 15:50:17.291736 16501 net.cpp:141] Setting up InnerProduct113
I0815 15:50:17.291755 16501 net.cpp:148] Top shape: 100 256 (25600)
I0815 15:50:17.291764 16501 net.cpp:156] Memory required for data: 3401302400
I0815 15:50:17.291774 16501 net.cpp:484] Sharing parameters 'fc8_w' owned by layer 'InnerProduct5', param index 0
I0815 15:50:17.291784 16501 net.cpp:484] Sharing parameters 'fc8_b' owned by layer 'InnerProduct5', param index 1
I0815 15:50:17.291791 16501 layer_factory.hpp:77] Creating layer ReLU265
I0815 15:50:17.291806 16501 net.cpp:91] Creating Layer ReLU265
I0815 15:50:17.291815 16501 net.cpp:425] ReLU265 <- InnerProduct113
I0815 15:50:17.291826 16501 net.cpp:386] ReLU265 -> InnerProduct113 (in-place)
I0815 15:50:17.291841 16501 net.cpp:141] Setting up ReLU265
I0815 15:50:17.291851 16501 net.cpp:148] Top shape: 100 256 (25600)
I0815 15:50:17.291858 16501 net.cpp:156] Memory required for data: 3401404800
I0815 15:50:17.291865 16501 layer_factory.hpp:77] Creating layer InnerProduct114
I0815 15:50:17.291882 16501 net.cpp:91] Creating Layer InnerProduct114
I0815 15:50:17.291889 16501 net.cpp:425] InnerProduct114 <- InnerProduct113
I0815 15:50:17.291903 16501 net.cpp:399] InnerProduct114 -> InnerProduct114
I0815 15:50:17.292320 16501 net.cpp:141] Setting up InnerProduct114
I0815 15:50:17.292335 16501 net.cpp:148] Top shape: 100 128 (12800)
I0815 15:50:17.292342 16501 net.cpp:156] Memory required for data: 3401456000
I0815 15:50:17.292351 16501 net.cpp:484] Sharing parameters 'fc9_w' owned by layer 'InnerProduct6', param index 0
I0815 15:50:17.292359 16501 net.cpp:484] Sharing parameters 'fc9_b' owned by layer 'InnerProduct6', param index 1
I0815 15:50:17.292366 16501 layer_factory.hpp:77] Creating layer ReLU266
I0815 15:50:17.292376 16501 net.cpp:91] Creating Layer ReLU266
I0815 15:50:17.292387 16501 net.cpp:425] ReLU266 <- InnerProduct114
I0815 15:50:17.292397 16501 net.cpp:386] ReLU266 -> InnerProduct114 (in-place)
I0815 15:50:17.292410 16501 net.cpp:141] Setting up ReLU266
I0815 15:50:17.292423 16501 net.cpp:148] Top shape: 100 128 (12800)
I0815 15:50:17.292428 16501 net.cpp:156] Memory required for data: 3401507200
I0815 15:50:17.292438 16501 layer_factory.hpp:77] Creating layer dt18
I0815 15:50:17.292455 16501 net.cpp:91] Creating Layer dt18
I0815 15:50:17.292467 16501 net.cpp:425] dt18 <- InnerProduct114
I0815 15:50:17.292480 16501 net.cpp:399] dt18 -> dt18
I0815 15:50:17.292680 16501 net.cpp:141] Setting up dt18
I0815 15:50:17.292693 16501 net.cpp:148] Top shape: 100 1 (100)
I0815 15:50:17.292704 16501 net.cpp:156] Memory required for data: 3401507600
I0815 15:50:17.292716 16501 net.cpp:484] Sharing parameters 'fc10_w' owned by layer 'dt0', param index 0
I0815 15:50:17.292726 16501 net.cpp:484] Sharing parameters 'fc10_b' owned by layer 'dt0', param index 1
I0815 15:50:17.292735 16501 layer_factory.hpp:77] Creating layer con
I0815 15:50:17.292749 16501 net.cpp:91] Creating Layer con
…
I0815 15:50:17.292876 16501 net.cpp:425] con <- dt10
I0815 15:50:17.292884 16501 net.cpp:425] con <- dt11
I0815 15:50:17.292893 16501 net.cpp:425] con <- dt12
I0815 15:50:17.292902 16501 net.cpp:425] con <- dt13
I0815 15:50:17.292914 16501 net.cpp:425] con <- dt14
I0815 15:50:17.292922 16501 net.cpp:425] con <- dt15
I0815 15:50:17.292932 16501 net.cpp:425] con <- dt16
I0815 15:50:17.292943 16501 net.cpp:425] con <- dt17
I0815 15:50:17.292973 16501 net.cpp:425] con <- dt18
I0815 15:50:17.292986 16501 net.cpp:399] con -> con
I0815 15:50:17.293040 16501 net.cpp:141] Setting up con
I0815 15:50:17.293051 16501 net.cpp:148] Top shape: 100 19 (1900)
I0815 15:50:17.293061 16501 net.cpp:156] Memory required for data: 3401515200
I0815 15:50:17.293071 16501 layer_factory.hpp:77] Creating layer r1
I0815 15:50:17.293087 16501 net.cpp:91] Creating Layer r1
I0815 15:50:17.293102 16501 net.cpp:425] r1 <- con
I0815 15:50:17.293112 16501 net.cpp:399] r1 -> r1
I0815 15:50:17.293165 16501 net.cpp:141] Setting up r1
I0815 15:50:17.293179 16501 net.cpp:148] Top shape: 100 1 1 19 (1900)
I0815 15:50:17.293189 16501 net.cpp:156] Memory required for data: 3401522800
I0815 15:50:17.293201 16501 layer_factory.hpp:77] Creating layer p
I0815 15:50:17.293213 16501 net.cpp:91] Creating Layer p
I0815 15:50:17.293223 16501 net.cpp:425] p <- r1
I0815 15:50:17.293239 16501 net.cpp:399] p -> p
I0815 15:50:17.293315 16501 net.cpp:141] Setting up p
I0815 15:50:17.293329 16501 net.cpp:148] Top shape: 100 1 1 1 (100)
I0815 15:50:17.293334 16501 net.cpp:156] Memory required for data: 3401523200
I0815 15:50:17.293340 16501 layer_factory.hpp:77] Creating layer r2
I0815 15:50:17.293349 16501 net.cpp:91] Creating Layer r2
I0815 15:50:17.293355 16501 net.cpp:425] r2 <- p
I0815 15:50:17.293365 16501 net.cpp:399] r2 -> r2
I0815 15:50:17.293400 16501 net.cpp:141] Setting up r2
I0815 15:50:17.293413 16501 net.cpp:148] Top shape: 100 1 1 1 (100)
I0815 15:50:17.293421 16501 net.cpp:156] Memory required for data: 3401523600
I0815 15:50:17.293428 16501 layer_factory.hpp:77] Creating layer padL
I0815 15:50:17.293439 16501 net.cpp:91] Creating Layer padL
I0815 15:50:17.293448 16501 net.cpp:425] padL <- label_data_1_split_1
I0815 15:50:17.293459 16501 net.cpp:399] padL -> padL
I0815 15:50:17.293501 16501 net.cpp:141] Setting up padL
I0815 15:50:17.293515 16501 net.cpp:148] Top shape: 100 1 1 1 (100)
I0815 15:50:17.293522 16501 net.cpp:156] Memory required for data: 3401524000
I0815 15:50:17.293530 16501 layer_factory.hpp:77] Creating layer pad
I0815 15:50:17.293545 16501 net.cpp:91] Creating Layer pad
I0815 15:50:17.293552 16501 net.cpp:425] pad <- r2
I0815 15:50:17.293561 16501 net.cpp:425] pad <- padL
I0815 15:50:17.293572 16501 net.cpp:399] pad -> pad
I0815 15:50:17.293612 16501 net.cpp:141] Setting up pad
I0815 15:50:17.293624 16501 net.cpp:148] Top shape: 100 2 1 1 (200)
I0815 15:50:17.293632 16501 net.cpp:156] Memory required for data: 3401524800
I0815 15:50:17.293639 16501 layer_factory.hpp:77] Creating layer pad_pad_0_split
I0815 15:50:17.293649 16501 net.cpp:91] Creating Layer pad_pad_0_split
I0815 15:50:17.293658 16501 net.cpp:425] pad_pad_0_split <- pad
I0815 15:50:17.293670 16501 net.cpp:399] pad_pad_0_split -> pad_pad_0_split_0
I0815 15:50:17.293684 16501 net.cpp:399] pad_pad_0_split -> pad_pad_0_split_1
I0815 15:50:17.293740 16501 net.cpp:141] Setting up pad_pad_0_split
I0815 15:50:17.293751 16501 net.cpp:148] Top shape: 100 2 1 1 (200)
I0815 15:50:17.293761 16501 net.cpp:148] Top shape: 100 2 1 1 (200)
I0815 15:50:17.293769 16501 net.cpp:156] Memory required for data: 3401526400
I0815 15:50:17.293776 16501 layer_factory.hpp:77] Creating layer loss
I0815 15:50:17.293789 16501 net.cpp:91] Creating Layer loss
I0815 15:50:17.293797 16501 net.cpp:425] loss <- pad_pad_0_split_0
I0815 15:50:17.293807 16501 net.cpp:425] loss <- th_th_0_split_0
I0815 15:50:17.293818 16501 net.cpp:399] loss -> loss
…
