…
I0810 16:38:35.707641 19219 solver.cpp:81] Creating training net from train_net file: examples/scene/matchNetTrainHingeMini.prototxt
I0810 16:38:35.709123 19219 net.cpp:49] Initializing net from parameters: 
state {
  phase: TRAIN
}
layer {
  name: "data"
  type: "Data"
  top: "data"
  top: "label"
  include {
    phase: TRAIN
  }
  transform_param {
    scale: 0.0039215689
    mirror: true
    mean_file: "examples/scene/scene_mean.binaryproto"
  }
  data_param {
    source: "examples/scene/scene_train7_pairs_20000_pad.lmdb"
    batch_size: 400
    backend: LMDB
  }
}
layer {
  name: "th"
  type: "Threshold"
  bottom: "label"
  top: "th"
  threshold_param {
    threshold: 0
  }
}
layer {
  name: "i1"
  type: "Slice"
  bottom: "data"
  top: "i1"
  top: "i2"
  slice_param {
    slice_dim: 1
    slice_point: 3
  }
}
layer {
  name: "p1"
  type: "Pooling"
  bottom: "i1"
  top: "p1"
  pooling_param {
    pool: AVE
    kernel_size: 2
    stride: 2
  }
}
layer {
  name: "p2"
  type: "Pooling"
  bottom: "i2"
  top: "p2"
  pooling_param {
    pool: AVE
    kernel_size: 2
    stride: 2
  }
}
layer {
  name: "Convolution1"
  type: "Convolution"
  bottom: "p1"
  top: "Convolution1"
  param {
    name: "conv1_w"
    lr_mult: 1
  }
  param {
    name: "conv1_b"
    lr_mult: 2
  }
  convolution_param {
    num_output: 20
    kernel_size: 5
    stride: 1
    weight_filler {
      type: "xavier"
    }
    bias_filler {
      type: "constant"
    }
  }
}
layer {
  name: "Pooling1"
  type: "Pooling"
  bottom: "Convolution1"
  top: "Pooling1"
  pooling_param {
    pool: MAX
    kernel_size: 2
    stride: 2
  }
}
layer {
  name: "Convolution2"
  type: "Convolution"
  bottom: "Pooling1"
  top: "Convolution2"
  param {
    name: "conv2_w"
    lr_mult: 1
  }
  param {
    name: "conv2_b"
    lr_mult: 2
  }
  convolution_param {
    num_output: 50
    kernel_size: 5
    stride: 1
    weight_filler {
      type: "xavier"
    }
    bias_filler {
      type: "constant"
    }
  }
}
layer {
  name: "Pooling2"
  type: "Pooling"
  bottom: "Convolution2"
  top: "Pooling2"
  pooling_param {
    pool: MAX
    kernel_size: 2
    stride: 2
  }
}
layer {
  name: "InnerProduct1"
  type: "InnerProduct"
  bottom: "Pooling2"
  top: "InnerProduct1"
  param {
    name: "ip1_w"
    lr_mult: 1
  }
  param {
    name: "ip1_b"
    lr_mult: 2
  }
  inner_product_param {
    num_output: 100
    weight_filler {
      type: "xavier"
    }
    bias_filler {
      type: "constant"
    }
  }
}
layer {
  name: "ReLU1"
  type: "ReLU"
  bottom: "InnerProduct1"
  top: "InnerProduct1"
}
layer {
  name: "InnerProduct2"
  type: "InnerProduct"
  bottom: "InnerProduct1"
  top: "InnerProduct2"
  param {
    name: "ip2_w"
    lr_mult: 1
  }
  param {
    name: "ip2_b"
    lr_mult: 2
  }
  inner_product_param {
    num_output: 50
    weight_filler {
      type: "xavier"
    }
    bias_filler {
      type: "constant"
    }
  }
}
layer {
  name: "Convolution3"
  type: "Convolution"
  bottom: "p2"
  top: "Convolution3"
  param {
    name: "conv1_w"
    lr_mult: 1
  }
  param {
    name: "conv1_b"
    lr_mult: 2
  }
  convolution_param {
    num_output: 20
    kernel_size: 5
    stride: 1
    weight_filler {
      type: "xavier"
    }
    bias_filler {
      type: "constant"
    }
  }
}
layer {
  name: "Pooling3"
  type: "Pooling"
  bottom: "Convolution3"
  top: "Pooling3"
  pooling_param {
    pool: MAX
    kernel_size: 2
    stride: 2
  }
}
layer {
  name: "Convolution4"
  type: "Convolution"
  bottom: "Pooling3"
  top: "Convolution4"
  param {
    name: "conv2_w"
    lr_mult: 1
  }
  param {
    name: "conv2_b"
    lr_mult: 2
  }
  convolution_param {
    num_output: 50
    kernel_size: 5
    stride: 1
    weight_filler {
      type: "xavier"
    }
    bias_filler {
      type: "constant"
    }
  }
}
layer {
  name: "Pooling4"
  type: "Pooling"
  bottom: "Convolution4"
  top: "Pooling4"
  pooling_param {
    pool: MAX
    kernel_size: 2
    stride: 2
  }
}
layer {
  name: "InnerProduct3"
  type: "InnerProduct"
  bottom: "Pooling4"
  top: "InnerProduct3"
  param {
    name: "ip1_w"
    lr_mult: 1
  }
  param {
    name: "ip1_b"
    lr_mult: 2
  }
  inner_product_param {
    num_output: 100
    weight_filler {
      type: "xavier"
    }
    bias_filler {
      type: "constant"
    }
  }
}
layer {
  name: "ReLU2"
  type: "ReLU"
  bottom: "InnerProduct3"
  top: "InnerProduct3"
}
layer {
  name: "InnerProduct4"
  type: "InnerProduct"
  bottom: "InnerProduct3"
  top: "InnerProduct4"
  param {
    name: "ip2_w"
    lr_mult: 1
  }
  param {
    name: "ip2_b"
    lr_mult: 2
  }
  inner_product_param {
    num_output: 50
    weight_filler {
      type: "xavier"
    }
    bias_filler {
      type: "constant"
    }
  }
}
layer {
  name: "Concat1"
  type: "Concat"
  bottom: "InnerProduct2"
  bottom: "InnerProduct4"
  top: "Concat1"
  concat_param {
    axis: 1
  }
}
layer {
  name: "InnerProduct5"
  type: "InnerProduct"
  bottom: "Concat1"
  top: "InnerProduct5"
  param {
    name: "fc1_w"
    lr_mult: 1
  }
  param {
    name: "fc1_b"
    lr_mult: 2
  }
  inner_product_param {
    num_output: 64
    weight_filler {
      type: "xavier"
    }
    bias_filler {
      type: "constant"
    }
  }
}
layer {
  name: "ReLU3"
  type: "ReLU"
  bottom: "InnerProduct5"
  top: "InnerProduct5"
}
layer {
  name: "InnerProduct6"
  type: "InnerProduct"
  bottom: "InnerProduct5"
  top: "InnerProduct6"
  param {
    name: "fc2_w"
    lr_mult: 1
  }
  param {
    name: "fc2_b"
    lr_mult: 2
  }
  inner_product_param {
    num_output: 32
    weight_filler {
      type: "xavier"
    }
    bias_filler {
      type: "constant"
    }
  }
}
layer {
  name: "ReLU4"
  type: "ReLU"
  bottom: "InnerProduct6"
  top: "InnerProduct6"
}
layer {
  name: "dt"
  type: "InnerProduct"
  bottom: "InnerProduct6"
  top: "dt"
  param {
    name: "fc3_w"
    lr_mult: 1
  }
  param {
    name: "fc3_b"
    lr_mult: 2
  }
  inner_product_param {
    num_output: 2
    weight_filler {
      type: "xavier"
    }
    bias_filler {
      type: "constant"
    }
  }
}
layer {
  name: "accuracy"
  type: "Accuracy"
  bottom: "dt"
  bottom: "th"
  top: "accuracy"
  include {
    phase: TRAIN
  }
}
layer {
  name: "loss"
  type: "HingeLoss"
  bottom: "dt"
  bottom: "th"
  top: "loss"
}
I0810 16:38:35.709444 19219 layer_factory.hpp:77] Creating layer data
I0810 16:38:35.710342 19219 net.cpp:91] Creating Layer data
I0810 16:38:35.710357 19219 net.cpp:399] data -> data
I0810 16:38:35.710392 19219 net.cpp:399] data -> label
I0810 16:38:35.710410 19219 data_transformer.cpp:25] Loading mean file from: examples/scene/scene_mean.binaryproto
I0810 16:38:35.711254 19225 db_lmdb.cpp:35] Opened lmdb examples/scene/scene_train7_pairs_20000_pad.lmdb
I0810 16:38:35.734166 19219 data_layer.cpp:41] output data size: 400,6,128,128
I0810 16:38:36.130038 19219 net.cpp:141] Setting up data
I0810 16:38:36.130362 19219 net.cpp:148] Top shape: 400 6 128 128 (39321600)
I0810 16:38:36.130491 19219 net.cpp:148] Top shape: 400 (400)
I0810 16:38:36.130626 19219 net.cpp:156] Memory required for data: 157288000
I0810 16:38:36.130766 19219 layer_factory.hpp:77] Creating layer th
I0810 16:38:36.130919 19219 net.cpp:91] Creating Layer th
I0810 16:38:36.131002 19219 net.cpp:425] th <- label
I0810 16:38:36.131026 19219 net.cpp:399] th -> th
I0810 16:38:36.131427 19219 net.cpp:141] Setting up th
I0810 16:38:36.131445 19219 net.cpp:148] Top shape: 400 (400)
I0810 16:38:36.131454 19219 net.cpp:156] Memory required for data: 157289600
I0810 16:38:36.131461 19219 layer_factory.hpp:77] Creating layer th_th_0_split
I0810 16:38:36.131482 19219 net.cpp:91] Creating Layer th_th_0_split
I0810 16:38:36.131490 19219 net.cpp:425] th_th_0_split <- th
I0810 16:38:36.131523 19219 net.cpp:399] th_th_0_split -> th_th_0_split_0
I0810 16:38:36.131538 19219 net.cpp:399] th_th_0_split -> th_th_0_split_1
I0810 16:38:36.131597 19219 net.cpp:141] Setting up th_th_0_split
I0810 16:38:36.131609 19219 net.cpp:148] Top shape: 400 (400)
I0810 16:38:36.131619 19219 net.cpp:148] Top shape: 400 (400)
I0810 16:38:36.131628 19219 net.cpp:156] Memory required for data: 157292800
I0810 16:38:36.131634 19219 layer_factory.hpp:77] Creating layer i1
I0810 16:38:36.131654 19219 net.cpp:91] Creating Layer i1
I0810 16:38:36.131721 19219 net.cpp:425] i1 <- data
I0810 16:38:36.131734 19219 net.cpp:399] i1 -> i1
I0810 16:38:36.131752 19219 net.cpp:399] i1 -> i2
I0810 16:38:36.131862 19219 net.cpp:141] Setting up i1
I0810 16:38:36.131876 19219 net.cpp:148] Top shape: 400 3 128 128 (19660800)
I0810 16:38:36.131886 19219 net.cpp:148] Top shape: 400 3 128 128 (19660800)
I0810 16:38:36.131894 19219 net.cpp:156] Memory required for data: 314579200
I0810 16:38:36.131902 19219 layer_factory.hpp:77] Creating layer p1
I0810 16:38:36.131919 19219 net.cpp:91] Creating Layer p1
I0810 16:38:36.131981 19219 net.cpp:425] p1 <- i1
I0810 16:38:36.131994 19219 net.cpp:399] p1 -> p1
I0810 16:38:36.132109 19219 net.cpp:141] Setting up p1
I0810 16:38:36.132124 19219 net.cpp:148] Top shape: 400 3 64 64 (4915200)
I0810 16:38:36.132133 19219 net.cpp:156] Memory required for data: 334240000
I0810 16:38:36.132140 19219 layer_factory.hpp:77] Creating layer p2
I0810 16:38:36.132153 19219 net.cpp:91] Creating Layer p2
I0810 16:38:36.132212 19219 net.cpp:425] p2 <- i2
I0810 16:38:36.132226 19219 net.cpp:399] p2 -> p2
I0810 16:38:36.156059 19219 net.cpp:141] Setting up p2
I0810 16:38:36.156096 19219 net.cpp:148] Top shape: 400 3 64 64 (4915200)
I0810 16:38:36.156105 19219 net.cpp:156] Memory required for data: 353900800
I0810 16:38:36.156116 19219 layer_factory.hpp:77] Creating layer Convolution1
I0810 16:38:36.156146 19219 net.cpp:91] Creating Layer Convolution1
I0810 16:38:36.156154 19219 net.cpp:425] Convolution1 <- p1
I0810 16:38:36.156172 19219 net.cpp:399] Convolution1 -> Convolution1
I0810 16:38:36.157361 19219 net.cpp:141] Setting up Convolution1
I0810 16:38:36.157379 19219 net.cpp:148] Top shape: 400 20 60 60 (28800000)
I0810 16:38:36.157389 19219 net.cpp:156] Memory required for data: 469100800
I0810 16:38:36.157413 19219 layer_factory.hpp:77] Creating layer Pooling1
I0810 16:38:36.157428 19219 net.cpp:91] Creating Layer Pooling1
I0810 16:38:36.157436 19219 net.cpp:425] Pooling1 <- Convolution1
I0810 16:38:36.157449 19219 net.cpp:399] Pooling1 -> Pooling1
I0810 16:38:36.157513 19219 net.cpp:141] Setting up Pooling1
I0810 16:38:36.157524 19219 net.cpp:148] Top shape: 400 20 30 30 (7200000)
I0810 16:38:36.157532 19219 net.cpp:156] Memory required for data: 497900800
I0810 16:38:36.157542 19219 layer_factory.hpp:77] Creating layer Convolution2
I0810 16:38:36.157562 19219 net.cpp:91] Creating Layer Convolution2
I0810 16:38:36.157570 19219 net.cpp:425] Convolution2 <- Pooling1
I0810 16:38:36.157584 19219 net.cpp:399] Convolution2 -> Convolution2
I0810 16:38:36.158949 19219 net.cpp:141] Setting up Convolution2
I0810 16:38:36.158972 19219 net.cpp:148] Top shape: 400 50 26 26 (13520000)
I0810 16:38:36.158978 19219 net.cpp:156] Memory required for data: 551980800
I0810 16:38:36.158993 19219 layer_factory.hpp:77] Creating layer Pooling2
I0810 16:38:36.159006 19219 net.cpp:91] Creating Layer Pooling2
I0810 16:38:36.159014 19219 net.cpp:425] Pooling2 <- Convolution2
I0810 16:38:36.159026 19219 net.cpp:399] Pooling2 -> Pooling2
I0810 16:38:36.159077 19219 net.cpp:141] Setting up Pooling2
I0810 16:38:36.159086 19219 net.cpp:148] Top shape: 400 50 13 13 (3380000)
I0810 16:38:36.159093 19219 net.cpp:156] Memory required for data: 565500800
I0810 16:38:36.159099 19219 layer_factory.hpp:77] Creating layer InnerProduct1
I0810 16:38:36.159112 19219 net.cpp:91] Creating Layer InnerProduct1
I0810 16:38:36.159118 19219 net.cpp:425] InnerProduct1 <- Pooling2
I0810 16:38:36.159131 19219 net.cpp:399] InnerProduct1 -> InnerProduct1
I0810 16:38:36.169076 19219 net.cpp:141] Setting up InnerProduct1
I0810 16:38:36.169109 19219 net.cpp:148] Top shape: 400 100 (40000)
I0810 16:38:36.169116 19219 net.cpp:156] Memory required for data: 565660800
I0810 16:38:36.169138 19219 layer_factory.hpp:77] Creating layer ReLU1
I0810 16:38:36.169153 19219 net.cpp:91] Creating Layer ReLU1
I0810 16:38:36.169162 19219 net.cpp:425] ReLU1 <- InnerProduct1
I0810 16:38:36.169172 19219 net.cpp:386] ReLU1 -> InnerProduct1 (in-place)
I0810 16:38:36.169184 19219 net.cpp:141] Setting up ReLU1
I0810 16:38:36.169191 19219 net.cpp:148] Top shape: 400 100 (40000)
I0810 16:38:36.169198 19219 net.cpp:156] Memory required for data: 565820800
I0810 16:38:36.169203 19219 layer_factory.hpp:77] Creating layer InnerProduct2
I0810 16:38:36.169215 19219 net.cpp:91] Creating Layer InnerProduct2
I0810 16:38:36.169221 19219 net.cpp:425] InnerProduct2 <- InnerProduct1
I0810 16:38:36.169231 19219 net.cpp:399] InnerProduct2 -> InnerProduct2
I0810 16:38:36.170083 19219 net.cpp:141] Setting up InnerProduct2
I0810 16:38:36.170095 19219 net.cpp:148] Top shape: 400 50 (20000)
I0810 16:38:36.170101 19219 net.cpp:156] Memory required for data: 565900800
I0810 16:38:36.170110 19219 layer_factory.hpp:77] Creating layer Convolution3
I0810 16:38:36.170125 19219 net.cpp:91] Creating Layer Convolution3
I0810 16:38:36.170132 19219 net.cpp:425] Convolution3 <- p2
I0810 16:38:36.170142 19219 net.cpp:399] Convolution3 -> Convolution3
I0810 16:38:36.170454 19219 net.cpp:141] Setting up Convolution3
I0810 16:38:36.170464 19219 net.cpp:148] Top shape: 400 20 60 60 (28800000)
I0810 16:38:36.170469 19219 net.cpp:156] Memory required for data: 681100800
I0810 16:38:36.170478 19219 net.cpp:484] Sharing parameters 'conv1_w' owned by layer 'Convolution1', param index 0
I0810 16:38:36.170486 19219 net.cpp:484] Sharing parameters 'conv1_b' owned by layer 'Convolution1', param index 1
I0810 16:38:36.170492 19219 layer_factory.hpp:77] Creating layer Pooling3
I0810 16:38:36.170502 19219 net.cpp:91] Creating Layer Pooling3
I0810 16:38:36.170509 19219 net.cpp:425] Pooling3 <- Convolution3
I0810 16:38:36.170518 19219 net.cpp:399] Pooling3 -> Pooling3
I0810 16:38:36.170567 19219 net.cpp:141] Setting up Pooling3
I0810 16:38:36.170575 19219 net.cpp:148] Top shape: 400 20 30 30 (7200000)
I0810 16:38:36.170581 19219 net.cpp:156] Memory required for data: 709900800
I0810 16:38:36.170588 19219 layer_factory.hpp:77] Creating layer Convolution4
I0810 16:38:36.170598 19219 net.cpp:91] Creating Layer Convolution4
I0810 16:38:36.170605 19219 net.cpp:425] Convolution4 <- Pooling3
I0810 16:38:36.170615 19219 net.cpp:399] Convolution4 -> Convolution4
I0810 16:38:36.171103 19219 net.cpp:141] Setting up Convolution4
I0810 16:38:36.171111 19219 net.cpp:148] Top shape: 400 50 26 26 (13520000)
I0810 16:38:36.171116 19219 net.cpp:156] Memory required for data: 763980800
I0810 16:38:36.171123 19219 net.cpp:484] Sharing parameters 'conv2_w' owned by layer 'Convolution2', param index 0
I0810 16:38:36.171131 19219 net.cpp:484] Sharing parameters 'conv2_b' owned by layer 'Convolution2', param index 1
I0810 16:38:36.171138 19219 layer_factory.hpp:77] Creating layer Pooling4
I0810 16:38:36.171149 19219 net.cpp:91] Creating Layer Pooling4
I0810 16:38:36.171155 19219 net.cpp:425] Pooling4 <- Convolution4
I0810 16:38:36.171164 19219 net.cpp:399] Pooling4 -> Pooling4
I0810 16:38:36.171207 19219 net.cpp:141] Setting up Pooling4
I0810 16:38:36.171216 19219 net.cpp:148] Top shape: 400 50 13 13 (3380000)
I0810 16:38:36.171221 19219 net.cpp:156] Memory required for data: 777500800
I0810 16:38:36.171226 19219 layer_factory.hpp:77] Creating layer InnerProduct3
I0810 16:38:36.171236 19219 net.cpp:91] Creating Layer InnerProduct3
I0810 16:38:36.171242 19219 net.cpp:425] InnerProduct3 <- Pooling4
I0810 16:38:36.171252 19219 net.cpp:399] InnerProduct3 -> InnerProduct3
I0810 16:38:36.180830 19219 net.cpp:141] Setting up InnerProduct3
I0810 16:38:36.180865 19219 net.cpp:148] Top shape: 400 100 (40000)
I0810 16:38:36.180871 19219 net.cpp:156] Memory required for data: 777660800
I0810 16:38:36.180914 19219 net.cpp:484] Sharing parameters 'ip1_w' owned by layer 'InnerProduct1', param index 0
I0810 16:38:36.180924 19219 net.cpp:484] Sharing parameters 'ip1_b' owned by layer 'InnerProduct1', param index 1
I0810 16:38:36.180932 19219 layer_factory.hpp:77] Creating layer ReLU2
I0810 16:38:36.180944 19219 net.cpp:91] Creating Layer ReLU2
I0810 16:38:36.180953 19219 net.cpp:425] ReLU2 <- InnerProduct3
I0810 16:38:36.180963 19219 net.cpp:386] ReLU2 -> InnerProduct3 (in-place)
I0810 16:38:36.180977 19219 net.cpp:141] Setting up ReLU2
I0810 16:38:36.180985 19219 net.cpp:148] Top shape: 400 100 (40000)
I0810 16:38:36.180991 19219 net.cpp:156] Memory required for data: 777820800
I0810 16:38:36.180997 19219 layer_factory.hpp:77] Creating layer InnerProduct4
I0810 16:38:36.181008 19219 net.cpp:91] Creating Layer InnerProduct4
I0810 16:38:36.181015 19219 net.cpp:425] InnerProduct4 <- InnerProduct3
I0810 16:38:36.181025 19219 net.cpp:399] InnerProduct4 -> InnerProduct4
I0810 16:38:36.181203 19219 net.cpp:141] Setting up InnerProduct4
I0810 16:38:36.181215 19219 net.cpp:148] Top shape: 400 50 (20000)
I0810 16:38:36.181219 19219 net.cpp:156] Memory required for data: 777900800
I0810 16:38:36.181226 19219 net.cpp:484] Sharing parameters 'ip2_w' owned by layer 'InnerProduct2', param index 0
I0810 16:38:36.181233 19219 net.cpp:484] Sharing parameters 'ip2_b' owned by layer 'InnerProduct2', param index 1
I0810 16:38:36.181241 19219 layer_factory.hpp:77] Creating layer Concat1
I0810 16:38:36.181264 19219 net.cpp:91] Creating Layer Concat1
I0810 16:38:36.181270 19219 net.cpp:425] Concat1 <- InnerProduct2
I0810 16:38:36.181278 19219 net.cpp:425] Concat1 <- InnerProduct4
I0810 16:38:36.181288 19219 net.cpp:399] Concat1 -> Concat1
I0810 16:38:36.181319 19219 net.cpp:141] Setting up Concat1
I0810 16:38:36.181329 19219 net.cpp:148] Top shape: 400 100 (40000)
I0810 16:38:36.181335 19219 net.cpp:156] Memory required for data: 778060800
I0810 16:38:36.181340 19219 layer_factory.hpp:77] Creating layer InnerProduct5
I0810 16:38:36.181350 19219 net.cpp:91] Creating Layer InnerProduct5
I0810 16:38:36.181356 19219 net.cpp:425] InnerProduct5 <- Concat1
I0810 16:38:36.181366 19219 net.cpp:399] InnerProduct5 -> InnerProduct5
I0810 16:38:36.181540 19219 net.cpp:141] Setting up InnerProduct5
I0810 16:38:36.181551 19219 net.cpp:148] Top shape: 400 64 (25600)
I0810 16:38:36.181557 19219 net.cpp:156] Memory required for data: 778163200
I0810 16:38:36.181573 19219 layer_factory.hpp:77] Creating layer ReLU3
I0810 16:38:36.181586 19219 net.cpp:91] Creating Layer ReLU3
I0810 16:38:36.181591 19219 net.cpp:425] ReLU3 <- InnerProduct5
I0810 16:38:36.181601 19219 net.cpp:386] ReLU3 -> InnerProduct5 (in-place)
I0810 16:38:36.181609 19219 net.cpp:141] Setting up ReLU3
I0810 16:38:36.181617 19219 net.cpp:148] Top shape: 400 64 (25600)
I0810 16:38:36.181622 19219 net.cpp:156] Memory required for data: 778265600
I0810 16:38:36.181628 19219 layer_factory.hpp:77] Creating layer InnerProduct6
I0810 16:38:36.181638 19219 net.cpp:91] Creating Layer InnerProduct6
I0810 16:38:36.181644 19219 net.cpp:425] InnerProduct6 <- InnerProduct5
I0810 16:38:36.181654 19219 net.cpp:399] InnerProduct6 -> InnerProduct6
I0810 16:38:36.181795 19219 net.cpp:141] Setting up InnerProduct6
I0810 16:38:36.181805 19219 net.cpp:148] Top shape: 400 32 (12800)
I0810 16:38:36.181812 19219 net.cpp:156] Memory required for data: 778316800
I0810 16:38:36.181819 19219 layer_factory.hpp:77] Creating layer ReLU4
I0810 16:38:36.181828 19219 net.cpp:91] Creating Layer ReLU4
I0810 16:38:36.181833 19219 net.cpp:425] ReLU4 <- InnerProduct6
I0810 16:38:36.181841 19219 net.cpp:386] ReLU4 -> InnerProduct6 (in-place)
I0810 16:38:36.181850 19219 net.cpp:141] Setting up ReLU4
I0810 16:38:36.181857 19219 net.cpp:148] Top shape: 400 32 (12800)
I0810 16:38:36.181864 19219 net.cpp:156] Memory required for data: 778368000
I0810 16:38:36.181870 19219 layer_factory.hpp:77] Creating layer dt
I0810 16:38:36.181880 19219 net.cpp:91] Creating Layer dt
I0810 16:38:36.181886 19219 net.cpp:425] dt <- InnerProduct6
I0810 16:38:36.181907 19219 net.cpp:399] dt -> dt
I0810 16:38:36.182031 19219 net.cpp:141] Setting up dt
I0810 16:38:36.182041 19219 net.cpp:148] Top shape: 400 2 (800)
I0810 16:38:36.182047 19219 net.cpp:156] Memory required for data: 778371200
I0810 16:38:36.182056 19219 layer_factory.hpp:77] Creating layer dt_dt_0_split
I0810 16:38:36.182065 19219 net.cpp:91] Creating Layer dt_dt_0_split
I0810 16:38:36.182070 19219 net.cpp:425] dt_dt_0_split <- dt
I0810 16:38:36.182078 19219 net.cpp:399] dt_dt_0_split -> dt_dt_0_split_0
I0810 16:38:36.182090 19219 net.cpp:399] dt_dt_0_split -> dt_dt_0_split_1
I0810 16:38:36.182132 19219 net.cpp:141] Setting up dt_dt_0_split
I0810 16:38:36.182140 19219 net.cpp:148] Top shape: 400 2 (800)
I0810 16:38:36.182148 19219 net.cpp:148] Top shape: 400 2 (800)
I0810 16:38:36.182155 19219 net.cpp:156] Memory required for data: 778377600
I0810 16:38:36.182162 19219 layer_factory.hpp:77] Creating layer accuracy
I0810 16:38:36.182174 19219 net.cpp:91] Creating Layer accuracy
I0810 16:38:36.182180 19219 net.cpp:425] accuracy <- dt_dt_0_split_0
I0810 16:38:36.182188 19219 net.cpp:425] accuracy <- th_th_0_split_0
I0810 16:38:36.182198 19219 net.cpp:399] accuracy -> accuracy
…
I0810 16:38:36.184727 19219 solver.cpp:181] Creating test net (#0) specified by test_net file: examples/scene/matchNetTestHingeMini.prototxt
I0810 16:38:36.185092 19219 net.cpp:49] Initializing net from parameters: 
state {
  phase: TEST
}
layer {
  name: "data"
  type: "Data"
  top: "data"
  top: "label"
  include {
    phase: TEST
  }
  transform_param {
    scale: 0.0039215689
    mirror: true
    mean_file: "examples/scene/scene_mean.binaryproto"
  }
  data_param {
    source: "examples/scene/test_pairs_1000_pad.lmdb"
    batch_size: 100
    backend: LMDB
  }
}
layer {
  name: "th"
  type: "Threshold"
  bottom: "label"
  top: "th"
  threshold_param {
    threshold: 0
  }
}
layer {
  name: "i1"
  type: "Slice"
  bottom: "data"
  top: "i1"
  top: "i2"
  slice_param {
    slice_dim: 1
    slice_point: 3
  }
}
layer {
  name: "p1"
  type: "Pooling"
  bottom: "i1"
  top: "p1"
  pooling_param {
    pool: AVE
    kernel_size: 2
    stride: 2
  }
}
layer {
  name: "p2"
  type: "Pooling"
  bottom: "i2"
  top: "p2"
  pooling_param {
    pool: AVE
    kernel_size: 2
    stride: 2
  }
}
layer {
  name: "Convolution1"
  type: "Convolution"
  bottom: "p1"
  top: "Convolution1"
  param {
    name: "conv1_w"
    lr_mult: 1
  }
  param {
    name: "conv1_b"
    lr_mult: 2
  }
  convolution_param {
    num_output: 20
    kernel_size: 5
    stride: 1
    weight_filler {
      type: "xavier"
    }
    bias_filler {
      type: "constant"
    }
  }
}
layer {
  name: "Pooling1"
  type: "Pooling"
  bottom: "Convolution1"
  top: "Pooling1"
  pooling_param {
    pool: MAX
    kernel_size: 2
    stride: 2
  }
}
layer {
  name: "Convolution2"
  type: "Convolution"
  bottom: "Pooling1"
  top: "Convolution2"
  param {
    name: "conv2_w"
    lr_mult: 1
  }
  param {
    name: "conv2_b"
    lr_mult: 2
  }
  convolution_param {
    num_output: 50
    kernel_size: 5
    stride: 1
    weight_filler {
      type: "xavier"
    }
    bias_filler {
      type: "constant"
    }
  }
}
layer {
  name: "Pooling2"
  type: "Pooling"
  bottom: "Convolution2"
  top: "Pooling2"
  pooling_param {
    pool: MAX
    kernel_size: 2
    stride: 2
  }
}
layer {
  name: "InnerProduct1"
  type: "InnerProduct"
  bottom: "Pooling2"
  top: "InnerProduct1"
  param {
    name: "ip1_w"
    lr_mult: 1
  }
  param {
    name: "ip1_b"
    lr_mult: 2
  }
  inner_product_param {
    num_output: 100
    weight_filler {
      type: "xavier"
    }
    bias_filler {
      type: "constant"
    }
  }
}
layer {
  name: "ReLU1"
  type: "ReLU"
  bottom: "InnerProduct1"
  top: "InnerProduct1"
}
layer {
  name: "InnerProduct2"
  type: "InnerProduct"
  bottom: "InnerProduct1"
  top: "InnerProduct2"
  param {
    name: "ip2_w"
    lr_mult: 1
  }
  param {
    name: "ip2_b"
    lr_mult: 2
  }
  inner_product_param {
    num_output: 50
    weight_filler {
      type: "xavier"
    }
    bias_filler {
      type: "constant"
    }
  }
}
layer {
  name: "Convolution3"
  type: "Convolution"
  bottom: "p2"
  top: "Convolution3"
  param {
    name: "conv1_w"
    lr_mult: 1
  }
  param {
    name: "conv1_b"
    lr_mult: 2
  }
  convolution_param {
    num_output: 20
    kernel_size: 5
    stride: 1
    weight_filler {
      type: "xavier"
    }
    bias_filler {
      type: "constant"
    }
  }
}
layer {
  name: "Pooling3"
  type: "Pooling"
  bottom: "Convolution3"
  top: "Pooling3"
  pooling_param {
    pool: MAX
    kernel_size: 2
    stride: 2
  }
}
layer {
  name: "Convolution4"
  type: "Convolution"
  bottom: "Pooling3"
  top: "Convolution4"
  param {
    name: "conv2_w"
    lr_mult: 1
  }
  param {
    name: "conv2_b"
    lr_mult: 2
  }
  convolution_param {
    num_output: 50
    kernel_size: 5
    stride: 1
    weight_filler {
      type: "xavier"
    }
    bias_filler {
      type: "constant"
    }
  }
}
layer {
  name: "Pooling4"
  type: "Pooling"
  bottom: "Convolution4"
  top: "Pooling4"
  pooling_param {
    pool: MAX
    kernel_size: 2
    stride: 2
  }
}
layer {
  name: "InnerProduct3"
  type: "InnerProduct"
  bottom: "Pooling4"
  top: "InnerProduct3"
  param {
    name: "ip1_w"
    lr_mult: 1
  }
  param {
    name: "ip1_b"
    lr_mult: 2
  }
  inner_product_param {
    num_output: 100
    weight_filler {
      type: "xavier"
    }
    bias_filler {
      type: "constant"
    }
  }
}
layer {
  name: "ReLU2"
  type: "ReLU"
  bottom: "InnerProduct3"
  top: "InnerProduct3"
}
layer {
  name: "InnerProduct4"
  type: "InnerProduct"
  bottom: "InnerProduct3"
  top: "InnerProduct4"
  param {
    name: "ip2_w"
    lr_mult: 1
  }
  param {
    name: "ip2_b"
    lr_mult: 2
  }
  inner_product_param {
    num_output: 50
    weight_filler {
      type: "xavier"
    }
    bias_filler {
      type: "constant"
    }
  }
}
layer {
  name: "Concat1"
  type: "Concat"
  bottom: "InnerProduct2"
  bottom: "InnerProduct4"
  top: "Concat1"
  concat_param {
    axis: 1
  }
}
layer {
  name: "InnerProduct5"
  type: "InnerProduct"
  bottom: "Concat1"
  top: "InnerProduct5"
  param {
    name: "fc1_w"
    lr_mult: 1
  }
  param {
    name: "fc1_b"
    lr_mult: 2
  }
  inner_product_param {
    num_output: 64
    weight_filler {
      type: "xavier"
    }
    bias_filler {
      type: "constant"
    }
  }
}
layer {
  name: "ReLU3"
  type: "ReLU"
  bottom: "InnerProduct5"
  top: "InnerProduct5"
}
layer {
  name: "InnerProduct6"
  type: "InnerProduct"
  bottom: "InnerProduct5"
  top: "InnerProduct6"
  param {
    name: "fc2_w"
    lr_mult: 1
  }
  param {
    name: "fc2_b"
    lr_mult: 2
  }
  inner_product_param {
    num_output: 32
    weight_filler {
      type: "xavier"
    }
    bias_filler {
      type: "constant"
    }
  }
}
layer {
  name: "ReLU4"
  type: "ReLU"
  bottom: "InnerProduct6"
  top: "InnerProduct6"
}
layer {
  name: "dt"
  type: "InnerProduct"
  bottom: "InnerProduct6"
  top: "dt"
  param {
    name: "fc3_w"
    lr_mult: 1
  }
  param {
    name: "fc3_b"
    lr_mult: 2
  }
  inner_product_param {
    num_output: 2
    weight_filler {
      type: "xavier"
    }
    bias_filler {
      type: "constant"
    }
  }
}
layer {
  name: "accuracy"
  type: "Accuracy"
  bottom: "dt"
  bottom: "th"
  top: "accuracy"
  include {
    phase: TEST
  }
}
layer {
  name: "loss"
  type: "HingeLoss"
  bottom: "dt"
  bottom: "th"
  top: "loss"
}
I0810 16:38:36.185281 19219 layer_factory.hpp:77] Creating layer data
I0810 16:38:36.185432 19219 net.cpp:91] Creating Layer data
I0810 16:38:36.185446 19219 net.cpp:399] data -> data
I0810 16:38:36.185462 19219 net.cpp:399] data -> label
I0810 16:38:36.185477 19219 data_transformer.cpp:25] Loading mean file from: examples/scene/scene_mean.binaryproto
I0810 16:38:36.186439 19227 db_lmdb.cpp:35] Opened lmdb examples/scene/test_pairs_1000_pad.lmdb
I0810 16:38:36.187542 19219 data_layer.cpp:41] output data size: 100,6,128,128
I0810 16:38:36.297725 19219 net.cpp:141] Setting up data
I0810 16:38:36.297811 19219 net.cpp:148] Top shape: 100 6 128 128 (9830400)
I0810 16:38:36.297852 19219 net.cpp:148] Top shape: 100 (100)
I0810 16:38:36.297878 19219 net.cpp:156] Memory required for data: 39322000
I0810 16:38:36.297909 19219 layer_factory.hpp:77] Creating layer th
I0810 16:38:36.297945 19219 net.cpp:91] Creating Layer th
I0810 16:38:36.297971 19219 net.cpp:425] th <- label
I0810 16:38:36.298002 19219 net.cpp:399] th -> th
I0810 16:38:36.298092 19219 net.cpp:141] Setting up th
I0810 16:38:36.299543 19219 net.cpp:148] Top shape: 100 (100)
I0810 16:38:36.299756 19219 net.cpp:156] Memory required for data: 39322400
I0810 16:38:36.299868 19219 layer_factory.hpp:77] Creating layer th_th_0_split
I0810 16:38:36.299995 19219 net.cpp:91] Creating Layer th_th_0_split
I0810 16:38:36.300071 19219 net.cpp:425] th_th_0_split <- th
I0810 16:38:36.300283 19219 net.cpp:399] th_th_0_split -> th_th_0_split_0
I0810 16:38:36.300433 19219 net.cpp:399] th_th_0_split -> th_th_0_split_1
I0810 16:38:36.300626 19219 net.cpp:141] Setting up th_th_0_split
I0810 16:38:36.300746 19219 net.cpp:148] Top shape: 100 (100)
I0810 16:38:36.300855 19219 net.cpp:148] Top shape: 100 (100)
I0810 16:38:36.300963 19219 net.cpp:156] Memory required for data: 39323200
I0810 16:38:36.301072 19219 layer_factory.hpp:77] Creating layer i1
I0810 16:38:36.301201 19219 net.cpp:91] Creating Layer i1
I0810 16:38:36.301273 19219 net.cpp:425] i1 <- data
I0810 16:38:36.301347 19219 net.cpp:399] i1 -> i1
I0810 16:38:36.301383 19219 net.cpp:399] i1 -> i2
I0810 16:38:36.307485 19219 net.cpp:141] Setting up i1
I0810 16:38:36.307708 19219 net.cpp:148] Top shape: 100 3 128 128 (4915200)
I0810 16:38:36.307886 19219 net.cpp:148] Top shape: 100 3 128 128 (4915200)
I0810 16:38:36.308001 19219 net.cpp:156] Memory required for data: 78644800
I0810 16:38:36.308114 19219 layer_factory.hpp:77] Creating layer p1
I0810 16:38:36.308298 19219 net.cpp:91] Creating Layer p1
I0810 16:38:36.308413 19219 net.cpp:425] p1 <- i1
I0810 16:38:36.308531 19219 net.cpp:399] p1 -> p1
I0810 16:38:36.308687 19219 net.cpp:141] Setting up p1
I0810 16:38:36.308868 19219 net.cpp:148] Top shape: 100 3 64 64 (1228800)
I0810 16:38:36.308980 19219 net.cpp:156] Memory required for data: 83560000
I0810 16:38:36.309092 19219 layer_factory.hpp:77] Creating layer p2
I0810 16:38:36.309272 19219 net.cpp:91] Creating Layer p2
I0810 16:38:36.309381 19219 net.cpp:425] p2 <- i2
I0810 16:38:36.309491 19219 net.cpp:399] p2 -> p2
I0810 16:38:36.309701 19219 net.cpp:141] Setting up p2
I0810 16:38:36.311028 19219 net.cpp:148] Top shape: 100 3 64 64 (1228800)
I0810 16:38:36.311388 19219 net.cpp:156] Memory required for data: 88475200
I0810 16:38:36.311422 19219 layer_factory.hpp:77] Creating layer Convolution1
I0810 16:38:36.311466 19219 net.cpp:91] Creating Layer Convolution1
I0810 16:38:36.311492 19219 net.cpp:425] Convolution1 <- p1
I0810 16:38:36.312114 19219 net.cpp:399] Convolution1 -> Convolution1
I0810 16:38:36.312589 19219 net.cpp:141] Setting up Convolution1
I0810 16:38:36.312886 19219 net.cpp:148] Top shape: 100 20 60 60 (7200000)
I0810 16:38:36.313290 19219 net.cpp:156] Memory required for data: 117275200
I0810 16:38:36.313377 19219 layer_factory.hpp:77] Creating layer Pooling1
I0810 16:38:36.313457 19219 net.cpp:91] Creating Layer Pooling1
I0810 16:38:36.313526 19219 net.cpp:425] Pooling1 <- Convolution1
I0810 16:38:36.313601 19219 net.cpp:399] Pooling1 -> Pooling1
I0810 16:38:36.313740 19219 net.cpp:141] Setting up Pooling1
I0810 16:38:36.313864 19219 net.cpp:148] Top shape: 100 20 30 30 (1800000)
I0810 16:38:36.313971 19219 net.cpp:156] Memory required for data: 124475200
I0810 16:38:36.314079 19219 layer_factory.hpp:77] Creating layer Convolution2
I0810 16:38:36.314158 19219 net.cpp:91] Creating Layer Convolution2
I0810 16:38:36.314227 19219 net.cpp:425] Convolution2 <- Pooling1
I0810 16:38:36.314317 19219 net.cpp:399] Convolution2 -> Convolution2
I0810 16:38:36.314977 19219 net.cpp:141] Setting up Convolution2
I0810 16:38:36.315515 19219 net.cpp:148] Top shape: 100 50 26 26 (3380000)
I0810 16:38:36.315629 19219 net.cpp:156] Memory required for data: 137995200
I0810 16:38:36.315745 19219 layer_factory.hpp:77] Creating layer Pooling2
I0810 16:38:36.315877 19219 net.cpp:91] Creating Layer Pooling2
I0810 16:38:36.315985 19219 net.cpp:425] Pooling2 <- Convolution2
I0810 16:38:36.316097 19219 net.cpp:399] Pooling2 -> Pooling2
I0810 16:38:36.316267 19219 net.cpp:141] Setting up Pooling2
I0810 16:38:36.316397 19219 net.cpp:148] Top shape: 100 50 13 13 (845000)
I0810 16:38:36.316504 19219 net.cpp:156] Memory required for data: 141375200
I0810 16:38:36.316609 19219 layer_factory.hpp:77] Creating layer InnerProduct1
I0810 16:38:36.316722 19219 net.cpp:91] Creating Layer InnerProduct1
I0810 16:38:36.316843 19219 net.cpp:425] InnerProduct1 <- Pooling2
I0810 16:38:36.316973 19219 net.cpp:399] InnerProduct1 -> InnerProduct1
I0810 16:38:36.327421 19219 net.cpp:141] Setting up InnerProduct1
I0810 16:38:36.329941 19219 net.cpp:148] Top shape: 100 100 (10000)
I0810 16:38:36.330099 19219 net.cpp:156] Memory required for data: 141415200
I0810 16:38:36.330231 19219 layer_factory.hpp:77] Creating layer ReLU1
I0810 16:38:36.330350 19219 net.cpp:91] Creating Layer ReLU1
I0810 16:38:36.330463 19219 net.cpp:425] ReLU1 <- InnerProduct1
I0810 16:38:36.330596 19219 net.cpp:386] ReLU1 -> InnerProduct1 (in-place)
I0810 16:38:36.330719 19219 net.cpp:141] Setting up ReLU1
I0810 16:38:36.330832 19219 net.cpp:148] Top shape: 100 100 (10000)
I0810 16:38:36.330941 19219 net.cpp:156] Memory required for data: 141455200
I0810 16:38:36.331050 19219 layer_factory.hpp:77] Creating layer InnerProduct2
I0810 16:38:36.331182 19219 net.cpp:91] Creating Layer InnerProduct2
I0810 16:38:36.331310 19219 net.cpp:425] InnerProduct2 <- InnerProduct1
I0810 16:38:36.331431 19219 net.cpp:399] InnerProduct2 -> InnerProduct2
I0810 16:38:36.331971 19219 net.cpp:141] Setting up InnerProduct2
I0810 16:38:36.332101 19219 net.cpp:148] Top shape: 100 50 (5000)
I0810 16:38:36.332227 19219 net.cpp:156] Memory required for data: 141475200
I0810 16:38:36.332341 19219 layer_factory.hpp:77] Creating layer Convolution3
I0810 16:38:36.332459 19219 net.cpp:91] Creating Layer Convolution3
I0810 16:38:36.332567 19219 net.cpp:425] Convolution3 <- p2
I0810 16:38:36.332697 19219 net.cpp:399] Convolution3 -> Convolution3
I0810 16:38:36.333305 19219 net.cpp:141] Setting up Convolution3
I0810 16:38:36.333433 19219 net.cpp:148] Top shape: 100 20 60 60 (7200000)
I0810 16:38:36.333540 19219 net.cpp:156] Memory required for data: 170275200
I0810 16:38:36.333726 19219 net.cpp:484] Sharing parameters 'conv1_w' owned by layer 'Convolution1', param index 0
I0810 16:38:36.333842 19219 net.cpp:484] Sharing parameters 'conv1_b' owned by layer 'Convolution1', param index 1
I0810 16:38:36.333951 19219 layer_factory.hpp:77] Creating layer Pooling3
I0810 16:38:36.334066 19219 net.cpp:91] Creating Layer Pooling3
I0810 16:38:36.334188 19219 net.cpp:425] Pooling3 <- Convolution3
I0810 16:38:36.334306 19219 net.cpp:399] Pooling3 -> Pooling3
I0810 16:38:36.334483 19219 net.cpp:141] Setting up Pooling3
I0810 16:38:36.334599 19219 net.cpp:148] Top shape: 100 20 30 30 (1800000)
I0810 16:38:36.334720 19219 net.cpp:156] Memory required for data: 177475200
I0810 16:38:36.334830 19219 layer_factory.hpp:77] Creating layer Convolution4
I0810 16:38:36.334946 19219 net.cpp:91] Creating Layer Convolution4
I0810 16:38:36.335054 19219 net.cpp:425] Convolution4 <- Pooling3
I0810 16:38:36.335173 19219 net.cpp:399] Convolution4 -> Convolution4
I0810 16:38:36.335899 19219 net.cpp:141] Setting up Convolution4
I0810 16:38:36.336030 19219 net.cpp:148] Top shape: 100 50 26 26 (3380000)
I0810 16:38:36.336136 19219 net.cpp:156] Memory required for data: 190995200
I0810 16:38:36.336259 19219 net.cpp:484] Sharing parameters 'conv2_w' owned by layer 'Convolution2', param index 0
I0810 16:38:36.336369 19219 net.cpp:484] Sharing parameters 'conv2_b' owned by layer 'Convolution2', param index 1
I0810 16:38:36.336472 19219 layer_factory.hpp:77] Creating layer Pooling4
I0810 16:38:36.336585 19219 net.cpp:91] Creating Layer Pooling4
I0810 16:38:36.336688 19219 net.cpp:425] Pooling4 <- Convolution4
I0810 16:38:36.336796 19219 net.cpp:399] Pooling4 -> Pooling4
I0810 16:38:36.336951 19219 net.cpp:141] Setting up Pooling4
I0810 16:38:36.337076 19219 net.cpp:148] Top shape: 100 50 13 13 (845000)
I0810 16:38:36.337185 19219 net.cpp:156] Memory required for data: 194375200
I0810 16:38:36.337291 19219 layer_factory.hpp:77] Creating layer InnerProduct3
I0810 16:38:36.337404 19219 net.cpp:91] Creating Layer InnerProduct3
I0810 16:38:36.337507 19219 net.cpp:425] InnerProduct3 <- Pooling4
I0810 16:38:36.337638 19219 net.cpp:399] InnerProduct3 -> InnerProduct3
I0810 16:38:36.347350 19219 net.cpp:141] Setting up InnerProduct3
I0810 16:38:36.347592 19219 net.cpp:148] Top shape: 100 100 (10000)
I0810 16:38:36.347733 19219 net.cpp:156] Memory required for data: 194415200
I0810 16:38:36.347816 19219 net.cpp:484] Sharing parameters 'ip1_w' owned by layer 'InnerProduct1', param index 0
I0810 16:38:36.347863 19219 net.cpp:484] Sharing parameters 'ip1_b' owned by layer 'InnerProduct1', param index 1
I0810 16:38:36.347890 19219 layer_factory.hpp:77] Creating layer ReLU2
I0810 16:38:36.347923 19219 net.cpp:91] Creating Layer ReLU2
I0810 16:38:36.347950 19219 net.cpp:425] ReLU2 <- InnerProduct3
I0810 16:38:36.347980 19219 net.cpp:386] ReLU2 -> InnerProduct3 (in-place)
I0810 16:38:36.348016 19219 net.cpp:141] Setting up ReLU2
I0810 16:38:36.348043 19219 net.cpp:148] Top shape: 100 100 (10000)
I0810 16:38:36.348067 19219 net.cpp:156] Memory required for data: 194455200
I0810 16:38:36.348091 19219 layer_factory.hpp:77] Creating layer InnerProduct4
I0810 16:38:36.348125 19219 net.cpp:91] Creating Layer InnerProduct4
I0810 16:38:36.348150 19219 net.cpp:425] InnerProduct4 <- InnerProduct3
I0810 16:38:36.348181 19219 net.cpp:399] InnerProduct4 -> InnerProduct4
I0810 16:38:36.348425 19219 net.cpp:141] Setting up InnerProduct4
I0810 16:38:36.348459 19219 net.cpp:148] Top shape: 100 50 (5000)
I0810 16:38:36.348484 19219 net.cpp:156] Memory required for data: 194475200
I0810 16:38:36.348510 19219 net.cpp:484] Sharing parameters 'ip2_w' owned by layer 'InnerProduct2', param index 0
I0810 16:38:36.348537 19219 net.cpp:484] Sharing parameters 'ip2_b' owned by layer 'InnerProduct2', param index 1
I0810 16:38:36.348564 19219 layer_factory.hpp:77] Creating layer Concat1
I0810 16:38:36.348593 19219 net.cpp:91] Creating Layer Concat1
I0810 16:38:36.348618 19219 net.cpp:425] Concat1 <- InnerProduct2
I0810 16:38:36.348645 19219 net.cpp:425] Concat1 <- InnerProduct4
I0810 16:38:36.348673 19219 net.cpp:399] Concat1 -> Concat1
I0810 16:38:36.348731 19219 net.cpp:141] Setting up Concat1
I0810 16:38:36.348768 19219 net.cpp:148] Top shape: 100 100 (10000)
I0810 16:38:36.348795 19219 net.cpp:156] Memory required for data: 194515200
I0810 16:38:36.348819 19219 layer_factory.hpp:77] Creating layer InnerProduct5
I0810 16:38:36.348850 19219 net.cpp:91] Creating Layer InnerProduct5
I0810 16:38:36.348872 19219 net.cpp:425] InnerProduct5 <- Concat1
I0810 16:38:36.348901 19219 net.cpp:399] InnerProduct5 -> InnerProduct5
I0810 16:38:36.349128 19219 net.cpp:141] Setting up InnerProduct5
I0810 16:38:36.349156 19219 net.cpp:148] Top shape: 100 64 (6400)
I0810 16:38:36.349180 19219 net.cpp:156] Memory required for data: 194540800
I0810 16:38:36.349216 19219 layer_factory.hpp:77] Creating layer ReLU3
I0810 16:38:36.349247 19219 net.cpp:91] Creating Layer ReLU3
I0810 16:38:36.349282 19219 net.cpp:425] ReLU3 <- InnerProduct5
I0810 16:38:36.349309 19219 net.cpp:386] ReLU3 -> InnerProduct5 (in-place)
I0810 16:38:36.349339 19219 net.cpp:141] Setting up ReLU3
I0810 16:38:36.349364 19219 net.cpp:148] Top shape: 100 64 (6400)
I0810 16:38:36.349387 19219 net.cpp:156] Memory required for data: 194566400
I0810 16:38:36.349411 19219 layer_factory.hpp:77] Creating layer InnerProduct6
I0810 16:38:36.349439 19219 net.cpp:91] Creating Layer InnerProduct6
I0810 16:38:36.349465 19219 net.cpp:425] InnerProduct6 <- InnerProduct5
I0810 16:38:36.349494 19219 net.cpp:399] InnerProduct6 -> InnerProduct6
I0810 16:38:36.349684 19219 net.cpp:141] Setting up InnerProduct6
I0810 16:38:36.349712 19219 net.cpp:148] Top shape: 100 32 (3200)
I0810 16:38:36.349736 19219 net.cpp:156] Memory required for data: 194579200
I0810 16:38:36.349774 19219 layer_factory.hpp:77] Creating layer ReLU4
I0810 16:38:36.349807 19219 net.cpp:91] Creating Layer ReLU4
I0810 16:38:36.349833 19219 net.cpp:425] ReLU4 <- InnerProduct6
I0810 16:38:36.349859 19219 net.cpp:386] ReLU4 -> InnerProduct6 (in-place)
I0810 16:38:36.349890 19219 net.cpp:141] Setting up ReLU4
I0810 16:38:36.349917 19219 net.cpp:148] Top shape: 100 32 (3200)
I0810 16:38:36.349941 19219 net.cpp:156] Memory required for data: 194592000
I0810 16:38:36.349964 19219 layer_factory.hpp:77] Creating layer dt
I0810 16:38:36.350003 19219 net.cpp:91] Creating Layer dt
I0810 16:38:36.350028 19219 net.cpp:425] dt <- InnerProduct6
I0810 16:38:36.350056 19219 net.cpp:399] dt -> dt
I0810 16:38:36.350224 19219 net.cpp:141] Setting up dt
I0810 16:38:36.350265 19219 net.cpp:148] Top shape: 100 2 (200)
I0810 16:38:36.350298 19219 net.cpp:156] Memory required for data: 194592800
I0810 16:38:36.350330 19219 layer_factory.hpp:77] Creating layer dt_dt_0_split
I0810 16:38:36.350360 19219 net.cpp:91] Creating Layer dt_dt_0_split
I0810 16:38:36.350384 19219 net.cpp:425] dt_dt_0_split <- dt
I0810 16:38:36.350411 19219 net.cpp:399] dt_dt_0_split -> dt_dt_0_split_0
I0810 16:38:36.350441 19219 net.cpp:399] dt_dt_0_split -> dt_dt_0_split_1
I0810 16:38:36.350514 19219 net.cpp:141] Setting up dt_dt_0_split
I0810 16:38:36.350541 19219 net.cpp:148] Top shape: 100 2 (200)
I0810 16:38:36.350567 19219 net.cpp:148] Top shape: 100 2 (200)
I0810 16:38:36.350590 19219 net.cpp:156] Memory required for data: 194594400
I0810 16:38:36.350613 19219 layer_factory.hpp:77] Creating layer accuracy
I0810 16:38:36.350642 19219 net.cpp:91] Creating Layer accuracy
I0810 16:38:36.350666 19219 net.cpp:425] accuracy <- dt_dt_0_split_0
I0810 16:38:36.350692 19219 net.cpp:425] accuracy <- th_th_0_split_0
I0810 16:38:36.350720 19219 net.cpp:399] accuracy -> accuracy
…
