…
device_id: 0
I0727 16:25:53.745610 11073 solver.cpp:81] Creating training net from train_net file: examples/scene/matchNetTrainHingeSimple.prototxt
I0727 16:25:53.783809 11073 net.cpp:49] Initializing net from parameters: 
state {
  phase: TRAIN
}
layer {
  name: "data"
  type: "Data"
  top: "data"
  top: "label"
  include {
    phase: TRAIN
  }
  transform_param {
    scale: 0.0039215689
    mirror: true
    mean_file: "examples/scene/scene_mean.binaryproto"
  }
  data_param {
    source: "examples/scene/train_pairs.lmdb"
    batch_size: 128
    backend: LMDB
  }
}
layer {
  name: "i1"
  type: "Slice"
  bottom: "data"
  top: "i1"
  top: "i2"
  slice_param {
    slice_dim: 1
    slice_point: 3
  }
}
layer {
  name: "p1"
  type: "Pooling"
  bottom: "i1"
  top: "p1"
  pooling_param {
    pool: AVE
    kernel_size: 2
    stride: 2
  }
}
layer {
  name: "p2"
  type: "Pooling"
  bottom: "i2"
  top: "p2"
  pooling_param {
    pool: AVE
    kernel_size: 2
    stride: 2
  }
}
layer {
  name: "Convolution1"
  type: "Convolution"
  bottom: "p1"
  top: "Convolution1"
  param {
    name: "conv1_w"
    lr_mult: 1
  }
  param {
    name: "conv1_b"
    lr_mult: 2
  }
  convolution_param {
    num_output: 20
    kernel_size: 5
    stride: 1
    weight_filler {
      type: "xavier"
    }
    bias_filler {
      type: "constant"
    }
  }
}
layer {
  name: "Pooling1"
  type: "Pooling"
  bottom: "Convolution1"
  top: "Pooling1"
  pooling_param {
    pool: MAX
    kernel_size: 2
    stride: 2
  }
}
layer {
  name: "Convolution2"
  type: "Convolution"
  bottom: "Pooling1"
  top: "Convolution2"
  param {
    name: "conv2_w"
    lr_mult: 1
  }
  param {
    name: "conv2_b"
    lr_mult: 2
  }
  convolution_param {
    num_output: 50
    kernel_size: 5
    stride: 1
    weight_filler {
      type: "xavier"
    }
    bias_filler {
      type: "constant"
    }
  }
}
layer {
  name: "Pooling2"
  type: "Pooling"
  bottom: "Convolution2"
  top: "Pooling2"
  pooling_param {
    pool: MAX
    kernel_size: 2
    stride: 2
  }
}
layer {
  name: "InnerProduct1"
  type: "InnerProduct"
  bottom: "Pooling2"
  top: "InnerProduct1"
  param {
    name: "ip1_w"
    lr_mult: 1
  }
  param {
    name: "ip1_b"
    lr_mult: 2
  }
  inner_product_param {
    num_output: 500
    weight_filler {
      type: "xavier"
    }
    bias_filler {
      type: "constant"
    }
  }
}
layer {
  name: "ReLU1"
  type: "ReLU"
  bottom: "InnerProduct1"
  top: "InnerProduct1"
}
layer {
  name: "InnerProduct2"
  type: "InnerProduct"
  bottom: "InnerProduct1"
  top: "InnerProduct2"
  param {
    name: "ip2_w"
    lr_mult: 1
  }
  param {
    name: "ip2_b"
    lr_mult: 2
  }
  inner_product_param {
    num_output: 500
    weight_filler {
      type: "xavier"
    }
    bias_filler {
      type: "constant"
    }
  }
}
layer {
  name: "Convolution3"
  type: "Convolution"
  bottom: "p2"
  top: "Convolution3"
  param {
    name: "conv1_w"
    lr_mult: 1
  }
  param {
    name: "conv1_b"
    lr_mult: 2
  }
  convolution_param {
    num_output: 20
    kernel_size: 5
    stride: 1
    weight_filler {
      type: "xavier"
    }
    bias_filler {
      type: "constant"
    }
  }
}
layer {
  name: "Pooling3"
  type: "Pooling"
  bottom: "Convolution3"
  top: "Pooling3"
  pooling_param {
    pool: MAX
    kernel_size: 2
    stride: 2
  }
}
layer {
  name: "Convolution4"
  type: "Convolution"
  bottom: "Pooling3"
  top: "Convolution4"
  param {
    name: "conv2_w"
    lr_mult: 1
  }
  param {
    name: "conv2_b"
    lr_mult: 2
  }
  convolution_param {
    num_output: 50
    kernel_size: 5
    stride: 1
    weight_filler {
      type: "xavier"
    }
    bias_filler {
      type: "constant"
    }
  }
}
layer {
  name: "Pooling4"
  type: "Pooling"
  bottom: "Convolution4"
  top: "Pooling4"
  pooling_param {
    pool: MAX
    kernel_size: 2
    stride: 2
  }
}
layer {
  name: "InnerProduct3"
  type: "InnerProduct"
  bottom: "Pooling4"
  top: "InnerProduct3"
  param {
    name: "ip1_w"
    lr_mult: 1
  }
  param {
    name: "ip1_b"
    lr_mult: 2
  }
  inner_product_param {
    num_output: 500
    weight_filler {
      type: "xavier"
    }
    bias_filler {
      type: "constant"
    }
  }
}
layer {
  name: "ReLU2"
  type: "ReLU"
  bottom: "InnerProduct3"
  top: "InnerProduct3"
}
layer {
  name: "InnerProduct4"
  type: "InnerProduct"
  bottom: "InnerProduct3"
  top: "InnerProduct4"
  param {
    name: "ip2_w"
    lr_mult: 1
  }
  param {
    name: "ip2_b"
    lr_mult: 2
  }
  inner_product_param {
    num_output: 500
    weight_filler {
      type: "xavier"
    }
    bias_filler {
      type: "constant"
    }
  }
}
layer {
  name: "Concat1"
  type: "Concat"
  bottom: "InnerProduct2"
  bottom: "InnerProduct4"
  top: "Concat1"
  concat_param {
    axis: 1
  }
}
layer {
  name: "InnerProduct5"
  type: "InnerProduct"
  bottom: "Concat1"
  top: "InnerProduct5"
  param {
    name: "fc1_w"
    lr_mult: 1
  }
  param {
    name: "fc1_b"
    lr_mult: 2
  }
  inner_product_param {
    num_output: 512
    weight_filler {
      type: "xavier"
    }
    bias_filler {
      type: "constant"
    }
  }
}
layer {
  name: "ReLU3"
  type: "ReLU"
  bottom: "InnerProduct5"
  top: "InnerProduct5"
}
layer {
  name: "InnerProduct6"
  type: "InnerProduct"
  bottom: "InnerProduct5"
  top: "InnerProduct6"
  param {
    name: "fc2_w"
    lr_mult: 1
  }
  param {
    name: "fc2_b"
    lr_mult: 2
  }
  inner_product_param {
    num_output: 512
    weight_filler {
      type: "xavier"
    }
    bias_filler {
      type: "constant"
    }
  }
}
layer {
  name: "ReLU4"
  type: "ReLU"
  bottom: "InnerProduct6"
  top: "InnerProduct6"
}
layer {
  name: "dt"
  type: "InnerProduct"
  bottom: "InnerProduct6"
  top: "dt"
  param {
    name: "fc3_w"
    lr_mult: 1
  }
  param {
    name: "fc3_b"
    lr_mult: 2
  }
  inner_product_param {
    num_output: 1
    weight_filler {
      type: "xavier"
    }
    bias_filler {
      type: "constant"
    }
  }
}
layer {
  name: "accuracy"
  type: "Accuracy"
  bottom: "dt"
  bottom: "label"
  top: "accuracy"
  include {
    phase: TRAIN
  }
}
layer {
  name: "loss"
  type: "HingeLoss"
  bottom: "dt"
  bottom: "label"
  top: "loss"
}
I0727 16:25:53.784622 11073 layer_factory.hpp:77] Creating layer data
I0727 16:25:53.822691 11073 net.cpp:91] Creating Layer data
I0727 16:25:53.822724 11073 net.cpp:399] data -> data
I0727 16:25:53.822764 11073 net.cpp:399] data -> label
I0727 16:25:53.822784 11073 data_transformer.cpp:25] Loading mean file from: examples/scene/scene_mean.binaryproto
I0727 16:25:53.867630 11079 db_lmdb.cpp:35] Opened lmdb examples/scene/train_pairs.lmdb
I0727 16:25:54.183758 11073 data_layer.cpp:41] output data size: 128,6,128,128
I0727 16:25:54.316059 11073 net.cpp:141] Setting up data
I0727 16:25:54.316117 11073 net.cpp:148] Top shape: 128 6 128 128 (12582912)
I0727 16:25:54.316128 11073 net.cpp:148] Top shape: 128 (128)
I0727 16:25:54.316135 11073 net.cpp:156] Memory required for data: 50332160
I0727 16:25:54.316153 11073 layer_factory.hpp:77] Creating layer label_data_1_split
I0727 16:25:54.316176 11073 net.cpp:91] Creating Layer label_data_1_split
I0727 16:25:54.316186 11073 net.cpp:425] label_data_1_split <- label
I0727 16:25:54.316205 11073 net.cpp:399] label_data_1_split -> label_data_1_split_0
I0727 16:25:54.316226 11073 net.cpp:399] label_data_1_split -> label_data_1_split_1
I0727 16:25:54.316335 11073 net.cpp:141] Setting up label_data_1_split
I0727 16:25:54.316346 11073 net.cpp:148] Top shape: 128 (128)
I0727 16:25:54.316355 11073 net.cpp:148] Top shape: 128 (128)
I0727 16:25:54.316362 11073 net.cpp:156] Memory required for data: 50333184
I0727 16:25:54.316370 11073 layer_factory.hpp:77] Creating layer i1
I0727 16:25:54.319959 11073 net.cpp:91] Creating Layer i1
I0727 16:25:54.320036 11073 net.cpp:425] i1 <- data
I0727 16:25:54.320058 11073 net.cpp:399] i1 -> i1
I0727 16:25:54.320083 11073 net.cpp:399] i1 -> i2
I0727 16:25:54.325251 11073 net.cpp:141] Setting up i1
I0727 16:25:54.325289 11073 net.cpp:148] Top shape: 128 3 128 128 (6291456)
I0727 16:25:54.325299 11073 net.cpp:148] Top shape: 128 3 128 128 (6291456)
I0727 16:25:54.325305 11073 net.cpp:156] Memory required for data: 100664832
I0727 16:25:54.325315 11073 layer_factory.hpp:77] Creating layer p1
I0727 16:25:54.325389 11073 net.cpp:91] Creating Layer p1
I0727 16:25:54.325399 11073 net.cpp:425] p1 <- i1
I0727 16:25:54.325412 11073 net.cpp:399] p1 -> p1
I0727 16:25:54.325469 11073 net.cpp:141] Setting up p1
I0727 16:25:54.325479 11073 net.cpp:148] Top shape: 128 3 64 64 (1572864)
I0727 16:25:54.325486 11073 net.cpp:156] Memory required for data: 106956288
I0727 16:25:54.325494 11073 layer_factory.hpp:77] Creating layer p2
I0727 16:25:54.325506 11073 net.cpp:91] Creating Layer p2
I0727 16:25:54.325512 11073 net.cpp:425] p2 <- i2
I0727 16:25:54.325523 11073 net.cpp:399] p2 -> p2
I0727 16:25:54.325552 11073 net.cpp:141] Setting up p2
I0727 16:25:54.325562 11073 net.cpp:148] Top shape: 128 3 64 64 (1572864)
I0727 16:25:54.325569 11073 net.cpp:156] Memory required for data: 113247744
I0727 16:25:54.325577 11073 layer_factory.hpp:77] Creating layer Convolution1
I0727 16:25:54.325599 11073 net.cpp:91] Creating Layer Convolution1
I0727 16:25:54.325606 11073 net.cpp:425] Convolution1 <- p1
I0727 16:25:54.325618 11073 net.cpp:399] Convolution1 -> Convolution1
I0727 16:25:54.338102 11073 net.cpp:141] Setting up Convolution1
I0727 16:25:54.338141 11073 net.cpp:148] Top shape: 128 20 60 60 (9216000)
I0727 16:25:54.338150 11073 net.cpp:156] Memory required for data: 150111744
I0727 16:25:54.338173 11073 layer_factory.hpp:77] Creating layer Pooling1
I0727 16:25:54.338218 11073 net.cpp:91] Creating Layer Pooling1
I0727 16:25:54.338229 11073 net.cpp:425] Pooling1 <- Convolution1
I0727 16:25:54.338240 11073 net.cpp:399] Pooling1 -> Pooling1
I0727 16:25:54.338299 11073 net.cpp:141] Setting up Pooling1
I0727 16:25:54.338311 11073 net.cpp:148] Top shape: 128 20 30 30 (2304000)
I0727 16:25:54.338317 11073 net.cpp:156] Memory required for data: 159327744
I0727 16:25:54.338325 11073 layer_factory.hpp:77] Creating layer Convolution2
I0727 16:25:54.338340 11073 net.cpp:91] Creating Layer Convolution2
I0727 16:25:54.338346 11073 net.cpp:425] Convolution2 <- Pooling1
I0727 16:25:54.338359 11073 net.cpp:399] Convolution2 -> Convolution2
I0727 16:25:54.340322 11073 net.cpp:141] Setting up Convolution2
I0727 16:25:54.340345 11073 net.cpp:148] Top shape: 128 50 26 26 (4326400)
I0727 16:25:54.340353 11073 net.cpp:156] Memory required for data: 176633344
I0727 16:25:54.340368 11073 layer_factory.hpp:77] Creating layer Pooling2
I0727 16:25:54.340382 11073 net.cpp:91] Creating Layer Pooling2
I0727 16:25:54.340389 11073 net.cpp:425] Pooling2 <- Convolution2
I0727 16:25:54.340399 11073 net.cpp:399] Pooling2 -> Pooling2
I0727 16:25:54.340453 11073 net.cpp:141] Setting up Pooling2
I0727 16:25:54.340466 11073 net.cpp:148] Top shape: 128 50 13 13 (1081600)
I0727 16:25:54.340471 11073 net.cpp:156] Memory required for data: 180959744
I0727 16:25:54.340478 11073 layer_factory.hpp:77] Creating layer InnerProduct1
I0727 16:25:54.340490 11073 net.cpp:91] Creating Layer InnerProduct1
I0727 16:25:54.340497 11073 net.cpp:425] InnerProduct1 <- Pooling2
I0727 16:25:54.340507 11073 net.cpp:399] InnerProduct1 -> InnerProduct1
I0727 16:25:54.402698 11073 net.cpp:141] Setting up InnerProduct1
I0727 16:25:54.402737 11073 net.cpp:148] Top shape: 128 500 (64000)
I0727 16:25:54.402746 11073 net.cpp:156] Memory required for data: 181215744
I0727 16:25:54.402775 11073 layer_factory.hpp:77] Creating layer ReLU1
I0727 16:25:54.402792 11073 net.cpp:91] Creating Layer ReLU1
I0727 16:25:54.402802 11073 net.cpp:425] ReLU1 <- InnerProduct1
I0727 16:25:54.402817 11073 net.cpp:386] ReLU1 -> InnerProduct1 (in-place)
I0727 16:25:54.402833 11073 net.cpp:141] Setting up ReLU1
I0727 16:25:54.402881 11073 net.cpp:148] Top shape: 128 500 (64000)
I0727 16:25:54.402889 11073 net.cpp:156] Memory required for data: 181471744
I0727 16:25:54.402896 11073 layer_factory.hpp:77] Creating layer InnerProduct2
I0727 16:25:54.402961 11073 net.cpp:91] Creating Layer InnerProduct2
I0727 16:25:54.402971 11073 net.cpp:425] InnerProduct2 <- InnerProduct1
I0727 16:25:54.402984 11073 net.cpp:399] InnerProduct2 -> InnerProduct2
I0727 16:25:54.406047 11073 net.cpp:141] Setting up InnerProduct2
I0727 16:25:54.406075 11073 net.cpp:148] Top shape: 128 500 (64000)
I0727 16:25:54.406085 11073 net.cpp:156] Memory required for data: 181727744
I0727 16:25:54.406100 11073 layer_factory.hpp:77] Creating layer Convolution3
I0727 16:25:54.406121 11073 net.cpp:91] Creating Layer Convolution3
I0727 16:25:54.406129 11073 net.cpp:425] Convolution3 <- p2
I0727 16:25:54.406144 11073 net.cpp:399] Convolution3 -> Convolution3
I0727 16:25:54.406522 11073 net.cpp:141] Setting up Convolution3
I0727 16:25:54.406533 11073 net.cpp:148] Top shape: 128 20 60 60 (9216000)
I0727 16:25:54.406540 11073 net.cpp:156] Memory required for data: 218591744
I0727 16:25:54.406553 11073 net.cpp:484] Sharing parameters 'conv1_w' owned by layer 'Convolution1', param index 0
I0727 16:25:54.406561 11073 net.cpp:484] Sharing parameters 'conv1_b' owned by layer 'Convolution1', param index 1
I0727 16:25:54.406569 11073 layer_factory.hpp:77] Creating layer Pooling3
I0727 16:25:54.406579 11073 net.cpp:91] Creating Layer Pooling3
I0727 16:25:54.406586 11073 net.cpp:425] Pooling3 <- Convolution3
I0727 16:25:54.406596 11073 net.cpp:399] Pooling3 -> Pooling3
I0727 16:25:54.406646 11073 net.cpp:141] Setting up Pooling3
I0727 16:25:54.406658 11073 net.cpp:148] Top shape: 128 20 30 30 (2304000)
I0727 16:25:54.406666 11073 net.cpp:156] Memory required for data: 227807744
I0727 16:25:54.406672 11073 layer_factory.hpp:77] Creating layer Convolution4
I0727 16:25:54.406685 11073 net.cpp:91] Creating Layer Convolution4
I0727 16:25:54.406692 11073 net.cpp:425] Convolution4 <- Pooling3
I0727 16:25:54.406703 11073 net.cpp:399] Convolution4 -> Convolution4
I0727 16:25:54.407270 11073 net.cpp:141] Setting up Convolution4
I0727 16:25:54.407286 11073 net.cpp:148] Top shape: 128 50 26 26 (4326400)
I0727 16:25:54.407294 11073 net.cpp:156] Memory required for data: 245113344
I0727 16:25:54.407302 11073 net.cpp:484] Sharing parameters 'conv2_w' owned by layer 'Convolution2', param index 0
I0727 16:25:54.407312 11073 net.cpp:484] Sharing parameters 'conv2_b' owned by layer 'Convolution2', param index 1
I0727 16:25:54.407321 11073 layer_factory.hpp:77] Creating layer Pooling4
I0727 16:25:54.407332 11073 net.cpp:91] Creating Layer Pooling4
I0727 16:25:54.407341 11073 net.cpp:425] Pooling4 <- Convolution4
I0727 16:25:54.407352 11073 net.cpp:399] Pooling4 -> Pooling4
I0727 16:25:54.407407 11073 net.cpp:141] Setting up Pooling4
I0727 16:25:54.407419 11073 net.cpp:148] Top shape: 128 50 13 13 (1081600)
I0727 16:25:54.407428 11073 net.cpp:156] Memory required for data: 249439744
I0727 16:25:54.407435 11073 layer_factory.hpp:77] Creating layer InnerProduct3
I0727 16:25:54.407454 11073 net.cpp:91] Creating Layer InnerProduct3
I0727 16:25:54.407462 11073 net.cpp:425] InnerProduct3 <- Pooling4
I0727 16:25:54.407474 11073 net.cpp:399] InnerProduct3 -> InnerProduct3
I0727 16:25:54.454177 11073 net.cpp:141] Setting up InnerProduct3
I0727 16:25:54.454228 11073 net.cpp:148] Top shape: 128 500 (64000)
I0727 16:25:54.454237 11073 net.cpp:156] Memory required for data: 249695744
I0727 16:25:54.454252 11073 net.cpp:484] Sharing parameters 'ip1_w' owned by layer 'InnerProduct1', param index 0
I0727 16:25:54.454318 11073 net.cpp:484] Sharing parameters 'ip1_b' owned by layer 'InnerProduct1', param index 1
I0727 16:25:54.454330 11073 layer_factory.hpp:77] Creating layer ReLU2
I0727 16:25:54.454351 11073 net.cpp:91] Creating Layer ReLU2
I0727 16:25:54.454365 11073 net.cpp:425] ReLU2 <- InnerProduct3
I0727 16:25:54.454380 11073 net.cpp:386] ReLU2 -> InnerProduct3 (in-place)
I0727 16:25:54.454401 11073 net.cpp:141] Setting up ReLU2
I0727 16:25:54.454449 11073 net.cpp:148] Top shape: 128 500 (64000)
I0727 16:25:54.454457 11073 net.cpp:156] Memory required for data: 249951744
I0727 16:25:54.454466 11073 layer_factory.hpp:77] Creating layer InnerProduct4
I0727 16:25:54.454483 11073 net.cpp:91] Creating Layer InnerProduct4
I0727 16:25:54.454489 11073 net.cpp:425] InnerProduct4 <- InnerProduct3
I0727 16:25:54.454502 11073 net.cpp:399] InnerProduct4 -> InnerProduct4
I0727 16:25:54.457614 11073 net.cpp:141] Setting up InnerProduct4
I0727 16:25:54.457645 11073 net.cpp:148] Top shape: 128 500 (64000)
I0727 16:25:54.457653 11073 net.cpp:156] Memory required for data: 250207744
I0727 16:25:54.457666 11073 net.cpp:484] Sharing parameters 'ip2_w' owned by layer 'InnerProduct2', param index 0
I0727 16:25:54.457681 11073 net.cpp:484] Sharing parameters 'ip2_b' owned by layer 'InnerProduct2', param index 1
I0727 16:25:54.457697 11073 layer_factory.hpp:77] Creating layer Concat1
I0727 16:25:54.458402 11073 net.cpp:91] Creating Layer Concat1
I0727 16:25:54.458415 11073 net.cpp:425] Concat1 <- InnerProduct2
I0727 16:25:54.458425 11073 net.cpp:425] Concat1 <- InnerProduct4
I0727 16:25:54.458436 11073 net.cpp:399] Concat1 -> Concat1
I0727 16:25:54.458473 11073 net.cpp:141] Setting up Concat1
I0727 16:25:54.458482 11073 net.cpp:148] Top shape: 128 1000 (128000)
I0727 16:25:54.458489 11073 net.cpp:156] Memory required for data: 250719744
I0727 16:25:54.458497 11073 layer_factory.hpp:77] Creating layer InnerProduct5
I0727 16:25:54.458508 11073 net.cpp:91] Creating Layer InnerProduct5
I0727 16:25:54.458518 11073 net.cpp:425] InnerProduct5 <- Concat1
I0727 16:25:54.458528 11073 net.cpp:399] InnerProduct5 -> InnerProduct5
I0727 16:25:54.464499 11073 net.cpp:141] Setting up InnerProduct5
I0727 16:25:54.464536 11073 net.cpp:148] Top shape: 128 512 (65536)
I0727 16:25:54.464545 11073 net.cpp:156] Memory required for data: 250981888
I0727 16:25:54.464608 11073 layer_factory.hpp:77] Creating layer ReLU3
I0727 16:25:54.464637 11073 net.cpp:91] Creating Layer ReLU3
I0727 16:25:54.464646 11073 net.cpp:425] ReLU3 <- InnerProduct5
I0727 16:25:54.464658 11073 net.cpp:386] ReLU3 -> InnerProduct5 (in-place)
I0727 16:25:54.464673 11073 net.cpp:141] Setting up ReLU3
I0727 16:25:54.464681 11073 net.cpp:148] Top shape: 128 512 (65536)
I0727 16:25:54.464687 11073 net.cpp:156] Memory required for data: 251244032
I0727 16:25:54.464694 11073 layer_factory.hpp:77] Creating layer InnerProduct6
I0727 16:25:54.464707 11073 net.cpp:91] Creating Layer InnerProduct6
I0727 16:25:54.464715 11073 net.cpp:425] InnerProduct6 <- InnerProduct5
I0727 16:25:54.464725 11073 net.cpp:399] InnerProduct6 -> InnerProduct6
I0727 16:25:54.483708 11073 net.cpp:141] Setting up InnerProduct6
I0727 16:25:54.483750 11073 net.cpp:148] Top shape: 128 512 (65536)
I0727 16:25:54.483759 11073 net.cpp:156] Memory required for data: 251506176
I0727 16:25:54.483777 11073 layer_factory.hpp:77] Creating layer ReLU4
I0727 16:25:54.483793 11073 net.cpp:91] Creating Layer ReLU4
I0727 16:25:54.483800 11073 net.cpp:425] ReLU4 <- InnerProduct6
I0727 16:25:54.483811 11073 net.cpp:386] ReLU4 -> InnerProduct6 (in-place)
I0727 16:25:54.483825 11073 net.cpp:141] Setting up ReLU4
I0727 16:25:54.483834 11073 net.cpp:148] Top shape: 128 512 (65536)
I0727 16:25:54.483840 11073 net.cpp:156] Memory required for data: 251768320
I0727 16:25:54.483847 11073 layer_factory.hpp:77] Creating layer dt
I0727 16:25:54.483860 11073 net.cpp:91] Creating Layer dt
I0727 16:25:54.483866 11073 net.cpp:425] dt <- InnerProduct6
I0727 16:25:54.483878 11073 net.cpp:399] dt -> dt
I0727 16:25:54.484009 11073 net.cpp:141] Setting up dt
I0727 16:25:54.484019 11073 net.cpp:148] Top shape: 128 1 (128)
I0727 16:25:54.484025 11073 net.cpp:156] Memory required for data: 251768832
I0727 16:25:54.484076 11073 layer_factory.hpp:77] Creating layer dt_dt_0_split
I0727 16:25:54.484143 11073 net.cpp:91] Creating Layer dt_dt_0_split
I0727 16:25:54.484179 11073 net.cpp:425] dt_dt_0_split <- dt
I0727 16:25:54.484225 11073 net.cpp:399] dt_dt_0_split -> dt_dt_0_split_0
I0727 16:25:54.484279 11073 net.cpp:399] dt_dt_0_split -> dt_dt_0_split_1
I0727 16:25:54.484355 11073 net.cpp:141] Setting up dt_dt_0_split
I0727 16:25:54.484391 11073 net.cpp:148] Top shape: 128 1 (128)
I0727 16:25:54.484423 11073 net.cpp:148] Top shape: 128 1 (128)
I0727 16:25:54.484450 11073 net.cpp:156] Memory required for data: 251769856
I0727 16:25:54.484478 11073 layer_factory.hpp:77] Creating layer accuracy
I0727 16:25:54.484524 11073 net.cpp:91] Creating Layer accuracy
I0727 16:25:54.484555 11073 net.cpp:425] accuracy <- dt_dt_0_split_0
I0727 16:25:54.484586 11073 net.cpp:425] accuracy <- label_data_1_split_0
I0727 16:25:54.484618 11073 net.cpp:399] accuracy -> accuracy
…
