…
I0719 14:01:05.315328 11536 net.cpp:313] The NetState phase (0) differed from the phase (1) specified by a rule in layer accuracy
I0719 14:01:05.315778 11536 net.cpp:49] Initializing net from parameters: 
name: "mnist_siamese_train_test_sim_large"
state {
  phase: TRAIN
}
layer {
  name: "pair_data"
  type: "Data"
  top: "pair_data"
  top: "label"
  include {
    phase: TRAIN
  }
  transform_param {
    scale: 0.00390625
    mirror: true
    mean_file: "examples/scene/scene_mean.binaryproto"
  }
  data_param {
    source: "examples/scene/train_pairs.lmdb"
    batch_size: 128
    backend: LMDB
  }
}
layer {
  name: "slice_pair"
  type: "Slice"
  bottom: "pair_data"
  top: "data"
  top: "data_p"
  slice_param {
    slice_dim: 1
    slice_point: 3
  }
}
layer {
  name: "conv1"
  type: "Convolution"
  bottom: "data"
  top: "conv1"
  param {
    name: "conv1_w"
    lr_mult: 1
  }
  param {
    name: "conv1_b"
    lr_mult: 2
  }
  convolution_param {
    num_output: 20
    kernel_size: 5
    stride: 1
    weight_filler {
      type: "xavier"
    }
    bias_filler {
      type: "constant"
    }
  }
}
layer {
  name: "pool1"
  type: "Pooling"
  bottom: "conv1"
  top: "pool1"
  pooling_param {
    pool: MAX
    kernel_size: 2
    stride: 2
  }
}
layer {
  name: "conv2"
  type: "Convolution"
  bottom: "pool1"
  top: "conv2"
  param {
    name: "conv2_w"
    lr_mult: 1
  }
  param {
    name: "conv2_b"
    lr_mult: 2
  }
  convolution_param {
    num_output: 50
    kernel_size: 5
    stride: 1
    weight_filler {
      type: "xavier"
    }
    bias_filler {
      type: "constant"
    }
  }
}
layer {
  name: "pool2"
  type: "Pooling"
  bottom: "conv2"
  top: "pool2"
  pooling_param {
    pool: MAX
    kernel_size: 2
    stride: 2
  }
}
layer {
  name: "ip1"
  type: "InnerProduct"
  bottom: "pool2"
  top: "ip1"
  param {
    name: "ip1_w"
    lr_mult: 1
  }
  param {
    name: "ip1_b"
    lr_mult: 2
  }
  inner_product_param {
    num_output: 500
    weight_filler {
      type: "xavier"
    }
    bias_filler {
      type: "constant"
    }
  }
}
layer {
  name: "relu1"
  type: "ReLU"
  bottom: "ip1"
  top: "ip1"
}
layer {
  name: "ip2"
  type: "InnerProduct"
  bottom: "ip1"
  top: "ip2"
  param {
    name: "ip2_w"
    lr_mult: 1
  }
  param {
    name: "ip2_b"
    lr_mult: 2
  }
  inner_product_param {
    num_output: 500
    weight_filler {
      type: "xavier"
    }
    bias_filler {
      type: "constant"
    }
  }
}
layer {
  name: "conv1_p"
  type: "Convolution"
  bottom: "data_p"
  top: "conv1_p"
  param {
    name: "conv1_w"
    lr_mult: 1
  }
  param {
    name: "conv1_b"
    lr_mult: 2
  }
  convolution_param {
    num_output: 20
    kernel_size: 5
    stride: 1
    weight_filler {
      type: "xavier"
    }
    bias_filler {
      type: "constant"
    }
  }
}
layer {
  name: "pool1_p"
  type: "Pooling"
  bottom: "conv1_p"
  top: "pool1_p"
  pooling_param {
    pool: MAX
    kernel_size: 2
    stride: 2
  }
}
layer {
  name: "conv2_p"
  type: "Convolution"
  bottom: "pool1_p"
  top: "conv2_p"
  param {
    name: "conv2_w"
    lr_mult: 1
  }
  param {
    name: "conv2_b"
    lr_mult: 2
  }
  convolution_param {
    num_output: 50
    kernel_size: 5
    stride: 1
    weight_filler {
      type: "xavier"
    }
    bias_filler {
      type: "constant"
    }
  }
}
layer {
  name: "pool2_p"
  type: "Pooling"
  bottom: "conv2_p"
  top: "pool2_p"
  pooling_param {
    pool: MAX
    kernel_size: 2
    stride: 2
  }
}
layer {
  name: "ip1_p"
  type: "InnerProduct"
  bottom: "pool2_p"
  top: "ip1_p"
  param {
    name: "ip1_w"
    lr_mult: 1
  }
  param {
    name: "ip1_b"
    lr_mult: 2
  }
  inner_product_param {
    num_output: 500
    weight_filler {
      type: "xavier"
    }
    bias_filler {
      type: "constant"
    }
  }
}
layer {
  name: "relu1_p"
  type: "ReLU"
  bottom: "ip1_p"
  top: "ip1_p"
}
layer {
  name: "ip2_p"
  type: "InnerProduct"
  bottom: "ip1_p"
  top: "ip2_p"
  param {
    name: "ip2_w"
    lr_mult: 1
  }
  param {
    name: "ip2_b"
    lr_mult: 2
  }
  inner_product_param {
    num_output: 500
    weight_filler {
      type: "xavier"
    }
    bias_filler {
      type: "constant"
    }
  }
}
layer {
  name: "concat"
  type: "Concat"
  bottom: "ip2"
  bottom: "ip2_p"
  top: "comb"
  concat_param {
    axis: 1
  }
}
layer {
  name: "fc1"
  type: "InnerProduct"
  bottom: "comb"
  top: "fc1"
  param {
    name: "fc1_w"
    lr_mult: 1
  }
  param {
    name: "fc1_b"
    lr_mult: 2
  }
  inner_product_param {
    num_output: 512
    weight_filler {
      type: "xavier"
    }
    bias_filler {
      type: "constant"
    }
  }
}
layer {
  name: "relu1_fc1"
  type: "ReLU"
  bottom: "fc1"
  top: "fc1"
}
layer {
  name: "drop1"
  type: "Dropout"
  bottom: "fc1"
  top: "fc1"
  dropout_param {
    dropout_ratio: 0.5
  }
}
layer {
  name: "fc2"
  type: "InnerProduct"
  bottom: "fc1"
  top: "fc2"
  param {
    name: "fc2_w"
    lr_mult: 1
  }
  param {
    name: "fc2_b"
    lr_mult: 2
  }
  inner_product_param {
    num_output: 512
    weight_filler {
      type: "xavier"
    }
    bias_filler {
      type: "constant"
    }
  }
}
layer {
  name: "relu2_fc2"
  type: "ReLU"
  bottom: "fc2"
  top: "fc2"
}
layer {
  name: "drop2"
  type: "Dropout"
  bottom: "fc2"
  top: "fc2"
  dropout_param {
    dropout_ratio: 0.5
  }
}
layer {
  name: "fc3"
  type: "InnerProduct"
  bottom: "fc2"
  top: "fc3"
  param {
    name: "fc3_w"
    lr_mult: 1
  }
  param {
    name: "fc3_b"
    lr_mult: 2
  }
  inner_product_param {
    num_output: 2
    weight_filler {
      type: "xavier"
    }
    bias_filler {
      type: "constant"
    }
  }
}
layer {
  name: "loss"
  type: "SoftmaxWithLoss"
  bottom: "fc3"
  bottom: "label"
  top: "loss"
}
layer {
  name: "accuracy"
  type: "Accuracy"
  bottom: "fc3"
  bottom: "label"
  top: "accuracy"
  include {
    phase: TRAIN
  }
}
I0719 14:01:05.336119 11536 layer_factory.hpp:77] Creating layer pair_data
I0719 14:01:05.347859 11536 net.cpp:91] Creating Layer pair_data
I0719 14:01:05.347913 11536 net.cpp:399] pair_data -> pair_data
I0719 14:01:05.347950 11536 net.cpp:399] pair_data -> label
I0719 14:01:05.347976 11536 data_transformer.cpp:25] Loading mean file from: examples/scene/scene_mean.binaryproto
I0719 14:01:05.430461 11542 db_lmdb.cpp:35] Opened lmdb examples/scene/train_pairs.lmdb
I0719 14:01:05.774173 11536 data_layer.cpp:41] output data size: 128,6,128,128
I0719 14:01:05.899448 11536 net.cpp:141] Setting up pair_data
I0719 14:01:05.899483 11536 net.cpp:148] Top shape: 128 6 128 128 (12582912)
I0719 14:01:05.899493 11536 net.cpp:148] Top shape: 128 (128)
I0719 14:01:05.899507 11536 net.cpp:156] Memory required for data: 50332160
I0719 14:01:05.899523 11536 layer_factory.hpp:77] Creating layer label_pair_data_1_split
I0719 14:01:05.901315 11536 net.cpp:91] Creating Layer label_pair_data_1_split
I0719 14:01:05.901335 11536 net.cpp:425] label_pair_data_1_split <- label
I0719 14:01:05.901353 11536 net.cpp:399] label_pair_data_1_split -> label_pair_data_1_split_0
I0719 14:01:05.901384 11536 net.cpp:399] label_pair_data_1_split -> label_pair_data_1_split_1
I0719 14:01:05.908399 11536 net.cpp:141] Setting up label_pair_data_1_split
I0719 14:01:05.908421 11536 net.cpp:148] Top shape: 128 (128)
I0719 14:01:05.908428 11536 net.cpp:148] Top shape: 128 (128)
I0719 14:01:05.908433 11536 net.cpp:156] Memory required for data: 50333184
I0719 14:01:05.908440 11536 layer_factory.hpp:77] Creating layer slice_pair
I0719 14:01:05.909978 11536 net.cpp:91] Creating Layer slice_pair
I0719 14:01:05.910014 11536 net.cpp:425] slice_pair <- pair_data
I0719 14:01:05.910025 11536 net.cpp:399] slice_pair -> data
I0719 14:01:05.910043 11536 net.cpp:399] slice_pair -> data_p
I0719 14:01:05.910109 11536 net.cpp:141] Setting up slice_pair
I0719 14:01:05.910122 11536 net.cpp:148] Top shape: 128 3 128 128 (6291456)
I0719 14:01:05.910131 11536 net.cpp:148] Top shape: 128 3 128 128 (6291456)
I0719 14:01:05.910138 11536 net.cpp:156] Memory required for data: 100664832
I0719 14:01:05.910145 11536 layer_factory.hpp:77] Creating layer conv1
I0719 14:01:05.910204 11536 net.cpp:91] Creating Layer conv1
I0719 14:01:05.910214 11536 net.cpp:425] conv1 <- data
I0719 14:01:05.910228 11536 net.cpp:399] conv1 -> conv1
I0719 14:01:05.915673 11536 net.cpp:141] Setting up conv1
I0719 14:01:05.915755 11536 net.cpp:148] Top shape: 128 20 124 124 (39362560)
I0719 14:01:05.915778 11536 net.cpp:156] Memory required for data: 258115072
I0719 14:01:05.915813 11536 layer_factory.hpp:77] Creating layer pool1
I0719 14:01:05.915840 11536 net.cpp:91] Creating Layer pool1
I0719 14:01:05.915856 11536 net.cpp:425] pool1 <- conv1
I0719 14:01:05.915877 11536 net.cpp:399] pool1 -> pool1
I0719 14:01:05.916767 11536 net.cpp:141] Setting up pool1
I0719 14:01:05.916790 11536 net.cpp:148] Top shape: 128 20 62 62 (9840640)
I0719 14:01:05.916805 11536 net.cpp:156] Memory required for data: 297477632
I0719 14:01:05.916820 11536 layer_factory.hpp:77] Creating layer conv2
I0719 14:01:05.916848 11536 net.cpp:91] Creating Layer conv2
I0719 14:01:05.916863 11536 net.cpp:425] conv2 <- pool1
I0719 14:01:05.916887 11536 net.cpp:399] conv2 -> conv2
I0719 14:01:05.918627 11536 net.cpp:141] Setting up conv2
I0719 14:01:05.918656 11536 net.cpp:148] Top shape: 128 50 58 58 (21529600)
I0719 14:01:05.918674 11536 net.cpp:156] Memory required for data: 383596032
I0719 14:01:05.918699 11536 layer_factory.hpp:77] Creating layer pool2
I0719 14:01:05.918720 11536 net.cpp:91] Creating Layer pool2
I0719 14:01:05.918735 11536 net.cpp:425] pool2 <- conv2
I0719 14:01:05.918754 11536 net.cpp:399] pool2 -> pool2
I0719 14:01:05.918843 11536 net.cpp:141] Setting up pool2
I0719 14:01:05.918859 11536 net.cpp:148] Top shape: 128 50 29 29 (5382400)
I0719 14:01:05.918874 11536 net.cpp:156] Memory required for data: 405125632
I0719 14:01:05.918887 11536 layer_factory.hpp:77] Creating layer ip1
I0719 14:01:05.918915 11536 net.cpp:91] Creating Layer ip1
I0719 14:01:05.918928 11536 net.cpp:425] ip1 <- pool2
I0719 14:01:05.918951 11536 net.cpp:399] ip1 -> ip1
I0719 14:01:06.138315 11536 net.cpp:141] Setting up ip1
I0719 14:01:06.138360 11536 net.cpp:148] Top shape: 128 500 (64000)
I0719 14:01:06.138365 11536 net.cpp:156] Memory required for data: 405381632
I0719 14:01:06.138386 11536 layer_factory.hpp:77] Creating layer relu1
I0719 14:01:06.138406 11536 net.cpp:91] Creating Layer relu1
I0719 14:01:06.138413 11536 net.cpp:425] relu1 <- ip1
I0719 14:01:06.138422 11536 net.cpp:386] relu1 -> ip1 (in-place)
I0719 14:01:06.138437 11536 net.cpp:141] Setting up relu1
I0719 14:01:06.138447 11536 net.cpp:148] Top shape: 128 500 (64000)
I0719 14:01:06.138453 11536 net.cpp:156] Memory required for data: 405637632
I0719 14:01:06.138460 11536 layer_factory.hpp:77] Creating layer ip2
I0719 14:01:06.138476 11536 net.cpp:91] Creating Layer ip2
I0719 14:01:06.138484 11536 net.cpp:425] ip2 <- ip1
I0719 14:01:06.138496 11536 net.cpp:399] ip2 -> ip2
I0719 14:01:06.141059 11536 net.cpp:141] Setting up ip2
I0719 14:01:06.141086 11536 net.cpp:148] Top shape: 128 500 (64000)
I0719 14:01:06.141091 11536 net.cpp:156] Memory required for data: 405893632
I0719 14:01:06.141101 11536 layer_factory.hpp:77] Creating layer conv1_p
I0719 14:01:06.141115 11536 net.cpp:91] Creating Layer conv1_p
I0719 14:01:06.141122 11536 net.cpp:425] conv1_p <- data_p
I0719 14:01:06.141134 11536 net.cpp:399] conv1_p -> conv1_p
I0719 14:01:06.141494 11536 net.cpp:141] Setting up conv1_p
I0719 14:01:06.141505 11536 net.cpp:148] Top shape: 128 20 124 124 (39362560)
I0719 14:01:06.141515 11536 net.cpp:156] Memory required for data: 563343872
I0719 14:01:06.141552 11536 net.cpp:484] Sharing parameters 'conv1_w' owned by layer 'conv1', param index 0
I0719 14:01:06.141562 11536 net.cpp:484] Sharing parameters 'conv1_b' owned by layer 'conv1', param index 1
I0719 14:01:06.141571 11536 layer_factory.hpp:77] Creating layer pool1_p
I0719 14:01:06.141582 11536 net.cpp:91] Creating Layer pool1_p
I0719 14:01:06.141589 11536 net.cpp:425] pool1_p <- conv1_p
I0719 14:01:06.141600 11536 net.cpp:399] pool1_p -> pool1_p
I0719 14:01:06.141655 11536 net.cpp:141] Setting up pool1_p
I0719 14:01:06.141665 11536 net.cpp:148] Top shape: 128 20 62 62 (9840640)
I0719 14:01:06.141674 11536 net.cpp:156] Memory required for data: 602706432
I0719 14:01:06.141681 11536 layer_factory.hpp:77] Creating layer conv2_p
I0719 14:01:06.141695 11536 net.cpp:91] Creating Layer conv2_p
I0719 14:01:06.141703 11536 net.cpp:425] conv2_p <- pool1_p
I0719 14:01:06.141716 11536 net.cpp:399] conv2_p -> conv2_p
I0719 14:01:06.142228 11536 net.cpp:141] Setting up conv2_p
I0719 14:01:06.142240 11536 net.cpp:148] Top shape: 128 50 58 58 (21529600)
I0719 14:01:06.142246 11536 net.cpp:156] Memory required for data: 688824832
I0719 14:01:06.142251 11536 net.cpp:484] Sharing parameters 'conv2_w' owned by layer 'conv2', param index 0
I0719 14:01:06.142258 11536 net.cpp:484] Sharing parameters 'conv2_b' owned by layer 'conv2', param index 1
I0719 14:01:06.142266 11536 layer_factory.hpp:77] Creating layer pool2_p
I0719 14:01:06.142277 11536 net.cpp:91] Creating Layer pool2_p
I0719 14:01:06.142283 11536 net.cpp:425] pool2_p <- conv2_p
I0719 14:01:06.142295 11536 net.cpp:399] pool2_p -> pool2_p
I0719 14:01:06.142349 11536 net.cpp:141] Setting up pool2_p
I0719 14:01:06.142359 11536 net.cpp:148] Top shape: 128 50 29 29 (5382400)
I0719 14:01:06.142366 11536 net.cpp:156] Memory required for data: 710354432
I0719 14:01:06.142372 11536 layer_factory.hpp:77] Creating layer ip1_p
I0719 14:01:06.142385 11536 net.cpp:91] Creating Layer ip1_p
I0719 14:01:06.142392 11536 net.cpp:425] ip1_p <- pool2_p
I0719 14:01:06.142405 11536 net.cpp:399] ip1_p -> ip1_p
I0719 14:01:06.349632 11536 net.cpp:141] Setting up ip1_p
I0719 14:01:06.349678 11536 net.cpp:148] Top shape: 128 500 (64000)
I0719 14:01:06.349685 11536 net.cpp:156] Memory required for data: 710610432
I0719 14:01:06.349695 11536 net.cpp:484] Sharing parameters 'ip1_w' owned by layer 'ip1', param index 0
I0719 14:01:06.349704 11536 net.cpp:484] Sharing parameters 'ip1_b' owned by layer 'ip1', param index 1
I0719 14:01:06.349710 11536 layer_factory.hpp:77] Creating layer relu1_p
I0719 14:01:06.349731 11536 net.cpp:91] Creating Layer relu1_p
I0719 14:01:06.349740 11536 net.cpp:425] relu1_p <- ip1_p
I0719 14:01:06.349750 11536 net.cpp:386] relu1_p -> ip1_p (in-place)
I0719 14:01:06.349763 11536 net.cpp:141] Setting up relu1_p
I0719 14:01:06.349771 11536 net.cpp:148] Top shape: 128 500 (64000)
I0719 14:01:06.349777 11536 net.cpp:156] Memory required for data: 710866432
I0719 14:01:06.349786 11536 layer_factory.hpp:77] Creating layer ip2_p
I0719 14:01:06.349807 11536 net.cpp:91] Creating Layer ip2_p
I0719 14:01:06.349815 11536 net.cpp:425] ip2_p <- ip1_p
I0719 14:01:06.349828 11536 net.cpp:399] ip2_p -> ip2_p
I0719 14:01:06.352558 11536 net.cpp:141] Setting up ip2_p
I0719 14:01:06.352607 11536 net.cpp:148] Top shape: 128 500 (64000)
I0719 14:01:06.352618 11536 net.cpp:156] Memory required for data: 711122432
I0719 14:01:06.352630 11536 net.cpp:484] Sharing parameters 'ip2_w' owned by layer 'ip2', param index 0
I0719 14:01:06.352644 11536 net.cpp:484] Sharing parameters 'ip2_b' owned by layer 'ip2', param index 1
I0719 14:01:06.352653 11536 layer_factory.hpp:77] Creating layer concat
I0719 14:01:06.358345 11536 net.cpp:91] Creating Layer concat
I0719 14:01:06.358392 11536 net.cpp:425] concat <- ip2
I0719 14:01:06.358412 11536 net.cpp:425] concat <- ip2_p
I0719 14:01:06.358433 11536 net.cpp:399] concat -> comb
I0719 14:01:06.358528 11536 net.cpp:141] Setting up concat
I0719 14:01:06.358552 11536 net.cpp:148] Top shape: 128 1000 (128000)
I0719 14:01:06.358569 11536 net.cpp:156] Memory required for data: 711634432
I0719 14:01:06.358628 11536 layer_factory.hpp:77] Creating layer fc1
I0719 14:01:06.358649 11536 net.cpp:91] Creating Layer fc1
I0719 14:01:06.358657 11536 net.cpp:425] fc1 <- comb
I0719 14:01:06.358669 11536 net.cpp:399] fc1 -> fc1
I0719 14:01:06.363838 11536 net.cpp:141] Setting up fc1
I0719 14:01:06.363859 11536 net.cpp:148] Top shape: 128 512 (65536)
I0719 14:01:06.363867 11536 net.cpp:156] Memory required for data: 711896576
I0719 14:01:06.363888 11536 layer_factory.hpp:77] Creating layer relu1_fc1
I0719 14:01:06.363900 11536 net.cpp:91] Creating Layer relu1_fc1
I0719 14:01:06.363909 11536 net.cpp:425] relu1_fc1 <- fc1
I0719 14:01:06.363919 11536 net.cpp:386] relu1_fc1 -> fc1 (in-place)
I0719 14:01:06.363930 11536 net.cpp:141] Setting up relu1_fc1
I0719 14:01:06.363939 11536 net.cpp:148] Top shape: 128 512 (65536)
I0719 14:01:06.363945 11536 net.cpp:156] Memory required for data: 712158720
I0719 14:01:06.363951 11536 layer_factory.hpp:77] Creating layer drop1
I0719 14:01:06.371670 11536 net.cpp:91] Creating Layer drop1
I0719 14:01:06.371690 11536 net.cpp:425] drop1 <- fc1
I0719 14:01:06.371731 11536 net.cpp:386] drop1 -> fc1 (in-place)
I0719 14:01:06.371794 11536 net.cpp:141] Setting up drop1
I0719 14:01:06.371810 11536 net.cpp:148] Top shape: 128 512 (65536)
I0719 14:01:06.371819 11536 net.cpp:156] Memory required for data: 712420864
I0719 14:01:06.371827 11536 layer_factory.hpp:77] Creating layer fc2
I0719 14:01:06.371841 11536 net.cpp:91] Creating Layer fc2
I0719 14:01:06.371850 11536 net.cpp:425] fc2 <- fc1
I0719 14:01:06.371862 11536 net.cpp:399] fc2 -> fc2
I0719 14:01:06.374658 11536 net.cpp:141] Setting up fc2
I0719 14:01:06.374678 11536 net.cpp:148] Top shape: 128 512 (65536)
I0719 14:01:06.374687 11536 net.cpp:156] Memory required for data: 712683008
I0719 14:01:06.374701 11536 layer_factory.hpp:77] Creating layer relu2_fc2
I0719 14:01:06.374713 11536 net.cpp:91] Creating Layer relu2_fc2
I0719 14:01:06.374721 11536 net.cpp:425] relu2_fc2 <- fc2
I0719 14:01:06.374732 11536 net.cpp:386] relu2_fc2 -> fc2 (in-place)
I0719 14:01:06.374745 11536 net.cpp:141] Setting up relu2_fc2
I0719 14:01:06.374755 11536 net.cpp:148] Top shape: 128 512 (65536)
I0719 14:01:06.374763 11536 net.cpp:156] Memory required for data: 712945152
I0719 14:01:06.374770 11536 layer_factory.hpp:77] Creating layer drop2
I0719 14:01:06.374781 11536 net.cpp:91] Creating Layer drop2
I0719 14:01:06.374789 11536 net.cpp:425] drop2 <- fc2
I0719 14:01:06.374800 11536 net.cpp:386] drop2 -> fc2 (in-place)
I0719 14:01:06.374830 11536 net.cpp:141] Setting up drop2
I0719 14:01:06.374841 11536 net.cpp:148] Top shape: 128 512 (65536)
I0719 14:01:06.374850 11536 net.cpp:156] Memory required for data: 713207296
I0719 14:01:06.374857 11536 layer_factory.hpp:77] Creating layer fc3
I0719 14:01:06.374869 11536 net.cpp:91] Creating Layer fc3
I0719 14:01:06.374877 11536 net.cpp:425] fc3 <- fc2
I0719 14:01:06.374891 11536 net.cpp:399] fc3 -> fc3
I0719 14:01:06.375025 11536 net.cpp:141] Setting up fc3
I0719 14:01:06.375039 11536 net.cpp:148] Top shape: 128 2 (256)
I0719 14:01:06.375047 11536 net.cpp:156] Memory required for data: 713208320
I0719 14:01:06.375058 11536 layer_factory.hpp:77] Creating layer fc3_fc3_0_split
I0719 14:01:06.375071 11536 net.cpp:91] Creating Layer fc3_fc3_0_split
I0719 14:01:06.375078 11536 net.cpp:425] fc3_fc3_0_split <- fc3
I0719 14:01:06.375089 11536 net.cpp:399] fc3_fc3_0_split -> fc3_fc3_0_split_0
I0719 14:01:06.375103 11536 net.cpp:399] fc3_fc3_0_split -> fc3_fc3_0_split_1
I0719 14:01:06.375150 11536 net.cpp:141] Setting up fc3_fc3_0_split
I0719 14:01:06.375164 11536 net.cpp:148] Top shape: 128 2 (256)
I0719 14:01:06.375174 11536 net.cpp:148] Top shape: 128 2 (256)
I0719 14:01:06.375183 11536 net.cpp:156] Memory required for data: 713210368
I0719 14:01:06.375190 11536 layer_factory.hpp:77] Creating layer loss
I0719 14:01:06.375201 11536 net.cpp:91] Creating Layer loss
I0719 14:01:06.375210 11536 net.cpp:425] loss <- fc3_fc3_0_split_0
I0719 14:01:06.375219 11536 net.cpp:425] loss <- label_pair_data_1_split_0
I0719 14:01:06.375247 11536 net.cpp:399] loss -> loss
…
I0719 14:01:06.396580 11536 net.cpp:313] The NetState phase (1) differed from the phase (0) specified by a rule in layer accuracy
I0719 14:01:06.396889 11536 net.cpp:49] Initializing net from parameters: 
name: "mnist_siamese_train_test_sim_large"
state {
  phase: TEST
}
layer {
  name: "pair_data"
  type: "Data"
  top: "pair_data"
  top: "label"
  include {
    phase: TEST
  }
  transform_param {
    scale: 0.00390625
    mirror: false
    mean_file: "examples/scene/scene_mean.binaryproto"
  }
  data_param {
    source: "examples/scene/test_pairs.lmdb"
    batch_size: 100
    backend: LMDB
  }
}
layer {
  name: "slice_pair"
  type: "Slice"
  bottom: "pair_data"
  top: "data"
  top: "data_p"
  slice_param {
    slice_dim: 1
    slice_point: 3
  }
}
layer {
  name: "conv1"
  type: "Convolution"
  bottom: "data"
  top: "conv1"
  param {
    name: "conv1_w"
    lr_mult: 1
  }
  param {
    name: "conv1_b"
    lr_mult: 2
  }
  convolution_param {
    num_output: 20
    kernel_size: 5
    stride: 1
    weight_filler {
      type: "xavier"
    }
    bias_filler {
      type: "constant"
    }
  }
}
layer {
  name: "pool1"
  type: "Pooling"
  bottom: "conv1"
  top: "pool1"
  pooling_param {
    pool: MAX
    kernel_size: 2
    stride: 2
  }
}
layer {
  name: "conv2"
  type: "Convolution"
  bottom: "pool1"
  top: "conv2"
  param {
    name: "conv2_w"
    lr_mult: 1
  }
  param {
    name: "conv2_b"
    lr_mult: 2
  }
  convolution_param {
    num_output: 50
    kernel_size: 5
    stride: 1
    weight_filler {
      type: "xavier"
    }
    bias_filler {
      type: "constant"
    }
  }
}
layer {
  name: "pool2"
  type: "Pooling"
  bottom: "conv2"
  top: "pool2"
  pooling_param {
    pool: MAX
    kernel_size: 2
    stride: 2
  }
}
layer {
  name: "ip1"
  type: "InnerProduct"
  bottom: "pool2"
  top: "ip1"
  param {
    name: "ip1_w"
    lr_mult: 1
  }
  param {
    name: "ip1_b"
    lr_mult: 2
  }
  inner_product_param {
    num_output: 500
    weight_filler {
      type: "xavier"
    }
    bias_filler {
      type: "constant"
    }
  }
}
layer {
  name: "relu1"
  type: "ReLU"
  bottom: "ip1"
  top: "ip1"
}
layer {
  name: "ip2"
  type: "InnerProduct"
  bottom: "ip1"
  top: "ip2"
  param {
    name: "ip2_w"
    lr_mult: 1
  }
  param {
    name: "ip2_b"
    lr_mult: 2
  }
  inner_product_param {
    num_output: 500
    weight_filler {
      type: "xavier"
    }
    bias_filler {
      type: "constant"
    }
  }
}
layer {
  name: "conv1_p"
  type: "Convolution"
  bottom: "data_p"
  top: "conv1_p"
  param {
    name: "conv1_w"
    lr_mult: 1
  }
  param {
    name: "conv1_b"
    lr_mult: 2
  }
  convolution_param {
    num_output: 20
    kernel_size: 5
    stride: 1
    weight_filler {
      type: "xavier"
    }
    bias_filler {
      type: "constant"
    }
  }
}
layer {
  name: "pool1_p"
  type: "Pooling"
  bottom: "conv1_p"
  top: "pool1_p"
  pooling_param {
    pool: MAX
    kernel_size: 2
    stride: 2
  }
}
layer {
  name: "conv2_p"
  type: "Convolution"
  bottom: "pool1_p"
  top: "conv2_p"
  param {
    name: "conv2_w"
    lr_mult: 1
  }
  param {
    name: "conv2_b"
    lr_mult: 2
  }
  convolution_param {
    num_output: 50
    kernel_size: 5
    stride: 1
    weight_filler {
      type: "xavier"
    }
    bias_filler {
      type: "constant"
    }
  }
}
layer {
  name: "pool2_p"
  type: "Pooling"
  bottom: "conv2_p"
  top: "pool2_p"
  pooling_param {
    pool: MAX
    kernel_size: 2
    stride: 2
  }
}
layer {
  name: "ip1_p"
  type: "InnerProduct"
  bottom: "pool2_p"
  top: "ip1_p"
  param {
    name: "ip1_w"
    lr_mult: 1
  }
  param {
    name: "ip1_b"
    lr_mult: 2
  }
  inner_product_param {
    num_output: 500
    weight_filler {
      type: "xavier"
    }
    bias_filler {
      type: "constant"
    }
  }
}
layer {
  name: "relu1_p"
  type: "ReLU"
  bottom: "ip1_p"
  top: "ip1_p"
}
layer {
  name: "ip2_p"
  type: "InnerProduct"
  bottom: "ip1_p"
  top: "ip2_p"
  param {
    name: "ip2_w"
    lr_mult: 1
  }
  param {
    name: "ip2_b"
    lr_mult: 2
  }
  inner_product_param {
    num_output: 500
    weight_filler {
      type: "xavier"
    }
    bias_filler {
      type: "constant"
    }
  }
}
layer {
  name: "concat"
  type: "Concat"
  bottom: "ip2"
  bottom: "ip2_p"
  top: "comb"
  concat_param {
    axis: 1
  }
}
layer {
  name: "fc1"
  type: "InnerProduct"
  bottom: "comb"
  top: "fc1"
  param {
    name: "fc1_w"
    lr_mult: 1
  }
  param {
    name: "fc1_b"
    lr_mult: 2
  }
  inner_product_param {
    num_output: 512
    weight_filler {
      type: "xavier"
    }
    bias_filler {
      type: "constant"
    }
  }
}
layer {
  name: "relu1_fc1"
  type: "ReLU"
  bottom: "fc1"
  top: "fc1"
}
layer {
  name: "drop1"
  type: "Dropout"
  bottom: "fc1"
  top: "fc1"
  dropout_param {
    dropout_ratio: 0.5
  }
}
layer {
  name: "fc2"
  type: "InnerProduct"
  bottom: "fc1"
  top: "fc2"
  param {
    name: "fc2_w"
    lr_mult: 1
  }
  param {
    name: "fc2_b"
    lr_mult: 2
  }
  inner_product_param {
    num_output: 512
    weight_filler {
      type: "xavier"
    }
    bias_filler {
      type: "constant"
    }
  }
}
layer {
  name: "relu2_fc2"
  type: "ReLU"
  bottom: "fc2"
  top: "fc2"
}
layer {
  name: "drop2"
  type: "Dropout"
  bottom: "fc2"
  top: "fc2"
  dropout_param {
    dropout_ratio: 0.5
  }
}
layer {
  name: "fc3"
  type: "InnerProduct"
  bottom: "fc2"
  top: "fc3"
  param {
    name: "fc3_w"
    lr_mult: 1
  }
  param {
    name: "fc3_b"
    lr_mult: 2
  }
  inner_product_param {
    num_output: 2
    weight_filler {
      type: "xavier"
    }
    bias_filler {
      type: "constant"
    }
  }
}
layer {
  name: "loss"
  type: "SoftmaxWithLoss"
  bottom: "fc3"
  bottom: "label"
  top: "loss"
}
layer {
  name: "accuracy"
  type: "Accuracy"
  bottom: "fc3"
  bottom: "label"
  top: "accuracy"
  include {
    phase: TEST
  }
}
I0719 14:01:06.397086 11536 layer_factory.hpp:77] Creating layer pair_data
I0719 14:01:06.397279 11536 net.cpp:91] Creating Layer pair_data
I0719 14:01:06.397301 11536 net.cpp:399] pair_data -> pair_data
I0719 14:01:06.397322 11536 net.cpp:399] pair_data -> label
I0719 14:01:06.397338 11536 data_transformer.cpp:25] Loading mean file from: examples/scene/scene_mean.binaryproto
I0719 14:01:06.439487 11544 db_lmdb.cpp:35] Opened lmdb examples/scene/test_pairs.lmdb
I0719 14:01:06.440081 11536 data_layer.cpp:41] output data size: 100,6,128,128
I0719 14:01:06.541121 11536 net.cpp:141] Setting up pair_data
I0719 14:01:06.541162 11536 net.cpp:148] Top shape: 100 6 128 128 (9830400)
I0719 14:01:06.541172 11536 net.cpp:148] Top shape: 100 (100)
I0719 14:01:06.541177 11536 net.cpp:156] Memory required for data: 39322000
I0719 14:01:06.541188 11536 layer_factory.hpp:77] Creating layer label_pair_data_1_split
I0719 14:01:06.541206 11536 net.cpp:91] Creating Layer label_pair_data_1_split
I0719 14:01:06.541214 11536 net.cpp:425] label_pair_data_1_split <- label
I0719 14:01:06.541226 11536 net.cpp:399] label_pair_data_1_split -> label_pair_data_1_split_0
I0719 14:01:06.541242 11536 net.cpp:399] label_pair_data_1_split -> label_pair_data_1_split_1
I0719 14:01:06.541303 11536 net.cpp:141] Setting up label_pair_data_1_split
I0719 14:01:06.541311 11536 net.cpp:148] Top shape: 100 (100)
I0719 14:01:06.541319 11536 net.cpp:148] Top shape: 100 (100)
I0719 14:01:06.541326 11536 net.cpp:156] Memory required for data: 39322800
I0719 14:01:06.541332 11536 layer_factory.hpp:77] Creating layer slice_pair
I0719 14:01:06.541347 11536 net.cpp:91] Creating Layer slice_pair
I0719 14:01:06.541352 11536 net.cpp:425] slice_pair <- pair_data
I0719 14:01:06.541362 11536 net.cpp:399] slice_pair -> data
I0719 14:01:06.541373 11536 net.cpp:399] slice_pair -> data_p
I0719 14:01:06.541421 11536 net.cpp:141] Setting up slice_pair
I0719 14:01:06.541430 11536 net.cpp:148] Top shape: 100 3 128 128 (4915200)
I0719 14:01:06.541437 11536 net.cpp:148] Top shape: 100 3 128 128 (4915200)
I0719 14:01:06.541443 11536 net.cpp:156] Memory required for data: 78644400
I0719 14:01:06.541450 11536 layer_factory.hpp:77] Creating layer conv1
I0719 14:01:06.541465 11536 net.cpp:91] Creating Layer conv1
I0719 14:01:06.541471 11536 net.cpp:425] conv1 <- data
I0719 14:01:06.541484 11536 net.cpp:399] conv1 -> conv1
I0719 14:01:06.542625 11536 net.cpp:141] Setting up conv1
I0719 14:01:06.542644 11536 net.cpp:148] Top shape: 100 20 124 124 (30752000)
I0719 14:01:06.542651 11536 net.cpp:156] Memory required for data: 201652400
I0719 14:01:06.542667 11536 layer_factory.hpp:77] Creating layer pool1
I0719 14:01:06.542683 11536 net.cpp:91] Creating Layer pool1
I0719 14:01:06.542690 11536 net.cpp:425] pool1 <- conv1
I0719 14:01:06.542698 11536 net.cpp:399] pool1 -> pool1
I0719 14:01:06.542798 11536 net.cpp:141] Setting up pool1
I0719 14:01:06.542809 11536 net.cpp:148] Top shape: 100 20 62 62 (7688000)
I0719 14:01:06.542814 11536 net.cpp:156] Memory required for data: 232404400
I0719 14:01:06.542819 11536 layer_factory.hpp:77] Creating layer conv2
I0719 14:01:06.542835 11536 net.cpp:91] Creating Layer conv2
I0719 14:01:06.542841 11536 net.cpp:425] conv2 <- pool1
I0719 14:01:06.542851 11536 net.cpp:399] conv2 -> conv2
I0719 14:01:06.543380 11536 net.cpp:141] Setting up conv2
I0719 14:01:06.543392 11536 net.cpp:148] Top shape: 100 50 58 58 (16820000)
I0719 14:01:06.543398 11536 net.cpp:156] Memory required for data: 299684400
I0719 14:01:06.543408 11536 layer_factory.hpp:77] Creating layer pool2
I0719 14:01:06.543417 11536 net.cpp:91] Creating Layer pool2
I0719 14:01:06.543423 11536 net.cpp:425] pool2 <- conv2
I0719 14:01:06.543432 11536 net.cpp:399] pool2 -> pool2
I0719 14:01:06.543475 11536 net.cpp:141] Setting up pool2
I0719 14:01:06.543485 11536 net.cpp:148] Top shape: 100 50 29 29 (4205000)
I0719 14:01:06.543490 11536 net.cpp:156] Memory required for data: 316504400
I0719 14:01:06.543496 11536 layer_factory.hpp:77] Creating layer ip1
I0719 14:01:06.543507 11536 net.cpp:91] Creating Layer ip1
I0719 14:01:06.543514 11536 net.cpp:425] ip1 <- pool2
I0719 14:01:06.543522 11536 net.cpp:399] ip1 -> ip1
I0719 14:01:06.757822 11536 net.cpp:141] Setting up ip1
I0719 14:01:06.757865 11536 net.cpp:148] Top shape: 100 500 (50000)
I0719 14:01:06.757871 11536 net.cpp:156] Memory required for data: 316704400
I0719 14:01:06.757896 11536 layer_factory.hpp:77] Creating layer relu1
I0719 14:01:06.757916 11536 net.cpp:91] Creating Layer relu1
I0719 14:01:06.757925 11536 net.cpp:425] relu1 <- ip1
I0719 14:01:06.757936 11536 net.cpp:386] relu1 -> ip1 (in-place)
I0719 14:01:06.757948 11536 net.cpp:141] Setting up relu1
I0719 14:01:06.757956 11536 net.cpp:148] Top shape: 100 500 (50000)
I0719 14:01:06.757961 11536 net.cpp:156] Memory required for data: 316904400
I0719 14:01:06.757967 11536 layer_factory.hpp:77] Creating layer ip2
I0719 14:01:06.757980 11536 net.cpp:91] Creating Layer ip2
I0719 14:01:06.757985 11536 net.cpp:425] ip2 <- ip1
I0719 14:01:06.757995 11536 net.cpp:399] ip2 -> ip2
I0719 14:01:06.764171 11536 net.cpp:141] Setting up ip2
I0719 14:01:06.764191 11536 net.cpp:148] Top shape: 100 500 (50000)
I0719 14:01:06.764197 11536 net.cpp:156] Memory required for data: 317104400
I0719 14:01:06.764207 11536 layer_factory.hpp:77] Creating layer conv1_p
I0719 14:01:06.764222 11536 net.cpp:91] Creating Layer conv1_p
I0719 14:01:06.764228 11536 net.cpp:425] conv1_p <- data_p
I0719 14:01:06.764240 11536 net.cpp:399] conv1_p -> conv1_p
I0719 14:01:06.764588 11536 net.cpp:141] Setting up conv1_p
I0719 14:01:06.764598 11536 net.cpp:148] Top shape: 100 20 124 124 (30752000)
I0719 14:01:06.764605 11536 net.cpp:156] Memory required for data: 440112400
I0719 14:01:06.764612 11536 net.cpp:484] Sharing parameters 'conv1_w' owned by layer 'conv1', param index 0
I0719 14:01:06.764621 11536 net.cpp:484] Sharing parameters 'conv1_b' owned by layer 'conv1', param index 1
I0719 14:01:06.764626 11536 layer_factory.hpp:77] Creating layer pool1_p
I0719 14:01:06.764636 11536 net.cpp:91] Creating Layer pool1_p
I0719 14:01:06.764642 11536 net.cpp:425] pool1_p <- conv1_p
I0719 14:01:06.764650 11536 net.cpp:399] pool1_p -> pool1_p
I0719 14:01:06.764695 11536 net.cpp:141] Setting up pool1_p
I0719 14:01:06.764704 11536 net.cpp:148] Top shape: 100 20 62 62 (7688000)
I0719 14:01:06.764710 11536 net.cpp:156] Memory required for data: 470864400
I0719 14:01:06.764715 11536 layer_factory.hpp:77] Creating layer conv2_p
I0719 14:01:06.764726 11536 net.cpp:91] Creating Layer conv2_p
I0719 14:01:06.764732 11536 net.cpp:425] conv2_p <- pool1_p
I0719 14:01:06.764742 11536 net.cpp:399] conv2_p -> conv2_p
I0719 14:01:06.765254 11536 net.cpp:141] Setting up conv2_p
I0719 14:01:06.765264 11536 net.cpp:148] Top shape: 100 50 58 58 (16820000)
I0719 14:01:06.765269 11536 net.cpp:156] Memory required for data: 538144400
I0719 14:01:06.765297 11536 net.cpp:484] Sharing parameters 'conv2_w' owned by layer 'conv2', param index 0
I0719 14:01:06.765305 11536 net.cpp:484] Sharing parameters 'conv2_b' owned by layer 'conv2', param index 1
I0719 14:01:06.765311 11536 layer_factory.hpp:77] Creating layer pool2_p
I0719 14:01:06.765318 11536 net.cpp:91] Creating Layer pool2_p
I0719 14:01:06.765323 11536 net.cpp:425] pool2_p <- conv2_p
I0719 14:01:06.765336 11536 net.cpp:399] pool2_p -> pool2_p
I0719 14:01:06.765382 11536 net.cpp:141] Setting up pool2_p
I0719 14:01:06.765389 11536 net.cpp:148] Top shape: 100 50 29 29 (4205000)
I0719 14:01:06.765394 11536 net.cpp:156] Memory required for data: 554964400
I0719 14:01:06.765399 11536 layer_factory.hpp:77] Creating layer ip1_p
I0719 14:01:06.765409 11536 net.cpp:91] Creating Layer ip1_p
I0719 14:01:06.765414 11536 net.cpp:425] ip1_p <- pool2_p
I0719 14:01:06.765424 11536 net.cpp:399] ip1_p -> ip1_p
I0719 14:01:06.971938 11536 net.cpp:141] Setting up ip1_p
I0719 14:01:06.971985 11536 net.cpp:148] Top shape: 100 500 (50000)
I0719 14:01:06.971992 11536 net.cpp:156] Memory required for data: 555164400
I0719 14:01:06.972002 11536 net.cpp:484] Sharing parameters 'ip1_w' owned by layer 'ip1', param index 0
I0719 14:01:06.972010 11536 net.cpp:484] Sharing parameters 'ip1_b' owned by layer 'ip1', param index 1
I0719 14:01:06.972018 11536 layer_factory.hpp:77] Creating layer relu1_p
I0719 14:01:06.972039 11536 net.cpp:91] Creating Layer relu1_p
I0719 14:01:06.972046 11536 net.cpp:425] relu1_p <- ip1_p
I0719 14:01:06.972060 11536 net.cpp:386] relu1_p -> ip1_p (in-place)
I0719 14:01:06.972074 11536 net.cpp:141] Setting up relu1_p
I0719 14:01:06.972080 11536 net.cpp:148] Top shape: 100 500 (50000)
I0719 14:01:06.972086 11536 net.cpp:156] Memory required for data: 555364400
I0719 14:01:06.972091 11536 layer_factory.hpp:77] Creating layer ip2_p
I0719 14:01:06.972108 11536 net.cpp:91] Creating Layer ip2_p
I0719 14:01:06.972113 11536 net.cpp:425] ip2_p <- ip1_p
I0719 14:01:06.972123 11536 net.cpp:399] ip2_p -> ip2_p
I0719 14:01:06.974855 11536 net.cpp:141] Setting up ip2_p
I0719 14:01:06.974880 11536 net.cpp:148] Top shape: 100 500 (50000)
I0719 14:01:06.974886 11536 net.cpp:156] Memory required for data: 555564400
I0719 14:01:06.974894 11536 net.cpp:484] Sharing parameters 'ip2_w' owned by layer 'ip2', param index 0
I0719 14:01:06.974900 11536 net.cpp:484] Sharing parameters 'ip2_b' owned by layer 'ip2', param index 1
I0719 14:01:06.974906 11536 layer_factory.hpp:77] Creating layer concat
I0719 14:01:06.974916 11536 net.cpp:91] Creating Layer concat
I0719 14:01:06.974922 11536 net.cpp:425] concat <- ip2
I0719 14:01:06.974931 11536 net.cpp:425] concat <- ip2_p
I0719 14:01:06.974946 11536 net.cpp:399] concat -> comb
I0719 14:01:06.974975 11536 net.cpp:141] Setting up concat
I0719 14:01:06.974983 11536 net.cpp:148] Top shape: 100 1000 (100000)
I0719 14:01:06.974988 11536 net.cpp:156] Memory required for data: 555964400
I0719 14:01:06.974994 11536 layer_factory.hpp:77] Creating layer fc1
I0719 14:01:06.975003 11536 net.cpp:91] Creating Layer fc1
I0719 14:01:06.975009 11536 net.cpp:425] fc1 <- comb
I0719 14:01:06.975018 11536 net.cpp:399] fc1 -> fc1
I0719 14:01:06.980106 11536 net.cpp:141] Setting up fc1
I0719 14:01:06.980135 11536 net.cpp:148] Top shape: 100 512 (51200)
I0719 14:01:06.980140 11536 net.cpp:156] Memory required for data: 556169200
I0719 14:01:06.980159 11536 layer_factory.hpp:77] Creating layer relu1_fc1
I0719 14:01:06.980168 11536 net.cpp:91] Creating Layer relu1_fc1
I0719 14:01:06.980175 11536 net.cpp:425] relu1_fc1 <- fc1
I0719 14:01:06.980185 11536 net.cpp:386] relu1_fc1 -> fc1 (in-place)
I0719 14:01:06.980200 11536 net.cpp:141] Setting up relu1_fc1
I0719 14:01:06.980207 11536 net.cpp:148] Top shape: 100 512 (51200)
I0719 14:01:06.980212 11536 net.cpp:156] Memory required for data: 556374000
I0719 14:01:06.980218 11536 layer_factory.hpp:77] Creating layer drop1
I0719 14:01:06.980227 11536 net.cpp:91] Creating Layer drop1
I0719 14:01:06.980232 11536 net.cpp:425] drop1 <- fc1
I0719 14:01:06.980242 11536 net.cpp:386] drop1 -> fc1 (in-place)
I0719 14:01:06.980293 11536 net.cpp:141] Setting up drop1
I0719 14:01:06.980299 11536 net.cpp:148] Top shape: 100 512 (51200)
I0719 14:01:06.980305 11536 net.cpp:156] Memory required for data: 556578800
I0719 14:01:06.980310 11536 layer_factory.hpp:77] Creating layer fc2
I0719 14:01:06.980319 11536 net.cpp:91] Creating Layer fc2
I0719 14:01:06.980325 11536 net.cpp:425] fc2 <- fc1
I0719 14:01:06.980334 11536 net.cpp:399] fc2 -> fc2
I0719 14:01:06.983067 11536 net.cpp:141] Setting up fc2
I0719 14:01:06.983083 11536 net.cpp:148] Top shape: 100 512 (51200)
I0719 14:01:06.983088 11536 net.cpp:156] Memory required for data: 556783600
I0719 14:01:06.983096 11536 layer_factory.hpp:77] Creating layer relu2_fc2
I0719 14:01:06.983105 11536 net.cpp:91] Creating Layer relu2_fc2
I0719 14:01:06.983111 11536 net.cpp:425] relu2_fc2 <- fc2
I0719 14:01:06.983119 11536 net.cpp:386] relu2_fc2 -> fc2 (in-place)
I0719 14:01:06.983129 11536 net.cpp:141] Setting up relu2_fc2
I0719 14:01:06.983135 11536 net.cpp:148] Top shape: 100 512 (51200)
I0719 14:01:06.983140 11536 net.cpp:156] Memory required for data: 556988400
I0719 14:01:06.983145 11536 layer_factory.hpp:77] Creating layer drop2
I0719 14:01:06.983153 11536 net.cpp:91] Creating Layer drop2
I0719 14:01:06.983160 11536 net.cpp:425] drop2 <- fc2
I0719 14:01:06.983167 11536 net.cpp:386] drop2 -> fc2 (in-place)
I0719 14:01:06.983193 11536 net.cpp:141] Setting up drop2
I0719 14:01:06.983201 11536 net.cpp:148] Top shape: 100 512 (51200)
I0719 14:01:06.983206 11536 net.cpp:156] Memory required for data: 557193200
I0719 14:01:06.983211 11536 layer_factory.hpp:77] Creating layer fc3
I0719 14:01:06.983220 11536 net.cpp:91] Creating Layer fc3
I0719 14:01:06.983227 11536 net.cpp:425] fc3 <- fc2
I0719 14:01:06.983235 11536 net.cpp:399] fc3 -> fc3
I0719 14:01:06.983364 11536 net.cpp:141] Setting up fc3
I0719 14:01:06.983372 11536 net.cpp:148] Top shape: 100 2 (200)
I0719 14:01:06.983377 11536 net.cpp:156] Memory required for data: 557194000
I0719 14:01:06.983386 11536 layer_factory.hpp:77] Creating layer fc3_fc3_0_split
I0719 14:01:06.983394 11536 net.cpp:91] Creating Layer fc3_fc3_0_split
I0719 14:01:06.983399 11536 net.cpp:425] fc3_fc3_0_split <- fc3
I0719 14:01:06.983407 11536 net.cpp:399] fc3_fc3_0_split -> fc3_fc3_0_split_0
I0719 14:01:06.983417 11536 net.cpp:399] fc3_fc3_0_split -> fc3_fc3_0_split_1
I0719 14:01:06.983459 11536 net.cpp:141] Setting up fc3_fc3_0_split
I0719 14:01:06.983466 11536 net.cpp:148] Top shape: 100 2 (200)
I0719 14:01:06.983474 11536 net.cpp:148] Top shape: 100 2 (200)
I0719 14:01:06.983479 11536 net.cpp:156] Memory required for data: 557195600
I0719 14:01:06.983484 11536 layer_factory.hpp:77] Creating layer loss
I0719 14:01:06.983491 11536 net.cpp:91] Creating Layer loss
I0719 14:01:06.983496 11536 net.cpp:425] loss <- fc3_fc3_0_split_0
I0719 14:01:06.983503 11536 net.cpp:425] loss <- label_pair_data_1_split_0
I0719 14:01:06.983512 11536 net.cpp:399] loss -> loss
…
