…
solver_mode: GPU
device_id: 0
I0726 10:04:39.124063 32016 solver.cpp:81] Creating training net from train_net file: examples/scene/matchNetTrain.prototxt
I0726 10:04:39.146102 32016 net.cpp:49] Initializing net from parameters: 
state {
  phase: TRAIN
}
layer {
  name: "data"
  type: "Data"
  top: "data"
  top: "label"
  include {
    phase: TRAIN
  }
  transform_param {
    scale: 0.0039215689
    mirror: true
    mean_file: "examples/scene/scene_mean.binaryproto"
  }
  data_param {
    source: "examples/scene/train_pairs.lmdb"
    batch_size: 128
    backend: LMDB
  }
}
layer {
  name: "i1"
  type: "Slice"
  bottom: "data"
  top: "i1"
  top: "i2"
  slice_param {
    slice_dim: 1
    slice_point: 3
  }
}
layer {
  name: "p1"
  type: "Pooling"
  bottom: "i1"
  top: "p1"
  pooling_param {
    pool: AVE
    kernel_size: 2
    stride: 2
  }
}
layer {
  name: "p2"
  type: "Pooling"
  bottom: "i2"
  top: "p2"
  pooling_param {
    pool: AVE
    kernel_size: 2
    stride: 2
  }
}
layer {
  name: "Input1"
  type: "Input"
  top: "Input1"
  include {
    phase: TRAIN
  }
  input_param {
    shape {
      dim: 128
      dim: 3
      dim: 64
      dim: 64
    }
  }
}
layer {
  name: "c11"
  type: "Crop"
  bottom: "i1"
  bottom: "Input1"
  top: "c11"
  crop_param {
    axis: 2
    offset: 0
    offset: 0
  }
}
layer {
  name: "Input2"
  type: "Input"
  top: "Input2"
  include {
    phase: TRAIN
  }
  input_param {
    shape {
      dim: 128
      dim: 3
      dim: 64
      dim: 64
    }
  }
}
layer {
  name: "c12"
  type: "Crop"
  bottom: "i1"
  bottom: "Input2"
  top: "c12"
  crop_param {
    axis: 2
    offset: 0
    offset: 32
  }
}
layer {
  name: "Input3"
  type: "Input"
  top: "Input3"
  include {
    phase: TRAIN
  }
  input_param {
    shape {
      dim: 128
      dim: 3
      dim: 64
      dim: 64
    }
  }
}
layer {
  name: "c13"
  type: "Crop"
  bottom: "i1"
  bottom: "Input3"
  top: "c13"
  crop_param {
    axis: 2
    offset: 0
    offset: 64
  }
}
layer {
  name: "Input4"
  type: "Input"
  top: "Input4"
  include {
    phase: TRAIN
  }
  input_param {
    shape {
      dim: 128
      dim: 3
      dim: 64
      dim: 64
    }
  }
}
layer {
  name: "c14"
  type: "Crop"
  bottom: "i1"
  bottom: "Input4"
  top: "c14"
  crop_param {
    axis: 2
    offset: 32
    offset: 0
  }
}
layer {
  name: "Input5"
  type: "Input"
  top: "Input5"
  include {
    phase: TRAIN
  }
  input_param {
    shape {
      dim: 128
      dim: 3
      dim: 64
      dim: 64
    }
  }
}
layer {
  name: "c15"
  type: "Crop"
  bottom: "i1"
  bottom: "Input5"
  top: "c15"
  crop_param {
    axis: 2
    offset: 32
    offset: 32
  }
}
layer {
  name: "Input6"
  type: "Input"
  top: "Input6"
  include {
    phase: TRAIN
  }
  input_param {
    shape {
      dim: 128
      dim: 3
      dim: 64
      dim: 64
    }
  }
}
layer {
  name: "c16"
  type: "Crop"
  bottom: "i1"
  bottom: "Input6"
  top: "c16"
  crop_param {
    axis: 2
    offset: 32
    offset: 64
  }
}
layer {
  name: "Input7"
  type: "Input"
  top: "Input7"
  include {
    phase: TRAIN
  }
  input_param {
    shape {
      dim: 128
      dim: 3
      dim: 64
      dim: 64
    }
  }
}
layer {
  name: "c17"
  type: "Crop"
  bottom: "i1"
  bottom: "Input7"
  top: "c17"
  crop_param {
    axis: 2
    offset: 64
    offset: 0
  }
}
layer {
  name: "Input8"
  type: "Input"
  top: "Input8"
  include {
    phase: TRAIN
  }
  input_param {
    shape {
      dim: 128
      dim: 3
      dim: 64
      dim: 64
    }
  }
}
layer {
  name: "c18"
  type: "Crop"
  bottom: "i1"
  bottom: "Input8"
  top: "c18"
  crop_param {
    axis: 2
    offset: 64
    offset: 32
  }
}
layer {
  name: "Input9"
  type: "Input"
  top: "Input9"
  include {
    phase: TRAIN
  }
  input_param {
    shape {
      dim: 128
      dim: 3
      dim: 64
      dim: 64
    }
  }
}
layer {
  name: "c19"
  type: "Crop"
  bottom: "i1"
  bottom: "Input9"
  top: "c19"
  crop_param {
    axis: 2
    offset: 64
    offset: 64
  }
}
layer {
  name: "Input10"
  type: "Input"
  top: "Input10"
  include {
    phase: TRAIN
  }
  input_param {
    shape {
      dim: 128
      dim: 3
      dim: 64
      dim: 64
    }
  }
}
layer {
  name: "c21"
  type: "Crop"
  bottom: "i2"
  bottom: "Input10"
  top: "c21"
  crop_param {
    axis: 2
    offset: 0
    offset: 0
  }
}
layer {
  name: "Input11"
  type: "Input"
  top: "Input11"
  include {
    phase: TRAIN
  }
  input_param {
    shape {
      dim: 128
      dim: 3
      dim: 64
      dim: 64
    }
  }
}
layer {
  name: "c22"
  type: "Crop"
  bottom: "i2"
  bottom: "Input11"
  top: "c22"
  crop_param {
    axis: 2
    offset: 0
    offset: 32
  }
}
layer {
  name: "Input12"
  type: "Input"
  top: "Input12"
  include {
    phase: TRAIN
  }
  input_param {
    shape {
      dim: 128
      dim: 3
      dim: 64
      dim: 64
    }
  }
}
layer {
  name: "c23"
  type: "Crop"
  bottom: "i2"
  bottom: "Input12"
  top: "c23"
  crop_param {
    axis: 2
    offset: 0
    offset: 64
  }
}
layer {
  name: "Input13"
  type: "Input"
  top: "Input13"
  include {
    phase: TRAIN
  }
  input_param {
    shape {
      dim: 128
      dim: 3
      dim: 64
      dim: 64
    }
  }
}
layer {
  name: "c24"
  type: "Crop"
  bottom: "i2"
  bottom: "Input13"
  top: "c24"
  crop_param {
    axis: 2
    offset: 32
    offset: 0
  }
}
layer {
  name: "Input14"
  type: "Input"
  top: "Input14"
  include {
    phase: TRAIN
  }
  input_param {
    shape {
      dim: 128
      dim: 3
      dim: 64
      dim: 64
    }
  }
}
layer {
  name: "c25"
  type: "Crop"
  bottom: "i2"
  bottom: "Input14"
  top: "c25"
  crop_param {
    axis: 2
    offset: 32
    offset: 32
  }
}
layer {
  name: "Input15"
  type: "Input"
  top: "Input15"
  include {
    phase: TRAIN
  }
  input_param {
    shape {
      dim: 128
      dim: 3
      dim: 64
      dim: 64
    }
  }
}
layer {
  name: "c26"
  type: "Crop"
  bottom: "i2"
  bottom: "Input15"
  top: "c26"
  crop_param {
    axis: 2
    offset: 32
    offset: 64
  }
}
layer {
  name: "Input16"
  type: "Input"
  top: "Input16"
  include {
    phase: TRAIN
  }
  input_param {
    shape {
      dim: 128
      dim: 3
      dim: 64
      dim: 64
    }
  }
}
layer {
  name: "c27"
  type: "Crop"
  bottom: "i2"
  bottom: "Input16"
  top: "c27"
  crop_param {
    axis: 2
    offset: 64
    offset: 0
  }
}
layer {
  name: "Input17"
  type: "Input"
  top: "Input17"
  include {
    phase: TRAIN
  }
  input_param {
    shape {
      dim: 128
      dim: 3
      dim: 64
      dim: 64
    }
  }
}
layer {
  name: "c28"
  type: "Crop"
  bottom: "i2"
  bottom: "Input17"
  top: "c28"
  crop_param {
    axis: 2
    offset: 64
    offset: 32
  }
}
layer {
  name: "Input18"
  type: "Input"
  top: "Input18"
  include {
    phase: TRAIN
  }
  input_param {
    shape {
      dim: 128
      dim: 3
      dim: 64
      dim: 64
    }
  }
}
layer {
  name: "c29"
  type: "Crop"
  bottom: "i2"
  bottom: "Input18"
  top: "c29"
  crop_param {
    axis: 2
    offset: 64
    offset: 64
  }
}
layer {
  name: "Convolution1"
  type: "Convolution"
  bottom: "p1"
  top: "Convolution1"
  param {
    name: "conv1_w"
    lr_mult: 1
  }
  param {
    name: "conv1_b"
    lr_mult: 2
  }
  convolution_param {
    num_output: 20
    kernel_size: 5
    stride: 1
    weight_filler {
      type: "xavier"
    }
    bias_filler {
      type: "constant"
    }
  }
}
layer {
  name: "Pooling1"
  type: "Pooling"
  bottom: "Convolution1"
  top: "Pooling1"
  pooling_param {
    pool: MAX
    kernel_size: 2
    stride: 2
  }
}
layer {
  name: "Convolution2"
  type: "Convolution"
  bottom: "Pooling1"
  top: "Convolution2"
  param {
    name: "conv2_w"
    lr_mult: 1
  }
  param {
    name: "conv2_b"
    lr_mult: 2
  }
  convolution_param {
    num_output: 50
    kernel_size: 5
    stride: 1
    weight_filler {
      type: "xavier"
    }
    bias_filler {
      type: "constant"
    }
  }
}
layer {
  name: "Pooling2"
  type: "Pooling"
  bottom: "Convolution2"
  top: "Pooling2"
  pooling_param {
    pool: MAX
    kernel_size: 2
    stride: 2
  }
}
layer {
  name: "InnerProduct1"
  type: "InnerProduct"
  bottom: "Pooling2"
  top: "InnerProduct1"
  param {
    name: "ip1_w"
    lr_mult: 1
  }
  param {
    name: "ip1_b"
    lr_mult: 2
  }
  inner_product_param {
    num_output: 500
    weight_filler {
      type: "xavier"
    }
    bias_filler {
      type: "constant"
    }
  }
}
layer {
  name: "ReLU1"
  type: "ReLU"
  bottom: "InnerProduct1"
  top: "InnerProduct1"
}
layer {
  name: "InnerProduct2"
  type: "InnerProduct"
  bottom: "InnerProduct1"
  top: "InnerProduct2"
  param {
    name: "ip2_w"
    lr_mult: 1
  }
  param {
    name: "ip2_b"
    lr_mult: 2
  }
  inner_product_param {
    num_output: 500
    weight_filler {
      type: "xavier"
    }
    bias_filler {
      type: "constant"
    }
  }
}
layer {
  name: "Convolution3"
  type: "Convolution"
  bottom: "p2"
  top: "Convolution3"
  param {
    name: "conv1_w"
    lr_mult: 1
  }
  param {
    name: "conv1_b"
    lr_mult: 2
  }
  convolution_param {
    num_output: 20
    kernel_size: 5
    stride: 1
    weight_filler {
      type: "xavier"
    }
    bias_filler {
      type: "constant"
    }
  }
}
layer {
  name: "Pooling3"
  type: "Pooling"
  bottom: "Convolution3"
  top: "Pooling3"
  pooling_param {
    pool: MAX
    kernel_size: 2
    stride: 2
  }
}
layer {
  name: "Convolution4"
  type: "Convolution"
  bottom: "Pooling3"
  top: "Convolution4"
  param {
    name: "conv2_w"
    lr_mult: 1
  }
  param {
    name: "conv2_b"
    lr_mult: 2
  }
  convolution_param {
    num_output: 50
    kernel_size: 5
    stride: 1
    weight_filler {
      type: "xavier"
    }
    bias_filler {
      type: "constant"
    }
  }
}
layer {
  name: "Pooling4"
  type: "Pooling"
  bottom: "Convolution4"
  top: "Pooling4"
  pooling_param {
    pool: MAX
    kernel_size: 2
    stride: 2
  }
}
layer {
  name: "InnerProduct3"
  type: "InnerProduct"
  bottom: "Pooling4"
  top: "InnerProduct3"
  param {
    name: "ip1_w"
    lr_mult: 1
  }
  param {
    name: "ip1_b"
    lr_mult: 2
  }
  inner_product_param {
    num_output: 500
    weight_filler {
      type: "xavier"
    }
    bias_filler {
      type: "constant"
    }
  }
}
layer {
  name: "ReLU2"
  type: "ReLU"
  bottom: "InnerProduct3"
  top: "InnerProduct3"
}
layer {
  name: "InnerProduct4"
  type: "InnerProduct"
  bottom: "InnerProduct3"
  top: "InnerProduct4"
  param {
    name: "ip2_w"
    lr_mult: 1
  }
  param {
    name: "ip2_b"
    lr_mult: 2
  }
  inner_product_param {
    num_output: 500
    weight_filler {
      type: "xavier"
    }
    bias_filler {
      type: "constant"
    }
  }
}
layer {
  name: "Concat1"
  type: "Concat"
  bottom: "InnerProduct2"
  bottom: "InnerProduct4"
  top: "Concat1"
  concat_param {
    axis: 1
  }
}
layer {
  name: "InnerProduct5"
  type: "InnerProduct"
  bottom: "Concat1"
  top: "InnerProduct5"
  param {
    name: "fc1_w"
    lr_mult: 1
  }
  param {
    name: "fc1_b"
    lr_mult: 2
  }
  inner_product_param {
    num_output: 512
    weight_filler {
      type: "xavier"
    }
    bias_filler {
      type: "constant"
    }
  }
}
layer {
  name: "ReLU3"
  type: "ReLU"
  bottom: "InnerProduct5"
  top: "InnerProduct5"
}
layer {
  name: "InnerProduct6"
  type: "InnerProduct"
  bottom: "InnerProduct5"
  top: "InnerProduct6"
  param {
    name: "fc2_w"
    lr_mult: 1
  }
  param {
    name: "fc2_b"
    lr_mult: 2
  }
  inner_product_param {
    num_output: 512
    weight_filler {
      type: "xavier"
    }
    bias_filler {
      type: "constant"
    }
  }
}
layer {
  name: "ReLU4"
  type: "ReLU"
  bottom: "InnerProduct6"
  top: "InnerProduct6"
}
layer {
  name: "dt0"
  type: "InnerProduct"
  bottom: "InnerProduct6"
  top: "dt0"
  param {
    name: "fc3_w"
    lr_mult: 1
  }
  param {
    name: "fc3_b"
    lr_mult: 2
  }
  inner_product_param {
    num_output: 2
    weight_filler {
      type: "xavier"
    }
    bias_filler {
      type: "constant"
    }
  }
}
layer {
  name: "Convolution5"
  type: "Convolution"
  bottom: "p1"
  top: "Convolution5"
  param {
    name: "conv1_w"
    lr_mult: 1
  }
  param {
    name: "conv1_b"
    lr_mult: 2
  }
  convolution_param {
    num_output: 20
    kernel_size: 5
    stride: 1
    weight_filler {
      type: "xavier"
    }
    bias_filler {
      type: "constant"
    }
  }
}
layer {
  name: "Pooling5"
  type: "Pooling"
  bottom: "Convolution5"
  top: "Pooling5"
  pooling_param {
    pool: MAX
    kernel_size: 2
    stride: 2
  }
}
layer {
  name: "Convolution6"
  type: "Convolution"
  bottom: "Pooling5"
  top: "Convolution6"
  param {
    name: "conv2_w"
    lr_mult: 1
  }
  param {
    name: "conv2_b"
    lr_mult: 2
  }
  convolution_param {
    num_output: 50
    kernel_size: 5
    stride: 1
    weight_filler {
      type: "xavier"
    }
    bias_filler {
      type: "constant"
    }
  }
}
layer {
  name: "Pooling6"
  type: "Pooling"
  bottom: "Convolution6"
  top: "Pooling6"
  pooling_param {
    pool: MAX
    kernel_size: 2
    stride: 2
  }
}
layer {
  name: "InnerProduct7"
  type: "InnerProduct"
  bottom: "Pooling6"
  top: "InnerProduct7"
  param {
    name: "ip1_w"
    lr_mult: 1
  }
  param {
    name: "ip1_b"
    lr_mult: 2
  }
  inner_product_param {
    num_output: 500
    weight_filler {
      type: "xavier"
    }
    bias_filler {
      type: "constant"
    }
  }
}
layer {
  name: "ReLU5"
  type: "ReLU"
  bottom: "InnerProduct7"
  top: "InnerProduct7"
}
layer {
  name: "InnerProduct8"
  type: "InnerProduct"
  bottom: "InnerProduct7"
  top: "InnerProduct8"
  param {
    name: "ip2_w"
    lr_mult: 1
  }
  param {
    name: "ip2_b"
    lr_mult: 2
  }
  inner_product_param {
    num_output: 500
    weight_filler {
      type: "xavier"
    }
    bias_filler {
      type: "constant"
    }
  }
}
layer {
  name: "Convolution7"
  type: "Convolution"
  bottom: "c21"
  top: "Convolution7"
  param {
    name: "conv1_w"
    lr_mult: 1
  }
  param {
    name: "conv1_b"
    lr_mult: 2
  }
  convolution_param {
    num_output: 20
    kernel_size: 5
    stride: 1
    weight_filler {
      type: "xavier"
    }
    bias_filler {
      type: "constant"
    }
  }
}
layer {
  name: "Pooling7"
  type: "Pooling"
  bottom: "Convolution7"
  top: "Pooling7"
  pooling_param {
    pool: MAX
    kernel_size: 2
    stride: 2
  }
}
layer {
  name: "Convolution8"
  type: "Convolution"
  bottom: "Pooling7"
  top: "Convolution8"
  param {
    name: "conv2_w"
    lr_mult: 1
  }
  param {
    name: "conv2_b"
    lr_mult: 2
  }
  convolution_param {
    num_output: 50
    kernel_size: 5
    stride: 1
    weight_filler {
      type: "xavier"
    }
    bias_filler {
      type: "constant"
    }
  }
}
layer {
  name: "Pooling8"
  type: "Pooling"
  bottom: "Convolution8"
  top: "Pooling8"
  pooling_param {
    pool: MAX
    kernel_size: 2
    stride: 2
  }
}
layer {
  name: "InnerProduct9"
  type: "InnerProduct"
  bottom: "Pooling8"
  top: "InnerProduct9"
  param {
    name: "ip1_w"
    lr_mult: 1
  }
  param {
    name: "ip1_b"
    lr_mult: 2
  }
  inner_product_param {
    num_output: 500
    weight_filler {
      type: "xavier"
    }
    bias_filler {
      type: "constant"
    }
  }
}
layer {
  name: "ReLU6"
  type: "ReLU"
  bottom: "InnerProduct9"
  top: "InnerProduct9"
}
layer {
  name: "InnerProduct10"
  type: "InnerProduct"
  bottom: "InnerProduct9"
  top: "InnerProduct10"
  param {
    name: "ip2_w"
    lr_mult: 1
  }
  param {
    name: "ip2_b"
    lr_mult: 2
  }
  inner_product_param {
    num_output: 500
    weight_filler {
      type: "xavier"
    }
    bias_filler {
      type: "constant"
    }
  }
}
layer {
  name: "Concat2"
  type: "Concat"
  bottom: "InnerProduct8"
  bottom: "InnerProduct10"
  top: "Concat2"
  concat_param {
    axis: 1
  }
}
layer {
  name: "InnerProduct11"
  type: "InnerProduct"
  bottom: "Concat2"
  top: "InnerProduct11"
  param {
    name: "fc1_w"
    lr_mult: 1
  }
  param {
    name: "fc1_b"
    lr_mult: 2
  }
  inner_product_param {
    num_output: 512
    weight_filler {
      type: "xavier"
    }
    bias_filler {
      type: "constant"
    }
  }
}
layer {
  name: "ReLU7"
  type: "ReLU"
  bottom: "InnerProduct11"
  top: "InnerProduct11"
}
layer {
  name: "InnerProduct12"
  type: "InnerProduct"
  bottom: "InnerProduct11"
  top: "InnerProduct12"
  param {
    name: "fc2_w"
    lr_mult: 1
  }
  param {
    name: "fc2_b"
    lr_mult: 2
  }
  inner_product_param {
    num_output: 512
    weight_filler {
      type: "xavier"
    }
    bias_filler {
      type: "constant"
    }
  }
}
layer {
  name: "ReLU8"
  type: "ReLU"
  bottom: "InnerProduct12"
  top: "InnerProduct12"
}
layer {
  name: "dt1"
  type: "InnerProduct"
  bottom: "InnerProduct12"
  top: "dt1"
  param {
    name: "fc3_w"
    lr_mult: 1
  }
  param {
    name: "fc3_b"
    lr_mult: 2
  }
  inner_product_param {
    num_output: 2
    weight_filler {
      type: "xavier"
    }
    bias_filler {
      type: "constant"
    }
  }
}
layer {
  name: "Convolution9"
  type: "Convolution"
  bottom: "p1"
  top: "Convolution9"
  param {
    name: "conv1_w"
    lr_mult: 1
  }
  param {
    name: "conv1_b"
    lr_mult: 2
  }
  convolution_param {
    num_output: 20
    kernel_size: 5
    stride: 1
    weight_filler {
      type: "xavier"
    }
    bias_filler {
      type: "constant"
    }
  }
}
layer {
  name: "Pooling9"
  type: "Pooling"
  bottom: "Convolution9"
  top: "Pooling9"
  pooling_param {
    pool: MAX
    kernel_size: 2
    stride: 2
  }
}
layer {
  name: "Convolution10"
  type: "Convolution"
  bottom: "Pooling9"
  top: "Convolution10"
  param {
    name: "conv2_w"
    lr_mult: 1
  }
  param {
    name: "conv2_b"
    lr_mult: 2
  }
  convolution_param {
    num_output: 50
    kernel_size: 5
    stride: 1
    weight_filler {
      type: "xavier"
    }
    bias_filler {
      type: "constant"
    }
  }
}
layer {
  name: "Pooling10"
  type: "Pooling"
  bottom: "Convolution10"
  top: "Pooling10"
  pooling_param {
    pool: MAX
    kernel_size: 2
    stride: 2
  }
}
layer {
  name: "InnerProduct13"
  type: "InnerProduct"
  bottom: "Pooling10"
  top: "InnerProduct13"
  param {
    name: "ip1_w"
    lr_mult: 1
  }
  param {
    name: "ip1_b"
    lr_mult: 2
  }
  inner_product_param {
    num_output: 500
    weight_filler {
      type: "xavier"
    }
    bias_filler {
      type: "constant"
    }
  }
}
layer {
  name: "ReLU9"
  type: "ReLU"
  bottom: "InnerProduct13"
  top: "InnerProduct13"
}
layer {
  name: "InnerProduct14"
  type: "InnerProduct"
  bottom: "InnerProduct13"
  top: "InnerProduct14"
  param {
    name: "ip2_w"
    lr_mult: 1
  }
  param {
    name: "ip2_b"
    lr_mult: 2
  }
  inner_product_param {
    num_output: 500
    weight_filler {
      type: "xavier"
    }
    bias_filler {
      type: "constant"
    }
  }
}
layer {
  name: "Convolution11"
  type: "Convolution"
  bottom: "c22"
  top: "Convolution11"
  param {
    name: "conv1_w"
    lr_mult: 1
  }
  param {
    name: "conv1_b"
    lr_mult: 2
  }
  convolution_param {
    num_output: 20
    kernel_size: 5
    stride: 1
    weight_filler {
      type: "xavier"
    }
    bias_filler {
      type: "constant"
    }
  }
}
layer {
  name: "Pooling11"
  type: "Pooling"
  bottom: "Convolution11"
  top: "Pooling11"
  pooling_param {
    pool: MAX
    kernel_size: 2
    stride: 2
  }
}
layer {
  name: "Convolution12"
  type: "Convolution"
  bottom: "Pooling11"
  top: "Convolution12"
  param {
    name: "conv2_w"
    lr_mult: 1
  }
  param {
    name: "conv2_b"
    lr_mult: 2
  }
  convolution_param {
    num_output: 50
    kernel_size: 5
    stride: 1
    weight_filler {
      type: "xavier"
    }
    bias_filler {
      type: "constant"
    }
  }
}
layer {
  name: "Pooling12"
  type: "Pooling"
  bottom: "Convolution12"
  top: "Pooling12"
  pooling_param {
    pool: MAX
    kernel_size: 2
    stride: 2
  }
}
layer {
  name: "InnerProduct15"
  type: "InnerProduct"
  bottom: "Pooling12"
  top: "InnerProduct15"
  param {
    name: "ip1_w"
    lr_mult: 1
  }
  param {
    name: "ip1_b"
    lr_mult: 2
  }
  inner_product_param {
    num_output: 500
    weight_filler {
      type: "xavier"
    }
    bias_filler {
      type: "constant"
    }
  }
}
layer {
  name: "ReLU10"
  type: "ReLU"
  bottom: "InnerProduct15"
  top: "InnerProduct15"
}
layer {
  name: "InnerProduct16"
  type: "InnerProduct"
  bottom: "InnerProduct15"
  top: "InnerProduct16"
  param {
    name: "ip2_w"
    lr_mult: 1
  }
  param {
    name: "ip2_b"
    lr_mult: 2
  }
  inner_product_param {
    num_output: 500
    weight_filler {
      type: "xavier"
    }
    bias_filler {
      type: "constant"
    }
  }
}
layer {
  name: "Concat3"
  type: "Concat"
  bottom: "InnerProduct14"
  bottom: "InnerProduct16"
  top: "Concat3"
  concat_param {
    axis: 1
  }
}
layer {
  name: "InnerProduct17"
  type: "InnerProduct"
  bottom: "Concat3"
  top: "InnerProduct17"
  param {
    name: "fc1_w"
    lr_mult: 1
  }
  param {
    name: "fc1_b"
    lr_mult: 2
  }
  inner_product_param {
    num_output: 512
    weight_filler {
      type: "xavier"
    }
    bias_filler {
      type: "constant"
    }
  }
}
layer {
  name: "ReLU11"
  type: "ReLU"
  bottom: "InnerProduct17"
  top: "InnerProduct17"
}
layer {
  name: "InnerProduct18"
  type: "InnerProduct"
  bottom: "InnerProduct17"
  top: "InnerProduct18"
  param {
    name: "fc2_w"
    lr_mult: 1
  }
  param {
    name: "fc2_b"
    lr_mult: 2
  }
  inner_product_param {
    num_output: 512
    weight_filler {
      type: "xavier"
    }
    bias_filler {
      type: "constant"
    }
  }
}
layer {
  name: "ReLU12"
  type: "ReLU"
  bottom: "InnerProduct18"
  top: "InnerProduct18"
}
layer {
  name: "dt2"
  type: "InnerProduct"
  bottom: "InnerProduct18"
  top: "dt2"
  param {
    name: "fc3_w"
    lr_mult: 1
  }
  param {
    name: "fc3_b"
    lr_mult: 2
  }
  inner_product_param {
    num_output: 2
    weight_filler {
      type: "xavier"
    }
    bias_filler {
      type: "constant"
    }
  }
}
layer {
  name: "Convolution13"
  type: "Convolution"
  bottom: "p1"
  top: "Convolution13"
  param {
    name: "conv1_w"
    lr_mult: 1
  }
  param {
    name: "conv1_b"
    lr_mult: 2
  }
  convolution_param {
    num_output: 20
    kernel_size: 5
    stride: 1
    weight_filler {
      type: "xavier"
    }
    bias_filler {
      type: "constant"
    }
  }
}
layer {
  name: "Pooling13"
  type: "Pooling"
  bottom: "Convolution13"
  top: "Pooling13"
  pooling_param {
    pool: MAX
    kernel_size: 2
    stride: 2
  }
}
layer {
  name: "Convolution14"
  type: "Convolution"
  bottom: "Pooling13"
  top: "Convolution14"
  param {
    name: "conv2_w"
    lr_mult: 1
  }
  param {
    name: "conv2_b"
    lr_mult: 2
  }
  convolution_param {
    num_output: 50
    kernel_size: 5
    stride: 1
    weight_filler {
      type: "xavier"
    }
    bias_filler {
      type: "constant"
    }
  }
}
layer {
  name: "Pooling14"
  type: "Pooling"
  bottom: "Convolution14"
  top: "Pooling14"
  pooling_param {
    pool: MAX
    kernel_size: 2
    stride: 2
  }
}
layer {
  name: "InnerProduct19"
  type: "InnerProduct"
  bottom: "Pooling14"
  top: "InnerProduct19"
  param {
    name: "ip1_w"
    lr_mult: 1
  }
  param {
    name: "ip1_b"
    lr_mult: 2
  }
  inner_product_param {
    num_output: 500
    weight_filler {
      type: "xavier"
    }
    bias_filler {
      type: "constant"
    }
  }
}
layer {
  name: "ReLU13"
  type: "ReLU"
  bottom: "InnerProduct19"
  top: "InnerProduct19"
}
layer {
  name: "InnerProduct20"
  type: "InnerProduct"
  bottom: "InnerProduct19"
  top: "InnerProduct20"
  param {
    name: "ip2_w"
    lr_mult: 1
  }
  param {
    name: "ip2_b"
    lr_mult: 2
  }
  inner_product_param {
    num_output: 500
    weight_filler {
      type: "xavier"
    }
    bias_filler {
      type: "constant"
    }
  }
}
layer {
  name: "Convolution15"
  type: "Convolution"
  bottom: "c23"
  top: "Convolution15"
  param {
    name: "conv1_w"
    lr_mult: 1
  }
  param {
    name: "conv1_b"
    lr_mult: 2
  }
  convolution_param {
    num_output: 20
    kernel_size: 5
    stride: 1
    weight_filler {
      type: "xavier"
    }
    bias_filler {
      type: "constant"
    }
  }
}
layer {
  name: "Pooling15"
  type: "Pooling"
  bottom: "Convolution15"
  top: "Pooling15"
  pooling_param {
    pool: MAX
    kernel_size: 2
    stride: 2
  }
}
layer {
  name: "Convolution16"
  type: "Convolution"
  bottom: "Pooling15"
  top: "Convolution16"
  param {
    name: "conv2_w"
    lr_mult: 1
  }
  param {
    name: "conv2_b"
    lr_mult: 2
  }
  convolution_param {
    num_output: 50
    kernel_size: 5
    stride: 1
    weight_filler {
      type: "xavier"
    }
    bias_filler {
      type: "constant"
    }
  }
}
layer {
  name: "Pooling16"
  type: "Pooling"
  bottom: "Convolution16"
  top: "Pooling16"
  pooling_param {
    pool: MAX
    kernel_size: 2
    stride: 2
  }
}
layer {
  name: "InnerProduct21"
  type: "InnerProduct"
  bottom: "Pooling16"
  top: "InnerProduct21"
  param {
    name: "ip1_w"
    lr_mult: 1
  }
  param {
    name: "ip1_b"
    lr_mult: 2
  }
  inner_product_param {
    num_output: 500
    weight_filler {
      type: "xavier"
    }
    bias_filler {
      type: "constant"
    }
  }
}
layer {
  name: "ReLU14"
  type: "ReLU"
  bottom: "InnerProduct21"
  top: "InnerProduct21"
}
layer {
  name: "InnerProduct22"
  type: "InnerProduct"
  bottom: "InnerProduct21"
  top: "InnerProduct22"
  param {
    name: "ip2_w"
    lr_mult: 1
  }
  param {
    name: "ip2_b"
    lr_mult: 2
  }
  inner_product_param {
    num_output: 500
    weight_filler {
      type: "xavier"
    }
    bias_filler {
      type: "constant"
    }
  }
}
layer {
  name: "Concat4"
  type: "Concat"
  bottom: "InnerProduct20"
  bottom: "InnerProduct22"
  top: "Concat4"
  concat_param {
    axis: 1
  }
}
layer {
  name: "InnerProduct23"
  type: "InnerProduct"
  bottom: "Concat4"
  top: "InnerProduct23"
  param {
    name: "fc1_w"
    lr_mult: 1
  }
  param {
    name: "fc1_b"
    lr_mult: 2
  }
  inner_product_param {
    num_output: 512
    weight_filler {
      type: "xavier"
    }
    bias_filler {
      type: "constant"
    }
  }
}
layer {
  name: "ReLU15"
  type: "ReLU"
  bottom: "InnerProduct23"
  top: "InnerProduct23"
}
layer {
  name: "InnerProduct24"
  type: "InnerProduct"
  bottom: "InnerProduct23"
  top: "InnerProduct24"
  param {
    name: "fc2_w"
    lr_mult: 1
  }
  param {
    name: "fc2_b"
    lr_mult: 2
  }
  inner_product_param {
    num_output: 512
    weight_filler {
      type: "xavier"
    }
    bias_filler {
      type: "constant"
    }
  }
}
layer {
  name: "ReLU16"
  type: "ReLU"
  bottom: "InnerProduct24"
  top: "InnerProduct24"
}
layer {
  name: "dt3"
  type: "InnerProduct"
  bottom: "InnerProduct24"
  top: "dt3"
  param {
    name: "fc3_w"
    lr_mult: 1
  }
  param {
    name: "fc3_b"
    lr_mult: 2
  }
  inner_product_param {
    num_output: 2
    weight_filler {
      type: "xavier"
    }
    bias_filler {
      type: "constant"
    }
  }
}
layer {
  name: "Convolution17"
  type: "Convolution"
  bottom: "p1"
  top: "Convolution17"
  param {
    name: "conv1_w"
    lr_mult: 1
  }
  param {
    name: "conv1_b"
    lr_mult: 2
  }
  convolution_param {
    num_output: 20
    kernel_size: 5
    stride: 1
    weight_filler {
      type: "xavier"
    }
    bias_filler {
      type: "constant"
    }
  }
}
layer {
  name: "Pooling17"
  type: "Pooling"
  bottom: "Convolution17"
  top: "Pooling17"
  pooling_param {
    pool: MAX
    kernel_size: 2
    stride: 2
  }
}
layer {
  name: "Convolution18"
  type: "Convolution"
  bottom: "Pooling17"
  top: "Convolution18"
  param {
    name: "conv2_w"
    lr_mult: 1
  }
  param {
    name: "conv2_b"
    lr_mult: 2
  }
  convolution_param {
    num_output: 50
    kernel_size: 5
    stride: 1
    weight_filler {
      type: "xavier"
    }
    bias_filler {
      type: "constant"
    }
  }
}
layer {
  name: "Pooling18"
  type: "Pooling"
  bottom: "Convolution18"
  top: "Pooling18"
  pooling_param {
    pool: MAX
    kernel_size: 2
    stride: 2
  }
}
layer {
  name: "InnerProduct25"
  type: "InnerProduct"
  bottom: "Pooling18"
  top: "InnerProduct25"
  param {
    name: "ip1_w"
    lr_mult: 1
  }
  param {
    name: "ip1_b"
    lr_mult: 2
  }
  inner_product_param {
    num_output: 500
    weight_filler {
      type: "xavier"
    }
    bias_filler {
      type: "constant"
    }
  }
}
layer {
  name: "ReLU17"
  type: "ReLU"
  bottom: "InnerProduct25"
  top: "InnerProduct25"
}
layer {
  name: "InnerProduct26"
  type: "InnerProduct"
  bottom: "InnerProduct25"
  top: "InnerProduct26"
  param {
    name: "ip2_w"
    lr_mult: 1
  }
  param {
    name: "ip2_b"
    lr_mult: 2
  }
  inner_product_param {
    num_output: 500
    weight_filler {
      type: "xavier"
    }
    bias_filler {
      type: "constant"
    }
  }
}
layer {
  name: "Convolution19"
  type: "Convolution"
  bottom: "c24"
  top: "Convolution19"
  param {
    name: "conv1_w"
    lr_mult: 1
  }
  param {
    name: "conv1_b"
    lr_mult: 2
  }
  convolution_param {
    num_output: 20
    kernel_size: 5
    stride: 1
    weight_filler {
      type: "xavier"
    }
    bias_filler {
      type: "constant"
    }
  }
}
layer {
  name: "Pooling19"
  type: "Pooling"
  bottom: "Convolution19"
  top: "Pooling19"
  pooling_param {
    pool: MAX
    kernel_size: 2
    stride: 2
  }
}
layer {
  name: "Convolution20"
  type: "Convolution"
  bottom: "Pooling19"
  top: "Convolution20"
  param {
    name: "conv2_w"
    lr_mult: 1
  }
  param {
    name: "conv2_b"
    lr_mult: 2
  }
  convolution_param {
    num_output: 50
    kernel_size: 5
    stride: 1
    weight_filler {
      type: "xavier"
    }
    bias_filler {
      type: "constant"
    }
  }
}
layer {
  name: "Pooling20"
  type: "Pooling"
  bottom: "Convolution20"
  top: "Pooling20"
  pooling_param {
    pool: MAX
    kernel_size: 2
    stride: 2
  }
}
layer {
  name: "InnerProduct27"
  type: "InnerProduct"
  bottom: "Pooling20"
  top: "InnerProduct27"
  param {
    name: "ip1_w"
    lr_mult: 1
  }
  param {
    name: "ip1_b"
    lr_mult: 2
  }
  inner_product_param {
    num_output: 500
    weight_filler {
      type: "xavier"
    }
    bias_filler {
I0726 10:04:39.149026 32016 layer_factory.hpp:77] Creating layer data
I0726 10:04:39.149528 32016 net.cpp:91] Creating Layer data
I0726 10:04:39.149538 32016 net.cpp:399] data -> data
I0726 10:04:39.149574 32016 net.cpp:399] data -> label
I0726 10:04:39.149595 32016 data_transformer.cpp:25] Loading mean file from: examples/scene/scene_mean.binaryproto
I0726 10:04:39.152839 32022 db_lmdb.cpp:35] Opened lmdb examples/scene/train_pairs.lmdb
I0726 10:04:39.181701 32016 data_layer.cpp:41] output data size: 128,6,128,128
I0726 10:04:39.314895 32016 net.cpp:141] Setting up data
I0726 10:04:39.314935 32016 net.cpp:148] Top shape: 128 6 128 128 (12582912)
I0726 10:04:39.314944 32016 net.cpp:148] Top shape: 128 (128)
I0726 10:04:39.314951 32016 net.cpp:156] Memory required for data: 50332160
I0726 10:04:39.314965 32016 layer_factory.hpp:77] Creating layer label_data_1_split
I0726 10:04:39.314986 32016 net.cpp:91] Creating Layer label_data_1_split
I0726 10:04:39.314996 32016 net.cpp:425] label_data_1_split <- label
I0726 10:04:39.315011 32016 net.cpp:399] label_data_1_split -> label_data_1_split_0
I0726 10:04:39.315029 32016 net.cpp:399] label_data_1_split -> label_data_1_split_1
I0726 10:04:39.315104 32016 net.cpp:141] Setting up label_data_1_split
I0726 10:04:39.315115 32016 net.cpp:148] Top shape: 128 (128)
I0726 10:04:39.315124 32016 net.cpp:148] Top shape: 128 (128)
I0726 10:04:39.315129 32016 net.cpp:156] Memory required for data: 50333184
I0726 10:04:39.315135 32016 layer_factory.hpp:77] Creating layer i1
I0726 10:04:39.315151 32016 net.cpp:91] Creating Layer i1
I0726 10:04:39.315157 32016 net.cpp:425] i1 <- data
I0726 10:04:39.315166 32016 net.cpp:399] i1 -> i1
I0726 10:04:39.315181 32016 net.cpp:399] i1 -> i2
I0726 10:04:39.315250 32016 net.cpp:141] Setting up i1
I0726 10:04:39.315264 32016 net.cpp:148] Top shape: 128 3 128 128 (6291456)
I0726 10:04:39.315273 32016 net.cpp:148] Top shape: 128 3 128 128 (6291456)
I0726 10:04:39.315279 32016 net.cpp:156] Memory required for data: 100664832
I0726 10:04:39.315284 32016 layer_factory.hpp:77] Creating layer i1_i1_0_split
I0726 10:04:39.315294 32016 net.cpp:91] Creating Layer i1_i1_0_split
I0726 10:04:39.315330 32016 net.cpp:425] i1_i1_0_split <- i1
I0726 10:04:39.315340 32016 net.cpp:399] i1_i1_0_split -> i1_i1_0_split_0
I0726 10:04:39.315351 32016 net.cpp:399] i1_i1_0_split -> i1_i1_0_split_1
I0726 10:04:39.315362 32016 net.cpp:399] i1_i1_0_split -> i1_i1_0_split_2
I0726 10:04:39.315376 32016 net.cpp:399] i1_i1_0_split -> i1_i1_0_split_3
I0726 10:04:39.315387 32016 net.cpp:399] i1_i1_0_split -> i1_i1_0_split_4
I0726 10:04:39.315397 32016 net.cpp:399] i1_i1_0_split -> i1_i1_0_split_5
I0726 10:04:39.315408 32016 net.cpp:399] i1_i1_0_split -> i1_i1_0_split_6
I0726 10:04:39.315419 32016 net.cpp:399] i1_i1_0_split -> i1_i1_0_split_7
I0726 10:04:39.315429 32016 net.cpp:399] i1_i1_0_split -> i1_i1_0_split_8
I0726 10:04:39.315441 32016 net.cpp:399] i1_i1_0_split -> i1_i1_0_split_9
I0726 10:04:39.315600 32016 net.cpp:141] Setting up i1_i1_0_split
I0726 10:04:39.315610 32016 net.cpp:148] Top shape: 128 3 128 128 (6291456)
I0726 10:04:39.315618 32016 net.cpp:148] Top shape: 128 3 128 128 (6291456)
I0726 10:04:39.315625 32016 net.cpp:148] Top shape: 128 3 128 128 (6291456)
I0726 10:04:39.315632 32016 net.cpp:148] Top shape: 128 3 128 128 (6291456)
I0726 10:04:39.315639 32016 net.cpp:148] Top shape: 128 3 128 128 (6291456)
I0726 10:04:39.315646 32016 net.cpp:148] Top shape: 128 3 128 128 (6291456)
I0726 10:04:39.315654 32016 net.cpp:148] Top shape: 128 3 128 128 (6291456)
I0726 10:04:39.315660 32016 net.cpp:148] Top shape: 128 3 128 128 (6291456)
I0726 10:04:39.315667 32016 net.cpp:148] Top shape: 128 3 128 128 (6291456)
I0726 10:04:39.315675 32016 net.cpp:148] Top shape: 128 3 128 128 (6291456)
I0726 10:04:39.315680 32016 net.cpp:156] Memory required for data: 352323072
I0726 10:04:39.315686 32016 layer_factory.hpp:77] Creating layer i2_i1_1_split
I0726 10:04:39.315696 32016 net.cpp:91] Creating Layer i2_i1_1_split
I0726 10:04:39.315701 32016 net.cpp:425] i2_i1_1_split <- i2
I0726 10:04:39.315711 32016 net.cpp:399] i2_i1_1_split -> i2_i1_1_split_0
I0726 10:04:39.315724 32016 net.cpp:399] i2_i1_1_split -> i2_i1_1_split_1
I0726 10:04:39.315737 32016 net.cpp:399] i2_i1_1_split -> i2_i1_1_split_2
I0726 10:04:39.315747 32016 net.cpp:399] i2_i1_1_split -> i2_i1_1_split_3
I0726 10:04:39.315758 32016 net.cpp:399] i2_i1_1_split -> i2_i1_1_split_4
I0726 10:04:39.315769 32016 net.cpp:399] i2_i1_1_split -> i2_i1_1_split_5
I0726 10:04:39.315780 32016 net.cpp:399] i2_i1_1_split -> i2_i1_1_split_6
I0726 10:04:39.315791 32016 net.cpp:399] i2_i1_1_split -> i2_i1_1_split_7
I0726 10:04:39.315803 32016 net.cpp:399] i2_i1_1_split -> i2_i1_1_split_8
I0726 10:04:39.315814 32016 net.cpp:399] i2_i1_1_split -> i2_i1_1_split_9
I0726 10:04:39.315970 32016 net.cpp:141] Setting up i2_i1_1_split
I0726 10:04:39.315981 32016 net.cpp:148] Top shape: 128 3 128 128 (6291456)
I0726 10:04:39.315989 32016 net.cpp:148] Top shape: 128 3 128 128 (6291456)
I0726 10:04:39.315996 32016 net.cpp:148] Top shape: 128 3 128 128 (6291456)
I0726 10:04:39.316004 32016 net.cpp:148] Top shape: 128 3 128 128 (6291456)
I0726 10:04:39.316010 32016 net.cpp:148] Top shape: 128 3 128 128 (6291456)
I0726 10:04:39.316017 32016 net.cpp:148] Top shape: 128 3 128 128 (6291456)
I0726 10:04:39.316025 32016 net.cpp:148] Top shape: 128 3 128 128 (6291456)
I0726 10:04:39.316031 32016 net.cpp:148] Top shape: 128 3 128 128 (6291456)
I0726 10:04:39.316038 32016 net.cpp:148] Top shape: 128 3 128 128 (6291456)
I0726 10:04:39.316045 32016 net.cpp:148] Top shape: 128 3 128 128 (6291456)
I0726 10:04:39.316051 32016 net.cpp:156] Memory required for data: 603981312
I0726 10:04:39.316056 32016 layer_factory.hpp:77] Creating layer p1
I0726 10:04:39.316067 32016 net.cpp:91] Creating Layer p1
I0726 10:04:39.316073 32016 net.cpp:425] p1 <- i1_i1_0_split_0
I0726 10:04:39.316082 32016 net.cpp:399] p1 -> p1
I0726 10:04:39.316123 32016 net.cpp:141] Setting up p1
I0726 10:04:39.316133 32016 net.cpp:148] Top shape: 128 3 64 64 (1572864)
I0726 10:04:39.316139 32016 net.cpp:156] Memory required for data: 610272768
I0726 10:04:39.316145 32016 layer_factory.hpp:77] Creating layer p1_p1_0_split
I0726 10:04:39.316155 32016 net.cpp:91] Creating Layer p1_p1_0_split
I0726 10:04:39.316170 32016 net.cpp:425] p1_p1_0_split <- p1
I0726 10:04:39.316179 32016 net.cpp:399] p1_p1_0_split -> p1_p1_0_split_0
I0726 10:04:39.316193 32016 net.cpp:399] p1_p1_0_split -> p1_p1_0_split_1
I0726 10:04:39.316205 32016 net.cpp:399] p1_p1_0_split -> p1_p1_0_split_2
I0726 10:04:39.316216 32016 net.cpp:399] p1_p1_0_split -> p1_p1_0_split_3
I0726 10:04:39.316227 32016 net.cpp:399] p1_p1_0_split -> p1_p1_0_split_4
I0726 10:04:39.316246 32016 net.cpp:399] p1_p1_0_split -> p1_p1_0_split_5
I0726 10:04:39.316259 32016 net.cpp:399] p1_p1_0_split -> p1_p1_0_split_6
I0726 10:04:39.316270 32016 net.cpp:399] p1_p1_0_split -> p1_p1_0_split_7
I0726 10:04:39.316282 32016 net.cpp:399] p1_p1_0_split -> p1_p1_0_split_8
I0726 10:04:39.316298 32016 net.cpp:399] p1_p1_0_split -> p1_p1_0_split_9
I0726 10:04:39.316467 32016 net.cpp:141] Setting up p1_p1_0_split
I0726 10:04:39.316478 32016 net.cpp:148] Top shape: 128 3 64 64 (1572864)
I0726 10:04:39.316484 32016 net.cpp:148] Top shape: 128 3 64 64 (1572864)
I0726 10:04:39.316493 32016 net.cpp:148] Top shape: 128 3 64 64 (1572864)
I0726 10:04:39.316503 32016 net.cpp:148] Top shape: 128 3 64 64 (1572864)
I0726 10:04:39.316509 32016 net.cpp:148] Top shape: 128 3 64 64 (1572864)
I0726 10:04:39.316517 32016 net.cpp:148] Top shape: 128 3 64 64 (1572864)
I0726 10:04:39.316525 32016 net.cpp:148] Top shape: 128 3 64 64 (1572864)
I0726 10:04:39.316532 32016 net.cpp:148] Top shape: 128 3 64 64 (1572864)
I0726 10:04:39.316540 32016 net.cpp:148] Top shape: 128 3 64 64 (1572864)
I0726 10:04:39.316547 32016 net.cpp:148] Top shape: 128 3 64 64 (1572864)
I0726 10:04:39.316553 32016 net.cpp:156] Memory required for data: 673187328
I0726 10:04:39.316560 32016 layer_factory.hpp:77] Creating layer p2
I0726 10:04:39.316567 32016 net.cpp:91] Creating Layer p2
I0726 10:04:39.316573 32016 net.cpp:425] p2 <- i2_i1_1_split_0
I0726 10:04:39.316582 32016 net.cpp:399] p2 -> p2
I0726 10:04:39.316617 32016 net.cpp:141] Setting up p2
I0726 10:04:39.316627 32016 net.cpp:148] Top shape: 128 3 64 64 (1572864)
I0726 10:04:39.316633 32016 net.cpp:156] Memory required for data: 679478784
I0726 10:04:39.316638 32016 layer_factory.hpp:77] Creating layer p2_p2_0_split
I0726 10:04:39.316649 32016 net.cpp:91] Creating Layer p2_p2_0_split
I0726 10:04:39.316655 32016 net.cpp:425] p2_p2_0_split <- p2
I0726 10:04:39.316665 32016 net.cpp:399] p2_p2_0_split -> p2_p2_0_split_0
I0726 10:04:39.316678 32016 net.cpp:399] p2_p2_0_split -> p2_p2_0_split_1
I0726 10:04:39.316689 32016 net.cpp:399] p2_p2_0_split -> p2_p2_0_split_2
I0726 10:04:39.316701 32016 net.cpp:399] p2_p2_0_split -> p2_p2_0_split_3
I0726 10:04:39.316712 32016 net.cpp:399] p2_p2_0_split -> p2_p2_0_split_4
I0726 10:04:39.316725 32016 net.cpp:399] p2_p2_0_split -> p2_p2_0_split_5
I0726 10:04:39.316735 32016 net.cpp:399] p2_p2_0_split -> p2_p2_0_split_6
I0726 10:04:39.316746 32016 net.cpp:399] p2_p2_0_split -> p2_p2_0_split_7
I0726 10:04:39.316757 32016 net.cpp:399] p2_p2_0_split -> p2_p2_0_split_8
I0726 10:04:39.316769 32016 net.cpp:399] p2_p2_0_split -> p2_p2_0_split_9
I0726 10:04:39.324522 32016 net.cpp:141] Setting up p2_p2_0_split
I0726 10:04:39.324538 32016 net.cpp:148] Top shape: 128 3 64 64 (1572864)
I0726 10:04:39.324547 32016 net.cpp:148] Top shape: 128 3 64 64 (1572864)
I0726 10:04:39.324554 32016 net.cpp:148] Top shape: 128 3 64 64 (1572864)
I0726 10:04:39.324561 32016 net.cpp:148] Top shape: 128 3 64 64 (1572864)
I0726 10:04:39.324568 32016 net.cpp:148] Top shape: 128 3 64 64 (1572864)
I0726 10:04:39.324575 32016 net.cpp:148] Top shape: 128 3 64 64 (1572864)
I0726 10:04:39.324582 32016 net.cpp:148] Top shape: 128 3 64 64 (1572864)
I0726 10:04:39.324589 32016 net.cpp:148] Top shape: 128 3 64 64 (1572864)
I0726 10:04:39.324596 32016 net.cpp:148] Top shape: 128 3 64 64 (1572864)
I0726 10:04:39.324604 32016 net.cpp:148] Top shape: 128 3 64 64 (1572864)
I0726 10:04:39.324609 32016 net.cpp:156] Memory required for data: 742393344
I0726 10:04:39.324615 32016 layer_factory.hpp:77] Creating layer Input1
I0726 10:04:39.324627 32016 net.cpp:91] Creating Layer Input1
I0726 10:04:39.324652 32016 net.cpp:399] Input1 -> Input1
I0726 10:04:39.324687 32016 net.cpp:141] Setting up Input1
I0726 10:04:39.324697 32016 net.cpp:148] Top shape: 128 3 64 64 (1572864)
I0726 10:04:39.324703 32016 net.cpp:156] Memory required for data: 748684800
I0726 10:04:39.324708 32016 layer_factory.hpp:77] Creating layer c11
I0726 10:04:39.324724 32016 net.cpp:91] Creating Layer c11
I0726 10:04:39.324730 32016 net.cpp:425] c11 <- i1_i1_0_split_1
I0726 10:04:39.324738 32016 net.cpp:425] c11 <- Input1
I0726 10:04:39.324748 32016 net.cpp:399] c11 -> c11
I0726 10:04:39.324784 32016 net.cpp:141] Setting up c11
I0726 10:04:39.324793 32016 net.cpp:148] Top shape: 128 3 64 64 (1572864)
I0726 10:04:39.324800 32016 net.cpp:156] Memory required for data: 754976256
I0726 10:04:39.324806 32016 layer_factory.hpp:77] Creating layer Input2
I0726 10:04:39.324826 32016 net.cpp:91] Creating Layer Input2
I0726 10:04:39.324836 32016 net.cpp:399] Input2 -> Input2
I0726 10:04:39.324874 32016 net.cpp:141] Setting up Input2
I0726 10:04:39.324887 32016 net.cpp:148] Top shape: 128 3 64 64 (1572864)
I0726 10:04:39.324892 32016 net.cpp:156] Memory required for data: 761267712
I0726 10:04:39.324898 32016 layer_factory.hpp:77] Creating layer c12
I0726 10:04:39.324908 32016 net.cpp:91] Creating Layer c12
I0726 10:04:39.324913 32016 net.cpp:425] c12 <- i1_i1_0_split_2
I0726 10:04:39.324920 32016 net.cpp:425] c12 <- Input2
I0726 10:04:39.324929 32016 net.cpp:399] c12 -> c12
I0726 10:04:39.324956 32016 net.cpp:141] Setting up c12
I0726 10:04:39.324966 32016 net.cpp:148] Top shape: 128 3 64 64 (1572864)
I0726 10:04:39.324972 32016 net.cpp:156] Memory required for data: 767559168
I0726 10:04:39.324977 32016 layer_factory.hpp:77] Creating layer Input3
I0726 10:04:39.324985 32016 net.cpp:91] Creating Layer Input3
I0726 10:04:39.324993 32016 net.cpp:399] Input3 -> Input3
I0726 10:04:39.325021 32016 net.cpp:141] Setting up Input3
I0726 10:04:39.325029 32016 net.cpp:148] Top shape: 128 3 64 64 (1572864)
I0726 10:04:39.325036 32016 net.cpp:156] Memory required for data: 773850624
I0726 10:04:39.325040 32016 layer_factory.hpp:77] Creating layer c13
I0726 10:04:39.325049 32016 net.cpp:91] Creating Layer c13
I0726 10:04:39.325055 32016 net.cpp:425] c13 <- i1_i1_0_split_3
I0726 10:04:39.325062 32016 net.cpp:425] c13 <- Input3
I0726 10:04:39.325072 32016 net.cpp:399] c13 -> c13
I0726 10:04:39.325098 32016 net.cpp:141] Setting up c13
I0726 10:04:39.325108 32016 net.cpp:148] Top shape: 128 3 64 64 (1572864)
I0726 10:04:39.325114 32016 net.cpp:156] Memory required for data: 780142080
I0726 10:04:39.325119 32016 layer_factory.hpp:77] Creating layer Input4
I0726 10:04:39.325127 32016 net.cpp:91] Creating Layer Input4
I0726 10:04:39.325134 32016 net.cpp:399] Input4 -> Input4
I0726 10:04:39.325160 32016 net.cpp:141] Setting up Input4
I0726 10:04:39.325170 32016 net.cpp:148] Top shape: 128 3 64 64 (1572864)
I0726 10:04:39.325176 32016 net.cpp:156] Memory required for data: 786433536
I0726 10:04:39.325181 32016 layer_factory.hpp:77] Creating layer c14
I0726 10:04:39.325191 32016 net.cpp:91] Creating Layer c14
I0726 10:04:39.325197 32016 net.cpp:425] c14 <- i1_i1_0_split_4
I0726 10:04:39.325206 32016 net.cpp:425] c14 <- Input4
I0726 10:04:39.325214 32016 net.cpp:399] c14 -> c14
I0726 10:04:39.325242 32016 net.cpp:141] Setting up c14
I0726 10:04:39.325250 32016 net.cpp:148] Top shape: 128 3 64 64 (1572864)
I0726 10:04:39.325256 32016 net.cpp:156] Memory required for data: 792724992
I0726 10:04:39.325261 32016 layer_factory.hpp:77] Creating layer Input5
I0726 10:04:39.325269 32016 net.cpp:91] Creating Layer Input5
I0726 10:04:39.325278 32016 net.cpp:399] Input5 -> Input5
I0726 10:04:39.325304 32016 net.cpp:141] Setting up Input5
I0726 10:04:39.325314 32016 net.cpp:148] Top shape: 128 3 64 64 (1572864)
I0726 10:04:39.325320 32016 net.cpp:156] Memory required for data: 799016448
I0726 10:04:39.325326 32016 layer_factory.hpp:77] Creating layer c15
I0726 10:04:39.325337 32016 net.cpp:91] Creating Layer c15
I0726 10:04:39.325346 32016 net.cpp:425] c15 <- i1_i1_0_split_5
I0726 10:04:39.325376 32016 net.cpp:425] c15 <- Input5
I0726 10:04:39.325388 32016 net.cpp:399] c15 -> c15
I0726 10:04:39.325417 32016 net.cpp:141] Setting up c15
I0726 10:04:39.325428 32016 net.cpp:148] Top shape: 128 3 64 64 (1572864)
I0726 10:04:39.325433 32016 net.cpp:156] Memory required for data: 805307904
I0726 10:04:39.325439 32016 layer_factory.hpp:77] Creating layer Input6
I0726 10:04:39.325448 32016 net.cpp:91] Creating Layer Input6
I0726 10:04:39.325455 32016 net.cpp:399] Input6 -> Input6
I0726 10:04:39.325481 32016 net.cpp:141] Setting up Input6
I0726 10:04:39.325490 32016 net.cpp:148] Top shape: 128 3 64 64 (1572864)
I0726 10:04:39.325496 32016 net.cpp:156] Memory required for data: 811599360
I0726 10:04:39.325502 32016 layer_factory.hpp:77] Creating layer c16
I0726 10:04:39.325510 32016 net.cpp:91] Creating Layer c16
I0726 10:04:39.325515 32016 net.cpp:425] c16 <- i1_i1_0_split_6
I0726 10:04:39.325523 32016 net.cpp:425] c16 <- Input6
I0726 10:04:39.325532 32016 net.cpp:399] c16 -> c16
I0726 10:04:39.325559 32016 net.cpp:141] Setting up c16
I0726 10:04:39.325568 32016 net.cpp:148] Top shape: 128 3 64 64 (1572864)
I0726 10:04:39.325573 32016 net.cpp:156] Memory required for data: 817890816
I0726 10:04:39.325582 32016 layer_factory.hpp:77] Creating layer Input7
I0726 10:04:39.325589 32016 net.cpp:91] Creating Layer Input7
I0726 10:04:39.325597 32016 net.cpp:399] Input7 -> Input7
I0726 10:04:39.325623 32016 net.cpp:141] Setting up Input7
I0726 10:04:39.325633 32016 net.cpp:148] Top shape: 128 3 64 64 (1572864)
I0726 10:04:39.325637 32016 net.cpp:156] Memory required for data: 824182272
I0726 10:04:39.325644 32016 layer_factory.hpp:77] Creating layer c17
I0726 10:04:39.325651 32016 net.cpp:91] Creating Layer c17
I0726 10:04:39.325656 32016 net.cpp:425] c17 <- i1_i1_0_split_7
I0726 10:04:39.325664 32016 net.cpp:425] c17 <- Input7
I0726 10:04:39.325673 32016 net.cpp:399] c17 -> c17
I0726 10:04:39.325700 32016 net.cpp:141] Setting up c17
I0726 10:04:39.325708 32016 net.cpp:148] Top shape: 128 3 64 64 (1572864)
I0726 10:04:39.325714 32016 net.cpp:156] Memory required for data: 830473728
I0726 10:04:39.325719 32016 layer_factory.hpp:77] Creating layer Input8
I0726 10:04:39.325727 32016 net.cpp:91] Creating Layer Input8
I0726 10:04:39.325736 32016 net.cpp:399] Input8 -> Input8
I0726 10:04:39.325762 32016 net.cpp:141] Setting up Input8
I0726 10:04:39.325773 32016 net.cpp:148] Top shape: 128 3 64 64 (1572864)
I0726 10:04:39.325780 32016 net.cpp:156] Memory required for data: 836765184
I0726 10:04:39.325788 32016 layer_factory.hpp:77] Creating layer c18
I0726 10:04:39.325800 32016 net.cpp:91] Creating Layer c18
I0726 10:04:39.325810 32016 net.cpp:425] c18 <- i1_i1_0_split_8
I0726 10:04:39.325822 32016 net.cpp:425] c18 <- Input8
I0726 10:04:39.325834 32016 net.cpp:399] c18 -> c18
I0726 10:04:39.325861 32016 net.cpp:141] Setting up c18
I0726 10:04:39.325871 32016 net.cpp:148] Top shape: 128 3 64 64 (1572864)
I0726 10:04:39.325877 32016 net.cpp:156] Memory required for data: 843056640
I0726 10:04:39.325882 32016 layer_factory.hpp:77] Creating layer Input9
I0726 10:04:39.325891 32016 net.cpp:91] Creating Layer Input9
I0726 10:04:39.325898 32016 net.cpp:399] Input9 -> Input9
I0726 10:04:39.325932 32016 net.cpp:141] Setting up Input9
I0726 10:04:39.325943 32016 net.cpp:148] Top shape: 128 3 64 64 (1572864)
I0726 10:04:39.325948 32016 net.cpp:156] Memory required for data: 849348096
I0726 10:04:39.325954 32016 layer_factory.hpp:77] Creating layer c19
I0726 10:04:39.325963 32016 net.cpp:91] Creating Layer c19
I0726 10:04:39.325968 32016 net.cpp:425] c19 <- i1_i1_0_split_9
I0726 10:04:39.325976 32016 net.cpp:425] c19 <- Input9
I0726 10:04:39.325985 32016 net.cpp:399] c19 -> c19
I0726 10:04:39.326012 32016 net.cpp:141] Setting up c19
I0726 10:04:39.326022 32016 net.cpp:148] Top shape: 128 3 64 64 (1572864)
I0726 10:04:39.326028 32016 net.cpp:156] Memory required for data: 855639552
I0726 10:04:39.326035 32016 layer_factory.hpp:77] Creating layer Input10
I0726 10:04:39.326042 32016 net.cpp:91] Creating Layer Input10
I0726 10:04:39.326059 32016 net.cpp:399] Input10 -> Input10
I0726 10:04:39.326086 32016 net.cpp:141] Setting up Input10
I0726 10:04:39.326095 32016 net.cpp:148] Top shape: 128 3 64 64 (1572864)
I0726 10:04:39.326102 32016 net.cpp:156] Memory required for data: 861931008
I0726 10:04:39.326107 32016 layer_factory.hpp:77] Creating layer c21
I0726 10:04:39.326114 32016 net.cpp:91] Creating Layer c21
I0726 10:04:39.326120 32016 net.cpp:425] c21 <- i2_i1_1_split_1
I0726 10:04:39.326128 32016 net.cpp:425] c21 <- Input10
I0726 10:04:39.326138 32016 net.cpp:399] c21 -> c21
I0726 10:04:39.326164 32016 net.cpp:141] Setting up c21
I0726 10:04:39.326171 32016 net.cpp:148] Top shape: 128 3 64 64 (1572864)
I0726 10:04:39.326176 32016 net.cpp:156] Memory required for data: 868222464
I0726 10:04:39.326182 32016 layer_factory.hpp:77] Creating layer Input11
I0726 10:04:39.326190 32016 net.cpp:91] Creating Layer Input11
I0726 10:04:39.326197 32016 net.cpp:399] Input11 -> Input11
I0726 10:04:39.326227 32016 net.cpp:141] Setting up Input11
I0726 10:04:39.326241 32016 net.cpp:148] Top shape: 128 3 64 64 (1572864)
I0726 10:04:39.326251 32016 net.cpp:156] Memory required for data: 874513920
I0726 10:04:39.326261 32016 layer_factory.hpp:77] Creating layer c22
I0726 10:04:39.326272 32016 net.cpp:91] Creating Layer c22
I0726 10:04:39.326279 32016 net.cpp:425] c22 <- i2_i1_1_split_2
I0726 10:04:39.326287 32016 net.cpp:425] c22 <- Input11
I0726 10:04:39.326297 32016 net.cpp:399] c22 -> c22
I0726 10:04:39.326323 32016 net.cpp:141] Setting up c22
I0726 10:04:39.326331 32016 net.cpp:148] Top shape: 128 3 64 64 (1572864)
I0726 10:04:39.326336 32016 net.cpp:156] Memory required for data: 880805376
I0726 10:04:39.326342 32016 layer_factory.hpp:77] Creating layer Input12
I0726 10:04:39.326351 32016 net.cpp:91] Creating Layer Input12
I0726 10:04:39.326359 32016 net.cpp:399] Input12 -> Input12
I0726 10:04:39.326385 32016 net.cpp:141] Setting up Input12
I0726 10:04:39.326392 32016 net.cpp:148] Top shape: 128 3 64 64 (1572864)
I0726 10:04:39.326397 32016 net.cpp:156] Memory required for data: 887096832
I0726 10:04:39.326403 32016 layer_factory.hpp:77] Creating layer c23
I0726 10:04:39.326416 32016 net.cpp:91] Creating Layer c23
I0726 10:04:39.326421 32016 net.cpp:425] c23 <- i2_i1_1_split_3
I0726 10:04:39.326428 32016 net.cpp:425] c23 <- Input12
I0726 10:04:39.326437 32016 net.cpp:399] c23 -> c23
I0726 10:04:39.326464 32016 net.cpp:141] Setting up c23
I0726 10:04:39.326472 32016 net.cpp:148] Top shape: 128 3 64 64 (1572864)
I0726 10:04:39.326478 32016 net.cpp:156] Memory required for data: 893388288
I0726 10:04:39.326483 32016 layer_factory.hpp:77] Creating layer Input13
I0726 10:04:39.326491 32016 net.cpp:91] Creating Layer Input13
I0726 10:04:39.326498 32016 net.cpp:399] Input13 -> Input13
I0726 10:04:39.326524 32016 net.cpp:141] Setting up Input13
I0726 10:04:39.326531 32016 net.cpp:148] Top shape: 128 3 64 64 (1572864)
I0726 10:04:39.326537 32016 net.cpp:156] Memory required for data: 899679744
I0726 10:04:39.326542 32016 layer_factory.hpp:77] Creating layer c24
I0726 10:04:39.326550 32016 net.cpp:91] Creating Layer c24
I0726 10:04:39.326556 32016 net.cpp:425] c24 <- i2_i1_1_split_4
I0726 10:04:39.326565 32016 net.cpp:425] c24 <- Input13
I0726 10:04:39.326572 32016 net.cpp:399] c24 -> c24
I0726 10:04:39.326598 32016 net.cpp:141] Setting up c24
I0726 10:04:39.326606 32016 net.cpp:148] Top shape: 128 3 64 64 (1572864)
I0726 10:04:39.326611 32016 net.cpp:156] Memory required for data: 905971200
I0726 10:04:39.326617 32016 layer_factory.hpp:77] Creating layer Input14
I0726 10:04:39.326625 32016 net.cpp:91] Creating Layer Input14
I0726 10:04:39.326632 32016 net.cpp:399] Input14 -> Input14
I0726 10:04:39.326658 32016 net.cpp:141] Setting up Input14
I0726 10:04:39.326669 32016 net.cpp:148] Top shape: 128 3 64 64 (1572864)
I0726 10:04:39.326678 32016 net.cpp:156] Memory required for data: 912262656
I0726 10:04:39.326686 32016 layer_factory.hpp:77] Creating layer c25
I0726 10:04:39.326701 32016 net.cpp:91] Creating Layer c25
I0726 10:04:39.326711 32016 net.cpp:425] c25 <- i2_i1_1_split_5
I0726 10:04:39.326732 32016 net.cpp:425] c25 <- Input14
I0726 10:04:39.326742 32016 net.cpp:399] c25 -> c25
I0726 10:04:39.326771 32016 net.cpp:141] Setting up c25
I0726 10:04:39.326778 32016 net.cpp:148] Top shape: 128 3 64 64 (1572864)
I0726 10:04:39.326784 32016 net.cpp:156] Memory required for data: 918554112
I0726 10:04:39.326789 32016 layer_factory.hpp:77] Creating layer Input15
I0726 10:04:39.326798 32016 net.cpp:91] Creating Layer Input15
I0726 10:04:39.326805 32016 net.cpp:399] Input15 -> Input15
I0726 10:04:39.326831 32016 net.cpp:141] Setting up Input15
I0726 10:04:39.326838 32016 net.cpp:148] Top shape: 128 3 64 64 (1572864)
I0726 10:04:39.326844 32016 net.cpp:156] Memory required for data: 924845568
I0726 10:04:39.326850 32016 layer_factory.hpp:77] Creating layer c26
I0726 10:04:39.326858 32016 net.cpp:91] Creating Layer c26
I0726 10:04:39.326864 32016 net.cpp:425] c26 <- i2_i1_1_split_6
I0726 10:04:39.326871 32016 net.cpp:425] c26 <- Input15
I0726 10:04:39.326880 32016 net.cpp:399] c26 -> c26
I0726 10:04:39.326906 32016 net.cpp:141] Setting up c26
I0726 10:04:39.326913 32016 net.cpp:148] Top shape: 128 3 64 64 (1572864)
I0726 10:04:39.326920 32016 net.cpp:156] Memory required for data: 931137024
I0726 10:04:39.326925 32016 layer_factory.hpp:77] Creating layer Input16
I0726 10:04:39.326933 32016 net.cpp:91] Creating Layer Input16
I0726 10:04:39.326941 32016 net.cpp:399] Input16 -> Input16
I0726 10:04:39.326967 32016 net.cpp:141] Setting up Input16
I0726 10:04:39.326973 32016 net.cpp:148] Top shape: 128 3 64 64 (1572864)
I0726 10:04:39.326979 32016 net.cpp:156] Memory required for data: 937428480
I0726 10:04:39.326984 32016 layer_factory.hpp:77] Creating layer c27
I0726 10:04:39.326992 32016 net.cpp:91] Creating Layer c27
I0726 10:04:39.326998 32016 net.cpp:425] c27 <- i2_i1_1_split_7
I0726 10:04:39.327005 32016 net.cpp:425] c27 <- Input16
I0726 10:04:39.327014 32016 net.cpp:399] c27 -> c27
I0726 10:04:39.327040 32016 net.cpp:141] Setting up c27
I0726 10:04:39.327049 32016 net.cpp:148] Top shape: 128 3 64 64 (1572864)
I0726 10:04:39.327069 32016 net.cpp:156] Memory required for data: 943719936
I0726 10:04:39.327076 32016 layer_factory.hpp:77] Creating layer Input17
I0726 10:04:39.327085 32016 net.cpp:91] Creating Layer Input17
I0726 10:04:39.327092 32016 net.cpp:399] Input17 -> Input17
I0726 10:04:39.327123 32016 net.cpp:141] Setting up Input17
I0726 10:04:39.327136 32016 net.cpp:148] Top shape: 128 3 64 64 (1572864)
I0726 10:04:39.327145 32016 net.cpp:156] Memory required for data: 950011392
I0726 10:04:39.327155 32016 layer_factory.hpp:77] Creating layer c28
I0726 10:04:39.327173 32016 net.cpp:91] Creating Layer c28
I0726 10:04:39.327181 32016 net.cpp:425] c28 <- i2_i1_1_split_8
I0726 10:04:39.327191 32016 net.cpp:425] c28 <- Input17
I0726 10:04:39.327205 32016 net.cpp:399] c28 -> c28
I0726 10:04:39.327242 32016 net.cpp:141] Setting up c28
I0726 10:04:39.327253 32016 net.cpp:148] Top shape: 128 3 64 64 (1572864)
I0726 10:04:39.327260 32016 net.cpp:156] Memory required for data: 956302848
I0726 10:04:39.327267 32016 layer_factory.hpp:77] Creating layer Input18
I0726 10:04:39.327277 32016 net.cpp:91] Creating Layer Input18
I0726 10:04:39.327287 32016 net.cpp:399] Input18 -> Input18
I0726 10:04:39.327321 32016 net.cpp:141] Setting up Input18
I0726 10:04:39.327332 32016 net.cpp:148] Top shape: 128 3 64 64 (1572864)
I0726 10:04:39.327337 32016 net.cpp:156] Memory required for data: 962594304
I0726 10:04:39.327345 32016 layer_factory.hpp:77] Creating layer c29
I0726 10:04:39.327355 32016 net.cpp:91] Creating Layer c29
I0726 10:04:39.327363 32016 net.cpp:425] c29 <- i2_i1_1_split_9
I0726 10:04:39.327373 32016 net.cpp:425] c29 <- Input18
I0726 10:04:39.327384 32016 net.cpp:399] c29 -> c29
I0726 10:04:39.327419 32016 net.cpp:141] Setting up c29
I0726 10:04:39.327430 32016 net.cpp:148] Top shape: 128 3 64 64 (1572864)
I0726 10:04:39.327435 32016 net.cpp:156] Memory required for data: 968885760
I0726 10:04:39.327443 32016 layer_factory.hpp:77] Creating layer Convolution1
I0726 10:04:39.327477 32016 net.cpp:91] Creating Layer Convolution1
I0726 10:04:39.327486 32016 net.cpp:425] Convolution1 <- p1_p1_0_split_0
I0726 10:04:39.327498 32016 net.cpp:399] Convolution1 -> Convolution1
I0726 10:04:39.328660 32016 net.cpp:141] Setting up Convolution1
I0726 10:04:39.328675 32016 net.cpp:148] Top shape: 128 20 60 60 (9216000)
I0726 10:04:39.328681 32016 net.cpp:156] Memory required for data: 1005749760
I0726 10:04:39.328697 32016 layer_factory.hpp:77] Creating layer Pooling1
I0726 10:04:39.328708 32016 net.cpp:91] Creating Layer Pooling1
I0726 10:04:39.328714 32016 net.cpp:425] Pooling1 <- Convolution1
I0726 10:04:39.328724 32016 net.cpp:399] Pooling1 -> Pooling1
I0726 10:04:39.328769 32016 net.cpp:141] Setting up Pooling1
I0726 10:04:39.328778 32016 net.cpp:148] Top shape: 128 20 30 30 (2304000)
I0726 10:04:39.328783 32016 net.cpp:156] Memory required for data: 1014965760
I0726 10:04:39.328788 32016 layer_factory.hpp:77] Creating layer Convolution2
I0726 10:04:39.328800 32016 net.cpp:91] Creating Layer Convolution2
I0726 10:04:39.328806 32016 net.cpp:425] Convolution2 <- Pooling1
I0726 10:04:39.328816 32016 net.cpp:399] Convolution2 -> Convolution2
I0726 10:04:39.330793 32016 net.cpp:141] Setting up Convolution2
I0726 10:04:39.330818 32016 net.cpp:148] Top shape: 128 50 26 26 (4326400)
I0726 10:04:39.330827 32016 net.cpp:156] Memory required for data: 1032271360
I0726 10:04:39.330845 32016 layer_factory.hpp:77] Creating layer Pooling2
I0726 10:04:39.330865 32016 net.cpp:91] Creating Layer Pooling2
I0726 10:04:39.330876 32016 net.cpp:425] Pooling2 <- Convolution2
I0726 10:04:39.330889 32016 net.cpp:399] Pooling2 -> Pooling2
I0726 10:04:39.330946 32016 net.cpp:141] Setting up Pooling2
I0726 10:04:39.330960 32016 net.cpp:148] Top shape: 128 50 13 13 (1081600)
I0726 10:04:39.330968 32016 net.cpp:156] Memory required for data: 1036597760
I0726 10:04:39.330976 32016 layer_factory.hpp:77] Creating layer InnerProduct1
I0726 10:04:39.330989 32016 net.cpp:91] Creating Layer InnerProduct1
I0726 10:04:39.330997 32016 net.cpp:425] InnerProduct1 <- Pooling2
I0726 10:04:39.331010 32016 net.cpp:399] InnerProduct1 -> InnerProduct1
I0726 10:04:39.375380 32016 net.cpp:141] Setting up InnerProduct1
I0726 10:04:39.375428 32016 net.cpp:148] Top shape: 128 500 (64000)
I0726 10:04:39.375438 32016 net.cpp:156] Memory required for data: 1036853760
I0726 10:04:39.375465 32016 layer_factory.hpp:77] Creating layer ReLU1
I0726 10:04:39.375483 32016 net.cpp:91] Creating Layer ReLU1
I0726 10:04:39.375494 32016 net.cpp:425] ReLU1 <- InnerProduct1
I0726 10:04:39.375507 32016 net.cpp:386] ReLU1 -> InnerProduct1 (in-place)
I0726 10:04:39.375524 32016 net.cpp:141] Setting up ReLU1
I0726 10:04:39.375535 32016 net.cpp:148] Top shape: 128 500 (64000)
I0726 10:04:39.375542 32016 net.cpp:156] Memory required for data: 1037109760
I0726 10:04:39.375550 32016 layer_factory.hpp:77] Creating layer InnerProduct2
I0726 10:04:39.375567 32016 net.cpp:91] Creating Layer InnerProduct2
I0726 10:04:39.375576 32016 net.cpp:425] InnerProduct2 <- InnerProduct1
I0726 10:04:39.375588 32016 net.cpp:399] InnerProduct2 -> InnerProduct2
I0726 10:04:39.378486 32016 net.cpp:141] Setting up InnerProduct2
I0726 10:04:39.378509 32016 net.cpp:148] Top shape: 128 500 (64000)
I0726 10:04:39.378518 32016 net.cpp:156] Memory required for data: 1037365760
I0726 10:04:39.378533 32016 layer_factory.hpp:77] Creating layer Convolution3
I0726 10:04:39.378554 32016 net.cpp:91] Creating Layer Convolution3
I0726 10:04:39.378564 32016 net.cpp:425] Convolution3 <- p2_p2_0_split_0
I0726 10:04:39.378582 32016 net.cpp:399] Convolution3 -> Convolution3
I0726 10:04:39.378991 32016 net.cpp:141] Setting up Convolution3
I0726 10:04:39.379005 32016 net.cpp:148] Top shape: 128 20 60 60 (9216000)
I0726 10:04:39.379014 32016 net.cpp:156] Memory required for data: 1074229760
I0726 10:04:39.379025 32016 net.cpp:484] Sharing parameters 'conv1_w' owned by layer 'Convolution1', param index 0
I0726 10:04:39.379035 32016 net.cpp:484] Sharing parameters 'conv1_b' owned by layer 'Convolution1', param index 1
I0726 10:04:39.379083 32016 layer_factory.hpp:77] Creating layer Pooling3
I0726 10:04:39.379099 32016 net.cpp:91] Creating Layer Pooling3
I0726 10:04:39.379107 32016 net.cpp:425] Pooling3 <- Convolution3
I0726 10:04:39.379118 32016 net.cpp:399] Pooling3 -> Pooling3
I0726 10:04:39.379181 32016 net.cpp:141] Setting up Pooling3
I0726 10:04:39.379191 32016 net.cpp:148] Top shape: 128 20 30 30 (2304000)
I0726 10:04:39.379199 32016 net.cpp:156] Memory required for data: 1083445760
I0726 10:04:39.379206 32016 layer_factory.hpp:77] Creating layer Convolution4
I0726 10:04:39.379225 32016 net.cpp:91] Creating Layer Convolution4
I0726 10:04:39.379232 32016 net.cpp:425] Convolution4 <- Pooling3
I0726 10:04:39.379245 32016 net.cpp:399] Convolution4 -> Convolution4
I0726 10:04:39.379858 32016 net.cpp:141] Setting up Convolution4
I0726 10:04:39.379873 32016 net.cpp:148] Top shape: 128 50 26 26 (4326400)
I0726 10:04:39.379884 32016 net.cpp:156] Memory required for data: 1100751360
I0726 10:04:39.379891 32016 net.cpp:484] Sharing parameters 'conv2_w' owned by layer 'Convolution2', param index 0
I0726 10:04:39.379901 32016 net.cpp:484] Sharing parameters 'conv2_b' owned by layer 'Convolution2', param index 1
I0726 10:04:39.379911 32016 layer_factory.hpp:77] Creating layer Pooling4
I0726 10:04:39.379925 32016 net.cpp:91] Creating Layer Pooling4
I0726 10:04:39.379933 32016 net.cpp:425] Pooling4 <- Convolution4
I0726 10:04:39.379945 32016 net.cpp:399] Pooling4 -> Pooling4
I0726 10:04:39.380009 32016 net.cpp:141] Setting up Pooling4
I0726 10:04:39.380020 32016 net.cpp:148] Top shape: 128 50 13 13 (1081600)
I0726 10:04:39.380026 32016 net.cpp:156] Memory required for data: 1105077760
I0726 10:04:39.380034 32016 layer_factory.hpp:77] Creating layer InnerProduct3
I0726 10:04:39.380049 32016 net.cpp:91] Creating Layer InnerProduct3
I0726 10:04:39.380058 32016 net.cpp:425] InnerProduct3 <- Pooling4
I0726 10:04:39.380074 32016 net.cpp:399] InnerProduct3 -> InnerProduct3
I0726 10:04:39.424139 32016 net.cpp:141] Setting up InnerProduct3
I0726 10:04:39.424182 32016 net.cpp:148] Top shape: 128 500 (64000)
I0726 10:04:39.424192 32016 net.cpp:156] Memory required for data: 1105333760
I0726 10:04:39.424206 32016 net.cpp:484] Sharing parameters 'ip1_w' owned by layer 'InnerProduct1', param index 0
I0726 10:04:39.424216 32016 net.cpp:484] Sharing parameters 'ip1_b' owned by layer 'InnerProduct1', param index 1
I0726 10:04:39.424226 32016 layer_factory.hpp:77] Creating layer ReLU2
I0726 10:04:39.424245 32016 net.cpp:91] Creating Layer ReLU2
I0726 10:04:39.424258 32016 net.cpp:425] ReLU2 <- InnerProduct3
I0726 10:04:39.424280 32016 net.cpp:386] ReLU2 -> InnerProduct3 (in-place)
I0726 10:04:39.424304 32016 net.cpp:141] Setting up ReLU2
I0726 10:04:39.424316 32016 net.cpp:148] Top shape: 128 500 (64000)
I0726 10:04:39.424326 32016 net.cpp:156] Memory required for data: 1105589760
I0726 10:04:39.424336 32016 layer_factory.hpp:77] Creating layer InnerProduct4
I0726 10:04:39.424355 32016 net.cpp:91] Creating Layer InnerProduct4
I0726 10:04:39.424365 32016 net.cpp:425] InnerProduct4 <- InnerProduct3
I0726 10:04:39.424379 32016 net.cpp:399] InnerProduct4 -> InnerProduct4
I0726 10:04:39.427150 32016 net.cpp:141] Setting up InnerProduct4
I0726 10:04:39.427170 32016 net.cpp:148] Top shape: 128 500 (64000)
I0726 10:04:39.427177 32016 net.cpp:156] Memory required for data: 1105845760
I0726 10:04:39.427186 32016 net.cpp:484] Sharing parameters 'ip2_w' owned by layer 'InnerProduct2', param index 0
I0726 10:04:39.427196 32016 net.cpp:484] Sharing parameters 'ip2_b' owned by layer 'InnerProduct2', param index 1
I0726 10:04:39.427206 32016 layer_factory.hpp:77] Creating layer Concat1
I0726 10:04:39.427229 32016 net.cpp:91] Creating Layer Concat1
I0726 10:04:39.427242 32016 net.cpp:425] Concat1 <- InnerProduct2
I0726 10:04:39.427253 32016 net.cpp:425] Concat1 <- InnerProduct4
I0726 10:04:39.427265 32016 net.cpp:399] Concat1 -> Concat1
I0726 10:04:39.427300 32016 net.cpp:141] Setting up Concat1
I0726 10:04:39.427314 32016 net.cpp:148] Top shape: 128 1000 (128000)
I0726 10:04:39.427345 32016 net.cpp:156] Memory required for data: 1106357760
I0726 10:04:39.427352 32016 layer_factory.hpp:77] Creating layer InnerProduct5
I0726 10:04:39.427371 32016 net.cpp:91] Creating Layer InnerProduct5
I0726 10:04:39.427381 32016 net.cpp:425] InnerProduct5 <- Concat1
I0726 10:04:39.427397 32016 net.cpp:399] InnerProduct5 -> InnerProduct5
I0726 10:04:39.432626 32016 net.cpp:141] Setting up InnerProduct5
I0726 10:04:39.432654 32016 net.cpp:148] Top shape: 128 512 (65536)
I0726 10:04:39.432663 32016 net.cpp:156] Memory required for data: 1106619904
I0726 10:04:39.432687 32016 layer_factory.hpp:77] Creating layer ReLU3
I0726 10:04:39.432704 32016 net.cpp:91] Creating Layer ReLU3
I0726 10:04:39.432715 32016 net.cpp:425] ReLU3 <- InnerProduct5
I0726 10:04:39.432728 32016 net.cpp:386] ReLU3 -> InnerProduct5 (in-place)
I0726 10:04:39.432745 32016 net.cpp:141] Setting up ReLU3
I0726 10:04:39.432757 32016 net.cpp:148] Top shape: 128 512 (65536)
I0726 10:04:39.432767 32016 net.cpp:156] Memory required for data: 1106882048
I0726 10:04:39.432777 32016 layer_factory.hpp:77] Creating layer InnerProduct6
I0726 10:04:39.432791 32016 net.cpp:91] Creating Layer InnerProduct6
I0726 10:04:39.432802 32016 net.cpp:425] InnerProduct6 <- InnerProduct5
I0726 10:04:39.432814 32016 net.cpp:399] InnerProduct6 -> InnerProduct6
I0726 10:04:39.435622 32016 net.cpp:141] Setting up InnerProduct6
I0726 10:04:39.435642 32016 net.cpp:148] Top shape: 128 512 (65536)
I0726 10:04:39.435648 32016 net.cpp:156] Memory required for data: 1107144192
I0726 10:04:39.435660 32016 layer_factory.hpp:77] Creating layer ReLU4
I0726 10:04:39.435678 32016 net.cpp:91] Creating Layer ReLU4
I0726 10:04:39.435688 32016 net.cpp:425] ReLU4 <- InnerProduct6
I0726 10:04:39.435701 32016 net.cpp:386] ReLU4 -> InnerProduct6 (in-place)
I0726 10:04:39.435716 32016 net.cpp:141] Setting up ReLU4
I0726 10:04:39.435727 32016 net.cpp:148] Top shape: 128 512 (65536)
I0726 10:04:39.435736 32016 net.cpp:156] Memory required for data: 1107406336
I0726 10:04:39.435746 32016 layer_factory.hpp:77] Creating layer dt0
I0726 10:04:39.435778 32016 net.cpp:91] Creating Layer dt0
I0726 10:04:39.435789 32016 net.cpp:425] dt0 <- InnerProduct6
I0726 10:04:39.435806 32016 net.cpp:399] dt0 -> dt0
I0726 10:04:39.435946 32016 net.cpp:141] Setting up dt0
I0726 10:04:39.435958 32016 net.cpp:148] Top shape: 128 2 (256)
I0726 10:04:39.435966 32016 net.cpp:156] Memory required for data: 1107407360
I0726 10:04:39.435979 32016 layer_factory.hpp:77] Creating layer Convolution5
I0726 10:04:39.436005 32016 net.cpp:91] Creating Layer Convolution5
I0726 10:04:39.436018 32016 net.cpp:425] Convolution5 <- p1_p1_0_split_1
I0726 10:04:39.436031 32016 net.cpp:399] Convolution5 -> Convolution5
I0726 10:04:39.436377 32016 net.cpp:141] Setting up Convolution5
I0726 10:04:39.436391 32016 net.cpp:148] Top shape: 128 20 60 60 (9216000)
I0726 10:04:39.436398 32016 net.cpp:156] Memory required for data: 1144271360
I0726 10:04:39.436409 32016 net.cpp:484] Sharing parameters 'conv1_w' owned by layer 'Convolution1', param index 0
I0726 10:04:39.436420 32016 net.cpp:484] Sharing parameters 'conv1_b' owned by layer 'Convolution1', param index 1
I0726 10:04:39.436430 32016 layer_factory.hpp:77] Creating layer Pooling5
I0726 10:04:39.436441 32016 net.cpp:91] Creating Layer Pooling5
I0726 10:04:39.436453 32016 net.cpp:425] Pooling5 <- Convolution5
I0726 10:04:39.436468 32016 net.cpp:399] Pooling5 -> Pooling5
I0726 10:04:39.436522 32016 net.cpp:141] Setting up Pooling5
I0726 10:04:39.436537 32016 net.cpp:148] Top shape: 128 20 30 30 (2304000)
I0726 10:04:39.436547 32016 net.cpp:156] Memory required for data: 1153487360
I0726 10:04:39.436554 32016 layer_factory.hpp:77] Creating layer Convolution6
I0726 10:04:39.436573 32016 net.cpp:91] Creating Layer Convolution6
I0726 10:04:39.436583 32016 net.cpp:425] Convolution6 <- Pooling5
I0726 10:04:39.436595 32016 net.cpp:399] Convolution6 -> Convolution6
I0726 10:04:39.437117 32016 net.cpp:141] Setting up Convolution6
I0726 10:04:39.437130 32016 net.cpp:148] Top shape: 128 50 26 26 (4326400)
I0726 10:04:39.437158 32016 net.cpp:156] Memory required for data: 1170792960
I0726 10:04:39.437167 32016 net.cpp:484] Sharing parameters 'conv2_w' owned by layer 'Convolution2', param index 0
I0726 10:04:39.437178 32016 net.cpp:484] Sharing parameters 'conv2_b' owned by layer 'Convolution2', param index 1
I0726 10:04:39.437188 32016 layer_factory.hpp:77] Creating layer Pooling6
I0726 10:04:39.437202 32016 net.cpp:91] Creating Layer Pooling6
I0726 10:04:39.437213 32016 net.cpp:425] Pooling6 <- Convolution6
I0726 10:04:39.437224 32016 net.cpp:399] Pooling6 -> Pooling6
I0726 10:04:39.437283 32016 net.cpp:141] Setting up Pooling6
I0726 10:04:39.437295 32016 net.cpp:148] Top shape: 128 50 13 13 (1081600)
I0726 10:04:39.437305 32016 net.cpp:156] Memory required for data: 1175119360
I0726 10:04:39.437312 32016 layer_factory.hpp:77] Creating layer InnerProduct7
I0726 10:04:39.437326 32016 net.cpp:91] Creating Layer InnerProduct7
I0726 10:04:39.437336 32016 net.cpp:425] InnerProduct7 <- Pooling6
I0726 10:04:39.437351 32016 net.cpp:399] InnerProduct7 -> InnerProduct7
I0726 10:04:39.481788 32016 net.cpp:141] Setting up InnerProduct7
I0726 10:04:39.481834 32016 net.cpp:148] Top shape: 128 500 (64000)
I0726 10:04:39.481844 32016 net.cpp:156] Memory required for data: 1175375360
I0726 10:04:39.481858 32016 net.cpp:484] Sharing parameters 'ip1_w' owned by layer 'InnerProduct1', param index 0
I0726 10:04:39.481869 32016 net.cpp:484] Sharing parameters 'ip1_b' owned by layer 'InnerProduct1', param index 1
I0726 10:04:39.481878 32016 layer_factory.hpp:77] Creating layer ReLU5
I0726 10:04:39.481899 32016 net.cpp:91] Creating Layer ReLU5
I0726 10:04:39.481911 32016 net.cpp:425] ReLU5 <- InnerProduct7
I0726 10:04:39.481935 32016 net.cpp:386] ReLU5 -> InnerProduct7 (in-place)
I0726 10:04:39.481956 32016 net.cpp:141] Setting up ReLU5
I0726 10:04:39.481969 32016 net.cpp:148] Top shape: 128 500 (64000)
I0726 10:04:39.481979 32016 net.cpp:156] Memory required for data: 1175631360
I0726 10:04:39.481989 32016 layer_factory.hpp:77] Creating layer InnerProduct8
I0726 10:04:39.482002 32016 net.cpp:91] Creating Layer InnerProduct8
I0726 10:04:39.482017 32016 net.cpp:425] InnerProduct8 <- InnerProduct7
I0726 10:04:39.482029 32016 net.cpp:399] InnerProduct8 -> InnerProduct8
I0726 10:04:39.484825 32016 net.cpp:141] Setting up InnerProduct8
I0726 10:04:39.484849 32016 net.cpp:148] Top shape: 128 500 (64000)
I0726 10:04:39.484858 32016 net.cpp:156] Memory required for data: 1175887360
I0726 10:04:39.484868 32016 net.cpp:484] Sharing parameters 'ip2_w' owned by layer 'InnerProduct2', param index 0
I0726 10:04:39.484879 32016 net.cpp:484] Sharing parameters 'ip2_b' owned by layer 'InnerProduct2', param index 1
I0726 10:04:39.484887 32016 layer_factory.hpp:77] Creating layer Convolution7
I0726 10:04:39.484911 32016 net.cpp:91] Creating Layer Convolution7
I0726 10:04:39.484926 32016 net.cpp:425] Convolution7 <- c21
I0726 10:04:39.484944 32016 net.cpp:399] Convolution7 -> Convolution7
I0726 10:04:39.485291 32016 net.cpp:141] Setting up Convolution7
I0726 10:04:39.485306 32016 net.cpp:148] Top shape: 128 20 60 60 (9216000)
I0726 10:04:39.485313 32016 net.cpp:156] Memory required for data: 1212751360
I0726 10:04:39.485323 32016 net.cpp:484] Sharing parameters 'conv1_w' owned by layer 'Convolution1', param index 0
I0726 10:04:39.485332 32016 net.cpp:484] Sharing parameters 'conv1_b' owned by layer 'Convolution1', param index 1
I0726 10:04:39.485342 32016 layer_factory.hpp:77] Creating layer Pooling7
I0726 10:04:39.485353 32016 net.cpp:91] Creating Layer Pooling7
I0726 10:04:39.485365 32016 net.cpp:425] Pooling7 <- Convolution7
I0726 10:04:39.485381 32016 net.cpp:399] Pooling7 -> Pooling7
I0726 10:04:39.485438 32016 net.cpp:141] Setting up Pooling7
I0726 10:04:39.485453 32016 net.cpp:148] Top shape: 128 20 30 30 (2304000)
I0726 10:04:39.485463 32016 net.cpp:156] Memory required for data: 1221967360
I0726 10:04:39.485471 32016 layer_factory.hpp:77] Creating layer Convolution8
I0726 10:04:39.485491 32016 net.cpp:91] Creating Layer Convolution8
I0726 10:04:39.485502 32016 net.cpp:425] Convolution8 <- Pooling7
I0726 10:04:39.485535 32016 net.cpp:399] Convolution8 -> Convolution8
I0726 10:04:39.486068 32016 net.cpp:141] Setting up Convolution8
I0726 10:04:39.486080 32016 net.cpp:148] Top shape: 128 50 26 26 (4326400)
I0726 10:04:39.486088 32016 net.cpp:156] Memory required for data: 1239272960
I0726 10:04:39.486112 32016 net.cpp:484] Sharing parameters 'conv2_w' owned by layer 'Convolution2', param index 0
I0726 10:04:39.486124 32016 net.cpp:484] Sharing parameters 'conv2_b' owned by layer 'Convolution2', param index 1
I0726 10:04:39.486132 32016 layer_factory.hpp:77] Creating layer Pooling8
I0726 10:04:39.486148 32016 net.cpp:91] Creating Layer Pooling8
I0726 10:04:39.486158 32016 net.cpp:425] Pooling8 <- Convolution8
I0726 10:04:39.486171 32016 net.cpp:399] Pooling8 -> Pooling8
I0726 10:04:39.486227 32016 net.cpp:141] Setting up Pooling8
I0726 10:04:39.486240 32016 net.cpp:148] Top shape: 128 50 13 13 (1081600)
I0726 10:04:39.486248 32016 net.cpp:156] Memory required for data: 1243599360
I0726 10:04:39.486258 32016 layer_factory.hpp:77] Creating layer InnerProduct9
I0726 10:04:39.486268 32016 net.cpp:91] Creating Layer InnerProduct9
I0726 10:04:39.486277 32016 net.cpp:425] InnerProduct9 <- Pooling8
I0726 10:04:39.486294 32016 net.cpp:399] InnerProduct9 -> InnerProduct9
I0726 10:04:39.530825 32016 net.cpp:141] Setting up InnerProduct9
I0726 10:04:39.530872 32016 net.cpp:148] Top shape: 128 500 (64000)
I0726 10:04:39.530881 32016 net.cpp:156] Memory required for data: 1243855360
I0726 10:04:39.530895 32016 net.cpp:484] Sharing parameters 'ip1_w' owned by layer 'InnerProduct1', param index 0
I0726 10:04:39.530906 32016 net.cpp:484] Sharing parameters 'ip1_b' owned by layer 'InnerProduct1', param index 1
I0726 10:04:39.530916 32016 layer_factory.hpp:77] Creating layer ReLU6
I0726 10:04:39.530933 32016 net.cpp:91] Creating Layer ReLU6
I0726 10:04:39.530944 32016 net.cpp:425] ReLU6 <- InnerProduct9
I0726 10:04:39.530956 32016 net.cpp:386] ReLU6 -> InnerProduct9 (in-place)
I0726 10:04:39.530973 32016 net.cpp:141] Setting up ReLU6
I0726 10:04:39.530983 32016 net.cpp:148] Top shape: 128 500 (64000)
I0726 10:04:39.530990 32016 net.cpp:156] Memory required for data: 1244111360
I0726 10:04:39.530997 32016 layer_factory.hpp:77] Creating layer InnerProduct10
I0726 10:04:39.531011 32016 net.cpp:91] Creating Layer InnerProduct10
I0726 10:04:39.531019 32016 net.cpp:425] InnerProduct10 <- InnerProduct9
I0726 10:04:39.531038 32016 net.cpp:399] InnerProduct10 -> InnerProduct10
I0726 10:04:39.533967 32016 net.cpp:141] Setting up InnerProduct10
I0726 10:04:39.533993 32016 net.cpp:148] Top shape: 128 500 (64000)
I0726 10:04:39.534000 32016 net.cpp:156] Memory required for data: 1244367360
I0726 10:04:39.534009 32016 net.cpp:484] Sharing parameters 'ip2_w' owned by layer 'InnerProduct2', param index 0
I0726 10:04:39.534019 32016 net.cpp:484] Sharing parameters 'ip2_b' owned by layer 'InnerProduct2', param index 1
I0726 10:04:39.534027 32016 layer_factory.hpp:77] Creating layer Concat2
I0726 10:04:39.534040 32016 net.cpp:91] Creating Layer Concat2
I0726 10:04:39.534049 32016 net.cpp:425] Concat2 <- InnerProduct8
I0726 10:04:39.534060 32016 net.cpp:425] Concat2 <- InnerProduct10
I0726 10:04:39.534071 32016 net.cpp:399] Concat2 -> Concat2
I0726 10:04:39.534107 32016 net.cpp:141] Setting up Concat2
I0726 10:04:39.534119 32016 net.cpp:148] Top shape: 128 1000 (128000)
I0726 10:04:39.534126 32016 net.cpp:156] Memory required for data: 1244879360
I0726 10:04:39.534133 32016 layer_factory.hpp:77] Creating layer InnerProduct11
I0726 10:04:39.534147 32016 net.cpp:91] Creating Layer InnerProduct11
I0726 10:04:39.534157 32016 net.cpp:425] InnerProduct11 <- Concat2
I0726 10:04:39.534168 32016 net.cpp:399] InnerProduct11 -> InnerProduct11
I0726 10:04:39.539635 32016 net.cpp:141] Setting up InnerProduct11
I0726 10:04:39.539664 32016 net.cpp:148] Top shape: 128 512 (65536)
I0726 10:04:39.539671 32016 net.cpp:156] Memory required for data: 1245141504
I0726 10:04:39.539682 32016 net.cpp:484] Sharing parameters 'fc1_w' owned by layer 'InnerProduct5', param index 0
I0726 10:04:39.539716 32016 net.cpp:484] Sharing parameters 'fc1_b' owned by layer 'InnerProduct5', param index 1
I0726 10:04:39.539726 32016 layer_factory.hpp:77] Creating layer ReLU7
I0726 10:04:39.539742 32016 net.cpp:91] Creating Layer ReLU7
I0726 10:04:39.539752 32016 net.cpp:425] ReLU7 <- InnerProduct11
I0726 10:04:39.539763 32016 net.cpp:386] ReLU7 -> InnerProduct11 (in-place)
I0726 10:04:39.539777 32016 net.cpp:141] Setting up ReLU7
I0726 10:04:39.539788 32016 net.cpp:148] Top shape: 128 512 (65536)
I0726 10:04:39.539795 32016 net.cpp:156] Memory required for data: 1245403648
I0726 10:04:39.539803 32016 layer_factory.hpp:77] Creating layer InnerProduct12
I0726 10:04:39.539819 32016 net.cpp:91] Creating Layer InnerProduct12
I0726 10:04:39.539829 32016 net.cpp:425] InnerProduct12 <- InnerProduct11
I0726 10:04:39.539840 32016 net.cpp:399] InnerProduct12 -> InnerProduct12
I0726 10:04:39.550607 32016 net.cpp:141] Setting up InnerProduct12
I0726 10:04:39.550631 32016 net.cpp:148] Top shape: 128 512 (65536)
I0726 10:04:39.550638 32016 net.cpp:156] Memory required for data: 1245665792
I0726 10:04:39.550648 32016 net.cpp:484] Sharing parameters 'fc2_w' owned by layer 'InnerProduct6', param index 0
I0726 10:04:39.550658 32016 net.cpp:484] Sharing parameters 'fc2_b' owned by layer 'InnerProduct6', param index 1
I0726 10:04:39.550667 32016 layer_factory.hpp:77] Creating layer ReLU8
I0726 10:04:39.550680 32016 net.cpp:91] Creating Layer ReLU8
I0726 10:04:39.550688 32016 net.cpp:425] ReLU8 <- InnerProduct12
I0726 10:04:39.550696 32016 net.cpp:386] ReLU8 -> InnerProduct12 (in-place)
I0726 10:04:39.550709 32016 net.cpp:141] Setting up ReLU8
I0726 10:04:39.550717 32016 net.cpp:148] Top shape: 128 512 (65536)
I0726 10:04:39.550725 32016 net.cpp:156] Memory required for data: 1245927936
I0726 10:04:39.550732 32016 layer_factory.hpp:77] Creating layer dt1
I0726 10:04:39.550748 32016 net.cpp:91] Creating Layer dt1
I0726 10:04:39.550756 32016 net.cpp:425] dt1 <- InnerProduct12
I0726 10:04:39.550770 32016 net.cpp:399] dt1 -> dt1
I0726 10:04:39.550915 32016 net.cpp:141] Setting up dt1
I0726 10:04:39.550925 32016 net.cpp:148] Top shape: 128 2 (256)
I0726 10:04:39.550933 32016 net.cpp:156] Memory required for data: 1245928960
I0726 10:04:39.550941 32016 net.cpp:484] Sharing parameters 'fc3_w' owned by layer 'dt0', param index 0
I0726 10:04:39.550951 32016 net.cpp:484] Sharing parameters 'fc3_b' owned by layer 'dt0', param index 1
I0726 10:04:39.550958 32016 layer_factory.hpp:77] Creating layer Convolution9
I0726 10:04:39.550974 32016 net.cpp:91] Creating Layer Convolution9
I0726 10:04:39.550983 32016 net.cpp:425] Convolution9 <- p1_p1_0_split_2
I0726 10:04:39.550998 32016 net.cpp:399] Convolution9 -> Convolution9
I0726 10:04:39.551362 32016 net.cpp:141] Setting up Convolution9
I0726 10:04:39.551373 32016 net.cpp:148] Top shape: 128 20 60 60 (9216000)
I0726 10:04:39.551381 32016 net.cpp:156] Memory required for data: 1282792960
I0726 10:04:39.551389 32016 net.cpp:484] Sharing parameters 'conv1_w' owned by layer 'Convolution1', param index 0
I0726 10:04:39.551399 32016 net.cpp:484] Sharing parameters 'conv1_b' owned by layer 'Convolution1', param index 1
I0726 10:04:39.551406 32016 layer_factory.hpp:77] Creating layer Pooling9
I0726 10:04:39.551417 32016 net.cpp:91] Creating Layer Pooling9
I0726 10:04:39.551425 32016 net.cpp:425] Pooling9 <- Convolution9
I0726 10:04:39.551440 32016 net.cpp:399] Pooling9 -> Pooling9
I0726 10:04:39.551497 32016 net.cpp:141] Setting up Pooling9
I0726 10:04:39.551508 32016 net.cpp:148] Top shape: 128 20 30 30 (2304000)
I0726 10:04:39.551517 32016 net.cpp:156] Memory required for data: 1292008960
I0726 10:04:39.551523 32016 layer_factory.hpp:77] Creating layer Convolution10
I0726 10:04:39.551542 32016 net.cpp:91] Creating Layer Convolution10
I0726 10:04:39.551553 32016 net.cpp:425] Convolution10 <- Pooling9
I0726 10:04:39.551566 32016 net.cpp:399] Convolution10 -> Convolution10
I0726 10:04:39.552188 32016 net.cpp:141] Setting up Convolution10
I0726 10:04:39.552202 32016 net.cpp:148] Top shape: 128 50 26 26 (4326400)
I0726 10:04:39.552225 32016 net.cpp:156] Memory required for data: 1309314560
I0726 10:04:39.552232 32016 net.cpp:484] Sharing parameters 'conv2_w' owned by layer 'Convolution2', param index 0
I0726 10:04:39.552239 32016 net.cpp:484] Sharing parameters 'conv2_b' owned by layer 'Convolution2', param index 1
I0726 10:04:39.552245 32016 layer_factory.hpp:77] Creating layer Pooling10
I0726 10:04:39.552256 32016 net.cpp:91] Creating Layer Pooling10
I0726 10:04:39.552263 32016 net.cpp:425] Pooling10 <- Convolution10
I0726 10:04:39.552271 32016 net.cpp:399] Pooling10 -> Pooling10
I0726 10:04:39.552321 32016 net.cpp:141] Setting up Pooling10
I0726 10:04:39.552332 32016 net.cpp:148] Top shape: 128 50 13 13 (1081600)
I0726 10:04:39.552337 32016 net.cpp:156] Memory required for data: 1313640960
I0726 10:04:39.552343 32016 layer_factory.hpp:77] Creating layer InnerProduct13
I0726 10:04:39.552353 32016 net.cpp:91] Creating Layer InnerProduct13
I0726 10:04:39.552359 32016 net.cpp:425] InnerProduct13 <- Pooling10
I0726 10:04:39.552371 32016 net.cpp:399] InnerProduct13 -> InnerProduct13
I0726 10:04:39.593947 32016 net.cpp:141] Setting up InnerProduct13
I0726 10:04:39.593997 32016 net.cpp:148] Top shape: 128 500 (64000)
I0726 10:04:39.594003 32016 net.cpp:156] Memory required for data: 1313896960
I0726 10:04:39.594013 32016 net.cpp:484] Sharing parameters 'ip1_w' owned by layer 'InnerProduct1', param index 0
I0726 10:04:39.594022 32016 net.cpp:484] Sharing parameters 'ip1_b' owned by layer 'InnerProduct1', param index 1
I0726 10:04:39.594028 32016 layer_factory.hpp:77] Creating layer ReLU9
I0726 10:04:39.594053 32016 net.cpp:91] Creating Layer ReLU9
I0726 10:04:39.594063 32016 net.cpp:425] ReLU9 <- InnerProduct13
I0726 10:04:39.594072 32016 net.cpp:386] ReLU9 -> InnerProduct13 (in-place)
I0726 10:04:39.594090 32016 net.cpp:141] Setting up ReLU9
I0726 10:04:39.594099 32016 net.cpp:148] Top shape: 128 500 (64000)
I0726 10:04:39.594106 32016 net.cpp:156] Memory required for data: 1314152960
I0726 10:04:39.594115 32016 layer_factory.hpp:77] Creating layer InnerProduct14
I0726 10:04:39.594130 32016 net.cpp:91] Creating Layer InnerProduct14
I0726 10:04:39.594138 32016 net.cpp:425] InnerProduct14 <- InnerProduct13
I0726 10:04:39.594156 32016 net.cpp:399] InnerProduct14 -> InnerProduct14
I0726 10:04:39.596874 32016 net.cpp:141] Setting up InnerProduct14
I0726 10:04:39.596901 32016 net.cpp:148] Top shape: 128 500 (64000)
I0726 10:04:39.596907 32016 net.cpp:156] Memory required for data: 1314408960
I0726 10:04:39.596915 32016 net.cpp:484] Sharing parameters 'ip2_w' owned by layer 'InnerProduct2', param index 0
I0726 10:04:39.596922 32016 net.cpp:484] Sharing parameters 'ip2_b' owned by layer 'InnerProduct2', param index 1
I0726 10:04:39.596928 32016 layer_factory.hpp:77] Creating layer Convolution11
I0726 10:04:39.596942 32016 net.cpp:91] Creating Layer Convolution11
I0726 10:04:39.596957 32016 net.cpp:425] Convolution11 <- c22
I0726 10:04:39.596972 32016 net.cpp:399] Convolution11 -> Convolution11
I0726 10:04:39.597337 32016 net.cpp:141] Setting up Convolution11
I0726 10:04:39.597348 32016 net.cpp:148] Top shape: 128 20 60 60 (9216000)
I0726 10:04:39.597357 32016 net.cpp:156] Memory required for data: 1351272960
I0726 10:04:39.597365 32016 net.cpp:484] Sharing parameters 'conv1_w' owned by layer 'Convolution1', param index 0
I0726 10:04:39.597374 32016 net.cpp:484] Sharing parameters 'conv1_b' owned by layer 'Convolution1', param index 1
I0726 10:04:39.597383 32016 layer_factory.hpp:77] Creating layer Pooling11
I0726 10:04:39.597394 32016 net.cpp:91] Creating Layer Pooling11
I0726 10:04:39.597403 32016 net.cpp:425] Pooling11 <- Convolution11
I0726 10:04:39.597422 32016 net.cpp:399] Pooling11 -> Pooling11
I0726 10:04:39.597484 32016 net.cpp:141] Setting up Pooling11
I0726 10:04:39.597496 32016 net.cpp:148] Top shape: 128 20 30 30 (2304000)
I0726 10:04:39.597502 32016 net.cpp:156] Memory required for data: 1360488960
I0726 10:04:39.597512 32016 layer_factory.hpp:77] Creating layer Convolution12
I0726 10:04:39.597558 32016 net.cpp:91] Creating Layer Convolution12
I0726 10:04:39.597566 32016 net.cpp:425] Convolution12 <- Pooling11
I0726 10:04:39.597579 32016 net.cpp:399] Convolution12 -> Convolution12
I0726 10:04:39.598116 32016 net.cpp:141] Setting up Convolution12
I0726 10:04:39.598136 32016 net.cpp:148] Top shape: 128 50 26 26 (4326400)
I0726 10:04:39.598142 32016 net.cpp:156] Memory required for data: 1377794560
I0726 10:04:39.598148 32016 net.cpp:484] Sharing parameters 'conv2_w' owned by layer 'Convolution2', param index 0
I0726 10:04:39.598155 32016 net.cpp:484] Sharing parameters 'conv2_b' owned by layer 'Convolution2', param index 1
I0726 10:04:39.598161 32016 layer_factory.hpp:77] Creating layer Pooling12
I0726 10:04:39.598170 32016 net.cpp:91] Creating Layer Pooling12
I0726 10:04:39.598176 32016 net.cpp:425] Pooling12 <- Convolution12
I0726 10:04:39.598184 32016 net.cpp:399] Pooling12 -> Pooling12
I0726 10:04:39.598239 32016 net.cpp:141] Setting up Pooling12
I0726 10:04:39.598249 32016 net.cpp:148] Top shape: 128 50 13 13 (1081600)
I0726 10:04:39.598256 32016 net.cpp:156] Memory required for data: 1382120960
I0726 10:04:39.598263 32016 layer_factory.hpp:77] Creating layer InnerProduct15
I0726 10:04:39.598278 32016 net.cpp:91] Creating Layer InnerProduct15
I0726 10:04:39.598285 32016 net.cpp:425] InnerProduct15 <- Pooling12
I0726 10:04:39.598297 32016 net.cpp:399] InnerProduct15 -> InnerProduct15
I0726 10:04:39.640240 32016 net.cpp:141] Setting up InnerProduct15
I0726 10:04:39.640291 32016 net.cpp:148] Top shape: 128 500 (64000)
I0726 10:04:39.640298 32016 net.cpp:156] Memory required for data: 1382376960
I0726 10:04:39.640310 32016 net.cpp:484] Sharing parameters 'ip1_w' owned by layer 'InnerProduct1', param index 0
I0726 10:04:39.640317 32016 net.cpp:484] Sharing parameters 'ip1_b' owned by layer 'InnerProduct1', param index 1
I0726 10:04:39.640324 32016 layer_factory.hpp:77] Creating layer ReLU10
I0726 10:04:39.640347 32016 net.cpp:91] Creating Layer ReLU10
I0726 10:04:39.640357 32016 net.cpp:425] ReLU10 <- InnerProduct15
I0726 10:04:39.640367 32016 net.cpp:386] ReLU10 -> InnerProduct15 (in-place)
I0726 10:04:39.640380 32016 net.cpp:141] Setting up ReLU10
I0726 10:04:39.640388 32016 net.cpp:148] Top shape: 128 500 (64000)
I0726 10:04:39.640393 32016 net.cpp:156] Memory required for data: 1382632960
I0726 10:04:39.640403 32016 layer_factory.hpp:77] Creating layer InnerProduct16
I0726 10:04:39.640437 32016 net.cpp:91] Creating Layer InnerProduct16
I0726 10:04:39.640445 32016 net.cpp:425] InnerProduct16 <- InnerProduct15
I0726 10:04:39.640461 32016 net.cpp:399] InnerProduct16 -> InnerProduct16
I0726 10:04:39.643201 32016 net.cpp:141] Setting up InnerProduct16
I0726 10:04:39.643227 32016 net.cpp:148] Top shape: 128 500 (64000)
I0726 10:04:39.643232 32016 net.cpp:156] Memory required for data: 1382888960
I0726 10:04:39.643240 32016 net.cpp:484] Sharing parameters 'ip2_w' owned by layer 'InnerProduct2', param index 0
I0726 10:04:39.643247 32016 net.cpp:484] Sharing parameters 'ip2_b' owned by layer 'InnerProduct2', param index 1
I0726 10:04:39.643254 32016 layer_factory.hpp:77] Creating layer Concat3
I0726 10:04:39.643263 32016 net.cpp:91] Creating Layer Concat3
I0726 10:04:39.643270 32016 net.cpp:425] Concat3 <- InnerProduct14
I0726 10:04:39.643290 32016 net.cpp:425] Concat3 <- InnerProduct16
I0726 10:04:39.643301 32016 net.cpp:399] Concat3 -> Concat3
I0726 10:04:39.643368 32016 net.cpp:141] Setting up Concat3
I0726 10:04:39.643383 32016 net.cpp:148] Top shape: 128 1000 (128000)
I0726 10:04:39.643389 32016 net.cpp:156] Memory required for data: 1383400960
I0726 10:04:39.643398 32016 layer_factory.hpp:77] Creating layer InnerProduct17
I0726 10:04:39.643409 32016 net.cpp:91] Creating Layer InnerProduct17
I0726 10:04:39.643417 32016 net.cpp:425] InnerProduct17 <- Concat3
I0726 10:04:39.643429 32016 net.cpp:399] InnerProduct17 -> InnerProduct17
I0726 10:04:39.648493 32016 net.cpp:141] Setting up InnerProduct17
I0726 10:04:39.648522 32016 net.cpp:148] Top shape: 128 512 (65536)
I0726 10:04:39.648528 32016 net.cpp:156] Memory required for data: 1383663104
I0726 10:04:39.648555 32016 net.cpp:484] Sharing parameters 'fc1_w' owned by layer 'InnerProduct5', param index 0
I0726 10:04:39.648562 32016 net.cpp:484] Sharing parameters 'fc1_b' owned by layer 'InnerProduct5', param index 1
I0726 10:04:39.648571 32016 layer_factory.hpp:77] Creating layer ReLU11
I0726 10:04:39.648589 32016 net.cpp:91] Creating Layer ReLU11
I0726 10:04:39.648596 32016 net.cpp:425] ReLU11 <- InnerProduct17
I0726 10:04:39.648608 32016 net.cpp:386] ReLU11 -> InnerProduct17 (in-place)
I0726 10:04:39.648619 32016 net.cpp:141] Setting up ReLU11
I0726 10:04:39.648632 32016 net.cpp:148] Top shape: 128 512 (65536)
I0726 10:04:39.648638 32016 net.cpp:156] Memory required for data: 1383925248
I0726 10:04:39.648645 32016 layer_factory.hpp:77] Creating layer InnerProduct18
I0726 10:04:39.648658 32016 net.cpp:91] Creating Layer InnerProduct18
I0726 10:04:39.648665 32016 net.cpp:425] InnerProduct18 <- InnerProduct17
I0726 10:04:39.648679 32016 net.cpp:399] InnerProduct18 -> InnerProduct18
I0726 10:04:39.651533 32016 net.cpp:141] Setting up InnerProduct18
I0726 10:04:39.651564 32016 net.cpp:148] Top shape: 128 512 (65536)
I0726 10:04:39.651572 32016 net.cpp:156] Memory required for data: 1384187392
I0726 10:04:39.651582 32016 net.cpp:484] Sharing parameters 'fc2_w' owned by layer 'InnerProduct6', param index 0
I0726 10:04:39.651592 32016 net.cpp:484] Sharing parameters 'fc2_b' owned by layer 'InnerProduct6', param index 1
I0726 10:04:39.651600 32016 layer_factory.hpp:77] Creating layer ReLU12
I0726 10:04:39.651618 32016 net.cpp:91] Creating Layer ReLU12
I0726 10:04:39.651628 32016 net.cpp:425] ReLU12 <- InnerProduct18
I0726 10:04:39.651643 32016 net.cpp:386] ReLU12 -> InnerProduct18 (in-place)
I0726 10:04:39.651655 32016 net.cpp:141] Setting up ReLU12
I0726 10:04:39.651666 32016 net.cpp:148] Top shape: 128 512 (65536)
I0726 10:04:39.651674 32016 net.cpp:156] Memory required for data: 1384449536
I0726 10:04:39.651680 32016 layer_factory.hpp:77] Creating layer dt2
I0726 10:04:39.651693 32016 net.cpp:91] Creating Layer dt2
I0726 10:04:39.651700 32016 net.cpp:425] dt2 <- InnerProduct18
I0726 10:04:39.651711 32016 net.cpp:399] dt2 -> dt2
I0726 10:04:39.651873 32016 net.cpp:141] Setting up dt2
I0726 10:04:39.651887 32016 net.cpp:148] Top shape: 128 2 (256)
I0726 10:04:39.651895 32016 net.cpp:156] Memory required for data: 1384450560
I0726 10:04:39.651938 32016 net.cpp:484] Sharing parameters 'fc3_w' owned by layer 'dt0', param index 0
I0726 10:04:39.651952 32016 net.cpp:484] Sharing parameters 'fc3_b' owned by layer 'dt0', param index 1
I0726 10:04:39.651962 32016 layer_factory.hpp:77] Creating layer Convolution13
I0726 10:04:39.651976 32016 net.cpp:91] Creating Layer Convolution13
I0726 10:04:39.651983 32016 net.cpp:425] Convolution13 <- p1_p1_0_split_3
I0726 10:04:39.652004 32016 net.cpp:399] Convolution13 -> Convolution13
I0726 10:04:39.652465 32016 net.cpp:141] Setting up Convolution13
I0726 10:04:39.652483 32016 net.cpp:148] Top shape: 128 20 60 60 (9216000)
I0726 10:04:39.652492 32016 net.cpp:156] Memory required for data: 1421314560
I0726 10:04:39.652499 32016 net.cpp:484] Sharing parameters 'conv1_w' owned by layer 'Convolution1', param index 0
I0726 10:04:39.652509 32016 net.cpp:484] Sharing parameters 'conv1_b' owned by layer 'Convolution1', param index 1
I0726 10:04:39.652518 32016 layer_factory.hpp:77] Creating layer Pooling13
I0726 10:04:39.652529 32016 net.cpp:91] Creating Layer Pooling13
I0726 10:04:39.652536 32016 net.cpp:425] Pooling13 <- Convolution13
I0726 10:04:39.652549 32016 net.cpp:399] Pooling13 -> Pooling13
I0726 10:04:39.652616 32016 net.cpp:141] Setting up Pooling13
I0726 10:04:39.652631 32016 net.cpp:148] Top shape: 128 20 30 30 (2304000)
I0726 10:04:39.652638 32016 net.cpp:156] Memory required for data: 1430530560
I0726 10:04:39.652647 32016 layer_factory.hpp:77] Creating layer Convolution14
I0726 10:04:39.652663 32016 net.cpp:91] Creating Layer Convolution14
I0726 10:04:39.652672 32016 net.cpp:425] Convolution14 <- Pooling13
I0726 10:04:39.652685 32016 net.cpp:399] Convolution14 -> Convolution14
I0726 10:04:39.653297 32016 net.cpp:141] Setting up Convolution14
I0726 10:04:39.653313 32016 net.cpp:148] Top shape: 128 50 26 26 (4326400)
I0726 10:04:39.653319 32016 net.cpp:156] Memory required for data: 1447836160
I0726 10:04:39.653326 32016 net.cpp:484] Sharing parameters 'conv2_w' owned by layer 'Convolution2', param index 0
I0726 10:04:39.653333 32016 net.cpp:484] Sharing parameters 'conv2_b' owned by layer 'Convolution2', param index 1
I0726 10:04:39.653339 32016 layer_factory.hpp:77] Creating layer Pooling14
I0726 10:04:39.653348 32016 net.cpp:91] Creating Layer Pooling14
I0726 10:04:39.653354 32016 net.cpp:425] Pooling14 <- Convolution14
I0726 10:04:39.653367 32016 net.cpp:399] Pooling14 -> Pooling14
I0726 10:04:39.653420 32016 net.cpp:141] Setting up Pooling14
I0726 10:04:39.653431 32016 net.cpp:148] Top shape: 128 50 13 13 (1081600)
I0726 10:04:39.653439 32016 net.cpp:156] Memory required for data: 1452162560
I0726 10:04:39.653445 32016 layer_factory.hpp:77] Creating layer InnerProduct19
I0726 10:04:39.653460 32016 net.cpp:91] Creating Layer InnerProduct19
I0726 10:04:39.653468 32016 net.cpp:425] InnerProduct19 <- Pooling14
I0726 10:04:39.653483 32016 net.cpp:399] InnerProduct19 -> InnerProduct19
I0726 10:04:39.695482 32016 net.cpp:141] Setting up InnerProduct19
I0726 10:04:39.695530 32016 net.cpp:148] Top shape: 128 500 (64000)
I0726 10:04:39.695536 32016 net.cpp:156] Memory required for data: 1452418560
I0726 10:04:39.695547 32016 net.cpp:484] Sharing parameters 'ip1_w' owned by layer 'InnerProduct1', param index 0
I0726 10:04:39.695555 32016 net.cpp:484] Sharing parameters 'ip1_b' owned by layer 'InnerProduct1', param index 1
I0726 10:04:39.695561 32016 layer_factory.hpp:77] Creating layer ReLU13
I0726 10:04:39.695583 32016 net.cpp:91] Creating Layer ReLU13
I0726 10:04:39.695592 32016 net.cpp:425] ReLU13 <- InnerProduct19
I0726 10:04:39.695608 32016 net.cpp:386] ReLU13 -> InnerProduct19 (in-place)
I0726 10:04:39.695622 32016 net.cpp:141] Setting up ReLU13
I0726 10:04:39.695629 32016 net.cpp:148] Top shape: 128 500 (64000)
I0726 10:04:39.695634 32016 net.cpp:156] Memory required for data: 1452674560
I0726 10:04:39.695641 32016 layer_factory.hpp:77] Creating layer InnerProduct20
I0726 10:04:39.695652 32016 net.cpp:91] Creating Layer InnerProduct20
I0726 10:04:39.695657 32016 net.cpp:425] InnerProduct20 <- InnerProduct19
I0726 10:04:39.695673 32016 net.cpp:399] InnerProduct20 -> InnerProduct20
I0726 10:04:39.698431 32016 net.cpp:141] Setting up InnerProduct20
I0726 10:04:39.698458 32016 net.cpp:148] Top shape: 128 500 (64000)
I0726 10:04:39.698464 32016 net.cpp:156] Memory required for data: 1452930560
I0726 10:04:39.698472 32016 net.cpp:484] Sharing parameters 'ip2_w' owned by layer 'InnerProduct2', param index 0
I0726 10:04:39.698478 32016 net.cpp:484] Sharing parameters 'ip2_b' owned by layer 'InnerProduct2', param index 1
I0726 10:04:39.698484 32016 layer_factory.hpp:77] Creating layer Convolution15
I0726 10:04:39.698498 32016 net.cpp:91] Creating Layer Convolution15
I0726 10:04:39.698514 32016 net.cpp:425] Convolution15 <- c23
I0726 10:04:39.698529 32016 net.cpp:399] Convolution15 -> Convolution15
I0726 10:04:39.698900 32016 net.cpp:141] Setting up Convolution15
I0726 10:04:39.698912 32016 net.cpp:148] Top shape: 128 20 60 60 (9216000)
I0726 10:04:39.698920 32016 net.cpp:156] Memory required for data: 1489794560
I0726 10:04:39.698927 32016 net.cpp:484] Sharing parameters 'conv1_w' owned by layer 'Convolution1', param index 0
I0726 10:04:39.698935 32016 net.cpp:484] Sharing parameters 'conv1_b' owned by layer 'Convolution1', param index 1
I0726 10:04:39.698940 32016 layer_factory.hpp:77] Creating layer Pooling15
I0726 10:04:39.698951 32016 net.cpp:91] Creating Layer Pooling15
I0726 10:04:39.698956 32016 net.cpp:425] Pooling15 <- Convolution15
I0726 10:04:39.698966 32016 net.cpp:399] Pooling15 -> Pooling15
I0726 10:04:39.699026 32016 net.cpp:141] Setting up Pooling15
I0726 10:04:39.699040 32016 net.cpp:148] Top shape: 128 20 30 30 (2304000)
I0726 10:04:39.699046 32016 net.cpp:156] Memory required for data: 1499010560
I0726 10:04:39.699084 32016 layer_factory.hpp:77] Creating layer Convolution16
I0726 10:04:39.699100 32016 net.cpp:91] Creating Layer Convolution16
I0726 10:04:39.699105 32016 net.cpp:425] Convolution16 <- Pooling15
I0726 10:04:39.699120 32016 net.cpp:399] Convolution16 -> Convolution16
I0726 10:04:39.699666 32016 net.cpp:141] Setting up Convolution16
I0726 10:04:39.699682 32016 net.cpp:148] Top shape: 128 50 26 26 (4326400)
I0726 10:04:39.699688 32016 net.cpp:156] Memory required for data: 1516316160
I0726 10:04:39.699694 32016 net.cpp:484] Sharing parameters 'conv2_w' owned by layer 'Convolution2', param index 0
I0726 10:04:39.699702 32016 net.cpp:484] Sharing parameters 'conv2_b' owned by layer 'Convolution2', param index 1
I0726 10:04:39.699707 32016 layer_factory.hpp:77] Creating layer Pooling16
I0726 10:04:39.699717 32016 net.cpp:91] Creating Layer Pooling16
I0726 10:04:39.699724 32016 net.cpp:425] Pooling16 <- Convolution16
I0726 10:04:39.699733 32016 net.cpp:399] Pooling16 -> Pooling16
I0726 10:04:39.699782 32016 net.cpp:141] Setting up Pooling16
I0726 10:04:39.699790 32016 net.cpp:148] Top shape: 128 50 13 13 (1081600)
I0726 10:04:39.699795 32016 net.cpp:156] Memory required for data: 1520642560
I0726 10:04:39.699800 32016 layer_factory.hpp:77] Creating layer InnerProduct21
I0726 10:04:39.699810 32016 net.cpp:91] Creating Layer InnerProduct21
I0726 10:04:39.699816 32016 net.cpp:425] InnerProduct21 <- Pooling16
I0726 10:04:39.699827 32016 net.cpp:399] InnerProduct21 -> InnerProduct21
I0726 10:04:39.741591 32016 net.cpp:141] Setting up InnerProduct21
I0726 10:04:39.741641 32016 net.cpp:148] Top shape: 128 500 (64000)
I0726 10:04:39.741648 32016 net.cpp:156] Memory required for data: 1520898560
I0726 10:04:39.741659 32016 net.cpp:484] Sharing parameters 'ip1_w' owned by layer 'InnerProduct1', param index 0
I0726 10:04:39.741667 32016 net.cpp:484] Sharing parameters 'ip1_b' owned by layer 'InnerProduct1', param index 1
I0726 10:04:39.741674 32016 layer_factory.hpp:77] Creating layer ReLU14
I0726 10:04:39.741698 32016 net.cpp:91] Creating Layer ReLU14
I0726 10:04:39.741706 32016 net.cpp:425] ReLU14 <- InnerProduct21
I0726 10:04:39.741717 32016 net.cpp:386] ReLU14 -> InnerProduct21 (in-place)
I0726 10:04:39.741730 32016 net.cpp:141] Setting up ReLU14
I0726 10:04:39.741737 32016 net.cpp:148] Top shape: 128 500 (64000)
I0726 10:04:39.741744 32016 net.cpp:156] Memory required for data: 1521154560
I0726 10:04:39.741749 32016 layer_factory.hpp:77] Creating layer InnerProduct22
I0726 10:04:39.741760 32016 net.cpp:91] Creating Layer InnerProduct22
I0726 10:04:39.741765 32016 net.cpp:425] InnerProduct22 <- InnerProduct21
I0726 10:04:39.741780 32016 net.cpp:399] InnerProduct22 -> InnerProduct22
I0726 10:04:39.744504 32016 net.cpp:141] Setting up InnerProduct22
I0726 10:04:39.744532 32016 net.cpp:148] Top shape: 128 500 (64000)
I0726 10:04:39.744539 32016 net.cpp:156] Memory required for data: 1521410560
I0726 10:04:39.744545 32016 net.cpp:484] Sharing parameters 'ip2_w' owned by layer 'InnerProduct2', param index 0
I0726 10:04:39.744552 32016 net.cpp:484] Sharing parameters 'ip2_b' owned by layer 'InnerProduct2', param index 1
I0726 10:04:39.744559 32016 layer_factory.hpp:77] Creating layer Concat4
I0726 10:04:39.744568 32016 net.cpp:91] Creating Layer Concat4
I0726 10:04:39.744575 32016 net.cpp:425] Concat4 <- InnerProduct20
I0726 10:04:39.744596 32016 net.cpp:425] Concat4 <- InnerProduct22
I0726 10:04:39.744604 32016 net.cpp:399] Concat4 -> Concat4
I0726 10:04:39.744633 32016 net.cpp:141] Setting up Concat4
I0726 10:04:39.744643 32016 net.cpp:148] Top shape: 128 1000 (128000)
I0726 10:04:39.744649 32016 net.cpp:156] Memory required for data: 1521922560
I0726 10:04:39.744655 32016 layer_factory.hpp:77] Creating layer InnerProduct23
I0726 10:04:39.744664 32016 net.cpp:91] Creating Layer InnerProduct23
I0726 10:04:39.744670 32016 net.cpp:425] InnerProduct23 <- Concat4
I0726 10:04:39.744681 32016 net.cpp:399] InnerProduct23 -> InnerProduct23
I0726 10:04:39.749773 32016 net.cpp:141] Setting up InnerProduct23
I0726 10:04:39.749820 32016 net.cpp:148] Top shape: 128 512 (65536)
I0726 10:04:39.749826 32016 net.cpp:156] Memory required for data: 1522184704
I0726 10:04:39.749833 32016 net.cpp:484] Sharing parameters 'fc1_w' owned by layer 'InnerProduct5', param index 0
I0726 10:04:39.749840 32016 net.cpp:484] Sharing parameters 'fc1_b' owned by layer 'InnerProduct5', param index 1
I0726 10:04:39.749846 32016 layer_factory.hpp:77] Creating layer ReLU15
I0726 10:04:39.749858 32016 net.cpp:91] Creating Layer ReLU15
I0726 10:04:39.749866 32016 net.cpp:425] ReLU15 <- InnerProduct23
I0726 10:04:39.749882 32016 net.cpp:386] ReLU15 -> InnerProduct23 (in-place)
I0726 10:04:39.749892 32016 net.cpp:141] Setting up ReLU15
I0726 10:04:39.749900 32016 net.cpp:148] Top shape: 128 512 (65536)
I0726 10:04:39.749905 32016 net.cpp:156] Memory required for data: 1522446848
I0726 10:04:39.749910 32016 layer_factory.hpp:77] Creating layer InnerProduct24
I0726 10:04:39.749924 32016 net.cpp:91] Creating Layer InnerProduct24
I0726 10:04:39.749930 32016 net.cpp:425] InnerProduct24 <- InnerProduct23
I0726 10:04:39.749939 32016 net.cpp:399] InnerProduct24 -> InnerProduct24
I0726 10:04:39.752756 32016 net.cpp:141] Setting up InnerProduct24
I0726 10:04:39.752779 32016 net.cpp:148] Top shape: 128 512 (65536)
I0726 10:04:39.752789 32016 net.cpp:156] Memory required for data: 1522708992
I0726 10:04:39.752799 32016 net.cpp:484] Sharing parameters 'fc2_w' owned by layer 'InnerProduct6', param index 0
I0726 10:04:39.752811 32016 net.cpp:484] Sharing parameters 'fc2_b' owned by layer 'InnerProduct6', param index 1
I0726 10:04:39.752818 32016 layer_factory.hpp:77] Creating layer ReLU16
I0726 10:04:39.752830 32016 net.cpp:91] Creating Layer ReLU16
I0726 10:04:39.752840 32016 net.cpp:425] ReLU16 <- InnerProduct24
I0726 10:04:39.752854 32016 net.cpp:386] ReLU16 -> InnerProduct24 (in-place)
I0726 10:04:39.752867 32016 net.cpp:141] Setting up ReLU16
I0726 10:04:39.752876 32016 net.cpp:148] Top shape: 128 512 (65536)
I0726 10:04:39.752882 32016 net.cpp:156] Memory required for data: 1522971136
I0726 10:04:39.752889 32016 layer_factory.hpp:77] Creating layer dt3
I0726 10:04:39.752903 32016 net.cpp:91] Creating Layer dt3
I0726 10:04:39.752910 32016 net.cpp:425] dt3 <- InnerProduct24
I0726 10:04:39.752923 32016 net.cpp:399] dt3 -> dt3
I0726 10:04:39.753093 32016 net.cpp:141] Setting up dt3
I0726 10:04:39.753108 32016 net.cpp:148] Top shape: 128 2 (256)
I0726 10:04:39.753118 32016 net.cpp:156] Memory required for data: 1522972160
I0726 10:04:39.753128 32016 net.cpp:484] Sharing parameters 'fc3_w' owned by layer 'dt0', param index 0
I0726 10:04:39.753139 32016 net.cpp:484] Sharing parameters 'fc3_b' owned by layer 'dt0', param index 1
I0726 10:04:39.753145 32016 layer_factory.hpp:77] Creating layer Convolution17
I0726 10:04:39.753163 32016 net.cpp:91] Creating Layer Convolution17
I0726 10:04:39.753172 32016 net.cpp:425] Convolution17 <- p1_p1_0_split_4
I0726 10:04:39.753190 32016 net.cpp:399] Convolution17 -> Convolution17
I0726 10:04:39.753643 32016 net.cpp:141] Setting up Convolution17
I0726 10:04:39.753662 32016 net.cpp:148] Top shape: 128 20 60 60 (9216000)
I0726 10:04:39.753669 32016 net.cpp:156] Memory required for data: 1559836160
I0726 10:04:39.753677 32016 net.cpp:484] Sharing parameters 'conv1_w' owned by layer 'Convolution1', param index 0
I0726 10:04:39.753686 32016 net.cpp:484] Sharing parameters 'conv1_b' owned by layer 'Convolution1', param index 1
I0726 10:04:39.753693 32016 layer_factory.hpp:77] Creating layer Pooling17
I0726 10:04:39.753705 32016 net.cpp:91] Creating Layer Pooling17
I0726 10:04:39.753713 32016 net.cpp:425] Pooling17 <- Convolution17
I0726 10:04:39.753728 32016 net.cpp:399] Pooling17 -> Pooling17
I0726 10:04:39.753798 32016 net.cpp:141] Setting up Pooling17
I0726 10:04:39.753808 32016 net.cpp:148] Top shape: 128 20 30 30 (2304000)
I0726 10:04:39.753815 32016 net.cpp:156] Memory required for data: 1569052160
I0726 10:04:39.753823 32016 layer_factory.hpp:77] Creating layer Convolution18
I0726 10:04:39.753849 32016 net.cpp:91] Creating Layer Convolution18
I0726 10:04:39.753875 32016 net.cpp:425] Convolution18 <- Pooling17
I0726 10:04:39.753888 32016 net.cpp:399] Convolution18 -> Convolution18
I0726 10:04:39.754530 32016 net.cpp:141] Setting up Convolution18
I0726 10:04:39.754580 32016 net.cpp:148] Top shape: 128 50 26 26 (4326400)
I0726 10:04:39.754681 32016 net.cpp:156] Memory required for data: 1586357760
I0726 10:04:39.754714 32016 net.cpp:484] Sharing parameters 'conv2_w' owned by layer 'Convolution2', param index 0
I0726 10:04:39.754743 32016 net.cpp:484] Sharing parameters 'conv2_b' owned by layer 'Convolution2', param index 1
I0726 10:04:39.754771 32016 layer_factory.hpp:77] Creating layer Pooling18
I0726 10:04:39.754848 32016 net.cpp:91] Creating Layer Pooling18
I0726 10:04:39.754878 32016 net.cpp:425] Pooling18 <- Convolution18
I0726 10:04:39.754912 32016 net.cpp:399] Pooling18 -> Pooling18
I0726 10:04:39.755003 32016 net.cpp:141] Setting up Pooling18
I0726 10:04:39.755036 32016 net.cpp:148] Top shape: 128 50 13 13 (1081600)
I0726 10:04:39.755069 32016 net.cpp:156] Memory required for data: 1590684160
I0726 10:04:39.755098 32016 layer_factory.hpp:77] Creating layer InnerProduct25
I0726 10:04:39.755134 32016 net.cpp:91] Creating Layer InnerProduct25
I0726 10:04:39.755163 32016 net.cpp:425] InnerProduct25 <- Pooling18
I0726 10:04:39.755198 32016 net.cpp:399] InnerProduct25 -> InnerProduct25
I0726 10:04:39.796854 32016 net.cpp:141] Setting up InnerProduct25
I0726 10:04:39.796890 32016 net.cpp:148] Top shape: 128 500 (64000)
I0726 10:04:39.796898 32016 net.cpp:156] Memory required for data: 1590940160
I0726 10:04:39.796910 32016 net.cpp:484] Sharing parameters 'ip1_w' owned by layer 'InnerProduct1', param index 0
I0726 10:04:39.796917 32016 net.cpp:484] Sharing parameters 'ip1_b' owned by layer 'InnerProduct1', param index 1
I0726 10:04:39.796924 32016 layer_factory.hpp:77] Creating layer ReLU17
I0726 10:04:39.796943 32016 net.cpp:91] Creating Layer ReLU17
I0726 10:04:39.796954 32016 net.cpp:425] ReLU17 <- InnerProduct25
I0726 10:04:39.796978 32016 net.cpp:386] ReLU17 -> InnerProduct25 (in-place)
I0726 10:04:39.796998 32016 net.cpp:141] Setting up ReLU17
I0726 10:04:39.797008 32016 net.cpp:148] Top shape: 128 500 (64000)
I0726 10:04:39.797015 32016 net.cpp:156] Memory required for data: 1591196160
I0726 10:04:39.797022 32016 layer_factory.hpp:77] Creating layer InnerProduct26
I0726 10:04:39.797036 32016 net.cpp:91] Creating Layer InnerProduct26
I0726 10:04:39.797044 32016 net.cpp:425] InnerProduct26 <- InnerProduct25
I0726 10:04:39.797060 32016 net.cpp:399] InnerProduct26 -> InnerProduct26
I0726 10:04:39.799883 32016 net.cpp:141] Setting up InnerProduct26
I0726 10:04:39.799911 32016 net.cpp:148] Top shape: 128 500 (64000)
I0726 10:04:39.799917 32016 net.cpp:156] Memory required for data: 1591452160
I0726 10:04:39.799924 32016 net.cpp:484] Sharing parameters 'ip2_w' owned by layer 'InnerProduct2', param index 0
I0726 10:04:39.799932 32016 net.cpp:484] Sharing parameters 'ip2_b' owned by layer 'InnerProduct2', param index 1
I0726 10:04:39.799938 32016 layer_factory.hpp:77] Creating layer Convolution19
I0726 10:04:39.799953 32016 net.cpp:91] Creating Layer Convolution19
I0726 10:04:39.799968 32016 net.cpp:425] Convolution19 <- c24
I0726 10:04:39.799981 32016 net.cpp:399] Convolution19 -> Convolution19
I0726 10:04:39.800390 32016 net.cpp:141] Setting up Convolution19
I0726 10:04:39.800403 32016 net.cpp:148] Top shape: 128 20 60 60 (9216000)
I0726 10:04:39.800412 32016 net.cpp:156] Memory required for data: 1628316160
I0726 10:04:39.800418 32016 net.cpp:484] Sharing parameters 'conv1_w' owned by layer 'Convolution1', param index 0
I0726 10:04:39.800429 32016 net.cpp:484] Sharing parameters 'conv1_b' owned by layer 'Convolution1', param index 1
I0726 10:04:39.800437 32016 layer_factory.hpp:77] Creating layer Pooling19
I0726 10:04:39.800449 32016 net.cpp:91] Creating Layer Pooling19
I0726 10:04:39.800457 32016 net.cpp:425] Pooling19 <- Convolution19
I0726 10:04:39.800468 32016 net.cpp:399] Pooling19 -> Pooling19
I0726 10:04:39.800536 32016 net.cpp:141] Setting up Pooling19
I0726 10:04:39.800570 32016 net.cpp:148] Top shape: 128 20 30 30 (2304000)
I0726 10:04:39.800577 32016 net.cpp:156] Memory required for data: 1637532160
I0726 10:04:39.800585 32016 layer_factory.hpp:77] Creating layer Convolution20
I0726 10:04:39.800603 32016 net.cpp:91] Creating Layer Convolution20
I0726 10:04:39.800611 32016 net.cpp:425] Convolution20 <- Pooling19
I0726 10:04:39.800628 32016 net.cpp:399] Convolution20 -> Convolution20
I0726 10:04:39.801194 32016 net.cpp:141] Setting up Convolution20
I0726 10:04:39.801205 32016 net.cpp:148] Top shape: 128 50 26 26 (4326400)
I0726 10:04:39.801210 32016 net.cpp:156] Memory required for data: 1654837760
I0726 10:04:39.801218 32016 net.cpp:484] Sharing parameters 'conv2_w' owned by layer 'Convolution2', param index 0
I0726 10:04:39.801224 32016 net.cpp:484] Sharing parameters 'conv2_b' owned by layer 'Convolution2', param index 1
I0726 10:04:39.801230 32016 layer_factory.hpp:77] Creating layer Pooling20
I0726 10:04:39.801239 32016 net.cpp:91] Creating Layer Pooling20
I0726 10:04:39.801251 32016 net.cpp:425] Pooling20 <- Convolution20
I0726 10:04:39.801262 32016 net.cpp:399] Pooling20 -> Pooling20
I0726 10:04:39.801327 32016 net.cpp:141] Setting up Pooling20
I0726 10:04:39.801337 32016 net.cpp:148] Top shape: 128 50 13 13 (1081600)
I0726 10:04:39.801344 32016 net.cpp:156] Memory required for data: 1659164160
I0726 10:04:39.801352 32016 layer_factory.hpp:77] Creating layer InnerProduct27
I0726 10:04:39.801363 32016 net.cpp:91] Creating Layer InnerProduct27
I0726 10:04:39.801370 32016 net.cpp:425] InnerProduct27 <- Pooling20
I0726 10:04:39.801385 32016 net.cpp:399] InnerProduct27 -> InnerProduct27
I0726 10:04:39.843420 32016 net.cpp:141] Setting up InnerProduct27
I0726 10:04:39.843471 32016 net.cpp:148] Top shape: 128 500 (64000)
I0726 10:04:39.843477 32016 net.cpp:156] Memory required for data: 1659420160
I0726 10:04:39.843487 32016 net.cpp:484] Sharing parameters 'ip1_w' owned by layer 'InnerProduct1', param index 0
I0726 10:04:39.843495 32016 net.cpp:484] Sharing parameters 'ip1_b' owned by layer 'InnerProduct1', param index 1
I0726 10:04:39.843502 32016 layer_factory.hpp:77] Creating layer ReLU18
I0726 10:04:39.843526 32016 net.cpp:91] Creating Layer ReLU18
I0726 10:04:39.843536 32016 net.cpp:425] ReLU18 <- InnerProduct27
I0726 10:04:39.843546 32016 net.cpp:386] ReLU18 -> InnerProduct27 (in-place)
I0726 10:04:39.843560 32016 net.cpp:141] Setting up ReLU18
I0726 10:04:39.843567 32016 net.cpp:148] Top shape: 128 500 (64000)
I0726 10:04:39.843574 32016 net.cpp:156] Memory required for data: 1659676160
I0726 10:04:39.843578 32016 layer_factory.hpp:77] Creating layer InnerProduct28
I0726 10:04:39.843590 32016 net.cpp:91] Creating Layer InnerProduct28
I0726 10:04:39.843595 32016 net.cpp:425] InnerProduct28 <- InnerProduct27
I0726 10:04:39.843610 32016 net.cpp:399] InnerProduct28 -> InnerProduct28
I0726 10:04:39.846304 32016 net.cpp:141] Setting up InnerProduct28
I0726 10:04:39.846331 32016 net.cpp:148] Top shape: 128 500 (64000)
I0726 10:04:39.846336 32016 net.cpp:156] Memory required for data: 1659932160
I0726 10:04:39.846343 32016 net.cpp:484] Sharing parameters 'ip2_w' owned by layer 'InnerProduct2', param index 0
I0726 10:04:39.846351 32016 net.cpp:484] Sharing parameters 'ip2_b' owned by layer 'InnerProduct2', param index 1
I0726 10:04:39.846356 32016 layer_factory.hpp:77] Creating layer Concat5
I0726 10:04:39.846367 32016 net.cpp:91] Creating Layer Concat5
I0726 10:04:39.846374 32016 net.cpp:425] Concat5 <- InnerProduct26
I0726 10:04:39.846391 32016 net.cpp:425] Concat5 <- InnerProduct28
I0726 10:04:39.846401 32016 net.cpp:399] Concat5 -> Concat5
I0726 10:04:39.846429 32016 net.cpp:141] Setting up Concat5
I0726 10:04:39.846436 32016 net.cpp:148] Top shape: 128 1000 (128000)
I0726 10:04:39.846442 32016 net.cpp:156] Memory required for data: 1660444160
I0726 10:04:39.846447 32016 layer_factory.hpp:77] Creating layer InnerProduct29
I0726 10:04:39.846459 32016 net.cpp:91] Creating Layer InnerProduct29
I0726 10:04:39.846465 32016 net.cpp:425] InnerProduct29 <- Concat5
I0726 10:04:39.846498 32016 net.cpp:399] InnerProduct29 -> InnerProduct29
I0726 10:04:39.851532 32016 net.cpp:141] Setting up InnerProduct29
I0726 10:04:39.851562 32016 net.cpp:148] Top shape: 128 512 (65536)
I0726 10:04:39.851567 32016 net.cpp:156] Memory required for data: 1660706304
I0726 10:04:39.851575 32016 net.cpp:484] Sharing parameters 'fc1_w' owned by layer 'InnerProduct5', param index 0
I0726 10:04:39.851583 32016 net.cpp:484] Sharing parameters 'fc1_b' owned by layer 'InnerProduct5', param index 1
I0726 10:04:39.851588 32016 layer_factory.hpp:77] Creating layer ReLU19
I0726 10:04:39.851599 32016 net.cpp:91] Creating Layer ReLU19
I0726 10:04:39.851606 32016 net.cpp:425] ReLU19 <- InnerProduct29
I0726 10:04:39.851625 32016 net.cpp:386] ReLU19 -> InnerProduct29 (in-place)
I0726 10:04:39.851636 32016 net.cpp:141] Setting up ReLU19
I0726 10:04:39.851644 32016 net.cpp:148] Top shape: 128 512 (65536)
I0726 10:04:39.851649 32016 net.cpp:156] Memory required for data: 1660968448
I0726 10:04:39.851655 32016 layer_factory.hpp:77] Creating layer InnerProduct30
I0726 10:04:39.851665 32016 net.cpp:91] Creating Layer InnerProduct30
I0726 10:04:39.851671 32016 net.cpp:425] InnerProduct30 <- InnerProduct29
I0726 10:04:39.851681 32016 net.cpp:399] InnerProduct30 -> InnerProduct30
I0726 10:04:39.854409 32016 net.cpp:141] Setting up InnerProduct30
I0726 10:04:39.854425 32016 net.cpp:148] Top shape: 128 512 (65536)
I0726 10:04:39.854430 32016 net.cpp:156] Memory required for data: 1661230592
I0726 10:04:39.854440 32016 net.cpp:484] Sharing parameters 'fc2_w' owned by layer 'InnerProduct6', param index 0
I0726 10:04:39.854449 32016 net.cpp:484] Sharing parameters 'fc2_b' owned by layer 'InnerProduct6', param index 1
I0726 10:04:39.854457 32016 layer_factory.hpp:77] Creating layer ReLU20
I0726 10:04:39.854466 32016 net.cpp:91] Creating Layer ReLU20
I0726 10:04:39.854472 32016 net.cpp:425] ReLU20 <- InnerProduct30
I0726 10:04:39.854483 32016 net.cpp:386] ReLU20 -> InnerProduct30 (in-place)
I0726 10:04:39.854493 32016 net.cpp:141] Setting up ReLU20
I0726 10:04:39.854501 32016 net.cpp:148] Top shape: 128 512 (65536)
I0726 10:04:39.854506 32016 net.cpp:156] Memory required for data: 1661492736
I0726 10:04:39.854511 32016 layer_factory.hpp:77] Creating layer dt4
I0726 10:04:39.854523 32016 net.cpp:91] Creating Layer dt4
I0726 10:04:39.854529 32016 net.cpp:425] dt4 <- InnerProduct30
I0726 10:04:39.854539 32016 net.cpp:399] dt4 -> dt4
I0726 10:04:39.854678 32016 net.cpp:141] Setting up dt4
I0726 10:04:39.854686 32016 net.cpp:148] Top shape: 128 2 (256)
I0726 10:04:39.854691 32016 net.cpp:156] Memory required for data: 1661493760
I0726 10:04:39.854697 32016 net.cpp:484] Sharing parameters 'fc3_w' owned by layer 'dt0', param index 0
I0726 10:04:39.854706 32016 net.cpp:484] Sharing parameters 'fc3_b' owned by layer 'dt0', param index 1
I0726 10:04:39.854710 32016 layer_factory.hpp:77] Creating layer Convolution21
I0726 10:04:39.854723 32016 net.cpp:91] Creating Layer Convolution21
I0726 10:04:39.854729 32016 net.cpp:425] Convolution21 <- p1_p1_0_split_5
I0726 10:04:39.854743 32016 net.cpp:399] Convolution21 -> Convolution21
I0726 10:04:39.855125 32016 net.cpp:141] Setting up Convolution21
I0726 10:04:39.855137 32016 net.cpp:148] Top shape: 128 20 60 60 (9216000)
I0726 10:04:39.855145 32016 net.cpp:156] Memory required for data: 1698357760
I0726 10:04:39.855151 32016 net.cpp:484] Sharing parameters 'conv1_w' owned by layer 'Convolution1', param index 0
I0726 10:04:39.855159 32016 net.cpp:484] Sharing parameters 'conv1_b' owned by layer 'Convolution1', param index 1
I0726 10:04:39.855165 32016 layer_factory.hpp:77] Creating layer Pooling21
I0726 10:04:39.855175 32016 net.cpp:91] Creating Layer Pooling21
I0726 10:04:39.855181 32016 net.cpp:425] Pooling21 <- Convolution21
I0726 10:04:39.855193 32016 net.cpp:399] Pooling21 -> Pooling21
I0726 10:04:39.855245 32016 net.cpp:141] Setting up Pooling21
I0726 10:04:39.855252 32016 net.cpp:148] Top shape: 128 20 30 30 (2304000)
I0726 10:04:39.855258 32016 net.cpp:156] Memory required for data: 1707573760
I0726 10:04:39.855283 32016 layer_factory.hpp:77] Creating layer Convolution22
I0726 10:04:39.855298 32016 net.cpp:91] Creating Layer Convolution22
I0726 10:04:39.855305 32016 net.cpp:425] Convolution22 <- Pooling21
I0726 10:04:39.855314 32016 net.cpp:399] Convolution22 -> Convolution22
I0726 10:04:39.856449 32016 net.cpp:141] Setting up Convolution22
I0726 10:04:39.856475 32016 net.cpp:148] Top shape: 128 50 26 26 (4326400)
I0726 10:04:39.856480 32016 net.cpp:156] Memory required for data: 1724879360
I0726 10:04:39.856487 32016 net.cpp:484] Sharing parameters 'conv2_w' owned by layer 'Convolution2', param index 0
I0726 10:04:39.856494 32016 net.cpp:484] Sharing parameters 'conv2_b' owned by layer 'Convolution2', param index 1
I0726 10:04:39.856500 32016 layer_factory.hpp:77] Creating layer Pooling22
I0726 10:04:39.856508 32016 net.cpp:91] Creating Layer Pooling22
I0726 10:04:39.856514 32016 net.cpp:425] Pooling22 <- Convolution22
I0726 10:04:39.856531 32016 net.cpp:399] Pooling22 -> Pooling22
I0726 10:04:39.856587 32016 net.cpp:141] Setting up Pooling22
I0726 10:04:39.856600 32016 net.cpp:148] Top shape: 128 50 13 13 (1081600)
I0726 10:04:39.856608 32016 net.cpp:156] Memory required for data: 1729205760
I0726 10:04:39.856616 32016 layer_factory.hpp:77] Creating layer InnerProduct31
I0726 10:04:39.856631 32016 net.cpp:91] Creating Layer InnerProduct31
I0726 10:04:39.856638 32016 net.cpp:425] InnerProduct31 <- Pooling22
I0726 10:04:39.856652 32016 net.cpp:399] InnerProduct31 -> InnerProduct31
I0726 10:04:39.897975 32016 net.cpp:141] Setting up InnerProduct31
I0726 10:04:39.898023 32016 net.cpp:148] Top shape: 128 500 (64000)
I0726 10:04:39.898030 32016 net.cpp:156] Memory required for data: 1729461760
I0726 10:04:39.898041 32016 net.cpp:484] Sharing parameters 'ip1_w' owned by layer 'InnerProduct1', param index 0
I0726 10:04:39.898049 32016 net.cpp:484] Sharing parameters 'ip1_b' owned by layer 'InnerProduct1', param index 1
I0726 10:04:39.898056 32016 layer_factory.hpp:77] Creating layer ReLU21
I0726 10:04:39.898080 32016 net.cpp:91] Creating Layer ReLU21
I0726 10:04:39.898089 32016 net.cpp:425] ReLU21 <- InnerProduct31
I0726 10:04:39.898103 32016 net.cpp:386] ReLU21 -> InnerProduct31 (in-place)
I0726 10:04:39.898118 32016 net.cpp:141] Setting up ReLU21
I0726 10:04:39.898125 32016 net.cpp:148] Top shape: 128 500 (64000)
I0726 10:04:39.898134 32016 net.cpp:156] Memory required for data: 1729717760
I0726 10:04:39.898139 32016 layer_factory.hpp:77] Creating layer InnerProduct32
I0726 10:04:39.898150 32016 net.cpp:91] Creating Layer InnerProduct32
I0726 10:04:39.898156 32016 net.cpp:425] InnerProduct32 <- InnerProduct31
I0726 10:04:39.898169 32016 net.cpp:399] InnerProduct32 -> InnerProduct32
I0726 10:04:39.900846 32016 net.cpp:141] Setting up InnerProduct32
I0726 10:04:39.900871 32016 net.cpp:148] Top shape: 128 500 (64000)
I0726 10:04:39.900877 32016 net.cpp:156] Memory required for data: 1729973760
I0726 10:04:39.900884 32016 net.cpp:484] Sharing parameters 'ip2_w' owned by layer 'InnerProduct2', param index 0
I0726 10:04:39.900892 32016 net.cpp:484] Sharing parameters 'ip2_b' owned by layer 'InnerProduct2', param index 1
I0726 10:04:39.900897 32016 layer_factory.hpp:77] Creating layer Convolution23
I0726 10:04:39.900913 32016 net.cpp:91] Creating Layer Convolution23
I0726 10:04:39.900928 32016 net.cpp:425] Convolution23 <- c25
I0726 10:04:39.900943 32016 net.cpp:399] Convolution23 -> Convolution23
I0726 10:04:39.901329 32016 net.cpp:141] Setting up Convolution23
I0726 10:04:39.901340 32016 net.cpp:148] Top shape: 128 20 60 60 (9216000)
I0726 10:04:39.901345 32016 net.cpp:156] Memory required for data: 1766837760
I0726 10:04:39.901351 32016 net.cpp:484] Sharing parameters 'conv1_w' owned by layer 'Convolution1', param index 0
I0726 10:04:39.901358 32016 net.cpp:484] Sharing parameters 'conv1_b' owned by layer 'Convolution1', param index 1
I0726 10:04:39.901365 32016 layer_factory.hpp:77] Creating layer Pooling23
I0726 10:04:39.901373 32016 net.cpp:91] Creating Layer Pooling23
I0726 10:04:39.901401 32016 net.cpp:425] Pooling23 <- Convolution23
I0726 10:04:39.901413 32016 net.cpp:399] Pooling23 -> Pooling23
I0726 10:04:39.901466 32016 net.cpp:141] Setting up Pooling23
I0726 10:04:39.901476 32016 net.cpp:148] Top shape: 128 20 30 30 (2304000)
I0726 10:04:39.901482 32016 net.cpp:156] Memory required for data: 1776053760
I0726 10:04:39.901487 32016 layer_factory.hpp:77] Creating layer Convolution24
I0726 10:04:39.901500 32016 net.cpp:91] Creating Layer Convolution24
I0726 10:04:39.901506 32016 net.cpp:425] Convolution24 <- Pooling23
I0726 10:04:39.901518 32016 net.cpp:399] Convolution24 -> Convolution24
I0726 10:04:39.902072 32016 net.cpp:141] Setting up Convolution24
I0726 10:04:39.902083 32016 net.cpp:148] Top shape: 128 50 26 26 (4326400)
I0726 10:04:39.902091 32016 net.cpp:156] Memory required for data: 1793359360
I0726 10:04:39.902097 32016 net.cpp:484] Sharing parameters 'conv2_w' owned by layer 'Convolution2', param index 0
I0726 10:04:39.902104 32016 net.cpp:484] Sharing parameters 'conv2_b' owned by layer 'Convolution2', param index 1
I0726 10:04:39.902109 32016 layer_factory.hpp:77] Creating layer Pooling24
I0726 10:04:39.902119 32016 net.cpp:91] Creating Layer Pooling24
I0726 10:04:39.902125 32016 net.cpp:425] Pooling24 <- Convolution24
I0726 10:04:39.902135 32016 net.cpp:399] Pooling24 -> Pooling24
I0726 10:04:39.902209 32016 net.cpp:141] Setting up Pooling24
I0726 10:04:39.902218 32016 net.cpp:148] Top shape: 128 50 13 13 (1081600)
I0726 10:04:39.902225 32016 net.cpp:156] Memory required for data: 1797685760
I0726 10:04:39.902230 32016 layer_factory.hpp:77] Creating layer InnerProduct33
I0726 10:04:39.902241 32016 net.cpp:91] Creating Layer InnerProduct33
I0726 10:04:39.902247 32016 net.cpp:425] InnerProduct33 <- Pooling24
I0726 10:04:39.902259 32016 net.cpp:399] InnerProduct33 -> InnerProduct33
I0726 10:04:39.944212 32016 net.cpp:141] Setting up InnerProduct33
I0726 10:04:39.944257 32016 net.cpp:148] Top shape: 128 500 (64000)
I0726 10:04:39.944268 32016 net.cpp:156] Memory required for data: 1797941760
I0726 10:04:39.944279 32016 net.cpp:484] Sharing parameters 'ip1_w' owned by layer 'InnerProduct1', param index 0
I0726 10:04:39.944289 32016 net.cpp:484] Sharing parameters 'ip1_b' owned by layer 'InnerProduct1', param index 1
I0726 10:04:39.944295 32016 layer_factory.hpp:77] Creating layer ReLU22
I0726 10:04:39.944320 32016 net.cpp:91] Creating Layer ReLU22
I0726 10:04:39.944330 32016 net.cpp:425] ReLU22 <- InnerProduct33
I0726 10:04:39.944340 32016 net.cpp:386] ReLU22 -> InnerProduct33 (in-place)
I0726 10:04:39.944355 32016 net.cpp:141] Setting up ReLU22
I0726 10:04:39.944362 32016 net.cpp:148] Top shape: 128 500 (64000)
I0726 10:04:39.944367 32016 net.cpp:156] Memory required for data: 1798197760
I0726 10:04:39.944372 32016 layer_factory.hpp:77] Creating layer InnerProduct34
I0726 10:04:39.944386 32016 net.cpp:91] Creating Layer InnerProduct34
I0726 10:04:39.944392 32016 net.cpp:425] InnerProduct34 <- InnerProduct33
I0726 10:04:39.944402 32016 net.cpp:399] InnerProduct34 -> InnerProduct34
I0726 10:04:39.947043 32016 net.cpp:141] Setting up InnerProduct34
I0726 10:04:39.947074 32016 net.cpp:148] Top shape: 128 500 (64000)
I0726 10:04:39.947080 32016 net.cpp:156] Memory required for data: 1798453760
I0726 10:04:39.947088 32016 net.cpp:484] Sharing parameters 'ip2_w' owned by layer 'InnerProduct2', param index 0
I0726 10:04:39.947094 32016 net.cpp:484] Sharing parameters 'ip2_b' owned by layer 'InnerProduct2', param index 1
I0726 10:04:39.947099 32016 layer_factory.hpp:77] Creating layer Concat6
I0726 10:04:39.947113 32016 net.cpp:91] Creating Layer Concat6
I0726 10:04:39.947126 32016 net.cpp:425] Concat6 <- InnerProduct32
I0726 10:04:39.947135 32016 net.cpp:425] Concat6 <- InnerProduct34
I0726 10:04:39.947145 32016 net.cpp:399] Concat6 -> Concat6
I0726 10:04:39.947173 32016 net.cpp:141] Setting up Concat6
I0726 10:04:39.947181 32016 net.cpp:148] Top shape: 128 1000 (128000)
I0726 10:04:39.947186 32016 net.cpp:156] Memory required for data: 1798965760
I0726 10:04:39.947192 32016 layer_factory.hpp:77] Creating layer InnerProduct35
I0726 10:04:39.947222 32016 net.cpp:91] Creating Layer InnerProduct35
I0726 10:04:39.947228 32016 net.cpp:425] InnerProduct35 <- Concat6
I0726 10:04:39.947239 32016 net.cpp:399] InnerProduct35 -> InnerProduct35
I0726 10:04:39.952338 32016 net.cpp:141] Setting up InnerProduct35
I0726 10:04:39.952368 32016 net.cpp:148] Top shape: 128 512 (65536)
I0726 10:04:39.952373 32016 net.cpp:156] Memory required for data: 1799227904
I0726 10:04:39.952381 32016 net.cpp:484] Sharing parameters 'fc1_w' owned by layer 'InnerProduct5', param index 0
I0726 10:04:39.952389 32016 net.cpp:484] Sharing parameters 'fc1_b' owned by layer 'InnerProduct5', param index 1
I0726 10:04:39.952394 32016 layer_factory.hpp:77] Creating layer ReLU23
I0726 10:04:39.952404 32016 net.cpp:91] Creating Layer ReLU23
I0726 10:04:39.952409 32016 net.cpp:425] ReLU23 <- InnerProduct35
I0726 10:04:39.952428 32016 net.cpp:386] ReLU23 -> InnerProduct35 (in-place)
I0726 10:04:39.952438 32016 net.cpp:141] Setting up ReLU23
I0726 10:04:39.952450 32016 net.cpp:148] Top shape: 128 512 (65536)
I0726 10:04:39.952455 32016 net.cpp:156] Memory required for data: 1799490048
I0726 10:04:39.952461 32016 layer_factory.hpp:77] Creating layer InnerProduct36
I0726 10:04:39.952472 32016 net.cpp:91] Creating Layer InnerProduct36
I0726 10:04:39.952478 32016 net.cpp:425] InnerProduct36 <- InnerProduct35
I0726 10:04:39.952489 32016 net.cpp:399] InnerProduct36 -> InnerProduct36
I0726 10:04:39.955188 32016 net.cpp:141] Setting up InnerProduct36
I0726 10:04:39.955211 32016 net.cpp:148] Top shape: 128 512 (65536)
I0726 10:04:39.955217 32016 net.cpp:156] Memory required for data: 1799752192
I0726 10:04:39.955267 32016 net.cpp:484] Sharing parameters 'fc2_w' owned by layer 'InnerProduct6', param index 0
I0726 10:04:39.955276 32016 net.cpp:484] Sharing parameters 'fc2_b' owned by layer 'InnerProduct6', param index 1
I0726 10:04:39.955284 32016 layer_factory.hpp:77] Creating layer ReLU24
I0726 10:04:39.955293 32016 net.cpp:91] Creating Layer ReLU24
I0726 10:04:39.955301 32016 net.cpp:425] ReLU24 <- InnerProduct36
I0726 10:04:39.955312 32016 net.cpp:386] ReLU24 -> InnerProduct36 (in-place)
I0726 10:04:39.955322 32016 net.cpp:141] Setting up ReLU24
I0726 10:04:39.955329 32016 net.cpp:148] Top shape: 128 512 (65536)
I0726 10:04:39.955334 32016 net.cpp:156] Memory required for data: 1800014336
I0726 10:04:39.955340 32016 layer_factory.hpp:77] Creating layer dt5
I0726 10:04:39.955349 32016 net.cpp:91] Creating Layer dt5
I0726 10:04:39.955355 32016 net.cpp:425] dt5 <- InnerProduct36
I0726 10:04:39.955368 32016 net.cpp:399] dt5 -> dt5
I0726 10:04:39.955507 32016 net.cpp:141] Setting up dt5
I0726 10:04:39.955515 32016 net.cpp:148] Top shape: 128 2 (256)
I0726 10:04:39.955520 32016 net.cpp:156] Memory required for data: 1800015360
I0726 10:04:39.955526 32016 net.cpp:484] Sharing parameters 'fc3_w' owned by layer 'dt0', param index 0
I0726 10:04:39.955533 32016 net.cpp:484] Sharing parameters 'fc3_b' owned by layer 'dt0', param index 1
I0726 10:04:39.955539 32016 layer_factory.hpp:77] Creating layer Convolution25
I0726 10:04:39.955554 32016 net.cpp:91] Creating Layer Convolution25
I0726 10:04:39.955561 32016 net.cpp:425] Convolution25 <- p1_p1_0_split_6
I0726 10:04:39.955574 32016 net.cpp:399] Convolution25 -> Convolution25
I0726 10:04:39.955963 32016 net.cpp:141] Setting up Convolution25
I0726 10:04:39.955974 32016 net.cpp:148] Top shape: 128 20 60 60 (9216000)
I0726 10:04:39.955981 32016 net.cpp:156] Memory required for data: 1836879360
I0726 10:04:39.955987 32016 net.cpp:484] Sharing parameters 'conv1_w' owned by layer 'Convolution1', param index 0
I0726 10:04:39.955994 32016 net.cpp:484] Sharing parameters 'conv1_b' owned by layer 'Convolution1', param index 1
I0726 10:04:39.956001 32016 layer_factory.hpp:77] Creating layer Pooling25
I0726 10:04:39.956009 32016 net.cpp:91] Creating Layer Pooling25
I0726 10:04:39.956015 32016 net.cpp:425] Pooling25 <- Convolution25
I0726 10:04:39.956024 32016 net.cpp:399] Pooling25 -> Pooling25
I0726 10:04:39.956079 32016 net.cpp:141] Setting up Pooling25
I0726 10:04:39.956104 32016 net.cpp:148] Top shape: 128 20 30 30 (2304000)
I0726 10:04:39.956109 32016 net.cpp:156] Memory required for data: 1846095360
I0726 10:04:39.956115 32016 layer_factory.hpp:77] Creating layer Convolution26
I0726 10:04:39.956127 32016 net.cpp:91] Creating Layer Convolution26
I0726 10:04:39.956133 32016 net.cpp:425] Convolution26 <- Pooling25
I0726 10:04:39.956146 32016 net.cpp:399] Convolution26 -> Convolution26
I0726 10:04:39.956698 32016 net.cpp:141] Setting up Convolution26
I0726 10:04:39.956709 32016 net.cpp:148] Top shape: 128 50 26 26 (4326400)
I0726 10:04:39.956717 32016 net.cpp:156] Memory required for data: 1863400960
I0726 10:04:39.956723 32016 net.cpp:484] Sharing parameters 'conv2_w' owned by layer 'Convolution2', param index 0
I0726 10:04:39.956730 32016 net.cpp:484] Sharing parameters 'conv2_b' owned by layer 'Convolution2', param index 1
I0726 10:04:39.956735 32016 layer_factory.hpp:77] Creating layer Pooling26
I0726 10:04:39.956743 32016 net.cpp:91] Creating Layer Pooling26
I0726 10:04:39.956750 32016 net.cpp:425] Pooling26 <- Convolution26
I0726 10:04:39.956760 32016 net.cpp:399] Pooling26 -> Pooling26
I0726 10:04:39.956811 32016 net.cpp:141] Setting up Pooling26
I0726 10:04:39.956821 32016 net.cpp:148] Top shape: 128 50 13 13 (1081600)
I0726 10:04:39.956827 32016 net.cpp:156] Memory required for data: 1867727360
I0726 10:04:39.956832 32016 layer_factory.hpp:77] Creating layer InnerProduct37
I0726 10:04:39.956841 32016 net.cpp:91] Creating Layer InnerProduct37
I0726 10:04:39.956847 32016 net.cpp:425] InnerProduct37 <- Pooling26
I0726 10:04:39.956858 32016 net.cpp:399] InnerProduct37 -> InnerProduct37
I0726 10:04:39.998795 32016 net.cpp:141] Setting up InnerProduct37
I0726 10:04:39.998842 32016 net.cpp:148] Top shape: 128 500 (64000)
I0726 10:04:39.998848 32016 net.cpp:156] Memory required for data: 1867983360
I0726 10:04:39.998859 32016 net.cpp:484] Sharing parameters 'ip1_w' owned by layer 'InnerProduct1', param index 0
I0726 10:04:39.998867 32016 net.cpp:484] Sharing parameters 'ip1_b' owned by layer 'InnerProduct1', param index 1
I0726 10:04:39.998873 32016 layer_factory.hpp:77] Creating layer ReLU25
I0726 10:04:39.998898 32016 net.cpp:91] Creating Layer ReLU25
I0726 10:04:39.998908 32016 net.cpp:425] ReLU25 <- InnerProduct37
I0726 10:04:39.998920 32016 net.cpp:386] ReLU25 -> InnerProduct37 (in-place)
I0726 10:04:39.998934 32016 net.cpp:141] Setting up ReLU25
I0726 10:04:39.998941 32016 net.cpp:148] Top shape: 128 500 (64000)
I0726 10:04:39.998946 32016 net.cpp:156] Memory required for data: 1868239360
I0726 10:04:39.998952 32016 layer_factory.hpp:77] Creating layer InnerProduct38
I0726 10:04:39.998966 32016 net.cpp:91] Creating Layer InnerProduct38
I0726 10:04:39.998972 32016 net.cpp:425] InnerProduct38 <- InnerProduct37
I0726 10:04:39.998986 32016 net.cpp:399] InnerProduct38 -> InnerProduct38
I0726 10:04:40.001691 32016 net.cpp:141] Setting up InnerProduct38
I0726 10:04:40.001711 32016 net.cpp:148] Top shape: 128 500 (64000)
I0726 10:04:40.001718 32016 net.cpp:156] Memory required for data: 1868495360
I0726 10:04:40.001727 32016 net.cpp:484] Sharing parameters 'ip2_w' owned by layer 'InnerProduct2', param index 0
I0726 10:04:40.001750 32016 net.cpp:484] Sharing parameters 'ip2_b' owned by layer 'InnerProduct2', param index 1
I0726 10:04:40.001759 32016 layer_factory.hpp:77] Creating layer Convolution27
I0726 10:04:40.001775 32016 net.cpp:91] Creating Layer Convolution27
I0726 10:04:40.001790 32016 net.cpp:425] Convolution27 <- c26
I0726 10:04:40.001821 32016 net.cpp:399] Convolution27 -> Convolution27
I0726 10:04:40.002218 32016 net.cpp:141] Setting up Convolution27
I0726 10:04:40.002233 32016 net.cpp:148] Top shape: 128 20 60 60 (9216000)
I0726 10:04:40.002239 32016 net.cpp:156] Memory required for data: 1905359360
I0726 10:04:40.002251 32016 net.cpp:484] Sharing parameters 'conv1_w' owned by layer 'Convolution1', param index 0
I0726 10:04:40.002260 32016 net.cpp:484] Sharing parameters 'conv1_b' owned by layer 'Convolution1', param index 1
I0726 10:04:40.002291 32016 layer_factory.hpp:77] Creating layer Pooling27
I0726 10:04:40.002303 32016 net.cpp:91] Creating Layer Pooling27
I0726 10:04:40.002311 32016 net.cpp:425] Pooling27 <- Convolution27
I0726 10:04:40.002324 32016 net.cpp:399] Pooling27 -> Pooling27
I0726 10:04:40.002388 32016 net.cpp:141] Setting up Pooling27
I0726 10:04:40.002403 32016 net.cpp:148] Top shape: 128 20 30 30 (2304000)
I0726 10:04:40.002409 32016 net.cpp:156] Memory required for data: 1914575360
I0726 10:04:40.002419 32016 layer_factory.hpp:77] Creating layer Convolution28
I0726 10:04:40.002436 32016 net.cpp:91] Creating Layer Convolution28
I0726 10:04:40.002442 32016 net.cpp:425] Convolution28 <- Pooling27
I0726 10:04:40.002456 32016 net.cpp:399] Convolution28 -> Convolution28
I0726 10:04:40.003020 32016 net.cpp:141] Setting up Convolution28
I0726 10:04:40.003029 32016 net.cpp:148] Top shape: 128 50 26 26 (4326400)
I0726 10:04:40.003034 32016 net.cpp:156] Memory required for data: 1931880960
I0726 10:04:40.003041 32016 net.cpp:484] Sharing parameters 'conv2_w' owned by layer 'Convolution2', param index 0
I0726 10:04:40.003048 32016 net.cpp:484] Sharing parameters 'conv2_b' owned by layer 'Convolution2', param index 1
I0726 10:04:40.003070 32016 layer_factory.hpp:77] Creating layer Pooling28
I0726 10:04:40.003082 32016 net.cpp:91] Creating Layer Pooling28
I0726 10:04:40.003089 32016 net.cpp:425] Pooling28 <- Convolution28
I0726 10:04:40.003098 32016 net.cpp:399] Pooling28 -> Pooling28
I0726 10:04:40.003151 32016 net.cpp:141] Setting up Pooling28
I0726 10:04:40.003161 32016 net.cpp:148] Top shape: 128 50 13 13 (1081600)
I0726 10:04:40.003167 32016 net.cpp:156] Memory required for data: 1936207360
I0726 10:04:40.003172 32016 layer_factory.hpp:77] Creating layer InnerProduct39
I0726 10:04:40.003181 32016 net.cpp:91] Creating Layer InnerProduct39
I0726 10:04:40.003187 32016 net.cpp:425] InnerProduct39 <- Pooling28
I0726 10:04:40.003199 32016 net.cpp:399] InnerProduct39 -> InnerProduct39
I0726 10:04:40.044209 32016 net.cpp:141] Setting up InnerProduct39
I0726 10:04:40.044260 32016 net.cpp:148] Top shape: 128 500 (64000)
I0726 10:04:40.044265 32016 net.cpp:156] Memory required for data: 1936463360
I0726 10:04:40.044276 32016 net.cpp:484] Sharing parameters 'ip1_w' owned by layer 'InnerProduct1', param index 0
I0726 10:04:40.044286 32016 net.cpp:484] Sharing parameters 'ip1_b' owned by layer 'InnerProduct1', param index 1
I0726 10:04:40.044291 32016 layer_factory.hpp:77] Creating layer ReLU26
I0726 10:04:40.044315 32016 net.cpp:91] Creating Layer ReLU26
I0726 10:04:40.044324 32016 net.cpp:425] ReLU26 <- InnerProduct39
I0726 10:04:40.044335 32016 net.cpp:386] ReLU26 -> InnerProduct39 (in-place)
I0726 10:04:40.044348 32016 net.cpp:141] Setting up ReLU26
I0726 10:04:40.044355 32016 net.cpp:148] Top shape: 128 500 (64000)
I0726 10:04:40.044361 32016 net.cpp:156] Memory required for data: 1936719360
I0726 10:04:40.044366 32016 layer_factory.hpp:77] Creating layer InnerProduct40
I0726 10:04:40.044389 32016 net.cpp:91] Creating Layer InnerProduct40
I0726 10:04:40.044404 32016 net.cpp:425] InnerProduct40 <- InnerProduct39
I0726 10:04:40.044416 32016 net.cpp:399] InnerProduct40 -> InnerProduct40
I0726 10:04:40.047097 32016 net.cpp:141] Setting up InnerProduct40
I0726 10:04:40.047118 32016 net.cpp:148] Top shape: 128 500 (64000)
I0726 10:04:40.047127 32016 net.cpp:156] Memory required for data: 1936975360
I0726 10:04:40.047135 32016 net.cpp:484] Sharing parameters 'ip2_w' owned by layer 'InnerProduct2', param index 0
I0726 10:04:40.047158 32016 net.cpp:484] Sharing parameters 'ip2_b' owned by layer 'InnerProduct2', param index 1
I0726 10:04:40.047166 32016 layer_factory.hpp:77] Creating layer Concat7
I0726 10:04:40.047178 32016 net.cpp:91] Creating Layer Concat7
I0726 10:04:40.047220 32016 net.cpp:425] Concat7 <- InnerProduct38
I0726 10:04:40.047235 32016 net.cpp:425] Concat7 <- InnerProduct40
I0726 10:04:40.047248 32016 net.cpp:399] Concat7 -> Concat7
I0726 10:04:40.047291 32016 net.cpp:141] Setting up Concat7
I0726 10:04:40.047304 32016 net.cpp:148] Top shape: 128 1000 (128000)
I0726 10:04:40.047332 32016 net.cpp:156] Memory required for data: 1937487360
I0726 10:04:40.047341 32016 layer_factory.hpp:77] Creating layer InnerProduct41
I0726 10:04:40.047356 32016 net.cpp:91] Creating Layer InnerProduct41
I0726 10:04:40.047369 32016 net.cpp:425] InnerProduct41 <- Concat7
I0726 10:04:40.047381 32016 net.cpp:399] InnerProduct41 -> InnerProduct41
I0726 10:04:40.052644 32016 net.cpp:141] Setting up InnerProduct41
I0726 10:04:40.052667 32016 net.cpp:148] Top shape: 128 512 (65536)
I0726 10:04:40.052673 32016 net.cpp:156] Memory required for data: 1937749504
I0726 10:04:40.052683 32016 net.cpp:484] Sharing parameters 'fc1_w' owned by layer 'InnerProduct5', param index 0
I0726 10:04:40.052692 32016 net.cpp:484] Sharing parameters 'fc1_b' owned by layer 'InnerProduct5', param index 1
I0726 10:04:40.052700 32016 layer_factory.hpp:77] Creating layer ReLU27
I0726 10:04:40.052716 32016 net.cpp:91] Creating Layer ReLU27
I0726 10:04:40.052757 32016 net.cpp:425] ReLU27 <- InnerProduct41
I0726 10:04:40.052788 32016 net.cpp:386] ReLU27 -> InnerProduct41 (in-place)
I0726 10:04:40.052824 32016 net.cpp:141] Setting up ReLU27
I0726 10:04:40.052856 32016 net.cpp:148] Top shape: 128 512 (65536)
I0726 10:04:40.052883 32016 net.cpp:156] Memory required for data: 1938011648
I0726 10:04:40.052911 32016 layer_factory.hpp:77] Creating layer InnerProduct42
I0726 10:04:40.052948 32016 net.cpp:91] Creating Layer InnerProduct42
I0726 10:04:40.052983 32016 net.cpp:425] InnerProduct42 <- InnerProduct41
I0726 10:04:40.053019 32016 net.cpp:399] InnerProduct42 -> InnerProduct42
I0726 10:04:40.055995 32016 net.cpp:141] Setting up InnerProduct42
I0726 10:04:40.056027 32016 net.cpp:148] Top shape: 128 512 (65536)
I0726 10:04:40.056033 32016 net.cpp:156] Memory required for data: 1938273792
I0726 10:04:40.056041 32016 net.cpp:484] Sharing parameters 'fc2_w' owned by layer 'InnerProduct6', param index 0
I0726 10:04:40.056048 32016 net.cpp:484] Sharing parameters 'fc2_b' owned by layer 'InnerProduct6', param index 1
I0726 10:04:40.056054 32016 layer_factory.hpp:77] Creating layer ReLU28
I0726 10:04:40.056066 32016 net.cpp:91] Creating Layer ReLU28
I0726 10:04:40.056082 32016 net.cpp:425] ReLU28 <- InnerProduct42
I0726 10:04:40.056090 32016 net.cpp:386] ReLU28 -> InnerProduct42 (in-place)
I0726 10:04:40.056102 32016 net.cpp:141] Setting up ReLU28
I0726 10:04:40.056109 32016 net.cpp:148] Top shape: 128 512 (65536)
I0726 10:04:40.056114 32016 net.cpp:156] Memory required for data: 1938535936
I0726 10:04:40.056120 32016 layer_factory.hpp:77] Creating layer dt6
I0726 10:04:40.056131 32016 net.cpp:91] Creating Layer dt6
I0726 10:04:40.056140 32016 net.cpp:425] dt6 <- InnerProduct42
I0726 10:04:40.056150 32016 net.cpp:399] dt6 -> dt6
I0726 10:04:40.056295 32016 net.cpp:141] Setting up dt6
I0726 10:04:40.056306 32016 net.cpp:148] Top shape: 128 2 (256)
I0726 10:04:40.056311 32016 net.cpp:156] Memory required for data: 1938536960
I0726 10:04:40.056318 32016 net.cpp:484] Sharing parameters 'fc3_w' owned by layer 'dt0', param index 0
I0726 10:04:40.056325 32016 net.cpp:484] Sharing parameters 'fc3_b' owned by layer 'dt0', param index 1
I0726 10:04:40.056330 32016 layer_factory.hpp:77] Creating layer Convolution29
I0726 10:04:40.056345 32016 net.cpp:91] Creating Layer Convolution29
I0726 10:04:40.056359 32016 net.cpp:425] Convolution29 <- p1_p1_0_split_7
I0726 10:04:40.056373 32016 net.cpp:399] Convolution29 -> Convolution29
I0726 10:04:40.056771 32016 net.cpp:141] Setting up Convolution29
I0726 10:04:40.056785 32016 net.cpp:148] Top shape: 128 20 60 60 (9216000)
I0726 10:04:40.056792 32016 net.cpp:156] Memory required for data: 1975400960
I0726 10:04:40.056800 32016 net.cpp:484] Sharing parameters 'conv1_w' owned by layer 'Convolution1', param index 0
I0726 10:04:40.056812 32016 net.cpp:484] Sharing parameters 'conv1_b' owned by layer 'Convolution1', param index 1
I0726 10:04:40.056818 32016 layer_factory.hpp:77] Creating layer Pooling29
I0726 10:04:40.056828 32016 net.cpp:91] Creating Layer Pooling29
I0726 10:04:40.056833 32016 net.cpp:425] Pooling29 <- Convolution29
I0726 10:04:40.056861 32016 net.cpp:399] Pooling29 -> Pooling29
I0726 10:04:40.056920 32016 net.cpp:141] Setting up Pooling29
I0726 10:04:40.056931 32016 net.cpp:148] Top shape: 128 20 30 30 (2304000)
I0726 10:04:40.056936 32016 net.cpp:156] Memory required for data: 1984616960
I0726 10:04:40.056941 32016 layer_factory.hpp:77] Creating layer Convolution30
I0726 10:04:40.056957 32016 net.cpp:91] Creating Layer Convolution30
I0726 10:04:40.056968 32016 net.cpp:425] Convolution30 <- Pooling29
I0726 10:04:40.056982 32016 net.cpp:399] Convolution30 -> Convolution30
I0726 10:04:40.057561 32016 net.cpp:141] Setting up Convolution30
I0726 10:04:40.057579 32016 net.cpp:148] Top shape: 128 50 26 26 (4326400)
I0726 10:04:40.057598 32016 net.cpp:156] Memory required for data: 2001922560
I0726 10:04:40.057605 32016 net.cpp:484] Sharing parameters 'conv2_w' owned by layer 'Convolution2', param index 0
I0726 10:04:40.057612 32016 net.cpp:484] Sharing parameters 'conv2_b' owned by layer 'Convolution2', param index 1
I0726 10:04:40.057618 32016 layer_factory.hpp:77] Creating layer Pooling30
I0726 10:04:40.057626 32016 net.cpp:91] Creating Layer Pooling30
I0726 10:04:40.057631 32016 net.cpp:425] Pooling30 <- Convolution30
I0726 10:04:40.057641 32016 net.cpp:399] Pooling30 -> Pooling30
I0726 10:04:40.057703 32016 net.cpp:141] Setting up Pooling30
I0726 10:04:40.057718 32016 net.cpp:148] Top shape: 128 50 13 13 (1081600)
I0726 10:04:40.057724 32016 net.cpp:156] Memory required for data: 2006248960
I0726 10:04:40.057731 32016 layer_factory.hpp:77] Creating layer InnerProduct43
I0726 10:04:40.057744 32016 net.cpp:91] Creating Layer InnerProduct43
I0726 10:04:40.057755 32016 net.cpp:425] InnerProduct43 <- Pooling30
I0726 10:04:40.057771 32016 net.cpp:399] InnerProduct43 -> InnerProduct43
I0726 10:04:40.098595 32016 net.cpp:141] Setting up InnerProduct43
I0726 10:04:40.098637 32016 net.cpp:148] Top shape: 128 500 (64000)
I0726 10:04:40.098646 32016 net.cpp:156] Memory required for data: 2006504960
I0726 10:04:40.098669 32016 net.cpp:484] Sharing parameters 'ip1_w' owned by layer 'InnerProduct1', param index 0
I0726 10:04:40.098680 32016 net.cpp:484] Sharing parameters 'ip1_b' owned by layer 'InnerProduct1', param index 1
I0726 10:04:40.098704 32016 layer_factory.hpp:77] Creating layer ReLU29
I0726 10:04:40.098736 32016 net.cpp:91] Creating Layer ReLU29
I0726 10:04:40.098747 32016 net.cpp:425] ReLU29 <- InnerProduct43
I0726 10:04:40.098760 32016 net.cpp:386] ReLU29 -> InnerProduct43 (in-place)
I0726 10:04:40.098778 32016 net.cpp:141] Setting up ReLU29
I0726 10:04:40.098793 32016 net.cpp:148] Top shape: 128 500 (64000)
I0726 10:04:40.098801 32016 net.cpp:156] Memory required for data: 2006760960
I0726 10:04:40.098809 32016 layer_factory.hpp:77] Creating layer InnerProduct44
I0726 10:04:40.098822 32016 net.cpp:91] Creating Layer InnerProduct44
I0726 10:04:40.098831 32016 net.cpp:425] InnerProduct44 <- InnerProduct43
I0726 10:04:40.098848 32016 net.cpp:399] InnerProduct44 -> InnerProduct44
I0726 10:04:40.101550 32016 net.cpp:141] Setting up InnerProduct44
I0726 10:04:40.101570 32016 net.cpp:148] Top shape: 128 500 (64000)
I0726 10:04:40.101578 32016 net.cpp:156] Memory required for data: 2007016960
I0726 10:04:40.101593 32016 net.cpp:484] Sharing parameters 'ip2_w' owned by layer 'InnerProduct2', param index 0
I0726 10:04:40.101603 32016 net.cpp:484] Sharing parameters 'ip2_b' owned by layer 'InnerProduct2', param index 1
I0726 10:04:40.101611 32016 layer_factory.hpp:77] Creating layer Convolution31
I0726 10:04:40.101629 32016 net.cpp:91] Creating Layer Convolution31
I0726 10:04:40.101639 32016 net.cpp:425] Convolution31 <- c27
I0726 10:04:40.101666 32016 net.cpp:399] Convolution31 -> Convolution31
I0726 10:04:40.102067 32016 net.cpp:141] Setting up Convolution31
I0726 10:04:40.102082 32016 net.cpp:148] Top shape: 128 20 60 60 (9216000)
I0726 10:04:40.102089 32016 net.cpp:156] Memory required for data: 2043880960
I0726 10:04:40.102097 32016 net.cpp:484] Sharing parameters 'conv1_w' owned by layer 'Convolution1', param index 0
I0726 10:04:40.102129 32016 net.cpp:484] Sharing parameters 'conv1_b' owned by layer 'Convolution1', param index 1
I0726 10:04:40.102138 32016 layer_factory.hpp:77] Creating layer Pooling31
I0726 10:04:40.102149 32016 net.cpp:91] Creating Layer Pooling31
I0726 10:04:40.102157 32016 net.cpp:425] Pooling31 <- Convolution31
I0726 10:04:40.102174 32016 net.cpp:399] Pooling31 -> Pooling31
I0726 10:04:40.102236 32016 net.cpp:141] Setting up Pooling31
I0726 10:04:40.102252 32016 net.cpp:148] Top shape: 128 20 30 30 (2304000)
I0726 10:04:40.102258 32016 net.cpp:156] Memory required for data: 2053096960
I0726 10:04:40.102265 32016 layer_factory.hpp:77] Creating layer Convolution32
I0726 10:04:40.102288 32016 net.cpp:91] Creating Layer Convolution32
I0726 10:04:40.102296 32016 net.cpp:425] Convolution32 <- Pooling31
I0726 10:04:40.102309 32016 net.cpp:399] Convolution32 -> Convolution32
I0726 10:04:40.102891 32016 net.cpp:141] Setting up Convolution32
I0726 10:04:40.102905 32016 net.cpp:148] Top shape: 128 50 26 26 (4326400)
I0726 10:04:40.102913 32016 net.cpp:156] Memory required for data: 2070402560
I0726 10:04:40.102922 32016 net.cpp:484] Sharing parameters 'conv2_w' owned by layer 'Convolution2', param index 0
I0726 10:04:40.102931 32016 net.cpp:484] Sharing parameters 'conv2_b' owned by layer 'Convolution2', param index 1
I0726 10:04:40.102938 32016 layer_factory.hpp:77] Creating layer Pooling32
I0726 10:04:40.102948 32016 net.cpp:91] Creating Layer Pooling32
I0726 10:04:40.102957 32016 net.cpp:425] Pooling32 <- Convolution32
I0726 10:04:40.102967 32016 net.cpp:399] Pooling32 -> Pooling32
I0726 10:04:40.103039 32016 net.cpp:141] Setting up Pooling32
I0726 10:04:40.103051 32016 net.cpp:148] Top shape: 128 50 13 13 (1081600)
I0726 10:04:40.103066 32016 net.cpp:156] Memory required for data: 2074728960
I0726 10:04:40.103080 32016 layer_factory.hpp:77] Creating layer InnerProduct45
I0726 10:04:40.103096 32016 net.cpp:91] Creating Layer InnerProduct45
I0726 10:04:40.103106 32016 net.cpp:425] InnerProduct45 <- Pooling32
I0726 10:04:40.103126 32016 net.cpp:399] InnerProduct45 -> InnerProduct45
I0726 10:04:40.145563 32016 net.cpp:141] Setting up InnerProduct45
I0726 10:04:40.145607 32016 net.cpp:148] Top shape: 128 500 (64000)
I0726 10:04:40.145617 32016 net.cpp:156] Memory required for data: 2074984960
I0726 10:04:40.145638 32016 net.cpp:484] Sharing parameters 'ip1_w' owned by layer 'InnerProduct1', param index 0
I0726 10:04:40.145649 32016 net.cpp:484] Sharing parameters 'ip1_b' owned by layer 'InnerProduct1', param index 1
I0726 10:04:40.145658 32016 layer_factory.hpp:77] Creating layer ReLU30
I0726 10:04:40.145673 32016 net.cpp:91] Creating Layer ReLU30
I0726 10:04:40.145684 32016 net.cpp:425] ReLU30 <- InnerProduct45
I0726 10:04:40.145720 32016 net.cpp:386] ReLU30 -> InnerProduct45 (in-place)
I0726 10:04:40.145745 32016 net.cpp:141] Setting up ReLU30
…
I0726 10:04:43.358958 32016 net.cpp:484] Sharing parameters 'ip1_w' owned by layer 'InnerProduct1', param index 0
I0726 10:04:43.358968 32016 net.cpp:484] Sharing parameters 'ip1_b' owned by layer 'InnerProduct1', param index 1
I0726 10:04:43.358976 32016 layer_factory.hpp:77] Creating layer ReLU61
I0726 10:04:43.358991 32016 net.cpp:91] Creating Layer ReLU61
I0726 10:04:43.359004 32016 net.cpp:425] ReLU61 <- InnerProduct91
I0726 10:04:43.359028 32016 net.cpp:386] ReLU61 -> InnerProduct91 (in-place)
I0726 10:04:43.359046 32016 net.cpp:141] Setting up ReLU61
I0726 10:04:43.359062 32016 net.cpp:148] Top shape: 100 500 (50000)
I0726 10:04:43.359071 32016 net.cpp:156] Memory required for data: 2433542000
I0726 10:04:43.359078 32016 layer_factory.hpp:77] Creating layer InnerProduct92
I0726 10:04:43.359091 32016 net.cpp:91] Creating Layer InnerProduct92
I0726 10:04:43.359100 32016 net.cpp:425] InnerProduct92 <- InnerProduct91
I0726 10:04:43.359117 32016 net.cpp:399] InnerProduct92 -> InnerProduct92
I0726 10:04:43.362062 32016 net.cpp:141] Setting up InnerProduct92
I0726 10:04:43.362085 32016 net.cpp:148] Top shape: 100 500 (50000)
I0726 10:04:43.362093 32016 net.cpp:156] Memory required for data: 2433742000
I0726 10:04:43.362104 32016 net.cpp:484] Sharing parameters 'ip2_w' owned by layer 'InnerProduct2', param index 0
I0726 10:04:43.362113 32016 net.cpp:484] Sharing parameters 'ip2_b' owned by layer 'InnerProduct2', param index 1
I0726 10:04:43.362123 32016 layer_factory.hpp:77] Creating layer Convolution63
I0726 10:04:43.362141 32016 net.cpp:91] Creating Layer Convolution63
I0726 10:04:43.362151 32016 net.cpp:425] Convolution63 <- c16
I0726 10:04:43.362170 32016 net.cpp:399] Convolution63 -> Convolution63
I0726 10:04:43.362659 32016 net.cpp:141] Setting up Convolution63
I0726 10:04:43.362674 32016 net.cpp:148] Top shape: 100 20 60 60 (7200000)
I0726 10:04:43.362705 32016 net.cpp:156] Memory required for data: 2462542000
I0726 10:04:43.362715 32016 net.cpp:484] Sharing parameters 'conv1_w' owned by layer 'Convolution1', param index 0
I0726 10:04:43.362723 32016 net.cpp:484] Sharing parameters 'conv1_b' owned by layer 'Convolution1', param index 1
I0726 10:04:43.362731 32016 layer_factory.hpp:77] Creating layer Pooling63
I0726 10:04:43.362751 32016 net.cpp:91] Creating Layer Pooling63
I0726 10:04:43.362759 32016 net.cpp:425] Pooling63 <- Convolution63
I0726 10:04:43.362771 32016 net.cpp:399] Pooling63 -> Pooling63
I0726 10:04:43.362848 32016 net.cpp:141] Setting up Pooling63
I0726 10:04:43.362861 32016 net.cpp:148] Top shape: 100 20 30 30 (1800000)
I0726 10:04:43.362869 32016 net.cpp:156] Memory required for data: 2469742000
I0726 10:04:43.362876 32016 layer_factory.hpp:77] Creating layer Convolution64
I0726 10:04:43.362895 32016 net.cpp:91] Creating Layer Convolution64
I0726 10:04:43.362903 32016 net.cpp:425] Convolution64 <- Pooling63
I0726 10:04:43.362916 32016 net.cpp:399] Convolution64 -> Convolution64
I0726 10:04:43.363590 32016 net.cpp:141] Setting up Convolution64
I0726 10:04:43.363605 32016 net.cpp:148] Top shape: 100 50 26 26 (3380000)
I0726 10:04:43.363613 32016 net.cpp:156] Memory required for data: 2483262000
I0726 10:04:43.363621 32016 net.cpp:484] Sharing parameters 'conv2_w' owned by layer 'Convolution2', param index 0
I0726 10:04:43.363631 32016 net.cpp:484] Sharing parameters 'conv2_b' owned by layer 'Convolution2', param index 1
I0726 10:04:43.363638 32016 layer_factory.hpp:77] Creating layer Pooling64
I0726 10:04:43.363649 32016 net.cpp:91] Creating Layer Pooling64
I0726 10:04:43.363657 32016 net.cpp:425] Pooling64 <- Convolution64
I0726 10:04:43.363669 32016 net.cpp:399] Pooling64 -> Pooling64
I0726 10:04:43.363744 32016 net.cpp:141] Setting up Pooling64
I0726 10:04:43.363759 32016 net.cpp:148] Top shape: 100 50 13 13 (845000)
I0726 10:04:43.363766 32016 net.cpp:156] Memory required for data: 2486642000
I0726 10:04:43.363775 32016 layer_factory.hpp:77] Creating layer InnerProduct93
I0726 10:04:43.363790 32016 net.cpp:91] Creating Layer InnerProduct93
I0726 10:04:43.363798 32016 net.cpp:425] InnerProduct93 <- Pooling64
I0726 10:04:43.363814 32016 net.cpp:399] InnerProduct93 -> InnerProduct93
I0726 10:04:43.406946 32016 net.cpp:141] Setting up InnerProduct93
I0726 10:04:43.406990 32016 net.cpp:148] Top shape: 100 500 (50000)
I0726 10:04:43.406998 32016 net.cpp:156] Memory required for data: 2486842000
I0726 10:04:43.407021 32016 net.cpp:484] Sharing parameters 'ip1_w' owned by layer 'InnerProduct1', param index 0
I0726 10:04:43.407032 32016 net.cpp:484] Sharing parameters 'ip1_b' owned by layer 'InnerProduct1', param index 1
I0726 10:04:43.407039 32016 layer_factory.hpp:77] Creating layer ReLU62
I0726 10:04:43.407060 32016 net.cpp:91] Creating Layer ReLU62
I0726 10:04:43.407083 32016 net.cpp:425] ReLU62 <- InnerProduct93
I0726 10:04:43.407106 32016 net.cpp:386] ReLU62 -> InnerProduct93 (in-place)
I0726 10:04:43.407124 32016 net.cpp:141] Setting up ReLU62
I0726 10:04:43.407135 32016 net.cpp:148] Top shape: 100 500 (50000)
I0726 10:04:43.407141 32016 net.cpp:156] Memory required for data: 2487042000
I0726 10:04:43.407150 32016 layer_factory.hpp:77] Creating layer InnerProduct94
I0726 10:04:43.407163 32016 net.cpp:91] Creating Layer InnerProduct94
I0726 10:04:43.407171 32016 net.cpp:425] InnerProduct94 <- InnerProduct93
I0726 10:04:43.407187 32016 net.cpp:399] InnerProduct94 -> InnerProduct94
I0726 10:04:43.410043 32016 net.cpp:141] Setting up InnerProduct94
I0726 10:04:43.410064 32016 net.cpp:148] Top shape: 100 500 (50000)
I0726 10:04:43.410079 32016 net.cpp:156] Memory required for data: 2487242000
I0726 10:04:43.410089 32016 net.cpp:484] Sharing parameters 'ip2_w' owned by layer 'InnerProduct2', param index 0
I0726 10:04:43.410099 32016 net.cpp:484] Sharing parameters 'ip2_b' owned by layer 'InnerProduct2', param index 1
I0726 10:04:43.410107 32016 layer_factory.hpp:77] Creating layer Concat16
I0726 10:04:43.410123 32016 net.cpp:91] Creating Layer Concat16
I0726 10:04:43.410156 32016 net.cpp:425] Concat16 <- InnerProduct92
I0726 10:04:43.410168 32016 net.cpp:425] Concat16 <- InnerProduct94
I0726 10:04:43.410182 32016 net.cpp:399] Concat16 -> Concat16
I0726 10:04:43.410233 32016 net.cpp:141] Setting up Concat16
I0726 10:04:43.410246 32016 net.cpp:148] Top shape: 100 1000 (100000)
I0726 10:04:43.410254 32016 net.cpp:156] Memory required for data: 2487642000
I0726 10:04:43.410261 32016 layer_factory.hpp:77] Creating layer InnerProduct95
I0726 10:04:43.410274 32016 net.cpp:91] Creating Layer InnerProduct95
I0726 10:04:43.410282 32016 net.cpp:425] InnerProduct95 <- Concat16
I0726 10:04:43.410298 32016 net.cpp:399] InnerProduct95 -> InnerProduct95
I0726 10:04:43.415479 32016 net.cpp:141] Setting up InnerProduct95
I0726 10:04:43.415503 32016 net.cpp:148] Top shape: 100 512 (51200)
I0726 10:04:43.415511 32016 net.cpp:156] Memory required for data: 2487846800
I0726 10:04:43.415521 32016 net.cpp:484] Sharing parameters 'fc1_w' owned by layer 'InnerProduct5', param index 0
I0726 10:04:43.415531 32016 net.cpp:484] Sharing parameters 'fc1_b' owned by layer 'InnerProduct5', param index 1
I0726 10:04:43.415540 32016 layer_factory.hpp:77] Creating layer ReLU63
I0726 10:04:43.415551 32016 net.cpp:91] Creating Layer ReLU63
I0726 10:04:43.415561 32016 net.cpp:425] ReLU63 <- InnerProduct95
I0726 10:04:43.415573 32016 net.cpp:386] ReLU63 -> InnerProduct95 (in-place)
I0726 10:04:43.415586 32016 net.cpp:141] Setting up ReLU63
I0726 10:04:43.415596 32016 net.cpp:148] Top shape: 100 512 (51200)
I0726 10:04:43.415604 32016 net.cpp:156] Memory required for data: 2488051600
I0726 10:04:43.415611 32016 layer_factory.hpp:77] Creating layer InnerProduct96
I0726 10:04:43.415627 32016 net.cpp:91] Creating Layer InnerProduct96
I0726 10:04:43.415635 32016 net.cpp:425] InnerProduct96 <- InnerProduct95
I0726 10:04:43.415650 32016 net.cpp:399] InnerProduct96 -> InnerProduct96
I0726 10:04:43.418473 32016 net.cpp:141] Setting up InnerProduct96
I0726 10:04:43.418493 32016 net.cpp:148] Top shape: 100 512 (51200)
I0726 10:04:43.418501 32016 net.cpp:156] Memory required for data: 2488256400
I0726 10:04:43.418510 32016 net.cpp:484] Sharing parameters 'fc2_w' owned by layer 'InnerProduct6', param index 0
I0726 10:04:43.418520 32016 net.cpp:484] Sharing parameters 'fc2_b' owned by layer 'InnerProduct6', param index 1
I0726 10:04:43.418529 32016 layer_factory.hpp:77] Creating layer ReLU64
I0726 10:04:43.418540 32016 net.cpp:91] Creating Layer ReLU64
I0726 10:04:43.418548 32016 net.cpp:425] ReLU64 <- InnerProduct96
I0726 10:04:43.418560 32016 net.cpp:386] ReLU64 -> InnerProduct96 (in-place)
I0726 10:04:43.418573 32016 net.cpp:141] Setting up ReLU64
I0726 10:04:43.418583 32016 net.cpp:148] Top shape: 100 512 (51200)
I0726 10:04:43.418591 32016 net.cpp:156] Memory required for data: 2488461200
I0726 10:04:43.418598 32016 layer_factory.hpp:77] Creating layer dt15
I0726 10:04:43.418613 32016 net.cpp:91] Creating Layer dt15
I0726 10:04:43.418622 32016 net.cpp:425] dt15 <- InnerProduct96
I0726 10:04:43.418637 32016 net.cpp:399] dt15 -> dt15
I0726 10:04:43.418833 32016 net.cpp:141] Setting up dt15
I0726 10:04:43.418848 32016 net.cpp:148] Top shape: 100 2 (200)
I0726 10:04:43.418854 32016 net.cpp:156] Memory required for data: 2488462000
I0726 10:04:43.418864 32016 net.cpp:484] Sharing parameters 'fc3_w' owned by layer 'dt0', param index 0
I0726 10:04:43.418872 32016 net.cpp:484] Sharing parameters 'fc3_b' owned by layer 'dt0', param index 1
I0726 10:04:43.418880 32016 layer_factory.hpp:77] Creating layer Convolution65
I0726 10:04:43.418896 32016 net.cpp:91] Creating Layer Convolution65
I0726 10:04:43.418906 32016 net.cpp:425] Convolution65 <- p2_p2_0_split_7
I0726 10:04:43.418925 32016 net.cpp:399] Convolution65 -> Convolution65
I0726 10:04:43.419486 32016 net.cpp:141] Setting up Convolution65
I0726 10:04:43.419538 32016 net.cpp:148] Top shape: 100 20 60 60 (7200000)
I0726 10:04:43.419564 32016 net.cpp:156] Memory required for data: 2517262000
I0726 10:04:43.419601 32016 net.cpp:484] Sharing parameters 'conv1_w' owned by layer 'Convolution1', param index 0
I0726 10:04:43.419651 32016 net.cpp:484] Sharing parameters 'conv1_b' owned by layer 'Convolution1', param index 1
I0726 10:04:43.419682 32016 layer_factory.hpp:77] Creating layer Pooling65
I0726 10:04:43.419713 32016 net.cpp:91] Creating Layer Pooling65
I0726 10:04:43.419742 32016 net.cpp:425] Pooling65 <- Convolution65
I0726 10:04:43.419781 32016 net.cpp:399] Pooling65 -> Pooling65
I0726 10:04:43.419898 32016 net.cpp:141] Setting up Pooling65
I0726 10:04:43.419930 32016 net.cpp:148] Top shape: 100 20 30 30 (1800000)
I0726 10:04:43.419961 32016 net.cpp:156] Memory required for data: 2524462000
I0726 10:04:43.419991 32016 layer_factory.hpp:77] Creating layer Convolution66
I0726 10:04:43.420038 32016 net.cpp:91] Creating Layer Convolution66
I0726 10:04:43.420073 32016 net.cpp:425] Convolution66 <- Pooling65
I0726 10:04:43.420107 32016 net.cpp:399] Convolution66 -> Convolution66
I0726 10:04:43.420828 32016 net.cpp:141] Setting up Convolution66
I0726 10:04:43.420845 32016 net.cpp:148] Top shape: 100 50 26 26 (3380000)
I0726 10:04:43.420850 32016 net.cpp:156] Memory required for data: 2537982000
I0726 10:04:43.420857 32016 net.cpp:484] Sharing parameters 'conv2_w' owned by layer 'Convolution2', param index 0
I0726 10:04:43.420864 32016 net.cpp:484] Sharing parameters 'conv2_b' owned by layer 'Convolution2', param index 1
I0726 10:04:43.420871 32016 layer_factory.hpp:77] Creating layer Pooling66
I0726 10:04:43.420879 32016 net.cpp:91] Creating Layer Pooling66
I0726 10:04:43.420886 32016 net.cpp:425] Pooling66 <- Convolution66
I0726 10:04:43.420895 32016 net.cpp:399] Pooling66 -> Pooling66
I0726 10:04:43.420961 32016 net.cpp:141] Setting up Pooling66
I0726 10:04:43.420972 32016 net.cpp:148] Top shape: 100 50 13 13 (845000)
I0726 10:04:43.420977 32016 net.cpp:156] Memory required for data: 2541362000
I0726 10:04:43.420984 32016 layer_factory.hpp:77] Creating layer InnerProduct97
I0726 10:04:43.420992 32016 net.cpp:91] Creating Layer InnerProduct97
I0726 10:04:43.420999 32016 net.cpp:425] InnerProduct97 <- Pooling66
I0726 10:04:43.421010 32016 net.cpp:399] InnerProduct97 -> InnerProduct97
I0726 10:04:43.472483 32016 net.cpp:141] Setting up InnerProduct97
I0726 10:04:43.472543 32016 net.cpp:148] Top shape: 100 500 (50000)
I0726 10:04:43.472548 32016 net.cpp:156] Memory required for data: 2541562000
I0726 10:04:43.472559 32016 net.cpp:484] Sharing parameters 'ip1_w' owned by layer 'InnerProduct1', param index 0
I0726 10:04:43.472568 32016 net.cpp:484] Sharing parameters 'ip1_b' owned by layer 'InnerProduct1', param index 1
I0726 10:04:43.472575 32016 layer_factory.hpp:77] Creating layer ReLU65
I0726 10:04:43.472599 32016 net.cpp:91] Creating Layer ReLU65
I0726 10:04:43.472609 32016 net.cpp:425] ReLU65 <- InnerProduct97
I0726 10:04:43.472620 32016 net.cpp:386] ReLU65 -> InnerProduct97 (in-place)
I0726 10:04:43.472632 32016 net.cpp:141] Setting up ReLU65
I0726 10:04:43.472640 32016 net.cpp:148] Top shape: 100 500 (50000)
I0726 10:04:43.472645 32016 net.cpp:156] Memory required for data: 2541762000
I0726 10:04:43.472651 32016 layer_factory.hpp:77] Creating layer InnerProduct98
I0726 10:04:43.472662 32016 net.cpp:91] Creating Layer InnerProduct98
I0726 10:04:43.472668 32016 net.cpp:425] InnerProduct98 <- InnerProduct97
I0726 10:04:43.472681 32016 net.cpp:399] InnerProduct98 -> InnerProduct98
I0726 10:04:43.475494 32016 net.cpp:141] Setting up InnerProduct98
I0726 10:04:43.475522 32016 net.cpp:148] Top shape: 100 500 (50000)
I0726 10:04:43.475528 32016 net.cpp:156] Memory required for data: 2541962000
I0726 10:04:43.475535 32016 net.cpp:484] Sharing parameters 'ip2_w' owned by layer 'InnerProduct2', param index 0
I0726 10:04:43.475543 32016 net.cpp:484] Sharing parameters 'ip2_b' owned by layer 'InnerProduct2', param index 1
I0726 10:04:43.475548 32016 layer_factory.hpp:77] Creating layer Convolution67
I0726 10:04:43.475566 32016 net.cpp:91] Creating Layer Convolution67
I0726 10:04:43.475584 32016 net.cpp:425] Convolution67 <- c17
I0726 10:04:43.475599 32016 net.cpp:399] Convolution67 -> Convolution67
I0726 10:04:43.476115 32016 net.cpp:141] Setting up Convolution67
I0726 10:04:43.476127 32016 net.cpp:148] Top shape: 100 20 60 60 (7200000)
I0726 10:04:43.476133 32016 net.cpp:156] Memory required for data: 2570762000
I0726 10:04:43.476140 32016 net.cpp:484] Sharing parameters 'conv1_w' owned by layer 'Convolution1', param index 0
I0726 10:04:43.476147 32016 net.cpp:484] Sharing parameters 'conv1_b' owned by layer 'Convolution1', param index 1
I0726 10:04:43.476153 32016 layer_factory.hpp:77] Creating layer Pooling67
I0726 10:04:43.476162 32016 net.cpp:91] Creating Layer Pooling67
I0726 10:04:43.476169 32016 net.cpp:425] Pooling67 <- Convolution67
I0726 10:04:43.476181 32016 net.cpp:399] Pooling67 -> Pooling67
I0726 10:04:43.476245 32016 net.cpp:141] Setting up Pooling67
I0726 10:04:43.476253 32016 net.cpp:148] Top shape: 100 20 30 30 (1800000)
I0726 10:04:43.476258 32016 net.cpp:156] Memory required for data: 2577962000
I0726 10:04:43.476263 32016 layer_factory.hpp:77] Creating layer Convolution68
I0726 10:04:43.476277 32016 net.cpp:91] Creating Layer Convolution68
I0726 10:04:43.476284 32016 net.cpp:425] Convolution68 <- Pooling67
I0726 10:04:43.476295 32016 net.cpp:399] Convolution68 -> Convolution68
I0726 10:04:43.476959 32016 net.cpp:141] Setting up Convolution68
I0726 10:04:43.476981 32016 net.cpp:148] Top shape: 100 50 26 26 (3380000)
I0726 10:04:43.476987 32016 net.cpp:156] Memory required for data: 2591482000
I0726 10:04:43.476994 32016 net.cpp:484] Sharing parameters 'conv2_w' owned by layer 'Convolution2', param index 0
I0726 10:04:43.477000 32016 net.cpp:484] Sharing parameters 'conv2_b' owned by layer 'Convolution2', param index 1
I0726 10:04:43.477006 32016 layer_factory.hpp:77] Creating layer Pooling68
I0726 10:04:43.477015 32016 net.cpp:91] Creating Layer Pooling68
I0726 10:04:43.477020 32016 net.cpp:425] Pooling68 <- Convolution68
I0726 10:04:43.477032 32016 net.cpp:399] Pooling68 -> Pooling68
I0726 10:04:43.477105 32016 net.cpp:141] Setting up Pooling68
I0726 10:04:43.477156 32016 net.cpp:148] Top shape: 100 50 13 13 (845000)
I0726 10:04:43.477169 32016 net.cpp:156] Memory required for data: 2594862000
I0726 10:04:43.477174 32016 layer_factory.hpp:77] Creating layer InnerProduct99
I0726 10:04:43.477190 32016 net.cpp:91] Creating Layer InnerProduct99
I0726 10:04:43.477196 32016 net.cpp:425] InnerProduct99 <- Pooling68
I0726 10:04:43.477208 32016 net.cpp:399] InnerProduct99 -> InnerProduct99
I0726 10:04:43.528501 32016 net.cpp:141] Setting up InnerProduct99
I0726 10:04:43.528549 32016 net.cpp:148] Top shape: 100 500 (50000)
I0726 10:04:43.528556 32016 net.cpp:156] Memory required for data: 2595062000
I0726 10:04:43.528568 32016 net.cpp:484] Sharing parameters 'ip1_w' owned by layer 'InnerProduct1', param index 0
I0726 10:04:43.528575 32016 net.cpp:484] Sharing parameters 'ip1_b' owned by layer 'InnerProduct1', param index 1
I0726 10:04:43.528583 32016 layer_factory.hpp:77] Creating layer ReLU66
I0726 10:04:43.528602 32016 net.cpp:91] Creating Layer ReLU66
I0726 10:04:43.528612 32016 net.cpp:425] ReLU66 <- InnerProduct99
I0726 10:04:43.528636 32016 net.cpp:386] ReLU66 -> InnerProduct99 (in-place)
I0726 10:04:43.528650 32016 net.cpp:141] Setting up ReLU66
I0726 10:04:43.528657 32016 net.cpp:148] Top shape: 100 500 (50000)
I0726 10:04:43.528662 32016 net.cpp:156] Memory required for data: 2595262000
I0726 10:04:43.528668 32016 layer_factory.hpp:77] Creating layer InnerProduct100
I0726 10:04:43.528679 32016 net.cpp:91] Creating Layer InnerProduct100
I0726 10:04:43.528687 32016 net.cpp:425] InnerProduct100 <- InnerProduct99
I0726 10:04:43.528702 32016 net.cpp:399] InnerProduct100 -> InnerProduct100
I0726 10:04:43.531611 32016 net.cpp:141] Setting up InnerProduct100
I0726 10:04:43.531641 32016 net.cpp:148] Top shape: 100 500 (50000)
I0726 10:04:43.531646 32016 net.cpp:156] Memory required for data: 2595462000
I0726 10:04:43.531654 32016 net.cpp:484] Sharing parameters 'ip2_w' owned by layer 'InnerProduct2', param index 0
I0726 10:04:43.531661 32016 net.cpp:484] Sharing parameters 'ip2_b' owned by layer 'InnerProduct2', param index 1
I0726 10:04:43.531685 32016 layer_factory.hpp:77] Creating layer Concat17
I0726 10:04:43.531704 32016 net.cpp:91] Creating Layer Concat17
I0726 10:04:43.531711 32016 net.cpp:425] Concat17 <- InnerProduct98
I0726 10:04:43.531720 32016 net.cpp:425] Concat17 <- InnerProduct100
I0726 10:04:43.531733 32016 net.cpp:399] Concat17 -> Concat17
I0726 10:04:43.531783 32016 net.cpp:141] Setting up Concat17
I0726 10:04:43.531791 32016 net.cpp:148] Top shape: 100 1000 (100000)
I0726 10:04:43.531796 32016 net.cpp:156] Memory required for data: 2595862000
I0726 10:04:43.531802 32016 layer_factory.hpp:77] Creating layer InnerProduct101
I0726 10:04:43.531811 32016 net.cpp:91] Creating Layer InnerProduct101
I0726 10:04:43.531817 32016 net.cpp:425] InnerProduct101 <- Concat17
I0726 10:04:43.531829 32016 net.cpp:399] InnerProduct101 -> InnerProduct101
I0726 10:04:43.537014 32016 net.cpp:141] Setting up InnerProduct101
I0726 10:04:43.537045 32016 net.cpp:148] Top shape: 100 512 (51200)
I0726 10:04:43.537050 32016 net.cpp:156] Memory required for data: 2596066800
I0726 10:04:43.537057 32016 net.cpp:484] Sharing parameters 'fc1_w' owned by layer 'InnerProduct5', param index 0
I0726 10:04:43.537065 32016 net.cpp:484] Sharing parameters 'fc1_b' owned by layer 'InnerProduct5', param index 1
I0726 10:04:43.537070 32016 layer_factory.hpp:77] Creating layer ReLU67
I0726 10:04:43.537080 32016 net.cpp:91] Creating Layer ReLU67
I0726 10:04:43.537086 32016 net.cpp:425] ReLU67 <- InnerProduct101
I0726 10:04:43.537104 32016 net.cpp:386] ReLU67 -> InnerProduct101 (in-place)
I0726 10:04:43.537116 32016 net.cpp:141] Setting up ReLU67
I0726 10:04:43.537122 32016 net.cpp:148] Top shape: 100 512 (51200)
I0726 10:04:43.537128 32016 net.cpp:156] Memory required for data: 2596271600
I0726 10:04:43.537133 32016 layer_factory.hpp:77] Creating layer InnerProduct102
I0726 10:04:43.537143 32016 net.cpp:91] Creating Layer InnerProduct102
I0726 10:04:43.537149 32016 net.cpp:425] InnerProduct102 <- InnerProduct101
I0726 10:04:43.537160 32016 net.cpp:399] InnerProduct102 -> InnerProduct102
I0726 10:04:43.540128 32016 net.cpp:141] Setting up InnerProduct102
I0726 10:04:43.540161 32016 net.cpp:148] Top shape: 100 512 (51200)
I0726 10:04:43.540169 32016 net.cpp:156] Memory required for data: 2596476400
I0726 10:04:43.540177 32016 net.cpp:484] Sharing parameters 'fc2_w' owned by layer 'InnerProduct6', param index 0
I0726 10:04:43.540186 32016 net.cpp:484] Sharing parameters 'fc2_b' owned by layer 'InnerProduct6', param index 1
I0726 10:04:43.540194 32016 layer_factory.hpp:77] Creating layer ReLU68
I0726 10:04:43.540205 32016 net.cpp:91] Creating Layer ReLU68
I0726 10:04:43.540220 32016 net.cpp:425] ReLU68 <- InnerProduct102
I0726 10:04:43.540230 32016 net.cpp:386] ReLU68 -> InnerProduct102 (in-place)
I0726 10:04:43.540242 32016 net.cpp:141] Setting up ReLU68
I0726 10:04:43.540251 32016 net.cpp:148] Top shape: 100 512 (51200)
I0726 10:04:43.540257 32016 net.cpp:156] Memory required for data: 2596681200
I0726 10:04:43.540263 32016 layer_factory.hpp:77] Creating layer dt16
I0726 10:04:43.540274 32016 net.cpp:91] Creating Layer dt16
I0726 10:04:43.540280 32016 net.cpp:425] dt16 <- InnerProduct102
I0726 10:04:43.540299 32016 net.cpp:399] dt16 -> dt16
I0726 10:04:43.540580 32016 net.cpp:141] Setting up dt16
I0726 10:04:43.540637 32016 net.cpp:148] Top shape: 100 2 (200)
I0726 10:04:43.540666 32016 net.cpp:156] Memory required for data: 2596682000
I0726 10:04:43.540695 32016 net.cpp:484] Sharing parameters 'fc3_w' owned by layer 'dt0', param index 0
I0726 10:04:43.540725 32016 net.cpp:484] Sharing parameters 'fc3_b' owned by layer 'dt0', param index 1
I0726 10:04:43.540755 32016 layer_factory.hpp:77] Creating layer Convolution69
I0726 10:04:43.540796 32016 net.cpp:91] Creating Layer Convolution69
I0726 10:04:43.540827 32016 net.cpp:425] Convolution69 <- p2_p2_0_split_8
I0726 10:04:43.540863 32016 net.cpp:399] Convolution69 -> Convolution69
I0726 10:04:43.541508 32016 net.cpp:141] Setting up Convolution69
I0726 10:04:43.541528 32016 net.cpp:148] Top shape: 100 20 60 60 (7200000)
I0726 10:04:43.541577 32016 net.cpp:156] Memory required for data: 2625482000
I0726 10:04:43.541607 32016 net.cpp:484] Sharing parameters 'conv1_w' owned by layer 'Convolution1', param index 0
I0726 10:04:43.541636 32016 net.cpp:484] Sharing parameters 'conv1_b' owned by layer 'Convolution1', param index 1
I0726 10:04:43.541664 32016 layer_factory.hpp:77] Creating layer Pooling69
I0726 10:04:43.541704 32016 net.cpp:91] Creating Layer Pooling69
I0726 10:04:43.541733 32016 net.cpp:425] Pooling69 <- Convolution69
I0726 10:04:43.541766 32016 net.cpp:399] Pooling69 -> Pooling69
I0726 10:04:43.541875 32016 net.cpp:141] Setting up Pooling69
I0726 10:04:43.541892 32016 net.cpp:148] Top shape: 100 20 30 30 (1800000)
I0726 10:04:43.541898 32016 net.cpp:156] Memory required for data: 2632682000
I0726 10:04:43.541905 32016 layer_factory.hpp:77] Creating layer Convolution70
I0726 10:04:43.541923 32016 net.cpp:91] Creating Layer Convolution70
I0726 10:04:43.541955 32016 net.cpp:425] Convolution70 <- Pooling69
I0726 10:04:43.541996 32016 net.cpp:399] Convolution70 -> Convolution70
I0726 10:04:43.542799 32016 net.cpp:141] Setting up Convolution70
I0726 10:04:43.542816 32016 net.cpp:148] Top shape: 100 50 26 26 (3380000)
I0726 10:04:43.542824 32016 net.cpp:156] Memory required for data: 2646202000
I0726 10:04:43.542832 32016 net.cpp:484] Sharing parameters 'conv2_w' owned by layer 'Convolution2', param index 0
I0726 10:04:43.542866 32016 net.cpp:484] Sharing parameters 'conv2_b' owned by layer 'Convolution2', param index 1
I0726 10:04:43.542896 32016 layer_factory.hpp:77] Creating layer Pooling70
I0726 10:04:43.542927 32016 net.cpp:91] Creating Layer Pooling70
I0726 10:04:43.542954 32016 net.cpp:425] Pooling70 <- Convolution70
I0726 10:04:43.542985 32016 net.cpp:399] Pooling70 -> Pooling70
I0726 10:04:43.543117 32016 net.cpp:141] Setting up Pooling70
I0726 10:04:43.543131 32016 net.cpp:148] Top shape: 100 50 13 13 (845000)
I0726 10:04:43.543139 32016 net.cpp:156] Memory required for data: 2649582000
I0726 10:04:43.543146 32016 layer_factory.hpp:77] Creating layer InnerProduct103
I0726 10:04:43.543159 32016 net.cpp:91] Creating Layer InnerProduct103
I0726 10:04:43.543190 32016 net.cpp:425] InnerProduct103 <- Pooling70
I0726 10:04:43.543225 32016 net.cpp:399] InnerProduct103 -> InnerProduct103
I0726 10:04:43.586557 32016 net.cpp:141] Setting up InnerProduct103
I0726 10:04:43.586597 32016 net.cpp:148] Top shape: 100 500 (50000)
I0726 10:04:43.586606 32016 net.cpp:156] Memory required for data: 2649782000
I0726 10:04:43.586621 32016 net.cpp:484] Sharing parameters 'ip1_w' owned by layer 'InnerProduct1', param index 0
I0726 10:04:43.586642 32016 net.cpp:484] Sharing parameters 'ip1_b' owned by layer 'InnerProduct1', param index 1
I0726 10:04:43.586681 32016 layer_factory.hpp:77] Creating layer ReLU69
I0726 10:04:43.586726 32016 net.cpp:91] Creating Layer ReLU69
I0726 10:04:43.586765 32016 net.cpp:425] ReLU69 <- InnerProduct103
I0726 10:04:43.586802 32016 net.cpp:386] ReLU69 -> InnerProduct103 (in-place)
I0726 10:04:43.586823 32016 net.cpp:141] Setting up ReLU69
I0726 10:04:43.586832 32016 net.cpp:148] Top shape: 100 500 (50000)
I0726 10:04:43.586838 32016 net.cpp:156] Memory required for data: 2649982000
I0726 10:04:43.586843 32016 layer_factory.hpp:77] Creating layer InnerProduct104
I0726 10:04:43.586854 32016 net.cpp:91] Creating Layer InnerProduct104
I0726 10:04:43.586861 32016 net.cpp:425] InnerProduct104 <- InnerProduct103
I0726 10:04:43.586874 32016 net.cpp:399] InnerProduct104 -> InnerProduct104
I0726 10:04:43.590620 32016 net.cpp:141] Setting up InnerProduct104
I0726 10:04:43.590677 32016 net.cpp:148] Top shape: 100 500 (50000)
I0726 10:04:43.590703 32016 net.cpp:156] Memory required for data: 2650182000
I0726 10:04:43.590734 32016 net.cpp:484] Sharing parameters 'ip2_w' owned by layer 'InnerProduct2', param index 0
I0726 10:04:43.590764 32016 net.cpp:484] Sharing parameters 'ip2_b' owned by layer 'InnerProduct2', param index 1
I0726 10:04:43.590804 32016 layer_factory.hpp:77] Creating layer Convolution71
I0726 10:04:43.590865 32016 net.cpp:91] Creating Layer Convolution71
I0726 10:04:43.590896 32016 net.cpp:425] Convolution71 <- c18
I0726 10:04:43.590939 32016 net.cpp:399] Convolution71 -> Convolution71
I0726 10:04:43.607733 32016 net.cpp:141] Setting up Convolution71
I0726 10:04:43.607779 32016 net.cpp:148] Top shape: 100 20 60 60 (7200000)
I0726 10:04:43.607786 32016 net.cpp:156] Memory required for data: 2678982000
I0726 10:04:43.607800 32016 net.cpp:484] Sharing parameters 'conv1_w' owned by layer 'Convolution1', param index 0
I0726 10:04:43.607812 32016 net.cpp:484] Sharing parameters 'conv1_b' owned by layer 'Convolution1', param index 1
I0726 10:04:43.607821 32016 layer_factory.hpp:77] Creating layer Pooling71
I0726 10:04:43.607839 32016 net.cpp:91] Creating Layer Pooling71
I0726 10:04:43.607882 32016 net.cpp:425] Pooling71 <- Convolution71
I0726 10:04:43.607923 32016 net.cpp:399] Pooling71 -> Pooling71
I0726 10:04:43.608026 32016 net.cpp:141] Setting up Pooling71
I0726 10:04:43.608039 32016 net.cpp:148] Top shape: 100 20 30 30 (1800000)
I0726 10:04:43.608047 32016 net.cpp:156] Memory required for data: 2686182000
I0726 10:04:43.608052 32016 layer_factory.hpp:77] Creating layer Convolution72
I0726 10:04:43.608069 32016 net.cpp:91] Creating Layer Convolution72
I0726 10:04:43.608077 32016 net.cpp:425] Convolution72 <- Pooling71
I0726 10:04:43.608088 32016 net.cpp:399] Convolution72 -> Convolution72
I0726 10:04:43.608685 32016 net.cpp:141] Setting up Convolution72
I0726 10:04:43.608695 32016 net.cpp:148] Top shape: 100 50 26 26 (3380000)
I0726 10:04:43.608701 32016 net.cpp:156] Memory required for data: 2699702000
I0726 10:04:43.608711 32016 net.cpp:484] Sharing parameters 'conv2_w' owned by layer 'Convolution2', param index 0
I0726 10:04:43.608718 32016 net.cpp:484] Sharing parameters 'conv2_b' owned by layer 'Convolution2', param index 1
I0726 10:04:43.608724 32016 layer_factory.hpp:77] Creating layer Pooling72
I0726 10:04:43.608736 32016 net.cpp:91] Creating Layer Pooling72
I0726 10:04:43.608741 32016 net.cpp:425] Pooling72 <- Convolution72
I0726 10:04:43.608750 32016 net.cpp:399] Pooling72 -> Pooling72
I0726 10:04:43.608810 32016 net.cpp:141] Setting up Pooling72
I0726 10:04:43.608824 32016 net.cpp:148] Top shape: 100 50 13 13 (845000)
I0726 10:04:43.608830 32016 net.cpp:156] Memory required for data: 2703082000
I0726 10:04:43.608835 32016 layer_factory.hpp:77] Creating layer InnerProduct105
I0726 10:04:43.608846 32016 net.cpp:91] Creating Layer InnerProduct105
I0726 10:04:43.608853 32016 net.cpp:425] InnerProduct105 <- Pooling72
I0726 10:04:43.608865 32016 net.cpp:399] InnerProduct105 -> InnerProduct105
I0726 10:04:43.651630 32016 net.cpp:141] Setting up InnerProduct105
I0726 10:04:43.651681 32016 net.cpp:148] Top shape: 100 500 (50000)
I0726 10:04:43.651687 32016 net.cpp:156] Memory required for data: 2703282000
I0726 10:04:43.651698 32016 net.cpp:484] Sharing parameters 'ip1_w' owned by layer 'InnerProduct1', param index 0
I0726 10:04:43.651707 32016 net.cpp:484] Sharing parameters 'ip1_b' owned by layer 'InnerProduct1', param index 1
I0726 10:04:43.651715 32016 layer_factory.hpp:77] Creating layer ReLU70
I0726 10:04:43.651737 32016 net.cpp:91] Creating Layer ReLU70
I0726 10:04:43.651747 32016 net.cpp:425] ReLU70 <- InnerProduct105
I0726 10:04:43.651757 32016 net.cpp:386] ReLU70 -> InnerProduct105 (in-place)
I0726 10:04:43.651772 32016 net.cpp:141] Setting up ReLU70
I0726 10:04:43.651778 32016 net.cpp:148] Top shape: 100 500 (50000)
I0726 10:04:43.651783 32016 net.cpp:156] Memory required for data: 2703482000
I0726 10:04:43.651789 32016 layer_factory.hpp:77] Creating layer InnerProduct106
I0726 10:04:43.651803 32016 net.cpp:91] Creating Layer InnerProduct106
I0726 10:04:43.651809 32016 net.cpp:425] InnerProduct106 <- InnerProduct105
I0726 10:04:43.651819 32016 net.cpp:399] InnerProduct106 -> InnerProduct106
I0726 10:04:43.655858 32016 net.cpp:141] Setting up InnerProduct106
I0726 10:04:43.655879 32016 net.cpp:148] Top shape: 100 500 (50000)
I0726 10:04:43.655884 32016 net.cpp:156] Memory required for data: 2703682000
I0726 10:04:43.655915 32016 net.cpp:484] Sharing parameters 'ip2_w' owned by layer 'InnerProduct2', param index 0
I0726 10:04:43.655922 32016 net.cpp:484] Sharing parameters 'ip2_b' owned by layer 'InnerProduct2', param index 1
I0726 10:04:43.655930 32016 layer_factory.hpp:77] Creating layer Concat18
I0726 10:04:43.655939 32016 net.cpp:91] Creating Layer Concat18
I0726 10:04:43.655947 32016 net.cpp:425] Concat18 <- InnerProduct104
I0726 10:04:43.655956 32016 net.cpp:425] Concat18 <- InnerProduct106
I0726 10:04:43.655968 32016 net.cpp:399] Concat18 -> Concat18
I0726 10:04:43.656009 32016 net.cpp:141] Setting up Concat18
I0726 10:04:43.656026 32016 net.cpp:148] Top shape: 100 1000 (100000)
I0726 10:04:43.656033 32016 net.cpp:156] Memory required for data: 2704082000
I0726 10:04:43.656041 32016 layer_factory.hpp:77] Creating layer InnerProduct107
I0726 10:04:43.656052 32016 net.cpp:91] Creating Layer InnerProduct107
I0726 10:04:43.656100 32016 net.cpp:425] InnerProduct107 <- Concat18
I0726 10:04:43.656121 32016 net.cpp:399] InnerProduct107 -> InnerProduct107
I0726 10:04:43.663813 32016 net.cpp:141] Setting up InnerProduct107
I0726 10:04:43.663839 32016 net.cpp:148] Top shape: 100 512 (51200)
I0726 10:04:43.663848 32016 net.cpp:156] Memory required for data: 2704286800
I0726 10:04:43.663859 32016 net.cpp:484] Sharing parameters 'fc1_w' owned by layer 'InnerProduct5', param index 0
I0726 10:04:43.663897 32016 net.cpp:484] Sharing parameters 'fc1_b' owned by layer 'InnerProduct5', param index 1
I0726 10:04:43.663924 32016 layer_factory.hpp:77] Creating layer ReLU71
I0726 10:04:43.663959 32016 net.cpp:91] Creating Layer ReLU71
I0726 10:04:43.663990 32016 net.cpp:425] ReLU71 <- InnerProduct107
I0726 10:04:43.664019 32016 net.cpp:386] ReLU71 -> InnerProduct107 (in-place)
I0726 10:04:43.664057 32016 net.cpp:141] Setting up ReLU71
I0726 10:04:43.664088 32016 net.cpp:148] Top shape: 100 512 (51200)
I0726 10:04:43.664115 32016 net.cpp:156] Memory required for data: 2704491600
I0726 10:04:43.664142 32016 layer_factory.hpp:77] Creating layer InnerProduct108
I0726 10:04:43.664175 32016 net.cpp:91] Creating Layer InnerProduct108
I0726 10:04:43.664206 32016 net.cpp:425] InnerProduct108 <- InnerProduct107
I0726 10:04:43.664242 32016 net.cpp:399] InnerProduct108 -> InnerProduct108
I0726 10:04:43.667008 32016 net.cpp:141] Setting up InnerProduct108
I0726 10:04:43.667029 32016 net.cpp:148] Top shape: 100 512 (51200)
I0726 10:04:43.667037 32016 net.cpp:156] Memory required for data: 2704696400
I0726 10:04:43.667047 32016 net.cpp:484] Sharing parameters 'fc2_w' owned by layer 'InnerProduct6', param index 0
I0726 10:04:43.667091 32016 net.cpp:484] Sharing parameters 'fc2_b' owned by layer 'InnerProduct6', param index 1
I0726 10:04:43.667124 32016 layer_factory.hpp:77] Creating layer ReLU72
I0726 10:04:43.667155 32016 net.cpp:91] Creating Layer ReLU72
I0726 10:04:43.667186 32016 net.cpp:425] ReLU72 <- InnerProduct108
I0726 10:04:43.667215 32016 net.cpp:386] ReLU72 -> InnerProduct108 (in-place)
I0726 10:04:43.667249 32016 net.cpp:141] Setting up ReLU72
I0726 10:04:43.667279 32016 net.cpp:148] Top shape: 100 512 (51200)
I0726 10:04:43.667304 32016 net.cpp:156] Memory required for data: 2704901200
I0726 10:04:43.667330 32016 layer_factory.hpp:77] Creating layer dt17
I0726 10:04:43.667361 32016 net.cpp:91] Creating Layer dt17
I0726 10:04:43.667389 32016 net.cpp:425] dt17 <- InnerProduct108
I0726 10:04:43.667428 32016 net.cpp:399] dt17 -> dt17
I0726 10:04:43.667630 32016 net.cpp:141] Setting up dt17
I0726 10:04:43.667642 32016 net.cpp:148] Top shape: 100 2 (200)
I0726 10:04:43.667649 32016 net.cpp:156] Memory required for data: 2704902000
I0726 10:04:43.667655 32016 net.cpp:484] Sharing parameters 'fc3_w' owned by layer 'dt0', param index 0
I0726 10:04:43.667662 32016 net.cpp:484] Sharing parameters 'fc3_b' owned by layer 'dt0', param index 1
I0726 10:04:43.667668 32016 layer_factory.hpp:77] Creating layer Convolution73
I0726 10:04:43.667682 32016 net.cpp:91] Creating Layer Convolution73
I0726 10:04:43.667690 32016 net.cpp:425] Convolution73 <- p2_p2_0_split_9
I0726 10:04:43.667717 32016 net.cpp:399] Convolution73 -> Convolution73
I0726 10:04:43.668129 32016 net.cpp:141] Setting up Convolution73
I0726 10:04:43.668141 32016 net.cpp:148] Top shape: 100 20 60 60 (7200000)
I0726 10:04:43.668148 32016 net.cpp:156] Memory required for data: 2733702000
I0726 10:04:43.668154 32016 net.cpp:484] Sharing parameters 'conv1_w' owned by layer 'Convolution1', param index 0
I0726 10:04:43.668160 32016 net.cpp:484] Sharing parameters 'conv1_b' owned by layer 'Convolution1', param index 1
I0726 10:04:43.668166 32016 layer_factory.hpp:77] Creating layer Pooling73
I0726 10:04:43.668175 32016 net.cpp:91] Creating Layer Pooling73
I0726 10:04:43.668182 32016 net.cpp:425] Pooling73 <- Convolution73
I0726 10:04:43.668192 32016 net.cpp:399] Pooling73 -> Pooling73
I0726 10:04:43.668258 32016 net.cpp:141] Setting up Pooling73
I0726 10:04:43.668272 32016 net.cpp:148] Top shape: 100 20 30 30 (1800000)
I0726 10:04:43.668277 32016 net.cpp:156] Memory required for data: 2740902000
I0726 10:04:43.668282 32016 layer_factory.hpp:77] Creating layer Convolution74
I0726 10:04:43.668295 32016 net.cpp:91] Creating Layer Convolution74
I0726 10:04:43.668308 32016 net.cpp:425] Convolution74 <- Pooling73
I0726 10:04:43.668324 32016 net.cpp:399] Convolution74 -> Convolution74
I0726 10:04:43.668897 32016 net.cpp:141] Setting up Convolution74
I0726 10:04:43.668911 32016 net.cpp:148] Top shape: 100 50 26 26 (3380000)
I0726 10:04:43.668920 32016 net.cpp:156] Memory required for data: 2754422000
I0726 10:04:43.668927 32016 net.cpp:484] Sharing parameters 'conv2_w' owned by layer 'Convolution2', param index 0
I0726 10:04:43.668939 32016 net.cpp:484] Sharing parameters 'conv2_b' owned by layer 'Convolution2', param index 1
I0726 10:04:43.668946 32016 layer_factory.hpp:77] Creating layer Pooling74
I0726 10:04:43.668956 32016 net.cpp:91] Creating Layer Pooling74
I0726 10:04:43.668963 32016 net.cpp:425] Pooling74 <- Convolution74
I0726 10:04:43.668974 32016 net.cpp:399] Pooling74 -> Pooling74
I0726 10:04:43.669026 32016 net.cpp:141] Setting up Pooling74
I0726 10:04:43.669037 32016 net.cpp:148] Top shape: 100 50 13 13 (845000)
I0726 10:04:43.669042 32016 net.cpp:156] Memory required for data: 2757802000
I0726 10:04:43.669049 32016 layer_factory.hpp:77] Creating layer InnerProduct109
I0726 10:04:43.669059 32016 net.cpp:91] Creating Layer InnerProduct109
I0726 10:04:43.669065 32016 net.cpp:425] InnerProduct109 <- Pooling74
I0726 10:04:43.669080 32016 net.cpp:399] InnerProduct109 -> InnerProduct109
I0726 10:04:43.738415 32016 net.cpp:141] Setting up InnerProduct109
I0726 10:04:43.738461 32016 net.cpp:148] Top shape: 100 500 (50000)
I0726 10:04:43.738471 32016 net.cpp:156] Memory required for data: 2758002000
I0726 10:04:43.738483 32016 net.cpp:484] Sharing parameters 'ip1_w' owned by layer 'InnerProduct1', param index 0
I0726 10:04:43.738505 32016 net.cpp:484] Sharing parameters 'ip1_b' owned by layer 'InnerProduct1', param index 1
I0726 10:04:43.738513 32016 layer_factory.hpp:77] Creating layer ReLU73
I0726 10:04:43.738528 32016 net.cpp:91] Creating Layer ReLU73
I0726 10:04:43.738574 32016 net.cpp:425] ReLU73 <- InnerProduct109
I0726 10:04:43.738595 32016 net.cpp:386] ReLU73 -> InnerProduct109 (in-place)
I0726 10:04:43.738631 32016 net.cpp:141] Setting up ReLU73
I0726 10:04:43.738643 32016 net.cpp:148] Top shape: 100 500 (50000)
I0726 10:04:43.738651 32016 net.cpp:156] Memory required for data: 2758202000
I0726 10:04:43.738662 32016 layer_factory.hpp:77] Creating layer InnerProduct110
I0726 10:04:43.738677 32016 net.cpp:91] Creating Layer InnerProduct110
I0726 10:04:43.738688 32016 net.cpp:425] InnerProduct110 <- InnerProduct109
I0726 10:04:43.738705 32016 net.cpp:399] InnerProduct110 -> InnerProduct110
I0726 10:04:43.741459 32016 net.cpp:141] Setting up InnerProduct110
I0726 10:04:43.741479 32016 net.cpp:148] Top shape: 100 500 (50000)
I0726 10:04:43.741487 32016 net.cpp:156] Memory required for data: 2758402000
I0726 10:04:43.741497 32016 net.cpp:484] Sharing parameters 'ip2_w' owned by layer 'InnerProduct2', param index 0
I0726 10:04:43.741539 32016 net.cpp:484] Sharing parameters 'ip2_b' owned by layer 'InnerProduct2', param index 1
I0726 10:04:43.741549 32016 layer_factory.hpp:77] Creating layer Convolution75
I0726 10:04:43.741569 32016 net.cpp:91] Creating Layer Convolution75
I0726 10:04:43.741588 32016 net.cpp:425] Convolution75 <- c19
I0726 10:04:43.741607 32016 net.cpp:399] Convolution75 -> Convolution75
I0726 10:04:43.742013 32016 net.cpp:141] Setting up Convolution75
I0726 10:04:43.742027 32016 net.cpp:148] Top shape: 100 20 60 60 (7200000)
I0726 10:04:43.742034 32016 net.cpp:156] Memory required for data: 2787202000
I0726 10:04:43.742046 32016 net.cpp:484] Sharing parameters 'conv1_w' owned by layer 'Convolution1', param index 0
I0726 10:04:43.742054 32016 net.cpp:484] Sharing parameters 'conv1_b' owned by layer 'Convolution1', param index 1
I0726 10:04:43.742060 32016 layer_factory.hpp:77] Creating layer Pooling75
I0726 10:04:43.742070 32016 net.cpp:91] Creating Layer Pooling75
I0726 10:04:43.742076 32016 net.cpp:425] Pooling75 <- Convolution75
I0726 10:04:43.742089 32016 net.cpp:399] Pooling75 -> Pooling75
I0726 10:04:43.742142 32016 net.cpp:141] Setting up Pooling75
I0726 10:04:43.742156 32016 net.cpp:148] Top shape: 100 20 30 30 (1800000)
I0726 10:04:43.742163 32016 net.cpp:156] Memory required for data: 2794402000
I0726 10:04:43.742171 32016 layer_factory.hpp:77] Creating layer Convolution76
I0726 10:04:43.742192 32016 net.cpp:91] Creating Layer Convolution76
I0726 10:04:43.742200 32016 net.cpp:425] Convolution76 <- Pooling75
I0726 10:04:43.742214 32016 net.cpp:399] Convolution76 -> Convolution76
I0726 10:04:43.742786 32016 net.cpp:141] Setting up Convolution76
I0726 10:04:43.742801 32016 net.cpp:148] Top shape: 100 50 26 26 (3380000)
I0726 10:04:43.742810 32016 net.cpp:156] Memory required for data: 2807922000
I0726 10:04:43.742817 32016 net.cpp:484] Sharing parameters 'conv2_w' owned by layer 'Convolution2', param index 0
I0726 10:04:43.742827 32016 net.cpp:484] Sharing parameters 'conv2_b' owned by layer 'Convolution2', param index 1
I0726 10:04:43.742835 32016 layer_factory.hpp:77] Creating layer Pooling76
I0726 10:04:43.742846 32016 net.cpp:91] Creating Layer Pooling76
I0726 10:04:43.742854 32016 net.cpp:425] Pooling76 <- Convolution76
I0726 10:04:43.742866 32016 net.cpp:399] Pooling76 -> Pooling76
I0726 10:04:43.742930 32016 net.cpp:141] Setting up Pooling76
I0726 10:04:43.742944 32016 net.cpp:148] Top shape: 100 50 13 13 (845000)
I0726 10:04:43.742951 32016 net.cpp:156] Memory required for data: 2811302000
I0726 10:04:43.742959 32016 layer_factory.hpp:77] Creating layer InnerProduct111
I0726 10:04:43.742975 32016 net.cpp:91] Creating Layer InnerProduct111
I0726 10:04:43.742985 32016 net.cpp:425] InnerProduct111 <- Pooling76
I0726 10:04:43.742996 32016 net.cpp:399] InnerProduct111 -> InnerProduct111
I0726 10:04:43.785993 32016 net.cpp:141] Setting up InnerProduct111
I0726 10:04:43.786032 32016 net.cpp:148] Top shape: 100 500 (50000)
I0726 10:04:43.786041 32016 net.cpp:156] Memory required for data: 2811502000
I0726 10:04:43.786062 32016 net.cpp:484] Sharing parameters 'ip1_w' owned by layer 'InnerProduct1', param index 0
I0726 10:04:43.786073 32016 net.cpp:484] Sharing parameters 'ip1_b' owned by layer 'InnerProduct1', param index 1
I0726 10:04:43.786082 32016 layer_factory.hpp:77] Creating layer ReLU74
I0726 10:04:43.786098 32016 net.cpp:91] Creating Layer ReLU74
I0726 10:04:43.786109 32016 net.cpp:425] ReLU74 <- InnerProduct111
I0726 10:04:43.786130 32016 net.cpp:386] ReLU74 -> InnerProduct111 (in-place)
I0726 10:04:43.786146 32016 net.cpp:141] Setting up ReLU74
I0726 10:04:43.786156 32016 net.cpp:148] Top shape: 100 500 (50000)
I0726 10:04:43.786164 32016 net.cpp:156] Memory required for data: 2811702000
I0726 10:04:43.786172 32016 layer_factory.hpp:77] Creating layer InnerProduct112
I0726 10:04:43.786190 32016 net.cpp:91] Creating Layer InnerProduct112
I0726 10:04:43.786198 32016 net.cpp:425] InnerProduct112 <- InnerProduct111
I0726 10:04:43.786214 32016 net.cpp:399] InnerProduct112 -> InnerProduct112
I0726 10:04:43.789613 32016 net.cpp:141] Setting up InnerProduct112
I0726 10:04:43.789634 32016 net.cpp:148] Top shape: 100 500 (50000)
I0726 10:04:43.789654 32016 net.cpp:156] Memory required for data: 2811902000
I0726 10:04:43.789664 32016 net.cpp:484] Sharing parameters 'ip2_w' owned by layer 'InnerProduct2', param index 0
I0726 10:04:43.789674 32016 net.cpp:484] Sharing parameters 'ip2_b' owned by layer 'InnerProduct2', param index 1
I0726 10:04:43.789681 32016 layer_factory.hpp:77] Creating layer Concat19
I0726 10:04:43.789695 32016 net.cpp:91] Creating Layer Concat19
I0726 10:04:43.789703 32016 net.cpp:425] Concat19 <- InnerProduct110
I0726 10:04:43.789726 32016 net.cpp:425] Concat19 <- InnerProduct112
I0726 10:04:43.789738 32016 net.cpp:399] Concat19 -> Concat19
I0726 10:04:43.789784 32016 net.cpp:141] Setting up Concat19
I0726 10:04:43.789798 32016 net.cpp:148] Top shape: 100 1000 (100000)
I0726 10:04:43.789805 32016 net.cpp:156] Memory required for data: 2812302000
I0726 10:04:43.789813 32016 layer_factory.hpp:77] Creating layer InnerProduct113
I0726 10:04:43.789825 32016 net.cpp:91] Creating Layer InnerProduct113
I0726 10:04:43.789834 32016 net.cpp:425] InnerProduct113 <- Concat19
I0726 10:04:43.789849 32016 net.cpp:399] InnerProduct113 -> InnerProduct113
I0726 10:04:43.796048 32016 net.cpp:141] Setting up InnerProduct113
I0726 10:04:43.796071 32016 net.cpp:148] Top shape: 100 512 (51200)
I0726 10:04:43.796088 32016 net.cpp:156] Memory required for data: 2812506800
I0726 10:04:43.796099 32016 net.cpp:484] Sharing parameters 'fc1_w' owned by layer 'InnerProduct5', param index 0
I0726 10:04:43.796108 32016 net.cpp:484] Sharing parameters 'fc1_b' owned by layer 'InnerProduct5', param index 1
I0726 10:04:43.796116 32016 layer_factory.hpp:77] Creating layer ReLU75
I0726 10:04:43.796128 32016 net.cpp:91] Creating Layer ReLU75
I0726 10:04:43.796136 32016 net.cpp:425] ReLU75 <- InnerProduct113
I0726 10:04:43.796156 32016 net.cpp:386] ReLU75 -> InnerProduct113 (in-place)
I0726 10:04:43.796170 32016 net.cpp:141] Setting up ReLU75
I0726 10:04:43.796180 32016 net.cpp:148] Top shape: 100 512 (51200)
I0726 10:04:43.796188 32016 net.cpp:156] Memory required for data: 2812711600
I0726 10:04:43.796195 32016 layer_factory.hpp:77] Creating layer InnerProduct114
I0726 10:04:43.796211 32016 net.cpp:91] Creating Layer InnerProduct114
I0726 10:04:43.796221 32016 net.cpp:425] InnerProduct114 <- InnerProduct113
I0726 10:04:43.796236 32016 net.cpp:399] InnerProduct114 -> InnerProduct114
I0726 10:04:43.815336 32016 net.cpp:141] Setting up InnerProduct114
I0726 10:04:43.815373 32016 net.cpp:148] Top shape: 100 512 (51200)
I0726 10:04:43.815382 32016 net.cpp:156] Memory required for data: 2812916400
I0726 10:04:43.815395 32016 net.cpp:484] Sharing parameters 'fc2_w' owned by layer 'InnerProduct6', param index 0
I0726 10:04:43.815407 32016 net.cpp:484] Sharing parameters 'fc2_b' owned by layer 'InnerProduct6', param index 1
I0726 10:04:43.815414 32016 layer_factory.hpp:77] Creating layer ReLU76
I0726 10:04:43.815430 32016 net.cpp:91] Creating Layer ReLU76
I0726 10:04:43.815441 32016 net.cpp:425] ReLU76 <- InnerProduct114
I0726 10:04:43.815454 32016 net.cpp:386] ReLU76 -> InnerProduct114 (in-place)
I0726 10:04:43.815470 32016 net.cpp:141] Setting up ReLU76
I0726 10:04:43.815481 32016 net.cpp:148] Top shape: 100 512 (51200)
I0726 10:04:43.815488 32016 net.cpp:156] Memory required for data: 2813121200
I0726 10:04:43.815495 32016 layer_factory.hpp:77] Creating layer dt18
I0726 10:04:43.815512 32016 net.cpp:91] Creating Layer dt18
I0726 10:04:43.815521 32016 net.cpp:425] dt18 <- InnerProduct114
I0726 10:04:43.815536 32016 net.cpp:399] dt18 -> dt18
I0726 10:04:43.815707 32016 net.cpp:141] Setting up dt18
I0726 10:04:43.815721 32016 net.cpp:148] Top shape: 100 2 (200)
I0726 10:04:43.815729 32016 net.cpp:156] Memory required for data: 2813122000
I0726 10:04:43.815738 32016 net.cpp:484] Sharing parameters 'fc3_w' owned by layer 'dt0', param index 0
I0726 10:04:43.815748 32016 net.cpp:484] Sharing parameters 'fc3_b' owned by layer 'dt0', param index 1
I0726 10:04:43.815778 32016 layer_factory.hpp:77] Creating layer con
I0726 10:04:43.815794 32016 net.cpp:91] Creating Layer con
…
I0726 10:04:43.815894 32016 net.cpp:425] con <- dt10
I0726 10:04:43.815903 32016 net.cpp:425] con <- dt11
I0726 10:04:43.815912 32016 net.cpp:425] con <- dt12
I0726 10:04:43.815920 32016 net.cpp:425] con <- dt13
I0726 10:04:43.815928 32016 net.cpp:425] con <- dt14
I0726 10:04:43.815937 32016 net.cpp:425] con <- dt15
I0726 10:04:43.815945 32016 net.cpp:425] con <- dt16
I0726 10:04:43.815954 32016 net.cpp:425] con <- dt17
I0726 10:04:43.815963 32016 net.cpp:425] con <- dt18
I0726 10:04:43.815978 32016 net.cpp:399] con -> con
I0726 10:04:43.816023 32016 net.cpp:141] Setting up con
I0726 10:04:43.816037 32016 net.cpp:148] Top shape: 100 38 (3800)
I0726 10:04:43.816045 32016 net.cpp:156] Memory required for data: 2813137200
I0726 10:04:43.816051 32016 layer_factory.hpp:77] Creating layer r1
I0726 10:04:43.816064 32016 net.cpp:91] Creating Layer r1
I0726 10:04:43.816072 32016 net.cpp:425] r1 <- con
I0726 10:04:43.816087 32016 net.cpp:399] r1 -> r1
I0726 10:04:43.816128 32016 net.cpp:141] Setting up r1
I0726 10:04:43.816141 32016 net.cpp:148] Top shape: 100 1 2 19 (3800)
I0726 10:04:43.816149 32016 net.cpp:156] Memory required for data: 2813152400
I0726 10:04:43.816156 32016 layer_factory.hpp:77] Creating layer p
I0726 10:04:43.816171 32016 net.cpp:91] Creating Layer p
I0726 10:04:43.816179 32016 net.cpp:425] p <- r1
I0726 10:04:43.816190 32016 net.cpp:399] p -> p
I0726 10:04:43.816258 32016 net.cpp:141] Setting up p
I0726 10:04:43.816272 32016 net.cpp:148] Top shape: 100 1 2 1 (200)
I0726 10:04:43.816280 32016 net.cpp:156] Memory required for data: 2813153200
I0726 10:04:43.816287 32016 layer_factory.hpp:77] Creating layer r2
I0726 10:04:43.816298 32016 net.cpp:91] Creating Layer r2
I0726 10:04:43.816305 32016 net.cpp:425] r2 <- p
I0726 10:04:43.816316 32016 net.cpp:399] r2 -> r2
I0726 10:04:43.816357 32016 net.cpp:141] Setting up r2
I0726 10:04:43.816371 32016 net.cpp:148] Top shape: 100 2 1 1 (200)
I0726 10:04:43.816378 32016 net.cpp:156] Memory required for data: 2813154000
I0726 10:04:43.816386 32016 layer_factory.hpp:77] Creating layer r2_r2_0_split
I0726 10:04:43.816396 32016 net.cpp:91] Creating Layer r2_r2_0_split
I0726 10:04:43.816404 32016 net.cpp:425] r2_r2_0_split <- r2
I0726 10:04:43.816414 32016 net.cpp:399] r2_r2_0_split -> r2_r2_0_split_0
I0726 10:04:43.816427 32016 net.cpp:399] r2_r2_0_split -> r2_r2_0_split_1
I0726 10:04:43.816483 32016 net.cpp:141] Setting up r2_r2_0_split
I0726 10:04:43.816495 32016 net.cpp:148] Top shape: 100 2 1 1 (200)
I0726 10:04:43.816505 32016 net.cpp:148] Top shape: 100 2 1 1 (200)
I0726 10:04:43.816514 32016 net.cpp:156] Memory required for data: 2813155600
I0726 10:04:43.816520 32016 layer_factory.hpp:77] Creating layer loss
I0726 10:04:43.816534 32016 net.cpp:91] Creating Layer loss
I0726 10:04:43.816540 32016 net.cpp:425] loss <- r2_r2_0_split_0
I0726 10:04:43.816550 32016 net.cpp:425] loss <- label_data_1_split_0
I0726 10:04:43.816560 32016 net.cpp:399] loss -> loss
…
