…
I0811 16:44:44.083843 27709 solver.cpp:81] Creating training net from train_net file: examples/scene/matchNetTrainHingeMini.prototxt
I0811 16:44:44.085614 27709 net.cpp:49] Initializing net from parameters: 
state {
  phase: TRAIN
}
layer {
  name: "data"
  type: "Data"
  top: "data"
  top: "label"
  include {
    phase: TRAIN
  }
  transform_param {
    scale: 0.0039215689
    mirror: true
    mean_file: "examples/scene/scene_mean.binaryproto"
  }
  data_param {
    source: "examples/scene/train11_pairs_300000_pad.lmdb"
    batch_size: 100
    backend: LMDB
  }
}
layer {
  name: "th"
  type: "Threshold"
  bottom: "label"
  top: "th"
  threshold_param {
    threshold: 0
  }
}
layer {
  name: "i1"
  type: "Slice"
  bottom: "data"
  top: "i1"
  top: "i2"
  slice_param {
    slice_dim: 1
    slice_point: 3
  }
}
layer {
  name: "p1"
  type: "Pooling"
  bottom: "i1"
  top: "p1"
  pooling_param {
    pool: AVE
    kernel_size: 2
    stride: 2
  }
}
layer {
  name: "p2"
  type: "Pooling"
  bottom: "i2"
  top: "p2"
  pooling_param {
    pool: AVE
    kernel_size: 2
    stride: 2
  }
}
layer {
  name: "Convolution1"
  type: "Convolution"
  bottom: "p1"
  top: "Convolution1"
  param {
    name: "conv1_w"
    lr_mult: 1
  }
  param {
    name: "conv1_b"
    lr_mult: 2
  }
  convolution_param {
    num_output: 50
    kernel_size: 5
    stride: 1
    weight_filler {
      type: "xavier"
    }
    bias_filler {
      type: "constant"
    }
  }
}
layer {
  name: "Pooling1"
  type: "Pooling"
  bottom: "Convolution1"
  top: "Pooling1"
  pooling_param {
    pool: MAX
    kernel_size: 2
    stride: 2
  }
}
layer {
  name: "Convolution2"
  type: "Convolution"
  bottom: "Pooling1"
  top: "Convolution2"
  param {
    name: "conv2_w"
    lr_mult: 1
  }
  param {
    name: "conv2_b"
    lr_mult: 2
  }
  convolution_param {
    num_output: 100
    kernel_size: 5
    stride: 1
    weight_filler {
      type: "xavier"
    }
    bias_filler {
      type: "constant"
    }
  }
}
layer {
  name: "Pooling2"
  type: "Pooling"
  bottom: "Convolution2"
  top: "Pooling2"
  pooling_param {
    pool: MAX
    kernel_size: 2
    stride: 2
  }
}
layer {
  name: "Convolution3"
  type: "Convolution"
  bottom: "Pooling2"
  top: "Convolution3"
  param {
    name: "conv3_w"
    lr_mult: 1
  }
  param {
    name: "conv3_b"
    lr_mult: 2
  }
  convolution_param {
    num_output: 100
    kernel_size: 5
    stride: 1
    weight_filler {
      type: "xavier"
    }
    bias_filler {
      type: "constant"
    }
  }
}
layer {
  name: "Pooling3"
  type: "Pooling"
  bottom: "Convolution3"
  top: "Pooling3"
  pooling_param {
    pool: MAX
    kernel_size: 2
    stride: 2
  }
}
layer {
  name: "InnerProduct1"
  type: "InnerProduct"
  bottom: "Pooling3"
  top: "InnerProduct1"
  param {
    name: "ip1_w"
    lr_mult: 1
  }
  param {
    name: "ip1_b"
    lr_mult: 2
  }
  inner_product_param {
    num_output: 200
    weight_filler {
      type: "xavier"
    }
    bias_filler {
      type: "constant"
    }
  }
}
layer {
  name: "ReLU1"
  type: "ReLU"
  bottom: "InnerProduct1"
  top: "InnerProduct1"
}
layer {
  name: "InnerProduct2"
  type: "InnerProduct"
  bottom: "InnerProduct1"
  top: "InnerProduct2"
  param {
    name: "ip2_w"
    lr_mult: 1
  }
  param {
    name: "ip2_b"
    lr_mult: 2
  }
  inner_product_param {
    num_output: 100
    weight_filler {
      type: "xavier"
    }
    bias_filler {
      type: "constant"
    }
  }
}
layer {
  name: "Convolution4"
  type: "Convolution"
  bottom: "p2"
  top: "Convolution4"
  param {
    name: "conv1_w"
    lr_mult: 1
  }
  param {
    name: "conv1_b"
    lr_mult: 2
  }
  convolution_param {
    num_output: 50
    kernel_size: 5
    stride: 1
    weight_filler {
      type: "xavier"
    }
    bias_filler {
      type: "constant"
    }
  }
}
layer {
  name: "Pooling4"
  type: "Pooling"
  bottom: "Convolution4"
  top: "Pooling4"
  pooling_param {
    pool: MAX
    kernel_size: 2
    stride: 2
  }
}
layer {
  name: "Convolution5"
  type: "Convolution"
  bottom: "Pooling4"
  top: "Convolution5"
  param {
    name: "conv2_w"
    lr_mult: 1
  }
  param {
    name: "conv2_b"
    lr_mult: 2
  }
  convolution_param {
    num_output: 100
    kernel_size: 5
    stride: 1
    weight_filler {
      type: "xavier"
    }
    bias_filler {
      type: "constant"
    }
  }
}
layer {
  name: "Pooling5"
  type: "Pooling"
  bottom: "Convolution5"
  top: "Pooling5"
  pooling_param {
    pool: MAX
    kernel_size: 2
    stride: 2
  }
}
layer {
  name: "Convolution6"
  type: "Convolution"
  bottom: "Pooling5"
  top: "Convolution6"
  param {
    name: "conv3_w"
    lr_mult: 1
  }
  param {
    name: "conv3_b"
    lr_mult: 2
  }
  convolution_param {
    num_output: 100
    kernel_size: 5
    stride: 1
    weight_filler {
      type: "xavier"
    }
    bias_filler {
      type: "constant"
    }
  }
}
layer {
  name: "Pooling6"
  type: "Pooling"
  bottom: "Convolution6"
  top: "Pooling6"
  pooling_param {
    pool: MAX
    kernel_size: 2
    stride: 2
  }
}
layer {
  name: "InnerProduct3"
  type: "InnerProduct"
  bottom: "Pooling6"
  top: "InnerProduct3"
  param {
    name: "ip1_w"
    lr_mult: 1
  }
  param {
    name: "ip1_b"
    lr_mult: 2
  }
  inner_product_param {
    num_output: 200
    weight_filler {
      type: "xavier"
    }
    bias_filler {
      type: "constant"
    }
  }
}
layer {
  name: "ReLU2"
  type: "ReLU"
  bottom: "InnerProduct3"
  top: "InnerProduct3"
}
layer {
  name: "InnerProduct4"
  type: "InnerProduct"
  bottom: "InnerProduct3"
  top: "InnerProduct4"
  param {
    name: "ip2_w"
    lr_mult: 1
  }
  param {
    name: "ip2_b"
    lr_mult: 2
  }
  inner_product_param {
    num_output: 100
    weight_filler {
      type: "xavier"
    }
    bias_filler {
      type: "constant"
    }
  }
}
layer {
  name: "Concat1"
  type: "Concat"
  bottom: "InnerProduct2"
  bottom: "InnerProduct4"
  top: "Concat1"
  concat_param {
    axis: 1
  }
}
layer {
  name: "InnerProduct5"
  type: "InnerProduct"
  bottom: "Concat1"
  top: "InnerProduct5"
  param {
    name: "fc1_w"
    lr_mult: 1
  }
  param {
    name: "fc1_b"
    lr_mult: 2
  }
  inner_product_param {
    num_output: 200
    weight_filler {
      type: "xavier"
    }
    bias_filler {
      type: "constant"
    }
  }
}
layer {
  name: "ReLU3"
  type: "ReLU"
  bottom: "InnerProduct5"
  top: "InnerProduct5"
}
layer {
  name: "InnerProduct6"
  type: "InnerProduct"
  bottom: "InnerProduct5"
  top: "InnerProduct6"
  param {
    name: "fc2_w"
    lr_mult: 1
  }
  param {
    name: "fc2_b"
    lr_mult: 2
  }
  inner_product_param {
    num_output: 100
    weight_filler {
      type: "xavier"
    }
    bias_filler {
      type: "constant"
    }
  }
}
layer {
  name: "ReLU4"
  type: "ReLU"
  bottom: "InnerProduct6"
  top: "InnerProduct6"
}
layer {
  name: "dt"
  type: "InnerProduct"
  bottom: "InnerProduct6"
  top: "dt"
  param {
    name: "fc3_w"
    lr_mult: 1
  }
  param {
    name: "fc3_b"
    lr_mult: 2
  }
  inner_product_param {
    num_output: 1
    weight_filler {
      type: "xavier"
    }
    bias_filler {
      type: "constant"
    }
  }
}
layer {
  name: "r2"
  type: "Reshape"
  bottom: "dt"
  top: "r2"
  reshape_param {
    shape {
      dim: 0
      dim: 1
      dim: 1
      dim: -1
    }
  }
}
layer {
  name: "padL"
  type: "Reshape"
  bottom: "label"
  top: "padL"
  reshape_param {
    shape {
      dim: 0
      dim: 1
      dim: 1
      dim: -1
    }
  }
}
layer {
  name: "pad"
  type: "Concat"
  bottom: "r2"
  bottom: "padL"
  top: "pad"
  concat_param {
    axis: 1
  }
}
layer {
  name: "accuracy"
  type: "Accuracy"
  bottom: "pad"
  bottom: "th"
  top: "accuracy"
  include {
    phase: TRAIN
  }
}
layer {
  name: "loss"
  type: "HingeLoss"
  bottom: "pad"
  bottom: "th"
  top: "loss"
}
I0811 16:44:44.085994 27709 layer_factory.hpp:77] Creating layer data
I0811 16:44:44.086531 27709 net.cpp:91] Creating Layer data
I0811 16:44:44.086546 27709 net.cpp:399] data -> data
I0811 16:44:44.086582 27709 net.cpp:399] data -> label
I0811 16:44:44.086601 27709 data_transformer.cpp:25] Loading mean file from: examples/scene/scene_mean.binaryproto
I0811 16:44:44.115854 27715 db_lmdb.cpp:35] Opened lmdb examples/scene/train11_pairs_300000_pad.lmdb
I0811 16:44:44.158280 27709 data_layer.cpp:41] output data size: 100,6,128,128
I0811 16:44:44.260076 27709 net.cpp:141] Setting up data
I0811 16:44:44.260119 27709 net.cpp:148] Top shape: 100 6 128 128 (9830400)
I0811 16:44:44.260131 27709 net.cpp:148] Top shape: 100 (100)
I0811 16:44:44.260139 27709 net.cpp:156] Memory required for data: 39322000
I0811 16:44:44.260156 27709 layer_factory.hpp:77] Creating layer label_data_1_split
I0811 16:44:44.260185 27709 net.cpp:91] Creating Layer label_data_1_split
I0811 16:44:44.260197 27709 net.cpp:425] label_data_1_split <- label
I0811 16:44:44.260217 27709 net.cpp:399] label_data_1_split -> label_data_1_split_0
I0811 16:44:44.260236 27709 net.cpp:399] label_data_1_split -> label_data_1_split_1
I0811 16:44:44.260326 27709 net.cpp:141] Setting up label_data_1_split
I0811 16:44:44.260341 27709 net.cpp:148] Top shape: 100 (100)
I0811 16:44:44.260354 27709 net.cpp:148] Top shape: 100 (100)
I0811 16:44:44.260362 27709 net.cpp:156] Memory required for data: 39322800
I0811 16:44:44.260370 27709 layer_factory.hpp:77] Creating layer th
I0811 16:44:44.260388 27709 net.cpp:91] Creating Layer th
I0811 16:44:44.260396 27709 net.cpp:425] th <- label_data_1_split_0
I0811 16:44:44.260409 27709 net.cpp:399] th -> th
I0811 16:44:44.260452 27709 net.cpp:141] Setting up th
I0811 16:44:44.260464 27709 net.cpp:148] Top shape: 100 (100)
I0811 16:44:44.260473 27709 net.cpp:156] Memory required for data: 39323200
I0811 16:44:44.260480 27709 layer_factory.hpp:77] Creating layer th_th_0_split
I0811 16:44:44.260493 27709 net.cpp:91] Creating Layer th_th_0_split
I0811 16:44:44.260501 27709 net.cpp:425] th_th_0_split <- th
I0811 16:44:44.260514 27709 net.cpp:399] th_th_0_split -> th_th_0_split_0
I0811 16:44:44.260529 27709 net.cpp:399] th_th_0_split -> th_th_0_split_1
I0811 16:44:44.260578 27709 net.cpp:141] Setting up th_th_0_split
I0811 16:44:44.260591 27709 net.cpp:148] Top shape: 100 (100)
I0811 16:44:44.260601 27709 net.cpp:148] Top shape: 100 (100)
I0811 16:44:44.260607 27709 net.cpp:156] Memory required for data: 39324000
I0811 16:44:44.260615 27709 layer_factory.hpp:77] Creating layer i1
I0811 16:44:44.260635 27709 net.cpp:91] Creating Layer i1
I0811 16:44:44.260644 27709 net.cpp:425] i1 <- data
I0811 16:44:44.260655 27709 net.cpp:399] i1 -> i1
I0811 16:44:44.260670 27709 net.cpp:399] i1 -> i2
I0811 16:44:44.260727 27709 net.cpp:141] Setting up i1
I0811 16:44:44.260740 27709 net.cpp:148] Top shape: 100 3 128 128 (4915200)
I0811 16:44:44.260753 27709 net.cpp:148] Top shape: 100 3 128 128 (4915200)
I0811 16:44:44.260762 27709 net.cpp:156] Memory required for data: 78645600
I0811 16:44:44.260771 27709 layer_factory.hpp:77] Creating layer p1
I0811 16:44:44.260784 27709 net.cpp:91] Creating Layer p1
I0811 16:44:44.260792 27709 net.cpp:425] p1 <- i1
I0811 16:44:44.260803 27709 net.cpp:399] p1 -> p1
I0811 16:44:44.260854 27709 net.cpp:141] Setting up p1
I0811 16:44:44.260869 27709 net.cpp:148] Top shape: 100 3 64 64 (1228800)
I0811 16:44:44.260877 27709 net.cpp:156] Memory required for data: 83560800
I0811 16:44:44.260885 27709 layer_factory.hpp:77] Creating layer p2
I0811 16:44:44.260898 27709 net.cpp:91] Creating Layer p2
I0811 16:44:44.260908 27709 net.cpp:425] p2 <- i2
I0811 16:44:44.260920 27709 net.cpp:399] p2 -> p2
I0811 16:44:44.260953 27709 net.cpp:141] Setting up p2
I0811 16:44:44.260967 27709 net.cpp:148] Top shape: 100 3 64 64 (1228800)
I0811 16:44:44.260973 27709 net.cpp:156] Memory required for data: 88476000
I0811 16:44:44.260982 27709 layer_factory.hpp:77] Creating layer Convolution1
I0811 16:44:44.261024 27709 net.cpp:91] Creating Layer Convolution1
I0811 16:44:44.261035 27709 net.cpp:425] Convolution1 <- p1
I0811 16:44:44.261047 27709 net.cpp:399] Convolution1 -> Convolution1
I0811 16:44:44.262111 27709 net.cpp:141] Setting up Convolution1
I0811 16:44:44.262131 27709 net.cpp:148] Top shape: 100 50 60 60 (18000000)
I0811 16:44:44.262140 27709 net.cpp:156] Memory required for data: 160476000
I0811 16:44:44.262161 27709 layer_factory.hpp:77] Creating layer Pooling1
I0811 16:44:44.262178 27709 net.cpp:91] Creating Layer Pooling1
I0811 16:44:44.262187 27709 net.cpp:425] Pooling1 <- Convolution1
I0811 16:44:44.262197 27709 net.cpp:399] Pooling1 -> Pooling1
I0811 16:44:44.268225 27709 net.cpp:141] Setting up Pooling1
I0811 16:44:44.268260 27709 net.cpp:148] Top shape: 100 50 30 30 (4500000)
I0811 16:44:44.268272 27709 net.cpp:156] Memory required for data: 178476000
I0811 16:44:44.268285 27709 layer_factory.hpp:77] Creating layer Convolution2
I0811 16:44:44.268309 27709 net.cpp:91] Creating Layer Convolution2
I0811 16:44:44.268327 27709 net.cpp:425] Convolution2 <- Pooling1
I0811 16:44:44.268348 27709 net.cpp:399] Convolution2 -> Convolution2
I0811 16:44:44.271116 27709 net.cpp:141] Setting up Convolution2
I0811 16:44:44.271147 27709 net.cpp:148] Top shape: 100 100 26 26 (6760000)
I0811 16:44:44.271159 27709 net.cpp:156] Memory required for data: 205516000
I0811 16:44:44.271183 27709 layer_factory.hpp:77] Creating layer Pooling2
I0811 16:44:44.271206 27709 net.cpp:91] Creating Layer Pooling2
I0811 16:44:44.271219 27709 net.cpp:425] Pooling2 <- Convolution2
I0811 16:44:44.271236 27709 net.cpp:399] Pooling2 -> Pooling2
I0811 16:44:44.271339 27709 net.cpp:141] Setting up Pooling2
I0811 16:44:44.271359 27709 net.cpp:148] Top shape: 100 100 13 13 (1690000)
I0811 16:44:44.271371 27709 net.cpp:156] Memory required for data: 212276000
I0811 16:44:44.271383 27709 layer_factory.hpp:77] Creating layer Convolution3
I0811 16:44:44.271405 27709 net.cpp:91] Creating Layer Convolution3
I0811 16:44:44.271417 27709 net.cpp:425] Convolution3 <- Pooling2
I0811 16:44:44.271436 27709 net.cpp:399] Convolution3 -> Convolution3
I0811 16:44:44.275678 27709 net.cpp:141] Setting up Convolution3
I0811 16:44:44.275707 27709 net.cpp:148] Top shape: 100 100 9 9 (810000)
I0811 16:44:44.275715 27709 net.cpp:156] Memory required for data: 215516000
I0811 16:44:44.275735 27709 layer_factory.hpp:77] Creating layer Pooling3
I0811 16:44:44.275753 27709 net.cpp:91] Creating Layer Pooling3
I0811 16:44:44.275838 27709 net.cpp:425] Pooling3 <- Convolution3
I0811 16:44:44.275856 27709 net.cpp:399] Pooling3 -> Pooling3
I0811 16:44:44.275931 27709 net.cpp:141] Setting up Pooling3
I0811 16:44:44.275949 27709 net.cpp:148] Top shape: 100 100 5 5 (250000)
I0811 16:44:44.275959 27709 net.cpp:156] Memory required for data: 216516000
I0811 16:44:44.275969 27709 layer_factory.hpp:77] Creating layer InnerProduct1
I0811 16:44:44.275985 27709 net.cpp:91] Creating Layer InnerProduct1
I0811 16:44:44.275996 27709 net.cpp:425] InnerProduct1 <- Pooling3
I0811 16:44:44.276010 27709 net.cpp:399] InnerProduct1 -> InnerProduct1
I0811 16:44:44.281724 27709 net.cpp:141] Setting up InnerProduct1
I0811 16:44:44.281757 27709 net.cpp:148] Top shape: 100 200 (20000)
I0811 16:44:44.281767 27709 net.cpp:156] Memory required for data: 216596000
I0811 16:44:44.281786 27709 layer_factory.hpp:77] Creating layer ReLU1
I0811 16:44:44.281806 27709 net.cpp:91] Creating Layer ReLU1
I0811 16:44:44.281818 27709 net.cpp:425] ReLU1 <- InnerProduct1
I0811 16:44:44.281833 27709 net.cpp:386] ReLU1 -> InnerProduct1 (in-place)
I0811 16:44:44.281849 27709 net.cpp:141] Setting up ReLU1
I0811 16:44:44.281862 27709 net.cpp:148] Top shape: 100 200 (20000)
I0811 16:44:44.281870 27709 net.cpp:156] Memory required for data: 216676000
I0811 16:44:44.281878 27709 layer_factory.hpp:77] Creating layer InnerProduct2
I0811 16:44:44.281893 27709 net.cpp:91] Creating Layer InnerProduct2
I0811 16:44:44.281903 27709 net.cpp:425] InnerProduct2 <- InnerProduct1
I0811 16:44:44.281918 27709 net.cpp:399] InnerProduct2 -> InnerProduct2
I0811 16:44:44.282977 27709 net.cpp:141] Setting up InnerProduct2
I0811 16:44:44.282999 27709 net.cpp:148] Top shape: 100 100 (10000)
I0811 16:44:44.283009 27709 net.cpp:156] Memory required for data: 216716000
I0811 16:44:44.283030 27709 layer_factory.hpp:77] Creating layer Convolution4
I0811 16:44:44.283058 27709 net.cpp:91] Creating Layer Convolution4
I0811 16:44:44.283068 27709 net.cpp:425] Convolution4 <- p2
I0811 16:44:44.283083 27709 net.cpp:399] Convolution4 -> Convolution4
I0811 16:44:44.283484 27709 net.cpp:141] Setting up Convolution4
I0811 16:44:44.283502 27709 net.cpp:148] Top shape: 100 50 60 60 (18000000)
I0811 16:44:44.283511 27709 net.cpp:156] Memory required for data: 288716000
I0811 16:44:44.283520 27709 net.cpp:484] Sharing parameters 'conv1_w' owned by layer 'Convolution1', param index 0
I0811 16:44:44.283534 27709 net.cpp:484] Sharing parameters 'conv1_b' owned by layer 'Convolution1', param index 1
I0811 16:44:44.283545 27709 layer_factory.hpp:77] Creating layer Pooling4
I0811 16:44:44.283560 27709 net.cpp:91] Creating Layer Pooling4
I0811 16:44:44.283567 27709 net.cpp:425] Pooling4 <- Convolution4
I0811 16:44:44.283581 27709 net.cpp:399] Pooling4 -> Pooling4
I0811 16:44:44.283644 27709 net.cpp:141] Setting up Pooling4
I0811 16:44:44.283660 27709 net.cpp:148] Top shape: 100 50 30 30 (4500000)
I0811 16:44:44.283671 27709 net.cpp:156] Memory required for data: 306716000
I0811 16:44:44.283682 27709 layer_factory.hpp:77] Creating layer Convolution5
I0811 16:44:44.283701 27709 net.cpp:91] Creating Layer Convolution5
I0811 16:44:44.283715 27709 net.cpp:425] Convolution5 <- Pooling4
I0811 16:44:44.283730 27709 net.cpp:399] Convolution5 -> Convolution5
I0811 16:44:44.285818 27709 net.cpp:141] Setting up Convolution5
I0811 16:44:44.285840 27709 net.cpp:148] Top shape: 100 100 26 26 (6760000)
I0811 16:44:44.285848 27709 net.cpp:156] Memory required for data: 333756000
I0811 16:44:44.285858 27709 net.cpp:484] Sharing parameters 'conv2_w' owned by layer 'Convolution2', param index 0
I0811 16:44:44.285868 27709 net.cpp:484] Sharing parameters 'conv2_b' owned by layer 'Convolution2', param index 1
I0811 16:44:44.285877 27709 layer_factory.hpp:77] Creating layer Pooling5
I0811 16:44:44.285890 27709 net.cpp:91] Creating Layer Pooling5
I0811 16:44:44.285902 27709 net.cpp:425] Pooling5 <- Convolution5
I0811 16:44:44.285914 27709 net.cpp:399] Pooling5 -> Pooling5
I0811 16:44:44.285972 27709 net.cpp:141] Setting up Pooling5
I0811 16:44:44.285984 27709 net.cpp:148] Top shape: 100 100 13 13 (1690000)
I0811 16:44:44.285991 27709 net.cpp:156] Memory required for data: 340516000
I0811 16:44:44.286000 27709 layer_factory.hpp:77] Creating layer Convolution6
I0811 16:44:44.286015 27709 net.cpp:91] Creating Layer Convolution6
I0811 16:44:44.286023 27709 net.cpp:425] Convolution6 <- Pooling5
I0811 16:44:44.286036 27709 net.cpp:399] Convolution6 -> Convolution6
I0811 16:44:44.289222 27709 net.cpp:141] Setting up Convolution6
I0811 16:44:44.289243 27709 net.cpp:148] Top shape: 100 100 9 9 (810000)
I0811 16:44:44.289250 27709 net.cpp:156] Memory required for data: 343756000
I0811 16:44:44.289259 27709 net.cpp:484] Sharing parameters 'conv3_w' owned by layer 'Convolution3', param index 0
I0811 16:44:44.289268 27709 net.cpp:484] Sharing parameters 'conv3_b' owned by layer 'Convolution3', param index 1
I0811 16:44:44.289273 27709 layer_factory.hpp:77] Creating layer Pooling6
I0811 16:44:44.289284 27709 net.cpp:91] Creating Layer Pooling6
I0811 16:44:44.289291 27709 net.cpp:425] Pooling6 <- Convolution6
I0811 16:44:44.289302 27709 net.cpp:399] Pooling6 -> Pooling6
I0811 16:44:44.289352 27709 net.cpp:141] Setting up Pooling6
I0811 16:44:44.289361 27709 net.cpp:148] Top shape: 100 100 5 5 (250000)
I0811 16:44:44.289366 27709 net.cpp:156] Memory required for data: 344756000
I0811 16:44:44.289372 27709 layer_factory.hpp:77] Creating layer InnerProduct3
I0811 16:44:44.289384 27709 net.cpp:91] Creating Layer InnerProduct3
I0811 16:44:44.289391 27709 net.cpp:425] InnerProduct3 <- Pooling6
I0811 16:44:44.289400 27709 net.cpp:399] InnerProduct3 -> InnerProduct3
I0811 16:44:44.294669 27709 net.cpp:141] Setting up InnerProduct3
I0811 16:44:44.294701 27709 net.cpp:148] Top shape: 100 200 (20000)
I0811 16:44:44.294710 27709 net.cpp:156] Memory required for data: 344836000
I0811 16:44:44.294739 27709 net.cpp:484] Sharing parameters 'ip1_w' owned by layer 'InnerProduct1', param index 0
I0811 16:44:44.294750 27709 net.cpp:484] Sharing parameters 'ip1_b' owned by layer 'InnerProduct1', param index 1
I0811 16:44:44.294760 27709 layer_factory.hpp:77] Creating layer ReLU2
I0811 16:44:44.294775 27709 net.cpp:91] Creating Layer ReLU2
I0811 16:44:44.294785 27709 net.cpp:425] ReLU2 <- InnerProduct3
I0811 16:44:44.294797 27709 net.cpp:386] ReLU2 -> InnerProduct3 (in-place)
I0811 16:44:44.294814 27709 net.cpp:141] Setting up ReLU2
I0811 16:44:44.294826 27709 net.cpp:148] Top shape: 100 200 (20000)
I0811 16:44:44.294834 27709 net.cpp:156] Memory required for data: 344916000
I0811 16:44:44.294842 27709 layer_factory.hpp:77] Creating layer InnerProduct4
I0811 16:44:44.294857 27709 net.cpp:91] Creating Layer InnerProduct4
I0811 16:44:44.294864 27709 net.cpp:425] InnerProduct4 <- InnerProduct3
I0811 16:44:44.294877 27709 net.cpp:399] InnerProduct4 -> InnerProduct4
I0811 16:44:44.295186 27709 net.cpp:141] Setting up InnerProduct4
I0811 16:44:44.295197 27709 net.cpp:148] Top shape: 100 100 (10000)
I0811 16:44:44.295207 27709 net.cpp:156] Memory required for data: 344956000
I0811 16:44:44.295215 27709 net.cpp:484] Sharing parameters 'ip2_w' owned by layer 'InnerProduct2', param index 0
I0811 16:44:44.295224 27709 net.cpp:484] Sharing parameters 'ip2_b' owned by layer 'InnerProduct2', param index 1
I0811 16:44:44.295233 27709 layer_factory.hpp:77] Creating layer Concat1
I0811 16:44:44.295259 27709 net.cpp:91] Creating Layer Concat1
I0811 16:44:44.295269 27709 net.cpp:425] Concat1 <- InnerProduct2
I0811 16:44:44.295286 27709 net.cpp:425] Concat1 <- InnerProduct4
I0811 16:44:44.295296 27709 net.cpp:399] Concat1 -> Concat1
I0811 16:44:44.295330 27709 net.cpp:141] Setting up Concat1
I0811 16:44:44.295339 27709 net.cpp:148] Top shape: 100 200 (20000)
I0811 16:44:44.295346 27709 net.cpp:156] Memory required for data: 345036000
I0811 16:44:44.295351 27709 layer_factory.hpp:77] Creating layer InnerProduct5
I0811 16:44:44.295361 27709 net.cpp:91] Creating Layer InnerProduct5
I0811 16:44:44.295367 27709 net.cpp:425] InnerProduct5 <- Concat1
I0811 16:44:44.295380 27709 net.cpp:399] InnerProduct5 -> InnerProduct5
I0811 16:44:44.295825 27709 net.cpp:141] Setting up InnerProduct5
I0811 16:44:44.295835 27709 net.cpp:148] Top shape: 100 200 (20000)
I0811 16:44:44.295841 27709 net.cpp:156] Memory required for data: 345116000
I0811 16:44:44.295850 27709 layer_factory.hpp:77] Creating layer ReLU3
I0811 16:44:44.295861 27709 net.cpp:91] Creating Layer ReLU3
I0811 16:44:44.295869 27709 net.cpp:425] ReLU3 <- InnerProduct5
I0811 16:44:44.295878 27709 net.cpp:386] ReLU3 -> InnerProduct5 (in-place)
I0811 16:44:44.295887 27709 net.cpp:141] Setting up ReLU3
I0811 16:44:44.295895 27709 net.cpp:148] Top shape: 100 200 (20000)
I0811 16:44:44.295902 27709 net.cpp:156] Memory required for data: 345196000
I0811 16:44:44.295907 27709 layer_factory.hpp:77] Creating layer InnerProduct6
I0811 16:44:44.295917 27709 net.cpp:91] Creating Layer InnerProduct6
I0811 16:44:44.295922 27709 net.cpp:425] InnerProduct6 <- InnerProduct5
I0811 16:44:44.295935 27709 net.cpp:399] InnerProduct6 -> InnerProduct6
I0811 16:44:44.296219 27709 net.cpp:141] Setting up InnerProduct6
I0811 16:44:44.296229 27709 net.cpp:148] Top shape: 100 100 (10000)
I0811 16:44:44.296236 27709 net.cpp:156] Memory required for data: 345236000
I0811 16:44:44.296244 27709 layer_factory.hpp:77] Creating layer ReLU4
I0811 16:44:44.296253 27709 net.cpp:91] Creating Layer ReLU4
I0811 16:44:44.296259 27709 net.cpp:425] ReLU4 <- InnerProduct6
I0811 16:44:44.296267 27709 net.cpp:386] ReLU4 -> InnerProduct6 (in-place)
I0811 16:44:44.296277 27709 net.cpp:141] Setting up ReLU4
I0811 16:44:44.296284 27709 net.cpp:148] Top shape: 100 100 (10000)
I0811 16:44:44.296314 27709 net.cpp:156] Memory required for data: 345276000
I0811 16:44:44.296319 27709 layer_factory.hpp:77] Creating layer dt
I0811 16:44:44.296329 27709 net.cpp:91] Creating Layer dt
I0811 16:44:44.296335 27709 net.cpp:425] dt <- InnerProduct6
I0811 16:44:44.296347 27709 net.cpp:399] dt -> dt
I0811 16:44:44.296475 27709 net.cpp:141] Setting up dt
I0811 16:44:44.296489 27709 net.cpp:148] Top shape: 100 1 (100)
I0811 16:44:44.296494 27709 net.cpp:156] Memory required for data: 345276400
I0811 16:44:44.296504 27709 layer_factory.hpp:77] Creating layer r2
I0811 16:44:44.296514 27709 net.cpp:91] Creating Layer r2
I0811 16:44:44.296520 27709 net.cpp:425] r2 <- dt
I0811 16:44:44.296530 27709 net.cpp:399] r2 -> r2
I0811 16:44:44.296566 27709 net.cpp:141] Setting up r2
I0811 16:44:44.296576 27709 net.cpp:148] Top shape: 100 1 1 1 (100)
I0811 16:44:44.296581 27709 net.cpp:156] Memory required for data: 345276800
I0811 16:44:44.296588 27709 layer_factory.hpp:77] Creating layer padL
I0811 16:44:44.296609 27709 net.cpp:91] Creating Layer padL
I0811 16:44:44.296618 27709 net.cpp:425] padL <- label_data_1_split_1
I0811 16:44:44.296629 27709 net.cpp:399] padL -> padL
I0811 16:44:44.296665 27709 net.cpp:141] Setting up padL
I0811 16:44:44.296679 27709 net.cpp:148] Top shape: 100 1 1 1 (100)
I0811 16:44:44.296685 27709 net.cpp:156] Memory required for data: 345277200
I0811 16:44:44.296690 27709 layer_factory.hpp:77] Creating layer pad
I0811 16:44:44.296700 27709 net.cpp:91] Creating Layer pad
I0811 16:44:44.296705 27709 net.cpp:425] pad <- r2
I0811 16:44:44.296713 27709 net.cpp:425] pad <- padL
I0811 16:44:44.296726 27709 net.cpp:399] pad -> pad
I0811 16:44:44.296754 27709 net.cpp:141] Setting up pad
I0811 16:44:44.296764 27709 net.cpp:148] Top shape: 100 2 1 1 (200)
I0811 16:44:44.296771 27709 net.cpp:156] Memory required for data: 345278000
I0811 16:44:44.296777 27709 layer_factory.hpp:77] Creating layer pad_pad_0_split
I0811 16:44:44.296788 27709 net.cpp:91] Creating Layer pad_pad_0_split
I0811 16:44:44.296794 27709 net.cpp:425] pad_pad_0_split <- pad
I0811 16:44:44.296803 27709 net.cpp:399] pad_pad_0_split -> pad_pad_0_split_0
I0811 16:44:44.296813 27709 net.cpp:399] pad_pad_0_split -> pad_pad_0_split_1
I0811 16:44:44.296857 27709 net.cpp:141] Setting up pad_pad_0_split
I0811 16:44:44.296867 27709 net.cpp:148] Top shape: 100 2 1 1 (200)
I0811 16:44:44.296875 27709 net.cpp:148] Top shape: 100 2 1 1 (200)
I0811 16:44:44.296880 27709 net.cpp:156] Memory required for data: 345279600
I0811 16:44:44.296886 27709 layer_factory.hpp:77] Creating layer accuracy
I0811 16:44:44.296901 27709 net.cpp:91] Creating Layer accuracy
I0811 16:44:44.296907 27709 net.cpp:425] accuracy <- pad_pad_0_split_0
I0811 16:44:44.296914 27709 net.cpp:425] accuracy <- th_th_0_split_0
I0811 16:44:44.296923 27709 net.cpp:399] accuracy -> accuracy
…
