…
I0719 18:12:24.154728  3401 net.cpp:313] The NetState phase (0) differed from the phase (1) specified by a rule in layer accuracy
I0719 18:12:24.155629  3401 net.cpp:49] Initializing net from parameters: 
name: "mnist_siamese_train_test_sim_multi"
state {
  phase: TRAIN
}
layer {
  name: "pair_data"
  type: "Data"
  top: "pair_data"
  top: "label"
  include {
    phase: TRAIN
  }
  transform_param {
    scale: 0.00390625
    mirror: true
    mean_file: "examples/scene/scene_mean.binaryproto"
  }
  data_param {
    source: "examples/scene/train_pairs.lmdb"
    batch_size: 128
    backend: LMDB
  }
}
layer {
  name: "slice_pair"
  type: "Slice"
  bottom: "pair_data"
  top: "i1"
  top: "i2"
  slice_param {
    slice_dim: 1
    slice_point: 3
  }
}
layer {
  name: "pool_i1"
  type: "Pooling"
  bottom: "i1"
  top: "p1"
  pooling_param {
    pool: AVE
    kernel_size: 2
    stride: 2
  }
}
layer {
  name: "pool_i2"
  type: "Pooling"
  bottom: "i2"
  top: "p2"
  pooling_param {
    pool: AVE
    kernel_size: 2
    stride: 2
  }
}
layer {
  name: "slice_h_i1"
  type: "Slice"
  bottom: "i1"
  top: "i1_h1"
  top: "i1_h2"
  slice_param {
    slice_dim: 2
    slice_point: 64
  }
}
layer {
  name: "slice_h_i2"
  type: "Slice"
  bottom: "i2"
  top: "i2_h1"
  top: "i2_h2"
  slice_param {
    slice_dim: 2
    slice_point: 64
  }
}
layer {
  name: "slice_w_i1_h1"
  type: "Slice"
  bottom: "i1_h1"
  top: "s11"
  top: "s12"
  slice_param {
    slice_dim: 3
    slice_point: 64
  }
}
layer {
  name: "slice_w_i1_h2"
  type: "Slice"
  bottom: "i1_h2"
  top: "s13"
  top: "s14"
  slice_param {
    slice_dim: 3
    slice_point: 64
  }
}
layer {
  name: "slice_w_i2_h1"
  type: "Slice"
  bottom: "i2_h1"
  top: "s21"
  top: "s22"
  slice_param {
    slice_dim: 3
    slice_point: 64
  }
}
layer {
  name: "slice_w_i2_h2"
  type: "Slice"
  bottom: "i2_h2"
  top: "s23"
  top: "s24"
  slice_param {
    slice_dim: 3
    slice_point: 64
  }
}
layer {
  name: "conv1_11"
  type: "Convolution"
  bottom: "p1"
  top: "conv1_11"
  param {
    name: "conv1_w"
    lr_mult: 1
  }
  param {
    name: "conv1_b"
    lr_mult: 2
  }
  convolution_param {
    num_output: 20
    kernel_size: 5
    stride: 1
    weight_filler {
      type: "xavier"
    }
    bias_filler {
      type: "constant"
    }
  }
}
layer {
  name: "pool1_11"
  type: "Pooling"
  bottom: "conv1_11"
  top: "pool1_11"
  pooling_param {
    pool: MAX
    kernel_size: 2
    stride: 2
  }
}
layer {
  name: "conv2_11"
  type: "Convolution"
  bottom: "pool1_11"
  top: "conv2_11"
  param {
    name: "conv2_w"
    lr_mult: 1
  }
  param {
    name: "conv2_b"
    lr_mult: 2
  }
  convolution_param {
    num_output: 50
    kernel_size: 5
    stride: 1
    weight_filler {
      type: "xavier"
    }
    bias_filler {
      type: "constant"
    }
  }
}
layer {
  name: "pool2_11"
  type: "Pooling"
  bottom: "conv2_11"
  top: "pool2_11"
  pooling_param {
    pool: MAX
    kernel_size: 2
    stride: 2
  }
}
layer {
  name: "ip1_11"
  type: "InnerProduct"
  bottom: "pool2_11"
  top: "ip1_11"
  param {
    name: "ip1_w"
    lr_mult: 1
  }
  param {
    name: "ip1_b"
    lr_mult: 2
  }
  inner_product_param {
    num_output: 500
    weight_filler {
      type: "xavier"
    }
    bias_filler {
      type: "constant"
    }
  }
}
layer {
  name: "relu_11"
  type: "ReLU"
  bottom: "ip1_11"
  top: "ip1_11"
}
layer {
  name: "ip2_11"
  type: "InnerProduct"
  bottom: "ip1_11"
  top: "ip2_11"
  param {
    name: "ip2_w"
    lr_mult: 1
  }
  param {
    name: "ip2_b"
    lr_mult: 2
  }
  inner_product_param {
    num_output: 500
    weight_filler {
      type: "xavier"
    }
    bias_filler {
      type: "constant"
    }
  }
}
layer {
  name: "conv1_12"
  type: "Convolution"
  bottom: "p2"
  top: "conv1_12"
  param {
    name: "conv1_w"
    lr_mult: 1
  }
  param {
    name: "conv1_b"
    lr_mult: 2
  }
  convolution_param {
    num_output: 20
    kernel_size: 5
    stride: 1
    weight_filler {
      type: "xavier"
    }
    bias_filler {
      type: "constant"
    }
  }
}
layer {
  name: "pool1_12"
  type: "Pooling"
  bottom: "conv1_12"
  top: "pool1_12"
  pooling_param {
    pool: MAX
    kernel_size: 2
    stride: 2
  }
}
layer {
  name: "conv2_12"
  type: "Convolution"
  bottom: "pool1_12"
  top: "conv2_12"
  param {
    name: "conv2_w"
    lr_mult: 1
  }
  param {
    name: "conv2_b"
    lr_mult: 2
  }
  convolution_param {
    num_output: 50
    kernel_size: 5
    stride: 1
    weight_filler {
      type: "xavier"
    }
    bias_filler {
      type: "constant"
    }
  }
}
layer {
  name: "pool2_12"
  type: "Pooling"
  bottom: "conv2_12"
  top: "pool2_12"
  pooling_param {
    pool: MAX
    kernel_size: 2
    stride: 2
  }
}
layer {
  name: "ip1_12"
  type: "InnerProduct"
  bottom: "pool2_12"
  top: "ip1_12"
  param {
    name: "ip1_w"
    lr_mult: 1
  }
  param {
    name: "ip1_b"
    lr_mult: 2
  }
  inner_product_param {
    num_output: 500
    weight_filler {
      type: "xavier"
    }
    bias_filler {
      type: "constant"
    }
  }
}
layer {
  name: "relu1_12"
  type: "ReLU"
  bottom: "ip1_12"
  top: "ip1_12"
}
layer {
  name: "ip2_12"
  type: "InnerProduct"
  bottom: "ip1_12"
  top: "ip2_12"
  param {
    name: "ip2_w"
    lr_mult: 1
  }
  param {
    name: "ip2_b"
    lr_mult: 2
  }
  inner_product_param {
    num_output: 500
    weight_filler {
      type: "xavier"
    }
    bias_filler {
      type: "constant"
    }
  }
}
layer {
  name: "concat1"
  type: "Concat"
  bottom: "ip2_11"
  bottom: "ip2_12"
  top: "comb_1"
  concat_param {
    axis: 1
  }
}
layer {
  name: "fc1_1"
  type: "InnerProduct"
  bottom: "comb_1"
  top: "fc1_1"
  param {
    name: "fc1_w"
    lr_mult: 1
  }
  param {
    name: "fc1_b"
    lr_mult: 2
  }
  inner_product_param {
    num_output: 512
    weight_filler {
      type: "xavier"
    }
    bias_filler {
      type: "constant"
    }
  }
}
layer {
  name: "relu_fc1_1"
  type: "ReLU"
  bottom: "fc1_1"
  top: "fc1_1"
}
layer {
  name: "fc2_1"
  type: "InnerProduct"
  bottom: "fc1_1"
  top: "fc2_1"
  param {
    name: "fc2_w"
    lr_mult: 1
  }
  param {
    name: "fc2_b"
    lr_mult: 2
  }
  inner_product_param {
    num_output: 512
    weight_filler {
      type: "xavier"
    }
    bias_filler {
      type: "constant"
    }
  }
}
layer {
  name: "relu_fc2_1"
  type: "ReLU"
  bottom: "fc2_1"
  top: "fc2_1"
}
layer {
  name: "fc3_1"
  type: "InnerProduct"
  bottom: "fc2_1"
  top: "fc3_1"
  param {
    name: "fc3_w"
    lr_mult: 1
  }
  param {
    name: "fc3_b"
    lr_mult: 2
  }
  inner_product_param {
    num_output: 2
    weight_filler {
      type: "xavier"
    }
    bias_filler {
      type: "constant"
    }
  }
}
layer {
  name: "conv1_21"
  type: "Convolution"
  bottom: "p1"
  top: "conv1_21"
  param {
    name: "conv1_w"
    lr_mult: 1
  }
  param {
    name: "conv1_b"
    lr_mult: 2
  }
  convolution_param {
    num_output: 20
    kernel_size: 5
    stride: 1
    weight_filler {
      type: "xavier"
    }
    bias_filler {
      type: "constant"
    }
  }
}
layer {
  name: "pool1_21"
  type: "Pooling"
  bottom: "conv1_21"
  top: "pool1_21"
  pooling_param {
    pool: MAX
    kernel_size: 2
    stride: 2
  }
}
layer {
  name: "conv2_21"
  type: "Convolution"
  bottom: "pool1_21"
  top: "conv2_21"
  param {
    name: "conv2_w"
    lr_mult: 1
  }
  param {
    name: "conv2_b"
    lr_mult: 2
  }
  convolution_param {
    num_output: 50
    kernel_size: 5
    stride: 1
    weight_filler {
      type: "xavier"
    }
    bias_filler {
      type: "constant"
    }
  }
}
layer {
  name: "pool2_21"
  type: "Pooling"
  bottom: "conv2_21"
  top: "pool2_21"
  pooling_param {
    pool: MAX
    kernel_size: 2
    stride: 2
  }
}
layer {
  name: "ip1_21"
  type: "InnerProduct"
  bottom: "pool2_21"
  top: "ip1_21"
  param {
    name: "ip1_w"
    lr_mult: 1
  }
  param {
    name: "ip1_b"
    lr_mult: 2
  }
  inner_product_param {
    num_output: 500
    weight_filler {
      type: "xavier"
    }
    bias_filler {
      type: "constant"
    }
  }
}
layer {
  name: "relu1_21"
  type: "ReLU"
  bottom: "ip1_21"
  top: "ip1_21"
}
layer {
  name: "ip2_21"
  type: "InnerProduct"
  bottom: "ip1_21"
  top: "ip2_21"
  param {
    name: "ip2_w"
    lr_mult: 1
  }
  param {
    name: "ip2_b"
    lr_mult: 2
  }
  inner_product_param {
    num_output: 500
    weight_filler {
      type: "xavier"
    }
    bias_filler {
      type: "constant"
    }
  }
}
layer {
  name: "conv1_22"
  type: "Convolution"
  bottom: "s21"
  top: "conv1_22"
  param {
    name: "conv1_w"
    lr_mult: 1
  }
  param {
    name: "conv1_b"
    lr_mult: 2
  }
  convolution_param {
    num_output: 20
    kernel_size: 5
    stride: 1
    weight_filler {
      type: "xavier"
    }
    bias_filler {
      type: "constant"
    }
  }
}
layer {
  name: "pool1_22"
  type: "Pooling"
  bottom: "conv1_22"
  top: "pool1_22"
  pooling_param {
    pool: MAX
    kernel_size: 2
    stride: 2
  }
}
layer {
  name: "conv2_22"
  type: "Convolution"
  bottom: "pool1_22"
  top: "conv2_22"
  param {
    name: "conv2_w"
    lr_mult: 1
  }
  param {
    name: "conv2_b"
    lr_mult: 2
  }
  convolution_param {
    num_output: 50
    kernel_size: 5
    stride: 1
    weight_filler {
      type: "xavier"
    }
    bias_filler {
      type: "constant"
    }
  }
}
layer {
  name: "pool2_22"
  type: "Pooling"
  bottom: "conv2_22"
  top: "pool2_22"
  pooling_param {
    pool: MAX
    kernel_size: 2
    stride: 2
  }
}
layer {
  name: "ip1_22"
  type: "InnerProduct"
  bottom: "pool2_22"
  top: "ip1_22"
  param {
    name: "ip1_w"
    lr_mult: 1
  }
  param {
    name: "ip1_b"
    lr_mult: 2
  }
  inner_product_param {
    num_output: 500
    weight_filler {
      type: "xavier"
    }
    bias_filler {
      type: "constant"
    }
  }
}
layer {
  name: "relu1_22"
  type: "ReLU"
  bottom: "ip1_22"
  top: "ip1_22"
}
layer {
  name: "ip2_22"
  type: "InnerProduct"
  bottom: "ip1_22"
  top: "ip2_22"
  param {
    name: "ip2_w"
    lr_mult: 1
  }
  param {
    name: "ip2_22"
    lr_mult: 2
  }
  inner_product_param {
    num_output: 500
    weight_filler {
      type: "xavier"
    }
    bias_filler {
      type: "constant"
    }
  }
}
layer {
  name: "concat"
  type: "Concat"
  bottom: "ip2_21"
  bottom: "ip2_22"
  top: "comb_2"
  concat_param {
    axis: 1
  }
}
layer {
  name: "fc1_2"
  type: "InnerProduct"
  bottom: "comb_2"
  top: "fc1_2"
  param {
    name: "fc1_w"
    lr_mult: 1
  }
  param {
    name: "fc1_b"
    lr_mult: 2
  }
  inner_product_param {
    num_output: 512
    weight_filler {
      type: "xavier"
    }
    bias_filler {
      type: "constant"
    }
  }
}
layer {
  name: "relu_fc1_2"
  type: "ReLU"
  bottom: "fc1_2"
  top: "fc1_2"
}
layer {
  name: "fc2_2"
  type: "InnerProduct"
  bottom: "fc1_2"
  top: "fc2_2"
  param {
    name: "fc2_w"
    lr_mult: 1
  }
  param {
    name: "fc2_b"
    lr_mult: 2
  }
  inner_product_param {
    num_output: 512
    weight_filler {
      type: "xavier"
    }
    bias_filler {
      type: "constant"
    }
  }
}
layer {
  name: "relu_fc2_2"
  type: "ReLU"
  bottom: "fc2_2"
  top: "fc2_2"
}
layer {
  name: "fc3_2"
  type: "InnerProduct"
  bottom: "fc2_2"
  top: "fc3_2"
  param {
    name: "fc3_w"
    lr_mult: 1
  }
  param {
    name: "fc3_b"
    lr_mult: 2
  }
  inner_product_param {
    num_output: 2
    weight_filler {
      type: "xavier"
    }
    bias_filler {
      type: "constant"
    }
  }
}
layer {
  name: "conv1_31"
  type: "Convolution"
  bottom: "p1"
  top: "conv1_31"
  param {
    name: "conv1_w"
    lr_mult: 1
  }
  param {
    name: "conv1_b"
    lr_mult: 2
  }
  convolution_param {
    num_output: 20
    kernel_size: 5
    stride: 1
    weight_filler {
      type: "xavier"
    }
    bias_filler {
      type: "constant"
    }
  }
}
layer {
  name: "pool1_31"
  type: "Pooling"
  bottom: "conv1_31"
  top: "pool1_31"
  pooling_param {
    pool: MAX
    kernel_size: 2
    stride: 2
  }
}
layer {
  name: "conv2_31"
  type: "Convolution"
  bottom: "pool1_31"
  top: "conv2_31"
  param {
    name: "conv2_w"
    lr_mult: 1
  }
  param {
    name: "conv2_b"
    lr_mult: 2
  }
  convolution_param {
    num_output: 50
    kernel_size: 5
    stride: 1
    weight_filler {
      type: "xavier"
    }
    bias_filler {
      type: "constant"
    }
  }
}
layer {
  name: "pool2_31"
  type: "Pooling"
  bottom: "conv2_31"
  top: "pool2_31"
  pooling_param {
    pool: MAX
    kernel_size: 2
    stride: 2
  }
}
layer {
  name: "ip1_31"
  type: "InnerProduct"
  bottom: "pool2_31"
  top: "ip1_31"
  param {
    name: "ip1_w"
    lr_mult: 1
  }
  param {
    name: "ip1_b"
    lr_mult: 2
  }
  inner_product_param {
    num_output: 500
    weight_filler {
      type: "xavier"
    }
    bias_filler {
      type: "constant"
    }
  }
}
layer {
  name: "relu1_31"
  type: "ReLU"
  bottom: "ip1_31"
  top: "ip1_31"
}
layer {
  name: "ip2_31"
  type: "InnerProduct"
  bottom: "ip1_31"
  top: "ip2_31"
  param {
    name: "ip2_w"
    lr_mult: 1
  }
  param {
    name: "ip2_b"
    lr_mult: 2
  }
  inner_product_param {
    num_output: 500
    weight_filler {
      type: "xavier"
    }
    bias_filler {
      type: "constant"
    }
  }
}
layer {
  name: "conv1_32"
  type: "Convolution"
  bottom: "s22"
  top: "conv1_32"
  param {
    name: "conv1_w"
    lr_mult: 1
  }
  param {
    name: "conv1_b"
    lr_mult: 2
  }
  convolution_param {
    num_output: 20
    kernel_size: 5
    stride: 1
    weight_filler {
      type: "xavier"
    }
    bias_filler {
      type: "constant"
    }
  }
}
layer {
  name: "pool1_32"
  type: "Pooling"
  bottom: "conv1_32"
  top: "pool1_32"
  pooling_param {
    pool: MAX
    kernel_size: 2
    stride: 2
  }
}
layer {
  name: "conv2_32"
  type: "Convolution"
  bottom: "pool1_32"
  top: "conv2_32"
  param {
    name: "conv2_w"
    lr_mult: 1
  }
  param {
    name: "conv2_b"
    lr_mult: 2
  }
  convolution_param {
    num_output: 50
    kernel_size: 5
    stride: 1
    weight_filler {
      type: "xavier"
    }
    bias_filler {
      type: "constant"
    }
  }
}
layer {
  name: "pool2_32"
  type: "Pooling"
  bottom: "conv2_32"
  top: "pool2_32"
  pooling_param {
    pool: MAX
    kernel_size: 2
    stride: 2
  }
}
layer {
  name: "ip1_32"
  type: "InnerProduct"
  bottom: "pool2_32"
  top: "ip1_32"
  param {
    name: "ip1_w"
    lr_mult: 1
  }
  param {
    name: "ip1_b"
    lr_mult: 2
  }
  inner_product_param {
    num_output: 500
    weight_filler {
      type: "xavier"
    }
    bias_filler {
      type: "constant"
    }
  }
}
layer {
  name: "relu1_32"
  type: "ReLU"
  bottom: "ip1_32"
  top: "ip1_32"
}
layer {
  name: "ip2_32"
  type: "InnerProduct"
  bottom: "ip1_32"
  top: "ip2_32"
  param {
    name: "ip2_w"
    lr_mult: 1
  }
  param {
    name: "ip2_b"
    lr_mult: 2
  }
  inner_product_param {
    num_output: 500
    weight_filler {
      type: "xavier"
    }
    bias_filler {
      type: "constant"
    }
  }
}
layer {
  name: "concat_3"
  type: "Concat"
  bottom: "ip2_31"
  bottom: "ip2_32"
  top: "comb_3"
  concat_param {
    axis: 1
  }
}
layer {
  name: "fc1_3"
  type: "InnerProduct"
  bottom: "comb_3"
  top: "fc1_3"
  param {
    name: "fc1_w"
    lr_mult: 1
  }
  param {
    name: "fc1_b"
    lr_mult: 2
  }
  inner_product_param {
    num_output: 512
    weight_filler {
      type: "xavier"
    }
    bias_filler {
      type: "constant"
    }
  }
}
layer {
  name: "relu_fc1_3"
  type: "ReLU"
  bottom: "fc1_3"
  top: "fc1_3"
}
layer {
  name: "fc2_3"
  type: "InnerProduct"
  bottom: "fc1_3"
  top: "fc2_3"
  param {
    name: "fc2_w"
    lr_mult: 1
  }
  param {
    name: "fc2_b"
    lr_mult: 2
  }
  inner_product_param {
    num_output: 512
    weight_filler {
      type: "xavier"
    }
    bias_filler {
      type: "constant"
    }
  }
}
layer {
  name: "relu_fc2_3"
  type: "ReLU"
  bottom: "fc2_3"
  top: "fc2_3"
}
layer {
  name: "fc3_3"
  type: "InnerProduct"
  bottom: "fc2_3"
  top: "fc3_3"
  param {
    name: "fc3_w"
    lr_mult: 1
  }
  param {
    name: "fc3_b"
    lr_mult: 2
  }
  inner_product_param {
    num_output: 2
    weight_filler {
      type: "xavier"
    }
    bias_filler {
      type: "constant"
    }
  }
}
layer {
  name: "conv1_41"
  type: "Convolution"
  bottom: "p1"
  top: "conv1_41"
  param {
    name: "conv1_w"
    lr_mult: 1
  }
  param {
    name: "conv1_b"
    lr_mult: 2
  }
  convolution_param {
    num_output: 20
    kernel_size: 5
    stride: 1
    weight_filler {
      type: "xavier"
    }
    bias_filler {
      type: "constant"
    }
  }
}
layer {
  name: "pool1_41"
  type: "Pooling"
  bottom: "conv1_41"
  top: "pool1_41"
  pooling_param {
    pool: MAX
    kernel_size: 2
    stride: 2
  }
}
layer {
  name: "conv2_41"
  type: "Convolution"
  bottom: "pool1_41"
  top: "conv2_41"
  param {
    name: "conv2_w"
    lr_mult: 1
  }
  param {
    name: "conv2_b"
    lr_mult: 2
  }
  convolution_param {
    num_output: 50
    kernel_size: 5
    stride: 1
    weight_filler {
      type: "xavier"
    }
    bias_filler {
      type: "constant"
    }
  }
}
layer {
  name: "pool2_41"
  type: "Pooling"
  bottom: "conv2_41"
  top: "pool2_41"
  pooling_param {
    pool: MAX
    kernel_size: 2
    stride: 2
  }
}
layer {
  name: "ip1_41"
  type: "InnerProduct"
  bottom: "pool2_41"
  top: "ip1_41"
  param {
    name: "ip1_w"
    lr_mult: 1
  }
  param {
    name: "ip1_b"
    lr_mult: 2
  }
  inner_product_param {
    num_output: 500
    weight_filler {
      type: "xavier"
    }
    bias_filler {
      type: "constant"
    }
  }
}
layer {
  name: "relu1_41"
  type: "ReLU"
  bottom: "ip1_41"
  top: "ip1_41"
}
layer {
  name: "ip2_41"
  type: "InnerProduct"
  bottom: "ip1_41"
  top: "ip2_41"
  param {
    name: "ip2_w"
    lr_mult: 1
  }
  param {
    name: "ip2_b"
    lr_mult: 2
  }
  inner_product_param {
    num_output: 500
    weight_filler {
      type: "xavier"
    }
    bias_filler {
      type: "constant"
    }
  }
}
layer {
  name: "conv1_42"
  type: "Convolution"
  bottom: "s23"
  top: "conv1_42"
  param {
    name: "conv1_w"
    lr_mult: 1
  }
  param {
    name: "conv1_b"
    lr_mult: 2
  }
  convolution_param {
    num_output: 20
    kernel_size: 5
    stride: 1
    weight_filler {
      type: "xavier"
    }
    bias_filler {
      type: "constant"
    }
  }
}
layer {
  name: "pool1_42"
  type: "Pooling"
  bottom: "conv1_42"
  top: "pool1_42"
  pooling_param {
    pool: MAX
    kernel_size: 2
    stride: 2
  }
}
layer {
  name: "conv2_42"
  type: "Convolution"
  bottom: "pool1_42"
  top: "conv2_42"
  param {
    name: "conv2_w"
    lr_mult: 1
  }
  param {
    name: "conv2_b"
    lr_mult: 2
  }
  convolution_param {
    num_output: 50
    kernel_size: 5
    stride: 1
    weight_filler {
      type: "xavier"
    }
    bias_filler {
      type: "constant"
    }
  }
}
layer {
  name: "pool2_42"
  type: "Pooling"
  bottom: "conv2_42"
  top: "pool2_42"
  pooling_param {
    pool: MAX
    kernel_size: 2
    stride: 2
  }
}
layer {
  name: "ip1_42"
  type: "InnerProduct"
  bottom: "pool2_42"
  top: "ip1_42"
  param {
    name: "ip1_w"
    lr_mult: 1
  }
  param {
    name: "ip1_b"
    lr_mult: 2
  }
  inner_product_param {
    num_output: 500
    weight_filler {
      type: "xavier"
    }
    bias_filler {
      type: "constant"
    }
  }
}
layer {
  name: "relu1_42"
  type: "ReLU"
  bottom: "ip1_42"
  top: "ip1_42"
}
layer {
  name: "ip2_42"
  type: "InnerProduct"
  bottom: "ip1_42"
  top: "ip2_42"
  param {
    name: "ip2_w"
    lr_mult: 1
  }
  param {
    name: "ip2_b"
    lr_mult: 2
  }
  inner_product_param {
    num_output: 500
    weight_filler {
      type: "xavier"
    }
    bias_filler {
      type: "constant"
    }
  }
}
layer {
  name: "concat_4"
  type: "Concat"
  bottom: "ip2_41"
  bottom: "ip2_42"
  top: "comb_4"
  concat_param {
    axis: 1
  }
}
layer {
  name: "fc1_4"
  type: "InnerProduct"
  bottom: "comb_4"
  top: "fc1_4"
  param {
    name: "fc1_w"
    lr_mult: 1
  }
  param {
    name: "fc1_b"
    lr_mult: 2
  }
  inner_product_param {
    num_output: 512
    weight_filler {
      type: "xavier"
    }
    bias_filler {
      type: "constant"
    }
  }
}
layer {
  name: "relu_fc1_4"
  type: "ReLU"
  bottom: "fc1_4"
  top: "fc1_4"
}
layer {
  name: "fc2_4"
  type: "InnerProduct"
  bottom: "fc1_4"
  top: "fc2_4"
  param {
    name: "fc2_w"
    lr_mult: 1
  }
  param {
    name: "fc2_b"
    lr_mult: 2
  }
  inner_product_param {
    num_output: 512
    weight_filler {
      type: "xavier"
    }
    bias_filler {
      type: "constant"
    }
  }
}
layer {
  name: "relu_fc2_4"
  type: "ReLU"
  bottom: "fc2_4"
  top: "fc2_4"
}
layer {
  name: "fc3_4"
  type: "InnerProduct"
  bottom: "fc2_4"
  top: "fc3_4"
  param {
    name: "fc3_w"
    lr_mult: 1
  }
  param {
    name: "fc3_b"
    lr_mult: 2
  }
  inner_product_param {
    num_output: 2
    weight_filler {
      type: "xavier"
    }
    bias_filler {
      type: "constant"
    }
  }
}
layer {
  name: "conv1_51"
  type: "Convolution"
  bottom: "p1"
  top: "conv1_51"
  param {
    name: "conv1_w"
    lr_mult: 1
  }
  param {
    name: "conv1_b"
    lr_mult: 2
  }
  convolution_param {
    num_output: 20
    kernel_size: 5
    stride: 1
    weight_filler {
      type: "xavier"
    }
    bias_filler {
      type: "constant"
    }
  }
}
layer {
  name: "pool1_51"
  type: "Pooling"
  bottom: "conv1_51"
  top: "pool1_51"
  pooling_param {
    pool: MAX
    kernel_size: 2
    stride: 2
  }
}
layer {
  name: "conv2_51"
  type: "Convolution"
  bottom: "pool1_51"
  top: "conv2_51"
  param {
    name: "conv2_w"
    lr_mult: 1
  }
  param {
    name: "conv2_b"
    lr_mult: 2
  }
  convolution_param {
    num_output: 50
    kernel_size: 5
    stride: 1
    weight_filler {
      type: "xavier"
    }
    bias_filler {
      type: "constant"
    }
  }
}
layer {
  name: "pool2_51"
  type: "Pooling"
  bottom: "conv2_51"
  top: "pool2_51"
  pooling_param {
    pool: MAX
    kernel_size: 2
    stride: 2
  }
}
layer {
  name: "ip1_51"
  type: "InnerProduct"
  bottom: "pool2_51"
  top: "ip1_51"
  param {
    name: "ip1_w"
    lr_mult: 1
  }
  param {
    name: "ip1_b"
    lr_mult: 2
  }
  inner_product_param {
    num_output: 500
    weight_filler {
      type: "xavier"
    }
    bias_filler {
      type: "constant"
    }
  }
}
layer {
  name: "relu1_51"
  type: "ReLU"
  bottom: "ip1_51"
  top: "ip1_51"
}
layer {
  name: "ip2_51"
  type: "InnerProduct"
  bottom: "ip1_51"
  top: "ip2_51"
  param {
    name: "ip2_w"
    lr_mult: 1
  }
  param {
    name: "ip2_b"
    lr_mult: 2
  }
  inner_product_param {
    num_output: 500
    weight_filler {
      type: "xavier"
    }
    bias_filler {
      type: "constant"
    }
  }
}
layer {
  name: "conv1_52"
  type: "Convolution"
  bottom: "s24"
  top: "conv1_52"
  param {
    name: "conv1_w"
    lr_mult: 1
  }
  param {
    name: "conv1_b"
    lr_mult: 2
  }
  convolution_param {
    num_output: 20
    kernel_size: 5
    stride: 1
    weight_filler {
      type: "xavier"
    }
    bias_filler {
      type: "constant"
    }
  }
}
layer {
  name: "pool1_52"
  type: "Pooling"
  bottom: "conv1_52"
  top: "pool1_52"
  pooling_param {
    pool: MAX
    kernel_size: 2
    stride: 2
  }
}
layer {
  name: "conv2_52"
  type: "Convolution"
  bottom: "pool1_52"
  top: "conv2_52"
  param {
    name: "conv2_w"
    lr_mult: 1
  }
  param {
    name: "conv2_b"
    lr_mult: 2
  }
  convolution_param {
    num_output: 50
    kernel_size: 5
    stride: 1
    weight_filler {
      type: "xavier"
    }
    bias_filler {
      type: "constant"
    }
  }
}
layer {
  name: "pool2_52"
  type: "Pooling"
  bottom: "conv2_52"
  top: "pool2_52"
  pooling_param {
    pool: MAX
    kernel_size: 2
    stride: 2
  }
}
layer {
  name: "ip1_52"
  type: "InnerProduct"
  bottom: "pool2_52"
  top: "ip1_52"
  param {
    name: "ip1_w"
    lr_mult: 1
  }
  param {
    name: "ip1_b"
    lr_mult: 2
  }
  inner_product_param {
    num_output: 500
    weight_filler {
      type: "xavier"
    }
    bias_filler {
      type: "constant"
    }
  }
}
layer {
  name: "relu1_52"
  type: "ReLU"
  bottom: "ip1_52"
  top: "ip1_52"
}
layer {
  name: "ip2_52"
  type: "InnerProduct"
  bottom: "ip1_52"
  top: "ip2_52"
  param {
    name: "ip2_w"
    lr_mult: 1
  }
  param {
    name: "ip2_b"
    lr_mult: 2
  }
  inner_product_param {
    num_output: 500
    weight_filler {
      type: "xavier"
    }
    bias_filler {
      type: "constant"
    }
  }
}
layer {
  name: "concat_5"
  type: "Concat"
  bottom: "ip2_51"
  bottom: "ip2_52"
  top: "comb_5"
  concat_param {
    axis: 1
  }
}
layer {
  name: "fc1_5"
  type: "InnerProduct"
  bottom: "comb_5"
  top: "fc1_5"
  param {
    name: "fc1_w"
    lr_mult: 1
  }
  param {
    name: "fc1_b"
    lr_mult: 2
  }
  inner_product_param {
    num_output: 512
    weight_filler {
      type: "xavier"
    }
    bias_filler {
      type: "constant"
    }
  }
}
layer {
  name: "relu_fc1_5"
  type: "ReLU"
  bottom: "fc1_5"
  top: "fc1_5"
}
layer {
  name: "fc2_5"
  type: "InnerProduct"
  bottom: "fc1_5"
  top: "fc2_5"
  param {
    name: "fc2_w"
    lr_mult: 1
  }
  param {
    name: "fc2_b"
    lr_mult: 2
  }
  inner_product_param {
    num_output: 512
    weight_filler {
      type: "xavier"
    }
    bias_filler {
      type: "constant"
    }
  }
}
layer {
  name: "relu_fc2_5"
  type: "ReLU"
  bottom: "fc2_5"
  top: "fc2_5"
}
layer {
  name: "fc3_5"
  type: "InnerProduct"
  bottom: "fc2_5"
  top: "fc3_5"
  param {
    name: "fc3_w"
    lr_mult: 1
  }
  param {
    name: "fc3_b"
    lr_mult: 2
  }
  inner_product_param {
    num_output: 2
    weight_filler {
      type: "xavier"
    }
    bias_filler {
      type: "constant"
    }
  }
}
layer {
  name: "conv1_61"
  type: "Convolution"
  bottom: "s11"
  top: "conv1_61"
  param {
    name: "conv1_w"
    lr_mult: 1
  }
  param {
    name: "conv1_b"
    lr_mult: 2
  }
  convolution_param {
    num_output: 20
    kernel_size: 5
    stride: 1
    weight_filler {
      type: "xavier"
    }
    bias_filler {
      type: "constant"
    }
  }
}
layer {
  name: "pool1_61"
  type: "Pooling"
  bottom: "conv1_61"
  top: "pool1_61"
  pooling_param {
    pool: MAX
    kernel_size: 2
    stride: 2
  }
}
layer {
  name: "conv2_61"
  type: "Convolution"
  bottom: "pool1_61"
  top: "conv2_61"
  param {
    name: "conv2_w"
    lr_mult: 1
  }
  param {
    name: "conv2_b"
    lr_mult: 2
  }
  convolution_param {
    num_output: 50
    kernel_size: 5
    stride: 1
    weight_filler {
      type: "xavier"
    }
    bias_filler {
      type: "constant"
    }
  }
}
layer {
  name: "pool2_61"
  type: "Pooling"
  bottom: "conv2_61"
  top: "pool2_61"
  pooling_param {
    pool: MAX
    kernel_size: 2
    stride: 2
  }
}
layer {
  name: "ip1_61"
  type: "InnerProduct"
  bottom: "pool2_61"
  top: "ip1_61"
  param {
    name: "ip1_w"
    lr_mult: 1
  }
  param {
    name: "ip1_b"
    lr_mult: 2
  }
  inner_product_param {
    num_output: 500
    weight_filler {
      type: "xavier"
    }
    bias_filler {
      type: "constant"
    }
  }
}
layer {
  name: "relu1_61"
  type: "ReLU"
  bottom: "ip1_61"
  top: "ip1_61"
}
layer {
  name: "ip2_61"
  type: "InnerProduct"
  bottom: "ip1_61"
  top: "ip2_61"
  param {
    name: "ip2_w"
    lr_mult: 1
  }
  param {
    name: "ip2_b"
    lr_mult: 2
  }
  inner_product_param {
    num_output: 500
    weight_filler {
      type: "xavier"
    }
    bias_filler {
      type: "constant"
    }
  }
}
layer {
  name: "conv1_62"
  type: "Convolution"
  bottom: "p2"
  top: "conv1_62"
  param {
    name: "conv1_w"
    lr_mult: 1
  }
  param {
    name: "conv1_b"
    lr_mult: 2
  }
  convolution_param {
    num_output: 20
    kernel_size: 5
    stride: 1
    weight_filler {
      type: "xavier"
    }
    bias_filler {
      type: "constant"
    }
  }
}
layer {
  name: "pool1_62"
  type: "Pooling"
  bottom: "conv1_62"
  top: "pool1_62"
  pooling_param {
    pool: MAX
    kernel_size: 2
    stride: 2
  }
}
layer {
  name: "conv2_62"
  type: "Convolution"
  bottom: "pool1_62"
  top: "conv2_62"
  param {
    name: "conv2_w"
    lr_mult: 1
  }
  param {
    name: "conv2_b"
    lr_mult: 2
  }
  convolution_param {
    num_output: 50
    kernel_size: 5
    stride: 1
    weight_filler {
      type: "xavier"
    }
    bias_filler {
      type: "constant"
    }
  }
}
layer {
  name: "pool2_62"
  type: "Pooling"
  bottom: "conv2_62"
  top: "pool2_62"
  pooling_param {
    pool: MAX
    kernel_size: 2
    stride: 2
  }
}
layer {
  name: "ip1_62"
  type: "InnerProduct"
  bottom: "pool2_62"
  top: "ip1_62"
  param {
    name: "ip1_w"
    lr_mult: 1
  }
  param {
    name: "ip1_b"
    lr_mult: 2
  }
  inner_product_param {
    num_output: 500
    weight_filler {
      type: "xavier"
    }
    bias_filler {
      type: "constant"
    }
  }
}
layer {
  name: "relu1_62"
  type: "ReLU"
  bottom: "ip1_62"
  top: "ip1_62"
}
layer {
  name: "ip2_62"
  type: "InnerProduct"
  bottom: "ip1_62"
  top: "ip2_62"
  param {
    name: "ip2_w"
    lr_mult: 1
  }
  param {
    name: "ip2_b"
    lr_mult: 2
  }
  inner_product_param {
    num_output: 500
    weight_filler {
      type: "xavier"
    }
    bias_filler {
      type: "constant"
    }
  }
}
layer {
  name: "concat_6"
  type: "Concat"
  bottom: "ip2_61"
  bottom: "ip2_62"
  top: "comb_6"
  concat_param {
    axis: 1
  }
}
layer {
  name: "fc1_6"
  type: "InnerProduct"
  bottom: "comb_6"
  top: "fc1_6"
  param {
    name: "fc1_w"
    lr_mult: 1
  }
  param {
    name: "fc1_b"
    lr_mult: 2
  }
  inner_product_param {
    num_output: 512
    weight_filler {
      type: "xavier"
    }
    bias_filler {
      type: "constant"
    }
  }
}
layer {
  name: "relu_fc1_6"
  type: "ReLU"
  bottom: "fc1_6"
  top: "fc1_6"
}
layer {
  name: "fc2_6"
  type: "InnerProduct"
  bottom: "fc1_6"
  top: "fc2_6"
  param {
    name: "fc2_w"
    lr_mult: 1
  }
  param {
    name: "fc2_b"
    lr_mult: 2
  }
  inner_product_param {
    num_output: 512
    weight_filler {
      type: "xavier"
    }
    bias_filler {
      type: "constant"
    }
  }
}
layer {
  name: "relu_fc2_6"
  type: "ReLU"
  bottom: "fc2_6"
  top: "fc2_6"
}
layer {
  name: "fc3_6"
  type: "InnerProduct"
  bottom: "fc2_6"
  top: "
I0719 18:12:24.156553  3401 layer_factory.hpp:77] Creating layer pair_data
I0719 18:12:24.156983  3401 net.cpp:91] Creating Layer pair_data
I0719 18:12:24.156999  3401 net.cpp:399] pair_data -> pair_data
I0719 18:12:24.157027  3401 net.cpp:399] pair_data -> label
I0719 18:12:24.157044  3401 data_transformer.cpp:25] Loading mean file from: examples/scene/scene_mean.binaryproto
I0719 18:12:24.158345  3405 db_lmdb.cpp:35] Opened lmdb examples/scene/train_pairs.lmdb
I0719 18:12:24.158480  3401 data_layer.cpp:41] output data size: 128,6,128,128
I0719 18:12:24.251404  3401 net.cpp:141] Setting up pair_data
I0719 18:12:24.251464  3401 net.cpp:148] Top shape: 128 6 128 128 (12582912)
I0719 18:12:24.251472  3401 net.cpp:148] Top shape: 128 (128)
I0719 18:12:24.251477  3401 net.cpp:156] Memory required for data: 50332160
I0719 18:12:24.251490  3401 layer_factory.hpp:77] Creating layer label_pair_data_1_split
I0719 18:12:24.251560  3401 net.cpp:91] Creating Layer label_pair_data_1_split
I0719 18:12:24.251574  3401 net.cpp:425] label_pair_data_1_split <- label
I0719 18:12:24.251618  3401 net.cpp:399] label_pair_data_1_split -> label_pair_data_1_split_0
I0719 18:12:24.251636  3401 net.cpp:399] label_pair_data_1_split -> label_pair_data_1_split_1
I0719 18:12:24.251654  3401 net.cpp:141] Setting up label_pair_data_1_split
I0719 18:12:24.251662  3401 net.cpp:148] Top shape: 128 (128)
I0719 18:12:24.251665  3401 net.cpp:148] Top shape: 128 (128)
I0719 18:12:24.251669  3401 net.cpp:156] Memory required for data: 50333184
I0719 18:12:24.251673  3401 layer_factory.hpp:77] Creating layer slice_pair
I0719 18:12:24.251688  3401 net.cpp:91] Creating Layer slice_pair
I0719 18:12:24.251691  3401 net.cpp:425] slice_pair <- pair_data
I0719 18:12:24.251698  3401 net.cpp:399] slice_pair -> i1
I0719 18:12:24.251706  3401 net.cpp:399] slice_pair -> i2
I0719 18:12:24.251719  3401 net.cpp:141] Setting up slice_pair
I0719 18:12:24.251725  3401 net.cpp:148] Top shape: 128 3 128 128 (6291456)
I0719 18:12:24.251730  3401 net.cpp:148] Top shape: 128 3 128 128 (6291456)
I0719 18:12:24.251752  3401 net.cpp:156] Memory required for data: 100664832
I0719 18:12:24.251756  3401 layer_factory.hpp:77] Creating layer i1_slice_pair_0_split
I0719 18:12:24.251763  3401 net.cpp:91] Creating Layer i1_slice_pair_0_split
I0719 18:12:24.251767  3401 net.cpp:425] i1_slice_pair_0_split <- i1
I0719 18:12:24.251773  3401 net.cpp:399] i1_slice_pair_0_split -> i1_slice_pair_0_split_0
I0719 18:12:24.251780  3401 net.cpp:399] i1_slice_pair_0_split -> i1_slice_pair_0_split_1
I0719 18:12:24.251787  3401 net.cpp:141] Setting up i1_slice_pair_0_split
I0719 18:12:24.251793  3401 net.cpp:148] Top shape: 128 3 128 128 (6291456)
I0719 18:12:24.251799  3401 net.cpp:148] Top shape: 128 3 128 128 (6291456)
I0719 18:12:24.251803  3401 net.cpp:156] Memory required for data: 150996480
I0719 18:12:24.251807  3401 layer_factory.hpp:77] Creating layer i2_slice_pair_1_split
I0719 18:12:24.251816  3401 net.cpp:91] Creating Layer i2_slice_pair_1_split
I0719 18:12:24.251819  3401 net.cpp:425] i2_slice_pair_1_split <- i2
I0719 18:12:24.251826  3401 net.cpp:399] i2_slice_pair_1_split -> i2_slice_pair_1_split_0
I0719 18:12:24.251832  3401 net.cpp:399] i2_slice_pair_1_split -> i2_slice_pair_1_split_1
I0719 18:12:24.251840  3401 net.cpp:141] Setting up i2_slice_pair_1_split
I0719 18:12:24.251847  3401 net.cpp:148] Top shape: 128 3 128 128 (6291456)
I0719 18:12:24.251852  3401 net.cpp:148] Top shape: 128 3 128 128 (6291456)
I0719 18:12:24.251855  3401 net.cpp:156] Memory required for data: 201328128
I0719 18:12:24.251859  3401 layer_factory.hpp:77] Creating layer pool_i1
I0719 18:12:24.251869  3401 net.cpp:91] Creating Layer pool_i1
I0719 18:12:24.251873  3401 net.cpp:425] pool_i1 <- i1_slice_pair_0_split_0
I0719 18:12:24.251879  3401 net.cpp:399] pool_i1 -> p1
I0719 18:12:24.251901  3401 net.cpp:141] Setting up pool_i1
I0719 18:12:24.251909  3401 net.cpp:148] Top shape: 128 3 64 64 (1572864)
I0719 18:12:24.251912  3401 net.cpp:156] Memory required for data: 207619584
I0719 18:12:24.251917  3401 layer_factory.hpp:77] Creating layer p1_pool_i1_0_split
I0719 18:12:24.251924  3401 net.cpp:91] Creating Layer p1_pool_i1_0_split
I0719 18:12:24.251929  3401 net.cpp:425] p1_pool_i1_0_split <- p1
I0719 18:12:24.251935  3401 net.cpp:399] p1_pool_i1_0_split -> p1_pool_i1_0_split_0
I0719 18:12:24.251942  3401 net.cpp:399] p1_pool_i1_0_split -> p1_pool_i1_0_split_1
I0719 18:12:24.251950  3401 net.cpp:399] p1_pool_i1_0_split -> p1_pool_i1_0_split_2
I0719 18:12:24.251956  3401 net.cpp:399] p1_pool_i1_0_split -> p1_pool_i1_0_split_3
I0719 18:12:24.251962  3401 net.cpp:399] p1_pool_i1_0_split -> p1_pool_i1_0_split_4
I0719 18:12:24.251972  3401 net.cpp:141] Setting up p1_pool_i1_0_split
I0719 18:12:24.251977  3401 net.cpp:148] Top shape: 128 3 64 64 (1572864)
I0719 18:12:24.251982  3401 net.cpp:148] Top shape: 128 3 64 64 (1572864)
I0719 18:12:24.251986  3401 net.cpp:148] Top shape: 128 3 64 64 (1572864)
I0719 18:12:24.251991  3401 net.cpp:148] Top shape: 128 3 64 64 (1572864)
I0719 18:12:24.251996  3401 net.cpp:148] Top shape: 128 3 64 64 (1572864)
I0719 18:12:24.252001  3401 net.cpp:156] Memory required for data: 239076864
I0719 18:12:24.252004  3401 layer_factory.hpp:77] Creating layer pool_i2
I0719 18:12:24.252065  3401 net.cpp:91] Creating Layer pool_i2
I0719 18:12:24.252071  3401 net.cpp:425] pool_i2 <- i2_slice_pair_1_split_0
I0719 18:12:24.252079  3401 net.cpp:399] pool_i2 -> p2
I0719 18:12:24.252091  3401 net.cpp:141] Setting up pool_i2
I0719 18:12:24.252099  3401 net.cpp:148] Top shape: 128 3 64 64 (1572864)
I0719 18:12:24.252104  3401 net.cpp:156] Memory required for data: 245368320
I0719 18:12:24.252107  3401 layer_factory.hpp:77] Creating layer p2_pool_i2_0_split
I0719 18:12:24.252115  3401 net.cpp:91] Creating Layer p2_pool_i2_0_split
I0719 18:12:24.252120  3401 net.cpp:425] p2_pool_i2_0_split <- p2
I0719 18:12:24.252126  3401 net.cpp:399] p2_pool_i2_0_split -> p2_pool_i2_0_split_0
I0719 18:12:24.252135  3401 net.cpp:399] p2_pool_i2_0_split -> p2_pool_i2_0_split_1
I0719 18:12:24.252141  3401 net.cpp:399] p2_pool_i2_0_split -> p2_pool_i2_0_split_2
I0719 18:12:24.252161  3401 net.cpp:399] p2_pool_i2_0_split -> p2_pool_i2_0_split_3
I0719 18:12:24.252168  3401 net.cpp:399] p2_pool_i2_0_split -> p2_pool_i2_0_split_4
I0719 18:12:24.252178  3401 net.cpp:141] Setting up p2_pool_i2_0_split
I0719 18:12:24.252184  3401 net.cpp:148] Top shape: 128 3 64 64 (1572864)
I0719 18:12:24.252190  3401 net.cpp:148] Top shape: 128 3 64 64 (1572864)
I0719 18:12:24.252195  3401 net.cpp:148] Top shape: 128 3 64 64 (1572864)
I0719 18:12:24.252202  3401 net.cpp:148] Top shape: 128 3 64 64 (1572864)
I0719 18:12:24.252207  3401 net.cpp:148] Top shape: 128 3 64 64 (1572864)
I0719 18:12:24.252210  3401 net.cpp:156] Memory required for data: 276825600
I0719 18:12:24.252215  3401 layer_factory.hpp:77] Creating layer slice_h_i1
I0719 18:12:24.252223  3401 net.cpp:91] Creating Layer slice_h_i1
I0719 18:12:24.252226  3401 net.cpp:425] slice_h_i1 <- i1_slice_pair_0_split_1
I0719 18:12:24.252233  3401 net.cpp:399] slice_h_i1 -> i1_h1
I0719 18:12:24.252240  3401 net.cpp:399] slice_h_i1 -> i1_h2
I0719 18:12:24.252249  3401 net.cpp:141] Setting up slice_h_i1
I0719 18:12:24.252255  3401 net.cpp:148] Top shape: 128 3 64 128 (3145728)
I0719 18:12:24.252261  3401 net.cpp:148] Top shape: 128 3 64 128 (3145728)
I0719 18:12:24.252265  3401 net.cpp:156] Memory required for data: 301991424
I0719 18:12:24.252269  3401 layer_factory.hpp:77] Creating layer slice_h_i2
I0719 18:12:24.252275  3401 net.cpp:91] Creating Layer slice_h_i2
I0719 18:12:24.252280  3401 net.cpp:425] slice_h_i2 <- i2_slice_pair_1_split_1
I0719 18:12:24.252285  3401 net.cpp:399] slice_h_i2 -> i2_h1
I0719 18:12:24.252292  3401 net.cpp:399] slice_h_i2 -> i2_h2
I0719 18:12:24.252300  3401 net.cpp:141] Setting up slice_h_i2
I0719 18:12:24.252306  3401 net.cpp:148] Top shape: 128 3 64 128 (3145728)
I0719 18:12:24.252310  3401 net.cpp:148] Top shape: 128 3 64 128 (3145728)
I0719 18:12:24.252315  3401 net.cpp:156] Memory required for data: 327157248
I0719 18:12:24.252317  3401 layer_factory.hpp:77] Creating layer slice_w_i1_h1
I0719 18:12:24.252323  3401 net.cpp:91] Creating Layer slice_w_i1_h1
I0719 18:12:24.252327  3401 net.cpp:425] slice_w_i1_h1 <- i1_h1
I0719 18:12:24.252333  3401 net.cpp:399] slice_w_i1_h1 -> s11
I0719 18:12:24.252341  3401 net.cpp:399] slice_w_i1_h1 -> s12
I0719 18:12:24.252349  3401 net.cpp:141] Setting up slice_w_i1_h1
I0719 18:12:24.252356  3401 net.cpp:148] Top shape: 128 3 64 64 (1572864)
I0719 18:12:24.252362  3401 net.cpp:148] Top shape: 128 3 64 64 (1572864)
I0719 18:12:24.252365  3401 net.cpp:156] Memory required for data: 339740160
I0719 18:12:24.252369  3401 layer_factory.hpp:77] Creating layer slice_w_i1_h2
I0719 18:12:24.252375  3401 net.cpp:91] Creating Layer slice_w_i1_h2
I0719 18:12:24.252380  3401 net.cpp:425] slice_w_i1_h2 <- i1_h2
I0719 18:12:24.252387  3401 net.cpp:399] slice_w_i1_h2 -> s13
I0719 18:12:24.252393  3401 net.cpp:399] slice_w_i1_h2 -> s14
I0719 18:12:24.252400  3401 net.cpp:141] Setting up slice_w_i1_h2
I0719 18:12:24.252406  3401 net.cpp:148] Top shape: 128 3 64 64 (1572864)
I0719 18:12:24.252411  3401 net.cpp:148] Top shape: 128 3 64 64 (1572864)
I0719 18:12:24.252415  3401 net.cpp:156] Memory required for data: 352323072
I0719 18:12:24.252419  3401 layer_factory.hpp:77] Creating layer slice_w_i2_h1
I0719 18:12:24.252426  3401 net.cpp:91] Creating Layer slice_w_i2_h1
I0719 18:12:24.252430  3401 net.cpp:425] slice_w_i2_h1 <- i2_h1
I0719 18:12:24.252436  3401 net.cpp:399] slice_w_i2_h1 -> s21
I0719 18:12:24.252444  3401 net.cpp:399] slice_w_i2_h1 -> s22
I0719 18:12:24.252451  3401 net.cpp:141] Setting up slice_w_i2_h1
I0719 18:12:24.252456  3401 net.cpp:148] Top shape: 128 3 64 64 (1572864)
I0719 18:12:24.252462  3401 net.cpp:148] Top shape: 128 3 64 64 (1572864)
I0719 18:12:24.252466  3401 net.cpp:156] Memory required for data: 364905984
I0719 18:12:24.252470  3401 layer_factory.hpp:77] Creating layer slice_w_i2_h2
I0719 18:12:24.252476  3401 net.cpp:91] Creating Layer slice_w_i2_h2
I0719 18:12:24.252480  3401 net.cpp:425] slice_w_i2_h2 <- i2_h2
I0719 18:12:24.252486  3401 net.cpp:399] slice_w_i2_h2 -> s23
I0719 18:12:24.252506  3401 net.cpp:399] slice_w_i2_h2 -> s24
I0719 18:12:24.252516  3401 net.cpp:141] Setting up slice_w_i2_h2
I0719 18:12:24.252521  3401 net.cpp:148] Top shape: 128 3 64 64 (1572864)
I0719 18:12:24.252527  3401 net.cpp:148] Top shape: 128 3 64 64 (1572864)
I0719 18:12:24.252532  3401 net.cpp:156] Memory required for data: 377488896
I0719 18:12:24.252535  3401 layer_factory.hpp:77] Creating layer conv1_11
I0719 18:12:24.252552  3401 net.cpp:91] Creating Layer conv1_11
I0719 18:12:24.252557  3401 net.cpp:425] conv1_11 <- p1_pool_i1_0_split_0
I0719 18:12:24.252564  3401 net.cpp:399] conv1_11 -> conv1_11
I0719 18:12:24.252635  3401 net.cpp:141] Setting up conv1_11
I0719 18:12:24.252643  3401 net.cpp:148] Top shape: 128 20 60 60 (9216000)
I0719 18:12:24.252647  3401 net.cpp:156] Memory required for data: 414352896
I0719 18:12:24.252661  3401 layer_factory.hpp:77] Creating layer pool1_11
I0719 18:12:24.252671  3401 net.cpp:91] Creating Layer pool1_11
I0719 18:12:24.252676  3401 net.cpp:425] pool1_11 <- conv1_11
I0719 18:12:24.252683  3401 net.cpp:399] pool1_11 -> pool1_11
I0719 18:12:24.252723  3401 net.cpp:141] Setting up pool1_11
I0719 18:12:24.252758  3401 net.cpp:148] Top shape: 128 20 30 30 (2304000)
I0719 18:12:24.252764  3401 net.cpp:156] Memory required for data: 423568896
I0719 18:12:24.252768  3401 layer_factory.hpp:77] Creating layer conv2_11
I0719 18:12:24.252779  3401 net.cpp:91] Creating Layer conv2_11
I0719 18:12:24.252785  3401 net.cpp:425] conv2_11 <- pool1_11
I0719 18:12:24.252794  3401 net.cpp:399] conv2_11 -> conv2_11
I0719 18:12:24.253643  3401 net.cpp:141] Setting up conv2_11
I0719 18:12:24.253746  3401 net.cpp:148] Top shape: 128 50 26 26 (4326400)
I0719 18:12:24.253756  3401 net.cpp:156] Memory required for data: 440874496
I0719 18:12:24.253772  3401 layer_factory.hpp:77] Creating layer pool2_11
I0719 18:12:24.253785  3401 net.cpp:91] Creating Layer pool2_11
I0719 18:12:24.253792  3401 net.cpp:425] pool2_11 <- conv2_11
I0719 18:12:24.253803  3401 net.cpp:399] pool2_11 -> pool2_11
I0719 18:12:24.253820  3401 net.cpp:141] Setting up pool2_11
I0719 18:12:24.253829  3401 net.cpp:148] Top shape: 128 50 13 13 (1081600)
I0719 18:12:24.253832  3401 net.cpp:156] Memory required for data: 445200896
I0719 18:12:24.253837  3401 layer_factory.hpp:77] Creating layer ip1_11
I0719 18:12:24.253855  3401 net.cpp:91] Creating Layer ip1_11
I0719 18:12:24.253861  3401 net.cpp:425] ip1_11 <- pool2_11
I0719 18:12:24.253875  3401 net.cpp:399] ip1_11 -> ip1_11
I0719 18:12:24.406133  3401 net.cpp:141] Setting up ip1_11
I0719 18:12:24.406230  3401 net.cpp:148] Top shape: 128 500 (64000)
I0719 18:12:24.406242  3401 net.cpp:156] Memory required for data: 445456896
I0719 18:12:24.406271  3401 layer_factory.hpp:77] Creating layer relu_11
I0719 18:12:24.406301  3401 net.cpp:91] Creating Layer relu_11
I0719 18:12:24.406313  3401 net.cpp:425] relu_11 <- ip1_11
I0719 18:12:24.406325  3401 net.cpp:386] relu_11 -> ip1_11 (in-place)
I0719 18:12:24.406342  3401 net.cpp:141] Setting up relu_11
I0719 18:12:24.406352  3401 net.cpp:148] Top shape: 128 500 (64000)
I0719 18:12:24.406357  3401 net.cpp:156] Memory required for data: 445712896
I0719 18:12:24.406360  3401 layer_factory.hpp:77] Creating layer ip2_11
I0719 18:12:24.406378  3401 net.cpp:91] Creating Layer ip2_11
I0719 18:12:24.406385  3401 net.cpp:425] ip2_11 <- ip1_11
I0719 18:12:24.406394  3401 net.cpp:399] ip2_11 -> ip2_11
I0719 18:12:24.408643  3401 net.cpp:141] Setting up ip2_11
I0719 18:12:24.408676  3401 net.cpp:148] Top shape: 128 500 (64000)
I0719 18:12:24.408681  3401 net.cpp:156] Memory required for data: 445968896
I0719 18:12:24.408694  3401 layer_factory.hpp:77] Creating layer conv1_12
I0719 18:12:24.408715  3401 net.cpp:91] Creating Layer conv1_12
I0719 18:12:24.408720  3401 net.cpp:425] conv1_12 <- p2_pool_i2_0_split_0
I0719 18:12:24.408731  3401 net.cpp:399] conv1_12 -> conv1_12
I0719 18:12:24.408784  3401 net.cpp:141] Setting up conv1_12
I0719 18:12:24.408792  3401 net.cpp:148] Top shape: 128 20 60 60 (9216000)
I0719 18:12:24.408818  3401 net.cpp:156] Memory required for data: 482832896
I0719 18:12:24.408826  3401 net.cpp:484] Sharing parameters 'conv1_w' owned by layer 'conv1_11', param index 0
I0719 18:12:24.408833  3401 net.cpp:484] Sharing parameters 'conv1_b' owned by layer 'conv1_11', param index 1
I0719 18:12:24.408836  3401 layer_factory.hpp:77] Creating layer pool1_12
I0719 18:12:24.408845  3401 net.cpp:91] Creating Layer pool1_12
I0719 18:12:24.408849  3401 net.cpp:425] pool1_12 <- conv1_12
I0719 18:12:24.408856  3401 net.cpp:399] pool1_12 -> pool1_12
I0719 18:12:24.408867  3401 net.cpp:141] Setting up pool1_12
I0719 18:12:24.408874  3401 net.cpp:148] Top shape: 128 20 30 30 (2304000)
I0719 18:12:24.408876  3401 net.cpp:156] Memory required for data: 492048896
I0719 18:12:24.408880  3401 layer_factory.hpp:77] Creating layer conv2_12
I0719 18:12:24.408892  3401 net.cpp:91] Creating Layer conv2_12
I0719 18:12:24.408896  3401 net.cpp:425] conv2_12 <- pool1_12
I0719 18:12:24.408902  3401 net.cpp:399] conv2_12 -> conv2_12
I0719 18:12:24.409152  3401 net.cpp:141] Setting up conv2_12
I0719 18:12:24.409162  3401 net.cpp:148] Top shape: 128 50 26 26 (4326400)
I0719 18:12:24.409164  3401 net.cpp:156] Memory required for data: 509354496
I0719 18:12:24.409169  3401 net.cpp:484] Sharing parameters 'conv2_w' owned by layer 'conv2_11', param index 0
I0719 18:12:24.409174  3401 net.cpp:484] Sharing parameters 'conv2_b' owned by layer 'conv2_11', param index 1
I0719 18:12:24.409178  3401 layer_factory.hpp:77] Creating layer pool2_12
I0719 18:12:24.409185  3401 net.cpp:91] Creating Layer pool2_12
I0719 18:12:24.409189  3401 net.cpp:425] pool2_12 <- conv2_12
I0719 18:12:24.409198  3401 net.cpp:399] pool2_12 -> pool2_12
I0719 18:12:24.409206  3401 net.cpp:141] Setting up pool2_12
I0719 18:12:24.409212  3401 net.cpp:148] Top shape: 128 50 13 13 (1081600)
I0719 18:12:24.409215  3401 net.cpp:156] Memory required for data: 513680896
I0719 18:12:24.409219  3401 layer_factory.hpp:77] Creating layer ip1_12
I0719 18:12:24.409229  3401 net.cpp:91] Creating Layer ip1_12
I0719 18:12:24.409235  3401 net.cpp:425] ip1_12 <- pool2_12
I0719 18:12:24.409240  3401 net.cpp:399] ip1_12 -> ip1_12
I0719 18:12:24.469755  3401 net.cpp:141] Setting up ip1_12
I0719 18:12:24.469828  3401 net.cpp:148] Top shape: 128 500 (64000)
I0719 18:12:24.469835  3401 net.cpp:156] Memory required for data: 513936896
I0719 18:12:24.469846  3401 net.cpp:484] Sharing parameters 'ip1_w' owned by layer 'ip1_11', param index 0
I0719 18:12:24.469854  3401 net.cpp:484] Sharing parameters 'ip1_b' owned by layer 'ip1_11', param index 1
I0719 18:12:24.469861  3401 layer_factory.hpp:77] Creating layer relu1_12
I0719 18:12:24.469876  3401 net.cpp:91] Creating Layer relu1_12
I0719 18:12:24.469883  3401 net.cpp:425] relu1_12 <- ip1_12
I0719 18:12:24.469897  3401 net.cpp:386] relu1_12 -> ip1_12 (in-place)
I0719 18:12:24.469910  3401 net.cpp:141] Setting up relu1_12
I0719 18:12:24.469974  3401 net.cpp:148] Top shape: 128 500 (64000)
I0719 18:12:24.469982  3401 net.cpp:156] Memory required for data: 514192896
I0719 18:12:24.469987  3401 layer_factory.hpp:77] Creating layer ip2_12
I0719 18:12:24.470000  3401 net.cpp:91] Creating Layer ip2_12
I0719 18:12:24.470003  3401 net.cpp:425] ip2_12 <- ip1_12
I0719 18:12:24.470015  3401 net.cpp:399] ip2_12 -> ip2_12
I0719 18:12:24.472290  3401 net.cpp:141] Setting up ip2_12
I0719 18:12:24.472321  3401 net.cpp:148] Top shape: 128 500 (64000)
I0719 18:12:24.472324  3401 net.cpp:156] Memory required for data: 514448896
I0719 18:12:24.472332  3401 net.cpp:484] Sharing parameters 'ip2_w' owned by layer 'ip2_11', param index 0
I0719 18:12:24.472337  3401 net.cpp:484] Sharing parameters 'ip2_b' owned by layer 'ip2_11', param index 1
I0719 18:12:24.472339  3401 layer_factory.hpp:77] Creating layer concat1
I0719 18:12:24.472350  3401 net.cpp:91] Creating Layer concat1
I0719 18:12:24.472355  3401 net.cpp:425] concat1 <- ip2_11
I0719 18:12:24.472362  3401 net.cpp:425] concat1 <- ip2_12
I0719 18:12:24.472365  3401 net.cpp:399] concat1 -> comb_1
I0719 18:12:24.472378  3401 net.cpp:141] Setting up concat1
I0719 18:12:24.472406  3401 net.cpp:148] Top shape: 128 1000 (128000)
I0719 18:12:24.472409  3401 net.cpp:156] Memory required for data: 514960896
I0719 18:12:24.472412  3401 layer_factory.hpp:77] Creating layer fc1_1
I0719 18:12:24.472422  3401 net.cpp:91] Creating Layer fc1_1
I0719 18:12:24.472424  3401 net.cpp:425] fc1_1 <- comb_1
I0719 18:12:24.472430  3401 net.cpp:399] fc1_1 -> fc1_1
I0719 18:12:24.476302  3401 net.cpp:141] Setting up fc1_1
I0719 18:12:24.476336  3401 net.cpp:148] Top shape: 128 512 (65536)
I0719 18:12:24.476338  3401 net.cpp:156] Memory required for data: 515223040
I0719 18:12:24.476356  3401 layer_factory.hpp:77] Creating layer relu_fc1_1
I0719 18:12:24.476366  3401 net.cpp:91] Creating Layer relu_fc1_1
I0719 18:12:24.476369  3401 net.cpp:425] relu_fc1_1 <- fc1_1
I0719 18:12:24.476377  3401 net.cpp:386] relu_fc1_1 -> fc1_1 (in-place)
I0719 18:12:24.476384  3401 net.cpp:141] Setting up relu_fc1_1
I0719 18:12:24.476388  3401 net.cpp:148] Top shape: 128 512 (65536)
I0719 18:12:24.476390  3401 net.cpp:156] Memory required for data: 515485184
I0719 18:12:24.476393  3401 layer_factory.hpp:77] Creating layer fc2_1
I0719 18:12:24.476403  3401 net.cpp:91] Creating Layer fc2_1
I0719 18:12:24.476405  3401 net.cpp:425] fc2_1 <- fc1_1
I0719 18:12:24.476410  3401 net.cpp:399] fc2_1 -> fc2_1
I0719 18:12:24.479683  3401 net.cpp:141] Setting up fc2_1
I0719 18:12:24.479740  3401 net.cpp:148] Top shape: 128 512 (65536)
I0719 18:12:24.479748  3401 net.cpp:156] Memory required for data: 515747328
I0719 18:12:24.479769  3401 layer_factory.hpp:77] Creating layer relu_fc2_1
I0719 18:12:24.479830  3401 net.cpp:91] Creating Layer relu_fc2_1
I0719 18:12:24.479861  3401 net.cpp:425] relu_fc2_1 <- fc2_1
I0719 18:12:24.479885  3401 net.cpp:386] relu_fc2_1 -> fc2_1 (in-place)
I0719 18:12:24.479913  3401 net.cpp:141] Setting up relu_fc2_1
I0719 18:12:24.479948  3401 net.cpp:148] Top shape: 128 512 (65536)
I0719 18:12:24.479969  3401 net.cpp:156] Memory required for data: 516009472
I0719 18:12:24.479995  3401 layer_factory.hpp:77] Creating layer fc3_1
I0719 18:12:24.480056  3401 net.cpp:91] Creating Layer fc3_1
I0719 18:12:24.480103  3401 net.cpp:425] fc3_1 <- fc2_1
I0719 18:12:24.480145  3401 net.cpp:399] fc3_1 -> fc3_1
I0719 18:12:24.480242  3401 net.cpp:141] Setting up fc3_1
I0719 18:12:24.480258  3401 net.cpp:148] Top shape: 128 2 (256)
I0719 18:12:24.480263  3401 net.cpp:156] Memory required for data: 516010496
I0719 18:12:24.480276  3401 layer_factory.hpp:77] Creating layer conv1_21
I0719 18:12:24.480298  3401 net.cpp:91] Creating Layer conv1_21
I0719 18:12:24.480319  3401 net.cpp:425] conv1_21 <- p1_pool_i1_0_split_1
I0719 18:12:24.480345  3401 net.cpp:399] conv1_21 -> conv1_21
I0719 18:12:24.480449  3401 net.cpp:141] Setting up conv1_21
I0719 18:12:24.480481  3401 net.cpp:148] Top shape: 128 20 60 60 (9216000)
I0719 18:12:24.480496  3401 net.cpp:156] Memory required for data: 552874496
I0719 18:12:24.480515  3401 net.cpp:484] Sharing parameters 'conv1_w' owned by layer 'conv1_11', param index 0
I0719 18:12:24.480540  3401 net.cpp:484] Sharing parameters 'conv1_b' owned by layer 'conv1_11', param index 1
I0719 18:12:24.480556  3401 layer_factory.hpp:77] Creating layer pool1_21
I0719 18:12:24.480770  3401 net.cpp:91] Creating Layer pool1_21
I0719 18:12:24.480787  3401 net.cpp:425] pool1_21 <- conv1_21
I0719 18:12:24.480904  3401 net.cpp:399] pool1_21 -> pool1_21
I0719 18:12:24.480957  3401 net.cpp:141] Setting up pool1_21
I0719 18:12:24.480968  3401 net.cpp:148] Top shape: 128 20 30 30 (2304000)
I0719 18:12:24.480974  3401 net.cpp:156] Memory required for data: 562090496
I0719 18:12:24.480993  3401 layer_factory.hpp:77] Creating layer conv2_21
I0719 18:12:24.481065  3401 net.cpp:91] Creating Layer conv2_21
I0719 18:12:24.481087  3401 net.cpp:425] conv2_21 <- pool1_21
I0719 18:12:24.481154  3401 net.cpp:399] conv2_21 -> conv2_21
I0719 18:12:24.481842  3401 net.cpp:141] Setting up conv2_21
I0719 18:12:24.481936  3401 net.cpp:148] Top shape: 128 50 26 26 (4326400)
I0719 18:12:24.481951  3401 net.cpp:156] Memory required for data: 579396096
I0719 18:12:24.482038  3401 net.cpp:484] Sharing parameters 'conv2_w' owned by layer 'conv2_11', param index 0
I0719 18:12:24.482046  3401 net.cpp:484] Sharing parameters 'conv2_b' owned by layer 'conv2_11', param index 1
I0719 18:12:24.482061  3401 layer_factory.hpp:77] Creating layer pool2_21
I0719 18:12:24.482324  3401 net.cpp:91] Creating Layer pool2_21
I0719 18:12:24.482365  3401 net.cpp:425] pool2_21 <- conv2_21
I0719 18:12:24.482383  3401 net.cpp:399] pool2_21 -> pool2_21
I0719 18:12:24.482409  3401 net.cpp:141] Setting up pool2_21
I0719 18:12:24.482419  3401 net.cpp:148] Top shape: 128 50 13 13 (1081600)
I0719 18:12:24.482422  3401 net.cpp:156] Memory required for data: 583722496
I0719 18:12:24.482429  3401 layer_factory.hpp:77] Creating layer ip1_21
I0719 18:12:24.482439  3401 net.cpp:91] Creating Layer ip1_21
I0719 18:12:24.482445  3401 net.cpp:425] ip1_21 <- pool2_21
I0719 18:12:24.482463  3401 net.cpp:399] ip1_21 -> ip1_21
I0719 18:12:24.535051  3401 net.cpp:141] Setting up ip1_21
I0719 18:12:24.535186  3401 net.cpp:148] Top shape: 128 500 (64000)
I0719 18:12:24.535198  3401 net.cpp:156] Memory required for data: 583978496
I0719 18:12:24.535213  3401 net.cpp:484] Sharing parameters 'ip1_w' owned by layer 'ip1_11', param index 0
I0719 18:12:24.535224  3401 net.cpp:484] Sharing parameters 'ip1_b' owned by layer 'ip1_11', param index 1
I0719 18:12:24.535231  3401 layer_factory.hpp:77] Creating layer relu1_21
I0719 18:12:24.535254  3401 net.cpp:91] Creating Layer relu1_21
I0719 18:12:24.535264  3401 net.cpp:425] relu1_21 <- ip1_21
I0719 18:12:24.535272  3401 net.cpp:386] relu1_21 -> ip1_21 (in-place)
I0719 18:12:24.535289  3401 net.cpp:141] Setting up relu1_21
I0719 18:12:24.535295  3401 net.cpp:148] Top shape: 128 500 (64000)
I0719 18:12:24.535298  3401 net.cpp:156] Memory required for data: 584234496
I0719 18:12:24.535302  3401 layer_factory.hpp:77] Creating layer ip2_21
I0719 18:12:24.535315  3401 net.cpp:91] Creating Layer ip2_21
I0719 18:12:24.535320  3401 net.cpp:425] ip2_21 <- ip1_21
I0719 18:12:24.535326  3401 net.cpp:399] ip2_21 -> ip2_21
I0719 18:12:24.537179  3401 net.cpp:141] Setting up ip2_21
I0719 18:12:24.537242  3401 net.cpp:148] Top shape: 128 500 (64000)
I0719 18:12:24.537250  3401 net.cpp:156] Memory required for data: 584490496
I0719 18:12:24.537261  3401 net.cpp:484] Sharing parameters 'ip2_w' owned by layer 'ip2_11', param index 0
I0719 18:12:24.537267  3401 net.cpp:484] Sharing parameters 'ip2_b' owned by layer 'ip2_11', param index 1
I0719 18:12:24.537272  3401 layer_factory.hpp:77] Creating layer conv1_22
I0719 18:12:24.537292  3401 net.cpp:91] Creating Layer conv1_22
I0719 18:12:24.537299  3401 net.cpp:425] conv1_22 <- s21
I0719 18:12:24.537312  3401 net.cpp:399] conv1_22 -> conv1_22
I0719 18:12:24.537358  3401 net.cpp:141] Setting up conv1_22
I0719 18:12:24.537364  3401 net.cpp:148] Top shape: 128 20 60 60 (9216000)
I0719 18:12:24.537367  3401 net.cpp:156] Memory required for data: 621354496
I0719 18:12:24.537371  3401 net.cpp:484] Sharing parameters 'conv1_w' owned by layer 'conv1_11', param index 0
I0719 18:12:24.537375  3401 net.cpp:484] Sharing parameters 'conv1_b' owned by layer 'conv1_11', param index 1
I0719 18:12:24.537379  3401 layer_factory.hpp:77] Creating layer pool1_22
I0719 18:12:24.537386  3401 net.cpp:91] Creating Layer pool1_22
I0719 18:12:24.537389  3401 net.cpp:425] pool1_22 <- conv1_22
I0719 18:12:24.537395  3401 net.cpp:399] pool1_22 -> pool1_22
I0719 18:12:24.537405  3401 net.cpp:141] Setting up pool1_22
I0719 18:12:24.537410  3401 net.cpp:148] Top shape: 128 20 30 30 (2304000)
I0719 18:12:24.537412  3401 net.cpp:156] Memory required for data: 630570496
I0719 18:12:24.537415  3401 layer_factory.hpp:77] Creating layer conv2_22
I0719 18:12:24.537425  3401 net.cpp:91] Creating Layer conv2_22
I0719 18:12:24.537430  3401 net.cpp:425] conv2_22 <- pool1_22
I0719 18:12:24.537436  3401 net.cpp:399] conv2_22 -> conv2_22
I0719 18:12:24.537688  3401 net.cpp:141] Setting up conv2_22
I0719 18:12:24.537714  3401 net.cpp:148] Top shape: 128 50 26 26 (4326400)
I0719 18:12:24.537747  3401 net.cpp:156] Memory required for data: 647876096
I0719 18:12:24.537765  3401 net.cpp:484] Sharing parameters 'conv2_w' owned by layer 'conv2_11', param index 0
I0719 18:12:24.537776  3401 net.cpp:484] Sharing parameters 'conv2_b' owned by layer 'conv2_11', param index 1
I0719 18:12:24.537782  3401 layer_factory.hpp:77] Creating layer pool2_22
I0719 18:12:24.538048  3401 net.cpp:91] Creating Layer pool2_22
I0719 18:12:24.538092  3401 net.cpp:425] pool2_22 <- conv2_22
I0719 18:12:24.538110  3401 net.cpp:399] pool2_22 -> pool2_22
I0719 18:12:24.538139  3401 net.cpp:141] Setting up pool2_22
I0719 18:12:24.538259  3401 net.cpp:148] Top shape: 128 50 13 13 (1081600)
I0719 18:12:24.538287  3401 net.cpp:156] Memory required for data: 652202496
I0719 18:12:24.538295  3401 layer_factory.hpp:77] Creating layer ip1_22
I0719 18:12:24.538311  3401 net.cpp:91] Creating Layer ip1_22
I0719 18:12:24.538319  3401 net.cpp:425] ip1_22 <- pool2_22
I0719 18:12:24.538336  3401 net.cpp:399] ip1_22 -> ip1_22
I0719 18:12:24.623936  3401 net.cpp:141] Setting up ip1_22
I0719 18:12:24.623991  3401 net.cpp:148] Top shape: 128 500 (64000)
I0719 18:12:24.623996  3401 net.cpp:156] Memory required for data: 652458496
I0719 18:12:24.624003  3401 net.cpp:484] Sharing parameters 'ip1_w' owned by layer 'ip1_11', param index 0
I0719 18:12:24.624008  3401 net.cpp:484] Sharing parameters 'ip1_b' owned by layer 'ip1_11', param index 1
I0719 18:12:24.624011  3401 layer_factory.hpp:77] Creating layer relu1_22
I0719 18:12:24.624023  3401 net.cpp:91] Creating Layer relu1_22
I0719 18:12:24.624028  3401 net.cpp:425] relu1_22 <- ip1_22
I0719 18:12:24.624034  3401 net.cpp:386] relu1_22 -> ip1_22 (in-place)
I0719 18:12:24.624042  3401 net.cpp:141] Setting up relu1_22
I0719 18:12:24.632433  3401 net.cpp:148] Top shape: 128 500 (64000)
I0719 18:12:24.632764  3401 net.cpp:156] Memory required for data: 652714496
I0719 18:12:24.632835  3401 layer_factory.hpp:77] Creating layer ip2_22
I0719 18:12:24.632920  3401 net.cpp:91] Creating Layer ip2_22
I0719 18:12:24.632936  3401 net.cpp:425] ip2_22 <- ip1_22
I0719 18:12:24.632953  3401 net.cpp:399] ip2_22 -> ip2_22
I0719 18:12:24.641743  3401 net.cpp:141] Setting up ip2_22
I0719 18:12:24.641782  3401 net.cpp:148] Top shape: 128 500 (64000)
I0719 18:12:24.641790  3401 net.cpp:156] Memory required for data: 652970496
I0719 18:12:24.641801  3401 net.cpp:484] Sharing parameters 'ip2_w' owned by layer 'ip2_11', param index 0
I0719 18:12:24.641813  3401 layer_factory.hpp:77] Creating layer concat
I0719 18:12:24.641830  3401 net.cpp:91] Creating Layer concat
I0719 18:12:24.641839  3401 net.cpp:425] concat <- ip2_21
I0719 18:12:24.641846  3401 net.cpp:425] concat <- ip2_22
I0719 18:12:24.641975  3401 net.cpp:399] concat -> comb_2
I0719 18:12:24.641998  3401 net.cpp:141] Setting up concat
I0719 18:12:24.642005  3401 net.cpp:148] Top shape: 128 1000 (128000)
I0719 18:12:24.642009  3401 net.cpp:156] Memory required for data: 653482496
I0719 18:12:24.642012  3401 layer_factory.hpp:77] Creating layer fc1_2
I0719 18:12:24.642027  3401 net.cpp:91] Creating Layer fc1_2
I0719 18:12:24.642032  3401 net.cpp:425] fc1_2 <- comb_2
I0719 18:12:24.642040  3401 net.cpp:399] fc1_2 -> fc1_2
I0719 18:12:24.645787  3401 net.cpp:141] Setting up fc1_2
I0719 18:12:24.645819  3401 net.cpp:148] Top shape: 128 512 (65536)
I0719 18:12:24.645826  3401 net.cpp:156] Memory required for data: 653744640
I0719 18:12:24.645838  3401 net.cpp:484] Sharing parameters 'fc1_w' owned by layer 'fc1_1', param index 0
I0719 18:12:24.645848  3401 net.cpp:484] Sharing parameters 'fc1_b' owned by layer 'fc1_1', param index 1
I0719 18:12:24.645855  3401 layer_factory.hpp:77] Creating layer relu_fc1_2
I0719 18:12:24.645869  3401 net.cpp:91] Creating Layer relu_fc1_2
I0719 18:12:24.645877  3401 net.cpp:425] relu_fc1_2 <- fc1_2
I0719 18:12:24.645890  3401 net.cpp:386] relu_fc1_2 -> fc1_2 (in-place)
I0719 18:12:24.645902  3401 net.cpp:141] Setting up relu_fc1_2
I0719 18:12:24.645908  3401 net.cpp:148] Top shape: 128 512 (65536)
I0719 18:12:24.645957  3401 net.cpp:156] Memory required for data: 654006784
I0719 18:12:24.645962  3401 layer_factory.hpp:77] Creating layer fc2_2
I0719 18:12:24.645973  3401 net.cpp:91] Creating Layer fc2_2
I0719 18:12:24.645978  3401 net.cpp:425] fc2_2 <- fc1_2
I0719 18:12:24.645985  3401 net.cpp:399] fc2_2 -> fc2_2
I0719 18:12:24.662811  3401 net.cpp:141] Setting up fc2_2
I0719 18:12:24.662890  3401 net.cpp:148] Top shape: 128 512 (65536)
I0719 18:12:24.662894  3401 net.cpp:156] Memory required for data: 654268928
I0719 18:12:24.662902  3401 net.cpp:484] Sharing parameters 'fc2_w' owned by layer 'fc2_1', param index 0
I0719 18:12:24.662909  3401 net.cpp:484] Sharing parameters 'fc2_b' owned by layer 'fc2_1', param index 1
I0719 18:12:24.662911  3401 layer_factory.hpp:77] Creating layer relu_fc2_2
I0719 18:12:24.662930  3401 net.cpp:91] Creating Layer relu_fc2_2
I0719 18:12:24.662936  3401 net.cpp:425] relu_fc2_2 <- fc2_2
I0719 18:12:24.662943  3401 net.cpp:386] relu_fc2_2 -> fc2_2 (in-place)
I0719 18:12:24.662953  3401 net.cpp:141] Setting up relu_fc2_2
I0719 18:12:24.662956  3401 net.cpp:148] Top shape: 128 512 (65536)
I0719 18:12:24.662960  3401 net.cpp:156] Memory required for data: 654531072
I0719 18:12:24.662962  3401 layer_factory.hpp:77] Creating layer fc3_2
I0719 18:12:24.662971  3401 net.cpp:91] Creating Layer fc3_2
I0719 18:12:24.662974  3401 net.cpp:425] fc3_2 <- fc2_2
I0719 18:12:24.662978  3401 net.cpp:399] fc3_2 -> fc3_2
I0719 18:12:24.663002  3401 net.cpp:141] Setting up fc3_2
I0719 18:12:24.663007  3401 net.cpp:148] Top shape: 128 2 (256)
I0719 18:12:24.663008  3401 net.cpp:156] Memory required for data: 654532096
I0719 18:12:24.663012  3401 net.cpp:484] Sharing parameters 'fc3_w' owned by layer 'fc3_1', param index 0
I0719 18:12:24.663014  3401 net.cpp:484] Sharing parameters 'fc3_b' owned by layer 'fc3_1', param index 1
I0719 18:12:24.663017  3401 layer_factory.hpp:77] Creating layer conv1_31
I0719 18:12:24.663028  3401 net.cpp:91] Creating Layer conv1_31
I0719 18:12:24.663031  3401 net.cpp:425] conv1_31 <- p1_pool_i1_0_split_2
I0719 18:12:24.663038  3401 net.cpp:399] conv1_31 -> conv1_31
I0719 18:12:24.663072  3401 net.cpp:141] Setting up conv1_31
I0719 18:12:24.663076  3401 net.cpp:148] Top shape: 128 20 60 60 (9216000)
I0719 18:12:24.663079  3401 net.cpp:156] Memory required for data: 691396096
I0719 18:12:24.663082  3401 net.cpp:484] Sharing parameters 'conv1_w' owned by layer 'conv1_11', param index 0
I0719 18:12:24.663086  3401 net.cpp:484] Sharing parameters 'conv1_b' owned by layer 'conv1_11', param index 1
I0719 18:12:24.663089  3401 layer_factory.hpp:77] Creating layer pool1_31
I0719 18:12:24.663096  3401 net.cpp:91] Creating Layer pool1_31
I0719 18:12:24.663100  3401 net.cpp:425] pool1_31 <- conv1_31
I0719 18:12:24.663105  3401 net.cpp:399] pool1_31 -> pool1_31
I0719 18:12:24.663113  3401 net.cpp:141] Setting up pool1_31
I0719 18:12:24.663117  3401 net.cpp:148] Top shape: 128 20 30 30 (2304000)
I0719 18:12:24.663120  3401 net.cpp:156] Memory required for data: 700612096
I0719 18:12:24.663122  3401 layer_factory.hpp:77] Creating layer conv2_31
I0719 18:12:24.663135  3401 net.cpp:91] Creating Layer conv2_31
I0719 18:12:24.663137  3401 net.cpp:425] conv2_31 <- pool1_31
I0719 18:12:24.663142  3401 net.cpp:399] conv2_31 -> conv2_31
I0719 18:12:24.663348  3401 net.cpp:141] Setting up conv2_31
I0719 18:12:24.663385  3401 net.cpp:148] Top shape: 128 50 26 26 (4326400)
I0719 18:12:24.663389  3401 net.cpp:156] Memory required for data: 717917696
I0719 18:12:24.663393  3401 net.cpp:484] Sharing parameters 'conv2_w' owned by layer 'conv2_11', param index 0
I0719 18:12:24.663398  3401 net.cpp:484] Sharing parameters 'conv2_b' owned by layer 'conv2_11', param index 1
I0719 18:12:24.663401  3401 layer_factory.hpp:77] Creating layer pool2_31
I0719 18:12:24.663411  3401 net.cpp:91] Creating Layer pool2_31
I0719 18:12:24.663415  3401 net.cpp:425] pool2_31 <- conv2_31
I0719 18:12:24.663421  3401 net.cpp:399] pool2_31 -> pool2_31
I0719 18:12:24.663429  3401 net.cpp:141] Setting up pool2_31
I0719 18:12:24.663432  3401 net.cpp:148] Top shape: 128 50 13 13 (1081600)
I0719 18:12:24.663463  3401 net.cpp:156] Memory required for data: 722244096
I0719 18:12:24.663466  3401 layer_factory.hpp:77] Creating layer ip1_31
I0719 18:12:24.663475  3401 net.cpp:91] Creating Layer ip1_31
I0719 18:12:24.663478  3401 net.cpp:425] ip1_31 <- pool2_31
I0719 18:12:24.663485  3401 net.cpp:399] ip1_31 -> ip1_31
I0719 18:12:24.735189  3401 net.cpp:141] Setting up ip1_31
I0719 18:12:24.735337  3401 net.cpp:148] Top shape: 128 500 (64000)
I0719 18:12:24.735360  3401 net.cpp:156] Memory required for data: 722500096
I0719 18:12:24.735381  3401 net.cpp:484] Sharing parameters 'ip1_w' owned by layer 'ip1_11', param index 0
I0719 18:12:24.735400  3401 net.cpp:484] Sharing parameters 'ip1_b' owned by layer 'ip1_11', param index 1
I0719 18:12:24.735417  3401 layer_factory.hpp:77] Creating layer relu1_31
I0719 18:12:24.735445  3401 net.cpp:91] Creating Layer relu1_31
I0719 18:12:24.735465  3401 net.cpp:425] relu1_31 <- ip1_31
I0719 18:12:24.735483  3401 net.cpp:386] relu1_31 -> ip1_31 (in-place)
I0719 18:12:24.735507  3401 net.cpp:141] Setting up relu1_31
I0719 18:12:24.735524  3401 net.cpp:148] Top shape: 128 500 (64000)
I0719 18:12:24.735538  3401 net.cpp:156] Memory required for data: 722756096
I0719 18:12:24.735553  3401 layer_factory.hpp:77] Creating layer ip2_31
I0719 18:12:24.735572  3401 net.cpp:91] Creating Layer ip2_31
I0719 18:12:24.735587  3401 net.cpp:425] ip2_31 <- ip1_31
I0719 18:12:24.735607  3401 net.cpp:399] ip2_31 -> ip2_31
I0719 18:12:24.737675  3401 net.cpp:141] Setting up ip2_31
I0719 18:12:24.737844  3401 net.cpp:148] Top shape: 128 500 (64000)
I0719 18:12:24.737864  3401 net.cpp:156] Memory required for data: 723012096
I0719 18:12:24.737886  3401 net.cpp:484] Sharing parameters 'ip2_w' owned by layer 'ip2_11', param index 0
I0719 18:12:24.737907  3401 net.cpp:484] Sharing parameters 'ip2_b' owned by layer 'ip2_11', param index 1
I0719 18:12:24.737923  3401 layer_factory.hpp:77] Creating layer conv1_32
I0719 18:12:24.738046  3401 net.cpp:91] Creating Layer conv1_32
I0719 18:12:24.738153  3401 net.cpp:425] conv1_32 <- s22
I0719 18:12:24.738198  3401 net.cpp:399] conv1_32 -> conv1_32
I0719 18:12:24.738325  3401 net.cpp:141] Setting up conv1_32
I0719 18:12:24.738379  3401 net.cpp:148] Top shape: 128 20 60 60 (9216000)
I0719 18:12:24.738452  3401 net.cpp:156] Memory required for data: 759876096
I0719 18:12:24.738498  3401 net.cpp:484] Sharing parameters 'conv1_w' owned by layer 'conv1_11', param index 0
I0719 18:12:24.738561  3401 net.cpp:484] Sharing parameters 'conv1_b' owned by layer 'conv1_11', param index 1
I0719 18:12:24.738595  3401 layer_factory.hpp:77] Creating layer pool1_32
I0719 18:12:24.738653  3401 net.cpp:91] Creating Layer pool1_32
I0719 18:12:24.738687  3401 net.cpp:425] pool1_32 <- conv1_32
I0719 18:12:24.738750  3401 net.cpp:399] pool1_32 -> pool1_32
I0719 18:12:24.738798  3401 net.cpp:141] Setting up pool1_32
I0719 18:12:24.738852  3401 net.cpp:148] Top shape: 128 20 30 30 (2304000)
I0719 18:12:24.738880  3401 net.cpp:156] Memory required for data: 769092096
I0719 18:12:24.738906  3401 layer_factory.hpp:77] Creating layer conv2_32
I0719 18:12:24.738982  3401 net.cpp:91] Creating Layer conv2_32
I0719 18:12:24.739038  3401 net.cpp:425] conv2_32 <- pool1_32
I0719 18:12:24.739080  3401 net.cpp:399] conv2_32 -> conv2_32
I0719 18:12:24.739485  3401 net.cpp:141] Setting up conv2_32
I0719 18:12:24.739547  3401 net.cpp:148] Top shape: 128 50 26 26 (4326400)
I0719 18:12:24.739573  3401 net.cpp:156] Memory required for data: 786397696
I0719 18:12:24.739599  3401 net.cpp:484] Sharing parameters 'conv2_w' owned by layer 'conv2_11', param index 0
I0719 18:12:24.739650  3401 net.cpp:484] Sharing parameters 'conv2_b' owned by layer 'conv2_11', param index 1
I0719 18:12:24.739681  3401 layer_factory.hpp:77] Creating layer pool2_32
I0719 18:12:24.739742  3401 net.cpp:91] Creating Layer pool2_32
I0719 18:12:24.739773  3401 net.cpp:425] pool2_32 <- conv2_32
I0719 18:12:24.739828  3401 net.cpp:399] pool2_32 -> pool2_32
I0719 18:12:24.739886  3401 net.cpp:141] Setting up pool2_32
I0719 18:12:24.739959  3401 net.cpp:148] Top shape: 128 50 13 13 (1081600)
I0719 18:12:24.739986  3401 net.cpp:156] Memory required for data: 790724096
I0719 18:12:24.740013  3401 layer_factory.hpp:77] Creating layer ip1_32
I0719 18:12:24.740056  3401 net.cpp:91] Creating Layer ip1_32
I0719 18:12:24.740109  3401 net.cpp:425] ip1_32 <- pool2_32
I0719 18:12:24.740152  3401 net.cpp:399] ip1_32 -> ip1_32
I0719 18:12:24.788842  3401 net.cpp:141] Setting up ip1_32
I0719 18:12:24.789113  3401 net.cpp:148] Top shape: 128 500 (64000)
I0719 18:12:24.789145  3401 net.cpp:156] Memory required for data: 790980096
I0719 18:12:24.789177  3401 net.cpp:484] Sharing parameters 'ip1_w' owned by layer 'ip1_11', param index 0
I0719 18:12:24.789240  3401 net.cpp:484] Sharing parameters 'ip1_b' owned by layer 'ip1_11', param index 1
I0719 18:12:24.789270  3401 layer_factory.hpp:77] Creating layer relu1_32
I0719 18:12:24.789314  3401 net.cpp:91] Creating Layer relu1_32
I0719 18:12:24.789340  3401 net.cpp:425] relu1_32 <- ip1_32
I0719 18:12:24.789364  3401 net.cpp:386] relu1_32 -> ip1_32 (in-place)
I0719 18:12:24.789396  3401 net.cpp:141] Setting up relu1_32
I0719 18:12:24.789418  3401 net.cpp:148] Top shape: 128 500 (64000)
I0719 18:12:24.789438  3401 net.cpp:156] Memory required for data: 791236096
I0719 18:12:24.789456  3401 layer_factory.hpp:77] Creating layer ip2_32
I0719 18:12:24.789484  3401 net.cpp:91] Creating Layer ip2_32
I0719 18:12:24.789505  3401 net.cpp:425] ip2_32 <- ip1_32
I0719 18:12:24.789530  3401 net.cpp:399] ip2_32 -> ip2_32
I0719 18:12:24.792407  3401 net.cpp:141] Setting up ip2_32
I0719 18:12:24.792512  3401 net.cpp:148] Top shape: 128 500 (64000)
I0719 18:12:24.792534  3401 net.cpp:156] Memory required for data: 791492096
I0719 18:12:24.792560  3401 net.cpp:484] Sharing parameters 'ip2_w' owned by layer 'ip2_11', param index 0
I0719 18:12:24.792584  3401 net.cpp:484] Sharing parameters 'ip2_b' owned by layer 'ip2_11', param index 1
I0719 18:12:24.792606  3401 layer_factory.hpp:77] Creating layer concat_3
I0719 18:12:24.792634  3401 net.cpp:91] Creating Layer concat_3
I0719 18:12:24.792657  3401 net.cpp:425] concat_3 <- ip2_31
I0719 18:12:24.792680  3401 net.cpp:425] concat_3 <- ip2_32
I0719 18:12:24.792707  3401 net.cpp:399] concat_3 -> comb_3
I0719 18:12:24.792742  3401 net.cpp:141] Setting up concat_3
I0719 18:12:24.792764  3401 net.cpp:148] Top shape: 128 1000 (128000)
I0719 18:12:24.792783  3401 net.cpp:156] Memory required for data: 792004096
I0719 18:12:24.792804  3401 layer_factory.hpp:77] Creating layer fc1_3
I0719 18:12:24.792829  3401 net.cpp:91] Creating Layer fc1_3
I0719 18:12:24.792850  3401 net.cpp:425] fc1_3 <- comb_3
I0719 18:12:24.792876  3401 net.cpp:399] fc1_3 -> fc1_3
I0719 18:12:24.798473  3401 net.cpp:141] Setting up fc1_3
I0719 18:12:24.798554  3401 net.cpp:148] Top shape: 128 512 (65536)
I0719 18:12:24.798570  3401 net.cpp:156] Memory required for data: 792266240
I0719 18:12:24.798589  3401 net.cpp:484] Sharing parameters 'fc1_w' owned by layer 'fc1_1', param index 0
I0719 18:12:24.798606  3401 net.cpp:484] Sharing parameters 'fc1_b' owned by layer 'fc1_1', param index 1
I0719 18:12:24.798621  3401 layer_factory.hpp:77] Creating layer relu_fc1_3
I0719 18:12:24.798642  3401 net.cpp:91] Creating Layer relu_fc1_3
I0719 18:12:24.798660  3401 net.cpp:425] relu_fc1_3 <- fc1_3
I0719 18:12:24.798679  3401 net.cpp:386] relu_fc1_3 -> fc1_3 (in-place)
I0719 18:12:24.798702  3401 net.cpp:141] Setting up relu_fc1_3
I0719 18:12:24.798748  3401 net.cpp:148] Top shape: 128 512 (65536)
I0719 18:12:24.798766  3401 net.cpp:156] Memory required for data: 792528384
I0719 18:12:24.798780  3401 layer_factory.hpp:77] Creating layer fc2_3
I0719 18:12:24.798799  3401 net.cpp:91] Creating Layer fc2_3
I0719 18:12:24.798815  3401 net.cpp:425] fc2_3 <- fc1_3
I0719 18:12:24.798835  3401 net.cpp:399] fc2_3 -> fc2_3
I0719 18:12:24.800828  3401 net.cpp:141] Setting up fc2_3
I0719 18:12:24.801038  3401 net.cpp:148] Top shape: 128 512 (65536)
I0719 18:12:24.801091  3401 net.cpp:156] Memory required for data: 792790528
I0719 18:12:24.801127  3401 net.cpp:484] Sharing parameters 'fc2_w' owned by layer 'fc2_1', param index 0
I0719 18:12:24.801147  3401 net.cpp:484] Sharing parameters 'fc2_b' owned by layer 'fc2_1', param index 1
I0719 18:12:24.801163  3401 layer_factory.hpp:77] Creating layer relu_fc2_3
I0719 18:12:24.801193  3401 net.cpp:91] Creating Layer relu_fc2_3
I0719 18:12:24.801211  3401 net.cpp:425] relu_fc2_3 <- fc2_3
I0719 18:12:24.801231  3401 net.cpp:386] relu_fc2_3 -> fc2_3 (in-place)
I0719 18:12:24.801270  3401 net.cpp:141] Setting up relu_fc2_3
I0719 18:12:24.801287  3401 net.cpp:148] Top shape: 128 512 (65536)
I0719 18:12:24.801301  3401 net.cpp:156] Memory required for data: 793052672
I0719 18:12:24.801313  3401 layer_factory.hpp:77] Creating layer fc3_3
I0719 18:12:24.801334  3401 net.cpp:91] Creating Layer fc3_3
I0719 18:12:24.801348  3401 net.cpp:425] fc3_3 <- fc2_3
I0719 18:12:24.801365  3401 net.cpp:399] fc3_3 -> fc3_3
I0719 18:12:24.801414  3401 net.cpp:141] Setting up fc3_3
I0719 18:12:24.801434  3401 net.cpp:148] Top shape: 128 2 (256)
I0719 18:12:24.801447  3401 net.cpp:156] Memory required for data: 793053696
I0719 18:12:24.801535  3401 net.cpp:484] Sharing parameters 'fc3_w' owned by layer 'fc3_1', param index 0
I0719 18:12:24.801568  3401 net.cpp:484] Sharing parameters 'fc3_b' owned by layer 'fc3_1', param index 1
I0719 18:12:24.801583  3401 layer_factory.hpp:77] Creating layer conv1_41
I0719 18:12:24.801614  3401 net.cpp:91] Creating Layer conv1_41
I0719 18:12:24.801631  3401 net.cpp:425] conv1_41 <- p1_pool_i1_0_split_3
I0719 18:12:24.801651  3401 net.cpp:399] conv1_41 -> conv1_41
I0719 18:12:24.801714  3401 net.cpp:141] Setting up conv1_41
I0719 18:12:24.801736  3401 net.cpp:148] Top shape: 128 20 60 60 (9216000)
I0719 18:12:24.801749  3401 net.cpp:156] Memory required for data: 829917696
I0719 18:12:24.801764  3401 net.cpp:484] Sharing parameters 'conv1_w' owned by layer 'conv1_11', param index 0
I0719 18:12:24.801779  3401 net.cpp:484] Sharing parameters 'conv1_b' owned by layer 'conv1_11', param index 1
I0719 18:12:24.801792  3401 layer_factory.hpp:77] Creating layer pool1_41
I0719 18:12:24.801810  3401 net.cpp:91] Creating Layer pool1_41
I0719 18:12:24.801825  3401 net.cpp:425] pool1_41 <- conv1_41
I0719 18:12:24.801841  3401 net.cpp:399] pool1_41 -> pool1_41
I0719 18:12:24.801862  3401 net.cpp:141] Setting up pool1_41
I0719 18:12:24.801878  3401 net.cpp:148] Top shape: 128 20 30 30 (2304000)
I0719 18:12:24.801890  3401 net.cpp:156] Memory required for data: 839133696
I0719 18:12:24.801903  3401 layer_factory.hpp:77] Creating layer conv2_41
I0719 18:12:24.801925  3401 net.cpp:91] Creating Layer conv2_41
I0719 18:12:24.801941  3401 net.cpp:425] conv2_41 <- pool1_41
I0719 18:12:24.801959  3401 net.cpp:399] conv2_41 -> conv2_41
I0719 18:12:24.802271  3401 net.cpp:141] Setting up conv2_41
I0719 18:12:24.802350  3401 net.cpp:148] Top shape: 128 50 26 26 (4326400)
I0719 18:12:24.802364  3401 net.cpp:156] Memory required for data: 856439296
I0719 18:12:24.802382  3401 net.cpp:484] Sharing parameters 'conv2_w' owned by layer 'conv2_11', param index 0
I0719 18:12:24.802398  3401 net.cpp:484] Sharing parameters 'conv2_b' owned by layer 'conv2_11', param index 1
I0719 18:12:24.802412  3401 layer_factory.hpp:77] Creating layer pool2_41
I0719 18:12:24.802434  3401 net.cpp:91] Creating Layer pool2_41
I0719 18:12:24.802450  3401 net.cpp:425] pool2_41 <- conv2_41
I0719 18:12:24.802474  3401 net.cpp:399] pool2_41 -> pool2_41
I0719 18:12:24.802500  3401 net.cpp:141] Setting up pool2_41
I0719 18:12:24.802515  3401 net.cpp:148] Top shape: 128 50 13 13 (1081600)
I0719 18:12:24.802527  3401 net.cpp:156] Memory required for data: 860765696
I0719 18:12:24.802539  3401 layer_factory.hpp:77] Creating layer ip1_41
I0719 18:12:24.802561  3401 net.cpp:91] Creating Layer ip1_41
I0719 18:12:24.802575  3401 net.cpp:425] ip1_41 <- pool2_41
I0719 18:12:24.802592  3401 net.cpp:399] ip1_41 -> ip1_41
I0719 18:12:24.843489  3401 net.cpp:141] Setting up ip1_41
I0719 18:12:24.843677  3401 net.cpp:148] Top shape: 128 500 (64000)
I0719 18:12:24.843771  3401 net.cpp:156] Memory required for data: 861021696
I0719 18:12:24.843878  3401 net.cpp:484] Sharing parameters 'ip1_w' owned by layer 'ip1_11', param index 0
I0719 18:12:24.844059  3401 net.cpp:484] Sharing parameters 'ip1_b' owned by layer 'ip1_11', param index 1
I0719 18:12:24.844240  3401 layer_factory.hpp:77] Creating layer relu1_41
I0719 18:12:24.844398  3401 net.cpp:91] Creating Layer relu1_41
I0719 18:12:24.844533  3401 net.cpp:425] relu1_41 <- ip1_41
I0719 18:12:24.844715  3401 net.cpp:386] relu1_41 -> ip1_41 (in-place)
I0719 18:12:24.844913  3401 net.cpp:141] Setting up relu1_41
I0719 18:12:24.845067  3401 net.cpp:148] Top shape: 128 500 (64000)
I0719 18:12:24.845182  3401 net.cpp:156] Memory required for data: 861277696
I0719 18:12:24.845299  3401 layer_factory.hpp:77] Creating layer ip2_41
I0719 18:12:24.845412  3401 net.cpp:91] Creating Layer ip2_41
I0719 18:12:24.845680  3401 net.cpp:425] ip2_41 <- ip1_41
I0719 18:12:24.846565  3401 net.cpp:399] ip2_41 -> ip2_41
I0719 18:12:24.850874  3401 net.cpp:141] Setting up ip2_41
I0719 18:12:24.851070  3401 net.cpp:148] Top shape: 128 500 (64000)
I0719 18:12:24.851100  3401 net.cpp:156] Memory required for data: 861533696
I0719 18:12:24.851140  3401 net.cpp:484] Sharing parameters 'ip2_w' owned by layer 'ip2_11', param index 0
I0719 18:12:24.851174  3401 net.cpp:484] Sharing parameters 'ip2_b' owned by layer 'ip2_11', param index 1
I0719 18:12:24.851200  3401 layer_factory.hpp:77] Creating layer conv1_42
I0719 18:12:24.851280  3401 net.cpp:91] Creating Layer conv1_42
I0719 18:12:24.851316  3401 net.cpp:425] conv1_42 <- s23
I0719 18:12:24.851382  3401 net.cpp:399] conv1_42 -> conv1_42
I0719 18:12:24.851488  3401 net.cpp:141] Setting up conv1_42
I0719 18:12:24.851552  3401 net.cpp:148] Top shape: 128 20 60 60 (9216000)
I0719 18:12:24.851582  3401 net.cpp:156] Memory required for data: 898397696
I0719 18:12:24.851609  3401 net.cpp:484] Sharing parameters 'conv1_w' owned by layer 'conv1_11', param index 0
I0719 18:12:24.851665  3401 net.cpp:484] Sharing parameters 'conv1_b' owned by layer 'conv1_11', param index 1
I0719 18:12:24.851696  3401 layer_factory.hpp:77] Creating layer pool1_42
I0719 18:12:24.851758  3401 net.cpp:91] Creating Layer pool1_42
I0719 18:12:24.851790  3401 net.cpp:425] pool1_42 <- conv1_42
I0719 18:12:24.851847  3401 net.cpp:399] pool1_42 -> pool1_42
I0719 18:12:24.851894  3401 net.cpp:141] Setting up pool1_42
I0719 18:12:24.851949  3401 net.cpp:148] Top shape: 128 20 30 30 (2304000)
I0719 18:12:24.851977  3401 net.cpp:156] Memory required for data: 907613696
I0719 18:12:24.852002  3401 layer_factory.hpp:77] Creating layer conv2_42
I0719 18:12:24.852072  3401 net.cpp:91] Creating Layer conv2_42
I0719 18:12:24.852107  3401 net.cpp:425] conv2_42 <- pool1_42
I0719 18:12:24.852164  3401 net.cpp:399] conv2_42 -> conv2_42
I0719 18:12:24.852520  3401 net.cpp:141] Setting up conv2_42
I0719 18:12:24.852603  3401 net.cpp:148] Top shape: 128 50 26 26 (4326400)
I0719 18:12:24.852630  3401 net.cpp:156] Memory required for data: 924919296
I0719 18:12:24.852659  3401 net.cpp:484] Sharing parameters 'conv2_w' owned by layer 'conv2_11', param index 0
I0719 18:12:24.852686  3401 net.cpp:484] Sharing parameters 'conv2_b' owned by layer 'conv2_11', param index 1
I0719 18:12:24.852735  3401 layer_factory.hpp:77] Creating layer pool2_42
I0719 18:12:24.852769  3401 net.cpp:91] Creating Layer pool2_42
I0719 18:12:24.852820  3401 net.cpp:425] pool2_42 <- conv2_42
I0719 18:12:24.852854  3401 net.cpp:399] pool2_42 -> pool2_42
I0719 18:12:24.852917  3401 net.cpp:141] Setting up pool2_42
I0719 18:12:24.852952  3401 net.cpp:148] Top shape: 128 50 13 13 (1081600)
I0719 18:12:24.852998  3401 net.cpp:156] Memory required for data: 929245696
I0719 18:12:24.853025  3401 layer_factory.hpp:77] Creating layer ip1_42
I0719 18:12:24.853062  3401 net.cpp:91] Creating Layer ip1_42
I0719 18:12:24.853112  3401 net.cpp:425] ip1_42 <- pool2_42
I0719 18:12:24.853149  3401 net.cpp:399] ip1_42 -> ip1_42
I0719 18:12:24.899827  3401 net.cpp:141] Setting up ip1_42
I0719 18:12:24.900050  3401 net.cpp:148] Top shape: 128 500 (64000)
I0719 18:12:24.900080  3401 net.cpp:156] Memory required for data: 929501696
I0719 18:12:24.900130  3401 net.cpp:484] Sharing parameters 'ip1_w' owned by layer 'ip1_11', param index 0
I0719 18:12:24.900157  3401 net.cpp:484] Sharing parameters 'ip1_b' owned by layer 'ip1_11', param index 1
I0719 18:12:24.900202  3401 layer_factory.hpp:77] Creating layer relu1_42
I0719 18:12:24.900233  3401 net.cpp:91] Creating Layer relu1_42
I0719 18:12:24.900277  3401 net.cpp:425] relu1_42 <- ip1_42
I0719 18:12:24.900305  3401 net.cpp:386] relu1_42 -> ip1_42 (in-place)
I0719 18:12:24.900357  3401 net.cpp:141] Setting up relu1_42
I0719 18:12:24.900403  3401 net.cpp:148] Top shape: 128 500 (64000)
I0719 18:12:24.900424  3401 net.cpp:156] Memory required for data: 929757696
I0719 18:12:24.900465  3401 layer_factory.hpp:77] Creating layer ip2_42
I0719 18:12:24.900496  3401 net.cpp:91] Creating Layer ip2_42
I0719 18:12:24.900540  3401 net.cpp:425] ip2_42 <- ip1_42
I0719 18:12:24.900573  3401 net.cpp:399] ip2_42 -> ip2_42
I0719 18:12:24.903519  3401 net.cpp:141] Setting up ip2_42
I0719 18:12:24.903746  3401 net.cpp:148] Top shape: 128 500 (64000)
I0719 18:12:24.903782  3401 net.cpp:156] Memory required for data: 930013696
I0719 18:12:24.903846  3401 net.cpp:484] Sharing parameters 'ip2_w' owned by layer 'ip2_11', param index 0
I0719 18:12:24.903906  3401 net.cpp:484] Sharing parameters 'ip2_b' owned by layer 'ip2_11', param index 1
I0719 18:12:24.903962  3401 layer_factory.hpp:77] Creating layer concat_4
I0719 18:12:24.904036  3401 net.cpp:91] Creating Layer concat_4
I0719 18:12:24.904095  3401 net.cpp:425] concat_4 <- ip2_41
I0719 18:12:24.904153  3401 net.cpp:425] concat_4 <- ip2_42
I0719 18:12:24.904218  3401 net.cpp:399] concat_4 -> comb_4
I0719 18:12:24.904294  3401 net.cpp:141] Setting up concat_4
I0719 18:12:24.904356  3401 net.cpp:148] Top shape: 128 1000 (128000)
I0719 18:12:24.904408  3401 net.cpp:156] Memory required for data: 930525696
I0719 18:12:24.904440  3401 layer_factory.hpp:77] Creating layer fc1_4
I0719 18:12:24.904516  3401 net.cpp:91] Creating Layer fc1_4
I0719 18:12:24.904573  3401 net.cpp:425] fc1_4 <- comb_4
I0719 18:12:24.904724  3401 net.cpp:399] fc1_4 -> fc1_4
I0719 18:12:24.910600  3401 net.cpp:141] Setting up fc1_4
I0719 18:12:24.910984  3401 net.cpp:148] Top shape: 128 512 (65536)
I0719 18:12:24.911069  3401 net.cpp:156] Memory required for data: 930787840
I0719 18:12:24.911130  3401 net.cpp:484] Sharing parameters 'fc1_w' owned by layer 'fc1_1', param index 0
I0719 18:12:24.911159  3401 net.cpp:484] Sharing parameters 'fc1_b' owned by layer 'fc1_1', param index 1
I0719 18:12:24.911182  3401 layer_factory.hpp:77] Creating layer relu_fc1_4
I0719 18:12:24.911216  3401 net.cpp:91] Creating Layer relu_fc1_4
I0719 18:12:24.911242  3401 net.cpp:425] relu_fc1_4 <- fc1_4
I0719 18:12:24.911284  3401 net.cpp:386] relu_fc1_4 -> fc1_4 (in-place)
I0719 18:12:24.911325  3401 net.cpp:141] Setting up relu_fc1_4
I0719 18:12:24.911362  3401 net.cpp:148] Top shape: 128 512 (65536)
I0719 18:12:24.911391  3401 net.cpp:156] Memory required for data: 931049984
I0719 18:12:24.911415  3401 layer_factory.hpp:77] Creating layer fc2_4
I0719 18:12:24.911453  3401 net.cpp:91] Creating Layer fc2_4
I0719 18:12:24.911485  3401 net.cpp:425] fc2_4 <- fc1_4
I0719 18:12:24.911543  3401 net.cpp:399] fc2_4 -> fc2_4
I0719 18:12:24.914353  3401 net.cpp:141] Setting up fc2_4
I0719 18:12:24.914486  3401 net.cpp:148] Top shape: 128 512 (65536)
I0719 18:12:24.914520  3401 net.cpp:156] Memory required for data: 931312128
I0719 18:12:24.914541  3401 net.cpp:484] Sharing parameters 'fc2_w' owned by layer 'fc2_1', param index 0
I0719 18:12:24.914571  3401 net.cpp:484] Sharing parameters 'fc2_b' owned by layer 'fc2_1', param index 1
I0719 18:12:24.914587  3401 layer_factory.hpp:77] Creating layer relu_fc2_4
I0719 18:12:24.914621  3401 net.cpp:91] Creating Layer relu_fc2_4
I0719 18:12:24.914639  3401 net.cpp:425] relu_fc2_4 <- fc2_4
I0719 18:12:24.914680  3401 net.cpp:386] relu_fc2_4 -> fc2_4 (in-place)
I0719 18:12:24.914727  3401 net.cpp:141] Setting up relu_fc2_4
I0719 18:12:24.914746  3401 net.cpp:148] Top shape: 128 512 (65536)
I0719 18:12:24.914772  3401 net.cpp:156] Memory required for data: 931574272
I0719 18:12:24.914788  3401 layer_factory.hpp:77] Creating layer fc3_4
I0719 18:12:24.914805  3401 net.cpp:91] Creating Layer fc3_4
I0719 18:12:24.914834  3401 net.cpp:425] fc3_4 <- fc2_4
I0719 18:12:24.914851  3401 net.cpp:399] fc3_4 -> fc3_4
I0719 18:12:24.914906  3401 net.cpp:141] Setting up fc3_4
I0719 18:12:24.914938  3401 net.cpp:148] Top shape: 128 2 (256)
I0719 18:12:24.914952  3401 net.cpp:156] Memory required for data: 931575296
I0719 18:12:24.914968  3401 net.cpp:484] Sharing parameters 'fc3_w' owned by layer 'fc3_1', param index 0
I0719 18:12:24.914996  3401 net.cpp:484] Sharing parameters 'fc3_b' owned by layer 'fc3_1', param index 1
I0719 18:12:24.915011  3401 layer_factory.hpp:77] Creating layer conv1_51
I0719 18:12:24.915046  3401 net.cpp:91] Creating Layer conv1_51
I0719 18:12:24.915062  3401 net.cpp:425] conv1_51 <- p1_pool_i1_0_split_4
I0719 18:12:24.915096  3401 net.cpp:399] conv1_51 -> conv1_51
I0719 18:12:24.915148  3401 net.cpp:141] Setting up conv1_51
I0719 18:12:24.915181  3401 net.cpp:148] Top shape: 128 20 60 60 (9216000)
I0719 18:12:24.915195  3401 net.cpp:156] Memory required for data: 968439296
I0719 18:12:24.915210  3401 net.cpp:484] Sharing parameters 'conv1_w' owned by layer 'conv1_11', param index 0
I0719 18:12:24.915238  3401 net.cpp:484] Sharing parameters 'conv1_b' owned by layer 'conv1_11', param index 1
I0719 18:12:24.915253  3401 layer_factory.hpp:77] Creating layer pool1_51
I0719 18:12:24.915285  3401 net.cpp:91] Creating Layer pool1_51
I0719 18:12:24.915302  3401 net.cpp:425] pool1_51 <- conv1_51
I0719 18:12:24.915333  3401 net.cpp:399] pool1_51 -> pool1_51
I0719 18:12:24.915354  3401 net.cpp:141] Setting up pool1_51
I0719 18:12:24.915385  3401 net.cpp:148] Top shape: 128 20 30 30 (2304000)
I0719 18:12:24.915398  3401 net.cpp:156] Memory required for data: 977655296
I0719 18:12:24.915412  3401 layer_factory.hpp:77] Creating layer conv2_51
I0719 18:12:24.915446  3401 net.cpp:91] Creating Layer conv2_51
I0719 18:12:24.915462  3401 net.cpp:425] conv2_51 <- pool1_51
I0719 18:12:24.915493  3401 net.cpp:399] conv2_51 -> conv2_51
I0719 18:12:24.915724  3401 net.cpp:141] Setting up conv2_51
I0719 18:12:24.915745  3401 net.cpp:148] Top shape: 128 50 26 26 (4326400)
I0719 18:12:24.915757  3401 net.cpp:156] Memory required for data: 994960896
I0719 18:12:24.915771  3401 net.cpp:484] Sharing parameters 'conv2_w' owned by layer 'conv2_11', param index 0
I0719 18:12:24.915786  3401 net.cpp:484] Sharing parameters 'conv2_b' owned by layer 'conv2_11', param index 1
I0719 18:12:24.915801  3401 layer_factory.hpp:77] Creating layer pool2_51
I0719 18:12:24.915817  3401 net.cpp:91] Creating Layer pool2_51
I0719 18:12:24.915833  3401 net.cpp:425] pool2_51 <- conv2_51
I0719 18:12:24.915849  3401 net.cpp:399] pool2_51 -> pool2_51
I0719 18:12:24.915869  3401 net.cpp:141] Setting up pool2_51
I0719 18:12:24.915885  3401 net.cpp:148] Top shape: 128 50 13 13 (1081600)
I0719 18:12:24.915897  3401 net.cpp:156] Memory required for data: 999287296
I0719 18:12:24.915910  3401 layer_factory.hpp:77] Creating layer ip1_51
I0719 18:12:24.915928  3401 net.cpp:91] Creating Layer ip1_51
I0719 18:12:24.915943  3401 net.cpp:425] ip1_51 <- pool2_51
I0719 18:12:24.915961  3401 net.cpp:399] ip1_51 -> ip1_51
I0719 18:12:24.961122  3401 net.cpp:141] Setting up ip1_51
I0719 18:12:24.961258  3401 net.cpp:148] Top shape: 128 500 (64000)
I0719 18:12:24.961289  3401 net.cpp:156] Memory required for data: 999543296
I0719 18:12:24.961319  3401 net.cpp:484] Sharing parameters 'ip1_w' owned by layer 'ip1_11', param index 0
I0719 18:12:24.961347  3401 net.cpp:484] Sharing parameters 'ip1_b' owned by layer 'ip1_11', param index 1
I0719 18:12:24.961370  3401 layer_factory.hpp:77] Creating layer relu1_51
I0719 18:12:24.961403  3401 net.cpp:91] Creating Layer relu1_51
I0719 18:12:24.961467  3401 net.cpp:425] relu1_51 <- ip1_51
I0719 18:12:24.961510  3401 net.cpp:386] relu1_51 -> ip1_51 (in-place)
I0719 18:12:24.961604  3401 net.cpp:141] Setting up relu1_51
I0719 18:12:24.961642  3401 net.cpp:148] Top shape: 128 500 (64000)
I0719 18:12:24.961688  3401 net.cpp:156] Memory required for data: 999799296
I0719 18:12:24.961719  3401 layer_factory.hpp:77] Creating layer ip2_51
I0719 18:12:24.961748  3401 net.cpp:91] Creating Layer ip2_51
I0719 18:12:24.961835  3401 net.cpp:425] ip2_51 <- ip1_51
I0719 18:12:24.961880  3401 net.cpp:399] ip2_51 -> ip2_51
I0719 18:12:24.964768  3401 net.cpp:141] Setting up ip2_51
I0719 18:12:24.965178  3401 net.cpp:148] Top shape: 128 500 (64000)
I0719 18:12:24.965288  3401 net.cpp:156] Memory required for data: 1000055296
I0719 18:12:24.965328  3401 net.cpp:484] Sharing parameters 'ip2_w' owned by layer 'ip2_11', param index 0
I0719 18:12:24.965358  3401 net.cpp:484] Sharing parameters 'ip2_b' owned by layer 'ip2_11', param index 1
I0719 18:12:24.965378  3401 layer_factory.hpp:77] Creating layer conv1_52
I0719 18:12:24.965426  3401 net.cpp:91] Creating Layer conv1_52
I0719 18:12:24.965456  3401 net.cpp:425] conv1_52 <- s24
I0719 18:12:24.965487  3401 net.cpp:399] conv1_52 -> conv1_52
I0719 18:12:24.965605  3401 net.cpp:141] Setting up conv1_52
I0719 18:12:24.965651  3401 net.cpp:148] Top shape: 128 20 60 60 (9216000)
I0719 18:12:24.965664  3401 net.cpp:156] Memory required for data: 1036919296
I0719 18:12:24.965678  3401 net.cpp:484] Sharing parameters 'conv1_w' owned by layer 'conv1_11', param index 0
I0719 18:12:24.965692  3401 net.cpp:484] Sharing parameters 'conv1_b' owned by layer 'conv1_11', param index 1
I0719 18:12:24.965706  3401 layer_factory.hpp:77] Creating layer pool1_52
I0719 18:12:24.965723  3401 net.cpp:91] Creating Layer pool1_52
I0719 18:12:24.965749  3401 net.cpp:425] pool1_52 <- conv1_52
I0719 18:12:24.965769  3401 net.cpp:399] pool1_52 -> pool1_52
I0719 18:12:24.965790  3401 net.cpp:141] Setting up pool1_52
I0719 18:12:24.965849  3401 net.cpp:148] Top shape: 128 20 30 30 (2304000)
I0719 18:12:24.965870  3401 net.cpp:156] Memory required for data: 1046135296
I0719 18:12:24.965896  3401 layer_factory.hpp:77] Creating layer conv2_52
I0719 18:12:24.965916  3401 net.cpp:91] Creating Layer conv2_52
I0719 18:12:24.965930  3401 net.cpp:425] conv2_52 <- pool1_52
I0719 18:12:24.965950  3401 net.cpp:399] conv2_52 -> conv2_52
I0719 18:12:24.966176  3401 net.cpp:141] Setting up conv2_52
I0719 18:12:24.966209  3401 net.cpp:148] Top shape: 128 50 26 26 (4326400)
I0719 18:12:24.966223  3401 net.cpp:156] Memory required for data: 1063440896
I0719 18:12:24.966235  3401 net.cpp:484] Sharing parameters 'conv2_w' owned by layer 'conv2_11', param index 0
I0719 18:12:24.966261  3401 net.cpp:484] Sharing parameters 'conv2_b' owned by layer 'conv2_11', param index 1
I0719 18:12:24.966275  3401 layer_factory.hpp:77] Creating layer pool2_52
I0719 18:12:24.966292  3401 net.cpp:91] Creating Layer pool2_52
I0719 18:12:24.966306  3401 net.cpp:425] pool2_52 <- conv2_52
I0719 18:12:24.966336  3401 net.cpp:399] pool2_52 -> pool2_52
I0719 18:12:24.966357  3401 net.cpp:141] Setting up pool2_52
I0719 18:12:24.966373  3401 net.cpp:148] Top shape: 128 50 13 13 (1081600)
I0719 18:12:24.966398  3401 net.cpp:156] Memory required for data: 1067767296
I0719 18:12:24.966410  3401 layer_factory.hpp:77] Creating layer ip1_52
I0719 18:12:24.966426  3401 net.cpp:91] Creating Layer ip1_52
I0719 18:12:24.966439  3401 net.cpp:425] ip1_52 <- pool2_52
I0719 18:12:24.966470  3401 net.cpp:399] ip1_52 -> ip1_52
I0719 18:12:25.012884  3401 net.cpp:141] Setting up ip1_52
I0719 18:12:25.013104  3401 net.cpp:148] Top shape: 128 500 (64000)
I0719 18:12:25.013128  3401 net.cpp:156] Memory required for data: 1068023296
I0719 18:12:25.013146  3401 net.cpp:484] Sharing parameters 'ip1_w' owned by layer 'ip1_11', param index 0
I0719 18:12:25.013176  3401 net.cpp:484] Sharing parameters 'ip1_b' owned by layer 'ip1_11', param index 1
I0719 18:12:25.013192  3401 layer_factory.hpp:77] Creating layer relu1_52
I0719 18:12:25.013222  3401 net.cpp:91] Creating Layer relu1_52
I0719 18:12:25.013284  3401 net.cpp:425] relu1_52 <- ip1_52
I0719 18:12:25.013319  3401 net.cpp:386] relu1_52 -> ip1_52 (in-place)
I0719 18:12:25.013339  3401 net.cpp:141] Setting up relu1_52
I0719 18:12:25.013366  3401 net.cpp:148] Top shape: 128 500 (64000)
I0719 18:12:25.013380  3401 net.cpp:156] Memory required for data: 1068279296
I0719 18:12:25.013392  3401 layer_factory.hpp:77] Creating layer ip2_52
I0719 18:12:25.013423  3401 net.cpp:91] Creating Layer ip2_52
I0719 18:12:25.013439  3401 net.cpp:425] ip2_52 <- ip1_52
I0719 18:12:25.013501  3401 net.cpp:399] ip2_52 -> ip2_52
I0719 18:12:25.015405  3401 net.cpp:141] Setting up ip2_52
I0719 18:12:25.015492  3401 net.cpp:148] Top shape: 128 500 (64000)
I0719 18:12:25.015507  3401 net.cpp:156] Memory required for data: 1068535296
I0719 18:12:25.015527  3401 net.cpp:484] Sharing parameters 'ip2_w' owned by layer 'ip2_11', param index 0
I0719 18:12:25.015542  3401 net.cpp:484] Sharing parameters 'ip2_b' owned by layer 'ip2_11', param index 1
I0719 18:12:25.015558  3401 layer_factory.hpp:77] Creating layer concat_5
I0719 18:12:25.015578  3401 net.cpp:91] Creating Layer concat_5
I0719 18:12:25.015609  3401 net.cpp:425] concat_5 <- ip2_51
I0719 18:12:25.015628  3401 net.cpp:425] concat_5 <- ip2_52
I0719 18:12:25.015661  3401 net.cpp:399] concat_5 -> comb_5
I0719 18:12:25.015686  3401 net.cpp:141] Setting up concat_5
I0719 18:12:25.015717  3401 net.cpp:148] Top shape: 128 1000 (128000)
I0719 18:12:25.015730  3401 net.cpp:156] Memory required for data: 1069047296
I0719 18:12:25.015743  3401 layer_factory.hpp:77] Creating layer fc1_5
I0719 18:12:25.015779  3401 net.cpp:91] Creating Layer fc1_5
I0719 18:12:25.015794  3401 net.cpp:425] fc1_5 <- comb_5
I0719 18:12:25.015825  3401 net.cpp:399] fc1_5 -> fc1_5
I0719 18:12:25.020431  3401 net.cpp:141] Setting up fc1_5
I0719 18:12:25.020622  3401 net.cpp:148] Top shape: 128 512 (65536)
I0719 18:12:25.020668  3401 net.cpp:156] Memory required for data: 1069309440
I0719 18:12:25.020720  3401 net.cpp:484] Sharing parameters 'fc1_w' owned by layer 'fc1_1', param index 0
I0719 18:12:25.020805  3401 net.cpp:484] Sharing parameters 'fc1_b' owned by layer 'fc1_1', param index 1
I0719 18:12:25.020879  3401 layer_factory.hpp:77] Creating layer relu_fc1_5
I0719 18:12:25.020961  3401 net.cpp:91] Creating Layer relu_fc1_5
I0719 18:12:25.021039  3401 net.cpp:425] relu_fc1_5 <- fc1_5
I0719 18:12:25.021133  3401 net.cpp:386] relu_fc1_5 -> fc1_5 (in-place)
I0719 18:12:25.021225  3401 net.cpp:141] Setting up relu_fc1_5
I0719 18:12:25.021308  3401 net.cpp:148] Top shape: 128 512 (65536)
I0719 18:12:25.021378  3401 net.cpp:156] Memory required for data: 1069571584
I0719 18:12:25.021431  3401 layer_factory.hpp:77] Creating layer fc2_5
I0719 18:12:25.021464  3401 net.cpp:91] Creating Layer fc2_5
I0719 18:12:25.021512  3401 net.cpp:425] fc2_5 <- fc1_5
I0719 18:12:25.021541  3401 net.cpp:399] fc2_5 -> fc2_5
I0719 18:12:25.024338  3401 net.cpp:141] Setting up fc2_5
I0719 18:12:25.024513  3401 net.cpp:148] Top shape: 128 512 (65536)
I0719 18:12:25.024543  3401 net.cpp:156] Memory required for data: 1069833728
I0719 18:12:25.024574  3401 net.cpp:484] Sharing parameters 'fc2_w' owned by layer 'fc2_1', param index 0
I0719 18:12:25.024600  3401 net.cpp:484] Sharing parameters 'fc2_b' owned by layer 'fc2_1', param index 1
I0719 18:12:25.024626  3401 layer_factory.hpp:77] Creating layer relu_fc2_5
I0719 18:12:25.024659  3401 net.cpp:91] Creating Layer relu_fc2_5
I0719 18:12:25.024688  3401 net.cpp:425] relu_fc2_5 <- fc2_5
I0719 18:12:25.024716  3401 net.cpp:386] relu_fc2_5 -> fc2_5 (in-place)
I0719 18:12:25.024757  3401 net.cpp:141] Setting up relu_fc2_5
I0719 18:12:25.024782  3401 net.cpp:148] Top shape: 128 512 (65536)
I0719 18:12:25.024802  3401 net.cpp:156] Memory required for data: 1070095872
I0719 18:12:25.024822  3401 layer_factory.hpp:77] Creating layer fc3_5
I0719 18:12:25.024857  3401 net.cpp:91] Creating Layer fc3_5
I0719 18:12:25.024880  3401 net.cpp:425] fc3_5 <- fc2_5
I0719 18:12:25.024904  3401 net.cpp:399] fc3_5 -> fc3_5
I0719 18:12:25.024976  3401 net.cpp:141] Setting up fc3_5
I0719 18:12:25.025022  3401 net.cpp:148] Top shape: 128 2 (256)
I0719 18:12:25.025041  3401 net.cpp:156] Memory required for data: 1070096896
I0719 18:12:25.025063  3401 net.cpp:484] Sharing parameters 'fc3_w' owned by layer 'fc3_1', param index 0
I0719 18:12:25.025084  3401 net.cpp:484] Sharing parameters 'fc3_b' owned by layer 'fc3_1', param index 1
I0719 18:12:25.025104  3401 layer_factory.hpp:77] Creating layer conv1_61
I0719 18:12:25.025138  3401 net.cpp:91] Creating Layer conv1_61
I0719 18:12:25.025162  3401 net.cpp:425] conv1_61 <- s11
I0719 18:12:25.025189  3401 net.cpp:399] conv1_61 -> conv1_61
I0719 18:12:25.025261  3401 net.cpp:141] Setting up conv1_61
I0719 18:12:25.025287  3401 net.cpp:148] Top shape: 128 20 60 60 (9216000)
I0719 18:12:25.025306  3401 net.cpp:156] Memory required for data: 1106960896
I0719 18:12:25.025326  3401 net.cpp:484] Sharing parameters 'conv1_w' owned by layer 'conv1_11', param index 0
I0719 18:12:25.025347  3401 net.cpp:484] Sharing parameters 'conv1_b' owned by layer 'conv1_11', param index 1
I0719 18:12:25.025368  3401 layer_factory.hpp:77] Creating layer pool1_61
I0719 18:12:25.025391  3401 net.cpp:91] Creating Layer pool1_61
I0719 18:12:25.025413  3401 net.cpp:425] pool1_61 <- conv1_61
I0719 18:12:25.025435  3401 net.cpp:399] pool1_61 -> pool1_61
I0719 18:12:25.025465  3401 net.cpp:141] Setting up pool1_61
I0719 18:12:25.025490  3401 net.cpp:148] Top shape: 128 20 30 30 (2304000)
I0719 18:12:25.025508  3401 net.cpp:156] Memory required for data: 1116176896
I0719 18:12:25.025527  3401 layer_factory.hpp:77] Creating layer conv2_61
I0719 18:12:25.025555  3401 net.cpp:91] Creating Layer conv2_61
I0719 18:12:25.025578  3401 net.cpp:425] conv2_61 <- pool1_61
I0719 18:12:25.025601  3401 net.cpp:399] conv2_61 -> conv2_61
I0719 18:12:25.026232  3401 net.cpp:141] Setting up conv2_61
I0719 18:12:25.026345  3401 net.cpp:148] Top shape: 128 50 26 26 (4326400)
I0719 18:12:25.026445  3401 net.cpp:156] Memory required for data: 1133482496
I0719 18:12:25.026485  3401 net.cpp:484] Sharing parameters 'conv2_w' owned by layer 'conv2_11', param index 0
I0719 18:12:25.026532  3401 net.cpp:484] Sharing parameters 'conv2_b' owned by layer 'conv2_11', param index 1
I0719 18:12:25.026558  3401 layer_factory.hpp:77] Creating layer pool2_61
I0719 18:12:25.026589  3401 net.cpp:91] Creating Layer pool2_61
I0719 18:12:25.026636  3401 net.cpp:425] pool2_61 <- conv2_61
I0719 18:12:25.026674  3401 net.cpp:399] pool2_61 -> pool2_61
I0719 18:12:25.026736  3401 net.cpp:141] Setting up pool2_61
I0719 18:12:25.026765  3401 net.cpp:148] Top shape: 128 50 13 13 (1081600)
I0719 18:12:25.026806  3401 net.cpp:156] Memory required for data: 1137808896
I0719 18:12:25.026829  3401 layer_factory.hpp:77] Creating layer ip1_61
I0719 18:12:25.026860  3401 net.cpp:91] Creating Layer ip1_61
I0719 18:12:25.026903  3401 net.cpp:425] ip1_61 <- pool2_61
I0719 18:12:25.026933  3401 net.cpp:399] ip1_61 -> ip1_61
I0719 18:12:25.076483  3401 net.cpp:141] Setting up ip1_61
I0719 18:12:25.076694  3401 net.cpp:148] Top shape: 128 500 (64000)
I0719 18:12:25.076725  3401 net.cpp:156] Memory required for data: 1138064896
I0719 18:12:25.076761  3401 net.cpp:484] Sharing parameters 'ip1_w' owned by layer 'ip1_11', param index 0
I0719 18:12:25.076797  3401 net.cpp:484] Sharing parameters 'ip1_b' owned by layer 'ip1_11', param index 1
I0719 18:12:25.076827  3401 layer_factory.hpp:77] Creating layer relu1_61
I0719 18:12:25.076864  3401 net.cpp:91] Creating Layer relu1_61
I0719 18:12:25.076894  3401 net.cpp:425] relu1_61 <- ip1_61
I0719 18:12:25.076930  3401 net.cpp:386] relu1_61 -> ip1_61 (in-place)
I0719 18:12:25.076964  3401 net.cpp:141] Setting up relu1_61
I0719 18:12:25.076993  3401 net.cpp:148] Top shape: 128 500 (64000)
I0719 18:12:25.077014  3401 net.cpp:156] Memory required for data: 1138320896
I0719 18:12:25.077038  3401 layer_factory.hpp:77] Creating layer ip2_61
I0719 18:12:25.077069  3401 net.cpp:91] Creating Layer ip2_61
I0719 18:12:25.077100  3401 net.cpp:425] ip2_61 <- ip1_61
I0719 18:12:25.077141  3401 net.cpp:399] ip2_61 -> ip2_61
I0719 18:12:25.080166  3401 net.cpp:141] Setting up ip2_61
I0719 18:12:25.080302  3401 net.cpp:148] Top shape: 128 500 (64000)
I0719 18:12:25.080330  3401 net.cpp:156] Memory required for data: 1138576896
I0719 18:12:25.080360  3401 net.cpp:484] Sharing parameters 'ip2_w' owned by layer 'ip2_11', param index 0
I0719 18:12:25.080387  3401 net.cpp:484] Sharing parameters 'ip2_b' owned by layer 'ip2_11', param index 1
I0719 18:12:25.080411  3401 layer_factory.hpp:77] Creating layer conv1_62
I0719 18:12:25.080449  3401 net.cpp:91] Creating Layer conv1_62
I0719 18:12:25.080476  3401 net.cpp:425] conv1_62 <- p2_pool_i2_0_split_1
I0719 18:12:25.080509  3401 net.cpp:399] conv1_62 -> conv1_62
I0719 18:12:25.080587  3401 net.cpp:141] Setting up conv1_62
I0719 18:12:25.080618  3401 net.cpp:148] Top shape: 128 20 60 60 (9216000)
I0719 18:12:25.080638  3401 net.cpp:156] Memory required for data: 1175440896
I0719 18:12:25.080660  3401 net.cpp:484] Sharing parameters 'conv1_w' owned by layer 'conv1_11', param index 0
I0719 18:12:25.080682  3401 net.cpp:484] Sharing parameters 'conv1_b' owned by layer 'conv1_11', param index 1
I0719 18:12:25.080703  3401 layer_factory.hpp:77] Creating layer pool1_62
I0719 18:12:25.080727  3401 net.cpp:91] Creating Layer pool1_62
I0719 18:12:25.080749  3401 net.cpp:425] pool1_62 <- conv1_62
I0719 18:12:25.080775  3401 net.cpp:399] pool1_62 -> pool1_62
I0719 18:12:25.080807  3401 net.cpp:141] Setting up pool1_62
I0719 18:12:25.080831  3401 net.cpp:148] Top shape: 128 20 30 30 (2304000)
I0719 18:12:25.080849  3401 net.cpp:156] Memory required for data: 1184656896
I0719 18:12:25.080868  3401 layer_factory.hpp:77] Creating layer conv2_62
I0719 18:12:25.080898  3401 net.cpp:91] Creating Layer conv2_62
I0719 18:12:25.080920  3401 net.cpp:425] conv2_62 <- pool1_62
I0719 18:12:25.080946  3401 net.cpp:399] conv2_62 -> conv2_62
I0719 18:12:25.081243  3401 net.cpp:141] Setting up conv2_62
I0719 18:12:25.081277  3401 net.cpp:148] Top shape: 128 50 26 26 (4326400)
I0719 18:12:25.081297  3401 net.cpp:156] Memory required for data: 1201962496
I0719 18:12:25.081395  3401 net.cpp:484] Sharing parameters 'conv2_w' owned by layer 'conv2_11', param index 0
I0719 18:12:25.081429  3401 net.cpp:484] Sharing parameters 'conv2_b' owned by layer 'conv2_11', param index 1
I0719 18:12:25.081451  3401 layer_factory.hpp:77] Creating layer pool2_62
I0719 18:12:25.081475  3401 net.cpp:91] Creating Layer pool2_62
I0719 18:12:25.081498  3401 net.cpp:425] pool2_62 <- conv2_62
I0719 18:12:25.081522  3401 net.cpp:399] pool2_62 -> pool2_62
I0719 18:12:25.081553  3401 net.cpp:141] Setting up pool2_62
I0719 18:12:25.081578  3401 net.cpp:148] Top shape: 128 50 13 13 (1081600)
I0719 18:12:25.081596  3401 net.cpp:156] Memory required for data: 1206288896
I0719 18:12:25.081615  3401 layer_factory.hpp:77] Creating layer ip1_62
I0719 18:12:25.081645  3401 net.cpp:91] Creating Layer ip1_62
I0719 18:12:25.081666  3401 net.cpp:425] ip1_62 <- pool2_62
I0719 18:12:25.081692  3401 net.cpp:399] ip1_62 -> ip1_62
I0719 18:12:25.123558  3401 net.cpp:141] Setting up ip1_62
I0719 18:12:25.123760  3401 net.cpp:148] Top shape: 128 500 (64000)
I0719 18:12:25.123795  3401 net.cpp:156] Memory required for data: 1206544896
I0719 18:12:25.123828  3401 net.cpp:484] Sharing parameters 'ip1_w' owned by layer 'ip1_11', param index 0
I0719 18:12:25.123859  3401 net.cpp:484] Sharing parameters 'ip1_b' owned by layer 'ip1_11', param index 1
I0719 18:12:25.123883  3401 layer_factory.hpp:77] Creating layer relu1_62
I0719 18:12:25.123917  3401 net.cpp:91] Creating Layer relu1_62
I0719 18:12:25.123977  3401 net.cpp:425] relu1_62 <- ip1_62
I0719 18:12:25.124014  3401 net.cpp:386] relu1_62 -> ip1_62 (in-place)
I0719 18:12:25.124053  3401 net.cpp:141] Setting up relu1_62
I0719 18:12:25.124106  3401 net.cpp:148] Top shape: 128 500 (64000)
I0719 18:12:25.124135  3401 net.cpp:156] Memory required for data: 1206800896
I0719 18:12:25.124158  3401 layer_factory.hpp:77] Creating layer ip2_62
I0719 18:12:25.124227  3401 net.cpp:91] Creating Layer ip2_62
I0719 18:12:25.124311  3401 net.cpp:425] ip2_62 <- ip1_62
I0719 18:12:25.124354  3401 net.cpp:399] ip2_62 -> ip2_62
I0719 18:12:25.127269  3401 net.cpp:141] Setting up ip2_62
I0719 18:12:25.127480  3401 net.cpp:148] Top shape: 128 500 (64000)
I0719 18:12:25.127507  3401 net.cpp:156] Memory required for data: 1207056896
I0719 18:12:25.127547  3401 net.cpp:484] Sharing parameters 'ip2_w' owned by layer 'ip2_11', param index 0
I0719 18:12:25.127573  3401 net.cpp:484] Sharing parameters 'ip2_b' owned by layer 'ip2_11', param index 1
I0719 18:12:25.127599  3401 layer_factory.hpp:77] Creating layer concat_6
I0719 18:12:25.127662  3401 net.cpp:91] Creating Layer concat_6
I0719 18:12:25.127696  3401 net.cpp:425] concat_6 <- ip2_61
I0719 18:12:25.127749  3401 net.cpp:425] concat_6 <- ip2_62
I0719 18:12:25.127794  3401 net.cpp:399] concat_6 -> comb_6
I0719 18:12:25.127861  3401 net.cpp:141] Setting up concat_6
I0719 18:12:25.127894  3401 net.cpp:148] Top shape: 128 1000 (128000)
I0719 18:12:25.127941  3401 net.cpp:156] Memory required for data: 1207568896
I0719 18:12:25.127969  3401 layer_factory.hpp:77] Creating layer fc1_6
I0719 18:12:25.128003  3401 net.cpp:91] Creating Layer fc1_6
I0719 18:12:25.128052  3401 net.cpp:425] fc1_6 <- comb_6
I0719 18:12:25.128093  3401 net.cpp:399] fc1_6 -> fc1_6
I0719 18:12:25.133934  3401 net.cpp:141] Setting up fc1_6
I0719 18:12:25.134148  3401 net.cpp:148] Top shape: 128 512 (65536)
I0719 18:12:25.134189  3401 net.cpp:156] Memory required for data: 1207831040
I0719 18:12:25.134218  3401 net.cpp:484] Sharing parameters 'fc1_w' owned by layer 'fc1_1', param index 0
I0719 18:12:25.134250  3401 net.cpp:484] Sharing parameters 'fc1_b' owned by layer 'fc1_1', param index 1
I0719 18:12:25.134279  3401 layer_factory.hpp:77] Creating layer relu_fc1_6
I0719 18:12:25.134316  3401 net.cpp:91] Creating Layer relu_fc1_6
I0719 18:12:25.134349  3401 net.cpp:425] relu_fc1_6 <- fc1_6
I0719 18:12:25.134407  3401 net.cpp:386] relu_fc1_6 -> fc1_6 (in-place)
I0719 18:12:25.134446  3401 net.cpp:141] Setting up relu_fc1_6
I0719 18:12:25.134498  3401 net.cpp:148] Top shape: 128 512 (65536)
I0719 18:12:25.134526  3401 net.cpp:156] Memory required for data: 1208093184
I0719 18:12:25.134549  3401 layer_factory.hpp:77] Creating layer fc2_6
I0719 18:12:25.134603  3401 net.cpp:91] Creating Layer fc2_6
I0719 18:12:25.134634  3401 net.cpp:425] fc2_6 <- fc1_6
I0719 18:12:25.134688  3401 net.cpp:399] fc2_6 -> fc2_6
I0719 18:12:25.137893  3401 net.cpp:141] Setting up fc2_6
I0719 18:12:25.138216  3401 net.cpp:148] Top shape: 128 512 (65536)
I0719 18:12:25.138267  3401 net.cpp:156] Memory required for data: 1208355328
I0719 18:12:25.138345  3401 net.cpp:484] Sharing parameters 'fc2_w' owned by layer 'fc2_1', param index 0
I0719 18:12:25.138382  3401 net.cpp:484] Sharing parameters 'fc2_b' owned by layer 'fc2_1', param index 1
I0719 18:12:25.138413  3401 layer_factory.hpp:77] Creating layer relu_fc2_6
I0719 18:12:25.138449  3401 net.cpp:91] Creating Layer relu_fc2_6
I0719 18:12:25.138476  3401 net.cpp:425] relu_fc2_6 <- fc2_6
I0719 18:12:25.138505  3401 net.cpp:386] relu_fc2_6 -> fc2_6 (in-place)
I0719 18:12:25.138540  3401 net.cpp:141] Setting up relu_fc2_6
I0719 18:12:25.138567  3401 net.cpp:148] Top shape: 128 512 (65536)
I0719 18:12:25.138588  3401 net.cpp:156] Memory required for data: 1208617472
I0719 18:12:25.138610  3401 layer_factory.hpp:77] Creating layer fc3_6
I0719 18:12:25.138640  3401 net.cpp:91] Creating Layer fc3_6
I0719 18:12:25.138662  3401 net.cpp:425] fc3_6 <- fc2_6
I0719 18:12:25.138689  3401 net.cpp:399] fc3_6 -> fc3_6
I0719 18:12:25.138763  3401 net.cpp:141] Setting up fc3_6
I0719 18:12:25.138802  3401 net.cpp:148] Top shape: 128 2 (256)
I0719 18:12:25.138825  3401 net.cpp:156] Memory required for data: 1208618496
I0719 18:12:25.138854  3401 net.cpp:484] Sharing parameters 'fc3_w' owned by layer 'fc3_1', param index 0
I0719 18:12:25.138881  3401 net.cpp:484] Sharing parameters 'fc3_b' owned by layer 'fc3_1', param index 1
I0719 18:12:25.138908  3401 layer_factory.hpp:77] Creating layer conv1_71
I0719 18:12:25.138973  3401 net.cpp:91] Creating Layer conv1_71
I0719 18:12:25.139021  3401 net.cpp:425] conv1_71 <- s12
I0719 18:12:25.139056  3401 net.cpp:399] conv1_71 -> conv1_71
I0719 18:12:25.139139  3401 net.cpp:141] Setting up conv1_71
I0719 18:12:25.139174  3401 net.cpp:148] Top shape: 128 20 60 60 (9216000)
I0719 18:12:25.139195  3401 net.cpp:156] Memory required for data: 1245482496
I0719 18:12:25.139214  3401 net.cpp:484] Sharing parameters 'conv1_w' owned by layer 'conv1_11', param index 0
I0719 18:12:25.139237  3401 net.cpp:484] Sharing parameters 'conv1_b' owned by layer 'conv1_11', param index 1
I0719 18:12:25.139261  3401 layer_factory.hpp:77] Creating layer pool1_71
I0719 18:12:25.139291  3401 net.cpp:91] Creating Layer pool1_71
I0719 18:12:25.139313  3401 net.cpp:425] pool1_71 <- conv1_71
I0719 18:12:25.139339  3401 net.cpp:399] pool1_71 -> pool1_71
I0719 18:12:25.139370  3401 net.cpp:141] Setting up pool1_71
I0719 18:12:25.139399  3401 net.cpp:148] Top shape: 128 20 30 30 (2304000)
I0719 18:12:25.139417  3401 net.cpp:156] Memory required for data: 1254698496
I0719 18:12:25.139437  3401 layer_factory.hpp:77] Creating layer conv2_71
I0719 18:12:25.139467  3401 net.cpp:91] Creating Layer conv2_71
I0719 18:12:25.139492  3401 net.cpp:425] conv2_71 <- pool1_71
I0719 18:12:25.139519  3401 net.cpp:399] conv2_71 -> conv2_71
I0719 18:12:25.139811  3401 net.cpp:141] Setting up conv2_71
I0719 18:12:25.139847  3401 net.cpp:148] Top shape: 128 50 26 26 (4326400)
I0719 18:12:25.139869  3401 net.cpp:156] Memory required for data: 1272004096
I0719 18:12:25.139894  3401 net.cpp:484] Sharing parameters 'conv2_w' owned by layer 'conv2_11', param index 0
I0719 18:12:25.139920  3401 net.cpp:484] Sharing parameters 'conv2_b' owned by layer 'conv2_11', param index 1
I0719 18:12:25.139948  3401 layer_factory.hpp:77] Creating layer pool2_71
I0719 18:12:25.139976  3401 net.cpp:91] Creating Layer pool2_71
I0719 18:12:25.139997  3401 net.cpp:425] pool2_71 <- conv2_71
I0719 18:12:25.140035  3401 net.cpp:399] pool2_71 -> pool2_71
I0719 18:12:25.140089  3401 net.cpp:141] Setting up pool2_71
I0719 18:12:25.140130  3401 net.cpp:148] Top shape: 128 50 13 13 (1081600)
I0719 18:12:25.140158  3401 net.cpp:156] Memory required for data: 1276330496
I0719 18:12:25.140189  3401 layer_factory.hpp:77] Creating layer ip1_71
I0719 18:12:25.140230  3401 net.cpp:91] Creating Layer ip1_71
I0719 18:12:25.140264  3401 net.cpp:425] ip1_71 <- pool2_71
I0719 18:12:25.140297  3401 net.cpp:399] ip1_71 -> ip1_71
I0719 18:12:25.177747  3401 net.cpp:141] Setting up ip1_71
I0719 18:12:25.177914  3401 net.cpp:148] Top shape: 128 500 (64000)
I0719 18:12:25.177938  3401 net.cpp:156] Memory required for data: 1276586496
I0719 18:12:25.177959  3401 net.cpp:484] Sharing parameters 'ip1_w' owned by layer 'ip1_11', param index 0
I0719 18:12:25.177978  3401 net.cpp:484] Sharing parameters 'ip1_b' owned by layer 'ip1_11', param index 1
I0719 18:12:25.177992  3401 layer_factory.hpp:77] Creating layer relu1_71
I0719 18:12:25.178014  3401 net.cpp:91] Creating Layer relu1_71
I0719 18:12:25.178069  3401 net.cpp:425] relu1_71 <- ip1_71
I0719 18:12:25.178128  3401 net.cpp:386] relu1_71 -> ip1_71 (in-place)
I0719 18:12:25.178166  3401 net.cpp:141] Setting up relu1_71
I0719 18:12:25.178200  3401 net.cpp:148] Top shape: 128 500 (64000)
I0719 18:12:25.178221  3401 net.cpp:156] Memory required for data: 1276842496
I0719 18:12:25.178285  3401 layer_factory.hpp:77] Creating layer ip2_71
I0719 18:12:25.178478  3401 net.cpp:91] Creating Layer ip2_71
I0719 18:12:25.178508  3401 net.cpp:425] ip2_71 <- ip1_71
I0719 18:12:25.178546  3401 net.cpp:399] ip2_71 -> ip2_71
I0719 18:12:25.181484  3401 net.cpp:141] Setting up ip2_71
I0719 18:12:25.181639  3401 net.cpp:148] Top shape: 128 500 (64000)
I0719 18:12:25.181665  3401 net.cpp:156] Memory required for data: 1277098496
I0719 18:12:25.181699  3401 net.cpp:484] Sharing parameters 'ip2_w' owned by layer 'ip2_11', param index 0
I0719 18:12:25.181743  3401 net.cpp:484] Sharing parameters 'ip2_b' owned by layer 'ip2_11', param index 1
I0719 18:12:25.181792  3401 layer_factory.hpp:77] Creating layer conv1_72
I0719 18:12:25.181989  3401 net.cpp:91] Creating Layer conv1_72
I0719 18:12:25.182037  3401 net.cpp:425] conv1_72 <- p2_pool_i2_0_split_2
I0719 18:12:25.182083  3401 net.cpp:399] conv1_72 -> conv1_72
I0719 18:12:25.182209  3401 net.cpp:141] Setting up conv1_72
I0719 18:12:25.182256  3401 net.cpp:148] Top shape: 128 20 60 60 (9216000)
I0719 18:12:25.182281  3401 net.cpp:156] Memory required for data: 1313962496
I0719 18:12:25.182313  3401 net.cpp:484] Sharing parameters 'conv1_w' owned by layer 'conv1_11', param index 0
I0719 18:12:25.182344  3401 net.cpp:484] Sharing parameters 'conv1_b' owned by layer 'conv1_11', param index 1
I0719 18:12:25.182370  3401 layer_factory.hpp:77] Creating layer pool1_72
I0719 18:12:25.182410  3401 net.cpp:91] Creating Layer pool1_72
I0719 18:12:25.182441  3401 net.cpp:425] pool1_72 <- conv1_72
I0719 18:12:25.182487  3401 net.cpp:399] pool1_72 -> pool1_72
I0719 18:12:25.182540  3401 net.cpp:141] Setting up pool1_72
I0719 18:12:25.182579  3401 net.cpp:148] Top shape: 128 20 30 30 (2304000)
I0719 18:12:25.182606  3401 net.cpp:156] Memory required for data: 1323178496
I0719 18:12:25.182634  3401 layer_factory.hpp:77] Creating layer conv2_72
I0719 18:12:25.182672  3401 net.cpp:91] Creating Layer conv2_72
I0719 18:12:25.182698  3401 net.cpp:425] conv2_72 <- pool1_72
I0719 18:12:25.182737  3401 net.cpp:399] conv2_72 -> conv2_72
I0719 18:12:25.183074  3401 net.cpp:141] Setting up conv2_72
I0719 18:12:25.183187  3401 net.cpp:148] Top shape: 128 50 26 26 (4326400)
I0719 18:12:25.183213  3401 net.cpp:156] Memory required for data: 1340484096
I0719 18:12:25.183244  3401 net.cpp:484] Sharing parameters 'conv2_w' owned by layer 'conv2_11', param index 0
I0719 18:12:25.183274  3401 net.cpp:484] Sharing parameters 'conv2_b' owned by layer 'conv2_11', param index 1
I0719 18:12:25.183300  3401 layer_factory.hpp:77] Creating layer pool2_72
I0719 18:12:25.183382  3401 net.cpp:91] Creating Layer pool2_72
I0719 18:12:25.183457  3401 net.cpp:425] pool2_72 <- conv2_72
I0719 18:12:25.183542  3401 net.cpp:399] pool2_72 -> pool2_72
I0719 18:12:25.183642  3401 net.cpp:141] Setting up pool2_72
I0719 18:12:25.183728  3401 net.cpp:148] Top shape: 128 50 13 13 (1081600)
I0719 18:12:25.183779  3401 net.cpp:156] Memory required for data: 1344810496
I0719 18:12:25.183825  3401 layer_factory.hpp:77] Creating layer ip1_72
I0719 18:12:25.183903  3401 net.cpp:91] Creating Layer ip1_72
I0719 18:12:25.183956  3401 net.cpp:425] ip1_72 <- pool2_72
I0719 18:12:25.184012  3401 net.cpp:399] ip1_72 -> ip1_72
I0719 18:12:25.225680  3401 net.cpp:141] Setting up ip1_72
I0719 18:12:25.225863  3401 net.cpp:148] Top shape: 128 500 (64000)
I0719 18:12:25.225884  3401 net.cpp:156] Memory required for data: 1345066496
I0719 18:12:25.225908  3401 net.cpp:484] Sharing parameters 'ip1_w' owned by layer 'ip1_11', param index 0
I0719 18:12:25.225926  3401 net.cpp:484] Sharing parameters 'ip1_b' owned by layer 'ip1_11', param index 1
I0719 18:12:25.225941  3401 layer_factory.hpp:77] Creating layer relu1_72
I0719 18:12:25.225970  3401 net.cpp:91] Creating Layer relu1_72
I0719 18:12:25.225994  3401 net.cpp:425] relu1_72 <- ip1_72
I0719 18:12:25.226014  3401 net.cpp:386] relu1_72 -> ip1_72 (in-place)
I0719 18:12:25.226039  3401 net.cpp:141] Setting up relu1_72
I0719 18:12:25.226058  3401 net.cpp:148] Top shape: 128 500 (64000)
I0719 18:12:25.226069  3401 net.cpp:156] Memory required for data: 1345322496
I0719 18:12:25.226083  3401 layer_factory.hpp:77] Creating layer ip2_72
I0719 18:12:25.226107  3401 net.cpp:91] Creating Layer ip2_72
I0719 18:12:25.226125  3401 net.cpp:425] ip2_72 <- ip1_72
I0719 18:12:25.226145  3401 net.cpp:399] ip2_72 -> ip2_72
I0719 18:12:25.231470  3401 net.cpp:141] Setting up ip2_72
I0719 18:12:25.231662  3401 net.cpp:148] Top shape: 128 500 (64000)
I0719 18:12:25.231691  3401 net.cpp:156] Memory required for data: 1345578496
I0719 18:12:25.231726  3401 net.cpp:484] Sharing parameters 'ip2_w' owned by layer 'ip2_11', param index 0
I0719 18:12:25.231776  3401 net.cpp:484] Sharing parameters 'ip2_b' owned by layer 'ip2_11', param index 1
I0719 18:12:25.231825  3401 layer_factory.hpp:77] Creating layer concat_7
I0719 18:12:25.231870  3401 net.cpp:91] Creating Layer concat_7
I0719 18:12:25.231901  3401 net.cpp:425] concat_7 <- ip2_71
I0719 18:12:25.231930  3401 net.cpp:425] concat_7 <- ip2_72
I0719 18:12:25.231968  3401 net.cpp:399] concat_7 -> comb_7
I0719 18:12:25.232017  3401 net.cpp:141] Setting up concat_7
I0719 18:12:25.232050  3401 net.cpp:148] Top shape: 128 1000 (128000)
I0719 18:12:25.232076  3401 net.cpp:156] Memory required for data: 1346090496
I0719 18:12:25.232101  3401 layer_factory.hpp:77] Creating layer fc1_7
I0719 18:12:25.232146  3401 net.cpp:91] Creating Layer fc1_7
I0719 18:12:25.232174  3401 net.cpp:425] fc1_7 <- comb_7
I0719 18:12:25.232206  3401 net.cpp:399] fc1_7 -> fc1_7
I0719 18:12:25.237300  3401 net.cpp:141] Setting up fc1_7
I0719 18:12:25.237367  3401 net.cpp:148] Top shape: 128 512 (65536)
I0719 18:12:25.237385  3401 net.cpp:156] Memory required for data: 1346352640
I0719 18:12:25.237401  3401 net.cpp:484] Sharing parameters 'fc1_w' owned by layer 'fc1_1', param index 0
I0719 18:12:25.237417  3401 net.cpp:484] Sharing parameters 'fc1_b' owned by layer 'fc1_1', param index 1
I0719 18:12:25.237432  3401 layer_factory.hpp:77] Creating layer relu_fc1_7
I0719 18:12:25.237449  3401 net.cpp:91] Creating Layer relu_fc1_7
I0719 18:12:25.237465  3401 net.cpp:425] relu_fc1_7 <- fc1_7
I0719 18:12:25.237483  3401 net.cpp:386] relu_fc1_7 -> fc1_7 (in-place)
I0719 18:12:25.237504  3401 net.cpp:141] Setting up relu_fc1_7
I0719 18:12:25.237519  3401 net.cpp:148] Top shape: 128 512 (65536)
I0719 18:12:25.237536  3401 net.cpp:156] Memory required for data: 1346614784
I0719 18:12:25.237550  3401 layer_factory.hpp:77] Creating layer fc2_7
I0719 18:12:25.237571  3401 net.cpp:91] Creating Layer fc2_7
I0719 18:12:25.237584  3401 net.cpp:425] fc2_7 <- fc1_7
I0719 18:12:25.237601  3401 net.cpp:399] fc2_7 -> fc2_7
I0719 18:12:25.240054  3401 net.cpp:141] Setting up fc2_7
I0719 18:12:25.240191  3401 net.cpp:148] Top shape: 128 512 (65536)
I0719 18:12:25.240218  3401 net.cpp:156] Memory required for data: 1346876928
I0719 18:12:25.240247  3401 net.cpp:484] Sharing parameters 'fc2_w' owned by layer 'fc2_1', param index 0
I0719 18:12:25.240299  3401 net.cpp:484] Sharing parameters 'fc2_b' owned by layer 'fc2_1', param index 1
I0719 18:12:25.240325  3401 layer_factory.hpp:77] Creating layer relu_fc2_7
I0719 18:12:25.240386  3401 net.cpp:91] Creating Layer relu_fc2_7
I0719 18:12:25.240411  3401 net.cpp:425] relu_fc2_7 <- fc2_7
I0719 18:12:25.240455  3401 net.cpp:386] relu_fc2_7 -> fc2_7 (in-place)
I0719 18:12:25.240486  3401 net.cpp:141] Setting up relu_fc2_7
I0719 18:12:25.240530  3401 net.cpp:148] Top shape: 128 512 (65536)
I0719 18:12:25.240550  3401 net.cpp:156] Memory required for data: 1347139072
I0719 18:12:25.240588  3401 layer_factory.hpp:77] Creating layer fc3_7
I0719 18:12:25.240620  3401 net.cpp:91] Creating Layer fc3_7
I0719 18:12:25.240660  3401 net.cpp:425] fc3_7 <- fc2_7
I0719 18:12:25.240687  3401 net.cpp:399] fc3_7 -> fc3_7
I0719 18:12:25.240758  3401 net.cpp:141] Setting up fc3_7
I0719 18:12:25.240803  3401 net.cpp:148] Top shape: 128 2 (256)
I0719 18:12:25.240823  3401 net.cpp:156] Memory required for data: 1347140096
I0719 18:12:25.240862  3401 net.cpp:484] Sharing parameters 'fc3_w' owned by layer 'fc3_1', param index 0
I0719 18:12:25.240885  3401 net.cpp:484] Sharing parameters 'fc3_b' owned by layer 'fc3_1', param index 1
I0719 18:12:25.240923  3401 layer_factory.hpp:77] Creating layer conv1_81
I0719 18:12:25.240957  3401 net.cpp:91] Creating Layer conv1_81
I0719 18:12:25.241000  3401 net.cpp:425] conv1_81 <- s13
I0719 18:12:25.241029  3401 net.cpp:399] conv1_81 -> conv1_81
I0719 18:12:25.241123  3401 net.cpp:141] Setting up conv1_81
I0719 18:12:25.241174  3401 net.cpp:148] Top shape: 128 20 60 60 (9216000)
I0719 18:12:25.241195  3401 net.cpp:156] Memory required for data: 1384004096
I0719 18:12:25.241235  3401 net.cpp:484] Sharing parameters 'conv1_w' owned by layer 'conv1_11', param index 0
I0719 18:12:25.241298  3401 net.cpp:484] Sharing parameters 'conv1_b' owned by layer 'conv1_11', param index 1
I0719 18:12:25.241323  3401 layer_factory.hpp:77] Creating layer pool1_81
I0719 18:12:25.241348  3401 net.cpp:91] Creating Layer pool1_81
I0719 18:12:25.241369  3401 net.cpp:425] pool1_81 <- conv1_81
I0719 18:12:25.241392  3401 net.cpp:399] pool1_81 -> pool1_81
I0719 18:12:25.241422  3401 net.cpp:141] Setting up pool1_81
I0719 18:12:25.241446  3401 net.cpp:148] Top shape: 128 20 30 30 (2304000)
I0719 18:12:25.241466  3401 net.cpp:156] Memory required for data: 1393220096
I0719 18:12:25.241484  3401 layer_factory.hpp:77] Creating layer conv2_81
I0719 18:12:25.241513  3401 net.cpp:91] Creating Layer conv2_81
I0719 18:12:25.241535  3401 net.cpp:425] conv2_81 <- pool1_81
I0719 18:12:25.241560  3401 net.cpp:399] conv2_81 -> conv2_81
I0719 18:12:25.241895  3401 net.cpp:141] Setting up conv2_81
I0719 18:12:25.241933  3401 net.cpp:148] Top shape: 128 50 26 26 (4326400)
I0719 18:12:25.241948  3401 net.cpp:156] Memory required for data: 1410525696
I0719 18:12:25.241963  3401 net.cpp:484] Sharing parameters 'conv2_w' owned by layer 'conv2_11', param index 0
I0719 18:12:25.241978  3401 net.cpp:484] Sharing parameters 'conv2_b' owned by layer 'conv2_11', param index 1
I0719 18:12:25.241992  3401 layer_factory.hpp:77] Creating layer pool2_81
I0719 18:12:25.242009  3401 net.cpp:91] Creating Layer pool2_81
I0719 18:12:25.242025  3401 net.cpp:425] pool2_81 <- conv2_81
I0719 18:12:25.242045  3401 net.cpp:399] pool2_81 -> pool2_81
I0719 18:12:25.242069  3401 net.cpp:141] Setting up pool2_81
I0719 18:12:25.242084  3401 net.cpp:148] Top shape: 128 50 13 13 (1081600)
I0719 18:12:25.242097  3401 net.cpp:156] Memory required for data: 1414852096
I0719 18:12:25.242110  3401 layer_factory.hpp:77] Creating layer ip1_81
I0719 18:12:25.242130  3401 net.cpp:91] Creating Layer ip1_81
I0719 18:12:25.242146  3401 net.cpp:425] ip1_81 <- pool2_81
I0719 18:12:25.242163  3401 net.cpp:399] ip1_81 -> ip1_81
I0719 18:12:25.284008  3401 net.cpp:141] Setting up ip1_81
I0719 18:12:25.284171  3401 net.cpp:148] Top shape: 128 500 (64000)
I0719 18:12:25.284203  3401 net.cpp:156] Memory required for data: 1415108096
I0719 18:12:25.284235  3401 net.cpp:484] Sharing parameters 'ip1_w' owned by layer 'ip1_11', param index 0
I0719 18:12:25.284267  3401 net.cpp:484] Sharing parameters 'ip1_b' owned by layer 'ip1_11', param index 1
I0719 18:12:25.284292  3401 layer_factory.hpp:77] Creating layer relu1_81
I0719 18:12:25.284324  3401 net.cpp:91] Creating Layer relu1_81
I0719 18:12:25.284379  3401 net.cpp:425] relu1_81 <- ip1_81
I0719 18:12:25.284445  3401 net.cpp:386] relu1_81 -> ip1_81 (in-place)
I0719 18:12:25.284540  3401 net.cpp:141] Setting up relu1_81
I0719 18:12:25.284600  3401 net.cpp:148] Top shape: 128 500 (64000)
I0719 18:12:25.284628  3401 net.cpp:156] Memory required for data: 1415364096
I0719 18:12:25.284677  3401 layer_factory.hpp:77] Creating layer ip2_81
I0719 18:12:25.284713  3401 net.cpp:91] Creating Layer ip2_81
I0719 18:12:25.284762  3401 net.cpp:425] ip2_81 <- ip1_81
I0719 18:12:25.284827  3401 net.cpp:399] ip2_81 -> ip2_81
I0719 18:12:25.287928  3401 net.cpp:141] Setting up ip2_81
I0719 18:12:25.288168  3401 net.cpp:148] Top shape: 128 500 (64000)
I0719 18:12:25.288197  3401 net.cpp:156] Memory required for data: 1415620096
I0719 18:12:25.288228  3401 net.cpp:484] Sharing parameters 'ip2_w' owned by layer 'ip2_11', param index 0
I0719 18:12:25.288282  3401 net.cpp:484] Sharing parameters 'ip2_b' owned by layer 'ip2_11', param index 1
I0719 18:12:25.288313  3401 layer_factory.hpp:77] Creating layer conv1_82
I0719 18:12:25.288383  3401 net.cpp:91] Creating Layer conv1_82
I0719 18:12:25.288415  3401 net.cpp:425] conv1_82 <- p2_pool_i2_0_split_3
I0719 18:12:25.288480  3401 net.cpp:399] conv1_82 -> conv1_82
I0719 18:12:25.288571  3401 net.cpp:141] Setting up conv1_82
I0719 18:12:25.288627  3401 net.cpp:148] Top shape: 128 20 60 60 (9216000)
I0719 18:12:25.288655  3401 net.cpp:156] Memory required for data: 1452484096
I0719 18:12:25.288692  3401 net.cpp:484] Sharing parameters 'conv1_w' owned by layer 'conv1_11', param index 0
I0719 18:12:25.288756  3401 net.cpp:484] Sharing parameters 'conv1_b' owned by layer 'conv1_11', param index 1
I0719 18:12:25.288787  3401 layer_factory.hpp:77] Creating layer pool1_82
I0719 18:12:25.288842  3401 net.cpp:91] Creating Layer pool1_82
I0719 18:12:25.288872  3401 net.cpp:425] pool1_82 <- conv1_82
I0719 18:12:25.288928  3401 net.cpp:399] pool1_82 -> pool1_82
I0719 18:12:25.288970  3401 net.cpp:141] Setting up pool1_82
I0719 18:12:25.289022  3401 net.cpp:148] Top shape: 128 20 30 30 (2304000)
I0719 18:12:25.289050  3401 net.cpp:156] Memory required for data: 1461700096
I0719 18:12:25.289074  3401 layer_factory.hpp:77] Creating layer conv2_82
I0719 18:12:25.289175  3401 net.cpp:91] Creating Layer conv2_82
I0719 18:12:25.289232  3401 net.cpp:425] conv2_82 <- pool1_82
I0719 18:12:25.289270  3401 net.cpp:399] conv2_82 -> conv2_82
I0719 18:12:25.289640  3401 net.cpp:141] Setting up conv2_82
I0719 18:12:25.289711  3401 net.cpp:148] Top shape: 128 50 26 26 (4326400)
I0719 18:12:25.289741  3401 net.cpp:156] Memory required for data: 1479005696
I0719 18:12:25.289767  3401 net.cpp:484] Sharing parameters 'conv2_w' owned by layer 'conv2_11', param index 0
I0719 18:12:25.289861  3401 net.cpp:484] Sharing parameters 'conv2_b' owned by layer 'conv2_11', param index 1
I0719 18:12:25.289902  3401 layer_factory.hpp:77] Creating layer pool2_82
I0719 18:12:25.289958  3401 net.cpp:91] Creating Layer pool2_82
I0719 18:12:25.289988  3401 net.cpp:425] pool2_82 <- conv2_82
I0719 18:12:25.290043  3401 net.cpp:399] pool2_82 -> pool2_82
I0719 18:12:25.290086  3401 net.cpp:141] Setting up pool2_82
I0719 18:12:25.290138  3401 net.cpp:148] Top shape: 128 50 13 13 (1081600)
I0719 18:12:25.290165  3401 net.cpp:156] Memory required for data: 1483332096
I0719 18:12:25.290189  3401 layer_factory.hpp:77] Creating layer ip1_82
I0719 18:12:25.290246  3401 net.cpp:91] Creating Layer ip1_82
I0719 18:12:25.290277  3401 net.cpp:425] ip1_82 <- pool2_82
I0719 18:12:25.290310  3401 net.cpp:399] ip1_82 -> ip1_82
I0719 18:12:25.335515  3401 net.cpp:141] Setting up ip1_82
I0719 18:12:25.335685  3401 net.cpp:148] Top shape: 128 500 (64000)
I0719 18:12:25.335733  3401 net.cpp:156] Memory required for data: 1483588096
I0719 18:12:25.335772  3401 net.cpp:484] Sharing parameters 'ip1_w' owned by layer 'ip1_11', param index 0
I0719 18:12:25.335834  3401 net.cpp:484] Sharing parameters 'ip1_b' owned by layer 'ip1_11', param index 1
I0719 18:12:25.335868  3401 layer_factory.hpp:77] Creating layer relu1_82
I0719 18:12:25.335927  3401 net.cpp:91] Creating Layer relu1_82
I0719 18:12:25.335963  3401 net.cpp:425] relu1_82 <- ip1_82
I0719 18:12:25.336019  3401 net.cpp:386] relu1_82 -> ip1_82 (in-place)
I0719 18:12:25.336061  3401 net.cpp:141] Setting up relu1_82
I0719 18:12:25.336154  3401 net.cpp:148] Top shape: 128 500 (64000)
I0719 18:12:25.336208  3401 net.cpp:156] Memory required for data: 1483844096
I0719 18:12:25.336238  3401 layer_factory.hpp:77] Creating layer ip2_82
I0719 18:12:25.336303  3401 net.cpp:91] Creating Layer ip2_82
I0719 18:12:25.336336  3401 net.cpp:425] ip2_82 <- ip1_82
I0719 18:12:25.336395  3401 net.cpp:399] ip2_82 -> ip2_82
I0719 18:12:25.339530  3401 net.cpp:141] Setting up ip2_82
I0719 18:12:25.339674  3401 net.cpp:148] Top shape: 128 500 (64000)
I0719 18:12:25.339699  3401 net.cpp:156] Memory required for data: 1484100096
I0719 18:12:25.339727  3401 net.cpp:484] Sharing parameters 'ip2_w' owned by layer 'ip2_11', param index 0
I0719 18:12:25.339756  3401 net.cpp:484] Sharing parameters 'ip2_b' owned by layer 'ip2_11', param index 1
I0719 18:12:25.339809  3401 layer_factory.hpp:77] Creating layer concat_8
I0719 18:12:25.339850  3401 net.cpp:91] Creating Layer concat_8
I0719 18:12:25.339900  3401 net.cpp:425] concat_8 <- ip2_81
I0719 18:12:25.339932  3401 net.cpp:425] concat_8 <- ip2_82
I0719 18:12:25.340065  3401 net.cpp:399] concat_8 -> comb_8
I0719 18:12:25.340147  3401 net.cpp:141] Setting up concat_8
I0719 18:12:25.340189  3401 net.cpp:148] Top shape: 128 1000 (128000)
I0719 18:12:25.340248  3401 net.cpp:156] Memory required for data: 1484612096
I0719 18:12:25.340273  3401 layer_factory.hpp:77] Creating layer fc1_8
I0719 18:12:25.340312  3401 net.cpp:91] Creating Layer fc1_8
I0719 18:12:25.340359  3401 net.cpp:425] fc1_8 <- comb_8
I0719 18:12:25.340389  3401 net.cpp:399] fc1_8 -> fc1_8
I0719 18:12:25.348037  3401 net.cpp:141] Setting up fc1_8
I0719 18:12:25.348417  3401 net.cpp:148] Top shape: 128 512 (65536)
I0719 18:12:25.348707  3401 net.cpp:156] Memory required for data: 1484874240
I0719 18:12:25.348902  3401 net.cpp:484] Sharing parameters 'fc1_w' owned by layer 'fc1_1', param index 0
I0719 18:12:25.349036  3401 net.cpp:484] Sharing parameters 'fc1_b' owned by layer 'fc1_1', param index 1
I0719 18:12:25.349170  3401 layer_factory.hpp:77] Creating layer relu_fc1_8
I0719 18:12:25.349253  3401 net.cpp:91] Creating Layer relu_fc1_8
I0719 18:12:25.349565  3401 net.cpp:425] relu_fc1_8 <- fc1_8
I0719 18:12:25.349756  3401 net.cpp:386] relu_fc1_8 -> fc1_8 (in-place)
I0719 18:12:25.350065  3401 net.cpp:141] Setting up relu_fc1_8
I0719 18:12:25.350420  3401 net.cpp:148] Top shape: 128 512 (65536)
I0719 18:12:25.350541  3401 net.cpp:156] Memory required for data: 1485136384
I0719 18:12:25.350721  3401 layer_factory.hpp:77] Creating layer fc2_8
I0719 18:12:25.350962  3401 net.cpp:91] Creating Layer fc2_8
I0719 18:12:25.351204  3401 net.cpp:425] fc2_8 <- fc1_8
I0719 18:12:25.351495  3401 net.cpp:399] fc2_8 -> fc2_8
I0719 18:12:25.354226  3401 net.cpp:141] Setting up fc2_8
I0719 18:12:25.354321  3401 net.cpp:148] Top shape: 128 512 (65536)
I0719 18:12:25.354338  3401 net.cpp:156] Memory required for data: 1485398528
I0719 18:12:25.354357  3401 net.cpp:484] Sharing parameters 'fc2_w' owned by layer 'fc2_1', param index 0
I0719 18:12:25.354375  3401 net.cpp:484] Sharing parameters 'fc2_b' owned by layer 'fc2_1', param index 1
I0719 18:12:25.354390  3401 layer_factory.hpp:77] Creating layer relu_fc2_8
I0719 18:12:25.354418  3401 net.cpp:91] Creating Layer relu_fc2_8
I0719 18:12:25.354436  3401 net.cpp:425] relu_fc2_8 <- fc2_8
I0719 18:12:25.354454  3401 net.cpp:386] relu_fc2_8 -> fc2_8 (in-place)
I0719 18:12:25.354475  3401 net.cpp:141] Setting up relu_fc2_8
I0719 18:12:25.354491  3401 net.cpp:148] Top shape: 128 512 (65536)
I0719 18:12:25.354504  3401 net.cpp:156] Memory required for data: 1485660672
I0719 18:12:25.354517  3401 layer_factory.hpp:77] Creating layer fc3_8
I0719 18:12:25.354535  3401 net.cpp:91] Creating Layer fc3_8
I0719 18:12:25.354550  3401 net.cpp:425] fc3_8 <- fc2_8
I0719 18:12:25.354568  3401 net.cpp:399] fc3_8 -> fc3_8
I0719 18:12:25.354634  3401 net.cpp:141] Setting up fc3_8
I0719 18:12:25.354660  3401 net.cpp:148] Top shape: 128 2 (256)
I0719 18:12:25.354674  3401 net.cpp:156] Memory required for data: 1485661696
I0719 18:12:25.354689  3401 net.cpp:484] Sharing parameters 'fc3_w' owned by layer 'fc3_1', param index 0
I0719 18:12:25.354704  3401 net.cpp:484] Sharing parameters 'fc3_b' owned by layer 'fc3_1', param index 1
I0719 18:12:25.354718  3401 layer_factory.hpp:77] Creating layer conv1_91
I0719 18:12:25.354739  3401 net.cpp:91] Creating Layer conv1_91
I0719 18:12:25.354755  3401 net.cpp:425] conv1_91 <- s14
I0719 18:12:25.354779  3401 net.cpp:399] conv1_91 -> conv1_91
I0719 18:12:25.354830  3401 net.cpp:141] Setting up conv1_91
I0719 18:12:25.354848  3401 net.cpp:148] Top shape: 128 20 60 60 (9216000)
I0719 18:12:25.354861  3401 net.cpp:156] Memory required for data: 1522525696
I0719 18:12:25.354876  3401 net.cpp:484] Sharing parameters 'conv1_w' owned by layer 'conv1_11', param index 0
I0719 18:12:25.354890  3401 net.cpp:484] Sharing parameters 'conv1_b' owned by layer 'conv1_11', param index 1
I0719 18:12:25.354905  3401 layer_factory.hpp:77] Creating layer pool1_91
I0719 18:12:25.354923  3401 net.cpp:91] Creating Layer pool1_91
I0719 18:12:25.354938  3401 net.cpp:425] pool1_91 <- conv1_91
I0719 18:12:25.354956  3401 net.cpp:399] pool1_91 -> pool1_91
I0719 18:12:25.354977  3401 net.cpp:141] Setting up pool1_91
I0719 18:12:25.355002  3401 net.cpp:148] Top shape: 128 20 30 30 (2304000)
I0719 18:12:25.355024  3401 net.cpp:156] Memory required for data: 1531741696
I0719 18:12:25.355038  3401 layer_factory.hpp:77] Creating layer conv2_91
I0719 18:12:25.355060  3401 net.cpp:91] Creating Layer conv2_91
I0719 18:12:25.355077  3401 net.cpp:425] conv2_91 <- pool1_91
I0719 18:12:25.355094  3401 net.cpp:399] conv2_91 -> conv2_91
I0719 18:12:25.355322  3401 net.cpp:141] Setting up conv2_91
I0719 18:12:25.355343  3401 net.cpp:148] Top shape: 128 50 26 26 (4326400)
I0719 18:12:25.355356  3401 net.cpp:156] Memory required for data: 1549047296
I0719 18:12:25.355370  3401 net.cpp:484] Sharing parameters 'conv2_w' owned by layer 'conv2_11', param index 0
I0719 18:12:25.355386  3401 net.cpp:484] Sharing parameters 'conv2_b' owned by layer 'conv2_11', param index 1
I0719 18:12:25.355398  3401 layer_factory.hpp:77] Creating layer pool2_91
I0719 18:12:25.355415  3401 net.cpp:91] Creating Layer pool2_91
I0719 18:12:25.355432  3401 net.cpp:425] pool2_91 <- conv2_91
I0719 18:12:25.355448  3401 net.cpp:399] pool2_91 -> pool2_91
I0719 18:12:25.355468  3401 net.cpp:141] Setting up pool2_91
I0719 18:12:25.355484  3401 net.cpp:148] Top shape: 128 50 13 13 (1081600)
I0719 18:12:25.355495  3401 net.cpp:156] Memory required for data: 1553373696
I0719 18:12:25.355509  3401 layer_factory.hpp:77] Creating layer ip1_91
I0719 18:12:25.355527  3401 net.cpp:91] Creating Layer ip1_91
I0719 18:12:25.355542  3401 net.cpp:425] ip1_91 <- pool2_91
I0719 18:12:25.355562  3401 net.cpp:399] ip1_91 -> ip1_91
I0719 18:12:25.394652  3401 net.cpp:141] Setting up ip1_91
I0719 18:12:25.394809  3401 net.cpp:148] Top shape: 128 500 (64000)
I0719 18:12:25.394826  3401 net.cpp:156] Memory required for data: 1553629696
I0719 18:12:25.394845  3401 net.cpp:484] Sharing parameters 'ip1_w' owned by layer 'ip1_11', param index 0
I0719 18:12:25.394860  3401 net.cpp:484] Sharing parameters 'ip1_b' owned by layer 'ip1_11', param index 1
I0719 18:12:25.394876  3401 layer_factory.hpp:77] Creating layer relu1_91
I0719 18:12:25.394896  3401 net.cpp:91] Creating Layer relu1_91
I0719 18:12:25.394914  3401 net.cpp:425] relu1_91 <- ip1_91
I0719 18:12:25.394930  3401 net.cpp:386] relu1_91 -> ip1_91 (in-place)
I0719 18:12:25.394950  3401 net.cpp:141] Setting up relu1_91
I0719 18:12:25.394964  3401 net.cpp:148] Top shape: 128 500 (64000)
I0719 18:12:25.394976  3401 net.cpp:156] Memory required for data: 1553885696
I0719 18:12:25.394989  3401 layer_factory.hpp:77] Creating layer ip2_91
I0719 18:12:25.395006  3401 net.cpp:91] Creating Layer ip2_91
I0719 18:12:25.395020  3401 net.cpp:425] ip2_91 <- ip1_91
I0719 18:12:25.395037  3401 net.cpp:399] ip2_91 -> ip2_91
I0719 18:12:25.397086  3401 net.cpp:141] Setting up ip2_91
I0719 18:12:25.397267  3401 net.cpp:148] Top shape: 128 500 (64000)
I0719 18:12:25.397349  3401 net.cpp:156] Memory required for data: 1554141696
I0719 18:12:25.397382  3401 net.cpp:484] Sharing parameters 'ip2_w' owned by layer 'ip2_11', param index 0
I0719 18:12:25.397454  3401 net.cpp:484] Sharing parameters 'ip2_b' owned by layer 'ip2_11', param index 1
I0719 18:12:25.397476  3401 layer_factory.hpp:77] Creating layer conv1_92
I0719 18:12:25.397531  3401 net.cpp:91] Creating Layer conv1_92
I0719 18:12:25.397572  3401 net.cpp:425] conv1_92 <- p2_pool_i2_0_split_4
I0719 18:12:25.397599  3401 net.cpp:399] conv1_92 -> conv1_92
I0719 18:12:25.397691  3401 net.cpp:141] Setting up conv1_92
I0719 18:12:25.397716  3401 net.cpp:148] Top shape: 128 20 60 60 (9216000)
I0719 18:12:25.397752  3401 net.cpp:156] Memory required for data: 1591005696
I0719 18:12:25.397771  3401 net.cpp:484] Sharing parameters 'conv1_w' owned by layer 'conv1_11', param index 0
I0719 18:12:25.397790  3401 net.cpp:484] Sharing parameters 'conv1_b' owned by layer 'conv1_11', param index 1
I0719 18:12:25.397825  3401 layer_factory.hpp:77] Creating layer pool1_92
I0719 18:12:25.397917  3401 net.cpp:91] Creating Layer pool1_92
I0719 18:12:25.397938  3401 net.cpp:425] pool1_92 <- conv1_92
I0719 18:12:25.397963  3401 net.cpp:399] pool1_92 -> pool1_92
I0719 18:12:25.398017  3401 net.cpp:141] Setting up pool1_92
I0719 18:12:25.398051  3401 net.cpp:148] Top shape: 128 20 30 30 (2304000)
I0719 18:12:25.398084  3401 net.cpp:156] Memory required for data: 1600221696
I0719 18:12:25.398102  3401 layer_factory.hpp:77] Creating layer conv2_92
I0719 18:12:25.398126  3401 net.cpp:91] Creating Layer conv2_92
I0719 18:12:25.398161  3401 net.cpp:425] conv2_92 <- pool1_92
I0719 18:12:25.398188  3401 net.cpp:399] conv2_92 -> conv2_92
I0719 18:12:25.398511  3401 net.cpp:141] Setting up conv2_92
I0719 18:12:25.398596  3401 net.cpp:148] Top shape: 128 50 26 26 (4326400)
I0719 18:12:25.398617  3401 net.cpp:156] Memory required for data: 1617527296
I0719 18:12:25.398639  3401 net.cpp:484] Sharing parameters 'conv2_w' owned by layer 'conv2_11', param index 0
I0719 18:12:25.398684  3401 net.cpp:484] Sharing parameters 'conv2_b' owned by layer 'conv2_11', param index 1
I0719 18:12:25.398705  3401 layer_factory.hpp:77] Creating layer pool2_92
I0719 18:12:25.398746  3401 net.cpp:91] Creating Layer pool2_92
I0719 18:12:25.398768  3401 net.cpp:425] pool2_92 <- conv2_92
I0719 18:12:25.398809  3401 net.cpp:399] pool2_92 -> pool2_92
I0719 18:12:25.398845  3401 net.cpp:141] Setting up pool2_92
I0719 18:12:25.398874  3401 net.cpp:148] Top shape: 128 50 13 13 (1081600)
I0719 18:12:25.398916  3401 net.cpp:156] Memory required for data: 1621853696
I0719 18:12:25.398937  3401 layer_factory.hpp:77] Creating layer ip1_92
I0719 18:12:25.398984  3401 net.cpp:91] Creating Layer ip1_92
I0719 18:12:25.399008  3401 net.cpp:425] ip1_92 <- pool2_92
I0719 18:12:25.399066  3401 net.cpp:399] ip1_92 -> ip1_92
I0719 18:12:25.445521  3401 net.cpp:141] Setting up ip1_92
I0719 18:12:25.445711  3401 net.cpp:148] Top shape: 128 500 (64000)
I0719 18:12:25.445744  3401 net.cpp:156] Memory required for data: 1622109696
I0719 18:12:25.445775  3401 net.cpp:484] Sharing parameters 'ip1_w' owned by layer 'ip1_11', param index 0
I0719 18:12:25.445807  3401 net.cpp:484] Sharing parameters 'ip1_b' owned by layer 'ip1_11', param index 1
I0719 18:12:25.445832  3401 layer_factory.hpp:77] Creating layer relu1_92
I0719 18:12:25.445878  3401 net.cpp:91] Creating Layer relu1_92
I0719 18:12:25.446004  3401 net.cpp:425] relu1_92 <- ip1_92
I0719 18:12:25.446040  3401 net.cpp:386] relu1_92 -> ip1_92 (in-place)
I0719 18:12:25.446100  3401 net.cpp:141] Setting up relu1_92
I0719 18:12:25.446133  3401 net.cpp:148] Top shape: 128 500 (64000)
I0719 18:12:25.446180  3401 net.cpp:156] Memory required for data: 1622365696
I0719 18:12:25.446210  3401 layer_factory.hpp:77] Creating layer ip2_92
I0719 18:12:25.446249  3401 net.cpp:91] Creating Layer ip2_92
I0719 18:12:25.446300  3401 net.cpp:425] ip2_92 <- ip1_92
I0719 18:12:25.446336  3401 net.cpp:399] ip2_92 -> ip2_92
I0719 18:12:25.448540  3401 net.cpp:141] Setting up ip2_92
I0719 18:12:25.448644  3401 net.cpp:148] Top shape: 128 500 (64000)
I0719 18:12:25.448660  3401 net.cpp:156] Memory required for data: 1622621696
I0719 18:12:25.448679  3401 net.cpp:484] Sharing parameters 'ip2_w' owned by layer 'ip2_11', param index 0
I0719 18:12:25.448695  3401 net.cpp:484] Sharing parameters 'ip2_b' owned by layer 'ip2_11', param index 1
I0719 18:12:25.448710  3401 layer_factory.hpp:77] Creating layer concat_9
I0719 18:12:25.448730  3401 net.cpp:91] Creating Layer concat_9
I0719 18:12:25.448765  3401 net.cpp:425] concat_9 <- ip2_91
I0719 18:12:25.448786  3401 net.cpp:425] concat_9 <- ip2_92
I0719 18:12:25.448804  3401 net.cpp:399] concat_9 -> comb_9
I0719 18:12:25.448829  3401 net.cpp:141] Setting up concat_9
I0719 18:12:25.448845  3401 net.cpp:148] Top shape: 128 1000 (128000)
I0719 18:12:25.448858  3401 net.cpp:156] Memory required for data: 1623133696
I0719 18:12:25.448870  3401 layer_factory.hpp:77] Creating layer fc1_9
I0719 18:12:25.448889  3401 net.cpp:91] Creating Layer fc1_9
I0719 18:12:25.448920  3401 net.cpp:425] fc1_9 <- comb_9
I0719 18:12:25.448936  3401 net.cpp:399] fc1_9 -> fc1_9
I0719 18:12:25.453985  3401 net.cpp:141] Setting up fc1_9
I0719 18:12:25.454471  3401 net.cpp:148] Top shape: 128 512 (65536)
I0719 18:12:25.454538  3401 net.cpp:156] Memory required for data: 1623395840
I0719 18:12:25.454569  3401 net.cpp:484] Sharing parameters 'fc1_w' owned by layer 'fc1_1', param index 0
I0719 18:12:25.454588  3401 net.cpp:484] Sharing parameters 'fc1_b' owned by layer 'fc1_1', param index 1
I0719 18:12:25.454618  3401 layer_factory.hpp:77] Creating layer relu_fc1_9
I0719 18:12:25.454639  3401 net.cpp:91] Creating Layer relu_fc1_9
I0719 18:12:25.454670  3401 net.cpp:425] relu_fc1_9 <- fc1_9
I0719 18:12:25.454691  3401 net.cpp:386] relu_fc1_9 -> fc1_9 (in-place)
I0719 18:12:25.454713  3401 net.cpp:141] Setting up relu_fc1_9
I0719 18:12:25.454756  3401 net.cpp:148] Top shape: 128 512 (65536)
I0719 18:12:25.454768  3401 net.cpp:156] Memory required for data: 1623657984
I0719 18:12:25.454782  3401 layer_factory.hpp:77] Creating layer fc2_9
I0719 18:12:25.454799  3401 net.cpp:91] Creating Layer fc2_9
I0719 18:12:25.454814  3401 net.cpp:425] fc2_9 <- fc1_9
I0719 18:12:25.454833  3401 net.cpp:399] fc2_9 -> fc2_9
I0719 18:12:25.456737  3401 net.cpp:141] Setting up fc2_9
I0719 18:12:25.456797  3401 net.cpp:148] Top shape: 128 512 (65536)
I0719 18:12:25.456902  3401 net.cpp:156] Memory required for data: 1623920128
I0719 18:12:25.456928  3401 net.cpp:484] Sharing parameters 'fc2_w' owned by layer 'fc2_1', param index 0
I0719 18:12:25.456943  3401 net.cpp:484] Sharing parameters 'fc2_b' owned by layer 'fc2_1', param index 1
I0719 18:12:25.456956  3401 layer_factory.hpp:77] Creating layer relu_fc2_9
I0719 18:12:25.456974  3401 net.cpp:91] Creating Layer relu_fc2_9
I0719 18:12:25.456990  3401 net.cpp:425] relu_fc2_9 <- fc2_9
I0719 18:12:25.457005  3401 net.cpp:386] relu_fc2_9 -> fc2_9 (in-place)
I0719 18:12:25.457026  3401 net.cpp:141] Setting up relu_fc2_9
I0719 18:12:25.457041  3401 net.cpp:148] Top shape: 128 512 (65536)
I0719 18:12:25.457052  3401 net.cpp:156] Memory required for data: 1624182272
I0719 18:12:25.457064  3401 layer_factory.hpp:77] Creating layer fc3_9
I0719 18:12:25.457085  3401 net.cpp:91] Creating Layer fc3_9
I0719 18:12:25.457099  3401 net.cpp:425] fc3_9 <- fc2_9
I0719 18:12:25.457115  3401 net.cpp:399] fc3_9 -> fc3_9
I0719 18:12:25.457152  3401 net.cpp:141] Setting up fc3_9
I0719 18:12:25.457170  3401 net.cpp:148] Top shape: 128 2 (256)
I0719 18:12:25.457180  3401 net.cpp:156] Memory required for data: 1624183296
I0719 18:12:25.457193  3401 net.cpp:484] Sharing parameters 'fc3_w' owned by layer 'fc3_1', param index 0
I0719 18:12:25.457206  3401 net.cpp:484] Sharing parameters 'fc3_b' owned by layer 'fc3_1', param index 1
I0719 18:12:25.457219  3401 layer_factory.hpp:77] Creating layer concat
I0719 18:12:25.457238  3401 net.cpp:91] Creating Layer concat
I0719 18:12:25.457252  3401 net.cpp:425] concat <- fc3_1
I0719 18:12:25.457267  3401 net.cpp:425] concat <- fc3_2
I0719 18:12:25.457279  3401 net.cpp:425] concat <- fc3_3
I0719 18:12:25.457293  3401 net.cpp:425] concat <- fc3_4
I0719 18:12:25.457305  3401 net.cpp:425] concat <- fc3_5
I0719 18:12:25.457317  3401 net.cpp:425] concat <- fc3_6
I0719 18:12:25.457330  3401 net.cpp:425] concat <- fc3_7
I0719 18:12:25.457342  3401 net.cpp:425] concat <- fc3_8
I0719 18:12:25.457355  3401 net.cpp:425] concat <- fc3_9
I0719 18:12:25.457370  3401 net.cpp:399] concat -> comb
I0719 18:12:25.457387  3401 net.cpp:141] Setting up concat
I0719 18:12:25.457402  3401 net.cpp:148] Top shape: 128 18 (2304)
I0719 18:12:25.457413  3401 net.cpp:156] Memory required for data: 1624192512
I0719 18:12:25.457425  3401 layer_factory.hpp:77] Creating layer reshape
I0719 18:12:25.457442  3401 net.cpp:91] Creating Layer reshape
I0719 18:12:25.457454  3401 net.cpp:425] reshape <- comb
I0719 18:12:25.457680  3401 net.cpp:399] reshape -> comb_r
I0719 18:12:25.457710  3401 net.cpp:141] Setting up reshape
I0719 18:12:25.457726  3401 net.cpp:148] Top shape: 128 1 2 9 (2304)
I0719 18:12:25.457738  3401 net.cpp:156] Memory required for data: 1624201728
I0719 18:12:25.457751  3401 layer_factory.hpp:77] Creating layer pool_sim
I0719 18:12:25.457769  3401 net.cpp:91] Creating Layer pool_sim
I0719 18:12:25.457790  3401 net.cpp:425] pool_sim <- comb_r
I0719 18:12:25.457815  3401 net.cpp:399] pool_sim -> pool_r
I0719 18:12:25.457965  3401 net.cpp:141] Setting up pool_sim
I0719 18:12:25.457993  3401 net.cpp:148] Top shape: 128 1 2 1 (256)
I0719 18:12:25.458012  3401 net.cpp:156] Memory required for data: 1624202752
I0719 18:12:25.458034  3401 layer_factory.hpp:77] Creating layer reshape
I0719 18:12:25.458060  3401 net.cpp:91] Creating Layer reshape
I0719 18:12:25.458081  3401 net.cpp:425] reshape <- pool_r
I0719 18:12:25.458107  3401 net.cpp:399] reshape -> pool_sim
I0719 18:12:25.458139  3401 net.cpp:141] Setting up reshape
I0719 18:12:25.458166  3401 net.cpp:148] Top shape: 128 2 1 1 (256)
I0719 18:12:25.458189  3401 net.cpp:156] Memory required for data: 1624203776
I0719 18:12:25.458243  3401 layer_factory.hpp:77] Creating layer pool_sim_reshape_0_split
I0719 18:12:25.458262  3401 net.cpp:91] Creating Layer pool_sim_reshape_0_split
I0719 18:12:25.458276  3401 net.cpp:425] pool_sim_reshape_0_split <- pool_sim
I0719 18:12:25.458295  3401 net.cpp:399] pool_sim_reshape_0_split -> pool_sim_reshape_0_split_0
I0719 18:12:25.458313  3401 net.cpp:399] pool_sim_reshape_0_split -> pool_sim_reshape_0_split_1
I0719 18:12:25.458331  3401 net.cpp:141] Setting up pool_sim_reshape_0_split
I0719 18:12:25.458346  3401 net.cpp:148] Top shape: 128 2 1 1 (256)
I0719 18:12:25.458359  3401 net.cpp:148] Top shape: 128 2 1 1 (256)
I0719 18:12:25.458370  3401 net.cpp:156] Memory required for data: 1624205824
I0719 18:12:25.458382  3401 layer_factory.hpp:77] Creating layer loss
I0719 18:12:25.458397  3401 net.cpp:91] Creating Layer loss
I0719 18:12:25.458410  3401 net.cpp:425] loss <- pool_sim_reshape_0_split_0
I0719 18:12:25.458425  3401 net.cpp:425] loss <- label_pair_data_1_split_0
I0719 18:12:25.458439  3401 net.cpp:399] loss -> loss
…
I0719 18:12:25.484864  3401 net.cpp:313] The NetState phase (1) differed from the phase (0) specified by a rule in layer accuracy
I0719 18:12:25.486915  3401 net.cpp:49] Initializing net from parameters: 
name: "mnist_siamese_train_test_sim_multi"
state {
  phase: TEST
}
layer {
  name: "pair_data"
  type: "Data"
  top: "pair_data"
  top: "label"
  include {
    phase: TEST
  }
  transform_param {
    scale: 0.00390625
    mirror: false
    mean_file: "examples/scene/scene_mean.binaryproto"
  }
  data_param {
    source: "examples/scene/test_pairs.lmdb"
    batch_size: 100
    backend: LMDB
  }
}
layer {
  name: "slice_pair"
  type: "Slice"
  bottom: "pair_data"
  top: "i1"
  top: "i2"
  slice_param {
    slice_dim: 1
    slice_point: 3
  }
}
layer {
  name: "pool_i1"
  type: "Pooling"
  bottom: "i1"
  top: "p1"
  pooling_param {
    pool: AVE
    kernel_size: 2
    stride: 2
  }
}
layer {
  name: "pool_i2"
  type: "Pooling"
  bottom: "i2"
  top: "p2"
  pooling_param {
    pool: AVE
    kernel_size: 2
    stride: 2
  }
}
layer {
  name: "slice_h_i1"
  type: "Slice"
  bottom: "i1"
  top: "i1_h1"
  top: "i1_h2"
  slice_param {
    slice_dim: 2
    slice_point: 64
  }
}
layer {
  name: "slice_h_i2"
  type: "Slice"
  bottom: "i2"
  top: "i2_h1"
  top: "i2_h2"
  slice_param {
    slice_dim: 2
…
I0719 18:12:26.571631  3401 net.cpp:484] Sharing parameters 'conv1_w' owned by layer 'conv1_11', param index 0
I0719 18:12:26.571646  3401 net.cpp:484] Sharing parameters 'conv1_b' owned by layer 'conv1_11', param index 1
I0719 18:12:26.571660  3401 layer_factory.hpp:77] Creating layer pool1_61
I0719 18:12:26.571677  3401 net.cpp:91] Creating Layer pool1_61
I0719 18:12:26.571692  3401 net.cpp:425] pool1_61 <- conv1_61
I0719 18:12:26.571709  3401 net.cpp:399] pool1_61 -> pool1_61
I0719 18:12:26.571730  3401 net.cpp:141] Setting up pool1_61
I0719 18:12:26.571746  3401 net.cpp:148] Top shape: 100 20 30 30 (1800000)
I0719 18:12:26.571760  3401 net.cpp:156] Memory required for data: 872013200
I0719 18:12:26.571774  3401 layer_factory.hpp:77] Creating layer conv2_61
I0719 18:12:26.571792  3401 net.cpp:91] Creating Layer conv2_61
I0719 18:12:26.571807  3401 net.cpp:425] conv2_61 <- pool1_61
I0719 18:12:26.571825  3401 net.cpp:399] conv2_61 -> conv2_61
I0719 18:12:26.572027  3401 net.cpp:141] Setting up conv2_61
I0719 18:12:26.572047  3401 net.cpp:148] Top shape: 100 50 26 26 (3380000)
I0719 18:12:26.572060  3401 net.cpp:156] Memory required for data: 885533200
I0719 18:12:26.572087  3401 net.cpp:484] Sharing parameters 'conv2_w' owned by layer 'conv2_11', param index 0
I0719 18:12:26.572115  3401 net.cpp:484] Sharing parameters 'conv2_b' owned by layer 'conv2_11', param index 1
I0719 18:12:26.572130  3401 layer_factory.hpp:77] Creating layer pool2_61
I0719 18:12:26.572146  3401 net.cpp:91] Creating Layer pool2_61
I0719 18:12:26.572161  3401 net.cpp:425] pool2_61 <- conv2_61
I0719 18:12:26.572178  3401 net.cpp:399] pool2_61 -> pool2_61
I0719 18:12:26.572198  3401 net.cpp:141] Setting up pool2_61
I0719 18:12:26.572242  3401 net.cpp:148] Top shape: 100 50 13 13 (845000)
I0719 18:12:26.572263  3401 net.cpp:156] Memory required for data: 888913200
I0719 18:12:26.572276  3401 layer_factory.hpp:77] Creating layer ip1_61
I0719 18:12:26.572294  3401 net.cpp:91] Creating Layer ip1_61
I0719 18:12:26.572310  3401 net.cpp:425] ip1_61 <- pool2_61
I0719 18:12:26.572329  3401 net.cpp:399] ip1_61 -> ip1_61
I0719 18:12:26.629374  3401 net.cpp:141] Setting up ip1_61
I0719 18:12:26.629590  3401 net.cpp:148] Top shape: 100 500 (50000)
I0719 18:12:26.629722  3401 net.cpp:156] Memory required for data: 889113200
I0719 18:12:26.629771  3401 net.cpp:484] Sharing parameters 'ip1_w' owned by layer 'ip1_11', param index 0
I0719 18:12:26.629870  3401 net.cpp:484] Sharing parameters 'ip1_b' owned by layer 'ip1_11', param index 1
I0719 18:12:26.629910  3401 layer_factory.hpp:77] Creating layer relu1_61
I0719 18:12:26.629969  3401 net.cpp:91] Creating Layer relu1_61
I0719 18:12:26.630002  3401 net.cpp:425] relu1_61 <- ip1_61
I0719 18:12:26.630059  3401 net.cpp:386] relu1_61 -> ip1_61 (in-place)
I0719 18:12:26.630100  3401 net.cpp:141] Setting up relu1_61
I0719 18:12:26.630151  3401 net.cpp:148] Top shape: 100 500 (50000)
I0719 18:12:26.630179  3401 net.cpp:156] Memory required for data: 889313200
I0719 18:12:26.630205  3401 layer_factory.hpp:77] Creating layer ip2_61
I0719 18:12:26.630260  3401 net.cpp:91] Creating Layer ip2_61
I0719 18:12:26.630290  3401 net.cpp:425] ip2_61 <- ip1_61
I0719 18:12:26.630347  3401 net.cpp:399] ip2_61 -> ip2_61
I0719 18:12:26.641007  3401 net.cpp:141] Setting up ip2_61
I0719 18:12:26.641124  3401 net.cpp:148] Top shape: 100 500 (50000)
I0719 18:12:26.641141  3401 net.cpp:156] Memory required for data: 889513200
I0719 18:12:26.641162  3401 net.cpp:484] Sharing parameters 'ip2_w' owned by layer 'ip2_11', param index 0
I0719 18:12:26.641180  3401 net.cpp:484] Sharing parameters 'ip2_b' owned by layer 'ip2_11', param index 1
I0719 18:12:26.641194  3401 layer_factory.hpp:77] Creating layer conv1_62
I0719 18:12:26.641221  3401 net.cpp:91] Creating Layer conv1_62
I0719 18:12:26.641237  3401 net.cpp:425] conv1_62 <- p2_pool_i2_0_split_1
I0719 18:12:26.641258  3401 net.cpp:399] conv1_62 -> conv1_62
I0719 18:12:26.641314  3401 net.cpp:141] Setting up conv1_62
I0719 18:12:26.641332  3401 net.cpp:148] Top shape: 100 20 60 60 (7200000)
I0719 18:12:26.641345  3401 net.cpp:156] Memory required for data: 918313200
I0719 18:12:26.641358  3401 net.cpp:484] Sharing parameters 'conv1_w' owned by layer 'conv1_11', param index 0
I0719 18:12:26.641372  3401 net.cpp:484] Sharing parameters 'conv1_b' owned by layer 'conv1_11', param index 1
I0719 18:12:26.641386  3401 layer_factory.hpp:77] Creating layer pool1_62
I0719 18:12:26.641402  3401 net.cpp:91] Creating Layer pool1_62
I0719 18:12:26.641417  3401 net.cpp:425] pool1_62 <- conv1_62
I0719 18:12:26.641434  3401 net.cpp:399] pool1_62 -> pool1_62
I0719 18:12:26.641455  3401 net.cpp:141] Setting up pool1_62
I0719 18:12:26.641470  3401 net.cpp:148] Top shape: 100 20 30 30 (1800000)
I0719 18:12:26.641482  3401 net.cpp:156] Memory required for data: 925513200
I0719 18:12:26.641494  3401 layer_factory.hpp:77] Creating layer conv2_62
I0719 18:12:26.641512  3401 net.cpp:91] Creating Layer conv2_62
I0719 18:12:26.641527  3401 net.cpp:425] conv2_62 <- pool1_62
I0719 18:12:26.641544  3401 net.cpp:399] conv2_62 -> conv2_62
I0719 18:12:26.641836  3401 net.cpp:141] Setting up conv2_62
I0719 18:12:26.641880  3401 net.cpp:148] Top shape: 100 50 26 26 (3380000)
I0719 18:12:26.641907  3401 net.cpp:156] Memory required for data: 939033200
I0719 18:12:26.641934  3401 net.cpp:484] Sharing parameters 'conv2_w' owned by layer 'conv2_11', param index 0
I0719 18:12:26.641952  3401 net.cpp:484] Sharing parameters 'conv2_b' owned by layer 'conv2_11', param index 1
I0719 18:12:26.641964  3401 layer_factory.hpp:77] Creating layer pool2_62
I0719 18:12:26.641984  3401 net.cpp:91] Creating Layer pool2_62
I0719 18:12:26.642001  3401 net.cpp:425] pool2_62 <- conv2_62
I0719 18:12:26.642019  3401 net.cpp:399] pool2_62 -> pool2_62
I0719 18:12:26.642043  3401 net.cpp:141] Setting up pool2_62
I0719 18:12:26.642060  3401 net.cpp:148] Top shape: 100 50 13 13 (845000)
I0719 18:12:26.642072  3401 net.cpp:156] Memory required for data: 942413200
I0719 18:12:26.642084  3401 layer_factory.hpp:77] Creating layer ip1_62
I0719 18:12:26.642102  3401 net.cpp:91] Creating Layer ip1_62
I0719 18:12:26.642115  3401 net.cpp:425] ip1_62 <- pool2_62
I0719 18:12:26.642132  3401 net.cpp:399] ip1_62 -> ip1_62
I0719 18:12:26.723100  3401 net.cpp:141] Setting up ip1_62
I0719 18:12:26.723400  3401 net.cpp:148] Top shape: 100 500 (50000)
I0719 18:12:26.723482  3401 net.cpp:156] Memory required for data: 942613200
I0719 18:12:26.723587  3401 net.cpp:484] Sharing parameters 'ip1_w' owned by layer 'ip1_11', param index 0
I0719 18:12:26.723683  3401 net.cpp:484] Sharing parameters 'ip1_b' owned by layer 'ip1_11', param index 1
I0719 18:12:26.723762  3401 layer_factory.hpp:77] Creating layer relu1_62
I0719 18:12:26.723832  3401 net.cpp:91] Creating Layer relu1_62
I0719 18:12:26.723866  3401 net.cpp:425] relu1_62 <- ip1_62
I0719 18:12:26.723919  3401 net.cpp:386] relu1_62 -> ip1_62 (in-place)
I0719 18:12:26.723960  3401 net.cpp:141] Setting up relu1_62
I0719 18:12:26.724010  3401 net.cpp:148] Top shape: 100 500 (50000)
I0719 18:12:26.724037  3401 net.cpp:156] Memory required for data: 942813200
I0719 18:12:26.724082  3401 layer_factory.hpp:77] Creating layer ip2_62
I0719 18:12:26.724140  3401 net.cpp:91] Creating Layer ip2_62
I0719 18:12:26.724189  3401 net.cpp:425] ip2_62 <- ip1_62
I0719 18:12:26.724223  3401 net.cpp:399] ip2_62 -> ip2_62
I0719 18:12:26.726845  3401 net.cpp:141] Setting up ip2_62
I0719 18:12:26.727017  3401 net.cpp:148] Top shape: 100 500 (50000)
I0719 18:12:26.727040  3401 net.cpp:156] Memory required for data: 943013200
I0719 18:12:26.727128  3401 net.cpp:484] Sharing parameters 'ip2_w' owned by layer 'ip2_11', param index 0
I0719 18:12:26.727151  3401 net.cpp:484] Sharing parameters 'ip2_b' owned by layer 'ip2_11', param index 1
I0719 18:12:26.727169  3401 layer_factory.hpp:77] Creating layer concat_6
I0719 18:12:26.727192  3401 net.cpp:91] Creating Layer concat_6
I0719 18:12:26.727212  3401 net.cpp:425] concat_6 <- ip2_61
I0719 18:12:26.727231  3401 net.cpp:425] concat_6 <- ip2_62
I0719 18:12:26.727249  3401 net.cpp:399] concat_6 -> comb_6
I0719 18:12:26.727277  3401 net.cpp:141] Setting up concat_6
I0719 18:12:26.727294  3401 net.cpp:148] Top shape: 100 1000 (100000)
I0719 18:12:26.727308  3401 net.cpp:156] Memory required for data: 943413200
I0719 18:12:26.727322  3401 layer_factory.hpp:77] Creating layer fc1_6
I0719 18:12:26.727342  3401 net.cpp:91] Creating Layer fc1_6
I0719 18:12:26.727358  3401 net.cpp:425] fc1_6 <- comb_6
I0719 18:12:26.727376  3401 net.cpp:399] fc1_6 -> fc1_6
I0719 18:12:26.733548  3401 net.cpp:141] Setting up fc1_6
I0719 18:12:26.733672  3401 net.cpp:148] Top shape: 100 512 (51200)
I0719 18:12:26.733688  3401 net.cpp:156] Memory required for data: 943618000
I0719 18:12:26.733706  3401 net.cpp:484] Sharing parameters 'fc1_w' owned by layer 'fc1_1', param index 0
I0719 18:12:26.733722  3401 net.cpp:484] Sharing parameters 'fc1_b' owned by layer 'fc1_1', param index 1
I0719 18:12:26.733737  3401 layer_factory.hpp:77] Creating layer relu_fc1_6
I0719 18:12:26.733757  3401 net.cpp:91] Creating Layer relu_fc1_6
I0719 18:12:26.733774  3401 net.cpp:425] relu_fc1_6 <- fc1_6
I0719 18:12:26.733790  3401 net.cpp:386] relu_fc1_6 -> fc1_6 (in-place)
I0719 18:12:26.733811  3401 net.cpp:141] Setting up relu_fc1_6
I0719 18:12:26.733837  3401 net.cpp:148] Top shape: 100 512 (51200)
I0719 18:12:26.733860  3401 net.cpp:156] Memory required for data: 943822800
I0719 18:12:26.733872  3401 layer_factory.hpp:77] Creating layer fc2_6
I0719 18:12:26.733891  3401 net.cpp:91] Creating Layer fc2_6
I0719 18:12:26.733903  3401 net.cpp:425] fc2_6 <- fc1_6
I0719 18:12:26.733921  3401 net.cpp:399] fc2_6 -> fc2_6
I0719 18:12:26.738754  3401 net.cpp:141] Setting up fc2_6
I0719 18:12:26.738903  3401 net.cpp:148] Top shape: 100 512 (51200)
I0719 18:12:26.738930  3401 net.cpp:156] Memory required for data: 944027600
I0719 18:12:26.739049  3401 net.cpp:484] Sharing parameters 'fc2_w' owned by layer 'fc2_1', param index 0
I0719 18:12:26.739083  3401 net.cpp:484] Sharing parameters 'fc2_b' owned by layer 'fc2_1', param index 1
I0719 18:12:26.739109  3401 layer_factory.hpp:77] Creating layer relu_fc2_6
I0719 18:12:26.739140  3401 net.cpp:91] Creating Layer relu_fc2_6
I0719 18:12:26.739166  3401 net.cpp:425] relu_fc2_6 <- fc2_6
I0719 18:12:26.739193  3401 net.cpp:386] relu_fc2_6 -> fc2_6 (in-place)
I0719 18:12:26.739225  3401 net.cpp:141] Setting up relu_fc2_6
I0719 18:12:26.739251  3401 net.cpp:148] Top shape: 100 512 (51200)
I0719 18:12:26.739274  3401 net.cpp:156] Memory required for data: 944232400
I0719 18:12:26.739295  3401 layer_factory.hpp:77] Creating layer fc3_6
I0719 18:12:26.739326  3401 net.cpp:91] Creating Layer fc3_6
I0719 18:12:26.739351  3401 net.cpp:425] fc3_6 <- fc2_6
I0719 18:12:26.739379  3401 net.cpp:399] fc3_6 -> fc3_6
I0719 18:12:26.739433  3401 net.cpp:141] Setting up fc3_6
I0719 18:12:26.739707  3401 net.cpp:148] Top shape: 100 2 (200)
I0719 18:12:26.739734  3401 net.cpp:156] Memory required for data: 944233200
I0719 18:12:26.739760  3401 net.cpp:484] Sharing parameters 'fc3_w' owned by layer 'fc3_1', param index 0
I0719 18:12:26.739786  3401 net.cpp:484] Sharing parameters 'fc3_b' owned by layer 'fc3_1', param index 1
I0719 18:12:26.739835  3401 layer_factory.hpp:77] Creating layer conv1_71
I0719 18:12:26.739877  3401 net.cpp:91] Creating Layer conv1_71
I0719 18:12:26.739904  3401 net.cpp:425] conv1_71 <- s12
I0719 18:12:26.739936  3401 net.cpp:399] conv1_71 -> conv1_71
I0719 18:12:26.740006  3401 net.cpp:141] Setting up conv1_71
I0719 18:12:26.740038  3401 net.cpp:148] Top shape: 100 20 60 60 (7200000)
I0719 18:12:26.740061  3401 net.cpp:156] Memory required for data: 973033200
I0719 18:12:26.740082  3401 net.cpp:484] Sharing parameters 'conv1_w' owned by layer 'conv1_11', param index 0
I0719 18:12:26.740105  3401 net.cpp:484] Sharing parameters 'conv1_b' owned by layer 'conv1_11', param index 1
I0719 18:12:26.740128  3401 layer_factory.hpp:77] Creating layer pool1_71
I0719 18:12:26.740154  3401 net.cpp:91] Creating Layer pool1_71
I0719 18:12:26.740177  3401 net.cpp:425] pool1_71 <- conv1_71
I0719 18:12:26.740247  3401 net.cpp:399] pool1_71 -> pool1_71
I0719 18:12:26.740290  3401 net.cpp:141] Setting up pool1_71
I0719 18:12:26.740345  3401 net.cpp:148] Top shape: 100 20 30 30 (1800000)
I0719 18:12:26.740373  3401 net.cpp:156] Memory required for data: 980233200
I0719 18:12:26.740397  3401 layer_factory.hpp:77] Creating layer conv2_71
I0719 18:12:26.740453  3401 net.cpp:91] Creating Layer conv2_71
I0719 18:12:26.740483  3401 net.cpp:425] conv2_71 <- pool1_71
I0719 18:12:26.740592  3401 net.cpp:399] conv2_71 -> conv2_71
I0719 18:12:26.740897  3401 net.cpp:141] Setting up conv2_71
I0719 18:12:26.740959  3401 net.cpp:148] Top shape: 100 50 26 26 (3380000)
I0719 18:12:26.740988  3401 net.cpp:156] Memory required for data: 993753200
I0719 18:12:26.741014  3401 net.cpp:484] Sharing parameters 'conv2_w' owned by layer 'conv2_11', param index 0
I0719 18:12:26.741065  3401 net.cpp:484] Sharing parameters 'conv2_b' owned by layer 'conv2_11', param index 1
I0719 18:12:26.741096  3401 layer_factory.hpp:77] Creating layer pool2_71
I0719 18:12:26.741148  3401 net.cpp:91] Creating Layer pool2_71
I0719 18:12:26.741179  3401 net.cpp:425] pool2_71 <- conv2_71
I0719 18:12:26.741232  3401 net.cpp:399] pool2_71 -> pool2_71
I0719 18:12:26.741284  3401 net.cpp:141] Setting up pool2_71
I0719 18:12:26.741384  3401 net.cpp:148] Top shape: 100 50 13 13 (845000)
I0719 18:12:26.741417  3401 net.cpp:156] Memory required for data: 997133200
I0719 18:12:26.741466  3401 layer_factory.hpp:77] Creating layer ip1_71
I0719 18:12:26.741499  3401 net.cpp:91] Creating Layer ip1_71
I0719 18:12:26.741528  3401 net.cpp:425] ip1_71 <- pool2_71
I0719 18:12:26.741581  3401 net.cpp:399] ip1_71 -> ip1_71
I0719 18:12:26.800277  3401 net.cpp:141] Setting up ip1_71
I0719 18:12:26.800570  3401 net.cpp:148] Top shape: 100 500 (50000)
I0719 18:12:26.800621  3401 net.cpp:156] Memory required for data: 997333200
I0719 18:12:26.800654  3401 net.cpp:484] Sharing parameters 'ip1_w' owned by layer 'ip1_11', param index 0
I0719 18:12:26.800704  3401 net.cpp:484] Sharing parameters 'ip1_b' owned by layer 'ip1_11', param index 1
I0719 18:12:26.800730  3401 layer_factory.hpp:77] Creating layer relu1_71
I0719 18:12:26.800781  3401 net.cpp:91] Creating Layer relu1_71
I0719 18:12:26.800827  3401 net.cpp:425] relu1_71 <- ip1_71
I0719 18:12:26.800855  3401 net.cpp:386] relu1_71 -> ip1_71 (in-place)
I0719 18:12:26.800907  3401 net.cpp:141] Setting up relu1_71
I0719 18:12:26.800988  3401 net.cpp:148] Top shape: 100 500 (50000)
I0719 18:12:26.801033  3401 net.cpp:156] Memory required for data: 997533200
I0719 18:12:26.801055  3401 layer_factory.hpp:77] Creating layer ip2_71
I0719 18:12:26.801113  3401 net.cpp:91] Creating Layer ip2_71
I0719 18:12:26.801159  3401 net.cpp:425] ip2_71 <- ip1_71
I0719 18:12:26.801189  3401 net.cpp:399] ip2_71 -> ip2_71
I0719 18:12:26.804003  3401 net.cpp:141] Setting up ip2_71
I0719 18:12:26.804170  3401 net.cpp:148] Top shape: 100 500 (50000)
I0719 18:12:26.804198  3401 net.cpp:156] Memory required for data: 997733200
I0719 18:12:26.804234  3401 net.cpp:484] Sharing parameters 'ip2_w' owned by layer 'ip2_11', param index 0
I0719 18:12:26.804263  3401 net.cpp:484] Sharing parameters 'ip2_b' owned by layer 'ip2_11', param index 1
I0719 18:12:26.804288  3401 layer_factory.hpp:77] Creating layer conv1_72
I0719 18:12:26.804339  3401 net.cpp:91] Creating Layer conv1_72
I0719 18:12:26.804391  3401 net.cpp:425] conv1_72 <- p2_pool_i2_0_split_2
I0719 18:12:26.804440  3401 net.cpp:399] conv1_72 -> conv1_72
I0719 18:12:26.804561  3401 net.cpp:141] Setting up conv1_72
I0719 18:12:26.804622  3401 net.cpp:148] Top shape: 100 20 60 60 (7200000)
I0719 18:12:26.804649  3401 net.cpp:156] Memory required for data: 1026533200
I0719 18:12:26.804675  3401 net.cpp:484] Sharing parameters 'conv1_w' owned by layer 'conv1_11', param index 0
I0719 18:12:26.804726  3401 net.cpp:484] Sharing parameters 'conv1_b' owned by layer 'conv1_11', param index 1
I0719 18:12:26.804756  3401 layer_factory.hpp:77] Creating layer pool1_72
I0719 18:12:26.804817  3401 net.cpp:91] Creating Layer pool1_72
I0719 18:12:26.804849  3401 net.cpp:425] pool1_72 <- conv1_72
I0719 18:12:26.804905  3401 net.cpp:399] pool1_72 -> pool1_72
I0719 18:12:26.804950  3401 net.cpp:141] Setting up pool1_72
I0719 18:12:26.805003  3401 net.cpp:148] Top shape: 100 20 30 30 (1800000)
I0719 18:12:26.805070  3401 net.cpp:156] Memory required for data: 1033733200
I0719 18:12:26.805126  3401 layer_factory.hpp:77] Creating layer conv2_72
I0719 18:12:26.805176  3401 net.cpp:91] Creating Layer conv2_72
I0719 18:12:26.805225  3401 net.cpp:425] conv2_72 <- pool1_72
I0719 18:12:26.805313  3401 net.cpp:399] conv2_72 -> conv2_72
I0719 18:12:26.805676  3401 net.cpp:141] Setting up conv2_72
I0719 18:12:26.805753  3401 net.cpp:148] Top shape: 100 50 26 26 (3380000)
I0719 18:12:26.805780  3401 net.cpp:156] Memory required for data: 1047253200
I0719 18:12:26.805812  3401 net.cpp:484] Sharing parameters 'conv2_w' owned by layer 'conv2_11', param index 0
I0719 18:12:26.805907  3401 net.cpp:484] Sharing parameters 'conv2_b' owned by layer 'conv2_11', param index 1
I0719 18:12:26.805946  3401 layer_factory.hpp:77] Creating layer pool2_72
I0719 18:12:26.806004  3401 net.cpp:91] Creating Layer pool2_72
I0719 18:12:26.806035  3401 net.cpp:425] pool2_72 <- conv2_72
I0719 18:12:26.806087  3401 net.cpp:399] pool2_72 -> pool2_72
I0719 18:12:26.806165  3401 net.cpp:141] Setting up pool2_72
I0719 18:12:26.806200  3401 net.cpp:148] Top shape: 100 50 13 13 (845000)
I0719 18:12:26.806226  3401 net.cpp:156] Memory required for data: 1050633200
I0719 18:12:26.806251  3401 layer_factory.hpp:77] Creating layer ip1_72
I0719 18:12:26.806279  3401 net.cpp:91] Creating Layer ip1_72
I0719 18:12:26.806330  3401 net.cpp:425] ip1_72 <- pool2_72
I0719 18:12:26.806366  3401 net.cpp:399] ip1_72 -> ip1_72
I0719 18:12:26.876639  3401 net.cpp:141] Setting up ip1_72
I0719 18:12:26.876760  3401 net.cpp:148] Top shape: 100 500 (50000)
I0719 18:12:26.876778  3401 net.cpp:156] Memory required for data: 1050833200
I0719 18:12:26.876798  3401 net.cpp:484] Sharing parameters 'ip1_w' owned by layer 'ip1_11', param index 0
I0719 18:12:26.876814  3401 net.cpp:484] Sharing parameters 'ip1_b' owned by layer 'ip1_11', param index 1
I0719 18:12:26.876828  3401 layer_factory.hpp:77] Creating layer relu1_72
I0719 18:12:26.876848  3401 net.cpp:91] Creating Layer relu1_72
I0719 18:12:26.876868  3401 net.cpp:425] relu1_72 <- ip1_72
I0719 18:12:26.876885  3401 net.cpp:386] relu1_72 -> ip1_72 (in-place)
I0719 18:12:26.876922  3401 net.cpp:141] Setting up relu1_72
I0719 18:12:26.876938  3401 net.cpp:148] Top shape: 100 500 (50000)
I0719 18:12:26.876952  3401 net.cpp:156] Memory required for data: 1051033200
I0719 18:12:26.876977  3401 layer_factory.hpp:77] Creating layer ip2_72
I0719 18:12:26.876996  3401 net.cpp:91] Creating Layer ip2_72
I0719 18:12:26.877010  3401 net.cpp:425] ip2_72 <- ip1_72
I0719 18:12:26.877027  3401 net.cpp:399] ip2_72 -> ip2_72
I0719 18:12:26.881700  3401 net.cpp:141] Setting up ip2_72
I0719 18:12:26.881932  3401 net.cpp:148] Top shape: 100 500 (50000)
I0719 18:12:26.881978  3401 net.cpp:156] Memory required for data: 1051233200
I0719 18:12:26.882025  3401 net.cpp:484] Sharing parameters 'ip2_w' owned by layer 'ip2_11', param index 0
I0719 18:12:26.882061  3401 net.cpp:484] Sharing parameters 'ip2_b' owned by layer 'ip2_11', param index 1
I0719 18:12:26.882088  3401 layer_factory.hpp:77] Creating layer concat_7
I0719 18:12:26.882122  3401 net.cpp:91] Creating Layer concat_7
I0719 18:12:26.882154  3401 net.cpp:425] concat_7 <- ip2_71
I0719 18:12:26.882184  3401 net.cpp:425] concat_7 <- ip2_72
I0719 18:12:26.882242  3401 net.cpp:399] concat_7 -> comb_7
I0719 18:12:26.882284  3401 net.cpp:141] Setting up concat_7
I0719 18:12:26.882342  3401 net.cpp:148] Top shape: 100 1000 (100000)
I0719 18:12:26.882369  3401 net.cpp:156] Memory required for data: 1051633200
I0719 18:12:26.882392  3401 layer_factory.hpp:77] Creating layer fc1_7
I0719 18:12:26.882431  3401 net.cpp:91] Creating Layer fc1_7
I0719 18:12:26.882460  3401 net.cpp:425] fc1_7 <- comb_7
I0719 18:12:26.882494  3401 net.cpp:399] fc1_7 -> fc1_7
I0719 18:12:26.888619  3401 net.cpp:141] Setting up fc1_7
I0719 18:12:26.888799  3401 net.cpp:148] Top shape: 100 512 (51200)
I0719 18:12:26.888828  3401 net.cpp:156] Memory required for data: 1051838000
I0719 18:12:26.888857  3401 net.cpp:484] Sharing parameters 'fc1_w' owned by layer 'fc1_1', param index 0
I0719 18:12:26.888885  3401 net.cpp:484] Sharing parameters 'fc1_b' owned by layer 'fc1_1', param index 1
I0719 18:12:26.888908  3401 layer_factory.hpp:77] Creating layer relu_fc1_7
I0719 18:12:26.888939  3401 net.cpp:91] Creating Layer relu_fc1_7
I0719 18:12:26.888967  3401 net.cpp:425] relu_fc1_7 <- fc1_7
I0719 18:12:26.889001  3401 net.cpp:386] relu_fc1_7 -> fc1_7 (in-place)
I0719 18:12:26.889032  3401 net.cpp:141] Setting up relu_fc1_7
I0719 18:12:26.889057  3401 net.cpp:148] Top shape: 100 512 (51200)
I0719 18:12:26.889080  3401 net.cpp:156] Memory required for data: 1052042800
I0719 18:12:26.889101  3401 layer_factory.hpp:77] Creating layer fc2_7
I0719 18:12:26.889133  3401 net.cpp:91] Creating Layer fc2_7
I0719 18:12:26.889158  3401 net.cpp:425] fc2_7 <- fc1_7
I0719 18:12:26.889189  3401 net.cpp:399] fc2_7 -> fc2_7
I0719 18:12:26.891820  3401 net.cpp:141] Setting up fc2_7
I0719 18:12:26.892014  3401 net.cpp:148] Top shape: 100 512 (51200)
I0719 18:12:26.892077  3401 net.cpp:156] Memory required for data: 1052247600
I0719 18:12:26.892109  3401 net.cpp:484] Sharing parameters 'fc2_w' owned by layer 'fc2_1', param index 0
I0719 18:12:26.892143  3401 net.cpp:484] Sharing parameters 'fc2_b' owned by layer 'fc2_1', param index 1
I0719 18:12:26.892168  3401 layer_factory.hpp:77] Creating layer relu_fc2_7
I0719 18:12:26.892204  3401 net.cpp:91] Creating Layer relu_fc2_7
I0719 18:12:26.892262  3401 net.cpp:425] relu_fc2_7 <- fc2_7
I0719 18:12:26.892294  3401 net.cpp:386] relu_fc2_7 -> fc2_7 (in-place)
I0719 18:12:26.892328  3401 net.cpp:141] Setting up relu_fc2_7
I0719 18:12:26.892352  3401 net.cpp:148] Top shape: 100 512 (51200)
I0719 18:12:26.892372  3401 net.cpp:156] Memory required for data: 1052452400
I0719 18:12:26.892395  3401 layer_factory.hpp:77] Creating layer fc3_7
I0719 18:12:26.892426  3401 net.cpp:91] Creating Layer fc3_7
I0719 18:12:26.892447  3401 net.cpp:425] fc3_7 <- fc2_7
I0719 18:12:26.892479  3401 net.cpp:399] fc3_7 -> fc3_7
I0719 18:12:26.892549  3401 net.cpp:141] Setting up fc3_7
I0719 18:12:26.892585  3401 net.cpp:148] Top shape: 100 2 (200)
I0719 18:12:26.892604  3401 net.cpp:156] Memory required for data: 1052453200
I0719 18:12:26.892624  3401 net.cpp:484] Sharing parameters 'fc3_w' owned by layer 'fc3_1', param index 0
I0719 18:12:26.892647  3401 net.cpp:484] Sharing parameters 'fc3_b' owned by layer 'fc3_1', param index 1
I0719 18:12:26.892668  3401 layer_factory.hpp:77] Creating layer conv1_81
I0719 18:12:26.892699  3401 net.cpp:91] Creating Layer conv1_81
I0719 18:12:26.892722  3401 net.cpp:425] conv1_81 <- s13
I0719 18:12:26.892752  3401 net.cpp:399] conv1_81 -> conv1_81
I0719 18:12:26.892838  3401 net.cpp:141] Setting up conv1_81
I0719 18:12:26.892874  3401 net.cpp:148] Top shape: 100 20 60 60 (7200000)
I0719 18:12:26.892979  3401 net.cpp:156] Memory required for data: 1081253200
I0719 18:12:26.893023  3401 net.cpp:484] Sharing parameters 'conv1_w' owned by layer 'conv1_11', param index 0
I0719 18:12:26.893054  3401 net.cpp:484] Sharing parameters 'conv1_b' owned by layer 'conv1_11', param index 1
I0719 18:12:26.893090  3401 layer_factory.hpp:77] Creating layer pool1_81
I0719 18:12:26.893126  3401 net.cpp:91] Creating Layer pool1_81
I0719 18:12:26.893157  3401 net.cpp:425] pool1_81 <- conv1_81
I0719 18:12:26.893198  3401 net.cpp:399] pool1_81 -> pool1_81
I0719 18:12:26.893297  3401 net.cpp:141] Setting up pool1_81
I0719 18:12:26.893440  3401 net.cpp:148] Top shape: 100 20 30 30 (1800000)
I0719 18:12:26.893584  3401 net.cpp:156] Memory required for data: 1088453200
I0719 18:12:26.893724  3401 layer_factory.hpp:77] Creating layer conv2_81
I0719 18:12:26.894019  3401 net.cpp:91] Creating Layer conv2_81
I0719 18:12:26.894556  3401 net.cpp:425] conv2_81 <- pool1_81
I0719 18:12:26.894714  3401 net.cpp:399] conv2_81 -> conv2_81
I0719 18:12:26.895437  3401 net.cpp:141] Setting up conv2_81
I0719 18:12:26.896306  3401 net.cpp:148] Top shape: 100 50 26 26 (3380000)
I0719 18:12:26.896407  3401 net.cpp:156] Memory required for data: 1101973200
I0719 18:12:26.896464  3401 net.cpp:484] Sharing parameters 'conv2_w' owned by layer 'conv2_11', param index 0
I0719 18:12:26.896673  3401 net.cpp:484] Sharing parameters 'conv2_b' owned by layer 'conv2_11', param index 1
I0719 18:12:26.896759  3401 layer_factory.hpp:77] Creating layer pool2_81
I0719 18:12:26.897039  3401 net.cpp:91] Creating Layer pool2_81
I0719 18:12:26.897691  3401 net.cpp:425] pool2_81 <- conv2_81
I0719 18:12:26.898150  3401 net.cpp:399] pool2_81 -> pool2_81
I0719 18:12:26.898514  3401 net.cpp:141] Setting up pool2_81
I0719 18:12:26.898633  3401 net.cpp:148] Top shape: 100 50 13 13 (845000)
I0719 18:12:26.898788  3401 net.cpp:156] Memory required for data: 1105353200
I0719 18:12:26.899055  3401 layer_factory.hpp:77] Creating layer ip1_81
I0719 18:12:26.899142  3401 net.cpp:91] Creating Layer ip1_81
I0719 18:12:26.899183  3401 net.cpp:425] ip1_81 <- pool2_81
I0719 18:12:26.899332  3401 net.cpp:399] ip1_81 -> ip1_81
I0719 18:12:26.963848  3401 net.cpp:141] Setting up ip1_81
I0719 18:12:26.964040  3401 net.cpp:148] Top shape: 100 500 (50000)
I0719 18:12:26.964067  3401 net.cpp:156] Memory required for data: 1105553200
I0719 18:12:26.964087  3401 net.cpp:484] Sharing parameters 'ip1_w' owned by layer 'ip1_11', param index 0
I0719 18:12:26.964103  3401 net.cpp:484] Sharing parameters 'ip1_b' owned by layer 'ip1_11', param index 1
I0719 18:12:26.964118  3401 layer_factory.hpp:77] Creating layer relu1_81
I0719 18:12:26.964138  3401 net.cpp:91] Creating Layer relu1_81
I0719 18:12:26.964154  3401 net.cpp:425] relu1_81 <- ip1_81
I0719 18:12:26.964169  3401 net.cpp:386] relu1_81 -> ip1_81 (in-place)
I0719 18:12:26.964190  3401 net.cpp:141] Setting up relu1_81
I0719 18:12:26.964205  3401 net.cpp:148] Top shape: 100 500 (50000)
I0719 18:12:26.964217  3401 net.cpp:156] Memory required for data: 1105753200
I0719 18:12:26.964229  3401 layer_factory.hpp:77] Creating layer ip2_81
I0719 18:12:26.964251  3401 net.cpp:91] Creating Layer ip2_81
I0719 18:12:26.964265  3401 net.cpp:425] ip2_81 <- ip1_81
I0719 18:12:26.964282  3401 net.cpp:399] ip2_81 -> ip2_81
I0719 18:12:26.973577  3401 net.cpp:141] Setting up ip2_81
I0719 18:12:26.973857  3401 net.cpp:148] Top shape: 100 500 (50000)
I0719 18:12:26.973892  3401 net.cpp:156] Memory required for data: 1105953200
I0719 18:12:26.973924  3401 net.cpp:484] Sharing parameters 'ip2_w' owned by layer 'ip2_11', param index 0
I0719 18:12:26.973953  3401 net.cpp:484] Sharing parameters 'ip2_b' owned by layer 'ip2_11', param index 1
I0719 18:12:26.973978  3401 layer_factory.hpp:77] Creating layer conv1_82
I0719 18:12:26.974022  3401 net.cpp:91] Creating Layer conv1_82
I0719 18:12:26.974050  3401 net.cpp:425] conv1_82 <- p2_pool_i2_0_split_3
I0719 18:12:26.974086  3401 net.cpp:399] conv1_82 -> conv1_82
I0719 18:12:26.974179  3401 net.cpp:141] Setting up conv1_82
I0719 18:12:26.974213  3401 net.cpp:148] Top shape: 100 20 60 60 (7200000)
I0719 18:12:26.974233  3401 net.cpp:156] Memory required for data: 1134753200
I0719 18:12:26.974256  3401 net.cpp:484] Sharing parameters 'conv1_w' owned by layer 'conv1_11', param index 0
I0719 18:12:26.974277  3401 net.cpp:484] Sharing parameters 'conv1_b' owned by layer 'conv1_11', param index 1
I0719 18:12:26.974299  3401 layer_factory.hpp:77] Creating layer pool1_82
I0719 18:12:26.974328  3401 net.cpp:91] Creating Layer pool1_82
I0719 18:12:26.974351  3401 net.cpp:425] pool1_82 <- conv1_82
I0719 18:12:26.974377  3401 net.cpp:399] pool1_82 -> pool1_82
I0719 18:12:26.974411  3401 net.cpp:141] Setting up pool1_82
I0719 18:12:26.974438  3401 net.cpp:148] Top shape: 100 20 30 30 (1800000)
I0719 18:12:26.974459  3401 net.cpp:156] Memory required for data: 1141953200
I0719 18:12:26.974480  3401 layer_factory.hpp:77] Creating layer conv2_82
I0719 18:12:26.974514  3401 net.cpp:91] Creating Layer conv2_82
I0719 18:12:26.974539  3401 net.cpp:425] conv2_82 <- pool1_82
I0719 18:12:26.974567  3401 net.cpp:399] conv2_82 -> conv2_82
I0719 18:12:26.974866  3401 net.cpp:141] Setting up conv2_82
I0719 18:12:26.974913  3401 net.cpp:148] Top shape: 100 50 26 26 (3380000)
I0719 18:12:26.974936  3401 net.cpp:156] Memory required for data: 1155473200
I0719 18:12:26.974959  3401 net.cpp:484] Sharing parameters 'conv2_w' owned by layer 'conv2_11', param index 0
I0719 18:12:26.974983  3401 net.cpp:484] Sharing parameters 'conv2_b' owned by layer 'conv2_11', param index 1
I0719 18:12:26.975006  3401 layer_factory.hpp:77] Creating layer pool2_82
I0719 18:12:26.975036  3401 net.cpp:91] Creating Layer pool2_82
I0719 18:12:26.975061  3401 net.cpp:425] pool2_82 <- conv2_82
I0719 18:12:26.975088  3401 net.cpp:399] pool2_82 -> pool2_82
I0719 18:12:26.975121  3401 net.cpp:141] Setting up pool2_82
I0719 18:12:26.975147  3401 net.cpp:148] Top shape: 100 50 13 13 (845000)
I0719 18:12:26.975167  3401 net.cpp:156] Memory required for data: 1158853200
I0719 18:12:26.975188  3401 layer_factory.hpp:77] Creating layer ip1_82
I0719 18:12:26.975224  3401 net.cpp:91] Creating Layer ip1_82
I0719 18:12:26.975247  3401 net.cpp:425] ip1_82 <- pool2_82
I0719 18:12:26.975289  3401 net.cpp:399] ip1_82 -> ip1_82
I0719 18:12:27.032202  3401 net.cpp:141] Setting up ip1_82
I0719 18:12:27.032429  3401 net.cpp:148] Top shape: 100 500 (50000)
I0719 18:12:27.032471  3401 net.cpp:156] Memory required for data: 1159053200
I0719 18:12:27.032518  3401 net.cpp:484] Sharing parameters 'ip1_w' owned by layer 'ip1_11', param index 0
I0719 18:12:27.032588  3401 net.cpp:484] Sharing parameters 'ip1_b' owned by layer 'ip1_11', param index 1
I0719 18:12:27.032650  3401 layer_factory.hpp:77] Creating layer relu1_82
I0719 18:12:27.032721  3401 net.cpp:91] Creating Layer relu1_82
I0719 18:12:27.032785  3401 net.cpp:425] relu1_82 <- ip1_82
I0719 18:12:27.032861  3401 net.cpp:386] relu1_82 -> ip1_82 (in-place)
I0719 18:12:27.032938  3401 net.cpp:141] Setting up relu1_82
I0719 18:12:27.033002  3401 net.cpp:148] Top shape: 100 500 (50000)
I0719 18:12:27.033058  3401 net.cpp:156] Memory required for data: 1159253200
I0719 18:12:27.033116  3401 layer_factory.hpp:77] Creating layer ip2_82
I0719 18:12:27.033176  3401 net.cpp:91] Creating Layer ip2_82
I0719 18:12:27.033273  3401 net.cpp:425] ip2_82 <- ip1_82
I0719 18:12:27.033344  3401 net.cpp:399] ip2_82 -> ip2_82
I0719 18:12:27.035985  3401 net.cpp:141] Setting up ip2_82
I0719 18:12:27.036166  3401 net.cpp:148] Top shape: 100 500 (50000)
I0719 18:12:27.036192  3401 net.cpp:156] Memory required for data: 1159453200
I0719 18:12:27.036224  3401 net.cpp:484] Sharing parameters 'ip2_w' owned by layer 'ip2_11', param index 0
I0719 18:12:27.036252  3401 net.cpp:484] Sharing parameters 'ip2_b' owned by layer 'ip2_11', param index 1
I0719 18:12:27.036276  3401 layer_factory.hpp:77] Creating layer concat_8
I0719 18:12:27.036309  3401 net.cpp:91] Creating Layer concat_8
I0719 18:12:27.036337  3401 net.cpp:425] concat_8 <- ip2_81
I0719 18:12:27.036365  3401 net.cpp:425] concat_8 <- ip2_82
I0719 18:12:27.036404  3401 net.cpp:399] concat_8 -> comb_8
I0719 18:12:27.036448  3401 net.cpp:141] Setting up concat_8
I0719 18:12:27.036479  3401 net.cpp:148] Top shape: 100 1000 (100000)
I0719 18:12:27.036512  3401 net.cpp:156] Memory required for data: 1159853200
I0719 18:12:27.036535  3401 layer_factory.hpp:77] Creating layer fc1_8
I0719 18:12:27.036564  3401 net.cpp:91] Creating Layer fc1_8
I0719 18:12:27.036589  3401 net.cpp:425] fc1_8 <- comb_8
I0719 18:12:27.036623  3401 net.cpp:399] fc1_8 -> fc1_8
I0719 18:12:27.043900  3401 net.cpp:141] Setting up fc1_8
I0719 18:12:27.044098  3401 net.cpp:148] Top shape: 100 512 (51200)
I0719 18:12:27.044131  3401 net.cpp:156] Memory required for data: 1160058000
I0719 18:12:27.044167  3401 net.cpp:484] Sharing parameters 'fc1_w' owned by layer 'fc1_1', param index 0
I0719 18:12:27.044219  3401 net.cpp:484] Sharing parameters 'fc1_b' owned by layer 'fc1_1', param index 1
I0719 18:12:27.044250  3401 layer_factory.hpp:77] Creating layer relu_fc1_8
I0719 18:12:27.044284  3401 net.cpp:91] Creating Layer relu_fc1_8
I0719 18:12:27.044335  3401 net.cpp:425] relu_fc1_8 <- fc1_8
I0719 18:12:27.044374  3401 net.cpp:386] relu_fc1_8 -> fc1_8 (in-place)
I0719 18:12:27.044432  3401 net.cpp:141] Setting up relu_fc1_8
I0719 18:12:27.044481  3401 net.cpp:148] Top shape: 100 512 (51200)
I0719 18:12:27.044505  3401 net.cpp:156] Memory required for data: 1160262800
I0719 18:12:27.044550  3401 layer_factory.hpp:77] Creating layer fc2_8
I0719 18:12:27.044582  3401 net.cpp:91] Creating Layer fc2_8
I0719 18:12:27.044627  3401 net.cpp:425] fc2_8 <- fc1_8
I0719 18:12:27.044667  3401 net.cpp:399] fc2_8 -> fc2_8
I0719 18:12:27.049931  3401 net.cpp:141] Setting up fc2_8
I0719 18:12:27.050109  3401 net.cpp:148] Top shape: 100 512 (51200)
I0719 18:12:27.050158  3401 net.cpp:156] Memory required for data: 1160467600
I0719 18:12:27.050214  3401 net.cpp:484] Sharing parameters 'fc2_w' owned by layer 'fc2_1', param index 0
I0719 18:12:27.050269  3401 net.cpp:484] Sharing parameters 'fc2_b' owned by layer 'fc2_1', param index 1
I0719 18:12:27.050325  3401 layer_factory.hpp:77] Creating layer relu_fc2_8
I0719 18:12:27.050387  3401 net.cpp:91] Creating Layer relu_fc2_8
I0719 18:12:27.050462  3401 net.cpp:425] relu_fc2_8 <- fc2_8
I0719 18:12:27.050552  3401 net.cpp:386] relu_fc2_8 -> fc2_8 (in-place)
I0719 18:12:27.050622  3401 net.cpp:141] Setting up relu_fc2_8
I0719 18:12:27.050684  3401 net.cpp:148] Top shape: 100 512 (51200)
I0719 18:12:27.050736  3401 net.cpp:156] Memory required for data: 1160672400
I0719 18:12:27.050791  3401 layer_factory.hpp:77] Creating layer fc3_8
I0719 18:12:27.050863  3401 net.cpp:91] Creating Layer fc3_8
I0719 18:12:27.050921  3401 net.cpp:425] fc3_8 <- fc2_8
I0719 18:12:27.050986  3401 net.cpp:399] fc3_8 -> fc3_8
I0719 18:12:27.051097  3401 net.cpp:141] Setting up fc3_8
I0719 18:12:27.051164  3401 net.cpp:148] Top shape: 100 2 (200)
I0719 18:12:27.051214  3401 net.cpp:156] Memory required for data: 1160673200
I0719 18:12:27.051247  3401 net.cpp:484] Sharing parameters 'fc3_w' owned by layer 'fc3_1', param index 0
I0719 18:12:27.051306  3401 net.cpp:484] Sharing parameters 'fc3_b' owned by layer 'fc3_1', param index 1
I0719 18:12:27.051357  3401 layer_factory.hpp:77] Creating layer conv1_91
I0719 18:12:27.051434  3401 net.cpp:91] Creating Layer conv1_91
I0719 18:12:27.051493  3401 net.cpp:425] conv1_91 <- s14
I0719 18:12:27.051563  3401 net.cpp:399] conv1_91 -> conv1_91
I0719 18:12:27.051698  3401 net.cpp:141] Setting up conv1_91
I0719 18:12:27.051771  3401 net.cpp:148] Top shape: 100 20 60 60 (7200000)
I0719 18:12:27.051823  3401 net.cpp:156] Memory required for data: 1189473200
I0719 18:12:27.051856  3401 net.cpp:484] Sharing parameters 'conv1_w' owned by layer 'conv1_11', param index 0
I0719 18:12:27.051890  3401 net.cpp:484] Sharing parameters 'conv1_b' owned by layer 'conv1_11', param index 1
I0719 18:12:27.051921  3401 layer_factory.hpp:77] Creating layer pool1_91
I0719 18:12:27.051960  3401 net.cpp:91] Creating Layer pool1_91
I0719 18:12:27.051996  3401 net.cpp:425] pool1_91 <- conv1_91
I0719 18:12:27.052045  3401 net.cpp:399] pool1_91 -> pool1_91
I0719 18:12:27.052096  3401 net.cpp:141] Setting up pool1_91
I0719 18:12:27.052131  3401 net.cpp:148] Top shape: 100 20 30 30 (1800000)
I0719 18:12:27.052160  3401 net.cpp:156] Memory required for data: 1196673200
I0719 18:12:27.052189  3401 layer_factory.hpp:77] Creating layer conv2_91
I0719 18:12:27.052230  3401 net.cpp:91] Creating Layer conv2_91
I0719 18:12:27.052261  3401 net.cpp:425] conv2_91 <- pool1_91
I0719 18:12:27.052305  3401 net.cpp:399] conv2_91 -> conv2_91
I0719 18:12:27.052692  3401 net.cpp:141] Setting up conv2_91
I0719 18:12:27.052795  3401 net.cpp:148] Top shape: 100 50 26 26 (3380000)
I0719 18:12:27.052829  3401 net.cpp:156] Memory required for data: 1210193200
I0719 18:12:27.052865  3401 net.cpp:484] Sharing parameters 'conv2_w' owned by layer 'conv2_11', param index 0
I0719 18:12:27.052906  3401 net.cpp:484] Sharing parameters 'conv2_b' owned by layer 'conv2_11', param index 1
I0719 18:12:27.052942  3401 layer_factory.hpp:77] Creating layer pool2_91
I0719 18:12:27.052996  3401 net.cpp:91] Creating Layer pool2_91
I0719 18:12:27.053036  3401 net.cpp:425] pool2_91 <- conv2_91
I0719 18:12:27.053081  3401 net.cpp:399] pool2_91 -> pool2_91
I0719 18:12:27.053133  3401 net.cpp:141] Setting up pool2_91
I0719 18:12:27.053171  3401 net.cpp:148] Top shape: 100 50 13 13 (845000)
I0719 18:12:27.053200  3401 net.cpp:156] Memory required for data: 1213573200
I0719 18:12:27.053236  3401 layer_factory.hpp:77] Creating layer ip1_91
I0719 18:12:27.053277  3401 net.cpp:91] Creating Layer ip1_91
I0719 18:12:27.053311  3401 net.cpp:425] ip1_91 <- pool2_91
I0719 18:12:27.053359  3401 net.cpp:399] ip1_91 -> ip1_91
I0719 18:12:27.119060  3401 net.cpp:141] Setting up ip1_91
I0719 18:12:27.119282  3401 net.cpp:148] Top shape: 100 500 (50000)
I0719 18:12:27.119313  3401 net.cpp:156] Memory required for data: 1213773200
I0719 18:12:27.119348  3401 net.cpp:484] Sharing parameters 'ip1_w' owned by layer 'ip1_11', param index 0
I0719 18:12:27.119416  3401 net.cpp:484] Sharing parameters 'ip1_b' owned by layer 'ip1_11', param index 1
I0719 18:12:27.119452  3401 layer_factory.hpp:77] Creating layer relu1_91
I0719 18:12:27.119489  3401 net.cpp:91] Creating Layer relu1_91
I0719 18:12:27.119570  3401 net.cpp:425] relu1_91 <- ip1_91
I0719 18:12:27.119611  3401 net.cpp:386] relu1_91 -> ip1_91 (in-place)
I0719 18:12:27.119645  3401 net.cpp:141] Setting up relu1_91
I0719 18:12:27.119696  3401 net.cpp:148] Top shape: 100 500 (50000)
I0719 18:12:27.119722  3401 net.cpp:156] Memory required for data: 1213973200
I0719 18:12:27.119751  3401 layer_factory.hpp:77] Creating layer ip2_91
I0719 18:12:27.119786  3401 net.cpp:91] Creating Layer ip2_91
I0719 18:12:27.119810  3401 net.cpp:425] ip2_91 <- ip1_91
I0719 18:12:27.119865  3401 net.cpp:399] ip2_91 -> ip2_91
I0719 18:12:27.124613  3401 net.cpp:141] Setting up ip2_91
I0719 18:12:27.124737  3401 net.cpp:148] Top shape: 100 500 (50000)
I0719 18:12:27.124757  3401 net.cpp:156] Memory required for data: 1214173200
I0719 18:12:27.124776  3401 net.cpp:484] Sharing parameters 'ip2_w' owned by layer 'ip2_11', param index 0
I0719 18:12:27.124794  3401 net.cpp:484] Sharing parameters 'ip2_b' owned by layer 'ip2_11', param index 1
I0719 18:12:27.124825  3401 layer_factory.hpp:77] Creating layer conv1_92
I0719 18:12:27.124855  3401 net.cpp:91] Creating Layer conv1_92
I0719 18:12:27.124887  3401 net.cpp:425] conv1_92 <- p2_pool_i2_0_split_4
I0719 18:12:27.124910  3401 net.cpp:399] conv1_92 -> conv1_92
I0719 18:12:27.124984  3401 net.cpp:141] Setting up conv1_92
I0719 18:12:27.125020  3401 net.cpp:148] Top shape: 100 20 60 60 (7200000)
I0719 18:12:27.125033  3401 net.cpp:156] Memory required for data: 1242973200
I0719 18:12:27.125048  3401 net.cpp:484] Sharing parameters 'conv1_w' owned by layer 'conv1_11', param index 0
I0719 18:12:27.125077  3401 net.cpp:484] Sharing parameters 'conv1_b' owned by layer 'conv1_11', param index 1
I0719 18:12:27.125092  3401 layer_factory.hpp:77] Creating layer pool1_92
I0719 18:12:27.125110  3401 net.cpp:91] Creating Layer pool1_92
I0719 18:12:27.125139  3401 net.cpp:425] pool1_92 <- conv1_92
I0719 18:12:27.125159  3401 net.cpp:399] pool1_92 -> pool1_92
I0719 18:12:27.125196  3401 net.cpp:141] Setting up pool1_92
I0719 18:12:27.125214  3401 net.cpp:148] Top shape: 100 20 30 30 (1800000)
I0719 18:12:27.125242  3401 net.cpp:156] Memory required for data: 1250173200
I0719 18:12:27.125257  3401 layer_factory.hpp:77] Creating layer conv2_92
I0719 18:12:27.125277  3401 net.cpp:91] Creating Layer conv2_92
I0719 18:12:27.125305  3401 net.cpp:425] conv2_92 <- pool1_92
I0719 18:12:27.125324  3401 net.cpp:399] conv2_92 -> conv2_92
I0719 18:12:27.125581  3401 net.cpp:141] Setting up conv2_92
I0719 18:12:27.125617  3401 net.cpp:148] Top shape: 100 50 26 26 (3380000)
I0719 18:12:27.125633  3401 net.cpp:156] Memory required for data: 1263693200
I0719 18:12:27.125646  3401 net.cpp:484] Sharing parameters 'conv2_w' owned by layer 'conv2_11', param index 0
I0719 18:12:27.125661  3401 net.cpp:484] Sharing parameters 'conv2_b' owned by layer 'conv2_11', param index 1
I0719 18:12:27.125676  3401 layer_factory.hpp:77] Creating layer pool2_92
I0719 18:12:27.125695  3401 net.cpp:91] Creating Layer pool2_92
I0719 18:12:27.125712  3401 net.cpp:425] pool2_92 <- conv2_92
I0719 18:12:27.125730  3401 net.cpp:399] pool2_92 -> pool2_92
I0719 18:12:27.125752  3401 net.cpp:141] Setting up pool2_92
I0719 18:12:27.125769  3401 net.cpp:148] Top shape: 100 50 13 13 (845000)
I0719 18:12:27.125782  3401 net.cpp:156] Memory required for data: 1267073200
I0719 18:12:27.125797  3401 layer_factory.hpp:77] Creating layer ip1_92
I0719 18:12:27.125816  3401 net.cpp:91] Creating Layer ip1_92
I0719 18:12:27.125833  3401 net.cpp:425] ip1_92 <- pool2_92
I0719 18:12:27.125852  3401 net.cpp:399] ip1_92 -> ip1_92
I0719 18:12:27.188946  3401 net.cpp:141] Setting up ip1_92
I0719 18:12:27.189229  3401 net.cpp:148] Top shape: 100 500 (50000)
I0719 18:12:27.189318  3401 net.cpp:156] Memory required for data: 1267273200
I0719 18:12:27.189389  3401 net.cpp:484] Sharing parameters 'ip1_w' owned by layer 'ip1_11', param index 0
I0719 18:12:27.189455  3401 net.cpp:484] Sharing parameters 'ip1_b' owned by layer 'ip1_11', param index 1
I0719 18:12:27.189535  3401 layer_factory.hpp:77] Creating layer relu1_92
I0719 18:12:27.189618  3401 net.cpp:91] Creating Layer relu1_92
I0719 18:12:27.189666  3401 net.cpp:425] relu1_92 <- ip1_92
I0719 18:12:27.189725  3401 net.cpp:386] relu1_92 -> ip1_92 (in-place)
I0719 18:12:27.189782  3401 net.cpp:141] Setting up relu1_92
I0719 18:12:27.189816  3401 net.cpp:148] Top shape: 100 500 (50000)
I0719 18:12:27.189844  3401 net.cpp:156] Memory required for data: 1267473200
I0719 18:12:27.189877  3401 layer_factory.hpp:77] Creating layer ip2_92
I0719 18:12:27.189914  3401 net.cpp:91] Creating Layer ip2_92
I0719 18:12:27.189954  3401 net.cpp:425] ip2_92 <- ip1_92
I0719 18:12:27.189990  3401 net.cpp:399] ip2_92 -> ip2_92
I0719 18:12:27.192617  3401 net.cpp:141] Setting up ip2_92
I0719 18:12:27.192775  3401 net.cpp:148] Top shape: 100 500 (50000)
I0719 18:12:27.192800  3401 net.cpp:156] Memory required for data: 1267673200
I0719 18:12:27.192831  3401 net.cpp:484] Sharing parameters 'ip2_w' owned by layer 'ip2_11', param index 0
I0719 18:12:27.192869  3401 net.cpp:484] Sharing parameters 'ip2_b' owned by layer 'ip2_11', param index 1
I0719 18:12:27.192896  3401 layer_factory.hpp:77] Creating layer concat_9
I0719 18:12:27.192929  3401 net.cpp:91] Creating Layer concat_9
I0719 18:12:27.192960  3401 net.cpp:425] concat_9 <- ip2_91
I0719 18:12:27.193003  3401 net.cpp:425] concat_9 <- ip2_92
I0719 18:12:27.193037  3401 net.cpp:399] concat_9 -> comb_9
I0719 18:12:27.193078  3401 net.cpp:141] Setting up concat_9
I0719 18:12:27.193110  3401 net.cpp:148] Top shape: 100 1000 (100000)
I0719 18:12:27.193132  3401 net.cpp:156] Memory required for data: 1268073200
I0719 18:12:27.193156  3401 layer_factory.hpp:77] Creating layer fc1_9
I0719 18:12:27.193194  3401 net.cpp:91] Creating Layer fc1_9
I0719 18:12:27.193224  3401 net.cpp:425] fc1_9 <- comb_9
I0719 18:12:27.193258  3401 net.cpp:399] fc1_9 -> fc1_9
I0719 18:12:27.201140  3401 net.cpp:141] Setting up fc1_9
I0719 18:12:27.201526  3401 net.cpp:148] Top shape: 100 512 (51200)
I0719 18:12:27.201584  3401 net.cpp:156] Memory required for data: 1268278000
I0719 18:12:27.201632  3401 net.cpp:484] Sharing parameters 'fc1_w' owned by layer 'fc1_1', param index 0
I0719 18:12:27.201673  3401 net.cpp:484] Sharing parameters 'fc1_b' owned by layer 'fc1_1', param index 1
I0719 18:12:27.201709  3401 layer_factory.hpp:77] Creating layer relu_fc1_9
I0719 18:12:27.201753  3401 net.cpp:91] Creating Layer relu_fc1_9
I0719 18:12:27.201792  3401 net.cpp:425] relu_fc1_9 <- fc1_9
I0719 18:12:27.201843  3401 net.cpp:386] relu_fc1_9 -> fc1_9 (in-place)
I0719 18:12:27.201891  3401 net.cpp:141] Setting up relu_fc1_9
I0719 18:12:27.201928  3401 net.cpp:148] Top shape: 100 512 (51200)
I0719 18:12:27.201958  3401 net.cpp:156] Memory required for data: 1268482800
I0719 18:12:27.201989  3401 layer_factory.hpp:77] Creating layer fc2_9
I0719 18:12:27.202114  3401 net.cpp:91] Creating Layer fc2_9
I0719 18:12:27.202169  3401 net.cpp:425] fc2_9 <- fc1_9
I0719 18:12:27.202256  3401 net.cpp:399] fc2_9 -> fc2_9
I0719 18:12:27.207700  3401 net.cpp:141] Setting up fc2_9
I0719 18:12:27.207887  3401 net.cpp:148] Top shape: 100 512 (51200)
I0719 18:12:27.207916  3401 net.cpp:156] Memory required for data: 1268687600
I0719 18:12:27.207947  3401 net.cpp:484] Sharing parameters 'fc2_w' owned by layer 'fc2_1', param index 0
I0719 18:12:27.207999  3401 net.cpp:484] Sharing parameters 'fc2_b' owned by layer 'fc2_1', param index 1
I0719 18:12:27.208030  3401 layer_factory.hpp:77] Creating layer relu_fc2_9
I0719 18:12:27.208087  3401 net.cpp:91] Creating Layer relu_fc2_9
I0719 18:12:27.208122  3401 net.cpp:425] relu_fc2_9 <- fc2_9
I0719 18:12:27.208174  3401 net.cpp:386] relu_fc2_9 -> fc2_9 (in-place)
I0719 18:12:27.208214  3401 net.cpp:141] Setting up relu_fc2_9
I0719 18:12:27.208241  3401 net.cpp:148] Top shape: 100 512 (51200)
I0719 18:12:27.208261  3401 net.cpp:156] Memory required for data: 1268892400
I0719 18:12:27.208281  3401 layer_factory.hpp:77] Creating layer fc3_9
I0719 18:12:27.208312  3401 net.cpp:91] Creating Layer fc3_9
I0719 18:12:27.208343  3401 net.cpp:425] fc3_9 <- fc2_9
I0719 18:12:27.208384  3401 net.cpp:399] fc3_9 -> fc3_9
I0719 18:12:27.208443  3401 net.cpp:141] Setting up fc3_9
I0719 18:12:27.208470  3401 net.cpp:148] Top shape: 100 2 (200)
I0719 18:12:27.208489  3401 net.cpp:156] Memory required for data: 1268893200
I0719 18:12:27.208509  3401 net.cpp:484] Sharing parameters 'fc3_w' owned by layer 'fc3_1', param index 0
I0719 18:12:27.208530  3401 net.cpp:484] Sharing parameters 'fc3_b' owned by layer 'fc3_1', param index 1
I0719 18:12:27.208550  3401 layer_factory.hpp:77] Creating layer concat
I0719 18:12:27.208575  3401 net.cpp:91] Creating Layer concat
I0719 18:12:27.208595  3401 net.cpp:425] concat <- fc3_1
I0719 18:12:27.208616  3401 net.cpp:425] concat <- fc3_2
I0719 18:12:27.208637  3401 net.cpp:425] concat <- fc3_3
I0719 18:12:27.208658  3401 net.cpp:425] concat <- fc3_4
I0719 18:12:27.208680  3401 net.cpp:425] concat <- fc3_5
I0719 18:12:27.208703  3401 net.cpp:425] concat <- fc3_6
I0719 18:12:27.208724  3401 net.cpp:425] concat <- fc3_7
I0719 18:12:27.208744  3401 net.cpp:425] concat <- fc3_8
I0719 18:12:27.208763  3401 net.cpp:425] concat <- fc3_9
I0719 18:12:27.208786  3401 net.cpp:399] concat -> comb
I0719 18:12:27.208814  3401 net.cpp:141] Setting up concat
I0719 18:12:27.208837  3401 net.cpp:148] Top shape: 100 18 (1800)
I0719 18:12:27.208855  3401 net.cpp:156] Memory required for data: 1268900400
I0719 18:12:27.208884  3401 layer_factory.hpp:77] Creating layer reshape
I0719 18:12:27.208910  3401 net.cpp:91] Creating Layer reshape
I0719 18:12:27.208931  3401 net.cpp:425] reshape <- comb
I0719 18:12:27.208956  3401 net.cpp:399] reshape -> comb_r
I0719 18:12:27.208984  3401 net.cpp:141] Setting up reshape
I0719 18:12:27.209007  3401 net.cpp:148] Top shape: 100 1 2 9 (1800)
I0719 18:12:27.209025  3401 net.cpp:156] Memory required for data: 1268907600
I0719 18:12:27.209044  3401 layer_factory.hpp:77] Creating layer pool_sim
I0719 18:12:27.209067  3401 net.cpp:91] Creating Layer pool_sim
I0719 18:12:27.209087  3401 net.cpp:425] pool_sim <- comb_r
I0719 18:12:27.209113  3401 net.cpp:399] pool_sim -> pool_r
I0719 18:12:27.209141  3401 net.cpp:141] Setting up pool_sim
I0719 18:12:27.209163  3401 net.cpp:148] Top shape: 100 1 2 1 (200)
I0719 18:12:27.209182  3401 net.cpp:156] Memory required for data: 1268908400
I0719 18:12:27.209200  3401 layer_factory.hpp:77] Creating layer reshape
I0719 18:12:27.209223  3401 net.cpp:91] Creating Layer reshape
I0719 18:12:27.209244  3401 net.cpp:425] reshape <- pool_r
I0719 18:12:27.209269  3401 net.cpp:399] reshape -> pool_sim
I0719 18:12:27.209295  3401 net.cpp:141] Setting up reshape
I0719 18:12:27.209317  3401 net.cpp:148] Top shape: 100 2 1 1 (200)
I0719 18:12:27.209435  3401 net.cpp:156] Memory required for data: 1268909200
I0719 18:12:27.209467  3401 layer_factory.hpp:77] Creating layer pool_sim_reshape_0_split
I0719 18:12:27.209539  3401 net.cpp:91] Creating Layer pool_sim_reshape_0_split
I0719 18:12:27.209568  3401 net.cpp:425] pool_sim_reshape_0_split <- pool_sim
I0719 18:12:27.209597  3401 net.cpp:399] pool_sim_reshape_0_split -> pool_sim_reshape_0_split_0
I0719 18:12:27.209628  3401 net.cpp:399] pool_sim_reshape_0_split -> pool_sim_reshape_0_split_1
I0719 18:12:27.209698  3401 net.cpp:141] Setting up pool_sim_reshape_0_split
I0719 18:12:27.209755  3401 net.cpp:148] Top shape: 100 2 1 1 (200)
I0719 18:12:27.209795  3401 net.cpp:148] Top shape: 100 2 1 1 (200)
I0719 18:12:27.209830  3401 net.cpp:156] Memory required for data: 1268910800
I0719 18:12:27.209921  3401 layer_factory.hpp:77] Creating layer loss
I0719 18:12:27.209988  3401 net.cpp:91] Creating Layer loss
I0719 18:12:27.210033  3401 net.cpp:425] loss <- pool_sim_reshape_0_split_0
I0719 18:12:27.210083  3401 net.cpp:425] loss <- label_pair_data_1_split_0
I0719 18:12:27.210325  3401 net.cpp:399] loss -> loss
…
