…
I0816 16:03:59.716332 20404 solver.cpp:81] Creating training net from train_net file: examples/scene/matchNetTrainHingeMini.prototxt
I0816 16:03:59.759481 20404 net.cpp:49] Initializing net from parameters: 
state {
  phase: TRAIN
}
layer {
  name: "data"
  type: "Data"
  top: "data"
  top: "label"
  include {
    phase: TRAIN
  }
  transform_param {
    scale: 0.0039215689
    mirror: true
    mean_file: "examples/scene/scene_mean.binaryproto"
  }
  data_param {
    source: "examples/scene/train_pairs_1000_pad.lmdb"
    batch_size: 100
    backend: LMDB
  }
}
layer {
  name: "th"
  type: "Threshold"
  bottom: "label"
  top: "th"
  threshold_param {
    threshold: 0
  }
}
layer {
  name: "i1"
  type: "Slice"
  bottom: "data"
  top: "i1"
  top: "i2"
  slice_param {
    slice_dim: 1
    slice_point: 3
  }
}
layer {
  name: "p1"
  type: "Pooling"
  bottom: "i1"
  top: "p1"
  pooling_param {
    pool: AVE
    kernel_size: 2
    stride: 2
  }
}
layer {
  name: "p2"
  type: "Pooling"
  bottom: "i2"
  top: "p2"
  pooling_param {
    pool: AVE
    kernel_size: 2
    stride: 2
  }
}
layer {
  name: "Input1"
  type: "Input"
  top: "Input1"
  include {
    phase: TRAIN
  }
  input_param {
    shape {
      dim: 100
      dim: 3
      dim: 64
      dim: 64
    }
  }
}
layer {
  name: "c11"
  type: "Crop"
  bottom: "i1"
  bottom: "Input1"
  top: "c11"
  crop_param {
    axis: 2
    offset: 0
    offset: 0
  }
}
layer {
  name: "Input2"
  type: "Input"
  top: "Input2"
  include {
    phase: TRAIN
  }
  input_param {
    shape {
      dim: 100
      dim: 3
      dim: 64
      dim: 64
    }
  }
}
layer {
  name: "c12"
  type: "Crop"
  bottom: "i1"
  bottom: "Input2"
  top: "c12"
  crop_param {
    axis: 2
    offset: 0
    offset: 32
  }
}
layer {
  name: "Input3"
  type: "Input"
  top: "Input3"
  include {
    phase: TRAIN
  }
  input_param {
    shape {
      dim: 100
      dim: 3
      dim: 64
      dim: 64
    }
  }
}
layer {
  name: "c13"
  type: "Crop"
  bottom: "i1"
  bottom: "Input3"
  top: "c13"
  crop_param {
    axis: 2
    offset: 0
    offset: 64
  }
}
layer {
  name: "Input4"
  type: "Input"
  top: "Input4"
  include {
    phase: TRAIN
  }
  input_param {
    shape {
      dim: 100
      dim: 3
      dim: 64
      dim: 64
    }
  }
}
layer {
  name: "c14"
  type: "Crop"
  bottom: "i1"
  bottom: "Input4"
  top: "c14"
  crop_param {
    axis: 2
    offset: 32
    offset: 0
  }
}
layer {
  name: "Input5"
  type: "Input"
  top: "Input5"
  include {
    phase: TRAIN
  }
  input_param {
    shape {
      dim: 100
      dim: 3
      dim: 64
      dim: 64
    }
  }
}
layer {
  name: "c15"
  type: "Crop"
  bottom: "i1"
  bottom: "Input5"
  top: "c15"
  crop_param {
    axis: 2
    offset: 32
    offset: 32
  }
}
layer {
  name: "Input6"
  type: "Input"
  top: "Input6"
  include {
    phase: TRAIN
  }
  input_param {
    shape {
      dim: 100
      dim: 3
      dim: 64
      dim: 64
    }
  }
}
layer {
  name: "c16"
  type: "Crop"
  bottom: "i1"
  bottom: "Input6"
  top: "c16"
  crop_param {
    axis: 2
    offset: 32
    offset: 64
  }
}
layer {
  name: "Input7"
  type: "Input"
  top: "Input7"
  include {
    phase: TRAIN
  }
  input_param {
    shape {
      dim: 100
      dim: 3
      dim: 64
      dim: 64
    }
  }
}
layer {
  name: "c17"
  type: "Crop"
  bottom: "i1"
  bottom: "Input7"
  top: "c17"
  crop_param {
    axis: 2
    offset: 64
    offset: 0
  }
}
layer {
  name: "Input8"
  type: "Input"
  top: "Input8"
  include {
    phase: TRAIN
  }
  input_param {
    shape {
      dim: 100
      dim: 3
      dim: 64
      dim: 64
    }
  }
}
layer {
  name: "c18"
  type: "Crop"
  bottom: "i1"
  bottom: "Input8"
  top: "c18"
  crop_param {
    axis: 2
    offset: 64
    offset: 32
  }
}
layer {
  name: "Input9"
  type: "Input"
  top: "Input9"
  include {
    phase: TRAIN
  }
  input_param {
    shape {
      dim: 100
      dim: 3
      dim: 64
      dim: 64
    }
  }
}
layer {
  name: "c19"
  type: "Crop"
  bottom: "i1"
  bottom: "Input9"
  top: "c19"
  crop_param {
    axis: 2
    offset: 64
    offset: 64
  }
}
layer {
  name: "Input10"
  type: "Input"
  top: "Input10"
  include {
    phase: TRAIN
  }
  input_param {
    shape {
      dim: 100
      dim: 3
      dim: 64
      dim: 64
    }
  }
}
layer {
  name: "c21"
  type: "Crop"
  bottom: "i2"
  bottom: "Input10"
  top: "c21"
  crop_param {
    axis: 2
    offset: 0
    offset: 0
  }
}
layer {
  name: "Input11"
  type: "Input"
  top: "Input11"
  include {
    phase: TRAIN
  }
  input_param {
    shape {
      dim: 100
      dim: 3
      dim: 64
      dim: 64
    }
  }
}
layer {
  name: "c22"
  type: "Crop"
  bottom: "i2"
  bottom: "Input11"
  top: "c22"
  crop_param {
    axis: 2
    offset: 0
    offset: 32
  }
}
layer {
  name: "Input12"
  type: "Input"
  top: "Input12"
  include {
    phase: TRAIN
  }
  input_param {
    shape {
      dim: 100
      dim: 3
      dim: 64
      dim: 64
    }
  }
}
layer {
  name: "c23"
  type: "Crop"
  bottom: "i2"
  bottom: "Input12"
  top: "c23"
  crop_param {
    axis: 2
    offset: 0
    offset: 64
  }
}
layer {
  name: "Input13"
  type: "Input"
  top: "Input13"
  include {
    phase: TRAIN
  }
  input_param {
    shape {
      dim: 100
      dim: 3
      dim: 64
      dim: 64
    }
  }
}
layer {
  name: "c24"
  type: "Crop"
  bottom: "i2"
  bottom: "Input13"
  top: "c24"
  crop_param {
    axis: 2
    offset: 32
    offset: 0
  }
}
layer {
  name: "Input14"
  type: "Input"
  top: "Input14"
  include {
    phase: TRAIN
  }
  input_param {
    shape {
      dim: 100
      dim: 3
      dim: 64
      dim: 64
    }
  }
}
layer {
  name: "c25"
  type: "Crop"
  bottom: "i2"
  bottom: "Input14"
  top: "c25"
  crop_param {
    axis: 2
    offset: 32
    offset: 32
  }
}
layer {
  name: "Input15"
  type: "Input"
  top: "Input15"
  include {
    phase: TRAIN
  }
  input_param {
    shape {
      dim: 100
      dim: 3
      dim: 64
      dim: 64
    }
  }
}
layer {
  name: "c26"
  type: "Crop"
  bottom: "i2"
  bottom: "Input15"
  top: "c26"
  crop_param {
    axis: 2
    offset: 32
    offset: 64
  }
}
layer {
  name: "Input16"
  type: "Input"
  top: "Input16"
  include {
    phase: TRAIN
  }
  input_param {
    shape {
      dim: 100
      dim: 3
      dim: 64
      dim: 64
    }
  }
}
layer {
  name: "c27"
  type: "Crop"
  bottom: "i2"
  bottom: "Input16"
  top: "c27"
  crop_param {
    axis: 2
    offset: 64
    offset: 0
  }
}
layer {
  name: "Input17"
  type: "Input"
  top: "Input17"
  include {
    phase: TRAIN
  }
  input_param {
    shape {
      dim: 100
      dim: 3
      dim: 64
      dim: 64
    }
  }
}
layer {
  name: "c28"
  type: "Crop"
  bottom: "i2"
  bottom: "Input17"
  top: "c28"
  crop_param {
    axis: 2
    offset: 64
    offset: 32
  }
}
layer {
  name: "Input18"
  type: "Input"
  top: "Input18"
  include {
    phase: TRAIN
  }
  input_param {
    shape {
      dim: 100
      dim: 3
      dim: 64
      dim: 64
    }
  }
}
layer {
  name: "c29"
  type: "Crop"
  bottom: "i2"
  bottom: "Input18"
  top: "c29"
  crop_param {
    axis: 2
    offset: 64
    offset: 64
  }
}
layer {
  name: "conv1"
  type: "Convolution"
  bottom: "p1"
  top: "Convolution1"
  param {
    lr_mult: 0
    decay_mult: 0
  }
  param {
    lr_mult: 0
    decay_mult: 0
  }
  convolution_param {
    num_output: 96
    pad: 5
    kernel_size: 11
    group: 1
    stride: 4
    weight_filler {
      type: "gaussian"
      std: 0.01
    }
    bias_filler {
      type: "constant"
      value: 0
    }
  }
}
layer {
  name: "ReLU1"
  type: "ReLU"
  bottom: "Convolution1"
  top: "Convolution1"
}
layer {
  name: "norm1"
  type: "LRN"
  bottom: "Convolution1"
  top: "LRN1"
  lrn_param {
    local_size: 5
    alpha: 0.0001
    beta: 0.75
  }
}
layer {
  name: "pool1"
  type: "Pooling"
  bottom: "LRN1"
  top: "Pooling1"
  pooling_param {
    pool: MAX
    kernel_size: 3
    stride: 2
  }
}
layer {
  name: "conv2"
  type: "Convolution"
  bottom: "Pooling1"
  top: "Convolution2"
  param {
    lr_mult: 0
    decay_mult: 0
  }
  param {
    lr_mult: 0
    decay_mult: 0
  }
  convolution_param {
    num_output: 256
    pad: 2
    kernel_size: 5
    group: 2
    stride: 1
    weight_filler {
      type: "gaussian"
      std: 0.01
    }
    bias_filler {
      type: "constant"
      value: 0.1
    }
  }
}
layer {
  name: "ReLU2"
  type: "ReLU"
  bottom: "Convolution2"
  top: "Convolution2"
}
layer {
  name: "norm2"
  type: "LRN"
  bottom: "Convolution2"
  top: "LRN2"
  lrn_param {
    local_size: 5
    alpha: 0.0001
    beta: 0.75
  }
}
layer {
  name: "pool2"
  type: "Pooling"
  bottom: "LRN2"
  top: "Pooling2"
  pooling_param {
    pool: MAX
    kernel_size: 3
    stride: 2
  }
}
layer {
  name: "conv3"
  type: "Convolution"
  bottom: "Pooling2"
  top: "Convolution3"
  param {
    lr_mult: 0
    decay_mult: 0
  }
  param {
    lr_mult: 0
    decay_mult: 0
  }
  convolution_param {
    num_output: 384
    pad: 1
    kernel_size: 3
    group: 1
    stride: 1
    weight_filler {
      type: "gaussian"
      std: 0.01
    }
    bias_filler {
      type: "constant"
      value: 0
    }
  }
}
layer {
  name: "ReLU3"
  type: "ReLU"
  bottom: "Convolution3"
  top: "Convolution3"
}
layer {
  name: "conv4"
  type: "Convolution"
  bottom: "Convolution3"
  top: "Convolution4"
  param {
    lr_mult: 0
    decay_mult: 0
  }
  param {
    lr_mult: 0
    decay_mult: 0
  }
  convolution_param {
    num_output: 384
    pad: 1
    kernel_size: 3
    group: 2
    stride: 1
    weight_filler {
      type: "gaussian"
      std: 0.01
    }
    bias_filler {
      type: "constant"
      value: 0.1
    }
  }
}
layer {
  name: "ReLU4"
  type: "ReLU"
  bottom: "Convolution4"
  top: "Convolution4"
}
layer {
  name: "conv5"
  type: "Convolution"
  bottom: "Convolution4"
  top: "Convolution5"
  param {
    lr_mult: 0
    decay_mult: 0
  }
  param {
    lr_mult: 0
    decay_mult: 0
  }
  convolution_param {
    num_output: 256
    pad: 1
    kernel_size: 3
    group: 2
    stride: 1
    weight_filler {
      type: "gaussian"
      std: 0.01
    }
    bias_filler {
      type: "constant"
      value: 0.1
    }
  }
}
layer {
  name: "pool5"
  type: "Pooling"
  bottom: "Convolution5"
  top: "Pooling3"
  pooling_param {
    pool: MAX
    kernel_size: 3
    stride: 2
  }
}
layer {
  name: "InnerProduct1"
  type: "InnerProduct"
  bottom: "Pooling3"
  top: "InnerProduct1"
  param {
    name: "fc6_w"
    lr_mult: 1
  }
  param {
    name: "fc6_b"
    lr_mult: 2
  }
  inner_product_param {
    num_output: 256
    weight_filler {
      type: "xavier"
    }
    bias_filler {
      type: "constant"
    }
  }
}
layer {
  name: "ReLU5"
  type: "ReLU"
  bottom: "InnerProduct1"
  top: "InnerProduct1"
}
layer {
  name: "InnerProduct2"
  type: "InnerProduct"
  bottom: "InnerProduct1"
  top: "InnerProduct2"
  param {
    name: "fc7_w"
    lr_mult: 1
  }
  param {
    name: "fc7_b"
    lr_mult: 2
  }
  inner_product_param {
    num_output: 256
    weight_filler {
      type: "xavier"
    }
    bias_filler {
      type: "constant"
    }
  }
}
layer {
  name: "ReLU6"
  type: "ReLU"
  bottom: "InnerProduct2"
  top: "InnerProduct2"
}
layer {
  name: "conv1"
  type: "Convolution"
  bottom: "p2"
  top: "Convolution6"
  param {
    lr_mult: 0
    decay_mult: 0
  }
  param {
    lr_mult: 0
    decay_mult: 0
  }
  convolution_param {
    num_output: 96
    pad: 5
    kernel_size: 11
    group: 1
    stride: 4
    weight_filler {
      type: "gaussian"
      std: 0.01
    }
    bias_filler {
      type: "constant"
      value: 0
    }
  }
}
layer {
  name: "ReLU7"
  type: "ReLU"
  bottom: "Convolution6"
  top: "Convolution6"
}
layer {
  name: "norm1"
  type: "LRN"
  bottom: "Convolution6"
  top: "LRN3"
  lrn_param {
    local_size: 5
    alpha: 0.0001
    beta: 0.75
  }
}
layer {
  name: "pool1"
  type: "Pooling"
  bottom: "LRN3"
  top: "Pooling4"
  pooling_param {
    pool: MAX
    kernel_size: 3
    stride: 2
  }
}
layer {
  name: "conv2"
  type: "Convolution"
  bottom: "Pooling4"
  top: "Convolution7"
  param {
    lr_mult: 0
    decay_mult: 0
  }
  param {
    lr_mult: 0
    decay_mult: 0
  }
  convolution_param {
    num_output: 256
    pad: 2
    kernel_size: 5
    group: 2
    stride: 1
    weight_filler {
      type: "gaussian"
      std: 0.01
    }
    bias_filler {
      type: "constant"
      value: 0.1
    }
  }
}
layer {
  name: "ReLU8"
  type: "ReLU"
  bottom: "Convolution7"
  top: "Convolution7"
}
layer {
  name: "norm2"
  type: "LRN"
  bottom: "Convolution7"
  top: "LRN4"
  lrn_param {
    local_size: 5
    alpha: 0.0001
    beta: 0.75
  }
}
layer {
  name: "pool2"
  type: "Pooling"
  bottom: "LRN4"
  top: "Pooling5"
  pooling_param {
    pool: MAX
    kernel_size: 3
    stride: 2
  }
}
layer {
  name: "conv3"
  type: "Convolution"
  bottom: "Pooling5"
  top: "Convolution8"
  param {
    lr_mult: 0
    decay_mult: 0
  }
  param {
    lr_mult: 0
    decay_mult: 0
  }
  convolution_param {
    num_output: 384
    pad: 1
    kernel_size: 3
    group: 1
    stride: 1
    weight_filler {
      type: "gaussian"
      std: 0.01
    }
    bias_filler {
      type: "constant"
      value: 0
    }
  }
}
layer {
  name: "ReLU9"
  type: "ReLU"
  bottom: "Convolution8"
  top: "Convolution8"
}
layer {
  name: "conv4"
  type: "Convolution"
  bottom: "Convolution8"
  top: "Convolution9"
  param {
    lr_mult: 0
    decay_mult: 0
  }
  param {
    lr_mult: 0
    decay_mult: 0
  }
  convolution_param {
    num_output: 384
    pad: 1
    kernel_size: 3
    group: 2
    stride: 1
    weight_filler {
      type: "gaussian"
      std: 0.01
    }
    bias_filler {
      type: "constant"
      value: 0.1
    }
  }
}
layer {
  name: "ReLU10"
  type: "ReLU"
  bottom: "Convolution9"
  top: "Convolution9"
}
layer {
  name: "conv5"
  type: "Convolution"
  bottom: "Convolution9"
  top: "Convolution10"
  param {
    lr_mult: 0
    decay_mult: 0
  }
  param {
    lr_mult: 0
    decay_mult: 0
  }
  convolution_param {
    num_output: 256
    pad: 1
    kernel_size: 3
    group: 2
    stride: 1
    weight_filler {
      type: "gaussian"
      std: 0.01
    }
    bias_filler {
      type: "constant"
      value: 0.1
    }
  }
}
layer {
  name: "pool5"
  type: "Pooling"
  bottom: "Convolution10"
  top: "Pooling6"
  pooling_param {
    pool: MAX
    kernel_size: 3
    stride: 2
  }
}
layer {
  name: "InnerProduct3"
  type: "InnerProduct"
  bottom: "Pooling6"
  top: "InnerProduct3"
  param {
    name: "fc6_w"
    lr_mult: 1
  }
  param {
    name: "fc6_b"
    lr_mult: 2
  }
  inner_product_param {
    num_output: 256
    weight_filler {
      type: "xavier"
    }
    bias_filler {
      type: "constant"
    }
  }
}
layer {
  name: "ReLU11"
  type: "ReLU"
  bottom: "InnerProduct3"
  top: "InnerProduct3"
}
layer {
  name: "InnerProduct4"
  type: "InnerProduct"
  bottom: "InnerProduct3"
  top: "InnerProduct4"
  param {
    name: "fc7_w"
    lr_mult: 1
  }
  param {
    name: "fc7_b"
    lr_mult: 2
  }
  inner_product_param {
    num_output: 256
    weight_filler {
      type: "xavier"
    }
    bias_filler {
      type: "constant"
    }
  }
}
layer {
  name: "ReLU12"
  type: "ReLU"
  bottom: "InnerProduct4"
  top: "InnerProduct4"
}
layer {
  name: "Concat1"
  type: "Concat"
  bottom: "InnerProduct2"
  bottom: "InnerProduct4"
  top: "Concat1"
  concat_param {
    axis: 1
  }
}
layer {
  name: "InnerProduct5"
  type: "InnerProduct"
  bottom: "Concat1"
  top: "InnerProduct5"
  param {
    name: "fc8_w"
    lr_mult: 1
  }
  param {
    name: "fc8_b"
    lr_mult: 2
  }
  inner_product_param {
    num_output: 256
    weight_filler {
      type: "xavier"
    }
    bias_filler {
      type: "constant"
    }
  }
}
layer {
  name: "ReLU13"
  type: "ReLU"
  bottom: "InnerProduct5"
  top: "InnerProduct5"
}
layer {
  name: "InnerProduct6"
  type: "InnerProduct"
  bottom: "InnerProduct5"
  top: "InnerProduct6"
  param {
    name: "fc9_w"
    lr_mult: 1
  }
  param {
    name: "fc9_b"
    lr_mult: 2
  }
  inner_product_param {
    num_output: 128
    weight_filler {
      type: "xavier"
    }
    bias_filler {
      type: "constant"
    }
  }
}
layer {
  name: "ReLU14"
  type: "ReLU"
  bottom: "InnerProduct6"
  top: "InnerProduct6"
}
layer {
  name: "dt0"
  type: "InnerProduct"
  bottom: "InnerProduct6"
  top: "dt0"
  param {
    name: "fc10_w"
    lr_mult: 1
  }
  param {
    name: "fc10_b"
    lr_mult: 2
  }
  inner_product_param {
    num_output: 1
    weight_filler {
      type: "xavier"
    }
    bias_filler {
      type: "constant"
    }
  }
}
layer {
  name: "conv1"
  type: "Convolution"
  bottom: "p1"
  top: "Convolution11"
  param {
    lr_mult: 0
    decay_mult: 0
  }
  param {
    lr_mult: 0
    decay_mult: 0
  }
  convolution_param {
    num_output: 96
    pad: 5
    kernel_size: 11
    group: 1
    stride: 4
    weight_filler {
      type: "gaussian"
      std: 0.01
    }
    bias_filler {
      type: "constant"
      value: 0
    }
  }
}
layer {
  name: "ReLU15"
  type: "ReLU"
  bottom: "Convolution11"
  top: "Convolution11"
}
layer {
  name: "norm1"
  type: "LRN"
  bottom: "Convolution11"
  top: "LRN5"
  lrn_param {
    local_size: 5
    alpha: 0.0001
    beta: 0.75
  }
}
layer {
  name: "pool1"
  type: "Pooling"
  bottom: "LRN5"
  top: "Pooling7"
  pooling_param {
    pool: MAX
    kernel_size: 3
    stride: 2
  }
}
layer {
  name: "conv2"
  type: "Convolution"
  bottom: "Pooling7"
  top: "Convolution12"
  param {
    lr_mult: 0
    decay_mult: 0
  }
  param {
    lr_mult: 0
    decay_mult: 0
  }
  convolution_param {
    num_output: 256
    pad: 2
    kernel_size: 5
    group: 2
    stride: 1
    weight_filler {
      type: "gaussian"
      std: 0.01
    }
    bias_filler {
      type: "constant"
      value: 0.1
    }
  }
}
layer {
  name: "ReLU16"
  type: "ReLU"
  bottom: "Convolution12"
  top: "Convolution12"
}
layer {
  name: "norm2"
  type: "LRN"
  bottom: "Convolution12"
  top: "LRN6"
  lrn_param {
    local_size: 5
    alpha: 0.0001
    beta: 0.75
  }
}
layer {
  name: "pool2"
  type: "Pooling"
  bottom: "LRN6"
  top: "Pooling8"
  pooling_param {
    pool: MAX
    kernel_size: 3
    stride: 2
  }
}
layer {
  name: "conv3"
  type: "Convolution"
  bottom: "Pooling8"
  top: "Convolution13"
  param {
    lr_mult: 0
    decay_mult: 0
  }
  param {
    lr_mult: 0
    decay_mult: 0
  }
  convolution_param {
    num_output: 384
    pad: 1
    kernel_size: 3
    group: 1
    stride: 1
    weight_filler {
      type: "gaussian"
      std: 0.01
    }
    bias_filler {
      type: "constant"
      value: 0
    }
  }
}
layer {
  name: "ReLU17"
  type: "ReLU"
  bottom: "Convolution13"
  top: "Convolution13"
}
layer {
  name: "conv4"
  type: "Convolution"
  bottom: "Convolution13"
  top: "Convolution14"
  param {
    lr_mult: 0
    decay_mult: 0
  }
  param {
    lr_mult: 0
    decay_mult: 0
  }
  convolution_param {
    num_output: 384
    pad: 1
    kernel_size: 3
    group: 2
    stride: 1
    weight_filler {
      type: "gaussian"
      std: 0.01
    }
    bias_filler {
      type: "constant"
      value: 0.1
    }
  }
}
layer {
  name: "ReLU18"
  type: "ReLU"
  bottom: "Convolution14"
  top: "Convolution14"
}
layer {
  name: "conv5"
  type: "Convolution"
  bottom: "Convolution14"
  top: "Convolution15"
  param {
    lr_mult: 0
    decay_mult: 0
  }
  param {
    lr_mult: 0
    decay_mult: 0
  }
  convolution_param {
    num_output: 256
    pad: 1
    kernel_size: 3
    group: 2
    stride: 1
    weight_filler {
      type: "gaussian"
      std: 0.01
    }
    bias_filler {
      type: "constant"
      value: 0.1
    }
  }
}
layer {
  name: "pool5"
  type: "Pooling"
  bottom: "Convolution15"
  top: "Pooling9"
  pooling_param {
    pool: MAX
    kernel_size: 3
    stride: 2
  }
}
layer {
  name: "InnerProduct7"
  type: "InnerProduct"
  bottom: "Pooling9"
  top: "InnerProduct7"
  param {
    name: "fc6_w"
    lr_mult: 1
  }
  param {
    name: "fc6_b"
    lr_mult: 2
  }
  inner_product_param {
    num_output: 256
    weight_filler {
      type: "xavier"
    }
    bias_filler {
      type: "constant"
    }
  }
}
layer {
  name: "ReLU19"
  type: "ReLU"
  bottom: "InnerProduct7"
  top: "InnerProduct7"
}
layer {
  name: "InnerProduct8"
  type: "InnerProduct"
  bottom: "InnerProduct7"
  top: "InnerProduct8"
  param {
    name: "fc7_w"
    lr_mult: 1
  }
  param {
    name: "fc7_b"
    lr_mult: 2
  }
  inner_product_param {
    num_output: 256
    weight_filler {
      type: "xavier"
    }
    bias_filler {
      type: "constant"
    }
  }
}
layer {
  name: "ReLU20"
  type: "ReLU"
  bottom: "InnerProduct8"
  top: "InnerProduct8"
}
layer {
  name: "conv1"
  type: "Convolution"
  bottom: "c21"
  top: "Convolution16"
  param {
    lr_mult: 0
    decay_mult: 0
  }
  param {
    lr_mult: 0
    decay_mult: 0
  }
  convolution_param {
    num_output: 96
    pad: 5
    kernel_size: 11
    group: 1
    stride: 4
    weight_filler {
      type: "gaussian"
      std: 0.01
    }
    bias_filler {
      type: "constant"
      value: 0
    }
  }
}
layer {
  name: "ReLU21"
  type: "ReLU"
  bottom: "Convolution16"
  top: "Convolution16"
}
layer {
  name: "norm1"
  type: "LRN"
  bottom: "Convolution16"
  top: "LRN7"
  lrn_param {
    local_size: 5
    alpha: 0.0001
    beta: 0.75
  }
}
layer {
  name: "pool1"
  type: "Pooling"
  bottom: "LRN7"
  top: "Pooling10"
  pooling_param {
    pool: MAX
    kernel_size: 3
    stride: 2
  }
}
layer {
  name: "conv2"
  type: "Convolution"
  bottom: "Pooling10"
  top: "Convolution17"
  param {
    lr_mult: 0
    decay_mult: 0
  }
  param {
    lr_mult: 0
    decay_mult: 0
  }
  convolution_param {
    num_output: 256
    pad: 2
    kernel_size: 5
    group: 2
    stride: 1
    weight_filler {
      type: "gaussian"
      std: 0.01
    }
    bias_filler {
      type: "constant"
      value: 0.1
    }
  }
}
layer {
  name: "ReLU22"
  type: "ReLU"
  bottom: "Convolution17"
  top: "Convolution17"
}
layer {
  name: "norm2"
  type: "LRN"
  bottom: "Convolution17"
  top: "LRN8"
  lrn_param {
    local_size: 5
    alpha: 0.0001
    beta: 0.75
  }
}
layer {
  name: "pool2"
  type: "Pooling"
  bottom: "LRN8"
  top: "Pooling11"
  pooling_param {
    pool: MAX
    kernel_size: 3
    stride: 2
  }
}
layer {
  name: "conv3"
  type: "Convolution"
  bottom: "Pooling11"
  top: "Convolution18"
  param {
    lr_mult: 0
    decay_mult: 0
  }
  param {
    lr_mult: 0
    decay_mult: 0
  }
  convolution_param {
    num_output: 384
    pad: 1
    kernel_size: 3
    group: 1
    stride: 1
    weight_filler {
      type: "gaussian"
      std: 0.01
    }
    bias_filler {
      type: "constant"
      value: 0
    }
  }
}
layer {
  name: "ReLU23"
  type: "ReLU"
  bottom: "Convolution18"
  top: "Convolution18"
}
layer {
  name: "conv4"
  type: "Convolution"
  bottom: "Convolution18"
  top: "Convolution19"
  param {
    lr_mult: 0
    decay_mult: 0
  }
  param {
    lr_mult: 0
    decay_mult: 0
  }
  convolution_param {
    num_output: 384
    pad: 1
    kernel_size: 3
    group: 2
    stride: 1
    weight_filler {
      type: "gaussian"
      std: 0.01
    }
    bias_filler {
      type: "constant"
      value: 0.1
    }
  }
}
layer {
  name: "ReLU24"
  type: "ReLU"
  bottom: "Convolution19"
  top: "Convolution19"
}
layer {
  name: "conv5"
  type: "Convolution"
  bottom: "Convolution19"
  top: "Convolution20"
  param {
    lr_mult: 0
    decay_mult: 0
  }
  param {
    lr_mult: 0
    decay_mult: 0
  }
  convolution_param {
    num_output: 256
    pad: 1
    kernel_size: 3
    group: 2
    stride: 1
    weight_filler {
      type: "gaussian"
      std: 0.01
    }
    bias_filler {
      type: "constant"
      value: 0.1
    }
  }
}
layer {
  name: "pool5"
  type: "Pooling"
  bottom: "Convolution20"
  top: "Pooling12"
  pooling_param {
    pool: MAX
    kernel_size: 3
    stride: 2
  }
}
layer {
  name: "InnerProduct9"
  type: "InnerProduct"
  bottom: "Pooling12"
  top: "InnerProduct9"
  param {
    name: "fc6_w"
    lr_mult: 1
  }
  param {
    name: "fc6_b"
    lr_mult: 2
  }
  inner_product_param {
    num_output: 256
    weight_filler {
      type: "xavier"
    }
    bias_filler {
      type: "constant"
    }
  }
}
layer {
  name: "ReLU25"
  type: "ReLU"
  bottom: "InnerProduct9"
  top: "InnerProduct9"
}
layer {
  name: "InnerProduct10"
  type: "InnerProduct"
  bottom: "InnerProduct9"
  top: "InnerProduct10"
  param {
    name: "fc7_w"
    lr_mult: 1
  }
  param {
    name: "fc7_b"
    lr_mult: 2
  }
  inner_product_param {
    num_output: 256
    weight_filler {
      type: "xavier"
    }
    bias_filler {
      type: "constant"
    }
  }
}
layer {
  name: "ReLU26"
  type: "ReLU"
  bottom: "InnerProduct10"
  top: "InnerProduct10"
}
layer {
  name: "Concat2"
  type: "Concat"
  bottom: "InnerProduct8"
  bottom: "InnerProduct10"
  top: "Concat2"
  concat_param {
    axis: 1
  }
}
layer {
  name: "InnerProduct11"
  type: "InnerProduct"
  bottom: "Concat2"
  top: "InnerProduct11"
  param {
    name: "fc8_w"
    lr_mult: 1
  }
  param {
    name: "fc8_b"
    lr_mult: 2
  }
  inner_product_param {
    num_output: 256
    weight_filler {
      type: "xavier"
    }
    bias_filler {
      type: "constant"
    }
  }
}
layer {
  name: "ReLU27"
  type: "ReLU"
  bottom: "InnerProduct11"
  top: "InnerProduct11"
}
layer {
  name: "InnerProduct12"
  type: "InnerProduct"
  bottom: "InnerProduct11"
  top: "InnerProduct12"
  param {
    name: "fc9_w"
    lr_mult: 1
  }
  param {
    name: "fc9_b"
    lr_mult: 2
  }
  inner_product_param {
    num_output: 128
    weight_filler {
      type: "xavier"
    }
    bias_filler {
      type: "constant"
    }
  }
}
layer {
  name: "ReLU28"
  type: "ReLU"
  bottom: "InnerProduct12"
  top: "InnerProduct12"
}
layer {
  name: "dt1"
  type: "InnerProduct"
  bottom: "InnerProduct12"
  top: "dt1"
  param {
    name: "fc10_w"
    lr_mult: 1
  }
  param {
    name: "fc10_b"
    lr_mult: 2
  }
  inner_product_param {
    num_output: 1
    weight_filler {
      type: "xavier"
    }
    bias_filler {
      type: "constant"
    }
  }
}
layer {
  name: "conv1"
  type: "Convolution"
  bottom: "p1"
  top: "Convolution21"
  param {
    lr_mult: 0
    decay_mult: 0
  }
  param {
    lr_mult: 0
    decay_mult: 0
  }
  convolution_param {
    num_output: 96
    pad: 5
    kernel_size: 11
    group: 1
    stride: 4
    weight_filler {
      type: "gaussian"
      std: 0.01
    }
    bias_filler {
      type: "constant"
      value: 0
    }
  }
}
layer {
  name: "ReLU29"
  type: "ReLU"
  bottom: "Convolution21"
  top: "Convolution21"
}
layer {
  name: "norm1"
  type: "LRN"
  bottom: "Convolution21"
  top: "LRN9"
  lrn_param {
    local_size: 5
    alpha: 0.0001
    beta: 0.75
  }
}
layer {
  name: "pool1"
  type: "Pooling"
  bottom: "LRN9"
  top: "Pooling13"
  pooling_param {
    pool: MAX
    kernel_size: 3
    stride: 2
  }
}
layer {
  name: "conv2"
  type: "Convolution"
  bottom: "Pooling13"
  top: "Convolution22"
  param {
    lr_mult: 0
    decay_mult: 0
  }
  param {
    lr_mult: 0
    decay_mult: 0
  }
  convolution_param {
    num_output: 256
    pad: 2
    kernel_size: 5
    group: 2
    stride: 1
    weight_filler {
      type: "gaussian"
      std: 0.01
    }
    bias_filler {
      type: "constant"
      value: 0.1
    }
  }
}
layer {
  name: "ReLU30"
  type: "ReLU"
  bottom: "Convolution22"
  top: "Convolution22"
}
layer {
  name: "norm2"
  type: "LRN"
  bottom: "Convolution22"
  top: "LRN10"
  lrn_param {
    local_size: 5
    alpha: 0.0001
    beta: 0.75
  }
}
layer {
  name: "pool2"
  type: "Pooling"
  bottom: "LRN10"
  top: "Pooling14"
  pooling_param {
    pool: MAX
    kernel_size: 3
    stride: 2
  }
}
layer {
  name: "conv3"
  type: "Convolution"
  bottom: "Pooling14"
  top: "Convolution23"
  param {
    lr_mult: 0
    decay_mult: 0
  }
  param {
    lr_mult: 0
    decay_mult: 0
  }
  convolution_param {
    num_output: 384
    pad: 1
    kernel_size: 3
    group: 1
    stride: 1
    weight_filler {
      type: "gaussian"
      std: 0.01
    }
    bias_filler {
      type: "constant"
      value: 0
    }
  }
}
layer {
  name: "ReLU31"
  type: "ReLU"
  bottom: "Convolution23"
  top: "Convolution23"
}
layer {
  name: "conv4"
  type: "Convolution"
  bottom: "Convolution23"
  top: "Convolution24"
  param {
    lr_mult: 0
    decay_mult: 0
  }
  param {
    lr_mult: 0
    decay_mult: 0
  }
  convolution_param {
    num_output: 384
    pad: 1
    kernel_size: 3
    group: 2
    stride: 1
    weight_filler {
      type: "gaussian"
      std: 0.01
    }
    bias_filler {
      type: "constant"
      value: 0.1
    }
  }
}
layer {
  name: "ReLU32"
  type: "ReLU"
  bottom: "Convolution24"
  top: "Convolution24"
}
layer {
  name: "conv5"
  type: "Convolution"
  bottom: "Convolution24"
  top: "Convolution25"
  param {
    lr_mult: 0
    decay_mult: 0
  }
  param {
    lr_mult: 0
    decay_mult: 0
  }
  convolution_param {
    num_output: 256
    pad: 1
    kernel_size: 3
    group: 2
    stride: 1
    weight_filler {
      type: "gaussian"
      std: 0.01
    }
    bias_filler {
      type: "constant"
      value: 0.1
    }
  }
}
layer {
  name: "pool5"
  type: "Pooling"
  bottom: "Convolution25"
  top: "Pooling15"
  pooling_param {
    pool: MAX
    kernel_size: 3
    stride: 2
  }
}
layer {
  name: "InnerProduct13"
  type: "InnerProduct"
  bottom: "Pooling15"
  top: "InnerProduct13"
  param {
    name: "fc6_w"
    lr_mult: 1
  }
  param {
    name: "fc6_b"
    lr_mult: 2
  }
  inner_product_param {
    num_output: 256
    weight_filler {
      type: "xavier"
    }
    bias_filler {
      type: "constant"
    }
  }
}
layer {
  name: "ReLU33"
  type: "ReLU"
  bottom: "InnerProduct13"
  top: "InnerProduct13"
}
layer {
  name: "InnerProduct14"
  type: "InnerProduct"
  bottom: "InnerProduct13"
  top: "InnerProduct14"
  param {
    name: "fc7_w"
    lr_mult: 1
  }
  param {
    name: "fc7_b"
    lr_mult: 2
  }
  inner_product_param {
    num_output: 256
    weight_filler {
      type: "xavier"
    }
    bias_filler {
      type: "constant"
    }
  }
}
layer {
  name: "ReLU34"
  type: "ReLU"
  bottom: "InnerProduct14"
  top: "InnerProduct14"
}
layer {
  name: "conv1"
  type: "Convolution"
 
I0816 16:03:59.766497 20404 layer_factory.hpp:77] Creating layer data
I0816 16:03:59.767405 20404 net.cpp:91] Creating Layer data
I0816 16:03:59.767426 20404 net.cpp:399] data -> data
I0816 16:03:59.767464 20404 net.cpp:399] data -> label
I0816 16:03:59.767490 20404 data_transformer.cpp:25] Loading mean file from: examples/scene/scene_mean.binaryproto
I0816 16:03:59.768841 20412 db_lmdb.cpp:35] Opened lmdb examples/scene/train_pairs_1000_pad.lmdb
I0816 16:03:59.790372 20404 data_layer.cpp:41] output data size: 100,6,128,128
I0816 16:03:59.891811 20404 net.cpp:141] Setting up data
I0816 16:03:59.891862 20404 net.cpp:148] Top shape: 100 6 128 128 (9830400)
I0816 16:03:59.891873 20404 net.cpp:148] Top shape: 100 (100)
I0816 16:03:59.891882 20404 net.cpp:156] Memory required for data: 39322000
I0816 16:03:59.891898 20404 layer_factory.hpp:77] Creating layer label_data_1_split
I0816 16:03:59.891928 20404 net.cpp:91] Creating Layer label_data_1_split
I0816 16:03:59.891939 20404 net.cpp:425] label_data_1_split <- label
I0816 16:03:59.891957 20404 net.cpp:399] label_data_1_split -> label_data_1_split_0
I0816 16:03:59.891978 20404 net.cpp:399] label_data_1_split -> label_data_1_split_1
I0816 16:03:59.892051 20404 net.cpp:141] Setting up label_data_1_split
I0816 16:03:59.892067 20404 net.cpp:148] Top shape: 100 (100)
I0816 16:03:59.892078 20404 net.cpp:148] Top shape: 100 (100)
I0816 16:03:59.892089 20404 net.cpp:156] Memory required for data: 39322800
I0816 16:03:59.892099 20404 layer_factory.hpp:77] Creating layer th
I0816 16:03:59.892120 20404 net.cpp:91] Creating Layer th
I0816 16:03:59.892132 20404 net.cpp:425] th <- label_data_1_split_0
I0816 16:03:59.892143 20404 net.cpp:399] th -> th
I0816 16:03:59.892186 20404 net.cpp:141] Setting up th
I0816 16:03:59.892200 20404 net.cpp:148] Top shape: 100 (100)
I0816 16:03:59.892210 20404 net.cpp:156] Memory required for data: 39323200
I0816 16:03:59.892220 20404 layer_factory.hpp:77] Creating layer th_th_0_split
I0816 16:03:59.892230 20404 net.cpp:91] Creating Layer th_th_0_split
I0816 16:03:59.892238 20404 net.cpp:425] th_th_0_split <- th
I0816 16:03:59.892249 20404 net.cpp:399] th_th_0_split -> th_th_0_split_0
I0816 16:03:59.892282 20404 net.cpp:399] th_th_0_split -> th_th_0_split_1
I0816 16:03:59.892331 20404 net.cpp:141] Setting up th_th_0_split
I0816 16:03:59.892344 20404 net.cpp:148] Top shape: 100 (100)
I0816 16:03:59.892357 20404 net.cpp:148] Top shape: 100 (100)
I0816 16:03:59.892366 20404 net.cpp:156] Memory required for data: 39324000
I0816 16:03:59.892374 20404 layer_factory.hpp:77] Creating layer i1
I0816 16:03:59.892395 20404 net.cpp:91] Creating Layer i1
I0816 16:03:59.892403 20404 net.cpp:425] i1 <- data
I0816 16:03:59.892416 20404 net.cpp:399] i1 -> i1
I0816 16:03:59.892436 20404 net.cpp:399] i1 -> i2
I0816 16:03:59.892487 20404 net.cpp:141] Setting up i1
I0816 16:03:59.892498 20404 net.cpp:148] Top shape: 100 3 128 128 (4915200)
I0816 16:03:59.892511 20404 net.cpp:148] Top shape: 100 3 128 128 (4915200)
I0816 16:03:59.892521 20404 net.cpp:156] Memory required for data: 78645600
I0816 16:03:59.892529 20404 layer_factory.hpp:77] Creating layer i1_i1_0_split
I0816 16:03:59.892542 20404 net.cpp:91] Creating Layer i1_i1_0_split
I0816 16:03:59.892554 20404 net.cpp:425] i1_i1_0_split <- i1
I0816 16:03:59.892565 20404 net.cpp:399] i1_i1_0_split -> i1_i1_0_split_0
I0816 16:03:59.892582 20404 net.cpp:399] i1_i1_0_split -> i1_i1_0_split_1
I0816 16:03:59.892601 20404 net.cpp:399] i1_i1_0_split -> i1_i1_0_split_2
I0816 16:03:59.892618 20404 net.cpp:399] i1_i1_0_split -> i1_i1_0_split_3
I0816 16:03:59.892635 20404 net.cpp:399] i1_i1_0_split -> i1_i1_0_split_4
I0816 16:03:59.892652 20404 net.cpp:399] i1_i1_0_split -> i1_i1_0_split_5
I0816 16:03:59.892669 20404 net.cpp:399] i1_i1_0_split -> i1_i1_0_split_6
I0816 16:03:59.892686 20404 net.cpp:399] i1_i1_0_split -> i1_i1_0_split_7
I0816 16:03:59.892706 20404 net.cpp:399] i1_i1_0_split -> i1_i1_0_split_8
I0816 16:03:59.892724 20404 net.cpp:399] i1_i1_0_split -> i1_i1_0_split_9
I0816 16:03:59.892902 20404 net.cpp:141] Setting up i1_i1_0_split
I0816 16:03:59.892915 20404 net.cpp:148] Top shape: 100 3 128 128 (4915200)
I0816 16:03:59.892928 20404 net.cpp:148] Top shape: 100 3 128 128 (4915200)
I0816 16:03:59.892940 20404 net.cpp:148] Top shape: 100 3 128 128 (4915200)
I0816 16:03:59.892951 20404 net.cpp:148] Top shape: 100 3 128 128 (4915200)
I0816 16:03:59.892964 20404 net.cpp:148] Top shape: 100 3 128 128 (4915200)
I0816 16:03:59.892976 20404 net.cpp:148] Top shape: 100 3 128 128 (4915200)
I0816 16:03:59.892987 20404 net.cpp:148] Top shape: 100 3 128 128 (4915200)
I0816 16:03:59.893000 20404 net.cpp:148] Top shape: 100 3 128 128 (4915200)
I0816 16:03:59.893013 20404 net.cpp:148] Top shape: 100 3 128 128 (4915200)
I0816 16:03:59.893026 20404 net.cpp:148] Top shape: 100 3 128 128 (4915200)
I0816 16:03:59.893036 20404 net.cpp:156] Memory required for data: 275253600
I0816 16:03:59.893044 20404 layer_factory.hpp:77] Creating layer i2_i1_1_split
I0816 16:03:59.893059 20404 net.cpp:91] Creating Layer i2_i1_1_split
I0816 16:03:59.893069 20404 net.cpp:425] i2_i1_1_split <- i2
I0816 16:03:59.893082 20404 net.cpp:399] i2_i1_1_split -> i2_i1_1_split_0
I0816 16:03:59.893100 20404 net.cpp:399] i2_i1_1_split -> i2_i1_1_split_1
I0816 16:03:59.893120 20404 net.cpp:399] i2_i1_1_split -> i2_i1_1_split_2
I0816 16:03:59.893137 20404 net.cpp:399] i2_i1_1_split -> i2_i1_1_split_3
I0816 16:03:59.893154 20404 net.cpp:399] i2_i1_1_split -> i2_i1_1_split_4
I0816 16:03:59.893172 20404 net.cpp:399] i2_i1_1_split -> i2_i1_1_split_5
I0816 16:03:59.893189 20404 net.cpp:399] i2_i1_1_split -> i2_i1_1_split_6
I0816 16:03:59.893206 20404 net.cpp:399] i2_i1_1_split -> i2_i1_1_split_7
I0816 16:03:59.893224 20404 net.cpp:399] i2_i1_1_split -> i2_i1_1_split_8
I0816 16:03:59.893240 20404 net.cpp:399] i2_i1_1_split -> i2_i1_1_split_9
I0816 16:03:59.899155 20404 net.cpp:141] Setting up i2_i1_1_split
I0816 16:03:59.899174 20404 net.cpp:148] Top shape: 100 3 128 128 (4915200)
I0816 16:03:59.899184 20404 net.cpp:148] Top shape: 100 3 128 128 (4915200)
I0816 16:03:59.899196 20404 net.cpp:148] Top shape: 100 3 128 128 (4915200)
I0816 16:03:59.899206 20404 net.cpp:148] Top shape: 100 3 128 128 (4915200)
I0816 16:03:59.899232 20404 net.cpp:148] Top shape: 100 3 128 128 (4915200)
I0816 16:03:59.899245 20404 net.cpp:148] Top shape: 100 3 128 128 (4915200)
I0816 16:03:59.899256 20404 net.cpp:148] Top shape: 100 3 128 128 (4915200)
I0816 16:03:59.899267 20404 net.cpp:148] Top shape: 100 3 128 128 (4915200)
I0816 16:03:59.899322 20404 net.cpp:148] Top shape: 100 3 128 128 (4915200)
I0816 16:03:59.899340 20404 net.cpp:148] Top shape: 100 3 128 128 (4915200)
I0816 16:03:59.899354 20404 net.cpp:156] Memory required for data: 471861600
I0816 16:03:59.899369 20404 layer_factory.hpp:77] Creating layer p1
I0816 16:03:59.899394 20404 net.cpp:91] Creating Layer p1
I0816 16:03:59.899410 20404 net.cpp:425] p1 <- i1_i1_0_split_0
I0816 16:03:59.899427 20404 net.cpp:399] p1 -> p1
I0816 16:03:59.899500 20404 net.cpp:141] Setting up p1
I0816 16:03:59.899518 20404 net.cpp:148] Top shape: 100 3 64 64 (1228800)
I0816 16:03:59.899533 20404 net.cpp:156] Memory required for data: 476776800
I0816 16:03:59.899547 20404 layer_factory.hpp:77] Creating layer p1_p1_0_split
I0816 16:03:59.899571 20404 net.cpp:91] Creating Layer p1_p1_0_split
I0816 16:03:59.899585 20404 net.cpp:425] p1_p1_0_split <- p1
I0816 16:03:59.899605 20404 net.cpp:399] p1_p1_0_split -> p1_p1_0_split_0
I0816 16:03:59.899631 20404 net.cpp:399] p1_p1_0_split -> p1_p1_0_split_1
I0816 16:03:59.899658 20404 net.cpp:399] p1_p1_0_split -> p1_p1_0_split_2
I0816 16:03:59.899693 20404 net.cpp:399] p1_p1_0_split -> p1_p1_0_split_3
I0816 16:03:59.899718 20404 net.cpp:399] p1_p1_0_split -> p1_p1_0_split_4
I0816 16:03:59.899744 20404 net.cpp:399] p1_p1_0_split -> p1_p1_0_split_5
I0816 16:03:59.899770 20404 net.cpp:399] p1_p1_0_split -> p1_p1_0_split_6
I0816 16:03:59.899797 20404 net.cpp:399] p1_p1_0_split -> p1_p1_0_split_7
I0816 16:03:59.899823 20404 net.cpp:399] p1_p1_0_split -> p1_p1_0_split_8
I0816 16:03:59.899852 20404 net.cpp:399] p1_p1_0_split -> p1_p1_0_split_9
I0816 16:03:59.900099 20404 net.cpp:141] Setting up p1_p1_0_split
I0816 16:03:59.900117 20404 net.cpp:148] Top shape: 100 3 64 64 (1228800)
I0816 16:03:59.900133 20404 net.cpp:148] Top shape: 100 3 64 64 (1228800)
I0816 16:03:59.900151 20404 net.cpp:148] Top shape: 100 3 64 64 (1228800)
I0816 16:03:59.900166 20404 net.cpp:148] Top shape: 100 3 64 64 (1228800)
I0816 16:03:59.900180 20404 net.cpp:148] Top shape: 100 3 64 64 (1228800)
I0816 16:03:59.900195 20404 net.cpp:148] Top shape: 100 3 64 64 (1228800)
I0816 16:03:59.900212 20404 net.cpp:148] Top shape: 100 3 64 64 (1228800)
I0816 16:03:59.900226 20404 net.cpp:148] Top shape: 100 3 64 64 (1228800)
I0816 16:03:59.900243 20404 net.cpp:148] Top shape: 100 3 64 64 (1228800)
I0816 16:03:59.900257 20404 net.cpp:148] Top shape: 100 3 64 64 (1228800)
I0816 16:03:59.900269 20404 net.cpp:156] Memory required for data: 525928800
I0816 16:03:59.900280 20404 layer_factory.hpp:77] Creating layer p2
I0816 16:03:59.900296 20404 net.cpp:91] Creating Layer p2
I0816 16:03:59.900308 20404 net.cpp:425] p2 <- i2_i1_1_split_0
I0816 16:03:59.900326 20404 net.cpp:399] p2 -> p2
I0816 16:03:59.900378 20404 net.cpp:141] Setting up p2
I0816 16:03:59.900395 20404 net.cpp:148] Top shape: 100 3 64 64 (1228800)
I0816 16:03:59.900408 20404 net.cpp:156] Memory required for data: 530844000
I0816 16:03:59.900418 20404 layer_factory.hpp:77] Creating layer p2_p2_0_split
I0816 16:03:59.900434 20404 net.cpp:91] Creating Layer p2_p2_0_split
I0816 16:03:59.900446 20404 net.cpp:425] p2_p2_0_split <- p2
I0816 16:03:59.900465 20404 net.cpp:399] p2_p2_0_split -> p2_p2_0_split_0
I0816 16:03:59.900487 20404 net.cpp:399] p2_p2_0_split -> p2_p2_0_split_1
I0816 16:03:59.900511 20404 net.cpp:399] p2_p2_0_split -> p2_p2_0_split_2
I0816 16:03:59.900538 20404 net.cpp:399] p2_p2_0_split -> p2_p2_0_split_3
I0816 16:03:59.900564 20404 net.cpp:399] p2_p2_0_split -> p2_p2_0_split_4
I0816 16:03:59.900591 20404 net.cpp:399] p2_p2_0_split -> p2_p2_0_split_5
I0816 16:03:59.900619 20404 net.cpp:399] p2_p2_0_split -> p2_p2_0_split_6
I0816 16:03:59.900642 20404 net.cpp:399] p2_p2_0_split -> p2_p2_0_split_7
I0816 16:03:59.900666 20404 net.cpp:399] p2_p2_0_split -> p2_p2_0_split_8
I0816 16:03:59.900713 20404 net.cpp:399] p2_p2_0_split -> p2_p2_0_split_9
I0816 16:03:59.900995 20404 net.cpp:141] Setting up p2_p2_0_split
I0816 16:03:59.901017 20404 net.cpp:148] Top shape: 100 3 64 64 (1228800)
I0816 16:03:59.901031 20404 net.cpp:148] Top shape: 100 3 64 64 (1228800)
I0816 16:03:59.901046 20404 net.cpp:148] Top shape: 100 3 64 64 (1228800)
I0816 16:03:59.901060 20404 net.cpp:148] Top shape: 100 3 64 64 (1228800)
I0816 16:03:59.901075 20404 net.cpp:148] Top shape: 100 3 64 64 (1228800)
I0816 16:03:59.901089 20404 net.cpp:148] Top shape: 100 3 64 64 (1228800)
I0816 16:03:59.901103 20404 net.cpp:148] Top shape: 100 3 64 64 (1228800)
I0816 16:03:59.901118 20404 net.cpp:148] Top shape: 100 3 64 64 (1228800)
I0816 16:03:59.901131 20404 net.cpp:148] Top shape: 100 3 64 64 (1228800)
I0816 16:03:59.901145 20404 net.cpp:148] Top shape: 100 3 64 64 (1228800)
I0816 16:03:59.901155 20404 net.cpp:156] Memory required for data: 579996000
I0816 16:03:59.901166 20404 layer_factory.hpp:77] Creating layer Input1
I0816 16:03:59.901185 20404 net.cpp:91] Creating Layer Input1
I0816 16:03:59.901201 20404 net.cpp:399] Input1 -> Input1
I0816 16:03:59.901275 20404 net.cpp:141] Setting up Input1
I0816 16:03:59.901296 20404 net.cpp:148] Top shape: 100 3 64 64 (1228800)
I0816 16:03:59.901310 20404 net.cpp:156] Memory required for data: 584911200
I0816 16:03:59.901324 20404 layer_factory.hpp:77] Creating layer c11
I0816 16:03:59.901353 20404 net.cpp:91] Creating Layer c11
I0816 16:03:59.901366 20404 net.cpp:425] c11 <- i1_i1_0_split_1
I0816 16:03:59.901381 20404 net.cpp:425] c11 <- Input1
I0816 16:03:59.901398 20404 net.cpp:399] c11 -> c11
I0816 16:03:59.901463 20404 net.cpp:141] Setting up c11
I0816 16:03:59.901479 20404 net.cpp:148] Top shape: 100 3 64 64 (1228800)
I0816 16:03:59.901490 20404 net.cpp:156] Memory required for data: 589826400
I0816 16:03:59.901501 20404 layer_factory.hpp:77] Creating layer Input2
I0816 16:03:59.901517 20404 net.cpp:91] Creating Layer Input2
I0816 16:03:59.901532 20404 net.cpp:399] Input2 -> Input2
I0816 16:03:59.901585 20404 net.cpp:141] Setting up Input2
I0816 16:03:59.901602 20404 net.cpp:148] Top shape: 100 3 64 64 (1228800)
I0816 16:03:59.901612 20404 net.cpp:156] Memory required for data: 594741600
I0816 16:03:59.901623 20404 layer_factory.hpp:77] Creating layer c12
I0816 16:03:59.901639 20404 net.cpp:91] Creating Layer c12
I0816 16:03:59.901650 20404 net.cpp:425] c12 <- i1_i1_0_split_2
I0816 16:03:59.901666 20404 net.cpp:425] c12 <- Input2
I0816 16:03:59.901684 20404 net.cpp:399] c12 -> c12
I0816 16:03:59.901739 20404 net.cpp:141] Setting up c12
I0816 16:03:59.901764 20404 net.cpp:148] Top shape: 100 3 64 64 (1228800)
I0816 16:03:59.901778 20404 net.cpp:156] Memory required for data: 599656800
I0816 16:03:59.901789 20404 layer_factory.hpp:77] Creating layer Input3
I0816 16:03:59.901804 20404 net.cpp:91] Creating Layer Input3
I0816 16:03:59.901819 20404 net.cpp:399] Input3 -> Input3
I0816 16:03:59.901872 20404 net.cpp:141] Setting up Input3
I0816 16:03:59.901888 20404 net.cpp:148] Top shape: 100 3 64 64 (1228800)
I0816 16:03:59.901898 20404 net.cpp:156] Memory required for data: 604572000
I0816 16:03:59.901909 20404 layer_factory.hpp:77] Creating layer c13
I0816 16:03:59.901931 20404 net.cpp:91] Creating Layer c13
I0816 16:03:59.901942 20404 net.cpp:425] c13 <- i1_i1_0_split_3
I0816 16:03:59.901957 20404 net.cpp:425] c13 <- Input3
I0816 16:03:59.901975 20404 net.cpp:399] c13 -> c13
I0816 16:03:59.902029 20404 net.cpp:141] Setting up c13
I0816 16:03:59.902046 20404 net.cpp:148] Top shape: 100 3 64 64 (1228800)
I0816 16:03:59.902056 20404 net.cpp:156] Memory required for data: 609487200
I0816 16:03:59.902067 20404 layer_factory.hpp:77] Creating layer Input4
I0816 16:03:59.902084 20404 net.cpp:91] Creating Layer Input4
I0816 16:03:59.902099 20404 net.cpp:399] Input4 -> Input4
I0816 16:03:59.902151 20404 net.cpp:141] Setting up Input4
I0816 16:03:59.902168 20404 net.cpp:148] Top shape: 100 3 64 64 (1228800)
I0816 16:03:59.902179 20404 net.cpp:156] Memory required for data: 614402400
I0816 16:03:59.902209 20404 layer_factory.hpp:77] Creating layer c14
I0816 16:03:59.902225 20404 net.cpp:91] Creating Layer c14
I0816 16:03:59.902237 20404 net.cpp:425] c14 <- i1_i1_0_split_4
I0816 16:03:59.902252 20404 net.cpp:425] c14 <- Input4
I0816 16:03:59.902269 20404 net.cpp:399] c14 -> c14
I0816 16:03:59.902323 20404 net.cpp:141] Setting up c14
I0816 16:03:59.902339 20404 net.cpp:148] Top shape: 100 3 64 64 (1228800)
I0816 16:03:59.902350 20404 net.cpp:156] Memory required for data: 619317600
I0816 16:03:59.902361 20404 layer_factory.hpp:77] Creating layer Input5
I0816 16:03:59.902377 20404 net.cpp:91] Creating Layer Input5
I0816 16:03:59.902391 20404 net.cpp:399] Input5 -> Input5
I0816 16:03:59.902443 20404 net.cpp:141] Setting up Input5
I0816 16:03:59.902462 20404 net.cpp:148] Top shape: 100 3 64 64 (1228800)
I0816 16:03:59.902473 20404 net.cpp:156] Memory required for data: 624232800
I0816 16:03:59.902483 20404 layer_factory.hpp:77] Creating layer c15
I0816 16:03:59.902498 20404 net.cpp:91] Creating Layer c15
I0816 16:03:59.902508 20404 net.cpp:425] c15 <- i1_i1_0_split_5
I0816 16:03:59.902523 20404 net.cpp:425] c15 <- Input5
I0816 16:03:59.902539 20404 net.cpp:399] c15 -> c15
I0816 16:03:59.902591 20404 net.cpp:141] Setting up c15
I0816 16:03:59.902607 20404 net.cpp:148] Top shape: 100 3 64 64 (1228800)
I0816 16:03:59.902618 20404 net.cpp:156] Memory required for data: 629148000
I0816 16:03:59.902629 20404 layer_factory.hpp:77] Creating layer Input6
I0816 16:03:59.902644 20404 net.cpp:91] Creating Layer Input6
I0816 16:03:59.902660 20404 net.cpp:399] Input6 -> Input6
I0816 16:03:59.902712 20404 net.cpp:141] Setting up Input6
I0816 16:03:59.902732 20404 net.cpp:148] Top shape: 100 3 64 64 (1228800)
I0816 16:03:59.902743 20404 net.cpp:156] Memory required for data: 634063200
I0816 16:03:59.902755 20404 layer_factory.hpp:77] Creating layer c16
I0816 16:03:59.902770 20404 net.cpp:91] Creating Layer c16
I0816 16:03:59.902782 20404 net.cpp:425] c16 <- i1_i1_0_split_6
I0816 16:03:59.902798 20404 net.cpp:425] c16 <- Input6
I0816 16:03:59.902817 20404 net.cpp:399] c16 -> c16
I0816 16:03:59.902868 20404 net.cpp:141] Setting up c16
I0816 16:03:59.902885 20404 net.cpp:148] Top shape: 100 3 64 64 (1228800)
I0816 16:03:59.902896 20404 net.cpp:156] Memory required for data: 638978400
I0816 16:03:59.902907 20404 layer_factory.hpp:77] Creating layer Input7
I0816 16:03:59.902923 20404 net.cpp:91] Creating Layer Input7
I0816 16:03:59.902940 20404 net.cpp:399] Input7 -> Input7
I0816 16:03:59.902989 20404 net.cpp:141] Setting up Input7
I0816 16:03:59.903007 20404 net.cpp:148] Top shape: 100 3 64 64 (1228800)
I0816 16:03:59.903018 20404 net.cpp:156] Memory required for data: 643893600
I0816 16:03:59.903029 20404 layer_factory.hpp:77] Creating layer c17
I0816 16:03:59.903045 20404 net.cpp:91] Creating Layer c17
I0816 16:03:59.903059 20404 net.cpp:425] c17 <- i1_i1_0_split_7
I0816 16:03:59.903074 20404 net.cpp:425] c17 <- Input7
I0816 16:03:59.903090 20404 net.cpp:399] c17 -> c17
I0816 16:03:59.903152 20404 net.cpp:141] Setting up c17
I0816 16:03:59.903172 20404 net.cpp:148] Top shape: 100 3 64 64 (1228800)
I0816 16:03:59.903183 20404 net.cpp:156] Memory required for data: 648808800
I0816 16:03:59.903194 20404 layer_factory.hpp:77] Creating layer Input8
I0816 16:03:59.903210 20404 net.cpp:91] Creating Layer Input8
I0816 16:03:59.903225 20404 net.cpp:399] Input8 -> Input8
I0816 16:03:59.903286 20404 net.cpp:141] Setting up Input8
I0816 16:03:59.903306 20404 net.cpp:148] Top shape: 100 3 64 64 (1228800)
I0816 16:03:59.903317 20404 net.cpp:156] Memory required for data: 653724000
I0816 16:03:59.903329 20404 layer_factory.hpp:77] Creating layer c18
I0816 16:03:59.903345 20404 net.cpp:91] Creating Layer c18
I0816 16:03:59.903357 20404 net.cpp:425] c18 <- i1_i1_0_split_8
I0816 16:03:59.903375 20404 net.cpp:425] c18 <- Input8
I0816 16:03:59.903393 20404 net.cpp:399] c18 -> c18
I0816 16:03:59.903445 20404 net.cpp:141] Setting up c18
I0816 16:03:59.903463 20404 net.cpp:148] Top shape: 100 3 64 64 (1228800)
I0816 16:03:59.903496 20404 net.cpp:156] Memory required for data: 658639200
I0816 16:03:59.903508 20404 layer_factory.hpp:77] Creating layer Input9
I0816 16:03:59.903524 20404 net.cpp:91] Creating Layer Input9
I0816 16:03:59.903539 20404 net.cpp:399] Input9 -> Input9
I0816 16:03:59.903592 20404 net.cpp:141] Setting up Input9
I0816 16:03:59.903610 20404 net.cpp:148] Top shape: 100 3 64 64 (1228800)
I0816 16:03:59.903621 20404 net.cpp:156] Memory required for data: 663554400
I0816 16:03:59.903632 20404 layer_factory.hpp:77] Creating layer c19
I0816 16:03:59.903647 20404 net.cpp:91] Creating Layer c19
I0816 16:03:59.903661 20404 net.cpp:425] c19 <- i1_i1_0_split_9
I0816 16:03:59.903676 20404 net.cpp:425] c19 <- Input9
I0816 16:03:59.903692 20404 net.cpp:399] c19 -> c19
I0816 16:03:59.903743 20404 net.cpp:141] Setting up c19
I0816 16:03:59.903761 20404 net.cpp:148] Top shape: 100 3 64 64 (1228800)
I0816 16:03:59.903772 20404 net.cpp:156] Memory required for data: 668469600
I0816 16:03:59.903784 20404 layer_factory.hpp:77] Creating layer Input10
I0816 16:03:59.903800 20404 net.cpp:91] Creating Layer Input10
I0816 16:03:59.903815 20404 net.cpp:399] Input10 -> Input10
I0816 16:03:59.903864 20404 net.cpp:141] Setting up Input10
I0816 16:03:59.903882 20404 net.cpp:148] Top shape: 100 3 64 64 (1228800)
I0816 16:03:59.903893 20404 net.cpp:156] Memory required for data: 673384800
I0816 16:03:59.903904 20404 layer_factory.hpp:77] Creating layer c21
I0816 16:03:59.903920 20404 net.cpp:91] Creating Layer c21
I0816 16:03:59.903933 20404 net.cpp:425] c21 <- i2_i1_1_split_1
I0816 16:03:59.903949 20404 net.cpp:425] c21 <- Input10
I0816 16:03:59.903965 20404 net.cpp:399] c21 -> c21
I0816 16:03:59.904016 20404 net.cpp:141] Setting up c21
I0816 16:03:59.904033 20404 net.cpp:148] Top shape: 100 3 64 64 (1228800)
I0816 16:03:59.904045 20404 net.cpp:156] Memory required for data: 678300000
I0816 16:03:59.904057 20404 layer_factory.hpp:77] Creating layer Input11
I0816 16:03:59.904072 20404 net.cpp:91] Creating Layer Input11
I0816 16:03:59.904086 20404 net.cpp:399] Input11 -> Input11
I0816 16:03:59.904136 20404 net.cpp:141] Setting up Input11
I0816 16:03:59.904155 20404 net.cpp:148] Top shape: 100 3 64 64 (1228800)
I0816 16:03:59.904165 20404 net.cpp:156] Memory required for data: 683215200
I0816 16:03:59.904176 20404 layer_factory.hpp:77] Creating layer c22
I0816 16:03:59.904201 20404 net.cpp:91] Creating Layer c22
I0816 16:03:59.904212 20404 net.cpp:425] c22 <- i2_i1_1_split_2
I0816 16:03:59.904227 20404 net.cpp:425] c22 <- Input11
I0816 16:03:59.904245 20404 net.cpp:399] c22 -> c22
I0816 16:03:59.904296 20404 net.cpp:141] Setting up c22
I0816 16:03:59.904315 20404 net.cpp:148] Top shape: 100 3 64 64 (1228800)
I0816 16:03:59.904326 20404 net.cpp:156] Memory required for data: 688130400
I0816 16:03:59.904338 20404 layer_factory.hpp:77] Creating layer Input12
I0816 16:03:59.904355 20404 net.cpp:91] Creating Layer Input12
I0816 16:03:59.904369 20404 net.cpp:399] Input12 -> Input12
I0816 16:03:59.904422 20404 net.cpp:141] Setting up Input12
I0816 16:03:59.904439 20404 net.cpp:148] Top shape: 100 3 64 64 (1228800)
I0816 16:03:59.904450 20404 net.cpp:156] Memory required for data: 693045600
I0816 16:03:59.904461 20404 layer_factory.hpp:77] Creating layer c23
I0816 16:03:59.904477 20404 net.cpp:91] Creating Layer c23
I0816 16:03:59.904490 20404 net.cpp:425] c23 <- i2_i1_1_split_3
I0816 16:03:59.904506 20404 net.cpp:425] c23 <- Input12
I0816 16:03:59.904523 20404 net.cpp:399] c23 -> c23
I0816 16:03:59.904573 20404 net.cpp:141] Setting up c23
I0816 16:03:59.904592 20404 net.cpp:148] Top shape: 100 3 64 64 (1228800)
I0816 16:03:59.904603 20404 net.cpp:156] Memory required for data: 697960800
I0816 16:03:59.904614 20404 layer_factory.hpp:77] Creating layer Input13
I0816 16:03:59.904630 20404 net.cpp:91] Creating Layer Input13
I0816 16:03:59.904646 20404 net.cpp:399] Input13 -> Input13
I0816 16:03:59.904698 20404 net.cpp:141] Setting up Input13
I0816 16:03:59.904717 20404 net.cpp:148] Top shape: 100 3 64 64 (1228800)
I0816 16:03:59.904728 20404 net.cpp:156] Memory required for data: 702876000
I0816 16:03:59.904759 20404 layer_factory.hpp:77] Creating layer c24
I0816 16:03:59.904777 20404 net.cpp:91] Creating Layer c24
I0816 16:03:59.904788 20404 net.cpp:425] c24 <- i2_i1_1_split_4
I0816 16:03:59.904803 20404 net.cpp:425] c24 <- Input13
I0816 16:03:59.904821 20404 net.cpp:399] c24 -> c24
I0816 16:03:59.904872 20404 net.cpp:141] Setting up c24
I0816 16:03:59.904891 20404 net.cpp:148] Top shape: 100 3 64 64 (1228800)
I0816 16:03:59.904902 20404 net.cpp:156] Memory required for data: 707791200
I0816 16:03:59.904913 20404 layer_factory.hpp:77] Creating layer Input14
I0816 16:03:59.904929 20404 net.cpp:91] Creating Layer Input14
I0816 16:03:59.904945 20404 net.cpp:399] Input14 -> Input14
I0816 16:03:59.904994 20404 net.cpp:141] Setting up Input14
I0816 16:03:59.905012 20404 net.cpp:148] Top shape: 100 3 64 64 (1228800)
I0816 16:03:59.905024 20404 net.cpp:156] Memory required for data: 712706400
I0816 16:03:59.905035 20404 layer_factory.hpp:77] Creating layer c25
I0816 16:03:59.905050 20404 net.cpp:91] Creating Layer c25
I0816 16:03:59.905062 20404 net.cpp:425] c25 <- i2_i1_1_split_5
I0816 16:03:59.905077 20404 net.cpp:425] c25 <- Input14
I0816 16:03:59.905094 20404 net.cpp:399] c25 -> c25
I0816 16:03:59.905146 20404 net.cpp:141] Setting up c25
I0816 16:03:59.905164 20404 net.cpp:148] Top shape: 100 3 64 64 (1228800)
I0816 16:03:59.905175 20404 net.cpp:156] Memory required for data: 717621600
I0816 16:03:59.905186 20404 layer_factory.hpp:77] Creating layer Input15
I0816 16:03:59.905202 20404 net.cpp:91] Creating Layer Input15
I0816 16:03:59.905217 20404 net.cpp:399] Input15 -> Input15
I0816 16:03:59.905268 20404 net.cpp:141] Setting up Input15
I0816 16:03:59.905287 20404 net.cpp:148] Top shape: 100 3 64 64 (1228800)
I0816 16:03:59.905297 20404 net.cpp:156] Memory required for data: 722536800
I0816 16:03:59.905308 20404 layer_factory.hpp:77] Creating layer c26
I0816 16:03:59.905326 20404 net.cpp:91] Creating Layer c26
I0816 16:03:59.905339 20404 net.cpp:425] c26 <- i2_i1_1_split_6
I0816 16:03:59.905354 20404 net.cpp:425] c26 <- Input15
I0816 16:03:59.905371 20404 net.cpp:399] c26 -> c26
I0816 16:03:59.905421 20404 net.cpp:141] Setting up c26
I0816 16:03:59.905439 20404 net.cpp:148] Top shape: 100 3 64 64 (1228800)
I0816 16:03:59.905452 20404 net.cpp:156] Memory required for data: 727452000
I0816 16:03:59.905462 20404 layer_factory.hpp:77] Creating layer Input16
I0816 16:03:59.905478 20404 net.cpp:91] Creating Layer Input16
I0816 16:03:59.905493 20404 net.cpp:399] Input16 -> Input16
I0816 16:03:59.905541 20404 net.cpp:141] Setting up Input16
I0816 16:03:59.905560 20404 net.cpp:148] Top shape: 100 3 64 64 (1228800)
I0816 16:03:59.905570 20404 net.cpp:156] Memory required for data: 732367200
I0816 16:03:59.905581 20404 layer_factory.hpp:77] Creating layer c27
I0816 16:03:59.905597 20404 net.cpp:91] Creating Layer c27
I0816 16:03:59.905609 20404 net.cpp:425] c27 <- i2_i1_1_split_7
I0816 16:03:59.905625 20404 net.cpp:425] c27 <- Input16
I0816 16:03:59.905642 20404 net.cpp:399] c27 -> c27
I0816 16:03:59.905694 20404 net.cpp:141] Setting up c27
I0816 16:03:59.905712 20404 net.cpp:148] Top shape: 100 3 64 64 (1228800)
I0816 16:03:59.905725 20404 net.cpp:156] Memory required for data: 737282400
I0816 16:03:59.905735 20404 layer_factory.hpp:77] Creating layer Input17
I0816 16:03:59.905751 20404 net.cpp:91] Creating Layer Input17
I0816 16:03:59.905766 20404 net.cpp:399] Input17 -> Input17
I0816 16:03:59.905818 20404 net.cpp:141] Setting up Input17
I0816 16:03:59.905835 20404 net.cpp:148] Top shape: 100 3 64 64 (1228800)
I0816 16:03:59.905848 20404 net.cpp:156] Memory required for data: 742197600
I0816 16:03:59.905858 20404 layer_factory.hpp:77] Creating layer c28
I0816 16:03:59.905874 20404 net.cpp:91] Creating Layer c28
I0816 16:03:59.905886 20404 net.cpp:425] c28 <- i2_i1_1_split_8
I0816 16:03:59.905902 20404 net.cpp:425] c28 <- Input17
I0816 16:03:59.905920 20404 net.cpp:399] c28 -> c28
I0816 16:03:59.905972 20404 net.cpp:141] Setting up c28
I0816 16:03:59.905989 20404 net.cpp:148] Top shape: 100 3 64 64 (1228800)
I0816 16:03:59.906018 20404 net.cpp:156] Memory required for data: 747112800
I0816 16:03:59.906030 20404 layer_factory.hpp:77] Creating layer Input18
I0816 16:03:59.906047 20404 net.cpp:91] Creating Layer Input18
I0816 16:03:59.906062 20404 net.cpp:399] Input18 -> Input18
I0816 16:03:59.906113 20404 net.cpp:141] Setting up Input18
I0816 16:03:59.906131 20404 net.cpp:148] Top shape: 100 3 64 64 (1228800)
I0816 16:03:59.906142 20404 net.cpp:156] Memory required for data: 752028000
I0816 16:03:59.906154 20404 layer_factory.hpp:77] Creating layer c29
I0816 16:03:59.906170 20404 net.cpp:91] Creating Layer c29
I0816 16:03:59.906183 20404 net.cpp:425] c29 <- i2_i1_1_split_9
I0816 16:03:59.906198 20404 net.cpp:425] c29 <- Input18
I0816 16:03:59.906215 20404 net.cpp:399] c29 -> c29
I0816 16:03:59.906266 20404 net.cpp:141] Setting up c29
I0816 16:03:59.906285 20404 net.cpp:148] Top shape: 100 3 64 64 (1228800)
I0816 16:03:59.906296 20404 net.cpp:156] Memory required for data: 756943200
I0816 16:03:59.906306 20404 layer_factory.hpp:77] Creating layer conv1
I0816 16:03:59.906339 20404 net.cpp:91] Creating Layer conv1
I0816 16:03:59.906355 20404 net.cpp:425] conv1 <- p1_p1_0_split_0
I0816 16:03:59.906375 20404 net.cpp:399] conv1 -> Convolution1
I0816 16:03:59.910224 20404 net.cpp:141] Setting up conv1
I0816 16:03:59.910255 20404 net.cpp:148] Top shape: 100 96 16 16 (2457600)
I0816 16:03:59.910269 20404 net.cpp:156] Memory required for data: 766773600
I0816 16:03:59.910305 20404 layer_factory.hpp:77] Creating layer ReLU1
I0816 16:03:59.910328 20404 net.cpp:91] Creating Layer ReLU1
I0816 16:03:59.910342 20404 net.cpp:425] ReLU1 <- Convolution1
I0816 16:03:59.910359 20404 net.cpp:386] ReLU1 -> Convolution1 (in-place)
I0816 16:03:59.910380 20404 net.cpp:141] Setting up ReLU1
I0816 16:03:59.910398 20404 net.cpp:148] Top shape: 100 96 16 16 (2457600)
I0816 16:03:59.910409 20404 net.cpp:156] Memory required for data: 776604000
I0816 16:03:59.910420 20404 layer_factory.hpp:77] Creating layer norm1
I0816 16:03:59.910437 20404 net.cpp:91] Creating Layer norm1
I0816 16:03:59.910449 20404 net.cpp:425] norm1 <- Convolution1
I0816 16:03:59.910466 20404 net.cpp:399] norm1 -> LRN1
I0816 16:03:59.910537 20404 net.cpp:141] Setting up norm1
I0816 16:03:59.910555 20404 net.cpp:148] Top shape: 100 96 16 16 (2457600)
I0816 16:03:59.910567 20404 net.cpp:156] Memory required for data: 786434400
I0816 16:03:59.910578 20404 layer_factory.hpp:77] Creating layer pool1
I0816 16:03:59.910595 20404 net.cpp:91] Creating Layer pool1
I0816 16:03:59.910607 20404 net.cpp:425] pool1 <- LRN1
I0816 16:03:59.910625 20404 net.cpp:399] pool1 -> Pooling1
I0816 16:03:59.910701 20404 net.cpp:141] Setting up pool1
I0816 16:03:59.910718 20404 net.cpp:148] Top shape: 100 96 8 8 (614400)
I0816 16:03:59.910729 20404 net.cpp:156] Memory required for data: 788892000
I0816 16:03:59.910742 20404 layer_factory.hpp:77] Creating layer conv2
I0816 16:03:59.910765 20404 net.cpp:91] Creating Layer conv2
I0816 16:03:59.910778 20404 net.cpp:425] conv2 <- Pooling1
I0816 16:03:59.910796 20404 net.cpp:399] conv2 -> Convolution2
I0816 16:03:59.926650 20404 net.cpp:141] Setting up conv2
I0816 16:03:59.926679 20404 net.cpp:148] Top shape: 100 256 8 8 (1638400)
I0816 16:03:59.926688 20404 net.cpp:156] Memory required for data: 795445600
I0816 16:03:59.926712 20404 layer_factory.hpp:77] Creating layer ReLU2
I0816 16:03:59.926726 20404 net.cpp:91] Creating Layer ReLU2
I0816 16:03:59.926736 20404 net.cpp:425] ReLU2 <- Convolution2
I0816 16:03:59.926753 20404 net.cpp:386] ReLU2 -> Convolution2 (in-place)
I0816 16:03:59.926769 20404 net.cpp:141] Setting up ReLU2
I0816 16:03:59.926779 20404 net.cpp:148] Top shape: 100 256 8 8 (1638400)
I0816 16:03:59.926785 20404 net.cpp:156] Memory required for data: 801999200
I0816 16:03:59.926794 20404 layer_factory.hpp:77] Creating layer norm2
I0816 16:03:59.926805 20404 net.cpp:91] Creating Layer norm2
I0816 16:03:59.926813 20404 net.cpp:425] norm2 <- Convolution2
I0816 16:03:59.926827 20404 net.cpp:399] norm2 -> LRN2
I0816 16:03:59.926885 20404 net.cpp:141] Setting up norm2
I0816 16:03:59.926915 20404 net.cpp:148] Top shape: 100 256 8 8 (1638400)
I0816 16:03:59.926923 20404 net.cpp:156] Memory required for data: 808552800
I0816 16:03:59.926931 20404 layer_factory.hpp:77] Creating layer pool2
I0816 16:03:59.926944 20404 net.cpp:91] Creating Layer pool2
I0816 16:03:59.926951 20404 net.cpp:425] pool2 <- LRN2
I0816 16:03:59.926964 20404 net.cpp:399] pool2 -> Pooling2
I0816 16:03:59.927017 20404 net.cpp:141] Setting up pool2
I0816 16:03:59.927031 20404 net.cpp:148] Top shape: 100 256 4 4 (409600)
I0816 16:03:59.927037 20404 net.cpp:156] Memory required for data: 810191200
I0816 16:03:59.927045 20404 layer_factory.hpp:77] Creating layer conv3
I0816 16:03:59.927065 20404 net.cpp:91] Creating Layer conv3
I0816 16:03:59.927076 20404 net.cpp:425] conv3 <- Pooling2
I0816 16:03:59.927090 20404 net.cpp:399] conv3 -> Convolution3
I0816 16:03:59.972849 20404 net.cpp:141] Setting up conv3
I0816 16:03:59.972890 20404 net.cpp:148] Top shape: 100 384 4 4 (614400)
I0816 16:03:59.972899 20404 net.cpp:156] Memory required for data: 812648800
I0816 16:03:59.972926 20404 layer_factory.hpp:77] Creating layer ReLU3
I0816 16:03:59.972944 20404 net.cpp:91] Creating Layer ReLU3
I0816 16:03:59.972955 20404 net.cpp:425] ReLU3 <- Convolution3
I0816 16:03:59.972970 20404 net.cpp:386] ReLU3 -> Convolution3 (in-place)
I0816 16:03:59.972988 20404 net.cpp:141] Setting up ReLU3
I0816 16:03:59.973000 20404 net.cpp:148] Top shape: 100 384 4 4 (614400)
I0816 16:03:59.973006 20404 net.cpp:156] Memory required for data: 815106400
I0816 16:03:59.973014 20404 layer_factory.hpp:77] Creating layer conv4
I0816 16:03:59.973036 20404 net.cpp:91] Creating Layer conv4
I0816 16:03:59.973044 20404 net.cpp:425] conv4 <- Convolution3
I0816 16:03:59.973058 20404 net.cpp:399] conv4 -> Convolution4
I0816 16:04:00.007014 20404 net.cpp:141] Setting up conv4
I0816 16:04:00.007057 20404 net.cpp:148] Top shape: 100 384 4 4 (614400)
I0816 16:04:00.007067 20404 net.cpp:156] Memory required for data: 817564000
I0816 16:04:00.007086 20404 layer_factory.hpp:77] Creating layer ReLU4
I0816 16:04:00.007104 20404 net.cpp:91] Creating Layer ReLU4
I0816 16:04:00.007117 20404 net.cpp:425] ReLU4 <- Convolution4
I0816 16:04:00.007129 20404 net.cpp:386] ReLU4 -> Convolution4 (in-place)
I0816 16:04:00.007146 20404 net.cpp:141] Setting up ReLU4
I0816 16:04:00.007158 20404 net.cpp:148] Top shape: 100 384 4 4 (614400)
I0816 16:04:00.007164 20404 net.cpp:156] Memory required for data: 820021600
I0816 16:04:00.007172 20404 layer_factory.hpp:77] Creating layer conv5
I0816 16:04:00.007192 20404 net.cpp:91] Creating Layer conv5
I0816 16:04:00.007202 20404 net.cpp:425] conv5 <- Convolution4
I0816 16:04:00.007220 20404 net.cpp:399] conv5 -> Convolution5
I0816 16:04:00.030962 20404 net.cpp:141] Setting up conv5
I0816 16:04:00.031002 20404 net.cpp:148] Top shape: 100 256 4 4 (409600)
I0816 16:04:00.031010 20404 net.cpp:156] Memory required for data: 821660000
I0816 16:04:00.031039 20404 layer_factory.hpp:77] Creating layer pool5
I0816 16:04:00.031059 20404 net.cpp:91] Creating Layer pool5
I0816 16:04:00.031070 20404 net.cpp:425] pool5 <- Convolution5
I0816 16:04:00.031085 20404 net.cpp:399] pool5 -> Pooling3
I0816 16:04:00.031162 20404 net.cpp:141] Setting up pool5
I0816 16:04:00.031177 20404 net.cpp:148] Top shape: 100 256 2 2 (102400)
I0816 16:04:00.031184 20404 net.cpp:156] Memory required for data: 822069600
I0816 16:04:00.031193 20404 layer_factory.hpp:77] Creating layer InnerProduct1
I0816 16:04:00.031206 20404 net.cpp:91] Creating Layer InnerProduct1
I0816 16:04:00.031215 20404 net.cpp:425] InnerProduct1 <- Pooling3
I0816 16:04:00.031231 20404 net.cpp:399] InnerProduct1 -> InnerProduct1
I0816 16:04:00.034085 20404 net.cpp:141] Setting up InnerProduct1
I0816 16:04:00.034106 20404 net.cpp:148] Top shape: 100 256 (25600)
I0816 16:04:00.034114 20404 net.cpp:156] Memory required for data: 822172000
I0816 16:04:00.034127 20404 layer_factory.hpp:77] Creating layer ReLU5
I0816 16:04:00.034139 20404 net.cpp:91] Creating Layer ReLU5
I0816 16:04:00.034169 20404 net.cpp:425] ReLU5 <- InnerProduct1
I0816 16:04:00.034183 20404 net.cpp:386] ReLU5 -> InnerProduct1 (in-place)
I0816 16:04:00.034196 20404 net.cpp:141] Setting up ReLU5
I0816 16:04:00.034206 20404 net.cpp:148] Top shape: 100 256 (25600)
I0816 16:04:00.034214 20404 net.cpp:156] Memory required for data: 822274400
I0816 16:04:00.034221 20404 layer_factory.hpp:77] Creating layer InnerProduct2
I0816 16:04:00.034235 20404 net.cpp:91] Creating Layer InnerProduct2
I0816 16:04:00.034242 20404 net.cpp:425] InnerProduct2 <- InnerProduct1
I0816 16:04:00.034260 20404 net.cpp:399] InnerProduct2 -> InnerProduct2
I0816 16:04:00.034919 20404 net.cpp:141] Setting up InnerProduct2
I0816 16:04:00.034934 20404 net.cpp:148] Top shape: 100 256 (25600)
I0816 16:04:00.034941 20404 net.cpp:156] Memory required for data: 822376800
I0816 16:04:00.034952 20404 layer_factory.hpp:77] Creating layer ReLU6
I0816 16:04:00.034988 20404 net.cpp:91] Creating Layer ReLU6
I0816 16:04:00.034998 20404 net.cpp:425] ReLU6 <- InnerProduct2
I0816 16:04:00.035009 20404 net.cpp:386] ReLU6 -> InnerProduct2 (in-place)
I0816 16:04:00.035020 20404 net.cpp:141] Setting up ReLU6
I0816 16:04:00.035030 20404 net.cpp:148] Top shape: 100 256 (25600)
I0816 16:04:00.035038 20404 net.cpp:156] Memory required for data: 822479200
I0816 16:04:00.035048 20404 layer_factory.hpp:77] Creating layer conv1
I0816 16:04:00.035068 20404 net.cpp:91] Creating Layer conv1
I0816 16:04:00.035078 20404 net.cpp:425] conv1 <- p2_p2_0_split_0
I0816 16:04:00.035091 20404 net.cpp:399] conv1 -> Convolution6
I0816 16:04:00.037106 20404 net.cpp:141] Setting up conv1
I0816 16:04:00.037122 20404 net.cpp:148] Top shape: 100 96 16 16 (2457600)
I0816 16:04:00.037130 20404 net.cpp:156] Memory required for data: 832309600
I0816 16:04:00.037144 20404 layer_factory.hpp:77] Creating layer ReLU7
I0816 16:04:00.037154 20404 net.cpp:91] Creating Layer ReLU7
I0816 16:04:00.037163 20404 net.cpp:425] ReLU7 <- Convolution6
I0816 16:04:00.037178 20404 net.cpp:386] ReLU7 -> Convolution6 (in-place)
I0816 16:04:00.037190 20404 net.cpp:141] Setting up ReLU7
I0816 16:04:00.037201 20404 net.cpp:148] Top shape: 100 96 16 16 (2457600)
I0816 16:04:00.037209 20404 net.cpp:156] Memory required for data: 842140000
I0816 16:04:00.037216 20404 layer_factory.hpp:77] Creating layer norm1
I0816 16:04:00.037231 20404 net.cpp:91] Creating Layer norm1
I0816 16:04:00.037240 20404 net.cpp:425] norm1 <- Convolution6
I0816 16:04:00.037251 20404 net.cpp:399] norm1 -> LRN3
I0816 16:04:00.037304 20404 net.cpp:141] Setting up norm1
I0816 16:04:00.037317 20404 net.cpp:148] Top shape: 100 96 16 16 (2457600)
I0816 16:04:00.037324 20404 net.cpp:156] Memory required for data: 851970400
I0816 16:04:00.037333 20404 layer_factory.hpp:77] Creating layer pool1
I0816 16:04:00.037346 20404 net.cpp:91] Creating Layer pool1
I0816 16:04:00.037354 20404 net.cpp:425] pool1 <- LRN3
I0816 16:04:00.037365 20404 net.cpp:399] pool1 -> Pooling4
I0816 16:04:00.037427 20404 net.cpp:141] Setting up pool1
I0816 16:04:00.037441 20404 net.cpp:148] Top shape: 100 96 8 8 (614400)
I0816 16:04:00.037448 20404 net.cpp:156] Memory required for data: 854428000
I0816 16:04:00.037456 20404 layer_factory.hpp:77] Creating layer conv2
I0816 16:04:00.037473 20404 net.cpp:91] Creating Layer conv2
I0816 16:04:00.037482 20404 net.cpp:425] conv2 <- Pooling4
I0816 16:04:00.037498 20404 net.cpp:399] conv2 -> Convolution7
I0816 16:04:00.053292 20404 net.cpp:141] Setting up conv2
I0816 16:04:00.053329 20404 net.cpp:148] Top shape: 100 256 8 8 (1638400)
I0816 16:04:00.053339 20404 net.cpp:156] Memory required for data: 860981600
I0816 16:04:00.053370 20404 layer_factory.hpp:77] Creating layer ReLU8
I0816 16:04:00.053385 20404 net.cpp:91] Creating Layer ReLU8
I0816 16:04:00.053395 20404 net.cpp:425] ReLU8 <- Convolution7
I0816 16:04:00.053406 20404 net.cpp:386] ReLU8 -> Convolution7 (in-place)
I0816 16:04:00.053421 20404 net.cpp:141] Setting up ReLU8
I0816 16:04:00.053429 20404 net.cpp:148] Top shape: 100 256 8 8 (1638400)
I0816 16:04:00.053436 20404 net.cpp:156] Memory required for data: 867535200
I0816 16:04:00.053462 20404 layer_factory.hpp:77] Creating layer norm2
I0816 16:04:00.053478 20404 net.cpp:91] Creating Layer norm2
I0816 16:04:00.053486 20404 net.cpp:425] norm2 <- Convolution7
I0816 16:04:00.053498 20404 net.cpp:399] norm2 -> LRN4
I0816 16:04:00.053558 20404 net.cpp:141] Setting up norm2
I0816 16:04:00.053568 20404 net.cpp:148] Top shape: 100 256 8 8 (1638400)
I0816 16:04:00.053575 20404 net.cpp:156] Memory required for data: 874088800
I0816 16:04:00.053581 20404 layer_factory.hpp:77] Creating layer pool2
I0816 16:04:00.053592 20404 net.cpp:91] Creating Layer pool2
I0816 16:04:00.053599 20404 net.cpp:425] pool2 <- LRN4
I0816 16:04:00.053612 20404 net.cpp:399] pool2 -> Pooling5
I0816 16:04:00.053665 20404 net.cpp:141] Setting up pool2
I0816 16:04:00.053680 20404 net.cpp:148] Top shape: 100 256 4 4 (409600)
I0816 16:04:00.053688 20404 net.cpp:156] Memory required for data: 875727200
I0816 16:04:00.053694 20404 layer_factory.hpp:77] Creating layer conv3
I0816 16:04:00.053715 20404 net.cpp:91] Creating Layer conv3
I0816 16:04:00.053722 20404 net.cpp:425] conv3 <- Pooling5
I0816 16:04:00.053738 20404 net.cpp:399] conv3 -> Convolution8
I0816 16:04:00.098556 20404 net.cpp:141] Setting up conv3
I0816 16:04:00.098590 20404 net.cpp:148] Top shape: 100 384 4 4 (614400)
I0816 16:04:00.098599 20404 net.cpp:156] Memory required for data: 878184800
I0816 16:04:00.098628 20404 layer_factory.hpp:77] Creating layer ReLU9
I0816 16:04:00.098645 20404 net.cpp:91] Creating Layer ReLU9
I0816 16:04:00.098657 20404 net.cpp:425] ReLU9 <- Convolution8
I0816 16:04:00.098676 20404 net.cpp:386] ReLU9 -> Convolution8 (in-place)
I0816 16:04:00.098706 20404 net.cpp:141] Setting up ReLU9
I0816 16:04:00.098718 20404 net.cpp:148] Top shape: 100 384 4 4 (614400)
I0816 16:04:00.098728 20404 net.cpp:156] Memory required for data: 880642400
I0816 16:04:00.098738 20404 layer_factory.hpp:77] Creating layer conv4
I0816 16:04:00.098758 20404 net.cpp:91] Creating Layer conv4
I0816 16:04:00.098768 20404 net.cpp:425] conv4 <- Convolution8
I0816 16:04:00.098784 20404 net.cpp:399] conv4 -> Convolution9
I0816 16:04:00.131777 20404 net.cpp:141] Setting up conv4
I0816 16:04:00.131804 20404 net.cpp:148] Top shape: 100 384 4 4 (614400)
I0816 16:04:00.131813 20404 net.cpp:156] Memory required for data: 883100000
I0816 16:04:00.131839 20404 layer_factory.hpp:77] Creating layer ReLU10
I0816 16:04:00.131855 20404 net.cpp:91] Creating Layer ReLU10
I0816 16:04:00.131866 20404 net.cpp:425] ReLU10 <- Convolution9
I0816 16:04:00.131891 20404 net.cpp:386] ReLU10 -> Convolution9 (in-place)
I0816 16:04:00.131918 20404 net.cpp:141] Setting up ReLU10
I0816 16:04:00.131932 20404 net.cpp:148] Top shape: 100 384 4 4 (614400)
I0816 16:04:00.131942 20404 net.cpp:156] Memory required for data: 885557600
I0816 16:04:00.131952 20404 layer_factory.hpp:77] Creating layer conv5
I0816 16:04:00.131974 20404 net.cpp:91] Creating Layer conv5
I0816 16:04:00.131984 20404 net.cpp:425] conv5 <- Convolution9
I0816 16:04:00.131997 20404 net.cpp:399] conv5 -> Convolution10
I0816 16:04:00.154110 20404 net.cpp:141] Setting up conv5
I0816 16:04:00.154134 20404 net.cpp:148] Top shape: 100 256 4 4 (409600)
I0816 16:04:00.154141 20404 net.cpp:156] Memory required for data: 887196000
I0816 16:04:00.154167 20404 layer_factory.hpp:77] Creating layer pool5
I0816 16:04:00.154184 20404 net.cpp:91] Creating Layer pool5
I0816 16:04:00.154197 20404 net.cpp:425] pool5 <- Convolution10
I0816 16:04:00.154217 20404 net.cpp:399] pool5 -> Pooling6
I0816 16:04:00.154287 20404 net.cpp:141] Setting up pool5
I0816 16:04:00.154301 20404 net.cpp:148] Top shape: 100 256 2 2 (102400)
I0816 16:04:00.154312 20404 net.cpp:156] Memory required for data: 887605600
I0816 16:04:00.154320 20404 layer_factory.hpp:77] Creating layer InnerProduct3
I0816 16:04:00.154336 20404 net.cpp:91] Creating Layer InnerProduct3
I0816 16:04:00.154350 20404 net.cpp:425] InnerProduct3 <- Pooling6
I0816 16:04:00.154366 20404 net.cpp:399] InnerProduct3 -> InnerProduct3
I0816 16:04:00.157088 20404 net.cpp:141] Setting up InnerProduct3
I0816 16:04:00.157124 20404 net.cpp:148] Top shape: 100 256 (25600)
I0816 16:04:00.157131 20404 net.cpp:156] Memory required for data: 887708000
I0816 16:04:00.157140 20404 net.cpp:484] Sharing parameters 'fc6_w' owned by layer 'InnerProduct1', param index 0
I0816 16:04:00.157150 20404 net.cpp:484] Sharing parameters 'fc6_b' owned by layer 'InnerProduct1', param index 1
I0816 16:04:00.157171 20404 layer_factory.hpp:77] Creating layer ReLU11
I0816 16:04:00.157181 20404 net.cpp:91] Creating Layer ReLU11
I0816 16:04:00.157189 20404 net.cpp:425] ReLU11 <- InnerProduct3
I0816 16:04:00.157205 20404 net.cpp:386] ReLU11 -> InnerProduct3 (in-place)
I0816 16:04:00.157232 20404 net.cpp:141] Setting up ReLU11
I0816 16:04:00.157246 20404 net.cpp:148] Top shape: 100 256 (25600)
I0816 16:04:00.157256 20404 net.cpp:156] Memory required for data: 887810400
I0816 16:04:00.157266 20404 layer_factory.hpp:77] Creating layer InnerProduct4
I0816 16:04:00.157279 20404 net.cpp:91] Creating Layer InnerProduct4
I0816 16:04:00.157289 20404 net.cpp:425] InnerProduct4 <- InnerProduct3
I0816 16:04:00.157305 20404 net.cpp:399] InnerProduct4 -> InnerProduct4
I0816 16:04:00.157951 20404 net.cpp:141] Setting up InnerProduct4
I0816 16:04:00.157963 20404 net.cpp:148] Top shape: 100 256 (25600)
I0816 16:04:00.157971 20404 net.cpp:156] Memory required for data: 887912800
I0816 16:04:00.157990 20404 net.cpp:484] Sharing parameters 'fc7_w' owned by layer 'InnerProduct2', param index 0
I0816 16:04:00.157999 20404 net.cpp:484] Sharing parameters 'fc7_b' owned by layer 'InnerProduct2', param index 1
I0816 16:04:00.158004 20404 layer_factory.hpp:77] Creating layer ReLU12
I0816 16:04:00.158012 20404 net.cpp:91] Creating Layer ReLU12
I0816 16:04:00.158018 20404 net.cpp:425] ReLU12 <- InnerProduct4
I0816 16:04:00.158027 20404 net.cpp:386] ReLU12 -> InnerProduct4 (in-place)
I0816 16:04:00.158036 20404 net.cpp:141] Setting up ReLU12
I0816 16:04:00.158043 20404 net.cpp:148] Top shape: 100 256 (25600)
I0816 16:04:00.158049 20404 net.cpp:156] Memory required for data: 888015200
I0816 16:04:00.158056 20404 layer_factory.hpp:77] Creating layer Concat1
I0816 16:04:00.158071 20404 net.cpp:91] Creating Layer Concat1
I0816 16:04:00.158077 20404 net.cpp:425] Concat1 <- InnerProduct2
I0816 16:04:00.158084 20404 net.cpp:425] Concat1 <- InnerProduct4
I0816 16:04:00.158097 20404 net.cpp:399] Concat1 -> Concat1
I0816 16:04:00.158131 20404 net.cpp:141] Setting up Concat1
I0816 16:04:00.158139 20404 net.cpp:148] Top shape: 100 512 (51200)
I0816 16:04:00.158144 20404 net.cpp:156] Memory required for data: 888220000
I0816 16:04:00.158150 20404 layer_factory.hpp:77] Creating layer InnerProduct5
I0816 16:04:00.158159 20404 net.cpp:91] Creating Layer InnerProduct5
I0816 16:04:00.158164 20404 net.cpp:425] InnerProduct5 <- Concat1
I0816 16:04:00.158177 20404 net.cpp:399] InnerProduct5 -> InnerProduct5
I0816 16:04:00.159324 20404 net.cpp:141] Setting up InnerProduct5
I0816 16:04:00.159345 20404 net.cpp:148] Top shape: 100 256 (25600)
I0816 16:04:00.159350 20404 net.cpp:156] Memory required for data: 888322400
I0816 16:04:00.159358 20404 layer_factory.hpp:77] Creating layer ReLU13
I0816 16:04:00.159368 20404 net.cpp:91] Creating Layer ReLU13
I0816 16:04:00.159373 20404 net.cpp:425] ReLU13 <- InnerProduct5
I0816 16:04:00.159381 20404 net.cpp:386] ReLU13 -> InnerProduct5 (in-place)
I0816 16:04:00.159390 20404 net.cpp:141] Setting up ReLU13
I0816 16:04:00.159406 20404 net.cpp:148] Top shape: 100 256 (25600)
I0816 16:04:00.159411 20404 net.cpp:156] Memory required for data: 888424800
I0816 16:04:00.159417 20404 layer_factory.hpp:77] Creating layer InnerProduct6
I0816 16:04:00.159430 20404 net.cpp:91] Creating Layer InnerProduct6
I0816 16:04:00.159435 20404 net.cpp:425] InnerProduct6 <- InnerProduct5
I0816 16:04:00.159445 20404 net.cpp:399] InnerProduct6 -> InnerProduct6
I0816 16:04:00.159818 20404 net.cpp:141] Setting up InnerProduct6
I0816 16:04:00.159828 20404 net.cpp:148] Top shape: 100 128 (12800)
I0816 16:04:00.159834 20404 net.cpp:156] Memory required for data: 888476000
I0816 16:04:00.159842 20404 layer_factory.hpp:77] Creating layer ReLU14
I0816 16:04:00.159862 20404 net.cpp:91] Creating Layer ReLU14
I0816 16:04:00.159869 20404 net.cpp:425] ReLU14 <- InnerProduct6
I0816 16:04:00.159878 20404 net.cpp:386] ReLU14 -> InnerProduct6 (in-place)
I0816 16:04:00.159886 20404 net.cpp:141] Setting up ReLU14
I0816 16:04:00.159893 20404 net.cpp:148] Top shape: 100 128 (12800)
I0816 16:04:00.159899 20404 net.cpp:156] Memory required for data: 888527200
I0816 16:04:00.159905 20404 layer_factory.hpp:77] Creating layer dt0
I0816 16:04:00.159916 20404 net.cpp:91] Creating Layer dt0
I0816 16:04:00.159924 20404 net.cpp:425] dt0 <- InnerProduct6
I0816 16:04:00.159934 20404 net.cpp:399] dt0 -> dt0
I0816 16:04:00.160053 20404 net.cpp:141] Setting up dt0
I0816 16:04:00.160063 20404 net.cpp:148] Top shape: 100 1 (100)
I0816 16:04:00.160068 20404 net.cpp:156] Memory required for data: 888527600
I0816 16:04:00.160086 20404 layer_factory.hpp:77] Creating layer conv1
I0816 16:04:00.160104 20404 net.cpp:91] Creating Layer conv1
I0816 16:04:00.160112 20404 net.cpp:425] conv1 <- p1_p1_0_split_1
I0816 16:04:00.160122 20404 net.cpp:399] conv1 -> Convolution11
I0816 16:04:00.162673 20404 net.cpp:141] Setting up conv1
I0816 16:04:00.162699 20404 net.cpp:148] Top shape: 100 96 16 16 (2457600)
I0816 16:04:00.162705 20404 net.cpp:156] Memory required for data: 898358000
I0816 16:04:00.162716 20404 layer_factory.hpp:77] Creating layer ReLU15
I0816 16:04:00.162724 20404 net.cpp:91] Creating Layer ReLU15
I0816 16:04:00.162731 20404 net.cpp:425] ReLU15 <- Convolution11
I0816 16:04:00.162741 20404 net.cpp:386] ReLU15 -> Convolution11 (in-place)
I0816 16:04:00.162760 20404 net.cpp:141] Setting up ReLU15
I0816 16:04:00.162767 20404 net.cpp:148] Top shape: 100 96 16 16 (2457600)
I0816 16:04:00.162773 20404 net.cpp:156] Memory required for data: 908188400
I0816 16:04:00.162780 20404 layer_factory.hpp:77] Creating layer norm1
I0816 16:04:00.162788 20404 net.cpp:91] Creating Layer norm1
I0816 16:04:00.162794 20404 net.cpp:425] norm1 <- Convolution11
I0816 16:04:00.162806 20404 net.cpp:399] norm1 -> LRN5
I0816 16:04:00.162847 20404 net.cpp:141] Setting up norm1
I0816 16:04:00.162855 20404 net.cpp:148] Top shape: 100 96 16 16 (2457600)
I0816 16:04:00.162860 20404 net.cpp:156] Memory required for data: 918018800
I0816 16:04:00.162866 20404 layer_factory.hpp:77] Creating layer pool1
I0816 16:04:00.162878 20404 net.cpp:91] Creating Layer pool1
I0816 16:04:00.162883 20404 net.cpp:425] pool1 <- LRN5
I0816 16:04:00.162892 20404 net.cpp:399] pool1 -> Pooling7
I0816 16:04:00.162940 20404 net.cpp:141] Setting up pool1
I0816 16:04:00.162950 20404 net.cpp:148] Top shape: 100 96 8 8 (614400)
I0816 16:04:00.162955 20404 net.cpp:156] Memory required for data: 920476400
I0816 16:04:00.162961 20404 layer_factory.hpp:77] Creating layer conv2
I0816 16:04:00.162974 20404 net.cpp:91] Creating Layer conv2
I0816 16:04:00.162981 20404 net.cpp:425] conv2 <- Pooling7
I0816 16:04:00.162991 20404 net.cpp:399] conv2 -> Convolution12
I0816 16:04:00.178403 20404 net.cpp:141] Setting up conv2
I0816 16:04:00.178421 20404 net.cpp:148] Top shape: 100 256 8 8 (1638400)
I0816 16:04:00.178426 20404 net.cpp:156] Memory required for data: 927030000
I0816 16:04:00.178438 20404 layer_factory.hpp:77] Creating layer ReLU16
I0816 16:04:00.178450 20404 net.cpp:91] Creating Layer ReLU16
I0816 16:04:00.178457 20404 net.cpp:425] ReLU16 <- Convolution12
I0816 16:04:00.178467 20404 net.cpp:386] ReLU16 -> Convolution12 (in-place)
I0816 16:04:00.178478 20404 net.cpp:141] Setting up ReLU16
I0816 16:04:00.178484 20404 net.cpp:148] Top shape: 100 256 8 8 (1638400)
I0816 16:04:00.178490 20404 net.cpp:156] Memory required for data: 933583600
I0816 16:04:00.178495 20404 layer_factory.hpp:77] Creating layer norm2
I0816 16:04:00.178506 20404 net.cpp:91] Creating Layer norm2
I0816 16:04:00.178513 20404 net.cpp:425] norm2 <- Convolution12
I0816 16:04:00.178521 20404 net.cpp:399] norm2 -> LRN6
I0816 16:04:00.178571 20404 net.cpp:141] Setting up norm2
I0816 16:04:00.178581 20404 net.cpp:148] Top shape: 100 256 8 8 (1638400)
I0816 16:04:00.178603 20404 net.cpp:156] Memory required for data: 940137200
I0816 16:04:00.178611 20404 layer_factory.hpp:77] Creating layer pool2
I0816 16:04:00.178618 20404 net.cpp:91] Creating Layer pool2
I0816 16:04:00.178624 20404 net.cpp:425] pool2 <- LRN6
I0816 16:04:00.178635 20404 net.cpp:399] pool2 -> Pooling8
I0816 16:04:00.178683 20404 net.cpp:141] Setting up pool2
I0816 16:04:00.178692 20404 net.cpp:148] Top shape: 100 256 4 4 (409600)
I0816 16:04:00.178697 20404 net.cpp:156] Memory required for data: 941775600
I0816 16:04:00.178704 20404 layer_factory.hpp:77] Creating layer conv3
I0816 16:04:00.178719 20404 net.cpp:91] Creating Layer conv3
I0816 16:04:00.178725 20404 net.cpp:425] conv3 <- Pooling8
I0816 16:04:00.178735 20404 net.cpp:399] conv3 -> Convolution13
I0816 16:04:00.222851 20404 net.cpp:141] Setting up conv3
I0816 16:04:00.222892 20404 net.cpp:148] Top shape: 100 384 4 4 (614400)
I0816 16:04:00.222898 20404 net.cpp:156] Memory required for data: 944233200
I0816 16:04:00.222913 20404 layer_factory.hpp:77] Creating layer ReLU17
I0816 16:04:00.222924 20404 net.cpp:91] Creating Layer ReLU17
I0816 16:04:00.222935 20404 net.cpp:425] ReLU17 <- Convolution13
I0816 16:04:00.222955 20404 net.cpp:386] ReLU17 -> Convolution13 (in-place)
I0816 16:04:00.222968 20404 net.cpp:141] Setting up ReLU17
I0816 16:04:00.222976 20404 net.cpp:148] Top shape: 100 384 4 4 (614400)
I0816 16:04:00.222982 20404 net.cpp:156] Memory required for data: 946690800
I0816 16:04:00.222987 20404 layer_factory.hpp:77] Creating layer conv4
I0816 16:04:00.223004 20404 net.cpp:91] Creating Layer conv4
I0816 16:04:00.223011 20404 net.cpp:425] conv4 <- Convolution13
I0816 16:04:00.223026 20404 net.cpp:399] conv4 -> Convolution14
I0816 16:04:00.256091 20404 net.cpp:141] Setting up conv4
I0816 16:04:00.256119 20404 net.cpp:148] Top shape: 100 384 4 4 (614400)
I0816 16:04:00.256127 20404 net.cpp:156] Memory required for data: 949148400
I0816 16:04:00.256142 20404 layer_factory.hpp:77] Creating layer ReLU18
I0816 16:04:00.256158 20404 net.cpp:91] Creating Layer ReLU18
I0816 16:04:00.256173 20404 net.cpp:425] ReLU18 <- Convolution14
I0816 16:04:00.256187 20404 net.cpp:386] ReLU18 -> Convolution14 (in-place)
I0816 16:04:00.256206 20404 net.cpp:141] Setting up ReLU18
I0816 16:04:00.256219 20404 net.cpp:148] Top shape: 100 384 4 4 (614400)
I0816 16:04:00.256229 20404 net.cpp:156] Memory required for data: 951606000
I0816 16:04:00.256239 20404 layer_factory.hpp:77] Creating layer conv5
I0816 16:04:00.256265 20404 net.cpp:91] Creating Layer conv5
I0816 16:04:00.256278 20404 net.cpp:425] conv5 <- Convolution14
I0816 16:04:00.256290 20404 net.cpp:399] conv5 -> Convolution15
I0816 16:04:00.278749 20404 net.cpp:141] Setting up conv5
I0816 16:04:00.278779 20404 net.cpp:148] Top shape: 100 256 4 4 (409600)
I0816 16:04:00.278787 20404 net.cpp:156] Memory required for data: 953244400
I0816 16:04:00.278803 20404 layer_factory.hpp:77] Creating layer pool5
I0816 16:04:00.278817 20404 net.cpp:91] Creating Layer pool5
I0816 16:04:00.278827 20404 net.cpp:425] pool5 <- Convolution15
I0816 16:04:00.278843 20404 net.cpp:399] pool5 -> Pooling9
I0816 16:04:00.278908 20404 net.cpp:141] Setting up pool5
I0816 16:04:00.278920 20404 net.cpp:148] Top shape: 100 256 2 2 (102400)
I0816 16:04:00.278928 20404 net.cpp:156] Memory required for data: 953654000
I0816 16:04:00.278935 20404 layer_factory.hpp:77] Creating layer InnerProduct7
I0816 16:04:00.278949 20404 net.cpp:91] Creating Layer InnerProduct7
I0816 16:04:00.278955 20404 net.cpp:425] InnerProduct7 <- Pooling9
I0816 16:04:00.278971 20404 net.cpp:399] InnerProduct7 -> InnerProduct7
I0816 16:04:00.281936 20404 net.cpp:141] Setting up InnerProduct7
I0816 16:04:00.281956 20404 net.cpp:148] Top shape: 100 256 (25600)
I0816 16:04:00.281965 20404 net.cpp:156] Memory required for data: 953756400
I0816 16:04:00.281975 20404 net.cpp:484] Sharing parameters 'fc6_w' owned by layer 'InnerProduct1', param index 0
I0816 16:04:00.281983 20404 net.cpp:484] Sharing parameters 'fc6_b' owned by layer 'InnerProduct1', param index 1
I0816 16:04:00.282011 20404 layer_factory.hpp:77] Creating layer ReLU19
I0816 16:04:00.282021 20404 net.cpp:91] Creating Layer ReLU19
I0816 16:04:00.282027 20404 net.cpp:425] ReLU19 <- InnerProduct7
I0816 16:04:00.282039 20404 net.cpp:386] ReLU19 -> InnerProduct7 (in-place)
I0816 16:04:00.282050 20404 net.cpp:141] Setting up ReLU19
I0816 16:04:00.282058 20404 net.cpp:148] Top shape: 100 256 (25600)
I0816 16:04:00.282063 20404 net.cpp:156] Memory required for data: 953858800
I0816 16:04:00.282069 20404 layer_factory.hpp:77] Creating layer InnerProduct8
I0816 16:04:00.282079 20404 net.cpp:91] Creating Layer InnerProduct8
I0816 16:04:00.282085 20404 net.cpp:425] InnerProduct8 <- InnerProduct7
I0816 16:04:00.282097 20404 net.cpp:399] InnerProduct8 -> InnerProduct8
I0816 16:04:00.282740 20404 net.cpp:141] Setting up InnerProduct8
I0816 16:04:00.282753 20404 net.cpp:148] Top shape: 100 256 (25600)
I0816 16:04:00.282763 20404 net.cpp:156] Memory required for data: 953961200
I0816 16:04:00.282768 20404 net.cpp:484] Sharing parameters 'fc7_w' owned by layer 'InnerProduct2', param index 0
I0816 16:04:00.282776 20404 net.cpp:484] Sharing parameters 'fc7_b' owned by layer 'InnerProduct2', param index 1
I0816 16:04:00.282783 20404 layer_factory.hpp:77] Creating layer ReLU20
I0816 16:04:00.282793 20404 net.cpp:91] Creating Layer ReLU20
I0816 16:04:00.282799 20404 net.cpp:425] ReLU20 <- InnerProduct8
I0816 16:04:00.282807 20404 net.cpp:386] ReLU20 -> InnerProduct8 (in-place)
I0816 16:04:00.282816 20404 net.cpp:141] Setting up ReLU20
I0816 16:04:00.282824 20404 net.cpp:148] Top shape: 100 256 (25600)
I0816 16:04:00.282829 20404 net.cpp:156] Memory required for data: 954063600
I0816 16:04:00.282835 20404 layer_factory.hpp:77] Creating layer conv1
I0816 16:04:00.282848 20404 net.cpp:91] Creating Layer conv1
I0816 16:04:00.282855 20404 net.cpp:425] conv1 <- c21
I0816 16:04:00.282868 20404 net.cpp:399] conv1 -> Convolution16
I0816 16:04:00.284868 20404 net.cpp:141] Setting up conv1
I0816 16:04:00.284876 20404 net.cpp:148] Top shape: 100 96 16 16 (2457600)
I0816 16:04:00.284883 20404 net.cpp:156] Memory required for data: 963894000
I0816 16:04:00.284893 20404 layer_factory.hpp:77] Creating layer ReLU21
I0816 16:04:00.284901 20404 net.cpp:91] Creating Layer ReLU21
I0816 16:04:00.284907 20404 net.cpp:425] ReLU21 <- Convolution16
I0816 16:04:00.284915 20404 net.cpp:386] ReLU21 -> Convolution16 (in-place)
I0816 16:04:00.284925 20404 net.cpp:141] Setting up ReLU21
I0816 16:04:00.284932 20404 net.cpp:148] Top shape: 100 96 16 16 (2457600)
I0816 16:04:00.284939 20404 net.cpp:156] Memory required for data: 973724400
I0816 16:04:00.284943 20404 layer_factory.hpp:77] Creating layer norm1
I0816 16:04:00.284955 20404 net.cpp:91] Creating Layer norm1
I0816 16:04:00.284961 20404 net.cpp:425] norm1 <- Convolution16
I0816 16:04:00.284970 20404 net.cpp:399] norm1 -> LRN7
I0816 16:04:00.285043 20404 net.cpp:141] Setting up norm1
I0816 16:04:00.285051 20404 net.cpp:148] Top shape: 100 96 16 16 (2457600)
I0816 16:04:00.285058 20404 net.cpp:156] Memory required for data: 983554800
I0816 16:04:00.285063 20404 layer_factory.hpp:77] Creating layer pool1
I0816 16:04:00.285076 20404 net.cpp:91] Creating Layer pool1
I0816 16:04:00.285082 20404 net.cpp:425] pool1 <- LRN7
I0816 16:04:00.285094 20404 net.cpp:399] pool1 -> Pooling10
I0816 16:04:00.285140 20404 net.cpp:141] Setting up pool1
I0816 16:04:00.285147 20404 net.cpp:148] Top shape: 100 96 8 8 (614400)
I0816 16:04:00.285153 20404 net.cpp:156] Memory required for data: 986012400
I0816 16:04:00.285158 20404 layer_factory.hpp:77] Creating layer conv2
I0816 16:04:00.285171 20404 net.cpp:91] Creating Layer conv2
I0816 16:04:00.285177 20404 net.cpp:425] conv2 <- Pooling10
I0816 16:04:00.285189 20404 net.cpp:399] conv2 -> Convolution17
I0816 16:04:00.300953 20404 net.cpp:141] Setting up conv2
I0816 16:04:00.300978 20404 net.cpp:148] Top shape: 100 256 8 8 (1638400)
I0816 16:04:00.300984 20404 net.cpp:156] Memory required for data: 992566000
I0816 16:04:00.300997 20404 layer_factory.hpp:77] Creating layer ReLU22
I0816 16:04:00.301028 20404 net.cpp:91] Creating Layer ReLU22
I0816 16:04:00.301035 20404 net.cpp:425] ReLU22 <- Convolution17
I0816 16:04:00.301048 20404 net.cpp:386] ReLU22 -> Convolution17 (in-place)
I0816 16:04:00.301061 20404 net.cpp:141] Setting up ReLU22
I0816 16:04:00.301069 20404 net.cpp:148] Top shape: 100 256 8 8 (1638400)
I0816 16:04:00.301074 20404 net.cpp:156] Memory required for data: 999119600
I0816 16:04:00.301080 20404 layer_factory.hpp:77] Creating layer norm2
I0816 16:04:00.301093 20404 net.cpp:91] Creating Layer norm2
I0816 16:04:00.301100 20404 net.cpp:425] norm2 <- Convolution17
I0816 16:04:00.301110 20404 net.cpp:399] norm2 -> LRN8
I0816 16:04:00.301159 20404 net.cpp:141] Setting up norm2
I0816 16:04:00.301167 20404 net.cpp:148] Top shape: 100 256 8 8 (1638400)
I0816 16:04:00.301172 20404 net.cpp:156] Memory required for data: 1005673200
I0816 16:04:00.301178 20404 layer_factory.hpp:77] Creating layer pool2
I0816 16:04:00.301187 20404 net.cpp:91] Creating Layer pool2
I0816 16:04:00.301192 20404 net.cpp:425] pool2 <- LRN8
I0816 16:04:00.301201 20404 net.cpp:399] pool2 -> Pooling11
I0816 16:04:00.301250 20404 net.cpp:141] Setting up pool2
I0816 16:04:00.301257 20404 net.cpp:148] Top shape: 100 256 4 4 (409600)
I0816 16:04:00.301264 20404 net.cpp:156] Memory required for data: 1007311600
I0816 16:04:00.301268 20404 layer_factory.hpp:77] Creating layer conv3
I0816 16:04:00.301285 20404 net.cpp:91] Creating Layer conv3
I0816 16:04:00.301291 20404 net.cpp:425] conv3 <- Pooling11
I0816 16:04:00.301303 20404 net.cpp:399] conv3 -> Convolution18
I0816 16:04:00.345278 20404 net.cpp:141] Setting up conv3
I0816 16:04:00.345320 20404 net.cpp:148] Top shape: 100 384 4 4 (614400)
I0816 16:04:00.345326 20404 net.cpp:156] Memory required for data: 1009769200
I0816 16:04:00.345340 20404 layer_factory.hpp:77] Creating layer ReLU23
I0816 16:04:00.345352 20404 net.cpp:91] Creating Layer ReLU23
I0816 16:04:00.345361 20404 net.cpp:425] ReLU23 <- Convolution18
I0816 16:04:00.345382 20404 net.cpp:386] ReLU23 -> Convolution18 (in-place)
I0816 16:04:00.345396 20404 net.cpp:141] Setting up ReLU23
I0816 16:04:00.345403 20404 net.cpp:148] Top shape: 100 384 4 4 (614400)
I0816 16:04:00.345409 20404 net.cpp:156] Memory required for data: 1012226800
I0816 16:04:00.345414 20404 layer_factory.hpp:77] Creating layer conv4
I0816 16:04:00.345432 20404 net.cpp:91] Creating Layer conv4
I0816 16:04:00.345438 20404 net.cpp:425] conv4 <- Convolution18
I0816 16:04:00.345453 20404 net.cpp:399] conv4 -> Convolution19
I0816 16:04:00.378774 20404 net.cpp:141] Setting up conv4
I0816 16:04:00.378813 20404 net.cpp:148] Top shape: 100 384 4 4 (614400)
I0816 16:04:00.378823 20404 net.cpp:156] Memory required for data: 1014684400
I0816 16:04:00.378839 20404 layer_factory.hpp:77] Creating layer ReLU24
I0816 16:04:00.378852 20404 net.cpp:91] Creating Layer ReLU24
I0816 16:04:00.378868 20404 net.cpp:425] ReLU24 <- Convolution19
I0816 16:04:00.378880 20404 net.cpp:386] ReLU24 -> Convolution19 (in-place)
I0816 16:04:00.378893 20404 net.cpp:141] Setting up ReLU24
I0816 16:04:00.378901 20404 net.cpp:148] Top shape: 100 384 4 4 (614400)
I0816 16:04:00.378907 20404 net.cpp:156] Memory required for data: 1017142000
I0816 16:04:00.378913 20404 layer_factory.hpp:77] Creating layer conv5
I0816 16:04:00.378929 20404 net.cpp:91] Creating Layer conv5
I0816 16:04:00.378937 20404 net.cpp:425] conv5 <- Convolution19
I0816 16:04:00.378947 20404 net.cpp:399] conv5 -> Convolution20
I0816 16:04:00.401582 20404 net.cpp:141] Setting up conv5
I0816 16:04:00.401617 20404 net.cpp:148] Top shape: 100 256 4 4 (409600)
I0816 16:04:00.401624 20404 net.cpp:156] Memory required for data: 1018780400
I0816 16:04:00.401641 20404 layer_factory.hpp:77] Creating layer pool5
I0816 16:04:00.401657 20404 net.cpp:91] Creating Layer pool5
I0816 16:04:00.401667 20404 net.cpp:425] pool5 <- Convolution20
I0816 16:04:00.401684 20404 net.cpp:399] pool5 -> Pooling12
I0816 16:04:00.401754 20404 net.cpp:141] Setting up pool5
I0816 16:04:00.401764 20404 net.cpp:148] Top shape: 100 256 2 2 (102400)
I0816 16:04:00.401772 20404 net.cpp:156] Memory required for data: 1019190000
I0816 16:04:00.401803 20404 layer_factory.hpp:77] Creating layer InnerProduct9
I0816 16:04:00.401820 20404 net.cpp:91] Creating Layer InnerProduct9
I0816 16:04:00.401828 20404 net.cpp:425] InnerProduct9 <- Pooling12
I0816 16:04:00.401844 20404 net.cpp:399] InnerProduct9 -> InnerProduct9
I0816 16:04:00.404845 20404 net.cpp:141] Setting up InnerProduct9
I0816 16:04:00.404878 20404 net.cpp:148] Top shape: 100 256 (25600)
I0816 16:04:00.404886 20404 net.cpp:156] Memory required for data: 1019292400
I0816 16:04:00.404894 20404 net.cpp:484] Sharing parameters 'fc6_w' owned by layer 'InnerProduct1', param index 0
I0816 16:04:00.404904 20404 net.cpp:484] Sharing parameters 'fc6_b' owned by layer 'InnerProduct1', param index 1
I0816 16:04:00.404911 20404 layer_factory.hpp:77] Creating layer ReLU25
I0816 16:04:00.404924 20404 net.cpp:91] Creating Layer ReLU25
I0816 16:04:00.404938 20404 net.cpp:425] ReLU25 <- InnerProduct9
I0816 16:04:00.404952 20404 net.cpp:386] ReLU25 -> InnerProduct9 (in-place)
I0816 16:04:00.404965 20404 net.cpp:141] Setting up ReLU25
I0816 16:04:00.404973 20404 net.cpp:148] Top shape: 100 256 (25600)
I0816 16:04:00.404979 20404 net.cpp:156] Memory required for data: 1019394800
I0816 16:04:00.404985 20404 layer_factory.hpp:77] Creating layer InnerProduct10
I0816 16:04:00.404996 20404 net.cpp:91] Creating Layer InnerProduct10
I0816 16:04:00.405004 20404 net.cpp:425] InnerProduct10 <- InnerProduct9
I0816 16:04:00.405017 20404 net.cpp:399] InnerProduct10 -> InnerProduct10
I0816 16:04:00.405711 20404 net.cpp:141] Setting up InnerProduct10
I0816 16:04:00.405735 20404 net.cpp:148] Top shape: 100 256 (25600)
I0816 16:04:00.405742 20404 net.cpp:156] Memory required for data: 1019497200
I0816 16:04:00.405750 20404 net.cpp:484] Sharing parameters 'fc7_w' owned by layer 'InnerProduct2', param index 0
I0816 16:04:00.405760 20404 net.cpp:484] Sharing parameters 'fc7_b' owned by layer 'InnerProduct2', param index 1
I0816 16:04:00.405767 20404 layer_factory.hpp:77] Creating layer ReLU26
I0816 16:04:00.405777 20404 net.cpp:91] Creating Layer ReLU26
I0816 16:04:00.405786 20404 net.cpp:425] ReLU26 <- InnerProduct10
I0816 16:04:00.405799 20404 net.cpp:386] ReLU26 -> InnerProduct10 (in-place)
I0816 16:04:00.405812 20404 net.cpp:141] Setting up ReLU26
I0816 16:04:00.405822 20404 net.cpp:148] Top shape: 100 256 (25600)
I0816 16:04:00.405833 20404 net.cpp:156] Memory required for data: 1019599600
I0816 16:04:00.405839 20404 layer_factory.hpp:77] Creating layer Concat2
I0816 16:04:00.405850 20404 net.cpp:91] Creating Layer Concat2
I0816 16:04:00.405859 20404 net.cpp:425] Concat2 <- InnerProduct8
I0816 16:04:00.405871 20404 net.cpp:425] Concat2 <- InnerProduct10
I0816 16:04:00.405886 20404 net.cpp:399] Concat2 -> Concat2
I0816 16:04:00.405925 20404 net.cpp:141] Setting up Concat2
I0816 16:04:00.405937 20404 net.cpp:148] Top shape: 100 512 (51200)
I0816 16:04:00.405944 20404 net.cpp:156] Memory required for data: 1019804400
I0816 16:04:00.405951 20404 layer_factory.hpp:77] Creating layer InnerProduct11
I0816 16:04:00.405969 20404 net.cpp:91] Creating Layer InnerProduct11
I0816 16:04:00.406018 20404 net.cpp:425] InnerProduct11 <- Concat2
I0816 16:04:00.406036 20404 net.cpp:399] InnerProduct11 -> InnerProduct11
I0816 16:04:00.407929 20404 net.cpp:141] Setting up InnerProduct11
I0816 16:04:00.407950 20404 net.cpp:148] Top shape: 100 256 (25600)
I0816 16:04:00.407958 20404 net.cpp:156] Memory required for data: 1019906800
I0816 16:04:00.407968 20404 net.cpp:484] Sharing parameters 'fc8_w' owned by layer 'InnerProduct5', param index 0
I0816 16:04:00.407980 20404 net.cpp:484] Sharing parameters 'fc8_b' owned by layer 'InnerProduct5', param index 1
I0816 16:04:00.407989 20404 layer_factory.hpp:77] Creating layer ReLU27
I0816 16:04:00.408000 20404 net.cpp:91] Creating Layer ReLU27
I0816 16:04:00.408048 20404 net.cpp:425] ReLU27 <- InnerProduct11
I0816 16:04:00.408063 20404 net.cpp:386] ReLU27 -> InnerProduct11 (in-place)
I0816 16:04:00.408077 20404 net.cpp:141] Setting up ReLU27
I0816 16:04:00.408100 20404 net.cpp:148] Top shape: 100 256 (25600)
I0816 16:04:00.408110 20404 net.cpp:156] Memory required for data: 1020009200
I0816 16:04:00.408118 20404 layer_factory.hpp:77] Creating layer InnerProduct12
I0816 16:04:00.408171 20404 net.cpp:91] Creating Layer InnerProduct12
I0816 16:04:00.408181 20404 net.cpp:425] InnerProduct12 <- InnerProduct11
I0816 16:04:00.408193 20404 net.cpp:399] InnerProduct12 -> InnerProduct12
I0816 16:04:00.408612 20404 net.cpp:141] Setting up InnerProduct12
I0816 16:04:00.408625 20404 net.cpp:148] Top shape: 100 128 (12800)
I0816 16:04:00.408632 20404 net.cpp:156] Memory required for data: 1020060400
I0816 16:04:00.408668 20404 net.cpp:484] Sharing parameters 'fc9_w' owned by layer 'InnerProduct6', param index 0
I0816 16:04:00.408679 20404 net.cpp:484] Sharing parameters 'fc9_b' owned by layer 'InnerProduct6', param index 1
I0816 16:04:00.408687 20404 layer_factory.hpp:77] Creating layer ReLU28
I0816 16:04:00.408697 20404 net.cpp:91] Creating Layer ReLU28
I0816 16:04:00.408707 20404 net.cpp:425] ReLU28 <- InnerProduct12
I0816 16:04:00.408717 20404 net.cpp:386] ReLU28 -> InnerProduct12 (in-place)
I0816 16:04:00.408731 20404 net.cpp:141] Setting up ReLU28
I0816 16:04:00.408743 20404 net.cpp:148] Top shape: 100 128 (12800)
I0816 16:04:00.408753 20404 net.cpp:156] Memory required for data: 1020111600
I0816 16:04:00.408761 20404 layer_factory.hpp:77] Creating layer dt1
I0816 16:04:00.408779 20404 net.cpp:91] Creating Layer dt1
I0816 16:04:00.408789 20404 net.cpp:425] dt1 <- InnerProduct12
I0816 16:04:00.408805 20404 net.cpp:399] dt1 -> dt1
I0816 16:04:00.408963 20404 net.cpp:141] Setting up dt1
I0816 16:04:00.408975 20404 net.cpp:148] Top shape: 100 1 (100)
I0816 16:04:00.409009 20404 net.cpp:156] Memory required for data: 1020112000
I0816 16:04:00.409020 20404 net.cpp:484] Sharing parameters 'fc10_w' owned by layer 'dt0', param index 0
I0816 16:04:00.409029 20404 net.cpp:484] Sharing parameters 'fc10_b' owned by layer 'dt0', param index 1
I0816 16:04:00.409039 20404 layer_factory.hpp:77] Creating layer conv1
I0816 16:04:00.409055 20404 net.cpp:91] Creating Layer conv1
I0816 16:04:00.409065 20404 net.cpp:425] conv1 <- p1_p1_0_split_2
I0816 16:04:00.409082 20404 net.cpp:399] conv1 -> Convolution21
I0816 16:04:00.411885 20404 net.cpp:141] Setting up conv1
I0816 16:04:00.411907 20404 net.cpp:148] Top shape: 100 96 16 16 (2457600)
I0816 16:04:00.411914 20404 net.cpp:156] Memory required for data: 1029942400
I0816 16:04:00.411932 20404 layer_factory.hpp:77] Creating layer ReLU29
I0816 16:04:00.411947 20404 net.cpp:91] Creating Layer ReLU29
I0816 16:04:00.411959 20404 net.cpp:425] ReLU29 <- Convolution21
I0816 16:04:00.411969 20404 net.cpp:386] ReLU29 -> Convolution21 (in-place)
I0816 16:04:00.411985 20404 net.cpp:141] Setting up ReLU29
I0816 16:04:00.411996 20404 net.cpp:148] Top shape: 100 96 16 16 (2457600)
I0816 16:04:00.412005 20404 net.cpp:156] Memory required for data: 1039772800
I0816 16:04:00.412012 20404 layer_factory.hpp:77] Creating layer norm1
I0816 16:04:00.412025 20404 net.cpp:91] Creating Layer norm1
I0816 16:04:00.412035 20404 net.cpp:425] norm1 <- Convolution21
I0816 16:04:00.412046 20404 net.cpp:399] norm1 -> LRN9
I0816 16:04:00.412104 20404 net.cpp:141] Setting up norm1
I0816 16:04:00.412147 20404 net.cpp:148] Top shape: 100 96 16 16 (2457600)
I0816 16:04:00.412173 20404 net.cpp:156] Memory required for data: 1049603200
I0816 16:04:00.412199 20404 layer_factory.hpp:77] Creating layer pool1
I0816 16:04:00.412228 20404 net.cpp:91] Creating Layer pool1
I0816 16:04:00.412253 20404 net.cpp:425] pool1 <- LRN9
I0816 16:04:00.412354 20404 net.cpp:399] pool1 -> Pooling13
I0816 16:04:00.412441 20404 net.cpp:141] Setting up pool1
I0816 16:04:00.412472 20404 net.cpp:148] Top shape: 100 96 8 8 (614400)
I0816 16:04:00.412497 20404 net.cpp:156] Memory required for data: 1052060800
I0816 16:04:00.412528 20404 layer_factory.hpp:77] Creating layer conv2
I0816 16:04:00.412569 20404 net.cpp:91] Creating Layer conv2
I0816 16:04:00.412595 20404 net.cpp:425] conv2 <- Pooling13
I0816 16:04:00.412642 20404 net.cpp:399] conv2 -> Convolution22
I0816 16:04:00.428387 20404 net.cpp:141] Setting up conv2
I0816 16:04:00.428409 20404 net.cpp:148] Top shape: 100 256 8 8 (1638400)
I0816 16:04:00.428416 20404 net.cpp:156] Memory required for data: 1058614400
I0816 16:04:00.428428 20404 layer_factory.hpp:77] Creating layer ReLU30
I0816 16:04:00.428439 20404 net.cpp:91] Creating Layer ReLU30
I0816 16:04:00.428453 20404 net.cpp:425] ReLU30 <- Convolution22
I0816 16:04:00.428465 20404 net.cpp:386] ReLU30 -> Convolution22 (in-place)
I0816 16:04:00.428481 20404 net.cpp:141] Setting up ReLU30
I0816 16:04:00.428493 20404 net.cpp:148] Top shape: 100 256 8 8 (1638400)
I0816 16:04:00.428514 20404 net.cpp:156] Memory required for data: 1065168000
I0816 16:04:00.428524 20404 layer_factory.hpp:77] Creating layer norm2
I0816 16:04:00.428542 20404 net.cpp:91] Creating Layer norm2
I0816 16:04:00.428551 20404 net.cpp:425] norm2 <- Convolution22
I0816 16:04:00.428567 20404 net.cpp:399] norm2 -> LRN10
I0816 16:04:00.428632 20404 net.cpp:141] Setting up norm2
I0816 16:04:00.428645 20404 net.cpp:148] Top shape: 100 256 8 8 (1638400)
I0816 16:04:00.428653 20404 net.cpp:156] Memory required for data: 1071721600
I0816 16:04:00.428661 20404 layer_factory.hpp:77] Creating layer pool2
I0816 16:04:00.428676 20404 net.cpp:91] Creating Layer pool2
I0816 16:04:00.428684 20404 net.cpp:425] pool2 <- LRN10
I0816 16:04:00.428696 20404 net.cpp:399] pool2 -> Pooling14
I0816 16:04:00.428756 20404 net.cpp:141] Setting up pool2
I0816 16:04:00.428769 20404 net.cpp:148] Top shape: 100 256 4 4 (409600)
I0816 16:04:00.428777 20404 net.cpp:156] Memory required for data: 1073360000
I0816 16:04:00.428784 20404 layer_factory.hpp:77] Creating layer conv3
I0816 16:04:00.428810 20404 net.cpp:91] Creating Layer conv3
I0816 16:04:00.428819 20404 net.cpp:425] conv3 <- Pooling14
I0816 16:04:00.428835 20404 net.cpp:399] conv3 -> Convolution23
I0816 16:04:00.473500 20404 net.cpp:141] Setting up conv3
I0816 16:04:00.473536 20404 net.cpp:148] Top shape: 100 384 4 4 (614400)
I0816 16:04:00.473554 20404 net.cpp:156] Memory required for data: 1075817600
I0816 16:04:00.473570 20404 layer_factory.hpp:77] Creating layer ReLU31
I0816 16:04:00.473587 20404 net.cpp:91] Creating Layer ReLU31
I0816 16:04:00.473598 20404 net.cpp:425] ReLU31 <- Convolution23
I0816 16:04:00.473624 20404 net.cpp:386] ReLU31 -> Convolution23 (in-place)
I0816 16:04:00.473641 20404 net.cpp:141] Setting up ReLU31
I0816 16:04:00.473657 20404 net.cpp:148] Top shape: 100 384 4 4 (614400)
I0816 16:04:00.473664 20404 net.cpp:156] Memory required for data: 1078275200
I0816 16:04:00.473672 20404 layer_factory.hpp:77] Creating layer conv4
I0816 16:04:00.473693 20404 net.cpp:91] Creating Layer conv4
I0816 16:04:00.473706 20404 net.cpp:425] conv4 <- Convolution23
I0816 16:04:00.473721 20404 net.cpp:399] conv4 -> Convolution24
I0816 16:04:00.507323 20404 net.cpp:141] Setting up conv4
I0816 16:04:00.507367 20404 net.cpp:148] Top shape: 100 384 4 4 (614400)
I0816 16:04:00.507374 20404 net.cpp:156] Memory required for data: 1080732800
I0816 16:04:00.507387 20404 layer_factory.hpp:77] Creating layer ReLU32
I0816 16:04:00.507405 20404 net.cpp:91] Creating Layer ReLU32
I0816 16:04:00.507426 20404 net.cpp:425] ReLU32 <- Convolution24
I0816 16:04:00.507438 20404 net.cpp:386] ReLU32 -> Convolution24 (in-place)
I0816 16:04:00.507453 20404 net.cpp:141] Setting up ReLU32
I0816 16:04:00.507460 20404 net.cpp:148] Top shape: 100 384 4 4 (614400)
I0816 16:04:00.507467 20404 net.cpp:156] Memory required for data: 1083190400
I0816 16:04:00.507472 20404 layer_factory.hpp:77] Creating layer conv5
I0816 16:04:00.507491 20404 net.cpp:91] Creating Layer conv5
I0816 16:04:00.507498 20404 net.cpp:425] conv5 <- Convolution24
I0816 16:04:00.507511 20404 net.cpp:399] conv5 -> Convolution25
I0816 16:04:00.529934 20404 net.cpp:141] Setting up conv5
I0816 16:04:00.529968 20404 net.cpp:148] Top shape: 100 256 4 4 (409600)
I0816 16:04:00.529975 20404 net.cpp:156] Memory required for data: 1084828800
I0816 16:04:00.529988 20404 layer_factory.hpp:77] Creating layer pool5
I0816 16:04:00.530038 20404 net.cpp:91] Creating Layer pool5
I0816 16:04:00.530048 20404 net.cpp:425] pool5 <- Convolution25
I0816 16:04:00.530059 20404 net.cpp:399] pool5 -> Pooling15
I0816 16:04:00.530119 20404 net.cpp:141] Setting up pool5
I0816 16:04:00.530128 20404 net.cpp:148] Top shape: 100 256 2 2 (102400)
I0816 16:04:00.530133 20404 net.cpp:156] Memory required for data: 1085238400
I0816 16:04:00.530138 20404 layer_factory.hpp:77] Creating layer InnerProduct13
I0816 16:04:00.530153 20404 net.cpp:91] Creating Layer InnerProduct13
I0816 16:04:00.530158 20404 net.cpp:425] InnerProduct13 <- Pooling15
I0816 16:04:00.530169 20404 net.cpp:399] InnerProduct13 -> InnerProduct13
I0816 16:04:00.532909 20404 net.cpp:141] Setting up InnerProduct13
I0816 16:04:00.532929 20404 net.cpp:148] Top shape: 100 256 (25600)
I0816 16:04:00.532946 20404 net.cpp:156] Memory required for data: 1085340800
I0816 16:04:00.532956 20404 net.cpp:484] Sharing parameters 'fc6_w' owned by layer 'InnerProduct1', param index 0
I0816 16:04:00.532966 20404 net.cpp:484] Sharing parameters 'fc6_b' owned by layer 'InnerProduct1', param index 1
I0816 16:04:00.532974 20404 layer_factory.hpp:77] Creating layer ReLU33
I0816 16:04:00.532989 20404 net.cpp:91] Creating Layer ReLU33
I0816 16:04:00.532997 20404 net.cpp:425] ReLU33 <- InnerProduct13
I0816 16:04:00.533020 20404 net.cpp:386] ReLU33 -> InnerProduct13 (in-place)
I0816 16:04:00.533032 20404 net.cpp:141] Setting up ReLU33
I0816 16:04:00.533043 20404 net.cpp:148] Top shape: 100 256 (25600)
I0816 16:04:00.533051 20404 net.cpp:156] Memory required for data: 1085443200
I0816 16:04:00.533057 20404 layer_factory.hpp:77] Creating layer InnerProduct14
I0816 16:04:00.533073 20404 net.cpp:91] Creating Layer InnerProduct14
I0816 16:04:00.533082 20404 net.cpp:425] InnerProduct14 <- InnerProduct13
I0816 16:04:00.533094 20404 net.cpp:399] InnerProduct14 -> InnerProduct14
I0816 16:04:00.533761 20404 net.cpp:141] Setting up InnerProduct14
I0816 16:04:00.533774 20404 net.cpp:148] Top shape: 100 256 (25600)
I0816 16:04:00.533782 20404 net.cpp:156] Memory required for data: 1085545600
I0816 16:04:00.533792 20404 net.cpp:484] Sharing parameters 'fc7_w' owned by layer 'InnerProduct2', param index 0
I0816 16:04:00.533800 20404 net.cpp:484] Sharing parameters 'fc7_b' owned by layer 'InnerProduct2', param index 1
I0816 16:04:00.533808 20404 layer_factory.hpp:77] Creating layer ReLU34
I0816 16:04:00.533818 20404 net.cpp:91] Creating Layer ReLU34
I0816 16:04:00.533828 20404 net.cpp:425] ReLU34 <- InnerProduct14
I0816 16:04:00.533838 20404 net.cpp:386] ReLU34 -> InnerProduct14 (in-place)
I0816 16:04:00.533850 20404 net.cpp:141] Setting up ReLU34
I0816 16:04:00.533860 20404 net.cpp:148] Top shape: 100 256 (25600)
I0816 16:04:00.533869 20404 net.cpp:156] Memory required for data: 1085648000
I0816 16:04:00.533875 20404 layer_factory.hpp:77] Creating layer conv1
I0816 16:04:00.533898 20404 net.cpp:91] Creating Layer conv1
I0816 16:04:00.533908 20404 net.cpp:425] conv1 <- c22
I0816 16:04:00.533922 20404 net.cpp:399] conv1 -> Convolution26
I0816 16:04:00.535998 20404 net.cpp:141] Setting up conv1
I0816 16:04:00.536015 20404 net.cpp:148] Top shape: 100 96 16 16 (2457600)
I0816 16:04:00.536023 20404 net.cpp:156] Memory required for data: 1095478400
I0816 16:04:00.536037 20404 layer_factory.hpp:77] Creating layer ReLU35
I0816 16:04:00.536049 20404 net.cpp:91] Creating Layer ReLU35
I0816 16:04:00.536057 20404 net.cpp:425] ReLU35 <- Convolution26
I0816 16:04:00.536072 20404 net.cpp:386] ReLU35 -> Convolution26 (in-place)
I0816 16:04:00.536087 20404 net.cpp:141] Setting up ReLU35
I0816 16:04:00.536097 20404 net.cpp:148] Top shape: 100 96 16 16 (2457600)
I0816 16:04:00.536104 20404 net.cpp:156] Memory required for data: 1105308800
I0816 16:04:00.536111 20404 layer_factory.hpp:77] Creating layer norm1
I0816 16:04:00.536123 20404 net.cpp:91] Creating Layer norm1
I0816 16:04:00.536133 20404 net.cpp:425] norm1 <- Convolution26
I0816 16:04:00.536149 20404 net.cpp:399] norm1 -> LRN11
I0816 16:04:00.536202 20404 net.cpp:141] Setting up norm1
I0816 16:04:00.536229 20404 net.cpp:148] Top shape: 100 96 16 16 (2457600)
I0816 16:04:00.536237 20404 net.cpp:156] Memory required for data: 1115139200
I0816 16:04:00.536244 20404 layer_factory.hpp:77] Creating layer pool1
I0816 16:04:00.536258 20404 net.cpp:91] Creating Layer pool1
I0816 16:04:00.536267 20404 net.cpp:425] pool1 <- LRN11
I0816 16:04:00.536278 20404 net.cpp:399] pool1 -> Pooling16
I0816 16:04:00.536339 20404 net.cpp:141] Setting up pool1
I0816 16:04:00.536352 20404 net.cpp:148] Top shape: 100 96 8 8 (614400)
I0816 16:04:00.536360 20404 net.cpp:156] Memory required for data: 1117596800
I0816 16:04:00.536367 20404 layer_factory.hpp:77] Creating layer conv2
I0816 16:04:00.536386 20404 net.cpp:91] Creating Layer conv2
I0816 16:04:00.536398 20404 net.cpp:425] conv2 <- Pooling16
I0816 16:04:00.536412 20404 net.cpp:399] conv2 -> Convolution27
I0816 16:04:00.551996 20404 net.cpp:141] Setting up conv2
I0816 16:04:00.552018 20404 net.cpp:148] Top shape: 100 256 8 8 (1638400)
I0816 16:04:00.552027 20404 net.cpp:156] Memory required for data: 1124150400
I0816 16:04:00.552043 20404 layer_factory.hpp:77] Creating layer ReLU36
I0816 16:04:00.552055 20404 net.cpp:91] Creating Layer ReLU36
I0816 16:04:00.552065 20404 net.cpp:425] ReLU36 <- Convolution27
I0816 16:04:00.552078 20404 net.cpp:386] ReLU36 -> Convolution27 (in-place)
I0816 16:04:00.552093 20404 net.cpp:141] Setting up ReLU36
I0816 16:04:00.552103 20404 net.cpp:148] Top shape: 100 256 8 8 (1638400)
I0816 16:04:00.552110 20404 net.cpp:156] Memory required for data: 1130704000
I0816 16:04:00.552117 20404 layer_factory.hpp:77] Creating layer norm2
I0816 16:04:00.552134 20404 net.cpp:91] Creating Layer norm2
I0816 16:04:00.552142 20404 net.cpp:425] norm2 <- Convolution27
I0816 16:04:00.552157 20404 net.cpp:399] norm2 -> LRN12
I0816 16:04:00.552222 20404 net.cpp:141] Setting up norm2
I0816 16:04:00.552237 20404 net.cpp:148] Top shape: 100 256 8 8 (1638400)
I0816 16:04:00.552243 20404 net.cpp:156] Memory required for data: 1137257600
I0816 16:04:00.552251 20404 layer_factory.hpp:77] Creating layer pool2
I0816 16:04:00.552265 20404 net.cpp:91] Creating Layer pool2
I0816 16:04:00.552273 20404 net.cpp:425] pool2 <- LRN12
I0816 16:04:00.552285 20404 net.cpp:399] pool2 -> Pooling17
I0816 16:04:00.552345 20404 net.cpp:141] Setting up pool2
I0816 16:04:00.552357 20404 net.cpp:148] Top shape: 100 256 4 4 (409600)
I0816 16:04:00.552366 20404 net.cpp:156] Memory required for data: 1138896000
I0816 16:04:00.552372 20404 layer_factory.hpp:77] Creating layer conv3
I0816 16:04:00.552392 20404 net.cpp:91] Creating Layer conv3
I0816 16:04:00.552402 20404 net.cpp:425] conv3 <- Pooling17
I0816 16:04:00.552418 20404 net.cpp:399] conv3 -> Convolution28
I0816 16:04:00.596451 20404 net.cpp:141] Setting up conv3
I0816 16:04:00.596480 20404 net.cpp:148] Top shape: 100 384 4 4 (614400)
I0816 16:04:00.596489 20404 net.cpp:156] Memory required for data: 1141353600
I0816 16:04:00.596518 20404 layer_factory.hpp:77] Creating layer ReLU37
I0816 16:04:00.596534 20404 net.cpp:91] Creating Layer ReLU37
I0816 16:04:00.596545 20404 net.cpp:425] ReLU37 <- Convolution28
I0816 16:04:00.596559 20404 net.cpp:386] ReLU37 -> Convolution28 (in-place)
I0816 16:04:00.596575 20404 net.cpp:141] Setting up ReLU37
I0816 16:04:00.596585 20404 net.cpp:148] Top shape: 100 384 4 4 (614400)
I0816 16:04:00.596592 20404 net.cpp:156] Memory required for data: 1143811200
I0816 16:04:00.596601 20404 layer_factory.hpp:77] Creating layer conv4
I0816 16:04:00.596621 20404 net.cpp:91] Creating Layer conv4
I0816 16:04:00.596637 20404 net.cpp:425] conv4 <- Convolution28
I0816 16:04:00.596654 20404 net.cpp:399] conv4 -> Convolution29
I0816 16:04:00.630302 20404 net.cpp:141] Setting up conv4
I0816 16:04:00.630338 20404 net.cpp:148] Top shape: 100 384 4 4 (614400)
I0816 16:04:00.630347 20404 net.cpp:156] Memory required for data: 1146268800
I0816 16:04:00.630365 20404 layer_factory.hpp:77] Creating layer ReLU38
I0816 16:04:00.630381 20404 net.cpp:91] Creating Layer ReLU38
I0816 16:04:00.630396 20404 net.cpp:425] ReLU38 <- Convolution29
I0816 16:04:00.630429 20404 net.cpp:386] ReLU38 -> Convolution29 (in-place)
I0816 16:04:00.630446 20404 net.cpp:141] Setting up ReLU38
I0816 16:04:00.630457 20404 net.cpp:148] Top shape: 100 384 4 4 (614400)
I0816 16:04:00.630465 20404 net.cpp:156] Memory required for data: 1148726400
I0816 16:04:00.630472 20404 layer_factory.hpp:77] Creating layer conv5
I0816 16:04:00.630493 20404 net.cpp:91] Creating Layer conv5
I0816 16:04:00.630502 20404 net.cpp:425] conv5 <- Convolution29
I0816 16:04:00.630517 20404 net.cpp:399] conv5 -> Convolution30
I0816 16:04:00.653234 20404 net.cpp:141] Setting up conv5
I0816 16:04:00.653265 20404 net.cpp:148] Top shape: 100 256 4 4 (409600)
I0816 16:04:00.653283 20404 net.cpp:156] Memory required for data: 1150364800
I0816 16:04:00.653301 20404 layer_factory.hpp:77] Creating layer pool5
I0816 16:04:00.653316 20404 net.cpp:91] Creating Layer pool5
I0816 16:04:00.653326 20404 net.cpp:425] pool5 <- Convolution30
I0816 16:04:00.653352 20404 net.cpp:399] pool5 -> Pooling18
I0816 16:04:00.653419 20404 net.cpp:141] Setting up pool5
I0816 16:04:00.653435 20404 net.cpp:148] Top shape: 100 256 2 2 (102400)
I0816 16:04:00.653444 20404 net.cpp:156] Memory required for data: 1150774400
I0816 16:04:00.653450 20404 layer_factory.hpp:77] Creating layer InnerProduct15
I0816 16:04:00.653465 20404 net.cpp:91] Creating Layer InnerProduct15
I0816 16:04:00.653473 20404 net.cpp:425] InnerProduct15 <- Pooling18
I0816 16:04:00.653489 20404 net.cpp:399] InnerProduct15 -> InnerProduct15
I0816 16:04:00.656383 20404 net.cpp:141] Setting up InnerProduct15
I0816 16:04:00.656433 20404 net.cpp:148] Top shape: 100 256 (25600)
I0816 16:04:00.656458 20404 net.cpp:156] Memory required for data: 1150876800
I0816 16:04:00.656486 20404 net.cpp:484] Sharing parameters 'fc6_w' owned by layer 'InnerProduct1', param index 0
I0816 16:04:00.656512 20404 net.cpp:484] Sharing parameters 'fc6_b' owned by layer 'InnerProduct1', param index 1
I0816 16:04:00.656538 20404 layer_factory.hpp:77] Creating layer ReLU39
I0816 16:04:00.656564 20404 net.cpp:91] Creating Layer ReLU39
I0816 16:04:00.656589 20404 net.cpp:425] ReLU39 <- InnerProduct15
I0816 16:04:00.656618 20404 net.cpp:386] ReLU39 -> InnerProduct15 (in-place)
I0816 16:04:00.656649 20404 net.cpp:141] Setting up ReLU39
I0816 16:04:00.656675 20404 net.cpp:148] Top shape: 100 256 (25600)
I0816 16:04:00.656697 20404 net.cpp:156] Memory required for data: 1150979200
I0816 16:04:00.656723 20404 layer_factory.hpp:77] Creating layer InnerProduct16
I0816 16:04:00.656756 20404 net.cpp:91] Creating Layer InnerProduct16
I0816 16:04:00.656785 20404 net.cpp:425] InnerProduct16 <- InnerProduct15
I0816 16:04:00.656821 20404 net.cpp:399] InnerProduct16 -> InnerProduct16
I0816 16:04:00.657528 20404 net.cpp:141] Setting up InnerProduct16
I0816 16:04:00.657546 20404 net.cpp:148] Top shape: 100 256 (25600)
I0816 16:04:00.657554 20404 net.cpp:156] Memory required for data: 1151081600
I0816 16:04:00.657563 20404 net.cpp:484] Sharing parameters 'fc7_w' owned by layer 'InnerProduct2', param index 0
I0816 16:04:00.657573 20404 net.cpp:484] Sharing parameters 'fc7_b' owned by layer 'InnerProduct2', param index 1
I0816 16:04:00.657582 20404 layer_factory.hpp:77] Creating layer ReLU40
I0816 16:04:00.657595 20404 net.cpp:91] Creating Layer ReLU40
I0816 16:04:00.657603 20404 net.cpp:425] ReLU40 <- InnerProduct16
I0816 16:04:00.657615 20404 net.cpp:386] ReLU40 -> InnerProduct16 (in-place)
I0816 16:04:00.657629 20404 net.cpp:141] Setting up ReLU40
I0816 16:04:00.657639 20404 net.cpp:148] Top shape: 100 256 (25600)
I0816 16:04:00.657646 20404 net.cpp:156] Memory required for data: 1151184000
I0816 16:04:00.657654 20404 layer_factory.hpp:77] Creating layer Concat3
I0816 16:04:00.657665 20404 net.cpp:91] Creating Layer Concat3
I0816 16:04:00.657673 20404 net.cpp:425] Concat3 <- InnerProduct14
I0816 16:04:00.657683 20404 net.cpp:425] Concat3 <- InnerProduct16
I0816 16:04:00.657696 20404 net.cpp:399] Concat3 -> Concat3
I0816 16:04:00.657737 20404 net.cpp:141] Setting up Concat3
I0816 16:04:00.657774 20404 net.cpp:148] Top shape: 100 512 (51200)
I0816 16:04:00.657816 20404 net.cpp:156] Memory required for data: 1151388800
I0816 16:04:00.657843 20404 layer_factory.hpp:77] Creating layer InnerProduct17
I0816 16:04:00.657877 20404 net.cpp:91] Creating Layer InnerProduct17
I0816 16:04:00.657905 20404 net.cpp:425] InnerProduct17 <- Concat3
I0816 16:04:00.657941 20404 net.cpp:399] InnerProduct17 -> InnerProduct17
I0816 16:04:00.659143 20404 net.cpp:141] Setting up InnerProduct17
I0816 16:04:00.659160 20404 net.cpp:148] Top shape: 100 256 (25600)
I0816 16:04:00.659168 20404 net.cpp:156] Memory required for data: 1151491200
I0816 16:04:00.659178 20404 net.cpp:484] Sharing parameters 'fc8_w' owned by layer 'InnerProduct5', param index 0
I0816 16:04:00.659186 20404 net.cpp:484] Sharing parameters 'fc8_b' owned by layer 'InnerProduct5', param index 1
I0816 16:04:00.659195 20404 layer_factory.hpp:77] Creating layer ReLU41
I0816 16:04:00.659206 20404 net.cpp:91] Creating Layer ReLU41
I0816 16:04:00.659214 20404 net.cpp:425] ReLU41 <- InnerProduct17
I0816 16:04:00.659225 20404 net.cpp:386] ReLU41 -> InnerProduct17 (in-place)
I0816 16:04:00.659237 20404 net.cpp:141] Setting up ReLU41
I0816 16:04:00.659248 20404 net.cpp:148] Top shape: 100 256 (25600)
I0816 16:04:00.659255 20404 net.cpp:156] Memory required for data: 1151593600
I0816 16:04:00.659263 20404 layer_factory.hpp:77] Creating layer InnerProduct18
I0816 16:04:00.659281 20404 net.cpp:91] Creating Layer InnerProduct18
I0816 16:04:00.659291 20404 net.cpp:425] InnerProduct18 <- InnerProduct17
I0816 16:04:00.659307 20404 net.cpp:399] InnerProduct18 -> InnerProduct18
I0816 16:04:00.659714 20404 net.cpp:141] Setting up InnerProduct18
I0816 16:04:00.659729 20404 net.cpp:148] Top shape: 100 128 (12800)
I0816 16:04:00.659737 20404 net.cpp:156] Memory required for data: 1151644800
I0816 16:04:00.659745 20404 net.cpp:484] Sharing parameters 'fc9_w' owned by layer 'InnerProduct6', param index 0
I0816 16:04:00.659754 20404 net.cpp:484] Sharing parameters 'fc9_b' owned by layer 'InnerProduct6', param index 1
I0816 16:04:00.659764 20404 layer_factory.hpp:77] Creating layer ReLU42
I0816 16:04:00.659773 20404 net.cpp:91] Creating Layer ReLU42
I0816 16:04:00.659781 20404 net.cpp:425] ReLU42 <- InnerProduct18
I0816 16:04:00.659795 20404 net.cpp:386] ReLU42 -> InnerProduct18 (in-place)
I0816 16:04:00.659808 20404 net.cpp:141] Setting up ReLU42
I0816 16:04:00.659818 20404 net.cpp:148] Top shape: 100 128 (12800)
I0816 16:04:00.659826 20404 net.cpp:156] Memory required for data: 1151696000
I0816 16:04:00.659833 20404 layer_factory.hpp:77] Creating layer dt2
I0816 16:04:00.659845 20404 net.cpp:91] Creating Layer dt2
I0816 16:04:00.659853 20404 net.cpp:425] dt2 <- InnerProduct18
I0816 16:04:00.659867 20404 net.cpp:399] dt2 -> dt2
I0816 16:04:00.660009 20404 net.cpp:141] Setting up dt2
I0816 16:04:00.660023 20404 net.cpp:148] Top shape: 100 1 (100)
I0816 16:04:00.660030 20404 net.cpp:156] Memory required for data: 1151696400
I0816 16:04:00.660038 20404 net.cpp:484] Sharing parameters 'fc10_w' owned by layer 'dt0', param index 0
I0816 16:04:00.660048 20404 net.cpp:484] Sharing parameters 'fc10_b' owned by layer 'dt0', param index 1
I0816 16:04:00.660056 20404 layer_factory.hpp:77] Creating layer conv1
I0816 16:04:00.660073 20404 net.cpp:91] Creating Layer conv1
I0816 16:04:00.660081 20404 net.cpp:425] conv1 <- p1_p1_0_split_3
I0816 16:04:00.660099 20404 net.cpp:399] conv1 -> Convolution31
I0816 16:04:00.662819 20404 net.cpp:141] Setting up conv1
I0816 16:04:00.662844 20404 net.cpp:148] Top shape: 100 96 16 16 (2457600)
I0816 16:04:00.662853 20404 net.cpp:156] Memory required for data: 1161526800
I0816 16:04:00.662868 20404 layer_factory.hpp:77] Creating layer ReLU43
I0816 16:04:00.662883 20404 net.cpp:91] Creating Layer ReLU43
I0816 16:04:00.662894 20404 net.cpp:425] ReLU43 <- Convolution31
I0816 16:04:00.662905 20404 net.cpp:386] ReLU43 -> Convolution31 (in-place)
I0816 16:04:00.662920 20404 net.cpp:141] Setting up ReLU43
I0816 16:04:00.662930 20404 net.cpp:148] Top shape: 100 96 16 16 (2457600)
I0816 16:04:00.662938 20404 net.cpp:156] Memory required for data: 1171357200
I0816 16:04:00.662971 20404 layer_factory.hpp:77] Creating layer norm1
I0816 16:04:00.662988 20404 net.cpp:91] Creating Layer norm1
I0816 16:04:00.662997 20404 net.cpp:425] norm1 <- Convolution31
I0816 16:04:00.663009 20404 net.cpp:399] norm1 -> LRN13
I0816 16:04:00.663065 20404 net.cpp:141] Setting up norm1
I0816 16:04:00.663079 20404 net.cpp:148] Top shape: 100 96 16 16 (2457600)
I0816 16:04:00.663086 20404 net.cpp:156] Memory required for data: 1181187600
I0816 16:04:00.663094 20404 layer_factory.hpp:77] Creating layer pool1
I0816 16:04:00.663105 20404 net.cpp:91] Creating Layer pool1
I0816 16:04:00.663113 20404 net.cpp:425] pool1 <- LRN13
I0816 16:04:00.663128 20404 net.cpp:399] pool1 -> Pooling19
I0816 16:04:00.663187 20404 net.cpp:141] Setting up pool1
I0816 16:04:00.663199 20404 net.cpp:148] Top shape: 100 96 8 8 (614400)
I0816 16:04:00.663208 20404 net.cpp:156] Memory required for data: 1183645200
I0816 16:04:00.663214 20404 layer_factory.hpp:77] Creating layer conv2
I0816 16:04:00.663239 20404 net.cpp:91] Creating Layer conv2
I0816 16:04:00.663250 20404 net.cpp:425] conv2 <- Pooling19
I0816 16:04:00.663264 20404 net.cpp:399] conv2 -> Convolution32
I0816 16:04:00.679116 20404 net.cpp:141] Setting up conv2
I0816 16:04:00.679150 20404 net.cpp:148] Top shape: 100 256 8 8 (1638400)
I0816 16:04:00.679158 20404 net.cpp:156] Memory required for data: 1190198800
I0816 16:04:00.679178 20404 layer_factory.hpp:77] Creating layer ReLU44
I0816 16:04:00.679196 20404 net.cpp:91] Creating Layer ReLU44
I0816 16:04:00.679208 20404 net.cpp:425] ReLU44 <- Convolution32
I0816 16:04:00.679219 20404 net.cpp:386] ReLU44 -> Convolution32 (in-place)
I0816 16:04:00.679235 20404 net.cpp:141] Setting up ReLU44
I0816 16:04:00.679245 20404 net.cpp:148] Top shape: 100 256 8 8 (1638400)
I0816 16:04:00.679253 20404 net.cpp:156] Memory required for data: 1196752400
I0816 16:04:00.679261 20404 layer_factory.hpp:77] Creating layer norm2
I0816 16:04:00.679292 20404 net.cpp:91] Creating Layer norm2
I0816 16:04:00.679302 20404 net.cpp:425] norm2 <- Convolution32
I0816 16:04:00.679318 20404 net.cpp:399] norm2 -> LRN14
I0816 16:04:00.679379 20404 net.cpp:141] Setting up norm2
I0816 16:04:00.679394 20404 net.cpp:148] Top shape: 100 256 8 8 (1638400)
I0816 16:04:00.679401 20404 net.cpp:156] Memory required for data: 1203306000
I0816 16:04:00.679409 20404 layer_factory.hpp:77] Creating layer pool2
I0816 16:04:00.679424 20404 net.cpp:91] Creating Layer pool2
I0816 16:04:00.679432 20404 net.cpp:425] pool2 <- LRN14
I0816 16:04:00.679443 20404 net.cpp:399] pool2 -> Pooling20
I0816 16:04:00.679527 20404 net.cpp:141] Setting up pool2
I0816 16:04:00.679541 20404 net.cpp:148] Top shape: 100 256 4 4 (409600)
I0816 16:04:00.679549 20404 net.cpp:156] Memory required for data: 1204944400
I0816 16:04:00.679558 20404 layer_factory.hpp:77] Creating layer conv3
I0816 16:04:00.679594 20404 net.cpp:91] Creating Layer conv3
I0816 16:04:00.679605 20404 net.cpp:425] conv3 <- Pooling20
I0816 16:04:00.679622 20404 net.cpp:399] conv3 -> Convolution33
I0816 16:04:00.723567 20404 net.cpp:141] Setting up conv3
I0816 16:04:00.723598 20404 net.cpp:148] Top shape: 100 384 4 4 (614400)
I0816 16:04:00.723618 20404 net.cpp:156] Memory required for data: 1207402000
I0816 16:04:00.723634 20404 layer_factory.hpp:77] Creating layer ReLU45
I0816 16:04:00.723649 20404 net.cpp:91] Creating Layer ReLU45
I0816 16:04:00.723659 20404 net.cpp:425] ReLU45 <- Convolution33
I0816 16:04:00.723685 20404 net.cpp:386] ReLU45 -> Convolution33 (in-place)
I0816 16:04:00.723702 20404 net.cpp:141] Setting up ReLU45
I0816 16:04:00.723717 20404 net.cpp:148] Top shape: 100 384 4 4 (614400)
I0816 16:04:00.723726 20404 net.cpp:156] Memory required for data: 1209859600
I0816 16:04:00.723733 20404 layer_factory.hpp:77] Creating layer conv4
I0816 16:04:00.723754 20404 net.cpp:91] Creating Layer conv4
I0816 16:04:00.723767 20404 net.cpp:425] conv4 <- Convolution33
I0816 16:04:00.723783 20404 net.cpp:399] conv4 -> Convolution34
I0816 16:04:00.756883 20404 net.cpp:141] Setting up conv4
I0816 16:04:00.756932 20404 net.cpp:148] Top shape: 100 384 4 4 (614400)
I0816 16:04:00.756952 20404 net.cpp:156] Memory required for data: 1212317200
I0816 16:04:00.756968 20404 layer_factory.hpp:77] Creating layer ReLU46
I0816 16:04:00.756984 20404 net.cpp:91] Creating Layer ReLU46
I0816 16:04:00.756994 20404 net.cpp:425] ReLU46 <- Convolution34
I0816 16:04:00.757016 20404 net.cpp:386] ReLU46 -> Convolution34 (in-place)
I0816 16:04:00.757031 20404 net.cpp:141] Setting up ReLU46
I0816 16:04:00.757041 20404 net.cpp:148] Top shape: 100 384 4 4 (614400)
I0816 16:04:00.757050 20404 net.cpp:156] Memory required for data: 1214774800
I0816 16:04:00.757056 20404 layer_factory.hpp:77] Creating layer conv5
I0816 16:04:00.757076 20404 net.cpp:91] Creating Layer conv5
I0816 16:04:00.757086 20404 net.cpp:425] conv5 <- Convolution34
I0816 16:04:00.757102 20404 net.cpp:399] conv5 -> Convolution35
I0816 16:04:00.779392 20404 net.cpp:141] Setting up conv5
I0816 16:04:00.779417 20404 net.cpp:148] Top shape: 100 256 4 4 (409600)
I0816 16:04:00.779425 20404 net.cpp:156] Memory required for data: 1216413200
I0816 16:04:00.779441 20404 layer_factory.hpp:77] Creating layer pool5
I0816 16:04:00.779465 20404 net.cpp:91] Creating Layer pool5
I0816 16:04:00.779476 20404 net.cpp:425] pool5 <- Convolution35
I0816 16:04:00.779490 20404 net.cpp:399] pool5 -> Pooling21
I0816 16:04:00.779558 20404 net.cpp:141] Setting up pool5
I0816 16:04:00.779572 20404 net.cpp:148] Top shape: 100 256 2 2 (102400)
I0816 16:04:00.779580 20404 net.cpp:156] Memory required for data: 1216822800
I0816 16:04:00.779588 20404 layer_factory.hpp:77] Creating layer InnerProduct19
I0816 16:04:00.779605 20404 net.cpp:91] Creating Layer InnerProduct19
I0816 16:04:00.779614 20404 net.cpp:425] InnerProduct19 <- Pooling21
I0816 16:04:00.779628 20404 net.cpp:399] InnerProduct19 -> InnerProduct19
I0816 16:04:00.782337 20404 net.cpp:141] Setting up InnerProduct19
I0816 16:04:00.782357 20404 net.cpp:148] Top shape: 100 256 (25600)
I0816 16:04:00.782374 20404 net.cpp:156] Memory required for data: 1216925200
I0816 16:04:00.782384 20404 net.cpp:484] Sharing parameters 'fc6_w' owned by layer 'InnerProduct1', param index 0
I0816 16:04:00.782394 20404 net.cpp:484] Sharing parameters 'fc6_b' owned by layer 'InnerProduct1', param index 1
I0816 16:04:00.782402 20404 layer_factory.hpp:77] Creating layer ReLU47
I0816 16:04:00.782416 20404 net.cpp:91] Creating Layer ReLU47
I0816 16:04:00.782425 20404 net.cpp:425] ReLU47 <- InnerProduct19
I0816 16:04:00.782446 20404 net.cpp:386] ReLU47 -> InnerProduct19 (in-place)
I0816 16:04:00.782460 20404 net.cpp:141] Setting up ReLU47
I0816 16:04:00.782470 20404 net.cpp:148] Top shape: 100 256 (25600)
I0816 16:04:00.782479 20404 net.cpp:156] Memory required for data: 1217027600
I0816 16:04:00.782486 20404 layer_factory.hpp:77] Creating layer InnerProduct20
I0816 16:04:00.782501 20404 net.cpp:91] Creating Layer InnerProduct20
I0816 16:04:00.782510 20404 net.cpp:425] InnerProduct20 <- InnerProduct19
I0816 16:04:00.782522 20404 net.cpp:399] InnerProduct20 -> InnerProduct20
I0816 16:04:00.783190 20404 net.cpp:141] Setting up InnerProduct20
I0816 16:04:00.783205 20404 net.cpp:148] Top shape: 100 256 (25600)
I0816 16:04:00.783221 20404 net.cpp:156] Memory required for data: 1217130000
I0816 16:04:00.783229 20404 net.cpp:484] Sharing parameters 'fc7_w' owned by layer 'InnerProduct2', param index 0
I0816 16:04:00.783239 20404 net.cpp:484] Sharing parameters 'fc7_b' owned by layer 'InnerProduct2', param index 1
I0816 16:04:00.783246 20404 layer_factory.hpp:77] Creating layer ReLU48
I0816 16:04:00.783257 20404 net.cpp:91] Creating Layer ReLU48
I0816 16:04:00.783265 20404 net.cpp:425] ReLU48 <- InnerProduct20
I0816 16:04:00.783282 20404 net.cpp:386] ReLU48 -> InnerProduct20 (in-place)
I0816 16:04:00.783295 20404 net.cpp:141] Setting up ReLU48
I0816 16:04:00.783305 20404 net.cpp:148] Top shape: 100 256 (25600)
I0816 16:04:00.783313 20404 net.cpp:156] Memory required for data: 1217232400
I0816 16:04:00.783320 20404 layer_factory.hpp:77] Creating layer conv1
I0816 16:04:00.783360 20404 net.cpp:91] Creating Layer conv1
I0816 16:04:00.783370 20404 net.cpp:425] conv1 <- c23
I0816 16:04:00.783385 20404 net.cpp:399] conv1 -> Convolution36
I0816 16:04:00.785408 20404 net.cpp:141] Setting up conv1
I0816 16:04:00.785423 20404 net.cpp:148] Top shape: 100 96 16 16 (2457600)
I0816 16:04:00.785430 20404 net.cpp:156] Memory required for data: 1227062800
I0816 16:04:00.785444 20404 layer_factory.hpp:77] Creating layer ReLU49
I0816 16:04:00.785454 20404 net.cpp:91] Creating Layer ReLU49
I0816 16:04:00.785466 20404 net.cpp:425] ReLU49 <- Convolution36
I0816 16:04:00.785477 20404 net.cpp:386] ReLU49 -> Convolution36 (in-place)
I0816 16:04:00.785490 20404 net.cpp:141] Setting up ReLU49
I0816 16:04:00.785501 20404 net.cpp:148] Top shape: 100 96 16 16 (2457600)
I0816 16:04:00.785508 20404 net.cpp:156] Memory required for data: 1236893200
I0816 16:04:00.785516 20404 layer_factory.hpp:77] Creating layer norm1
I0816 16:04:00.785527 20404 net.cpp:91] Creating Layer norm1
I0816 16:04:00.785537 20404 net.cpp:425] norm1 <- Convolution36
I0816 16:04:00.785552 20404 net.cpp:399] norm1 -> LRN15
I0816 16:04:00.785605 20404 net.cpp:141] Setting up norm1
I0816 16:04:00.785619 20404 net.cpp:148] Top shape: 100 96 16 16 (2457600)
I0816 16:04:00.785626 20404 net.cpp:156] Memory required for data: 1246723600
I0816 16:04:00.785634 20404 layer_factory.hpp:77] Creating layer pool1
I0816 16:04:00.785647 20404 net.cpp:91] Creating Layer pool1
I0816 16:04:00.785656 20404 net.cpp:425] pool1 <- LRN15
I0816 16:04:00.785667 20404 net.cpp:399] pool1 -> Pooling22
I0816 16:04:00.785728 20404 net.cpp:141] Setting up pool1
I0816 16:04:00.785742 20404 net.cpp:148] Top shape: 100 96 8 8 (614400)
I0816 16:04:00.785750 20404 net.cpp:156] Memory required for data: 1249181200
I0816 16:04:00.785758 20404 layer_factory.hpp:77] Creating layer conv2
I0816 16:04:00.785775 20404 net.cpp:91] Creating Layer conv2
I0816 16:04:00.785784 20404 net.cpp:425] conv2 <- Pooling22
I0816 16:04:00.785799 20404 net.cpp:399] conv2 -> Convolution37
I0816 16:04:00.801414 20404 net.cpp:141] Setting up conv2
I0816 16:04:00.801439 20404 net.cpp:148] Top shape: 100 256 8 8 (1638400)
I0816 16:04:00.801458 20404 net.cpp:156] Memory required for data: 1255734800
I0816 16:04:00.801473 20404 layer_factory.hpp:77] Creating layer ReLU50
I0816 16:04:00.801486 20404 net.cpp:91] Creating Layer ReLU50
I0816 16:04:00.801496 20404 net.cpp:425] ReLU50 <- Convolution37
I0816 16:04:00.801509 20404 net.cpp:386] ReLU50 -> Convolution37 (in-place)
I0816 16:04:00.801533 20404 net.cpp:141] Setting up ReLU50
I0816 16:04:00.801543 20404 net.cpp:148] Top shape: 100 256 8 8 (1638400)
I0816 16:04:00.801551 20404 net.cpp:156] Memory required for data: 1262288400
I0816 16:04:00.801558 20404 layer_factory.hpp:77] Creating layer norm2
I0816 16:04:00.801573 20404 net.cpp:91] Creating Layer norm2
I0816 16:04:00.801583 20404 net.cpp:425] norm2 <- Convolution37
I0816 16:04:00.801597 20404 net.cpp:399] norm2 -> LRN16
I0816 16:04:00.801659 20404 net.cpp:141] Setting up norm2
I0816 16:04:00.801673 20404 net.cpp:148] Top shape: 100 256 8 8 (1638400)
I0816 16:04:00.801681 20404 net.cpp:156] Memory required for data: 1268842000
I0816 16:04:00.801688 20404 layer_factory.hpp:77] Creating layer pool2
I0816 16:04:00.801702 20404 net.cpp:91] Creating Layer pool2
I0816 16:04:00.801710 20404 net.cpp:425] pool2 <- LRN16
I0816 16:04:00.801723 20404 net.cpp:399] pool2 -> Pooling23
I0816 16:04:00.801785 20404 net.cpp:141] Setting up pool2
I0816 16:04:00.801800 20404 net.cpp:148] Top shape: 100 256 4 4 (409600)
I0816 16:04:00.801806 20404 net.cpp:156] Memory required for data: 1270480400
I0816 16:04:00.801815 20404 layer_factory.hpp:77] Creating layer conv3
I0816 16:04:00.801833 20404 net.cpp:91] Creating Layer conv3
I0816 16:04:00.801841 20404 net.cpp:425] conv3 <- Pooling23
I0816 16:04:00.801859 20404 net.cpp:399] conv3 -> Convolution38
I0816 16:04:00.845397 20404 net.cpp:141] Setting up conv3
I0816 16:04:00.845427 20404 net.cpp:148] Top shape: 100 384 4 4 (614400)
I0816 16:04:00.845435 20404 net.cpp:156] Memory required for data: 1272938000
I0816 16:04:00.845492 20404 layer_factory.hpp:77] Creating layer ReLU51
I0816 16:04:00.845515 20404 net.cpp:91] Creating Layer ReLU51
I0816 16:04:00.845546 20404 net.cpp:425] ReLU51 <- Convolution38
I0816 16:04:00.845562 20404 net.cpp:386] ReLU51 -> Convolution38 (in-place)
I0816 16:04:00.845580 20404 net.cpp:141] Setting up ReLU51
I0816 16:04:00.845595 20404 net.cpp:148] Top shape: 100 384 4 4 (614400)
I0816 16:04:00.845605 20404 net.cpp:156] Memory required for data: 1275395600
I0816 16:04:00.845614 20404 layer_factory.hpp:77] Creating layer conv4
I0816 16:04:00.845638 20404 net.cpp:91] Creating Layer conv4
I0816 16:04:00.845650 20404 net.cpp:425] conv4 <- Convolution38
I0816 16:04:00.845664 20404 net.cpp:399] conv4 -> Convolution39
I0816 16:04:00.878538 20404 net.cpp:141] Setting up conv4
I0816 16:04:00.878566 20404 net.cpp:148] Top shape: 100 384 4 4 (614400)
I0816 16:04:00.878574 20404 net.cpp:156] Memory required for data: 1277853200
I0816 16:04:00.878599 20404 layer_factory.hpp:77] Creating layer ReLU52
I0816 16:04:00.878636 20404 net.cpp:91] Creating Layer ReLU52
I0816 16:04:00.878650 20404 net.cpp:425] ReLU52 <- Convolution39
I0816 16:04:00.878671 20404 net.cpp:386] ReLU52 -> Convolution39 (in-place)
I0816 16:04:00.878689 20404 net.cpp:141] Setting up ReLU52
I0816 16:04:00.878703 20404 net.cpp:148] Top shape: 100 384 4 4 (614400)
I0816 16:04:00.878731 20404 net.cpp:156] Memory required for data: 1280310800
I0816 16:04:00.878742 20404 layer_factory.hpp:77] Creating layer conv5
I0816 16:04:00.878763 20404 net.cpp:91] Creating Layer conv5
I0816 16:04:00.878777 20404 net.cpp:425] conv5 <- Convolution39
I0816 16:04:00.878798 20404 net.cpp:399] conv5 -> Convolution40
I0816 16:04:00.901172 20404 net.cpp:141] Setting up conv5
I0816 16:04:00.901199 20404 net.cpp:148] Top shape: 100 256 4 4 (409600)
I0816 16:04:00.901207 20404 net.cpp:156] Memory required for data: 1281949200
I0816 16:04:00.901233 20404 layer_factory.hpp:77] Creating layer pool5
I0816 16:04:00.901289 20404 net.cpp:91] Creating Layer pool5
I0816 16:04:00.901327 20404 net.cpp:425] pool5 <- Convolution40
I0816 16:04:00.901363 20404 net.cpp:399] pool5 -> Pooling24
I0816 16:04:00.901442 20404 net.cpp:141] Setting up pool5
I0816 16:04:00.901455 20404 net.cpp:148] Top shape: 100 256 2 2 (102400)
I0816 16:04:00.901463 20404 net.cpp:156] Memory required for data: 1282358800
I0816 16:04:00.901470 20404 layer_factory.hpp:77] Creating layer InnerProduct21
I0816 16:04:00.901486 20404 net.cpp:91] Creating Layer InnerProduct21
I0816 16:04:00.901494 20404 net.cpp:425] InnerProduct21 <- Pooling24
I0816 16:04:00.901504 20404 net.cpp:399] InnerProduct21 -> InnerProduct21
I0816 16:04:00.904269 20404 net.cpp:141] Setting up InnerProduct21
I0816 16:04:00.904296 20404 net.cpp:148] Top shape: 100 256 (25600)
I0816 16:04:00.904302 20404 net.cpp:156] Memory required for data: 1282461200
I0816 16:04:00.904310 20404 net.cpp:484] Sharing parameters 'fc6_w' owned by layer 'InnerProduct1', param index 0
I0816 16:04:00.904319 20404 net.cpp:484] Sharing parameters 'fc6_b' owned by layer 'InnerProduct1', param index 1
I0816 16:04:00.904325 20404 layer_factory.hpp:77] Creating layer ReLU53
I0816 16:04:00.904335 20404 net.cpp:91] Creating Layer ReLU53
I0816 16:04:00.904342 20404 net.cpp:425] ReLU53 <- InnerProduct21
I0816 16:04:00.904362 20404 net.cpp:386] ReLU53 -> InnerProduct21 (in-place)
I0816 16:04:00.904373 20404 net.cpp:141] Setting up ReLU53
I0816 16:04:00.904381 20404 net.cpp:148] Top shape: 100 256 (25600)
I0816 16:04:00.904386 20404 net.cpp:156] Memory required for data: 1282563600
I0816 16:04:00.904392 20404 layer_factory.hpp:77] Creating layer InnerProduct22
I0816 16:04:00.904403 20404 net.cpp:91] Creating Layer InnerProduct22
I0816 16:04:00.904410 20404 net.cpp:425] InnerProduct22 <- InnerProduct21
I0816 16:04:00.904419 20404 net.cpp:399] InnerProduct22 -> InnerProduct22
I0816 16:04:00.905088 20404 net.cpp:141] Setting up InnerProduct22
I0816 16:04:00.905103 20404 net.cpp:148] Top shape: 100 256 (25600)
I0816 16:04:00.905109 20404 net.cpp:156] Memory required for data: 1282666000
I0816 16:04:00.905179 20404 net.cpp:484] Sharing parameters 'fc7_w' owned by layer 'InnerProduct2', param index 0
I0816 16:04:00.905189 20404 net.cpp:484] Sharing parameters 'fc7_b' owned by layer 'InnerProduct2', param index 1
I0816 16:04:00.905194 20404 layer_factory.hpp:77] Creating layer ReLU54
I0816 16:04:00.905203 20404 net.cpp:91] Creating Layer ReLU54
I0816 16:04:00.905210 20404 net.cpp:425] ReLU54 <- InnerProduct22
I0816 16:04:00.905221 20404 net.cpp:386] ReLU54 -> InnerProduct22 (in-place)
I0816 16:04:00.905232 20404 net.cpp:141] Setting up ReLU54
I0816 16:04:00.905239 20404 net.cpp:148] Top shape: 100 256 (25600)
I0816 16:04:00.905246 20404 net.cpp:156] Memory required for data: 1282768400
I0816 16:04:00.905251 20404 layer_factory.hpp:77] Creating layer Concat4
I0816 16:04:00.905261 20404 net.cpp:91] Creating Layer Concat4
I0816 16:04:00.905267 20404 net.cpp:425] Concat4 <- InnerProduct20
I0816 16:04:00.905275 20404 net.cpp:425] Concat4 <- InnerProduct22
I0816 16:04:00.905284 20404 net.cpp:399] Concat4 -> Concat4
I0816 16:04:00.905316 20404 net.cpp:141] Setting up Concat4
I0816 16:04:00.905361 20404 net.cpp:148] Top shape: 100 512 (51200)
I0816 16:04:00.905372 20404 net.cpp:156] Memory required for data: 1282973200
I0816 16:04:00.905380 20404 layer_factory.hpp:77] Creating layer InnerProduct23
I0816 16:04:00.905395 20404 net.cpp:91] Creating Layer InnerProduct23
I0816 16:04:00.905401 20404 net.cpp:425] InnerProduct23 <- Concat4
I0816 16:04:00.905411 20404 net.cpp:399] InnerProduct23 -> InnerProduct23
I0816 16:04:00.907155 20404 net.cpp:141] Setting up InnerProduct23
I0816 16:04:00.907179 20404 net.cpp:148] Top shape: 100 256 (25600)
I0816 16:04:00.907186 20404 net.cpp:156] Memory required for data: 1283075600
I0816 16:04:00.907192 20404 net.cpp:484] Sharing parameters 'fc8_w' owned by layer 'InnerProduct5', param index 0
I0816 16:04:00.907201 20404 net.cpp:484] Sharing parameters 'fc8_b' owned by layer 'InnerProduct5', param index 1
I0816 16:04:00.907207 20404 layer_factory.hpp:77] Creating layer ReLU55
I0816 16:04:00.907214 20404 net.cpp:91] Creating Layer ReLU55
I0816 16:04:00.907222 20404 net.cpp:425] ReLU55 <- InnerProduct23
I0816 16:04:00.907239 20404 net.cpp:386] ReLU55 -> InnerProduct23 (in-place)
I0816 16:04:00.907250 20404 net.cpp:141] Setting up ReLU55
I0816 16:04:00.907258 20404 net.cpp:148] Top shape: 100 256 (25600)
I0816 16:04:00.907263 20404 net.cpp:156] Memory required for data: 1283178000
I0816 16:04:00.907269 20404 layer_factory.hpp:77] Creating layer InnerProduct24
I0816 16:04:00.907297 20404 net.cpp:91] Creating Layer InnerProduct24
I0816 16:04:00.907304 20404 net.cpp:425] InnerProduct24 <- InnerProduct23
I0816 16:04:00.907313 20404 net.cpp:399] InnerProduct24 -> InnerProduct24
I0816 16:04:00.907719 20404 net.cpp:141] Setting up InnerProduct24
I0816 16:04:00.907730 20404 net.cpp:148] Top shape: 100 128 (12800)
I0816 16:04:00.907737 20404 net.cpp:156] Memory required for data: 1283229200
I0816 16:04:00.907743 20404 net.cpp:484] Sharing parameters 'fc9_w' owned by layer 'InnerProduct6', param index 0
I0816 16:04:00.907752 20404 net.cpp:484] Sharing parameters 'fc9_b' owned by layer 'InnerProduct6', param index 1
I0816 16:04:00.907758 20404 layer_factory.hpp:77] Creating layer ReLU56
I0816 16:04:00.907766 20404 net.cpp:91] Creating Layer ReLU56
I0816 16:04:00.907774 20404 net.cpp:425] ReLU56 <- InnerProduct24
I0816 16:04:00.907783 20404 net.cpp:386] ReLU56 -> InnerProduct24 (in-place)
I0816 16:04:00.907793 20404 net.cpp:141] Setting up ReLU56
I0816 16:04:00.907800 20404 net.cpp:148] Top shape: 100 128 (12800)
I0816 16:04:00.907806 20404 net.cpp:156] Memory required for data: 1283280400
I0816 16:04:00.907811 20404 layer_factory.hpp:77] Creating layer dt3
I0816 16:04:00.907821 20404 net.cpp:91] Creating Layer dt3
I0816 16:04:00.907827 20404 net.cpp:425] dt3 <- InnerProduct24
I0816 16:04:00.907842 20404 net.cpp:399] dt3 -> dt3
I0816 16:04:00.907984 20404 net.cpp:141] Setting up dt3
I0816 16:04:00.907994 20404 net.cpp:148] Top shape: 100 1 (100)
I0816 16:04:00.908023 20404 net.cpp:156] Memory required for data: 1283280800
I0816 16:04:00.908032 20404 net.cpp:484] Sharing parameters 'fc10_w' owned by layer 'dt0', param index 0
I0816 16:04:00.908041 20404 net.cpp:484] Sharing parameters 'fc10_b' owned by layer 'dt0', param index 1
I0816 16:04:00.908049 20404 layer_factory.hpp:77] Creating layer conv1
I0816 16:04:00.908071 20404 net.cpp:91] Creating Layer conv1
I0816 16:04:00.908077 20404 net.cpp:425] conv1 <- p1_p1_0_split_4
I0816 16:04:00.908088 20404 net.cpp:399] conv1 -> Convolution41
I0816 16:04:00.910678 20404 net.cpp:141] Setting up conv1
I0816 16:04:00.910706 20404 net.cpp:148] Top shape: 100 96 16 16 (2457600)
I0816 16:04:00.910712 20404 net.cpp:156] Memory required for data: 1293111200
I0816 16:04:00.910722 20404 layer_factory.hpp:77] Creating layer ReLU57
I0816 16:04:00.910730 20404 net.cpp:91] Creating Layer ReLU57
I0816 16:04:00.910737 20404 net.cpp:425] ReLU57 <- Convolution41
I0816 16:04:00.910748 20404 net.cpp:386] ReLU57 -> Convolution41 (in-place)
I0816 16:04:00.910765 20404 net.cpp:141] Setting up ReLU57
I0816 16:04:00.910773 20404 net.cpp:148] Top shape: 100 96 16 16 (2457600)
I0816 16:04:00.910778 20404 net.cpp:156] Memory required for data: 1302941600
I0816 16:04:00.910784 20404 layer_factory.hpp:77] Creating layer norm1
I0816 16:04:00.910795 20404 net.cpp:91] Creating Layer norm1
I0816 16:04:00.910802 20404 net.cpp:425] norm1 <- Convolution41
I0816 16:04:00.910811 20404 net.cpp:399] norm1 -> LRN17
I0816 16:04:00.910857 20404 net.cpp:141] Setting up norm1
I0816 16:04:00.910867 20404 net.cpp:148] Top shape: 100 96 16 16 (2457600)
I0816 16:04:00.910873 20404 net.cpp:156] Memory required for data: 1312772000
I0816 16:04:00.910878 20404 layer_factory.hpp:77] Creating layer pool1
I0816 16:04:00.910889 20404 net.cpp:91] Creating Layer pool1
I0816 16:04:00.910895 20404 net.cpp:425] pool1 <- LRN17
I0816 16:04:00.910904 20404 net.cpp:399] pool1 -> Pooling25
I0816 16:04:00.910956 20404 net.cpp:141] Setting up pool1
I0816 16:04:00.910966 20404 net.cpp:148] Top shape: 100 96 8 8 (614400)
I0816 16:04:00.910972 20404 net.cpp:156] Memory required for data: 1315229600
I0816 16:04:00.910977 20404 layer_factory.hpp:77] Creating layer conv2
I0816 16:04:00.910992 20404 net.cpp:91] Creating Layer conv2
I0816 16:04:00.911005 20404 net.cpp:425] conv2 <- Pooling25
I0816 16:04:00.911022 20404 net.cpp:399] conv2 -> Convolution42
I0816 16:04:00.926800 20404 net.cpp:141] Setting up conv2
I0816 16:04:00.926827 20404 net.cpp:148] Top shape: 100 256 8 8 (1638400)
I0816 16:04:00.926836 20404 net.cpp:156] Memory required for data: 1321783200
I0816 16:04:00.926862 20404 layer_factory.hpp:77] Creating layer ReLU58
I0816 16:04:00.926903 20404 net.cpp:91] Creating Layer ReLU58
I0816 16:04:00.926944 20404 net.cpp:425] ReLU58 <- Convolution42
I0816 16:04:00.926975 20404 net.cpp:386] ReLU58 -> Convolution42 (in-place)
I0816 16:04:00.927012 20404 net.cpp:141] Setting up ReLU58
I0816 16:04:00.927026 20404 net.cpp:148] Top shape: 100 256 8 8 (1638400)
I0816 16:04:00.927032 20404 net.cpp:156] Memory required for data: 1328336800
I0816 16:04:00.927038 20404 layer_factory.hpp:77] Creating layer norm2
I0816 16:04:00.927048 20404 net.cpp:91] Creating Layer norm2
I0816 16:04:00.927054 20404 net.cpp:425] norm2 <- Convolution42
I0816 16:04:00.927067 20404 net.cpp:399] norm2 -> LRN18
I0816 16:04:00.927132 20404 net.cpp:141] Setting up norm2
I0816 16:04:00.927145 20404 net.cpp:148] Top shape: 100 256 8 8 (1638400)
I0816 16:04:00.927152 20404 net.cpp:156] Memory required for data: 1334890400
I0816 16:04:00.927158 20404 layer_factory.hpp:77] Creating layer pool2
I0816 16:04:00.927175 20404 net.cpp:91] Creating Layer pool2
I0816 16:04:00.927181 20404 net.cpp:425] pool2 <- LRN18
I0816 16:04:00.927192 20404 net.cpp:399] pool2 -> Pooling26
I0816 16:04:00.927254 20404 net.cpp:141] Setting up pool2
I0816 16:04:00.927268 20404 net.cpp:148] Top shape: 100 256 4 4 (409600)
I0816 16:04:00.927278 20404 net.cpp:156] Memory required for data: 1336528800
I0816 16:04:00.927284 20404 layer_factory.hpp:77] Creating layer conv3
I0816 16:04:00.927316 20404 net.cpp:91] Creating Layer conv3
I0816 16:04:00.927323 20404 net.cpp:425] conv3 <- Pooling26
I0816 16:04:00.927335 20404 net.cpp:399] conv3 -> Convolution43
I0816 16:04:00.971207 20404 net.cpp:141] Setting up conv3
I0816 16:04:00.971246 20404 net.cpp:148] Top shape: 100 384 4 4 (614400)
I0816 16:04:00.971252 20404 net.cpp:156] Memory required for data: 1338986400
I0816 16:04:00.971266 20404 layer_factory.hpp:77] Creating layer ReLU59
I0816 16:04:00.971283 20404 net.cpp:91] Creating Layer ReLU59
I0816 16:04:00.971302 20404 net.cpp:425] ReLU59 <- Convolution43
I0816 16:04:00.971313 20404 net.cpp:386] ReLU59 -> Convolution43 (in-place)
I0816 16:04:00.971326 20404 net.cpp:141] Setting up ReLU59
I0816 16:04:00.971334 20404 net.cpp:148] Top shape: 100 384 4 4 (614400)
I0816 16:04:00.971339 20404 net.cpp:156] Memory required for data: 1341444000
I0816 16:04:00.971345 20404 layer_factory.hpp:77] Creating layer conv4
I0816 16:04:00.971361 20404 net.cpp:91] Creating Layer conv4
I0816 16:04:00.971369 20404 net.cpp:425] conv4 <- Convolution43
I0816 16:04:00.971380 20404 net.cpp:399] conv4 -> Convolution44
I0816 16:04:01.004613 20404 net.cpp:141] Setting up conv4
I0816 16:04:01.004650 20404 net.cpp:148] Top shape: 100 384 4 4 (614400)
I0816 16:04:01.004657 20404 net.cpp:156] Memory required for data: 1343901600
I0816 16:04:01.004668 20404 layer_factory.hpp:77] Creating layer ReLU60
I0816 16:04:01.004681 20404 net.cpp:91] Creating Layer ReLU60
I0816 16:04:01.004689 20404 net.cpp:425] ReLU60 <- Convolution44
I0816 16:04:01.004719 20404 net.cpp:386] ReLU60 -> Convolution44 (in-place)
I0816 16:04:01.004731 20404 net.cpp:141] Setting up ReLU60
I0816 16:04:01.004739 20404 net.cpp:148] Top shape: 100 384 4 4 (614400)
I0816 16:04:01.004745 20404 net.cpp:156] Memory required for data: 1346359200
I0816 16:04:01.004751 20404 layer_factory.hpp:77] Creating layer conv5
I0816 16:04:01.004766 20404 net.cpp:91] Creating Layer conv5
I0816 16:04:01.004812 20404 net.cpp:425] conv5 <- Convolution44
I0816 16:04:01.004830 20404 net.cpp:399] conv5 -> Convolution45
I0816 16:04:01.027124 20404 net.cpp:141] Setting up conv5
I0816 16:04:01.027158 20404 net.cpp:148] Top shape: 100 256 4 4 (409600)
I0816 16:04:01.027164 20404 net.cpp:156] Memory required for data: 1347997600
I0816 16:04:01.027175 20404 layer_factory.hpp:77] Creating layer pool5
I0816 16:04:01.027187 20404 net.cpp:91] Creating Layer pool5
I0816 16:04:01.027195 20404 net.cpp:425] pool5 <- Convolution45
I0816 16:04:01.027220 20404 net.cpp:399] pool5 -> Pooling27
I0816 16:04:01.027298 20404 net.cpp:141] Setting up pool5
I0816 16:04:01.027312 20404 net.cpp:148] Top shape: 100 256 2 2 (102400)
I0816 16:04:01.027320 20404 net.cpp:156] Memory required for data: 1348407200
I0816 16:04:01.027328 20404 layer_factory.hpp:77] Creating layer InnerProduct25
I0816 16:04:01.027379 20404 net.cpp:91] Creating Layer InnerProduct25
I0816 16:04:01.027390 20404 net.cpp:425] InnerProduct25 <- Pooling27
…
I0816 16:04:04.143803 20404 net.cpp:91] Creating Layer ReLU237
I0816 16:04:04.143828 20404 net.cpp:425] ReLU237 <- InnerProduct101
I0816 16:04:04.143842 20404 net.cpp:386] ReLU237 -> InnerProduct101 (in-place)
I0816 16:04:04.143872 20404 net.cpp:141] Setting up ReLU237
I0816 16:04:04.143885 20404 net.cpp:148] Top shape: 100 256 (25600)
I0816 16:04:04.143893 20404 net.cpp:156] Memory required for data: 2993775200
I0816 16:04:04.143918 20404 layer_factory.hpp:77] Creating layer InnerProduct102
I0816 16:04:04.143936 20404 net.cpp:91] Creating Layer InnerProduct102
I0816 16:04:04.143949 20404 net.cpp:425] InnerProduct102 <- InnerProduct101
I0816 16:04:04.143960 20404 net.cpp:399] InnerProduct102 -> InnerProduct102
I0816 16:04:04.144359 20404 net.cpp:141] Setting up InnerProduct102
I0816 16:04:04.144372 20404 net.cpp:148] Top shape: 100 128 (12800)
I0816 16:04:04.144379 20404 net.cpp:156] Memory required for data: 2993826400
I0816 16:04:04.144407 20404 net.cpp:484] Sharing parameters 'fc9_w' owned by layer 'InnerProduct6', param index 0
I0816 16:04:04.144419 20404 net.cpp:484] Sharing parameters 'fc9_b' owned by layer 'InnerProduct6', param index 1
I0816 16:04:04.144428 20404 layer_factory.hpp:77] Creating layer ReLU238
I0816 16:04:04.144443 20404 net.cpp:91] Creating Layer ReLU238
I0816 16:04:04.144454 20404 net.cpp:425] ReLU238 <- InnerProduct102
I0816 16:04:04.144464 20404 net.cpp:386] ReLU238 -> InnerProduct102 (in-place)
I0816 16:04:04.144479 20404 net.cpp:141] Setting up ReLU238
I0816 16:04:04.144492 20404 net.cpp:148] Top shape: 100 128 (12800)
I0816 16:04:04.144501 20404 net.cpp:156] Memory required for data: 2993877600
I0816 16:04:04.144510 20404 layer_factory.hpp:77] Creating layer dt16
I0816 16:04:04.144522 20404 net.cpp:91] Creating Layer dt16
I0816 16:04:04.144533 20404 net.cpp:425] dt16 <- InnerProduct102
I0816 16:04:04.144547 20404 net.cpp:399] dt16 -> dt16
I0816 16:04:04.144693 20404 net.cpp:141] Setting up dt16
I0816 16:04:04.144706 20404 net.cpp:148] Top shape: 100 1 (100)
I0816 16:04:04.144727 20404 net.cpp:156] Memory required for data: 2993878000
I0816 16:04:04.144736 20404 net.cpp:484] Sharing parameters 'fc10_w' owned by layer 'dt0', param index 0
I0816 16:04:04.144747 20404 net.cpp:484] Sharing parameters 'fc10_b' owned by layer 'dt0', param index 1
I0816 16:04:04.144757 20404 layer_factory.hpp:77] Creating layer conv1
I0816 16:04:04.144776 20404 net.cpp:91] Creating Layer conv1
I0816 16:04:04.144788 20404 net.cpp:425] conv1 <- p2_p2_0_split_8
I0816 16:04:04.144801 20404 net.cpp:399] conv1 -> Convolution171
I0816 16:04:04.147436 20404 net.cpp:141] Setting up conv1
I0816 16:04:04.147459 20404 net.cpp:148] Top shape: 100 96 16 16 (2457600)
I0816 16:04:04.147467 20404 net.cpp:156] Memory required for data: 3003708400
I0816 16:04:04.147482 20404 layer_factory.hpp:77] Creating layer ReLU239
I0816 16:04:04.147495 20404 net.cpp:91] Creating Layer ReLU239
I0816 16:04:04.147503 20404 net.cpp:425] ReLU239 <- Convolution171
I0816 16:04:04.147514 20404 net.cpp:386] ReLU239 -> Convolution171 (in-place)
I0816 16:04:04.147527 20404 net.cpp:141] Setting up ReLU239
I0816 16:04:04.147537 20404 net.cpp:148] Top shape: 100 96 16 16 (2457600)
I0816 16:04:04.147545 20404 net.cpp:156] Memory required for data: 3013538800
I0816 16:04:04.147552 20404 layer_factory.hpp:77] Creating layer norm1
I0816 16:04:04.147567 20404 net.cpp:91] Creating Layer norm1
I0816 16:04:04.147575 20404 net.cpp:425] norm1 <- Convolution171
I0816 16:04:04.147588 20404 net.cpp:399] norm1 -> LRN69
I0816 16:04:04.147639 20404 net.cpp:141] Setting up norm1
I0816 16:04:04.147651 20404 net.cpp:148] Top shape: 100 96 16 16 (2457600)
I0816 16:04:04.147658 20404 net.cpp:156] Memory required for data: 3023369200
I0816 16:04:04.147665 20404 layer_factory.hpp:77] Creating layer pool1
I0816 16:04:04.147680 20404 net.cpp:91] Creating Layer pool1
I0816 16:04:04.147687 20404 net.cpp:425] pool1 <- LRN69
I0816 16:04:04.147699 20404 net.cpp:399] pool1 -> Pooling103
I0816 16:04:04.147756 20404 net.cpp:141] Setting up pool1
I0816 16:04:04.147768 20404 net.cpp:148] Top shape: 100 96 8 8 (614400)
I0816 16:04:04.147775 20404 net.cpp:156] Memory required for data: 3025826800
I0816 16:04:04.147783 20404 layer_factory.hpp:77] Creating layer conv2
I0816 16:04:04.147800 20404 net.cpp:91] Creating Layer conv2
I0816 16:04:04.147810 20404 net.cpp:425] conv2 <- Pooling103
I0816 16:04:04.147827 20404 net.cpp:399] conv2 -> Convolution172
I0816 16:04:04.163255 20404 net.cpp:141] Setting up conv2
I0816 16:04:04.163280 20404 net.cpp:148] Top shape: 100 256 8 8 (1638400)
I0816 16:04:04.163288 20404 net.cpp:156] Memory required for data: 3032380400
I0816 16:04:04.163302 20404 layer_factory.hpp:77] Creating layer ReLU240
I0816 16:04:04.163329 20404 net.cpp:91] Creating Layer ReLU240
I0816 16:04:04.163338 20404 net.cpp:425] ReLU240 <- Convolution172
I0816 16:04:04.163349 20404 net.cpp:386] ReLU240 -> Convolution172 (in-place)
I0816 16:04:04.163363 20404 net.cpp:141] Setting up ReLU240
I0816 16:04:04.163373 20404 net.cpp:148] Top shape: 100 256 8 8 (1638400)
I0816 16:04:04.163388 20404 net.cpp:156] Memory required for data: 3038934000
I0816 16:04:04.163398 20404 layer_factory.hpp:77] Creating layer norm2
I0816 16:04:04.163413 20404 net.cpp:91] Creating Layer norm2
I0816 16:04:04.163420 20404 net.cpp:425] norm2 <- Convolution172
I0816 16:04:04.163432 20404 net.cpp:399] norm2 -> LRN70
I0816 16:04:04.163492 20404 net.cpp:141] Setting up norm2
I0816 16:04:04.163506 20404 net.cpp:148] Top shape: 100 256 8 8 (1638400)
I0816 16:04:04.163514 20404 net.cpp:156] Memory required for data: 3045487600
I0816 16:04:04.163522 20404 layer_factory.hpp:77] Creating layer pool2
I0816 16:04:04.163532 20404 net.cpp:91] Creating Layer pool2
I0816 16:04:04.163540 20404 net.cpp:425] pool2 <- LRN70
I0816 16:04:04.163554 20404 net.cpp:399] pool2 -> Pooling104
I0816 16:04:04.163614 20404 net.cpp:141] Setting up pool2
I0816 16:04:04.163627 20404 net.cpp:148] Top shape: 100 256 4 4 (409600)
I0816 16:04:04.163635 20404 net.cpp:156] Memory required for data: 3047126000
I0816 16:04:04.163658 20404 layer_factory.hpp:77] Creating layer conv3
I0816 16:04:04.163681 20404 net.cpp:91] Creating Layer conv3
I0816 16:04:04.163694 20404 net.cpp:425] conv3 <- Pooling104
I0816 16:04:04.163708 20404 net.cpp:399] conv3 -> Convolution173
I0816 16:04:04.207540 20404 net.cpp:141] Setting up conv3
I0816 16:04:04.207571 20404 net.cpp:148] Top shape: 100 384 4 4 (614400)
I0816 16:04:04.207590 20404 net.cpp:156] Memory required for data: 3049583600
I0816 16:04:04.207607 20404 layer_factory.hpp:77] Creating layer ReLU241
I0816 16:04:04.207622 20404 net.cpp:91] Creating Layer ReLU241
I0816 16:04:04.207633 20404 net.cpp:425] ReLU241 <- Convolution173
I0816 16:04:04.207646 20404 net.cpp:386] ReLU241 -> Convolution173 (in-place)
I0816 16:04:04.207672 20404 net.cpp:141] Setting up ReLU241
I0816 16:04:04.207682 20404 net.cpp:148] Top shape: 100 384 4 4 (614400)
I0816 16:04:04.207690 20404 net.cpp:156] Memory required for data: 3052041200
I0816 16:04:04.207697 20404 layer_factory.hpp:77] Creating layer conv4
I0816 16:04:04.207718 20404 net.cpp:91] Creating Layer conv4
I0816 16:04:04.207726 20404 net.cpp:425] conv4 <- Convolution173
I0816 16:04:04.207743 20404 net.cpp:399] conv4 -> Convolution174
I0816 16:04:04.240624 20404 net.cpp:141] Setting up conv4
I0816 16:04:04.240653 20404 net.cpp:148] Top shape: 100 384 4 4 (614400)
I0816 16:04:04.240671 20404 net.cpp:156] Memory required for data: 3054498800
I0816 16:04:04.240686 20404 layer_factory.hpp:77] Creating layer ReLU242
I0816 16:04:04.240703 20404 net.cpp:91] Creating Layer ReLU242
I0816 16:04:04.240715 20404 net.cpp:425] ReLU242 <- Convolution174
I0816 16:04:04.240732 20404 net.cpp:386] ReLU242 -> Convolution174 (in-place)
I0816 16:04:04.240751 20404 net.cpp:141] Setting up ReLU242
I0816 16:04:04.240761 20404 net.cpp:148] Top shape: 100 384 4 4 (614400)
I0816 16:04:04.240768 20404 net.cpp:156] Memory required for data: 3056956400
I0816 16:04:04.240777 20404 layer_factory.hpp:77] Creating layer conv5
I0816 16:04:04.240803 20404 net.cpp:91] Creating Layer conv5
I0816 16:04:04.240816 20404 net.cpp:425] conv5 <- Convolution174
I0816 16:04:04.240834 20404 net.cpp:399] conv5 -> Convolution175
I0816 16:04:04.262979 20404 net.cpp:141] Setting up conv5
I0816 16:04:04.263015 20404 net.cpp:148] Top shape: 100 256 4 4 (409600)
I0816 16:04:04.263022 20404 net.cpp:156] Memory required for data: 3058594800
I0816 16:04:04.263037 20404 layer_factory.hpp:77] Creating layer pool5
I0816 16:04:04.263052 20404 net.cpp:91] Creating Layer pool5
I0816 16:04:04.263072 20404 net.cpp:425] pool5 <- Convolution175
I0816 16:04:04.263087 20404 net.cpp:399] pool5 -> Pooling105
I0816 16:04:04.263162 20404 net.cpp:141] Setting up pool5
I0816 16:04:04.263177 20404 net.cpp:148] Top shape: 100 256 2 2 (102400)
I0816 16:04:04.263185 20404 net.cpp:156] Memory required for data: 3059004400
I0816 16:04:04.263192 20404 layer_factory.hpp:77] Creating layer InnerProduct103
I0816 16:04:04.263208 20404 net.cpp:91] Creating Layer InnerProduct103
I0816 16:04:04.263216 20404 net.cpp:425] InnerProduct103 <- Pooling105
I0816 16:04:04.263234 20404 net.cpp:399] InnerProduct103 -> InnerProduct103
I0816 16:04:04.266052 20404 net.cpp:141] Setting up InnerProduct103
I0816 16:04:04.266077 20404 net.cpp:148] Top shape: 100 256 (25600)
I0816 16:04:04.266084 20404 net.cpp:156] Memory required for data: 3059106800
I0816 16:04:04.266094 20404 net.cpp:484] Sharing parameters 'fc6_w' owned by layer 'InnerProduct1', param index 0
I0816 16:04:04.266105 20404 net.cpp:484] Sharing parameters 'fc6_b' owned by layer 'InnerProduct1', param index 1
I0816 16:04:04.266113 20404 layer_factory.hpp:77] Creating layer ReLU243
I0816 16:04:04.266125 20404 net.cpp:91] Creating Layer ReLU243
I0816 16:04:04.266135 20404 net.cpp:425] ReLU243 <- InnerProduct103
I0816 16:04:04.266150 20404 net.cpp:386] ReLU243 -> InnerProduct103 (in-place)
I0816 16:04:04.266165 20404 net.cpp:141] Setting up ReLU243
I0816 16:04:04.266175 20404 net.cpp:148] Top shape: 100 256 (25600)
I0816 16:04:04.266183 20404 net.cpp:156] Memory required for data: 3059209200
I0816 16:04:04.266206 20404 layer_factory.hpp:77] Creating layer InnerProduct104
I0816 16:04:04.266221 20404 net.cpp:91] Creating Layer InnerProduct104
I0816 16:04:04.266229 20404 net.cpp:425] InnerProduct104 <- InnerProduct103
I0816 16:04:04.266245 20404 net.cpp:399] InnerProduct104 -> InnerProduct104
I0816 16:04:04.266906 20404 net.cpp:141] Setting up InnerProduct104
I0816 16:04:04.266921 20404 net.cpp:148] Top shape: 100 256 (25600)
I0816 16:04:04.266929 20404 net.cpp:156] Memory required for data: 3059311600
I0816 16:04:04.266938 20404 net.cpp:484] Sharing parameters 'fc7_w' owned by layer 'InnerProduct2', param index 0
I0816 16:04:04.266948 20404 net.cpp:484] Sharing parameters 'fc7_b' owned by layer 'InnerProduct2', param index 1
I0816 16:04:04.266957 20404 layer_factory.hpp:77] Creating layer ReLU244
I0816 16:04:04.266969 20404 net.cpp:91] Creating Layer ReLU244
I0816 16:04:04.266978 20404 net.cpp:425] ReLU244 <- InnerProduct104
I0816 16:04:04.266989 20404 net.cpp:386] ReLU244 -> InnerProduct104 (in-place)
I0816 16:04:04.267002 20404 net.cpp:141] Setting up ReLU244
I0816 16:04:04.267011 20404 net.cpp:148] Top shape: 100 256 (25600)
I0816 16:04:04.267019 20404 net.cpp:156] Memory required for data: 3059414000
I0816 16:04:04.267026 20404 layer_factory.hpp:77] Creating layer conv1
I0816 16:04:04.267043 20404 net.cpp:91] Creating Layer conv1
I0816 16:04:04.267052 20404 net.cpp:425] conv1 <- c18
I0816 16:04:04.267069 20404 net.cpp:399] conv1 -> Convolution176
I0816 16:04:04.269124 20404 net.cpp:141] Setting up conv1
I0816 16:04:04.269147 20404 net.cpp:148] Top shape: 100 96 16 16 (2457600)
I0816 16:04:04.269152 20404 net.cpp:156] Memory required for data: 3069244400
I0816 16:04:04.269163 20404 layer_factory.hpp:77] Creating layer ReLU245
I0816 16:04:04.269172 20404 net.cpp:91] Creating Layer ReLU245
I0816 16:04:04.269179 20404 net.cpp:425] ReLU245 <- Convolution176
I0816 16:04:04.269188 20404 net.cpp:386] ReLU245 -> Convolution176 (in-place)
I0816 16:04:04.269207 20404 net.cpp:141] Setting up ReLU245
I0816 16:04:04.269214 20404 net.cpp:148] Top shape: 100 96 16 16 (2457600)
I0816 16:04:04.269219 20404 net.cpp:156] Memory required for data: 3079074800
I0816 16:04:04.269225 20404 layer_factory.hpp:77] Creating layer norm1
I0816 16:04:04.269237 20404 net.cpp:91] Creating Layer norm1
I0816 16:04:04.269243 20404 net.cpp:425] norm1 <- Convolution176
I0816 16:04:04.269256 20404 net.cpp:399] norm1 -> LRN71
I0816 16:04:04.269299 20404 net.cpp:141] Setting up norm1
I0816 16:04:04.269315 20404 net.cpp:148] Top shape: 100 96 16 16 (2457600)
I0816 16:04:04.269322 20404 net.cpp:156] Memory required for data: 3088905200
I0816 16:04:04.269330 20404 layer_factory.hpp:77] Creating layer pool1
I0816 16:04:04.269340 20404 net.cpp:91] Creating Layer pool1
I0816 16:04:04.269348 20404 net.cpp:425] pool1 <- LRN71
I0816 16:04:04.269362 20404 net.cpp:399] pool1 -> Pooling106
I0816 16:04:04.269423 20404 net.cpp:141] Setting up pool1
I0816 16:04:04.269443 20404 net.cpp:148] Top shape: 100 96 8 8 (614400)
I0816 16:04:04.269454 20404 net.cpp:156] Memory required for data: 3091362800
I0816 16:04:04.269462 20404 layer_factory.hpp:77] Creating layer conv2
I0816 16:04:04.269480 20404 net.cpp:91] Creating Layer conv2
I0816 16:04:04.269490 20404 net.cpp:425] conv2 <- Pooling106
I0816 16:04:04.269502 20404 net.cpp:399] conv2 -> Convolution177
I0816 16:04:04.284966 20404 net.cpp:141] Setting up conv2
I0816 16:04:04.284987 20404 net.cpp:148] Top shape: 100 256 8 8 (1638400)
I0816 16:04:04.284996 20404 net.cpp:156] Memory required for data: 3097916400
I0816 16:04:04.285020 20404 layer_factory.hpp:77] Creating layer ReLU246
I0816 16:04:04.285035 20404 net.cpp:91] Creating Layer ReLU246
I0816 16:04:04.285045 20404 net.cpp:425] ReLU246 <- Convolution177
I0816 16:04:04.285056 20404 net.cpp:386] ReLU246 -> Convolution177 (in-place)
I0816 16:04:04.285070 20404 net.cpp:141] Setting up ReLU246
I0816 16:04:04.285085 20404 net.cpp:148] Top shape: 100 256 8 8 (1638400)
I0816 16:04:04.285094 20404 net.cpp:156] Memory required for data: 3104470000
I0816 16:04:04.285101 20404 layer_factory.hpp:77] Creating layer norm2
I0816 16:04:04.285130 20404 net.cpp:91] Creating Layer norm2
I0816 16:04:04.285140 20404 net.cpp:425] norm2 <- Convolution177
I0816 16:04:04.285152 20404 net.cpp:399] norm2 -> LRN72
I0816 16:04:04.285212 20404 net.cpp:141] Setting up norm2
I0816 16:04:04.285226 20404 net.cpp:148] Top shape: 100 256 8 8 (1638400)
I0816 16:04:04.285234 20404 net.cpp:156] Memory required for data: 3111023600
I0816 16:04:04.285241 20404 layer_factory.hpp:77] Creating layer pool2
I0816 16:04:04.285253 20404 net.cpp:91] Creating Layer pool2
I0816 16:04:04.285260 20404 net.cpp:425] pool2 <- LRN72
I0816 16:04:04.285274 20404 net.cpp:399] pool2 -> Pooling107
I0816 16:04:04.285331 20404 net.cpp:141] Setting up pool2
I0816 16:04:04.285346 20404 net.cpp:148] Top shape: 100 256 4 4 (409600)
I0816 16:04:04.285353 20404 net.cpp:156] Memory required for data: 3112662000
I0816 16:04:04.285361 20404 layer_factory.hpp:77] Creating layer conv3
I0816 16:04:04.285383 20404 net.cpp:91] Creating Layer conv3
I0816 16:04:04.285394 20404 net.cpp:425] conv3 <- Pooling107
I0816 16:04:04.285408 20404 net.cpp:399] conv3 -> Convolution178
I0816 16:04:04.329074 20404 net.cpp:141] Setting up conv3
I0816 16:04:04.329104 20404 net.cpp:148] Top shape: 100 384 4 4 (614400)
I0816 16:04:04.329123 20404 net.cpp:156] Memory required for data: 3115119600
I0816 16:04:04.329139 20404 layer_factory.hpp:77] Creating layer ReLU247
I0816 16:04:04.329154 20404 net.cpp:91] Creating Layer ReLU247
I0816 16:04:04.329164 20404 net.cpp:425] ReLU247 <- Convolution178
I0816 16:04:04.329177 20404 net.cpp:386] ReLU247 -> Convolution178 (in-place)
I0816 16:04:04.329201 20404 net.cpp:141] Setting up ReLU247
I0816 16:04:04.329212 20404 net.cpp:148] Top shape: 100 384 4 4 (614400)
I0816 16:04:04.329219 20404 net.cpp:156] Memory required for data: 3117577200
I0816 16:04:04.329227 20404 layer_factory.hpp:77] Creating layer conv4
I0816 16:04:04.329252 20404 net.cpp:91] Creating Layer conv4
I0816 16:04:04.329260 20404 net.cpp:425] conv4 <- Convolution178
I0816 16:04:04.329273 20404 net.cpp:399] conv4 -> Convolution179
I0816 16:04:04.362429 20404 net.cpp:141] Setting up conv4
I0816 16:04:04.362462 20404 net.cpp:148] Top shape: 100 384 4 4 (614400)
I0816 16:04:04.362470 20404 net.cpp:156] Memory required for data: 3120034800
I0816 16:04:04.362486 20404 layer_factory.hpp:77] Creating layer ReLU248
I0816 16:04:04.362500 20404 net.cpp:91] Creating Layer ReLU248
I0816 16:04:04.362510 20404 net.cpp:425] ReLU248 <- Convolution179
I0816 16:04:04.362524 20404 net.cpp:386] ReLU248 -> Convolution179 (in-place)
I0816 16:04:04.362540 20404 net.cpp:141] Setting up ReLU248
I0816 16:04:04.362550 20404 net.cpp:148] Top shape: 100 384 4 4 (614400)
I0816 16:04:04.362557 20404 net.cpp:156] Memory required for data: 3122492400
I0816 16:04:04.362565 20404 layer_factory.hpp:77] Creating layer conv5
I0816 16:04:04.362586 20404 net.cpp:91] Creating Layer conv5
I0816 16:04:04.362594 20404 net.cpp:425] conv5 <- Convolution179
I0816 16:04:04.362612 20404 net.cpp:399] conv5 -> Convolution180
I0816 16:04:04.384644 20404 net.cpp:141] Setting up conv5
I0816 16:04:04.384667 20404 net.cpp:148] Top shape: 100 256 4 4 (409600)
I0816 16:04:04.384675 20404 net.cpp:156] Memory required for data: 3124130800
I0816 16:04:04.384699 20404 layer_factory.hpp:77] Creating layer pool5
I0816 16:04:04.384716 20404 net.cpp:91] Creating Layer pool5
I0816 16:04:04.384726 20404 net.cpp:425] pool5 <- Convolution180
I0816 16:04:04.384742 20404 net.cpp:399] pool5 -> Pooling108
I0816 16:04:04.384819 20404 net.cpp:141] Setting up pool5
I0816 16:04:04.384835 20404 net.cpp:148] Top shape: 100 256 2 2 (102400)
I0816 16:04:04.384841 20404 net.cpp:156] Memory required for data: 3124540400
I0816 16:04:04.384848 20404 layer_factory.hpp:77] Creating layer InnerProduct105
I0816 16:04:04.384862 20404 net.cpp:91] Creating Layer InnerProduct105
I0816 16:04:04.384871 20404 net.cpp:425] InnerProduct105 <- Pooling108
I0816 16:04:04.384888 20404 net.cpp:399] InnerProduct105 -> InnerProduct105
I0816 16:04:04.387652 20404 net.cpp:141] Setting up InnerProduct105
I0816 16:04:04.387689 20404 net.cpp:148] Top shape: 100 256 (25600)
I0816 16:04:04.387697 20404 net.cpp:156] Memory required for data: 3124642800
I0816 16:04:04.387707 20404 net.cpp:484] Sharing parameters 'fc6_w' owned by layer 'InnerProduct1', param index 0
I0816 16:04:04.387718 20404 net.cpp:484] Sharing parameters 'fc6_b' owned by layer 'InnerProduct1', param index 1
I0816 16:04:04.387727 20404 layer_factory.hpp:77] Creating layer ReLU249
I0816 16:04:04.387740 20404 net.cpp:91] Creating Layer ReLU249
I0816 16:04:04.387750 20404 net.cpp:425] ReLU249 <- InnerProduct105
I0816 16:04:04.387761 20404 net.cpp:386] ReLU249 -> InnerProduct105 (in-place)
I0816 16:04:04.387775 20404 net.cpp:141] Setting up ReLU249
I0816 16:04:04.387786 20404 net.cpp:148] Top shape: 100 256 (25600)
I0816 16:04:04.387794 20404 net.cpp:156] Memory required for data: 3124745200
I0816 16:04:04.387801 20404 layer_factory.hpp:77] Creating layer InnerProduct106
I0816 16:04:04.387814 20404 net.cpp:91] Creating Layer InnerProduct106
I0816 16:04:04.387822 20404 net.cpp:425] InnerProduct106 <- InnerProduct105
I0816 16:04:04.387837 20404 net.cpp:399] InnerProduct106 -> InnerProduct106
I0816 16:04:04.388501 20404 net.cpp:141] Setting up InnerProduct106
I0816 16:04:04.388515 20404 net.cpp:148] Top shape: 100 256 (25600)
I0816 16:04:04.388523 20404 net.cpp:156] Memory required for data: 3124847600
I0816 16:04:04.388531 20404 net.cpp:484] Sharing parameters 'fc7_w' owned by layer 'InnerProduct2', param index 0
I0816 16:04:04.388540 20404 net.cpp:484] Sharing parameters 'fc7_b' owned by layer 'InnerProduct2', param index 1
I0816 16:04:04.388550 20404 layer_factory.hpp:77] Creating layer ReLU250
I0816 16:04:04.388562 20404 net.cpp:91] Creating Layer ReLU250
I0816 16:04:04.388571 20404 net.cpp:425] ReLU250 <- InnerProduct106
I0816 16:04:04.388581 20404 net.cpp:386] ReLU250 -> InnerProduct106 (in-place)
I0816 16:04:04.388594 20404 net.cpp:141] Setting up ReLU250
I0816 16:04:04.388604 20404 net.cpp:148] Top shape: 100 256 (25600)
I0816 16:04:04.388612 20404 net.cpp:156] Memory required for data: 3124950000
I0816 16:04:04.388619 20404 layer_factory.hpp:77] Creating layer Concat18
I0816 16:04:04.388630 20404 net.cpp:91] Creating Layer Concat18
I0816 16:04:04.388638 20404 net.cpp:425] Concat18 <- InnerProduct104
I0816 16:04:04.388648 20404 net.cpp:425] Concat18 <- InnerProduct106
I0816 16:04:04.388660 20404 net.cpp:399] Concat18 -> Concat18
I0816 16:04:04.388700 20404 net.cpp:141] Setting up Concat18
I0816 16:04:04.388715 20404 net.cpp:148] Top shape: 100 512 (51200)
I0816 16:04:04.388721 20404 net.cpp:156] Memory required for data: 3125154800
I0816 16:04:04.388730 20404 layer_factory.hpp:77] Creating layer InnerProduct107
I0816 16:04:04.388741 20404 net.cpp:91] Creating Layer InnerProduct107
I0816 16:04:04.388753 20404 net.cpp:425] InnerProduct107 <- Concat18
I0816 16:04:04.388766 20404 net.cpp:399] InnerProduct107 -> InnerProduct107
I0816 16:04:04.390498 20404 net.cpp:141] Setting up InnerProduct107
I0816 16:04:04.390519 20404 net.cpp:148] Top shape: 100 256 (25600)
I0816 16:04:04.390527 20404 net.cpp:156] Memory required for data: 3125257200
I0816 16:04:04.390537 20404 net.cpp:484] Sharing parameters 'fc8_w' owned by layer 'InnerProduct5', param index 0
I0816 16:04:04.390547 20404 net.cpp:484] Sharing parameters 'fc8_b' owned by layer 'InnerProduct5', param index 1
I0816 16:04:04.390555 20404 layer_factory.hpp:77] Creating layer ReLU251
I0816 16:04:04.390568 20404 net.cpp:91] Creating Layer ReLU251
I0816 16:04:04.390575 20404 net.cpp:425] ReLU251 <- InnerProduct107
I0816 16:04:04.390590 20404 net.cpp:386] ReLU251 -> InnerProduct107 (in-place)
I0816 16:04:04.390605 20404 net.cpp:141] Setting up ReLU251
I0816 16:04:04.390615 20404 net.cpp:148] Top shape: 100 256 (25600)
I0816 16:04:04.390622 20404 net.cpp:156] Memory required for data: 3125359600
I0816 16:04:04.390630 20404 layer_factory.hpp:77] Creating layer InnerProduct108
I0816 16:04:04.390643 20404 net.cpp:91] Creating Layer InnerProduct108
I0816 16:04:04.390651 20404 net.cpp:425] InnerProduct108 <- InnerProduct107
I0816 16:04:04.390681 20404 net.cpp:399] InnerProduct108 -> InnerProduct108
I0816 16:04:04.391124 20404 net.cpp:141] Setting up InnerProduct108
I0816 16:04:04.391140 20404 net.cpp:148] Top shape: 100 128 (12800)
I0816 16:04:04.391149 20404 net.cpp:156] Memory required for data: 3125410800
I0816 16:04:04.391156 20404 net.cpp:484] Sharing parameters 'fc9_w' owned by layer 'InnerProduct6', param index 0
I0816 16:04:04.391167 20404 net.cpp:484] Sharing parameters 'fc9_b' owned by layer 'InnerProduct6', param index 1
I0816 16:04:04.391175 20404 layer_factory.hpp:77] Creating layer ReLU252
I0816 16:04:04.391185 20404 net.cpp:91] Creating Layer ReLU252
I0816 16:04:04.391193 20404 net.cpp:425] ReLU252 <- InnerProduct108
I0816 16:04:04.391204 20404 net.cpp:386] ReLU252 -> InnerProduct108 (in-place)
I0816 16:04:04.391217 20404 net.cpp:141] Setting up ReLU252
I0816 16:04:04.391227 20404 net.cpp:148] Top shape: 100 128 (12800)
I0816 16:04:04.391233 20404 net.cpp:156] Memory required for data: 3125462000
I0816 16:04:04.391242 20404 layer_factory.hpp:77] Creating layer dt17
I0816 16:04:04.391253 20404 net.cpp:91] Creating Layer dt17
I0816 16:04:04.391260 20404 net.cpp:425] dt17 <- InnerProduct108
I0816 16:04:04.391285 20404 net.cpp:399] dt17 -> dt17
I0816 16:04:04.391438 20404 net.cpp:141] Setting up dt17
I0816 16:04:04.391453 20404 net.cpp:148] Top shape: 100 1 (100)
I0816 16:04:04.391459 20404 net.cpp:156] Memory required for data: 3125462400
I0816 16:04:04.391468 20404 net.cpp:484] Sharing parameters 'fc10_w' owned by layer 'dt0', param index 0
I0816 16:04:04.391477 20404 net.cpp:484] Sharing parameters 'fc10_b' owned by layer 'dt0', param index 1
I0816 16:04:04.391485 20404 layer_factory.hpp:77] Creating layer conv1
I0816 16:04:04.391501 20404 net.cpp:91] Creating Layer conv1
I0816 16:04:04.391510 20404 net.cpp:425] conv1 <- p2_p2_0_split_9
I0816 16:04:04.391525 20404 net.cpp:399] conv1 -> Convolution181
I0816 16:04:04.394201 20404 net.cpp:141] Setting up conv1
I0816 16:04:04.394222 20404 net.cpp:148] Top shape: 100 96 16 16 (2457600)
I0816 16:04:04.394230 20404 net.cpp:156] Memory required for data: 3135292800
I0816 16:04:04.394244 20404 layer_factory.hpp:77] Creating layer ReLU253
I0816 16:04:04.394256 20404 net.cpp:91] Creating Layer ReLU253
I0816 16:04:04.394266 20404 net.cpp:425] ReLU253 <- Convolution181
I0816 16:04:04.394280 20404 net.cpp:386] ReLU253 -> Convolution181 (in-place)
I0816 16:04:04.394294 20404 net.cpp:141] Setting up ReLU253
I0816 16:04:04.394304 20404 net.cpp:148] Top shape: 100 96 16 16 (2457600)
I0816 16:04:04.394312 20404 net.cpp:156] Memory required for data: 3145123200
I0816 16:04:04.394320 20404 layer_factory.hpp:77] Creating layer norm1
I0816 16:04:04.394335 20404 net.cpp:91] Creating Layer norm1
I0816 16:04:04.394342 20404 net.cpp:425] norm1 <- Convolution181
I0816 16:04:04.394356 20404 net.cpp:399] norm1 -> LRN73
I0816 16:04:04.394408 20404 net.cpp:141] Setting up norm1
I0816 16:04:04.394423 20404 net.cpp:148] Top shape: 100 96 16 16 (2457600)
I0816 16:04:04.394429 20404 net.cpp:156] Memory required for data: 3154953600
I0816 16:04:04.394436 20404 layer_factory.hpp:77] Creating layer pool1
I0816 16:04:04.394450 20404 net.cpp:91] Creating Layer pool1
I0816 16:04:04.394459 20404 net.cpp:425] pool1 <- LRN73
I0816 16:04:04.394470 20404 net.cpp:399] pool1 -> Pooling109
I0816 16:04:04.394532 20404 net.cpp:141] Setting up pool1
I0816 16:04:04.394546 20404 net.cpp:148] Top shape: 100 96 8 8 (614400)
I0816 16:04:04.394553 20404 net.cpp:156] Memory required for data: 3157411200
I0816 16:04:04.394561 20404 layer_factory.hpp:77] Creating layer conv2
I0816 16:04:04.394580 20404 net.cpp:91] Creating Layer conv2
I0816 16:04:04.394589 20404 net.cpp:425] conv2 <- Pooling109
I0816 16:04:04.394605 20404 net.cpp:399] conv2 -> Convolution182
I0816 16:04:04.410043 20404 net.cpp:141] Setting up conv2
I0816 16:04:04.410065 20404 net.cpp:148] Top shape: 100 256 8 8 (1638400)
I0816 16:04:04.410073 20404 net.cpp:156] Memory required for data: 3163964800
I0816 16:04:04.410087 20404 layer_factory.hpp:77] Creating layer ReLU254
I0816 16:04:04.410128 20404 net.cpp:91] Creating Layer ReLU254
I0816 16:04:04.410138 20404 net.cpp:425] ReLU254 <- Convolution182
I0816 16:04:04.410150 20404 net.cpp:386] ReLU254 -> Convolution182 (in-place)
I0816 16:04:04.410173 20404 net.cpp:141] Setting up ReLU254
I0816 16:04:04.410184 20404 net.cpp:148] Top shape: 100 256 8 8 (1638400)
I0816 16:04:04.410192 20404 net.cpp:156] Memory required for data: 3170518400
I0816 16:04:04.410199 20404 layer_factory.hpp:77] Creating layer norm2
I0816 16:04:04.410213 20404 net.cpp:91] Creating Layer norm2
I0816 16:04:04.410223 20404 net.cpp:425] norm2 <- Convolution182
I0816 16:04:04.410234 20404 net.cpp:399] norm2 -> LRN74
I0816 16:04:04.410295 20404 net.cpp:141] Setting up norm2
I0816 16:04:04.410310 20404 net.cpp:148] Top shape: 100 256 8 8 (1638400)
I0816 16:04:04.410317 20404 net.cpp:156] Memory required for data: 3177072000
I0816 16:04:04.410325 20404 layer_factory.hpp:77] Creating layer pool2
I0816 16:04:04.410338 20404 net.cpp:91] Creating Layer pool2
I0816 16:04:04.410347 20404 net.cpp:425] pool2 <- LRN74
I0816 16:04:04.410362 20404 net.cpp:399] pool2 -> Pooling110
I0816 16:04:04.410420 20404 net.cpp:141] Setting up pool2
I0816 16:04:04.410434 20404 net.cpp:148] Top shape: 100 256 4 4 (409600)
I0816 16:04:04.410441 20404 net.cpp:156] Memory required for data: 3178710400
I0816 16:04:04.410449 20404 layer_factory.hpp:77] Creating layer conv3
I0816 16:04:04.410468 20404 net.cpp:91] Creating Layer conv3
I0816 16:04:04.410481 20404 net.cpp:425] conv3 <- Pooling110
I0816 16:04:04.410498 20404 net.cpp:399] conv3 -> Convolution183
I0816 16:04:04.454308 20404 net.cpp:141] Setting up conv3
I0816 16:04:04.454339 20404 net.cpp:148] Top shape: 100 384 4 4 (614400)
I0816 16:04:04.454349 20404 net.cpp:156] Memory required for data: 3181168000
I0816 16:04:04.454365 20404 layer_factory.hpp:77] Creating layer ReLU255
I0816 16:04:04.454383 20404 net.cpp:91] Creating Layer ReLU255
I0816 16:04:04.454455 20404 net.cpp:425] ReLU255 <- Convolution183
I0816 16:04:04.454473 20404 net.cpp:386] ReLU255 -> Convolution183 (in-place)
I0816 16:04:04.454489 20404 net.cpp:141] Setting up ReLU255
I0816 16:04:04.454500 20404 net.cpp:148] Top shape: 100 384 4 4 (614400)
I0816 16:04:04.454507 20404 net.cpp:156] Memory required for data: 3183625600
I0816 16:04:04.454515 20404 layer_factory.hpp:77] Creating layer conv4
I0816 16:04:04.454535 20404 net.cpp:91] Creating Layer conv4
I0816 16:04:04.454553 20404 net.cpp:425] conv4 <- Convolution183
I0816 16:04:04.454571 20404 net.cpp:399] conv4 -> Convolution184
I0816 16:04:04.487583 20404 net.cpp:141] Setting up conv4
I0816 16:04:04.487612 20404 net.cpp:148] Top shape: 100 384 4 4 (614400)
I0816 16:04:04.487622 20404 net.cpp:156] Memory required for data: 3186083200
I0816 16:04:04.487637 20404 layer_factory.hpp:77] Creating layer ReLU256
I0816 16:04:04.487653 20404 net.cpp:91] Creating Layer ReLU256
I0816 16:04:04.487663 20404 net.cpp:425] ReLU256 <- Convolution184
I0816 16:04:04.487680 20404 net.cpp:386] ReLU256 -> Convolution184 (in-place)
I0816 16:04:04.487697 20404 net.cpp:141] Setting up ReLU256
I0816 16:04:04.487707 20404 net.cpp:148] Top shape: 100 384 4 4 (614400)
I0816 16:04:04.487715 20404 net.cpp:156] Memory required for data: 3188540800
I0816 16:04:04.487722 20404 layer_factory.hpp:77] Creating layer conv5
I0816 16:04:04.487742 20404 net.cpp:91] Creating Layer conv5
I0816 16:04:04.487751 20404 net.cpp:425] conv5 <- Convolution184
I0816 16:04:04.487764 20404 net.cpp:399] conv5 -> Convolution185
I0816 16:04:04.509682 20404 net.cpp:141] Setting up conv5
I0816 16:04:04.509709 20404 net.cpp:148] Top shape: 100 256 4 4 (409600)
I0816 16:04:04.509717 20404 net.cpp:156] Memory required for data: 3190179200
I0816 16:04:04.509735 20404 layer_factory.hpp:77] Creating layer pool5
I0816 16:04:04.509749 20404 net.cpp:91] Creating Layer pool5
I0816 16:04:04.509758 20404 net.cpp:425] pool5 <- Convolution185
I0816 16:04:04.509776 20404 net.cpp:399] pool5 -> Pooling111
I0816 16:04:04.509843 20404 net.cpp:141] Setting up pool5
I0816 16:04:04.509857 20404 net.cpp:148] Top shape: 100 256 2 2 (102400)
I0816 16:04:04.509886 20404 net.cpp:156] Memory required for data: 3190588800
I0816 16:04:04.509894 20404 layer_factory.hpp:77] Creating layer InnerProduct109
I0816 16:04:04.509912 20404 net.cpp:91] Creating Layer InnerProduct109
I0816 16:04:04.509919 20404 net.cpp:425] InnerProduct109 <- Pooling111
I0816 16:04:04.509937 20404 net.cpp:399] InnerProduct109 -> InnerProduct109
I0816 16:04:04.512701 20404 net.cpp:141] Setting up InnerProduct109
I0816 16:04:04.512722 20404 net.cpp:148] Top shape: 100 256 (25600)
I0816 16:04:04.512729 20404 net.cpp:156] Memory required for data: 3190691200
I0816 16:04:04.512739 20404 net.cpp:484] Sharing parameters 'fc6_w' owned by layer 'InnerProduct1', param index 0
I0816 16:04:04.512750 20404 net.cpp:484] Sharing parameters 'fc6_b' owned by layer 'InnerProduct1', param index 1
I0816 16:04:04.512758 20404 layer_factory.hpp:77] Creating layer ReLU257
I0816 16:04:04.512769 20404 net.cpp:91] Creating Layer ReLU257
I0816 16:04:04.512778 20404 net.cpp:425] ReLU257 <- InnerProduct109
I0816 16:04:04.512794 20404 net.cpp:386] ReLU257 -> InnerProduct109 (in-place)
I0816 16:04:04.512807 20404 net.cpp:141] Setting up ReLU257
I0816 16:04:04.512817 20404 net.cpp:148] Top shape: 100 256 (25600)
I0816 16:04:04.512825 20404 net.cpp:156] Memory required for data: 3190793600
I0816 16:04:04.512832 20404 layer_factory.hpp:77] Creating layer InnerProduct110
I0816 16:04:04.512845 20404 net.cpp:91] Creating Layer InnerProduct110
I0816 16:04:04.512852 20404 net.cpp:425] InnerProduct110 <- InnerProduct109
I0816 16:04:04.512868 20404 net.cpp:399] InnerProduct110 -> InnerProduct110
I0816 16:04:04.513581 20404 net.cpp:141] Setting up InnerProduct110
I0816 16:04:04.513623 20404 net.cpp:148] Top shape: 100 256 (25600)
I0816 16:04:04.513643 20404 net.cpp:156] Memory required for data: 3190896000
I0816 16:04:04.513658 20404 net.cpp:484] Sharing parameters 'fc7_w' owned by layer 'InnerProduct2', param index 0
I0816 16:04:04.513669 20404 net.cpp:484] Sharing parameters 'fc7_b' owned by layer 'InnerProduct2', param index 1
I0816 16:04:04.513676 20404 layer_factory.hpp:77] Creating layer ReLU258
I0816 16:04:04.513689 20404 net.cpp:91] Creating Layer ReLU258
I0816 16:04:04.513697 20404 net.cpp:425] ReLU258 <- InnerProduct110
I0816 16:04:04.513710 20404 net.cpp:386] ReLU258 -> InnerProduct110 (in-place)
I0816 16:04:04.513723 20404 net.cpp:141] Setting up ReLU258
I0816 16:04:04.513734 20404 net.cpp:148] Top shape: 100 256 (25600)
I0816 16:04:04.513741 20404 net.cpp:156] Memory required for data: 3190998400
I0816 16:04:04.513749 20404 layer_factory.hpp:77] Creating layer conv1
I0816 16:04:04.513770 20404 net.cpp:91] Creating Layer conv1
I0816 16:04:04.513780 20404 net.cpp:425] conv1 <- c19
I0816 16:04:04.513800 20404 net.cpp:399] conv1 -> Convolution186
I0816 16:04:04.515856 20404 net.cpp:141] Setting up conv1
I0816 16:04:04.515872 20404 net.cpp:148] Top shape: 100 96 16 16 (2457600)
I0816 16:04:04.515879 20404 net.cpp:156] Memory required for data: 3200828800
I0816 16:04:04.515893 20404 layer_factory.hpp:77] Creating layer ReLU259
I0816 16:04:04.515908 20404 net.cpp:91] Creating Layer ReLU259
I0816 16:04:04.515918 20404 net.cpp:425] ReLU259 <- Convolution186
I0816 16:04:04.515928 20404 net.cpp:386] ReLU259 -> Convolution186 (in-place)
I0816 16:04:04.515941 20404 net.cpp:141] Setting up ReLU259
I0816 16:04:04.515952 20404 net.cpp:148] Top shape: 100 96 16 16 (2457600)
I0816 16:04:04.515959 20404 net.cpp:156] Memory required for data: 3210659200
I0816 16:04:04.515967 20404 layer_factory.hpp:77] Creating layer norm1
I0816 16:04:04.515985 20404 net.cpp:91] Creating Layer norm1
I0816 16:04:04.515992 20404 net.cpp:425] norm1 <- Convolution186
I0816 16:04:04.516005 20404 net.cpp:399] norm1 -> LRN75
I0816 16:04:04.516062 20404 net.cpp:141] Setting up norm1
I0816 16:04:04.516075 20404 net.cpp:148] Top shape: 100 96 16 16 (2457600)
I0816 16:04:04.516083 20404 net.cpp:156] Memory required for data: 3220489600
I0816 16:04:04.516091 20404 layer_factory.hpp:77] Creating layer pool1
I0816 16:04:04.516118 20404 net.cpp:91] Creating Layer pool1
I0816 16:04:04.516126 20404 net.cpp:425] pool1 <- LRN75
I0816 16:04:04.516141 20404 net.cpp:399] pool1 -> Pooling112
I0816 16:04:04.516201 20404 net.cpp:141] Setting up pool1
I0816 16:04:04.516216 20404 net.cpp:148] Top shape: 100 96 8 8 (614400)
I0816 16:04:04.516223 20404 net.cpp:156] Memory required for data: 3222947200
I0816 16:04:04.516230 20404 layer_factory.hpp:77] Creating layer conv2
I0816 16:04:04.516252 20404 net.cpp:91] Creating Layer conv2
I0816 16:04:04.516259 20404 net.cpp:425] conv2 <- Pooling112
I0816 16:04:04.516273 20404 net.cpp:399] conv2 -> Convolution187
I0816 16:04:04.531754 20404 net.cpp:141] Setting up conv2
I0816 16:04:04.531780 20404 net.cpp:148] Top shape: 100 256 8 8 (1638400)
I0816 16:04:04.531787 20404 net.cpp:156] Memory required for data: 3229500800
I0816 16:04:04.531813 20404 layer_factory.hpp:77] Creating layer ReLU260
I0816 16:04:04.531826 20404 net.cpp:91] Creating Layer ReLU260
I0816 16:04:04.531836 20404 net.cpp:425] ReLU260 <- Convolution187
I0816 16:04:04.531848 20404 net.cpp:386] ReLU260 -> Convolution187 (in-place)
I0816 16:04:04.531862 20404 net.cpp:141] Setting up ReLU260
I0816 16:04:04.531883 20404 net.cpp:148] Top shape: 100 256 8 8 (1638400)
I0816 16:04:04.531890 20404 net.cpp:156] Memory required for data: 3236054400
I0816 16:04:04.531898 20404 layer_factory.hpp:77] Creating layer norm2
I0816 16:04:04.531913 20404 net.cpp:91] Creating Layer norm2
I0816 16:04:04.531921 20404 net.cpp:425] norm2 <- Convolution187
I0816 16:04:04.531935 20404 net.cpp:399] norm2 -> LRN76
I0816 16:04:04.531998 20404 net.cpp:141] Setting up norm2
I0816 16:04:04.532012 20404 net.cpp:148] Top shape: 100 256 8 8 (1638400)
I0816 16:04:04.532019 20404 net.cpp:156] Memory required for data: 3242608000
I0816 16:04:04.532027 20404 layer_factory.hpp:77] Creating layer pool2
I0816 16:04:04.532038 20404 net.cpp:91] Creating Layer pool2
I0816 16:04:04.532047 20404 net.cpp:425] pool2 <- LRN76
I0816 16:04:04.532060 20404 net.cpp:399] pool2 -> Pooling113
I0816 16:04:04.532120 20404 net.cpp:141] Setting up pool2
I0816 16:04:04.532137 20404 net.cpp:148] Top shape: 100 256 4 4 (409600)
I0816 16:04:04.532145 20404 net.cpp:156] Memory required for data: 3244246400
I0816 16:04:04.532153 20404 layer_factory.hpp:77] Creating layer conv3
I0816 16:04:04.532168 20404 net.cpp:91] Creating Layer conv3
I0816 16:04:04.532176 20404 net.cpp:425] conv3 <- Pooling113
I0816 16:04:04.532194 20404 net.cpp:399] conv3 -> Convolution188
I0816 16:04:04.576045 20404 net.cpp:141] Setting up conv3
I0816 16:04:04.576076 20404 net.cpp:148] Top shape: 100 384 4 4 (614400)
I0816 16:04:04.576095 20404 net.cpp:156] Memory required for data: 3246704000
I0816 16:04:04.576112 20404 layer_factory.hpp:77] Creating layer ReLU261
I0816 16:04:04.576125 20404 net.cpp:91] Creating Layer ReLU261
I0816 16:04:04.576136 20404 net.cpp:425] ReLU261 <- Convolution188
I0816 16:04:04.576150 20404 net.cpp:386] ReLU261 -> Convolution188 (in-place)
I0816 16:04:04.576175 20404 net.cpp:141] Setting up ReLU261
I0816 16:04:04.576186 20404 net.cpp:148] Top shape: 100 384 4 4 (614400)
I0816 16:04:04.576195 20404 net.cpp:156] Memory required for data: 3249161600
I0816 16:04:04.576201 20404 layer_factory.hpp:77] Creating layer conv4
I0816 16:04:04.576221 20404 net.cpp:91] Creating Layer conv4
I0816 16:04:04.576231 20404 net.cpp:425] conv4 <- Convolution188
I0816 16:04:04.576246 20404 net.cpp:399] conv4 -> Convolution189
I0816 16:04:04.609267 20404 net.cpp:141] Setting up conv4
I0816 16:04:04.609297 20404 net.cpp:148] Top shape: 100 384 4 4 (614400)
I0816 16:04:04.609316 20404 net.cpp:156] Memory required for data: 3251619200
I0816 16:04:04.609333 20404 layer_factory.hpp:77] Creating layer ReLU262
I0816 16:04:04.609347 20404 net.cpp:91] Creating Layer ReLU262
I0816 16:04:04.609357 20404 net.cpp:425] ReLU262 <- Convolution189
I0816 16:04:04.609385 20404 net.cpp:386] ReLU262 -> Convolution189 (in-place)
I0816 16:04:04.609401 20404 net.cpp:141] Setting up ReLU262
I0816 16:04:04.609412 20404 net.cpp:148] Top shape: 100 384 4 4 (614400)
I0816 16:04:04.609438 20404 net.cpp:156] Memory required for data: 3254076800
I0816 16:04:04.609447 20404 layer_factory.hpp:77] Creating layer conv5
I0816 16:04:04.609468 20404 net.cpp:91] Creating Layer conv5
I0816 16:04:04.609477 20404 net.cpp:425] conv5 <- Convolution189
I0816 16:04:04.609491 20404 net.cpp:399] conv5 -> Convolution190
I0816 16:04:04.631412 20404 net.cpp:141] Setting up conv5
I0816 16:04:04.631434 20404 net.cpp:148] Top shape: 100 256 4 4 (409600)
I0816 16:04:04.631453 20404 net.cpp:156] Memory required for data: 3255715200
I0816 16:04:04.631466 20404 layer_factory.hpp:77] Creating layer pool5
I0816 16:04:04.631480 20404 net.cpp:91] Creating Layer pool5
I0816 16:04:04.631489 20404 net.cpp:425] pool5 <- Convolution190
I0816 16:04:04.631508 20404 net.cpp:399] pool5 -> Pooling114
I0816 16:04:04.631584 20404 net.cpp:141] Setting up pool5
I0816 16:04:04.631598 20404 net.cpp:148] Top shape: 100 256 2 2 (102400)
I0816 16:04:04.631606 20404 net.cpp:156] Memory required for data: 3256124800
I0816 16:04:04.631613 20404 layer_factory.hpp:77] Creating layer InnerProduct111
I0816 16:04:04.631631 20404 net.cpp:91] Creating Layer InnerProduct111
I0816 16:04:04.631639 20404 net.cpp:425] InnerProduct111 <- Pooling114
I0816 16:04:04.631656 20404 net.cpp:399] InnerProduct111 -> InnerProduct111
I0816 16:04:04.634372 20404 net.cpp:141] Setting up InnerProduct111
I0816 16:04:04.634392 20404 net.cpp:148] Top shape: 100 256 (25600)
I0816 16:04:04.634399 20404 net.cpp:156] Memory required for data: 3256227200
I0816 16:04:04.634415 20404 net.cpp:484] Sharing parameters 'fc6_w' owned by layer 'InnerProduct1', param index 0
I0816 16:04:04.634428 20404 net.cpp:484] Sharing parameters 'fc6_b' owned by layer 'InnerProduct1', param index 1
I0816 16:04:04.634436 20404 layer_factory.hpp:77] Creating layer ReLU263
I0816 16:04:04.634448 20404 net.cpp:91] Creating Layer ReLU263
I0816 16:04:04.634456 20404 net.cpp:425] ReLU263 <- InnerProduct111
I0816 16:04:04.634479 20404 net.cpp:386] ReLU263 -> InnerProduct111 (in-place)
I0816 16:04:04.634492 20404 net.cpp:141] Setting up ReLU263
I0816 16:04:04.634503 20404 net.cpp:148] Top shape: 100 256 (25600)
I0816 16:04:04.634510 20404 net.cpp:156] Memory required for data: 3256329600
I0816 16:04:04.634518 20404 layer_factory.hpp:77] Creating layer InnerProduct112
I0816 16:04:04.634531 20404 net.cpp:91] Creating Layer InnerProduct112
I0816 16:04:04.634541 20404 net.cpp:425] InnerProduct112 <- InnerProduct111
I0816 16:04:04.634555 20404 net.cpp:399] InnerProduct112 -> InnerProduct112
I0816 16:04:04.635223 20404 net.cpp:141] Setting up InnerProduct112
I0816 16:04:04.635238 20404 net.cpp:148] Top shape: 100 256 (25600)
I0816 16:04:04.635246 20404 net.cpp:156] Memory required for data: 3256432000
I0816 16:04:04.635254 20404 net.cpp:484] Sharing parameters 'fc7_w' owned by layer 'InnerProduct2', param index 0
I0816 16:04:04.635264 20404 net.cpp:484] Sharing parameters 'fc7_b' owned by layer 'InnerProduct2', param index 1
I0816 16:04:04.635282 20404 layer_factory.hpp:77] Creating layer ReLU264
I0816 16:04:04.635291 20404 net.cpp:91] Creating Layer ReLU264
I0816 16:04:04.635300 20404 net.cpp:425] ReLU264 <- InnerProduct112
I0816 16:04:04.635310 20404 net.cpp:386] ReLU264 -> InnerProduct112 (in-place)
I0816 16:04:04.635324 20404 net.cpp:141] Setting up ReLU264
I0816 16:04:04.635334 20404 net.cpp:148] Top shape: 100 256 (25600)
I0816 16:04:04.635341 20404 net.cpp:156] Memory required for data: 3256534400
I0816 16:04:04.635349 20404 layer_factory.hpp:77] Creating layer Concat19
I0816 16:04:04.635360 20404 net.cpp:91] Creating Layer Concat19
I0816 16:04:04.635368 20404 net.cpp:425] Concat19 <- InnerProduct110
I0816 16:04:04.635378 20404 net.cpp:425] Concat19 <- InnerProduct112
I0816 16:04:04.635395 20404 net.cpp:399] Concat19 -> Concat19
I0816 16:04:04.635437 20404 net.cpp:141] Setting up Concat19
I0816 16:04:04.635450 20404 net.cpp:148] Top shape: 100 512 (51200)
I0816 16:04:04.635458 20404 net.cpp:156] Memory required for data: 3256739200
I0816 16:04:04.635467 20404 layer_factory.hpp:77] Creating layer InnerProduct113
I0816 16:04:04.635493 20404 net.cpp:91] Creating Layer InnerProduct113
I0816 16:04:04.635505 20404 net.cpp:425] InnerProduct113 <- Concat19
I0816 16:04:04.635521 20404 net.cpp:399] InnerProduct113 -> InnerProduct113
I0816 16:04:04.636696 20404 net.cpp:141] Setting up InnerProduct113
I0816 16:04:04.636713 20404 net.cpp:148] Top shape: 100 256 (25600)
I0816 16:04:04.636720 20404 net.cpp:156] Memory required for data: 3256841600
I0816 16:04:04.636729 20404 net.cpp:484] Sharing parameters 'fc8_w' owned by layer 'InnerProduct5', param index 0
I0816 16:04:04.636739 20404 net.cpp:484] Sharing parameters 'fc8_b' owned by layer 'InnerProduct5', param index 1
I0816 16:04:04.636746 20404 layer_factory.hpp:77] Creating layer ReLU265
I0816 16:04:04.636757 20404 net.cpp:91] Creating Layer ReLU265
I0816 16:04:04.636766 20404 net.cpp:425] ReLU265 <- InnerProduct113
I0816 16:04:04.636780 20404 net.cpp:386] ReLU265 -> InnerProduct113 (in-place)
I0816 16:04:04.636793 20404 net.cpp:141] Setting up ReLU265
I0816 16:04:04.636802 20404 net.cpp:148] Top shape: 100 256 (25600)
I0816 16:04:04.636811 20404 net.cpp:156] Memory required for data: 3256944000
I0816 16:04:04.636817 20404 layer_factory.hpp:77] Creating layer InnerProduct114
I0816 16:04:04.636831 20404 net.cpp:91] Creating Layer InnerProduct114
I0816 16:04:04.636838 20404 net.cpp:425] InnerProduct114 <- InnerProduct113
I0816 16:04:04.636853 20404 net.cpp:399] InnerProduct114 -> InnerProduct114
I0816 16:04:04.637264 20404 net.cpp:141] Setting up InnerProduct114
I0816 16:04:04.637279 20404 net.cpp:148] Top shape: 100 128 (12800)
I0816 16:04:04.637286 20404 net.cpp:156] Memory required for data: 3256995200
I0816 16:04:04.637295 20404 net.cpp:484] Sharing parameters 'fc9_w' owned by layer 'InnerProduct6', param index 0
I0816 16:04:04.637305 20404 net.cpp:484] Sharing parameters 'fc9_b' owned by layer 'InnerProduct6', param index 1
I0816 16:04:04.637313 20404 layer_factory.hpp:77] Creating layer ReLU266
I0816 16:04:04.637323 20404 net.cpp:91] Creating Layer ReLU266
I0816 16:04:04.637331 20404 net.cpp:425] ReLU266 <- InnerProduct114
I0816 16:04:04.637342 20404 net.cpp:386] ReLU266 -> InnerProduct114 (in-place)
I0816 16:04:04.637354 20404 net.cpp:141] Setting up ReLU266
I0816 16:04:04.637364 20404 net.cpp:148] Top shape: 100 128 (12800)
I0816 16:04:04.637372 20404 net.cpp:156] Memory required for data: 3257046400
I0816 16:04:04.637379 20404 layer_factory.hpp:77] Creating layer dt18
I0816 16:04:04.637392 20404 net.cpp:91] Creating Layer dt18
I0816 16:04:04.637399 20404 net.cpp:425] dt18 <- InnerProduct114
I0816 16:04:04.637416 20404 net.cpp:399] dt18 -> dt18
I0816 16:04:04.637563 20404 net.cpp:141] Setting up dt18
I0816 16:04:04.637578 20404 net.cpp:148] Top shape: 100 1 (100)
I0816 16:04:04.637585 20404 net.cpp:156] Memory required for data: 3257046800
I0816 16:04:04.637593 20404 net.cpp:484] Sharing parameters 'fc10_w' owned by layer 'dt0', param index 0
I0816 16:04:04.637603 20404 net.cpp:484] Sharing parameters 'fc10_b' owned by layer 'dt0', param index 1
I0816 16:04:04.637611 20404 layer_factory.hpp:77] Creating layer con
I0816 16:04:04.637627 20404 net.cpp:91] Creating Layer con
…
I0816 16:04:04.637730 20404 net.cpp:425] con <- dt10
I0816 16:04:04.637739 20404 net.cpp:425] con <- dt11
I0816 16:04:04.637748 20404 net.cpp:425] con <- dt12
I0816 16:04:04.637758 20404 net.cpp:425] con <- dt13
I0816 16:04:04.637765 20404 net.cpp:425] con <- dt14
I0816 16:04:04.637774 20404 net.cpp:425] con <- dt15
I0816 16:04:04.637784 20404 net.cpp:425] con <- dt16
I0816 16:04:04.637794 20404 net.cpp:425] con <- dt17
I0816 16:04:04.637814 20404 net.cpp:425] con <- dt18
I0816 16:04:04.637828 20404 net.cpp:399] con -> con
I0816 16:04:04.637871 20404 net.cpp:141] Setting up con
I0816 16:04:04.637884 20404 net.cpp:148] Top shape: 100 19 (1900)
I0816 16:04:04.637892 20404 net.cpp:156] Memory required for data: 3257054400
I0816 16:04:04.637899 20404 layer_factory.hpp:77] Creating layer r1
I0816 16:04:04.637929 20404 net.cpp:91] Creating Layer r1
I0816 16:04:04.637941 20404 net.cpp:425] r1 <- con
I0816 16:04:04.637954 20404 net.cpp:399] r1 -> r1
I0816 16:04:04.638001 20404 net.cpp:141] Setting up r1
I0816 16:04:04.638015 20404 net.cpp:148] Top shape: 100 1 1 19 (1900)
I0816 16:04:04.638023 20404 net.cpp:156] Memory required for data: 3257062000
I0816 16:04:04.638031 20404 layer_factory.hpp:77] Creating layer p
I0816 16:04:04.638041 20404 net.cpp:91] Creating Layer p
I0816 16:04:04.638049 20404 net.cpp:425] p <- r1
I0816 16:04:04.638064 20404 net.cpp:399] p -> p
I0816 16:04:04.638124 20404 net.cpp:141] Setting up p
I0816 16:04:04.638139 20404 net.cpp:148] Top shape: 100 1 1 1 (100)
I0816 16:04:04.638145 20404 net.cpp:156] Memory required for data: 3257062400
I0816 16:04:04.638154 20404 layer_factory.hpp:77] Creating layer r2
I0816 16:04:04.638166 20404 net.cpp:91] Creating Layer r2
I0816 16:04:04.638175 20404 net.cpp:425] r2 <- p
I0816 16:04:04.638185 20404 net.cpp:399] r2 -> r2
I0816 16:04:04.638222 20404 net.cpp:141] Setting up r2
I0816 16:04:04.638236 20404 net.cpp:148] Top shape: 100 1 1 1 (100)
I0816 16:04:04.638243 20404 net.cpp:156] Memory required for data: 3257062800
I0816 16:04:04.638252 20404 layer_factory.hpp:77] Creating layer padL
I0816 16:04:04.638262 20404 net.cpp:91] Creating Layer padL
I0816 16:04:04.638270 20404 net.cpp:425] padL <- label_data_1_split_1
I0816 16:04:04.638284 20404 net.cpp:399] padL -> padL
I0816 16:04:04.638321 20404 net.cpp:141] Setting up padL
I0816 16:04:04.638334 20404 net.cpp:148] Top shape: 100 1 1 1 (100)
I0816 16:04:04.638341 20404 net.cpp:156] Memory required for data: 3257063200
I0816 16:04:04.638348 20404 layer_factory.hpp:77] Creating layer pad
I0816 16:04:04.638360 20404 net.cpp:91] Creating Layer pad
I0816 16:04:04.638367 20404 net.cpp:425] pad <- r2
I0816 16:04:04.638376 20404 net.cpp:425] pad <- padL
I0816 16:04:04.638387 20404 net.cpp:399] pad -> pad
I0816 16:04:04.638427 20404 net.cpp:141] Setting up pad
I0816 16:04:04.638442 20404 net.cpp:148] Top shape: 100 2 1 1 (200)
I0816 16:04:04.638449 20404 net.cpp:156] Memory required for data: 3257064000
I0816 16:04:04.638456 20404 layer_factory.hpp:77] Creating layer pad_pad_0_split
I0816 16:04:04.638466 20404 net.cpp:91] Creating Layer pad_pad_0_split
I0816 16:04:04.638474 20404 net.cpp:425] pad_pad_0_split <- pad
I0816 16:04:04.638485 20404 net.cpp:399] pad_pad_0_split -> pad_pad_0_split_0
I0816 16:04:04.638499 20404 net.cpp:399] pad_pad_0_split -> pad_pad_0_split_1
I0816 16:04:04.638555 20404 net.cpp:141] Setting up pad_pad_0_split
I0816 16:04:04.638566 20404 net.cpp:148] Top shape: 100 2 1 1 (200)
I0816 16:04:04.638577 20404 net.cpp:148] Top shape: 100 2 1 1 (200)
I0816 16:04:04.638584 20404 net.cpp:156] Memory required for data: 3257065600
I0816 16:04:04.638592 20404 layer_factory.hpp:77] Creating layer loss
I0816 16:04:04.638602 20404 net.cpp:91] Creating Layer loss
I0816 16:04:04.638609 20404 net.cpp:425] loss <- pad_pad_0_split_0
I0816 16:04:04.638619 20404 net.cpp:425] loss <- th_th_0_split_0
I0816 16:04:04.638633 20404 net.cpp:399] loss -> loss
…
