…
I0809 15:02:13.941092  5911 solver.cpp:81] Creating training net from train_net file: examples/scene/matchNetTrainHingeMini.prototxt
I0809 15:02:13.973206  5911 net.cpp:49] Initializing net from parameters: 
state {
  phase: TRAIN
}
layer {
  name: "data"
  type: "Data"
  top: "data"
  top: "label"
  include {
    phase: TRAIN
  }
  transform_param {
    scale: 0.0039215689
    mirror: true
    mean_file: "examples/scene/scene_mean.binaryproto"
  }
  data_param {
    source: "examples/scene/train11_pairs_300000_pad.lmdb"
    batch_size: 64
    backend: LMDB
  }
}
layer {
  name: "th"
  type: "Threshold"
  bottom: "label"
  top: "th"
  threshold_param {
    threshold: 0
  }
}
layer {
  name: "i1"
  type: "Slice"
  bottom: "data"
  top: "i1"
  top: "i2"
  slice_param {
    slice_dim: 1
    slice_point: 3
  }
}
layer {
  name: "p1"
  type: "Pooling"
  bottom: "i1"
  top: "p1"
  pooling_param {
    pool: AVE
    kernel_size: 2
    stride: 2
  }
}
layer {
  name: "p2"
  type: "Pooling"
  bottom: "i2"
  top: "p2"
  pooling_param {
    pool: AVE
    kernel_size: 2
    stride: 2
  }
}
layer {
  name: "Input1"
  type: "Input"
  top: "Input1"
  include {
    phase: TRAIN
  }
  input_param {
    shape {
      dim: 64
      dim: 3
      dim: 64
      dim: 64
    }
  }
}
layer {
  name: "c11"
  type: "Crop"
  bottom: "i1"
  bottom: "Input1"
  top: "c11"
  crop_param {
    axis: 2
    offset: 0
    offset: 0
  }
}
layer {
  name: "Input2"
  type: "Input"
  top: "Input2"
  include {
    phase: TRAIN
  }
  input_param {
    shape {
      dim: 64
      dim: 3
      dim: 64
      dim: 64
    }
  }
}
layer {
  name: "c12"
  type: "Crop"
  bottom: "i1"
  bottom: "Input2"
  top: "c12"
  crop_param {
    axis: 2
    offset: 0
    offset: 32
  }
}
layer {
  name: "Input3"
  type: "Input"
  top: "Input3"
  include {
    phase: TRAIN
  }
  input_param {
    shape {
      dim: 64
      dim: 3
      dim: 64
      dim: 64
    }
  }
}
layer {
  name: "c13"
  type: "Crop"
  bottom: "i1"
  bottom: "Input3"
  top: "c13"
  crop_param {
    axis: 2
    offset: 0
    offset: 64
  }
}
layer {
  name: "Input4"
  type: "Input"
  top: "Input4"
  include {
    phase: TRAIN
  }
  input_param {
    shape {
      dim: 64
      dim: 3
      dim: 64
      dim: 64
    }
  }
}
layer {
  name: "c14"
  type: "Crop"
  bottom: "i1"
  bottom: "Input4"
  top: "c14"
  crop_param {
    axis: 2
    offset: 32
    offset: 0
  }
}
layer {
  name: "Input5"
  type: "Input"
  top: "Input5"
  include {
    phase: TRAIN
  }
  input_param {
    shape {
      dim: 64
      dim: 3
      dim: 64
      dim: 64
    }
  }
}
layer {
  name: "c15"
  type: "Crop"
  bottom: "i1"
  bottom: "Input5"
  top: "c15"
  crop_param {
    axis: 2
    offset: 32
    offset: 32
  }
}
layer {
  name: "Input6"
  type: "Input"
  top: "Input6"
  include {
    phase: TRAIN
  }
  input_param {
    shape {
      dim: 64
      dim: 3
      dim: 64
      dim: 64
    }
  }
}
layer {
  name: "c16"
  type: "Crop"
  bottom: "i1"
  bottom: "Input6"
  top: "c16"
  crop_param {
    axis: 2
    offset: 32
    offset: 64
  }
}
layer {
  name: "Input7"
  type: "Input"
  top: "Input7"
  include {
    phase: TRAIN
  }
  input_param {
    shape {
      dim: 64
      dim: 3
      dim: 64
      dim: 64
    }
  }
}
layer {
  name: "c17"
  type: "Crop"
  bottom: "i1"
  bottom: "Input7"
  top: "c17"
  crop_param {
    axis: 2
    offset: 64
    offset: 0
  }
}
layer {
  name: "Input8"
  type: "Input"
  top: "Input8"
  include {
    phase: TRAIN
  }
  input_param {
    shape {
      dim: 64
      dim: 3
      dim: 64
      dim: 64
    }
  }
}
layer {
  name: "c18"
  type: "Crop"
  bottom: "i1"
  bottom: "Input8"
  top: "c18"
  crop_param {
    axis: 2
    offset: 64
    offset: 32
  }
}
layer {
  name: "Input9"
  type: "Input"
  top: "Input9"
  include {
    phase: TRAIN
  }
  input_param {
    shape {
      dim: 64
      dim: 3
      dim: 64
      dim: 64
    }
  }
}
layer {
  name: "c19"
  type: "Crop"
  bottom: "i1"
  bottom: "Input9"
  top: "c19"
  crop_param {
    axis: 2
    offset: 64
    offset: 64
  }
}
layer {
  name: "Input10"
  type: "Input"
  top: "Input10"
  include {
    phase: TRAIN
  }
  input_param {
    shape {
      dim: 64
      dim: 3
      dim: 64
      dim: 64
    }
  }
}
layer {
  name: "c21"
  type: "Crop"
  bottom: "i2"
  bottom: "Input10"
  top: "c21"
  crop_param {
    axis: 2
    offset: 0
    offset: 0
  }
}
layer {
  name: "Input11"
  type: "Input"
  top: "Input11"
  include {
    phase: TRAIN
  }
  input_param {
    shape {
      dim: 64
      dim: 3
      dim: 64
      dim: 64
    }
  }
}
layer {
  name: "c22"
  type: "Crop"
  bottom: "i2"
  bottom: "Input11"
  top: "c22"
  crop_param {
    axis: 2
    offset: 0
    offset: 32
  }
}
layer {
  name: "Input12"
  type: "Input"
  top: "Input12"
  include {
    phase: TRAIN
  }
  input_param {
    shape {
      dim: 64
      dim: 3
      dim: 64
      dim: 64
    }
  }
}
layer {
  name: "c23"
  type: "Crop"
  bottom: "i2"
  bottom: "Input12"
  top: "c23"
  crop_param {
    axis: 2
    offset: 0
    offset: 64
  }
}
layer {
  name: "Input13"
  type: "Input"
  top: "Input13"
  include {
    phase: TRAIN
  }
  input_param {
    shape {
      dim: 64
      dim: 3
      dim: 64
      dim: 64
    }
  }
}
layer {
  name: "c24"
  type: "Crop"
  bottom: "i2"
  bottom: "Input13"
  top: "c24"
  crop_param {
    axis: 2
    offset: 32
    offset: 0
  }
}
layer {
  name: "Input14"
  type: "Input"
  top: "Input14"
  include {
    phase: TRAIN
  }
  input_param {
    shape {
      dim: 64
      dim: 3
      dim: 64
      dim: 64
    }
  }
}
layer {
  name: "c25"
  type: "Crop"
  bottom: "i2"
  bottom: "Input14"
  top: "c25"
  crop_param {
    axis: 2
    offset: 32
    offset: 32
  }
}
layer {
  name: "Input15"
  type: "Input"
  top: "Input15"
  include {
    phase: TRAIN
  }
  input_param {
    shape {
      dim: 64
      dim: 3
      dim: 64
      dim: 64
    }
  }
}
layer {
  name: "c26"
  type: "Crop"
  bottom: "i2"
  bottom: "Input15"
  top: "c26"
  crop_param {
    axis: 2
    offset: 32
    offset: 64
  }
}
layer {
  name: "Input16"
  type: "Input"
  top: "Input16"
  include {
    phase: TRAIN
  }
  input_param {
    shape {
      dim: 64
      dim: 3
      dim: 64
      dim: 64
    }
  }
}
layer {
  name: "c27"
  type: "Crop"
  bottom: "i2"
  bottom: "Input16"
  top: "c27"
  crop_param {
    axis: 2
    offset: 64
    offset: 0
  }
}
layer {
  name: "Input17"
  type: "Input"
  top: "Input17"
  include {
    phase: TRAIN
  }
  input_param {
    shape {
      dim: 64
      dim: 3
      dim: 64
      dim: 64
    }
  }
}
layer {
  name: "c28"
  type: "Crop"
  bottom: "i2"
  bottom: "Input17"
  top: "c28"
  crop_param {
    axis: 2
    offset: 64
    offset: 32
  }
}
layer {
  name: "Input18"
  type: "Input"
  top: "Input18"
  include {
    phase: TRAIN
  }
  input_param {
    shape {
      dim: 64
      dim: 3
      dim: 64
      dim: 64
    }
  }
}
layer {
  name: "c29"
  type: "Crop"
  bottom: "i2"
  bottom: "Input18"
  top: "c29"
  crop_param {
    axis: 2
    offset: 64
    offset: 64
  }
}
layer {
  name: "Convolution1"
  type: "Convolution"
  bottom: "p1"
  top: "Convolution1"
  param {
    name: "conv1_w"
    lr_mult: 1
  }
  param {
    name: "conv1_b"
    lr_mult: 2
  }
  convolution_param {
    num_output: 20
    kernel_size: 5
    stride: 1
    weight_filler {
      type: "xavier"
    }
    bias_filler {
      type: "constant"
    }
  }
}
layer {
  name: "Pooling1"
  type: "Pooling"
  bottom: "Convolution1"
  top: "Pooling1"
  pooling_param {
    pool: MAX
    kernel_size: 2
    stride: 2
  }
}
layer {
  name: "Convolution2"
  type: "Convolution"
  bottom: "Pooling1"
  top: "Convolution2"
  param {
    name: "conv2_w"
    lr_mult: 1
  }
  param {
    name: "conv2_b"
    lr_mult: 2
  }
  convolution_param {
    num_output: 50
    kernel_size: 5
    stride: 1
    weight_filler {
      type: "xavier"
    }
    bias_filler {
      type: "constant"
    }
  }
}
layer {
  name: "Pooling2"
  type: "Pooling"
  bottom: "Convolution2"
  top: "Pooling2"
  pooling_param {
    pool: MAX
    kernel_size: 2
    stride: 2
  }
}
layer {
  name: "Convolution3"
  type: "Convolution"
  bottom: "Pooling2"
  top: "Convolution3"
  param {
    name: "conv3_w"
    lr_mult: 1
  }
  param {
    name: "conv3_b"
    lr_mult: 2
  }
  convolution_param {
    num_output: 50
    kernel_size: 5
    stride: 1
    weight_filler {
      type: "xavier"
    }
    bias_filler {
      type: "constant"
    }
  }
}
layer {
  name: "Pooling3"
  type: "Pooling"
  bottom: "Convolution3"
  top: "Pooling3"
  pooling_param {
    pool: MAX
    kernel_size: 2
    stride: 2
  }
}
layer {
  name: "InnerProduct1"
  type: "InnerProduct"
  bottom: "Pooling3"
  top: "InnerProduct1"
  param {
    name: "ip1_w"
    lr_mult: 1
  }
  param {
    name: "ip1_b"
    lr_mult: 2
  }
  inner_product_param {
    num_output: 100
    weight_filler {
      type: "xavier"
    }
    bias_filler {
      type: "constant"
    }
  }
}
layer {
  name: "ReLU1"
  type: "ReLU"
  bottom: "InnerProduct1"
  top: "InnerProduct1"
}
layer {
  name: "InnerProduct2"
  type: "InnerProduct"
  bottom: "InnerProduct1"
  top: "InnerProduct2"
  param {
    name: "ip2_w"
    lr_mult: 1
  }
  param {
    name: "ip2_b"
    lr_mult: 2
  }
  inner_product_param {
    num_output: 50
    weight_filler {
      type: "xavier"
    }
    bias_filler {
      type: "constant"
    }
  }
}
layer {
  name: "Convolution4"
  type: "Convolution"
  bottom: "p2"
  top: "Convolution4"
  param {
    name: "conv1_w"
    lr_mult: 1
  }
  param {
    name: "conv1_b"
    lr_mult: 2
  }
  convolution_param {
    num_output: 20
    kernel_size: 5
    stride: 1
    weight_filler {
      type: "xavier"
    }
    bias_filler {
      type: "constant"
    }
  }
}
layer {
  name: "Pooling4"
  type: "Pooling"
  bottom: "Convolution4"
  top: "Pooling4"
  pooling_param {
    pool: MAX
    kernel_size: 2
    stride: 2
  }
}
layer {
  name: "Convolution5"
  type: "Convolution"
  bottom: "Pooling4"
  top: "Convolution5"
  param {
    name: "conv2_w"
    lr_mult: 1
  }
  param {
    name: "conv2_b"
    lr_mult: 2
  }
  convolution_param {
    num_output: 50
    kernel_size: 5
    stride: 1
    weight_filler {
      type: "xavier"
    }
    bias_filler {
      type: "constant"
    }
  }
}
layer {
  name: "Pooling5"
  type: "Pooling"
  bottom: "Convolution5"
  top: "Pooling5"
  pooling_param {
    pool: MAX
    kernel_size: 2
    stride: 2
  }
}
layer {
  name: "Convolution6"
  type: "Convolution"
  bottom: "Pooling5"
  top: "Convolution6"
  param {
    name: "conv3_w"
    lr_mult: 1
  }
  param {
    name: "conv3_b"
    lr_mult: 2
  }
  convolution_param {
    num_output: 50
    kernel_size: 5
    stride: 1
    weight_filler {
      type: "xavier"
    }
    bias_filler {
      type: "constant"
    }
  }
}
layer {
  name: "Pooling6"
  type: "Pooling"
  bottom: "Convolution6"
  top: "Pooling6"
  pooling_param {
    pool: MAX
    kernel_size: 2
    stride: 2
  }
}
layer {
  name: "InnerProduct3"
  type: "InnerProduct"
  bottom: "Pooling6"
  top: "InnerProduct3"
  param {
    name: "ip1_w"
    lr_mult: 1
  }
  param {
    name: "ip1_b"
    lr_mult: 2
  }
  inner_product_param {
    num_output: 100
    weight_filler {
      type: "xavier"
    }
    bias_filler {
      type: "constant"
    }
  }
}
layer {
  name: "ReLU2"
  type: "ReLU"
  bottom: "InnerProduct3"
  top: "InnerProduct3"
}
layer {
  name: "InnerProduct4"
  type: "InnerProduct"
  bottom: "InnerProduct3"
  top: "InnerProduct4"
  param {
    name: "ip2_w"
    lr_mult: 1
  }
  param {
    name: "ip2_b"
    lr_mult: 2
  }
  inner_product_param {
    num_output: 50
    weight_filler {
      type: "xavier"
    }
    bias_filler {
      type: "constant"
    }
  }
}
layer {
  name: "Concat1"
  type: "Concat"
  bottom: "InnerProduct2"
  bottom: "InnerProduct4"
  top: "Concat1"
  concat_param {
    axis: 1
  }
}
layer {
  name: "InnerProduct5"
  type: "InnerProduct"
  bottom: "Concat1"
  top: "InnerProduct5"
  param {
    name: "fc1_w"
    lr_mult: 1
  }
  param {
    name: "fc1_b"
    lr_mult: 2
  }
  inner_product_param {
    num_output: 64
    weight_filler {
      type: "xavier"
    }
    bias_filler {
      type: "constant"
    }
  }
}
layer {
  name: "ReLU3"
  type: "ReLU"
  bottom: "InnerProduct5"
  top: "InnerProduct5"
}
layer {
  name: "drop1"
  type: "Dropout"
  bottom: "InnerProduct5"
  top: "Dropout1"
  dropout_param {
    dropout_ratio: 0.5
  }
}
layer {
  name: "InnerProduct6"
  type: "InnerProduct"
  bottom: "Dropout1"
  top: "InnerProduct6"
  param {
    name: "fc2_w"
    lr_mult: 1
  }
  param {
    name: "fc2_b"
    lr_mult: 2
  }
  inner_product_param {
    num_output: 32
    weight_filler {
      type: "xavier"
    }
    bias_filler {
      type: "constant"
    }
  }
}
layer {
  name: "ReLU4"
  type: "ReLU"
  bottom: "InnerProduct6"
  top: "InnerProduct6"
}
layer {
  name: "drop2"
  type: "Dropout"
  bottom: "InnerProduct6"
  top: "Dropout2"
  dropout_param {
    dropout_ratio: 0.5
  }
}
layer {
  name: "dt0"
  type: "InnerProduct"
  bottom: "Dropout2"
  top: "dt0"
  param {
    name: "fc3_w"
    lr_mult: 1
  }
  param {
    name: "fc3_b"
    lr_mult: 2
  }
  inner_product_param {
    num_output: 1
    weight_filler {
      type: "xavier"
    }
    bias_filler {
      type: "constant"
    }
  }
}
layer {
  name: "Convolution7"
  type: "Convolution"
  bottom: "p1"
  top: "Convolution7"
  param {
    name: "conv1_w"
    lr_mult: 1
  }
  param {
    name: "conv1_b"
    lr_mult: 2
  }
  convolution_param {
    num_output: 20
    kernel_size: 5
    stride: 1
    weight_filler {
      type: "xavier"
    }
    bias_filler {
      type: "constant"
    }
  }
}
layer {
  name: "Pooling7"
  type: "Pooling"
  bottom: "Convolution7"
  top: "Pooling7"
  pooling_param {
    pool: MAX
    kernel_size: 2
    stride: 2
  }
}
layer {
  name: "Convolution8"
  type: "Convolution"
  bottom: "Pooling7"
  top: "Convolution8"
  param {
    name: "conv2_w"
    lr_mult: 1
  }
  param {
    name: "conv2_b"
    lr_mult: 2
  }
  convolution_param {
    num_output: 50
    kernel_size: 5
    stride: 1
    weight_filler {
      type: "xavier"
    }
    bias_filler {
      type: "constant"
    }
  }
}
layer {
  name: "Pooling8"
  type: "Pooling"
  bottom: "Convolution8"
  top: "Pooling8"
  pooling_param {
    pool: MAX
    kernel_size: 2
    stride: 2
  }
}
layer {
  name: "Convolution9"
  type: "Convolution"
  bottom: "Pooling8"
  top: "Convolution9"
  param {
    name: "conv3_w"
    lr_mult: 1
  }
  param {
    name: "conv3_b"
    lr_mult: 2
  }
  convolution_param {
    num_output: 50
    kernel_size: 5
    stride: 1
    weight_filler {
      type: "xavier"
    }
    bias_filler {
      type: "constant"
    }
  }
}
layer {
  name: "Pooling9"
  type: "Pooling"
  bottom: "Convolution9"
  top: "Pooling9"
  pooling_param {
    pool: MAX
    kernel_size: 2
    stride: 2
  }
}
layer {
  name: "InnerProduct7"
  type: "InnerProduct"
  bottom: "Pooling9"
  top: "InnerProduct7"
  param {
    name: "ip1_w"
    lr_mult: 1
  }
  param {
    name: "ip1_b"
    lr_mult: 2
  }
  inner_product_param {
    num_output: 100
    weight_filler {
      type: "xavier"
    }
    bias_filler {
      type: "constant"
    }
  }
}
layer {
  name: "ReLU5"
  type: "ReLU"
  bottom: "InnerProduct7"
  top: "InnerProduct7"
}
layer {
  name: "InnerProduct8"
  type: "InnerProduct"
  bottom: "InnerProduct7"
  top: "InnerProduct8"
  param {
    name: "ip2_w"
    lr_mult: 1
  }
  param {
    name: "ip2_b"
    lr_mult: 2
  }
  inner_product_param {
    num_output: 50
    weight_filler {
      type: "xavier"
    }
    bias_filler {
      type: "constant"
    }
  }
}
layer {
  name: "Convolution10"
  type: "Convolution"
  bottom: "c21"
  top: "Convolution10"
  param {
    name: "conv1_w"
    lr_mult: 1
  }
  param {
    name: "conv1_b"
    lr_mult: 2
  }
  convolution_param {
    num_output: 20
    kernel_size: 5
    stride: 1
    weight_filler {
      type: "xavier"
    }
    bias_filler {
      type: "constant"
    }
  }
}
layer {
  name: "Pooling10"
  type: "Pooling"
  bottom: "Convolution10"
  top: "Pooling10"
  pooling_param {
    pool: MAX
    kernel_size: 2
    stride: 2
  }
}
layer {
  name: "Convolution11"
  type: "Convolution"
  bottom: "Pooling10"
  top: "Convolution11"
  param {
    name: "conv2_w"
    lr_mult: 1
  }
  param {
    name: "conv2_b"
    lr_mult: 2
  }
  convolution_param {
    num_output: 50
    kernel_size: 5
    stride: 1
    weight_filler {
      type: "xavier"
    }
    bias_filler {
      type: "constant"
    }
  }
}
layer {
  name: "Pooling11"
  type: "Pooling"
  bottom: "Convolution11"
  top: "Pooling11"
  pooling_param {
    pool: MAX
    kernel_size: 2
    stride: 2
  }
}
layer {
  name: "Convolution12"
  type: "Convolution"
  bottom: "Pooling11"
  top: "Convolution12"
  param {
    name: "conv3_w"
    lr_mult: 1
  }
  param {
    name: "conv3_b"
    lr_mult: 2
  }
  convolution_param {
    num_output: 50
    kernel_size: 5
    stride: 1
    weight_filler {
      type: "xavier"
    }
    bias_filler {
      type: "constant"
    }
  }
}
layer {
  name: "Pooling12"
  type: "Pooling"
  bottom: "Convolution12"
  top: "Pooling12"
  pooling_param {
    pool: MAX
    kernel_size: 2
    stride: 2
  }
}
layer {
  name: "InnerProduct9"
  type: "InnerProduct"
  bottom: "Pooling12"
  top: "InnerProduct9"
  param {
    name: "ip1_w"
    lr_mult: 1
  }
  param {
    name: "ip1_b"
    lr_mult: 2
  }
  inner_product_param {
    num_output: 100
    weight_filler {
      type: "xavier"
    }
    bias_filler {
      type: "constant"
    }
  }
}
layer {
  name: "ReLU6"
  type: "ReLU"
  bottom: "InnerProduct9"
  top: "InnerProduct9"
}
layer {
  name: "InnerProduct10"
  type: "InnerProduct"
  bottom: "InnerProduct9"
  top: "InnerProduct10"
  param {
    name: "ip2_w"
    lr_mult: 1
  }
  param {
    name: "ip2_b"
    lr_mult: 2
  }
  inner_product_param {
    num_output: 50
    weight_filler {
      type: "xavier"
    }
    bias_filler {
      type: "constant"
    }
  }
}
layer {
  name: "Concat2"
  type: "Concat"
  bottom: "InnerProduct8"
  bottom: "InnerProduct10"
  top: "Concat2"
  concat_param {
    axis: 1
  }
}
layer {
  name: "InnerProduct11"
  type: "InnerProduct"
  bottom: "Concat2"
  top: "InnerProduct11"
  param {
    name: "fc1_w"
    lr_mult: 1
  }
  param {
    name: "fc1_b"
    lr_mult: 2
  }
  inner_product_param {
    num_output: 64
    weight_filler {
      type: "xavier"
    }
    bias_filler {
      type: "constant"
    }
  }
}
layer {
  name: "ReLU7"
  type: "ReLU"
  bottom: "InnerProduct11"
  top: "InnerProduct11"
}
layer {
  name: "drop1"
  type: "Dropout"
  bottom: "InnerProduct11"
  top: "Dropout3"
  dropout_param {
    dropout_ratio: 0.5
  }
}
layer {
  name: "InnerProduct12"
  type: "InnerProduct"
  bottom: "Dropout3"
  top: "InnerProduct12"
  param {
    name: "fc2_w"
    lr_mult: 1
  }
  param {
    name: "fc2_b"
    lr_mult: 2
  }
  inner_product_param {
    num_output: 32
    weight_filler {
      type: "xavier"
    }
    bias_filler {
      type: "constant"
    }
  }
}
layer {
  name: "ReLU8"
  type: "ReLU"
  bottom: "InnerProduct12"
  top: "InnerProduct12"
}
layer {
  name: "drop2"
  type: "Dropout"
  bottom: "InnerProduct12"
  top: "Dropout4"
  dropout_param {
    dropout_ratio: 0.5
  }
}
layer {
  name: "dt1"
  type: "InnerProduct"
  bottom: "Dropout4"
  top: "dt1"
  param {
    name: "fc3_w"
    lr_mult: 1
  }
  param {
    name: "fc3_b"
    lr_mult: 2
  }
  inner_product_param {
    num_output: 1
    weight_filler {
      type: "xavier"
    }
    bias_filler {
      type: "constant"
    }
  }
}
layer {
  name: "Convolution13"
  type: "Convolution"
  bottom: "p1"
  top: "Convolution13"
  param {
    name: "conv1_w"
    lr_mult: 1
  }
  param {
    name: "conv1_b"
    lr_mult: 2
  }
  convolution_param {
    num_output: 20
    kernel_size: 5
    stride: 1
    weight_filler {
      type: "xavier"
    }
    bias_filler {
      type: "constant"
    }
  }
}
layer {
  name: "Pooling13"
  type: "Pooling"
  bottom: "Convolution13"
  top: "Pooling13"
  pooling_param {
    pool: MAX
    kernel_size: 2
    stride: 2
  }
}
layer {
  name: "Convolution14"
  type: "Convolution"
  bottom: "Pooling13"
  top: "Convolution14"
  param {
    name: "conv2_w"
    lr_mult: 1
  }
  param {
    name: "conv2_b"
    lr_mult: 2
  }
  convolution_param {
    num_output: 50
    kernel_size: 5
    stride: 1
    weight_filler {
      type: "xavier"
    }
    bias_filler {
      type: "constant"
    }
  }
}
layer {
  name: "Pooling14"
  type: "Pooling"
  bottom: "Convolution14"
  top: "Pooling14"
  pooling_param {
    pool: MAX
    kernel_size: 2
    stride: 2
  }
}
layer {
  name: "Convolution15"
  type: "Convolution"
  bottom: "Pooling14"
  top: "Convolution15"
  param {
    name: "conv3_w"
    lr_mult: 1
  }
  param {
    name: "conv3_b"
    lr_mult: 2
  }
  convolution_param {
    num_output: 50
    kernel_size: 5
    stride: 1
    weight_filler {
      type: "xavier"
    }
    bias_filler {
      type: "constant"
    }
  }
}
layer {
  name: "Pooling15"
  type: "Pooling"
  bottom: "Convolution15"
  top: "Pooling15"
  pooling_param {
    pool: MAX
    kernel_size: 2
    stride: 2
  }
}
layer {
  name: "InnerProduct13"
  type: "InnerProduct"
  bottom: "Pooling15"
  top: "InnerProduct13"
  param {
    name: "ip1_w"
    lr_mult: 1
  }
  param {
    name: "ip1_b"
    lr_mult: 2
  }
  inner_product_param {
    num_output: 100
    weight_filler {
      type: "xavier"
    }
    bias_filler {
      type: "constant"
    }
  }
}
layer {
  name: "ReLU9"
  type: "ReLU"
  bottom: "InnerProduct13"
  top: "InnerProduct13"
}
layer {
  name: "InnerProduct14"
  type: "InnerProduct"
  bottom: "InnerProduct13"
  top: "InnerProduct14"
  param {
    name: "ip2_w"
    lr_mult: 1
  }
  param {
    name: "ip2_b"
    lr_mult: 2
  }
  inner_product_param {
    num_output: 50
    weight_filler {
      type: "xavier"
    }
    bias_filler {
      type: "constant"
    }
  }
}
layer {
  name: "Convolution16"
  type: "Convolution"
  bottom: "c22"
  top: "Convolution16"
  param {
    name: "conv1_w"
    lr_mult: 1
  }
  param {
    name: "conv1_b"
    lr_mult: 2
  }
  convolution_param {
    num_output: 20
    kernel_size: 5
    stride: 1
    weight_filler {
      type: "xavier"
    }
    bias_filler {
      type: "constant"
    }
  }
}
layer {
  name: "Pooling16"
  type: "Pooling"
  bottom: "Convolution16"
  top: "Pooling16"
  pooling_param {
    pool: MAX
    kernel_size: 2
    stride: 2
  }
}
layer {
  name: "Convolution17"
  type: "Convolution"
  bottom: "Pooling16"
  top: "Convolution17"
  param {
    name: "conv2_w"
    lr_mult: 1
  }
  param {
    name: "conv2_b"
    lr_mult: 2
  }
  convolution_param {
    num_output: 50
    kernel_size: 5
    stride: 1
    weight_filler {
      type: "xavier"
    }
    bias_filler {
      type: "constant"
    }
  }
}
layer {
  name: "Pooling17"
  type: "Pooling"
  bottom: "Convolution17"
  top: "Pooling17"
  pooling_param {
    pool: MAX
    kernel_size: 2
    stride: 2
  }
}
layer {
  name: "Convolution18"
  type: "Convolution"
  bottom: "Pooling17"
  top: "Convolution18"
  param {
    name: "conv3_w"
    lr_mult: 1
  }
  param {
    name: "conv3_b"
    lr_mult: 2
  }
  convolution_param {
    num_output: 50
    kernel_size: 5
    stride: 1
    weight_filler {
      type: "xavier"
    }
    bias_filler {
      type: "constant"
    }
  }
}
layer {
  name: "Pooling18"
  type: "Pooling"
  bottom: "Convolution18"
  top: "Pooling18"
  pooling_param {
    pool: MAX
    kernel_size: 2
    stride: 2
  }
}
layer {
  name: "InnerProduct15"
  type: "InnerProduct"
  bottom: "Pooling18"
  top: "InnerProduct15"
  param {
    name: "ip1_w"
    lr_mult: 1
  }
  param {
    name: "ip1_b"
    lr_mult: 2
  }
  inner_product_param {
    num_output: 100
    weight_filler {
      type: "xavier"
    }
    bias_filler {
      type: "constant"
    }
  }
}
layer {
  name: "ReLU10"
  type: "ReLU"
  bottom: "InnerProduct15"
  top: "InnerProduct15"
}
layer {
  name: "InnerProduct16"
  type: "InnerProduct"
  bottom: "InnerProduct15"
  top: "InnerProduct16"
  param {
    name: "ip2_w"
    lr_mult: 1
  }
  param {
    name: "ip2_b"
    lr_mult: 2
  }
  inner_product_param {
    num_output: 50
    weight_filler {
      type: "xavier"
    }
    bias_filler {
      type: "constant"
    }
  }
}
layer {
  name: "Concat3"
  type: "Concat"
  bottom: "InnerProduct14"
  bottom: "InnerProduct16"
  top: "Concat3"
  concat_param {
    axis: 1
  }
}
layer {
  name: "InnerProduct17"
  type: "InnerProduct"
  bottom: "Concat3"
  top: "InnerProduct17"
  param {
    name: "fc1_w"
    lr_mult: 1
  }
  param {
    name: "fc1_b"
    lr_mult: 2
  }
  inner_product_param {
    num_output: 64
    weight_filler {
      type: "xavier"
    }
    bias_filler {
      type: "constant"
    }
  }
}
layer {
  name: "ReLU11"
  type: "ReLU"
  bottom: "InnerProduct17"
  top: "InnerProduct17"
}
layer {
  name: "drop1"
  type: "Dropout"
  bottom: "InnerProduct17"
  top: "Dropout5"
  dropout_param {
    dropout_ratio: 0.5
  }
}
layer {
  name: "InnerProduct18"
  type: "InnerProduct"
  bottom: "Dropout5"
  top: "InnerProduct18"
  param {
    name: "fc2_w"
    lr_mult: 1
  }
  param {
    name: "fc2_b"
    lr_mult: 2
  }
  inner_product_param {
    num_output: 32
    weight_filler {
      type: "xavier"
    }
    bias_filler {
      type: "constant"
    }
  }
}
layer {
  name: "ReLU12"
  type: "ReLU"
  bottom: "InnerProduct18"
  top: "InnerProduct18"
}
layer {
  name: "drop2"
  type: "Dropout"
  bottom: "InnerProduct18"
  top: "Dropout6"
  dropout_param {
    dropout_ratio: 0.5
  }
}
layer {
  name: "dt2"
  type: "InnerProduct"
  bottom: "Dropout6"
  top: "dt2"
  param {
    name: "fc3_w"
    lr_mult: 1
  }
  param {
    name: "fc3_b"
    lr_mult: 2
  }
  inner_product_param {
    num_output: 1
    weight_filler {
      type: "xavier"
    }
    bias_filler {
      type: "constant"
    }
  }
}
layer {
  name: "Convolution19"
  type: "Convolution"
  bottom: "p1"
  top: "Convolution19"
  param {
    name: "conv1_w"
    lr_mult: 1
  }
  param {
    name: "conv1_b"
    lr_mult: 2
  }
  convolution_param {
    num_output: 20
    kernel_size: 5
    stride: 1
    weight_filler {
      type: "xavier"
    }
    bias_filler {
      type: "constant"
    }
  }
}
layer {
  name: "Pooling19"
  type: "Pooling"
  bottom: "Convolution19"
  top: "Pooling19"
  pooling_param {
    pool: MAX
    kernel_size: 2
    stride: 2
  }
}
layer {
  name: "Convolution20"
  type: "Convolution"
  bottom: "Pooling19"
  top: "Convolution20"
  param {
    name: "conv2_w"
    lr_mult: 1
  }
  param {
    name: "conv2_b"
    lr_mult: 2
  }
  convolution_param {
    num_output: 50
    kernel_size: 5
    stride: 1
    weight_filler {
      type: "xavier"
    }
    bias_filler {
      type: "constant"
    }
  }
}
layer {
  name: "Pooling20"
  type: "Pooling"
  bottom: "Convolution20"
  top: "Pooling20"
  pooling_param {
    pool: MAX
    kernel_size: 2
    stride: 2
  }
}
layer {
  name: "Convolution21"
  type: "Convolution"
  bottom: "Pooling20"
  top: "Convolution21"
  param {
    name: "conv3_w"
    lr_mult: 1
  }
  param {
    name: "conv3_b"
    lr_mult: 2
  }
  convolution_param {
    num_output: 50
    kernel_size: 5
    stride: 1
    weight_filler {
      type: "xavier"
    }
    bias_filler {
      type: "constant"
    }
  }
}
layer {
  name: "Pooling21"
  type: "Pooling"
  bottom: "Convolution21"
  top: "Pooling21"
  pooling_param {
    pool: MAX
    kernel_size: 2
    stride: 2
  }
}
layer {
  name: "InnerProduct19"
  type: "InnerProduct"
  bottom: "Pooling21"
  top: "InnerProduct19"
  param {
    name: "ip1_w"
    lr_mult: 1
  }
  param {
    name: "ip1_b"
    lr_mult: 2
  }
  inner_product_param {
    num_output: 100
    weight_filler {
      type: "xavier"
    }
    bias_filler {
      type: "constant"
    }
  }
}
layer {
  name: "ReLU13"
  type: "ReLU"
  bottom: "InnerProduct19"
  top: "InnerProduct19"
}
layer {
  name: "InnerProduct20"
  type: "InnerProduct"
  bottom: "InnerProduct19"
  top: "InnerProduct20"
  param {
    name: "ip2_w"
    lr_mult: 1
  }
  param {
    name: "ip2_b"
    lr_mult: 2
  }
  inner_product_param {
    num_output: 50
    weight_filler {
      type: "xavier"
    }
    bias_filler {
      type: "constant"
    }
  }
}
layer {
  name: "Convolution22"
  type: "Convolution"
  bottom: "c23"
  top: "Convolution22"
  param {
    name: "conv1_w"
    lr_mult: 1
  }
  param {
    name: "conv1_b"
    lr_mult: 2
  }
  convolution_param {
    num_output: 20
    kernel_size: 5
    stride: 1
    weight_filler {
      type: "xavier"
    }
    bias_filler {
      type: "constant"
    }
  }
}
layer {
  name: "Pooling22"
  type: "Pooling"
  bottom: "Convolution22"
  top: "Pooling22"
  pooling_param {
    pool: MAX
    kernel_size: 2
    stride: 2
  }
}
layer {
  name: "Convolution23"
  type: "Convolution"
  bottom: "Pooling22"
  top: "Convolution23"
  param {
    name: "conv2_w"
    lr_mult: 1
  }
  param {
    name: "conv2_b"
    lr_mult: 2
  }
  convolution_param {
    num_output: 50
    kernel_size: 5
    stride: 1
    weight_filler {
      type: "xavier"
    }
    bias_filler {
      type: "constant"
    }
  }
}
layer {
  name: "Pooling23"
  type: "Pooling"
  bottom: "Convolution23"
  top: "Pooling23"
  pooling_param {
    pool: MAX
    kernel_size: 2
    stride: 2
  }
}
layer {
  name: "Convolution24"
  type: "Convolution"
  bottom: "Pooling23"
  top: "Convolution24"
  param {
    name: "conv3_w"
    lr_mult: 1
  }
  param {
    name: "conv3_b"
    lr_mult: 2
  }
  convolution_param {
    num_output: 50
    kernel_size: 5
    stride: 1
    weight_filler {
      type: "xavier"
    }
    bias_filler {
      type: "constant"
    }
  }
}
layer {
  name: "Pooling24"
  type: "Pooling"
  bottom: "Convolution24"
  top: "Pooling24"
  pooling_param {
    pool: MAX
    kernel_size: 2
    stride: 2
  }
}
layer {
  name: "InnerProduct21"
  type: "InnerProduct"
  bottom: "Pooling24"
  top: "InnerProduct21"
  param {
    name: "ip1_w"
    lr_mult: 1
  }
  param {
    name: "ip1_b"
    lr_mult: 2
I0809 15:02:13.977056  5911 layer_factory.hpp:77] Creating layer data
I0809 15:02:13.983413  5911 net.cpp:91] Creating Layer data
I0809 15:02:13.983454  5911 net.cpp:399] data -> data
I0809 15:02:13.983496  5911 net.cpp:399] data -> label
I0809 15:02:13.983515  5911 data_transformer.cpp:25] Loading mean file from: examples/scene/scene_mean.binaryproto
I0809 15:02:13.985110  5917 db_lmdb.cpp:35] Opened lmdb examples/scene/train11_pairs_300000_pad.lmdb
I0809 15:02:14.008474  5911 data_layer.cpp:41] output data size: 64,6,128,128
I0809 15:02:14.071049  5911 net.cpp:141] Setting up data
I0809 15:02:14.071086  5911 net.cpp:148] Top shape: 64 6 128 128 (6291456)
I0809 15:02:14.071095  5911 net.cpp:148] Top shape: 64 (64)
I0809 15:02:14.071102  5911 net.cpp:156] Memory required for data: 25166080
I0809 15:02:14.071115  5911 layer_factory.hpp:77] Creating layer label_data_1_split
I0809 15:02:14.071138  5911 net.cpp:91] Creating Layer label_data_1_split
I0809 15:02:14.071147  5911 net.cpp:425] label_data_1_split <- label
I0809 15:02:14.071161  5911 net.cpp:399] label_data_1_split -> label_data_1_split_0
I0809 15:02:14.071177  5911 net.cpp:399] label_data_1_split -> label_data_1_split_1
I0809 15:02:14.071234  5911 net.cpp:141] Setting up label_data_1_split
I0809 15:02:14.071249  5911 net.cpp:148] Top shape: 64 (64)
I0809 15:02:14.071259  5911 net.cpp:148] Top shape: 64 (64)
I0809 15:02:14.071265  5911 net.cpp:156] Memory required for data: 25166592
I0809 15:02:14.071286  5911 layer_factory.hpp:77] Creating layer th
I0809 15:02:14.071321  5911 net.cpp:91] Creating Layer th
I0809 15:02:14.071331  5911 net.cpp:425] th <- label_data_1_split_0
I0809 15:02:14.071344  5911 net.cpp:399] th -> th
I0809 15:02:14.071395  5911 net.cpp:141] Setting up th
I0809 15:02:14.071409  5911 net.cpp:148] Top shape: 64 (64)
I0809 15:02:14.071418  5911 net.cpp:156] Memory required for data: 25166848
I0809 15:02:14.071425  5911 layer_factory.hpp:77] Creating layer th_th_0_split
I0809 15:02:14.071439  5911 net.cpp:91] Creating Layer th_th_0_split
I0809 15:02:14.071452  5911 net.cpp:425] th_th_0_split <- th
I0809 15:02:14.071465  5911 net.cpp:399] th_th_0_split -> th_th_0_split_0
I0809 15:02:14.071508  5911 net.cpp:399] th_th_0_split -> th_th_0_split_1
I0809 15:02:14.071597  5911 net.cpp:141] Setting up th_th_0_split
I0809 15:02:14.071621  5911 net.cpp:148] Top shape: 64 (64)
I0809 15:02:14.071640  5911 net.cpp:148] Top shape: 64 (64)
I0809 15:02:14.071655  5911 net.cpp:156] Memory required for data: 25167360
I0809 15:02:14.071665  5911 layer_factory.hpp:77] Creating layer i1
I0809 15:02:14.071696  5911 net.cpp:91] Creating Layer i1
I0809 15:02:14.071709  5911 net.cpp:425] i1 <- data
I0809 15:02:14.071722  5911 net.cpp:399] i1 -> i1
I0809 15:02:14.071755  5911 net.cpp:399] i1 -> i2
I0809 15:02:14.071842  5911 net.cpp:141] Setting up i1
I0809 15:02:14.071853  5911 net.cpp:148] Top shape: 64 3 128 128 (3145728)
I0809 15:02:14.071863  5911 net.cpp:148] Top shape: 64 3 128 128 (3145728)
I0809 15:02:14.071871  5911 net.cpp:156] Memory required for data: 50333184
I0809 15:02:14.071877  5911 layer_factory.hpp:77] Creating layer i1_i1_0_split
I0809 15:02:14.071887  5911 net.cpp:91] Creating Layer i1_i1_0_split
I0809 15:02:14.071897  5911 net.cpp:425] i1_i1_0_split <- i1
I0809 15:02:14.071955  5911 net.cpp:399] i1_i1_0_split -> i1_i1_0_split_0
I0809 15:02:14.071971  5911 net.cpp:399] i1_i1_0_split -> i1_i1_0_split_1
I0809 15:02:14.071987  5911 net.cpp:399] i1_i1_0_split -> i1_i1_0_split_2
I0809 15:02:14.072002  5911 net.cpp:399] i1_i1_0_split -> i1_i1_0_split_3
I0809 15:02:14.072017  5911 net.cpp:399] i1_i1_0_split -> i1_i1_0_split_4
I0809 15:02:14.072031  5911 net.cpp:399] i1_i1_0_split -> i1_i1_0_split_5
I0809 15:02:14.072046  5911 net.cpp:399] i1_i1_0_split -> i1_i1_0_split_6
I0809 15:02:14.072059  5911 net.cpp:399] i1_i1_0_split -> i1_i1_0_split_7
I0809 15:02:14.072077  5911 net.cpp:399] i1_i1_0_split -> i1_i1_0_split_8
I0809 15:02:14.072091  5911 net.cpp:399] i1_i1_0_split -> i1_i1_0_split_9
I0809 15:02:14.072357  5911 net.cpp:141] Setting up i1_i1_0_split
I0809 15:02:14.072373  5911 net.cpp:148] Top shape: 64 3 128 128 (3145728)
I0809 15:02:14.072383  5911 net.cpp:148] Top shape: 64 3 128 128 (3145728)
I0809 15:02:14.072392  5911 net.cpp:148] Top shape: 64 3 128 128 (3145728)
I0809 15:02:14.072402  5911 net.cpp:148] Top shape: 64 3 128 128 (3145728)
I0809 15:02:14.072410  5911 net.cpp:148] Top shape: 64 3 128 128 (3145728)
I0809 15:02:14.072419  5911 net.cpp:148] Top shape: 64 3 128 128 (3145728)
I0809 15:02:14.072428  5911 net.cpp:148] Top shape: 64 3 128 128 (3145728)
I0809 15:02:14.072438  5911 net.cpp:148] Top shape: 64 3 128 128 (3145728)
I0809 15:02:14.072448  5911 net.cpp:148] Top shape: 64 3 128 128 (3145728)
I0809 15:02:14.072458  5911 net.cpp:148] Top shape: 64 3 128 128 (3145728)
I0809 15:02:14.072464  5911 net.cpp:156] Memory required for data: 176162304
I0809 15:02:14.072473  5911 layer_factory.hpp:77] Creating layer i2_i1_1_split
I0809 15:02:14.072484  5911 net.cpp:91] Creating Layer i2_i1_1_split
I0809 15:02:14.072490  5911 net.cpp:425] i2_i1_1_split <- i2
I0809 15:02:14.072502  5911 net.cpp:399] i2_i1_1_split -> i2_i1_1_split_0
I0809 15:02:14.072517  5911 net.cpp:399] i2_i1_1_split -> i2_i1_1_split_1
I0809 15:02:14.072535  5911 net.cpp:399] i2_i1_1_split -> i2_i1_1_split_2
I0809 15:02:14.072551  5911 net.cpp:399] i2_i1_1_split -> i2_i1_1_split_3
I0809 15:02:14.072566  5911 net.cpp:399] i2_i1_1_split -> i2_i1_1_split_4
I0809 15:02:14.072582  5911 net.cpp:399] i2_i1_1_split -> i2_i1_1_split_5
I0809 15:02:14.072597  5911 net.cpp:399] i2_i1_1_split -> i2_i1_1_split_6
I0809 15:02:14.072613  5911 net.cpp:399] i2_i1_1_split -> i2_i1_1_split_7
I0809 15:02:14.072628  5911 net.cpp:399] i2_i1_1_split -> i2_i1_1_split_8
I0809 15:02:14.072644  5911 net.cpp:399] i2_i1_1_split -> i2_i1_1_split_9
I0809 15:02:14.076359  5911 net.cpp:141] Setting up i2_i1_1_split
I0809 15:02:14.076378  5911 net.cpp:148] Top shape: 64 3 128 128 (3145728)
I0809 15:02:14.076387  5911 net.cpp:148] Top shape: 64 3 128 128 (3145728)
I0809 15:02:14.076396  5911 net.cpp:148] Top shape: 64 3 128 128 (3145728)
I0809 15:02:14.076406  5911 net.cpp:148] Top shape: 64 3 128 128 (3145728)
I0809 15:02:14.076432  5911 net.cpp:148] Top shape: 64 3 128 128 (3145728)
I0809 15:02:14.076444  5911 net.cpp:148] Top shape: 64 3 128 128 (3145728)
I0809 15:02:14.076453  5911 net.cpp:148] Top shape: 64 3 128 128 (3145728)
I0809 15:02:14.076462  5911 net.cpp:148] Top shape: 64 3 128 128 (3145728)
I0809 15:02:14.076469  5911 net.cpp:148] Top shape: 64 3 128 128 (3145728)
I0809 15:02:14.076478  5911 net.cpp:148] Top shape: 64 3 128 128 (3145728)
I0809 15:02:14.076484  5911 net.cpp:156] Memory required for data: 301991424
I0809 15:02:14.076491  5911 layer_factory.hpp:77] Creating layer p1
I0809 15:02:14.076504  5911 net.cpp:91] Creating Layer p1
I0809 15:02:14.076511  5911 net.cpp:425] p1 <- i1_i1_0_split_0
I0809 15:02:14.076524  5911 net.cpp:399] p1 -> p1
I0809 15:02:14.076568  5911 net.cpp:141] Setting up p1
I0809 15:02:14.076581  5911 net.cpp:148] Top shape: 64 3 64 64 (786432)
I0809 15:02:14.076587  5911 net.cpp:156] Memory required for data: 305137152
I0809 15:02:14.076594  5911 layer_factory.hpp:77] Creating layer p1_p1_0_split
I0809 15:02:14.076607  5911 net.cpp:91] Creating Layer p1_p1_0_split
I0809 15:02:14.076614  5911 net.cpp:425] p1_p1_0_split <- p1
I0809 15:02:14.076627  5911 net.cpp:399] p1_p1_0_split -> p1_p1_0_split_0
I0809 15:02:14.076639  5911 net.cpp:399] p1_p1_0_split -> p1_p1_0_split_1
I0809 15:02:14.076654  5911 net.cpp:399] p1_p1_0_split -> p1_p1_0_split_2
I0809 15:02:14.076675  5911 net.cpp:399] p1_p1_0_split -> p1_p1_0_split_3
I0809 15:02:14.076690  5911 net.cpp:399] p1_p1_0_split -> p1_p1_0_split_4
I0809 15:02:14.076704  5911 net.cpp:399] p1_p1_0_split -> p1_p1_0_split_5
I0809 15:02:14.076717  5911 net.cpp:399] p1_p1_0_split -> p1_p1_0_split_6
I0809 15:02:14.076733  5911 net.cpp:399] p1_p1_0_split -> p1_p1_0_split_7
I0809 15:02:14.076746  5911 net.cpp:399] p1_p1_0_split -> p1_p1_0_split_8
I0809 15:02:14.076759  5911 net.cpp:399] p1_p1_0_split -> p1_p1_0_split_9
I0809 15:02:14.076934  5911 net.cpp:141] Setting up p1_p1_0_split
I0809 15:02:14.076946  5911 net.cpp:148] Top shape: 64 3 64 64 (786432)
I0809 15:02:14.076954  5911 net.cpp:148] Top shape: 64 3 64 64 (786432)
I0809 15:02:14.076964  5911 net.cpp:148] Top shape: 64 3 64 64 (786432)
I0809 15:02:14.076972  5911 net.cpp:148] Top shape: 64 3 64 64 (786432)
I0809 15:02:14.076982  5911 net.cpp:148] Top shape: 64 3 64 64 (786432)
I0809 15:02:14.076989  5911 net.cpp:148] Top shape: 64 3 64 64 (786432)
I0809 15:02:14.076998  5911 net.cpp:148] Top shape: 64 3 64 64 (786432)
I0809 15:02:14.077008  5911 net.cpp:148] Top shape: 64 3 64 64 (786432)
I0809 15:02:14.077015  5911 net.cpp:148] Top shape: 64 3 64 64 (786432)
I0809 15:02:14.077024  5911 net.cpp:148] Top shape: 64 3 64 64 (786432)
I0809 15:02:14.077030  5911 net.cpp:156] Memory required for data: 336594432
I0809 15:02:14.077038  5911 layer_factory.hpp:77] Creating layer p2
I0809 15:02:14.077046  5911 net.cpp:91] Creating Layer p2
I0809 15:02:14.077054  5911 net.cpp:425] p2 <- i2_i1_1_split_0
I0809 15:02:14.077064  5911 net.cpp:399] p2 -> p2
I0809 15:02:14.077093  5911 net.cpp:141] Setting up p2
I0809 15:02:14.077105  5911 net.cpp:148] Top shape: 64 3 64 64 (786432)
I0809 15:02:14.077111  5911 net.cpp:156] Memory required for data: 339740160
I0809 15:02:14.077117  5911 layer_factory.hpp:77] Creating layer p2_p2_0_split
I0809 15:02:14.077127  5911 net.cpp:91] Creating Layer p2_p2_0_split
I0809 15:02:14.077134  5911 net.cpp:425] p2_p2_0_split <- p2
I0809 15:02:14.077147  5911 net.cpp:399] p2_p2_0_split -> p2_p2_0_split_0
I0809 15:02:14.077162  5911 net.cpp:399] p2_p2_0_split -> p2_p2_0_split_1
I0809 15:02:14.077177  5911 net.cpp:399] p2_p2_0_split -> p2_p2_0_split_2
I0809 15:02:14.077190  5911 net.cpp:399] p2_p2_0_split -> p2_p2_0_split_3
I0809 15:02:14.077203  5911 net.cpp:399] p2_p2_0_split -> p2_p2_0_split_4
I0809 15:02:14.077216  5911 net.cpp:399] p2_p2_0_split -> p2_p2_0_split_5
I0809 15:02:14.077230  5911 net.cpp:399] p2_p2_0_split -> p2_p2_0_split_6
I0809 15:02:14.077244  5911 net.cpp:399] p2_p2_0_split -> p2_p2_0_split_7
I0809 15:02:14.077256  5911 net.cpp:399] p2_p2_0_split -> p2_p2_0_split_8
I0809 15:02:14.077283  5911 net.cpp:399] p2_p2_0_split -> p2_p2_0_split_9
I0809 15:02:14.077476  5911 net.cpp:141] Setting up p2_p2_0_split
I0809 15:02:14.077486  5911 net.cpp:148] Top shape: 64 3 64 64 (786432)
I0809 15:02:14.077496  5911 net.cpp:148] Top shape: 64 3 64 64 (786432)
I0809 15:02:14.077504  5911 net.cpp:148] Top shape: 64 3 64 64 (786432)
I0809 15:02:14.077513  5911 net.cpp:148] Top shape: 64 3 64 64 (786432)
I0809 15:02:14.077522  5911 net.cpp:148] Top shape: 64 3 64 64 (786432)
I0809 15:02:14.077530  5911 net.cpp:148] Top shape: 64 3 64 64 (786432)
I0809 15:02:14.077538  5911 net.cpp:148] Top shape: 64 3 64 64 (786432)
I0809 15:02:14.077548  5911 net.cpp:148] Top shape: 64 3 64 64 (786432)
I0809 15:02:14.077556  5911 net.cpp:148] Top shape: 64 3 64 64 (786432)
I0809 15:02:14.077564  5911 net.cpp:148] Top shape: 64 3 64 64 (786432)
I0809 15:02:14.077571  5911 net.cpp:156] Memory required for data: 371197440
I0809 15:02:14.077579  5911 layer_factory.hpp:77] Creating layer Input1
I0809 15:02:14.077591  5911 net.cpp:91] Creating Layer Input1
I0809 15:02:14.077600  5911 net.cpp:399] Input1 -> Input1
I0809 15:02:14.077641  5911 net.cpp:141] Setting up Input1
I0809 15:02:14.077652  5911 net.cpp:148] Top shape: 64 3 64 64 (786432)
I0809 15:02:14.077659  5911 net.cpp:156] Memory required for data: 374343168
I0809 15:02:14.077666  5911 layer_factory.hpp:77] Creating layer c11
I0809 15:02:14.077682  5911 net.cpp:91] Creating Layer c11
I0809 15:02:14.077692  5911 net.cpp:425] c11 <- i1_i1_0_split_1
I0809 15:02:14.077702  5911 net.cpp:425] c11 <- Input1
I0809 15:02:14.077711  5911 net.cpp:399] c11 -> c11
I0809 15:02:14.077747  5911 net.cpp:141] Setting up c11
I0809 15:02:14.077759  5911 net.cpp:148] Top shape: 64 3 64 64 (786432)
I0809 15:02:14.077765  5911 net.cpp:156] Memory required for data: 377488896
I0809 15:02:14.077772  5911 layer_factory.hpp:77] Creating layer Input2
I0809 15:02:14.077781  5911 net.cpp:91] Creating Layer Input2
I0809 15:02:14.077790  5911 net.cpp:399] Input2 -> Input2
I0809 15:02:14.077821  5911 net.cpp:141] Setting up Input2
I0809 15:02:14.077831  5911 net.cpp:148] Top shape: 64 3 64 64 (786432)
I0809 15:02:14.077838  5911 net.cpp:156] Memory required for data: 380634624
I0809 15:02:14.077846  5911 layer_factory.hpp:77] Creating layer c12
I0809 15:02:14.077855  5911 net.cpp:91] Creating Layer c12
I0809 15:02:14.077862  5911 net.cpp:425] c12 <- i1_i1_0_split_2
I0809 15:02:14.077873  5911 net.cpp:425] c12 <- Input2
I0809 15:02:14.077885  5911 net.cpp:399] c12 -> c12
I0809 15:02:14.077915  5911 net.cpp:141] Setting up c12
I0809 15:02:14.077926  5911 net.cpp:148] Top shape: 64 3 64 64 (786432)
I0809 15:02:14.077934  5911 net.cpp:156] Memory required for data: 383780352
I0809 15:02:14.077940  5911 layer_factory.hpp:77] Creating layer Input3
I0809 15:02:14.077950  5911 net.cpp:91] Creating Layer Input3
I0809 15:02:14.077958  5911 net.cpp:399] Input3 -> Input3
I0809 15:02:14.077988  5911 net.cpp:141] Setting up Input3
I0809 15:02:14.078001  5911 net.cpp:148] Top shape: 64 3 64 64 (786432)
I0809 15:02:14.078006  5911 net.cpp:156] Memory required for data: 386926080
I0809 15:02:14.078013  5911 layer_factory.hpp:77] Creating layer c13
I0809 15:02:14.078027  5911 net.cpp:91] Creating Layer c13
I0809 15:02:14.078033  5911 net.cpp:425] c13 <- i1_i1_0_split_3
I0809 15:02:14.078043  5911 net.cpp:425] c13 <- Input3
I0809 15:02:14.078054  5911 net.cpp:399] c13 -> c13
I0809 15:02:14.078088  5911 net.cpp:141] Setting up c13
I0809 15:02:14.078099  5911 net.cpp:148] Top shape: 64 3 64 64 (786432)
I0809 15:02:14.078106  5911 net.cpp:156] Memory required for data: 390071808
I0809 15:02:14.078114  5911 layer_factory.hpp:77] Creating layer Input4
I0809 15:02:14.078124  5911 net.cpp:91] Creating Layer Input4
I0809 15:02:14.078132  5911 net.cpp:399] Input4 -> Input4
I0809 15:02:14.078162  5911 net.cpp:141] Setting up Input4
I0809 15:02:14.078173  5911 net.cpp:148] Top shape: 64 3 64 64 (786432)
I0809 15:02:14.078181  5911 net.cpp:156] Memory required for data: 393217536
I0809 15:02:14.078187  5911 layer_factory.hpp:77] Creating layer c14
I0809 15:02:14.078212  5911 net.cpp:91] Creating Layer c14
I0809 15:02:14.078219  5911 net.cpp:425] c14 <- i1_i1_0_split_4
I0809 15:02:14.078228  5911 net.cpp:425] c14 <- Input4
I0809 15:02:14.078239  5911 net.cpp:399] c14 -> c14
I0809 15:02:14.078270  5911 net.cpp:141] Setting up c14
I0809 15:02:14.078282  5911 net.cpp:148] Top shape: 64 3 64 64 (786432)
I0809 15:02:14.078289  5911 net.cpp:156] Memory required for data: 396363264
I0809 15:02:14.078296  5911 layer_factory.hpp:77] Creating layer Input5
I0809 15:02:14.078305  5911 net.cpp:91] Creating Layer Input5
I0809 15:02:14.078315  5911 net.cpp:399] Input5 -> Input5
I0809 15:02:14.078346  5911 net.cpp:141] Setting up Input5
I0809 15:02:14.078356  5911 net.cpp:148] Top shape: 64 3 64 64 (786432)
I0809 15:02:14.078363  5911 net.cpp:156] Memory required for data: 399508992
I0809 15:02:14.078371  5911 layer_factory.hpp:77] Creating layer c15
I0809 15:02:14.078380  5911 net.cpp:91] Creating Layer c15
I0809 15:02:14.078387  5911 net.cpp:425] c15 <- i1_i1_0_split_5
I0809 15:02:14.078397  5911 net.cpp:425] c15 <- Input5
I0809 15:02:14.078407  5911 net.cpp:399] c15 -> c15
I0809 15:02:14.078438  5911 net.cpp:141] Setting up c15
I0809 15:02:14.078449  5911 net.cpp:148] Top shape: 64 3 64 64 (786432)
I0809 15:02:14.078455  5911 net.cpp:156] Memory required for data: 402654720
I0809 15:02:14.078462  5911 layer_factory.hpp:77] Creating layer Input6
I0809 15:02:14.078471  5911 net.cpp:91] Creating Layer Input6
I0809 15:02:14.078480  5911 net.cpp:399] Input6 -> Input6
I0809 15:02:14.078511  5911 net.cpp:141] Setting up Input6
I0809 15:02:14.078523  5911 net.cpp:148] Top shape: 64 3 64 64 (786432)
I0809 15:02:14.078531  5911 net.cpp:156] Memory required for data: 405800448
I0809 15:02:14.078537  5911 layer_factory.hpp:77] Creating layer c16
I0809 15:02:14.078547  5911 net.cpp:91] Creating Layer c16
I0809 15:02:14.078555  5911 net.cpp:425] c16 <- i1_i1_0_split_6
I0809 15:02:14.078565  5911 net.cpp:425] c16 <- Input6
I0809 15:02:14.078575  5911 net.cpp:399] c16 -> c16
I0809 15:02:14.078619  5911 net.cpp:141] Setting up c16
I0809 15:02:14.078631  5911 net.cpp:148] Top shape: 64 3 64 64 (786432)
I0809 15:02:14.078639  5911 net.cpp:156] Memory required for data: 408946176
I0809 15:02:14.078646  5911 layer_factory.hpp:77] Creating layer Input7
I0809 15:02:14.078657  5911 net.cpp:91] Creating Layer Input7
I0809 15:02:14.078667  5911 net.cpp:399] Input7 -> Input7
I0809 15:02:14.078701  5911 net.cpp:141] Setting up Input7
I0809 15:02:14.078712  5911 net.cpp:148] Top shape: 64 3 64 64 (786432)
I0809 15:02:14.078719  5911 net.cpp:156] Memory required for data: 412091904
I0809 15:02:14.078727  5911 layer_factory.hpp:77] Creating layer c17
I0809 15:02:14.078737  5911 net.cpp:91] Creating Layer c17
I0809 15:02:14.078745  5911 net.cpp:425] c17 <- i1_i1_0_split_7
I0809 15:02:14.078754  5911 net.cpp:425] c17 <- Input7
I0809 15:02:14.078766  5911 net.cpp:399] c17 -> c17
I0809 15:02:14.078810  5911 net.cpp:141] Setting up c17
I0809 15:02:14.078824  5911 net.cpp:148] Top shape: 64 3 64 64 (786432)
I0809 15:02:14.078831  5911 net.cpp:156] Memory required for data: 415237632
I0809 15:02:14.078840  5911 layer_factory.hpp:77] Creating layer Input8
I0809 15:02:14.078850  5911 net.cpp:91] Creating Layer Input8
I0809 15:02:14.078860  5911 net.cpp:399] Input8 -> Input8
I0809 15:02:14.078892  5911 net.cpp:141] Setting up Input8
I0809 15:02:14.078905  5911 net.cpp:148] Top shape: 64 3 64 64 (786432)
I0809 15:02:14.078912  5911 net.cpp:156] Memory required for data: 418383360
I0809 15:02:14.078920  5911 layer_factory.hpp:77] Creating layer c18
I0809 15:02:14.078932  5911 net.cpp:91] Creating Layer c18
I0809 15:02:14.078939  5911 net.cpp:425] c18 <- i1_i1_0_split_8
I0809 15:02:14.078949  5911 net.cpp:425] c18 <- Input8
I0809 15:02:14.078960  5911 net.cpp:399] c18 -> c18
I0809 15:02:14.078994  5911 net.cpp:141] Setting up c18
I0809 15:02:14.079006  5911 net.cpp:148] Top shape: 64 3 64 64 (786432)
I0809 15:02:14.079015  5911 net.cpp:156] Memory required for data: 421529088
I0809 15:02:14.079021  5911 layer_factory.hpp:77] Creating layer Input9
I0809 15:02:14.079046  5911 net.cpp:91] Creating Layer Input9
I0809 15:02:14.079056  5911 net.cpp:399] Input9 -> Input9
I0809 15:02:14.079089  5911 net.cpp:141] Setting up Input9
I0809 15:02:14.079102  5911 net.cpp:148] Top shape: 64 3 64 64 (786432)
I0809 15:02:14.079109  5911 net.cpp:156] Memory required for data: 424674816
I0809 15:02:14.079118  5911 layer_factory.hpp:77] Creating layer c19
I0809 15:02:14.079128  5911 net.cpp:91] Creating Layer c19
I0809 15:02:14.079135  5911 net.cpp:425] c19 <- i1_i1_0_split_9
I0809 15:02:14.079144  5911 net.cpp:425] c19 <- Input9
I0809 15:02:14.079156  5911 net.cpp:399] c19 -> c19
I0809 15:02:14.079190  5911 net.cpp:141] Setting up c19
I0809 15:02:14.079201  5911 net.cpp:148] Top shape: 64 3 64 64 (786432)
I0809 15:02:14.079210  5911 net.cpp:156] Memory required for data: 427820544
I0809 15:02:14.079216  5911 layer_factory.hpp:77] Creating layer Input10
I0809 15:02:14.079226  5911 net.cpp:91] Creating Layer Input10
I0809 15:02:14.079236  5911 net.cpp:399] Input10 -> Input10
I0809 15:02:14.079268  5911 net.cpp:141] Setting up Input10
I0809 15:02:14.079293  5911 net.cpp:148] Top shape: 64 3 64 64 (786432)
I0809 15:02:14.079301  5911 net.cpp:156] Memory required for data: 430966272
I0809 15:02:14.079309  5911 layer_factory.hpp:77] Creating layer c21
I0809 15:02:14.079319  5911 net.cpp:91] Creating Layer c21
I0809 15:02:14.079327  5911 net.cpp:425] c21 <- i2_i1_1_split_1
I0809 15:02:14.079339  5911 net.cpp:425] c21 <- Input10
I0809 15:02:14.079349  5911 net.cpp:399] c21 -> c21
I0809 15:02:14.079385  5911 net.cpp:141] Setting up c21
I0809 15:02:14.079398  5911 net.cpp:148] Top shape: 64 3 64 64 (786432)
I0809 15:02:14.079406  5911 net.cpp:156] Memory required for data: 434112000
I0809 15:02:14.079412  5911 layer_factory.hpp:77] Creating layer Input11
I0809 15:02:14.079423  5911 net.cpp:91] Creating Layer Input11
I0809 15:02:14.079432  5911 net.cpp:399] Input11 -> Input11
I0809 15:02:14.079465  5911 net.cpp:141] Setting up Input11
I0809 15:02:14.079478  5911 net.cpp:148] Top shape: 64 3 64 64 (786432)
I0809 15:02:14.079485  5911 net.cpp:156] Memory required for data: 437257728
I0809 15:02:14.079493  5911 layer_factory.hpp:77] Creating layer c22
I0809 15:02:14.079507  5911 net.cpp:91] Creating Layer c22
I0809 15:02:14.079515  5911 net.cpp:425] c22 <- i2_i1_1_split_2
I0809 15:02:14.079526  5911 net.cpp:425] c22 <- Input11
I0809 15:02:14.079538  5911 net.cpp:399] c22 -> c22
I0809 15:02:14.079574  5911 net.cpp:141] Setting up c22
I0809 15:02:14.079587  5911 net.cpp:148] Top shape: 64 3 64 64 (786432)
I0809 15:02:14.079594  5911 net.cpp:156] Memory required for data: 440403456
I0809 15:02:14.079602  5911 layer_factory.hpp:77] Creating layer Input12
I0809 15:02:14.079612  5911 net.cpp:91] Creating Layer Input12
I0809 15:02:14.079622  5911 net.cpp:399] Input12 -> Input12
I0809 15:02:14.079655  5911 net.cpp:141] Setting up Input12
I0809 15:02:14.079668  5911 net.cpp:148] Top shape: 64 3 64 64 (786432)
I0809 15:02:14.079675  5911 net.cpp:156] Memory required for data: 443549184
I0809 15:02:14.079682  5911 layer_factory.hpp:77] Creating layer c23
I0809 15:02:14.079694  5911 net.cpp:91] Creating Layer c23
I0809 15:02:14.079701  5911 net.cpp:425] c23 <- i2_i1_1_split_3
I0809 15:02:14.079711  5911 net.cpp:425] c23 <- Input12
I0809 15:02:14.079722  5911 net.cpp:399] c23 -> c23
I0809 15:02:14.079756  5911 net.cpp:141] Setting up c23
I0809 15:02:14.079769  5911 net.cpp:148] Top shape: 64 3 64 64 (786432)
I0809 15:02:14.079777  5911 net.cpp:156] Memory required for data: 446694912
I0809 15:02:14.079784  5911 layer_factory.hpp:77] Creating layer Input13
I0809 15:02:14.079794  5911 net.cpp:91] Creating Layer Input13
I0809 15:02:14.079804  5911 net.cpp:399] Input13 -> Input13
I0809 15:02:14.079838  5911 net.cpp:141] Setting up Input13
I0809 15:02:14.079850  5911 net.cpp:148] Top shape: 64 3 64 64 (786432)
I0809 15:02:14.079857  5911 net.cpp:156] Memory required for data: 449840640
I0809 15:02:14.079865  5911 layer_factory.hpp:77] Creating layer c24
I0809 15:02:14.079890  5911 net.cpp:91] Creating Layer c24
I0809 15:02:14.079901  5911 net.cpp:425] c24 <- i2_i1_1_split_4
I0809 15:02:14.079912  5911 net.cpp:425] c24 <- Input13
I0809 15:02:14.079923  5911 net.cpp:399] c24 -> c24
I0809 15:02:14.079957  5911 net.cpp:141] Setting up c24
I0809 15:02:14.079970  5911 net.cpp:148] Top shape: 64 3 64 64 (786432)
I0809 15:02:14.079977  5911 net.cpp:156] Memory required for data: 452986368
I0809 15:02:14.079985  5911 layer_factory.hpp:77] Creating layer Input14
I0809 15:02:14.079996  5911 net.cpp:91] Creating Layer Input14
I0809 15:02:14.080006  5911 net.cpp:399] Input14 -> Input14
I0809 15:02:14.080040  5911 net.cpp:141] Setting up Input14
I0809 15:02:14.080052  5911 net.cpp:148] Top shape: 64 3 64 64 (786432)
I0809 15:02:14.080060  5911 net.cpp:156] Memory required for data: 456132096
I0809 15:02:14.080067  5911 layer_factory.hpp:77] Creating layer c25
I0809 15:02:14.080078  5911 net.cpp:91] Creating Layer c25
I0809 15:02:14.080086  5911 net.cpp:425] c25 <- i2_i1_1_split_5
I0809 15:02:14.080096  5911 net.cpp:425] c25 <- Input14
I0809 15:02:14.080107  5911 net.cpp:399] c25 -> c25
I0809 15:02:14.080142  5911 net.cpp:141] Setting up c25
I0809 15:02:14.080153  5911 net.cpp:148] Top shape: 64 3 64 64 (786432)
I0809 15:02:14.080160  5911 net.cpp:156] Memory required for data: 459277824
I0809 15:02:14.080168  5911 layer_factory.hpp:77] Creating layer Input15
I0809 15:02:14.080178  5911 net.cpp:91] Creating Layer Input15
I0809 15:02:14.080188  5911 net.cpp:399] Input15 -> Input15
I0809 15:02:14.080221  5911 net.cpp:141] Setting up Input15
I0809 15:02:14.080230  5911 net.cpp:148] Top shape: 64 3 64 64 (786432)
I0809 15:02:14.080237  5911 net.cpp:156] Memory required for data: 462423552
I0809 15:02:14.080245  5911 layer_factory.hpp:77] Creating layer c26
I0809 15:02:14.080255  5911 net.cpp:91] Creating Layer c26
I0809 15:02:14.080262  5911 net.cpp:425] c26 <- i2_i1_1_split_6
I0809 15:02:14.080272  5911 net.cpp:425] c26 <- Input15
I0809 15:02:14.080283  5911 net.cpp:399] c26 -> c26
I0809 15:02:14.080317  5911 net.cpp:141] Setting up c26
I0809 15:02:14.080327  5911 net.cpp:148] Top shape: 64 3 64 64 (786432)
I0809 15:02:14.080334  5911 net.cpp:156] Memory required for data: 465569280
I0809 15:02:14.080341  5911 layer_factory.hpp:77] Creating layer Input16
I0809 15:02:14.080351  5911 net.cpp:91] Creating Layer Input16
I0809 15:02:14.080360  5911 net.cpp:399] Input16 -> Input16
I0809 15:02:14.080394  5911 net.cpp:141] Setting up Input16
I0809 15:02:14.080404  5911 net.cpp:148] Top shape: 64 3 64 64 (786432)
I0809 15:02:14.080410  5911 net.cpp:156] Memory required for data: 468715008
I0809 15:02:14.080417  5911 layer_factory.hpp:77] Creating layer c27
I0809 15:02:14.080427  5911 net.cpp:91] Creating Layer c27
I0809 15:02:14.080435  5911 net.cpp:425] c27 <- i2_i1_1_split_7
I0809 15:02:14.080446  5911 net.cpp:425] c27 <- Input16
I0809 15:02:14.080456  5911 net.cpp:399] c27 -> c27
I0809 15:02:14.080489  5911 net.cpp:141] Setting up c27
I0809 15:02:14.080499  5911 net.cpp:148] Top shape: 64 3 64 64 (786432)
I0809 15:02:14.080507  5911 net.cpp:156] Memory required for data: 471860736
I0809 15:02:14.080514  5911 layer_factory.hpp:77] Creating layer Input17
I0809 15:02:14.080524  5911 net.cpp:91] Creating Layer Input17
I0809 15:02:14.080536  5911 net.cpp:399] Input17 -> Input17
I0809 15:02:14.080572  5911 net.cpp:141] Setting up Input17
I0809 15:02:14.080584  5911 net.cpp:148] Top shape: 64 3 64 64 (786432)
I0809 15:02:14.080590  5911 net.cpp:156] Memory required for data: 475006464
I0809 15:02:14.080597  5911 layer_factory.hpp:77] Creating layer c28
I0809 15:02:14.080607  5911 net.cpp:91] Creating Layer c28
I0809 15:02:14.080615  5911 net.cpp:425] c28 <- i2_i1_1_split_8
I0809 15:02:14.080626  5911 net.cpp:425] c28 <- Input17
I0809 15:02:14.080636  5911 net.cpp:399] c28 -> c28
I0809 15:02:14.080670  5911 net.cpp:141] Setting up c28
I0809 15:02:14.080680  5911 net.cpp:148] Top shape: 64 3 64 64 (786432)
I0809 15:02:14.080687  5911 net.cpp:156] Memory required for data: 478152192
I0809 15:02:14.080695  5911 layer_factory.hpp:77] Creating layer Input18
I0809 15:02:14.080718  5911 net.cpp:91] Creating Layer Input18
I0809 15:02:14.080729  5911 net.cpp:399] Input18 -> Input18
I0809 15:02:14.080762  5911 net.cpp:141] Setting up Input18
I0809 15:02:14.080772  5911 net.cpp:148] Top shape: 64 3 64 64 (786432)
I0809 15:02:14.080780  5911 net.cpp:156] Memory required for data: 481297920
I0809 15:02:14.080787  5911 layer_factory.hpp:77] Creating layer c29
I0809 15:02:14.080798  5911 net.cpp:91] Creating Layer c29
I0809 15:02:14.080806  5911 net.cpp:425] c29 <- i2_i1_1_split_9
I0809 15:02:14.080816  5911 net.cpp:425] c29 <- Input18
I0809 15:02:14.080827  5911 net.cpp:399] c29 -> c29
I0809 15:02:14.080860  5911 net.cpp:141] Setting up c29
I0809 15:02:14.080870  5911 net.cpp:148] Top shape: 64 3 64 64 (786432)
I0809 15:02:14.080878  5911 net.cpp:156] Memory required for data: 484443648
I0809 15:02:14.080885  5911 layer_factory.hpp:77] Creating layer Convolution1
I0809 15:02:14.080909  5911 net.cpp:91] Creating Layer Convolution1
I0809 15:02:14.080916  5911 net.cpp:425] Convolution1 <- p1_p1_0_split_0
I0809 15:02:14.080930  5911 net.cpp:399] Convolution1 -> Convolution1
I0809 15:02:14.082082  5911 net.cpp:141] Setting up Convolution1
I0809 15:02:14.082099  5911 net.cpp:148] Top shape: 64 20 60 60 (4608000)
I0809 15:02:14.082106  5911 net.cpp:156] Memory required for data: 502875648
I0809 15:02:14.082125  5911 layer_factory.hpp:77] Creating layer Pooling1
I0809 15:02:14.082137  5911 net.cpp:91] Creating Layer Pooling1
I0809 15:02:14.082145  5911 net.cpp:425] Pooling1 <- Convolution1
I0809 15:02:14.082156  5911 net.cpp:399] Pooling1 -> Pooling1
I0809 15:02:14.082207  5911 net.cpp:141] Setting up Pooling1
I0809 15:02:14.082217  5911 net.cpp:148] Top shape: 64 20 30 30 (1152000)
I0809 15:02:14.082224  5911 net.cpp:156] Memory required for data: 507483648
I0809 15:02:14.082231  5911 layer_factory.hpp:77] Creating layer Convolution2
I0809 15:02:14.082244  5911 net.cpp:91] Creating Layer Convolution2
I0809 15:02:14.082252  5911 net.cpp:425] Convolution2 <- Pooling1
I0809 15:02:14.082263  5911 net.cpp:399] Convolution2 -> Convolution2
I0809 15:02:14.084178  5911 net.cpp:141] Setting up Convolution2
I0809 15:02:14.084197  5911 net.cpp:148] Top shape: 64 50 26 26 (2163200)
I0809 15:02:14.084204  5911 net.cpp:156] Memory required for data: 516136448
I0809 15:02:14.084219  5911 layer_factory.hpp:77] Creating layer Pooling2
I0809 15:02:14.084233  5911 net.cpp:91] Creating Layer Pooling2
I0809 15:02:14.084240  5911 net.cpp:425] Pooling2 <- Convolution2
I0809 15:02:14.084251  5911 net.cpp:399] Pooling2 -> Pooling2
I0809 15:02:14.084311  5911 net.cpp:141] Setting up Pooling2
I0809 15:02:14.084319  5911 net.cpp:148] Top shape: 64 50 13 13 (540800)
I0809 15:02:14.084326  5911 net.cpp:156] Memory required for data: 518299648
I0809 15:02:14.084333  5911 layer_factory.hpp:77] Creating layer Convolution3
I0809 15:02:14.084347  5911 net.cpp:91] Creating Layer Convolution3
I0809 15:02:14.084354  5911 net.cpp:425] Convolution3 <- Pooling2
I0809 15:02:14.084368  5911 net.cpp:399] Convolution3 -> Convolution3
I0809 15:02:14.085214  5911 net.cpp:141] Setting up Convolution3
I0809 15:02:14.085225  5911 net.cpp:148] Top shape: 64 50 9 9 (259200)
I0809 15:02:14.085232  5911 net.cpp:156] Memory required for data: 519336448
I0809 15:02:14.085245  5911 layer_factory.hpp:77] Creating layer Pooling3
I0809 15:02:14.085258  5911 net.cpp:91] Creating Layer Pooling3
I0809 15:02:14.085265  5911 net.cpp:425] Pooling3 <- Convolution3
I0809 15:02:14.085275  5911 net.cpp:399] Pooling3 -> Pooling3
I0809 15:02:14.085331  5911 net.cpp:141] Setting up Pooling3
I0809 15:02:14.085340  5911 net.cpp:148] Top shape: 64 50 5 5 (80000)
I0809 15:02:14.085347  5911 net.cpp:156] Memory required for data: 519656448
I0809 15:02:14.085355  5911 layer_factory.hpp:77] Creating layer InnerProduct1
I0809 15:02:14.085371  5911 net.cpp:91] Creating Layer InnerProduct1
I0809 15:02:14.085378  5911 net.cpp:425] InnerProduct1 <- Pooling3
I0809 15:02:14.085391  5911 net.cpp:399] InnerProduct1 -> InnerProduct1
I0809 15:02:14.086619  5911 net.cpp:141] Setting up InnerProduct1
I0809 15:02:14.086633  5911 net.cpp:148] Top shape: 64 100 (6400)
I0809 15:02:14.086640  5911 net.cpp:156] Memory required for data: 519682048
I0809 15:02:14.086652  5911 layer_factory.hpp:77] Creating layer ReLU1
I0809 15:02:14.086663  5911 net.cpp:91] Creating Layer ReLU1
I0809 15:02:14.086670  5911 net.cpp:425] ReLU1 <- InnerProduct1
I0809 15:02:14.086683  5911 net.cpp:386] ReLU1 -> InnerProduct1 (in-place)
I0809 15:02:14.086694  5911 net.cpp:141] Setting up ReLU1
I0809 15:02:14.086704  5911 net.cpp:148] Top shape: 64 100 (6400)
I0809 15:02:14.086709  5911 net.cpp:156] Memory required for data: 519707648
I0809 15:02:14.086716  5911 layer_factory.hpp:77] Creating layer InnerProduct2
I0809 15:02:14.086727  5911 net.cpp:91] Creating Layer InnerProduct2
I0809 15:02:14.086735  5911 net.cpp:425] InnerProduct2 <- InnerProduct1
I0809 15:02:14.086750  5911 net.cpp:399] InnerProduct2 -> InnerProduct2
I0809 15:02:14.087649  5911 net.cpp:141] Setting up InnerProduct2
I0809 15:02:14.087666  5911 net.cpp:148] Top shape: 64 50 (3200)
I0809 15:02:14.087673  5911 net.cpp:156] Memory required for data: 519720448
I0809 15:02:14.087689  5911 layer_factory.hpp:77] Creating layer Convolution4
I0809 15:02:14.087710  5911 net.cpp:91] Creating Layer Convolution4
I0809 15:02:14.087719  5911 net.cpp:425] Convolution4 <- p2_p2_0_split_0
I0809 15:02:14.087735  5911 net.cpp:399] Convolution4 -> Convolution4
I0809 15:02:14.088094  5911 net.cpp:141] Setting up Convolution4
I0809 15:02:14.088106  5911 net.cpp:148] Top shape: 64 20 60 60 (4608000)
I0809 15:02:14.088114  5911 net.cpp:156] Memory required for data: 538152448
I0809 15:02:14.088121  5911 net.cpp:484] Sharing parameters 'conv1_w' owned by layer 'Convolution1', param index 0
I0809 15:02:14.088130  5911 net.cpp:484] Sharing parameters 'conv1_b' owned by layer 'Convolution1', param index 1
I0809 15:02:14.088137  5911 layer_factory.hpp:77] Creating layer Pooling4
I0809 15:02:14.088147  5911 net.cpp:91] Creating Layer Pooling4
I0809 15:02:14.088155  5911 net.cpp:425] Pooling4 <- Convolution4
I0809 15:02:14.088165  5911 net.cpp:399] Pooling4 -> Pooling4
I0809 15:02:14.088223  5911 net.cpp:141] Setting up Pooling4
I0809 15:02:14.088232  5911 net.cpp:148] Top shape: 64 20 30 30 (1152000)
I0809 15:02:14.088239  5911 net.cpp:156] Memory required for data: 542760448
I0809 15:02:14.088248  5911 layer_factory.hpp:77] Creating layer Convolution5
I0809 15:02:14.088263  5911 net.cpp:91] Creating Layer Convolution5
I0809 15:02:14.088271  5911 net.cpp:425] Convolution5 <- Pooling4
I0809 15:02:14.088285  5911 net.cpp:399] Convolution5 -> Convolution5
I0809 15:02:14.088830  5911 net.cpp:141] Setting up Convolution5
I0809 15:02:14.088841  5911 net.cpp:148] Top shape: 64 50 26 26 (2163200)
I0809 15:02:14.088847  5911 net.cpp:156] Memory required for data: 551413248
I0809 15:02:14.088855  5911 net.cpp:484] Sharing parameters 'conv2_w' owned by layer 'Convolution2', param index 0
I0809 15:02:14.088863  5911 net.cpp:484] Sharing parameters 'conv2_b' owned by layer 'Convolution2', param index 1
I0809 15:02:14.088871  5911 layer_factory.hpp:77] Creating layer Pooling5
I0809 15:02:14.088884  5911 net.cpp:91] Creating Layer Pooling5
I0809 15:02:14.088891  5911 net.cpp:425] Pooling5 <- Convolution5
I0809 15:02:14.088901  5911 net.cpp:399] Pooling5 -> Pooling5
I0809 15:02:14.088948  5911 net.cpp:141] Setting up Pooling5
I0809 15:02:14.088958  5911 net.cpp:148] Top shape: 64 50 13 13 (540800)
I0809 15:02:14.088964  5911 net.cpp:156] Memory required for data: 553576448
I0809 15:02:14.088971  5911 layer_factory.hpp:77] Creating layer Convolution6
I0809 15:02:14.088987  5911 net.cpp:91] Creating Layer Convolution6
I0809 15:02:14.088994  5911 net.cpp:425] Convolution6 <- Pooling5
I0809 15:02:14.089009  5911 net.cpp:399] Convolution6 -> Convolution6
I0809 15:02:14.089874  5911 net.cpp:141] Setting up Convolution6
I0809 15:02:14.089885  5911 net.cpp:148] Top shape: 64 50 9 9 (259200)
I0809 15:02:14.089892  5911 net.cpp:156] Memory required for data: 554613248
I0809 15:02:14.089920  5911 net.cpp:484] Sharing parameters 'conv3_w' owned by layer 'Convolution3', param index 0
I0809 15:02:14.089928  5911 net.cpp:484] Sharing parameters 'conv3_b' owned by layer 'Convolution3', param index 1
I0809 15:02:14.089936  5911 layer_factory.hpp:77] Creating layer Pooling6
I0809 15:02:14.089946  5911 net.cpp:91] Creating Layer Pooling6
I0809 15:02:14.089952  5911 net.cpp:425] Pooling6 <- Convolution6
I0809 15:02:14.089972  5911 net.cpp:399] Pooling6 -> Pooling6
I0809 15:02:14.090028  5911 net.cpp:141] Setting up Pooling6
I0809 15:02:14.090036  5911 net.cpp:148] Top shape: 64 50 5 5 (80000)
I0809 15:02:14.090044  5911 net.cpp:156] Memory required for data: 554933248
I0809 15:02:14.090049  5911 layer_factory.hpp:77] Creating layer InnerProduct3
I0809 15:02:14.090065  5911 net.cpp:91] Creating Layer InnerProduct3
I0809 15:02:14.090071  5911 net.cpp:425] InnerProduct3 <- Pooling6
I0809 15:02:14.090085  5911 net.cpp:399] InnerProduct3 -> InnerProduct3
I0809 15:02:14.091948  5911 net.cpp:141] Setting up InnerProduct3
I0809 15:02:14.091965  5911 net.cpp:148] Top shape: 64 100 (6400)
I0809 15:02:14.091971  5911 net.cpp:156] Memory required for data: 554958848
I0809 15:02:14.091985  5911 net.cpp:484] Sharing parameters 'ip1_w' owned by layer 'InnerProduct1', param index 0
I0809 15:02:14.091995  5911 net.cpp:484] Sharing parameters 'ip1_b' owned by layer 'InnerProduct1', param index 1
I0809 15:02:14.092001  5911 layer_factory.hpp:77] Creating layer ReLU2
I0809 15:02:14.092015  5911 net.cpp:91] Creating Layer ReLU2
I0809 15:02:14.092023  5911 net.cpp:425] ReLU2 <- InnerProduct3
I0809 15:02:14.092033  5911 net.cpp:386] ReLU2 -> InnerProduct3 (in-place)
I0809 15:02:14.092046  5911 net.cpp:141] Setting up ReLU2
I0809 15:02:14.092054  5911 net.cpp:148] Top shape: 64 100 (6400)
I0809 15:02:14.092061  5911 net.cpp:156] Memory required for data: 554984448
I0809 15:02:14.092068  5911 layer_factory.hpp:77] Creating layer InnerProduct4
I0809 15:02:14.092102  5911 net.cpp:91] Creating Layer InnerProduct4
I0809 15:02:14.092108  5911 net.cpp:425] InnerProduct4 <- InnerProduct3
I0809 15:02:14.092119  5911 net.cpp:399] InnerProduct4 -> InnerProduct4
I0809 15:02:14.092308  5911 net.cpp:141] Setting up InnerProduct4
I0809 15:02:14.092317  5911 net.cpp:148] Top shape: 64 50 (3200)
I0809 15:02:14.092324  5911 net.cpp:156] Memory required for data: 554997248
I0809 15:02:14.092331  5911 net.cpp:484] Sharing parameters 'ip2_w' owned by layer 'InnerProduct2', param index 0
I0809 15:02:14.092339  5911 net.cpp:484] Sharing parameters 'ip2_b' owned by layer 'InnerProduct2', param index 1
I0809 15:02:14.092347  5911 layer_factory.hpp:77] Creating layer Concat1
I0809 15:02:14.092372  5911 net.cpp:91] Creating Layer Concat1
I0809 15:02:14.092381  5911 net.cpp:425] Concat1 <- InnerProduct2
I0809 15:02:14.092389  5911 net.cpp:425] Concat1 <- InnerProduct4
I0809 15:02:14.092403  5911 net.cpp:399] Concat1 -> Concat1
I0809 15:02:14.092437  5911 net.cpp:141] Setting up Concat1
I0809 15:02:14.092445  5911 net.cpp:148] Top shape: 64 100 (6400)
I0809 15:02:14.092453  5911 net.cpp:156] Memory required for data: 555022848
I0809 15:02:14.092458  5911 layer_factory.hpp:77] Creating layer InnerProduct5
I0809 15:02:14.092471  5911 net.cpp:91] Creating Layer InnerProduct5
I0809 15:02:14.092478  5911 net.cpp:425] InnerProduct5 <- Concat1
I0809 15:02:14.092492  5911 net.cpp:399] InnerProduct5 -> InnerProduct5
I0809 15:02:14.092684  5911 net.cpp:141] Setting up InnerProduct5
I0809 15:02:14.092694  5911 net.cpp:148] Top shape: 64 64 (4096)
I0809 15:02:14.092700  5911 net.cpp:156] Memory required for data: 555039232
I0809 15:02:14.092710  5911 layer_factory.hpp:77] Creating layer ReLU3
I0809 15:02:14.092718  5911 net.cpp:91] Creating Layer ReLU3
I0809 15:02:14.092725  5911 net.cpp:425] ReLU3 <- InnerProduct5
I0809 15:02:14.092735  5911 net.cpp:386] ReLU3 -> InnerProduct5 (in-place)
I0809 15:02:14.092743  5911 net.cpp:141] Setting up ReLU3
I0809 15:02:14.092752  5911 net.cpp:148] Top shape: 64 64 (4096)
I0809 15:02:14.092758  5911 net.cpp:156] Memory required for data: 555055616
I0809 15:02:14.092783  5911 layer_factory.hpp:77] Creating layer drop1
I0809 15:02:14.092797  5911 net.cpp:91] Creating Layer drop1
I0809 15:02:14.092805  5911 net.cpp:425] drop1 <- InnerProduct5
I0809 15:02:14.092816  5911 net.cpp:399] drop1 -> Dropout1
I0809 15:02:14.092880  5911 net.cpp:141] Setting up drop1
I0809 15:02:14.092890  5911 net.cpp:148] Top shape: 64 64 (4096)
I0809 15:02:14.092895  5911 net.cpp:156] Memory required for data: 555072000
I0809 15:02:14.092902  5911 layer_factory.hpp:77] Creating layer InnerProduct6
I0809 15:02:14.092914  5911 net.cpp:91] Creating Layer InnerProduct6
I0809 15:02:14.092921  5911 net.cpp:425] InnerProduct6 <- Dropout1
I0809 15:02:14.092931  5911 net.cpp:399] InnerProduct6 -> InnerProduct6
I0809 15:02:14.093092  5911 net.cpp:141] Setting up InnerProduct6
I0809 15:02:14.093101  5911 net.cpp:148] Top shape: 64 32 (2048)
I0809 15:02:14.093106  5911 net.cpp:156] Memory required for data: 555080192
I0809 15:02:14.093116  5911 layer_factory.hpp:77] Creating layer ReLU4
I0809 15:02:14.093124  5911 net.cpp:91] Creating Layer ReLU4
I0809 15:02:14.093132  5911 net.cpp:425] ReLU4 <- InnerProduct6
I0809 15:02:14.093142  5911 net.cpp:386] ReLU4 -> InnerProduct6 (in-place)
I0809 15:02:14.093152  5911 net.cpp:141] Setting up ReLU4
I0809 15:02:14.093160  5911 net.cpp:148] Top shape: 64 32 (2048)
I0809 15:02:14.093168  5911 net.cpp:156] Memory required for data: 555088384
I0809 15:02:14.093174  5911 layer_factory.hpp:77] Creating layer drop2
I0809 15:02:14.093183  5911 net.cpp:91] Creating Layer drop2
I0809 15:02:14.093189  5911 net.cpp:425] drop2 <- InnerProduct6
I0809 15:02:14.093201  5911 net.cpp:399] drop2 -> Dropout2
I0809 15:02:14.093250  5911 net.cpp:141] Setting up drop2
I0809 15:02:14.093261  5911 net.cpp:148] Top shape: 64 32 (2048)
I0809 15:02:14.093266  5911 net.cpp:156] Memory required for data: 555096576
I0809 15:02:14.093273  5911 layer_factory.hpp:77] Creating layer dt0
I0809 15:02:14.093284  5911 net.cpp:91] Creating Layer dt0
I0809 15:02:14.093291  5911 net.cpp:425] dt0 <- Dropout2
I0809 15:02:14.093302  5911 net.cpp:399] dt0 -> dt0
I0809 15:02:14.093446  5911 net.cpp:141] Setting up dt0
I0809 15:02:14.093456  5911 net.cpp:148] Top shape: 64 1 (64)
I0809 15:02:14.093462  5911 net.cpp:156] Memory required for data: 555096832
I0809 15:02:14.093472  5911 layer_factory.hpp:77] Creating layer Convolution7
I0809 15:02:14.093505  5911 net.cpp:91] Creating Layer Convolution7
I0809 15:02:14.093513  5911 net.cpp:425] Convolution7 <- p1_p1_0_split_1
I0809 15:02:14.093525  5911 net.cpp:399] Convolution7 -> Convolution7
I0809 15:02:14.093881  5911 net.cpp:141] Setting up Convolution7
I0809 15:02:14.093891  5911 net.cpp:148] Top shape: 64 20 60 60 (4608000)
I0809 15:02:14.093897  5911 net.cpp:156] Memory required for data: 573528832
I0809 15:02:14.093905  5911 net.cpp:484] Sharing parameters 'conv1_w' owned by layer 'Convolution1', param index 0
I0809 15:02:14.093914  5911 net.cpp:484] Sharing parameters 'conv1_b' owned by layer 'Convolution1', param index 1
I0809 15:02:14.093920  5911 layer_factory.hpp:77] Creating layer Pooling7
I0809 15:02:14.093933  5911 net.cpp:91] Creating Layer Pooling7
I0809 15:02:14.093940  5911 net.cpp:425] Pooling7 <- Convolution7
I0809 15:02:14.093950  5911 net.cpp:399] Pooling7 -> Pooling7
I0809 15:02:14.094009  5911 net.cpp:141] Setting up Pooling7
I0809 15:02:14.094019  5911 net.cpp:148] Top shape: 64 20 30 30 (1152000)
I0809 15:02:14.094025  5911 net.cpp:156] Memory required for data: 578136832
I0809 15:02:14.094032  5911 layer_factory.hpp:77] Creating layer Convolution8
I0809 15:02:14.094048  5911 net.cpp:91] Creating Layer Convolution8
I0809 15:02:14.094053  5911 net.cpp:425] Convolution8 <- Pooling7
I0809 15:02:14.094064  5911 net.cpp:399] Convolution8 -> Convolution8
I0809 15:02:14.094624  5911 net.cpp:141] Setting up Convolution8
I0809 15:02:14.094633  5911 net.cpp:148] Top shape: 64 50 26 26 (2163200)
I0809 15:02:14.094640  5911 net.cpp:156] Memory required for data: 586789632
I0809 15:02:14.094647  5911 net.cpp:484] Sharing parameters 'conv2_w' owned by layer 'Convolution2', param index 0
I0809 15:02:14.094671  5911 net.cpp:484] Sharing parameters 'conv2_b' owned by layer 'Convolution2', param index 1
I0809 15:02:14.094677  5911 layer_factory.hpp:77] Creating layer Pooling8
I0809 15:02:14.094689  5911 net.cpp:91] Creating Layer Pooling8
I0809 15:02:14.094696  5911 net.cpp:425] Pooling8 <- Convolution8
I0809 15:02:14.094709  5911 net.cpp:399] Pooling8 -> Pooling8
I0809 15:02:14.094760  5911 net.cpp:141] Setting up Pooling8
I0809 15:02:14.094769  5911 net.cpp:148] Top shape: 64 50 13 13 (540800)
I0809 15:02:14.094775  5911 net.cpp:156] Memory required for data: 588952832
I0809 15:02:14.094781  5911 layer_factory.hpp:77] Creating layer Convolution9
I0809 15:02:14.094797  5911 net.cpp:91] Creating Layer Convolution9
I0809 15:02:14.094805  5911 net.cpp:425] Convolution9 <- Pooling8
I0809 15:02:14.094820  5911 net.cpp:399] Convolution9 -> Convolution9
I0809 15:02:14.096451  5911 net.cpp:141] Setting up Convolution9
I0809 15:02:14.096469  5911 net.cpp:148] Top shape: 64 50 9 9 (259200)
I0809 15:02:14.096477  5911 net.cpp:156] Memory required for data: 589989632
I0809 15:02:14.096485  5911 net.cpp:484] Sharing parameters 'conv3_w' owned by layer 'Convolution3', param index 0
I0809 15:02:14.096494  5911 net.cpp:484] Sharing parameters 'conv3_b' owned by layer 'Convolution3', param index 1
I0809 15:02:14.096501  5911 layer_factory.hpp:77] Creating layer Pooling9
I0809 15:02:14.096513  5911 net.cpp:91] Creating Layer Pooling9
I0809 15:02:14.096521  5911 net.cpp:425] Pooling9 <- Convolution9
I0809 15:02:14.096535  5911 net.cpp:399] Pooling9 -> Pooling9
I0809 15:02:14.096596  5911 net.cpp:141] Setting up Pooling9
I0809 15:02:14.096606  5911 net.cpp:148] Top shape: 64 50 5 5 (80000)
I0809 15:02:14.096612  5911 net.cpp:156] Memory required for data: 590309632
I0809 15:02:14.096618  5911 layer_factory.hpp:77] Creating layer InnerProduct7
I0809 15:02:14.096632  5911 net.cpp:91] Creating Layer InnerProduct7
I0809 15:02:14.096639  5911 net.cpp:425] InnerProduct7 <- Pooling9
I0809 15:02:14.096652  5911 net.cpp:399] InnerProduct7 -> InnerProduct7
I0809 15:02:14.097947  5911 net.cpp:141] Setting up InnerProduct7
I0809 15:02:14.097961  5911 net.cpp:148] Top shape: 64 100 (6400)
I0809 15:02:14.097968  5911 net.cpp:156] Memory required for data: 590335232
I0809 15:02:14.097995  5911 net.cpp:484] Sharing parameters 'ip1_w' owned by layer 'InnerProduct1', param index 0
I0809 15:02:14.098003  5911 net.cpp:484] Sharing parameters 'ip1_b' owned by layer 'InnerProduct1', param index 1
I0809 15:02:14.098011  5911 layer_factory.hpp:77] Creating layer ReLU5
I0809 15:02:14.098023  5911 net.cpp:91] Creating Layer ReLU5
I0809 15:02:14.098031  5911 net.cpp:425] ReLU5 <- InnerProduct7
I0809 15:02:14.098042  5911 net.cpp:386] ReLU5 -> InnerProduct7 (in-place)
I0809 15:02:14.098053  5911 net.cpp:141] Setting up ReLU5
I0809 15:02:14.098062  5911 net.cpp:148] Top shape: 64 100 (6400)
I0809 15:02:14.098067  5911 net.cpp:156] Memory required for data: 590360832
I0809 15:02:14.098074  5911 layer_factory.hpp:77] Creating layer InnerProduct8
I0809 15:02:14.098085  5911 net.cpp:91] Creating Layer InnerProduct8
I0809 15:02:14.098093  5911 net.cpp:425] InnerProduct8 <- InnerProduct7
I0809 15:02:14.098105  5911 net.cpp:399] InnerProduct8 -> InnerProduct8
I0809 15:02:14.098284  5911 net.cpp:141] Setting up InnerProduct8
I0809 15:02:14.098294  5911 net.cpp:148] Top shape: 64 50 (3200)
I0809 15:02:14.098299  5911 net.cpp:156] Memory required for data: 590373632
I0809 15:02:14.098306  5911 net.cpp:484] Sharing parameters 'ip2_w' owned by layer 'InnerProduct2', param index 0
I0809 15:02:14.098315  5911 net.cpp:484] Sharing parameters 'ip2_b' owned by layer 'InnerProduct2', param index 1
I0809 15:02:14.098321  5911 layer_factory.hpp:77] Creating layer Convolution10
I0809 15:02:14.098338  5911 net.cpp:91] Creating Layer Convolution10
I0809 15:02:14.098346  5911 net.cpp:425] Convolution10 <- c21
I0809 15:02:14.098358  5911 net.cpp:399] Convolution10 -> Convolution10
I0809 15:02:14.098727  5911 net.cpp:141] Setting up Convolution10
I0809 15:02:14.098757  5911 net.cpp:148] Top shape: 64 20 60 60 (4608000)
I0809 15:02:14.098763  5911 net.cpp:156] Memory required for data: 608805632
I0809 15:02:14.098770  5911 net.cpp:484] Sharing parameters 'conv1_w' owned by layer 'Convolution1', param index 0
I0809 15:02:14.098778  5911 net.cpp:484] Sharing parameters 'conv1_b' owned by layer 'Convolution1', param index 1
I0809 15:02:14.098784  5911 layer_factory.hpp:77] Creating layer Pooling10
I0809 15:02:14.098794  5911 net.cpp:91] Creating Layer Pooling10
I0809 15:02:14.098801  5911 net.cpp:425] Pooling10 <- Convolution10
I0809 15:02:14.098811  5911 net.cpp:399] Pooling10 -> Pooling10
I0809 15:02:14.098868  5911 net.cpp:141] Setting up Pooling10
I0809 15:02:14.098878  5911 net.cpp:148] Top shape: 64 20 30 30 (1152000)
I0809 15:02:14.098886  5911 net.cpp:156] Memory required for data: 613413632
I0809 15:02:14.098891  5911 layer_factory.hpp:77] Creating layer Convolution11
I0809 15:02:14.098908  5911 net.cpp:91] Creating Layer Convolution11
I0809 15:02:14.098915  5911 net.cpp:425] Convolution11 <- Pooling10
I0809 15:02:14.098929  5911 net.cpp:399] Convolution11 -> Convolution11
I0809 15:02:14.099512  5911 net.cpp:141] Setting up Convolution11
I0809 15:02:14.099524  5911 net.cpp:148] Top shape: 64 50 26 26 (2163200)
I0809 15:02:14.099531  5911 net.cpp:156] Memory required for data: 622066432
I0809 15:02:14.099539  5911 net.cpp:484] Sharing parameters 'conv2_w' owned by layer 'Convolution2', param index 0
I0809 15:02:14.099546  5911 net.cpp:484] Sharing parameters 'conv2_b' owned by layer 'Convolution2', param index 1
I0809 15:02:14.099553  5911 layer_factory.hpp:77] Creating layer Pooling11
I0809 15:02:14.099563  5911 net.cpp:91] Creating Layer Pooling11
I0809 15:02:14.099570  5911 net.cpp:425] Pooling11 <- Convolution11
I0809 15:02:14.099583  5911 net.cpp:399] Pooling11 -> Pooling11
I0809 15:02:14.099635  5911 net.cpp:141] Setting up Pooling11
I0809 15:02:14.099647  5911 net.cpp:148] Top shape: 64 50 13 13 (540800)
I0809 15:02:14.099653  5911 net.cpp:156] Memory required for data: 624229632
I0809 15:02:14.099659  5911 layer_factory.hpp:77] Creating layer Convolution12
I0809 15:02:14.099675  5911 net.cpp:91] Creating Layer Convolution12
I0809 15:02:14.099683  5911 net.cpp:425] Convolution12 <- Pooling11
I0809 15:02:14.099694  5911 net.cpp:399] Convolution12 -> Convolution12
I0809 15:02:14.100563  5911 net.cpp:141] Setting up Convolution12
I0809 15:02:14.100574  5911 net.cpp:148] Top shape: 64 50 9 9 (259200)
I0809 15:02:14.100580  5911 net.cpp:156] Memory required for data: 625266432
I0809 15:02:14.100587  5911 net.cpp:484] Sharing parameters 'conv3_w' owned by layer 'Convolution3', param index 0
I0809 15:02:14.100595  5911 net.cpp:484] Sharing parameters 'conv3_b' owned by layer 'Convolution3', param index 1
I0809 15:02:14.100602  5911 layer_factory.hpp:77] Creating layer Pooling12
I0809 15:02:14.100615  5911 net.cpp:91] Creating Layer Pooling12
I0809 15:02:14.100622  5911 net.cpp:425] Pooling12 <- Convolution12
I0809 15:02:14.100632  5911 net.cpp:399] Pooling12 -> Pooling12
I0809 15:02:14.100687  5911 net.cpp:141] Setting up Pooling12
I0809 15:02:14.100695  5911 net.cpp:148] Top shape: 64 50 5 5 (80000)
I0809 15:02:14.100702  5911 net.cpp:156] Memory required for data: 625586432
I0809 15:02:14.100708  5911 layer_factory.hpp:77] Creating layer InnerProduct9
I0809 15:02:14.100721  5911 net.cpp:91] Creating Layer InnerProduct9
I0809 15:02:14.100728  5911 net.cpp:425] InnerProduct9 <- Pooling12
I0809 15:02:14.100739  5911 net.cpp:399] InnerProduct9 -> InnerProduct9
I0809 15:02:14.102627  5911 net.cpp:141] Setting up InnerProduct9
I0809 15:02:14.102644  5911 net.cpp:148] Top shape: 64 100 (6400)
I0809 15:02:14.102651  5911 net.cpp:156] Memory required for data: 625612032
I0809 15:02:14.102660  5911 net.cpp:484] Sharing parameters 'ip1_w' owned by layer 'InnerProduct1', param index 0
I0809 15:02:14.102669  5911 net.cpp:484] Sharing parameters 'ip1_b' owned by layer 'InnerProduct1', param index 1
I0809 15:02:14.102675  5911 layer_factory.hpp:77] Creating layer ReLU6
I0809 15:02:14.102705  5911 net.cpp:91] Creating Layer ReLU6
I0809 15:02:14.102712  5911 net.cpp:425] ReLU6 <- InnerProduct9
I0809 15:02:14.102725  5911 net.cpp:386] ReLU6 -> InnerProduct9 (in-place)
I0809 15:02:14.102737  5911 net.cpp:141] Setting up ReLU6
I0809 15:02:14.102746  5911 net.cpp:148] Top shape: 64 100 (6400)
I0809 15:02:14.102752  5911 net.cpp:156] Memory required for data: 625637632
I0809 15:02:14.102759  5911 layer_factory.hpp:77] Creating layer InnerProduct10
I0809 15:02:14.102771  5911 net.cpp:91] Creating Layer InnerProduct10
I0809 15:02:14.102777  5911 net.cpp:425] InnerProduct10 <- InnerProduct9
I0809 15:02:14.102792  5911 net.cpp:399] InnerProduct10 -> InnerProduct10
I0809 15:02:14.102980  5911 net.cpp:141] Setting up InnerProduct10
I0809 15:02:14.102989  5911 net.cpp:148] Top shape: 64 50 (3200)
I0809 15:02:14.102995  5911 net.cpp:156] Memory required for data: 625650432
I0809 15:02:14.103003  5911 net.cpp:484] Sharing parameters 'ip2_w' owned by layer 'InnerProduct2', param index 0
I0809 15:02:14.103011  5911 net.cpp:484] Sharing parameters 'ip2_b' owned by layer 'InnerProduct2', param index 1
I0809 15:02:14.103018  5911 layer_factory.hpp:77] Creating layer Concat2
I0809 15:02:14.103032  5911 net.cpp:91] Creating Layer Concat2
I0809 15:02:14.103040  5911 net.cpp:425] Concat2 <- InnerProduct8
I0809 15:02:14.103049  5911 net.cpp:425] Concat2 <- InnerProduct10
I0809 15:02:14.103061  5911 net.cpp:399] Concat2 -> Concat2
I0809 15:02:14.103097  5911 net.cpp:141] Setting up Concat2
I0809 15:02:14.103106  5911 net.cpp:148] Top shape: 64 100 (6400)
I0809 15:02:14.103112  5911 net.cpp:156] Memory required for data: 625676032
I0809 15:02:14.103119  5911 layer_factory.hpp:77] Creating layer InnerProduct11
I0809 15:02:14.103133  5911 net.cpp:91] Creating Layer InnerProduct11
I0809 15:02:14.103140  5911 net.cpp:425] InnerProduct11 <- Concat2
I0809 15:02:14.103152  5911 net.cpp:399] InnerProduct11 -> InnerProduct11
I0809 15:02:14.103358  5911 net.cpp:141] Setting up InnerProduct11
I0809 15:02:14.103369  5911 net.cpp:148] Top shape: 64 64 (4096)
I0809 15:02:14.103375  5911 net.cpp:156] Memory required for data: 625692416
I0809 15:02:14.103382  5911 net.cpp:484] Sharing parameters 'fc1_w' owned by layer 'InnerProduct5', param index 0
I0809 15:02:14.103391  5911 net.cpp:484] Sharing parameters 'fc1_b' owned by layer 'InnerProduct5', param index 1
I0809 15:02:14.103397  5911 layer_factory.hpp:77] Creating layer ReLU7
I0809 15:02:14.103406  5911 net.cpp:91] Creating Layer ReLU7
I0809 15:02:14.103413  5911 net.cpp:425] ReLU7 <- InnerProduct11
I0809 15:02:14.103423  5911 net.cpp:386] ReLU7 -> InnerProduct11 (in-place)
I0809 15:02:14.103433  5911 net.cpp:141] Setting up ReLU7
I0809 15:02:14.103442  5911 net.cpp:148] Top shape: 64 64 (4096)
I0809 15:02:14.103448  5911 net.cpp:156] Memory required for data: 625708800
I0809 15:02:14.103456  5911 layer_factory.hpp:77] Creating layer drop1
I0809 15:02:14.103464  5911 net.cpp:91] Creating Layer drop1
I0809 15:02:14.103472  5911 net.cpp:425] drop1 <- InnerProduct11
I0809 15:02:14.103484  5911 net.cpp:399] drop1 -> Dropout3
I0809 15:02:14.103536  5911 net.cpp:141] Setting up drop1
I0809 15:02:14.103546  5911 net.cpp:148] Top shape: 64 64 (4096)
I0809 15:02:14.103554  5911 net.cpp:156] Memory required for data: 625725184
I0809 15:02:14.103560  5911 layer_factory.hpp:77] Creating layer InnerProduct12
I0809 15:02:14.103574  5911 net.cpp:91] Creating Layer InnerProduct12
I0809 15:02:14.103580  5911 net.cpp:425] InnerProduct12 <- Dropout3
I0809 15:02:14.103590  5911 net.cpp:399] InnerProduct12 -> InnerProduct12
I0809 15:02:14.103783  5911 net.cpp:141] Setting up InnerProduct12
I0809 15:02:14.103796  5911 net.cpp:148] Top shape: 64 32 (2048)
I0809 15:02:14.103802  5911 net.cpp:156] Memory required for data: 625733376
I0809 15:02:14.103811  5911 net.cpp:484] Sharing parameters 'fc2_w' owned by layer 'InnerProduct6', param index 0
I0809 15:02:14.103818  5911 net.cpp:484] Sharing parameters 'fc2_b' owned by layer 'InnerProduct6', param index 1
I0809 15:02:14.103826  5911 layer_factory.hpp:77] Creating layer ReLU8
I0809 15:02:14.103849  5911 net.cpp:91] Creating Layer ReLU8
I0809 15:02:14.103857  5911 net.cpp:425] ReLU8 <- InnerProduct12
I0809 15:02:14.103866  5911 net.cpp:386] ReLU8 -> InnerProduct12 (in-place)
I0809 15:02:14.103876  5911 net.cpp:141] Setting up ReLU8
I0809 15:02:14.103885  5911 net.cpp:148] Top shape: 64 32 (2048)
I0809 15:02:14.103891  5911 net.cpp:156] Memory required for data: 625741568
I0809 15:02:14.103899  5911 layer_factory.hpp:77] Creating layer drop2
I0809 15:02:14.103906  5911 net.cpp:91] Creating Layer drop2
I0809 15:02:14.103914  5911 net.cpp:425] drop2 <- InnerProduct12
I0809 15:02:14.103925  5911 net.cpp:399] drop2 -> Dropout4
I0809 15:02:14.103973  5911 net.cpp:141] Setting up drop2
I0809 15:02:14.103982  5911 net.cpp:148] Top shape: 64 32 (2048)
I0809 15:02:14.103989  5911 net.cpp:156] Memory required for data: 625749760
I0809 15:02:14.103996  5911 layer_factory.hpp:77] Creating layer dt1
I0809 15:02:14.104009  5911 net.cpp:91] Creating Layer dt1
I0809 15:02:14.104017  5911 net.cpp:425] dt1 <- Dropout4
I0809 15:02:14.104027  5911 net.cpp:399] dt1 -> dt1
I0809 15:02:14.104171  5911 net.cpp:141] Setting up dt1
I0809 15:02:14.104181  5911 net.cpp:148] Top shape: 64 1 (64)
I0809 15:02:14.104187  5911 net.cpp:156] Memory required for data: 625750016
I0809 15:02:14.104194  5911 net.cpp:484] Sharing parameters 'fc3_w' owned by layer 'dt0', param index 0
I0809 15:02:14.104202  5911 net.cpp:484] Sharing parameters 'fc3_b' owned by layer 'dt0', param index 1
I0809 15:02:14.104208  5911 layer_factory.hpp:77] Creating layer Convolution13
I0809 15:02:14.104224  5911 net.cpp:91] Creating Layer Convolution13
I0809 15:02:14.104231  5911 net.cpp:425] Convolution13 <- p1_p1_0_split_2
I0809 15:02:14.104243  5911 net.cpp:399] Convolution13 -> Convolution13
I0809 15:02:14.104593  5911 net.cpp:141] Setting up Convolution13
I0809 15:02:14.104603  5911 net.cpp:148] Top shape: 64 20 60 60 (4608000)
I0809 15:02:14.104609  5911 net.cpp:156] Memory required for data: 644182016
I0809 15:02:14.104616  5911 net.cpp:484] Sharing parameters 'conv1_w' owned by layer 'Convolution1', param index 0
I0809 15:02:14.104624  5911 net.cpp:484] Sharing parameters 'conv1_b' owned by layer 'Convolution1', param index 1
I0809 15:02:14.104630  5911 layer_factory.hpp:77] Creating layer Pooling13
I0809 15:02:14.104642  5911 net.cpp:91] Creating Layer Pooling13
I0809 15:02:14.104650  5911 net.cpp:425] Pooling13 <- Convolution13
I0809 15:02:14.104660  5911 net.cpp:399] Pooling13 -> Pooling13
I0809 15:02:14.104713  5911 net.cpp:141] Setting up Pooling13
I0809 15:02:14.104722  5911 net.cpp:148] Top shape: 64 20 30 30 (1152000)
I0809 15:02:14.104728  5911 net.cpp:156] Memory required for data: 648790016
I0809 15:02:14.104734  5911 layer_factory.hpp:77] Creating layer Convolution14
I0809 15:02:14.104749  5911 net.cpp:91] Creating Layer Convolution14
I0809 15:02:14.104756  5911 net.cpp:425] Convolution14 <- Pooling13
I0809 15:02:14.104766  5911 net.cpp:399] Convolution14 -> Convolution14
I0809 15:02:14.105319  5911 net.cpp:141] Setting up Convolution14
I0809 15:02:14.105329  5911 net.cpp:148] Top shape: 64 50 26 26 (2163200)
I0809 15:02:14.105335  5911 net.cpp:156] Memory required for data: 657442816
I0809 15:02:14.105343  5911 net.cpp:484] Sharing parameters 'conv2_w' owned by layer 'Convolution2', param index 0
I0809 15:02:14.105351  5911 net.cpp:484] Sharing parameters 'conv2_b' owned by layer 'Convolution2', param index 1
I0809 15:02:14.105357  5911 layer_factory.hpp:77] Creating layer Pooling14
I0809 15:02:14.105367  5911 net.cpp:91] Creating Layer Pooling14
I0809 15:02:14.105375  5911 net.cpp:425] Pooling14 <- Convolution14
I0809 15:02:14.105386  5911 net.cpp:399] Pooling14 -> Pooling14
I0809 15:02:14.105437  5911 net.cpp:141] Setting up Pooling14
I0809 15:02:14.105446  5911 net.cpp:148] Top shape: 64 50 13 13 (540800)
I0809 15:02:14.105453  5911 net.cpp:156] Memory required for data: 659606016
I0809 15:02:14.105458  5911 layer_factory.hpp:77] Creating layer Convolution15
I0809 15:02:14.105475  5911 net.cpp:91] Creating Layer Convolution15
I0809 15:02:14.105495  5911 net.cpp:425] Convolution15 <- Pooling14
I0809 15:02:14.105506  5911 net.cpp:399] Convolution15 -> Convolution15
I0809 15:02:14.106441  5911 net.cpp:141] Setting up Convolution15
I0809 15:02:14.106454  5911 net.cpp:148] Top shape: 64 50 9 9 (259200)
I0809 15:02:14.106462  5911 net.cpp:156] Memory required for data: 660642816
I0809 15:02:14.106469  5911 net.cpp:484] Sharing parameters 'conv3_w' owned by layer 'Convolution3', param index 0
I0809 15:02:14.106478  5911 net.cpp:484] Sharing parameters 'conv3_b' owned by layer 'Convolution3', param index 1
I0809 15:02:14.106485  5911 layer_factory.hpp:77] Creating layer Pooling15
I0809 15:02:14.106497  5911 net.cpp:91] Creating Layer Pooling15
I0809 15:02:14.106504  5911 net.cpp:425] Pooling15 <- Convolution15
I0809 15:02:14.106519  5911 net.cpp:399] Pooling15 -> Pooling15
I0809 15:02:14.106576  5911 net.cpp:141] Setting up Pooling15
I0809 15:02:14.106586  5911 net.cpp:148] Top shape: 64 50 5 5 (80000)
I0809 15:02:14.106592  5911 net.cpp:156] Memory required for data: 660962816
I0809 15:02:14.106600  5911 layer_factory.hpp:77] Creating layer InnerProduct13
I0809 15:02:14.106613  5911 net.cpp:91] Creating Layer InnerProduct13
I0809 15:02:14.106621  5911 net.cpp:425] InnerProduct13 <- Pooling15
I0809 15:02:14.106634  5911 net.cpp:399] InnerProduct13 -> InnerProduct13
I0809 15:02:14.107837  5911 net.cpp:141] Setting up InnerProduct13
I0809 15:02:14.107849  5911 net.cpp:148] Top shape: 64 100 (6400)
I0809 15:02:14.107856  5911 net.cpp:156] Memory required for data: 660988416
I0809 15:02:14.107863  5911 net.cpp:484] Sharing parameters 'ip1_w' owned by layer 'InnerProduct1', param index 0
I0809 15:02:14.107872  5911 net.cpp:484] Sharing parameters 'ip1_b' owned by layer 'InnerProduct1', param index 1
I0809 15:02:14.107879  5911 layer_factory.hpp:77] Creating layer ReLU9
I0809 15:02:14.107892  5911 net.cpp:91] Creating Layer ReLU9
I0809 15:02:14.107899  5911 net.cpp:425] ReLU9 <- InnerProduct13
I0809 15:02:14.107909  5911 net.cpp:386] ReLU9 -> InnerProduct13 (in-place)
I0809 15:02:14.107921  5911 net.cpp:141] Setting up ReLU9
I0809 15:02:14.107929  5911 net.cpp:148] Top shape: 64 100 (6400)
I0809 15:02:14.107936  5911 net.cpp:156] Memory required for data: 661014016
I0809 15:02:14.107944  5911 layer_factory.hpp:77] Creating layer InnerProduct14
I0809 15:02:14.107957  5911 net.cpp:91] Creating Layer InnerProduct14
I0809 15:02:14.107964  5911 net.cpp:425] InnerProduct14 <- InnerProduct13
I0809 15:02:14.107975  5911 net.cpp:399] InnerProduct14 -> InnerProduct14
I0809 15:02:14.108160  5911 net.cpp:141] Setting up InnerProduct14
I0809 15:02:14.108170  5911 net.cpp:148] Top shape: 64 50 (3200)
I0809 15:02:14.108176  5911 net.cpp:156] Memory required for data: 661026816
I0809 15:02:14.108183  5911 net.cpp:484] Sharing parameters 'ip2_w' owned by layer 'InnerProduct2', param index 0
I0809 15:02:14.108191  5911 net.cpp:484] Sharing parameters 'ip2_b' owned by layer 'InnerProduct2', param index 1
I0809 15:02:14.108198  5911 layer_factory.hpp:77] Creating layer Convolution16
I0809 15:02:14.108213  5911 net.cpp:91] Creating Layer Convolution16
I0809 15:02:14.108222  5911 net.cpp:425] Convolution16 <- c22
I0809 15:02:14.108233  5911 net.cpp:399] Convolution16 -> Convolution16
I0809 15:02:14.110878  5911 net.cpp:141] Setting up Convolution16
I0809 15:02:14.110889  5911 net.cpp:148] Top shape: 64 20 60 60 (4608000)
I0809 15:02:14.110898  5911 net.cpp:156] Memory required for data: 679458816
I0809 15:02:14.110905  5911 net.cpp:484] Sharing parameters 'conv1_w' owned by layer 'Convolution1', param index 0
I0809 15:02:14.110914  5911 net.cpp:484] Sharing parameters 'conv1_b' owned by layer 'Convolution1', param index 1
I0809 15:02:14.110921  5911 layer_factory.hpp:77] Creating layer Pooling16
I0809 15:02:14.110931  5911 net.cpp:91] Creating Layer Pooling16
I0809 15:02:14.110939  5911 net.cpp:425] Pooling16 <- Convolution16
I0809 15:02:14.110954  5911 net.cpp:399] Pooling16 -> Pooling16
I0809 15:02:14.114766  5911 net.cpp:141] Setting up Pooling16
I0809 15:02:14.114794  5911 net.cpp:148] Top shape: 64 20 30 30 (1152000)
I0809 15:02:14.114799  5911 net.cpp:156] Memory required for data: 684066816
I0809 15:02:14.114806  5911 layer_factory.hpp:77] Creating layer Convolution17
I0809 15:02:14.114821  5911 net.cpp:91] Creating Layer Convolution17
I0809 15:02:14.114830  5911 net.cpp:425] Convolution17 <- Pooling16
I0809 15:02:14.114842  5911 net.cpp:399] Convolution17 -> Convolution17
I0809 15:02:14.115420  5911 net.cpp:141] Setting up Convolution17
I0809 15:02:14.115432  5911 net.cpp:148] Top shape: 64 50 26 26 (2163200)
I0809 15:02:14.115439  5911 net.cpp:156] Memory required for data: 692719616
I0809 15:02:14.115470  5911 net.cpp:484] Sharing parameters 'conv2_w' owned by layer 'Convolution2', param index 0
I0809 15:02:14.115479  5911 net.cpp:484] Sharing parameters 'conv2_b' owned by layer 'Convolution2', param index 1
I0809 15:02:14.115488  5911 layer_factory.hpp:77] Creating layer Pooling17
I0809 15:02:14.115497  5911 net.cpp:91] Creating Layer Pooling17
I0809 15:02:14.115504  5911 net.cpp:425] Pooling17 <- Convolution17
I0809 15:02:14.115514  5911 net.cpp:399] Pooling17 -> Pooling17
I0809 15:02:14.115571  5911 net.cpp:141] Setting up Pooling17
I0809 15:02:14.115581  5911 net.cpp:148] Top shape: 64 50 13 13 (540800)
I0809 15:02:14.115586  5911 net.cpp:156] Memory required for data: 694882816
I0809 15:02:14.115592  5911 layer_factory.hpp:77] Creating layer Convolution18
I0809 15:02:14.115608  5911 net.cpp:91] Creating Layer Convolution18
I0809 15:02:14.115615  5911 net.cpp:425] Convolution18 <- Pooling17
I0809 15:02:14.115629  5911 net.cpp:399] Convolution18 -> Convolution18
I0809 15:02:14.117225  5911 net.cpp:141] Setting up Convolution18
I0809 15:02:14.117241  5911 net.cpp:148] Top shape: 64 50 9 9 (259200)
I0809 15:02:14.117249  5911 net.cpp:156] Memory required for data: 695919616
I0809 15:02:14.117256  5911 net.cpp:484] Sharing parameters 'conv3_w' owned by layer 'Convolution3', param index 0
I0809 15:02:14.117264  5911 net.cpp:484] Sharing parameters 'conv3_b' owned by layer 'Convolution3', param index 1
I0809 15:02:14.117271  5911 layer_factory.hpp:77] Creating layer Pooling18
I0809 15:02:14.117282  5911 net.cpp:91] Creating Layer Pooling18
I0809 15:02:14.117290  5911 net.cpp:425] Pooling18 <- Convolution18
I0809 15:02:14.117300  5911 net.cpp:399] Pooling18 -> Pooling18
I0809 15:02:14.117357  5911 net.cpp:141] Setting up Pooling18
I0809 15:02:14.117365  5911 net.cpp:148] Top shape: 64 50 5 5 (80000)
I0809 15:02:14.117372  5911 net.cpp:156] Memory required for data: 696239616
I0809 15:02:14.117377  5911 layer_factory.hpp:77] Creating layer InnerProduct15
I0809 15:02:14.117393  5911 net.cpp:91] Creating Layer InnerProduct15
I0809 15:02:14.117399  5911 net.cpp:425] InnerProduct15 <- Pooling18
I0809 15:02:14.117413  5911 net.cpp:399] InnerProduct15 -> InnerProduct15
I0809 15:02:14.119236  5911 net.cpp:141] Setting up InnerProduct15
I0809 15:02:14.119252  5911 net.cpp:148] Top shape: 64 100 (6400)
I0809 15:02:14.119259  5911 net.cpp:156] Memory required for data: 696265216
I0809 15:02:14.119268  5911 net.cpp:484] Sharing parameters 'ip1_w' owned by layer 'InnerProduct1', param index 0
I0809 15:02:14.119298  5911 net.cpp:484] Sharing parameters 'ip1_b' owned by layer 'InnerProduct1', param index 1
I0809 15:02:14.119305  5911 layer_factory.hpp:77] Creating layer ReLU10
I0809 15:02:14.119316  5911 net.cpp:91] Creating Layer ReLU10
I0809 15:02:14.119323  5911 net.cpp:425] ReLU10 <- InnerProduct15
I0809 15:02:14.119338  5911 net.cpp:386] ReLU10 -> InnerProduct15 (in-place)
I0809 15:02:14.119349  5911 net.cpp:141] Setting up ReLU10
I0809 15:02:14.119357  5911 net.cpp:148] Top shape: 64 100 (6400)
I0809 15:02:14.119364  5911 net.cpp:156] Memory required for data: 696290816
I0809 15:02:14.119370  5911 layer_factory.hpp:77] Creating layer InnerProduct16
I0809 15:02:14.119382  5911 net.cpp:91] Creating Layer InnerProduct16
I0809 15:02:14.119388  5911 net.cpp:425] InnerProduct16 <- InnerProduct15
I0809 15:02:14.119401  5911 net.cpp:399] InnerProduct16 -> InnerProduct16
I0809 15:02:14.119614  5911 net.cpp:141] Setting up InnerProduct16
I0809 15:02:14.119623  5911 net.cpp:148] Top shape: 64 50 (3200)
I0809 15:02:14.119629  5911 net.cpp:156] Memory required for data: 696303616
I0809 15:02:14.119637  5911 net.cpp:484] Sharing parameters 'ip2_w' owned by layer 'InnerProduct2', param index 0
I0809 15:02:14.119645  5911 net.cpp:484] Sharing parameters 'ip2_b' owned by layer 'InnerProduct2', param index 1
I0809 15:02:14.119652  5911 layer_factory.hpp:77] Creating layer Concat3
I0809 15:02:14.119663  5911 net.cpp:91] Creating Layer Concat3
I0809 15:02:14.119669  5911 net.cpp:425] Concat3 <- InnerProduct14
I0809 15:02:14.119678  5911 net.cpp:425] Concat3 <- InnerProduct16
I0809 15:02:14.119691  5911 net.cpp:399] Concat3 -> Concat3
I0809 15:02:14.119722  5911 net.cpp:141] Setting up Concat3
I0809 15:02:14.119735  5911 net.cpp:148] Top shape: 64 100 (6400)
I0809 15:02:14.119740  5911 net.cpp:156] Memory required for data: 696329216
I0809 15:02:14.119747  5911 layer_factory.hpp:77] Creating layer InnerProduct17
I0809 15:02:14.119757  5911 net.cpp:91] Creating Layer InnerProduct17
I0809 15:02:14.119765  5911 net.cpp:425] InnerProduct17 <- Concat3
I0809 15:02:14.119779  5911 net.cpp:399] InnerProduct17 -> InnerProduct17
I0809 15:02:14.119978  5911 net.cpp:141] Setting up InnerProduct17
I0809 15:02:14.119987  5911 net.cpp:148] Top shape: 64 64 (4096)
I0809 15:02:14.119993  5911 net.cpp:156] Memory required for data: 696345600
I0809 15:02:14.120000  5911 net.cpp:484] Sharing parameters 'fc1_w' owned by layer 'InnerProduct5', param index 0
I0809 15:02:14.120009  5911 net.cpp:484] Sharing parameters 'fc1_b' owned by layer 'InnerProduct5', param index 1
I0809 15:02:14.120017  5911 layer_factory.hpp:77] Creating layer ReLU11
I0809 15:02:14.120028  5911 net.cpp:91] Creating Layer ReLU11
I0809 15:02:14.120035  5911 net.cpp:425] ReLU11 <- InnerProduct17
I0809 15:02:14.120044  5911 net.cpp:386] ReLU11 -> InnerProduct17 (in-place)
I0809 15:02:14.120055  5911 net.cpp:141] Setting up ReLU11
I0809 15:02:14.120064  5911 net.cpp:148] Top shape: 64 64 (4096)
I0809 15:02:14.120070  5911 net.cpp:156] Memory required for data: 696361984
I0809 15:02:14.120076  5911 layer_factory.hpp:77] Creating layer drop1
I0809 15:02:14.120088  5911 net.cpp:91] Creating Layer drop1
I0809 15:02:14.120095  5911 net.cpp:425] drop1 <- InnerProduct17
I0809 15:02:14.120105  5911 net.cpp:399] drop1 -> Dropout5
I0809 15:02:14.120158  5911 net.cpp:141] Setting up drop1
I0809 15:02:14.120167  5911 net.cpp:148] Top shape: 64 64 (4096)
I0809 15:02:14.120174  5911 net.cpp:156] Memory required for data: 696378368
I0809 15:02:14.120180  5911 layer_factory.hpp:77] Creating layer InnerProduct18
I0809 15:02:14.120190  5911 net.cpp:91] Creating Layer InnerProduct18
I0809 15:02:14.120198  5911 net.cpp:425] InnerProduct18 <- Dropout5
I0809 15:02:14.120210  5911 net.cpp:399] InnerProduct18 -> InnerProduct18
I0809 15:02:14.120376  5911 net.cpp:141] Setting up InnerProduct18
I0809 15:02:14.120386  5911 net.cpp:148] Top shape: 64 32 (2048)
I0809 15:02:14.120393  5911 net.cpp:156] Memory required for data: 696386560
I0809 15:02:14.120399  5911 net.cpp:484] Sharing parameters 'fc2_w' owned by layer 'InnerProduct6', param index 0
I0809 15:02:14.120409  5911 net.cpp:484] Sharing parameters 'fc2_b' owned by layer 'InnerProduct6', param index 1
I0809 15:02:14.120415  5911 layer_factory.hpp:77] Creating layer ReLU12
I0809 15:02:14.120424  5911 net.cpp:91] Creating Layer ReLU12
I0809 15:02:14.120430  5911 net.cpp:425] ReLU12 <- InnerProduct18
I0809 15:02:14.120443  5911 net.cpp:386] ReLU12 -> InnerProduct18 (in-place)
I0809 15:02:14.120455  5911 net.cpp:141] Setting up ReLU12
I0809 15:02:14.120462  5911 net.cpp:148] Top shape: 64 32 (2048)
I0809 15:02:14.120468  5911 net.cpp:156] Memory required for data: 696394752
I0809 15:02:14.120476  5911 layer_factory.hpp:77] Creating layer drop2
I0809 15:02:14.120483  5911 net.cpp:91] Creating Layer drop2
I0809 15:02:14.120491  5911 net.cpp:425] drop2 <- InnerProduct18
I0809 15:02:14.120501  5911 net.cpp:399] drop2 -> Dropout6
I0809 15:02:14.120563  5911 net.cpp:141] Setting up drop2
I0809 15:02:14.120573  5911 net.cpp:148] Top shape: 64 32 (2048)
I0809 15:02:14.120579  5911 net.cpp:156] Memory required for data: 696402944
I0809 15:02:14.120584  5911 layer_factory.hpp:77] Creating layer dt2
I0809 15:02:14.120597  5911 net.cpp:91] Creating Layer dt2
I0809 15:02:14.120604  5911 net.cpp:425] dt2 <- Dropout6
I0809 15:02:14.120616  5911 net.cpp:399] dt2 -> dt2
I0809 15:02:14.120756  5911 net.cpp:141] Setting up dt2
I0809 15:02:14.120765  5911 net.cpp:148] Top shape: 64 1 (64)
I0809 15:02:14.120772  5911 net.cpp:156] Memory required for data: 696403200
I0809 15:02:14.120779  5911 net.cpp:484] Sharing parameters 'fc3_w' owned by layer 'dt0', param index 0
I0809 15:02:14.120789  5911 net.cpp:484] Sharing parameters 'fc3_b' owned by layer 'dt0', param index 1
I0809 15:02:14.120795  5911 layer_factory.hpp:77] Creating layer Convolution19
I0809 15:02:14.120813  5911 net.cpp:91] Creating Layer Convolution19
I0809 15:02:14.120821  5911 net.cpp:425] Convolution19 <- p1_p1_0_split_3
I0809 15:02:14.120836  5911 net.cpp:399] Convolution19 -> Convolution19
I0809 15:02:14.121196  5911 net.cpp:141] Setting up Convolution19
I0809 15:02:14.121204  5911 net.cpp:148] Top shape: 64 20 60 60 (4608000)
I0809 15:02:14.121212  5911 net.cpp:156] Memory required for data: 714835200
I0809 15:02:14.121219  5911 net.cpp:484] Sharing parameters 'conv1_w' owned by layer 'Convolution1', param index 0
I0809 15:02:14.121227  5911 net.cpp:484] Sharing parameters 'conv1_b' owned by layer 'Convolution1', param index 1
I0809 15:02:14.121234  5911 layer_factory.hpp:77] Creating layer Pooling19
I0809 15:02:14.121244  5911 net.cpp:91] Creating Layer Pooling19
I0809 15:02:14.121251  5911 net.cpp:425] Pooling19 <- Convolution19
I0809 15:02:14.121269  5911 net.cpp:399] Pooling19 -> Pooling19
I0809 15:02:14.121322  5911 net.cpp:141] Setting up Pooling19
I0809 15:02:14.121330  5911 net.cpp:148] Top shape: 64 20 30 30 (1152000)
I0809 15:02:14.121337  5911 net.cpp:156] Memory required for data: 719443200
I0809 15:02:14.121343  5911 layer_factory.hpp:77] Creating layer Convolution20
I0809 15:02:14.121359  5911 net.cpp:91] Creating Layer Convolution20
I0809 15:02:14.121366  5911 net.cpp:425] Convolution20 <- Pooling19
I0809 15:02:14.121377  5911 net.cpp:399] Convolution20 -> Convolution20
I0809 15:02:14.121935  5911 net.cpp:141] Setting up Convolution20
I0809 15:02:14.121945  5911 net.cpp:148] Top shape: 64 50 26 26 (2163200)
I0809 15:02:14.121951  5911 net.cpp:156] Memory required for data: 728096000
I0809 15:02:14.121959  5911 net.cpp:484] Sharing parameters 'conv2_w' owned by layer 'Convolution2', param index 0
I0809 15:02:14.121968  5911 net.cpp:484] Sharing parameters 'conv2_b' owned by layer 'Convolution2', param index 1
I0809 15:02:14.121974  5911 layer_factory.hpp:77] Creating layer Pooling20
I0809 15:02:14.122027  5911 net.cpp:91] Creating Layer Pooling20
I0809 15:02:14.122035  5911 net.cpp:425] Pooling20 <- Convolution20
I0809 15:02:14.122045  5911 net.cpp:399] Pooling20 -> Pooling20
I0809 15:02:14.122097  5911 net.cpp:141] Setting up Pooling20
I0809 15:02:14.122107  5911 net.cpp:148] Top shape: 64 50 13 13 (540800)
I0809 15:02:14.122113  5911 net.cpp:156] Memory required for data: 730259200
I0809 15:02:14.122122  5911 layer_factory.hpp:77] Creating layer Convolution21
I0809 15:02:14.122138  5911 net.cpp:91] Creating Layer Convolution21
I0809 15:02:14.122144  5911 net.cpp:425] Convolution21 <- Pooling20
I0809 15:02:14.122159  5911 net.cpp:399] Convolution21 -> Convolution21
I0809 15:02:14.123034  5911 net.cpp:141] Setting up Convolution21
I0809 15:02:14.123046  5911 net.cpp:148] Top shape: 64 50 9 9 (259200)
I0809 15:02:14.123054  5911 net.cpp:156] Memory required for data: 731296000
I0809 15:02:14.123061  5911 net.cpp:484] Sharing parameters 'conv3_w' owned by layer 'Convolution3', param index 0
I0809 15:02:14.123070  5911 net.cpp:484] Sharing parameters 'conv3_b' owned by layer 'Convolution3', param index 1
I0809 15:02:14.123078  5911 layer_factory.hpp:77] Creating layer Pooling21
I0809 15:02:14.123111  5911 net.cpp:91] Creating Layer Pooling21
I0809 15:02:14.123117  5911 net.cpp:425] Pooling21 <- Convolution21
I0809 15:02:14.123128  5911 net.cpp:399] Pooling21 -> Pooling21
I0809 15:02:14.123186  5911 net.cpp:141] Setting up Pooling21
I0809 15:02:14.123195  5911 net.cpp:148] Top shape: 64 50 5 5 (80000)
I0809 15:02:14.123203  5911 net.cpp:156] Memory required for data: 731616000
I0809 15:02:14.123208  5911 layer_factory.hpp:77] Creating layer InnerProduct19
I0809 15:02:14.123221  5911 net.cpp:91] Creating Layer InnerProduct19
I0809 15:02:14.123229  5911 net.cpp:425] InnerProduct19 <- Pooling21
I0809 15:02:14.123239  5911 net.cpp:399] InnerProduct19 -> InnerProduct19
I0809 15:02:14.124438  5911 net.cpp:141] Setting up InnerProduct19
I0809 15:02:14.124451  5911 net.cpp:148] Top shape: 64 100 (6400)
I0809 15:02:14.124457  5911 net.cpp:156] Memory required for data: 731641600
I0809 15:02:14.124465  5911 net.cpp:484] Sharing parameters 'ip1_w' owned by layer 'InnerProduct1', param index 0
I0809 15:02:14.124474  5911 net.cpp:484] Sharing parameters 'ip1_b' owned by layer 'InnerProduct1', param index 1
I0809 15:02:14.124481  5911 layer_factory.hpp:77] Creating layer ReLU13
I0809 15:02:14.124491  5911 net.cpp:91] Creating Layer ReLU13
I0809 15:02:14.124498  5911 net.cpp:425] ReLU13 <- InnerProduct19
I0809 15:02:14.124511  5911 net.cpp:386] ReLU13 -> InnerProduct19 (in-place)
I0809 15:02:14.124521  5911 net.cpp:141] Setting up ReLU13
I0809 15:02:14.124531  5911 net.cpp:148] Top shape: 64 100 (6400)
I0809 15:02:14.124536  5911 net.cpp:156] Memory required for data: 731667200
I0809 15:02:14.124543  5911 layer_factory.hpp:77] Creating layer InnerProduct20
I0809 15:02:14.124553  5911 net.cpp:91] Creating Layer InnerProduct20
I0809 15:02:14.124560  5911 net.cpp:425] InnerProduct20 <- InnerProduct19
I0809 15:02:14.124573  5911 net.cpp:399] InnerProduct20 -> InnerProduct20
I0809 15:02:14.124761  5911 net.cpp:141] Setting up InnerProduct20
I0809 15:02:14.124770  5911 net.cpp:148] Top shape: 64 50 (3200)
I0809 15:02:14.124778  5911 net.cpp:156] Memory required for data: 731680000
I0809 15:02:14.124784  5911 net.cpp:484] Sharing parameters 'ip2_w' owned by layer 'InnerProduct2', param index 0
I0809 15:02:14.124792  5911 net.cpp:484] Sharing parameters 'ip2_b' owned by layer 'InnerProduct2', param index 1
I0809 15:02:14.124799  5911 layer_factory.hpp:77] Creating layer Convolution22
I0809 15:02:14.124811  5911 net.cpp:91] Creating Layer Convolution22
I0809 15:02:14.124819  5911 net.cpp:425] Convolution22 <- c23
I0809 15:02:14.124835  5911 net.cpp:399] Convolution22 -> Convolution22
I0809 15:02:14.125218  5911 net.cpp:141] Setting up Convolution22
I0809 15:02:14.125228  5911 net.cpp:148] Top shape: 64 20 60 60 (4608000)
I0809 15:02:14.125234  5911 net.cpp:156] Memory required for data: 750112000
I0809 15:02:14.125242  5911 net.cpp:484] Sharing parameters 'conv1_w' owned by layer 'Convolution1', param index 0
I0809 15:02:14.125250  5911 net.cpp:484] Sharing parameters 'conv1_b' owned by layer 'Convolution1', param index 1
I0809 15:02:14.125257  5911 layer_factory.hpp:77] Creating layer Pooling22
I0809 15:02:14.125268  5911 net.cpp:91] Creating Layer Pooling22
I0809 15:02:14.125277  5911 net.cpp:425] Pooling22 <- Convolution22
I0809 15:02:14.125286  5911 net.cpp:399] Pooling22 -> Pooling22
I0809 15:02:14.125341  5911 net.cpp:141] Setting up Pooling22
I0809 15:02:14.125349  5911 net.cpp:148] Top shape: 64 20 30 30 (1152000)
I0809 15:02:14.125356  5911 net.cpp:156] Memory required for data: 754720000
I0809 15:02:14.125362  5911 layer_factory.hpp:77] Creating layer Convolution23
I0809 15:02:14.125378  5911 net.cpp:91] Creating Layer Convolution23
I0809 15:02:14.125385  5911 net.cpp:425] Convolution23 <- Pooling22
I0809 15:02:14.125398  5911 net.cpp:399] Convolution23 -> Convolution23
I0809 15:02:14.125965  5911 net.cpp:141] Setting up Convolution23
I0809 15:02:14.125975  5911 net.cpp:148] Top shape: 64 50 26 26 (2163200)
I0809 15:02:14.125982  5911 net.cpp:156] Memory required for data: 763372800
I0809 15:02:14.125989  5911 net.cpp:484] Sharing parameters 'conv2_w' owned by layer 'Convolution2', param index 0
I0809 15:02:14.126016  5911 net.cpp:484] Sharing parameters 'conv2_b' owned by layer 'Convolution2', param index 1
I0809 15:02:14.126024  5911 layer_factory.hpp:77] Creating layer Pooling23
I0809 15:02:14.126032  5911 net.cpp:91] Creating Layer Pooling23
I0809 15:02:14.126039  5911 net.cpp:425] Pooling23 <- Convolution23
I0809 15:02:14.126052  5911 net.cpp:399] Pooling23 -> Pooling23
I0809 15:02:14.126106  5911 net.cpp:141] Setting up Pooling23
I0809 15:02:14.126116  5911 net.cpp:148] Top shape: 64 50 13 13 (540800)
I0809 15:02:14.126121  5911 net.cpp:156] Memory required for data: 765536000
I0809 15:02:14.126128  5911 layer_factory.hpp:77] Creating layer Convolution24
I0809 15:02:14.126148  5911 net.cpp:91] Creating Layer Convolution24
I0809 15:02:14.126157  5911 net.cpp:425] Convolution24 <- Pooling23
I0809 15:02:14.126168  5911 net.cpp:399] Convolution24 -> Convolution24
I0809 15:02:14.127041  5911 net.cpp:141] Setting up Convolution24
I0809 15:02:14.127055  5911 net.cpp:148] Top shape: 64 50 9 9 (259200)
I0809 15:02:14.127063  5911 net.cpp:156] Memory required for data: 766572800
I0809 15:02:14.127070  5911 net.cpp:484] Sharing parameters 'conv3_w' owned by layer 'Convolution3', param index 0
I0809 15:02:14.127077  5911 net.cpp:484] Sharing parameters 'conv3_b' owned by layer 'Convolution3', param index 1
I0809 15:02:14.127084  5911 layer_factory.hpp:77] Creating layer Pooling24
I0809 15:02:14.127094  5911 net.cpp:91] Creating Layer Pooling24
I0809 15:02:14.127101  5911 net.cpp:425] Pooling24 <- Convolution24
I0809 15:02:14.127111  5911 net.cpp:399] Pooling24 -> Pooling24
I0809 15:02:14.127166  5911 net.cpp:141] Setting up Pooling24
I0809 15:02:14.127176  5911 net.cpp:148] Top shape: 64 50 5 5 (80000)
I0809 15:02:14.127182  5911 net.cpp:156] Memory required for data: 766892800
I0809 15:02:14.127188  5911 layer_factory.hpp:77] Creating layer InnerProduct21
I0809 15:02:14.127199  5911 net.cpp:91] Creating Layer InnerProduct21
I0809 15:02:14.127205  5911 net.cpp:425] InnerProduct21 <- Pooling24
I0809 15:02:14.127219  5911 net.cpp:399] InnerProduct21 -> InnerProduct21
I0809 15:02:14.129189  5911 net.cpp:141] Setting up InnerProduct21
I0809 15:02:14.129206  5911 net.cpp:148] Top shape: 64 100 (6400)
I0809 15:02:14.129214  5911 net.cpp:156] Memory required for data: 766918400
I0809 15:02:14.129222  5911 net.cpp:484] Sharing parameters 'ip1_w' owned by layer 'InnerProduct1', param index 0
I0809 15:02:14.129230  5911 net.cpp:484] Sharing parameters 'ip1_b' owned by layer 'InnerProduct1', param index 1
I0809 15:02:14.129237  5911 layer_factory.hpp:77] Creating layer ReLU14
I0809 15:02:14.129248  5911 net.cpp:91] Creating Layer ReLU14
I0809 15:02:14.129256  5911 net.cpp:425] ReLU14 <- InnerProduct21
I0809 15:02:14.129267  5911 net.cpp:386] ReLU14 -> InnerProduct21 (in-place)
I0809 15:02:14.129281  5911 net.cpp:141] Setting up ReLU14
I0809 15:02:14.129288  5911 net.cpp:148] Top shape: 64 100 (6400)
I0809 15:02:14.129295  5911 net.cpp:156] Memory required for data: 766944000
I0809 15:02:14.129302  5911 layer_factory.hpp:77] Creating layer InnerProduct22
I0809 15:02:14.129317  5911 net.cpp:91] Creating Layer InnerProduct22
I0809 15:02:14.129323  5911 net.cpp:425] InnerProduct22 <- InnerProduct21
I0809 15:02:14.129336  5911 net.cpp:399] InnerProduct22 -> InnerProduct22
I0809 15:02:14.129528  5911 net.cpp:141] Setting up InnerProduct22
I0809 15:02:14.129537  5911 net.cpp:148] Top shape: 64 50 (3200)
I0809 15:02:14.129544  5911 net.cpp:156] Memory required for data: 766956800
I0809 15:02:14.129550  5911 net.cpp:484] Sharing parameters 'ip2_w' owned by layer 'InnerProduct2', param index 0
I0809 15:02:14.129559  5911 net.cpp:484] Sharing parameters 'ip2_b' owned by layer 'InnerProduct2', param index 1
I0809 15:02:14.129565  5911 layer_factory.hpp:77] Creating layer Concat4
I0809 15:02:14.129575  5911 net.cpp:91] Creating Layer Concat4
I0809 15:02:14.129582  5911 net.cpp:425] Concat4 <- InnerProduct20
I0809 15:02:14.129591  5911 net.cpp:425] Concat4 <- InnerProduct22
I0809 15:02:14.129621  5911 net.cpp:399] Concat4 -> Concat4
I0809 15:02:14.129655  5911 net.cpp:141] Setting up Concat4
I0809 15:02:14.129664  5911 net.cpp:148] Top shape: 64 100 (6400)
I0809 15:02:14.129670  5911 net.cpp:156] Memory required for data: 766982400
I0809 15:02:14.129678  5911 layer_factory.hpp:77] Creating layer InnerProduct23
I0809 15:02:14.129689  5911 net.cpp:91] Creating Layer InnerProduct23
I0809 15:02:14.129696  5911 net.cpp:425] InnerProduct23 <- Concat4
I0809 15:02:14.129708  5911 net.cpp:399] InnerProduct23 -> InnerProduct23
I0809 15:02:14.129935  5911 net.cpp:141] Setting up InnerProduct23
I0809 15:02:14.129945  5911 net.cpp:148] Top shape: 64 64 (4096)
I0809 15:02:14.129951  5911 net.cpp:156] Memory required for data: 766998784
I0809 15:02:14.129958  5911 net.cpp:484] Sharing parameters 'fc1_w' owned by layer 'InnerProduct5', param index 0
I0809 15:02:14.129966  5911 net.cpp:484] Sharing parameters 'fc1_b' owned by layer 'InnerProduct5', param index 1
I0809 15:02:14.129973  5911 layer_factory.hpp:77] Creating layer ReLU15
I0809 15:02:14.129982  5911 net.cpp:91] Creating Layer ReLU15
I0809 15:02:14.129989  5911 net.cpp:425] ReLU15 <- InnerProduct23
I0809 15:02:14.130002  5911 net.cpp:386] ReLU15 -> InnerProduct23 (in-place)
I0809 15:02:14.130012  5911 net.cpp:141] Setting up ReLU15
I0809 15:02:14.130022  5911 net.cpp:148] Top shape: 64 64 (4096)
I0809 15:02:14.130028  5911 net.cpp:156] Memory required for data: 767015168
I0809 15:02:14.130033  5911 layer_factory.hpp:77] Creating layer drop1
I0809 15:02:14.130043  5911 net.cpp:91] Creating Layer drop1
I0809 15:02:14.130050  5911 net.cpp:425] drop1 <- InnerProduct23
I0809 15:02:14.130064  5911 net.cpp:399] drop1 -> Dropout7
I0809 15:02:14.130117  5911 net.cpp:141] Setting up drop1
I0809 15:02:14.130126  5911 net.cpp:148] Top shape: 64 64 (4096)
I0809 15:02:14.130132  5911 net.cpp:156] Memory required for data: 767031552
I0809 15:02:14.130139  5911 layer_factory.hpp:77] Creating layer InnerProduct24
I0809 15:02:14.130151  5911 net.cpp:91] Creating Layer InnerProduct24
I0809 15:02:14.130158  5911 net.cpp:425] InnerProduct24 <- Dropout7
I0809 15:02:14.130172  5911 net.cpp:399] InnerProduct24 -> InnerProduct24
I0809 15:02:14.130347  5911 net.cpp:141] Setting up InnerProduct24
I0809 15:02:14.130357  5911 net.cpp:148] Top shape: 64 32 (2048)
I0809 15:02:14.130362  5911 net.cpp:156] Memory required for data: 767039744
I0809 15:02:14.130369  5911 net.cpp:484] Sharing parameters 'fc2_w' owned by layer 'InnerProduct6', param index 0
I0809 15:02:14.130378  5911 net.cpp:484] Sharing parameters 'fc2_b' owned by layer 'InnerProduct6', param index 1
I0809 15:02:14.130384  5911 layer_factory.hpp:77] Creating layer ReLU16
I0809 15:02:14.130395  5911 net.cpp:91] Creating Layer ReLU16
I0809 15:02:14.130403  5911 net.cpp:425] ReLU16 <- InnerProduct24
I0809 15:02:14.130412  5911 net.cpp:386] ReLU16 -> InnerProduct24 (in-place)
I0809 15:02:14.130422  5911 net.cpp:141] Setting up ReLU16
I0809 15:02:14.130430  5911 net.cpp:148] Top shape: 64 32 (2048)
I0809 15:02:14.130436  5911 net.cpp:156] Memory required for data: 767047936
I0809 15:02:14.130444  5911 layer_factory.hpp:77] Creating layer drop2
I0809 15:02:14.130455  5911 net.cpp:91] Creating Layer drop2
I0809 15:02:14.130461  5911 net.cpp:425] drop2 <- InnerProduct24
I0809 15:02:14.130471  5911 net.cpp:399] drop2 -> Dropout8
I0809 15:02:14.130522  5911 net.cpp:141] Setting up drop2
I0809 15:02:14.130532  5911 net.cpp:148] Top shape: 64 32 (2048)
I0809 15:02:14.130537  5911 net.cpp:156] Memory required for data: 767056128
I0809 15:02:14.130544  5911 layer_factory.hpp:77] Creating layer dt3
I0809 15:02:14.130554  5911 net.cpp:91] Creating Layer dt3
I0809 15:02:14.130561  5911 net.cpp:425] dt3 <- Dropout8
I0809 15:02:14.130576  5911 net.cpp:399] dt3 -> dt3
I0809 15:02:14.130728  5911 net.cpp:141] Setting up dt3
I0809 15:02:14.130736  5911 net.cpp:148] Top shape: 64 1 (64)
I0809 15:02:14.130743  5911 net.cpp:156] Memory required for data: 767056384
I0809 15:02:14.130750  5911 net.cpp:484] Sharing parameters 'fc3_w' owned by layer 'dt0', param index 0
I0809 15:02:14.130772  5911 net.cpp:484] Sharing parameters 'fc3_b' owned by layer 'dt0', param index 1
I0809 15:02:14.130779  5911 layer_factory.hpp:77] Creating layer Convolution25
I0809 15:02:14.130797  5911 net.cpp:91] Creating Layer Convolution25
I0809 15:02:14.130805  5911 net.cpp:425] Convolution25 <- p1_p1_0_split_4
I0809 15:02:14.130817  5911 net.cpp:399] Convolution25 -> Convolution25
I0809 15:02:14.131194  5911 net.cpp:141] Setting up Convolution25
I0809 15:02:14.131207  5911 net.cpp:148] Top shape: 64 20 60 60 (4608000)
I0809 15:02:14.131213  5911 net.cpp:156] Memory required for data: 785488384
I0809 15:02:14.131220  5911 net.cpp:484] Sharing parameters 'conv1_w' owned by layer 'Convolution1', param index 0
I0809 15:02:14.131229  5911 net.cpp:484] Sharing parameters 'conv1_b' owned by layer 'Convolution1', param index 1
I0809 15:02:14.131235  5911 layer_factory.hpp:77] Creating layer Pooling25
I0809 15:02:14.131247  5911 net.cpp:91] Creating Layer Pooling25
I0809 15:02:14.131253  5911 net.cpp:425] Pooling25 <- Convolution25
I0809 15:02:14.131264  5911 net.cpp:399] Pooling25 -> Pooling25
I0809 15:02:14.131351  5911 net.cpp:141] Setting up Pooling25
I0809 15:02:14.131362  5911 net.cpp:148] Top shape: 64 20 30 30 (1152000)
I0809 15:02:14.131368  5911 net.cpp:156] Memory required for data: 790096384
I0809 15:02:14.131376  5911 layer_factory.hpp:77] Creating layer Convolution26
I0809 15:02:14.131391  5911 net.cpp:91] Creating Layer Convolution26
I0809 15:02:14.131397  5911 net.cpp:425] Convolution26 <- Pooling25
I0809 15:02:14.131412  5911 net.cpp:399] Convolution26 -> Convolution26
I0809 15:02:14.131983  5911 net.cpp:141] Setting up Convolution26
I0809 15:02:14.131994  5911 net.cpp:148] Top shape: 64 50 26 26 (2163200)
I0809 15:02:14.131999  5911 net.cpp:156] Memory required for data: 798749184
I0809 15:02:14.132007  5911 net.cpp:484] Sharing parameters 'conv2_w' owned by layer 'Convolution2', param index 0
I0809 15:02:14.132015  5911 net.cpp:484] Sharing parameters 'conv2_b' owned by layer 'Convolution2', param index 1
I0809 15:02:14.132022  5911 layer_factory.hpp:77] Creating layer Pooling26
I0809 15:02:14.132032  5911 net.cpp:91] Creating Layer Pooling26
I0809 15:02:14.132040  5911 net.cpp:425] Pooling26 <- Convolution26
I0809 15:02:14.132053  5911 net.cpp:399] Pooling26 -> Pooling26
I0809 15:02:14.132108  5911 net.cpp:141] Setting up Pooling26
I0809 15:02:14.132119  5911 net.cpp:148] Top shape: 64 50 13 13 (540800)
I0809 15:02:14.132125  5911 net.cpp:156] Memory required for data: 800912384
I0809 15:02:14.132133  5911 layer_factory.hpp:77] Creating layer Convolution27
I0809 15:02:14.132145  5911 net.cpp:91] Creating Layer Convolution27
I0809 15:02:14.132153  5911 net.cpp:425] Convolution27 <- Pooling26
I0809 15:02:14.132166  5911 net.cpp:399] Convolution27 -> Convolution27
I0809 15:02:14.133764  5911 net.cpp:141] Setting up Convolution27
I0809 15:02:14.133780  5911 net.cpp:148] Top shape: 64 50 9 9 (259200)
I0809 15:02:14.133786  5911 net.cpp:156] Memory required for data: 801949184
I0809 15:02:14.133795  5911 net.cpp:484] Sharing parameters 'conv3_w' owned by layer 'Convolution3', param index 0
I0809 15:02:14.133803  5911 net.cpp:484] Sharing parameters 'conv3_b' owned by layer 'Convolution3', param index 1
I0809 15:02:14.133810  5911 layer_factory.hpp:77] Creating layer Pooling27
I0809 15:02:14.133823  5911 net.cpp:91] Creating Layer Pooling27
I0809 15:02:14.133831  5911 net.cpp:425] Pooling27 <- Convolution27
I0809 15:02:14.133842  5911 net.cpp:399] Pooling27 -> Pooling27
I0809 15:02:14.133903  5911 net.cpp:141] Setting up Pooling27
I0809 15:02:14.133913  5911 net.cpp:148] Top shape: 64 50 5 5 (80000)
I0809 15:02:14.133920  5911 net.cpp:156] Memory required for data: 802269184
I0809 15:02:14.133926  5911 layer_factory.hpp:77] Creating layer InnerProduct25
I0809 15:02:14.133939  5911 net.cpp:91] Creating Layer InnerProduct25
I0809 15:02:14.133945  5911 net.cpp:425] InnerProduct25 <- Pooling27
I0809 15:02:14.133960  5911 net.cpp:399] InnerProduct25 -> InnerProduct25
I0809 15:02:14.135195  5911 net.cpp:141] Setting up InnerProduct25
I0809 15:02:14.135208  5911 net.cpp:148] Top shape: 64 100 (6400)
I0809 15:02:14.135215  5911 net.cpp:156] Memory required for data: 802294784
I0809 15:02:14.135223  5911 net.cpp:484] Sharing parameters 'ip1_w' owned by layer 'InnerProduct1', param index 0
I0809 15:02:14.135232  5911 net.cpp:484] Sharing parameters 'ip1_b' owned by layer 'InnerProduct1', param index 1
I0809 15:02:14.135239  5911 layer_factory.hpp:77] Creating layer ReLU17
I0809 15:02:14.135249  5911 net.cpp:91] Creating Layer ReLU17
I0809 15:02:14.135257  5911 net.cpp:425] ReLU17 <- InnerProduct25
I0809 15:02:14.135269  5911 net.cpp:386] ReLU17 -> InnerProduct25 (in-place)
I0809 15:02:14.135291  5911 net.cpp:141] Setting up ReLU17
I0809 15:02:14.135301  5911 net.cpp:148] Top shape: 64 100 (6400)
I0809 15:02:14.135308  5911 net.cpp:156] Memory required for data: 802320384
I0809 15:02:14.135315  5911 layer_factory.hpp:77] Creating layer InnerProduct26
I0809 15:02:14.135327  5911 net.cpp:91] Creating Layer InnerProduct26
I0809 15:02:14.135334  5911 net.cpp:425] InnerProduct26 <- InnerProduct25
I0809 15:02:14.135347  5911 net.cpp:399] InnerProduct26 -> InnerProduct26
I0809 15:02:14.135534  5911 net.cpp:141] Setting up InnerProduct26
I0809 15:02:14.135542  5911 net.cpp:148] Top shape: 64 50 (3200)
I0809 15:02:14.135548  5911 net.cpp:156] Memory required for data: 802333184
I0809 15:02:14.135555  5911 net.cpp:484] Sharing parameters 'ip2_w' owned by layer 'InnerProduct2', param index 0
I0809 15:02:14.135563  5911 net.cpp:484] Sharing parameters 'ip2_b' owned by layer 'InnerProduct2', param index 1
I0809 15:02:14.135571  5911 layer_factory.hpp:77] Creating layer Convolution28
I0809 15:02:14.135586  5911 net.cpp:91] Creating Layer Convolution28
I0809 15:02:14.135593  5911 net.cpp:425] Convolution28 <- c24
I0809 15:02:14.135606  5911 net.cpp:399] Convolution28 -> Convolution28
I0809 15:02:14.135973  5911 net.cpp:141] Setting up Convolution28
I0809 15:02:14.135983  5911 net.cpp:148] Top shape: 64 20 60 60 (4608000)
I0809 15:02:14.135989  5911 net.cpp:156] Memory required for data: 820765184
I0809 15:02:14.135996  5911 net.cpp:484] Sharing parameters 'conv1_w' owned by layer 'Convolution1', param index 0
I0809 15:02:14.136004  5911 net.cpp:484] Sharing parameters 'conv1_b' owned by layer 'Convolution1', param index 1
I0809 15:02:14.136011  5911 layer_factory.hpp:77] Creating layer Pooling28
I0809 15:02:14.136023  5911 net.cpp:91] Creating Layer Pooling28
I0809 15:02:14.136029  5911 net.cpp:425] Pooling28 <- Convolution28
I0809 15:02:14.136039  5911 net.cpp:399] Pooling28 -> Pooling28
I0809 15:02:14.136096  5911 net.cpp:141] Setting up Pooling28
I0809 15:02:14.136104  5911 net.cpp:148] Top shape: 64 20 30 30 (1152000)
I0809 15:02:14.136111  5911 net.cpp:156] Memory required for data: 825373184
I0809 15:02:14.136117  5911 layer_factory.hpp:77] Creating layer Convolution29
I0809 15:02:14.136132  5911 net.cpp:91] Creating Layer Convolution29
I0809 15:02:14.136139  5911 net.cpp:425] Convolution29 <- Pooling28
I0809 15:02:14.136150  5911 net.cpp:399] Convolution29 -> Convolution29
I0809 15:02:14.136718  5911 net.cpp:141] Setting up Convolution29
I0809 15:02:14.136728  5911 net.cpp:148] Top shape: 64 50 26 26 (2163200)
I0809 15:02:14.136734  5911 net.cpp:156] Memory required for data: 834025984
I0809 15:02:14.136740  5911 net.cpp:484] Sharing parameters 'conv2_w' owned by layer 'Convolution2', param index 0
I0809 15:02:14.136749  5911 net.cpp:484] Sharing parameters 'conv2_b' owned by layer 'Convolution2', param index 1
I0809 15:02:14.136755  5911 layer_factory.hpp:77] Creating layer Pooling29
I0809 15:02:14.136767  5911 net.cpp:91] Creating Layer Pooling29
I0809 15:02:14.136775  5911 net.cpp:425] Pooling29 <- Convolution29
I0809 15:02:14.136785  5911 net.cpp:399] Pooling29 -> Pooling29
I0809 15:02:14.136838  5911 net.cpp:141] Setting up Pooling29
I0809 15:02:14.136847  5911 net.cpp:148] Top shape: 64 50 13 13 (540800)
I0809 15:02:14.136853  5911 net.cpp:156] Memory required for data: 836189184
I0809 15:02:14.136878  5911 layer_factory.hpp:77] Creating layer Convolution30
I0809 15:02:14.136893  5911 net.cpp:91] Creating Layer Convolution30
I0809 15:02:14.136900  5911 net.cpp:425] Convolution30 <- Pooling29
I0809 15:02:14.136915  5911 net.cpp:399] Convolution30 -> Convolution30
I0809 15:02:14.137794  5911 net.cpp:141] Setting up Convolution30
I0809 15:02:14.137805  5911 net.cpp:148] Top shape: 64 50 9 9 (259200)
I0809 15:02:14.137812  5911 net.cpp:156] Memory required for data: 837225984
I0809 15:02:14.137820  5911 net.cpp:484] Sharing parameters 'conv3_w' owned by layer 'Convolution3', param index 0
I0809 15:02:14.137827  5911 net.cpp:484] Sharing parameters 'conv3_b' owned by layer 'Convolution3', param index 1
I0809 15:02:14.137835  5911 layer_factory.hpp:77] Creating layer Pooling30
I0809 15:02:14.137845  5911 net.cpp:91] Creating Layer Pooling30
I0809 15:02:14.137853  5911 net.cpp:425] Pooling30 <- Convolution30
I0809 15:02:14.137867  5911 net.cpp:399] Pooling30 -> Pooling30
I0809 15:02:14.137919  5911 net.cpp:141] Setting up Pooling30
I0809 15:02:14.137928  5911 net.cpp:148] Top shape: 64 50 5 5 (80000)
I0809 15:02:14.137934  5911 net.cpp:156] Memory required for data: 837545984
I0809 15:02:14.137940  5911 layer_factory.hpp:77] Creating layer InnerProduct27
I0809 15:02:14.137954  5911 net.cpp:91] Creating Layer InnerProduct27
I0809 15:02:14.137960  5911 net.cpp:425] InnerProduct27 <- Pooling30
I0809 15:02:14.137974  5911 net.cpp:399] InnerProduct27 -> InnerProduct27
I0809 15:02:14.139904  5911 net.cpp:141] Setting up InnerProduct27
I0809 15:02:14.139925  5911 net.cpp:148] Top shape: 64 100 (6400)
I0809 15:02:14.139932  5911 net.cpp:156] Memory required for data: 837571584
I0809 15:02:14.139941  5911 net.cpp:484] Sharing parameters 'ip1_w' owned by layer 'InnerProduct1', param index 0
I0809 15:02:14.139950  5911 net.cpp:484] Sharing parameters 'ip1_b' owned by layer 'InnerProduct1', param index 1
I0809 15:02:14.139957  5911 layer_factory.hpp:77] Creating layer ReLU18
I0809 15:02:14.139971  5911 net.cpp:91] Creating Layer ReLU18
I0809 15:02:14.139979  5911 net.cpp:425] ReLU18 <- InnerProduct27
I0809 15:02:14.139989  5911 net.cpp:386] ReLU18 -> InnerProduct27 (in-place)
I0809 15:02:14.140002  5911 net.cpp:141] Setting up ReLU18
I0809 15:02:14.140010  5911 net.cpp:148] Top shape: 64 100 (6400)
I0809 15:02:14.140017  5911 net.cpp:156] Memory required for data: 837597184
I0809 15:02:14.140023  5911 layer_factory.hpp:77] Creating layer InnerProduct28
I0809 15:02:14.140036  5911 net.cpp:91] Creating Layer InnerProduct28
I0809 15:02:14.140044  5911 net.cpp:425] InnerProduct28 <- InnerProduct27
I0809 15:02:14.140054  5911 net.cpp:399] InnerProduct28 -> InnerProduct28
I0809 15:02:14.140250  5911 net.cpp:141] Setting up InnerProduct28
I0809 15:02:14.140259  5911 net.cpp:148] Top shape: 64 50 (3200)
I0809 15:02:14.140265  5911 net.cpp:156] Memory required for data: 837609984
I0809 15:02:14.140272  5911 net.cpp:484] Sharing parameters 'ip2_w' owned by layer 'InnerProduct2', param index 0
I0809 15:02:14.140280  5911 net.cpp:484] Sharing parameters 'ip2_b' owned by layer 'InnerProduct2', param index 1
I0809 15:02:14.140287  5911 layer_factory.hpp:77] Creating layer Concat5
I0809 15:02:14.140297  5911 net.cpp:91] Creating Layer Concat5
I0809 15:02:14.140305  5911 net.cpp:425] Concat5 <- InnerProduct26
I0809 15:02:14.140313  5911 net.cpp:425] Concat5 <- InnerProduct28
I0809 15:02:14.140326  5911 net.cpp:399] Concat5 -> Concat5
I0809 15:02:14.140362  5911 net.cpp:141] Setting up Concat5
I0809 15:02:14.140372  5911 net.cpp:148] Top shape: 64 100 (6400)
I0809 15:02:14.140378  5911 net.cpp:156] Memory required for data: 837635584
I0809 15:02:14.140385  5911 layer_factory.hpp:77] Creating layer InnerProduct29
I0809 15:02:14.140395  5911 net.cpp:91] Creating Layer InnerProduct29
I0809 15:02:14.140403  5911 net.cpp:425] InnerProduct29 <- Concat5
I0809 15:02:14.140417  5911 net.cpp:399] InnerProduct29 -> InnerProduct29
I0809 15:02:14.140619  5911 net.cpp:141] Setting up InnerProduct29
I0809 15:02:14.140628  5911 net.cpp:148] Top shape: 64 64 (4096)
I0809 15:02:14.140652  5911 net.cpp:156] Memory required for data: 837651968
I0809 15:02:14.140660  5911 net.cpp:484] Sharing parameters 'fc1_w' owned by layer 'InnerProduct5', param index 0
I0809 15:02:14.140667  5911 net.cpp:484] Sharing parameters 'fc1_b' owned by layer 'InnerProduct5', param index 1
I0809 15:02:14.140674  5911 layer_factory.hpp:77] Creating layer ReLU19
I0809 15:02:14.140682  5911 net.cpp:91] Creating Layer ReLU19
I0809 15:02:14.140689  5911 net.cpp:425] ReLU19 <- InnerProduct29
I0809 15:02:14.140702  5911 net.cpp:386] ReLU19 -> InnerProduct29 (in-place)
I0809 15:02:14.140712  5911 net.cpp:141] Setting up ReLU19
I0809 15:02:14.140719  5911 net.cpp:148] Top shape: 64 64 (4096)
I0809 15:02:14.140727  5911 net.cpp:156] Memory required for data: 837668352
I0809 15:02:14.140733  5911 layer_factory.hpp:77] Creating layer drop1
I0809 15:02:14.140743  5911 net.cpp:91] Creating Layer drop1
I0809 15:02:14.140749  5911 net.cpp:425] drop1 <- InnerProduct29
I0809 15:02:14.140759  5911 net.cpp:399] drop1 -> Dropout9
I0809 15:02:14.140816  5911 net.cpp:141] Setting up drop1
I0809 15:02:14.140826  5911 net.cpp:148] Top shape: 64 64 (4096)
I0809 15:02:14.140832  5911 net.cpp:156] Memory required for data: 837684736
I0809 15:02:14.140838  5911 layer_factory.hpp:77] Creating layer InnerProduct30
I0809 15:02:14.140852  5911 net.cpp:91] Creating Layer InnerProduct30
I0809 15:02:14.140859  5911 net.cpp:425] InnerProduct30 <- Dropout9
I0809 15:02:14.140869  5911 net.cpp:399] InnerProduct30 -> InnerProduct30
I0809 15:02:14.141034  5911 net.cpp:141] Setting up InnerProduct30
I0809 15:02:14.141042  5911 net.cpp:148] Top shape: 64 32 (2048)
I0809 15:02:14.141048  5911 net.cpp:156] Memory required for data: 837692928
I0809 15:02:14.141055  5911 net.cpp:484] Sharing parameters 'fc2_w' owned by layer 'InnerProduct6', param index 0
I0809 15:02:14.141063  5911 net.cpp:484] Sharing parameters 'fc2_b' owned by layer 'InnerProduct6', param index 1
I0809 15:02:14.141070  5911 layer_factory.hpp:77] Creating layer ReLU20
I0809 15:02:14.141082  5911 net.cpp:91] Creating Layer ReLU20
I0809 15:02:14.141088  5911 net.cpp:425] ReLU20 <- InnerProduct30
I0809 15:02:14.141096  5911 net.cpp:386] ReLU20 -> InnerProduct30 (in-place)
I0809 15:02:14.141106  5911 net.cpp:141] Setting up ReLU20
I0809 15:02:14.141114  5911 net.cpp:148] Top shape: 64 32 (2048)
I0809 15:02:14.141121  5911 net.cpp:156] Memory required for data: 837701120
I0809 15:02:14.141129  5911 layer_factory.hpp:77] Creating layer drop2
I0809 15:02:14.141137  5911 net.cpp:91] Creating Layer drop2
I0809 15:02:14.141144  5911 net.cpp:425] drop2 <- InnerProduct30
I0809 15:02:14.141156  5911 net.cpp:399] drop2 -> Dropout10
I0809 15:02:14.141206  5911 net.cpp:141] Setting up drop2
I0809 15:02:14.141214  5911 net.cpp:148] Top shape: 64 32 (2048)
I0809 15:02:14.141221  5911 net.cpp:156] Memory required for data: 837709312
I0809 15:02:14.141227  5911 layer_factory.hpp:77] Creating layer dt4
I0809 15:02:14.141238  5911 net.cpp:91] Creating Layer dt4
I0809 15:02:14.141245  5911 net.cpp:425] dt4 <- Dropout10
I0809 15:02:14.141258  5911 net.cpp:399] dt4 -> dt4
I0809 15:02:14.141405  5911 net.cpp:141] Setting up dt4
I0809 15:02:14.141414  5911 net.cpp:148] Top shape: 64 1 (64)
I0809 15:02:14.141422  5911 net.cpp:156] Memory required for data: 837709568
I0809 15:02:14.141472  5911 net.cpp:484] Sharing parameters 'fc3_w' owned by layer 'dt0', param index 0
I0809 15:02:14.141482  5911 net.cpp:484] Sharing parameters 'fc3_b' owned by layer 'dt0', param index 1
I0809 15:02:14.141489  5911 layer_factory.hpp:77] Creating layer Convolution31
I0809 15:02:14.141505  5911 net.cpp:91] Creating Layer Convolution31
I0809 15:02:14.141513  5911 net.cpp:425] Convolution31 <- p1_p1_0_split_5
I0809 15:02:14.141525  5911 net.cpp:399] Convolution31 -> Convolution31
I0809 15:02:14.141901  5911 net.cpp:141] Setting up Convolution31
I0809 15:02:14.141911  5911 net.cpp:148] Top shape: 64 20 60 60 (4608000)
I0809 15:02:14.141918  5911 net.cpp:156] Memory required for data: 856141568
I0809 15:02:14.141926  5911 net.cpp:484] Sharing parameters 'conv1_w' owned by layer 'Convolution1', param index 0
I0809 15:02:14.141947  5911 net.cpp:484] Sharing parameters 'conv1_b' owned by layer 'Convolution1', param index 1
I0809 15:02:14.141954  5911 layer_factory.hpp:77] Creating layer Pooling31
I0809 15:02:14.141965  5911 net.cpp:91] Creating Layer Pooling31
I0809 15:02:14.141973  5911 net.cpp:425] Pooling31 <- Convolution31
I0809 15:02:14.141985  5911 net.cpp:399] Pooling31 -> Pooling31
I0809 15:02:14.142040  5911 net.cpp:141] Setting up Pooling31
I0809 15:02:14.142050  5911 net.cpp:148] Top shape: 64 20 30 30 (1152000)
I0809 15:02:14.142055  5911 net.cpp:156] Memory required for data: 860749568
I0809 15:02:14.142062  5911 layer_factory.hpp:77] Creating layer Convolution32
I0809 15:02:14.142077  5911 net.cpp:91] Creating Layer Convolution32
I0809 15:02:14.142084  5911 net.cpp:425] Convolution32 <- Pooling31
I0809 15:02:14.142099  5911 net.cpp:399] Convolution32 -> Convolution32
I0809 15:02:14.142678  5911 net.cpp:141] Setting up Convolution32
I0809 15:02:14.142688  5911 net.cpp:148] Top shape: 64 50 26 26 (2163200)
I0809 15:02:14.142695  5911 net.cpp:156] Memory required for data: 869402368
I0809 15:02:14.142702  5911 net.cpp:484] Sharing parameters 'conv2_w' owned by layer 'Convolution2', param index 0
I0809 15:02:14.142710  5911 net.cpp:484] Sharing parameters 'conv2_b' owned by layer 'Convolution2', param index 1
I0809 15:02:14.142717  5911 layer_factory.hpp:77] Creating layer Pooling32
I0809 15:02:14.142726  5911 net.cpp:91] Creating Layer Pooling32
I0809 15:02:14.142734  5911 net.cpp:425] Pooling32 <- Convolution32
I0809 15:02:14.142746  5911 net.cpp:399] Pooling32 -> Pooling32
I0809 15:02:14.142801  5911 net.cpp:141] Setting up Pooling32
I0809 15:02:14.142809  5911 net.cpp:148] Top shape: 64 50 13 13 (540800)
I0809 15:02:14.142815  5911 net.cpp:156] Memory required for data: 871565568
I0809 15:02:14.142822  5911 layer_factory.hpp:77] Creating layer Convolution33
I0809 15:02:14.142838  5911 net.cpp:91] Creating Layer Convolution33
I0809 15:02:14.142843  5911 net.cpp:425] Convolution33 <- Pooling32
I0809 15:02:14.142854  5911 net.cpp:399] Convolution33 -> Convolution33
I0809 15:02:14.143790  5911 net.cpp:141] Setting up Convolution33
I0809 15:02:14.143805  5911 net.cpp:148] Top shape: 64 50 9 9 (259200)
I0809 15:02:14.143812  5911 net.cpp:156] Memory required for data: 872602368
I0809 15:02:14.143821  5911 net.cpp:484] Sharing parameters 'conv3_w' owned by layer 'Convolution3', param index 0
I0809 15:02:14.143828  5911 net.cpp:484] Sharing parameters 'conv3_b' owned by layer 'Convolution3', param index 1
I0809 15:02:14.143836  5911 layer_factory.hpp:77] Creating layer Pooling33
I0809 15:02:14.143846  5911 net.cpp:91] Creating Layer Pooling33
I0809 15:02:14.143852  5911 net.cpp:425] Pooling33 <- Convolution33
I0809 15:02:14.143862  5911 net.cpp:399] Pooling33 -> Pooling33
I0809 15:02:14.143921  5911 net.cpp:141] Setting up Pooling33
I0809 15:02:14.143929  5911 net.cpp:148] Top shape: 64 50 5 5 (80000)
I0809 15:02:14.143935  5911 net.cpp:156] Memory required for data: 872922368
I0809 15:02:14.143942  5911 layer_factory.hpp:77] Creating layer InnerProduct31
I0809 15:02:14.143955  5911 net.cpp:91] Creating Layer InnerProduct31
I0809 15:02:14.143962  5911 net.cpp:425] InnerProduct31 <- Pooling33
I0809 15:02:14.143975  5911 net.cpp:399] InnerProduct31 -> InnerProduct31
I0809 15:02:14.145176  5911 net.cpp:141] Setting up InnerProduct31
I0809 15:02:14.145191  5911 net.cpp:148] Top shape: 64 100 (6400)
I0809 15:02:14.145198  5911 net.cpp:156] Memory required for data: 872947968
I0809 15:02:14.145206  5911 net.cpp:484] Sharing parameters 'ip1_w' owned by layer 'InnerProduct1', param index 0
I0809 15:02:14.145221  5911 net.cpp:484] Sharing parameters 'ip1_b' owned by layer 'InnerProduct1', param index 1
I0809 15:02:14.145228  5911 layer_factory.hpp:77] Creating layer ReLU21
I0809 15:02:14.145238  5911 net.cpp:91] Creating Layer ReLU21
I0809 15:02:14.145246  5911 net.cpp:425] ReLU21 <- InnerProduct31
I0809 15:02:14.145256  5911 net.cpp:386] ReLU21 -> InnerProduct31 (in-place)
I0809 15:02:14.145283  5911 net.cpp:141] Setting up ReLU21
I0809 15:02:14.145292  5911 net.cpp:148] Top shape: 64 100 (6400)
I0809 15:02:14.145299  5911 net.cpp:156] Memory required for data: 872973568
I0809 15:02:14.145305  5911 layer_factory.hpp:77] Creating layer InnerProduct32
I0809 15:02:14.145316  5911 net.cpp:91] Creating Layer InnerProduct32
I0809 15:02:14.145324  5911 net.cpp:425] InnerProduct32 <- InnerProduct31
I0809 15:02:14.145337  5911 net.cpp:399] InnerProduct32 -> InnerProduct32
I0809 15:02:14.145527  5911 net.cpp:141] Setting up InnerProduct32
I0809 15:02:14.145537  5911 net.cpp:148] Top shape: 64 50 (3200)
I0809 15:02:14.145544  5911 net.cpp:156] Memory required for data: 872986368
I0809 15:02:14.145550  5911 net.cpp:484] Sharing parameters 'ip2_w' owned by layer 'InnerProduct2', param index 0
I0809 15:02:14.145560  5911 net.cpp:484] Sharing parameters 'ip2_b' owned by layer 'InnerProduct2', param index 1
I0809 15:02:14.145566  5911 layer_factory.hpp:77] Creating layer Convolution34
I0809 15:02:14.145579  5911 net.cpp:91] Creating Layer Convolution34
I0809 15:02:14.145586  5911 net.cpp:425] Convolution34 <- c25
I0809 15:02:14.145598  5911 net.cpp:399] Convolution34 -> Convolution34
I0809 15:02:14.145992  5911 net.cpp:141] Setting up Convolution34
I0809 15:02:14.146003  5911 net.cpp:148] Top shape: 64 20 60 60 (4608000)
I0809 15:02:14.146009  5911 net.cpp:156] Memory required for data: 891418368
I0809 15:02:14.146016  5911 net.cpp:484] Sharing parameters 'conv1_w' owned by layer 'Convolution1', param index 0
I0809 15:02:14.146023  5911 net.cpp:484] Sharing parameters 'conv1_b' owned by layer 'Convolution1', param index 1
I0809 15:02:14.146030  5911 layer_factory.hpp:77] Creating layer Pooling34
I0809 15:02:14.146039  5911 net.cpp:91] Creating Layer Pooling34
I0809 15:02:14.146046  5911 net.cpp:425] Pooling34 <- Convolution34
I0809 15:02:14.146056  5911 net.cpp:399] Pooling34 -> Pooling34
I0809 15:02:14.146111  5911 net.cpp:141] Setting up Pooling34
I0809 15:02:14.146121  5911 net.cpp:148] Top shape: 64 20 30 30 (1152000)
I0809 15:02:14.146127  5911 net.cpp:156] Memory required for data: 896026368
I0809 15:02:14.146134  5911 layer_factory.hpp:77] Creating layer Convolution35
I0809 15:02:14.146149  5911 net.cpp:91] Creating Layer Convolution35
I0809 15:02:14.146158  5911 net.cpp:425] Convolution35 <- Pooling34
I0809 15:02:14.146170  5911 net.cpp:399] Convolution35 -> Convolution35
I0809 15:02:14.153316  5911 net.cpp:141] Setting up Convolution35
I0809 15:02:14.153333  5911 net.cpp:148] Top shape: 64 50 26 26 (2163200)
I0809 15:02:14.153340  5911 net.cpp:156] Memory required for data: 904679168
I0809 15:02:14.153348  5911 net.cpp:484] Sharing parameters 'conv2_w' owned by layer 'Convolution2', param index 0
I0809 15:02:14.153357  5911 net.cpp:484] Sharing parameters 'conv2_b' owned by layer 'Convolution2', param index 1
I0809 15:02:14.153363  5911 layer_factory.hpp:77] Creating layer Pooling35
I0809 15:02:14.153374  5911 net.cpp:91] Creating Layer Pooling35
I0809 15:02:14.153383  5911 net.cpp:425] Pooling35 <- Convolution35
I0809 15:02:14.153396  5911 net.cpp:399] Pooling35 -> Pooling35
I0809 15:02:14.153453  5911 net.cpp:141] Setting up Pooling35
I0809 15:02:14.153462  5911 net.cpp:148] Top shape: 64 50 13 13 (540800)
I0809 15:02:14.153468  5911 net.cpp:156] Memory required for data: 906842368
I0809 15:02:14.153475  5911 layer_factory.hpp:77] Creating layer Convolution36
I0809 15:02:14.153493  5911 net.cpp:91] Creating Layer Convolution36
I0809 15:02:14.153501  5911 net.cpp:425] Convolution36 <- Pooling35
I0809 15:02:14.153512  5911 net.cpp:399] Convolution36 -> Convolution36
I0809 15:02:14.154386  5911 net.cpp:141] Setting up Convolution36
I0809 15:02:14.154400  5911 net.cpp:148] Top shape: 64 50 9 9 (259200)
I0809 15:02:14.154407  5911 net.cpp:156] Memory required for data: 907879168
I0809 15:02:14.154414  5911 net.cpp:484] Sharing parameters 'conv3_w' owned by layer 'Convolution3', param index 0
I0809 15:02:14.154422  5911 net.cpp:484] Sharing parameters 'conv3_b' owned by layer 'Convolution3', param index 1
I0809 15:02:14.154450  5911 layer_factory.hpp:77] Creating layer Pooling36
I0809 15:02:14.154460  5911 net.cpp:91] Creating Layer Pooling36
I0809 15:02:14.154469  5911 net.cpp:425] Pooling36 <- Convolution36
I0809 15:02:14.154479  5911 net.cpp:399] Pooling36 -> Pooling36
I0809 15:02:14.154538  5911 net.cpp:141] Setting up Pooling36
I0809 15:02:14.154547  5911 net.cpp:148] Top shape: 64 50 5 5 (80000)
I0809 15:02:14.154553  5911 net.cpp:156] Memory required for data: 908199168
I0809 15:02:14.154561  5911 layer_factory.hpp:77] Creating layer InnerProduct33
I0809 15:02:14.154570  5911 net.cpp:91] Creating Layer InnerProduct33
I0809 15:02:14.154577  5911 net.cpp:425] InnerProduct33 <- Pooling36
I0809 15:02:14.154592  5911 net.cpp:399] InnerProduct33 -> InnerProduct33
I0809 15:02:14.156505  5911 net.cpp:141] Setting up InnerProduct33
I0809 15:02:14.156523  5911 net.cpp:148] Top shape: 64 100 (6400)
I0809 15:02:14.156530  5911 net.cpp:156] Memory required for data: 908224768
I0809 15:02:14.156539  5911 net.cpp:484] Sharing parameters 'ip1_w' owned by layer 'InnerProduct1', param index 0
I0809 15:02:14.156548  5911 net.cpp:484] Sharing parameters 'ip1_b' owned by layer 'InnerProduct1', param index 1
I0809 15:02:14.156555  5911 layer_factory.hpp:77] Creating layer ReLU22
I0809 15:02:14.156566  5911 net.cpp:91] Creating Layer ReLU22
I0809 15:02:14.156574  5911 net.cpp:425] ReLU22 <- InnerProduct33
I0809 15:02:14.156584  5911 net.cpp:386] ReLU22 -> InnerProduct33 (in-place)
I0809 15:02:14.156597  5911 net.cpp:141] Setting up ReLU22
I0809 15:02:14.156605  5911 net.cpp:148] Top shape: 64 100 (6400)
I0809 15:02:14.156611  5911 net.cpp:156] Memory required for data: 908250368
I0809 15:02:14.156618  5911 layer_factory.hpp:77] Creating layer InnerProduct34
I0809 15:02:14.156632  5911 net.cpp:91] Creating Layer InnerProduct34
I0809 15:02:14.156641  5911 net.cpp:425] InnerProduct34 <- InnerProduct33
I0809 15:02:14.156653  5911 net.cpp:399] InnerProduct34 -> InnerProduct34
I0809 15:02:14.156855  5911 net.cpp:141] Setting up InnerProduct34
I0809 15:02:14.156865  5911 net.cpp:148] Top shape: 64 50 (3200)
I0809 15:02:14.156872  5911 net.cpp:156] Memory required for data: 908263168
I0809 15:02:14.156878  5911 net.cpp:484] Sharing parameters 'ip2_w' owned by layer 'InnerProduct2', param index 0
I0809 15:02:14.156886  5911 net.cpp:484] Sharing parameters 'ip2_b' owned by layer 'InnerProduct2', param index 1
I0809 15:02:14.156893  5911 layer_factory.hpp:77] Creating layer Concat6
I0809 15:02:14.156906  5911 net.cpp:91] Creating Layer Concat6
I0809 15:02:14.156914  5911 net.cpp:425] Concat6 <- InnerProduct32
I0809 15:02:14.156924  5911 net.cpp:425] Concat6 <- InnerProduct34
I0809 15:02:14.156936  5911 net.cpp:399] Concat6 -> Concat6
I0809 15:02:14.156975  5911 net.cpp:141] Setting up Concat6
I0809 15:02:14.156983  5911 net.cpp:148] Top shape: 64 100 (6400)
I0809 15:02:14.156991  5911 net.cpp:156] Memory required for data: 908288768
I0809 15:02:14.156996  5911 layer_factory.hpp:77] Creating layer InnerProduct35
I0809 15:02:14.157009  5911 net.cpp:91] Creating Layer InnerProduct35
I0809 15:02:14.157016  5911 net.cpp:425] InnerProduct35 <- Concat6
I0809 15:02:14.157027  5911 net.cpp:399] InnerProduct35 -> InnerProduct35
I0809 15:02:14.157238  5911 net.cpp:141] Setting up InnerProduct35
I0809 15:02:14.157246  5911 net.cpp:148] Top shape: 64 64 (4096)
I0809 15:02:14.157253  5911 net.cpp:156] Memory required for data: 908305152
I0809 15:02:14.157260  5911 net.cpp:484] Sharing parameters 'fc1_w' owned by layer 'InnerProduct5', param index 0
I0809 15:02:14.157269  5911 net.cpp:484] Sharing parameters 'fc1_b' owned by layer 'InnerProduct5', param index 1
I0809 15:02:14.157275  5911 layer_factory.hpp:77] Creating layer ReLU23
I0809 15:02:14.157284  5911 net.cpp:91] Creating Layer ReLU23
I0809 15:02:14.157291  5911 net.cpp:425] ReLU23 <- InnerProduct35
I0809 15:02:14.157304  5911 net.cpp:386] ReLU23 -> InnerProduct35 (in-place)
I0809 15:02:14.157313  5911 net.cpp:141] Setting up ReLU23
I0809 15:02:14.157321  5911 net.cpp:148] Top shape: 64 64 (4096)
I0809 15:02:14.157347  5911 net.cpp:156] Memory required for data: 908321536
I0809 15:02:14.157354  5911 layer_factory.hpp:77] Creating layer drop1
I0809 15:02:14.157366  5911 net.cpp:91] Creating Layer drop1
I0809 15:02:14.157373  5911 net.cpp:425] drop1 <- InnerProduct35
I0809 15:02:14.157389  5911 net.cpp:399] drop1 -> Dropout11
I0809 15:02:14.157447  5911 net.cpp:141] Setting up drop1
I0809 15:02:14.157456  5911 net.cpp:148] Top shape: 64 64 (4096)
I0809 15:02:14.157465  5911 net.cpp:156] Memory required for data: 908337920
I0809 15:02:14.157471  5911 layer_factory.hpp:77] Creating layer InnerProduct36
I0809 15:02:14.157482  5911 net.cpp:91] Creating Layer InnerProduct36
I0809 15:02:14.157490  5911 net.cpp:425] InnerProduct36 <- Dropout11
I0809 15:02:14.157503  5911 net.cpp:399] InnerProduct36 -> InnerProduct36
I0809 15:02:14.157680  5911 net.cpp:141] Setting up InnerProduct36
I0809 15:02:14.157690  5911 net.cpp:148] Top shape: 64 32 (2048)
I0809 15:02:14.157696  5911 net.cpp:156] Memory required for data: 908346112
I0809 15:02:14.157703  5911 net.cpp:484] Sharing parameters 'fc2_w' owned by layer 'InnerProduct6', param index 0
I0809 15:02:14.157711  5911 net.cpp:484] Sharing parameters 'fc2_b' owned by layer 'InnerProduct6', param index 1
I0809 15:02:14.157718  5911 layer_factory.hpp:77] Creating layer ReLU24
I0809 15:02:14.157729  5911 net.cpp:91] Creating Layer ReLU24
I0809 15:02:14.157737  5911 net.cpp:425] ReLU24 <- InnerProduct36
I0809 15:02:14.157745  5911 net.cpp:386] ReLU24 -> InnerProduct36 (in-place)
I0809 15:02:14.157755  5911 net.cpp:141] Setting up ReLU24
I0809 15:02:14.157764  5911 net.cpp:148] Top shape: 64 32 (2048)
I0809 15:02:14.157770  5911 net.cpp:156] Memory required for data: 908354304
I0809 15:02:14.157778  5911 layer_factory.hpp:77] Creating layer drop2
I0809 15:02:14.157788  5911 net.cpp:91] Creating Layer drop2
I0809 15:02:14.157796  5911 net.cpp:425] drop2 <- InnerProduct36
I0809 15:02:14.157805  5911 net.cpp:399] drop2 -> Dropout12
I0809 15:02:14.157861  5911 net.cpp:141] Setting up drop2
I0809 15:02:14.157871  5911 net.cpp:148] Top shape: 64 32 (2048)
I0809 15:02:14.157878  5911 net.cpp:156] Memory required for data: 908362496
I0809 15:02:14.157886  5911 layer_factory.hpp:77] Creating layer dt5
I0809 15:02:14.157896  5911 net.cpp:91] Creating Layer dt5
I0809 15:02:14.157902  5911 net.cpp:425] dt5 <- Dropout12
I0809 15:02:14.157917  5911 net.cpp:399] dt5 -> dt5
I0809 15:02:14.158064  5911 net.cpp:141] Setting up dt5
I0809 15:02:14.158073  5911 net.cpp:148] Top shape: 64 1 (64)
I0809 15:02:14.158080  5911 net.cpp:156] Memory required for data: 908362752
I0809 15:02:14.158087  5911 net.cpp:484] Sharing parameters 'fc3_w' owned by layer 'dt0', param index 0
I0809 15:02:14.158095  5911 net.cpp:484] Sharing parameters 'fc3_b' owned by layer 'dt0', param index 1
I0809 15:02:14.158102  5911 layer_factory.hpp:77] Creating layer Convolution37
I0809 15:02:14.158120  5911 net.cpp:91] Creating Layer Convolution37
…
I0809 15:02:14.555296  5911 net.cpp:148] Top shape: 64 50 26 26 (2163200)
I0809 15:02:14.555306  5911 net.cpp:156] Memory required for data: 1646587392
I0809 15:02:14.555315  5911 net.cpp:484] Sharing parameters 'conv2_w' owned by layer 'Convolution2', param index 0
I0809 15:02:14.555325  5911 net.cpp:484] Sharing parameters 'conv2_b' owned by layer 'Convolution2', param index 1
I0809 15:02:14.555333  5911 layer_factory.hpp:77] Creating layer Pooling98
I0809 15:02:14.555346  5911 net.cpp:91] Creating Layer Pooling98
I0809 15:02:14.555354  5911 net.cpp:425] Pooling98 <- Convolution98
I0809 15:02:14.555367  5911 net.cpp:399] Pooling98 -> Pooling98
I0809 15:02:14.555443  5911 net.cpp:141] Setting up Pooling98
I0809 15:02:14.555454  5911 net.cpp:148] Top shape: 64 50 13 13 (540800)
I0809 15:02:14.555462  5911 net.cpp:156] Memory required for data: 1648750592
I0809 15:02:14.555470  5911 layer_factory.hpp:77] Creating layer Convolution99
I0809 15:02:14.555490  5911 net.cpp:91] Creating Layer Convolution99
I0809 15:02:14.555498  5911 net.cpp:425] Convolution99 <- Pooling98
I0809 15:02:14.555516  5911 net.cpp:399] Convolution99 -> Convolution99
I0809 15:02:14.556793  5911 net.cpp:141] Setting up Convolution99
I0809 15:02:14.556813  5911 net.cpp:148] Top shape: 64 50 9 9 (259200)
I0809 15:02:14.556821  5911 net.cpp:156] Memory required for data: 1649787392
I0809 15:02:14.556833  5911 net.cpp:484] Sharing parameters 'conv3_w' owned by layer 'Convolution3', param index 0
I0809 15:02:14.556845  5911 net.cpp:484] Sharing parameters 'conv3_b' owned by layer 'Convolution3', param index 1
I0809 15:02:14.556856  5911 layer_factory.hpp:77] Creating layer Pooling99
I0809 15:02:14.556870  5911 net.cpp:91] Creating Layer Pooling99
I0809 15:02:14.556880  5911 net.cpp:425] Pooling99 <- Convolution99
I0809 15:02:14.556897  5911 net.cpp:399] Pooling99 -> Pooling99
I0809 15:02:14.556973  5911 net.cpp:141] Setting up Pooling99
I0809 15:02:14.556988  5911 net.cpp:148] Top shape: 64 50 5 5 (80000)
I0809 15:02:14.556996  5911 net.cpp:156] Memory required for data: 1650107392
I0809 15:02:14.557023  5911 layer_factory.hpp:77] Creating layer InnerProduct97
I0809 15:02:14.557036  5911 net.cpp:91] Creating Layer InnerProduct97
I0809 15:02:14.557045  5911 net.cpp:425] InnerProduct97 <- Pooling99
I0809 15:02:14.557063  5911 net.cpp:399] InnerProduct97 -> InnerProduct97
I0809 15:02:14.558750  5911 net.cpp:141] Setting up InnerProduct97
I0809 15:02:14.558773  5911 net.cpp:148] Top shape: 64 100 (6400)
I0809 15:02:14.558784  5911 net.cpp:156] Memory required for data: 1650132992
I0809 15:02:14.558799  5911 net.cpp:484] Sharing parameters 'ip1_w' owned by layer 'InnerProduct1', param index 0
I0809 15:02:14.558814  5911 net.cpp:484] Sharing parameters 'ip1_b' owned by layer 'InnerProduct1', param index 1
I0809 15:02:14.558825  5911 layer_factory.hpp:77] Creating layer ReLU65
I0809 15:02:14.558845  5911 net.cpp:91] Creating Layer ReLU65
I0809 15:02:14.558857  5911 net.cpp:425] ReLU65 <- InnerProduct97
I0809 15:02:14.558873  5911 net.cpp:386] ReLU65 -> InnerProduct97 (in-place)
I0809 15:02:14.558892  5911 net.cpp:141] Setting up ReLU65
I0809 15:02:14.558907  5911 net.cpp:148] Top shape: 64 100 (6400)
I0809 15:02:14.558917  5911 net.cpp:156] Memory required for data: 1650158592
I0809 15:02:14.558928  5911 layer_factory.hpp:77] Creating layer InnerProduct98
I0809 15:02:14.558948  5911 net.cpp:91] Creating Layer InnerProduct98
I0809 15:02:14.558960  5911 net.cpp:425] InnerProduct98 <- InnerProduct97
I0809 15:02:14.558979  5911 net.cpp:399] InnerProduct98 -> InnerProduct98
I0809 15:02:14.559304  5911 net.cpp:141] Setting up InnerProduct98
I0809 15:02:14.559321  5911 net.cpp:148] Top shape: 64 50 (3200)
I0809 15:02:14.559332  5911 net.cpp:156] Memory required for data: 1650171392
I0809 15:02:14.559345  5911 net.cpp:484] Sharing parameters 'ip2_w' owned by layer 'InnerProduct2', param index 0
I0809 15:02:14.559358  5911 net.cpp:484] Sharing parameters 'ip2_b' owned by layer 'InnerProduct2', param index 1
I0809 15:02:14.559370  5911 layer_factory.hpp:77] Creating layer Convolution100
I0809 15:02:14.559396  5911 net.cpp:91] Creating Layer Convolution100
I0809 15:02:14.559408  5911 net.cpp:425] Convolution100 <- c17
I0809 15:02:14.559427  5911 net.cpp:399] Convolution100 -> Convolution100
I0809 15:02:14.560034  5911 net.cpp:141] Setting up Convolution100
I0809 15:02:14.560048  5911 net.cpp:148] Top shape: 64 20 60 60 (4608000)
I0809 15:02:14.560057  5911 net.cpp:156] Memory required for data: 1668603392
I0809 15:02:14.560066  5911 net.cpp:484] Sharing parameters 'conv1_w' owned by layer 'Convolution1', param index 0
I0809 15:02:14.560077  5911 net.cpp:484] Sharing parameters 'conv1_b' owned by layer 'Convolution1', param index 1
I0809 15:02:14.560086  5911 layer_factory.hpp:77] Creating layer Pooling100
I0809 15:02:14.560103  5911 net.cpp:91] Creating Layer Pooling100
I0809 15:02:14.560118  5911 net.cpp:425] Pooling100 <- Convolution100
I0809 15:02:14.560135  5911 net.cpp:399] Pooling100 -> Pooling100
I0809 15:02:14.560219  5911 net.cpp:141] Setting up Pooling100
I0809 15:02:14.560233  5911 net.cpp:148] Top shape: 64 20 30 30 (1152000)
I0809 15:02:14.560242  5911 net.cpp:156] Memory required for data: 1673211392
I0809 15:02:14.560250  5911 layer_factory.hpp:77] Creating layer Convolution101
I0809 15:02:14.560271  5911 net.cpp:91] Creating Layer Convolution101
I0809 15:02:14.560279  5911 net.cpp:425] Convolution101 <- Pooling100
I0809 15:02:14.560294  5911 net.cpp:399] Convolution101 -> Convolution101
I0809 15:02:14.561889  5911 net.cpp:141] Setting up Convolution101
I0809 15:02:14.561908  5911 net.cpp:148] Top shape: 64 50 26 26 (2163200)
I0809 15:02:14.561918  5911 net.cpp:156] Memory required for data: 1681864192
I0809 15:02:14.561928  5911 net.cpp:484] Sharing parameters 'conv2_w' owned by layer 'Convolution2', param index 0
I0809 15:02:14.561939  5911 net.cpp:484] Sharing parameters 'conv2_b' owned by layer 'Convolution2', param index 1
I0809 15:02:14.561949  5911 layer_factory.hpp:77] Creating layer Pooling101
I0809 15:02:14.561964  5911 net.cpp:91] Creating Layer Pooling101
I0809 15:02:14.561975  5911 net.cpp:425] Pooling101 <- Convolution101
I0809 15:02:14.562010  5911 net.cpp:399] Pooling101 -> Pooling101
I0809 15:02:14.562105  5911 net.cpp:141] Setting up Pooling101
I0809 15:02:14.562119  5911 net.cpp:148] Top shape: 64 50 13 13 (540800)
I0809 15:02:14.562127  5911 net.cpp:156] Memory required for data: 1684027392
I0809 15:02:14.562135  5911 layer_factory.hpp:77] Creating layer Convolution102
I0809 15:02:14.562156  5911 net.cpp:91] Creating Layer Convolution102
I0809 15:02:14.562166  5911 net.cpp:425] Convolution102 <- Pooling101
I0809 15:02:14.562181  5911 net.cpp:399] Convolution102 -> Convolution102
I0809 15:02:14.563412  5911 net.cpp:141] Setting up Convolution102
I0809 15:02:14.563421  5911 net.cpp:148] Top shape: 64 50 9 9 (259200)
I0809 15:02:14.563426  5911 net.cpp:156] Memory required for data: 1685064192
I0809 15:02:14.563433  5911 net.cpp:484] Sharing parameters 'conv3_w' owned by layer 'Convolution3', param index 0
I0809 15:02:14.563441  5911 net.cpp:484] Sharing parameters 'conv3_b' owned by layer 'Convolution3', param index 1
I0809 15:02:14.563446  5911 layer_factory.hpp:77] Creating layer Pooling102
I0809 15:02:14.563457  5911 net.cpp:91] Creating Layer Pooling102
I0809 15:02:14.563463  5911 net.cpp:425] Pooling102 <- Convolution102
I0809 15:02:14.563474  5911 net.cpp:399] Pooling102 -> Pooling102
I0809 15:02:14.563524  5911 net.cpp:141] Setting up Pooling102
I0809 15:02:14.563532  5911 net.cpp:148] Top shape: 64 50 5 5 (80000)
I0809 15:02:14.563537  5911 net.cpp:156] Memory required for data: 1685384192
I0809 15:02:14.563547  5911 layer_factory.hpp:77] Creating layer InnerProduct99
I0809 15:02:14.563560  5911 net.cpp:91] Creating Layer InnerProduct99
I0809 15:02:14.563566  5911 net.cpp:425] InnerProduct99 <- Pooling102
I0809 15:02:14.563576  5911 net.cpp:399] InnerProduct99 -> InnerProduct99
I0809 15:02:14.565230  5911 net.cpp:141] Setting up InnerProduct99
I0809 15:02:14.565243  5911 net.cpp:148] Top shape: 64 100 (6400)
I0809 15:02:14.565248  5911 net.cpp:156] Memory required for data: 1685409792
I0809 15:02:14.565255  5911 net.cpp:484] Sharing parameters 'ip1_w' owned by layer 'InnerProduct1', param index 0
I0809 15:02:14.565263  5911 net.cpp:484] Sharing parameters 'ip1_b' owned by layer 'InnerProduct1', param index 1
I0809 15:02:14.565268  5911 layer_factory.hpp:77] Creating layer ReLU66
I0809 15:02:14.565276  5911 net.cpp:91] Creating Layer ReLU66
I0809 15:02:14.565284  5911 net.cpp:425] ReLU66 <- InnerProduct99
I0809 15:02:14.565294  5911 net.cpp:386] ReLU66 -> InnerProduct99 (in-place)
I0809 15:02:14.565304  5911 net.cpp:141] Setting up ReLU66
I0809 15:02:14.565311  5911 net.cpp:148] Top shape: 64 100 (6400)
I0809 15:02:14.565317  5911 net.cpp:156] Memory required for data: 1685435392
I0809 15:02:14.565322  5911 layer_factory.hpp:77] Creating layer InnerProduct100
I0809 15:02:14.565331  5911 net.cpp:91] Creating Layer InnerProduct100
I0809 15:02:14.565337  5911 net.cpp:425] InnerProduct100 <- InnerProduct99
I0809 15:02:14.565349  5911 net.cpp:399] InnerProduct100 -> InnerProduct100
I0809 15:02:14.565534  5911 net.cpp:141] Setting up InnerProduct100
I0809 15:02:14.565542  5911 net.cpp:148] Top shape: 64 50 (3200)
I0809 15:02:14.565547  5911 net.cpp:156] Memory required for data: 1685448192
I0809 15:02:14.565554  5911 net.cpp:484] Sharing parameters 'ip2_w' owned by layer 'InnerProduct2', param index 0
I0809 15:02:14.565562  5911 net.cpp:484] Sharing parameters 'ip2_b' owned by layer 'InnerProduct2', param index 1
I0809 15:02:14.565567  5911 layer_factory.hpp:77] Creating layer Concat17
I0809 15:02:14.565575  5911 net.cpp:91] Creating Layer Concat17
I0809 15:02:14.565582  5911 net.cpp:425] Concat17 <- InnerProduct98
I0809 15:02:14.565588  5911 net.cpp:425] Concat17 <- InnerProduct100
I0809 15:02:14.565599  5911 net.cpp:399] Concat17 -> Concat17
I0809 15:02:14.565629  5911 net.cpp:141] Setting up Concat17
I0809 15:02:14.565636  5911 net.cpp:148] Top shape: 64 100 (6400)
I0809 15:02:14.565641  5911 net.cpp:156] Memory required for data: 1685473792
I0809 15:02:14.565647  5911 layer_factory.hpp:77] Creating layer InnerProduct101
I0809 15:02:14.565673  5911 net.cpp:91] Creating Layer InnerProduct101
I0809 15:02:14.565680  5911 net.cpp:425] InnerProduct101 <- Concat17
I0809 15:02:14.565691  5911 net.cpp:399] InnerProduct101 -> InnerProduct101
I0809 15:02:14.565877  5911 net.cpp:141] Setting up InnerProduct101
I0809 15:02:14.565886  5911 net.cpp:148] Top shape: 64 64 (4096)
I0809 15:02:14.565891  5911 net.cpp:156] Memory required for data: 1685490176
I0809 15:02:14.565896  5911 net.cpp:484] Sharing parameters 'fc1_w' owned by layer 'InnerProduct5', param index 0
I0809 15:02:14.565903  5911 net.cpp:484] Sharing parameters 'fc1_b' owned by layer 'InnerProduct5', param index 1
I0809 15:02:14.565909  5911 layer_factory.hpp:77] Creating layer ReLU67
I0809 15:02:14.565917  5911 net.cpp:91] Creating Layer ReLU67
I0809 15:02:14.565922  5911 net.cpp:425] ReLU67 <- InnerProduct101
I0809 15:02:14.565930  5911 net.cpp:386] ReLU67 -> InnerProduct101 (in-place)
I0809 15:02:14.565938  5911 net.cpp:141] Setting up ReLU67
I0809 15:02:14.565945  5911 net.cpp:148] Top shape: 64 64 (4096)
I0809 15:02:14.565951  5911 net.cpp:156] Memory required for data: 1685506560
I0809 15:02:14.565956  5911 layer_factory.hpp:77] Creating layer drop1
I0809 15:02:14.565964  5911 net.cpp:91] Creating Layer drop1
I0809 15:02:14.565970  5911 net.cpp:425] drop1 <- InnerProduct101
I0809 15:02:14.565984  5911 net.cpp:399] drop1 -> Dropout33
I0809 15:02:14.566031  5911 net.cpp:141] Setting up drop1
I0809 15:02:14.566038  5911 net.cpp:148] Top shape: 64 64 (4096)
I0809 15:02:14.566045  5911 net.cpp:156] Memory required for data: 1685522944
I0809 15:02:14.566050  5911 layer_factory.hpp:77] Creating layer InnerProduct102
I0809 15:02:14.566061  5911 net.cpp:91] Creating Layer InnerProduct102
I0809 15:02:14.566066  5911 net.cpp:425] InnerProduct102 <- Dropout33
I0809 15:02:14.566076  5911 net.cpp:399] InnerProduct102 -> InnerProduct102
I0809 15:02:14.566236  5911 net.cpp:141] Setting up InnerProduct102
I0809 15:02:14.566242  5911 net.cpp:148] Top shape: 64 32 (2048)
I0809 15:02:14.566248  5911 net.cpp:156] Memory required for data: 1685531136
I0809 15:02:14.566254  5911 net.cpp:484] Sharing parameters 'fc2_w' owned by layer 'InnerProduct6', param index 0
I0809 15:02:14.566262  5911 net.cpp:484] Sharing parameters 'fc2_b' owned by layer 'InnerProduct6', param index 1
I0809 15:02:14.566267  5911 layer_factory.hpp:77] Creating layer ReLU68
I0809 15:02:14.566274  5911 net.cpp:91] Creating Layer ReLU68
I0809 15:02:14.566279  5911 net.cpp:425] ReLU68 <- InnerProduct102
I0809 15:02:14.566287  5911 net.cpp:386] ReLU68 -> InnerProduct102 (in-place)
I0809 15:02:14.566295  5911 net.cpp:141] Setting up ReLU68
I0809 15:02:14.566303  5911 net.cpp:148] Top shape: 64 32 (2048)
I0809 15:02:14.566308  5911 net.cpp:156] Memory required for data: 1685539328
I0809 15:02:14.566313  5911 layer_factory.hpp:77] Creating layer drop2
I0809 15:02:14.566323  5911 net.cpp:91] Creating Layer drop2
I0809 15:02:14.566329  5911 net.cpp:425] drop2 <- InnerProduct102
I0809 15:02:14.589157  5911 net.cpp:399] drop2 -> Dropout34
I0809 15:02:14.589252  5911 net.cpp:141] Setting up drop2
I0809 15:02:14.589264  5911 net.cpp:148] Top shape: 64 32 (2048)
I0809 15:02:14.589272  5911 net.cpp:156] Memory required for data: 1685547520
I0809 15:02:14.589280  5911 layer_factory.hpp:77] Creating layer dt16
I0809 15:02:14.589294  5911 net.cpp:91] Creating Layer dt16
I0809 15:02:14.589303  5911 net.cpp:425] dt16 <- Dropout34
I0809 15:02:14.589316  5911 net.cpp:399] dt16 -> dt16
I0809 15:02:14.589486  5911 net.cpp:141] Setting up dt16
I0809 15:02:14.589494  5911 net.cpp:148] Top shape: 64 1 (64)
I0809 15:02:14.589500  5911 net.cpp:156] Memory required for data: 1685547776
I0809 15:02:14.589507  5911 net.cpp:484] Sharing parameters 'fc3_w' owned by layer 'dt0', param index 0
I0809 15:02:14.589515  5911 net.cpp:484] Sharing parameters 'fc3_b' owned by layer 'dt0', param index 1
I0809 15:02:14.589521  5911 layer_factory.hpp:77] Creating layer Convolution103
I0809 15:02:14.589540  5911 net.cpp:91] Creating Layer Convolution103
I0809 15:02:14.589560  5911 net.cpp:425] Convolution103 <- p2_p2_0_split_8
I0809 15:02:14.589572  5911 net.cpp:399] Convolution103 -> Convolution103
I0809 15:02:14.589934  5911 net.cpp:141] Setting up Convolution103
I0809 15:02:14.589943  5911 net.cpp:148] Top shape: 64 20 60 60 (4608000)
I0809 15:02:14.589949  5911 net.cpp:156] Memory required for data: 1703979776
I0809 15:02:14.589956  5911 net.cpp:484] Sharing parameters 'conv1_w' owned by layer 'Convolution1', param index 0
I0809 15:02:14.589964  5911 net.cpp:484] Sharing parameters 'conv1_b' owned by layer 'Convolution1', param index 1
I0809 15:02:14.589970  5911 layer_factory.hpp:77] Creating layer Pooling103
I0809 15:02:14.589979  5911 net.cpp:91] Creating Layer Pooling103
I0809 15:02:14.589985  5911 net.cpp:425] Pooling103 <- Convolution103
I0809 15:02:14.589996  5911 net.cpp:399] Pooling103 -> Pooling103
I0809 15:02:14.590054  5911 net.cpp:141] Setting up Pooling103
I0809 15:02:14.590123  5911 net.cpp:148] Top shape: 64 20 30 30 (1152000)
I0809 15:02:14.590131  5911 net.cpp:156] Memory required for data: 1708587776
I0809 15:02:14.590138  5911 layer_factory.hpp:77] Creating layer Convolution104
I0809 15:02:14.590153  5911 net.cpp:91] Creating Layer Convolution104
I0809 15:02:14.590160  5911 net.cpp:425] Convolution104 <- Pooling103
I0809 15:02:14.590173  5911 net.cpp:399] Convolution104 -> Convolution104
I0809 15:02:14.590730  5911 net.cpp:141] Setting up Convolution104
I0809 15:02:14.590739  5911 net.cpp:148] Top shape: 64 50 26 26 (2163200)
I0809 15:02:14.590745  5911 net.cpp:156] Memory required for data: 1717240576
I0809 15:02:14.590751  5911 net.cpp:484] Sharing parameters 'conv2_w' owned by layer 'Convolution2', param index 0
I0809 15:02:14.590759  5911 net.cpp:484] Sharing parameters 'conv2_b' owned by layer 'Convolution2', param index 1
I0809 15:02:14.590764  5911 layer_factory.hpp:77] Creating layer Pooling104
I0809 15:02:14.590772  5911 net.cpp:91] Creating Layer Pooling104
I0809 15:02:14.590780  5911 net.cpp:425] Pooling104 <- Convolution104
I0809 15:02:14.590790  5911 net.cpp:399] Pooling104 -> Pooling104
I0809 15:02:14.590839  5911 net.cpp:141] Setting up Pooling104
I0809 15:02:14.590847  5911 net.cpp:148] Top shape: 64 50 13 13 (540800)
I0809 15:02:14.590852  5911 net.cpp:156] Memory required for data: 1719403776
I0809 15:02:14.590858  5911 layer_factory.hpp:77] Creating layer Convolution105
I0809 15:02:14.590873  5911 net.cpp:91] Creating Layer Convolution105
I0809 15:02:14.590879  5911 net.cpp:425] Convolution105 <- Pooling104
I0809 15:02:14.590889  5911 net.cpp:399] Convolution105 -> Convolution105
I0809 15:02:14.591727  5911 net.cpp:141] Setting up Convolution105
I0809 15:02:14.591737  5911 net.cpp:148] Top shape: 64 50 9 9 (259200)
I0809 15:02:14.591742  5911 net.cpp:156] Memory required for data: 1720440576
I0809 15:02:14.591748  5911 net.cpp:484] Sharing parameters 'conv3_w' owned by layer 'Convolution3', param index 0
I0809 15:02:14.591755  5911 net.cpp:484] Sharing parameters 'conv3_b' owned by layer 'Convolution3', param index 1
I0809 15:02:14.591763  5911 layer_factory.hpp:77] Creating layer Pooling105
I0809 15:02:14.591770  5911 net.cpp:91] Creating Layer Pooling105
I0809 15:02:14.591776  5911 net.cpp:425] Pooling105 <- Convolution105
I0809 15:02:14.591785  5911 net.cpp:399] Pooling105 -> Pooling105
I0809 15:02:14.591838  5911 net.cpp:141] Setting up Pooling105
I0809 15:02:14.591846  5911 net.cpp:148] Top shape: 64 50 5 5 (80000)
I0809 15:02:14.591852  5911 net.cpp:156] Memory required for data: 1720760576
I0809 15:02:14.591857  5911 layer_factory.hpp:77] Creating layer InnerProduct103
I0809 15:02:14.591871  5911 net.cpp:91] Creating Layer InnerProduct103
I0809 15:02:14.591876  5911 net.cpp:425] InnerProduct103 <- Pooling105
I0809 15:02:14.591898  5911 net.cpp:399] InnerProduct103 -> InnerProduct103
I0809 15:02:14.593062  5911 net.cpp:141] Setting up InnerProduct103
I0809 15:02:14.593075  5911 net.cpp:148] Top shape: 64 100 (6400)
I0809 15:02:14.593081  5911 net.cpp:156] Memory required for data: 1720786176
I0809 15:02:14.593088  5911 net.cpp:484] Sharing parameters 'ip1_w' owned by layer 'InnerProduct1', param index 0
I0809 15:02:14.593111  5911 net.cpp:484] Sharing parameters 'ip1_b' owned by layer 'InnerProduct1', param index 1
I0809 15:02:14.593116  5911 layer_factory.hpp:77] Creating layer ReLU69
I0809 15:02:14.593125  5911 net.cpp:91] Creating Layer ReLU69
I0809 15:02:14.593132  5911 net.cpp:425] ReLU69 <- InnerProduct103
I0809 15:02:14.593139  5911 net.cpp:386] ReLU69 -> InnerProduct103 (in-place)
I0809 15:02:14.593149  5911 net.cpp:141] Setting up ReLU69
I0809 15:02:14.593156  5911 net.cpp:148] Top shape: 64 100 (6400)
I0809 15:02:14.593163  5911 net.cpp:156] Memory required for data: 1720811776
I0809 15:02:14.593168  5911 layer_factory.hpp:77] Creating layer InnerProduct104
I0809 15:02:14.593178  5911 net.cpp:91] Creating Layer InnerProduct104
I0809 15:02:14.593183  5911 net.cpp:425] InnerProduct104 <- InnerProduct103
I0809 15:02:14.593195  5911 net.cpp:399] InnerProduct104 -> InnerProduct104
I0809 15:02:14.593370  5911 net.cpp:141] Setting up InnerProduct104
I0809 15:02:14.593379  5911 net.cpp:148] Top shape: 64 50 (3200)
I0809 15:02:14.593384  5911 net.cpp:156] Memory required for data: 1720824576
I0809 15:02:14.593390  5911 net.cpp:484] Sharing parameters 'ip2_w' owned by layer 'InnerProduct2', param index 0
I0809 15:02:14.593397  5911 net.cpp:484] Sharing parameters 'ip2_b' owned by layer 'InnerProduct2', param index 1
I0809 15:02:14.593402  5911 layer_factory.hpp:77] Creating layer Convolution106
I0809 15:02:14.593415  5911 net.cpp:91] Creating Layer Convolution106
I0809 15:02:14.593420  5911 net.cpp:425] Convolution106 <- c18
I0809 15:02:14.593430  5911 net.cpp:399] Convolution106 -> Convolution106
I0809 15:02:14.593794  5911 net.cpp:141] Setting up Convolution106
I0809 15:02:14.593802  5911 net.cpp:148] Top shape: 64 20 60 60 (4608000)
I0809 15:02:14.593808  5911 net.cpp:156] Memory required for data: 1739256576
I0809 15:02:14.593814  5911 net.cpp:484] Sharing parameters 'conv1_w' owned by layer 'Convolution1', param index 0
I0809 15:02:14.593822  5911 net.cpp:484] Sharing parameters 'conv1_b' owned by layer 'Convolution1', param index 1
I0809 15:02:14.593827  5911 layer_factory.hpp:77] Creating layer Pooling106
I0809 15:02:14.593835  5911 net.cpp:91] Creating Layer Pooling106
I0809 15:02:14.593842  5911 net.cpp:425] Pooling106 <- Convolution106
I0809 15:02:14.593850  5911 net.cpp:399] Pooling106 -> Pooling106
I0809 15:02:14.593901  5911 net.cpp:141] Setting up Pooling106
I0809 15:02:14.593909  5911 net.cpp:148] Top shape: 64 20 30 30 (1152000)
I0809 15:02:14.593914  5911 net.cpp:156] Memory required for data: 1743864576
I0809 15:02:14.593920  5911 layer_factory.hpp:77] Creating layer Convolution107
I0809 15:02:14.593933  5911 net.cpp:91] Creating Layer Convolution107
I0809 15:02:14.593940  5911 net.cpp:425] Convolution107 <- Pooling106
I0809 15:02:14.593950  5911 net.cpp:399] Convolution107 -> Convolution107
I0809 15:02:14.594486  5911 net.cpp:141] Setting up Convolution107
I0809 15:02:14.617964  5911 net.cpp:148] Top shape: 64 50 26 26 (2163200)
I0809 15:02:14.617976  5911 net.cpp:156] Memory required for data: 1752517376
I0809 15:02:14.617986  5911 net.cpp:484] Sharing parameters 'conv2_w' owned by layer 'Convolution2', param index 0
I0809 15:02:14.617996  5911 net.cpp:484] Sharing parameters 'conv2_b' owned by layer 'Convolution2', param index 1
I0809 15:02:14.618005  5911 layer_factory.hpp:77] Creating layer Pooling107
I0809 15:02:14.618021  5911 net.cpp:91] Creating Layer Pooling107
I0809 15:02:14.618031  5911 net.cpp:425] Pooling107 <- Convolution107
I0809 15:02:14.618044  5911 net.cpp:399] Pooling107 -> Pooling107
I0809 15:02:14.618130  5911 net.cpp:141] Setting up Pooling107
I0809 15:02:14.618140  5911 net.cpp:148] Top shape: 64 50 13 13 (540800)
I0809 15:02:14.618147  5911 net.cpp:156] Memory required for data: 1754680576
I0809 15:02:14.618155  5911 layer_factory.hpp:77] Creating layer Convolution108
I0809 15:02:14.618175  5911 net.cpp:91] Creating Layer Convolution108
I0809 15:02:14.618183  5911 net.cpp:425] Convolution108 <- Pooling107
I0809 15:02:14.618212  5911 net.cpp:399] Convolution108 -> Convolution108
I0809 15:02:14.620468  5911 net.cpp:141] Setting up Convolution108
I0809 15:02:14.620504  5911 net.cpp:148] Top shape: 64 50 9 9 (259200)
I0809 15:02:14.620517  5911 net.cpp:156] Memory required for data: 1755717376
I0809 15:02:14.620534  5911 net.cpp:484] Sharing parameters 'conv3_w' owned by layer 'Convolution3', param index 0
I0809 15:02:14.620551  5911 net.cpp:484] Sharing parameters 'conv3_b' owned by layer 'Convolution3', param index 1
I0809 15:02:14.620564  5911 layer_factory.hpp:77] Creating layer Pooling108
I0809 15:02:14.620584  5911 net.cpp:91] Creating Layer Pooling108
I0809 15:02:14.620600  5911 net.cpp:425] Pooling108 <- Convolution108
I0809 15:02:14.620621  5911 net.cpp:399] Pooling108 -> Pooling108
I0809 15:02:14.620738  5911 net.cpp:141] Setting up Pooling108
I0809 15:02:14.620755  5911 net.cpp:148] Top shape: 64 50 5 5 (80000)
I0809 15:02:14.620767  5911 net.cpp:156] Memory required for data: 1756037376
I0809 15:02:14.620779  5911 layer_factory.hpp:77] Creating layer InnerProduct105
I0809 15:02:14.620800  5911 net.cpp:91] Creating Layer InnerProduct105
I0809 15:02:14.620812  5911 net.cpp:425] InnerProduct105 <- Pooling108
I0809 15:02:14.620838  5911 net.cpp:399] InnerProduct105 -> InnerProduct105
I0809 15:02:14.623878  5911 net.cpp:141] Setting up InnerProduct105
I0809 15:02:14.623893  5911 net.cpp:148] Top shape: 64 100 (6400)
I0809 15:02:14.623898  5911 net.cpp:156] Memory required for data: 1756062976
I0809 15:02:14.623905  5911 net.cpp:484] Sharing parameters 'ip1_w' owned by layer 'InnerProduct1', param index 0
I0809 15:02:14.623914  5911 net.cpp:484] Sharing parameters 'ip1_b' owned by layer 'InnerProduct1', param index 1
I0809 15:02:14.623919  5911 layer_factory.hpp:77] Creating layer ReLU70
I0809 15:02:14.623929  5911 net.cpp:91] Creating Layer ReLU70
I0809 15:02:14.623935  5911 net.cpp:425] ReLU70 <- InnerProduct105
I0809 15:02:14.623944  5911 net.cpp:386] ReLU70 -> InnerProduct105 (in-place)
I0809 15:02:14.623953  5911 net.cpp:141] Setting up ReLU70
I0809 15:02:14.623960  5911 net.cpp:148] Top shape: 64 100 (6400)
I0809 15:02:14.623966  5911 net.cpp:156] Memory required for data: 1756088576
I0809 15:02:14.623971  5911 layer_factory.hpp:77] Creating layer InnerProduct106
I0809 15:02:14.623985  5911 net.cpp:91] Creating Layer InnerProduct106
I0809 15:02:14.623991  5911 net.cpp:425] InnerProduct106 <- InnerProduct105
I0809 15:02:14.624001  5911 net.cpp:399] InnerProduct106 -> InnerProduct106
I0809 15:02:14.624183  5911 net.cpp:141] Setting up InnerProduct106
I0809 15:02:14.624191  5911 net.cpp:148] Top shape: 64 50 (3200)
I0809 15:02:14.624197  5911 net.cpp:156] Memory required for data: 1756101376
I0809 15:02:14.624203  5911 net.cpp:484] Sharing parameters 'ip2_w' owned by layer 'InnerProduct2', param index 0
I0809 15:02:14.624210  5911 net.cpp:484] Sharing parameters 'ip2_b' owned by layer 'InnerProduct2', param index 1
I0809 15:02:14.624215  5911 layer_factory.hpp:77] Creating layer Concat18
I0809 15:02:14.624225  5911 net.cpp:91] Creating Layer Concat18
I0809 15:02:14.624230  5911 net.cpp:425] Concat18 <- InnerProduct104
I0809 15:02:14.624238  5911 net.cpp:425] Concat18 <- InnerProduct106
I0809 15:02:14.624248  5911 net.cpp:399] Concat18 -> Concat18
I0809 15:02:14.624279  5911 net.cpp:141] Setting up Concat18
I0809 15:02:14.624285  5911 net.cpp:148] Top shape: 64 100 (6400)
I0809 15:02:14.624291  5911 net.cpp:156] Memory required for data: 1756126976
I0809 15:02:14.624296  5911 layer_factory.hpp:77] Creating layer InnerProduct107
I0809 15:02:14.624308  5911 net.cpp:91] Creating Layer InnerProduct107
I0809 15:02:14.624315  5911 net.cpp:425] InnerProduct107 <- Concat18
I0809 15:02:14.624323  5911 net.cpp:399] InnerProduct107 -> InnerProduct107
I0809 15:02:14.624507  5911 net.cpp:141] Setting up InnerProduct107
I0809 15:02:14.624516  5911 net.cpp:148] Top shape: 64 64 (4096)
I0809 15:02:14.624521  5911 net.cpp:156] Memory required for data: 1756143360
I0809 15:02:14.624526  5911 net.cpp:484] Sharing parameters 'fc1_w' owned by layer 'InnerProduct5', param index 0
I0809 15:02:14.624548  5911 net.cpp:484] Sharing parameters 'fc1_b' owned by layer 'InnerProduct5', param index 1
I0809 15:02:14.624554  5911 layer_factory.hpp:77] Creating layer ReLU71
I0809 15:02:14.624562  5911 net.cpp:91] Creating Layer ReLU71
I0809 15:02:14.624568  5911 net.cpp:425] ReLU71 <- InnerProduct107
I0809 15:02:14.624578  5911 net.cpp:386] ReLU71 -> InnerProduct107 (in-place)
I0809 15:02:14.624588  5911 net.cpp:141] Setting up ReLU71
I0809 15:02:14.624594  5911 net.cpp:148] Top shape: 64 64 (4096)
I0809 15:02:14.624599  5911 net.cpp:156] Memory required for data: 1756159744
I0809 15:02:14.624605  5911 layer_factory.hpp:77] Creating layer drop1
I0809 15:02:14.624614  5911 net.cpp:91] Creating Layer drop1
I0809 15:02:14.624619  5911 net.cpp:425] drop1 <- InnerProduct107
I0809 15:02:14.624630  5911 net.cpp:399] drop1 -> Dropout35
I0809 15:02:14.624677  5911 net.cpp:141] Setting up drop1
I0809 15:02:14.624686  5911 net.cpp:148] Top shape: 64 64 (4096)
I0809 15:02:14.624691  5911 net.cpp:156] Memory required for data: 1756176128
I0809 15:02:14.624696  5911 layer_factory.hpp:77] Creating layer InnerProduct108
I0809 15:02:14.624706  5911 net.cpp:91] Creating Layer InnerProduct108
I0809 15:02:14.624712  5911 net.cpp:425] InnerProduct108 <- Dropout35
I0809 15:02:14.624724  5911 net.cpp:399] InnerProduct108 -> InnerProduct108
I0809 15:02:14.624886  5911 net.cpp:141] Setting up InnerProduct108
I0809 15:02:14.624893  5911 net.cpp:148] Top shape: 64 32 (2048)
I0809 15:02:14.624898  5911 net.cpp:156] Memory required for data: 1756184320
I0809 15:02:14.624905  5911 net.cpp:484] Sharing parameters 'fc2_w' owned by layer 'InnerProduct6', param index 0
I0809 15:02:14.624912  5911 net.cpp:484] Sharing parameters 'fc2_b' owned by layer 'InnerProduct6', param index 1
I0809 15:02:14.624917  5911 layer_factory.hpp:77] Creating layer ReLU72
I0809 15:02:14.625058  5911 net.cpp:91] Creating Layer ReLU72
I0809 15:02:14.625064  5911 net.cpp:425] ReLU72 <- InnerProduct108
I0809 15:02:14.625072  5911 net.cpp:386] ReLU72 -> InnerProduct108 (in-place)
I0809 15:02:14.625082  5911 net.cpp:141] Setting up ReLU72
I0809 15:02:14.625088  5911 net.cpp:148] Top shape: 64 32 (2048)
I0809 15:02:14.625094  5911 net.cpp:156] Memory required for data: 1756192512
I0809 15:02:14.625100  5911 layer_factory.hpp:77] Creating layer drop2
I0809 15:02:14.625108  5911 net.cpp:91] Creating Layer drop2
I0809 15:02:14.625113  5911 net.cpp:425] drop2 <- InnerProduct108
I0809 15:02:14.625123  5911 net.cpp:399] drop2 -> Dropout36
I0809 15:02:14.625170  5911 net.cpp:141] Setting up drop2
I0809 15:02:14.625177  5911 net.cpp:148] Top shape: 64 32 (2048)
I0809 15:02:14.625183  5911 net.cpp:156] Memory required for data: 1756200704
I0809 15:02:14.625188  5911 layer_factory.hpp:77] Creating layer dt17
I0809 15:02:14.625197  5911 net.cpp:91] Creating Layer dt17
I0809 15:02:14.625203  5911 net.cpp:425] dt17 <- Dropout36
I0809 15:02:14.625216  5911 net.cpp:399] dt17 -> dt17
I0809 15:02:14.625355  5911 net.cpp:141] Setting up dt17
I0809 15:02:14.625361  5911 net.cpp:148] Top shape: 64 1 (64)
I0809 15:02:14.625367  5911 net.cpp:156] Memory required for data: 1756200960
I0809 15:02:14.625373  5911 net.cpp:484] Sharing parameters 'fc3_w' owned by layer 'dt0', param index 0
I0809 15:02:14.625380  5911 net.cpp:484] Sharing parameters 'fc3_b' owned by layer 'dt0', param index 1
I0809 15:02:14.625386  5911 layer_factory.hpp:77] Creating layer Convolution109
I0809 15:02:14.625399  5911 net.cpp:91] Creating Layer Convolution109
I0809 15:02:14.625406  5911 net.cpp:425] Convolution109 <- p2_p2_0_split_9
I0809 15:02:14.625416  5911 net.cpp:399] Convolution109 -> Convolution109
I0809 15:02:14.625767  5911 net.cpp:141] Setting up Convolution109
I0809 15:02:14.625776  5911 net.cpp:148] Top shape: 64 20 60 60 (4608000)
I0809 15:02:14.625780  5911 net.cpp:156] Memory required for data: 1774632960
I0809 15:02:14.625787  5911 net.cpp:484] Sharing parameters 'conv1_w' owned by layer 'Convolution1', param index 0
I0809 15:02:14.625793  5911 net.cpp:484] Sharing parameters 'conv1_b' owned by layer 'Convolution1', param index 1
I0809 15:02:14.625808  5911 layer_factory.hpp:77] Creating layer Pooling109
I0809 15:02:14.625818  5911 net.cpp:91] Creating Layer Pooling109
I0809 15:02:14.625823  5911 net.cpp:425] Pooling109 <- Convolution109
I0809 15:02:14.625831  5911 net.cpp:399] Pooling109 -> Pooling109
I0809 15:02:14.625882  5911 net.cpp:141] Setting up Pooling109
I0809 15:02:14.625890  5911 net.cpp:148] Top shape: 64 20 30 30 (1152000)
I0809 15:02:14.625895  5911 net.cpp:156] Memory required for data: 1779240960
I0809 15:02:14.625901  5911 layer_factory.hpp:77] Creating layer Convolution110
I0809 15:02:14.625913  5911 net.cpp:91] Creating Layer Convolution110
I0809 15:02:14.625921  5911 net.cpp:425] Convolution110 <- Pooling109
I0809 15:02:14.625931  5911 net.cpp:399] Convolution110 -> Convolution110
I0809 15:02:14.626458  5911 net.cpp:141] Setting up Convolution110
I0809 15:02:14.626466  5911 net.cpp:148] Top shape: 64 50 26 26 (2163200)
I0809 15:02:14.626471  5911 net.cpp:156] Memory required for data: 1787893760
I0809 15:02:14.626477  5911 net.cpp:484] Sharing parameters 'conv2_w' owned by layer 'Convolution2', param index 0
I0809 15:02:14.626484  5911 net.cpp:484] Sharing parameters 'conv2_b' owned by layer 'Convolution2', param index 1
I0809 15:02:14.626489  5911 layer_factory.hpp:77] Creating layer Pooling110
I0809 15:02:14.626497  5911 net.cpp:91] Creating Layer Pooling110
I0809 15:02:14.626503  5911 net.cpp:425] Pooling110 <- Convolution110
I0809 15:02:14.626514  5911 net.cpp:399] Pooling110 -> Pooling110
I0809 15:02:14.626561  5911 net.cpp:141] Setting up Pooling110
I0809 15:02:14.626570  5911 net.cpp:148] Top shape: 64 50 13 13 (540800)
I0809 15:02:14.626576  5911 net.cpp:156] Memory required for data: 1790056960
I0809 15:02:14.626582  5911 layer_factory.hpp:77] Creating layer Convolution111
I0809 15:02:14.626595  5911 net.cpp:91] Creating Layer Convolution111
I0809 15:02:14.626601  5911 net.cpp:425] Convolution111 <- Pooling110
I0809 15:02:14.626610  5911 net.cpp:399] Convolution111 -> Convolution111
I0809 15:02:14.627418  5911 net.cpp:141] Setting up Convolution111
I0809 15:02:14.627425  5911 net.cpp:148] Top shape: 64 50 9 9 (259200)
I0809 15:02:14.627431  5911 net.cpp:156] Memory required for data: 1791093760
I0809 15:02:14.627437  5911 net.cpp:484] Sharing parameters 'conv3_w' owned by layer 'Convolution3', param index 0
I0809 15:02:14.627444  5911 net.cpp:484] Sharing parameters 'conv3_b' owned by layer 'Convolution3', param index 1
I0809 15:02:14.627449  5911 layer_factory.hpp:77] Creating layer Pooling111
I0809 15:02:14.627460  5911 net.cpp:91] Creating Layer Pooling111
I0809 15:02:14.627465  5911 net.cpp:425] Pooling111 <- Convolution111
I0809 15:02:14.627475  5911 net.cpp:399] Pooling111 -> Pooling111
I0809 15:02:14.627524  5911 net.cpp:141] Setting up Pooling111
I0809 15:02:14.627532  5911 net.cpp:148] Top shape: 64 50 5 5 (80000)
I0809 15:02:14.627537  5911 net.cpp:156] Memory required for data: 1791413760
I0809 15:02:14.627543  5911 layer_factory.hpp:77] Creating layer InnerProduct109
I0809 15:02:14.627553  5911 net.cpp:91] Creating Layer InnerProduct109
I0809 15:02:14.627559  5911 net.cpp:425] InnerProduct109 <- Pooling111
I0809 15:02:14.627568  5911 net.cpp:399] InnerProduct109 -> InnerProduct109
I0809 15:02:14.628666  5911 net.cpp:141] Setting up InnerProduct109
I0809 15:02:14.628674  5911 net.cpp:148] Top shape: 64 100 (6400)
I0809 15:02:14.628679  5911 net.cpp:156] Memory required for data: 1791439360
I0809 15:02:14.628686  5911 net.cpp:484] Sharing parameters 'ip1_w' owned by layer 'InnerProduct1', param index 0
I0809 15:02:14.628693  5911 net.cpp:484] Sharing parameters 'ip1_b' owned by layer 'InnerProduct1', param index 1
I0809 15:02:14.628698  5911 layer_factory.hpp:77] Creating layer ReLU73
I0809 15:02:14.628707  5911 net.cpp:91] Creating Layer ReLU73
I0809 15:02:14.628713  5911 net.cpp:425] ReLU73 <- InnerProduct109
I0809 15:02:14.628723  5911 net.cpp:386] ReLU73 -> InnerProduct109 (in-place)
I0809 15:02:14.628732  5911 net.cpp:141] Setting up ReLU73
I0809 15:02:14.628751  5911 net.cpp:148] Top shape: 64 100 (6400)
I0809 15:02:14.628756  5911 net.cpp:156] Memory required for data: 1791464960
I0809 15:02:14.628762  5911 layer_factory.hpp:77] Creating layer InnerProduct110
I0809 15:02:14.628772  5911 net.cpp:91] Creating Layer InnerProduct110
I0809 15:02:14.628777  5911 net.cpp:425] InnerProduct110 <- InnerProduct109
I0809 15:02:14.628789  5911 net.cpp:399] InnerProduct110 -> InnerProduct110
I0809 15:02:14.628963  5911 net.cpp:141] Setting up InnerProduct110
I0809 15:02:14.628971  5911 net.cpp:148] Top shape: 64 50 (3200)
I0809 15:02:14.628976  5911 net.cpp:156] Memory required for data: 1791477760
I0809 15:02:14.628983  5911 net.cpp:484] Sharing parameters 'ip2_w' owned by layer 'InnerProduct2', param index 0
I0809 15:02:14.628989  5911 net.cpp:484] Sharing parameters 'ip2_b' owned by layer 'InnerProduct2', param index 1
I0809 15:02:14.628995  5911 layer_factory.hpp:77] Creating layer Convolution112
I0809 15:02:14.629009  5911 net.cpp:91] Creating Layer Convolution112
I0809 15:02:14.629015  5911 net.cpp:425] Convolution112 <- c19
I0809 15:02:14.629025  5911 net.cpp:399] Convolution112 -> Convolution112
I0809 15:02:14.629397  5911 net.cpp:141] Setting up Convolution112
I0809 15:02:14.629405  5911 net.cpp:148] Top shape: 64 20 60 60 (4608000)
I0809 15:02:14.629410  5911 net.cpp:156] Memory required for data: 1809909760
I0809 15:02:14.629417  5911 net.cpp:484] Sharing parameters 'conv1_w' owned by layer 'Convolution1', param index 0
I0809 15:02:14.629423  5911 net.cpp:484] Sharing parameters 'conv1_b' owned by layer 'Convolution1', param index 1
I0809 15:02:14.629429  5911 layer_factory.hpp:77] Creating layer Pooling112
I0809 15:02:14.629439  5911 net.cpp:91] Creating Layer Pooling112
I0809 15:02:14.629446  5911 net.cpp:425] Pooling112 <- Convolution112
I0809 15:02:14.629454  5911 net.cpp:399] Pooling112 -> Pooling112
I0809 15:02:14.629504  5911 net.cpp:141] Setting up Pooling112
I0809 15:02:14.629513  5911 net.cpp:148] Top shape: 64 20 30 30 (1152000)
I0809 15:02:14.629518  5911 net.cpp:156] Memory required for data: 1814517760
I0809 15:02:14.629523  5911 layer_factory.hpp:77] Creating layer Convolution113
I0809 15:02:14.629535  5911 net.cpp:91] Creating Layer Convolution113
I0809 15:02:14.629541  5911 net.cpp:425] Convolution113 <- Pooling112
I0809 15:02:14.629554  5911 net.cpp:399] Convolution113 -> Convolution113
I0809 15:02:14.630074  5911 net.cpp:141] Setting up Convolution113
I0809 15:02:14.630082  5911 net.cpp:148] Top shape: 64 50 26 26 (2163200)
I0809 15:02:14.630087  5911 net.cpp:156] Memory required for data: 1823170560
I0809 15:02:14.630095  5911 net.cpp:484] Sharing parameters 'conv2_w' owned by layer 'Convolution2', param index 0
I0809 15:02:14.630100  5911 net.cpp:484] Sharing parameters 'conv2_b' owned by layer 'Convolution2', param index 1
I0809 15:02:14.650485  5911 layer_factory.hpp:77] Creating layer Pooling113
I0809 15:02:14.650522  5911 net.cpp:91] Creating Layer Pooling113
I0809 15:02:14.650543  5911 net.cpp:425] Pooling113 <- Convolution113
I0809 15:02:14.650583  5911 net.cpp:399] Pooling113 -> Pooling113
I0809 15:02:14.650681  5911 net.cpp:141] Setting up Pooling113
I0809 15:02:14.650692  5911 net.cpp:148] Top shape: 64 50 13 13 (540800)
I0809 15:02:14.650701  5911 net.cpp:156] Memory required for data: 1825333760
I0809 15:02:14.650707  5911 layer_factory.hpp:77] Creating layer Convolution114
I0809 15:02:14.650729  5911 net.cpp:91] Creating Layer Convolution114
I0809 15:02:14.650738  5911 net.cpp:425] Convolution114 <- Pooling113
I0809 15:02:14.650750  5911 net.cpp:399] Convolution114 -> Convolution114
I0809 15:02:14.651629  5911 net.cpp:141] Setting up Convolution114
I0809 15:02:14.651640  5911 net.cpp:148] Top shape: 64 50 9 9 (259200)
I0809 15:02:14.651646  5911 net.cpp:156] Memory required for data: 1826370560
I0809 15:02:14.651653  5911 net.cpp:484] Sharing parameters 'conv3_w' owned by layer 'Convolution3', param index 0
I0809 15:02:14.651660  5911 net.cpp:484] Sharing parameters 'conv3_b' owned by layer 'Convolution3', param index 1
I0809 15:02:14.651679  5911 layer_factory.hpp:77] Creating layer Pooling114
I0809 15:02:14.651689  5911 net.cpp:91] Creating Layer Pooling114
I0809 15:02:14.651695  5911 net.cpp:425] Pooling114 <- Convolution114
I0809 15:02:14.651705  5911 net.cpp:399] Pooling114 -> Pooling114
I0809 15:02:14.651759  5911 net.cpp:141] Setting up Pooling114
I0809 15:02:14.651767  5911 net.cpp:148] Top shape: 64 50 5 5 (80000)
I0809 15:02:14.651772  5911 net.cpp:156] Memory required for data: 1826690560
I0809 15:02:14.651778  5911 layer_factory.hpp:77] Creating layer InnerProduct111
I0809 15:02:14.651792  5911 net.cpp:91] Creating Layer InnerProduct111
I0809 15:02:14.651798  5911 net.cpp:425] InnerProduct111 <- Pooling114
I0809 15:02:14.651808  5911 net.cpp:399] InnerProduct111 -> InnerProduct111
I0809 15:02:14.653534  5911 net.cpp:141] Setting up InnerProduct111
I0809 15:02:14.653548  5911 net.cpp:148] Top shape: 64 100 (6400)
I0809 15:02:14.653554  5911 net.cpp:156] Memory required for data: 1826716160
I0809 15:02:14.653563  5911 net.cpp:484] Sharing parameters 'ip1_w' owned by layer 'InnerProduct1', param index 0
I0809 15:02:14.653570  5911 net.cpp:484] Sharing parameters 'ip1_b' owned by layer 'InnerProduct1', param index 1
I0809 15:02:14.653576  5911 layer_factory.hpp:77] Creating layer ReLU74
I0809 15:02:14.653585  5911 net.cpp:91] Creating Layer ReLU74
I0809 15:02:14.653592  5911 net.cpp:425] ReLU74 <- InnerProduct111
I0809 15:02:14.653604  5911 net.cpp:386] ReLU74 -> InnerProduct111 (in-place)
I0809 15:02:14.653615  5911 net.cpp:141] Setting up ReLU74
I0809 15:02:14.653622  5911 net.cpp:148] Top shape: 64 100 (6400)
I0809 15:02:14.653628  5911 net.cpp:156] Memory required for data: 1826741760
I0809 15:02:14.653633  5911 layer_factory.hpp:77] Creating layer InnerProduct112
I0809 15:02:14.653643  5911 net.cpp:91] Creating Layer InnerProduct112
I0809 15:02:14.653650  5911 net.cpp:425] InnerProduct112 <- InnerProduct111
I0809 15:02:14.653661  5911 net.cpp:399] InnerProduct112 -> InnerProduct112
I0809 15:02:14.653847  5911 net.cpp:141] Setting up InnerProduct112
I0809 15:02:14.653856  5911 net.cpp:148] Top shape: 64 50 (3200)
I0809 15:02:14.653861  5911 net.cpp:156] Memory required for data: 1826754560
I0809 15:02:14.653867  5911 net.cpp:484] Sharing parameters 'ip2_w' owned by layer 'InnerProduct2', param index 0
I0809 15:02:14.653874  5911 net.cpp:484] Sharing parameters 'ip2_b' owned by layer 'InnerProduct2', param index 1
I0809 15:02:14.653880  5911 layer_factory.hpp:77] Creating layer Concat19
I0809 15:02:14.653888  5911 net.cpp:91] Creating Layer Concat19
I0809 15:02:14.653895  5911 net.cpp:425] Concat19 <- InnerProduct110
I0809 15:02:14.653903  5911 net.cpp:425] Concat19 <- InnerProduct112
I0809 15:02:14.653911  5911 net.cpp:399] Concat19 -> Concat19
I0809 15:02:14.653944  5911 net.cpp:141] Setting up Concat19
I0809 15:02:14.653951  5911 net.cpp:148] Top shape: 64 100 (6400)
I0809 15:02:14.653956  5911 net.cpp:156] Memory required for data: 1826780160
I0809 15:02:14.653962  5911 layer_factory.hpp:77] Creating layer InnerProduct113
I0809 15:02:14.653973  5911 net.cpp:91] Creating Layer InnerProduct113
I0809 15:02:14.653980  5911 net.cpp:425] InnerProduct113 <- Concat19
I0809 15:02:14.653988  5911 net.cpp:399] InnerProduct113 -> InnerProduct113
I0809 15:02:14.654182  5911 net.cpp:141] Setting up InnerProduct113
I0809 15:02:14.654191  5911 net.cpp:148] Top shape: 64 64 (4096)
I0809 15:02:14.654196  5911 net.cpp:156] Memory required for data: 1826796544
I0809 15:02:14.654203  5911 net.cpp:484] Sharing parameters 'fc1_w' owned by layer 'InnerProduct5', param index 0
I0809 15:02:14.654211  5911 net.cpp:484] Sharing parameters 'fc1_b' owned by layer 'InnerProduct5', param index 1
I0809 15:02:14.654217  5911 layer_factory.hpp:77] Creating layer ReLU75
I0809 15:02:14.654227  5911 net.cpp:91] Creating Layer ReLU75
I0809 15:02:14.654232  5911 net.cpp:425] ReLU75 <- InnerProduct113
I0809 15:02:14.654242  5911 net.cpp:386] ReLU75 -> InnerProduct113 (in-place)
I0809 15:02:14.654249  5911 net.cpp:141] Setting up ReLU75
I0809 15:02:14.654258  5911 net.cpp:148] Top shape: 64 64 (4096)
I0809 15:02:14.654279  5911 net.cpp:156] Memory required for data: 1826812928
I0809 15:02:14.654284  5911 layer_factory.hpp:77] Creating layer drop1
I0809 15:02:14.654295  5911 net.cpp:91] Creating Layer drop1
I0809 15:02:14.654302  5911 net.cpp:425] drop1 <- InnerProduct113
I0809 15:02:14.654311  5911 net.cpp:399] drop1 -> Dropout37
I0809 15:02:14.654368  5911 net.cpp:141] Setting up drop1
I0809 15:02:14.654378  5911 net.cpp:148] Top shape: 64 64 (4096)
I0809 15:02:14.654383  5911 net.cpp:156] Memory required for data: 1826829312
I0809 15:02:14.654388  5911 layer_factory.hpp:77] Creating layer InnerProduct114
I0809 15:02:14.654397  5911 net.cpp:91] Creating Layer InnerProduct114
I0809 15:02:14.654403  5911 net.cpp:425] InnerProduct114 <- Dropout37
I0809 15:02:14.654414  5911 net.cpp:399] InnerProduct114 -> InnerProduct114
I0809 15:02:14.654580  5911 net.cpp:141] Setting up InnerProduct114
I0809 15:02:14.654587  5911 net.cpp:148] Top shape: 64 32 (2048)
I0809 15:02:14.654593  5911 net.cpp:156] Memory required for data: 1826837504
I0809 15:02:14.654599  5911 net.cpp:484] Sharing parameters 'fc2_w' owned by layer 'InnerProduct6', param index 0
I0809 15:02:14.654606  5911 net.cpp:484] Sharing parameters 'fc2_b' owned by layer 'InnerProduct6', param index 1
I0809 15:02:14.654613  5911 layer_factory.hpp:77] Creating layer ReLU76
I0809 15:02:14.654619  5911 net.cpp:91] Creating Layer ReLU76
I0809 15:02:14.654625  5911 net.cpp:425] ReLU76 <- InnerProduct114
I0809 15:02:14.654633  5911 net.cpp:386] ReLU76 -> InnerProduct114 (in-place)
I0809 15:02:14.654641  5911 net.cpp:141] Setting up ReLU76
I0809 15:02:14.654649  5911 net.cpp:148] Top shape: 64 32 (2048)
I0809 15:02:14.654654  5911 net.cpp:156] Memory required for data: 1826845696
I0809 15:02:14.654659  5911 layer_factory.hpp:77] Creating layer drop2
I0809 15:02:14.654670  5911 net.cpp:91] Creating Layer drop2
I0809 15:02:14.654675  5911 net.cpp:425] drop2 <- InnerProduct114
I0809 15:02:14.654683  5911 net.cpp:399] drop2 -> Dropout38
I0809 15:02:14.654731  5911 net.cpp:141] Setting up drop2
I0809 15:02:14.654737  5911 net.cpp:148] Top shape: 64 32 (2048)
I0809 15:02:14.654743  5911 net.cpp:156] Memory required for data: 1826853888
I0809 15:02:14.654748  5911 layer_factory.hpp:77] Creating layer dt18
I0809 15:02:14.654757  5911 net.cpp:91] Creating Layer dt18
I0809 15:02:14.654763  5911 net.cpp:425] dt18 <- Dropout38
I0809 15:02:14.654774  5911 net.cpp:399] dt18 -> dt18
I0809 15:02:14.654908  5911 net.cpp:141] Setting up dt18
I0809 15:02:14.654916  5911 net.cpp:148] Top shape: 64 1 (64)
I0809 15:02:14.654920  5911 net.cpp:156] Memory required for data: 1826854144
I0809 15:02:14.654927  5911 net.cpp:484] Sharing parameters 'fc3_w' owned by layer 'dt0', param index 0
I0809 15:02:14.682240  5911 net.cpp:484] Sharing parameters 'fc3_b' owned by layer 'dt0', param index 1
I0809 15:02:14.682268  5911 layer_factory.hpp:77] Creating layer con
I0809 15:02:14.682312  5911 net.cpp:91] Creating Layer con
…
I0809 15:02:14.682436  5911 net.cpp:425] con <- dt10
I0809 15:02:14.682446  5911 net.cpp:425] con <- dt11
I0809 15:02:14.682453  5911 net.cpp:425] con <- dt12
I0809 15:02:14.682461  5911 net.cpp:425] con <- dt13
I0809 15:02:14.682469  5911 net.cpp:425] con <- dt14
I0809 15:02:14.682477  5911 net.cpp:425] con <- dt15
I0809 15:02:14.682485  5911 net.cpp:425] con <- dt16
I0809 15:02:14.682494  5911 net.cpp:425] con <- dt17
I0809 15:02:14.682502  5911 net.cpp:425] con <- dt18
I0809 15:02:14.682518  5911 net.cpp:399] con -> con
I0809 15:02:14.682595  5911 net.cpp:141] Setting up con
I0809 15:02:14.682607  5911 net.cpp:148] Top shape: 64 19 (1216)
I0809 15:02:14.682615  5911 net.cpp:156] Memory required for data: 1826859008
I0809 15:02:14.682622  5911 layer_factory.hpp:77] Creating layer r1
I0809 15:02:14.682636  5911 net.cpp:91] Creating Layer r1
I0809 15:02:14.682643  5911 net.cpp:425] r1 <- con
I0809 15:02:14.682659  5911 net.cpp:399] r1 -> r1
I0809 15:02:14.682708  5911 net.cpp:141] Setting up r1
I0809 15:02:14.682718  5911 net.cpp:148] Top shape: 64 1 1 19 (1216)
I0809 15:02:14.682724  5911 net.cpp:156] Memory required for data: 1826863872
I0809 15:02:14.682732  5911 layer_factory.hpp:77] Creating layer p
I0809 15:02:14.682746  5911 net.cpp:91] Creating Layer p
I0809 15:02:14.682754  5911 net.cpp:425] p <- r1
I0809 15:02:14.682765  5911 net.cpp:399] p -> p
I0809 15:02:14.682828  5911 net.cpp:141] Setting up p
I0809 15:02:14.682837  5911 net.cpp:148] Top shape: 64 1 1 1 (64)
I0809 15:02:14.682842  5911 net.cpp:156] Memory required for data: 1826864128
I0809 15:02:14.682847  5911 layer_factory.hpp:77] Creating layer r2
I0809 15:02:14.682855  5911 net.cpp:91] Creating Layer r2
I0809 15:02:14.682862  5911 net.cpp:425] r2 <- p
I0809 15:02:14.682869  5911 net.cpp:399] r2 -> r2
I0809 15:02:14.682899  5911 net.cpp:141] Setting up r2
I0809 15:02:14.682906  5911 net.cpp:148] Top shape: 64 1 1 1 (64)
I0809 15:02:14.682912  5911 net.cpp:156] Memory required for data: 1826864384
I0809 15:02:14.682917  5911 layer_factory.hpp:77] Creating layer padL
I0809 15:02:14.682927  5911 net.cpp:91] Creating Layer padL
I0809 15:02:14.682934  5911 net.cpp:425] padL <- label_data_1_split_1
I0809 15:02:14.682942  5911 net.cpp:399] padL -> padL
I0809 15:02:14.682972  5911 net.cpp:141] Setting up padL
I0809 15:02:14.682979  5911 net.cpp:148] Top shape: 64 1 1 1 (64)
I0809 15:02:14.682986  5911 net.cpp:156] Memory required for data: 1826864640
I0809 15:02:14.682991  5911 layer_factory.hpp:77] Creating layer pad
I0809 15:02:14.682998  5911 net.cpp:91] Creating Layer pad
I0809 15:02:14.683004  5911 net.cpp:425] pad <- r2
I0809 15:02:14.683013  5911 net.cpp:425] pad <- padL
I0809 15:02:14.683027  5911 net.cpp:399] pad -> pad
I0809 15:02:14.683056  5911 net.cpp:141] Setting up pad
I0809 15:02:14.683064  5911 net.cpp:148] Top shape: 64 2 1 1 (128)
I0809 15:02:14.683070  5911 net.cpp:156] Memory required for data: 1826865152
I0809 15:02:14.683075  5911 layer_factory.hpp:77] Creating layer pad_pad_0_split
I0809 15:02:14.683084  5911 net.cpp:91] Creating Layer pad_pad_0_split
I0809 15:02:14.683089  5911 net.cpp:425] pad_pad_0_split <- pad
I0809 15:02:14.683097  5911 net.cpp:399] pad_pad_0_split -> pad_pad_0_split_0
I0809 15:02:14.683109  5911 net.cpp:399] pad_pad_0_split -> pad_pad_0_split_1
I0809 15:02:14.683382  5911 net.cpp:141] Setting up pad_pad_0_split
I0809 15:02:14.683405  5911 net.cpp:148] Top shape: 64 2 1 1 (128)
I0809 15:02:14.683429  5911 net.cpp:148] Top shape: 64 2 1 1 (128)
I0809 15:02:14.683442  5911 net.cpp:156] Memory required for data: 1826866176
I0809 15:02:14.683455  5911 layer_factory.hpp:77] Creating layer loss
I0809 15:02:14.683473  5911 net.cpp:91] Creating Layer loss
I0809 15:02:14.683487  5911 net.cpp:425] loss <- pad_pad_0_split_0
I0809 15:02:14.683503  5911 net.cpp:425] loss <- th_th_0_split_0
I0809 15:02:14.683527  5911 net.cpp:399] loss -> loss
…
