…
solver_mode: CPU
I0726 00:27:06.335381 10943 solver.cpp:81] Creating training net from train_net file: examples/scene/matchNetTrain.prototxt
I0726 00:27:06.348356 10943 net.cpp:49] Initializing net from parameters: 
state {
  phase: TRAIN
}
layer {
  name: "data"
  type: "Data"
  top: "data"
  top: "label"
  include {
    phase: TRAIN
  }
  transform_param {
    scale: 0.0039215689
    mirror: true
    mean_file: "examples/scene/scene_mean.binaryproto"
  }
  data_param {
    source: "examples/scene/train_pairs.lmdb"
    batch_size: 10
    backend: LMDB
  }
}
layer {
  name: "i1"
  type: "Slice"
  bottom: "data"
  top: "i1"
  top: "i2"
  slice_param {
    slice_dim: 1
    slice_point: 3
  }
}
layer {
  name: "p1"
  type: "Pooling"
  bottom: "i1"
  top: "p1"
  pooling_param {
    pool: AVE
    kernel_size: 2
    stride: 2
  }
}
layer {
  name: "p2"
  type: "Pooling"
  bottom: "i2"
  top: "p2"
  pooling_param {
    pool: AVE
    kernel_size: 2
    stride: 2
  }
}
layer {
  name: "Input1"
  type: "Input"
  top: "Input1"
  include {
    phase: TRAIN
  }
  input_param {
    shape {
      dim: 10
      dim: 3
      dim: 64
      dim: 64
    }
  }
}
layer {
  name: "c11"
  type: "Crop"
  bottom: "i1"
  bottom: "Input1"
  top: "c11"
  crop_param {
    axis: 2
    offset: 0
    offset: 0
  }
}
layer {
  name: "Input2"
  type: "Input"
  top: "Input2"
  include {
    phase: TRAIN
  }
  input_param {
    shape {
      dim: 10
      dim: 3
      dim: 64
      dim: 64
    }
  }
}
layer {
  name: "c12"
  type: "Crop"
  bottom: "i1"
  bottom: "Input2"
  top: "c12"
  crop_param {
    axis: 2
    offset: 0
    offset: 32
  }
}
layer {
  name: "Input3"
  type: "Input"
  top: "Input3"
  include {
    phase: TRAIN
  }
  input_param {
    shape {
      dim: 10
      dim: 3
      dim: 64
      dim: 64
    }
  }
}
layer {
  name: "c13"
  type: "Crop"
  bottom: "i1"
  bottom: "Input3"
  top: "c13"
  crop_param {
    axis: 2
    offset: 0
    offset: 64
  }
}
layer {
  name: "Input4"
  type: "Input"
  top: "Input4"
  include {
    phase: TRAIN
  }
  input_param {
    shape {
      dim: 10
      dim: 3
      dim: 64
      dim: 64
    }
  }
}
layer {
  name: "c14"
  type: "Crop"
  bottom: "i1"
  bottom: "Input4"
  top: "c14"
  crop_param {
    axis: 2
    offset: 32
    offset: 0
  }
}
layer {
  name: "Input5"
  type: "Input"
  top: "Input5"
  include {
    phase: TRAIN
  }
  input_param {
    shape {
      dim: 10
      dim: 3
      dim: 64
      dim: 64
    }
  }
}
layer {
  name: "c15"
  type: "Crop"
  bottom: "i1"
  bottom: "Input5"
  top: "c15"
  crop_param {
    axis: 2
    offset: 32
    offset: 32
  }
}
layer {
  name: "Input6"
  type: "Input"
  top: "Input6"
  include {
    phase: TRAIN
  }
  input_param {
    shape {
      dim: 10
      dim: 3
      dim: 64
      dim: 64
    }
  }
}
layer {
  name: "c16"
  type: "Crop"
  bottom: "i1"
  bottom: "Input6"
  top: "c16"
  crop_param {
    axis: 2
    offset: 32
    offset: 64
  }
}
layer {
  name: "Input7"
  type: "Input"
  top: "Input7"
  include {
    phase: TRAIN
  }
  input_param {
    shape {
      dim: 10
      dim: 3
      dim: 64
      dim: 64
    }
  }
}
layer {
  name: "c17"
  type: "Crop"
  bottom: "i1"
  bottom: "Input7"
  top: "c17"
  crop_param {
    axis: 2
    offset: 64
    offset: 0
  }
}
layer {
  name: "Input8"
  type: "Input"
  top: "Input8"
  include {
    phase: TRAIN
  }
  input_param {
    shape {
      dim: 10
      dim: 3
      dim: 64
      dim: 64
    }
  }
}
layer {
  name: "c18"
  type: "Crop"
  bottom: "i1"
  bottom: "Input8"
  top: "c18"
  crop_param {
    axis: 2
    offset: 64
    offset: 32
  }
}
layer {
  name: "Input9"
  type: "Input"
  top: "Input9"
  include {
    phase: TRAIN
  }
  input_param {
    shape {
      dim: 10
      dim: 3
      dim: 64
      dim: 64
    }
  }
}
layer {
  name: "c19"
  type: "Crop"
  bottom: "i1"
  bottom: "Input9"
  top: "c19"
  crop_param {
    axis: 2
    offset: 64
    offset: 64
  }
}
layer {
  name: "Input10"
  type: "Input"
  top: "Input10"
  include {
    phase: TRAIN
  }
  input_param {
    shape {
      dim: 10
      dim: 3
      dim: 64
      dim: 64
    }
  }
}
layer {
  name: "c21"
  type: "Crop"
  bottom: "i2"
  bottom: "Input10"
  top: "c21"
  crop_param {
    axis: 2
    offset: 0
    offset: 0
  }
}
layer {
  name: "Input11"
  type: "Input"
  top: "Input11"
  include {
    phase: TRAIN
  }
  input_param {
    shape {
      dim: 10
      dim: 3
      dim: 64
      dim: 64
    }
  }
}
layer {
  name: "c22"
  type: "Crop"
  bottom: "i2"
  bottom: "Input11"
  top: "c22"
  crop_param {
    axis: 2
    offset: 0
    offset: 32
  }
}
layer {
  name: "Input12"
  type: "Input"
  top: "Input12"
  include {
    phase: TRAIN
  }
  input_param {
    shape {
      dim: 10
      dim: 3
      dim: 64
      dim: 64
    }
  }
}
layer {
  name: "c23"
  type: "Crop"
  bottom: "i2"
  bottom: "Input12"
  top: "c23"
  crop_param {
    axis: 2
    offset: 0
    offset: 64
  }
}
layer {
  name: "Input13"
  type: "Input"
  top: "Input13"
  include {
    phase: TRAIN
  }
  input_param {
    shape {
      dim: 10
      dim: 3
      dim: 64
      dim: 64
    }
  }
}
layer {
  name: "c24"
  type: "Crop"
  bottom: "i2"
  bottom: "Input13"
  top: "c24"
  crop_param {
    axis: 2
    offset: 32
    offset: 0
  }
}
layer {
  name: "Input14"
  type: "Input"
  top: "Input14"
  include {
    phase: TRAIN
  }
  input_param {
    shape {
      dim: 10
      dim: 3
      dim: 64
      dim: 64
    }
  }
}
layer {
  name: "c25"
  type: "Crop"
  bottom: "i2"
  bottom: "Input14"
  top: "c25"
  crop_param {
    axis: 2
    offset: 32
    offset: 32
  }
}
layer {
  name: "Input15"
  type: "Input"
  top: "Input15"
  include {
    phase: TRAIN
  }
  input_param {
    shape {
      dim: 10
      dim: 3
      dim: 64
      dim: 64
    }
  }
}
layer {
  name: "c26"
  type: "Crop"
  bottom: "i2"
  bottom: "Input15"
  top: "c26"
  crop_param {
    axis: 2
    offset: 32
    offset: 64
  }
}
layer {
  name: "Input16"
  type: "Input"
  top: "Input16"
  include {
    phase: TRAIN
  }
  input_param {
    shape {
      dim: 10
      dim: 3
      dim: 64
      dim: 64
    }
  }
}
layer {
  name: "c27"
  type: "Crop"
  bottom: "i2"
  bottom: "Input16"
  top: "c27"
  crop_param {
    axis: 2
    offset: 64
    offset: 0
  }
}
layer {
  name: "Input17"
  type: "Input"
  top: "Input17"
  include {
    phase: TRAIN
  }
  input_param {
    shape {
      dim: 10
      dim: 3
      dim: 64
      dim: 64
    }
  }
}
layer {
  name: "c28"
  type: "Crop"
  bottom: "i2"
  bottom: "Input17"
  top: "c28"
  crop_param {
    axis: 2
    offset: 64
    offset: 32
  }
}
layer {
  name: "Input18"
  type: "Input"
  top: "Input18"
  include {
    phase: TRAIN
  }
  input_param {
    shape {
      dim: 10
      dim: 3
      dim: 64
      dim: 64
    }
  }
}
layer {
  name: "c29"
  type: "Crop"
  bottom: "i2"
  bottom: "Input18"
  top: "c29"
  crop_param {
    axis: 2
    offset: 64
    offset: 64
  }
}
layer {
  name: "Convolution1"
  type: "Convolution"
  bottom: "p1"
  top: "Convolution1"
  param {
    name: "conv1_w"
    lr_mult: 1
  }
  param {
    name: "conv1_b"
    lr_mult: 2
  }
  convolution_param {
    num_output: 20
    kernel_size: 5
    stride: 1
    weight_filler {
      type: "xavier"
    }
    bias_filler {
      type: "constant"
    }
  }
}
layer {
  name: "Pooling1"
  type: "Pooling"
  bottom: "Convolution1"
  top: "Pooling1"
  pooling_param {
    pool: MAX
    kernel_size: 2
    stride: 2
  }
}
layer {
  name: "Convolution2"
  type: "Convolution"
  bottom: "Pooling1"
  top: "Convolution2"
  param {
    name: "conv2_w"
    lr_mult: 1
  }
  param {
    name: "conv2_b"
    lr_mult: 2
  }
  convolution_param {
    num_output: 50
    kernel_size: 5
    stride: 1
    weight_filler {
      type: "xavier"
    }
    bias_filler {
      type: "constant"
    }
  }
}
layer {
  name: "Pooling2"
  type: "Pooling"
  bottom: "Convolution2"
  top: "Pooling2"
  pooling_param {
    pool: MAX
    kernel_size: 2
    stride: 2
  }
}
layer {
  name: "InnerProduct1"
  type: "InnerProduct"
  bottom: "Pooling2"
  top: "InnerProduct1"
  param {
    name: "ip1_w"
    lr_mult: 1
  }
  param {
    name: "ip1_b"
    lr_mult: 2
  }
  inner_product_param {
    num_output: 500
    weight_filler {
      type: "xavier"
    }
    bias_filler {
      type: "constant"
    }
  }
}
layer {
  name: "ReLU1"
  type: "ReLU"
  bottom: "InnerProduct1"
  top: "InnerProduct1"
}
layer {
  name: "InnerProduct2"
  type: "InnerProduct"
  bottom: "InnerProduct1"
  top: "InnerProduct2"
  param {
    name: "ip2_w"
    lr_mult: 1
  }
  param {
    name: "ip2_b"
    lr_mult: 2
  }
  inner_product_param {
    num_output: 500
    weight_filler {
      type: "xavier"
    }
    bias_filler {
      type: "constant"
    }
  }
}
layer {
  name: "Convolution3"
  type: "Convolution"
  bottom: "p2"
  top: "Convolution3"
  param {
    name: "conv1_w"
    lr_mult: 1
  }
  param {
    name: "conv1_b"
    lr_mult: 2
  }
  convolution_param {
    num_output: 20
    kernel_size: 5
    stride: 1
    weight_filler {
      type: "xavier"
    }
    bias_filler {
      type: "constant"
    }
  }
}
layer {
  name: "Pooling3"
  type: "Pooling"
  bottom: "Convolution3"
  top: "Pooling3"
  pooling_param {
    pool: MAX
    kernel_size: 2
    stride: 2
  }
}
layer {
  name: "Convolution4"
  type: "Convolution"
  bottom: "Pooling3"
  top: "Convolution4"
  param {
    name: "conv2_w"
    lr_mult: 1
  }
  param {
    name: "conv2_b"
    lr_mult: 2
  }
  convolution_param {
    num_output: 50
    kernel_size: 5
    stride: 1
    weight_filler {
      type: "xavier"
    }
    bias_filler {
      type: "constant"
    }
  }
}
layer {
  name: "Pooling4"
  type: "Pooling"
  bottom: "Convolution4"
  top: "Pooling4"
  pooling_param {
    pool: MAX
    kernel_size: 2
    stride: 2
  }
}
layer {
  name: "InnerProduct3"
  type: "InnerProduct"
  bottom: "Pooling4"
  top: "InnerProduct3"
  param {
    name: "ip1_w"
    lr_mult: 1
  }
  param {
    name: "ip1_b"
    lr_mult: 2
  }
  inner_product_param {
    num_output: 500
    weight_filler {
      type: "xavier"
    }
    bias_filler {
      type: "constant"
    }
  }
}
layer {
  name: "ReLU2"
  type: "ReLU"
  bottom: "InnerProduct3"
  top: "InnerProduct3"
}
layer {
  name: "InnerProduct4"
  type: "InnerProduct"
  bottom: "InnerProduct3"
  top: "InnerProduct4"
  param {
    name: "ip2_w"
    lr_mult: 1
  }
  param {
    name: "ip2_b"
    lr_mult: 2
  }
  inner_product_param {
    num_output: 500
    weight_filler {
      type: "xavier"
    }
    bias_filler {
      type: "constant"
    }
  }
}
layer {
  name: "Concat1"
  type: "Concat"
  bottom: "InnerProduct2"
  bottom: "InnerProduct4"
  top: "Concat1"
  concat_param {
    axis: 1
  }
}
layer {
  name: "InnerProduct5"
  type: "InnerProduct"
  bottom: "Concat1"
  top: "InnerProduct5"
  param {
    name: "fc1_w"
    lr_mult: 1
  }
  param {
    name: "fc1_b"
    lr_mult: 2
  }
  inner_product_param {
    num_output: 512
    weight_filler {
      type: "xavier"
    }
    bias_filler {
      type: "constant"
    }
  }
}
layer {
  name: "ReLU3"
  type: "ReLU"
  bottom: "InnerProduct5"
  top: "InnerProduct5"
}
layer {
  name: "InnerProduct6"
  type: "InnerProduct"
  bottom: "InnerProduct5"
  top: "InnerProduct6"
  param {
    name: "fc2_w"
    lr_mult: 1
  }
  param {
    name: "fc2_b"
    lr_mult: 2
  }
  inner_product_param {
    num_output: 512
    weight_filler {
      type: "xavier"
    }
    bias_filler {
      type: "constant"
    }
  }
}
layer {
  name: "ReLU4"
  type: "ReLU"
  bottom: "InnerProduct6"
  top: "InnerProduct6"
}
layer {
  name: "dt0"
  type: "InnerProduct"
  bottom: "InnerProduct6"
  top: "dt0"
  param {
    name: "fc3_w"
    lr_mult: 1
  }
  param {
    name: "fc3_b"
    lr_mult: 2
  }
  inner_product_param {
    num_output: 2
    weight_filler {
      type: "xavier"
    }
    bias_filler {
      type: "constant"
    }
  }
}
layer {
  name: "Convolution5"
  type: "Convolution"
  bottom: "p1"
  top: "Convolution5"
  param {
    name: "conv1_w"
    lr_mult: 1
  }
  param {
    name: "conv1_b"
    lr_mult: 2
  }
  convolution_param {
    num_output: 20
    kernel_size: 5
    stride: 1
    weight_filler {
      type: "xavier"
    }
    bias_filler {
      type: "constant"
    }
  }
}
layer {
  name: "Pooling5"
  type: "Pooling"
  bottom: "Convolution5"
  top: "Pooling5"
  pooling_param {
    pool: MAX
    kernel_size: 2
    stride: 2
  }
}
layer {
  name: "Convolution6"
  type: "Convolution"
  bottom: "Pooling5"
  top: "Convolution6"
  param {
    name: "conv2_w"
    lr_mult: 1
  }
  param {
    name: "conv2_b"
    lr_mult: 2
  }
  convolution_param {
    num_output: 50
    kernel_size: 5
    stride: 1
    weight_filler {
      type: "xavier"
    }
    bias_filler {
      type: "constant"
    }
  }
}
layer {
  name: "Pooling6"
  type: "Pooling"
  bottom: "Convolution6"
  top: "Pooling6"
  pooling_param {
    pool: MAX
    kernel_size: 2
    stride: 2
  }
}
layer {
  name: "InnerProduct7"
  type: "InnerProduct"
  bottom: "Pooling6"
  top: "InnerProduct7"
  param {
    name: "ip1_w"
    lr_mult: 1
  }
  param {
    name: "ip1_b"
    lr_mult: 2
  }
  inner_product_param {
    num_output: 500
    weight_filler {
      type: "xavier"
    }
    bias_filler {
      type: "constant"
    }
  }
}
layer {
  name: "ReLU5"
  type: "ReLU"
  bottom: "InnerProduct7"
  top: "InnerProduct7"
}
layer {
  name: "InnerProduct8"
  type: "InnerProduct"
  bottom: "InnerProduct7"
  top: "InnerProduct8"
  param {
    name: "ip2_w"
    lr_mult: 1
  }
  param {
    name: "ip2_b"
    lr_mult: 2
  }
  inner_product_param {
    num_output: 500
    weight_filler {
      type: "xavier"
    }
    bias_filler {
      type: "constant"
    }
  }
}
layer {
  name: "Convolution7"
  type: "Convolution"
  bottom: "c21"
  top: "Convolution7"
  param {
    name: "conv1_w"
    lr_mult: 1
  }
  param {
    name: "conv1_b"
    lr_mult: 2
  }
  convolution_param {
    num_output: 20
    kernel_size: 5
    stride: 1
    weight_filler {
      type: "xavier"
    }
    bias_filler {
      type: "constant"
    }
  }
}
layer {
  name: "Pooling7"
  type: "Pooling"
  bottom: "Convolution7"
  top: "Pooling7"
  pooling_param {
    pool: MAX
    kernel_size: 2
    stride: 2
  }
}
layer {
  name: "Convolution8"
  type: "Convolution"
  bottom: "Pooling7"
  top: "Convolution8"
  param {
    name: "conv2_w"
    lr_mult: 1
  }
  param {
    name: "conv2_b"
    lr_mult: 2
  }
  convolution_param {
    num_output: 50
    kernel_size: 5
    stride: 1
    weight_filler {
      type: "xavier"
    }
    bias_filler {
      type: "constant"
    }
  }
}
layer {
  name: "Pooling8"
  type: "Pooling"
  bottom: "Convolution8"
  top: "Pooling8"
  pooling_param {
    pool: MAX
    kernel_size: 2
    stride: 2
  }
}
layer {
  name: "InnerProduct9"
  type: "InnerProduct"
  bottom: "Pooling8"
  top: "InnerProduct9"
  param {
    name: "ip1_w"
    lr_mult: 1
  }
  param {
    name: "ip1_b"
    lr_mult: 2
  }
  inner_product_param {
    num_output: 500
    weight_filler {
      type: "xavier"
    }
    bias_filler {
      type: "constant"
    }
  }
}
layer {
  name: "ReLU6"
  type: "ReLU"
  bottom: "InnerProduct9"
  top: "InnerProduct9"
}
layer {
  name: "InnerProduct10"
  type: "InnerProduct"
  bottom: "InnerProduct9"
  top: "InnerProduct10"
  param {
    name: "ip2_w"
    lr_mult: 1
  }
  param {
    name: "ip2_b"
    lr_mult: 2
  }
  inner_product_param {
    num_output: 500
    weight_filler {
      type: "xavier"
    }
    bias_filler {
      type: "constant"
    }
  }
}
layer {
  name: "Concat2"
  type: "Concat"
  bottom: "InnerProduct8"
  bottom: "InnerProduct10"
  top: "Concat2"
  concat_param {
    axis: 1
  }
}
layer {
  name: "InnerProduct11"
  type: "InnerProduct"
  bottom: "Concat2"
  top: "InnerProduct11"
  param {
    name: "fc1_w"
    lr_mult: 1
  }
  param {
    name: "fc1_b"
    lr_mult: 2
  }
  inner_product_param {
    num_output: 512
    weight_filler {
      type: "xavier"
    }
    bias_filler {
      type: "constant"
    }
  }
}
layer {
  name: "ReLU7"
  type: "ReLU"
  bottom: "InnerProduct11"
  top: "InnerProduct11"
}
layer {
  name: "InnerProduct12"
  type: "InnerProduct"
  bottom: "InnerProduct11"
  top: "InnerProduct12"
  param {
    name: "fc2_w"
    lr_mult: 1
  }
  param {
    name: "fc2_b"
    lr_mult: 2
  }
  inner_product_param {
    num_output: 512
    weight_filler {
      type: "xavier"
    }
    bias_filler {
      type: "constant"
    }
  }
}
layer {
  name: "ReLU8"
  type: "ReLU"
  bottom: "InnerProduct12"
  top: "InnerProduct12"
}
layer {
  name: "dt1"
  type: "InnerProduct"
  bottom: "InnerProduct12"
  top: "dt1"
  param {
    name: "fc3_w"
    lr_mult: 1
  }
  param {
    name: "fc3_b"
    lr_mult: 2
  }
  inner_product_param {
    num_output: 2
    weight_filler {
      type: "xavier"
    }
    bias_filler {
      type: "constant"
    }
  }
}
layer {
  name: "Convolution9"
  type: "Convolution"
  bottom: "p1"
  top: "Convolution9"
  param {
    name: "conv1_w"
    lr_mult: 1
  }
  param {
    name: "conv1_b"
    lr_mult: 2
  }
  convolution_param {
    num_output: 20
    kernel_size: 5
    stride: 1
    weight_filler {
      type: "xavier"
    }
    bias_filler {
      type: "constant"
    }
  }
}
layer {
  name: "Pooling9"
  type: "Pooling"
  bottom: "Convolution9"
  top: "Pooling9"
  pooling_param {
    pool: MAX
    kernel_size: 2
    stride: 2
  }
}
layer {
  name: "Convolution10"
  type: "Convolution"
  bottom: "Pooling9"
  top: "Convolution10"
  param {
    name: "conv2_w"
    lr_mult: 1
  }
  param {
    name: "conv2_b"
    lr_mult: 2
  }
  convolution_param {
    num_output: 50
    kernel_size: 5
    stride: 1
    weight_filler {
      type: "xavier"
    }
    bias_filler {
      type: "constant"
    }
  }
}
layer {
  name: "Pooling10"
  type: "Pooling"
  bottom: "Convolution10"
  top: "Pooling10"
  pooling_param {
    pool: MAX
    kernel_size: 2
    stride: 2
  }
}
layer {
  name: "InnerProduct13"
  type: "InnerProduct"
  bottom: "Pooling10"
  top: "InnerProduct13"
  param {
    name: "ip1_w"
    lr_mult: 1
  }
  param {
    name: "ip1_b"
    lr_mult: 2
  }
  inner_product_param {
    num_output: 500
    weight_filler {
      type: "xavier"
    }
    bias_filler {
      type: "constant"
    }
  }
}
layer {
  name: "ReLU9"
  type: "ReLU"
  bottom: "InnerProduct13"
  top: "InnerProduct13"
}
layer {
  name: "InnerProduct14"
  type: "InnerProduct"
  bottom: "InnerProduct13"
  top: "InnerProduct14"
  param {
    name: "ip2_w"
    lr_mult: 1
  }
  param {
    name: "ip2_b"
    lr_mult: 2
  }
  inner_product_param {
    num_output: 500
    weight_filler {
      type: "xavier"
    }
    bias_filler {
      type: "constant"
    }
  }
}
layer {
  name: "Convolution11"
  type: "Convolution"
  bottom: "c22"
  top: "Convolution11"
  param {
    name: "conv1_w"
    lr_mult: 1
  }
  param {
    name: "conv1_b"
    lr_mult: 2
  }
  convolution_param {
    num_output: 20
    kernel_size: 5
    stride: 1
    weight_filler {
      type: "xavier"
    }
    bias_filler {
      type: "constant"
    }
  }
}
layer {
  name: "Pooling11"
  type: "Pooling"
  bottom: "Convolution11"
  top: "Pooling11"
  pooling_param {
    pool: MAX
    kernel_size: 2
    stride: 2
  }
}
layer {
  name: "Convolution12"
  type: "Convolution"
  bottom: "Pooling11"
  top: "Convolution12"
  param {
    name: "conv2_w"
    lr_mult: 1
  }
  param {
    name: "conv2_b"
    lr_mult: 2
  }
  convolution_param {
    num_output: 50
    kernel_size: 5
    stride: 1
    weight_filler {
      type: "xavier"
    }
    bias_filler {
      type: "constant"
    }
  }
}
layer {
  name: "Pooling12"
  type: "Pooling"
  bottom: "Convolution12"
  top: "Pooling12"
  pooling_param {
    pool: MAX
    kernel_size: 2
    stride: 2
  }
}
layer {
  name: "InnerProduct15"
  type: "InnerProduct"
  bottom: "Pooling12"
  top: "InnerProduct15"
  param {
    name: "ip1_w"
    lr_mult: 1
  }
  param {
    name: "ip1_b"
    lr_mult: 2
  }
  inner_product_param {
    num_output: 500
    weight_filler {
      type: "xavier"
    }
    bias_filler {
      type: "constant"
    }
  }
}
layer {
  name: "ReLU10"
  type: "ReLU"
  bottom: "InnerProduct15"
  top: "InnerProduct15"
}
layer {
  name: "InnerProduct16"
  type: "InnerProduct"
  bottom: "InnerProduct15"
  top: "InnerProduct16"
  param {
    name: "ip2_w"
    lr_mult: 1
  }
  param {
    name: "ip2_b"
    lr_mult: 2
  }
  inner_product_param {
    num_output: 500
    weight_filler {
      type: "xavier"
    }
    bias_filler {
      type: "constant"
    }
  }
}
layer {
  name: "Concat3"
  type: "Concat"
  bottom: "InnerProduct14"
  bottom: "InnerProduct16"
  top: "Concat3"
  concat_param {
    axis: 1
  }
}
layer {
  name: "InnerProduct17"
  type: "InnerProduct"
  bottom: "Concat3"
  top: "InnerProduct17"
  param {
    name: "fc1_w"
    lr_mult: 1
  }
  param {
    name: "fc1_b"
    lr_mult: 2
  }
  inner_product_param {
    num_output: 512
    weight_filler {
      type: "xavier"
    }
    bias_filler {
      type: "constant"
    }
  }
}
layer {
  name: "ReLU11"
  type: "ReLU"
  bottom: "InnerProduct17"
  top: "InnerProduct17"
}
layer {
  name: "InnerProduct18"
  type: "InnerProduct"
  bottom: "InnerProduct17"
  top: "InnerProduct18"
  param {
    name: "fc2_w"
    lr_mult: 1
  }
  param {
    name: "fc2_b"
    lr_mult: 2
  }
  inner_product_param {
    num_output: 512
    weight_filler {
      type: "xavier"
    }
    bias_filler {
      type: "constant"
    }
  }
}
layer {
  name: "ReLU12"
  type: "ReLU"
  bottom: "InnerProduct18"
  top: "InnerProduct18"
}
layer {
  name: "dt2"
  type: "InnerProduct"
  bottom: "InnerProduct18"
  top: "dt2"
  param {
    name: "fc3_w"
    lr_mult: 1
  }
  param {
    name: "fc3_b"
    lr_mult: 2
  }
  inner_product_param {
    num_output: 2
    weight_filler {
      type: "xavier"
    }
    bias_filler {
      type: "constant"
    }
  }
}
layer {
  name: "Convolution13"
  type: "Convolution"
  bottom: "p1"
  top: "Convolution13"
  param {
    name: "conv1_w"
    lr_mult: 1
  }
  param {
    name: "conv1_b"
    lr_mult: 2
  }
  convolution_param {
    num_output: 20
    kernel_size: 5
    stride: 1
    weight_filler {
      type: "xavier"
    }
    bias_filler {
      type: "constant"
    }
  }
}
layer {
  name: "Pooling13"
  type: "Pooling"
  bottom: "Convolution13"
  top: "Pooling13"
  pooling_param {
    pool: MAX
    kernel_size: 2
    stride: 2
  }
}
layer {
  name: "Convolution14"
  type: "Convolution"
  bottom: "Pooling13"
  top: "Convolution14"
  param {
    name: "conv2_w"
    lr_mult: 1
  }
  param {
    name: "conv2_b"
    lr_mult: 2
  }
  convolution_param {
    num_output: 50
    kernel_size: 5
    stride: 1
    weight_filler {
      type: "xavier"
    }
    bias_filler {
      type: "constant"
    }
  }
}
layer {
  name: "Pooling14"
  type: "Pooling"
  bottom: "Convolution14"
  top: "Pooling14"
  pooling_param {
    pool: MAX
    kernel_size: 2
    stride: 2
  }
}
layer {
  name: "InnerProduct19"
  type: "InnerProduct"
  bottom: "Pooling14"
  top: "InnerProduct19"
  param {
    name: "ip1_w"
    lr_mult: 1
  }
  param {
    name: "ip1_b"
    lr_mult: 2
  }
  inner_product_param {
    num_output: 500
    weight_filler {
      type: "xavier"
    }
    bias_filler {
      type: "constant"
    }
  }
}
layer {
  name: "ReLU13"
  type: "ReLU"
  bottom: "InnerProduct19"
  top: "InnerProduct19"
}
layer {
  name: "InnerProduct20"
  type: "InnerProduct"
  bottom: "InnerProduct19"
  top: "InnerProduct20"
  param {
    name: "ip2_w"
    lr_mult: 1
  }
  param {
    name: "ip2_b"
    lr_mult: 2
  }
  inner_product_param {
    num_output: 500
    weight_filler {
      type: "xavier"
    }
    bias_filler {
      type: "constant"
    }
  }
}
layer {
  name: "Convolution15"
  type: "Convolution"
  bottom: "c23"
  top: "Convolution15"
  param {
    name: "conv1_w"
    lr_mult: 1
  }
  param {
    name: "conv1_b"
    lr_mult: 2
  }
  convolution_param {
    num_output: 20
    kernel_size: 5
    stride: 1
    weight_filler {
      type: "xavier"
    }
    bias_filler {
      type: "constant"
    }
  }
}
layer {
  name: "Pooling15"
  type: "Pooling"
  bottom: "Convolution15"
  top: "Pooling15"
  pooling_param {
    pool: MAX
    kernel_size: 2
    stride: 2
  }
}
layer {
  name: "Convolution16"
  type: "Convolution"
  bottom: "Pooling15"
  top: "Convolution16"
  param {
    name: "conv2_w"
    lr_mult: 1
  }
  param {
    name: "conv2_b"
    lr_mult: 2
  }
  convolution_param {
    num_output: 50
    kernel_size: 5
    stride: 1
    weight_filler {
      type: "xavier"
    }
    bias_filler {
      type: "constant"
    }
  }
}
layer {
  name: "Pooling16"
  type: "Pooling"
  bottom: "Convolution16"
  top: "Pooling16"
  pooling_param {
    pool: MAX
    kernel_size: 2
    stride: 2
  }
}
layer {
  name: "InnerProduct21"
  type: "InnerProduct"
  bottom: "Pooling16"
  top: "InnerProduct21"
  param {
    name: "ip1_w"
    lr_mult: 1
  }
  param {
    name: "ip1_b"
    lr_mult: 2
  }
  inner_product_param {
    num_output: 500
    weight_filler {
      type: "xavier"
    }
    bias_filler {
      type: "constant"
    }
  }
}
layer {
  name: "ReLU14"
  type: "ReLU"
  bottom: "InnerProduct21"
  top: "InnerProduct21"
}
layer {
  name: "InnerProduct22"
  type: "InnerProduct"
  bottom: "InnerProduct21"
  top: "InnerProduct22"
  param {
    name: "ip2_w"
    lr_mult: 1
  }
  param {
    name: "ip2_b"
    lr_mult: 2
  }
  inner_product_param {
    num_output: 500
    weight_filler {
      type: "xavier"
    }
    bias_filler {
      type: "constant"
    }
  }
}
layer {
  name: "Concat4"
  type: "Concat"
  bottom: "InnerProduct20"
  bottom: "InnerProduct22"
  top: "Concat4"
  concat_param {
    axis: 1
  }
}
layer {
  name: "InnerProduct23"
  type: "InnerProduct"
  bottom: "Concat4"
  top: "InnerProduct23"
  param {
    name: "fc1_w"
    lr_mult: 1
  }
  param {
    name: "fc1_b"
    lr_mult: 2
  }
  inner_product_param {
    num_output: 512
    weight_filler {
      type: "xavier"
    }
    bias_filler {
      type: "constant"
    }
  }
}
layer {
  name: "ReLU15"
  type: "ReLU"
  bottom: "InnerProduct23"
  top: "InnerProduct23"
}
layer {
  name: "InnerProduct24"
  type: "InnerProduct"
  bottom: "InnerProduct23"
  top: "InnerProduct24"
  param {
    name: "fc2_w"
    lr_mult: 1
  }
  param {
    name: "fc2_b"
    lr_mult: 2
  }
  inner_product_param {
    num_output: 512
    weight_filler {
      type: "xavier"
    }
    bias_filler {
      type: "constant"
    }
  }
}
layer {
  name: "ReLU16"
  type: "ReLU"
  bottom: "InnerProduct24"
  top: "InnerProduct24"
}
layer {
  name: "dt3"
  type: "InnerProduct"
  bottom: "InnerProduct24"
  top: "dt3"
  param {
    name: "fc3_w"
    lr_mult: 1
  }
  param {
    name: "fc3_b"
    lr_mult: 2
  }
  inner_product_param {
    num_output: 2
    weight_filler {
      type: "xavier"
    }
    bias_filler {
      type: "constant"
    }
  }
}
layer {
  name: "Convolution17"
  type: "Convolution"
  bottom: "p1"
  top: "Convolution17"
  param {
    name: "conv1_w"
    lr_mult: 1
  }
  param {
    name: "conv1_b"
    lr_mult: 2
  }
  convolution_param {
    num_output: 20
    kernel_size: 5
    stride: 1
    weight_filler {
      type: "xavier"
    }
    bias_filler {
      type: "constant"
    }
  }
}
layer {
  name: "Pooling17"
  type: "Pooling"
  bottom: "Convolution17"
  top: "Pooling17"
  pooling_param {
    pool: MAX
    kernel_size: 2
    stride: 2
  }
}
layer {
  name: "Convolution18"
  type: "Convolution"
  bottom: "Pooling17"
  top: "Convolution18"
  param {
    name: "conv2_w"
    lr_mult: 1
  }
  param {
    name: "conv2_b"
    lr_mult: 2
  }
  convolution_param {
    num_output: 50
    kernel_size: 5
    stride: 1
    weight_filler {
      type: "xavier"
    }
    bias_filler {
      type: "constant"
    }
  }
}
layer {
  name: "Pooling18"
  type: "Pooling"
  bottom: "Convolution18"
  top: "Pooling18"
  pooling_param {
    pool: MAX
    kernel_size: 2
    stride: 2
  }
}
layer {
  name: "InnerProduct25"
  type: "InnerProduct"
  bottom: "Pooling18"
  top: "InnerProduct25"
  param {
    name: "ip1_w"
    lr_mult: 1
  }
  param {
    name: "ip1_b"
    lr_mult: 2
  }
  inner_product_param {
    num_output: 500
    weight_filler {
      type: "xavier"
    }
    bias_filler {
      type: "constant"
    }
  }
}
layer {
  name: "ReLU17"
  type: "ReLU"
  bottom: "InnerProduct25"
  top: "InnerProduct25"
}
layer {
  name: "InnerProduct26"
  type: "InnerProduct"
  bottom: "InnerProduct25"
  top: "InnerProduct26"
  param {
    name: "ip2_w"
    lr_mult: 1
  }
  param {
    name: "ip2_b"
    lr_mult: 2
  }
  inner_product_param {
    num_output: 500
    weight_filler {
      type: "xavier"
    }
    bias_filler {
      type: "constant"
    }
  }
}
layer {
  name: "Convolution19"
  type: "Convolution"
  bottom: "c24"
  top: "Convolution19"
  param {
    name: "conv1_w"
    lr_mult: 1
  }
  param {
    name: "conv1_b"
    lr_mult: 2
  }
  convolution_param {
    num_output: 20
    kernel_size: 5
    stride: 1
    weight_filler {
      type: "xavier"
    }
    bias_filler {
      type: "constant"
    }
  }
}
layer {
  name: "Pooling19"
  type: "Pooling"
  bottom: "Convolution19"
  top: "Pooling19"
  pooling_param {
    pool: MAX
    kernel_size: 2
    stride: 2
  }
}
layer {
  name: "Convolution20"
  type: "Convolution"
  bottom: "Pooling19"
  top: "Convolution20"
  param {
    name: "conv2_w"
    lr_mult: 1
  }
  param {
    name: "conv2_b"
    lr_mult: 2
  }
  convolution_param {
    num_output: 50
    kernel_size: 5
    stride: 1
    weight_filler {
      type: "xavier"
    }
    bias_filler {
      type: "constant"
    }
  }
}
layer {
  name: "Pooling20"
  type: "Pooling"
  bottom: "Convolution20"
  top: "Pooling20"
  pooling_param {
    pool: MAX
    kernel_size: 2
    stride: 2
  }
}
layer {
  name: "InnerProduct27"
  type: "InnerProduct"
  bottom: "Pooling20"
  top: "InnerProduct27"
  param {
    name: "ip1_w"
    lr_mult: 1
  }
  param {
    name: "ip1_b"
    lr_mult: 2
  }
  inner_product_param {
    num_output: 500
    weight_filler {
      type: "xavier"
    }
    bias_filler {
      type: "const
I0726 00:27:06.354228 10943 layer_factory.hpp:77] Creating layer data
I0726 00:27:06.354815 10943 net.cpp:91] Creating Layer data
I0726 00:27:06.354828 10943 net.cpp:399] data -> data
I0726 00:27:06.354853 10943 net.cpp:399] data -> label
I0726 00:27:06.354872 10943 data_transformer.cpp:25] Loading mean file from: examples/scene/scene_mean.binaryproto
I0726 00:27:06.355957 10947 db_lmdb.cpp:35] Opened lmdb examples/scene/train_pairs.lmdb
I0726 00:27:06.356078 10943 data_layer.cpp:41] output data size: 10,6,128,128
I0726 00:27:06.360188 10943 net.cpp:141] Setting up data
I0726 00:27:06.360244 10943 net.cpp:148] Top shape: 10 6 128 128 (983040)
I0726 00:27:06.360260 10943 net.cpp:148] Top shape: 10 (10)
I0726 00:27:06.360268 10943 net.cpp:156] Memory required for data: 3932200
I0726 00:27:06.360296 10943 layer_factory.hpp:77] Creating layer label_data_1_split
I0726 00:27:06.360321 10943 net.cpp:91] Creating Layer label_data_1_split
I0726 00:27:06.360333 10943 net.cpp:425] label_data_1_split <- label
I0726 00:27:06.360357 10943 net.cpp:399] label_data_1_split -> label_data_1_split_0
I0726 00:27:06.360374 10943 net.cpp:399] label_data_1_split -> label_data_1_split_1
I0726 00:27:06.360402 10943 net.cpp:141] Setting up label_data_1_split
I0726 00:27:06.360412 10943 net.cpp:148] Top shape: 10 (10)
I0726 00:27:06.360419 10943 net.cpp:148] Top shape: 10 (10)
I0726 00:27:06.360422 10943 net.cpp:156] Memory required for data: 3932280
I0726 00:27:06.360427 10943 layer_factory.hpp:77] Creating layer i1
I0726 00:27:06.360446 10943 net.cpp:91] Creating Layer i1
I0726 00:27:06.360451 10943 net.cpp:425] i1 <- data
I0726 00:27:06.360460 10943 net.cpp:399] i1 -> i1
I0726 00:27:06.360471 10943 net.cpp:399] i1 -> i2
I0726 00:27:06.360487 10943 net.cpp:141] Setting up i1
I0726 00:27:06.360494 10943 net.cpp:148] Top shape: 10 3 128 128 (491520)
I0726 00:27:06.360501 10943 net.cpp:148] Top shape: 10 3 128 128 (491520)
I0726 00:27:06.360504 10943 net.cpp:156] Memory required for data: 7864440
I0726 00:27:06.360509 10943 layer_factory.hpp:77] Creating layer i1_i1_0_split
I0726 00:27:06.360518 10943 net.cpp:91] Creating Layer i1_i1_0_split
I0726 00:27:06.360522 10943 net.cpp:425] i1_i1_0_split <- i1
I0726 00:27:06.360529 10943 net.cpp:399] i1_i1_0_split -> i1_i1_0_split_0
I0726 00:27:06.360554 10943 net.cpp:399] i1_i1_0_split -> i1_i1_0_split_1
I0726 00:27:06.360563 10943 net.cpp:399] i1_i1_0_split -> i1_i1_0_split_2
I0726 00:27:06.360572 10943 net.cpp:399] i1_i1_0_split -> i1_i1_0_split_3
I0726 00:27:06.360577 10943 net.cpp:399] i1_i1_0_split -> i1_i1_0_split_4
I0726 00:27:06.360584 10943 net.cpp:399] i1_i1_0_split -> i1_i1_0_split_5
I0726 00:27:06.360590 10943 net.cpp:399] i1_i1_0_split -> i1_i1_0_split_6
I0726 00:27:06.360597 10943 net.cpp:399] i1_i1_0_split -> i1_i1_0_split_7
I0726 00:27:06.360604 10943 net.cpp:399] i1_i1_0_split -> i1_i1_0_split_8
I0726 00:27:06.360610 10943 net.cpp:399] i1_i1_0_split -> i1_i1_0_split_9
I0726 00:27:06.360622 10943 net.cpp:141] Setting up i1_i1_0_split
I0726 00:27:06.360628 10943 net.cpp:148] Top shape: 10 3 128 128 (491520)
I0726 00:27:06.360635 10943 net.cpp:148] Top shape: 10 3 128 128 (491520)
I0726 00:27:06.360640 10943 net.cpp:148] Top shape: 10 3 128 128 (491520)
I0726 00:27:06.360644 10943 net.cpp:148] Top shape: 10 3 128 128 (491520)
I0726 00:27:06.360649 10943 net.cpp:148] Top shape: 10 3 128 128 (491520)
I0726 00:27:06.360654 10943 net.cpp:148] Top shape: 10 3 128 128 (491520)
I0726 00:27:06.360658 10943 net.cpp:148] Top shape: 10 3 128 128 (491520)
I0726 00:27:06.360663 10943 net.cpp:148] Top shape: 10 3 128 128 (491520)
I0726 00:27:06.360667 10943 net.cpp:148] Top shape: 10 3 128 128 (491520)
I0726 00:27:06.360672 10943 net.cpp:148] Top shape: 10 3 128 128 (491520)
I0726 00:27:06.360676 10943 net.cpp:156] Memory required for data: 27525240
I0726 00:27:06.360680 10943 layer_factory.hpp:77] Creating layer i2_i1_1_split
I0726 00:27:06.360689 10943 net.cpp:91] Creating Layer i2_i1_1_split
I0726 00:27:06.360694 10943 net.cpp:425] i2_i1_1_split <- i2
I0726 00:27:06.360702 10943 net.cpp:399] i2_i1_1_split -> i2_i1_1_split_0
I0726 00:27:06.360713 10943 net.cpp:399] i2_i1_1_split -> i2_i1_1_split_1
I0726 00:27:06.360719 10943 net.cpp:399] i2_i1_1_split -> i2_i1_1_split_2
I0726 00:27:06.360726 10943 net.cpp:399] i2_i1_1_split -> i2_i1_1_split_3
I0726 00:27:06.360733 10943 net.cpp:399] i2_i1_1_split -> i2_i1_1_split_4
I0726 00:27:06.360740 10943 net.cpp:399] i2_i1_1_split -> i2_i1_1_split_5
I0726 00:27:06.360748 10943 net.cpp:399] i2_i1_1_split -> i2_i1_1_split_6
I0726 00:27:06.360754 10943 net.cpp:399] i2_i1_1_split -> i2_i1_1_split_7
I0726 00:27:06.360762 10943 net.cpp:399] i2_i1_1_split -> i2_i1_1_split_8
I0726 00:27:06.360769 10943 net.cpp:399] i2_i1_1_split -> i2_i1_1_split_9
I0726 00:27:06.360783 10943 net.cpp:141] Setting up i2_i1_1_split
I0726 00:27:06.360791 10943 net.cpp:148] Top shape: 10 3 128 128 (491520)
I0726 00:27:06.360796 10943 net.cpp:148] Top shape: 10 3 128 128 (491520)
I0726 00:27:06.360801 10943 net.cpp:148] Top shape: 10 3 128 128 (491520)
I0726 00:27:06.360807 10943 net.cpp:148] Top shape: 10 3 128 128 (491520)
I0726 00:27:06.360813 10943 net.cpp:148] Top shape: 10 3 128 128 (491520)
I0726 00:27:06.360819 10943 net.cpp:148] Top shape: 10 3 128 128 (491520)
I0726 00:27:06.360826 10943 net.cpp:148] Top shape: 10 3 128 128 (491520)
I0726 00:27:06.360831 10943 net.cpp:148] Top shape: 10 3 128 128 (491520)
I0726 00:27:06.360836 10943 net.cpp:148] Top shape: 10 3 128 128 (491520)
I0726 00:27:06.360841 10943 net.cpp:148] Top shape: 10 3 128 128 (491520)
I0726 00:27:06.360843 10943 net.cpp:156] Memory required for data: 47186040
I0726 00:27:06.360848 10943 layer_factory.hpp:77] Creating layer p1
I0726 00:27:06.360862 10943 net.cpp:91] Creating Layer p1
I0726 00:27:06.360868 10943 net.cpp:425] p1 <- i1_i1_0_split_0
I0726 00:27:06.360878 10943 net.cpp:399] p1 -> p1
I0726 00:27:06.360920 10943 net.cpp:141] Setting up p1
I0726 00:27:06.360927 10943 net.cpp:148] Top shape: 10 3 64 64 (122880)
I0726 00:27:06.360931 10943 net.cpp:156] Memory required for data: 47677560
I0726 00:27:06.360936 10943 layer_factory.hpp:77] Creating layer p1_p1_0_split
I0726 00:27:06.360945 10943 net.cpp:91] Creating Layer p1_p1_0_split
I0726 00:27:06.360950 10943 net.cpp:425] p1_p1_0_split <- p1
I0726 00:27:06.360957 10943 net.cpp:399] p1_p1_0_split -> p1_p1_0_split_0
I0726 00:27:06.360997 10943 net.cpp:399] p1_p1_0_split -> p1_p1_0_split_1
I0726 00:27:06.361009 10943 net.cpp:399] p1_p1_0_split -> p1_p1_0_split_2
I0726 00:27:06.361016 10943 net.cpp:399] p1_p1_0_split -> p1_p1_0_split_3
I0726 00:27:06.361023 10943 net.cpp:399] p1_p1_0_split -> p1_p1_0_split_4
I0726 00:27:06.361030 10943 net.cpp:399] p1_p1_0_split -> p1_p1_0_split_5
I0726 00:27:06.361042 10943 net.cpp:399] p1_p1_0_split -> p1_p1_0_split_6
I0726 00:27:06.361049 10943 net.cpp:399] p1_p1_0_split -> p1_p1_0_split_7
I0726 00:27:06.361055 10943 net.cpp:399] p1_p1_0_split -> p1_p1_0_split_8
I0726 00:27:06.361062 10943 net.cpp:399] p1_p1_0_split -> p1_p1_0_split_9
I0726 00:27:06.361074 10943 net.cpp:141] Setting up p1_p1_0_split
I0726 00:27:06.361083 10943 net.cpp:148] Top shape: 10 3 64 64 (122880)
I0726 00:27:06.361088 10943 net.cpp:148] Top shape: 10 3 64 64 (122880)
I0726 00:27:06.361091 10943 net.cpp:148] Top shape: 10 3 64 64 (122880)
I0726 00:27:06.361096 10943 net.cpp:148] Top shape: 10 3 64 64 (122880)
I0726 00:27:06.361101 10943 net.cpp:148] Top shape: 10 3 64 64 (122880)
I0726 00:27:06.361107 10943 net.cpp:148] Top shape: 10 3 64 64 (122880)
I0726 00:27:06.361112 10943 net.cpp:148] Top shape: 10 3 64 64 (122880)
I0726 00:27:06.361117 10943 net.cpp:148] Top shape: 10 3 64 64 (122880)
I0726 00:27:06.361122 10943 net.cpp:148] Top shape: 10 3 64 64 (122880)
I0726 00:27:06.361129 10943 net.cpp:148] Top shape: 10 3 64 64 (122880)
I0726 00:27:06.361132 10943 net.cpp:156] Memory required for data: 52592760
I0726 00:27:06.361136 10943 layer_factory.hpp:77] Creating layer p2
I0726 00:27:06.361147 10943 net.cpp:91] Creating Layer p2
I0726 00:27:06.361152 10943 net.cpp:425] p2 <- i2_i1_1_split_0
I0726 00:27:06.361160 10943 net.cpp:399] p2 -> p2
I0726 00:27:06.361172 10943 net.cpp:141] Setting up p2
I0726 00:27:06.361178 10943 net.cpp:148] Top shape: 10 3 64 64 (122880)
I0726 00:27:06.361182 10943 net.cpp:156] Memory required for data: 53084280
I0726 00:27:06.361187 10943 layer_factory.hpp:77] Creating layer p2_p2_0_split
I0726 00:27:06.361198 10943 net.cpp:91] Creating Layer p2_p2_0_split
I0726 00:27:06.361204 10943 net.cpp:425] p2_p2_0_split <- p2
I0726 00:27:06.361212 10943 net.cpp:399] p2_p2_0_split -> p2_p2_0_split_0
I0726 00:27:06.361219 10943 net.cpp:399] p2_p2_0_split -> p2_p2_0_split_1
I0726 00:27:06.361232 10943 net.cpp:399] p2_p2_0_split -> p2_p2_0_split_2
I0726 00:27:06.361238 10943 net.cpp:399] p2_p2_0_split -> p2_p2_0_split_3
I0726 00:27:06.361243 10943 net.cpp:399] p2_p2_0_split -> p2_p2_0_split_4
I0726 00:27:06.361250 10943 net.cpp:399] p2_p2_0_split -> p2_p2_0_split_5
I0726 00:27:06.361256 10943 net.cpp:399] p2_p2_0_split -> p2_p2_0_split_6
I0726 00:27:06.361263 10943 net.cpp:399] p2_p2_0_split -> p2_p2_0_split_7
I0726 00:27:06.361269 10943 net.cpp:399] p2_p2_0_split -> p2_p2_0_split_8
I0726 00:27:06.363314 10943 net.cpp:399] p2_p2_0_split -> p2_p2_0_split_9
I0726 00:27:06.363381 10943 net.cpp:141] Setting up p2_p2_0_split
I0726 00:27:06.363396 10943 net.cpp:148] Top shape: 10 3 64 64 (122880)
I0726 00:27:06.363404 10943 net.cpp:148] Top shape: 10 3 64 64 (122880)
I0726 00:27:06.363409 10943 net.cpp:148] Top shape: 10 3 64 64 (122880)
I0726 00:27:06.363415 10943 net.cpp:148] Top shape: 10 3 64 64 (122880)
I0726 00:27:06.363418 10943 net.cpp:148] Top shape: 10 3 64 64 (122880)
I0726 00:27:06.363423 10943 net.cpp:148] Top shape: 10 3 64 64 (122880)
I0726 00:27:06.363427 10943 net.cpp:148] Top shape: 10 3 64 64 (122880)
I0726 00:27:06.363431 10943 net.cpp:148] Top shape: 10 3 64 64 (122880)
I0726 00:27:06.363435 10943 net.cpp:148] Top shape: 10 3 64 64 (122880)
I0726 00:27:06.363440 10943 net.cpp:148] Top shape: 10 3 64 64 (122880)
I0726 00:27:06.363443 10943 net.cpp:156] Memory required for data: 57999480
I0726 00:27:06.363450 10943 layer_factory.hpp:77] Creating layer Input1
I0726 00:27:06.363474 10943 net.cpp:91] Creating Layer Input1
I0726 00:27:06.363482 10943 net.cpp:399] Input1 -> Input1
I0726 00:27:06.363502 10943 net.cpp:141] Setting up Input1
I0726 00:27:06.363509 10943 net.cpp:148] Top shape: 10 3 64 64 (122880)
I0726 00:27:06.363546 10943 net.cpp:156] Memory required for data: 58491000
I0726 00:27:06.363551 10943 layer_factory.hpp:77] Creating layer c11
I0726 00:27:06.363561 10943 net.cpp:91] Creating Layer c11
I0726 00:27:06.363567 10943 net.cpp:425] c11 <- i1_i1_0_split_1
I0726 00:27:06.363574 10943 net.cpp:425] c11 <- Input1
I0726 00:27:06.363581 10943 net.cpp:399] c11 -> c11
I0726 00:27:06.363595 10943 net.cpp:141] Setting up c11
I0726 00:27:06.363601 10943 net.cpp:148] Top shape: 10 3 64 64 (122880)
I0726 00:27:06.363605 10943 net.cpp:156] Memory required for data: 58982520
I0726 00:27:06.363608 10943 layer_factory.hpp:77] Creating layer Input2
I0726 00:27:06.363615 10943 net.cpp:91] Creating Layer Input2
I0726 00:27:06.363620 10943 net.cpp:399] Input2 -> Input2
I0726 00:27:06.363628 10943 net.cpp:141] Setting up Input2
I0726 00:27:06.363632 10943 net.cpp:148] Top shape: 10 3 64 64 (122880)
I0726 00:27:06.363636 10943 net.cpp:156] Memory required for data: 59474040
I0726 00:27:06.363638 10943 layer_factory.hpp:77] Creating layer c12
I0726 00:27:06.363646 10943 net.cpp:91] Creating Layer c12
I0726 00:27:06.363649 10943 net.cpp:425] c12 <- i1_i1_0_split_2
I0726 00:27:06.363654 10943 net.cpp:425] c12 <- Input2
I0726 00:27:06.363658 10943 net.cpp:399] c12 -> c12
I0726 00:27:06.363665 10943 net.cpp:141] Setting up c12
I0726 00:27:06.363670 10943 net.cpp:148] Top shape: 10 3 64 64 (122880)
I0726 00:27:06.363673 10943 net.cpp:156] Memory required for data: 59965560
I0726 00:27:06.363677 10943 layer_factory.hpp:77] Creating layer Input3
I0726 00:27:06.363682 10943 net.cpp:91] Creating Layer Input3
I0726 00:27:06.363687 10943 net.cpp:399] Input3 -> Input3
I0726 00:27:06.363693 10943 net.cpp:141] Setting up Input3
I0726 00:27:06.363698 10943 net.cpp:148] Top shape: 10 3 64 64 (122880)
I0726 00:27:06.363700 10943 net.cpp:156] Memory required for data: 60457080
I0726 00:27:06.363703 10943 layer_factory.hpp:77] Creating layer c13
I0726 00:27:06.363746 10943 net.cpp:91] Creating Layer c13
I0726 00:27:06.363754 10943 net.cpp:425] c13 <- i1_i1_0_split_3
I0726 00:27:06.363759 10943 net.cpp:425] c13 <- Input3
I0726 00:27:06.363765 10943 net.cpp:399] c13 -> c13
I0726 00:27:06.363775 10943 net.cpp:141] Setting up c13
I0726 00:27:06.363780 10943 net.cpp:148] Top shape: 10 3 64 64 (122880)
I0726 00:27:06.363785 10943 net.cpp:156] Memory required for data: 60948600
I0726 00:27:06.363788 10943 layer_factory.hpp:77] Creating layer Input4
I0726 00:27:06.363837 10943 net.cpp:91] Creating Layer Input4
I0726 00:27:06.363847 10943 net.cpp:399] Input4 -> Input4
I0726 00:27:06.363857 10943 net.cpp:141] Setting up Input4
I0726 00:27:06.363862 10943 net.cpp:148] Top shape: 10 3 64 64 (122880)
I0726 00:27:06.363865 10943 net.cpp:156] Memory required for data: 61440120
I0726 00:27:06.363868 10943 layer_factory.hpp:77] Creating layer c14
I0726 00:27:06.363878 10943 net.cpp:91] Creating Layer c14
I0726 00:27:06.363881 10943 net.cpp:425] c14 <- i1_i1_0_split_4
I0726 00:27:06.363886 10943 net.cpp:425] c14 <- Input4
I0726 00:27:06.363893 10943 net.cpp:399] c14 -> c14
I0726 00:27:06.363898 10943 net.cpp:141] Setting up c14
I0726 00:27:06.363903 10943 net.cpp:148] Top shape: 10 3 64 64 (122880)
I0726 00:27:06.363905 10943 net.cpp:156] Memory required for data: 61931640
I0726 00:27:06.363909 10943 layer_factory.hpp:77] Creating layer Input5
I0726 00:27:06.363914 10943 net.cpp:91] Creating Layer Input5
I0726 00:27:06.363919 10943 net.cpp:399] Input5 -> Input5
I0726 00:27:06.363924 10943 net.cpp:141] Setting up Input5
I0726 00:27:06.363929 10943 net.cpp:148] Top shape: 10 3 64 64 (122880)
I0726 00:27:06.363931 10943 net.cpp:156] Memory required for data: 62423160
I0726 00:27:06.363934 10943 layer_factory.hpp:77] Creating layer c15
I0726 00:27:06.363939 10943 net.cpp:91] Creating Layer c15
I0726 00:27:06.363941 10943 net.cpp:425] c15 <- i1_i1_0_split_5
I0726 00:27:06.363946 10943 net.cpp:425] c15 <- Input5
I0726 00:27:06.363951 10943 net.cpp:399] c15 -> c15
I0726 00:27:06.363957 10943 net.cpp:141] Setting up c15
I0726 00:27:06.363961 10943 net.cpp:148] Top shape: 10 3 64 64 (122880)
I0726 00:27:06.363986 10943 net.cpp:156] Memory required for data: 62914680
I0726 00:27:06.363989 10943 layer_factory.hpp:77] Creating layer Input6
I0726 00:27:06.363996 10943 net.cpp:91] Creating Layer Input6
I0726 00:27:06.363999 10943 net.cpp:399] Input6 -> Input6
I0726 00:27:06.364006 10943 net.cpp:141] Setting up Input6
I0726 00:27:06.364011 10943 net.cpp:148] Top shape: 10 3 64 64 (122880)
I0726 00:27:06.364012 10943 net.cpp:156] Memory required for data: 63406200
I0726 00:27:06.364015 10943 layer_factory.hpp:77] Creating layer c16
I0726 00:27:06.364020 10943 net.cpp:91] Creating Layer c16
I0726 00:27:06.365167 10943 net.cpp:425] c16 <- i1_i1_0_split_6
I0726 00:27:06.365216 10943 net.cpp:425] c16 <- Input6
I0726 00:27:06.365237 10943 net.cpp:399] c16 -> c16
I0726 00:27:06.365262 10943 net.cpp:141] Setting up c16
I0726 00:27:06.365273 10943 net.cpp:148] Top shape: 10 3 64 64 (122880)
I0726 00:27:06.365278 10943 net.cpp:156] Memory required for data: 63897720
I0726 00:27:06.365284 10943 layer_factory.hpp:77] Creating layer Input7
I0726 00:27:06.365298 10943 net.cpp:91] Creating Layer Input7
I0726 00:27:06.365304 10943 net.cpp:399] Input7 -> Input7
I0726 00:27:06.365316 10943 net.cpp:141] Setting up Input7
I0726 00:27:06.365322 10943 net.cpp:148] Top shape: 10 3 64 64 (122880)
I0726 00:27:06.365326 10943 net.cpp:156] Memory required for data: 64389240
I0726 00:27:06.365330 10943 layer_factory.hpp:77] Creating layer c17
I0726 00:27:06.365339 10943 net.cpp:91] Creating Layer c17
I0726 00:27:06.365344 10943 net.cpp:425] c17 <- i1_i1_0_split_7
I0726 00:27:06.365350 10943 net.cpp:425] c17 <- Input7
I0726 00:27:06.365355 10943 net.cpp:399] c17 -> c17
I0726 00:27:06.365362 10943 net.cpp:141] Setting up c17
I0726 00:27:06.365367 10943 net.cpp:148] Top shape: 10 3 64 64 (122880)
I0726 00:27:06.365370 10943 net.cpp:156] Memory required for data: 64880760
I0726 00:27:06.365373 10943 layer_factory.hpp:77] Creating layer Input8
I0726 00:27:06.365380 10943 net.cpp:91] Creating Layer Input8
I0726 00:27:06.365383 10943 net.cpp:399] Input8 -> Input8
I0726 00:27:06.365388 10943 net.cpp:141] Setting up Input8
I0726 00:27:06.365393 10943 net.cpp:148] Top shape: 10 3 64 64 (122880)
I0726 00:27:06.365396 10943 net.cpp:156] Memory required for data: 65372280
I0726 00:27:06.365399 10943 layer_factory.hpp:77] Creating layer c18
I0726 00:27:06.365404 10943 net.cpp:91] Creating Layer c18
I0726 00:27:06.365408 10943 net.cpp:425] c18 <- i1_i1_0_split_8
I0726 00:27:06.365412 10943 net.cpp:425] c18 <- Input8
I0726 00:27:06.365417 10943 net.cpp:399] c18 -> c18
I0726 00:27:06.365424 10943 net.cpp:141] Setting up c18
I0726 00:27:06.365428 10943 net.cpp:148] Top shape: 10 3 64 64 (122880)
I0726 00:27:06.365430 10943 net.cpp:156] Memory required for data: 65863800
I0726 00:27:06.365433 10943 layer_factory.hpp:77] Creating layer Input9
I0726 00:27:06.365438 10943 net.cpp:91] Creating Layer Input9
I0726 00:27:06.365442 10943 net.cpp:399] Input9 -> Input9
I0726 00:27:06.365458 10943 net.cpp:141] Setting up Input9
I0726 00:27:06.365463 10943 net.cpp:148] Top shape: 10 3 64 64 (122880)
I0726 00:27:06.365465 10943 net.cpp:156] Memory required for data: 66355320
I0726 00:27:06.365468 10943 layer_factory.hpp:77] Creating layer c19
I0726 00:27:06.365473 10943 net.cpp:91] Creating Layer c19
I0726 00:27:06.365476 10943 net.cpp:425] c19 <- i1_i1_0_split_9
I0726 00:27:06.365481 10943 net.cpp:425] c19 <- Input9
I0726 00:27:06.365486 10943 net.cpp:399] c19 -> c19
I0726 00:27:06.365491 10943 net.cpp:141] Setting up c19
I0726 00:27:06.365495 10943 net.cpp:148] Top shape: 10 3 64 64 (122880)
I0726 00:27:06.365499 10943 net.cpp:156] Memory required for data: 66846840
I0726 00:27:06.365500 10943 layer_factory.hpp:77] Creating layer Input10
I0726 00:27:06.365505 10943 net.cpp:91] Creating Layer Input10
I0726 00:27:06.365509 10943 net.cpp:399] Input10 -> Input10
I0726 00:27:06.365514 10943 net.cpp:141] Setting up Input10
I0726 00:27:06.365519 10943 net.cpp:148] Top shape: 10 3 64 64 (122880)
I0726 00:27:06.365521 10943 net.cpp:156] Memory required for data: 67338360
I0726 00:27:06.365545 10943 layer_factory.hpp:77] Creating layer c21
I0726 00:27:06.365550 10943 net.cpp:91] Creating Layer c21
I0726 00:27:06.365555 10943 net.cpp:425] c21 <- i2_i1_1_split_1
I0726 00:27:06.365558 10943 net.cpp:425] c21 <- Input10
I0726 00:27:06.365563 10943 net.cpp:399] c21 -> c21
I0726 00:27:06.365569 10943 net.cpp:141] Setting up c21
I0726 00:27:06.365574 10943 net.cpp:148] Top shape: 10 3 64 64 (122880)
I0726 00:27:06.365576 10943 net.cpp:156] Memory required for data: 67829880
I0726 00:27:06.365579 10943 layer_factory.hpp:77] Creating layer Input11
I0726 00:27:06.365583 10943 net.cpp:91] Creating Layer Input11
I0726 00:27:06.365587 10943 net.cpp:399] Input11 -> Input11
I0726 00:27:06.365592 10943 net.cpp:141] Setting up Input11
I0726 00:27:06.365597 10943 net.cpp:148] Top shape: 10 3 64 64 (122880)
I0726 00:27:06.365598 10943 net.cpp:156] Memory required for data: 68321400
I0726 00:27:06.365602 10943 layer_factory.hpp:77] Creating layer c22
I0726 00:27:06.365605 10943 net.cpp:91] Creating Layer c22
I0726 00:27:06.365608 10943 net.cpp:425] c22 <- i2_i1_1_split_2
I0726 00:27:06.365612 10943 net.cpp:425] c22 <- Input11
I0726 00:27:06.365617 10943 net.cpp:399] c22 -> c22
I0726 00:27:06.365622 10943 net.cpp:141] Setting up c22
I0726 00:27:06.365625 10943 net.cpp:148] Top shape: 10 3 64 64 (122880)
I0726 00:27:06.365628 10943 net.cpp:156] Memory required for data: 68812920
I0726 00:27:06.365630 10943 layer_factory.hpp:77] Creating layer Input12
I0726 00:27:06.365635 10943 net.cpp:91] Creating Layer Input12
I0726 00:27:06.365638 10943 net.cpp:399] Input12 -> Input12
I0726 00:27:06.365643 10943 net.cpp:141] Setting up Input12
I0726 00:27:06.365646 10943 net.cpp:148] Top shape: 10 3 64 64 (122880)
I0726 00:27:06.365649 10943 net.cpp:156] Memory required for data: 69304440
I0726 00:27:06.365653 10943 layer_factory.hpp:77] Creating layer c23
I0726 00:27:06.365660 10943 net.cpp:91] Creating Layer c23
I0726 00:27:06.365664 10943 net.cpp:425] c23 <- i2_i1_1_split_3
I0726 00:27:06.365667 10943 net.cpp:425] c23 <- Input12
I0726 00:27:06.365671 10943 net.cpp:399] c23 -> c23
I0726 00:27:06.365677 10943 net.cpp:141] Setting up c23
I0726 00:27:06.365680 10943 net.cpp:148] Top shape: 10 3 64 64 (122880)
I0726 00:27:06.365684 10943 net.cpp:156] Memory required for data: 69795960
I0726 00:27:06.365687 10943 layer_factory.hpp:77] Creating layer Input13
I0726 00:27:06.365691 10943 net.cpp:91] Creating Layer Input13
I0726 00:27:06.365695 10943 net.cpp:399] Input13 -> Input13
I0726 00:27:06.365700 10943 net.cpp:141] Setting up Input13
I0726 00:27:06.365703 10943 net.cpp:148] Top shape: 10 3 64 64 (122880)
I0726 00:27:06.365706 10943 net.cpp:156] Memory required for data: 70287480
I0726 00:27:06.365710 10943 layer_factory.hpp:77] Creating layer c24
I0726 00:27:06.365713 10943 net.cpp:91] Creating Layer c24
I0726 00:27:06.365716 10943 net.cpp:425] c24 <- i2_i1_1_split_4
I0726 00:27:06.365720 10943 net.cpp:425] c24 <- Input13
I0726 00:27:06.365723 10943 net.cpp:399] c24 -> c24
I0726 00:27:06.365728 10943 net.cpp:141] Setting up c24
I0726 00:27:06.365732 10943 net.cpp:148] Top shape: 10 3 64 64 (122880)
I0726 00:27:06.365734 10943 net.cpp:156] Memory required for data: 70779000
I0726 00:27:06.365737 10943 layer_factory.hpp:77] Creating layer Input14
I0726 00:27:06.365741 10943 net.cpp:91] Creating Layer Input14
I0726 00:27:06.365744 10943 net.cpp:399] Input14 -> Input14
I0726 00:27:06.365749 10943 net.cpp:141] Setting up Input14
I0726 00:27:06.365752 10943 net.cpp:148] Top shape: 10 3 64 64 (122880)
I0726 00:27:06.365756 10943 net.cpp:156] Memory required for data: 71270520
I0726 00:27:06.365758 10943 layer_factory.hpp:77] Creating layer c25
I0726 00:27:06.365762 10943 net.cpp:91] Creating Layer c25
I0726 00:27:06.365766 10943 net.cpp:425] c25 <- i2_i1_1_split_5
I0726 00:27:06.365768 10943 net.cpp:425] c25 <- Input14
I0726 00:27:06.365773 10943 net.cpp:399] c25 -> c25
I0726 00:27:06.365777 10943 net.cpp:141] Setting up c25
I0726 00:27:06.365782 10943 net.cpp:148] Top shape: 10 3 64 64 (122880)
I0726 00:27:06.365795 10943 net.cpp:156] Memory required for data: 71762040
I0726 00:27:06.365798 10943 layer_factory.hpp:77] Creating layer Input15
I0726 00:27:06.365803 10943 net.cpp:91] Creating Layer Input15
I0726 00:27:06.365806 10943 net.cpp:399] Input15 -> Input15
I0726 00:27:06.365813 10943 net.cpp:141] Setting up Input15
I0726 00:27:06.365816 10943 net.cpp:148] Top shape: 10 3 64 64 (122880)
I0726 00:27:06.365819 10943 net.cpp:156] Memory required for data: 72253560
I0726 00:27:06.365823 10943 layer_factory.hpp:77] Creating layer c26
I0726 00:27:06.365826 10943 net.cpp:91] Creating Layer c26
I0726 00:27:06.365829 10943 net.cpp:425] c26 <- i2_i1_1_split_6
I0726 00:27:06.365833 10943 net.cpp:425] c26 <- Input15
I0726 00:27:06.365838 10943 net.cpp:399] c26 -> c26
I0726 00:27:06.365842 10943 net.cpp:141] Setting up c26
I0726 00:27:06.365846 10943 net.cpp:148] Top shape: 10 3 64 64 (122880)
I0726 00:27:06.365849 10943 net.cpp:156] Memory required for data: 72745080
I0726 00:27:06.365851 10943 layer_factory.hpp:77] Creating layer Input16
I0726 00:27:06.365855 10943 net.cpp:91] Creating Layer Input16
I0726 00:27:06.365859 10943 net.cpp:399] Input16 -> Input16
I0726 00:27:06.365864 10943 net.cpp:141] Setting up Input16
I0726 00:27:06.365866 10943 net.cpp:148] Top shape: 10 3 64 64 (122880)
I0726 00:27:06.365869 10943 net.cpp:156] Memory required for data: 73236600
I0726 00:27:06.365871 10943 layer_factory.hpp:77] Creating layer c27
I0726 00:27:06.365875 10943 net.cpp:91] Creating Layer c27
I0726 00:27:06.365878 10943 net.cpp:425] c27 <- i2_i1_1_split_7
I0726 00:27:06.365882 10943 net.cpp:425] c27 <- Input16
I0726 00:27:06.365886 10943 net.cpp:399] c27 -> c27
I0726 00:27:06.365891 10943 net.cpp:141] Setting up c27
I0726 00:27:06.365895 10943 net.cpp:148] Top shape: 10 3 64 64 (122880)
I0726 00:27:06.365897 10943 net.cpp:156] Memory required for data: 73728120
I0726 00:27:06.365900 10943 layer_factory.hpp:77] Creating layer Input17
I0726 00:27:06.365905 10943 net.cpp:91] Creating Layer Input17
I0726 00:27:06.365907 10943 net.cpp:399] Input17 -> Input17
I0726 00:27:06.365913 10943 net.cpp:141] Setting up Input17
I0726 00:27:06.365916 10943 net.cpp:148] Top shape: 10 3 64 64 (122880)
I0726 00:27:06.365921 10943 net.cpp:156] Memory required for data: 74219640
I0726 00:27:06.365923 10943 layer_factory.hpp:77] Creating layer c28
I0726 00:27:06.365927 10943 net.cpp:91] Creating Layer c28
I0726 00:27:06.365931 10943 net.cpp:425] c28 <- i2_i1_1_split_8
I0726 00:27:06.365936 10943 net.cpp:425] c28 <- Input17
I0726 00:27:06.365962 10943 net.cpp:399] c28 -> c28
I0726 00:27:06.365979 10943 net.cpp:141] Setting up c28
I0726 00:27:06.365984 10943 net.cpp:148] Top shape: 10 3 64 64 (122880)
I0726 00:27:06.365988 10943 net.cpp:156] Memory required for data: 74711160
I0726 00:27:06.365990 10943 layer_factory.hpp:77] Creating layer Input18
I0726 00:27:06.365995 10943 net.cpp:91] Creating Layer Input18
I0726 00:27:06.365999 10943 net.cpp:399] Input18 -> Input18
I0726 00:27:06.366003 10943 net.cpp:141] Setting up Input18
I0726 00:27:06.366008 10943 net.cpp:148] Top shape: 10 3 64 64 (122880)
I0726 00:27:06.366009 10943 net.cpp:156] Memory required for data: 75202680
I0726 00:27:06.366013 10943 layer_factory.hpp:77] Creating layer c29
I0726 00:27:06.366016 10943 net.cpp:91] Creating Layer c29
I0726 00:27:06.366019 10943 net.cpp:425] c29 <- i2_i1_1_split_9
I0726 00:27:06.366024 10943 net.cpp:425] c29 <- Input18
I0726 00:27:06.366030 10943 net.cpp:399] c29 -> c29
I0726 00:27:06.366035 10943 net.cpp:141] Setting up c29
I0726 00:27:06.366039 10943 net.cpp:148] Top shape: 10 3 64 64 (122880)
I0726 00:27:06.366041 10943 net.cpp:156] Memory required for data: 75694200
I0726 00:27:06.366044 10943 layer_factory.hpp:77] Creating layer Convolution1
I0726 00:27:06.366062 10943 net.cpp:91] Creating Layer Convolution1
I0726 00:27:06.366066 10943 net.cpp:425] Convolution1 <- p1_p1_0_split_0
I0726 00:27:06.366072 10943 net.cpp:399] Convolution1 -> Convolution1
I0726 00:27:06.366235 10943 net.cpp:141] Setting up Convolution1
I0726 00:27:06.366250 10943 net.cpp:148] Top shape: 10 20 60 60 (720000)
I0726 00:27:06.366271 10943 net.cpp:156] Memory required for data: 78574200
I0726 00:27:06.366284 10943 layer_factory.hpp:77] Creating layer Pooling1
I0726 00:27:06.366295 10943 net.cpp:91] Creating Layer Pooling1
I0726 00:27:06.366300 10943 net.cpp:425] Pooling1 <- Convolution1
I0726 00:27:06.366307 10943 net.cpp:399] Pooling1 -> Pooling1
I0726 00:27:06.366317 10943 net.cpp:141] Setting up Pooling1
I0726 00:27:06.366322 10943 net.cpp:148] Top shape: 10 20 30 30 (180000)
I0726 00:27:06.366324 10943 net.cpp:156] Memory required for data: 79294200
I0726 00:27:06.366328 10943 layer_factory.hpp:77] Creating layer Convolution2
I0726 00:27:06.366334 10943 net.cpp:91] Creating Layer Convolution2
I0726 00:27:06.366338 10943 net.cpp:425] Convolution2 <- Pooling1
I0726 00:27:06.366344 10943 net.cpp:399] Convolution2 -> Convolution2
I0726 00:27:06.366575 10943 net.cpp:141] Setting up Convolution2
I0726 00:27:06.366582 10943 net.cpp:148] Top shape: 10 50 26 26 (338000)
I0726 00:27:06.366585 10943 net.cpp:156] Memory required for data: 80646200
I0726 00:27:06.366591 10943 layer_factory.hpp:77] Creating layer Pooling2
I0726 00:27:06.366597 10943 net.cpp:91] Creating Layer Pooling2
I0726 00:27:06.366600 10943 net.cpp:425] Pooling2 <- Convolution2
I0726 00:27:06.366607 10943 net.cpp:399] Pooling2 -> Pooling2
I0726 00:27:06.366614 10943 net.cpp:141] Setting up Pooling2
I0726 00:27:06.366618 10943 net.cpp:148] Top shape: 10 50 13 13 (84500)
I0726 00:27:06.366621 10943 net.cpp:156] Memory required for data: 80984200
I0726 00:27:06.366623 10943 layer_factory.hpp:77] Creating layer InnerProduct1
I0726 00:27:06.366638 10943 net.cpp:91] Creating Layer InnerProduct1
I0726 00:27:06.366642 10943 net.cpp:425] InnerProduct1 <- Pooling2
I0726 00:27:06.366647 10943 net.cpp:399] InnerProduct1 -> InnerProduct1
I0726 00:27:06.427325 10943 net.cpp:141] Setting up InnerProduct1
I0726 00:27:06.427361 10943 net.cpp:148] Top shape: 10 500 (5000)
I0726 00:27:06.427363 10943 net.cpp:156] Memory required for data: 81004200
I0726 00:27:06.427381 10943 layer_factory.hpp:77] Creating layer ReLU1
I0726 00:27:06.427394 10943 net.cpp:91] Creating Layer ReLU1
I0726 00:27:06.427400 10943 net.cpp:425] ReLU1 <- InnerProduct1
I0726 00:27:06.427415 10943 net.cpp:386] ReLU1 -> InnerProduct1 (in-place)
I0726 00:27:06.427426 10943 net.cpp:141] Setting up ReLU1
I0726 00:27:06.427430 10943 net.cpp:148] Top shape: 10 500 (5000)
I0726 00:27:06.427433 10943 net.cpp:156] Memory required for data: 81024200
I0726 00:27:06.427436 10943 layer_factory.hpp:77] Creating layer InnerProduct2
I0726 00:27:06.427443 10943 net.cpp:91] Creating Layer InnerProduct2
I0726 00:27:06.427446 10943 net.cpp:425] InnerProduct2 <- InnerProduct1
I0726 00:27:06.427453 10943 net.cpp:399] InnerProduct2 -> InnerProduct2
I0726 00:27:06.429828 10943 net.cpp:141] Setting up InnerProduct2
I0726 00:27:06.429882 10943 net.cpp:148] Top shape: 10 500 (5000)
I0726 00:27:06.429886 10943 net.cpp:156] Memory required for data: 81044200
I0726 00:27:06.429904 10943 layer_factory.hpp:77] Creating layer Convolution3
I0726 00:27:06.429926 10943 net.cpp:91] Creating Layer Convolution3
I0726 00:27:06.429934 10943 net.cpp:425] Convolution3 <- p2_p2_0_split_0
I0726 00:27:06.429949 10943 net.cpp:399] Convolution3 -> Convolution3
I0726 00:27:06.430097 10943 net.cpp:141] Setting up Convolution3
I0726 00:27:06.430112 10943 net.cpp:148] Top shape: 10 20 60 60 (720000)
I0726 00:27:06.430116 10943 net.cpp:156] Memory required for data: 83924200
I0726 00:27:06.430127 10943 net.cpp:484] Sharing parameters 'conv1_w' owned by layer 'Convolution1', param index 0
I0726 00:27:06.430135 10943 net.cpp:484] Sharing parameters 'conv1_b' owned by layer 'Convolution1', param index 1
I0726 00:27:06.430140 10943 layer_factory.hpp:77] Creating layer Pooling3
I0726 00:27:06.430150 10943 net.cpp:91] Creating Layer Pooling3
I0726 00:27:06.430156 10943 net.cpp:425] Pooling3 <- Convolution3
I0726 00:27:06.430165 10943 net.cpp:399] Pooling3 -> Pooling3
I0726 00:27:06.430179 10943 net.cpp:141] Setting up Pooling3
I0726 00:27:06.430224 10943 net.cpp:148] Top shape: 10 20 30 30 (180000)
I0726 00:27:06.430229 10943 net.cpp:156] Memory required for data: 84644200
I0726 00:27:06.430234 10943 layer_factory.hpp:77] Creating layer Convolution4
I0726 00:27:06.430250 10943 net.cpp:91] Creating Layer Convolution4
I0726 00:27:06.430255 10943 net.cpp:425] Convolution4 <- Pooling3
I0726 00:27:06.430263 10943 net.cpp:399] Convolution4 -> Convolution4
I0726 00:27:06.430590 10943 net.cpp:141] Setting up Convolution4
I0726 00:27:06.430604 10943 net.cpp:148] Top shape: 10 50 26 26 (338000)
I0726 00:27:06.430608 10943 net.cpp:156] Memory required for data: 85996200
I0726 00:27:06.430614 10943 net.cpp:484] Sharing parameters 'conv2_w' owned by layer 'Convolution2', param index 0
I0726 00:27:06.430678 10943 net.cpp:484] Sharing parameters 'conv2_b' owned by layer 'Convolution2', param index 1
I0726 00:27:06.430685 10943 layer_factory.hpp:77] Creating layer Pooling4
I0726 00:27:06.430693 10943 net.cpp:91] Creating Layer Pooling4
I0726 00:27:06.430699 10943 net.cpp:425] Pooling4 <- Convolution4
I0726 00:27:06.430711 10943 net.cpp:399] Pooling4 -> Pooling4
I0726 00:27:06.430726 10943 net.cpp:141] Setting up Pooling4
I0726 00:27:06.430732 10943 net.cpp:148] Top shape: 10 50 13 13 (84500)
I0726 00:27:06.430737 10943 net.cpp:156] Memory required for data: 86334200
I0726 00:27:06.430740 10943 layer_factory.hpp:77] Creating layer InnerProduct3
I0726 00:27:06.430752 10943 net.cpp:91] Creating Layer InnerProduct3
I0726 00:27:06.430757 10943 net.cpp:425] InnerProduct3 <- Pooling4
I0726 00:27:06.430764 10943 net.cpp:399] InnerProduct3 -> InnerProduct3
I0726 00:27:06.473527 10943 net.cpp:141] Setting up InnerProduct3
I0726 00:27:06.473655 10943 net.cpp:148] Top shape: 10 500 (5000)
I0726 00:27:06.473675 10943 net.cpp:156] Memory required for data: 86354200
I0726 00:27:06.473695 10943 net.cpp:484] Sharing parameters 'ip1_w' owned by layer 'InnerProduct1', param index 0
I0726 00:27:06.473713 10943 net.cpp:484] Sharing parameters 'ip1_b' owned by layer 'InnerProduct1', param index 1
I0726 00:27:06.473729 10943 layer_factory.hpp:77] Creating layer ReLU2
I0726 00:27:06.473752 10943 net.cpp:91] Creating Layer ReLU2
I0726 00:27:06.473768 10943 net.cpp:425] ReLU2 <- InnerProduct3
I0726 00:27:06.473789 10943 net.cpp:386] ReLU2 -> InnerProduct3 (in-place)
I0726 00:27:06.473812 10943 net.cpp:141] Setting up ReLU2
I0726 00:27:06.473829 10943 net.cpp:148] Top shape: 10 500 (5000)
I0726 00:27:06.473844 10943 net.cpp:156] Memory required for data: 86374200
I0726 00:27:06.473856 10943 layer_factory.hpp:77] Creating layer InnerProduct4
I0726 00:27:06.473875 10943 net.cpp:91] Creating Layer InnerProduct4
I0726 00:27:06.473891 10943 net.cpp:425] InnerProduct4 <- InnerProduct3
I0726 00:27:06.473911 10943 net.cpp:399] InnerProduct4 -> InnerProduct4
I0726 00:27:06.475942 10943 net.cpp:141] Setting up InnerProduct4
I0726 00:27:06.476017 10943 net.cpp:148] Top shape: 10 500 (5000)
I0726 00:27:06.476032 10943 net.cpp:156] Memory required for data: 86394200
I0726 00:27:06.476049 10943 net.cpp:484] Sharing parameters 'ip2_w' owned by layer 'InnerProduct2', param index 0
I0726 00:27:06.476065 10943 net.cpp:484] Sharing parameters 'ip2_b' owned by layer 'InnerProduct2', param index 1
I0726 00:27:06.476079 10943 layer_factory.hpp:77] Creating layer Concat1
I0726 00:27:06.476109 10943 net.cpp:91] Creating Layer Concat1
I0726 00:27:06.476126 10943 net.cpp:425] Concat1 <- InnerProduct2
I0726 00:27:06.476145 10943 net.cpp:425] Concat1 <- InnerProduct4
I0726 00:27:06.476161 10943 net.cpp:399] Concat1 -> Concat1
I0726 00:27:06.476186 10943 net.cpp:141] Setting up Concat1
I0726 00:27:06.476202 10943 net.cpp:148] Top shape: 10 1000 (10000)
I0726 00:27:06.476214 10943 net.cpp:156] Memory required for data: 86434200
I0726 00:27:06.476227 10943 layer_factory.hpp:77] Creating layer InnerProduct5
I0726 00:27:06.476246 10943 net.cpp:91] Creating Layer InnerProduct5
I0726 00:27:06.476260 10943 net.cpp:425] InnerProduct5 <- Concat1
I0726 00:27:06.476277 10943 net.cpp:399] InnerProduct5 -> InnerProduct5
I0726 00:27:06.480417 10943 net.cpp:141] Setting up InnerProduct5
I0726 00:27:06.480547 10943 net.cpp:148] Top shape: 10 512 (5120)
I0726 00:27:06.480579 10943 net.cpp:156] Memory required for data: 86454680
I0726 00:27:06.480624 10943 layer_factory.hpp:77] Creating layer ReLU3
I0726 00:27:06.480665 10943 net.cpp:91] Creating Layer ReLU3
I0726 00:27:06.480701 10943 net.cpp:425] ReLU3 <- InnerProduct5
I0726 00:27:06.480738 10943 net.cpp:386] ReLU3 -> InnerProduct5 (in-place)
I0726 00:27:06.480777 10943 net.cpp:141] Setting up ReLU3
I0726 00:27:06.480808 10943 net.cpp:148] Top shape: 10 512 (5120)
I0726 00:27:06.480834 10943 net.cpp:156] Memory required for data: 86475160
I0726 00:27:06.480866 10943 layer_factory.hpp:77] Creating layer InnerProduct6
I0726 00:27:06.480919 10943 net.cpp:91] Creating Layer InnerProduct6
I0726 00:27:06.480953 10943 net.cpp:425] InnerProduct6 <- InnerProduct5
I0726 00:27:06.481004 10943 net.cpp:399] InnerProduct6 -> InnerProduct6
I0726 00:27:06.483702 10943 net.cpp:141] Setting up InnerProduct6
I0726 00:27:06.483798 10943 net.cpp:148] Top shape: 10 512 (5120)
I0726 00:27:06.483811 10943 net.cpp:156] Memory required for data: 86495640
I0726 00:27:06.483839 10943 layer_factory.hpp:77] Creating layer ReLU4
I0726 00:27:06.483860 10943 net.cpp:91] Creating Layer ReLU4
I0726 00:27:06.483877 10943 net.cpp:425] ReLU4 <- InnerProduct6
I0726 00:27:06.483894 10943 net.cpp:386] ReLU4 -> InnerProduct6 (in-place)
I0726 00:27:06.483916 10943 net.cpp:141] Setting up ReLU4
I0726 00:27:06.483930 10943 net.cpp:148] Top shape: 10 512 (5120)
I0726 00:27:06.483942 10943 net.cpp:156] Memory required for data: 86516120
I0726 00:27:06.483955 10943 layer_factory.hpp:77] Creating layer dt0
I0726 00:27:06.483988 10943 net.cpp:91] Creating Layer dt0
I0726 00:27:06.484004 10943 net.cpp:425] dt0 <- InnerProduct6
I0726 00:27:06.484020 10943 net.cpp:399] dt0 -> dt0
I0726 00:27:06.484062 10943 net.cpp:141] Setting up dt0
I0726 00:27:06.484081 10943 net.cpp:148] Top shape: 10 2 (20)
I0726 00:27:06.484092 10943 net.cpp:156] Memory required for data: 86516200
I0726 00:27:06.484109 10943 layer_factory.hpp:77] Creating layer Convolution5
I0726 00:27:06.484134 10943 net.cpp:91] Creating Layer Convolution5
I0726 00:27:06.484150 10943 net.cpp:425] Convolution5 <- p1_p1_0_split_1
I0726 00:27:06.484168 10943 net.cpp:399] Convolution5 -> Convolution5
I0726 00:27:06.484215 10943 net.cpp:141] Setting up Convolution5
I0726 00:27:06.484233 10943 net.cpp:148] Top shape: 10 20 60 60 (720000)
I0726 00:27:06.484246 10943 net.cpp:156] Memory required for data: 89396200
I0726 00:27:06.484261 10943 net.cpp:484] Sharing parameters 'conv1_w' owned by layer 'Convolution1', param index 0
I0726 00:27:06.484275 10943 net.cpp:484] Sharing parameters 'conv1_b' owned by layer 'Convolution1', param index 1
I0726 00:27:06.484288 10943 layer_factory.hpp:77] Creating layer Pooling5
I0726 00:27:06.484307 10943 net.cpp:91] Creating Layer Pooling5
I0726 00:27:06.484320 10943 net.cpp:425] Pooling5 <- Convolution5
I0726 00:27:06.484336 10943 net.cpp:399] Pooling5 -> Pooling5
I0726 00:27:06.484357 10943 net.cpp:141] Setting up Pooling5
I0726 00:27:06.484372 10943 net.cpp:148] Top shape: 10 20 30 30 (180000)
I0726 00:27:06.484385 10943 net.cpp:156] Memory required for data: 90116200
I0726 00:27:06.484397 10943 layer_factory.hpp:77] Creating layer Convolution6
I0726 00:27:06.484417 10943 net.cpp:91] Creating Layer Convolution6
I0726 00:27:06.484431 10943 net.cpp:425] Convolution6 <- Pooling5
I0726 00:27:06.484446 10943 net.cpp:399] Convolution6 -> Convolution6
I0726 00:27:06.484668 10943 net.cpp:141] Setting up Convolution6
I0726 00:27:06.484678 10943 net.cpp:148] Top shape: 10 50 26 26 (338000)
I0726 00:27:06.484680 10943 net.cpp:156] Memory required for data: 91468200
I0726 00:27:06.484684 10943 net.cpp:484] Sharing parameters 'conv2_w' owned by layer 'Convolution2', param index 0
I0726 00:27:06.484688 10943 net.cpp:484] Sharing parameters 'conv2_b' owned by layer 'Convolution2', param index 1
I0726 00:27:06.484693 10943 layer_factory.hpp:77] Creating layer Pooling6
I0726 00:27:06.484721 10943 net.cpp:91] Creating Layer Pooling6
I0726 00:27:06.484725 10943 net.cpp:425] Pooling6 <- Convolution6
I0726 00:27:06.484732 10943 net.cpp:399] Pooling6 -> Pooling6
I0726 00:27:06.484741 10943 net.cpp:141] Setting up Pooling6
I0726 00:27:06.484745 10943 net.cpp:148] Top shape: 10 50 13 13 (84500)
I0726 00:27:06.484748 10943 net.cpp:156] Memory required for data: 91806200
I0726 00:27:06.484750 10943 layer_factory.hpp:77] Creating layer InnerProduct7
I0726 00:27:06.484760 10943 net.cpp:91] Creating Layer InnerProduct7
I0726 00:27:06.484763 10943 net.cpp:425] InnerProduct7 <- Pooling6
I0726 00:27:06.484768 10943 net.cpp:399] InnerProduct7 -> InnerProduct7
I0726 00:27:06.524313 10943 net.cpp:141] Setting up InnerProduct7
I0726 00:27:06.525483 10943 net.cpp:148] Top shape: 10 500 (5000)
I0726 00:27:06.525534 10943 net.cpp:156] Memory required for data: 91826200
I0726 00:27:06.525558 10943 net.cpp:484] Sharing parameters 'ip1_w' owned by layer 'InnerProduct1', param index 0
I0726 00:27:06.525576 10943 net.cpp:484] Sharing parameters 'ip1_b' owned by layer 'InnerProduct1', param index 1
I0726 00:27:06.525593 10943 layer_factory.hpp:77] Creating layer ReLU5
I0726 00:27:06.525614 10943 net.cpp:91] Creating Layer ReLU5
I0726 00:27:06.525632 10943 net.cpp:425] ReLU5 <- InnerProduct7
I0726 00:27:06.525652 10943 net.cpp:386] ReLU5 -> InnerProduct7 (in-place)
I0726 00:27:06.525676 10943 net.cpp:141] Setting up ReLU5
I0726 00:27:06.525692 10943 net.cpp:148] Top shape: 10 500 (5000)
I0726 00:27:06.525705 10943 net.cpp:156] Memory required for data: 91846200
I0726 00:27:06.525719 10943 layer_factory.hpp:77] Creating layer InnerProduct8
I0726 00:27:06.525743 10943 net.cpp:91] Creating Layer InnerProduct8
I0726 00:27:06.525758 10943 net.cpp:425] InnerProduct8 <- InnerProduct7
I0726 00:27:06.525779 10943 net.cpp:399] InnerProduct8 -> InnerProduct8
I0726 00:27:06.527781 10943 net.cpp:141] Setting up InnerProduct8
I0726 00:27:06.527827 10943 net.cpp:148] Top shape: 10 500 (5000)
I0726 00:27:06.527842 10943 net.cpp:156] Memory required for data: 91866200
I0726 00:27:06.527859 10943 net.cpp:484] Sharing parameters 'ip2_w' owned by layer 'InnerProduct2', param index 0
I0726 00:27:06.527875 10943 net.cpp:484] Sharing parameters 'ip2_b' owned by layer 'InnerProduct2', param index 1
I0726 00:27:06.527890 10943 layer_factory.hpp:77] Creating layer Convolution7
I0726 00:27:06.527915 10943 net.cpp:91] Creating Layer Convolution7
I0726 00:27:06.527933 10943 net.cpp:425] Convolution7 <- c21
I0726 00:27:06.527956 10943 net.cpp:399] Convolution7 -> Convolution7
I0726 00:27:06.528014 10943 net.cpp:141] Setting up Convolution7
I0726 00:27:06.528034 10943 net.cpp:148] Top shape: 10 20 60 60 (720000)
I0726 00:27:06.528048 10943 net.cpp:156] Memory required for data: 94746200
I0726 00:27:06.528064 10943 net.cpp:484] Sharing parameters 'conv1_w' owned by layer 'Convolution1', param index 0
I0726 00:27:06.528079 10943 net.cpp:484] Sharing parameters 'conv1_b' owned by layer 'Convolution1', param index 1
I0726 00:27:06.528093 10943 layer_factory.hpp:77] Creating layer Pooling7
I0726 00:27:06.528113 10943 net.cpp:91] Creating Layer Pooling7
I0726 00:27:06.528129 10943 net.cpp:425] Pooling7 <- Convolution7
I0726 00:27:06.528146 10943 net.cpp:399] Pooling7 -> Pooling7
I0726 00:27:06.528168 10943 net.cpp:141] Setting up Pooling7
I0726 00:27:06.528185 10943 net.cpp:148] Top shape: 10 20 30 30 (180000)
I0726 00:27:06.528198 10943 net.cpp:156] Memory required for data: 95466200
I0726 00:27:06.528211 10943 layer_factory.hpp:77] Creating layer Convolution8
I0726 00:27:06.528230 10943 net.cpp:91] Creating Layer Convolution8
I0726 00:27:06.528245 10943 net.cpp:425] Convolution8 <- Pooling7
I0726 00:27:06.528265 10943 net.cpp:399] Convolution8 -> Convolution8
I0726 00:27:06.528498 10943 net.cpp:141] Setting up Convolution8
I0726 00:27:06.528520 10943 net.cpp:148] Top shape: 10 50 26 26 (338000)
I0726 00:27:06.528533 10943 net.cpp:156] Memory required for data: 96818200
I0726 00:27:06.528556 10943 net.cpp:484] Sharing parameters 'conv2_w' owned by layer 'Convolution2', param index 0
I0726 00:27:06.528592 10943 net.cpp:484] Sharing parameters 'conv2_b' owned by layer 'Convolution2', param index 1
I0726 00:27:06.528609 10943 layer_factory.hpp:77] Creating layer Pooling8
I0726 00:27:06.528625 10943 net.cpp:91] Creating Layer Pooling8
I0726 00:27:06.528640 10943 net.cpp:425] Pooling8 <- Convolution8
I0726 00:27:06.528656 10943 net.cpp:399] Pooling8 -> Pooling8
I0726 00:27:06.528677 10943 net.cpp:141] Setting up Pooling8
I0726 00:27:06.528694 10943 net.cpp:148] Top shape: 10 50 13 13 (84500)
I0726 00:27:06.528707 10943 net.cpp:156] Memory required for data: 97156200
I0726 00:27:06.528720 10943 layer_factory.hpp:77] Creating layer InnerProduct9
I0726 00:27:06.528740 10943 net.cpp:91] Creating Layer InnerProduct9
I0726 00:27:06.528756 10943 net.cpp:425] InnerProduct9 <- Pooling8
I0726 00:27:06.528774 10943 net.cpp:399] InnerProduct9 -> InnerProduct9
I0726 00:27:06.567029 10943 net.cpp:141] Setting up InnerProduct9
I0726 00:27:06.567235 10943 net.cpp:148] Top shape: 10 500 (5000)
I0726 00:27:06.567261 10943 net.cpp:156] Memory required for data: 97176200
I0726 00:27:06.567284 10943 net.cpp:484] Sharing parameters 'ip1_w' owned by layer 'InnerProduct1', param index 0
I0726 00:27:06.567303 10943 net.cpp:484] Sharing parameters 'ip1_b' owned by layer 'InnerProduct1', param index 1
I0726 00:27:06.567320 10943 layer_factory.hpp:77] Creating layer ReLU6
I0726 00:27:06.567344 10943 net.cpp:91] Creating Layer ReLU6
I0726 00:27:06.567384 10943 net.cpp:425] ReLU6 <- InnerProduct9
I0726 00:27:06.567404 10943 net.cpp:386] ReLU6 -> InnerProduct9 (in-place)
I0726 00:27:06.567430 10943 net.cpp:141] Setting up ReLU6
I0726 00:27:06.567446 10943 net.cpp:148] Top shape: 10 500 (5000)
I0726 00:27:06.567461 10943 net.cpp:156] Memory required for data: 97196200
I0726 00:27:06.567476 10943 layer_factory.hpp:77] Creating layer InnerProduct10
I0726 00:27:06.567495 10943 net.cpp:91] Creating Layer InnerProduct10
I0726 00:27:06.567528 10943 net.cpp:425] InnerProduct10 <- InnerProduct9
I0726 00:27:06.567550 10943 net.cpp:399] InnerProduct10 -> InnerProduct10
I0726 00:27:06.569929 10943 net.cpp:141] Setting up InnerProduct10
I0726 00:27:06.570086 10943 net.cpp:148] Top shape: 10 500 (5000)
I0726 00:27:06.570119 10943 net.cpp:156] Memory required for data: 97216200
I0726 00:27:06.570155 10943 net.cpp:484] Sharing parameters 'ip2_w' owned by layer 'InnerProduct2', param index 0
I0726 00:27:06.570188 10943 net.cpp:484] Sharing parameters 'ip2_b' owned by layer 'InnerProduct2', param index 1
I0726 00:27:06.570214 10943 layer_factory.hpp:77] Creating layer Concat2
I0726 00:27:06.570288 10943 net.cpp:91] Creating Layer Concat2
I0726 00:27:06.570351 10943 net.cpp:425] Concat2 <- InnerProduct8
I0726 00:27:06.570431 10943 net.cpp:425] Concat2 <- InnerProduct10
I0726 00:27:06.570482 10943 net.cpp:399] Concat2 -> Concat2
I0726 00:27:06.570600 10943 net.cpp:141] Setting up Concat2
I0726 00:27:06.570646 10943 net.cpp:148] Top shape: 10 1000 (10000)
I0726 00:27:06.570693 10943 net.cpp:156] Memory required for data: 97256200
I0726 00:27:06.570725 10943 layer_factory.hpp:77] Creating layer InnerProduct11
I0726 00:27:06.570760 10943 net.cpp:91] Creating Layer InnerProduct11
I0726 00:27:06.570813 10943 net.cpp:425] InnerProduct11 <- Concat2
I0726 00:27:06.570858 10943 net.cpp:399] InnerProduct11 -> InnerProduct11
I0726 00:27:06.576660 10943 net.cpp:141] Setting up InnerProduct11
I0726 00:27:06.576810 10943 net.cpp:148] Top shape: 10 512 (5120)
I0726 00:27:06.576841 10943 net.cpp:156] Memory required for data: 97276680
I0726 00:27:06.576872 10943 net.cpp:484] Sharing parameters 'fc1_w' owned by layer 'InnerProduct5', param index 0
I0726 00:27:06.576899 10943 net.cpp:484] Sharing parameters 'fc1_b' owned by layer 'InnerProduct5', param index 1
I0726 00:27:06.576925 10943 layer_factory.hpp:77] Creating layer ReLU7
I0726 00:27:06.576961 10943 net.cpp:91] Creating Layer ReLU7
I0726 00:27:06.577018 10943 net.cpp:425] ReLU7 <- InnerProduct11
I0726 00:27:06.577054 10943 net.cpp:386] ReLU7 -> InnerProduct11 (in-place)
I0726 00:27:06.577107 10943 net.cpp:141] Setting up ReLU7
I0726 00:27:06.577175 10943 net.cpp:148] Top shape: 10 512 (5120)
I0726 00:27:06.577206 10943 net.cpp:156] Memory required for data: 97297160
I0726 00:27:06.577232 10943 layer_factory.hpp:77] Creating layer InnerProduct12
I0726 00:27:06.577389 10943 net.cpp:91] Creating Layer InnerProduct12
I0726 00:27:06.577469 10943 net.cpp:425] InnerProduct12 <- InnerProduct11
I0726 00:27:06.577508 10943 net.cpp:399] InnerProduct12 -> InnerProduct12
I0726 00:27:06.580201 10943 net.cpp:141] Setting up InnerProduct12
I0726 00:27:06.580440 10943 net.cpp:148] Top shape: 10 512 (5120)
I0726 00:27:06.580461 10943 net.cpp:156] Memory required for data: 97317640
I0726 00:27:06.580487 10943 net.cpp:484] Sharing parameters 'fc2_w' owned by layer 'InnerProduct6', param index 0
I0726 00:27:06.580507 10943 net.cpp:484] Sharing parameters 'fc2_b' owned by layer 'InnerProduct6', param index 1
I0726 00:27:06.580525 10943 layer_factory.hpp:77] Creating layer ReLU8
I0726 00:27:06.580551 10943 net.cpp:91] Creating Layer ReLU8
I0726 00:27:06.580574 10943 net.cpp:425] ReLU8 <- InnerProduct12
I0726 00:27:06.580595 10943 net.cpp:386] ReLU8 -> InnerProduct12 (in-place)
I0726 00:27:06.580621 10943 net.cpp:141] Setting up ReLU8
I0726 00:27:06.580641 10943 net.cpp:148] Top shape: 10 512 (5120)
I0726 00:27:06.580654 10943 net.cpp:156] Memory required for data: 97338120
I0726 00:27:06.580669 10943 layer_factory.hpp:77] Creating layer dt1
I0726 00:27:06.580699 10943 net.cpp:91] Creating Layer dt1
I0726 00:27:06.580718 10943 net.cpp:425] dt1 <- InnerProduct12
I0726 00:27:06.580739 10943 net.cpp:399] dt1 -> dt1
I0726 00:27:06.580793 10943 net.cpp:141] Setting up dt1
I0726 00:27:06.580817 10943 net.cpp:148] Top shape: 10 2 (20)
I0726 00:27:06.580832 10943 net.cpp:156] Memory required for data: 97338200
I0726 00:27:06.580850 10943 net.cpp:484] Sharing parameters 'fc3_w' owned by layer 'dt0', param index 0
I0726 00:27:06.580868 10943 net.cpp:484] Sharing parameters 'fc3_b' owned by layer 'dt0', param index 1
I0726 00:27:06.580885 10943 layer_factory.hpp:77] Creating layer Convolution9
I0726 00:27:06.580912 10943 net.cpp:91] Creating Layer Convolution9
I0726 00:27:06.580931 10943 net.cpp:425] Convolution9 <- p1_p1_0_split_2
I0726 00:27:06.580952 10943 net.cpp:399] Convolution9 -> Convolution9
I0726 00:27:06.581009 10943 net.cpp:141] Setting up Convolution9
I0726 00:27:06.581033 10943 net.cpp:148] Top shape: 10 20 60 60 (720000)
I0726 00:27:06.581048 10943 net.cpp:156] Memory required for data: 100218200
I0726 00:27:06.581064 10943 net.cpp:484] Sharing parameters 'conv1_w' owned by layer 'Convolution1', param index 0
I0726 00:27:06.581080 10943 net.cpp:484] Sharing parameters 'conv1_b' owned by layer 'Convolution1', param index 1
I0726 00:27:06.581096 10943 layer_factory.hpp:77] Creating layer Pooling9
I0726 00:27:06.581116 10943 net.cpp:91] Creating Layer Pooling9
I0726 00:27:06.581133 10943 net.cpp:425] Pooling9 <- Convolution9
I0726 00:27:06.581153 10943 net.cpp:399] Pooling9 -> Pooling9
I0726 00:27:06.581178 10943 net.cpp:141] Setting up Pooling9
I0726 00:27:06.581197 10943 net.cpp:148] Top shape: 10 20 30 30 (180000)
I0726 00:27:06.581210 10943 net.cpp:156] Memory required for data: 100938200
I0726 00:27:06.581225 10943 layer_factory.hpp:77] Creating layer Convolution10
I0726 00:27:06.581251 10943 net.cpp:91] Creating Layer Convolution10
I0726 00:27:06.581270 10943 net.cpp:425] Convolution10 <- Pooling9
I0726 00:27:06.581290 10943 net.cpp:399] Convolution10 -> Convolution10
I0726 00:27:06.581558 10943 net.cpp:141] Setting up Convolution10
I0726 00:27:06.581607 10943 net.cpp:148] Top shape: 10 50 26 26 (338000)
I0726 00:27:06.581624 10943 net.cpp:156] Memory required for data: 102290200
I0726 00:27:06.581643 10943 net.cpp:484] Sharing parameters 'conv2_w' owned by layer 'Convolution2', param index 0
I0726 00:27:06.581662 10943 net.cpp:484] Sharing parameters 'conv2_b' owned by layer 'Convolution2', param index 1
I0726 00:27:06.581679 10943 layer_factory.hpp:77] Creating layer Pooling10
I0726 00:27:06.581729 10943 net.cpp:91] Creating Layer Pooling10
I0726 00:27:06.581768 10943 net.cpp:425] Pooling10 <- Convolution10
I0726 00:27:06.581794 10943 net.cpp:399] Pooling10 -> Pooling10
I0726 00:27:06.581825 10943 net.cpp:141] Setting up Pooling10
I0726 00:27:06.581845 10943 net.cpp:148] Top shape: 10 50 13 13 (84500)
I0726 00:27:06.581858 10943 net.cpp:156] Memory required for data: 102628200
I0726 00:27:06.581873 10943 layer_factory.hpp:77] Creating layer InnerProduct13
I0726 00:27:06.581897 10943 net.cpp:91] Creating Layer InnerProduct13
I0726 00:27:06.581915 10943 net.cpp:425] InnerProduct13 <- Pooling10
I0726 00:27:06.581935 10943 net.cpp:399] InnerProduct13 -> InnerProduct13
I0726 00:27:06.619606 10943 net.cpp:141] Setting up InnerProduct13
I0726 00:27:06.619846 10943 net.cpp:148] Top shape: 10 500 (5000)
I0726 00:27:06.619999 10943 net.cpp:156] Memory required for data: 102648200
I0726 00:27:06.620084 10943 net.cpp:484] Sharing parameters 'ip1_w' owned by layer 'InnerProduct1', param index 0
I0726 00:27:06.620156 10943 net.cpp:484] Sharing parameters 'ip1_b' owned by layer 'InnerProduct1', param index 1
I0726 00:27:06.620220 10943 layer_factory.hpp:77] Creating layer ReLU9
I0726 00:27:06.620282 10943 net.cpp:91] Creating Layer ReLU9
I0726 00:27:06.620391 10943 net.cpp:425] ReLU9 <- InnerProduct13
I0726 00:27:06.620439 10943 net.cpp:386] ReLU9 -> InnerProduct13 (in-place)
I0726 00:27:06.620489 10943 net.cpp:141] Setting up ReLU9
I0726 00:27:06.620522 10943 net.cpp:148] Top shape: 10 500 (5000)
I0726 00:27:06.620543 10943 net.cpp:156] Memory required for data: 102668200
I0726 00:27:06.620568 10943 layer_factory.hpp:77] Creating layer InnerProduct14
I0726 00:27:06.620615 10943 net.cpp:91] Creating Layer InnerProduct14
I0726 00:27:06.620643 10943 net.cpp:425] InnerProduct14 <- InnerProduct13
I0726 00:27:06.620682 10943 net.cpp:399] InnerProduct14 -> InnerProduct14
I0726 00:27:06.623528 10943 net.cpp:141] Setting up InnerProduct14
I0726 00:27:06.623862 10943 net.cpp:148] Top shape: 10 500 (5000)
I0726 00:27:06.623986 10943 net.cpp:156] Memory required for data: 102688200
I0726 00:27:06.624049 10943 net.cpp:484] Sharing parameters 'ip2_w' owned by layer 'InnerProduct2', param index 0
I0726 00:27:06.624107 10943 net.cpp:484] Sharing parameters 'ip2_b' owned by layer 'InnerProduct2', param index 1
I0726 00:27:06.624155 10943 layer_factory.hpp:77] Creating layer Convolution11
I0726 00:27:06.624228 10943 net.cpp:91] Creating Layer Convolution11
I0726 00:27:06.624274 10943 net.cpp:425] Convolution11 <- c22
I0726 00:27:06.624332 10943 net.cpp:399] Convolution11 -> Convolution11
I0726 00:27:06.624464 10943 net.cpp:141] Setting up Convolution11
I0726 00:27:06.624513 10943 net.cpp:148] Top shape: 10 20 60 60 (720000)
I0726 00:27:06.624543 10943 net.cpp:156] Memory required for data: 105568200
I0726 00:27:06.624577 10943 net.cpp:484] Sharing parameters 'conv1_w' owned by layer 'Convolution1', param index 0
I0726 00:27:06.624611 10943 net.cpp:484] Sharing parameters 'conv1_b' owned by layer 'Convolution1', param index 1
I0726 00:27:06.624644 10943 layer_factory.hpp:77] Creating layer Pooling11
I0726 00:27:06.624689 10943 net.cpp:91] Creating Layer Pooling11
I0726 00:27:06.624722 10943 net.cpp:425] Pooling11 <- Convolution11
I0726 00:27:06.624765 10943 net.cpp:399] Pooling11 -> Pooling11
I0726 00:27:06.624814 10943 net.cpp:141] Setting up Pooling11
I0726 00:27:06.624845 10943 net.cpp:148] Top shape: 10 20 30 30 (180000)
I0726 00:27:06.624866 10943 net.cpp:156] Memory required for data: 106288200
I0726 00:27:06.624891 10943 layer_factory.hpp:77] Creating layer Convolution12
I0726 00:27:06.624925 10943 net.cpp:91] Creating Layer Convolution12
I0726 00:27:06.624951 10943 net.cpp:425] Convolution12 <- Pooling11
I0726 00:27:06.624994 10943 net.cpp:399] Convolution12 -> Convolution12
I0726 00:27:06.625356 10943 net.cpp:141] Setting up Convolution12
I0726 00:27:06.625427 10943 net.cpp:148] Top shape: 10 50 26 26 (338000)
I0726 00:27:06.625457 10943 net.cpp:156] Memory required for data: 107640200
I0726 00:27:06.625488 10943 net.cpp:484] Sharing parameters 'conv2_w' owned by layer 'Convolution2', param index 0
I0726 00:27:06.625560 10943 net.cpp:484] Sharing parameters 'conv2_b' owned by layer 'Convolution2', param index 1
I0726 00:27:06.625589 10943 layer_factory.hpp:77] Creating layer Pooling12
I0726 00:27:06.625624 10943 net.cpp:91] Creating Layer Pooling12
I0726 00:27:06.625653 10943 net.cpp:425] Pooling12 <- Convolution12
I0726 00:27:06.625692 10943 net.cpp:399] Pooling12 -> Pooling12
I0726 00:27:06.625736 10943 net.cpp:141] Setting up Pooling12
I0726 00:27:06.625763 10943 net.cpp:148] Top shape: 10 50 13 13 (84500)
I0726 00:27:06.625783 10943 net.cpp:156] Memory required for data: 107978200
I0726 00:27:06.625804 10943 layer_factory.hpp:77] Creating layer InnerProduct15
I0726 00:27:06.625843 10943 net.cpp:91] Creating Layer InnerProduct15
I0726 00:27:06.625869 10943 net.cpp:425] InnerProduct15 <- Pooling12
I0726 00:27:06.625900 10943 net.cpp:399] InnerProduct15 -> InnerProduct15
I0726 00:27:06.667603 10943 net.cpp:141] Setting up InnerProduct15
I0726 00:27:06.668061 10943 net.cpp:148] Top shape: 10 500 (5000)
I0726 00:27:06.668252 10943 net.cpp:156] Memory required for data: 107998200
I0726 00:27:06.668423 10943 net.cpp:484] Sharing parameters 'ip1_w' owned by layer 'InnerProduct1', param index 0
I0726 00:27:06.668459 10943 net.cpp:484] Sharing parameters 'ip1_b' owned by layer 'InnerProduct1', param index 1
I0726 00:27:06.668501 10943 layer_factory.hpp:77] Creating layer ReLU10
I0726 00:27:06.668578 10943 net.cpp:91] Creating Layer ReLU10
I0726 00:27:06.668676 10943 net.cpp:425] ReLU10 <- InnerProduct15
I0726 00:27:06.668887 10943 net.cpp:386] ReLU10 -> InnerProduct15 (in-place)
I0726 00:27:06.669282 10943 net.cpp:141] Setting up ReLU10
I0726 00:27:06.669405 10943 net.cpp:148] Top shape: 10 500 (5000)
I0726 00:27:06.669579 10943 net.cpp:156] Memory required for data: 108018200
I0726 00:27:06.669821 10943 layer_factory.hpp:77] Creating layer InnerProduct16
I0726 00:27:06.669893 10943 net.cpp:91] Creating Layer InnerProduct16
I0726 00:27:06.669966 10943 net.cpp:425] InnerProduct16 <- InnerProduct15
I0726 00:27:06.670114 10943 net.cpp:399] InnerProduct16 -> InnerProduct16
I0726 00:27:06.672782 10943 net.cpp:141] Setting up InnerProduct16
I0726 00:27:06.672899 10943 net.cpp:148] Top shape: 10 500 (5000)
I0726 00:27:06.672926 10943 net.cpp:156] Memory required for data: 108038200
I0726 00:27:06.672951 10943 net.cpp:484] Sharing parameters 'ip2_w' owned by layer 'InnerProduct2', param index 0
I0726 00:27:06.672989 10943 net.cpp:484] Sharing parameters 'ip2_b' owned by layer 'InnerProduct2', param index 1
I0726 00:27:06.673009 10943 layer_factory.hpp:77] Creating layer Concat3
I0726 00:27:06.673033 10943 net.cpp:91] Creating Layer Concat3
I0726 00:27:06.673069 10943 net.cpp:425] Concat3 <- InnerProduct14
I0726 00:27:06.673091 10943 net.cpp:425] Concat3 <- InnerProduct16
I0726 00:27:06.673117 10943 net.cpp:399] Concat3 -> Concat3
I0726 00:27:06.673162 10943 net.cpp:141] Setting up Concat3
I0726 00:27:06.673202 10943 net.cpp:148] Top shape: 10 1000 (10000)
I0726 00:27:06.673220 10943 net.cpp:156] Memory required for data: 108078200
I0726 00:27:06.673236 10943 layer_factory.hpp:77] Creating layer InnerProduct17
I0726 00:27:06.673259 10943 net.cpp:91] Creating Layer InnerProduct17
I0726 00:27:06.673276 10943 net.cpp:425] InnerProduct17 <- Concat3
I0726 00:27:06.673295 10943 net.cpp:399] InnerProduct17 -> InnerProduct17
I0726 00:27:06.677387 10943 net.cpp:141] Setting up InnerProduct17
I0726 00:27:06.678809 10943 net.cpp:148] Top shape: 10 512 (5120)
I0726 00:27:06.678963 10943 net.cpp:156] Memory required for data: 108098680
I0726 00:27:06.679036 10943 net.cpp:484] Sharing parameters 'fc1_w' owned by layer 'InnerProduct5', param index 0
I0726 00:27:06.679078 10943 net.cpp:484] Sharing parameters 'fc1_b' owned by layer 'InnerProduct5', param index 1
I0726 00:27:06.679196 10943 layer_factory.hpp:77] Creating layer ReLU11
I0726 00:27:06.679225 10943 net.cpp:91] Creating Layer ReLU11
I0726 00:27:06.679260 10943 net.cpp:425] ReLU11 <- InnerProduct17
I0726 00:27:06.679291 10943 net.cpp:386] ReLU11 -> InnerProduct17 (in-place)
I0726 00:27:06.679366 10943 net.cpp:141] Setting up ReLU11
I0726 00:27:06.679388 10943 net.cpp:148] Top shape: 10 512 (5120)
I0726 00:27:06.679419 10943 net.cpp:156] Memory required for data: 108119160
I0726 00:27:06.679433 10943 layer_factory.hpp:77] Creating layer InnerProduct18
I0726 00:27:06.679461 10943 net.cpp:91] Creating Layer InnerProduct18
I0726 00:27:06.679491 10943 net.cpp:425] InnerProduct18 <- InnerProduct17
I0726 00:27:06.679512 10943 net.cpp:399] InnerProduct18 -> InnerProduct18
I0726 00:27:06.681625 10943 net.cpp:141] Setting up InnerProduct18
I0726 00:27:06.681711 10943 net.cpp:148] Top shape: 10 512 (5120)
I0726 00:27:06.681728 10943 net.cpp:156] Memory required for data: 108139640
I0726 00:27:06.681747 10943 net.cpp:484] Sharing parameters 'fc2_w' owned by layer 'InnerProduct6', param index 0
I0726 00:27:06.681766 10943 net.cpp:484] Sharing parameters 'fc2_b' owned by layer 'InnerProduct6', param index 1
I0726 00:27:06.681782 10943 layer_factory.hpp:77] Creating layer ReLU12
I0726 00:27:06.681802 10943 net.cpp:91] Creating Layer ReLU12
I0726 00:27:06.681839 10943 net.cpp:425] ReLU12 <- InnerProduct18
I0726 00:27:06.681879 10943 net.cpp:386] ReLU12 -> InnerProduct18 (in-place)
I0726 00:27:06.681953 10943 net.cpp:141] Setting up ReLU12
I0726 00:27:06.681980 10943 net.cpp:148] Top shape: 10 512 (5120)
I0726 00:27:06.681995 10943 net.cpp:156] Memory required for data: 108160120
I0726 00:27:06.682009 10943 layer_factory.hpp:77] Creating layer dt2
I0726 00:27:06.682029 10943 net.cpp:91] Creating Layer dt2
I0726 00:27:06.682062 10943 net.cpp:425] dt2 <- InnerProduct18
I0726 00:27:06.682088 10943 net.cpp:399] dt2 -> dt2
I0726 00:27:06.682131 10943 net.cpp:141] Setting up dt2
I0726 00:27:06.682165 10943 net.cpp:148] Top shape: 10 2 (20)
I0726 00:27:06.682180 10943 net.cpp:156] Memory required for data: 108160200
I0726 00:27:06.682205 10943 net.cpp:484] Sharing parameters 'fc3_w' owned by layer 'dt0', param index 0
I0726 00:27:06.682226 10943 net.cpp:484] Sharing parameters 'fc3_b' owned by layer 'dt0', param index 1
I0726 00:27:06.682255 10943 layer_factory.hpp:77] Creating layer Convolution13
I0726 00:27:06.682288 10943 net.cpp:91] Creating Layer Convolution13
I0726 00:27:06.682303 10943 net.cpp:425] Convolution13 <- p1_p1_0_split_3
I0726 00:27:06.682322 10943 net.cpp:399] Convolution13 -> Convolution13
I0726 00:27:06.682368 10943 net.cpp:141] Setting up Convolution13
I0726 00:27:06.682400 10943 net.cpp:148] Top shape: 10 20 60 60 (720000)
I0726 00:27:06.682415 10943 net.cpp:156] Memory required for data: 111040200
I0726 00:27:06.682428 10943 net.cpp:484] Sharing parameters 'conv1_w' owned by layer 'Convolution1', param index 0
I0726 00:27:06.682442 10943 net.cpp:484] Sharing parameters 'conv1_b' owned by layer 'Convolution1', param index 1
I0726 00:27:06.682456 10943 layer_factory.hpp:77] Creating layer Pooling13
I0726 00:27:06.682473 10943 net.cpp:91] Creating Layer Pooling13
I0726 00:27:06.682500 10943 net.cpp:425] Pooling13 <- Convolution13
I0726 00:27:06.682521 10943 net.cpp:399] Pooling13 -> Pooling13
I0726 00:27:06.682543 10943 net.cpp:141] Setting up Pooling13
I0726 00:27:06.682559 10943 net.cpp:148] Top shape: 10 20 30 30 (180000)
I0726 00:27:06.682570 10943 net.cpp:156] Memory required for data: 111760200
I0726 00:27:06.682584 10943 layer_factory.hpp:77] Creating layer Convolution14
I0726 00:27:06.682600 10943 net.cpp:91] Creating Layer Convolution14
I0726 00:27:06.682615 10943 net.cpp:425] Convolution14 <- Pooling13
I0726 00:27:06.682633 10943 net.cpp:399] Convolution14 -> Convolution14
I0726 00:27:06.682873 10943 net.cpp:141] Setting up Convolution14
I0726 00:27:06.682901 10943 net.cpp:148] Top shape: 10 50 26 26 (338000)
I0726 00:27:06.682914 10943 net.cpp:156] Memory required for data: 113112200
I0726 00:27:06.682929 10943 net.cpp:484] Sharing parameters 'conv2_w' owned by layer 'Convolution2', param index 0
I0726 00:27:06.682945 10943 net.cpp:484] Sharing parameters 'conv2_b' owned by layer 'Convolution2', param index 1
I0726 00:27:06.682965 10943 layer_factory.hpp:77] Creating layer Pooling14
I0726 00:27:06.682998 10943 net.cpp:91] Creating Layer Pooling14
I0726 00:27:06.683045 10943 net.cpp:425] Pooling14 <- Convolution14
I0726 00:27:06.683111 10943 net.cpp:399] Pooling14 -> Pooling14
I0726 00:27:06.683142 10943 net.cpp:141] Setting up Pooling14
I0726 00:27:06.683162 10943 net.cpp:148] Top shape: 10 50 13 13 (84500)
I0726 00:27:06.683176 10943 net.cpp:156] Memory required for data: 113450200
I0726 00:27:06.683188 10943 layer_factory.hpp:77] Creating layer InnerProduct19
I0726 00:27:06.683226 10943 net.cpp:91] Creating Layer InnerProduct19
I0726 00:27:06.683245 10943 net.cpp:425] InnerProduct19 <- Pooling14
I0726 00:27:06.683265 10943 net.cpp:399] InnerProduct19 -> InnerProduct19
I0726 00:27:06.721616 10943 net.cpp:141] Setting up InnerProduct19
I0726 00:27:06.721866 10943 net.cpp:148] Top shape: 10 500 (5000)
I0726 00:27:06.721977 10943 net.cpp:156] Memory required for data: 113470200
I0726 00:27:06.722021 10943 net.cpp:484] Sharing parameters 'ip1_w' owned by layer 'InnerProduct1', param index 0
I0726 00:27:06.722098 10943 net.cpp:484] Sharing parameters 'ip1_b' owned by layer 'InnerProduct1', param index 1
I0726 00:27:06.722177 10943 layer_factory.hpp:77] Creating layer ReLU13
I0726 00:27:06.722214 10943 net.cpp:91] Creating Layer ReLU13
I0726 00:27:06.722270 10943 net.cpp:425] ReLU13 <- InnerProduct19
I0726 00:27:06.722314 10943 net.cpp:386] ReLU13 -> InnerProduct19 (in-place)
I0726 00:27:06.722379 10943 net.cpp:141] Setting up ReLU13
I0726 00:27:06.722417 10943 net.cpp:148] Top shape: 10 500 (5000)
I0726 00:27:06.722466 10943 net.cpp:156] Memory required for data: 113490200
I0726 00:27:06.722496 10943 layer_factory.hpp:77] Creating layer InnerProduct20
I0726 00:27:06.722529 10943 net.cpp:91] Creating Layer InnerProduct20
I0726 00:27:06.722630 10943 net.cpp:425] InnerProduct20 <- InnerProduct19
I0726 00:27:06.722676 10943 net.cpp:399] InnerProduct20 -> InnerProduct20
I0726 00:27:06.725575 10943 net.cpp:141] Setting up InnerProduct20
I0726 00:27:06.725733 10943 net.cpp:148] Top shape: 10 500 (5000)
I0726 00:27:06.725772 10943 net.cpp:156] Memory required for data: 113510200
I0726 00:27:06.725826 10943 net.cpp:484] Sharing parameters 'ip2_w' owned by layer 'InnerProduct2', param index 0
I0726 00:27:06.725857 10943 net.cpp:484] Sharing parameters 'ip2_b' owned by layer 'InnerProduct2', param index 1
I0726 00:27:06.725900 10943 layer_factory.hpp:77] Creating layer Convolution15
I0726 00:27:06.725944 10943 net.cpp:91] Creating Layer Convolution15
I0726 00:27:06.725991 10943 net.cpp:425] Convolution15 <- c23
I0726 00:27:06.726024 10943 net.cpp:399] Convolution15 -> Convolution15
I0726 00:27:06.726128 10943 net.cpp:141] Setting up Convolution15
I0726 00:27:06.726179 10943 net.cpp:148] Top shape: 10 20 60 60 (720000)
I0726 00:27:06.726200 10943 net.cpp:156] Memory required for data: 116390200
I0726 00:27:06.726241 10943 net.cpp:484] Sharing parameters 'conv1_w' owned by layer 'Convolution1', param index 0
I0726 00:27:06.726265 10943 net.cpp:484] Sharing parameters 'conv1_b' owned by layer 'Convolution1', param index 1
I0726 00:27:06.726305 10943 layer_factory.hpp:77] Creating layer Pooling15
I0726 00:27:06.726331 10943 net.cpp:91] Creating Layer Pooling15
I0726 00:27:06.726372 10943 net.cpp:425] Pooling15 <- Convolution15
I0726 00:27:06.726398 10943 net.cpp:399] Pooling15 -> Pooling15
I0726 00:27:06.726449 10943 net.cpp:141] Setting up Pooling15
I0726 00:27:06.726495 10943 net.cpp:148] Top shape: 10 20 30 30 (180000)
I0726 00:27:06.726516 10943 net.cpp:156] Memory required for data: 117110200
I0726 00:27:06.726557 10943 layer_factory.hpp:77] Creating layer Convolution16
I0726 00:27:06.726596 10943 net.cpp:91] Creating Layer Convolution16
I0726 00:27:06.726697 10943 net.cpp:425] Convolution16 <- Pooling15
I0726 00:27:06.726761 10943 net.cpp:399] Convolution16 -> Convolution16
I0726 00:27:06.727133 10943 net.cpp:141] Setting up Convolution16
I0726 00:27:06.727319 10943 net.cpp:148] Top shape: 10 50 26 26 (338000)
I0726 00:27:06.727406 10943 net.cpp:156] Memory required for data: 118462200
I0726 00:27:06.727525 10943 net.cpp:484] Sharing parameters 'conv2_w' owned by layer 'Convolution2', param index 0
I0726 00:27:06.727577 10943 net.cpp:484] Sharing parameters 'conv2_b' owned by layer 'Convolution2', param index 1
I0726 00:27:06.727649 10943 layer_factory.hpp:77] Creating layer Pooling16
I0726 00:27:06.727705 10943 net.cpp:91] Creating Layer Pooling16
I0726 00:27:06.727779 10943 net.cpp:425] Pooling16 <- Convolution16
I0726 00:27:06.727833 10943 net.cpp:399] Pooling16 -> Pooling16
I0726 00:27:06.727934 10943 net.cpp:141] Setting up Pooling16
I0726 00:27:06.728014 10943 net.cpp:148] Top shape: 10 50 13 13 (84500)
I0726 00:27:06.728051 10943 net.cpp:156] Memory required for data: 118800200
I0726 00:27:06.728117 10943 layer_factory.hpp:77] Creating layer InnerProduct21
I0726 00:27:06.728183 10943 net.cpp:91] Creating Layer InnerProduct21
I0726 00:27:06.728225 10943 net.cpp:425] InnerProduct21 <- Pooling16
I0726 00:27:06.728281 10943 net.cpp:399] InnerProduct21 -> InnerProduct21
I0726 00:27:06.765158 10943 net.cpp:141] Setting up InnerProduct21
I0726 00:27:06.765275 10943 net.cpp:148] Top shape: 10 500 (5000)
I0726 00:27:06.765329 10943 net.cpp:156] Memory required for data: 118820200
I0726 00:27:06.765368 10943 net.cpp:484] Sharing parameters 'ip1_w' owned by layer 'InnerProduct1', param index 0
I0726 00:27:06.765388 10943 net.cpp:484] Sharing parameters 'ip1_b' owned by layer 'InnerProduct1', param index 1
I0726 00:27:06.765405 10943 layer_factory.hpp:77] Creating layer ReLU14
I0726 00:27:06.765431 10943 net.cpp:91] Creating Layer ReLU14
I0726 00:27:06.765466 10943 net.cpp:425] ReLU14 <- InnerProduct21
I0726 00:27:06.765486 10943 net.cpp:386] ReLU14 -> InnerProduct21 (in-place)
I0726 00:27:06.765511 10943 net.cpp:141] Setting up ReLU14
I0726 00:27:06.765543 10943 net.cpp:148] Top shape: 10 500 (5000)
I0726 00:27:06.765611 10943 net.cpp:156] Memory required for data: 118840200
I0726 00:27:06.765630 10943 layer_factory.hpp:77] Creating layer InnerProduct22
I0726 00:27:06.765651 10943 net.cpp:91] Creating Layer InnerProduct22
I0726 00:27:06.765682 10943 net.cpp:425] InnerProduct22 <- InnerProduct21
I0726 00:27:06.765707 10943 net.cpp:399] InnerProduct22 -> InnerProduct22
I0726 00:27:06.768172 10943 net.cpp:141] Setting up InnerProduct22
I0726 00:27:06.768335 10943 net.cpp:148] Top shape: 10 500 (5000)
I0726 00:27:06.768365 10943 net.cpp:156] Memory required for data: 118860200
I0726 00:27:06.768401 10943 net.cpp:484] Sharing parameters 'ip2_w' owned by layer 'InnerProduct2', param index 0
I0726 00:27:06.768431 10943 net.cpp:484] Sharing parameters 'ip2_b' owned by layer 'InnerProduct2', param index 1
I0726 00:27:06.768456 10943 layer_factory.hpp:77] Creating layer Concat4
I0726 00:27:06.768499 10943 net.cpp:91] Creating Layer Concat4
I0726 00:27:06.768563 10943 net.cpp:425] Concat4 <- InnerProduct20
I0726 00:27:06.768599 10943 net.cpp:425] Concat4 <- InnerProduct22
I0726 00:27:06.768636 10943 net.cpp:399] Concat4 -> Concat4
I0726 00:27:06.768681 10943 net.cpp:141] Setting up Concat4
I0726 00:27:06.768738 10943 net.cpp:148] Top shape: 10 1000 (10000)
I0726 00:27:06.768836 10943 net.cpp:156] Memory required for data: 118900200
I0726 00:27:06.768887 10943 layer_factory.hpp:77] Creating layer InnerProduct23
I0726 00:27:06.768929 10943 net.cpp:91] Creating Layer InnerProduct23
I0726 00:27:06.768959 10943 net.cpp:425] InnerProduct23 <- Concat4
I0726 00:27:06.768999 10943 net.cpp:399] InnerProduct23 -> InnerProduct23
I0726 00:27:06.773634 10943 net.cpp:141] Setting up InnerProduct23
I0726 00:27:06.773727 10943 net.cpp:148] Top shape: 10 512 (5120)
I0726 00:27:06.773742 10943 net.cpp:156] Memory required for data: 118920680
I0726 00:27:06.773762 10943 net.cpp:484] Sharing parameters 'fc1_w' owned by layer 'InnerProduct5', param index 0
I0726 00:27:06.773779 10943 net.cpp:484] Sharing parameters 'fc1_b' owned by layer 'InnerProduct5', param index 1
I0726 00:27:06.773794 10943 layer_factory.hpp:77] Creating layer ReLU15
I0726 00:27:06.773816 10943 net.cpp:91] Creating Layer ReLU15
I0726 00:27:06.773844 10943 net.cpp:425] ReLU15 <- InnerProduct23
I0726 00:27:06.773877 10943 net.cpp:386] ReLU15 -> InnerProduct23 (in-place)
I0726 00:27:06.773902 10943 net.cpp:141] Setting up ReLU15
I0726 00:27:06.773918 10943 net.cpp:148] Top shape: 10 512 (5120)
I0726 00:27:06.773931 10943 net.cpp:156] Memory required for data: 118941160
I0726 00:27:06.773942 10943 layer_factory.hpp:77] Creating layer InnerProduct24
I0726 00:27:06.773962 10943 net.cpp:91] Creating Layer InnerProduct24
I0726 00:27:06.773978 10943 net.cpp:425] InnerProduct24 <- InnerProduct23
I0726 00:27:06.773994 10943 net.cpp:399] InnerProduct24 -> InnerProduct24
I0726 00:27:06.776049 10943 net.cpp:141] Setting up InnerProduct24
I0726 00:27:06.776130 10943 net.cpp:148] Top shape: 10 512 (5120)
I0726 00:27:06.776145 10943 net.cpp:156] Memory required for data: 118961640
I0726 00:27:06.776165 10943 net.cpp:484] Sharing parameters 'fc2_w' owned by layer 'InnerProduct6', param index 0
I0726 00:27:06.776182 10943 net.cpp:484] Sharing parameters 'fc2_b' owned by layer 'InnerProduct6', param index 1
I0726 00:27:06.776197 10943 layer_factory.hpp:77] Creating layer ReLU16
I0726 00:27:06.776219 10943 net.cpp:91] Creating Layer ReLU16
I0726 00:27:06.776238 10943 net.cpp:425] ReLU16 <- InnerProduct24
I0726 00:27:06.776255 10943 net.cpp:386] ReLU16 -> InnerProduct24 (in-place)
I0726 00:27:06.776276 10943 net.cpp:141] Setting up ReLU16
I0726 00:27:06.776291 10943 net.cpp:148] Top shape: 10 512 (5120)
I0726 00:27:06.776304 10943 net.cpp:156] Memory required for data: 118982120
I0726 00:27:06.776319 10943 layer_factory.hpp:77] Creating layer dt3
I0726 00:27:06.776340 10943 net.cpp:91] Creating Layer dt3
I0726 00:27:06.776355 10943 net.cpp:425] dt3 <- InnerProduct24
I0726 00:27:06.776372 10943 net.cpp:399] dt3 -> dt3
I0726 00:27:06.776414 10943 net.cpp:141] Setting up dt3
I0726 00:27:06.776432 10943 net.cpp:148] Top shape: 10 2 (20)
I0726 00:27:06.776444 10943 net.cpp:156] Memory required for data: 118982200
I0726 00:27:06.776458 10943 net.cpp:484] Sharing parameters 'fc3_w' owned by layer 'dt0', param index 0
I0726 00:27:06.776473 10943 net.cpp:484] Sharing parameters 'fc3_b' owned by layer 'dt0', param index 1
I0726 00:27:06.776487 10943 layer_factory.hpp:77] Creating layer Convolution17
I0726 00:27:06.776510 10943 net.cpp:91] Creating Layer Convolution17
I0726 00:27:06.776526 10943 net.cpp:425] Convolution17 <- p1_p1_0_split_4
I0726 00:27:06.776546 10943 net.cpp:399] Convolution17 -> Convolution17
I0726 00:27:06.776595 10943 net.cpp:141] Setting up Convolution17
I0726 00:27:06.776615 10943 net.cpp:148] Top shape: 10 20 60 60 (720000)
I0726 00:27:06.776628 10943 net.cpp:156] Memory required for data: 121862200
I0726 00:27:06.776643 10943 net.cpp:484] Sharing parameters 'conv1_w' owned by layer 'Convolution1', param index 0
I0726 00:27:06.776657 10943 net.cpp:484] Sharing parameters 'conv1_b' owned by layer 'Convolution1', param index 1
I0726 00:27:06.776671 10943 layer_factory.hpp:77] Creating layer Pooling17
I0726 00:27:06.776689 10943 net.cpp:91] Creating Layer Pooling17
I0726 00:27:06.776703 10943 net.cpp:425] Pooling17 <- Convolution17
I0726 00:27:06.776721 10943 net.cpp:399] Pooling17 -> Pooling17
I0726 00:27:06.776741 10943 net.cpp:141] Setting up Pooling17
I0726 00:27:06.776757 10943 net.cpp:148] Top shape: 10 20 30 30 (180000)
I0726 00:27:06.776769 10943 net.cpp:156] Memory required for data: 122582200
I0726 00:27:06.776782 10943 layer_factory.hpp:77] Creating layer Convolution18
I0726 00:27:06.776801 10943 net.cpp:91] Creating Layer Convolution18
I0726 00:27:06.776815 10943 net.cpp:425] Convolution18 <- Pooling17
I0726 00:27:06.776831 10943 net.cpp:399] Convolution18 -> Convolution18
I0726 00:27:06.777056 10943 net.cpp:141] Setting up Convolution18
I0726 00:27:06.777086 10943 net.cpp:148] Top shape: 10 50 26 26 (338000)
I0726 00:27:06.777098 10943 net.cpp:156] Memory required for data: 123934200
I0726 00:27:06.777113 10943 net.cpp:484] Sharing parameters 'conv2_w' owned by layer 'Convolution2', param index 0
I0726 00:27:06.777128 10943 net.cpp:484] Sharing parameters 'conv2_b' owned by layer 'Convolution2', param index 1
I0726 00:27:06.777164 10943 layer_factory.hpp:77] Creating layer Pooling18
I0726 00:27:06.777210 10943 net.cpp:91] Creating Layer Pooling18
I0726 00:27:06.777235 10943 net.cpp:425] Pooling18 <- Convolution18
I0726 00:27:06.777254 10943 net.cpp:399] Pooling18 -> Pooling18
I0726 00:27:06.777281 10943 net.cpp:141] Setting up Pooling18
I0726 00:27:06.777299 10943 net.cpp:148] Top shape: 10 50 13 13 (84500)
I0726 00:27:06.777312 10943 net.cpp:156] Memory required for data: 124272200
I0726 00:27:06.777328 10943 layer_factory.hpp:77] Creating layer InnerProduct25
I0726 00:27:06.777350 10943 net.cpp:91] Creating Layer InnerProduct25
I0726 00:27:06.777367 10943 net.cpp:425] InnerProduct25 <- Pooling18
I0726 00:27:06.777390 10943 net.cpp:399] InnerProduct25 -> InnerProduct25
I0726 00:27:06.815884 10943 net.cpp:141] Setting up InnerProduct25
I0726 00:27:06.815994 10943 net.cpp:148] Top shape: 10 500 (5000)
I0726 00:27:06.816047 10943 net.cpp:156] Memory required for data: 124292200
I0726 00:27:06.816084 10943 net.cpp:484] Sharing parameters 'ip1_w' owned by layer 'InnerProduct1', param index 0
I0726 00:27:06.816105 10943 net.cpp:484] Sharing parameters 'ip1_b' owned by layer 'InnerProduct1', param index 1
I0726 00:27:06.816136 10943 layer_factory.hpp:77] Creating layer ReLU17
I0726 00:27:06.816162 10943 net.cpp:91] Creating Layer ReLU17
I0726 00:27:06.816195 10943 net.cpp:425] ReLU17 <- InnerProduct25
I0726 00:27:06.816215 10943 net.cpp:386] ReLU17 -> InnerProduct25 (in-place)
I0726 00:27:06.816252 10943 net.cpp:141] Setting up ReLU17
I0726 00:27:06.816272 10943 net.cpp:148] Top shape: 10 500 (5000)
I0726 00:27:06.816299 10943 net.cpp:156] Memory required for data: 124312200
I0726 00:27:06.816315 10943 layer_factory.hpp:77] Creating layer InnerProduct26
I0726 00:27:06.816335 10943 net.cpp:91] Creating Layer InnerProduct26
I0726 00:27:06.816365 10943 net.cpp:425] InnerProduct26 <- InnerProduct25
I0726 00:27:06.816386 10943 net.cpp:399] InnerProduct26 -> InnerProduct26
I0726 00:27:06.818387 10943 net.cpp:141] Setting up InnerProduct26
I0726 00:27:06.818509 10943 net.cpp:148] Top shape: 10 500 (5000)
I0726 00:27:06.818527 10943 net.cpp:156] Memory required for data: 124332200
I0726 00:27:06.818545 10943 net.cpp:484] Sharing parameters 'ip2_w' owned by layer 'InnerProduct2', param index 0
I0726 00:27:06.818616 10943 net.cpp:484] Sharing parameters 'ip2_b' owned by layer 'InnerProduct2', param index 1
I0726 00:27:06.818657 10943 layer_factory.hpp:77] Creating layer Convolution19
I0726 00:27:06.818691 10943 net.cpp:91] Creating Layer Convolution19
I0726 00:27:06.818724 10943 net.cpp:425] Convolution19 <- c24
I0726 00:27:06.818748 10943 net.cpp:399] Convolution19 -> Convolution19
I0726 00:27:06.818821 10943 net.cpp:141] Setting up Convolution19
I0726 00:27:06.818859 10943 net.cpp:148] Top shape: 10 20 60 60 (720000)
I0726 00:27:06.818874 10943 net.cpp:156] Memory required for data: 127212200
I0726 00:27:06.818891 10943 net.cpp:484] Sharing parameters 'conv1_w' owned by layer 'Convolution1', param index 0
I0726 00:27:06.818922 10943 net.cpp:484] Sharing parameters 'conv1_b' owned by layer 'Convolution1', param index 1
I0726 00:27:06.818938 10943 layer_factory.hpp:77] Creating layer Pooling19
I0726 00:27:06.818956 10943 net.cpp:91] Creating Layer Pooling19
I0726 00:27:06.818986 10943 net.cpp:425] Pooling19 <- Convolution19
I0726 00:27:06.819008 10943 net.cpp:399] Pooling19 -> Pooling19
I0726 00:27:06.819033 10943 net.cpp:141] Setting up Pooling19
I0726 00:27:06.819067 10943 net.cpp:148] Top shape: 10 20 30 30 (180000)
I0726 00:27:06.819080 10943 net.cpp:156] Memory required for data: 127932200
I0726 00:27:06.819095 10943 layer_factory.hpp:77] Creating layer Convolution20
I0726 00:27:06.819128 10943 net.cpp:91] Creating Layer Convolution20
I0726 00:27:06.819145 10943 net.cpp:425] Convolution20 <- Pooling19
I0726 00:27:06.819180 10943 net.cpp:399] Convolution20 -> Convolution20
I0726 00:27:06.819419 10943 net.cpp:141] Setting up Convolution20
I0726 00:27:06.819504 10943 net.cpp:148] Top shape: 10 50 26 26 (338000)
I0726 00:27:06.819560 10943 net.cpp:156] Memory required for data: 129284200
I0726 00:27:06.819586 10943 net.cpp:484] Sharing parameters 'conv2_w' owned by layer 'Convolution2', param index 0
I0726 00:27:06.819607 10943 net.cpp:484] Sharing parameters 'conv2_b' owned by layer 'Convolution2', param index 1
I0726 00:27:06.819639 10943 layer_factory.hpp:77] Creating layer Pooling20
I0726 00:27:06.819661 10943 net.cpp:91] Creating Layer Pooling20
I0726 00:27:06.819679 10943 net.cpp:425] Pooling20 <- Convolution20
I0726 00:27:06.819697 10943 net.cpp:399] Pooling20 -> Pooling20
I0726 00:27:06.819736 10943 net.cpp:141] Setting up Pooling20
I0726 00:27:06.819757 10943 net.cpp:148] Top shape: 10 50 13 13 (84500)
I0726 00:27:06.819772 10943 net.cpp:156] Memory required for data: 129622200
I0726 00:27:06.819785 10943 layer_factory.hpp:77] Creating layer InnerProduct27
I0726 00:27:06.819805 10943 net.cpp:91] Creating Layer InnerProduct27
I0726 00:27:06.819821 10943 net.cpp:425] InnerProduct27 <- Pooling20
I0726 00:27:06.819842 10943 net.cpp:399] InnerProduct27 -> InnerProduct27
I0726 00:27:06.857446 10943 net.cpp:141] Setting up InnerProduct27
I0726 00:27:06.857692 10943 net.cpp:148] Top shape: 10 500 (5000)
I0726 00:27:06.857822 10943 net.cpp:156] Memory required for data: 129642200
I0726 00:27:06.857926 10943 net.cpp:484] Sharing parameters 'ip1_w' owned by layer 'InnerProduct1', param index 0
I0726 00:27:06.857993 10943 net.cpp:484] Sharing parameters 'ip1_b' owned by layer 'InnerProduct1', param index 1
I0726 00:27:06.858031 10943 layer_factory.hpp:77] Creating layer ReLU18
I0726 00:27:06.858098 10943 net.cpp:91] Creating Layer ReLU18
I0726 00:27:06.858139 10943 net.cpp:425] ReLU18 <- InnerProduct27
I0726 00:27:06.858217 10943 net.cpp:386] ReLU18 -> InnerProduct27 (in-place)
I0726 00:27:06.858378 10943 net.cpp:141] Setting up ReLU18
I0726 00:27:06.858455 10943 net.cpp:148] Top shape: 10 500 (5000)
I0726 00:27:06.858489 10943 net.cpp:156] Memory required for data: 129662200
I0726 00:27:06.858547 10943 layer_factory.hpp:77] Creating layer InnerProduct28
I0726 00:27:06.858597 10943 net.cpp:91] Creating Layer InnerProduct28
I0726 00:27:06.858718 10943 net.cpp:425] InnerProduct28 <- InnerProduct27
I0726 00:27:06.858798 10943 net.cpp:399] InnerProduct28 -> InnerProduct28
I0726 00:27:06.863865 10943 net.cpp:141] Setting up InnerProduct28
I0726 00:27:06.864018 10943 net.cpp:148] Top shape: 10 500 (5000)
I0726 00:27:06.864058 10943 net.cpp:156] Memory required for data: 129682200
I0726 00:27:06.864090 10943 net.cpp:484] Sharing parameters 'ip2_w' owned by layer 'InnerProduct2', param index 0
I0726 00:27:06.864125 10943 net.cpp:484] Sharing parameters 'ip2_b' owned by layer 'InnerProduct2', param index 1
I0726 00:27:06.864156 10943 layer_factory.hpp:77] Creating layer Concat5
I0726 00:27:06.864193 10943 net.cpp:91] Creating Layer Concat5
I0726 00:27:06.864224 10943 net.cpp:425] Concat5 <- InnerProduct26
I0726 00:27:06.864259 10943 net.cpp:425] Concat5 <- InnerProduct28
I0726 00:27:06.864292 10943 net.cpp:399] Concat5 -> Concat5
I0726 00:27:06.864418 10943 net.cpp:141] Setting up Concat5
I0726 00:27:06.864465 10943 net.cpp:148] Top shape: 10 1000 (10000)
I0726 00:27:06.864492 10943 net.cpp:156] Memory required for data: 129722200
I0726 00:27:06.864521 10943 layer_factory.hpp:77] Creating layer InnerProduct29
I0726 00:27:06.864569 10943 net.cpp:91] Creating Layer InnerProduct29
I0726 00:27:06.864604 10943 net.cpp:425] InnerProduct29 <- Concat5
I0726 00:27:06.864651 10943 net.cpp:399] InnerProduct29 -> InnerProduct29
I0726 00:27:06.870103 10943 net.cpp:141] Setting up InnerProduct29
I0726 00:27:06.870223 10943 net.cpp:148] Top shape: 10 512 (5120)
I0726 00:27:06.870259 10943 net.cpp:156] Memory required for data: 129742680
I0726 00:27:06.870280 10943 net.cpp:484] Sharing parameters 'fc1_w' owned by layer 'InnerProduct5', param index 0
I0726 00:27:06.870298 10943 net.cpp:484] Sharing parameters 'fc1_b' owned by layer 'InnerProduct5', param index 1
I0726 00:27:06.870314 10943 layer_factory.hpp:77] Creating layer ReLU19
I0726 00:27:06.870347 10943 net.cpp:91] Creating Layer ReLU19
I0726 00:27:06.870383 10943 net.cpp:425] ReLU19 <- InnerProduct29
I0726 00:27:06.870401 10943 net.cpp:386] ReLU19 -> InnerProduct29 (in-place)
I0726 00:27:06.870425 10943 net.cpp:141] Setting up ReLU19
I0726 00:27:06.870443 10943 net.cpp:148] Top shape: 10 512 (5120)
I0726 00:27:06.870460 10943 net.cpp:156] Memory required for data: 129763160
I0726 00:27:06.870474 10943 layer_factory.hpp:77] Creating layer InnerProduct30
I0726 00:27:06.870520 10943 net.cpp:91] Creating Layer InnerProduct30
I0726 00:27:06.870538 10943 net.cpp:425] InnerProduct30 <- InnerProduct29
I0726 00:27:06.870559 10943 net.cpp:399] InnerProduct30 -> InnerProduct30
I0726 00:27:06.872689 10943 net.cpp:141] Setting up InnerProduct30
I0726 00:27:06.872819 10943 net.cpp:148] Top shape: 10 512 (5120)
I0726 00:27:06.872856 10943 net.cpp:156] Memory required for data: 129783640
I0726 00:27:06.872876 10943 net.cpp:484] Sharing parameters 'fc2_w' owned by layer 'InnerProduct6', param index 0
I0726 00:27:06.872908 10943 net.cpp:484] Sharing parameters 'fc2_b' owned by layer 'InnerProduct6', param index 1
I0726 00:27:06.872926 10943 layer_factory.hpp:77] Creating layer ReLU20
I0726 00:27:06.873003 10943 net.cpp:91] Creating Layer ReLU20
I0726 00:27:06.873042 10943 net.cpp:425] ReLU20 <- InnerProduct30
I0726 00:27:06.873062 10943 net.cpp:386] ReLU20 -> InnerProduct30 (in-place)
I0726 00:27:06.873100 10943 net.cpp:141] Setting up ReLU20
I0726 00:27:06.873118 10943 net.cpp:148] Top shape: 10 512 (5120)
I0726 00:27:06.873147 10943 net.cpp:156] Memory required for data: 129804120
I0726 00:27:06.873162 10943 layer_factory.hpp:77] Creating layer dt4
I0726 00:27:06.873180 10943 net.cpp:91] Creating Layer dt4
I0726 00:27:06.873210 10943 net.cpp:425] dt4 <- InnerProduct30
I0726 00:27:06.873231 10943 net.cpp:399] dt4 -> dt4
I0726 00:27:06.873286 10943 net.cpp:141] Setting up dt4
I0726 00:27:06.873319 10943 net.cpp:148] Top shape: 10 2 (20)
I0726 00:27:06.873335 10943 net.cpp:156] Memory required for data: 129804200
I0726 00:27:06.873352 10943 net.cpp:484] Sharing parameters 'fc3_w' owned by layer 'dt0', param index 0
I0726 00:27:06.873411 10943 net.cpp:484] Sharing parameters 'fc3_b' owned by layer 'dt0', param index 1
I0726 00:27:06.873447 10943 layer_factory.hpp:77] Creating layer Convolution21
I0726 00:27:06.873469 10943 net.cpp:91] Creating Layer Convolution21
I0726 00:27:06.873487 10943 net.cpp:425] Convolution21 <- p1_p1_0_split_5
I0726 00:27:06.873509 10943 net.cpp:399] Convolution21 -> Convolution21
I0726 00:27:06.873564 10943 net.cpp:141] Setting up Convolution21
I0726 00:27:06.873584 10943 net.cpp:148] Top shape: 10 20 60 60 (720000)
I0726 00:27:06.873599 10943 net.cpp:156] Memory required for data: 132684200
I0726 00:27:06.873615 10943 net.cpp:484] Sharing parameters 'conv1_w' owned by layer 'Convolution1', param index 0
I0726 00:27:06.873630 10943 net.cpp:484] Sharing parameters 'conv1_b' owned by layer 'Convolution1', param index 1
I0726 00:27:06.873644 10943 layer_factory.hpp:77] Creating layer Pooling21
I0726 00:27:06.873664 10943 net.cpp:91] Creating Layer Pooling21
I0726 00:27:06.873680 10943 net.cpp:425] Pooling21 <- Convolution21
I0726 00:27:06.873699 10943 net.cpp:399] Pooling21 -> Pooling21
I0726 00:27:06.873721 10943 net.cpp:141] Setting up Pooling21
I0726 00:27:06.873739 10943 net.cpp:148] Top shape: 10 20 30 30 (180000)
I0726 00:27:06.873752 10943 net.cpp:156] Memory required for data: 133404200
I0726 00:27:06.873765 10943 layer_factory.hpp:77] Creating layer Convolution22
I0726 00:27:06.873785 10943 net.cpp:91] Creating Layer Convolution22
I0726 00:27:06.873800 10943 net.cpp:425] Convolution22 <- Pooling21
I0726 00:27:06.873821 10943 net.cpp:399] Convolution22 -> Convolution22
I0726 00:27:06.874054 10943 net.cpp:141] Setting up Convolution22
I0726 00:27:06.874078 10943 net.cpp:148] Top shape: 10 50 26 26 (338000)
I0726 00:27:06.874091 10943 net.cpp:156] Memory required for data: 134756200
I0726 00:27:06.874106 10943 net.cpp:484] Sharing parameters 'conv2_w' owned by layer 'Convolution2', param index 0
I0726 00:27:06.874140 10943 net.cpp:484] Sharing parameters 'conv2_b' owned by layer 'Convolution2', param index 1
I0726 00:27:06.874156 10943 layer_factory.hpp:77] Creating layer Pooling22
I0726 00:27:06.874173 10943 net.cpp:91] Creating Layer Pooling22
I0726 00:27:06.874189 10943 net.cpp:425] Pooling22 <- Convolution22
I0726 00:27:06.874208 10943 net.cpp:399] Pooling22 -> Pooling22
I0726 00:27:06.874229 10943 net.cpp:141] Setting up Pooling22
I0726 00:27:06.874248 10943 net.cpp:148] Top shape: 10 50 13 13 (84500)
I0726 00:27:06.874261 10943 net.cpp:156] Memory required for data: 135094200
I0726 00:27:06.874274 10943 layer_factory.hpp:77] Creating layer InnerProduct31
I0726 00:27:06.874292 10943 net.cpp:91] Creating Layer InnerProduct31
I0726 00:27:06.874307 10943 net.cpp:425] InnerProduct31 <- Pooling22
I0726 00:27:06.874331 10943 net.cpp:399] InnerProduct31 -> InnerProduct31
I0726 00:27:06.908977 10943 net.cpp:141] Setting up InnerProduct31
I0726 00:27:06.909154 10943 net.cpp:148] Top shape: 10 500 (5000)
I0726 00:27:06.909212 10943 net.cpp:156] Memory required for data: 135114200
I0726 00:27:06.909236 10943 net.cpp:484] Sharing parameters 'ip1_w' owned by layer 'InnerProduct1', param index 0
I0726 00:27:06.909273 10943 net.cpp:484] Sharing parameters 'ip1_b' owned by layer 'InnerProduct1', param index 1
I0726 00:27:06.909291 10943 layer_factory.hpp:77] Creating layer ReLU21
I0726 00:27:06.909317 10943 net.cpp:91] Creating Layer ReLU21
I0726 00:27:06.909353 10943 net.cpp:425] ReLU21 <- InnerProduct31
I0726 00:27:06.909373 10943 net.cpp:386] ReLU21 -> InnerProduct31 (in-place)
I0726 00:27:06.909397 10943 net.cpp:141] Setting up ReLU21
I0726 00:27:06.909430 10943 net.cpp:148] Top shape: 10 500 (5000)
I0726 00:27:06.909446 10943 net.cpp:156] Memory required for data: 135134200
I0726 00:27:06.909459 10943 layer_factory.hpp:77] Creating layer InnerProduct32
I0726 00:27:06.909482 10943 net.cpp:91] Creating Layer InnerProduct32
I0726 00:27:06.909499 10943 net.cpp:425] InnerProduct32 <- InnerProduct31
I0726 00:27:06.909518 10943 net.cpp:399] InnerProduct32 -> InnerProduct32
I0726 00:27:06.911674 10943 net.cpp:141] Setting up InnerProduct32
I0726 00:27:06.911800 10943 net.cpp:148] Top shape: 10 500 (5000)
I0726 00:27:06.911818 10943 net.cpp:156] Memory required for data: 135154200
I0726 00:27:06.911839 10943 net.cpp:484] Sharing parameters 'ip2_w' owned by layer 'InnerProduct2', param index 0
I0726 00:27:06.911856 10943 net.cpp:484] Sharing parameters 'ip2_b' owned by layer 'InnerProduct2', param index 1
I0726 00:27:06.911873 10943 layer_factory.hpp:77] Creating layer Convolution23
I0726 00:27:06.911903 10943 net.cpp:91] Creating Layer Convolution23
I0726 00:27:06.911941 10943 net.cpp:425] Convolution23 <- c25
I0726 00:27:06.911967 10943 net.cpp:399] Convolution23 -> Convolution23
I0726 00:27:06.912029 10943 net.cpp:141] Setting up Convolution23
I0726 00:27:06.912068 10943 net.cpp:148] Top shape: 10 20 60 60 (720000)
I0726 00:27:06.912083 10943 net.cpp:156] Memory required for data: 138034200
I0726 00:27:06.912099 10943 net.cpp:484] Sharing parameters 'conv1_w' owned by layer 'Convolution1', param index 0
I0726 00:27:06.912116 10943 net.cpp:484] Sharing parameters 'conv1_b' owned by layer 'Convolution1', param index 1
I0726 00:27:06.912147 10943 layer_factory.hpp:77] Creating layer Pooling23
I0726 00:27:06.912168 10943 net.cpp:91] Creating Layer Pooling23
I0726 00:27:06.912184 10943 net.cpp:425] Pooling23 <- Convolution23
I0726 00:27:06.912204 10943 net.cpp:399] Pooling23 -> Pooling23
I0726 00:27:06.912227 10943 net.cpp:141] Setting up Pooling23
I0726 00:27:06.912261 10943 net.cpp:148] Top shape: 10 20 30 30 (180000)
I0726 00:27:06.912276 10943 net.cpp:156] Memory required for data: 138754200
I0726 00:27:06.912291 10943 layer_factory.hpp:77] Creating layer Convolution24
I0726 00:27:06.912312 10943 net.cpp:91] Creating Layer Convolution24
I0726 00:27:06.912329 10943 net.cpp:425] Convolution24 <- Pooling23
I0726 00:27:06.912348 10943 net.cpp:399] Convolution24 -> Convolution24
I0726 00:27:06.912596 10943 net.cpp:141] Setting up Convolution24
I0726 00:27:06.912650 10943 net.cpp:148] Top shape: 10 50 26 26 (338000)
I0726 00:27:06.912665 10943 net.cpp:156] Memory required for data: 140106200
I0726 00:27:06.912681 10943 net.cpp:484] Sharing parameters 'conv2_w' owned by layer 'Convolution2', param index 0
I0726 00:27:06.912698 10943 net.cpp:484] Sharing parameters 'conv2_b' owned by layer 'Convolution2', param index 1
I0726 00:27:06.912714 10943 layer_factory.hpp:77] Creating layer Pooling24
I0726 00:27:06.912730 10943 net.cpp:91] Creating Layer Pooling24
I0726 00:27:06.912761 10943 net.cpp:425] Pooling24 <- Convolution24
I0726 00:27:06.912781 10943 net.cpp:399] Pooling24 -> Pooling24
I0726 00:27:06.912806 10943 net.cpp:141] Setting up Pooling24
I0726 00:27:06.912839 10943 net.cpp:148] Top shape: 10 50 13 13 (84500)
I0726 00:27:06.912854 10943 net.cpp:156] Memory required for data: 140444200
I0726 00:27:06.912868 10943 layer_factory.hpp:77] Creating layer InnerProduct33
I0726 00:27:06.912888 10943 net.cpp:91] Creating Layer InnerProduct33
I0726 00:27:06.912906 10943 net.cpp:425] InnerProduct33 <- Pooling24
I0726 00:27:06.912925 10943 net.cpp:399] InnerProduct33 -> InnerProduct33
I0726 00:27:06.949218 10943 net.cpp:141] Setting up InnerProduct33
I0726 00:27:06.949506 10943 net.cpp:148] Top shape: 10 500 (5000)
I0726 00:27:06.949846 10943 net.cpp:156] Memory required for data: 140464200
I0726 00:27:06.950050 10943 net.cpp:484] Sharing parameters 'ip1_w' owned by layer 'InnerProduct1', param index 0
I0726 00:27:06.950171 10943 net.cpp:484] Sharing parameters 'ip1_b' owned by layer 'InnerProduct1', param index 1
I0726 00:27:06.950209 10943 layer_factory.hpp:77] Creating layer ReLU22
I0726 00:27:06.950248 10943 net.cpp:91] Creating Layer ReLU22
I0726 00:27:06.950299 10943 net.cpp:425] ReLU22 <- InnerProduct33
I0726 00:27:06.950330 10943 net.cpp:386] ReLU22 -> InnerProduct33 (in-place)
I0726 00:27:06.950384 10943 net.cpp:141] Setting up ReLU22
I0726 00:27:06.950485 10943 net.cpp:148] Top shape: 10 500 (5000)
I0726 00:27:06.950598 10943 net.cpp:156] Memory required for data: 140484200
I0726 00:27:06.950763 10943 layer_factory.hpp:77] Creating layer InnerProduct34
I0726 00:27:06.950918 10943 net.cpp:91] Creating Layer InnerProduct34
I0726 00:27:06.951062 10943 net.cpp:425] InnerProduct34 <- InnerProduct33
I0726 00:27:06.951304 10943 net.cpp:399] InnerProduct34 -> InnerProduct34
I0726 00:27:06.954957 10943 net.cpp:141] Setting up InnerProduct34
I0726 00:27:06.955076 10943 net.cpp:148] Top shape: 10 500 (5000)
I0726 00:27:06.955116 10943 net.cpp:156] Memory required for data: 140504200
I0726 00:27:06.955142 10943 net.cpp:484] Sharing parameters 'ip2_w' owned by layer 'InnerProduct2', param index 0
I0726 00:27:06.955164 10943 net.cpp:484] Sharing parameters 'ip2_b' owned by layer 'InnerProduct2', param index 1
I0726 00:27:06.955183 10943 layer_factory.hpp:77] Creating layer Concat6
I0726 00:27:06.955207 10943 net.cpp:91] Creating Layer Concat6
I0726 00:27:06.955229 10943 net.cpp:425] Concat6 <- InnerProduct32
I0726 00:27:06.955248 10943 net.cpp:425] Concat6 <- InnerProduct34
I0726 00:27:06.955288 10943 net.cpp:399] Concat6 -> Concat6
I0726 00:27:06.955317 10943 net.cpp:141] Setting up Concat6
I0726 00:27:06.955335 10943 net.cpp:148] Top shape: 10 1000 (10000)
I0726 00:27:06.955348 10943 net.cpp:156] Memory required for data: 140544200
I0726 00:27:06.955363 10943 layer_factory.hpp:77] Creating layer InnerProduct35
I0726 00:27:06.955381 10943 net.cpp:91] Creating Layer InnerProduct35
I0726 00:27:06.955410 10943 net.cpp:425] InnerProduct35 <- Concat6
I0726 00:27:06.955431 10943 net.cpp:399] InnerProduct35 -> InnerProduct35
I0726 00:27:06.959312 10943 net.cpp:141] Setting up InnerProduct35
I0726 00:27:06.959396 10943 net.cpp:148] Top shape: 10 512 (5120)
I0726 00:27:06.959411 10943 net.cpp:156] Memory required for data: 140564680
I0726 00:27:06.959431 10943 net.cpp:484] Sharing parameters 'fc1_w' owned by layer 'InnerProduct5', param index 0
I0726 00:27:06.959447 10943 net.cpp:484] Sharing parameters 'fc1_b' owned by layer 'InnerProduct5', param index 1
I0726 00:27:06.959482 10943 layer_factory.hpp:77] Creating layer ReLU23
I0726 00:27:06.959508 10943 net.cpp:91] Creating Layer ReLU23
I0726 00:27:06.959529 10943 net.cpp:425] ReLU23 <- InnerProduct35
I0726 00:27:06.959547 10943 net.cpp:386] ReLU23 -> InnerProduct35 (in-place)
I0726 00:27:06.959571 10943 net.cpp:141] Setting up ReLU23
I0726 00:27:06.959589 10943 net.cpp:148] Top shape: 10 512 (5120)
I0726 00:27:06.959601 10943 net.cpp:156] Memory required for data: 140585160
I0726 00:27:06.959614 10943 layer_factory.hpp:77] Creating layer InnerProduct36
I0726 00:27:06.959636 10943 net.cpp:91] Creating Layer InnerProduct36
I0726 00:27:06.959653 10943 net.cpp:425] InnerProduct36 <- InnerProduct35
I0726 00:27:06.959669 10943 net.cpp:399] InnerProduct36 -> InnerProduct36
I0726 00:27:06.961627 10943 net.cpp:141] Setting up InnerProduct36
I0726 00:27:06.961691 10943 net.cpp:148] Top shape: 10 512 (5120)
I0726 00:27:06.961705 10943 net.cpp:156] Memory required for data: 140605640
I0726 00:27:06.961750 10943 net.cpp:484] Sharing parameters 'fc2_w' owned by layer 'InnerProduct6', param index 0
I0726 00:27:06.961768 10943 net.cpp:484] Sharing parameters 'fc2_b' owned by layer 'InnerProduct6', param index 1
I0726 00:27:06.961783 10943 layer_factory.hpp:77] Creating layer ReLU24
I0726 00:27:06.961802 10943 net.cpp:91] Creating Layer ReLU24
I0726 00:27:06.961818 10943 net.cpp:425] ReLU24 <- InnerProduct36
I0726 00:27:06.961833 10943 net.cpp:386] ReLU24 -> InnerProduct36 (in-place)
I0726 00:27:06.961853 10943 net.cpp:141] Setting up ReLU24
I0726 00:27:06.961869 10943 net.cpp:148] Top shape: 10 512 (5120)
I0726 00:27:06.961880 10943 net.cpp:156] Memory required for data: 140626120
I0726 00:27:06.961894 10943 layer_factory.hpp:77] Creating layer dt5
I0726 00:27:06.961910 10943 net.cpp:91] Creating Layer dt5
I0726 00:27:06.961922 10943 net.cpp:425] dt5 <- InnerProduct36
I0726 00:27:06.961940 10943 net.cpp:399] dt5 -> dt5
I0726 00:27:06.961976 10943 net.cpp:141] Setting up dt5
I0726 00:27:06.961992 10943 net.cpp:148] Top shape: 10 2 (20)
I0726 00:27:06.962004 10943 net.cpp:156] Memory required for data: 140626200
I0726 00:27:06.962018 10943 net.cpp:484] Sharing parameters 'fc3_w' owned by layer 'dt0', param index 0
I0726 00:27:06.962031 10943 net.cpp:484] Sharing parameters 'fc3_b' owned by layer 'dt0', param index 1
I0726 00:27:06.962044 10943 layer_factory.hpp:77] Creating layer Convolution25
I0726 00:27:06.962064 10943 net.cpp:91] Creating Layer Convolution25
I0726 00:27:06.962079 10943 net.cpp:425] Convolution25 <- p1_p1_0_split_6
I0726 00:27:06.962097 10943 net.cpp:399] Convolution25 -> Convolution25
I0726 00:27:06.962146 10943 net.cpp:141] Setting up Convolution25
I0726 00:27:06.962163 10943 net.cpp:148] Top shape: 10 20 60 60 (720000)
I0726 00:27:06.962175 10943 net.cpp:156] Memory required for data: 143506200
I0726 00:27:06.962189 10943 net.cpp:484] Sharing parameters 'conv1_w' owned by layer 'Convolution1', param index 0
I0726 00:27:06.962203 10943 net.cpp:484] Sharing parameters 'conv1_b' owned by layer 'Convolution1', param index 1
I0726 00:27:06.962216 10943 layer_factory.hpp:77] Creating layer Pooling25
I0726 00:27:06.962232 10943 net.cpp:91] Creating Layer Pooling25
I0726 00:27:06.962245 10943 net.cpp:425] Pooling25 <- Convolution25
I0726 00:27:06.962265 10943 net.cpp:399] Pooling25 -> Pooling25
I0726 00:27:06.962285 10943 net.cpp:141] Setting up Pooling25
I0726 00:27:06.962299 10943 net.cpp:148] Top shape: 10 20 30 30 (180000)
I0726 00:27:06.962311 10943 net.cpp:156] Memory required for data: 144226200
I0726 00:27:06.962324 10943 layer_factory.hpp:77] Creating layer Convolution26
I0726 00:27:06.962340 10943 net.cpp:91] Creating Layer Convolution26
I0726 00:27:06.962354 10943 net.cpp:425] Convolution26 <- Pooling25
I0726 00:27:06.962371 10943 net.cpp:399] Convolution26 -> Convolution26
I0726 00:27:06.962782 10943 net.cpp:141] Setting up Convolution26
I0726 00:27:06.962957 10943 net.cpp:148] Top shape: 10 50 26 26 (338000)
I0726 00:27:06.963004 10943 net.cpp:156] Memory required for data: 145578200
I0726 00:27:06.963050 10943 net.cpp:484] Sharing parameters 'conv2_w' owned by layer 'Convolution2', param index 0
I0726 00:27:06.963098 10943 net.cpp:484] Sharing parameters 'conv2_b' owned by layer 'Convolution2', param index 1
I0726 00:27:06.963124 10943 layer_factory.hpp:77] Creating layer Pooling26
I0726 00:27:06.963155 10943 net.cpp:91] Creating Layer Pooling26
I0726 00:27:06.963186 10943 net.cpp:425] Pooling26 <- Convolution26
I0726 00:27:06.963227 10943 net.cpp:399] Pooling26 -> Pooling26
I0726 00:27:06.963274 10943 net.cpp:141] Setting up Pooling26
I0726 00:27:06.963306 10943 net.cpp:148] Top shape: 10 50 13 13 (84500)
I0726 00:27:06.963330 10943 net.cpp:156] Memory required for data: 145916200
I0726 00:27:06.963353 10943 layer_factory.hpp:77] Creating layer InnerProduct37
I0726 00:27:06.963385 10943 net.cpp:91] Creating Layer InnerProduct37
I0726 00:27:06.963409 10943 net.cpp:425] InnerProduct37 <- Pooling26
I0726 00:27:06.963446 10943 net.cpp:399] InnerProduct37 -> InnerProduct37
I0726 00:27:07.004307 10943 net.cpp:141] Setting up InnerProduct37
I0726 00:27:07.004431 10943 net.cpp:148] Top shape: 10 500 (5000)
I0726 00:27:07.004487 10943 net.cpp:156] Memory required for data: 145936200
I0726 00:27:07.004525 10943 net.cpp:484] Sharing parameters 'ip1_w' owned by layer 'InnerProduct1', param index 0
I0726 00:27:07.004545 10943 net.cpp:484] Sharing parameters 'ip1_b' owned by layer 'InnerProduct1', param index 1
I0726 00:27:07.004576 10943 layer_factory.hpp:77] Creating layer ReLU25
I0726 00:27:07.004604 10943 net.cpp:91] Creating Layer ReLU25
I0726 00:27:07.004638 10943 net.cpp:425] ReLU25 <- InnerProduct37
I0726 00:27:07.004658 10943 net.cpp:386] ReLU25 -> InnerProduct37 (in-place)
I0726 00:27:07.004696 10943 net.cpp:141] Setting up ReLU25
I0726 00:27:07.004715 10943 net.cpp:148] Top shape: 10 500 (5000)
I0726 00:27:07.004743 10943 net.cpp:156] Memory required for data: 145956200
I0726 00:27:07.004760 10943 layer_factory.hpp:77] Creating layer InnerProduct38
I0726 00:27:07.004782 10943 net.cpp:91] Creating Layer InnerProduct38
I0726 00:27:07.004813 10943 net.cpp:425] InnerProduct38 <- InnerProduct37
I0726 00:27:07.004833 10943 net.cpp:399] InnerProduct38 -> InnerProduct38
I0726 00:27:07.006881 10943 net.cpp:141] Setting up InnerProduct38
I0726 00:27:07.006949 10943 net.cpp:148] Top shape: 10 500 (5000)
I0726 00:27:07.006965 10943 net.cpp:156] Memory required for data: 145976200
I0726 00:27:07.006984 10943 net.cpp:484] Sharing parameters 'ip2_w' owned by layer 'InnerProduct2', param index 0
I0726 00:27:07.007016 10943 net.cpp:484] Sharing parameters 'ip2_b' owned by layer 'InnerProduct2', param index 1
I0726 00:27:07.007033 10943 layer_factory.hpp:77] Creating layer Convolution27
I0726 00:27:07.007061 10943 net.cpp:91] Creating Layer Convolution27
I0726 00:27:07.007097 10943 net.cpp:425] Convolution27 <- c26
I0726 00:27:07.007122 10943 net.cpp:399] Convolution27 -> Convolution27
I0726 00:27:07.007195 10943 net.cpp:141] Setting up Convolution27
I0726 00:27:07.007233 10943 net.cpp:148] Top shape: 10 20 60 60 (720000)
I0726 00:27:07.007248 10943 net.cpp:156] Memory required for data: 148856200
I0726 00:27:07.007266 10943 net.cpp:484] Sharing parameters 'conv1_w' owned by layer 'Convolution1', param index 0
I0726 00:27:07.007295 10943 net.cpp:484] Sharing parameters 'conv1_b' owned by layer 'Convolution1', param index 1
I0726 00:27:07.007311 10943 layer_factory.hpp:77] Creating layer Pooling27
I0726 00:27:07.007329 10943 net.cpp:91] Creating Layer Pooling27
I0726 00:27:07.007359 10943 net.cpp:425] Pooling27 <- Convolution27
I0726 00:27:07.007380 10943 net.cpp:399] Pooling27 -> Pooling27
I0726 00:27:07.007418 10943 net.cpp:141] Setting up Pooling27
I0726 00:27:07.007438 10943 net.cpp:148] Top shape: 10 20 30 30 (180000)
I0726 00:27:07.007465 10943 net.cpp:156] Memory required for data: 149576200
I0726 00:27:07.007480 10943 layer_factory.hpp:77] Creating layer Convolution28
I0726 00:27:07.007503 10943 net.cpp:91] Creating Layer Convolution28
I0726 00:27:07.007534 10943 net.cpp:425] Convolution28 <- Pooling27
I0726 00:27:07.007563 10943 net.cpp:399] Convolution28 -> Convolution28
I0726 00:27:07.007822 10943 net.cpp:141] Setting up Convolution28
I0726 00:27:07.007861 10943 net.cpp:148] Top shape: 10 50 26 26 (338000)
I0726 00:27:07.007876 10943 net.cpp:156] Memory required for data: 150928200
I0726 00:27:07.007894 10943 net.cpp:484] Sharing parameters 'conv2_w' owned by layer 'Convolution2', param index 0
I0726 00:27:07.007925 10943 net.cpp:484] Sharing parameters 'conv2_b' owned by layer 'Convolution2', param index 1
I0726 00:27:07.007942 10943 layer_factory.hpp:77] Creating layer Pooling28
I0726 00:27:07.007959 10943 net.cpp:91] Creating Layer Pooling28
I0726 00:27:07.007990 10943 net.cpp:425] Pooling28 <- Convolution28
I0726 00:27:07.008009 10943 net.cpp:399] Pooling28 -> Pooling28
I0726 00:27:07.008049 10943 net.cpp:141] Setting up Pooling28
I0726 00:27:07.008067 10943 net.cpp:148] Top shape: 10 50 13 13 (84500)
I0726 00:27:07.008095 10943 net.cpp:156] Memory required for data: 151266200
I0726 00:27:07.008111 10943 layer_factory.hpp:77] Creating layer InnerProduct39
I0726 00:27:07.008131 10943 net.cpp:91] Creating Layer InnerProduct39
I0726 00:27:07.008147 10943 net.cpp:425] InnerProduct39 <- Pooling28
I0726 00:27:07.008167 10943 net.cpp:399] InnerProduct39 -> InnerProduct39
I0726 00:27:07.041295 10943 net.cpp:141] Setting up InnerProduct39
I0726 00:27:07.041573 10943 net.cpp:148] Top shape: 10 500 (5000)
I0726 00:27:07.041795 10943 net.cpp:156] Memory required for data: 151286200
I0726 00:27:07.041919 10943 net.cpp:484] Sharing parameters 'ip1_w' owned by layer 'InnerProduct1', param index 0
I0726 00:27:07.042054 10943 net.cpp:484] Sharing parameters 'ip1_b' owned by layer 'InnerProduct1', param index 1
I0726 00:27:07.042162 10943 layer_factory.hpp:77] Creating layer ReLU26
I0726 00:27:07.042268 10943 net.cpp:91] Creating Layer ReLU26
I0726 00:27:07.042347 10943 net.cpp:425] ReLU26 <- InnerProduct39
I0726 00:27:07.042484 10943 net.cpp:386] ReLU26 -> InnerProduct39 (in-place)
I0726 00:27:07.042603 10943 net.cpp:141] Setting up ReLU26
I0726 00:27:07.042661 10943 net.cpp:148] Top shape: 10 500 (5000)
I0726 00:27:07.042692 10943 net.cpp:156] Memory required for data: 151306200
I0726 00:27:07.042723 10943 layer_factory.hpp:77] Creating layer InnerProduct40
I0726 00:27:07.042778 10943 net.cpp:91] Creating Layer InnerProduct40
I0726 00:27:07.042812 10943 net.cpp:425] InnerProduct40 <- InnerProduct39
I0726 00:27:07.042943 10943 net.cpp:399] InnerProduct40 -> InnerProduct40
I0726 00:27:07.045850 10943 net.cpp:141] Setting up InnerProduct40
I0726 00:27:07.046077 10943 net.cpp:148] Top shape: 10 500 (5000)
I0726 00:27:07.046152 10943 net.cpp:156] Memory required for data: 151326200
I0726 00:27:07.046221 10943 net.cpp:484] Sharing parameters 'ip2_w' owned by layer 'InnerProduct2', param index 0
I0726 00:27:07.046347 10943 net.cpp:484] Sharing parameters 'ip2_b' owned by layer 'InnerProduct2', param index 1
I0726 00:27:07.046437 10943 layer_factory.hpp:77] Creating layer Concat7
I0726 00:27:07.046521 10943 net.cpp:91] Creating Layer Concat7
I0726 00:27:07.046635 10943 net.cpp:425] Concat7 <- InnerProduct38
I0726 00:27:07.046700 10943 net.cpp:425] Concat7 <- InnerProduct40
I0726 00:27:07.046784 10943 net.cpp:399] Concat7 -> Concat7
I0726 00:27:07.046850 10943 net.cpp:141] Setting up Concat7
I0726 00:27:07.046914 10943 net.cpp:148] Top shape: 10 1000 (10000)
I0726 00:27:07.046948 10943 net.cpp:156] Memory required for data: 151366200
I0726 00:27:07.046979 10943 layer_factory.hpp:77] Creating layer InnerProduct41
I0726 00:27:07.047018 10943 net.cpp:91] Creating Layer InnerProduct41
I0726 00:27:07.047072 10943 net.cpp:425] InnerProduct41 <- Concat7
I0726 00:27:07.047122 10943 net.cpp:399] InnerProduct41 -> InnerProduct41
I0726 00:27:07.052973 10943 net.cpp:141] Setting up InnerProduct41
I0726 00:27:07.053180 10943 net.cpp:148] Top shape: 10 512 (5120)
I0726 00:27:07.053231 10943 net.cpp:156] Memory required for data: 151386680
I0726 00:27:07.053269 10943 net.cpp:484] Sharing parameters 'fc1_w' owned by layer 'InnerProduct5', param index 0
I0726 00:27:07.053315 10943 net.cpp:484] Sharing parameters 'fc1_b' owned by layer 'InnerProduct5', param index 1
I0726 00:27:07.053357 10943 layer_factory.hpp:77] Creating layer ReLU27
I0726 00:27:07.053396 10943 net.cpp:91] Creating Layer ReLU27
I0726 00:27:07.053428 10943 net.cpp:425] ReLU27 <- InnerProduct41
I0726 00:27:07.053460 10943 net.cpp:386] ReLU27 -> InnerProduct41 (in-place)
I0726 00:27:07.053498 10943 net.cpp:141] Setting up ReLU27
I0726 00:27:07.053531 10943 net.cpp:148] Top shape: 10 512 (5120)
I0726 00:27:07.053555 10943 net.cpp:156] Memory required for data: 151407160
I0726 00:27:07.053576 10943 layer_factory.hpp:77] Creating layer InnerProduct42
I0726 00:27:07.053612 10943 net.cpp:91] Creating Layer InnerProduct42
I0726 00:27:07.053637 10943 net.cpp:425] InnerProduct42 <- InnerProduct41
I0726 00:27:07.053664 10943 net.cpp:399] InnerProduct42 -> InnerProduct42
I0726 00:27:07.056609 10943 net.cpp:141] Setting up InnerProduct42
I0726 00:27:07.056725 10943 net.cpp:148] Top shape: 10 512 (5120)
I0726 00:27:07.056754 10943 net.cpp:156] Memory required for data: 151427640
I0726 00:27:07.056803 10943 net.cpp:484] Sharing parameters 'fc2_w' owned by layer 'InnerProduct6', param index 0
I0726 00:27:07.056835 10943 net.cpp:484] Sharing parameters 'fc2_b' owned by layer 'InnerProduct6', param index 1
I0726 00:27:07.056884 10943 layer_factory.hpp:77] Creating layer ReLU28
I0726 00:27:07.056918 10943 net.cpp:91] Creating Layer ReLU28
I0726 00:27:07.056988 10943 net.cpp:425] ReLU28 <- InnerProduct42
I0726 00:27:07.057027 10943 net.cpp:386] ReLU28 -> InnerProduct42 (in-place)
I0726 00:27:07.057083 10943 net.cpp:141] Setting up ReLU28
I0726 00:27:07.057114 10943 net.cpp:148] Top shape: 10 512 (5120)
I0726 00:27:07.057158 10943 net.cpp:156] Memory required for data: 151448120
I0726 00:27:07.057185 10943 layer_factory.hpp:77] Creating layer dt6
I0726 00:27:07.057214 10943 net.cpp:91] Creating Layer dt6
I0726 00:27:07.057260 10943 net.cpp:425] dt6 <- InnerProduct42
I0726 00:27:07.057294 10943 net.cpp:399] dt6 -> dt6
I0726 00:27:07.057394 10943 net.cpp:141] Setting up dt6
I0726 00:27:07.057451 10943 net.cpp:148] Top shape: 10 2 (20)
I0726 00:27:07.057477 10943 net.cpp:156] Memory required for data: 151448200
I0726 00:27:07.057504 10943 net.cpp:484] Sharing parameters 'fc3_w' owned by layer 'dt0', param index 0
I0726 00:27:07.057559 10943 net.cpp:484] Sharing parameters 'fc3_b' owned by layer 'dt0', param index 1
I0726 00:27:07.057590 10943 layer_factory.hpp:77] Creating layer Convolution29
I0726 00:27:07.057641 10943 net.cpp:91] Creating Layer Convolution29
I0726 00:27:07.057704 10943 net.cpp:425] Convolution29 <- p1_p1_0_split_7
I0726 00:27:07.057749 10943 net.cpp:399] Convolution29 -> Convolution29
I0726 00:27:07.057895 10943 net.cpp:141] Setting up Convolution29
I0726 00:27:07.057982 10943 net.cpp:148] Top shape: 10 20 60 60 (720000)
I0726 00:27:07.058015 10943 net.cpp:156] Memory required for data: 154328200
I0726 00:27:07.058046 10943 net.cpp:484] Sharing parameters 'conv1_w' owned by layer 'Convolution1', param index 0
I0726 00:27:07.058102 10943 net.cpp:484] Sharing parameters 'conv1_b' owned by layer 'Convolution1', param index 1
I0726 00:27:07.058245 10943 layer_factory.hpp:77] Creating layer Pooling29
I0726 00:27:07.058291 10943 net.cpp:91] Creating Layer Pooling29
I0726 00:27:07.058354 10943 net.cpp:425] Pooling29 <- Convolution29
I0726 00:27:07.058400 10943 net.cpp:399] Pooling29 -> Pooling29
I0726 00:27:07.058480 10943 net.cpp:141] Setting up Pooling29
I0726 00:27:07.058521 10943 net.cpp:148] Top shape: 10 20 30 30 (180000)
I0726 00:27:07.058575 10943 net.cpp:156] Memory required for data: 155048200
I0726 00:27:07.058713 10943 layer_factory.hpp:77] Creating layer Convolution30
I0726 00:27:07.058804 10943 net.cpp:91] Creating Layer Convolution30
I0726 00:27:07.058850 10943 net.cpp:425] Convolution30 <- Pooling29
I0726 00:27:07.058890 10943 net.cpp:399] Convolution30 -> Convolution30
I0726 00:27:07.059286 10943 net.cpp:141] Setting up Convolution30
I0726 00:27:07.059430 10943 net.cpp:148] Top shape: 10 50 26 26 (338000)
I0726 00:27:07.059484 10943 net.cpp:156] Memory required for data: 156400200
I0726 00:27:07.059538 10943 net.cpp:484] Sharing parameters 'conv2_w' owned by layer 'Convolution2', param index 0
I0726 00:27:07.059573 10943 net.cpp:484] Sharing parameters 'conv2_b' owned by layer 'Convolution2', param index 1
I0726 00:27:07.059603 10943 layer_factory.hpp:77] Creating layer Pooling30
I0726 00:27:07.059645 10943 net.cpp:91] Creating Layer Pooling30
I0726 00:27:07.059684 10943 net.cpp:425] Pooling30 <- Convolution30
I0726 00:27:07.059732 10943 net.cpp:399] Pooling30 -> Pooling30
I0726 00:27:07.059790 10943 net.cpp:141] Setting up Pooling30
I0726 00:27:07.059831 10943 net.cpp:148] Top shape: 10 50 13 13 (84500)
I0726 00:27:07.059857 10943 net.cpp:156] Memory required for data: 156738200
I0726 00:27:07.059882 10943 layer_factory.hpp:77] Creating layer InnerProduct43
I0726 00:27:07.059926 10943 net.cpp:91] Creating Layer InnerProduct43
I0726 00:27:07.059960 10943 net.cpp:425] InnerProduct43 <- Pooling30
I0726 00:27:07.060096 10943 net.cpp:399] InnerProduct43 -> InnerProduct43
I0726 00:27:07.095245 10943 net.cpp:141] Setting up InnerProduct43
I0726 00:27:07.095396 10943 net.cpp:148] Top shape: 10 500 (5000)
I0726 00:27:07.095465 10943 net.cpp:156] Memory required for data: 156758200
I0726 00:27:07.095489 10943 net.cpp:484] Sharing parameters 'ip1_w' owned by layer 'InnerProduct1', param index 0
I0726 00:27:07.095522 10943 net.cpp:484] Sharing parameters 'ip1_b' owned by layer 'InnerProduct1', param index 1
I0726 00:27:07.095541 10943 layer_factory.hpp:77] Creating layer ReLU29
I0726 00:27:07.095577 10943 net.cpp:91] Creating Layer ReLU29
I0726 00:27:07.095597 10943 net.cpp:425] ReLU29 <- InnerProduct43
I0726 00:27:07.095634 10943 net.cpp:386] ReLU29 -> InnerProduct43 (in-place)
I0726 00:27:07.095660 10943 net.cpp:141] Setting up ReLU29
I0726 00:27:07.095692 10943 net.cpp:148] Top shape: 10 500 (5000)
I0726 00:27:07.095708 10943 net.cpp:156] Memory required for data: 156778200
I0726 00:27:07.095723 10943 layer_factory.hpp:77] Creating layer InnerProduct44
I0726 00:27:07.095758 10943 net.cpp:91] Creating Layer InnerProduct44
I0726 00:27:07.095775 10943 net.cpp:425] InnerProduct44 <- InnerProduct43
I0726 00:27:07.095796 10943 net.cpp:399] InnerProduct44 -> InnerProduct44
I0726 00:27:07.097847 10943 net.cpp:141] Setting up InnerProduct44
I0726 00:27:07.097950 10943 net.cpp:148] Top shape: 10 500 (5000)
I0726 00:27:07.097973 10943 net.cpp:156] Memory required for data: 156798200
I0726 00:27:07.097991 10943 net.cpp:484] Sharing parameters 'ip2_w' owned by layer 'InnerProduct2', param index 0
I0726 00:27:07.098024 10943 net.cpp:484] Sharing parameters 'ip2_b' owned by layer 'InnerProduct2', param index 1
I0726 00:27:07.098042 10943 layer_factory.hpp:77] Creating layer Convolution31
I0726 00:27:07.098069 10943 net.cpp:91] Creating Layer Convolution31
I0726 00:27:07.098103 10943 net.cpp:425] Convolution31 <- c27
I0726 00:27:07.098129 10943 net.cpp:399] Convolution31 -> Convolution31
I0726 00:27:07.098202 10943 net.cpp:141] Setting up Convolution31
I0726 00:27:07.098239 10943 net.cpp:148] Top shape: 10 20 60 60 (720000)
I0726 00:27:07.098254 10943 net.cpp:156] Memory required for data: 159678200
I0726 00:27:07.098270 10943 net.cpp:484] Sharing parameters 'conv1_w' owned by layer 'Convolution1', param index 0
I0726 00:27:07.098301 10943 net.cpp:484] Sharing parameters 'conv1_b' owned by layer 'Convolution1', param index 1
I0726 00:27:07.098318 10943 layer_factory.hpp:77] Creating layer Pooling31
I0726 00:27:07.098340 10943 net.cpp:91] Creating Layer Pooling31
I0726 00:27:07.098371 10943 net.cpp:425] Pooling31 <- Convolution31
I0726 00:27:07.098390 10943 net.cpp:399] Pooling31 -> Pooling31
I0726 00:27:07.098428 10943 net.cpp:141] Setting up Pooling31
I0726 00:27:07.098448 10943 net.cpp:148] Top shape: 10 20 30 30 (180000)
I0726 00:27:07.098475 10943 net.cpp:156] Memory required for data: 160398200
I0726 00:27:07.098490 10943 layer_factory.hpp:77] Creating layer Convolution32
I0726 00:27:07.098512 10943 net.cpp:91] Creating Layer Convolution32
I0726 00:27:07.098553 10943 net.cpp:425] Convolution32 <- Pooling31
I0726 00:27:07.098634 10943 net.cpp:399] Convolution32 -> Convolution32
I0726 00:27:07.098893 10943 net.cpp:141] Setting up Convolution32
I0726 00:27:07.098932 10943 net.cpp:148] Top shape: 10 50 26 26 (338000)
I0726 00:27:07.098948 10943 net.cpp:156] Memory required for data: 161750200
I0726 00:27:07.098964 10943 net.cpp:484] Sharing parameters 'conv2_w' owned by layer 'Convolution2', param index 0
I0726 00:27:07.098995 10943 net.cpp:484] Sharing parameters 'conv2_b' owned by layer 'Convolution2', param index 1
I0726 00:27:07.099012 10943 layer_factory.hpp:77] Creating layer Pooling32
I0726 00:27:07.099033 10943 net.cpp:91] Creating Layer Pooling32
I0726 00:27:07.099064 10943 net.cpp:425] Pooling32 <- Convolution32
I0726 00:27:07.099083 10943 net.cpp:399] Pooling32 -> Pooling32
I0726 00:27:07.099119 10943 net.cpp:141] Setting up Pooling32
I0726 00:27:07.099139 10943 net.cpp:148] Top shape: 10 50 13 13 (84500)
I0726 00:27:07.099167 10943 net.cpp:156] Memory required for data: 162088200
I0726 00:27:07.099182 10943 layer_factory.hpp:77] Creating layer InnerProduct45
I0726 00:27:07.099205 10943 net.cpp:91] Creating Layer InnerProduct45
I0726 00:27:07.099221 10943 net.cpp:425] InnerProduct45 <- Pooling32
I0726 00:27:07.099242 10943 net.cpp:399] InnerProduct45 -> InnerProduct45
I0726 00:27:07.134188 10943 net.cpp:141] Setting up InnerProduct45
I0726 00:27:07.134351 10943 net.cpp:148] Top shape: 10 500 (5000)
I0726 00:27:07.134416 10943 net.cpp:156] Memory required for data: 162108200
I0726 00:27:07.134441 10943 net.cpp:484] Sharing parameters 'ip1_w' owned by layer 'InnerProduct1', param index 0
I0726 00:27:07.134462 10943 net.cpp:484] Sharing parameters 'ip1_b' owned by layer 'InnerProduct1', param index 1
I0726 00:27:07.134480 10943 layer_factory.hpp:77] Creating layer ReLU30
I0726 00:27:07.134505 10943 net.cpp:91] Creating Layer ReLU30
I0726 00:27:07.134526 10943 net.cpp:425] ReLU30 <- InnerProduct45
I0726 00:27:07.134554 10943 net.cpp:386] ReLU30 -> InnerProduct45 (in-place)
I0726 00:27:07.134608 10943 net.cpp:141] Setting up ReLU30
I0726 00:27:07.134691 10943 net.cpp:148] Top shape: 10 500 (5000)
I0726 00:27:07.134708 10943 net.cpp:156] Memory required for data: 162128200
I0726 00:27:07.134723 10943 layer_factory.hpp:77] Creating layer InnerProduct46
I0726 00:27:07.134745 10943 net.cpp:91] Creating Layer InnerProduct46
I0726 00:27:07.134763 10943 net.cpp:425] InnerProduct46 <- InnerProduct45
I0726 00:27:07.134785 10943 net.cpp:399] InnerProduct46 -> InnerProduct46
I0726 00:27:07.137217 10943 net.cpp:141] Setting up InnerProduct46
I0726 00:27:07.137384 10943 net.cpp:148] Top shape: 10 500 (5000)
I0726 00:27:07.137434 10943 net.cpp:156] Memory required for data: 162148200
I0726 00:27:07.137472 10943 net.cpp:484] Sharing parameters 'ip2_w' owned by layer 'InnerProduct2', param index 0
…
I0726 00:27:07.804745 10943 net.cpp:399] InnerProduct91 -> InnerProduct91
I0726 00:27:07.841799 10943 net.cpp:141] Setting up InnerProduct91
I0726 00:27:07.841951 10943 net.cpp:148] Top shape: 10 500 (5000)
I0726 00:27:07.842021 10943 net.cpp:156] Memory required for data: 243334200
I0726 00:27:07.842046 10943 net.cpp:484] Sharing parameters 'ip1_w' owned by layer 'InnerProduct1', param index 0
I0726 00:27:07.842080 10943 net.cpp:484] Sharing parameters 'ip1_b' owned by layer 'InnerProduct1', param index 1
I0726 00:27:07.842099 10943 layer_factory.hpp:77] Creating layer ReLU61
I0726 00:27:07.842195 10943 net.cpp:91] Creating Layer ReLU61
I0726 00:27:07.842244 10943 net.cpp:425] ReLU61 <- InnerProduct91
I0726 00:27:07.842269 10943 net.cpp:386] ReLU61 -> InnerProduct91 (in-place)
I0726 00:27:07.842349 10943 net.cpp:141] Setting up ReLU61
I0726 00:27:07.842414 10943 net.cpp:148] Top shape: 10 500 (5000)
I0726 00:27:07.842448 10943 net.cpp:156] Memory required for data: 243354200
I0726 00:27:07.842464 10943 layer_factory.hpp:77] Creating layer InnerProduct92
I0726 00:27:07.842484 10943 net.cpp:91] Creating Layer InnerProduct92
I0726 00:27:07.842515 10943 net.cpp:425] InnerProduct92 <- InnerProduct91
I0726 00:27:07.842538 10943 net.cpp:399] InnerProduct92 -> InnerProduct92
I0726 00:27:07.844632 10943 net.cpp:141] Setting up InnerProduct92
I0726 00:27:07.844768 10943 net.cpp:148] Top shape: 10 500 (5000)
I0726 00:27:07.844796 10943 net.cpp:156] Memory required for data: 243374200
I0726 00:27:07.844821 10943 net.cpp:484] Sharing parameters 'ip2_w' owned by layer 'InnerProduct2', param index 0
I0726 00:27:07.844838 10943 net.cpp:484] Sharing parameters 'ip2_b' owned by layer 'InnerProduct2', param index 1
I0726 00:27:07.844852 10943 layer_factory.hpp:77] Creating layer Convolution63
I0726 00:27:07.844880 10943 net.cpp:91] Creating Layer Convolution63
I0726 00:27:07.844898 10943 net.cpp:425] Convolution63 <- c16
I0726 00:27:07.844920 10943 net.cpp:399] Convolution63 -> Convolution63
I0726 00:27:07.844998 10943 net.cpp:141] Setting up Convolution63
I0726 00:27:07.845033 10943 net.cpp:148] Top shape: 10 20 60 60 (720000)
I0726 00:27:07.845047 10943 net.cpp:156] Memory required for data: 246254200
I0726 00:27:07.845062 10943 net.cpp:484] Sharing parameters 'conv1_w' owned by layer 'Convolution1', param index 0
I0726 00:27:07.845077 10943 net.cpp:484] Sharing parameters 'conv1_b' owned by layer 'Convolution1', param index 1
I0726 00:27:07.845123 10943 layer_factory.hpp:77] Creating layer Pooling63
I0726 00:27:07.845142 10943 net.cpp:91] Creating Layer Pooling63
I0726 00:27:07.845157 10943 net.cpp:425] Pooling63 <- Convolution63
I0726 00:27:07.845175 10943 net.cpp:399] Pooling63 -> Pooling63
I0726 00:27:07.845211 10943 net.cpp:141] Setting up Pooling63
I0726 00:27:07.845228 10943 net.cpp:148] Top shape: 10 20 30 30 (180000)
I0726 00:27:07.845242 10943 net.cpp:156] Memory required for data: 246974200
I0726 00:27:07.845254 10943 layer_factory.hpp:77] Creating layer Convolution64
I0726 00:27:07.845273 10943 net.cpp:91] Creating Layer Convolution64
I0726 00:27:07.845289 10943 net.cpp:425] Convolution64 <- Pooling63
I0726 00:27:07.845306 10943 net.cpp:399] Convolution64 -> Convolution64
I0726 00:27:07.845532 10943 net.cpp:141] Setting up Convolution64
I0726 00:27:07.845569 10943 net.cpp:148] Top shape: 10 50 26 26 (338000)
I0726 00:27:07.845583 10943 net.cpp:156] Memory required for data: 248326200
I0726 00:27:07.845597 10943 net.cpp:484] Sharing parameters 'conv2_w' owned by layer 'Convolution2', param index 0
I0726 00:27:07.845613 10943 net.cpp:484] Sharing parameters 'conv2_b' owned by layer 'Convolution2', param index 1
I0726 00:27:07.845626 10943 layer_factory.hpp:77] Creating layer Pooling64
I0726 00:27:07.845655 10943 net.cpp:91] Creating Layer Pooling64
I0726 00:27:07.845671 10943 net.cpp:425] Pooling64 <- Convolution64
I0726 00:27:07.845692 10943 net.cpp:399] Pooling64 -> Pooling64
I0726 00:27:07.845713 10943 net.cpp:141] Setting up Pooling64
I0726 00:27:07.845743 10943 net.cpp:148] Top shape: 10 50 13 13 (84500)
I0726 00:27:07.845757 10943 net.cpp:156] Memory required for data: 248664200
I0726 00:27:07.845769 10943 layer_factory.hpp:77] Creating layer InnerProduct93
I0726 00:27:07.845788 10943 net.cpp:91] Creating Layer InnerProduct93
I0726 00:27:07.845803 10943 net.cpp:425] InnerProduct93 <- Pooling64
I0726 00:27:07.845820 10943 net.cpp:399] InnerProduct93 -> InnerProduct93
I0726 00:27:07.883268 10943 net.cpp:141] Setting up InnerProduct93
I0726 00:27:07.883376 10943 net.cpp:148] Top shape: 10 500 (5000)
I0726 00:27:07.883430 10943 net.cpp:156] Memory required for data: 248684200
I0726 00:27:07.883452 10943 net.cpp:484] Sharing parameters 'ip1_w' owned by layer 'InnerProduct1', param index 0
I0726 00:27:07.883488 10943 net.cpp:484] Sharing parameters 'ip1_b' owned by layer 'InnerProduct1', param index 1
I0726 00:27:07.883507 10943 layer_factory.hpp:77] Creating layer ReLU62
I0726 00:27:07.883528 10943 net.cpp:91] Creating Layer ReLU62
I0726 00:27:07.883548 10943 net.cpp:425] ReLU62 <- InnerProduct93
I0726 00:27:07.883569 10943 net.cpp:386] ReLU62 -> InnerProduct93 (in-place)
I0726 00:27:07.883594 10943 net.cpp:141] Setting up ReLU62
I0726 00:27:07.883627 10943 net.cpp:148] Top shape: 10 500 (5000)
I0726 00:27:07.883642 10943 net.cpp:156] Memory required for data: 248704200
I0726 00:27:07.883657 10943 layer_factory.hpp:77] Creating layer InnerProduct94
I0726 00:27:07.883677 10943 net.cpp:91] Creating Layer InnerProduct94
I0726 00:27:07.883693 10943 net.cpp:425] InnerProduct94 <- InnerProduct93
I0726 00:27:07.883714 10943 net.cpp:399] InnerProduct94 -> InnerProduct94
I0726 00:27:07.885710 10943 net.cpp:141] Setting up InnerProduct94
I0726 00:27:07.885818 10943 net.cpp:148] Top shape: 10 500 (5000)
I0726 00:27:07.885841 10943 net.cpp:156] Memory required for data: 248724200
I0726 00:27:07.885861 10943 net.cpp:484] Sharing parameters 'ip2_w' owned by layer 'InnerProduct2', param index 0
I0726 00:27:07.885879 10943 net.cpp:484] Sharing parameters 'ip2_b' owned by layer 'InnerProduct2', param index 1
I0726 00:27:07.885895 10943 layer_factory.hpp:77] Creating layer Concat16
I0726 00:27:07.885920 10943 net.cpp:91] Creating Layer Concat16
I0726 00:27:07.885954 10943 net.cpp:425] Concat16 <- InnerProduct92
I0726 00:27:07.885973 10943 net.cpp:425] Concat16 <- InnerProduct94
I0726 00:27:07.885995 10943 net.cpp:399] Concat16 -> Concat16
I0726 00:27:07.886020 10943 net.cpp:141] Setting up Concat16
I0726 00:27:07.886064 10943 net.cpp:148] Top shape: 10 1000 (10000)
I0726 00:27:07.886088 10943 net.cpp:156] Memory required for data: 248764200
I0726 00:27:07.886104 10943 layer_factory.hpp:77] Creating layer InnerProduct95
I0726 00:27:07.886126 10943 net.cpp:91] Creating Layer InnerProduct95
I0726 00:27:07.886162 10943 net.cpp:425] InnerProduct95 <- Concat16
I0726 00:27:07.886250 10943 net.cpp:399] InnerProduct95 -> InnerProduct95
I0726 00:27:07.892019 10943 net.cpp:141] Setting up InnerProduct95
I0726 00:27:07.892149 10943 net.cpp:148] Top shape: 10 512 (5120)
I0726 00:27:07.892189 10943 net.cpp:156] Memory required for data: 248784680
I0726 00:27:07.892223 10943 net.cpp:484] Sharing parameters 'fc1_w' owned by layer 'InnerProduct5', param index 0
I0726 00:27:07.892251 10943 net.cpp:484] Sharing parameters 'fc1_b' owned by layer 'InnerProduct5', param index 1
I0726 00:27:07.892273 10943 layer_factory.hpp:77] Creating layer ReLU63
I0726 00:27:07.892300 10943 net.cpp:91] Creating Layer ReLU63
I0726 00:27:07.892325 10943 net.cpp:425] ReLU63 <- InnerProduct95
I0726 00:27:07.892354 10943 net.cpp:386] ReLU63 -> InnerProduct95 (in-place)
I0726 00:27:07.892382 10943 net.cpp:141] Setting up ReLU63
I0726 00:27:07.892401 10943 net.cpp:148] Top shape: 10 512 (5120)
I0726 00:27:07.892415 10943 net.cpp:156] Memory required for data: 248805160
I0726 00:27:07.892428 10943 layer_factory.hpp:77] Creating layer InnerProduct96
I0726 00:27:07.892447 10943 net.cpp:91] Creating Layer InnerProduct96
I0726 00:27:07.892463 10943 net.cpp:425] InnerProduct96 <- InnerProduct95
I0726 00:27:07.892483 10943 net.cpp:399] InnerProduct96 -> InnerProduct96
I0726 00:27:07.894450 10943 net.cpp:141] Setting up InnerProduct96
I0726 00:27:07.894574 10943 net.cpp:148] Top shape: 10 512 (5120)
I0726 00:27:07.894619 10943 net.cpp:156] Memory required for data: 248825640
I0726 00:27:07.894644 10943 net.cpp:484] Sharing parameters 'fc2_w' owned by layer 'InnerProduct6', param index 0
I0726 00:27:07.894667 10943 net.cpp:484] Sharing parameters 'fc2_b' owned by layer 'InnerProduct6', param index 1
I0726 00:27:07.894690 10943 layer_factory.hpp:77] Creating layer ReLU64
I0726 00:27:07.894721 10943 net.cpp:91] Creating Layer ReLU64
I0726 00:27:07.894780 10943 net.cpp:425] ReLU64 <- InnerProduct96
I0726 00:27:07.894814 10943 net.cpp:386] ReLU64 -> InnerProduct96 (in-place)
I0726 00:27:07.894840 10943 net.cpp:141] Setting up ReLU64
I0726 00:27:07.894881 10943 net.cpp:148] Top shape: 10 512 (5120)
I0726 00:27:07.894896 10943 net.cpp:156] Memory required for data: 248846120
I0726 00:27:07.894912 10943 layer_factory.hpp:77] Creating layer dt15
I0726 00:27:07.894948 10943 net.cpp:91] Creating Layer dt15
I0726 00:27:07.894965 10943 net.cpp:425] dt15 <- InnerProduct96
I0726 00:27:07.895001 10943 net.cpp:399] dt15 -> dt15
I0726 00:27:07.895048 10943 net.cpp:141] Setting up dt15
I0726 00:27:07.895084 10943 net.cpp:148] Top shape: 10 2 (20)
I0726 00:27:07.895099 10943 net.cpp:156] Memory required for data: 248846200
I0726 00:27:07.895115 10943 net.cpp:484] Sharing parameters 'fc3_w' owned by layer 'dt0', param index 0
I0726 00:27:07.895146 10943 net.cpp:484] Sharing parameters 'fc3_b' owned by layer 'dt0', param index 1
I0726 00:27:07.895164 10943 layer_factory.hpp:77] Creating layer Convolution65
I0726 00:27:07.895185 10943 net.cpp:91] Creating Layer Convolution65
I0726 00:27:07.895217 10943 net.cpp:425] Convolution65 <- p2_p2_0_split_7
I0726 00:27:07.895241 10943 net.cpp:399] Convolution65 -> Convolution65
I0726 00:27:07.895308 10943 net.cpp:141] Setting up Convolution65
I0726 00:27:07.895345 10943 net.cpp:148] Top shape: 10 20 60 60 (720000)
I0726 00:27:07.895360 10943 net.cpp:156] Memory required for data: 251726200
I0726 00:27:07.895376 10943 net.cpp:484] Sharing parameters 'conv1_w' owned by layer 'Convolution1', param index 0
I0726 00:27:07.895407 10943 net.cpp:484] Sharing parameters 'conv1_b' owned by layer 'Convolution1', param index 1
I0726 00:27:07.895423 10943 layer_factory.hpp:77] Creating layer Pooling65
I0726 00:27:07.895442 10943 net.cpp:91] Creating Layer Pooling65
I0726 00:27:07.895512 10943 net.cpp:425] Pooling65 <- Convolution65
I0726 00:27:07.895566 10943 net.cpp:399] Pooling65 -> Pooling65
I0726 00:27:07.895593 10943 net.cpp:141] Setting up Pooling65
I0726 00:27:07.895627 10943 net.cpp:148] Top shape: 10 20 30 30 (180000)
I0726 00:27:07.895642 10943 net.cpp:156] Memory required for data: 252446200
I0726 00:27:07.895655 10943 layer_factory.hpp:77] Creating layer Convolution66
I0726 00:27:07.895675 10943 net.cpp:91] Creating Layer Convolution66
I0726 00:27:07.895692 10943 net.cpp:425] Convolution66 <- Pooling65
I0726 00:27:07.895714 10943 net.cpp:399] Convolution66 -> Convolution66
I0726 00:27:07.895949 10943 net.cpp:141] Setting up Convolution66
I0726 00:27:07.895972 10943 net.cpp:148] Top shape: 10 50 26 26 (338000)
I0726 00:27:07.895987 10943 net.cpp:156] Memory required for data: 253798200
I0726 00:27:07.896003 10943 net.cpp:484] Sharing parameters 'conv2_w' owned by layer 'Convolution2', param index 0
I0726 00:27:07.896018 10943 net.cpp:484] Sharing parameters 'conv2_b' owned by layer 'Convolution2', param index 1
I0726 00:27:07.896034 10943 layer_factory.hpp:77] Creating layer Pooling66
I0726 00:27:07.896052 10943 net.cpp:91] Creating Layer Pooling66
I0726 00:27:07.896070 10943 net.cpp:425] Pooling66 <- Convolution66
I0726 00:27:07.896087 10943 net.cpp:399] Pooling66 -> Pooling66
I0726 00:27:07.896111 10943 net.cpp:141] Setting up Pooling66
I0726 00:27:07.896178 10943 net.cpp:148] Top shape: 10 50 13 13 (84500)
I0726 00:27:07.896198 10943 net.cpp:156] Memory required for data: 254136200
I0726 00:27:07.896214 10943 layer_factory.hpp:77] Creating layer InnerProduct97
I0726 00:27:07.896232 10943 net.cpp:91] Creating Layer InnerProduct97
I0726 00:27:07.896250 10943 net.cpp:425] InnerProduct97 <- Pooling66
I0726 00:27:07.896270 10943 net.cpp:399] InnerProduct97 -> InnerProduct97
I0726 00:27:07.934765 10943 net.cpp:141] Setting up InnerProduct97
I0726 00:27:07.934907 10943 net.cpp:148] Top shape: 10 500 (5000)
I0726 00:27:07.935021 10943 net.cpp:156] Memory required for data: 254156200
I0726 00:27:07.935082 10943 net.cpp:484] Sharing parameters 'ip1_w' owned by layer 'InnerProduct1', param index 0
I0726 00:27:07.935124 10943 net.cpp:484] Sharing parameters 'ip1_b' owned by layer 'InnerProduct1', param index 1
I0726 00:27:07.935154 10943 layer_factory.hpp:77] Creating layer ReLU65
I0726 00:27:07.935199 10943 net.cpp:91] Creating Layer ReLU65
I0726 00:27:07.935230 10943 net.cpp:425] ReLU65 <- InnerProduct97
I0726 00:27:07.935286 10943 net.cpp:386] ReLU65 -> InnerProduct97 (in-place)
I0726 00:27:07.935328 10943 net.cpp:141] Setting up ReLU65
I0726 00:27:07.935364 10943 net.cpp:148] Top shape: 10 500 (5000)
I0726 00:27:07.935400 10943 net.cpp:156] Memory required for data: 254176200
I0726 00:27:07.935436 10943 layer_factory.hpp:77] Creating layer InnerProduct98
I0726 00:27:07.935492 10943 net.cpp:91] Creating Layer InnerProduct98
I0726 00:27:07.935534 10943 net.cpp:425] InnerProduct98 <- InnerProduct97
I0726 00:27:07.935580 10943 net.cpp:399] InnerProduct98 -> InnerProduct98
I0726 00:27:07.939085 10943 net.cpp:141] Setting up InnerProduct98
I0726 00:27:07.939239 10943 net.cpp:148] Top shape: 10 500 (5000)
I0726 00:27:07.939263 10943 net.cpp:156] Memory required for data: 254196200
I0726 00:27:07.939292 10943 net.cpp:484] Sharing parameters 'ip2_w' owned by layer 'InnerProduct2', param index 0
I0726 00:27:07.939318 10943 net.cpp:484] Sharing parameters 'ip2_b' owned by layer 'InnerProduct2', param index 1
I0726 00:27:07.939340 10943 layer_factory.hpp:77] Creating layer Convolution67
I0726 00:27:07.939389 10943 net.cpp:91] Creating Layer Convolution67
I0726 00:27:07.939419 10943 net.cpp:425] Convolution67 <- c17
I0726 00:27:07.939457 10943 net.cpp:399] Convolution67 -> Convolution67
I0726 00:27:07.939563 10943 net.cpp:141] Setting up Convolution67
I0726 00:27:07.939601 10943 net.cpp:148] Top shape: 10 20 60 60 (720000)
I0726 00:27:07.939622 10943 net.cpp:156] Memory required for data: 257076200
I0726 00:27:07.939646 10943 net.cpp:484] Sharing parameters 'conv1_w' owned by layer 'Convolution1', param index 0
I0726 00:27:07.939705 10943 net.cpp:484] Sharing parameters 'conv1_b' owned by layer 'Convolution1', param index 1
I0726 00:27:07.939730 10943 layer_factory.hpp:77] Creating layer Pooling67
I0726 00:27:07.939761 10943 net.cpp:91] Creating Layer Pooling67
I0726 00:27:07.939790 10943 net.cpp:425] Pooling67 <- Convolution67
I0726 00:27:07.939818 10943 net.cpp:399] Pooling67 -> Pooling67
I0726 00:27:07.939858 10943 net.cpp:141] Setting up Pooling67
I0726 00:27:07.939888 10943 net.cpp:148] Top shape: 10 20 30 30 (180000)
I0726 00:27:07.939908 10943 net.cpp:156] Memory required for data: 257796200
I0726 00:27:07.939929 10943 layer_factory.hpp:77] Creating layer Convolution68
I0726 00:27:07.939970 10943 net.cpp:91] Creating Layer Convolution68
I0726 00:27:07.939996 10943 net.cpp:425] Convolution68 <- Pooling67
I0726 00:27:07.940021 10943 net.cpp:399] Convolution68 -> Convolution68
I0726 00:27:07.940330 10943 net.cpp:141] Setting up Convolution68
I0726 00:27:07.940371 10943 net.cpp:148] Top shape: 10 50 26 26 (338000)
I0726 00:27:07.940397 10943 net.cpp:156] Memory required for data: 259148200
I0726 00:27:07.940428 10943 net.cpp:484] Sharing parameters 'conv2_w' owned by layer 'Convolution2', param index 0
I0726 00:27:07.940459 10943 net.cpp:484] Sharing parameters 'conv2_b' owned by layer 'Convolution2', param index 1
I0726 00:27:07.940488 10943 layer_factory.hpp:77] Creating layer Pooling68
I0726 00:27:07.940521 10943 net.cpp:91] Creating Layer Pooling68
I0726 00:27:07.940546 10943 net.cpp:425] Pooling68 <- Convolution68
I0726 00:27:07.940573 10943 net.cpp:399] Pooling68 -> Pooling68
I0726 00:27:07.940618 10943 net.cpp:141] Setting up Pooling68
I0726 00:27:07.940647 10943 net.cpp:148] Top shape: 10 50 13 13 (84500)
I0726 00:27:07.940671 10943 net.cpp:156] Memory required for data: 259486200
I0726 00:27:07.940698 10943 layer_factory.hpp:77] Creating layer InnerProduct99
I0726 00:27:07.940737 10943 net.cpp:91] Creating Layer InnerProduct99
I0726 00:27:07.940773 10943 net.cpp:425] InnerProduct99 <- Pooling68
I0726 00:27:07.940820 10943 net.cpp:399] InnerProduct99 -> InnerProduct99
I0726 00:27:07.976703 10943 net.cpp:141] Setting up InnerProduct99
I0726 00:27:07.976835 10943 net.cpp:148] Top shape: 10 500 (5000)
I0726 00:27:07.976903 10943 net.cpp:156] Memory required for data: 259506200
I0726 00:27:07.976949 10943 net.cpp:484] Sharing parameters 'ip1_w' owned by layer 'InnerProduct1', param index 0
I0726 00:27:07.976974 10943 net.cpp:484] Sharing parameters 'ip1_b' owned by layer 'InnerProduct1', param index 1
I0726 00:27:07.977006 10943 layer_factory.hpp:77] Creating layer ReLU66
I0726 00:27:07.977030 10943 net.cpp:91] Creating Layer ReLU66
I0726 00:27:07.977066 10943 net.cpp:425] ReLU66 <- InnerProduct99
I0726 00:27:07.977087 10943 net.cpp:386] ReLU66 -> InnerProduct99 (in-place)
I0726 00:27:07.977125 10943 net.cpp:141] Setting up ReLU66
I0726 00:27:07.977146 10943 net.cpp:148] Top shape: 10 500 (5000)
I0726 00:27:07.977174 10943 net.cpp:156] Memory required for data: 259526200
I0726 00:27:07.977190 10943 layer_factory.hpp:77] Creating layer InnerProduct100
I0726 00:27:07.977210 10943 net.cpp:91] Creating Layer InnerProduct100
I0726 00:27:07.977241 10943 net.cpp:425] InnerProduct100 <- InnerProduct99
I0726 00:27:07.977264 10943 net.cpp:399] InnerProduct100 -> InnerProduct100
I0726 00:27:07.979403 10943 net.cpp:141] Setting up InnerProduct100
I0726 00:27:07.979480 10943 net.cpp:148] Top shape: 10 500 (5000)
I0726 00:27:07.979498 10943 net.cpp:156] Memory required for data: 259546200
I0726 00:27:07.979517 10943 net.cpp:484] Sharing parameters 'ip2_w' owned by layer 'InnerProduct2', param index 0
I0726 00:27:07.979549 10943 net.cpp:484] Sharing parameters 'ip2_b' owned by layer 'InnerProduct2', param index 1
I0726 00:27:07.979565 10943 layer_factory.hpp:77] Creating layer Concat17
I0726 00:27:07.979586 10943 net.cpp:91] Creating Layer Concat17
I0726 00:27:07.979619 10943 net.cpp:425] Concat17 <- InnerProduct98
I0726 00:27:07.979638 10943 net.cpp:425] Concat17 <- InnerProduct100
I0726 00:27:07.979671 10943 net.cpp:399] Concat17 -> Concat17
I0726 00:27:07.979820 10943 net.cpp:141] Setting up Concat17
I0726 00:27:07.979879 10943 net.cpp:148] Top shape: 10 1000 (10000)
I0726 00:27:07.979897 10943 net.cpp:156] Memory required for data: 259586200
I0726 00:27:07.979928 10943 layer_factory.hpp:77] Creating layer InnerProduct101
I0726 00:27:07.979950 10943 net.cpp:91] Creating Layer InnerProduct101
I0726 00:27:07.979981 10943 net.cpp:425] InnerProduct101 <- Concat17
I0726 00:27:07.980005 10943 net.cpp:399] InnerProduct101 -> InnerProduct101
I0726 00:27:07.984105 10943 net.cpp:141] Setting up InnerProduct101
I0726 00:27:07.984174 10943 net.cpp:148] Top shape: 10 512 (5120)
I0726 00:27:07.984191 10943 net.cpp:156] Memory required for data: 259606680
I0726 00:27:07.984211 10943 net.cpp:484] Sharing parameters 'fc1_w' owned by layer 'InnerProduct5', param index 0
I0726 00:27:07.984230 10943 net.cpp:484] Sharing parameters 'fc1_b' owned by layer 'InnerProduct5', param index 1
I0726 00:27:07.984246 10943 layer_factory.hpp:77] Creating layer ReLU67
I0726 00:27:07.984272 10943 net.cpp:91] Creating Layer ReLU67
I0726 00:27:07.984290 10943 net.cpp:425] ReLU67 <- InnerProduct101
I0726 00:27:07.984308 10943 net.cpp:386] ReLU67 -> InnerProduct101 (in-place)
I0726 00:27:07.984331 10943 net.cpp:141] Setting up ReLU67
I0726 00:27:07.984349 10943 net.cpp:148] Top shape: 10 512 (5120)
I0726 00:27:07.984361 10943 net.cpp:156] Memory required for data: 259627160
I0726 00:27:07.984375 10943 layer_factory.hpp:77] Creating layer InnerProduct102
I0726 00:27:07.984395 10943 net.cpp:91] Creating Layer InnerProduct102
I0726 00:27:07.984411 10943 net.cpp:425] InnerProduct102 <- InnerProduct101
I0726 00:27:07.984429 10943 net.cpp:399] InnerProduct102 -> InnerProduct102
I0726 00:27:07.986445 10943 net.cpp:141] Setting up InnerProduct102
I0726 00:27:07.986515 10943 net.cpp:148] Top shape: 10 512 (5120)
I0726 00:27:07.986529 10943 net.cpp:156] Memory required for data: 259647640
I0726 00:27:07.986547 10943 net.cpp:484] Sharing parameters 'fc2_w' owned by layer 'InnerProduct6', param index 0
I0726 00:27:07.986563 10943 net.cpp:484] Sharing parameters 'fc2_b' owned by layer 'InnerProduct6', param index 1
I0726 00:27:07.986578 10943 layer_factory.hpp:77] Creating layer ReLU68
I0726 00:27:07.986598 10943 net.cpp:91] Creating Layer ReLU68
I0726 00:27:07.986615 10943 net.cpp:425] ReLU68 <- InnerProduct102
I0726 00:27:07.986631 10943 net.cpp:386] ReLU68 -> InnerProduct102 (in-place)
I0726 00:27:07.986650 10943 net.cpp:141] Setting up ReLU68
I0726 00:27:07.986665 10943 net.cpp:148] Top shape: 10 512 (5120)
I0726 00:27:07.986676 10943 net.cpp:156] Memory required for data: 259668120
I0726 00:27:07.986690 10943 layer_factory.hpp:77] Creating layer dt16
I0726 00:27:07.986708 10943 net.cpp:91] Creating Layer dt16
I0726 00:27:07.986722 10943 net.cpp:425] dt16 <- InnerProduct102
I0726 00:27:07.986739 10943 net.cpp:399] dt16 -> dt16
I0726 00:27:07.986778 10943 net.cpp:141] Setting up dt16
I0726 00:27:07.986793 10943 net.cpp:148] Top shape: 10 2 (20)
I0726 00:27:07.986805 10943 net.cpp:156] Memory required for data: 259668200
I0726 00:27:07.986819 10943 net.cpp:484] Sharing parameters 'fc3_w' owned by layer 'dt0', param index 0
I0726 00:27:07.986834 10943 net.cpp:484] Sharing parameters 'fc3_b' owned by layer 'dt0', param index 1
I0726 00:27:07.986846 10943 layer_factory.hpp:77] Creating layer Convolution69
I0726 00:27:07.986866 10943 net.cpp:91] Creating Layer Convolution69
I0726 00:27:07.986882 10943 net.cpp:425] Convolution69 <- p2_p2_0_split_8
I0726 00:27:07.986901 10943 net.cpp:399] Convolution69 -> Convolution69
I0726 00:27:07.986984 10943 net.cpp:141] Setting up Convolution69
I0726 00:27:07.987057 10943 net.cpp:148] Top shape: 10 20 60 60 (720000)
I0726 00:27:07.987085 10943 net.cpp:156] Memory required for data: 262548200
I0726 00:27:07.987110 10943 net.cpp:484] Sharing parameters 'conv1_w' owned by layer 'Convolution1', param index 0
I0726 00:27:07.987126 10943 net.cpp:484] Sharing parameters 'conv1_b' owned by layer 'Convolution1', param index 1
I0726 00:27:07.987151 10943 layer_factory.hpp:77] Creating layer Pooling69
I0726 00:27:07.987180 10943 net.cpp:91] Creating Layer Pooling69
I0726 00:27:07.987197 10943 net.cpp:425] Pooling69 <- Convolution69
I0726 00:27:07.987216 10943 net.cpp:399] Pooling69 -> Pooling69
I0726 00:27:07.987239 10943 net.cpp:141] Setting up Pooling69
I0726 00:27:07.987257 10943 net.cpp:148] Top shape: 10 20 30 30 (180000)
I0726 00:27:07.987272 10943 net.cpp:156] Memory required for data: 263268200
I0726 00:27:07.987284 10943 layer_factory.hpp:77] Creating layer Convolution70
I0726 00:27:07.987306 10943 net.cpp:91] Creating Layer Convolution70
I0726 00:27:07.987323 10943 net.cpp:425] Convolution70 <- Pooling69
I0726 00:27:07.987341 10943 net.cpp:399] Convolution70 -> Convolution70
I0726 00:27:07.987574 10943 net.cpp:141] Setting up Convolution70
I0726 00:27:07.987597 10943 net.cpp:148] Top shape: 10 50 26 26 (338000)
I0726 00:27:07.987610 10943 net.cpp:156] Memory required for data: 264620200
I0726 00:27:07.987625 10943 net.cpp:484] Sharing parameters 'conv2_w' owned by layer 'Convolution2', param index 0
I0726 00:27:07.987642 10943 net.cpp:484] Sharing parameters 'conv2_b' owned by layer 'Convolution2', param index 1
I0726 00:27:07.987655 10943 layer_factory.hpp:77] Creating layer Pooling70
I0726 00:27:07.987673 10943 net.cpp:91] Creating Layer Pooling70
I0726 00:27:07.987687 10943 net.cpp:425] Pooling70 <- Convolution70
I0726 00:27:07.987706 10943 net.cpp:399] Pooling70 -> Pooling70
I0726 00:27:07.987727 10943 net.cpp:141] Setting up Pooling70
I0726 00:27:07.987743 10943 net.cpp:148] Top shape: 10 50 13 13 (84500)
I0726 00:27:07.987756 10943 net.cpp:156] Memory required for data: 264958200
I0726 00:27:07.987769 10943 layer_factory.hpp:77] Creating layer InnerProduct103
I0726 00:27:07.987788 10943 net.cpp:91] Creating Layer InnerProduct103
I0726 00:27:07.987803 10943 net.cpp:425] InnerProduct103 <- Pooling70
I0726 00:27:07.987821 10943 net.cpp:399] InnerProduct103 -> InnerProduct103
I0726 00:27:08.024008 10943 net.cpp:141] Setting up InnerProduct103
I0726 00:27:08.024108 10943 net.cpp:148] Top shape: 10 500 (5000)
I0726 00:27:08.024160 10943 net.cpp:156] Memory required for data: 264978200
I0726 00:27:08.024184 10943 net.cpp:484] Sharing parameters 'ip1_w' owned by layer 'InnerProduct1', param index 0
I0726 00:27:08.024221 10943 net.cpp:484] Sharing parameters 'ip1_b' owned by layer 'InnerProduct1', param index 1
I0726 00:27:08.024240 10943 layer_factory.hpp:77] Creating layer ReLU69
I0726 00:27:08.024265 10943 net.cpp:91] Creating Layer ReLU69
I0726 00:27:08.024286 10943 net.cpp:425] ReLU69 <- InnerProduct103
I0726 00:27:08.024319 10943 net.cpp:386] ReLU69 -> InnerProduct103 (in-place)
I0726 00:27:08.024344 10943 net.cpp:141] Setting up ReLU69
I0726 00:27:08.024363 10943 net.cpp:148] Top shape: 10 500 (5000)
I0726 00:27:08.024377 10943 net.cpp:156] Memory required for data: 264998200
I0726 00:27:08.024392 10943 layer_factory.hpp:77] Creating layer InnerProduct104
I0726 00:27:08.024415 10943 net.cpp:91] Creating Layer InnerProduct104
I0726 00:27:08.024432 10943 net.cpp:425] InnerProduct104 <- InnerProduct103
I0726 00:27:08.024453 10943 net.cpp:399] InnerProduct104 -> InnerProduct104
I0726 00:27:08.026865 10943 net.cpp:141] Setting up InnerProduct104
I0726 00:27:08.027052 10943 net.cpp:148] Top shape: 10 500 (5000)
I0726 00:27:08.027089 10943 net.cpp:156] Memory required for data: 265018200
I0726 00:27:08.027132 10943 net.cpp:484] Sharing parameters 'ip2_w' owned by layer 'InnerProduct2', param index 0
I0726 00:27:08.027163 10943 net.cpp:484] Sharing parameters 'ip2_b' owned by layer 'InnerProduct2', param index 1
I0726 00:27:08.027190 10943 layer_factory.hpp:77] Creating layer Convolution71
I0726 00:27:08.027250 10943 net.cpp:91] Creating Layer Convolution71
I0726 00:27:08.027310 10943 net.cpp:425] Convolution71 <- c18
I0726 00:27:08.027366 10943 net.cpp:399] Convolution71 -> Convolution71
I0726 00:27:08.027472 10943 net.cpp:141] Setting up Convolution71
I0726 00:27:08.027541 10943 net.cpp:148] Top shape: 10 20 60 60 (720000)
I0726 00:27:08.027587 10943 net.cpp:156] Memory required for data: 267898200
I0726 00:27:08.027637 10943 net.cpp:484] Sharing parameters 'conv1_w' owned by layer 'Convolution1', param index 0
I0726 00:27:08.027696 10943 net.cpp:484] Sharing parameters 'conv1_b' owned by layer 'Convolution1', param index 1
I0726 00:27:08.027734 10943 layer_factory.hpp:77] Creating layer Pooling71
I0726 00:27:08.027777 10943 net.cpp:91] Creating Layer Pooling71
I0726 00:27:08.027869 10943 net.cpp:425] Pooling71 <- Convolution71
I0726 00:27:08.027922 10943 net.cpp:399] Pooling71 -> Pooling71
I0726 00:27:08.028002 10943 net.cpp:141] Setting up Pooling71
I0726 00:27:08.028046 10943 net.cpp:148] Top shape: 10 20 30 30 (180000)
I0726 00:27:08.028100 10943 net.cpp:156] Memory required for data: 268618200
I0726 00:27:08.028136 10943 layer_factory.hpp:77] Creating layer Convolution72
I0726 00:27:08.028187 10943 net.cpp:91] Creating Layer Convolution72
I0726 00:27:08.028244 10943 net.cpp:425] Convolution72 <- Pooling71
I0726 00:27:08.028290 10943 net.cpp:399] Convolution72 -> Convolution72
I0726 00:27:08.028657 10943 net.cpp:141] Setting up Convolution72
I0726 00:27:08.028959 10943 net.cpp:148] Top shape: 10 50 26 26 (338000)
I0726 00:27:08.029100 10943 net.cpp:156] Memory required for data: 269970200
I0726 00:27:08.029162 10943 net.cpp:484] Sharing parameters 'conv2_w' owned by layer 'Convolution2', param index 0
I0726 00:27:08.029224 10943 net.cpp:484] Sharing parameters 'conv2_b' owned by layer 'Convolution2', param index 1
I0726 00:27:08.029253 10943 layer_factory.hpp:77] Creating layer Pooling72
I0726 00:27:08.029309 10943 net.cpp:91] Creating Layer Pooling72
I0726 00:27:08.029340 10943 net.cpp:425] Pooling72 <- Convolution72
I0726 00:27:08.029405 10943 net.cpp:399] Pooling72 -> Pooling72
I0726 00:27:08.029469 10943 net.cpp:141] Setting up Pooling72
I0726 00:27:08.029520 10943 net.cpp:148] Top shape: 10 50 13 13 (84500)
I0726 00:27:08.029541 10943 net.cpp:156] Memory required for data: 270308200
I0726 00:27:08.029582 10943 layer_factory.hpp:77] Creating layer InnerProduct105
I0726 00:27:08.029616 10943 net.cpp:91] Creating Layer InnerProduct105
I0726 00:27:08.029640 10943 net.cpp:425] InnerProduct105 <- Pooling72
I0726 00:27:08.029670 10943 net.cpp:399] InnerProduct105 -> InnerProduct105
I0726 00:27:08.067457 10943 net.cpp:141] Setting up InnerProduct105
I0726 00:27:08.067560 10943 net.cpp:148] Top shape: 10 500 (5000)
I0726 00:27:08.067625 10943 net.cpp:156] Memory required for data: 270328200
I0726 00:27:08.067646 10943 net.cpp:484] Sharing parameters 'ip1_w' owned by layer 'InnerProduct1', param index 0
I0726 00:27:08.067675 10943 net.cpp:484] Sharing parameters 'ip1_b' owned by layer 'InnerProduct1', param index 1
I0726 00:27:08.067692 10943 layer_factory.hpp:77] Creating layer ReLU70
I0726 00:27:08.067725 10943 net.cpp:91] Creating Layer ReLU70
I0726 00:27:08.067744 10943 net.cpp:425] ReLU70 <- InnerProduct105
I0726 00:27:08.067775 10943 net.cpp:386] ReLU70 -> InnerProduct105 (in-place)
I0726 00:27:08.067800 10943 net.cpp:141] Setting up ReLU70
I0726 00:27:08.067828 10943 net.cpp:148] Top shape: 10 500 (5000)
I0726 00:27:08.067842 10943 net.cpp:156] Memory required for data: 270348200
I0726 00:27:08.067854 10943 layer_factory.hpp:77] Creating layer InnerProduct106
I0726 00:27:08.067873 10943 net.cpp:91] Creating Layer InnerProduct106
I0726 00:27:08.067899 10943 net.cpp:425] InnerProduct106 <- InnerProduct105
I0726 00:27:08.067919 10943 net.cpp:399] InnerProduct106 -> InnerProduct106
I0726 00:27:08.069710 10943 net.cpp:141] Setting up InnerProduct106
I0726 00:27:08.069783 10943 net.cpp:148] Top shape: 10 500 (5000)
I0726 00:27:08.069797 10943 net.cpp:156] Memory required for data: 270368200
I0726 00:27:08.069814 10943 net.cpp:484] Sharing parameters 'ip2_w' owned by layer 'InnerProduct2', param index 0
I0726 00:27:08.069831 10943 net.cpp:484] Sharing parameters 'ip2_b' owned by layer 'InnerProduct2', param index 1
I0726 00:27:08.069844 10943 layer_factory.hpp:77] Creating layer Concat18
I0726 00:27:08.069875 10943 net.cpp:91] Creating Layer Concat18
I0726 00:27:08.069900 10943 net.cpp:425] Concat18 <- InnerProduct104
I0726 00:27:08.069939 10943 net.cpp:425] Concat18 <- InnerProduct106
I0726 00:27:08.069962 10943 net.cpp:399] Concat18 -> Concat18
I0726 00:27:08.069999 10943 net.cpp:141] Setting up Concat18
I0726 00:27:08.070016 10943 net.cpp:148] Top shape: 10 1000 (10000)
I0726 00:27:08.070042 10943 net.cpp:156] Memory required for data: 270408200
I0726 00:27:08.070056 10943 layer_factory.hpp:77] Creating layer InnerProduct107
I0726 00:27:08.070075 10943 net.cpp:91] Creating Layer InnerProduct107
I0726 00:27:08.070103 10943 net.cpp:425] InnerProduct107 <- Concat18
I0726 00:27:08.070121 10943 net.cpp:399] InnerProduct107 -> InnerProduct107
I0726 00:27:08.074292 10943 net.cpp:141] Setting up InnerProduct107
I0726 00:27:08.074439 10943 net.cpp:148] Top shape: 10 512 (5120)
I0726 00:27:08.074457 10943 net.cpp:156] Memory required for data: 270428680
I0726 00:27:08.074476 10943 net.cpp:484] Sharing parameters 'fc1_w' owned by layer 'InnerProduct5', param index 0
I0726 00:27:08.074509 10943 net.cpp:484] Sharing parameters 'fc1_b' owned by layer 'InnerProduct5', param index 1
I0726 00:27:08.074527 10943 layer_factory.hpp:77] Creating layer ReLU71
I0726 00:27:08.074548 10943 net.cpp:91] Creating Layer ReLU71
I0726 00:27:08.074615 10943 net.cpp:425] ReLU71 <- InnerProduct107
I0726 00:27:08.074656 10943 net.cpp:386] ReLU71 -> InnerProduct107 (in-place)
I0726 00:27:08.074681 10943 net.cpp:141] Setting up ReLU71
I0726 00:27:08.074712 10943 net.cpp:148] Top shape: 10 512 (5120)
I0726 00:27:08.074728 10943 net.cpp:156] Memory required for data: 270449160
I0726 00:27:08.074741 10943 layer_factory.hpp:77] Creating layer InnerProduct108
I0726 00:27:08.074764 10943 net.cpp:91] Creating Layer InnerProduct108
I0726 00:27:08.074793 10943 net.cpp:425] InnerProduct108 <- InnerProduct107
I0726 00:27:08.074815 10943 net.cpp:399] InnerProduct108 -> InnerProduct108
I0726 00:27:08.076856 10943 net.cpp:141] Setting up InnerProduct108
I0726 00:27:08.076920 10943 net.cpp:148] Top shape: 10 512 (5120)
I0726 00:27:08.076934 10943 net.cpp:156] Memory required for data: 270469640
I0726 00:27:08.076951 10943 net.cpp:484] Sharing parameters 'fc2_w' owned by layer 'InnerProduct6', param index 0
I0726 00:27:08.076967 10943 net.cpp:484] Sharing parameters 'fc2_b' owned by layer 'InnerProduct6', param index 1
I0726 00:27:08.076983 10943 layer_factory.hpp:77] Creating layer ReLU72
I0726 00:27:08.077000 10943 net.cpp:91] Creating Layer ReLU72
I0726 00:27:08.077018 10943 net.cpp:425] ReLU72 <- InnerProduct108
I0726 00:27:08.077033 10943 net.cpp:386] ReLU72 -> InnerProduct108 (in-place)
I0726 00:27:08.077052 10943 net.cpp:141] Setting up ReLU72
I0726 00:27:08.077069 10943 net.cpp:148] Top shape: 10 512 (5120)
I0726 00:27:08.077081 10943 net.cpp:156] Memory required for data: 270490120
I0726 00:27:08.077095 10943 layer_factory.hpp:77] Creating layer dt17
I0726 00:27:08.077112 10943 net.cpp:91] Creating Layer dt17
I0726 00:27:08.077127 10943 net.cpp:425] dt17 <- InnerProduct108
I0726 00:27:08.077149 10943 net.cpp:399] dt17 -> dt17
I0726 00:27:08.077185 10943 net.cpp:141] Setting up dt17
I0726 00:27:08.077203 10943 net.cpp:148] Top shape: 10 2 (20)
I0726 00:27:08.077216 10943 net.cpp:156] Memory required for data: 270490200
I0726 00:27:08.077231 10943 net.cpp:484] Sharing parameters 'fc3_w' owned by layer 'dt0', param index 0
I0726 00:27:08.077247 10943 net.cpp:484] Sharing parameters 'fc3_b' owned by layer 'dt0', param index 1
I0726 00:27:08.077261 10943 layer_factory.hpp:77] Creating layer Convolution73
I0726 00:27:08.077283 10943 net.cpp:91] Creating Layer Convolution73
I0726 00:27:08.077301 10943 net.cpp:425] Convolution73 <- p2_p2_0_split_9
I0726 00:27:08.077321 10943 net.cpp:399] Convolution73 -> Convolution73
I0726 00:27:08.077368 10943 net.cpp:141] Setting up Convolution73
I0726 00:27:08.077389 10943 net.cpp:148] Top shape: 10 20 60 60 (720000)
I0726 00:27:08.077401 10943 net.cpp:156] Memory required for data: 273370200
I0726 00:27:08.077416 10943 net.cpp:484] Sharing parameters 'conv1_w' owned by layer 'Convolution1', param index 0
I0726 00:27:08.077453 10943 net.cpp:484] Sharing parameters 'conv1_b' owned by layer 'Convolution1', param index 1
I0726 00:27:08.077468 10943 layer_factory.hpp:77] Creating layer Pooling73
I0726 00:27:08.077486 10943 net.cpp:91] Creating Layer Pooling73
I0726 00:27:08.077502 10943 net.cpp:425] Pooling73 <- Convolution73
I0726 00:27:08.077522 10943 net.cpp:399] Pooling73 -> Pooling73
I0726 00:27:08.077544 10943 net.cpp:141] Setting up Pooling73
I0726 00:27:08.077561 10943 net.cpp:148] Top shape: 10 20 30 30 (180000)
I0726 00:27:08.077574 10943 net.cpp:156] Memory required for data: 274090200
I0726 00:27:08.077589 10943 layer_factory.hpp:77] Creating layer Convolution74
I0726 00:27:08.077608 10943 net.cpp:91] Creating Layer Convolution74
I0726 00:27:08.077625 10943 net.cpp:425] Convolution74 <- Pooling73
I0726 00:27:08.077642 10943 net.cpp:399] Convolution74 -> Convolution74
I0726 00:27:08.077914 10943 net.cpp:141] Setting up Convolution74
I0726 00:27:08.077991 10943 net.cpp:148] Top shape: 10 50 26 26 (338000)
I0726 00:27:08.078023 10943 net.cpp:156] Memory required for data: 275442200
I0726 00:27:08.078039 10943 net.cpp:484] Sharing parameters 'conv2_w' owned by layer 'Convolution2', param index 0
I0726 00:27:08.078057 10943 net.cpp:484] Sharing parameters 'conv2_b' owned by layer 'Convolution2', param index 1
I0726 00:27:08.078070 10943 layer_factory.hpp:77] Creating layer Pooling74
I0726 00:27:08.078088 10943 net.cpp:91] Creating Layer Pooling74
I0726 00:27:08.078104 10943 net.cpp:425] Pooling74 <- Convolution74
I0726 00:27:08.078121 10943 net.cpp:399] Pooling74 -> Pooling74
I0726 00:27:08.078142 10943 net.cpp:141] Setting up Pooling74
I0726 00:27:08.078160 10943 net.cpp:148] Top shape: 10 50 13 13 (84500)
I0726 00:27:08.078172 10943 net.cpp:156] Memory required for data: 275780200
I0726 00:27:08.078186 10943 layer_factory.hpp:77] Creating layer InnerProduct109
I0726 00:27:08.078205 10943 net.cpp:91] Creating Layer InnerProduct109
I0726 00:27:08.078222 10943 net.cpp:425] InnerProduct109 <- Pooling74
I0726 00:27:08.078240 10943 net.cpp:399] InnerProduct109 -> InnerProduct109
I0726 00:27:08.123981 10943 net.cpp:141] Setting up InnerProduct109
I0726 00:27:08.124110 10943 net.cpp:148] Top shape: 10 500 (5000)
I0726 00:27:08.124176 10943 net.cpp:156] Memory required for data: 275800200
I0726 00:27:08.124219 10943 net.cpp:484] Sharing parameters 'ip1_w' owned by layer 'InnerProduct1', param index 0
I0726 00:27:08.124241 10943 net.cpp:484] Sharing parameters 'ip1_b' owned by layer 'InnerProduct1', param index 1
I0726 00:27:08.124258 10943 layer_factory.hpp:77] Creating layer ReLU73
I0726 00:27:08.124299 10943 net.cpp:91] Creating Layer ReLU73
I0726 00:27:08.124321 10943 net.cpp:425] ReLU73 <- InnerProduct109
I0726 00:27:08.124341 10943 net.cpp:386] ReLU73 -> InnerProduct109 (in-place)
I0726 00:27:08.124379 10943 net.cpp:141] Setting up ReLU73
I0726 00:27:08.124398 10943 net.cpp:148] Top shape: 10 500 (5000)
I0726 00:27:08.124411 10943 net.cpp:156] Memory required for data: 275820200
I0726 00:27:08.124439 10943 layer_factory.hpp:77] Creating layer InnerProduct110
I0726 00:27:08.124459 10943 net.cpp:91] Creating Layer InnerProduct110
I0726 00:27:08.124475 10943 net.cpp:425] InnerProduct110 <- InnerProduct109
I0726 00:27:08.124495 10943 net.cpp:399] InnerProduct110 -> InnerProduct110
I0726 00:27:08.126320 10943 net.cpp:141] Setting up InnerProduct110
I0726 00:27:08.126394 10943 net.cpp:148] Top shape: 10 500 (5000)
I0726 00:27:08.126413 10943 net.cpp:156] Memory required for data: 275840200
I0726 00:27:08.126432 10943 net.cpp:484] Sharing parameters 'ip2_w' owned by layer 'InnerProduct2', param index 0
I0726 00:27:08.126451 10943 net.cpp:484] Sharing parameters 'ip2_b' owned by layer 'InnerProduct2', param index 1
I0726 00:27:08.126467 10943 layer_factory.hpp:77] Creating layer Convolution75
I0726 00:27:08.126499 10943 net.cpp:91] Creating Layer Convolution75
I0726 00:27:08.126518 10943 net.cpp:425] Convolution75 <- c19
I0726 00:27:08.126540 10943 net.cpp:399] Convolution75 -> Convolution75
I0726 00:27:08.126641 10943 net.cpp:141] Setting up Convolution75
I0726 00:27:08.126693 10943 net.cpp:148] Top shape: 10 20 60 60 (720000)
I0726 00:27:08.126706 10943 net.cpp:156] Memory required for data: 278720200
I0726 00:27:08.126721 10943 net.cpp:484] Sharing parameters 'conv1_w' owned by layer 'Convolution1', param index 0
I0726 00:27:08.126736 10943 net.cpp:484] Sharing parameters 'conv1_b' owned by layer 'Convolution1', param index 1
I0726 00:27:08.126751 10943 layer_factory.hpp:77] Creating layer Pooling75
I0726 00:27:08.126770 10943 net.cpp:91] Creating Layer Pooling75
I0726 00:27:08.126839 10943 net.cpp:425] Pooling75 <- Convolution75
I0726 00:27:08.126865 10943 net.cpp:399] Pooling75 -> Pooling75
I0726 00:27:08.126904 10943 net.cpp:141] Setting up Pooling75
I0726 00:27:08.126921 10943 net.cpp:148] Top shape: 10 20 30 30 (180000)
I0726 00:27:08.126935 10943 net.cpp:156] Memory required for data: 279440200
I0726 00:27:08.126947 10943 layer_factory.hpp:77] Creating layer Convolution76
I0726 00:27:08.126965 10943 net.cpp:91] Creating Layer Convolution76
I0726 00:27:08.126981 10943 net.cpp:425] Convolution76 <- Pooling75
I0726 00:27:08.127001 10943 net.cpp:399] Convolution76 -> Convolution76
I0726 00:27:08.127214 10943 net.cpp:141] Setting up Convolution76
I0726 00:27:08.127252 10943 net.cpp:148] Top shape: 10 50 26 26 (338000)
I0726 00:27:08.127265 10943 net.cpp:156] Memory required for data: 280792200
I0726 00:27:08.127282 10943 net.cpp:484] Sharing parameters 'conv2_w' owned by layer 'Convolution2', param index 0
I0726 00:27:08.127297 10943 net.cpp:484] Sharing parameters 'conv2_b' owned by layer 'Convolution2', param index 1
I0726 00:27:08.127311 10943 layer_factory.hpp:77] Creating layer Pooling76
I0726 00:27:08.127329 10943 net.cpp:91] Creating Layer Pooling76
I0726 00:27:08.127344 10943 net.cpp:425] Pooling76 <- Convolution76
I0726 00:27:08.127362 10943 net.cpp:399] Pooling76 -> Pooling76
I0726 00:27:08.127393 10943 net.cpp:141] Setting up Pooling76
I0726 00:27:08.127414 10943 net.cpp:148] Top shape: 10 50 13 13 (84500)
I0726 00:27:08.127427 10943 net.cpp:156] Memory required for data: 281130200
I0726 00:27:08.127441 10943 layer_factory.hpp:77] Creating layer InnerProduct111
I0726 00:27:08.127460 10943 net.cpp:91] Creating Layer InnerProduct111
I0726 00:27:08.127478 10943 net.cpp:425] InnerProduct111 <- Pooling76
I0726 00:27:08.127557 10943 net.cpp:399] InnerProduct111 -> InnerProduct111
I0726 00:27:08.168766 10943 net.cpp:141] Setting up InnerProduct111
I0726 00:27:08.168907 10943 net.cpp:148] Top shape: 10 500 (5000)
I0726 00:27:08.168997 10943 net.cpp:156] Memory required for data: 281150200
I0726 00:27:08.169026 10943 net.cpp:484] Sharing parameters 'ip1_w' owned by layer 'InnerProduct1', param index 0
I0726 00:27:08.169065 10943 net.cpp:484] Sharing parameters 'ip1_b' owned by layer 'InnerProduct1', param index 1
I0726 00:27:08.169085 10943 layer_factory.hpp:77] Creating layer ReLU74
I0726 00:27:08.169111 10943 net.cpp:91] Creating Layer ReLU74
I0726 00:27:08.169147 10943 net.cpp:425] ReLU74 <- InnerProduct111
I0726 00:27:08.169173 10943 net.cpp:386] ReLU74 -> InnerProduct111 (in-place)
I0726 00:27:08.169215 10943 net.cpp:141] Setting up ReLU74
I0726 00:27:08.169236 10943 net.cpp:148] Top shape: 10 500 (5000)
I0726 00:27:08.169265 10943 net.cpp:156] Memory required for data: 281170200
I0726 00:27:08.169282 10943 layer_factory.hpp:77] Creating layer InnerProduct112
I0726 00:27:08.169306 10943 net.cpp:91] Creating Layer InnerProduct112
I0726 00:27:08.169337 10943 net.cpp:425] InnerProduct112 <- InnerProduct111
I0726 00:27:08.169358 10943 net.cpp:399] InnerProduct112 -> InnerProduct112
I0726 00:27:08.171414 10943 net.cpp:141] Setting up InnerProduct112
I0726 00:27:08.171473 10943 net.cpp:148] Top shape: 10 500 (5000)
I0726 00:27:08.171489 10943 net.cpp:156] Memory required for data: 281190200
I0726 00:27:08.171506 10943 net.cpp:484] Sharing parameters 'ip2_w' owned by layer 'InnerProduct2', param index 0
I0726 00:27:08.171525 10943 net.cpp:484] Sharing parameters 'ip2_b' owned by layer 'InnerProduct2', param index 1
I0726 00:27:08.171548 10943 layer_factory.hpp:77] Creating layer Concat19
I0726 00:27:08.171579 10943 net.cpp:91] Creating Layer Concat19
I0726 00:27:08.171597 10943 net.cpp:425] Concat19 <- InnerProduct110
I0726 00:27:08.171615 10943 net.cpp:425] Concat19 <- InnerProduct112
I0726 00:27:08.171636 10943 net.cpp:399] Concat19 -> Concat19
I0726 00:27:08.171661 10943 net.cpp:141] Setting up Concat19
I0726 00:27:08.171679 10943 net.cpp:148] Top shape: 10 1000 (10000)
I0726 00:27:08.171692 10943 net.cpp:156] Memory required for data: 281230200
I0726 00:27:08.171707 10943 layer_factory.hpp:77] Creating layer InnerProduct113
I0726 00:27:08.171728 10943 net.cpp:91] Creating Layer InnerProduct113
I0726 00:27:08.171746 10943 net.cpp:425] InnerProduct113 <- Concat19
I0726 00:27:08.171766 10943 net.cpp:399] InnerProduct113 -> InnerProduct113
I0726 00:27:08.175557 10943 net.cpp:141] Setting up InnerProduct113
I0726 00:27:08.175632 10943 net.cpp:148] Top shape: 10 512 (5120)
I0726 00:27:08.175655 10943 net.cpp:156] Memory required for data: 281250680
I0726 00:27:08.175680 10943 net.cpp:484] Sharing parameters 'fc1_w' owned by layer 'InnerProduct5', param index 0
I0726 00:27:08.175703 10943 net.cpp:484] Sharing parameters 'fc1_b' owned by layer 'InnerProduct5', param index 1
I0726 00:27:08.175720 10943 layer_factory.hpp:77] Creating layer ReLU75
I0726 00:27:08.175745 10943 net.cpp:91] Creating Layer ReLU75
I0726 00:27:08.175768 10943 net.cpp:425] ReLU75 <- InnerProduct113
I0726 00:27:08.175788 10943 net.cpp:386] ReLU75 -> InnerProduct113 (in-place)
I0726 00:27:08.175813 10943 net.cpp:141] Setting up ReLU75
I0726 00:27:08.175833 10943 net.cpp:148] Top shape: 10 512 (5120)
I0726 00:27:08.175848 10943 net.cpp:156] Memory required for data: 281271160
I0726 00:27:08.175863 10943 layer_factory.hpp:77] Creating layer InnerProduct114
I0726 00:27:08.175884 10943 net.cpp:91] Creating Layer InnerProduct114
I0726 00:27:08.175900 10943 net.cpp:425] InnerProduct114 <- InnerProduct113
I0726 00:27:08.175921 10943 net.cpp:399] InnerProduct114 -> InnerProduct114
I0726 00:27:08.178064 10943 net.cpp:141] Setting up InnerProduct114
I0726 00:27:08.178154 10943 net.cpp:148] Top shape: 10 512 (5120)
I0726 00:27:08.178174 10943 net.cpp:156] Memory required for data: 281291640
I0726 00:27:08.178194 10943 net.cpp:484] Sharing parameters 'fc2_w' owned by layer 'InnerProduct6', param index 0
I0726 00:27:08.178213 10943 net.cpp:484] Sharing parameters 'fc2_b' owned by layer 'InnerProduct6', param index 1
I0726 00:27:08.178246 10943 layer_factory.hpp:77] Creating layer ReLU76
I0726 00:27:08.178273 10943 net.cpp:91] Creating Layer ReLU76
I0726 00:27:08.178292 10943 net.cpp:425] ReLU76 <- InnerProduct114
I0726 00:27:08.178324 10943 net.cpp:386] ReLU76 -> InnerProduct114 (in-place)
I0726 00:27:08.178347 10943 net.cpp:141] Setting up ReLU76
I0726 00:27:08.178378 10943 net.cpp:148] Top shape: 10 512 (5120)
I0726 00:27:08.178393 10943 net.cpp:156] Memory required for data: 281312120
I0726 00:27:08.178408 10943 layer_factory.hpp:77] Creating layer dt18
I0726 00:27:08.178442 10943 net.cpp:91] Creating Layer dt18
I0726 00:27:08.178458 10943 net.cpp:425] dt18 <- InnerProduct114
I0726 00:27:08.178493 10943 net.cpp:399] dt18 -> dt18
I0726 00:27:08.178532 10943 net.cpp:141] Setting up dt18
I0726 00:27:08.178566 10943 net.cpp:148] Top shape: 10 2 (20)
I0726 00:27:08.178581 10943 net.cpp:156] Memory required for data: 281312200
I0726 00:27:08.178597 10943 net.cpp:484] Sharing parameters 'fc3_w' owned by layer 'dt0', param index 0
I0726 00:27:08.178613 10943 net.cpp:484] Sharing parameters 'fc3_b' owned by layer 'dt0', param index 1
I0726 00:27:08.178642 10943 layer_factory.hpp:77] Creating layer con
I0726 00:27:08.178661 10943 net.cpp:91] Creating Layer con
…
I0726 00:27:08.178858 10943 net.cpp:425] con <- dt10
I0726 00:27:08.178874 10943 net.cpp:425] con <- dt11
I0726 00:27:08.178889 10943 net.cpp:425] con <- dt12
I0726 00:27:08.178903 10943 net.cpp:425] con <- dt13
I0726 00:27:08.178917 10943 net.cpp:425] con <- dt14
I0726 00:27:08.178932 10943 net.cpp:425] con <- dt15
I0726 00:27:08.178947 10943 net.cpp:425] con <- dt16
I0726 00:27:08.178963 10943 net.cpp:425] con <- dt17
I0726 00:27:08.178977 10943 net.cpp:425] con <- dt18
I0726 00:27:08.178995 10943 net.cpp:399] con -> con
I0726 00:27:08.179019 10943 net.cpp:141] Setting up con
I0726 00:27:08.179038 10943 net.cpp:148] Top shape: 10 38 (380)
I0726 00:27:08.179051 10943 net.cpp:156] Memory required for data: 281313720
I0726 00:27:08.179065 10943 layer_factory.hpp:77] Creating layer r1
I0726 00:27:08.179086 10943 net.cpp:91] Creating Layer r1
I0726 00:27:08.179102 10943 net.cpp:425] r1 <- con
I0726 00:27:08.179121 10943 net.cpp:399] r1 -> r1
I0726 00:27:08.179188 10943 net.cpp:141] Setting up r1
I0726 00:27:08.179261 10943 net.cpp:148] Top shape: 10 1 2 19 (380)
I0726 00:27:08.179317 10943 net.cpp:156] Memory required for data: 281315240
I0726 00:27:08.179335 10943 layer_factory.hpp:77] Creating layer p
I0726 00:27:08.179353 10943 net.cpp:91] Creating Layer p
I0726 00:27:08.179368 10943 net.cpp:425] p <- r1
I0726 00:27:08.179386 10943 net.cpp:399] p -> p
I0726 00:27:08.179409 10943 net.cpp:141] Setting up p
I0726 00:27:08.179426 10943 net.cpp:148] Top shape: 10 1 2 1 (20)
I0726 00:27:08.179440 10943 net.cpp:156] Memory required for data: 281315320
I0726 00:27:08.179453 10943 layer_factory.hpp:77] Creating layer r2
I0726 00:27:08.179471 10943 net.cpp:91] Creating Layer r2
I0726 00:27:08.179484 10943 net.cpp:425] r2 <- p
I0726 00:27:08.179504 10943 net.cpp:399] r2 -> r2
I0726 00:27:08.179525 10943 net.cpp:141] Setting up r2
I0726 00:27:08.179543 10943 net.cpp:148] Top shape: 10 2 1 1 (20)
I0726 00:27:08.179555 10943 net.cpp:156] Memory required for data: 281315400
I0726 00:27:08.179569 10943 layer_factory.hpp:77] Creating layer r2_r2_0_split
I0726 00:27:08.179585 10943 net.cpp:91] Creating Layer r2_r2_0_split
I0726 00:27:08.179600 10943 net.cpp:425] r2_r2_0_split <- r2
I0726 00:27:08.179615 10943 net.cpp:399] r2_r2_0_split -> r2_r2_0_split_0
I0726 00:27:08.179632 10943 net.cpp:399] r2_r2_0_split -> r2_r2_0_split_1
I0726 00:27:08.179652 10943 net.cpp:141] Setting up r2_r2_0_split
I0726 00:27:08.179668 10943 net.cpp:148] Top shape: 10 2 1 1 (20)
I0726 00:27:08.179682 10943 net.cpp:148] Top shape: 10 2 1 1 (20)
I0726 00:27:08.179697 10943 net.cpp:156] Memory required for data: 281315560
I0726 00:27:08.179710 10943 layer_factory.hpp:77] Creating layer loss
I0726 00:27:08.179726 10943 net.cpp:91] Creating Layer loss
I0726 00:27:08.179740 10943 net.cpp:425] loss <- r2_r2_0_split_0
I0726 00:27:08.179755 10943 net.cpp:425] loss <- label_data_1_split_0
I0726 00:27:08.179774 10943 net.cpp:399] loss -> loss
…
