…
I0801 16:13:23.247791 31171 solver.cpp:81] Creating training net from train_net file: examples/scene/matchNetTrainHingeMini.prototxt
I0801 16:13:23.251749 31171 net.cpp:49] Initializing net from parameters: 
state {
  phase: TRAIN
}
layer {
  name: "data"
  type: "Data"
  top: "data"
  top: "label"
  include {
    phase: TRAIN
  }
  transform_param {
    scale: 0.0039215689
    mirror: true
    mean_file: "examples/scene/scene_mean.binaryproto"
  }
  data_param {
    source: "examples/scene/scene_train7_pairs_20000_pad.lmdb"
    batch_size: 100
    backend: LMDB
  }
}
layer {
  name: "th"
  type: "Threshold"
  bottom: "label"
  top: "th"
  threshold_param {
    threshold: 0
  }
}
layer {
  name: "i1"
  type: "Slice"
  bottom: "data"
  top: "i1"
  top: "i2"
  slice_param {
    slice_dim: 1
    slice_point: 3
  }
}
layer {
  name: "p1"
  type: "Pooling"
  bottom: "i1"
  top: "p1"
  pooling_param {
    pool: AVE
    kernel_size: 2
    stride: 2
  }
}
layer {
  name: "p2"
  type: "Pooling"
  bottom: "i2"
  top: "p2"
  pooling_param {
    pool: AVE
    kernel_size: 2
    stride: 2
  }
}
layer {
  name: "Input1"
  type: "Input"
  top: "Input1"
  include {
    phase: TRAIN
  }
  input_param {
    shape {
      dim: 100
      dim: 3
      dim: 64
      dim: 64
    }
  }
}
layer {
  name: "c11"
  type: "Crop"
  bottom: "i1"
  bottom: "Input1"
  top: "c11"
  crop_param {
    axis: 2
    offset: 32
    offset: 32
  }
}
layer {
  name: "Input2"
  type: "Input"
  top: "Input2"
  include {
    phase: TRAIN
  }
  input_param {
    shape {
      dim: 100
      dim: 3
      dim: 64
      dim: 64
    }
  }
}
layer {
  name: "c21"
  type: "Crop"
  bottom: "i2"
  bottom: "Input2"
  top: "c21"
  crop_param {
    axis: 2
    offset: 32
    offset: 32
  }
}
layer {
  name: "Convolution1"
  type: "Convolution"
  bottom: "p1"
  top: "Convolution1"
  param {
    name: "conv1_w"
    lr_mult: 1
  }
  param {
    name: "conv1_b"
    lr_mult: 2
  }
  convolution_param {
    num_output: 20
    kernel_size: 5
    stride: 1
    weight_filler {
      type: "xavier"
    }
    bias_filler {
      type: "constant"
    }
  }
}
layer {
  name: "Pooling1"
  type: "Pooling"
  bottom: "Convolution1"
  top: "Pooling1"
  pooling_param {
    pool: MAX
    kernel_size: 2
    stride: 2
  }
}
layer {
  name: "Convolution2"
  type: "Convolution"
  bottom: "Pooling1"
  top: "Convolution2"
  param {
    name: "conv2_w"
    lr_mult: 1
  }
  param {
    name: "conv2_b"
    lr_mult: 2
  }
  convolution_param {
    num_output: 50
    kernel_size: 5
    stride: 1
    weight_filler {
      type: "xavier"
    }
    bias_filler {
      type: "constant"
    }
  }
}
layer {
  name: "Pooling2"
  type: "Pooling"
  bottom: "Convolution2"
  top: "Pooling2"
  pooling_param {
    pool: MAX
    kernel_size: 2
    stride: 2
  }
}
layer {
  name: "InnerProduct1"
  type: "InnerProduct"
  bottom: "Pooling2"
  top: "InnerProduct1"
  param {
    name: "ip1_w"
    lr_mult: 1
  }
  param {
    name: "ip1_b"
    lr_mult: 2
  }
  inner_product_param {
    num_output: 100
    weight_filler {
      type: "xavier"
    }
    bias_filler {
      type: "constant"
    }
  }
}
layer {
  name: "ReLU1"
  type: "ReLU"
  bottom: "InnerProduct1"
  top: "InnerProduct1"
}
layer {
  name: "InnerProduct2"
  type: "InnerProduct"
  bottom: "InnerProduct1"
  top: "InnerProduct2"
  param {
    name: "ip2_w"
    lr_mult: 1
  }
  param {
    name: "ip2_b"
    lr_mult: 2
  }
  inner_product_param {
    num_output: 50
    weight_filler {
      type: "xavier"
    }
    bias_filler {
      type: "constant"
    }
  }
}
layer {
  name: "Convolution3"
  type: "Convolution"
  bottom: "p2"
  top: "Convolution3"
  param {
    name: "conv1_w"
    lr_mult: 1
  }
  param {
    name: "conv1_b"
    lr_mult: 2
  }
  convolution_param {
    num_output: 20
    kernel_size: 5
    stride: 1
    weight_filler {
      type: "xavier"
    }
    bias_filler {
      type: "constant"
    }
  }
}
layer {
  name: "Pooling3"
  type: "Pooling"
  bottom: "Convolution3"
  top: "Pooling3"
  pooling_param {
    pool: MAX
    kernel_size: 2
    stride: 2
  }
}
layer {
  name: "Convolution4"
  type: "Convolution"
  bottom: "Pooling3"
  top: "Convolution4"
  param {
    name: "conv2_w"
    lr_mult: 1
  }
  param {
    name: "conv2_b"
    lr_mult: 2
  }
  convolution_param {
    num_output: 50
    kernel_size: 5
    stride: 1
    weight_filler {
      type: "xavier"
    }
    bias_filler {
      type: "constant"
    }
  }
}
layer {
  name: "Pooling4"
  type: "Pooling"
  bottom: "Convolution4"
  top: "Pooling4"
  pooling_param {
    pool: MAX
    kernel_size: 2
    stride: 2
  }
}
layer {
  name: "InnerProduct3"
  type: "InnerProduct"
  bottom: "Pooling4"
  top: "InnerProduct3"
  param {
    name: "ip1_w"
    lr_mult: 1
  }
  param {
    name: "ip1_b"
    lr_mult: 2
  }
  inner_product_param {
    num_output: 100
    weight_filler {
      type: "xavier"
    }
    bias_filler {
      type: "constant"
    }
  }
}
layer {
  name: "ReLU2"
  type: "ReLU"
  bottom: "InnerProduct3"
  top: "InnerProduct3"
}
layer {
  name: "InnerProduct4"
  type: "InnerProduct"
  bottom: "InnerProduct3"
  top: "InnerProduct4"
  param {
    name: "ip2_w"
    lr_mult: 1
  }
  param {
    name: "ip2_b"
    lr_mult: 2
  }
  inner_product_param {
    num_output: 50
    weight_filler {
      type: "xavier"
    }
    bias_filler {
      type: "constant"
    }
  }
}
layer {
  name: "Concat1"
  type: "Concat"
  bottom: "InnerProduct2"
  bottom: "InnerProduct4"
  top: "Concat1"
  concat_param {
    axis: 1
  }
}
layer {
  name: "InnerProduct5"
  type: "InnerProduct"
  bottom: "Concat1"
  top: "InnerProduct5"
  param {
    name: "fc1_w"
    lr_mult: 1
  }
  param {
    name: "fc1_b"
    lr_mult: 2
  }
  inner_product_param {
    num_output: 64
    weight_filler {
      type: "xavier"
    }
    bias_filler {
      type: "constant"
    }
  }
}
layer {
  name: "ReLU3"
  type: "ReLU"
  bottom: "InnerProduct5"
  top: "InnerProduct5"
}
layer {
  name: "InnerProduct6"
  type: "InnerProduct"
  bottom: "InnerProduct5"
  top: "InnerProduct6"
  param {
    name: "fc2_w"
    lr_mult: 1
  }
  param {
    name: "fc2_b"
    lr_mult: 2
  }
  inner_product_param {
    num_output: 32
    weight_filler {
      type: "xavier"
    }
    bias_filler {
      type: "constant"
    }
  }
}
layer {
  name: "ReLU4"
  type: "ReLU"
  bottom: "InnerProduct6"
  top: "InnerProduct6"
}
layer {
  name: "dt"
  type: "InnerProduct"
  bottom: "InnerProduct6"
  top: "dt"
  param {
    name: "fc3_w"
    lr_mult: 1
  }
  param {
    name: "fc3_b"
    lr_mult: 2
  }
  inner_product_param {
    num_output: 1
    weight_filler {
      type: "xavier"
    }
    bias_filler {
      type: "constant"
    }
  }
}
layer {
  name: "Convolution5"
  type: "Convolution"
  bottom: "p1"
  top: "Convolution5"
  param {
    name: "conv1_w"
    lr_mult: 1
  }
  param {
    name: "conv1_b"
    lr_mult: 2
  }
  convolution_param {
    num_output: 20
    kernel_size: 5
    stride: 1
    weight_filler {
      type: "xavier"
    }
    bias_filler {
      type: "constant"
    }
  }
}
layer {
  name: "Pooling5"
  type: "Pooling"
  bottom: "Convolution5"
  top: "Pooling5"
  pooling_param {
    pool: MAX
    kernel_size: 2
    stride: 2
  }
}
layer {
  name: "Convolution6"
  type: "Convolution"
  bottom: "Pooling5"
  top: "Convolution6"
  param {
    name: "conv2_w"
    lr_mult: 1
  }
  param {
    name: "conv2_b"
    lr_mult: 2
  }
  convolution_param {
    num_output: 50
    kernel_size: 5
    stride: 1
    weight_filler {
      type: "xavier"
    }
    bias_filler {
      type: "constant"
    }
  }
}
layer {
  name: "Pooling6"
  type: "Pooling"
  bottom: "Convolution6"
  top: "Pooling6"
  pooling_param {
    pool: MAX
    kernel_size: 2
    stride: 2
  }
}
layer {
  name: "InnerProduct7"
  type: "InnerProduct"
  bottom: "Pooling6"
  top: "InnerProduct7"
  param {
    name: "ip1_w"
    lr_mult: 1
  }
  param {
    name: "ip1_b"
    lr_mult: 2
  }
  inner_product_param {
    num_output: 100
    weight_filler {
      type: "xavier"
    }
    bias_filler {
      type: "constant"
    }
  }
}
layer {
  name: "ReLU5"
  type: "ReLU"
  bottom: "InnerProduct7"
  top: "InnerProduct7"
}
layer {
  name: "InnerProduct8"
  type: "InnerProduct"
  bottom: "InnerProduct7"
  top: "InnerProduct8"
  param {
    name: "ip2_w"
    lr_mult: 1
  }
  param {
    name: "ip2_b"
    lr_mult: 2
  }
  inner_product_param {
    num_output: 50
    weight_filler {
      type: "xavier"
    }
    bias_filler {
      type: "constant"
    }
  }
}
layer {
  name: "Convolution7"
  type: "Convolution"
  bottom: "c21"
  top: "Convolution7"
  param {
    name: "conv1_w"
    lr_mult: 1
  }
  param {
    name: "conv1_b"
    lr_mult: 2
  }
  convolution_param {
    num_output: 20
    kernel_size: 5
    stride: 1
    weight_filler {
      type: "xavier"
    }
    bias_filler {
      type: "constant"
    }
  }
}
layer {
  name: "Pooling7"
  type: "Pooling"
  bottom: "Convolution7"
  top: "Pooling7"
  pooling_param {
    pool: MAX
    kernel_size: 2
    stride: 2
  }
}
layer {
  name: "Convolution8"
  type: "Convolution"
  bottom: "Pooling7"
  top: "Convolution8"
  param {
    name: "conv2_w"
    lr_mult: 1
  }
  param {
    name: "conv2_b"
    lr_mult: 2
  }
  convolution_param {
    num_output: 50
    kernel_size: 5
    stride: 1
    weight_filler {
      type: "xavier"
    }
    bias_filler {
      type: "constant"
    }
  }
}
layer {
  name: "Pooling8"
  type: "Pooling"
  bottom: "Convolution8"
  top: "Pooling8"
  pooling_param {
    pool: MAX
    kernel_size: 2
    stride: 2
  }
}
layer {
  name: "InnerProduct9"
  type: "InnerProduct"
  bottom: "Pooling8"
  top: "InnerProduct9"
  param {
    name: "ip1_w"
    lr_mult: 1
  }
  param {
    name: "ip1_b"
    lr_mult: 2
  }
  inner_product_param {
    num_output: 100
    weight_filler {
      type: "xavier"
    }
    bias_filler {
      type: "constant"
    }
  }
}
layer {
  name: "ReLU6"
  type: "ReLU"
  bottom: "InnerProduct9"
  top: "InnerProduct9"
}
layer {
  name: "InnerProduct10"
  type: "InnerProduct"
  bottom: "InnerProduct9"
  top: "InnerProduct10"
  param {
    name: "ip2_w"
    lr_mult: 1
  }
  param {
    name: "ip2_b"
    lr_mult: 2
  }
  inner_product_param {
    num_output: 50
    weight_filler {
      type: "xavier"
    }
    bias_filler {
      type: "constant"
    }
  }
}
layer {
  name: "Concat2"
  type: "Concat"
  bottom: "InnerProduct8"
  bottom: "InnerProduct10"
  top: "Concat2"
  concat_param {
    axis: 1
  }
}
layer {
  name: "InnerProduct11"
  type: "InnerProduct"
  bottom: "Concat2"
  top: "InnerProduct11"
  param {
    name: "fc1_w"
    lr_mult: 1
  }
  param {
    name: "fc1_b"
    lr_mult: 2
  }
  inner_product_param {
    num_output: 64
    weight_filler {
      type: "xavier"
    }
    bias_filler {
      type: "constant"
    }
  }
}
layer {
  name: "ReLU7"
  type: "ReLU"
  bottom: "InnerProduct11"
  top: "InnerProduct11"
}
layer {
  name: "InnerProduct12"
  type: "InnerProduct"
  bottom: "InnerProduct11"
  top: "InnerProduct12"
  param {
    name: "fc2_w"
    lr_mult: 1
  }
  param {
    name: "fc2_b"
    lr_mult: 2
  }
  inner_product_param {
    num_output: 32
    weight_filler {
      type: "xavier"
    }
    bias_filler {
      type: "constant"
    }
  }
}
layer {
  name: "ReLU8"
  type: "ReLU"
  bottom: "InnerProduct12"
  top: "InnerProduct12"
}
layer {
  name: "dt1"
  type: "InnerProduct"
  bottom: "InnerProduct12"
  top: "dt1"
  param {
    name: "fc3_w"
    lr_mult: 1
  }
  param {
    name: "fc3_b"
    lr_mult: 2
  }
  inner_product_param {
    num_output: 1
    weight_filler {
      type: "xavier"
    }
    bias_filler {
      type: "constant"
    }
  }
}
layer {
  name: "Convolution9"
  type: "Convolution"
  bottom: "p2"
  top: "Convolution9"
  param {
    name: "conv1_w"
    lr_mult: 1
  }
  param {
    name: "conv1_b"
    lr_mult: 2
  }
  convolution_param {
    num_output: 20
    kernel_size: 5
    stride: 1
    weight_filler {
      type: "xavier"
    }
    bias_filler {
      type: "constant"
    }
  }
}
layer {
  name: "Pooling9"
  type: "Pooling"
  bottom: "Convolution9"
  top: "Pooling9"
  pooling_param {
    pool: MAX
    kernel_size: 2
    stride: 2
  }
}
layer {
  name: "Convolution10"
  type: "Convolution"
  bottom: "Pooling9"
  top: "Convolution10"
  param {
    name: "conv2_w"
    lr_mult: 1
  }
  param {
    name: "conv2_b"
    lr_mult: 2
  }
  convolution_param {
    num_output: 50
    kernel_size: 5
    stride: 1
    weight_filler {
      type: "xavier"
    }
    bias_filler {
      type: "constant"
    }
  }
}
layer {
  name: "Pooling10"
  type: "Pooling"
  bottom: "Convolution10"
  top: "Pooling10"
  pooling_param {
    pool: MAX
    kernel_size: 2
    stride: 2
  }
}
layer {
  name: "InnerProduct13"
  type: "InnerProduct"
  bottom: "Pooling10"
  top: "InnerProduct13"
  param {
    name: "ip1_w"
    lr_mult: 1
  }
  param {
    name: "ip1_b"
    lr_mult: 2
  }
  inner_product_param {
    num_output: 100
    weight_filler {
      type: "xavier"
    }
    bias_filler {
      type: "constant"
    }
  }
}
layer {
  name: "ReLU9"
  type: "ReLU"
  bottom: "InnerProduct13"
  top: "InnerProduct13"
}
layer {
  name: "InnerProduct14"
  type: "InnerProduct"
  bottom: "InnerProduct13"
  top: "InnerProduct14"
  param {
    name: "ip2_w"
    lr_mult: 1
  }
  param {
    name: "ip2_b"
    lr_mult: 2
  }
  inner_product_param {
    num_output: 50
    weight_filler {
      type: "xavier"
    }
    bias_filler {
      type: "constant"
    }
  }
}
layer {
  name: "Convolution11"
  type: "Convolution"
  bottom: "c11"
  top: "Convolution11"
  param {
    name: "conv1_w"
    lr_mult: 1
  }
  param {
    name: "conv1_b"
    lr_mult: 2
  }
  convolution_param {
    num_output: 20
    kernel_size: 5
    stride: 1
    weight_filler {
      type: "xavier"
    }
    bias_filler {
      type: "constant"
    }
  }
}
layer {
  name: "Pooling11"
  type: "Pooling"
  bottom: "Convolution11"
  top: "Pooling11"
  pooling_param {
    pool: MAX
    kernel_size: 2
    stride: 2
  }
}
layer {
  name: "Convolution12"
  type: "Convolution"
  bottom: "Pooling11"
  top: "Convolution12"
  param {
    name: "conv2_w"
    lr_mult: 1
  }
  param {
    name: "conv2_b"
    lr_mult: 2
  }
  convolution_param {
    num_output: 50
    kernel_size: 5
    stride: 1
    weight_filler {
      type: "xavier"
    }
    bias_filler {
      type: "constant"
    }
  }
}
layer {
  name: "Pooling12"
  type: "Pooling"
  bottom: "Convolution12"
  top: "Pooling12"
  pooling_param {
    pool: MAX
    kernel_size: 2
    stride: 2
  }
}
layer {
  name: "InnerProduct15"
  type: "InnerProduct"
  bottom: "Pooling12"
  top: "InnerProduct15"
  param {
    name: "ip1_w"
    lr_mult: 1
  }
  param {
    name: "ip1_b"
    lr_mult: 2
  }
  inner_product_param {
    num_output: 100
    weight_filler {
      type: "xavier"
    }
    bias_filler {
      type: "constant"
    }
  }
}
layer {
  name: "ReLU10"
  type: "ReLU"
  bottom: "InnerProduct15"
  top: "InnerProduct15"
}
layer {
  name: "InnerProduct16"
  type: "InnerProduct"
  bottom: "InnerProduct15"
  top: "InnerProduct16"
  param {
    name: "ip2_w"
    lr_mult: 1
  }
  param {
    name: "ip2_b"
    lr_mult: 2
  }
  inner_product_param {
    num_output: 50
    weight_filler {
      type: "xavier"
    }
    bias_filler {
      type: "constant"
    }
  }
}
layer {
  name: "Concat3"
  type: "Concat"
  bottom: "InnerProduct14"
  bottom: "InnerProduct16"
  top: "Concat3"
  concat_param {
    axis: 1
  }
}
layer {
  name: "InnerProduct17"
  type: "InnerProduct"
  bottom: "Concat3"
  top: "InnerProduct17"
  param {
    name: "fc1_w"
    lr_mult: 1
  }
  param {
    name: "fc1_b"
    lr_mult: 2
  }
  inner_product_param {
    num_output: 64
    weight_filler {
      type: "xavier"
    }
    bias_filler {
      type: "constant"
    }
  }
}
layer {
  name: "ReLU11"
  type: "ReLU"
  bottom: "InnerProduct17"
  top: "InnerProduct17"
}
layer {
  name: "InnerProduct18"
  type: "InnerProduct"
  bottom: "InnerProduct17"
  top: "InnerProduct18"
  param {
    name: "fc2_w"
    lr_mult: 1
  }
  param {
    name: "fc2_b"
    lr_mult: 2
  }
  inner_product_param {
    num_output: 32
    weight_filler {
      type: "xavier"
    }
    bias_filler {
      type: "constant"
    }
  }
}
layer {
  name: "ReLU12"
  type: "ReLU"
  bottom: "InnerProduct18"
  top: "InnerProduct18"
}
layer {
  name: "dt2"
  type: "InnerProduct"
  bottom: "InnerProduct18"
  top: "dt2"
  param {
    name: "fc3_w"
    lr_mult: 1
  }
  param {
    name: "fc3_b"
    lr_mult: 2
  }
  inner_product_param {
    num_output: 1
    weight_filler {
      type: "xavier"
    }
    bias_filler {
      type: "constant"
    }
  }
}
layer {
  name: "con"
  type: "Concat"
  bottom: "dt"
  bottom: "dt1"
  bottom: "dt2"
  top: "con"
  concat_param {
    axis: -1
  }
}
layer {
  name: "r1"
  type: "Reshape"
  bottom: "con"
  top: "r1"
  reshape_param {
    shape {
      dim: 0
      dim: 1
      dim: 1
      dim: -1
    }
  }
}
layer {
  name: "p"
  type: "Pooling"
  bottom: "r1"
  top: "p"
  pooling_param {
    pool: MAX
    stride: 1
    kernel_h: 1
    kernel_w: 3
  }
}
layer {
  name: "r2"
  type: "Reshape"
  bottom: "p"
  top: "r2"
  reshape_param {
    shape {
      dim: 0
      dim: 1
      dim: 1
      dim: -1
    }
  }
}
layer {
  name: "padL"
  type: "Reshape"
  bottom: "label"
  top: "padL"
  reshape_param {
    shape {
      dim: 0
      dim: 1
      dim: 1
      dim: -1
    }
  }
}
layer {
  name: "pad"
  type: "Concat"
  bottom: "r2"
  bottom: "padL"
  top: "pad"
  concat_param {
    axis: 1
  }
}
layer {
  name: "accuracy"
  type: "Accuracy"
  bottom: "pad"
  bottom: "th"
  top: "accuracy"
  include {
    phase: TRAIN
  }
}
layer {
  name: "loss"
  type: "HingeLoss"
  bottom: "pad"
  bottom: "th"
  top: "loss"
}
I0801 16:13:23.252310 31171 layer_factory.hpp:77] Creating layer data
I0801 16:13:23.252779 31171 net.cpp:91] Creating Layer data
I0801 16:13:23.252792 31171 net.cpp:399] data -> data
I0801 16:13:23.252821 31171 net.cpp:399] data -> label
I0801 16:13:23.252840 31171 data_transformer.cpp:25] Loading mean file from: examples/scene/scene_mean.binaryproto
I0801 16:13:23.258318 31178 db_lmdb.cpp:35] Opened lmdb examples/scene/scene_train7_pairs_20000_pad.lmdb
I0801 16:13:23.274857 31171 data_layer.cpp:41] output data size: 100,6,128,128
I0801 16:13:23.375107 31171 net.cpp:141] Setting up data
I0801 16:13:23.375144 31171 net.cpp:148] Top shape: 100 6 128 128 (9830400)
I0801 16:13:23.375164 31171 net.cpp:148] Top shape: 100 (100)
I0801 16:13:23.375169 31171 net.cpp:156] Memory required for data: 39322000
I0801 16:13:23.375183 31171 layer_factory.hpp:77] Creating layer label_data_1_split
I0801 16:13:23.375205 31171 net.cpp:91] Creating Layer label_data_1_split
I0801 16:13:23.375214 31171 net.cpp:425] label_data_1_split <- label
I0801 16:13:23.375231 31171 net.cpp:399] label_data_1_split -> label_data_1_split_0
I0801 16:13:23.375249 31171 net.cpp:399] label_data_1_split -> label_data_1_split_1
I0801 16:13:23.375341 31171 net.cpp:141] Setting up label_data_1_split
I0801 16:13:23.375355 31171 net.cpp:148] Top shape: 100 (100)
I0801 16:13:23.375362 31171 net.cpp:148] Top shape: 100 (100)
I0801 16:13:23.375368 31171 net.cpp:156] Memory required for data: 39322800
I0801 16:13:23.375375 31171 layer_factory.hpp:77] Creating layer th
I0801 16:13:23.375391 31171 net.cpp:91] Creating Layer th
I0801 16:13:23.375396 31171 net.cpp:425] th <- label_data_1_split_0
I0801 16:13:23.375406 31171 net.cpp:399] th -> th
I0801 16:13:23.375509 31171 net.cpp:141] Setting up th
I0801 16:13:23.375519 31171 net.cpp:148] Top shape: 100 (100)
I0801 16:13:23.375525 31171 net.cpp:156] Memory required for data: 39323200
I0801 16:13:23.375531 31171 layer_factory.hpp:77] Creating layer th_th_0_split
I0801 16:13:23.375541 31171 net.cpp:91] Creating Layer th_th_0_split
I0801 16:13:23.375547 31171 net.cpp:425] th_th_0_split <- th
I0801 16:13:23.375556 31171 net.cpp:399] th_th_0_split -> th_th_0_split_0
I0801 16:13:23.375591 31171 net.cpp:399] th_th_0_split -> th_th_0_split_1
I0801 16:13:23.375635 31171 net.cpp:141] Setting up th_th_0_split
I0801 16:13:23.375643 31171 net.cpp:148] Top shape: 100 (100)
I0801 16:13:23.375650 31171 net.cpp:148] Top shape: 100 (100)
I0801 16:13:23.375655 31171 net.cpp:156] Memory required for data: 39324000
I0801 16:13:23.375661 31171 layer_factory.hpp:77] Creating layer i1
I0801 16:13:23.375677 31171 net.cpp:91] Creating Layer i1
I0801 16:13:23.375684 31171 net.cpp:425] i1 <- data
I0801 16:13:23.375692 31171 net.cpp:399] i1 -> i1
I0801 16:13:23.375705 31171 net.cpp:399] i1 -> i2
I0801 16:13:23.375748 31171 net.cpp:141] Setting up i1
I0801 16:13:23.375756 31171 net.cpp:148] Top shape: 100 3 128 128 (4915200)
I0801 16:13:23.375764 31171 net.cpp:148] Top shape: 100 3 128 128 (4915200)
I0801 16:13:23.375771 31171 net.cpp:156] Memory required for data: 78645600
I0801 16:13:23.375777 31171 layer_factory.hpp:77] Creating layer i1_i1_0_split
I0801 16:13:23.375783 31171 net.cpp:91] Creating Layer i1_i1_0_split
I0801 16:13:23.375789 31171 net.cpp:425] i1_i1_0_split <- i1
I0801 16:13:23.375797 31171 net.cpp:399] i1_i1_0_split -> i1_i1_0_split_0
I0801 16:13:23.375808 31171 net.cpp:399] i1_i1_0_split -> i1_i1_0_split_1
I0801 16:13:23.375847 31171 net.cpp:141] Setting up i1_i1_0_split
I0801 16:13:23.375855 31171 net.cpp:148] Top shape: 100 3 128 128 (4915200)
I0801 16:13:23.375862 31171 net.cpp:148] Top shape: 100 3 128 128 (4915200)
I0801 16:13:23.375869 31171 net.cpp:156] Memory required for data: 117967200
I0801 16:13:23.375874 31171 layer_factory.hpp:77] Creating layer i2_i1_1_split
I0801 16:13:23.375882 31171 net.cpp:91] Creating Layer i2_i1_1_split
I0801 16:13:23.375887 31171 net.cpp:425] i2_i1_1_split <- i2
I0801 16:13:23.375896 31171 net.cpp:399] i2_i1_1_split -> i2_i1_1_split_0
I0801 16:13:23.375906 31171 net.cpp:399] i2_i1_1_split -> i2_i1_1_split_1
I0801 16:13:23.375947 31171 net.cpp:141] Setting up i2_i1_1_split
I0801 16:13:23.375954 31171 net.cpp:148] Top shape: 100 3 128 128 (4915200)
I0801 16:13:23.375962 31171 net.cpp:148] Top shape: 100 3 128 128 (4915200)
I0801 16:13:23.375967 31171 net.cpp:156] Memory required for data: 157288800
I0801 16:13:23.375973 31171 layer_factory.hpp:77] Creating layer p1
I0801 16:13:23.375983 31171 net.cpp:91] Creating Layer p1
I0801 16:13:23.375989 31171 net.cpp:425] p1 <- i1_i1_0_split_0
I0801 16:13:23.375998 31171 net.cpp:399] p1 -> p1
I0801 16:13:23.376035 31171 net.cpp:141] Setting up p1
I0801 16:13:23.376044 31171 net.cpp:148] Top shape: 100 3 64 64 (1228800)
I0801 16:13:23.376049 31171 net.cpp:156] Memory required for data: 162204000
I0801 16:13:23.376055 31171 layer_factory.hpp:77] Creating layer p1_p1_0_split
I0801 16:13:23.376063 31171 net.cpp:91] Creating Layer p1_p1_0_split
I0801 16:13:23.376070 31171 net.cpp:425] p1_p1_0_split <- p1
I0801 16:13:23.376078 31171 net.cpp:399] p1_p1_0_split -> p1_p1_0_split_0
I0801 16:13:23.376088 31171 net.cpp:399] p1_p1_0_split -> p1_p1_0_split_1
I0801 16:13:23.376128 31171 net.cpp:141] Setting up p1_p1_0_split
I0801 16:13:23.376137 31171 net.cpp:148] Top shape: 100 3 64 64 (1228800)
I0801 16:13:23.376143 31171 net.cpp:148] Top shape: 100 3 64 64 (1228800)
I0801 16:13:23.376149 31171 net.cpp:156] Memory required for data: 172034400
I0801 16:13:23.376155 31171 layer_factory.hpp:77] Creating layer p2
I0801 16:13:23.376163 31171 net.cpp:91] Creating Layer p2
I0801 16:13:23.376169 31171 net.cpp:425] p2 <- i2_i1_1_split_0
I0801 16:13:23.376180 31171 net.cpp:399] p2 -> p2
I0801 16:13:23.376291 31171 net.cpp:141] Setting up p2
I0801 16:13:23.376307 31171 net.cpp:148] Top shape: 100 3 64 64 (1228800)
I0801 16:13:23.376314 31171 net.cpp:156] Memory required for data: 176949600
I0801 16:13:23.376323 31171 layer_factory.hpp:77] Creating layer p2_p2_0_split
I0801 16:13:23.376333 31171 net.cpp:91] Creating Layer p2_p2_0_split
I0801 16:13:23.376343 31171 net.cpp:425] p2_p2_0_split <- p2
I0801 16:13:23.376354 31171 net.cpp:399] p2_p2_0_split -> p2_p2_0_split_0
I0801 16:13:23.376368 31171 net.cpp:399] p2_p2_0_split -> p2_p2_0_split_1
I0801 16:13:23.382328 31171 net.cpp:141] Setting up p2_p2_0_split
I0801 16:13:23.382346 31171 net.cpp:148] Top shape: 100 3 64 64 (1228800)
I0801 16:13:23.382354 31171 net.cpp:148] Top shape: 100 3 64 64 (1228800)
I0801 16:13:23.382360 31171 net.cpp:156] Memory required for data: 186780000
I0801 16:13:23.382366 31171 layer_factory.hpp:77] Creating layer Input1
I0801 16:13:23.382380 31171 net.cpp:91] Creating Layer Input1
I0801 16:13:23.382388 31171 net.cpp:399] Input1 -> Input1
I0801 16:13:23.382422 31171 net.cpp:141] Setting up Input1
I0801 16:13:23.382432 31171 net.cpp:148] Top shape: 100 3 64 64 (1228800)
I0801 16:13:23.382438 31171 net.cpp:156] Memory required for data: 191695200
I0801 16:13:23.382444 31171 layer_factory.hpp:77] Creating layer c11
I0801 16:13:23.382460 31171 net.cpp:91] Creating Layer c11
I0801 16:13:23.382467 31171 net.cpp:425] c11 <- i1_i1_0_split_1
I0801 16:13:23.382474 31171 net.cpp:425] c11 <- Input1
I0801 16:13:23.382484 31171 net.cpp:399] c11 -> c11
I0801 16:13:23.382519 31171 net.cpp:141] Setting up c11
I0801 16:13:23.382529 31171 net.cpp:148] Top shape: 100 3 64 64 (1228800)
I0801 16:13:23.382535 31171 net.cpp:156] Memory required for data: 196610400
I0801 16:13:23.382540 31171 layer_factory.hpp:77] Creating layer Input2
I0801 16:13:23.382550 31171 net.cpp:91] Creating Layer Input2
I0801 16:13:23.382557 31171 net.cpp:399] Input2 -> Input2
I0801 16:13:23.382583 31171 net.cpp:141] Setting up Input2
I0801 16:13:23.382593 31171 net.cpp:148] Top shape: 100 3 64 64 (1228800)
I0801 16:13:23.382599 31171 net.cpp:156] Memory required for data: 201525600
I0801 16:13:23.382604 31171 layer_factory.hpp:77] Creating layer c21
I0801 16:13:23.382613 31171 net.cpp:91] Creating Layer c21
I0801 16:13:23.382619 31171 net.cpp:425] c21 <- i2_i1_1_split_1
I0801 16:13:23.382627 31171 net.cpp:425] c21 <- Input2
I0801 16:13:23.382635 31171 net.cpp:399] c21 -> c21
I0801 16:13:23.382663 31171 net.cpp:141] Setting up c21
I0801 16:13:23.382671 31171 net.cpp:148] Top shape: 100 3 64 64 (1228800)
I0801 16:13:23.382678 31171 net.cpp:156] Memory required for data: 206440800
I0801 16:13:23.382683 31171 layer_factory.hpp:77] Creating layer Convolution1
I0801 16:13:23.382700 31171 net.cpp:91] Creating Layer Convolution1
I0801 16:13:23.382707 31171 net.cpp:425] Convolution1 <- p1_p1_0_split_0
I0801 16:13:23.382717 31171 net.cpp:399] Convolution1 -> Convolution1
I0801 16:13:23.383682 31171 net.cpp:141] Setting up Convolution1
I0801 16:13:23.383698 31171 net.cpp:148] Top shape: 100 20 60 60 (7200000)
I0801 16:13:23.383704 31171 net.cpp:156] Memory required for data: 235240800
I0801 16:13:23.383720 31171 layer_factory.hpp:77] Creating layer Pooling1
I0801 16:13:23.383734 31171 net.cpp:91] Creating Layer Pooling1
I0801 16:13:23.383740 31171 net.cpp:425] Pooling1 <- Convolution1
I0801 16:13:23.383749 31171 net.cpp:399] Pooling1 -> Pooling1
I0801 16:13:23.383795 31171 net.cpp:141] Setting up Pooling1
I0801 16:13:23.383805 31171 net.cpp:148] Top shape: 100 20 30 30 (1800000)
I0801 16:13:23.383811 31171 net.cpp:156] Memory required for data: 242440800
I0801 16:13:23.383817 31171 layer_factory.hpp:77] Creating layer Convolution2
I0801 16:13:23.383829 31171 net.cpp:91] Creating Layer Convolution2
I0801 16:13:23.383836 31171 net.cpp:425] Convolution2 <- Pooling1
I0801 16:13:23.383846 31171 net.cpp:399] Convolution2 -> Convolution2
I0801 16:13:23.385512 31171 net.cpp:141] Setting up Convolution2
I0801 16:13:23.385530 31171 net.cpp:148] Top shape: 100 50 26 26 (3380000)
I0801 16:13:23.385537 31171 net.cpp:156] Memory required for data: 255960800
I0801 16:13:23.385553 31171 layer_factory.hpp:77] Creating layer Pooling2
I0801 16:13:23.385566 31171 net.cpp:91] Creating Layer Pooling2
I0801 16:13:23.385576 31171 net.cpp:425] Pooling2 <- Convolution2
I0801 16:13:23.385586 31171 net.cpp:399] Pooling2 -> Pooling2
I0801 16:13:23.385635 31171 net.cpp:141] Setting up Pooling2
I0801 16:13:23.385645 31171 net.cpp:148] Top shape: 100 50 13 13 (845000)
I0801 16:13:23.385651 31171 net.cpp:156] Memory required for data: 259340800
I0801 16:13:23.385658 31171 layer_factory.hpp:77] Creating layer InnerProduct1
I0801 16:13:23.385686 31171 net.cpp:91] Creating Layer InnerProduct1
I0801 16:13:23.385694 31171 net.cpp:425] InnerProduct1 <- Pooling2
I0801 16:13:23.385704 31171 net.cpp:399] InnerProduct1 -> InnerProduct1
I0801 16:13:23.394009 31171 net.cpp:141] Setting up InnerProduct1
I0801 16:13:23.394040 31171 net.cpp:148] Top shape: 100 100 (10000)
I0801 16:13:23.394047 31171 net.cpp:156] Memory required for data: 259380800
I0801 16:13:23.394068 31171 layer_factory.hpp:77] Creating layer ReLU1
I0801 16:13:23.394080 31171 net.cpp:91] Creating Layer ReLU1
I0801 16:13:23.394088 31171 net.cpp:425] ReLU1 <- InnerProduct1
I0801 16:13:23.394098 31171 net.cpp:386] ReLU1 -> InnerProduct1 (in-place)
I0801 16:13:23.394111 31171 net.cpp:141] Setting up ReLU1
I0801 16:13:23.394119 31171 net.cpp:148] Top shape: 100 100 (10000)
I0801 16:13:23.394124 31171 net.cpp:156] Memory required for data: 259420800
I0801 16:13:23.394130 31171 layer_factory.hpp:77] Creating layer InnerProduct2
I0801 16:13:23.394141 31171 net.cpp:91] Creating Layer InnerProduct2
I0801 16:13:23.394147 31171 net.cpp:425] InnerProduct2 <- InnerProduct1
I0801 16:13:23.394157 31171 net.cpp:399] InnerProduct2 -> InnerProduct2
I0801 16:13:23.395094 31171 net.cpp:141] Setting up InnerProduct2
I0801 16:13:23.395112 31171 net.cpp:148] Top shape: 100 50 (5000)
I0801 16:13:23.395119 31171 net.cpp:156] Memory required for data: 259440800
I0801 16:13:23.395131 31171 layer_factory.hpp:77] Creating layer Convolution3
I0801 16:13:23.395148 31171 net.cpp:91] Creating Layer Convolution3
I0801 16:13:23.395161 31171 net.cpp:425] Convolution3 <- p2_p2_0_split_0
I0801 16:13:23.395175 31171 net.cpp:399] Convolution3 -> Convolution3
I0801 16:13:23.395567 31171 net.cpp:141] Setting up Convolution3
I0801 16:13:23.395581 31171 net.cpp:148] Top shape: 100 20 60 60 (7200000)
I0801 16:13:23.395587 31171 net.cpp:156] Memory required for data: 288240800
I0801 16:13:23.395598 31171 net.cpp:484] Sharing parameters 'conv1_w' owned by layer 'Convolution1', param index 0
I0801 16:13:23.395609 31171 net.cpp:484] Sharing parameters 'conv1_b' owned by layer 'Convolution1', param index 1
I0801 16:13:23.395617 31171 layer_factory.hpp:77] Creating layer Pooling3
I0801 16:13:23.395630 31171 net.cpp:91] Creating Layer Pooling3
I0801 16:13:23.395639 31171 net.cpp:425] Pooling3 <- Convolution3
I0801 16:13:23.395651 31171 net.cpp:399] Pooling3 -> Pooling3
I0801 16:13:23.395715 31171 net.cpp:141] Setting up Pooling3
I0801 16:13:23.395730 31171 net.cpp:148] Top shape: 100 20 30 30 (1800000)
I0801 16:13:23.395736 31171 net.cpp:156] Memory required for data: 295440800
I0801 16:13:23.395745 31171 layer_factory.hpp:77] Creating layer Convolution4
I0801 16:13:23.395759 31171 net.cpp:91] Creating Layer Convolution4
I0801 16:13:23.395768 31171 net.cpp:425] Convolution4 <- Pooling3
I0801 16:13:23.395784 31171 net.cpp:399] Convolution4 -> Convolution4
I0801 16:13:23.396368 31171 net.cpp:141] Setting up Convolution4
I0801 16:13:23.396383 31171 net.cpp:148] Top shape: 100 50 26 26 (3380000)
I0801 16:13:23.396389 31171 net.cpp:156] Memory required for data: 308960800
I0801 16:13:23.396395 31171 net.cpp:484] Sharing parameters 'conv2_w' owned by layer 'Convolution2', param index 0
I0801 16:13:23.396404 31171 net.cpp:484] Sharing parameters 'conv2_b' owned by layer 'Convolution2', param index 1
I0801 16:13:23.396409 31171 layer_factory.hpp:77] Creating layer Pooling4
I0801 16:13:23.396420 31171 net.cpp:91] Creating Layer Pooling4
I0801 16:13:23.396425 31171 net.cpp:425] Pooling4 <- Convolution4
I0801 16:13:23.396435 31171 net.cpp:399] Pooling4 -> Pooling4
I0801 16:13:23.396499 31171 net.cpp:141] Setting up Pooling4
I0801 16:13:23.396512 31171 net.cpp:148] Top shape: 100 50 13 13 (845000)
I0801 16:13:23.396519 31171 net.cpp:156] Memory required for data: 312340800
I0801 16:13:23.396528 31171 layer_factory.hpp:77] Creating layer InnerProduct3
I0801 16:13:23.396540 31171 net.cpp:91] Creating Layer InnerProduct3
I0801 16:13:23.396548 31171 net.cpp:425] InnerProduct3 <- Pooling4
I0801 16:13:23.396584 31171 net.cpp:399] InnerProduct3 -> InnerProduct3
I0801 16:13:23.405419 31171 net.cpp:141] Setting up InnerProduct3
I0801 16:13:23.405454 31171 net.cpp:148] Top shape: 100 100 (10000)
I0801 16:13:23.405462 31171 net.cpp:156] Memory required for data: 312380800
I0801 16:13:23.405473 31171 net.cpp:484] Sharing parameters 'ip1_w' owned by layer 'InnerProduct1', param index 0
I0801 16:13:23.405483 31171 net.cpp:484] Sharing parameters 'ip1_b' owned by layer 'InnerProduct1', param index 1
I0801 16:13:23.405489 31171 layer_factory.hpp:77] Creating layer ReLU2
I0801 16:13:23.405503 31171 net.cpp:91] Creating Layer ReLU2
I0801 16:13:23.405510 31171 net.cpp:425] ReLU2 <- InnerProduct3
I0801 16:13:23.405521 31171 net.cpp:386] ReLU2 -> InnerProduct3 (in-place)
I0801 16:13:23.405534 31171 net.cpp:141] Setting up ReLU2
I0801 16:13:23.405542 31171 net.cpp:148] Top shape: 100 100 (10000)
I0801 16:13:23.405550 31171 net.cpp:156] Memory required for data: 312420800
I0801 16:13:23.405555 31171 layer_factory.hpp:77] Creating layer InnerProduct4
I0801 16:13:23.405566 31171 net.cpp:91] Creating Layer InnerProduct4
I0801 16:13:23.405572 31171 net.cpp:425] InnerProduct4 <- InnerProduct3
I0801 16:13:23.405583 31171 net.cpp:399] InnerProduct4 -> InnerProduct4
I0801 16:13:23.405784 31171 net.cpp:141] Setting up InnerProduct4
I0801 16:13:23.405796 31171 net.cpp:148] Top shape: 100 50 (5000)
I0801 16:13:23.405802 31171 net.cpp:156] Memory required for data: 312440800
I0801 16:13:23.405808 31171 net.cpp:484] Sharing parameters 'ip2_w' owned by layer 'InnerProduct2', param index 0
I0801 16:13:23.405818 31171 net.cpp:484] Sharing parameters 'ip2_b' owned by layer 'InnerProduct2', param index 1
I0801 16:13:23.405827 31171 layer_factory.hpp:77] Creating layer Concat1
I0801 16:13:23.405849 31171 net.cpp:91] Creating Layer Concat1
I0801 16:13:23.405864 31171 net.cpp:425] Concat1 <- InnerProduct2
I0801 16:13:23.405874 31171 net.cpp:425] Concat1 <- InnerProduct4
I0801 16:13:23.405885 31171 net.cpp:399] Concat1 -> Concat1
I0801 16:13:23.405920 31171 net.cpp:141] Setting up Concat1
I0801 16:13:23.405930 31171 net.cpp:148] Top shape: 100 100 (10000)
I0801 16:13:23.405936 31171 net.cpp:156] Memory required for data: 312480800
I0801 16:13:23.405942 31171 layer_factory.hpp:77] Creating layer InnerProduct5
I0801 16:13:23.405952 31171 net.cpp:91] Creating Layer InnerProduct5
I0801 16:13:23.405958 31171 net.cpp:425] InnerProduct5 <- Concat1
I0801 16:13:23.405968 31171 net.cpp:399] InnerProduct5 -> InnerProduct5
I0801 16:13:23.406147 31171 net.cpp:141] Setting up InnerProduct5
I0801 16:13:23.406160 31171 net.cpp:148] Top shape: 100 64 (6400)
I0801 16:13:23.406170 31171 net.cpp:156] Memory required for data: 312506400
I0801 16:13:23.406200 31171 layer_factory.hpp:77] Creating layer ReLU3
I0801 16:13:23.406214 31171 net.cpp:91] Creating Layer ReLU3
I0801 16:13:23.406220 31171 net.cpp:425] ReLU3 <- InnerProduct5
I0801 16:13:23.406229 31171 net.cpp:386] ReLU3 -> InnerProduct5 (in-place)
I0801 16:13:23.406239 31171 net.cpp:141] Setting up ReLU3
I0801 16:13:23.406246 31171 net.cpp:148] Top shape: 100 64 (6400)
I0801 16:13:23.406252 31171 net.cpp:156] Memory required for data: 312532000
I0801 16:13:23.406258 31171 layer_factory.hpp:77] Creating layer InnerProduct6
I0801 16:13:23.406276 31171 net.cpp:91] Creating Layer InnerProduct6
I0801 16:13:23.406285 31171 net.cpp:425] InnerProduct6 <- InnerProduct5
I0801 16:13:23.406294 31171 net.cpp:399] InnerProduct6 -> InnerProduct6
I0801 16:13:23.406447 31171 net.cpp:141] Setting up InnerProduct6
I0801 16:13:23.406457 31171 net.cpp:148] Top shape: 100 32 (3200)
I0801 16:13:23.406463 31171 net.cpp:156] Memory required for data: 312544800
I0801 16:13:23.406473 31171 layer_factory.hpp:77] Creating layer ReLU4
I0801 16:13:23.406482 31171 net.cpp:91] Creating Layer ReLU4
I0801 16:13:23.406488 31171 net.cpp:425] ReLU4 <- InnerProduct6
I0801 16:13:23.406497 31171 net.cpp:386] ReLU4 -> InnerProduct6 (in-place)
I0801 16:13:23.406507 31171 net.cpp:141] Setting up ReLU4
I0801 16:13:23.406513 31171 net.cpp:148] Top shape: 100 32 (3200)
I0801 16:13:23.406548 31171 net.cpp:156] Memory required for data: 312557600
I0801 16:13:23.406553 31171 layer_factory.hpp:77] Creating layer dt
I0801 16:13:23.406565 31171 net.cpp:91] Creating Layer dt
I0801 16:13:23.406571 31171 net.cpp:425] dt <- InnerProduct6
I0801 16:13:23.406581 31171 net.cpp:399] dt -> dt
I0801 16:13:23.406730 31171 net.cpp:141] Setting up dt
I0801 16:13:23.406741 31171 net.cpp:148] Top shape: 100 1 (100)
I0801 16:13:23.406746 31171 net.cpp:156] Memory required for data: 312558000
I0801 16:13:23.406755 31171 layer_factory.hpp:77] Creating layer Convolution5
I0801 16:13:23.406769 31171 net.cpp:91] Creating Layer Convolution5
I0801 16:13:23.406776 31171 net.cpp:425] Convolution5 <- p1_p1_0_split_1
I0801 16:13:23.406790 31171 net.cpp:399] Convolution5 -> Convolution5
I0801 16:13:23.407129 31171 net.cpp:141] Setting up Convolution5
I0801 16:13:23.407140 31171 net.cpp:148] Top shape: 100 20 60 60 (7200000)
I0801 16:13:23.407145 31171 net.cpp:156] Memory required for data: 341358000
I0801 16:13:23.407152 31171 net.cpp:484] Sharing parameters 'conv1_w' owned by layer 'Convolution1', param index 0
I0801 16:13:23.407160 31171 net.cpp:484] Sharing parameters 'conv1_b' owned by layer 'Convolution1', param index 1
I0801 16:13:23.407166 31171 layer_factory.hpp:77] Creating layer Pooling5
I0801 16:13:23.407176 31171 net.cpp:91] Creating Layer Pooling5
I0801 16:13:23.407182 31171 net.cpp:425] Pooling5 <- Convolution5
I0801 16:13:23.407193 31171 net.cpp:399] Pooling5 -> Pooling5
I0801 16:13:23.407241 31171 net.cpp:141] Setting up Pooling5
I0801 16:13:23.407251 31171 net.cpp:148] Top shape: 100 20 30 30 (1800000)
I0801 16:13:23.407256 31171 net.cpp:156] Memory required for data: 348558000
I0801 16:13:23.407264 31171 layer_factory.hpp:77] Creating layer Convolution6
I0801 16:13:23.407299 31171 net.cpp:91] Creating Layer Convolution6
I0801 16:13:23.407305 31171 net.cpp:425] Convolution6 <- Pooling5
I0801 16:13:23.407315 31171 net.cpp:399] Convolution6 -> Convolution6
I0801 16:13:23.407820 31171 net.cpp:141] Setting up Convolution6
I0801 16:13:23.407835 31171 net.cpp:148] Top shape: 100 50 26 26 (3380000)
I0801 16:13:23.407840 31171 net.cpp:156] Memory required for data: 362078000
I0801 16:13:23.407846 31171 net.cpp:484] Sharing parameters 'conv2_w' owned by layer 'Convolution2', param index 0
I0801 16:13:23.407853 31171 net.cpp:484] Sharing parameters 'conv2_b' owned by layer 'Convolution2', param index 1
I0801 16:13:23.407860 31171 layer_factory.hpp:77] Creating layer Pooling6
I0801 16:13:23.407868 31171 net.cpp:91] Creating Layer Pooling6
I0801 16:13:23.407874 31171 net.cpp:425] Pooling6 <- Convolution6
I0801 16:13:23.407883 31171 net.cpp:399] Pooling6 -> Pooling6
I0801 16:13:23.407930 31171 net.cpp:141] Setting up Pooling6
I0801 16:13:23.407943 31171 net.cpp:148] Top shape: 100 50 13 13 (845000)
I0801 16:13:23.407950 31171 net.cpp:156] Memory required for data: 365458000
I0801 16:13:23.407958 31171 layer_factory.hpp:77] Creating layer InnerProduct7
I0801 16:13:23.407976 31171 net.cpp:91] Creating Layer InnerProduct7
I0801 16:13:23.407989 31171 net.cpp:425] InnerProduct7 <- Pooling6
I0801 16:13:23.408010 31171 net.cpp:399] InnerProduct7 -> InnerProduct7
I0801 16:13:23.416677 31171 net.cpp:141] Setting up InnerProduct7
I0801 16:13:23.416707 31171 net.cpp:148] Top shape: 100 100 (10000)
I0801 16:13:23.416713 31171 net.cpp:156] Memory required for data: 365498000
I0801 16:13:23.416724 31171 net.cpp:484] Sharing parameters 'ip1_w' owned by layer 'InnerProduct1', param index 0
I0801 16:13:23.416733 31171 net.cpp:484] Sharing parameters 'ip1_b' owned by layer 'InnerProduct1', param index 1
I0801 16:13:23.416743 31171 layer_factory.hpp:77] Creating layer ReLU5
I0801 16:13:23.416757 31171 net.cpp:91] Creating Layer ReLU5
I0801 16:13:23.416769 31171 net.cpp:425] ReLU5 <- InnerProduct7
I0801 16:13:23.416786 31171 net.cpp:386] ReLU5 -> InnerProduct7 (in-place)
I0801 16:13:23.416811 31171 net.cpp:141] Setting up ReLU5
I0801 16:13:23.416827 31171 net.cpp:148] Top shape: 100 100 (10000)
I0801 16:13:23.416834 31171 net.cpp:156] Memory required for data: 365538000
I0801 16:13:23.416865 31171 layer_factory.hpp:77] Creating layer InnerProduct8
I0801 16:13:23.416880 31171 net.cpp:91] Creating Layer InnerProduct8
I0801 16:13:23.416887 31171 net.cpp:425] InnerProduct8 <- InnerProduct7
I0801 16:13:23.416896 31171 net.cpp:399] InnerProduct8 -> InnerProduct8
I0801 16:13:23.417070 31171 net.cpp:141] Setting up InnerProduct8
I0801 16:13:23.417080 31171 net.cpp:148] Top shape: 100 50 (5000)
I0801 16:13:23.417085 31171 net.cpp:156] Memory required for data: 365558000
I0801 16:13:23.417093 31171 net.cpp:484] Sharing parameters 'ip2_w' owned by layer 'InnerProduct2', param index 0
I0801 16:13:23.417100 31171 net.cpp:484] Sharing parameters 'ip2_b' owned by layer 'InnerProduct2', param index 1
I0801 16:13:23.417106 31171 layer_factory.hpp:77] Creating layer Convolution7
I0801 16:13:23.417130 31171 net.cpp:91] Creating Layer Convolution7
I0801 16:13:23.417140 31171 net.cpp:425] Convolution7 <- c21
I0801 16:13:23.417150 31171 net.cpp:399] Convolution7 -> Convolution7
I0801 16:13:23.417510 31171 net.cpp:141] Setting up Convolution7
I0801 16:13:23.417520 31171 net.cpp:148] Top shape: 100 20 60 60 (7200000)
I0801 16:13:23.417526 31171 net.cpp:156] Memory required for data: 394358000
I0801 16:13:23.417532 31171 net.cpp:484] Sharing parameters 'conv1_w' owned by layer 'Convolution1', param index 0
I0801 16:13:23.417539 31171 net.cpp:484] Sharing parameters 'conv1_b' owned by layer 'Convolution1', param index 1
I0801 16:13:23.417546 31171 layer_factory.hpp:77] Creating layer Pooling7
I0801 16:13:23.417554 31171 net.cpp:91] Creating Layer Pooling7
I0801 16:13:23.417560 31171 net.cpp:425] Pooling7 <- Convolution7
I0801 16:13:23.417569 31171 net.cpp:399] Pooling7 -> Pooling7
I0801 16:13:23.417619 31171 net.cpp:141] Setting up Pooling7
I0801 16:13:23.417629 31171 net.cpp:148] Top shape: 100 20 30 30 (1800000)
I0801 16:13:23.417634 31171 net.cpp:156] Memory required for data: 401558000
I0801 16:13:23.417640 31171 layer_factory.hpp:77] Creating layer Convolution8
I0801 16:13:23.417661 31171 net.cpp:91] Creating Layer Convolution8
I0801 16:13:23.417675 31171 net.cpp:425] Convolution8 <- Pooling7
I0801 16:13:23.417701 31171 net.cpp:399] Convolution8 -> Convolution8
I0801 16:13:23.418246 31171 net.cpp:141] Setting up Convolution8
I0801 16:13:23.418256 31171 net.cpp:148] Top shape: 100 50 26 26 (3380000)
I0801 16:13:23.418262 31171 net.cpp:156] Memory required for data: 415078000
I0801 16:13:23.418282 31171 net.cpp:484] Sharing parameters 'conv2_w' owned by layer 'Convolution2', param index 0
I0801 16:13:23.418290 31171 net.cpp:484] Sharing parameters 'conv2_b' owned by layer 'Convolution2', param index 1
I0801 16:13:23.418297 31171 layer_factory.hpp:77] Creating layer Pooling8
I0801 16:13:23.418305 31171 net.cpp:91] Creating Layer Pooling8
I0801 16:13:23.418311 31171 net.cpp:425] Pooling8 <- Convolution8
I0801 16:13:23.418320 31171 net.cpp:399] Pooling8 -> Pooling8
I0801 16:13:23.418368 31171 net.cpp:141] Setting up Pooling8
I0801 16:13:23.418378 31171 net.cpp:148] Top shape: 100 50 13 13 (845000)
I0801 16:13:23.418383 31171 net.cpp:156] Memory required for data: 418458000
I0801 16:13:23.418390 31171 layer_factory.hpp:77] Creating layer InnerProduct9
I0801 16:13:23.418401 31171 net.cpp:91] Creating Layer InnerProduct9
I0801 16:13:23.418406 31171 net.cpp:425] InnerProduct9 <- Pooling8
I0801 16:13:23.418417 31171 net.cpp:399] InnerProduct9 -> InnerProduct9
I0801 16:13:23.427057 31171 net.cpp:141] Setting up InnerProduct9
I0801 16:13:23.427084 31171 net.cpp:148] Top shape: 100 100 (10000)
I0801 16:13:23.427091 31171 net.cpp:156] Memory required for data: 418498000
I0801 16:13:23.427103 31171 net.cpp:484] Sharing parameters 'ip1_w' owned by layer 'InnerProduct1', param index 0
I0801 16:13:23.427111 31171 net.cpp:484] Sharing parameters 'ip1_b' owned by layer 'InnerProduct1', param index 1
I0801 16:13:23.427119 31171 layer_factory.hpp:77] Creating layer ReLU6
I0801 16:13:23.427132 31171 net.cpp:91] Creating Layer ReLU6
I0801 16:13:23.427142 31171 net.cpp:425] ReLU6 <- InnerProduct9
I0801 16:13:23.427183 31171 net.cpp:386] ReLU6 -> InnerProduct9 (in-place)
I0801 16:13:23.427196 31171 net.cpp:141] Setting up ReLU6
I0801 16:13:23.427204 31171 net.cpp:148] Top shape: 100 100 (10000)
I0801 16:13:23.427211 31171 net.cpp:156] Memory required for data: 418538000
I0801 16:13:23.427217 31171 layer_factory.hpp:77] Creating layer InnerProduct10
I0801 16:13:23.427227 31171 net.cpp:91] Creating Layer InnerProduct10
I0801 16:13:23.427233 31171 net.cpp:425] InnerProduct10 <- InnerProduct9
I0801 16:13:23.427245 31171 net.cpp:399] InnerProduct10 -> InnerProduct10
I0801 16:13:23.427436 31171 net.cpp:141] Setting up InnerProduct10
I0801 16:13:23.427446 31171 net.cpp:148] Top shape: 100 50 (5000)
I0801 16:13:23.427453 31171 net.cpp:156] Memory required for data: 418558000
I0801 16:13:23.427459 31171 net.cpp:484] Sharing parameters 'ip2_w' owned by layer 'InnerProduct2', param index 0
I0801 16:13:23.427466 31171 net.cpp:484] Sharing parameters 'ip2_b' owned by layer 'InnerProduct2', param index 1
I0801 16:13:23.427471 31171 layer_factory.hpp:77] Creating layer Concat2
I0801 16:13:23.427481 31171 net.cpp:91] Creating Layer Concat2
I0801 16:13:23.427487 31171 net.cpp:425] Concat2 <- InnerProduct8
I0801 16:13:23.427495 31171 net.cpp:425] Concat2 <- InnerProduct10
I0801 16:13:23.427507 31171 net.cpp:399] Concat2 -> Concat2
I0801 16:13:23.427536 31171 net.cpp:141] Setting up Concat2
I0801 16:13:23.427548 31171 net.cpp:148] Top shape: 100 100 (10000)
I0801 16:13:23.427553 31171 net.cpp:156] Memory required for data: 418598000
I0801 16:13:23.427559 31171 layer_factory.hpp:77] Creating layer InnerProduct11
I0801 16:13:23.427568 31171 net.cpp:91] Creating Layer InnerProduct11
I0801 16:13:23.427574 31171 net.cpp:425] InnerProduct11 <- Concat2
I0801 16:13:23.427587 31171 net.cpp:399] InnerProduct11 -> InnerProduct11
I0801 16:13:23.427767 31171 net.cpp:141] Setting up InnerProduct11
I0801 16:13:23.427778 31171 net.cpp:148] Top shape: 100 64 (6400)
I0801 16:13:23.427783 31171 net.cpp:156] Memory required for data: 418623600
I0801 16:13:23.427789 31171 net.cpp:484] Sharing parameters 'fc1_w' owned by layer 'InnerProduct5', param index 0
I0801 16:13:23.427798 31171 net.cpp:484] Sharing parameters 'fc1_b' owned by layer 'InnerProduct5', param index 1
I0801 16:13:23.427803 31171 layer_factory.hpp:77] Creating layer ReLU7
I0801 16:13:23.427814 31171 net.cpp:91] Creating Layer ReLU7
I0801 16:13:23.427819 31171 net.cpp:425] ReLU7 <- InnerProduct11
I0801 16:13:23.427827 31171 net.cpp:386] ReLU7 -> InnerProduct11 (in-place)
I0801 16:13:23.427836 31171 net.cpp:141] Setting up ReLU7
I0801 16:13:23.427845 31171 net.cpp:148] Top shape: 100 64 (6400)
I0801 16:13:23.427851 31171 net.cpp:156] Memory required for data: 418649200
I0801 16:13:23.427857 31171 layer_factory.hpp:77] Creating layer InnerProduct12
I0801 16:13:23.427870 31171 net.cpp:91] Creating Layer InnerProduct12
I0801 16:13:23.427876 31171 net.cpp:425] InnerProduct12 <- InnerProduct11
I0801 16:13:23.427886 31171 net.cpp:399] InnerProduct12 -> InnerProduct12
I0801 16:13:23.428037 31171 net.cpp:141] Setting up InnerProduct12
I0801 16:13:23.428047 31171 net.cpp:148] Top shape: 100 32 (3200)
I0801 16:13:23.428053 31171 net.cpp:156] Memory required for data: 418662000
I0801 16:13:23.428059 31171 net.cpp:484] Sharing parameters 'fc2_w' owned by layer 'InnerProduct6', param index 0
I0801 16:13:23.428066 31171 net.cpp:484] Sharing parameters 'fc2_b' owned by layer 'InnerProduct6', param index 1
I0801 16:13:23.428072 31171 layer_factory.hpp:77] Creating layer ReLU8
I0801 16:13:23.428082 31171 net.cpp:91] Creating Layer ReLU8
I0801 16:13:23.428089 31171 net.cpp:425] ReLU8 <- InnerProduct12
I0801 16:13:23.428097 31171 net.cpp:386] ReLU8 -> InnerProduct12 (in-place)
I0801 16:13:23.428107 31171 net.cpp:141] Setting up ReLU8
I0801 16:13:23.428113 31171 net.cpp:148] Top shape: 100 32 (3200)
I0801 16:13:23.428118 31171 net.cpp:156] Memory required for data: 418674800
I0801 16:13:23.428124 31171 layer_factory.hpp:77] Creating layer dt1
I0801 16:13:23.428134 31171 net.cpp:91] Creating Layer dt1
I0801 16:13:23.428150 31171 net.cpp:425] dt1 <- InnerProduct12
I0801 16:13:23.428160 31171 net.cpp:399] dt1 -> dt1
I0801 16:13:23.428290 31171 net.cpp:141] Setting up dt1
I0801 16:13:23.428299 31171 net.cpp:148] Top shape: 100 1 (100)
I0801 16:13:23.428305 31171 net.cpp:156] Memory required for data: 418675200
I0801 16:13:23.428311 31171 net.cpp:484] Sharing parameters 'fc3_w' owned by layer 'dt', param index 0
I0801 16:13:23.428318 31171 net.cpp:484] Sharing parameters 'fc3_b' owned by layer 'dt', param index 1
I0801 16:13:23.428325 31171 layer_factory.hpp:77] Creating layer Convolution9
I0801 16:13:23.428346 31171 net.cpp:91] Creating Layer Convolution9
I0801 16:13:23.428357 31171 net.cpp:425] Convolution9 <- p2_p2_0_split_1
I0801 16:13:23.428370 31171 net.cpp:399] Convolution9 -> Convolution9
I0801 16:13:23.428694 31171 net.cpp:141] Setting up Convolution9
I0801 16:13:23.428704 31171 net.cpp:148] Top shape: 100 20 60 60 (7200000)
I0801 16:13:23.428710 31171 net.cpp:156] Memory required for data: 447475200
I0801 16:13:23.428717 31171 net.cpp:484] Sharing parameters 'conv1_w' owned by layer 'Convolution1', param index 0
I0801 16:13:23.428725 31171 net.cpp:484] Sharing parameters 'conv1_b' owned by layer 'Convolution1', param index 1
I0801 16:13:23.428730 31171 layer_factory.hpp:77] Creating layer Pooling9
I0801 16:13:23.428740 31171 net.cpp:91] Creating Layer Pooling9
I0801 16:13:23.428746 31171 net.cpp:425] Pooling9 <- Convolution9
I0801 16:13:23.428758 31171 net.cpp:399] Pooling9 -> Pooling9
I0801 16:13:23.428805 31171 net.cpp:141] Setting up Pooling9
I0801 16:13:23.428815 31171 net.cpp:148] Top shape: 100 20 30 30 (1800000)
I0801 16:13:23.428822 31171 net.cpp:156] Memory required for data: 454675200
I0801 16:13:23.428828 31171 layer_factory.hpp:77] Creating layer Convolution10
I0801 16:13:23.428845 31171 net.cpp:91] Creating Layer Convolution10
I0801 16:13:23.428851 31171 net.cpp:425] Convolution10 <- Pooling9
I0801 16:13:23.428864 31171 net.cpp:399] Convolution10 -> Convolution10
I0801 16:13:23.429456 31171 net.cpp:141] Setting up Convolution10
I0801 16:13:23.429471 31171 net.cpp:148] Top shape: 100 50 26 26 (3380000)
I0801 16:13:23.429477 31171 net.cpp:156] Memory required for data: 468195200
I0801 16:13:23.429484 31171 net.cpp:484] Sharing parameters 'conv2_w' owned by layer 'Convolution2', param index 0
I0801 16:13:23.429494 31171 net.cpp:484] Sharing parameters 'conv2_b' owned by layer 'Convolution2', param index 1
I0801 16:13:23.429502 31171 layer_factory.hpp:77] Creating layer Pooling10
I0801 16:13:23.429513 31171 net.cpp:91] Creating Layer Pooling10
I0801 16:13:23.429520 31171 net.cpp:425] Pooling10 <- Convolution10
I0801 16:13:23.429534 31171 net.cpp:399] Pooling10 -> Pooling10
I0801 16:13:23.429589 31171 net.cpp:141] Setting up Pooling10
I0801 16:13:23.429600 31171 net.cpp:148] Top shape: 100 50 13 13 (845000)
I0801 16:13:23.429606 31171 net.cpp:156] Memory required for data: 471575200
I0801 16:13:23.429612 31171 layer_factory.hpp:77] Creating layer InnerProduct13
I0801 16:13:23.429626 31171 net.cpp:91] Creating Layer InnerProduct13
I0801 16:13:23.429633 31171 net.cpp:425] InnerProduct13 <- Pooling10
I0801 16:13:23.429647 31171 net.cpp:399] InnerProduct13 -> InnerProduct13
I0801 16:13:23.441545 31171 net.cpp:141] Setting up InnerProduct13
I0801 16:13:23.441572 31171 net.cpp:148] Top shape: 100 100 (10000)
I0801 16:13:23.441578 31171 net.cpp:156] Memory required for data: 471615200
I0801 16:13:23.441588 31171 net.cpp:484] Sharing parameters 'ip1_w' owned by layer 'InnerProduct1', param index 0
I0801 16:13:23.441597 31171 net.cpp:484] Sharing parameters 'ip1_b' owned by layer 'InnerProduct1', param index 1
I0801 16:13:23.441606 31171 layer_factory.hpp:77] Creating layer ReLU9
I0801 16:13:23.441623 31171 net.cpp:91] Creating Layer ReLU9
I0801 16:13:23.441633 31171 net.cpp:425] ReLU9 <- InnerProduct13
I0801 16:13:23.441645 31171 net.cpp:386] ReLU9 -> InnerProduct13 (in-place)
I0801 16:13:23.441658 31171 net.cpp:141] Setting up ReLU9
I0801 16:13:23.441665 31171 net.cpp:148] Top shape: 100 100 (10000)
I0801 16:13:23.441692 31171 net.cpp:156] Memory required for data: 471655200
I0801 16:13:23.441699 31171 layer_factory.hpp:77] Creating layer InnerProduct14
I0801 16:13:23.441712 31171 net.cpp:91] Creating Layer InnerProduct14
I0801 16:13:23.441718 31171 net.cpp:425] InnerProduct14 <- InnerProduct13
I0801 16:13:23.441728 31171 net.cpp:399] InnerProduct14 -> InnerProduct14
I0801 16:13:23.441925 31171 net.cpp:141] Setting up InnerProduct14
I0801 16:13:23.441936 31171 net.cpp:148] Top shape: 100 50 (5000)
I0801 16:13:23.441941 31171 net.cpp:156] Memory required for data: 471675200
I0801 16:13:23.441947 31171 net.cpp:484] Sharing parameters 'ip2_w' owned by layer 'InnerProduct2', param index 0
I0801 16:13:23.441954 31171 net.cpp:484] Sharing parameters 'ip2_b' owned by layer 'InnerProduct2', param index 1
I0801 16:13:23.441961 31171 layer_factory.hpp:77] Creating layer Convolution11
I0801 16:13:23.441975 31171 net.cpp:91] Creating Layer Convolution11
I0801 16:13:23.441982 31171 net.cpp:425] Convolution11 <- c11
I0801 16:13:23.441995 31171 net.cpp:399] Convolution11 -> Convolution11
I0801 16:13:23.442348 31171 net.cpp:141] Setting up Convolution11
I0801 16:13:23.442360 31171 net.cpp:148] Top shape: 100 20 60 60 (7200000)
I0801 16:13:23.442366 31171 net.cpp:156] Memory required for data: 500475200
I0801 16:13:23.442373 31171 net.cpp:484] Sharing parameters 'conv1_w' owned by layer 'Convolution1', param index 0
I0801 16:13:23.442379 31171 net.cpp:484] Sharing parameters 'conv1_b' owned by layer 'Convolution1', param index 1
I0801 16:13:23.442385 31171 layer_factory.hpp:77] Creating layer Pooling11
I0801 16:13:23.442395 31171 net.cpp:91] Creating Layer Pooling11
I0801 16:13:23.442401 31171 net.cpp:425] Pooling11 <- Convolution11
I0801 16:13:23.442414 31171 net.cpp:399] Pooling11 -> Pooling11
I0801 16:13:23.442464 31171 net.cpp:141] Setting up Pooling11
I0801 16:13:23.442476 31171 net.cpp:148] Top shape: 100 20 30 30 (1800000)
I0801 16:13:23.442481 31171 net.cpp:156] Memory required for data: 507675200
I0801 16:13:23.442487 31171 layer_factory.hpp:77] Creating layer Convolution12
I0801 16:13:23.442518 31171 net.cpp:91] Creating Layer Convolution12
I0801 16:13:23.442526 31171 net.cpp:425] Convolution12 <- Pooling11
I0801 16:13:23.442536 31171 net.cpp:399] Convolution12 -> Convolution12
I0801 16:13:23.443040 31171 net.cpp:141] Setting up Convolution12
I0801 16:13:23.443051 31171 net.cpp:148] Top shape: 100 50 26 26 (3380000)
I0801 16:13:23.443058 31171 net.cpp:156] Memory required for data: 521195200
I0801 16:13:23.443063 31171 net.cpp:484] Sharing parameters 'conv2_w' owned by layer 'Convolution2', param index 0
I0801 16:13:23.443071 31171 net.cpp:484] Sharing parameters 'conv2_b' owned by layer 'Convolution2', param index 1
I0801 16:13:23.443078 31171 layer_factory.hpp:77] Creating layer Pooling12
I0801 16:13:23.443089 31171 net.cpp:91] Creating Layer Pooling12
I0801 16:13:23.443094 31171 net.cpp:425] Pooling12 <- Convolution12
I0801 16:13:23.443104 31171 net.cpp:399] Pooling12 -> Pooling12
I0801 16:13:23.443166 31171 net.cpp:141] Setting up Pooling12
I0801 16:13:23.443181 31171 net.cpp:148] Top shape: 100 50 13 13 (845000)
I0801 16:13:23.443192 31171 net.cpp:156] Memory required for data: 524575200
I0801 16:13:23.443203 31171 layer_factory.hpp:77] Creating layer InnerProduct15
I0801 16:13:23.443222 31171 net.cpp:91] Creating Layer InnerProduct15
I0801 16:13:23.443230 31171 net.cpp:425] InnerProduct15 <- Pooling12
I0801 16:13:23.443243 31171 net.cpp:399] InnerProduct15 -> InnerProduct15
I0801 16:13:23.451794 31171 net.cpp:141] Setting up InnerProduct15
I0801 16:13:23.451823 31171 net.cpp:148] Top shape: 100 100 (10000)
I0801 16:13:23.451829 31171 net.cpp:156] Memory required for data: 524615200
I0801 16:13:23.451840 31171 net.cpp:484] Sharing parameters 'ip1_w' owned by layer 'InnerProduct1', param index 0
I0801 16:13:23.451849 31171 net.cpp:484] Sharing parameters 'ip1_b' owned by layer 'InnerProduct1', param index 1
I0801 16:13:23.451858 31171 layer_factory.hpp:77] Creating layer ReLU10
I0801 16:13:23.451876 31171 net.cpp:91] Creating Layer ReLU10
I0801 16:13:23.451907 31171 net.cpp:425] ReLU10 <- InnerProduct15
I0801 16:13:23.451918 31171 net.cpp:386] ReLU10 -> InnerProduct15 (in-place)
I0801 16:13:23.451931 31171 net.cpp:141] Setting up ReLU10
I0801 16:13:23.451946 31171 net.cpp:148] Top shape: 100 100 (10000)
I0801 16:13:23.451951 31171 net.cpp:156] Memory required for data: 524655200
I0801 16:13:23.451956 31171 layer_factory.hpp:77] Creating layer InnerProduct16
I0801 16:13:23.451970 31171 net.cpp:91] Creating Layer InnerProduct16
I0801 16:13:23.451979 31171 net.cpp:425] InnerProduct16 <- InnerProduct15
I0801 16:13:23.451992 31171 net.cpp:399] InnerProduct16 -> InnerProduct16
I0801 16:13:23.452195 31171 net.cpp:141] Setting up InnerProduct16
I0801 16:13:23.452206 31171 net.cpp:148] Top shape: 100 50 (5000)
I0801 16:13:23.452211 31171 net.cpp:156] Memory required for data: 524675200
I0801 16:13:23.452219 31171 net.cpp:484] Sharing parameters 'ip2_w' owned by layer 'InnerProduct2', param index 0
I0801 16:13:23.452225 31171 net.cpp:484] Sharing parameters 'ip2_b' owned by layer 'InnerProduct2', param index 1
I0801 16:13:23.452231 31171 layer_factory.hpp:77] Creating layer Concat3
I0801 16:13:23.452241 31171 net.cpp:91] Creating Layer Concat3
I0801 16:13:23.452247 31171 net.cpp:425] Concat3 <- InnerProduct14
I0801 16:13:23.452255 31171 net.cpp:425] Concat3 <- InnerProduct16
I0801 16:13:23.452266 31171 net.cpp:399] Concat3 -> Concat3
I0801 16:13:23.452296 31171 net.cpp:141] Setting up Concat3
I0801 16:13:23.452306 31171 net.cpp:148] Top shape: 100 100 (10000)
I0801 16:13:23.452312 31171 net.cpp:156] Memory required for data: 524715200
I0801 16:13:23.452317 31171 layer_factory.hpp:77] Creating layer InnerProduct17
I0801 16:13:23.452327 31171 net.cpp:91] Creating Layer InnerProduct17
I0801 16:13:23.452332 31171 net.cpp:425] InnerProduct17 <- Concat3
I0801 16:13:23.452344 31171 net.cpp:399] InnerProduct17 -> InnerProduct17
I0801 16:13:23.452546 31171 net.cpp:141] Setting up InnerProduct17
I0801 16:13:23.452558 31171 net.cpp:148] Top shape: 100 64 (6400)
I0801 16:13:23.452563 31171 net.cpp:156] Memory required for data: 524740800
I0801 16:13:23.452569 31171 net.cpp:484] Sharing parameters 'fc1_w' owned by layer 'InnerProduct5', param index 0
I0801 16:13:23.452576 31171 net.cpp:484] Sharing parameters 'fc1_b' owned by layer 'InnerProduct5', param index 1
I0801 16:13:23.452582 31171 layer_factory.hpp:77] Creating layer ReLU11
I0801 16:13:23.452590 31171 net.cpp:91] Creating Layer ReLU11
I0801 16:13:23.452596 31171 net.cpp:425] ReLU11 <- InnerProduct17
I0801 16:13:23.452606 31171 net.cpp:386] ReLU11 -> InnerProduct17 (in-place)
I0801 16:13:23.452616 31171 net.cpp:141] Setting up ReLU11
I0801 16:13:23.452625 31171 net.cpp:148] Top shape: 100 64 (6400)
I0801 16:13:23.452630 31171 net.cpp:156] Memory required for data: 524766400
I0801 16:13:23.452636 31171 layer_factory.hpp:77] Creating layer InnerProduct18
I0801 16:13:23.452646 31171 net.cpp:91] Creating Layer InnerProduct18
I0801 16:13:23.452651 31171 net.cpp:425] InnerProduct18 <- InnerProduct17
I0801 16:13:23.452666 31171 net.cpp:399] InnerProduct18 -> InnerProduct18
I0801 16:13:23.452817 31171 net.cpp:141] Setting up InnerProduct18
I0801 16:13:23.452827 31171 net.cpp:148] Top shape: 100 32 (3200)
I0801 16:13:23.452832 31171 net.cpp:156] Memory required for data: 524779200
I0801 16:13:23.452839 31171 net.cpp:484] Sharing parameters 'fc2_w' owned by layer 'InnerProduct6', param index 0
I0801 16:13:23.452847 31171 net.cpp:484] Sharing parameters 'fc2_b' owned by layer 'InnerProduct6', param index 1
I0801 16:13:23.452852 31171 layer_factory.hpp:77] Creating layer ReLU12
I0801 16:13:23.452864 31171 net.cpp:91] Creating Layer ReLU12
I0801 16:13:23.452872 31171 net.cpp:425] ReLU12 <- InnerProduct18
I0801 16:13:23.452884 31171 net.cpp:386] ReLU12 -> InnerProduct18 (in-place)
I0801 16:13:23.452898 31171 net.cpp:141] Setting up ReLU12
I0801 16:13:23.452915 31171 net.cpp:148] Top shape: 100 32 (3200)
I0801 16:13:23.452924 31171 net.cpp:156] Memory required for data: 524792000
I0801 16:13:23.452931 31171 layer_factory.hpp:77] Creating layer dt2
I0801 16:13:23.452952 31171 net.cpp:91] Creating Layer dt2
I0801 16:13:23.452960 31171 net.cpp:425] dt2 <- InnerProduct18
I0801 16:13:23.452968 31171 net.cpp:399] dt2 -> dt2
I0801 16:13:23.453101 31171 net.cpp:141] Setting up dt2
I0801 16:13:23.453109 31171 net.cpp:148] Top shape: 100 1 (100)
I0801 16:13:23.453114 31171 net.cpp:156] Memory required for data: 524792400
I0801 16:13:23.453140 31171 net.cpp:484] Sharing parameters 'fc3_w' owned by layer 'dt', param index 0
I0801 16:13:23.453148 31171 net.cpp:484] Sharing parameters 'fc3_b' owned by layer 'dt', param index 1
I0801 16:13:23.453155 31171 layer_factory.hpp:77] Creating layer con
I0801 16:13:23.453163 31171 net.cpp:91] Creating Layer con
I0801 16:13:23.453169 31171 net.cpp:425] con <- dt
I0801 16:13:23.453176 31171 net.cpp:425] con <- dt1
I0801 16:13:23.453183 31171 net.cpp:425] con <- dt2
I0801 16:13:23.453192 31171 net.cpp:399] con -> con
I0801 16:13:23.453228 31171 net.cpp:141] Setting up con
I0801 16:13:23.453236 31171 net.cpp:148] Top shape: 100 3 (300)
I0801 16:13:23.453241 31171 net.cpp:156] Memory required for data: 524793600
I0801 16:13:23.453248 31171 layer_factory.hpp:77] Creating layer r1
I0801 16:13:23.453260 31171 net.cpp:91] Creating Layer r1
I0801 16:13:23.453266 31171 net.cpp:425] r1 <- con
I0801 16:13:23.453274 31171 net.cpp:399] r1 -> r1
I0801 16:13:23.453315 31171 net.cpp:141] Setting up r1
I0801 16:13:23.453327 31171 net.cpp:148] Top shape: 100 1 1 3 (300)
I0801 16:13:23.453336 31171 net.cpp:156] Memory required for data: 524794800
I0801 16:13:23.453344 31171 layer_factory.hpp:77] Creating layer p
I0801 16:13:23.453364 31171 net.cpp:91] Creating Layer p
I0801 16:13:23.453372 31171 net.cpp:425] p <- r1
I0801 16:13:23.453382 31171 net.cpp:399] p -> p
I0801 16:13:23.453433 31171 net.cpp:141] Setting up p
I0801 16:13:23.453441 31171 net.cpp:148] Top shape: 100 1 1 1 (100)
I0801 16:13:23.453447 31171 net.cpp:156] Memory required for data: 524795200
I0801 16:13:23.453452 31171 layer_factory.hpp:77] Creating layer r2
I0801 16:13:23.453460 31171 net.cpp:91] Creating Layer r2
I0801 16:13:23.453466 31171 net.cpp:425] r2 <- p
I0801 16:13:23.453474 31171 net.cpp:399] r2 -> r2
I0801 16:13:23.453505 31171 net.cpp:141] Setting up r2
I0801 16:13:23.453512 31171 net.cpp:148] Top shape: 100 1 1 1 (100)
I0801 16:13:23.453517 31171 net.cpp:156] Memory required for data: 524795600
I0801 16:13:23.453522 31171 layer_factory.hpp:77] Creating layer padL
I0801 16:13:23.453531 31171 net.cpp:91] Creating Layer padL
I0801 16:13:23.453539 31171 net.cpp:425] padL <- label_data_1_split_1
I0801 16:13:23.453548 31171 net.cpp:399] padL -> padL
I0801 16:13:23.453575 31171 net.cpp:141] Setting up padL
I0801 16:13:23.453583 31171 net.cpp:148] Top shape: 100 1 1 1 (100)
I0801 16:13:23.453588 31171 net.cpp:156] Memory required for data: 524796000
I0801 16:13:23.453594 31171 layer_factory.hpp:77] Creating layer pad
I0801 16:13:23.453604 31171 net.cpp:91] Creating Layer pad
I0801 16:13:23.453610 31171 net.cpp:425] pad <- r2
I0801 16:13:23.453618 31171 net.cpp:425] pad <- padL
I0801 16:13:23.453627 31171 net.cpp:399] pad -> pad
I0801 16:13:23.453655 31171 net.cpp:141] Setting up pad
I0801 16:13:23.453662 31171 net.cpp:148] Top shape: 100 2 1 1 (200)
I0801 16:13:23.453667 31171 net.cpp:156] Memory required for data: 524796800
I0801 16:13:23.453673 31171 layer_factory.hpp:77] Creating layer pad_pad_0_split
I0801 16:13:23.453680 31171 net.cpp:91] Creating Layer pad_pad_0_split
I0801 16:13:23.453686 31171 net.cpp:425] pad_pad_0_split <- pad
I0801 16:13:23.453696 31171 net.cpp:399] pad_pad_0_split -> pad_pad_0_split_0
I0801 16:13:23.453706 31171 net.cpp:399] pad_pad_0_split -> pad_pad_0_split_1
I0801 16:13:23.453754 31171 net.cpp:141] Setting up pad_pad_0_split
I0801 16:13:23.453768 31171 net.cpp:148] Top shape: 100 2 1 1 (200)
I0801 16:13:23.453778 31171 net.cpp:148] Top shape: 100 2 1 1 (200)
I0801 16:13:23.453791 31171 net.cpp:156] Memory required for data: 524798400
I0801 16:13:23.453801 31171 layer_factory.hpp:77] Creating layer accuracy
I0801 16:13:23.453812 31171 net.cpp:91] Creating Layer accuracy
I0801 16:13:23.453827 31171 net.cpp:425] accuracy <- pad_pad_0_split_0
I0801 16:13:23.453835 31171 net.cpp:425] accuracy <- th_th_0_split_0
I0801 16:13:23.453843 31171 net.cpp:399] accuracy -> accuracy
…
