…
I0729 15:36:08.572321 11376 solver.cpp:81] Creating training net from train_net file: examples/scene/matchNetTrainHingeMini.prototxt
I0729 15:36:08.594873 11376 net.cpp:49] Initializing net from parameters: 
state {
  phase: TRAIN
}
layer {
  name: "data"
  type: "Data"
  top: "data"
  top: "label"
  include {
    phase: TRAIN
  }
  transform_param {
    scale: 0.0039215689
    mirror: true
    mean_file: "examples/scene/scene_mean.binaryproto"
  }
  data_param {
    source: "examples/scene/scene_train_pairs.lmdb"
    batch_size: 100
    backend: LMDB
  }
}
layer {
  name: "i1"
  type: "Slice"
  bottom: "data"
  top: "i1"
  top: "i2"
  slice_param {
    slice_dim: 1
    slice_point: 3
  }
}
layer {
  name: "p1"
  type: "Pooling"
  bottom: "i1"
  top: "p1"
  pooling_param {
    pool: AVE
    kernel_size: 2
    stride: 2
  }
}
layer {
  name: "p2"
  type: "Pooling"
  bottom: "i2"
  top: "p2"
  pooling_param {
    pool: AVE
    kernel_size: 2
    stride: 2
  }
}
layer {
  name: "Input1"
  type: "Input"
  top: "Input1"
  include {
    phase: TRAIN
  }
  input_param {
    shape {
      dim: 100
      dim: 3
      dim: 64
      dim: 64
    }
  }
}
layer {
  name: "c11"
  type: "Crop"
  bottom: "i1"
  bottom: "Input1"
  top: "c11"
  crop_param {
    axis: 2
    offset: 0
    offset: 0
  }
}
layer {
  name: "Input2"
  type: "Input"
  top: "Input2"
  include {
    phase: TRAIN
  }
  input_param {
    shape {
      dim: 100
      dim: 3
      dim: 64
      dim: 64
    }
  }
}
layer {
  name: "c12"
  type: "Crop"
  bottom: "i1"
  bottom: "Input2"
  top: "c12"
  crop_param {
    axis: 2
    offset: 0
    offset: 32
  }
}
layer {
  name: "Input3"
  type: "Input"
  top: "Input3"
  include {
    phase: TRAIN
  }
  input_param {
    shape {
      dim: 100
      dim: 3
      dim: 64
      dim: 64
    }
  }
}
layer {
  name: "c13"
  type: "Crop"
  bottom: "i1"
  bottom: "Input3"
  top: "c13"
  crop_param {
    axis: 2
    offset: 0
    offset: 64
  }
}
layer {
  name: "Input4"
  type: "Input"
  top: "Input4"
  include {
    phase: TRAIN
  }
  input_param {
    shape {
      dim: 100
      dim: 3
      dim: 64
      dim: 64
    }
  }
}
layer {
  name: "c14"
  type: "Crop"
  bottom: "i1"
  bottom: "Input4"
  top: "c14"
  crop_param {
    axis: 2
    offset: 32
    offset: 0
  }
}
layer {
  name: "Input5"
  type: "Input"
  top: "Input5"
  include {
    phase: TRAIN
  }
  input_param {
    shape {
      dim: 100
      dim: 3
      dim: 64
      dim: 64
    }
  }
}
layer {
  name: "c15"
  type: "Crop"
  bottom: "i1"
  bottom: "Input5"
  top: "c15"
  crop_param {
    axis: 2
    offset: 32
    offset: 32
  }
}
layer {
  name: "Input6"
  type: "Input"
  top: "Input6"
  include {
    phase: TRAIN
  }
  input_param {
    shape {
      dim: 100
      dim: 3
      dim: 64
      dim: 64
    }
  }
}
layer {
  name: "c16"
  type: "Crop"
  bottom: "i1"
  bottom: "Input6"
  top: "c16"
  crop_param {
    axis: 2
    offset: 32
    offset: 64
  }
}
layer {
  name: "Input7"
  type: "Input"
  top: "Input7"
  include {
    phase: TRAIN
  }
  input_param {
    shape {
      dim: 100
      dim: 3
      dim: 64
      dim: 64
    }
  }
}
layer {
  name: "c17"
  type: "Crop"
  bottom: "i1"
  bottom: "Input7"
  top: "c17"
  crop_param {
    axis: 2
    offset: 64
    offset: 0
  }
}
layer {
  name: "Input8"
  type: "Input"
  top: "Input8"
  include {
    phase: TRAIN
  }
  input_param {
    shape {
      dim: 100
      dim: 3
      dim: 64
      dim: 64
    }
  }
}
layer {
  name: "c18"
  type: "Crop"
  bottom: "i1"
  bottom: "Input8"
  top: "c18"
  crop_param {
    axis: 2
    offset: 64
    offset: 32
  }
}
layer {
  name: "Input9"
  type: "Input"
  top: "Input9"
  include {
    phase: TRAIN
  }
  input_param {
    shape {
      dim: 100
      dim: 3
      dim: 64
      dim: 64
    }
  }
}
layer {
  name: "c19"
  type: "Crop"
  bottom: "i1"
  bottom: "Input9"
  top: "c19"
  crop_param {
    axis: 2
    offset: 64
    offset: 64
  }
}
layer {
  name: "Input10"
  type: "Input"
  top: "Input10"
  include {
    phase: TRAIN
  }
  input_param {
    shape {
      dim: 100
      dim: 3
      dim: 64
      dim: 64
    }
  }
}
layer {
  name: "c21"
  type: "Crop"
  bottom: "i2"
  bottom: "Input10"
  top: "c21"
  crop_param {
    axis: 2
    offset: 0
    offset: 0
  }
}
layer {
  name: "Input11"
  type: "Input"
  top: "Input11"
  include {
    phase: TRAIN
  }
  input_param {
    shape {
      dim: 100
      dim: 3
      dim: 64
      dim: 64
    }
  }
}
layer {
  name: "c22"
  type: "Crop"
  bottom: "i2"
  bottom: "Input11"
  top: "c22"
  crop_param {
    axis: 2
    offset: 0
    offset: 32
  }
}
layer {
  name: "Input12"
  type: "Input"
  top: "Input12"
  include {
    phase: TRAIN
  }
  input_param {
    shape {
      dim: 100
      dim: 3
      dim: 64
      dim: 64
    }
  }
}
layer {
  name: "c23"
  type: "Crop"
  bottom: "i2"
  bottom: "Input12"
  top: "c23"
  crop_param {
    axis: 2
    offset: 0
    offset: 64
  }
}
layer {
  name: "Input13"
  type: "Input"
  top: "Input13"
  include {
    phase: TRAIN
  }
  input_param {
    shape {
      dim: 100
      dim: 3
      dim: 64
      dim: 64
    }
  }
}
layer {
  name: "c24"
  type: "Crop"
  bottom: "i2"
  bottom: "Input13"
  top: "c24"
  crop_param {
    axis: 2
    offset: 32
    offset: 0
  }
}
layer {
  name: "Input14"
  type: "Input"
  top: "Input14"
  include {
    phase: TRAIN
  }
  input_param {
    shape {
      dim: 100
      dim: 3
      dim: 64
      dim: 64
    }
  }
}
layer {
  name: "c25"
  type: "Crop"
  bottom: "i2"
  bottom: "Input14"
  top: "c25"
  crop_param {
    axis: 2
    offset: 32
    offset: 32
  }
}
layer {
  name: "Input15"
  type: "Input"
  top: "Input15"
  include {
    phase: TRAIN
  }
  input_param {
    shape {
      dim: 100
      dim: 3
      dim: 64
      dim: 64
    }
  }
}
layer {
  name: "c26"
  type: "Crop"
  bottom: "i2"
  bottom: "Input15"
  top: "c26"
  crop_param {
    axis: 2
    offset: 32
    offset: 64
  }
}
layer {
  name: "Input16"
  type: "Input"
  top: "Input16"
  include {
    phase: TRAIN
  }
  input_param {
    shape {
      dim: 100
      dim: 3
      dim: 64
      dim: 64
    }
  }
}
layer {
  name: "c27"
  type: "Crop"
  bottom: "i2"
  bottom: "Input16"
  top: "c27"
  crop_param {
    axis: 2
    offset: 64
    offset: 0
  }
}
layer {
  name: "Input17"
  type: "Input"
  top: "Input17"
  include {
    phase: TRAIN
  }
  input_param {
    shape {
      dim: 100
      dim: 3
      dim: 64
      dim: 64
    }
  }
}
layer {
  name: "c28"
  type: "Crop"
  bottom: "i2"
  bottom: "Input17"
  top: "c28"
  crop_param {
    axis: 2
    offset: 64
    offset: 32
  }
}
layer {
  name: "Input18"
  type: "Input"
  top: "Input18"
  include {
    phase: TRAIN
  }
  input_param {
    shape {
      dim: 100
      dim: 3
      dim: 64
      dim: 64
    }
  }
}
layer {
  name: "c29"
  type: "Crop"
  bottom: "i2"
  bottom: "Input18"
  top: "c29"
  crop_param {
    axis: 2
    offset: 64
    offset: 64
  }
}
layer {
  name: "Convolution1"
  type: "Convolution"
  bottom: "p1"
  top: "Convolution1"
  param {
    name: "conv1_w"
    lr_mult: 1
  }
  param {
    name: "conv1_b"
    lr_mult: 2
  }
  convolution_param {
    num_output: 20
    kernel_size: 5
    stride: 1
    weight_filler {
      type: "xavier"
    }
    bias_filler {
      type: "constant"
    }
  }
}
layer {
  name: "Pooling1"
  type: "Pooling"
  bottom: "Convolution1"
  top: "Pooling1"
  pooling_param {
    pool: MAX
    kernel_size: 2
    stride: 2
  }
}
layer {
  name: "Convolution2"
  type: "Convolution"
  bottom: "Pooling1"
  top: "Convolution2"
  param {
    name: "conv2_w"
    lr_mult: 1
  }
  param {
    name: "conv2_b"
    lr_mult: 2
  }
  convolution_param {
    num_output: 50
    kernel_size: 5
    stride: 1
    weight_filler {
      type: "xavier"
    }
    bias_filler {
      type: "constant"
    }
  }
}
layer {
  name: "Pooling2"
  type: "Pooling"
  bottom: "Convolution2"
  top: "Pooling2"
  pooling_param {
    pool: MAX
    kernel_size: 2
    stride: 2
  }
}
layer {
  name: "InnerProduct1"
  type: "InnerProduct"
  bottom: "Pooling2"
  top: "InnerProduct1"
  param {
    name: "ip1_w"
    lr_mult: 1
  }
  param {
    name: "ip1_b"
    lr_mult: 2
  }
  inner_product_param {
    num_output: 100
    weight_filler {
      type: "xavier"
    }
    bias_filler {
      type: "constant"
    }
  }
}
layer {
  name: "ReLU1"
  type: "ReLU"
  bottom: "InnerProduct1"
  top: "InnerProduct1"
}
layer {
  name: "InnerProduct2"
  type: "InnerProduct"
  bottom: "InnerProduct1"
  top: "InnerProduct2"
  param {
    name: "ip2_w"
    lr_mult: 1
  }
  param {
    name: "ip2_b"
    lr_mult: 2
  }
  inner_product_param {
    num_output: 50
    weight_filler {
      type: "xavier"
    }
    bias_filler {
      type: "constant"
    }
  }
}
layer {
  name: "Convolution3"
  type: "Convolution"
  bottom: "p2"
  top: "Convolution3"
  param {
    name: "conv1_w"
    lr_mult: 1
  }
  param {
    name: "conv1_b"
    lr_mult: 2
  }
  convolution_param {
    num_output: 20
    kernel_size: 5
    stride: 1
    weight_filler {
      type: "xavier"
    }
    bias_filler {
      type: "constant"
    }
  }
}
layer {
  name: "Pooling3"
  type: "Pooling"
  bottom: "Convolution3"
  top: "Pooling3"
  pooling_param {
    pool: MAX
    kernel_size: 2
    stride: 2
  }
}
layer {
  name: "Convolution4"
  type: "Convolution"
  bottom: "Pooling3"
  top: "Convolution4"
  param {
    name: "conv2_w"
    lr_mult: 1
  }
  param {
    name: "conv2_b"
    lr_mult: 2
  }
  convolution_param {
    num_output: 50
    kernel_size: 5
    stride: 1
    weight_filler {
      type: "xavier"
    }
    bias_filler {
      type: "constant"
    }
  }
}
layer {
  name: "Pooling4"
  type: "Pooling"
  bottom: "Convolution4"
  top: "Pooling4"
  pooling_param {
    pool: MAX
    kernel_size: 2
    stride: 2
  }
}
layer {
  name: "InnerProduct3"
  type: "InnerProduct"
  bottom: "Pooling4"
  top: "InnerProduct3"
  param {
    name: "ip1_w"
    lr_mult: 1
  }
  param {
    name: "ip1_b"
    lr_mult: 2
  }
  inner_product_param {
    num_output: 100
    weight_filler {
      type: "xavier"
    }
    bias_filler {
      type: "constant"
    }
  }
}
layer {
  name: "ReLU2"
  type: "ReLU"
  bottom: "InnerProduct3"
  top: "InnerProduct3"
}
layer {
  name: "InnerProduct4"
  type: "InnerProduct"
  bottom: "InnerProduct3"
  top: "InnerProduct4"
  param {
    name: "ip2_w"
    lr_mult: 1
  }
  param {
    name: "ip2_b"
    lr_mult: 2
  }
  inner_product_param {
    num_output: 50
    weight_filler {
      type: "xavier"
    }
    bias_filler {
      type: "constant"
    }
  }
}
layer {
  name: "Concat1"
  type: "Concat"
  bottom: "InnerProduct2"
  bottom: "InnerProduct4"
  top: "Concat1"
  concat_param {
    axis: 1
  }
}
layer {
  name: "InnerProduct5"
  type: "InnerProduct"
  bottom: "Concat1"
  top: "InnerProduct5"
  param {
    name: "fc1_w"
    lr_mult: 1
  }
  param {
    name: "fc1_b"
    lr_mult: 2
  }
  inner_product_param {
    num_output: 64
    weight_filler {
      type: "xavier"
    }
    bias_filler {
      type: "constant"
    }
  }
}
layer {
  name: "ReLU3"
  type: "ReLU"
  bottom: "InnerProduct5"
  top: "InnerProduct5"
}
layer {
  name: "InnerProduct6"
  type: "InnerProduct"
  bottom: "InnerProduct5"
  top: "InnerProduct6"
  param {
    name: "fc2_w"
    lr_mult: 1
  }
  param {
    name: "fc2_b"
    lr_mult: 2
  }
  inner_product_param {
    num_output: 32
    weight_filler {
      type: "xavier"
    }
    bias_filler {
      type: "constant"
    }
  }
}
layer {
  name: "ReLU4"
  type: "ReLU"
  bottom: "InnerProduct6"
  top: "InnerProduct6"
}
layer {
  name: "dt0"
  type: "InnerProduct"
  bottom: "InnerProduct6"
  top: "dt0"
  param {
    name: "fc3_w"
    lr_mult: 1
  }
  param {
    name: "fc3_b"
    lr_mult: 2
  }
  inner_product_param {
    num_output: 2
    weight_filler {
      type: "xavier"
    }
    bias_filler {
      type: "constant"
    }
  }
}
layer {
  name: "Convolution5"
  type: "Convolution"
  bottom: "p1"
  top: "Convolution5"
  param {
    name: "conv1_w"
    lr_mult: 1
  }
  param {
    name: "conv1_b"
    lr_mult: 2
  }
  convolution_param {
    num_output: 20
    kernel_size: 5
    stride: 1
    weight_filler {
      type: "xavier"
    }
    bias_filler {
      type: "constant"
    }
  }
}
layer {
  name: "Pooling5"
  type: "Pooling"
  bottom: "Convolution5"
  top: "Pooling5"
  pooling_param {
    pool: MAX
    kernel_size: 2
    stride: 2
  }
}
layer {
  name: "Convolution6"
  type: "Convolution"
  bottom: "Pooling5"
  top: "Convolution6"
  param {
    name: "conv2_w"
    lr_mult: 1
  }
  param {
    name: "conv2_b"
    lr_mult: 2
  }
  convolution_param {
    num_output: 50
    kernel_size: 5
    stride: 1
    weight_filler {
      type: "xavier"
    }
    bias_filler {
      type: "constant"
    }
  }
}
layer {
  name: "Pooling6"
  type: "Pooling"
  bottom: "Convolution6"
  top: "Pooling6"
  pooling_param {
    pool: MAX
    kernel_size: 2
    stride: 2
  }
}
layer {
  name: "InnerProduct7"
  type: "InnerProduct"
  bottom: "Pooling6"
  top: "InnerProduct7"
  param {
    name: "ip1_w"
    lr_mult: 1
  }
  param {
    name: "ip1_b"
    lr_mult: 2
  }
  inner_product_param {
    num_output: 100
    weight_filler {
      type: "xavier"
    }
    bias_filler {
      type: "constant"
    }
  }
}
layer {
  name: "ReLU5"
  type: "ReLU"
  bottom: "InnerProduct7"
  top: "InnerProduct7"
}
layer {
  name: "InnerProduct8"
  type: "InnerProduct"
  bottom: "InnerProduct7"
  top: "InnerProduct8"
  param {
    name: "ip2_w"
    lr_mult: 1
  }
  param {
    name: "ip2_b"
    lr_mult: 2
  }
  inner_product_param {
    num_output: 50
    weight_filler {
      type: "xavier"
    }
    bias_filler {
      type: "constant"
    }
  }
}
layer {
  name: "Convolution7"
  type: "Convolution"
  bottom: "c21"
  top: "Convolution7"
  param {
    name: "conv1_w"
    lr_mult: 1
  }
  param {
    name: "conv1_b"
    lr_mult: 2
  }
  convolution_param {
    num_output: 20
    kernel_size: 5
    stride: 1
    weight_filler {
      type: "xavier"
    }
    bias_filler {
      type: "constant"
    }
  }
}
layer {
  name: "Pooling7"
  type: "Pooling"
  bottom: "Convolution7"
  top: "Pooling7"
  pooling_param {
    pool: MAX
    kernel_size: 2
    stride: 2
  }
}
layer {
  name: "Convolution8"
  type: "Convolution"
  bottom: "Pooling7"
  top: "Convolution8"
  param {
    name: "conv2_w"
    lr_mult: 1
  }
  param {
    name: "conv2_b"
    lr_mult: 2
  }
  convolution_param {
    num_output: 50
    kernel_size: 5
    stride: 1
    weight_filler {
      type: "xavier"
    }
    bias_filler {
      type: "constant"
    }
  }
}
layer {
  name: "Pooling8"
  type: "Pooling"
  bottom: "Convolution8"
  top: "Pooling8"
  pooling_param {
    pool: MAX
    kernel_size: 2
    stride: 2
  }
}
layer {
  name: "InnerProduct9"
  type: "InnerProduct"
  bottom: "Pooling8"
  top: "InnerProduct9"
  param {
    name: "ip1_w"
    lr_mult: 1
  }
  param {
    name: "ip1_b"
    lr_mult: 2
  }
  inner_product_param {
    num_output: 100
    weight_filler {
      type: "xavier"
    }
    bias_filler {
      type: "constant"
    }
  }
}
layer {
  name: "ReLU6"
  type: "ReLU"
  bottom: "InnerProduct9"
  top: "InnerProduct9"
}
layer {
  name: "InnerProduct10"
  type: "InnerProduct"
  bottom: "InnerProduct9"
  top: "InnerProduct10"
  param {
    name: "ip2_w"
    lr_mult: 1
  }
  param {
    name: "ip2_b"
    lr_mult: 2
  }
  inner_product_param {
    num_output: 50
    weight_filler {
      type: "xavier"
    }
    bias_filler {
      type: "constant"
    }
  }
}
layer {
  name: "Concat2"
  type: "Concat"
  bottom: "InnerProduct8"
  bottom: "InnerProduct10"
  top: "Concat2"
  concat_param {
    axis: 1
  }
}
layer {
  name: "InnerProduct11"
  type: "InnerProduct"
  bottom: "Concat2"
  top: "InnerProduct11"
  param {
    name: "fc1_w"
    lr_mult: 1
  }
  param {
    name: "fc1_b"
    lr_mult: 2
  }
  inner_product_param {
    num_output: 64
    weight_filler {
      type: "xavier"
    }
    bias_filler {
      type: "constant"
    }
  }
}
layer {
  name: "ReLU7"
  type: "ReLU"
  bottom: "InnerProduct11"
  top: "InnerProduct11"
}
layer {
  name: "InnerProduct12"
  type: "InnerProduct"
  bottom: "InnerProduct11"
  top: "InnerProduct12"
  param {
    name: "fc2_w"
    lr_mult: 1
  }
  param {
    name: "fc2_b"
    lr_mult: 2
  }
  inner_product_param {
    num_output: 32
    weight_filler {
      type: "xavier"
    }
    bias_filler {
      type: "constant"
    }
  }
}
layer {
  name: "ReLU8"
  type: "ReLU"
  bottom: "InnerProduct12"
  top: "InnerProduct12"
}
layer {
  name: "dt1"
  type: "InnerProduct"
  bottom: "InnerProduct12"
  top: "dt1"
  param {
    name: "fc3_w"
    lr_mult: 1
  }
  param {
    name: "fc3_b"
    lr_mult: 2
  }
  inner_product_param {
    num_output: 2
    weight_filler {
      type: "xavier"
    }
    bias_filler {
      type: "constant"
    }
  }
}
layer {
  name: "Convolution9"
  type: "Convolution"
  bottom: "p1"
  top: "Convolution9"
  param {
    name: "conv1_w"
    lr_mult: 1
  }
  param {
    name: "conv1_b"
    lr_mult: 2
  }
  convolution_param {
    num_output: 20
    kernel_size: 5
    stride: 1
    weight_filler {
      type: "xavier"
    }
    bias_filler {
      type: "constant"
    }
  }
}
layer {
  name: "Pooling9"
  type: "Pooling"
  bottom: "Convolution9"
  top: "Pooling9"
  pooling_param {
    pool: MAX
    kernel_size: 2
    stride: 2
  }
}
layer {
  name: "Convolution10"
  type: "Convolution"
  bottom: "Pooling9"
  top: "Convolution10"
  param {
    name: "conv2_w"
    lr_mult: 1
  }
  param {
    name: "conv2_b"
    lr_mult: 2
  }
  convolution_param {
    num_output: 50
    kernel_size: 5
    stride: 1
    weight_filler {
      type: "xavier"
    }
    bias_filler {
      type: "constant"
    }
  }
}
layer {
  name: "Pooling10"
  type: "Pooling"
  bottom: "Convolution10"
  top: "Pooling10"
  pooling_param {
    pool: MAX
    kernel_size: 2
    stride: 2
  }
}
layer {
  name: "InnerProduct13"
  type: "InnerProduct"
  bottom: "Pooling10"
  top: "InnerProduct13"
  param {
    name: "ip1_w"
    lr_mult: 1
  }
  param {
    name: "ip1_b"
    lr_mult: 2
  }
  inner_product_param {
    num_output: 100
    weight_filler {
      type: "xavier"
    }
    bias_filler {
      type: "constant"
    }
  }
}
layer {
  name: "ReLU9"
  type: "ReLU"
  bottom: "InnerProduct13"
  top: "InnerProduct13"
}
layer {
  name: "InnerProduct14"
  type: "InnerProduct"
  bottom: "InnerProduct13"
  top: "InnerProduct14"
  param {
    name: "ip2_w"
    lr_mult: 1
  }
  param {
    name: "ip2_b"
    lr_mult: 2
  }
  inner_product_param {
    num_output: 50
    weight_filler {
      type: "xavier"
    }
    bias_filler {
      type: "constant"
    }
  }
}
layer {
  name: "Convolution11"
  type: "Convolution"
  bottom: "c22"
  top: "Convolution11"
  param {
    name: "conv1_w"
    lr_mult: 1
  }
  param {
    name: "conv1_b"
    lr_mult: 2
  }
  convolution_param {
    num_output: 20
    kernel_size: 5
    stride: 1
    weight_filler {
      type: "xavier"
    }
    bias_filler {
      type: "constant"
    }
  }
}
layer {
  name: "Pooling11"
  type: "Pooling"
  bottom: "Convolution11"
  top: "Pooling11"
  pooling_param {
    pool: MAX
    kernel_size: 2
    stride: 2
  }
}
layer {
  name: "Convolution12"
  type: "Convolution"
  bottom: "Pooling11"
  top: "Convolution12"
  param {
    name: "conv2_w"
    lr_mult: 1
  }
  param {
    name: "conv2_b"
    lr_mult: 2
  }
  convolution_param {
    num_output: 50
    kernel_size: 5
    stride: 1
    weight_filler {
      type: "xavier"
    }
    bias_filler {
      type: "constant"
    }
  }
}
layer {
  name: "Pooling12"
  type: "Pooling"
  bottom: "Convolution12"
  top: "Pooling12"
  pooling_param {
    pool: MAX
    kernel_size: 2
    stride: 2
  }
}
layer {
  name: "InnerProduct15"
  type: "InnerProduct"
  bottom: "Pooling12"
  top: "InnerProduct15"
  param {
    name: "ip1_w"
    lr_mult: 1
  }
  param {
    name: "ip1_b"
    lr_mult: 2
  }
  inner_product_param {
    num_output: 100
    weight_filler {
      type: "xavier"
    }
    bias_filler {
      type: "constant"
    }
  }
}
layer {
  name: "ReLU10"
  type: "ReLU"
  bottom: "InnerProduct15"
  top: "InnerProduct15"
}
layer {
  name: "InnerProduct16"
  type: "InnerProduct"
  bottom: "InnerProduct15"
  top: "InnerProduct16"
  param {
    name: "ip2_w"
    lr_mult: 1
  }
  param {
    name: "ip2_b"
    lr_mult: 2
  }
  inner_product_param {
    num_output: 50
    weight_filler {
      type: "xavier"
    }
    bias_filler {
      type: "constant"
    }
  }
}
layer {
  name: "Concat3"
  type: "Concat"
  bottom: "InnerProduct14"
  bottom: "InnerProduct16"
  top: "Concat3"
  concat_param {
    axis: 1
  }
}
layer {
  name: "InnerProduct17"
  type: "InnerProduct"
  bottom: "Concat3"
  top: "InnerProduct17"
  param {
    name: "fc1_w"
    lr_mult: 1
  }
  param {
    name: "fc1_b"
    lr_mult: 2
  }
  inner_product_param {
    num_output: 64
    weight_filler {
      type: "xavier"
    }
    bias_filler {
      type: "constant"
    }
  }
}
layer {
  name: "ReLU11"
  type: "ReLU"
  bottom: "InnerProduct17"
  top: "InnerProduct17"
}
layer {
  name: "InnerProduct18"
  type: "InnerProduct"
  bottom: "InnerProduct17"
  top: "InnerProduct18"
  param {
    name: "fc2_w"
    lr_mult: 1
  }
  param {
    name: "fc2_b"
    lr_mult: 2
  }
  inner_product_param {
    num_output: 32
    weight_filler {
      type: "xavier"
    }
    bias_filler {
      type: "constant"
    }
  }
}
layer {
  name: "ReLU12"
  type: "ReLU"
  bottom: "InnerProduct18"
  top: "InnerProduct18"
}
layer {
  name: "dt2"
  type: "InnerProduct"
  bottom: "InnerProduct18"
  top: "dt2"
  param {
    name: "fc3_w"
    lr_mult: 1
  }
  param {
    name: "fc3_b"
    lr_mult: 2
  }
  inner_product_param {
    num_output: 2
    weight_filler {
      type: "xavier"
    }
    bias_filler {
      type: "constant"
    }
  }
}
layer {
  name: "Convolution13"
  type: "Convolution"
  bottom: "p1"
  top: "Convolution13"
  param {
    name: "conv1_w"
    lr_mult: 1
  }
  param {
    name: "conv1_b"
    lr_mult: 2
  }
  convolution_param {
    num_output: 20
    kernel_size: 5
    stride: 1
    weight_filler {
      type: "xavier"
    }
    bias_filler {
      type: "constant"
    }
  }
}
layer {
  name: "Pooling13"
  type: "Pooling"
  bottom: "Convolution13"
  top: "Pooling13"
  pooling_param {
    pool: MAX
    kernel_size: 2
    stride: 2
  }
}
layer {
  name: "Convolution14"
  type: "Convolution"
  bottom: "Pooling13"
  top: "Convolution14"
  param {
    name: "conv2_w"
    lr_mult: 1
  }
  param {
    name: "conv2_b"
    lr_mult: 2
  }
  convolution_param {
    num_output: 50
    kernel_size: 5
    stride: 1
    weight_filler {
      type: "xavier"
    }
    bias_filler {
      type: "constant"
    }
  }
}
layer {
  name: "Pooling14"
  type: "Pooling"
  bottom: "Convolution14"
  top: "Pooling14"
  pooling_param {
    pool: MAX
    kernel_size: 2
    stride: 2
  }
}
layer {
  name: "InnerProduct19"
  type: "InnerProduct"
  bottom: "Pooling14"
  top: "InnerProduct19"
  param {
    name: "ip1_w"
    lr_mult: 1
  }
  param {
    name: "ip1_b"
    lr_mult: 2
  }
  inner_product_param {
    num_output: 100
    weight_filler {
      type: "xavier"
    }
    bias_filler {
      type: "constant"
    }
  }
}
layer {
  name: "ReLU13"
  type: "ReLU"
  bottom: "InnerProduct19"
  top: "InnerProduct19"
}
layer {
  name: "InnerProduct20"
  type: "InnerProduct"
  bottom: "InnerProduct19"
  top: "InnerProduct20"
  param {
    name: "ip2_w"
    lr_mult: 1
  }
  param {
    name: "ip2_b"
    lr_mult: 2
  }
  inner_product_param {
    num_output: 50
    weight_filler {
      type: "xavier"
    }
    bias_filler {
      type: "constant"
    }
  }
}
layer {
  name: "Convolution15"
  type: "Convolution"
  bottom: "c23"
  top: "Convolution15"
  param {
    name: "conv1_w"
    lr_mult: 1
  }
  param {
    name: "conv1_b"
    lr_mult: 2
  }
  convolution_param {
    num_output: 20
    kernel_size: 5
    stride: 1
    weight_filler {
      type: "xavier"
    }
    bias_filler {
      type: "constant"
    }
  }
}
layer {
  name: "Pooling15"
  type: "Pooling"
  bottom: "Convolution15"
  top: "Pooling15"
  pooling_param {
    pool: MAX
    kernel_size: 2
    stride: 2
  }
}
layer {
  name: "Convolution16"
  type: "Convolution"
  bottom: "Pooling15"
  top: "Convolution16"
  param {
    name: "conv2_w"
    lr_mult: 1
  }
  param {
    name: "conv2_b"
    lr_mult: 2
  }
  convolution_param {
    num_output: 50
    kernel_size: 5
    stride: 1
    weight_filler {
      type: "xavier"
    }
    bias_filler {
      type: "constant"
    }
  }
}
layer {
  name: "Pooling16"
  type: "Pooling"
  bottom: "Convolution16"
  top: "Pooling16"
  pooling_param {
    pool: MAX
    kernel_size: 2
    stride: 2
  }
}
layer {
  name: "InnerProduct21"
  type: "InnerProduct"
  bottom: "Pooling16"
  top: "InnerProduct21"
  param {
    name: "ip1_w"
    lr_mult: 1
  }
  param {
    name: "ip1_b"
    lr_mult: 2
  }
  inner_product_param {
    num_output: 100
    weight_filler {
      type: "xavier"
    }
    bias_filler {
      type: "constant"
    }
  }
}
layer {
  name: "ReLU14"
  type: "ReLU"
  bottom: "InnerProduct21"
  top: "InnerProduct21"
}
layer {
  name: "InnerProduct22"
  type: "InnerProduct"
  bottom: "InnerProduct21"
  top: "InnerProduct22"
  param {
    name: "ip2_w"
    lr_mult: 1
  }
  param {
    name: "ip2_b"
    lr_mult: 2
  }
  inner_product_param {
    num_output: 50
    weight_filler {
      type: "xavier"
    }
    bias_filler {
      type: "constant"
    }
  }
}
layer {
  name: "Concat4"
  type: "Concat"
  bottom: "InnerProduct20"
  bottom: "InnerProduct22"
  top: "Concat4"
  concat_param {
    axis: 1
  }
}
layer {
  name: "InnerProduct23"
  type: "InnerProduct"
  bottom: "Concat4"
  top: "InnerProduct23"
  param {
    name: "fc1_w"
    lr_mult: 1
  }
  param {
    name: "fc1_b"
    lr_mult: 2
  }
  inner_product_param {
    num_output: 64
    weight_filler {
      type: "xavier"
    }
    bias_filler {
      type: "constant"
    }
  }
}
layer {
  name: "ReLU15"
  type: "ReLU"
  bottom: "InnerProduct23"
  top: "InnerProduct23"
}
layer {
  name: "InnerProduct24"
  type: "InnerProduct"
  bottom: "InnerProduct23"
  top: "InnerProduct24"
  param {
    name: "fc2_w"
    lr_mult: 1
  }
  param {
    name: "fc2_b"
    lr_mult: 2
  }
  inner_product_param {
    num_output: 32
    weight_filler {
      type: "xavier"
    }
    bias_filler {
      type: "constant"
    }
  }
}
layer {
  name: "ReLU16"
  type: "ReLU"
  bottom: "InnerProduct24"
  top: "InnerProduct24"
}
layer {
  name: "dt3"
  type: "InnerProduct"
  bottom: "InnerProduct24"
  top: "dt3"
  param {
    name: "fc3_w"
    lr_mult: 1
  }
  param {
    name: "fc3_b"
    lr_mult: 2
  }
  inner_product_param {
    num_output: 2
    weight_filler {
      type: "xavier"
    }
    bias_filler {
      type: "constant"
    }
  }
}
layer {
  name: "Convolution17"
  type: "Convolution"
  bottom: "p1"
  top: "Convolution17"
  param {
    name: "conv1_w"
    lr_mult: 1
  }
  param {
    name: "conv1_b"
    lr_mult: 2
  }
  convolution_param {
    num_output: 20
    kernel_size: 5
    stride: 1
    weight_filler {
      type: "xavier"
    }
    bias_filler {
      type: "constant"
    }
  }
}
layer {
  name: "Pooling17"
  type: "Pooling"
  bottom: "Convolution17"
  top: "Pooling17"
  pooling_param {
    pool: MAX
    kernel_size: 2
    stride: 2
  }
}
layer {
  name: "Convolution18"
  type: "Convolution"
  bottom: "Pooling17"
  top: "Convolution18"
  param {
    name: "conv2_w"
    lr_mult: 1
  }
  param {
    name: "conv2_b"
    lr_mult: 2
  }
  convolution_param {
    num_output: 50
    kernel_size: 5
    stride: 1
    weight_filler {
      type: "xavier"
    }
    bias_filler {
      type: "constant"
    }
  }
}
layer {
  name: "Pooling18"
  type: "Pooling"
  bottom: "Convolution18"
  top: "Pooling18"
  pooling_param {
    pool: MAX
    kernel_size: 2
    stride: 2
  }
}
layer {
  name: "InnerProduct25"
  type: "InnerProduct"
  bottom: "Pooling18"
  top: "InnerProduct25"
  param {
    name: "ip1_w"
    lr_mult: 1
  }
  param {
    name: "ip1_b"
    lr_mult: 2
  }
  inner_product_param {
    num_output: 100
    weight_filler {
      type: "xavier"
    }
    bias_filler {
      type: "constant"
    }
  }
}
layer {
  name: "ReLU17"
  type: "ReLU"
  bottom: "InnerProduct25"
  top: "InnerProduct25"
}
layer {
  name: "InnerProduct26"
  type: "InnerProduct"
  bottom: "InnerProduct25"
  top: "InnerProduct26"
  param {
    name: "ip2_w"
    lr_mult: 1
  }
  param {
    name: "ip2_b"
    lr_mult: 2
  }
  inner_product_param {
    num_output: 50
    weight_filler {
      type: "xavier"
    }
    bias_filler {
      type: "constant"
    }
  }
}
layer {
  name: "Convolution19"
  type: "Convolution"
  bottom: "c24"
  top: "Convolution19"
  param {
    name: "conv1_w"
    lr_mult: 1
  }
  param {
    name: "conv1_b"
    lr_mult: 2
  }
  convolution_param {
    num_output: 20
    kernel_size: 5
    stride: 1
    weight_filler {
      type: "xavier"
    }
    bias_filler {
      type: "constant"
    }
  }
}
layer {
  name: "Pooling19"
  type: "Pooling"
  bottom: "Convolution19"
  top: "Pooling19"
  pooling_param {
    pool: MAX
    kernel_size: 2
    stride: 2
  }
}
layer {
  name: "Convolution20"
  type: "Convolution"
  bottom: "Pooling19"
  top: "Convolution20"
  param {
    name: "conv2_w"
    lr_mult: 1
  }
  param {
    name: "conv2_b"
    lr_mult: 2
  }
  convolution_param {
    num_output: 50
    kernel_size: 5
    stride: 1
    weight_filler {
      type: "xavier"
    }
    bias_filler {
      type: "constant"
    }
  }
}
layer {
  name: "Pooling20"
  type: "Pooling"
  bottom: "Convolution20"
  top: "Pooling20"
  pooling_param {
    pool: MAX
    kernel_size: 2
    stride: 2
  }
}
layer {
  name: "InnerProduct27"
  type: "InnerProduct"
  bottom: "Pooling20"
  top: "InnerProduct27"
  param {
    name: "ip1_w"
    lr_mult: 1
  }
  param {
    name: "ip1_b"
    lr_mult: 2
  }
  inner_product_param {
    num_output: 100
    weight_filler {
      type: "xavier"
    }
    bias_filler {
      type
I0729 15:36:08.597867 11376 layer_factory.hpp:77] Creating layer data
I0729 15:36:08.598337 11376 net.cpp:91] Creating Layer data
I0729 15:36:08.598351 11376 net.cpp:399] data -> data
I0729 15:36:08.598379 11376 net.cpp:399] data -> label
I0729 15:36:08.598398 11376 data_transformer.cpp:25] Loading mean file from: examples/scene/scene_mean.binaryproto
I0729 15:36:08.604521 11382 db_lmdb.cpp:35] Opened lmdb examples/scene/scene_train_pairs.lmdb
I0729 15:36:08.620802 11376 data_layer.cpp:41] output data size: 100,6,128,128
I0729 15:36:08.717403 11376 net.cpp:141] Setting up data
I0729 15:36:08.717443 11376 net.cpp:148] Top shape: 100 6 128 128 (9830400)
I0729 15:36:08.717455 11376 net.cpp:148] Top shape: 100 (100)
I0729 15:36:08.717463 11376 net.cpp:156] Memory required for data: 39322000
I0729 15:36:08.717481 11376 layer_factory.hpp:77] Creating layer label_data_1_split
I0729 15:36:08.717509 11376 net.cpp:91] Creating Layer label_data_1_split
I0729 15:36:08.717520 11376 net.cpp:425] label_data_1_split <- label
I0729 15:36:08.717538 11376 net.cpp:399] label_data_1_split -> label_data_1_split_0
I0729 15:36:08.717566 11376 net.cpp:399] label_data_1_split -> label_data_1_split_1
I0729 15:36:08.717645 11376 net.cpp:141] Setting up label_data_1_split
I0729 15:36:08.717658 11376 net.cpp:148] Top shape: 100 (100)
I0729 15:36:08.717667 11376 net.cpp:148] Top shape: 100 (100)
I0729 15:36:08.717675 11376 net.cpp:156] Memory required for data: 39322800
I0729 15:36:08.717684 11376 layer_factory.hpp:77] Creating layer i1
I0729 15:36:08.717703 11376 net.cpp:91] Creating Layer i1
I0729 15:36:08.717711 11376 net.cpp:425] i1 <- data
I0729 15:36:08.717722 11376 net.cpp:399] i1 -> i1
I0729 15:36:08.717739 11376 net.cpp:399] i1 -> i2
I0729 15:36:08.717799 11376 net.cpp:141] Setting up i1
I0729 15:36:08.717813 11376 net.cpp:148] Top shape: 100 3 128 128 (4915200)
I0729 15:36:08.717823 11376 net.cpp:148] Top shape: 100 3 128 128 (4915200)
I0729 15:36:08.717829 11376 net.cpp:156] Memory required for data: 78644400
I0729 15:36:08.717838 11376 layer_factory.hpp:77] Creating layer i1_i1_0_split
I0729 15:36:08.717849 11376 net.cpp:91] Creating Layer i1_i1_0_split
I0729 15:36:08.717881 11376 net.cpp:425] i1_i1_0_split <- i1
I0729 15:36:08.717896 11376 net.cpp:399] i1_i1_0_split -> i1_i1_0_split_0
I0729 15:36:08.717911 11376 net.cpp:399] i1_i1_0_split -> i1_i1_0_split_1
I0729 15:36:08.717926 11376 net.cpp:399] i1_i1_0_split -> i1_i1_0_split_2
I0729 15:36:08.717941 11376 net.cpp:399] i1_i1_0_split -> i1_i1_0_split_3
I0729 15:36:08.717955 11376 net.cpp:399] i1_i1_0_split -> i1_i1_0_split_4
I0729 15:36:08.717970 11376 net.cpp:399] i1_i1_0_split -> i1_i1_0_split_5
I0729 15:36:08.717984 11376 net.cpp:399] i1_i1_0_split -> i1_i1_0_split_6
I0729 15:36:08.717998 11376 net.cpp:399] i1_i1_0_split -> i1_i1_0_split_7
I0729 15:36:08.718013 11376 net.cpp:399] i1_i1_0_split -> i1_i1_0_split_8
I0729 15:36:08.718026 11376 net.cpp:399] i1_i1_0_split -> i1_i1_0_split_9
I0729 15:36:08.718194 11376 net.cpp:141] Setting up i1_i1_0_split
I0729 15:36:08.718204 11376 net.cpp:148] Top shape: 100 3 128 128 (4915200)
I0729 15:36:08.718214 11376 net.cpp:148] Top shape: 100 3 128 128 (4915200)
I0729 15:36:08.718224 11376 net.cpp:148] Top shape: 100 3 128 128 (4915200)
I0729 15:36:08.718233 11376 net.cpp:148] Top shape: 100 3 128 128 (4915200)
I0729 15:36:08.718242 11376 net.cpp:148] Top shape: 100 3 128 128 (4915200)
I0729 15:36:08.718253 11376 net.cpp:148] Top shape: 100 3 128 128 (4915200)
I0729 15:36:08.718262 11376 net.cpp:148] Top shape: 100 3 128 128 (4915200)
I0729 15:36:08.718273 11376 net.cpp:148] Top shape: 100 3 128 128 (4915200)
I0729 15:36:08.718283 11376 net.cpp:148] Top shape: 100 3 128 128 (4915200)
I0729 15:36:08.718293 11376 net.cpp:148] Top shape: 100 3 128 128 (4915200)
I0729 15:36:08.718302 11376 net.cpp:156] Memory required for data: 275252400
I0729 15:36:08.718310 11376 layer_factory.hpp:77] Creating layer i2_i1_1_split
I0729 15:36:08.718323 11376 net.cpp:91] Creating Layer i2_i1_1_split
I0729 15:36:08.718332 11376 net.cpp:425] i2_i1_1_split <- i2
I0729 15:36:08.718344 11376 net.cpp:399] i2_i1_1_split -> i2_i1_1_split_0
I0729 15:36:08.718363 11376 net.cpp:399] i2_i1_1_split -> i2_i1_1_split_1
I0729 15:36:08.718379 11376 net.cpp:399] i2_i1_1_split -> i2_i1_1_split_2
I0729 15:36:08.718397 11376 net.cpp:399] i2_i1_1_split -> i2_i1_1_split_3
I0729 15:36:08.718413 11376 net.cpp:399] i2_i1_1_split -> i2_i1_1_split_4
I0729 15:36:08.718428 11376 net.cpp:399] i2_i1_1_split -> i2_i1_1_split_5
I0729 15:36:08.718446 11376 net.cpp:399] i2_i1_1_split -> i2_i1_1_split_6
I0729 15:36:08.718459 11376 net.cpp:399] i2_i1_1_split -> i2_i1_1_split_7
I0729 15:36:08.718475 11376 net.cpp:399] i2_i1_1_split -> i2_i1_1_split_8
I0729 15:36:08.718490 11376 net.cpp:399] i2_i1_1_split -> i2_i1_1_split_9
I0729 15:36:08.724623 11376 net.cpp:141] Setting up i2_i1_1_split
I0729 15:36:08.724658 11376 net.cpp:148] Top shape: 100 3 128 128 (4915200)
I0729 15:36:08.724673 11376 net.cpp:148] Top shape: 100 3 128 128 (4915200)
I0729 15:36:08.724689 11376 net.cpp:148] Top shape: 100 3 128 128 (4915200)
I0729 15:36:08.724701 11376 net.cpp:148] Top shape: 100 3 128 128 (4915200)
I0729 15:36:08.724715 11376 net.cpp:148] Top shape: 100 3 128 128 (4915200)
I0729 15:36:08.724730 11376 net.cpp:148] Top shape: 100 3 128 128 (4915200)
I0729 15:36:08.724743 11376 net.cpp:148] Top shape: 100 3 128 128 (4915200)
I0729 15:36:08.724757 11376 net.cpp:148] Top shape: 100 3 128 128 (4915200)
I0729 15:36:08.724771 11376 net.cpp:148] Top shape: 100 3 128 128 (4915200)
I0729 15:36:08.724784 11376 net.cpp:148] Top shape: 100 3 128 128 (4915200)
I0729 15:36:08.724794 11376 net.cpp:156] Memory required for data: 471860400
I0729 15:36:08.724807 11376 layer_factory.hpp:77] Creating layer p1
I0729 15:36:08.724830 11376 net.cpp:91] Creating Layer p1
I0729 15:36:08.724843 11376 net.cpp:425] p1 <- i1_i1_0_split_0
I0729 15:36:08.724863 11376 net.cpp:399] p1 -> p1
I0729 15:36:08.724936 11376 net.cpp:141] Setting up p1
I0729 15:36:08.724954 11376 net.cpp:148] Top shape: 100 3 64 64 (1228800)
I0729 15:36:08.724966 11376 net.cpp:156] Memory required for data: 476775600
I0729 15:36:08.724975 11376 layer_factory.hpp:77] Creating layer p1_p1_0_split
I0729 15:36:08.725013 11376 net.cpp:91] Creating Layer p1_p1_0_split
I0729 15:36:08.725025 11376 net.cpp:425] p1_p1_0_split <- p1
I0729 15:36:08.725042 11376 net.cpp:399] p1_p1_0_split -> p1_p1_0_split_0
I0729 15:36:08.725064 11376 net.cpp:399] p1_p1_0_split -> p1_p1_0_split_1
I0729 15:36:08.725086 11376 net.cpp:399] p1_p1_0_split -> p1_p1_0_split_2
I0729 15:36:08.725111 11376 net.cpp:399] p1_p1_0_split -> p1_p1_0_split_3
I0729 15:36:08.725131 11376 net.cpp:399] p1_p1_0_split -> p1_p1_0_split_4
I0729 15:36:08.725157 11376 net.cpp:399] p1_p1_0_split -> p1_p1_0_split_5
I0729 15:36:08.725189 11376 net.cpp:399] p1_p1_0_split -> p1_p1_0_split_6
I0729 15:36:08.725214 11376 net.cpp:399] p1_p1_0_split -> p1_p1_0_split_7
I0729 15:36:08.725235 11376 net.cpp:399] p1_p1_0_split -> p1_p1_0_split_8
I0729 15:36:08.725257 11376 net.cpp:399] p1_p1_0_split -> p1_p1_0_split_9
I0729 15:36:08.725524 11376 net.cpp:141] Setting up p1_p1_0_split
I0729 15:36:08.725538 11376 net.cpp:148] Top shape: 100 3 64 64 (1228800)
I0729 15:36:08.725550 11376 net.cpp:148] Top shape: 100 3 64 64 (1228800)
I0729 15:36:08.725561 11376 net.cpp:148] Top shape: 100 3 64 64 (1228800)
I0729 15:36:08.725572 11376 net.cpp:148] Top shape: 100 3 64 64 (1228800)
I0729 15:36:08.725584 11376 net.cpp:148] Top shape: 100 3 64 64 (1228800)
I0729 15:36:08.725595 11376 net.cpp:148] Top shape: 100 3 64 64 (1228800)
I0729 15:36:08.725606 11376 net.cpp:148] Top shape: 100 3 64 64 (1228800)
I0729 15:36:08.725617 11376 net.cpp:148] Top shape: 100 3 64 64 (1228800)
I0729 15:36:08.725628 11376 net.cpp:148] Top shape: 100 3 64 64 (1228800)
I0729 15:36:08.725639 11376 net.cpp:148] Top shape: 100 3 64 64 (1228800)
I0729 15:36:08.725647 11376 net.cpp:156] Memory required for data: 525927600
I0729 15:36:08.725656 11376 layer_factory.hpp:77] Creating layer p2
I0729 15:36:08.725669 11376 net.cpp:91] Creating Layer p2
I0729 15:36:08.725679 11376 net.cpp:425] p2 <- i2_i1_1_split_0
I0729 15:36:08.725692 11376 net.cpp:399] p2 -> p2
I0729 15:36:08.725733 11376 net.cpp:141] Setting up p2
I0729 15:36:08.725744 11376 net.cpp:148] Top shape: 100 3 64 64 (1228800)
I0729 15:36:08.725752 11376 net.cpp:156] Memory required for data: 530842800
I0729 15:36:08.725761 11376 layer_factory.hpp:77] Creating layer p2_p2_0_split
I0729 15:36:08.725776 11376 net.cpp:91] Creating Layer p2_p2_0_split
I0729 15:36:08.725786 11376 net.cpp:425] p2_p2_0_split <- p2
I0729 15:36:08.725800 11376 net.cpp:399] p2_p2_0_split -> p2_p2_0_split_0
I0729 15:36:08.725817 11376 net.cpp:399] p2_p2_0_split -> p2_p2_0_split_1
I0729 15:36:08.725834 11376 net.cpp:399] p2_p2_0_split -> p2_p2_0_split_2
I0729 15:36:08.725852 11376 net.cpp:399] p2_p2_0_split -> p2_p2_0_split_3
I0729 15:36:08.725868 11376 net.cpp:399] p2_p2_0_split -> p2_p2_0_split_4
I0729 15:36:08.725885 11376 net.cpp:399] p2_p2_0_split -> p2_p2_0_split_5
I0729 15:36:08.725901 11376 net.cpp:399] p2_p2_0_split -> p2_p2_0_split_6
I0729 15:36:08.725917 11376 net.cpp:399] p2_p2_0_split -> p2_p2_0_split_7
I0729 15:36:08.725934 11376 net.cpp:399] p2_p2_0_split -> p2_p2_0_split_8
I0729 15:36:08.725950 11376 net.cpp:399] p2_p2_0_split -> p2_p2_0_split_9
I0729 15:36:08.726187 11376 net.cpp:141] Setting up p2_p2_0_split
I0729 15:36:08.726198 11376 net.cpp:148] Top shape: 100 3 64 64 (1228800)
I0729 15:36:08.726209 11376 net.cpp:148] Top shape: 100 3 64 64 (1228800)
I0729 15:36:08.726220 11376 net.cpp:148] Top shape: 100 3 64 64 (1228800)
I0729 15:36:08.726230 11376 net.cpp:148] Top shape: 100 3 64 64 (1228800)
I0729 15:36:08.726241 11376 net.cpp:148] Top shape: 100 3 64 64 (1228800)
I0729 15:36:08.726251 11376 net.cpp:148] Top shape: 100 3 64 64 (1228800)
I0729 15:36:08.726261 11376 net.cpp:148] Top shape: 100 3 64 64 (1228800)
I0729 15:36:08.726272 11376 net.cpp:148] Top shape: 100 3 64 64 (1228800)
I0729 15:36:08.726282 11376 net.cpp:148] Top shape: 100 3 64 64 (1228800)
I0729 15:36:08.726294 11376 net.cpp:148] Top shape: 100 3 64 64 (1228800)
I0729 15:36:08.726301 11376 net.cpp:156] Memory required for data: 579994800
I0729 15:36:08.726310 11376 layer_factory.hpp:77] Creating layer Input1
I0729 15:36:08.726344 11376 net.cpp:91] Creating Layer Input1
I0729 15:36:08.726361 11376 net.cpp:399] Input1 -> Input1
I0729 15:36:08.726418 11376 net.cpp:141] Setting up Input1
I0729 15:36:08.726438 11376 net.cpp:148] Top shape: 100 3 64 64 (1228800)
I0729 15:36:08.726449 11376 net.cpp:156] Memory required for data: 584910000
I0729 15:36:08.726461 11376 layer_factory.hpp:77] Creating layer c11
I0729 15:36:08.726485 11376 net.cpp:91] Creating Layer c11
I0729 15:36:08.726498 11376 net.cpp:425] c11 <- i1_i1_0_split_1
I0729 15:36:08.726512 11376 net.cpp:425] c11 <- Input1
I0729 15:36:08.726528 11376 net.cpp:399] c11 -> c11
I0729 15:36:08.726590 11376 net.cpp:141] Setting up c11
I0729 15:36:08.726605 11376 net.cpp:148] Top shape: 100 3 64 64 (1228800)
I0729 15:36:08.726615 11376 net.cpp:156] Memory required for data: 589825200
I0729 15:36:08.726626 11376 layer_factory.hpp:77] Creating layer Input2
I0729 15:36:08.726644 11376 net.cpp:91] Creating Layer Input2
I0729 15:36:08.726656 11376 net.cpp:399] Input2 -> Input2
I0729 15:36:08.726706 11376 net.cpp:141] Setting up Input2
I0729 15:36:08.726722 11376 net.cpp:148] Top shape: 100 3 64 64 (1228800)
I0729 15:36:08.726733 11376 net.cpp:156] Memory required for data: 594740400
I0729 15:36:08.726744 11376 layer_factory.hpp:77] Creating layer c12
I0729 15:36:08.726760 11376 net.cpp:91] Creating Layer c12
I0729 15:36:08.726773 11376 net.cpp:425] c12 <- i1_i1_0_split_2
I0729 15:36:08.726786 11376 net.cpp:425] c12 <- Input2
I0729 15:36:08.726804 11376 net.cpp:399] c12 -> c12
I0729 15:36:08.726857 11376 net.cpp:141] Setting up c12
I0729 15:36:08.726873 11376 net.cpp:148] Top shape: 100 3 64 64 (1228800)
I0729 15:36:08.726886 11376 net.cpp:156] Memory required for data: 599655600
I0729 15:36:08.726897 11376 layer_factory.hpp:77] Creating layer Input3
I0729 15:36:08.726913 11376 net.cpp:91] Creating Layer Input3
I0729 15:36:08.726929 11376 net.cpp:399] Input3 -> Input3
I0729 15:36:08.726984 11376 net.cpp:141] Setting up Input3
I0729 15:36:08.727000 11376 net.cpp:148] Top shape: 100 3 64 64 (1228800)
I0729 15:36:08.727012 11376 net.cpp:156] Memory required for data: 604570800
I0729 15:36:08.727025 11376 layer_factory.hpp:77] Creating layer c13
I0729 15:36:08.727041 11376 net.cpp:91] Creating Layer c13
I0729 15:36:08.727053 11376 net.cpp:425] c13 <- i1_i1_0_split_3
I0729 15:36:08.727069 11376 net.cpp:425] c13 <- Input3
I0729 15:36:08.727087 11376 net.cpp:399] c13 -> c13
I0729 15:36:08.727143 11376 net.cpp:141] Setting up c13
I0729 15:36:08.727159 11376 net.cpp:148] Top shape: 100 3 64 64 (1228800)
I0729 15:36:08.727170 11376 net.cpp:156] Memory required for data: 609486000
I0729 15:36:08.727181 11376 layer_factory.hpp:77] Creating layer Input4
I0729 15:36:08.727198 11376 net.cpp:91] Creating Layer Input4
I0729 15:36:08.727212 11376 net.cpp:399] Input4 -> Input4
I0729 15:36:08.727265 11376 net.cpp:141] Setting up Input4
I0729 15:36:08.727303 11376 net.cpp:148] Top shape: 100 3 64 64 (1228800)
I0729 15:36:08.727314 11376 net.cpp:156] Memory required for data: 614401200
I0729 15:36:08.727326 11376 layer_factory.hpp:77] Creating layer c14
I0729 15:36:08.727345 11376 net.cpp:91] Creating Layer c14
I0729 15:36:08.727358 11376 net.cpp:425] c14 <- i1_i1_0_split_4
I0729 15:36:08.727373 11376 net.cpp:425] c14 <- Input4
I0729 15:36:08.727390 11376 net.cpp:399] c14 -> c14
I0729 15:36:08.727453 11376 net.cpp:141] Setting up c14
I0729 15:36:08.727485 11376 net.cpp:148] Top shape: 100 3 64 64 (1228800)
I0729 15:36:08.727495 11376 net.cpp:156] Memory required for data: 619316400
I0729 15:36:08.727506 11376 layer_factory.hpp:77] Creating layer Input5
I0729 15:36:08.727522 11376 net.cpp:91] Creating Layer Input5
I0729 15:36:08.727536 11376 net.cpp:399] Input5 -> Input5
I0729 15:36:08.727589 11376 net.cpp:141] Setting up Input5
I0729 15:36:08.727612 11376 net.cpp:148] Top shape: 100 3 64 64 (1228800)
I0729 15:36:08.727622 11376 net.cpp:156] Memory required for data: 624231600
I0729 15:36:08.727633 11376 layer_factory.hpp:77] Creating layer c15
I0729 15:36:08.727649 11376 net.cpp:91] Creating Layer c15
I0729 15:36:08.727689 11376 net.cpp:425] c15 <- i1_i1_0_split_5
I0729 15:36:08.727704 11376 net.cpp:425] c15 <- Input5
I0729 15:36:08.727721 11376 net.cpp:399] c15 -> c15
I0729 15:36:08.727780 11376 net.cpp:141] Setting up c15
I0729 15:36:08.727799 11376 net.cpp:148] Top shape: 100 3 64 64 (1228800)
I0729 15:36:08.727810 11376 net.cpp:156] Memory required for data: 629146800
I0729 15:36:08.727823 11376 layer_factory.hpp:77] Creating layer Input6
I0729 15:36:08.727839 11376 net.cpp:91] Creating Layer Input6
I0729 15:36:08.727854 11376 net.cpp:399] Input6 -> Input6
I0729 15:36:08.727908 11376 net.cpp:141] Setting up Input6
I0729 15:36:08.727924 11376 net.cpp:148] Top shape: 100 3 64 64 (1228800)
I0729 15:36:08.727936 11376 net.cpp:156] Memory required for data: 634062000
I0729 15:36:08.727947 11376 layer_factory.hpp:77] Creating layer c16
I0729 15:36:08.727963 11376 net.cpp:91] Creating Layer c16
I0729 15:36:08.727977 11376 net.cpp:425] c16 <- i1_i1_0_split_6
I0729 15:36:08.727993 11376 net.cpp:425] c16 <- Input6
I0729 15:36:08.728009 11376 net.cpp:399] c16 -> c16
I0729 15:36:08.728060 11376 net.cpp:141] Setting up c16
I0729 15:36:08.728076 11376 net.cpp:148] Top shape: 100 3 64 64 (1228800)
I0729 15:36:08.728085 11376 net.cpp:156] Memory required for data: 638977200
I0729 15:36:08.728093 11376 layer_factory.hpp:77] Creating layer Input7
I0729 15:36:08.728106 11376 net.cpp:91] Creating Layer Input7
I0729 15:36:08.728118 11376 net.cpp:399] Input7 -> Input7
I0729 15:36:08.728157 11376 net.cpp:141] Setting up Input7
I0729 15:36:08.728173 11376 net.cpp:148] Top shape: 100 3 64 64 (1228800)
I0729 15:36:08.728180 11376 net.cpp:156] Memory required for data: 643892400
I0729 15:36:08.728189 11376 layer_factory.hpp:77] Creating layer c17
I0729 15:36:08.728201 11376 net.cpp:91] Creating Layer c17
I0729 15:36:08.728210 11376 net.cpp:425] c17 <- i1_i1_0_split_7
I0729 15:36:08.728222 11376 net.cpp:425] c17 <- Input7
I0729 15:36:08.728236 11376 net.cpp:399] c17 -> c17
I0729 15:36:08.728278 11376 net.cpp:141] Setting up c17
I0729 15:36:08.728291 11376 net.cpp:148] Top shape: 100 3 64 64 (1228800)
I0729 15:36:08.728301 11376 net.cpp:156] Memory required for data: 648807600
I0729 15:36:08.728309 11376 layer_factory.hpp:77] Creating layer Input8
I0729 15:36:08.728322 11376 net.cpp:91] Creating Layer Input8
I0729 15:36:08.728332 11376 net.cpp:399] Input8 -> Input8
I0729 15:36:08.728374 11376 net.cpp:141] Setting up Input8
I0729 15:36:08.728386 11376 net.cpp:148] Top shape: 100 3 64 64 (1228800)
I0729 15:36:08.728395 11376 net.cpp:156] Memory required for data: 653722800
I0729 15:36:08.728404 11376 layer_factory.hpp:77] Creating layer c18
I0729 15:36:08.728415 11376 net.cpp:91] Creating Layer c18
I0729 15:36:08.728425 11376 net.cpp:425] c18 <- i1_i1_0_split_8
I0729 15:36:08.728436 11376 net.cpp:425] c18 <- Input8
I0729 15:36:08.728451 11376 net.cpp:399] c18 -> c18
I0729 15:36:08.728492 11376 net.cpp:141] Setting up c18
I0729 15:36:08.728507 11376 net.cpp:148] Top shape: 100 3 64 64 (1228800)
I0729 15:36:08.728515 11376 net.cpp:156] Memory required for data: 658638000
I0729 15:36:08.728524 11376 layer_factory.hpp:77] Creating layer Input9
I0729 15:36:08.728535 11376 net.cpp:91] Creating Layer Input9
I0729 15:36:08.728548 11376 net.cpp:399] Input9 -> Input9
I0729 15:36:08.728598 11376 net.cpp:141] Setting up Input9
I0729 15:36:08.728613 11376 net.cpp:148] Top shape: 100 3 64 64 (1228800)
I0729 15:36:08.728622 11376 net.cpp:156] Memory required for data: 663553200
I0729 15:36:08.728631 11376 layer_factory.hpp:77] Creating layer c19
I0729 15:36:08.728643 11376 net.cpp:91] Creating Layer c19
I0729 15:36:08.728653 11376 net.cpp:425] c19 <- i1_i1_0_split_9
I0729 15:36:08.728667 11376 net.cpp:425] c19 <- Input9
I0729 15:36:08.728682 11376 net.cpp:399] c19 -> c19
I0729 15:36:08.728724 11376 net.cpp:141] Setting up c19
I0729 15:36:08.728737 11376 net.cpp:148] Top shape: 100 3 64 64 (1228800)
I0729 15:36:08.728746 11376 net.cpp:156] Memory required for data: 668468400
I0729 15:36:08.728755 11376 layer_factory.hpp:77] Creating layer Input10
I0729 15:36:08.728785 11376 net.cpp:91] Creating Layer Input10
I0729 15:36:08.728801 11376 net.cpp:399] Input10 -> Input10
I0729 15:36:08.728840 11376 net.cpp:141] Setting up Input10
I0729 15:36:08.728854 11376 net.cpp:148] Top shape: 100 3 64 64 (1228800)
I0729 15:36:08.728863 11376 net.cpp:156] Memory required for data: 673383600
I0729 15:36:08.728871 11376 layer_factory.hpp:77] Creating layer c21
I0729 15:36:08.728883 11376 net.cpp:91] Creating Layer c21
I0729 15:36:08.728893 11376 net.cpp:425] c21 <- i2_i1_1_split_1
I0729 15:36:08.728905 11376 net.cpp:425] c21 <- Input10
I0729 15:36:08.728920 11376 net.cpp:399] c21 -> c21
I0729 15:36:08.728962 11376 net.cpp:141] Setting up c21
I0729 15:36:08.728977 11376 net.cpp:148] Top shape: 100 3 64 64 (1228800)
I0729 15:36:08.728986 11376 net.cpp:156] Memory required for data: 678298800
I0729 15:36:08.728994 11376 layer_factory.hpp:77] Creating layer Input11
I0729 15:36:08.729007 11376 net.cpp:91] Creating Layer Input11
I0729 15:36:08.729017 11376 net.cpp:399] Input11 -> Input11
I0729 15:36:08.729056 11376 net.cpp:141] Setting up Input11
I0729 15:36:08.729070 11376 net.cpp:148] Top shape: 100 3 64 64 (1228800)
I0729 15:36:08.729079 11376 net.cpp:156] Memory required for data: 683214000
I0729 15:36:08.729087 11376 layer_factory.hpp:77] Creating layer c22
I0729 15:36:08.729099 11376 net.cpp:91] Creating Layer c22
I0729 15:36:08.729109 11376 net.cpp:425] c22 <- i2_i1_1_split_2
I0729 15:36:08.729120 11376 net.cpp:425] c22 <- Input11
I0729 15:36:08.729135 11376 net.cpp:399] c22 -> c22
I0729 15:36:08.729176 11376 net.cpp:141] Setting up c22
I0729 15:36:08.729190 11376 net.cpp:148] Top shape: 100 3 64 64 (1228800)
I0729 15:36:08.729198 11376 net.cpp:156] Memory required for data: 688129200
I0729 15:36:08.729207 11376 layer_factory.hpp:77] Creating layer Input12
I0729 15:36:08.729219 11376 net.cpp:91] Creating Layer Input12
I0729 15:36:08.729230 11376 net.cpp:399] Input12 -> Input12
I0729 15:36:08.729274 11376 net.cpp:141] Setting up Input12
I0729 15:36:08.729287 11376 net.cpp:148] Top shape: 100 3 64 64 (1228800)
I0729 15:36:08.729295 11376 net.cpp:156] Memory required for data: 693044400
I0729 15:36:08.729305 11376 layer_factory.hpp:77] Creating layer c23
I0729 15:36:08.729322 11376 net.cpp:91] Creating Layer c23
I0729 15:36:08.729333 11376 net.cpp:425] c23 <- i2_i1_1_split_3
I0729 15:36:08.729346 11376 net.cpp:425] c23 <- Input12
I0729 15:36:08.729358 11376 net.cpp:399] c23 -> c23
I0729 15:36:08.729400 11376 net.cpp:141] Setting up c23
I0729 15:36:08.729414 11376 net.cpp:148] Top shape: 100 3 64 64 (1228800)
I0729 15:36:08.729423 11376 net.cpp:156] Memory required for data: 697959600
I0729 15:36:08.729431 11376 layer_factory.hpp:77] Creating layer Input13
I0729 15:36:08.729444 11376 net.cpp:91] Creating Layer Input13
I0729 15:36:08.729455 11376 net.cpp:399] Input13 -> Input13
I0729 15:36:08.729493 11376 net.cpp:141] Setting up Input13
I0729 15:36:08.729507 11376 net.cpp:148] Top shape: 100 3 64 64 (1228800)
I0729 15:36:08.729516 11376 net.cpp:156] Memory required for data: 702874800
I0729 15:36:08.729524 11376 layer_factory.hpp:77] Creating layer c24
I0729 15:36:08.729537 11376 net.cpp:91] Creating Layer c24
I0729 15:36:08.729545 11376 net.cpp:425] c24 <- i2_i1_1_split_4
I0729 15:36:08.729557 11376 net.cpp:425] c24 <- Input13
I0729 15:36:08.729573 11376 net.cpp:399] c24 -> c24
I0729 15:36:08.729614 11376 net.cpp:141] Setting up c24
I0729 15:36:08.729627 11376 net.cpp:148] Top shape: 100 3 64 64 (1228800)
I0729 15:36:08.729636 11376 net.cpp:156] Memory required for data: 707790000
I0729 15:36:08.729645 11376 layer_factory.hpp:77] Creating layer Input14
I0729 15:36:08.729656 11376 net.cpp:91] Creating Layer Input14
I0729 15:36:08.729667 11376 net.cpp:399] Input14 -> Input14
I0729 15:36:08.729708 11376 net.cpp:141] Setting up Input14
I0729 15:36:08.729722 11376 net.cpp:148] Top shape: 100 3 64 64 (1228800)
I0729 15:36:08.729730 11376 net.cpp:156] Memory required for data: 712705200
I0729 15:36:08.729739 11376 layer_factory.hpp:77] Creating layer c25
I0729 15:36:08.729750 11376 net.cpp:91] Creating Layer c25
I0729 15:36:08.729774 11376 net.cpp:425] c25 <- i2_i1_1_split_5
I0729 15:36:08.729786 11376 net.cpp:425] c25 <- Input14
I0729 15:36:08.729800 11376 net.cpp:399] c25 -> c25
I0729 15:36:08.729842 11376 net.cpp:141] Setting up c25
I0729 15:36:08.729856 11376 net.cpp:148] Top shape: 100 3 64 64 (1228800)
I0729 15:36:08.729866 11376 net.cpp:156] Memory required for data: 717620400
I0729 15:36:08.729874 11376 layer_factory.hpp:77] Creating layer Input15
I0729 15:36:08.729887 11376 net.cpp:91] Creating Layer Input15
I0729 15:36:08.729897 11376 net.cpp:399] Input15 -> Input15
I0729 15:36:08.729936 11376 net.cpp:141] Setting up Input15
I0729 15:36:08.729950 11376 net.cpp:148] Top shape: 100 3 64 64 (1228800)
I0729 15:36:08.729959 11376 net.cpp:156] Memory required for data: 722535600
I0729 15:36:08.729967 11376 layer_factory.hpp:77] Creating layer c26
I0729 15:36:08.729979 11376 net.cpp:91] Creating Layer c26
I0729 15:36:08.729989 11376 net.cpp:425] c26 <- i2_i1_1_split_6
I0729 15:36:08.730000 11376 net.cpp:425] c26 <- Input15
I0729 15:36:08.730013 11376 net.cpp:399] c26 -> c26
I0729 15:36:08.730056 11376 net.cpp:141] Setting up c26
I0729 15:36:08.730069 11376 net.cpp:148] Top shape: 100 3 64 64 (1228800)
I0729 15:36:08.730077 11376 net.cpp:156] Memory required for data: 727450800
I0729 15:36:08.730087 11376 layer_factory.hpp:77] Creating layer Input16
I0729 15:36:08.730098 11376 net.cpp:91] Creating Layer Input16
I0729 15:36:08.730110 11376 net.cpp:399] Input16 -> Input16
I0729 15:36:08.730151 11376 net.cpp:141] Setting up Input16
I0729 15:36:08.730165 11376 net.cpp:148] Top shape: 100 3 64 64 (1228800)
I0729 15:36:08.730173 11376 net.cpp:156] Memory required for data: 732366000
I0729 15:36:08.730181 11376 layer_factory.hpp:77] Creating layer c27
I0729 15:36:08.730193 11376 net.cpp:91] Creating Layer c27
I0729 15:36:08.730202 11376 net.cpp:425] c27 <- i2_i1_1_split_7
I0729 15:36:08.730214 11376 net.cpp:425] c27 <- Input16
I0729 15:36:08.730232 11376 net.cpp:399] c27 -> c27
I0729 15:36:08.730273 11376 net.cpp:141] Setting up c27
I0729 15:36:08.730286 11376 net.cpp:148] Top shape: 100 3 64 64 (1228800)
I0729 15:36:08.730294 11376 net.cpp:156] Memory required for data: 737281200
I0729 15:36:08.730304 11376 layer_factory.hpp:77] Creating layer Input17
I0729 15:36:08.730315 11376 net.cpp:91] Creating Layer Input17
I0729 15:36:08.730327 11376 net.cpp:399] Input17 -> Input17
I0729 15:36:08.730367 11376 net.cpp:141] Setting up Input17
I0729 15:36:08.730379 11376 net.cpp:148] Top shape: 100 3 64 64 (1228800)
I0729 15:36:08.730387 11376 net.cpp:156] Memory required for data: 742196400
I0729 15:36:08.730396 11376 layer_factory.hpp:77] Creating layer c28
I0729 15:36:08.730407 11376 net.cpp:91] Creating Layer c28
I0729 15:36:08.730417 11376 net.cpp:425] c28 <- i2_i1_1_split_8
I0729 15:36:08.730428 11376 net.cpp:425] c28 <- Input17
I0729 15:36:08.730442 11376 net.cpp:399] c28 -> c28
I0729 15:36:08.730484 11376 net.cpp:141] Setting up c28
I0729 15:36:08.730497 11376 net.cpp:148] Top shape: 100 3 64 64 (1228800)
I0729 15:36:08.730505 11376 net.cpp:156] Memory required for data: 747111600
I0729 15:36:08.730514 11376 layer_factory.hpp:77] Creating layer Input18
I0729 15:36:08.730526 11376 net.cpp:91] Creating Layer Input18
I0729 15:36:08.730540 11376 net.cpp:399] Input18 -> Input18
I0729 15:36:08.730579 11376 net.cpp:141] Setting up Input18
I0729 15:36:08.730592 11376 net.cpp:148] Top shape: 100 3 64 64 (1228800)
I0729 15:36:08.730602 11376 net.cpp:156] Memory required for data: 752026800
I0729 15:36:08.730609 11376 layer_factory.hpp:77] Creating layer c29
I0729 15:36:08.730621 11376 net.cpp:91] Creating Layer c29
I0729 15:36:08.730630 11376 net.cpp:425] c29 <- i2_i1_1_split_9
I0729 15:36:08.730643 11376 net.cpp:425] c29 <- Input18
I0729 15:36:08.730659 11376 net.cpp:399] c29 -> c29
I0729 15:36:08.730701 11376 net.cpp:141] Setting up c29
I0729 15:36:08.730715 11376 net.cpp:148] Top shape: 100 3 64 64 (1228800)
I0729 15:36:08.730723 11376 net.cpp:156] Memory required for data: 756942000
I0729 15:36:08.730732 11376 layer_factory.hpp:77] Creating layer Convolution1
I0729 15:36:08.730772 11376 net.cpp:91] Creating Layer Convolution1
I0729 15:36:08.730782 11376 net.cpp:425] Convolution1 <- p1_p1_0_split_0
I0729 15:36:08.730798 11376 net.cpp:399] Convolution1 -> Convolution1
I0729 15:36:08.731987 11376 net.cpp:141] Setting up Convolution1
I0729 15:36:08.732002 11376 net.cpp:148] Top shape: 100 20 60 60 (7200000)
I0729 15:36:08.732009 11376 net.cpp:156] Memory required for data: 785742000
I0729 15:36:08.732028 11376 layer_factory.hpp:77] Creating layer Pooling1
I0729 15:36:08.732039 11376 net.cpp:91] Creating Layer Pooling1
I0729 15:36:08.732048 11376 net.cpp:425] Pooling1 <- Convolution1
I0729 15:36:08.732059 11376 net.cpp:399] Pooling1 -> Pooling1
I0729 15:36:08.732110 11376 net.cpp:141] Setting up Pooling1
I0729 15:36:08.732120 11376 net.cpp:148] Top shape: 100 20 30 30 (1800000)
I0729 15:36:08.732126 11376 net.cpp:156] Memory required for data: 792942000
I0729 15:36:08.732133 11376 layer_factory.hpp:77] Creating layer Convolution2
I0729 15:36:08.732147 11376 net.cpp:91] Creating Layer Convolution2
I0729 15:36:08.732154 11376 net.cpp:425] Convolution2 <- Pooling1
I0729 15:36:08.732166 11376 net.cpp:399] Convolution2 -> Convolution2
I0729 15:36:08.733928 11376 net.cpp:141] Setting up Convolution2
I0729 15:36:08.733944 11376 net.cpp:148] Top shape: 100 50 26 26 (3380000)
I0729 15:36:08.733952 11376 net.cpp:156] Memory required for data: 806462000
I0729 15:36:08.733965 11376 layer_factory.hpp:77] Creating layer Pooling2
I0729 15:36:08.733976 11376 net.cpp:91] Creating Layer Pooling2
I0729 15:36:08.733984 11376 net.cpp:425] Pooling2 <- Convolution2
I0729 15:36:08.733995 11376 net.cpp:399] Pooling2 -> Pooling2
I0729 15:36:08.734048 11376 net.cpp:141] Setting up Pooling2
I0729 15:36:08.734057 11376 net.cpp:148] Top shape: 100 50 13 13 (845000)
I0729 15:36:08.734064 11376 net.cpp:156] Memory required for data: 809842000
I0729 15:36:08.734071 11376 layer_factory.hpp:77] Creating layer InnerProduct1
I0729 15:36:08.734083 11376 net.cpp:91] Creating Layer InnerProduct1
I0729 15:36:08.734091 11376 net.cpp:425] InnerProduct1 <- Pooling2
I0729 15:36:08.734100 11376 net.cpp:399] InnerProduct1 -> InnerProduct1
I0729 15:36:08.743304 11376 net.cpp:141] Setting up InnerProduct1
I0729 15:36:08.743331 11376 net.cpp:148] Top shape: 100 100 (10000)
I0729 15:36:08.743337 11376 net.cpp:156] Memory required for data: 809882000
I0729 15:36:08.743357 11376 layer_factory.hpp:77] Creating layer ReLU1
I0729 15:36:08.743371 11376 net.cpp:91] Creating Layer ReLU1
I0729 15:36:08.743379 11376 net.cpp:425] ReLU1 <- InnerProduct1
I0729 15:36:08.743389 11376 net.cpp:386] ReLU1 -> InnerProduct1 (in-place)
I0729 15:36:08.743402 11376 net.cpp:141] Setting up ReLU1
I0729 15:36:08.743409 11376 net.cpp:148] Top shape: 100 100 (10000)
I0729 15:36:08.743415 11376 net.cpp:156] Memory required for data: 809922000
I0729 15:36:08.743422 11376 layer_factory.hpp:77] Creating layer InnerProduct2
I0729 15:36:08.743432 11376 net.cpp:91] Creating Layer InnerProduct2
I0729 15:36:08.743439 11376 net.cpp:425] InnerProduct2 <- InnerProduct1
I0729 15:36:08.743449 11376 net.cpp:399] InnerProduct2 -> InnerProduct2
I0729 15:36:08.744271 11376 net.cpp:141] Setting up InnerProduct2
I0729 15:36:08.744282 11376 net.cpp:148] Top shape: 100 50 (5000)
I0729 15:36:08.744288 11376 net.cpp:156] Memory required for data: 809942000
I0729 15:36:08.744298 11376 layer_factory.hpp:77] Creating layer Convolution3
I0729 15:36:08.744313 11376 net.cpp:91] Creating Layer Convolution3
I0729 15:36:08.744321 11376 net.cpp:425] Convolution3 <- p2_p2_0_split_0
I0729 15:36:08.744333 11376 net.cpp:399] Convolution3 -> Convolution3
I0729 15:36:08.744660 11376 net.cpp:141] Setting up Convolution3
I0729 15:36:08.744668 11376 net.cpp:148] Top shape: 100 20 60 60 (7200000)
I0729 15:36:08.744674 11376 net.cpp:156] Memory required for data: 838742000
I0729 15:36:08.744683 11376 net.cpp:484] Sharing parameters 'conv1_w' owned by layer 'Convolution1', param index 0
I0729 15:36:08.744691 11376 net.cpp:484] Sharing parameters 'conv1_b' owned by layer 'Convolution1', param index 1
I0729 15:36:08.744721 11376 layer_factory.hpp:77] Creating layer Pooling3
I0729 15:36:08.744732 11376 net.cpp:91] Creating Layer Pooling3
I0729 15:36:08.744740 11376 net.cpp:425] Pooling3 <- Convolution3
I0729 15:36:08.744750 11376 net.cpp:399] Pooling3 -> Pooling3
I0729 15:36:08.744796 11376 net.cpp:141] Setting up Pooling3
I0729 15:36:08.744803 11376 net.cpp:148] Top shape: 100 20 30 30 (1800000)
I0729 15:36:08.744809 11376 net.cpp:156] Memory required for data: 845942000
I0729 15:36:08.744815 11376 layer_factory.hpp:77] Creating layer Convolution4
I0729 15:36:08.744827 11376 net.cpp:91] Creating Layer Convolution4
I0729 15:36:08.744834 11376 net.cpp:425] Convolution4 <- Pooling3
I0729 15:36:08.744844 11376 net.cpp:399] Convolution4 -> Convolution4
I0729 15:36:08.745343 11376 net.cpp:141] Setting up Convolution4
I0729 15:36:08.745352 11376 net.cpp:148] Top shape: 100 50 26 26 (3380000)
I0729 15:36:08.745357 11376 net.cpp:156] Memory required for data: 859462000
I0729 15:36:08.745364 11376 net.cpp:484] Sharing parameters 'conv2_w' owned by layer 'Convolution2', param index 0
I0729 15:36:08.745371 11376 net.cpp:484] Sharing parameters 'conv2_b' owned by layer 'Convolution2', param index 1
I0729 15:36:08.745378 11376 layer_factory.hpp:77] Creating layer Pooling4
I0729 15:36:08.745386 11376 net.cpp:91] Creating Layer Pooling4
I0729 15:36:08.745393 11376 net.cpp:425] Pooling4 <- Convolution4
I0729 15:36:08.745403 11376 net.cpp:399] Pooling4 -> Pooling4
I0729 15:36:08.745445 11376 net.cpp:141] Setting up Pooling4
I0729 15:36:08.745453 11376 net.cpp:148] Top shape: 100 50 13 13 (845000)
I0729 15:36:08.745460 11376 net.cpp:156] Memory required for data: 862842000
I0729 15:36:08.745465 11376 layer_factory.hpp:77] Creating layer InnerProduct3
I0729 15:36:08.745476 11376 net.cpp:91] Creating Layer InnerProduct3
I0729 15:36:08.745481 11376 net.cpp:425] InnerProduct3 <- Pooling4
I0729 15:36:08.745491 11376 net.cpp:399] InnerProduct3 -> InnerProduct3
I0729 15:36:08.753808 11376 net.cpp:141] Setting up InnerProduct3
I0729 15:36:08.753832 11376 net.cpp:148] Top shape: 100 100 (10000)
I0729 15:36:08.753839 11376 net.cpp:156] Memory required for data: 862882000
I0729 15:36:08.753849 11376 net.cpp:484] Sharing parameters 'ip1_w' owned by layer 'InnerProduct1', param index 0
I0729 15:36:08.753857 11376 net.cpp:484] Sharing parameters 'ip1_b' owned by layer 'InnerProduct1', param index 1
I0729 15:36:08.753865 11376 layer_factory.hpp:77] Creating layer ReLU2
I0729 15:36:08.753877 11376 net.cpp:91] Creating Layer ReLU2
I0729 15:36:08.753886 11376 net.cpp:425] ReLU2 <- InnerProduct3
I0729 15:36:08.753896 11376 net.cpp:386] ReLU2 -> InnerProduct3 (in-place)
I0729 15:36:08.753909 11376 net.cpp:141] Setting up ReLU2
I0729 15:36:08.753916 11376 net.cpp:148] Top shape: 100 100 (10000)
I0729 15:36:08.753922 11376 net.cpp:156] Memory required for data: 862922000
I0729 15:36:08.753928 11376 layer_factory.hpp:77] Creating layer InnerProduct4
I0729 15:36:08.753940 11376 net.cpp:91] Creating Layer InnerProduct4
I0729 15:36:08.753947 11376 net.cpp:425] InnerProduct4 <- InnerProduct3
I0729 15:36:08.753957 11376 net.cpp:399] InnerProduct4 -> InnerProduct4
I0729 15:36:08.754129 11376 net.cpp:141] Setting up InnerProduct4
I0729 15:36:08.754137 11376 net.cpp:148] Top shape: 100 50 (5000)
I0729 15:36:08.754143 11376 net.cpp:156] Memory required for data: 862942000
I0729 15:36:08.754150 11376 net.cpp:484] Sharing parameters 'ip2_w' owned by layer 'InnerProduct2', param index 0
I0729 15:36:08.754158 11376 net.cpp:484] Sharing parameters 'ip2_b' owned by layer 'InnerProduct2', param index 1
I0729 15:36:08.754163 11376 layer_factory.hpp:77] Creating layer Concat1
I0729 15:36:08.754182 11376 net.cpp:91] Creating Layer Concat1
I0729 15:36:08.754189 11376 net.cpp:425] Concat1 <- InnerProduct2
I0729 15:36:08.754197 11376 net.cpp:425] Concat1 <- InnerProduct4
I0729 15:36:08.754207 11376 net.cpp:399] Concat1 -> Concat1
I0729 15:36:08.754240 11376 net.cpp:141] Setting up Concat1
I0729 15:36:08.754247 11376 net.cpp:148] Top shape: 100 100 (10000)
I0729 15:36:08.754277 11376 net.cpp:156] Memory required for data: 862982000
I0729 15:36:08.754284 11376 layer_factory.hpp:77] Creating layer InnerProduct5
I0729 15:36:08.754293 11376 net.cpp:91] Creating Layer InnerProduct5
I0729 15:36:08.754300 11376 net.cpp:425] InnerProduct5 <- Concat1
I0729 15:36:08.754312 11376 net.cpp:399] InnerProduct5 -> InnerProduct5
I0729 15:36:08.754487 11376 net.cpp:141] Setting up InnerProduct5
I0729 15:36:08.754494 11376 net.cpp:148] Top shape: 100 64 (6400)
I0729 15:36:08.754500 11376 net.cpp:156] Memory required for data: 863007600
I0729 15:36:08.754516 11376 layer_factory.hpp:77] Creating layer ReLU3
I0729 15:36:08.754524 11376 net.cpp:91] Creating Layer ReLU3
I0729 15:36:08.754531 11376 net.cpp:425] ReLU3 <- InnerProduct5
I0729 15:36:08.754539 11376 net.cpp:386] ReLU3 -> InnerProduct5 (in-place)
I0729 15:36:08.754549 11376 net.cpp:141] Setting up ReLU3
I0729 15:36:08.754556 11376 net.cpp:148] Top shape: 100 64 (6400)
I0729 15:36:08.754561 11376 net.cpp:156] Memory required for data: 863033200
I0729 15:36:08.754567 11376 layer_factory.hpp:77] Creating layer InnerProduct6
I0729 15:36:08.754576 11376 net.cpp:91] Creating Layer InnerProduct6
I0729 15:36:08.754582 11376 net.cpp:425] InnerProduct6 <- InnerProduct5
I0729 15:36:08.754592 11376 net.cpp:399] InnerProduct6 -> InnerProduct6
I0729 15:36:08.754734 11376 net.cpp:141] Setting up InnerProduct6
I0729 15:36:08.754742 11376 net.cpp:148] Top shape: 100 32 (3200)
I0729 15:36:08.754747 11376 net.cpp:156] Memory required for data: 863046000
I0729 15:36:08.754756 11376 layer_factory.hpp:77] Creating layer ReLU4
I0729 15:36:08.754765 11376 net.cpp:91] Creating Layer ReLU4
I0729 15:36:08.754770 11376 net.cpp:425] ReLU4 <- InnerProduct6
I0729 15:36:08.754779 11376 net.cpp:386] ReLU4 -> InnerProduct6 (in-place)
I0729 15:36:08.754788 11376 net.cpp:141] Setting up ReLU4
I0729 15:36:08.754796 11376 net.cpp:148] Top shape: 100 32 (3200)
I0729 15:36:08.754801 11376 net.cpp:156] Memory required for data: 863058800
I0729 15:36:08.754806 11376 layer_factory.hpp:77] Creating layer dt0
I0729 15:36:08.754833 11376 net.cpp:91] Creating Layer dt0
I0729 15:36:08.754839 11376 net.cpp:425] dt0 <- InnerProduct6
I0729 15:36:08.754850 11376 net.cpp:399] dt0 -> dt0
I0729 15:36:08.754976 11376 net.cpp:141] Setting up dt0
I0729 15:36:08.754984 11376 net.cpp:148] Top shape: 100 2 (200)
I0729 15:36:08.754989 11376 net.cpp:156] Memory required for data: 863059600
I0729 15:36:08.754999 11376 layer_factory.hpp:77] Creating layer Convolution5
I0729 15:36:08.755012 11376 net.cpp:91] Creating Layer Convolution5
I0729 15:36:08.755019 11376 net.cpp:425] Convolution5 <- p1_p1_0_split_1
I0729 15:36:08.755029 11376 net.cpp:399] Convolution5 -> Convolution5
I0729 15:36:08.755424 11376 net.cpp:141] Setting up Convolution5
I0729 15:36:08.755437 11376 net.cpp:148] Top shape: 100 20 60 60 (7200000)
I0729 15:36:08.755445 11376 net.cpp:156] Memory required for data: 891859600
I0729 15:36:08.755455 11376 net.cpp:484] Sharing parameters 'conv1_w' owned by layer 'Convolution1', param index 0
I0729 15:36:08.755465 11376 net.cpp:484] Sharing parameters 'conv1_b' owned by layer 'Convolution1', param index 1
I0729 15:36:08.755472 11376 layer_factory.hpp:77] Creating layer Pooling5
I0729 15:36:08.755486 11376 net.cpp:91] Creating Layer Pooling5
I0729 15:36:08.755494 11376 net.cpp:425] Pooling5 <- Convolution5
I0729 15:36:08.755507 11376 net.cpp:399] Pooling5 -> Pooling5
I0729 15:36:08.755566 11376 net.cpp:141] Setting up Pooling5
I0729 15:36:08.755578 11376 net.cpp:148] Top shape: 100 20 30 30 (1800000)
I0729 15:36:08.755584 11376 net.cpp:156] Memory required for data: 899059600
I0729 15:36:08.755592 11376 layer_factory.hpp:77] Creating layer Convolution6
I0729 15:36:08.755609 11376 net.cpp:91] Creating Layer Convolution6
I0729 15:36:08.755619 11376 net.cpp:425] Convolution6 <- Pooling5
I0729 15:36:08.755631 11376 net.cpp:399] Convolution6 -> Convolution6
I0729 15:36:08.756208 11376 net.cpp:141] Setting up Convolution6
I0729 15:36:08.756224 11376 net.cpp:148] Top shape: 100 50 26 26 (3380000)
I0729 15:36:08.756250 11376 net.cpp:156] Memory required for data: 912579600
I0729 15:36:08.756259 11376 net.cpp:484] Sharing parameters 'conv2_w' owned by layer 'Convolution2', param index 0
I0729 15:36:08.756269 11376 net.cpp:484] Sharing parameters 'conv2_b' owned by layer 'Convolution2', param index 1
I0729 15:36:08.756279 11376 layer_factory.hpp:77] Creating layer Pooling6
I0729 15:36:08.756292 11376 net.cpp:91] Creating Layer Pooling6
I0729 15:36:08.756301 11376 net.cpp:425] Pooling6 <- Convolution6
I0729 15:36:08.756315 11376 net.cpp:399] Pooling6 -> Pooling6
I0729 15:36:08.756378 11376 net.cpp:141] Setting up Pooling6
I0729 15:36:08.756391 11376 net.cpp:148] Top shape: 100 50 13 13 (845000)
I0729 15:36:08.756399 11376 net.cpp:156] Memory required for data: 915959600
I0729 15:36:08.756407 11376 layer_factory.hpp:77] Creating layer InnerProduct7
I0729 15:36:08.756423 11376 net.cpp:91] Creating Layer InnerProduct7
I0729 15:36:08.756433 11376 net.cpp:425] InnerProduct7 <- Pooling6
I0729 15:36:08.756448 11376 net.cpp:399] InnerProduct7 -> InnerProduct7
I0729 15:36:08.765548 11376 net.cpp:141] Setting up InnerProduct7
I0729 15:36:08.765576 11376 net.cpp:148] Top shape: 100 100 (10000)
I0729 15:36:08.765583 11376 net.cpp:156] Memory required for data: 915999600
I0729 15:36:08.765594 11376 net.cpp:484] Sharing parameters 'ip1_w' owned by layer 'InnerProduct1', param index 0
I0729 15:36:08.765604 11376 net.cpp:484] Sharing parameters 'ip1_b' owned by layer 'InnerProduct1', param index 1
I0729 15:36:08.765611 11376 layer_factory.hpp:77] Creating layer ReLU5
I0729 15:36:08.765625 11376 net.cpp:91] Creating Layer ReLU5
I0729 15:36:08.765633 11376 net.cpp:425] ReLU5 <- InnerProduct7
I0729 15:36:08.765645 11376 net.cpp:386] ReLU5 -> InnerProduct7 (in-place)
I0729 15:36:08.765660 11376 net.cpp:141] Setting up ReLU5
I0729 15:36:08.765666 11376 net.cpp:148] Top shape: 100 100 (10000)
I0729 15:36:08.765672 11376 net.cpp:156] Memory required for data: 916039600
I0729 15:36:08.765678 11376 layer_factory.hpp:77] Creating layer InnerProduct8
I0729 15:36:08.765691 11376 net.cpp:91] Creating Layer InnerProduct8
I0729 15:36:08.765697 11376 net.cpp:425] InnerProduct8 <- InnerProduct7
I0729 15:36:08.765707 11376 net.cpp:399] InnerProduct8 -> InnerProduct8
I0729 15:36:08.765894 11376 net.cpp:141] Setting up InnerProduct8
I0729 15:36:08.765903 11376 net.cpp:148] Top shape: 100 50 (5000)
I0729 15:36:08.765909 11376 net.cpp:156] Memory required for data: 916059600
I0729 15:36:08.765916 11376 net.cpp:484] Sharing parameters 'ip2_w' owned by layer 'InnerProduct2', param index 0
I0729 15:36:08.765924 11376 net.cpp:484] Sharing parameters 'ip2_b' owned by layer 'InnerProduct2', param index 1
I0729 15:36:08.765930 11376 layer_factory.hpp:77] Creating layer Convolution7
I0729 15:36:08.765945 11376 net.cpp:91] Creating Layer Convolution7
I0729 15:36:08.765952 11376 net.cpp:425] Convolution7 <- c21
I0729 15:36:08.765964 11376 net.cpp:399] Convolution7 -> Convolution7
I0729 15:36:08.766324 11376 net.cpp:141] Setting up Convolution7
I0729 15:36:08.766333 11376 net.cpp:148] Top shape: 100 20 60 60 (7200000)
I0729 15:36:08.766340 11376 net.cpp:156] Memory required for data: 944859600
I0729 15:36:08.766346 11376 net.cpp:484] Sharing parameters 'conv1_w' owned by layer 'Convolution1', param index 0
I0729 15:36:08.766355 11376 net.cpp:484] Sharing parameters 'conv1_b' owned by layer 'Convolution1', param index 1
I0729 15:36:08.766361 11376 layer_factory.hpp:77] Creating layer Pooling7
I0729 15:36:08.766371 11376 net.cpp:91] Creating Layer Pooling7
I0729 15:36:08.766377 11376 net.cpp:425] Pooling7 <- Convolution7
I0729 15:36:08.766387 11376 net.cpp:399] Pooling7 -> Pooling7
I0729 15:36:08.766433 11376 net.cpp:141] Setting up Pooling7
I0729 15:36:08.766441 11376 net.cpp:148] Top shape: 100 20 30 30 (1800000)
I0729 15:36:08.766448 11376 net.cpp:156] Memory required for data: 952059600
I0729 15:36:08.766453 11376 layer_factory.hpp:77] Creating layer Convolution8
I0729 15:36:08.766465 11376 net.cpp:91] Creating Layer Convolution8
I0729 15:36:08.766471 11376 net.cpp:425] Convolution8 <- Pooling7
I0729 15:36:08.766505 11376 net.cpp:399] Convolution8 -> Convolution8
I0729 15:36:08.767030 11376 net.cpp:141] Setting up Convolution8
I0729 15:36:08.767040 11376 net.cpp:148] Top shape: 100 50 26 26 (3380000)
I0729 15:36:08.767045 11376 net.cpp:156] Memory required for data: 965579600
I0729 15:36:08.767065 11376 net.cpp:484] Sharing parameters 'conv2_w' owned by layer 'Convolution2', param index 0
I0729 15:36:08.767076 11376 net.cpp:484] Sharing parameters 'conv2_b' owned by layer 'Convolution2', param index 1
I0729 15:36:08.767086 11376 layer_factory.hpp:77] Creating layer Pooling8
I0729 15:36:08.767102 11376 net.cpp:91] Creating Layer Pooling8
I0729 15:36:08.767113 11376 net.cpp:425] Pooling8 <- Convolution8
I0729 15:36:08.767124 11376 net.cpp:399] Pooling8 -> Pooling8
I0729 15:36:08.767170 11376 net.cpp:141] Setting up Pooling8
I0729 15:36:08.767179 11376 net.cpp:148] Top shape: 100 50 13 13 (845000)
I0729 15:36:08.767185 11376 net.cpp:156] Memory required for data: 968959600
I0729 15:36:08.767190 11376 layer_factory.hpp:77] Creating layer InnerProduct9
I0729 15:36:08.767201 11376 net.cpp:91] Creating Layer InnerProduct9
I0729 15:36:08.767207 11376 net.cpp:425] InnerProduct9 <- Pooling8
I0729 15:36:08.767218 11376 net.cpp:399] InnerProduct9 -> InnerProduct9
I0729 15:36:08.775673 11376 net.cpp:141] Setting up InnerProduct9
I0729 15:36:08.775693 11376 net.cpp:148] Top shape: 100 100 (10000)
I0729 15:36:08.775699 11376 net.cpp:156] Memory required for data: 968999600
I0729 15:36:08.775708 11376 net.cpp:484] Sharing parameters 'ip1_w' owned by layer 'InnerProduct1', param index 0
I0729 15:36:08.775717 11376 net.cpp:484] Sharing parameters 'ip1_b' owned by layer 'InnerProduct1', param index 1
I0729 15:36:08.775724 11376 layer_factory.hpp:77] Creating layer ReLU6
I0729 15:36:08.775734 11376 net.cpp:91] Creating Layer ReLU6
I0729 15:36:08.775743 11376 net.cpp:425] ReLU6 <- InnerProduct9
I0729 15:36:08.775751 11376 net.cpp:386] ReLU6 -> InnerProduct9 (in-place)
I0729 15:36:08.775763 11376 net.cpp:141] Setting up ReLU6
I0729 15:36:08.775771 11376 net.cpp:148] Top shape: 100 100 (10000)
I0729 15:36:08.775776 11376 net.cpp:156] Memory required for data: 969039600
I0729 15:36:08.775782 11376 layer_factory.hpp:77] Creating layer InnerProduct10
I0729 15:36:08.775794 11376 net.cpp:91] Creating Layer InnerProduct10
I0729 15:36:08.775800 11376 net.cpp:425] InnerProduct10 <- InnerProduct9
I0729 15:36:08.775810 11376 net.cpp:399] InnerProduct10 -> InnerProduct10
I0729 15:36:08.775985 11376 net.cpp:141] Setting up InnerProduct10
I0729 15:36:08.775992 11376 net.cpp:148] Top shape: 100 50 (5000)
I0729 15:36:08.775998 11376 net.cpp:156] Memory required for data: 969059600
I0729 15:36:08.776005 11376 net.cpp:484] Sharing parameters 'ip2_w' owned by layer 'InnerProduct2', param index 0
I0729 15:36:08.776012 11376 net.cpp:484] Sharing parameters 'ip2_b' owned by layer 'InnerProduct2', param index 1
I0729 15:36:08.776020 11376 layer_factory.hpp:77] Creating layer Concat2
I0729 15:36:08.776029 11376 net.cpp:91] Creating Layer Concat2
I0729 15:36:08.776036 11376 net.cpp:425] Concat2 <- InnerProduct8
I0729 15:36:08.776044 11376 net.cpp:425] Concat2 <- InnerProduct10
I0729 15:36:08.776053 11376 net.cpp:399] Concat2 -> Concat2
I0729 15:36:08.776083 11376 net.cpp:141] Setting up Concat2
I0729 15:36:08.776092 11376 net.cpp:148] Top shape: 100 100 (10000)
I0729 15:36:08.776098 11376 net.cpp:156] Memory required for data: 969099600
I0729 15:36:08.776103 11376 layer_factory.hpp:77] Creating layer InnerProduct11
I0729 15:36:08.776113 11376 net.cpp:91] Creating Layer InnerProduct11
I0729 15:36:08.776118 11376 net.cpp:425] InnerProduct11 <- Concat2
I0729 15:36:08.776129 11376 net.cpp:399] InnerProduct11 -> InnerProduct11
I0729 15:36:08.776310 11376 net.cpp:141] Setting up InnerProduct11
I0729 15:36:08.776317 11376 net.cpp:148] Top shape: 100 64 (6400)
I0729 15:36:08.776324 11376 net.cpp:156] Memory required for data: 969125200
I0729 15:36:08.776330 11376 net.cpp:484] Sharing parameters 'fc1_w' owned by layer 'InnerProduct5', param index 0
I0729 15:36:08.776357 11376 net.cpp:484] Sharing parameters 'fc1_b' owned by layer 'InnerProduct5', param index 1
I0729 15:36:08.776365 11376 layer_factory.hpp:77] Creating layer ReLU7
I0729 15:36:08.776372 11376 net.cpp:91] Creating Layer ReLU7
I0729 15:36:08.776379 11376 net.cpp:425] ReLU7 <- InnerProduct11
I0729 15:36:08.776387 11376 net.cpp:386] ReLU7 -> InnerProduct11 (in-place)
I0729 15:36:08.776396 11376 net.cpp:141] Setting up ReLU7
I0729 15:36:08.776404 11376 net.cpp:148] Top shape: 100 64 (6400)
I0729 15:36:08.776409 11376 net.cpp:156] Memory required for data: 969150800
I0729 15:36:08.776415 11376 layer_factory.hpp:77] Creating layer InnerProduct12
I0729 15:36:08.776424 11376 net.cpp:91] Creating Layer InnerProduct12
I0729 15:36:08.776432 11376 net.cpp:425] InnerProduct12 <- InnerProduct11
I0729 15:36:08.776442 11376 net.cpp:399] InnerProduct12 -> InnerProduct12
I0729 15:36:08.776587 11376 net.cpp:141] Setting up InnerProduct12
I0729 15:36:08.776593 11376 net.cpp:148] Top shape: 100 32 (3200)
I0729 15:36:08.776600 11376 net.cpp:156] Memory required for data: 969163600
I0729 15:36:08.776607 11376 net.cpp:484] Sharing parameters 'fc2_w' owned by layer 'InnerProduct6', param index 0
I0729 15:36:08.776614 11376 net.cpp:484] Sharing parameters 'fc2_b' owned by layer 'InnerProduct6', param index 1
I0729 15:36:08.776621 11376 layer_factory.hpp:77] Creating layer ReLU8
I0729 15:36:08.776629 11376 net.cpp:91] Creating Layer ReLU8
I0729 15:36:08.776636 11376 net.cpp:425] ReLU8 <- InnerProduct12
I0729 15:36:08.776644 11376 net.cpp:386] ReLU8 -> InnerProduct12 (in-place)
I0729 15:36:08.776654 11376 net.cpp:141] Setting up ReLU8
I0729 15:36:08.776661 11376 net.cpp:148] Top shape: 100 32 (3200)
I0729 15:36:08.776667 11376 net.cpp:156] Memory required for data: 969176400
I0729 15:36:08.776674 11376 layer_factory.hpp:77] Creating layer dt1
I0729 15:36:08.776684 11376 net.cpp:91] Creating Layer dt1
I0729 15:36:08.776690 11376 net.cpp:425] dt1 <- InnerProduct12
I0729 15:36:08.776701 11376 net.cpp:399] dt1 -> dt1
I0729 15:36:08.776828 11376 net.cpp:141] Setting up dt1
I0729 15:36:08.776835 11376 net.cpp:148] Top shape: 100 2 (200)
I0729 15:36:08.776841 11376 net.cpp:156] Memory required for data: 969177200
I0729 15:36:08.776849 11376 net.cpp:484] Sharing parameters 'fc3_w' owned by layer 'dt0', param index 0
I0729 15:36:08.776855 11376 net.cpp:484] Sharing parameters 'fc3_b' owned by layer 'dt0', param index 1
I0729 15:36:08.776865 11376 layer_factory.hpp:77] Creating layer Convolution9
I0729 15:36:08.776883 11376 net.cpp:91] Creating Layer Convolution9
I0729 15:36:08.776891 11376 net.cpp:425] Convolution9 <- p1_p1_0_split_2
I0729 15:36:08.776906 11376 net.cpp:399] Convolution9 -> Convolution9
I0729 15:36:08.783236 11376 net.cpp:141] Setting up Convolution9
I0729 15:36:08.783254 11376 net.cpp:148] Top shape: 100 20 60 60 (7200000)
I0729 15:36:08.783262 11376 net.cpp:156] Memory required for data: 997977200
I0729 15:36:08.783269 11376 net.cpp:484] Sharing parameters 'conv1_w' owned by layer 'Convolution1', param index 0
I0729 15:36:08.783315 11376 net.cpp:484] Sharing parameters 'conv1_b' owned by layer 'Convolution1', param index 1
I0729 15:36:08.783331 11376 layer_factory.hpp:77] Creating layer Pooling9
I0729 15:36:08.783356 11376 net.cpp:91] Creating Layer Pooling9
I0729 15:36:08.783371 11376 net.cpp:425] Pooling9 <- Convolution9
I0729 15:36:08.783390 11376 net.cpp:399] Pooling9 -> Pooling9
I0729 15:36:08.783463 11376 net.cpp:141] Setting up Pooling9
I0729 15:36:08.783475 11376 net.cpp:148] Top shape: 100 20 30 30 (1800000)
I0729 15:36:08.783484 11376 net.cpp:156] Memory required for data: 1005177200
I0729 15:36:08.783493 11376 layer_factory.hpp:77] Creating layer Convolution10
I0729 15:36:08.783512 11376 net.cpp:91] Creating Layer Convolution10
I0729 15:36:08.783521 11376 net.cpp:425] Convolution10 <- Pooling9
I0729 15:36:08.783537 11376 net.cpp:399] Convolution10 -> Convolution10
I0729 15:36:08.784328 11376 net.cpp:141] Setting up Convolution10
I0729 15:36:08.784345 11376 net.cpp:148] Top shape: 100 50 26 26 (3380000)
I0729 15:36:08.784379 11376 net.cpp:156] Memory required for data: 1018697200
I0729 15:36:08.784392 11376 net.cpp:484] Sharing parameters 'conv2_w' owned by layer 'Convolution2', param index 0
I0729 15:36:08.784405 11376 net.cpp:484] Sharing parameters 'conv2_b' owned by layer 'Convolution2', param index 1
I0729 15:36:08.784416 11376 layer_factory.hpp:77] Creating layer Pooling10
I0729 15:36:08.784431 11376 net.cpp:91] Creating Layer Pooling10
I0729 15:36:08.784443 11376 net.cpp:425] Pooling10 <- Convolution10
I0729 15:36:08.784459 11376 net.cpp:399] Pooling10 -> Pooling10
I0729 15:36:08.784533 11376 net.cpp:141] Setting up Pooling10
I0729 15:36:08.784548 11376 net.cpp:148] Top shape: 100 50 13 13 (845000)
I0729 15:36:08.784557 11376 net.cpp:156] Memory required for data: 1022077200
I0729 15:36:08.784567 11376 layer_factory.hpp:77] Creating layer InnerProduct13
I0729 15:36:08.784584 11376 net.cpp:91] Creating Layer InnerProduct13
I0729 15:36:08.784595 11376 net.cpp:425] InnerProduct13 <- Pooling10
I0729 15:36:08.784612 11376 net.cpp:399] InnerProduct13 -> InnerProduct13
I0729 15:36:08.795583 11376 net.cpp:141] Setting up InnerProduct13
I0729 15:36:08.795610 11376 net.cpp:148] Top shape: 100 100 (10000)
I0729 15:36:08.795617 11376 net.cpp:156] Memory required for data: 1022117200
I0729 15:36:08.795629 11376 net.cpp:484] Sharing parameters 'ip1_w' owned by layer 'InnerProduct1', param index 0
I0729 15:36:08.795639 11376 net.cpp:484] Sharing parameters 'ip1_b' owned by layer 'InnerProduct1', param index 1
I0729 15:36:08.795645 11376 layer_factory.hpp:77] Creating layer ReLU9
I0729 15:36:08.795660 11376 net.cpp:91] Creating Layer ReLU9
I0729 15:36:08.795670 11376 net.cpp:425] ReLU9 <- InnerProduct13
I0729 15:36:08.795680 11376 net.cpp:386] ReLU9 -> InnerProduct13 (in-place)
I0729 15:36:08.795693 11376 net.cpp:141] Setting up ReLU9
I0729 15:36:08.795701 11376 net.cpp:148] Top shape: 100 100 (10000)
I0729 15:36:08.795707 11376 net.cpp:156] Memory required for data: 1022157200
I0729 15:36:08.795713 11376 layer_factory.hpp:77] Creating layer InnerProduct14
I0729 15:36:08.795724 11376 net.cpp:91] Creating Layer InnerProduct14
I0729 15:36:08.795732 11376 net.cpp:425] InnerProduct14 <- InnerProduct13
I0729 15:36:08.795742 11376 net.cpp:399] InnerProduct14 -> InnerProduct14
I0729 15:36:08.795938 11376 net.cpp:141] Setting up InnerProduct14
I0729 15:36:08.795948 11376 net.cpp:148] Top shape: 100 50 (5000)
I0729 15:36:08.795954 11376 net.cpp:156] Memory required for data: 1022177200
I0729 15:36:08.795960 11376 net.cpp:484] Sharing parameters 'ip2_w' owned by layer 'InnerProduct2', param index 0
I0729 15:36:08.795969 11376 net.cpp:484] Sharing parameters 'ip2_b' owned by layer 'InnerProduct2', param index 1
I0729 15:36:08.795975 11376 layer_factory.hpp:77] Creating layer Convolution11
I0729 15:36:08.795989 11376 net.cpp:91] Creating Layer Convolution11
I0729 15:36:08.795997 11376 net.cpp:425] Convolution11 <- c22
I0729 15:36:08.796008 11376 net.cpp:399] Convolution11 -> Convolution11
I0729 15:36:08.796360 11376 net.cpp:141] Setting up Convolution11
I0729 15:36:08.796372 11376 net.cpp:148] Top shape: 100 20 60 60 (7200000)
I0729 15:36:08.796380 11376 net.cpp:156] Memory required for data: 1050977200
I0729 15:36:08.796386 11376 net.cpp:484] Sharing parameters 'conv1_w' owned by layer 'Convolution1', param index 0
I0729 15:36:08.796393 11376 net.cpp:484] Sharing parameters 'conv1_b' owned by layer 'Convolution1', param index 1
I0729 15:36:08.796401 11376 layer_factory.hpp:77] Creating layer Pooling11
I0729 15:36:08.796411 11376 net.cpp:91] Creating Layer Pooling11
I0729 15:36:08.796416 11376 net.cpp:425] Pooling11 <- Convolution11
I0729 15:36:08.796427 11376 net.cpp:399] Pooling11 -> Pooling11
I0729 15:36:08.796473 11376 net.cpp:141] Setting up Pooling11
I0729 15:36:08.796480 11376 net.cpp:148] Top shape: 100 20 30 30 (1800000)
I0729 15:36:08.796486 11376 net.cpp:156] Memory required for data: 1058177200
I0729 15:36:08.796492 11376 layer_factory.hpp:77] Creating layer Convolution12
I0729 15:36:08.796504 11376 net.cpp:91] Creating Layer Convolution12
I0729 15:36:08.796535 11376 net.cpp:425] Convolution12 <- Pooling11
I0729 15:36:08.796545 11376 net.cpp:399] Convolution12 -> Convolution12
I0729 15:36:08.797070 11376 net.cpp:141] Setting up Convolution12
I0729 15:36:08.797080 11376 net.cpp:148] Top shape: 100 50 26 26 (3380000)
I0729 15:36:08.797086 11376 net.cpp:156] Memory required for data: 1071697200
I0729 15:36:08.797092 11376 net.cpp:484] Sharing parameters 'conv2_w' owned by layer 'Convolution2', param index 0
I0729 15:36:08.797101 11376 net.cpp:484] Sharing parameters 'conv2_b' owned by layer 'Convolution2', param index 1
I0729 15:36:08.797106 11376 layer_factory.hpp:77] Creating layer Pooling12
I0729 15:36:08.797116 11376 net.cpp:91] Creating Layer Pooling12
I0729 15:36:08.797122 11376 net.cpp:425] Pooling12 <- Convolution12
I0729 15:36:08.797132 11376 net.cpp:399] Pooling12 -> Pooling12
I0729 15:36:08.797175 11376 net.cpp:141] Setting up Pooling12
I0729 15:36:08.797183 11376 net.cpp:148] Top shape: 100 50 13 13 (845000)
I0729 15:36:08.797189 11376 net.cpp:156] Memory required for data: 1075077200
I0729 15:36:08.797195 11376 layer_factory.hpp:77] Creating layer InnerProduct15
I0729 15:36:08.797205 11376 net.cpp:91] Creating Layer InnerProduct15
I0729 15:36:08.797212 11376 net.cpp:425] InnerProduct15 <- Pooling12
I0729 15:36:08.797222 11376 net.cpp:399] InnerProduct15 -> InnerProduct15
I0729 15:36:08.805774 11376 net.cpp:141] Setting up InnerProduct15
I0729 15:36:08.805816 11376 net.cpp:148] Top shape: 100 100 (10000)
I0729 15:36:08.805826 11376 net.cpp:156] Memory required for data: 1075117200
I0729 15:36:08.805838 11376 net.cpp:484] Sharing parameters 'ip1_w' owned by layer 'InnerProduct1', param index 0
I0729 15:36:08.805848 11376 net.cpp:484] Sharing parameters 'ip1_b' owned by layer 'InnerProduct1', param index 1
I0729 15:36:08.805855 11376 layer_factory.hpp:77] Creating layer ReLU10
I0729 15:36:08.805867 11376 net.cpp:91] Creating Layer ReLU10
I0729 15:36:08.805876 11376 net.cpp:425] ReLU10 <- InnerProduct15
I0729 15:36:08.805886 11376 net.cpp:386] ReLU10 -> InnerProduct15 (in-place)
I0729 15:36:08.805899 11376 net.cpp:141] Setting up ReLU10
I0729 15:36:08.805907 11376 net.cpp:148] Top shape: 100 100 (10000)
I0729 15:36:08.805913 11376 net.cpp:156] Memory required for data: 1075157200
I0729 15:36:08.805919 11376 layer_factory.hpp:77] Creating layer InnerProduct16
I0729 15:36:08.805930 11376 net.cpp:91] Creating Layer InnerProduct16
I0729 15:36:08.805938 11376 net.cpp:425] InnerProduct16 <- InnerProduct15
I0729 15:36:08.805948 11376 net.cpp:399] InnerProduct16 -> InnerProduct16
I0729 15:36:08.806128 11376 net.cpp:141] Setting up InnerProduct16
I0729 15:36:08.806136 11376 net.cpp:148] Top shape: 100 50 (5000)
I0729 15:36:08.806143 11376 net.cpp:156] Memory required for data: 1075177200
I0729 15:36:08.806149 11376 net.cpp:484] Sharing parameters 'ip2_w' owned by layer 'InnerProduct2', param index 0
I0729 15:36:08.806156 11376 net.cpp:484] Sharing parameters 'ip2_b' owned by layer 'InnerProduct2', param index 1
I0729 15:36:08.806162 11376 layer_factory.hpp:77] Creating layer Concat3
I0729 15:36:08.806172 11376 net.cpp:91] Creating Layer Concat3
I0729 15:36:08.806180 11376 net.cpp:425] Concat3 <- InnerProduct14
I0729 15:36:08.806187 11376 net.cpp:425] Concat3 <- InnerProduct16
I0729 15:36:08.806196 11376 net.cpp:399] Concat3 -> Concat3
I0729 15:36:08.806280 11376 net.cpp:141] Setting up Concat3
I0729 15:36:08.806290 11376 net.cpp:148] Top shape: 100 100 (10000)
I0729 15:36:08.806296 11376 net.cpp:156] Memory required for data: 1075217200
I0729 15:36:08.806303 11376 layer_factory.hpp:77] Creating layer InnerProduct17
I0729 15:36:08.806313 11376 net.cpp:91] Creating Layer InnerProduct17
I0729 15:36:08.806319 11376 net.cpp:425] InnerProduct17 <- Concat3
I0729 15:36:08.806329 11376 net.cpp:399] InnerProduct17 -> InnerProduct17
I0729 15:36:08.806510 11376 net.cpp:141] Setting up InnerProduct17
I0729 15:36:08.806519 11376 net.cpp:148] Top shape: 100 64 (6400)
I0729 15:36:08.806524 11376 net.cpp:156] Memory required for data: 1075242800
I0729 15:36:08.806555 11376 net.cpp:484] Sharing parameters 'fc1_w' owned by layer 'InnerProduct5', param index 0
I0729 15:36:08.806563 11376 net.cpp:484] Sharing parameters 'fc1_b' owned by layer 'InnerProduct5', param index 1
I0729 15:36:08.806571 11376 layer_factory.hpp:77] Creating layer ReLU11
I0729 15:36:08.806578 11376 net.cpp:91] Creating Layer ReLU11
I0729 15:36:08.806584 11376 net.cpp:425] ReLU11 <- InnerProduct17
I0729 15:36:08.806593 11376 net.cpp:386] ReLU11 -> InnerProduct17 (in-place)
I0729 15:36:08.806602 11376 net.cpp:141] Setting up ReLU11
I0729 15:36:08.806609 11376 net.cpp:148] Top shape: 100 64 (6400)
I0729 15:36:08.806615 11376 net.cpp:156] Memory required for data: 1075268400
I0729 15:36:08.806622 11376 layer_factory.hpp:77] Creating layer InnerProduct18
I0729 15:36:08.806632 11376 net.cpp:91] Creating Layer InnerProduct18
I0729 15:36:08.806638 11376 net.cpp:425] InnerProduct18 <- InnerProduct17
I0729 15:36:08.806649 11376 net.cpp:399] InnerProduct18 -> InnerProduct18
I0729 15:36:08.806818 11376 net.cpp:141] Setting up InnerProduct18
I0729 15:36:08.806825 11376 net.cpp:148] Top shape: 100 32 (3200)
I0729 15:36:08.806833 11376 net.cpp:156] Memory required for data: 1075281200
I0729 15:36:08.806838 11376 net.cpp:484] Sharing parameters 'fc2_w' owned by layer 'InnerProduct6', param index 0
I0729 15:36:08.806846 11376 net.cpp:484] Sharing parameters 'fc2_b' owned by layer 'InnerProduct6', param index 1
I0729 15:36:08.806854 11376 layer_factory.hpp:77] Creating layer ReLU12
I0729 15:36:08.806861 11376 net.cpp:91] Creating Layer ReLU12
I0729 15:36:08.806867 11376 net.cpp:425] ReLU12 <- InnerProduct18
I0729 15:36:08.806876 11376 net.cpp:386] ReLU12 -> InnerProduct18 (in-place)
I0729 15:36:08.806885 11376 net.cpp:141] Setting up ReLU12
I0729 15:36:08.806892 11376 net.cpp:148] Top shape: 100 32 (3200)
I0729 15:36:08.806898 11376 net.cpp:156] Memory required for data: 1075294000
I0729 15:36:08.806905 11376 layer_factory.hpp:77] Creating layer dt2
I0729 15:36:08.806913 11376 net.cpp:91] Creating Layer dt2
I0729 15:36:08.806920 11376 net.cpp:425] dt2 <- InnerProduct18
I0729 15:36:08.806931 11376 net.cpp:399] dt2 -> dt2
I0729 15:36:08.807055 11376 net.cpp:141] Setting up dt2
I0729 15:36:08.807062 11376 net.cpp:148] Top shape: 100 2 (200)
I0729 15:36:08.807068 11376 net.cpp:156] Memory required for data: 1075294800
I0729 15:36:08.807095 11376 net.cpp:484] Sharing parameters 'fc3_w' owned by layer 'dt0', param index 0
I0729 15:36:08.807106 11376 net.cpp:484] Sharing parameters 'fc3_b' owned by layer 'dt0', param index 1
I0729 15:36:08.807116 11376 layer_factory.hpp:77] Creating layer Convolution13
I0729 15:36:08.807142 11376 net.cpp:91] Creating Layer Convolution13
I0729 15:36:08.807152 11376 net.cpp:425] Convolution13 <- p1_p1_0_split_3
I0729 15:36:08.807164 11376 net.cpp:399] Convolution13 -> Convolution13
I0729 15:36:08.807499 11376 net.cpp:141] Setting up Convolution13
I0729 15:36:08.807508 11376 net.cpp:148] Top shape: 100 20 60 60 (7200000)
I0729 15:36:08.807514 11376 net.cpp:156] Memory required for data: 1104094800
I0729 15:36:08.807521 11376 net.cpp:484] Sharing parameters 'conv1_w' owned by layer 'Convolution1', param index 0
I0729 15:36:08.807528 11376 net.cpp:484] Sharing parameters 'conv1_b' owned by layer 'Convolution1', param index 1
I0729 15:36:08.807534 11376 layer_factory.hpp:77] Creating layer Pooling13
I0729 15:36:08.807548 11376 net.cpp:91] Creating Layer Pooling13
I0729 15:36:08.807557 11376 net.cpp:425] Pooling13 <- Convolution13
I0729 15:36:08.807575 11376 net.cpp:399] Pooling13 -> Pooling13
I0729 15:36:08.807633 11376 net.cpp:141] Setting up Pooling13
I0729 15:36:08.807641 11376 net.cpp:148] Top shape: 100 20 30 30 (1800000)
I0729 15:36:08.807647 11376 net.cpp:156] Memory required for data: 1111294800
I0729 15:36:08.807653 11376 layer_factory.hpp:77] Creating layer Convolution14
I0729 15:36:08.807670 11376 net.cpp:91] Creating Layer Convolution14
I0729 15:36:08.807677 11376 net.cpp:425] Convolution14 <- Pooling13
I0729 15:36:08.807687 11376 net.cpp:399] Convolution14 -> Convolution14
I0729 15:36:08.808214 11376 net.cpp:141] Setting up Convolution14
I0729 15:36:08.808226 11376 net.cpp:148] Top shape: 100 50 26 26 (3380000)
I0729 15:36:08.808233 11376 net.cpp:156] Memory required for data: 1124814800
I0729 15:36:08.808238 11376 net.cpp:484] Sharing parameters 'conv2_w' owned by layer 'Convolution2', param index 0
I0729 15:36:08.808246 11376 net.cpp:484] Sharing parameters 'conv2_b' owned by layer 'Convolution2', param index 1
I0729 15:36:08.808254 11376 layer_factory.hpp:77] Creating layer Pooling14
I0729 15:36:08.808261 11376 net.cpp:91] Creating Layer Pooling14
I0729 15:36:08.808269 11376 net.cpp:425] Pooling14 <- Convolution14
I0729 15:36:08.808277 11376 net.cpp:399] Pooling14 -> Pooling14
I0729 15:36:08.808326 11376 net.cpp:141] Setting up Pooling14
I0729 15:36:08.808333 11376 net.cpp:148] Top shape: 100 50 13 13 (845000)
I0729 15:36:08.808339 11376 net.cpp:156] Memory required for data: 1128194800
I0729 15:36:08.808346 11376 layer_factory.hpp:77] Creating layer InnerProduct19
I0729 15:36:08.808357 11376 net.cpp:91] Creating Layer InnerProduct19
I0729 15:36:08.808364 11376 net.cpp:425] InnerProduct19 <- Pooling14
I0729 15:36:08.808374 11376 net.cpp:399] InnerProduct19 -> InnerProduct19
I0729 15:36:08.817051 11376 net.cpp:141] Setting up InnerProduct19
I0729 15:36:08.817081 11376 net.cpp:148] Top shape: 100 100 (10000)
I0729 15:36:08.817090 11376 net.cpp:156] Memory required for data: 1128234800
I0729 15:36:08.817103 11376 net.cpp:484] Sharing parameters 'ip1_w' owned by layer 'InnerProduct1', param index 0
I0729 15:36:08.817116 11376 net.cpp:484] Sharing parameters 'ip1_b' owned by layer 'InnerProduct1', param index 1
I0729 15:36:08.817126 11376 layer_factory.hpp:77] Creating layer ReLU13
I0729 15:36:08.817142 11376 net.cpp:91] Creating Layer ReLU13
I0729 15:36:08.817153 11376 net.cpp:425] ReLU13 <- InnerProduct19
I0729 15:36:08.817169 11376 net.cpp:386] ReLU13 -> InnerProduct19 (in-place)
I0729 15:36:08.817188 11376 net.cpp:141] Setting up ReLU13
I0729 15:36:08.817196 11376 net.cpp:148] Top shape: 100 100 (10000)
I0729 15:36:08.817204 11376 net.cpp:156] Memory required for data: 1128274800
I0729 15:36:08.817212 11376 layer_factory.hpp:77] Creating layer InnerProduct20
I0729 15:36:08.817227 11376 net.cpp:91] Creating Layer InnerProduct20
I0729 15:36:08.817239 11376 net.cpp:425] InnerProduct20 <- InnerProduct19
I0729 15:36:08.817252 11376 net.cpp:399] InnerProduct20 -> InnerProduct20
I0729 15:36:08.817464 11376 net.cpp:141] Setting up InnerProduct20
I0729 15:36:08.817476 11376 net.cpp:148] Top shape: 100 50 (5000)
I0729 15:36:08.817482 11376 net.cpp:156] Memory required for data: 1128294800
I0729 15:36:08.817492 11376 net.cpp:484] Sharing parameters 'ip2_w' owned by layer 'InnerProduct2', param index 0
I0729 15:36:08.817500 11376 net.cpp:484] Sharing parameters 'ip2_b' owned by layer 'InnerProduct2', param index 1
I0729 15:36:08.817508 11376 layer_factory.hpp:77] Creating layer Convolution15
I0729 15:36:08.817524 11376 net.cpp:91] Creating Layer Convolution15
I0729 15:36:08.817533 11376 net.cpp:425] Convolution15 <- c23
I0729 15:36:08.817549 11376 net.cpp:399] Convolution15 -> Convolution15
I0729 15:36:08.817982 11376 net.cpp:141] Setting up Convolution15
I0729 15:36:08.817997 11376 net.cpp:148] Top shape: 100 20 60 60 (7200000)
I0729 15:36:08.818006 11376 net.cpp:156] Memory required for data: 1157094800
I0729 15:36:08.818013 11376 net.cpp:484] Sharing parameters 'conv1_w' owned by layer 'Convolution1', param index 0
I0729 15:36:08.818023 11376 net.cpp:484] Sharing parameters 'conv1_b' owned by layer 'Convolution1', param index 1
I0729 15:36:08.818032 11376 layer_factory.hpp:77] Creating layer Pooling15
I0729 15:36:08.818048 11376 net.cpp:91] Creating Layer Pooling15
I0729 15:36:08.818058 11376 net.cpp:425] Pooling15 <- Convolution15
I0729 15:36:08.818071 11376 net.cpp:399] Pooling15 -> Pooling15
I0729 15:36:08.818145 11376 net.cpp:141] Setting up Pooling15
I0729 15:36:08.818156 11376 net.cpp:148] Top shape: 100 20 30 30 (1800000)
I0729 15:36:08.818164 11376 net.cpp:156] Memory required for data: 1164294800
I0729 15:36:08.818197 11376 layer_factory.hpp:77] Creating layer Convolution16
I0729 15:36:08.818217 11376 net.cpp:91] Creating Layer Convolution16
I0729 15:36:08.818228 11376 net.cpp:425] Convolution16 <- Pooling15
I0729 15:36:08.818243 11376 net.cpp:399] Convolution16 -> Convolution16
I0729 15:36:08.818881 11376 net.cpp:141] Setting up Convolution16
I0729 15:36:08.818893 11376 net.cpp:148] Top shape: 100 50 26 26 (3380000)
I0729 15:36:08.818899 11376 net.cpp:156] Memory required for data: 1177814800
I0729 15:36:08.818907 11376 net.cpp:484] Sharing parameters 'conv2_w' owned by layer 'Convolution2', param index 0
I0729 15:36:08.818914 11376 net.cpp:484] Sharing parameters 'conv2_b' owned by layer 'Convolution2', param index 1
I0729 15:36:08.818920 11376 layer_factory.hpp:77] Creating layer Pooling16
I0729 15:36:08.818929 11376 net.cpp:91] Creating Layer Pooling16
I0729 15:36:08.818936 11376 net.cpp:425] Pooling16 <- Convolution16
I0729 15:36:08.818946 11376 net.cpp:399] Pooling16 -> Pooling16
I0729 15:36:08.818995 11376 net.cpp:141] Setting up Pooling16
I0729 15:36:08.819003 11376 net.cpp:148] Top shape: 100 50 13 13 (845000)
I0729 15:36:08.819010 11376 net.cpp:156] Memory required for data: 1181194800
I0729 15:36:08.819015 11376 layer_factory.hpp:77] Creating layer InnerProduct21
I0729 15:36:08.819025 11376 net.cpp:91] Creating Layer InnerProduct21
I0729 15:36:08.819031 11376 net.cpp:425] InnerProduct21 <- Pooling16
I0729 15:36:08.819043 11376 net.cpp:399] InnerProduct21 -> InnerProduct21
I0729 15:36:08.827811 11376 net.cpp:141] Setting up InnerProduct21
I0729 15:36:08.827844 11376 net.cpp:148] Top shape: 100 100 (10000)
I0729 15:36:08.827852 11376 net.cpp:156] Memory required for data: 1181234800
I0729 15:36:08.827862 11376 net.cpp:484] Sharing parameters 'ip1_w' owned by layer 'InnerProduct1', param index 0
I0729 15:36:08.827872 11376 net.cpp:484] Sharing parameters 'ip1_b' owned by layer 'InnerProduct1', param index 1
I0729 15:36:08.827878 11376 layer_factory.hpp:77] Creating layer ReLU14
I0729 15:36:08.827893 11376 net.cpp:91] Creating Layer ReLU14
I0729 15:36:08.827901 11376 net.cpp:425] ReLU14 <- InnerProduct21
I0729 15:36:08.827911 11376 net.cpp:386] ReLU14 -> InnerProduct21 (in-place)
I0729 15:36:08.827929 11376 net.cpp:141] Setting up ReLU14
I0729 15:36:08.827936 11376 net.cpp:148] Top shape: 100 100 (10000)
I0729 15:36:08.827941 11376 net.cpp:156] Memory required for data: 1181274800
I0729 15:36:08.827947 11376 layer_factory.hpp:77] Creating layer InnerProduct22
I0729 15:36:08.827960 11376 net.cpp:91] Creating Layer InnerProduct22
I0729 15:36:08.827965 11376 net.cpp:425] InnerProduct22 <- InnerProduct21
I0729 15:36:08.827975 11376 net.cpp:399] InnerProduct22 -> InnerProduct22
I0729 15:36:08.828177 11376 net.cpp:141] Setting up InnerProduct22
I0729 15:36:08.828186 11376 net.cpp:148] Top shape: 100 50 (5000)
I0729 15:36:08.828191 11376 net.cpp:156] Memory required for data: 1181294800
I0729 15:36:08.828198 11376 net.cpp:484] Sharing parameters 'ip2_w' owned by layer 'InnerProduct2', param index 0
I0729 15:36:08.828205 11376 net.cpp:484] Sharing parameters 'ip2_b' owned by layer 'InnerProduct2', param index 1
I0729 15:36:08.828212 11376 layer_factory.hpp:77] Creating layer Concat4
I0729 15:36:08.828224 11376 net.cpp:91] Creating Layer Concat4
I0729 15:36:08.828230 11376 net.cpp:425] Concat4 <- InnerProduct20
I0729 15:36:08.828238 11376 net.cpp:425] Concat4 <- InnerProduct22
I0729 15:36:08.828248 11376 net.cpp:399] Concat4 -> Concat4
I0729 15:36:08.828277 11376 net.cpp:141] Setting up Concat4
I0729 15:36:08.828285 11376 net.cpp:148] Top shape: 100 100 (10000)
I0729 15:36:08.828290 11376 net.cpp:156] Memory required for data: 1181334800
I0729 15:36:08.828296 11376 layer_factory.hpp:77] Creating layer InnerProduct23
I0729 15:36:08.828308 11376 net.cpp:91] Creating Layer InnerProduct23
I0729 15:36:08.828315 11376 net.cpp:425] InnerProduct23 <- Concat4
I0729 15:36:08.828325 11376 net.cpp:399] InnerProduct23 -> InnerProduct23
I0729 15:36:08.828513 11376 net.cpp:141] Setting up InnerProduct23
I0729 15:36:08.828521 11376 net.cpp:148] Top shape: 100 64 (6400)
I0729 15:36:08.828552 11376 net.cpp:156] Memory required for data: 1181360400
I0729 15:36:08.828558 11376 net.cpp:484] Sharing parameters 'fc1_w' owned by layer 'InnerProduct5', param index 0
I0729 15:36:08.828565 11376 net.cpp:484] Sharing parameters 'fc1_b' owned by layer 'InnerProduct5', param index 1
I0729 15:36:08.828572 11376 layer_factory.hpp:77] Creating layer ReLU15
I0729 15:36:08.828583 11376 net.cpp:91] Creating Layer ReLU15
I0729 15:36:08.828589 11376 net.cpp:425] ReLU15 <- InnerProduct23
I0729 15:36:08.828598 11376 net.cpp:386] ReLU15 -> InnerProduct23 (in-place)
I0729 15:36:08.828606 11376 net.cpp:141] Setting up ReLU15
I0729 15:36:08.828613 11376 net.cpp:148] Top shape: 100 64 (6400)
I0729 15:36:08.828619 11376 net.cpp:156] Memory required for data: 1181386000
I0729 15:36:08.828625 11376 layer_factory.hpp:77] Creating layer InnerProduct24
I0729 15:36:08.828634 11376 net.cpp:91] Creating Layer InnerProduct24
I0729 15:36:08.828640 11376 net.cpp:425] InnerProduct24 <- InnerProduct23
I0729 15:36:08.828652 11376 net.cpp:399] InnerProduct24 -> InnerProduct24
I0729 15:36:08.828810 11376 net.cpp:141] Setting up InnerProduct24
I0729 15:36:08.828817 11376 net.cpp:148] Top shape: 100 32 (3200)
I0729 15:36:08.828824 11376 net.cpp:156] Memory required for data: 1181398800
I0729 15:36:08.828830 11376 net.cpp:484] Sharing parameters 'fc2_w' owned by layer 'InnerProduct6', param index 0
I0729 15:36:08.828836 11376 net.cpp:484] Sharing parameters 'fc2_b' owned by layer 'InnerProduct6', param index 1
I0729 15:36:08.828843 11376 layer_factory.hpp:77] Creating layer ReLU16
I0729 15:36:08.828850 11376 net.cpp:91] Creating Layer ReLU16
I0729 15:36:08.828856 11376 net.cpp:425] ReLU16 <- InnerProduct24
I0729 15:36:08.828866 11376 net.cpp:386] ReLU16 -> InnerProduct24 (in-place)
I0729 15:36:08.828873 11376 net.cpp:141] Setting up ReLU16
I0729 15:36:08.828881 11376 net.cpp:148] Top shape: 100 32 (3200)
I0729 15:36:08.828886 11376 net.cpp:156] Memory required for data: 1181411600
I0729 15:36:08.828892 11376 layer_factory.hpp:77] Creating layer dt3
I0729 15:36:08.828902 11376 net.cpp:91] Creating Layer dt3
I0729 15:36:08.828907 11376 net.cpp:425] dt3 <- InnerProduct24
I0729 15:36:08.828920 11376 net.cpp:399] dt3 -> dt3
I0729 15:36:08.829058 11376 net.cpp:141] Setting up dt3
I0729 15:36:08.829066 11376 net.cpp:148] Top shape: 100 2 (200)
I0729 15:36:08.829072 11376 net.cpp:156] Memory required for data: 1181412400
I0729 15:36:08.829078 11376 net.cpp:484] Sharing parameters 'fc3_w' owned by layer 'dt0', param index 0
I0729 15:36:08.829087 11376 net.cpp:484] Sharing parameters 'fc3_b' owned by layer 'dt0', param index 1
I0729 15:36:08.829092 11376 layer_factory.hpp:77] Creating layer Convolution17
I0729 15:36:08.829107 11376 net.cpp:91] Creating Layer Convolution17
I0729 15:36:08.829114 11376 net.cpp:425] Convolution17 <- p1_p1_0_split_4
I0729 15:36:08.829126 11376 net.cpp:399] Convolution17 -> Convolution17
I0729 15:36:08.829479 11376 net.cpp:141] Setting up Convolution17
I0729 15:36:08.829488 11376 net.cpp:148] Top shape: 100 20 60 60 (7200000)
I0729 15:36:08.829493 11376 net.cpp:156] Memory required for data: 1210212400
I0729 15:36:08.829500 11376 net.cpp:484] Sharing parameters 'conv1_w' owned by layer 'Convolution1', param index 0
I0729 15:36:08.829507 11376 net.cpp:484] Sharing parameters 'conv1_b' owned by layer 'Convolution1', param index 1
I0729 15:36:08.829514 11376 layer_factory.hpp:77] Creating layer Pooling17
I0729 15:36:08.829525 11376 net.cpp:91] Creating Layer Pooling17
I0729 15:36:08.829531 11376 net.cpp:425] Pooling17 <- Convolution17
I0729 15:36:08.829541 11376 net.cpp:399] Pooling17 -> Pooling17
I0729 15:36:08.829593 11376 net.cpp:141] Setting up Pooling17
I0729 15:36:08.829602 11376 net.cpp:148] Top shape: 100 20 30 30 (1800000)
I0729 15:36:08.829607 11376 net.cpp:156] Memory required for data: 1217412400
I0729 15:36:08.829612 11376 layer_factory.hpp:77] Creating layer Convolution18
I0729 15:36:08.829625 11376 net.cpp:91] Creating Layer Convolution18
I0729 15:36:08.829632 11376 net.cpp:425] Convolution18 <- Pooling17
I0729 15:36:08.829653 11376 net.cpp:399] Convolution18 -> Convolution18
I0729 15:36:08.830184 11376 net.cpp:141] Setting up Convolution18
I0729 15:36:08.830193 11376 net.cpp:148] Top shape: 100 50 26 26 (3380000)
I0729 15:36:08.830199 11376 net.cpp:156] Memory required for data: 1230932400
I0729 15:36:08.830205 11376 net.cpp:484] Sharing parameters 'conv2_w' owned by layer 'Convolution2', param index 0
I0729 15:36:08.830212 11376 net.cpp:484] Sharing parameters 'conv2_b' owned by layer 'Convolution2', param index 1
I0729 15:36:08.830219 11376 layer_factory.hpp:77] Creating layer Pooling18
I0729 15:36:08.830267 11376 net.cpp:91] Creating Layer Pooling18
I0729 15:36:08.830274 11376 net.cpp:425] Pooling18 <- Convolution18
I0729 15:36:08.830283 11376 net.cpp:399] Pooling18 -> Pooling18
I0729 15:36:08.830334 11376 net.cpp:141] Setting up Pooling18
I0729 15:36:08.830341 11376 net.cpp:148] Top shape: 100 50 13 13 (845000)
I0729 15:36:08.830348 11376 net.cpp:156] Memory required for data: 1234312400
I0729 15:36:08.830354 11376 layer_factory.hpp:77] Creating layer InnerProduct25
I0729 15:36:08.830363 11376 net.cpp:91] Creating Layer InnerProduct25
I0729 15:36:08.830373 11376 net.cpp:425] InnerProduct25 <- Pooling18
I0729 15:36:08.830381 11376 net.cpp:399] InnerProduct25 -> InnerProduct25
I0729 15:36:08.841871 11376 net.cpp:141] Setting up InnerProduct25
I0729 15:36:08.841887 11376 net.cpp:148] Top shape: 100 100 (10000)
I0729 15:36:08.841894 11376 net.cpp:156] Memory required for data: 1234352400
I0729 15:36:08.841902 11376 net.cpp:484] Sharing parameters 'ip1_w' owned by layer 'InnerProduct1', param index 0
I0729 15:36:08.841909 11376 net.cpp:484] Sharing parameters 'ip1_b' owned by layer 'InnerProduct1', param index 1
I0729 15:36:08.841915 11376 layer_factory.hpp:77] Creating layer ReLU17
I0729 15:36:08.841928 11376 net.cpp:91] Creating Layer ReLU17
I0729 15:36:08.841935 11376 net.cpp:425] ReLU17 <- InnerProduct25
I0729 15:36:08.841943 11376 net.cpp:386] ReLU17 -> InnerProduct25 (in-place)
I0729 15:36:08.841954 11376 net.cpp:141] Setting up ReLU17
I0729 15:36:08.841962 11376 net.cpp:148] Top shape: 100 100 (10000)
I0729 15:36:08.841967 11376 net.cpp:156] Memory required for data: 1234392400
I0729 15:36:08.841974 11376 layer_factory.hpp:77] Creating layer InnerProduct26
I0729 15:36:08.841984 11376 net.cpp:91] Creating Layer InnerProduct26
I0729 15:36:08.841989 11376 net.cpp:425] InnerProduct26 <- InnerProduct25
I0729 15:36:08.841998 11376 net.cpp:399] InnerProduct26 -> InnerProduct26
I0729 15:36:08.842170 11376 net.cpp:141] Setting up InnerProduct26
I0729 15:36:08.842177 11376 net.cpp:148] Top shape: 100 50 (5000)
I0729 15:36:08.842183 11376 net.cpp:156] Memory required for data: 1234412400
I0729 15:36:08.842190 11376 net.cpp:484] Sharing parameters 'ip2_w' owned by layer 'InnerProduct2', param index 0
I0729 15:36:08.842196 11376 net.cpp:484] Sharing parameters 'ip2_b' owned by layer 'InnerProduct2', param index 1
I0729 15:36:08.842202 11376 layer_factory.hpp:77] Creating layer Convolution19
I0729 15:36:08.842216 11376 net.cpp:91] Creating Layer Convolution19
I0729 15:36:08.842224 11376 net.cpp:425] Convolution19 <- c24
I0729 15:36:08.842236 11376 net.cpp:399] Convolution19 -> Convolution19
I0729 15:36:08.842576 11376 net.cpp:141] Setting up Convolution19
I0729 15:36:08.842584 11376 net.cpp:148] Top shape: 100 20 60 60 (7200000)
I0729 15:36:08.842591 11376 net.cpp:156] Memory required for data: 1263212400
I0729 15:36:08.842597 11376 net.cpp:484] Sharing parameters 'conv1_w' owned by layer 'Convolution1', param index 0
I0729 15:36:08.842603 11376 net.cpp:484] Sharing parameters 'conv1_b' owned by layer 'Convolution1', param index 1
I0729 15:36:08.842609 11376 layer_factory.hpp:77] Creating layer Pooling19
I0729 15:36:08.842617 11376 net.cpp:91] Creating Layer Pooling19
I0729 15:36:08.842636 11376 net.cpp:425] Pooling19 <- Convolution19
I0729 15:36:08.842646 11376 net.cpp:399] Pooling19 -> Pooling19
I0729 15:36:08.842694 11376 net.cpp:141] Setting up Pooling19
I0729 15:36:08.842705 11376 net.cpp:148] Top shape: 100 20 30 30 (1800000)
I0729 15:36:08.842728 11376 net.cpp:156] Memory required for data: 1270412400
I0729 15:36:08.842735 11376 layer_factory.hpp:77] Creating layer Convolution20
I0729 15:36:08.842747 11376 net.cpp:91] Creating Layer Convolution20
I0729 15:36:08.842753 11376 net.cpp:425] Convolution20 <- Pooling19
I0729 15:36:08.842763 11376 net.cpp:399] Convolution20 -> Convolution20
I0729 15:36:08.843300 11376 net.cpp:141] Setting up Convolution20
I0729 15:36:08.843309 11376 net.cpp:148] Top shape: 100 50 26 26 (3380000)
I0729 15:36:08.843315 11376 net.cpp:156] Memory required for data: 1283932400
I0729 15:36:08.843322 11376 net.cpp:484] Sharing parameters 'conv2_w' owned by layer 'Convolution2', param index 0
I0729 15:36:08.843328 11376 net.cpp:484] Sharing parameters 'conv2_b' owned by layer 'Convolution2', param index 1
I0729 15:36:08.843334 11376 layer_factory.hpp:77] Creating layer Pooling20
I0729 15:36:08.843348 11376 net.cpp:91] Creating Layer Pooling20
I0729 15:36:08.843353 11376 net.cpp:425] Pooling20 <- Convolution20
I0729 15:36:08.843363 11376 net.cpp:399] Pooling20 -> Pooling20
I0729 15:36:08.843413 11376 net.cpp:141] Setting up Pooling20
I0729 15:36:08.843421 11376 net.cpp:148] Top shape: 100 50 13 13 (845000)
I0729 15:36:08.843427 11376 net.cpp:156] Memory required for data: 1287312400
I0729 15:36:08.843432 11376 layer_factory.hpp:77] Creating layer InnerProduct27
I0729 15:36:08.843444 11376 net.cpp:91] Creating Layer InnerProduct27
I0729 15:36:08.843451 11376 net.cpp:425] InnerProduct27 <- Pooling20
I0729 15:36:08.843459 11376 net.cpp:399] InnerProduct27 -> InnerProduct27
I0729 15:36:08.852217 11376 net.cpp:141] Setting up InnerProduct27
I0729 15:36:08.852246 11376 net.cpp:148] Top shape: 100 100 (10000)
I0729 15:36:08.852252 11376 net.cpp:156] Memory required for data: 1287352400
I0729 15:36:08.852262 11376 net.cpp:484] Sharing parameters 'ip1_w' owned by layer 'InnerProduct1', param index 0
I0729 15:36:08.852272 11376 net.cpp:484] Sharing parameters 'ip1_b' owned by layer 'InnerProduct1', param index 1
I0729 15:36:08.852278 11376 layer_factory.hpp:77] Creating layer ReLU18
I0729 15:36:08.852293 11376 net.cpp:91] Creating Layer ReLU18
I0729 15:36:08.852301 11376 net.cpp:425] ReLU18 <- InnerProduct27
I0729 15:36:08.852313 11376 net.cpp:386] ReLU18 -> InnerProduct27 (in-place)
I0729 15:36:08.852327 11376 net.cpp:141] Setting up ReLU18
I0729 15:36:08.852335 11376 net.cpp:148] Top shape: 100 100 (10000)
I0729 15:36:08.852340 11376 net.cpp:156] Memory required for data: 1287392400
I0729 15:36:08.852346 11376 layer_factory.hpp:77] Creating layer InnerProduct28
I0729 15:36:08.852357 11376 net.cpp:91] Creating Layer InnerProduct28
I0729 15:36:08.852363 11376 net.cpp:425] InnerProduct28 <- InnerProduct27
I0729 15:36:08.852376 11376 net.cpp:399] InnerProduct28 -> InnerProduct28
I0729 15:36:08.852571 11376 net.cpp:141] Setting up InnerProduct28
I0729 15:36:08.852579 11376 net.cpp:148] Top shape: 100 50 (5000)
I0729 15:36:08.852586 11376 net.cpp:156] Memory required for data: 1287412400
I0729 15:36:08.852591 11376 net.cpp:484] Sharing parameters 'ip2_w' owned by layer 'InnerProduct2', param index 0
I0729 15:36:08.852599 11376 net.cpp:484] Sharing parameters 'ip2_b' owned by layer 'InnerProduct2', param index 1
I0729 15:36:08.852605 11376 layer_factory.hpp:77] Creating layer Concat5
I0729 15:36:08.852617 11376 net.cpp:91] Creating Layer Concat5
I0729 15:36:08.852623 11376 net.cpp:425] Concat5 <- InnerProduct26
I0729 15:36:08.852632 11376 net.cpp:425] Concat5 <- InnerProduct28
I0729 15:36:08.852640 11376 net.cpp:399] Concat5 -> Concat5
I0729 15:36:08.852672 11376 net.cpp:141] Setting up Concat5
I0729 15:36:08.852679 11376 net.cpp:148] Top shape: 100 100 (10000)
I0729 15:36:08.852684 11376 net.cpp:156] Memory required for data: 1287452400
I0729 15:36:08.852690 11376 layer_factory.hpp:77] Creating layer InnerProduct29
I0729 15:36:08.852702 11376 net.cpp:91] Creating Layer InnerProduct29
I0729 15:36:08.852708 11376 net.cpp:425] InnerProduct29 <- Concat5
I0729 15:36:08.852720 11376 net.cpp:399] InnerProduct29 -> InnerProduct29
I0729 15:36:08.852928 11376 net.cpp:141] Setting up InnerProduct29
I0729 15:36:08.852936 11376 net.cpp:148] Top shape: 100 64 (6400)
I0729 15:36:08.852941 11376 net.cpp:156] Memory required for data: 1287478000
I0729 15:36:08.852948 11376 net.cpp:484] Sharing parameters 'fc1_w' owned by layer 'InnerProduct5', param index 0
I0729 15:36:08.852955 11376 net.cpp:484] Sharing parameters 'fc1_b' owned by layer 'InnerProduct5', param index 1
I0729 15:36:08.852962 11376 layer_factory.hpp:77] Creating layer ReLU19
I0729 15:36:08.852969 11376 net.cpp:91] Creating Layer ReLU19
I0729 15:36:08.852975 11376 net.cpp:425] ReLU19 <- InnerProduct29
I0729 15:36:08.852983 11376 net.cpp:386] ReLU19 -> InnerProduct29 (in-place)
I0729 15:36:08.852993 11376 net.cpp:141] Setting up ReLU19
I0729 15:36:08.852999 11376 net.cpp:148] Top shape: 100 64 (6400)
I0729 15:36:08.853004 11376 net.cpp:156] Memory required for data: 1287503600
I0729 15:36:08.853010 11376 layer_factory.hpp:77] Creating layer InnerProduct30
I0729 15:36:08.853019 11376 net.cpp:91] Creating Layer InnerProduct30
I0729 15:36:08.853025 11376 net.cpp:425] InnerProduct30 <- InnerProduct29
I0729 15:36:08.853039 11376 net.cpp:399] InnerProduct30 -> InnerProduct30
I0729 15:36:08.853193 11376 net.cpp:141] Setting up InnerProduct30
I0729 15:36:08.853200 11376 net.cpp:148] Top shape: 100 32 (3200)
I0729 15:36:08.853205 11376 net.cpp:156] Memory required for data: 1287516400
I0729 15:36:08.853211 11376 net.cpp:484] Sharing parameters 'fc2_w' owned by layer 'InnerProduct6', param index 0
I0729 15:36:08.853219 11376 net.cpp:484] Sharing parameters 'fc2_b' owned by layer 'InnerProduct6', param index 1
I0729 15:36:08.853224 11376 layer_factory.hpp:77] Creating layer ReLU20
I0729 15:36:08.853232 11376 net.cpp:91] Creating Layer ReLU20
I0729 15:36:08.853238 11376 net.cpp:425] ReLU20 <- InnerProduct30
I0729 15:36:08.853246 11376 net.cpp:386] ReLU20 -> InnerProduct30 (in-place)
I0729 15:36:08.853255 11376 net.cpp:141] Setting up ReLU20
I0729 15:36:08.853262 11376 net.cpp:148] Top shape: 100 32 (3200)
I0729 15:36:08.853267 11376 net.cpp:156] Memory required for data: 1287529200
I0729 15:36:08.853273 11376 layer_factory.hpp:77] Creating layer dt4
I0729 15:36:08.853282 11376 net.cpp:91] Creating Layer dt4
I0729 15:36:08.853287 11376 net.cpp:425] dt4 <- InnerProduct30
I0729 15:36:08.853301 11376 net.cpp:399] dt4 -> dt4
I0729 15:36:08.853441 11376 net.cpp:141] Setting up dt4
I0729 15:36:08.853448 11376 net.cpp:148] Top shape: 100 2 (200)
I0729 15:36:08.853454 11376 net.cpp:156] Memory required for data: 1287530000
I0729 15:36:08.853461 11376 net.cpp:484] Sharing parameters 'fc3_w' owned by layer 'dt0', param index 0
I0729 15:36:08.853467 11376 net.cpp:484] Sharing parameters 'fc3_b' owned by layer 'dt0', param index 1
I0729 15:36:08.853474 11376 layer_factory.hpp:77] Creating layer Convolution21
I0729 15:36:08.853487 11376 net.cpp:91] Creating Layer Convolution21
I0729 15:36:08.853494 11376 net.cpp:425] Convolution21 <- p1_p1_0_split_5
I0729 15:36:08.853504 11376 net.cpp:399] Convolution21 -> Convolution21
I0729 15:36:08.853854 11376 net.cpp:141] Setting up Convolution21
I0729 15:36:08.853864 11376 net.cpp:148] Top shape: 100 20 60 60 (7200000)
I0729 15:36:08.853870 11376 net.cpp:156] Memory required for data: 1316330000
I0729 15:36:08.853876 11376 net.cpp:484] Sharing parameters 'conv1_w' owned by layer 'Convolution1', param index 0
I0729 15:36:08.853883 11376 net.cpp:484] Sharing parameters 'conv1_b' owned by layer 'Convolution1', param index 1
I0729 15:36:08.853890 11376 layer_factory.hpp:77] Creating layer Pooling21
I0729 15:36:08.853899 11376 net.cpp:91] Creating Layer Pooling21
I0729 15:36:08.853905 11376 net.cpp:425] Pooling21 <- Convolution21
I0729 15:36:08.853915 11376 net.cpp:399] Pooling21 -> Pooling21
I0729 15:36:08.853967 11376 net.cpp:141] Setting up Pooling21
I0729 15:36:08.853976 11376 net.cpp:148] Top shape: 100 20 30 30 (1800000)
I0729 15:36:08.853981 11376 net.cpp:156] Memory required for data: 1323530000
I0729 15:36:08.853986 11376 layer_factory.hpp:77] Creating layer Convolution22
I0729 15:36:08.854007 11376 net.cpp:91] Creating Layer Convolution22
I0729 15:36:08.854013 11376 net.cpp:425] Convolution22 <- Pooling21
I0729 15:36:08.854025 11376 net.cpp:399] Convolution22 -> Convolution22
I0729 15:36:08.855218 11376 net.cpp:141] Setting up Convolution22
I0729 15:36:08.855231 11376 net.cpp:148] Top shape: 100 50 26 26 (3380000)
I0729 15:36:08.855237 11376 net.cpp:156] Memory required for data: 1337050000
I0729 15:36:08.855244 11376 net.cpp:484] Sharing parameters 'conv2_w' owned by layer 'Convolution2', param index 0
I0729 15:36:08.855252 11376 net.cpp:484] Sharing parameters 'conv2_b' owned by layer 'Convolution2', param index 1
I0729 15:36:08.855257 11376 layer_factory.hpp:77] Creating layer Pooling22
I0729 15:36:08.855268 11376 net.cpp:91] Creating Layer Pooling22
I0729 15:36:08.855283 11376 net.cpp:425] Pooling22 <- Convolution22
I0729 15:36:08.855293 11376 net.cpp:399] Pooling22 -> Pooling22
I0729 15:36:08.855345 11376 net.cpp:141] Setting up Pooling22
I0729 15:36:08.855352 11376 net.cpp:148] Top shape: 100 50 13 13 (845000)
I0729 15:36:08.855358 11376 net.cpp:156] Memory required for data: 1340430000
I0729 15:36:08.855363 11376 layer_factory.hpp:77] Creating layer InnerProduct31
I0729 15:36:08.855377 11376 net.cpp:91] Creating Layer InnerProduct31
I0729 15:36:08.855383 11376 net.cpp:425] InnerProduct31 <- Pooling22
I0729 15:36:08.855393 11376 net.cpp:399] InnerProduct31 -> InnerProduct31
I0729 15:36:08.863708 11376 net.cpp:141] Setting up InnerProduct31
I0729 15:36:08.863734 11376 net.cpp:148] Top shape: 100 100 (10000)
I0729 15:36:08.863740 11376 net.cpp:156] Memory required for data: 1340470000
I0729 15:36:08.863751 11376 net.cpp:484] Sharing parameters 'ip1_w' owned by layer 'InnerProduct1', param index 0
I0729 15:36:08.863760 11376 net.cpp:484] Sharing parameters 'ip1_b' owned by layer 'InnerProduct1', param index 1
I0729 15:36:08.863766 11376 layer_factory.hpp:77] Creating layer ReLU21
I0729 15:36:08.863778 11376 net.cpp:91] Creating Layer ReLU21
I0729 15:36:08.863786 11376 net.cpp:425] ReLU21 <- InnerProduct31
I0729 15:36:08.863800 11376 net.cpp:386] ReLU21 -> InnerProduct31 (in-place)
I0729 15:36:08.863812 11376 net.cpp:141] Setting up ReLU21
I0729 15:36:08.863819 11376 net.cpp:148] Top shape: 100 100 (10000)
I0729 15:36:08.863824 11376 net.cpp:156] Memory required for data: 1340510000
I0729 15:36:08.863831 11376 layer_factory.hpp:77] Creating layer InnerProduct32
I0729 15:36:08.863842 11376 net.cpp:91] Creating Layer InnerProduct32
I0729 15:36:08.863847 11376 net.cpp:425] InnerProduct32 <- InnerProduct31
I0729 15:36:08.863860 11376 net.cpp:399] InnerProduct32 -> InnerProduct32
I0729 15:36:08.864044 11376 net.cpp:141] Setting up InnerProduct32
I0729 15:36:08.864053 11376 net.cpp:148] Top shape: 100 50 (5000)
I0729 15:36:08.864058 11376 net.cpp:156] Memory required for data: 1340530000
I0729 15:36:08.864065 11376 net.cpp:484] Sharing parameters 'ip2_w' owned by layer 'InnerProduct2', param index 0
I0729 15:36:08.864073 11376 net.cpp:484] Sharing parameters 'ip2_b' owned by layer 'InnerProduct2', param index 1
I0729 15:36:08.864078 11376 layer_factory.hpp:77] Creating layer Convolution23
I0729 15:36:08.864092 11376 net.cpp:91] Creating Layer Convolution23
I0729 15:36:08.864099 11376 net.cpp:425] Convolution23 <- c25
I0729 15:36:08.864114 11376 net.cpp:399] Convolution23 -> Convolution23
I0729 15:36:08.864473 11376 net.cpp:141] Setting up Convolution23
I0729 15:36:08.864481 11376 net.cpp:148] Top shape: 100 20 60 60 (7200000)
I0729 15:36:08.864487 11376 net.cpp:156] Memory required for data: 1369330000
I0729 15:36:08.864493 11376 net.cpp:484] Sharing parameters 'conv1_w' owned by layer 'Convolution1', param index 0
I0729 15:36:08.864500 11376 net.cpp:484] Sharing parameters 'conv1_b' owned by layer 'Convolution1', param index 1
I0729 15:36:08.864507 11376 layer_factory.hpp:77] Creating layer Pooling23
I0729 15:36:08.864519 11376 net.cpp:91] Creating Layer Pooling23
I0729 15:36:08.864526 11376 net.cpp:425] Pooling23 <- Convolution23
I0729 15:36:08.864536 11376 net.cpp:399] Pooling23 -> Pooling23
I0729 15:36:08.864609 11376 net.cpp:141] Setting up Pooling23
I0729 15:36:08.864617 11376 net.cpp:148] Top shape: 100 20 30 30 (1800000)
I0729 15:36:08.864624 11376 net.cpp:156] Memory required for data: 1376530000
I0729 15:36:08.864629 11376 layer_factory.hpp:77] Creating layer Convolution24
I0729 15:36:08.864642 11376 net.cpp:91] Creating Layer Convolution24
I0729 15:36:08.864648 11376 net.cpp:425] Convolution24 <- Pooling23
I0729 15:36:08.864658 11376 net.cpp:399] Convolution24 -> Convolution24
I0729 15:36:08.865200 11376 net.cpp:141] Setting up Convolution24
I0729 15:36:08.865207 11376 net.cpp:148] Top shape: 100 50 26 26 (3380000)
I0729 15:36:08.865213 11376 net.cpp:156] Memory required for data: 1390050000
I0729 15:36:08.865219 11376 net.cpp:484] Sharing parameters 'conv2_w' owned by layer 'Convolution2', param index 0
I0729 15:36:08.865227 11376 net.cpp:484] Sharing parameters 'conv2_b' owned by layer 'Convolution2', param index 1
I0729 15:36:08.865234 11376 layer_factory.hpp:77] Creating layer Pooling24
I0729 15:36:08.865242 11376 net.cpp:91] Creating Layer Pooling24
I0729 15:36:08.865248 11376 net.cpp:425] Pooling24 <- Convolution24
I0729 15:36:08.865257 11376 net.cpp:399] Pooling24 -> Pooling24
I0729 15:36:08.865306 11376 net.cpp:141] Setting up Pooling24
I0729 15:36:08.865314 11376 net.cpp:148] Top shape: 100 50 13 13 (845000)
I0729 15:36:08.865319 11376 net.cpp:156] Memory required for data: 1393430000
I0729 15:36:08.865325 11376 layer_factory.hpp:77] Creating layer InnerProduct33
I0729 15:36:08.865337 11376 net.cpp:91] Creating Layer InnerProduct33
I0729 15:36:08.865344 11376 net.cpp:425] InnerProduct33 <- Pooling24
I0729 15:36:08.865356 11376 net.cpp:399] InnerProduct33 -> InnerProduct33
I0729 15:36:08.873765 11376 net.cpp:141] Setting up InnerProduct33
I0729 15:36:08.873791 11376 net.cpp:148] Top shape: 100 100 (10000)
I0729 15:36:08.873798 11376 net.cpp:156] Memory required for data: 1393470000
I0729 15:36:08.873808 11376 net.cpp:484] Sharing parameters 'ip1_w' owned by layer 'InnerProduct1', param index 0
I0729 15:36:08.873817 11376 net.cpp:484] Sharing parameters 'ip1_b' owned by layer 'InnerProduct1', param index 1
I0729 15:36:08.873824 11376 layer_factory.hpp:77] Creating layer ReLU22
I0729 15:36:08.873836 11376 net.cpp:91] Creating Layer ReLU22
I0729 15:36:08.873844 11376 net.cpp:425] ReLU22 <- InnerProduct33
I0729 15:36:08.873857 11376 net.cpp:386] ReLU22 -> InnerProduct33 (in-place)
I0729 15:36:08.873870 11376 net.cpp:141] Setting up ReLU22
I0729 15:36:08.873878 11376 net.cpp:148] Top shape: 100 100 (10000)
I0729 15:36:08.873883 11376 net.cpp:156] Memory required for data: 1393510000
I0729 15:36:08.873889 11376 layer_factory.hpp:77] Creating layer InnerProduct34
I0729 15:36:08.873899 11376 net.cpp:91] Creating Layer InnerProduct34
I0729 15:36:08.873905 11376 net.cpp:425] InnerProduct34 <- InnerProduct33
I0729 15:36:08.873917 11376 net.cpp:399] InnerProduct34 -> InnerProduct34
I0729 15:36:08.874111 11376 net.cpp:141] Setting up InnerProduct34
I0729 15:36:08.874119 11376 net.cpp:148] Top shape: 100 50 (5000)
I0729 15:36:08.874125 11376 net.cpp:156] Memory required for data: 1393530000
I0729 15:36:08.874130 11376 net.cpp:484] Sharing parameters 'ip2_w' owned by layer 'InnerProduct2', param index 0
I0729 15:36:08.874137 11376 net.cpp:484] Sharing parameters 'ip2_b' owned by layer 'InnerProduct2', param index 1
I0729 15:36:08.874143 11376 layer_factory.hpp:77] Creating layer Concat6
I0729 15:36:08.874153 11376 net.cpp:91] Creating Layer Concat6
I0729 15:36:08.874160 11376 net.cpp:425] Concat6 <- InnerProduct32
I0729 15:36:08.874167 11376 net.cpp:425] Concat6 <- InnerProduct34
I0729 15:36:08.874179 11376 net.cpp:399] Concat6 -> Concat6
I0729 15:36:08.874209 11376 net.cpp:141] Setting up Concat6
I0729 15:36:08.874218 11376 net.cpp:148] Top shape: 100 100 (10000)
I0729 15:36:08.874224 11376 net.cpp:156] Memory required for data: 1393570000
I0729 15:36:08.874230 11376 layer_factory.hpp:77] Creating layer InnerProduct35
I0729 15:36:08.874239 11376 net.cpp:91] Creating Layer InnerProduct35
I0729 15:36:08.874269 11376 net.cpp:425] InnerProduct35 <- Concat6
I0729 15:36:08.874280 11376 net.cpp:399] InnerProduct35 -> InnerProduct35
I0729 15:36:08.874475 11376 net.cpp:141] Setting up InnerProduct35
I0729 15:36:08.874481 11376 net.cpp:148] Top shape: 100 64 (6400)
I0729 15:36:08.874487 11376 net.cpp:156] Memory required for data: 1393595600
I0729 15:36:08.874493 11376 net.cpp:484] Sharing parameters 'fc1_w' owned by layer 'InnerProduct5', param index 0
I0729 15:36:08.874500 11376 net.cpp:484] Sharing parameters 'fc1_b' owned by layer 'InnerProduct5', param index 1
I0729 15:36:08.874507 11376 layer_factory.hpp:77] Creating layer ReLU23
I0729 15:36:08.874516 11376 net.cpp:91] Creating Layer ReLU23
I0729 15:36:08.874523 11376 net.cpp:425] ReLU23 <- InnerProduct35
I0729 15:36:08.874531 11376 net.cpp:386] ReLU23 -> InnerProduct35 (in-place)
I0729 15:36:08.874541 11376 net.cpp:141] Setting up ReLU23
I0729 15:36:08.874547 11376 net.cpp:148] Top shape: 100 64 (6400)
I0729 15:36:08.874553 11376 net.cpp:156] Memory required for data: 1393621200
I0729 15:36:08.874559 11376 layer_factory.hpp:77] Creating layer InnerProduct36
I0729 15:36:08.874572 11376 net.cpp:91] Creating Layer InnerProduct36
I0729 15:36:08.874577 11376 net.cpp:425] InnerProduct36 <- InnerProduct35
I0729 15:36:08.874586 11376 net.cpp:399] InnerProduct36 -> InnerProduct36
I0729 15:36:08.874747 11376 net.cpp:141] Setting up InnerProduct36
I0729 15:36:08.874754 11376 net.cpp:148] Top shape: 100 32 (3200)
I0729 15:36:08.874759 11376 net.cpp:156] Memory required for data: 1393634000
I0729 15:36:08.874806 11376 net.cpp:484] Sharing parameters 'fc2_w' owned by layer 'InnerProduct6', param index 0
I0729 15:36:08.874816 11376 net.cpp:484] Sharing parameters 'fc2_b' owned by layer 'InnerProduct6', param index 1
I0729 15:36:08.874822 11376 layer_factory.hpp:77] Creating layer ReLU24
I0729 15:36:08.874832 11376 net.cpp:91] Creating Layer ReLU24
I0729 15:36:08.874840 11376 net.cpp:425] ReLU24 <- InnerProduct36
I0729 15:36:08.874847 11376 net.cpp:386] ReLU24 -> InnerProduct36 (in-place)
I0729 15:36:08.874856 11376 net.cpp:141] Setting up ReLU24
I0729 15:36:08.874863 11376 net.cpp:148] Top shape: 100 32 (3200)
I0729 15:36:08.874869 11376 net.cpp:156] Memory required for data: 1393646800
I0729 15:36:08.874876 11376 layer_factory.hpp:77] Creating layer dt5
I0729 15:36:08.874884 11376 net.cpp:91] Creating Layer dt5
I0729 15:36:08.874891 11376 net.cpp:425] dt5 <- InnerProduct36
I0729 15:36:08.874903 11376 net.cpp:399] dt5 -> dt5
I0729 15:36:08.875041 11376 net.cpp:141] Setting up dt5
I0729 15:36:08.875049 11376 net.cpp:148] Top shape: 100 2 (200)
I0729 15:36:08.875054 11376 net.cpp:156] Memory required for data: 1393647600
I0729 15:36:08.875061 11376 net.cpp:484] Sharing parameters 'fc3_w' owned by layer 'dt0', param index 0
I0729 15:36:08.875068 11376 net.cpp:484] Sharing parameters 'fc3_b' owned by layer 'dt0', param index 1
I0729 15:36:08.875074 11376 layer_factory.hpp:77] Creating layer Convolution25
I0729 15:36:08.875092 11376 net.cpp:91] Creating Layer Convolution25
I0729 15:36:08.875098 11376 net.cpp:425] Convolution25 <- p1_p1_0_split_6
I0729 15:36:08.875110 11376 net.cpp:399] Convolution25 -> Convolution25
I0729 15:36:08.875484 11376 net.cpp:141] Setting up Convolution25
I0729 15:36:08.875493 11376 net.cpp:148] Top shape: 100 20 60 60 (7200000)
I0729 15:36:08.875499 11376 net.cpp:156] Memory required for data: 1422447600
I0729 15:36:08.875504 11376 net.cpp:484] Sharing parameters 'conv1_w' owned by layer 'Convolution1', param index 0
I0729 15:36:08.875511 11376 net.cpp:484] Sharing parameters 'conv1_b' owned by layer 'Convolution1', param index 1
I0729 15:36:08.875517 11376 layer_factory.hpp:77] Creating layer Pooling25
I0729 15:36:08.875531 11376 net.cpp:91] Creating Layer Pooling25
I0729 15:36:08.875537 11376 net.cpp:425] Pooling25 <- Convolution25
I0729 15:36:08.875547 11376 net.cpp:399] Pooling25 -> Pooling25
I0729 15:36:08.875600 11376 net.cpp:141] Setting up Pooling25
I0729 15:36:08.875608 11376 net.cpp:148] Top shape: 100 20 30 30 (1800000)
I0729 15:36:08.875624 11376 net.cpp:156] Memory required for data: 1429647600
I0729 15:36:08.875630 11376 layer_factory.hpp:77] Creating layer Convolution26
I0729 15:36:08.875650 11376 net.cpp:91] Creating Layer Convolution26
I0729 15:36:08.875658 11376 net.cpp:425] Convolution26 <- Pooling25
I0729 15:36:08.875670 11376 net.cpp:399] Convolution26 -> Convolution26
I0729 15:36:08.876255 11376 net.cpp:141] Setting up Convolution26
I0729 15:36:08.876267 11376 net.cpp:148] Top shape: 100 50 26 26 (3380000)
I0729 15:36:08.876274 11376 net.cpp:156] Memory required for data: 1443167600
I0729 15:36:08.876281 11376 net.cpp:484] Sharing parameters 'conv2_w' owned by layer 'Convolution2', param index 0
I0729 15:36:08.876291 11376 net.cpp:484] Sharing parameters 'conv2_b' owned by layer 'Convolution2', param index 1
I0729 15:36:08.876297 11376 layer_factory.hpp:77] Creating layer Pooling26
I0729 15:36:08.876307 11376 net.cpp:91] Creating Layer Pooling26
I0729 15:36:08.876314 11376 net.cpp:425] Pooling26 <- Convolution26
I0729 15:36:08.876327 11376 net.cpp:399] Pooling26 -> Pooling26
I0729 15:36:08.876384 11376 net.cpp:141] Setting up Pooling26
I0729 15:36:08.876392 11376 net.cpp:148] Top shape: 100 50 13 13 (845000)
I0729 15:36:08.876399 11376 net.cpp:156] Memory required for data: 1446547600
I0729 15:36:08.876405 11376 layer_factory.hpp:77] Creating layer InnerProduct37
I0729 15:36:08.876418 11376 net.cpp:91] Creating Layer InnerProduct37
I0729 15:36:08.876425 11376 net.cpp:425] InnerProduct37 <- Pooling26
I0729 15:36:08.876436 11376 net.cpp:399] InnerProduct37 -> InnerProduct37
I0729 15:36:08.885324 11376 net.cpp:141] Setting up InnerProduct37
I0729 15:36:08.885351 11376 net.cpp:148] Top shape: 100 100 (10000)
I0729 15:36:08.885359 11376 net.cpp:156] Memory required for data: 1446587600
I0729 15:36:08.885370 11376 net.cpp:484] Sharing parameters 'ip1_w' owned by layer 'InnerProduct1', param index 0
I0729 15:36:08.885378 11376 net.cpp:484] Sharing parameters 'ip1_b' owned by layer 'InnerProduct1', param index 1
I0729 15:36:08.885385 11376 layer_factory.hpp:77] Creating layer ReLU25
I0729 15:36:08.885398 11376 net.cpp:91] Creating Layer ReLU25
I0729 15:36:08.885408 11376 net.cpp:425] ReLU25 <- InnerProduct37
I0729 15:36:08.885421 11376 net.cpp:386] ReLU25 -> InnerProduct37 (in-place)
I0729 15:36:08.885435 11376 net.cpp:141] Setting up ReLU25
I0729 15:36:08.885443 11376 net.cpp:148] Top shape: 100 100 (10000)
I0729 15:36:08.885448 11376 net.cpp:156] Memory required for data: 1446627600
I0729 15:36:08.885454 11376 layer_factory.hpp:77] Creating layer InnerProduct38
I0729 15:36:08.885465 11376 net.cpp:91] Creating Layer InnerProduct38
I0729 15:36:08.885473 11376 net.cpp:425] InnerProduct38 <- InnerProduct37
I0729 15:36:08.885484 11376 net.cpp:399] InnerProduct38 -> InnerProduct38
I0729 15:36:08.885673 11376 net.cpp:141] Setting up InnerProduct38
I0729 15:36:08.885681 11376 net.cpp:148] Top shape: 100 50 (5000)
I0729 15:36:08.885686 11376 net.cpp:156] Memory required for data: 1446647600
I0729 15:36:08.885694 11376 net.cpp:484] Sharing parameters 'ip2_w' owned by layer 'InnerProduct2', param index 0
I0729 15:36:08.885700 11376 net.cpp:484] Sharing parameters 'ip2_b' owned by layer 'InnerProduct2', param index 1
I0729 15:36:08.885707 11376 layer_factory.hpp:77] Creating layer Convolution27
I0729 15:36:08.885725 11376 net.cpp:91] Creating Layer Convolution27
I0729 15:36:08.885732 11376 net.cpp:425] Convolution27 <- c26
I0729 15:36:08.885745 11376 net.cpp:399] Convolution27 -> Convolution27
I0729 15:36:08.886121 11376 net.cpp:141] Setting up Convolution27
I0729 15:36:08.886133 11376 net.cpp:148] Top shape: 100 20 60 60 (7200000)
I0729 15:36:08.886139 11376 net.cpp:156] Memory required for data: 1475447600
I0729 15:36:08.886145 11376 net.cpp:484] Sharing parameters 'conv1_w' owned by layer 'Convolution1', param index 0
I0729 15:36:08.886153 11376 net.cpp:484] Sharing parameters 'conv1_b' owned by layer 'Convolution1', param index 1
I0729 15:36:08.886159 11376 layer_factory.hpp:77] Creating layer Pooling27
I0729 15:36:08.886169 11376 net.cpp:91] Creating Layer Pooling27
I0729 15:36:08.886196 11376 net.cpp:425] Pooling27 <- Convolution27
I0729 15:36:08.886206 11376 net.cpp:399] Pooling27 -> Pooling27
I0729 15:36:08.886262 11376 net.cpp:141] Setting up Pooling27
I0729 15:36:08.886270 11376 net.cpp:148] Top shape: 100 20 30 30 (1800000)
I0729 15:36:08.886276 11376 net.cpp:156] Memory required for data: 1482647600
I0729 15:36:08.886282 11376 layer_factory.hpp:77] Creating layer Convolution28
I0729 15:36:08.886296 11376 net.cpp:91] Creating Layer Convolution28
I0729 15:36:08.886301 11376 net.cpp:425] Convolution28 <- Pooling27
I0729 15:36:08.886313 11376 net.cpp:399] Convolution28 -> Convolution28
I0729 15:36:08.886865 11376 net.cpp:141] Setting up Convolution28
I0729 15:36:08.886873 11376 net.cpp:148] Top shape: 100 50 26 26 (3380000)
I0729 15:36:08.886879 11376 net.cpp:156] Memory required for data: 1496167600
I0729 15:36:08.886886 11376 net.cpp:484] Sharing parameters 'conv2_w' owned by layer 'Convolution2', param index 0
I0729 15:36:08.886893 11376 net.cpp:484] Sharing parameters 'conv2_b' owned by layer 'Convolution2', param index 1
I0729 15:36:08.886900 11376 layer_factory.hpp:77] Creating layer Pooling28
I0729 15:36:08.886909 11376 net.cpp:91] Creating Layer Pooling28
I0729 15:36:08.886914 11376 net.cpp:425] Pooling28 <- Convolution28
I0729 15:36:08.886925 11376 net.cpp:399] Pooling28 -> Pooling28
I0729 15:36:08.886975 11376 net.cpp:141] Setting up Pooling28
I0729 15:36:08.886984 11376 net.cpp:148] Top shape: 100 50 13 13 (845000)
I0729 15:36:08.886989 11376 net.cpp:156] Memory required for data: 1499547600
I0729 15:36:08.886996 11376 layer_factory.hpp:77] Creating layer InnerProduct39
I0729 15:36:08.887004 11376 net.cpp:91] Creating Layer InnerProduct39
I0729 15:36:08.887011 11376 net.cpp:425] InnerProduct39 <- Pooling28
I0729 15:36:08.887022 11376 net.cpp:399] InnerProduct39 -> InnerProduct39
I0729 15:36:08.900161 11376 net.cpp:141] Setting up InnerProduct39
I0729 15:36:08.900178 11376 net.cpp:148] Top shape: 100 100 (10000)
I0729 15:36:08.900184 11376 net.cpp:156] Memory required for data: 1499587600
I0729 15:36:08.900192 11376 net.cpp:484] Sharing parameters 'ip1_w' owned by layer 'InnerProduct1', param index 0
I0729 15:36:08.900200 11376 net.cpp:484] Sharing parameters 'ip1_b' owned by layer 'InnerProduct1', param index 1
I0729 15:36:08.900207 11376 layer_factory.hpp:77] Creating layer ReLU26
I0729 15:36:08.900218 11376 net.cpp:91] Creating Layer ReLU26
I0729 15:36:08.900226 11376 net.cpp:425] ReLU26 <- InnerProduct39
I0729 15:36:08.900234 11376 net.cpp:386] ReLU26 -> InnerProduct39 (in-place)
I0729 15:36:08.900246 11376 net.cpp:141] Setting up ReLU26
I0729 15:36:08.900254 11376 net.cpp:148] Top shape: 100 100 (10000)
I0729 15:36:08.900259 11376 net.cpp:156] Memory required for data: 1499627600
I0729 15:36:08.900264 11376 layer_factory.hpp:77] Creating layer InnerProduct40
I0729 15:36:08.900274 11376 net.cpp:91] Creating Layer InnerProduct40
I0729 15:36:08.900281 11376 net.cpp:425] InnerProduct40 <- InnerProduct39
I0729 15:36:08.900292 11376 net.cpp:399] InnerProduct40 -> InnerProduct40
I0729 15:36:08.900477 11376 net.cpp:141] Setting up InnerProduct40
I0729 15:36:08.900485 11376 net.cpp:148] Top shape: 100 50 (5000)
I0729 15:36:08.900491 11376 net.cpp:156] Memory required for data: 1499647600
I0729 15:36:08.900497 11376 net.cpp:484] Sharing parameters 'ip2_w' owned by layer 'InnerProduct2', param index 0
I0729 15:36:08.900504 11376 net.cpp:484] Sharing parameters 'ip2_b' owned by layer 'InnerProduct2', param index 1
I0729 15:36:08.900511 11376 layer_factory.hpp:77] Creating layer Concat7
I0729 15:36:08.900521 11376 net.cpp:91] Creating Layer Concat7
I0729 15:36:08.900527 11376 net.cpp:425] Concat7 <- InnerProduct38
I0729 15:36:08.900534 11376 net.cpp:425] Concat7 <- InnerProduct40
I0729 15:36:08.900543 11376 net.cpp:399] Concat7 -> Concat7
I0729 15:36:08.900573 11376 net.cpp:141] Setting up Concat7
I0729 15:36:08.900580 11376 net.cpp:148] Top shape: 100 100 (10000)
I0729 15:36:08.900586 11376 net.cpp:156] Memory required for data: 1499687600
I0729 15:36:08.900591 11376 layer_factory.hpp:77] Creating layer InnerProduct41
I0729 15:36:08.900619 11376 net.cpp:91] Creating Layer InnerProduct41
I0729 15:36:08.900625 11376 net.cpp:425] InnerProduct41 <- Concat7
I0729 15:36:08.900636 11376 net.cpp:399] InnerProduct41 -> InnerProduct41
I0729 15:36:08.900828 11376 net.cpp:141] Setting up InnerProduct41
I0729 15:36:08.900835 11376 net.cpp:148] Top shape: 100 64 (6400)
I0729 15:36:08.900841 11376 net.cpp:156] Memory required for data: 1499713200
I0729 15:36:08.900847 11376 net.cpp:484] Sharing parameters 'fc1_w' owned by layer 'InnerProduct5', param index 0
I0729 15:36:08.900854 11376 net.cpp:484] Sharing parameters 'fc1_b' owned by layer 'InnerProduct5', param index 1
I0729 15:36:08.900861 11376 layer_factory.hpp:77] Creating layer ReLU27
I0729 15:36:08.900868 11376 net.cpp:91] Creating Layer ReLU27
I0729 15:36:08.900874 11376 net.cpp:425] ReLU27 <- InnerProduct41
I0729 15:36:08.900882 11376 net.cpp:386] ReLU27 -> InnerProduct41 (in-place)
I0729 15:36:08.900892 11376 net.cpp:141] Setting up ReLU27
I0729 15:36:08.900898 11376 net.cpp:148] Top shape: 100 64 (6400)
I0729 15:36:08.900903 11376 net.cpp:156] Memory required for data: 1499738800
I0729 15:36:08.900909 11376 layer_factory.hpp:77] Creating layer InnerProduct42
I0729 15:36:08.900920 11376 net.cpp:91] Creating Layer InnerProduct42
I0729 15:36:08.900926 11376 net.cpp:425] InnerProduct42 <- InnerProduct41
I0729 15:36:08.900938 11376 net.cpp:399] InnerProduct42 -> InnerProduct42
I0729 15:36:08.901093 11376 net.cpp:141] Setting up InnerProduct42
I0729 15:36:08.901101 11376 net.cpp:148] Top shape: 100 32 (3200)
I0729 15:36:08.901106 11376 net.cpp:156] Memory required for data: 1499751600
I0729 15:36:08.901113 11376 net.cpp:484] Sharing parameters 'fc2_w' owned by layer 'InnerProduct6', param index 0
I0729 15:36:08.901120 11376 net.cpp:484] Sharing parameters 'fc2_b' owned by layer 'InnerProduct6', param index 1
I0729 15:36:08.901126 11376 layer_factory.hpp:77] Creating layer ReLU28
I0729 15:36:08.901134 11376 net.cpp:91] Creating Layer ReLU28
I0729 15:36:08.901139 11376 net.cpp:425] ReLU28 <- InnerProduct42
I0729 15:36:08.901147 11376 net.cpp:386] ReLU28 -> InnerProduct42 (in-place)
I0729 15:36:08.901156 11376 net.cpp:141] Setting up ReLU28
I0729 15:36:08.901163 11376 net.cpp:148] Top shape: 100 32 (3200)
I0729 15:36:08.901168 11376 net.cpp:156] Memory required for data: 1499764400
I0729 15:36:08.901175 11376 layer_factory.hpp:77] Creating layer dt6
I0729 15:36:08.901185 11376 net.cpp:91] Creating Layer dt6
I0729 15:36:08.901191 11376 net.cpp:425] dt6 <- InnerProduct42
I0729 15:36:08.901201 11376 net.cpp:399] dt6 -> dt6
I0729 15:36:08.901338 11376 net.cpp:141] Setting up dt6
I0729 15:36:08.901345 11376 net.cpp:148] Top shape: 100 2 (200)
I0729 15:36:08.901351 11376 net.cpp:156] Memory required for data: 1499765200
I0729 15:36:08.901357 11376 net.cpp:484] Sharing parameters 'fc3_w' owned by layer 'dt0', param index 0
I0729 15:36:08.901365 11376 net.cpp:484] Sharing parameters 'fc3_b' owned by layer 'dt0', param index 1
I0729 15:36:08.901371 11376 layer_factory.hpp:77] Creating layer Convolution29
I0729 15:36:08.901382 11376 net.cpp:91] Creating Layer Convolution29
I0729 15:36:08.901388 11376 net.cpp:425] Convolution29 <- p1_p1_0_split_7
I0729 15:36:08.901401 11376 net.cpp:399] Convolution29 -> Convolution29
I0729 15:36:08.901747 11376 net.cpp:141] Setting up Convolution29
I0729 15:36:08.901756 11376 net.cpp:148] Top shape: 100 20 60 60 (7200000)
I0729 15:36:08.901760 11376 net.cpp:156] Memory required for data: 1528565200
I0729 15:36:08.901767 11376 net.cpp:484] Sharing parameters 'conv1_w' owned by layer 'Convolution1', param index 0
I0729 15:36:08.901774 11376 net.cpp:484] Sharing parameters 'conv1_b' owned by layer 'Convolution1', param index 1
I0729 15:36:08.901780 11376 layer_factory.hpp:77] Creating layer Pooling29
I0729 15:36:08.901788 11376 net.cpp:91] Creating Layer Pooling29
I0729 15:36:08.901795 11376 net.cpp:425] Pooling29 <- Convolution29
I0729 15:36:08.901806 11376 net.cpp:399] Pooling29 -> Pooling29
I0729 15:36:08.901855 11376 net.cpp:141] Setting up Pooling29
I0729 15:36:08.901872 11376 net.cpp:148] Top shape: 100 20 30 30 (1800000)
I0729 15:36:08.901877 11376 net.cpp:156] Memory required for data: 1535765200
I0729 15:36:08.901883 11376 layer_factory.hpp:77] Creating layer Convolution30
I0729 15:36:08.901897 11376 net.cpp:91] Creating Layer Convolution30
I0729 15:36:08.901904 11376 net.cpp:425] Convolution30 <- Pooling29
I0729 15:36:08.901914 11376 net.cpp:399] Convolution30 -> Convolution30
I0729 15:36:08.902462 11376 net.cpp:141] Setting up Convolution30
I0729 15:36:08.902470 11376 net.cpp:148] Top shape: 100 50 26 26 (3380000)
I0729 15:36:08.902477 11376 net.cpp:156] Memory required for data: 1549285200
I0729 15:36:08.902483 11376 net.cpp:484] Sharing parameters 'conv2_w' owned by layer 'Convolution2', param index 0
I0729 15:36:08.902490 11376 net.cpp:484] Sharing parameters 'conv2_b' owned by layer 'Convolution2', param index 1
I0729 15:36:08.902496 11376 layer_factory.hpp:77] Creating layer Pooling30
I0729 15:36:08.902506 11376 net.cpp:91] Creating Layer Pooling30
I0729 15:36:08.902513 11376 net.cpp:425] Pooling30 <- Convolution30
I0729 15:36:08.902521 11376 net.cpp:399] Pooling30 -> Pooling30
I0729 15:36:08.902571 11376 net.cpp:141] Setting up Pooling30
I0729 15:36:08.902578 11376 net.cpp:148] Top shape: 100 50 13 13 (845000)
I0729 15:36:08.902585 11376 net.cpp:156] Memory required for data: 1552665200
I0729 15:36:08.902590 11376 layer_factory.hpp:77] Creating layer InnerProduct43
I0729 15:36:08.902600 11376 net.cpp:91] Creating Layer InnerProduct43
I0729 15:36:08.902606 11376 net.cpp:425] InnerProduct43 <- Pooling30
I0729 15:36:08.902617 11376 net.cpp:399] InnerProduct43 -> InnerProduct43
I0729 15:36:08.911010 11376 net.cpp:141] Setting up InnerProduct43
I0729 15:36:08.911033 11376 net.cpp:148] Top shape: 100 100 (10000)
I0729 15:36:08.911042 11376 net.cpp:156] Memory required for data: 1552705200
I0729 15:36:08.911051 11376 net.cpp:484] Sharing parameters 'ip1_w' owned by layer 'InnerProduct1', param index 0
I0729 15:36:08.911061 11376 net.cpp:484] Sharing parameters 'ip1_b' owned by layer 'InnerProduct1', param index 1
I0729 15:36:08.911067 11376 layer_factory.hpp:77] Creating layer ReLU29
I0729 15:36:08.911077 11376 net.cpp:91] Creating Layer ReLU29
I0729 15:36:08.911085 11376 net.cpp:425] ReLU29 <- InnerProduct43
I0729 15:36:08.911094 11376 net.cpp:386] ReLU29 -> InnerProduct43 (in-place)
I0729 15:36:08.911106 11376 net.cpp:141] Setting up ReLU29
I0729 15:36:08.911113 11376 net.cpp:148] Top shape: 100 100 (10000)
I0729 15:36:08.911119 11376 net.cpp:156] Memory required for data: 1552745200
I0729 15:36:08.911125 11376 layer_factory.hpp:77] Creating layer InnerProduct44
I0729 15:36:08.911139 11376 net.cpp:91] Creating Layer InnerProduct44
I0729 15:36:08.911144 11376 net.cpp:425] InnerProduct44 <- InnerProduct43
I0729 15:36:08.911156 11376 net.cpp:399] InnerProduct44 -> InnerProduct44
I0729 15:36:08.911355 11376 net.cpp:141] Setting up InnerProduct44
I0729 15:36:08.911365 11376 net.cpp:148] Top shape: 100 50 (5000)
I0729 15:36:08.911370 11376 net.cpp:156] Memory required for data: 1552765200
I0729 15:36:08.911377 11376 net.cpp:484] Sharing parameters 'ip2_w' owned by layer 'InnerProduct2', param index 0
I0729 15:36:08.911384 11376 net.cpp:484] Sharing parameters 'ip2_b' owned by layer 'InnerProduct2', param index 1
I0729 15:36:08.911391 11376 layer_factory.hpp:77] Creating layer Convolution31
I0729 15:36:08.911403 11376 net.cpp:91] Creating Layer Convolution31
I0729 15:36:08.911411 11376 net.cpp:425] Convolution31 <- c27
I0729 15:36:08.911424 11376 net.cpp:399] Convolution31 -> Convolution31
I0729 15:36:08.911808 11376 net.cpp:141] Setting up Convolution31
I0729 15:36:08.911818 11376 net.cpp:148] Top shape: 100 20 60 60 (7200000)
I0729 15:36:08.911823 11376 net.cpp:156] Memory required for data: 1581565200
I0729 15:36:08.911829 11376 net.cpp:484] Sharing parameters 'conv1_w' owned by layer 'Convolution1', param index 0
I0729 15:36:08.911837 11376 net.cpp:484] Sharing parameters 'conv1_b' owned by layer 'Convolution1', param index 1
I0729 15:36:08.911860 11376 layer_factory.hpp:77] Creating layer Pooling31
I0729 15:36:08.911870 11376 net.cpp:91] Creating Layer Pooling31
I0729 15:36:08.911876 11376 net.cpp:425] Pooling31 <- Convolution31
I0729 15:36:08.911892 11376 net.cpp:399] Pooling31 -> Pooling31
I0729 15:36:08.911952 11376 net.cpp:141] Setting up Pooling31
I0729 15:36:08.911962 11376 net.cpp:148] Top shape: 100 20 30 30 (1800000)
I0729 15:36:08.911967 11376 net.cpp:156] Memory required for data: 1588765200
I0729 15:36:08.911972 11376 layer_factory.hpp:77] Creating layer Convolution32
I0729 15:36:08.911988 11376 net.cpp:91] Creating Layer Convolution32
I0729 15:36:08.911994 11376 net.cpp:425] Convolution32 <- Pooling31
I0729 15:36:08.912004 11376 net.cpp:399] Convolution32 -> Convolution32
I0729 15:36:08.912538 11376 net.cpp:141] Setting up Convolution32
I0729 15:36:08.912546 11376 net.cpp:148] Top shape: 100 50 26 26 (3380000)
I0729 15:36:08.912551 11376 net.cpp:156] Memory required for data: 1602285200
I0729 15:36:08.912559 11376 net.cpp:484] Sharing parameters 'conv2_w' owned by layer 'Convolution2', param index 0
I0729 15:36:08.912565 11376 net.cpp:484] Sharing parameters 'conv2_b' owned by layer 'Convolution2', param index 1
I0729 15:36:08.912571 11376 layer_factory.hpp:77] Creating layer Pooling32
I0729 15:36:08.912580 11376 net.cpp:91] Creating Layer Pooling32
I0729 15:36:08.912585 11376 net.cpp:425] Pooling32 <- Convolution32
I0729 15:36:08.912595 11376 net.cpp:399] Pooling32 -> Pooling32
I0729 15:36:08.912644 11376 net.cpp:141] Setting up Pooling32
I0729 15:36:08.912652 11376 net.cpp:148] Top shape: 100 50 13 13 (845000)
I0729 15:36:08.912658 11376 net.cpp:156] Memory required for data: 1605665200
I0729 15:36:08.912663 11376 layer_factory.hpp:77] Creating layer InnerProduct45
I0729 15:36:08.912675 11376 net.cpp:91] Creating Layer InnerProduct45
I0729 15:36:08.912681 11376 net.cpp:425] InnerProduct45 <- Pooling32
I0729 15:36:08.912691 11376 net.cpp:399] InnerProduct45 -> InnerProduct45
I0729 15:36:08.920797 11376 net.cpp:141] Setting up InnerProduct45
I0729 15:36:08.920814 11376 net.cpp:148] Top shape: 100 100 (10000)
I0729 15:36:08.920819 11376 net.cpp:156] Memory required for data: 1605705200
I0729 15:36:08.920827 11376 net.cpp:484] Sharing parameters 'ip1_w' owned by layer 'InnerProduct1', param index 0
I0729 15:36:08.920835 11376 net.cpp:484] Sharing parameters 'ip1_b' owned by layer 'InnerProduct1', param index 1
I0729 15:36:08.920841 11376 layer_factory.hpp:77] Creating layer ReLU30
I0729 15:36:08.920851 11376 net.cpp:91] Creating Layer ReLU30
I0729 15:36:08.920858 11376 net.cpp:425] ReLU30 <- InnerProduct45
I0729 15:36:08.920873 11376 net.cpp:386] ReLU30 -> InnerProduct45 (in-place)
I0729 15:36:08.920884 11376 net.cpp:141] Setting up ReLU30
I0729 15:36:08.920892 11376 net.cpp:148] Top shape: 100 100 (10000)
I0729 15:36:08.920897 11376 net.cpp:156] Memory required for data: 1605745200
I0729 15:36:08.920903 11376 layer_factory.hpp:77] Creating layer InnerProduct46
…
I0729 15:36:09.076606 11376 net.cpp:156] Memory required for data: 2401646000
I0729 15:36:09.076613 11376 net.cpp:484] Sharing parameters 'ip1_w' owned by layer 'InnerProduct1', param index 0
I0729 15:36:09.076620 11376 net.cpp:484] Sharing parameters 'ip1_b' owned by layer 'InnerProduct1', param index 1
I0729 15:36:09.076627 11376 layer_factory.hpp:77] Creating layer ReLU61
I0729 15:36:09.076637 11376 net.cpp:91] Creating Layer ReLU61
I0729 15:36:09.076643 11376 net.cpp:425] ReLU61 <- InnerProduct91
I0729 15:36:09.076652 11376 net.cpp:386] ReLU61 -> InnerProduct91 (in-place)
I0729 15:36:09.076661 11376 net.cpp:141] Setting up ReLU61
I0729 15:36:09.076668 11376 net.cpp:148] Top shape: 100 100 (10000)
I0729 15:36:09.076673 11376 net.cpp:156] Memory required for data: 2401686000
I0729 15:36:09.076679 11376 layer_factory.hpp:77] Creating layer InnerProduct92
I0729 15:36:09.076690 11376 net.cpp:91] Creating Layer InnerProduct92
I0729 15:36:09.076697 11376 net.cpp:425] InnerProduct92 <- InnerProduct91
I0729 15:36:09.076709 11376 net.cpp:399] InnerProduct92 -> InnerProduct92
I0729 15:36:09.076889 11376 net.cpp:141] Setting up InnerProduct92
I0729 15:36:09.076895 11376 net.cpp:148] Top shape: 100 50 (5000)
I0729 15:36:09.076915 11376 net.cpp:156] Memory required for data: 2401706000
I0729 15:36:09.076921 11376 net.cpp:484] Sharing parameters 'ip2_w' owned by layer 'InnerProduct2', param index 0
I0729 15:36:09.076928 11376 net.cpp:484] Sharing parameters 'ip2_b' owned by layer 'InnerProduct2', param index 1
I0729 15:36:09.076934 11376 layer_factory.hpp:77] Creating layer Convolution63
I0729 15:36:09.076946 11376 net.cpp:91] Creating Layer Convolution63
I0729 15:36:09.076952 11376 net.cpp:425] Convolution63 <- c16
I0729 15:36:09.076966 11376 net.cpp:399] Convolution63 -> Convolution63
I0729 15:36:09.077333 11376 net.cpp:141] Setting up Convolution63
I0729 15:36:09.077342 11376 net.cpp:148] Top shape: 100 20 60 60 (7200000)
I0729 15:36:09.077347 11376 net.cpp:156] Memory required for data: 2430506000
I0729 15:36:09.077353 11376 net.cpp:484] Sharing parameters 'conv1_w' owned by layer 'Convolution1', param index 0
I0729 15:36:09.077359 11376 net.cpp:484] Sharing parameters 'conv1_b' owned by layer 'Convolution1', param index 1
I0729 15:36:09.077365 11376 layer_factory.hpp:77] Creating layer Pooling63
I0729 15:36:09.077373 11376 net.cpp:91] Creating Layer Pooling63
I0729 15:36:09.077379 11376 net.cpp:425] Pooling63 <- Convolution63
I0729 15:36:09.077392 11376 net.cpp:399] Pooling63 -> Pooling63
I0729 15:36:09.077442 11376 net.cpp:141] Setting up Pooling63
I0729 15:36:09.077450 11376 net.cpp:148] Top shape: 100 20 30 30 (1800000)
I0729 15:36:09.077455 11376 net.cpp:156] Memory required for data: 2437706000
I0729 15:36:09.077461 11376 layer_factory.hpp:77] Creating layer Convolution64
I0729 15:36:09.077476 11376 net.cpp:91] Creating Layer Convolution64
I0729 15:36:09.077481 11376 net.cpp:425] Convolution64 <- Pooling63
I0729 15:36:09.077491 11376 net.cpp:399] Convolution64 -> Convolution64
I0729 15:36:09.078022 11376 net.cpp:141] Setting up Convolution64
I0729 15:36:09.078032 11376 net.cpp:148] Top shape: 100 50 26 26 (3380000)
I0729 15:36:09.078038 11376 net.cpp:156] Memory required for data: 2451226000
I0729 15:36:09.078044 11376 net.cpp:484] Sharing parameters 'conv2_w' owned by layer 'Convolution2', param index 0
I0729 15:36:09.078050 11376 net.cpp:484] Sharing parameters 'conv2_b' owned by layer 'Convolution2', param index 1
I0729 15:36:09.078057 11376 layer_factory.hpp:77] Creating layer Pooling64
I0729 15:36:09.078064 11376 net.cpp:91] Creating Layer Pooling64
I0729 15:36:09.078070 11376 net.cpp:425] Pooling64 <- Convolution64
I0729 15:36:09.078079 11376 net.cpp:399] Pooling64 -> Pooling64
I0729 15:36:09.078130 11376 net.cpp:141] Setting up Pooling64
I0729 15:36:09.078137 11376 net.cpp:148] Top shape: 100 50 13 13 (845000)
I0729 15:36:09.078143 11376 net.cpp:156] Memory required for data: 2454606000
I0729 15:36:09.078148 11376 layer_factory.hpp:77] Creating layer InnerProduct93
I0729 15:36:09.078157 11376 net.cpp:91] Creating Layer InnerProduct93
I0729 15:36:09.078163 11376 net.cpp:425] InnerProduct93 <- Pooling64
I0729 15:36:09.078174 11376 net.cpp:399] InnerProduct93 -> InnerProduct93
I0729 15:36:09.086242 11376 net.cpp:141] Setting up InnerProduct93
I0729 15:36:09.086258 11376 net.cpp:148] Top shape: 100 100 (10000)
I0729 15:36:09.086264 11376 net.cpp:156] Memory required for data: 2454646000
I0729 15:36:09.086272 11376 net.cpp:484] Sharing parameters 'ip1_w' owned by layer 'InnerProduct1', param index 0
I0729 15:36:09.086279 11376 net.cpp:484] Sharing parameters 'ip1_b' owned by layer 'InnerProduct1', param index 1
I0729 15:36:09.086285 11376 layer_factory.hpp:77] Creating layer ReLU62
I0729 15:36:09.086294 11376 net.cpp:91] Creating Layer ReLU62
I0729 15:36:09.086302 11376 net.cpp:425] ReLU62 <- InnerProduct93
I0729 15:36:09.086309 11376 net.cpp:386] ReLU62 -> InnerProduct93 (in-place)
I0729 15:36:09.086321 11376 net.cpp:141] Setting up ReLU62
I0729 15:36:09.086328 11376 net.cpp:148] Top shape: 100 100 (10000)
I0729 15:36:09.086333 11376 net.cpp:156] Memory required for data: 2454686000
I0729 15:36:09.086338 11376 layer_factory.hpp:77] Creating layer InnerProduct94
I0729 15:36:09.086369 11376 net.cpp:91] Creating Layer InnerProduct94
I0729 15:36:09.086375 11376 net.cpp:425] InnerProduct94 <- InnerProduct93
I0729 15:36:09.086386 11376 net.cpp:399] InnerProduct94 -> InnerProduct94
I0729 15:36:09.086577 11376 net.cpp:141] Setting up InnerProduct94
I0729 15:36:09.086585 11376 net.cpp:148] Top shape: 100 50 (5000)
I0729 15:36:09.086591 11376 net.cpp:156] Memory required for data: 2454706000
I0729 15:36:09.086596 11376 net.cpp:484] Sharing parameters 'ip2_w' owned by layer 'InnerProduct2', param index 0
I0729 15:36:09.086603 11376 net.cpp:484] Sharing parameters 'ip2_b' owned by layer 'InnerProduct2', param index 1
I0729 15:36:09.086609 11376 layer_factory.hpp:77] Creating layer Concat16
I0729 15:36:09.086618 11376 net.cpp:91] Creating Layer Concat16
I0729 15:36:09.086624 11376 net.cpp:425] Concat16 <- InnerProduct92
I0729 15:36:09.086632 11376 net.cpp:425] Concat16 <- InnerProduct94
I0729 15:36:09.086642 11376 net.cpp:399] Concat16 -> Concat16
I0729 15:36:09.086673 11376 net.cpp:141] Setting up Concat16
I0729 15:36:09.086680 11376 net.cpp:148] Top shape: 100 100 (10000)
I0729 15:36:09.086686 11376 net.cpp:156] Memory required for data: 2454746000
I0729 15:36:09.086691 11376 layer_factory.hpp:77] Creating layer InnerProduct95
I0729 15:36:09.086702 11376 net.cpp:91] Creating Layer InnerProduct95
I0729 15:36:09.086709 11376 net.cpp:425] InnerProduct95 <- Concat16
I0729 15:36:09.086717 11376 net.cpp:399] InnerProduct95 -> InnerProduct95
I0729 15:36:09.087482 11376 net.cpp:141] Setting up InnerProduct95
I0729 15:36:09.087494 11376 net.cpp:148] Top shape: 100 64 (6400)
I0729 15:36:09.087501 11376 net.cpp:156] Memory required for data: 2454771600
I0729 15:36:09.087507 11376 net.cpp:484] Sharing parameters 'fc1_w' owned by layer 'InnerProduct5', param index 0
I0729 15:36:09.087514 11376 net.cpp:484] Sharing parameters 'fc1_b' owned by layer 'InnerProduct5', param index 1
I0729 15:36:09.087520 11376 layer_factory.hpp:77] Creating layer ReLU63
I0729 15:36:09.087528 11376 net.cpp:91] Creating Layer ReLU63
I0729 15:36:09.087535 11376 net.cpp:425] ReLU63 <- InnerProduct95
I0729 15:36:09.087545 11376 net.cpp:386] ReLU63 -> InnerProduct95 (in-place)
I0729 15:36:09.087555 11376 net.cpp:141] Setting up ReLU63
I0729 15:36:09.087563 11376 net.cpp:148] Top shape: 100 64 (6400)
I0729 15:36:09.087568 11376 net.cpp:156] Memory required for data: 2454797200
I0729 15:36:09.087574 11376 layer_factory.hpp:77] Creating layer InnerProduct96
I0729 15:36:09.087584 11376 net.cpp:91] Creating Layer InnerProduct96
I0729 15:36:09.087589 11376 net.cpp:425] InnerProduct96 <- InnerProduct95
I0729 15:36:09.087600 11376 net.cpp:399] InnerProduct96 -> InnerProduct96
I0729 15:36:09.087767 11376 net.cpp:141] Setting up InnerProduct96
I0729 15:36:09.087775 11376 net.cpp:148] Top shape: 100 32 (3200)
I0729 15:36:09.087780 11376 net.cpp:156] Memory required for data: 2454810000
I0729 15:36:09.087787 11376 net.cpp:484] Sharing parameters 'fc2_w' owned by layer 'InnerProduct6', param index 0
I0729 15:36:09.087793 11376 net.cpp:484] Sharing parameters 'fc2_b' owned by layer 'InnerProduct6', param index 1
I0729 15:36:09.087800 11376 layer_factory.hpp:77] Creating layer ReLU64
I0729 15:36:09.087807 11376 net.cpp:91] Creating Layer ReLU64
I0729 15:36:09.087813 11376 net.cpp:425] ReLU64 <- InnerProduct96
I0729 15:36:09.087821 11376 net.cpp:386] ReLU64 -> InnerProduct96 (in-place)
I0729 15:36:09.087829 11376 net.cpp:141] Setting up ReLU64
I0729 15:36:09.087836 11376 net.cpp:148] Top shape: 100 32 (3200)
I0729 15:36:09.087841 11376 net.cpp:156] Memory required for data: 2454822800
I0729 15:36:09.087847 11376 layer_factory.hpp:77] Creating layer dt15
I0729 15:36:09.087858 11376 net.cpp:91] Creating Layer dt15
I0729 15:36:09.087864 11376 net.cpp:425] dt15 <- InnerProduct96
I0729 15:36:09.087874 11376 net.cpp:399] dt15 -> dt15
I0729 15:36:09.088021 11376 net.cpp:141] Setting up dt15
I0729 15:36:09.088028 11376 net.cpp:148] Top shape: 100 2 (200)
I0729 15:36:09.088033 11376 net.cpp:156] Memory required for data: 2454823600
I0729 15:36:09.088039 11376 net.cpp:484] Sharing parameters 'fc3_w' owned by layer 'dt0', param index 0
I0729 15:36:09.088059 11376 net.cpp:484] Sharing parameters 'fc3_b' owned by layer 'dt0', param index 1
I0729 15:36:09.088065 11376 layer_factory.hpp:77] Creating layer Convolution65
I0729 15:36:09.088078 11376 net.cpp:91] Creating Layer Convolution65
I0729 15:36:09.088085 11376 net.cpp:425] Convolution65 <- p2_p2_0_split_7
I0729 15:36:09.088095 11376 net.cpp:399] Convolution65 -> Convolution65
I0729 15:36:09.088462 11376 net.cpp:141] Setting up Convolution65
I0729 15:36:09.088470 11376 net.cpp:148] Top shape: 100 20 60 60 (7200000)
I0729 15:36:09.088476 11376 net.cpp:156] Memory required for data: 2483623600
I0729 15:36:09.088482 11376 net.cpp:484] Sharing parameters 'conv1_w' owned by layer 'Convolution1', param index 0
I0729 15:36:09.088488 11376 net.cpp:484] Sharing parameters 'conv1_b' owned by layer 'Convolution1', param index 1
I0729 15:36:09.088495 11376 layer_factory.hpp:77] Creating layer Pooling65
I0729 15:36:09.088505 11376 net.cpp:91] Creating Layer Pooling65
I0729 15:36:09.088511 11376 net.cpp:425] Pooling65 <- Convolution65
I0729 15:36:09.088520 11376 net.cpp:399] Pooling65 -> Pooling65
I0729 15:36:09.088572 11376 net.cpp:141] Setting up Pooling65
I0729 15:36:09.088580 11376 net.cpp:148] Top shape: 100 20 30 30 (1800000)
I0729 15:36:09.088585 11376 net.cpp:156] Memory required for data: 2490823600
I0729 15:36:09.088590 11376 layer_factory.hpp:77] Creating layer Convolution66
I0729 15:36:09.088603 11376 net.cpp:91] Creating Layer Convolution66
I0729 15:36:09.088609 11376 net.cpp:425] Convolution66 <- Pooling65
I0729 15:36:09.088619 11376 net.cpp:399] Convolution66 -> Convolution66
I0729 15:36:09.089171 11376 net.cpp:141] Setting up Convolution66
I0729 15:36:09.089179 11376 net.cpp:148] Top shape: 100 50 26 26 (3380000)
I0729 15:36:09.089184 11376 net.cpp:156] Memory required for data: 2504343600
I0729 15:36:09.089190 11376 net.cpp:484] Sharing parameters 'conv2_w' owned by layer 'Convolution2', param index 0
I0729 15:36:09.089197 11376 net.cpp:484] Sharing parameters 'conv2_b' owned by layer 'Convolution2', param index 1
I0729 15:36:09.089203 11376 layer_factory.hpp:77] Creating layer Pooling66
I0729 15:36:09.089213 11376 net.cpp:91] Creating Layer Pooling66
I0729 15:36:09.089220 11376 net.cpp:425] Pooling66 <- Convolution66
I0729 15:36:09.089227 11376 net.cpp:399] Pooling66 -> Pooling66
I0729 15:36:09.089280 11376 net.cpp:141] Setting up Pooling66
I0729 15:36:09.089287 11376 net.cpp:148] Top shape: 100 50 13 13 (845000)
I0729 15:36:09.089293 11376 net.cpp:156] Memory required for data: 2507723600
I0729 15:36:09.089298 11376 layer_factory.hpp:77] Creating layer InnerProduct97
I0729 15:36:09.089309 11376 net.cpp:91] Creating Layer InnerProduct97
I0729 15:36:09.089315 11376 net.cpp:425] InnerProduct97 <- Pooling66
I0729 15:36:09.089324 11376 net.cpp:399] InnerProduct97 -> InnerProduct97
I0729 15:36:09.097679 11376 net.cpp:141] Setting up InnerProduct97
I0729 15:36:09.097697 11376 net.cpp:148] Top shape: 100 100 (10000)
I0729 15:36:09.097703 11376 net.cpp:156] Memory required for data: 2507763600
I0729 15:36:09.097712 11376 net.cpp:484] Sharing parameters 'ip1_w' owned by layer 'InnerProduct1', param index 0
I0729 15:36:09.097719 11376 net.cpp:484] Sharing parameters 'ip1_b' owned by layer 'InnerProduct1', param index 1
I0729 15:36:09.097726 11376 layer_factory.hpp:77] Creating layer ReLU65
I0729 15:36:09.097736 11376 net.cpp:91] Creating Layer ReLU65
I0729 15:36:09.097743 11376 net.cpp:425] ReLU65 <- InnerProduct97
I0729 15:36:09.097755 11376 net.cpp:386] ReLU65 -> InnerProduct97 (in-place)
I0729 15:36:09.097767 11376 net.cpp:141] Setting up ReLU65
I0729 15:36:09.097774 11376 net.cpp:148] Top shape: 100 100 (10000)
I0729 15:36:09.097779 11376 net.cpp:156] Memory required for data: 2507803600
I0729 15:36:09.097785 11376 layer_factory.hpp:77] Creating layer InnerProduct98
I0729 15:36:09.097795 11376 net.cpp:91] Creating Layer InnerProduct98
I0729 15:36:09.097801 11376 net.cpp:425] InnerProduct98 <- InnerProduct97
I0729 15:36:09.097813 11376 net.cpp:399] InnerProduct98 -> InnerProduct98
I0729 15:36:09.098016 11376 net.cpp:141] Setting up InnerProduct98
I0729 15:36:09.098023 11376 net.cpp:148] Top shape: 100 50 (5000)
I0729 15:36:09.098028 11376 net.cpp:156] Memory required for data: 2507823600
I0729 15:36:09.098036 11376 net.cpp:484] Sharing parameters 'ip2_w' owned by layer 'InnerProduct2', param index 0
I0729 15:36:09.098042 11376 net.cpp:484] Sharing parameters 'ip2_b' owned by layer 'InnerProduct2', param index 1
I0729 15:36:09.098049 11376 layer_factory.hpp:77] Creating layer Convolution67
I0729 15:36:09.098063 11376 net.cpp:91] Creating Layer Convolution67
I0729 15:36:09.098073 11376 net.cpp:425] Convolution67 <- c17
I0729 15:36:09.098083 11376 net.cpp:399] Convolution67 -> Convolution67
I0729 15:36:09.098476 11376 net.cpp:141] Setting up Convolution67
I0729 15:36:09.098484 11376 net.cpp:148] Top shape: 100 20 60 60 (7200000)
I0729 15:36:09.098490 11376 net.cpp:156] Memory required for data: 2536623600
I0729 15:36:09.098496 11376 net.cpp:484] Sharing parameters 'conv1_w' owned by layer 'Convolution1', param index 0
I0729 15:36:09.098503 11376 net.cpp:484] Sharing parameters 'conv1_b' owned by layer 'Convolution1', param index 1
I0729 15:36:09.098510 11376 layer_factory.hpp:77] Creating layer Pooling67
I0729 15:36:09.098521 11376 net.cpp:91] Creating Layer Pooling67
I0729 15:36:09.098527 11376 net.cpp:425] Pooling67 <- Convolution67
I0729 15:36:09.098536 11376 net.cpp:399] Pooling67 -> Pooling67
I0729 15:36:09.098592 11376 net.cpp:141] Setting up Pooling67
I0729 15:36:09.098599 11376 net.cpp:148] Top shape: 100 20 30 30 (1800000)
I0729 15:36:09.098604 11376 net.cpp:156] Memory required for data: 2543823600
I0729 15:36:09.098609 11376 layer_factory.hpp:77] Creating layer Convolution68
I0729 15:36:09.098623 11376 net.cpp:91] Creating Layer Convolution68
I0729 15:36:09.098628 11376 net.cpp:425] Convolution68 <- Pooling67
I0729 15:36:09.098640 11376 net.cpp:399] Convolution68 -> Convolution68
I0729 15:36:09.099225 11376 net.cpp:141] Setting up Convolution68
I0729 15:36:09.099234 11376 net.cpp:148] Top shape: 100 50 26 26 (3380000)
I0729 15:36:09.099239 11376 net.cpp:156] Memory required for data: 2557343600
I0729 15:36:09.099246 11376 net.cpp:484] Sharing parameters 'conv2_w' owned by layer 'Convolution2', param index 0
I0729 15:36:09.099253 11376 net.cpp:484] Sharing parameters 'conv2_b' owned by layer 'Convolution2', param index 1
I0729 15:36:09.099259 11376 layer_factory.hpp:77] Creating layer Pooling68
I0729 15:36:09.099268 11376 net.cpp:91] Creating Layer Pooling68
I0729 15:36:09.099282 11376 net.cpp:425] Pooling68 <- Convolution68
I0729 15:36:09.099292 11376 net.cpp:399] Pooling68 -> Pooling68
I0729 15:36:09.099346 11376 net.cpp:141] Setting up Pooling68
I0729 15:36:09.099354 11376 net.cpp:148] Top shape: 100 50 13 13 (845000)
I0729 15:36:09.099359 11376 net.cpp:156] Memory required for data: 2560723600
I0729 15:36:09.099365 11376 layer_factory.hpp:77] Creating layer InnerProduct99
I0729 15:36:09.099376 11376 net.cpp:91] Creating Layer InnerProduct99
I0729 15:36:09.099382 11376 net.cpp:425] InnerProduct99 <- Pooling68
I0729 15:36:09.099392 11376 net.cpp:399] InnerProduct99 -> InnerProduct99
I0729 15:36:09.107558 11376 net.cpp:141] Setting up InnerProduct99
I0729 15:36:09.107574 11376 net.cpp:148] Top shape: 100 100 (10000)
I0729 15:36:09.107579 11376 net.cpp:156] Memory required for data: 2560763600
I0729 15:36:09.107587 11376 net.cpp:484] Sharing parameters 'ip1_w' owned by layer 'InnerProduct1', param index 0
I0729 15:36:09.107594 11376 net.cpp:484] Sharing parameters 'ip1_b' owned by layer 'InnerProduct1', param index 1
I0729 15:36:09.107601 11376 layer_factory.hpp:77] Creating layer ReLU66
I0729 15:36:09.107610 11376 net.cpp:91] Creating Layer ReLU66
I0729 15:36:09.107620 11376 net.cpp:425] ReLU66 <- InnerProduct99
I0729 15:36:09.107630 11376 net.cpp:386] ReLU66 -> InnerProduct99 (in-place)
I0729 15:36:09.107640 11376 net.cpp:141] Setting up ReLU66
I0729 15:36:09.107647 11376 net.cpp:148] Top shape: 100 100 (10000)
I0729 15:36:09.107652 11376 net.cpp:156] Memory required for data: 2560803600
I0729 15:36:09.107672 11376 layer_factory.hpp:77] Creating layer InnerProduct100
I0729 15:36:09.107682 11376 net.cpp:91] Creating Layer InnerProduct100
I0729 15:36:09.107688 11376 net.cpp:425] InnerProduct100 <- InnerProduct99
I0729 15:36:09.107707 11376 net.cpp:399] InnerProduct100 -> InnerProduct100
I0729 15:36:09.107898 11376 net.cpp:141] Setting up InnerProduct100
I0729 15:36:09.107906 11376 net.cpp:148] Top shape: 100 50 (5000)
I0729 15:36:09.107913 11376 net.cpp:156] Memory required for data: 2560823600
I0729 15:36:09.107918 11376 net.cpp:484] Sharing parameters 'ip2_w' owned by layer 'InnerProduct2', param index 0
I0729 15:36:09.107925 11376 net.cpp:484] Sharing parameters 'ip2_b' owned by layer 'InnerProduct2', param index 1
I0729 15:36:09.107931 11376 layer_factory.hpp:77] Creating layer Concat17
I0729 15:36:09.107940 11376 net.cpp:91] Creating Layer Concat17
I0729 15:36:09.107946 11376 net.cpp:425] Concat17 <- InnerProduct98
I0729 15:36:09.107954 11376 net.cpp:425] Concat17 <- InnerProduct100
I0729 15:36:09.107965 11376 net.cpp:399] Concat17 -> Concat17
I0729 15:36:09.107996 11376 net.cpp:141] Setting up Concat17
I0729 15:36:09.108003 11376 net.cpp:148] Top shape: 100 100 (10000)
I0729 15:36:09.108008 11376 net.cpp:156] Memory required for data: 2560863600
I0729 15:36:09.108014 11376 layer_factory.hpp:77] Creating layer InnerProduct101
I0729 15:36:09.108024 11376 net.cpp:91] Creating Layer InnerProduct101
I0729 15:36:09.108031 11376 net.cpp:425] InnerProduct101 <- Concat17
I0729 15:36:09.108042 11376 net.cpp:399] InnerProduct101 -> InnerProduct101
I0729 15:36:09.108775 11376 net.cpp:141] Setting up InnerProduct101
I0729 15:36:09.108788 11376 net.cpp:148] Top shape: 100 64 (6400)
I0729 15:36:09.108793 11376 net.cpp:156] Memory required for data: 2560889200
I0729 15:36:09.108799 11376 net.cpp:484] Sharing parameters 'fc1_w' owned by layer 'InnerProduct5', param index 0
I0729 15:36:09.108806 11376 net.cpp:484] Sharing parameters 'fc1_b' owned by layer 'InnerProduct5', param index 1
I0729 15:36:09.108813 11376 layer_factory.hpp:77] Creating layer ReLU67
I0729 15:36:09.108820 11376 net.cpp:91] Creating Layer ReLU67
I0729 15:36:09.108827 11376 net.cpp:425] ReLU67 <- InnerProduct101
I0729 15:36:09.108839 11376 net.cpp:386] ReLU67 -> InnerProduct101 (in-place)
I0729 15:36:09.108847 11376 net.cpp:141] Setting up ReLU67
I0729 15:36:09.108855 11376 net.cpp:148] Top shape: 100 64 (6400)
I0729 15:36:09.108860 11376 net.cpp:156] Memory required for data: 2560914800
I0729 15:36:09.108865 11376 layer_factory.hpp:77] Creating layer InnerProduct102
I0729 15:36:09.108875 11376 net.cpp:91] Creating Layer InnerProduct102
I0729 15:36:09.108880 11376 net.cpp:425] InnerProduct102 <- InnerProduct101
I0729 15:36:09.108891 11376 net.cpp:399] InnerProduct102 -> InnerProduct102
I0729 15:36:09.109038 11376 net.cpp:141] Setting up InnerProduct102
I0729 15:36:09.109045 11376 net.cpp:148] Top shape: 100 32 (3200)
I0729 15:36:09.109050 11376 net.cpp:156] Memory required for data: 2560927600
I0729 15:36:09.109056 11376 net.cpp:484] Sharing parameters 'fc2_w' owned by layer 'InnerProduct6', param index 0
I0729 15:36:09.109063 11376 net.cpp:484] Sharing parameters 'fc2_b' owned by layer 'InnerProduct6', param index 1
I0729 15:36:09.109069 11376 layer_factory.hpp:77] Creating layer ReLU68
I0729 15:36:09.109077 11376 net.cpp:91] Creating Layer ReLU68
I0729 15:36:09.109083 11376 net.cpp:425] ReLU68 <- InnerProduct102
I0729 15:36:09.109093 11376 net.cpp:386] ReLU68 -> InnerProduct102 (in-place)
I0729 15:36:09.109102 11376 net.cpp:141] Setting up ReLU68
I0729 15:36:09.109109 11376 net.cpp:148] Top shape: 100 32 (3200)
I0729 15:36:09.109114 11376 net.cpp:156] Memory required for data: 2560940400
I0729 15:36:09.109120 11376 layer_factory.hpp:77] Creating layer dt16
I0729 15:36:09.109128 11376 net.cpp:91] Creating Layer dt16
I0729 15:36:09.109134 11376 net.cpp:425] dt16 <- InnerProduct102
I0729 15:36:09.109146 11376 net.cpp:399] dt16 -> dt16
I0729 15:36:09.109268 11376 net.cpp:141] Setting up dt16
I0729 15:36:09.109288 11376 net.cpp:148] Top shape: 100 2 (200)
I0729 15:36:09.109293 11376 net.cpp:156] Memory required for data: 2560941200
I0729 15:36:09.109299 11376 net.cpp:484] Sharing parameters 'fc3_w' owned by layer 'dt0', param index 0
I0729 15:36:09.109308 11376 net.cpp:484] Sharing parameters 'fc3_b' owned by layer 'dt0', param index 1
I0729 15:36:09.109313 11376 layer_factory.hpp:77] Creating layer Convolution69
I0729 15:36:09.109326 11376 net.cpp:91] Creating Layer Convolution69
I0729 15:36:09.109333 11376 net.cpp:425] Convolution69 <- p2_p2_0_split_8
I0729 15:36:09.109344 11376 net.cpp:399] Convolution69 -> Convolution69
I0729 15:36:09.109661 11376 net.cpp:141] Setting up Convolution69
I0729 15:36:09.109669 11376 net.cpp:148] Top shape: 100 20 60 60 (7200000)
I0729 15:36:09.109674 11376 net.cpp:156] Memory required for data: 2589741200
I0729 15:36:09.109680 11376 net.cpp:484] Sharing parameters 'conv1_w' owned by layer 'Convolution1', param index 0
I0729 15:36:09.109688 11376 net.cpp:484] Sharing parameters 'conv1_b' owned by layer 'Convolution1', param index 1
I0729 15:36:09.109694 11376 layer_factory.hpp:77] Creating layer Pooling69
I0729 15:36:09.109704 11376 net.cpp:91] Creating Layer Pooling69
I0729 15:36:09.109710 11376 net.cpp:425] Pooling69 <- Convolution69
I0729 15:36:09.109719 11376 net.cpp:399] Pooling69 -> Pooling69
I0729 15:36:09.109766 11376 net.cpp:141] Setting up Pooling69
I0729 15:36:09.109773 11376 net.cpp:148] Top shape: 100 20 30 30 (1800000)
I0729 15:36:09.109778 11376 net.cpp:156] Memory required for data: 2596941200
I0729 15:36:09.109784 11376 layer_factory.hpp:77] Creating layer Convolution70
I0729 15:36:09.109797 11376 net.cpp:91] Creating Layer Convolution70
I0729 15:36:09.109802 11376 net.cpp:425] Convolution70 <- Pooling69
I0729 15:36:09.109812 11376 net.cpp:399] Convolution70 -> Convolution70
I0729 15:36:09.110326 11376 net.cpp:141] Setting up Convolution70
I0729 15:36:09.110333 11376 net.cpp:148] Top shape: 100 50 26 26 (3380000)
I0729 15:36:09.110338 11376 net.cpp:156] Memory required for data: 2610461200
I0729 15:36:09.110344 11376 net.cpp:484] Sharing parameters 'conv2_w' owned by layer 'Convolution2', param index 0
I0729 15:36:09.110352 11376 net.cpp:484] Sharing parameters 'conv2_b' owned by layer 'Convolution2', param index 1
I0729 15:36:09.110357 11376 layer_factory.hpp:77] Creating layer Pooling70
I0729 15:36:09.110365 11376 net.cpp:91] Creating Layer Pooling70
I0729 15:36:09.110371 11376 net.cpp:425] Pooling70 <- Convolution70
I0729 15:36:09.110380 11376 net.cpp:399] Pooling70 -> Pooling70
I0729 15:36:09.110427 11376 net.cpp:141] Setting up Pooling70
I0729 15:36:09.110435 11376 net.cpp:148] Top shape: 100 50 13 13 (845000)
I0729 15:36:09.110440 11376 net.cpp:156] Memory required for data: 2613841200
I0729 15:36:09.110445 11376 layer_factory.hpp:77] Creating layer InnerProduct103
I0729 15:36:09.110456 11376 net.cpp:91] Creating Layer InnerProduct103
I0729 15:36:09.110463 11376 net.cpp:425] InnerProduct103 <- Pooling70
I0729 15:36:09.110474 11376 net.cpp:399] InnerProduct103 -> InnerProduct103
I0729 15:36:09.118568 11376 net.cpp:141] Setting up InnerProduct103
I0729 15:36:09.118585 11376 net.cpp:148] Top shape: 100 100 (10000)
I0729 15:36:09.118592 11376 net.cpp:156] Memory required for data: 2613881200
I0729 15:36:09.118598 11376 net.cpp:484] Sharing parameters 'ip1_w' owned by layer 'InnerProduct1', param index 0
I0729 15:36:09.118607 11376 net.cpp:484] Sharing parameters 'ip1_b' owned by layer 'InnerProduct1', param index 1
I0729 15:36:09.120605 11376 layer_factory.hpp:77] Creating layer ReLU69
I0729 15:36:09.120646 11376 net.cpp:91] Creating Layer ReLU69
I0729 15:36:09.120666 11376 net.cpp:425] ReLU69 <- InnerProduct103
I0729 15:36:09.120700 11376 net.cpp:386] ReLU69 -> InnerProduct103 (in-place)
I0729 15:36:09.120725 11376 net.cpp:141] Setting up ReLU69
I0729 15:36:09.120734 11376 net.cpp:148] Top shape: 100 100 (10000)
I0729 15:36:09.120739 11376 net.cpp:156] Memory required for data: 2613921200
I0729 15:36:09.120745 11376 layer_factory.hpp:77] Creating layer InnerProduct104
I0729 15:36:09.120769 11376 net.cpp:91] Creating Layer InnerProduct104
I0729 15:36:09.120775 11376 net.cpp:425] InnerProduct104 <- InnerProduct103
I0729 15:36:09.120787 11376 net.cpp:399] InnerProduct104 -> InnerProduct104
I0729 15:36:09.120980 11376 net.cpp:141] Setting up InnerProduct104
I0729 15:36:09.120987 11376 net.cpp:148] Top shape: 100 50 (5000)
I0729 15:36:09.120993 11376 net.cpp:156] Memory required for data: 2613941200
I0729 15:36:09.121001 11376 net.cpp:484] Sharing parameters 'ip2_w' owned by layer 'InnerProduct2', param index 0
I0729 15:36:09.121007 11376 net.cpp:484] Sharing parameters 'ip2_b' owned by layer 'InnerProduct2', param index 1
I0729 15:36:09.121013 11376 layer_factory.hpp:77] Creating layer Convolution71
I0729 15:36:09.121028 11376 net.cpp:91] Creating Layer Convolution71
I0729 15:36:09.121034 11376 net.cpp:425] Convolution71 <- c18
I0729 15:36:09.121047 11376 net.cpp:399] Convolution71 -> Convolution71
I0729 15:36:09.121397 11376 net.cpp:141] Setting up Convolution71
I0729 15:36:09.121404 11376 net.cpp:148] Top shape: 100 20 60 60 (7200000)
I0729 15:36:09.121410 11376 net.cpp:156] Memory required for data: 2642741200
I0729 15:36:09.121417 11376 net.cpp:484] Sharing parameters 'conv1_w' owned by layer 'Convolution1', param index 0
I0729 15:36:09.121423 11376 net.cpp:484] Sharing parameters 'conv1_b' owned by layer 'Convolution1', param index 1
I0729 15:36:09.121429 11376 layer_factory.hpp:77] Creating layer Pooling71
I0729 15:36:09.121441 11376 net.cpp:91] Creating Layer Pooling71
I0729 15:36:09.121448 11376 net.cpp:425] Pooling71 <- Convolution71
I0729 15:36:09.121457 11376 net.cpp:399] Pooling71 -> Pooling71
I0729 15:36:09.121506 11376 net.cpp:141] Setting up Pooling71
I0729 15:36:09.121515 11376 net.cpp:148] Top shape: 100 20 30 30 (1800000)
I0729 15:36:09.121520 11376 net.cpp:156] Memory required for data: 2649941200
I0729 15:36:09.121525 11376 layer_factory.hpp:77] Creating layer Convolution72
I0729 15:36:09.121538 11376 net.cpp:91] Creating Layer Convolution72
I0729 15:36:09.121544 11376 net.cpp:425] Convolution72 <- Pooling71
I0729 15:36:09.121556 11376 net.cpp:399] Convolution72 -> Convolution72
I0729 15:36:09.122074 11376 net.cpp:141] Setting up Convolution72
I0729 15:36:09.122082 11376 net.cpp:148] Top shape: 100 50 26 26 (3380000)
I0729 15:36:09.122088 11376 net.cpp:156] Memory required for data: 2663461200
I0729 15:36:09.122094 11376 net.cpp:484] Sharing parameters 'conv2_w' owned by layer 'Convolution2', param index 0
I0729 15:36:09.122100 11376 net.cpp:484] Sharing parameters 'conv2_b' owned by layer 'Convolution2', param index 1
I0729 15:36:09.122107 11376 layer_factory.hpp:77] Creating layer Pooling72
I0729 15:36:09.122115 11376 net.cpp:91] Creating Layer Pooling72
I0729 15:36:09.122122 11376 net.cpp:425] Pooling72 <- Convolution72
I0729 15:36:09.122133 11376 net.cpp:399] Pooling72 -> Pooling72
I0729 15:36:09.122179 11376 net.cpp:141] Setting up Pooling72
I0729 15:36:09.122185 11376 net.cpp:148] Top shape: 100 50 13 13 (845000)
I0729 15:36:09.122191 11376 net.cpp:156] Memory required for data: 2666841200
I0729 15:36:09.122196 11376 layer_factory.hpp:77] Creating layer InnerProduct105
I0729 15:36:09.122207 11376 net.cpp:91] Creating Layer InnerProduct105
I0729 15:36:09.122213 11376 net.cpp:425] InnerProduct105 <- Pooling72
I0729 15:36:09.122225 11376 net.cpp:399] InnerProduct105 -> InnerProduct105
I0729 15:36:09.130976 11376 net.cpp:141] Setting up InnerProduct105
I0729 15:36:09.130997 11376 net.cpp:148] Top shape: 100 100 (10000)
I0729 15:36:09.131006 11376 net.cpp:156] Memory required for data: 2666881200
I0729 15:36:09.131014 11376 net.cpp:484] Sharing parameters 'ip1_w' owned by layer 'InnerProduct1', param index 0
I0729 15:36:09.131023 11376 net.cpp:484] Sharing parameters 'ip1_b' owned by layer 'InnerProduct1', param index 1
I0729 15:36:09.131031 11376 layer_factory.hpp:77] Creating layer ReLU70
I0729 15:36:09.131050 11376 net.cpp:91] Creating Layer ReLU70
I0729 15:36:09.131059 11376 net.cpp:425] ReLU70 <- InnerProduct105
I0729 15:36:09.131070 11376 net.cpp:386] ReLU70 -> InnerProduct105 (in-place)
I0729 15:36:09.131099 11376 net.cpp:141] Setting up ReLU70
I0729 15:36:09.131108 11376 net.cpp:148] Top shape: 100 100 (10000)
I0729 15:36:09.131114 11376 net.cpp:156] Memory required for data: 2666921200
I0729 15:36:09.131121 11376 layer_factory.hpp:77] Creating layer InnerProduct106
I0729 15:36:09.131134 11376 net.cpp:91] Creating Layer InnerProduct106
I0729 15:36:09.131141 11376 net.cpp:425] InnerProduct106 <- InnerProduct105
I0729 15:36:09.131155 11376 net.cpp:399] InnerProduct106 -> InnerProduct106
I0729 15:36:09.131369 11376 net.cpp:141] Setting up InnerProduct106
I0729 15:36:09.131378 11376 net.cpp:148] Top shape: 100 50 (5000)
I0729 15:36:09.131384 11376 net.cpp:156] Memory required for data: 2666941200
I0729 15:36:09.131392 11376 net.cpp:484] Sharing parameters 'ip2_w' owned by layer 'InnerProduct2', param index 0
I0729 15:36:09.131399 11376 net.cpp:484] Sharing parameters 'ip2_b' owned by layer 'InnerProduct2', param index 1
I0729 15:36:09.131407 11376 layer_factory.hpp:77] Creating layer Concat18
I0729 15:36:09.131417 11376 net.cpp:91] Creating Layer Concat18
I0729 15:36:09.131423 11376 net.cpp:425] Concat18 <- InnerProduct104
I0729 15:36:09.131431 11376 net.cpp:425] Concat18 <- InnerProduct106
I0729 15:36:09.131444 11376 net.cpp:399] Concat18 -> Concat18
I0729 15:36:09.131479 11376 net.cpp:141] Setting up Concat18
I0729 15:36:09.131489 11376 net.cpp:148] Top shape: 100 100 (10000)
I0729 15:36:09.131494 11376 net.cpp:156] Memory required for data: 2666981200
I0729 15:36:09.131500 11376 layer_factory.hpp:77] Creating layer InnerProduct107
I0729 15:36:09.131510 11376 net.cpp:91] Creating Layer InnerProduct107
I0729 15:36:09.131517 11376 net.cpp:425] InnerProduct107 <- Concat18
I0729 15:36:09.131530 11376 net.cpp:399] InnerProduct107 -> InnerProduct107
I0729 15:36:09.131741 11376 net.cpp:141] Setting up InnerProduct107
I0729 15:36:09.131749 11376 net.cpp:148] Top shape: 100 64 (6400)
I0729 15:36:09.131755 11376 net.cpp:156] Memory required for data: 2667006800
I0729 15:36:09.131762 11376 net.cpp:484] Sharing parameters 'fc1_w' owned by layer 'InnerProduct5', param index 0
I0729 15:36:09.131770 11376 net.cpp:484] Sharing parameters 'fc1_b' owned by layer 'InnerProduct5', param index 1
I0729 15:36:09.131778 11376 layer_factory.hpp:77] Creating layer ReLU71
I0729 15:36:09.131785 11376 net.cpp:91] Creating Layer ReLU71
I0729 15:36:09.131793 11376 net.cpp:425] ReLU71 <- InnerProduct107
I0729 15:36:09.131804 11376 net.cpp:386] ReLU71 -> InnerProduct107 (in-place)
I0729 15:36:09.131815 11376 net.cpp:141] Setting up ReLU71
I0729 15:36:09.131824 11376 net.cpp:148] Top shape: 100 64 (6400)
I0729 15:36:09.131829 11376 net.cpp:156] Memory required for data: 2667032400
I0729 15:36:09.131836 11376 layer_factory.hpp:77] Creating layer InnerProduct108
I0729 15:36:09.131845 11376 net.cpp:91] Creating Layer InnerProduct108
I0729 15:36:09.131852 11376 net.cpp:425] InnerProduct108 <- InnerProduct107
I0729 15:36:09.131865 11376 net.cpp:399] InnerProduct108 -> InnerProduct108
I0729 15:36:09.132043 11376 net.cpp:141] Setting up InnerProduct108
I0729 15:36:09.132052 11376 net.cpp:148] Top shape: 100 32 (3200)
I0729 15:36:09.132058 11376 net.cpp:156] Memory required for data: 2667045200
I0729 15:36:09.132066 11376 net.cpp:484] Sharing parameters 'fc2_w' owned by layer 'InnerProduct6', param index 0
I0729 15:36:09.132073 11376 net.cpp:484] Sharing parameters 'fc2_b' owned by layer 'InnerProduct6', param index 1
I0729 15:36:09.150822 11376 layer_factory.hpp:77] Creating layer ReLU72
I0729 15:36:09.150876 11376 net.cpp:91] Creating Layer ReLU72
I0729 15:36:09.150904 11376 net.cpp:425] ReLU72 <- InnerProduct108
I0729 15:36:09.150916 11376 net.cpp:386] ReLU72 -> InnerProduct108 (in-place)
I0729 15:36:09.150930 11376 net.cpp:141] Setting up ReLU72
I0729 15:36:09.150940 11376 net.cpp:148] Top shape: 100 32 (3200)
I0729 15:36:09.150946 11376 net.cpp:156] Memory required for data: 2667058000
I0729 15:36:09.150954 11376 layer_factory.hpp:77] Creating layer dt17
I0729 15:36:09.150964 11376 net.cpp:91] Creating Layer dt17
I0729 15:36:09.150985 11376 net.cpp:425] dt17 <- InnerProduct108
I0729 15:36:09.150996 11376 net.cpp:399] dt17 -> dt17
I0729 15:36:09.151171 11376 net.cpp:141] Setting up dt17
I0729 15:36:09.151180 11376 net.cpp:148] Top shape: 100 2 (200)
I0729 15:36:09.151187 11376 net.cpp:156] Memory required for data: 2667058800
I0729 15:36:09.151195 11376 net.cpp:484] Sharing parameters 'fc3_w' owned by layer 'dt0', param index 0
I0729 15:36:09.151203 11376 net.cpp:484] Sharing parameters 'fc3_b' owned by layer 'dt0', param index 1
I0729 15:36:09.151211 11376 layer_factory.hpp:77] Creating layer Convolution73
I0729 15:36:09.151227 11376 net.cpp:91] Creating Layer Convolution73
I0729 15:36:09.151235 11376 net.cpp:425] Convolution73 <- p2_p2_0_split_9
I0729 15:36:09.151248 11376 net.cpp:399] Convolution73 -> Convolution73
I0729 15:36:09.151670 11376 net.cpp:141] Setting up Convolution73
I0729 15:36:09.151681 11376 net.cpp:148] Top shape: 100 20 60 60 (7200000)
I0729 15:36:09.151687 11376 net.cpp:156] Memory required for data: 2695858800
I0729 15:36:09.151695 11376 net.cpp:484] Sharing parameters 'conv1_w' owned by layer 'Convolution1', param index 0
I0729 15:36:09.151702 11376 net.cpp:484] Sharing parameters 'conv1_b' owned by layer 'Convolution1', param index 1
I0729 15:36:09.151710 11376 layer_factory.hpp:77] Creating layer Pooling73
I0729 15:36:09.151720 11376 net.cpp:91] Creating Layer Pooling73
I0729 15:36:09.151726 11376 net.cpp:425] Pooling73 <- Convolution73
I0729 15:36:09.151741 11376 net.cpp:399] Pooling73 -> Pooling73
I0729 15:36:09.151796 11376 net.cpp:141] Setting up Pooling73
I0729 15:36:09.151808 11376 net.cpp:148] Top shape: 100 20 30 30 (1800000)
I0729 15:36:09.151814 11376 net.cpp:156] Memory required for data: 2703058800
I0729 15:36:09.151820 11376 layer_factory.hpp:77] Creating layer Convolution74
I0729 15:36:09.151832 11376 net.cpp:91] Creating Layer Convolution74
I0729 15:36:09.151839 11376 net.cpp:425] Convolution74 <- Pooling73
I0729 15:36:09.151852 11376 net.cpp:399] Convolution74 -> Convolution74
I0729 15:36:09.152453 11376 net.cpp:141] Setting up Convolution74
I0729 15:36:09.152463 11376 net.cpp:148] Top shape: 100 50 26 26 (3380000)
I0729 15:36:09.152469 11376 net.cpp:156] Memory required for data: 2716578800
I0729 15:36:09.152477 11376 net.cpp:484] Sharing parameters 'conv2_w' owned by layer 'Convolution2', param index 0
I0729 15:36:09.152483 11376 net.cpp:484] Sharing parameters 'conv2_b' owned by layer 'Convolution2', param index 1
I0729 15:36:09.152490 11376 layer_factory.hpp:77] Creating layer Pooling74
I0729 15:36:09.152503 11376 net.cpp:91] Creating Layer Pooling74
I0729 15:36:09.152509 11376 net.cpp:425] Pooling74 <- Convolution74
I0729 15:36:09.152519 11376 net.cpp:399] Pooling74 -> Pooling74
I0729 15:36:09.152575 11376 net.cpp:141] Setting up Pooling74
I0729 15:36:09.152583 11376 net.cpp:148] Top shape: 100 50 13 13 (845000)
I0729 15:36:09.152590 11376 net.cpp:156] Memory required for data: 2719958800
I0729 15:36:09.152595 11376 layer_factory.hpp:77] Creating layer InnerProduct109
I0729 15:36:09.152608 11376 net.cpp:91] Creating Layer InnerProduct109
I0729 15:36:09.152616 11376 net.cpp:425] InnerProduct109 <- Pooling74
I0729 15:36:09.152626 11376 net.cpp:399] InnerProduct109 -> InnerProduct109
I0729 15:36:09.161974 11376 net.cpp:141] Setting up InnerProduct109
I0729 15:36:09.161995 11376 net.cpp:148] Top shape: 100 100 (10000)
I0729 15:36:09.162003 11376 net.cpp:156] Memory required for data: 2719998800
I0729 15:36:09.162012 11376 net.cpp:484] Sharing parameters 'ip1_w' owned by layer 'InnerProduct1', param index 0
I0729 15:36:09.162021 11376 net.cpp:484] Sharing parameters 'ip1_b' owned by layer 'InnerProduct1', param index 1
I0729 15:36:09.162029 11376 layer_factory.hpp:77] Creating layer ReLU73
I0729 15:36:09.162040 11376 net.cpp:91] Creating Layer ReLU73
I0729 15:36:09.162050 11376 net.cpp:425] ReLU73 <- InnerProduct109
I0729 15:36:09.162061 11376 net.cpp:386] ReLU73 -> InnerProduct109 (in-place)
I0729 15:36:09.162075 11376 net.cpp:141] Setting up ReLU73
I0729 15:36:09.162083 11376 net.cpp:148] Top shape: 100 100 (10000)
I0729 15:36:09.162106 11376 net.cpp:156] Memory required for data: 2720038800
I0729 15:36:09.162113 11376 layer_factory.hpp:77] Creating layer InnerProduct110
I0729 15:36:09.162124 11376 net.cpp:91] Creating Layer InnerProduct110
I0729 15:36:09.162132 11376 net.cpp:425] InnerProduct110 <- InnerProduct109
I0729 15:36:09.162144 11376 net.cpp:399] InnerProduct110 -> InnerProduct110
I0729 15:36:09.162344 11376 net.cpp:141] Setting up InnerProduct110
I0729 15:36:09.162353 11376 net.cpp:148] Top shape: 100 50 (5000)
I0729 15:36:09.162359 11376 net.cpp:156] Memory required for data: 2720058800
I0729 15:36:09.162366 11376 net.cpp:484] Sharing parameters 'ip2_w' owned by layer 'InnerProduct2', param index 0
I0729 15:36:09.162374 11376 net.cpp:484] Sharing parameters 'ip2_b' owned by layer 'InnerProduct2', param index 1
I0729 15:36:09.162381 11376 layer_factory.hpp:77] Creating layer Convolution75
I0729 15:36:09.162397 11376 net.cpp:91] Creating Layer Convolution75
I0729 15:36:09.162405 11376 net.cpp:425] Convolution75 <- c19
I0729 15:36:09.162420 11376 net.cpp:399] Convolution75 -> Convolution75
I0729 15:36:09.162824 11376 net.cpp:141] Setting up Convolution75
I0729 15:36:09.162833 11376 net.cpp:148] Top shape: 100 20 60 60 (7200000)
I0729 15:36:09.162839 11376 net.cpp:156] Memory required for data: 2748858800
I0729 15:36:09.162847 11376 net.cpp:484] Sharing parameters 'conv1_w' owned by layer 'Convolution1', param index 0
I0729 15:36:09.162854 11376 net.cpp:484] Sharing parameters 'conv1_b' owned by layer 'Convolution1', param index 1
I0729 15:36:09.162860 11376 layer_factory.hpp:77] Creating layer Pooling75
I0729 15:36:09.162874 11376 net.cpp:91] Creating Layer Pooling75
I0729 15:36:09.162881 11376 net.cpp:425] Pooling75 <- Convolution75
I0729 15:36:09.162892 11376 net.cpp:399] Pooling75 -> Pooling75
I0729 15:36:09.162950 11376 net.cpp:141] Setting up Pooling75
I0729 15:36:09.162957 11376 net.cpp:148] Top shape: 100 20 30 30 (1800000)
I0729 15:36:09.162963 11376 net.cpp:156] Memory required for data: 2756058800
I0729 15:36:09.162971 11376 layer_factory.hpp:77] Creating layer Convolution76
I0729 15:36:09.162984 11376 net.cpp:91] Creating Layer Convolution76
I0729 15:36:09.162992 11376 net.cpp:425] Convolution76 <- Pooling75
I0729 15:36:09.163002 11376 net.cpp:399] Convolution76 -> Convolution76
I0729 15:36:09.163584 11376 net.cpp:141] Setting up Convolution76
I0729 15:36:09.163592 11376 net.cpp:148] Top shape: 100 50 26 26 (3380000)
I0729 15:36:09.163599 11376 net.cpp:156] Memory required for data: 2769578800
I0729 15:36:09.163604 11376 net.cpp:484] Sharing parameters 'conv2_w' owned by layer 'Convolution2', param index 0
I0729 15:36:09.163611 11376 net.cpp:484] Sharing parameters 'conv2_b' owned by layer 'Convolution2', param index 1
I0729 15:36:09.163617 11376 layer_factory.hpp:77] Creating layer Pooling76
I0729 15:36:09.163627 11376 net.cpp:91] Creating Layer Pooling76
I0729 15:36:09.163633 11376 net.cpp:425] Pooling76 <- Convolution76
I0729 15:36:09.163642 11376 net.cpp:399] Pooling76 -> Pooling76
I0729 15:36:09.163703 11376 net.cpp:141] Setting up Pooling76
I0729 15:36:09.163712 11376 net.cpp:148] Top shape: 100 50 13 13 (845000)
I0729 15:36:09.163717 11376 net.cpp:156] Memory required for data: 2772958800
I0729 15:36:09.163722 11376 layer_factory.hpp:77] Creating layer InnerProduct111
I0729 15:36:09.163734 11376 net.cpp:91] Creating Layer InnerProduct111
I0729 15:36:09.163740 11376 net.cpp:425] InnerProduct111 <- Pooling76
I0729 15:36:09.163749 11376 net.cpp:399] InnerProduct111 -> InnerProduct111
I0729 15:36:09.171722 11376 net.cpp:141] Setting up InnerProduct111
I0729 15:36:09.171737 11376 net.cpp:148] Top shape: 100 100 (10000)
I0729 15:36:09.171743 11376 net.cpp:156] Memory required for data: 2772998800
I0729 15:36:09.171761 11376 net.cpp:484] Sharing parameters 'ip1_w' owned by layer 'InnerProduct1', param index 0
I0729 15:36:09.171768 11376 net.cpp:484] Sharing parameters 'ip1_b' owned by layer 'InnerProduct1', param index 1
I0729 15:36:09.171774 11376 layer_factory.hpp:77] Creating layer ReLU74
I0729 15:36:09.171798 11376 net.cpp:91] Creating Layer ReLU74
I0729 15:36:09.171807 11376 net.cpp:425] ReLU74 <- InnerProduct111
I0729 15:36:09.171818 11376 net.cpp:386] ReLU74 -> InnerProduct111 (in-place)
I0729 15:36:09.171828 11376 net.cpp:141] Setting up ReLU74
I0729 15:36:09.171836 11376 net.cpp:148] Top shape: 100 100 (10000)
I0729 15:36:09.171841 11376 net.cpp:156] Memory required for data: 2773038800
I0729 15:36:09.171847 11376 layer_factory.hpp:77] Creating layer InnerProduct112
I0729 15:36:09.171857 11376 net.cpp:91] Creating Layer InnerProduct112
I0729 15:36:09.171862 11376 net.cpp:425] InnerProduct112 <- InnerProduct111
I0729 15:36:09.171876 11376 net.cpp:399] InnerProduct112 -> InnerProduct112
I0729 15:36:09.172063 11376 net.cpp:141] Setting up InnerProduct112
I0729 15:36:09.172071 11376 net.cpp:148] Top shape: 100 50 (5000)
I0729 15:36:09.172076 11376 net.cpp:156] Memory required for data: 2773058800
I0729 15:36:09.172083 11376 net.cpp:484] Sharing parameters 'ip2_w' owned by layer 'InnerProduct2', param index 0
I0729 15:36:09.172091 11376 net.cpp:484] Sharing parameters 'ip2_b' owned by layer 'InnerProduct2', param index 1
I0729 15:36:09.172096 11376 layer_factory.hpp:77] Creating layer Concat19
I0729 15:36:09.172106 11376 net.cpp:91] Creating Layer Concat19
I0729 15:36:09.172111 11376 net.cpp:425] Concat19 <- InnerProduct110
I0729 15:36:09.172119 11376 net.cpp:425] Concat19 <- InnerProduct112
I0729 15:36:09.172130 11376 net.cpp:399] Concat19 -> Concat19
I0729 15:36:09.172160 11376 net.cpp:141] Setting up Concat19
I0729 15:36:09.172168 11376 net.cpp:148] Top shape: 100 100 (10000)
I0729 15:36:09.172173 11376 net.cpp:156] Memory required for data: 2773098800
I0729 15:36:09.172179 11376 layer_factory.hpp:77] Creating layer InnerProduct113
I0729 15:36:09.172190 11376 net.cpp:91] Creating Layer InnerProduct113
I0729 15:36:09.172196 11376 net.cpp:425] InnerProduct113 <- Concat19
I0729 15:36:09.172209 11376 net.cpp:399] InnerProduct113 -> InnerProduct113
I0729 15:36:09.172402 11376 net.cpp:141] Setting up InnerProduct113
I0729 15:36:09.172410 11376 net.cpp:148] Top shape: 100 64 (6400)
I0729 15:36:09.172415 11376 net.cpp:156] Memory required for data: 2773124400
I0729 15:36:09.172422 11376 net.cpp:484] Sharing parameters 'fc1_w' owned by layer 'InnerProduct5', param index 0
I0729 15:36:09.172430 11376 net.cpp:484] Sharing parameters 'fc1_b' owned by layer 'InnerProduct5', param index 1
I0729 15:36:09.172435 11376 layer_factory.hpp:77] Creating layer ReLU75
I0729 15:36:09.172442 11376 net.cpp:91] Creating Layer ReLU75
I0729 15:36:09.172449 11376 net.cpp:425] ReLU75 <- InnerProduct113
I0729 15:36:09.172456 11376 net.cpp:386] ReLU75 -> InnerProduct113 (in-place)
I0729 15:36:09.172466 11376 net.cpp:141] Setting up ReLU75
I0729 15:36:09.172472 11376 net.cpp:148] Top shape: 100 64 (6400)
I0729 15:36:09.172477 11376 net.cpp:156] Memory required for data: 2773150000
I0729 15:36:09.172483 11376 layer_factory.hpp:77] Creating layer InnerProduct114
I0729 15:36:09.172492 11376 net.cpp:91] Creating Layer InnerProduct114
I0729 15:36:09.172498 11376 net.cpp:425] InnerProduct114 <- InnerProduct113
I0729 15:36:09.172510 11376 net.cpp:399] InnerProduct114 -> InnerProduct114
I0729 15:36:09.172672 11376 net.cpp:141] Setting up InnerProduct114
I0729 15:36:09.172680 11376 net.cpp:148] Top shape: 100 32 (3200)
I0729 15:36:09.172686 11376 net.cpp:156] Memory required for data: 2773162800
I0729 15:36:09.172693 11376 net.cpp:484] Sharing parameters 'fc2_w' owned by layer 'InnerProduct6', param index 0
I0729 15:36:09.172699 11376 net.cpp:484] Sharing parameters 'fc2_b' owned by layer 'InnerProduct6', param index 1
I0729 15:36:09.172705 11376 layer_factory.hpp:77] Creating layer ReLU76
I0729 15:36:09.172713 11376 net.cpp:91] Creating Layer ReLU76
I0729 15:36:09.172719 11376 net.cpp:425] ReLU76 <- InnerProduct114
I0729 15:36:09.172726 11376 net.cpp:386] ReLU76 -> InnerProduct114 (in-place)
I0729 15:36:09.172736 11376 net.cpp:141] Setting up ReLU76
I0729 15:36:09.172744 11376 net.cpp:148] Top shape: 100 32 (3200)
I0729 15:36:09.172749 11376 net.cpp:156] Memory required for data: 2773175600
I0729 15:36:09.172763 11376 layer_factory.hpp:77] Creating layer dt18
I0729 15:36:09.172772 11376 net.cpp:91] Creating Layer dt18
I0729 15:36:09.172778 11376 net.cpp:425] dt18 <- InnerProduct114
I0729 15:36:09.172791 11376 net.cpp:399] dt18 -> dt18
I0729 15:36:09.172930 11376 net.cpp:141] Setting up dt18
I0729 15:36:09.172938 11376 net.cpp:148] Top shape: 100 2 (200)
I0729 15:36:09.172945 11376 net.cpp:156] Memory required for data: 2773176400
I0729 15:36:09.172950 11376 net.cpp:484] Sharing parameters 'fc3_w' owned by layer 'dt0', param index 0
I0729 15:36:09.172957 11376 net.cpp:484] Sharing parameters 'fc3_b' owned by layer 'dt0', param index 1
I0729 15:36:09.172963 11376 layer_factory.hpp:77] Creating layer con
I0729 15:36:09.172981 11376 net.cpp:91] Creating Layer con
…
I0729 15:36:09.173056 11376 net.cpp:425] con <- dt10
I0729 15:36:09.173063 11376 net.cpp:425] con <- dt11
I0729 15:36:09.173069 11376 net.cpp:425] con <- dt12
I0729 15:36:09.173075 11376 net.cpp:425] con <- dt13
I0729 15:36:09.173081 11376 net.cpp:425] con <- dt14
I0729 15:36:09.173087 11376 net.cpp:425] con <- dt15
I0729 15:36:09.173094 11376 net.cpp:425] con <- dt16
I0729 15:36:09.173101 11376 net.cpp:425] con <- dt17
I0729 15:36:09.173107 11376 net.cpp:425] con <- dt18
I0729 15:36:09.173118 11376 net.cpp:399] con -> con
I0729 15:36:09.173151 11376 net.cpp:141] Setting up con
I0729 15:36:09.173158 11376 net.cpp:148] Top shape: 100 38 (3800)
I0729 15:36:09.173164 11376 net.cpp:156] Memory required for data: 2773191600
I0729 15:36:09.173169 11376 layer_factory.hpp:77] Creating layer r1
I0729 15:36:09.173179 11376 net.cpp:91] Creating Layer r1
I0729 15:36:09.173184 11376 net.cpp:425] r1 <- con
I0729 15:36:09.173195 11376 net.cpp:399] r1 -> r1
I0729 15:36:09.173230 11376 net.cpp:141] Setting up r1
I0729 15:36:09.173238 11376 net.cpp:148] Top shape: 100 1 2 19 (3800)
I0729 15:36:09.173243 11376 net.cpp:156] Memory required for data: 2773206800
I0729 15:36:09.173249 11376 layer_factory.hpp:77] Creating layer p
I0729 15:36:09.173259 11376 net.cpp:91] Creating Layer p
I0729 15:36:09.173264 11376 net.cpp:425] p <- r1
I0729 15:36:09.173272 11376 net.cpp:399] p -> p
I0729 15:36:09.173305 11376 net.cpp:141] Setting up p
I0729 15:36:09.173312 11376 net.cpp:148] Top shape: 100 1 2 1 (200)
I0729 15:36:09.173317 11376 net.cpp:156] Memory required for data: 2773207600
I0729 15:36:09.173322 11376 layer_factory.hpp:77] Creating layer r2
I0729 15:36:09.173331 11376 net.cpp:91] Creating Layer r2
I0729 15:36:09.173336 11376 net.cpp:425] r2 <- p
I0729 15:36:09.173346 11376 net.cpp:399] r2 -> r2
I0729 15:36:09.173373 11376 net.cpp:141] Setting up r2
I0729 15:36:09.173380 11376 net.cpp:148] Top shape: 100 2 1 1 (200)
I0729 15:36:09.181699 11376 net.cpp:156] Memory required for data: 2773208400
I0729 15:36:09.181712 11376 layer_factory.hpp:77] Creating layer r2_r2_0_split
I0729 15:36:09.181723 11376 net.cpp:91] Creating Layer r2_r2_0_split
I0729 15:36:09.181730 11376 net.cpp:425] r2_r2_0_split <- r2
I0729 15:36:09.181740 11376 net.cpp:399] r2_r2_0_split -> r2_r2_0_split_0
I0729 15:36:09.181752 11376 net.cpp:399] r2_r2_0_split -> r2_r2_0_split_1
I0729 15:36:09.181818 11376 net.cpp:141] Setting up r2_r2_0_split
I0729 15:36:09.181828 11376 net.cpp:148] Top shape: 100 2 1 1 (200)
I0729 15:36:09.181834 11376 net.cpp:148] Top shape: 100 2 1 1 (200)
I0729 15:36:09.181840 11376 net.cpp:156] Memory required for data: 2773210000
I0729 15:36:09.181846 11376 layer_factory.hpp:77] Creating layer loss
I0729 15:36:09.181854 11376 net.cpp:91] Creating Layer loss
I0729 15:36:09.181874 11376 net.cpp:425] loss <- r2_r2_0_split_0
I0729 15:36:09.181881 11376 net.cpp:425] loss <- label_data_1_split_0
I0729 15:36:09.181892 11376 net.cpp:399] loss -> loss
…
