…
I0729 12:17:59.882400  4723 solver.cpp:81] Creating training net from train_net file: examples/scene/matchNetTrainHingeMini.prototxt
I0729 12:17:59.883900  4723 net.cpp:49] Initializing net from parameters: 
state {
  phase: TRAIN
}
layer {
  name: "data"
  type: "Data"
  top: "data"
  top: "label"
  include {
    phase: TRAIN
  }
  transform_param {
    scale: 0.0039215689
    mirror: true
    mean_file: "examples/scene/scene_mean.binaryproto"
  }
  data_param {
    source: "examples/scene/scene_train_pairs.lmdb"
    batch_size: 400
    backend: LMDB
  }
}
layer {
  name: "i1"
  type: "Slice"
  bottom: "data"
  top: "i1"
  top: "i2"
  slice_param {
    slice_dim: 1
    slice_point: 3
  }
}
layer {
  name: "p1"
  type: "Pooling"
  bottom: "i1"
  top: "p1"
  pooling_param {
    pool: AVE
    kernel_size: 2
    stride: 2
  }
}
layer {
  name: "p2"
  type: "Pooling"
  bottom: "i2"
  top: "p2"
  pooling_param {
    pool: AVE
    kernel_size: 2
    stride: 2
  }
}
layer {
  name: "Convolution1"
  type: "Convolution"
  bottom: "p1"
  top: "Convolution1"
  param {
    name: "conv1_w"
    lr_mult: 1
  }
  param {
    name: "conv1_b"
    lr_mult: 2
  }
  convolution_param {
    num_output: 20
    kernel_size: 5
    stride: 1
    weight_filler {
      type: "xavier"
    }
    bias_filler {
      type: "constant"
    }
  }
}
layer {
  name: "Pooling1"
  type: "Pooling"
  bottom: "Convolution1"
  top: "Pooling1"
  pooling_param {
    pool: MAX
    kernel_size: 2
    stride: 2
  }
}
layer {
  name: "Convolution2"
  type: "Convolution"
  bottom: "Pooling1"
  top: "Convolution2"
  param {
    name: "conv2_w"
    lr_mult: 1
  }
  param {
    name: "conv2_b"
    lr_mult: 2
  }
  convolution_param {
    num_output: 50
    kernel_size: 5
    stride: 1
    weight_filler {
      type: "xavier"
    }
    bias_filler {
      type: "constant"
    }
  }
}
layer {
  name: "Pooling2"
  type: "Pooling"
  bottom: "Convolution2"
  top: "Pooling2"
  pooling_param {
    pool: MAX
    kernel_size: 2
    stride: 2
  }
}
layer {
  name: "InnerProduct1"
  type: "InnerProduct"
  bottom: "Pooling2"
  top: "InnerProduct1"
  param {
    name: "ip1_w"
    lr_mult: 1
  }
  param {
    name: "ip1_b"
    lr_mult: 2
  }
  inner_product_param {
    num_output: 100
    weight_filler {
      type: "xavier"
    }
    bias_filler {
      type: "constant"
    }
  }
}
layer {
  name: "ReLU1"
  type: "ReLU"
  bottom: "InnerProduct1"
  top: "InnerProduct1"
}
layer {
  name: "InnerProduct2"
  type: "InnerProduct"
  bottom: "InnerProduct1"
  top: "InnerProduct2"
  param {
    name: "ip2_w"
    lr_mult: 1
  }
  param {
    name: "ip2_b"
    lr_mult: 2
  }
  inner_product_param {
    num_output: 50
    weight_filler {
      type: "xavier"
    }
    bias_filler {
      type: "constant"
    }
  }
}
layer {
  name: "Convolution3"
  type: "Convolution"
  bottom: "p2"
  top: "Convolution3"
  param {
    name: "conv1_w"
    lr_mult: 1
  }
  param {
    name: "conv1_b"
    lr_mult: 2
  }
  convolution_param {
    num_output: 20
    kernel_size: 5
    stride: 1
    weight_filler {
      type: "xavier"
    }
    bias_filler {
      type: "constant"
    }
  }
}
layer {
  name: "Pooling3"
  type: "Pooling"
  bottom: "Convolution3"
  top: "Pooling3"
  pooling_param {
    pool: MAX
    kernel_size: 2
    stride: 2
  }
}
layer {
  name: "Convolution4"
  type: "Convolution"
  bottom: "Pooling3"
  top: "Convolution4"
  param {
    name: "conv2_w"
    lr_mult: 1
  }
  param {
    name: "conv2_b"
    lr_mult: 2
  }
  convolution_param {
    num_output: 50
    kernel_size: 5
    stride: 1
    weight_filler {
      type: "xavier"
    }
    bias_filler {
      type: "constant"
    }
  }
}
layer {
  name: "Pooling4"
  type: "Pooling"
  bottom: "Convolution4"
  top: "Pooling4"
  pooling_param {
    pool: MAX
    kernel_size: 2
    stride: 2
  }
}
layer {
  name: "InnerProduct3"
  type: "InnerProduct"
  bottom: "Pooling4"
  top: "InnerProduct3"
  param {
    name: "ip1_w"
    lr_mult: 1
  }
  param {
    name: "ip1_b"
    lr_mult: 2
  }
  inner_product_param {
    num_output: 100
    weight_filler {
      type: "xavier"
    }
    bias_filler {
      type: "constant"
    }
  }
}
layer {
  name: "ReLU2"
  type: "ReLU"
  bottom: "InnerProduct3"
  top: "InnerProduct3"
}
layer {
  name: "InnerProduct4"
  type: "InnerProduct"
  bottom: "InnerProduct3"
  top: "InnerProduct4"
  param {
    name: "ip2_w"
    lr_mult: 1
  }
  param {
    name: "ip2_b"
    lr_mult: 2
  }
  inner_product_param {
    num_output: 50
    weight_filler {
      type: "xavier"
    }
    bias_filler {
      type: "constant"
    }
  }
}
layer {
  name: "Concat1"
  type: "Concat"
  bottom: "InnerProduct2"
  bottom: "InnerProduct4"
  top: "Concat1"
  concat_param {
    axis: 1
  }
}
layer {
  name: "InnerProduct5"
  type: "InnerProduct"
  bottom: "Concat1"
  top: "InnerProduct5"
  param {
    name: "fc1_w"
    lr_mult: 1
  }
  param {
    name: "fc1_b"
    lr_mult: 2
  }
  inner_product_param {
    num_output: 64
    weight_filler {
      type: "xavier"
    }
    bias_filler {
      type: "constant"
    }
  }
}
layer {
  name: "ReLU3"
  type: "ReLU"
  bottom: "InnerProduct5"
  top: "InnerProduct5"
}
layer {
  name: "InnerProduct6"
  type: "InnerProduct"
  bottom: "InnerProduct5"
  top: "InnerProduct6"
  param {
    name: "fc2_w"
    lr_mult: 1
  }
  param {
    name: "fc2_b"
    lr_mult: 2
  }
  inner_product_param {
    num_output: 32
    weight_filler {
      type: "xavier"
    }
    bias_filler {
      type: "constant"
    }
  }
}
layer {
  name: "ReLU4"
  type: "ReLU"
  bottom: "InnerProduct6"
  top: "InnerProduct6"
}
layer {
  name: "dt"
  type: "InnerProduct"
  bottom: "InnerProduct6"
  top: "dt"
  param {
    name: "fc3_w"
    lr_mult: 1
  }
  param {
    name: "fc3_b"
    lr_mult: 2
  }
  inner_product_param {
    num_output: 2
    weight_filler {
      type: "xavier"
    }
    bias_filler {
      type: "constant"
    }
  }
}
layer {
  name: "accuracy"
  type: "Accuracy"
  bottom: "dt"
  bottom: "label"
  top: "accuracy"
  include {
    phase: TRAIN
  }
}
layer {
  name: "loss"
  type: "HingeLoss"
  bottom: "dt"
  bottom: "label"
  top: "loss"
}
I0729 12:17:59.884173  4723 layer_factory.hpp:77] Creating layer data
I0729 12:17:59.885037  4723 net.cpp:91] Creating Layer data
I0729 12:17:59.885085  4723 net.cpp:399] data -> data
I0729 12:17:59.885118  4723 net.cpp:399] data -> label
I0729 12:17:59.885143  4723 data_transformer.cpp:25] Loading mean file from: examples/scene/scene_mean.binaryproto
I0729 12:17:59.887047  4729 db_lmdb.cpp:35] Opened lmdb examples/scene/scene_train_pairs.lmdb
I0729 12:17:59.907199  4723 data_layer.cpp:41] output data size: 400,6,128,128
I0729 12:18:00.278687  4723 net.cpp:141] Setting up data
I0729 12:18:00.278726  4723 net.cpp:148] Top shape: 400 6 128 128 (39321600)
I0729 12:18:00.278736  4723 net.cpp:148] Top shape: 400 (400)
I0729 12:18:00.278743  4723 net.cpp:156] Memory required for data: 157288000
I0729 12:18:00.278760  4723 layer_factory.hpp:77] Creating layer label_data_1_split
I0729 12:18:00.278785  4723 net.cpp:91] Creating Layer label_data_1_split
I0729 12:18:00.278796  4723 net.cpp:425] label_data_1_split <- label
I0729 12:18:00.278815  4723 net.cpp:399] label_data_1_split -> label_data_1_split_0
I0729 12:18:00.278833  4723 net.cpp:399] label_data_1_split -> label_data_1_split_1
I0729 12:18:00.278944  4723 net.cpp:141] Setting up label_data_1_split
I0729 12:18:00.278956  4723 net.cpp:148] Top shape: 400 (400)
I0729 12:18:00.278964  4723 net.cpp:148] Top shape: 400 (400)
I0729 12:18:00.278972  4723 net.cpp:156] Memory required for data: 157291200
I0729 12:18:00.278980  4723 layer_factory.hpp:77] Creating layer i1
I0729 12:18:00.278998  4723 net.cpp:91] Creating Layer i1
I0729 12:18:00.279021  4723 net.cpp:425] i1 <- data
I0729 12:18:00.279034  4723 net.cpp:399] i1 -> i1
I0729 12:18:00.279052  4723 net.cpp:399] i1 -> i2
I0729 12:18:00.279119  4723 net.cpp:141] Setting up i1
I0729 12:18:00.279130  4723 net.cpp:148] Top shape: 400 3 128 128 (19660800)
I0729 12:18:00.279140  4723 net.cpp:148] Top shape: 400 3 128 128 (19660800)
I0729 12:18:00.279148  4723 net.cpp:156] Memory required for data: 314577600
I0729 12:18:00.279155  4723 layer_factory.hpp:77] Creating layer p1
I0729 12:18:00.279170  4723 net.cpp:91] Creating Layer p1
I0729 12:18:00.279177  4723 net.cpp:425] p1 <- i1
I0729 12:18:00.279188  4723 net.cpp:399] p1 -> p1
I0729 12:18:00.279233  4723 net.cpp:141] Setting up p1
I0729 12:18:00.279244  4723 net.cpp:148] Top shape: 400 3 64 64 (4915200)
I0729 12:18:00.279253  4723 net.cpp:156] Memory required for data: 334238400
I0729 12:18:00.279259  4723 layer_factory.hpp:77] Creating layer p2
I0729 12:18:00.279279  4723 net.cpp:91] Creating Layer p2
I0729 12:18:00.279287  4723 net.cpp:425] p2 <- i2
I0729 12:18:00.279299  4723 net.cpp:399] p2 -> p2
I0729 12:18:00.279333  4723 net.cpp:141] Setting up p2
I0729 12:18:00.279347  4723 net.cpp:148] Top shape: 400 3 64 64 (4915200)
I0729 12:18:00.279356  4723 net.cpp:156] Memory required for data: 353899200
I0729 12:18:00.279364  4723 layer_factory.hpp:77] Creating layer Convolution1
I0729 12:18:00.279386  4723 net.cpp:91] Creating Layer Convolution1
I0729 12:18:00.279395  4723 net.cpp:425] Convolution1 <- p1
I0729 12:18:00.279408  4723 net.cpp:399] Convolution1 -> Convolution1
I0729 12:18:00.280422  4723 net.cpp:141] Setting up Convolution1
I0729 12:18:00.280441  4723 net.cpp:148] Top shape: 400 20 60 60 (28800000)
I0729 12:18:00.280447  4723 net.cpp:156] Memory required for data: 469099200
I0729 12:18:00.280468  4723 layer_factory.hpp:77] Creating layer Pooling1
I0729 12:18:00.280483  4723 net.cpp:91] Creating Layer Pooling1
I0729 12:18:00.280490  4723 net.cpp:425] Pooling1 <- Convolution1
I0729 12:18:00.280503  4723 net.cpp:399] Pooling1 -> Pooling1
I0729 12:18:00.304352  4723 net.cpp:141] Setting up Pooling1
I0729 12:18:00.304383  4723 net.cpp:148] Top shape: 400 20 30 30 (7200000)
I0729 12:18:00.304400  4723 net.cpp:156] Memory required for data: 497899200
I0729 12:18:00.304442  4723 layer_factory.hpp:77] Creating layer Convolution2
I0729 12:18:00.304461  4723 net.cpp:91] Creating Layer Convolution2
I0729 12:18:00.304472  4723 net.cpp:425] Convolution2 <- Pooling1
I0729 12:18:00.304487  4723 net.cpp:399] Convolution2 -> Convolution2
I0729 12:18:00.305552  4723 net.cpp:141] Setting up Convolution2
I0729 12:18:00.305567  4723 net.cpp:148] Top shape: 400 50 26 26 (13520000)
I0729 12:18:00.305575  4723 net.cpp:156] Memory required for data: 551979200
I0729 12:18:00.305590  4723 layer_factory.hpp:77] Creating layer Pooling2
I0729 12:18:00.305606  4723 net.cpp:91] Creating Layer Pooling2
I0729 12:18:00.305614  4723 net.cpp:425] Pooling2 <- Convolution2
I0729 12:18:00.305625  4723 net.cpp:399] Pooling2 -> Pooling2
I0729 12:18:00.305677  4723 net.cpp:141] Setting up Pooling2
I0729 12:18:00.305691  4723 net.cpp:148] Top shape: 400 50 13 13 (3380000)
I0729 12:18:00.305699  4723 net.cpp:156] Memory required for data: 565499200
I0729 12:18:00.305707  4723 layer_factory.hpp:77] Creating layer InnerProduct1
I0729 12:18:00.305722  4723 net.cpp:91] Creating Layer InnerProduct1
I0729 12:18:00.305730  4723 net.cpp:425] InnerProduct1 <- Pooling2
I0729 12:18:00.305743  4723 net.cpp:399] InnerProduct1 -> InnerProduct1
I0729 12:18:00.315457  4723 net.cpp:141] Setting up InnerProduct1
I0729 12:18:00.315490  4723 net.cpp:148] Top shape: 400 100 (40000)
I0729 12:18:00.315497  4723 net.cpp:156] Memory required for data: 565659200
I0729 12:18:00.315522  4723 layer_factory.hpp:77] Creating layer ReLU1
I0729 12:18:00.315539  4723 net.cpp:91] Creating Layer ReLU1
I0729 12:18:00.315549  4723 net.cpp:425] ReLU1 <- InnerProduct1
I0729 12:18:00.315562  4723 net.cpp:386] ReLU1 -> InnerProduct1 (in-place)
I0729 12:18:00.315579  4723 net.cpp:141] Setting up ReLU1
I0729 12:18:00.315619  4723 net.cpp:148] Top shape: 400 100 (40000)
I0729 12:18:00.315628  4723 net.cpp:156] Memory required for data: 565819200
I0729 12:18:00.315635  4723 layer_factory.hpp:77] Creating layer InnerProduct2
I0729 12:18:00.315650  4723 net.cpp:91] Creating Layer InnerProduct2
I0729 12:18:00.315659  4723 net.cpp:425] InnerProduct2 <- InnerProduct1
I0729 12:18:00.315670  4723 net.cpp:399] InnerProduct2 -> InnerProduct2
I0729 12:18:00.316507  4723 net.cpp:141] Setting up InnerProduct2
I0729 12:18:00.316524  4723 net.cpp:148] Top shape: 400 50 (20000)
I0729 12:18:00.316532  4723 net.cpp:156] Memory required for data: 565899200
I0729 12:18:00.316545  4723 layer_factory.hpp:77] Creating layer Convolution3
I0729 12:18:00.316562  4723 net.cpp:91] Creating Layer Convolution3
I0729 12:18:00.316573  4723 net.cpp:425] Convolution3 <- p2
I0729 12:18:00.316586  4723 net.cpp:399] Convolution3 -> Convolution3
I0729 12:18:00.316925  4723 net.cpp:141] Setting up Convolution3
I0729 12:18:00.316936  4723 net.cpp:148] Top shape: 400 20 60 60 (28800000)
I0729 12:18:00.316946  4723 net.cpp:156] Memory required for data: 681099200
I0729 12:18:00.316956  4723 net.cpp:484] Sharing parameters 'conv1_w' owned by layer 'Convolution1', param index 0
I0729 12:18:00.316967  4723 net.cpp:484] Sharing parameters 'conv1_b' owned by layer 'Convolution1', param index 1
I0729 12:18:00.316974  4723 layer_factory.hpp:77] Creating layer Pooling3
I0729 12:18:00.316987  4723 net.cpp:91] Creating Layer Pooling3
I0729 12:18:00.316995  4723 net.cpp:425] Pooling3 <- Convolution3
I0729 12:18:00.317008  4723 net.cpp:399] Pooling3 -> Pooling3
I0729 12:18:00.317065  4723 net.cpp:141] Setting up Pooling3
I0729 12:18:00.317077  4723 net.cpp:148] Top shape: 400 20 30 30 (7200000)
I0729 12:18:00.317087  4723 net.cpp:156] Memory required for data: 709899200
I0729 12:18:00.317095  4723 layer_factory.hpp:77] Creating layer Convolution4
I0729 12:18:00.317111  4723 net.cpp:91] Creating Layer Convolution4
I0729 12:18:00.317119  4723 net.cpp:425] Convolution4 <- Pooling3
I0729 12:18:00.317132  4723 net.cpp:399] Convolution4 -> Convolution4
I0729 12:18:00.317652  4723 net.cpp:141] Setting up Convolution4
I0729 12:18:00.317664  4723 net.cpp:148] Top shape: 400 50 26 26 (13520000)
I0729 12:18:00.317673  4723 net.cpp:156] Memory required for data: 763979200
I0729 12:18:00.317682  4723 net.cpp:484] Sharing parameters 'conv2_w' owned by layer 'Convolution2', param index 0
I0729 12:18:00.317692  4723 net.cpp:484] Sharing parameters 'conv2_b' owned by layer 'Convolution2', param index 1
I0729 12:18:00.317701  4723 layer_factory.hpp:77] Creating layer Pooling4
I0729 12:18:00.317711  4723 net.cpp:91] Creating Layer Pooling4
I0729 12:18:00.317719  4723 net.cpp:425] Pooling4 <- Convolution4
I0729 12:18:00.317733  4723 net.cpp:399] Pooling4 -> Pooling4
I0729 12:18:00.317785  4723 net.cpp:141] Setting up Pooling4
I0729 12:18:00.317795  4723 net.cpp:148] Top shape: 400 50 13 13 (3380000)
I0729 12:18:00.317800  4723 net.cpp:156] Memory required for data: 777499200
I0729 12:18:00.317806  4723 layer_factory.hpp:77] Creating layer InnerProduct3
I0729 12:18:00.317821  4723 net.cpp:91] Creating Layer InnerProduct3
I0729 12:18:00.317827  4723 net.cpp:425] InnerProduct3 <- Pooling4
I0729 12:18:00.317837  4723 net.cpp:399] InnerProduct3 -> InnerProduct3
I0729 12:18:00.326094  4723 net.cpp:141] Setting up InnerProduct3
I0729 12:18:00.326120  4723 net.cpp:148] Top shape: 400 100 (40000)
I0729 12:18:00.326128  4723 net.cpp:156] Memory required for data: 777659200
I0729 12:18:00.326136  4723 net.cpp:484] Sharing parameters 'ip1_w' owned by layer 'InnerProduct1', param index 0
I0729 12:18:00.326144  4723 net.cpp:484] Sharing parameters 'ip1_b' owned by layer 'InnerProduct1', param index 1
I0729 12:18:00.326151  4723 layer_factory.hpp:77] Creating layer ReLU2
I0729 12:18:00.326167  4723 net.cpp:91] Creating Layer ReLU2
I0729 12:18:00.326176  4723 net.cpp:425] ReLU2 <- InnerProduct3
I0729 12:18:00.326189  4723 net.cpp:386] ReLU2 -> InnerProduct3 (in-place)
I0729 12:18:00.326200  4723 net.cpp:141] Setting up ReLU2
I0729 12:18:00.326233  4723 net.cpp:148] Top shape: 400 100 (40000)
I0729 12:18:00.326239  4723 net.cpp:156] Memory required for data: 777819200
I0729 12:18:00.326246  4723 layer_factory.hpp:77] Creating layer InnerProduct4
I0729 12:18:00.326257  4723 net.cpp:91] Creating Layer InnerProduct4
I0729 12:18:00.326263  4723 net.cpp:425] InnerProduct4 <- InnerProduct3
I0729 12:18:00.326273  4723 net.cpp:399] InnerProduct4 -> InnerProduct4
I0729 12:18:00.326447  4723 net.cpp:141] Setting up InnerProduct4
I0729 12:18:00.326458  4723 net.cpp:148] Top shape: 400 50 (20000)
I0729 12:18:00.326464  4723 net.cpp:156] Memory required for data: 777899200
I0729 12:18:00.326472  4723 net.cpp:484] Sharing parameters 'ip2_w' owned by layer 'InnerProduct2', param index 0
I0729 12:18:00.326478  4723 net.cpp:484] Sharing parameters 'ip2_b' owned by layer 'InnerProduct2', param index 1
I0729 12:18:00.326485  4723 layer_factory.hpp:77] Creating layer Concat1
I0729 12:18:00.326503  4723 net.cpp:91] Creating Layer Concat1
I0729 12:18:00.326508  4723 net.cpp:425] Concat1 <- InnerProduct2
I0729 12:18:00.326516  4723 net.cpp:425] Concat1 <- InnerProduct4
I0729 12:18:00.326525  4723 net.cpp:399] Concat1 -> Concat1
I0729 12:18:00.326557  4723 net.cpp:141] Setting up Concat1
I0729 12:18:00.326567  4723 net.cpp:148] Top shape: 400 100 (40000)
I0729 12:18:00.326573  4723 net.cpp:156] Memory required for data: 778059200
I0729 12:18:00.326580  4723 layer_factory.hpp:77] Creating layer InnerProduct5
I0729 12:18:00.326588  4723 net.cpp:91] Creating Layer InnerProduct5
I0729 12:18:00.326594  4723 net.cpp:425] InnerProduct5 <- Concat1
I0729 12:18:00.326604  4723 net.cpp:399] InnerProduct5 -> InnerProduct5
I0729 12:18:00.326778  4723 net.cpp:141] Setting up InnerProduct5
I0729 12:18:00.326788  4723 net.cpp:148] Top shape: 400 64 (25600)
I0729 12:18:00.326794  4723 net.cpp:156] Memory required for data: 778161600
I0729 12:18:00.326809  4723 layer_factory.hpp:77] Creating layer ReLU3
I0729 12:18:00.326818  4723 net.cpp:91] Creating Layer ReLU3
I0729 12:18:00.326824  4723 net.cpp:425] ReLU3 <- InnerProduct5
I0729 12:18:00.326833  4723 net.cpp:386] ReLU3 -> InnerProduct5 (in-place)
I0729 12:18:00.326841  4723 net.cpp:141] Setting up ReLU3
I0729 12:18:00.326849  4723 net.cpp:148] Top shape: 400 64 (25600)
I0729 12:18:00.326854  4723 net.cpp:156] Memory required for data: 778264000
I0729 12:18:00.326860  4723 layer_factory.hpp:77] Creating layer InnerProduct6
I0729 12:18:00.326869  4723 net.cpp:91] Creating Layer InnerProduct6
I0729 12:18:00.326875  4723 net.cpp:425] InnerProduct6 <- InnerProduct5
I0729 12:18:00.326885  4723 net.cpp:399] InnerProduct6 -> InnerProduct6
I0729 12:18:00.327025  4723 net.cpp:141] Setting up InnerProduct6
I0729 12:18:00.327035  4723 net.cpp:148] Top shape: 400 32 (12800)
I0729 12:18:00.327041  4723 net.cpp:156] Memory required for data: 778315200
I0729 12:18:00.327049  4723 layer_factory.hpp:77] Creating layer ReLU4
I0729 12:18:00.327057  4723 net.cpp:91] Creating Layer ReLU4
I0729 12:18:00.327065  4723 net.cpp:425] ReLU4 <- InnerProduct6
I0729 12:18:00.327074  4723 net.cpp:386] ReLU4 -> InnerProduct6 (in-place)
I0729 12:18:00.327082  4723 net.cpp:141] Setting up ReLU4
I0729 12:18:00.327090  4723 net.cpp:148] Top shape: 400 32 (12800)
I0729 12:18:00.327096  4723 net.cpp:156] Memory required for data: 778366400
I0729 12:18:00.327101  4723 layer_factory.hpp:77] Creating layer dt
I0729 12:18:00.327111  4723 net.cpp:91] Creating Layer dt
I0729 12:18:00.327117  4723 net.cpp:425] dt <- InnerProduct6
I0729 12:18:00.327127  4723 net.cpp:399] dt -> dt
I0729 12:18:00.327247  4723 net.cpp:141] Setting up dt
I0729 12:18:00.327257  4723 net.cpp:148] Top shape: 400 2 (800)
I0729 12:18:00.327263  4723 net.cpp:156] Memory required for data: 778369600
I0729 12:18:00.327277  4723 layer_factory.hpp:77] Creating layer dt_dt_0_split
I0729 12:18:00.327286  4723 net.cpp:91] Creating Layer dt_dt_0_split
I0729 12:18:00.327292  4723 net.cpp:425] dt_dt_0_split <- dt
I0729 12:18:00.327301  4723 net.cpp:399] dt_dt_0_split -> dt_dt_0_split_0
I0729 12:18:00.327322  4723 net.cpp:399] dt_dt_0_split -> dt_dt_0_split_1
I0729 12:18:00.327365  4723 net.cpp:141] Setting up dt_dt_0_split
I0729 12:18:00.327378  4723 net.cpp:148] Top shape: 400 2 (800)
I0729 12:18:00.327384  4723 net.cpp:148] Top shape: 400 2 (800)
I0729 12:18:00.327390  4723 net.cpp:156] Memory required for data: 778376000
I0729 12:18:00.327396  4723 layer_factory.hpp:77] Creating layer accuracy
I0729 12:18:00.327405  4723 net.cpp:91] Creating Layer accuracy
I0729 12:18:00.327411  4723 net.cpp:425] accuracy <- dt_dt_0_split_0
I0729 12:18:00.327419  4723 net.cpp:425] accuracy <- label_data_1_split_0
I0729 12:18:00.327428  4723 net.cpp:399] accuracy -> accuracy
…
I0729 12:18:00.329816  4723 solver.cpp:181] Creating test net (#0) specified by test_net file: examples/scene/matchNetTestHingeMini.prototxt
I0729 12:18:00.330173  4723 net.cpp:49] Initializing net from parameters: 
state {
  phase: TEST
}
layer {
  name: "data"
  type: "Data"
  top: "data"
  top: "label"
  include {
    phase: TEST
  }
  transform_param {
    scale: 0.0039215689
    mirror: true
    mean_file: "examples/scene/scene_mean.binaryproto"
  }
  data_param {
    source: "examples/scene/scene_test_pairs.lmdb"
    batch_size: 100
    backend: LMDB
  }
}
layer {
  name: "i1"
  type: "Slice"
  bottom: "data"
  top: "i1"
  top: "i2"
  slice_param {
    slice_dim: 1
    slice_point: 3
  }
}
layer {
  name: "p1"
  type: "Pooling"
  bottom: "i1"
  top: "p1"
  pooling_param {
    pool: AVE
    kernel_size: 2
    stride: 2
  }
}
layer {
  name: "p2"
  type: "Pooling"
  bottom: "i2"
  top: "p2"
  pooling_param {
    pool: AVE
    kernel_size: 2
    stride: 2
  }
}
layer {
  name: "Convolution1"
  type: "Convolution"
  bottom: "p1"
  top: "Convolution1"
  param {
    name: "conv1_w"
    lr_mult: 1
  }
  param {
    name: "conv1_b"
    lr_mult: 2
  }
  convolution_param {
    num_output: 20
    kernel_size: 5
    stride: 1
    weight_filler {
      type: "xavier"
    }
    bias_filler {
      type: "constant"
    }
  }
}
layer {
  name: "Pooling1"
  type: "Pooling"
  bottom: "Convolution1"
  top: "Pooling1"
  pooling_param {
    pool: MAX
    kernel_size: 2
    stride: 2
  }
}
layer {
  name: "Convolution2"
  type: "Convolution"
  bottom: "Pooling1"
  top: "Convolution2"
  param {
    name: "conv2_w"
    lr_mult: 1
  }
  param {
    name: "conv2_b"
    lr_mult: 2
  }
  convolution_param {
    num_output: 50
    kernel_size: 5
    stride: 1
    weight_filler {
      type: "xavier"
    }
    bias_filler {
      type: "constant"
    }
  }
}
layer {
  name: "Pooling2"
  type: "Pooling"
  bottom: "Convolution2"
  top: "Pooling2"
  pooling_param {
    pool: MAX
    kernel_size: 2
    stride: 2
  }
}
layer {
  name: "InnerProduct1"
  type: "InnerProduct"
  bottom: "Pooling2"
  top: "InnerProduct1"
  param {
    name: "ip1_w"
    lr_mult: 1
  }
  param {
    name: "ip1_b"
    lr_mult: 2
  }
  inner_product_param {
    num_output: 100
    weight_filler {
      type: "xavier"
    }
    bias_filler {
      type: "constant"
    }
  }
}
layer {
  name: "ReLU1"
  type: "ReLU"
  bottom: "InnerProduct1"
  top: "InnerProduct1"
}
layer {
  name: "InnerProduct2"
  type: "InnerProduct"
  bottom: "InnerProduct1"
  top: "InnerProduct2"
  param {
    name: "ip2_w"
    lr_mult: 1
  }
  param {
    name: "ip2_b"
    lr_mult: 2
  }
  inner_product_param {
    num_output: 50
    weight_filler {
      type: "xavier"
    }
    bias_filler {
      type: "constant"
    }
  }
}
layer {
  name: "Convolution3"
  type: "Convolution"
  bottom: "p2"
  top: "Convolution3"
  param {
    name: "conv1_w"
    lr_mult: 1
  }
  param {
    name: "conv1_b"
    lr_mult: 2
  }
  convolution_param {
    num_output: 20
    kernel_size: 5
    stride: 1
    weight_filler {
      type: "xavier"
    }
    bias_filler {
      type: "constant"
    }
  }
}
layer {
  name: "Pooling3"
  type: "Pooling"
  bottom: "Convolution3"
  top: "Pooling3"
  pooling_param {
    pool: MAX
    kernel_size: 2
    stride: 2
  }
}
layer {
  name: "Convolution4"
  type: "Convolution"
  bottom: "Pooling3"
  top: "Convolution4"
  param {
    name: "conv2_w"
    lr_mult: 1
  }
  param {
    name: "conv2_b"
    lr_mult: 2
  }
  convolution_param {
    num_output: 50
    kernel_size: 5
    stride: 1
    weight_filler {
      type: "xavier"
    }
    bias_filler {
      type: "constant"
    }
  }
}
layer {
  name: "Pooling4"
  type: "Pooling"
  bottom: "Convolution4"
  top: "Pooling4"
  pooling_param {
    pool: MAX
    kernel_size: 2
    stride: 2
  }
}
layer {
  name: "InnerProduct3"
  type: "InnerProduct"
  bottom: "Pooling4"
  top: "InnerProduct3"
  param {
    name: "ip1_w"
    lr_mult: 1
  }
  param {
    name: "ip1_b"
    lr_mult: 2
  }
  inner_product_param {
    num_output: 100
    weight_filler {
      type: "xavier"
    }
    bias_filler {
      type: "constant"
    }
  }
}
layer {
  name: "ReLU2"
  type: "ReLU"
  bottom: "InnerProduct3"
  top: "InnerProduct3"
}
layer {
  name: "InnerProduct4"
  type: "InnerProduct"
  bottom: "InnerProduct3"
  top: "InnerProduct4"
  param {
    name: "ip2_w"
    lr_mult: 1
  }
  param {
    name: "ip2_b"
    lr_mult: 2
  }
  inner_product_param {
    num_output: 50
    weight_filler {
      type: "xavier"
    }
    bias_filler {
      type: "constant"
    }
  }
}
layer {
  name: "Concat1"
  type: "Concat"
  bottom: "InnerProduct2"
  bottom: "InnerProduct4"
  top: "Concat1"
  concat_param {
    axis: 1
  }
}
layer {
  name: "InnerProduct5"
  type: "InnerProduct"
  bottom: "Concat1"
  top: "InnerProduct5"
  param {
    name: "fc1_w"
    lr_mult: 1
  }
  param {
    name: "fc1_b"
    lr_mult: 2
  }
  inner_product_param {
    num_output: 64
    weight_filler {
      type: "xavier"
    }
    bias_filler {
      type: "constant"
    }
  }
}
layer {
  name: "ReLU3"
  type: "ReLU"
  bottom: "InnerProduct5"
  top: "InnerProduct5"
}
layer {
  name: "InnerProduct6"
  type: "InnerProduct"
  bottom: "InnerProduct5"
  top: "InnerProduct6"
  param {
    name: "fc2_w"
    lr_mult: 1
  }
  param {
    name: "fc2_b"
    lr_mult: 2
  }
  inner_product_param {
    num_output: 32
    weight_filler {
      type: "xavier"
    }
    bias_filler {
      type: "constant"
    }
  }
}
layer {
  name: "ReLU4"
  type: "ReLU"
  bottom: "InnerProduct6"
  top: "InnerProduct6"
}
layer {
  name: "dt"
  type: "InnerProduct"
  bottom: "InnerProduct6"
  top: "dt"
  param {
    name: "fc3_w"
    lr_mult: 1
  }
  param {
    name: "fc3_b"
    lr_mult: 2
  }
  inner_product_param {
    num_output: 2
    weight_filler {
      type: "xavier"
    }
    bias_filler {
      type: "constant"
    }
  }
}
layer {
  name: "accuracy"
  type: "Accuracy"
  bottom: "dt"
  bottom: "label"
  top: "accuracy"
  include {
    phase: TEST
  }
}
layer {
  name: "loss"
  type: "HingeLoss"
  bottom: "dt"
  bottom: "label"
  top: "loss"
}
I0729 12:18:00.330358  4723 layer_factory.hpp:77] Creating layer data
I0729 12:18:00.330510  4723 net.cpp:91] Creating Layer data
I0729 12:18:00.330525  4723 net.cpp:399] data -> data
I0729 12:18:00.330541  4723 net.cpp:399] data -> label
I0729 12:18:00.330556  4723 data_transformer.cpp:25] Loading mean file from: examples/scene/scene_mean.binaryproto
I0729 12:18:00.331506  4731 db_lmdb.cpp:35] Opened lmdb examples/scene/scene_test_pairs.lmdb
I0729 12:18:00.332717  4723 data_layer.cpp:41] output data size: 100,6,128,128
I0729 12:18:00.440683  4723 net.cpp:141] Setting up data
I0729 12:18:00.440734  4723 net.cpp:148] Top shape: 100 6 128 128 (9830400)
I0729 12:18:00.440753  4723 net.cpp:148] Top shape: 100 (100)
I0729 12:18:00.440762  4723 net.cpp:156] Memory required for data: 39322000
I0729 12:18:00.440774  4723 layer_factory.hpp:77] Creating layer label_data_1_split
I0729 12:18:00.440795  4723 net.cpp:91] Creating Layer label_data_1_split
I0729 12:18:00.440804  4723 net.cpp:425] label_data_1_split <- label
I0729 12:18:00.440819  4723 net.cpp:399] label_data_1_split -> label_data_1_split_0
I0729 12:18:00.440840  4723 net.cpp:399] label_data_1_split -> label_data_1_split_1
I0729 12:18:00.440927  4723 net.cpp:141] Setting up label_data_1_split
I0729 12:18:00.440942  4723 net.cpp:148] Top shape: 100 (100)
I0729 12:18:00.440953  4723 net.cpp:148] Top shape: 100 (100)
I0729 12:18:00.440960  4723 net.cpp:156] Memory required for data: 39322800
I0729 12:18:00.440968  4723 layer_factory.hpp:77] Creating layer i1
I0729 12:18:00.440982  4723 net.cpp:91] Creating Layer i1
I0729 12:18:00.440990  4723 net.cpp:425] i1 <- data
I0729 12:18:00.441004  4723 net.cpp:399] i1 -> i1
I0729 12:18:00.441020  4723 net.cpp:399] i1 -> i2
I0729 12:18:00.441176  4723 net.cpp:141] Setting up i1
I0729 12:18:00.441201  4723 net.cpp:148] Top shape: 100 3 128 128 (4915200)
I0729 12:18:00.441211  4723 net.cpp:148] Top shape: 100 3 128 128 (4915200)
I0729 12:18:00.441218  4723 net.cpp:156] Memory required for data: 78644400
I0729 12:18:00.441227  4723 layer_factory.hpp:77] Creating layer p1
I0729 12:18:00.441246  4723 net.cpp:91] Creating Layer p1
I0729 12:18:00.441253  4723 net.cpp:425] p1 <- i1
I0729 12:18:00.441293  4723 net.cpp:399] p1 -> p1
I0729 12:18:00.441330  4723 net.cpp:141] Setting up p1
I0729 12:18:00.441344  4723 net.cpp:148] Top shape: 100 3 64 64 (1228800)
I0729 12:18:00.441352  4723 net.cpp:156] Memory required for data: 83559600
I0729 12:18:00.441360  4723 layer_factory.hpp:77] Creating layer p2
I0729 12:18:00.441375  4723 net.cpp:91] Creating Layer p2
I0729 12:18:00.441383  4723 net.cpp:425] p2 <- i2
I0729 12:18:00.441395  4723 net.cpp:399] p2 -> p2
I0729 12:18:00.441428  4723 net.cpp:141] Setting up p2
I0729 12:18:00.441442  4723 net.cpp:148] Top shape: 100 3 64 64 (1228800)
I0729 12:18:00.441449  4723 net.cpp:156] Memory required for data: 88474800
I0729 12:18:00.441457  4723 layer_factory.hpp:77] Creating layer Convolution1
I0729 12:18:00.441478  4723 net.cpp:91] Creating Layer Convolution1
I0729 12:18:00.441488  4723 net.cpp:425] Convolution1 <- p1
I0729 12:18:00.441500  4723 net.cpp:399] Convolution1 -> Convolution1
I0729 12:18:00.442072  4723 net.cpp:141] Setting up Convolution1
I0729 12:18:00.442103  4723 net.cpp:148] Top shape: 100 20 60 60 (7200000)
I0729 12:18:00.442121  4723 net.cpp:156] Memory required for data: 117274800
I0729 12:18:00.442139  4723 layer_factory.hpp:77] Creating layer Pooling1
I0729 12:18:00.442152  4723 net.cpp:91] Creating Layer Pooling1
I0729 12:18:00.442160  4723 net.cpp:425] Pooling1 <- Convolution1
I0729 12:18:00.442178  4723 net.cpp:399] Pooling1 -> Pooling1
I0729 12:18:00.442251  4723 net.cpp:141] Setting up Pooling1
I0729 12:18:00.442268  4723 net.cpp:148] Top shape: 100 20 30 30 (1800000)
I0729 12:18:00.442288  4723 net.cpp:156] Memory required for data: 124474800
I0729 12:18:00.442296  4723 layer_factory.hpp:77] Creating layer Convolution2
I0729 12:18:00.442312  4723 net.cpp:91] Creating Layer Convolution2
I0729 12:18:00.442319  4723 net.cpp:425] Convolution2 <- Pooling1
I0729 12:18:00.442334  4723 net.cpp:399] Convolution2 -> Convolution2
I0729 12:18:00.448901  4723 net.cpp:141] Setting up Convolution2
I0729 12:18:00.448918  4723 net.cpp:148] Top shape: 100 50 26 26 (3380000)
I0729 12:18:00.448925  4723 net.cpp:156] Memory required for data: 137994800
I0729 12:18:00.448940  4723 layer_factory.hpp:77] Creating layer Pooling2
I0729 12:18:00.448954  4723 net.cpp:91] Creating Layer Pooling2
I0729 12:18:00.448963  4723 net.cpp:425] Pooling2 <- Convolution2
I0729 12:18:00.448974  4723 net.cpp:399] Pooling2 -> Pooling2
I0729 12:18:00.449031  4723 net.cpp:141] Setting up Pooling2
I0729 12:18:00.449043  4723 net.cpp:148] Top shape: 100 50 13 13 (845000)
I0729 12:18:00.449050  4723 net.cpp:156] Memory required for data: 141374800
I0729 12:18:00.449057  4723 layer_factory.hpp:77] Creating layer InnerProduct1
I0729 12:18:00.449070  4723 net.cpp:91] Creating Layer InnerProduct1
I0729 12:18:00.449077  4723 net.cpp:425] InnerProduct1 <- Pooling2
I0729 12:18:00.449089  4723 net.cpp:399] InnerProduct1 -> InnerProduct1
I0729 12:18:00.458652  4723 net.cpp:141] Setting up InnerProduct1
I0729 12:18:00.458691  4723 net.cpp:148] Top shape: 100 100 (10000)
I0729 12:18:00.458699  4723 net.cpp:156] Memory required for data: 141414800
I0729 12:18:00.458726  4723 layer_factory.hpp:77] Creating layer ReLU1
I0729 12:18:00.458745  4723 net.cpp:91] Creating Layer ReLU1
I0729 12:18:00.458755  4723 net.cpp:425] ReLU1 <- InnerProduct1
I0729 12:18:00.458766  4723 net.cpp:386] ReLU1 -> InnerProduct1 (in-place)
I0729 12:18:00.458782  4723 net.cpp:141] Setting up ReLU1
I0729 12:18:00.458793  4723 net.cpp:148] Top shape: 100 100 (10000)
I0729 12:18:00.458801  4723 net.cpp:156] Memory required for data: 141454800
I0729 12:18:00.458807  4723 layer_factory.hpp:77] Creating layer InnerProduct2
I0729 12:18:00.458822  4723 net.cpp:91] Creating Layer InnerProduct2
I0729 12:18:00.458829  4723 net.cpp:425] InnerProduct2 <- InnerProduct1
I0729 12:18:00.458842  4723 net.cpp:399] InnerProduct2 -> InnerProduct2
I0729 12:18:00.459051  4723 net.cpp:141] Setting up InnerProduct2
I0729 12:18:00.459064  4723 net.cpp:148] Top shape: 100 50 (5000)
I0729 12:18:00.459071  4723 net.cpp:156] Memory required for data: 141474800
I0729 12:18:00.459113  4723 layer_factory.hpp:77] Creating layer Convolution3
I0729 12:18:00.459131  4723 net.cpp:91] Creating Layer Convolution3
I0729 12:18:00.459141  4723 net.cpp:425] Convolution3 <- p2
I0729 12:18:00.459154  4723 net.cpp:399] Convolution3 -> Convolution3
I0729 12:18:00.459547  4723 net.cpp:141] Setting up Convolution3
I0729 12:18:00.459560  4723 net.cpp:148] Top shape: 100 20 60 60 (7200000)
I0729 12:18:00.459568  4723 net.cpp:156] Memory required for data: 170274800
I0729 12:18:00.459579  4723 net.cpp:484] Sharing parameters 'conv1_w' owned by layer 'Convolution1', param index 0
I0729 12:18:00.459589  4723 net.cpp:484] Sharing parameters 'conv1_b' owned by layer 'Convolution1', param index 1
I0729 12:18:00.459597  4723 layer_factory.hpp:77] Creating layer Pooling3
I0729 12:18:00.459609  4723 net.cpp:91] Creating Layer Pooling3
I0729 12:18:00.459617  4723 net.cpp:425] Pooling3 <- Convolution3
I0729 12:18:00.459628  4723 net.cpp:399] Pooling3 -> Pooling3
I0729 12:18:00.459686  4723 net.cpp:141] Setting up Pooling3
I0729 12:18:00.459697  4723 net.cpp:148] Top shape: 100 20 30 30 (1800000)
I0729 12:18:00.459705  4723 net.cpp:156] Memory required for data: 177474800
I0729 12:18:00.459712  4723 layer_factory.hpp:77] Creating layer Convolution4
I0729 12:18:00.459727  4723 net.cpp:91] Creating Layer Convolution4
I0729 12:18:00.459735  4723 net.cpp:425] Convolution4 <- Pooling3
I0729 12:18:00.459748  4723 net.cpp:399] Convolution4 -> Convolution4
I0729 12:18:00.460315  4723 net.cpp:141] Setting up Convolution4
I0729 12:18:00.460331  4723 net.cpp:148] Top shape: 100 50 26 26 (3380000)
I0729 12:18:00.460338  4723 net.cpp:156] Memory required for data: 190994800
I0729 12:18:00.460346  4723 net.cpp:484] Sharing parameters 'conv2_w' owned by layer 'Convolution2', param index 0
I0729 12:18:00.460355  4723 net.cpp:484] Sharing parameters 'conv2_b' owned by layer 'Convolution2', param index 1
I0729 12:18:00.460361  4723 layer_factory.hpp:77] Creating layer Pooling4
I0729 12:18:00.460371  4723 net.cpp:91] Creating Layer Pooling4
I0729 12:18:00.460378  4723 net.cpp:425] Pooling4 <- Convolution4
I0729 12:18:00.460391  4723 net.cpp:399] Pooling4 -> Pooling4
I0729 12:18:00.460445  4723 net.cpp:141] Setting up Pooling4
I0729 12:18:00.460458  4723 net.cpp:148] Top shape: 100 50 13 13 (845000)
I0729 12:18:00.460466  4723 net.cpp:156] Memory required for data: 194374800
I0729 12:18:00.460474  4723 layer_factory.hpp:77] Creating layer InnerProduct3
I0729 12:18:00.460490  4723 net.cpp:91] Creating Layer InnerProduct3
I0729 12:18:00.460497  4723 net.cpp:425] InnerProduct3 <- Pooling4
I0729 12:18:00.460510  4723 net.cpp:399] InnerProduct3 -> InnerProduct3
I0729 12:18:00.469650  4723 net.cpp:141] Setting up InnerProduct3
I0729 12:18:00.469696  4723 net.cpp:148] Top shape: 100 100 (10000)
I0729 12:18:00.469703  4723 net.cpp:156] Memory required for data: 194414800
I0729 12:18:00.469717  4723 net.cpp:484] Sharing parameters 'ip1_w' owned by layer 'InnerProduct1', param index 0
I0729 12:18:00.469727  4723 net.cpp:484] Sharing parameters 'ip1_b' owned by layer 'InnerProduct1', param index 1
I0729 12:18:00.469735  4723 layer_factory.hpp:77] Creating layer ReLU2
I0729 12:18:00.469751  4723 net.cpp:91] Creating Layer ReLU2
I0729 12:18:00.469761  4723 net.cpp:425] ReLU2 <- InnerProduct3
I0729 12:18:00.469774  4723 net.cpp:386] ReLU2 -> InnerProduct3 (in-place)
I0729 12:18:00.469789  4723 net.cpp:141] Setting up ReLU2
I0729 12:18:00.469799  4723 net.cpp:148] Top shape: 100 100 (10000)
I0729 12:18:00.469807  4723 net.cpp:156] Memory required for data: 194454800
I0729 12:18:00.469815  4723 layer_factory.hpp:77] Creating layer InnerProduct4
I0729 12:18:00.469828  4723 net.cpp:91] Creating Layer InnerProduct4
I0729 12:18:00.469836  4723 net.cpp:425] InnerProduct4 <- InnerProduct3
I0729 12:18:00.469848  4723 net.cpp:399] InnerProduct4 -> InnerProduct4
I0729 12:18:00.470058  4723 net.cpp:141] Setting up InnerProduct4
I0729 12:18:00.470070  4723 net.cpp:148] Top shape: 100 50 (5000)
I0729 12:18:00.470080  4723 net.cpp:156] Memory required for data: 194474800
I0729 12:18:00.470115  4723 net.cpp:484] Sharing parameters 'ip2_w' owned by layer 'InnerProduct2', param index 0
I0729 12:18:00.470125  4723 net.cpp:484] Sharing parameters 'ip2_b' owned by layer 'InnerProduct2', param index 1
I0729 12:18:00.470134  4723 layer_factory.hpp:77] Creating layer Concat1
I0729 12:18:00.470145  4723 net.cpp:91] Creating Layer Concat1
I0729 12:18:00.470152  4723 net.cpp:425] Concat1 <- InnerProduct2
I0729 12:18:00.470163  4723 net.cpp:425] Concat1 <- InnerProduct4
I0729 12:18:00.470175  4723 net.cpp:399] Concat1 -> Concat1
I0729 12:18:00.470211  4723 net.cpp:141] Setting up Concat1
I0729 12:18:00.470224  4723 net.cpp:148] Top shape: 100 100 (10000)
I0729 12:18:00.470232  4723 net.cpp:156] Memory required for data: 194514800
I0729 12:18:00.470239  4723 layer_factory.hpp:77] Creating layer InnerProduct5
I0729 12:18:00.470252  4723 net.cpp:91] Creating Layer InnerProduct5
I0729 12:18:00.470258  4723 net.cpp:425] InnerProduct5 <- Concat1
I0729 12:18:00.470270  4723 net.cpp:399] InnerProduct5 -> InnerProduct5
I0729 12:18:00.470474  4723 net.cpp:141] Setting up InnerProduct5
I0729 12:18:00.470486  4723 net.cpp:148] Top shape: 100 64 (6400)
I0729 12:18:00.470492  4723 net.cpp:156] Memory required for data: 194540400
I0729 12:18:00.470513  4723 layer_factory.hpp:77] Creating layer ReLU3
I0729 12:18:00.470522  4723 net.cpp:91] Creating Layer ReLU3
I0729 12:18:00.470530  4723 net.cpp:425] ReLU3 <- InnerProduct5
I0729 12:18:00.470538  4723 net.cpp:386] ReLU3 -> InnerProduct5 (in-place)
I0729 12:18:00.470551  4723 net.cpp:141] Setting up ReLU3
I0729 12:18:00.470559  4723 net.cpp:148] Top shape: 100 64 (6400)
I0729 12:18:00.470568  4723 net.cpp:156] Memory required for data: 194566000
I0729 12:18:00.470576  4723 layer_factory.hpp:77] Creating layer InnerProduct6
I0729 12:18:00.470587  4723 net.cpp:91] Creating Layer InnerProduct6
I0729 12:18:00.470595  4723 net.cpp:425] InnerProduct6 <- InnerProduct5
I0729 12:18:00.470607  4723 net.cpp:399] InnerProduct6 -> InnerProduct6
I0729 12:18:00.470773  4723 net.cpp:141] Setting up InnerProduct6
I0729 12:18:00.470785  4723 net.cpp:148] Top shape: 100 32 (3200)
I0729 12:18:00.470793  4723 net.cpp:156] Memory required for data: 194578800
I0729 12:18:00.470804  4723 layer_factory.hpp:77] Creating layer ReLU4
I0729 12:18:00.470813  4723 net.cpp:91] Creating Layer ReLU4
I0729 12:18:00.470821  4723 net.cpp:425] ReLU4 <- InnerProduct6
I0729 12:18:00.470831  4723 net.cpp:386] ReLU4 -> InnerProduct6 (in-place)
I0729 12:18:00.470844  4723 net.cpp:141] Setting up ReLU4
I0729 12:18:00.470854  4723 net.cpp:148] Top shape: 100 32 (3200)
I0729 12:18:00.470860  4723 net.cpp:156] Memory required for data: 194591600
I0729 12:18:00.470867  4723 layer_factory.hpp:77] Creating layer dt
I0729 12:18:00.470880  4723 net.cpp:91] Creating Layer dt
I0729 12:18:00.470886  4723 net.cpp:425] dt <- InnerProduct6
I0729 12:18:00.470898  4723 net.cpp:399] dt -> dt
I0729 12:18:00.471045  4723 net.cpp:141] Setting up dt
I0729 12:18:00.471057  4723 net.cpp:148] Top shape: 100 2 (200)
I0729 12:18:00.471063  4723 net.cpp:156] Memory required for data: 194592400
I0729 12:18:00.471073  4723 layer_factory.hpp:77] Creating layer dt_dt_0_split
I0729 12:18:00.471084  4723 net.cpp:91] Creating Layer dt_dt_0_split
I0729 12:18:00.471091  4723 net.cpp:425] dt_dt_0_split <- dt
I0729 12:18:00.471101  4723 net.cpp:399] dt_dt_0_split -> dt_dt_0_split_0
I0729 12:18:00.471112  4723 net.cpp:399] dt_dt_0_split -> dt_dt_0_split_1
I0729 12:18:00.471158  4723 net.cpp:141] Setting up dt_dt_0_split
I0729 12:18:00.471169  4723 net.cpp:148] Top shape: 100 2 (200)
I0729 12:18:00.471179  4723 net.cpp:148] Top shape: 100 2 (200)
I0729 12:18:00.471184  4723 net.cpp:156] Memory required for data: 194594000
I0729 12:18:00.471191  4723 layer_factory.hpp:77] Creating layer accuracy
I0729 12:18:00.471201  4723 net.cpp:91] Creating Layer accuracy
I0729 12:18:00.471209  4723 net.cpp:425] accuracy <- dt_dt_0_split_0
I0729 12:18:00.471216  4723 net.cpp:425] accuracy <- label_data_1_split_0
I0729 12:18:00.471226  4723 net.cpp:399] accuracy -> accuracy
…
