…
device_id: 0
I0727 16:01:20.178220 10842 solver.cpp:81] Creating training net from train_net file: examples/scene/matchNetTrainHingeSimple.prototxt
I0727 16:01:20.191645 10842 net.cpp:49] Initializing net from parameters: 
state {
  phase: TRAIN
}
layer {
  name: "data"
  type: "Data"
  top: "data"
  top: "label"
  include {
    phase: TRAIN
  }
  transform_param {
    scale: 0.0039215689
    mirror: true
    mean_file: "examples/scene/scene_mean.binaryproto"
  }
  data_param {
    source: "examples/scene/train_pairs.lmdb"
    batch_size: 128
    backend: LMDB
  }
}
layer {
  name: "i1"
  type: "Slice"
  bottom: "data"
  top: "i1"
  top: "i2"
  slice_param {
    slice_dim: 1
    slice_point: 3
  }
}
layer {
  name: "p1"
  type: "Pooling"
  bottom: "i1"
  top: "p1"
  pooling_param {
    pool: AVE
    kernel_size: 2
    stride: 2
  }
}
layer {
  name: "p2"
  type: "Pooling"
  bottom: "i2"
  top: "p2"
  pooling_param {
    pool: AVE
    kernel_size: 2
    stride: 2
  }
}
layer {
  name: "Convolution1"
  type: "Convolution"
  bottom: "p1"
  top: "Convolution1"
  param {
    name: "conv1_w"
    lr_mult: 1
  }
  param {
    name: "conv1_b"
    lr_mult: 2
  }
  convolution_param {
    num_output: 20
    kernel_size: 5
    stride: 1
    weight_filler {
      type: "xavier"
    }
    bias_filler {
      type: "constant"
    }
  }
}
layer {
  name: "Pooling1"
  type: "Pooling"
  bottom: "Convolution1"
  top: "Pooling1"
  pooling_param {
    pool: MAX
    kernel_size: 2
    stride: 2
  }
}
layer {
  name: "Convolution2"
  type: "Convolution"
  bottom: "Pooling1"
  top: "Convolution2"
  param {
    name: "conv2_w"
    lr_mult: 1
  }
  param {
    name: "conv2_b"
    lr_mult: 2
  }
  convolution_param {
    num_output: 50
    kernel_size: 5
    stride: 1
    weight_filler {
      type: "xavier"
    }
    bias_filler {
      type: "constant"
    }
  }
}
layer {
  name: "Pooling2"
  type: "Pooling"
  bottom: "Convolution2"
  top: "Pooling2"
  pooling_param {
    pool: MAX
    kernel_size: 2
    stride: 2
  }
}
layer {
  name: "InnerProduct1"
  type: "InnerProduct"
  bottom: "Pooling2"
  top: "InnerProduct1"
  param {
    name: "ip1_w"
    lr_mult: 1
  }
  param {
    name: "ip1_b"
    lr_mult: 2
  }
  inner_product_param {
    num_output: 500
    weight_filler {
      type: "xavier"
    }
    bias_filler {
      type: "constant"
    }
  }
}
layer {
  name: "ReLU1"
  type: "ReLU"
  bottom: "InnerProduct1"
  top: "InnerProduct1"
}
layer {
  name: "InnerProduct2"
  type: "InnerProduct"
  bottom: "InnerProduct1"
  top: "InnerProduct2"
  param {
    name: "ip2_w"
    lr_mult: 1
  }
  param {
    name: "ip2_b"
    lr_mult: 2
  }
  inner_product_param {
    num_output: 500
    weight_filler {
      type: "xavier"
    }
    bias_filler {
      type: "constant"
    }
  }
}
layer {
  name: "Convolution3"
  type: "Convolution"
  bottom: "p2"
  top: "Convolution3"
  param {
    name: "conv1_w"
    lr_mult: 1
  }
  param {
    name: "conv1_b"
    lr_mult: 2
  }
  convolution_param {
    num_output: 20
    kernel_size: 5
    stride: 1
    weight_filler {
      type: "xavier"
    }
    bias_filler {
      type: "constant"
    }
  }
}
layer {
  name: "Pooling3"
  type: "Pooling"
  bottom: "Convolution3"
  top: "Pooling3"
  pooling_param {
    pool: MAX
    kernel_size: 2
    stride: 2
  }
}
layer {
  name: "Convolution4"
  type: "Convolution"
  bottom: "Pooling3"
  top: "Convolution4"
  param {
    name: "conv2_w"
    lr_mult: 1
  }
  param {
    name: "conv2_b"
    lr_mult: 2
  }
  convolution_param {
    num_output: 50
    kernel_size: 5
    stride: 1
    weight_filler {
      type: "xavier"
    }
    bias_filler {
      type: "constant"
    }
  }
}
layer {
  name: "Pooling4"
  type: "Pooling"
  bottom: "Convolution4"
  top: "Pooling4"
  pooling_param {
    pool: MAX
    kernel_size: 2
    stride: 2
  }
}
layer {
  name: "InnerProduct3"
  type: "InnerProduct"
  bottom: "Pooling4"
  top: "InnerProduct3"
  param {
    name: "ip1_w"
    lr_mult: 1
  }
  param {
    name: "ip1_b"
    lr_mult: 2
  }
  inner_product_param {
    num_output: 500
    weight_filler {
      type: "xavier"
    }
    bias_filler {
      type: "constant"
    }
  }
}
layer {
  name: "ReLU2"
  type: "ReLU"
  bottom: "InnerProduct3"
  top: "InnerProduct3"
}
layer {
  name: "InnerProduct4"
  type: "InnerProduct"
  bottom: "InnerProduct3"
  top: "InnerProduct4"
  param {
    name: "ip2_w"
    lr_mult: 1
  }
  param {
    name: "ip2_b"
    lr_mult: 2
  }
  inner_product_param {
    num_output: 500
    weight_filler {
      type: "xavier"
    }
    bias_filler {
      type: "constant"
    }
  }
}
layer {
  name: "Concat1"
  type: "Concat"
  bottom: "InnerProduct2"
  bottom: "InnerProduct4"
  top: "Concat1"
  concat_param {
    axis: 1
  }
}
layer {
  name: "InnerProduct5"
  type: "InnerProduct"
  bottom: "Concat1"
  top: "InnerProduct5"
  param {
    name: "fc1_w"
    lr_mult: 1
  }
  param {
    name: "fc1_b"
    lr_mult: 2
  }
  inner_product_param {
    num_output: 512
    weight_filler {
      type: "xavier"
    }
    bias_filler {
      type: "constant"
    }
  }
}
layer {
  name: "ReLU3"
  type: "ReLU"
  bottom: "InnerProduct5"
  top: "InnerProduct5"
}
layer {
  name: "InnerProduct6"
  type: "InnerProduct"
  bottom: "InnerProduct5"
  top: "InnerProduct6"
  param {
    name: "fc2_w"
    lr_mult: 1
  }
  param {
    name: "fc2_b"
    lr_mult: 2
  }
  inner_product_param {
    num_output: 512
    weight_filler {
      type: "xavier"
    }
    bias_filler {
      type: "constant"
    }
  }
}
layer {
  name: "ReLU4"
  type: "ReLU"
  bottom: "InnerProduct6"
  top: "InnerProduct6"
}
layer {
  name: "dt"
  type: "InnerProduct"
  bottom: "InnerProduct6"
  top: "dt"
  param {
    name: "fc3_w"
    lr_mult: 1
  }
  param {
    name: "fc3_b"
    lr_mult: 2
  }
  inner_product_param {
    num_output: 2
    weight_filler {
      type: "xavier"
    }
    bias_filler {
      type: "constant"
    }
  }
}
layer {
  name: "accuracy"
  type: "Accuracy"
  bottom: "dt"
  bottom: "label"
  top: "accuracy"
  include {
    phase: TRAIN
  }
}
layer {
  name: "loss"
  type: "SoftmaxWithLoss"
  bottom: "dt"
  bottom: "label"
  top: "loss"
}
I0727 16:01:20.196725 10842 layer_factory.hpp:77] Creating layer data
I0727 16:01:20.203611 10842 net.cpp:91] Creating Layer data
I0727 16:01:20.203630 10842 net.cpp:399] data -> data
I0727 16:01:20.203663 10842 net.cpp:399] data -> label
I0727 16:01:20.203680 10842 data_transformer.cpp:25] Loading mean file from: examples/scene/scene_mean.binaryproto
I0727 16:01:20.224798 10848 db_lmdb.cpp:35] Opened lmdb examples/scene/train_pairs.lmdb
I0727 16:01:20.572901 10842 data_layer.cpp:41] output data size: 128,6,128,128
I0727 16:01:20.723165 10842 net.cpp:141] Setting up data
I0727 16:01:20.723450 10842 net.cpp:148] Top shape: 128 6 128 128 (12582912)
I0727 16:01:20.723678 10842 net.cpp:148] Top shape: 128 (128)
I0727 16:01:20.723790 10842 net.cpp:156] Memory required for data: 50332160
I0727 16:01:20.723903 10842 layer_factory.hpp:77] Creating layer label_data_1_split
I0727 16:01:20.724689 10842 net.cpp:91] Creating Layer label_data_1_split
I0727 16:01:20.724814 10842 net.cpp:425] label_data_1_split <- label
I0727 16:01:20.724937 10842 net.cpp:399] label_data_1_split -> label_data_1_split_0
I0727 16:01:20.725059 10842 net.cpp:399] label_data_1_split -> label_data_1_split_1
I0727 16:01:20.731748 10842 net.cpp:141] Setting up label_data_1_split
I0727 16:01:20.731880 10842 net.cpp:148] Top shape: 128 (128)
I0727 16:01:20.731997 10842 net.cpp:148] Top shape: 128 (128)
I0727 16:01:20.732110 10842 net.cpp:156] Memory required for data: 50333184
I0727 16:01:20.732223 10842 layer_factory.hpp:77] Creating layer i1
I0727 16:01:20.735370 10842 net.cpp:91] Creating Layer i1
I0727 16:01:20.735594 10842 net.cpp:425] i1 <- data
I0727 16:01:20.735652 10842 net.cpp:399] i1 -> i1
I0727 16:01:20.735723 10842 net.cpp:399] i1 -> i2
I0727 16:01:20.735888 10842 net.cpp:141] Setting up i1
I0727 16:01:20.735945 10842 net.cpp:148] Top shape: 128 3 128 128 (6291456)
I0727 16:01:20.735990 10842 net.cpp:148] Top shape: 128 3 128 128 (6291456)
I0727 16:01:20.736028 10842 net.cpp:156] Memory required for data: 100664832
I0727 16:01:20.736070 10842 layer_factory.hpp:77] Creating layer p1
I0727 16:01:20.736194 10842 net.cpp:91] Creating Layer p1
I0727 16:01:20.736240 10842 net.cpp:425] p1 <- i1
I0727 16:01:20.736287 10842 net.cpp:399] p1 -> p1
I0727 16:01:20.741592 10842 net.cpp:141] Setting up p1
I0727 16:01:20.741905 10842 net.cpp:148] Top shape: 128 3 64 64 (1572864)
I0727 16:01:20.742090 10842 net.cpp:156] Memory required for data: 106956288
I0727 16:01:20.742271 10842 layer_factory.hpp:77] Creating layer p2
I0727 16:01:20.742470 10842 net.cpp:91] Creating Layer p2
I0727 16:01:20.742651 10842 net.cpp:425] p2 <- i2
I0727 16:01:20.742841 10842 net.cpp:399] p2 -> p2
I0727 16:01:20.743137 10842 net.cpp:141] Setting up p2
I0727 16:01:20.743342 10842 net.cpp:148] Top shape: 128 3 64 64 (1572864)
I0727 16:01:20.743520 10842 net.cpp:156] Memory required for data: 113247744
I0727 16:01:20.743697 10842 layer_factory.hpp:77] Creating layer Convolution1
I0727 16:01:20.743903 10842 net.cpp:91] Creating Layer Convolution1
I0727 16:01:20.744087 10842 net.cpp:425] Convolution1 <- p1
I0727 16:01:20.744285 10842 net.cpp:399] Convolution1 -> Convolution1
I0727 16:01:20.750192 10842 net.cpp:141] Setting up Convolution1
I0727 16:01:20.750375 10842 net.cpp:148] Top shape: 128 20 60 60 (9216000)
I0727 16:01:20.750414 10842 net.cpp:156] Memory required for data: 150111744
I0727 16:01:20.750483 10842 layer_factory.hpp:77] Creating layer Pooling1
I0727 16:01:20.750537 10842 net.cpp:91] Creating Layer Pooling1
I0727 16:01:20.750578 10842 net.cpp:425] Pooling1 <- Convolution1
I0727 16:01:20.750627 10842 net.cpp:399] Pooling1 -> Pooling1
I0727 16:01:20.750754 10842 net.cpp:141] Setting up Pooling1
I0727 16:01:20.750803 10842 net.cpp:148] Top shape: 128 20 30 30 (2304000)
I0727 16:01:20.750840 10842 net.cpp:156] Memory required for data: 159327744
I0727 16:01:20.750877 10842 layer_factory.hpp:77] Creating layer Convolution2
I0727 16:01:20.750932 10842 net.cpp:91] Creating Layer Convolution2
I0727 16:01:20.750972 10842 net.cpp:425] Convolution2 <- Pooling1
I0727 16:01:20.751021 10842 net.cpp:399] Convolution2 -> Convolution2
I0727 16:01:20.754497 10842 net.cpp:141] Setting up Convolution2
I0727 16:01:20.754637 10842 net.cpp:148] Top shape: 128 50 26 26 (4326400)
I0727 16:01:20.754680 10842 net.cpp:156] Memory required for data: 176633344
I0727 16:01:20.754745 10842 layer_factory.hpp:77] Creating layer Pooling2
I0727 16:01:20.754807 10842 net.cpp:91] Creating Layer Pooling2
I0727 16:01:20.754853 10842 net.cpp:425] Pooling2 <- Convolution2
I0727 16:01:20.754901 10842 net.cpp:399] Pooling2 -> Pooling2
I0727 16:01:20.755082 10842 net.cpp:141] Setting up Pooling2
I0727 16:01:20.755136 10842 net.cpp:148] Top shape: 128 50 13 13 (1081600)
I0727 16:01:20.755173 10842 net.cpp:156] Memory required for data: 180959744
I0727 16:01:20.755213 10842 layer_factory.hpp:77] Creating layer InnerProduct1
I0727 16:01:20.755264 10842 net.cpp:91] Creating Layer InnerProduct1
I0727 16:01:20.755306 10842 net.cpp:425] InnerProduct1 <- Pooling2
I0727 16:01:20.755353 10842 net.cpp:399] InnerProduct1 -> InnerProduct1
I0727 16:01:20.834915 10842 net.cpp:141] Setting up InnerProduct1
I0727 16:01:20.835137 10842 net.cpp:148] Top shape: 128 500 (64000)
I0727 16:01:20.835189 10842 net.cpp:156] Memory required for data: 181215744
I0727 16:01:20.835258 10842 layer_factory.hpp:77] Creating layer ReLU1
I0727 16:01:20.835347 10842 net.cpp:91] Creating Layer ReLU1
I0727 16:01:20.835396 10842 net.cpp:425] ReLU1 <- InnerProduct1
I0727 16:01:20.835448 10842 net.cpp:386] ReLU1 -> InnerProduct1 (in-place)
I0727 16:01:20.835520 10842 net.cpp:141] Setting up ReLU1
I0727 16:01:20.835594 10842 net.cpp:148] Top shape: 128 500 (64000)
I0727 16:01:20.835634 10842 net.cpp:156] Memory required for data: 181471744
I0727 16:01:20.835680 10842 layer_factory.hpp:77] Creating layer InnerProduct2
I0727 16:01:20.835732 10842 net.cpp:91] Creating Layer InnerProduct2
I0727 16:01:20.835777 10842 net.cpp:425] InnerProduct2 <- InnerProduct1
I0727 16:01:20.835829 10842 net.cpp:399] InnerProduct2 -> InnerProduct2
I0727 16:01:20.841400 10842 net.cpp:141] Setting up InnerProduct2
I0727 16:01:20.841536 10842 net.cpp:148] Top shape: 128 500 (64000)
I0727 16:01:20.841578 10842 net.cpp:156] Memory required for data: 181727744
I0727 16:01:20.841634 10842 layer_factory.hpp:77] Creating layer Convolution3
I0727 16:01:20.841701 10842 net.cpp:91] Creating Layer Convolution3
I0727 16:01:20.841744 10842 net.cpp:425] Convolution3 <- p2
I0727 16:01:20.841799 10842 net.cpp:399] Convolution3 -> Convolution3
I0727 16:01:20.842394 10842 net.cpp:141] Setting up Convolution3
I0727 16:01:20.842465 10842 net.cpp:148] Top shape: 128 20 60 60 (9216000)
I0727 16:01:20.842505 10842 net.cpp:156] Memory required for data: 218591744
I0727 16:01:20.842555 10842 net.cpp:484] Sharing parameters 'conv1_w' owned by layer 'Convolution1', param index 0
I0727 16:01:20.842598 10842 net.cpp:484] Sharing parameters 'conv1_b' owned by layer 'Convolution1', param index 1
I0727 16:01:20.842636 10842 layer_factory.hpp:77] Creating layer Pooling3
I0727 16:01:20.842685 10842 net.cpp:91] Creating Layer Pooling3
I0727 16:01:20.842726 10842 net.cpp:425] Pooling3 <- Convolution3
I0727 16:01:20.842772 10842 net.cpp:399] Pooling3 -> Pooling3
I0727 16:01:20.842898 10842 net.cpp:141] Setting up Pooling3
I0727 16:01:20.842947 10842 net.cpp:148] Top shape: 128 20 30 30 (2304000)
I0727 16:01:20.842983 10842 net.cpp:156] Memory required for data: 227807744
I0727 16:01:20.843021 10842 layer_factory.hpp:77] Creating layer Convolution4
I0727 16:01:20.843086 10842 net.cpp:91] Creating Layer Convolution4
I0727 16:01:20.843129 10842 net.cpp:425] Convolution4 <- Pooling3
I0727 16:01:20.843178 10842 net.cpp:399] Convolution4 -> Convolution4
I0727 16:01:20.844147 10842 net.cpp:141] Setting up Convolution4
I0727 16:01:20.844208 10842 net.cpp:148] Top shape: 128 50 26 26 (4326400)
I0727 16:01:20.844233 10842 net.cpp:156] Memory required for data: 245113344
I0727 16:01:20.844261 10842 net.cpp:484] Sharing parameters 'conv2_w' owned by layer 'Convolution2', param index 0
I0727 16:01:20.844290 10842 net.cpp:484] Sharing parameters 'conv2_b' owned by layer 'Convolution2', param index 1
I0727 16:01:20.844316 10842 layer_factory.hpp:77] Creating layer Pooling4
I0727 16:01:20.844347 10842 net.cpp:91] Creating Layer Pooling4
I0727 16:01:20.844372 10842 net.cpp:425] Pooling4 <- Convolution4
I0727 16:01:20.844421 10842 net.cpp:399] Pooling4 -> Pooling4
I0727 16:01:20.844540 10842 net.cpp:141] Setting up Pooling4
I0727 16:01:20.844596 10842 net.cpp:148] Top shape: 128 50 13 13 (1081600)
I0727 16:01:20.844640 10842 net.cpp:156] Memory required for data: 249439744
I0727 16:01:20.844684 10842 layer_factory.hpp:77] Creating layer InnerProduct3
I0727 16:01:20.844749 10842 net.cpp:91] Creating Layer InnerProduct3
I0727 16:01:20.844794 10842 net.cpp:425] InnerProduct3 <- Pooling4
I0727 16:01:20.844846 10842 net.cpp:399] InnerProduct3 -> InnerProduct3
I0727 16:01:20.927021 10842 net.cpp:141] Setting up InnerProduct3
I0727 16:01:20.927263 10842 net.cpp:148] Top shape: 128 500 (64000)
I0727 16:01:20.927310 10842 net.cpp:156] Memory required for data: 249695744
I0727 16:01:20.927357 10842 net.cpp:484] Sharing parameters 'ip1_w' owned by layer 'InnerProduct1', param index 0
I0727 16:01:20.927407 10842 net.cpp:484] Sharing parameters 'ip1_b' owned by layer 'InnerProduct1', param index 1
I0727 16:01:20.927450 10842 layer_factory.hpp:77] Creating layer ReLU2
I0727 16:01:20.927506 10842 net.cpp:91] Creating Layer ReLU2
I0727 16:01:20.927553 10842 net.cpp:425] ReLU2 <- InnerProduct3
I0727 16:01:20.927606 10842 net.cpp:386] ReLU2 -> InnerProduct3 (in-place)
I0727 16:01:20.927685 10842 net.cpp:141] Setting up ReLU2
I0727 16:01:20.927762 10842 net.cpp:148] Top shape: 128 500 (64000)
I0727 16:01:20.927803 10842 net.cpp:156] Memory required for data: 249951744
I0727 16:01:20.927848 10842 layer_factory.hpp:77] Creating layer InnerProduct4
I0727 16:01:20.927902 10842 net.cpp:91] Creating Layer InnerProduct4
I0727 16:01:20.927948 10842 net.cpp:425] InnerProduct4 <- InnerProduct3
I0727 16:01:20.928000 10842 net.cpp:399] InnerProduct4 -> InnerProduct4
I0727 16:01:20.937191 10842 net.cpp:141] Setting up InnerProduct4
I0727 16:01:20.937324 10842 net.cpp:148] Top shape: 128 500 (64000)
I0727 16:01:20.937356 10842 net.cpp:156] Memory required for data: 250207744
I0727 16:01:20.937399 10842 net.cpp:484] Sharing parameters 'ip2_w' owned by layer 'InnerProduct2', param index 0
I0727 16:01:20.937443 10842 net.cpp:484] Sharing parameters 'ip2_b' owned by layer 'InnerProduct2', param index 1
I0727 16:01:20.937482 10842 layer_factory.hpp:77] Creating layer Concat1
I0727 16:01:20.938189 10842 net.cpp:91] Creating Layer Concat1
I0727 16:01:20.938262 10842 net.cpp:425] Concat1 <- InnerProduct2
I0727 16:01:20.938308 10842 net.cpp:425] Concat1 <- InnerProduct4
I0727 16:01:20.938355 10842 net.cpp:399] Concat1 -> Concat1
I0727 16:01:20.938483 10842 net.cpp:141] Setting up Concat1
I0727 16:01:20.938532 10842 net.cpp:148] Top shape: 128 1000 (128000)
I0727 16:01:20.938571 10842 net.cpp:156] Memory required for data: 250719744
I0727 16:01:20.938611 10842 layer_factory.hpp:77] Creating layer InnerProduct5
I0727 16:01:20.938663 10842 net.cpp:91] Creating Layer InnerProduct5
I0727 16:01:20.938702 10842 net.cpp:425] InnerProduct5 <- Concat1
I0727 16:01:20.938750 10842 net.cpp:399] InnerProduct5 -> InnerProduct5
I0727 16:01:20.948876 10842 net.cpp:141] Setting up InnerProduct5
I0727 16:01:20.949028 10842 net.cpp:148] Top shape: 128 512 (65536)
I0727 16:01:20.949062 10842 net.cpp:156] Memory required for data: 250981888
I0727 16:01:20.949143 10842 layer_factory.hpp:77] Creating layer ReLU3
I0727 16:01:20.949203 10842 net.cpp:91] Creating Layer ReLU3
I0727 16:01:20.949249 10842 net.cpp:425] ReLU3 <- InnerProduct5
I0727 16:01:20.949300 10842 net.cpp:386] ReLU3 -> InnerProduct5 (in-place)
I0727 16:01:20.949354 10842 net.cpp:141] Setting up ReLU3
I0727 16:01:20.949400 10842 net.cpp:148] Top shape: 128 512 (65536)
I0727 16:01:20.949441 10842 net.cpp:156] Memory required for data: 251244032
I0727 16:01:20.949481 10842 layer_factory.hpp:77] Creating layer InnerProduct6
I0727 16:01:20.949534 10842 net.cpp:91] Creating Layer InnerProduct6
I0727 16:01:20.949579 10842 net.cpp:425] InnerProduct6 <- InnerProduct5
I0727 16:01:20.949630 10842 net.cpp:399] InnerProduct6 -> InnerProduct6
I0727 16:01:20.959573 10842 net.cpp:141] Setting up InnerProduct6
I0727 16:01:20.959630 10842 net.cpp:148] Top shape: 128 512 (65536)
I0727 16:01:20.959642 10842 net.cpp:156] Memory required for data: 251506176
I0727 16:01:20.959667 10842 layer_factory.hpp:77] Creating layer ReLU4
I0727 16:01:20.959683 10842 net.cpp:91] Creating Layer ReLU4
I0727 16:01:20.959692 10842 net.cpp:425] ReLU4 <- InnerProduct6
I0727 16:01:20.959707 10842 net.cpp:386] ReLU4 -> InnerProduct6 (in-place)
I0727 16:01:20.959728 10842 net.cpp:141] Setting up ReLU4
I0727 16:01:20.959746 10842 net.cpp:148] Top shape: 128 512 (65536)
I0727 16:01:20.959756 10842 net.cpp:156] Memory required for data: 251768320
I0727 16:01:20.959766 10842 layer_factory.hpp:77] Creating layer dt
I0727 16:01:20.959786 10842 net.cpp:91] Creating Layer dt
I0727 16:01:20.959802 10842 net.cpp:425] dt <- InnerProduct6
I0727 16:01:20.959820 10842 net.cpp:399] dt -> dt
I0727 16:01:20.960034 10842 net.cpp:141] Setting up dt
I0727 16:01:20.960057 10842 net.cpp:148] Top shape: 128 2 (256)
I0727 16:01:20.960067 10842 net.cpp:156] Memory required for data: 251769344
I0727 16:01:20.960081 10842 layer_factory.hpp:77] Creating layer dt_dt_0_split
I0727 16:01:20.960098 10842 net.cpp:91] Creating Layer dt_dt_0_split
I0727 16:01:20.960111 10842 net.cpp:425] dt_dt_0_split <- dt
I0727 16:01:20.960127 10842 net.cpp:399] dt_dt_0_split -> dt_dt_0_split_0
I0727 16:01:20.960198 10842 net.cpp:399] dt_dt_0_split -> dt_dt_0_split_1
I0727 16:01:20.960270 10842 net.cpp:141] Setting up dt_dt_0_split
I0727 16:01:20.960288 10842 net.cpp:148] Top shape: 128 2 (256)
I0727 16:01:20.960300 10842 net.cpp:148] Top shape: 128 2 (256)
I0727 16:01:20.960310 10842 net.cpp:156] Memory required for data: 251771392
I0727 16:01:20.960320 10842 layer_factory.hpp:77] Creating layer accuracy
I0727 16:01:20.960352 10842 net.cpp:91] Creating Layer accuracy
I0727 16:01:20.960364 10842 net.cpp:425] accuracy <- dt_dt_0_split_0
I0727 16:01:20.960377 10842 net.cpp:425] accuracy <- label_data_1_split_0
I0727 16:01:20.960396 10842 net.cpp:399] accuracy -> accuracy
…
