…
solver_mode: CPU
I0727 23:36:51.063184  5678 solver.cpp:81] Creating training net from train_net file: examples/scene/matchNetTrainHingeMini.prototxt
I0727 23:36:51.065326  5678 net.cpp:49] Initializing net from parameters: 
state {
  phase: TRAIN
}
layer {
  name: "data"
  type: "Data"
  top: "data"
  top: "label"
  include {
    phase: TRAIN
  }
  transform_param {
    scale: 0.0039215689
    mirror: true
    mean_file: "examples/scene/scene_mean.binaryproto"
  }
  data_param {
    source: "examples/scene/train_pairs.lmdb"
    batch_size: 32
    backend: LMDB
  }
}
layer {
  name: "i1"
  type: "Slice"
  bottom: "data"
  top: "i1"
  top: "i2"
  slice_param {
    slice_dim: 1
    slice_point: 3
  }
}
layer {
  name: "p1"
  type: "Pooling"
  bottom: "i1"
  top: "p1"
  pooling_param {
    pool: AVE
    kernel_size: 2
    stride: 2
  }
}
layer {
  name: "p2"
  type: "Pooling"
  bottom: "i2"
  top: "p2"
  pooling_param {
    pool: AVE
    kernel_size: 2
    stride: 2
  }
}
layer {
  name: "Input1"
  type: "Input"
  top: "Input1"
  include {
    phase: TRAIN
  }
  input_param {
    shape {
      dim: 32
      dim: 3
      dim: 64
      dim: 64
    }
  }
}
layer {
  name: "c11"
  type: "Crop"
  bottom: "i1"
  bottom: "Input1"
  top: "c11"
  crop_param {
    axis: 2
    offset: 32
    offset: 32
  }
}
layer {
  name: "Input2"
  type: "Input"
  top: "Input2"
  include {
    phase: TRAIN
  }
  input_param {
    shape {
      dim: 32
      dim: 3
      dim: 64
      dim: 64
    }
  }
}
layer {
  name: "c21"
  type: "Crop"
  bottom: "i2"
  bottom: "Input2"
  top: "c21"
  crop_param {
    axis: 2
    offset: 32
    offset: 32
  }
}
layer {
  name: "Convolution1"
  type: "Convolution"
  bottom: "p1"
  top: "Convolution1"
  param {
    name: "conv1_w"
    lr_mult: 1
  }
  param {
    name: "conv1_b"
    lr_mult: 2
  }
  convolution_param {
    num_output: 20
    kernel_size: 5
    stride: 1
    weight_filler {
      type: "xavier"
    }
    bias_filler {
      type: "constant"
    }
  }
}
layer {
  name: "Pooling1"
  type: "Pooling"
  bottom: "Convolution1"
  top: "Pooling1"
  pooling_param {
    pool: MAX
    kernel_size: 2
    stride: 2
  }
}
layer {
  name: "Convolution2"
  type: "Convolution"
  bottom: "Pooling1"
  top: "Convolution2"
  param {
    name: "conv2_w"
    lr_mult: 1
  }
  param {
    name: "conv2_b"
    lr_mult: 2
  }
  convolution_param {
    num_output: 50
    kernel_size: 5
    stride: 1
    weight_filler {
      type: "xavier"
    }
    bias_filler {
      type: "constant"
    }
  }
}
layer {
  name: "Pooling2"
  type: "Pooling"
  bottom: "Convolution2"
  top: "Pooling2"
  pooling_param {
    pool: MAX
    kernel_size: 2
    stride: 2
  }
}
layer {
  name: "InnerProduct1"
  type: "InnerProduct"
  bottom: "Pooling2"
  top: "InnerProduct1"
  param {
    name: "ip1_w"
    lr_mult: 1
  }
  param {
    name: "ip1_b"
    lr_mult: 2
  }
  inner_product_param {
    num_output: 100
    weight_filler {
      type: "xavier"
    }
    bias_filler {
      type: "constant"
    }
  }
}
layer {
  name: "ReLU1"
  type: "ReLU"
  bottom: "InnerProduct1"
  top: "InnerProduct1"
}
layer {
  name: "InnerProduct2"
  type: "InnerProduct"
  bottom: "InnerProduct1"
  top: "InnerProduct2"
  param {
    name: "ip2_w"
    lr_mult: 1
  }
  param {
    name: "ip2_b"
    lr_mult: 2
  }
  inner_product_param {
    num_output: 50
    weight_filler {
      type: "xavier"
    }
    bias_filler {
      type: "constant"
    }
  }
}
layer {
  name: "Convolution3"
  type: "Convolution"
  bottom: "p2"
  top: "Convolution3"
  param {
    name: "conv1_w"
    lr_mult: 1
  }
  param {
    name: "conv1_b"
    lr_mult: 2
  }
  convolution_param {
    num_output: 20
    kernel_size: 5
    stride: 1
    weight_filler {
      type: "xavier"
    }
    bias_filler {
      type: "constant"
    }
  }
}
layer {
  name: "Pooling3"
  type: "Pooling"
  bottom: "Convolution3"
  top: "Pooling3"
  pooling_param {
    pool: MAX
    kernel_size: 2
    stride: 2
  }
}
layer {
  name: "Convolution4"
  type: "Convolution"
  bottom: "Pooling3"
  top: "Convolution4"
  param {
    name: "conv2_w"
    lr_mult: 1
  }
  param {
    name: "conv2_b"
    lr_mult: 2
  }
  convolution_param {
    num_output: 50
    kernel_size: 5
    stride: 1
    weight_filler {
      type: "xavier"
    }
    bias_filler {
      type: "constant"
    }
  }
}
layer {
  name: "Pooling4"
  type: "Pooling"
  bottom: "Convolution4"
  top: "Pooling4"
  pooling_param {
    pool: MAX
    kernel_size: 2
    stride: 2
  }
}
layer {
  name: "InnerProduct3"
  type: "InnerProduct"
  bottom: "Pooling4"
  top: "InnerProduct3"
  param {
    name: "ip1_w"
    lr_mult: 1
  }
  param {
    name: "ip1_b"
    lr_mult: 2
  }
  inner_product_param {
    num_output: 100
    weight_filler {
      type: "xavier"
    }
    bias_filler {
      type: "constant"
    }
  }
}
layer {
  name: "ReLU2"
  type: "ReLU"
  bottom: "InnerProduct3"
  top: "InnerProduct3"
}
layer {
  name: "InnerProduct4"
  type: "InnerProduct"
  bottom: "InnerProduct3"
  top: "InnerProduct4"
  param {
    name: "ip2_w"
    lr_mult: 1
  }
  param {
    name: "ip2_b"
    lr_mult: 2
  }
  inner_product_param {
    num_output: 50
    weight_filler {
      type: "xavier"
    }
    bias_filler {
      type: "constant"
    }
  }
}
layer {
  name: "Concat1"
  type: "Concat"
  bottom: "InnerProduct2"
  bottom: "InnerProduct4"
  top: "Concat1"
  concat_param {
    axis: 1
  }
}
layer {
  name: "InnerProduct5"
  type: "InnerProduct"
  bottom: "Concat1"
  top: "InnerProduct5"
  param {
    name: "fc1_w"
    lr_mult: 1
  }
  param {
    name: "fc1_b"
    lr_mult: 2
  }
  inner_product_param {
    num_output: 64
    weight_filler {
      type: "xavier"
    }
    bias_filler {
      type: "constant"
    }
  }
}
layer {
  name: "ReLU3"
  type: "ReLU"
  bottom: "InnerProduct5"
  top: "InnerProduct5"
}
layer {
  name: "InnerProduct6"
  type: "InnerProduct"
  bottom: "InnerProduct5"
  top: "InnerProduct6"
  param {
    name: "fc2_w"
    lr_mult: 1
  }
  param {
    name: "fc2_b"
    lr_mult: 2
  }
  inner_product_param {
    num_output: 32
    weight_filler {
      type: "xavier"
    }
    bias_filler {
      type: "constant"
    }
  }
}
layer {
  name: "ReLU4"
  type: "ReLU"
  bottom: "InnerProduct6"
  top: "InnerProduct6"
}
layer {
  name: "dt"
  type: "InnerProduct"
  bottom: "InnerProduct6"
  top: "dt"
  param {
    name: "fc3_w"
    lr_mult: 1
  }
  param {
    name: "fc3_b"
    lr_mult: 2
  }
  inner_product_param {
    num_output: 2
    weight_filler {
      type: "xavier"
    }
    bias_filler {
      type: "constant"
    }
  }
}
layer {
  name: "Convolution5"
  type: "Convolution"
  bottom: "p1"
  top: "Convolution5"
  param {
    name: "conv1_w"
    lr_mult: 1
  }
  param {
    name: "conv1_b"
    lr_mult: 2
  }
  convolution_param {
    num_output: 20
    kernel_size: 5
    stride: 1
    weight_filler {
      type: "xavier"
    }
    bias_filler {
      type: "constant"
    }
  }
}
layer {
  name: "Pooling5"
  type: "Pooling"
  bottom: "Convolution5"
  top: "Pooling5"
  pooling_param {
    pool: MAX
    kernel_size: 2
    stride: 2
  }
}
layer {
  name: "Convolution6"
  type: "Convolution"
  bottom: "Pooling5"
  top: "Convolution6"
  param {
    name: "conv2_w"
    lr_mult: 1
  }
  param {
    name: "conv2_b"
    lr_mult: 2
  }
  convolution_param {
    num_output: 50
    kernel_size: 5
    stride: 1
    weight_filler {
      type: "xavier"
    }
    bias_filler {
      type: "constant"
    }
  }
}
layer {
  name: "Pooling6"
  type: "Pooling"
  bottom: "Convolution6"
  top: "Pooling6"
  pooling_param {
    pool: MAX
    kernel_size: 2
    stride: 2
  }
}
layer {
  name: "InnerProduct7"
  type: "InnerProduct"
  bottom: "Pooling6"
  top: "InnerProduct7"
  param {
    name: "ip1_w"
    lr_mult: 1
  }
  param {
    name: "ip1_b"
    lr_mult: 2
  }
  inner_product_param {
    num_output: 100
    weight_filler {
      type: "xavier"
    }
    bias_filler {
      type: "constant"
    }
  }
}
layer {
  name: "ReLU5"
  type: "ReLU"
  bottom: "InnerProduct7"
  top: "InnerProduct7"
}
layer {
  name: "InnerProduct8"
  type: "InnerProduct"
  bottom: "InnerProduct7"
  top: "InnerProduct8"
  param {
    name: "ip2_w"
    lr_mult: 1
  }
  param {
    name: "ip2_b"
    lr_mult: 2
  }
  inner_product_param {
    num_output: 50
    weight_filler {
      type: "xavier"
    }
    bias_filler {
      type: "constant"
    }
  }
}
layer {
  name: "Convolution7"
  type: "Convolution"
  bottom: "c21"
  top: "Convolution7"
  param {
    name: "conv1_w"
    lr_mult: 1
  }
  param {
    name: "conv1_b"
    lr_mult: 2
  }
  convolution_param {
    num_output: 20
    kernel_size: 5
    stride: 1
    weight_filler {
      type: "xavier"
    }
    bias_filler {
      type: "constant"
    }
  }
}
layer {
  name: "Pooling7"
  type: "Pooling"
  bottom: "Convolution7"
  top: "Pooling7"
  pooling_param {
    pool: MAX
    kernel_size: 2
    stride: 2
  }
}
layer {
  name: "Convolution8"
  type: "Convolution"
  bottom: "Pooling7"
  top: "Convolution8"
  param {
    name: "conv2_w"
    lr_mult: 1
  }
  param {
    name: "conv2_b"
    lr_mult: 2
  }
  convolution_param {
    num_output: 50
    kernel_size: 5
    stride: 1
    weight_filler {
      type: "xavier"
    }
    bias_filler {
      type: "constant"
    }
  }
}
layer {
  name: "Pooling8"
  type: "Pooling"
  bottom: "Convolution8"
  top: "Pooling8"
  pooling_param {
    pool: MAX
    kernel_size: 2
    stride: 2
  }
}
layer {
  name: "InnerProduct9"
  type: "InnerProduct"
  bottom: "Pooling8"
  top: "InnerProduct9"
  param {
    name: "ip1_w"
    lr_mult: 1
  }
  param {
    name: "ip1_b"
    lr_mult: 2
  }
  inner_product_param {
    num_output: 100
    weight_filler {
      type: "xavier"
    }
    bias_filler {
      type: "constant"
    }
  }
}
layer {
  name: "ReLU6"
  type: "ReLU"
  bottom: "InnerProduct9"
  top: "InnerProduct9"
}
layer {
  name: "InnerProduct10"
  type: "InnerProduct"
  bottom: "InnerProduct9"
  top: "InnerProduct10"
  param {
    name: "ip2_w"
    lr_mult: 1
  }
  param {
    name: "ip2_b"
    lr_mult: 2
  }
  inner_product_param {
    num_output: 50
    weight_filler {
      type: "xavier"
    }
    bias_filler {
      type: "constant"
    }
  }
}
layer {
  name: "Concat2"
  type: "Concat"
  bottom: "InnerProduct8"
  bottom: "InnerProduct10"
  top: "Concat2"
  concat_param {
    axis: 1
  }
}
layer {
  name: "InnerProduct11"
  type: "InnerProduct"
  bottom: "Concat2"
  top: "InnerProduct11"
  param {
    name: "fc1_w"
    lr_mult: 1
  }
  param {
    name: "fc1_b"
    lr_mult: 2
  }
  inner_product_param {
    num_output: 64
    weight_filler {
      type: "xavier"
    }
    bias_filler {
      type: "constant"
    }
  }
}
layer {
  name: "ReLU7"
  type: "ReLU"
  bottom: "InnerProduct11"
  top: "InnerProduct11"
}
layer {
  name: "InnerProduct12"
  type: "InnerProduct"
  bottom: "InnerProduct11"
  top: "InnerProduct12"
  param {
    name: "fc2_w"
    lr_mult: 1
  }
  param {
    name: "fc2_b"
    lr_mult: 2
  }
  inner_product_param {
    num_output: 32
    weight_filler {
      type: "xavier"
    }
    bias_filler {
      type: "constant"
    }
  }
}
layer {
  name: "ReLU8"
  type: "ReLU"
  bottom: "InnerProduct12"
  top: "InnerProduct12"
}
layer {
  name: "dt1"
  type: "InnerProduct"
  bottom: "InnerProduct12"
  top: "dt1"
  param {
    name: "fc3_w"
    lr_mult: 1
  }
  param {
    name: "fc3_b"
    lr_mult: 2
  }
  inner_product_param {
    num_output: 2
    weight_filler {
      type: "xavier"
    }
    bias_filler {
      type: "constant"
    }
  }
}
layer {
  name: "Convolution9"
  type: "Convolution"
  bottom: "p2"
  top: "Convolution9"
  param {
    name: "conv1_w"
    lr_mult: 1
  }
  param {
    name: "conv1_b"
    lr_mult: 2
  }
  convolution_param {
    num_output: 20
    kernel_size: 5
    stride: 1
    weight_filler {
      type: "xavier"
    }
    bias_filler {
      type: "constant"
    }
  }
}
layer {
  name: "Pooling9"
  type: "Pooling"
  bottom: "Convolution9"
  top: "Pooling9"
  pooling_param {
    pool: MAX
    kernel_size: 2
    stride: 2
  }
}
layer {
  name: "Convolution10"
  type: "Convolution"
  bottom: "Pooling9"
  top: "Convolution10"
  param {
    name: "conv2_w"
    lr_mult: 1
  }
  param {
    name: "conv2_b"
    lr_mult: 2
  }
  convolution_param {
    num_output: 50
    kernel_size: 5
    stride: 1
    weight_filler {
      type: "xavier"
    }
    bias_filler {
      type: "constant"
    }
  }
}
layer {
  name: "Pooling10"
  type: "Pooling"
  bottom: "Convolution10"
  top: "Pooling10"
  pooling_param {
    pool: MAX
    kernel_size: 2
    stride: 2
  }
}
layer {
  name: "InnerProduct13"
  type: "InnerProduct"
  bottom: "Pooling10"
  top: "InnerProduct13"
  param {
    name: "ip1_w"
    lr_mult: 1
  }
  param {
    name: "ip1_b"
    lr_mult: 2
  }
  inner_product_param {
    num_output: 100
    weight_filler {
      type: "xavier"
    }
    bias_filler {
      type: "constant"
    }
  }
}
layer {
  name: "ReLU9"
  type: "ReLU"
  bottom: "InnerProduct13"
  top: "InnerProduct13"
}
layer {
  name: "InnerProduct14"
  type: "InnerProduct"
  bottom: "InnerProduct13"
  top: "InnerProduct14"
  param {
    name: "ip2_w"
    lr_mult: 1
  }
  param {
    name: "ip2_b"
    lr_mult: 2
  }
  inner_product_param {
    num_output: 50
    weight_filler {
      type: "xavier"
    }
    bias_filler {
      type: "constant"
    }
  }
}
layer {
  name: "Convolution11"
  type: "Convolution"
  bottom: "c11"
  top: "Convolution11"
  param {
    name: "conv1_w"
    lr_mult: 1
  }
  param {
    name: "conv1_b"
    lr_mult: 2
  }
  convolution_param {
    num_output: 20
    kernel_size: 5
    stride: 1
    weight_filler {
      type: "xavier"
    }
    bias_filler {
      type: "constant"
    }
  }
}
layer {
  name: "Pooling11"
  type: "Pooling"
  bottom: "Convolution11"
  top: "Pooling11"
  pooling_param {
    pool: MAX
    kernel_size: 2
    stride: 2
  }
}
layer {
  name: "Convolution12"
  type: "Convolution"
  bottom: "Pooling11"
  top: "Convolution12"
  param {
    name: "conv2_w"
    lr_mult: 1
  }
  param {
    name: "conv2_b"
    lr_mult: 2
  }
  convolution_param {
    num_output: 50
    kernel_size: 5
    stride: 1
    weight_filler {
      type: "xavier"
    }
    bias_filler {
      type: "constant"
    }
  }
}
layer {
  name: "Pooling12"
  type: "Pooling"
  bottom: "Convolution12"
  top: "Pooling12"
  pooling_param {
    pool: MAX
    kernel_size: 2
    stride: 2
  }
}
layer {
  name: "InnerProduct15"
  type: "InnerProduct"
  bottom: "Pooling12"
  top: "InnerProduct15"
  param {
    name: "ip1_w"
    lr_mult: 1
  }
  param {
    name: "ip1_b"
    lr_mult: 2
  }
  inner_product_param {
    num_output: 100
    weight_filler {
      type: "xavier"
    }
    bias_filler {
      type: "constant"
    }
  }
}
layer {
  name: "ReLU10"
  type: "ReLU"
  bottom: "InnerProduct15"
  top: "InnerProduct15"
}
layer {
  name: "InnerProduct16"
  type: "InnerProduct"
  bottom: "InnerProduct15"
  top: "InnerProduct16"
  param {
    name: "ip2_w"
    lr_mult: 1
  }
  param {
    name: "ip2_b"
    lr_mult: 2
  }
  inner_product_param {
    num_output: 50
    weight_filler {
      type: "xavier"
    }
    bias_filler {
      type: "constant"
    }
  }
}
layer {
  name: "Concat3"
  type: "Concat"
  bottom: "InnerProduct14"
  bottom: "InnerProduct16"
  top: "Concat3"
  concat_param {
    axis: 1
  }
}
layer {
  name: "InnerProduct17"
  type: "InnerProduct"
  bottom: "Concat3"
  top: "InnerProduct17"
  param {
    name: "fc1_w"
    lr_mult: 1
  }
  param {
    name: "fc1_b"
    lr_mult: 2
  }
  inner_product_param {
    num_output: 64
    weight_filler {
      type: "xavier"
    }
    bias_filler {
      type: "constant"
    }
  }
}
layer {
  name: "ReLU11"
  type: "ReLU"
  bottom: "InnerProduct17"
  top: "InnerProduct17"
}
layer {
  name: "InnerProduct18"
  type: "InnerProduct"
  bottom: "InnerProduct17"
  top: "InnerProduct18"
  param {
    name: "fc2_w"
    lr_mult: 1
  }
  param {
    name: "fc2_b"
    lr_mult: 2
  }
  inner_product_param {
    num_output: 32
    weight_filler {
      type: "xavier"
    }
    bias_filler {
      type: "constant"
    }
  }
}
layer {
  name: "ReLU12"
  type: "ReLU"
  bottom: "InnerProduct18"
  top: "InnerProduct18"
}
layer {
  name: "dt2"
  type: "InnerProduct"
  bottom: "InnerProduct18"
  top: "dt2"
  param {
    name: "fc3_w"
    lr_mult: 1
  }
  param {
    name: "fc3_b"
    lr_mult: 2
  }
  inner_product_param {
    num_output: 2
    weight_filler {
      type: "xavier"
    }
    bias_filler {
      type: "constant"
    }
  }
}
layer {
  name: "con"
  type: "Concat"
  bottom: "dt"
  bottom: "dt1"
  bottom: "dt2"
  top: "con"
  concat_param {
    axis: -1
  }
}
layer {
  name: "r1"
  type: "Reshape"
  bottom: "con"
  top: "r1"
  reshape_param {
    shape {
      dim: 0
      dim: 1
      dim: 2
      dim: -1
    }
  }
}
layer {
  name: "p"
  type: "Pooling"
  bottom: "r1"
  top: "p"
  pooling_param {
    pool: MAX
    stride: 1
    kernel_h: 1
    kernel_w: 3
  }
}
layer {
  name: "r2"
  type: "Reshape"
  bottom: "p"
  top: "r2"
  reshape_param {
    shape {
      dim: 0
      dim: 2
      dim: 1
      dim: -1
    }
  }
}
layer {
  name: "accuracy"
  type: "Accuracy"
  bottom: "r2"
  bottom: "label"
  top: "accuracy"
  include {
    phase: TRAIN
  }
}
layer {
  name: "loss"
  type: "HingeLoss"
  bottom: "r2"
  bottom: "label"
  top: "loss"
}
I0727 23:36:51.065716  5678 layer_factory.hpp:77] Creating layer data
I0727 23:36:51.066253  5678 net.cpp:91] Creating Layer data
I0727 23:36:51.066269  5678 net.cpp:399] data -> data
I0727 23:36:51.066295  5678 net.cpp:399] data -> label
I0727 23:36:51.066390  5678 data_transformer.cpp:25] Loading mean file from: examples/scene/scene_mean.binaryproto
I0727 23:36:51.067446  5682 db_lmdb.cpp:35] Opened lmdb examples/scene/train_pairs.lmdb
I0727 23:36:51.067560  5678 data_layer.cpp:41] output data size: 32,6,128,128
I0727 23:36:51.077108  5678 net.cpp:141] Setting up data
I0727 23:36:51.077167  5678 net.cpp:148] Top shape: 32 6 128 128 (3145728)
I0727 23:36:51.077173  5678 net.cpp:148] Top shape: 32 (32)
I0727 23:36:51.077177  5678 net.cpp:156] Memory required for data: 12583040
I0727 23:36:51.077188  5678 layer_factory.hpp:77] Creating layer label_data_1_split
I0727 23:36:51.077199  5678 net.cpp:91] Creating Layer label_data_1_split
I0727 23:36:51.077204  5678 net.cpp:425] label_data_1_split <- label
I0727 23:36:51.077215  5678 net.cpp:399] label_data_1_split -> label_data_1_split_0
I0727 23:36:51.077224  5678 net.cpp:399] label_data_1_split -> label_data_1_split_1
I0727 23:36:51.077241  5678 net.cpp:141] Setting up label_data_1_split
I0727 23:36:51.077245  5678 net.cpp:148] Top shape: 32 (32)
I0727 23:36:51.077250  5678 net.cpp:148] Top shape: 32 (32)
I0727 23:36:51.077251  5678 net.cpp:156] Memory required for data: 12583296
I0727 23:36:51.077255  5678 layer_factory.hpp:77] Creating layer i1
I0727 23:36:51.077265  5678 net.cpp:91] Creating Layer i1
I0727 23:36:51.077268  5678 net.cpp:425] i1 <- data
I0727 23:36:51.077272  5678 net.cpp:399] i1 -> i1
I0727 23:36:51.077280  5678 net.cpp:399] i1 -> i2
I0727 23:36:51.077286  5678 net.cpp:141] Setting up i1
I0727 23:36:51.077291  5678 net.cpp:148] Top shape: 32 3 128 128 (1572864)
I0727 23:36:51.077294  5678 net.cpp:148] Top shape: 32 3 128 128 (1572864)
I0727 23:36:51.077297  5678 net.cpp:156] Memory required for data: 25166208
I0727 23:36:51.077299  5678 layer_factory.hpp:77] Creating layer i1_i1_0_split
I0727 23:36:51.077304  5678 net.cpp:91] Creating Layer i1_i1_0_split
I0727 23:36:51.077306  5678 net.cpp:425] i1_i1_0_split <- i1
I0727 23:36:51.077311  5678 net.cpp:399] i1_i1_0_split -> i1_i1_0_split_0
I0727 23:36:51.077316  5678 net.cpp:399] i1_i1_0_split -> i1_i1_0_split_1
I0727 23:36:51.077321  5678 net.cpp:141] Setting up i1_i1_0_split
I0727 23:36:51.077323  5678 net.cpp:148] Top shape: 32 3 128 128 (1572864)
I0727 23:36:51.077327  5678 net.cpp:148] Top shape: 32 3 128 128 (1572864)
I0727 23:36:51.077329  5678 net.cpp:156] Memory required for data: 37749120
I0727 23:36:51.077332  5678 layer_factory.hpp:77] Creating layer i2_i1_1_split
I0727 23:36:51.077361  5678 net.cpp:91] Creating Layer i2_i1_1_split
I0727 23:36:51.077364  5678 net.cpp:425] i2_i1_1_split <- i2
I0727 23:36:51.077368  5678 net.cpp:399] i2_i1_1_split -> i2_i1_1_split_0
I0727 23:36:51.077373  5678 net.cpp:399] i2_i1_1_split -> i2_i1_1_split_1
I0727 23:36:51.077379  5678 net.cpp:141] Setting up i2_i1_1_split
I0727 23:36:51.077383  5678 net.cpp:148] Top shape: 32 3 128 128 (1572864)
I0727 23:36:51.077386  5678 net.cpp:148] Top shape: 32 3 128 128 (1572864)
I0727 23:36:51.077389  5678 net.cpp:156] Memory required for data: 50332032
I0727 23:36:51.077391  5678 layer_factory.hpp:77] Creating layer p1
I0727 23:36:51.077399  5678 net.cpp:91] Creating Layer p1
I0727 23:36:51.077401  5678 net.cpp:425] p1 <- i1_i1_0_split_0
I0727 23:36:51.077405  5678 net.cpp:399] p1 -> p1
I0727 23:36:51.077425  5678 net.cpp:141] Setting up p1
I0727 23:36:51.077430  5678 net.cpp:148] Top shape: 32 3 64 64 (393216)
I0727 23:36:51.077431  5678 net.cpp:156] Memory required for data: 51904896
I0727 23:36:51.077435  5678 layer_factory.hpp:77] Creating layer p1_p1_0_split
I0727 23:36:51.077438  5678 net.cpp:91] Creating Layer p1_p1_0_split
I0727 23:36:51.077441  5678 net.cpp:425] p1_p1_0_split <- p1
I0727 23:36:51.077445  5678 net.cpp:399] p1_p1_0_split -> p1_p1_0_split_0
I0727 23:36:51.077450  5678 net.cpp:399] p1_p1_0_split -> p1_p1_0_split_1
I0727 23:36:51.077455  5678 net.cpp:141] Setting up p1_p1_0_split
I0727 23:36:51.077457  5678 net.cpp:148] Top shape: 32 3 64 64 (393216)
I0727 23:36:51.077461  5678 net.cpp:148] Top shape: 32 3 64 64 (393216)
I0727 23:36:51.077463  5678 net.cpp:156] Memory required for data: 55050624
I0727 23:36:51.077466  5678 layer_factory.hpp:77] Creating layer p2
I0727 23:36:51.077471  5678 net.cpp:91] Creating Layer p2
I0727 23:36:51.077473  5678 net.cpp:425] p2 <- i2_i1_1_split_0
I0727 23:36:51.077477  5678 net.cpp:399] p2 -> p2
I0727 23:36:51.077482  5678 net.cpp:141] Setting up p2
I0727 23:36:51.077486  5678 net.cpp:148] Top shape: 32 3 64 64 (393216)
I0727 23:36:51.077488  5678 net.cpp:156] Memory required for data: 56623488
I0727 23:36:51.077491  5678 layer_factory.hpp:77] Creating layer p2_p2_0_split
I0727 23:36:51.077496  5678 net.cpp:91] Creating Layer p2_p2_0_split
I0727 23:36:51.077498  5678 net.cpp:425] p2_p2_0_split <- p2
I0727 23:36:51.077502  5678 net.cpp:399] p2_p2_0_split -> p2_p2_0_split_0
I0727 23:36:51.077507  5678 net.cpp:399] p2_p2_0_split -> p2_p2_0_split_1
I0727 23:36:51.077512  5678 net.cpp:141] Setting up p2_p2_0_split
I0727 23:36:51.077514  5678 net.cpp:148] Top shape: 32 3 64 64 (393216)
I0727 23:36:51.077517  5678 net.cpp:148] Top shape: 32 3 64 64 (393216)
I0727 23:36:51.077520  5678 net.cpp:156] Memory required for data: 59769216
I0727 23:36:51.077522  5678 layer_factory.hpp:77] Creating layer Input1
I0727 23:36:51.077533  5678 net.cpp:91] Creating Layer Input1
I0727 23:36:51.077538  5678 net.cpp:399] Input1 -> Input1
I0727 23:36:51.077548  5678 net.cpp:141] Setting up Input1
I0727 23:36:51.077551  5678 net.cpp:148] Top shape: 32 3 64 64 (393216)
I0727 23:36:51.077554  5678 net.cpp:156] Memory required for data: 61342080
I0727 23:36:51.077558  5678 layer_factory.hpp:77] Creating layer c11
I0727 23:36:51.077563  5678 net.cpp:91] Creating Layer c11
I0727 23:36:51.077565  5678 net.cpp:425] c11 <- i1_i1_0_split_1
I0727 23:36:51.077569  5678 net.cpp:425] c11 <- Input1
I0727 23:36:51.077572  5678 net.cpp:399] c11 -> c11
I0727 23:36:51.077580  5678 net.cpp:141] Setting up c11
I0727 23:36:51.077584  5678 net.cpp:148] Top shape: 32 3 64 64 (393216)
I0727 23:36:51.077587  5678 net.cpp:156] Memory required for data: 62914944
I0727 23:36:51.077589  5678 layer_factory.hpp:77] Creating layer Input2
I0727 23:36:51.077594  5678 net.cpp:91] Creating Layer Input2
I0727 23:36:51.077599  5678 net.cpp:399] Input2 -> Input2
I0727 23:36:51.077603  5678 net.cpp:141] Setting up Input2
I0727 23:36:51.077607  5678 net.cpp:148] Top shape: 32 3 64 64 (393216)
I0727 23:36:51.077610  5678 net.cpp:156] Memory required for data: 64487808
I0727 23:36:51.077620  5678 layer_factory.hpp:77] Creating layer c21
I0727 23:36:51.077625  5678 net.cpp:91] Creating Layer c21
I0727 23:36:51.077626  5678 net.cpp:425] c21 <- i2_i1_1_split_1
I0727 23:36:51.077630  5678 net.cpp:425] c21 <- Input2
I0727 23:36:51.077635  5678 net.cpp:399] c21 -> c21
I0727 23:36:51.077639  5678 net.cpp:141] Setting up c21
I0727 23:36:51.077643  5678 net.cpp:148] Top shape: 32 3 64 64 (393216)
I0727 23:36:51.077646  5678 net.cpp:156] Memory required for data: 66060672
I0727 23:36:51.077648  5678 layer_factory.hpp:77] Creating layer Convolution1
I0727 23:36:51.077659  5678 net.cpp:91] Creating Layer Convolution1
I0727 23:36:51.077662  5678 net.cpp:425] Convolution1 <- p1_p1_0_split_0
I0727 23:36:51.077667  5678 net.cpp:399] Convolution1 -> Convolution1
I0727 23:36:51.077721  5678 net.cpp:141] Setting up Convolution1
I0727 23:36:51.077726  5678 net.cpp:148] Top shape: 32 20 60 60 (2304000)
I0727 23:36:51.077728  5678 net.cpp:156] Memory required for data: 75276672
I0727 23:36:51.077739  5678 layer_factory.hpp:77] Creating layer Pooling1
I0727 23:36:51.077744  5678 net.cpp:91] Creating Layer Pooling1
I0727 23:36:51.077747  5678 net.cpp:425] Pooling1 <- Convolution1
I0727 23:36:51.077751  5678 net.cpp:399] Pooling1 -> Pooling1
I0727 23:36:51.077759  5678 net.cpp:141] Setting up Pooling1
I0727 23:36:51.077761  5678 net.cpp:148] Top shape: 32 20 30 30 (576000)
I0727 23:36:51.077764  5678 net.cpp:156] Memory required for data: 77580672
I0727 23:36:51.077767  5678 layer_factory.hpp:77] Creating layer Convolution2
I0727 23:36:51.077774  5678 net.cpp:91] Creating Layer Convolution2
I0727 23:36:51.077776  5678 net.cpp:425] Convolution2 <- Pooling1
I0727 23:36:51.077780  5678 net.cpp:399] Convolution2 -> Convolution2
I0727 23:36:51.078153  5678 net.cpp:141] Setting up Convolution2
I0727 23:36:51.078173  5678 net.cpp:148] Top shape: 32 50 26 26 (1081600)
I0727 23:36:51.078179  5678 net.cpp:156] Memory required for data: 81907072
I0727 23:36:51.078191  5678 layer_factory.hpp:77] Creating layer Pooling2
I0727 23:36:51.078209  5678 net.cpp:91] Creating Layer Pooling2
I0727 23:36:51.078215  5678 net.cpp:425] Pooling2 <- Convolution2
I0727 23:36:51.078224  5678 net.cpp:399] Pooling2 -> Pooling2
I0727 23:36:51.078243  5678 net.cpp:141] Setting up Pooling2
I0727 23:36:51.078250  5678 net.cpp:148] Top shape: 32 50 13 13 (270400)
I0727 23:36:51.078255  5678 net.cpp:156] Memory required for data: 82988672
I0727 23:36:51.078260  5678 layer_factory.hpp:77] Creating layer InnerProduct1
I0727 23:36:51.078279  5678 net.cpp:91] Creating Layer InnerProduct1
I0727 23:36:51.078284  5678 net.cpp:425] InnerProduct1 <- Pooling2
I0727 23:36:51.078294  5678 net.cpp:399] InnerProduct1 -> InnerProduct1
I0727 23:36:51.110718  5678 net.cpp:141] Setting up InnerProduct1
I0727 23:36:51.110762  5678 net.cpp:148] Top shape: 32 100 (3200)
I0727 23:36:51.110767  5678 net.cpp:156] Memory required for data: 83001472
I0727 23:36:51.110783  5678 layer_factory.hpp:77] Creating layer ReLU1
I0727 23:36:51.110803  5678 net.cpp:91] Creating Layer ReLU1
I0727 23:36:51.110807  5678 net.cpp:425] ReLU1 <- InnerProduct1
I0727 23:36:51.110813  5678 net.cpp:386] ReLU1 -> InnerProduct1 (in-place)
I0727 23:36:51.110822  5678 net.cpp:141] Setting up ReLU1
I0727 23:36:51.110827  5678 net.cpp:148] Top shape: 32 100 (3200)
I0727 23:36:51.110831  5678 net.cpp:156] Memory required for data: 83014272
I0727 23:36:51.110833  5678 layer_factory.hpp:77] Creating layer InnerProduct2
I0727 23:36:51.110841  5678 net.cpp:91] Creating Layer InnerProduct2
I0727 23:36:51.110844  5678 net.cpp:425] InnerProduct2 <- InnerProduct1
I0727 23:36:51.110852  5678 net.cpp:399] InnerProduct2 -> InnerProduct2
I0727 23:36:51.110901  5678 net.cpp:141] Setting up InnerProduct2
I0727 23:36:51.110906  5678 net.cpp:148] Top shape: 32 50 (1600)
I0727 23:36:51.110908  5678 net.cpp:156] Memory required for data: 83020672
I0727 23:36:51.110913  5678 layer_factory.hpp:77] Creating layer Convolution3
I0727 23:36:51.110924  5678 net.cpp:91] Creating Layer Convolution3
I0727 23:36:51.110927  5678 net.cpp:425] Convolution3 <- p2_p2_0_split_0
I0727 23:36:51.110960  5678 net.cpp:399] Convolution3 -> Convolution3
I0727 23:36:51.110998  5678 net.cpp:141] Setting up Convolution3
I0727 23:36:51.111003  5678 net.cpp:148] Top shape: 32 20 60 60 (2304000)
I0727 23:36:51.111006  5678 net.cpp:156] Memory required for data: 92236672
I0727 23:36:51.111011  5678 net.cpp:484] Sharing parameters 'conv1_w' owned by layer 'Convolution1', param index 0
I0727 23:36:51.111016  5678 net.cpp:484] Sharing parameters 'conv1_b' owned by layer 'Convolution1', param index 1
I0727 23:36:51.111017  5678 layer_factory.hpp:77] Creating layer Pooling3
I0727 23:36:51.111023  5678 net.cpp:91] Creating Layer Pooling3
I0727 23:36:51.111027  5678 net.cpp:425] Pooling3 <- Convolution3
I0727 23:36:51.111032  5678 net.cpp:399] Pooling3 -> Pooling3
I0727 23:36:51.111039  5678 net.cpp:141] Setting up Pooling3
I0727 23:36:51.111043  5678 net.cpp:148] Top shape: 32 20 30 30 (576000)
I0727 23:36:51.111045  5678 net.cpp:156] Memory required for data: 94540672
I0727 23:36:51.111047  5678 layer_factory.hpp:77] Creating layer Convolution4
I0727 23:36:51.111055  5678 net.cpp:91] Creating Layer Convolution4
I0727 23:36:51.111058  5678 net.cpp:425] Convolution4 <- Pooling3
I0727 23:36:51.111063  5678 net.cpp:399] Convolution4 -> Convolution4
I0727 23:36:51.111286  5678 net.cpp:141] Setting up Convolution4
I0727 23:36:51.111292  5678 net.cpp:148] Top shape: 32 50 26 26 (1081600)
I0727 23:36:51.111295  5678 net.cpp:156] Memory required for data: 98867072
I0727 23:36:51.111299  5678 net.cpp:484] Sharing parameters 'conv2_w' owned by layer 'Convolution2', param index 0
I0727 23:36:51.111304  5678 net.cpp:484] Sharing parameters 'conv2_b' owned by layer 'Convolution2', param index 1
I0727 23:36:51.111306  5678 layer_factory.hpp:77] Creating layer Pooling4
I0727 23:36:51.111311  5678 net.cpp:91] Creating Layer Pooling4
I0727 23:36:51.111315  5678 net.cpp:425] Pooling4 <- Convolution4
I0727 23:36:51.111320  5678 net.cpp:399] Pooling4 -> Pooling4
I0727 23:36:51.111330  5678 net.cpp:141] Setting up Pooling4
I0727 23:36:51.111335  5678 net.cpp:148] Top shape: 32 50 13 13 (270400)
I0727 23:36:51.111337  5678 net.cpp:156] Memory required for data: 99948672
I0727 23:36:51.111341  5678 layer_factory.hpp:77] Creating layer InnerProduct3
I0727 23:36:51.111348  5678 net.cpp:91] Creating Layer InnerProduct3
I0727 23:36:51.111351  5678 net.cpp:425] InnerProduct3 <- Pooling4
I0727 23:36:51.111358  5678 net.cpp:399] InnerProduct3 -> InnerProduct3
I0727 23:36:51.119220  5678 net.cpp:141] Setting up InnerProduct3
I0727 23:36:51.119410  5678 net.cpp:148] Top shape: 32 100 (3200)
I0727 23:36:51.119441  5678 net.cpp:156] Memory required for data: 99961472
I0727 23:36:51.119557  5678 net.cpp:484] Sharing parameters 'ip1_w' owned by layer 'InnerProduct1', param index 0
I0727 23:36:51.119798  5678 net.cpp:484] Sharing parameters 'ip1_b' owned by layer 'InnerProduct1', param index 1
I0727 23:36:51.119810  5678 layer_factory.hpp:77] Creating layer ReLU2
I0727 23:36:51.119848  5678 net.cpp:91] Creating Layer ReLU2
I0727 23:36:51.119879  5678 net.cpp:425] ReLU2 <- InnerProduct3
I0727 23:36:51.119985  5678 net.cpp:386] ReLU2 -> InnerProduct3 (in-place)
I0727 23:36:51.120043  5678 net.cpp:141] Setting up ReLU2
I0727 23:36:51.120097  5678 net.cpp:148] Top shape: 32 100 (3200)
I0727 23:36:51.120111  5678 net.cpp:156] Memory required for data: 99974272
I0727 23:36:51.120123  5678 layer_factory.hpp:77] Creating layer InnerProduct4
I0727 23:36:51.120141  5678 net.cpp:91] Creating Layer InnerProduct4
I0727 23:36:51.120146  5678 net.cpp:425] InnerProduct4 <- InnerProduct3
I0727 23:36:51.120158  5678 net.cpp:399] InnerProduct4 -> InnerProduct4
I0727 23:36:51.120741  5678 net.cpp:141] Setting up InnerProduct4
I0727 23:36:51.120776  5678 net.cpp:148] Top shape: 32 50 (1600)
I0727 23:36:51.120781  5678 net.cpp:156] Memory required for data: 99980672
I0727 23:36:51.120790  5678 net.cpp:484] Sharing parameters 'ip2_w' owned by layer 'InnerProduct2', param index 0
I0727 23:36:51.120797  5678 net.cpp:484] Sharing parameters 'ip2_b' owned by layer 'InnerProduct2', param index 1
I0727 23:36:51.120918  5678 layer_factory.hpp:77] Creating layer Concat1
I0727 23:36:51.120941  5678 net.cpp:91] Creating Layer Concat1
I0727 23:36:51.120957  5678 net.cpp:425] Concat1 <- InnerProduct2
I0727 23:36:51.120965  5678 net.cpp:425] Concat1 <- InnerProduct4
I0727 23:36:51.120975  5678 net.cpp:399] Concat1 -> Concat1
I0727 23:36:51.121445  5678 net.cpp:141] Setting up Concat1
I0727 23:36:51.121534  5678 net.cpp:148] Top shape: 32 100 (3200)
I0727 23:36:51.121539  5678 net.cpp:156] Memory required for data: 99993472
I0727 23:36:51.121546  5678 layer_factory.hpp:77] Creating layer InnerProduct5
I0727 23:36:51.121625  5678 net.cpp:91] Creating Layer InnerProduct5
I0727 23:36:51.121649  5678 net.cpp:425] InnerProduct5 <- Concat1
I0727 23:36:51.121688  5678 net.cpp:399] InnerProduct5 -> InnerProduct5
I0727 23:36:51.122160  5678 net.cpp:141] Setting up InnerProduct5
I0727 23:36:51.122253  5678 net.cpp:148] Top shape: 32 64 (2048)
I0727 23:36:51.122261  5678 net.cpp:156] Memory required for data: 100001664
I0727 23:36:51.122362  5678 layer_factory.hpp:77] Creating layer ReLU3
I0727 23:36:51.122382  5678 net.cpp:91] Creating Layer ReLU3
I0727 23:36:51.122391  5678 net.cpp:425] ReLU3 <- InnerProduct5
I0727 23:36:51.122407  5678 net.cpp:386] ReLU3 -> InnerProduct5 (in-place)
I0727 23:36:51.122436  5678 net.cpp:141] Setting up ReLU3
I0727 23:36:51.122445  5678 net.cpp:148] Top shape: 32 64 (2048)
I0727 23:36:51.122450  5678 net.cpp:156] Memory required for data: 100009856
I0727 23:36:51.122455  5678 layer_factory.hpp:77] Creating layer InnerProduct6
I0727 23:36:51.122473  5678 net.cpp:91] Creating Layer InnerProduct6
I0727 23:36:51.122478  5678 net.cpp:425] InnerProduct6 <- InnerProduct5
I0727 23:36:51.122491  5678 net.cpp:399] InnerProduct6 -> InnerProduct6
I0727 23:36:51.122562  5678 net.cpp:141] Setting up InnerProduct6
I0727 23:36:51.122591  5678 net.cpp:148] Top shape: 32 32 (1024)
I0727 23:36:51.122598  5678 net.cpp:156] Memory required for data: 100013952
I0727 23:36:51.122619  5678 layer_factory.hpp:77] Creating layer ReLU4
I0727 23:36:51.122643  5678 net.cpp:91] Creating Layer ReLU4
I0727 23:36:51.122655  5678 net.cpp:425] ReLU4 <- InnerProduct6
I0727 23:36:51.122669  5678 net.cpp:386] ReLU4 -> InnerProduct6 (in-place)
I0727 23:36:51.122687  5678 net.cpp:141] Setting up ReLU4
I0727 23:36:51.122700  5678 net.cpp:148] Top shape: 32 32 (1024)
I0727 23:36:51.122705  5678 net.cpp:156] Memory required for data: 100018048
I0727 23:36:51.122714  5678 layer_factory.hpp:77] Creating layer dt
I0727 23:36:51.123034  5678 net.cpp:91] Creating Layer dt
I0727 23:36:51.123076  5678 net.cpp:425] dt <- InnerProduct6
I0727 23:36:51.123093  5678 net.cpp:399] dt -> dt
I0727 23:36:51.123123  5678 net.cpp:141] Setting up dt
I0727 23:36:51.123131  5678 net.cpp:148] Top shape: 32 2 (64)
I0727 23:36:51.123136  5678 net.cpp:156] Memory required for data: 100018304
I0727 23:36:51.123144  5678 layer_factory.hpp:77] Creating layer Convolution5
I0727 23:36:51.123159  5678 net.cpp:91] Creating Layer Convolution5
I0727 23:36:51.123165  5678 net.cpp:425] Convolution5 <- p1_p1_0_split_1
I0727 23:36:51.123174  5678 net.cpp:399] Convolution5 -> Convolution5
I0727 23:36:51.123265  5678 net.cpp:141] Setting up Convolution5
I0727 23:36:51.123273  5678 net.cpp:148] Top shape: 32 20 60 60 (2304000)
I0727 23:36:51.123277  5678 net.cpp:156] Memory required for data: 109234304
I0727 23:36:51.123282  5678 net.cpp:484] Sharing parameters 'conv1_w' owned by layer 'Convolution1', param index 0
I0727 23:36:51.123288  5678 net.cpp:484] Sharing parameters 'conv1_b' owned by layer 'Convolution1', param index 1
I0727 23:36:51.123293  5678 layer_factory.hpp:77] Creating layer Pooling5
I0727 23:36:51.123302  5678 net.cpp:91] Creating Layer Pooling5
I0727 23:36:51.123307  5678 net.cpp:425] Pooling5 <- Convolution5
I0727 23:36:51.123317  5678 net.cpp:399] Pooling5 -> Pooling5
I0727 23:36:51.123328  5678 net.cpp:141] Setting up Pooling5
I0727 23:36:51.123334  5678 net.cpp:148] Top shape: 32 20 30 30 (576000)
I0727 23:36:51.123385  5678 net.cpp:156] Memory required for data: 111538304
I0727 23:36:51.123572  5678 layer_factory.hpp:77] Creating layer Convolution6
I0727 23:36:51.123615  5678 net.cpp:91] Creating Layer Convolution6
I0727 23:36:51.123622  5678 net.cpp:425] Convolution6 <- Pooling5
I0727 23:36:51.123636  5678 net.cpp:399] Convolution6 -> Convolution6
I0727 23:36:51.123931  5678 net.cpp:141] Setting up Convolution6
I0727 23:36:51.124105  5678 net.cpp:148] Top shape: 32 50 26 26 (1081600)
I0727 23:36:51.124116  5678 net.cpp:156] Memory required for data: 115864704
I0727 23:36:51.124125  5678 net.cpp:484] Sharing parameters 'conv2_w' owned by layer 'Convolution2', param index 0
I0727 23:36:51.124132  5678 net.cpp:484] Sharing parameters 'conv2_b' owned by layer 'Convolution2', param index 1
I0727 23:36:51.124137  5678 layer_factory.hpp:77] Creating layer Pooling6
I0727 23:36:51.124156  5678 net.cpp:91] Creating Layer Pooling6
I0727 23:36:51.124163  5678 net.cpp:425] Pooling6 <- Convolution6
I0727 23:36:51.124173  5678 net.cpp:399] Pooling6 -> Pooling6
I0727 23:36:51.124191  5678 net.cpp:141] Setting up Pooling6
I0727 23:36:51.124197  5678 net.cpp:148] Top shape: 32 50 13 13 (270400)
I0727 23:36:51.124200  5678 net.cpp:156] Memory required for data: 116946304
I0727 23:36:51.124204  5678 layer_factory.hpp:77] Creating layer InnerProduct7
I0727 23:36:51.124217  5678 net.cpp:91] Creating Layer InnerProduct7
I0727 23:36:51.124220  5678 net.cpp:425] InnerProduct7 <- Pooling6
I0727 23:36:51.124229  5678 net.cpp:399] InnerProduct7 -> InnerProduct7
I0727 23:36:51.134979  5678 net.cpp:141] Setting up InnerProduct7
I0727 23:36:51.135022  5678 net.cpp:148] Top shape: 32 100 (3200)
I0727 23:36:51.135030  5678 net.cpp:156] Memory required for data: 116959104
I0727 23:36:51.135041  5678 net.cpp:484] Sharing parameters 'ip1_w' owned by layer 'InnerProduct1', param index 0
I0727 23:36:51.135051  5678 net.cpp:484] Sharing parameters 'ip1_b' owned by layer 'InnerProduct1', param index 1
I0727 23:36:51.135057  5678 layer_factory.hpp:77] Creating layer ReLU5
I0727 23:36:51.135080  5678 net.cpp:91] Creating Layer ReLU5
I0727 23:36:51.135089  5678 net.cpp:425] ReLU5 <- InnerProduct7
I0727 23:36:51.135160  5678 net.cpp:386] ReLU5 -> InnerProduct7 (in-place)
I0727 23:36:51.135177  5678 net.cpp:141] Setting up ReLU5
I0727 23:36:51.135185  5678 net.cpp:148] Top shape: 32 100 (3200)
I0727 23:36:51.135190  5678 net.cpp:156] Memory required for data: 116971904
I0727 23:36:51.135197  5678 layer_factory.hpp:77] Creating layer InnerProduct8
I0727 23:36:51.135212  5678 net.cpp:91] Creating Layer InnerProduct8
I0727 23:36:51.135218  5678 net.cpp:425] InnerProduct8 <- InnerProduct7
I0727 23:36:51.135229  5678 net.cpp:399] InnerProduct8 -> InnerProduct8
I0727 23:36:51.135321  5678 net.cpp:141] Setting up InnerProduct8
I0727 23:36:51.135330  5678 net.cpp:148] Top shape: 32 50 (1600)
I0727 23:36:51.135334  5678 net.cpp:156] Memory required for data: 116978304
I0727 23:36:51.135340  5678 net.cpp:484] Sharing parameters 'ip2_w' owned by layer 'InnerProduct2', param index 0
I0727 23:36:51.135347  5678 net.cpp:484] Sharing parameters 'ip2_b' owned by layer 'InnerProduct2', param index 1
I0727 23:36:51.135352  5678 layer_factory.hpp:77] Creating layer Convolution7
I0727 23:36:51.135368  5678 net.cpp:91] Creating Layer Convolution7
I0727 23:36:51.135375  5678 net.cpp:425] Convolution7 <- c21
I0727 23:36:51.135385  5678 net.cpp:399] Convolution7 -> Convolution7
I0727 23:36:51.135442  5678 net.cpp:141] Setting up Convolution7
I0727 23:36:51.135449  5678 net.cpp:148] Top shape: 32 20 60 60 (2304000)
I0727 23:36:51.135453  5678 net.cpp:156] Memory required for data: 126194304
I0727 23:36:51.135460  5678 net.cpp:484] Sharing parameters 'conv1_w' owned by layer 'Convolution1', param index 0
I0727 23:36:51.135467  5678 net.cpp:484] Sharing parameters 'conv1_b' owned by layer 'Convolution1', param index 1
I0727 23:36:51.135471  5678 layer_factory.hpp:77] Creating layer Pooling7
I0727 23:36:51.135480  5678 net.cpp:91] Creating Layer Pooling7
I0727 23:36:51.135485  5678 net.cpp:425] Pooling7 <- Convolution7
I0727 23:36:51.135535  5678 net.cpp:399] Pooling7 -> Pooling7
I0727 23:36:51.135550  5678 net.cpp:141] Setting up Pooling7
I0727 23:36:51.135555  5678 net.cpp:148] Top shape: 32 20 30 30 (576000)
I0727 23:36:51.135560  5678 net.cpp:156] Memory required for data: 128498304
I0727 23:36:51.135565  5678 layer_factory.hpp:77] Creating layer Convolution8
I0727 23:36:51.135578  5678 net.cpp:91] Creating Layer Convolution8
I0727 23:36:51.135583  5678 net.cpp:425] Convolution8 <- Pooling7
I0727 23:36:51.135592  5678 net.cpp:399] Convolution8 -> Convolution8
I0727 23:36:51.135887  5678 net.cpp:141] Setting up Convolution8
I0727 23:36:51.135900  5678 net.cpp:148] Top shape: 32 50 26 26 (1081600)
I0727 23:36:51.135903  5678 net.cpp:156] Memory required for data: 132824704
I0727 23:36:51.135918  5678 net.cpp:484] Sharing parameters 'conv2_w' owned by layer 'Convolution2', param index 0
I0727 23:36:51.135926  5678 net.cpp:484] Sharing parameters 'conv2_b' owned by layer 'Convolution2', param index 1
I0727 23:36:51.135931  5678 layer_factory.hpp:77] Creating layer Pooling8
I0727 23:36:51.135941  5678 net.cpp:91] Creating Layer Pooling8
I0727 23:36:51.135947  5678 net.cpp:425] Pooling8 <- Convolution8
I0727 23:36:51.135954  5678 net.cpp:399] Pooling8 -> Pooling8
I0727 23:36:51.135967  5678 net.cpp:141] Setting up Pooling8
I0727 23:36:51.135974  5678 net.cpp:148] Top shape: 32 50 13 13 (270400)
I0727 23:36:51.135979  5678 net.cpp:156] Memory required for data: 133906304
I0727 23:36:51.135984  5678 layer_factory.hpp:77] Creating layer InnerProduct9
I0727 23:36:51.135993  5678 net.cpp:91] Creating Layer InnerProduct9
I0727 23:36:51.135998  5678 net.cpp:425] InnerProduct9 <- Pooling8
I0727 23:36:51.136009  5678 net.cpp:399] InnerProduct9 -> InnerProduct9
I0727 23:36:51.146023  5678 net.cpp:141] Setting up InnerProduct9
I0727 23:36:51.146080  5678 net.cpp:148] Top shape: 32 100 (3200)
I0727 23:36:51.146090  5678 net.cpp:156] Memory required for data: 133919104
I0727 23:36:51.146102  5678 net.cpp:484] Sharing parameters 'ip1_w' owned by layer 'InnerProduct1', param index 0
I0727 23:36:51.146342  5678 net.cpp:484] Sharing parameters 'ip1_b' owned by layer 'InnerProduct1', param index 1
I0727 23:36:51.146354  5678 layer_factory.hpp:77] Creating layer ReLU6
I0727 23:36:51.146368  5678 net.cpp:91] Creating Layer ReLU6
I0727 23:36:51.146375  5678 net.cpp:425] ReLU6 <- InnerProduct9
I0727 23:36:51.146384  5678 net.cpp:386] ReLU6 -> InnerProduct9 (in-place)
I0727 23:36:51.146395  5678 net.cpp:141] Setting up ReLU6
I0727 23:36:51.146404  5678 net.cpp:148] Top shape: 32 100 (3200)
I0727 23:36:51.146407  5678 net.cpp:156] Memory required for data: 133931904
I0727 23:36:51.146411  5678 layer_factory.hpp:77] Creating layer InnerProduct10
I0727 23:36:51.146427  5678 net.cpp:91] Creating Layer InnerProduct10
I0727 23:36:51.146432  5678 net.cpp:425] InnerProduct10 <- InnerProduct9
I0727 23:36:51.146438  5678 net.cpp:399] InnerProduct10 -> InnerProduct10
I0727 23:36:51.146509  5678 net.cpp:141] Setting up InnerProduct10
I0727 23:36:51.146605  5678 net.cpp:148] Top shape: 32 50 (1600)
I0727 23:36:51.146613  5678 net.cpp:156] Memory required for data: 133938304
I0727 23:36:51.146620  5678 net.cpp:484] Sharing parameters 'ip2_w' owned by layer 'InnerProduct2', param index 0
I0727 23:36:51.146625  5678 net.cpp:484] Sharing parameters 'ip2_b' owned by layer 'InnerProduct2', param index 1
I0727 23:36:51.146630  5678 layer_factory.hpp:77] Creating layer Concat2
I0727 23:36:51.146637  5678 net.cpp:91] Creating Layer Concat2
I0727 23:36:51.146642  5678 net.cpp:425] Concat2 <- InnerProduct8
I0727 23:36:51.146647  5678 net.cpp:425] Concat2 <- InnerProduct10
I0727 23:36:51.146657  5678 net.cpp:399] Concat2 -> Concat2
I0727 23:36:51.146668  5678 net.cpp:141] Setting up Concat2
I0727 23:36:51.146674  5678 net.cpp:148] Top shape: 32 100 (3200)
I0727 23:36:51.146677  5678 net.cpp:156] Memory required for data: 133951104
I0727 23:36:51.146682  5678 layer_factory.hpp:77] Creating layer InnerProduct11
I0727 23:36:51.146689  5678 net.cpp:91] Creating Layer InnerProduct11
I0727 23:36:51.146723  5678 net.cpp:425] InnerProduct11 <- Concat2
I0727 23:36:51.146731  5678 net.cpp:399] InnerProduct11 -> InnerProduct11
I0727 23:36:51.146800  5678 net.cpp:141] Setting up InnerProduct11
I0727 23:36:51.146806  5678 net.cpp:148] Top shape: 32 64 (2048)
I0727 23:36:51.146811  5678 net.cpp:156] Memory required for data: 133959296
I0727 23:36:51.146816  5678 net.cpp:484] Sharing parameters 'fc1_w' owned by layer 'InnerProduct5', param index 0
I0727 23:36:51.146821  5678 net.cpp:484] Sharing parameters 'fc1_b' owned by layer 'InnerProduct5', param index 1
I0727 23:36:51.146824  5678 layer_factory.hpp:77] Creating layer ReLU7
I0727 23:36:51.146831  5678 net.cpp:91] Creating Layer ReLU7
I0727 23:36:51.146836  5678 net.cpp:425] ReLU7 <- InnerProduct11
I0727 23:36:51.146842  5678 net.cpp:386] ReLU7 -> InnerProduct11 (in-place)
I0727 23:36:51.146847  5678 net.cpp:141] Setting up ReLU7
I0727 23:36:51.146852  5678 net.cpp:148] Top shape: 32 64 (2048)
I0727 23:36:51.146857  5678 net.cpp:156] Memory required for data: 133967488
I0727 23:36:51.146859  5678 layer_factory.hpp:77] Creating layer InnerProduct12
I0727 23:36:51.146867  5678 net.cpp:91] Creating Layer InnerProduct12
I0727 23:36:51.146870  5678 net.cpp:425] InnerProduct12 <- InnerProduct11
I0727 23:36:51.146878  5678 net.cpp:399] InnerProduct12 -> InnerProduct12
I0727 23:36:51.146999  5678 net.cpp:141] Setting up InnerProduct12
I0727 23:36:51.147011  5678 net.cpp:148] Top shape: 32 32 (1024)
I0727 23:36:51.147016  5678 net.cpp:156] Memory required for data: 133971584
I0727 23:36:51.147020  5678 net.cpp:484] Sharing parameters 'fc2_w' owned by layer 'InnerProduct6', param index 0
I0727 23:36:51.147025  5678 net.cpp:484] Sharing parameters 'fc2_b' owned by layer 'InnerProduct6', param index 1
I0727 23:36:51.147030  5678 layer_factory.hpp:77] Creating layer ReLU8
I0727 23:36:51.147037  5678 net.cpp:91] Creating Layer ReLU8
I0727 23:36:51.147042  5678 net.cpp:425] ReLU8 <- InnerProduct12
I0727 23:36:51.147047  5678 net.cpp:386] ReLU8 -> InnerProduct12 (in-place)
I0727 23:36:51.147053  5678 net.cpp:141] Setting up ReLU8
I0727 23:36:51.147058  5678 net.cpp:148] Top shape: 32 32 (1024)
I0727 23:36:51.147063  5678 net.cpp:156] Memory required for data: 133975680
I0727 23:36:51.147066  5678 layer_factory.hpp:77] Creating layer dt1
I0727 23:36:51.147075  5678 net.cpp:91] Creating Layer dt1
I0727 23:36:51.147079  5678 net.cpp:425] dt1 <- InnerProduct12
I0727 23:36:51.147089  5678 net.cpp:399] dt1 -> dt1
I0727 23:36:51.147101  5678 net.cpp:141] Setting up dt1
I0727 23:36:51.147106  5678 net.cpp:148] Top shape: 32 2 (64)
I0727 23:36:51.147109  5678 net.cpp:156] Memory required for data: 133975936
I0727 23:36:51.147114  5678 net.cpp:484] Sharing parameters 'fc3_w' owned by layer 'dt', param index 0
I0727 23:36:51.147119  5678 net.cpp:484] Sharing parameters 'fc3_b' owned by layer 'dt', param index 1
I0727 23:36:51.147122  5678 layer_factory.hpp:77] Creating layer Convolution9
I0727 23:36:51.147136  5678 net.cpp:91] Creating Layer Convolution9
I0727 23:36:51.147141  5678 net.cpp:425] Convolution9 <- p2_p2_0_split_1
I0727 23:36:51.147150  5678 net.cpp:399] Convolution9 -> Convolution9
I0727 23:36:51.147192  5678 net.cpp:141] Setting up Convolution9
I0727 23:36:51.147199  5678 net.cpp:148] Top shape: 32 20 60 60 (2304000)
I0727 23:36:51.147203  5678 net.cpp:156] Memory required for data: 143191936
I0727 23:36:51.147208  5678 net.cpp:484] Sharing parameters 'conv1_w' owned by layer 'Convolution1', param index 0
I0727 23:36:51.147258  5678 net.cpp:484] Sharing parameters 'conv1_b' owned by layer 'Convolution1', param index 1
I0727 23:36:51.147274  5678 layer_factory.hpp:77] Creating layer Pooling9
I0727 23:36:51.147361  5678 net.cpp:91] Creating Layer Pooling9
I0727 23:36:51.147372  5678 net.cpp:425] Pooling9 <- Convolution9
I0727 23:36:51.147379  5678 net.cpp:399] Pooling9 -> Pooling9
I0727 23:36:51.147392  5678 net.cpp:141] Setting up Pooling9
I0727 23:36:51.147399  5678 net.cpp:148] Top shape: 32 20 30 30 (576000)
I0727 23:36:51.147403  5678 net.cpp:156] Memory required for data: 145495936
I0727 23:36:51.147424  5678 layer_factory.hpp:77] Creating layer Convolution10
I0727 23:36:51.147438  5678 net.cpp:91] Creating Layer Convolution10
I0727 23:36:51.147442  5678 net.cpp:425] Convolution10 <- Pooling9
I0727 23:36:51.147450  5678 net.cpp:399] Convolution10 -> Convolution10
I0727 23:36:51.147795  5678 net.cpp:141] Setting up Convolution10
I0727 23:36:51.147807  5678 net.cpp:148] Top shape: 32 50 26 26 (1081600)
I0727 23:36:51.147811  5678 net.cpp:156] Memory required for data: 149822336
I0727 23:36:51.147816  5678 net.cpp:484] Sharing parameters 'conv2_w' owned by layer 'Convolution2', param index 0
I0727 23:36:51.147821  5678 net.cpp:484] Sharing parameters 'conv2_b' owned by layer 'Convolution2', param index 1
I0727 23:36:51.147825  5678 layer_factory.hpp:77] Creating layer Pooling10
I0727 23:36:51.147833  5678 net.cpp:91] Creating Layer Pooling10
I0727 23:36:51.147837  5678 net.cpp:425] Pooling10 <- Convolution10
I0727 23:36:51.147846  5678 net.cpp:399] Pooling10 -> Pooling10
I0727 23:36:51.147856  5678 net.cpp:141] Setting up Pooling10
I0727 23:36:51.147862  5678 net.cpp:148] Top shape: 32 50 13 13 (270400)
I0727 23:36:51.147866  5678 net.cpp:156] Memory required for data: 150903936
I0727 23:36:51.147869  5678 layer_factory.hpp:77] Creating layer InnerProduct13
I0727 23:36:51.147879  5678 net.cpp:91] Creating Layer InnerProduct13
I0727 23:36:51.147884  5678 net.cpp:425] InnerProduct13 <- Pooling10
I0727 23:36:51.147891  5678 net.cpp:399] InnerProduct13 -> InnerProduct13
I0727 23:36:51.168105  5678 net.cpp:141] Setting up InnerProduct13
I0727 23:36:51.168243  5678 net.cpp:148] Top shape: 32 100 (3200)
I0727 23:36:51.168262  5678 net.cpp:156] Memory required for data: 150916736
I0727 23:36:51.168329  5678 net.cpp:484] Sharing parameters 'ip1_w' owned by layer 'InnerProduct1', param index 0
I0727 23:36:51.168344  5678 net.cpp:484] Sharing parameters 'ip1_b' owned by layer 'InnerProduct1', param index 1
I0727 23:36:51.168349  5678 layer_factory.hpp:77] Creating layer ReLU9
I0727 23:36:51.168431  5678 net.cpp:91] Creating Layer ReLU9
I0727 23:36:51.168469  5678 net.cpp:425] ReLU9 <- InnerProduct13
I0727 23:36:51.168488  5678 net.cpp:386] ReLU9 -> InnerProduct13 (in-place)
I0727 23:36:51.168509  5678 net.cpp:141] Setting up ReLU9
I0727 23:36:51.168516  5678 net.cpp:148] Top shape: 32 100 (3200)
I0727 23:36:51.168519  5678 net.cpp:156] Memory required for data: 150929536
I0727 23:36:51.168524  5678 layer_factory.hpp:77] Creating layer InnerProduct14
I0727 23:36:51.168555  5678 net.cpp:91] Creating Layer InnerProduct14
I0727 23:36:51.168577  5678 net.cpp:425] InnerProduct14 <- InnerProduct13
I0727 23:36:51.168617  5678 net.cpp:399] InnerProduct14 -> InnerProduct14
I0727 23:36:51.168797  5678 net.cpp:141] Setting up InnerProduct14
I0727 23:36:51.168813  5678 net.cpp:148] Top shape: 32 50 (1600)
I0727 23:36:51.168818  5678 net.cpp:156] Memory required for data: 150935936
I0727 23:36:51.168895  5678 net.cpp:484] Sharing parameters 'ip2_w' owned by layer 'InnerProduct2', param index 0
I0727 23:36:51.168936  5678 net.cpp:484] Sharing parameters 'ip2_b' owned by layer 'InnerProduct2', param index 1
I0727 23:36:51.168941  5678 layer_factory.hpp:77] Creating layer Convolution11
I0727 23:36:51.168965  5678 net.cpp:91] Creating Layer Convolution11
I0727 23:36:51.169008  5678 net.cpp:425] Convolution11 <- c11
I0727 23:36:51.169066  5678 net.cpp:399] Convolution11 -> Convolution11
I0727 23:36:51.169848  5678 net.cpp:141] Setting up Convolution11
I0727 23:36:51.169929  5678 net.cpp:148] Top shape: 32 20 60 60 (2304000)
I0727 23:36:51.169950  5678 net.cpp:156] Memory required for data: 160151936
I0727 23:36:51.169984  5678 net.cpp:484] Sharing parameters 'conv1_w' owned by layer 'Convolution1', param index 0
I0727 23:36:51.170011  5678 net.cpp:484] Sharing parameters 'conv1_b' owned by layer 'Convolution1', param index 1
I0727 23:36:51.170024  5678 layer_factory.hpp:77] Creating layer Pooling11
I0727 23:36:51.170187  5678 net.cpp:91] Creating Layer Pooling11
I0727 23:36:51.170204  5678 net.cpp:425] Pooling11 <- Convolution11
I0727 23:36:51.170420  5678 net.cpp:399] Pooling11 -> Pooling11
I0727 23:36:51.170521  5678 net.cpp:141] Setting up Pooling11
I0727 23:36:51.170554  5678 net.cpp:148] Top shape: 32 20 30 30 (576000)
I0727 23:36:51.170572  5678 net.cpp:156] Memory required for data: 162455936
I0727 23:36:51.170590  5678 layer_factory.hpp:77] Creating layer Convolution12
I0727 23:36:51.176359  5678 net.cpp:91] Creating Layer Convolution12
I0727 23:36:51.176415  5678 net.cpp:425] Convolution12 <- Pooling11
I0727 23:36:51.176435  5678 net.cpp:399] Convolution12 -> Convolution12
I0727 23:36:51.176728  5678 net.cpp:141] Setting up Convolution12
I0727 23:36:51.176753  5678 net.cpp:148] Top shape: 32 50 26 26 (1081600)
I0727 23:36:51.176755  5678 net.cpp:156] Memory required for data: 166782336
I0727 23:36:51.176759  5678 net.cpp:484] Sharing parameters 'conv2_w' owned by layer 'Convolution2', param index 0
I0727 23:36:51.176764  5678 net.cpp:484] Sharing parameters 'conv2_b' owned by layer 'Convolution2', param index 1
I0727 23:36:51.176767  5678 layer_factory.hpp:77] Creating layer Pooling12
I0727 23:36:51.176776  5678 net.cpp:91] Creating Layer Pooling12
I0727 23:36:51.176779  5678 net.cpp:425] Pooling12 <- Convolution12
I0727 23:36:51.176784  5678 net.cpp:399] Pooling12 -> Pooling12
I0727 23:36:51.176794  5678 net.cpp:141] Setting up Pooling12
I0727 23:36:51.176797  5678 net.cpp:148] Top shape: 32 50 13 13 (270400)
I0727 23:36:51.176800  5678 net.cpp:156] Memory required for data: 167863936
I0727 23:36:51.176801  5678 layer_factory.hpp:77] Creating layer InnerProduct15
I0727 23:36:51.176816  5678 net.cpp:91] Creating Layer InnerProduct15
I0727 23:36:51.176820  5678 net.cpp:425] InnerProduct15 <- Pooling12
I0727 23:36:51.176826  5678 net.cpp:399] InnerProduct15 -> InnerProduct15
I0727 23:36:51.210877  5678 net.cpp:141] Setting up InnerProduct15
I0727 23:36:51.211124  5678 net.cpp:148] Top shape: 32 100 (3200)
I0727 23:36:51.211191  5678 net.cpp:156] Memory required for data: 167876736
I0727 23:36:51.211236  5678 net.cpp:484] Sharing parameters 'ip1_w' owned by layer 'InnerProduct1', param index 0
I0727 23:36:51.211275  5678 net.cpp:484] Sharing parameters 'ip1_b' owned by layer 'InnerProduct1', param index 1
I0727 23:36:51.211303  5678 layer_factory.hpp:77] Creating layer ReLU10
I0727 23:36:51.211357  5678 net.cpp:91] Creating Layer ReLU10
I0727 23:36:51.211391  5678 net.cpp:425] ReLU10 <- InnerProduct15
I0727 23:36:51.211421  5678 net.cpp:386] ReLU10 -> InnerProduct15 (in-place)
I0727 23:36:51.211463  5678 net.cpp:141] Setting up ReLU10
I0727 23:36:51.211495  5678 net.cpp:148] Top shape: 32 100 (3200)
I0727 23:36:51.211516  5678 net.cpp:156] Memory required for data: 167889536
I0727 23:36:51.211537  5678 layer_factory.hpp:77] Creating layer InnerProduct16
I0727 23:36:51.211570  5678 net.cpp:91] Creating Layer InnerProduct16
I0727 23:36:51.211592  5678 net.cpp:425] InnerProduct16 <- InnerProduct15
I0727 23:36:51.211616  5678 net.cpp:399] InnerProduct16 -> InnerProduct16
I0727 23:36:51.211791  5678 net.cpp:141] Setting up InnerProduct16
I0727 23:36:51.211833  5678 net.cpp:148] Top shape: 32 50 (1600)
I0727 23:36:51.211849  5678 net.cpp:156] Memory required for data: 167895936
I0727 23:36:51.211865  5678 net.cpp:484] Sharing parameters 'ip2_w' owned by layer 'InnerProduct2', param index 0
I0727 23:36:51.211881  5678 net.cpp:484] Sharing parameters 'ip2_b' owned by layer 'InnerProduct2', param index 1
I0727 23:36:51.211896  5678 layer_factory.hpp:77] Creating layer Concat3
I0727 23:36:51.211915  5678 net.cpp:91] Creating Layer Concat3
I0727 23:36:51.211930  5678 net.cpp:425] Concat3 <- InnerProduct14
I0727 23:36:51.211946  5678 net.cpp:425] Concat3 <- InnerProduct16
I0727 23:36:51.211964  5678 net.cpp:399] Concat3 -> Concat3
I0727 23:36:51.211995  5678 net.cpp:141] Setting up Concat3
I0727 23:36:51.212018  5678 net.cpp:148] Top shape: 32 100 (3200)
I0727 23:36:51.212033  5678 net.cpp:156] Memory required for data: 167908736
I0727 23:36:51.212047  5678 layer_factory.hpp:77] Creating layer InnerProduct17
I0727 23:36:51.212086  5678 net.cpp:91] Creating Layer InnerProduct17
I0727 23:36:51.212102  5678 net.cpp:425] InnerProduct17 <- Concat3
I0727 23:36:51.212121  5678 net.cpp:399] InnerProduct17 -> InnerProduct17
I0727 23:36:51.212196  5678 net.cpp:141] Setting up InnerProduct17
I0727 23:36:51.212214  5678 net.cpp:148] Top shape: 32 64 (2048)
I0727 23:36:51.212229  5678 net.cpp:156] Memory required for data: 167916928
I0727 23:36:51.212242  5678 net.cpp:484] Sharing parameters 'fc1_w' owned by layer 'InnerProduct5', param index 0
I0727 23:36:51.212258  5678 net.cpp:484] Sharing parameters 'fc1_b' owned by layer 'InnerProduct5', param index 1
I0727 23:36:51.212272  5678 layer_factory.hpp:77] Creating layer ReLU11
I0727 23:36:51.212288  5678 net.cpp:91] Creating Layer ReLU11
I0727 23:36:51.212303  5678 net.cpp:425] ReLU11 <- InnerProduct17
I0727 23:36:51.212318  5678 net.cpp:386] ReLU11 -> InnerProduct17 (in-place)
I0727 23:36:51.212337  5678 net.cpp:141] Setting up ReLU11
I0727 23:36:51.212352  5678 net.cpp:148] Top shape: 32 64 (2048)
I0727 23:36:51.212365  5678 net.cpp:156] Memory required for data: 167925120
I0727 23:36:51.212379  5678 layer_factory.hpp:77] Creating layer InnerProduct18
I0727 23:36:51.212396  5678 net.cpp:91] Creating Layer InnerProduct18
I0727 23:36:51.212410  5678 net.cpp:425] InnerProduct18 <- InnerProduct17
I0727 23:36:51.212429  5678 net.cpp:399] InnerProduct18 -> InnerProduct18
I0727 23:36:51.212472  5678 net.cpp:141] Setting up InnerProduct18
I0727 23:36:51.212491  5678 net.cpp:148] Top shape: 32 32 (1024)
I0727 23:36:51.212503  5678 net.cpp:156] Memory required for data: 167929216
I0727 23:36:51.212517  5678 net.cpp:484] Sharing parameters 'fc2_w' owned by layer 'InnerProduct6', param index 0
I0727 23:36:51.212532  5678 net.cpp:484] Sharing parameters 'fc2_b' owned by layer 'InnerProduct6', param index 1
I0727 23:36:51.212548  5678 layer_factory.hpp:77] Creating layer ReLU12
I0727 23:36:51.212563  5678 net.cpp:91] Creating Layer ReLU12
I0727 23:36:51.212577  5678 net.cpp:425] ReLU12 <- InnerProduct18
I0727 23:36:51.212592  5678 net.cpp:386] ReLU12 -> InnerProduct18 (in-place)
I0727 23:36:51.212610  5678 net.cpp:141] Setting up ReLU12
I0727 23:36:51.212625  5678 net.cpp:148] Top shape: 32 32 (1024)
I0727 23:36:51.212638  5678 net.cpp:156] Memory required for data: 167933312
I0727 23:36:51.212652  5678 layer_factory.hpp:77] Creating layer dt2
I0727 23:36:51.212671  5678 net.cpp:91] Creating Layer dt2
I0727 23:36:51.212687  5678 net.cpp:425] dt2 <- InnerProduct18
I0727 23:36:51.212704  5678 net.cpp:399] dt2 -> dt2
I0727 23:36:51.212738  5678 net.cpp:141] Setting up dt2
I0727 23:36:51.212754  5678 net.cpp:148] Top shape: 32 2 (64)
I0727 23:36:51.212769  5678 net.cpp:156] Memory required for data: 167933568
I0727 23:36:51.212795  5678 net.cpp:484] Sharing parameters 'fc3_w' owned by layer 'dt', param index 0
I0727 23:36:51.212812  5678 net.cpp:484] Sharing parameters 'fc3_b' owned by layer 'dt', param index 1
I0727 23:36:51.212827  5678 layer_factory.hpp:77] Creating layer con
I0727 23:36:51.212843  5678 net.cpp:91] Creating Layer con
I0727 23:36:51.212857  5678 net.cpp:425] con <- dt
I0727 23:36:51.212872  5678 net.cpp:425] con <- dt1
I0727 23:36:51.212888  5678 net.cpp:425] con <- dt2
I0727 23:36:51.212904  5678 net.cpp:399] con -> con
I0727 23:36:51.212924  5678 net.cpp:141] Setting up con
I0727 23:36:51.212940  5678 net.cpp:148] Top shape: 32 6 (192)
I0727 23:36:51.212954  5678 net.cpp:156] Memory required for data: 167934336
I0727 23:36:51.212967  5678 layer_factory.hpp:77] Creating layer r1
I0727 23:36:51.212986  5678 net.cpp:91] Creating Layer r1
I0727 23:36:51.213002  5678 net.cpp:425] r1 <- con
I0727 23:36:51.213018  5678 net.cpp:399] r1 -> r1
I0727 23:36:51.213044  5678 net.cpp:141] Setting up r1
I0727 23:36:51.213063  5678 net.cpp:148] Top shape: 32 1 2 3 (192)
I0727 23:36:51.213078  5678 net.cpp:156] Memory required for data: 167935104
I0727 23:36:51.213090  5678 layer_factory.hpp:77] Creating layer p
I0727 23:36:51.213107  5678 net.cpp:91] Creating Layer p
I0727 23:36:51.213127  5678 net.cpp:425] p <- r1
I0727 23:36:51.213150  5678 net.cpp:399] p -> p
I0727 23:36:51.213172  5678 net.cpp:141] Setting up p
I0727 23:36:51.213189  5678 net.cpp:148] Top shape: 32 1 2 1 (64)
I0727 23:36:51.213202  5678 net.cpp:156] Memory required for data: 167935360
I0727 23:36:51.213215  5678 layer_factory.hpp:77] Creating layer r2
I0727 23:36:51.213233  5678 net.cpp:91] Creating Layer r2
I0727 23:36:51.213248  5678 net.cpp:425] r2 <- p
I0727 23:36:51.213263  5678 net.cpp:399] r2 -> r2
I0727 23:36:51.213282  5678 net.cpp:141] Setting up r2
I0727 23:36:51.213299  5678 net.cpp:148] Top shape: 32 2 1 1 (64)
I0727 23:36:51.213311  5678 net.cpp:156] Memory required for data: 167935616
I0727 23:36:51.213325  5678 layer_factory.hpp:77] Creating layer r2_r2_0_split
I0727 23:36:51.213340  5678 net.cpp:91] Creating Layer r2_r2_0_split
I0727 23:36:51.213354  5678 net.cpp:425] r2_r2_0_split <- r2
I0727 23:36:51.213371  5678 net.cpp:399] r2_r2_0_split -> r2_r2_0_split_0
I0727 23:36:51.213387  5678 net.cpp:399] r2_r2_0_split -> r2_r2_0_split_1
I0727 23:36:51.213407  5678 net.cpp:141] Setting up r2_r2_0_split
I0727 23:36:51.213421  5678 net.cpp:148] Top shape: 32 2 1 1 (64)
I0727 23:36:51.213436  5678 net.cpp:148] Top shape: 32 2 1 1 (64)
I0727 23:36:51.213449  5678 net.cpp:156] Memory required for data: 167936128
I0727 23:36:51.213462  5678 layer_factory.hpp:77] Creating layer accuracy
I0727 23:36:51.213488  5678 net.cpp:91] Creating Layer accuracy
I0727 23:36:51.213503  5678 net.cpp:425] accuracy <- r2_r2_0_split_0
I0727 23:36:51.213518  5678 net.cpp:425] accuracy <- label_data_1_split_0
I0727 23:36:51.213536  5678 net.cpp:399] accuracy -> accuracy
…
I0727 23:36:51.215664  5678 net.cpp:274] Network initialization done.
I0727 23:36:51.219099  5678 solver.cpp:181] Creating test net (#0) specified by test_net file: examples/scene/matchNetTestHingeMini.prototxt
I0727 23:36:51.222419  5678 net.cpp:49] Initializing net from parameters: 
state {
  phase: TEST
}
layer {
  name: "data"
  type: "Data"
  top: "data"
  top: "label"
  include {
    phase: TEST
  }
  transform_param {
    scale: 0.0039215689
    mirror: true
    mean_file: "examples/scene/scene_mean.binaryproto"
  }
  data_param {
    source: "examples/scene/test_pairs.lmdb"
    batch_size: 50
    backend: LMDB
  }
}
layer {
  name: "i1"
  type: "Slice"
  bottom: "data"
  top: "i1"
  top: "i2"
  slice_param {
    slice_dim: 1
    slice_point: 3
  }
}
layer {
  name: "p1"
  type: "Pooling"
  bottom: "i1"
  top: "p1"
  pooling_param {
    pool: AVE
    kernel_size: 2
    stride: 2
  }
}
layer {
  name: "p2"
  type: "Pooling"
  bottom: "i2"
  top: "p2"
  pooling_param {
    pool: AVE
    kernel_size: 2
    stride: 2
  }
}
layer {
  name: "Input1"
  type: "Input"
  top: "Input1"
  include {
    phase: TEST
  }
  input_param {
    shape {
      dim: 50
      dim: 3
      dim: 64
      dim: 64
    }
  }
}
layer {
  name: "c11"
  type: "Crop"
  bottom: "i1"
  bottom: "Input1"
  top: "c11"
  crop_param {
    axis: 2
    offset: 32
    offset: 32
  }
}
layer {
  name: "Input2"
  type: "Input"
  top: "Input2"
  include {
    phase: TEST
  }
  input_param {
    shape {
      dim: 50
      dim: 3
      dim: 64
      dim: 64
    }
  }
}
layer {
  name: "c21"
  type: "Crop"
  bottom: "i2"
  bottom: "Input2"
  top: "c21"
  crop_param {
    axis: 2
    offset: 32
    offset: 32
  }
}
layer {
  name: "Convolution1"
  type: "Convolution"
  bottom: "p1"
  top: "Convolution1"
  param {
    name: "conv1_w"
    lr_mult: 1
  }
  param {
    name: "conv1_b"
    lr_mult: 2
  }
  convolution_param {
    num_output: 20
    kernel_size: 5
    stride: 1
    weight_filler {
      type: "xavier"
    }
    bias_filler {
      type: "constant"
    }
  }
}
layer {
  name: "Pooling1"
  type: "Pooling"
  bottom: "Convolution1"
  top: "Pooling1"
  pooling_param {
    pool: MAX
    kernel_size: 2
    stride: 2
  }
}
layer {
  name: "Convolution2"
  type: "Convolution"
  bottom: "Pooling1"
  top: "Convolution2"
  param {
    name: "conv2_w"
    lr_mult: 1
  }
  param {
    name: "conv2_b"
    lr_mult: 2
  }
  convolution_param {
    num_output: 50
    kernel_size: 5
    stride: 1
    weight_filler {
      type: "xavier"
    }
    bias_filler {
      type: "constant"
    }
  }
}
layer {
  name: "Pooling2"
  type: "Pooling"
  bottom: "Convolution2"
  top: "Pooling2"
  pooling_param {
    pool: MAX
    kernel_size: 2
    stride: 2
  }
}
layer {
  name: "InnerProduct1"
  type: "InnerProduct"
  bottom: "Pooling2"
  top: "InnerProduct1"
  param {
    name: "ip1_w"
    lr_mult: 1
  }
  param {
    name: "ip1_b"
    lr_mult: 2
  }
  inner_product_param {
    num_output: 100
    weight_filler {
      type: "xavier"
    }
    bias_filler {
      type: "constant"
    }
  }
}
layer {
  name: "ReLU1"
  type: "ReLU"
  bottom: "InnerProduct1"
  top: "InnerProduct1"
}
layer {
  name: "InnerProduct2"
  type: "InnerProduct"
  bottom: "InnerProduct1"
  top: "InnerProduct2"
  param {
    name: "ip2_w"
    lr_mult: 1
  }
  param {
    name: "ip2_b"
    lr_mult: 2
  }
  inner_product_param {
    num_output: 50
    weight_filler {
      type: "xavier"
    }
    bias_filler {
      type: "constant"
    }
  }
}
layer {
  name: "Convolution3"
  type: "Convolution"
  bottom: "p2"
  top: "Convolution3"
  param {
    name: "conv1_w"
    lr_mult: 1
  }
  param {
    name: "conv1_b"
    lr_mult: 2
  }
  convolution_param {
    num_output: 20
    kernel_size: 5
    stride: 1
    weight_filler {
      type: "xavier"
    }
    bias_filler {
      type: "constant"
    }
  }
}
layer {
  name: "Pooling3"
  type: "Pooling"
  bottom: "Convolution3"
  top: "Pooling3"
  pooling_param {
    pool: MAX
    kernel_size: 2
    stride: 2
  }
}
layer {
  name: "Convolution4"
  type: "Convolution"
  bottom: "Pooling3"
  top: "Convolution4"
  param {
    name: "conv2_w"
    lr_mult: 1
  }
  param {
    name: "conv2_b"
    lr_mult: 2
  }
  convolution_param {
    num_output: 50
    kernel_size: 5
    stride: 1
    weight_filler {
      type: "xavier"
    }
    bias_filler {
      type: "constant"
    }
  }
}
layer {
  name: "Pooling4"
  type: "Pooling"
  bottom: "Convolution4"
  top: "Pooling4"
  pooling_param {
    pool: MAX
    kernel_size: 2
    stride: 2
  }
}
layer {
  name: "InnerProduct3"
  type: "InnerProduct"
  bottom: "Pooling4"
  top: "InnerProduct3"
  param {
    name: "ip1_w"
    lr_mult: 1
  }
  param {
    name: "ip1_b"
    lr_mult: 2
  }
  inner_product_param {
    num_output: 100
    weight_filler {
      type: "xavier"
    }
    bias_filler {
      type: "constant"
    }
  }
}
layer {
  name: "ReLU2"
  type: "ReLU"
  bottom: "InnerProduct3"
  top: "InnerProduct3"
}
layer {
  name: "InnerProduct4"
  type: "InnerProduct"
  bottom: "InnerProduct3"
  top: "InnerProduct4"
  param {
    name: "ip2_w"
    lr_mult: 1
  }
  param {
    name: "ip2_b"
    lr_mult: 2
  }
  inner_product_param {
    num_output: 50
    weight_filler {
      type: "xavier"
    }
    bias_filler {
      type: "constant"
    }
  }
}
layer {
  name: "Concat1"
  type: "Concat"
  bottom: "InnerProduct2"
  bottom: "InnerProduct4"
  top: "Concat1"
  concat_param {
    axis: 1
  }
}
layer {
  name: "InnerProduct5"
  type: "InnerProduct"
  bottom: "Concat1"
  top: "InnerProduct5"
  param {
    name: "fc1_w"
    lr_mult: 1
  }
  param {
    name: "fc1_b"
    lr_mult: 2
  }
  inner_product_param {
    num_output: 64
    weight_filler {
      type: "xavier"
    }
    bias_filler {
      type: "constant"
    }
  }
}
layer {
  name: "ReLU3"
  type: "ReLU"
  bottom: "InnerProduct5"
  top: "InnerProduct5"
}
layer {
  name: "InnerProduct6"
  type: "InnerProduct"
  bottom: "InnerProduct5"
  top: "InnerProduct6"
  param {
    name: "fc2_w"
    lr_mult: 1
  }
  param {
    name: "fc2_b"
    lr_mult: 2
  }
  inner_product_param {
    num_output: 32
    weight_filler {
      type: "xavier"
    }
    bias_filler {
      type: "constant"
    }
  }
}
layer {
  name: "ReLU4"
  type: "ReLU"
  bottom: "InnerProduct6"
  top: "InnerProduct6"
}
layer {
  name: "dt"
  type: "InnerProduct"
  bottom: "InnerProduct6"
  top: "dt"
  param {
    name: "fc3_w"
    lr_mult: 1
  }
  param {
    name: "fc3_b"
    lr_mult: 2
  }
  inner_product_param {
    num_output: 2
    weight_filler {
      type: "xavier"
    }
    bias_filler {
      type: "constant"
    }
  }
}
layer {
  name: "Convolution5"
  type: "Convolution"
  bottom: "p1"
  top: "Convolution5"
  param {
    name: "conv1_w"
    lr_mult: 1
  }
  param {
    name: "conv1_b"
    lr_mult: 2
  }
  convolution_param {
    num_output: 20
    kernel_size: 5
    stride: 1
    weight_filler {
      type: "xavier"
    }
    bias_filler {
      type: "constant"
    }
  }
}
layer {
  name: "Pooling5"
  type: "Pooling"
  bottom: "Convolution5"
  top: "Pooling5"
  pooling_param {
    pool: MAX
    kernel_size: 2
    stride: 2
  }
}
layer {
  name: "Convolution6"
  type: "Convolution"
  bottom: "Pooling5"
  top: "Convolution6"
  param {
    name: "conv2_w"
    lr_mult: 1
  }
  param {
    name: "conv2_b"
    lr_mult: 2
  }
  convolution_param {
    num_output: 50
    kernel_size: 5
    stride: 1
    weight_filler {
      type: "xavier"
    }
    bias_filler {
      type: "constant"
    }
  }
}
layer {
  name: "Pooling6"
  type: "Pooling"
  bottom: "Convolution6"
  top: "Pooling6"
  pooling_param {
    pool: MAX
    kernel_size: 2
    stride: 2
  }
}
layer {
  name: "InnerProduct7"
  type: "InnerProduct"
  bottom: "Pooling6"
  top: "InnerProduct7"
  param {
    name: "ip1_w"
    lr_mult: 1
  }
  param {
    name: "ip1_b"
    lr_mult: 2
  }
  inner_product_param {
    num_output: 100
    weight_filler {
      type: "xavier"
    }
    bias_filler {
      type: "constant"
    }
  }
}
layer {
  name: "ReLU5"
  type: "ReLU"
  bottom: "InnerProduct7"
  top: "InnerProduct7"
}
layer {
  name: "InnerProduct8"
  type: "InnerProduct"
  bottom: "InnerProduct7"
  top: "InnerProduct8"
  param {
    name: "ip2_w"
    lr_mult: 1
  }
  param {
    name: "ip2_b"
    lr_mult: 2
  }
  inner_product_param {
    num_output: 50
    weight_filler {
      type: "xavier"
    }
    bias_filler {
      type: "constant"
    }
  }
}
layer {
  name: "Convolution7"
  type: "Convolution"
  bottom: "c21"
  top: "Convolution7"
  param {
    name: "conv1_w"
    lr_mult: 1
  }
  param {
    name: "conv1_b"
    lr_mult: 2
  }
  convolution_param {
    num_output: 20
    kernel_size: 5
    stride: 1
    weight_filler {
      type: "xavier"
    }
    bias_filler {
      type: "constant"
    }
  }
}
layer {
  name: "Pooling7"
  type: "Pooling"
  bottom: "Convolution7"
  top: "Pooling7"
  pooling_param {
    pool: MAX
    kernel_size: 2
    stride: 2
  }
}
layer {
  name: "Convolution8"
  type: "Convolution"
  bottom: "Pooling7"
  top: "Convolution8"
  param {
    name: "conv2_w"
    lr_mult: 1
  }
  param {
    name: "conv2_b"
    lr_mult: 2
  }
  convolution_param {
    num_output: 50
    kernel_size: 5
    stride: 1
    weight_filler {
      type: "xavier"
    }
    bias_filler {
      type: "constant"
    }
  }
}
layer {
  name: "Pooling8"
  type: "Pooling"
  bottom: "Convolution8"
  top: "Pooling8"
  pooling_param {
    pool: MAX
    kernel_size: 2
    stride: 2
  }
}
layer {
  name: "InnerProduct9"
  type: "InnerProduct"
  bottom: "Pooling8"
  top: "InnerProduct9"
  param {
    name: "ip1_w"
    lr_mult: 1
  }
  param {
    name: "ip1_b"
    lr_mult: 2
  }
  inner_product_param {
    num_output: 100
    weight_filler {
      type: "xavier"
    }
    bias_filler {
      type: "constant"
    }
  }
}
layer {
  name: "ReLU6"
  type: "ReLU"
  bottom: "InnerProduct9"
  top: "InnerProduct9"
}
layer {
  name: "InnerProduct10"
  type: "InnerProduct"
  bottom: "InnerProduct9"
  top: "InnerProduct10"
  param {
    name: "ip2_w"
    lr_mult: 1
  }
  param {
    name: "ip2_b"
    lr_mult: 2
  }
  inner_product_param {
    num_output: 50
    weight_filler {
      type: "xavier"
    }
    bias_filler {
      type: "constant"
    }
  }
}
layer {
  name: "Concat2"
  type: "Concat"
  bottom: "InnerProduct8"
  bottom: "InnerProduct10"
  top: "Concat2"
  concat_param {
    axis: 1
  }
}
layer {
  name: "InnerProduct11"
  type: "InnerProduct"
  bottom: "Concat2"
  top: "InnerProduct11"
  param {
    name: "fc1_w"
    lr_mult: 1
  }
  param {
    name: "fc1_b"
    lr_mult: 2
  }
  inner_product_param {
    num_output: 64
    weight_filler {
      type: "xavier"
    }
    bias_filler {
      type: "constant"
    }
  }
}
layer {
  name: "ReLU7"
  type: "ReLU"
  bottom: "InnerProduct11"
  top: "InnerProduct11"
}
layer {
  name: "InnerProduct12"
  type: "InnerProduct"
  bottom: "InnerProduct11"
  top: "InnerProduct12"
  param {
    name: "fc2_w"
    lr_mult: 1
  }
  param {
    name: "fc2_b"
    lr_mult: 2
  }
  inner_product_param {
    num_output: 32
    weight_filler {
      type: "xavier"
    }
    bias_filler {
      type: "constant"
    }
  }
}
layer {
  name: "ReLU8"
  type: "ReLU"
  bottom: "InnerProduct12"
  top: "InnerProduct12"
}
layer {
  name: "dt1"
  type: "InnerProduct"
  bottom: "InnerProduct12"
  top: "dt1"
  param {
    name: "fc3_w"
    lr_mult: 1
  }
  param {
    name: "fc3_b"
    lr_mult: 2
  }
  inner_product_param {
    num_output: 2
    weight_filler {
      type: "xavier"
    }
    bias_filler {
      type: "constant"
    }
  }
}
layer {
  name: "Convolution9"
  type: "Convolution"
  bottom: "p2"
  top: "Convolution9"
  param {
    name: "conv1_w"
    lr_mult: 1
  }
  param {
    name: "conv1_b"
    lr_mult: 2
  }
  convolution_param {
    num_output: 20
    kernel_size: 5
    stride: 1
    weight_filler {
      type: "xavier"
    }
    bias_filler {
      type: "constant"
    }
  }
}
layer {
  name: "Pooling9"
  type: "Pooling"
  bottom: "Convolution9"
  top: "Pooling9"
  pooling_param {
    pool: MAX
    kernel_size: 2
    stride: 2
  }
}
layer {
  name: "Convolution10"
  type: "Convolution"
  bottom: "Pooling9"
  top: "Convolution10"
  param {
    name: "conv2_w"
    lr_mult: 1
  }
  param {
    name: "conv2_b"
    lr_mult: 2
  }
  convolution_param {
    num_output: 50
    kernel_size: 5
    stride: 1
    weight_filler {
      type: "xavier"
    }
    bias_filler {
      type: "constant"
    }
  }
}
layer {
  name: "Pooling10"
  type: "Pooling"
  bottom: "Convolution10"
  top: "Pooling10"
  pooling_param {
    pool: MAX
    kernel_size: 2
    stride: 2
  }
}
layer {
  name: "InnerProduct13"
  type: "InnerProduct"
  bottom: "Pooling10"
  top: "InnerProduct13"
  param {
    name: "ip1_w"
    lr_mult: 1
  }
  param {
    name: "ip1_b"
    lr_mult: 2
  }
  inner_product_param {
    num_output: 100
    weight_filler {
      type: "xavier"
    }
    bias_filler {
      type: "constant"
    }
  }
}
layer {
  name: "ReLU9"
  type: "ReLU"
  bottom: "InnerProduct13"
  top: "InnerProduct13"
}
layer {
  name: "InnerProduct14"
  type: "InnerProduct"
  bottom: "InnerProduct13"
  top: "InnerProduct14"
  param {
    name: "ip2_w"
    lr_mult: 1
  }
  param {
    name: "ip2_b"
    lr_mult: 2
  }
  inner_product_param {
    num_output: 50
    weight_filler {
      type: "xavier"
    }
    bias_filler {
      type: "constant"
    }
  }
}
layer {
  name: "Convolution11"
  type: "Convolution"
  bottom: "c11"
  top: "Convolution11"
  param {
    name: "conv1_w"
    lr_mult: 1
  }
  param {
    name: "conv1_b"
    lr_mult: 2
  }
  convolution_param {
    num_output: 20
    kernel_size: 5
    stride: 1
    weight_filler {
      type: "xavier"
    }
    bias_filler {
      type: "constant"
    }
  }
}
layer {
  name: "Pooling11"
  type: "Pooling"
  bottom: "Convolution11"
  top: "Pooling11"
  pooling_param {
    pool: MAX
    kernel_size: 2
    stride: 2
  }
}
layer {
  name: "Convolution12"
  type: "Convolution"
  bottom: "Pooling11"
  top: "Convolution12"
  param {
    name: "conv2_w"
    lr_mult: 1
  }
  param {
    name: "conv2_b"
    lr_mult: 2
  }
  convolution_param {
    num_output: 50
    kernel_size: 5
    stride: 1
    weight_filler {
      type: "xavier"
    }
    bias_filler {
      type: "constant"
    }
  }
}
layer {
  name: "Pooling12"
  type: "Pooling"
  bottom: "Convolution12"
  top: "Pooling12"
  pooling_param {
    pool: MAX
    kernel_size: 2
    stride: 2
  }
}
layer {
  name: "InnerProduct15"
  type: "InnerProduct"
  bottom: "Pooling12"
  top: "InnerProduct15"
  param {
    name: "ip1_w"
    lr_mult: 1
  }
  param {
    name: "ip1_b"
    lr_mult: 2
  }
  inner_product_param {
    num_output: 100
    weight_filler {
      type: "xavier"
    }
    bias_filler {
      type: "constant"
    }
  }
}
layer {
  name: "ReLU10"
  type: "ReLU"
  bottom: "InnerProduct15"
  top: "InnerProduct15"
}
layer {
  name: "InnerProduct16"
  type: "InnerProduct"
  bottom: "InnerProduct15"
  top: "InnerProduct16"
  param {
    name: "ip2_w"
    lr_mult: 1
  }
  param {
    name: "ip2_b"
    lr_mult: 2
  }
  inner_product_param {
    num_output: 50
    weight_filler {
      type: "xavier"
    }
    bias_filler {
      type: "constant"
    }
  }
}
layer {
  name: "Concat3"
  type: "Concat"
  bottom: "InnerProduct14"
  bottom: "InnerProduct16"
  top: "Concat3"
  concat_param {
    axis: 1
  }
}
layer {
  name: "InnerProduct17"
  type: "InnerProduct"
  bottom: "Concat3"
  top: "InnerProduct17"
  param {
    name: "fc1_w"
    lr_mult: 1
  }
  param {
    name: "fc1_b"
    lr_mult: 2
  }
  inner_product_param {
    num_output: 64
    weight_filler {
      type: "xavier"
    }
    bias_filler {
      type: "constant"
    }
  }
}
layer {
  name: "ReLU11"
  type: "ReLU"
  bottom: "InnerProduct17"
  top: "InnerProduct17"
}
layer {
  name: "InnerProduct18"
  type: "InnerProduct"
  bottom: "InnerProduct17"
  top: "InnerProduct18"
  param {
    name: "fc2_w"
    lr_mult: 1
  }
  param {
    name: "fc2_b"
    lr_mult: 2
  }
  inner_product_param {
    num_output: 32
    weight_filler {
      type: "xavier"
    }
    bias_filler {
      type: "constant"
    }
  }
}
layer {
  name: "ReLU12"
  type: "ReLU"
  bottom: "InnerProduct18"
  top: "InnerProduct18"
}
layer {
  name: "dt2"
  type: "InnerProduct"
  bottom: "InnerProduct18"
  top: "dt2"
  param {
    name: "fc3_w"
    lr_mult: 1
  }
  param {
    name: "fc3_b"
    lr_mult: 2
  }
  inner_product_param {
    num_output: 2
    weight_filler {
      type: "xavier"
    }
    bias_filler {
      type: "constant"
    }
  }
}
layer {
  name: "con"
  type: "Concat"
  bottom: "dt"
  bottom: "dt1"
  bottom: "dt2"
  top: "con"
  concat_param {
    axis: -1
  }
}
layer {
  name: "r1"
  type: "Reshape"
  bottom: "con"
  top: "r1"
  reshape_param {
    shape {
      dim: 0
      dim: 1
      dim: 2
      dim: -1
    }
  }
}
layer {
  name: "p"
  type: "Pooling"
  bottom: "r1"
  top: "p"
  pooling_param {
    pool: MAX
    stride: 1
    kernel_h: 1
    kernel_w: 3
  }
}
layer {
  name: "r2"
  type: "Reshape"
  bottom: "p"
  top: "r2"
  reshape_param {
    shape {
      dim: 0
      dim: 2
      dim: 1
      dim: -1
    }
  }
}
layer {
  name: "accuracy"
  type: "Accuracy"
  bottom: "r2"
  bottom: "label"
  top: "accuracy"
  include {
    phase: TEST
  }
}
layer {
  name: "loss"
  type: "HingeLoss"
  bottom: "r2"
  bottom: "label"
  top: "loss"
}
I0727 23:36:51.224457  5678 layer_factory.hpp:77] Creating layer data
I0727 23:36:51.224555  5678 net.cpp:91] Creating Layer data
I0727 23:36:51.224563  5678 net.cpp:399] data -> data
I0727 23:36:51.224575  5678 net.cpp:399] data -> label
I0727 23:36:51.224584  5678 data_transformer.cpp:25] Loading mean file from: examples/scene/scene_mean.binaryproto
I0727 23:36:51.225564  5684 db_lmdb.cpp:35] Opened lmdb examples/scene/test_pairs.lmdb
I0727 23:36:51.225682  5678 data_layer.cpp:41] output data size: 50,6,128,128
I0727 23:36:51.242120  5678 net.cpp:141] Setting up data
I0727 23:36:51.242174  5678 net.cpp:148] Top shape: 50 6 128 128 (4915200)
I0727 23:36:51.242182  5678 net.cpp:148] Top shape: 50 (50)
I0727 23:36:51.242185  5678 net.cpp:156] Memory required for data: 19661000
I0727 23:36:51.242195  5678 layer_factory.hpp:77] Creating layer label_data_1_split
I0727 23:36:51.242215  5678 net.cpp:91] Creating Layer label_data_1_split
I0727 23:36:51.242221  5678 net.cpp:425] label_data_1_split <- label
I0727 23:36:51.242228  5678 net.cpp:399] label_data_1_split -> label_data_1_split_0
I0727 23:36:51.242241  5678 net.cpp:399] label_data_1_split -> label_data_1_split_1
I0727 23:36:51.242254  5678 net.cpp:141] Setting up label_data_1_split
I0727 23:36:51.242257  5678 net.cpp:148] Top shape: 50 (50)
I0727 23:36:51.242260  5678 net.cpp:148] Top shape: 50 (50)
I0727 23:36:51.242264  5678 net.cpp:156] Memory required for data: 19661400
I0727 23:36:51.242265  5678 layer_factory.hpp:77] Creating layer i1
I0727 23:36:51.242278  5678 net.cpp:91] Creating Layer i1
I0727 23:36:51.242280  5678 net.cpp:425] i1 <- data
I0727 23:36:51.242285  5678 net.cpp:399] i1 -> i1
I0727 23:36:51.242292  5678 net.cpp:399] i1 -> i2
I0727 23:36:51.242300  5678 net.cpp:141] Setting up i1
I0727 23:36:51.242305  5678 net.cpp:148] Top shape: 50 3 128 128 (2457600)
I0727 23:36:51.242308  5678 net.cpp:148] Top shape: 50 3 128 128 (2457600)
I0727 23:36:51.242311  5678 net.cpp:156] Memory required for data: 39322200
I0727 23:36:51.242313  5678 layer_factory.hpp:77] Creating layer i1_i1_0_split
I0727 23:36:51.242318  5678 net.cpp:91] Creating Layer i1_i1_0_split
I0727 23:36:51.242321  5678 net.cpp:425] i1_i1_0_split <- i1
I0727 23:36:51.242367  5678 net.cpp:399] i1_i1_0_split -> i1_i1_0_split_0
I0727 23:36:51.242372  5678 net.cpp:399] i1_i1_0_split -> i1_i1_0_split_1
I0727 23:36:51.242377  5678 net.cpp:141] Setting up i1_i1_0_split
I0727 23:36:51.242382  5678 net.cpp:148] Top shape: 50 3 128 128 (2457600)
I0727 23:36:51.242384  5678 net.cpp:148] Top shape: 50 3 128 128 (2457600)
I0727 23:36:51.242388  5678 net.cpp:156] Memory required for data: 58983000
I0727 23:36:51.242390  5678 layer_factory.hpp:77] Creating layer i2_i1_1_split
I0727 23:36:51.242395  5678 net.cpp:91] Creating Layer i2_i1_1_split
I0727 23:36:51.242398  5678 net.cpp:425] i2_i1_1_split <- i2
I0727 23:36:51.242403  5678 net.cpp:399] i2_i1_1_split -> i2_i1_1_split_0
I0727 23:36:51.242408  5678 net.cpp:399] i2_i1_1_split -> i2_i1_1_split_1
I0727 23:36:51.242411  5678 net.cpp:141] Setting up i2_i1_1_split
I0727 23:36:51.242415  5678 net.cpp:148] Top shape: 50 3 128 128 (2457600)
I0727 23:36:51.242419  5678 net.cpp:148] Top shape: 50 3 128 128 (2457600)
I0727 23:36:51.242421  5678 net.cpp:156] Memory required for data: 78643800
I0727 23:36:51.242424  5678 layer_factory.hpp:77] Creating layer p1
I0727 23:36:51.242431  5678 net.cpp:91] Creating Layer p1
I0727 23:36:51.242434  5678 net.cpp:425] p1 <- i1_i1_0_split_0
I0727 23:36:51.242439  5678 net.cpp:399] p1 -> p1
I0727 23:36:51.242445  5678 net.cpp:141] Setting up p1
I0727 23:36:51.242449  5678 net.cpp:148] Top shape: 50 3 64 64 (614400)
I0727 23:36:51.242451  5678 net.cpp:156] Memory required for data: 81101400
I0727 23:36:51.242454  5678 layer_factory.hpp:77] Creating layer p1_p1_0_split
I0727 23:36:51.242458  5678 net.cpp:91] Creating Layer p1_p1_0_split
I0727 23:36:51.242460  5678 net.cpp:425] p1_p1_0_split <- p1
I0727 23:36:51.242465  5678 net.cpp:399] p1_p1_0_split -> p1_p1_0_split_0
I0727 23:36:51.242470  5678 net.cpp:399] p1_p1_0_split -> p1_p1_0_split_1
I0727 23:36:51.242473  5678 net.cpp:141] Setting up p1_p1_0_split
I0727 23:36:51.242476  5678 net.cpp:148] Top shape: 50 3 64 64 (614400)
I0727 23:36:51.242480  5678 net.cpp:148] Top shape: 50 3 64 64 (614400)
I0727 23:36:51.242482  5678 net.cpp:156] Memory required for data: 86016600
I0727 23:36:51.242486  5678 layer_factory.hpp:77] Creating layer p2
I0727 23:36:51.242491  5678 net.cpp:91] Creating Layer p2
I0727 23:36:51.242493  5678 net.cpp:425] p2 <- i2_i1_1_split_0
I0727 23:36:51.242498  5678 net.cpp:399] p2 -> p2
I0727 23:36:51.242502  5678 net.cpp:141] Setting up p2
I0727 23:36:51.242506  5678 net.cpp:148] Top shape: 50 3 64 64 (614400)
I0727 23:36:51.242508  5678 net.cpp:156] Memory required for data: 88474200
I0727 23:36:51.242511  5678 layer_factory.hpp:77] Creating layer p2_p2_0_split
I0727 23:36:51.242516  5678 net.cpp:91] Creating Layer p2_p2_0_split
I0727 23:36:51.242518  5678 net.cpp:425] p2_p2_0_split <- p2
I0727 23:36:51.242522  5678 net.cpp:399] p2_p2_0_split -> p2_p2_0_split_0
I0727 23:36:51.242527  5678 net.cpp:399] p2_p2_0_split -> p2_p2_0_split_1
I0727 23:36:51.242532  5678 net.cpp:141] Setting up p2_p2_0_split
I0727 23:36:51.242534  5678 net.cpp:148] Top shape: 50 3 64 64 (614400)
I0727 23:36:51.242537  5678 net.cpp:148] Top shape: 50 3 64 64 (614400)
I0727 23:36:51.242539  5678 net.cpp:156] Memory required for data: 93389400
I0727 23:36:51.242542  5678 layer_factory.hpp:77] Creating layer Input1
I0727 23:36:51.242549  5678 net.cpp:91] Creating Layer Input1
I0727 23:36:51.242553  5678 net.cpp:399] Input1 -> Input1
I0727 23:36:51.242561  5678 net.cpp:141] Setting up Input1
I0727 23:36:51.242565  5678 net.cpp:148] Top shape: 50 3 64 64 (614400)
I0727 23:36:51.242568  5678 net.cpp:156] Memory required for data: 95847000
I0727 23:36:51.242570  5678 layer_factory.hpp:77] Creating layer c11
I0727 23:36:51.242576  5678 net.cpp:91] Creating Layer c11
I0727 23:36:51.242579  5678 net.cpp:425] c11 <- i1_i1_0_split_1
I0727 23:36:51.242583  5678 net.cpp:425] c11 <- Input1
I0727 23:36:51.242586  5678 net.cpp:399] c11 -> c11
I0727 23:36:51.242594  5678 net.cpp:141] Setting up c11
I0727 23:36:51.242596  5678 net.cpp:148] Top shape: 50 3 64 64 (614400)
I0727 23:36:51.242605  5678 net.cpp:156] Memory required for data: 98304600
I0727 23:36:51.242609  5678 layer_factory.hpp:77] Creating layer Input2
I0727 23:36:51.242614  5678 net.cpp:91] Creating Layer Input2
I0727 23:36:51.242617  5678 net.cpp:399] Input2 -> Input2
I0727 23:36:51.242622  5678 net.cpp:141] Setting up Input2
I0727 23:36:51.242626  5678 net.cpp:148] Top shape: 50 3 64 64 (614400)
I0727 23:36:51.242629  5678 net.cpp:156] Memory required for data: 100762200
I0727 23:36:51.242631  5678 layer_factory.hpp:77] Creating layer c21
I0727 23:36:51.242636  5678 net.cpp:91] Creating Layer c21
I0727 23:36:51.242640  5678 net.cpp:425] c21 <- i2_i1_1_split_1
I0727 23:36:51.242642  5678 net.cpp:425] c21 <- Input2
I0727 23:36:51.242646  5678 net.cpp:399] c21 -> c21
I0727 23:36:51.242651  5678 net.cpp:141] Setting up c21
I0727 23:36:51.242655  5678 net.cpp:148] Top shape: 50 3 64 64 (614400)
I0727 23:36:51.242657  5678 net.cpp:156] Memory required for data: 103219800
I0727 23:36:51.242660  5678 layer_factory.hpp:77] Creating layer Convolution1
I0727 23:36:51.242671  5678 net.cpp:91] Creating Layer Convolution1
I0727 23:36:51.242673  5678 net.cpp:425] Convolution1 <- p1_p1_0_split_0
I0727 23:36:51.242678  5678 net.cpp:399] Convolution1 -> Convolution1
I0727 23:36:51.242715  5678 net.cpp:141] Setting up Convolution1
I0727 23:36:51.242719  5678 net.cpp:148] Top shape: 50 20 60 60 (3600000)
I0727 23:36:51.244695  5678 net.cpp:156] Memory required for data: 117619800
I0727 23:36:51.244786  5678 layer_factory.hpp:77] Creating layer Pooling1
I0727 23:36:51.244797  5678 net.cpp:91] Creating Layer Pooling1
I0727 23:36:51.244801  5678 net.cpp:425] Pooling1 <- Convolution1
I0727 23:36:51.244807  5678 net.cpp:399] Pooling1 -> Pooling1
I0727 23:36:51.244818  5678 net.cpp:141] Setting up Pooling1
I0727 23:36:51.244825  5678 net.cpp:148] Top shape: 50 20 30 30 (900000)
I0727 23:36:51.244827  5678 net.cpp:156] Memory required for data: 121219800
I0727 23:36:51.244830  5678 layer_factory.hpp:77] Creating layer Convolution2
I0727 23:36:51.244840  5678 net.cpp:91] Creating Layer Convolution2
I0727 23:36:51.244843  5678 net.cpp:425] Convolution2 <- Pooling1
I0727 23:36:51.244848  5678 net.cpp:399] Convolution2 -> Convolution2
I0727 23:36:51.245028  5678 net.cpp:141] Setting up Convolution2
I0727 23:36:51.245031  5678 net.cpp:148] Top shape: 50 50 26 26 (1690000)
I0727 23:36:51.245033  5678 net.cpp:156] Memory required for data: 127979800
I0727 23:36:51.245039  5678 layer_factory.hpp:77] Creating layer Pooling2
I0727 23:36:51.245046  5678 net.cpp:91] Creating Layer Pooling2
I0727 23:36:51.245049  5678 net.cpp:425] Pooling2 <- Convolution2
I0727 23:36:51.245054  5678 net.cpp:399] Pooling2 -> Pooling2
I0727 23:36:51.245059  5678 net.cpp:141] Setting up Pooling2
I0727 23:36:51.245062  5678 net.cpp:148] Top shape: 50 50 13 13 (422500)
I0727 23:36:51.245064  5678 net.cpp:156] Memory required for data: 129669800
I0727 23:36:51.245067  5678 layer_factory.hpp:77] Creating layer InnerProduct1
I0727 23:36:51.245074  5678 net.cpp:91] Creating Layer InnerProduct1
I0727 23:36:51.245076  5678 net.cpp:425] InnerProduct1 <- Pooling2
I0727 23:36:51.245080  5678 net.cpp:399] InnerProduct1 -> InnerProduct1
I0727 23:36:51.253844  5678 net.cpp:141] Setting up InnerProduct1
I0727 23:36:51.253892  5678 net.cpp:148] Top shape: 50 100 (5000)
I0727 23:36:51.253898  5678 net.cpp:156] Memory required for data: 129689800
I0727 23:36:51.253921  5678 layer_factory.hpp:77] Creating layer ReLU1
I0727 23:36:51.253947  5678 net.cpp:91] Creating Layer ReLU1
I0727 23:36:51.253955  5678 net.cpp:425] ReLU1 <- InnerProduct1
I0727 23:36:51.253963  5678 net.cpp:386] ReLU1 -> InnerProduct1 (in-place)
I0727 23:36:51.253976  5678 net.cpp:141] Setting up ReLU1
I0727 23:36:51.253983  5678 net.cpp:148] Top shape: 50 100 (5000)
I0727 23:36:51.253986  5678 net.cpp:156] Memory required for data: 129709800
I0727 23:36:51.253989  5678 layer_factory.hpp:77] Creating layer InnerProduct2
I0727 23:36:51.254003  5678 net.cpp:91] Creating Layer InnerProduct2
I0727 23:36:51.254007  5678 net.cpp:425] InnerProduct2 <- InnerProduct1
I0727 23:36:51.254067  5678 net.cpp:399] InnerProduct2 -> InnerProduct2
I0727 23:36:51.254118  5678 net.cpp:141] Setting up InnerProduct2
I0727 23:36:51.254124  5678 net.cpp:148] Top shape: 50 50 (2500)
I0727 23:36:51.254127  5678 net.cpp:156] Memory required for data: 129719800
I0727 23:36:51.254132  5678 layer_factory.hpp:77] Creating layer Convolution3
I0727 23:36:51.254142  5678 net.cpp:91] Creating Layer Convolution3
I0727 23:36:51.254146  5678 net.cpp:425] Convolution3 <- p2_p2_0_split_0
I0727 23:36:51.254150  5678 net.cpp:399] Convolution3 -> Convolution3
I0727 23:36:51.254182  5678 net.cpp:141] Setting up Convolution3
I0727 23:36:51.254187  5678 net.cpp:148] Top shape: 50 20 60 60 (3600000)
I0727 23:36:51.254189  5678 net.cpp:156] Memory required for data: 144119800
I0727 23:36:51.254195  5678 net.cpp:484] Sharing parameters 'conv1_w' owned by layer 'Convolution1', param index 0
I0727 23:36:51.254199  5678 net.cpp:484] Sharing parameters 'conv1_b' owned by layer 'Convolution1', param index 1
I0727 23:36:51.254204  5678 layer_factory.hpp:77] Creating layer Pooling3
I0727 23:36:51.254210  5678 net.cpp:91] Creating Layer Pooling3
I0727 23:36:51.254214  5678 net.cpp:425] Pooling3 <- Convolution3
I0727 23:36:51.254218  5678 net.cpp:399] Pooling3 -> Pooling3
I0727 23:36:51.254226  5678 net.cpp:141] Setting up Pooling3
I0727 23:36:51.254230  5678 net.cpp:148] Top shape: 50 20 30 30 (900000)
I0727 23:36:51.254232  5678 net.cpp:156] Memory required for data: 147719800
I0727 23:36:51.254235  5678 layer_factory.hpp:77] Creating layer Convolution4
I0727 23:36:51.254242  5678 net.cpp:91] Creating Layer Convolution4
I0727 23:36:51.254245  5678 net.cpp:425] Convolution4 <- Pooling3
I0727 23:36:51.254251  5678 net.cpp:399] Convolution4 -> Convolution4
I0727 23:36:51.254427  5678 net.cpp:141] Setting up Convolution4
I0727 23:36:51.254432  5678 net.cpp:148] Top shape: 50 50 26 26 (1690000)
I0727 23:36:51.254434  5678 net.cpp:156] Memory required for data: 154479800
I0727 23:36:51.254437  5678 net.cpp:484] Sharing parameters 'conv2_w' owned by layer 'Convolution2', param index 0
I0727 23:36:51.254441  5678 net.cpp:484] Sharing parameters 'conv2_b' owned by layer 'Convolution2', param index 1
I0727 23:36:51.254444  5678 layer_factory.hpp:77] Creating layer Pooling4
I0727 23:36:51.254449  5678 net.cpp:91] Creating Layer Pooling4
I0727 23:36:51.254452  5678 net.cpp:425] Pooling4 <- Convolution4
I0727 23:36:51.254456  5678 net.cpp:399] Pooling4 -> Pooling4
I0727 23:36:51.254462  5678 net.cpp:141] Setting up Pooling4
I0727 23:36:51.254465  5678 net.cpp:148] Top shape: 50 50 13 13 (422500)
I0727 23:36:51.254467  5678 net.cpp:156] Memory required for data: 156169800
I0727 23:36:51.254470  5678 layer_factory.hpp:77] Creating layer InnerProduct3
I0727 23:36:51.254475  5678 net.cpp:91] Creating Layer InnerProduct3
I0727 23:36:51.254478  5678 net.cpp:425] InnerProduct3 <- Pooling4
I0727 23:36:51.254482  5678 net.cpp:399] InnerProduct3 -> InnerProduct3
I0727 23:36:51.271565  5678 net.cpp:141] Setting up InnerProduct3
I0727 23:36:51.271617  5678 net.cpp:148] Top shape: 50 100 (5000)
I0727 23:36:51.271623  5678 net.cpp:156] Memory required for data: 156189800
I0727 23:36:51.271634  5678 net.cpp:484] Sharing parameters 'ip1_w' owned by layer 'InnerProduct1', param index 0
I0727 23:36:51.271643  5678 net.cpp:484] Sharing parameters 'ip1_b' owned by layer 'InnerProduct1', param index 1
I0727 23:36:51.271649  5678 layer_factory.hpp:77] Creating layer ReLU2
I0727 23:36:51.271666  5678 net.cpp:91] Creating Layer ReLU2
I0727 23:36:51.271673  5678 net.cpp:425] ReLU2 <- InnerProduct3
I0727 23:36:51.271683  5678 net.cpp:386] ReLU2 -> InnerProduct3 (in-place)
I0727 23:36:51.271697  5678 net.cpp:141] Setting up ReLU2
I0727 23:36:51.271703  5678 net.cpp:148] Top shape: 50 100 (5000)
I0727 23:36:51.271708  5678 net.cpp:156] Memory required for data: 156209800
I0727 23:36:51.271713  5678 layer_factory.hpp:77] Creating layer InnerProduct4
I0727 23:36:51.271724  5678 net.cpp:91] Creating Layer InnerProduct4
I0727 23:36:51.271729  5678 net.cpp:425] InnerProduct4 <- InnerProduct3
I0727 23:36:51.271785  5678 net.cpp:399] InnerProduct4 -> InnerProduct4
I0727 23:36:51.271857  5678 net.cpp:141] Setting up InnerProduct4
I0727 23:36:51.271864  5678 net.cpp:148] Top shape: 50 50 (2500)
I0727 23:36:51.271868  5678 net.cpp:156] Memory required for data: 156219800
I0727 23:36:51.271873  5678 net.cpp:484] Sharing parameters 'ip2_w' owned by layer 'InnerProduct2', param index 0
I0727 23:36:51.271880  5678 net.cpp:484] Sharing parameters 'ip2_b' owned by layer 'InnerProduct2', param index 1
I0727 23:36:51.271885  5678 layer_factory.hpp:77] Creating layer Concat1
I0727 23:36:51.271895  5678 net.cpp:91] Creating Layer Concat1
I0727 23:36:51.271900  5678 net.cpp:425] Concat1 <- InnerProduct2
I0727 23:36:51.271906  5678 net.cpp:425] Concat1 <- InnerProduct4
I0727 23:36:51.271914  5678 net.cpp:399] Concat1 -> Concat1
I0727 23:36:51.271930  5678 net.cpp:141] Setting up Concat1
I0727 23:36:51.271939  5678 net.cpp:148] Top shape: 50 100 (5000)
I0727 23:36:51.271942  5678 net.cpp:156] Memory required for data: 156239800
I0727 23:36:51.271946  5678 layer_factory.hpp:77] Creating layer InnerProduct5
I0727 23:36:51.271956  5678 net.cpp:91] Creating Layer InnerProduct5
I0727 23:36:51.271961  5678 net.cpp:425] InnerProduct5 <- Concat1
I0727 23:36:51.271968  5678 net.cpp:399] InnerProduct5 -> InnerProduct5
I0727 23:36:51.272044  5678 net.cpp:141] Setting up InnerProduct5
I0727 23:36:51.272052  5678 net.cpp:148] Top shape: 50 64 (3200)
I0727 23:36:51.272056  5678 net.cpp:156] Memory required for data: 156252600
I0727 23:36:51.272069  5678 layer_factory.hpp:77] Creating layer ReLU3
I0727 23:36:51.272078  5678 net.cpp:91] Creating Layer ReLU3
I0727 23:36:51.272083  5678 net.cpp:425] ReLU3 <- InnerProduct5
I0727 23:36:51.272089  5678 net.cpp:386] ReLU3 -> InnerProduct5 (in-place)
I0727 23:36:51.272096  5678 net.cpp:141] Setting up ReLU3
I0727 23:36:51.272102  5678 net.cpp:148] Top shape: 50 64 (3200)
I0727 23:36:51.272106  5678 net.cpp:156] Memory required for data: 156265400
I0727 23:36:51.272111  5678 layer_factory.hpp:77] Creating layer InnerProduct6
I0727 23:36:51.272119  5678 net.cpp:91] Creating Layer InnerProduct6
I0727 23:36:51.272125  5678 net.cpp:425] InnerProduct6 <- InnerProduct5
I0727 23:36:51.272131  5678 net.cpp:399] InnerProduct6 -> InnerProduct6
I0727 23:36:51.272164  5678 net.cpp:141] Setting up InnerProduct6
I0727 23:36:51.272171  5678 net.cpp:148] Top shape: 50 32 (1600)
I0727 23:36:51.272176  5678 net.cpp:156] Memory required for data: 156271800
I0727 23:36:51.272182  5678 layer_factory.hpp:77] Creating layer ReLU4
I0727 23:36:51.272188  5678 net.cpp:91] Creating Layer ReLU4
I0727 23:36:51.272193  5678 net.cpp:425] ReLU4 <- InnerProduct6
I0727 23:36:51.272200  5678 net.cpp:386] ReLU4 -> InnerProduct6 (in-place)
I0727 23:36:51.272207  5678 net.cpp:141] Setting up ReLU4
I0727 23:36:51.272212  5678 net.cpp:148] Top shape: 50 32 (1600)
I0727 23:36:51.272217  5678 net.cpp:156] Memory required for data: 156278200
I0727 23:36:51.272222  5678 layer_factory.hpp:77] Creating layer dt
I0727 23:36:51.272235  5678 net.cpp:91] Creating Layer dt
I0727 23:36:51.272239  5678 net.cpp:425] dt <- InnerProduct6
I0727 23:36:51.272248  5678 net.cpp:399] dt -> dt
I0727 23:36:51.272263  5678 net.cpp:141] Setting up dt
I0727 23:36:51.272269  5678 net.cpp:148] Top shape: 50 2 (100)
I0727 23:36:51.272274  5678 net.cpp:156] Memory required for data: 156278600
I0727 23:36:51.272280  5678 layer_factory.hpp:77] Creating layer Convolution5
I0727 23:36:51.272295  5678 net.cpp:91] Creating Layer Convolution5
I0727 23:36:51.272301  5678 net.cpp:425] Convolution5 <- p1_p1_0_split_1
I0727 23:36:51.272310  5678 net.cpp:399] Convolution5 -> Convolution5
I0727 23:36:51.272362  5678 net.cpp:141] Setting up Convolution5
I0727 23:36:51.272369  5678 net.cpp:148] Top shape: 50 20 60 60 (3600000)
I0727 23:36:51.272373  5678 net.cpp:156] Memory required for data: 170678600
I0727 23:36:51.272380  5678 net.cpp:484] Sharing parameters 'conv1_w' owned by layer 'Convolution1', param index 0
I0727 23:36:51.272387  5678 net.cpp:484] Sharing parameters 'conv1_b' owned by layer 'Convolution1', param index 1
I0727 23:36:51.272424  5678 layer_factory.hpp:77] Creating layer Pooling5
I0727 23:36:51.272434  5678 net.cpp:91] Creating Layer Pooling5
I0727 23:36:51.272440  5678 net.cpp:425] Pooling5 <- Convolution5
I0727 23:36:51.272449  5678 net.cpp:399] Pooling5 -> Pooling5
I0727 23:36:51.272461  5678 net.cpp:141] Setting up Pooling5
I0727 23:36:51.272469  5678 net.cpp:148] Top shape: 50 20 30 30 (900000)
I0727 23:36:51.272472  5678 net.cpp:156] Memory required for data: 174278600
I0727 23:36:51.272477  5678 layer_factory.hpp:77] Creating layer Convolution6
I0727 23:36:51.272490  5678 net.cpp:91] Creating Layer Convolution6
I0727 23:36:51.272495  5678 net.cpp:425] Convolution6 <- Pooling5
I0727 23:36:51.272502  5678 net.cpp:399] Convolution6 -> Convolution6
I0727 23:36:51.272773  5678 net.cpp:141] Setting up Convolution6
I0727 23:36:51.272791  5678 net.cpp:148] Top shape: 50 50 26 26 (1690000)
I0727 23:36:51.272795  5678 net.cpp:156] Memory required for data: 181038600
I0727 23:36:51.272804  5678 net.cpp:484] Sharing parameters 'conv2_w' owned by layer 'Convolution2', param index 0
I0727 23:36:51.272809  5678 net.cpp:484] Sharing parameters 'conv2_b' owned by layer 'Convolution2', param index 1
I0727 23:36:51.272814  5678 layer_factory.hpp:77] Creating layer Pooling6
I0727 23:36:51.272825  5678 net.cpp:91] Creating Layer Pooling6
I0727 23:36:51.272830  5678 net.cpp:425] Pooling6 <- Convolution6
I0727 23:36:51.272838  5678 net.cpp:399] Pooling6 -> Pooling6
I0727 23:36:51.272850  5678 net.cpp:141] Setting up Pooling6
I0727 23:36:51.272856  5678 net.cpp:148] Top shape: 50 50 13 13 (422500)
I0727 23:36:51.272861  5678 net.cpp:156] Memory required for data: 182728600
I0727 23:36:51.272866  5678 layer_factory.hpp:77] Creating layer InnerProduct7
I0727 23:36:51.272876  5678 net.cpp:91] Creating Layer InnerProduct7
I0727 23:36:51.272881  5678 net.cpp:425] InnerProduct7 <- Pooling6
I0727 23:36:51.272888  5678 net.cpp:399] InnerProduct7 -> InnerProduct7
I0727 23:36:51.282037  5678 net.cpp:141] Setting up InnerProduct7
I0727 23:36:51.282073  5678 net.cpp:148] Top shape: 50 100 (5000)
I0727 23:36:51.282078  5678 net.cpp:156] Memory required for data: 182748600
I0727 23:36:51.282088  5678 net.cpp:484] Sharing parameters 'ip1_w' owned by layer 'InnerProduct1', param index 0
I0727 23:36:51.282094  5678 net.cpp:484] Sharing parameters 'ip1_b' owned by layer 'InnerProduct1', param index 1
I0727 23:36:51.282099  5678 layer_factory.hpp:77] Creating layer ReLU5
I0727 23:36:51.282111  5678 net.cpp:91] Creating Layer ReLU5
I0727 23:36:51.282119  5678 net.cpp:425] ReLU5 <- InnerProduct7
I0727 23:36:51.282126  5678 net.cpp:386] ReLU5 -> InnerProduct7 (in-place)
I0727 23:36:51.282137  5678 net.cpp:141] Setting up ReLU5
I0727 23:36:51.282142  5678 net.cpp:148] Top shape: 50 100 (5000)
I0727 23:36:51.282146  5678 net.cpp:156] Memory required for data: 182768600
I0727 23:36:51.282150  5678 layer_factory.hpp:77] Creating layer InnerProduct8
I0727 23:36:51.282160  5678 net.cpp:91] Creating Layer InnerProduct8
I0727 23:36:51.282165  5678 net.cpp:425] InnerProduct8 <- InnerProduct7
I0727 23:36:51.282171  5678 net.cpp:399] InnerProduct8 -> InnerProduct8
I0727 23:36:51.282251  5678 net.cpp:141] Setting up InnerProduct8
I0727 23:36:51.282263  5678 net.cpp:148] Top shape: 50 50 (2500)
I0727 23:36:51.282266  5678 net.cpp:156] Memory required for data: 182778600
I0727 23:36:51.282310  5678 net.cpp:484] Sharing parameters 'ip2_w' owned by layer 'InnerProduct2', param index 0
I0727 23:36:51.282321  5678 net.cpp:484] Sharing parameters 'ip2_b' owned by layer 'InnerProduct2', param index 1
I0727 23:36:51.282325  5678 layer_factory.hpp:77] Creating layer Convolution7
I0727 23:36:51.282340  5678 net.cpp:91] Creating Layer Convolution7
I0727 23:36:51.282346  5678 net.cpp:425] Convolution7 <- c21
I0727 23:36:51.282354  5678 net.cpp:399] Convolution7 -> Convolution7
I0727 23:36:51.282398  5678 net.cpp:141] Setting up Convolution7
I0727 23:36:51.282407  5678 net.cpp:148] Top shape: 50 20 60 60 (3600000)
I0727 23:36:51.282449  5678 net.cpp:156] Memory required for data: 197178600
I0727 23:36:51.282455  5678 net.cpp:484] Sharing parameters 'conv1_w' owned by layer 'Convolution1', param index 0
I0727 23:36:51.282461  5678 net.cpp:484] Sharing parameters 'conv1_b' owned by layer 'Convolution1', param index 1
I0727 23:36:51.282465  5678 layer_factory.hpp:77] Creating layer Pooling7
I0727 23:36:51.282649  5678 net.cpp:91] Creating Layer Pooling7
I0727 23:36:51.282658  5678 net.cpp:425] Pooling7 <- Convolution7
I0727 23:36:51.282670  5678 net.cpp:399] Pooling7 -> Pooling7
I0727 23:36:51.282688  5678 net.cpp:141] Setting up Pooling7
I0727 23:36:51.282697  5678 net.cpp:148] Top shape: 50 20 30 30 (900000)
I0727 23:36:51.282701  5678 net.cpp:156] Memory required for data: 200778600
I0727 23:36:51.282706  5678 layer_factory.hpp:77] Creating layer Convolution8
I0727 23:36:51.282722  5678 net.cpp:91] Creating Layer Convolution8
I0727 23:36:51.282727  5678 net.cpp:425] Convolution8 <- Pooling7
I0727 23:36:51.282735  5678 net.cpp:399] Convolution8 -> Convolution8
I0727 23:36:51.283015  5678 net.cpp:141] Setting up Convolution8
I0727 23:36:51.283030  5678 net.cpp:148] Top shape: 50 50 26 26 (1690000)
I0727 23:36:51.283035  5678 net.cpp:156] Memory required for data: 207538600
I0727 23:36:51.283054  5678 net.cpp:484] Sharing parameters 'conv2_w' owned by layer 'Convolution2', param index 0
I0727 23:36:51.283063  5678 net.cpp:484] Sharing parameters 'conv2_b' owned by layer 'Convolution2', param index 1
I0727 23:36:51.283068  5678 layer_factory.hpp:77] Creating layer Pooling8
I0727 23:36:51.283078  5678 net.cpp:91] Creating Layer Pooling8
I0727 23:36:51.283083  5678 net.cpp:425] Pooling8 <- Convolution8
I0727 23:36:51.283092  5678 net.cpp:399] Pooling8 -> Pooling8
I0727 23:36:51.283104  5678 net.cpp:141] Setting up Pooling8
I0727 23:36:51.283110  5678 net.cpp:148] Top shape: 50 50 13 13 (422500)
I0727 23:36:51.283115  5678 net.cpp:156] Memory required for data: 209228600
I0727 23:36:51.283120  5678 layer_factory.hpp:77] Creating layer InnerProduct9
I0727 23:36:51.283131  5678 net.cpp:91] Creating Layer InnerProduct9
I0727 23:36:51.283136  5678 net.cpp:425] InnerProduct9 <- Pooling8
I0727 23:36:51.283145  5678 net.cpp:399] InnerProduct9 -> InnerProduct9
I0727 23:36:51.293004  5678 net.cpp:141] Setting up InnerProduct9
I0727 23:36:51.293046  5678 net.cpp:148] Top shape: 50 100 (5000)
I0727 23:36:51.293051  5678 net.cpp:156] Memory required for data: 209248600
I0727 23:36:51.293061  5678 net.cpp:484] Sharing parameters 'ip1_w' owned by layer 'InnerProduct1', param index 0
I0727 23:36:51.293066  5678 net.cpp:484] Sharing parameters 'ip1_b' owned by layer 'InnerProduct1', param index 1
I0727 23:36:51.293069  5678 layer_factory.hpp:77] Creating layer ReLU6
I0727 23:36:51.293081  5678 net.cpp:91] Creating Layer ReLU6
I0727 23:36:51.293086  5678 net.cpp:425] ReLU6 <- InnerProduct9
I0727 23:36:51.293092  5678 net.cpp:386] ReLU6 -> InnerProduct9 (in-place)
I0727 23:36:51.293102  5678 net.cpp:141] Setting up ReLU6
I0727 23:36:51.293105  5678 net.cpp:148] Top shape: 50 100 (5000)
I0727 23:36:51.293107  5678 net.cpp:156] Memory required for data: 209268600
I0727 23:36:51.293110  5678 layer_factory.hpp:77] Creating layer InnerProduct10
I0727 23:36:51.293118  5678 net.cpp:91] Creating Layer InnerProduct10
I0727 23:36:51.293120  5678 net.cpp:425] InnerProduct10 <- InnerProduct9
I0727 23:36:51.293124  5678 net.cpp:399] InnerProduct10 -> InnerProduct10
I0727 23:36:51.293176  5678 net.cpp:141] Setting up InnerProduct10
I0727 23:36:51.293180  5678 net.cpp:148] Top shape: 50 50 (2500)
I0727 23:36:51.293182  5678 net.cpp:156] Memory required for data: 209278600
I0727 23:36:51.293186  5678 net.cpp:484] Sharing parameters 'ip2_w' owned by layer 'InnerProduct2', param index 0
I0727 23:36:51.293190  5678 net.cpp:484] Sharing parameters 'ip2_b' owned by layer 'InnerProduct2', param index 1
I0727 23:36:51.293192  5678 layer_factory.hpp:77] Creating layer Concat2
I0727 23:36:51.293198  5678 net.cpp:91] Creating Layer Concat2
I0727 23:36:51.293200  5678 net.cpp:425] Concat2 <- InnerProduct8
I0727 23:36:51.293228  5678 net.cpp:425] Concat2 <- InnerProduct10
I0727 23:36:51.293234  5678 net.cpp:399] Concat2 -> Concat2
I0727 23:36:51.293241  5678 net.cpp:141] Setting up Concat2
I0727 23:36:51.293246  5678 net.cpp:148] Top shape: 50 100 (5000)
I0727 23:36:51.293247  5678 net.cpp:156] Memory required for data: 209298600
I0727 23:36:51.293251  5678 layer_factory.hpp:77] Creating layer InnerProduct11
I0727 23:36:51.293256  5678 net.cpp:91] Creating Layer InnerProduct11
I0727 23:36:51.293259  5678 net.cpp:425] InnerProduct11 <- Concat2
I0727 23:36:51.293263  5678 net.cpp:399] InnerProduct11 -> InnerProduct11
I0727 23:36:51.293311  5678 net.cpp:141] Setting up InnerProduct11
I0727 23:36:51.293315  5678 net.cpp:148] Top shape: 50 64 (3200)
I0727 23:36:51.293318  5678 net.cpp:156] Memory required for data: 209311400
I0727 23:36:51.293321  5678 net.cpp:484] Sharing parameters 'fc1_w' owned by layer 'InnerProduct5', param index 0
I0727 23:36:51.293324  5678 net.cpp:484] Sharing parameters 'fc1_b' owned by layer 'InnerProduct5', param index 1
I0727 23:36:51.293328  5678 layer_factory.hpp:77] Creating layer ReLU7
I0727 23:36:51.293331  5678 net.cpp:91] Creating Layer ReLU7
I0727 23:36:51.293334  5678 net.cpp:425] ReLU7 <- InnerProduct11
I0727 23:36:51.293337  5678 net.cpp:386] ReLU7 -> InnerProduct11 (in-place)
I0727 23:36:51.293341  5678 net.cpp:141] Setting up ReLU7
I0727 23:36:51.293345  5678 net.cpp:148] Top shape: 50 64 (3200)
I0727 23:36:51.293347  5678 net.cpp:156] Memory required for data: 209324200
I0727 23:36:51.293349  5678 layer_factory.hpp:77] Creating layer InnerProduct12
I0727 23:36:51.293354  5678 net.cpp:91] Creating Layer InnerProduct12
I0727 23:36:51.293357  5678 net.cpp:425] InnerProduct12 <- InnerProduct11
I0727 23:36:51.293361  5678 net.cpp:399] InnerProduct12 -> InnerProduct12
I0727 23:36:51.293381  5678 net.cpp:141] Setting up InnerProduct12
I0727 23:36:51.293385  5678 net.cpp:148] Top shape: 50 32 (1600)
I0727 23:36:51.293387  5678 net.cpp:156] Memory required for data: 209330600
I0727 23:36:51.293390  5678 net.cpp:484] Sharing parameters 'fc2_w' owned by layer 'InnerProduct6', param index 0
I0727 23:36:51.293393  5678 net.cpp:484] Sharing parameters 'fc2_b' owned by layer 'InnerProduct6', param index 1
I0727 23:36:51.293395  5678 layer_factory.hpp:77] Creating layer ReLU8
I0727 23:36:51.293400  5678 net.cpp:91] Creating Layer ReLU8
I0727 23:36:51.293402  5678 net.cpp:425] ReLU8 <- InnerProduct12
I0727 23:36:51.293406  5678 net.cpp:386] ReLU8 -> InnerProduct12 (in-place)
I0727 23:36:51.293408  5678 net.cpp:141] Setting up ReLU8
I0727 23:36:51.293411  5678 net.cpp:148] Top shape: 50 32 (1600)
I0727 23:36:51.293414  5678 net.cpp:156] Memory required for data: 209337000
I0727 23:36:51.293416  5678 layer_factory.hpp:77] Creating layer dt1
I0727 23:36:51.293421  5678 net.cpp:91] Creating Layer dt1
I0727 23:36:51.293423  5678 net.cpp:425] dt1 <- InnerProduct12
I0727 23:36:51.293428  5678 net.cpp:399] dt1 -> dt1
I0727 23:36:51.293436  5678 net.cpp:141] Setting up dt1
I0727 23:36:51.293439  5678 net.cpp:148] Top shape: 50 2 (100)
I0727 23:36:51.293442  5678 net.cpp:156] Memory required for data: 209337400
I0727 23:36:51.293444  5678 net.cpp:484] Sharing parameters 'fc3_w' owned by layer 'dt', param index 0
I0727 23:36:51.293447  5678 net.cpp:484] Sharing parameters 'fc3_b' owned by layer 'dt', param index 1
I0727 23:36:51.293450  5678 layer_factory.hpp:77] Creating layer Convolution9
I0727 23:36:51.293458  5678 net.cpp:91] Creating Layer Convolution9
I0727 23:36:51.293462  5678 net.cpp:425] Convolution9 <- p2_p2_0_split_1
I0727 23:36:51.293467  5678 net.cpp:399] Convolution9 -> Convolution9
I0727 23:36:51.293498  5678 net.cpp:141] Setting up Convolution9
I0727 23:36:51.293503  5678 net.cpp:148] Top shape: 50 20 60 60 (3600000)
I0727 23:36:51.293505  5678 net.cpp:156] Memory required for data: 223737400
I0727 23:36:51.293509  5678 net.cpp:484] Sharing parameters 'conv1_w' owned by layer 'Convolution1', param index 0
I0727 23:36:51.293512  5678 net.cpp:484] Sharing parameters 'conv1_b' owned by layer 'Convolution1', param index 1
I0727 23:36:51.293527  5678 layer_factory.hpp:77] Creating layer Pooling9
I0727 23:36:51.293534  5678 net.cpp:91] Creating Layer Pooling9
I0727 23:36:51.293537  5678 net.cpp:425] Pooling9 <- Convolution9
I0727 23:36:51.293542  5678 net.cpp:399] Pooling9 -> Pooling9
I0727 23:36:51.293551  5678 net.cpp:141] Setting up Pooling9
I0727 23:36:51.293555  5678 net.cpp:148] Top shape: 50 20 30 30 (900000)
I0727 23:36:51.293557  5678 net.cpp:156] Memory required for data: 227337400
I0727 23:36:51.293560  5678 layer_factory.hpp:77] Creating layer Convolution10
I0727 23:36:51.293568  5678 net.cpp:91] Creating Layer Convolution10
I0727 23:36:51.293571  5678 net.cpp:425] Convolution10 <- Pooling9
I0727 23:36:51.293576  5678 net.cpp:399] Convolution10 -> Convolution10
I0727 23:36:51.293766  5678 net.cpp:141] Setting up Convolution10
I0727 23:36:51.293773  5678 net.cpp:148] Top shape: 50 50 26 26 (1690000)
I0727 23:36:51.293776  5678 net.cpp:156] Memory required for data: 234097400
I0727 23:36:51.293779  5678 net.cpp:484] Sharing parameters 'conv2_w' owned by layer 'Convolution2', param index 0
I0727 23:36:51.293783  5678 net.cpp:484] Sharing parameters 'conv2_b' owned by layer 'Convolution2', param index 1
I0727 23:36:51.293787  5678 layer_factory.hpp:77] Creating layer Pooling10
I0727 23:36:51.293792  5678 net.cpp:91] Creating Layer Pooling10
I0727 23:36:51.293794  5678 net.cpp:425] Pooling10 <- Convolution10
I0727 23:36:51.293799  5678 net.cpp:399] Pooling10 -> Pooling10
I0727 23:36:51.293805  5678 net.cpp:141] Setting up Pooling10
I0727 23:36:51.293808  5678 net.cpp:148] Top shape: 50 50 13 13 (422500)
I0727 23:36:51.293812  5678 net.cpp:156] Memory required for data: 235787400
I0727 23:36:51.293813  5678 layer_factory.hpp:77] Creating layer InnerProduct13
I0727 23:36:51.293819  5678 net.cpp:91] Creating Layer InnerProduct13
I0727 23:36:51.293823  5678 net.cpp:425] InnerProduct13 <- Pooling10
I0727 23:36:51.293826  5678 net.cpp:399] InnerProduct13 -> InnerProduct13
I0727 23:36:51.301978  5678 net.cpp:141] Setting up InnerProduct13
I0727 23:36:51.302070  5678 net.cpp:148] Top shape: 50 100 (5000)
I0727 23:36:51.302078  5678 net.cpp:156] Memory required for data: 235807400
I0727 23:36:51.302090  5678 net.cpp:484] Sharing parameters 'ip1_w' owned by layer 'InnerProduct1', param index 0
I0727 23:36:51.302099  5678 net.cpp:484] Sharing parameters 'ip1_b' owned by layer 'InnerProduct1', param index 1
I0727 23:36:51.302103  5678 layer_factory.hpp:77] Creating layer ReLU9
I0727 23:36:51.302117  5678 net.cpp:91] Creating Layer ReLU9
I0727 23:36:51.302124  5678 net.cpp:425] ReLU9 <- InnerProduct13
I0727 23:36:51.302134  5678 net.cpp:386] ReLU9 -> InnerProduct13 (in-place)
I0727 23:36:51.302180  5678 net.cpp:141] Setting up ReLU9
I0727 23:36:51.302198  5678 net.cpp:148] Top shape: 50 100 (5000)
I0727 23:36:51.302202  5678 net.cpp:156] Memory required for data: 235827400
I0727 23:36:51.302207  5678 layer_factory.hpp:77] Creating layer InnerProduct14
I0727 23:36:51.302328  5678 net.cpp:91] Creating Layer InnerProduct14
I0727 23:36:51.302364  5678 net.cpp:425] InnerProduct14 <- InnerProduct13
I0727 23:36:51.302384  5678 net.cpp:399] InnerProduct14 -> InnerProduct14
I0727 23:36:51.302579  5678 net.cpp:141] Setting up InnerProduct14
I0727 23:36:51.302610  5678 net.cpp:148] Top shape: 50 50 (2500)
I0727 23:36:51.302614  5678 net.cpp:156] Memory required for data: 235837400
I0727 23:36:51.302619  5678 net.cpp:484] Sharing parameters 'ip2_w' owned by layer 'InnerProduct2', param index 0
I0727 23:36:51.302624  5678 net.cpp:484] Sharing parameters 'ip2_b' owned by layer 'InnerProduct2', param index 1
I0727 23:36:51.302628  5678 layer_factory.hpp:77] Creating layer Convolution11
I0727 23:36:51.302641  5678 net.cpp:91] Creating Layer Convolution11
I0727 23:36:51.302647  5678 net.cpp:425] Convolution11 <- c11
I0727 23:36:51.302697  5678 net.cpp:399] Convolution11 -> Convolution11
I0727 23:36:51.302793  5678 net.cpp:141] Setting up Convolution11
I0727 23:36:51.302810  5678 net.cpp:148] Top shape: 50 20 60 60 (3600000)
I0727 23:36:51.302896  5678 net.cpp:156] Memory required for data: 250237400
I0727 23:36:51.302903  5678 net.cpp:484] Sharing parameters 'conv1_w' owned by layer 'Convolution1', param index 0
I0727 23:36:51.302908  5678 net.cpp:484] Sharing parameters 'conv1_b' owned by layer 'Convolution1', param index 1
I0727 23:36:51.302911  5678 layer_factory.hpp:77] Creating layer Pooling11
I0727 23:36:51.302919  5678 net.cpp:91] Creating Layer Pooling11
I0727 23:36:51.302927  5678 net.cpp:425] Pooling11 <- Convolution11
I0727 23:36:51.302935  5678 net.cpp:399] Pooling11 -> Pooling11
I0727 23:36:51.302968  5678 net.cpp:141] Setting up Pooling11
I0727 23:36:51.302995  5678 net.cpp:148] Top shape: 50 20 30 30 (900000)
I0727 23:36:51.303000  5678 net.cpp:156] Memory required for data: 253837400
I0727 23:36:51.303004  5678 layer_factory.hpp:77] Creating layer Convolution12
I0727 23:36:51.303019  5678 net.cpp:91] Creating Layer Convolution12
I0727 23:36:51.303025  5678 net.cpp:425] Convolution12 <- Pooling11
I0727 23:36:51.303032  5678 net.cpp:399] Convolution12 -> Convolution12
I0727 23:36:51.303333  5678 net.cpp:141] Setting up Convolution12
I0727 23:36:51.303367  5678 net.cpp:148] Top shape: 50 50 26 26 (1690000)
I0727 23:36:51.303371  5678 net.cpp:156] Memory required for data: 260597400
I0727 23:36:51.303376  5678 net.cpp:484] Sharing parameters 'conv2_w' owned by layer 'Convolution2', param index 0
I0727 23:36:51.303380  5678 net.cpp:484] Sharing parameters 'conv2_b' owned by layer 'Convolution2', param index 1
I0727 23:36:51.303385  5678 layer_factory.hpp:77] Creating layer Pooling12
I0727 23:36:51.303395  5678 net.cpp:91] Creating Layer Pooling12
I0727 23:36:51.303400  5678 net.cpp:425] Pooling12 <- Convolution12
I0727 23:36:51.303406  5678 net.cpp:399] Pooling12 -> Pooling12
I0727 23:36:51.303436  5678 net.cpp:141] Setting up Pooling12
I0727 23:36:51.303457  5678 net.cpp:148] Top shape: 50 50 13 13 (422500)
I0727 23:36:51.303463  5678 net.cpp:156] Memory required for data: 262287400
I0727 23:36:51.303467  5678 layer_factory.hpp:77] Creating layer InnerProduct15
I0727 23:36:51.303495  5678 net.cpp:91] Creating Layer InnerProduct15
I0727 23:36:51.303499  5678 net.cpp:425] InnerProduct15 <- Pooling12
I0727 23:36:51.303508  5678 net.cpp:399] InnerProduct15 -> InnerProduct15
I0727 23:36:51.312211  5678 net.cpp:141] Setting up InnerProduct15
I0727 23:36:51.312243  5678 net.cpp:148] Top shape: 50 100 (5000)
I0727 23:36:51.312247  5678 net.cpp:156] Memory required for data: 262307400
I0727 23:36:51.312254  5678 net.cpp:484] Sharing parameters 'ip1_w' owned by layer 'InnerProduct1', param index 0
I0727 23:36:51.312260  5678 net.cpp:484] Sharing parameters 'ip1_b' owned by layer 'InnerProduct1', param index 1
I0727 23:36:51.312264  5678 layer_factory.hpp:77] Creating layer ReLU10
I0727 23:36:51.312275  5678 net.cpp:91] Creating Layer ReLU10
I0727 23:36:51.312281  5678 net.cpp:425] ReLU10 <- InnerProduct15
I0727 23:36:51.312288  5678 net.cpp:386] ReLU10 -> InnerProduct15 (in-place)
I0727 23:36:51.312296  5678 net.cpp:141] Setting up ReLU10
I0727 23:36:51.312300  5678 net.cpp:148] Top shape: 50 100 (5000)
I0727 23:36:51.312304  5678 net.cpp:156] Memory required for data: 262327400
I0727 23:36:51.312306  5678 layer_factory.hpp:77] Creating layer InnerProduct16
I0727 23:36:51.312314  5678 net.cpp:91] Creating Layer InnerProduct16
I0727 23:36:51.312316  5678 net.cpp:425] InnerProduct16 <- InnerProduct15
I0727 23:36:51.312322  5678 net.cpp:399] InnerProduct16 -> InnerProduct16
I0727 23:36:51.312371  5678 net.cpp:141] Setting up InnerProduct16
I0727 23:36:51.312376  5678 net.cpp:148] Top shape: 50 50 (2500)
I0727 23:36:51.312378  5678 net.cpp:156] Memory required for data: 262337400
I0727 23:36:51.312381  5678 net.cpp:484] Sharing parameters 'ip2_w' owned by layer 'InnerProduct2', param index 0
I0727 23:36:51.312386  5678 net.cpp:484] Sharing parameters 'ip2_b' owned by layer 'InnerProduct2', param index 1
I0727 23:36:51.312388  5678 layer_factory.hpp:77] Creating layer Concat3
I0727 23:36:51.312394  5678 net.cpp:91] Creating Layer Concat3
I0727 23:36:51.312427  5678 net.cpp:425] Concat3 <- InnerProduct14
I0727 23:36:51.312432  5678 net.cpp:425] Concat3 <- InnerProduct16
I0727 23:36:51.312438  5678 net.cpp:399] Concat3 -> Concat3
I0727 23:36:51.312453  5678 net.cpp:141] Setting up Concat3
I0727 23:36:51.312458  5678 net.cpp:148] Top shape: 50 100 (5000)
I0727 23:36:51.312460  5678 net.cpp:156] Memory required for data: 262357400
I0727 23:36:51.312463  5678 layer_factory.hpp:77] Creating layer InnerProduct17
I0727 23:36:51.312469  5678 net.cpp:91] Creating Layer InnerProduct17
I0727 23:36:51.312472  5678 net.cpp:425] InnerProduct17 <- Concat3
I0727 23:36:51.312476  5678 net.cpp:399] InnerProduct17 -> InnerProduct17
I0727 23:36:51.312531  5678 net.cpp:141] Setting up InnerProduct17
I0727 23:36:51.312536  5678 net.cpp:148] Top shape: 50 64 (3200)
I0727 23:36:51.312539  5678 net.cpp:156] Memory required for data: 262370200
I0727 23:36:51.312542  5678 net.cpp:484] Sharing parameters 'fc1_w' owned by layer 'InnerProduct5', param index 0
I0727 23:36:51.312546  5678 net.cpp:484] Sharing parameters 'fc1_b' owned by layer 'InnerProduct5', param index 1
I0727 23:36:51.312551  5678 layer_factory.hpp:77] Creating layer ReLU11
I0727 23:36:51.312554  5678 net.cpp:91] Creating Layer ReLU11
I0727 23:36:51.312557  5678 net.cpp:425] ReLU11 <- InnerProduct17
I0727 23:36:51.312561  5678 net.cpp:386] ReLU11 -> InnerProduct17 (in-place)
I0727 23:36:51.312566  5678 net.cpp:141] Setting up ReLU11
I0727 23:36:51.312569  5678 net.cpp:148] Top shape: 50 64 (3200)
I0727 23:36:51.312572  5678 net.cpp:156] Memory required for data: 262383000
I0727 23:36:51.312574  5678 layer_factory.hpp:77] Creating layer InnerProduct18
I0727 23:36:51.312579  5678 net.cpp:91] Creating Layer InnerProduct18
I0727 23:36:51.312582  5678 net.cpp:425] InnerProduct18 <- InnerProduct17
I0727 23:36:51.312587  5678 net.cpp:399] InnerProduct18 -> InnerProduct18
I0727 23:36:51.312609  5678 net.cpp:141] Setting up InnerProduct18
I0727 23:36:51.312613  5678 net.cpp:148] Top shape: 50 32 (1600)
I0727 23:36:51.312615  5678 net.cpp:156] Memory required for data: 262389400
I0727 23:36:51.312618  5678 net.cpp:484] Sharing parameters 'fc2_w' owned by layer 'InnerProduct6', param index 0
I0727 23:36:51.312621  5678 net.cpp:484] Sharing parameters 'fc2_b' owned by layer 'InnerProduct6', param index 1
I0727 23:36:51.312624  5678 layer_factory.hpp:77] Creating layer ReLU12
I0727 23:36:51.312628  5678 net.cpp:91] Creating Layer ReLU12
I0727 23:36:51.312631  5678 net.cpp:425] ReLU12 <- InnerProduct18
I0727 23:36:51.312635  5678 net.cpp:386] ReLU12 -> InnerProduct18 (in-place)
I0727 23:36:51.312639  5678 net.cpp:141] Setting up ReLU12
I0727 23:36:51.312643  5678 net.cpp:148] Top shape: 50 32 (1600)
I0727 23:36:51.312645  5678 net.cpp:156] Memory required for data: 262395800
I0727 23:36:51.312649  5678 layer_factory.hpp:77] Creating layer dt2
I0727 23:36:51.312654  5678 net.cpp:91] Creating Layer dt2
I0727 23:36:51.312655  5678 net.cpp:425] dt2 <- InnerProduct18
I0727 23:36:51.312660  5678 net.cpp:399] dt2 -> dt2
I0727 23:36:51.312669  5678 net.cpp:141] Setting up dt2
I0727 23:36:51.312672  5678 net.cpp:148] Top shape: 50 2 (100)
I0727 23:36:51.312674  5678 net.cpp:156] Memory required for data: 262396200
I0727 23:36:51.312685  5678 net.cpp:484] Sharing parameters 'fc3_w' owned by layer 'dt', param index 0
I0727 23:36:51.312688  5678 net.cpp:484] Sharing parameters 'fc3_b' owned by layer 'dt', param index 1
I0727 23:36:51.312691  5678 layer_factory.hpp:77] Creating layer con
I0727 23:36:51.312696  5678 net.cpp:91] Creating Layer con
I0727 23:36:51.312700  5678 net.cpp:425] con <- dt
I0727 23:36:51.312702  5678 net.cpp:425] con <- dt1
I0727 23:36:51.312706  5678 net.cpp:425] con <- dt2
I0727 23:36:51.312711  5678 net.cpp:399] con -> con
I0727 23:36:51.312716  5678 net.cpp:141] Setting up con
I0727 23:36:51.312719  5678 net.cpp:148] Top shape: 50 6 (300)
I0727 23:36:51.312721  5678 net.cpp:156] Memory required for data: 262397400
I0727 23:36:51.312724  5678 layer_factory.hpp:77] Creating layer r1
I0727 23:36:51.312731  5678 net.cpp:91] Creating Layer r1
I0727 23:36:51.312741  5678 net.cpp:425] r1 <- con
I0727 23:36:51.312747  5678 net.cpp:399] r1 -> r1
I0727 23:36:51.312755  5678 net.cpp:141] Setting up r1
I0727 23:36:51.312758  5678 net.cpp:148] Top shape: 50 1 2 3 (300)
I0727 23:36:51.312762  5678 net.cpp:156] Memory required for data: 262398600
I0727 23:36:51.312764  5678 layer_factory.hpp:77] Creating layer p
I0727 23:36:51.312769  5678 net.cpp:91] Creating Layer p
I0727 23:36:51.312772  5678 net.cpp:425] p <- r1
I0727 23:36:51.312777  5678 net.cpp:399] p -> p
I0727 23:36:51.312784  5678 net.cpp:141] Setting up p
I0727 23:36:51.312788  5678 net.cpp:148] Top shape: 50 1 2 1 (100)
I0727 23:36:51.312790  5678 net.cpp:156] Memory required for data: 262399000
I0727 23:36:51.312793  5678 layer_factory.hpp:77] Creating layer r2
I0727 23:36:51.312798  5678 net.cpp:91] Creating Layer r2
I0727 23:36:51.312801  5678 net.cpp:425] r2 <- p
I0727 23:36:51.312804  5678 net.cpp:399] r2 -> r2
I0727 23:36:51.312810  5678 net.cpp:141] Setting up r2
I0727 23:36:51.312813  5678 net.cpp:148] Top shape: 50 2 1 1 (100)
I0727 23:36:51.312816  5678 net.cpp:156] Memory required for data: 262399400
I0727 23:36:51.312819  5678 layer_factory.hpp:77] Creating layer r2_r2_0_split
I0727 23:36:51.312824  5678 net.cpp:91] Creating Layer r2_r2_0_split
I0727 23:36:51.312826  5678 net.cpp:425] r2_r2_0_split <- r2
I0727 23:36:51.312830  5678 net.cpp:399] r2_r2_0_split -> r2_r2_0_split_0
I0727 23:36:51.312835  5678 net.cpp:399] r2_r2_0_split -> r2_r2_0_split_1
I0727 23:36:51.312840  5678 net.cpp:141] Setting up r2_r2_0_split
I0727 23:36:51.312844  5678 net.cpp:148] Top shape: 50 2 1 1 (100)
I0727 23:36:51.312847  5678 net.cpp:148] Top shape: 50 2 1 1 (100)
I0727 23:36:51.312850  5678 net.cpp:156] Memory required for data: 262400200
I0727 23:36:51.312854  5678 layer_factory.hpp:77] Creating layer accuracy
I0727 23:36:51.312858  5678 net.cpp:91] Creating Layer accuracy
I0727 23:36:51.312861  5678 net.cpp:425] accuracy <- r2_r2_0_split_0
I0727 23:36:51.312865  5678 net.cpp:425] accuracy <- label_data_1_split_0
I0727 23:36:51.312870  5678 net.cpp:399] accuracy -> accuracy
…
