…
I0803 14:46:10.497066 28176 solver.cpp:81] Creating training net from train_net file: examples/scene/matchNetTrainHingeMini.prototxt
I0803 14:46:10.519142 28176 net.cpp:49] Initializing net from parameters: 
state {
  phase: TRAIN
}
layer {
  name: "data"
  type: "Data"
  top: "data"
  top: "label"
  include {
    phase: TRAIN
  }
  transform_param {
    scale: 0.0039215689
    mirror: true
    mean_file: "examples/scene/scene_mean.binaryproto"
  }
  data_param {
    source: "examples/scene/scene_train7_pairs_20000_pad.lmdb"
    batch_size: 100
    backend: LMDB
  }
}
layer {
  name: "th"
  type: "Threshold"
  bottom: "label"
  top: "th"
  threshold_param {
    threshold: 0
  }
}
layer {
  name: "i1"
  type: "Slice"
  bottom: "data"
  top: "i1"
  top: "i2"
  slice_param {
    slice_dim: 1
    slice_point: 3
  }
}
layer {
  name: "p1"
  type: "Pooling"
  bottom: "i1"
  top: "p1"
  pooling_param {
    pool: AVE
    kernel_size: 2
    stride: 2
  }
}
layer {
  name: "p2"
  type: "Pooling"
  bottom: "i2"
  top: "p2"
  pooling_param {
    pool: AVE
    kernel_size: 2
    stride: 2
  }
}
layer {
  name: "Input1"
  type: "Input"
  top: "Input1"
  include {
    phase: TRAIN
  }
  input_param {
    shape {
      dim: 100
      dim: 3
      dim: 64
      dim: 64
    }
  }
}
layer {
  name: "c11"
  type: "Crop"
  bottom: "i1"
  bottom: "Input1"
  top: "c11"
  crop_param {
    axis: 2
    offset: 0
    offset: 0
  }
}
layer {
  name: "Input2"
  type: "Input"
  top: "Input2"
  include {
    phase: TRAIN
  }
  input_param {
    shape {
      dim: 100
      dim: 3
      dim: 64
      dim: 64
    }
  }
}
layer {
  name: "c12"
  type: "Crop"
  bottom: "i1"
  bottom: "Input2"
  top: "c12"
  crop_param {
    axis: 2
    offset: 0
    offset: 32
  }
}
layer {
  name: "Input3"
  type: "Input"
  top: "Input3"
  include {
    phase: TRAIN
  }
  input_param {
    shape {
      dim: 100
      dim: 3
      dim: 64
      dim: 64
    }
  }
}
layer {
  name: "c13"
  type: "Crop"
  bottom: "i1"
  bottom: "Input3"
  top: "c13"
  crop_param {
    axis: 2
    offset: 0
    offset: 64
  }
}
layer {
  name: "Input4"
  type: "Input"
  top: "Input4"
  include {
    phase: TRAIN
  }
  input_param {
    shape {
      dim: 100
      dim: 3
      dim: 64
      dim: 64
    }
  }
}
layer {
  name: "c14"
  type: "Crop"
  bottom: "i1"
  bottom: "Input4"
  top: "c14"
  crop_param {
    axis: 2
    offset: 32
    offset: 0
  }
}
layer {
  name: "Input5"
  type: "Input"
  top: "Input5"
  include {
    phase: TRAIN
  }
  input_param {
    shape {
      dim: 100
      dim: 3
      dim: 64
      dim: 64
    }
  }
}
layer {
  name: "c15"
  type: "Crop"
  bottom: "i1"
  bottom: "Input5"
  top: "c15"
  crop_param {
    axis: 2
    offset: 32
    offset: 32
  }
}
layer {
  name: "Input6"
  type: "Input"
  top: "Input6"
  include {
    phase: TRAIN
  }
  input_param {
    shape {
      dim: 100
      dim: 3
      dim: 64
      dim: 64
    }
  }
}
layer {
  name: "c16"
  type: "Crop"
  bottom: "i1"
  bottom: "Input6"
  top: "c16"
  crop_param {
    axis: 2
    offset: 32
    offset: 64
  }
}
layer {
  name: "Input7"
  type: "Input"
  top: "Input7"
  include {
    phase: TRAIN
  }
  input_param {
    shape {
      dim: 100
      dim: 3
      dim: 64
      dim: 64
    }
  }
}
layer {
  name: "c17"
  type: "Crop"
  bottom: "i1"
  bottom: "Input7"
  top: "c17"
  crop_param {
    axis: 2
    offset: 64
    offset: 0
  }
}
layer {
  name: "Input8"
  type: "Input"
  top: "Input8"
  include {
    phase: TRAIN
  }
  input_param {
    shape {
      dim: 100
      dim: 3
      dim: 64
      dim: 64
    }
  }
}
layer {
  name: "c18"
  type: "Crop"
  bottom: "i1"
  bottom: "Input8"
  top: "c18"
  crop_param {
    axis: 2
    offset: 64
    offset: 32
  }
}
layer {
  name: "Input9"
  type: "Input"
  top: "Input9"
  include {
    phase: TRAIN
  }
  input_param {
    shape {
      dim: 100
      dim: 3
      dim: 64
      dim: 64
    }
  }
}
layer {
  name: "c19"
  type: "Crop"
  bottom: "i1"
  bottom: "Input9"
  top: "c19"
  crop_param {
    axis: 2
    offset: 64
    offset: 64
  }
}
layer {
  name: "Input10"
  type: "Input"
  top: "Input10"
  include {
    phase: TRAIN
  }
  input_param {
    shape {
      dim: 100
      dim: 3
      dim: 64
      dim: 64
    }
  }
}
layer {
  name: "c21"
  type: "Crop"
  bottom: "i2"
  bottom: "Input10"
  top: "c21"
  crop_param {
    axis: 2
    offset: 0
    offset: 0
  }
}
layer {
  name: "Input11"
  type: "Input"
  top: "Input11"
  include {
    phase: TRAIN
  }
  input_param {
    shape {
      dim: 100
      dim: 3
      dim: 64
      dim: 64
    }
  }
}
layer {
  name: "c22"
  type: "Crop"
  bottom: "i2"
  bottom: "Input11"
  top: "c22"
  crop_param {
    axis: 2
    offset: 0
    offset: 32
  }
}
layer {
  name: "Input12"
  type: "Input"
  top: "Input12"
  include {
    phase: TRAIN
  }
  input_param {
    shape {
      dim: 100
      dim: 3
      dim: 64
      dim: 64
    }
  }
}
layer {
  name: "c23"
  type: "Crop"
  bottom: "i2"
  bottom: "Input12"
  top: "c23"
  crop_param {
    axis: 2
    offset: 0
    offset: 64
  }
}
layer {
  name: "Input13"
  type: "Input"
  top: "Input13"
  include {
    phase: TRAIN
  }
  input_param {
    shape {
      dim: 100
      dim: 3
      dim: 64
      dim: 64
    }
  }
}
layer {
  name: "c24"
  type: "Crop"
  bottom: "i2"
  bottom: "Input13"
  top: "c24"
  crop_param {
    axis: 2
    offset: 32
    offset: 0
  }
}
layer {
  name: "Input14"
  type: "Input"
  top: "Input14"
  include {
    phase: TRAIN
  }
  input_param {
    shape {
      dim: 100
      dim: 3
      dim: 64
      dim: 64
    }
  }
}
layer {
  name: "c25"
  type: "Crop"
  bottom: "i2"
  bottom: "Input14"
  top: "c25"
  crop_param {
    axis: 2
    offset: 32
    offset: 32
  }
}
layer {
  name: "Input15"
  type: "Input"
  top: "Input15"
  include {
    phase: TRAIN
  }
  input_param {
    shape {
      dim: 100
      dim: 3
      dim: 64
      dim: 64
    }
  }
}
layer {
  name: "c26"
  type: "Crop"
  bottom: "i2"
  bottom: "Input15"
  top: "c26"
  crop_param {
    axis: 2
    offset: 32
    offset: 64
  }
}
layer {
  name: "Input16"
  type: "Input"
  top: "Input16"
  include {
    phase: TRAIN
  }
  input_param {
    shape {
      dim: 100
      dim: 3
      dim: 64
      dim: 64
    }
  }
}
layer {
  name: "c27"
  type: "Crop"
  bottom: "i2"
  bottom: "Input16"
  top: "c27"
  crop_param {
    axis: 2
    offset: 64
    offset: 0
  }
}
layer {
  name: "Input17"
  type: "Input"
  top: "Input17"
  include {
    phase: TRAIN
  }
  input_param {
    shape {
      dim: 100
      dim: 3
      dim: 64
      dim: 64
    }
  }
}
layer {
  name: "c28"
  type: "Crop"
  bottom: "i2"
  bottom: "Input17"
  top: "c28"
  crop_param {
    axis: 2
    offset: 64
    offset: 32
  }
}
layer {
  name: "Input18"
  type: "Input"
  top: "Input18"
  include {
    phase: TRAIN
  }
  input_param {
    shape {
      dim: 100
      dim: 3
      dim: 64
      dim: 64
    }
  }
}
layer {
  name: "c29"
  type: "Crop"
  bottom: "i2"
  bottom: "Input18"
  top: "c29"
  crop_param {
    axis: 2
    offset: 64
    offset: 64
  }
}
layer {
  name: "Convolution1"
  type: "Convolution"
  bottom: "p1"
  top: "Convolution1"
  param {
    name: "conv1_w"
    lr_mult: 1
  }
  param {
    name: "conv1_b"
    lr_mult: 2
  }
  convolution_param {
    num_output: 20
    kernel_size: 5
    stride: 1
    weight_filler {
      type: "xavier"
    }
    bias_filler {
      type: "constant"
    }
  }
}
layer {
  name: "Pooling1"
  type: "Pooling"
  bottom: "Convolution1"
  top: "Pooling1"
  pooling_param {
    pool: MAX
    kernel_size: 2
    stride: 2
  }
}
layer {
  name: "Convolution2"
  type: "Convolution"
  bottom: "Pooling1"
  top: "Convolution2"
  param {
    name: "conv2_w"
    lr_mult: 1
  }
  param {
    name: "conv2_b"
    lr_mult: 2
  }
  convolution_param {
    num_output: 50
    kernel_size: 5
    stride: 1
    weight_filler {
      type: "xavier"
    }
    bias_filler {
      type: "constant"
    }
  }
}
layer {
  name: "Pooling2"
  type: "Pooling"
  bottom: "Convolution2"
  top: "Pooling2"
  pooling_param {
    pool: MAX
    kernel_size: 2
    stride: 2
  }
}
layer {
  name: "InnerProduct1"
  type: "InnerProduct"
  bottom: "Pooling2"
  top: "InnerProduct1"
  param {
    name: "ip1_w"
    lr_mult: 1
  }
  param {
    name: "ip1_b"
    lr_mult: 2
  }
  inner_product_param {
    num_output: 100
    weight_filler {
      type: "xavier"
    }
    bias_filler {
      type: "constant"
    }
  }
}
layer {
  name: "ReLU1"
  type: "ReLU"
  bottom: "InnerProduct1"
  top: "InnerProduct1"
}
layer {
  name: "InnerProduct2"
  type: "InnerProduct"
  bottom: "InnerProduct1"
  top: "InnerProduct2"
  param {
    name: "ip2_w"
    lr_mult: 1
  }
  param {
    name: "ip2_b"
    lr_mult: 2
  }
  inner_product_param {
    num_output: 50
    weight_filler {
      type: "xavier"
    }
    bias_filler {
      type: "constant"
    }
  }
}
layer {
  name: "Convolution3"
  type: "Convolution"
  bottom: "p2"
  top: "Convolution3"
  param {
    name: "conv1_w"
    lr_mult: 1
  }
  param {
    name: "conv1_b"
    lr_mult: 2
  }
  convolution_param {
    num_output: 20
    kernel_size: 5
    stride: 1
    weight_filler {
      type: "xavier"
    }
    bias_filler {
      type: "constant"
    }
  }
}
layer {
  name: "Pooling3"
  type: "Pooling"
  bottom: "Convolution3"
  top: "Pooling3"
  pooling_param {
    pool: MAX
    kernel_size: 2
    stride: 2
  }
}
layer {
  name: "Convolution4"
  type: "Convolution"
  bottom: "Pooling3"
  top: "Convolution4"
  param {
    name: "conv2_w"
    lr_mult: 1
  }
  param {
    name: "conv2_b"
    lr_mult: 2
  }
  convolution_param {
    num_output: 50
    kernel_size: 5
    stride: 1
    weight_filler {
      type: "xavier"
    }
    bias_filler {
      type: "constant"
    }
  }
}
layer {
  name: "Pooling4"
  type: "Pooling"
  bottom: "Convolution4"
  top: "Pooling4"
  pooling_param {
    pool: MAX
    kernel_size: 2
    stride: 2
  }
}
layer {
  name: "InnerProduct3"
  type: "InnerProduct"
  bottom: "Pooling4"
  top: "InnerProduct3"
  param {
    name: "ip1_w"
    lr_mult: 1
  }
  param {
    name: "ip1_b"
    lr_mult: 2
  }
  inner_product_param {
    num_output: 100
    weight_filler {
      type: "xavier"
    }
    bias_filler {
      type: "constant"
    }
  }
}
layer {
  name: "ReLU2"
  type: "ReLU"
  bottom: "InnerProduct3"
  top: "InnerProduct3"
}
layer {
  name: "InnerProduct4"
  type: "InnerProduct"
  bottom: "InnerProduct3"
  top: "InnerProduct4"
  param {
    name: "ip2_w"
    lr_mult: 1
  }
  param {
    name: "ip2_b"
    lr_mult: 2
  }
  inner_product_param {
    num_output: 50
    weight_filler {
      type: "xavier"
    }
    bias_filler {
      type: "constant"
    }
  }
}
layer {
  name: "Concat1"
  type: "Concat"
  bottom: "InnerProduct2"
  bottom: "InnerProduct4"
  top: "Concat1"
  concat_param {
    axis: 1
  }
}
layer {
  name: "InnerProduct5"
  type: "InnerProduct"
  bottom: "Concat1"
  top: "InnerProduct5"
  param {
    name: "fc1_w"
    lr_mult: 1
  }
  param {
    name: "fc1_b"
    lr_mult: 2
  }
  inner_product_param {
    num_output: 64
    weight_filler {
      type: "xavier"
    }
    bias_filler {
      type: "constant"
    }
  }
}
layer {
  name: "ReLU3"
  type: "ReLU"
  bottom: "InnerProduct5"
  top: "InnerProduct5"
}
layer {
  name: "InnerProduct6"
  type: "InnerProduct"
  bottom: "InnerProduct5"
  top: "InnerProduct6"
  param {
    name: "fc2_w"
    lr_mult: 1
  }
  param {
    name: "fc2_b"
    lr_mult: 2
  }
  inner_product_param {
    num_output: 32
    weight_filler {
      type: "xavier"
    }
    bias_filler {
      type: "constant"
    }
  }
}
layer {
  name: "ReLU4"
  type: "ReLU"
  bottom: "InnerProduct6"
  top: "InnerProduct6"
}
layer {
  name: "dt0"
  type: "InnerProduct"
  bottom: "InnerProduct6"
  top: "dt0"
  param {
    name: "fc3_w"
    lr_mult: 1
  }
  param {
    name: "fc3_b"
    lr_mult: 2
  }
  inner_product_param {
    num_output: 1
    weight_filler {
      type: "xavier"
    }
    bias_filler {
      type: "constant"
    }
  }
}
layer {
  name: "Convolution5"
  type: "Convolution"
  bottom: "p1"
  top: "Convolution5"
  param {
    name: "conv1_w"
    lr_mult: 1
  }
  param {
    name: "conv1_b"
    lr_mult: 2
  }
  convolution_param {
    num_output: 20
    kernel_size: 5
    stride: 1
    weight_filler {
      type: "xavier"
    }
    bias_filler {
      type: "constant"
    }
  }
}
layer {
  name: "Pooling5"
  type: "Pooling"
  bottom: "Convolution5"
  top: "Pooling5"
  pooling_param {
    pool: MAX
    kernel_size: 2
    stride: 2
  }
}
layer {
  name: "Convolution6"
  type: "Convolution"
  bottom: "Pooling5"
  top: "Convolution6"
  param {
    name: "conv2_w"
    lr_mult: 1
  }
  param {
    name: "conv2_b"
    lr_mult: 2
  }
  convolution_param {
    num_output: 50
    kernel_size: 5
    stride: 1
    weight_filler {
      type: "xavier"
    }
    bias_filler {
      type: "constant"
    }
  }
}
layer {
  name: "Pooling6"
  type: "Pooling"
  bottom: "Convolution6"
  top: "Pooling6"
  pooling_param {
    pool: MAX
    kernel_size: 2
    stride: 2
  }
}
layer {
  name: "InnerProduct7"
  type: "InnerProduct"
  bottom: "Pooling6"
  top: "InnerProduct7"
  param {
    name: "ip1_w"
    lr_mult: 1
  }
  param {
    name: "ip1_b"
    lr_mult: 2
  }
  inner_product_param {
    num_output: 100
    weight_filler {
      type: "xavier"
    }
    bias_filler {
      type: "constant"
    }
  }
}
layer {
  name: "ReLU5"
  type: "ReLU"
  bottom: "InnerProduct7"
  top: "InnerProduct7"
}
layer {
  name: "InnerProduct8"
  type: "InnerProduct"
  bottom: "InnerProduct7"
  top: "InnerProduct8"
  param {
    name: "ip2_w"
    lr_mult: 1
  }
  param {
    name: "ip2_b"
    lr_mult: 2
  }
  inner_product_param {
    num_output: 50
    weight_filler {
      type: "xavier"
    }
    bias_filler {
      type: "constant"
    }
  }
}
layer {
  name: "Convolution7"
  type: "Convolution"
  bottom: "c21"
  top: "Convolution7"
  param {
    name: "conv1_w"
    lr_mult: 1
  }
  param {
    name: "conv1_b"
    lr_mult: 2
  }
  convolution_param {
    num_output: 20
    kernel_size: 5
    stride: 1
    weight_filler {
      type: "xavier"
    }
    bias_filler {
      type: "constant"
    }
  }
}
layer {
  name: "Pooling7"
  type: "Pooling"
  bottom: "Convolution7"
  top: "Pooling7"
  pooling_param {
    pool: MAX
    kernel_size: 2
    stride: 2
  }
}
layer {
  name: "Convolution8"
  type: "Convolution"
  bottom: "Pooling7"
  top: "Convolution8"
  param {
    name: "conv2_w"
    lr_mult: 1
  }
  param {
    name: "conv2_b"
    lr_mult: 2
  }
  convolution_param {
    num_output: 50
    kernel_size: 5
    stride: 1
    weight_filler {
      type: "xavier"
    }
    bias_filler {
      type: "constant"
    }
  }
}
layer {
  name: "Pooling8"
  type: "Pooling"
  bottom: "Convolution8"
  top: "Pooling8"
  pooling_param {
    pool: MAX
    kernel_size: 2
    stride: 2
  }
}
layer {
  name: "InnerProduct9"
  type: "InnerProduct"
  bottom: "Pooling8"
  top: "InnerProduct9"
  param {
    name: "ip1_w"
    lr_mult: 1
  }
  param {
    name: "ip1_b"
    lr_mult: 2
  }
  inner_product_param {
    num_output: 100
    weight_filler {
      type: "xavier"
    }
    bias_filler {
      type: "constant"
    }
  }
}
layer {
  name: "ReLU6"
  type: "ReLU"
  bottom: "InnerProduct9"
  top: "InnerProduct9"
}
layer {
  name: "InnerProduct10"
  type: "InnerProduct"
  bottom: "InnerProduct9"
  top: "InnerProduct10"
  param {
    name: "ip2_w"
    lr_mult: 1
  }
  param {
    name: "ip2_b"
    lr_mult: 2
  }
  inner_product_param {
    num_output: 50
    weight_filler {
      type: "xavier"
    }
    bias_filler {
      type: "constant"
    }
  }
}
layer {
  name: "Concat2"
  type: "Concat"
  bottom: "InnerProduct8"
  bottom: "InnerProduct10"
  top: "Concat2"
  concat_param {
    axis: 1
  }
}
layer {
  name: "InnerProduct11"
  type: "InnerProduct"
  bottom: "Concat2"
  top: "InnerProduct11"
  param {
    name: "fc1_w"
    lr_mult: 1
  }
  param {
    name: "fc1_b"
    lr_mult: 2
  }
  inner_product_param {
    num_output: 64
    weight_filler {
      type: "xavier"
    }
    bias_filler {
      type: "constant"
    }
  }
}
layer {
  name: "ReLU7"
  type: "ReLU"
  bottom: "InnerProduct11"
  top: "InnerProduct11"
}
layer {
  name: "InnerProduct12"
  type: "InnerProduct"
  bottom: "InnerProduct11"
  top: "InnerProduct12"
  param {
    name: "fc2_w"
    lr_mult: 1
  }
  param {
    name: "fc2_b"
    lr_mult: 2
  }
  inner_product_param {
    num_output: 32
    weight_filler {
      type: "xavier"
    }
    bias_filler {
      type: "constant"
    }
  }
}
layer {
  name: "ReLU8"
  type: "ReLU"
  bottom: "InnerProduct12"
  top: "InnerProduct12"
}
layer {
  name: "dt1"
  type: "InnerProduct"
  bottom: "InnerProduct12"
  top: "dt1"
  param {
    name: "fc3_w"
    lr_mult: 1
  }
  param {
    name: "fc3_b"
    lr_mult: 2
  }
  inner_product_param {
    num_output: 1
    weight_filler {
      type: "xavier"
    }
    bias_filler {
      type: "constant"
    }
  }
}
layer {
  name: "Convolution9"
  type: "Convolution"
  bottom: "p1"
  top: "Convolution9"
  param {
    name: "conv1_w"
    lr_mult: 1
  }
  param {
    name: "conv1_b"
    lr_mult: 2
  }
  convolution_param {
    num_output: 20
    kernel_size: 5
    stride: 1
    weight_filler {
      type: "xavier"
    }
    bias_filler {
      type: "constant"
    }
  }
}
layer {
  name: "Pooling9"
  type: "Pooling"
  bottom: "Convolution9"
  top: "Pooling9"
  pooling_param {
    pool: MAX
    kernel_size: 2
    stride: 2
  }
}
layer {
  name: "Convolution10"
  type: "Convolution"
  bottom: "Pooling9"
  top: "Convolution10"
  param {
    name: "conv2_w"
    lr_mult: 1
  }
  param {
    name: "conv2_b"
    lr_mult: 2
  }
  convolution_param {
    num_output: 50
    kernel_size: 5
    stride: 1
    weight_filler {
      type: "xavier"
    }
    bias_filler {
      type: "constant"
    }
  }
}
layer {
  name: "Pooling10"
  type: "Pooling"
  bottom: "Convolution10"
  top: "Pooling10"
  pooling_param {
    pool: MAX
    kernel_size: 2
    stride: 2
  }
}
layer {
  name: "InnerProduct13"
  type: "InnerProduct"
  bottom: "Pooling10"
  top: "InnerProduct13"
  param {
    name: "ip1_w"
    lr_mult: 1
  }
  param {
    name: "ip1_b"
    lr_mult: 2
  }
  inner_product_param {
    num_output: 100
    weight_filler {
      type: "xavier"
    }
    bias_filler {
      type: "constant"
    }
  }
}
layer {
  name: "ReLU9"
  type: "ReLU"
  bottom: "InnerProduct13"
  top: "InnerProduct13"
}
layer {
  name: "InnerProduct14"
  type: "InnerProduct"
  bottom: "InnerProduct13"
  top: "InnerProduct14"
  param {
    name: "ip2_w"
    lr_mult: 1
  }
  param {
    name: "ip2_b"
    lr_mult: 2
  }
  inner_product_param {
    num_output: 50
    weight_filler {
      type: "xavier"
    }
    bias_filler {
      type: "constant"
    }
  }
}
layer {
  name: "Convolution11"
  type: "Convolution"
  bottom: "c22"
  top: "Convolution11"
  param {
    name: "conv1_w"
    lr_mult: 1
  }
  param {
    name: "conv1_b"
    lr_mult: 2
  }
  convolution_param {
    num_output: 20
    kernel_size: 5
    stride: 1
    weight_filler {
      type: "xavier"
    }
    bias_filler {
      type: "constant"
    }
  }
}
layer {
  name: "Pooling11"
  type: "Pooling"
  bottom: "Convolution11"
  top: "Pooling11"
  pooling_param {
    pool: MAX
    kernel_size: 2
    stride: 2
  }
}
layer {
  name: "Convolution12"
  type: "Convolution"
  bottom: "Pooling11"
  top: "Convolution12"
  param {
    name: "conv2_w"
    lr_mult: 1
  }
  param {
    name: "conv2_b"
    lr_mult: 2
  }
  convolution_param {
    num_output: 50
    kernel_size: 5
    stride: 1
    weight_filler {
      type: "xavier"
    }
    bias_filler {
      type: "constant"
    }
  }
}
layer {
  name: "Pooling12"
  type: "Pooling"
  bottom: "Convolution12"
  top: "Pooling12"
  pooling_param {
    pool: MAX
    kernel_size: 2
    stride: 2
  }
}
layer {
  name: "InnerProduct15"
  type: "InnerProduct"
  bottom: "Pooling12"
  top: "InnerProduct15"
  param {
    name: "ip1_w"
    lr_mult: 1
  }
  param {
    name: "ip1_b"
    lr_mult: 2
  }
  inner_product_param {
    num_output: 100
    weight_filler {
      type: "xavier"
    }
    bias_filler {
      type: "constant"
    }
  }
}
layer {
  name: "ReLU10"
  type: "ReLU"
  bottom: "InnerProduct15"
  top: "InnerProduct15"
}
layer {
  name: "InnerProduct16"
  type: "InnerProduct"
  bottom: "InnerProduct15"
  top: "InnerProduct16"
  param {
    name: "ip2_w"
    lr_mult: 1
  }
  param {
    name: "ip2_b"
    lr_mult: 2
  }
  inner_product_param {
    num_output: 50
    weight_filler {
      type: "xavier"
    }
    bias_filler {
      type: "constant"
    }
  }
}
layer {
  name: "Concat3"
  type: "Concat"
  bottom: "InnerProduct14"
  bottom: "InnerProduct16"
  top: "Concat3"
  concat_param {
    axis: 1
  }
}
layer {
  name: "InnerProduct17"
  type: "InnerProduct"
  bottom: "Concat3"
  top: "InnerProduct17"
  param {
    name: "fc1_w"
    lr_mult: 1
  }
  param {
    name: "fc1_b"
    lr_mult: 2
  }
  inner_product_param {
    num_output: 64
    weight_filler {
      type: "xavier"
    }
    bias_filler {
      type: "constant"
    }
  }
}
layer {
  name: "ReLU11"
  type: "ReLU"
  bottom: "InnerProduct17"
  top: "InnerProduct17"
}
layer {
  name: "InnerProduct18"
  type: "InnerProduct"
  bottom: "InnerProduct17"
  top: "InnerProduct18"
  param {
    name: "fc2_w"
    lr_mult: 1
  }
  param {
    name: "fc2_b"
    lr_mult: 2
  }
  inner_product_param {
    num_output: 32
    weight_filler {
      type: "xavier"
    }
    bias_filler {
      type: "constant"
    }
  }
}
layer {
  name: "ReLU12"
  type: "ReLU"
  bottom: "InnerProduct18"
  top: "InnerProduct18"
}
layer {
  name: "dt2"
  type: "InnerProduct"
  bottom: "InnerProduct18"
  top: "dt2"
  param {
    name: "fc3_w"
    lr_mult: 1
  }
  param {
    name: "fc3_b"
    lr_mult: 2
  }
  inner_product_param {
    num_output: 1
    weight_filler {
      type: "xavier"
    }
    bias_filler {
      type: "constant"
    }
  }
}
layer {
  name: "Convolution13"
  type: "Convolution"
  bottom: "p1"
  top: "Convolution13"
  param {
    name: "conv1_w"
    lr_mult: 1
  }
  param {
    name: "conv1_b"
    lr_mult: 2
  }
  convolution_param {
    num_output: 20
    kernel_size: 5
    stride: 1
    weight_filler {
      type: "xavier"
    }
    bias_filler {
      type: "constant"
    }
  }
}
layer {
  name: "Pooling13"
  type: "Pooling"
  bottom: "Convolution13"
  top: "Pooling13"
  pooling_param {
    pool: MAX
    kernel_size: 2
    stride: 2
  }
}
layer {
  name: "Convolution14"
  type: "Convolution"
  bottom: "Pooling13"
  top: "Convolution14"
  param {
    name: "conv2_w"
    lr_mult: 1
  }
  param {
    name: "conv2_b"
    lr_mult: 2
  }
  convolution_param {
    num_output: 50
    kernel_size: 5
    stride: 1
    weight_filler {
      type: "xavier"
    }
    bias_filler {
      type: "constant"
    }
  }
}
layer {
  name: "Pooling14"
  type: "Pooling"
  bottom: "Convolution14"
  top: "Pooling14"
  pooling_param {
    pool: MAX
    kernel_size: 2
    stride: 2
  }
}
layer {
  name: "InnerProduct19"
  type: "InnerProduct"
  bottom: "Pooling14"
  top: "InnerProduct19"
  param {
    name: "ip1_w"
    lr_mult: 1
  }
  param {
    name: "ip1_b"
    lr_mult: 2
  }
  inner_product_param {
    num_output: 100
    weight_filler {
      type: "xavier"
    }
    bias_filler {
      type: "constant"
    }
  }
}
layer {
  name: "ReLU13"
  type: "ReLU"
  bottom: "InnerProduct19"
  top: "InnerProduct19"
}
layer {
  name: "InnerProduct20"
  type: "InnerProduct"
  bottom: "InnerProduct19"
  top: "InnerProduct20"
  param {
    name: "ip2_w"
    lr_mult: 1
  }
  param {
    name: "ip2_b"
    lr_mult: 2
  }
  inner_product_param {
    num_output: 50
    weight_filler {
      type: "xavier"
    }
    bias_filler {
      type: "constant"
    }
  }
}
layer {
  name: "Convolution15"
  type: "Convolution"
  bottom: "c23"
  top: "Convolution15"
  param {
    name: "conv1_w"
    lr_mult: 1
  }
  param {
    name: "conv1_b"
    lr_mult: 2
  }
  convolution_param {
    num_output: 20
    kernel_size: 5
    stride: 1
    weight_filler {
      type: "xavier"
    }
    bias_filler {
      type: "constant"
    }
  }
}
layer {
  name: "Pooling15"
  type: "Pooling"
  bottom: "Convolution15"
  top: "Pooling15"
  pooling_param {
    pool: MAX
    kernel_size: 2
    stride: 2
  }
}
layer {
  name: "Convolution16"
  type: "Convolution"
  bottom: "Pooling15"
  top: "Convolution16"
  param {
    name: "conv2_w"
    lr_mult: 1
  }
  param {
    name: "conv2_b"
    lr_mult: 2
  }
  convolution_param {
    num_output: 50
    kernel_size: 5
    stride: 1
    weight_filler {
      type: "xavier"
    }
    bias_filler {
      type: "constant"
    }
  }
}
layer {
  name: "Pooling16"
  type: "Pooling"
  bottom: "Convolution16"
  top: "Pooling16"
  pooling_param {
    pool: MAX
    kernel_size: 2
    stride: 2
  }
}
layer {
  name: "InnerProduct21"
  type: "InnerProduct"
  bottom: "Pooling16"
  top: "InnerProduct21"
  param {
    name: "ip1_w"
    lr_mult: 1
  }
  param {
    name: "ip1_b"
    lr_mult: 2
  }
  inner_product_param {
    num_output: 100
    weight_filler {
      type: "xavier"
    }
    bias_filler {
      type: "constant"
    }
  }
}
layer {
  name: "ReLU14"
  type: "ReLU"
  bottom: "InnerProduct21"
  top: "InnerProduct21"
}
layer {
  name: "InnerProduct22"
  type: "InnerProduct"
  bottom: "InnerProduct21"
  top: "InnerProduct22"
  param {
    name: "ip2_w"
    lr_mult: 1
  }
  param {
    name: "ip2_b"
    lr_mult: 2
  }
  inner_product_param {
    num_output: 50
    weight_filler {
      type: "xavier"
    }
    bias_filler {
      type: "constant"
    }
  }
}
layer {
  name: "Concat4"
  type: "Concat"
  bottom: "InnerProduct20"
  bottom: "InnerProduct22"
  top: "Concat4"
  concat_param {
    axis: 1
  }
}
layer {
  name: "InnerProduct23"
  type: "InnerProduct"
  bottom: "Concat4"
  top: "InnerProduct23"
  param {
    name: "fc1_w"
    lr_mult: 1
  }
  param {
    name: "fc1_b"
    lr_mult: 2
  }
  inner_product_param {
    num_output: 64
    weight_filler {
      type: "xavier"
    }
    bias_filler {
      type: "constant"
    }
  }
}
layer {
  name: "ReLU15"
  type: "ReLU"
  bottom: "InnerProduct23"
  top: "InnerProduct23"
}
layer {
  name: "InnerProduct24"
  type: "InnerProduct"
  bottom: "InnerProduct23"
  top: "InnerProduct24"
  param {
    name: "fc2_w"
    lr_mult: 1
  }
  param {
    name: "fc2_b"
    lr_mult: 2
  }
  inner_product_param {
    num_output: 32
    weight_filler {
      type: "xavier"
    }
    bias_filler {
      type: "constant"
    }
  }
}
layer {
  name: "ReLU16"
  type: "ReLU"
  bottom: "InnerProduct24"
  top: "InnerProduct24"
}
layer {
  name: "dt3"
  type: "InnerProduct"
  bottom: "InnerProduct24"
  top: "dt3"
  param {
    name: "fc3_w"
    lr_mult: 1
  }
  param {
    name: "fc3_b"
    lr_mult: 2
  }
  inner_product_param {
    num_output: 1
    weight_filler {
      type: "xavier"
    }
    bias_filler {
      type: "constant"
    }
  }
}
layer {
  name: "Convolution17"
  type: "Convolution"
  bottom: "p1"
  top: "Convolution17"
  param {
    name: "conv1_w"
    lr_mult: 1
  }
  param {
    name: "conv1_b"
    lr_mult: 2
  }
  convolution_param {
    num_output: 20
    kernel_size: 5
    stride: 1
    weight_filler {
      type: "xavier"
    }
    bias_filler {
      type: "constant"
    }
  }
}
layer {
  name: "Pooling17"
  type: "Pooling"
  bottom: "Convolution17"
  top: "Pooling17"
  pooling_param {
    pool: MAX
    kernel_size: 2
    stride: 2
  }
}
layer {
  name: "Convolution18"
  type: "Convolution"
  bottom: "Pooling17"
  top: "Convolution18"
  param {
    name: "conv2_w"
    lr_mult: 1
  }
  param {
    name: "conv2_b"
    lr_mult: 2
  }
  convolution_param {
    num_output: 50
    kernel_size: 5
    stride: 1
    weight_filler {
      type: "xavier"
    }
    bias_filler {
      type: "constant"
    }
  }
}
layer {
  name: "Pooling18"
  type: "Pooling"
  bottom: "Convolution18"
  top: "Pooling18"
  pooling_param {
    pool: MAX
    kernel_size: 2
    stride: 2
  }
}
layer {
  name: "InnerProduct25"
  type: "InnerProduct"
  bottom: "Pooling18"
  top: "InnerProduct25"
  param {
    name: "ip1_w"
    lr_mult: 1
  }
  param {
    name: "ip1_b"
    lr_mult: 2
  }
  inner_product_param {
    num_output: 100
    weight_filler {
      type: "xavier"
    }
    bias_filler {
      type: "constant"
    }
  }
}
layer {
  name: "ReLU17"
  type: "ReLU"
  bottom: "InnerProduct25"
  top: "InnerProduct25"
}
layer {
  name: "InnerProduct26"
  type: "InnerProduct"
  bottom: "InnerProduct25"
  top: "InnerProduct26"
  param {
    name: "ip2_w"
    lr_mult: 1
  }
  param {
    name: "ip2_b"
    lr_mult: 2
  }
  inner_product_param {
    num_output: 50
    weight_filler {
      type: "xavier"
    }
    bias_filler {
      type: "constant"
    }
  }
}
layer {
  name: "Convolution19"
  type: "Convolution"
  bottom: "c24"
  top: "Convolution19"
  param {
    name: "conv1_w"
    lr_mult: 1
  }
  param {
    name: "conv1_b"
    lr_mult: 2
  }
  convolution_param {
    num_output: 20
    kernel_size: 5
    stride: 1
    weight_filler {
      type: "xavier"
    }
    bias_filler {
      type: "constant"
    }
  }
}
layer {
  name: "Pooling19"
  type: "Pooling"
  bottom: "Convolution19"
  top: "Pooling19"
  pooling_param {
    pool: MAX
    kernel_size: 2
    stride: 2
  }
}
layer {
  name: "Convolution20"
  type: "Convolution"
  bottom: "Pooling19"
  top: "Convolution20"
  param {
    name: "conv2_w"
    lr_mult: 1
  }
  param {
    name: "conv2_b"
    lr_mult: 2
  }
  convolution_param {
    num_output: 50
    kernel_size: 5
    stride: 1
    weight_filler {
      type: "xavier"
    }
    bias_filler {
      type: "constant"
    }
  }
}
layer {
  name: "Pooling20"
  type: "Pooling"
  bottom: "Convolution20"
  top: "Pooling20"
  pooling_param {
    pool: MAX
    kernel_size: 2
    stride: 2
  }
}
layer {
  name: "InnerProduct27"
  type: "InnerProduct"
  bottom: "Pooling20"
  top: "InnerProduct27"
  param {
    name: "ip1_w"
    lr_mult: 1
  }
  param {
    name: "ip1_b"
    lr_mult: 
I0803 14:46:10.522188 28176 layer_factory.hpp:77] Creating layer data
I0803 14:46:10.527880 28176 net.cpp:91] Creating Layer data
I0803 14:46:10.527902 28176 net.cpp:399] data -> data
I0803 14:46:10.527935 28176 net.cpp:399] data -> label
I0803 14:46:10.527951 28176 data_transformer.cpp:25] Loading mean file from: examples/scene/scene_mean.binaryproto
I0803 14:46:10.610237 28184 db_lmdb.cpp:35] Opened lmdb examples/scene/scene_train7_pairs_20000_pad.lmdb
I0803 14:46:10.629986 28176 data_layer.cpp:41] output data size: 100,6,128,128
I0803 14:46:10.766273 28176 net.cpp:141] Setting up data
I0803 14:46:10.766317 28176 net.cpp:148] Top shape: 100 6 128 128 (9830400)
I0803 14:46:10.766330 28176 net.cpp:148] Top shape: 100 (100)
I0803 14:46:10.766340 28176 net.cpp:156] Memory required for data: 39322000
I0803 14:46:10.766358 28176 layer_factory.hpp:77] Creating layer label_data_1_split
I0803 14:46:10.766387 28176 net.cpp:91] Creating Layer label_data_1_split
I0803 14:46:10.766399 28176 net.cpp:425] label_data_1_split <- label
I0803 14:46:10.766417 28176 net.cpp:399] label_data_1_split -> label_data_1_split_0
I0803 14:46:10.766440 28176 net.cpp:399] label_data_1_split -> label_data_1_split_1
I0803 14:46:10.766516 28176 net.cpp:141] Setting up label_data_1_split
I0803 14:46:10.766531 28176 net.cpp:148] Top shape: 100 (100)
I0803 14:46:10.766541 28176 net.cpp:148] Top shape: 100 (100)
I0803 14:46:10.766551 28176 net.cpp:156] Memory required for data: 39322800
I0803 14:46:10.766558 28176 layer_factory.hpp:77] Creating layer th
I0803 14:46:10.766577 28176 net.cpp:91] Creating Layer th
I0803 14:46:10.766584 28176 net.cpp:425] th <- label_data_1_split_0
I0803 14:46:10.766597 28176 net.cpp:399] th -> th
I0803 14:46:10.766634 28176 net.cpp:141] Setting up th
I0803 14:46:10.766649 28176 net.cpp:148] Top shape: 100 (100)
I0803 14:46:10.766655 28176 net.cpp:156] Memory required for data: 39323200
I0803 14:46:10.766664 28176 layer_factory.hpp:77] Creating layer th_th_0_split
I0803 14:46:10.766674 28176 net.cpp:91] Creating Layer th_th_0_split
I0803 14:46:10.766680 28176 net.cpp:425] th_th_0_split <- th
I0803 14:46:10.766692 28176 net.cpp:399] th_th_0_split -> th_th_0_split_0
I0803 14:46:10.766727 28176 net.cpp:399] th_th_0_split -> th_th_0_split_1
I0803 14:46:10.766780 28176 net.cpp:141] Setting up th_th_0_split
I0803 14:46:10.766793 28176 net.cpp:148] Top shape: 100 (100)
I0803 14:46:10.766801 28176 net.cpp:148] Top shape: 100 (100)
I0803 14:46:10.766809 28176 net.cpp:156] Memory required for data: 39324000
I0803 14:46:10.766819 28176 layer_factory.hpp:77] Creating layer i1
I0803 14:46:10.766837 28176 net.cpp:91] Creating Layer i1
I0803 14:46:10.766849 28176 net.cpp:425] i1 <- data
I0803 14:46:10.766860 28176 net.cpp:399] i1 -> i1
I0803 14:46:10.766875 28176 net.cpp:399] i1 -> i2
I0803 14:46:10.766932 28176 net.cpp:141] Setting up i1
I0803 14:46:10.766947 28176 net.cpp:148] Top shape: 100 3 128 128 (4915200)
I0803 14:46:10.766957 28176 net.cpp:148] Top shape: 100 3 128 128 (4915200)
I0803 14:46:10.766966 28176 net.cpp:156] Memory required for data: 78645600
I0803 14:46:10.766973 28176 layer_factory.hpp:77] Creating layer i1_i1_0_split
I0803 14:46:10.766984 28176 net.cpp:91] Creating Layer i1_i1_0_split
I0803 14:46:10.766991 28176 net.cpp:425] i1_i1_0_split <- i1
I0803 14:46:10.767004 28176 net.cpp:399] i1_i1_0_split -> i1_i1_0_split_0
I0803 14:46:10.767017 28176 net.cpp:399] i1_i1_0_split -> i1_i1_0_split_1
I0803 14:46:10.767035 28176 net.cpp:399] i1_i1_0_split -> i1_i1_0_split_2
I0803 14:46:10.767050 28176 net.cpp:399] i1_i1_0_split -> i1_i1_0_split_3
I0803 14:46:10.767063 28176 net.cpp:399] i1_i1_0_split -> i1_i1_0_split_4
I0803 14:46:10.767078 28176 net.cpp:399] i1_i1_0_split -> i1_i1_0_split_5
I0803 14:46:10.767094 28176 net.cpp:399] i1_i1_0_split -> i1_i1_0_split_6
I0803 14:46:10.767109 28176 net.cpp:399] i1_i1_0_split -> i1_i1_0_split_7
I0803 14:46:10.767127 28176 net.cpp:399] i1_i1_0_split -> i1_i1_0_split_8
I0803 14:46:10.767145 28176 net.cpp:399] i1_i1_0_split -> i1_i1_0_split_9
I0803 14:46:10.767372 28176 net.cpp:141] Setting up i1_i1_0_split
I0803 14:46:10.767387 28176 net.cpp:148] Top shape: 100 3 128 128 (4915200)
I0803 14:46:10.767397 28176 net.cpp:148] Top shape: 100 3 128 128 (4915200)
I0803 14:46:10.767410 28176 net.cpp:148] Top shape: 100 3 128 128 (4915200)
I0803 14:46:10.767421 28176 net.cpp:148] Top shape: 100 3 128 128 (4915200)
I0803 14:46:10.767432 28176 net.cpp:148] Top shape: 100 3 128 128 (4915200)
I0803 14:46:10.767443 28176 net.cpp:148] Top shape: 100 3 128 128 (4915200)
I0803 14:46:10.767455 28176 net.cpp:148] Top shape: 100 3 128 128 (4915200)
I0803 14:46:10.767468 28176 net.cpp:148] Top shape: 100 3 128 128 (4915200)
I0803 14:46:10.767483 28176 net.cpp:148] Top shape: 100 3 128 128 (4915200)
I0803 14:46:10.767495 28176 net.cpp:148] Top shape: 100 3 128 128 (4915200)
I0803 14:46:10.767504 28176 net.cpp:156] Memory required for data: 275253600
I0803 14:46:10.767513 28176 layer_factory.hpp:77] Creating layer i2_i1_1_split
I0803 14:46:10.767525 28176 net.cpp:91] Creating Layer i2_i1_1_split
I0803 14:46:10.767537 28176 net.cpp:425] i2_i1_1_split <- i2
I0803 14:46:10.767554 28176 net.cpp:399] i2_i1_1_split -> i2_i1_1_split_0
I0803 14:46:10.767573 28176 net.cpp:399] i2_i1_1_split -> i2_i1_1_split_1
I0803 14:46:10.767593 28176 net.cpp:399] i2_i1_1_split -> i2_i1_1_split_2
I0803 14:46:10.767611 28176 net.cpp:399] i2_i1_1_split -> i2_i1_1_split_3
I0803 14:46:10.767627 28176 net.cpp:399] i2_i1_1_split -> i2_i1_1_split_4
I0803 14:46:10.767644 28176 net.cpp:399] i2_i1_1_split -> i2_i1_1_split_5
I0803 14:46:10.767660 28176 net.cpp:399] i2_i1_1_split -> i2_i1_1_split_6
I0803 14:46:10.767676 28176 net.cpp:399] i2_i1_1_split -> i2_i1_1_split_7
I0803 14:46:10.767693 28176 net.cpp:399] i2_i1_1_split -> i2_i1_1_split_8
I0803 14:46:10.767710 28176 net.cpp:399] i2_i1_1_split -> i2_i1_1_split_9
I0803 14:46:10.773587 28176 net.cpp:141] Setting up i2_i1_1_split
I0803 14:46:10.773607 28176 net.cpp:148] Top shape: 100 3 128 128 (4915200)
I0803 14:46:10.773618 28176 net.cpp:148] Top shape: 100 3 128 128 (4915200)
I0803 14:46:10.773628 28176 net.cpp:148] Top shape: 100 3 128 128 (4915200)
I0803 14:46:10.773638 28176 net.cpp:148] Top shape: 100 3 128 128 (4915200)
I0803 14:46:10.773664 28176 net.cpp:148] Top shape: 100 3 128 128 (4915200)
I0803 14:46:10.773676 28176 net.cpp:148] Top shape: 100 3 128 128 (4915200)
I0803 14:46:10.773689 28176 net.cpp:148] Top shape: 100 3 128 128 (4915200)
I0803 14:46:10.773699 28176 net.cpp:148] Top shape: 100 3 128 128 (4915200)
I0803 14:46:10.773710 28176 net.cpp:148] Top shape: 100 3 128 128 (4915200)
I0803 14:46:10.773721 28176 net.cpp:148] Top shape: 100 3 128 128 (4915200)
I0803 14:46:10.773730 28176 net.cpp:156] Memory required for data: 471861600
I0803 14:46:10.773741 28176 layer_factory.hpp:77] Creating layer p1
I0803 14:46:10.773759 28176 net.cpp:91] Creating Layer p1
I0803 14:46:10.773771 28176 net.cpp:425] p1 <- i1_i1_0_split_0
I0803 14:46:10.773783 28176 net.cpp:399] p1 -> p1
I0803 14:46:10.773834 28176 net.cpp:141] Setting up p1
I0803 14:46:10.773849 28176 net.cpp:148] Top shape: 100 3 64 64 (1228800)
I0803 14:46:10.773859 28176 net.cpp:156] Memory required for data: 476776800
I0803 14:46:10.773869 28176 layer_factory.hpp:77] Creating layer p1_p1_0_split
I0803 14:46:10.773885 28176 net.cpp:91] Creating Layer p1_p1_0_split
I0803 14:46:10.773896 28176 net.cpp:425] p1_p1_0_split <- p1
I0803 14:46:10.773908 28176 net.cpp:399] p1_p1_0_split -> p1_p1_0_split_0
I0803 14:46:10.773927 28176 net.cpp:399] p1_p1_0_split -> p1_p1_0_split_1
I0803 14:46:10.773944 28176 net.cpp:399] p1_p1_0_split -> p1_p1_0_split_2
I0803 14:46:10.773967 28176 net.cpp:399] p1_p1_0_split -> p1_p1_0_split_3
I0803 14:46:10.773983 28176 net.cpp:399] p1_p1_0_split -> p1_p1_0_split_4
I0803 14:46:10.773999 28176 net.cpp:399] p1_p1_0_split -> p1_p1_0_split_5
I0803 14:46:10.774016 28176 net.cpp:399] p1_p1_0_split -> p1_p1_0_split_6
I0803 14:46:10.774032 28176 net.cpp:399] p1_p1_0_split -> p1_p1_0_split_7
I0803 14:46:10.774049 28176 net.cpp:399] p1_p1_0_split -> p1_p1_0_split_8
I0803 14:46:10.774066 28176 net.cpp:399] p1_p1_0_split -> p1_p1_0_split_9
I0803 14:46:10.774237 28176 net.cpp:141] Setting up p1_p1_0_split
I0803 14:46:10.774250 28176 net.cpp:148] Top shape: 100 3 64 64 (1228800)
I0803 14:46:10.774261 28176 net.cpp:148] Top shape: 100 3 64 64 (1228800)
I0803 14:46:10.774273 28176 net.cpp:148] Top shape: 100 3 64 64 (1228800)
I0803 14:46:10.774284 28176 net.cpp:148] Top shape: 100 3 64 64 (1228800)
I0803 14:46:10.774296 28176 net.cpp:148] Top shape: 100 3 64 64 (1228800)
I0803 14:46:10.774307 28176 net.cpp:148] Top shape: 100 3 64 64 (1228800)
I0803 14:46:10.774318 28176 net.cpp:148] Top shape: 100 3 64 64 (1228800)
I0803 14:46:10.774329 28176 net.cpp:148] Top shape: 100 3 64 64 (1228800)
I0803 14:46:10.774340 28176 net.cpp:148] Top shape: 100 3 64 64 (1228800)
I0803 14:46:10.774353 28176 net.cpp:148] Top shape: 100 3 64 64 (1228800)
I0803 14:46:10.774361 28176 net.cpp:156] Memory required for data: 525928800
I0803 14:46:10.774369 28176 layer_factory.hpp:77] Creating layer p2
I0803 14:46:10.774381 28176 net.cpp:91] Creating Layer p2
I0803 14:46:10.774391 28176 net.cpp:425] p2 <- i2_i1_1_split_0
I0803 14:46:10.774404 28176 net.cpp:399] p2 -> p2
I0803 14:46:10.774437 28176 net.cpp:141] Setting up p2
I0803 14:46:10.774449 28176 net.cpp:148] Top shape: 100 3 64 64 (1228800)
I0803 14:46:10.774459 28176 net.cpp:156] Memory required for data: 530844000
I0803 14:46:10.774468 28176 layer_factory.hpp:77] Creating layer p2_p2_0_split
I0803 14:46:10.774482 28176 net.cpp:91] Creating Layer p2_p2_0_split
I0803 14:46:10.774492 28176 net.cpp:425] p2_p2_0_split <- p2
I0803 14:46:10.774504 28176 net.cpp:399] p2_p2_0_split -> p2_p2_0_split_0
I0803 14:46:10.774523 28176 net.cpp:399] p2_p2_0_split -> p2_p2_0_split_1
I0803 14:46:10.774540 28176 net.cpp:399] p2_p2_0_split -> p2_p2_0_split_2
I0803 14:46:10.774556 28176 net.cpp:399] p2_p2_0_split -> p2_p2_0_split_3
I0803 14:46:10.774574 28176 net.cpp:399] p2_p2_0_split -> p2_p2_0_split_4
I0803 14:46:10.774591 28176 net.cpp:399] p2_p2_0_split -> p2_p2_0_split_5
I0803 14:46:10.774608 28176 net.cpp:399] p2_p2_0_split -> p2_p2_0_split_6
I0803 14:46:10.774626 28176 net.cpp:399] p2_p2_0_split -> p2_p2_0_split_7
I0803 14:46:10.774654 28176 net.cpp:399] p2_p2_0_split -> p2_p2_0_split_8
I0803 14:46:10.774673 28176 net.cpp:399] p2_p2_0_split -> p2_p2_0_split_9
I0803 14:46:10.774844 28176 net.cpp:141] Setting up p2_p2_0_split
I0803 14:46:10.774857 28176 net.cpp:148] Top shape: 100 3 64 64 (1228800)
I0803 14:46:10.774868 28176 net.cpp:148] Top shape: 100 3 64 64 (1228800)
I0803 14:46:10.774879 28176 net.cpp:148] Top shape: 100 3 64 64 (1228800)
I0803 14:46:10.774891 28176 net.cpp:148] Top shape: 100 3 64 64 (1228800)
I0803 14:46:10.774902 28176 net.cpp:148] Top shape: 100 3 64 64 (1228800)
I0803 14:46:10.774914 28176 net.cpp:148] Top shape: 100 3 64 64 (1228800)
I0803 14:46:10.774925 28176 net.cpp:148] Top shape: 100 3 64 64 (1228800)
I0803 14:46:10.774935 28176 net.cpp:148] Top shape: 100 3 64 64 (1228800)
I0803 14:46:10.774945 28176 net.cpp:148] Top shape: 100 3 64 64 (1228800)
I0803 14:46:10.774955 28176 net.cpp:148] Top shape: 100 3 64 64 (1228800)
I0803 14:46:10.774963 28176 net.cpp:156] Memory required for data: 579996000
I0803 14:46:10.774971 28176 layer_factory.hpp:77] Creating layer Input1
I0803 14:46:10.774984 28176 net.cpp:91] Creating Layer Input1
I0803 14:46:10.774996 28176 net.cpp:399] Input1 -> Input1
I0803 14:46:10.775033 28176 net.cpp:141] Setting up Input1
I0803 14:46:10.775045 28176 net.cpp:148] Top shape: 100 3 64 64 (1228800)
I0803 14:46:10.775053 28176 net.cpp:156] Memory required for data: 584911200
I0803 14:46:10.775060 28176 layer_factory.hpp:77] Creating layer c11
I0803 14:46:10.775075 28176 net.cpp:91] Creating Layer c11
I0803 14:46:10.775084 28176 net.cpp:425] c11 <- i1_i1_0_split_1
I0803 14:46:10.775094 28176 net.cpp:425] c11 <- Input1
I0803 14:46:10.775105 28176 net.cpp:399] c11 -> c11
I0803 14:46:10.775143 28176 net.cpp:141] Setting up c11
I0803 14:46:10.775156 28176 net.cpp:148] Top shape: 100 3 64 64 (1228800)
I0803 14:46:10.775163 28176 net.cpp:156] Memory required for data: 589826400
I0803 14:46:10.775171 28176 layer_factory.hpp:77] Creating layer Input2
I0803 14:46:10.775182 28176 net.cpp:91] Creating Layer Input2
I0803 14:46:10.775192 28176 net.cpp:399] Input2 -> Input2
I0803 14:46:10.775226 28176 net.cpp:141] Setting up Input2
I0803 14:46:10.775238 28176 net.cpp:148] Top shape: 100 3 64 64 (1228800)
I0803 14:46:10.775246 28176 net.cpp:156] Memory required for data: 594741600
I0803 14:46:10.775254 28176 layer_factory.hpp:77] Creating layer c12
I0803 14:46:10.775264 28176 net.cpp:91] Creating Layer c12
I0803 14:46:10.775298 28176 net.cpp:425] c12 <- i1_i1_0_split_2
I0803 14:46:10.775315 28176 net.cpp:425] c12 <- Input2
I0803 14:46:10.775333 28176 net.cpp:399] c12 -> c12
I0803 14:46:10.775383 28176 net.cpp:141] Setting up c12
I0803 14:46:10.775403 28176 net.cpp:148] Top shape: 100 3 64 64 (1228800)
I0803 14:46:10.775414 28176 net.cpp:156] Memory required for data: 599656800
I0803 14:46:10.775425 28176 layer_factory.hpp:77] Creating layer Input3
I0803 14:46:10.775441 28176 net.cpp:91] Creating Layer Input3
I0803 14:46:10.775456 28176 net.cpp:399] Input3 -> Input3
I0803 14:46:10.775508 28176 net.cpp:141] Setting up Input3
I0803 14:46:10.775526 28176 net.cpp:148] Top shape: 100 3 64 64 (1228800)
I0803 14:46:10.775537 28176 net.cpp:156] Memory required for data: 604572000
I0803 14:46:10.775547 28176 layer_factory.hpp:77] Creating layer c13
I0803 14:46:10.775568 28176 net.cpp:91] Creating Layer c13
I0803 14:46:10.775580 28176 net.cpp:425] c13 <- i1_i1_0_split_3
I0803 14:46:10.775594 28176 net.cpp:425] c13 <- Input3
I0803 14:46:10.775612 28176 net.cpp:399] c13 -> c13
I0803 14:46:10.775663 28176 net.cpp:141] Setting up c13
I0803 14:46:10.775681 28176 net.cpp:148] Top shape: 100 3 64 64 (1228800)
I0803 14:46:10.775692 28176 net.cpp:156] Memory required for data: 609487200
I0803 14:46:10.775703 28176 layer_factory.hpp:77] Creating layer Input4
I0803 14:46:10.775719 28176 net.cpp:91] Creating Layer Input4
I0803 14:46:10.775734 28176 net.cpp:399] Input4 -> Input4
I0803 14:46:10.775789 28176 net.cpp:141] Setting up Input4
I0803 14:46:10.775807 28176 net.cpp:148] Top shape: 100 3 64 64 (1228800)
I0803 14:46:10.775818 28176 net.cpp:156] Memory required for data: 614402400
I0803 14:46:10.775851 28176 layer_factory.hpp:77] Creating layer c14
I0803 14:46:10.775867 28176 net.cpp:91] Creating Layer c14
I0803 14:46:10.775881 28176 net.cpp:425] c14 <- i1_i1_0_split_4
I0803 14:46:10.775895 28176 net.cpp:425] c14 <- Input4
I0803 14:46:10.775913 28176 net.cpp:399] c14 -> c14
I0803 14:46:10.775964 28176 net.cpp:141] Setting up c14
I0803 14:46:10.775981 28176 net.cpp:148] Top shape: 100 3 64 64 (1228800)
I0803 14:46:10.775992 28176 net.cpp:156] Memory required for data: 619317600
I0803 14:46:10.776003 28176 layer_factory.hpp:77] Creating layer Input5
I0803 14:46:10.776021 28176 net.cpp:91] Creating Layer Input5
I0803 14:46:10.776031 28185 blocking_queue.cpp:50] Waiting for data
I0803 14:46:10.776037 28176 net.cpp:399] Input5 -> Input5
I0803 14:46:10.776106 28176 net.cpp:141] Setting up Input5
I0803 14:46:10.776125 28176 net.cpp:148] Top shape: 100 3 64 64 (1228800)
I0803 14:46:10.776136 28176 net.cpp:156] Memory required for data: 624232800
I0803 14:46:10.776147 28176 layer_factory.hpp:77] Creating layer c15
I0803 14:46:10.776163 28176 net.cpp:91] Creating Layer c15
I0803 14:46:10.776175 28176 net.cpp:425] c15 <- i1_i1_0_split_5
I0803 14:46:10.776190 28176 net.cpp:425] c15 <- Input5
I0803 14:46:10.776208 28176 net.cpp:399] c15 -> c15
I0803 14:46:10.776258 28176 net.cpp:141] Setting up c15
I0803 14:46:10.776276 28176 net.cpp:148] Top shape: 100 3 64 64 (1228800)
I0803 14:46:10.776288 28176 net.cpp:156] Memory required for data: 629148000
I0803 14:46:10.776298 28176 layer_factory.hpp:77] Creating layer Input6
I0803 14:46:10.776314 28176 net.cpp:91] Creating Layer Input6
I0803 14:46:10.776329 28176 net.cpp:399] Input6 -> Input6
I0803 14:46:10.776378 28176 net.cpp:141] Setting up Input6
I0803 14:46:10.776396 28176 net.cpp:148] Top shape: 100 3 64 64 (1228800)
I0803 14:46:10.776407 28176 net.cpp:156] Memory required for data: 634063200
I0803 14:46:10.776417 28176 layer_factory.hpp:77] Creating layer c16
I0803 14:46:10.776433 28176 net.cpp:91] Creating Layer c16
I0803 14:46:10.776445 28176 net.cpp:425] c16 <- i1_i1_0_split_6
I0803 14:46:10.776460 28176 net.cpp:425] c16 <- Input6
I0803 14:46:10.776478 28176 net.cpp:399] c16 -> c16
I0803 14:46:10.776530 28176 net.cpp:141] Setting up c16
I0803 14:46:10.776548 28176 net.cpp:148] Top shape: 100 3 64 64 (1228800)
I0803 14:46:10.776559 28176 net.cpp:156] Memory required for data: 638978400
I0803 14:46:10.776571 28176 layer_factory.hpp:77] Creating layer Input7
I0803 14:46:10.776604 28176 net.cpp:91] Creating Layer Input7
I0803 14:46:10.776619 28176 net.cpp:399] Input7 -> Input7
I0803 14:46:10.776669 28176 net.cpp:141] Setting up Input7
I0803 14:46:10.776686 28176 net.cpp:148] Top shape: 100 3 64 64 (1228800)
I0803 14:46:10.776697 28176 net.cpp:156] Memory required for data: 643893600
I0803 14:46:10.776710 28176 layer_factory.hpp:77] Creating layer c17
I0803 14:46:10.776724 28176 net.cpp:91] Creating Layer c17
I0803 14:46:10.776737 28176 net.cpp:425] c17 <- i1_i1_0_split_7
I0803 14:46:10.776752 28176 net.cpp:425] c17 <- Input7
I0803 14:46:10.776769 28176 net.cpp:399] c17 -> c17
I0803 14:46:10.776830 28176 net.cpp:141] Setting up c17
I0803 14:46:10.776849 28176 net.cpp:148] Top shape: 100 3 64 64 (1228800)
I0803 14:46:10.776860 28176 net.cpp:156] Memory required for data: 648808800
I0803 14:46:10.776872 28176 layer_factory.hpp:77] Creating layer Input8
I0803 14:46:10.776888 28176 net.cpp:91] Creating Layer Input8
I0803 14:46:10.776903 28176 net.cpp:399] Input8 -> Input8
I0803 14:46:10.776954 28176 net.cpp:141] Setting up Input8
I0803 14:46:10.776973 28176 net.cpp:148] Top shape: 100 3 64 64 (1228800)
I0803 14:46:10.776983 28176 net.cpp:156] Memory required for data: 653724000
I0803 14:46:10.776994 28176 layer_factory.hpp:77] Creating layer c18
I0803 14:46:10.777009 28176 net.cpp:91] Creating Layer c18
I0803 14:46:10.777021 28176 net.cpp:425] c18 <- i1_i1_0_split_8
I0803 14:46:10.777036 28176 net.cpp:425] c18 <- Input8
I0803 14:46:10.777055 28176 net.cpp:399] c18 -> c18
I0803 14:46:10.777107 28176 net.cpp:141] Setting up c18
I0803 14:46:10.777138 28176 net.cpp:148] Top shape: 100 3 64 64 (1228800)
I0803 14:46:10.777150 28176 net.cpp:156] Memory required for data: 658639200
I0803 14:46:10.777161 28176 layer_factory.hpp:77] Creating layer Input9
I0803 14:46:10.777178 28176 net.cpp:91] Creating Layer Input9
I0803 14:46:10.777192 28176 net.cpp:399] Input9 -> Input9
I0803 14:46:10.777243 28176 net.cpp:141] Setting up Input9
I0803 14:46:10.777261 28176 net.cpp:148] Top shape: 100 3 64 64 (1228800)
I0803 14:46:10.777271 28176 net.cpp:156] Memory required for data: 663554400
I0803 14:46:10.777282 28176 layer_factory.hpp:77] Creating layer c19
I0803 14:46:10.777298 28176 net.cpp:91] Creating Layer c19
I0803 14:46:10.777310 28176 net.cpp:425] c19 <- i1_i1_0_split_9
I0803 14:46:10.777325 28176 net.cpp:425] c19 <- Input9
I0803 14:46:10.777343 28176 net.cpp:399] c19 -> c19
I0803 14:46:10.777395 28176 net.cpp:141] Setting up c19
I0803 14:46:10.777412 28176 net.cpp:148] Top shape: 100 3 64 64 (1228800)
I0803 14:46:10.777425 28176 net.cpp:156] Memory required for data: 668469600
I0803 14:46:10.777436 28176 layer_factory.hpp:77] Creating layer Input10
I0803 14:46:10.777451 28176 net.cpp:91] Creating Layer Input10
I0803 14:46:10.777467 28176 net.cpp:399] Input10 -> Input10
I0803 14:46:10.777515 28176 net.cpp:141] Setting up Input10
I0803 14:46:10.777532 28176 net.cpp:148] Top shape: 100 3 64 64 (1228800)
I0803 14:46:10.777544 28176 net.cpp:156] Memory required for data: 673384800
I0803 14:46:10.777554 28176 layer_factory.hpp:77] Creating layer c21
I0803 14:46:10.777570 28176 net.cpp:91] Creating Layer c21
I0803 14:46:10.777583 28176 net.cpp:425] c21 <- i2_i1_1_split_1
I0803 14:46:10.777598 28176 net.cpp:425] c21 <- Input10
I0803 14:46:10.777616 28176 net.cpp:399] c21 -> c21
I0803 14:46:10.777667 28176 net.cpp:141] Setting up c21
I0803 14:46:10.777684 28176 net.cpp:148] Top shape: 100 3 64 64 (1228800)
I0803 14:46:10.777695 28176 net.cpp:156] Memory required for data: 678300000
I0803 14:46:10.777706 28176 layer_factory.hpp:77] Creating layer Input11
I0803 14:46:10.777722 28176 net.cpp:91] Creating Layer Input11
I0803 14:46:10.777739 28176 net.cpp:399] Input11 -> Input11
I0803 14:46:10.777787 28176 net.cpp:141] Setting up Input11
I0803 14:46:10.777806 28176 net.cpp:148] Top shape: 100 3 64 64 (1228800)
I0803 14:46:10.777817 28176 net.cpp:156] Memory required for data: 683215200
I0803 14:46:10.777827 28176 layer_factory.hpp:77] Creating layer c22
I0803 14:46:10.777850 28176 net.cpp:91] Creating Layer c22
I0803 14:46:10.777863 28176 net.cpp:425] c22 <- i2_i1_1_split_2
I0803 14:46:10.777878 28176 net.cpp:425] c22 <- Input11
I0803 14:46:10.777896 28176 net.cpp:399] c22 -> c22
I0803 14:46:10.777945 28176 net.cpp:141] Setting up c22
I0803 14:46:10.777963 28176 net.cpp:148] Top shape: 100 3 64 64 (1228800)
I0803 14:46:10.777974 28176 net.cpp:156] Memory required for data: 688130400
I0803 14:46:10.777986 28176 layer_factory.hpp:77] Creating layer Input12
I0803 14:46:10.778002 28176 net.cpp:91] Creating Layer Input12
I0803 14:46:10.778015 28176 net.cpp:399] Input12 -> Input12
I0803 14:46:10.778065 28176 net.cpp:141] Setting up Input12
I0803 14:46:10.778082 28176 net.cpp:148] Top shape: 100 3 64 64 (1228800)
I0803 14:46:10.778093 28176 net.cpp:156] Memory required for data: 693045600
I0803 14:46:10.778105 28176 layer_factory.hpp:77] Creating layer c23
I0803 14:46:10.778120 28176 net.cpp:91] Creating Layer c23
I0803 14:46:10.778132 28176 net.cpp:425] c23 <- i2_i1_1_split_3
I0803 14:46:10.778147 28176 net.cpp:425] c23 <- Input12
I0803 14:46:10.778164 28176 net.cpp:399] c23 -> c23
I0803 14:46:10.778215 28176 net.cpp:141] Setting up c23
I0803 14:46:10.778234 28176 net.cpp:148] Top shape: 100 3 64 64 (1228800)
I0803 14:46:10.778245 28176 net.cpp:156] Memory required for data: 697960800
I0803 14:46:10.778256 28176 layer_factory.hpp:77] Creating layer Input13
I0803 14:46:10.778273 28176 net.cpp:91] Creating Layer Input13
I0803 14:46:10.778288 28176 net.cpp:399] Input13 -> Input13
I0803 14:46:10.778340 28176 net.cpp:141] Setting up Input13
I0803 14:46:10.778358 28176 net.cpp:148] Top shape: 100 3 64 64 (1228800)
I0803 14:46:10.778388 28176 net.cpp:156] Memory required for data: 702876000
I0803 14:46:10.778399 28176 layer_factory.hpp:77] Creating layer c24
I0803 14:46:10.778415 28176 net.cpp:91] Creating Layer c24
I0803 14:46:10.778427 28176 net.cpp:425] c24 <- i2_i1_1_split_4
I0803 14:46:10.778442 28176 net.cpp:425] c24 <- Input13
I0803 14:46:10.778460 28176 net.cpp:399] c24 -> c24
I0803 14:46:10.778513 28176 net.cpp:141] Setting up c24
I0803 14:46:10.778532 28176 net.cpp:148] Top shape: 100 3 64 64 (1228800)
I0803 14:46:10.778542 28176 net.cpp:156] Memory required for data: 707791200
I0803 14:46:10.778553 28176 layer_factory.hpp:77] Creating layer Input14
I0803 14:46:10.778570 28176 net.cpp:91] Creating Layer Input14
I0803 14:46:10.778585 28176 net.cpp:399] Input14 -> Input14
I0803 14:46:10.778637 28176 net.cpp:141] Setting up Input14
I0803 14:46:10.778656 28176 net.cpp:148] Top shape: 100 3 64 64 (1228800)
I0803 14:46:10.778666 28176 net.cpp:156] Memory required for data: 712706400
I0803 14:46:10.778677 28176 layer_factory.hpp:77] Creating layer c25
I0803 14:46:10.778692 28176 net.cpp:91] Creating Layer c25
I0803 14:46:10.778704 28176 net.cpp:425] c25 <- i2_i1_1_split_5
I0803 14:46:10.778719 28176 net.cpp:425] c25 <- Input14
I0803 14:46:10.778738 28176 net.cpp:399] c25 -> c25
I0803 14:46:10.778790 28176 net.cpp:141] Setting up c25
I0803 14:46:10.778805 28176 net.cpp:148] Top shape: 100 3 64 64 (1228800)
I0803 14:46:10.778815 28176 net.cpp:156] Memory required for data: 717621600
I0803 14:46:10.778826 28176 layer_factory.hpp:77] Creating layer Input15
I0803 14:46:10.778841 28176 net.cpp:91] Creating Layer Input15
I0803 14:46:10.778856 28176 net.cpp:399] Input15 -> Input15
I0803 14:46:10.778905 28176 net.cpp:141] Setting up Input15
I0803 14:46:10.778921 28176 net.cpp:148] Top shape: 100 3 64 64 (1228800)
I0803 14:46:10.778933 28176 net.cpp:156] Memory required for data: 722536800
I0803 14:46:10.778944 28176 layer_factory.hpp:77] Creating layer c26
I0803 14:46:10.778959 28176 net.cpp:91] Creating Layer c26
I0803 14:46:10.778971 28176 net.cpp:425] c26 <- i2_i1_1_split_6
I0803 14:46:10.778986 28176 net.cpp:425] c26 <- Input15
I0803 14:46:10.779003 28176 net.cpp:399] c26 -> c26
I0803 14:46:10.779057 28176 net.cpp:141] Setting up c26
I0803 14:46:10.779074 28176 net.cpp:148] Top shape: 100 3 64 64 (1228800)
I0803 14:46:10.779088 28176 net.cpp:156] Memory required for data: 727452000
I0803 14:46:10.779103 28176 layer_factory.hpp:77] Creating layer Input16
I0803 14:46:10.779153 28176 net.cpp:91] Creating Layer Input16
I0803 14:46:10.779172 28176 net.cpp:399] Input16 -> Input16
I0803 14:46:10.779227 28176 net.cpp:141] Setting up Input16
I0803 14:46:10.779242 28176 net.cpp:148] Top shape: 100 3 64 64 (1228800)
I0803 14:46:10.779253 28176 net.cpp:156] Memory required for data: 732367200
I0803 14:46:10.779265 28176 layer_factory.hpp:77] Creating layer c27
I0803 14:46:10.779292 28176 net.cpp:91] Creating Layer c27
I0803 14:46:10.779304 28176 net.cpp:425] c27 <- i2_i1_1_split_7
I0803 14:46:10.779320 28176 net.cpp:425] c27 <- Input16
I0803 14:46:10.779336 28176 net.cpp:399] c27 -> c27
I0803 14:46:10.779392 28176 net.cpp:141] Setting up c27
I0803 14:46:10.779408 28176 net.cpp:148] Top shape: 100 3 64 64 (1228800)
I0803 14:46:10.779418 28176 net.cpp:156] Memory required for data: 737282400
I0803 14:46:10.779429 28176 layer_factory.hpp:77] Creating layer Input17
I0803 14:46:10.779444 28176 net.cpp:91] Creating Layer Input17
I0803 14:46:10.779458 28176 net.cpp:399] Input17 -> Input17
I0803 14:46:10.779505 28176 net.cpp:141] Setting up Input17
I0803 14:46:10.779516 28176 net.cpp:148] Top shape: 100 3 64 64 (1228800)
I0803 14:46:10.779525 28176 net.cpp:156] Memory required for data: 742197600
I0803 14:46:10.779534 28176 layer_factory.hpp:77] Creating layer c28
I0803 14:46:10.779546 28176 net.cpp:91] Creating Layer c28
I0803 14:46:10.779556 28176 net.cpp:425] c28 <- i2_i1_1_split_8
I0803 14:46:10.779568 28176 net.cpp:425] c28 <- Input17
I0803 14:46:10.779582 28176 net.cpp:399] c28 -> c28
I0803 14:46:10.779623 28176 net.cpp:141] Setting up c28
I0803 14:46:10.779654 28176 net.cpp:148] Top shape: 100 3 64 64 (1228800)
I0803 14:46:10.779664 28176 net.cpp:156] Memory required for data: 747112800
I0803 14:46:10.779673 28176 layer_factory.hpp:77] Creating layer Input18
I0803 14:46:10.779690 28176 net.cpp:91] Creating Layer Input18
I0803 14:46:10.779702 28176 net.cpp:399] Input18 -> Input18
I0803 14:46:10.779742 28176 net.cpp:141] Setting up Input18
I0803 14:46:10.779757 28176 net.cpp:148] Top shape: 100 3 64 64 (1228800)
I0803 14:46:10.779764 28176 net.cpp:156] Memory required for data: 752028000
I0803 14:46:10.779772 28176 layer_factory.hpp:77] Creating layer c29
I0803 14:46:10.779784 28176 net.cpp:91] Creating Layer c29
I0803 14:46:10.779796 28176 net.cpp:425] c29 <- i2_i1_1_split_9
I0803 14:46:10.779808 28176 net.cpp:425] c29 <- Input18
I0803 14:46:10.779821 28176 net.cpp:399] c29 -> c29
I0803 14:46:10.779861 28176 net.cpp:141] Setting up c29
I0803 14:46:10.779875 28176 net.cpp:148] Top shape: 100 3 64 64 (1228800)
I0803 14:46:10.779884 28176 net.cpp:156] Memory required for data: 756943200
I0803 14:46:10.779892 28176 layer_factory.hpp:77] Creating layer Convolution1
I0803 14:46:10.779917 28176 net.cpp:91] Creating Layer Convolution1
I0803 14:46:10.779929 28176 net.cpp:425] Convolution1 <- p1_p1_0_split_0
I0803 14:46:10.779944 28176 net.cpp:399] Convolution1 -> Convolution1
I0803 14:46:10.781347 28176 net.cpp:141] Setting up Convolution1
I0803 14:46:10.781369 28176 net.cpp:148] Top shape: 100 20 60 60 (7200000)
I0803 14:46:10.781378 28176 net.cpp:156] Memory required for data: 785743200
I0803 14:46:10.781400 28176 layer_factory.hpp:77] Creating layer Pooling1
I0803 14:46:10.781414 28176 net.cpp:91] Creating Layer Pooling1
I0803 14:46:10.781424 28176 net.cpp:425] Pooling1 <- Convolution1
I0803 14:46:10.781438 28176 net.cpp:399] Pooling1 -> Pooling1
I0803 14:46:10.781505 28176 net.cpp:141] Setting up Pooling1
I0803 14:46:10.781519 28176 net.cpp:148] Top shape: 100 20 30 30 (1800000)
I0803 14:46:10.781528 28176 net.cpp:156] Memory required for data: 792943200
I0803 14:46:10.781536 28176 layer_factory.hpp:77] Creating layer Convolution2
I0803 14:46:10.781553 28176 net.cpp:91] Creating Layer Convolution2
I0803 14:46:10.781563 28176 net.cpp:425] Convolution2 <- Pooling1
I0803 14:46:10.781579 28176 net.cpp:399] Convolution2 -> Convolution2
I0803 14:46:10.783756 28176 net.cpp:141] Setting up Convolution2
I0803 14:46:10.783773 28176 net.cpp:148] Top shape: 100 50 26 26 (3380000)
I0803 14:46:10.783779 28176 net.cpp:156] Memory required for data: 806463200
I0803 14:46:10.783793 28176 layer_factory.hpp:77] Creating layer Pooling2
I0803 14:46:10.783805 28176 net.cpp:91] Creating Layer Pooling2
I0803 14:46:10.783813 28176 net.cpp:425] Pooling2 <- Convolution2
I0803 14:46:10.783823 28176 net.cpp:399] Pooling2 -> Pooling2
I0803 14:46:10.783874 28176 net.cpp:141] Setting up Pooling2
I0803 14:46:10.783885 28176 net.cpp:148] Top shape: 100 50 13 13 (845000)
I0803 14:46:10.783890 28176 net.cpp:156] Memory required for data: 809843200
I0803 14:46:10.783896 28176 layer_factory.hpp:77] Creating layer InnerProduct1
I0803 14:46:10.783910 28176 net.cpp:91] Creating Layer InnerProduct1
I0803 14:46:10.783915 28176 net.cpp:425] InnerProduct1 <- Pooling2
I0803 14:46:10.783926 28176 net.cpp:399] InnerProduct1 -> InnerProduct1
I0803 14:46:10.792203 28176 net.cpp:141] Setting up InnerProduct1
I0803 14:46:10.792234 28176 net.cpp:148] Top shape: 100 100 (10000)
I0803 14:46:10.792242 28176 net.cpp:156] Memory required for data: 809883200
I0803 14:46:10.792260 28176 layer_factory.hpp:77] Creating layer ReLU1
I0803 14:46:10.792273 28176 net.cpp:91] Creating Layer ReLU1
I0803 14:46:10.792285 28176 net.cpp:425] ReLU1 <- InnerProduct1
I0803 14:46:10.792294 28176 net.cpp:386] ReLU1 -> InnerProduct1 (in-place)
I0803 14:46:10.792309 28176 net.cpp:141] Setting up ReLU1
I0803 14:46:10.792316 28176 net.cpp:148] Top shape: 100 100 (10000)
I0803 14:46:10.792322 28176 net.cpp:156] Memory required for data: 809923200
I0803 14:46:10.792327 28176 layer_factory.hpp:77] Creating layer InnerProduct2
I0803 14:46:10.792363 28176 net.cpp:91] Creating Layer InnerProduct2
I0803 14:46:10.792371 28176 net.cpp:425] InnerProduct2 <- InnerProduct1
I0803 14:46:10.792382 28176 net.cpp:399] InnerProduct2 -> InnerProduct2
I0803 14:46:10.793193 28176 net.cpp:141] Setting up InnerProduct2
I0803 14:46:10.793208 28176 net.cpp:148] Top shape: 100 50 (5000)
I0803 14:46:10.793215 28176 net.cpp:156] Memory required for data: 809943200
I0803 14:46:10.793225 28176 layer_factory.hpp:77] Creating layer Convolution3
I0803 14:46:10.793241 28176 net.cpp:91] Creating Layer Convolution3
I0803 14:46:10.793249 28176 net.cpp:425] Convolution3 <- p2_p2_0_split_0
I0803 14:46:10.793262 28176 net.cpp:399] Convolution3 -> Convolution3
I0803 14:46:10.793588 28176 net.cpp:141] Setting up Convolution3
I0803 14:46:10.793598 28176 net.cpp:148] Top shape: 100 20 60 60 (7200000)
I0803 14:46:10.793604 28176 net.cpp:156] Memory required for data: 838743200
I0803 14:46:10.793613 28176 net.cpp:484] Sharing parameters 'conv1_w' owned by layer 'Convolution1', param index 0
I0803 14:46:10.793622 28176 net.cpp:484] Sharing parameters 'conv1_b' owned by layer 'Convolution1', param index 1
I0803 14:46:10.793628 28176 layer_factory.hpp:77] Creating layer Pooling3
I0803 14:46:10.793640 28176 net.cpp:91] Creating Layer Pooling3
I0803 14:46:10.793647 28176 net.cpp:425] Pooling3 <- Convolution3
I0803 14:46:10.793655 28176 net.cpp:399] Pooling3 -> Pooling3
I0803 14:46:10.793704 28176 net.cpp:141] Setting up Pooling3
I0803 14:46:10.793715 28176 net.cpp:148] Top shape: 100 20 30 30 (1800000)
I0803 14:46:10.793720 28176 net.cpp:156] Memory required for data: 845943200
I0803 14:46:10.793726 28176 layer_factory.hpp:77] Creating layer Convolution4
I0803 14:46:10.793741 28176 net.cpp:91] Creating Layer Convolution4
I0803 14:46:10.793747 28176 net.cpp:425] Convolution4 <- Pooling3
I0803 14:46:10.793757 28176 net.cpp:399] Convolution4 -> Convolution4
I0803 14:46:10.794256 28176 net.cpp:141] Setting up Convolution4
I0803 14:46:10.794266 28176 net.cpp:148] Top shape: 100 50 26 26 (3380000)
I0803 14:46:10.794272 28176 net.cpp:156] Memory required for data: 859463200
I0803 14:46:10.794278 28176 net.cpp:484] Sharing parameters 'conv2_w' owned by layer 'Convolution2', param index 0
I0803 14:46:10.794286 28176 net.cpp:484] Sharing parameters 'conv2_b' owned by layer 'Convolution2', param index 1
I0803 14:46:10.794292 28176 layer_factory.hpp:77] Creating layer Pooling4
I0803 14:46:10.794301 28176 net.cpp:91] Creating Layer Pooling4
I0803 14:46:10.794306 28176 net.cpp:425] Pooling4 <- Convolution4
I0803 14:46:10.794317 28176 net.cpp:399] Pooling4 -> Pooling4
I0803 14:46:10.794363 28176 net.cpp:141] Setting up Pooling4
I0803 14:46:10.794370 28176 net.cpp:148] Top shape: 100 50 13 13 (845000)
I0803 14:46:10.794376 28176 net.cpp:156] Memory required for data: 862843200
I0803 14:46:10.794381 28176 layer_factory.hpp:77] Creating layer InnerProduct3
I0803 14:46:10.794395 28176 net.cpp:91] Creating Layer InnerProduct3
I0803 14:46:10.794401 28176 net.cpp:425] InnerProduct3 <- Pooling4
I0803 14:46:10.794415 28176 net.cpp:399] InnerProduct3 -> InnerProduct3
I0803 14:46:10.803266 28176 net.cpp:141] Setting up InnerProduct3
I0803 14:46:10.803303 28176 net.cpp:148] Top shape: 100 100 (10000)
I0803 14:46:10.803309 28176 net.cpp:156] Memory required for data: 862883200
I0803 14:46:10.803318 28176 net.cpp:484] Sharing parameters 'ip1_w' owned by layer 'InnerProduct1', param index 0
I0803 14:46:10.803328 28176 net.cpp:484] Sharing parameters 'ip1_b' owned by layer 'InnerProduct1', param index 1
I0803 14:46:10.803334 28176 layer_factory.hpp:77] Creating layer ReLU2
I0803 14:46:10.803345 28176 net.cpp:91] Creating Layer ReLU2
I0803 14:46:10.803354 28176 net.cpp:425] ReLU2 <- InnerProduct3
I0803 14:46:10.803364 28176 net.cpp:386] ReLU2 -> InnerProduct3 (in-place)
I0803 14:46:10.803376 28176 net.cpp:141] Setting up ReLU2
I0803 14:46:10.803383 28176 net.cpp:148] Top shape: 100 100 (10000)
I0803 14:46:10.803390 28176 net.cpp:156] Memory required for data: 862923200
I0803 14:46:10.803395 28176 layer_factory.hpp:77] Creating layer InnerProduct4
I0803 14:46:10.803424 28176 net.cpp:91] Creating Layer InnerProduct4
I0803 14:46:10.803431 28176 net.cpp:425] InnerProduct4 <- InnerProduct3
I0803 14:46:10.803442 28176 net.cpp:399] InnerProduct4 -> InnerProduct4
I0803 14:46:10.803612 28176 net.cpp:141] Setting up InnerProduct4
I0803 14:46:10.803623 28176 net.cpp:148] Top shape: 100 50 (5000)
I0803 14:46:10.803628 28176 net.cpp:156] Memory required for data: 862943200
I0803 14:46:10.803635 28176 net.cpp:484] Sharing parameters 'ip2_w' owned by layer 'InnerProduct2', param index 0
I0803 14:46:10.803642 28176 net.cpp:484] Sharing parameters 'ip2_b' owned by layer 'InnerProduct2', param index 1
I0803 14:46:10.803648 28176 layer_factory.hpp:77] Creating layer Concat1
I0803 14:46:10.803668 28176 net.cpp:91] Creating Layer Concat1
I0803 14:46:10.803675 28176 net.cpp:425] Concat1 <- InnerProduct2
I0803 14:46:10.803683 28176 net.cpp:425] Concat1 <- InnerProduct4
I0803 14:46:10.803692 28176 net.cpp:399] Concat1 -> Concat1
I0803 14:46:10.803724 28176 net.cpp:141] Setting up Concat1
I0803 14:46:10.803732 28176 net.cpp:148] Top shape: 100 100 (10000)
I0803 14:46:10.803738 28176 net.cpp:156] Memory required for data: 862983200
I0803 14:46:10.803745 28176 layer_factory.hpp:77] Creating layer InnerProduct5
I0803 14:46:10.803755 28176 net.cpp:91] Creating Layer InnerProduct5
I0803 14:46:10.803761 28176 net.cpp:425] InnerProduct5 <- Concat1
I0803 14:46:10.803769 28176 net.cpp:399] InnerProduct5 -> InnerProduct5
I0803 14:46:10.803951 28176 net.cpp:141] Setting up InnerProduct5
I0803 14:46:10.803961 28176 net.cpp:148] Top shape: 100 64 (6400)
I0803 14:46:10.803966 28176 net.cpp:156] Memory required for data: 863008800
I0803 14:46:10.803980 28176 layer_factory.hpp:77] Creating layer ReLU3
I0803 14:46:10.803990 28176 net.cpp:91] Creating Layer ReLU3
I0803 14:46:10.803995 28176 net.cpp:425] ReLU3 <- InnerProduct5
I0803 14:46:10.804006 28176 net.cpp:386] ReLU3 -> InnerProduct5 (in-place)
I0803 14:46:10.804015 28176 net.cpp:141] Setting up ReLU3
I0803 14:46:10.804023 28176 net.cpp:148] Top shape: 100 64 (6400)
I0803 14:46:10.804028 28176 net.cpp:156] Memory required for data: 863034400
I0803 14:46:10.804033 28176 layer_factory.hpp:77] Creating layer InnerProduct6
I0803 14:46:10.804060 28176 net.cpp:91] Creating Layer InnerProduct6
I0803 14:46:10.804069 28176 net.cpp:425] InnerProduct6 <- InnerProduct5
I0803 14:46:10.804080 28176 net.cpp:399] InnerProduct6 -> InnerProduct6
I0803 14:46:10.804226 28176 net.cpp:141] Setting up InnerProduct6
I0803 14:46:10.804235 28176 net.cpp:148] Top shape: 100 32 (3200)
I0803 14:46:10.804241 28176 net.cpp:156] Memory required for data: 863047200
I0803 14:46:10.804250 28176 layer_factory.hpp:77] Creating layer ReLU4
I0803 14:46:10.804257 28176 net.cpp:91] Creating Layer ReLU4
I0803 14:46:10.804263 28176 net.cpp:425] ReLU4 <- InnerProduct6
I0803 14:46:10.804271 28176 net.cpp:386] ReLU4 -> InnerProduct6 (in-place)
I0803 14:46:10.804280 28176 net.cpp:141] Setting up ReLU4
I0803 14:46:10.804287 28176 net.cpp:148] Top shape: 100 32 (3200)
I0803 14:46:10.804292 28176 net.cpp:156] Memory required for data: 863060000
I0803 14:46:10.804298 28176 layer_factory.hpp:77] Creating layer dt0
I0803 14:46:10.804309 28176 net.cpp:91] Creating Layer dt0
I0803 14:46:10.804316 28176 net.cpp:425] dt0 <- InnerProduct6
I0803 14:46:10.804327 28176 net.cpp:399] dt0 -> dt0
I0803 14:46:10.804448 28176 net.cpp:141] Setting up dt0
I0803 14:46:10.804457 28176 net.cpp:148] Top shape: 100 1 (100)
I0803 14:46:10.804463 28176 net.cpp:156] Memory required for data: 863060400
I0803 14:46:10.804471 28176 layer_factory.hpp:77] Creating layer Convolution5
I0803 14:46:10.804483 28176 net.cpp:91] Creating Layer Convolution5
I0803 14:46:10.804491 28176 net.cpp:425] Convolution5 <- p1_p1_0_split_1
I0803 14:46:10.804502 28176 net.cpp:399] Convolution5 -> Convolution5
I0803 14:46:10.804816 28176 net.cpp:141] Setting up Convolution5
I0803 14:46:10.804826 28176 net.cpp:148] Top shape: 100 20 60 60 (7200000)
I0803 14:46:10.804831 28176 net.cpp:156] Memory required for data: 891860400
I0803 14:46:10.804847 28176 net.cpp:484] Sharing parameters 'conv1_w' owned by layer 'Convolution1', param index 0
I0803 14:46:10.804853 28176 net.cpp:484] Sharing parameters 'conv1_b' owned by layer 'Convolution1', param index 1
I0803 14:46:10.804859 28176 layer_factory.hpp:77] Creating layer Pooling5
I0803 14:46:10.804868 28176 net.cpp:91] Creating Layer Pooling5
I0803 14:46:10.804874 28176 net.cpp:425] Pooling5 <- Convolution5
I0803 14:46:10.804888 28176 net.cpp:399] Pooling5 -> Pooling5
I0803 14:46:10.804934 28176 net.cpp:141] Setting up Pooling5
I0803 14:46:10.804944 28176 net.cpp:148] Top shape: 100 20 30 30 (1800000)
I0803 14:46:10.804949 28176 net.cpp:156] Memory required for data: 899060400
I0803 14:46:10.804955 28176 layer_factory.hpp:77] Creating layer Convolution6
I0803 14:46:10.804970 28176 net.cpp:91] Creating Layer Convolution6
I0803 14:46:10.804977 28176 net.cpp:425] Convolution6 <- Pooling5
I0803 14:46:10.804987 28176 net.cpp:399] Convolution6 -> Convolution6
I0803 14:46:10.805481 28176 net.cpp:141] Setting up Convolution6
I0803 14:46:10.805491 28176 net.cpp:148] Top shape: 100 50 26 26 (3380000)
I0803 14:46:10.805497 28176 net.cpp:156] Memory required for data: 912580400
I0803 14:46:10.805503 28176 net.cpp:484] Sharing parameters 'conv2_w' owned by layer 'Convolution2', param index 0
I0803 14:46:10.805510 28176 net.cpp:484] Sharing parameters 'conv2_b' owned by layer 'Convolution2', param index 1
I0803 14:46:10.805516 28176 layer_factory.hpp:77] Creating layer Pooling6
I0803 14:46:10.805524 28176 net.cpp:91] Creating Layer Pooling6
I0803 14:46:10.805531 28176 net.cpp:425] Pooling6 <- Convolution6
I0803 14:46:10.805538 28176 net.cpp:399] Pooling6 -> Pooling6
I0803 14:46:10.805584 28176 net.cpp:141] Setting up Pooling6
I0803 14:46:10.805593 28176 net.cpp:148] Top shape: 100 50 13 13 (845000)
I0803 14:46:10.805598 28176 net.cpp:156] Memory required for data: 915960400
I0803 14:46:10.805604 28176 layer_factory.hpp:77] Creating layer InnerProduct7
I0803 14:46:10.805615 28176 net.cpp:91] Creating Layer InnerProduct7
I0803 14:46:10.805621 28176 net.cpp:425] InnerProduct7 <- Pooling6
I0803 14:46:10.805630 28176 net.cpp:399] InnerProduct7 -> InnerProduct7
I0803 14:46:10.813956 28176 net.cpp:141] Setting up InnerProduct7
I0803 14:46:10.813976 28176 net.cpp:148] Top shape: 100 100 (10000)
I0803 14:46:10.813982 28176 net.cpp:156] Memory required for data: 916000400
I0803 14:46:10.813990 28176 net.cpp:484] Sharing parameters 'ip1_w' owned by layer 'InnerProduct1', param index 0
I0803 14:46:10.813997 28176 net.cpp:484] Sharing parameters 'ip1_b' owned by layer 'InnerProduct1', param index 1
I0803 14:46:10.814004 28176 layer_factory.hpp:77] Creating layer ReLU5
I0803 14:46:10.814013 28176 net.cpp:91] Creating Layer ReLU5
I0803 14:46:10.814020 28176 net.cpp:425] ReLU5 <- InnerProduct7
I0803 14:46:10.814031 28176 net.cpp:386] ReLU5 -> InnerProduct7 (in-place)
I0803 14:46:10.814043 28176 net.cpp:141] Setting up ReLU5
I0803 14:46:10.814050 28176 net.cpp:148] Top shape: 100 100 (10000)
I0803 14:46:10.814056 28176 net.cpp:156] Memory required for data: 916040400
I0803 14:46:10.814061 28176 layer_factory.hpp:77] Creating layer InnerProduct8
I0803 14:46:10.814071 28176 net.cpp:91] Creating Layer InnerProduct8
I0803 14:46:10.814077 28176 net.cpp:425] InnerProduct8 <- InnerProduct7
I0803 14:46:10.814090 28176 net.cpp:399] InnerProduct8 -> InnerProduct8
I0803 14:46:10.814251 28176 net.cpp:141] Setting up InnerProduct8
I0803 14:46:10.814261 28176 net.cpp:148] Top shape: 100 50 (5000)
I0803 14:46:10.814267 28176 net.cpp:156] Memory required for data: 916060400
I0803 14:46:10.814273 28176 net.cpp:484] Sharing parameters 'ip2_w' owned by layer 'InnerProduct2', param index 0
I0803 14:46:10.814280 28176 net.cpp:484] Sharing parameters 'ip2_b' owned by layer 'InnerProduct2', param index 1
I0803 14:46:10.814286 28176 layer_factory.hpp:77] Creating layer Convolution7
I0803 14:46:10.814298 28176 net.cpp:91] Creating Layer Convolution7
I0803 14:46:10.814304 28176 net.cpp:425] Convolution7 <- c21
I0803 14:46:10.814317 28176 net.cpp:399] Convolution7 -> Convolution7
I0803 14:46:10.814653 28176 net.cpp:141] Setting up Convolution7
I0803 14:46:10.814663 28176 net.cpp:148] Top shape: 100 20 60 60 (7200000)
I0803 14:46:10.814669 28176 net.cpp:156] Memory required for data: 944860400
I0803 14:46:10.814676 28176 net.cpp:484] Sharing parameters 'conv1_w' owned by layer 'Convolution1', param index 0
I0803 14:46:10.814682 28176 net.cpp:484] Sharing parameters 'conv1_b' owned by layer 'Convolution1', param index 1
I0803 14:46:10.814687 28176 layer_factory.hpp:77] Creating layer Pooling7
I0803 14:46:10.814700 28176 net.cpp:91] Creating Layer Pooling7
I0803 14:46:10.814707 28176 net.cpp:425] Pooling7 <- Convolution7
I0803 14:46:10.814715 28176 net.cpp:399] Pooling7 -> Pooling7
I0803 14:46:10.814762 28176 net.cpp:141] Setting up Pooling7
I0803 14:46:10.814771 28176 net.cpp:148] Top shape: 100 20 30 30 (1800000)
I0803 14:46:10.814777 28176 net.cpp:156] Memory required for data: 952060400
I0803 14:46:10.814782 28176 layer_factory.hpp:77] Creating layer Convolution8
I0803 14:46:10.814795 28176 net.cpp:91] Creating Layer Convolution8
I0803 14:46:10.814801 28176 net.cpp:425] Convolution8 <- Pooling7
I0803 14:46:10.814811 28176 net.cpp:399] Convolution8 -> Convolution8
I0803 14:46:10.815345 28176 net.cpp:141] Setting up Convolution8
I0803 14:46:10.815357 28176 net.cpp:148] Top shape: 100 50 26 26 (3380000)
I0803 14:46:10.815362 28176 net.cpp:156] Memory required for data: 965580400
I0803 14:46:10.815376 28176 net.cpp:484] Sharing parameters 'conv2_w' owned by layer 'Convolution2', param index 0
I0803 14:46:10.815384 28176 net.cpp:484] Sharing parameters 'conv2_b' owned by layer 'Convolution2', param index 1
I0803 14:46:10.815390 28176 layer_factory.hpp:77] Creating layer Pooling8
I0803 14:46:10.815402 28176 net.cpp:91] Creating Layer Pooling8
I0803 14:46:10.815407 28176 net.cpp:425] Pooling8 <- Convolution8
I0803 14:46:10.815417 28176 net.cpp:399] Pooling8 -> Pooling8
I0803 14:46:10.815464 28176 net.cpp:141] Setting up Pooling8
I0803 14:46:10.815474 28176 net.cpp:148] Top shape: 100 50 13 13 (845000)
I0803 14:46:10.815479 28176 net.cpp:156] Memory required for data: 968960400
I0803 14:46:10.815485 28176 layer_factory.hpp:77] Creating layer InnerProduct9
I0803 14:46:10.815500 28176 net.cpp:91] Creating Layer InnerProduct9
I0803 14:46:10.815505 28176 net.cpp:425] InnerProduct9 <- Pooling8
I0803 14:46:10.815515 28176 net.cpp:399] InnerProduct9 -> InnerProduct9
I0803 14:46:10.824082 28176 net.cpp:141] Setting up InnerProduct9
I0803 14:46:10.824102 28176 net.cpp:148] Top shape: 100 100 (10000)
I0803 14:46:10.824108 28176 net.cpp:156] Memory required for data: 969000400
I0803 14:46:10.824116 28176 net.cpp:484] Sharing parameters 'ip1_w' owned by layer 'InnerProduct1', param index 0
I0803 14:46:10.824125 28176 net.cpp:484] Sharing parameters 'ip1_b' owned by layer 'InnerProduct1', param index 1
I0803 14:46:10.824132 28176 layer_factory.hpp:77] Creating layer ReLU6
I0803 14:46:10.824142 28176 net.cpp:91] Creating Layer ReLU6
I0803 14:46:10.824149 28176 net.cpp:425] ReLU6 <- InnerProduct9
I0803 14:46:10.824162 28176 net.cpp:386] ReLU6 -> InnerProduct9 (in-place)
I0803 14:46:10.824173 28176 net.cpp:141] Setting up ReLU6
I0803 14:46:10.824180 28176 net.cpp:148] Top shape: 100 100 (10000)
I0803 14:46:10.824187 28176 net.cpp:156] Memory required for data: 969040400
I0803 14:46:10.824192 28176 layer_factory.hpp:77] Creating layer InnerProduct10
I0803 14:46:10.824201 28176 net.cpp:91] Creating Layer InnerProduct10
I0803 14:46:10.824208 28176 net.cpp:425] InnerProduct10 <- InnerProduct9
I0803 14:46:10.824223 28176 net.cpp:399] InnerProduct10 -> InnerProduct10
I0803 14:46:10.824403 28176 net.cpp:141] Setting up InnerProduct10
I0803 14:46:10.824414 28176 net.cpp:148] Top shape: 100 50 (5000)
I0803 14:46:10.824419 28176 net.cpp:156] Memory required for data: 969060400
I0803 14:46:10.824425 28176 net.cpp:484] Sharing parameters 'ip2_w' owned by layer 'InnerProduct2', param index 0
I0803 14:46:10.824432 28176 net.cpp:484] Sharing parameters 'ip2_b' owned by layer 'InnerProduct2', param index 1
I0803 14:46:10.824455 28176 layer_factory.hpp:77] Creating layer Concat2
I0803 14:46:10.824467 28176 net.cpp:91] Creating Layer Concat2
I0803 14:46:10.824475 28176 net.cpp:425] Concat2 <- InnerProduct8
I0803 14:46:10.824481 28176 net.cpp:425] Concat2 <- InnerProduct10
I0803 14:46:10.824491 28176 net.cpp:399] Concat2 -> Concat2
I0803 14:46:10.824522 28176 net.cpp:141] Setting up Concat2
I0803 14:46:10.824529 28176 net.cpp:148] Top shape: 100 100 (10000)
I0803 14:46:10.824534 28176 net.cpp:156] Memory required for data: 969100400
I0803 14:46:10.824540 28176 layer_factory.hpp:77] Creating layer InnerProduct11
I0803 14:46:10.824555 28176 net.cpp:91] Creating Layer InnerProduct11
I0803 14:46:10.824561 28176 net.cpp:425] InnerProduct11 <- Concat2
I0803 14:46:10.824571 28176 net.cpp:399] InnerProduct11 -> InnerProduct11
I0803 14:46:10.824754 28176 net.cpp:141] Setting up InnerProduct11
I0803 14:46:10.824762 28176 net.cpp:148] Top shape: 100 64 (6400)
I0803 14:46:10.824767 28176 net.cpp:156] Memory required for data: 969126000
I0803 14:46:10.824774 28176 net.cpp:484] Sharing parameters 'fc1_w' owned by layer 'InnerProduct5', param index 0
I0803 14:46:10.824780 28176 net.cpp:484] Sharing parameters 'fc1_b' owned by layer 'InnerProduct5', param index 1
I0803 14:46:10.824786 28176 layer_factory.hpp:77] Creating layer ReLU7
I0803 14:46:10.824795 28176 net.cpp:91] Creating Layer ReLU7
I0803 14:46:10.824800 28176 net.cpp:425] ReLU7 <- InnerProduct11
I0803 14:46:10.824807 28176 net.cpp:386] ReLU7 -> InnerProduct11 (in-place)
I0803 14:46:10.824817 28176 net.cpp:141] Setting up ReLU7
I0803 14:46:10.824825 28176 net.cpp:148] Top shape: 100 64 (6400)
I0803 14:46:10.824829 28176 net.cpp:156] Memory required for data: 969151600
I0803 14:46:10.824836 28176 layer_factory.hpp:77] Creating layer InnerProduct12
I0803 14:46:10.824844 28176 net.cpp:91] Creating Layer InnerProduct12
I0803 14:46:10.824851 28176 net.cpp:425] InnerProduct12 <- InnerProduct11
I0803 14:46:10.824862 28176 net.cpp:399] InnerProduct12 -> InnerProduct12
I0803 14:46:10.825006 28176 net.cpp:141] Setting up InnerProduct12
I0803 14:46:10.825014 28176 net.cpp:148] Top shape: 100 32 (3200)
I0803 14:46:10.825019 28176 net.cpp:156] Memory required for data: 969164400
I0803 14:46:10.825026 28176 net.cpp:484] Sharing parameters 'fc2_w' owned by layer 'InnerProduct6', param index 0
I0803 14:46:10.825032 28176 net.cpp:484] Sharing parameters 'fc2_b' owned by layer 'InnerProduct6', param index 1
I0803 14:46:10.825038 28176 layer_factory.hpp:77] Creating layer ReLU8
I0803 14:46:10.825047 28176 net.cpp:91] Creating Layer ReLU8
I0803 14:46:10.825052 28176 net.cpp:425] ReLU8 <- InnerProduct12
I0803 14:46:10.825059 28176 net.cpp:386] ReLU8 -> InnerProduct12 (in-place)
I0803 14:46:10.825068 28176 net.cpp:141] Setting up ReLU8
I0803 14:46:10.825075 28176 net.cpp:148] Top shape: 100 32 (3200)
I0803 14:46:10.825081 28176 net.cpp:156] Memory required for data: 969177200
I0803 14:46:10.825086 28176 layer_factory.hpp:77] Creating layer dt1
I0803 14:46:10.825095 28176 net.cpp:91] Creating Layer dt1
I0803 14:46:10.825101 28176 net.cpp:425] dt1 <- InnerProduct12
I0803 14:46:10.825114 28176 net.cpp:399] dt1 -> dt1
I0803 14:46:10.825242 28176 net.cpp:141] Setting up dt1
I0803 14:46:10.825249 28176 net.cpp:148] Top shape: 100 1 (100)
I0803 14:46:10.825254 28176 net.cpp:156] Memory required for data: 969177600
I0803 14:46:10.825260 28176 net.cpp:484] Sharing parameters 'fc3_w' owned by layer 'dt0', param index 0
I0803 14:46:10.825268 28176 net.cpp:484] Sharing parameters 'fc3_b' owned by layer 'dt0', param index 1
I0803 14:46:10.825273 28176 layer_factory.hpp:77] Creating layer Convolution9
I0803 14:46:10.825285 28176 net.cpp:91] Creating Layer Convolution9
I0803 14:46:10.825292 28176 net.cpp:425] Convolution9 <- p1_p1_0_split_2
I0803 14:46:10.825302 28176 net.cpp:399] Convolution9 -> Convolution9
I0803 14:46:10.825613 28176 net.cpp:141] Setting up Convolution9
I0803 14:46:10.825623 28176 net.cpp:148] Top shape: 100 20 60 60 (7200000)
I0803 14:46:10.825628 28176 net.cpp:156] Memory required for data: 997977600
I0803 14:46:10.825644 28176 net.cpp:484] Sharing parameters 'conv1_w' owned by layer 'Convolution1', param index 0
I0803 14:46:10.825650 28176 net.cpp:484] Sharing parameters 'conv1_b' owned by layer 'Convolution1', param index 1
I0803 14:46:10.825656 28176 layer_factory.hpp:77] Creating layer Pooling9
I0803 14:46:10.825665 28176 net.cpp:91] Creating Layer Pooling9
I0803 14:46:10.825671 28176 net.cpp:425] Pooling9 <- Convolution9
I0803 14:46:10.825680 28176 net.cpp:399] Pooling9 -> Pooling9
I0803 14:46:10.825729 28176 net.cpp:141] Setting up Pooling9
I0803 14:46:10.825737 28176 net.cpp:148] Top shape: 100 20 30 30 (1800000)
I0803 14:46:10.825742 28176 net.cpp:156] Memory required for data: 1005177600
I0803 14:46:10.825747 28176 layer_factory.hpp:77] Creating layer Convolution10
I0803 14:46:10.825760 28176 net.cpp:91] Creating Layer Convolution10
I0803 14:46:10.825767 28176 net.cpp:425] Convolution10 <- Pooling9
I0803 14:46:10.825779 28176 net.cpp:399] Convolution10 -> Convolution10
I0803 14:46:10.826279 28176 net.cpp:141] Setting up Convolution10
I0803 14:46:10.826287 28176 net.cpp:148] Top shape: 100 50 26 26 (3380000)
I0803 14:46:10.826293 28176 net.cpp:156] Memory required for data: 1018697600
I0803 14:46:10.826299 28176 net.cpp:484] Sharing parameters 'conv2_w' owned by layer 'Convolution2', param index 0
I0803 14:46:10.826306 28176 net.cpp:484] Sharing parameters 'conv2_b' owned by layer 'Convolution2', param index 1
I0803 14:46:10.826311 28176 layer_factory.hpp:77] Creating layer Pooling10
I0803 14:46:10.826320 28176 net.cpp:91] Creating Layer Pooling10
I0803 14:46:10.826325 28176 net.cpp:425] Pooling10 <- Convolution10
I0803 14:46:10.826336 28176 net.cpp:399] Pooling10 -> Pooling10
I0803 14:46:10.826380 28176 net.cpp:141] Setting up Pooling10
I0803 14:46:10.826388 28176 net.cpp:148] Top shape: 100 50 13 13 (845000)
I0803 14:46:10.826393 28176 net.cpp:156] Memory required for data: 1022077600
I0803 14:46:10.826400 28176 layer_factory.hpp:77] Creating layer InnerProduct13
I0803 14:46:10.826411 28176 net.cpp:91] Creating Layer InnerProduct13
I0803 14:46:10.826416 28176 net.cpp:425] InnerProduct13 <- Pooling10
I0803 14:46:10.826427 28176 net.cpp:399] InnerProduct13 -> InnerProduct13
I0803 14:46:10.834913 28176 net.cpp:141] Setting up InnerProduct13
I0803 14:46:10.834941 28176 net.cpp:148] Top shape: 100 100 (10000)
I0803 14:46:10.834947 28176 net.cpp:156] Memory required for data: 1022117600
I0803 14:46:10.834957 28176 net.cpp:484] Sharing parameters 'ip1_w' owned by layer 'InnerProduct1', param index 0
I0803 14:46:10.834965 28176 net.cpp:484] Sharing parameters 'ip1_b' owned by layer 'InnerProduct1', param index 1
I0803 14:46:10.834972 28176 layer_factory.hpp:77] Creating layer ReLU9
I0803 14:46:10.834987 28176 net.cpp:91] Creating Layer ReLU9
I0803 14:46:10.834998 28176 net.cpp:425] ReLU9 <- InnerProduct13
I0803 14:46:10.835008 28176 net.cpp:386] ReLU9 -> InnerProduct13 (in-place)
I0803 14:46:10.835023 28176 net.cpp:141] Setting up ReLU9
I0803 14:46:10.835031 28176 net.cpp:148] Top shape: 100 100 (10000)
I0803 14:46:10.835036 28176 net.cpp:156] Memory required for data: 1022157600
I0803 14:46:10.835042 28176 layer_factory.hpp:77] Creating layer InnerProduct14
I0803 14:46:10.835052 28176 net.cpp:91] Creating Layer InnerProduct14
I0803 14:46:10.835058 28176 net.cpp:425] InnerProduct14 <- InnerProduct13
I0803 14:46:10.835070 28176 net.cpp:399] InnerProduct14 -> InnerProduct14
I0803 14:46:10.835242 28176 net.cpp:141] Setting up InnerProduct14
I0803 14:46:10.835252 28176 net.cpp:148] Top shape: 100 50 (5000)
I0803 14:46:10.835256 28176 net.cpp:156] Memory required for data: 1022177600
I0803 14:46:10.835263 28176 net.cpp:484] Sharing parameters 'ip2_w' owned by layer 'InnerProduct2', param index 0
I0803 14:46:10.835270 28176 net.cpp:484] Sharing parameters 'ip2_b' owned by layer 'InnerProduct2', param index 1
I0803 14:46:10.835286 28176 layer_factory.hpp:77] Creating layer Convolution11
I0803 14:46:10.835304 28176 net.cpp:91] Creating Layer Convolution11
I0803 14:46:10.835310 28176 net.cpp:425] Convolution11 <- c22
I0803 14:46:10.835340 28176 net.cpp:399] Convolution11 -> Convolution11
I0803 14:46:10.835675 28176 net.cpp:141] Setting up Convolution11
I0803 14:46:10.835686 28176 net.cpp:148] Top shape: 100 20 60 60 (7200000)
I0803 14:46:10.835691 28176 net.cpp:156] Memory required for data: 1050977600
I0803 14:46:10.835698 28176 net.cpp:484] Sharing parameters 'conv1_w' owned by layer 'Convolution1', param index 0
I0803 14:46:10.835705 28176 net.cpp:484] Sharing parameters 'conv1_b' owned by layer 'Convolution1', param index 1
I0803 14:46:10.835711 28176 layer_factory.hpp:77] Creating layer Pooling11
I0803 14:46:10.835721 28176 net.cpp:91] Creating Layer Pooling11
I0803 14:46:10.835726 28176 net.cpp:425] Pooling11 <- Convolution11
I0803 14:46:10.835736 28176 net.cpp:399] Pooling11 -> Pooling11
I0803 14:46:10.835785 28176 net.cpp:141] Setting up Pooling11
I0803 14:46:10.835795 28176 net.cpp:148] Top shape: 100 20 30 30 (1800000)
I0803 14:46:10.835801 28176 net.cpp:156] Memory required for data: 1058177600
I0803 14:46:10.835806 28176 layer_factory.hpp:77] Creating layer Convolution12
I0803 14:46:10.835819 28176 net.cpp:91] Creating Layer Convolution12
I0803 14:46:10.835826 28176 net.cpp:425] Convolution12 <- Pooling11
I0803 14:46:10.835839 28176 net.cpp:399] Convolution12 -> Convolution12
I0803 14:46:10.836344 28176 net.cpp:141] Setting up Convolution12
I0803 14:46:10.836354 28176 net.cpp:148] Top shape: 100 50 26 26 (3380000)
I0803 14:46:10.836359 28176 net.cpp:156] Memory required for data: 1071697600
I0803 14:46:10.836364 28176 net.cpp:484] Sharing parameters 'conv2_w' owned by layer 'Convolution2', param index 0
I0803 14:46:10.836371 28176 net.cpp:484] Sharing parameters 'conv2_b' owned by layer 'Convolution2', param index 1
I0803 14:46:10.836377 28176 layer_factory.hpp:77] Creating layer Pooling12
I0803 14:46:10.836388 28176 net.cpp:91] Creating Layer Pooling12
I0803 14:46:10.836400 28176 net.cpp:425] Pooling12 <- Convolution12
I0803 14:46:10.836407 28176 net.cpp:399] Pooling12 -> Pooling12
I0803 14:46:10.836480 28176 net.cpp:141] Setting up Pooling12
I0803 14:46:10.836491 28176 net.cpp:148] Top shape: 100 50 13 13 (845000)
I0803 14:46:10.836498 28176 net.cpp:156] Memory required for data: 1075077600
I0803 14:46:10.836503 28176 layer_factory.hpp:77] Creating layer InnerProduct15
I0803 14:46:10.836513 28176 net.cpp:91] Creating Layer InnerProduct15
I0803 14:46:10.836519 28176 net.cpp:425] InnerProduct15 <- Pooling12
I0803 14:46:10.836529 28176 net.cpp:399] InnerProduct15 -> InnerProduct15
I0803 14:46:10.844933 28176 net.cpp:141] Setting up InnerProduct15
I0803 14:46:10.844959 28176 net.cpp:148] Top shape: 100 100 (10000)
I0803 14:46:10.844964 28176 net.cpp:156] Memory required for data: 1075117600
I0803 14:46:10.844974 28176 net.cpp:484] Sharing parameters 'ip1_w' owned by layer 'InnerProduct1', param index 0
I0803 14:46:10.844981 28176 net.cpp:484] Sharing parameters 'ip1_b' owned by layer 'InnerProduct1', param index 1
I0803 14:46:10.844987 28176 layer_factory.hpp:77] Creating layer ReLU10
I0803 14:46:10.845000 28176 net.cpp:91] Creating Layer ReLU10
I0803 14:46:10.845007 28176 net.cpp:425] ReLU10 <- InnerProduct15
I0803 14:46:10.845016 28176 net.cpp:386] ReLU10 -> InnerProduct15 (in-place)
I0803 14:46:10.845028 28176 net.cpp:141] Setting up ReLU10
I0803 14:46:10.845036 28176 net.cpp:148] Top shape: 100 100 (10000)
I0803 14:46:10.845041 28176 net.cpp:156] Memory required for data: 1075157600
I0803 14:46:10.845047 28176 layer_factory.hpp:77] Creating layer InnerProduct16
I0803 14:46:10.845057 28176 net.cpp:91] Creating Layer InnerProduct16
I0803 14:46:10.845063 28176 net.cpp:425] InnerProduct16 <- InnerProduct15
I0803 14:46:10.845075 28176 net.cpp:399] InnerProduct16 -> InnerProduct16
I0803 14:46:10.845254 28176 net.cpp:141] Setting up InnerProduct16
I0803 14:46:10.845264 28176 net.cpp:148] Top shape: 100 50 (5000)
I0803 14:46:10.845269 28176 net.cpp:156] Memory required for data: 1075177600
I0803 14:46:10.845276 28176 net.cpp:484] Sharing parameters 'ip2_w' owned by layer 'InnerProduct2', param index 0
I0803 14:46:10.845299 28176 net.cpp:484] Sharing parameters 'ip2_b' owned by layer 'InnerProduct2', param index 1
I0803 14:46:10.845305 28176 layer_factory.hpp:77] Creating layer Concat3
I0803 14:46:10.845315 28176 net.cpp:91] Creating Layer Concat3
I0803 14:46:10.845320 28176 net.cpp:425] Concat3 <- InnerProduct14
I0803 14:46:10.845329 28176 net.cpp:425] Concat3 <- InnerProduct16
I0803 14:46:10.845337 28176 net.cpp:399] Concat3 -> Concat3
I0803 14:46:10.845366 28176 net.cpp:141] Setting up Concat3
I0803 14:46:10.845372 28176 net.cpp:148] Top shape: 100 100 (10000)
I0803 14:46:10.845378 28176 net.cpp:156] Memory required for data: 1075217600
I0803 14:46:10.845383 28176 layer_factory.hpp:77] Creating layer InnerProduct17
I0803 14:46:10.845398 28176 net.cpp:91] Creating Layer InnerProduct17
I0803 14:46:10.845404 28176 net.cpp:425] InnerProduct17 <- Concat3
I0803 14:46:10.845417 28176 net.cpp:399] InnerProduct17 -> InnerProduct17
I0803 14:46:10.845597 28176 net.cpp:141] Setting up InnerProduct17
I0803 14:46:10.845605 28176 net.cpp:148] Top shape: 100 64 (6400)
I0803 14:46:10.845610 28176 net.cpp:156] Memory required for data: 1075243200
I0803 14:46:10.845616 28176 net.cpp:484] Sharing parameters 'fc1_w' owned by layer 'InnerProduct5', param index 0
I0803 14:46:10.845623 28176 net.cpp:484] Sharing parameters 'fc1_b' owned by layer 'InnerProduct5', param index 1
I0803 14:46:10.845629 28176 layer_factory.hpp:77] Creating layer ReLU11
I0803 14:46:10.845638 28176 net.cpp:91] Creating Layer ReLU11
I0803 14:46:10.845643 28176 net.cpp:425] ReLU11 <- InnerProduct17
I0803 14:46:10.845650 28176 net.cpp:386] ReLU11 -> InnerProduct17 (in-place)
I0803 14:46:10.845659 28176 net.cpp:141] Setting up ReLU11
I0803 14:46:10.845666 28176 net.cpp:148] Top shape: 100 64 (6400)
I0803 14:46:10.845672 28176 net.cpp:156] Memory required for data: 1075268800
I0803 14:46:10.845677 28176 layer_factory.hpp:77] Creating layer InnerProduct18
I0803 14:46:10.845690 28176 net.cpp:91] Creating Layer InnerProduct18
I0803 14:46:10.845695 28176 net.cpp:425] InnerProduct18 <- InnerProduct17
I0803 14:46:10.845706 28176 net.cpp:399] InnerProduct18 -> InnerProduct18
I0803 14:46:10.845854 28176 net.cpp:141] Setting up InnerProduct18
I0803 14:46:10.845860 28176 net.cpp:148] Top shape: 100 32 (3200)
I0803 14:46:10.845866 28176 net.cpp:156] Memory required for data: 1075281600
I0803 14:46:10.845872 28176 net.cpp:484] Sharing parameters 'fc2_w' owned by layer 'InnerProduct6', param index 0
I0803 14:46:10.845880 28176 net.cpp:484] Sharing parameters 'fc2_b' owned by layer 'InnerProduct6', param index 1
I0803 14:46:10.845885 28176 layer_factory.hpp:77] Creating layer ReLU12
I0803 14:46:10.845892 28176 net.cpp:91] Creating Layer ReLU12
I0803 14:46:10.845898 28176 net.cpp:425] ReLU12 <- InnerProduct18
I0803 14:46:10.845906 28176 net.cpp:386] ReLU12 -> InnerProduct18 (in-place)
I0803 14:46:10.845916 28176 net.cpp:141] Setting up ReLU12
I0803 14:46:10.845922 28176 net.cpp:148] Top shape: 100 32 (3200)
I0803 14:46:10.845927 28176 net.cpp:156] Memory required for data: 1075294400
I0803 14:46:10.845933 28176 layer_factory.hpp:77] Creating layer dt2
I0803 14:46:10.845942 28176 net.cpp:91] Creating Layer dt2
I0803 14:46:10.845947 28176 net.cpp:425] dt2 <- InnerProduct18
I0803 14:46:10.845959 28176 net.cpp:399] dt2 -> dt2
I0803 14:46:10.846088 28176 net.cpp:141] Setting up dt2
I0803 14:46:10.846096 28176 net.cpp:148] Top shape: 100 1 (100)
I0803 14:46:10.846101 28176 net.cpp:156] Memory required for data: 1075294800
I0803 14:46:10.846124 28176 net.cpp:484] Sharing parameters 'fc3_w' owned by layer 'dt0', param index 0
I0803 14:46:10.846132 28176 net.cpp:484] Sharing parameters 'fc3_b' owned by layer 'dt0', param index 1
I0803 14:46:10.846138 28176 layer_factory.hpp:77] Creating layer Convolution13
I0803 14:46:10.846153 28176 net.cpp:91] Creating Layer Convolution13
I0803 14:46:10.846161 28176 net.cpp:425] Convolution13 <- p1_p1_0_split_3
I0803 14:46:10.846173 28176 net.cpp:399] Convolution13 -> Convolution13
I0803 14:46:10.846493 28176 net.cpp:141] Setting up Convolution13
I0803 14:46:10.846500 28176 net.cpp:148] Top shape: 100 20 60 60 (7200000)
I0803 14:46:10.846514 28176 net.cpp:156] Memory required for data: 1104094800
I0803 14:46:10.846520 28176 net.cpp:484] Sharing parameters 'conv1_w' owned by layer 'Convolution1', param index 0
I0803 14:46:10.846527 28176 net.cpp:484] Sharing parameters 'conv1_b' owned by layer 'Convolution1', param index 1
I0803 14:46:10.846534 28176 layer_factory.hpp:77] Creating layer Pooling13
I0803 14:46:10.846541 28176 net.cpp:91] Creating Layer Pooling13
I0803 14:46:10.846547 28176 net.cpp:425] Pooling13 <- Convolution13
I0803 14:46:10.846559 28176 net.cpp:399] Pooling13 -> Pooling13
I0803 14:46:10.846606 28176 net.cpp:141] Setting up Pooling13
I0803 14:46:10.846616 28176 net.cpp:148] Top shape: 100 20 30 30 (1800000)
I0803 14:46:10.846622 28176 net.cpp:156] Memory required for data: 1111294800
I0803 14:46:10.846627 28176 layer_factory.hpp:77] Creating layer Convolution14
I0803 14:46:10.846638 28176 net.cpp:91] Creating Layer Convolution14
I0803 14:46:10.846644 28176 net.cpp:425] Convolution14 <- Pooling13
I0803 14:46:10.846657 28176 net.cpp:399] Convolution14 -> Convolution14
I0803 14:46:10.847160 28176 net.cpp:141] Setting up Convolution14
I0803 14:46:10.847167 28176 net.cpp:148] Top shape: 100 50 26 26 (3380000)
I0803 14:46:10.847173 28176 net.cpp:156] Memory required for data: 1124814800
I0803 14:46:10.847179 28176 net.cpp:484] Sharing parameters 'conv2_w' owned by layer 'Convolution2', param index 0
I0803 14:46:10.847185 28176 net.cpp:484] Sharing parameters 'conv2_b' owned by layer 'Convolution2', param index 1
I0803 14:46:10.847192 28176 layer_factory.hpp:77] Creating layer Pooling14
I0803 14:46:10.847201 28176 net.cpp:91] Creating Layer Pooling14
I0803 14:46:10.847208 28176 net.cpp:425] Pooling14 <- Convolution14
I0803 14:46:10.847216 28176 net.cpp:399] Pooling14 -> Pooling14
I0803 14:46:10.847264 28176 net.cpp:141] Setting up Pooling14
I0803 14:46:10.847280 28176 net.cpp:148] Top shape: 100 50 13 13 (845000)
I0803 14:46:10.847285 28176 net.cpp:156] Memory required for data: 1128194800
I0803 14:46:10.847291 28176 layer_factory.hpp:77] Creating layer InnerProduct19
I0803 14:46:10.847306 28176 net.cpp:91] Creating Layer InnerProduct19
I0803 14:46:10.847313 28176 net.cpp:425] InnerProduct19 <- Pooling14
I0803 14:46:10.847324 28176 net.cpp:399] InnerProduct19 -> InnerProduct19
I0803 14:46:10.855571 28176 net.cpp:141] Setting up InnerProduct19
I0803 14:46:10.855587 28176 net.cpp:148] Top shape: 100 100 (10000)
I0803 14:46:10.855593 28176 net.cpp:156] Memory required for data: 1128234800
I0803 14:46:10.855602 28176 net.cpp:484] Sharing parameters 'ip1_w' owned by layer 'InnerProduct1', param index 0
I0803 14:46:10.855608 28176 net.cpp:484] Sharing parameters 'ip1_b' owned by layer 'InnerProduct1', param index 1
I0803 14:46:10.855615 28176 layer_factory.hpp:77] Creating layer ReLU13
I0803 14:46:10.855624 28176 net.cpp:91] Creating Layer ReLU13
I0803 14:46:10.855631 28176 net.cpp:425] ReLU13 <- InnerProduct19
I0803 14:46:10.855643 28176 net.cpp:386] ReLU13 -> InnerProduct19 (in-place)
I0803 14:46:10.855654 28176 net.cpp:141] Setting up ReLU13
I0803 14:46:10.855660 28176 net.cpp:148] Top shape: 100 100 (10000)
I0803 14:46:10.855666 28176 net.cpp:156] Memory required for data: 1128274800
I0803 14:46:10.855671 28176 layer_factory.hpp:77] Creating layer InnerProduct20
I0803 14:46:10.855681 28176 net.cpp:91] Creating Layer InnerProduct20
I0803 14:46:10.855687 28176 net.cpp:425] InnerProduct20 <- InnerProduct19
I0803 14:46:10.855700 28176 net.cpp:399] InnerProduct20 -> InnerProduct20
I0803 14:46:10.855865 28176 net.cpp:141] Setting up InnerProduct20
I0803 14:46:10.855873 28176 net.cpp:148] Top shape: 100 50 (5000)
I0803 14:46:10.855878 28176 net.cpp:156] Memory required for data: 1128294800
I0803 14:46:10.855886 28176 net.cpp:484] Sharing parameters 'ip2_w' owned by layer 'InnerProduct2', param index 0
I0803 14:46:10.855893 28176 net.cpp:484] Sharing parameters 'ip2_b' owned by layer 'InnerProduct2', param index 1
I0803 14:46:10.855900 28176 layer_factory.hpp:77] Creating layer Convolution15
I0803 14:46:10.855927 28176 net.cpp:91] Creating Layer Convolution15
I0803 14:46:10.855934 28176 net.cpp:425] Convolution15 <- c23
I0803 14:46:10.855947 28176 net.cpp:399] Convolution15 -> Convolution15
I0803 14:46:10.856303 28176 net.cpp:141] Setting up Convolution15
I0803 14:46:10.856312 28176 net.cpp:148] Top shape: 100 20 60 60 (7200000)
I0803 14:46:10.856318 28176 net.cpp:156] Memory required for data: 1157094800
I0803 14:46:10.856324 28176 net.cpp:484] Sharing parameters 'conv1_w' owned by layer 'Convolution1', param index 0
I0803 14:46:10.856331 28176 net.cpp:484] Sharing parameters 'conv1_b' owned by layer 'Convolution1', param index 1
I0803 14:46:10.856338 28176 layer_factory.hpp:77] Creating layer Pooling15
I0803 14:46:10.856348 28176 net.cpp:91] Creating Layer Pooling15
I0803 14:46:10.856354 28176 net.cpp:425] Pooling15 <- Convolution15
I0803 14:46:10.856362 28176 net.cpp:399] Pooling15 -> Pooling15
I0803 14:46:10.856412 28176 net.cpp:141] Setting up Pooling15
I0803 14:46:10.856420 28176 net.cpp:148] Top shape: 100 20 30 30 (1800000)
I0803 14:46:10.856425 28176 net.cpp:156] Memory required for data: 1164294800
I0803 14:46:10.856431 28176 layer_factory.hpp:77] Creating layer Convolution16
I0803 14:46:10.856444 28176 net.cpp:91] Creating Layer Convolution16
I0803 14:46:10.856451 28176 net.cpp:425] Convolution16 <- Pooling15
I0803 14:46:10.856461 28176 net.cpp:399] Convolution16 -> Convolution16
I0803 14:46:10.856971 28176 net.cpp:141] Setting up Convolution16
I0803 14:46:10.856978 28176 net.cpp:148] Top shape: 100 50 26 26 (3380000)
I0803 14:46:10.856984 28176 net.cpp:156] Memory required for data: 1177814800
I0803 14:46:10.856991 28176 net.cpp:484] Sharing parameters 'conv2_w' owned by layer 'Convolution2', param index 0
I0803 14:46:10.856997 28176 net.cpp:484] Sharing parameters 'conv2_b' owned by layer 'Convolution2', param index 1
I0803 14:46:10.857003 28176 layer_factory.hpp:77] Creating layer Pooling16
I0803 14:46:10.857013 28176 net.cpp:91] Creating Layer Pooling16
I0803 14:46:10.857019 28176 net.cpp:425] Pooling16 <- Convolution16
I0803 14:46:10.857030 28176 net.cpp:399] Pooling16 -> Pooling16
I0803 14:46:10.857076 28176 net.cpp:141] Setting up Pooling16
I0803 14:46:10.857084 28176 net.cpp:148] Top shape: 100 50 13 13 (845000)
I0803 14:46:10.857089 28176 net.cpp:156] Memory required for data: 1181194800
I0803 14:46:10.857095 28176 layer_factory.hpp:77] Creating layer InnerProduct21
I0803 14:46:10.857107 28176 net.cpp:91] Creating Layer InnerProduct21
I0803 14:46:10.857113 28176 net.cpp:425] InnerProduct21 <- Pooling16
I0803 14:46:10.857122 28176 net.cpp:399] InnerProduct21 -> InnerProduct21
I0803 14:46:10.865695 28176 net.cpp:141] Setting up InnerProduct21
I0803 14:46:10.865730 28176 net.cpp:148] Top shape: 100 100 (10000)
I0803 14:46:10.865737 28176 net.cpp:156] Memory required for data: 1181234800
I0803 14:46:10.865748 28176 net.cpp:484] Sharing parameters 'ip1_w' owned by layer 'InnerProduct1', param index 0
I0803 14:46:10.865759 28176 net.cpp:484] Sharing parameters 'ip1_b' owned by layer 'InnerProduct1', param index 1
I0803 14:46:10.865767 28176 layer_factory.hpp:77] Creating layer ReLU14
I0803 14:46:10.865787 28176 net.cpp:91] Creating Layer ReLU14
I0803 14:46:10.865794 28176 net.cpp:425] ReLU14 <- InnerProduct21
I0803 14:46:10.865806 28176 net.cpp:386] ReLU14 -> InnerProduct21 (in-place)
I0803 14:46:10.865819 28176 net.cpp:141] Setting up ReLU14
I0803 14:46:10.865826 28176 net.cpp:148] Top shape: 100 100 (10000)
I0803 14:46:10.865833 28176 net.cpp:156] Memory required for data: 1181274800
I0803 14:46:10.865839 28176 layer_factory.hpp:77] Creating layer InnerProduct22
I0803 14:46:10.865849 28176 net.cpp:91] Creating Layer InnerProduct22
I0803 14:46:10.865854 28176 net.cpp:425] InnerProduct22 <- InnerProduct21
I0803 14:46:10.865866 28176 net.cpp:399] InnerProduct22 -> InnerProduct22
I0803 14:46:10.866050 28176 net.cpp:141] Setting up InnerProduct22
I0803 14:46:10.866057 28176 net.cpp:148] Top shape: 100 50 (5000)
I0803 14:46:10.866062 28176 net.cpp:156] Memory required for data: 1181294800
I0803 14:46:10.866085 28176 net.cpp:484] Sharing parameters 'ip2_w' owned by layer 'InnerProduct2', param index 0
I0803 14:46:10.866092 28176 net.cpp:484] Sharing parameters 'ip2_b' owned by layer 'InnerProduct2', param index 1
I0803 14:46:10.866098 28176 layer_factory.hpp:77] Creating layer Concat4
I0803 14:46:10.866107 28176 net.cpp:91] Creating Layer Concat4
I0803 14:46:10.866113 28176 net.cpp:425] Concat4 <- InnerProduct20
I0803 14:46:10.866122 28176 net.cpp:425] Concat4 <- InnerProduct22
I0803 14:46:10.866132 28176 net.cpp:399] Concat4 -> Concat4
I0803 14:46:10.866161 28176 net.cpp:141] Setting up Concat4
I0803 14:46:10.866168 28176 net.cpp:148] Top shape: 100 100 (10000)
I0803 14:46:10.866173 28176 net.cpp:156] Memory required for data: 1181334800
I0803 14:46:10.866179 28176 layer_factory.hpp:77] Creating layer InnerProduct23
I0803 14:46:10.866194 28176 net.cpp:91] Creating Layer InnerProduct23
I0803 14:46:10.866200 28176 net.cpp:425] InnerProduct23 <- Concat4
I0803 14:46:10.866211 28176 net.cpp:399] InnerProduct23 -> InnerProduct23
I0803 14:46:10.866394 28176 net.cpp:141] Setting up InnerProduct23
I0803 14:46:10.866402 28176 net.cpp:148] Top shape: 100 64 (6400)
I0803 14:46:10.866407 28176 net.cpp:156] Memory required for data: 1181360400
I0803 14:46:10.866413 28176 net.cpp:484] Sharing parameters 'fc1_w' owned by layer 'InnerProduct5', param index 0
I0803 14:46:10.866421 28176 net.cpp:484] Sharing parameters 'fc1_b' owned by layer 'InnerProduct5', param index 1
I0803 14:46:10.866426 28176 layer_factory.hpp:77] Creating layer ReLU15
I0803 14:46:10.866435 28176 net.cpp:91] Creating Layer ReLU15
I0803 14:46:10.866441 28176 net.cpp:425] ReLU15 <- InnerProduct23
I0803 14:46:10.866447 28176 net.cpp:386] ReLU15 -> InnerProduct23 (in-place)
I0803 14:46:10.866456 28176 net.cpp:141] Setting up ReLU15
I0803 14:46:10.866463 28176 net.cpp:148] Top shape: 100 64 (6400)
I0803 14:46:10.866468 28176 net.cpp:156] Memory required for data: 1181386000
I0803 14:46:10.866474 28176 layer_factory.hpp:77] Creating layer InnerProduct24
I0803 14:46:10.866485 28176 net.cpp:91] Creating Layer InnerProduct24
I0803 14:46:10.866492 28176 net.cpp:425] InnerProduct24 <- InnerProduct23
I0803 14:46:10.866500 28176 net.cpp:399] InnerProduct24 -> InnerProduct24
I0803 14:46:10.866649 28176 net.cpp:141] Setting up InnerProduct24
I0803 14:46:10.866657 28176 net.cpp:148] Top shape: 100 32 (3200)
I0803 14:46:10.866662 28176 net.cpp:156] Memory required for data: 1181398800
I0803 14:46:10.866667 28176 net.cpp:484] Sharing parameters 'fc2_w' owned by layer 'InnerProduct6', param index 0
I0803 14:46:10.866675 28176 net.cpp:484] Sharing parameters 'fc2_b' owned by layer 'InnerProduct6', param index 1
I0803 14:46:10.866685 28176 layer_factory.hpp:77] Creating layer ReLU16
I0803 14:46:10.866693 28176 net.cpp:91] Creating Layer ReLU16
I0803 14:46:10.866699 28176 net.cpp:425] ReLU16 <- InnerProduct24
I0803 14:46:10.866706 28176 net.cpp:386] ReLU16 -> InnerProduct24 (in-place)
I0803 14:46:10.866715 28176 net.cpp:141] Setting up ReLU16
I0803 14:46:10.866722 28176 net.cpp:148] Top shape: 100 32 (3200)
I0803 14:46:10.866729 28176 net.cpp:156] Memory required for data: 1181411600
I0803 14:46:10.866734 28176 layer_factory.hpp:77] Creating layer dt3
I0803 14:46:10.866742 28176 net.cpp:91] Creating Layer dt3
I0803 14:46:10.866749 28176 net.cpp:425] dt3 <- InnerProduct24
I0803 14:46:10.866760 28176 net.cpp:399] dt3 -> dt3
I0803 14:46:10.866894 28176 net.cpp:141] Setting up dt3
I0803 14:46:10.866901 28176 net.cpp:148] Top shape: 100 1 (100)
I0803 14:46:10.866906 28176 net.cpp:156] Memory required for data: 1181412000
I0803 14:46:10.866912 28176 net.cpp:484] Sharing parameters 'fc3_w' owned by layer 'dt0', param index 0
I0803 14:46:10.866919 28176 net.cpp:484] Sharing parameters 'fc3_b' owned by layer 'dt0', param index 1
I0803 14:46:10.866925 28176 layer_factory.hpp:77] Creating layer Convolution17
I0803 14:46:10.866937 28176 net.cpp:91] Creating Layer Convolution17
I0803 14:46:10.866943 28176 net.cpp:425] Convolution17 <- p1_p1_0_split_4
I0803 14:46:10.866956 28176 net.cpp:399] Convolution17 -> Convolution17
I0803 14:46:10.867431 28176 net.cpp:141] Setting up Convolution17
I0803 14:46:10.867442 28176 net.cpp:148] Top shape: 100 20 60 60 (7200000)
I0803 14:46:10.867449 28176 net.cpp:156] Memory required for data: 1210212000
I0803 14:46:10.867455 28176 net.cpp:484] Sharing parameters 'conv1_w' owned by layer 'Convolution1', param index 0
I0803 14:46:10.867462 28176 net.cpp:484] Sharing parameters 'conv1_b' owned by layer 'Convolution1', param index 1
I0803 14:46:10.867468 28176 layer_factory.hpp:77] Creating layer Pooling17
I0803 14:46:10.867516 28176 net.cpp:91] Creating Layer Pooling17
I0803 14:46:10.867522 28176 net.cpp:425] Pooling17 <- Convolution17
I0803 14:46:10.867532 28176 net.cpp:399] Pooling17 -> Pooling17
I0803 14:46:10.867584 28176 net.cpp:141] Setting up Pooling17
I0803 14:46:10.867593 28176 net.cpp:148] Top shape: 100 20 30 30 (1800000)
I0803 14:46:10.867599 28176 net.cpp:156] Memory required for data: 1217412000
I0803 14:46:10.867604 28176 layer_factory.hpp:77] Creating layer Convolution18
I0803 14:46:10.867619 28176 net.cpp:91] Creating Layer Convolution18
I0803 14:46:10.867624 28176 net.cpp:425] Convolution18 <- Pooling17
I0803 14:46:10.867635 28176 net.cpp:399] Convolution18 -> Convolution18
I0803 14:46:10.868150 28176 net.cpp:141] Setting up Convolution18
I0803 14:46:10.868157 28176 net.cpp:148] Top shape: 100 50 26 26 (3380000)
I0803 14:46:10.868163 28176 net.cpp:156] Memory required for data: 1230932000
I0803 14:46:10.868170 28176 net.cpp:484] Sharing parameters 'conv2_w' owned by layer 'Convolution2', param index 0
I0803 14:46:10.868176 28176 net.cpp:484] Sharing parameters 'conv2_b' owned by layer 'Convolution2', param index 1
I0803 14:46:10.868182 28176 layer_factory.hpp:77] Creating layer Pooling18
I0803 14:46:10.868192 28176 net.cpp:91] Creating Layer Pooling18
I0803 14:46:10.868198 28176 net.cpp:425] Pooling18 <- Convolution18
I0803 14:46:10.868207 28176 net.cpp:399] Pooling18 -> Pooling18
I0803 14:46:10.868255 28176 net.cpp:141] Setting up Pooling18
I0803 14:46:10.868263 28176 net.cpp:148] Top shape: 100 50 13 13 (845000)
I0803 14:46:10.868268 28176 net.cpp:156] Memory required for data: 1234312000
I0803 14:46:10.868273 28176 layer_factory.hpp:77] Creating layer InnerProduct25
I0803 14:46:10.868285 28176 net.cpp:91] Creating Layer InnerProduct25
I0803 14:46:10.868291 28176 net.cpp:425] InnerProduct25 <- Pooling18
I0803 14:46:10.868300 28176 net.cpp:399] InnerProduct25 -> InnerProduct25
I0803 14:46:10.876860 28176 net.cpp:141] Setting up InnerProduct25
I0803 14:46:10.876879 28176 net.cpp:148] Top shape: 100 100 (10000)
I0803 14:46:10.876885 28176 net.cpp:156] Memory required for data: 1234352000
I0803 14:46:10.876894 28176 net.cpp:484] Sharing parameters 'ip1_w' owned by layer 'InnerProduct1', param index 0
I0803 14:46:10.876902 28176 net.cpp:484] Sharing parameters 'ip1_b' owned by layer 'InnerProduct1', param index 1
I0803 14:46:10.876909 28176 layer_factory.hpp:77] Creating layer ReLU17
I0803 14:46:10.876919 28176 net.cpp:91] Creating Layer ReLU17
I0803 14:46:10.876925 28176 net.cpp:425] ReLU17 <- InnerProduct25
I0803 14:46:10.876937 28176 net.cpp:386] ReLU17 -> InnerProduct25 (in-place)
I0803 14:46:10.876950 28176 net.cpp:141] Setting up ReLU17
I0803 14:46:10.876956 28176 net.cpp:148] Top shape: 100 100 (10000)
I0803 14:46:10.876961 28176 net.cpp:156] Memory required for data: 1234392000
I0803 14:46:10.876967 28176 layer_factory.hpp:77] Creating layer InnerProduct26
I0803 14:46:10.876977 28176 net.cpp:91] Creating Layer InnerProduct26
I0803 14:46:10.876983 28176 net.cpp:425] InnerProduct26 <- InnerProduct25
I0803 14:46:10.876994 28176 net.cpp:399] InnerProduct26 -> InnerProduct26
I0803 14:46:10.877161 28176 net.cpp:141] Setting up InnerProduct26
I0803 14:46:10.877168 28176 net.cpp:148] Top shape: 100 50 (5000)
I0803 14:46:10.877173 28176 net.cpp:156] Memory required for data: 1234412000
I0803 14:46:10.877179 28176 net.cpp:484] Sharing parameters 'ip2_w' owned by layer 'InnerProduct2', param index 0
I0803 14:46:10.877187 28176 net.cpp:484] Sharing parameters 'ip2_b' owned by layer 'InnerProduct2', param index 1
I0803 14:46:10.877208 28176 layer_factory.hpp:77] Creating layer Convolution19
I0803 14:46:10.877225 28176 net.cpp:91] Creating Layer Convolution19
I0803 14:46:10.877231 28176 net.cpp:425] Convolution19 <- c24
I0803 14:46:10.877243 28176 net.cpp:399] Convolution19 -> Convolution19
I0803 14:46:10.877573 28176 net.cpp:141] Setting up Convolution19
I0803 14:46:10.877581 28176 net.cpp:148] Top shape: 100 20 60 60 (7200000)
I0803 14:46:10.877586 28176 net.cpp:156] Memory required for data: 1263212000
I0803 14:46:10.877593 28176 net.cpp:484] Sharing parameters 'conv1_w' owned by layer 'Convolution1', param index 0
I0803 14:46:10.877599 28176 net.cpp:484] Sharing parameters 'conv1_b' owned by layer 'Convolution1', param index 1
I0803 14:46:10.877605 28176 layer_factory.hpp:77] Creating layer Pooling19
I0803 14:46:10.877617 28176 net.cpp:91] Creating Layer Pooling19
I0803 14:46:10.877624 28176 net.cpp:425] Pooling19 <- Convolution19
I0803 14:46:10.877631 28176 net.cpp:399] Pooling19 -> Pooling19
I0803 14:46:10.877681 28176 net.cpp:141] Setting up Pooling19
I0803 14:46:10.877688 28176 net.cpp:148] Top shape: 100 20 30 30 (1800000)
I0803 14:46:10.877693 28176 net.cpp:156] Memory required for data: 1270412000
I0803 14:46:10.877698 28176 layer_factory.hpp:77] Creating layer Convolution20
I0803 14:46:10.877712 28176 net.cpp:91] Creating Layer Convolution20
I0803 14:46:10.877717 28176 net.cpp:425] Convolution20 <- Pooling19
I0803 14:46:10.877728 28176 net.cpp:399] Convolution20 -> Convolution20
I0803 14:46:10.878232 28176 net.cpp:141] Setting up Convolution20
I0803 14:46:10.878240 28176 net.cpp:148] Top shape: 100 50 26 26 (3380000)
I0803 14:46:10.878245 28176 net.cpp:156] Memory required for data: 1283932000
I0803 14:46:10.878252 28176 net.cpp:484] Sharing parameters 'conv2_w' owned by layer 'Convolution2', param index 0
I0803 14:46:10.878258 28176 net.cpp:484] Sharing parameters 'conv2_b' owned by layer 'Convolution2', param index 1
I0803 14:46:10.878264 28176 layer_factory.hpp:77] Creating layer Pooling20
I0803 14:46:10.878273 28176 net.cpp:91] Creating Layer Pooling20
I0803 14:46:10.878278 28176 net.cpp:425] Pooling20 <- Convolution20
I0803 14:46:10.878288 28176 net.cpp:399] Pooling20 -> Pooling20
I0803 14:46:10.878334 28176 net.cpp:141] Setting up Pooling20
I0803 14:46:10.878341 28176 net.cpp:148] Top shape: 100 50 13 13 (845000)
I0803 14:46:10.878346 28176 net.cpp:156] Memory required for data: 1287312000
I0803 14:46:10.878352 28176 layer_factory.hpp:77] Creating layer InnerProduct27
I0803 14:46:10.878365 28176 net.cpp:91] Creating Layer InnerProduct27
I0803 14:46:10.878371 28176 net.cpp:425] InnerProduct27 <- Pooling20
I0803 14:46:10.878382 28176 net.cpp:399] InnerProduct27 -> InnerProduct27
I0803 14:46:10.886484 28176 net.cpp:141] Setting up InnerProduct27
I0803 14:46:10.886499 28176 net.cpp:148] Top shape: 100 100 (10000)
I0803 14:46:10.886505 28176 net.cpp:156] Memory required for data: 1287352000
I0803 14:46:10.886513 28176 net.cpp:484] Sharing parameters 'ip1_w' owned by layer 'InnerProduct1', param index 0
I0803 14:46:10.886520 28176 net.cpp:484] Sharing parameters 'ip1_b' owned by layer 'InnerProduct1', param index 1
I0803 14:46:10.886526 28176 layer_factory.hpp:77] Creating layer ReLU18
I0803 14:46:10.886538 28176 net.cpp:91] Creating Layer ReLU18
I0803 14:46:10.886544 28176 net.cpp:425] ReLU18 <- InnerProduct27
I0803 14:46:10.886554 28176 net.cpp:386] ReLU18 -> InnerProduct27 (in-place)
I0803 14:46:10.886564 28176 net.cpp:141] Setting up ReLU18
I0803 14:46:10.886570 28176 net.cpp:148] Top shape: 100 100 (10000)
I0803 14:46:10.886576 28176 net.cpp:156] Memory required for data: 1287392000
I0803 14:46:10.886581 28176 layer_factory.hpp:77] Creating layer InnerProduct28
I0803 14:46:10.886591 28176 net.cpp:91] Creating Layer InnerProduct28
I0803 14:46:10.886597 28176 net.cpp:425] InnerProduct28 <- InnerProduct27
I0803 14:46:10.886608 28176 net.cpp:399] InnerProduct28 -> InnerProduct28
I0803 14:46:10.886783 28176 net.cpp:141] Setting up InnerProduct28
I0803 14:46:10.886790 28176 net.cpp:148] Top shape: 100 50 (5000)
I0803 14:46:10.886811 28176 net.cpp:156] Memory required for data: 1287412000
I0803 14:46:10.886816 28176 net.cpp:484] Sharing parameters 'ip2_w' owned by layer 'InnerProduct2', param index 0
I0803 14:46:10.886823 28176 net.cpp:484] Sharing parameters 'ip2_b' owned by layer 'InnerProduct2', param index 1
I0803 14:46:10.886829 28176 layer_factory.hpp:77] Creating layer Concat5
I0803 14:46:10.886838 28176 net.cpp:91] Creating Layer Concat5
I0803 14:46:10.886844 28176 net.cpp:425] Concat5 <- InnerProduct26
I0803 14:46:10.886852 28176 net.cpp:425] Concat5 <- InnerProduct28
I0803 14:46:10.886860 28176 net.cpp:399] Concat5 -> Concat5
I0803 14:46:10.886888 28176 net.cpp:141] Setting up Concat5
I0803 14:46:10.886895 28176 net.cpp:148] Top shape: 100 100 (10000)
I0803 14:46:10.886900 28176 net.cpp:156] Memory required for data: 1287452000
I0803 14:46:10.886905 28176 layer_factory.hpp:77] Creating layer InnerProduct29
I0803 14:46:10.886917 28176 net.cpp:91] Creating Layer InnerProduct29
I0803 14:46:10.886922 28176 net.cpp:425] InnerProduct29 <- Concat5
I0803 14:46:10.886934 28176 net.cpp:399] InnerProduct29 -> InnerProduct29
I0803 14:46:10.887117 28176 net.cpp:141] Setting up InnerProduct29
I0803 14:46:10.887125 28176 net.cpp:148] Top shape: 100 64 (6400)
I0803 14:46:10.887130 28176 net.cpp:156] Memory required for data: 1287477600
I0803 14:46:10.887136 28176 net.cpp:484] Sharing parameters 'fc1_w' owned by layer 'InnerProduct5', param index 0
I0803 14:46:10.887142 28176 net.cpp:484] Sharing parameters 'fc1_b' owned by layer 'InnerProduct5', param index 1
I0803 14:46:10.887148 28176 layer_factory.hpp:77] Creating layer ReLU19
I0803 14:46:10.887156 28176 net.cpp:91] Creating Layer ReLU19
I0803 14:46:10.887161 28176 net.cpp:425] ReLU19 <- InnerProduct29
I0803 14:46:10.887169 28176 net.cpp:386] ReLU19 -> InnerProduct29 (in-place)
I0803 14:46:10.887178 28176 net.cpp:141] Setting up ReLU19
I0803 14:46:10.887186 28176 net.cpp:148] Top shape: 100 64 (6400)
I0803 14:46:10.887190 28176 net.cpp:156] Memory required for data: 1287503200
I0803 14:46:10.887195 28176 layer_factory.hpp:77] Creating layer InnerProduct30
I0803 14:46:10.887207 28176 net.cpp:91] Creating Layer InnerProduct30
I0803 14:46:10.887212 28176 net.cpp:425] InnerProduct30 <- InnerProduct29
I0803 14:46:10.887223 28176 net.cpp:399] InnerProduct30 -> InnerProduct30
I0803 14:46:10.887375 28176 net.cpp:141] Setting up InnerProduct30
I0803 14:46:10.887383 28176 net.cpp:148] Top shape: 100 32 (3200)
I0803 14:46:10.887389 28176 net.cpp:156] Memory required for data: 1287516000
I0803 14:46:10.887394 28176 net.cpp:484] Sharing parameters 'fc2_w' owned by layer 'InnerProduct6', param index 0
I0803 14:46:10.887401 28176 net.cpp:484] Sharing parameters 'fc2_b' owned by layer 'InnerProduct6', param index 1
I0803 14:46:10.887408 28176 layer_factory.hpp:77] Creating layer ReLU20
I0803 14:46:10.887414 28176 net.cpp:91] Creating Layer ReLU20
I0803 14:46:10.887420 28176 net.cpp:425] ReLU20 <- InnerProduct30
I0803 14:46:10.887428 28176 net.cpp:386] ReLU20 -> InnerProduct30 (in-place)
I0803 14:46:10.887436 28176 net.cpp:141] Setting up ReLU20
I0803 14:46:10.887444 28176 net.cpp:148] Top shape: 100 32 (3200)
I0803 14:46:10.887449 28176 net.cpp:156] Memory required for data: 1287528800
I0803 14:46:10.887454 28176 layer_factory.hpp:77] Creating layer dt4
I0803 14:46:10.887462 28176 net.cpp:91] Creating Layer dt4
I0803 14:46:10.887468 28176 net.cpp:425] dt4 <- InnerProduct30
I0803 14:46:10.887480 28176 net.cpp:399] dt4 -> dt4
I0803 14:46:10.887612 28176 net.cpp:141] Setting up dt4
I0803 14:46:10.887619 28176 net.cpp:148] Top shape: 100 1 (100)
I0803 14:46:10.887624 28176 net.cpp:156] Memory required for data: 1287529200
I0803 14:46:10.887630 28176 net.cpp:484] Sharing parameters 'fc3_w' owned by layer 'dt0', param index 0
I0803 14:46:10.887637 28176 net.cpp:484] Sharing parameters 'fc3_b' owned by layer 'dt0', param index 1
I0803 14:46:10.887644 28176 layer_factory.hpp:77] Creating layer Convolution21
I0803 14:46:10.887655 28176 net.cpp:91] Creating Layer Convolution21
I0803 14:46:10.887670 28176 net.cpp:425] Convolution21 <- p1_p1_0_split_5
I0803 14:46:10.887682 28176 net.cpp:399] Convolution21 -> Convolution21
I0803 14:46:10.888021 28176 net.cpp:141] Setting up Convolution21
I0803 14:46:10.888030 28176 net.cpp:148] Top shape: 100 20 60 60 (7200000)
I0803 14:46:10.888034 28176 net.cpp:156] Memory required for data: 1316329200
I0803 14:46:10.888041 28176 net.cpp:484] Sharing parameters 'conv1_w' owned by layer 'Convolution1', param index 0
I0803 14:46:10.888047 28176 net.cpp:484] Sharing parameters 'conv1_b' owned by layer 'Convolution1', param index 1
I0803 14:46:10.888053 28176 layer_factory.hpp:77] Creating layer Pooling21
I0803 14:46:10.888062 28176 net.cpp:91] Creating Layer Pooling21
I0803 14:46:10.888067 28176 net.cpp:425] Pooling21 <- Convolution21
I0803 14:46:10.888077 28176 net.cpp:399] Pooling21 -> Pooling21
I0803 14:46:10.888125 28176 net.cpp:141] Setting up Pooling21
I0803 14:46:10.888134 28176 net.cpp:148] Top shape: 100 20 30 30 (1800000)
I0803 14:46:10.888139 28176 net.cpp:156] Memory required for data: 1323529200
I0803 14:46:10.888144 28176 layer_factory.hpp:77] Creating layer Convolution22
I0803 14:46:10.888159 28176 net.cpp:91] Creating Layer Convolution22
I0803 14:46:10.888164 28176 net.cpp:425] Convolution22 <- Pooling21
I0803 14:46:10.888176 28176 net.cpp:399] Convolution22 -> Convolution22
I0803 14:46:10.889401 28176 net.cpp:141] Setting up Convolution22
I0803 14:46:10.889417 28176 net.cpp:148] Top shape: 100 50 26 26 (3380000)
I0803 14:46:10.889423 28176 net.cpp:156] Memory required for data: 1337049200
I0803 14:46:10.889432 28176 net.cpp:484] Sharing parameters 'conv2_w' owned by layer 'Convolution2', param index 0
I0803 14:46:10.889441 28176 net.cpp:484] Sharing parameters 'conv2_b' owned by layer 'Convolution2', param index 1
I0803 14:46:10.889448 28176 layer_factory.hpp:77] Creating layer Pooling22
I0803 14:46:10.889459 28176 net.cpp:91] Creating Layer Pooling22
I0803 14:46:10.889467 28176 net.cpp:425] Pooling22 <- Convolution22
I0803 14:46:10.889482 28176 net.cpp:399] Pooling22 -> Pooling22
I0803 14:46:10.889540 28176 net.cpp:141] Setting up Pooling22
I0803 14:46:10.889549 28176 net.cpp:148] Top shape: 100 50 13 13 (845000)
I0803 14:46:10.889556 28176 net.cpp:156] Memory required for data: 1340429200
I0803 14:46:10.889564 28176 layer_factory.hpp:77] Creating layer InnerProduct31
I0803 14:46:10.889577 28176 net.cpp:91] Creating Layer InnerProduct31
I0803 14:46:10.889585 28176 net.cpp:425] InnerProduct31 <- Pooling22
I0803 14:46:10.889600 28176 net.cpp:399] InnerProduct31 -> InnerProduct31
I0803 14:46:10.898241 28176 net.cpp:141] Setting up InnerProduct31
I0803 14:46:10.898262 28176 net.cpp:148] Top shape: 100 100 (10000)
I0803 14:46:10.898268 28176 net.cpp:156] Memory required for data: 1340469200
I0803 14:46:10.898278 28176 net.cpp:484] Sharing parameters 'ip1_w' owned by layer 'InnerProduct1', param index 0
I0803 14:46:10.898286 28176 net.cpp:484] Sharing parameters 'ip1_b' owned by layer 'InnerProduct1', param index 1
I0803 14:46:10.898293 28176 layer_factory.hpp:77] Creating layer ReLU21
I0803 14:46:10.898306 28176 net.cpp:91] Creating Layer ReLU21
I0803 14:46:10.898313 28176 net.cpp:425] ReLU21 <- InnerProduct31
I0803 14:46:10.898326 28176 net.cpp:386] ReLU21 -> InnerProduct31 (in-place)
I0803 14:46:10.898339 28176 net.cpp:141] Setting up ReLU21
I0803 14:46:10.898346 28176 net.cpp:148] Top shape: 100 100 (10000)
I0803 14:46:10.898351 28176 net.cpp:156] Memory required for data: 1340509200
I0803 14:46:10.898357 28176 layer_factory.hpp:77] Creating layer InnerProduct32
I0803 14:46:10.898368 28176 net.cpp:91] Creating Layer InnerProduct32
I0803 14:46:10.898376 28176 net.cpp:425] InnerProduct32 <- InnerProduct31
I0803 14:46:10.898386 28176 net.cpp:399] InnerProduct32 -> InnerProduct32
I0803 14:46:10.898576 28176 net.cpp:141] Setting up InnerProduct32
I0803 14:46:10.898583 28176 net.cpp:148] Top shape: 100 50 (5000)
I0803 14:46:10.898588 28176 net.cpp:156] Memory required for data: 1340529200
I0803 14:46:10.898596 28176 net.cpp:484] Sharing parameters 'ip2_w' owned by layer 'InnerProduct2', param index 0
I0803 14:46:10.898620 28176 net.cpp:484] Sharing parameters 'ip2_b' owned by layer 'InnerProduct2', param index 1
I0803 14:46:10.898627 28176 layer_factory.hpp:77] Creating layer Convolution23
I0803 14:46:10.898643 28176 net.cpp:91] Creating Layer Convolution23
I0803 14:46:10.898649 28176 net.cpp:425] Convolution23 <- c25
I0803 14:46:10.898660 28176 net.cpp:399] Convolution23 -> Convolution23
I0803 14:46:10.899011 28176 net.cpp:141] Setting up Convolution23
I0803 14:46:10.899020 28176 net.cpp:148] Top shape: 100 20 60 60 (7200000)
I0803 14:46:10.899025 28176 net.cpp:156] Memory required for data: 1369329200
I0803 14:46:10.899032 28176 net.cpp:484] Sharing parameters 'conv1_w' owned by layer 'Convolution1', param index 0
I0803 14:46:10.899039 28176 net.cpp:484] Sharing parameters 'conv1_b' owned by layer 'Convolution1', param index 1
I0803 14:46:10.899044 28176 layer_factory.hpp:77] Creating layer Pooling23
I0803 14:46:10.899055 28176 net.cpp:91] Creating Layer Pooling23
I0803 14:46:10.899062 28176 net.cpp:425] Pooling23 <- Convolution23
I0803 14:46:10.899071 28176 net.cpp:399] Pooling23 -> Pooling23
I0803 14:46:10.899122 28176 net.cpp:141] Setting up Pooling23
I0803 14:46:10.899130 28176 net.cpp:148] Top shape: 100 20 30 30 (1800000)
I0803 14:46:10.899135 28176 net.cpp:156] Memory required for data: 1376529200
I0803 14:46:10.899142 28176 layer_factory.hpp:77] Creating layer Convolution24
I0803 14:46:10.899154 28176 net.cpp:91] Creating Layer Convolution24
I0803 14:46:10.899160 28176 net.cpp:425] Convolution24 <- Pooling23
I0803 14:46:10.899173 28176 net.cpp:399] Convolution24 -> Convolution24
I0803 14:46:10.899709 28176 net.cpp:141] Setting up Convolution24
I0803 14:46:10.899718 28176 net.cpp:148] Top shape: 100 50 26 26 (3380000)
I0803 14:46:10.899724 28176 net.cpp:156] Memory required for data: 1390049200
I0803 14:46:10.899730 28176 net.cpp:484] Sharing parameters 'conv2_w' owned by layer 'Convolution2', param index 0
I0803 14:46:10.899737 28176 net.cpp:484] Sharing parameters 'conv2_b' owned by layer 'Convolution2', param index 1
I0803 14:46:10.899744 28176 layer_factory.hpp:77] Creating layer Pooling24
I0803 14:46:10.899751 28176 net.cpp:91] Creating Layer Pooling24
I0803 14:46:10.899756 28176 net.cpp:425] Pooling24 <- Convolution24
I0803 14:46:10.899770 28176 net.cpp:399] Pooling24 -> Pooling24
I0803 14:46:10.899816 28176 net.cpp:141] Setting up Pooling24
I0803 14:46:10.899824 28176 net.cpp:148] Top shape: 100 50 13 13 (845000)
I0803 14:46:10.899829 28176 net.cpp:156] Memory required for data: 1393429200
I0803 14:46:10.899834 28176 layer_factory.hpp:77] Creating layer InnerProduct33
I0803 14:46:10.899845 28176 net.cpp:91] Creating Layer InnerProduct33
I0803 14:46:10.899852 28176 net.cpp:425] InnerProduct33 <- Pooling24
I0803 14:46:10.899864 28176 net.cpp:399] InnerProduct33 -> InnerProduct33
I0803 14:46:10.908095 28176 net.cpp:141] Setting up InnerProduct33
I0803 14:46:10.908112 28176 net.cpp:148] Top shape: 100 100 (10000)
I0803 14:46:10.908118 28176 net.cpp:156] Memory required for data: 1393469200
I0803 14:46:10.908125 28176 net.cpp:484] Sharing parameters 'ip1_w' owned by layer 'InnerProduct1', param index 0
I0803 14:46:10.908133 28176 net.cpp:484] Sharing parameters 'ip1_b' owned by layer 'InnerProduct1', param index 1
I0803 14:46:10.908139 28176 layer_factory.hpp:77] Creating layer ReLU22
I0803 14:46:10.908151 28176 net.cpp:91] Creating Layer ReLU22
I0803 14:46:10.908159 28176 net.cpp:425] ReLU22 <- InnerProduct33
I0803 14:46:10.908167 28176 net.cpp:386] ReLU22 -> InnerProduct33 (in-place)
I0803 14:46:10.908179 28176 net.cpp:141] Setting up ReLU22
I0803 14:46:10.908185 28176 net.cpp:148] Top shape: 100 100 (10000)
I0803 14:46:10.908191 28176 net.cpp:156] Memory required for data: 1393509200
I0803 14:46:10.908196 28176 layer_factory.hpp:77] Creating layer InnerProduct34
I0803 14:46:10.908208 28176 net.cpp:91] Creating Layer InnerProduct34
I0803 14:46:10.908215 28176 net.cpp:425] InnerProduct34 <- InnerProduct33
I0803 14:46:10.908223 28176 net.cpp:399] InnerProduct34 -> InnerProduct34
I0803 14:46:10.908418 28176 net.cpp:141] Setting up InnerProduct34
I0803 14:46:10.908427 28176 net.cpp:148] Top shape: 100 50 (5000)
I0803 14:46:10.908432 28176 net.cpp:156] Memory required for data: 1393529200
I0803 14:46:10.908437 28176 net.cpp:484] Sharing parameters 'ip2_w' owned by layer 'InnerProduct2', param index 0
I0803 14:46:10.908444 28176 net.cpp:484] Sharing parameters 'ip2_b' owned by layer 'InnerProduct2', param index 1
I0803 14:46:10.908450 28176 layer_factory.hpp:77] Creating layer Concat6
I0803 14:46:10.908459 28176 net.cpp:91] Creating Layer Concat6
I0803 14:46:10.908465 28176 net.cpp:425] Concat6 <- InnerProduct32
I0803 14:46:10.908473 28176 net.cpp:425] Concat6 <- InnerProduct34
I0803 14:46:10.908484 28176 net.cpp:399] Concat6 -> Concat6
I0803 14:46:10.908519 28176 net.cpp:141] Setting up Concat6
I0803 14:46:10.908526 28176 net.cpp:148] Top shape: 100 100 (10000)
I0803 14:46:10.908531 28176 net.cpp:156] Memory required for data: 1393569200
I0803 14:46:10.908537 28176 layer_factory.hpp:77] Creating layer InnerProduct35
I0803 14:46:10.908546 28176 net.cpp:91] Creating Layer InnerProduct35
I0803 14:46:10.908551 28176 net.cpp:425] InnerProduct35 <- Concat6
I0803 14:46:10.908563 28176 net.cpp:399] InnerProduct35 -> InnerProduct35
I0803 14:46:10.908749 28176 net.cpp:141] Setting up InnerProduct35
I0803 14:46:10.908757 28176 net.cpp:148] Top shape: 100 64 (6400)
I0803 14:46:10.908762 28176 net.cpp:156] Memory required for data: 1393594800
I0803 14:46:10.908768 28176 net.cpp:484] Sharing parameters 'fc1_w' owned by layer 'InnerProduct5', param index 0
I0803 14:46:10.908776 28176 net.cpp:484] Sharing parameters 'fc1_b' owned by layer 'InnerProduct5', param index 1
I0803 14:46:10.908782 28176 layer_factory.hpp:77] Creating layer ReLU23
I0803 14:46:10.908789 28176 net.cpp:91] Creating Layer ReLU23
I0803 14:46:10.908795 28176 net.cpp:425] ReLU23 <- InnerProduct35
I0803 14:46:10.908805 28176 net.cpp:386] ReLU23 -> InnerProduct35 (in-place)
I0803 14:46:10.908814 28176 net.cpp:141] Setting up ReLU23
I0803 14:46:10.908821 28176 net.cpp:148] Top shape: 100 64 (6400)
I0803 14:46:10.908826 28176 net.cpp:156] Memory required for data: 1393620400
I0803 14:46:10.908833 28176 layer_factory.hpp:77] Creating layer InnerProduct36
I0803 14:46:10.908841 28176 net.cpp:91] Creating Layer InnerProduct36
I0803 14:46:10.908848 28176 net.cpp:425] InnerProduct36 <- InnerProduct35
I0803 14:46:10.908864 28176 net.cpp:399] InnerProduct36 -> InnerProduct36
I0803 14:46:10.909020 28176 net.cpp:141] Setting up InnerProduct36
I0803 14:46:10.909029 28176 net.cpp:148] Top shape: 100 32 (3200)
I0803 14:46:10.909034 28176 net.cpp:156] Memory required for data: 1393633200
I0803 14:46:10.909077 28176 net.cpp:484] Sharing parameters 'fc2_w' owned by layer 'InnerProduct6', param index 0
I0803 14:46:10.909086 28176 net.cpp:484] Sharing parameters 'fc2_b' owned by layer 'InnerProduct6', param index 1
I0803 14:46:10.909092 28176 layer_factory.hpp:77] Creating layer ReLU24
I0803 14:46:10.909101 28176 net.cpp:91] Creating Layer ReLU24
I0803 14:46:10.909106 28176 net.cpp:425] ReLU24 <- InnerProduct36
I0803 14:46:10.909114 28176 net.cpp:386] ReLU24 -> InnerProduct36 (in-place)
I0803 14:46:10.909123 28176 net.cpp:141] Setting up ReLU24
I0803 14:46:10.909131 28176 net.cpp:148] Top shape: 100 32 (3200)
I0803 14:46:10.909135 28176 net.cpp:156] Memory required for data: 1393646000
I0803 14:46:10.909142 28176 layer_factory.hpp:77] Creating layer dt5
I0803 14:46:10.909150 28176 net.cpp:91] Creating Layer dt5
I0803 14:46:10.909157 28176 net.cpp:425] dt5 <- InnerProduct36
I0803 14:46:10.909168 28176 net.cpp:399] dt5 -> dt5
I0803 14:46:10.909310 28176 net.cpp:141] Setting up dt5
I0803 14:46:10.909317 28176 net.cpp:148] Top shape: 100 1 (100)
I0803 14:46:10.909322 28176 net.cpp:156] Memory required for data: 1393646400
I0803 14:46:10.909328 28176 net.cpp:484] Sharing parameters 'fc3_w' owned by layer 'dt0', param index 0
I0803 14:46:10.909337 28176 net.cpp:484] Sharing parameters 'fc3_b' owned by layer 'dt0', param index 1
I0803 14:46:10.909351 28176 layer_factory.hpp:77] Creating layer Convolution25
I0803 14:46:10.909365 28176 net.cpp:91] Creating Layer Convolution25
I0803 14:46:10.909371 28176 net.cpp:425] Convolution25 <- p1_p1_0_split_6
I0803 14:46:10.909384 28176 net.cpp:399] Convolution25 -> Convolution25
I0803 14:46:10.909711 28176 net.cpp:141] Setting up Convolution25
I0803 14:46:10.909718 28176 net.cpp:148] Top shape: 100 20 60 60 (7200000)
I0803 14:46:10.909723 28176 net.cpp:156] Memory required for data: 1422446400
I0803 14:46:10.909729 28176 net.cpp:484] Sharing parameters 'conv1_w' owned by layer 'Convolution1', param index 0
I0803 14:46:10.909736 28176 net.cpp:484] Sharing parameters 'conv1_b' owned by layer 'Convolution1', param index 1
I0803 14:46:10.909742 28176 layer_factory.hpp:77] Creating layer Pooling25
I0803 14:46:10.909750 28176 net.cpp:91] Creating Layer Pooling25
I0803 14:46:10.909755 28176 net.cpp:425] Pooling25 <- Convolution25
I0803 14:46:10.909765 28176 net.cpp:399] Pooling25 -> Pooling25
I0803 14:46:10.909813 28176 net.cpp:141] Setting up Pooling25
I0803 14:46:10.909821 28176 net.cpp:148] Top shape: 100 20 30 30 (1800000)
I0803 14:46:10.909826 28176 net.cpp:156] Memory required for data: 1429646400
I0803 14:46:10.909832 28176 layer_factory.hpp:77] Creating layer Convolution26
I0803 14:46:10.909844 28176 net.cpp:91] Creating Layer Convolution26
I0803 14:46:10.909850 28176 net.cpp:425] Convolution26 <- Pooling25
I0803 14:46:10.909862 28176 net.cpp:399] Convolution26 -> Convolution26
I0803 14:46:10.910369 28176 net.cpp:141] Setting up Convolution26
I0803 14:46:10.910377 28176 net.cpp:148] Top shape: 100 50 26 26 (3380000)
I0803 14:46:10.910382 28176 net.cpp:156] Memory required for data: 1443166400
I0803 14:46:10.910388 28176 net.cpp:484] Sharing parameters 'conv2_w' owned by layer 'Convolution2', param index 0
I0803 14:46:10.910394 28176 net.cpp:484] Sharing parameters 'conv2_b' owned by layer 'Convolution2', param index 1
I0803 14:46:10.910400 28176 layer_factory.hpp:77] Creating layer Pooling26
I0803 14:46:10.910408 28176 net.cpp:91] Creating Layer Pooling26
I0803 14:46:10.910418 28176 net.cpp:425] Pooling26 <- Convolution26
I0803 14:46:10.910426 28176 net.cpp:399] Pooling26 -> Pooling26
I0803 14:46:10.910472 28176 net.cpp:141] Setting up Pooling26
I0803 14:46:10.910481 28176 net.cpp:148] Top shape: 100 50 13 13 (845000)
I0803 14:46:10.910487 28176 net.cpp:156] Memory required for data: 1446546400
I0803 14:46:10.910492 28176 layer_factory.hpp:77] Creating layer InnerProduct37
I0803 14:46:10.910501 28176 net.cpp:91] Creating Layer InnerProduct37
I0803 14:46:10.910507 28176 net.cpp:425] InnerProduct37 <- Pooling26
I0803 14:46:10.910518 28176 net.cpp:399] InnerProduct37 -> InnerProduct37
I0803 14:46:10.918936 28176 net.cpp:141] Setting up InnerProduct37
I0803 14:46:10.918956 28176 net.cpp:148] Top shape: 100 100 (10000)
I0803 14:46:10.918962 28176 net.cpp:156] Memory required for data: 1446586400
I0803 14:46:10.918969 28176 net.cpp:484] Sharing parameters 'ip1_w' owned by layer 'InnerProduct1', param index 0
I0803 14:46:10.918977 28176 net.cpp:484] Sharing parameters 'ip1_b' owned by layer 'InnerProduct1', param index 1
I0803 14:46:10.918983 28176 layer_factory.hpp:77] Creating layer ReLU25
I0803 14:46:10.918993 28176 net.cpp:91] Creating Layer ReLU25
I0803 14:46:10.919000 28176 net.cpp:425] ReLU25 <- InnerProduct37
I0803 14:46:10.919009 28176 net.cpp:386] ReLU25 -> InnerProduct37 (in-place)
I0803 14:46:10.919020 28176 net.cpp:141] Setting up ReLU25
I0803 14:46:10.919028 28176 net.cpp:148] Top shape: 100 100 (10000)
I0803 14:46:10.919034 28176 net.cpp:156] Memory required for data: 1446626400
I0803 14:46:10.919039 28176 layer_factory.hpp:77] Creating layer InnerProduct38
I0803 14:46:10.919049 28176 net.cpp:91] Creating Layer InnerProduct38
I0803 14:46:10.919055 28176 net.cpp:425] InnerProduct38 <- InnerProduct37
I0803 14:46:10.919067 28176 net.cpp:399] InnerProduct38 -> InnerProduct38
I0803 14:46:10.919247 28176 net.cpp:141] Setting up InnerProduct38
I0803 14:46:10.919255 28176 net.cpp:148] Top shape: 100 50 (5000)
I0803 14:46:10.919286 28176 net.cpp:156] Memory required for data: 1446646400
I0803 14:46:10.919292 28176 net.cpp:484] Sharing parameters 'ip2_w' owned by layer 'InnerProduct2', param index 0
I0803 14:46:10.919298 28176 net.cpp:484] Sharing parameters 'ip2_b' owned by layer 'InnerProduct2', param index 1
I0803 14:46:10.919308 28176 layer_factory.hpp:77] Creating layer Convolution27
I0803 14:46:10.919323 28176 net.cpp:91] Creating Layer Convolution27
I0803 14:46:10.919332 28176 net.cpp:425] Convolution27 <- c26
I0803 14:46:10.919343 28176 net.cpp:399] Convolution27 -> Convolution27
I0803 14:46:10.919699 28176 net.cpp:141] Setting up Convolution27
I0803 14:46:10.919708 28176 net.cpp:148] Top shape: 100 20 60 60 (7200000)
I0803 14:46:10.919713 28176 net.cpp:156] Memory required for data: 1475446400
I0803 14:46:10.919719 28176 net.cpp:484] Sharing parameters 'conv1_w' owned by layer 'Convolution1', param index 0
I0803 14:46:10.919726 28176 net.cpp:484] Sharing parameters 'conv1_b' owned by layer 'Convolution1', param index 1
I0803 14:46:10.919733 28176 layer_factory.hpp:77] Creating layer Pooling27
I0803 14:46:10.919740 28176 net.cpp:91] Creating Layer Pooling27
I0803 14:46:10.919746 28176 net.cpp:425] Pooling27 <- Convolution27
I0803 14:46:10.919755 28176 net.cpp:399] Pooling27 -> Pooling27
I0803 14:46:10.919807 28176 net.cpp:141] Setting up Pooling27
I0803 14:46:10.919816 28176 net.cpp:148] Top shape: 100 20 30 30 (1800000)
I0803 14:46:10.919821 28176 net.cpp:156] Memory required for data: 1482646400
I0803 14:46:10.919826 28176 layer_factory.hpp:77] Creating layer Convolution28
I0803 14:46:10.919839 28176 net.cpp:91] Creating Layer Convolution28
I0803 14:46:10.919845 28176 net.cpp:425] Convolution28 <- Pooling27
I0803 14:46:10.919857 28176 net.cpp:399] Convolution28 -> Convolution28
I0803 14:46:10.920382 28176 net.cpp:141] Setting up Convolution28
I0803 14:46:10.920390 28176 net.cpp:148] Top shape: 100 50 26 26 (3380000)
I0803 14:46:10.920397 28176 net.cpp:156] Memory required for data: 1496166400
I0803 14:46:10.920403 28176 net.cpp:484] Sharing parameters 'conv2_w' owned by layer 'Convolution2', param index 0
I0803 14:46:10.920409 28176 net.cpp:484] Sharing parameters 'conv2_b' owned by layer 'Convolution2', param index 1
I0803 14:46:10.920415 28176 layer_factory.hpp:77] Creating layer Pooling28
I0803 14:46:10.920425 28176 net.cpp:91] Creating Layer Pooling28
I0803 14:46:10.920431 28176 net.cpp:425] Pooling28 <- Convolution28
I0803 14:46:10.920440 28176 net.cpp:399] Pooling28 -> Pooling28
I0803 14:46:10.920490 28176 net.cpp:141] Setting up Pooling28
I0803 14:46:10.920497 28176 net.cpp:148] Top shape: 100 50 13 13 (845000)
I0803 14:46:10.920503 28176 net.cpp:156] Memory required for data: 1499546400
I0803 14:46:10.920508 28176 layer_factory.hpp:77] Creating layer InnerProduct39
I0803 14:46:10.920517 28176 net.cpp:91] Creating Layer InnerProduct39
I0803 14:46:10.920523 28176 net.cpp:425] InnerProduct39 <- Pooling28
I0803 14:46:10.920534 28176 net.cpp:399] InnerProduct39 -> InnerProduct39
I0803 14:46:10.928879 28176 net.cpp:141] Setting up InnerProduct39
I0803 14:46:10.928900 28176 net.cpp:148] Top shape: 100 100 (10000)
I0803 14:46:10.928905 28176 net.cpp:156] Memory required for data: 1499586400
I0803 14:46:10.928913 28176 net.cpp:484] Sharing parameters 'ip1_w' owned by layer 'InnerProduct1', param index 0
I0803 14:46:10.928921 28176 net.cpp:484] Sharing parameters 'ip1_b' owned by layer 'InnerProduct1', param index 1
I0803 14:46:10.928927 28176 layer_factory.hpp:77] Creating layer ReLU26
I0803 14:46:10.928938 28176 net.cpp:91] Creating Layer ReLU26
I0803 14:46:10.928946 28176 net.cpp:425] ReLU26 <- InnerProduct39
I0803 14:46:10.928954 28176 net.cpp:386] ReLU26 -> InnerProduct39 (in-place)
I0803 14:46:10.928966 28176 net.cpp:141] Setting up ReLU26
I0803 14:46:10.928973 28176 net.cpp:148] Top shape: 100 100 (10000)
I0803 14:46:10.928979 28176 net.cpp:156] Memory required for data: 1499626400
I0803 14:46:10.928984 28176 layer_factory.hpp:77] Creating layer InnerProduct40
I0803 14:46:10.928997 28176 net.cpp:91] Creating Layer InnerProduct40
I0803 14:46:10.929020 28176 net.cpp:425] InnerProduct40 <- InnerProduct39
I0803 14:46:10.929033 28176 net.cpp:399] InnerProduct40 -> InnerProduct40
I0803 14:46:10.929219 28176 net.cpp:141] Setting up InnerProduct40
I0803 14:46:10.929227 28176 net.cpp:148] Top shape: 100 50 (5000)
I0803 14:46:10.929234 28176 net.cpp:156] Memory required for data: 1499646400
I0803 14:46:10.929239 28176 net.cpp:484] Sharing parameters 'ip2_w' owned by layer 'InnerProduct2', param index 0
I0803 14:46:10.929246 28176 net.cpp:484] Sharing parameters 'ip2_b' owned by layer 'InnerProduct2', param index 1
I0803 14:46:10.929252 28176 layer_factory.hpp:77] Creating layer Concat7
I0803 14:46:10.929262 28176 net.cpp:91] Creating Layer Concat7
I0803 14:46:10.929268 28176 net.cpp:425] Concat7 <- InnerProduct38
I0803 14:46:10.929275 28176 net.cpp:425] Concat7 <- InnerProduct40
I0803 14:46:10.929285 28176 net.cpp:399] Concat7 -> Concat7
I0803 14:46:10.929316 28176 net.cpp:141] Setting up Concat7
I0803 14:46:10.929324 28176 net.cpp:148] Top shape: 100 100 (10000)
I0803 14:46:10.929329 28176 net.cpp:156] Memory required for data: 1499686400
I0803 14:46:10.929335 28176 layer_factory.hpp:77] Creating layer InnerProduct41
I0803 14:46:10.929347 28176 net.cpp:91] Creating Layer InnerProduct41
I0803 14:46:10.929352 28176 net.cpp:425] InnerProduct41 <- Concat7
I0803 14:46:10.929361 28176 net.cpp:399] InnerProduct41 -> InnerProduct41
I0803 14:46:10.929601 28176 net.cpp:141] Setting up InnerProduct41
I0803 14:46:10.929610 28176 net.cpp:148] Top shape: 100 64 (6400)
I0803 14:46:10.929615 28176 net.cpp:156] Memory required for data: 1499712000
I0803 14:46:10.929621 28176 net.cpp:484] Sharing parameters 'fc1_w' owned by layer 'InnerProduct5', param index 0
I0803 14:46:10.929628 28176 net.cpp:484] Sharing parameters 'fc1_b' owned by layer 'InnerProduct5', param index 1
I0803 14:46:10.929633 28176 layer_factory.hpp:77] Creating layer ReLU27
I0803 14:46:10.929641 28176 net.cpp:91] Creating Layer ReLU27
I0803 14:46:10.929647 28176 net.cpp:425] ReLU27 <- InnerProduct41
I0803 14:46:10.929657 28176 net.cpp:386] ReLU27 -> InnerProduct41 (in-place)
I0803 14:46:10.929666 28176 net.cpp:141] Setting up ReLU27
I0803 14:46:10.929673 28176 net.cpp:148] Top shape: 100 64 (6400)
I0803 14:46:10.929678 28176 net.cpp:156] Memory required for data: 1499737600
I0803 14:46:10.929684 28176 layer_factory.hpp:77] Creating layer InnerProduct42
I0803 14:46:10.929693 28176 net.cpp:91] Creating Layer InnerProduct42
I0803 14:46:10.929699 28176 net.cpp:425] InnerProduct42 <- InnerProduct41
I0803 14:46:10.929711 28176 net.cpp:399] InnerProduct42 -> InnerProduct42
I0803 14:46:10.929873 28176 net.cpp:141] Setting up InnerProduct42
I0803 14:46:10.929882 28176 net.cpp:148] Top shape: 100 32 (3200)
I0803 14:46:10.929886 28176 net.cpp:156] Memory required for data: 1499750400
I0803 14:46:10.929893 28176 net.cpp:484] Sharing parameters 'fc2_w' owned by layer 'InnerProduct6', param index 0
I0803 14:46:10.929899 28176 net.cpp:484] Sharing parameters 'fc2_b' owned by layer 'InnerProduct6', param index 1
I0803 14:46:10.929905 28176 layer_factory.hpp:77] Creating layer ReLU28
I0803 14:46:10.929913 28176 net.cpp:91] Creating Layer ReLU28
I0803 14:46:10.929919 28176 net.cpp:425] ReLU28 <- InnerProduct42
I0803 14:46:10.929926 28176 net.cpp:386] ReLU28 -> InnerProduct42 (in-place)
I0803 14:46:10.929935 28176 net.cpp:141] Setting up ReLU28
I0803 14:46:10.929942 28176 net.cpp:148] Top shape: 100 32 (3200)
I0803 14:46:10.929949 28176 net.cpp:156] Memory required for data: 1499763200
I0803 14:46:10.929954 28176 layer_factory.hpp:77] Creating layer dt6
I0803 14:46:10.929965 28176 net.cpp:91] Creating Layer dt6
I0803 14:46:10.929970 28176 net.cpp:425] dt6 <- InnerProduct42
I0803 14:46:10.929982 28176 net.cpp:399] dt6 -> dt6
I0803 14:46:10.930116 28176 net.cpp:141] Setting up dt6
I0803 14:46:10.930124 28176 net.cpp:148] Top shape: 100 1 (100)
I0803 14:46:10.930130 28176 net.cpp:156] Memory required for data: 1499763600
I0803 14:46:10.930136 28176 net.cpp:484] Sharing parameters 'fc3_w' owned by layer 'dt0', param index 0
I0803 14:46:10.930152 28176 net.cpp:484] Sharing parameters 'fc3_b' owned by layer 'dt0', param index 1
I0803 14:46:10.930158 28176 layer_factory.hpp:77] Creating layer Convolution29
I0803 14:46:10.930173 28176 net.cpp:91] Creating Layer Convolution29
I0803 14:46:10.930179 28176 net.cpp:425] Convolution29 <- p1_p1_0_split_7
I0803 14:46:10.930191 28176 net.cpp:399] Convolution29 -> Convolution29
I0803 14:46:10.930546 28176 net.cpp:141] Setting up Convolution29
I0803 14:46:10.930553 28176 net.cpp:148] Top shape: 100 20 60 60 (7200000)
I0803 14:46:10.930558 28176 net.cpp:156] Memory required for data: 1528563600
I0803 14:46:10.930564 28176 net.cpp:484] Sharing parameters 'conv1_w' owned by layer 'Convolution1', param index 0
I0803 14:46:10.930572 28176 net.cpp:484] Sharing parameters 'conv1_b' owned by layer 'Convolution1', param index 1
I0803 14:46:10.930577 28176 layer_factory.hpp:77] Creating layer Pooling29
I0803 14:46:10.930585 28176 net.cpp:91] Creating Layer Pooling29
I0803 14:46:10.930591 28176 net.cpp:425] Pooling29 <- Convolution29
I0803 14:46:10.930603 28176 net.cpp:399] Pooling29 -> Pooling29
I0803 14:46:10.930652 28176 net.cpp:141] Setting up Pooling29
I0803 14:46:10.930660 28176 net.cpp:148] Top shape: 100 20 30 30 (1800000)
I0803 14:46:10.930665 28176 net.cpp:156] Memory required for data: 1535763600
I0803 14:46:10.930671 28176 layer_factory.hpp:77] Creating layer Convolution30
I0803 14:46:10.930686 28176 net.cpp:91] Creating Layer Convolution30
I0803 14:46:10.930692 28176 net.cpp:425] Convolution30 <- Pooling29
I0803 14:46:10.930701 28176 net.cpp:399] Convolution30 -> Convolution30
I0803 14:46:10.931221 28176 net.cpp:141] Setting up Convolution30
I0803 14:46:10.931227 28176 net.cpp:148] Top shape: 100 50 26 26 (3380000)
I0803 14:46:10.931232 28176 net.cpp:156] Memory required for data: 1549283600
I0803 14:46:10.931238 28176 net.cpp:484] Sharing parameters 'conv2_w' owned by layer 'Convolution2', param index 0
I0803 14:46:10.931246 28176 net.cpp:484] Sharing parameters 'conv2_b' owned by layer 'Convolution2', param index 1
I0803 14:46:10.931254 28176 layer_factory.hpp:77] Creating layer Pooling30
I0803 14:46:10.931265 28176 net.cpp:91] Creating Layer Pooling30
I0803 14:46:10.931278 28176 net.cpp:425] Pooling30 <- Convolution30
I0803 14:46:10.931300 28176 net.cpp:399] Pooling30 -> Pooling30
I0803 14:46:10.931365 28176 net.cpp:141] Setting up Pooling30
I0803 14:46:10.931372 28176 net.cpp:148] Top shape: 100 50 13 13 (845000)
I0803 14:46:10.931378 28176 net.cpp:156] Memory required for data: 1552663600
I0803 14:46:10.931383 28176 layer_factory.hpp:77] Creating layer InnerProduct43
I0803 14:46:10.931396 28176 net.cpp:91] Creating Layer InnerProduct43
I0803 14:46:10.931401 28176 net.cpp:425] InnerProduct43 <- Pooling30
I0803 14:46:10.931413 28176 net.cpp:399] InnerProduct43 -> InnerProduct43
I0803 14:46:10.939592 28176 net.cpp:141] Setting up InnerProduct43
I0803 14:46:10.939607 28176 net.cpp:148] Top shape: 100 100 (10000)
I0803 14:46:10.939613 28176 net.cpp:156] Memory required for data: 1552703600
I0803 14:46:10.939621 28176 net.cpp:484] Sharing parameters 'ip1_w' owned by layer 'InnerProduct1', param index 0
I0803 14:46:10.939628 28176 net.cpp:484] Sharing parameters 'ip1_b' owned by layer 'InnerProduct1', param index 1
I0803 14:46:10.939635 28176 layer_factory.hpp:77] Creating layer ReLU29
I0803 14:46:10.939643 28176 net.cpp:91] Creating Layer ReLU29
I0803 14:46:10.939651 28176 net.cpp:425] ReLU29 <- InnerProduct43
I0803 14:46:10.939661 28176 net.cpp:386] ReLU29 -> InnerProduct43 (in-place)
I0803 14:46:10.939671 28176 net.cpp:141] Setting up ReLU29
I0803 14:46:10.939678 28176 net.cpp:148] Top shape: 100 100 (10000)
I0803 14:46:10.939684 28176 net.cpp:156] Memory required for data: 1552743600
I0803 14:46:10.939689 28176 layer_factory.hpp:77] Creating layer InnerProduct44
I0803 14:46:10.939699 28176 net.cpp:91] Creating Layer InnerProduct44
I0803 14:46:10.939705 28176 net.cpp:425] InnerProduct44 <- InnerProduct43
I0803 14:46:10.939716 28176 net.cpp:399] InnerProduct44 -> InnerProduct44
I0803 14:46:10.939884 28176 net.cpp:141] Setting up InnerProduct44
I0803 14:46:10.939906 28176 net.cpp:148] Top shape: 100 50 (5000)
I0803 14:46:10.939913 28176 net.cpp:156] Memory required for data: 1552763600
I0803 14:46:10.939918 28176 net.cpp:484] Sharing parameters 'ip2_w' owned by layer 'InnerProduct2', param index 0
I0803 14:46:10.939925 28176 net.cpp:484] Sharing parameters 'ip2_b' owned by layer 'InnerProduct2', param index 1
I0803 14:46:10.939930 28176 layer_factory.hpp:77] Creating layer Convolution31
I0803 14:46:10.939942 28176 net.cpp:91] Creating Layer Convolution31
I0803 14:46:10.939949 28176 net.cpp:425] Convolution31 <- c27
I0803 14:46:10.939965 28176 net.cpp:399] Convolution31 -> Convolution31
I0803 14:46:10.940305 28176 net.cpp:141] Setting up Convolution31
I0803 14:46:10.940313 28176 net.cpp:148] Top shape: 100 20 60 60 (7200000)
I0803 14:46:10.940318 28176 net.cpp:156] Memory required for data: 1581563600
I0803 14:46:10.940325 28176 net.cpp:484] Sharing parameters 'conv1_w' owned by layer 'Convolution1', param index 0
I0803 14:46:10.940331 28176 net.cpp:484] Sharing parameters 'conv1_b' owned by layer 'Convolution1', param index 1
I0803 14:46:10.940336 28176 layer_factory.hpp:77] Creating layer Pooling31
I0803 14:46:10.940347 28176 net.cpp:91] Creating Layer Pooling31
I0803 14:46:10.940353 28176 net.cpp:425] Pooling31 <- Convolution31
I0803 14:46:10.940362 28176 net.cpp:399] Pooling31 -> Pooling31
I0803 14:46:10.940410 28176 net.cpp:141] Setting up Pooling31
I0803 14:46:10.940418 28176 net.cpp:148] Top shape: 100 20 30 30 (1800000)
I0803 14:46:10.940423 28176 net.cpp:156] Memory required for data: 1588763600
I0803 14:46:10.940428 28176 layer_factory.hpp:77] Creating layer Convolution32
I0803 14:46:10.940441 28176 net.cpp:91] Creating Layer Convolution32
I0803 14:46:10.940448 28176 net.cpp:425] Convolution32 <- Pooling31
I0803 14:46:10.940459 28176 net.cpp:399] Convolution32 -> Convolution32
I0803 14:46:10.940966 28176 net.cpp:141] Setting up Convolution32
I0803 14:46:10.940973 28176 net.cpp:148] Top shape: 100 50 26 26 (3380000)
I0803 14:46:10.940979 28176 net.cpp:156] Memory required for data: 1602283600
I0803 14:46:10.940985 28176 net.cpp:484] Sharing parameters 'conv2_w' owned by layer 'Convolution2', param index 0
I0803 14:46:10.940992 28176 net.cpp:484] Sharing parameters 'conv2_b' owned by layer 'Convolution2', param index 1
I0803 14:46:10.940997 28176 layer_factory.hpp:77] Creating layer Pooling32
I0803 14:46:10.941005 28176 net.cpp:91] Creating Layer Pooling32
I0803 14:46:10.941011 28176 net.cpp:425] Pooling32 <- Convolution32
I0803 14:46:10.941021 28176 net.cpp:399] Pooling32 -> Pooling32
I0803 14:46:10.941068 28176 net.cpp:141] Setting up Pooling32
I0803 14:46:10.941076 28176 net.cpp:148] Top shape: 100 50 13 13 (845000)
I0803 14:46:10.941081 28176 net.cpp:156] Memory required for data: 1605663600
I0803 14:46:10.941087 28176 layer_factory.hpp:77] Creating layer InnerProduct45
I0803 14:46:10.941097 28176 net.cpp:91] Creating Layer InnerProduct45
…
I0803 14:46:11.111248 28176 net.cpp:425] InnerProduct92 <- InnerProduct91
I0803 14:46:11.111260 28176 net.cpp:399] InnerProduct92 -> InnerProduct92
I0803 14:46:11.111485 28176 net.cpp:141] Setting up InnerProduct92
I0803 14:46:11.111495 28176 net.cpp:148] Top shape: 100 50 (5000)
I0803 14:46:11.111501 28176 net.cpp:156] Memory required for data: 2401701200
I0803 14:46:11.111510 28176 net.cpp:484] Sharing parameters 'ip2_w' owned by layer 'InnerProduct2', param index 0
I0803 14:46:11.111517 28176 net.cpp:484] Sharing parameters 'ip2_b' owned by layer 'InnerProduct2', param index 1
I0803 14:46:11.111524 28176 layer_factory.hpp:77] Creating layer Convolution63
I0803 14:46:11.111539 28176 net.cpp:91] Creating Layer Convolution63
I0803 14:46:11.111546 28176 net.cpp:425] Convolution63 <- c16
I0803 14:46:11.111563 28176 net.cpp:399] Convolution63 -> Convolution63
I0803 14:46:11.111995 28176 net.cpp:141] Setting up Convolution63
I0803 14:46:11.112004 28176 net.cpp:148] Top shape: 100 20 60 60 (7200000)
I0803 14:46:11.112010 28176 net.cpp:156] Memory required for data: 2430501200
I0803 14:46:11.112016 28176 net.cpp:484] Sharing parameters 'conv1_w' owned by layer 'Convolution1', param index 0
I0803 14:46:11.112023 28176 net.cpp:484] Sharing parameters 'conv1_b' owned by layer 'Convolution1', param index 1
I0803 14:46:11.112030 28176 layer_factory.hpp:77] Creating layer Pooling63
I0803 14:46:11.112041 28176 net.cpp:91] Creating Layer Pooling63
I0803 14:46:11.112048 28176 net.cpp:425] Pooling63 <- Convolution63
I0803 14:46:11.112057 28176 net.cpp:399] Pooling63 -> Pooling63
I0803 14:46:11.112112 28176 net.cpp:141] Setting up Pooling63
I0803 14:46:11.112120 28176 net.cpp:148] Top shape: 100 20 30 30 (1800000)
I0803 14:46:11.112126 28176 net.cpp:156] Memory required for data: 2437701200
I0803 14:46:11.112131 28176 layer_factory.hpp:77] Creating layer Convolution64
I0803 14:46:11.112144 28176 net.cpp:91] Creating Layer Convolution64
I0803 14:46:11.112150 28176 net.cpp:425] Convolution64 <- Pooling63
I0803 14:46:11.112160 28176 net.cpp:399] Convolution64 -> Convolution64
I0803 14:46:11.112771 28176 net.cpp:141] Setting up Convolution64
I0803 14:46:11.112781 28176 net.cpp:148] Top shape: 100 50 26 26 (3380000)
I0803 14:46:11.112787 28176 net.cpp:156] Memory required for data: 2451221200
I0803 14:46:11.112794 28176 net.cpp:484] Sharing parameters 'conv2_w' owned by layer 'Convolution2', param index 0
I0803 14:46:11.112802 28176 net.cpp:484] Sharing parameters 'conv2_b' owned by layer 'Convolution2', param index 1
I0803 14:46:11.112808 28176 layer_factory.hpp:77] Creating layer Pooling64
I0803 14:46:11.112818 28176 net.cpp:91] Creating Layer Pooling64
I0803 14:46:11.112825 28176 net.cpp:425] Pooling64 <- Convolution64
I0803 14:46:11.112836 28176 net.cpp:399] Pooling64 -> Pooling64
I0803 14:46:11.112893 28176 net.cpp:141] Setting up Pooling64
I0803 14:46:11.112901 28176 net.cpp:148] Top shape: 100 50 13 13 (845000)
I0803 14:46:11.112906 28176 net.cpp:156] Memory required for data: 2454601200
I0803 14:46:11.112912 28176 layer_factory.hpp:77] Creating layer InnerProduct93
I0803 14:46:11.112925 28176 net.cpp:91] Creating Layer InnerProduct93
I0803 14:46:11.112944 28176 net.cpp:425] InnerProduct93 <- Pooling64
I0803 14:46:11.112958 28176 net.cpp:399] InnerProduct93 -> InnerProduct93
I0803 14:46:11.121534 28176 net.cpp:141] Setting up InnerProduct93
I0803 14:46:11.121557 28176 net.cpp:148] Top shape: 100 100 (10000)
I0803 14:46:11.121563 28176 net.cpp:156] Memory required for data: 2454641200
I0803 14:46:11.121573 28176 net.cpp:484] Sharing parameters 'ip1_w' owned by layer 'InnerProduct1', param index 0
I0803 14:46:11.121582 28176 net.cpp:484] Sharing parameters 'ip1_b' owned by layer 'InnerProduct1', param index 1
I0803 14:46:11.121588 28176 layer_factory.hpp:77] Creating layer ReLU62
I0803 14:46:11.121600 28176 net.cpp:91] Creating Layer ReLU62
I0803 14:46:11.121608 28176 net.cpp:425] ReLU62 <- InnerProduct93
I0803 14:46:11.121625 28176 net.cpp:386] ReLU62 -> InnerProduct93 (in-place)
I0803 14:46:11.121639 28176 net.cpp:141] Setting up ReLU62
I0803 14:46:11.121646 28176 net.cpp:148] Top shape: 100 100 (10000)
I0803 14:46:11.121651 28176 net.cpp:156] Memory required for data: 2454681200
I0803 14:46:11.121657 28176 layer_factory.hpp:77] Creating layer InnerProduct94
I0803 14:46:11.121667 28176 net.cpp:91] Creating Layer InnerProduct94
I0803 14:46:11.121673 28176 net.cpp:425] InnerProduct94 <- InnerProduct93
I0803 14:46:11.121685 28176 net.cpp:399] InnerProduct94 -> InnerProduct94
I0803 14:46:11.121889 28176 net.cpp:141] Setting up InnerProduct94
I0803 14:46:11.121898 28176 net.cpp:148] Top shape: 100 50 (5000)
I0803 14:46:11.121903 28176 net.cpp:156] Memory required for data: 2454701200
I0803 14:46:11.121911 28176 net.cpp:484] Sharing parameters 'ip2_w' owned by layer 'InnerProduct2', param index 0
I0803 14:46:11.121917 28176 net.cpp:484] Sharing parameters 'ip2_b' owned by layer 'InnerProduct2', param index 1
I0803 14:46:11.121923 28176 layer_factory.hpp:77] Creating layer Concat16
I0803 14:46:11.121932 28176 net.cpp:91] Creating Layer Concat16
I0803 14:46:11.121938 28176 net.cpp:425] Concat16 <- InnerProduct92
I0803 14:46:11.121947 28176 net.cpp:425] Concat16 <- InnerProduct94
I0803 14:46:11.121959 28176 net.cpp:399] Concat16 -> Concat16
I0803 14:46:11.121990 28176 net.cpp:141] Setting up Concat16
I0803 14:46:11.122000 28176 net.cpp:148] Top shape: 100 100 (10000)
I0803 14:46:11.122006 28176 net.cpp:156] Memory required for data: 2454741200
I0803 14:46:11.122011 28176 layer_factory.hpp:77] Creating layer InnerProduct95
I0803 14:46:11.122020 28176 net.cpp:91] Creating Layer InnerProduct95
I0803 14:46:11.122026 28176 net.cpp:425] InnerProduct95 <- Concat16
I0803 14:46:11.122038 28176 net.cpp:399] InnerProduct95 -> InnerProduct95
I0803 14:46:11.122907 28176 net.cpp:141] Setting up InnerProduct95
I0803 14:46:11.122918 28176 net.cpp:148] Top shape: 100 64 (6400)
I0803 14:46:11.122925 28176 net.cpp:156] Memory required for data: 2454766800
I0803 14:46:11.122931 28176 net.cpp:484] Sharing parameters 'fc1_w' owned by layer 'InnerProduct5', param index 0
I0803 14:46:11.122939 28176 net.cpp:484] Sharing parameters 'fc1_b' owned by layer 'InnerProduct5', param index 1
I0803 14:46:11.122946 28176 layer_factory.hpp:77] Creating layer ReLU63
I0803 14:46:11.122956 28176 net.cpp:91] Creating Layer ReLU63
I0803 14:46:11.122963 28176 net.cpp:425] ReLU63 <- InnerProduct95
I0803 14:46:11.122972 28176 net.cpp:386] ReLU63 -> InnerProduct95 (in-place)
I0803 14:46:11.122982 28176 net.cpp:141] Setting up ReLU63
I0803 14:46:11.122989 28176 net.cpp:148] Top shape: 100 64 (6400)
I0803 14:46:11.122994 28176 net.cpp:156] Memory required for data: 2454792400
I0803 14:46:11.123000 28176 layer_factory.hpp:77] Creating layer InnerProduct96
I0803 14:46:11.123010 28176 net.cpp:91] Creating Layer InnerProduct96
I0803 14:46:11.123016 28176 net.cpp:425] InnerProduct96 <- InnerProduct95
I0803 14:46:11.123030 28176 net.cpp:399] InnerProduct96 -> InnerProduct96
I0803 14:46:11.123205 28176 net.cpp:141] Setting up InnerProduct96
I0803 14:46:11.123214 28176 net.cpp:148] Top shape: 100 32 (3200)
I0803 14:46:11.123219 28176 net.cpp:156] Memory required for data: 2454805200
I0803 14:46:11.123225 28176 net.cpp:484] Sharing parameters 'fc2_w' owned by layer 'InnerProduct6', param index 0
I0803 14:46:11.123251 28176 net.cpp:484] Sharing parameters 'fc2_b' owned by layer 'InnerProduct6', param index 1
I0803 14:46:11.123258 28176 layer_factory.hpp:77] Creating layer ReLU64
I0803 14:46:11.123265 28176 net.cpp:91] Creating Layer ReLU64
I0803 14:46:11.123280 28176 net.cpp:425] ReLU64 <- InnerProduct96
I0803 14:46:11.123291 28176 net.cpp:386] ReLU64 -> InnerProduct96 (in-place)
I0803 14:46:11.123302 28176 net.cpp:141] Setting up ReLU64
I0803 14:46:11.123311 28176 net.cpp:148] Top shape: 100 32 (3200)
I0803 14:46:11.123317 28176 net.cpp:156] Memory required for data: 2454818000
I0803 14:46:11.123322 28176 layer_factory.hpp:77] Creating layer dt15
I0803 14:46:11.123332 28176 net.cpp:91] Creating Layer dt15
I0803 14:46:11.123337 28176 net.cpp:425] dt15 <- InnerProduct96
I0803 14:46:11.123350 28176 net.cpp:399] dt15 -> dt15
I0803 14:46:11.123508 28176 net.cpp:141] Setting up dt15
I0803 14:46:11.123517 28176 net.cpp:148] Top shape: 100 1 (100)
I0803 14:46:11.123522 28176 net.cpp:156] Memory required for data: 2454818400
I0803 14:46:11.123528 28176 net.cpp:484] Sharing parameters 'fc3_w' owned by layer 'dt0', param index 0
I0803 14:46:11.123535 28176 net.cpp:484] Sharing parameters 'fc3_b' owned by layer 'dt0', param index 1
I0803 14:46:11.123543 28176 layer_factory.hpp:77] Creating layer Convolution65
I0803 14:46:11.123555 28176 net.cpp:91] Creating Layer Convolution65
I0803 14:46:11.123563 28176 net.cpp:425] Convolution65 <- p2_p2_0_split_7
I0803 14:46:11.123574 28176 net.cpp:399] Convolution65 -> Convolution65
I0803 14:46:11.123957 28176 net.cpp:141] Setting up Convolution65
I0803 14:46:11.123968 28176 net.cpp:148] Top shape: 100 20 60 60 (7200000)
I0803 14:46:11.123973 28176 net.cpp:156] Memory required for data: 2483618400
I0803 14:46:11.123980 28176 net.cpp:484] Sharing parameters 'conv1_w' owned by layer 'Convolution1', param index 0
I0803 14:46:11.123988 28176 net.cpp:484] Sharing parameters 'conv1_b' owned by layer 'Convolution1', param index 1
I0803 14:46:11.123994 28176 layer_factory.hpp:77] Creating layer Pooling65
I0803 14:46:11.124003 28176 net.cpp:91] Creating Layer Pooling65
I0803 14:46:11.124009 28176 net.cpp:425] Pooling65 <- Convolution65
I0803 14:46:11.124018 28176 net.cpp:399] Pooling65 -> Pooling65
I0803 14:46:11.124074 28176 net.cpp:141] Setting up Pooling65
I0803 14:46:11.124083 28176 net.cpp:148] Top shape: 100 20 30 30 (1800000)
I0803 14:46:11.124088 28176 net.cpp:156] Memory required for data: 2490818400
I0803 14:46:11.124092 28176 layer_factory.hpp:77] Creating layer Convolution66
I0803 14:46:11.124106 28176 net.cpp:91] Creating Layer Convolution66
I0803 14:46:11.124112 28176 net.cpp:425] Convolution66 <- Pooling65
I0803 14:46:11.124125 28176 net.cpp:399] Convolution66 -> Convolution66
I0803 14:46:11.124691 28176 net.cpp:141] Setting up Convolution66
I0803 14:46:11.124698 28176 net.cpp:148] Top shape: 100 50 26 26 (3380000)
I0803 14:46:11.124704 28176 net.cpp:156] Memory required for data: 2504338400
I0803 14:46:11.124711 28176 net.cpp:484] Sharing parameters 'conv2_w' owned by layer 'Convolution2', param index 0
I0803 14:46:11.124717 28176 net.cpp:484] Sharing parameters 'conv2_b' owned by layer 'Convolution2', param index 1
I0803 14:46:11.124723 28176 layer_factory.hpp:77] Creating layer Pooling66
I0803 14:46:11.124732 28176 net.cpp:91] Creating Layer Pooling66
I0803 14:46:11.124737 28176 net.cpp:425] Pooling66 <- Convolution66
I0803 14:46:11.124748 28176 net.cpp:399] Pooling66 -> Pooling66
I0803 14:46:11.124799 28176 net.cpp:141] Setting up Pooling66
I0803 14:46:11.124809 28176 net.cpp:148] Top shape: 100 50 13 13 (845000)
I0803 14:46:11.124814 28176 net.cpp:156] Memory required for data: 2507718400
I0803 14:46:11.124819 28176 layer_factory.hpp:77] Creating layer InnerProduct97
I0803 14:46:11.124828 28176 net.cpp:91] Creating Layer InnerProduct97
I0803 14:46:11.124835 28176 net.cpp:425] InnerProduct97 <- Pooling66
I0803 14:46:11.124846 28176 net.cpp:399] InnerProduct97 -> InnerProduct97
I0803 14:46:11.133570 28176 net.cpp:141] Setting up InnerProduct97
I0803 14:46:11.133613 28176 net.cpp:148] Top shape: 100 100 (10000)
I0803 14:46:11.133620 28176 net.cpp:156] Memory required for data: 2507758400
I0803 14:46:11.133630 28176 net.cpp:484] Sharing parameters 'ip1_w' owned by layer 'InnerProduct1', param index 0
I0803 14:46:11.133638 28176 net.cpp:484] Sharing parameters 'ip1_b' owned by layer 'InnerProduct1', param index 1
I0803 14:46:11.133646 28176 layer_factory.hpp:77] Creating layer ReLU65
I0803 14:46:11.133656 28176 net.cpp:91] Creating Layer ReLU65
I0803 14:46:11.133666 28176 net.cpp:425] ReLU65 <- InnerProduct97
I0803 14:46:11.133676 28176 net.cpp:386] ReLU65 -> InnerProduct97 (in-place)
I0803 14:46:11.133690 28176 net.cpp:141] Setting up ReLU65
I0803 14:46:11.133698 28176 net.cpp:148] Top shape: 100 100 (10000)
I0803 14:46:11.133703 28176 net.cpp:156] Memory required for data: 2507798400
I0803 14:46:11.133709 28176 layer_factory.hpp:77] Creating layer InnerProduct98
I0803 14:46:11.133720 28176 net.cpp:91] Creating Layer InnerProduct98
I0803 14:46:11.133726 28176 net.cpp:425] InnerProduct98 <- InnerProduct97
I0803 14:46:11.133736 28176 net.cpp:399] InnerProduct98 -> InnerProduct98
I0803 14:46:11.133934 28176 net.cpp:141] Setting up InnerProduct98
I0803 14:46:11.133942 28176 net.cpp:148] Top shape: 100 50 (5000)
I0803 14:46:11.133947 28176 net.cpp:156] Memory required for data: 2507818400
I0803 14:46:11.133955 28176 net.cpp:484] Sharing parameters 'ip2_w' owned by layer 'InnerProduct2', param index 0
I0803 14:46:11.133961 28176 net.cpp:484] Sharing parameters 'ip2_b' owned by layer 'InnerProduct2', param index 1
I0803 14:46:11.133967 28176 layer_factory.hpp:77] Creating layer Convolution67
I0803 14:46:11.133983 28176 net.cpp:91] Creating Layer Convolution67
I0803 14:46:11.133990 28176 net.cpp:425] Convolution67 <- c17
I0803 14:46:11.134001 28176 net.cpp:399] Convolution67 -> Convolution67
I0803 14:46:11.134395 28176 net.cpp:141] Setting up Convolution67
I0803 14:46:11.134403 28176 net.cpp:148] Top shape: 100 20 60 60 (7200000)
I0803 14:46:11.134408 28176 net.cpp:156] Memory required for data: 2536618400
I0803 14:46:11.134415 28176 net.cpp:484] Sharing parameters 'conv1_w' owned by layer 'Convolution1', param index 0
I0803 14:46:11.134423 28176 net.cpp:484] Sharing parameters 'conv1_b' owned by layer 'Convolution1', param index 1
I0803 14:46:11.134428 28176 layer_factory.hpp:77] Creating layer Pooling67
I0803 14:46:11.134439 28176 net.cpp:91] Creating Layer Pooling67
I0803 14:46:11.134445 28176 net.cpp:425] Pooling67 <- Convolution67
I0803 14:46:11.134454 28176 net.cpp:399] Pooling67 -> Pooling67
I0803 14:46:11.134511 28176 net.cpp:141] Setting up Pooling67
I0803 14:46:11.134519 28176 net.cpp:148] Top shape: 100 20 30 30 (1800000)
I0803 14:46:11.134524 28176 net.cpp:156] Memory required for data: 2543818400
I0803 14:46:11.134531 28176 layer_factory.hpp:77] Creating layer Convolution68
I0803 14:46:11.134543 28176 net.cpp:91] Creating Layer Convolution68
I0803 14:46:11.134549 28176 net.cpp:425] Convolution68 <- Pooling67
I0803 14:46:11.134559 28176 net.cpp:399] Convolution68 -> Convolution68
I0803 14:46:11.135123 28176 net.cpp:141] Setting up Convolution68
I0803 14:46:11.135130 28176 net.cpp:148] Top shape: 100 50 26 26 (3380000)
I0803 14:46:11.135136 28176 net.cpp:156] Memory required for data: 2557338400
I0803 14:46:11.135143 28176 net.cpp:484] Sharing parameters 'conv2_w' owned by layer 'Convolution2', param index 0
I0803 14:46:11.135149 28176 net.cpp:484] Sharing parameters 'conv2_b' owned by layer 'Convolution2', param index 1
I0803 14:46:11.135155 28176 layer_factory.hpp:77] Creating layer Pooling68
I0803 14:46:11.135166 28176 net.cpp:91] Creating Layer Pooling68
I0803 14:46:11.135174 28176 net.cpp:425] Pooling68 <- Convolution68
I0803 14:46:11.135181 28176 net.cpp:399] Pooling68 -> Pooling68
I0803 14:46:11.135236 28176 net.cpp:141] Setting up Pooling68
I0803 14:46:11.135243 28176 net.cpp:148] Top shape: 100 50 13 13 (845000)
I0803 14:46:11.135248 28176 net.cpp:156] Memory required for data: 2560718400
I0803 14:46:11.135254 28176 layer_factory.hpp:77] Creating layer InnerProduct99
I0803 14:46:11.135287 28176 net.cpp:91] Creating Layer InnerProduct99
I0803 14:46:11.135295 28176 net.cpp:425] InnerProduct99 <- Pooling68
I0803 14:46:11.135308 28176 net.cpp:399] InnerProduct99 -> InnerProduct99
I0803 14:46:11.144057 28176 net.cpp:141] Setting up InnerProduct99
I0803 14:46:11.144085 28176 net.cpp:148] Top shape: 100 100 (10000)
I0803 14:46:11.144093 28176 net.cpp:156] Memory required for data: 2560758400
I0803 14:46:11.144104 28176 net.cpp:484] Sharing parameters 'ip1_w' owned by layer 'InnerProduct1', param index 0
I0803 14:46:11.144112 28176 net.cpp:484] Sharing parameters 'ip1_b' owned by layer 'InnerProduct1', param index 1
I0803 14:46:11.144119 28176 layer_factory.hpp:77] Creating layer ReLU66
I0803 14:46:11.144131 28176 net.cpp:91] Creating Layer ReLU66
I0803 14:46:11.144141 28176 net.cpp:425] ReLU66 <- InnerProduct99
I0803 14:46:11.144155 28176 net.cpp:386] ReLU66 -> InnerProduct99 (in-place)
I0803 14:46:11.144168 28176 net.cpp:141] Setting up ReLU66
I0803 14:46:11.144176 28176 net.cpp:148] Top shape: 100 100 (10000)
I0803 14:46:11.144181 28176 net.cpp:156] Memory required for data: 2560798400
I0803 14:46:11.144186 28176 layer_factory.hpp:77] Creating layer InnerProduct100
I0803 14:46:11.144197 28176 net.cpp:91] Creating Layer InnerProduct100
I0803 14:46:11.144203 28176 net.cpp:425] InnerProduct100 <- InnerProduct99
I0803 14:46:11.144222 28176 net.cpp:399] InnerProduct100 -> InnerProduct100
I0803 14:46:11.145095 28176 net.cpp:141] Setting up InnerProduct100
I0803 14:46:11.145107 28176 net.cpp:148] Top shape: 100 50 (5000)
I0803 14:46:11.145113 28176 net.cpp:156] Memory required for data: 2560818400
I0803 14:46:11.145120 28176 net.cpp:484] Sharing parameters 'ip2_w' owned by layer 'InnerProduct2', param index 0
I0803 14:46:11.145128 28176 net.cpp:484] Sharing parameters 'ip2_b' owned by layer 'InnerProduct2', param index 1
I0803 14:46:11.145134 28176 layer_factory.hpp:77] Creating layer Concat17
I0803 14:46:11.145148 28176 net.cpp:91] Creating Layer Concat17
I0803 14:46:11.145154 28176 net.cpp:425] Concat17 <- InnerProduct98
I0803 14:46:11.145162 28176 net.cpp:425] Concat17 <- InnerProduct100
I0803 14:46:11.145172 28176 net.cpp:399] Concat17 -> Concat17
I0803 14:46:11.145206 28176 net.cpp:141] Setting up Concat17
I0803 14:46:11.145213 28176 net.cpp:148] Top shape: 100 100 (10000)
I0803 14:46:11.145220 28176 net.cpp:156] Memory required for data: 2560858400
I0803 14:46:11.145225 28176 layer_factory.hpp:77] Creating layer InnerProduct101
I0803 14:46:11.145234 28176 net.cpp:91] Creating Layer InnerProduct101
I0803 14:46:11.145242 28176 net.cpp:425] InnerProduct101 <- Concat17
I0803 14:46:11.145252 28176 net.cpp:399] InnerProduct101 -> InnerProduct101
I0803 14:46:11.145448 28176 net.cpp:141] Setting up InnerProduct101
I0803 14:46:11.145457 28176 net.cpp:148] Top shape: 100 64 (6400)
I0803 14:46:11.145462 28176 net.cpp:156] Memory required for data: 2560884000
I0803 14:46:11.145468 28176 net.cpp:484] Sharing parameters 'fc1_w' owned by layer 'InnerProduct5', param index 0
I0803 14:46:11.145476 28176 net.cpp:484] Sharing parameters 'fc1_b' owned by layer 'InnerProduct5', param index 1
I0803 14:46:11.145483 28176 layer_factory.hpp:77] Creating layer ReLU67
I0803 14:46:11.145490 28176 net.cpp:91] Creating Layer ReLU67
I0803 14:46:11.145496 28176 net.cpp:425] ReLU67 <- InnerProduct101
I0803 14:46:11.145506 28176 net.cpp:386] ReLU67 -> InnerProduct101 (in-place)
I0803 14:46:11.145516 28176 net.cpp:141] Setting up ReLU67
I0803 14:46:11.145524 28176 net.cpp:148] Top shape: 100 64 (6400)
I0803 14:46:11.145529 28176 net.cpp:156] Memory required for data: 2560909600
I0803 14:46:11.145534 28176 layer_factory.hpp:77] Creating layer InnerProduct102
I0803 14:46:11.145544 28176 net.cpp:91] Creating Layer InnerProduct102
I0803 14:46:11.145550 28176 net.cpp:425] InnerProduct102 <- InnerProduct101
I0803 14:46:11.145560 28176 net.cpp:399] InnerProduct102 -> InnerProduct102
I0803 14:46:11.145716 28176 net.cpp:141] Setting up InnerProduct102
I0803 14:46:11.145725 28176 net.cpp:148] Top shape: 100 32 (3200)
I0803 14:46:11.145747 28176 net.cpp:156] Memory required for data: 2560922400
I0803 14:46:11.145755 28176 net.cpp:484] Sharing parameters 'fc2_w' owned by layer 'InnerProduct6', param index 0
I0803 14:46:11.145761 28176 net.cpp:484] Sharing parameters 'fc2_b' owned by layer 'InnerProduct6', param index 1
I0803 14:46:11.145767 28176 layer_factory.hpp:77] Creating layer ReLU68
I0803 14:46:11.145776 28176 net.cpp:91] Creating Layer ReLU68
I0803 14:46:11.145781 28176 net.cpp:425] ReLU68 <- InnerProduct102
I0803 14:46:11.145789 28176 net.cpp:386] ReLU68 -> InnerProduct102 (in-place)
I0803 14:46:11.145798 28176 net.cpp:141] Setting up ReLU68
I0803 14:46:11.145804 28176 net.cpp:148] Top shape: 100 32 (3200)
I0803 14:46:11.145810 28176 net.cpp:156] Memory required for data: 2560935200
I0803 14:46:11.145815 28176 layer_factory.hpp:77] Creating layer dt16
I0803 14:46:11.145828 28176 net.cpp:91] Creating Layer dt16
I0803 14:46:11.145833 28176 net.cpp:425] dt16 <- InnerProduct102
I0803 14:46:11.145845 28176 net.cpp:399] dt16 -> dt16
I0803 14:46:11.145987 28176 net.cpp:141] Setting up dt16
I0803 14:46:11.145995 28176 net.cpp:148] Top shape: 100 1 (100)
I0803 14:46:11.146001 28176 net.cpp:156] Memory required for data: 2560935600
I0803 14:46:11.146008 28176 net.cpp:484] Sharing parameters 'fc3_w' owned by layer 'dt0', param index 0
I0803 14:46:11.146015 28176 net.cpp:484] Sharing parameters 'fc3_b' owned by layer 'dt0', param index 1
I0803 14:46:11.146020 28176 layer_factory.hpp:77] Creating layer Convolution69
I0803 14:46:11.146034 28176 net.cpp:91] Creating Layer Convolution69
I0803 14:46:11.146040 28176 net.cpp:425] Convolution69 <- p2_p2_0_split_8
I0803 14:46:11.146054 28176 net.cpp:399] Convolution69 -> Convolution69
I0803 14:46:11.146392 28176 net.cpp:141] Setting up Convolution69
I0803 14:46:11.146399 28176 net.cpp:148] Top shape: 100 20 60 60 (7200000)
I0803 14:46:11.146405 28176 net.cpp:156] Memory required for data: 2589735600
I0803 14:46:11.146411 28176 net.cpp:484] Sharing parameters 'conv1_w' owned by layer 'Convolution1', param index 0
I0803 14:46:11.146419 28176 net.cpp:484] Sharing parameters 'conv1_b' owned by layer 'Convolution1', param index 1
I0803 14:46:11.146425 28176 layer_factory.hpp:77] Creating layer Pooling69
I0803 14:46:11.146433 28176 net.cpp:91] Creating Layer Pooling69
I0803 14:46:11.146440 28176 net.cpp:425] Pooling69 <- Convolution69
I0803 14:46:11.146451 28176 net.cpp:399] Pooling69 -> Pooling69
I0803 14:46:11.146498 28176 net.cpp:141] Setting up Pooling69
I0803 14:46:11.146505 28176 net.cpp:148] Top shape: 100 20 30 30 (1800000)
I0803 14:46:11.146510 28176 net.cpp:156] Memory required for data: 2596935600
I0803 14:46:11.146517 28176 layer_factory.hpp:77] Creating layer Convolution70
I0803 14:46:11.146533 28176 net.cpp:91] Creating Layer Convolution70
I0803 14:46:11.146539 28176 net.cpp:425] Convolution70 <- Pooling69
I0803 14:46:11.146549 28176 net.cpp:399] Convolution70 -> Convolution70
I0803 14:46:11.147102 28176 net.cpp:141] Setting up Convolution70
I0803 14:46:11.147112 28176 net.cpp:148] Top shape: 100 50 26 26 (3380000)
I0803 14:46:11.147119 28176 net.cpp:156] Memory required for data: 2610455600
I0803 14:46:11.147126 28176 net.cpp:484] Sharing parameters 'conv2_w' owned by layer 'Convolution2', param index 0
I0803 14:46:11.147135 28176 net.cpp:484] Sharing parameters 'conv2_b' owned by layer 'Convolution2', param index 1
I0803 14:46:11.147142 28176 layer_factory.hpp:77] Creating layer Pooling70
I0803 14:46:11.147153 28176 net.cpp:91] Creating Layer Pooling70
I0803 14:46:11.147161 28176 net.cpp:425] Pooling70 <- Convolution70
I0803 14:46:11.147171 28176 net.cpp:399] Pooling70 -> Pooling70
I0803 14:46:11.147227 28176 net.cpp:141] Setting up Pooling70
I0803 14:46:11.147236 28176 net.cpp:148] Top shape: 100 50 13 13 (845000)
I0803 14:46:11.147243 28176 net.cpp:156] Memory required for data: 2613835600
I0803 14:46:11.147249 28176 layer_factory.hpp:77] Creating layer InnerProduct103
I0803 14:46:11.147264 28176 net.cpp:91] Creating Layer InnerProduct103
I0803 14:46:11.147289 28176 net.cpp:425] InnerProduct103 <- Pooling70
I0803 14:46:11.147302 28176 net.cpp:399] InnerProduct103 -> InnerProduct103
I0803 14:46:11.155882 28176 net.cpp:141] Setting up InnerProduct103
I0803 14:46:11.155905 28176 net.cpp:148] Top shape: 100 100 (10000)
I0803 14:46:11.155910 28176 net.cpp:156] Memory required for data: 2613875600
I0803 14:46:11.155921 28176 net.cpp:484] Sharing parameters 'ip1_w' owned by layer 'InnerProduct1', param index 0
I0803 14:46:11.155930 28176 net.cpp:484] Sharing parameters 'ip1_b' owned by layer 'InnerProduct1', param index 1
I0803 14:46:11.155936 28176 layer_factory.hpp:77] Creating layer ReLU69
I0803 14:46:11.155948 28176 net.cpp:91] Creating Layer ReLU69
I0803 14:46:11.155956 28176 net.cpp:425] ReLU69 <- InnerProduct103
I0803 14:46:11.155968 28176 net.cpp:386] ReLU69 -> InnerProduct103 (in-place)
I0803 14:46:11.155982 28176 net.cpp:141] Setting up ReLU69
I0803 14:46:11.155988 28176 net.cpp:148] Top shape: 100 100 (10000)
I0803 14:46:11.155994 28176 net.cpp:156] Memory required for data: 2613915600
I0803 14:46:11.155999 28176 layer_factory.hpp:77] Creating layer InnerProduct104
I0803 14:46:11.156011 28176 net.cpp:91] Creating Layer InnerProduct104
I0803 14:46:11.156018 28176 net.cpp:425] InnerProduct104 <- InnerProduct103
I0803 14:46:11.156029 28176 net.cpp:399] InnerProduct104 -> InnerProduct104
I0803 14:46:11.156209 28176 net.cpp:141] Setting up InnerProduct104
I0803 14:46:11.156218 28176 net.cpp:148] Top shape: 100 50 (5000)
I0803 14:46:11.156224 28176 net.cpp:156] Memory required for data: 2613935600
I0803 14:46:11.156229 28176 net.cpp:484] Sharing parameters 'ip2_w' owned by layer 'InnerProduct2', param index 0
I0803 14:46:11.156236 28176 net.cpp:484] Sharing parameters 'ip2_b' owned by layer 'InnerProduct2', param index 1
I0803 14:46:11.156242 28176 layer_factory.hpp:77] Creating layer Convolution71
I0803 14:46:11.156255 28176 net.cpp:91] Creating Layer Convolution71
I0803 14:46:11.156262 28176 net.cpp:425] Convolution71 <- c18
I0803 14:46:11.156276 28176 net.cpp:399] Convolution71 -> Convolution71
I0803 14:46:11.156641 28176 net.cpp:141] Setting up Convolution71
I0803 14:46:11.156648 28176 net.cpp:148] Top shape: 100 20 60 60 (7200000)
I0803 14:46:11.156654 28176 net.cpp:156] Memory required for data: 2642735600
I0803 14:46:11.156661 28176 net.cpp:484] Sharing parameters 'conv1_w' owned by layer 'Convolution1', param index 0
I0803 14:46:11.156667 28176 net.cpp:484] Sharing parameters 'conv1_b' owned by layer 'Convolution1', param index 1
I0803 14:46:11.156673 28176 layer_factory.hpp:77] Creating layer Pooling71
I0803 14:46:11.156685 28176 net.cpp:91] Creating Layer Pooling71
I0803 14:46:11.156692 28176 net.cpp:425] Pooling71 <- Convolution71
I0803 14:46:11.156702 28176 net.cpp:399] Pooling71 -> Pooling71
I0803 14:46:11.156754 28176 net.cpp:141] Setting up Pooling71
I0803 14:46:11.156761 28176 net.cpp:148] Top shape: 100 20 30 30 (1800000)
I0803 14:46:11.156766 28176 net.cpp:156] Memory required for data: 2649935600
I0803 14:46:11.156772 28176 layer_factory.hpp:77] Creating layer Convolution72
I0803 14:46:11.156785 28176 net.cpp:91] Creating Layer Convolution72
I0803 14:46:11.156792 28176 net.cpp:425] Convolution72 <- Pooling71
I0803 14:46:11.156801 28176 net.cpp:399] Convolution72 -> Convolution72
I0803 14:46:11.157326 28176 net.cpp:141] Setting up Convolution72
I0803 14:46:11.157335 28176 net.cpp:148] Top shape: 100 50 26 26 (3380000)
I0803 14:46:11.157340 28176 net.cpp:156] Memory required for data: 2663455600
I0803 14:46:11.157346 28176 net.cpp:484] Sharing parameters 'conv2_w' owned by layer 'Convolution2', param index 0
I0803 14:46:11.157352 28176 net.cpp:484] Sharing parameters 'conv2_b' owned by layer 'Convolution2', param index 1
I0803 14:46:11.157358 28176 layer_factory.hpp:77] Creating layer Pooling72
I0803 14:46:11.157366 28176 net.cpp:91] Creating Layer Pooling72
I0803 14:46:11.157372 28176 net.cpp:425] Pooling72 <- Convolution72
I0803 14:46:11.157382 28176 net.cpp:399] Pooling72 -> Pooling72
I0803 14:46:11.157429 28176 net.cpp:141] Setting up Pooling72
I0803 14:46:11.157457 28176 net.cpp:148] Top shape: 100 50 13 13 (845000)
I0803 14:46:11.157464 28176 net.cpp:156] Memory required for data: 2666835600
I0803 14:46:11.157469 28176 layer_factory.hpp:77] Creating layer InnerProduct105
I0803 14:46:11.157480 28176 net.cpp:91] Creating Layer InnerProduct105
I0803 14:46:11.157486 28176 net.cpp:425] InnerProduct105 <- Pooling72
I0803 14:46:11.157497 28176 net.cpp:399] InnerProduct105 -> InnerProduct105
I0803 14:46:11.165889 28176 net.cpp:141] Setting up InnerProduct105
I0803 14:46:11.165910 28176 net.cpp:148] Top shape: 100 100 (10000)
I0803 14:46:11.165915 28176 net.cpp:156] Memory required for data: 2666875600
I0803 14:46:11.165925 28176 net.cpp:484] Sharing parameters 'ip1_w' owned by layer 'InnerProduct1', param index 0
I0803 14:46:11.165932 28176 net.cpp:484] Sharing parameters 'ip1_b' owned by layer 'InnerProduct1', param index 1
I0803 14:46:11.165938 28176 layer_factory.hpp:77] Creating layer ReLU70
I0803 14:46:11.165949 28176 net.cpp:91] Creating Layer ReLU70
I0803 14:46:11.165957 28176 net.cpp:425] ReLU70 <- InnerProduct105
I0803 14:46:11.165974 28176 net.cpp:386] ReLU70 -> InnerProduct105 (in-place)
I0803 14:46:11.165987 28176 net.cpp:141] Setting up ReLU70
I0803 14:46:11.165994 28176 net.cpp:148] Top shape: 100 100 (10000)
I0803 14:46:11.165999 28176 net.cpp:156] Memory required for data: 2666915600
I0803 14:46:11.166005 28176 layer_factory.hpp:77] Creating layer InnerProduct106
I0803 14:46:11.166015 28176 net.cpp:91] Creating Layer InnerProduct106
I0803 14:46:11.166021 28176 net.cpp:425] InnerProduct106 <- InnerProduct105
I0803 14:46:11.166033 28176 net.cpp:399] InnerProduct106 -> InnerProduct106
I0803 14:46:11.166219 28176 net.cpp:141] Setting up InnerProduct106
I0803 14:46:11.166227 28176 net.cpp:148] Top shape: 100 50 (5000)
I0803 14:46:11.166232 28176 net.cpp:156] Memory required for data: 2666935600
I0803 14:46:11.166239 28176 net.cpp:484] Sharing parameters 'ip2_w' owned by layer 'InnerProduct2', param index 0
I0803 14:46:11.166246 28176 net.cpp:484] Sharing parameters 'ip2_b' owned by layer 'InnerProduct2', param index 1
I0803 14:46:11.166252 28176 layer_factory.hpp:77] Creating layer Concat18
I0803 14:46:11.166261 28176 net.cpp:91] Creating Layer Concat18
I0803 14:46:11.166267 28176 net.cpp:425] Concat18 <- InnerProduct104
I0803 14:46:11.166275 28176 net.cpp:425] Concat18 <- InnerProduct106
I0803 14:46:11.166290 28176 net.cpp:399] Concat18 -> Concat18
I0803 14:46:11.166318 28176 net.cpp:141] Setting up Concat18
I0803 14:46:11.166328 28176 net.cpp:148] Top shape: 100 100 (10000)
I0803 14:46:11.166333 28176 net.cpp:156] Memory required for data: 2666975600
I0803 14:46:11.166339 28176 layer_factory.hpp:77] Creating layer InnerProduct107
I0803 14:46:11.166348 28176 net.cpp:91] Creating Layer InnerProduct107
I0803 14:46:11.166354 28176 net.cpp:425] InnerProduct107 <- Concat18
I0803 14:46:11.166366 28176 net.cpp:399] InnerProduct107 -> InnerProduct107
I0803 14:46:11.166553 28176 net.cpp:141] Setting up InnerProduct107
I0803 14:46:11.166561 28176 net.cpp:148] Top shape: 100 64 (6400)
I0803 14:46:11.166566 28176 net.cpp:156] Memory required for data: 2667001200
I0803 14:46:11.166573 28176 net.cpp:484] Sharing parameters 'fc1_w' owned by layer 'InnerProduct5', param index 0
I0803 14:46:11.166580 28176 net.cpp:484] Sharing parameters 'fc1_b' owned by layer 'InnerProduct5', param index 1
I0803 14:46:11.166586 28176 layer_factory.hpp:77] Creating layer ReLU71
I0803 14:46:11.166596 28176 net.cpp:91] Creating Layer ReLU71
I0803 14:46:11.166602 28176 net.cpp:425] ReLU71 <- InnerProduct107
I0803 14:46:11.166610 28176 net.cpp:386] ReLU71 -> InnerProduct107 (in-place)
I0803 14:46:11.166620 28176 net.cpp:141] Setting up ReLU71
I0803 14:46:11.166626 28176 net.cpp:148] Top shape: 100 64 (6400)
I0803 14:46:11.166631 28176 net.cpp:156] Memory required for data: 2667026800
I0803 14:46:11.166637 28176 layer_factory.hpp:77] Creating layer InnerProduct108
I0803 14:46:11.166648 28176 net.cpp:91] Creating Layer InnerProduct108
I0803 14:46:11.166654 28176 net.cpp:425] InnerProduct108 <- InnerProduct107
I0803 14:46:11.166683 28176 net.cpp:399] InnerProduct108 -> InnerProduct108
I0803 14:46:11.166853 28176 net.cpp:141] Setting up InnerProduct108
I0803 14:46:11.166862 28176 net.cpp:148] Top shape: 100 32 (3200)
I0803 14:46:11.166867 28176 net.cpp:156] Memory required for data: 2667039600
I0803 14:46:11.166873 28176 net.cpp:484] Sharing parameters 'fc2_w' owned by layer 'InnerProduct6', param index 0
I0803 14:46:11.166880 28176 net.cpp:484] Sharing parameters 'fc2_b' owned by layer 'InnerProduct6', param index 1
I0803 14:46:11.166887 28176 layer_factory.hpp:77] Creating layer ReLU72
I0803 14:46:11.166896 28176 net.cpp:91] Creating Layer ReLU72
I0803 14:46:11.166905 28176 net.cpp:425] ReLU72 <- InnerProduct108
I0803 14:46:11.166915 28176 net.cpp:386] ReLU72 -> InnerProduct108 (in-place)
I0803 14:46:11.166926 28176 net.cpp:141] Setting up ReLU72
I0803 14:46:11.166937 28176 net.cpp:148] Top shape: 100 32 (3200)
I0803 14:46:11.166944 28176 net.cpp:156] Memory required for data: 2667052400
I0803 14:46:11.166951 28176 layer_factory.hpp:77] Creating layer dt17
I0803 14:46:11.166965 28176 net.cpp:91] Creating Layer dt17
I0803 14:46:11.166972 28176 net.cpp:425] dt17 <- InnerProduct108
I0803 14:46:11.166985 28176 net.cpp:399] dt17 -> dt17
I0803 14:46:11.167155 28176 net.cpp:141] Setting up dt17
I0803 14:46:11.167165 28176 net.cpp:148] Top shape: 100 1 (100)
I0803 14:46:11.167173 28176 net.cpp:156] Memory required for data: 2667052800
I0803 14:46:11.167182 28176 net.cpp:484] Sharing parameters 'fc3_w' owned by layer 'dt0', param index 0
I0803 14:46:11.167191 28176 net.cpp:484] Sharing parameters 'fc3_b' owned by layer 'dt0', param index 1
I0803 14:46:11.167198 28176 layer_factory.hpp:77] Creating layer Convolution73
I0803 14:46:11.167217 28176 net.cpp:91] Creating Layer Convolution73
I0803 14:46:11.167225 28176 net.cpp:425] Convolution73 <- p2_p2_0_split_9
I0803 14:46:11.167243 28176 net.cpp:399] Convolution73 -> Convolution73
I0803 14:46:11.167748 28176 net.cpp:141] Setting up Convolution73
I0803 14:46:11.167764 28176 net.cpp:148] Top shape: 100 20 60 60 (7200000)
I0803 14:46:11.167771 28176 net.cpp:156] Memory required for data: 2695852800
I0803 14:46:11.167780 28176 net.cpp:484] Sharing parameters 'conv1_w' owned by layer 'Convolution1', param index 0
I0803 14:46:11.167789 28176 net.cpp:484] Sharing parameters 'conv1_b' owned by layer 'Convolution1', param index 1
I0803 14:46:11.167798 28176 layer_factory.hpp:77] Creating layer Pooling73
I0803 14:46:11.167809 28176 net.cpp:91] Creating Layer Pooling73
I0803 14:46:11.167816 28176 net.cpp:425] Pooling73 <- Convolution73
I0803 14:46:11.167831 28176 net.cpp:399] Pooling73 -> Pooling73
I0803 14:46:11.167896 28176 net.cpp:141] Setting up Pooling73
I0803 14:46:11.167906 28176 net.cpp:148] Top shape: 100 20 30 30 (1800000)
I0803 14:46:11.167913 28176 net.cpp:156] Memory required for data: 2703052800
I0803 14:46:11.167919 28176 layer_factory.hpp:77] Creating layer Convolution74
I0803 14:46:11.167937 28176 net.cpp:91] Creating Layer Convolution74
I0803 14:46:11.167944 28176 net.cpp:425] Convolution74 <- Pooling73
I0803 14:46:11.167959 28176 net.cpp:399] Convolution74 -> Convolution74
I0803 14:46:11.168572 28176 net.cpp:141] Setting up Convolution74
I0803 14:46:11.168583 28176 net.cpp:148] Top shape: 100 50 26 26 (3380000)
I0803 14:46:11.168589 28176 net.cpp:156] Memory required for data: 2716572800
I0803 14:46:11.168597 28176 net.cpp:484] Sharing parameters 'conv2_w' owned by layer 'Convolution2', param index 0
I0803 14:46:11.168606 28176 net.cpp:484] Sharing parameters 'conv2_b' owned by layer 'Convolution2', param index 1
I0803 14:46:11.168613 28176 layer_factory.hpp:77] Creating layer Pooling74
I0803 14:46:11.168623 28176 net.cpp:91] Creating Layer Pooling74
I0803 14:46:11.168630 28176 net.cpp:425] Pooling74 <- Convolution74
I0803 14:46:11.168645 28176 net.cpp:399] Pooling74 -> Pooling74
I0803 14:46:11.168702 28176 net.cpp:141] Setting up Pooling74
I0803 14:46:11.168712 28176 net.cpp:148] Top shape: 100 50 13 13 (845000)
I0803 14:46:11.168718 28176 net.cpp:156] Memory required for data: 2719952800
I0803 14:46:11.168741 28176 layer_factory.hpp:77] Creating layer InnerProduct109
I0803 14:46:11.168757 28176 net.cpp:91] Creating Layer InnerProduct109
I0803 14:46:11.168764 28176 net.cpp:425] InnerProduct109 <- Pooling74
I0803 14:46:11.168779 28176 net.cpp:399] InnerProduct109 -> InnerProduct109
I0803 14:46:11.177758 28176 net.cpp:141] Setting up InnerProduct109
I0803 14:46:11.177788 28176 net.cpp:148] Top shape: 100 100 (10000)
I0803 14:46:11.177796 28176 net.cpp:156] Memory required for data: 2719992800
I0803 14:46:11.177809 28176 net.cpp:484] Sharing parameters 'ip1_w' owned by layer 'InnerProduct1', param index 0
I0803 14:46:11.177819 28176 net.cpp:484] Sharing parameters 'ip1_b' owned by layer 'InnerProduct1', param index 1
I0803 14:46:11.177827 28176 layer_factory.hpp:77] Creating layer ReLU73
I0803 14:46:11.177845 28176 net.cpp:91] Creating Layer ReLU73
I0803 14:46:11.177855 28176 net.cpp:425] ReLU73 <- InnerProduct109
I0803 14:46:11.177868 28176 net.cpp:386] ReLU73 -> InnerProduct109 (in-place)
I0803 14:46:11.177883 28176 net.cpp:141] Setting up ReLU73
I0803 14:46:11.177893 28176 net.cpp:148] Top shape: 100 100 (10000)
I0803 14:46:11.177899 28176 net.cpp:156] Memory required for data: 2720032800
I0803 14:46:11.177906 28176 layer_factory.hpp:77] Creating layer InnerProduct110
I0803 14:46:11.177922 28176 net.cpp:91] Creating Layer InnerProduct110
I0803 14:46:11.177929 28176 net.cpp:425] InnerProduct110 <- InnerProduct109
I0803 14:46:11.177940 28176 net.cpp:399] InnerProduct110 -> InnerProduct110
I0803 14:46:11.184115 28176 net.cpp:141] Setting up InnerProduct110
I0803 14:46:11.184132 28176 net.cpp:148] Top shape: 100 50 (5000)
I0803 14:46:11.184139 28176 net.cpp:156] Memory required for data: 2720052800
I0803 14:46:11.184149 28176 net.cpp:484] Sharing parameters 'ip2_w' owned by layer 'InnerProduct2', param index 0
I0803 14:46:11.184157 28176 net.cpp:484] Sharing parameters 'ip2_b' owned by layer 'InnerProduct2', param index 1
I0803 14:46:11.184165 28176 layer_factory.hpp:77] Creating layer Convolution75
I0803 14:46:11.184185 28176 net.cpp:91] Creating Layer Convolution75
I0803 14:46:11.184193 28176 net.cpp:425] Convolution75 <- c19
I0803 14:46:11.184209 28176 net.cpp:399] Convolution75 -> Convolution75
I0803 14:46:11.184639 28176 net.cpp:141] Setting up Convolution75
I0803 14:46:11.184649 28176 net.cpp:148] Top shape: 100 20 60 60 (7200000)
I0803 14:46:11.184656 28176 net.cpp:156] Memory required for data: 2748852800
I0803 14:46:11.184664 28176 net.cpp:484] Sharing parameters 'conv1_w' owned by layer 'Convolution1', param index 0
I0803 14:46:11.184671 28176 net.cpp:484] Sharing parameters 'conv1_b' owned by layer 'Convolution1', param index 1
I0803 14:46:11.184679 28176 layer_factory.hpp:77] Creating layer Pooling75
I0803 14:46:11.184689 28176 net.cpp:91] Creating Layer Pooling75
I0803 14:46:11.184696 28176 net.cpp:425] Pooling75 <- Convolution75
I0803 14:46:11.184711 28176 net.cpp:399] Pooling75 -> Pooling75
I0803 14:46:11.184767 28176 net.cpp:141] Setting up Pooling75
I0803 14:46:11.184779 28176 net.cpp:148] Top shape: 100 20 30 30 (1800000)
I0803 14:46:11.184785 28176 net.cpp:156] Memory required for data: 2756052800
I0803 14:46:11.184792 28176 layer_factory.hpp:77] Creating layer Convolution76
I0803 14:46:11.184804 28176 net.cpp:91] Creating Layer Convolution76
I0803 14:46:11.184811 28176 net.cpp:425] Convolution76 <- Pooling75
I0803 14:46:11.184825 28176 net.cpp:399] Convolution76 -> Convolution76
I0803 14:46:11.185425 28176 net.cpp:141] Setting up Convolution76
I0803 14:46:11.185436 28176 net.cpp:148] Top shape: 100 50 26 26 (3380000)
I0803 14:46:11.185441 28176 net.cpp:156] Memory required for data: 2769572800
I0803 14:46:11.185448 28176 net.cpp:484] Sharing parameters 'conv2_w' owned by layer 'Convolution2', param index 0
I0803 14:46:11.185456 28176 net.cpp:484] Sharing parameters 'conv2_b' owned by layer 'Convolution2', param index 1
I0803 14:46:11.185463 28176 layer_factory.hpp:77] Creating layer Pooling76
I0803 14:46:11.185477 28176 net.cpp:91] Creating Layer Pooling76
I0803 14:46:11.185508 28176 net.cpp:425] Pooling76 <- Convolution76
I0803 14:46:11.185518 28176 net.cpp:399] Pooling76 -> Pooling76
I0803 14:46:11.185576 28176 net.cpp:141] Setting up Pooling76
I0803 14:46:11.185585 28176 net.cpp:148] Top shape: 100 50 13 13 (845000)
I0803 14:46:11.185591 28176 net.cpp:156] Memory required for data: 2772952800
I0803 14:46:11.185598 28176 layer_factory.hpp:77] Creating layer InnerProduct111
I0803 14:46:11.185612 28176 net.cpp:91] Creating Layer InnerProduct111
I0803 14:46:11.185618 28176 net.cpp:425] InnerProduct111 <- Pooling76
I0803 14:46:11.185631 28176 net.cpp:399] InnerProduct111 -> InnerProduct111
I0803 14:46:11.194723 28176 net.cpp:141] Setting up InnerProduct111
I0803 14:46:11.194754 28176 net.cpp:148] Top shape: 100 100 (10000)
I0803 14:46:11.194761 28176 net.cpp:156] Memory required for data: 2772992800
I0803 14:46:11.194773 28176 net.cpp:484] Sharing parameters 'ip1_w' owned by layer 'InnerProduct1', param index 0
I0803 14:46:11.194783 28176 net.cpp:484] Sharing parameters 'ip1_b' owned by layer 'InnerProduct1', param index 1
I0803 14:46:11.194790 28176 layer_factory.hpp:77] Creating layer ReLU74
I0803 14:46:11.194814 28176 net.cpp:91] Creating Layer ReLU74
I0803 14:46:11.194824 28176 net.cpp:425] ReLU74 <- InnerProduct111
I0803 14:46:11.194836 28176 net.cpp:386] ReLU74 -> InnerProduct111 (in-place)
I0803 14:46:11.194851 28176 net.cpp:141] Setting up ReLU74
I0803 14:46:11.194860 28176 net.cpp:148] Top shape: 100 100 (10000)
I0803 14:46:11.194866 28176 net.cpp:156] Memory required for data: 2773032800
I0803 14:46:11.194872 28176 layer_factory.hpp:77] Creating layer InnerProduct112
I0803 14:46:11.194886 28176 net.cpp:91] Creating Layer InnerProduct112
I0803 14:46:11.194893 28176 net.cpp:425] InnerProduct112 <- InnerProduct111
I0803 14:46:11.194905 28176 net.cpp:399] InnerProduct112 -> InnerProduct112
I0803 14:46:11.195137 28176 net.cpp:141] Setting up InnerProduct112
I0803 14:46:11.195145 28176 net.cpp:148] Top shape: 100 50 (5000)
I0803 14:46:11.195152 28176 net.cpp:156] Memory required for data: 2773052800
I0803 14:46:11.195158 28176 net.cpp:484] Sharing parameters 'ip2_w' owned by layer 'InnerProduct2', param index 0
I0803 14:46:11.195166 28176 net.cpp:484] Sharing parameters 'ip2_b' owned by layer 'InnerProduct2', param index 1
I0803 14:46:11.195173 28176 layer_factory.hpp:77] Creating layer Concat19
I0803 14:46:11.195184 28176 net.cpp:91] Creating Layer Concat19
I0803 14:46:11.195191 28176 net.cpp:425] Concat19 <- InnerProduct110
I0803 14:46:11.195199 28176 net.cpp:425] Concat19 <- InnerProduct112
I0803 14:46:11.195214 28176 net.cpp:399] Concat19 -> Concat19
I0803 14:46:11.195250 28176 net.cpp:141] Setting up Concat19
I0803 14:46:11.195258 28176 net.cpp:148] Top shape: 100 100 (10000)
I0803 14:46:11.195264 28176 net.cpp:156] Memory required for data: 2773092800
I0803 14:46:11.195277 28176 layer_factory.hpp:77] Creating layer InnerProduct113
I0803 14:46:11.195289 28176 net.cpp:91] Creating Layer InnerProduct113
I0803 14:46:11.195297 28176 net.cpp:425] InnerProduct113 <- Concat19
I0803 14:46:11.195309 28176 net.cpp:399] InnerProduct113 -> InnerProduct113
I0803 14:46:11.195524 28176 net.cpp:141] Setting up InnerProduct113
I0803 14:46:11.195533 28176 net.cpp:148] Top shape: 100 64 (6400)
I0803 14:46:11.195539 28176 net.cpp:156] Memory required for data: 2773118400
I0803 14:46:11.195546 28176 net.cpp:484] Sharing parameters 'fc1_w' owned by layer 'InnerProduct5', param index 0
I0803 14:46:11.195554 28176 net.cpp:484] Sharing parameters 'fc1_b' owned by layer 'InnerProduct5', param index 1
I0803 14:46:11.195561 28176 layer_factory.hpp:77] Creating layer ReLU75
I0803 14:46:11.195570 28176 net.cpp:91] Creating Layer ReLU75
I0803 14:46:11.195577 28176 net.cpp:425] ReLU75 <- InnerProduct113
I0803 14:46:11.195588 28176 net.cpp:386] ReLU75 -> InnerProduct113 (in-place)
I0803 14:46:11.195598 28176 net.cpp:141] Setting up ReLU75
I0803 14:46:11.195607 28176 net.cpp:148] Top shape: 100 64 (6400)
I0803 14:46:11.195613 28176 net.cpp:156] Memory required for data: 2773144000
I0803 14:46:11.195621 28176 layer_factory.hpp:77] Creating layer InnerProduct114
I0803 14:46:11.195658 28176 net.cpp:91] Creating Layer InnerProduct114
I0803 14:46:11.195665 28176 net.cpp:425] InnerProduct114 <- InnerProduct113
I0803 14:46:11.195679 28176 net.cpp:399] InnerProduct114 -> InnerProduct114
I0803 14:46:11.195878 28176 net.cpp:141] Setting up InnerProduct114
I0803 14:46:11.195888 28176 net.cpp:148] Top shape: 100 32 (3200)
I0803 14:46:11.195894 28176 net.cpp:156] Memory required for data: 2773156800
I0803 14:46:11.195901 28176 net.cpp:484] Sharing parameters 'fc2_w' owned by layer 'InnerProduct6', param index 0
I0803 14:46:11.195909 28176 net.cpp:484] Sharing parameters 'fc2_b' owned by layer 'InnerProduct6', param index 1
I0803 14:46:11.195916 28176 layer_factory.hpp:77] Creating layer ReLU76
I0803 14:46:11.195925 28176 net.cpp:91] Creating Layer ReLU76
I0803 14:46:11.195932 28176 net.cpp:425] ReLU76 <- InnerProduct114
I0803 14:46:11.195941 28176 net.cpp:386] ReLU76 -> InnerProduct114 (in-place)
I0803 14:46:11.195952 28176 net.cpp:141] Setting up ReLU76
I0803 14:46:11.195960 28176 net.cpp:148] Top shape: 100 32 (3200)
I0803 14:46:11.195967 28176 net.cpp:156] Memory required for data: 2773169600
I0803 14:46:11.195973 28176 layer_factory.hpp:77] Creating layer dt18
I0803 14:46:11.195984 28176 net.cpp:91] Creating Layer dt18
I0803 14:46:11.195991 28176 net.cpp:425] dt18 <- InnerProduct114
I0803 14:46:11.196002 28176 net.cpp:399] dt18 -> dt18
I0803 14:46:11.196159 28176 net.cpp:141] Setting up dt18
I0803 14:46:11.196167 28176 net.cpp:148] Top shape: 100 1 (100)
I0803 14:46:11.196174 28176 net.cpp:156] Memory required for data: 2773170000
I0803 14:46:11.196182 28176 net.cpp:484] Sharing parameters 'fc3_w' owned by layer 'dt0', param index 0
I0803 14:46:11.196190 28176 net.cpp:484] Sharing parameters 'fc3_b' owned by layer 'dt0', param index 1
I0803 14:46:11.196197 28176 layer_factory.hpp:77] Creating layer con
I0803 14:46:11.196211 28176 net.cpp:91] Creating Layer con
…
I0803 14:46:11.196300 28176 net.cpp:425] con <- dt10
I0803 14:46:11.196307 28176 net.cpp:425] con <- dt11
I0803 14:46:11.196316 28176 net.cpp:425] con <- dt12
I0803 14:46:11.196322 28176 net.cpp:425] con <- dt13
I0803 14:46:11.196331 28176 net.cpp:425] con <- dt14
I0803 14:46:11.196337 28176 net.cpp:425] con <- dt15
I0803 14:46:11.196344 28176 net.cpp:425] con <- dt16
I0803 14:46:11.196352 28176 net.cpp:425] con <- dt17
I0803 14:46:11.196359 28176 net.cpp:425] con <- dt18
I0803 14:46:11.196372 28176 net.cpp:399] con -> con
I0803 14:46:11.196409 28176 net.cpp:141] Setting up con
I0803 14:46:11.196419 28176 net.cpp:148] Top shape: 100 19 (1900)
I0803 14:46:11.196424 28176 net.cpp:156] Memory required for data: 2773177600
I0803 14:46:11.196430 28176 layer_factory.hpp:77] Creating layer r1
I0803 14:46:11.196445 28176 net.cpp:91] Creating Layer r1
I0803 14:46:11.196452 28176 net.cpp:425] r1 <- con
I0803 14:46:11.196462 28176 net.cpp:399] r1 -> r1
I0803 14:46:11.196506 28176 net.cpp:141] Setting up r1
I0803 14:46:11.196514 28176 net.cpp:148] Top shape: 100 1 1 19 (1900)
I0803 14:46:11.196521 28176 net.cpp:156] Memory required for data: 2773185200
I0803 14:46:11.196527 28176 layer_factory.hpp:77] Creating layer p
I0803 14:46:11.196537 28176 net.cpp:91] Creating Layer p
I0803 14:46:11.196543 28176 net.cpp:425] p <- r1
I0803 14:46:11.196557 28176 net.cpp:399] p -> p
I0803 14:46:11.196615 28176 net.cpp:141] Setting up p
I0803 14:46:11.196624 28176 net.cpp:148] Top shape: 100 1 1 1 (100)
I0803 14:46:11.196630 28176 net.cpp:156] Memory required for data: 2773185600
I0803 14:46:11.196650 28176 layer_factory.hpp:77] Creating layer r2
I0803 14:46:11.196662 28176 net.cpp:91] Creating Layer r2
I0803 14:46:11.196668 28176 net.cpp:425] r2 <- p
I0803 14:46:11.196677 28176 net.cpp:399] r2 -> r2
I0803 14:46:11.196712 28176 net.cpp:141] Setting up r2
I0803 14:46:11.196722 28176 net.cpp:148] Top shape: 100 1 1 1 (100)
I0803 14:46:11.196727 28176 net.cpp:156] Memory required for data: 2773186000
I0803 14:46:11.196733 28176 layer_factory.hpp:77] Creating layer padL
I0803 14:46:11.196743 28176 net.cpp:91] Creating Layer padL
I0803 14:46:11.196749 28176 net.cpp:425] padL <- label_data_1_split_1
I0803 14:46:11.196763 28176 net.cpp:399] padL -> padL
I0803 14:46:11.196799 28176 net.cpp:141] Setting up padL
I0803 14:46:11.196808 28176 net.cpp:148] Top shape: 100 1 1 1 (100)
I0803 14:46:11.196815 28176 net.cpp:156] Memory required for data: 2773186400
I0803 14:46:11.196820 28176 layer_factory.hpp:77] Creating layer pad
I0803 14:46:11.196830 28176 net.cpp:91] Creating Layer pad
I0803 14:46:11.196836 28176 net.cpp:425] pad <- r2
I0803 14:46:11.196844 28176 net.cpp:425] pad <- padL
I0803 14:46:11.196854 28176 net.cpp:399] pad -> pad
I0803 14:46:11.196888 28176 net.cpp:141] Setting up pad
I0803 14:46:11.196897 28176 net.cpp:148] Top shape: 100 2 1 1 (200)
I0803 14:46:11.196903 28176 net.cpp:156] Memory required for data: 2773187200
I0803 14:46:11.196910 28176 layer_factory.hpp:77] Creating layer pad_pad_0_split
I0803 14:46:11.196924 28176 net.cpp:91] Creating Layer pad_pad_0_split
I0803 14:46:11.196930 28176 net.cpp:425] pad_pad_0_split <- pad
I0803 14:46:11.196939 28176 net.cpp:399] pad_pad_0_split -> pad_pad_0_split_0
I0803 14:46:11.196951 28176 net.cpp:399] pad_pad_0_split -> pad_pad_0_split_1
I0803 14:46:11.197005 28176 net.cpp:141] Setting up pad_pad_0_split
I0803 14:46:11.197013 28176 net.cpp:148] Top shape: 100 2 1 1 (200)
I0803 14:46:11.197022 28176 net.cpp:148] Top shape: 100 2 1 1 (200)
I0803 14:46:11.197028 28176 net.cpp:156] Memory required for data: 2773188800
I0803 14:46:11.197034 28176 layer_factory.hpp:77] Creating layer loss
I0803 14:46:11.197043 28176 net.cpp:91] Creating Layer loss
I0803 14:46:11.197051 28176 net.cpp:425] loss <- pad_pad_0_split_0
I0803 14:46:11.197058 28176 net.cpp:425] loss <- th_th_0_split_0
I0803 14:46:11.197070 28176 net.cpp:399] loss -> loss
…
