…
device_id: 0
I0727 10:34:23.839651 22473 solver.cpp:81] Creating training net from train_net file: examples/scene/matchNetTrainHinge.prototxt
I0727 10:34:23.905457 22473 net.cpp:49] Initializing net from parameters: 
state {
  phase: TRAIN
}
layer {
  name: "data"
  type: "Data"
  top: "data"
  top: "label"
  include {
    phase: TRAIN
  }
  transform_param {
    scale: 0.0039215689
    mirror: true
    mean_file: "examples/scene/scene_mean.binaryproto"
  }
  data_param {
    source: "examples/scene/train_pairs.lmdb"
    batch_size: 128
    backend: LMDB
  }
}
layer {
  name: "i1"
  type: "Slice"
  bottom: "data"
  top: "i1"
  top: "i2"
  slice_param {
    slice_dim: 1
    slice_point: 3
  }
}
layer {
  name: "p1"
  type: "Pooling"
  bottom: "i1"
  top: "p1"
  pooling_param {
    pool: AVE
    kernel_size: 2
    stride: 2
  }
}
layer {
  name: "p2"
  type: "Pooling"
  bottom: "i2"
  top: "p2"
  pooling_param {
    pool: AVE
    kernel_size: 2
    stride: 2
  }
}
layer {
  name: "Input1"
  type: "Input"
  top: "Input1"
  include {
    phase: TRAIN
  }
  input_param {
    shape {
      dim: 128
      dim: 3
      dim: 64
      dim: 64
    }
  }
}
layer {
  name: "c11"
  type: "Crop"
  bottom: "i1"
  bottom: "Input1"
  top: "c11"
  crop_param {
    axis: 2
    offset: 0
    offset: 0
  }
}
layer {
  name: "Input2"
  type: "Input"
  top: "Input2"
  include {
    phase: TRAIN
  }
  input_param {
    shape {
      dim: 128
      dim: 3
      dim: 64
      dim: 64
    }
  }
}
layer {
  name: "c12"
  type: "Crop"
  bottom: "i1"
  bottom: "Input2"
  top: "c12"
  crop_param {
    axis: 2
    offset: 0
    offset: 32
  }
}
layer {
  name: "Input3"
  type: "Input"
  top: "Input3"
  include {
    phase: TRAIN
  }
  input_param {
    shape {
      dim: 128
      dim: 3
      dim: 64
      dim: 64
    }
  }
}
layer {
  name: "c13"
  type: "Crop"
  bottom: "i1"
  bottom: "Input3"
  top: "c13"
  crop_param {
    axis: 2
    offset: 0
    offset: 64
  }
}
layer {
  name: "Input4"
  type: "Input"
  top: "Input4"
  include {
    phase: TRAIN
  }
  input_param {
    shape {
      dim: 128
      dim: 3
      dim: 64
      dim: 64
    }
  }
}
layer {
  name: "c14"
  type: "Crop"
  bottom: "i1"
  bottom: "Input4"
  top: "c14"
  crop_param {
    axis: 2
    offset: 32
    offset: 0
  }
}
layer {
  name: "Input5"
  type: "Input"
  top: "Input5"
  include {
    phase: TRAIN
  }
  input_param {
    shape {
      dim: 128
      dim: 3
      dim: 64
      dim: 64
    }
  }
}
layer {
  name: "c15"
  type: "Crop"
  bottom: "i1"
  bottom: "Input5"
  top: "c15"
  crop_param {
    axis: 2
    offset: 32
    offset: 32
  }
}
layer {
  name: "Input6"
  type: "Input"
  top: "Input6"
  include {
    phase: TRAIN
  }
  input_param {
    shape {
      dim: 128
      dim: 3
      dim: 64
      dim: 64
    }
  }
}
layer {
  name: "c16"
  type: "Crop"
  bottom: "i1"
  bottom: "Input6"
  top: "c16"
  crop_param {
    axis: 2
    offset: 32
    offset: 64
  }
}
layer {
  name: "Input7"
  type: "Input"
  top: "Input7"
  include {
    phase: TRAIN
  }
  input_param {
    shape {
      dim: 128
      dim: 3
      dim: 64
      dim: 64
    }
  }
}
layer {
  name: "c17"
  type: "Crop"
  bottom: "i1"
  bottom: "Input7"
  top: "c17"
  crop_param {
    axis: 2
    offset: 64
    offset: 0
  }
}
layer {
  name: "Input8"
  type: "Input"
  top: "Input8"
  include {
    phase: TRAIN
  }
  input_param {
    shape {
      dim: 128
      dim: 3
      dim: 64
      dim: 64
    }
  }
}
layer {
  name: "c18"
  type: "Crop"
  bottom: "i1"
  bottom: "Input8"
  top: "c18"
  crop_param {
    axis: 2
    offset: 64
    offset: 32
  }
}
layer {
  name: "Input9"
  type: "Input"
  top: "Input9"
  include {
    phase: TRAIN
  }
  input_param {
    shape {
      dim: 128
      dim: 3
      dim: 64
      dim: 64
    }
  }
}
layer {
  name: "c19"
  type: "Crop"
  bottom: "i1"
  bottom: "Input9"
  top: "c19"
  crop_param {
    axis: 2
    offset: 64
    offset: 64
  }
}
layer {
  name: "Input10"
  type: "Input"
  top: "Input10"
  include {
    phase: TRAIN
  }
  input_param {
    shape {
      dim: 128
      dim: 3
      dim: 64
      dim: 64
    }
  }
}
layer {
  name: "c21"
  type: "Crop"
  bottom: "i2"
  bottom: "Input10"
  top: "c21"
  crop_param {
    axis: 2
    offset: 0
    offset: 0
  }
}
layer {
  name: "Input11"
  type: "Input"
  top: "Input11"
  include {
    phase: TRAIN
  }
  input_param {
    shape {
      dim: 128
      dim: 3
      dim: 64
      dim: 64
    }
  }
}
layer {
  name: "c22"
  type: "Crop"
  bottom: "i2"
  bottom: "Input11"
  top: "c22"
  crop_param {
    axis: 2
    offset: 0
    offset: 32
  }
}
layer {
  name: "Input12"
  type: "Input"
  top: "Input12"
  include {
    phase: TRAIN
  }
  input_param {
    shape {
      dim: 128
      dim: 3
      dim: 64
      dim: 64
    }
  }
}
layer {
  name: "c23"
  type: "Crop"
  bottom: "i2"
  bottom: "Input12"
  top: "c23"
  crop_param {
    axis: 2
    offset: 0
    offset: 64
  }
}
layer {
  name: "Input13"
  type: "Input"
  top: "Input13"
  include {
    phase: TRAIN
  }
  input_param {
    shape {
      dim: 128
      dim: 3
      dim: 64
      dim: 64
    }
  }
}
layer {
  name: "c24"
  type: "Crop"
  bottom: "i2"
  bottom: "Input13"
  top: "c24"
  crop_param {
    axis: 2
    offset: 32
    offset: 0
  }
}
layer {
  name: "Input14"
  type: "Input"
  top: "Input14"
  include {
    phase: TRAIN
  }
  input_param {
    shape {
      dim: 128
      dim: 3
      dim: 64
      dim: 64
    }
  }
}
layer {
  name: "c25"
  type: "Crop"
  bottom: "i2"
  bottom: "Input14"
  top: "c25"
  crop_param {
    axis: 2
    offset: 32
    offset: 32
  }
}
layer {
  name: "Input15"
  type: "Input"
  top: "Input15"
  include {
    phase: TRAIN
  }
  input_param {
    shape {
      dim: 128
      dim: 3
      dim: 64
      dim: 64
    }
  }
}
layer {
  name: "c26"
  type: "Crop"
  bottom: "i2"
  bottom: "Input15"
  top: "c26"
  crop_param {
    axis: 2
    offset: 32
    offset: 64
  }
}
layer {
  name: "Input16"
  type: "Input"
  top: "Input16"
  include {
    phase: TRAIN
  }
  input_param {
    shape {
      dim: 128
      dim: 3
      dim: 64
      dim: 64
    }
  }
}
layer {
  name: "c27"
  type: "Crop"
  bottom: "i2"
  bottom: "Input16"
  top: "c27"
  crop_param {
    axis: 2
    offset: 64
    offset: 0
  }
}
layer {
  name: "Input17"
  type: "Input"
  top: "Input17"
  include {
    phase: TRAIN
  }
  input_param {
    shape {
      dim: 128
      dim: 3
      dim: 64
      dim: 64
    }
  }
}
layer {
  name: "c28"
  type: "Crop"
  bottom: "i2"
  bottom: "Input17"
  top: "c28"
  crop_param {
    axis: 2
    offset: 64
    offset: 32
  }
}
layer {
  name: "Input18"
  type: "Input"
  top: "Input18"
  include {
    phase: TRAIN
  }
  input_param {
    shape {
      dim: 128
      dim: 3
      dim: 64
      dim: 64
    }
  }
}
layer {
  name: "c29"
  type: "Crop"
  bottom: "i2"
  bottom: "Input18"
  top: "c29"
  crop_param {
    axis: 2
    offset: 64
    offset: 64
  }
}
layer {
  name: "Convolution1"
  type: "Convolution"
  bottom: "p1"
  top: "Convolution1"
  param {
    name: "conv1_w"
    lr_mult: 1
  }
  param {
    name: "conv1_b"
    lr_mult: 2
  }
  convolution_param {
    num_output: 20
    kernel_size: 5
    stride: 1
    weight_filler {
      type: "xavier"
    }
    bias_filler {
      type: "constant"
    }
  }
}
layer {
  name: "Pooling1"
  type: "Pooling"
  bottom: "Convolution1"
  top: "Pooling1"
  pooling_param {
    pool: MAX
    kernel_size: 2
    stride: 2
  }
}
layer {
  name: "Convolution2"
  type: "Convolution"
  bottom: "Pooling1"
  top: "Convolution2"
  param {
    name: "conv2_w"
    lr_mult: 1
  }
  param {
    name: "conv2_b"
    lr_mult: 2
  }
  convolution_param {
    num_output: 50
    kernel_size: 5
    stride: 1
    weight_filler {
      type: "xavier"
    }
    bias_filler {
      type: "constant"
    }
  }
}
layer {
  name: "Pooling2"
  type: "Pooling"
  bottom: "Convolution2"
  top: "Pooling2"
  pooling_param {
    pool: MAX
    kernel_size: 2
    stride: 2
  }
}
layer {
  name: "InnerProduct1"
  type: "InnerProduct"
  bottom: "Pooling2"
  top: "InnerProduct1"
  param {
    name: "ip1_w"
    lr_mult: 1
  }
  param {
    name: "ip1_b"
    lr_mult: 2
  }
  inner_product_param {
    num_output: 500
    weight_filler {
      type: "xavier"
    }
    bias_filler {
      type: "constant"
    }
  }
}
layer {
  name: "ReLU1"
  type: "ReLU"
  bottom: "InnerProduct1"
  top: "InnerProduct1"
}
layer {
  name: "InnerProduct2"
  type: "InnerProduct"
  bottom: "InnerProduct1"
  top: "InnerProduct2"
  param {
    name: "ip2_w"
    lr_mult: 1
  }
  param {
    name: "ip2_b"
    lr_mult: 2
  }
  inner_product_param {
    num_output: 500
    weight_filler {
      type: "xavier"
    }
    bias_filler {
      type: "constant"
    }
  }
}
layer {
  name: "Convolution3"
  type: "Convolution"
  bottom: "p2"
  top: "Convolution3"
  param {
    name: "conv1_w"
    lr_mult: 1
  }
  param {
    name: "conv1_b"
    lr_mult: 2
  }
  convolution_param {
    num_output: 20
    kernel_size: 5
    stride: 1
    weight_filler {
      type: "xavier"
    }
    bias_filler {
      type: "constant"
    }
  }
}
layer {
  name: "Pooling3"
  type: "Pooling"
  bottom: "Convolution3"
  top: "Pooling3"
  pooling_param {
    pool: MAX
    kernel_size: 2
    stride: 2
  }
}
layer {
  name: "Convolution4"
  type: "Convolution"
  bottom: "Pooling3"
  top: "Convolution4"
  param {
    name: "conv2_w"
    lr_mult: 1
  }
  param {
    name: "conv2_b"
    lr_mult: 2
  }
  convolution_param {
    num_output: 50
    kernel_size: 5
    stride: 1
    weight_filler {
      type: "xavier"
    }
    bias_filler {
      type: "constant"
    }
  }
}
layer {
  name: "Pooling4"
  type: "Pooling"
  bottom: "Convolution4"
  top: "Pooling4"
  pooling_param {
    pool: MAX
    kernel_size: 2
    stride: 2
  }
}
layer {
  name: "InnerProduct3"
  type: "InnerProduct"
  bottom: "Pooling4"
  top: "InnerProduct3"
  param {
    name: "ip1_w"
    lr_mult: 1
  }
  param {
    name: "ip1_b"
    lr_mult: 2
  }
  inner_product_param {
    num_output: 500
    weight_filler {
      type: "xavier"
    }
    bias_filler {
      type: "constant"
    }
  }
}
layer {
  name: "ReLU2"
  type: "ReLU"
  bottom: "InnerProduct3"
  top: "InnerProduct3"
}
layer {
  name: "InnerProduct4"
  type: "InnerProduct"
  bottom: "InnerProduct3"
  top: "InnerProduct4"
  param {
    name: "ip2_w"
    lr_mult: 1
  }
  param {
    name: "ip2_b"
    lr_mult: 2
  }
  inner_product_param {
    num_output: 500
    weight_filler {
      type: "xavier"
    }
    bias_filler {
      type: "constant"
    }
  }
}
layer {
  name: "Concat1"
  type: "Concat"
  bottom: "InnerProduct2"
  bottom: "InnerProduct4"
  top: "Concat1"
  concat_param {
    axis: 1
  }
}
layer {
  name: "InnerProduct5"
  type: "InnerProduct"
  bottom: "Concat1"
  top: "InnerProduct5"
  param {
    name: "fc1_w"
    lr_mult: 1
  }
  param {
    name: "fc1_b"
    lr_mult: 2
  }
  inner_product_param {
    num_output: 512
    weight_filler {
      type: "xavier"
    }
    bias_filler {
      type: "constant"
    }
  }
}
layer {
  name: "ReLU3"
  type: "ReLU"
  bottom: "InnerProduct5"
  top: "InnerProduct5"
}
layer {
  name: "InnerProduct6"
  type: "InnerProduct"
  bottom: "InnerProduct5"
  top: "InnerProduct6"
  param {
    name: "fc2_w"
    lr_mult: 1
  }
  param {
    name: "fc2_b"
    lr_mult: 2
  }
  inner_product_param {
    num_output: 512
    weight_filler {
      type: "xavier"
    }
    bias_filler {
      type: "constant"
    }
  }
}
layer {
  name: "ReLU4"
  type: "ReLU"
  bottom: "InnerProduct6"
  top: "InnerProduct6"
}
layer {
  name: "dt0"
  type: "InnerProduct"
  bottom: "InnerProduct6"
  top: "dt0"
  param {
    name: "fc3_w"
    lr_mult: 1
  }
  param {
    name: "fc3_b"
    lr_mult: 2
  }
  inner_product_param {
    num_output: 1
    weight_filler {
      type: "xavier"
    }
    bias_filler {
      type: "constant"
    }
  }
}
layer {
  name: "Convolution5"
  type: "Convolution"
  bottom: "p1"
  top: "Convolution5"
  param {
    name: "conv1_w"
    lr_mult: 1
  }
  param {
    name: "conv1_b"
    lr_mult: 2
  }
  convolution_param {
    num_output: 20
    kernel_size: 5
    stride: 1
    weight_filler {
      type: "xavier"
    }
    bias_filler {
      type: "constant"
    }
  }
}
layer {
  name: "Pooling5"
  type: "Pooling"
  bottom: "Convolution5"
  top: "Pooling5"
  pooling_param {
    pool: MAX
    kernel_size: 2
    stride: 2
  }
}
layer {
  name: "Convolution6"
  type: "Convolution"
  bottom: "Pooling5"
  top: "Convolution6"
  param {
    name: "conv2_w"
    lr_mult: 1
  }
  param {
    name: "conv2_b"
    lr_mult: 2
  }
  convolution_param {
    num_output: 50
    kernel_size: 5
    stride: 1
    weight_filler {
      type: "xavier"
    }
    bias_filler {
      type: "constant"
    }
  }
}
layer {
  name: "Pooling6"
  type: "Pooling"
  bottom: "Convolution6"
  top: "Pooling6"
  pooling_param {
    pool: MAX
    kernel_size: 2
    stride: 2
  }
}
layer {
  name: "InnerProduct7"
  type: "InnerProduct"
  bottom: "Pooling6"
  top: "InnerProduct7"
  param {
    name: "ip1_w"
    lr_mult: 1
  }
  param {
    name: "ip1_b"
    lr_mult: 2
  }
  inner_product_param {
    num_output: 500
    weight_filler {
      type: "xavier"
    }
    bias_filler {
      type: "constant"
    }
  }
}
layer {
  name: "ReLU5"
  type: "ReLU"
  bottom: "InnerProduct7"
  top: "InnerProduct7"
}
layer {
  name: "InnerProduct8"
  type: "InnerProduct"
  bottom: "InnerProduct7"
  top: "InnerProduct8"
  param {
    name: "ip2_w"
    lr_mult: 1
  }
  param {
    name: "ip2_b"
    lr_mult: 2
  }
  inner_product_param {
    num_output: 500
    weight_filler {
      type: "xavier"
    }
    bias_filler {
      type: "constant"
    }
  }
}
layer {
  name: "Convolution7"
  type: "Convolution"
  bottom: "c21"
  top: "Convolution7"
  param {
    name: "conv1_w"
    lr_mult: 1
  }
  param {
    name: "conv1_b"
    lr_mult: 2
  }
  convolution_param {
    num_output: 20
    kernel_size: 5
    stride: 1
    weight_filler {
      type: "xavier"
    }
    bias_filler {
      type: "constant"
    }
  }
}
layer {
  name: "Pooling7"
  type: "Pooling"
  bottom: "Convolution7"
  top: "Pooling7"
  pooling_param {
    pool: MAX
    kernel_size: 2
    stride: 2
  }
}
layer {
  name: "Convolution8"
  type: "Convolution"
  bottom: "Pooling7"
  top: "Convolution8"
  param {
    name: "conv2_w"
    lr_mult: 1
  }
  param {
    name: "conv2_b"
    lr_mult: 2
  }
  convolution_param {
    num_output: 50
    kernel_size: 5
    stride: 1
    weight_filler {
      type: "xavier"
    }
    bias_filler {
      type: "constant"
    }
  }
}
layer {
  name: "Pooling8"
  type: "Pooling"
  bottom: "Convolution8"
  top: "Pooling8"
  pooling_param {
    pool: MAX
    kernel_size: 2
    stride: 2
  }
}
layer {
  name: "InnerProduct9"
  type: "InnerProduct"
  bottom: "Pooling8"
  top: "InnerProduct9"
  param {
    name: "ip1_w"
    lr_mult: 1
  }
  param {
    name: "ip1_b"
    lr_mult: 2
  }
  inner_product_param {
    num_output: 500
    weight_filler {
      type: "xavier"
    }
    bias_filler {
      type: "constant"
    }
  }
}
layer {
  name: "ReLU6"
  type: "ReLU"
  bottom: "InnerProduct9"
  top: "InnerProduct9"
}
layer {
  name: "InnerProduct10"
  type: "InnerProduct"
  bottom: "InnerProduct9"
  top: "InnerProduct10"
  param {
    name: "ip2_w"
    lr_mult: 1
  }
  param {
    name: "ip2_b"
    lr_mult: 2
  }
  inner_product_param {
    num_output: 500
    weight_filler {
      type: "xavier"
    }
    bias_filler {
      type: "constant"
    }
  }
}
layer {
  name: "Concat2"
  type: "Concat"
  bottom: "InnerProduct8"
  bottom: "InnerProduct10"
  top: "Concat2"
  concat_param {
    axis: 1
  }
}
layer {
  name: "InnerProduct11"
  type: "InnerProduct"
  bottom: "Concat2"
  top: "InnerProduct11"
  param {
    name: "fc1_w"
    lr_mult: 1
  }
  param {
    name: "fc1_b"
    lr_mult: 2
  }
  inner_product_param {
    num_output: 512
    weight_filler {
      type: "xavier"
    }
    bias_filler {
      type: "constant"
    }
  }
}
layer {
  name: "ReLU7"
  type: "ReLU"
  bottom: "InnerProduct11"
  top: "InnerProduct11"
}
layer {
  name: "InnerProduct12"
  type: "InnerProduct"
  bottom: "InnerProduct11"
  top: "InnerProduct12"
  param {
    name: "fc2_w"
    lr_mult: 1
  }
  param {
    name: "fc2_b"
    lr_mult: 2
  }
  inner_product_param {
    num_output: 512
    weight_filler {
      type: "xavier"
    }
    bias_filler {
      type: "constant"
    }
  }
}
layer {
  name: "ReLU8"
  type: "ReLU"
  bottom: "InnerProduct12"
  top: "InnerProduct12"
}
layer {
  name: "dt1"
  type: "InnerProduct"
  bottom: "InnerProduct12"
  top: "dt1"
  param {
    name: "fc3_w"
    lr_mult: 1
  }
  param {
    name: "fc3_b"
    lr_mult: 2
  }
  inner_product_param {
    num_output: 1
    weight_filler {
      type: "xavier"
    }
    bias_filler {
      type: "constant"
    }
  }
}
layer {
  name: "Convolution9"
  type: "Convolution"
  bottom: "p1"
  top: "Convolution9"
  param {
    name: "conv1_w"
    lr_mult: 1
  }
  param {
    name: "conv1_b"
    lr_mult: 2
  }
  convolution_param {
    num_output: 20
    kernel_size: 5
    stride: 1
    weight_filler {
      type: "xavier"
    }
    bias_filler {
      type: "constant"
    }
  }
}
layer {
  name: "Pooling9"
  type: "Pooling"
  bottom: "Convolution9"
  top: "Pooling9"
  pooling_param {
    pool: MAX
    kernel_size: 2
    stride: 2
  }
}
layer {
  name: "Convolution10"
  type: "Convolution"
  bottom: "Pooling9"
  top: "Convolution10"
  param {
    name: "conv2_w"
    lr_mult: 1
  }
  param {
    name: "conv2_b"
    lr_mult: 2
  }
  convolution_param {
    num_output: 50
    kernel_size: 5
    stride: 1
    weight_filler {
      type: "xavier"
    }
    bias_filler {
      type: "constant"
    }
  }
}
layer {
  name: "Pooling10"
  type: "Pooling"
  bottom: "Convolution10"
  top: "Pooling10"
  pooling_param {
    pool: MAX
    kernel_size: 2
    stride: 2
  }
}
layer {
  name: "InnerProduct13"
  type: "InnerProduct"
  bottom: "Pooling10"
  top: "InnerProduct13"
  param {
    name: "ip1_w"
    lr_mult: 1
  }
  param {
    name: "ip1_b"
    lr_mult: 2
  }
  inner_product_param {
    num_output: 500
    weight_filler {
      type: "xavier"
    }
    bias_filler {
      type: "constant"
    }
  }
}
layer {
  name: "ReLU9"
  type: "ReLU"
  bottom: "InnerProduct13"
  top: "InnerProduct13"
}
layer {
  name: "InnerProduct14"
  type: "InnerProduct"
  bottom: "InnerProduct13"
  top: "InnerProduct14"
  param {
    name: "ip2_w"
    lr_mult: 1
  }
  param {
    name: "ip2_b"
    lr_mult: 2
  }
  inner_product_param {
    num_output: 500
    weight_filler {
      type: "xavier"
    }
    bias_filler {
      type: "constant"
    }
  }
}
layer {
  name: "Convolution11"
  type: "Convolution"
  bottom: "c22"
  top: "Convolution11"
  param {
    name: "conv1_w"
    lr_mult: 1
  }
  param {
    name: "conv1_b"
    lr_mult: 2
  }
  convolution_param {
    num_output: 20
    kernel_size: 5
    stride: 1
    weight_filler {
      type: "xavier"
    }
    bias_filler {
      type: "constant"
    }
  }
}
layer {
  name: "Pooling11"
  type: "Pooling"
  bottom: "Convolution11"
  top: "Pooling11"
  pooling_param {
    pool: MAX
    kernel_size: 2
    stride: 2
  }
}
layer {
  name: "Convolution12"
  type: "Convolution"
  bottom: "Pooling11"
  top: "Convolution12"
  param {
    name: "conv2_w"
    lr_mult: 1
  }
  param {
    name: "conv2_b"
    lr_mult: 2
  }
  convolution_param {
    num_output: 50
    kernel_size: 5
    stride: 1
    weight_filler {
      type: "xavier"
    }
    bias_filler {
      type: "constant"
    }
  }
}
layer {
  name: "Pooling12"
  type: "Pooling"
  bottom: "Convolution12"
  top: "Pooling12"
  pooling_param {
    pool: MAX
    kernel_size: 2
    stride: 2
  }
}
layer {
  name: "InnerProduct15"
  type: "InnerProduct"
  bottom: "Pooling12"
  top: "InnerProduct15"
  param {
    name: "ip1_w"
    lr_mult: 1
  }
  param {
    name: "ip1_b"
    lr_mult: 2
  }
  inner_product_param {
    num_output: 500
    weight_filler {
      type: "xavier"
    }
    bias_filler {
      type: "constant"
    }
  }
}
layer {
  name: "ReLU10"
  type: "ReLU"
  bottom: "InnerProduct15"
  top: "InnerProduct15"
}
layer {
  name: "InnerProduct16"
  type: "InnerProduct"
  bottom: "InnerProduct15"
  top: "InnerProduct16"
  param {
    name: "ip2_w"
    lr_mult: 1
  }
  param {
    name: "ip2_b"
    lr_mult: 2
  }
  inner_product_param {
    num_output: 500
    weight_filler {
      type: "xavier"
    }
    bias_filler {
      type: "constant"
    }
  }
}
layer {
  name: "Concat3"
  type: "Concat"
  bottom: "InnerProduct14"
  bottom: "InnerProduct16"
  top: "Concat3"
  concat_param {
    axis: 1
  }
}
layer {
  name: "InnerProduct17"
  type: "InnerProduct"
  bottom: "Concat3"
  top: "InnerProduct17"
  param {
    name: "fc1_w"
    lr_mult: 1
  }
  param {
    name: "fc1_b"
    lr_mult: 2
  }
  inner_product_param {
    num_output: 512
    weight_filler {
      type: "xavier"
    }
    bias_filler {
      type: "constant"
    }
  }
}
layer {
  name: "ReLU11"
  type: "ReLU"
  bottom: "InnerProduct17"
  top: "InnerProduct17"
}
layer {
  name: "InnerProduct18"
  type: "InnerProduct"
  bottom: "InnerProduct17"
  top: "InnerProduct18"
  param {
    name: "fc2_w"
    lr_mult: 1
  }
  param {
    name: "fc2_b"
    lr_mult: 2
  }
  inner_product_param {
    num_output: 512
    weight_filler {
      type: "xavier"
    }
    bias_filler {
      type: "constant"
    }
  }
}
layer {
  name: "ReLU12"
  type: "ReLU"
  bottom: "InnerProduct18"
  top: "InnerProduct18"
}
layer {
  name: "dt2"
  type: "InnerProduct"
  bottom: "InnerProduct18"
  top: "dt2"
  param {
    name: "fc3_w"
    lr_mult: 1
  }
  param {
    name: "fc3_b"
    lr_mult: 2
  }
  inner_product_param {
    num_output: 1
    weight_filler {
      type: "xavier"
    }
    bias_filler {
      type: "constant"
    }
  }
}
layer {
  name: "Convolution13"
  type: "Convolution"
  bottom: "p1"
  top: "Convolution13"
  param {
    name: "conv1_w"
    lr_mult: 1
  }
  param {
    name: "conv1_b"
    lr_mult: 2
  }
  convolution_param {
    num_output: 20
    kernel_size: 5
    stride: 1
    weight_filler {
      type: "xavier"
    }
    bias_filler {
      type: "constant"
    }
  }
}
layer {
  name: "Pooling13"
  type: "Pooling"
  bottom: "Convolution13"
  top: "Pooling13"
  pooling_param {
    pool: MAX
    kernel_size: 2
    stride: 2
  }
}
layer {
  name: "Convolution14"
  type: "Convolution"
  bottom: "Pooling13"
  top: "Convolution14"
  param {
    name: "conv2_w"
    lr_mult: 1
  }
  param {
    name: "conv2_b"
    lr_mult: 2
  }
  convolution_param {
    num_output: 50
    kernel_size: 5
    stride: 1
    weight_filler {
      type: "xavier"
    }
    bias_filler {
      type: "constant"
    }
  }
}
layer {
  name: "Pooling14"
  type: "Pooling"
  bottom: "Convolution14"
  top: "Pooling14"
  pooling_param {
    pool: MAX
    kernel_size: 2
    stride: 2
  }
}
layer {
  name: "InnerProduct19"
  type: "InnerProduct"
  bottom: "Pooling14"
  top: "InnerProduct19"
  param {
    name: "ip1_w"
    lr_mult: 1
  }
  param {
    name: "ip1_b"
    lr_mult: 2
  }
  inner_product_param {
    num_output: 500
    weight_filler {
      type: "xavier"
    }
    bias_filler {
      type: "constant"
    }
  }
}
layer {
  name: "ReLU13"
  type: "ReLU"
  bottom: "InnerProduct19"
  top: "InnerProduct19"
}
layer {
  name: "InnerProduct20"
  type: "InnerProduct"
  bottom: "InnerProduct19"
  top: "InnerProduct20"
  param {
    name: "ip2_w"
    lr_mult: 1
  }
  param {
    name: "ip2_b"
    lr_mult: 2
  }
  inner_product_param {
    num_output: 500
    weight_filler {
      type: "xavier"
    }
    bias_filler {
      type: "constant"
    }
  }
}
layer {
  name: "Convolution15"
  type: "Convolution"
  bottom: "c23"
  top: "Convolution15"
  param {
    name: "conv1_w"
    lr_mult: 1
  }
  param {
    name: "conv1_b"
    lr_mult: 2
  }
  convolution_param {
    num_output: 20
    kernel_size: 5
    stride: 1
    weight_filler {
      type: "xavier"
    }
    bias_filler {
      type: "constant"
    }
  }
}
layer {
  name: "Pooling15"
  type: "Pooling"
  bottom: "Convolution15"
  top: "Pooling15"
  pooling_param {
    pool: MAX
    kernel_size: 2
    stride: 2
  }
}
layer {
  name: "Convolution16"
  type: "Convolution"
  bottom: "Pooling15"
  top: "Convolution16"
  param {
    name: "conv2_w"
    lr_mult: 1
  }
  param {
    name: "conv2_b"
    lr_mult: 2
  }
  convolution_param {
    num_output: 50
    kernel_size: 5
    stride: 1
    weight_filler {
      type: "xavier"
    }
    bias_filler {
      type: "constant"
    }
  }
}
layer {
  name: "Pooling16"
  type: "Pooling"
  bottom: "Convolution16"
  top: "Pooling16"
  pooling_param {
    pool: MAX
    kernel_size: 2
    stride: 2
  }
}
layer {
  name: "InnerProduct21"
  type: "InnerProduct"
  bottom: "Pooling16"
  top: "InnerProduct21"
  param {
    name: "ip1_w"
    lr_mult: 1
  }
  param {
    name: "ip1_b"
    lr_mult: 2
  }
  inner_product_param {
    num_output: 500
    weight_filler {
      type: "xavier"
    }
    bias_filler {
      type: "constant"
    }
  }
}
layer {
  name: "ReLU14"
  type: "ReLU"
  bottom: "InnerProduct21"
  top: "InnerProduct21"
}
layer {
  name: "InnerProduct22"
  type: "InnerProduct"
  bottom: "InnerProduct21"
  top: "InnerProduct22"
  param {
    name: "ip2_w"
    lr_mult: 1
  }
  param {
    name: "ip2_b"
    lr_mult: 2
  }
  inner_product_param {
    num_output: 500
    weight_filler {
      type: "xavier"
    }
    bias_filler {
      type: "constant"
    }
  }
}
layer {
  name: "Concat4"
  type: "Concat"
  bottom: "InnerProduct20"
  bottom: "InnerProduct22"
  top: "Concat4"
  concat_param {
    axis: 1
  }
}
layer {
  name: "InnerProduct23"
  type: "InnerProduct"
  bottom: "Concat4"
  top: "InnerProduct23"
  param {
    name: "fc1_w"
    lr_mult: 1
  }
  param {
    name: "fc1_b"
    lr_mult: 2
  }
  inner_product_param {
    num_output: 512
    weight_filler {
      type: "xavier"
    }
    bias_filler {
      type: "constant"
    }
  }
}
layer {
  name: "ReLU15"
  type: "ReLU"
  bottom: "InnerProduct23"
  top: "InnerProduct23"
}
layer {
  name: "InnerProduct24"
  type: "InnerProduct"
  bottom: "InnerProduct23"
  top: "InnerProduct24"
  param {
    name: "fc2_w"
    lr_mult: 1
  }
  param {
    name: "fc2_b"
    lr_mult: 2
  }
  inner_product_param {
    num_output: 512
    weight_filler {
      type: "xavier"
    }
    bias_filler {
      type: "constant"
    }
  }
}
layer {
  name: "ReLU16"
  type: "ReLU"
  bottom: "InnerProduct24"
  top: "InnerProduct24"
}
layer {
  name: "dt3"
  type: "InnerProduct"
  bottom: "InnerProduct24"
  top: "dt3"
  param {
    name: "fc3_w"
    lr_mult: 1
  }
  param {
    name: "fc3_b"
    lr_mult: 2
  }
  inner_product_param {
    num_output: 1
    weight_filler {
      type: "xavier"
    }
    bias_filler {
      type: "constant"
    }
  }
}
layer {
  name: "Convolution17"
  type: "Convolution"
  bottom: "p1"
  top: "Convolution17"
  param {
    name: "conv1_w"
    lr_mult: 1
  }
  param {
    name: "conv1_b"
    lr_mult: 2
  }
  convolution_param {
    num_output: 20
    kernel_size: 5
    stride: 1
    weight_filler {
      type: "xavier"
    }
    bias_filler {
      type: "constant"
    }
  }
}
layer {
  name: "Pooling17"
  type: "Pooling"
  bottom: "Convolution17"
  top: "Pooling17"
  pooling_param {
    pool: MAX
    kernel_size: 2
    stride: 2
  }
}
layer {
  name: "Convolution18"
  type: "Convolution"
  bottom: "Pooling17"
  top: "Convolution18"
  param {
    name: "conv2_w"
    lr_mult: 1
  }
  param {
    name: "conv2_b"
    lr_mult: 2
  }
  convolution_param {
    num_output: 50
    kernel_size: 5
    stride: 1
    weight_filler {
      type: "xavier"
    }
    bias_filler {
      type: "constant"
    }
  }
}
layer {
  name: "Pooling18"
  type: "Pooling"
  bottom: "Convolution18"
  top: "Pooling18"
  pooling_param {
    pool: MAX
    kernel_size: 2
    stride: 2
  }
}
layer {
  name: "InnerProduct25"
  type: "InnerProduct"
  bottom: "Pooling18"
  top: "InnerProduct25"
  param {
    name: "ip1_w"
    lr_mult: 1
  }
  param {
    name: "ip1_b"
    lr_mult: 2
  }
  inner_product_param {
    num_output: 500
    weight_filler {
      type: "xavier"
    }
    bias_filler {
      type: "constant"
    }
  }
}
layer {
  name: "ReLU17"
  type: "ReLU"
  bottom: "InnerProduct25"
  top: "InnerProduct25"
}
layer {
  name: "InnerProduct26"
  type: "InnerProduct"
  bottom: "InnerProduct25"
  top: "InnerProduct26"
  param {
    name: "ip2_w"
    lr_mult: 1
  }
  param {
    name: "ip2_b"
    lr_mult: 2
  }
  inner_product_param {
    num_output: 500
    weight_filler {
      type: "xavier"
    }
    bias_filler {
      type: "constant"
    }
  }
}
layer {
  name: "Convolution19"
  type: "Convolution"
  bottom: "c24"
  top: "Convolution19"
  param {
    name: "conv1_w"
    lr_mult: 1
  }
  param {
    name: "conv1_b"
    lr_mult: 2
  }
  convolution_param {
    num_output: 20
    kernel_size: 5
    stride: 1
    weight_filler {
      type: "xavier"
    }
    bias_filler {
      type: "constant"
    }
  }
}
layer {
  name: "Pooling19"
  type: "Pooling"
  bottom: "Convolution19"
  top: "Pooling19"
  pooling_param {
    pool: MAX
    kernel_size: 2
    stride: 2
  }
}
layer {
  name: "Convolution20"
  type: "Convolution"
  bottom: "Pooling19"
  top: "Convolution20"
  param {
    name: "conv2_w"
    lr_mult: 1
  }
  param {
    name: "conv2_b"
    lr_mult: 2
  }
  convolution_param {
    num_output: 50
    kernel_size: 5
    stride: 1
    weight_filler {
      type: "xavier"
    }
    bias_filler {
      type: "constant"
    }
  }
}
layer {
  name: "Pooling20"
  type: "Pooling"
  bottom: "Convolution20"
  top: "Pooling20"
  pooling_param {
    pool: MAX
    kernel_size: 2
    stride: 2
  }
}
layer {
  name: "InnerProduct27"
  type: "InnerProduct"
  bottom: "Pooling20"
  top: "InnerProduct27"
  param {
    name: "ip1_w"
    lr_mult: 1
  }
  param {
    name: "ip1_b"
    lr_mult: 2
  }
  inner_product_param {
    num_output: 500
    weight_filler {
      type: "xavier"
    }
    bias_filler {
I0727 10:34:23.909301 22473 layer_factory.hpp:77] Creating layer data
I0727 10:34:23.909900 22473 net.cpp:91] Creating Layer data
I0727 10:34:23.909914 22473 net.cpp:399] data -> data
I0727 10:34:23.909952 22473 net.cpp:399] data -> label
I0727 10:34:23.909972 22473 data_transformer.cpp:25] Loading mean file from: examples/scene/scene_mean.binaryproto
I0727 10:34:23.968050 22479 db_lmdb.cpp:35] Opened lmdb examples/scene/train_pairs.lmdb
I0727 10:34:24.116405 22473 data_layer.cpp:41] output data size: 128,6,128,128
I0727 10:34:24.237460 22473 net.cpp:141] Setting up data
I0727 10:34:24.237501 22473 net.cpp:148] Top shape: 128 6 128 128 (12582912)
I0727 10:34:24.237512 22473 net.cpp:148] Top shape: 128 (128)
I0727 10:34:24.237519 22473 net.cpp:156] Memory required for data: 50332160
I0727 10:34:24.237537 22473 layer_factory.hpp:77] Creating layer label_data_1_split
I0727 10:34:24.237562 22473 net.cpp:91] Creating Layer label_data_1_split
I0727 10:34:24.237572 22473 net.cpp:425] label_data_1_split <- label
I0727 10:34:24.237594 22473 net.cpp:399] label_data_1_split -> label_data_1_split_0
I0727 10:34:24.237613 22473 net.cpp:399] label_data_1_split -> label_data_1_split_1
I0727 10:34:24.237706 22473 net.cpp:141] Setting up label_data_1_split
I0727 10:34:24.237718 22473 net.cpp:148] Top shape: 128 (128)
I0727 10:34:24.237727 22473 net.cpp:148] Top shape: 128 (128)
I0727 10:34:24.237738 22473 net.cpp:156] Memory required for data: 50333184
I0727 10:34:24.237746 22473 layer_factory.hpp:77] Creating layer i1
I0727 10:34:24.245528 22473 net.cpp:91] Creating Layer i1
I0727 10:34:24.245548 22473 net.cpp:425] i1 <- data
I0727 10:34:24.245559 22473 net.cpp:399] i1 -> i1
I0727 10:34:24.245576 22473 net.cpp:399] i1 -> i2
I0727 10:34:24.246101 22473 net.cpp:141] Setting up i1
I0727 10:34:24.246122 22473 net.cpp:148] Top shape: 128 3 128 128 (6291456)
I0727 10:34:24.246134 22473 net.cpp:148] Top shape: 128 3 128 128 (6291456)
I0727 10:34:24.246145 22473 net.cpp:156] Memory required for data: 100664832
I0727 10:34:24.246155 22473 layer_factory.hpp:77] Creating layer i1_i1_0_split
I0727 10:34:24.246167 22473 net.cpp:91] Creating Layer i1_i1_0_split
I0727 10:34:24.246202 22473 net.cpp:425] i1_i1_0_split <- i1
I0727 10:34:24.246228 22473 net.cpp:399] i1_i1_0_split -> i1_i1_0_split_0
I0727 10:34:24.246248 22473 net.cpp:399] i1_i1_0_split -> i1_i1_0_split_1
I0727 10:34:24.246263 22473 net.cpp:399] i1_i1_0_split -> i1_i1_0_split_2
I0727 10:34:24.246282 22473 net.cpp:399] i1_i1_0_split -> i1_i1_0_split_3
I0727 10:34:24.246296 22473 net.cpp:399] i1_i1_0_split -> i1_i1_0_split_4
I0727 10:34:24.246312 22473 net.cpp:399] i1_i1_0_split -> i1_i1_0_split_5
I0727 10:34:24.246330 22473 net.cpp:399] i1_i1_0_split -> i1_i1_0_split_6
I0727 10:34:24.246348 22473 net.cpp:399] i1_i1_0_split -> i1_i1_0_split_7
I0727 10:34:24.246368 22473 net.cpp:399] i1_i1_0_split -> i1_i1_0_split_8
I0727 10:34:24.246382 22473 net.cpp:399] i1_i1_0_split -> i1_i1_0_split_9
I0727 10:34:24.246676 22473 net.cpp:141] Setting up i1_i1_0_split
I0727 10:34:24.246691 22473 net.cpp:148] Top shape: 128 3 128 128 (6291456)
I0727 10:34:24.246700 22473 net.cpp:148] Top shape: 128 3 128 128 (6291456)
I0727 10:34:24.246707 22473 net.cpp:148] Top shape: 128 3 128 128 (6291456)
I0727 10:34:24.246718 22473 net.cpp:148] Top shape: 128 3 128 128 (6291456)
I0727 10:34:24.246727 22473 net.cpp:148] Top shape: 128 3 128 128 (6291456)
I0727 10:34:24.246737 22473 net.cpp:148] Top shape: 128 3 128 128 (6291456)
I0727 10:34:24.246744 22473 net.cpp:148] Top shape: 128 3 128 128 (6291456)
I0727 10:34:24.246752 22473 net.cpp:148] Top shape: 128 3 128 128 (6291456)
I0727 10:34:24.246758 22473 net.cpp:148] Top shape: 128 3 128 128 (6291456)
I0727 10:34:24.246767 22473 net.cpp:148] Top shape: 128 3 128 128 (6291456)
I0727 10:34:24.246773 22473 net.cpp:156] Memory required for data: 352323072
I0727 10:34:24.246778 22473 layer_factory.hpp:77] Creating layer i2_i1_1_split
I0727 10:34:24.246791 22473 net.cpp:91] Creating Layer i2_i1_1_split
I0727 10:34:24.246799 22473 net.cpp:425] i2_i1_1_split <- i2
I0727 10:34:24.246810 22473 net.cpp:399] i2_i1_1_split -> i2_i1_1_split_0
I0727 10:34:24.246825 22473 net.cpp:399] i2_i1_1_split -> i2_i1_1_split_1
I0727 10:34:24.246837 22473 net.cpp:399] i2_i1_1_split -> i2_i1_1_split_2
I0727 10:34:24.246850 22473 net.cpp:399] i2_i1_1_split -> i2_i1_1_split_3
I0727 10:34:24.246862 22473 net.cpp:399] i2_i1_1_split -> i2_i1_1_split_4
I0727 10:34:24.246875 22473 net.cpp:399] i2_i1_1_split -> i2_i1_1_split_5
I0727 10:34:24.246886 22473 net.cpp:399] i2_i1_1_split -> i2_i1_1_split_6
I0727 10:34:24.246896 22473 net.cpp:399] i2_i1_1_split -> i2_i1_1_split_7
I0727 10:34:24.246908 22473 net.cpp:399] i2_i1_1_split -> i2_i1_1_split_8
I0727 10:34:24.246922 22473 net.cpp:399] i2_i1_1_split -> i2_i1_1_split_9
I0727 10:34:24.247196 22473 net.cpp:141] Setting up i2_i1_1_split
I0727 10:34:24.247222 22473 net.cpp:148] Top shape: 128 3 128 128 (6291456)
I0727 10:34:24.247243 22473 net.cpp:148] Top shape: 128 3 128 128 (6291456)
I0727 10:34:24.247262 22473 net.cpp:148] Top shape: 128 3 128 128 (6291456)
I0727 10:34:24.247280 22473 net.cpp:148] Top shape: 128 3 128 128 (6291456)
I0727 10:34:24.247299 22473 net.cpp:148] Top shape: 128 3 128 128 (6291456)
I0727 10:34:24.247318 22473 net.cpp:148] Top shape: 128 3 128 128 (6291456)
I0727 10:34:24.247337 22473 net.cpp:148] Top shape: 128 3 128 128 (6291456)
I0727 10:34:24.247355 22473 net.cpp:148] Top shape: 128 3 128 128 (6291456)
I0727 10:34:24.247375 22473 net.cpp:148] Top shape: 128 3 128 128 (6291456)
I0727 10:34:24.247392 22473 net.cpp:148] Top shape: 128 3 128 128 (6291456)
I0727 10:34:24.247408 22473 net.cpp:156] Memory required for data: 603981312
I0727 10:34:24.247429 22473 layer_factory.hpp:77] Creating layer p1
I0727 10:34:24.247462 22473 net.cpp:91] Creating Layer p1
I0727 10:34:24.247490 22473 net.cpp:425] p1 <- i1_i1_0_split_0
I0727 10:34:24.247524 22473 net.cpp:399] p1 -> p1
I0727 10:34:24.249486 22473 net.cpp:141] Setting up p1
I0727 10:34:24.249528 22473 net.cpp:148] Top shape: 128 3 64 64 (1572864)
I0727 10:34:24.249547 22473 net.cpp:156] Memory required for data: 610272768
I0727 10:34:24.249565 22473 layer_factory.hpp:77] Creating layer p1_p1_0_split
I0727 10:34:24.249629 22473 net.cpp:91] Creating Layer p1_p1_0_split
I0727 10:34:24.249647 22473 net.cpp:425] p1_p1_0_split <- p1
I0727 10:34:24.249675 22473 net.cpp:399] p1_p1_0_split -> p1_p1_0_split_0
I0727 10:34:24.249816 22473 net.cpp:399] p1_p1_0_split -> p1_p1_0_split_1
I0727 10:34:24.249850 22473 net.cpp:399] p1_p1_0_split -> p1_p1_0_split_2
I0727 10:34:24.251308 22473 net.cpp:399] p1_p1_0_split -> p1_p1_0_split_3
I0727 10:34:24.251343 22473 net.cpp:399] p1_p1_0_split -> p1_p1_0_split_4
I0727 10:34:24.251366 22473 net.cpp:399] p1_p1_0_split -> p1_p1_0_split_5
I0727 10:34:24.251392 22473 net.cpp:399] p1_p1_0_split -> p1_p1_0_split_6
I0727 10:34:24.251415 22473 net.cpp:399] p1_p1_0_split -> p1_p1_0_split_7
I0727 10:34:24.251435 22473 net.cpp:399] p1_p1_0_split -> p1_p1_0_split_8
I0727 10:34:24.251456 22473 net.cpp:399] p1_p1_0_split -> p1_p1_0_split_9
I0727 10:34:24.251747 22473 net.cpp:141] Setting up p1_p1_0_split
I0727 10:34:24.251765 22473 net.cpp:148] Top shape: 128 3 64 64 (1572864)
I0727 10:34:24.251780 22473 net.cpp:148] Top shape: 128 3 64 64 (1572864)
I0727 10:34:24.251794 22473 net.cpp:148] Top shape: 128 3 64 64 (1572864)
I0727 10:34:24.251806 22473 net.cpp:148] Top shape: 128 3 64 64 (1572864)
I0727 10:34:24.251816 22473 net.cpp:148] Top shape: 128 3 64 64 (1572864)
I0727 10:34:24.251828 22473 net.cpp:148] Top shape: 128 3 64 64 (1572864)
I0727 10:34:24.251839 22473 net.cpp:148] Top shape: 128 3 64 64 (1572864)
I0727 10:34:24.251852 22473 net.cpp:148] Top shape: 128 3 64 64 (1572864)
I0727 10:34:24.251864 22473 net.cpp:148] Top shape: 128 3 64 64 (1572864)
I0727 10:34:24.251875 22473 net.cpp:148] Top shape: 128 3 64 64 (1572864)
I0727 10:34:24.251883 22473 net.cpp:156] Memory required for data: 673187328
I0727 10:34:24.251893 22473 layer_factory.hpp:77] Creating layer p2
I0727 10:34:24.251909 22473 net.cpp:91] Creating Layer p2
I0727 10:34:24.251920 22473 net.cpp:425] p2 <- i2_i1_1_split_0
I0727 10:34:24.251937 22473 net.cpp:399] p2 -> p2
I0727 10:34:24.251998 22473 net.cpp:141] Setting up p2
I0727 10:34:24.252017 22473 net.cpp:148] Top shape: 128 3 64 64 (1572864)
I0727 10:34:24.252028 22473 net.cpp:156] Memory required for data: 679478784
I0727 10:34:24.252040 22473 layer_factory.hpp:77] Creating layer p2_p2_0_split
I0727 10:34:24.252059 22473 net.cpp:91] Creating Layer p2_p2_0_split
I0727 10:34:24.252070 22473 net.cpp:425] p2_p2_0_split <- p2
I0727 10:34:24.252084 22473 net.cpp:399] p2_p2_0_split -> p2_p2_0_split_0
I0727 10:34:24.252102 22473 net.cpp:399] p2_p2_0_split -> p2_p2_0_split_1
I0727 10:34:24.252123 22473 net.cpp:399] p2_p2_0_split -> p2_p2_0_split_2
I0727 10:34:24.252140 22473 net.cpp:399] p2_p2_0_split -> p2_p2_0_split_3
I0727 10:34:24.252156 22473 net.cpp:399] p2_p2_0_split -> p2_p2_0_split_4
I0727 10:34:24.252177 22473 net.cpp:399] p2_p2_0_split -> p2_p2_0_split_5
I0727 10:34:24.252192 22473 net.cpp:399] p2_p2_0_split -> p2_p2_0_split_6
I0727 10:34:24.252208 22473 net.cpp:399] p2_p2_0_split -> p2_p2_0_split_7
I0727 10:34:24.252226 22473 net.cpp:399] p2_p2_0_split -> p2_p2_0_split_8
I0727 10:34:24.252243 22473 net.cpp:399] p2_p2_0_split -> p2_p2_0_split_9
I0727 10:34:24.252506 22473 net.cpp:141] Setting up p2_p2_0_split
I0727 10:34:24.252522 22473 net.cpp:148] Top shape: 128 3 64 64 (1572864)
I0727 10:34:24.252533 22473 net.cpp:148] Top shape: 128 3 64 64 (1572864)
I0727 10:34:24.252547 22473 net.cpp:148] Top shape: 128 3 64 64 (1572864)
I0727 10:34:24.252558 22473 net.cpp:148] Top shape: 128 3 64 64 (1572864)
I0727 10:34:24.252568 22473 net.cpp:148] Top shape: 128 3 64 64 (1572864)
I0727 10:34:24.252579 22473 net.cpp:148] Top shape: 128 3 64 64 (1572864)
I0727 10:34:24.252591 22473 net.cpp:148] Top shape: 128 3 64 64 (1572864)
I0727 10:34:24.252604 22473 net.cpp:148] Top shape: 128 3 64 64 (1572864)
I0727 10:34:24.252614 22473 net.cpp:148] Top shape: 128 3 64 64 (1572864)
I0727 10:34:24.252625 22473 net.cpp:148] Top shape: 128 3 64 64 (1572864)
I0727 10:34:24.252635 22473 net.cpp:156] Memory required for data: 742393344
I0727 10:34:24.252642 22473 layer_factory.hpp:77] Creating layer Input1
I0727 10:34:24.252683 22473 net.cpp:91] Creating Layer Input1
I0727 10:34:24.252696 22473 net.cpp:399] Input1 -> Input1
I0727 10:34:24.252742 22473 net.cpp:141] Setting up Input1
I0727 10:34:24.252756 22473 net.cpp:148] Top shape: 128 3 64 64 (1572864)
I0727 10:34:24.252765 22473 net.cpp:156] Memory required for data: 748684800
I0727 10:34:24.252775 22473 layer_factory.hpp:77] Creating layer c11
I0727 10:34:24.253608 22473 net.cpp:91] Creating Layer c11
I0727 10:34:24.253628 22473 net.cpp:425] c11 <- i1_i1_0_split_1
I0727 10:34:24.253640 22473 net.cpp:425] c11 <- Input1
I0727 10:34:24.253656 22473 net.cpp:399] c11 -> c11
I0727 10:34:24.253726 22473 net.cpp:141] Setting up c11
I0727 10:34:24.253754 22473 net.cpp:148] Top shape: 128 3 64 64 (1572864)
I0727 10:34:24.253770 22473 net.cpp:156] Memory required for data: 754976256
I0727 10:34:24.253785 22473 layer_factory.hpp:77] Creating layer Input2
I0727 10:34:24.253801 22473 net.cpp:91] Creating Layer Input2
I0727 10:34:24.253814 22473 net.cpp:399] Input2 -> Input2
I0727 10:34:24.253859 22473 net.cpp:141] Setting up Input2
I0727 10:34:24.253875 22473 net.cpp:148] Top shape: 128 3 64 64 (1572864)
I0727 10:34:24.253885 22473 net.cpp:156] Memory required for data: 761267712
I0727 10:34:24.253893 22473 layer_factory.hpp:77] Creating layer c12
I0727 10:34:24.253908 22473 net.cpp:91] Creating Layer c12
I0727 10:34:24.253918 22473 net.cpp:425] c12 <- i1_i1_0_split_2
I0727 10:34:24.253931 22473 net.cpp:425] c12 <- Input2
I0727 10:34:24.253945 22473 net.cpp:399] c12 -> c12
I0727 10:34:24.253988 22473 net.cpp:141] Setting up c12
I0727 10:34:24.254001 22473 net.cpp:148] Top shape: 128 3 64 64 (1572864)
I0727 10:34:24.254011 22473 net.cpp:156] Memory required for data: 767559168
I0727 10:34:24.254019 22473 layer_factory.hpp:77] Creating layer Input3
I0727 10:34:24.254034 22473 net.cpp:91] Creating Layer Input3
I0727 10:34:24.254047 22473 net.cpp:399] Input3 -> Input3
I0727 10:34:24.254089 22473 net.cpp:141] Setting up Input3
I0727 10:34:24.254103 22473 net.cpp:148] Top shape: 128 3 64 64 (1572864)
I0727 10:34:24.254114 22473 net.cpp:156] Memory required for data: 773850624
I0727 10:34:24.254122 22473 layer_factory.hpp:77] Creating layer c13
I0727 10:34:24.254140 22473 net.cpp:91] Creating Layer c13
I0727 10:34:24.254158 22473 net.cpp:425] c13 <- i1_i1_0_split_3
I0727 10:34:24.254181 22473 net.cpp:425] c13 <- Input3
I0727 10:34:24.254204 22473 net.cpp:399] c13 -> c13
I0727 10:34:24.254248 22473 net.cpp:141] Setting up c13
I0727 10:34:24.254263 22473 net.cpp:148] Top shape: 128 3 64 64 (1572864)
I0727 10:34:24.254271 22473 net.cpp:156] Memory required for data: 780142080
I0727 10:34:24.254281 22473 layer_factory.hpp:77] Creating layer Input4
I0727 10:34:24.254292 22473 net.cpp:91] Creating Layer Input4
I0727 10:34:24.254303 22473 net.cpp:399] Input4 -> Input4
I0727 10:34:24.254343 22473 net.cpp:141] Setting up Input4
I0727 10:34:24.254356 22473 net.cpp:148] Top shape: 128 3 64 64 (1572864)
I0727 10:34:24.254364 22473 net.cpp:156] Memory required for data: 786433536
I0727 10:34:24.254374 22473 layer_factory.hpp:77] Creating layer c14
I0727 10:34:24.254390 22473 net.cpp:91] Creating Layer c14
I0727 10:34:24.254400 22473 net.cpp:425] c14 <- i1_i1_0_split_4
I0727 10:34:24.254412 22473 net.cpp:425] c14 <- Input4
I0727 10:34:24.254426 22473 net.cpp:399] c14 -> c14
I0727 10:34:24.254467 22473 net.cpp:141] Setting up c14
I0727 10:34:24.254482 22473 net.cpp:148] Top shape: 128 3 64 64 (1572864)
I0727 10:34:24.254489 22473 net.cpp:156] Memory required for data: 792724992
I0727 10:34:24.254498 22473 layer_factory.hpp:77] Creating layer Input5
I0727 10:34:24.254510 22473 net.cpp:91] Creating Layer Input5
I0727 10:34:24.254521 22473 net.cpp:399] Input5 -> Input5
I0727 10:34:24.254560 22473 net.cpp:141] Setting up Input5
I0727 10:34:24.254577 22473 net.cpp:148] Top shape: 128 3 64 64 (1572864)
I0727 10:34:24.254591 22473 net.cpp:156] Memory required for data: 799016448
I0727 10:34:24.254602 22473 layer_factory.hpp:77] Creating layer c15
I0727 10:34:24.254623 22473 net.cpp:91] Creating Layer c15
I0727 10:34:24.254665 22473 net.cpp:425] c15 <- i1_i1_0_split_5
I0727 10:34:24.254678 22473 net.cpp:425] c15 <- Input5
I0727 10:34:24.254691 22473 net.cpp:399] c15 -> c15
I0727 10:34:24.254737 22473 net.cpp:141] Setting up c15
I0727 10:34:24.254756 22473 net.cpp:148] Top shape: 128 3 64 64 (1572864)
I0727 10:34:24.254770 22473 net.cpp:156] Memory required for data: 805307904
I0727 10:34:24.254781 22473 layer_factory.hpp:77] Creating layer Input6
I0727 10:34:24.254796 22473 net.cpp:91] Creating Layer Input6
I0727 10:34:24.254814 22473 net.cpp:399] Input6 -> Input6
I0727 10:34:24.254858 22473 net.cpp:141] Setting up Input6
I0727 10:34:24.254871 22473 net.cpp:148] Top shape: 128 3 64 64 (1572864)
I0727 10:34:24.254880 22473 net.cpp:156] Memory required for data: 811599360
I0727 10:34:24.254889 22473 layer_factory.hpp:77] Creating layer c16
I0727 10:34:24.254900 22473 net.cpp:91] Creating Layer c16
I0727 10:34:24.254909 22473 net.cpp:425] c16 <- i1_i1_0_split_6
I0727 10:34:24.254921 22473 net.cpp:425] c16 <- Input6
I0727 10:34:24.254935 22473 net.cpp:399] c16 -> c16
I0727 10:34:24.254976 22473 net.cpp:141] Setting up c16
I0727 10:34:24.254990 22473 net.cpp:148] Top shape: 128 3 64 64 (1572864)
I0727 10:34:24.254999 22473 net.cpp:156] Memory required for data: 817890816
I0727 10:34:24.255007 22473 layer_factory.hpp:77] Creating layer Input7
I0727 10:34:24.255022 22473 net.cpp:91] Creating Layer Input7
I0727 10:34:24.255036 22473 net.cpp:399] Input7 -> Input7
I0727 10:34:24.255112 22473 net.cpp:141] Setting up Input7
I0727 10:34:24.255128 22473 net.cpp:148] Top shape: 128 3 64 64 (1572864)
I0727 10:34:24.255137 22473 net.cpp:156] Memory required for data: 824182272
I0727 10:34:24.255146 22473 layer_factory.hpp:77] Creating layer c17
I0727 10:34:24.255157 22473 net.cpp:91] Creating Layer c17
I0727 10:34:24.255167 22473 net.cpp:425] c17 <- i1_i1_0_split_7
I0727 10:34:24.255178 22473 net.cpp:425] c17 <- Input7
I0727 10:34:24.255192 22473 net.cpp:399] c17 -> c17
I0727 10:34:24.255230 22473 net.cpp:141] Setting up c17
I0727 10:34:24.255244 22473 net.cpp:148] Top shape: 128 3 64 64 (1572864)
I0727 10:34:24.255254 22473 net.cpp:156] Memory required for data: 830473728
I0727 10:34:24.255261 22473 layer_factory.hpp:77] Creating layer Input8
I0727 10:34:24.255275 22473 net.cpp:91] Creating Layer Input8
I0727 10:34:24.255285 22473 net.cpp:399] Input8 -> Input8
I0727 10:34:24.255323 22473 net.cpp:141] Setting up Input8
I0727 10:34:24.255336 22473 net.cpp:148] Top shape: 128 3 64 64 (1572864)
I0727 10:34:24.255345 22473 net.cpp:156] Memory required for data: 836765184
I0727 10:34:24.255353 22473 layer_factory.hpp:77] Creating layer c18
I0727 10:34:24.255365 22473 net.cpp:91] Creating Layer c18
I0727 10:34:24.255374 22473 net.cpp:425] c18 <- i1_i1_0_split_8
I0727 10:34:24.255385 22473 net.cpp:425] c18 <- Input8
I0727 10:34:24.255398 22473 net.cpp:399] c18 -> c18
I0727 10:34:24.255437 22473 net.cpp:141] Setting up c18
I0727 10:34:24.255452 22473 net.cpp:148] Top shape: 128 3 64 64 (1572864)
I0727 10:34:24.255460 22473 net.cpp:156] Memory required for data: 843056640
I0727 10:34:24.255471 22473 layer_factory.hpp:77] Creating layer Input9
I0727 10:34:24.255486 22473 net.cpp:91] Creating Layer Input9
I0727 10:34:24.255507 22473 net.cpp:399] Input9 -> Input9
I0727 10:34:24.255581 22473 net.cpp:141] Setting up Input9
I0727 10:34:24.255599 22473 net.cpp:148] Top shape: 128 3 64 64 (1572864)
I0727 10:34:24.255607 22473 net.cpp:156] Memory required for data: 849348096
I0727 10:34:24.255615 22473 layer_factory.hpp:77] Creating layer c19
I0727 10:34:24.255627 22473 net.cpp:91] Creating Layer c19
I0727 10:34:24.255640 22473 net.cpp:425] c19 <- i1_i1_0_split_9
I0727 10:34:24.255652 22473 net.cpp:425] c19 <- Input9
I0727 10:34:24.255666 22473 net.cpp:399] c19 -> c19
I0727 10:34:24.255708 22473 net.cpp:141] Setting up c19
I0727 10:34:24.255722 22473 net.cpp:148] Top shape: 128 3 64 64 (1572864)
I0727 10:34:24.255731 22473 net.cpp:156] Memory required for data: 855639552
I0727 10:34:24.255739 22473 layer_factory.hpp:77] Creating layer Input10
I0727 10:34:24.255751 22473 net.cpp:91] Creating Layer Input10
I0727 10:34:24.255782 22473 net.cpp:399] Input10 -> Input10
I0727 10:34:24.255821 22473 net.cpp:141] Setting up Input10
I0727 10:34:24.255836 22473 net.cpp:148] Top shape: 128 3 64 64 (1572864)
I0727 10:34:24.255844 22473 net.cpp:156] Memory required for data: 861931008
I0727 10:34:24.255852 22473 layer_factory.hpp:77] Creating layer c21
I0727 10:34:24.255864 22473 net.cpp:91] Creating Layer c21
I0727 10:34:24.255873 22473 net.cpp:425] c21 <- i2_i1_1_split_1
I0727 10:34:24.255885 22473 net.cpp:425] c21 <- Input10
I0727 10:34:24.255898 22473 net.cpp:399] c21 -> c21
I0727 10:34:24.255942 22473 net.cpp:141] Setting up c21
I0727 10:34:24.255961 22473 net.cpp:148] Top shape: 128 3 64 64 (1572864)
I0727 10:34:24.255978 22473 net.cpp:156] Memory required for data: 868222464
I0727 10:34:24.255998 22473 layer_factory.hpp:77] Creating layer Input11
I0727 10:34:24.256017 22473 net.cpp:91] Creating Layer Input11
I0727 10:34:24.256032 22473 net.cpp:399] Input11 -> Input11
I0727 10:34:24.256072 22473 net.cpp:141] Setting up Input11
I0727 10:34:24.256085 22473 net.cpp:148] Top shape: 128 3 64 64 (1572864)
I0727 10:34:24.256094 22473 net.cpp:156] Memory required for data: 874513920
I0727 10:34:24.256103 22473 layer_factory.hpp:77] Creating layer c22
I0727 10:34:24.256114 22473 net.cpp:91] Creating Layer c22
I0727 10:34:24.256124 22473 net.cpp:425] c22 <- i2_i1_1_split_2
I0727 10:34:24.256135 22473 net.cpp:425] c22 <- Input11
I0727 10:34:24.256148 22473 net.cpp:399] c22 -> c22
I0727 10:34:24.256189 22473 net.cpp:141] Setting up c22
I0727 10:34:24.256202 22473 net.cpp:148] Top shape: 128 3 64 64 (1572864)
I0727 10:34:24.256211 22473 net.cpp:156] Memory required for data: 880805376
I0727 10:34:24.256219 22473 layer_factory.hpp:77] Creating layer Input12
I0727 10:34:24.256232 22473 net.cpp:91] Creating Layer Input12
I0727 10:34:24.256242 22473 net.cpp:399] Input12 -> Input12
I0727 10:34:24.256280 22473 net.cpp:141] Setting up Input12
I0727 10:34:24.256294 22473 net.cpp:148] Top shape: 128 3 64 64 (1572864)
I0727 10:34:24.256302 22473 net.cpp:156] Memory required for data: 887096832
I0727 10:34:24.256311 22473 layer_factory.hpp:77] Creating layer c23
I0727 10:34:24.256330 22473 net.cpp:91] Creating Layer c23
I0727 10:34:24.256340 22473 net.cpp:425] c23 <- i2_i1_1_split_3
I0727 10:34:24.256352 22473 net.cpp:425] c23 <- Input12
I0727 10:34:24.256366 22473 net.cpp:399] c23 -> c23
I0727 10:34:24.256420 22473 net.cpp:141] Setting up c23
I0727 10:34:24.256446 22473 net.cpp:148] Top shape: 128 3 64 64 (1572864)
I0727 10:34:24.256461 22473 net.cpp:156] Memory required for data: 893388288
I0727 10:34:24.256472 22473 layer_factory.hpp:77] Creating layer Input13
I0727 10:34:24.256485 22473 net.cpp:91] Creating Layer Input13
I0727 10:34:24.256499 22473 net.cpp:399] Input13 -> Input13
I0727 10:34:24.256538 22473 net.cpp:141] Setting up Input13
I0727 10:34:24.256552 22473 net.cpp:148] Top shape: 128 3 64 64 (1572864)
I0727 10:34:24.256561 22473 net.cpp:156] Memory required for data: 899679744
I0727 10:34:24.256569 22473 layer_factory.hpp:77] Creating layer c24
I0727 10:34:24.256582 22473 net.cpp:91] Creating Layer c24
I0727 10:34:24.256590 22473 net.cpp:425] c24 <- i2_i1_1_split_4
I0727 10:34:24.256602 22473 net.cpp:425] c24 <- Input13
I0727 10:34:24.256615 22473 net.cpp:399] c24 -> c24
I0727 10:34:24.256656 22473 net.cpp:141] Setting up c24
I0727 10:34:24.256670 22473 net.cpp:148] Top shape: 128 3 64 64 (1572864)
I0727 10:34:24.256678 22473 net.cpp:156] Memory required for data: 905971200
I0727 10:34:24.256686 22473 layer_factory.hpp:77] Creating layer Input14
I0727 10:34:24.256698 22473 net.cpp:91] Creating Layer Input14
I0727 10:34:24.256710 22473 net.cpp:399] Input14 -> Input14
I0727 10:34:24.256747 22473 net.cpp:141] Setting up Input14
I0727 10:34:24.256762 22473 net.cpp:148] Top shape: 128 3 64 64 (1572864)
I0727 10:34:24.256769 22473 net.cpp:156] Memory required for data: 912262656
I0727 10:34:24.256778 22473 layer_factory.hpp:77] Creating layer c25
I0727 10:34:24.256789 22473 net.cpp:91] Creating Layer c25
I0727 10:34:24.256815 22473 net.cpp:425] c25 <- i2_i1_1_split_5
I0727 10:34:24.256829 22473 net.cpp:425] c25 <- Input14
I0727 10:34:24.256851 22473 net.cpp:399] c25 -> c25
I0727 10:34:24.256916 22473 net.cpp:141] Setting up c25
I0727 10:34:24.256932 22473 net.cpp:148] Top shape: 128 3 64 64 (1572864)
I0727 10:34:24.256939 22473 net.cpp:156] Memory required for data: 918554112
I0727 10:34:24.256947 22473 layer_factory.hpp:77] Creating layer Input15
I0727 10:34:24.256960 22473 net.cpp:91] Creating Layer Input15
I0727 10:34:24.256971 22473 net.cpp:399] Input15 -> Input15
I0727 10:34:24.257014 22473 net.cpp:141] Setting up Input15
I0727 10:34:24.257028 22473 net.cpp:148] Top shape: 128 3 64 64 (1572864)
I0727 10:34:24.257036 22473 net.cpp:156] Memory required for data: 924845568
I0727 10:34:24.257045 22473 layer_factory.hpp:77] Creating layer c26
I0727 10:34:24.257056 22473 net.cpp:91] Creating Layer c26
I0727 10:34:24.257066 22473 net.cpp:425] c26 <- i2_i1_1_split_6
I0727 10:34:24.257077 22473 net.cpp:425] c26 <- Input15
I0727 10:34:24.257091 22473 net.cpp:399] c26 -> c26
I0727 10:34:24.257131 22473 net.cpp:141] Setting up c26
I0727 10:34:24.257145 22473 net.cpp:148] Top shape: 128 3 64 64 (1572864)
I0727 10:34:24.257154 22473 net.cpp:156] Memory required for data: 931137024
I0727 10:34:24.257163 22473 layer_factory.hpp:77] Creating layer Input16
I0727 10:34:24.257174 22473 net.cpp:91] Creating Layer Input16
I0727 10:34:24.257185 22473 net.cpp:399] Input16 -> Input16
I0727 10:34:24.257225 22473 net.cpp:141] Setting up Input16
I0727 10:34:24.257238 22473 net.cpp:148] Top shape: 128 3 64 64 (1572864)
I0727 10:34:24.257246 22473 net.cpp:156] Memory required for data: 937428480
I0727 10:34:24.257254 22473 layer_factory.hpp:77] Creating layer c27
I0727 10:34:24.257266 22473 net.cpp:91] Creating Layer c27
I0727 10:34:24.257279 22473 net.cpp:425] c27 <- i2_i1_1_split_7
I0727 10:34:24.257294 22473 net.cpp:425] c27 <- Input16
I0727 10:34:24.257320 22473 net.cpp:399] c27 -> c27
I0727 10:34:24.257375 22473 net.cpp:141] Setting up c27
I0727 10:34:24.257390 22473 net.cpp:148] Top shape: 128 3 64 64 (1572864)
I0727 10:34:24.257397 22473 net.cpp:156] Memory required for data: 943719936
I0727 10:34:24.257406 22473 layer_factory.hpp:77] Creating layer Input17
I0727 10:34:24.257418 22473 net.cpp:91] Creating Layer Input17
I0727 10:34:24.257429 22473 net.cpp:399] Input17 -> Input17
I0727 10:34:24.257468 22473 net.cpp:141] Setting up Input17
I0727 10:34:24.257483 22473 net.cpp:148] Top shape: 128 3 64 64 (1572864)
I0727 10:34:24.257491 22473 net.cpp:156] Memory required for data: 950011392
I0727 10:34:24.257499 22473 layer_factory.hpp:77] Creating layer c28
I0727 10:34:24.257511 22473 net.cpp:91] Creating Layer c28
I0727 10:34:24.257520 22473 net.cpp:425] c28 <- i2_i1_1_split_8
I0727 10:34:24.257531 22473 net.cpp:425] c28 <- Input17
I0727 10:34:24.257544 22473 net.cpp:399] c28 -> c28
I0727 10:34:24.257586 22473 net.cpp:141] Setting up c28
I0727 10:34:24.257599 22473 net.cpp:148] Top shape: 128 3 64 64 (1572864)
I0727 10:34:24.257608 22473 net.cpp:156] Memory required for data: 956302848
I0727 10:34:24.257616 22473 layer_factory.hpp:77] Creating layer Input18
I0727 10:34:24.257628 22473 net.cpp:91] Creating Layer Input18
I0727 10:34:24.257639 22473 net.cpp:399] Input18 -> Input18
I0727 10:34:24.257678 22473 net.cpp:141] Setting up Input18
I0727 10:34:24.257691 22473 net.cpp:148] Top shape: 128 3 64 64 (1572864)
I0727 10:34:24.257700 22473 net.cpp:156] Memory required for data: 962594304
I0727 10:34:24.257709 22473 layer_factory.hpp:77] Creating layer c29
I0727 10:34:24.257726 22473 net.cpp:91] Creating Layer c29
I0727 10:34:24.257741 22473 net.cpp:425] c29 <- i2_i1_1_split_9
I0727 10:34:24.257761 22473 net.cpp:425] c29 <- Input18
I0727 10:34:24.257788 22473 net.cpp:399] c29 -> c29
I0727 10:34:24.257834 22473 net.cpp:141] Setting up c29
I0727 10:34:24.257848 22473 net.cpp:148] Top shape: 128 3 64 64 (1572864)
I0727 10:34:24.257858 22473 net.cpp:156] Memory required for data: 968885760
I0727 10:34:24.257865 22473 layer_factory.hpp:77] Creating layer Convolution1
I0727 10:34:24.257907 22473 net.cpp:91] Creating Layer Convolution1
I0727 10:34:24.257920 22473 net.cpp:425] Convolution1 <- p1_p1_0_split_0
I0727 10:34:24.257935 22473 net.cpp:399] Convolution1 -> Convolution1
I0727 10:34:24.260380 22473 net.cpp:141] Setting up Convolution1
I0727 10:34:24.260427 22473 net.cpp:148] Top shape: 128 20 60 60 (9216000)
I0727 10:34:24.260447 22473 net.cpp:156] Memory required for data: 1005749760
I0727 10:34:24.260478 22473 layer_factory.hpp:77] Creating layer Pooling1
I0727 10:34:24.260494 22473 net.cpp:91] Creating Layer Pooling1
I0727 10:34:24.260507 22473 net.cpp:425] Pooling1 <- Convolution1
I0727 10:34:24.260522 22473 net.cpp:399] Pooling1 -> Pooling1
I0727 10:34:24.260596 22473 net.cpp:141] Setting up Pooling1
I0727 10:34:24.260610 22473 net.cpp:148] Top shape: 128 20 30 30 (2304000)
I0727 10:34:24.260619 22473 net.cpp:156] Memory required for data: 1014965760
I0727 10:34:24.260627 22473 layer_factory.hpp:77] Creating layer Convolution2
I0727 10:34:24.260644 22473 net.cpp:91] Creating Layer Convolution2
I0727 10:34:24.260656 22473 net.cpp:425] Convolution2 <- Pooling1
I0727 10:34:24.260671 22473 net.cpp:399] Convolution2 -> Convolution2
I0727 10:34:24.263284 22473 net.cpp:141] Setting up Convolution2
I0727 10:34:24.263317 22473 net.cpp:148] Top shape: 128 50 26 26 (4326400)
I0727 10:34:24.263329 22473 net.cpp:156] Memory required for data: 1032271360
I0727 10:34:24.263353 22473 layer_factory.hpp:77] Creating layer Pooling2
I0727 10:34:24.263375 22473 net.cpp:91] Creating Layer Pooling2
I0727 10:34:24.263393 22473 net.cpp:425] Pooling2 <- Convolution2
I0727 10:34:24.263416 22473 net.cpp:399] Pooling2 -> Pooling2
I0727 10:34:24.263519 22473 net.cpp:141] Setting up Pooling2
I0727 10:34:24.263535 22473 net.cpp:148] Top shape: 128 50 13 13 (1081600)
I0727 10:34:24.263546 22473 net.cpp:156] Memory required for data: 1036597760
I0727 10:34:24.263556 22473 layer_factory.hpp:77] Creating layer InnerProduct1
I0727 10:34:24.264143 22473 net.cpp:91] Creating Layer InnerProduct1
I0727 10:34:24.264178 22473 net.cpp:425] InnerProduct1 <- Pooling2
I0727 10:34:24.264199 22473 net.cpp:399] InnerProduct1 -> InnerProduct1
I0727 10:34:24.310853 22473 net.cpp:141] Setting up InnerProduct1
I0727 10:34:24.310895 22473 net.cpp:148] Top shape: 128 500 (64000)
I0727 10:34:24.310904 22473 net.cpp:156] Memory required for data: 1036853760
I0727 10:34:24.310930 22473 layer_factory.hpp:77] Creating layer ReLU1
I0727 10:34:24.310945 22473 net.cpp:91] Creating Layer ReLU1
I0727 10:34:24.310955 22473 net.cpp:425] ReLU1 <- InnerProduct1
I0727 10:34:24.310971 22473 net.cpp:386] ReLU1 -> InnerProduct1 (in-place)
I0727 10:34:24.310993 22473 net.cpp:141] Setting up ReLU1
I0727 10:34:24.311005 22473 net.cpp:148] Top shape: 128 500 (64000)
I0727 10:34:24.311014 22473 net.cpp:156] Memory required for data: 1037109760
I0727 10:34:24.311022 22473 layer_factory.hpp:77] Creating layer InnerProduct2
I0727 10:34:24.312664 22473 net.cpp:91] Creating Layer InnerProduct2
I0727 10:34:24.312679 22473 net.cpp:425] InnerProduct2 <- InnerProduct1
I0727 10:34:24.312693 22473 net.cpp:399] InnerProduct2 -> InnerProduct2
I0727 10:34:24.323231 22473 net.cpp:141] Setting up InnerProduct2
I0727 10:34:24.323279 22473 net.cpp:148] Top shape: 128 500 (64000)
I0727 10:34:24.323298 22473 net.cpp:156] Memory required for data: 1037365760
I0727 10:34:24.323328 22473 layer_factory.hpp:77] Creating layer Convolution3
I0727 10:34:24.323377 22473 net.cpp:91] Creating Layer Convolution3
I0727 10:34:24.323397 22473 net.cpp:425] Convolution3 <- p2_p2_0_split_0
I0727 10:34:24.323429 22473 net.cpp:399] Convolution3 -> Convolution3
I0727 10:34:24.324266 22473 net.cpp:141] Setting up Convolution3
I0727 10:34:24.324301 22473 net.cpp:148] Top shape: 128 20 60 60 (9216000)
I0727 10:34:24.324318 22473 net.cpp:156] Memory required for data: 1074229760
I0727 10:34:24.324347 22473 net.cpp:484] Sharing parameters 'conv1_w' owned by layer 'Convolution1', param index 0
I0727 10:34:24.324369 22473 net.cpp:484] Sharing parameters 'conv1_b' owned by layer 'Convolution1', param index 1
I0727 10:34:24.324427 22473 layer_factory.hpp:77] Creating layer Pooling3
I0727 10:34:24.324461 22473 net.cpp:91] Creating Layer Pooling3
I0727 10:34:24.324481 22473 net.cpp:425] Pooling3 <- Convolution3
I0727 10:34:24.324509 22473 net.cpp:399] Pooling3 -> Pooling3
I0727 10:34:24.324636 22473 net.cpp:141] Setting up Pooling3
I0727 10:34:24.324666 22473 net.cpp:148] Top shape: 128 20 30 30 (2304000)
I0727 10:34:24.324683 22473 net.cpp:156] Memory required for data: 1083445760
I0727 10:34:24.324699 22473 layer_factory.hpp:77] Creating layer Convolution4
I0727 10:34:24.324738 22473 net.cpp:91] Creating Layer Convolution4
I0727 10:34:24.324757 22473 net.cpp:425] Convolution4 <- Pooling3
I0727 10:34:24.324800 22473 net.cpp:399] Convolution4 -> Convolution4
I0727 10:34:24.325904 22473 net.cpp:141] Setting up Convolution4
I0727 10:34:24.325934 22473 net.cpp:148] Top shape: 128 50 26 26 (4326400)
I0727 10:34:24.325953 22473 net.cpp:156] Memory required for data: 1100751360
I0727 10:34:24.325970 22473 net.cpp:484] Sharing parameters 'conv2_w' owned by layer 'Convolution2', param index 0
I0727 10:34:24.325990 22473 net.cpp:484] Sharing parameters 'conv2_b' owned by layer 'Convolution2', param index 1
I0727 10:34:24.326007 22473 layer_factory.hpp:77] Creating layer Pooling4
I0727 10:34:24.326031 22473 net.cpp:91] Creating Layer Pooling4
I0727 10:34:24.326050 22473 net.cpp:425] Pooling4 <- Convolution4
I0727 10:34:24.326082 22473 net.cpp:399] Pooling4 -> Pooling4
I0727 10:34:24.326197 22473 net.cpp:141] Setting up Pooling4
I0727 10:34:24.326226 22473 net.cpp:148] Top shape: 128 50 13 13 (1081600)
I0727 10:34:24.326243 22473 net.cpp:156] Memory required for data: 1105077760
I0727 10:34:24.326261 22473 layer_factory.hpp:77] Creating layer InnerProduct3
I0727 10:34:24.326292 22473 net.cpp:91] Creating Layer InnerProduct3
I0727 10:34:24.326311 22473 net.cpp:425] InnerProduct3 <- Pooling4
I0727 10:34:24.326339 22473 net.cpp:399] InnerProduct3 -> InnerProduct3
I0727 10:34:24.372740 22473 net.cpp:141] Setting up InnerProduct3
I0727 10:34:24.372783 22473 net.cpp:148] Top shape: 128 500 (64000)
I0727 10:34:24.372792 22473 net.cpp:156] Memory required for data: 1105333760
I0727 10:34:24.372807 22473 net.cpp:484] Sharing parameters 'ip1_w' owned by layer 'InnerProduct1', param index 0
I0727 10:34:24.372818 22473 net.cpp:484] Sharing parameters 'ip1_b' owned by layer 'InnerProduct1', param index 1
I0727 10:34:24.372828 22473 layer_factory.hpp:77] Creating layer ReLU2
I0727 10:34:24.372848 22473 net.cpp:91] Creating Layer ReLU2
I0727 10:34:24.372860 22473 net.cpp:425] ReLU2 <- InnerProduct3
I0727 10:34:24.372874 22473 net.cpp:386] ReLU2 -> InnerProduct3 (in-place)
I0727 10:34:24.372894 22473 net.cpp:141] Setting up ReLU2
I0727 10:34:24.372905 22473 net.cpp:148] Top shape: 128 500 (64000)
I0727 10:34:24.372912 22473 net.cpp:156] Memory required for data: 1105589760
I0727 10:34:24.372920 22473 layer_factory.hpp:77] Creating layer InnerProduct4
I0727 10:34:24.372934 22473 net.cpp:91] Creating Layer InnerProduct4
I0727 10:34:24.372943 22473 net.cpp:425] InnerProduct4 <- InnerProduct3
I0727 10:34:24.372956 22473 net.cpp:399] InnerProduct4 -> InnerProduct4
I0727 10:34:24.375783 22473 net.cpp:141] Setting up InnerProduct4
I0727 10:34:24.375859 22473 net.cpp:148] Top shape: 128 500 (64000)
I0727 10:34:24.375888 22473 net.cpp:156] Memory required for data: 1105845760
I0727 10:34:24.375919 22473 net.cpp:484] Sharing parameters 'ip2_w' owned by layer 'InnerProduct2', param index 0
I0727 10:34:24.375951 22473 net.cpp:484] Sharing parameters 'ip2_b' owned by layer 'InnerProduct2', param index 1
I0727 10:34:24.375978 22473 layer_factory.hpp:77] Creating layer Concat1
I0727 10:34:24.376444 22473 net.cpp:91] Creating Layer Concat1
I0727 10:34:24.376462 22473 net.cpp:425] Concat1 <- InnerProduct2
I0727 10:34:24.376477 22473 net.cpp:425] Concat1 <- InnerProduct4
I0727 10:34:24.376489 22473 net.cpp:399] Concat1 -> Concat1
I0727 10:34:24.376534 22473 net.cpp:141] Setting up Concat1
I0727 10:34:24.376550 22473 net.cpp:148] Top shape: 128 1000 (128000)
I0727 10:34:24.376580 22473 net.cpp:156] Memory required for data: 1106357760
I0727 10:34:24.376590 22473 layer_factory.hpp:77] Creating layer InnerProduct5
I0727 10:34:24.376602 22473 net.cpp:91] Creating Layer InnerProduct5
I0727 10:34:24.376611 22473 net.cpp:425] InnerProduct5 <- Concat1
I0727 10:34:24.376627 22473 net.cpp:399] InnerProduct5 -> InnerProduct5
I0727 10:34:24.382001 22473 net.cpp:141] Setting up InnerProduct5
I0727 10:34:24.387434 22473 net.cpp:148] Top shape: 128 512 (65536)
I0727 10:34:24.387451 22473 net.cpp:156] Memory required for data: 1106619904
I0727 10:34:24.387476 22473 layer_factory.hpp:77] Creating layer ReLU3
I0727 10:34:24.387497 22473 net.cpp:91] Creating Layer ReLU3
I0727 10:34:24.387508 22473 net.cpp:425] ReLU3 <- InnerProduct5
I0727 10:34:24.387521 22473 net.cpp:386] ReLU3 -> InnerProduct5 (in-place)
I0727 10:34:24.387534 22473 net.cpp:141] Setting up ReLU3
I0727 10:34:24.387544 22473 net.cpp:148] Top shape: 128 512 (65536)
I0727 10:34:24.387552 22473 net.cpp:156] Memory required for data: 1106882048
I0727 10:34:24.387559 22473 layer_factory.hpp:77] Creating layer InnerProduct6
I0727 10:34:24.387578 22473 net.cpp:91] Creating Layer InnerProduct6
I0727 10:34:24.387585 22473 net.cpp:425] InnerProduct6 <- InnerProduct5
I0727 10:34:24.387598 22473 net.cpp:399] InnerProduct6 -> InnerProduct6
I0727 10:34:24.397044 22473 net.cpp:141] Setting up InnerProduct6
I0727 10:34:24.397074 22473 net.cpp:148] Top shape: 128 512 (65536)
I0727 10:34:24.397081 22473 net.cpp:156] Memory required for data: 1107144192
I0727 10:34:24.397099 22473 layer_factory.hpp:77] Creating layer ReLU4
I0727 10:34:24.397152 22473 net.cpp:91] Creating Layer ReLU4
I0727 10:34:24.397184 22473 net.cpp:425] ReLU4 <- InnerProduct6
I0727 10:34:24.397218 22473 net.cpp:386] ReLU4 -> InnerProduct6 (in-place)
I0727 10:34:24.397253 22473 net.cpp:141] Setting up ReLU4
I0727 10:34:24.397282 22473 net.cpp:148] Top shape: 128 512 (65536)
I0727 10:34:24.397306 22473 net.cpp:156] Memory required for data: 1107406336
I0727 10:34:24.397332 22473 layer_factory.hpp:77] Creating layer dt0
I0727 10:34:24.397387 22473 net.cpp:91] Creating Layer dt0
I0727 10:34:24.397397 22473 net.cpp:425] dt0 <- InnerProduct6
I0727 10:34:24.397413 22473 net.cpp:399] dt0 -> dt0
I0727 10:34:24.397572 22473 net.cpp:141] Setting up dt0
I0727 10:34:24.397584 22473 net.cpp:148] Top shape: 128 1 (128)
I0727 10:34:24.397591 22473 net.cpp:156] Memory required for data: 1107406848
I0727 10:34:24.397601 22473 layer_factory.hpp:77] Creating layer Convolution5
I0727 10:34:24.397619 22473 net.cpp:91] Creating Layer Convolution5
I0727 10:34:24.397627 22473 net.cpp:425] Convolution5 <- p1_p1_0_split_1
I0727 10:34:24.397644 22473 net.cpp:399] Convolution5 -> Convolution5
I0727 10:34:24.398010 22473 net.cpp:141] Setting up Convolution5
I0727 10:34:24.398023 22473 net.cpp:148] Top shape: 128 20 60 60 (9216000)
I0727 10:34:24.398030 22473 net.cpp:156] Memory required for data: 1144270848
I0727 10:34:24.398037 22473 net.cpp:484] Sharing parameters 'conv1_w' owned by layer 'Convolution1', param index 0
I0727 10:34:24.398046 22473 net.cpp:484] Sharing parameters 'conv1_b' owned by layer 'Convolution1', param index 1
I0727 10:34:24.398053 22473 layer_factory.hpp:77] Creating layer Pooling5
I0727 10:34:24.398063 22473 net.cpp:91] Creating Layer Pooling5
I0727 10:34:24.398071 22473 net.cpp:425] Pooling5 <- Convolution5
I0727 10:34:24.398083 22473 net.cpp:399] Pooling5 -> Pooling5
I0727 10:34:24.398136 22473 net.cpp:141] Setting up Pooling5
I0727 10:34:24.398147 22473 net.cpp:148] Top shape: 128 20 30 30 (2304000)
I0727 10:34:24.398154 22473 net.cpp:156] Memory required for data: 1153486848
I0727 10:34:24.398160 22473 layer_factory.hpp:77] Creating layer Convolution6
I0727 10:34:24.398175 22473 net.cpp:91] Creating Layer Convolution6
I0727 10:34:24.398182 22473 net.cpp:425] Convolution6 <- Pooling5
I0727 10:34:24.398195 22473 net.cpp:399] Convolution6 -> Convolution6
I0727 10:34:24.398746 22473 net.cpp:141] Setting up Convolution6
I0727 10:34:24.398758 22473 net.cpp:148] Top shape: 128 50 26 26 (4326400)
I0727 10:34:24.398789 22473 net.cpp:156] Memory required for data: 1170792448
I0727 10:34:24.398797 22473 net.cpp:484] Sharing parameters 'conv2_w' owned by layer 'Convolution2', param index 0
I0727 10:34:24.398805 22473 net.cpp:484] Sharing parameters 'conv2_b' owned by layer 'Convolution2', param index 1
I0727 10:34:24.398813 22473 layer_factory.hpp:77] Creating layer Pooling6
I0727 10:34:24.398821 22473 net.cpp:91] Creating Layer Pooling6
I0727 10:34:24.398828 22473 net.cpp:425] Pooling6 <- Convolution6
I0727 10:34:24.398841 22473 net.cpp:399] Pooling6 -> Pooling6
I0727 10:34:24.398893 22473 net.cpp:141] Setting up Pooling6
I0727 10:34:24.398937 22473 net.cpp:148] Top shape: 128 50 13 13 (1081600)
I0727 10:34:24.398962 22473 net.cpp:156] Memory required for data: 1175118848
I0727 10:34:24.399014 22473 layer_factory.hpp:77] Creating layer InnerProduct7
I0727 10:34:24.399050 22473 net.cpp:91] Creating Layer InnerProduct7
I0727 10:34:24.399087 22473 net.cpp:425] InnerProduct7 <- Pooling6
I0727 10:34:24.399119 22473 net.cpp:399] InnerProduct7 -> InnerProduct7
I0727 10:34:24.445384 22473 net.cpp:141] Setting up InnerProduct7
I0727 10:34:24.445516 22473 net.cpp:148] Top shape: 128 500 (64000)
I0727 10:34:24.445544 22473 net.cpp:156] Memory required for data: 1175374848
I0727 10:34:24.445572 22473 net.cpp:484] Sharing parameters 'ip1_w' owned by layer 'InnerProduct1', param index 0
I0727 10:34:24.445601 22473 net.cpp:484] Sharing parameters 'ip1_b' owned by layer 'InnerProduct1', param index 1
I0727 10:34:24.445636 22473 layer_factory.hpp:77] Creating layer ReLU5
I0727 10:34:24.445667 22473 net.cpp:91] Creating Layer ReLU5
I0727 10:34:24.445694 22473 net.cpp:425] ReLU5 <- InnerProduct7
I0727 10:34:24.445730 22473 net.cpp:386] ReLU5 -> InnerProduct7 (in-place)
I0727 10:34:24.445763 22473 net.cpp:141] Setting up ReLU5
I0727 10:34:24.445794 22473 net.cpp:148] Top shape: 128 500 (64000)
I0727 10:34:24.445817 22473 net.cpp:156] Memory required for data: 1175630848
I0727 10:34:24.445842 22473 layer_factory.hpp:77] Creating layer InnerProduct8
I0727 10:34:24.445873 22473 net.cpp:91] Creating Layer InnerProduct8
I0727 10:34:24.445897 22473 net.cpp:425] InnerProduct8 <- InnerProduct7
I0727 10:34:24.445930 22473 net.cpp:399] InnerProduct8 -> InnerProduct8
I0727 10:34:24.448956 22473 net.cpp:141] Setting up InnerProduct8
I0727 10:34:24.448978 22473 net.cpp:148] Top shape: 128 500 (64000)
I0727 10:34:24.448985 22473 net.cpp:156] Memory required for data: 1175886848
I0727 10:34:24.448994 22473 net.cpp:484] Sharing parameters 'ip2_w' owned by layer 'InnerProduct2', param index 0
I0727 10:34:24.449003 22473 net.cpp:484] Sharing parameters 'ip2_b' owned by layer 'InnerProduct2', param index 1
I0727 10:34:24.449010 22473 layer_factory.hpp:77] Creating layer Convolution7
I0727 10:34:24.449033 22473 net.cpp:91] Creating Layer Convolution7
I0727 10:34:24.449040 22473 net.cpp:425] Convolution7 <- c21
I0727 10:34:24.449056 22473 net.cpp:399] Convolution7 -> Convolution7
I0727 10:34:24.449439 22473 net.cpp:141] Setting up Convolution7
I0727 10:34:24.449452 22473 net.cpp:148] Top shape: 128 20 60 60 (9216000)
I0727 10:34:24.449460 22473 net.cpp:156] Memory required for data: 1212750848
I0727 10:34:24.449466 22473 net.cpp:484] Sharing parameters 'conv1_w' owned by layer 'Convolution1', param index 0
I0727 10:34:24.449475 22473 net.cpp:484] Sharing parameters 'conv1_b' owned by layer 'Convolution1', param index 1
I0727 10:34:24.449481 22473 layer_factory.hpp:77] Creating layer Pooling7
I0727 10:34:24.449492 22473 net.cpp:91] Creating Layer Pooling7
I0727 10:34:24.449499 22473 net.cpp:425] Pooling7 <- Convolution7
I0727 10:34:24.449512 22473 net.cpp:399] Pooling7 -> Pooling7
I0727 10:34:24.449565 22473 net.cpp:141] Setting up Pooling7
I0727 10:34:24.449576 22473 net.cpp:148] Top shape: 128 20 30 30 (2304000)
I0727 10:34:24.449582 22473 net.cpp:156] Memory required for data: 1221966848
I0727 10:34:24.449589 22473 layer_factory.hpp:77] Creating layer Convolution8
I0727 10:34:24.449607 22473 net.cpp:91] Creating Layer Convolution8
I0727 10:34:24.449641 22473 net.cpp:425] Convolution8 <- Pooling7
I0727 10:34:24.449656 22473 net.cpp:399] Convolution8 -> Convolution8
I0727 10:34:24.450214 22473 net.cpp:141] Setting up Convolution8
I0727 10:34:24.450227 22473 net.cpp:148] Top shape: 128 50 26 26 (4326400)
I0727 10:34:24.450233 22473 net.cpp:156] Memory required for data: 1239272448
I0727 10:34:24.450254 22473 net.cpp:484] Sharing parameters 'conv2_w' owned by layer 'Convolution2', param index 0
I0727 10:34:24.450263 22473 net.cpp:484] Sharing parameters 'conv2_b' owned by layer 'Convolution2', param index 1
I0727 10:34:24.450270 22473 layer_factory.hpp:77] Creating layer Pooling8
I0727 10:34:24.450284 22473 net.cpp:91] Creating Layer Pooling8
I0727 10:34:24.450290 22473 net.cpp:425] Pooling8 <- Convolution8
I0727 10:34:24.450300 22473 net.cpp:399] Pooling8 -> Pooling8
I0727 10:34:24.450351 22473 net.cpp:141] Setting up Pooling8
I0727 10:34:24.450366 22473 net.cpp:148] Top shape: 128 50 13 13 (1081600)
I0727 10:34:24.450372 22473 net.cpp:156] Memory required for data: 1243598848
I0727 10:34:24.450378 22473 layer_factory.hpp:77] Creating layer InnerProduct9
I0727 10:34:24.450389 22473 net.cpp:91] Creating Layer InnerProduct9
I0727 10:34:24.450397 22473 net.cpp:425] InnerProduct9 <- Pooling8
I0727 10:34:24.450412 22473 net.cpp:399] InnerProduct9 -> InnerProduct9
I0727 10:34:24.495610 22473 net.cpp:141] Setting up InnerProduct9
I0727 10:34:24.495643 22473 net.cpp:148] Top shape: 128 500 (64000)
I0727 10:34:24.495651 22473 net.cpp:156] Memory required for data: 1243854848
I0727 10:34:24.495662 22473 net.cpp:484] Sharing parameters 'ip1_w' owned by layer 'InnerProduct1', param index 0
I0727 10:34:24.495671 22473 net.cpp:484] Sharing parameters 'ip1_b' owned by layer 'InnerProduct1', param index 1
I0727 10:34:24.495677 22473 layer_factory.hpp:77] Creating layer ReLU6
I0727 10:34:24.495693 22473 net.cpp:91] Creating Layer ReLU6
I0727 10:34:24.495702 22473 net.cpp:425] ReLU6 <- InnerProduct9
I0727 10:34:24.495712 22473 net.cpp:386] ReLU6 -> InnerProduct9 (in-place)
I0727 10:34:24.495726 22473 net.cpp:141] Setting up ReLU6
I0727 10:34:24.495735 22473 net.cpp:148] Top shape: 128 500 (64000)
I0727 10:34:24.495740 22473 net.cpp:156] Memory required for data: 1244110848
I0727 10:34:24.495746 22473 layer_factory.hpp:77] Creating layer InnerProduct10
I0727 10:34:24.495759 22473 net.cpp:91] Creating Layer InnerProduct10
I0727 10:34:24.495764 22473 net.cpp:425] InnerProduct10 <- InnerProduct9
I0727 10:34:24.495779 22473 net.cpp:399] InnerProduct10 -> InnerProduct10
I0727 10:34:24.498448 22473 net.cpp:141] Setting up InnerProduct10
I0727 10:34:24.498467 22473 net.cpp:148] Top shape: 128 500 (64000)
I0727 10:34:24.498476 22473 net.cpp:156] Memory required for data: 1244366848
I0727 10:34:24.498497 22473 net.cpp:484] Sharing parameters 'ip2_w' owned by layer 'InnerProduct2', param index 0
I0727 10:34:24.498508 22473 net.cpp:484] Sharing parameters 'ip2_b' owned by layer 'InnerProduct2', param index 1
I0727 10:34:24.498517 22473 layer_factory.hpp:77] Creating layer Concat2
I0727 10:34:24.498529 22473 net.cpp:91] Creating Layer Concat2
I0727 10:34:24.498538 22473 net.cpp:425] Concat2 <- InnerProduct8
I0727 10:34:24.498548 22473 net.cpp:425] Concat2 <- InnerProduct10
I0727 10:34:24.498561 22473 net.cpp:399] Concat2 -> Concat2
I0727 10:34:24.498594 22473 net.cpp:141] Setting up Concat2
I0727 10:34:24.498608 22473 net.cpp:148] Top shape: 128 1000 (128000)
I0727 10:34:24.498616 22473 net.cpp:156] Memory required for data: 1244878848
I0727 10:34:24.498623 22473 layer_factory.hpp:77] Creating layer InnerProduct11
I0727 10:34:24.498639 22473 net.cpp:91] Creating Layer InnerProduct11
I0727 10:34:24.498647 22473 net.cpp:425] InnerProduct11 <- Concat2
I0727 10:34:24.498662 22473 net.cpp:399] InnerProduct11 -> InnerProduct11
I0727 10:34:24.503722 22473 net.cpp:141] Setting up InnerProduct11
I0727 10:34:24.503744 22473 net.cpp:148] Top shape: 128 512 (65536)
I0727 10:34:24.503752 22473 net.cpp:156] Memory required for data: 1245140992
I0727 10:34:24.503769 22473 net.cpp:484] Sharing parameters 'fc1_w' owned by layer 'InnerProduct5', param index 0
I0727 10:34:24.503799 22473 net.cpp:484] Sharing parameters 'fc1_b' owned by layer 'InnerProduct5', param index 1
I0727 10:34:24.503808 22473 layer_factory.hpp:77] Creating layer ReLU7
I0727 10:34:24.503828 22473 net.cpp:91] Creating Layer ReLU7
I0727 10:34:24.503836 22473 net.cpp:425] ReLU7 <- InnerProduct11
I0727 10:34:24.503849 22473 net.cpp:386] ReLU7 -> InnerProduct11 (in-place)
I0727 10:34:24.503861 22473 net.cpp:141] Setting up ReLU7
I0727 10:34:24.503871 22473 net.cpp:148] Top shape: 128 512 (65536)
I0727 10:34:24.503880 22473 net.cpp:156] Memory required for data: 1245403136
I0727 10:34:24.503886 22473 layer_factory.hpp:77] Creating layer InnerProduct12
I0727 10:34:24.503903 22473 net.cpp:91] Creating Layer InnerProduct12
I0727 10:34:24.503911 22473 net.cpp:425] InnerProduct12 <- InnerProduct11
I0727 10:34:24.503923 22473 net.cpp:399] InnerProduct12 -> InnerProduct12
I0727 10:34:24.506625 22473 net.cpp:141] Setting up InnerProduct12
I0727 10:34:24.506645 22473 net.cpp:148] Top shape: 128 512 (65536)
I0727 10:34:24.506654 22473 net.cpp:156] Memory required for data: 1245665280
I0727 10:34:24.506664 22473 net.cpp:484] Sharing parameters 'fc2_w' owned by layer 'InnerProduct6', param index 0
I0727 10:34:24.506674 22473 net.cpp:484] Sharing parameters 'fc2_b' owned by layer 'InnerProduct6', param index 1
I0727 10:34:24.506680 22473 layer_factory.hpp:77] Creating layer ReLU8
I0727 10:34:24.506692 22473 net.cpp:91] Creating Layer ReLU8
I0727 10:34:24.506700 22473 net.cpp:425] ReLU8 <- InnerProduct12
I0727 10:34:24.506716 22473 net.cpp:386] ReLU8 -> InnerProduct12 (in-place)
I0727 10:34:24.506729 22473 net.cpp:141] Setting up ReLU8
I0727 10:34:24.506739 22473 net.cpp:148] Top shape: 128 512 (65536)
I0727 10:34:24.506747 22473 net.cpp:156] Memory required for data: 1245927424
I0727 10:34:24.506754 22473 layer_factory.hpp:77] Creating layer dt1
I0727 10:34:24.506767 22473 net.cpp:91] Creating Layer dt1
I0727 10:34:24.506774 22473 net.cpp:425] dt1 <- InnerProduct12
I0727 10:34:24.506790 22473 net.cpp:399] dt1 -> dt1
I0727 10:34:24.506935 22473 net.cpp:141] Setting up dt1
I0727 10:34:24.506950 22473 net.cpp:148] Top shape: 128 1 (128)
I0727 10:34:24.506958 22473 net.cpp:156] Memory required for data: 1245927936
I0727 10:34:24.506966 22473 net.cpp:484] Sharing parameters 'fc3_w' owned by layer 'dt0', param index 0
I0727 10:34:24.506976 22473 net.cpp:484] Sharing parameters 'fc3_b' owned by layer 'dt0', param index 1
I0727 10:34:24.506984 22473 layer_factory.hpp:77] Creating layer Convolution9
I0727 10:34:24.507001 22473 net.cpp:91] Creating Layer Convolution9
I0727 10:34:24.507009 22473 net.cpp:425] Convolution9 <- p1_p1_0_split_2
I0727 10:34:24.507030 22473 net.cpp:399] Convolution9 -> Convolution9
I0727 10:34:24.507390 22473 net.cpp:141] Setting up Convolution9
I0727 10:34:24.507405 22473 net.cpp:148] Top shape: 128 20 60 60 (9216000)
I0727 10:34:24.507412 22473 net.cpp:156] Memory required for data: 1282791936
I0727 10:34:24.507421 22473 net.cpp:484] Sharing parameters 'conv1_w' owned by layer 'Convolution1', param index 0
I0727 10:34:24.507429 22473 net.cpp:484] Sharing parameters 'conv1_b' owned by layer 'Convolution1', param index 1
I0727 10:34:24.507437 22473 layer_factory.hpp:77] Creating layer Pooling9
I0727 10:34:24.507449 22473 net.cpp:91] Creating Layer Pooling9
I0727 10:34:24.507457 22473 net.cpp:425] Pooling9 <- Convolution9
I0727 10:34:24.507472 22473 net.cpp:399] Pooling9 -> Pooling9
I0727 10:34:24.507527 22473 net.cpp:141] Setting up Pooling9
I0727 10:34:24.507541 22473 net.cpp:148] Top shape: 128 20 30 30 (2304000)
I0727 10:34:24.507550 22473 net.cpp:156] Memory required for data: 1292007936
I0727 10:34:24.507556 22473 layer_factory.hpp:77] Creating layer Convolution10
I0727 10:34:24.507576 22473 net.cpp:91] Creating Layer Convolution10
I0727 10:34:24.507587 22473 net.cpp:425] Convolution10 <- Pooling9
I0727 10:34:24.507601 22473 net.cpp:399] Convolution10 -> Convolution10
I0727 10:34:24.508118 22473 net.cpp:141] Setting up Convolution10
I0727 10:34:24.508144 22473 net.cpp:148] Top shape: 128 50 26 26 (4326400)
I0727 10:34:24.508152 22473 net.cpp:156] Memory required for data: 1309313536
I0727 10:34:24.508162 22473 net.cpp:484] Sharing parameters 'conv2_w' owned by layer 'Convolution2', param index 0
I0727 10:34:24.508170 22473 net.cpp:484] Sharing parameters 'conv2_b' owned by layer 'Convolution2', param index 1
I0727 10:34:24.508178 22473 layer_factory.hpp:77] Creating layer Pooling10
I0727 10:34:24.508193 22473 net.cpp:91] Creating Layer Pooling10
I0727 10:34:24.508200 22473 net.cpp:425] Pooling10 <- Convolution10
I0727 10:34:24.508211 22473 net.cpp:399] Pooling10 -> Pooling10
I0727 10:34:24.508266 22473 net.cpp:141] Setting up Pooling10
I0727 10:34:24.508280 22473 net.cpp:148] Top shape: 128 50 13 13 (1081600)
I0727 10:34:24.508287 22473 net.cpp:156] Memory required for data: 1313639936
I0727 10:34:24.508294 22473 layer_factory.hpp:77] Creating layer InnerProduct13
I0727 10:34:24.508306 22473 net.cpp:91] Creating Layer InnerProduct13
I0727 10:34:24.508314 22473 net.cpp:425] InnerProduct13 <- Pooling10
I0727 10:34:24.508329 22473 net.cpp:399] InnerProduct13 -> InnerProduct13
I0727 10:34:24.550456 22473 net.cpp:141] Setting up InnerProduct13
I0727 10:34:24.550503 22473 net.cpp:148] Top shape: 128 500 (64000)
I0727 10:34:24.550510 22473 net.cpp:156] Memory required for data: 1313895936
I0727 10:34:24.550521 22473 net.cpp:484] Sharing parameters 'ip1_w' owned by layer 'InnerProduct1', param index 0
I0727 10:34:24.550530 22473 net.cpp:484] Sharing parameters 'ip1_b' owned by layer 'InnerProduct1', param index 1
I0727 10:34:24.550537 22473 layer_factory.hpp:77] Creating layer ReLU9
I0727 10:34:24.550556 22473 net.cpp:91] Creating Layer ReLU9
I0727 10:34:24.550565 22473 net.cpp:425] ReLU9 <- InnerProduct13
I0727 10:34:24.550576 22473 net.cpp:386] ReLU9 -> InnerProduct13 (in-place)
I0727 10:34:24.550590 22473 net.cpp:141] Setting up ReLU9
I0727 10:34:24.550598 22473 net.cpp:148] Top shape: 128 500 (64000)
I0727 10:34:24.550603 22473 net.cpp:156] Memory required for data: 1314151936
I0727 10:34:24.550609 22473 layer_factory.hpp:77] Creating layer InnerProduct14
I0727 10:34:24.550621 22473 net.cpp:91] Creating Layer InnerProduct14
I0727 10:34:24.550626 22473 net.cpp:425] InnerProduct14 <- InnerProduct13
I0727 10:34:24.550638 22473 net.cpp:399] InnerProduct14 -> InnerProduct14
I0727 10:34:24.553304 22473 net.cpp:141] Setting up InnerProduct14
I0727 10:34:24.553331 22473 net.cpp:148] Top shape: 128 500 (64000)
I0727 10:34:24.553338 22473 net.cpp:156] Memory required for data: 1314407936
I0727 10:34:24.553344 22473 net.cpp:484] Sharing parameters 'ip2_w' owned by layer 'InnerProduct2', param index 0
I0727 10:34:24.553351 22473 net.cpp:484] Sharing parameters 'ip2_b' owned by layer 'InnerProduct2', param index 1
I0727 10:34:24.553357 22473 layer_factory.hpp:77] Creating layer Convolution11
I0727 10:34:24.553371 22473 net.cpp:91] Creating Layer Convolution11
I0727 10:34:24.553380 22473 net.cpp:425] Convolution11 <- c22
I0727 10:34:24.553401 22473 net.cpp:399] Convolution11 -> Convolution11
I0727 10:34:24.553747 22473 net.cpp:141] Setting up Convolution11
I0727 10:34:24.553758 22473 net.cpp:148] Top shape: 128 20 60 60 (9216000)
I0727 10:34:24.553764 22473 net.cpp:156] Memory required for data: 1351271936
I0727 10:34:24.553771 22473 net.cpp:484] Sharing parameters 'conv1_w' owned by layer 'Convolution1', param index 0
I0727 10:34:24.553777 22473 net.cpp:484] Sharing parameters 'conv1_b' owned by layer 'Convolution1', param index 1
I0727 10:34:24.553783 22473 layer_factory.hpp:77] Creating layer Pooling11
I0727 10:34:24.553793 22473 net.cpp:91] Creating Layer Pooling11
I0727 10:34:24.553799 22473 net.cpp:425] Pooling11 <- Convolution11
I0727 10:34:24.553810 22473 net.cpp:399] Pooling11 -> Pooling11
I0727 10:34:24.553859 22473 net.cpp:141] Setting up Pooling11
I0727 10:34:24.553867 22473 net.cpp:148] Top shape: 128 20 30 30 (2304000)
I0727 10:34:24.553872 22473 net.cpp:156] Memory required for data: 1360487936
I0727 10:34:24.553879 22473 layer_factory.hpp:77] Creating layer Convolution12
I0727 10:34:24.553920 22473 net.cpp:91] Creating Layer Convolution12
I0727 10:34:24.553925 22473 net.cpp:425] Convolution12 <- Pooling11
I0727 10:34:24.553936 22473 net.cpp:399] Convolution12 -> Convolution12
I0727 10:34:24.554452 22473 net.cpp:141] Setting up Convolution12
I0727 10:34:24.554466 22473 net.cpp:148] Top shape: 128 50 26 26 (4326400)
I0727 10:34:24.554471 22473 net.cpp:156] Memory required for data: 1377793536
I0727 10:34:24.554477 22473 net.cpp:484] Sharing parameters 'conv2_w' owned by layer 'Convolution2', param index 0
I0727 10:34:24.554484 22473 net.cpp:484] Sharing parameters 'conv2_b' owned by layer 'Convolution2', param index 1
I0727 10:34:24.554491 22473 layer_factory.hpp:77] Creating layer Pooling12
I0727 10:34:24.554498 22473 net.cpp:91] Creating Layer Pooling12
I0727 10:34:24.554504 22473 net.cpp:425] Pooling12 <- Convolution12
I0727 10:34:24.554513 22473 net.cpp:399] Pooling12 -> Pooling12
I0727 10:34:24.554560 22473 net.cpp:141] Setting up Pooling12
I0727 10:34:24.554569 22473 net.cpp:148] Top shape: 128 50 13 13 (1081600)
I0727 10:34:24.554574 22473 net.cpp:156] Memory required for data: 1382119936
I0727 10:34:24.554579 22473 layer_factory.hpp:77] Creating layer InnerProduct15
I0727 10:34:24.554589 22473 net.cpp:91] Creating Layer InnerProduct15
I0727 10:34:24.554594 22473 net.cpp:425] InnerProduct15 <- Pooling12
I0727 10:34:24.554606 22473 net.cpp:399] InnerProduct15 -> InnerProduct15
I0727 10:34:24.606546 22473 net.cpp:141] Setting up InnerProduct15
I0727 10:34:24.606595 22473 net.cpp:148] Top shape: 128 500 (64000)
I0727 10:34:24.606601 22473 net.cpp:156] Memory required for data: 1382375936
I0727 10:34:24.606611 22473 net.cpp:484] Sharing parameters 'ip1_w' owned by layer 'InnerProduct1', param index 0
I0727 10:34:24.606621 22473 net.cpp:484] Sharing parameters 'ip1_b' owned by layer 'InnerProduct1', param index 1
I0727 10:34:24.606627 22473 layer_factory.hpp:77] Creating layer ReLU10
I0727 10:34:24.606652 22473 net.cpp:91] Creating Layer ReLU10
I0727 10:34:24.606662 22473 net.cpp:425] ReLU10 <- InnerProduct15
I0727 10:34:24.606674 22473 net.cpp:386] ReLU10 -> InnerProduct15 (in-place)
I0727 10:34:24.606688 22473 net.cpp:141] Setting up ReLU10
I0727 10:34:24.606696 22473 net.cpp:148] Top shape: 128 500 (64000)
I0727 10:34:24.606701 22473 net.cpp:156] Memory required for data: 1382631936
I0727 10:34:24.606708 22473 layer_factory.hpp:77] Creating layer InnerProduct16
I0727 10:34:24.606721 22473 net.cpp:91] Creating Layer InnerProduct16
I0727 10:34:24.606727 22473 net.cpp:425] InnerProduct16 <- InnerProduct15
I0727 10:34:24.606739 22473 net.cpp:399] InnerProduct16 -> InnerProduct16
I0727 10:34:24.609551 22473 net.cpp:141] Setting up InnerProduct16
I0727 10:34:24.609582 22473 net.cpp:148] Top shape: 128 500 (64000)
I0727 10:34:24.609589 22473 net.cpp:156] Memory required for data: 1382887936
I0727 10:34:24.609599 22473 net.cpp:484] Sharing parameters 'ip2_w' owned by layer 'InnerProduct2', param index 0
I0727 10:34:24.609609 22473 net.cpp:484] Sharing parameters 'ip2_b' owned by layer 'InnerProduct2', param index 1
I0727 10:34:24.609617 22473 layer_factory.hpp:77] Creating layer Concat3
I0727 10:34:24.609630 22473 net.cpp:91] Creating Layer Concat3
I0727 10:34:24.609647 22473 net.cpp:425] Concat3 <- InnerProduct14
I0727 10:34:24.609661 22473 net.cpp:425] Concat3 <- InnerProduct16
I0727 10:34:24.609674 22473 net.cpp:399] Concat3 -> Concat3
I0727 10:34:24.609750 22473 net.cpp:141] Setting up Concat3
I0727 10:34:24.609767 22473 net.cpp:148] Top shape: 128 1000 (128000)
I0727 10:34:24.609774 22473 net.cpp:156] Memory required for data: 1383399936
I0727 10:34:24.609782 22473 layer_factory.hpp:77] Creating layer InnerProduct17
I0727 10:34:24.609798 22473 net.cpp:91] Creating Layer InnerProduct17
I0727 10:34:24.609809 22473 net.cpp:425] InnerProduct17 <- Concat3
I0727 10:34:24.609822 22473 net.cpp:399] InnerProduct17 -> InnerProduct17
I0727 10:34:24.615258 22473 net.cpp:141] Setting up InnerProduct17
I0727 10:34:24.615283 22473 net.cpp:148] Top shape: 128 512 (65536)
I0727 10:34:24.615288 22473 net.cpp:156] Memory required for data: 1383662080
I0727 10:34:24.615317 22473 net.cpp:484] Sharing parameters 'fc1_w' owned by layer 'InnerProduct5', param index 0
I0727 10:34:24.615325 22473 net.cpp:484] Sharing parameters 'fc1_b' owned by layer 'InnerProduct5', param index 1
I0727 10:34:24.615331 22473 layer_factory.hpp:77] Creating layer ReLU11
I0727 10:34:24.615345 22473 net.cpp:91] Creating Layer ReLU11
I0727 10:34:24.615353 22473 net.cpp:425] ReLU11 <- InnerProduct17
I0727 10:34:24.615362 22473 net.cpp:386] ReLU11 -> InnerProduct17 (in-place)
I0727 10:34:24.615375 22473 net.cpp:141] Setting up ReLU11
I0727 10:34:24.615382 22473 net.cpp:148] Top shape: 128 512 (65536)
I0727 10:34:24.615388 22473 net.cpp:156] Memory required for data: 1383924224
I0727 10:34:24.615393 22473 layer_factory.hpp:77] Creating layer InnerProduct18
I0727 10:34:24.615407 22473 net.cpp:91] Creating Layer InnerProduct18
I0727 10:34:24.615413 22473 net.cpp:425] InnerProduct18 <- InnerProduct17
I0727 10:34:24.615422 22473 net.cpp:399] InnerProduct18 -> InnerProduct18
I0727 10:34:24.618165 22473 net.cpp:141] Setting up InnerProduct18
I0727 10:34:24.618181 22473 net.cpp:148] Top shape: 128 512 (65536)
I0727 10:34:24.618187 22473 net.cpp:156] Memory required for data: 1384186368
I0727 10:34:24.618194 22473 net.cpp:484] Sharing parameters 'fc2_w' owned by layer 'InnerProduct6', param index 0
I0727 10:34:24.618202 22473 net.cpp:484] Sharing parameters 'fc2_b' owned by layer 'InnerProduct6', param index 1
I0727 10:34:24.618208 22473 layer_factory.hpp:77] Creating layer ReLU12
I0727 10:34:24.618221 22473 net.cpp:91] Creating Layer ReLU12
I0727 10:34:24.618227 22473 net.cpp:425] ReLU12 <- InnerProduct18
I0727 10:34:24.618235 22473 net.cpp:386] ReLU12 -> InnerProduct18 (in-place)
I0727 10:34:24.618245 22473 net.cpp:141] Setting up ReLU12
I0727 10:34:24.618252 22473 net.cpp:148] Top shape: 128 512 (65536)
I0727 10:34:24.618258 22473 net.cpp:156] Memory required for data: 1384448512
I0727 10:34:24.618263 22473 layer_factory.hpp:77] Creating layer dt2
I0727 10:34:24.618275 22473 net.cpp:91] Creating Layer dt2
I0727 10:34:24.618281 22473 net.cpp:425] dt2 <- InnerProduct18
I0727 10:34:24.618294 22473 net.cpp:399] dt2 -> dt2
I0727 10:34:24.618433 22473 net.cpp:141] Setting up dt2
I0727 10:34:24.618444 22473 net.cpp:148] Top shape: 128 1 (128)
I0727 10:34:24.618451 22473 net.cpp:156] Memory required for data: 1384449024
I0727 10:34:24.618484 22473 net.cpp:484] Sharing parameters 'fc3_w' owned by layer 'dt0', param index 0
I0727 10:34:24.618497 22473 net.cpp:484] Sharing parameters 'fc3_b' owned by layer 'dt0', param index 1
I0727 10:34:24.618505 22473 layer_factory.hpp:77] Creating layer Convolution13
I0727 10:34:24.618525 22473 net.cpp:91] Creating Layer Convolution13
I0727 10:34:24.618535 22473 net.cpp:425] Convolution13 <- p1_p1_0_split_3
I0727 10:34:24.618548 22473 net.cpp:399] Convolution13 -> Convolution13
I0727 10:34:24.618906 22473 net.cpp:141] Setting up Convolution13
I0727 10:34:24.618918 22473 net.cpp:148] Top shape: 128 20 60 60 (9216000)
I0727 10:34:24.618924 22473 net.cpp:156] Memory required for data: 1421313024
I0727 10:34:24.618932 22473 net.cpp:484] Sharing parameters 'conv1_w' owned by layer 'Convolution1', param index 0
I0727 10:34:24.618938 22473 net.cpp:484] Sharing parameters 'conv1_b' owned by layer 'Convolution1', param index 1
I0727 10:34:24.618944 22473 layer_factory.hpp:77] Creating layer Pooling13
I0727 10:34:24.618953 22473 net.cpp:91] Creating Layer Pooling13
I0727 10:34:24.618959 22473 net.cpp:425] Pooling13 <- Convolution13
I0727 10:34:24.618968 22473 net.cpp:399] Pooling13 -> Pooling13
I0727 10:34:24.619020 22473 net.cpp:141] Setting up Pooling13
I0727 10:34:24.619030 22473 net.cpp:148] Top shape: 128 20 30 30 (2304000)
I0727 10:34:24.619036 22473 net.cpp:156] Memory required for data: 1430529024
I0727 10:34:24.619041 22473 layer_factory.hpp:77] Creating layer Convolution14
I0727 10:34:24.619068 22473 net.cpp:91] Creating Layer Convolution14
I0727 10:34:24.619076 22473 net.cpp:425] Convolution14 <- Pooling13
I0727 10:34:24.619103 22473 net.cpp:399] Convolution14 -> Convolution14
I0727 10:34:24.619626 22473 net.cpp:141] Setting up Convolution14
I0727 10:34:24.619637 22473 net.cpp:148] Top shape: 128 50 26 26 (4326400)
I0727 10:34:24.619642 22473 net.cpp:156] Memory required for data: 1447834624
I0727 10:34:24.619650 22473 net.cpp:484] Sharing parameters 'conv2_w' owned by layer 'Convolution2', param index 0
I0727 10:34:24.619657 22473 net.cpp:484] Sharing parameters 'conv2_b' owned by layer 'Convolution2', param index 1
I0727 10:34:24.619663 22473 layer_factory.hpp:77] Creating layer Pooling14
I0727 10:34:24.619676 22473 net.cpp:91] Creating Layer Pooling14
I0727 10:34:24.619683 22473 net.cpp:425] Pooling14 <- Convolution14
I0727 10:34:24.619693 22473 net.cpp:399] Pooling14 -> Pooling14
I0727 10:34:24.619742 22473 net.cpp:141] Setting up Pooling14
I0727 10:34:24.619752 22473 net.cpp:148] Top shape: 128 50 13 13 (1081600)
I0727 10:34:24.619758 22473 net.cpp:156] Memory required for data: 1452161024
I0727 10:34:24.619763 22473 layer_factory.hpp:77] Creating layer InnerProduct19
I0727 10:34:24.619776 22473 net.cpp:91] Creating Layer InnerProduct19
I0727 10:34:24.619781 22473 net.cpp:425] InnerProduct19 <- Pooling14
I0727 10:34:24.619791 22473 net.cpp:399] InnerProduct19 -> InnerProduct19
I0727 10:34:24.661931 22473 net.cpp:141] Setting up InnerProduct19
I0727 10:34:24.661965 22473 net.cpp:148] Top shape: 128 500 (64000)
I0727 10:34:24.661972 22473 net.cpp:156] Memory required for data: 1452417024
I0727 10:34:24.661983 22473 net.cpp:484] Sharing parameters 'ip1_w' owned by layer 'InnerProduct1', param index 0
I0727 10:34:24.661993 22473 net.cpp:484] Sharing parameters 'ip1_b' owned by layer 'InnerProduct1', param index 1
I0727 10:34:24.661998 22473 layer_factory.hpp:77] Creating layer ReLU13
I0727 10:34:24.662015 22473 net.cpp:91] Creating Layer ReLU13
I0727 10:34:24.662030 22473 net.cpp:425] ReLU13 <- InnerProduct19
I0727 10:34:24.662044 22473 net.cpp:386] ReLU13 -> InnerProduct19 (in-place)
I0727 10:34:24.662061 22473 net.cpp:141] Setting up ReLU13
I0727 10:34:24.662072 22473 net.cpp:148] Top shape: 128 500 (64000)
I0727 10:34:24.662081 22473 net.cpp:156] Memory required for data: 1452673024
I0727 10:34:24.662087 22473 layer_factory.hpp:77] Creating layer InnerProduct20
I0727 10:34:24.662106 22473 net.cpp:91] Creating Layer InnerProduct20
I0727 10:34:24.662116 22473 net.cpp:425] InnerProduct20 <- InnerProduct19
I0727 10:34:24.662127 22473 net.cpp:399] InnerProduct20 -> InnerProduct20
I0727 10:34:24.664847 22473 net.cpp:141] Setting up InnerProduct20
I0727 10:34:24.664867 22473 net.cpp:148] Top shape: 128 500 (64000)
I0727 10:34:24.664885 22473 net.cpp:156] Memory required for data: 1452929024
I0727 10:34:24.664894 22473 net.cpp:484] Sharing parameters 'ip2_w' owned by layer 'InnerProduct2', param index 0
I0727 10:34:24.664903 22473 net.cpp:484] Sharing parameters 'ip2_b' owned by layer 'InnerProduct2', param index 1
I0727 10:34:24.664911 22473 layer_factory.hpp:77] Creating layer Convolution15
I0727 10:34:24.664932 22473 net.cpp:91] Creating Layer Convolution15
I0727 10:34:24.664948 22473 net.cpp:425] Convolution15 <- c23
I0727 10:34:24.664963 22473 net.cpp:399] Convolution15 -> Convolution15
I0727 10:34:24.665328 22473 net.cpp:141] Setting up Convolution15
I0727 10:34:24.665345 22473 net.cpp:148] Top shape: 128 20 60 60 (9216000)
I0727 10:34:24.665352 22473 net.cpp:156] Memory required for data: 1489793024
I0727 10:34:24.665361 22473 net.cpp:484] Sharing parameters 'conv1_w' owned by layer 'Convolution1', param index 0
I0727 10:34:24.665370 22473 net.cpp:484] Sharing parameters 'conv1_b' owned by layer 'Convolution1', param index 1
I0727 10:34:24.665379 22473 layer_factory.hpp:77] Creating layer Pooling15
I0727 10:34:24.665391 22473 net.cpp:91] Creating Layer Pooling15
I0727 10:34:24.665400 22473 net.cpp:425] Pooling15 <- Convolution15
I0727 10:34:24.665412 22473 net.cpp:399] Pooling15 -> Pooling15
I0727 10:34:24.665472 22473 net.cpp:141] Setting up Pooling15
I0727 10:34:24.665487 22473 net.cpp:148] Top shape: 128 20 30 30 (2304000)
I0727 10:34:24.665518 22473 net.cpp:156] Memory required for data: 1499009024
I0727 10:34:24.665526 22473 layer_factory.hpp:77] Creating layer Convolution16
I0727 10:34:24.665545 22473 net.cpp:91] Creating Layer Convolution16
I0727 10:34:24.665554 22473 net.cpp:425] Convolution16 <- Pooling15
I0727 10:34:24.665570 22473 net.cpp:399] Convolution16 -> Convolution16
I0727 10:34:24.666097 22473 net.cpp:141] Setting up Convolution16
I0727 10:34:24.666112 22473 net.cpp:148] Top shape: 128 50 26 26 (4326400)
I0727 10:34:24.666121 22473 net.cpp:156] Memory required for data: 1516314624
I0727 10:34:24.666131 22473 net.cpp:484] Sharing parameters 'conv2_w' owned by layer 'Convolution2', param index 0
I0727 10:34:24.666141 22473 net.cpp:484] Sharing parameters 'conv2_b' owned by layer 'Convolution2', param index 1
I0727 10:34:24.666147 22473 layer_factory.hpp:77] Creating layer Pooling16
I0727 10:34:24.666158 22473 net.cpp:91] Creating Layer Pooling16
I0727 10:34:24.666167 22473 net.cpp:425] Pooling16 <- Convolution16
I0727 10:34:24.666185 22473 net.cpp:399] Pooling16 -> Pooling16
I0727 10:34:24.666240 22473 net.cpp:141] Setting up Pooling16
I0727 10:34:24.666257 22473 net.cpp:148] Top shape: 128 50 13 13 (1081600)
I0727 10:34:24.666265 22473 net.cpp:156] Memory required for data: 1520641024
I0727 10:34:24.666272 22473 layer_factory.hpp:77] Creating layer InnerProduct21
I0727 10:34:24.666285 22473 net.cpp:91] Creating Layer InnerProduct21
I0727 10:34:24.666292 22473 net.cpp:425] InnerProduct21 <- Pooling16
I0727 10:34:24.666307 22473 net.cpp:399] InnerProduct21 -> InnerProduct21
I0727 10:34:24.708204 22473 net.cpp:141] Setting up InnerProduct21
I0727 10:34:24.708245 22473 net.cpp:148] Top shape: 128 500 (64000)
I0727 10:34:24.708253 22473 net.cpp:156] Memory required for data: 1520897024
I0727 10:34:24.708277 22473 net.cpp:484] Sharing parameters 'ip1_w' owned by layer 'InnerProduct1', param index 0
I0727 10:34:24.708288 22473 net.cpp:484] Sharing parameters 'ip1_b' owned by layer 'InnerProduct1', param index 1
I0727 10:34:24.708297 22473 layer_factory.hpp:77] Creating layer ReLU14
I0727 10:34:24.708317 22473 net.cpp:91] Creating Layer ReLU14
I0727 10:34:24.708338 22473 net.cpp:425] ReLU14 <- InnerProduct21
I0727 10:34:24.708349 22473 net.cpp:386] ReLU14 -> InnerProduct21 (in-place)
I0727 10:34:24.708367 22473 net.cpp:141] Setting up ReLU14
I0727 10:34:24.708377 22473 net.cpp:148] Top shape: 128 500 (64000)
I0727 10:34:24.708385 22473 net.cpp:156] Memory required for data: 1521153024
I0727 10:34:24.708394 22473 layer_factory.hpp:77] Creating layer InnerProduct22
I0727 10:34:24.708407 22473 net.cpp:91] Creating Layer InnerProduct22
I0727 10:34:24.708415 22473 net.cpp:425] InnerProduct22 <- InnerProduct21
I0727 10:34:24.708433 22473 net.cpp:399] InnerProduct22 -> InnerProduct22
I0727 10:34:24.711128 22473 net.cpp:141] Setting up InnerProduct22
I0727 10:34:24.711148 22473 net.cpp:148] Top shape: 128 500 (64000)
I0727 10:34:24.711156 22473 net.cpp:156] Memory required for data: 1521409024
I0727 10:34:24.711174 22473 net.cpp:484] Sharing parameters 'ip2_w' owned by layer 'InnerProduct2', param index 0
I0727 10:34:24.711184 22473 net.cpp:484] Sharing parameters 'ip2_b' owned by layer 'InnerProduct2', param index 1
I0727 10:34:24.711192 22473 layer_factory.hpp:77] Creating layer Concat4
I0727 10:34:24.711205 22473 net.cpp:91] Creating Layer Concat4
I0727 10:34:24.711213 22473 net.cpp:425] Concat4 <- InnerProduct20
I0727 10:34:24.711233 22473 net.cpp:425] Concat4 <- InnerProduct22
I0727 10:34:24.711246 22473 net.cpp:399] Concat4 -> Concat4
I0727 10:34:24.711278 22473 net.cpp:141] Setting up Concat4
I0727 10:34:24.711292 22473 net.cpp:148] Top shape: 128 1000 (128000)
I0727 10:34:24.711300 22473 net.cpp:156] Memory required for data: 1521921024
I0727 10:34:24.711308 22473 layer_factory.hpp:77] Creating layer InnerProduct23
I0727 10:34:24.711323 22473 net.cpp:91] Creating Layer InnerProduct23
I0727 10:34:24.711331 22473 net.cpp:425] InnerProduct23 <- Concat4
I0727 10:34:24.711346 22473 net.cpp:399] InnerProduct23 -> InnerProduct23
I0727 10:34:24.716394 22473 net.cpp:141] Setting up InnerProduct23
I0727 10:34:24.716435 22473 net.cpp:148] Top shape: 128 512 (65536)
I0727 10:34:24.716452 22473 net.cpp:156] Memory required for data: 1522183168
I0727 10:34:24.716462 22473 net.cpp:484] Sharing parameters 'fc1_w' owned by layer 'InnerProduct5', param index 0
I0727 10:34:24.716472 22473 net.cpp:484] Sharing parameters 'fc1_b' owned by layer 'InnerProduct5', param index 1
I0727 10:34:24.716480 22473 layer_factory.hpp:77] Creating layer ReLU15
I0727 10:34:24.716495 22473 net.cpp:91] Creating Layer ReLU15
I0727 10:34:24.716503 22473 net.cpp:425] ReLU15 <- InnerProduct23
I0727 10:34:24.716523 22473 net.cpp:386] ReLU15 -> InnerProduct23 (in-place)
I0727 10:34:24.716537 22473 net.cpp:141] Setting up ReLU15
I0727 10:34:24.716547 22473 net.cpp:148] Top shape: 128 512 (65536)
I0727 10:34:24.716555 22473 net.cpp:156] Memory required for data: 1522445312
I0727 10:34:24.716563 22473 layer_factory.hpp:77] Creating layer InnerProduct24
I0727 10:34:24.716580 22473 net.cpp:91] Creating Layer InnerProduct24
I0727 10:34:24.716588 22473 net.cpp:425] InnerProduct24 <- InnerProduct23
I0727 10:34:24.716600 22473 net.cpp:399] InnerProduct24 -> InnerProduct24
I0727 10:34:24.719338 22473 net.cpp:141] Setting up InnerProduct24
I0727 10:34:24.719358 22473 net.cpp:148] Top shape: 128 512 (65536)
I0727 10:34:24.719367 22473 net.cpp:156] Memory required for data: 1522707456
I0727 10:34:24.719377 22473 net.cpp:484] Sharing parameters 'fc2_w' owned by layer 'InnerProduct6', param index 0
I0727 10:34:24.719386 22473 net.cpp:484] Sharing parameters 'fc2_b' owned by layer 'InnerProduct6', param index 1
I0727 10:34:24.719394 22473 layer_factory.hpp:77] Creating layer ReLU16
I0727 10:34:24.719405 22473 net.cpp:91] Creating Layer ReLU16
I0727 10:34:24.719414 22473 net.cpp:425] ReLU16 <- InnerProduct24
I0727 10:34:24.719429 22473 net.cpp:386] ReLU16 -> InnerProduct24 (in-place)
I0727 10:34:24.719442 22473 net.cpp:141] Setting up ReLU16
I0727 10:34:24.719452 22473 net.cpp:148] Top shape: 128 512 (65536)
I0727 10:34:24.719460 22473 net.cpp:156] Memory required for data: 1522969600
I0727 10:34:24.719467 22473 layer_factory.hpp:77] Creating layer dt3
I0727 10:34:24.719480 22473 net.cpp:91] Creating Layer dt3
I0727 10:34:24.719487 22473 net.cpp:425] dt3 <- InnerProduct24
I0727 10:34:24.719504 22473 net.cpp:399] dt3 -> dt3
I0727 10:34:24.719643 22473 net.cpp:141] Setting up dt3
I0727 10:34:24.719657 22473 net.cpp:148] Top shape: 128 1 (128)
I0727 10:34:24.719666 22473 net.cpp:156] Memory required for data: 1522970112
I0727 10:34:24.719673 22473 net.cpp:484] Sharing parameters 'fc3_w' owned by layer 'dt0', param index 0
I0727 10:34:24.719683 22473 net.cpp:484] Sharing parameters 'fc3_b' owned by layer 'dt0', param index 1
I0727 10:34:24.719691 22473 layer_factory.hpp:77] Creating layer Convolution17
I0727 10:34:24.719707 22473 net.cpp:91] Creating Layer Convolution17
I0727 10:34:24.719715 22473 net.cpp:425] Convolution17 <- p1_p1_0_split_4
I0727 10:34:24.719738 22473 net.cpp:399] Convolution17 -> Convolution17
I0727 10:34:24.720114 22473 net.cpp:141] Setting up Convolution17
I0727 10:34:24.720129 22473 net.cpp:148] Top shape: 128 20 60 60 (9216000)
I0727 10:34:24.720136 22473 net.cpp:156] Memory required for data: 1559834112
I0727 10:34:24.720145 22473 net.cpp:484] Sharing parameters 'conv1_w' owned by layer 'Convolution1', param index 0
I0727 10:34:24.720155 22473 net.cpp:484] Sharing parameters 'conv1_b' owned by layer 'Convolution1', param index 1
I0727 10:34:24.720162 22473 layer_factory.hpp:77] Creating layer Pooling17
I0727 10:34:24.720173 22473 net.cpp:91] Creating Layer Pooling17
I0727 10:34:24.720181 22473 net.cpp:425] Pooling17 <- Convolution17
I0727 10:34:24.720197 22473 net.cpp:399] Pooling17 -> Pooling17
I0727 10:34:24.720257 22473 net.cpp:141] Setting up Pooling17
I0727 10:34:24.720270 22473 net.cpp:148] Top shape: 128 20 30 30 (2304000)
I0727 10:34:24.720278 22473 net.cpp:156] Memory required for data: 1569050112
I0727 10:34:24.720285 22473 layer_factory.hpp:77] Creating layer Convolution18
I0727 10:34:24.720324 22473 net.cpp:91] Creating Layer Convolution18
I0727 10:34:24.720333 22473 net.cpp:425] Convolution18 <- Pooling17
I0727 10:34:24.720346 22473 net.cpp:399] Convolution18 -> Convolution18
I0727 10:34:24.720890 22473 net.cpp:141] Setting up Convolution18
I0727 10:34:24.720906 22473 net.cpp:148] Top shape: 128 50 26 26 (4326400)
I0727 10:34:24.720913 22473 net.cpp:156] Memory required for data: 1586355712
I0727 10:34:24.720921 22473 net.cpp:484] Sharing parameters 'conv2_w' owned by layer 'Convolution2', param index 0
I0727 10:34:24.720932 22473 net.cpp:484] Sharing parameters 'conv2_b' owned by layer 'Convolution2', param index 1
I0727 10:34:24.720938 22473 layer_factory.hpp:77] Creating layer Pooling18
I0727 10:34:24.720994 22473 net.cpp:91] Creating Layer Pooling18
I0727 10:34:24.721006 22473 net.cpp:425] Pooling18 <- Convolution18
I0727 10:34:24.721022 22473 net.cpp:399] Pooling18 -> Pooling18
I0727 10:34:24.721079 22473 net.cpp:141] Setting up Pooling18
I0727 10:34:24.721093 22473 net.cpp:148] Top shape: 128 50 13 13 (1081600)
I0727 10:34:24.721101 22473 net.cpp:156] Memory required for data: 1590682112
I0727 10:34:24.721109 22473 layer_factory.hpp:77] Creating layer InnerProduct25
I0727 10:34:24.721124 22473 net.cpp:91] Creating Layer InnerProduct25
I0727 10:34:24.721132 22473 net.cpp:425] InnerProduct25 <- Pooling18
I0727 10:34:24.721144 22473 net.cpp:399] InnerProduct25 -> InnerProduct25
I0727 10:34:24.781455 22473 net.cpp:141] Setting up InnerProduct25
I0727 10:34:24.781497 22473 net.cpp:148] Top shape: 128 500 (64000)
I0727 10:34:24.781507 22473 net.cpp:156] Memory required for data: 1590938112
I0727 10:34:24.781519 22473 net.cpp:484] Sharing parameters 'ip1_w' owned by layer 'InnerProduct1', param index 0
I0727 10:34:24.781541 22473 net.cpp:484] Sharing parameters 'ip1_b' owned by layer 'InnerProduct1', param index 1
I0727 10:34:24.781577 22473 layer_factory.hpp:77] Creating layer ReLU17
I0727 10:34:24.781610 22473 net.cpp:91] Creating Layer ReLU17
I0727 10:34:24.781627 22473 net.cpp:425] ReLU17 <- InnerProduct25
I0727 10:34:24.781659 22473 net.cpp:386] ReLU17 -> InnerProduct25 (in-place)
I0727 10:34:24.781680 22473 net.cpp:141] Setting up ReLU17
I0727 10:34:24.781695 22473 net.cpp:148] Top shape: 128 500 (64000)
I0727 10:34:24.781715 22473 net.cpp:156] Memory required for data: 1591194112
I0727 10:34:24.781730 22473 layer_factory.hpp:77] Creating layer InnerProduct26
I0727 10:34:24.781754 22473 net.cpp:91] Creating Layer InnerProduct26
I0727 10:34:24.781764 22473 net.cpp:425] InnerProduct26 <- InnerProduct25
I0727 10:34:24.781779 22473 net.cpp:399] InnerProduct26 -> InnerProduct26
I0727 10:34:24.784757 22473 net.cpp:141] Setting up InnerProduct26
I0727 10:34:24.784778 22473 net.cpp:148] Top shape: 128 500 (64000)
I0727 10:34:24.784796 22473 net.cpp:156] Memory required for data: 1591450112
I0727 10:34:24.784806 22473 net.cpp:484] Sharing parameters 'ip2_w' owned by layer 'InnerProduct2', param index 0
I0727 10:34:24.784816 22473 net.cpp:484] Sharing parameters 'ip2_b' owned by layer 'InnerProduct2', param index 1
I0727 10:34:24.784823 22473 layer_factory.hpp:77] Creating layer Convolution19
I0727 10:34:24.784844 22473 net.cpp:91] Creating Layer Convolution19
I0727 10:34:24.784862 22473 net.cpp:425] Convolution19 <- c24
I0727 10:34:24.784876 22473 net.cpp:399] Convolution19 -> Convolution19
I0727 10:34:24.785251 22473 net.cpp:141] Setting up Convolution19
I0727 10:34:24.785269 22473 net.cpp:148] Top shape: 128 20 60 60 (9216000)
I0727 10:34:24.785277 22473 net.cpp:156] Memory required for data: 1628314112
I0727 10:34:24.785286 22473 net.cpp:484] Sharing parameters 'conv1_w' owned by layer 'Convolution1', param index 0
I0727 10:34:24.785295 22473 net.cpp:484] Sharing parameters 'conv1_b' owned by layer 'Convolution1', param index 1
I0727 10:34:24.785303 22473 layer_factory.hpp:77] Creating layer Pooling19
I0727 10:34:24.785316 22473 net.cpp:91] Creating Layer Pooling19
I0727 10:34:24.785325 22473 net.cpp:425] Pooling19 <- Convolution19
I0727 10:34:24.785337 22473 net.cpp:399] Pooling19 -> Pooling19
I0727 10:34:24.785426 22473 net.cpp:141] Setting up Pooling19
I0727 10:34:24.785440 22473 net.cpp:148] Top shape: 128 20 30 30 (2304000)
I0727 10:34:24.785449 22473 net.cpp:156] Memory required for data: 1637530112
I0727 10:34:24.785455 22473 layer_factory.hpp:77] Creating layer Convolution20
I0727 10:34:24.785473 22473 net.cpp:91] Creating Layer Convolution20
I0727 10:34:24.785483 22473 net.cpp:425] Convolution20 <- Pooling19
I0727 10:34:24.785500 22473 net.cpp:399] Convolution20 -> Convolution20
I0727 10:34:24.786052 22473 net.cpp:141] Setting up Convolution20
I0727 10:34:24.786068 22473 net.cpp:148] Top shape: 128 50 26 26 (4326400)
I0727 10:34:24.786077 22473 net.cpp:156] Memory required for data: 1654835712
I0727 10:34:24.786085 22473 net.cpp:484] Sharing parameters 'conv2_w' owned by layer 'Convolution2', param index 0
I0727 10:34:24.786095 22473 net.cpp:484] Sharing parameters 'conv2_b' owned by layer 'Convolution2', param index 1
I0727 10:34:24.786103 22473 layer_factory.hpp:77] Creating layer Pooling20
I0727 10:34:24.786113 22473 net.cpp:91] Creating Layer Pooling20
I0727 10:34:24.786121 22473 net.cpp:425] Pooling20 <- Convolution20
I0727 10:34:24.786139 22473 net.cpp:399] Pooling20 -> Pooling20
I0727 10:34:24.786197 22473 net.cpp:141] Setting up Pooling20
I0727 10:34:24.786211 22473 net.cpp:148] Top shape: 128 50 13 13 (1081600)
I0727 10:34:24.786218 22473 net.cpp:156] Memory required for data: 1659162112
I0727 10:34:24.786226 22473 layer_factory.hpp:77] Creating layer InnerProduct27
I0727 10:34:24.786242 22473 net.cpp:91] Creating Layer InnerProduct27
I0727 10:34:24.786249 22473 net.cpp:425] InnerProduct27 <- Pooling20
I0727 10:34:24.786264 22473 net.cpp:399] InnerProduct27 -> InnerProduct27
I0727 10:34:24.828724 22473 net.cpp:141] Setting up InnerProduct27
I0727 10:34:24.828763 22473 net.cpp:148] Top shape: 128 500 (64000)
I0727 10:34:24.828771 22473 net.cpp:156] Memory required for data: 1659418112
I0727 10:34:24.828795 22473 net.cpp:484] Sharing parameters 'ip1_w' owned by layer 'InnerProduct1', param index 0
I0727 10:34:24.828806 22473 net.cpp:484] Sharing parameters 'ip1_b' owned by layer 'InnerProduct1', param index 1
I0727 10:34:24.828814 22473 layer_factory.hpp:77] Creating layer ReLU18
I0727 10:34:24.828833 22473 net.cpp:91] Creating Layer ReLU18
I0727 10:34:24.828855 22473 net.cpp:425] ReLU18 <- InnerProduct27
I0727 10:34:24.828867 22473 net.cpp:386] ReLU18 -> InnerProduct27 (in-place)
I0727 10:34:24.828886 22473 net.cpp:141] Setting up ReLU18
I0727 10:34:24.828896 22473 net.cpp:148] Top shape: 128 500 (64000)
I0727 10:34:24.828902 22473 net.cpp:156] Memory required for data: 1659674112
I0727 10:34:24.828910 22473 layer_factory.hpp:77] Creating layer InnerProduct28
I0727 10:34:24.828925 22473 net.cpp:91] Creating Layer InnerProduct28
I0727 10:34:24.828933 22473 net.cpp:425] InnerProduct28 <- InnerProduct27
I0727 10:34:24.828951 22473 net.cpp:399] InnerProduct28 -> InnerProduct28
I0727 10:34:24.832363 22473 net.cpp:141] Setting up InnerProduct28
I0727 10:34:24.832384 22473 net.cpp:148] Top shape: 128 500 (64000)
I0727 10:34:24.832392 22473 net.cpp:156] Memory required for data: 1659930112
I0727 10:34:24.832402 22473 net.cpp:484] Sharing parameters 'ip2_w' owned by layer 'InnerProduct2', param index 0
I0727 10:34:24.832412 22473 net.cpp:484] Sharing parameters 'ip2_b' owned by layer 'InnerProduct2', param index 1
I0727 10:34:24.832422 22473 layer_factory.hpp:77] Creating layer Concat5
I0727 10:34:24.832435 22473 net.cpp:91] Creating Layer Concat5
I0727 10:34:24.832444 22473 net.cpp:425] Concat5 <- InnerProduct26
I0727 10:34:24.832455 22473 net.cpp:425] Concat5 <- InnerProduct28
I0727 10:34:24.832468 22473 net.cpp:399] Concat5 -> Concat5
I0727 10:34:24.832504 22473 net.cpp:141] Setting up Concat5
I0727 10:34:24.832518 22473 net.cpp:148] Top shape: 128 1000 (128000)
I0727 10:34:24.832526 22473 net.cpp:156] Memory required for data: 1660442112
I0727 10:34:24.832533 22473 layer_factory.hpp:77] Creating layer InnerProduct29
I0727 10:34:24.832550 22473 net.cpp:91] Creating Layer InnerProduct29
I0727 10:34:24.832558 22473 net.cpp:425] InnerProduct29 <- Concat5
I0727 10:34:24.832592 22473 net.cpp:399] InnerProduct29 -> InnerProduct29
I0727 10:34:24.838300 22473 net.cpp:141] Setting up InnerProduct29
I0727 10:34:24.838331 22473 net.cpp:148] Top shape: 128 512 (65536)
I0727 10:34:24.838340 22473 net.cpp:156] Memory required for data: 1660704256
I0727 10:34:24.838352 22473 net.cpp:484] Sharing parameters 'fc1_w' owned by layer 'InnerProduct5', param index 0
I0727 10:34:24.838362 22473 net.cpp:484] Sharing parameters 'fc1_b' owned by layer 'InnerProduct5', param index 1
I0727 10:34:24.838371 22473 layer_factory.hpp:77] Creating layer ReLU19
I0727 10:34:24.838385 22473 net.cpp:91] Creating Layer ReLU19
I0727 10:34:24.838395 22473 net.cpp:425] ReLU19 <- InnerProduct29
I0727 10:34:24.838407 22473 net.cpp:386] ReLU19 -> InnerProduct29 (in-place)
I0727 10:34:24.838420 22473 net.cpp:141] Setting up ReLU19
I0727 10:34:24.838430 22473 net.cpp:148] Top shape: 128 512 (65536)
I0727 10:34:24.838438 22473 net.cpp:156] Memory required for data: 1660966400
I0727 10:34:24.838445 22473 layer_factory.hpp:77] Creating layer InnerProduct30
I0727 10:34:24.838460 22473 net.cpp:91] Creating Layer InnerProduct30
I0727 10:34:24.838469 22473 net.cpp:425] InnerProduct30 <- InnerProduct29
I0727 10:34:24.838480 22473 net.cpp:399] InnerProduct30 -> InnerProduct30
I0727 10:34:24.854135 22473 net.cpp:141] Setting up InnerProduct30
I0727 10:34:24.854171 22473 net.cpp:148] Top shape: 128 512 (65536)
I0727 10:34:24.854179 22473 net.cpp:156] Memory required for data: 1661228544
I0727 10:34:24.854193 22473 net.cpp:484] Sharing parameters 'fc2_w' owned by layer 'InnerProduct6', param index 0
I0727 10:34:24.854204 22473 net.cpp:484] Sharing parameters 'fc2_b' owned by layer 'InnerProduct6', param index 1
I0727 10:34:24.854213 22473 layer_factory.hpp:77] Creating layer ReLU20
I0727 10:34:24.854229 22473 net.cpp:91] Creating Layer ReLU20
I0727 10:34:24.854240 22473 net.cpp:425] ReLU20 <- InnerProduct30
I0727 10:34:24.854257 22473 net.cpp:386] ReLU20 -> InnerProduct30 (in-place)
I0727 10:34:24.854274 22473 net.cpp:141] Setting up ReLU20
I0727 10:34:24.854284 22473 net.cpp:148] Top shape: 128 512 (65536)
I0727 10:34:24.854291 22473 net.cpp:156] Memory required for data: 1661490688
I0727 10:34:24.854298 22473 layer_factory.hpp:77] Creating layer dt4
I0727 10:34:24.854312 22473 net.cpp:91] Creating Layer dt4
I0727 10:34:24.854321 22473 net.cpp:425] dt4 <- InnerProduct30
I0727 10:34:24.854338 22473 net.cpp:399] dt4 -> dt4
I0727 10:34:24.854483 22473 net.cpp:141] Setting up dt4
I0727 10:34:24.854497 22473 net.cpp:148] Top shape: 128 1 (128)
I0727 10:34:24.854506 22473 net.cpp:156] Memory required for data: 1661491200
I0727 10:34:24.854514 22473 net.cpp:484] Sharing parameters 'fc3_w' owned by layer 'dt0', param index 0
I0727 10:34:24.854524 22473 net.cpp:484] Sharing parameters 'fc3_b' owned by layer 'dt0', param index 1
I0727 10:34:24.854532 22473 layer_factory.hpp:77] Creating layer Convolution21
I0727 10:34:24.854549 22473 net.cpp:91] Creating Layer Convolution21
I0727 10:34:24.854558 22473 net.cpp:425] Convolution21 <- p1_p1_0_split_5
I0727 10:34:24.854575 22473 net.cpp:399] Convolution21 -> Convolution21
I0727 10:34:24.854953 22473 net.cpp:141] Setting up Convolution21
I0727 10:34:24.854967 22473 net.cpp:148] Top shape: 128 20 60 60 (9216000)
I0727 10:34:24.854975 22473 net.cpp:156] Memory required for data: 1698355200
I0727 10:34:24.854984 22473 net.cpp:484] Sharing parameters 'conv1_w' owned by layer 'Convolution1', param index 0
I0727 10:34:24.854993 22473 net.cpp:484] Sharing parameters 'conv1_b' owned by layer 'Convolution1', param index 1
I0727 10:34:24.855001 22473 layer_factory.hpp:77] Creating layer Pooling21
I0727 10:34:24.855013 22473 net.cpp:91] Creating Layer Pooling21
I0727 10:34:24.855020 22473 net.cpp:425] Pooling21 <- Convolution21
I0727 10:34:24.855036 22473 net.cpp:399] Pooling21 -> Pooling21
I0727 10:34:24.855113 22473 net.cpp:141] Setting up Pooling21
I0727 10:34:24.855128 22473 net.cpp:148] Top shape: 128 20 30 30 (2304000)
I0727 10:34:24.855135 22473 net.cpp:156] Memory required for data: 1707571200
I0727 10:34:24.855162 22473 layer_factory.hpp:77] Creating layer Convolution22
I0727 10:34:24.855185 22473 net.cpp:91] Creating Layer Convolution22
I0727 10:34:24.855195 22473 net.cpp:425] Convolution22 <- Pooling21
I0727 10:34:24.855207 22473 net.cpp:399] Convolution22 -> Convolution22
I0727 10:34:24.856519 22473 net.cpp:141] Setting up Convolution22
I0727 10:34:24.856542 22473 net.cpp:148] Top shape: 128 50 26 26 (4326400)
I0727 10:34:24.856551 22473 net.cpp:156] Memory required for data: 1724876800
I0727 10:34:24.856560 22473 net.cpp:484] Sharing parameters 'conv2_w' owned by layer 'Convolution2', param index 0
I0727 10:34:24.856570 22473 net.cpp:484] Sharing parameters 'conv2_b' owned by layer 'Convolution2', param index 1
I0727 10:34:24.856578 22473 layer_factory.hpp:77] Creating layer Pooling22
I0727 10:34:24.856590 22473 net.cpp:91] Creating Layer Pooling22
I0727 10:34:24.856598 22473 net.cpp:425] Pooling22 <- Convolution22
I0727 10:34:24.856612 22473 net.cpp:399] Pooling22 -> Pooling22
I0727 10:34:24.856675 22473 net.cpp:141] Setting up Pooling22
I0727 10:34:24.856690 22473 net.cpp:148] Top shape: 128 50 13 13 (1081600)
I0727 10:34:24.856698 22473 net.cpp:156] Memory required for data: 1729203200
I0727 10:34:24.856705 22473 layer_factory.hpp:77] Creating layer InnerProduct31
I0727 10:34:24.856720 22473 net.cpp:91] Creating Layer InnerProduct31
I0727 10:34:24.856729 22473 net.cpp:425] InnerProduct31 <- Pooling22
I0727 10:34:24.856741 22473 net.cpp:399] InnerProduct31 -> InnerProduct31
I0727 10:34:24.900187 22473 net.cpp:141] Setting up InnerProduct31
I0727 10:34:24.900228 22473 net.cpp:148] Top shape: 128 500 (64000)
I0727 10:34:24.900238 22473 net.cpp:156] Memory required for data: 1729459200
I0727 10:34:24.900251 22473 net.cpp:484] Sharing parameters 'ip1_w' owned by layer 'InnerProduct1', param index 0
I0727 10:34:24.900269 22473 net.cpp:484] Sharing parameters 'ip1_b' owned by layer 'InnerProduct1', param index 1
I0727 10:34:24.900277 22473 layer_factory.hpp:77] Creating layer ReLU21
I0727 10:34:24.900293 22473 net.cpp:91] Creating Layer ReLU21
I0727 10:34:24.900306 22473 net.cpp:425] ReLU21 <- InnerProduct31
I0727 10:34:24.900324 22473 net.cpp:386] ReLU21 -> InnerProduct31 (in-place)
I0727 10:34:24.900341 22473 net.cpp:141] Setting up ReLU21
I0727 10:34:24.900357 22473 net.cpp:148] Top shape: 128 500 (64000)
I0727 10:34:24.900365 22473 net.cpp:156] Memory required for data: 1729715200
I0727 10:34:24.900375 22473 layer_factory.hpp:77] Creating layer InnerProduct32
I0727 10:34:24.900396 22473 net.cpp:91] Creating Layer InnerProduct32
I0727 10:34:24.900408 22473 net.cpp:425] InnerProduct32 <- InnerProduct31
I0727 10:34:24.900423 22473 net.cpp:399] InnerProduct32 -> InnerProduct32
I0727 10:34:24.906937 22473 net.cpp:141] Setting up InnerProduct32
I0727 10:34:24.906972 22473 net.cpp:148] Top shape: 128 500 (64000)
I0727 10:34:24.906981 22473 net.cpp:156] Memory required for data: 1729971200
I0727 10:34:24.906993 22473 net.cpp:484] Sharing parameters 'ip2_w' owned by layer 'InnerProduct2', param index 0
I0727 10:34:24.907008 22473 net.cpp:484] Sharing parameters 'ip2_b' owned by layer 'InnerProduct2', param index 1
I0727 10:34:24.907017 22473 layer_factory.hpp:77] Creating layer Convolution23
I0727 10:34:24.907045 22473 net.cpp:91] Creating Layer Convolution23
I0727 10:34:24.907073 22473 net.cpp:425] Convolution23 <- c25
I0727 10:34:24.907104 22473 net.cpp:399] Convolution23 -> Convolution23
I0727 10:34:24.907495 22473 net.cpp:141] Setting up Convolution23
I0727 10:34:24.907510 22473 net.cpp:148] Top shape: 128 20 60 60 (9216000)
I0727 10:34:24.907518 22473 net.cpp:156] Memory required for data: 1766835200
I0727 10:34:24.907528 22473 net.cpp:484] Sharing parameters 'conv1_w' owned by layer 'Convolution1', param index 0
I0727 10:34:24.907538 22473 net.cpp:484] Sharing parameters 'conv1_b' owned by layer 'Convolution1', param index 1
I0727 10:34:24.907547 22473 layer_factory.hpp:77] Creating layer Pooling23
I0727 10:34:24.907563 22473 net.cpp:91] Creating Layer Pooling23
I0727 10:34:24.907590 22473 net.cpp:425] Pooling23 <- Convolution23
I0727 10:34:24.907604 22473 net.cpp:399] Pooling23 -> Pooling23
I0727 10:34:24.907670 22473 net.cpp:141] Setting up Pooling23
I0727 10:34:24.907683 22473 net.cpp:148] Top shape: 128 20 30 30 (2304000)
I0727 10:34:24.907694 22473 net.cpp:156] Memory required for data: 1776051200
I0727 10:34:24.907701 22473 layer_factory.hpp:77] Creating layer Convolution24
I0727 10:34:24.907723 22473 net.cpp:91] Creating Layer Convolution24
I0727 10:34:24.907734 22473 net.cpp:425] Convolution24 <- Pooling23
I0727 10:34:24.907750 22473 net.cpp:399] Convolution24 -> Convolution24
I0727 10:34:24.908308 22473 net.cpp:141] Setting up Convolution24
I0727 10:34:24.908320 22473 net.cpp:148] Top shape: 128 50 26 26 (4326400)
I0727 10:34:24.908327 22473 net.cpp:156] Memory required for data: 1793356800
I0727 10:34:24.908341 22473 net.cpp:484] Sharing parameters 'conv2_w' owned by layer 'Convolution2', param index 0
I0727 10:34:24.908349 22473 net.cpp:484] Sharing parameters 'conv2_b' owned by layer 'Convolution2', param index 1
I0727 10:34:24.908359 22473 layer_factory.hpp:77] Creating layer Pooling24
I0727 10:34:24.908367 22473 net.cpp:91] Creating Layer Pooling24
I0727 10:34:24.908373 22473 net.cpp:425] Pooling24 <- Convolution24
I0727 10:34:24.908385 22473 net.cpp:399] Pooling24 -> Pooling24
I0727 10:34:24.908437 22473 net.cpp:141] Setting up Pooling24
I0727 10:34:24.908448 22473 net.cpp:148] Top shape: 128 50 13 13 (1081600)
I0727 10:34:24.908453 22473 net.cpp:156] Memory required for data: 1797683200
I0727 10:34:24.908459 22473 layer_factory.hpp:77] Creating layer InnerProduct33
I0727 10:34:24.908471 22473 net.cpp:91] Creating Layer InnerProduct33
I0727 10:34:24.908478 22473 net.cpp:425] InnerProduct33 <- Pooling24
I0727 10:34:24.908489 22473 net.cpp:399] InnerProduct33 -> InnerProduct33
I0727 10:34:24.953608 22473 net.cpp:141] Setting up InnerProduct33
I0727 10:34:24.953655 22473 net.cpp:148] Top shape: 128 500 (64000)
I0727 10:34:24.953661 22473 net.cpp:156] Memory required for data: 1797939200
I0727 10:34:24.953671 22473 net.cpp:484] Sharing parameters 'ip1_w' owned by layer 'InnerProduct1', param index 0
I0727 10:34:24.953680 22473 net.cpp:484] Sharing parameters 'ip1_b' owned by layer 'InnerProduct1', param index 1
I0727 10:34:24.953686 22473 layer_factory.hpp:77] Creating layer ReLU22
I0727 10:34:24.953706 22473 net.cpp:91] Creating Layer ReLU22
I0727 10:34:24.953716 22473 net.cpp:425] ReLU22 <- InnerProduct33
I0727 10:34:24.953739 22473 net.cpp:386] ReLU22 -> InnerProduct33 (in-place)
I0727 10:34:24.953753 22473 net.cpp:141] Setting up ReLU22
I0727 10:34:24.953761 22473 net.cpp:148] Top shape: 128 500 (64000)
I0727 10:34:24.953766 22473 net.cpp:156] Memory required for data: 1798195200
I0727 10:34:24.953773 22473 layer_factory.hpp:77] Creating layer InnerProduct34
I0727 10:34:24.953786 22473 net.cpp:91] Creating Layer InnerProduct34
I0727 10:34:24.953796 22473 net.cpp:425] InnerProduct34 <- InnerProduct33
I0727 10:34:24.953807 22473 net.cpp:399] InnerProduct34 -> InnerProduct34
I0727 10:34:24.957546 22473 net.cpp:141] Setting up InnerProduct34
I0727 10:34:24.957576 22473 net.cpp:148] Top shape: 128 500 (64000)
I0727 10:34:24.957581 22473 net.cpp:156] Memory required for data: 1798451200
I0727 10:34:24.957589 22473 net.cpp:484] Sharing parameters 'ip2_w' owned by layer 'InnerProduct2', param index 0
I0727 10:34:24.957597 22473 net.cpp:484] Sharing parameters 'ip2_b' owned by layer 'InnerProduct2', param index 1
I0727 10:34:24.957603 22473 layer_factory.hpp:77] Creating layer Concat6
I0727 10:34:24.957617 22473 net.cpp:91] Creating Layer Concat6
I0727 10:34:24.957631 22473 net.cpp:425] Concat6 <- InnerProduct32
I0727 10:34:24.957641 22473 net.cpp:425] Concat6 <- InnerProduct34
I0727 10:34:24.957653 22473 net.cpp:399] Concat6 -> Concat6
I0727 10:34:24.957681 22473 net.cpp:141] Setting up Concat6
I0727 10:34:24.957689 22473 net.cpp:148] Top shape: 128 1000 (128000)
I0727 10:34:24.957695 22473 net.cpp:156] Memory required for data: 1798963200
I0727 10:34:24.957700 22473 layer_factory.hpp:77] Creating layer InnerProduct35
I0727 10:34:24.957731 22473 net.cpp:91] Creating Layer InnerProduct35
I0727 10:34:24.957736 22473 net.cpp:425] InnerProduct35 <- Concat6
I0727 10:34:24.957748 22473 net.cpp:399] InnerProduct35 -> InnerProduct35
I0727 10:34:24.963587 22473 net.cpp:141] Setting up InnerProduct35
I0727 10:34:24.963608 22473 net.cpp:148] Top shape: 128 512 (65536)
I0727 10:34:24.963614 22473 net.cpp:156] Memory required for data: 1799225344
I0727 10:34:24.963623 22473 net.cpp:484] Sharing parameters 'fc1_w' owned by layer 'InnerProduct5', param index 0
I0727 10:34:24.963630 22473 net.cpp:484] Sharing parameters 'fc1_b' owned by layer 'InnerProduct5', param index 1
I0727 10:34:24.963636 22473 layer_factory.hpp:77] Creating layer ReLU23
I0727 10:34:24.963645 22473 net.cpp:91] Creating Layer ReLU23
I0727 10:34:24.963652 22473 net.cpp:425] ReLU23 <- InnerProduct35
I0727 10:34:24.963661 22473 net.cpp:386] ReLU23 -> InnerProduct35 (in-place)
I0727 10:34:24.963672 22473 net.cpp:141] Setting up ReLU23
I0727 10:34:24.963680 22473 net.cpp:148] Top shape: 128 512 (65536)
I0727 10:34:24.963685 22473 net.cpp:156] Memory required for data: 1799487488
I0727 10:34:24.963690 22473 layer_factory.hpp:77] Creating layer InnerProduct36
I0727 10:34:24.963703 22473 net.cpp:91] Creating Layer InnerProduct36
I0727 10:34:24.963709 22473 net.cpp:425] InnerProduct36 <- InnerProduct35
I0727 10:34:24.963718 22473 net.cpp:399] InnerProduct36 -> InnerProduct36
I0727 10:34:24.975185 22473 net.cpp:141] Setting up InnerProduct36
I0727 10:34:24.975229 22473 net.cpp:148] Top shape: 128 512 (65536)
I0727 10:34:24.975234 22473 net.cpp:156] Memory required for data: 1799749632
I0727 10:34:24.975296 22473 net.cpp:484] Sharing parameters 'fc2_w' owned by layer 'InnerProduct6', param index 0
I0727 10:34:24.975308 22473 net.cpp:484] Sharing parameters 'fc2_b' owned by layer 'InnerProduct6', param index 1
I0727 10:34:24.975316 22473 layer_factory.hpp:77] Creating layer ReLU24
I0727 10:34:24.975328 22473 net.cpp:91] Creating Layer ReLU24
I0727 10:34:24.975337 22473 net.cpp:425] ReLU24 <- InnerProduct36
I0727 10:34:24.975347 22473 net.cpp:386] ReLU24 -> InnerProduct36 (in-place)
I0727 10:34:24.975363 22473 net.cpp:141] Setting up ReLU24
I0727 10:34:24.975371 22473 net.cpp:148] Top shape: 128 512 (65536)
I0727 10:34:24.975378 22473 net.cpp:156] Memory required for data: 1800011776
I0727 10:34:24.975384 22473 layer_factory.hpp:77] Creating layer dt5
I0727 10:34:24.975399 22473 net.cpp:91] Creating Layer dt5
I0727 10:34:24.975409 22473 net.cpp:425] dt5 <- InnerProduct36
I0727 10:34:24.975421 22473 net.cpp:399] dt5 -> dt5
I0727 10:34:24.975563 22473 net.cpp:141] Setting up dt5
I0727 10:34:24.975572 22473 net.cpp:148] Top shape: 128 1 (128)
I0727 10:34:24.975579 22473 net.cpp:156] Memory required for data: 1800012288
I0727 10:34:24.975584 22473 net.cpp:484] Sharing parameters 'fc3_w' owned by layer 'dt0', param index 0
I0727 10:34:24.975591 22473 net.cpp:484] Sharing parameters 'fc3_b' owned by layer 'dt0', param index 1
I0727 10:34:24.975600 22473 layer_factory.hpp:77] Creating layer Convolution25
I0727 10:34:24.975615 22473 net.cpp:91] Creating Layer Convolution25
I0727 10:34:24.975625 22473 net.cpp:425] Convolution25 <- p1_p1_0_split_6
I0727 10:34:24.975636 22473 net.cpp:399] Convolution25 -> Convolution25
I0727 10:34:24.976029 22473 net.cpp:141] Setting up Convolution25
I0727 10:34:24.976040 22473 net.cpp:148] Top shape: 128 20 60 60 (9216000)
I0727 10:34:24.976047 22473 net.cpp:156] Memory required for data: 1836876288
I0727 10:34:24.976052 22473 net.cpp:484] Sharing parameters 'conv1_w' owned by layer 'Convolution1', param index 0
I0727 10:34:24.976063 22473 net.cpp:484] Sharing parameters 'conv1_b' owned by layer 'Convolution1', param index 1
I0727 10:34:24.976068 22473 layer_factory.hpp:77] Creating layer Pooling25
I0727 10:34:24.976078 22473 net.cpp:91] Creating Layer Pooling25
I0727 10:34:24.976084 22473 net.cpp:425] Pooling25 <- Convolution25
I0727 10:34:24.976099 22473 net.cpp:399] Pooling25 -> Pooling25
I0727 10:34:24.976155 22473 net.cpp:141] Setting up Pooling25
I0727 10:34:24.976187 22473 net.cpp:148] Top shape: 128 20 30 30 (2304000)
I0727 10:34:24.976192 22473 net.cpp:156] Memory required for data: 1846092288
I0727 10:34:24.976198 22473 layer_factory.hpp:77] Creating layer Convolution26
I0727 10:34:24.976212 22473 net.cpp:91] Creating Layer Convolution26
I0727 10:34:24.976218 22473 net.cpp:425] Convolution26 <- Pooling25
I0727 10:34:24.976232 22473 net.cpp:399] Convolution26 -> Convolution26
I0727 10:34:24.976786 22473 net.cpp:141] Setting up Convolution26
I0727 10:34:24.976800 22473 net.cpp:148] Top shape: 128 50 26 26 (4326400)
I0727 10:34:24.976806 22473 net.cpp:156] Memory required for data: 1863397888
I0727 10:34:24.976812 22473 net.cpp:484] Sharing parameters 'conv2_w' owned by layer 'Convolution2', param index 0
I0727 10:34:24.976819 22473 net.cpp:484] Sharing parameters 'conv2_b' owned by layer 'Convolution2', param index 1
I0727 10:34:24.976827 22473 layer_factory.hpp:77] Creating layer Pooling26
I0727 10:34:24.976837 22473 net.cpp:91] Creating Layer Pooling26
I0727 10:34:24.976843 22473 net.cpp:425] Pooling26 <- Convolution26
I0727 10:34:24.976858 22473 net.cpp:399] Pooling26 -> Pooling26
I0727 10:34:24.976908 22473 net.cpp:141] Setting up Pooling26
I0727 10:34:24.976918 22473 net.cpp:148] Top shape: 128 50 13 13 (1081600)
I0727 10:34:24.976924 22473 net.cpp:156] Memory required for data: 1867724288
I0727 10:34:24.976929 22473 layer_factory.hpp:77] Creating layer InnerProduct37
I0727 10:34:24.976943 22473 net.cpp:91] Creating Layer InnerProduct37
I0727 10:34:24.976948 22473 net.cpp:425] InnerProduct37 <- Pooling26
I0727 10:34:24.976961 22473 net.cpp:399] InnerProduct37 -> InnerProduct37
I0727 10:34:25.019203 22473 net.cpp:141] Setting up InnerProduct37
I0727 10:34:25.019249 22473 net.cpp:148] Top shape: 128 500 (64000)
I0727 10:34:25.019256 22473 net.cpp:156] Memory required for data: 1867980288
I0727 10:34:25.019266 22473 net.cpp:484] Sharing parameters 'ip1_w' owned by layer 'InnerProduct1', param index 0
I0727 10:34:25.019275 22473 net.cpp:484] Sharing parameters 'ip1_b' owned by layer 'InnerProduct1', param index 1
I0727 10:34:25.019281 22473 layer_factory.hpp:77] Creating layer ReLU25
I0727 10:34:25.019305 22473 net.cpp:91] Creating Layer ReLU25
I0727 10:34:25.019315 22473 net.cpp:425] ReLU25 <- InnerProduct37
I0727 10:34:25.019327 22473 net.cpp:386] ReLU25 -> InnerProduct37 (in-place)
I0727 10:34:25.019341 22473 net.cpp:141] Setting up ReLU25
I0727 10:34:25.019348 22473 net.cpp:148] Top shape: 128 500 (64000)
I0727 10:34:25.019354 22473 net.cpp:156] Memory required for data: 1868236288
I0727 10:34:25.019361 22473 layer_factory.hpp:77] Creating layer InnerProduct38
I0727 10:34:25.019371 22473 net.cpp:91] Creating Layer InnerProduct38
I0727 10:34:25.019377 22473 net.cpp:425] InnerProduct38 <- InnerProduct37
I0727 10:34:25.019389 22473 net.cpp:399] InnerProduct38 -> InnerProduct38
I0727 10:34:25.022863 22473 net.cpp:141] Setting up InnerProduct38
I0727 10:34:25.022881 22473 net.cpp:148] Top shape: 128 500 (64000)
I0727 10:34:25.022887 22473 net.cpp:156] Memory required for data: 1868492288
I0727 10:34:25.022896 22473 net.cpp:484] Sharing parameters 'ip2_w' owned by layer 'InnerProduct2', param index 0
I0727 10:34:25.022903 22473 net.cpp:484] Sharing parameters 'ip2_b' owned by layer 'InnerProduct2', param index 1
I0727 10:34:25.022910 22473 layer_factory.hpp:77] Creating layer Convolution27
I0727 10:34:25.022927 22473 net.cpp:91] Creating Layer Convolution27
I0727 10:34:25.022943 22473 net.cpp:425] Convolution27 <- c26
I0727 10:34:25.022959 22473 net.cpp:399] Convolution27 -> Convolution27
I0727 10:34:25.023365 22473 net.cpp:141] Setting up Convolution27
I0727 10:34:25.023382 22473 net.cpp:148] Top shape: 128 20 60 60 (9216000)
I0727 10:34:25.023389 22473 net.cpp:156] Memory required for data: 1905356288
I0727 10:34:25.023398 22473 net.cpp:484] Sharing parameters 'conv1_w' owned by layer 'Convolution1', param index 0
I0727 10:34:25.023411 22473 net.cpp:484] Sharing parameters 'conv1_b' owned by layer 'Convolution1', param index 1
I0727 10:34:25.023434 22473 layer_factory.hpp:77] Creating layer Pooling27
I0727 10:34:25.023444 22473 net.cpp:91] Creating Layer Pooling27
I0727 10:34:25.023450 22473 net.cpp:425] Pooling27 <- Convolution27
I0727 10:34:25.023460 22473 net.cpp:399] Pooling27 -> Pooling27
I0727 10:34:25.023517 22473 net.cpp:141] Setting up Pooling27
I0727 10:34:25.023531 22473 net.cpp:148] Top shape: 128 20 30 30 (2304000)
I0727 10:34:25.023540 22473 net.cpp:156] Memory required for data: 1914572288
I0727 10:34:25.023546 22473 layer_factory.hpp:77] Creating layer Convolution28
I0727 10:34:25.023564 22473 net.cpp:91] Creating Layer Convolution28
I0727 10:34:25.023574 22473 net.cpp:425] Convolution28 <- Pooling27
I0727 10:34:25.023591 22473 net.cpp:399] Convolution28 -> Convolution28
I0727 10:34:25.024158 22473 net.cpp:141] Setting up Convolution28
I0727 10:34:25.024171 22473 net.cpp:148] Top shape: 128 50 26 26 (4326400)
I0727 10:34:25.024178 22473 net.cpp:156] Memory required for data: 1931877888
I0727 10:34:25.024210 22473 net.cpp:484] Sharing parameters 'conv2_w' owned by layer 'Convolution2', param index 0
I0727 10:34:25.024224 22473 net.cpp:484] Sharing parameters 'conv2_b' owned by layer 'Convolution2', param index 1
I0727 10:34:25.024231 22473 layer_factory.hpp:77] Creating layer Pooling28
I0727 10:34:25.024242 22473 net.cpp:91] Creating Layer Pooling28
I0727 10:34:25.024268 22473 net.cpp:425] Pooling28 <- Convolution28
I0727 10:34:25.024287 22473 net.cpp:399] Pooling28 -> Pooling28
I0727 10:34:25.024351 22473 net.cpp:141] Setting up Pooling28
I0727 10:34:25.024368 22473 net.cpp:148] Top shape: 128 50 13 13 (1081600)
I0727 10:34:25.024376 22473 net.cpp:156] Memory required for data: 1936204288
I0727 10:34:25.024384 22473 layer_factory.hpp:77] Creating layer InnerProduct39
I0727 10:34:25.024397 22473 net.cpp:91] Creating Layer InnerProduct39
I0727 10:34:25.024408 22473 net.cpp:425] InnerProduct39 <- Pooling28
I0727 10:34:25.024425 22473 net.cpp:399] InnerProduct39 -> InnerProduct39
I0727 10:34:25.072049 22473 net.cpp:141] Setting up InnerProduct39
I0727 10:34:25.072090 22473 net.cpp:148] Top shape: 128 500 (64000)
I0727 10:34:25.072099 22473 net.cpp:156] Memory required for data: 1936460288
I0727 10:34:25.072113 22473 net.cpp:484] Sharing parameters 'ip1_w' owned by layer 'InnerProduct1', param index 0
I0727 10:34:25.072124 22473 net.cpp:484] Sharing parameters 'ip1_b' owned by layer 'InnerProduct1', param index 1
I0727 10:34:25.072130 22473 layer_factory.hpp:77] Creating layer ReLU26
I0727 10:34:25.072146 22473 net.cpp:91] Creating Layer ReLU26
I0727 10:34:25.072156 22473 net.cpp:425] ReLU26 <- InnerProduct39
I0727 10:34:25.072176 22473 net.cpp:386] ReLU26 -> InnerProduct39 (in-place)
I0727 10:34:25.072193 22473 net.cpp:141] Setting up ReLU26
I0727 10:34:25.072204 22473 net.cpp:148] Top shape: 128 500 (64000)
I0727 10:34:25.072211 22473 net.cpp:156] Memory required for data: 1936716288
I0727 10:34:25.072245 22473 layer_factory.hpp:77] Creating layer InnerProduct40
I0727 10:34:25.072263 22473 net.cpp:91] Creating Layer InnerProduct40
I0727 10:34:25.072290 22473 net.cpp:425] InnerProduct40 <- InnerProduct39
I0727 10:34:25.072310 22473 net.cpp:399] InnerProduct40 -> InnerProduct40
I0727 10:34:25.082393 22473 net.cpp:141] Setting up InnerProduct40
I0727 10:34:25.082432 22473 net.cpp:148] Top shape: 128 500 (64000)
I0727 10:34:25.082440 22473 net.cpp:156] Memory required for data: 1936972288
I0727 10:34:25.082453 22473 net.cpp:484] Sharing parameters 'ip2_w' owned by layer 'InnerProduct2', param index 0
I0727 10:34:25.082463 22473 net.cpp:484] Sharing parameters 'ip2_b' owned by layer 'InnerProduct2', param index 1
I0727 10:34:25.082509 22473 layer_factory.hpp:77] Creating layer Concat7
I0727 10:34:25.082528 22473 net.cpp:91] Creating Layer Concat7
I0727 10:34:25.082557 22473 net.cpp:425] Concat7 <- InnerProduct38
I0727 10:34:25.082573 22473 net.cpp:425] Concat7 <- InnerProduct40
I0727 10:34:25.082589 22473 net.cpp:399] Concat7 -> Concat7
I0727 10:34:25.082631 22473 net.cpp:141] Setting up Concat7
I0727 10:34:25.082644 22473 net.cpp:148] Top shape: 128 1000 (128000)
I0727 10:34:25.082671 22473 net.cpp:156] Memory required for data: 1937484288
I0727 10:34:25.082679 22473 layer_factory.hpp:77] Creating layer InnerProduct41
I0727 10:34:25.082698 22473 net.cpp:91] Creating Layer InnerProduct41
I0727 10:34:25.082710 22473 net.cpp:425] InnerProduct41 <- Concat7
I0727 10:34:25.082726 22473 net.cpp:399] InnerProduct41 -> InnerProduct41
I0727 10:34:25.091599 22473 net.cpp:141] Setting up InnerProduct41
I0727 10:34:25.091630 22473 net.cpp:148] Top shape: 128 512 (65536)
I0727 10:34:25.091639 22473 net.cpp:156] Memory required for data: 1937746432
I0727 10:34:25.091650 22473 net.cpp:484] Sharing parameters 'fc1_w' owned by layer 'InnerProduct5', param index 0
I0727 10:34:25.091665 22473 net.cpp:484] Sharing parameters 'fc1_b' owned by layer 'InnerProduct5', param index 1
I0727 10:34:25.091672 22473 layer_factory.hpp:77] Creating layer ReLU27
I0727 10:34:25.091691 22473 net.cpp:91] Creating Layer ReLU27
I0727 10:34:25.091704 22473 net.cpp:425] ReLU27 <- InnerProduct41
I0727 10:34:25.091717 22473 net.cpp:386] ReLU27 -> InnerProduct41 (in-place)
I0727 10:34:25.091732 22473 net.cpp:141] Setting up ReLU27
I0727 10:34:25.091742 22473 net.cpp:148] Top shape: 128 512 (65536)
I0727 10:34:25.091750 22473 net.cpp:156] Memory required for data: 1938008576
I0727 10:34:25.091758 22473 layer_factory.hpp:77] Creating layer InnerProduct42
I0727 10:34:25.091773 22473 net.cpp:91] Creating Layer InnerProduct42
I0727 10:34:25.091790 22473 net.cpp:425] InnerProduct42 <- InnerProduct41
I0727 10:34:25.091804 22473 net.cpp:399] InnerProduct42 -> InnerProduct42
I0727 10:34:25.095299 22473 net.cpp:141] Setting up InnerProduct42
I0727 10:34:25.095316 22473 net.cpp:148] Top shape: 128 512 (65536)
I0727 10:34:25.095322 22473 net.cpp:156] Memory required for data: 1938270720
I0727 10:34:25.095330 22473 net.cpp:484] Sharing parameters 'fc2_w' owned by layer 'InnerProduct6', param index 0
I0727 10:34:25.095338 22473 net.cpp:484] Sharing parameters 'fc2_b' owned by layer 'InnerProduct6', param index 1
I0727 10:34:25.095345 22473 layer_factory.hpp:77] Creating layer ReLU28
I0727 10:34:25.095353 22473 net.cpp:91] Creating Layer ReLU28
I0727 10:34:25.095360 22473 net.cpp:425] ReLU28 <- InnerProduct42
I0727 10:34:25.095372 22473 net.cpp:386] ReLU28 -> InnerProduct42 (in-place)
I0727 10:34:25.095383 22473 net.cpp:141] Setting up ReLU28
I0727 10:34:25.095391 22473 net.cpp:148] Top shape: 128 512 (65536)
I0727 10:34:25.095396 22473 net.cpp:156] Memory required for data: 1938532864
I0727 10:34:25.095402 22473 layer_factory.hpp:77] Creating layer dt6
I0727 10:34:25.095412 22473 net.cpp:91] Creating Layer dt6
I0727 10:34:25.095417 22473 net.cpp:425] dt6 <- InnerProduct42
I0727 10:34:25.095430 22473 net.cpp:399] dt6 -> dt6
I0727 10:34:25.095590 22473 net.cpp:141] Setting up dt6
I0727 10:34:25.095602 22473 net.cpp:148] Top shape: 128 1 (128)
I0727 10:34:25.095608 22473 net.cpp:156] Memory required for data: 1938533376
I0727 10:34:25.095615 22473 net.cpp:484] Sharing parameters 'fc3_w' owned by layer 'dt0', param index 0
I0727 10:34:25.095623 22473 net.cpp:484] Sharing parameters 'fc3_b' owned by layer 'dt0', param index 1
I0727 10:34:25.095628 22473 layer_factory.hpp:77] Creating layer Convolution29
I0727 10:34:25.095641 22473 net.cpp:91] Creating Layer Convolution29
I0727 10:34:25.095649 22473 net.cpp:425] Convolution29 <- p1_p1_0_split_7
I0727 10:34:25.095662 22473 net.cpp:399] Convolution29 -> Convolution29
I0727 10:34:25.096071 22473 net.cpp:141] Setting up Convolution29
I0727 10:34:25.096083 22473 net.cpp:148] Top shape: 128 20 60 60 (9216000)
I0727 10:34:25.096089 22473 net.cpp:156] Memory required for data: 1975397376
I0727 10:34:25.096096 22473 net.cpp:484] Sharing parameters 'conv1_w' owned by layer 'Convolution1', param index 0
I0727 10:34:25.096102 22473 net.cpp:484] Sharing parameters 'conv1_b' owned by layer 'Convolution1', param index 1
I0727 10:34:25.096108 22473 layer_factory.hpp:77] Creating layer Pooling29
I0727 10:34:25.096118 22473 net.cpp:91] Creating Layer Pooling29
I0727 10:34:25.096124 22473 net.cpp:425] Pooling29 <- Convolution29
I0727 10:34:25.096154 22473 net.cpp:399] Pooling29 -> Pooling29
I0727 10:34:25.096221 22473 net.cpp:141] Setting up Pooling29
I0727 10:34:25.096235 22473 net.cpp:148] Top shape: 128 20 30 30 (2304000)
I0727 10:34:25.096240 22473 net.cpp:156] Memory required for data: 1984613376
I0727 10:34:25.096246 22473 layer_factory.hpp:77] Creating layer Convolution30
I0727 10:34:25.096262 22473 net.cpp:91] Creating Layer Convolution30
I0727 10:34:25.096269 22473 net.cpp:425] Convolution30 <- Pooling29
I0727 10:34:25.096279 22473 net.cpp:399] Convolution30 -> Convolution30
I0727 10:34:25.096869 22473 net.cpp:141] Setting up Convolution30
I0727 10:34:25.096880 22473 net.cpp:148] Top shape: 128 50 26 26 (4326400)
I0727 10:34:25.096886 22473 net.cpp:156] Memory required for data: 2001918976
I0727 10:34:25.096892 22473 net.cpp:484] Sharing parameters 'conv2_w' owned by layer 'Convolution2', param index 0
I0727 10:34:25.096899 22473 net.cpp:484] Sharing parameters 'conv2_b' owned by layer 'Convolution2', param index 1
I0727 10:34:25.096909 22473 layer_factory.hpp:77] Creating layer Pooling30
I0727 10:34:25.096918 22473 net.cpp:91] Creating Layer Pooling30
I0727 10:34:25.096925 22473 net.cpp:425] Pooling30 <- Convolution30
I0727 10:34:25.096933 22473 net.cpp:399] Pooling30 -> Pooling30
I0727 10:34:25.096987 22473 net.cpp:141] Setting up Pooling30
I0727 10:34:25.096994 22473 net.cpp:148] Top shape: 128 50 13 13 (1081600)
I0727 10:34:25.097000 22473 net.cpp:156] Memory required for data: 2006245376
I0727 10:34:25.097005 22473 layer_factory.hpp:77] Creating layer InnerProduct43
I0727 10:34:25.097014 22473 net.cpp:91] Creating Layer InnerProduct43
I0727 10:34:25.097020 22473 net.cpp:425] InnerProduct43 <- Pooling30
I0727 10:34:25.097033 22473 net.cpp:399] InnerProduct43 -> InnerProduct43
I0727 10:34:25.139938 22473 net.cpp:141] Setting up InnerProduct43
I0727 10:34:25.139984 22473 net.cpp:148] Top shape: 128 500 (64000)
I0727 10:34:25.139991 22473 net.cpp:156] Memory required for data: 2006501376
I0727 10:34:25.140002 22473 net.cpp:484] Sharing parameters 'ip1_w' owned by layer 'InnerProduct1', param index 0
I0727 10:34:25.140010 22473 net.cpp:484] Sharing parameters 'ip1_b' owned by layer 'InnerProduct1', param index 1
I0727 10:34:25.140017 22473 layer_factory.hpp:77] Creating layer ReLU29
I0727 10:34:25.140044 22473 net.cpp:91] Creating Layer ReLU29
I0727 10:34:25.140054 22473 net.cpp:425] ReLU29 <- InnerProduct43
I0727 10:34:25.140064 22473 net.cpp:386] ReLU29 -> InnerProduct43 (in-place)
I0727 10:34:25.140079 22473 net.cpp:141] Setting up ReLU29
I0727 10:34:25.140086 22473 net.cpp:148] Top shape: 128 500 (64000)
I0727 10:34:25.140092 22473 net.cpp:156] Memory required for data: 2006757376
I0727 10:34:25.140097 22473 layer_factory.hpp:77] Creating layer InnerProduct44
I0727 10:34:25.140108 22473 net.cpp:91] Creating Layer InnerProduct44
I0727 10:34:25.140115 22473 net.cpp:425] InnerProduct44 <- InnerProduct43
I0727 10:34:25.140126 22473 net.cpp:399] InnerProduct44 -> InnerProduct44
I0727 10:34:25.163267 22473 net.cpp:141] Setting up InnerProduct44
I0727 10:34:25.163300 22473 net.cpp:148] Top shape: 128 500 (64000)
I0727 10:34:25.163307 22473 net.cpp:156] Memory required for data: 2007013376
I0727 10:34:25.163318 22473 net.cpp:484] Sharing parameters 'ip2_w' owned by layer 'InnerProduct2', param index 0
I0727 10:34:25.163327 22473 net.cpp:484] Sharing parameters 'ip2_b' owned by layer 'InnerProduct2', param index 1
I0727 10:34:25.163333 22473 layer_factory.hpp:77] Creating layer Convolution31
I0727 10:34:25.163352 22473 net.cpp:91] Creating Layer Convolution31
I0727 10:34:25.163362 22473 net.cpp:425] Convolution31 <- c27
I0727 10:34:25.163379 22473 net.cpp:399] Convolution31 -> Convolution31
I0727 10:34:25.163792 22473 net.cpp:141] Setting up Convolution31
I0727 10:34:25.163805 22473 net.cpp:148] Top shape: 128 20 60 60 (9216000)
I0727 10:34:25.163810 22473 net.cpp:156] Memory required for data: 2043877376
I0727 10:34:25.163816 22473 net.cpp:484] Sharing parameters 'conv1_w' owned by layer 'Convolution1', param index 0
I0727 10:34:25.163852 22473 net.cpp:484] Sharing parameters 'conv1_b' owned by layer 'Convolution1', param index 1
I0727 10:34:25.163861 22473 layer_factory.hpp:77] Creating layer Pooling31
I0727 10:34:25.163873 22473 net.cpp:91] Creating Layer Pooling31
I0727 10:34:25.163882 22473 net.cpp:425] Pooling31 <- Convolution31
I0727 10:34:25.163897 22473 net.cpp:399] Pooling31 -> Pooling31
I0727 10:34:25.163961 22473 net.cpp:141] Setting up Pooling31
I0727 10:34:25.163975 22473 net.cpp:148] Top shape: 128 20 30 30 (2304000)
I0727 10:34:25.163981 22473 net.cpp:156] Memory required for data: 2053093376
I0727 10:34:25.163986 22473 layer_factory.hpp:77] Creating layer Convolution32
I0727 10:34:25.164002 22473 net.cpp:91] Creating Layer Convolution32
I0727 10:34:25.164010 22473 net.cpp:425] Convolution32 <- Pooling31
I0727 10:34:25.164019 22473 net.cpp:399] Convolution32 -> Convolution32
I0727 10:34:25.164599 22473 net.cpp:141] Setting up Convolution32
I0727 10:34:25.164620 22473 net.cpp:148] Top shape: 128 50 26 26 (4326400)
I0727 10:34:25.164625 22473 net.cpp:156] Memory required for data: 2070398976
I0727 10:34:25.164631 22473 net.cpp:484] Sharing parameters 'conv2_w' owned by layer 'Convolution2', param index 0
I0727 10:34:25.164638 22473 net.cpp:484] Sharing parameters 'conv2_b' owned by layer 'Convolution2', param index 1
I0727 10:34:25.164644 22473 layer_factory.hpp:77] Creating layer Pooling32
I0727 10:34:25.164652 22473 net.cpp:91] Creating Layer Pooling32
I0727 10:34:25.164659 22473 net.cpp:425] Pooling32 <- Convolution32
I0727 10:34:25.164667 22473 net.cpp:399] Pooling32 -> Pooling32
I0727 10:34:25.164731 22473 net.cpp:141] Setting up Pooling32
I0727 10:34:25.164738 22473 net.cpp:148] Top shape: 128 50 13 13 (1081600)
I0727 10:34:25.164744 22473 net.cpp:156] Memory required for data: 2074725376
I0727 10:34:25.164749 22473 layer_factory.hpp:77] Creating layer InnerProduct45
I0727 10:34:25.164759 22473 net.cpp:91] Creating Layer InnerProduct45
I0727 10:34:25.164765 22473 net.cpp:425] InnerProduct45 <- Pooling32
I0727 10:34:25.164778 22473 net.cpp:399] InnerProduct45 -> InnerProduct45
I0727 10:34:25.208323 22473 net.cpp:141] Setting up InnerProduct45
I0727 10:34:25.208364 22473 net.cpp:148] Top shape: 128 500 (64000)
I0727 10:34:25.208369 22473 net.cpp:156] Memory required for data: 2074981376
I0727 10:34:25.208384 22473 net.cpp:484] Sharing parameters 'ip1_w' owned by layer 'InnerProduct1', param index 0
I0727 10:34:25.208394 22473 net.cpp:484] Sharing parameters 'ip1_b' owned by layer 'InnerProduct1', param index 1
I0727 10:34:25.208400 22473 layer_factory.hpp:77] Creating layer ReLU30
I0727 10:34:25.208415 22473 net.cpp:91] Creating Layer ReLU30
I0727 10:34:25.208425 22473 net.cpp:425] ReLU30 <- InnerProduct45
I0727 10:34:25.208437 22473 net.cpp:386] ReLU30 -> InnerProduct45 (in-place)
I0727 10:34:25.208453 22473 net.cpp:141] Setting up ReLU30
I0727 10:34:25.208461 22473 net.cpp:148] Top shape: 128 500 (64000)
…
I0727 10:34:30.636158 22473 net.cpp:484] Sharing parameters 'ip1_w' owned by layer 'InnerProduct1', param index 0
I0727 10:34:30.636170 22473 net.cpp:484] Sharing parameters 'ip1_b' owned by layer 'InnerProduct1', param index 1
I0727 10:34:30.636179 22473 layer_factory.hpp:77] Creating layer ReLU61
I0727 10:34:30.636194 22473 net.cpp:91] Creating Layer ReLU61
I0727 10:34:30.636216 22473 net.cpp:425] ReLU61 <- InnerProduct91
I0727 10:34:30.636232 22473 net.cpp:386] ReLU61 -> InnerProduct91 (in-place)
I0727 10:34:30.636250 22473 net.cpp:141] Setting up ReLU61
I0727 10:34:30.636260 22473 net.cpp:148] Top shape: 100 500 (50000)
I0727 10:34:30.636267 22473 net.cpp:156] Memory required for data: 2433536000
I0727 10:34:30.636276 22473 layer_factory.hpp:77] Creating layer InnerProduct92
I0727 10:34:30.636289 22473 net.cpp:91] Creating Layer InnerProduct92
I0727 10:34:30.636298 22473 net.cpp:425] InnerProduct92 <- InnerProduct91
I0727 10:34:30.636313 22473 net.cpp:399] InnerProduct92 -> InnerProduct92
I0727 10:34:30.640002 22473 net.cpp:141] Setting up InnerProduct92
I0727 10:34:30.640025 22473 net.cpp:148] Top shape: 100 500 (50000)
I0727 10:34:30.640033 22473 net.cpp:156] Memory required for data: 2433736000
I0727 10:34:30.640044 22473 net.cpp:484] Sharing parameters 'ip2_w' owned by layer 'InnerProduct2', param index 0
I0727 10:34:30.640055 22473 net.cpp:484] Sharing parameters 'ip2_b' owned by layer 'InnerProduct2', param index 1
I0727 10:34:30.640064 22473 layer_factory.hpp:77] Creating layer Convolution63
I0727 10:34:30.640084 22473 net.cpp:91] Creating Layer Convolution63
I0727 10:34:30.640092 22473 net.cpp:425] Convolution63 <- c16
I0727 10:34:30.640112 22473 net.cpp:399] Convolution63 -> Convolution63
I0727 10:34:30.640686 22473 net.cpp:141] Setting up Convolution63
I0727 10:34:30.640703 22473 net.cpp:148] Top shape: 100 20 60 60 (7200000)
I0727 10:34:30.640735 22473 net.cpp:156] Memory required for data: 2462536000
I0727 10:34:30.640745 22473 net.cpp:484] Sharing parameters 'conv1_w' owned by layer 'Convolution1', param index 0
I0727 10:34:30.640755 22473 net.cpp:484] Sharing parameters 'conv1_b' owned by layer 'Convolution1', param index 1
I0727 10:34:30.640763 22473 layer_factory.hpp:77] Creating layer Pooling63
I0727 10:34:30.640779 22473 net.cpp:91] Creating Layer Pooling63
I0727 10:34:30.640789 22473 net.cpp:425] Pooling63 <- Convolution63
I0727 10:34:30.640802 22473 net.cpp:399] Pooling63 -> Pooling63
I0727 10:34:30.640877 22473 net.cpp:141] Setting up Pooling63
I0727 10:34:30.640892 22473 net.cpp:148] Top shape: 100 20 30 30 (1800000)
I0727 10:34:30.640898 22473 net.cpp:156] Memory required for data: 2469736000
I0727 10:34:30.640907 22473 layer_factory.hpp:77] Creating layer Convolution64
I0727 10:34:30.640925 22473 net.cpp:91] Creating Layer Convolution64
I0727 10:34:30.640933 22473 net.cpp:425] Convolution64 <- Pooling63
I0727 10:34:30.640950 22473 net.cpp:399] Convolution64 -> Convolution64
I0727 10:34:30.641597 22473 net.cpp:141] Setting up Convolution64
I0727 10:34:30.641611 22473 net.cpp:148] Top shape: 100 50 26 26 (3380000)
I0727 10:34:30.641619 22473 net.cpp:156] Memory required for data: 2483256000
I0727 10:34:30.641628 22473 net.cpp:484] Sharing parameters 'conv2_w' owned by layer 'Convolution2', param index 0
I0727 10:34:30.641638 22473 net.cpp:484] Sharing parameters 'conv2_b' owned by layer 'Convolution2', param index 1
I0727 10:34:30.641644 22473 layer_factory.hpp:77] Creating layer Pooling64
I0727 10:34:30.641656 22473 net.cpp:91] Creating Layer Pooling64
I0727 10:34:30.641664 22473 net.cpp:425] Pooling64 <- Convolution64
I0727 10:34:30.641680 22473 net.cpp:399] Pooling64 -> Pooling64
I0727 10:34:30.641749 22473 net.cpp:141] Setting up Pooling64
I0727 10:34:30.641762 22473 net.cpp:148] Top shape: 100 50 13 13 (845000)
I0727 10:34:30.641770 22473 net.cpp:156] Memory required for data: 2486636000
I0727 10:34:30.641777 22473 layer_factory.hpp:77] Creating layer InnerProduct93
I0727 10:34:30.641793 22473 net.cpp:91] Creating Layer InnerProduct93
I0727 10:34:30.641803 22473 net.cpp:425] InnerProduct93 <- Pooling64
I0727 10:34:30.641818 22473 net.cpp:399] InnerProduct93 -> InnerProduct93
I0727 10:34:30.696913 22473 net.cpp:141] Setting up InnerProduct93
I0727 10:34:30.696962 22473 net.cpp:148] Top shape: 100 500 (50000)
I0727 10:34:30.696969 22473 net.cpp:156] Memory required for data: 2486836000
I0727 10:34:30.696979 22473 net.cpp:484] Sharing parameters 'ip1_w' owned by layer 'InnerProduct1', param index 0
I0727 10:34:30.696990 22473 net.cpp:484] Sharing parameters 'ip1_b' owned by layer 'InnerProduct1', param index 1
I0727 10:34:30.696995 22473 layer_factory.hpp:77] Creating layer ReLU62
I0727 10:34:30.697016 22473 net.cpp:91] Creating Layer ReLU62
I0727 10:34:30.697027 22473 net.cpp:425] ReLU62 <- InnerProduct93
I0727 10:34:30.697048 22473 net.cpp:386] ReLU62 -> InnerProduct93 (in-place)
I0727 10:34:30.697063 22473 net.cpp:141] Setting up ReLU62
I0727 10:34:30.697072 22473 net.cpp:148] Top shape: 100 500 (50000)
I0727 10:34:30.697077 22473 net.cpp:156] Memory required for data: 2487036000
I0727 10:34:30.697082 22473 layer_factory.hpp:77] Creating layer InnerProduct94
I0727 10:34:30.697094 22473 net.cpp:91] Creating Layer InnerProduct94
I0727 10:34:30.697100 22473 net.cpp:425] InnerProduct94 <- InnerProduct93
I0727 10:34:30.697113 22473 net.cpp:399] InnerProduct94 -> InnerProduct94
I0727 10:34:30.699920 22473 net.cpp:141] Setting up InnerProduct94
I0727 10:34:30.699946 22473 net.cpp:148] Top shape: 100 500 (50000)
I0727 10:34:30.699952 22473 net.cpp:156] Memory required for data: 2487236000
I0727 10:34:30.699959 22473 net.cpp:484] Sharing parameters 'ip2_w' owned by layer 'InnerProduct2', param index 0
I0727 10:34:30.699966 22473 net.cpp:484] Sharing parameters 'ip2_b' owned by layer 'InnerProduct2', param index 1
I0727 10:34:30.699972 22473 layer_factory.hpp:77] Creating layer Concat16
I0727 10:34:30.699985 22473 net.cpp:91] Creating Layer Concat16
I0727 10:34:30.700022 22473 net.cpp:425] Concat16 <- InnerProduct92
I0727 10:34:30.700031 22473 net.cpp:425] Concat16 <- InnerProduct94
I0727 10:34:30.700042 22473 net.cpp:399] Concat16 -> Concat16
I0727 10:34:30.700086 22473 net.cpp:141] Setting up Concat16
I0727 10:34:30.700094 22473 net.cpp:148] Top shape: 100 1000 (100000)
I0727 10:34:30.700099 22473 net.cpp:156] Memory required for data: 2487636000
I0727 10:34:30.700105 22473 layer_factory.hpp:77] Creating layer InnerProduct95
I0727 10:34:30.700117 22473 net.cpp:91] Creating Layer InnerProduct95
I0727 10:34:30.700124 22473 net.cpp:425] InnerProduct95 <- Concat16
I0727 10:34:30.700132 22473 net.cpp:399] InnerProduct95 -> InnerProduct95
I0727 10:34:30.705976 22473 net.cpp:141] Setting up InnerProduct95
I0727 10:34:30.706007 22473 net.cpp:148] Top shape: 100 512 (51200)
I0727 10:34:30.706012 22473 net.cpp:156] Memory required for data: 2487840800
I0727 10:34:30.706020 22473 net.cpp:484] Sharing parameters 'fc1_w' owned by layer 'InnerProduct5', param index 0
I0727 10:34:30.706028 22473 net.cpp:484] Sharing parameters 'fc1_b' owned by layer 'InnerProduct5', param index 1
I0727 10:34:30.706034 22473 layer_factory.hpp:77] Creating layer ReLU63
I0727 10:34:30.706044 22473 net.cpp:91] Creating Layer ReLU63
I0727 10:34:30.706051 22473 net.cpp:425] ReLU63 <- InnerProduct95
I0727 10:34:30.706070 22473 net.cpp:386] ReLU63 -> InnerProduct95 (in-place)
I0727 10:34:30.706081 22473 net.cpp:141] Setting up ReLU63
I0727 10:34:30.706089 22473 net.cpp:148] Top shape: 100 512 (51200)
I0727 10:34:30.706095 22473 net.cpp:156] Memory required for data: 2488045600
I0727 10:34:30.706101 22473 layer_factory.hpp:77] Creating layer InnerProduct96
I0727 10:34:30.706115 22473 net.cpp:91] Creating Layer InnerProduct96
I0727 10:34:30.706120 22473 net.cpp:425] InnerProduct96 <- InnerProduct95
I0727 10:34:30.706132 22473 net.cpp:399] InnerProduct96 -> InnerProduct96
I0727 10:34:30.709853 22473 net.cpp:141] Setting up InnerProduct96
I0727 10:34:30.709877 22473 net.cpp:148] Top shape: 100 512 (51200)
I0727 10:34:30.709884 22473 net.cpp:156] Memory required for data: 2488250400
I0727 10:34:30.709893 22473 net.cpp:484] Sharing parameters 'fc2_w' owned by layer 'InnerProduct6', param index 0
I0727 10:34:30.709903 22473 net.cpp:484] Sharing parameters 'fc2_b' owned by layer 'InnerProduct6', param index 1
I0727 10:34:30.709910 22473 layer_factory.hpp:77] Creating layer ReLU64
I0727 10:34:30.709921 22473 net.cpp:91] Creating Layer ReLU64
I0727 10:34:30.709930 22473 net.cpp:425] ReLU64 <- InnerProduct96
I0727 10:34:30.709945 22473 net.cpp:386] ReLU64 -> InnerProduct96 (in-place)
I0727 10:34:30.710001 22473 net.cpp:141] Setting up ReLU64
I0727 10:34:30.710031 22473 net.cpp:148] Top shape: 100 512 (51200)
I0727 10:34:30.710058 22473 net.cpp:156] Memory required for data: 2488455200
I0727 10:34:30.710085 22473 layer_factory.hpp:77] Creating layer dt15
I0727 10:34:30.710119 22473 net.cpp:91] Creating Layer dt15
I0727 10:34:30.710146 22473 net.cpp:425] dt15 <- InnerProduct96
I0727 10:34:30.710181 22473 net.cpp:399] dt15 -> dt15
I0727 10:34:30.710397 22473 net.cpp:141] Setting up dt15
I0727 10:34:30.710408 22473 net.cpp:148] Top shape: 100 1 (100)
I0727 10:34:30.710415 22473 net.cpp:156] Memory required for data: 2488455600
I0727 10:34:30.710422 22473 net.cpp:484] Sharing parameters 'fc3_w' owned by layer 'dt0', param index 0
I0727 10:34:30.710429 22473 net.cpp:484] Sharing parameters 'fc3_b' owned by layer 'dt0', param index 1
I0727 10:34:30.710435 22473 layer_factory.hpp:77] Creating layer Convolution65
I0727 10:34:30.710449 22473 net.cpp:91] Creating Layer Convolution65
I0727 10:34:30.710456 22473 net.cpp:425] Convolution65 <- p2_p2_0_split_7
I0727 10:34:30.710471 22473 net.cpp:399] Convolution65 -> Convolution65
I0727 10:34:30.710945 22473 net.cpp:141] Setting up Convolution65
I0727 10:34:30.710953 22473 net.cpp:148] Top shape: 100 20 60 60 (7200000)
I0727 10:34:30.710961 22473 net.cpp:156] Memory required for data: 2517255600
I0727 10:34:30.710968 22473 net.cpp:484] Sharing parameters 'conv1_w' owned by layer 'Convolution1', param index 0
I0727 10:34:30.710990 22473 net.cpp:484] Sharing parameters 'conv1_b' owned by layer 'Convolution1', param index 1
I0727 10:34:30.710996 22473 layer_factory.hpp:77] Creating layer Pooling65
I0727 10:34:30.711009 22473 net.cpp:91] Creating Layer Pooling65
I0727 10:34:30.711014 22473 net.cpp:425] Pooling65 <- Convolution65
I0727 10:34:30.711024 22473 net.cpp:399] Pooling65 -> Pooling65
I0727 10:34:30.711103 22473 net.cpp:141] Setting up Pooling65
I0727 10:34:30.711114 22473 net.cpp:148] Top shape: 100 20 30 30 (1800000)
I0727 10:34:30.711120 22473 net.cpp:156] Memory required for data: 2524455600
I0727 10:34:30.711125 22473 layer_factory.hpp:77] Creating layer Convolution66
I0727 10:34:30.711139 22473 net.cpp:91] Creating Layer Convolution66
I0727 10:34:30.711145 22473 net.cpp:425] Convolution66 <- Pooling65
I0727 10:34:30.711155 22473 net.cpp:399] Convolution66 -> Convolution66
I0727 10:34:30.711802 22473 net.cpp:141] Setting up Convolution66
I0727 10:34:30.711820 22473 net.cpp:148] Top shape: 100 50 26 26 (3380000)
I0727 10:34:30.711827 22473 net.cpp:156] Memory required for data: 2537975600
I0727 10:34:30.711836 22473 net.cpp:484] Sharing parameters 'conv2_w' owned by layer 'Convolution2', param index 0
I0727 10:34:30.711845 22473 net.cpp:484] Sharing parameters 'conv2_b' owned by layer 'Convolution2', param index 1
I0727 10:34:30.711855 22473 layer_factory.hpp:77] Creating layer Pooling66
I0727 10:34:30.711866 22473 net.cpp:91] Creating Layer Pooling66
I0727 10:34:30.711877 22473 net.cpp:425] Pooling66 <- Convolution66
I0727 10:34:30.711891 22473 net.cpp:399] Pooling66 -> Pooling66
I0727 10:34:30.711963 22473 net.cpp:141] Setting up Pooling66
I0727 10:34:30.711977 22473 net.cpp:148] Top shape: 100 50 13 13 (845000)
I0727 10:34:30.711985 22473 net.cpp:156] Memory required for data: 2541355600
I0727 10:34:30.711994 22473 layer_factory.hpp:77] Creating layer InnerProduct97
I0727 10:34:30.712010 22473 net.cpp:91] Creating Layer InnerProduct97
I0727 10:34:30.712023 22473 net.cpp:425] InnerProduct97 <- Pooling66
I0727 10:34:30.712034 22473 net.cpp:399] InnerProduct97 -> InnerProduct97
I0727 10:34:30.754415 22473 net.cpp:141] Setting up InnerProduct97
I0727 10:34:30.754456 22473 net.cpp:148] Top shape: 100 500 (50000)
I0727 10:34:30.754464 22473 net.cpp:156] Memory required for data: 2541555600
I0727 10:34:30.754477 22473 net.cpp:484] Sharing parameters 'ip1_w' owned by layer 'InnerProduct1', param index 0
I0727 10:34:30.754498 22473 net.cpp:484] Sharing parameters 'ip1_b' owned by layer 'InnerProduct1', param index 1
I0727 10:34:30.754506 22473 layer_factory.hpp:77] Creating layer ReLU65
I0727 10:34:30.754562 22473 net.cpp:91] Creating Layer ReLU65
I0727 10:34:30.754580 22473 net.cpp:425] ReLU65 <- InnerProduct97
I0727 10:34:30.754611 22473 net.cpp:386] ReLU65 -> InnerProduct97 (in-place)
I0727 10:34:30.754633 22473 net.cpp:141] Setting up ReLU65
I0727 10:34:30.754648 22473 net.cpp:148] Top shape: 100 500 (50000)
I0727 10:34:30.754660 22473 net.cpp:156] Memory required for data: 2541755600
I0727 10:34:30.754668 22473 layer_factory.hpp:77] Creating layer InnerProduct98
I0727 10:34:30.754706 22473 net.cpp:91] Creating Layer InnerProduct98
I0727 10:34:30.754719 22473 net.cpp:425] InnerProduct98 <- InnerProduct97
I0727 10:34:30.754731 22473 net.cpp:399] InnerProduct98 -> InnerProduct98
I0727 10:34:30.812999 22473 net.cpp:141] Setting up InnerProduct98
I0727 10:34:30.813043 22473 net.cpp:148] Top shape: 100 500 (50000)
I0727 10:34:30.813050 22473 net.cpp:156] Memory required for data: 2541955600
I0727 10:34:30.813061 22473 net.cpp:484] Sharing parameters 'ip2_w' owned by layer 'InnerProduct2', param index 0
I0727 10:34:30.813071 22473 net.cpp:484] Sharing parameters 'ip2_b' owned by layer 'InnerProduct2', param index 1
I0727 10:34:30.813076 22473 layer_factory.hpp:77] Creating layer Convolution67
I0727 10:34:30.813109 22473 net.cpp:91] Creating Layer Convolution67
I0727 10:34:30.813118 22473 net.cpp:425] Convolution67 <- c17
I0727 10:34:30.813135 22473 net.cpp:399] Convolution67 -> Convolution67
I0727 10:34:30.813647 22473 net.cpp:141] Setting up Convolution67
I0727 10:34:30.813659 22473 net.cpp:148] Top shape: 100 20 60 60 (7200000)
I0727 10:34:30.813664 22473 net.cpp:156] Memory required for data: 2570755600
I0727 10:34:30.813671 22473 net.cpp:484] Sharing parameters 'conv1_w' owned by layer 'Convolution1', param index 0
I0727 10:34:30.813678 22473 net.cpp:484] Sharing parameters 'conv1_b' owned by layer 'Convolution1', param index 1
I0727 10:34:30.813684 22473 layer_factory.hpp:77] Creating layer Pooling67
I0727 10:34:30.813694 22473 net.cpp:91] Creating Layer Pooling67
I0727 10:34:30.813701 22473 net.cpp:425] Pooling67 <- Convolution67
I0727 10:34:30.813714 22473 net.cpp:399] Pooling67 -> Pooling67
I0727 10:34:30.813776 22473 net.cpp:141] Setting up Pooling67
I0727 10:34:30.813786 22473 net.cpp:148] Top shape: 100 20 30 30 (1800000)
I0727 10:34:30.813791 22473 net.cpp:156] Memory required for data: 2577955600
I0727 10:34:30.813797 22473 layer_factory.hpp:77] Creating layer Convolution68
I0727 10:34:30.813810 22473 net.cpp:91] Creating Layer Convolution68
I0727 10:34:30.813817 22473 net.cpp:425] Convolution68 <- Pooling67
I0727 10:34:30.813829 22473 net.cpp:399] Convolution68 -> Convolution68
I0727 10:34:30.814479 22473 net.cpp:141] Setting up Convolution68
I0727 10:34:30.814501 22473 net.cpp:148] Top shape: 100 50 26 26 (3380000)
I0727 10:34:30.814507 22473 net.cpp:156] Memory required for data: 2591475600
I0727 10:34:30.814512 22473 net.cpp:484] Sharing parameters 'conv2_w' owned by layer 'Convolution2', param index 0
I0727 10:34:30.814519 22473 net.cpp:484] Sharing parameters 'conv2_b' owned by layer 'Convolution2', param index 1
I0727 10:34:30.814525 22473 layer_factory.hpp:77] Creating layer Pooling68
I0727 10:34:30.814535 22473 net.cpp:91] Creating Layer Pooling68
I0727 10:34:30.814541 22473 net.cpp:425] Pooling68 <- Convolution68
I0727 10:34:30.814551 22473 net.cpp:399] Pooling68 -> Pooling68
I0727 10:34:30.814622 22473 net.cpp:141] Setting up Pooling68
I0727 10:34:30.814630 22473 net.cpp:148] Top shape: 100 50 13 13 (845000)
I0727 10:34:30.814636 22473 net.cpp:156] Memory required for data: 2594855600
I0727 10:34:30.814641 22473 layer_factory.hpp:77] Creating layer InnerProduct99
I0727 10:34:30.814653 22473 net.cpp:91] Creating Layer InnerProduct99
I0727 10:34:30.814659 22473 net.cpp:425] InnerProduct99 <- Pooling68
I0727 10:34:30.814671 22473 net.cpp:399] InnerProduct99 -> InnerProduct99
I0727 10:34:30.857933 22473 net.cpp:141] Setting up InnerProduct99
I0727 10:34:30.857978 22473 net.cpp:148] Top shape: 100 500 (50000)
I0727 10:34:30.857985 22473 net.cpp:156] Memory required for data: 2595055600
I0727 10:34:30.857995 22473 net.cpp:484] Sharing parameters 'ip1_w' owned by layer 'InnerProduct1', param index 0
I0727 10:34:30.858005 22473 net.cpp:484] Sharing parameters 'ip1_b' owned by layer 'InnerProduct1', param index 1
I0727 10:34:30.858011 22473 layer_factory.hpp:77] Creating layer ReLU66
I0727 10:34:30.858045 22473 net.cpp:91] Creating Layer ReLU66
I0727 10:34:30.858059 22473 net.cpp:425] ReLU66 <- InnerProduct99
I0727 10:34:30.858068 22473 net.cpp:386] ReLU66 -> InnerProduct99 (in-place)
I0727 10:34:30.858083 22473 net.cpp:141] Setting up ReLU66
I0727 10:34:30.858090 22473 net.cpp:148] Top shape: 100 500 (50000)
I0727 10:34:30.858095 22473 net.cpp:156] Memory required for data: 2595255600
I0727 10:34:30.858101 22473 layer_factory.hpp:77] Creating layer InnerProduct100
I0727 10:34:30.858119 22473 net.cpp:91] Creating Layer InnerProduct100
I0727 10:34:30.858125 22473 net.cpp:425] InnerProduct100 <- InnerProduct99
I0727 10:34:30.858135 22473 net.cpp:399] InnerProduct100 -> InnerProduct100
I0727 10:34:30.862521 22473 net.cpp:141] Setting up InnerProduct100
I0727 10:34:30.862546 22473 net.cpp:148] Top shape: 100 500 (50000)
I0727 10:34:30.862552 22473 net.cpp:156] Memory required for data: 2595455600
I0727 10:34:30.862565 22473 net.cpp:484] Sharing parameters 'ip2_w' owned by layer 'InnerProduct2', param index 0
I0727 10:34:30.862581 22473 net.cpp:484] Sharing parameters 'ip2_b' owned by layer 'InnerProduct2', param index 1
I0727 10:34:30.862643 22473 layer_factory.hpp:77] Creating layer Concat17
I0727 10:34:30.862661 22473 net.cpp:91] Creating Layer Concat17
I0727 10:34:30.862673 22473 net.cpp:425] Concat17 <- InnerProduct98
I0727 10:34:30.862684 22473 net.cpp:425] Concat17 <- InnerProduct100
I0727 10:34:30.862697 22473 net.cpp:399] Concat17 -> Concat17
I0727 10:34:30.862757 22473 net.cpp:141] Setting up Concat17
I0727 10:34:30.862768 22473 net.cpp:148] Top shape: 100 1000 (100000)
I0727 10:34:30.862774 22473 net.cpp:156] Memory required for data: 2595855600
I0727 10:34:30.862779 22473 layer_factory.hpp:77] Creating layer InnerProduct101
I0727 10:34:30.862792 22473 net.cpp:91] Creating Layer InnerProduct101
I0727 10:34:30.862803 22473 net.cpp:425] InnerProduct101 <- Concat17
I0727 10:34:30.862817 22473 net.cpp:399] InnerProduct101 -> InnerProduct101
I0727 10:34:31.299901 22473 net.cpp:141] Setting up InnerProduct101
I0727 10:34:31.299939 22473 net.cpp:148] Top shape: 100 512 (51200)
I0727 10:34:31.299947 22473 net.cpp:156] Memory required for data: 2596060400
I0727 10:34:31.299957 22473 net.cpp:484] Sharing parameters 'fc1_w' owned by layer 'InnerProduct5', param index 0
I0727 10:34:31.299967 22473 net.cpp:484] Sharing parameters 'fc1_b' owned by layer 'InnerProduct5', param index 1
I0727 10:34:31.299973 22473 layer_factory.hpp:77] Creating layer ReLU67
I0727 10:34:31.299988 22473 net.cpp:91] Creating Layer ReLU67
I0727 10:34:31.299996 22473 net.cpp:425] ReLU67 <- InnerProduct101
I0727 10:34:31.300006 22473 net.cpp:386] ReLU67 -> InnerProduct101 (in-place)
I0727 10:34:31.300020 22473 net.cpp:141] Setting up ReLU67
I0727 10:34:31.300029 22473 net.cpp:148] Top shape: 100 512 (51200)
I0727 10:34:31.300034 22473 net.cpp:156] Memory required for data: 2596265200
I0727 10:34:31.300040 22473 layer_factory.hpp:77] Creating layer InnerProduct102
I0727 10:34:31.300053 22473 net.cpp:91] Creating Layer InnerProduct102
I0727 10:34:31.300060 22473 net.cpp:425] InnerProduct102 <- InnerProduct101
I0727 10:34:31.300071 22473 net.cpp:399] InnerProduct102 -> InnerProduct102
I0727 10:34:31.303915 22473 net.cpp:141] Setting up InnerProduct102
I0727 10:34:31.303939 22473 net.cpp:148] Top shape: 100 512 (51200)
I0727 10:34:31.303946 22473 net.cpp:156] Memory required for data: 2596470000
I0727 10:34:31.303954 22473 net.cpp:484] Sharing parameters 'fc2_w' owned by layer 'InnerProduct6', param index 0
I0727 10:34:31.303962 22473 net.cpp:484] Sharing parameters 'fc2_b' owned by layer 'InnerProduct6', param index 1
I0727 10:34:31.303968 22473 layer_factory.hpp:77] Creating layer ReLU68
I0727 10:34:31.303978 22473 net.cpp:91] Creating Layer ReLU68
I0727 10:34:31.303985 22473 net.cpp:425] ReLU68 <- InnerProduct102
I0727 10:34:31.303994 22473 net.cpp:386] ReLU68 -> InnerProduct102 (in-place)
I0727 10:34:31.304005 22473 net.cpp:141] Setting up ReLU68
I0727 10:34:31.304013 22473 net.cpp:148] Top shape: 100 512 (51200)
I0727 10:34:31.304018 22473 net.cpp:156] Memory required for data: 2596674800
I0727 10:34:31.304023 22473 layer_factory.hpp:77] Creating layer dt16
I0727 10:34:31.304033 22473 net.cpp:91] Creating Layer dt16
I0727 10:34:31.304039 22473 net.cpp:425] dt16 <- InnerProduct102
I0727 10:34:31.304054 22473 net.cpp:399] dt16 -> dt16
I0727 10:34:31.304270 22473 net.cpp:141] Setting up dt16
I0727 10:34:31.304281 22473 net.cpp:148] Top shape: 100 1 (100)
I0727 10:34:31.304287 22473 net.cpp:156] Memory required for data: 2596675200
I0727 10:34:31.304293 22473 net.cpp:484] Sharing parameters 'fc3_w' owned by layer 'dt0', param index 0
I0727 10:34:31.304301 22473 net.cpp:484] Sharing parameters 'fc3_b' owned by layer 'dt0', param index 1
I0727 10:34:31.304307 22473 layer_factory.hpp:77] Creating layer Convolution69
I0727 10:34:31.304322 22473 net.cpp:91] Creating Layer Convolution69
I0727 10:34:31.304330 22473 net.cpp:425] Convolution69 <- p2_p2_0_split_8
I0727 10:34:31.304342 22473 net.cpp:399] Convolution69 -> Convolution69
I0727 10:34:31.304955 22473 net.cpp:141] Setting up Convolution69
I0727 10:34:31.304975 22473 net.cpp:148] Top shape: 100 20 60 60 (7200000)
I0727 10:34:31.305001 22473 net.cpp:156] Memory required for data: 2625475200
I0727 10:34:31.305007 22473 net.cpp:484] Sharing parameters 'conv1_w' owned by layer 'Convolution1', param index 0
I0727 10:34:31.305016 22473 net.cpp:484] Sharing parameters 'conv1_b' owned by layer 'Convolution1', param index 1
I0727 10:34:31.305022 22473 layer_factory.hpp:77] Creating layer Pooling69
I0727 10:34:31.305045 22473 net.cpp:91] Creating Layer Pooling69
I0727 10:34:31.305053 22473 net.cpp:425] Pooling69 <- Convolution69
I0727 10:34:31.305063 22473 net.cpp:399] Pooling69 -> Pooling69
I0727 10:34:31.305143 22473 net.cpp:141] Setting up Pooling69
I0727 10:34:31.305151 22473 net.cpp:148] Top shape: 100 20 30 30 (1800000)
I0727 10:34:31.305157 22473 net.cpp:156] Memory required for data: 2632675200
I0727 10:34:31.305162 22473 layer_factory.hpp:77] Creating layer Convolution70
I0727 10:34:31.305179 22473 net.cpp:91] Creating Layer Convolution70
I0727 10:34:31.305186 22473 net.cpp:425] Convolution70 <- Pooling69
I0727 10:34:31.305196 22473 net.cpp:399] Convolution70 -> Convolution70
I0727 10:34:31.305927 22473 net.cpp:141] Setting up Convolution70
I0727 10:34:31.305945 22473 net.cpp:148] Top shape: 100 50 26 26 (3380000)
I0727 10:34:31.305951 22473 net.cpp:156] Memory required for data: 2646195200
I0727 10:34:31.305958 22473 net.cpp:484] Sharing parameters 'conv2_w' owned by layer 'Convolution2', param index 0
I0727 10:34:31.305964 22473 net.cpp:484] Sharing parameters 'conv2_b' owned by layer 'Convolution2', param index 1
I0727 10:34:31.305970 22473 layer_factory.hpp:77] Creating layer Pooling70
I0727 10:34:31.305979 22473 net.cpp:91] Creating Layer Pooling70
I0727 10:34:31.305984 22473 net.cpp:425] Pooling70 <- Convolution70
I0727 10:34:31.306005 22473 net.cpp:399] Pooling70 -> Pooling70
I0727 10:34:31.306079 22473 net.cpp:141] Setting up Pooling70
I0727 10:34:31.306087 22473 net.cpp:148] Top shape: 100 50 13 13 (845000)
I0727 10:34:31.306093 22473 net.cpp:156] Memory required for data: 2649575200
I0727 10:34:31.306098 22473 layer_factory.hpp:77] Creating layer InnerProduct103
I0727 10:34:31.306110 22473 net.cpp:91] Creating Layer InnerProduct103
I0727 10:34:31.306116 22473 net.cpp:425] InnerProduct103 <- Pooling70
I0727 10:34:31.306128 22473 net.cpp:399] InnerProduct103 -> InnerProduct103
I0727 10:34:31.349028 22473 net.cpp:141] Setting up InnerProduct103
I0727 10:34:31.349062 22473 net.cpp:148] Top shape: 100 500 (50000)
I0727 10:34:31.349069 22473 net.cpp:156] Memory required for data: 2649775200
I0727 10:34:31.349081 22473 net.cpp:484] Sharing parameters 'ip1_w' owned by layer 'InnerProduct1', param index 0
I0727 10:34:31.349089 22473 net.cpp:484] Sharing parameters 'ip1_b' owned by layer 'InnerProduct1', param index 1
I0727 10:34:31.349097 22473 layer_factory.hpp:77] Creating layer ReLU69
I0727 10:34:31.349109 22473 net.cpp:91] Creating Layer ReLU69
I0727 10:34:31.349118 22473 net.cpp:425] ReLU69 <- InnerProduct103
I0727 10:34:31.349128 22473 net.cpp:386] ReLU69 -> InnerProduct103 (in-place)
I0727 10:34:31.349143 22473 net.cpp:141] Setting up ReLU69
I0727 10:34:31.349149 22473 net.cpp:148] Top shape: 100 500 (50000)
I0727 10:34:31.349155 22473 net.cpp:156] Memory required for data: 2649975200
I0727 10:34:31.349160 22473 layer_factory.hpp:77] Creating layer InnerProduct104
I0727 10:34:31.349176 22473 net.cpp:91] Creating Layer InnerProduct104
I0727 10:34:31.349182 22473 net.cpp:425] InnerProduct104 <- InnerProduct103
I0727 10:34:31.349195 22473 net.cpp:399] InnerProduct104 -> InnerProduct104
I0727 10:34:31.354780 22473 net.cpp:141] Setting up InnerProduct104
I0727 10:34:31.354802 22473 net.cpp:148] Top shape: 100 500 (50000)
I0727 10:34:31.354809 22473 net.cpp:156] Memory required for data: 2650175200
I0727 10:34:31.354817 22473 net.cpp:484] Sharing parameters 'ip2_w' owned by layer 'InnerProduct2', param index 0
I0727 10:34:31.354825 22473 net.cpp:484] Sharing parameters 'ip2_b' owned by layer 'InnerProduct2', param index 1
I0727 10:34:31.354832 22473 layer_factory.hpp:77] Creating layer Convolution71
I0727 10:34:31.354871 22473 net.cpp:91] Creating Layer Convolution71
I0727 10:34:31.354879 22473 net.cpp:425] Convolution71 <- c18
I0727 10:34:31.354894 22473 net.cpp:399] Convolution71 -> Convolution71
I0727 10:34:31.355574 22473 net.cpp:141] Setting up Convolution71
I0727 10:34:31.355612 22473 net.cpp:148] Top shape: 100 20 60 60 (7200000)
I0727 10:34:31.355621 22473 net.cpp:156] Memory required for data: 2678975200
I0727 10:34:31.355631 22473 net.cpp:484] Sharing parameters 'conv1_w' owned by layer 'Convolution1', param index 0
I0727 10:34:31.355641 22473 net.cpp:484] Sharing parameters 'conv1_b' owned by layer 'Convolution1', param index 1
I0727 10:34:31.355649 22473 layer_factory.hpp:77] Creating layer Pooling71
I0727 10:34:31.355662 22473 net.cpp:91] Creating Layer Pooling71
I0727 10:34:31.355671 22473 net.cpp:425] Pooling71 <- Convolution71
I0727 10:34:31.355685 22473 net.cpp:399] Pooling71 -> Pooling71
I0727 10:34:31.355803 22473 net.cpp:141] Setting up Pooling71
I0727 10:34:31.355818 22473 net.cpp:148] Top shape: 100 20 30 30 (1800000)
I0727 10:34:31.355825 22473 net.cpp:156] Memory required for data: 2686175200
I0727 10:34:31.355831 22473 layer_factory.hpp:77] Creating layer Convolution72
I0727 10:34:31.355850 22473 net.cpp:91] Creating Layer Convolution72
I0727 10:34:31.355864 22473 net.cpp:425] Convolution72 <- Pooling71
I0727 10:34:31.355880 22473 net.cpp:399] Convolution72 -> Convolution72
I0727 10:34:31.370955 22473 net.cpp:141] Setting up Convolution72
I0727 10:34:31.370992 22473 net.cpp:148] Top shape: 100 50 26 26 (3380000)
I0727 10:34:31.371001 22473 net.cpp:156] Memory required for data: 2699695200
I0727 10:34:31.371013 22473 net.cpp:484] Sharing parameters 'conv2_w' owned by layer 'Convolution2', param index 0
I0727 10:34:31.371024 22473 net.cpp:484] Sharing parameters 'conv2_b' owned by layer 'Convolution2', param index 1
I0727 10:34:31.371032 22473 layer_factory.hpp:77] Creating layer Pooling72
I0727 10:34:31.371052 22473 net.cpp:91] Creating Layer Pooling72
I0727 10:34:31.371073 22473 net.cpp:425] Pooling72 <- Convolution72
I0727 10:34:31.371089 22473 net.cpp:399] Pooling72 -> Pooling72
I0727 10:34:31.371165 22473 net.cpp:141] Setting up Pooling72
I0727 10:34:31.371179 22473 net.cpp:148] Top shape: 100 50 13 13 (845000)
I0727 10:34:31.371187 22473 net.cpp:156] Memory required for data: 2703075200
I0727 10:34:31.371194 22473 layer_factory.hpp:77] Creating layer InnerProduct105
I0727 10:34:31.371207 22473 net.cpp:91] Creating Layer InnerProduct105
I0727 10:34:31.371215 22473 net.cpp:425] InnerProduct105 <- Pooling72
I0727 10:34:31.371232 22473 net.cpp:399] InnerProduct105 -> InnerProduct105
I0727 10:34:31.413825 22473 net.cpp:141] Setting up InnerProduct105
I0727 10:34:31.413872 22473 net.cpp:148] Top shape: 100 500 (50000)
I0727 10:34:31.413879 22473 net.cpp:156] Memory required for data: 2703275200
I0727 10:34:31.413890 22473 net.cpp:484] Sharing parameters 'ip1_w' owned by layer 'InnerProduct1', param index 0
I0727 10:34:31.413899 22473 net.cpp:484] Sharing parameters 'ip1_b' owned by layer 'InnerProduct1', param index 1
I0727 10:34:31.413907 22473 layer_factory.hpp:77] Creating layer ReLU70
I0727 10:34:31.413931 22473 net.cpp:91] Creating Layer ReLU70
I0727 10:34:31.413941 22473 net.cpp:425] ReLU70 <- InnerProduct105
I0727 10:34:31.413951 22473 net.cpp:386] ReLU70 -> InnerProduct105 (in-place)
I0727 10:34:31.413965 22473 net.cpp:141] Setting up ReLU70
I0727 10:34:31.413974 22473 net.cpp:148] Top shape: 100 500 (50000)
I0727 10:34:31.413982 22473 net.cpp:156] Memory required for data: 2703475200
I0727 10:34:31.413990 22473 layer_factory.hpp:77] Creating layer InnerProduct106
I0727 10:34:31.414008 22473 net.cpp:91] Creating Layer InnerProduct106
I0727 10:34:31.414017 22473 net.cpp:425] InnerProduct106 <- InnerProduct105
I0727 10:34:31.414032 22473 net.cpp:399] InnerProduct106 -> InnerProduct106
I0727 10:34:31.417939 22473 net.cpp:141] Setting up InnerProduct106
I0727 10:34:31.417970 22473 net.cpp:148] Top shape: 100 500 (50000)
I0727 10:34:31.417976 22473 net.cpp:156] Memory required for data: 2703675200
I0727 10:34:31.418004 22473 net.cpp:484] Sharing parameters 'ip2_w' owned by layer 'InnerProduct2', param index 0
I0727 10:34:31.418012 22473 net.cpp:484] Sharing parameters 'ip2_b' owned by layer 'InnerProduct2', param index 1
I0727 10:34:31.418026 22473 layer_factory.hpp:77] Creating layer Concat18
I0727 10:34:31.418040 22473 net.cpp:91] Creating Layer Concat18
I0727 10:34:31.418046 22473 net.cpp:425] Concat18 <- InnerProduct104
I0727 10:34:31.418056 22473 net.cpp:425] Concat18 <- InnerProduct106
I0727 10:34:31.418072 22473 net.cpp:399] Concat18 -> Concat18
I0727 10:34:31.418115 22473 net.cpp:141] Setting up Concat18
I0727 10:34:31.418128 22473 net.cpp:148] Top shape: 100 1000 (100000)
I0727 10:34:31.418136 22473 net.cpp:156] Memory required for data: 2704075200
I0727 10:34:31.418143 22473 layer_factory.hpp:77] Creating layer InnerProduct107
I0727 10:34:31.418156 22473 net.cpp:91] Creating Layer InnerProduct107
I0727 10:34:31.418167 22473 net.cpp:425] InnerProduct107 <- Concat18
I0727 10:34:31.418182 22473 net.cpp:399] InnerProduct107 -> InnerProduct107
I0727 10:34:31.425027 22473 net.cpp:141] Setting up InnerProduct107
I0727 10:34:31.425060 22473 net.cpp:148] Top shape: 100 512 (51200)
I0727 10:34:31.425071 22473 net.cpp:156] Memory required for data: 2704280000
I0727 10:34:31.425082 22473 net.cpp:484] Sharing parameters 'fc1_w' owned by layer 'InnerProduct5', param index 0
I0727 10:34:31.425092 22473 net.cpp:484] Sharing parameters 'fc1_b' owned by layer 'InnerProduct5', param index 1
I0727 10:34:31.425102 22473 layer_factory.hpp:77] Creating layer ReLU71
I0727 10:34:31.425118 22473 net.cpp:91] Creating Layer ReLU71
I0727 10:34:31.425128 22473 net.cpp:425] ReLU71 <- InnerProduct107
I0727 10:34:31.425139 22473 net.cpp:386] ReLU71 -> InnerProduct107 (in-place)
I0727 10:34:31.425158 22473 net.cpp:141] Setting up ReLU71
I0727 10:34:31.425168 22473 net.cpp:148] Top shape: 100 512 (51200)
I0727 10:34:31.425175 22473 net.cpp:156] Memory required for data: 2704484800
I0727 10:34:31.425184 22473 layer_factory.hpp:77] Creating layer InnerProduct108
I0727 10:34:31.425196 22473 net.cpp:91] Creating Layer InnerProduct108
I0727 10:34:31.425204 22473 net.cpp:425] InnerProduct108 <- InnerProduct107
I0727 10:34:31.425220 22473 net.cpp:399] InnerProduct108 -> InnerProduct108
I0727 10:34:31.530454 22473 net.cpp:141] Setting up InnerProduct108
I0727 10:34:31.530489 22473 net.cpp:148] Top shape: 100 512 (51200)
I0727 10:34:31.530496 22473 net.cpp:156] Memory required for data: 2704689600
I0727 10:34:31.530508 22473 net.cpp:484] Sharing parameters 'fc2_w' owned by layer 'InnerProduct6', param index 0
I0727 10:34:31.530516 22473 net.cpp:484] Sharing parameters 'fc2_b' owned by layer 'InnerProduct6', param index 1
I0727 10:34:31.530524 22473 layer_factory.hpp:77] Creating layer ReLU72
I0727 10:34:31.530537 22473 net.cpp:91] Creating Layer ReLU72
I0727 10:34:31.530549 22473 net.cpp:425] ReLU72 <- InnerProduct108
I0727 10:34:31.530558 22473 net.cpp:386] ReLU72 -> InnerProduct108 (in-place)
I0727 10:34:31.530572 22473 net.cpp:141] Setting up ReLU72
I0727 10:34:31.530580 22473 net.cpp:148] Top shape: 100 512 (51200)
I0727 10:34:31.530586 22473 net.cpp:156] Memory required for data: 2704894400
I0727 10:34:31.530591 22473 layer_factory.hpp:77] Creating layer dt17
I0727 10:34:31.530602 22473 net.cpp:91] Creating Layer dt17
I0727 10:34:31.530608 22473 net.cpp:425] dt17 <- InnerProduct108
I0727 10:34:31.530623 22473 net.cpp:399] dt17 -> dt17
I0727 10:34:31.530791 22473 net.cpp:141] Setting up dt17
I0727 10:34:31.530803 22473 net.cpp:148] Top shape: 100 1 (100)
I0727 10:34:31.530809 22473 net.cpp:156] Memory required for data: 2704894800
I0727 10:34:31.530817 22473 net.cpp:484] Sharing parameters 'fc3_w' owned by layer 'dt0', param index 0
I0727 10:34:31.530823 22473 net.cpp:484] Sharing parameters 'fc3_b' owned by layer 'dt0', param index 1
I0727 10:34:31.530832 22473 layer_factory.hpp:77] Creating layer Convolution73
I0727 10:34:31.530849 22473 net.cpp:91] Creating Layer Convolution73
I0727 10:34:31.530858 22473 net.cpp:425] Convolution73 <- p2_p2_0_split_9
I0727 10:34:31.530901 22473 net.cpp:399] Convolution73 -> Convolution73
I0727 10:34:31.531412 22473 net.cpp:141] Setting up Convolution73
I0727 10:34:31.531430 22473 net.cpp:148] Top shape: 100 20 60 60 (7200000)
I0727 10:34:31.531437 22473 net.cpp:156] Memory required for data: 2733694800
I0727 10:34:31.531446 22473 net.cpp:484] Sharing parameters 'conv1_w' owned by layer 'Convolution1', param index 0
I0727 10:34:31.531456 22473 net.cpp:484] Sharing parameters 'conv1_b' owned by layer 'Convolution1', param index 1
I0727 10:34:31.531464 22473 layer_factory.hpp:77] Creating layer Pooling73
I0727 10:34:31.531476 22473 net.cpp:91] Creating Layer Pooling73
I0727 10:34:31.531484 22473 net.cpp:425] Pooling73 <- Convolution73
I0727 10:34:31.531497 22473 net.cpp:399] Pooling73 -> Pooling73
I0727 10:34:31.531563 22473 net.cpp:141] Setting up Pooling73
I0727 10:34:31.531577 22473 net.cpp:148] Top shape: 100 20 30 30 (1800000)
I0727 10:34:31.531585 22473 net.cpp:156] Memory required for data: 2740894800
I0727 10:34:31.531592 22473 layer_factory.hpp:77] Creating layer Convolution74
I0727 10:34:31.531611 22473 net.cpp:91] Creating Layer Convolution74
I0727 10:34:31.531620 22473 net.cpp:425] Convolution74 <- Pooling73
I0727 10:34:31.531636 22473 net.cpp:399] Convolution74 -> Convolution74
I0727 10:34:31.532258 22473 net.cpp:141] Setting up Convolution74
I0727 10:34:31.532274 22473 net.cpp:148] Top shape: 100 50 26 26 (3380000)
I0727 10:34:31.532280 22473 net.cpp:156] Memory required for data: 2754414800
I0727 10:34:31.532289 22473 net.cpp:484] Sharing parameters 'conv2_w' owned by layer 'Convolution2', param index 0
I0727 10:34:31.532301 22473 net.cpp:484] Sharing parameters 'conv2_b' owned by layer 'Convolution2', param index 1
I0727 10:34:31.532310 22473 layer_factory.hpp:77] Creating layer Pooling74
I0727 10:34:31.532322 22473 net.cpp:91] Creating Layer Pooling74
I0727 10:34:31.532332 22473 net.cpp:425] Pooling74 <- Convolution74
I0727 10:34:31.532347 22473 net.cpp:399] Pooling74 -> Pooling74
I0727 10:34:31.532418 22473 net.cpp:141] Setting up Pooling74
I0727 10:34:31.532434 22473 net.cpp:148] Top shape: 100 50 13 13 (845000)
I0727 10:34:31.532444 22473 net.cpp:156] Memory required for data: 2757794800
I0727 10:34:31.532451 22473 layer_factory.hpp:77] Creating layer InnerProduct109
I0727 10:34:31.532464 22473 net.cpp:91] Creating Layer InnerProduct109
I0727 10:34:31.532474 22473 net.cpp:425] InnerProduct109 <- Pooling74
I0727 10:34:31.532497 22473 net.cpp:399] InnerProduct109 -> InnerProduct109
I0727 10:34:31.575167 22473 net.cpp:141] Setting up InnerProduct109
I0727 10:34:31.575213 22473 net.cpp:148] Top shape: 100 500 (50000)
I0727 10:34:31.575220 22473 net.cpp:156] Memory required for data: 2757994800
I0727 10:34:31.575232 22473 net.cpp:484] Sharing parameters 'ip1_w' owned by layer 'InnerProduct1', param index 0
I0727 10:34:31.575240 22473 net.cpp:484] Sharing parameters 'ip1_b' owned by layer 'InnerProduct1', param index 1
I0727 10:34:31.575247 22473 layer_factory.hpp:77] Creating layer ReLU73
I0727 10:34:31.575271 22473 net.cpp:91] Creating Layer ReLU73
I0727 10:34:31.575280 22473 net.cpp:425] ReLU73 <- InnerProduct109
I0727 10:34:31.575297 22473 net.cpp:386] ReLU73 -> InnerProduct109 (in-place)
I0727 10:34:31.575311 22473 net.cpp:141] Setting up ReLU73
I0727 10:34:31.575320 22473 net.cpp:148] Top shape: 100 500 (50000)
I0727 10:34:31.575325 22473 net.cpp:156] Memory required for data: 2758194800
I0727 10:34:31.575330 22473 layer_factory.hpp:77] Creating layer InnerProduct110
I0727 10:34:31.575342 22473 net.cpp:91] Creating Layer InnerProduct110
I0727 10:34:31.575350 22473 net.cpp:425] InnerProduct110 <- InnerProduct109
I0727 10:34:31.575364 22473 net.cpp:399] InnerProduct110 -> InnerProduct110
I0727 10:34:31.579198 22473 net.cpp:141] Setting up InnerProduct110
I0727 10:34:31.579218 22473 net.cpp:148] Top shape: 100 500 (50000)
I0727 10:34:31.579224 22473 net.cpp:156] Memory required for data: 2758394800
I0727 10:34:31.579232 22473 net.cpp:484] Sharing parameters 'ip2_w' owned by layer 'InnerProduct2', param index 0
I0727 10:34:31.579264 22473 net.cpp:484] Sharing parameters 'ip2_b' owned by layer 'InnerProduct2', param index 1
I0727 10:34:31.579282 22473 layer_factory.hpp:77] Creating layer Convolution75
I0727 10:34:31.579299 22473 net.cpp:91] Creating Layer Convolution75
I0727 10:34:31.579309 22473 net.cpp:425] Convolution75 <- c19
I0727 10:34:31.579325 22473 net.cpp:399] Convolution75 -> Convolution75
I0727 10:34:31.579741 22473 net.cpp:141] Setting up Convolution75
I0727 10:34:31.579752 22473 net.cpp:148] Top shape: 100 20 60 60 (7200000)
I0727 10:34:31.579758 22473 net.cpp:156] Memory required for data: 2787194800
I0727 10:34:31.579766 22473 net.cpp:484] Sharing parameters 'conv1_w' owned by layer 'Convolution1', param index 0
I0727 10:34:31.579772 22473 net.cpp:484] Sharing parameters 'conv1_b' owned by layer 'Convolution1', param index 1
I0727 10:34:31.579778 22473 layer_factory.hpp:77] Creating layer Pooling75
I0727 10:34:31.579790 22473 net.cpp:91] Creating Layer Pooling75
I0727 10:34:31.579802 22473 net.cpp:425] Pooling75 <- Convolution75
I0727 10:34:31.579813 22473 net.cpp:399] Pooling75 -> Pooling75
I0727 10:34:31.579867 22473 net.cpp:141] Setting up Pooling75
I0727 10:34:31.579877 22473 net.cpp:148] Top shape: 100 20 30 30 (1800000)
I0727 10:34:31.579884 22473 net.cpp:156] Memory required for data: 2794394800
I0727 10:34:31.579888 22473 layer_factory.hpp:77] Creating layer Convolution76
I0727 10:34:31.579902 22473 net.cpp:91] Creating Layer Convolution76
I0727 10:34:31.579908 22473 net.cpp:425] Convolution76 <- Pooling75
I0727 10:34:31.579918 22473 net.cpp:399] Convolution76 -> Convolution76
I0727 10:34:31.580507 22473 net.cpp:141] Setting up Convolution76
I0727 10:34:31.580518 22473 net.cpp:148] Top shape: 100 50 26 26 (3380000)
I0727 10:34:31.580523 22473 net.cpp:156] Memory required for data: 2807914800
I0727 10:34:31.580529 22473 net.cpp:484] Sharing parameters 'conv2_w' owned by layer 'Convolution2', param index 0
I0727 10:34:31.580539 22473 net.cpp:484] Sharing parameters 'conv2_b' owned by layer 'Convolution2', param index 1
I0727 10:34:31.580545 22473 layer_factory.hpp:77] Creating layer Pooling76
I0727 10:34:31.580554 22473 net.cpp:91] Creating Layer Pooling76
I0727 10:34:31.580559 22473 net.cpp:425] Pooling76 <- Convolution76
I0727 10:34:31.580569 22473 net.cpp:399] Pooling76 -> Pooling76
I0727 10:34:31.580621 22473 net.cpp:141] Setting up Pooling76
I0727 10:34:31.580631 22473 net.cpp:148] Top shape: 100 50 13 13 (845000)
I0727 10:34:31.580637 22473 net.cpp:156] Memory required for data: 2811294800
I0727 10:34:31.580642 22473 layer_factory.hpp:77] Creating layer InnerProduct111
I0727 10:34:31.580654 22473 net.cpp:91] Creating Layer InnerProduct111
I0727 10:34:31.580662 22473 net.cpp:425] InnerProduct111 <- Pooling76
I0727 10:34:31.580673 22473 net.cpp:399] InnerProduct111 -> InnerProduct111
I0727 10:34:31.873539 22473 net.cpp:141] Setting up InnerProduct111
I0727 10:34:31.873586 22473 net.cpp:148] Top shape: 100 500 (50000)
I0727 10:34:31.873594 22473 net.cpp:156] Memory required for data: 2811494800
I0727 10:34:31.873605 22473 net.cpp:484] Sharing parameters 'ip1_w' owned by layer 'InnerProduct1', param index 0
I0727 10:34:31.873612 22473 net.cpp:484] Sharing parameters 'ip1_b' owned by layer 'InnerProduct1', param index 1
I0727 10:34:31.873620 22473 layer_factory.hpp:77] Creating layer ReLU74
I0727 10:34:31.873644 22473 net.cpp:91] Creating Layer ReLU74
I0727 10:34:31.873654 22473 net.cpp:425] ReLU74 <- InnerProduct111
I0727 10:34:31.873668 22473 net.cpp:386] ReLU74 -> InnerProduct111 (in-place)
I0727 10:34:31.873683 22473 net.cpp:141] Setting up ReLU74
I0727 10:34:31.873692 22473 net.cpp:148] Top shape: 100 500 (50000)
I0727 10:34:31.873697 22473 net.cpp:156] Memory required for data: 2811694800
I0727 10:34:31.873703 22473 layer_factory.hpp:77] Creating layer InnerProduct112
I0727 10:34:31.873713 22473 net.cpp:91] Creating Layer InnerProduct112
I0727 10:34:31.873719 22473 net.cpp:425] InnerProduct112 <- InnerProduct111
I0727 10:34:31.873731 22473 net.cpp:399] InnerProduct112 -> InnerProduct112
I0727 10:34:31.876581 22473 net.cpp:141] Setting up InnerProduct112
I0727 10:34:31.876610 22473 net.cpp:148] Top shape: 100 500 (50000)
I0727 10:34:31.876616 22473 net.cpp:156] Memory required for data: 2811894800
I0727 10:34:31.876622 22473 net.cpp:484] Sharing parameters 'ip2_w' owned by layer 'InnerProduct2', param index 0
I0727 10:34:31.876631 22473 net.cpp:484] Sharing parameters 'ip2_b' owned by layer 'InnerProduct2', param index 1
I0727 10:34:31.876636 22473 layer_factory.hpp:77] Creating layer Concat19
I0727 10:34:31.876649 22473 net.cpp:91] Creating Layer Concat19
I0727 10:34:31.876658 22473 net.cpp:425] Concat19 <- InnerProduct110
I0727 10:34:31.876675 22473 net.cpp:425] Concat19 <- InnerProduct112
I0727 10:34:31.876685 22473 net.cpp:399] Concat19 -> Concat19
I0727 10:34:31.876721 22473 net.cpp:141] Setting up Concat19
I0727 10:34:31.876729 22473 net.cpp:148] Top shape: 100 1000 (100000)
I0727 10:34:31.876734 22473 net.cpp:156] Memory required for data: 2812294800
I0727 10:34:31.876739 22473 layer_factory.hpp:77] Creating layer InnerProduct113
I0727 10:34:31.876752 22473 net.cpp:91] Creating Layer InnerProduct113
I0727 10:34:31.876759 22473 net.cpp:425] InnerProduct113 <- Concat19
I0727 10:34:31.876768 22473 net.cpp:399] InnerProduct113 -> InnerProduct113
I0727 10:34:31.919730 22473 net.cpp:141] Setting up InnerProduct113
I0727 10:34:31.919764 22473 net.cpp:148] Top shape: 100 512 (51200)
I0727 10:34:31.919771 22473 net.cpp:156] Memory required for data: 2812499600
I0727 10:34:31.919782 22473 net.cpp:484] Sharing parameters 'fc1_w' owned by layer 'InnerProduct5', param index 0
I0727 10:34:31.919791 22473 net.cpp:484] Sharing parameters 'fc1_b' owned by layer 'InnerProduct5', param index 1
I0727 10:34:31.919798 22473 layer_factory.hpp:77] Creating layer ReLU75
I0727 10:34:31.919814 22473 net.cpp:91] Creating Layer ReLU75
I0727 10:34:31.919824 22473 net.cpp:425] ReLU75 <- InnerProduct113
I0727 10:34:31.919834 22473 net.cpp:386] ReLU75 -> InnerProduct113 (in-place)
I0727 10:34:31.919852 22473 net.cpp:141] Setting up ReLU75
I0727 10:34:31.919862 22473 net.cpp:148] Top shape: 100 512 (51200)
I0727 10:34:31.919868 22473 net.cpp:156] Memory required for data: 2812704400
I0727 10:34:31.919873 22473 layer_factory.hpp:77] Creating layer InnerProduct114
I0727 10:34:31.919888 22473 net.cpp:91] Creating Layer InnerProduct114
I0727 10:34:31.919895 22473 net.cpp:425] InnerProduct114 <- InnerProduct113
I0727 10:34:31.919908 22473 net.cpp:399] InnerProduct114 -> InnerProduct114
I0727 10:34:32.090674 22473 net.cpp:141] Setting up InnerProduct114
I0727 10:34:32.090713 22473 net.cpp:148] Top shape: 100 512 (51200)
I0727 10:34:32.090720 22473 net.cpp:156] Memory required for data: 2812909200
I0727 10:34:32.090734 22473 net.cpp:484] Sharing parameters 'fc2_w' owned by layer 'InnerProduct6', param index 0
I0727 10:34:32.090745 22473 net.cpp:484] Sharing parameters 'fc2_b' owned by layer 'InnerProduct6', param index 1
I0727 10:34:32.090759 22473 layer_factory.hpp:77] Creating layer ReLU76
I0727 10:34:32.090775 22473 net.cpp:91] Creating Layer ReLU76
I0727 10:34:32.090787 22473 net.cpp:425] ReLU76 <- InnerProduct114
I0727 10:34:32.090798 22473 net.cpp:386] ReLU76 -> InnerProduct114 (in-place)
I0727 10:34:32.090817 22473 net.cpp:141] Setting up ReLU76
I0727 10:34:32.090826 22473 net.cpp:148] Top shape: 100 512 (51200)
I0727 10:34:32.090837 22473 net.cpp:156] Memory required for data: 2813114000
I0727 10:34:32.090844 22473 layer_factory.hpp:77] Creating layer dt18
I0727 10:34:32.090867 22473 net.cpp:91] Creating Layer dt18
I0727 10:34:32.090878 22473 net.cpp:425] dt18 <- InnerProduct114
I0727 10:34:32.090894 22473 net.cpp:399] dt18 -> dt18
I0727 10:34:32.091080 22473 net.cpp:141] Setting up dt18
I0727 10:34:32.091092 22473 net.cpp:148] Top shape: 100 1 (100)
I0727 10:34:32.091099 22473 net.cpp:156] Memory required for data: 2813114400
I0727 10:34:32.091105 22473 net.cpp:484] Sharing parameters 'fc3_w' owned by layer 'dt0', param index 0
I0727 10:34:32.091119 22473 net.cpp:484] Sharing parameters 'fc3_b' owned by layer 'dt0', param index 1
I0727 10:34:32.091152 22473 layer_factory.hpp:77] Creating layer con
I0727 10:34:32.091169 22473 net.cpp:91] Creating Layer con
…
I0727 10:34:32.091274 22473 net.cpp:425] con <- dt10
I0727 10:34:32.091284 22473 net.cpp:425] con <- dt11
I0727 10:34:32.091292 22473 net.cpp:425] con <- dt12
I0727 10:34:32.091300 22473 net.cpp:425] con <- dt13
I0727 10:34:32.091308 22473 net.cpp:425] con <- dt14
I0727 10:34:32.091317 22473 net.cpp:425] con <- dt15
I0727 10:34:32.091325 22473 net.cpp:425] con <- dt16
I0727 10:34:32.091336 22473 net.cpp:425] con <- dt17
I0727 10:34:32.091343 22473 net.cpp:425] con <- dt18
I0727 10:34:32.091357 22473 net.cpp:399] con -> con
I0727 10:34:32.091403 22473 net.cpp:141] Setting up con
I0727 10:34:32.091416 22473 net.cpp:148] Top shape: 100 19 (1900)
I0727 10:34:32.091424 22473 net.cpp:156] Memory required for data: 2813122000
I0727 10:34:32.091431 22473 layer_factory.hpp:77] Creating layer r1
I0727 10:34:32.091447 22473 net.cpp:91] Creating Layer r1
I0727 10:34:32.091455 22473 net.cpp:425] r1 <- con
I0727 10:34:32.091467 22473 net.cpp:399] r1 -> r1
I0727 10:34:32.091509 22473 net.cpp:141] Setting up r1
I0727 10:34:32.091522 22473 net.cpp:148] Top shape: 100 1 1 19 (1900)
I0727 10:34:32.091529 22473 net.cpp:156] Memory required for data: 2813129600
I0727 10:34:32.091536 22473 layer_factory.hpp:77] Creating layer p
I0727 10:34:32.091548 22473 net.cpp:91] Creating Layer p
I0727 10:34:32.091557 22473 net.cpp:425] p <- r1
I0727 10:34:32.091570 22473 net.cpp:399] p -> p
I0727 10:34:32.091614 22473 net.cpp:141] Setting up p
I0727 10:34:32.091626 22473 net.cpp:148] Top shape: 100 1 1 1 (100)
I0727 10:34:32.091634 22473 net.cpp:156] Memory required for data: 2813130000
I0727 10:34:32.091641 22473 layer_factory.hpp:77] Creating layer r2
I0727 10:34:32.091655 22473 net.cpp:91] Creating Layer r2
I0727 10:34:32.091663 22473 net.cpp:425] r2 <- p
I0727 10:34:32.091675 22473 net.cpp:399] r2 -> r2
I0727 10:34:32.091711 22473 net.cpp:141] Setting up r2
I0727 10:34:32.091724 22473 net.cpp:148] Top shape: 100 1 1 1 (100)
I0727 10:34:32.091732 22473 net.cpp:156] Memory required for data: 2813130400
I0727 10:34:32.091739 22473 layer_factory.hpp:77] Creating layer r2_r2_0_split
I0727 10:34:32.091750 22473 net.cpp:91] Creating Layer r2_r2_0_split
I0727 10:34:32.091758 22473 net.cpp:425] r2_r2_0_split <- r2
I0727 10:34:32.091771 22473 net.cpp:399] r2_r2_0_split -> r2_r2_0_split_0
I0727 10:34:32.091784 22473 net.cpp:399] r2_r2_0_split -> r2_r2_0_split_1
I0727 10:34:32.091838 22473 net.cpp:141] Setting up r2_r2_0_split
I0727 10:34:32.091851 22473 net.cpp:148] Top shape: 100 1 1 1 (100)
I0727 10:34:32.091861 22473 net.cpp:148] Top shape: 100 1 1 1 (100)
I0727 10:34:32.091868 22473 net.cpp:156] Memory required for data: 2813131200
I0727 10:34:32.091876 22473 layer_factory.hpp:77] Creating layer loss
I0727 10:34:32.091892 22473 net.cpp:91] Creating Layer loss
I0727 10:34:32.091899 22473 net.cpp:425] loss <- r2_r2_0_split_0
I0727 10:34:32.091909 22473 net.cpp:425] loss <- label_data_1_split_0
I0727 10:34:32.091920 22473 net.cpp:399] loss -> loss
…
