…
solver_mode: CPU
I0731 23:36:42.579365  6361 solver.cpp:81] Creating training net from train_net file: examples/scene/matchNetTrainHingeMini.prototxt
I0731 23:36:42.582868  6361 net.cpp:49] Initializing net from parameters: 
state {
  phase: TRAIN
}
layer {
  name: "data"
  type: "Data"
  top: "data"
  top: "label"
  include {
    phase: TRAIN
  }
  transform_param {
    scale: 0.0039215689
    mirror: true
    mean_file: "examples/scene/scene_mean.binaryproto"
  }
  data_param {
    source: "examples/scene/scene_train_pairs.lmdb"
    batch_size: 10
    backend: LMDB
  }
}
layer {
  name: "i1"
  type: "Slice"
  bottom: "data"
  top: "i1"
  top: "i2"
  slice_param {
    slice_dim: 1
    slice_point: 3
  }
}
layer {
  name: "p1"
  type: "Pooling"
  bottom: "i1"
  top: "p1"
  pooling_param {
    pool: AVE
    kernel_size: 2
    stride: 2
  }
}
layer {
  name: "p2"
  type: "Pooling"
  bottom: "i2"
  top: "p2"
  pooling_param {
    pool: AVE
    kernel_size: 2
    stride: 2
  }
}
layer {
  name: "Input1"
  type: "Input"
  top: "Input1"
  include {
    phase: TRAIN
  }
  input_param {
    shape {
      dim: 10
      dim: 3
      dim: 64
      dim: 64
    }
  }
}
layer {
  name: "c11"
  type: "Crop"
  bottom: "i1"
  bottom: "Input1"
  top: "c11"
  crop_param {
    axis: 2
    offset: 32
    offset: 32
  }
}
layer {
  name: "Input2"
  type: "Input"
  top: "Input2"
  include {
    phase: TRAIN
  }
  input_param {
    shape {
      dim: 10
      dim: 3
      dim: 64
      dim: 64
    }
  }
}
layer {
  name: "c21"
  type: "Crop"
  bottom: "i2"
  bottom: "Input2"
  top: "c21"
  crop_param {
    axis: 2
    offset: 32
    offset: 32
  }
}
layer {
  name: "Convolution1"
  type: "Convolution"
  bottom: "p1"
  top: "Convolution1"
  param {
    name: "conv1_w"
    lr_mult: 1
  }
  param {
    name: "conv1_b"
    lr_mult: 2
  }
  convolution_param {
    num_output: 20
    kernel_size: 5
    stride: 1
    weight_filler {
      type: "xavier"
    }
    bias_filler {
      type: "constant"
    }
  }
}
layer {
  name: "Pooling1"
  type: "Pooling"
  bottom: "Convolution1"
  top: "Pooling1"
  pooling_param {
    pool: MAX
    kernel_size: 2
    stride: 2
  }
}
layer {
  name: "Convolution2"
  type: "Convolution"
  bottom: "Pooling1"
  top: "Convolution2"
  param {
    name: "conv2_w"
    lr_mult: 1
  }
  param {
    name: "conv2_b"
    lr_mult: 2
  }
  convolution_param {
    num_output: 50
    kernel_size: 5
    stride: 1
    weight_filler {
      type: "xavier"
    }
    bias_filler {
      type: "constant"
    }
  }
}
layer {
  name: "Pooling2"
  type: "Pooling"
  bottom: "Convolution2"
  top: "Pooling2"
  pooling_param {
    pool: MAX
    kernel_size: 2
    stride: 2
  }
}
layer {
  name: "InnerProduct1"
  type: "InnerProduct"
  bottom: "Pooling2"
  top: "InnerProduct1"
  param {
    name: "ip1_w"
    lr_mult: 1
  }
  param {
    name: "ip1_b"
    lr_mult: 2
  }
  inner_product_param {
    num_output: 100
    weight_filler {
      type: "xavier"
    }
    bias_filler {
      type: "constant"
    }
  }
}
layer {
  name: "ReLU1"
  type: "ReLU"
  bottom: "InnerProduct1"
  top: "InnerProduct1"
}
layer {
  name: "InnerProduct2"
  type: "InnerProduct"
  bottom: "InnerProduct1"
  top: "InnerProduct2"
  param {
    name: "ip2_w"
    lr_mult: 1
  }
  param {
    name: "ip2_b"
    lr_mult: 2
  }
  inner_product_param {
    num_output: 50
    weight_filler {
      type: "xavier"
    }
    bias_filler {
      type: "constant"
    }
  }
}
layer {
  name: "Convolution3"
  type: "Convolution"
  bottom: "p2"
  top: "Convolution3"
  param {
    name: "conv1_w"
    lr_mult: 1
  }
  param {
    name: "conv1_b"
    lr_mult: 2
  }
  convolution_param {
    num_output: 20
    kernel_size: 5
    stride: 1
    weight_filler {
      type: "xavier"
    }
    bias_filler {
      type: "constant"
    }
  }
}
layer {
  name: "Pooling3"
  type: "Pooling"
  bottom: "Convolution3"
  top: "Pooling3"
  pooling_param {
    pool: MAX
    kernel_size: 2
    stride: 2
  }
}
layer {
  name: "Convolution4"
  type: "Convolution"
  bottom: "Pooling3"
  top: "Convolution4"
  param {
    name: "conv2_w"
    lr_mult: 1
  }
  param {
    name: "conv2_b"
    lr_mult: 2
  }
  convolution_param {
    num_output: 50
    kernel_size: 5
    stride: 1
    weight_filler {
      type: "xavier"
    }
    bias_filler {
      type: "constant"
    }
  }
}
layer {
  name: "Pooling4"
  type: "Pooling"
  bottom: "Convolution4"
  top: "Pooling4"
  pooling_param {
    pool: MAX
    kernel_size: 2
    stride: 2
  }
}
layer {
  name: "InnerProduct3"
  type: "InnerProduct"
  bottom: "Pooling4"
  top: "InnerProduct3"
  param {
    name: "ip1_w"
    lr_mult: 1
  }
  param {
    name: "ip1_b"
    lr_mult: 2
  }
  inner_product_param {
    num_output: 100
    weight_filler {
      type: "xavier"
    }
    bias_filler {
      type: "constant"
    }
  }
}
layer {
  name: "ReLU2"
  type: "ReLU"
  bottom: "InnerProduct3"
  top: "InnerProduct3"
}
layer {
  name: "InnerProduct4"
  type: "InnerProduct"
  bottom: "InnerProduct3"
  top: "InnerProduct4"
  param {
    name: "ip2_w"
    lr_mult: 1
  }
  param {
    name: "ip2_b"
    lr_mult: 2
  }
  inner_product_param {
    num_output: 50
    weight_filler {
      type: "xavier"
    }
    bias_filler {
      type: "constant"
    }
  }
}
layer {
  name: "Concat1"
  type: "Concat"
  bottom: "InnerProduct2"
  bottom: "InnerProduct4"
  top: "Concat1"
  concat_param {
    axis: 1
  }
}
layer {
  name: "InnerProduct5"
  type: "InnerProduct"
  bottom: "Concat1"
  top: "InnerProduct5"
  param {
    name: "fc1_w"
    lr_mult: 1
  }
  param {
    name: "fc1_b"
    lr_mult: 2
  }
  inner_product_param {
    num_output: 64
    weight_filler {
      type: "xavier"
    }
    bias_filler {
      type: "constant"
    }
  }
}
layer {
  name: "ReLU3"
  type: "ReLU"
  bottom: "InnerProduct5"
  top: "InnerProduct5"
}
layer {
  name: "InnerProduct6"
  type: "InnerProduct"
  bottom: "InnerProduct5"
  top: "InnerProduct6"
  param {
    name: "fc2_w"
    lr_mult: 1
  }
  param {
    name: "fc2_b"
    lr_mult: 2
  }
  inner_product_param {
    num_output: 32
    weight_filler {
      type: "xavier"
    }
    bias_filler {
      type: "constant"
    }
  }
}
layer {
  name: "ReLU4"
  type: "ReLU"
  bottom: "InnerProduct6"
  top: "InnerProduct6"
}
layer {
  name: "dt"
  type: "InnerProduct"
  bottom: "InnerProduct6"
  top: "dt"
  param {
    name: "fc3_w"
    lr_mult: 1
  }
  param {
    name: "fc3_b"
    lr_mult: 2
  }
  inner_product_param {
    num_output: 2
    weight_filler {
      type: "xavier"
    }
    bias_filler {
      type: "constant"
    }
  }
}
layer {
  name: "Convolution5"
  type: "Convolution"
  bottom: "p1"
  top: "Convolution5"
  param {
    name: "conv1_w"
    lr_mult: 1
  }
  param {
    name: "conv1_b"
    lr_mult: 2
  }
  convolution_param {
    num_output: 20
    kernel_size: 5
    stride: 1
    weight_filler {
      type: "xavier"
    }
    bias_filler {
      type: "constant"
    }
  }
}
layer {
  name: "Pooling5"
  type: "Pooling"
  bottom: "Convolution5"
  top: "Pooling5"
  pooling_param {
    pool: MAX
    kernel_size: 2
    stride: 2
  }
}
layer {
  name: "Convolution6"
  type: "Convolution"
  bottom: "Pooling5"
  top: "Convolution6"
  param {
    name: "conv2_w"
    lr_mult: 1
  }
  param {
    name: "conv2_b"
    lr_mult: 2
  }
  convolution_param {
    num_output: 50
    kernel_size: 5
    stride: 1
    weight_filler {
      type: "xavier"
    }
    bias_filler {
      type: "constant"
    }
  }
}
layer {
  name: "Pooling6"
  type: "Pooling"
  bottom: "Convolution6"
  top: "Pooling6"
  pooling_param {
    pool: MAX
    kernel_size: 2
    stride: 2
  }
}
layer {
  name: "InnerProduct7"
  type: "InnerProduct"
  bottom: "Pooling6"
  top: "InnerProduct7"
  param {
    name: "ip1_w"
    lr_mult: 1
  }
  param {
    name: "ip1_b"
    lr_mult: 2
  }
  inner_product_param {
    num_output: 100
    weight_filler {
      type: "xavier"
    }
    bias_filler {
      type: "constant"
    }
  }
}
layer {
  name: "ReLU5"
  type: "ReLU"
  bottom: "InnerProduct7"
  top: "InnerProduct7"
}
layer {
  name: "InnerProduct8"
  type: "InnerProduct"
  bottom: "InnerProduct7"
  top: "InnerProduct8"
  param {
    name: "ip2_w"
    lr_mult: 1
  }
  param {
    name: "ip2_b"
    lr_mult: 2
  }
  inner_product_param {
    num_output: 50
    weight_filler {
      type: "xavier"
    }
    bias_filler {
      type: "constant"
    }
  }
}
layer {
  name: "Convolution7"
  type: "Convolution"
  bottom: "c21"
  top: "Convolution7"
  param {
    name: "conv1_w"
    lr_mult: 1
  }
  param {
    name: "conv1_b"
    lr_mult: 2
  }
  convolution_param {
    num_output: 20
    kernel_size: 5
    stride: 1
    weight_filler {
      type: "xavier"
    }
    bias_filler {
      type: "constant"
    }
  }
}
layer {
  name: "Pooling7"
  type: "Pooling"
  bottom: "Convolution7"
  top: "Pooling7"
  pooling_param {
    pool: MAX
    kernel_size: 2
    stride: 2
  }
}
layer {
  name: "Convolution8"
  type: "Convolution"
  bottom: "Pooling7"
  top: "Convolution8"
  param {
    name: "conv2_w"
    lr_mult: 1
  }
  param {
    name: "conv2_b"
    lr_mult: 2
  }
  convolution_param {
    num_output: 50
    kernel_size: 5
    stride: 1
    weight_filler {
      type: "xavier"
    }
    bias_filler {
      type: "constant"
    }
  }
}
layer {
  name: "Pooling8"
  type: "Pooling"
  bottom: "Convolution8"
  top: "Pooling8"
  pooling_param {
    pool: MAX
    kernel_size: 2
    stride: 2
  }
}
layer {
  name: "InnerProduct9"
  type: "InnerProduct"
  bottom: "Pooling8"
  top: "InnerProduct9"
  param {
    name: "ip1_w"
    lr_mult: 1
  }
  param {
    name: "ip1_b"
    lr_mult: 2
  }
  inner_product_param {
    num_output: 100
    weight_filler {
      type: "xavier"
    }
    bias_filler {
      type: "constant"
    }
  }
}
layer {
  name: "ReLU6"
  type: "ReLU"
  bottom: "InnerProduct9"
  top: "InnerProduct9"
}
layer {
  name: "InnerProduct10"
  type: "InnerProduct"
  bottom: "InnerProduct9"
  top: "InnerProduct10"
  param {
    name: "ip2_w"
    lr_mult: 1
  }
  param {
    name: "ip2_b"
    lr_mult: 2
  }
  inner_product_param {
    num_output: 50
    weight_filler {
      type: "xavier"
    }
    bias_filler {
      type: "constant"
    }
  }
}
layer {
  name: "Concat2"
  type: "Concat"
  bottom: "InnerProduct8"
  bottom: "InnerProduct10"
  top: "Concat2"
  concat_param {
    axis: 1
  }
}
layer {
  name: "InnerProduct11"
  type: "InnerProduct"
  bottom: "Concat2"
  top: "InnerProduct11"
  param {
    name: "fc1_w"
    lr_mult: 1
  }
  param {
    name: "fc1_b"
    lr_mult: 2
  }
  inner_product_param {
    num_output: 64
    weight_filler {
      type: "xavier"
    }
    bias_filler {
      type: "constant"
    }
  }
}
layer {
  name: "ReLU7"
  type: "ReLU"
  bottom: "InnerProduct11"
  top: "InnerProduct11"
}
layer {
  name: "InnerProduct12"
  type: "InnerProduct"
  bottom: "InnerProduct11"
  top: "InnerProduct12"
  param {
    name: "fc2_w"
    lr_mult: 1
  }
  param {
    name: "fc2_b"
    lr_mult: 2
  }
  inner_product_param {
    num_output: 32
    weight_filler {
      type: "xavier"
    }
    bias_filler {
      type: "constant"
    }
  }
}
layer {
  name: "ReLU8"
  type: "ReLU"
  bottom: "InnerProduct12"
  top: "InnerProduct12"
}
layer {
  name: "dt1"
  type: "InnerProduct"
  bottom: "InnerProduct12"
  top: "dt1"
  param {
    name: "fc3_w"
    lr_mult: 1
  }
  param {
    name: "fc3_b"
    lr_mult: 2
  }
  inner_product_param {
    num_output: 2
    weight_filler {
      type: "xavier"
    }
    bias_filler {
      type: "constant"
    }
  }
}
layer {
  name: "Convolution9"
  type: "Convolution"
  bottom: "p2"
  top: "Convolution9"
  param {
    name: "conv1_w"
    lr_mult: 1
  }
  param {
    name: "conv1_b"
    lr_mult: 2
  }
  convolution_param {
    num_output: 20
    kernel_size: 5
    stride: 1
    weight_filler {
      type: "xavier"
    }
    bias_filler {
      type: "constant"
    }
  }
}
layer {
  name: "Pooling9"
  type: "Pooling"
  bottom: "Convolution9"
  top: "Pooling9"
  pooling_param {
    pool: MAX
    kernel_size: 2
    stride: 2
  }
}
layer {
  name: "Convolution10"
  type: "Convolution"
  bottom: "Pooling9"
  top: "Convolution10"
  param {
    name: "conv2_w"
    lr_mult: 1
  }
  param {
    name: "conv2_b"
    lr_mult: 2
  }
  convolution_param {
    num_output: 50
    kernel_size: 5
    stride: 1
    weight_filler {
      type: "xavier"
    }
    bias_filler {
      type: "constant"
    }
  }
}
layer {
  name: "Pooling10"
  type: "Pooling"
  bottom: "Convolution10"
  top: "Pooling10"
  pooling_param {
    pool: MAX
    kernel_size: 2
    stride: 2
  }
}
layer {
  name: "InnerProduct13"
  type: "InnerProduct"
  bottom: "Pooling10"
  top: "InnerProduct13"
  param {
    name: "ip1_w"
    lr_mult: 1
  }
  param {
    name: "ip1_b"
    lr_mult: 2
  }
  inner_product_param {
    num_output: 100
    weight_filler {
      type: "xavier"
    }
    bias_filler {
      type: "constant"
    }
  }
}
layer {
  name: "ReLU9"
  type: "ReLU"
  bottom: "InnerProduct13"
  top: "InnerProduct13"
}
layer {
  name: "InnerProduct14"
  type: "InnerProduct"
  bottom: "InnerProduct13"
  top: "InnerProduct14"
  param {
    name: "ip2_w"
    lr_mult: 1
  }
  param {
    name: "ip2_b"
    lr_mult: 2
  }
  inner_product_param {
    num_output: 50
    weight_filler {
      type: "xavier"
    }
    bias_filler {
      type: "constant"
    }
  }
}
layer {
  name: "Convolution11"
  type: "Convolution"
  bottom: "c11"
  top: "Convolution11"
  param {
    name: "conv1_w"
    lr_mult: 1
  }
  param {
    name: "conv1_b"
    lr_mult: 2
  }
  convolution_param {
    num_output: 20
    kernel_size: 5
    stride: 1
    weight_filler {
      type: "xavier"
    }
    bias_filler {
      type: "constant"
    }
  }
}
layer {
  name: "Pooling11"
  type: "Pooling"
  bottom: "Convolution11"
  top: "Pooling11"
  pooling_param {
    pool: MAX
    kernel_size: 2
    stride: 2
  }
}
layer {
  name: "Convolution12"
  type: "Convolution"
  bottom: "Pooling11"
  top: "Convolution12"
  param {
    name: "conv2_w"
    lr_mult: 1
  }
  param {
    name: "conv2_b"
    lr_mult: 2
  }
  convolution_param {
    num_output: 50
    kernel_size: 5
    stride: 1
    weight_filler {
      type: "xavier"
    }
    bias_filler {
      type: "constant"
    }
  }
}
layer {
  name: "Pooling12"
  type: "Pooling"
  bottom: "Convolution12"
  top: "Pooling12"
  pooling_param {
    pool: MAX
    kernel_size: 2
    stride: 2
  }
}
layer {
  name: "InnerProduct15"
  type: "InnerProduct"
  bottom: "Pooling12"
  top: "InnerProduct15"
  param {
    name: "ip1_w"
    lr_mult: 1
  }
  param {
    name: "ip1_b"
    lr_mult: 2
  }
  inner_product_param {
    num_output: 100
    weight_filler {
      type: "xavier"
    }
    bias_filler {
      type: "constant"
    }
  }
}
layer {
  name: "ReLU10"
  type: "ReLU"
  bottom: "InnerProduct15"
  top: "InnerProduct15"
}
layer {
  name: "InnerProduct16"
  type: "InnerProduct"
  bottom: "InnerProduct15"
  top: "InnerProduct16"
  param {
    name: "ip2_w"
    lr_mult: 1
  }
  param {
    name: "ip2_b"
    lr_mult: 2
  }
  inner_product_param {
    num_output: 50
    weight_filler {
      type: "xavier"
    }
    bias_filler {
      type: "constant"
    }
  }
}
layer {
  name: "Concat3"
  type: "Concat"
  bottom: "InnerProduct14"
  bottom: "InnerProduct16"
  top: "Concat3"
  concat_param {
    axis: 1
  }
}
layer {
  name: "InnerProduct17"
  type: "InnerProduct"
  bottom: "Concat3"
  top: "InnerProduct17"
  param {
    name: "fc1_w"
    lr_mult: 1
  }
  param {
    name: "fc1_b"
    lr_mult: 2
  }
  inner_product_param {
    num_output: 64
    weight_filler {
      type: "xavier"
    }
    bias_filler {
      type: "constant"
    }
  }
}
layer {
  name: "ReLU11"
  type: "ReLU"
  bottom: "InnerProduct17"
  top: "InnerProduct17"
}
layer {
  name: "InnerProduct18"
  type: "InnerProduct"
  bottom: "InnerProduct17"
  top: "InnerProduct18"
  param {
    name: "fc2_w"
    lr_mult: 1
  }
  param {
    name: "fc2_b"
    lr_mult: 2
  }
  inner_product_param {
    num_output: 32
    weight_filler {
      type: "xavier"
    }
    bias_filler {
      type: "constant"
    }
  }
}
layer {
  name: "ReLU12"
  type: "ReLU"
  bottom: "InnerProduct18"
  top: "InnerProduct18"
}
layer {
  name: "dt2"
  type: "InnerProduct"
  bottom: "InnerProduct18"
  top: "dt2"
  param {
    name: "fc3_w"
    lr_mult: 1
  }
  param {
    name: "fc3_b"
    lr_mult: 2
  }
  inner_product_param {
    num_output: 2
    weight_filler {
      type: "xavier"
    }
    bias_filler {
      type: "constant"
    }
  }
}
layer {
  name: "con"
  type: "Concat"
  bottom: "dt"
  bottom: "dt1"
  bottom: "dt2"
  top: "con"
  concat_param {
    axis: -1
  }
}
layer {
  name: "r1"
  type: "Reshape"
  bottom: "con"
  top: "r1"
  reshape_param {
    shape {
      dim: 0
      dim: 1
      dim: 2
      dim: -1
    }
  }
}
layer {
  name: "p"
  type: "Pooling"
  bottom: "r1"
  top: "p"
  pooling_param {
    pool: MAXCOL
    stride: 1
    kernel_h: 1
    kernel_w: 3
  }
}
layer {
  name: "r2"
  type: "Reshape"
  bottom: "p"
  top: "r2"
  reshape_param {
    shape {
      dim: 0
      dim: 2
      dim: 1
      dim: -1
    }
  }
}
layer {
  name: "accuracy"
  type: "Accuracy"
  bottom: "r2"
  bottom: "label"
  top: "accuracy"
  include {
    phase: TRAIN
  }
}
layer {
  name: "loss"
  type: "HingeLoss"
  bottom: "r2"
  bottom: "label"
  top: "loss"
}
I0731 23:36:42.587772  6361 layer_factory.hpp:77] Creating layer data
I0731 23:36:42.588745  6361 net.cpp:91] Creating Layer data
I0731 23:36:42.588887  6361 net.cpp:399] data -> data
I0731 23:36:42.589296  6361 net.cpp:399] data -> label
I0731 23:36:42.589467  6361 data_transformer.cpp:25] Loading mean file from: examples/scene/scene_mean.binaryproto
I0731 23:36:42.596083  6365 db_lmdb.cpp:35] Opened lmdb examples/scene/scene_train_pairs.lmdb
I0731 23:36:42.605252  6361 data_layer.cpp:41] output data size: 10,6,128,128
I0731 23:36:42.610270  6361 net.cpp:141] Setting up data
I0731 23:36:42.610404  6361 net.cpp:148] Top shape: 10 6 128 128 (983040)
I0731 23:36:42.610435  6361 net.cpp:148] Top shape: 10 (10)
I0731 23:36:42.610458  6361 net.cpp:156] Memory required for data: 3932200
I0731 23:36:42.610512  6361 layer_factory.hpp:77] Creating layer label_data_1_split
I0731 23:36:42.610570  6361 net.cpp:91] Creating Layer label_data_1_split
I0731 23:36:42.610607  6361 net.cpp:425] label_data_1_split <- label
I0731 23:36:42.610658  6361 net.cpp:399] label_data_1_split -> label_data_1_split_0
I0731 23:36:42.610707  6361 net.cpp:399] label_data_1_split -> label_data_1_split_1
I0731 23:36:42.610776  6361 net.cpp:141] Setting up label_data_1_split
I0731 23:36:42.610818  6361 net.cpp:148] Top shape: 10 (10)
I0731 23:36:42.610848  6361 net.cpp:148] Top shape: 10 (10)
I0731 23:36:42.610877  6361 net.cpp:156] Memory required for data: 3932280
I0731 23:36:42.610903  6361 layer_factory.hpp:77] Creating layer i1
I0731 23:36:42.610941  6361 net.cpp:91] Creating Layer i1
I0731 23:36:42.610965  6361 net.cpp:425] i1 <- data
I0731 23:36:42.610991  6361 net.cpp:399] i1 -> i1
I0731 23:36:42.611032  6361 net.cpp:399] i1 -> i2
I0731 23:36:42.611066  6361 net.cpp:141] Setting up i1
I0731 23:36:42.611093  6361 net.cpp:148] Top shape: 10 3 128 128 (491520)
I0731 23:36:42.611117  6361 net.cpp:148] Top shape: 10 3 128 128 (491520)
I0731 23:36:42.611138  6361 net.cpp:156] Memory required for data: 7864440
I0731 23:36:42.611160  6361 layer_factory.hpp:77] Creating layer i1_i1_0_split
I0731 23:36:42.611186  6361 net.cpp:91] Creating Layer i1_i1_0_split
I0731 23:36:42.611207  6361 net.cpp:425] i1_i1_0_split <- i1
I0731 23:36:42.611232  6361 net.cpp:399] i1_i1_0_split -> i1_i1_0_split_0
I0731 23:36:42.611259  6361 net.cpp:399] i1_i1_0_split -> i1_i1_0_split_1
I0731 23:36:42.611289  6361 net.cpp:141] Setting up i1_i1_0_split
I0731 23:36:42.611315  6361 net.cpp:148] Top shape: 10 3 128 128 (491520)
I0731 23:36:42.611338  6361 net.cpp:148] Top shape: 10 3 128 128 (491520)
I0731 23:36:42.611358  6361 net.cpp:156] Memory required for data: 11796600
I0731 23:36:42.611399  6361 layer_factory.hpp:77] Creating layer i2_i1_1_split
I0731 23:36:42.611446  6361 net.cpp:91] Creating Layer i2_i1_1_split
I0731 23:36:42.611470  6361 net.cpp:425] i2_i1_1_split <- i2
I0731 23:36:42.611495  6361 net.cpp:399] i2_i1_1_split -> i2_i1_1_split_0
I0731 23:36:42.611522  6361 net.cpp:399] i2_i1_1_split -> i2_i1_1_split_1
I0731 23:36:42.611552  6361 net.cpp:141] Setting up i2_i1_1_split
I0731 23:36:42.611577  6361 net.cpp:148] Top shape: 10 3 128 128 (491520)
I0731 23:36:42.611601  6361 net.cpp:148] Top shape: 10 3 128 128 (491520)
I0731 23:36:42.611621  6361 net.cpp:156] Memory required for data: 15728760
I0731 23:36:42.611642  6361 layer_factory.hpp:77] Creating layer p1
I0731 23:36:42.611675  6361 net.cpp:91] Creating Layer p1
I0731 23:36:42.611697  6361 net.cpp:425] p1 <- i1_i1_0_split_0
I0731 23:36:42.611853  6361 net.cpp:399] p1 -> p1
I0731 23:36:42.611922  6361 net.cpp:141] Setting up p1
I0731 23:36:42.611953  6361 net.cpp:148] Top shape: 10 3 64 64 (122880)
I0731 23:36:42.611975  6361 net.cpp:156] Memory required for data: 16220280
I0731 23:36:42.611999  6361 layer_factory.hpp:77] Creating layer p1_p1_0_split
I0731 23:36:42.612023  6361 net.cpp:91] Creating Layer p1_p1_0_split
I0731 23:36:42.612045  6361 net.cpp:425] p1_p1_0_split <- p1
I0731 23:36:42.612071  6361 net.cpp:399] p1_p1_0_split -> p1_p1_0_split_0
I0731 23:36:42.612097  6361 net.cpp:399] p1_p1_0_split -> p1_p1_0_split_1
I0731 23:36:42.612128  6361 net.cpp:141] Setting up p1_p1_0_split
I0731 23:36:42.612152  6361 net.cpp:148] Top shape: 10 3 64 64 (122880)
I0731 23:36:42.612176  6361 net.cpp:148] Top shape: 10 3 64 64 (122880)
I0731 23:36:42.612197  6361 net.cpp:156] Memory required for data: 17203320
I0731 23:36:42.612218  6361 layer_factory.hpp:77] Creating layer p2
I0731 23:36:42.612243  6361 net.cpp:91] Creating Layer p2
I0731 23:36:42.612265  6361 net.cpp:425] p2 <- i2_i1_1_split_0
I0731 23:36:42.612290  6361 net.cpp:399] p2 -> p2
I0731 23:36:42.612319  6361 net.cpp:141] Setting up p2
I0731 23:36:42.612345  6361 net.cpp:148] Top shape: 10 3 64 64 (122880)
I0731 23:36:42.612366  6361 net.cpp:156] Memory required for data: 17694840
I0731 23:36:42.612387  6361 layer_factory.hpp:77] Creating layer p2_p2_0_split
I0731 23:36:42.612413  6361 net.cpp:91] Creating Layer p2_p2_0_split
I0731 23:36:42.612435  6361 net.cpp:425] p2_p2_0_split <- p2
I0731 23:36:42.612459  6361 net.cpp:399] p2_p2_0_split -> p2_p2_0_split_0
I0731 23:36:42.612488  6361 net.cpp:399] p2_p2_0_split -> p2_p2_0_split_1
I0731 23:36:42.612514  6361 net.cpp:141] Setting up p2_p2_0_split
I0731 23:36:42.612538  6361 net.cpp:148] Top shape: 10 3 64 64 (122880)
I0731 23:36:42.612561  6361 net.cpp:148] Top shape: 10 3 64 64 (122880)
I0731 23:36:42.612582  6361 net.cpp:156] Memory required for data: 18677880
I0731 23:36:42.612603  6361 layer_factory.hpp:77] Creating layer Input1
I0731 23:36:42.612640  6361 net.cpp:91] Creating Layer Input1
I0731 23:36:42.612669  6361 net.cpp:399] Input1 -> Input1
I0731 23:36:42.612709  6361 net.cpp:141] Setting up Input1
I0731 23:36:42.612738  6361 net.cpp:148] Top shape: 10 3 64 64 (122880)
I0731 23:36:42.612759  6361 net.cpp:156] Memory required for data: 19169400
I0731 23:36:42.612781  6361 layer_factory.hpp:77] Creating layer c11
I0731 23:36:42.612804  6361 net.cpp:91] Creating Layer c11
I0731 23:36:42.612826  6361 net.cpp:425] c11 <- i1_i1_0_split_1
I0731 23:36:42.612848  6361 net.cpp:425] c11 <- Input1
I0731 23:36:42.612874  6361 net.cpp:399] c11 -> c11
I0731 23:36:42.612998  6361 net.cpp:141] Setting up c11
I0731 23:36:42.613044  6361 net.cpp:148] Top shape: 10 3 64 64 (122880)
I0731 23:36:42.613065  6361 net.cpp:156] Memory required for data: 19660920
I0731 23:36:42.613086  6361 layer_factory.hpp:77] Creating layer Input2
I0731 23:36:42.613111  6361 net.cpp:91] Creating Layer Input2
I0731 23:36:42.613134  6361 net.cpp:399] Input2 -> Input2
I0731 23:36:42.613163  6361 net.cpp:141] Setting up Input2
I0731 23:36:42.613188  6361 net.cpp:148] Top shape: 10 3 64 64 (122880)
I0731 23:36:42.613209  6361 net.cpp:156] Memory required for data: 20152440
I0731 23:36:42.613255  6361 layer_factory.hpp:77] Creating layer c21
I0731 23:36:42.613278  6361 net.cpp:91] Creating Layer c21
I0731 23:36:42.613299  6361 net.cpp:425] c21 <- i2_i1_1_split_1
I0731 23:36:42.613322  6361 net.cpp:425] c21 <- Input2
I0731 23:36:42.613346  6361 net.cpp:399] c21 -> c21
I0731 23:36:42.613374  6361 net.cpp:141] Setting up c21
I0731 23:36:42.613399  6361 net.cpp:148] Top shape: 10 3 64 64 (122880)
I0731 23:36:42.613417  6361 net.cpp:156] Memory required for data: 20643960
I0731 23:36:42.613437  6361 layer_factory.hpp:77] Creating layer Convolution1
I0731 23:36:42.613505  6361 net.cpp:91] Creating Layer Convolution1
I0731 23:36:42.613539  6361 net.cpp:425] Convolution1 <- p1_p1_0_split_0
I0731 23:36:42.613566  6361 net.cpp:399] Convolution1 -> Convolution1
I0731 23:36:42.613672  6361 net.cpp:141] Setting up Convolution1
I0731 23:36:42.613703  6361 net.cpp:148] Top shape: 10 20 60 60 (720000)
I0731 23:36:42.613724  6361 net.cpp:156] Memory required for data: 23523960
I0731 23:36:42.613760  6361 layer_factory.hpp:77] Creating layer Pooling1
I0731 23:36:42.613790  6361 net.cpp:91] Creating Layer Pooling1
I0731 23:36:42.613816  6361 net.cpp:425] Pooling1 <- Convolution1
I0731 23:36:42.613843  6361 net.cpp:399] Pooling1 -> Pooling1
I0731 23:36:42.613879  6361 net.cpp:141] Setting up Pooling1
I0731 23:36:42.613908  6361 net.cpp:148] Top shape: 10 20 30 30 (180000)
I0731 23:36:42.613930  6361 net.cpp:156] Memory required for data: 24243960
I0731 23:36:42.613953  6361 layer_factory.hpp:77] Creating layer Convolution2
I0731 23:36:42.613984  6361 net.cpp:91] Creating Layer Convolution2
I0731 23:36:42.614011  6361 net.cpp:425] Convolution2 <- Pooling1
I0731 23:36:42.614039  6361 net.cpp:399] Convolution2 -> Convolution2
I0731 23:36:42.614353  6361 net.cpp:141] Setting up Convolution2
I0731 23:36:42.614395  6361 net.cpp:148] Top shape: 10 50 26 26 (338000)
I0731 23:36:42.614554  6361 net.cpp:156] Memory required for data: 25595960
I0731 23:36:42.614603  6361 layer_factory.hpp:77] Creating layer Pooling2
I0731 23:36:42.614646  6361 net.cpp:91] Creating Layer Pooling2
I0731 23:36:42.614675  6361 net.cpp:425] Pooling2 <- Convolution2
I0731 23:36:42.614707  6361 net.cpp:399] Pooling2 -> Pooling2
I0731 23:36:42.614748  6361 net.cpp:141] Setting up Pooling2
I0731 23:36:42.614778  6361 net.cpp:148] Top shape: 10 50 13 13 (84500)
I0731 23:36:42.614801  6361 net.cpp:156] Memory required for data: 25933960
I0731 23:36:42.614825  6361 layer_factory.hpp:77] Creating layer InnerProduct1
I0731 23:36:42.614866  6361 net.cpp:91] Creating Layer InnerProduct1
I0731 23:36:42.614892  6361 net.cpp:425] InnerProduct1 <- Pooling2
I0731 23:36:42.614923  6361 net.cpp:399] InnerProduct1 -> InnerProduct1
I0731 23:36:42.624240  6361 net.cpp:141] Setting up InnerProduct1
I0731 23:36:42.631450  6361 net.cpp:148] Top shape: 10 100 (1000)
I0731 23:36:42.631520  6361 net.cpp:156] Memory required for data: 25937960
I0731 23:36:42.631552  6361 layer_factory.hpp:77] Creating layer ReLU1
I0731 23:36:42.631575  6361 net.cpp:91] Creating Layer ReLU1
I0731 23:36:42.631592  6361 net.cpp:425] ReLU1 <- InnerProduct1
I0731 23:36:42.631608  6361 net.cpp:386] ReLU1 -> InnerProduct1 (in-place)
I0731 23:36:42.631631  6361 net.cpp:141] Setting up ReLU1
I0731 23:36:42.631649  6361 net.cpp:148] Top shape: 10 100 (1000)
I0731 23:36:42.631661  6361 net.cpp:156] Memory required for data: 25941960
I0731 23:36:42.631675  6361 layer_factory.hpp:77] Creating layer InnerProduct2
I0731 23:36:42.631783  6361 net.cpp:91] Creating Layer InnerProduct2
I0731 23:36:42.631814  6361 net.cpp:425] InnerProduct2 <- InnerProduct1
I0731 23:36:42.631846  6361 net.cpp:399] InnerProduct2 -> InnerProduct2
I0731 23:36:42.631995  6361 net.cpp:141] Setting up InnerProduct2
I0731 23:36:42.632905  6361 net.cpp:148] Top shape: 10 50 (500)
I0731 23:36:42.635727  6361 net.cpp:156] Memory required for data: 25943960
I0731 23:36:42.635810  6361 layer_factory.hpp:77] Creating layer Convolution3
I0731 23:36:42.635854  6361 net.cpp:91] Creating Layer Convolution3
I0731 23:36:42.635887  6361 net.cpp:425] Convolution3 <- p2_p2_0_split_0
I0731 23:36:42.635921  6361 net.cpp:399] Convolution3 -> Convolution3
I0731 23:36:42.635995  6361 net.cpp:141] Setting up Convolution3
I0731 23:36:42.636114  6361 net.cpp:148] Top shape: 10 20 60 60 (720000)
I0731 23:36:42.636134  6361 net.cpp:156] Memory required for data: 28823960
I0731 23:36:42.636155  6361 net.cpp:484] Sharing parameters 'conv1_w' owned by layer 'Convolution1', param index 0
I0731 23:36:42.636174  6361 net.cpp:484] Sharing parameters 'conv1_b' owned by layer 'Convolution1', param index 1
I0731 23:36:42.636190  6361 layer_factory.hpp:77] Creating layer Pooling3
I0731 23:36:42.636210  6361 net.cpp:91] Creating Layer Pooling3
I0731 23:36:42.636227  6361 net.cpp:425] Pooling3 <- Convolution3
I0731 23:36:42.636247  6361 net.cpp:399] Pooling3 -> Pooling3
I0731 23:36:42.636282  6361 net.cpp:141] Setting up Pooling3
I0731 23:36:42.636307  6361 net.cpp:148] Top shape: 10 20 30 30 (180000)
I0731 23:36:42.636320  6361 net.cpp:156] Memory required for data: 29543960
I0731 23:36:42.636334  6361 layer_factory.hpp:77] Creating layer Convolution4
I0731 23:36:42.636358  6361 net.cpp:91] Creating Layer Convolution4
I0731 23:36:42.636373  6361 net.cpp:425] Convolution4 <- Pooling3
I0731 23:36:42.636390  6361 net.cpp:399] Convolution4 -> Convolution4
I0731 23:36:42.636677  6361 net.cpp:141] Setting up Convolution4
I0731 23:36:42.637266  6361 net.cpp:148] Top shape: 10 50 26 26 (338000)
I0731 23:36:42.637320  6361 net.cpp:156] Memory required for data: 30895960
I0731 23:36:42.637339  6361 net.cpp:484] Sharing parameters 'conv2_w' owned by layer 'Convolution2', param index 0
I0731 23:36:42.637356  6361 net.cpp:484] Sharing parameters 'conv2_b' owned by layer 'Convolution2', param index 1
I0731 23:36:42.637369  6361 layer_factory.hpp:77] Creating layer Pooling4
I0731 23:36:42.637398  6361 net.cpp:91] Creating Layer Pooling4
I0731 23:36:42.637415  6361 net.cpp:425] Pooling4 <- Convolution4
I0731 23:36:42.637441  6361 net.cpp:399] Pooling4 -> Pooling4
I0731 23:36:42.637470  6361 net.cpp:141] Setting up Pooling4
I0731 23:36:42.637486  6361 net.cpp:148] Top shape: 10 50 13 13 (84500)
I0731 23:36:42.637500  6361 net.cpp:156] Memory required for data: 31233960
I0731 23:36:42.637513  6361 layer_factory.hpp:77] Creating layer InnerProduct3
I0731 23:36:42.637534  6361 net.cpp:91] Creating Layer InnerProduct3
I0731 23:36:42.637549  6361 net.cpp:425] InnerProduct3 <- Pooling4
I0731 23:36:42.637565  6361 net.cpp:399] InnerProduct3 -> InnerProduct3
I0731 23:36:42.655987  6361 net.cpp:141] Setting up InnerProduct3
I0731 23:36:42.657759  6361 net.cpp:148] Top shape: 10 100 (1000)
I0731 23:36:42.657817  6361 net.cpp:156] Memory required for data: 31237960
I0731 23:36:42.657840  6361 net.cpp:484] Sharing parameters 'ip1_w' owned by layer 'InnerProduct1', param index 0
I0731 23:36:42.657860  6361 net.cpp:484] Sharing parameters 'ip1_b' owned by layer 'InnerProduct1', param index 1
I0731 23:36:42.657874  6361 layer_factory.hpp:77] Creating layer ReLU2
I0731 23:36:42.657896  6361 net.cpp:91] Creating Layer ReLU2
I0731 23:36:42.657912  6361 net.cpp:425] ReLU2 <- InnerProduct3
I0731 23:36:42.657934  6361 net.cpp:386] ReLU2 -> InnerProduct3 (in-place)
I0731 23:36:42.657959  6361 net.cpp:141] Setting up ReLU2
I0731 23:36:42.657976  6361 net.cpp:148] Top shape: 10 100 (1000)
I0731 23:36:42.658148  6361 net.cpp:156] Memory required for data: 31241960
I0731 23:36:42.658186  6361 layer_factory.hpp:77] Creating layer InnerProduct4
I0731 23:36:42.658210  6361 net.cpp:91] Creating Layer InnerProduct4
I0731 23:36:42.658226  6361 net.cpp:425] InnerProduct4 <- InnerProduct3
I0731 23:36:42.658272  6361 net.cpp:399] InnerProduct4 -> InnerProduct4
I0731 23:36:42.658354  6361 net.cpp:141] Setting up InnerProduct4
I0731 23:36:42.658391  6361 net.cpp:148] Top shape: 10 50 (500)
I0731 23:36:42.658406  6361 net.cpp:156] Memory required for data: 31243960
I0731 23:36:42.658422  6361 net.cpp:484] Sharing parameters 'ip2_w' owned by layer 'InnerProduct2', param index 0
I0731 23:36:42.658438  6361 net.cpp:484] Sharing parameters 'ip2_b' owned by layer 'InnerProduct2', param index 1
I0731 23:36:42.658485  6361 layer_factory.hpp:77] Creating layer Concat1
I0731 23:36:42.658505  6361 net.cpp:91] Creating Layer Concat1
I0731 23:36:42.658535  6361 net.cpp:425] Concat1 <- InnerProduct2
I0731 23:36:42.658553  6361 net.cpp:425] Concat1 <- InnerProduct4
I0731 23:36:42.658571  6361 net.cpp:399] Concat1 -> Concat1
I0731 23:36:42.658612  6361 net.cpp:141] Setting up Concat1
I0731 23:36:42.658632  6361 net.cpp:148] Top shape: 10 100 (1000)
I0731 23:36:42.658663  6361 net.cpp:156] Memory required for data: 31247960
I0731 23:36:42.658677  6361 layer_factory.hpp:77] Creating layer InnerProduct5
I0731 23:36:42.658699  6361 net.cpp:91] Creating Layer InnerProduct5
I0731 23:36:42.658730  6361 net.cpp:425] InnerProduct5 <- Concat1
I0731 23:36:42.658748  6361 net.cpp:399] InnerProduct5 -> InnerProduct5
I0731 23:36:42.658838  6361 net.cpp:141] Setting up InnerProduct5
I0731 23:36:42.658872  6361 net.cpp:148] Top shape: 10 64 (640)
I0731 23:36:42.658887  6361 net.cpp:156] Memory required for data: 31250520
I0731 23:36:42.658908  6361 layer_factory.hpp:77] Creating layer ReLU3
I0731 23:36:42.658941  6361 net.cpp:91] Creating Layer ReLU3
I0731 23:36:42.658957  6361 net.cpp:425] ReLU3 <- InnerProduct5
I0731 23:36:42.658972  6361 net.cpp:386] ReLU3 -> InnerProduct5 (in-place)
I0731 23:36:42.659005  6361 net.cpp:141] Setting up ReLU3
I0731 23:36:42.659023  6361 net.cpp:148] Top shape: 10 64 (640)
I0731 23:36:42.659050  6361 net.cpp:156] Memory required for data: 31253080
I0731 23:36:42.659066  6361 layer_factory.hpp:77] Creating layer InnerProduct6
I0731 23:36:42.659083  6361 net.cpp:91] Creating Layer InnerProduct6
I0731 23:36:42.659112  6361 net.cpp:425] InnerProduct6 <- InnerProduct5
I0731 23:36:42.659133  6361 net.cpp:399] InnerProduct6 -> InnerProduct6
I0731 23:36:42.659193  6361 net.cpp:141] Setting up InnerProduct6
I0731 23:36:42.659227  6361 net.cpp:148] Top shape: 10 32 (320)
I0731 23:36:42.659242  6361 net.cpp:156] Memory required for data: 31254360
I0731 23:36:42.659260  6361 layer_factory.hpp:77] Creating layer ReLU4
I0731 23:36:42.659291  6361 net.cpp:91] Creating Layer ReLU4
I0731 23:36:42.659307  6361 net.cpp:425] ReLU4 <- InnerProduct6
I0731 23:36:42.659325  6361 net.cpp:386] ReLU4 -> InnerProduct6 (in-place)
I0731 23:36:42.659358  6361 net.cpp:141] Setting up ReLU4
I0731 23:36:42.659376  6361 net.cpp:148] Top shape: 10 32 (320)
I0731 23:36:42.659404  6361 net.cpp:156] Memory required for data: 31255640
I0731 23:36:42.659420  6361 layer_factory.hpp:77] Creating layer dt
I0731 23:36:42.659442  6361 net.cpp:91] Creating Layer dt
I0731 23:36:42.659458  6361 net.cpp:425] dt <- InnerProduct6
I0731 23:36:42.659476  6361 net.cpp:399] dt -> dt
I0731 23:36:42.659502  6361 net.cpp:141] Setting up dt
I0731 23:36:42.659520  6361 net.cpp:148] Top shape: 10 2 (20)
I0731 23:36:42.659533  6361 net.cpp:156] Memory required for data: 31255720
I0731 23:36:42.659549  6361 layer_factory.hpp:77] Creating layer Convolution5
I0731 23:36:42.659572  6361 net.cpp:91] Creating Layer Convolution5
I0731 23:36:42.659589  6361 net.cpp:425] Convolution5 <- p1_p1_0_split_1
I0731 23:36:42.659610  6361 net.cpp:399] Convolution5 -> Convolution5
I0731 23:36:42.659667  6361 net.cpp:141] Setting up Convolution5
I0731 23:36:42.659687  6361 net.cpp:148] Top shape: 10 20 60 60 (720000)
I0731 23:36:42.659700  6361 net.cpp:156] Memory required for data: 34135720
I0731 23:36:42.659715  6361 net.cpp:484] Sharing parameters 'conv1_w' owned by layer 'Convolution1', param index 0
I0731 23:36:42.659731  6361 net.cpp:484] Sharing parameters 'conv1_b' owned by layer 'Convolution1', param index 1
I0731 23:36:42.659745  6361 layer_factory.hpp:77] Creating layer Pooling5
I0731 23:36:42.659762  6361 net.cpp:91] Creating Layer Pooling5
I0731 23:36:42.659777  6361 net.cpp:425] Pooling5 <- Convolution5
I0731 23:36:42.659796  6361 net.cpp:399] Pooling5 -> Pooling5
I0731 23:36:42.659818  6361 net.cpp:141] Setting up Pooling5
I0731 23:36:42.659835  6361 net.cpp:148] Top shape: 10 20 30 30 (180000)
I0731 23:36:42.659852  6361 net.cpp:156] Memory required for data: 34855720
I0731 23:36:42.659874  6361 layer_factory.hpp:77] Creating layer Convolution6
I0731 23:36:42.659893  6361 net.cpp:91] Creating Layer Convolution6
I0731 23:36:42.659909  6361 net.cpp:425] Convolution6 <- Pooling5
I0731 23:36:42.659927  6361 net.cpp:399] Convolution6 -> Convolution6
I0731 23:36:42.660151  6361 net.cpp:141] Setting up Convolution6
I0731 23:36:42.660171  6361 net.cpp:148] Top shape: 10 50 26 26 (338000)
I0731 23:36:42.660184  6361 net.cpp:156] Memory required for data: 36207720
I0731 23:36:42.660199  6361 net.cpp:484] Sharing parameters 'conv2_w' owned by layer 'Convolution2', param index 0
I0731 23:36:42.660214  6361 net.cpp:484] Sharing parameters 'conv2_b' owned by layer 'Convolution2', param index 1
I0731 23:36:42.660229  6361 layer_factory.hpp:77] Creating layer Pooling6
I0731 23:36:42.660245  6361 net.cpp:91] Creating Layer Pooling6
I0731 23:36:42.660259  6361 net.cpp:425] Pooling6 <- Convolution6
I0731 23:36:42.660279  6361 net.cpp:399] Pooling6 -> Pooling6
I0731 23:36:42.660298  6361 net.cpp:141] Setting up Pooling6
I0731 23:36:42.660315  6361 net.cpp:148] Top shape: 10 50 13 13 (84500)
I0731 23:36:42.660327  6361 net.cpp:156] Memory required for data: 36545720
I0731 23:36:42.660341  6361 layer_factory.hpp:77] Creating layer InnerProduct7
I0731 23:36:42.660358  6361 net.cpp:91] Creating Layer InnerProduct7
I0731 23:36:42.660373  6361 net.cpp:425] InnerProduct7 <- Pooling6
I0731 23:36:42.660392  6361 net.cpp:399] InnerProduct7 -> InnerProduct7
I0731 23:36:42.667379  6361 net.cpp:141] Setting up InnerProduct7
I0731 23:36:42.667453  6361 net.cpp:148] Top shape: 10 100 (1000)
I0731 23:36:42.667467  6361 net.cpp:156] Memory required for data: 36549720
I0731 23:36:42.667486  6361 net.cpp:484] Sharing parameters 'ip1_w' owned by layer 'InnerProduct1', param index 0
I0731 23:36:42.667502  6361 net.cpp:484] Sharing parameters 'ip1_b' owned by layer 'InnerProduct1', param index 1
I0731 23:36:42.667516  6361 layer_factory.hpp:77] Creating layer ReLU5
I0731 23:36:42.667536  6361 net.cpp:91] Creating Layer ReLU5
I0731 23:36:42.667551  6361 net.cpp:425] ReLU5 <- InnerProduct7
I0731 23:36:42.667567  6361 net.cpp:386] ReLU5 -> InnerProduct7 (in-place)
I0731 23:36:42.667587  6361 net.cpp:141] Setting up ReLU5
I0731 23:36:42.667603  6361 net.cpp:148] Top shape: 10 100 (1000)
I0731 23:36:42.667614  6361 net.cpp:156] Memory required for data: 36553720
I0731 23:36:42.667626  6361 layer_factory.hpp:77] Creating layer InnerProduct8
I0731 23:36:42.667646  6361 net.cpp:91] Creating Layer InnerProduct8
I0731 23:36:42.667660  6361 net.cpp:425] InnerProduct8 <- InnerProduct7
I0731 23:36:42.667680  6361 net.cpp:399] InnerProduct8 -> InnerProduct8
I0731 23:36:42.667821  6361 net.cpp:141] Setting up InnerProduct8
I0731 23:36:42.667847  6361 net.cpp:148] Top shape: 10 50 (500)
I0731 23:36:42.667860  6361 net.cpp:156] Memory required for data: 36555720
I0731 23:36:42.667875  6361 net.cpp:484] Sharing parameters 'ip2_w' owned by layer 'InnerProduct2', param index 0
I0731 23:36:42.667888  6361 net.cpp:484] Sharing parameters 'ip2_b' owned by layer 'InnerProduct2', param index 1
I0731 23:36:42.667901  6361 layer_factory.hpp:77] Creating layer Convolution7
I0731 23:36:42.667923  6361 net.cpp:91] Creating Layer Convolution7
I0731 23:36:42.667938  6361 net.cpp:425] Convolution7 <- c21
I0731 23:36:42.667955  6361 net.cpp:399] Convolution7 -> Convolution7
I0731 23:36:42.668002  6361 net.cpp:141] Setting up Convolution7
I0731 23:36:42.668020  6361 net.cpp:148] Top shape: 10 20 60 60 (720000)
I0731 23:36:42.668190  6361 net.cpp:156] Memory required for data: 39435720
I0731 23:36:42.668226  6361 net.cpp:484] Sharing parameters 'conv1_w' owned by layer 'Convolution1', param index 0
I0731 23:36:42.668241  6361 net.cpp:484] Sharing parameters 'conv1_b' owned by layer 'Convolution1', param index 1
I0731 23:36:42.668256  6361 layer_factory.hpp:77] Creating layer Pooling7
I0731 23:36:42.668272  6361 net.cpp:91] Creating Layer Pooling7
I0731 23:36:42.668285  6361 net.cpp:425] Pooling7 <- Convolution7
I0731 23:36:42.668319  6361 net.cpp:399] Pooling7 -> Pooling7
I0731 23:36:42.668341  6361 net.cpp:141] Setting up Pooling7
I0731 23:36:42.668357  6361 net.cpp:148] Top shape: 10 20 30 30 (180000)
I0731 23:36:42.668368  6361 net.cpp:156] Memory required for data: 40155720
I0731 23:36:42.668380  6361 layer_factory.hpp:77] Creating layer Convolution8
I0731 23:36:42.668401  6361 net.cpp:91] Creating Layer Convolution8
I0731 23:36:42.668416  6361 net.cpp:425] Convolution8 <- Pooling7
I0731 23:36:42.668431  6361 net.cpp:399] Convolution8 -> Convolution8
I0731 23:36:42.668675  6361 net.cpp:141] Setting up Convolution8
I0731 23:36:42.668701  6361 net.cpp:148] Top shape: 10 50 26 26 (338000)
I0731 23:36:42.668714  6361 net.cpp:156] Memory required for data: 41507720
I0731 23:36:42.668731  6361 net.cpp:484] Sharing parameters 'conv2_w' owned by layer 'Convolution2', param index 0
I0731 23:36:42.668746  6361 net.cpp:484] Sharing parameters 'conv2_b' owned by layer 'Convolution2', param index 1
I0731 23:36:42.668761  6361 layer_factory.hpp:77] Creating layer Pooling8
I0731 23:36:42.668777  6361 net.cpp:91] Creating Layer Pooling8
I0731 23:36:42.668792  6361 net.cpp:425] Pooling8 <- Convolution8
I0731 23:36:42.668807  6361 net.cpp:399] Pooling8 -> Pooling8
I0731 23:36:42.668825  6361 net.cpp:141] Setting up Pooling8
I0731 23:36:42.668841  6361 net.cpp:148] Top shape: 10 50 13 13 (84500)
I0731 23:36:42.668854  6361 net.cpp:156] Memory required for data: 41845720
I0731 23:36:42.668866  6361 layer_factory.hpp:77] Creating layer InnerProduct9
I0731 23:36:42.668882  6361 net.cpp:91] Creating Layer InnerProduct9
I0731 23:36:42.668895  6361 net.cpp:425] InnerProduct9 <- Pooling8
I0731 23:36:42.668912  6361 net.cpp:399] InnerProduct9 -> InnerProduct9
I0731 23:36:42.675379  6361 net.cpp:141] Setting up InnerProduct9
I0731 23:36:42.675477  6361 net.cpp:148] Top shape: 10 100 (1000)
I0731 23:36:42.675493  6361 net.cpp:156] Memory required for data: 41849720
I0731 23:36:42.675513  6361 net.cpp:484] Sharing parameters 'ip1_w' owned by layer 'InnerProduct1', param index 0
I0731 23:36:42.675530  6361 net.cpp:484] Sharing parameters 'ip1_b' owned by layer 'InnerProduct1', param index 1
I0731 23:36:42.675545  6361 layer_factory.hpp:77] Creating layer ReLU6
I0731 23:36:42.675565  6361 net.cpp:91] Creating Layer ReLU6
I0731 23:36:42.675582  6361 net.cpp:425] ReLU6 <- InnerProduct9
I0731 23:36:42.675600  6361 net.cpp:386] ReLU6 -> InnerProduct9 (in-place)
I0731 23:36:42.675621  6361 net.cpp:141] Setting up ReLU6
I0731 23:36:42.675638  6361 net.cpp:148] Top shape: 10 100 (1000)
I0731 23:36:42.675652  6361 net.cpp:156] Memory required for data: 41853720
I0731 23:36:42.675665  6361 layer_factory.hpp:77] Creating layer InnerProduct10
I0731 23:36:42.675686  6361 net.cpp:91] Creating Layer InnerProduct10
I0731 23:36:42.675701  6361 net.cpp:425] InnerProduct10 <- InnerProduct9
I0731 23:36:42.675719  6361 net.cpp:399] InnerProduct10 -> InnerProduct10
I0731 23:36:42.675793  6361 net.cpp:141] Setting up InnerProduct10
I0731 23:36:42.675809  6361 net.cpp:148] Top shape: 10 50 (500)
I0731 23:36:42.675822  6361 net.cpp:156] Memory required for data: 41855720
I0731 23:36:42.675834  6361 net.cpp:484] Sharing parameters 'ip2_w' owned by layer 'InnerProduct2', param index 0
I0731 23:36:42.675848  6361 net.cpp:484] Sharing parameters 'ip2_b' owned by layer 'InnerProduct2', param index 1
I0731 23:36:42.675916  6361 layer_factory.hpp:77] Creating layer Concat2
I0731 23:36:42.675935  6361 net.cpp:91] Creating Layer Concat2
I0731 23:36:42.675950  6361 net.cpp:425] Concat2 <- InnerProduct8
I0731 23:36:42.675963  6361 net.cpp:425] Concat2 <- InnerProduct10
I0731 23:36:42.675979  6361 net.cpp:399] Concat2 -> Concat2
I0731 23:36:42.675999  6361 net.cpp:141] Setting up Concat2
I0731 23:36:42.676014  6361 net.cpp:148] Top shape: 10 100 (1000)
I0731 23:36:42.676026  6361 net.cpp:156] Memory required for data: 41859720
I0731 23:36:42.676038  6361 layer_factory.hpp:77] Creating layer InnerProduct11
I0731 23:36:42.676059  6361 net.cpp:91] Creating Layer InnerProduct11
I0731 23:36:42.676081  6361 net.cpp:425] InnerProduct11 <- Concat2
I0731 23:36:42.676106  6361 net.cpp:399] InnerProduct11 -> InnerProduct11
I0731 23:36:42.676175  6361 net.cpp:141] Setting up InnerProduct11
I0731 23:36:42.676192  6361 net.cpp:148] Top shape: 10 64 (640)
I0731 23:36:42.676204  6361 net.cpp:156] Memory required for data: 41862280
I0731 23:36:42.676218  6361 net.cpp:484] Sharing parameters 'fc1_w' owned by layer 'InnerProduct5', param index 0
I0731 23:36:42.676230  6361 net.cpp:484] Sharing parameters 'fc1_b' owned by layer 'InnerProduct5', param index 1
I0731 23:36:42.676244  6361 layer_factory.hpp:77] Creating layer ReLU7
I0731 23:36:42.676257  6361 net.cpp:91] Creating Layer ReLU7
I0731 23:36:42.676270  6361 net.cpp:425] ReLU7 <- InnerProduct11
I0731 23:36:42.676285  6361 net.cpp:386] ReLU7 -> InnerProduct11 (in-place)
I0731 23:36:42.676301  6361 net.cpp:141] Setting up ReLU7
I0731 23:36:42.676316  6361 net.cpp:148] Top shape: 10 64 (640)
I0731 23:36:42.676326  6361 net.cpp:156] Memory required for data: 41864840
I0731 23:36:42.676338  6361 layer_factory.hpp:77] Creating layer InnerProduct12
I0731 23:36:42.676353  6361 net.cpp:91] Creating Layer InnerProduct12
I0731 23:36:42.676367  6361 net.cpp:425] InnerProduct12 <- InnerProduct11
I0731 23:36:42.676383  6361 net.cpp:399] InnerProduct12 -> InnerProduct12
I0731 23:36:42.676453  6361 net.cpp:141] Setting up InnerProduct12
I0731 23:36:42.676473  6361 net.cpp:148] Top shape: 10 32 (320)
I0731 23:36:42.676486  6361 net.cpp:156] Memory required for data: 41866120
I0731 23:36:42.676499  6361 net.cpp:484] Sharing parameters 'fc2_w' owned by layer 'InnerProduct6', param index 0
I0731 23:36:42.676513  6361 net.cpp:484] Sharing parameters 'fc2_b' owned by layer 'InnerProduct6', param index 1
I0731 23:36:42.676527  6361 layer_factory.hpp:77] Creating layer ReLU8
I0731 23:36:42.676540  6361 net.cpp:91] Creating Layer ReLU8
I0731 23:36:42.676554  6361 net.cpp:425] ReLU8 <- InnerProduct12
I0731 23:36:42.676568  6361 net.cpp:386] ReLU8 -> InnerProduct12 (in-place)
I0731 23:36:42.676584  6361 net.cpp:141] Setting up ReLU8
I0731 23:36:42.676599  6361 net.cpp:148] Top shape: 10 32 (320)
I0731 23:36:42.676610  6361 net.cpp:156] Memory required for data: 41867400
I0731 23:36:42.676622  6361 layer_factory.hpp:77] Creating layer dt1
I0731 23:36:42.676638  6361 net.cpp:91] Creating Layer dt1
I0731 23:36:42.676652  6361 net.cpp:425] dt1 <- InnerProduct12
I0731 23:36:42.676667  6361 net.cpp:399] dt1 -> dt1
I0731 23:36:42.676690  6361 net.cpp:141] Setting up dt1
I0731 23:36:42.676707  6361 net.cpp:148] Top shape: 10 2 (20)
I0731 23:36:42.676718  6361 net.cpp:156] Memory required for data: 41867480
I0731 23:36:42.676731  6361 net.cpp:484] Sharing parameters 'fc3_w' owned by layer 'dt', param index 0
I0731 23:36:42.676744  6361 net.cpp:484] Sharing parameters 'fc3_b' owned by layer 'dt', param index 1
I0731 23:36:42.676758  6361 layer_factory.hpp:77] Creating layer Convolution9
I0731 23:36:42.676779  6361 net.cpp:91] Creating Layer Convolution9
I0731 23:36:42.676794  6361 net.cpp:425] Convolution9 <- p2_p2_0_split_1
I0731 23:36:42.676810  6361 net.cpp:399] Convolution9 -> Convolution9
I0731 23:36:42.676856  6361 net.cpp:141] Setting up Convolution9
I0731 23:36:42.676872  6361 net.cpp:148] Top shape: 10 20 60 60 (720000)
I0731 23:36:42.676884  6361 net.cpp:156] Memory required for data: 44747480
I0731 23:36:42.676898  6361 net.cpp:484] Sharing parameters 'conv1_w' owned by layer 'Convolution1', param index 0
I0731 23:36:42.676910  6361 net.cpp:484] Sharing parameters 'conv1_b' owned by layer 'Convolution1', param index 1
I0731 23:36:42.676944  6361 layer_factory.hpp:77] Creating layer Pooling9
I0731 23:36:42.676996  6361 net.cpp:91] Creating Layer Pooling9
I0731 23:36:42.677019  6361 net.cpp:425] Pooling9 <- Convolution9
I0731 23:36:42.677037  6361 net.cpp:399] Pooling9 -> Pooling9
I0731 23:36:42.677057  6361 net.cpp:141] Setting up Pooling9
I0731 23:36:42.677073  6361 net.cpp:148] Top shape: 10 20 30 30 (180000)
I0731 23:36:42.677084  6361 net.cpp:156] Memory required for data: 45467480
I0731 23:36:42.677109  6361 layer_factory.hpp:77] Creating layer Convolution10
I0731 23:36:42.677129  6361 net.cpp:91] Creating Layer Convolution10
I0731 23:36:42.677144  6361 net.cpp:425] Convolution10 <- Pooling9
I0731 23:36:42.677158  6361 net.cpp:399] Convolution10 -> Convolution10
I0731 23:36:42.677369  6361 net.cpp:141] Setting up Convolution10
I0731 23:36:42.677389  6361 net.cpp:148] Top shape: 10 50 26 26 (338000)
I0731 23:36:42.677402  6361 net.cpp:156] Memory required for data: 46819480
I0731 23:36:42.677414  6361 net.cpp:484] Sharing parameters 'conv2_w' owned by layer 'Convolution2', param index 0
I0731 23:36:42.677428  6361 net.cpp:484] Sharing parameters 'conv2_b' owned by layer 'Convolution2', param index 1
I0731 23:36:42.677441  6361 layer_factory.hpp:77] Creating layer Pooling10
I0731 23:36:42.677455  6361 net.cpp:91] Creating Layer Pooling10
I0731 23:36:42.677469  6361 net.cpp:425] Pooling10 <- Convolution10
I0731 23:36:42.677484  6361 net.cpp:399] Pooling10 -> Pooling10
I0731 23:36:42.677502  6361 net.cpp:141] Setting up Pooling10
I0731 23:36:42.677517  6361 net.cpp:148] Top shape: 10 50 13 13 (84500)
I0731 23:36:42.677528  6361 net.cpp:156] Memory required for data: 47157480
I0731 23:36:42.677541  6361 layer_factory.hpp:77] Creating layer InnerProduct13
I0731 23:36:42.677558  6361 net.cpp:91] Creating Layer InnerProduct13
I0731 23:36:42.677572  6361 net.cpp:425] InnerProduct13 <- Pooling10
I0731 23:36:42.677587  6361 net.cpp:399] InnerProduct13 -> InnerProduct13
I0731 23:36:42.685133  6361 net.cpp:141] Setting up InnerProduct13
I0731 23:36:42.685369  6361 net.cpp:148] Top shape: 10 100 (1000)
I0731 23:36:42.685395  6361 net.cpp:156] Memory required for data: 47161480
I0731 23:36:42.685422  6361 net.cpp:484] Sharing parameters 'ip1_w' owned by layer 'InnerProduct1', param index 0
I0731 23:36:42.685447  6361 net.cpp:484] Sharing parameters 'ip1_b' owned by layer 'InnerProduct1', param index 1
I0731 23:36:42.685469  6361 layer_factory.hpp:77] Creating layer ReLU9
I0731 23:36:42.685498  6361 net.cpp:91] Creating Layer ReLU9
I0731 23:36:42.685523  6361 net.cpp:425] ReLU9 <- InnerProduct13
I0731 23:36:42.685554  6361 net.cpp:386] ReLU9 -> InnerProduct13 (in-place)
I0731 23:36:42.685585  6361 net.cpp:141] Setting up ReLU9
I0731 23:36:42.685607  6361 net.cpp:148] Top shape: 10 100 (1000)
I0731 23:36:42.685626  6361 net.cpp:156] Memory required for data: 47165480
I0731 23:36:42.685645  6361 layer_factory.hpp:77] Creating layer InnerProduct14
I0731 23:36:42.685672  6361 net.cpp:91] Creating Layer InnerProduct14
I0731 23:36:42.685693  6361 net.cpp:425] InnerProduct14 <- InnerProduct13
I0731 23:36:42.685720  6361 net.cpp:399] InnerProduct14 -> InnerProduct14
I0731 23:36:42.685822  6361 net.cpp:141] Setting up InnerProduct14
I0731 23:36:42.685849  6361 net.cpp:148] Top shape: 10 50 (500)
I0731 23:36:42.685868  6361 net.cpp:156] Memory required for data: 47167480
I0731 23:36:42.685889  6361 net.cpp:484] Sharing parameters 'ip2_w' owned by layer 'InnerProduct2', param index 0
I0731 23:36:42.685909  6361 net.cpp:484] Sharing parameters 'ip2_b' owned by layer 'InnerProduct2', param index 1
I0731 23:36:42.685930  6361 layer_factory.hpp:77] Creating layer Convolution11
I0731 23:36:42.685959  6361 net.cpp:91] Creating Layer Convolution11
I0731 23:36:42.685981  6361 net.cpp:425] Convolution11 <- c11
I0731 23:36:42.686010  6361 net.cpp:399] Convolution11 -> Convolution11
I0731 23:36:42.686082  6361 net.cpp:141] Setting up Convolution11
I0731 23:36:42.686187  6361 net.cpp:148] Top shape: 10 20 60 60 (720000)
I0731 23:36:42.686214  6361 net.cpp:156] Memory required for data: 50047480
I0731 23:36:42.686244  6361 net.cpp:484] Sharing parameters 'conv1_w' owned by layer 'Convolution1', param index 0
I0731 23:36:42.686267  6361 net.cpp:484] Sharing parameters 'conv1_b' owned by layer 'Convolution1', param index 1
I0731 23:36:42.686288  6361 layer_factory.hpp:77] Creating layer Pooling11
I0731 23:36:42.686318  6361 net.cpp:91] Creating Layer Pooling11
I0731 23:36:42.686341  6361 net.cpp:425] Pooling11 <- Convolution11
I0731 23:36:42.686375  6361 net.cpp:399] Pooling11 -> Pooling11
I0731 23:36:42.686424  6361 net.cpp:141] Setting up Pooling11
I0731 23:36:42.686450  6361 net.cpp:148] Top shape: 10 20 30 30 (180000)
I0731 23:36:42.686468  6361 net.cpp:156] Memory required for data: 50767480
I0731 23:36:42.686488  6361 layer_factory.hpp:77] Creating layer Convolution12
I0731 23:36:42.686517  6361 net.cpp:91] Creating Layer Convolution12
I0731 23:36:42.686537  6361 net.cpp:425] Convolution12 <- Pooling11
I0731 23:36:42.686565  6361 net.cpp:399] Convolution12 -> Convolution12
I0731 23:36:42.686816  6361 net.cpp:141] Setting up Convolution12
I0731 23:36:42.686848  6361 net.cpp:148] Top shape: 10 50 26 26 (338000)
I0731 23:36:42.686862  6361 net.cpp:156] Memory required for data: 52119480
I0731 23:36:42.686878  6361 net.cpp:484] Sharing parameters 'conv2_w' owned by layer 'Convolution2', param index 0
I0731 23:36:42.686894  6361 net.cpp:484] Sharing parameters 'conv2_b' owned by layer 'Convolution2', param index 1
I0731 23:36:42.686911  6361 layer_factory.hpp:77] Creating layer Pooling12
I0731 23:36:42.686929  6361 net.cpp:91] Creating Layer Pooling12
I0731 23:36:42.686946  6361 net.cpp:425] Pooling12 <- Convolution12
I0731 23:36:42.686967  6361 net.cpp:399] Pooling12 -> Pooling12
I0731 23:36:42.686992  6361 net.cpp:141] Setting up Pooling12
I0731 23:36:42.687010  6361 net.cpp:148] Top shape: 10 50 13 13 (84500)
I0731 23:36:42.687023  6361 net.cpp:156] Memory required for data: 52457480
I0731 23:36:42.687036  6361 layer_factory.hpp:77] Creating layer InnerProduct15
I0731 23:36:42.687067  6361 net.cpp:91] Creating Layer InnerProduct15
I0731 23:36:42.687083  6361 net.cpp:425] InnerProduct15 <- Pooling12
I0731 23:36:42.687110  6361 net.cpp:399] InnerProduct15 -> InnerProduct15
I0731 23:36:42.693953  6361 net.cpp:141] Setting up InnerProduct15
I0731 23:36:42.694082  6361 net.cpp:148] Top shape: 10 100 (1000)
I0731 23:36:42.694111  6361 net.cpp:156] Memory required for data: 52461480
I0731 23:36:42.694144  6361 net.cpp:484] Sharing parameters 'ip1_w' owned by layer 'InnerProduct1', param index 0
I0731 23:36:42.694175  6361 net.cpp:484] Sharing parameters 'ip1_b' owned by layer 'InnerProduct1', param index 1
I0731 23:36:42.694203  6361 layer_factory.hpp:77] Creating layer ReLU10
I0731 23:36:42.694248  6361 net.cpp:91] Creating Layer ReLU10
I0731 23:36:42.694278  6361 net.cpp:425] ReLU10 <- InnerProduct15
I0731 23:36:42.694308  6361 net.cpp:386] ReLU10 -> InnerProduct15 (in-place)
I0731 23:36:42.694345  6361 net.cpp:141] Setting up ReLU10
I0731 23:36:42.694372  6361 net.cpp:148] Top shape: 10 100 (1000)
I0731 23:36:42.694396  6361 net.cpp:156] Memory required for data: 52465480
I0731 23:36:42.694419  6361 layer_factory.hpp:77] Creating layer InnerProduct16
I0731 23:36:42.694452  6361 net.cpp:91] Creating Layer InnerProduct16
I0731 23:36:42.694476  6361 net.cpp:425] InnerProduct16 <- InnerProduct15
I0731 23:36:42.694506  6361 net.cpp:399] InnerProduct16 -> InnerProduct16
I0731 23:36:42.694608  6361 net.cpp:141] Setting up InnerProduct16
I0731 23:36:42.694641  6361 net.cpp:148] Top shape: 10 50 (500)
I0731 23:36:42.694664  6361 net.cpp:156] Memory required for data: 52467480
I0731 23:36:42.694689  6361 net.cpp:484] Sharing parameters 'ip2_w' owned by layer 'InnerProduct2', param index 0
I0731 23:36:42.694716  6361 net.cpp:484] Sharing parameters 'ip2_b' owned by layer 'InnerProduct2', param index 1
I0731 23:36:42.694741  6361 layer_factory.hpp:77] Creating layer Concat3
I0731 23:36:42.694771  6361 net.cpp:91] Creating Layer Concat3
I0731 23:36:42.694794  6361 net.cpp:425] Concat3 <- InnerProduct14
I0731 23:36:42.694820  6361 net.cpp:425] Concat3 <- InnerProduct16
I0731 23:36:42.694850  6361 net.cpp:399] Concat3 -> Concat3
I0731 23:36:42.694896  6361 net.cpp:141] Setting up Concat3
I0731 23:36:42.694931  6361 net.cpp:148] Top shape: 10 100 (1000)
I0731 23:36:42.694955  6361 net.cpp:156] Memory required for data: 52471480
I0731 23:36:42.694980  6361 layer_factory.hpp:77] Creating layer InnerProduct17
I0731 23:36:42.695010  6361 net.cpp:91] Creating Layer InnerProduct17
I0731 23:36:42.695063  6361 net.cpp:425] InnerProduct17 <- Concat3
I0731 23:36:42.695093  6361 net.cpp:399] InnerProduct17 -> InnerProduct17
I0731 23:36:42.695207  6361 net.cpp:141] Setting up InnerProduct17
I0731 23:36:42.695240  6361 net.cpp:148] Top shape: 10 64 (640)
I0731 23:36:42.695263  6361 net.cpp:156] Memory required for data: 52474040
I0731 23:36:42.695289  6361 net.cpp:484] Sharing parameters 'fc1_w' owned by layer 'InnerProduct5', param index 0
I0731 23:36:42.695310  6361 net.cpp:484] Sharing parameters 'fc1_b' owned by layer 'InnerProduct5', param index 1
I0731 23:36:42.695317  6361 layer_factory.hpp:77] Creating layer ReLU11
I0731 23:36:42.695327  6361 net.cpp:91] Creating Layer ReLU11
I0731 23:36:42.695333  6361 net.cpp:425] ReLU11 <- InnerProduct17
I0731 23:36:42.695340  6361 net.cpp:386] ReLU11 -> InnerProduct17 (in-place)
I0731 23:36:42.695349  6361 net.cpp:141] Setting up ReLU11
I0731 23:36:42.695356  6361 net.cpp:148] Top shape: 10 64 (640)
I0731 23:36:42.695361  6361 net.cpp:156] Memory required for data: 52476600
I0731 23:36:42.695366  6361 layer_factory.hpp:77] Creating layer InnerProduct18
I0731 23:36:42.695375  6361 net.cpp:91] Creating Layer InnerProduct18
I0731 23:36:42.695380  6361 net.cpp:425] InnerProduct18 <- InnerProduct17
I0731 23:36:42.695391  6361 net.cpp:399] InnerProduct18 -> InnerProduct18
I0731 23:36:42.695432  6361 net.cpp:141] Setting up InnerProduct18
I0731 23:36:42.695441  6361 net.cpp:148] Top shape: 10 32 (320)
I0731 23:36:42.695446  6361 net.cpp:156] Memory required for data: 52477880
I0731 23:36:42.695451  6361 net.cpp:484] Sharing parameters 'fc2_w' owned by layer 'InnerProduct6', param index 0
I0731 23:36:42.695457  6361 net.cpp:484] Sharing parameters 'fc2_b' owned by layer 'InnerProduct6', param index 1
I0731 23:36:42.695462  6361 layer_factory.hpp:77] Creating layer ReLU12
I0731 23:36:42.695469  6361 net.cpp:91] Creating Layer ReLU12
I0731 23:36:42.695474  6361 net.cpp:425] ReLU12 <- InnerProduct18
I0731 23:36:42.695480  6361 net.cpp:386] ReLU12 -> InnerProduct18 (in-place)
I0731 23:36:42.695487  6361 net.cpp:141] Setting up ReLU12
I0731 23:36:42.695493  6361 net.cpp:148] Top shape: 10 32 (320)
I0731 23:36:42.695498  6361 net.cpp:156] Memory required for data: 52479160
I0731 23:36:42.695503  6361 layer_factory.hpp:77] Creating layer dt2
I0731 23:36:42.695514  6361 net.cpp:91] Creating Layer dt2
I0731 23:36:42.695520  6361 net.cpp:425] dt2 <- InnerProduct18
I0731 23:36:42.695530  6361 net.cpp:399] dt2 -> dt2
I0731 23:36:42.695545  6361 net.cpp:141] Setting up dt2
I0731 23:36:42.695552  6361 net.cpp:148] Top shape: 10 2 (20)
I0731 23:36:42.695556  6361 net.cpp:156] Memory required for data: 52479240
I0731 23:36:42.695580  6361 net.cpp:484] Sharing parameters 'fc3_w' owned by layer 'dt', param index 0
I0731 23:36:42.695587  6361 net.cpp:484] Sharing parameters 'fc3_b' owned by layer 'dt', param index 1
I0731 23:36:42.695593  6361 layer_factory.hpp:77] Creating layer con
I0731 23:36:42.695601  6361 net.cpp:91] Creating Layer con
I0731 23:36:42.695606  6361 net.cpp:425] con <- dt
I0731 23:36:42.695612  6361 net.cpp:425] con <- dt1
I0731 23:36:42.695619  6361 net.cpp:425] con <- dt2
I0731 23:36:42.695626  6361 net.cpp:399] con -> con
I0731 23:36:42.695636  6361 net.cpp:141] Setting up con
I0731 23:36:42.695643  6361 net.cpp:148] Top shape: 10 6 (60)
I0731 23:36:42.695647  6361 net.cpp:156] Memory required for data: 52479480
I0731 23:36:42.695652  6361 layer_factory.hpp:77] Creating layer r1
I0731 23:36:42.695663  6361 net.cpp:91] Creating Layer r1
I0731 23:36:42.695668  6361 net.cpp:425] r1 <- con
I0731 23:36:42.695679  6361 net.cpp:399] r1 -> r1
I0731 23:36:42.695703  6361 net.cpp:141] Setting up r1
I0731 23:36:42.695709  6361 net.cpp:148] Top shape: 10 1 2 3 (60)
I0731 23:36:42.695714  6361 net.cpp:156] Memory required for data: 52479720
I0731 23:36:42.695719  6361 layer_factory.hpp:77] Creating layer p
I0731 23:36:42.695730  6361 net.cpp:91] Creating Layer p
I0731 23:36:42.695736  6361 net.cpp:425] p <- r1
I0731 23:36:42.695744  6361 net.cpp:399] p -> p
I0731 23:36:42.695756  6361 net.cpp:141] Setting up p
I0731 23:36:42.695786  6361 net.cpp:148] Top shape: 10 1 2 1 (20)
I0731 23:36:42.695791  6361 net.cpp:156] Memory required for data: 52479800
I0731 23:36:42.695796  6361 layer_factory.hpp:77] Creating layer r2
I0731 23:36:42.695804  6361 net.cpp:91] Creating Layer r2
I0731 23:36:42.695809  6361 net.cpp:425] r2 <- p
I0731 23:36:42.695823  6361 net.cpp:399] r2 -> r2
I0731 23:36:42.695833  6361 net.cpp:141] Setting up r2
I0731 23:36:42.695840  6361 net.cpp:148] Top shape: 10 2 1 1 (20)
I0731 23:36:42.695847  6361 net.cpp:156] Memory required for data: 52479880
I0731 23:36:42.695852  6361 layer_factory.hpp:77] Creating layer r2_r2_0_split
I0731 23:36:42.695859  6361 net.cpp:91] Creating Layer r2_r2_0_split
I0731 23:36:42.695864  6361 net.cpp:425] r2_r2_0_split <- r2
I0731 23:36:42.695871  6361 net.cpp:399] r2_r2_0_split -> r2_r2_0_split_0
I0731 23:36:42.696022  6361 net.cpp:399] r2_r2_0_split -> r2_r2_0_split_1
I0731 23:36:42.696041  6361 net.cpp:141] Setting up r2_r2_0_split
I0731 23:36:42.696050  6361 net.cpp:148] Top shape: 10 2 1 1 (20)
I0731 23:36:42.696056  6361 net.cpp:148] Top shape: 10 2 1 1 (20)
I0731 23:36:42.696061  6361 net.cpp:156] Memory required for data: 52480040
I0731 23:36:42.696066  6361 layer_factory.hpp:77] Creating layer accuracy
I0731 23:36:42.696089  6361 net.cpp:91] Creating Layer accuracy
I0731 23:36:42.696094  6361 net.cpp:425] accuracy <- r2_r2_0_split_0
I0731 23:36:42.696107  6361 net.cpp:425] accuracy <- label_data_1_split_0
I0731 23:36:42.696117  6361 net.cpp:399] accuracy -> accuracy
…
