…
I0711 14:01:28.443598  5319 solver.cpp:91] Creating training net from net file: examples/siamese/mnist_siamese_train_test.prototxt
I0711 14:01:28.444102  5319 net.cpp:313] The NetState phase (0) differed from the phase (1) specified by a rule in layer pair_data
I0711 14:01:28.444252  5319 net.cpp:49] Initializing net from parameters: 
name: "mnist_siamese_train_test"
state {
  phase: TRAIN
}
layer {
  name: "pair_data"
  type: "Data"
  top: "pair_data"
  top: "sim"
  include {
    phase: TRAIN
  }
  transform_param {
    scale: 0.00390625
  }
  data_param {
    source: "examples/siamese/mnist_siamese_train_leveldb_0to8"
    batch_size: 64
  }
}
layer {
  name: "slice_pair"
  type: "Slice"
  bottom: "pair_data"
  top: "data"
  top: "data_p"
  slice_param {
    slice_dim: 1
    slice_point: 1
  }
}
layer {
  name: "conv1"
  type: "Convolution"
  bottom: "data"
  top: "conv1"
  param {
    name: "conv1_w"
    lr_mult: 1
  }
  param {
    name: "conv1_b"
    lr_mult: 2
  }
  convolution_param {
    num_output: 20
    kernel_size: 5
    stride: 1
    weight_filler {
      type: "xavier"
    }
    bias_filler {
      type: "constant"
    }
  }
}
layer {
  name: "pool1"
  type: "Pooling"
  bottom: "conv1"
  top: "pool1"
  pooling_param {
    pool: MAX
    kernel_size: 2
    stride: 2
  }
}
layer {
  name: "conv2"
  type: "Convolution"
  bottom: "pool1"
  top: "conv2"
  param {
    name: "conv2_w"
    lr_mult: 1
  }
  param {
    name: "conv2_b"
    lr_mult: 2
  }
  convolution_param {
    num_output: 50
    kernel_size: 5
    stride: 1
    weight_filler {
      type: "xavier"
    }
    bias_filler {
      type: "constant"
    }
  }
}
layer {
  name: "pool2"
  type: "Pooling"
  bottom: "conv2"
  top: "pool2"
  pooling_param {
    pool: MAX
    kernel_size: 2
    stride: 2
  }
}
layer {
  name: "ip1"
  type: "InnerProduct"
  bottom: "pool2"
  top: "ip1"
  param {
    name: "ip1_w"
    lr_mult: 1
  }
  param {
    name: "ip1_b"
    lr_mult: 2
  }
  inner_product_param {
    num_output: 500
    weight_filler {
      type: "xavier"
    }
    bias_filler {
      type: "constant"
    }
  }
}
layer {
  name: "relu1"
  type: "ReLU"
  bottom: "ip1"
  top: "ip1"
}
layer {
  name: "ip2"
  type: "InnerProduct"
  bottom: "ip1"
  top: "ip2"
  param {
    name: "ip2_w"
    lr_mult: 1
  }
  param {
    name: "ip2_b"
    lr_mult: 2
  }
  inner_product_param {
    num_output: 10
    weight_filler {
      type: "xavier"
    }
    bias_filler {
      type: "constant"
    }
  }
}
layer {
  name: "feat"
  type: "InnerProduct"
  bottom: "ip2"
  top: "feat"
  param {
    name: "feat_w"
    lr_mult: 1
  }
  param {
    name: "feat_b"
    lr_mult: 2
  }
  inner_product_param {
    num_output: 2
    weight_filler {
      type: "xavier"
    }
    bias_filler {
      type: "constant"
    }
  }
}
layer {
  name: "conv1_p"
  type: "Convolution"
  bottom: "data_p"
  top: "conv1_p"
  param {
    name: "conv1_w"
    lr_mult: 1
  }
  param {
    name: "conv1_b"
    lr_mult: 2
  }
  convolution_param {
    num_output: 20
    kernel_size: 5
    stride: 1
    weight_filler {
      type: "xavier"
    }
    bias_filler {
      type: "constant"
    }
  }
}
layer {
  name: "pool1_p"
  type: "Pooling"
  bottom: "conv1_p"
  top: "pool1_p"
  pooling_param {
    pool: MAX
    kernel_size: 2
    stride: 2
  }
}
layer {
  name: "conv2_p"
  type: "Convolution"
  bottom: "pool1_p"
  top: "conv2_p"
  param {
    name: "conv2_w"
    lr_mult: 1
  }
  param {
    name: "conv2_b"
    lr_mult: 2
  }
  convolution_param {
    num_output: 50
    kernel_size: 5
    stride: 1
    weight_filler {
      type: "xavier"
    }
    bias_filler {
      type: "constant"
    }
  }
}
layer {
  name: "pool2_p"
  type: "Pooling"
  bottom: "conv2_p"
  top: "pool2_p"
  pooling_param {
    pool: MAX
    kernel_size: 2
    stride: 2
  }
}
layer {
  name: "ip1_p"
  type: "InnerProduct"
  bottom: "pool2_p"
  top: "ip1_p"
  param {
    name: "ip1_w"
    lr_mult: 1
  }
  param {
    name: "ip1_b"
    lr_mult: 2
  }
  inner_product_param {
    num_output: 500
    weight_filler {
      type: "xavier"
    }
    bias_filler {
      type: "constant"
    }
  }
}
layer {
  name: "relu1_p"
  type: "ReLU"
  bottom: "ip1_p"
  top: "ip1_p"
}
layer {
  name: "ip2_p"
  type: "InnerProduct"
  bottom: "ip1_p"
  top: "ip2_p"
  param {
    name: "ip2_w"
    lr_mult: 1
  }
  param {
    name: "ip2_b"
    lr_mult: 2
  }
  inner_product_param {
    num_output: 10
    weight_filler {
      type: "xavier"
    }
    bias_filler {
      type: "constant"
    }
  }
}
layer {
  name: "feat_p"
  type: "InnerProduct"
  bottom: "ip2_p"
  top: "feat_p"
  param {
    name: "feat_w"
    lr_mult: 1
  }
  param {
    name: "feat_b"
    lr_mult: 2
  }
  inner_product_param {
    num_output: 2
    weight_filler {
      type: "xavier"
    }
    bias_filler {
      type: "constant"
    }
  }
}
layer {
  name: "loss"
  type: "ContrastiveLoss"
  bottom: "feat"
  bottom: "feat_p"
  bottom: "sim"
  top: "loss"
  contrastive_loss_param {
    margin: 1
  }
}
I0711 14:01:28.444409  5319 layer_factory.hpp:77] Creating layer pair_data
I0711 14:01:28.444958  5319 net.cpp:91] Creating Layer pair_data
I0711 14:01:28.444979  5319 net.cpp:399] pair_data -> pair_data
I0711 14:01:28.445005  5319 net.cpp:399] pair_data -> sim
I0711 14:01:28.511580  5323 db_leveldb.cpp:18] Opened leveldb examples/siamese/mnist_siamese_train_leveldb_0to8
I0711 14:01:28.511863  5319 data_layer.cpp:41] output data size: 64,2,28,28
I0711 14:01:28.512239  5319 net.cpp:141] Setting up pair_data
I0711 14:01:28.512269  5319 net.cpp:148] Top shape: 64 2 28 28 (100352)
I0711 14:01:28.512275  5319 net.cpp:148] Top shape: 64 (64)
I0711 14:01:28.512279  5319 net.cpp:156] Memory required for data: 401664
I0711 14:01:28.512287  5319 layer_factory.hpp:77] Creating layer slice_pair
I0711 14:01:28.512302  5319 net.cpp:91] Creating Layer slice_pair
I0711 14:01:28.512307  5319 net.cpp:425] slice_pair <- pair_data
I0711 14:01:28.512316  5319 net.cpp:399] slice_pair -> data
I0711 14:01:28.512326  5319 net.cpp:399] slice_pair -> data_p
I0711 14:01:28.512334  5319 net.cpp:141] Setting up slice_pair
I0711 14:01:28.512338  5319 net.cpp:148] Top shape: 64 1 28 28 (50176)
I0711 14:01:28.512342  5319 net.cpp:148] Top shape: 64 1 28 28 (50176)
I0711 14:01:28.512344  5319 net.cpp:156] Memory required for data: 803072
I0711 14:01:28.512347  5319 layer_factory.hpp:77] Creating layer conv1
I0711 14:01:28.512362  5319 net.cpp:91] Creating Layer conv1
I0711 14:01:28.512364  5319 net.cpp:425] conv1 <- data
I0711 14:01:28.512368  5319 net.cpp:399] conv1 -> conv1
I0711 14:01:28.512413  5319 net.cpp:141] Setting up conv1
I0711 14:01:28.512418  5319 net.cpp:148] Top shape: 64 20 24 24 (737280)
I0711 14:01:28.512419  5319 net.cpp:156] Memory required for data: 3752192
I0711 14:01:28.512428  5319 layer_factory.hpp:77] Creating layer pool1
I0711 14:01:28.512434  5319 net.cpp:91] Creating Layer pool1
I0711 14:01:28.512436  5319 net.cpp:425] pool1 <- conv1
I0711 14:01:28.512440  5319 net.cpp:399] pool1 -> pool1
I0711 14:01:28.512459  5319 net.cpp:141] Setting up pool1
I0711 14:01:28.512462  5319 net.cpp:148] Top shape: 64 20 12 12 (184320)
I0711 14:01:28.512465  5319 net.cpp:156] Memory required for data: 4489472
I0711 14:01:28.512467  5319 layer_factory.hpp:77] Creating layer conv2
I0711 14:01:28.512476  5319 net.cpp:91] Creating Layer conv2
I0711 14:01:28.512480  5319 net.cpp:425] conv2 <- pool1
I0711 14:01:28.512485  5319 net.cpp:399] conv2 -> conv2
I0711 14:01:28.512902  5319 net.cpp:141] Setting up conv2
I0711 14:01:28.512922  5319 net.cpp:148] Top shape: 64 50 8 8 (204800)
I0711 14:01:28.512926  5319 net.cpp:156] Memory required for data: 5308672
I0711 14:01:28.512938  5319 layer_factory.hpp:77] Creating layer pool2
I0711 14:01:28.512966  5319 net.cpp:91] Creating Layer pool2
I0711 14:01:28.513000  5319 net.cpp:425] pool2 <- conv2
I0711 14:01:28.513012  5319 net.cpp:399] pool2 -> pool2
I0711 14:01:28.513025  5319 net.cpp:141] Setting up pool2
I0711 14:01:28.513031  5319 net.cpp:148] Top shape: 64 50 4 4 (51200)
I0711 14:01:28.513034  5319 net.cpp:156] Memory required for data: 5513472
I0711 14:01:28.513038  5319 layer_factory.hpp:77] Creating layer ip1
I0711 14:01:28.513053  5319 net.cpp:91] Creating Layer ip1
I0711 14:01:28.513058  5319 net.cpp:425] ip1 <- pool2
I0711 14:01:28.513067  5319 net.cpp:399] ip1 -> ip1
I0711 14:01:28.517791  5319 net.cpp:141] Setting up ip1
I0711 14:01:28.517868  5319 net.cpp:148] Top shape: 64 500 (32000)
I0711 14:01:28.517877  5319 net.cpp:156] Memory required for data: 5641472
I0711 14:01:28.517897  5319 layer_factory.hpp:77] Creating layer relu1
I0711 14:01:28.517913  5319 net.cpp:91] Creating Layer relu1
I0711 14:01:28.517920  5319 net.cpp:425] relu1 <- ip1
I0711 14:01:28.517930  5319 net.cpp:386] relu1 -> ip1 (in-place)
I0711 14:01:28.517946  5319 net.cpp:141] Setting up relu1
I0711 14:01:28.517953  5319 net.cpp:148] Top shape: 64 500 (32000)
I0711 14:01:28.517957  5319 net.cpp:156] Memory required for data: 5769472
I0711 14:01:28.517962  5319 layer_factory.hpp:77] Creating layer ip2
I0711 14:01:28.517976  5319 net.cpp:91] Creating Layer ip2
I0711 14:01:28.517979  5319 net.cpp:425] ip2 <- ip1
I0711 14:01:28.517988  5319 net.cpp:399] ip2 -> ip2
I0711 14:01:28.518061  5319 net.cpp:141] Setting up ip2
I0711 14:01:28.518069  5319 net.cpp:148] Top shape: 64 10 (640)
I0711 14:01:28.518072  5319 net.cpp:156] Memory required for data: 5772032
I0711 14:01:28.518079  5319 layer_factory.hpp:77] Creating layer feat
I0711 14:01:28.518087  5319 net.cpp:91] Creating Layer feat
I0711 14:01:28.518091  5319 net.cpp:425] feat <- ip2
I0711 14:01:28.518100  5319 net.cpp:399] feat -> feat
I0711 14:01:28.518113  5319 net.cpp:141] Setting up feat
I0711 14:01:28.518120  5319 net.cpp:148] Top shape: 64 2 (128)
I0711 14:01:28.518123  5319 net.cpp:156] Memory required for data: 5772544
I0711 14:01:28.518131  5319 layer_factory.hpp:77] Creating layer conv1_p
I0711 14:01:28.518149  5319 net.cpp:91] Creating Layer conv1_p
I0711 14:01:28.518154  5319 net.cpp:425] conv1_p <- data_p
I0711 14:01:28.518162  5319 net.cpp:399] conv1_p -> conv1_p
I0711 14:01:28.518198  5319 net.cpp:141] Setting up conv1_p
I0711 14:01:28.518204  5319 net.cpp:148] Top shape: 64 20 24 24 (737280)
I0711 14:01:28.518208  5319 net.cpp:156] Memory required for data: 8721664
I0711 14:01:28.518213  5319 net.cpp:484] Sharing parameters 'conv1_w' owned by layer 'conv1', param index 0
I0711 14:01:28.518219  5319 net.cpp:484] Sharing parameters 'conv1_b' owned by layer 'conv1', param index 1
I0711 14:01:28.518224  5319 layer_factory.hpp:77] Creating layer pool1_p
I0711 14:01:28.518234  5319 net.cpp:91] Creating Layer pool1_p
I0711 14:01:28.518239  5319 net.cpp:425] pool1_p <- conv1_p
I0711 14:01:28.518245  5319 net.cpp:399] pool1_p -> pool1_p
I0711 14:01:28.518256  5319 net.cpp:141] Setting up pool1_p
I0711 14:01:28.518263  5319 net.cpp:148] Top shape: 64 20 12 12 (184320)
I0711 14:01:28.518267  5319 net.cpp:156] Memory required for data: 9458944
I0711 14:01:28.518271  5319 layer_factory.hpp:77] Creating layer conv2_p
I0711 14:01:28.518283  5319 net.cpp:91] Creating Layer conv2_p
I0711 14:01:28.518288  5319 net.cpp:425] conv2_p <- pool1_p
I0711 14:01:28.518296  5319 net.cpp:399] conv2_p -> conv2_p
I0711 14:01:28.518590  5319 net.cpp:141] Setting up conv2_p
I0711 14:01:28.518599  5319 net.cpp:148] Top shape: 64 50 8 8 (204800)
I0711 14:01:28.518604  5319 net.cpp:156] Memory required for data: 10278144
I0711 14:01:28.518609  5319 net.cpp:484] Sharing parameters 'conv2_w' owned by layer 'conv2', param index 0
I0711 14:01:28.518613  5319 net.cpp:484] Sharing parameters 'conv2_b' owned by layer 'conv2', param index 1
I0711 14:01:28.518618  5319 layer_factory.hpp:77] Creating layer pool2_p
I0711 14:01:28.518627  5319 net.cpp:91] Creating Layer pool2_p
I0711 14:01:28.518631  5319 net.cpp:425] pool2_p <- conv2_p
I0711 14:01:28.518638  5319 net.cpp:399] pool2_p -> pool2_p
I0711 14:01:28.518682  5319 net.cpp:141] Setting up pool2_p
I0711 14:01:28.518690  5319 net.cpp:148] Top shape: 64 50 4 4 (51200)
I0711 14:01:28.518694  5319 net.cpp:156] Memory required for data: 10482944
I0711 14:01:28.518698  5319 layer_factory.hpp:77] Creating layer ip1_p
I0711 14:01:28.518707  5319 net.cpp:91] Creating Layer ip1_p
I0711 14:01:28.518712  5319 net.cpp:425] ip1_p <- pool2_p
I0711 14:01:28.518720  5319 net.cpp:399] ip1_p -> ip1_p
I0711 14:01:28.524271  5319 net.cpp:141] Setting up ip1_p
I0711 14:01:28.524369  5319 net.cpp:148] Top shape: 64 500 (32000)
I0711 14:01:28.524377  5319 net.cpp:156] Memory required for data: 10610944
I0711 14:01:28.524389  5319 net.cpp:484] Sharing parameters 'ip1_w' owned by layer 'ip1', param index 0
I0711 14:01:28.524397  5319 net.cpp:484] Sharing parameters 'ip1_b' owned by layer 'ip1', param index 1
I0711 14:01:28.524404  5319 layer_factory.hpp:77] Creating layer relu1_p
I0711 14:01:28.524466  5319 net.cpp:91] Creating Layer relu1_p
I0711 14:01:28.524478  5319 net.cpp:425] relu1_p <- ip1_p
I0711 14:01:28.524488  5319 net.cpp:386] relu1_p -> ip1_p (in-place)
I0711 14:01:28.524502  5319 net.cpp:141] Setting up relu1_p
I0711 14:01:28.524509  5319 net.cpp:148] Top shape: 64 500 (32000)
I0711 14:01:28.524514  5319 net.cpp:156] Memory required for data: 10738944
I0711 14:01:28.524518  5319 layer_factory.hpp:77] Creating layer ip2_p
I0711 14:01:28.524540  5319 net.cpp:91] Creating Layer ip2_p
I0711 14:01:28.524545  5319 net.cpp:425] ip2_p <- ip1_p
I0711 14:01:28.524554  5319 net.cpp:399] ip2_p -> ip2_p
I0711 14:01:28.524633  5319 net.cpp:141] Setting up ip2_p
I0711 14:01:28.524641  5319 net.cpp:148] Top shape: 64 10 (640)
I0711 14:01:28.524644  5319 net.cpp:156] Memory required for data: 10741504
I0711 14:01:28.524653  5319 net.cpp:484] Sharing parameters 'ip2_w' owned by layer 'ip2', param index 0
I0711 14:01:28.524658  5319 net.cpp:484] Sharing parameters 'ip2_b' owned by layer 'ip2', param index 1
I0711 14:01:28.524662  5319 layer_factory.hpp:77] Creating layer feat_p
I0711 14:01:28.524672  5319 net.cpp:91] Creating Layer feat_p
I0711 14:01:28.524677  5319 net.cpp:425] feat_p <- ip2_p
I0711 14:01:28.524683  5319 net.cpp:399] feat_p -> feat_p
I0711 14:01:28.524698  5319 net.cpp:141] Setting up feat_p
I0711 14:01:28.524703  5319 net.cpp:148] Top shape: 64 2 (128)
I0711 14:01:28.524706  5319 net.cpp:156] Memory required for data: 10742016
I0711 14:01:28.524710  5319 net.cpp:484] Sharing parameters 'feat_w' owned by layer 'feat', param index 0
I0711 14:01:28.524714  5319 net.cpp:484] Sharing parameters 'feat_b' owned by layer 'feat', param index 1
I0711 14:01:28.524718  5319 layer_factory.hpp:77] Creating layer loss
I0711 14:01:28.524742  5319 net.cpp:91] Creating Layer loss
…
I0711 14:01:28.531571  5319 solver.cpp:181] Creating test net (#0) specified by net file: examples/siamese/mnist_siamese_train_test.prototxt
I0711 14:01:28.531805  5319 net.cpp:313] The NetState phase (1) differed from the phase (0) specified by a rule in layer pair_data
I0711 14:01:28.532024  5319 net.cpp:49] Initializing net from parameters: 
name: "mnist_siamese_train_test"
state {
  phase: TEST
}
layer {
  name: "pair_data"
  type: "Data"
  top: "pair_data"
  top: "sim"
  include {
    phase: TEST
  }
  transform_param {
    scale: 0.00390625
  }
  data_param {
    source: "examples/siamese/mnist_siamese_test_leveldb_0to8"
    batch_size: 100
  }
}
layer {
  name: "slice_pair"
  type: "Slice"
  bottom: "pair_data"
  top: "data"
  top: "data_p"
  slice_param {
    slice_dim: 1
    slice_point: 1
  }
}
layer {
  name: "conv1"
  type: "Convolution"
  bottom: "data"
  top: "conv1"
  param {
    name: "conv1_w"
    lr_mult: 1
  }
  param {
    name: "conv1_b"
    lr_mult: 2
  }
  convolution_param {
    num_output: 20
    kernel_size: 5
    stride: 1
    weight_filler {
      type: "xavier"
    }
    bias_filler {
      type: "constant"
    }
  }
}
layer {
  name: "pool1"
  type: "Pooling"
  bottom: "conv1"
  top: "pool1"
  pooling_param {
    pool: MAX
    kernel_size: 2
    stride: 2
  }
}
layer {
  name: "conv2"
  type: "Convolution"
  bottom: "pool1"
  top: "conv2"
  param {
    name: "conv2_w"
    lr_mult: 1
  }
  param {
    name: "conv2_b"
    lr_mult: 2
  }
  convolution_param {
    num_output: 50
    kernel_size: 5
    stride: 1
    weight_filler {
      type: "xavier"
    }
    bias_filler {
      type: "constant"
    }
  }
}
layer {
  name: "pool2"
  type: "Pooling"
  bottom: "conv2"
  top: "pool2"
  pooling_param {
    pool: MAX
    kernel_size: 2
    stride: 2
  }
}
layer {
  name: "ip1"
  type: "InnerProduct"
  bottom: "pool2"
  top: "ip1"
  param {
    name: "ip1_w"
    lr_mult: 1
  }
  param {
    name: "ip1_b"
    lr_mult: 2
  }
  inner_product_param {
    num_output: 500
    weight_filler {
      type: "xavier"
    }
    bias_filler {
      type: "constant"
    }
  }
}
layer {
  name: "relu1"
  type: "ReLU"
  bottom: "ip1"
  top: "ip1"
}
layer {
  name: "ip2"
  type: "InnerProduct"
  bottom: "ip1"
  top: "ip2"
  param {
    name: "ip2_w"
    lr_mult: 1
  }
  param {
    name: "ip2_b"
    lr_mult: 2
  }
  inner_product_param {
    num_output: 10
    weight_filler {
      type: "xavier"
    }
    bias_filler {
      type: "constant"
    }
  }
}
layer {
  name: "feat"
  type: "InnerProduct"
  bottom: "ip2"
  top: "feat"
  param {
    name: "feat_w"
    lr_mult: 1
  }
  param {
    name: "feat_b"
    lr_mult: 2
  }
  inner_product_param {
    num_output: 2
    weight_filler {
      type: "xavier"
    }
    bias_filler {
      type: "constant"
    }
  }
}
layer {
  name: "conv1_p"
  type: "Convolution"
  bottom: "data_p"
  top: "conv1_p"
  param {
    name: "conv1_w"
    lr_mult: 1
  }
  param {
    name: "conv1_b"
    lr_mult: 2
  }
  convolution_param {
    num_output: 20
    kernel_size: 5
    stride: 1
    weight_filler {
      type: "xavier"
    }
    bias_filler {
      type: "constant"
    }
  }
}
layer {
  name: "pool1_p"
  type: "Pooling"
  bottom: "conv1_p"
  top: "pool1_p"
  pooling_param {
    pool: MAX
    kernel_size: 2
    stride: 2
  }
}
layer {
  name: "conv2_p"
  type: "Convolution"
  bottom: "pool1_p"
  top: "conv2_p"
  param {
    name: "conv2_w"
    lr_mult: 1
  }
  param {
    name: "conv2_b"
    lr_mult: 2
  }
  convolution_param {
    num_output: 50
    kernel_size: 5
    stride: 1
    weight_filler {
      type: "xavier"
    }
    bias_filler {
      type: "constant"
    }
  }
}
layer {
  name: "pool2_p"
  type: "Pooling"
  bottom: "conv2_p"
  top: "pool2_p"
  pooling_param {
    pool: MAX
    kernel_size: 2
    stride: 2
  }
}
layer {
  name: "ip1_p"
  type: "InnerProduct"
  bottom: "pool2_p"
  top: "ip1_p"
  param {
    name: "ip1_w"
    lr_mult: 1
  }
  param {
    name: "ip1_b"
    lr_mult: 2
  }
  inner_product_param {
    num_output: 500
    weight_filler {
      type: "xavier"
    }
    bias_filler {
      type: "constant"
    }
  }
}
layer {
  name: "relu1_p"
  type: "ReLU"
  bottom: "ip1_p"
  top: "ip1_p"
}
layer {
  name: "ip2_p"
  type: "InnerProduct"
  bottom: "ip1_p"
  top: "ip2_p"
  param {
    name: "ip2_w"
    lr_mult: 1
  }
  param {
    name: "ip2_b"
    lr_mult: 2
  }
  inner_product_param {
    num_output: 10
    weight_filler {
      type: "xavier"
    }
    bias_filler {
      type: "constant"
    }
  }
}
layer {
  name: "feat_p"
  type: "InnerProduct"
  bottom: "ip2_p"
  top: "feat_p"
  param {
    name: "feat_w"
    lr_mult: 1
  }
  param {
    name: "feat_b"
    lr_mult: 2
  }
  inner_product_param {
    num_output: 2
    weight_filler {
      type: "xavier"
    }
    bias_filler {
      type: "constant"
    }
  }
}
layer {
  name: "loss"
  type: "ContrastiveLoss"
  bottom: "feat"
  bottom: "feat_p"
  bottom: "sim"
  top: "loss"
  contrastive_loss_param {
    margin: 1
  }
}
I0711 14:01:28.532148  5319 layer_factory.hpp:77] Creating layer pair_data
I0711 14:01:28.532263  5319 net.cpp:91] Creating Layer pair_data
I0711 14:01:28.532271  5319 net.cpp:399] pair_data -> pair_data
I0711 14:01:28.532284  5319 net.cpp:399] pair_data -> sim
I0711 14:01:28.591189  5325 db_leveldb.cpp:18] Opened leveldb examples/siamese/mnist_siamese_test_leveldb_0to8
I0711 14:01:28.591487  5319 data_layer.cpp:41] output data size: 100,2,28,28
I0711 14:01:28.592396  5319 net.cpp:141] Setting up pair_data
I0711 14:01:28.592447  5319 net.cpp:148] Top shape: 100 2 28 28 (156800)
I0711 14:01:28.592458  5319 net.cpp:148] Top shape: 100 (100)
I0711 14:01:28.592463  5319 net.cpp:156] Memory required for data: 627600
I0711 14:01:28.592473  5319 layer_factory.hpp:77] Creating layer slice_pair
I0711 14:01:28.592489  5319 net.cpp:91] Creating Layer slice_pair
I0711 14:01:28.592506  5319 net.cpp:425] slice_pair <- pair_data
I0711 14:01:28.592514  5319 net.cpp:399] slice_pair -> data
I0711 14:01:28.592524  5319 net.cpp:399] slice_pair -> data_p
I0711 14:01:28.592533  5319 net.cpp:141] Setting up slice_pair
I0711 14:01:28.592540  5319 net.cpp:148] Top shape: 100 1 28 28 (78400)
I0711 14:01:28.592555  5319 net.cpp:148] Top shape: 100 1 28 28 (78400)
I0711 14:01:28.592558  5319 net.cpp:156] Memory required for data: 1254800
I0711 14:01:28.592561  5319 layer_factory.hpp:77] Creating layer conv1
I0711 14:01:28.592573  5319 net.cpp:91] Creating Layer conv1
I0711 14:01:28.592576  5319 net.cpp:425] conv1 <- data
I0711 14:01:28.592582  5319 net.cpp:399] conv1 -> conv1
I0711 14:01:28.592623  5319 net.cpp:141] Setting up conv1
I0711 14:01:28.592641  5319 net.cpp:148] Top shape: 100 20 24 24 (1152000)
I0711 14:01:28.592644  5319 net.cpp:156] Memory required for data: 5862800
I0711 14:01:28.592653  5319 layer_factory.hpp:77] Creating layer pool1
I0711 14:01:28.592659  5319 net.cpp:91] Creating Layer pool1
I0711 14:01:28.592633  5326 blocking_queue.cpp:50] Waiting for data
I0711 14:01:28.592746  5319 net.cpp:425] pool1 <- conv1
I0711 14:01:28.592768  5319 net.cpp:399] pool1 -> pool1
I0711 14:01:28.592780  5319 net.cpp:141] Setting up pool1
I0711 14:01:28.592785  5319 net.cpp:148] Top shape: 100 20 12 12 (288000)
I0711 14:01:28.592788  5319 net.cpp:156] Memory required for data: 7014800
I0711 14:01:28.592792  5319 layer_factory.hpp:77] Creating layer conv2
I0711 14:01:28.592824  5319 net.cpp:91] Creating Layer conv2
I0711 14:01:28.592828  5319 net.cpp:425] conv2 <- pool1
I0711 14:01:28.592833  5319 net.cpp:399] conv2 -> conv2
I0711 14:01:28.593050  5319 net.cpp:141] Setting up conv2
I0711 14:01:28.593096  5319 net.cpp:148] Top shape: 100 50 8 8 (320000)
I0711 14:01:28.593101  5319 net.cpp:156] Memory required for data: 8294800
I0711 14:01:28.593116  5319 layer_factory.hpp:77] Creating layer pool2
I0711 14:01:28.593122  5319 net.cpp:91] Creating Layer pool2
I0711 14:01:28.593124  5319 net.cpp:425] pool2 <- conv2
I0711 14:01:28.593129  5319 net.cpp:399] pool2 -> pool2
I0711 14:01:28.593137  5319 net.cpp:141] Setting up pool2
I0711 14:01:28.593140  5319 net.cpp:148] Top shape: 100 50 4 4 (80000)
I0711 14:01:28.593142  5319 net.cpp:156] Memory required for data: 8614800
I0711 14:01:28.593145  5319 layer_factory.hpp:77] Creating layer ip1
I0711 14:01:28.593152  5319 net.cpp:91] Creating Layer ip1
I0711 14:01:28.593154  5319 net.cpp:425] ip1 <- pool2
I0711 14:01:28.593158  5319 net.cpp:399] ip1 -> ip1
I0711 14:01:28.596077  5319 net.cpp:141] Setting up ip1
I0711 14:01:28.596148  5319 net.cpp:148] Top shape: 100 500 (50000)
I0711 14:01:28.596153  5319 net.cpp:156] Memory required for data: 8814800
I0711 14:01:28.596169  5319 layer_factory.hpp:77] Creating layer relu1
I0711 14:01:28.596182  5319 net.cpp:91] Creating Layer relu1
I0711 14:01:28.596186  5319 net.cpp:425] relu1 <- ip1
I0711 14:01:28.596191  5319 net.cpp:386] relu1 -> ip1 (in-place)
I0711 14:01:28.596201  5319 net.cpp:141] Setting up relu1
I0711 14:01:28.596205  5319 net.cpp:148] Top shape: 100 500 (50000)
I0711 14:01:28.596209  5319 net.cpp:156] Memory required for data: 9014800
I0711 14:01:28.596210  5319 layer_factory.hpp:77] Creating layer ip2
I0711 14:01:28.596220  5319 net.cpp:91] Creating Layer ip2
I0711 14:01:28.596222  5319 net.cpp:425] ip2 <- ip1
I0711 14:01:28.596227  5319 net.cpp:399] ip2 -> ip2
I0711 14:01:28.596285  5319 net.cpp:141] Setting up ip2
I0711 14:01:28.596290  5319 net.cpp:148] Top shape: 100 10 (1000)
I0711 14:01:28.596292  5319 net.cpp:156] Memory required for data: 9018800
I0711 14:01:28.596297  5319 layer_factory.hpp:77] Creating layer feat
I0711 14:01:28.596304  5319 net.cpp:91] Creating Layer feat
I0711 14:01:28.596307  5319 net.cpp:425] feat <- ip2
I0711 14:01:28.596312  5319 net.cpp:399] feat -> feat
I0711 14:01:28.596319  5319 net.cpp:141] Setting up feat
I0711 14:01:28.596323  5319 net.cpp:148] Top shape: 100 2 (200)
I0711 14:01:28.596325  5319 net.cpp:156] Memory required for data: 9019600
I0711 14:01:28.596330  5319 layer_factory.hpp:77] Creating layer conv1_p
I0711 14:01:28.596340  5319 net.cpp:91] Creating Layer conv1_p
I0711 14:01:28.596343  5319 net.cpp:425] conv1_p <- data_p
I0711 14:01:28.596348  5319 net.cpp:399] conv1_p -> conv1_p
I0711 14:01:28.596372  5319 net.cpp:141] Setting up conv1_p
I0711 14:01:28.596379  5319 net.cpp:148] Top shape: 100 20 24 24 (1152000)
I0711 14:01:28.596380  5319 net.cpp:156] Memory required for data: 13627600
I0711 14:01:28.596384  5319 net.cpp:484] Sharing parameters 'conv1_w' owned by layer 'conv1', param index 0
I0711 14:01:28.596386  5319 net.cpp:484] Sharing parameters 'conv1_b' owned by layer 'conv1', param index 1
I0711 14:01:28.596390  5319 layer_factory.hpp:77] Creating layer pool1_p
I0711 14:01:28.596395  5319 net.cpp:91] Creating Layer pool1_p
I0711 14:01:28.596396  5319 net.cpp:425] pool1_p <- conv1_p
I0711 14:01:28.596401  5319 net.cpp:399] pool1_p -> pool1_p
I0711 14:01:28.596410  5319 net.cpp:141] Setting up pool1_p
I0711 14:01:28.596412  5319 net.cpp:148] Top shape: 100 20 12 12 (288000)
I0711 14:01:28.596415  5319 net.cpp:156] Memory required for data: 14779600
I0711 14:01:28.596417  5319 layer_factory.hpp:77] Creating layer conv2_p
I0711 14:01:28.596427  5319 net.cpp:91] Creating Layer conv2_p
I0711 14:01:28.596431  5319 net.cpp:425] conv2_p <- pool1_p
I0711 14:01:28.596434  5319 net.cpp:399] conv2_p -> conv2_p
I0711 14:01:28.596633  5319 net.cpp:141] Setting up conv2_p
I0711 14:01:28.596658  5319 net.cpp:148] Top shape: 100 50 8 8 (320000)
I0711 14:01:28.596745  5319 net.cpp:156] Memory required for data: 16059600
I0711 14:01:28.596751  5319 net.cpp:484] Sharing parameters 'conv2_w' owned by layer 'conv2', param index 0
I0711 14:01:28.596756  5319 net.cpp:484] Sharing parameters 'conv2_b' owned by layer 'conv2', param index 1
I0711 14:01:28.596760  5319 layer_factory.hpp:77] Creating layer pool2_p
I0711 14:01:28.596765  5319 net.cpp:91] Creating Layer pool2_p
I0711 14:01:28.596768  5319 net.cpp:425] pool2_p <- conv2_p
I0711 14:01:28.596776  5319 net.cpp:399] pool2_p -> pool2_p
I0711 14:01:28.596786  5319 net.cpp:141] Setting up pool2_p
I0711 14:01:28.596804  5319 net.cpp:148] Top shape: 100 50 4 4 (80000)
I0711 14:01:28.596807  5319 net.cpp:156] Memory required for data: 16379600
I0711 14:01:28.596810  5319 layer_factory.hpp:77] Creating layer ip1_p
I0711 14:01:28.596817  5319 net.cpp:91] Creating Layer ip1_p
I0711 14:01:28.596819  5319 net.cpp:425] ip1_p <- pool2_p
I0711 14:01:28.596825  5319 net.cpp:399] ip1_p -> ip1_p
I0711 14:01:28.600260  5319 net.cpp:141] Setting up ip1_p
I0711 14:01:28.600363  5319 net.cpp:148] Top shape: 100 500 (50000)
I0711 14:01:28.600702  5319 net.cpp:156] Memory required for data: 16579600
I0711 14:01:28.600714  5319 net.cpp:484] Sharing parameters 'ip1_w' owned by layer 'ip1', param index 0
I0711 14:01:28.600723  5319 net.cpp:484] Sharing parameters 'ip1_b' owned by layer 'ip1', param index 1
I0711 14:01:28.600728  5319 layer_factory.hpp:77] Creating layer relu1_p
I0711 14:01:28.600741  5319 net.cpp:91] Creating Layer relu1_p
I0711 14:01:28.600746  5319 net.cpp:425] relu1_p <- ip1_p
I0711 14:01:28.600762  5319 net.cpp:386] relu1_p -> ip1_p (in-place)
I0711 14:01:28.600775  5319 net.cpp:141] Setting up relu1_p
I0711 14:01:28.600782  5319 net.cpp:148] Top shape: 100 500 (50000)
I0711 14:01:28.600785  5319 net.cpp:156] Memory required for data: 16779600
I0711 14:01:28.600790  5319 layer_factory.hpp:77] Creating layer ip2_p
I0711 14:01:28.600802  5319 net.cpp:91] Creating Layer ip2_p
I0711 14:01:28.600806  5319 net.cpp:425] ip2_p <- ip1_p
I0711 14:01:28.600813  5319 net.cpp:399] ip2_p -> ip2_p
I0711 14:01:28.600884  5319 net.cpp:141] Setting up ip2_p
I0711 14:01:28.600894  5319 net.cpp:148] Top shape: 100 10 (1000)
I0711 14:01:28.600899  5319 net.cpp:156] Memory required for data: 16783600
I0711 14:01:28.600908  5319 net.cpp:484] Sharing parameters 'ip2_w' owned by layer 'ip2', param index 0
I0711 14:01:28.600914  5319 net.cpp:484] Sharing parameters 'ip2_b' owned by layer 'ip2', param index 1
I0711 14:01:28.600919  5319 layer_factory.hpp:77] Creating layer feat_p
I0711 14:01:28.600929  5319 net.cpp:91] Creating Layer feat_p
I0711 14:01:28.600934  5319 net.cpp:425] feat_p <- ip2_p
I0711 14:01:28.600940  5319 net.cpp:399] feat_p -> feat_p
I0711 14:01:28.600956  5319 net.cpp:141] Setting up feat_p
I0711 14:01:28.600963  5319 net.cpp:148] Top shape: 100 2 (200)
I0711 14:01:28.600968  5319 net.cpp:156] Memory required for data: 16784400
I0711 14:01:28.600972  5319 net.cpp:484] Sharing parameters 'feat_w' owned by layer 'feat', param index 0
I0711 14:01:28.600978  5319 net.cpp:484] Sharing parameters 'feat_b' owned by layer 'feat', param index 1
I0711 14:01:28.600982  5319 layer_factory.hpp:77] Creating layer loss
I0711 14:01:28.600991  5319 net.cpp:91] Creating Layer loss
…
