…
I0711 10:28:39.586334  4462 solver.cpp:91] Creating training net from net file: examples/siamese/mnist_siamese_train_test.prototxt
I0711 10:28:39.586820  4462 net.cpp:313] The NetState phase (0) differed from the phase (1) specified by a rule in layer pair_data
I0711 10:28:39.586971  4462 net.cpp:49] Initializing net from parameters: 
name: "mnist_siamese_train_test"
state {
  phase: TRAIN
}
layer {
  name: "pair_data"
  type: "Data"
  top: "pair_data"
  top: "sim"
  include {
    phase: TRAIN
  }
  transform_param {
    scale: 0.00390625
  }
  data_param {
    source: "examples/siamese/mnist_siamese_train_leveldb_0to6_l"
    batch_size: 64
  }
}
layer {
  name: "slice_pair"
  type: "Slice"
  bottom: "pair_data"
  top: "data"
  top: "data_p"
  slice_param {
    slice_dim: 1
    slice_point: 1
  }
}
layer {
  name: "conv1"
  type: "Convolution"
  bottom: "data"
  top: "conv1"
  param {
    name: "conv1_w"
    lr_mult: 1
  }
  param {
    name: "conv1_b"
    lr_mult: 2
  }
  convolution_param {
    num_output: 20
    kernel_size: 5
    stride: 1
    weight_filler {
      type: "xavier"
    }
    bias_filler {
      type: "constant"
    }
  }
}
layer {
  name: "pool1"
  type: "Pooling"
  bottom: "conv1"
  top: "pool1"
  pooling_param {
    pool: MAX
    kernel_size: 2
    stride: 2
  }
}
layer {
  name: "conv2"
  type: "Convolution"
  bottom: "pool1"
  top: "conv2"
  param {
    name: "conv2_w"
    lr_mult: 1
  }
  param {
    name: "conv2_b"
    lr_mult: 2
  }
  convolution_param {
    num_output: 50
    kernel_size: 5
    stride: 1
    weight_filler {
      type: "xavier"
    }
    bias_filler {
      type: "constant"
    }
  }
}
layer {
  name: "pool2"
  type: "Pooling"
  bottom: "conv2"
  top: "pool2"
  pooling_param {
    pool: MAX
    kernel_size: 2
    stride: 2
  }
}
layer {
  name: "ip1"
  type: "InnerProduct"
  bottom: "pool2"
  top: "ip1"
  param {
    name: "ip1_w"
    lr_mult: 1
  }
  param {
    name: "ip1_b"
    lr_mult: 2
  }
  inner_product_param {
    num_output: 500
    weight_filler {
      type: "xavier"
    }
    bias_filler {
      type: "constant"
    }
  }
}
layer {
  name: "relu1"
  type: "ReLU"
  bottom: "ip1"
  top: "ip1"
}
layer {
  name: "ip2"
  type: "InnerProduct"
  bottom: "ip1"
  top: "ip2"
  param {
    name: "ip2_w"
    lr_mult: 1
  }
  param {
    name: "ip2_b"
    lr_mult: 2
  }
  inner_product_param {
    num_output: 10
    weight_filler {
      type: "xavier"
    }
    bias_filler {
      type: "constant"
    }
  }
}
layer {
  name: "feat"
  type: "InnerProduct"
  bottom: "ip2"
  top: "feat"
  param {
    name: "feat_w"
    lr_mult: 1
  }
  param {
    name: "feat_b"
    lr_mult: 2
  }
  inner_product_param {
    num_output: 2
    weight_filler {
      type: "xavier"
    }
    bias_filler {
      type: "constant"
    }
  }
}
layer {
  name: "conv1_p"
  type: "Convolution"
  bottom: "data_p"
  top: "conv1_p"
  param {
    name: "conv1_w"
    lr_mult: 1
  }
  param {
    name: "conv1_b"
    lr_mult: 2
  }
  convolution_param {
    num_output: 20
    kernel_size: 5
    stride: 1
    weight_filler {
      type: "xavier"
    }
    bias_filler {
      type: "constant"
    }
  }
}
layer {
  name: "pool1_p"
  type: "Pooling"
  bottom: "conv1_p"
  top: "pool1_p"
  pooling_param {
    pool: MAX
    kernel_size: 2
    stride: 2
  }
}
layer {
  name: "conv2_p"
  type: "Convolution"
  bottom: "pool1_p"
  top: "conv2_p"
  param {
    name: "conv2_w"
    lr_mult: 1
  }
  param {
    name: "conv2_b"
    lr_mult: 2
  }
  convolution_param {
    num_output: 50
    kernel_size: 5
    stride: 1
    weight_filler {
      type: "xavier"
    }
    bias_filler {
      type: "constant"
    }
  }
}
layer {
  name: "pool2_p"
  type: "Pooling"
  bottom: "conv2_p"
  top: "pool2_p"
  pooling_param {
    pool: MAX
    kernel_size: 2
    stride: 2
  }
}
layer {
  name: "ip1_p"
  type: "InnerProduct"
  bottom: "pool2_p"
  top: "ip1_p"
  param {
    name: "ip1_w"
    lr_mult: 1
  }
  param {
    name: "ip1_b"
    lr_mult: 2
  }
  inner_product_param {
    num_output: 500
    weight_filler {
      type: "xavier"
    }
    bias_filler {
      type: "constant"
    }
  }
}
layer {
  name: "relu1_p"
  type: "ReLU"
  bottom: "ip1_p"
  top: "ip1_p"
}
layer {
  name: "ip2_p"
  type: "InnerProduct"
  bottom: "ip1_p"
  top: "ip2_p"
  param {
    name: "ip2_w"
    lr_mult: 1
  }
  param {
    name: "ip2_b"
    lr_mult: 2
  }
  inner_product_param {
    num_output: 10
    weight_filler {
      type: "xavier"
    }
    bias_filler {
      type: "constant"
    }
  }
}
layer {
  name: "feat_p"
  type: "InnerProduct"
  bottom: "ip2_p"
  top: "feat_p"
  param {
    name: "feat_w"
    lr_mult: 1
  }
  param {
    name: "feat_b"
    lr_mult: 2
  }
  inner_product_param {
    num_output: 2
    weight_filler {
      type: "xavier"
    }
    bias_filler {
      type: "constant"
    }
  }
}
layer {
  name: "loss"
  type: "ContrastiveLoss"
  bottom: "feat"
  bottom: "feat_p"
  bottom: "sim"
  top: "loss"
  contrastive_loss_param {
    margin: 1
  }
}
I0711 10:28:39.587074  4462 layer_factory.hpp:77] Creating layer pair_data
I0711 10:28:39.587579  4462 net.cpp:91] Creating Layer pair_data
I0711 10:28:39.587590  4462 net.cpp:399] pair_data -> pair_data
I0711 10:28:39.587615  4462 net.cpp:399] pair_data -> sim
I0711 10:28:39.648134  4466 db_leveldb.cpp:18] Opened leveldb examples/siamese/mnist_siamese_train_leveldb_0to6_l
I0711 10:28:39.648509  4462 data_layer.cpp:41] output data size: 64,2,28,28
I0711 10:28:39.650092  4462 net.cpp:141] Setting up pair_data
I0711 10:28:39.650141  4462 net.cpp:148] Top shape: 64 2 28 28 (100352)
I0711 10:28:39.650147  4462 net.cpp:148] Top shape: 64 (64)
I0711 10:28:39.650151  4462 net.cpp:156] Memory required for data: 401664
I0711 10:28:39.650162  4462 layer_factory.hpp:77] Creating layer slice_pair
I0711 10:28:39.650182  4462 net.cpp:91] Creating Layer slice_pair
I0711 10:28:39.650188  4462 net.cpp:425] slice_pair <- pair_data
I0711 10:28:39.650213  4462 net.cpp:399] slice_pair -> data
I0711 10:28:39.650223  4462 net.cpp:399] slice_pair -> data_p
I0711 10:28:39.650238  4462 net.cpp:141] Setting up slice_pair
I0711 10:28:39.650254  4462 net.cpp:148] Top shape: 64 1 28 28 (50176)
I0711 10:28:39.650259  4462 net.cpp:148] Top shape: 64 1 28 28 (50176)
I0711 10:28:39.650261  4462 net.cpp:156] Memory required for data: 803072
I0711 10:28:39.650264  4462 layer_factory.hpp:77] Creating layer conv1
I0711 10:28:39.650279  4462 net.cpp:91] Creating Layer conv1
I0711 10:28:39.650352  4467 blocking_queue.cpp:50] Waiting for data
I0711 10:28:39.650293  4462 net.cpp:425] conv1 <- data
I0711 10:28:39.650434  4462 net.cpp:399] conv1 -> conv1
I0711 10:28:39.650490  4462 net.cpp:141] Setting up conv1
I0711 10:28:39.650508  4462 net.cpp:148] Top shape: 64 20 24 24 (737280)
I0711 10:28:39.650512  4462 net.cpp:156] Memory required for data: 3752192
I0711 10:28:39.650523  4462 layer_factory.hpp:77] Creating layer pool1
I0711 10:28:39.650529  4462 net.cpp:91] Creating Layer pool1
I0711 10:28:39.650532  4462 net.cpp:425] pool1 <- conv1
I0711 10:28:39.650537  4462 net.cpp:399] pool1 -> pool1
I0711 10:28:39.650553  4462 net.cpp:141] Setting up pool1
I0711 10:28:39.650569  4462 net.cpp:148] Top shape: 64 20 12 12 (184320)
I0711 10:28:39.650573  4462 net.cpp:156] Memory required for data: 4489472
I0711 10:28:39.650575  4462 layer_factory.hpp:77] Creating layer conv2
I0711 10:28:39.650588  4462 net.cpp:91] Creating Layer conv2
I0711 10:28:39.650591  4462 net.cpp:425] conv2 <- pool1
I0711 10:28:39.650596  4462 net.cpp:399] conv2 -> conv2
I0711 10:28:39.650811  4462 net.cpp:141] Setting up conv2
I0711 10:28:39.650831  4462 net.cpp:148] Top shape: 64 50 8 8 (204800)
I0711 10:28:39.650835  4462 net.cpp:156] Memory required for data: 5308672
I0711 10:28:39.650840  4462 layer_factory.hpp:77] Creating layer pool2
I0711 10:28:39.650866  4462 net.cpp:91] Creating Layer pool2
I0711 10:28:39.650882  4462 net.cpp:425] pool2 <- conv2
I0711 10:28:39.650888  4462 net.cpp:399] pool2 -> pool2
I0711 10:28:39.650897  4462 net.cpp:141] Setting up pool2
I0711 10:28:39.650902  4462 net.cpp:148] Top shape: 64 50 4 4 (51200)
I0711 10:28:39.650904  4462 net.cpp:156] Memory required for data: 5513472
I0711 10:28:39.650907  4462 layer_factory.hpp:77] Creating layer ip1
I0711 10:28:39.650918  4462 net.cpp:91] Creating Layer ip1
I0711 10:28:39.650933  4462 net.cpp:425] ip1 <- pool2
I0711 10:28:39.650939  4462 net.cpp:399] ip1 -> ip1
I0711 10:28:39.654387  4462 net.cpp:141] Setting up ip1
I0711 10:28:39.654482  4462 net.cpp:148] Top shape: 64 500 (32000)
I0711 10:28:39.654498  4462 net.cpp:156] Memory required for data: 5641472
I0711 10:28:39.654531  4462 layer_factory.hpp:77] Creating layer relu1
I0711 10:28:39.654552  4462 net.cpp:91] Creating Layer relu1
I0711 10:28:39.654564  4462 net.cpp:425] relu1 <- ip1
I0711 10:28:39.654583  4462 net.cpp:386] relu1 -> ip1 (in-place)
I0711 10:28:39.654639  4462 net.cpp:141] Setting up relu1
I0711 10:28:39.654654  4462 net.cpp:148] Top shape: 64 500 (32000)
I0711 10:28:39.654659  4462 net.cpp:156] Memory required for data: 5769472
I0711 10:28:39.654665  4462 layer_factory.hpp:77] Creating layer ip2
I0711 10:28:39.654711  4462 net.cpp:91] Creating Layer ip2
I0711 10:28:39.654723  4462 net.cpp:425] ip2 <- ip1
I0711 10:28:39.654742  4462 net.cpp:399] ip2 -> ip2
I0711 10:28:39.654865  4462 net.cpp:141] Setting up ip2
I0711 10:28:39.654898  4462 net.cpp:148] Top shape: 64 10 (640)
I0711 10:28:39.654902  4462 net.cpp:156] Memory required for data: 5772032
I0711 10:28:39.654911  4462 layer_factory.hpp:77] Creating layer feat
I0711 10:28:39.654920  4462 net.cpp:91] Creating Layer feat
I0711 10:28:39.654924  4462 net.cpp:425] feat <- ip2
I0711 10:28:39.654933  4462 net.cpp:399] feat -> feat
I0711 10:28:39.654949  4462 net.cpp:141] Setting up feat
I0711 10:28:39.654954  4462 net.cpp:148] Top shape: 64 2 (128)
I0711 10:28:39.654956  4462 net.cpp:156] Memory required for data: 5772544
I0711 10:28:39.654965  4462 layer_factory.hpp:77] Creating layer conv1_p
I0711 10:28:39.654979  4462 net.cpp:91] Creating Layer conv1_p
I0711 10:28:39.654983  4462 net.cpp:425] conv1_p <- data_p
I0711 10:28:39.654989  4462 net.cpp:399] conv1_p -> conv1_p
I0711 10:28:39.655024  4462 net.cpp:141] Setting up conv1_p
I0711 10:28:39.655042  4462 net.cpp:148] Top shape: 64 20 24 24 (737280)
I0711 10:28:39.655045  4462 net.cpp:156] Memory required for data: 8721664
I0711 10:28:39.655050  4462 net.cpp:484] Sharing parameters 'conv1_w' owned by layer 'conv1', param index 0
I0711 10:28:39.655055  4462 net.cpp:484] Sharing parameters 'conv1_b' owned by layer 'conv1', param index 1
I0711 10:28:39.655057  4462 layer_factory.hpp:77] Creating layer pool1_p
I0711 10:28:39.655067  4462 net.cpp:91] Creating Layer pool1_p
I0711 10:28:39.655071  4462 net.cpp:425] pool1_p <- conv1_p
I0711 10:28:39.655076  4462 net.cpp:399] pool1_p -> pool1_p
I0711 10:28:39.655086  4462 net.cpp:141] Setting up pool1_p
I0711 10:28:39.655089  4462 net.cpp:148] Top shape: 64 20 12 12 (184320)
I0711 10:28:39.655092  4462 net.cpp:156] Memory required for data: 9458944
I0711 10:28:39.655095  4462 layer_factory.hpp:77] Creating layer conv2_p
I0711 10:28:39.655104  4462 net.cpp:91] Creating Layer conv2_p
I0711 10:28:39.655129  4462 net.cpp:425] conv2_p <- pool1_p
I0711 10:28:39.655138  4462 net.cpp:399] conv2_p -> conv2_p
I0711 10:28:39.655365  4462 net.cpp:141] Setting up conv2_p
I0711 10:28:39.655388  4462 net.cpp:148] Top shape: 64 50 8 8 (204800)
I0711 10:28:39.655392  4462 net.cpp:156] Memory required for data: 10278144
I0711 10:28:39.655396  4462 net.cpp:484] Sharing parameters 'conv2_w' owned by layer 'conv2', param index 0
I0711 10:28:39.655401  4462 net.cpp:484] Sharing parameters 'conv2_b' owned by layer 'conv2', param index 1
I0711 10:28:39.655405  4462 layer_factory.hpp:77] Creating layer pool2_p
I0711 10:28:39.655416  4462 net.cpp:91] Creating Layer pool2_p
I0711 10:28:39.655446  4462 net.cpp:425] pool2_p <- conv2_p
I0711 10:28:39.655452  4462 net.cpp:399] pool2_p -> pool2_p
I0711 10:28:39.655467  4462 net.cpp:141] Setting up pool2_p
I0711 10:28:39.655473  4462 net.cpp:148] Top shape: 64 50 4 4 (51200)
I0711 10:28:39.655477  4462 net.cpp:156] Memory required for data: 10482944
I0711 10:28:39.655479  4462 layer_factory.hpp:77] Creating layer ip1_p
I0711 10:28:39.655496  4462 net.cpp:91] Creating Layer ip1_p
I0711 10:28:39.655500  4462 net.cpp:425] ip1_p <- pool2_p
I0711 10:28:39.655509  4462 net.cpp:399] ip1_p -> ip1_p
I0711 10:28:39.660547  4462 net.cpp:141] Setting up ip1_p
I0711 10:28:39.660620  4462 net.cpp:148] Top shape: 64 500 (32000)
I0711 10:28:39.660626  4462 net.cpp:156] Memory required for data: 10610944
I0711 10:28:39.660640  4462 net.cpp:484] Sharing parameters 'ip1_w' owned by layer 'ip1', param index 0
I0711 10:28:39.660648  4462 net.cpp:484] Sharing parameters 'ip1_b' owned by layer 'ip1', param index 1
I0711 10:28:39.660655  4462 layer_factory.hpp:77] Creating layer relu1_p
I0711 10:28:39.660712  4462 net.cpp:91] Creating Layer relu1_p
I0711 10:28:39.660720  4462 net.cpp:425] relu1_p <- ip1_p
I0711 10:28:39.660747  4462 net.cpp:386] relu1_p -> ip1_p (in-place)
I0711 10:28:39.660760  4462 net.cpp:141] Setting up relu1_p
I0711 10:28:39.660768  4462 net.cpp:148] Top shape: 64 500 (32000)
I0711 10:28:39.660773  4462 net.cpp:156] Memory required for data: 10738944
I0711 10:28:39.660778  4462 layer_factory.hpp:77] Creating layer ip2_p
I0711 10:28:39.660794  4462 net.cpp:91] Creating Layer ip2_p
I0711 10:28:39.660797  4462 net.cpp:425] ip2_p <- ip1_p
I0711 10:28:39.660810  4462 net.cpp:399] ip2_p -> ip2_p
I0711 10:28:39.660897  4462 net.cpp:141] Setting up ip2_p
I0711 10:28:39.660922  4462 net.cpp:148] Top shape: 64 10 (640)
I0711 10:28:39.660926  4462 net.cpp:156] Memory required for data: 10741504
I0711 10:28:39.660993  4462 net.cpp:484] Sharing parameters 'ip2_w' owned by layer 'ip2', param index 0
I0711 10:28:39.661001  4462 net.cpp:484] Sharing parameters 'ip2_b' owned by layer 'ip2', param index 1
I0711 10:28:39.661006  4462 layer_factory.hpp:77] Creating layer feat_p
I0711 10:28:39.661015  4462 net.cpp:91] Creating Layer feat_p
I0711 10:28:39.661036  4462 net.cpp:425] feat_p <- ip2_p
I0711 10:28:39.661047  4462 net.cpp:399] feat_p -> feat_p
I0711 10:28:39.661064  4462 net.cpp:141] Setting up feat_p
I0711 10:28:39.661087  4462 net.cpp:148] Top shape: 64 2 (128)
I0711 10:28:39.661092  4462 net.cpp:156] Memory required for data: 10742016
I0711 10:28:39.661098  4462 net.cpp:484] Sharing parameters 'feat_w' owned by layer 'feat', param index 0
I0711 10:28:39.661103  4462 net.cpp:484] Sharing parameters 'feat_b' owned by layer 'feat', param index 1
I0711 10:28:39.661108  4462 layer_factory.hpp:77] Creating layer loss
I0711 10:28:39.661124  4462 net.cpp:91] Creating Layer loss
…
I0711 10:28:39.664410  4462 solver.cpp:181] Creating test net (#0) specified by net file: examples/siamese/mnist_siamese_train_test.prototxt
I0711 10:28:39.664530  4462 net.cpp:313] The NetState phase (1) differed from the phase (0) specified by a rule in layer pair_data
I0711 10:28:39.664808  4462 net.cpp:49] Initializing net from parameters: 
name: "mnist_siamese_train_test"
state {
  phase: TEST
}
layer {
  name: "pair_data"
  type: "Data"
  top: "pair_data"
  top: "sim"
  include {
    phase: TEST
  }
  transform_param {
    scale: 0.00390625
  }
  data_param {
    source: "examples/siamese/mnist_siamese_test_leveldb_0to6_l"
    batch_size: 100
  }
}
layer {
  name: "slice_pair"
  type: "Slice"
  bottom: "pair_data"
  top: "data"
  top: "data_p"
  slice_param {
    slice_dim: 1
    slice_point: 1
  }
}
layer {
  name: "conv1"
  type: "Convolution"
  bottom: "data"
  top: "conv1"
  param {
    name: "conv1_w"
    lr_mult: 1
  }
  param {
    name: "conv1_b"
    lr_mult: 2
  }
  convolution_param {
    num_output: 20
    kernel_size: 5
    stride: 1
    weight_filler {
      type: "xavier"
    }
    bias_filler {
      type: "constant"
    }
  }
}
layer {
  name: "pool1"
  type: "Pooling"
  bottom: "conv1"
  top: "pool1"
  pooling_param {
    pool: MAX
    kernel_size: 2
    stride: 2
  }
}
layer {
  name: "conv2"
  type: "Convolution"
  bottom: "pool1"
  top: "conv2"
  param {
    name: "conv2_w"
    lr_mult: 1
  }
  param {
    name: "conv2_b"
    lr_mult: 2
  }
  convolution_param {
    num_output: 50
    kernel_size: 5
    stride: 1
    weight_filler {
      type: "xavier"
    }
    bias_filler {
      type: "constant"
    }
  }
}
layer {
  name: "pool2"
  type: "Pooling"
  bottom: "conv2"
  top: "pool2"
  pooling_param {
    pool: MAX
    kernel_size: 2
    stride: 2
  }
}
layer {
  name: "ip1"
  type: "InnerProduct"
  bottom: "pool2"
  top: "ip1"
  param {
    name: "ip1_w"
    lr_mult: 1
  }
  param {
    name: "ip1_b"
    lr_mult: 2
  }
  inner_product_param {
    num_output: 500
    weight_filler {
      type: "xavier"
    }
    bias_filler {
      type: "constant"
    }
  }
}
layer {
  name: "relu1"
  type: "ReLU"
  bottom: "ip1"
  top: "ip1"
}
layer {
  name: "ip2"
  type: "InnerProduct"
  bottom: "ip1"
  top: "ip2"
  param {
    name: "ip2_w"
    lr_mult: 1
  }
  param {
    name: "ip2_b"
    lr_mult: 2
  }
  inner_product_param {
    num_output: 10
    weight_filler {
      type: "xavier"
    }
    bias_filler {
      type: "constant"
    }
  }
}
layer {
  name: "feat"
  type: "InnerProduct"
  bottom: "ip2"
  top: "feat"
  param {
    name: "feat_w"
    lr_mult: 1
  }
  param {
    name: "feat_b"
    lr_mult: 2
  }
  inner_product_param {
    num_output: 2
    weight_filler {
      type: "xavier"
    }
    bias_filler {
      type: "constant"
    }
  }
}
layer {
  name: "conv1_p"
  type: "Convolution"
  bottom: "data_p"
  top: "conv1_p"
  param {
    name: "conv1_w"
    lr_mult: 1
  }
  param {
    name: "conv1_b"
    lr_mult: 2
  }
  convolution_param {
    num_output: 20
    kernel_size: 5
    stride: 1
    weight_filler {
      type: "xavier"
    }
    bias_filler {
      type: "constant"
    }
  }
}
layer {
  name: "pool1_p"
  type: "Pooling"
  bottom: "conv1_p"
  top: "pool1_p"
  pooling_param {
    pool: MAX
    kernel_size: 2
    stride: 2
  }
}
layer {
  name: "conv2_p"
  type: "Convolution"
  bottom: "pool1_p"
  top: "conv2_p"
  param {
    name: "conv2_w"
    lr_mult: 1
  }
  param {
    name: "conv2_b"
    lr_mult: 2
  }
  convolution_param {
    num_output: 50
    kernel_size: 5
    stride: 1
    weight_filler {
      type: "xavier"
    }
    bias_filler {
      type: "constant"
    }
  }
}
layer {
  name: "pool2_p"
  type: "Pooling"
  bottom: "conv2_p"
  top: "pool2_p"
  pooling_param {
    pool: MAX
    kernel_size: 2
    stride: 2
  }
}
layer {
  name: "ip1_p"
  type: "InnerProduct"
  bottom: "pool2_p"
  top: "ip1_p"
  param {
    name: "ip1_w"
    lr_mult: 1
  }
  param {
    name: "ip1_b"
    lr_mult: 2
  }
  inner_product_param {
    num_output: 500
    weight_filler {
      type: "xavier"
    }
    bias_filler {
      type: "constant"
    }
  }
}
layer {
  name: "relu1_p"
  type: "ReLU"
  bottom: "ip1_p"
  top: "ip1_p"
}
layer {
  name: "ip2_p"
  type: "InnerProduct"
  bottom: "ip1_p"
  top: "ip2_p"
  param {
    name: "ip2_w"
    lr_mult: 1
  }
  param {
    name: "ip2_b"
    lr_mult: 2
  }
  inner_product_param {
    num_output: 10
    weight_filler {
      type: "xavier"
    }
    bias_filler {
      type: "constant"
    }
  }
}
layer {
  name: "feat_p"
  type: "InnerProduct"
  bottom: "ip2_p"
  top: "feat_p"
  param {
    name: "feat_w"
    lr_mult: 1
  }
  param {
    name: "feat_b"
    lr_mult: 2
  }
  inner_product_param {
    num_output: 2
    weight_filler {
      type: "xavier"
    }
    bias_filler {
      type: "constant"
    }
  }
}
layer {
  name: "loss"
  type: "ContrastiveLoss"
  bottom: "feat"
  bottom: "feat_p"
  bottom: "sim"
  top: "loss"
  contrastive_loss_param {
    margin: 1
  }
}
I0711 10:28:39.665060  4462 layer_factory.hpp:77] Creating layer pair_data
I0711 10:28:39.665272  4462 net.cpp:91] Creating Layer pair_data
I0711 10:28:39.665321  4462 net.cpp:399] pair_data -> pair_data
I0711 10:28:39.665340  4462 net.cpp:399] pair_data -> sim
I0711 10:28:39.710453  4468 db_leveldb.cpp:18] Opened leveldb examples/siamese/mnist_siamese_test_leveldb_0to6_l
I0711 10:28:39.710742  4462 data_layer.cpp:41] output data size: 100,2,28,28
I0711 10:28:39.711509  4462 net.cpp:141] Setting up pair_data
I0711 10:28:39.711556  4462 net.cpp:148] Top shape: 100 2 28 28 (156800)
I0711 10:28:39.711565  4462 net.cpp:148] Top shape: 100 (100)
I0711 10:28:39.711570  4462 net.cpp:156] Memory required for data: 627600
I0711 10:28:39.711577  4462 layer_factory.hpp:77] Creating layer slice_pair
I0711 10:28:39.711596  4462 net.cpp:91] Creating Layer slice_pair
I0711 10:28:39.711618  4462 net.cpp:425] slice_pair <- pair_data
I0711 10:28:39.711628  4462 net.cpp:399] slice_pair -> data
I0711 10:28:39.711642  4462 net.cpp:399] slice_pair -> data_p
I0711 10:28:39.711655  4462 net.cpp:141] Setting up slice_pair
I0711 10:28:39.711661  4462 net.cpp:148] Top shape: 100 1 28 28 (78400)
I0711 10:28:39.711668  4462 net.cpp:148] Top shape: 100 1 28 28 (78400)
I0711 10:28:39.711671  4462 net.cpp:156] Memory required for data: 1254800
I0711 10:28:39.711676  4462 layer_factory.hpp:77] Creating layer conv1
I0711 10:28:39.711712  4462 net.cpp:91] Creating Layer conv1
I0711 10:28:39.711719  4462 net.cpp:425] conv1 <- data
I0711 10:28:39.711727  4462 net.cpp:399] conv1 -> conv1
I0711 10:28:39.711771  4462 net.cpp:141] Setting up conv1
I0711 10:28:39.711799  4462 net.cpp:148] Top shape: 100 20 24 24 (1152000)
I0711 10:28:39.711804  4462 net.cpp:156] Memory required for data: 5862800
I0711 10:28:39.711817  4462 layer_factory.hpp:77] Creating layer pool1
I0711 10:28:39.711827  4462 net.cpp:91] Creating Layer pool1
I0711 10:28:39.711849  4462 net.cpp:425] pool1 <- conv1
I0711 10:28:39.711858  4462 net.cpp:399] pool1 -> pool1
I0711 10:28:39.711870  4462 net.cpp:141] Setting up pool1
I0711 10:28:39.711894  4462 net.cpp:148] Top shape: 100 20 12 12 (288000)
I0711 10:28:39.711900  4462 net.cpp:156] Memory required for data: 7014800
I0711 10:28:39.711905  4462 layer_factory.hpp:77] Creating layer conv2
I0711 10:28:39.711971  4462 net.cpp:91] Creating Layer conv2
I0711 10:28:39.711977  4462 net.cpp:425] conv2 <- pool1
I0711 10:28:39.711987  4462 net.cpp:399] conv2 -> conv2
I0711 10:28:39.712276  4462 net.cpp:141] Setting up conv2
I0711 10:28:39.712311  4462 net.cpp:148] Top shape: 100 50 8 8 (320000)
I0711 10:28:39.712317  4462 net.cpp:156] Memory required for data: 8294800
I0711 10:28:39.712329  4462 layer_factory.hpp:77] Creating layer pool2
I0711 10:28:39.712339  4462 net.cpp:91] Creating Layer pool2
I0711 10:28:39.712344  4462 net.cpp:425] pool2 <- conv2
I0711 10:28:39.712370  4462 net.cpp:399] pool2 -> pool2
I0711 10:28:39.712383  4462 net.cpp:141] Setting up pool2
I0711 10:28:39.712390  4462 net.cpp:148] Top shape: 100 50 4 4 (80000)
I0711 10:28:39.712395  4462 net.cpp:156] Memory required for data: 8614800
I0711 10:28:39.712400  4462 layer_factory.hpp:77] Creating layer ip1
I0711 10:28:39.712430  4462 net.cpp:91] Creating Layer ip1
I0711 10:28:39.712435  4462 net.cpp:425] ip1 <- pool2
I0711 10:28:39.712443  4462 net.cpp:399] ip1 -> ip1
I0711 10:28:39.720906  4462 net.cpp:141] Setting up ip1
I0711 10:28:39.720988  4462 net.cpp:148] Top shape: 100 500 (50000)
I0711 10:28:39.720995  4462 net.cpp:156] Memory required for data: 8814800
I0711 10:28:39.721010  4462 layer_factory.hpp:77] Creating layer relu1
I0711 10:28:39.721024  4462 net.cpp:91] Creating Layer relu1
I0711 10:28:39.721027  4462 net.cpp:425] relu1 <- ip1
I0711 10:28:39.721034  4462 net.cpp:386] relu1 -> ip1 (in-place)
I0711 10:28:39.721043  4462 net.cpp:141] Setting up relu1
I0711 10:28:39.721047  4462 net.cpp:148] Top shape: 100 500 (50000)
I0711 10:28:39.721050  4462 net.cpp:156] Memory required for data: 9014800
I0711 10:28:39.721053  4462 layer_factory.hpp:77] Creating layer ip2
I0711 10:28:39.721063  4462 net.cpp:91] Creating Layer ip2
I0711 10:28:39.721066  4462 net.cpp:425] ip2 <- ip1
I0711 10:28:39.721071  4462 net.cpp:399] ip2 -> ip2
I0711 10:28:39.721129  4462 net.cpp:141] Setting up ip2
I0711 10:28:39.721149  4462 net.cpp:148] Top shape: 100 10 (1000)
I0711 10:28:39.721153  4462 net.cpp:156] Memory required for data: 9018800
I0711 10:28:39.721158  4462 layer_factory.hpp:77] Creating layer feat
I0711 10:28:39.721163  4462 net.cpp:91] Creating Layer feat
I0711 10:28:39.721166  4462 net.cpp:425] feat <- ip2
I0711 10:28:39.721171  4462 net.cpp:399] feat -> feat
I0711 10:28:39.721181  4462 net.cpp:141] Setting up feat
I0711 10:28:39.721185  4462 net.cpp:148] Top shape: 100 2 (200)
I0711 10:28:39.721187  4462 net.cpp:156] Memory required for data: 9019600
I0711 10:28:39.721194  4462 layer_factory.hpp:77] Creating layer conv1_p
I0711 10:28:39.721204  4462 net.cpp:91] Creating Layer conv1_p
I0711 10:28:39.721207  4462 net.cpp:425] conv1_p <- data_p
I0711 10:28:39.721213  4462 net.cpp:399] conv1_p -> conv1_p
I0711 10:28:39.721240  4462 net.cpp:141] Setting up conv1_p
I0711 10:28:39.721245  4462 net.cpp:148] Top shape: 100 20 24 24 (1152000)
I0711 10:28:39.721246  4462 net.cpp:156] Memory required for data: 13627600
I0711 10:28:39.721251  4462 net.cpp:484] Sharing parameters 'conv1_w' owned by layer 'conv1', param index 0
I0711 10:28:39.721253  4462 net.cpp:484] Sharing parameters 'conv1_b' owned by layer 'conv1', param index 1
I0711 10:28:39.721256  4462 layer_factory.hpp:77] Creating layer pool1_p
I0711 10:28:39.721263  4462 net.cpp:91] Creating Layer pool1_p
I0711 10:28:39.721266  4462 net.cpp:425] pool1_p <- conv1_p
I0711 10:28:39.721271  4462 net.cpp:399] pool1_p -> pool1_p
I0711 10:28:39.721278  4462 net.cpp:141] Setting up pool1_p
I0711 10:28:39.721282  4462 net.cpp:148] Top shape: 100 20 12 12 (288000)
I0711 10:28:39.721285  4462 net.cpp:156] Memory required for data: 14779600
I0711 10:28:39.721287  4462 layer_factory.hpp:77] Creating layer conv2_p
I0711 10:28:39.721297  4462 net.cpp:91] Creating Layer conv2_p
I0711 10:28:39.721299  4462 net.cpp:425] conv2_p <- pool1_p
I0711 10:28:39.721304  4462 net.cpp:399] conv2_p -> conv2_p
I0711 10:28:39.721518  4462 net.cpp:141] Setting up conv2_p
I0711 10:28:39.721524  4462 net.cpp:148] Top shape: 100 50 8 8 (320000)
I0711 10:28:39.721545  4462 net.cpp:156] Memory required for data: 16059600
I0711 10:28:39.721549  4462 net.cpp:484] Sharing parameters 'conv2_w' owned by layer 'conv2', param index 0
I0711 10:28:39.721552  4462 net.cpp:484] Sharing parameters 'conv2_b' owned by layer 'conv2', param index 1
I0711 10:28:39.721555  4462 layer_factory.hpp:77] Creating layer pool2_p
I0711 10:28:39.721561  4462 net.cpp:91] Creating Layer pool2_p
I0711 10:28:39.721565  4462 net.cpp:425] pool2_p <- conv2_p
I0711 10:28:39.721570  4462 net.cpp:399] pool2_p -> pool2_p
I0711 10:28:39.721576  4462 net.cpp:141] Setting up pool2_p
I0711 10:28:39.721580  4462 net.cpp:148] Top shape: 100 50 4 4 (80000)
I0711 10:28:39.721583  4462 net.cpp:156] Memory required for data: 16379600
I0711 10:28:39.721585  4462 layer_factory.hpp:77] Creating layer ip1_p
I0711 10:28:39.721591  4462 net.cpp:91] Creating Layer ip1_p
I0711 10:28:39.721595  4462 net.cpp:425] ip1_p <- pool2_p
I0711 10:28:39.721601  4462 net.cpp:399] ip1_p -> ip1_p
I0711 10:28:39.729876  4462 net.cpp:141] Setting up ip1_p
I0711 10:28:39.729964  4462 net.cpp:148] Top shape: 100 500 (50000)
I0711 10:28:39.730033  4462 net.cpp:156] Memory required for data: 16579600
I0711 10:28:39.730060  4462 net.cpp:484] Sharing parameters 'ip1_w' owned by layer 'ip1', param index 0
I0711 10:28:39.730083  4462 net.cpp:484] Sharing parameters 'ip1_b' owned by layer 'ip1', param index 1
I0711 10:28:39.730103  4462 layer_factory.hpp:77] Creating layer relu1_p
I0711 10:28:39.730130  4462 net.cpp:91] Creating Layer relu1_p
I0711 10:28:39.730150  4462 net.cpp:425] relu1_p <- ip1_p
I0711 10:28:39.730172  4462 net.cpp:386] relu1_p -> ip1_p (in-place)
I0711 10:28:39.730200  4462 net.cpp:141] Setting up relu1_p
I0711 10:28:39.730221  4462 net.cpp:148] Top shape: 100 500 (50000)
I0711 10:28:39.730238  4462 net.cpp:156] Memory required for data: 16779600
I0711 10:28:39.730257  4462 layer_factory.hpp:77] Creating layer ip2_p
I0711 10:28:39.730285  4462 net.cpp:91] Creating Layer ip2_p
I0711 10:28:39.730305  4462 net.cpp:425] ip2_p <- ip1_p
I0711 10:28:39.730327  4462 net.cpp:399] ip2_p -> ip2_p
I0711 10:28:39.730432  4462 net.cpp:141] Setting up ip2_p
I0711 10:28:39.730458  4462 net.cpp:148] Top shape: 100 10 (1000)
I0711 10:28:39.730475  4462 net.cpp:156] Memory required for data: 16783600
I0711 10:28:39.730501  4462 net.cpp:484] Sharing parameters 'ip2_w' owned by layer 'ip2', param index 0
I0711 10:28:39.730523  4462 net.cpp:484] Sharing parameters 'ip2_b' owned by layer 'ip2', param index 1
I0711 10:28:39.730541  4462 layer_factory.hpp:77] Creating layer feat_p
I0711 10:28:39.730567  4462 net.cpp:91] Creating Layer feat_p
I0711 10:28:39.730587  4462 net.cpp:425] feat_p <- ip2_p
I0711 10:28:39.730609  4462 net.cpp:399] feat_p -> feat_p
I0711 10:28:39.730769  4462 net.cpp:141] Setting up feat_p
I0711 10:28:39.730798  4462 net.cpp:148] Top shape: 100 2 (200)
I0711 10:28:39.730872  4462 net.cpp:156] Memory required for data: 16784400
I0711 10:28:39.730901  4462 net.cpp:484] Sharing parameters 'feat_w' owned by layer 'feat', param index 0
I0711 10:28:39.730921  4462 net.cpp:484] Sharing parameters 'feat_b' owned by layer 'feat', param index 1
I0711 10:28:39.730943  4462 layer_factory.hpp:77] Creating layer loss
I0711 10:28:39.730967  4462 net.cpp:91] Creating Layer loss
…
