…
I0714 09:02:41.730722 32496 solver.cpp:91] Creating training net from net file: examples/siamese/mnist_siamese_train_test_feat3.prototxt
I0714 09:02:41.731370 32496 net.cpp:313] The NetState phase (0) differed from the phase (1) specified by a rule in layer pair_data
I0714 09:02:41.731601 32496 net.cpp:49] Initializing net from parameters: 
name: "mnist_siamese_train_test_feat3"
state {
  phase: TRAIN
}
layer {
  name: "pair_data"
  type: "Data"
  top: "pair_data"
  top: "sim"
  include {
    phase: TRAIN
  }
  transform_param {
    scale: 0.00390625
  }
  data_param {
    source: "examples/siamese/mnist_siamese_train_leveldb_0to1"
    batch_size: 64
  }
}
layer {
  name: "slice_pair"
  type: "Slice"
  bottom: "pair_data"
  top: "data"
  top: "data_p"
  slice_param {
    slice_dim: 1
    slice_point: 1
  }
}
layer {
  name: "conv1"
  type: "Convolution"
  bottom: "data"
  top: "conv1"
  param {
    name: "conv1_w"
    lr_mult: 1
  }
  param {
    name: "conv1_b"
    lr_mult: 2
  }
  convolution_param {
    num_output: 20
    kernel_size: 5
    stride: 1
    weight_filler {
      type: "xavier"
    }
    bias_filler {
      type: "constant"
    }
  }
}
layer {
  name: "pool1"
  type: "Pooling"
  bottom: "conv1"
  top: "pool1"
  pooling_param {
    pool: MAX
    kernel_size: 2
    stride: 2
  }
}
layer {
  name: "conv2"
  type: "Convolution"
  bottom: "pool1"
  top: "conv2"
  param {
    name: "conv2_w"
    lr_mult: 1
  }
  param {
    name: "conv2_b"
    lr_mult: 2
  }
  convolution_param {
    num_output: 50
    kernel_size: 5
    stride: 1
    weight_filler {
      type: "xavier"
    }
    bias_filler {
      type: "constant"
    }
  }
}
layer {
  name: "pool2"
  type: "Pooling"
  bottom: "conv2"
  top: "pool2"
  pooling_param {
    pool: MAX
    kernel_size: 2
    stride: 2
  }
}
layer {
  name: "ip1"
  type: "InnerProduct"
  bottom: "pool2"
  top: "ip1"
  param {
    name: "ip1_w"
    lr_mult: 1
  }
  param {
    name: "ip1_b"
    lr_mult: 2
  }
  inner_product_param {
    num_output: 500
    weight_filler {
      type: "xavier"
    }
    bias_filler {
      type: "constant"
    }
  }
}
layer {
  name: "relu1"
  type: "ReLU"
  bottom: "ip1"
  top: "ip1"
}
layer {
  name: "ip2"
  type: "InnerProduct"
  bottom: "ip1"
  top: "ip2"
  param {
    name: "ip2_w"
    lr_mult: 1
  }
  param {
    name: "ip2_b"
    lr_mult: 2
  }
  inner_product_param {
    num_output: 10
    weight_filler {
      type: "xavier"
    }
    bias_filler {
      type: "constant"
    }
  }
}
layer {
  name: "feat"
  type: "InnerProduct"
  bottom: "ip2"
  top: "feat"
  param {
    name: "feat_w"
    lr_mult: 1
  }
  param {
    name: "feat_b"
    lr_mult: 2
  }
  inner_product_param {
    num_output: 3
    weight_filler {
      type: "xavier"
    }
    bias_filler {
      type: "constant"
    }
  }
}
layer {
  name: "conv1_p"
  type: "Convolution"
  bottom: "data_p"
  top: "conv1_p"
  param {
    name: "conv1_w"
    lr_mult: 1
  }
  param {
    name: "conv1_b"
    lr_mult: 2
  }
  convolution_param {
    num_output: 20
    kernel_size: 5
    stride: 1
    weight_filler {
      type: "xavier"
    }
    bias_filler {
      type: "constant"
    }
  }
}
layer {
  name: "pool1_p"
  type: "Pooling"
  bottom: "conv1_p"
  top: "pool1_p"
  pooling_param {
    pool: MAX
    kernel_size: 2
    stride: 2
  }
}
layer {
  name: "conv2_p"
  type: "Convolution"
  bottom: "pool1_p"
  top: "conv2_p"
  param {
    name: "conv2_w"
    lr_mult: 1
  }
  param {
    name: "conv2_b"
    lr_mult: 2
  }
  convolution_param {
    num_output: 50
    kernel_size: 5
    stride: 1
    weight_filler {
      type: "xavier"
    }
    bias_filler {
      type: "constant"
    }
  }
}
layer {
  name: "pool2_p"
  type: "Pooling"
  bottom: "conv2_p"
  top: "pool2_p"
  pooling_param {
    pool: MAX
    kernel_size: 2
    stride: 2
  }
}
layer {
  name: "ip1_p"
  type: "InnerProduct"
  bottom: "pool2_p"
  top: "ip1_p"
  param {
    name: "ip1_w"
    lr_mult: 1
  }
  param {
    name: "ip1_b"
    lr_mult: 2
  }
  inner_product_param {
    num_output: 500
    weight_filler {
      type: "xavier"
    }
    bias_filler {
      type: "constant"
    }
  }
}
layer {
  name: "relu1_p"
  type: "ReLU"
  bottom: "ip1_p"
  top: "ip1_p"
}
layer {
  name: "ip2_p"
  type: "InnerProduct"
  bottom: "ip1_p"
  top: "ip2_p"
  param {
    name: "ip2_w"
    lr_mult: 1
  }
  param {
    name: "ip2_b"
    lr_mult: 2
  }
  inner_product_param {
    num_output: 10
    weight_filler {
      type: "xavier"
    }
    bias_filler {
      type: "constant"
    }
  }
}
layer {
  name: "feat_p"
  type: "InnerProduct"
  bottom: "ip2_p"
  top: "feat_p"
  param {
    name: "feat_w"
    lr_mult: 1
  }
  param {
    name: "feat_b"
    lr_mult: 2
  }
  inner_product_param {
    num_output: 3
    weight_filler {
      type: "xavier"
    }
    bias_filler {
      type: "constant"
    }
  }
}
layer {
  name: "loss"
  type: "ContrastiveLoss"
  bottom: "feat"
  bottom: "feat_p"
  bottom: "sim"
  top: "loss"
  contrastive_loss_param {
    margin: 1
  }
}
I0714 09:02:41.736122 32496 layer_factory.hpp:77] Creating layer pair_data
I0714 09:02:41.739804 32496 net.cpp:91] Creating Layer pair_data
I0714 09:02:41.739984 32496 net.cpp:399] pair_data -> pair_data
I0714 09:02:41.740069 32496 net.cpp:399] pair_data -> sim
I0714 09:02:41.753098 32500 db_leveldb.cpp:18] Opened leveldb examples/siamese/mnist_siamese_train_leveldb_0to1
I0714 09:02:41.759313 32496 data_layer.cpp:41] output data size: 64,2,28,28
I0714 09:02:41.761554 32496 net.cpp:141] Setting up pair_data
I0714 09:02:41.761648 32496 net.cpp:148] Top shape: 64 2 28 28 (100352)
I0714 09:02:41.761659 32496 net.cpp:148] Top shape: 64 (64)
I0714 09:02:41.761663 32496 net.cpp:156] Memory required for data: 401664
I0714 09:02:41.761678 32496 layer_factory.hpp:77] Creating layer slice_pair
I0714 09:02:41.763272 32496 net.cpp:91] Creating Layer slice_pair
I0714 09:02:41.763319 32496 net.cpp:425] slice_pair <- pair_data
I0714 09:02:41.763350 32496 net.cpp:399] slice_pair -> data
I0714 09:02:41.763378 32496 net.cpp:399] slice_pair -> data_p
I0714 09:02:41.763404 32496 net.cpp:141] Setting up slice_pair
I0714 09:02:41.763417 32496 net.cpp:148] Top shape: 64 1 28 28 (50176)
I0714 09:02:41.763425 32496 net.cpp:148] Top shape: 64 1 28 28 (50176)
I0714 09:02:41.763430 32496 net.cpp:156] Memory required for data: 803072
I0714 09:02:41.763437 32496 layer_factory.hpp:77] Creating layer conv1
I0714 09:02:41.763463 32496 net.cpp:91] Creating Layer conv1
I0714 09:02:41.763469 32496 net.cpp:425] conv1 <- data
I0714 09:02:41.763479 32496 net.cpp:399] conv1 -> conv1
I0714 09:02:41.763559 32496 net.cpp:141] Setting up conv1
I0714 09:02:41.763568 32496 net.cpp:148] Top shape: 64 20 24 24 (737280)
I0714 09:02:41.763572 32496 net.cpp:156] Memory required for data: 3752192
I0714 09:02:41.763586 32496 layer_factory.hpp:77] Creating layer pool1
I0714 09:02:41.763597 32496 net.cpp:91] Creating Layer pool1
I0714 09:02:41.763602 32496 net.cpp:425] pool1 <- conv1
I0714 09:02:41.763609 32496 net.cpp:399] pool1 -> pool1
I0714 09:02:41.763641 32496 net.cpp:141] Setting up pool1
I0714 09:02:41.763648 32496 net.cpp:148] Top shape: 64 20 12 12 (184320)
I0714 09:02:41.763653 32496 net.cpp:156] Memory required for data: 4489472
I0714 09:02:41.763658 32496 layer_factory.hpp:77] Creating layer conv2
I0714 09:02:41.763679 32496 net.cpp:91] Creating Layer conv2
I0714 09:02:41.763684 32496 net.cpp:425] conv2 <- pool1
I0714 09:02:41.763691 32496 net.cpp:399] conv2 -> conv2
I0714 09:02:41.764093 32496 net.cpp:141] Setting up conv2
I0714 09:02:41.764109 32496 net.cpp:148] Top shape: 64 50 8 8 (204800)
I0714 09:02:41.764116 32496 net.cpp:156] Memory required for data: 5308672
I0714 09:02:41.764127 32496 layer_factory.hpp:77] Creating layer pool2
I0714 09:02:41.764135 32496 net.cpp:91] Creating Layer pool2
I0714 09:02:41.764176 32496 net.cpp:425] pool2 <- conv2
I0714 09:02:41.764188 32496 net.cpp:399] pool2 -> pool2
I0714 09:02:41.764201 32496 net.cpp:141] Setting up pool2
I0714 09:02:41.764209 32496 net.cpp:148] Top shape: 64 50 4 4 (51200)
I0714 09:02:41.764212 32496 net.cpp:156] Memory required for data: 5513472
I0714 09:02:41.764216 32496 layer_factory.hpp:77] Creating layer ip1
I0714 09:02:41.764235 32496 net.cpp:91] Creating Layer ip1
I0714 09:02:41.764240 32496 net.cpp:425] ip1 <- pool2
I0714 09:02:41.764246 32496 net.cpp:399] ip1 -> ip1
I0714 09:02:41.768594 32496 net.cpp:141] Setting up ip1
I0714 09:02:41.768715 32496 net.cpp:148] Top shape: 64 500 (32000)
I0714 09:02:41.768745 32496 net.cpp:156] Memory required for data: 5641472
I0714 09:02:41.768807 32496 layer_factory.hpp:77] Creating layer relu1
I0714 09:02:41.768836 32496 net.cpp:91] Creating Layer relu1
I0714 09:02:41.768852 32496 net.cpp:425] relu1 <- ip1
I0714 09:02:41.768882 32496 net.cpp:386] relu1 -> ip1 (in-place)
I0714 09:02:41.768916 32496 net.cpp:141] Setting up relu1
I0714 09:02:41.768929 32496 net.cpp:148] Top shape: 64 500 (32000)
I0714 09:02:41.768934 32496 net.cpp:156] Memory required for data: 5769472
I0714 09:02:41.768939 32496 layer_factory.hpp:77] Creating layer ip2
I0714 09:02:41.769167 32496 net.cpp:91] Creating Layer ip2
I0714 09:02:41.769197 32496 net.cpp:425] ip2 <- ip1
I0714 09:02:41.769232 32496 net.cpp:399] ip2 -> ip2
I0714 09:02:41.769385 32496 net.cpp:141] Setting up ip2
I0714 09:02:41.769418 32496 net.cpp:148] Top shape: 64 10 (640)
I0714 09:02:41.769433 32496 net.cpp:156] Memory required for data: 5772032
I0714 09:02:41.769454 32496 layer_factory.hpp:77] Creating layer feat
I0714 09:02:41.769485 32496 net.cpp:91] Creating Layer feat
I0714 09:02:41.769500 32496 net.cpp:425] feat <- ip2
I0714 09:02:41.769521 32496 net.cpp:399] feat -> feat
I0714 09:02:41.769557 32496 net.cpp:141] Setting up feat
I0714 09:02:41.769568 32496 net.cpp:148] Top shape: 64 3 (192)
I0714 09:02:41.769574 32496 net.cpp:156] Memory required for data: 5772800
I0714 09:02:41.769600 32496 layer_factory.hpp:77] Creating layer conv1_p
I0714 09:02:41.769757 32496 net.cpp:91] Creating Layer conv1_p
I0714 09:02:41.769779 32496 net.cpp:425] conv1_p <- data_p
I0714 09:02:41.769798 32496 net.cpp:399] conv1_p -> conv1_p
I0714 09:02:41.769979 32496 net.cpp:141] Setting up conv1_p
I0714 09:02:41.770025 32496 net.cpp:148] Top shape: 64 20 24 24 (737280)
I0714 09:02:41.770038 32496 net.cpp:156] Memory required for data: 8721920
I0714 09:02:41.770056 32496 net.cpp:484] Sharing parameters 'conv1_w' owned by layer 'conv1', param index 0
I0714 09:02:41.770072 32496 net.cpp:484] Sharing parameters 'conv1_b' owned by layer 'conv1', param index 1
I0714 09:02:41.770087 32496 layer_factory.hpp:77] Creating layer pool1_p
I0714 09:02:41.770112 32496 net.cpp:91] Creating Layer pool1_p
I0714 09:02:41.770126 32496 net.cpp:425] pool1_p <- conv1_p
I0714 09:02:41.770154 32496 net.cpp:399] pool1_p -> pool1_p
I0714 09:02:41.770195 32496 net.cpp:141] Setting up pool1_p
I0714 09:02:41.770213 32496 net.cpp:148] Top shape: 64 20 12 12 (184320)
I0714 09:02:41.770220 32496 net.cpp:156] Memory required for data: 9459200
I0714 09:02:41.770288 32496 layer_factory.hpp:77] Creating layer conv2_p
I0714 09:02:41.770452 32496 net.cpp:91] Creating Layer conv2_p
I0714 09:02:41.770480 32496 net.cpp:425] conv2_p <- pool1_p
I0714 09:02:41.770506 32496 net.cpp:399] conv2_p -> conv2_p
I0714 09:02:41.770900 32496 net.cpp:141] Setting up conv2_p
I0714 09:02:41.770917 32496 net.cpp:148] Top shape: 64 50 8 8 (204800)
I0714 09:02:41.770921 32496 net.cpp:156] Memory required for data: 10278400
I0714 09:02:41.770925 32496 net.cpp:484] Sharing parameters 'conv2_w' owned by layer 'conv2', param index 0
I0714 09:02:41.770930 32496 net.cpp:484] Sharing parameters 'conv2_b' owned by layer 'conv2', param index 1
I0714 09:02:41.770933 32496 layer_factory.hpp:77] Creating layer pool2_p
I0714 09:02:41.770941 32496 net.cpp:91] Creating Layer pool2_p
I0714 09:02:41.770946 32496 net.cpp:425] pool2_p <- conv2_p
I0714 09:02:41.770978 32496 net.cpp:399] pool2_p -> pool2_p
I0714 09:02:41.770989 32496 net.cpp:141] Setting up pool2_p
I0714 09:02:41.770995 32496 net.cpp:148] Top shape: 64 50 4 4 (51200)
I0714 09:02:41.770998 32496 net.cpp:156] Memory required for data: 10483200
I0714 09:02:41.771000 32496 layer_factory.hpp:77] Creating layer ip1_p
I0714 09:02:41.771011 32496 net.cpp:91] Creating Layer ip1_p
I0714 09:02:41.771014 32496 net.cpp:425] ip1_p <- pool2_p
I0714 09:02:41.771021 32496 net.cpp:399] ip1_p -> ip1_p
I0714 09:02:41.774085 32496 net.cpp:141] Setting up ip1_p
I0714 09:02:41.774118 32496 net.cpp:148] Top shape: 64 500 (32000)
I0714 09:02:41.774124 32496 net.cpp:156] Memory required for data: 10611200
I0714 09:02:41.774132 32496 net.cpp:484] Sharing parameters 'ip1_w' owned by layer 'ip1', param index 0
I0714 09:02:41.774137 32496 net.cpp:484] Sharing parameters 'ip1_b' owned by layer 'ip1', param index 1
I0714 09:02:41.774140 32496 layer_factory.hpp:77] Creating layer relu1_p
I0714 09:02:41.774149 32496 net.cpp:91] Creating Layer relu1_p
I0714 09:02:41.774154 32496 net.cpp:425] relu1_p <- ip1_p
I0714 09:02:41.774159 32496 net.cpp:386] relu1_p -> ip1_p (in-place)
I0714 09:02:41.774168 32496 net.cpp:141] Setting up relu1_p
I0714 09:02:41.774173 32496 net.cpp:148] Top shape: 64 500 (32000)
I0714 09:02:41.774176 32496 net.cpp:156] Memory required for data: 10739200
I0714 09:02:41.774178 32496 layer_factory.hpp:77] Creating layer ip2_p
I0714 09:02:41.774190 32496 net.cpp:91] Creating Layer ip2_p
I0714 09:02:41.774194 32496 net.cpp:425] ip2_p <- ip1_p
I0714 09:02:41.774205 32496 net.cpp:399] ip2_p -> ip2_p
I0714 09:02:41.774360 32496 net.cpp:141] Setting up ip2_p
I0714 09:02:41.774374 32496 net.cpp:148] Top shape: 64 10 (640)
I0714 09:02:41.774375 32496 net.cpp:156] Memory required for data: 10741760
I0714 09:02:41.774382 32496 net.cpp:484] Sharing parameters 'ip2_w' owned by layer 'ip2', param index 0
I0714 09:02:41.774387 32496 net.cpp:484] Sharing parameters 'ip2_b' owned by layer 'ip2', param index 1
I0714 09:02:41.774390 32496 layer_factory.hpp:77] Creating layer feat_p
I0714 09:02:41.774397 32496 net.cpp:91] Creating Layer feat_p
I0714 09:02:41.774400 32496 net.cpp:425] feat_p <- ip2_p
I0714 09:02:41.774405 32496 net.cpp:399] feat_p -> feat_p
I0714 09:02:41.774417 32496 net.cpp:141] Setting up feat_p
I0714 09:02:41.774420 32496 net.cpp:148] Top shape: 64 3 (192)
I0714 09:02:41.774423 32496 net.cpp:156] Memory required for data: 10742528
I0714 09:02:41.774426 32496 net.cpp:484] Sharing parameters 'feat_w' owned by layer 'feat', param index 0
I0714 09:02:41.774430 32496 net.cpp:484] Sharing parameters 'feat_b' owned by layer 'feat', param index 1
I0714 09:02:41.774431 32496 layer_factory.hpp:77] Creating layer loss
I0714 09:02:41.775557 32496 net.cpp:91] Creating Layer loss
…
I0714 09:02:41.777328 32496 solver.cpp:181] Creating test net (#0) specified by net file: examples/siamese/mnist_siamese_train_test_feat3.prototxt
I0714 09:02:41.777444 32496 net.cpp:313] The NetState phase (1) differed from the phase (0) specified by a rule in layer pair_data
I0714 09:02:41.778087 32496 net.cpp:49] Initializing net from parameters: 
name: "mnist_siamese_train_test_feat3"
state {
  phase: TEST
}
layer {
  name: "pair_data"
  type: "Data"
  top: "pair_data"
  top: "sim"
  include {
    phase: TEST
  }
  transform_param {
    scale: 0.00390625
  }
  data_param {
    source: "examples/siamese/mnist_siamese_test_leveldb_0to1"
    batch_size: 100
  }
}
layer {
  name: "slice_pair"
  type: "Slice"
  bottom: "pair_data"
  top: "data"
  top: "data_p"
  slice_param {
    slice_dim: 1
    slice_point: 1
  }
}
layer {
  name: "conv1"
  type: "Convolution"
  bottom: "data"
  top: "conv1"
  param {
    name: "conv1_w"
    lr_mult: 1
  }
  param {
    name: "conv1_b"
    lr_mult: 2
  }
  convolution_param {
    num_output: 20
    kernel_size: 5
    stride: 1
    weight_filler {
      type: "xavier"
    }
    bias_filler {
      type: "constant"
    }
  }
}
layer {
  name: "pool1"
  type: "Pooling"
  bottom: "conv1"
  top: "pool1"
  pooling_param {
    pool: MAX
    kernel_size: 2
    stride: 2
  }
}
layer {
  name: "conv2"
  type: "Convolution"
  bottom: "pool1"
  top: "conv2"
  param {
    name: "conv2_w"
    lr_mult: 1
  }
  param {
    name: "conv2_b"
    lr_mult: 2
  }
  convolution_param {
    num_output: 50
    kernel_size: 5
    stride: 1
    weight_filler {
      type: "xavier"
    }
    bias_filler {
      type: "constant"
    }
  }
}
layer {
  name: "pool2"
  type: "Pooling"
  bottom: "conv2"
  top: "pool2"
  pooling_param {
    pool: MAX
    kernel_size: 2
    stride: 2
  }
}
layer {
  name: "ip1"
  type: "InnerProduct"
  bottom: "pool2"
  top: "ip1"
  param {
    name: "ip1_w"
    lr_mult: 1
  }
  param {
    name: "ip1_b"
    lr_mult: 2
  }
  inner_product_param {
    num_output: 500
    weight_filler {
      type: "xavier"
    }
    bias_filler {
      type: "constant"
    }
  }
}
layer {
  name: "relu1"
  type: "ReLU"
  bottom: "ip1"
  top: "ip1"
}
layer {
  name: "ip2"
  type: "InnerProduct"
  bottom: "ip1"
  top: "ip2"
  param {
    name: "ip2_w"
    lr_mult: 1
  }
  param {
    name: "ip2_b"
    lr_mult: 2
  }
  inner_product_param {
    num_output: 10
    weight_filler {
      type: "xavier"
    }
    bias_filler {
      type: "constant"
    }
  }
}
layer {
  name: "feat"
  type: "InnerProduct"
  bottom: "ip2"
  top: "feat"
  param {
    name: "feat_w"
    lr_mult: 1
  }
  param {
    name: "feat_b"
    lr_mult: 2
  }
  inner_product_param {
    num_output: 3
    weight_filler {
      type: "xavier"
    }
    bias_filler {
      type: "constant"
    }
  }
}
layer {
  name: "conv1_p"
  type: "Convolution"
  bottom: "data_p"
  top: "conv1_p"
  param {
    name: "conv1_w"
    lr_mult: 1
  }
  param {
    name: "conv1_b"
    lr_mult: 2
  }
  convolution_param {
    num_output: 20
    kernel_size: 5
    stride: 1
    weight_filler {
      type: "xavier"
    }
    bias_filler {
      type: "constant"
    }
  }
}
layer {
  name: "pool1_p"
  type: "Pooling"
  bottom: "conv1_p"
  top: "pool1_p"
  pooling_param {
    pool: MAX
    kernel_size: 2
    stride: 2
  }
}
layer {
  name: "conv2_p"
  type: "Convolution"
  bottom: "pool1_p"
  top: "conv2_p"
  param {
    name: "conv2_w"
    lr_mult: 1
  }
  param {
    name: "conv2_b"
    lr_mult: 2
  }
  convolution_param {
    num_output: 50
    kernel_size: 5
    stride: 1
    weight_filler {
      type: "xavier"
    }
    bias_filler {
      type: "constant"
    }
  }
}
layer {
  name: "pool2_p"
  type: "Pooling"
  bottom: "conv2_p"
  top: "pool2_p"
  pooling_param {
    pool: MAX
    kernel_size: 2
    stride: 2
  }
}
layer {
  name: "ip1_p"
  type: "InnerProduct"
  bottom: "pool2_p"
  top: "ip1_p"
  param {
    name: "ip1_w"
    lr_mult: 1
  }
  param {
    name: "ip1_b"
    lr_mult: 2
  }
  inner_product_param {
    num_output: 500
    weight_filler {
      type: "xavier"
    }
    bias_filler {
      type: "constant"
    }
  }
}
layer {
  name: "relu1_p"
  type: "ReLU"
  bottom: "ip1_p"
  top: "ip1_p"
}
layer {
  name: "ip2_p"
  type: "InnerProduct"
  bottom: "ip1_p"
  top: "ip2_p"
  param {
    name: "ip2_w"
    lr_mult: 1
  }
  param {
    name: "ip2_b"
    lr_mult: 2
  }
  inner_product_param {
    num_output: 10
    weight_filler {
      type: "xavier"
    }
    bias_filler {
      type: "constant"
    }
  }
}
layer {
  name: "feat_p"
  type: "InnerProduct"
  bottom: "ip2_p"
  top: "feat_p"
  param {
    name: "feat_w"
    lr_mult: 1
  }
  param {
    name: "feat_b"
    lr_mult: 2
  }
  inner_product_param {
    num_output: 3
    weight_filler {
      type: "xavier"
    }
    bias_filler {
      type: "constant"
    }
  }
}
layer {
  name: "loss"
  type: "ContrastiveLoss"
  bottom: "feat"
  bottom: "feat_p"
  bottom: "sim"
  top: "loss"
  contrastive_loss_param {
    margin: 1
  }
}
I0714 09:02:41.778221 32496 layer_factory.hpp:77] Creating layer pair_data
I0714 09:02:41.778833 32496 net.cpp:91] Creating Layer pair_data
I0714 09:02:41.778872 32496 net.cpp:399] pair_data -> pair_data
I0714 09:02:41.778894 32496 net.cpp:399] pair_data -> sim
I0714 09:02:41.801511 32502 db_leveldb.cpp:18] Opened leveldb examples/siamese/mnist_siamese_test_leveldb_0to1
I0714 09:02:41.806341 32496 data_layer.cpp:41] output data size: 100,2,28,28
I0714 09:02:41.811223 32496 net.cpp:141] Setting up pair_data
I0714 09:02:41.811259 32496 net.cpp:148] Top shape: 100 2 28 28 (156800)
I0714 09:02:41.811266 32496 net.cpp:148] Top shape: 100 (100)
I0714 09:02:41.811270 32496 net.cpp:156] Memory required for data: 627600
I0714 09:02:41.811277 32496 layer_factory.hpp:77] Creating layer slice_pair
I0714 09:02:41.811292 32496 net.cpp:91] Creating Layer slice_pair
I0714 09:02:41.811296 32496 net.cpp:425] slice_pair <- pair_data
I0714 09:02:41.811305 32496 net.cpp:399] slice_pair -> data
I0714 09:02:41.811316 32496 net.cpp:399] slice_pair -> data_p
I0714 09:02:41.811328 32496 net.cpp:141] Setting up slice_pair
I0714 09:02:41.811333 32496 net.cpp:148] Top shape: 100 1 28 28 (78400)
I0714 09:02:41.811337 32496 net.cpp:148] Top shape: 100 1 28 28 (78400)
I0714 09:02:41.811339 32496 net.cpp:156] Memory required for data: 1254800
I0714 09:02:41.811343 32496 layer_factory.hpp:77] Creating layer conv1
I0714 09:02:41.811354 32496 net.cpp:91] Creating Layer conv1
I0714 09:02:41.811357 32496 net.cpp:425] conv1 <- data
I0714 09:02:41.811362 32496 net.cpp:399] conv1 -> conv1
I0714 09:02:41.811393 32496 net.cpp:141] Setting up conv1
I0714 09:02:41.811398 32496 net.cpp:148] Top shape: 100 20 24 24 (1152000)
I0714 09:02:41.811400 32496 net.cpp:156] Memory required for data: 5862800
I0714 09:02:41.811408 32496 layer_factory.hpp:77] Creating layer pool1
I0714 09:02:41.811414 32496 net.cpp:91] Creating Layer pool1
I0714 09:02:41.811416 32496 net.cpp:425] pool1 <- conv1
I0714 09:02:41.811420 32496 net.cpp:399] pool1 -> pool1
I0714 09:02:41.811429 32496 net.cpp:141] Setting up pool1
I0714 09:02:41.811434 32496 net.cpp:148] Top shape: 100 20 12 12 (288000)
I0714 09:02:41.811436 32496 net.cpp:156] Memory required for data: 7014800
I0714 09:02:41.811439 32496 layer_factory.hpp:77] Creating layer conv2
I0714 09:02:41.811446 32496 net.cpp:91] Creating Layer conv2
I0714 09:02:41.811473 32496 net.cpp:425] conv2 <- pool1
I0714 09:02:41.811480 32496 net.cpp:399] conv2 -> conv2
I0714 09:02:41.811689 32496 net.cpp:141] Setting up conv2
I0714 09:02:41.811694 32496 net.cpp:148] Top shape: 100 50 8 8 (320000)
I0714 09:02:41.811697 32496 net.cpp:156] Memory required for data: 8294800
I0714 09:02:41.811703 32496 layer_factory.hpp:77] Creating layer pool2
I0714 09:02:41.811708 32496 net.cpp:91] Creating Layer pool2
I0714 09:02:41.811712 32496 net.cpp:425] pool2 <- conv2
I0714 09:02:41.811724 32496 net.cpp:399] pool2 -> pool2
I0714 09:02:41.811730 32496 net.cpp:141] Setting up pool2
I0714 09:02:41.811734 32496 net.cpp:148] Top shape: 100 50 4 4 (80000)
I0714 09:02:41.811736 32496 net.cpp:156] Memory required for data: 8614800
I0714 09:02:41.811739 32496 layer_factory.hpp:77] Creating layer ip1
I0714 09:02:41.811745 32496 net.cpp:91] Creating Layer ip1
I0714 09:02:41.811748 32496 net.cpp:425] ip1 <- pool2
I0714 09:02:41.811751 32496 net.cpp:399] ip1 -> ip1
I0714 09:02:41.812012 32503 blocking_queue.cpp:50] Waiting for data
I0714 09:02:41.819670 32496 net.cpp:141] Setting up ip1
I0714 09:02:41.825716 32496 net.cpp:148] Top shape: 100 500 (50000)
I0714 09:02:41.825974 32496 net.cpp:156] Memory required for data: 8814800
I0714 09:02:41.826043 32496 layer_factory.hpp:77] Creating layer relu1
I0714 09:02:41.826068 32496 net.cpp:91] Creating Layer relu1
I0714 09:02:41.826084 32496 net.cpp:425] relu1 <- ip1
I0714 09:02:41.826102 32496 net.cpp:386] relu1 -> ip1 (in-place)
I0714 09:02:41.826139 32496 net.cpp:141] Setting up relu1
I0714 09:02:41.826169 32496 net.cpp:148] Top shape: 100 500 (50000)
I0714 09:02:41.826189 32496 net.cpp:156] Memory required for data: 9014800
I0714 09:02:41.826207 32496 layer_factory.hpp:77] Creating layer ip2
I0714 09:02:41.826246 32496 net.cpp:91] Creating Layer ip2
I0714 09:02:41.826261 32496 net.cpp:425] ip2 <- ip1
I0714 09:02:41.826277 32496 net.cpp:399] ip2 -> ip2
I0714 09:02:41.826354 32496 net.cpp:141] Setting up ip2
I0714 09:02:41.826375 32496 net.cpp:148] Top shape: 100 10 (1000)
I0714 09:02:41.826387 32496 net.cpp:156] Memory required for data: 9018800
I0714 09:02:41.826405 32496 layer_factory.hpp:77] Creating layer feat
I0714 09:02:41.826423 32496 net.cpp:91] Creating Layer feat
I0714 09:02:41.826437 32496 net.cpp:425] feat <- ip2
I0714 09:02:41.826457 32496 net.cpp:399] feat -> feat
I0714 09:02:41.826485 32496 net.cpp:141] Setting up feat
I0714 09:02:41.826503 32496 net.cpp:148] Top shape: 100 3 (300)
I0714 09:02:41.826516 32496 net.cpp:156] Memory required for data: 9020000
I0714 09:02:41.826535 32496 layer_factory.hpp:77] Creating layer conv1_p
I0714 09:02:41.826556 32496 net.cpp:91] Creating Layer conv1_p
I0714 09:02:41.826571 32496 net.cpp:425] conv1_p <- data_p
I0714 09:02:41.826588 32496 net.cpp:399] conv1_p -> conv1_p
I0714 09:02:41.826640 32496 net.cpp:141] Setting up conv1_p
I0714 09:02:41.826660 32496 net.cpp:148] Top shape: 100 20 24 24 (1152000)
I0714 09:02:41.826673 32496 net.cpp:156] Memory required for data: 13628000
I0714 09:02:41.826688 32496 net.cpp:484] Sharing parameters 'conv1_w' owned by layer 'conv1', param index 0
I0714 09:02:41.826704 32496 net.cpp:484] Sharing parameters 'conv1_b' owned by layer 'conv1', param index 1
I0714 09:02:41.826717 32496 layer_factory.hpp:77] Creating layer pool1_p
I0714 09:02:41.826735 32496 net.cpp:91] Creating Layer pool1_p
I0714 09:02:41.826747 32496 net.cpp:425] pool1_p <- conv1_p
I0714 09:02:41.826764 32496 net.cpp:399] pool1_p -> pool1_p
I0714 09:02:41.826787 32496 net.cpp:141] Setting up pool1_p
I0714 09:02:41.826808 32496 net.cpp:148] Top shape: 100 20 12 12 (288000)
I0714 09:02:41.826822 32496 net.cpp:156] Memory required for data: 14780000
I0714 09:02:41.826834 32496 layer_factory.hpp:77] Creating layer conv2_p
I0714 09:02:41.826855 32496 net.cpp:91] Creating Layer conv2_p
I0714 09:02:41.826870 32496 net.cpp:425] conv2_p <- pool1_p
I0714 09:02:41.826886 32496 net.cpp:399] conv2_p -> conv2_p
I0714 09:02:41.827121 32496 net.cpp:141] Setting up conv2_p
I0714 09:02:41.827149 32496 net.cpp:148] Top shape: 100 50 8 8 (320000)
I0714 09:02:41.827172 32496 net.cpp:156] Memory required for data: 16060000
I0714 09:02:41.827184 32496 net.cpp:484] Sharing parameters 'conv2_w' owned by layer 'conv2', param index 0
I0714 09:02:41.827198 32496 net.cpp:484] Sharing parameters 'conv2_b' owned by layer 'conv2', param index 1
I0714 09:02:41.827210 32496 layer_factory.hpp:77] Creating layer pool2_p
I0714 09:02:41.827225 32496 net.cpp:91] Creating Layer pool2_p
I0714 09:02:41.827237 32496 net.cpp:425] pool2_p <- conv2_p
I0714 09:02:41.827253 32496 net.cpp:399] pool2_p -> pool2_p
I0714 09:02:41.827272 32496 net.cpp:141] Setting up pool2_p
I0714 09:02:41.827287 32496 net.cpp:148] Top shape: 100 50 4 4 (80000)
I0714 09:02:41.827298 32496 net.cpp:156] Memory required for data: 16380000
I0714 09:02:41.827311 32496 layer_factory.hpp:77] Creating layer ip1_p
I0714 09:02:41.827327 32496 net.cpp:91] Creating Layer ip1_p
I0714 09:02:41.827338 32496 net.cpp:425] ip1_p <- pool2_p
I0714 09:02:41.827354 32496 net.cpp:399] ip1_p -> ip1_p
I0714 09:02:41.830291 32496 net.cpp:141] Setting up ip1_p
I0714 09:02:41.830426 32496 net.cpp:148] Top shape: 100 500 (50000)
I0714 09:02:41.830452 32496 net.cpp:156] Memory required for data: 16580000
I0714 09:02:41.830469 32496 net.cpp:484] Sharing parameters 'ip1_w' owned by layer 'ip1', param index 0
I0714 09:02:41.830484 32496 net.cpp:484] Sharing parameters 'ip1_b' owned by layer 'ip1', param index 1
I0714 09:02:41.830497 32496 layer_factory.hpp:77] Creating layer relu1_p
I0714 09:02:41.830514 32496 net.cpp:91] Creating Layer relu1_p
I0714 09:02:41.830528 32496 net.cpp:425] relu1_p <- ip1_p
I0714 09:02:41.830562 32496 net.cpp:386] relu1_p -> ip1_p (in-place)
I0714 09:02:41.830585 32496 net.cpp:141] Setting up relu1_p
I0714 09:02:41.830600 32496 net.cpp:148] Top shape: 100 500 (50000)
I0714 09:02:41.830612 32496 net.cpp:156] Memory required for data: 16780000
I0714 09:02:41.830624 32496 layer_factory.hpp:77] Creating layer ip2_p
I0714 09:02:41.830643 32496 net.cpp:91] Creating Layer ip2_p
I0714 09:02:41.830659 32496 net.cpp:425] ip2_p <- ip1_p
I0714 09:02:41.830674 32496 net.cpp:399] ip2_p -> ip2_p
I0714 09:02:41.830737 32496 net.cpp:141] Setting up ip2_p
I0714 09:02:41.830755 32496 net.cpp:148] Top shape: 100 10 (1000)
I0714 09:02:41.830767 32496 net.cpp:156] Memory required for data: 16784000
I0714 09:02:41.830782 32496 net.cpp:484] Sharing parameters 'ip2_w' owned by layer 'ip2', param index 0
I0714 09:02:41.830796 32496 net.cpp:484] Sharing parameters 'ip2_b' owned by layer 'ip2', param index 1
I0714 09:02:41.830808 32496 layer_factory.hpp:77] Creating layer feat_p
I0714 09:02:41.830823 32496 net.cpp:91] Creating Layer feat_p
I0714 09:02:41.830837 32496 net.cpp:425] feat_p <- ip2_p
I0714 09:02:41.830850 32496 net.cpp:399] feat_p -> feat_p
I0714 09:02:41.830873 32496 net.cpp:141] Setting up feat_p
I0714 09:02:41.830888 32496 net.cpp:148] Top shape: 100 3 (300)
I0714 09:02:41.830900 32496 net.cpp:156] Memory required for data: 16785200
I0714 09:02:41.830914 32496 net.cpp:484] Sharing parameters 'feat_w' owned by layer 'feat', param index 0
I0714 09:02:41.830925 32496 net.cpp:484] Sharing parameters 'feat_b' owned by layer 'feat', param index 1
I0714 09:02:41.830938 32496 layer_factory.hpp:77] Creating layer loss
I0714 09:02:41.830955 32496 net.cpp:91] Creating Layer loss
…
