…
I0711 12:34:57.077278 32652 solver.cpp:91] Creating training net from net file: examples/siamese/mnist_siamese_train_test.prototxt
I0711 12:34:57.078256 32652 net.cpp:313] The NetState phase (0) differed from the phase (1) specified by a rule in layer pair_data
I0711 12:34:57.078510 32652 net.cpp:49] Initializing net from parameters: 
name: "mnist_siamese_train_test"
state {
  phase: TRAIN
}
layer {
  name: "pair_data"
  type: "Data"
  top: "pair_data"
  top: "sim"
  include {
    phase: TRAIN
  }
  transform_param {
    scale: 0.00390625
  }
  data_param {
    source: "examples/siamese/mnist_siamese_train_leveldb_0to6"
    batch_size: 64
  }
}
layer {
  name: "slice_pair"
  type: "Slice"
  bottom: "pair_data"
  top: "data"
  top: "data_p"
  slice_param {
    slice_dim: 1
    slice_point: 1
  }
}
layer {
  name: "conv1"
  type: "Convolution"
  bottom: "data"
  top: "conv1"
  param {
    name: "conv1_w"
    lr_mult: 1
  }
  param {
    name: "conv1_b"
    lr_mult: 2
  }
  convolution_param {
    num_output: 20
    kernel_size: 5
    stride: 1
    weight_filler {
      type: "xavier"
    }
    bias_filler {
      type: "constant"
    }
  }
}
layer {
  name: "pool1"
  type: "Pooling"
  bottom: "conv1"
  top: "pool1"
  pooling_param {
    pool: MAX
    kernel_size: 2
    stride: 2
  }
}
layer {
  name: "conv2"
  type: "Convolution"
  bottom: "pool1"
  top: "conv2"
  param {
    name: "conv2_w"
    lr_mult: 1
  }
  param {
    name: "conv2_b"
    lr_mult: 2
  }
  convolution_param {
    num_output: 50
    kernel_size: 5
    stride: 1
    weight_filler {
      type: "xavier"
    }
    bias_filler {
      type: "constant"
    }
  }
}
layer {
  name: "pool2"
  type: "Pooling"
  bottom: "conv2"
  top: "pool2"
  pooling_param {
    pool: MAX
    kernel_size: 2
    stride: 2
  }
}
layer {
  name: "ip1"
  type: "InnerProduct"
  bottom: "pool2"
  top: "ip1"
  param {
    name: "ip1_w"
    lr_mult: 1
  }
  param {
    name: "ip1_b"
    lr_mult: 2
  }
  inner_product_param {
    num_output: 500
    weight_filler {
      type: "xavier"
    }
    bias_filler {
      type: "constant"
    }
  }
}
layer {
  name: "relu1"
  type: "ReLU"
  bottom: "ip1"
  top: "ip1"
}
layer {
  name: "ip2"
  type: "InnerProduct"
  bottom: "ip1"
  top: "ip2"
  param {
    name: "ip2_w"
    lr_mult: 1
  }
  param {
    name: "ip2_b"
    lr_mult: 2
  }
  inner_product_param {
    num_output: 10
    weight_filler {
      type: "xavier"
    }
    bias_filler {
      type: "constant"
    }
  }
}
layer {
  name: "feat"
  type: "InnerProduct"
  bottom: "ip2"
  top: "feat"
  param {
    name: "feat_w"
    lr_mult: 1
  }
  param {
    name: "feat_b"
    lr_mult: 2
  }
  inner_product_param {
    num_output: 2
    weight_filler {
      type: "xavier"
    }
    bias_filler {
      type: "constant"
    }
  }
}
layer {
  name: "conv1_p"
  type: "Convolution"
  bottom: "data_p"
  top: "conv1_p"
  param {
    name: "conv1_w"
    lr_mult: 1
  }
  param {
    name: "conv1_b"
    lr_mult: 2
  }
  convolution_param {
    num_output: 20
    kernel_size: 5
    stride: 1
    weight_filler {
      type: "xavier"
    }
    bias_filler {
      type: "constant"
    }
  }
}
layer {
  name: "pool1_p"
  type: "Pooling"
  bottom: "conv1_p"
  top: "pool1_p"
  pooling_param {
    pool: MAX
    kernel_size: 2
    stride: 2
  }
}
layer {
  name: "conv2_p"
  type: "Convolution"
  bottom: "pool1_p"
  top: "conv2_p"
  param {
    name: "conv2_w"
    lr_mult: 1
  }
  param {
    name: "conv2_b"
    lr_mult: 2
  }
  convolution_param {
    num_output: 50
    kernel_size: 5
    stride: 1
    weight_filler {
      type: "xavier"
    }
    bias_filler {
      type: "constant"
    }
  }
}
layer {
  name: "pool2_p"
  type: "Pooling"
  bottom: "conv2_p"
  top: "pool2_p"
  pooling_param {
    pool: MAX
    kernel_size: 2
    stride: 2
  }
}
layer {
  name: "ip1_p"
  type: "InnerProduct"
  bottom: "pool2_p"
  top: "ip1_p"
  param {
    name: "ip1_w"
    lr_mult: 1
  }
  param {
    name: "ip1_b"
    lr_mult: 2
  }
  inner_product_param {
    num_output: 500
    weight_filler {
      type: "xavier"
    }
    bias_filler {
      type: "constant"
    }
  }
}
layer {
  name: "relu1_p"
  type: "ReLU"
  bottom: "ip1_p"
  top: "ip1_p"
}
layer {
  name: "ip2_p"
  type: "InnerProduct"
  bottom: "ip1_p"
  top: "ip2_p"
  param {
    name: "ip2_w"
    lr_mult: 1
  }
  param {
    name: "ip2_b"
    lr_mult: 2
  }
  inner_product_param {
    num_output: 10
    weight_filler {
      type: "xavier"
    }
    bias_filler {
      type: "constant"
    }
  }
}
layer {
  name: "feat_p"
  type: "InnerProduct"
  bottom: "ip2_p"
  top: "feat_p"
  param {
    name: "feat_w"
    lr_mult: 1
  }
  param {
    name: "feat_b"
    lr_mult: 2
  }
  inner_product_param {
    num_output: 2
    weight_filler {
      type: "xavier"
    }
    bias_filler {
      type: "constant"
    }
  }
}
layer {
  name: "loss"
  type: "ContrastiveLoss"
  bottom: "feat"
  bottom: "feat_p"
  bottom: "sim"
  top: "loss"
  contrastive_loss_param {
    margin: 1
  }
}
I0711 12:34:57.078668 32652 layer_factory.hpp:77] Creating layer pair_data
I0711 12:34:57.079092 32652 net.cpp:91] Creating Layer pair_data
I0711 12:34:57.079104 32652 net.cpp:399] pair_data -> pair_data
I0711 12:34:57.079133 32652 net.cpp:399] pair_data -> sim
I0711 12:34:57.298326 32658 db_leveldb.cpp:18] Opened leveldb examples/siamese/mnist_siamese_train_leveldb_0to6
I0711 12:34:57.317960 32652 data_layer.cpp:41] output data size: 64,2,28,28
I0711 12:34:57.320003 32652 net.cpp:141] Setting up pair_data
I0711 12:34:57.320026 32652 net.cpp:148] Top shape: 64 2 28 28 (100352)
I0711 12:34:57.320039 32652 net.cpp:148] Top shape: 64 (64)
I0711 12:34:57.320044 32652 net.cpp:156] Memory required for data: 401664
I0711 12:34:57.320058 32652 layer_factory.hpp:77] Creating layer slice_pair
I0711 12:34:57.320083 32652 net.cpp:91] Creating Layer slice_pair
I0711 12:34:57.320091 32652 net.cpp:425] slice_pair <- pair_data
I0711 12:34:57.320106 32652 net.cpp:399] slice_pair -> data
I0711 12:34:57.320122 32652 net.cpp:399] slice_pair -> data_p
I0711 12:34:57.320170 32652 net.cpp:141] Setting up slice_pair
I0711 12:34:57.320181 32652 net.cpp:148] Top shape: 64 1 28 28 (50176)
I0711 12:34:57.320188 32652 net.cpp:148] Top shape: 64 1 28 28 (50176)
I0711 12:34:57.320194 32652 net.cpp:156] Memory required for data: 803072
I0711 12:34:57.320200 32652 layer_factory.hpp:77] Creating layer conv1
I0711 12:34:57.320219 32652 net.cpp:91] Creating Layer conv1
I0711 12:34:57.320225 32652 net.cpp:425] conv1 <- data
I0711 12:34:57.320237 32652 net.cpp:399] conv1 -> conv1
I0711 12:34:57.321352 32652 net.cpp:141] Setting up conv1
I0711 12:34:57.321368 32652 net.cpp:148] Top shape: 64 20 24 24 (737280)
I0711 12:34:57.321374 32652 net.cpp:156] Memory required for data: 3752192
I0711 12:34:57.321390 32652 layer_factory.hpp:77] Creating layer pool1
I0711 12:34:57.321403 32652 net.cpp:91] Creating Layer pool1
I0711 12:34:57.321409 32652 net.cpp:425] pool1 <- conv1
I0711 12:34:57.321418 32652 net.cpp:399] pool1 -> pool1
I0711 12:34:57.321475 32652 net.cpp:141] Setting up pool1
I0711 12:34:57.321483 32652 net.cpp:148] Top shape: 64 20 12 12 (184320)
I0711 12:34:57.321488 32652 net.cpp:156] Memory required for data: 4489472
I0711 12:34:57.321493 32652 layer_factory.hpp:77] Creating layer conv2
I0711 12:34:57.321508 32652 net.cpp:91] Creating Layer conv2
I0711 12:34:57.321514 32652 net.cpp:425] conv2 <- pool1
I0711 12:34:57.321527 32652 net.cpp:399] conv2 -> conv2
I0711 12:34:57.322671 32652 net.cpp:141] Setting up conv2
I0711 12:34:57.322690 32652 net.cpp:148] Top shape: 64 50 8 8 (204800)
I0711 12:34:57.322695 32652 net.cpp:156] Memory required for data: 5308672
I0711 12:34:57.322707 32652 layer_factory.hpp:77] Creating layer pool2
I0711 12:34:57.322739 32652 net.cpp:91] Creating Layer pool2
I0711 12:34:57.322746 32652 net.cpp:425] pool2 <- conv2
I0711 12:34:57.322756 32652 net.cpp:399] pool2 -> pool2
I0711 12:34:57.322804 32652 net.cpp:141] Setting up pool2
I0711 12:34:57.322814 32652 net.cpp:148] Top shape: 64 50 4 4 (51200)
I0711 12:34:57.322820 32652 net.cpp:156] Memory required for data: 5513472
I0711 12:34:57.322826 32652 layer_factory.hpp:77] Creating layer ip1
I0711 12:34:57.322839 32652 net.cpp:91] Creating Layer ip1
I0711 12:34:57.322844 32652 net.cpp:425] ip1 <- pool2
I0711 12:34:57.322854 32652 net.cpp:399] ip1 -> ip1
I0711 12:34:57.327056 32652 net.cpp:141] Setting up ip1
I0711 12:34:57.327080 32652 net.cpp:148] Top shape: 64 500 (32000)
I0711 12:34:57.327087 32652 net.cpp:156] Memory required for data: 5641472
I0711 12:34:57.327101 32652 layer_factory.hpp:77] Creating layer relu1
I0711 12:34:57.327112 32652 net.cpp:91] Creating Layer relu1
I0711 12:34:57.327119 32652 net.cpp:425] relu1 <- ip1
I0711 12:34:57.327128 32652 net.cpp:386] relu1 -> ip1 (in-place)
I0711 12:34:57.327142 32652 net.cpp:141] Setting up relu1
I0711 12:34:57.327149 32652 net.cpp:148] Top shape: 64 500 (32000)
I0711 12:34:57.327155 32652 net.cpp:156] Memory required for data: 5769472
I0711 12:34:57.327162 32652 layer_factory.hpp:77] Creating layer ip2
I0711 12:34:57.327178 32652 net.cpp:91] Creating Layer ip2
I0711 12:34:57.327184 32652 net.cpp:425] ip2 <- ip1
I0711 12:34:57.327196 32652 net.cpp:399] ip2 -> ip2
I0711 12:34:57.328254 32652 net.cpp:141] Setting up ip2
I0711 12:34:57.328277 32652 net.cpp:148] Top shape: 64 10 (640)
I0711 12:34:57.328287 32652 net.cpp:156] Memory required for data: 5772032
I0711 12:34:57.328301 32652 layer_factory.hpp:77] Creating layer feat
I0711 12:34:57.328320 32652 net.cpp:91] Creating Layer feat
I0711 12:34:57.328330 32652 net.cpp:425] feat <- ip2
I0711 12:34:57.328347 32652 net.cpp:399] feat -> feat
I0711 12:34:57.328514 32652 net.cpp:141] Setting up feat
I0711 12:34:57.328528 32652 net.cpp:148] Top shape: 64 2 (128)
I0711 12:34:57.328536 32652 net.cpp:156] Memory required for data: 5772544
I0711 12:34:57.328552 32652 layer_factory.hpp:77] Creating layer conv1_p
I0711 12:34:57.328573 32652 net.cpp:91] Creating Layer conv1_p
I0711 12:34:57.328583 32652 net.cpp:425] conv1_p <- data_p
I0711 12:34:57.328596 32652 net.cpp:399] conv1_p -> conv1_p
I0711 12:34:57.328918 32652 net.cpp:141] Setting up conv1_p
I0711 12:34:57.328933 32652 net.cpp:148] Top shape: 64 20 24 24 (737280)
I0711 12:34:57.328940 32652 net.cpp:156] Memory required for data: 8721664
I0711 12:34:57.328949 32652 net.cpp:484] Sharing parameters 'conv1_w' owned by layer 'conv1', param index 0
I0711 12:34:57.328958 32652 net.cpp:484] Sharing parameters 'conv1_b' owned by layer 'conv1', param index 1
I0711 12:34:57.328966 32652 layer_factory.hpp:77] Creating layer pool1_p
I0711 12:34:57.328982 32652 net.cpp:91] Creating Layer pool1_p
I0711 12:34:57.328990 32652 net.cpp:425] pool1_p <- conv1_p
I0711 12:34:57.329001 32652 net.cpp:399] pool1_p -> pool1_p
I0711 12:34:57.329059 32652 net.cpp:141] Setting up pool1_p
I0711 12:34:57.329074 32652 net.cpp:148] Top shape: 64 20 12 12 (184320)
I0711 12:34:57.329082 32652 net.cpp:156] Memory required for data: 9458944
I0711 12:34:57.329089 32652 layer_factory.hpp:77] Creating layer conv2_p
I0711 12:34:57.329107 32652 net.cpp:91] Creating Layer conv2_p
I0711 12:34:57.329114 32652 net.cpp:425] conv2_p <- pool1_p
I0711 12:34:57.329130 32652 net.cpp:399] conv2_p -> conv2_p
I0711 12:34:57.329649 32652 net.cpp:141] Setting up conv2_p
I0711 12:34:57.329664 32652 net.cpp:148] Top shape: 64 50 8 8 (204800)
I0711 12:34:57.329673 32652 net.cpp:156] Memory required for data: 10278144
I0711 12:34:57.329687 32652 net.cpp:484] Sharing parameters 'conv2_w' owned by layer 'conv2', param index 0
I0711 12:34:57.329699 32652 net.cpp:484] Sharing parameters 'conv2_b' owned by layer 'conv2', param index 1
I0711 12:34:57.329706 32652 layer_factory.hpp:77] Creating layer pool2_p
I0711 12:34:57.329716 32652 net.cpp:91] Creating Layer pool2_p
I0711 12:34:57.329741 32652 net.cpp:425] pool2_p <- conv2_p
I0711 12:34:57.329756 32652 net.cpp:399] pool2_p -> pool2_p
I0711 12:34:57.329810 32652 net.cpp:141] Setting up pool2_p
I0711 12:34:57.329823 32652 net.cpp:148] Top shape: 64 50 4 4 (51200)
I0711 12:34:57.329831 32652 net.cpp:156] Memory required for data: 10482944
I0711 12:34:57.329839 32652 layer_factory.hpp:77] Creating layer ip1_p
I0711 12:34:57.329855 32652 net.cpp:91] Creating Layer ip1_p
I0711 12:34:57.329864 32652 net.cpp:425] ip1_p <- pool2_p
I0711 12:34:57.329879 32652 net.cpp:399] ip1_p -> ip1_p
I0711 12:34:57.334013 32652 net.cpp:141] Setting up ip1_p
I0711 12:34:57.334035 32652 net.cpp:148] Top shape: 64 500 (32000)
I0711 12:34:57.334043 32652 net.cpp:156] Memory required for data: 10610944
I0711 12:34:57.334053 32652 net.cpp:484] Sharing parameters 'ip1_w' owned by layer 'ip1', param index 0
I0711 12:34:57.334062 32652 net.cpp:484] Sharing parameters 'ip1_b' owned by layer 'ip1', param index 1
I0711 12:34:57.334069 32652 layer_factory.hpp:77] Creating layer relu1_p
I0711 12:34:57.334084 32652 net.cpp:91] Creating Layer relu1_p
I0711 12:34:57.334091 32652 net.cpp:425] relu1_p <- ip1_p
I0711 12:34:57.334102 32652 net.cpp:386] relu1_p -> ip1_p (in-place)
I0711 12:34:57.334115 32652 net.cpp:141] Setting up relu1_p
I0711 12:34:57.334125 32652 net.cpp:148] Top shape: 64 500 (32000)
I0711 12:34:57.334132 32652 net.cpp:156] Memory required for data: 10738944
I0711 12:34:57.334139 32652 layer_factory.hpp:77] Creating layer ip2_p
I0711 12:34:57.334157 32652 net.cpp:91] Creating Layer ip2_p
I0711 12:34:57.334166 32652 net.cpp:425] ip2_p <- ip1_p
I0711 12:34:57.334177 32652 net.cpp:399] ip2_p -> ip2_p
I0711 12:34:57.334352 32652 net.cpp:141] Setting up ip2_p
I0711 12:34:57.334367 32652 net.cpp:148] Top shape: 64 10 (640)
I0711 12:34:57.334373 32652 net.cpp:156] Memory required for data: 10741504
I0711 12:34:57.334388 32652 net.cpp:484] Sharing parameters 'ip2_w' owned by layer 'ip2', param index 0
I0711 12:34:57.334398 32652 net.cpp:484] Sharing parameters 'ip2_b' owned by layer 'ip2', param index 1
I0711 12:34:57.334406 32652 layer_factory.hpp:77] Creating layer feat_p
I0711 12:34:57.334417 32652 net.cpp:91] Creating Layer feat_p
I0711 12:34:57.334427 32652 net.cpp:425] feat_p <- ip2_p
I0711 12:34:57.334439 32652 net.cpp:399] feat_p -> feat_p
I0711 12:34:57.334569 32652 net.cpp:141] Setting up feat_p
I0711 12:34:57.334583 32652 net.cpp:148] Top shape: 64 2 (128)
I0711 12:34:57.334590 32652 net.cpp:156] Memory required for data: 10742016
I0711 12:34:57.334597 32652 net.cpp:484] Sharing parameters 'feat_w' owned by layer 'feat', param index 0
I0711 12:34:57.334606 32652 net.cpp:484] Sharing parameters 'feat_b' owned by layer 'feat', param index 1
I0711 12:34:57.334614 32652 layer_factory.hpp:77] Creating layer loss
I0711 12:34:57.334626 32652 net.cpp:91] Creating Layer loss
…
I0711 12:34:57.336680 32652 solver.cpp:181] Creating test net (#0) specified by net file: examples/siamese/mnist_siamese_train_test.prototxt
I0711 12:34:57.336743 32652 net.cpp:313] The NetState phase (1) differed from the phase (0) specified by a rule in layer pair_data
I0711 12:34:57.336997 32652 net.cpp:49] Initializing net from parameters: 
name: "mnist_siamese_train_test"
state {
  phase: TEST
}
layer {
  name: "pair_data"
  type: "Data"
  top: "pair_data"
  top: "sim"
  include {
    phase: TEST
  }
  transform_param {
    scale: 0.00390625
  }
  data_param {
    source: "examples/siamese/mnist_siamese_test_leveldb_0to6"
    batch_size: 100
  }
}
layer {
  name: "slice_pair"
  type: "Slice"
  bottom: "pair_data"
  top: "data"
  top: "data_p"
  slice_param {
    slice_dim: 1
    slice_point: 1
  }
}
layer {
  name: "conv1"
  type: "Convolution"
  bottom: "data"
  top: "conv1"
  param {
    name: "conv1_w"
    lr_mult: 1
  }
  param {
    name: "conv1_b"
    lr_mult: 2
  }
  convolution_param {
    num_output: 20
    kernel_size: 5
    stride: 1
    weight_filler {
      type: "xavier"
    }
    bias_filler {
      type: "constant"
    }
  }
}
layer {
  name: "pool1"
  type: "Pooling"
  bottom: "conv1"
  top: "pool1"
  pooling_param {
    pool: MAX
    kernel_size: 2
    stride: 2
  }
}
layer {
  name: "conv2"
  type: "Convolution"
  bottom: "pool1"
  top: "conv2"
  param {
    name: "conv2_w"
    lr_mult: 1
  }
  param {
    name: "conv2_b"
    lr_mult: 2
  }
  convolution_param {
    num_output: 50
    kernel_size: 5
    stride: 1
    weight_filler {
      type: "xavier"
    }
    bias_filler {
      type: "constant"
    }
  }
}
layer {
  name: "pool2"
  type: "Pooling"
  bottom: "conv2"
  top: "pool2"
  pooling_param {
    pool: MAX
    kernel_size: 2
    stride: 2
  }
}
layer {
  name: "ip1"
  type: "InnerProduct"
  bottom: "pool2"
  top: "ip1"
  param {
    name: "ip1_w"
    lr_mult: 1
  }
  param {
    name: "ip1_b"
    lr_mult: 2
  }
  inner_product_param {
    num_output: 500
    weight_filler {
      type: "xavier"
    }
    bias_filler {
      type: "constant"
    }
  }
}
layer {
  name: "relu1"
  type: "ReLU"
  bottom: "ip1"
  top: "ip1"
}
layer {
  name: "ip2"
  type: "InnerProduct"
  bottom: "ip1"
  top: "ip2"
  param {
    name: "ip2_w"
    lr_mult: 1
  }
  param {
    name: "ip2_b"
    lr_mult: 2
  }
  inner_product_param {
    num_output: 10
    weight_filler {
      type: "xavier"
    }
    bias_filler {
      type: "constant"
    }
  }
}
layer {
  name: "feat"
  type: "InnerProduct"
  bottom: "ip2"
  top: "feat"
  param {
    name: "feat_w"
    lr_mult: 1
  }
  param {
    name: "feat_b"
    lr_mult: 2
  }
  inner_product_param {
    num_output: 2
    weight_filler {
      type: "xavier"
    }
    bias_filler {
      type: "constant"
    }
  }
}
layer {
  name: "conv1_p"
  type: "Convolution"
  bottom: "data_p"
  top: "conv1_p"
  param {
    name: "conv1_w"
    lr_mult: 1
  }
  param {
    name: "conv1_b"
    lr_mult: 2
  }
  convolution_param {
    num_output: 20
    kernel_size: 5
    stride: 1
    weight_filler {
      type: "xavier"
    }
    bias_filler {
      type: "constant"
    }
  }
}
layer {
  name: "pool1_p"
  type: "Pooling"
  bottom: "conv1_p"
  top: "pool1_p"
  pooling_param {
    pool: MAX
    kernel_size: 2
    stride: 2
  }
}
layer {
  name: "conv2_p"
  type: "Convolution"
  bottom: "pool1_p"
  top: "conv2_p"
  param {
    name: "conv2_w"
    lr_mult: 1
  }
  param {
    name: "conv2_b"
    lr_mult: 2
  }
  convolution_param {
    num_output: 50
    kernel_size: 5
    stride: 1
    weight_filler {
      type: "xavier"
    }
    bias_filler {
      type: "constant"
    }
  }
}
layer {
  name: "pool2_p"
  type: "Pooling"
  bottom: "conv2_p"
  top: "pool2_p"
  pooling_param {
    pool: MAX
    kernel_size: 2
    stride: 2
  }
}
layer {
  name: "ip1_p"
  type: "InnerProduct"
  bottom: "pool2_p"
  top: "ip1_p"
  param {
    name: "ip1_w"
    lr_mult: 1
  }
  param {
    name: "ip1_b"
    lr_mult: 2
  }
  inner_product_param {
    num_output: 500
    weight_filler {
      type: "xavier"
    }
    bias_filler {
      type: "constant"
    }
  }
}
layer {
  name: "relu1_p"
  type: "ReLU"
  bottom: "ip1_p"
  top: "ip1_p"
}
layer {
  name: "ip2_p"
  type: "InnerProduct"
  bottom: "ip1_p"
  top: "ip2_p"
  param {
    name: "ip2_w"
    lr_mult: 1
  }
  param {
    name: "ip2_b"
    lr_mult: 2
  }
  inner_product_param {
    num_output: 10
    weight_filler {
      type: "xavier"
    }
    bias_filler {
      type: "constant"
    }
  }
}
layer {
  name: "feat_p"
  type: "InnerProduct"
  bottom: "ip2_p"
  top: "feat_p"
  param {
    name: "feat_w"
    lr_mult: 1
  }
  param {
    name: "feat_b"
    lr_mult: 2
  }
  inner_product_param {
    num_output: 2
    weight_filler {
      type: "xavier"
    }
    bias_filler {
      type: "constant"
    }
  }
}
layer {
  name: "loss"
  type: "ContrastiveLoss"
  bottom: "feat"
  bottom: "feat_p"
  bottom: "sim"
  top: "loss"
  contrastive_loss_param {
    margin: 1
  }
}
I0711 12:34:57.337152 32652 layer_factory.hpp:77] Creating layer pair_data
I0711 12:34:57.337332 32652 net.cpp:91] Creating Layer pair_data
I0711 12:34:57.337344 32652 net.cpp:399] pair_data -> pair_data
I0711 12:34:57.337359 32652 net.cpp:399] pair_data -> sim
I0711 12:34:57.625644 32660 db_leveldb.cpp:18] Opened leveldb examples/siamese/mnist_siamese_test_leveldb_0to6
I0711 12:34:57.626533 32652 data_layer.cpp:41] output data size: 100,2,28,28
I0711 12:34:57.631371 32652 net.cpp:141] Setting up pair_data
I0711 12:34:57.631430 32652 net.cpp:148] Top shape: 100 2 28 28 (156800)
I0711 12:34:57.631458 32652 net.cpp:148] Top shape: 100 (100)
I0711 12:34:57.631484 32652 net.cpp:156] Memory required for data: 627600
I0711 12:34:57.631503 32652 layer_factory.hpp:77] Creating layer slice_pair
I0711 12:34:57.631546 32652 net.cpp:91] Creating Layer slice_pair
I0711 12:34:57.631563 32652 net.cpp:425] slice_pair <- pair_data
I0711 12:34:57.631592 32652 net.cpp:399] slice_pair -> data
I0711 12:34:57.631628 32652 net.cpp:399] slice_pair -> data_p
I0711 12:34:57.631778 32652 net.cpp:141] Setting up slice_pair
I0711 12:34:57.631803 32652 net.cpp:148] Top shape: 100 1 28 28 (78400)
I0711 12:34:57.631825 32652 net.cpp:148] Top shape: 100 1 28 28 (78400)
I0711 12:34:57.631839 32652 net.cpp:156] Memory required for data: 1254800
I0711 12:34:57.631855 32652 layer_factory.hpp:77] Creating layer conv1
I0711 12:34:57.631896 32652 net.cpp:91] Creating Layer conv1
I0711 12:34:57.631913 32652 net.cpp:425] conv1 <- data
I0711 12:34:57.631944 32652 net.cpp:399] conv1 -> conv1
I0711 12:34:57.632978 32652 net.cpp:141] Setting up conv1
I0711 12:34:57.633011 32652 net.cpp:148] Top shape: 100 20 24 24 (1152000)
I0711 12:34:57.633029 32652 net.cpp:156] Memory required for data: 5862800
I0711 12:34:57.633064 32652 layer_factory.hpp:77] Creating layer pool1
I0711 12:34:57.633095 32652 net.cpp:91] Creating Layer pool1
I0711 12:34:57.633124 32652 net.cpp:425] pool1 <- conv1
I0711 12:34:57.633148 32652 net.cpp:399] pool1 -> pool1
I0711 12:34:57.633275 32652 net.cpp:141] Setting up pool1
I0711 12:34:57.633303 32652 net.cpp:148] Top shape: 100 20 12 12 (288000)
I0711 12:34:57.633321 32652 net.cpp:156] Memory required for data: 7014800
I0711 12:34:57.633337 32652 layer_factory.hpp:77] Creating layer conv2
I0711 12:34:57.633420 32652 net.cpp:91] Creating Layer conv2
I0711 12:34:57.633446 32652 net.cpp:425] conv2 <- pool1
I0711 12:34:57.633476 32652 net.cpp:399] conv2 -> conv2
I0711 12:34:57.634678 32652 net.cpp:141] Setting up conv2
I0711 12:34:57.634708 32652 net.cpp:148] Top shape: 100 50 8 8 (320000)
I0711 12:34:57.634732 32652 net.cpp:156] Memory required for data: 8294800
I0711 12:34:57.634773 32652 layer_factory.hpp:77] Creating layer pool2
I0711 12:34:57.634802 32652 net.cpp:91] Creating Layer pool2
I0711 12:34:57.634820 32652 net.cpp:425] pool2 <- conv2
I0711 12:34:57.634843 32652 net.cpp:399] pool2 -> pool2
I0711 12:34:57.634965 32652 net.cpp:141] Setting up pool2
I0711 12:34:57.634999 32652 net.cpp:148] Top shape: 100 50 4 4 (80000)
I0711 12:34:57.635016 32652 net.cpp:156] Memory required for data: 8614800
I0711 12:34:57.635035 32652 layer_factory.hpp:77] Creating layer ip1
I0711 12:34:57.635068 32652 net.cpp:91] Creating Layer ip1
I0711 12:34:57.635085 32652 net.cpp:425] ip1 <- pool2
I0711 12:34:57.635118 32652 net.cpp:399] ip1 -> ip1
I0711 12:34:57.641376 32652 net.cpp:141] Setting up ip1
I0711 12:34:57.641402 32652 net.cpp:148] Top shape: 100 500 (50000)
I0711 12:34:57.641410 32652 net.cpp:156] Memory required for data: 8814800
I0711 12:34:57.641429 32652 layer_factory.hpp:77] Creating layer relu1
I0711 12:34:57.641443 32652 net.cpp:91] Creating Layer relu1
I0711 12:34:57.641451 32652 net.cpp:425] relu1 <- ip1
I0711 12:34:57.641465 32652 net.cpp:386] relu1 -> ip1 (in-place)
I0711 12:34:57.641480 32652 net.cpp:141] Setting up relu1
I0711 12:34:57.641490 32652 net.cpp:148] Top shape: 100 500 (50000)
I0711 12:34:57.641499 32652 net.cpp:156] Memory required for data: 9014800
I0711 12:34:57.641506 32652 layer_factory.hpp:77] Creating layer ip2
I0711 12:34:57.641525 32652 net.cpp:91] Creating Layer ip2
I0711 12:34:57.641532 32652 net.cpp:425] ip2 <- ip1
I0711 12:34:57.641543 32652 net.cpp:399] ip2 -> ip2
I0711 12:34:57.641722 32652 net.cpp:141] Setting up ip2
I0711 12:34:57.641736 32652 net.cpp:148] Top shape: 100 10 (1000)
I0711 12:34:57.641743 32652 net.cpp:156] Memory required for data: 9018800
I0711 12:34:57.641754 32652 layer_factory.hpp:77] Creating layer feat
I0711 12:34:57.641768 32652 net.cpp:91] Creating Layer feat
I0711 12:34:57.641777 32652 net.cpp:425] feat <- ip2
I0711 12:34:57.641789 32652 net.cpp:399] feat -> feat
I0711 12:34:57.641928 32652 net.cpp:141] Setting up feat
I0711 12:34:57.641942 32652 net.cpp:148] Top shape: 100 2 (200)
I0711 12:34:57.641949 32652 net.cpp:156] Memory required for data: 9019600
I0711 12:34:57.641964 32652 layer_factory.hpp:77] Creating layer conv1_p
I0711 12:34:57.642030 32652 net.cpp:91] Creating Layer conv1_p
I0711 12:34:57.642041 32652 net.cpp:425] conv1_p <- data_p
I0711 12:34:57.642055 32652 net.cpp:399] conv1_p -> conv1_p
I0711 12:34:57.642393 32652 net.cpp:141] Setting up conv1_p
I0711 12:34:57.642405 32652 net.cpp:148] Top shape: 100 20 24 24 (1152000)
I0711 12:34:57.642411 32652 net.cpp:156] Memory required for data: 13627600
I0711 12:34:57.642417 32652 net.cpp:484] Sharing parameters 'conv1_w' owned by layer 'conv1', param index 0
I0711 12:34:57.642424 32652 net.cpp:484] Sharing parameters 'conv1_b' owned by layer 'conv1', param index 1
I0711 12:34:57.642431 32652 layer_factory.hpp:77] Creating layer pool1_p
I0711 12:34:57.642442 32652 net.cpp:91] Creating Layer pool1_p
I0711 12:34:57.642448 32652 net.cpp:425] pool1_p <- conv1_p
I0711 12:34:57.642457 32652 net.cpp:399] pool1_p -> pool1_p
I0711 12:34:57.642508 32652 net.cpp:141] Setting up pool1_p
I0711 12:34:57.642518 32652 net.cpp:148] Top shape: 100 20 12 12 (288000)
I0711 12:34:57.642524 32652 net.cpp:156] Memory required for data: 14779600
I0711 12:34:57.642529 32652 layer_factory.hpp:77] Creating layer conv2_p
I0711 12:34:57.642542 32652 net.cpp:91] Creating Layer conv2_p
I0711 12:34:57.642549 32652 net.cpp:425] conv2_p <- pool1_p
I0711 12:34:57.642560 32652 net.cpp:399] conv2_p -> conv2_p
I0711 12:34:57.643056 32652 net.cpp:141] Setting up conv2_p
I0711 12:34:57.643066 32652 net.cpp:148] Top shape: 100 50 8 8 (320000)
I0711 12:34:57.643088 32652 net.cpp:156] Memory required for data: 16059600
I0711 12:34:57.643095 32652 net.cpp:484] Sharing parameters 'conv2_w' owned by layer 'conv2', param index 0
I0711 12:34:57.643101 32652 net.cpp:484] Sharing parameters 'conv2_b' owned by layer 'conv2', param index 1
I0711 12:34:57.643107 32652 layer_factory.hpp:77] Creating layer pool2_p
I0711 12:34:57.643115 32652 net.cpp:91] Creating Layer pool2_p
I0711 12:34:57.643121 32652 net.cpp:425] pool2_p <- conv2_p
I0711 12:34:57.643131 32652 net.cpp:399] pool2_p -> pool2_p
I0711 12:34:57.643179 32652 net.cpp:141] Setting up pool2_p
I0711 12:34:57.643187 32652 net.cpp:148] Top shape: 100 50 4 4 (80000)
I0711 12:34:57.643193 32652 net.cpp:156] Memory required for data: 16379600
I0711 12:34:57.643206 32652 layer_factory.hpp:77] Creating layer ip1_p
I0711 12:34:57.643226 32652 net.cpp:91] Creating Layer ip1_p
I0711 12:34:57.643234 32652 net.cpp:425] ip1_p <- pool2_p
I0711 12:34:57.643244 32652 net.cpp:399] ip1_p -> ip1_p
I0711 12:34:57.647409 32652 net.cpp:141] Setting up ip1_p
I0711 12:34:57.647429 32652 net.cpp:148] Top shape: 100 500 (50000)
I0711 12:34:57.647436 32652 net.cpp:156] Memory required for data: 16579600
I0711 12:34:57.647444 32652 net.cpp:484] Sharing parameters 'ip1_w' owned by layer 'ip1', param index 0
I0711 12:34:57.647451 32652 net.cpp:484] Sharing parameters 'ip1_b' owned by layer 'ip1', param index 1
I0711 12:34:57.647457 32652 layer_factory.hpp:77] Creating layer relu1_p
I0711 12:34:57.647469 32652 net.cpp:91] Creating Layer relu1_p
I0711 12:34:57.647475 32652 net.cpp:425] relu1_p <- ip1_p
I0711 12:34:57.647485 32652 net.cpp:386] relu1_p -> ip1_p (in-place)
I0711 12:34:57.647495 32652 net.cpp:141] Setting up relu1_p
I0711 12:34:57.647502 32652 net.cpp:148] Top shape: 100 500 (50000)
I0711 12:34:57.647508 32652 net.cpp:156] Memory required for data: 16779600
I0711 12:34:57.647513 32652 layer_factory.hpp:77] Creating layer ip2_p
I0711 12:34:57.647528 32652 net.cpp:91] Creating Layer ip2_p
I0711 12:34:57.647534 32652 net.cpp:425] ip2_p <- ip1_p
I0711 12:34:57.647543 32652 net.cpp:399] ip2_p -> ip2_p
I0711 12:34:57.647712 32652 net.cpp:141] Setting up ip2_p
I0711 12:34:57.647722 32652 net.cpp:148] Top shape: 100 10 (1000)
I0711 12:34:57.647728 32652 net.cpp:156] Memory required for data: 16783600
I0711 12:34:57.647740 32652 net.cpp:484] Sharing parameters 'ip2_w' owned by layer 'ip2', param index 0
I0711 12:34:57.647748 32652 net.cpp:484] Sharing parameters 'ip2_b' owned by layer 'ip2', param index 1
I0711 12:34:57.647754 32652 layer_factory.hpp:77] Creating layer feat_p
I0711 12:34:57.647763 32652 net.cpp:91] Creating Layer feat_p
I0711 12:34:57.647769 32652 net.cpp:425] feat_p <- ip2_p
I0711 12:34:57.647780 32652 net.cpp:399] feat_p -> feat_p
I0711 12:34:57.647905 32652 net.cpp:141] Setting up feat_p
I0711 12:34:57.647915 32652 net.cpp:148] Top shape: 100 2 (200)
I0711 12:34:57.647920 32652 net.cpp:156] Memory required for data: 16784400
I0711 12:34:57.647927 32652 net.cpp:484] Sharing parameters 'feat_w' owned by layer 'feat', param index 0
I0711 12:34:57.647933 32652 net.cpp:484] Sharing parameters 'feat_b' owned by layer 'feat', param index 1
I0711 12:34:57.647939 32652 layer_factory.hpp:77] Creating layer loss
I0711 12:34:57.647948 32652 net.cpp:91] Creating Layer loss
…
