…
I0713 15:15:42.195171 29022 solver.cpp:91] Creating training net from net file: examples/siamese/mnist_siamese_train_test.prototxt
I0713 15:15:42.195835 29022 net.cpp:313] The NetState phase (0) differed from the phase (1) specified by a rule in layer pair_data
I0713 15:15:42.196025 29022 net.cpp:49] Initializing net from parameters: 
name: "mnist_siamese_train_test"
state {
  phase: TRAIN
}
layer {
  name: "pair_data"
  type: "Data"
  top: "pair_data"
  top: "sim"
  include {
    phase: TRAIN
  }
  transform_param {
    scale: 0.00390625
  }
  data_param {
    source: "examples/siamese/mnist_siamese_train_leveldb_0to6"
    batch_size: 64
  }
}
layer {
  name: "slice_pair"
  type: "Slice"
  bottom: "pair_data"
  top: "data"
  top: "data_p"
  slice_param {
    slice_dim: 1
    slice_point: 1
  }
}
layer {
  name: "conv1"
  type: "Convolution"
  bottom: "data"
  top: "conv1"
  param {
    name: "conv1_w"
    lr_mult: 1
  }
  param {
    name: "conv1_b"
    lr_mult: 2
  }
  convolution_param {
    num_output: 20
    kernel_size: 5
    stride: 1
    weight_filler {
      type: "xavier"
    }
    bias_filler {
      type: "constant"
    }
  }
}
layer {
  name: "pool1"
  type: "Pooling"
  bottom: "conv1"
  top: "pool1"
  pooling_param {
    pool: MAX
    kernel_size: 2
    stride: 2
  }
}
layer {
  name: "conv2"
  type: "Convolution"
  bottom: "pool1"
  top: "conv2"
  param {
    name: "conv2_w"
    lr_mult: 1
  }
  param {
    name: "conv2_b"
    lr_mult: 2
  }
  convolution_param {
    num_output: 50
    kernel_size: 5
    stride: 1
    weight_filler {
      type: "xavier"
    }
    bias_filler {
      type: "constant"
    }
  }
}
layer {
  name: "pool2"
  type: "Pooling"
  bottom: "conv2"
  top: "pool2"
  pooling_param {
    pool: MAX
    kernel_size: 2
    stride: 2
  }
}
layer {
  name: "ip1"
  type: "InnerProduct"
  bottom: "pool2"
  top: "ip1"
  param {
    name: "ip1_w"
    lr_mult: 1
  }
  param {
    name: "ip1_b"
    lr_mult: 2
  }
  inner_product_param {
    num_output: 500
    weight_filler {
      type: "xavier"
    }
    bias_filler {
      type: "constant"
    }
  }
}
layer {
  name: "relu1"
  type: "ReLU"
  bottom: "ip1"
  top: "ip1"
}
layer {
  name: "ip2"
  type: "InnerProduct"
  bottom: "ip1"
  top: "ip2"
  param {
    name: "ip2_w"
    lr_mult: 1
  }
  param {
    name: "ip2_b"
    lr_mult: 2
  }
  inner_product_param {
    num_output: 10
    weight_filler {
      type: "xavier"
    }
    bias_filler {
      type: "constant"
    }
  }
}
layer {
  name: "feat"
  type: "InnerProduct"
  bottom: "ip2"
  top: "feat"
  param {
    name: "feat_w"
    lr_mult: 1
  }
  param {
    name: "feat_b"
    lr_mult: 2
  }
  inner_product_param {
    num_output: 2
    weight_filler {
      type: "xavier"
    }
    bias_filler {
      type: "constant"
    }
  }
}
layer {
  name: "conv1_p"
  type: "Convolution"
  bottom: "data_p"
  top: "conv1_p"
  param {
    name: "conv1_w"
    lr_mult: 1
  }
  param {
    name: "conv1_b"
    lr_mult: 2
  }
  convolution_param {
    num_output: 20
    kernel_size: 5
    stride: 1
    weight_filler {
      type: "xavier"
    }
    bias_filler {
      type: "constant"
    }
  }
}
layer {
  name: "pool1_p"
  type: "Pooling"
  bottom: "conv1_p"
  top: "pool1_p"
  pooling_param {
    pool: MAX
    kernel_size: 2
    stride: 2
  }
}
layer {
  name: "conv2_p"
  type: "Convolution"
  bottom: "pool1_p"
  top: "conv2_p"
  param {
    name: "conv2_w"
    lr_mult: 1
  }
  param {
    name: "conv2_b"
    lr_mult: 2
  }
  convolution_param {
    num_output: 50
    kernel_size: 5
    stride: 1
    weight_filler {
      type: "xavier"
    }
    bias_filler {
      type: "constant"
    }
  }
}
layer {
  name: "pool2_p"
  type: "Pooling"
  bottom: "conv2_p"
  top: "pool2_p"
  pooling_param {
    pool: MAX
    kernel_size: 2
    stride: 2
  }
}
layer {
  name: "ip1_p"
  type: "InnerProduct"
  bottom: "pool2_p"
  top: "ip1_p"
  param {
    name: "ip1_w"
    lr_mult: 1
  }
  param {
    name: "ip1_b"
    lr_mult: 2
  }
  inner_product_param {
    num_output: 500
    weight_filler {
      type: "xavier"
    }
    bias_filler {
      type: "constant"
    }
  }
}
layer {
  name: "relu1_p"
  type: "ReLU"
  bottom: "ip1_p"
  top: "ip1_p"
}
layer {
  name: "ip2_p"
  type: "InnerProduct"
  bottom: "ip1_p"
  top: "ip2_p"
  param {
    name: "ip2_w"
    lr_mult: 1
  }
  param {
    name: "ip2_b"
    lr_mult: 2
  }
  inner_product_param {
    num_output: 10
    weight_filler {
      type: "xavier"
    }
    bias_filler {
      type: "constant"
    }
  }
}
layer {
  name: "feat_p"
  type: "InnerProduct"
  bottom: "ip2_p"
  top: "feat_p"
  param {
    name: "feat_w"
    lr_mult: 1
  }
  param {
    name: "feat_b"
    lr_mult: 2
  }
  inner_product_param {
    num_output: 2
    weight_filler {
      type: "xavier"
    }
    bias_filler {
      type: "constant"
    }
  }
}
layer {
  name: "loss"
  type: "ContrastiveLoss"
  bottom: "feat"
  bottom: "feat_p"
  bottom: "sim"
  top: "loss"
  contrastive_loss_param {
    margin: 1
  }
}
I0713 15:15:42.196157 29022 layer_factory.hpp:77] Creating layer pair_data
I0713 15:15:42.198871 29022 net.cpp:91] Creating Layer pair_data
I0713 15:15:42.198933 29022 net.cpp:399] pair_data -> pair_data
I0713 15:15:42.198962 29022 net.cpp:399] pair_data -> sim
I0713 15:15:42.206984 29026 db_leveldb.cpp:18] Opened leveldb examples/siamese/mnist_siamese_train_leveldb_0to6
I0713 15:15:42.222192 29022 data_layer.cpp:41] output data size: 64,2,28,28
I0713 15:15:42.226627 29022 net.cpp:141] Setting up pair_data
I0713 15:15:42.226678 29022 net.cpp:148] Top shape: 64 2 28 28 (100352)
I0713 15:15:42.226687 29022 net.cpp:148] Top shape: 64 (64)
I0713 15:15:42.226691 29022 net.cpp:156] Memory required for data: 401664
I0713 15:15:42.226703 29022 layer_factory.hpp:77] Creating layer slice_pair
I0713 15:15:42.228780 29022 net.cpp:91] Creating Layer slice_pair
I0713 15:15:42.228813 29022 net.cpp:425] slice_pair <- pair_data
I0713 15:15:42.228876 29022 net.cpp:399] slice_pair -> data
I0713 15:15:42.228895 29022 net.cpp:399] slice_pair -> data_p
I0713 15:15:42.228910 29022 net.cpp:141] Setting up slice_pair
I0713 15:15:42.228919 29022 net.cpp:148] Top shape: 64 1 28 28 (50176)
I0713 15:15:42.228926 29022 net.cpp:148] Top shape: 64 1 28 28 (50176)
I0713 15:15:42.228930 29022 net.cpp:156] Memory required for data: 803072
I0713 15:15:42.228936 29022 layer_factory.hpp:77] Creating layer conv1
I0713 15:15:42.228957 29022 net.cpp:91] Creating Layer conv1
I0713 15:15:42.228962 29022 net.cpp:425] conv1 <- data
I0713 15:15:42.228971 29022 net.cpp:399] conv1 -> conv1
I0713 15:15:42.232146 29022 net.cpp:141] Setting up conv1
I0713 15:15:42.232213 29022 net.cpp:148] Top shape: 64 20 24 24 (737280)
I0713 15:15:42.232220 29022 net.cpp:156] Memory required for data: 3752192
I0713 15:15:42.232254 29022 layer_factory.hpp:77] Creating layer pool1
I0713 15:15:42.232275 29022 net.cpp:91] Creating Layer pool1
I0713 15:15:42.232281 29022 net.cpp:425] pool1 <- conv1
I0713 15:15:42.232291 29022 net.cpp:399] pool1 -> pool1
I0713 15:15:42.232350 29022 net.cpp:141] Setting up pool1
I0713 15:15:42.232359 29022 net.cpp:148] Top shape: 64 20 12 12 (184320)
I0713 15:15:42.232364 29022 net.cpp:156] Memory required for data: 4489472
I0713 15:15:42.232370 29022 layer_factory.hpp:77] Creating layer conv2
I0713 15:15:42.232393 29022 net.cpp:91] Creating Layer conv2
I0713 15:15:42.232398 29022 net.cpp:425] conv2 <- pool1
I0713 15:15:42.232422 29022 net.cpp:399] conv2 -> conv2
I0713 15:15:42.232794 29022 net.cpp:141] Setting up conv2
I0713 15:15:42.232827 29022 net.cpp:148] Top shape: 64 50 8 8 (204800)
I0713 15:15:42.232832 29022 net.cpp:156] Memory required for data: 5308672
I0713 15:15:42.232849 29022 layer_factory.hpp:77] Creating layer pool2
I0713 15:15:42.232868 29022 net.cpp:91] Creating Layer pool2
I0713 15:15:42.232933 29022 net.cpp:425] pool2 <- conv2
I0713 15:15:42.232946 29022 net.cpp:399] pool2 -> pool2
I0713 15:15:42.232965 29022 net.cpp:141] Setting up pool2
I0713 15:15:42.232974 29022 net.cpp:148] Top shape: 64 50 4 4 (51200)
I0713 15:15:42.232977 29022 net.cpp:156] Memory required for data: 5513472
I0713 15:15:42.232981 29022 layer_factory.hpp:77] Creating layer ip1
I0713 15:15:42.233009 29022 net.cpp:91] Creating Layer ip1
I0713 15:15:42.233014 29022 net.cpp:425] ip1 <- pool2
I0713 15:15:42.233026 29022 net.cpp:399] ip1 -> ip1
I0713 15:15:42.239341 29022 net.cpp:141] Setting up ip1
I0713 15:15:42.239598 29022 net.cpp:148] Top shape: 64 500 (32000)
I0713 15:15:42.239696 29022 net.cpp:156] Memory required for data: 5641472
I0713 15:15:42.239791 29022 layer_factory.hpp:77] Creating layer relu1
I0713 15:15:42.239881 29022 net.cpp:91] Creating Layer relu1
I0713 15:15:42.239962 29022 net.cpp:425] relu1 <- ip1
I0713 15:15:42.240043 29022 net.cpp:386] relu1 -> ip1 (in-place)
I0713 15:15:42.240134 29022 net.cpp:141] Setting up relu1
I0713 15:15:42.240216 29022 net.cpp:148] Top shape: 64 500 (32000)
I0713 15:15:42.240294 29022 net.cpp:156] Memory required for data: 5769472
I0713 15:15:42.240373 29022 layer_factory.hpp:77] Creating layer ip2
I0713 15:15:42.240466 29022 net.cpp:91] Creating Layer ip2
I0713 15:15:42.240547 29022 net.cpp:425] ip2 <- ip1
I0713 15:15:42.240635 29022 net.cpp:399] ip2 -> ip2
I0713 15:15:42.240788 29022 net.cpp:141] Setting up ip2
I0713 15:15:42.240881 29022 net.cpp:148] Top shape: 64 10 (640)
I0713 15:15:42.241101 29022 net.cpp:156] Memory required for data: 5772032
I0713 15:15:42.241189 29022 layer_factory.hpp:77] Creating layer feat
I0713 15:15:42.241273 29022 net.cpp:91] Creating Layer feat
I0713 15:15:42.241309 29022 net.cpp:425] feat <- ip2
I0713 15:15:42.241422 29022 net.cpp:399] feat -> feat
I0713 15:15:42.241484 29022 net.cpp:141] Setting up feat
I0713 15:15:42.241516 29022 net.cpp:148] Top shape: 64 2 (128)
I0713 15:15:42.241538 29022 net.cpp:156] Memory required for data: 5772544
I0713 15:15:42.241569 29022 layer_factory.hpp:77] Creating layer conv1_p
I0713 15:15:42.241616 29022 net.cpp:91] Creating Layer conv1_p
I0713 15:15:42.241641 29022 net.cpp:425] conv1_p <- data_p
I0713 15:15:42.241667 29022 net.cpp:399] conv1_p -> conv1_p
I0713 15:15:42.241734 29022 net.cpp:141] Setting up conv1_p
I0713 15:15:42.241763 29022 net.cpp:148] Top shape: 64 20 24 24 (737280)
I0713 15:15:42.241785 29022 net.cpp:156] Memory required for data: 8721664
I0713 15:15:42.241806 29022 net.cpp:484] Sharing parameters 'conv1_w' owned by layer 'conv1', param index 0
I0713 15:15:42.241829 29022 net.cpp:484] Sharing parameters 'conv1_b' owned by layer 'conv1', param index 1
I0713 15:15:42.241852 29022 layer_factory.hpp:77] Creating layer pool1_p
I0713 15:15:42.241879 29022 net.cpp:91] Creating Layer pool1_p
I0713 15:15:42.241901 29022 net.cpp:425] pool1_p <- conv1_p
I0713 15:15:42.241925 29022 net.cpp:399] pool1_p -> pool1_p
I0713 15:15:42.241961 29022 net.cpp:141] Setting up pool1_p
I0713 15:15:42.241988 29022 net.cpp:148] Top shape: 64 20 12 12 (184320)
I0713 15:15:42.242010 29022 net.cpp:156] Memory required for data: 9458944
I0713 15:15:42.242030 29022 layer_factory.hpp:77] Creating layer conv2_p
I0713 15:15:42.242063 29022 net.cpp:91] Creating Layer conv2_p
I0713 15:15:42.242086 29022 net.cpp:425] conv2_p <- pool1_p
I0713 15:15:42.242113 29022 net.cpp:399] conv2_p -> conv2_p
I0713 15:15:42.242455 29022 net.cpp:141] Setting up conv2_p
I0713 15:15:42.242516 29022 net.cpp:148] Top shape: 64 50 8 8 (204800)
I0713 15:15:42.242538 29022 net.cpp:156] Memory required for data: 10278144
I0713 15:15:42.242563 29022 net.cpp:484] Sharing parameters 'conv2_w' owned by layer 'conv2', param index 0
I0713 15:15:42.242588 29022 net.cpp:484] Sharing parameters 'conv2_b' owned by layer 'conv2', param index 1
I0713 15:15:42.242611 29022 layer_factory.hpp:77] Creating layer pool2_p
I0713 15:15:42.242641 29022 net.cpp:91] Creating Layer pool2_p
I0713 15:15:42.242666 29022 net.cpp:425] pool2_p <- conv2_p
I0713 15:15:42.242715 29022 net.cpp:399] pool2_p -> pool2_p
I0713 15:15:42.242775 29022 net.cpp:141] Setting up pool2_p
I0713 15:15:42.242802 29022 net.cpp:148] Top shape: 64 50 4 4 (51200)
I0713 15:15:42.242823 29022 net.cpp:156] Memory required for data: 10482944
I0713 15:15:42.242843 29022 layer_factory.hpp:77] Creating layer ip1_p
I0713 15:15:42.242875 29022 net.cpp:91] Creating Layer ip1_p
I0713 15:15:42.242898 29022 net.cpp:425] ip1_p <- pool2_p
I0713 15:15:42.242923 29022 net.cpp:399] ip1_p -> ip1_p
I0713 15:15:42.247100 29022 net.cpp:141] Setting up ip1_p
I0713 15:15:42.247242 29022 net.cpp:148] Top shape: 64 500 (32000)
I0713 15:15:42.247303 29022 net.cpp:156] Memory required for data: 10610944
I0713 15:15:42.247352 29022 net.cpp:484] Sharing parameters 'ip1_w' owned by layer 'ip1', param index 0
I0713 15:15:42.247395 29022 net.cpp:484] Sharing parameters 'ip1_b' owned by layer 'ip1', param index 1
I0713 15:15:42.247432 29022 layer_factory.hpp:77] Creating layer relu1_p
I0713 15:15:42.247478 29022 net.cpp:91] Creating Layer relu1_p
I0713 15:15:42.247514 29022 net.cpp:425] relu1_p <- ip1_p
I0713 15:15:42.247567 29022 net.cpp:386] relu1_p -> ip1_p (in-place)
I0713 15:15:42.247629 29022 net.cpp:141] Setting up relu1_p
I0713 15:15:42.247671 29022 net.cpp:148] Top shape: 64 500 (32000)
I0713 15:15:42.247701 29022 net.cpp:156] Memory required for data: 10738944
I0713 15:15:42.247735 29022 layer_factory.hpp:77] Creating layer ip2_p
I0713 15:15:42.247786 29022 net.cpp:91] Creating Layer ip2_p
I0713 15:15:42.247824 29022 net.cpp:425] ip2_p <- ip1_p
I0713 15:15:42.247874 29022 net.cpp:399] ip2_p -> ip2_p
I0713 15:15:42.248039 29022 net.cpp:141] Setting up ip2_p
I0713 15:15:42.248117 29022 net.cpp:148] Top shape: 64 10 (640)
I0713 15:15:42.248157 29022 net.cpp:156] Memory required for data: 10741504
I0713 15:15:42.248203 29022 net.cpp:484] Sharing parameters 'ip2_w' owned by layer 'ip2', param index 0
I0713 15:15:42.248250 29022 net.cpp:484] Sharing parameters 'ip2_b' owned by layer 'ip2', param index 1
I0713 15:15:42.248291 29022 layer_factory.hpp:77] Creating layer feat_p
I0713 15:15:42.248344 29022 net.cpp:91] Creating Layer feat_p
I0713 15:15:42.248392 29022 net.cpp:425] feat_p <- ip2_p
I0713 15:15:42.248445 29022 net.cpp:399] feat_p -> feat_p
I0713 15:15:42.248505 29022 net.cpp:141] Setting up feat_p
I0713 15:15:42.248548 29022 net.cpp:148] Top shape: 64 2 (128)
I0713 15:15:42.248581 29022 net.cpp:156] Memory required for data: 10742016
I0713 15:15:42.248610 29022 net.cpp:484] Sharing parameters 'feat_w' owned by layer 'feat', param index 0
I0713 15:15:42.248641 29022 net.cpp:484] Sharing parameters 'feat_b' owned by layer 'feat', param index 1
I0713 15:15:42.248668 29022 layer_factory.hpp:77] Creating layer loss
I0713 15:15:42.250047 29022 net.cpp:91] Creating Layer loss
…
I0713 15:15:42.251847 29022 solver.cpp:181] Creating test net (#0) specified by net file: examples/siamese/mnist_siamese_train_test.prototxt
I0713 15:15:42.251962 29022 net.cpp:313] The NetState phase (1) differed from the phase (0) specified by a rule in layer pair_data
I0713 15:15:42.252302 29022 net.cpp:49] Initializing net from parameters: 
name: "mnist_siamese_train_test"
state {
  phase: TEST
}
layer {
  name: "pair_data"
  type: "Data"
  top: "pair_data"
  top: "sim"
  include {
    phase: TEST
  }
  transform_param {
    scale: 0.00390625
  }
  data_param {
    source: "examples/siamese/mnist_siamese_test_leveldb_0to6"
    batch_size: 100
  }
}
layer {
  name: "slice_pair"
  type: "Slice"
  bottom: "pair_data"
  top: "data"
  top: "data_p"
  slice_param {
    slice_dim: 1
    slice_point: 1
  }
}
layer {
  name: "conv1"
  type: "Convolution"
  bottom: "data"
  top: "conv1"
  param {
    name: "conv1_w"
    lr_mult: 1
  }
  param {
    name: "conv1_b"
    lr_mult: 2
  }
  convolution_param {
    num_output: 20
    kernel_size: 5
    stride: 1
    weight_filler {
      type: "xavier"
    }
    bias_filler {
      type: "constant"
    }
  }
}
layer {
  name: "pool1"
  type: "Pooling"
  bottom: "conv1"
  top: "pool1"
  pooling_param {
    pool: MAX
    kernel_size: 2
    stride: 2
  }
}
layer {
  name: "conv2"
  type: "Convolution"
  bottom: "pool1"
  top: "conv2"
  param {
    name: "conv2_w"
    lr_mult: 1
  }
  param {
    name: "conv2_b"
    lr_mult: 2
  }
  convolution_param {
    num_output: 50
    kernel_size: 5
    stride: 1
    weight_filler {
      type: "xavier"
    }
    bias_filler {
      type: "constant"
    }
  }
}
layer {
  name: "pool2"
  type: "Pooling"
  bottom: "conv2"
  top: "pool2"
  pooling_param {
    pool: MAX
    kernel_size: 2
    stride: 2
  }
}
layer {
  name: "ip1"
  type: "InnerProduct"
  bottom: "pool2"
  top: "ip1"
  param {
    name: "ip1_w"
    lr_mult: 1
  }
  param {
    name: "ip1_b"
    lr_mult: 2
  }
  inner_product_param {
    num_output: 500
    weight_filler {
      type: "xavier"
    }
    bias_filler {
      type: "constant"
    }
  }
}
layer {
  name: "relu1"
  type: "ReLU"
  bottom: "ip1"
  top: "ip1"
}
layer {
  name: "ip2"
  type: "InnerProduct"
  bottom: "ip1"
  top: "ip2"
  param {
    name: "ip2_w"
    lr_mult: 1
  }
  param {
    name: "ip2_b"
    lr_mult: 2
  }
  inner_product_param {
    num_output: 10
    weight_filler {
      type: "xavier"
    }
    bias_filler {
      type: "constant"
    }
  }
}
layer {
  name: "feat"
  type: "InnerProduct"
  bottom: "ip2"
  top: "feat"
  param {
    name: "feat_w"
    lr_mult: 1
  }
  param {
    name: "feat_b"
    lr_mult: 2
  }
  inner_product_param {
    num_output: 2
    weight_filler {
      type: "xavier"
    }
    bias_filler {
      type: "constant"
    }
  }
}
layer {
  name: "conv1_p"
  type: "Convolution"
  bottom: "data_p"
  top: "conv1_p"
  param {
    name: "conv1_w"
    lr_mult: 1
  }
  param {
    name: "conv1_b"
    lr_mult: 2
  }
  convolution_param {
    num_output: 20
    kernel_size: 5
    stride: 1
    weight_filler {
      type: "xavier"
    }
    bias_filler {
      type: "constant"
    }
  }
}
layer {
  name: "pool1_p"
  type: "Pooling"
  bottom: "conv1_p"
  top: "pool1_p"
  pooling_param {
    pool: MAX
    kernel_size: 2
    stride: 2
  }
}
layer {
  name: "conv2_p"
  type: "Convolution"
  bottom: "pool1_p"
  top: "conv2_p"
  param {
    name: "conv2_w"
    lr_mult: 1
  }
  param {
    name: "conv2_b"
    lr_mult: 2
  }
  convolution_param {
    num_output: 50
    kernel_size: 5
    stride: 1
    weight_filler {
      type: "xavier"
    }
    bias_filler {
      type: "constant"
    }
  }
}
layer {
  name: "pool2_p"
  type: "Pooling"
  bottom: "conv2_p"
  top: "pool2_p"
  pooling_param {
    pool: MAX
    kernel_size: 2
    stride: 2
  }
}
layer {
  name: "ip1_p"
  type: "InnerProduct"
  bottom: "pool2_p"
  top: "ip1_p"
  param {
    name: "ip1_w"
    lr_mult: 1
  }
  param {
    name: "ip1_b"
    lr_mult: 2
  }
  inner_product_param {
    num_output: 500
    weight_filler {
      type: "xavier"
    }
    bias_filler {
      type: "constant"
    }
  }
}
layer {
  name: "relu1_p"
  type: "ReLU"
  bottom: "ip1_p"
  top: "ip1_p"
}
layer {
  name: "ip2_p"
  type: "InnerProduct"
  bottom: "ip1_p"
  top: "ip2_p"
  param {
    name: "ip2_w"
    lr_mult: 1
  }
  param {
    name: "ip2_b"
    lr_mult: 2
  }
  inner_product_param {
    num_output: 10
    weight_filler {
      type: "xavier"
    }
    bias_filler {
      type: "constant"
    }
  }
}
layer {
  name: "feat_p"
  type: "InnerProduct"
  bottom: "ip2_p"
  top: "feat_p"
  param {
    name: "feat_w"
    lr_mult: 1
  }
  param {
    name: "feat_b"
    lr_mult: 2
  }
  inner_product_param {
    num_output: 2
    weight_filler {
      type: "xavier"
    }
    bias_filler {
      type: "constant"
    }
  }
}
layer {
  name: "loss"
  type: "ContrastiveLoss"
  bottom: "feat"
  bottom: "feat_p"
  bottom: "sim"
  top: "loss"
  contrastive_loss_param {
    margin: 1
  }
}
I0713 15:15:42.253573 29022 layer_factory.hpp:77] Creating layer pair_data
I0713 15:15:42.253808 29022 net.cpp:91] Creating Layer pair_data
I0713 15:15:42.253856 29022 net.cpp:399] pair_data -> pair_data
I0713 15:15:42.253907 29022 net.cpp:399] pair_data -> sim
I0713 15:15:42.271522 29028 db_leveldb.cpp:18] Opened leveldb examples/siamese/mnist_siamese_test_leveldb_0to6
I0713 15:15:42.276973 29022 data_layer.cpp:41] output data size: 100,2,28,28
I0713 15:15:42.278009 29022 net.cpp:141] Setting up pair_data
I0713 15:15:42.278049 29022 net.cpp:148] Top shape: 100 2 28 28 (156800)
I0713 15:15:42.278061 29022 net.cpp:148] Top shape: 100 (100)
I0713 15:15:42.278069 29022 net.cpp:156] Memory required for data: 627600
I0713 15:15:42.278081 29022 layer_factory.hpp:77] Creating layer slice_pair
I0713 15:15:42.278141 29022 net.cpp:91] Creating Layer slice_pair
I0713 15:15:42.278167 29022 net.cpp:425] slice_pair <- pair_data
I0713 15:15:42.278203 29022 net.cpp:399] slice_pair -> data
I0713 15:15:42.278254 29022 net.cpp:399] slice_pair -> data_p
I0713 15:15:42.278300 29022 net.cpp:141] Setting up slice_pair
I0713 15:15:42.278318 29022 net.cpp:148] Top shape: 100 1 28 28 (78400)
I0713 15:15:42.278329 29022 net.cpp:148] Top shape: 100 1 28 28 (78400)
I0713 15:15:42.278337 29022 net.cpp:156] Memory required for data: 1254800
I0713 15:15:42.278348 29022 layer_factory.hpp:77] Creating layer conv1
I0713 15:15:42.278406 29022 net.cpp:91] Creating Layer conv1
I0713 15:15:42.278425 29022 net.cpp:425] conv1 <- data
I0713 15:15:42.278447 29022 net.cpp:399] conv1 -> conv1
I0713 15:15:42.278595 29022 net.cpp:141] Setting up conv1
I0713 15:15:42.278631 29022 net.cpp:148] Top shape: 100 20 24 24 (1152000)
I0713 15:15:42.278640 29022 net.cpp:156] Memory required for data: 5862800
I0713 15:15:42.278672 29022 layer_factory.hpp:77] Creating layer pool1
I0713 15:15:42.278704 29022 net.cpp:91] Creating Layer pool1
I0713 15:15:42.278715 29022 net.cpp:425] pool1 <- conv1
I0713 15:15:42.278730 29022 net.cpp:399] pool1 -> pool1
I0713 15:15:42.278767 29022 net.cpp:141] Setting up pool1
I0713 15:15:42.278780 29022 net.cpp:148] Top shape: 100 20 12 12 (288000)
I0713 15:15:42.278786 29022 net.cpp:156] Memory required for data: 7014800
I0713 15:15:42.278794 29022 layer_factory.hpp:77] Creating layer conv2
I0713 15:15:42.278826 29022 net.cpp:91] Creating Layer conv2
I0713 15:15:42.278836 29022 net.cpp:425] conv2 <- pool1
I0713 15:15:42.279022 29022 net.cpp:399] conv2 -> conv2
I0713 15:15:42.279724 29022 net.cpp:141] Setting up conv2
I0713 15:15:42.279772 29022 net.cpp:148] Top shape: 100 50 8 8 (320000)
I0713 15:15:42.279781 29022 net.cpp:156] Memory required for data: 8294800
I0713 15:15:42.279803 29022 layer_factory.hpp:77] Creating layer pool2
I0713 15:15:42.279831 29022 net.cpp:91] Creating Layer pool2
I0713 15:15:42.279850 29022 net.cpp:425] pool2 <- conv2
I0713 15:15:42.279875 29022 net.cpp:399] pool2 -> pool2
I0713 15:15:42.279920 29022 net.cpp:141] Setting up pool2
I0713 15:15:42.279930 29022 net.cpp:148] Top shape: 100 50 4 4 (80000)
I0713 15:15:42.279937 29022 net.cpp:156] Memory required for data: 8614800
I0713 15:15:42.279943 29022 layer_factory.hpp:77] Creating layer ip1
I0713 15:15:42.279980 29022 net.cpp:91] Creating Layer ip1
I0713 15:15:42.279999 29022 net.cpp:425] ip1 <- pool2
I0713 15:15:42.280025 29022 net.cpp:399] ip1 -> ip1
I0713 15:15:42.285224 29029 blocking_queue.cpp:50] Waiting for data
I0713 15:15:42.289278 29022 net.cpp:141] Setting up ip1
I0713 15:15:42.299043 29022 net.cpp:148] Top shape: 100 500 (50000)
I0713 15:15:42.299998 29022 net.cpp:156] Memory required for data: 8814800
I0713 15:15:42.300037 29022 layer_factory.hpp:77] Creating layer relu1
I0713 15:15:42.300081 29022 net.cpp:91] Creating Layer relu1
I0713 15:15:42.300103 29022 net.cpp:425] relu1 <- ip1
I0713 15:15:42.300138 29022 net.cpp:386] relu1 -> ip1 (in-place)
I0713 15:15:42.300166 29022 net.cpp:141] Setting up relu1
I0713 15:15:42.300201 29022 net.cpp:148] Top shape: 100 500 (50000)
I0713 15:15:42.300218 29022 net.cpp:156] Memory required for data: 9014800
I0713 15:15:42.300235 29022 layer_factory.hpp:77] Creating layer ip2
I0713 15:15:42.300272 29022 net.cpp:91] Creating Layer ip2
I0713 15:15:42.300290 29022 net.cpp:425] ip2 <- ip1
I0713 15:15:42.300323 29022 net.cpp:399] ip2 -> ip2
I0713 15:15:42.300401 29022 net.cpp:141] Setting up ip2
I0713 15:15:42.300438 29022 net.cpp:148] Top shape: 100 10 (1000)
I0713 15:15:42.300456 29022 net.cpp:156] Memory required for data: 9018800
I0713 15:15:42.300474 29022 layer_factory.hpp:77] Creating layer feat
I0713 15:15:42.300508 29022 net.cpp:91] Creating Layer feat
I0713 15:15:42.300525 29022 net.cpp:425] feat <- ip2
I0713 15:15:42.300559 29022 net.cpp:399] feat -> feat
I0713 15:15:42.300587 29022 net.cpp:141] Setting up feat
I0713 15:15:42.300621 29022 net.cpp:148] Top shape: 100 2 (200)
I0713 15:15:42.300637 29022 net.cpp:156] Memory required for data: 9019600
I0713 15:15:42.300658 29022 layer_factory.hpp:77] Creating layer conv1_p
I0713 15:15:42.300695 29022 net.cpp:91] Creating Layer conv1_p
I0713 15:15:42.300714 29022 net.cpp:425] conv1_p <- data_p
I0713 15:15:42.300747 29022 net.cpp:399] conv1_p -> conv1_p
I0713 15:15:42.300792 29022 net.cpp:141] Setting up conv1_p
I0713 15:15:42.300829 29022 net.cpp:148] Top shape: 100 20 24 24 (1152000)
I0713 15:15:42.300845 29022 net.cpp:156] Memory required for data: 13627600
I0713 15:15:42.300861 29022 net.cpp:484] Sharing parameters 'conv1_w' owned by layer 'conv1', param index 0
I0713 15:15:42.300892 29022 net.cpp:484] Sharing parameters 'conv1_b' owned by layer 'conv1', param index 1
I0713 15:15:42.300909 29022 layer_factory.hpp:77] Creating layer pool1_p
I0713 15:15:42.300930 29022 net.cpp:91] Creating Layer pool1_p
I0713 15:15:42.300961 29022 net.cpp:425] pool1_p <- conv1_p
I0713 15:15:42.300979 29022 net.cpp:399] pool1_p -> pool1_p
I0713 15:15:42.301017 29022 net.cpp:141] Setting up pool1_p
I0713 15:15:42.301035 29022 net.cpp:148] Top shape: 100 20 12 12 (288000)
I0713 15:15:42.301064 29022 net.cpp:156] Memory required for data: 14779600
I0713 15:15:42.301079 29022 layer_factory.hpp:77] Creating layer conv2_p
I0713 15:15:42.301103 29022 net.cpp:91] Creating Layer conv2_p
I0713 15:15:42.301578 29022 net.cpp:425] conv2_p <- pool1_p
I0713 15:15:42.301674 29022 net.cpp:399] conv2_p -> conv2_p
I0713 15:15:42.301930 29022 net.cpp:141] Setting up conv2_p
I0713 15:15:42.301970 29022 net.cpp:148] Top shape: 100 50 8 8 (320000)
I0713 15:15:42.302006 29022 net.cpp:156] Memory required for data: 16059600
I0713 15:15:42.302037 29022 net.cpp:484] Sharing parameters 'conv2_w' owned by layer 'conv2', param index 0
I0713 15:15:42.302055 29022 net.cpp:484] Sharing parameters 'conv2_b' owned by layer 'conv2', param index 1
I0713 15:15:42.302084 29022 layer_factory.hpp:77] Creating layer pool2_p
I0713 15:15:42.302106 29022 net.cpp:91] Creating Layer pool2_p
I0713 15:15:42.302136 29022 net.cpp:425] pool2_p <- conv2_p
I0713 15:15:42.302156 29022 net.cpp:399] pool2_p -> pool2_p
I0713 15:15:42.302193 29022 net.cpp:141] Setting up pool2_p
I0713 15:15:42.302212 29022 net.cpp:148] Top shape: 100 50 4 4 (80000)
I0713 15:15:42.302240 29022 net.cpp:156] Memory required for data: 16379600
I0713 15:15:42.302255 29022 layer_factory.hpp:77] Creating layer ip1_p
I0713 15:15:42.302274 29022 net.cpp:91] Creating Layer ip1_p
I0713 15:15:42.302304 29022 net.cpp:425] ip1_p <- pool2_p
I0713 15:15:42.302325 29022 net.cpp:399] ip1_p -> ip1_p
I0713 15:15:42.305532 29022 net.cpp:141] Setting up ip1_p
I0713 15:15:42.305591 29022 net.cpp:148] Top shape: 100 500 (50000)
I0713 15:15:42.305613 29022 net.cpp:156] Memory required for data: 16579600
I0713 15:15:42.305635 29022 net.cpp:484] Sharing parameters 'ip1_w' owned by layer 'ip1', param index 0
I0713 15:15:42.305660 29022 net.cpp:484] Sharing parameters 'ip1_b' owned by layer 'ip1', param index 1
I0713 15:15:42.305680 29022 layer_factory.hpp:77] Creating layer relu1_p
I0713 15:15:42.305709 29022 net.cpp:91] Creating Layer relu1_p
I0713 15:15:42.305726 29022 net.cpp:425] relu1_p <- ip1_p
I0713 15:15:42.305745 29022 net.cpp:386] relu1_p -> ip1_p (in-place)
I0713 15:15:42.305766 29022 net.cpp:141] Setting up relu1_p
I0713 15:15:42.305783 29022 net.cpp:148] Top shape: 100 500 (50000)
I0713 15:15:42.305797 29022 net.cpp:156] Memory required for data: 16779600
I0713 15:15:42.305810 29022 layer_factory.hpp:77] Creating layer ip2_p
I0713 15:15:42.305832 29022 net.cpp:91] Creating Layer ip2_p
I0713 15:15:42.305847 29022 net.cpp:425] ip2_p <- ip1_p
I0713 15:15:42.305866 29022 net.cpp:399] ip2_p -> ip2_p
I0713 15:15:42.305935 29022 net.cpp:141] Setting up ip2_p
I0713 15:15:42.305954 29022 net.cpp:148] Top shape: 100 10 (1000)
I0713 15:15:42.305968 29022 net.cpp:156] Memory required for data: 16783600
I0713 15:15:42.305986 29022 net.cpp:484] Sharing parameters 'ip2_w' owned by layer 'ip2', param index 0
I0713 15:15:42.306002 29022 net.cpp:484] Sharing parameters 'ip2_b' owned by layer 'ip2', param index 1
I0713 15:15:42.306016 29022 layer_factory.hpp:77] Creating layer feat_p
I0713 15:15:42.306064 29022 net.cpp:91] Creating Layer feat_p
I0713 15:15:42.306079 29022 net.cpp:425] feat_p <- ip2_p
I0713 15:15:42.306095 29022 net.cpp:399] feat_p -> feat_p
I0713 15:15:42.306125 29022 net.cpp:141] Setting up feat_p
I0713 15:15:42.306144 29022 net.cpp:148] Top shape: 100 2 (200)
I0713 15:15:42.306157 29022 net.cpp:156] Memory required for data: 16784400
I0713 15:15:42.306171 29022 net.cpp:484] Sharing parameters 'feat_w' owned by layer 'feat', param index 0
I0713 15:15:42.306186 29022 net.cpp:484] Sharing parameters 'feat_b' owned by layer 'feat', param index 1
I0713 15:15:42.306200 29022 layer_factory.hpp:77] Creating layer loss
I0713 15:15:42.306218 29022 net.cpp:91] Creating Layer loss
…
