…
I0929 23:10:49.286162 24351 net.cpp:313] The NetState phase (0) differed from the phase (1) specified by a rule in layer pair_data
I0929 23:10:49.286386 24351 net.cpp:49] Initializing net from parameters: 
name: "mnist_siamese_train_test_sim"
state {
  phase: TRAIN
}
layer {
  name: "pair_data"
  type: "Data"
  top: "pair_data"
  top: "label"
  include {
    phase: TRAIN
  }
  transform_param {
    scale: 0.00390625
  }
  data_param {
    source: "/home/shaogang/caffe/examples/siamese/mnist_siamese_train_leveldb_0to6_replace_456789_rotateMerge_600000"
    batch_size: 64
    backend: LEVELDB
  }
}
layer {
  name: "slice_pair"
  type: "Slice"
  bottom: "pair_data"
  top: "data"
  top: "data_p"
  slice_param {
    slice_dim: 1
    slice_point: 1
  }
}
layer {
  name: "conv1"
  type: "Convolution"
  bottom: "data"
  top: "conv1"
  param {
    name: "conv1_w"
    lr_mult: 1
  }
  param {
    name: "conv1_b"
    lr_mult: 2
  }
  convolution_param {
    num_output: 20
    kernel_size: 5
    stride: 1
    weight_filler {
      type: "xavier"
    }
    bias_filler {
      type: "constant"
    }
  }
}
layer {
  name: "pool1"
  type: "Pooling"
  bottom: "conv1"
  top: "pool1"
  pooling_param {
    pool: MAX
    kernel_size: 2
    stride: 2
  }
}
layer {
  name: "conv2"
  type: "Convolution"
  bottom: "pool1"
  top: "conv2"
  param {
    name: "conv2_w"
    lr_mult: 1
  }
  param {
    name: "conv2_b"
    lr_mult: 2
  }
  convolution_param {
    num_output: 50
    kernel_size: 5
    stride: 1
    weight_filler {
      type: "xavier"
    }
    bias_filler {
      type: "constant"
    }
  }
}
layer {
  name: "pool2"
  type: "Pooling"
  bottom: "conv2"
  top: "pool2"
  pooling_param {
    pool: MAX
    kernel_size: 2
    stride: 2
  }
}
layer {
  name: "ip1"
  type: "InnerProduct"
  bottom: "pool2"
  top: "ip1"
  param {
    name: "ip1_w"
    lr_mult: 1
  }
  param {
    name: "ip1_b"
    lr_mult: 2
  }
  inner_product_param {
    num_output: 500
    weight_filler {
      type: "xavier"
    }
    bias_filler {
      type: "constant"
    }
  }
}
layer {
  name: "relu1"
  type: "ReLU"
  bottom: "ip1"
  top: "ip1"
}
layer {
  name: "ip2"
  type: "InnerProduct"
  bottom: "ip1"
  top: "ip2"
  param {
    name: "ip2_w"
    lr_mult: 1
  }
  param {
    name: "ip2_b"
    lr_mult: 2
  }
  inner_product_param {
    num_output: 10
    weight_filler {
      type: "xavier"
    }
    bias_filler {
      type: "constant"
    }
  }
}
layer {
  name: "feat"
  type: "InnerProduct"
  bottom: "ip2"
  top: "feat"
  param {
    name: "feat_w"
    lr_mult: 1
  }
  param {
    name: "feat_b"
    lr_mult: 2
  }
  inner_product_param {
    num_output: 2
    weight_filler {
      type: "xavier"
    }
    bias_filler {
      type: "constant"
    }
  }
}
layer {
  name: "conv1_p"
  type: "Convolution"
  bottom: "data_p"
  top: "conv1_p"
  param {
    name: "conv1_w"
    lr_mult: 1
  }
  param {
    name: "conv1_b"
    lr_mult: 2
  }
  convolution_param {
    num_output: 20
    kernel_size: 5
    stride: 1
    weight_filler {
      type: "xavier"
    }
    bias_filler {
      type: "constant"
    }
  }
}
layer {
  name: "pool1_p"
  type: "Pooling"
  bottom: "conv1_p"
  top: "pool1_p"
  pooling_param {
    pool: MAX
    kernel_size: 2
    stride: 2
  }
}
layer {
  name: "conv2_p"
  type: "Convolution"
  bottom: "pool1_p"
  top: "conv2_p"
  param {
    name: "conv2_w"
    lr_mult: 1
  }
  param {
    name: "conv2_b"
    lr_mult: 2
  }
  convolution_param {
    num_output: 50
    kernel_size: 5
    stride: 1
    weight_filler {
      type: "xavier"
    }
    bias_filler {
      type: "constant"
    }
  }
}
layer {
  name: "pool2_p"
  type: "Pooling"
  bottom: "conv2_p"
  top: "pool2_p"
  pooling_param {
    pool: MAX
    kernel_size: 2
    stride: 2
  }
}
layer {
  name: "ip1_p"
  type: "InnerProduct"
  bottom: "pool2_p"
  top: "ip1_p"
  param {
    name: "ip1_w"
    lr_mult: 1
  }
  param {
    name: "ip1_b"
    lr_mult: 2
  }
  inner_product_param {
    num_output: 500
    weight_filler {
      type: "xavier"
    }
    bias_filler {
      type: "constant"
    }
  }
}
layer {
  name: "relu1_p"
  type: "ReLU"
  bottom: "ip1_p"
  top: "ip1_p"
}
layer {
  name: "ip2_p"
  type: "InnerProduct"
  bottom: "ip1_p"
  top: "ip2_p"
  param {
    name: "ip2_w"
    lr_mult: 1
  }
  param {
    name: "ip2_b"
    lr_mult: 2
  }
  inner_product_param {
    num_output: 10
    weight_filler {
      type: "xavier"
    }
    bias_filler {
      type: "constant"
    }
  }
}
layer {
  name: "feat_p"
  type: "InnerProduct"
  bottom: "ip2_p"
  top: "feat_p"
  param {
    name: "feat_w"
    lr_mult: 1
  }
  param {
    name: "feat_b"
    lr_mult: 2
  }
  inner_product_param {
    num_output: 2
    weight_filler {
      type: "xavier"
    }
    bias_filler {
      type: "constant"
    }
  }
}
layer {
  name: "concat"
  type: "Concat"
  bottom: "feat"
  bottom: "feat_p"
  top: "comb"
  concat_param {
    axis: 1
  }
}
layer {
  name: "fc1"
  type: "InnerProduct"
  bottom: "comb"
  top: "fc1"
  param {
    name: "fc1_w"
    lr_mult: 1
  }
  param {
    name: "fc1_b"
    lr_mult: 2
  }
  inner_product_param {
    num_output: 100
    weight_filler {
      type: "xavier"
    }
    bias_filler {
      type: "constant"
    }
  }
}
layer {
  name: "relu1_fc1"
  type: "ReLU"
  bottom: "fc1"
  top: "fc1"
}
layer {
  name: "fc2"
  type: "InnerProduct"
  bottom: "fc1"
  top: "fc2"
  param {
    name: "fc2_w"
    lr_mult: 1
  }
  param {
    name: "fc2_b"
    lr_mult: 2
  }
  inner_product_param {
    num_output: 50
    weight_filler {
      type: "xavier"
    }
    bias_filler {
      type: "constant"
    }
  }
}
layer {
  name: "relu2_fc2"
  type: "ReLU"
  bottom: "fc2"
  top: "fc2"
}
layer {
  name: "fc3"
  type: "InnerProduct"
  bottom: "fc2"
  top: "fc3"
  param {
    name: "fc3_w"
    lr_mult: 1
  }
  param {
    name: "fc3_b"
    lr_mult: 2
  }
  inner_product_param {
    num_output: 2
    weight_filler {
      type: "xavier"
    }
    bias_filler {
      type: "constant"
    }
  }
}
layer {
  name: "loss"
  type: "SoftmaxWithLoss"
  bottom: "fc3"
  bottom: "label"
  top: "loss"
}
layer {
  name: "accuracy"
  type: "Accuracy"
  bottom: "fc3"
  bottom: "label"
  top: "accuracy"
}
I0929 23:10:49.287689 24351 layer_factory.hpp:77] Creating layer pair_data
I0929 23:10:49.288305 24351 net.cpp:91] Creating Layer pair_data
I0929 23:10:49.288349 24351 net.cpp:399] pair_data -> pair_data
I0929 23:10:49.288395 24351 net.cpp:399] pair_data -> label
I0929 23:10:49.298142 24355 db_leveldb.cpp:18] Opened leveldb /home/shaogang/caffe/examples/siamese/mnist_siamese_train_leveldb_0to6_replace_456789_rotateMerge_600000
I0929 23:10:49.298638 24351 data_layer.cpp:41] output data size: 64,2,28,28
I0929 23:10:49.299114 24351 net.cpp:141] Setting up pair_data
I0929 23:10:49.299134 24351 net.cpp:148] Top shape: 64 2 28 28 (100352)
I0929 23:10:49.299142 24351 net.cpp:148] Top shape: 64 (64)
I0929 23:10:49.299145 24351 net.cpp:156] Memory required for data: 401664
I0929 23:10:49.299156 24351 layer_factory.hpp:77] Creating layer label_pair_data_1_split
I0929 23:10:49.299168 24351 net.cpp:91] Creating Layer label_pair_data_1_split
I0929 23:10:49.299175 24351 net.cpp:425] label_pair_data_1_split <- label
I0929 23:10:49.299185 24351 net.cpp:399] label_pair_data_1_split -> label_pair_data_1_split_0
I0929 23:10:49.299195 24351 net.cpp:399] label_pair_data_1_split -> label_pair_data_1_split_1
I0929 23:10:49.299207 24351 net.cpp:141] Setting up label_pair_data_1_split
I0929 23:10:49.299212 24351 net.cpp:148] Top shape: 64 (64)
I0929 23:10:49.299216 24351 net.cpp:148] Top shape: 64 (64)
I0929 23:10:49.299217 24351 net.cpp:156] Memory required for data: 402176
I0929 23:10:49.299237 24356 blocking_queue.cpp:50] Waiting for data
I0929 23:10:49.299239 24351 layer_factory.hpp:77] Creating layer slice_pair
I0929 23:10:49.299556 24351 net.cpp:91] Creating Layer slice_pair
I0929 23:10:49.299571 24351 net.cpp:425] slice_pair <- pair_data
I0929 23:10:49.299579 24351 net.cpp:399] slice_pair -> data
I0929 23:10:49.299590 24351 net.cpp:399] slice_pair -> data_p
I0929 23:10:49.299674 24351 net.cpp:141] Setting up slice_pair
I0929 23:10:49.299686 24351 net.cpp:148] Top shape: 64 1 28 28 (50176)
I0929 23:10:49.299690 24351 net.cpp:148] Top shape: 64 1 28 28 (50176)
I0929 23:10:49.299692 24351 net.cpp:156] Memory required for data: 803584
I0929 23:10:49.299695 24351 layer_factory.hpp:77] Creating layer conv1
I0929 23:10:49.299713 24351 net.cpp:91] Creating Layer conv1
I0929 23:10:49.299717 24351 net.cpp:425] conv1 <- data
I0929 23:10:49.299724 24351 net.cpp:399] conv1 -> conv1
I0929 23:10:49.299774 24351 net.cpp:141] Setting up conv1
I0929 23:10:49.299779 24351 net.cpp:148] Top shape: 64 20 24 24 (737280)
I0929 23:10:49.299782 24351 net.cpp:156] Memory required for data: 3752704
I0929 23:10:49.299792 24351 layer_factory.hpp:77] Creating layer pool1
I0929 23:10:49.299819 24351 net.cpp:91] Creating Layer pool1
I0929 23:10:49.299823 24351 net.cpp:425] pool1 <- conv1
I0929 23:10:49.299827 24351 net.cpp:399] pool1 -> pool1
I0929 23:10:49.299844 24351 net.cpp:141] Setting up pool1
I0929 23:10:49.299847 24351 net.cpp:148] Top shape: 64 20 12 12 (184320)
I0929 23:10:49.299850 24351 net.cpp:156] Memory required for data: 4489984
I0929 23:10:49.299852 24351 layer_factory.hpp:77] Creating layer conv2
I0929 23:10:49.300074 24351 net.cpp:91] Creating Layer conv2
I0929 23:10:49.300089 24351 net.cpp:425] conv2 <- pool1
I0929 23:10:49.300099 24351 net.cpp:399] conv2 -> conv2
I0929 23:10:49.300349 24351 net.cpp:141] Setting up conv2
I0929 23:10:49.300365 24351 net.cpp:148] Top shape: 64 50 8 8 (204800)
I0929 23:10:49.300369 24351 net.cpp:156] Memory required for data: 5309184
I0929 23:10:49.300376 24351 layer_factory.hpp:77] Creating layer pool2
I0929 23:10:49.300384 24351 net.cpp:91] Creating Layer pool2
I0929 23:10:49.300386 24351 net.cpp:425] pool2 <- conv2
I0929 23:10:49.300392 24351 net.cpp:399] pool2 -> pool2
I0929 23:10:49.300400 24351 net.cpp:141] Setting up pool2
I0929 23:10:49.300405 24351 net.cpp:148] Top shape: 64 50 4 4 (51200)
I0929 23:10:49.300406 24351 net.cpp:156] Memory required for data: 5513984
I0929 23:10:49.300408 24351 layer_factory.hpp:77] Creating layer ip1
I0929 23:10:49.300422 24351 net.cpp:91] Creating Layer ip1
I0929 23:10:49.300426 24351 net.cpp:425] ip1 <- pool2
I0929 23:10:49.300429 24351 net.cpp:399] ip1 -> ip1
I0929 23:10:49.303856 24351 net.cpp:141] Setting up ip1
I0929 23:10:49.303892 24351 net.cpp:148] Top shape: 64 500 (32000)
I0929 23:10:49.303897 24351 net.cpp:156] Memory required for data: 5641984
I0929 23:10:49.303915 24351 layer_factory.hpp:77] Creating layer relu1
I0929 23:10:49.303932 24351 net.cpp:91] Creating Layer relu1
I0929 23:10:49.303938 24351 net.cpp:425] relu1 <- ip1
I0929 23:10:49.303944 24351 net.cpp:386] relu1 -> ip1 (in-place)
I0929 23:10:49.303954 24351 net.cpp:141] Setting up relu1
I0929 23:10:49.303959 24351 net.cpp:148] Top shape: 64 500 (32000)
I0929 23:10:49.303961 24351 net.cpp:156] Memory required for data: 5769984
I0929 23:10:49.303964 24351 layer_factory.hpp:77] Creating layer ip2
I0929 23:10:49.303972 24351 net.cpp:91] Creating Layer ip2
I0929 23:10:49.303975 24351 net.cpp:425] ip2 <- ip1
I0929 23:10:49.303982 24351 net.cpp:399] ip2 -> ip2
I0929 23:10:49.304033 24351 net.cpp:141] Setting up ip2
I0929 23:10:49.304039 24351 net.cpp:148] Top shape: 64 10 (640)
I0929 23:10:49.304041 24351 net.cpp:156] Memory required for data: 5772544
I0929 23:10:49.304046 24351 layer_factory.hpp:77] Creating layer feat
I0929 23:10:49.304052 24351 net.cpp:91] Creating Layer feat
I0929 23:10:49.304055 24351 net.cpp:425] feat <- ip2
I0929 23:10:49.304061 24351 net.cpp:399] feat -> feat
I0929 23:10:49.304069 24351 net.cpp:141] Setting up feat
I0929 23:10:49.304096 24351 net.cpp:148] Top shape: 64 2 (128)
I0929 23:10:49.304100 24351 net.cpp:156] Memory required for data: 5773056
I0929 23:10:49.304106 24351 layer_factory.hpp:77] Creating layer conv1_p
I0929 23:10:49.304117 24351 net.cpp:91] Creating Layer conv1_p
I0929 23:10:49.304121 24351 net.cpp:425] conv1_p <- data_p
I0929 23:10:49.304126 24351 net.cpp:399] conv1_p -> conv1_p
I0929 23:10:49.304153 24351 net.cpp:141] Setting up conv1_p
I0929 23:10:49.304157 24351 net.cpp:148] Top shape: 64 20 24 24 (737280)
I0929 23:10:49.304160 24351 net.cpp:156] Memory required for data: 8722176
I0929 23:10:49.304163 24351 net.cpp:484] Sharing parameters 'conv1_w' owned by layer 'conv1', param index 0
I0929 23:10:49.304167 24351 net.cpp:484] Sharing parameters 'conv1_b' owned by layer 'conv1', param index 1
I0929 23:10:49.304169 24351 layer_factory.hpp:77] Creating layer pool1_p
I0929 23:10:49.304177 24351 net.cpp:91] Creating Layer pool1_p
I0929 23:10:49.304178 24351 net.cpp:425] pool1_p <- conv1_p
I0929 23:10:49.304183 24351 net.cpp:399] pool1_p -> pool1_p
I0929 23:10:49.304190 24351 net.cpp:141] Setting up pool1_p
I0929 23:10:49.304193 24351 net.cpp:148] Top shape: 64 20 12 12 (184320)
I0929 23:10:49.304195 24351 net.cpp:156] Memory required for data: 9459456
I0929 23:10:49.304198 24351 layer_factory.hpp:77] Creating layer conv2_p
I0929 23:10:49.304205 24351 net.cpp:91] Creating Layer conv2_p
I0929 23:10:49.304208 24351 net.cpp:425] conv2_p <- pool1_p
I0929 23:10:49.304214 24351 net.cpp:399] conv2_p -> conv2_p
I0929 23:10:49.304410 24351 net.cpp:141] Setting up conv2_p
I0929 23:10:49.304415 24351 net.cpp:148] Top shape: 64 50 8 8 (204800)
I0929 23:10:49.304417 24351 net.cpp:156] Memory required for data: 10278656
I0929 23:10:49.304420 24351 net.cpp:484] Sharing parameters 'conv2_w' owned by layer 'conv2', param index 0
I0929 23:10:49.304425 24351 net.cpp:484] Sharing parameters 'conv2_b' owned by layer 'conv2', param index 1
I0929 23:10:49.304427 24351 layer_factory.hpp:77] Creating layer pool2_p
I0929 23:10:49.304433 24351 net.cpp:91] Creating Layer pool2_p
I0929 23:10:49.304435 24351 net.cpp:425] pool2_p <- conv2_p
I0929 23:10:49.304440 24351 net.cpp:399] pool2_p -> pool2_p
I0929 23:10:49.304447 24351 net.cpp:141] Setting up pool2_p
I0929 23:10:49.304452 24351 net.cpp:148] Top shape: 64 50 4 4 (51200)
I0929 23:10:49.304455 24351 net.cpp:156] Memory required for data: 10483456
I0929 23:10:49.304456 24351 layer_factory.hpp:77] Creating layer ip1_p
I0929 23:10:49.304461 24351 net.cpp:91] Creating Layer ip1_p
I0929 23:10:49.304463 24351 net.cpp:425] ip1_p <- pool2_p
I0929 23:10:49.304468 24351 net.cpp:399] ip1_p -> ip1_p
I0929 23:10:49.309037 24351 net.cpp:141] Setting up ip1_p
I0929 23:10:49.311769 24351 net.cpp:148] Top shape: 64 500 (32000)
I0929 23:10:49.311894 24351 net.cpp:156] Memory required for data: 10611456
I0929 23:10:49.311949 24351 net.cpp:484] Sharing parameters 'ip1_w' owned by layer 'ip1', param index 0
I0929 23:10:49.312005 24351 net.cpp:484] Sharing parameters 'ip1_b' owned by layer 'ip1', param index 1
I0929 23:10:49.312049 24351 layer_factory.hpp:77] Creating layer relu1_p
I0929 23:10:49.312088 24351 net.cpp:91] Creating Layer relu1_p
I0929 23:10:49.312125 24351 net.cpp:425] relu1_p <- ip1_p
I0929 23:10:49.312170 24351 net.cpp:386] relu1_p -> ip1_p (in-place)
I0929 23:10:49.312237 24351 net.cpp:141] Setting up relu1_p
I0929 23:10:49.312280 24351 net.cpp:148] Top shape: 64 500 (32000)
I0929 23:10:49.312317 24351 net.cpp:156] Memory required for data: 10739456
I0929 23:10:49.312366 24351 layer_factory.hpp:77] Creating layer ip2_p
I0929 23:10:49.312402 24351 net.cpp:91] Creating Layer ip2_p
I0929 23:10:49.312427 24351 net.cpp:425] ip2_p <- ip1_p
I0929 23:10:49.312472 24351 net.cpp:399] ip2_p -> ip2_p
I0929 23:10:49.312831 24351 net.cpp:141] Setting up ip2_p
I0929 23:10:49.312865 24351 net.cpp:148] Top shape: 64 10 (640)
I0929 23:10:49.312881 24351 net.cpp:156] Memory required for data: 10742016
I0929 23:10:49.312902 24351 net.cpp:484] Sharing parameters 'ip2_w' owned by layer 'ip2', param index 0
I0929 23:10:49.312938 24351 net.cpp:484] Sharing parameters 'ip2_b' owned by layer 'ip2', param index 1
I0929 23:10:49.312957 24351 layer_factory.hpp:77] Creating layer feat_p
I0929 23:10:49.312978 24351 net.cpp:91] Creating Layer feat_p
I0929 23:10:49.312994 24351 net.cpp:425] feat_p <- ip2_p
I0929 23:10:49.313015 24351 net.cpp:399] feat_p -> feat_p
I0929 23:10:49.313042 24351 net.cpp:141] Setting up feat_p
I0929 23:10:49.313061 24351 net.cpp:148] Top shape: 64 2 (128)
I0929 23:10:49.313076 24351 net.cpp:156] Memory required for data: 10742528
I0929 23:10:49.313091 24351 net.cpp:484] Sharing parameters 'feat_w' owned by layer 'feat', param index 0
I0929 23:10:49.313107 24351 net.cpp:484] Sharing parameters 'feat_b' owned by layer 'feat', param index 1
I0929 23:10:49.313122 24351 layer_factory.hpp:77] Creating layer concat
I0929 23:10:49.313140 24351 net.cpp:91] Creating Layer concat
I0929 23:10:49.313155 24351 net.cpp:425] concat <- feat
I0929 23:10:49.313171 24351 net.cpp:425] concat <- feat_p
I0929 23:10:49.313190 24351 net.cpp:399] concat -> comb
I0929 23:10:49.313293 24351 net.cpp:141] Setting up concat
I0929 23:10:49.313323 24351 net.cpp:148] Top shape: 64 4 (256)
I0929 23:10:49.313338 24351 net.cpp:156] Memory required for data: 10743552
I0929 23:10:49.313354 24351 layer_factory.hpp:77] Creating layer fc1
I0929 23:10:49.313372 24351 net.cpp:91] Creating Layer fc1
I0929 23:10:49.313388 24351 net.cpp:425] fc1 <- comb
I0929 23:10:49.313405 24351 net.cpp:399] fc1 -> fc1
I0929 23:10:49.313441 24351 net.cpp:141] Setting up fc1
I0929 23:10:49.313460 24351 net.cpp:148] Top shape: 64 100 (6400)
I0929 23:10:49.313474 24351 net.cpp:156] Memory required for data: 10769152
I0929 23:10:49.313491 24351 layer_factory.hpp:77] Creating layer relu1_fc1
I0929 23:10:49.313509 24351 net.cpp:91] Creating Layer relu1_fc1
I0929 23:10:49.313525 24351 net.cpp:425] relu1_fc1 <- fc1
I0929 23:10:49.313541 24351 net.cpp:386] relu1_fc1 -> fc1 (in-place)
I0929 23:10:49.313560 24351 net.cpp:141] Setting up relu1_fc1
I0929 23:10:49.313577 24351 net.cpp:148] Top shape: 64 100 (6400)
I0929 23:10:49.313591 24351 net.cpp:156] Memory required for data: 10794752
I0929 23:10:49.313606 24351 layer_factory.hpp:77] Creating layer fc2
I0929 23:10:49.313627 24351 net.cpp:91] Creating Layer fc2
I0929 23:10:49.313642 24351 net.cpp:425] fc2 <- fc1
I0929 23:10:49.313662 24351 net.cpp:399] fc2 -> fc2
I0929 23:10:49.313724 24351 net.cpp:141] Setting up fc2
I0929 23:10:49.313745 24351 net.cpp:148] Top shape: 64 50 (3200)
I0929 23:10:49.313758 24351 net.cpp:156] Memory required for data: 10807552
I0929 23:10:49.313776 24351 layer_factory.hpp:77] Creating layer relu2_fc2
I0929 23:10:49.313792 24351 net.cpp:91] Creating Layer relu2_fc2
I0929 23:10:49.313807 24351 net.cpp:425] relu2_fc2 <- fc2
I0929 23:10:49.313833 24351 net.cpp:386] relu2_fc2 -> fc2 (in-place)
I0929 23:10:49.313850 24351 net.cpp:141] Setting up relu2_fc2
I0929 23:10:49.313865 24351 net.cpp:148] Top shape: 64 50 (3200)
I0929 23:10:49.313877 24351 net.cpp:156] Memory required for data: 10820352
I0929 23:10:49.313890 24351 layer_factory.hpp:77] Creating layer fc3
I0929 23:10:49.313906 24351 net.cpp:91] Creating Layer fc3
I0929 23:10:49.313920 24351 net.cpp:425] fc3 <- fc2
I0929 23:10:49.313935 24351 net.cpp:399] fc3 -> fc3
I0929 23:10:49.313961 24351 net.cpp:141] Setting up fc3
I0929 23:10:49.313977 24351 net.cpp:148] Top shape: 64 2 (128)
I0929 23:10:49.313989 24351 net.cpp:156] Memory required for data: 10820864
I0929 23:10:49.314004 24351 layer_factory.hpp:77] Creating layer fc3_fc3_0_split
I0929 23:10:49.314020 24351 net.cpp:91] Creating Layer fc3_fc3_0_split
I0929 23:10:49.314033 24351 net.cpp:425] fc3_fc3_0_split <- fc3
I0929 23:10:49.314049 24351 net.cpp:399] fc3_fc3_0_split -> fc3_fc3_0_split_0
I0929 23:10:49.314064 24351 net.cpp:399] fc3_fc3_0_split -> fc3_fc3_0_split_1
I0929 23:10:49.314083 24351 net.cpp:141] Setting up fc3_fc3_0_split
I0929 23:10:49.314098 24351 net.cpp:148] Top shape: 64 2 (128)
I0929 23:10:49.314111 24351 net.cpp:148] Top shape: 64 2 (128)
I0929 23:10:49.314131 24351 net.cpp:156] Memory required for data: 10821888
I0929 23:10:49.314153 24351 layer_factory.hpp:77] Creating layer loss
I0929 23:10:49.314169 24351 net.cpp:91] Creating Layer loss
I0929 23:10:49.314182 24351 net.cpp:425] loss <- fc3_fc3_0_split_0
I0929 23:10:49.314198 24351 net.cpp:425] loss <- label_pair_data_1_split_0
I0929 23:10:49.314215 24351 net.cpp:399] loss -> loss
…
I0929 23:10:49.322841 24351 net.cpp:313] The NetState phase (1) differed from the phase (0) specified by a rule in layer pair_data
I0929 23:10:49.323218 24351 net.cpp:49] Initializing net from parameters: 
name: "mnist_siamese_train_test_sim"
state {
  phase: TEST
}
layer {
  name: "pair_data"
  type: "Data"
  top: "pair_data"
  top: "label"
  include {
    phase: TEST
  }
  transform_param {
    scale: 0.00390625
  }
  data_param {
    source: "/home/shaogang/caffe/examples/siamese/mnist_siamese_test_leveldb_89"
    batch_size: 100
    backend: LEVELDB
  }
}
layer {
  name: "slice_pair"
  type: "Slice"
  bottom: "pair_data"
  top: "data"
  top: "data_p"
  slice_param {
    slice_dim: 1
    slice_point: 1
  }
}
layer {
  name: "conv1"
  type: "Convolution"
  bottom: "data"
  top: "conv1"
  param {
    name: "conv1_w"
    lr_mult: 1
  }
  param {
    name: "conv1_b"
    lr_mult: 2
  }
  convolution_param {
    num_output: 20
    kernel_size: 5
    stride: 1
    weight_filler {
      type: "xavier"
    }
    bias_filler {
      type: "constant"
    }
  }
}
layer {
  name: "pool1"
  type: "Pooling"
  bottom: "conv1"
  top: "pool1"
  pooling_param {
    pool: MAX
    kernel_size: 2
    stride: 2
  }
}
layer {
  name: "conv2"
  type: "Convolution"
  bottom: "pool1"
  top: "conv2"
  param {
    name: "conv2_w"
    lr_mult: 1
  }
  param {
    name: "conv2_b"
    lr_mult: 2
  }
  convolution_param {
    num_output: 50
    kernel_size: 5
    stride: 1
    weight_filler {
      type: "xavier"
    }
    bias_filler {
      type: "constant"
    }
  }
}
layer {
  name: "pool2"
  type: "Pooling"
  bottom: "conv2"
  top: "pool2"
  pooling_param {
    pool: MAX
    kernel_size: 2
    stride: 2
  }
}
layer {
  name: "ip1"
  type: "InnerProduct"
  bottom: "pool2"
  top: "ip1"
  param {
    name: "ip1_w"
    lr_mult: 1
  }
  param {
    name: "ip1_b"
    lr_mult: 2
  }
  inner_product_param {
    num_output: 500
    weight_filler {
      type: "xavier"
    }
    bias_filler {
      type: "constant"
    }
  }
}
layer {
  name: "relu1"
  type: "ReLU"
  bottom: "ip1"
  top: "ip1"
}
layer {
  name: "ip2"
  type: "InnerProduct"
  bottom: "ip1"
  top: "ip2"
  param {
    name: "ip2_w"
    lr_mult: 1
  }
  param {
    name: "ip2_b"
    lr_mult: 2
  }
  inner_product_param {
    num_output: 10
    weight_filler {
      type: "xavier"
    }
    bias_filler {
      type: "constant"
    }
  }
}
layer {
  name: "feat"
  type: "InnerProduct"
  bottom: "ip2"
  top: "feat"
  param {
    name: "feat_w"
    lr_mult: 1
  }
  param {
    name: "feat_b"
    lr_mult: 2
  }
  inner_product_param {
    num_output: 2
    weight_filler {
      type: "xavier"
    }
    bias_filler {
      type: "constant"
    }
  }
}
layer {
  name: "conv1_p"
  type: "Convolution"
  bottom: "data_p"
  top: "conv1_p"
  param {
    name: "conv1_w"
    lr_mult: 1
  }
  param {
    name: "conv1_b"
    lr_mult: 2
  }
  convolution_param {
    num_output: 20
    kernel_size: 5
    stride: 1
    weight_filler {
      type: "xavier"
    }
    bias_filler {
      type: "constant"
    }
  }
}
layer {
  name: "pool1_p"
  type: "Pooling"
  bottom: "conv1_p"
  top: "pool1_p"
  pooling_param {
    pool: MAX
    kernel_size: 2
    stride: 2
  }
}
layer {
  name: "conv2_p"
  type: "Convolution"
  bottom: "pool1_p"
  top: "conv2_p"
  param {
    name: "conv2_w"
    lr_mult: 1
  }
  param {
    name: "conv2_b"
    lr_mult: 2
  }
  convolution_param {
    num_output: 50
    kernel_size: 5
    stride: 1
    weight_filler {
      type: "xavier"
    }
    bias_filler {
      type: "constant"
    }
  }
}
layer {
  name: "pool2_p"
  type: "Pooling"
  bottom: "conv2_p"
  top: "pool2_p"
  pooling_param {
    pool: MAX
    kernel_size: 2
    stride: 2
  }
}
layer {
  name: "ip1_p"
  type: "InnerProduct"
  bottom: "pool2_p"
  top: "ip1_p"
  param {
    name: "ip1_w"
    lr_mult: 1
  }
  param {
    name: "ip1_b"
    lr_mult: 2
  }
  inner_product_param {
    num_output: 500
    weight_filler {
      type: "xavier"
    }
    bias_filler {
      type: "constant"
    }
  }
}
layer {
  name: "relu1_p"
  type: "ReLU"
  bottom: "ip1_p"
  top: "ip1_p"
}
layer {
  name: "ip2_p"
  type: "InnerProduct"
  bottom: "ip1_p"
  top: "ip2_p"
  param {
    name: "ip2_w"
    lr_mult: 1
  }
  param {
    name: "ip2_b"
    lr_mult: 2
  }
  inner_product_param {
    num_output: 10
    weight_filler {
      type: "xavier"
    }
    bias_filler {
      type: "constant"
    }
  }
}
layer {
  name: "feat_p"
  type: "InnerProduct"
  bottom: "ip2_p"
  top: "feat_p"
  param {
    name: "feat_w"
    lr_mult: 1
  }
  param {
    name: "feat_b"
    lr_mult: 2
  }
  inner_product_param {
    num_output: 2
    weight_filler {
      type: "xavier"
    }
    bias_filler {
      type: "constant"
    }
  }
}
layer {
  name: "concat"
  type: "Concat"
  bottom: "feat"
  bottom: "feat_p"
  top: "comb"
  concat_param {
    axis: 1
  }
}
layer {
  name: "fc1"
  type: "InnerProduct"
  bottom: "comb"
  top: "fc1"
  param {
    name: "fc1_w"
    lr_mult: 1
  }
  param {
    name: "fc1_b"
    lr_mult: 2
  }
  inner_product_param {
    num_output: 100
    weight_filler {
      type: "xavier"
    }
    bias_filler {
      type: "constant"
    }
  }
}
layer {
  name: "relu1_fc1"
  type: "ReLU"
  bottom: "fc1"
  top: "fc1"
}
layer {
  name: "fc2"
  type: "InnerProduct"
  bottom: "fc1"
  top: "fc2"
  param {
    name: "fc2_w"
    lr_mult: 1
  }
  param {
    name: "fc2_b"
    lr_mult: 2
  }
  inner_product_param {
    num_output: 50
    weight_filler {
      type: "xavier"
    }
    bias_filler {
      type: "constant"
    }
  }
}
layer {
  name: "relu2_fc2"
  type: "ReLU"
  bottom: "fc2"
  top: "fc2"
}
layer {
  name: "fc3"
  type: "InnerProduct"
  bottom: "fc2"
  top: "fc3"
  param {
    name: "fc3_w"
    lr_mult: 1
  }
  param {
    name: "fc3_b"
    lr_mult: 2
  }
  inner_product_param {
    num_output: 2
    weight_filler {
      type: "xavier"
    }
    bias_filler {
      type: "constant"
    }
  }
}
layer {
  name: "loss"
  type: "SoftmaxWithLoss"
  bottom: "fc3"
  bottom: "label"
  top: "loss"
}
layer {
  name: "accuracy"
  type: "Accuracy"
  bottom: "fc3"
  bottom: "label"
  top: "accuracy"
}
I0929 23:10:49.325526 24351 layer_factory.hpp:77] Creating layer pair_data
I0929 23:10:49.325749 24351 net.cpp:91] Creating Layer pair_data
I0929 23:10:49.325803 24351 net.cpp:399] pair_data -> pair_data
I0929 23:10:49.325863 24351 net.cpp:399] pair_data -> label
I0929 23:10:49.335700 24357 db_leveldb.cpp:18] Opened leveldb /home/shaogang/caffe/examples/siamese/mnist_siamese_test_leveldb_89
I0929 23:10:49.336014 24351 data_layer.cpp:41] output data size: 100,2,28,28
I0929 23:10:49.336776 24351 net.cpp:141] Setting up pair_data
I0929 23:10:49.336829 24351 net.cpp:148] Top shape: 100 2 28 28 (156800)
I0929 23:10:49.336848 24351 net.cpp:148] Top shape: 100 (100)
I0929 23:10:49.336863 24351 net.cpp:156] Memory required for data: 627600
I0929 23:10:49.336880 24351 layer_factory.hpp:77] Creating layer label_pair_data_1_split
I0929 23:10:49.336905 24351 net.cpp:91] Creating Layer label_pair_data_1_split
I0929 23:10:49.336920 24351 net.cpp:425] label_pair_data_1_split <- label
I0929 23:10:49.336940 24351 net.cpp:399] label_pair_data_1_split -> label_pair_data_1_split_0
I0929 23:10:49.336969 24351 net.cpp:399] label_pair_data_1_split -> label_pair_data_1_split_1
I0929 23:10:49.336989 24351 net.cpp:141] Setting up label_pair_data_1_split
I0929 23:10:49.337005 24351 net.cpp:148] Top shape: 100 (100)
I0929 23:10:49.337019 24351 net.cpp:148] Top shape: 100 (100)
I0929 23:10:49.337038 24351 net.cpp:156] Memory required for data: 628400
I0929 23:10:49.337057 24351 layer_factory.hpp:77] Creating layer slice_pair
I0929 23:10:49.337077 24351 net.cpp:91] Creating Layer slice_pair
I0929 23:10:49.337090 24351 net.cpp:425] slice_pair <- pair_data
I0929 23:10:49.337106 24351 net.cpp:399] slice_pair -> data
I0929 23:10:49.337124 24351 net.cpp:399] slice_pair -> data_p
I0929 23:10:49.337144 24351 net.cpp:141] Setting up slice_pair
I0929 23:10:49.337159 24351 net.cpp:148] Top shape: 100 1 28 28 (78400)
I0929 23:10:49.337173 24351 net.cpp:148] Top shape: 100 1 28 28 (78400)
I0929 23:10:49.337252 24351 net.cpp:156] Memory required for data: 1255600
I0929 23:10:49.337270 24351 layer_factory.hpp:77] Creating layer conv1
I0929 23:10:49.337330 24351 net.cpp:91] Creating Layer conv1
I0929 23:10:49.337350 24351 net.cpp:425] conv1 <- data
I0929 23:10:49.337368 24351 net.cpp:399] conv1 -> conv1
I0929 23:10:49.337415 24351 net.cpp:141] Setting up conv1
I0929 23:10:49.337446 24351 net.cpp:148] Top shape: 100 20 24 24 (1152000)
I0929 23:10:49.337460 24351 net.cpp:156] Memory required for data: 5863600
I0929 23:10:49.337478 24351 layer_factory.hpp:77] Creating layer pool1
I0929 23:10:49.337497 24351 net.cpp:91] Creating Layer pool1
I0929 23:10:49.337512 24351 net.cpp:425] pool1 <- conv1
I0929 23:10:49.337527 24351 net.cpp:399] pool1 -> pool1
I0929 23:10:49.337548 24351 net.cpp:141] Setting up pool1
I0929 23:10:49.337563 24351 net.cpp:148] Top shape: 100 20 12 12 (288000)
I0929 23:10:49.337576 24351 net.cpp:156] Memory required for data: 7015600
I0929 23:10:49.337589 24351 layer_factory.hpp:77] Creating layer conv2
I0929 23:10:49.337607 24351 net.cpp:91] Creating Layer conv2
I0929 23:10:49.337620 24351 net.cpp:425] conv2 <- pool1
I0929 23:10:49.337636 24351 net.cpp:399] conv2 -> conv2
I0929 23:10:49.337843 24351 net.cpp:141] Setting up conv2
I0929 23:10:49.337864 24351 net.cpp:148] Top shape: 100 50 8 8 (320000)
I0929 23:10:49.337878 24351 net.cpp:156] Memory required for data: 8295600
I0929 23:10:49.337895 24351 layer_factory.hpp:77] Creating layer pool2
I0929 23:10:49.337913 24351 net.cpp:91] Creating Layer pool2
I0929 23:10:49.337925 24351 net.cpp:425] pool2 <- conv2
I0929 23:10:49.337941 24351 net.cpp:399] pool2 -> pool2
I0929 23:10:49.337960 24351 net.cpp:141] Setting up pool2
I0929 23:10:49.337975 24351 net.cpp:148] Top shape: 100 50 4 4 (80000)
I0929 23:10:49.337987 24351 net.cpp:156] Memory required for data: 8615600
I0929 23:10:49.338001 24351 layer_factory.hpp:77] Creating layer ip1
I0929 23:10:49.338017 24351 net.cpp:91] Creating Layer ip1
I0929 23:10:49.338032 24351 net.cpp:425] ip1 <- pool2
I0929 23:10:49.338047 24351 net.cpp:399] ip1 -> ip1
I0929 23:10:49.346606 24351 net.cpp:141] Setting up ip1
I0929 23:10:49.346810 24351 net.cpp:148] Top shape: 100 500 (50000)
I0929 23:10:49.346854 24351 net.cpp:156] Memory required for data: 8815600
I0929 23:10:49.346959 24351 layer_factory.hpp:77] Creating layer relu1
I0929 23:10:49.347046 24351 net.cpp:91] Creating Layer relu1
I0929 23:10:49.347085 24351 net.cpp:425] relu1 <- ip1
I0929 23:10:49.347097 24351 net.cpp:386] relu1 -> ip1 (in-place)
I0929 23:10:49.347111 24351 net.cpp:141] Setting up relu1
I0929 23:10:49.347120 24351 net.cpp:148] Top shape: 100 500 (50000)
I0929 23:10:49.347123 24351 net.cpp:156] Memory required for data: 9015600
I0929 23:10:49.347128 24351 layer_factory.hpp:77] Creating layer ip2
I0929 23:10:49.347138 24351 net.cpp:91] Creating Layer ip2
I0929 23:10:49.347143 24351 net.cpp:425] ip2 <- ip1
I0929 23:10:49.347151 24351 net.cpp:399] ip2 -> ip2
I0929 23:10:49.347214 24351 net.cpp:141] Setting up ip2
I0929 23:10:49.347246 24351 net.cpp:148] Top shape: 100 10 (1000)
I0929 23:10:49.347252 24351 net.cpp:156] Memory required for data: 9019600
I0929 23:10:49.347261 24351 layer_factory.hpp:77] Creating layer feat
I0929 23:10:49.347271 24351 net.cpp:91] Creating Layer feat
I0929 23:10:49.347276 24351 net.cpp:425] feat <- ip2
I0929 23:10:49.347285 24351 net.cpp:399] feat -> feat
I0929 23:10:49.347301 24351 net.cpp:141] Setting up feat
I0929 23:10:49.347308 24351 net.cpp:148] Top shape: 100 2 (200)
I0929 23:10:49.347313 24351 net.cpp:156] Memory required for data: 9020400
I0929 23:10:49.347323 24351 layer_factory.hpp:77] Creating layer conv1_p
I0929 23:10:49.347381 24351 net.cpp:91] Creating Layer conv1_p
I0929 23:10:49.347405 24351 net.cpp:425] conv1_p <- data_p
I0929 23:10:49.347415 24351 net.cpp:399] conv1_p -> conv1_p
I0929 23:10:49.347445 24351 net.cpp:141] Setting up conv1_p
I0929 23:10:49.347450 24351 net.cpp:148] Top shape: 100 20 24 24 (1152000)
I0929 23:10:49.347453 24351 net.cpp:156] Memory required for data: 13628400
I0929 23:10:49.347457 24351 net.cpp:484] Sharing parameters 'conv1_w' owned by layer 'conv1', param index 0
I0929 23:10:49.347460 24351 net.cpp:484] Sharing parameters 'conv1_b' owned by layer 'conv1', param index 1
I0929 23:10:49.347465 24351 layer_factory.hpp:77] Creating layer pool1_p
I0929 23:10:49.347470 24351 net.cpp:91] Creating Layer pool1_p
I0929 23:10:49.347492 24351 net.cpp:425] pool1_p <- conv1_p
I0929 23:10:49.347498 24351 net.cpp:399] pool1_p -> pool1_p
I0929 23:10:49.347510 24351 net.cpp:141] Setting up pool1_p
I0929 23:10:49.347514 24351 net.cpp:148] Top shape: 100 20 12 12 (288000)
I0929 23:10:49.347517 24351 net.cpp:156] Memory required for data: 14780400
I0929 23:10:49.347519 24351 layer_factory.hpp:77] Creating layer conv2_p
I0929 23:10:49.347528 24351 net.cpp:91] Creating Layer conv2_p
I0929 23:10:49.347530 24351 net.cpp:425] conv2_p <- pool1_p
I0929 23:10:49.347535 24351 net.cpp:399] conv2_p -> conv2_p
I0929 23:10:49.354918 24351 net.cpp:141] Setting up conv2_p
I0929 23:10:49.354964 24351 net.cpp:148] Top shape: 100 50 8 8 (320000)
I0929 23:10:49.354969 24351 net.cpp:156] Memory required for data: 16060400
I0929 23:10:49.354974 24351 net.cpp:484] Sharing parameters 'conv2_w' owned by layer 'conv2', param index 0
I0929 23:10:49.354979 24351 net.cpp:484] Sharing parameters 'conv2_b' owned by layer 'conv2', param index 1
I0929 23:10:49.354984 24351 layer_factory.hpp:77] Creating layer pool2_p
I0929 23:10:49.354993 24351 net.cpp:91] Creating Layer pool2_p
I0929 23:10:49.354997 24351 net.cpp:425] pool2_p <- conv2_p
I0929 23:10:49.355006 24351 net.cpp:399] pool2_p -> pool2_p
I0929 23:10:49.355021 24351 net.cpp:141] Setting up pool2_p
I0929 23:10:49.355041 24351 net.cpp:148] Top shape: 100 50 4 4 (80000)
I0929 23:10:49.355046 24351 net.cpp:156] Memory required for data: 16380400
I0929 23:10:49.355049 24351 layer_factory.hpp:77] Creating layer ip1_p
I0929 23:10:49.355058 24351 net.cpp:91] Creating Layer ip1_p
I0929 23:10:49.355062 24351 net.cpp:425] ip1_p <- pool2_p
I0929 23:10:49.355067 24351 net.cpp:399] ip1_p -> ip1_p
I0929 23:10:49.362463 24351 net.cpp:141] Setting up ip1_p
I0929 23:10:49.362511 24351 net.cpp:148] Top shape: 100 500 (50000)
I0929 23:10:49.362515 24351 net.cpp:156] Memory required for data: 16580400
I0929 23:10:49.362524 24351 net.cpp:484] Sharing parameters 'ip1_w' owned by layer 'ip1', param index 0
I0929 23:10:49.362529 24351 net.cpp:484] Sharing parameters 'ip1_b' owned by layer 'ip1', param index 1
I0929 23:10:49.362532 24351 layer_factory.hpp:77] Creating layer relu1_p
I0929 23:10:49.362545 24351 net.cpp:91] Creating Layer relu1_p
I0929 23:10:49.362550 24351 net.cpp:425] relu1_p <- ip1_p
I0929 23:10:49.362555 24351 net.cpp:386] relu1_p -> ip1_p (in-place)
I0929 23:10:49.362565 24351 net.cpp:141] Setting up relu1_p
I0929 23:10:49.362568 24351 net.cpp:148] Top shape: 100 500 (50000)
I0929 23:10:49.362571 24351 net.cpp:156] Memory required for data: 16780400
I0929 23:10:49.362573 24351 layer_factory.hpp:77] Creating layer ip2_p
I0929 23:10:49.362582 24351 net.cpp:91] Creating Layer ip2_p
I0929 23:10:49.362586 24351 net.cpp:425] ip2_p <- ip1_p
I0929 23:10:49.362591 24351 net.cpp:399] ip2_p -> ip2_p
I0929 23:10:49.362645 24351 net.cpp:141] Setting up ip2_p
I0929 23:10:49.362650 24351 net.cpp:148] Top shape: 100 10 (1000)
I0929 23:10:49.362653 24351 net.cpp:156] Memory required for data: 16784400
I0929 23:10:49.362658 24351 net.cpp:484] Sharing parameters 'ip2_w' owned by layer 'ip2', param index 0
I0929 23:10:49.362663 24351 net.cpp:484] Sharing parameters 'ip2_b' owned by layer 'ip2', param index 1
I0929 23:10:49.362664 24351 layer_factory.hpp:77] Creating layer feat_p
I0929 23:10:49.362671 24351 net.cpp:91] Creating Layer feat_p
I0929 23:10:49.362673 24351 net.cpp:425] feat_p <- ip2_p
I0929 23:10:49.362678 24351 net.cpp:399] feat_p -> feat_p
I0929 23:10:49.362686 24351 net.cpp:141] Setting up feat_p
I0929 23:10:49.362689 24351 net.cpp:148] Top shape: 100 2 (200)
I0929 23:10:49.362692 24351 net.cpp:156] Memory required for data: 16785200
I0929 23:10:49.362694 24351 net.cpp:484] Sharing parameters 'feat_w' owned by layer 'feat', param index 0
I0929 23:10:49.362697 24351 net.cpp:484] Sharing parameters 'feat_b' owned by layer 'feat', param index 1
I0929 23:10:49.362700 24351 layer_factory.hpp:77] Creating layer concat
I0929 23:10:49.362707 24351 net.cpp:91] Creating Layer concat
I0929 23:10:49.362709 24351 net.cpp:425] concat <- feat
I0929 23:10:49.362730 24351 net.cpp:425] concat <- feat_p
I0929 23:10:49.362735 24351 net.cpp:399] concat -> comb
I0929 23:10:49.362742 24351 net.cpp:141] Setting up concat
I0929 23:10:49.362746 24351 net.cpp:148] Top shape: 100 4 (400)
I0929 23:10:49.362748 24351 net.cpp:156] Memory required for data: 16786800
I0929 23:10:49.362751 24351 layer_factory.hpp:77] Creating layer fc1
I0929 23:10:49.362756 24351 net.cpp:91] Creating Layer fc1
I0929 23:10:49.362758 24351 net.cpp:425] fc1 <- comb
I0929 23:10:49.362762 24351 net.cpp:399] fc1 -> fc1
I0929 23:10:49.362776 24351 net.cpp:141] Setting up fc1
I0929 23:10:49.362782 24351 net.cpp:148] Top shape: 100 100 (10000)
I0929 23:10:49.362785 24351 net.cpp:156] Memory required for data: 16826800
I0929 23:10:49.362789 24351 layer_factory.hpp:77] Creating layer relu1_fc1
I0929 23:10:49.362793 24351 net.cpp:91] Creating Layer relu1_fc1
I0929 23:10:49.362797 24351 net.cpp:425] relu1_fc1 <- fc1
I0929 23:10:49.362800 24351 net.cpp:386] relu1_fc1 -> fc1 (in-place)
I0929 23:10:49.362805 24351 net.cpp:141] Setting up relu1_fc1
I0929 23:10:49.362808 24351 net.cpp:148] Top shape: 100 100 (10000)
I0929 23:10:49.362812 24351 net.cpp:156] Memory required for data: 16866800
I0929 23:10:49.362813 24351 layer_factory.hpp:77] Creating layer fc2
I0929 23:10:49.362818 24351 net.cpp:91] Creating Layer fc2
I0929 23:10:49.362823 24351 net.cpp:425] fc2 <- fc1
I0929 23:10:49.362826 24351 net.cpp:399] fc2 -> fc2
I0929 23:10:49.362869 24351 net.cpp:141] Setting up fc2
I0929 23:10:49.362893 24351 net.cpp:148] Top shape: 100 50 (5000)
I0929 23:10:49.362898 24351 net.cpp:156] Memory required for data: 16886800
I0929 23:10:49.362906 24351 layer_factory.hpp:77] Creating layer relu2_fc2
I0929 23:10:49.362915 24351 net.cpp:91] Creating Layer relu2_fc2
I0929 23:10:49.362920 24351 net.cpp:425] relu2_fc2 <- fc2
I0929 23:10:49.362926 24351 net.cpp:386] relu2_fc2 -> fc2 (in-place)
I0929 23:10:49.362931 24351 net.cpp:141] Setting up relu2_fc2
I0929 23:10:49.362934 24351 net.cpp:148] Top shape: 100 50 (5000)
I0929 23:10:49.362937 24351 net.cpp:156] Memory required for data: 16906800
I0929 23:10:49.362939 24351 layer_factory.hpp:77] Creating layer fc3
I0929 23:10:49.362944 24351 net.cpp:91] Creating Layer fc3
I0929 23:10:49.362947 24351 net.cpp:425] fc3 <- fc2
I0929 23:10:49.362952 24351 net.cpp:399] fc3 -> fc3
I0929 23:10:49.362962 24351 net.cpp:141] Setting up fc3
I0929 23:10:49.362965 24351 net.cpp:148] Top shape: 100 2 (200)
I0929 23:10:49.362968 24351 net.cpp:156] Memory required for data: 16907600
I0929 23:10:49.362972 24351 layer_factory.hpp:77] Creating layer fc3_fc3_0_split
I0929 23:10:49.362977 24351 net.cpp:91] Creating Layer fc3_fc3_0_split
I0929 23:10:49.362979 24351 net.cpp:425] fc3_fc3_0_split <- fc3
I0929 23:10:49.362983 24351 net.cpp:399] fc3_fc3_0_split -> fc3_fc3_0_split_0
I0929 23:10:49.362987 24351 net.cpp:399] fc3_fc3_0_split -> fc3_fc3_0_split_1
I0929 23:10:49.362993 24351 net.cpp:141] Setting up fc3_fc3_0_split
I0929 23:10:49.362995 24351 net.cpp:148] Top shape: 100 2 (200)
I0929 23:10:49.362998 24351 net.cpp:148] Top shape: 100 2 (200)
I0929 23:10:49.363001 24351 net.cpp:156] Memory required for data: 16909200
I0929 23:10:49.363003 24351 layer_factory.hpp:77] Creating layer loss
I0929 23:10:49.363009 24351 net.cpp:91] Creating Layer loss
I0929 23:10:49.363011 24351 net.cpp:425] loss <- fc3_fc3_0_split_0
I0929 23:10:49.363015 24351 net.cpp:425] loss <- label_pair_data_1_split_0
I0929 23:10:49.363020 24351 net.cpp:399] loss -> loss
…
