…
I0714 07:54:59.905947 32200 solver.cpp:91] Creating training net from net file: examples/siamese/mnist_siamese_train_test_feat3.prototxt
I0714 07:54:59.906523 32200 net.cpp:313] The NetState phase (0) differed from the phase (1) specified by a rule in layer pair_data
I0714 07:54:59.910064 32200 net.cpp:49] Initializing net from parameters: 
name: "mnist_siamese_train_test_feat3"
state {
  phase: TRAIN
}
layer {
  name: "pair_data"
  type: "Data"
  top: "pair_data"
  top: "sim"
  include {
    phase: TRAIN
  }
  transform_param {
    scale: 0.00390625
  }
  data_param {
    source: "examples/siamese/mnist_siamese_train_leveldb_0to2"
    batch_size: 64
  }
}
layer {
  name: "slice_pair"
  type: "Slice"
  bottom: "pair_data"
  top: "data"
  top: "data_p"
  slice_param {
    slice_dim: 1
    slice_point: 1
  }
}
layer {
  name: "conv1"
  type: "Convolution"
  bottom: "data"
  top: "conv1"
  param {
    name: "conv1_w"
    lr_mult: 1
  }
  param {
    name: "conv1_b"
    lr_mult: 2
  }
  convolution_param {
    num_output: 20
    kernel_size: 5
    stride: 1
    weight_filler {
      type: "xavier"
    }
    bias_filler {
      type: "constant"
    }
  }
}
layer {
  name: "pool1"
  type: "Pooling"
  bottom: "conv1"
  top: "pool1"
  pooling_param {
    pool: MAX
    kernel_size: 2
    stride: 2
  }
}
layer {
  name: "conv2"
  type: "Convolution"
  bottom: "pool1"
  top: "conv2"
  param {
    name: "conv2_w"
    lr_mult: 1
  }
  param {
    name: "conv2_b"
    lr_mult: 2
  }
  convolution_param {
    num_output: 50
    kernel_size: 5
    stride: 1
    weight_filler {
      type: "xavier"
    }
    bias_filler {
      type: "constant"
    }
  }
}
layer {
  name: "pool2"
  type: "Pooling"
  bottom: "conv2"
  top: "pool2"
  pooling_param {
    pool: MAX
    kernel_size: 2
    stride: 2
  }
}
layer {
  name: "ip1"
  type: "InnerProduct"
  bottom: "pool2"
  top: "ip1"
  param {
    name: "ip1_w"
    lr_mult: 1
  }
  param {
    name: "ip1_b"
    lr_mult: 2
  }
  inner_product_param {
    num_output: 500
    weight_filler {
      type: "xavier"
    }
    bias_filler {
      type: "constant"
    }
  }
}
layer {
  name: "relu1"
  type: "ReLU"
  bottom: "ip1"
  top: "ip1"
}
layer {
  name: "ip2"
  type: "InnerProduct"
  bottom: "ip1"
  top: "ip2"
  param {
    name: "ip2_w"
    lr_mult: 1
  }
  param {
    name: "ip2_b"
    lr_mult: 2
  }
  inner_product_param {
    num_output: 10
    weight_filler {
      type: "xavier"
    }
    bias_filler {
      type: "constant"
    }
  }
}
layer {
  name: "feat"
  type: "InnerProduct"
  bottom: "ip2"
  top: "feat"
  param {
    name: "feat_w"
    lr_mult: 1
  }
  param {
    name: "feat_b"
    lr_mult: 2
  }
  inner_product_param {
    num_output: 3
    weight_filler {
      type: "xavier"
    }
    bias_filler {
      type: "constant"
    }
  }
}
layer {
  name: "conv1_p"
  type: "Convolution"
  bottom: "data_p"
  top: "conv1_p"
  param {
    name: "conv1_w"
    lr_mult: 1
  }
  param {
    name: "conv1_b"
    lr_mult: 2
  }
  convolution_param {
    num_output: 20
    kernel_size: 5
    stride: 1
    weight_filler {
      type: "xavier"
    }
    bias_filler {
      type: "constant"
    }
  }
}
layer {
  name: "pool1_p"
  type: "Pooling"
  bottom: "conv1_p"
  top: "pool1_p"
  pooling_param {
    pool: MAX
    kernel_size: 2
    stride: 2
  }
}
layer {
  name: "conv2_p"
  type: "Convolution"
  bottom: "pool1_p"
  top: "conv2_p"
  param {
    name: "conv2_w"
    lr_mult: 1
  }
  param {
    name: "conv2_b"
    lr_mult: 2
  }
  convolution_param {
    num_output: 50
    kernel_size: 5
    stride: 1
    weight_filler {
      type: "xavier"
    }
    bias_filler {
      type: "constant"
    }
  }
}
layer {
  name: "pool2_p"
  type: "Pooling"
  bottom: "conv2_p"
  top: "pool2_p"
  pooling_param {
    pool: MAX
    kernel_size: 2
    stride: 2
  }
}
layer {
  name: "ip1_p"
  type: "InnerProduct"
  bottom: "pool2_p"
  top: "ip1_p"
  param {
    name: "ip1_w"
    lr_mult: 1
  }
  param {
    name: "ip1_b"
    lr_mult: 2
  }
  inner_product_param {
    num_output: 500
    weight_filler {
      type: "xavier"
    }
    bias_filler {
      type: "constant"
    }
  }
}
layer {
  name: "relu1_p"
  type: "ReLU"
  bottom: "ip1_p"
  top: "ip1_p"
}
layer {
  name: "ip2_p"
  type: "InnerProduct"
  bottom: "ip1_p"
  top: "ip2_p"
  param {
    name: "ip2_w"
    lr_mult: 1
  }
  param {
    name: "ip2_b"
    lr_mult: 2
  }
  inner_product_param {
    num_output: 10
    weight_filler {
      type: "xavier"
    }
    bias_filler {
      type: "constant"
    }
  }
}
layer {
  name: "feat_p"
  type: "InnerProduct"
  bottom: "ip2_p"
  top: "feat_p"
  param {
    name: "feat_w"
    lr_mult: 1
  }
  param {
    name: "feat_b"
    lr_mult: 2
  }
  inner_product_param {
    num_output: 3
    weight_filler {
      type: "xavier"
    }
    bias_filler {
      type: "constant"
    }
  }
}
layer {
  name: "loss"
  type: "ContrastiveLoss"
  bottom: "feat"
  bottom: "feat_p"
  bottom: "sim"
  top: "loss"
  contrastive_loss_param {
    margin: 1
  }
}
I0714 07:54:59.911592 32200 layer_factory.hpp:77] Creating layer pair_data
I0714 07:54:59.912400 32200 net.cpp:91] Creating Layer pair_data
I0714 07:54:59.912490 32200 net.cpp:399] pair_data -> pair_data
I0714 07:54:59.912562 32200 net.cpp:399] pair_data -> sim
I0714 07:54:59.925297 32204 db_leveldb.cpp:18] Opened leveldb examples/siamese/mnist_siamese_train_leveldb_0to2
I0714 07:54:59.941314 32200 data_layer.cpp:41] output data size: 64,2,28,28
I0714 07:54:59.943320 32200 net.cpp:141] Setting up pair_data
I0714 07:54:59.943516 32200 net.cpp:148] Top shape: 64 2 28 28 (100352)
I0714 07:54:59.943555 32200 net.cpp:148] Top shape: 64 (64)
I0714 07:54:59.943564 32200 net.cpp:156] Memory required for data: 401664
I0714 07:54:59.943701 32200 layer_factory.hpp:77] Creating layer slice_pair
I0714 07:54:59.943763 32200 net.cpp:91] Creating Layer slice_pair
I0714 07:54:59.943778 32200 net.cpp:425] slice_pair <- pair_data
I0714 07:54:59.943800 32200 net.cpp:399] slice_pair -> data
I0714 07:54:59.943820 32200 net.cpp:399] slice_pair -> data_p
I0714 07:54:59.943837 32200 net.cpp:141] Setting up slice_pair
I0714 07:54:59.943848 32200 net.cpp:148] Top shape: 64 1 28 28 (50176)
I0714 07:54:59.943856 32200 net.cpp:148] Top shape: 64 1 28 28 (50176)
I0714 07:54:59.943861 32200 net.cpp:156] Memory required for data: 803072
I0714 07:54:59.943866 32200 layer_factory.hpp:77] Creating layer conv1
I0714 07:54:59.943931 32200 net.cpp:91] Creating Layer conv1
I0714 07:54:59.943943 32200 net.cpp:425] conv1 <- data
I0714 07:54:59.943964 32200 net.cpp:399] conv1 -> conv1
I0714 07:54:59.944125 32200 net.cpp:141] Setting up conv1
I0714 07:54:59.944152 32200 net.cpp:148] Top shape: 64 20 24 24 (737280)
I0714 07:54:59.944160 32200 net.cpp:156] Memory required for data: 3752192
I0714 07:54:59.944205 32200 layer_factory.hpp:77] Creating layer pool1
I0714 07:54:59.944218 32200 net.cpp:91] Creating Layer pool1
I0714 07:54:59.944226 32200 net.cpp:425] pool1 <- conv1
I0714 07:54:59.944241 32200 net.cpp:399] pool1 -> pool1
I0714 07:54:59.944325 32200 net.cpp:141] Setting up pool1
I0714 07:54:59.944334 32200 net.cpp:148] Top shape: 64 20 12 12 (184320)
I0714 07:54:59.944340 32200 net.cpp:156] Memory required for data: 4489472
I0714 07:54:59.944346 32200 layer_factory.hpp:77] Creating layer conv2
I0714 07:54:59.944376 32200 net.cpp:91] Creating Layer conv2
I0714 07:54:59.944386 32200 net.cpp:425] conv2 <- pool1
I0714 07:54:59.944396 32200 net.cpp:399] conv2 -> conv2
I0714 07:54:59.944870 32200 net.cpp:141] Setting up conv2
I0714 07:54:59.944910 32200 net.cpp:148] Top shape: 64 50 8 8 (204800)
I0714 07:54:59.944982 32200 net.cpp:156] Memory required for data: 5308672
I0714 07:54:59.945006 32200 layer_factory.hpp:77] Creating layer pool2
I0714 07:54:59.945020 32200 net.cpp:91] Creating Layer pool2
I0714 07:54:59.945173 32200 net.cpp:425] pool2 <- conv2
I0714 07:54:59.945189 32200 net.cpp:399] pool2 -> pool2
I0714 07:54:59.945219 32200 net.cpp:141] Setting up pool2
I0714 07:54:59.945250 32200 net.cpp:148] Top shape: 64 50 4 4 (51200)
I0714 07:54:59.945261 32200 net.cpp:156] Memory required for data: 5513472
I0714 07:54:59.945272 32200 layer_factory.hpp:77] Creating layer ip1
I0714 07:54:59.945338 32200 net.cpp:91] Creating Layer ip1
I0714 07:54:59.945355 32200 net.cpp:425] ip1 <- pool2
I0714 07:54:59.945405 32200 net.cpp:399] ip1 -> ip1
I0714 07:54:59.951606 32200 net.cpp:141] Setting up ip1
I0714 07:54:59.963681 32200 net.cpp:148] Top shape: 64 500 (32000)
I0714 07:54:59.963788 32200 net.cpp:156] Memory required for data: 5641472
I0714 07:54:59.963845 32200 layer_factory.hpp:77] Creating layer relu1
I0714 07:54:59.963888 32200 net.cpp:91] Creating Layer relu1
I0714 07:54:59.963919 32200 net.cpp:425] relu1 <- ip1
I0714 07:54:59.963963 32200 net.cpp:386] relu1 -> ip1 (in-place)
I0714 07:54:59.964005 32200 net.cpp:141] Setting up relu1
I0714 07:54:59.964038 32200 net.cpp:148] Top shape: 64 500 (32000)
I0714 07:54:59.964066 32200 net.cpp:156] Memory required for data: 5769472
I0714 07:54:59.964092 32200 layer_factory.hpp:77] Creating layer ip2
I0714 07:54:59.964128 32200 net.cpp:91] Creating Layer ip2
I0714 07:54:59.964332 32200 net.cpp:425] ip2 <- ip1
I0714 07:54:59.964385 32200 net.cpp:399] ip2 -> ip2
I0714 07:54:59.964498 32200 net.cpp:141] Setting up ip2
I0714 07:54:59.964534 32200 net.cpp:148] Top shape: 64 10 (640)
I0714 07:54:59.964560 32200 net.cpp:156] Memory required for data: 5772032
I0714 07:54:59.964586 32200 layer_factory.hpp:77] Creating layer feat
I0714 07:54:59.964617 32200 net.cpp:91] Creating Layer feat
I0714 07:54:59.964643 32200 net.cpp:425] feat <- ip2
I0714 07:54:59.964673 32200 net.cpp:399] feat -> feat
I0714 07:54:59.964715 32200 net.cpp:141] Setting up feat
I0714 07:54:59.964743 32200 net.cpp:148] Top shape: 64 3 (192)
I0714 07:54:59.964766 32200 net.cpp:156] Memory required for data: 5772800
I0714 07:54:59.964797 32200 layer_factory.hpp:77] Creating layer conv1_p
I0714 07:54:59.964833 32200 net.cpp:91] Creating Layer conv1_p
I0714 07:54:59.964861 32200 net.cpp:425] conv1_p <- data_p
I0714 07:54:59.964892 32200 net.cpp:399] conv1_p -> conv1_p
I0714 07:54:59.964994 32200 net.cpp:141] Setting up conv1_p
I0714 07:54:59.965032 32200 net.cpp:148] Top shape: 64 20 24 24 (737280)
I0714 07:54:59.965055 32200 net.cpp:156] Memory required for data: 8721920
I0714 07:54:59.965080 32200 net.cpp:484] Sharing parameters 'conv1_w' owned by layer 'conv1', param index 0
I0714 07:54:59.965106 32200 net.cpp:484] Sharing parameters 'conv1_b' owned by layer 'conv1', param index 1
I0714 07:54:59.965128 32200 layer_factory.hpp:77] Creating layer pool1_p
I0714 07:54:59.965162 32200 net.cpp:91] Creating Layer pool1_p
I0714 07:54:59.965189 32200 net.cpp:425] pool1_p <- conv1_p
I0714 07:54:59.971631 32200 net.cpp:399] pool1_p -> pool1_p
I0714 07:54:59.972935 32200 net.cpp:141] Setting up pool1_p
I0714 07:54:59.973042 32200 net.cpp:148] Top shape: 64 20 12 12 (184320)
I0714 07:54:59.973085 32200 net.cpp:156] Memory required for data: 9459200
I0714 07:54:59.973121 32200 layer_factory.hpp:77] Creating layer conv2_p
I0714 07:54:59.973160 32200 net.cpp:91] Creating Layer conv2_p
I0714 07:54:59.973223 32200 net.cpp:425] conv2_p <- pool1_p
I0714 07:54:59.973364 32200 net.cpp:399] conv2_p -> conv2_p
I0714 07:54:59.974889 32200 net.cpp:141] Setting up conv2_p
I0714 07:54:59.974949 32200 net.cpp:148] Top shape: 64 50 8 8 (204800)
I0714 07:54:59.974969 32200 net.cpp:156] Memory required for data: 10278400
I0714 07:54:59.974989 32200 net.cpp:484] Sharing parameters 'conv2_w' owned by layer 'conv2', param index 0
I0714 07:54:59.975009 32200 net.cpp:484] Sharing parameters 'conv2_b' owned by layer 'conv2', param index 1
I0714 07:54:59.975028 32200 layer_factory.hpp:77] Creating layer pool2_p
I0714 07:54:59.975050 32200 net.cpp:91] Creating Layer pool2_p
I0714 07:54:59.975077 32200 net.cpp:425] pool2_p <- conv2_p
I0714 07:54:59.975114 32200 net.cpp:399] pool2_p -> pool2_p
I0714 07:54:59.975143 32200 net.cpp:141] Setting up pool2_p
I0714 07:54:59.975164 32200 net.cpp:148] Top shape: 64 50 4 4 (51200)
I0714 07:54:59.975179 32200 net.cpp:156] Memory required for data: 10483200
I0714 07:54:59.975200 32200 layer_factory.hpp:77] Creating layer ip1_p
I0714 07:54:59.975230 32200 net.cpp:91] Creating Layer ip1_p
I0714 07:54:59.975252 32200 net.cpp:425] ip1_p <- pool2_p
I0714 07:54:59.975275 32200 net.cpp:399] ip1_p -> ip1_p
I0714 07:54:59.978909 32200 net.cpp:141] Setting up ip1_p
I0714 07:54:59.979094 32200 net.cpp:148] Top shape: 64 500 (32000)
I0714 07:54:59.979122 32200 net.cpp:156] Memory required for data: 10611200
I0714 07:54:59.979146 32200 net.cpp:484] Sharing parameters 'ip1_w' owned by layer 'ip1', param index 0
I0714 07:54:59.979166 32200 net.cpp:484] Sharing parameters 'ip1_b' owned by layer 'ip1', param index 1
I0714 07:54:59.979183 32200 layer_factory.hpp:77] Creating layer relu1_p
I0714 07:54:59.979207 32200 net.cpp:91] Creating Layer relu1_p
I0714 07:54:59.979223 32200 net.cpp:425] relu1_p <- ip1_p
I0714 07:54:59.979240 32200 net.cpp:386] relu1_p -> ip1_p (in-place)
I0714 07:54:59.979262 32200 net.cpp:141] Setting up relu1_p
I0714 07:54:59.979280 32200 net.cpp:148] Top shape: 64 500 (32000)
I0714 07:54:59.979293 32200 net.cpp:156] Memory required for data: 10739200
I0714 07:54:59.979307 32200 layer_factory.hpp:77] Creating layer ip2_p
I0714 07:54:59.979332 32200 net.cpp:91] Creating Layer ip2_p
I0714 07:54:59.979348 32200 net.cpp:425] ip2_p <- ip1_p
I0714 07:54:59.979367 32200 net.cpp:399] ip2_p -> ip2_p
I0714 07:54:59.979437 32200 net.cpp:141] Setting up ip2_p
I0714 07:54:59.979456 32200 net.cpp:148] Top shape: 64 10 (640)
I0714 07:54:59.979470 32200 net.cpp:156] Memory required for data: 10741760
I0714 07:54:59.979486 32200 net.cpp:484] Sharing parameters 'ip2_w' owned by layer 'ip2', param index 0
I0714 07:54:59.979501 32200 net.cpp:484] Sharing parameters 'ip2_b' owned by layer 'ip2', param index 1
I0714 07:54:59.979636 32200 layer_factory.hpp:77] Creating layer feat_p
I0714 07:54:59.979662 32200 net.cpp:91] Creating Layer feat_p
I0714 07:54:59.979677 32200 net.cpp:425] feat_p <- ip2_p
I0714 07:54:59.979694 32200 net.cpp:399] feat_p -> feat_p
I0714 07:54:59.979722 32200 net.cpp:141] Setting up feat_p
I0714 07:54:59.979739 32200 net.cpp:148] Top shape: 64 3 (192)
I0714 07:54:59.979751 32200 net.cpp:156] Memory required for data: 10742528
I0714 07:54:59.979765 32200 net.cpp:484] Sharing parameters 'feat_w' owned by layer 'feat', param index 0
I0714 07:54:59.979780 32200 net.cpp:484] Sharing parameters 'feat_b' owned by layer 'feat', param index 1
I0714 07:54:59.979794 32200 layer_factory.hpp:77] Creating layer loss
I0714 07:54:59.979820 32200 net.cpp:91] Creating Layer loss
…
I0714 07:54:59.981014 32200 solver.cpp:181] Creating test net (#0) specified by net file: examples/siamese/mnist_siamese_train_test_feat3.prototxt
I0714 07:54:59.981091 32200 net.cpp:313] The NetState phase (1) differed from the phase (0) specified by a rule in layer pair_data
I0714 07:54:59.981312 32200 net.cpp:49] Initializing net from parameters: 
name: "mnist_siamese_train_test_feat3"
state {
  phase: TEST
}
layer {
  name: "pair_data"
  type: "Data"
  top: "pair_data"
  top: "sim"
  include {
    phase: TEST
  }
  transform_param {
    scale: 0.00390625
  }
  data_param {
    source: "examples/siamese/mnist_siamese_test_leveldb_0to2"
    batch_size: 100
  }
}
layer {
  name: "slice_pair"
  type: "Slice"
  bottom: "pair_data"
  top: "data"
  top: "data_p"
  slice_param {
    slice_dim: 1
    slice_point: 1
  }
}
layer {
  name: "conv1"
  type: "Convolution"
  bottom: "data"
  top: "conv1"
  param {
    name: "conv1_w"
    lr_mult: 1
  }
  param {
    name: "conv1_b"
    lr_mult: 2
  }
  convolution_param {
    num_output: 20
    kernel_size: 5
    stride: 1
    weight_filler {
      type: "xavier"
    }
    bias_filler {
      type: "constant"
    }
  }
}
layer {
  name: "pool1"
  type: "Pooling"
  bottom: "conv1"
  top: "pool1"
  pooling_param {
    pool: MAX
    kernel_size: 2
    stride: 2
  }
}
layer {
  name: "conv2"
  type: "Convolution"
  bottom: "pool1"
  top: "conv2"
  param {
    name: "conv2_w"
    lr_mult: 1
  }
  param {
    name: "conv2_b"
    lr_mult: 2
  }
  convolution_param {
    num_output: 50
    kernel_size: 5
    stride: 1
    weight_filler {
      type: "xavier"
    }
    bias_filler {
      type: "constant"
    }
  }
}
layer {
  name: "pool2"
  type: "Pooling"
  bottom: "conv2"
  top: "pool2"
  pooling_param {
    pool: MAX
    kernel_size: 2
    stride: 2
  }
}
layer {
  name: "ip1"
  type: "InnerProduct"
  bottom: "pool2"
  top: "ip1"
  param {
    name: "ip1_w"
    lr_mult: 1
  }
  param {
    name: "ip1_b"
    lr_mult: 2
  }
  inner_product_param {
    num_output: 500
    weight_filler {
      type: "xavier"
    }
    bias_filler {
      type: "constant"
    }
  }
}
layer {
  name: "relu1"
  type: "ReLU"
  bottom: "ip1"
  top: "ip1"
}
layer {
  name: "ip2"
  type: "InnerProduct"
  bottom: "ip1"
  top: "ip2"
  param {
    name: "ip2_w"
    lr_mult: 1
  }
  param {
    name: "ip2_b"
    lr_mult: 2
  }
  inner_product_param {
    num_output: 10
    weight_filler {
      type: "xavier"
    }
    bias_filler {
      type: "constant"
    }
  }
}
layer {
  name: "feat"
  type: "InnerProduct"
  bottom: "ip2"
  top: "feat"
  param {
    name: "feat_w"
    lr_mult: 1
  }
  param {
    name: "feat_b"
    lr_mult: 2
  }
  inner_product_param {
    num_output: 3
    weight_filler {
      type: "xavier"
    }
    bias_filler {
      type: "constant"
    }
  }
}
layer {
  name: "conv1_p"
  type: "Convolution"
  bottom: "data_p"
  top: "conv1_p"
  param {
    name: "conv1_w"
    lr_mult: 1
  }
  param {
    name: "conv1_b"
    lr_mult: 2
  }
  convolution_param {
    num_output: 20
    kernel_size: 5
    stride: 1
    weight_filler {
      type: "xavier"
    }
    bias_filler {
      type: "constant"
    }
  }
}
layer {
  name: "pool1_p"
  type: "Pooling"
  bottom: "conv1_p"
  top: "pool1_p"
  pooling_param {
    pool: MAX
    kernel_size: 2
    stride: 2
  }
}
layer {
  name: "conv2_p"
  type: "Convolution"
  bottom: "pool1_p"
  top: "conv2_p"
  param {
    name: "conv2_w"
    lr_mult: 1
  }
  param {
    name: "conv2_b"
    lr_mult: 2
  }
  convolution_param {
    num_output: 50
    kernel_size: 5
    stride: 1
    weight_filler {
      type: "xavier"
    }
    bias_filler {
      type: "constant"
    }
  }
}
layer {
  name: "pool2_p"
  type: "Pooling"
  bottom: "conv2_p"
  top: "pool2_p"
  pooling_param {
    pool: MAX
    kernel_size: 2
    stride: 2
  }
}
layer {
  name: "ip1_p"
  type: "InnerProduct"
  bottom: "pool2_p"
  top: "ip1_p"
  param {
    name: "ip1_w"
    lr_mult: 1
  }
  param {
    name: "ip1_b"
    lr_mult: 2
  }
  inner_product_param {
    num_output: 500
    weight_filler {
      type: "xavier"
    }
    bias_filler {
      type: "constant"
    }
  }
}
layer {
  name: "relu1_p"
  type: "ReLU"
  bottom: "ip1_p"
  top: "ip1_p"
}
layer {
  name: "ip2_p"
  type: "InnerProduct"
  bottom: "ip1_p"
  top: "ip2_p"
  param {
    name: "ip2_w"
    lr_mult: 1
  }
  param {
    name: "ip2_b"
    lr_mult: 2
  }
  inner_product_param {
    num_output: 10
    weight_filler {
      type: "xavier"
    }
    bias_filler {
      type: "constant"
    }
  }
}
layer {
  name: "feat_p"
  type: "InnerProduct"
  bottom: "ip2_p"
  top: "feat_p"
  param {
    name: "feat_w"
    lr_mult: 1
  }
  param {
    name: "feat_b"
    lr_mult: 2
  }
  inner_product_param {
    num_output: 3
    weight_filler {
      type: "xavier"
    }
    bias_filler {
      type: "constant"
    }
  }
}
layer {
  name: "loss"
  type: "ContrastiveLoss"
  bottom: "feat"
  bottom: "feat_p"
  bottom: "sim"
  top: "loss"
  contrastive_loss_param {
    margin: 1
  }
}
I0714 07:54:59.982187 32200 layer_factory.hpp:77] Creating layer pair_data
I0714 07:54:59.982341 32200 net.cpp:91] Creating Layer pair_data
I0714 07:54:59.982373 32200 net.cpp:399] pair_data -> pair_data
I0714 07:54:59.982403 32200 net.cpp:399] pair_data -> sim
I0714 07:54:59.998318 32206 db_leveldb.cpp:18] Opened leveldb examples/siamese/mnist_siamese_test_leveldb_0to2
I0714 07:55:00.004621 32200 data_layer.cpp:41] output data size: 100,2,28,28
I0714 07:55:00.011631 32200 net.cpp:141] Setting up pair_data
I0714 07:55:00.011728 32200 net.cpp:148] Top shape: 100 2 28 28 (156800)
I0714 07:55:00.011739 32200 net.cpp:148] Top shape: 100 (100)
I0714 07:55:00.011744 32200 net.cpp:156] Memory required for data: 627600
I0714 07:55:00.011752 32200 layer_factory.hpp:77] Creating layer slice_pair
I0714 07:55:00.011775 32200 net.cpp:91] Creating Layer slice_pair
I0714 07:55:00.011781 32200 net.cpp:425] slice_pair <- pair_data
I0714 07:55:00.011791 32200 net.cpp:399] slice_pair -> data
I0714 07:55:00.011876 32200 net.cpp:399] slice_pair -> data_p
I0714 07:55:00.011901 32200 net.cpp:141] Setting up slice_pair
I0714 07:55:00.011909 32200 net.cpp:148] Top shape: 100 1 28 28 (78400)
I0714 07:55:00.011916 32200 net.cpp:148] Top shape: 100 1 28 28 (78400)
I0714 07:55:00.011921 32200 net.cpp:156] Memory required for data: 1254800
I0714 07:55:00.011927 32200 layer_factory.hpp:77] Creating layer conv1
I0714 07:55:00.011946 32200 net.cpp:91] Creating Layer conv1
I0714 07:55:00.011951 32200 net.cpp:425] conv1 <- data
I0714 07:55:00.011960 32200 net.cpp:399] conv1 -> conv1
I0714 07:55:00.012004 32200 net.cpp:141] Setting up conv1
I0714 07:55:00.012013 32200 net.cpp:148] Top shape: 100 20 24 24 (1152000)
I0714 07:55:00.012017 32200 net.cpp:156] Memory required for data: 5862800
I0714 07:55:00.012030 32200 layer_factory.hpp:77] Creating layer pool1
I0714 07:55:00.012039 32200 net.cpp:91] Creating Layer pool1
I0714 07:55:00.012044 32200 net.cpp:425] pool1 <- conv1
I0714 07:55:00.012051 32200 net.cpp:399] pool1 -> pool1
I0714 07:55:00.012064 32200 net.cpp:141] Setting up pool1
I0714 07:55:00.012071 32200 net.cpp:148] Top shape: 100 20 12 12 (288000)
I0714 07:55:00.012076 32200 net.cpp:156] Memory required for data: 7014800
I0714 07:55:00.012081 32200 layer_factory.hpp:77] Creating layer conv2
I0714 07:55:00.012092 32200 net.cpp:91] Creating Layer conv2
I0714 07:55:00.012143 32200 net.cpp:425] conv2 <- pool1
I0714 07:55:00.012152 32200 net.cpp:399] conv2 -> conv2
I0714 07:55:00.012473 32200 net.cpp:141] Setting up conv2
I0714 07:55:00.012483 32200 net.cpp:148] Top shape: 100 50 8 8 (320000)
I0714 07:55:00.012487 32200 net.cpp:156] Memory required for data: 8294800
I0714 07:55:00.012496 32200 layer_factory.hpp:77] Creating layer pool2
I0714 07:55:00.012503 32200 net.cpp:91] Creating Layer pool2
I0714 07:55:00.012508 32200 net.cpp:425] pool2 <- conv2
I0714 07:55:00.012514 32200 net.cpp:399] pool2 -> pool2
I0714 07:55:00.012523 32200 net.cpp:141] Setting up pool2
I0714 07:55:00.012531 32200 net.cpp:148] Top shape: 100 50 4 4 (80000)
I0714 07:55:00.012534 32200 net.cpp:156] Memory required for data: 8614800
I0714 07:55:00.012538 32200 layer_factory.hpp:77] Creating layer ip1
I0714 07:55:00.012549 32200 net.cpp:91] Creating Layer ip1
I0714 07:55:00.012553 32200 net.cpp:425] ip1 <- pool2
I0714 07:55:00.012560 32200 net.cpp:399] ip1 -> ip1
I0714 07:55:00.022696 32200 net.cpp:141] Setting up ip1
I0714 07:55:00.030233 32200 net.cpp:148] Top shape: 100 500 (50000)
I0714 07:55:00.030303 32200 net.cpp:156] Memory required for data: 8814800
I0714 07:55:00.030387 32200 layer_factory.hpp:77] Creating layer relu1
I0714 07:55:00.030437 32200 net.cpp:91] Creating Layer relu1
I0714 07:55:00.030503 32200 net.cpp:425] relu1 <- ip1
I0714 07:55:00.030539 32200 net.cpp:386] relu1 -> ip1 (in-place)
I0714 07:55:00.030601 32200 net.cpp:141] Setting up relu1
I0714 07:55:00.030635 32200 net.cpp:148] Top shape: 100 500 (50000)
I0714 07:55:00.030715 32200 net.cpp:156] Memory required for data: 9014800
I0714 07:55:00.030772 32200 layer_factory.hpp:77] Creating layer ip2
I0714 07:55:00.030814 32200 net.cpp:91] Creating Layer ip2
I0714 07:55:00.030866 32200 net.cpp:425] ip2 <- ip1
I0714 07:55:00.030902 32200 net.cpp:399] ip2 -> ip2
I0714 07:55:00.031023 32200 net.cpp:141] Setting up ip2
I0714 07:55:00.031082 32200 net.cpp:148] Top shape: 100 10 (1000)
I0714 07:55:00.031111 32200 net.cpp:156] Memory required for data: 9018800
I0714 07:55:00.031164 32200 layer_factory.hpp:77] Creating layer feat
I0714 07:55:00.031199 32200 net.cpp:91] Creating Layer feat
I0714 07:55:00.031225 32200 net.cpp:425] feat <- ip2
I0714 07:55:00.031255 32200 net.cpp:399] feat -> feat
I0714 07:55:00.031299 32200 net.cpp:141] Setting up feat
I0714 07:55:00.031330 32200 net.cpp:148] Top shape: 100 3 (300)
I0714 07:55:00.031354 32200 net.cpp:156] Memory required for data: 9020000
I0714 07:55:00.031384 32200 layer_factory.hpp:77] Creating layer conv1_p
I0714 07:55:00.031420 32200 net.cpp:91] Creating Layer conv1_p
I0714 07:55:00.031446 32200 net.cpp:425] conv1_p <- data_p
I0714 07:55:00.031474 32200 net.cpp:399] conv1_p -> conv1_p
I0714 07:55:00.031538 32200 net.cpp:141] Setting up conv1_p
I0714 07:55:00.031569 32200 net.cpp:148] Top shape: 100 20 24 24 (1152000)
I0714 07:55:00.031591 32200 net.cpp:156] Memory required for data: 13628000
I0714 07:55:00.031615 32200 net.cpp:484] Sharing parameters 'conv1_w' owned by layer 'conv1', param index 0
I0714 07:55:00.031642 32200 net.cpp:484] Sharing parameters 'conv1_b' owned by layer 'conv1', param index 1
I0714 07:55:00.031666 32200 layer_factory.hpp:77] Creating layer pool1_p
I0714 07:55:00.031694 32200 net.cpp:91] Creating Layer pool1_p
I0714 07:55:00.031718 32200 net.cpp:425] pool1_p <- conv1_p
I0714 07:55:00.031747 32200 net.cpp:399] pool1_p -> pool1_p
I0714 07:55:00.031782 32200 net.cpp:141] Setting up pool1_p
I0714 07:55:00.031810 32200 net.cpp:148] Top shape: 100 20 12 12 (288000)
I0714 07:55:00.031833 32200 net.cpp:156] Memory required for data: 14780000
I0714 07:55:00.031857 32200 layer_factory.hpp:77] Creating layer conv2_p
I0714 07:55:00.031893 32200 net.cpp:91] Creating Layer conv2_p
I0714 07:55:00.031919 32200 net.cpp:425] conv2_p <- pool1_p
I0714 07:55:00.031949 32200 net.cpp:399] conv2_p -> conv2_p
I0714 07:55:00.032353 32200 net.cpp:141] Setting up conv2_p
I0714 07:55:00.032394 32200 net.cpp:148] Top shape: 100 50 8 8 (320000)
I0714 07:55:00.032400 32200 net.cpp:156] Memory required for data: 16060000
I0714 07:55:00.032430 32200 net.cpp:484] Sharing parameters 'conv2_w' owned by layer 'conv2', param index 0
I0714 07:55:00.032438 32200 net.cpp:484] Sharing parameters 'conv2_b' owned by layer 'conv2', param index 1
I0714 07:55:00.032444 32200 layer_factory.hpp:77] Creating layer pool2_p
I0714 07:55:00.032456 32200 net.cpp:91] Creating Layer pool2_p
I0714 07:55:00.032461 32200 net.cpp:425] pool2_p <- conv2_p
I0714 07:55:00.032470 32200 net.cpp:399] pool2_p -> pool2_p
I0714 07:55:00.032485 32200 net.cpp:141] Setting up pool2_p
I0714 07:55:00.032491 32200 net.cpp:148] Top shape: 100 50 4 4 (80000)
I0714 07:55:00.032496 32200 net.cpp:156] Memory required for data: 16380000
I0714 07:55:00.032500 32200 layer_factory.hpp:77] Creating layer ip1_p
I0714 07:55:00.032510 32200 net.cpp:91] Creating Layer ip1_p
I0714 07:55:00.032516 32200 net.cpp:425] ip1_p <- pool2_p
I0714 07:55:00.032524 32200 net.cpp:399] ip1_p -> ip1_p
I0714 07:55:00.038075 32200 net.cpp:141] Setting up ip1_p
I0714 07:55:00.038197 32200 net.cpp:148] Top shape: 100 500 (50000)
I0714 07:55:00.038223 32200 net.cpp:156] Memory required for data: 16580000
I0714 07:55:00.038271 32200 net.cpp:484] Sharing parameters 'ip1_w' owned by layer 'ip1', param index 0
I0714 07:55:00.038318 32200 net.cpp:484] Sharing parameters 'ip1_b' owned by layer 'ip1', param index 1
I0714 07:55:00.038353 32200 layer_factory.hpp:77] Creating layer relu1_p
I0714 07:55:00.038380 32200 net.cpp:91] Creating Layer relu1_p
I0714 07:55:00.038403 32200 net.cpp:425] relu1_p <- ip1_p
I0714 07:55:00.038456 32200 net.cpp:386] relu1_p -> ip1_p (in-place)
I0714 07:55:00.038483 32200 net.cpp:141] Setting up relu1_p
I0714 07:55:00.038497 32200 net.cpp:148] Top shape: 100 500 (50000)
I0714 07:55:00.038503 32200 net.cpp:156] Memory required for data: 16780000
I0714 07:55:00.038509 32200 layer_factory.hpp:77] Creating layer ip2_p
I0714 07:55:00.038527 32200 net.cpp:91] Creating Layer ip2_p
I0714 07:55:00.038533 32200 net.cpp:425] ip2_p <- ip1_p
I0714 07:55:00.038545 32200 net.cpp:399] ip2_p -> ip2_p
I0714 07:55:00.038707 32200 net.cpp:141] Setting up ip2_p
I0714 07:55:00.038839 32200 net.cpp:148] Top shape: 100 10 (1000)
I0714 07:55:00.038872 32200 net.cpp:156] Memory required for data: 16784000
I0714 07:55:00.038899 32200 net.cpp:484] Sharing parameters 'ip2_w' owned by layer 'ip2', param index 0
I0714 07:55:00.038918 32200 net.cpp:484] Sharing parameters 'ip2_b' owned by layer 'ip2', param index 1
I0714 07:55:00.038929 32200 layer_factory.hpp:77] Creating layer feat_p
I0714 07:55:00.038962 32200 net.cpp:91] Creating Layer feat_p
I0714 07:55:00.038975 32200 net.cpp:425] feat_p <- ip2_p
I0714 07:55:00.038990 32200 net.cpp:399] feat_p -> feat_p
I0714 07:55:00.039026 32200 net.cpp:141] Setting up feat_p
I0714 07:55:00.039034 32200 net.cpp:148] Top shape: 100 3 (300)
I0714 07:55:00.039039 32200 net.cpp:156] Memory required for data: 16785200
I0714 07:55:00.039103 32200 net.cpp:484] Sharing parameters 'feat_w' owned by layer 'feat', param index 0
I0714 07:55:00.039168 32200 net.cpp:484] Sharing parameters 'feat_b' owned by layer 'feat', param index 1
I0714 07:55:00.039177 32200 layer_factory.hpp:77] Creating layer loss
I0714 07:55:00.039206 32200 net.cpp:91] Creating Layer loss
…
