…
I0712 21:44:45.053977 14691 solver.cpp:91] Creating training net from net file: examples/siamese/mnist_siamese_train_test.prototxt
I0712 21:44:45.054492 14691 net.cpp:313] The NetState phase (0) differed from the phase (1) specified by a rule in layer pair_data
I0712 21:44:45.054661 14691 net.cpp:49] Initializing net from parameters: 
name: "mnist_siamese_train_test"
state {
  phase: TRAIN
}
layer {
  name: "pair_data"
  type: "Data"
  top: "pair_data"
  top: "sim"
  include {
    phase: TRAIN
  }
  transform_param {
    scale: 0.00390625
  }
  data_param {
    source: "examples/siamese/mnist_siamese_train_leveldb_0to2"
    batch_size: 64
  }
}
layer {
  name: "slice_pair"
  type: "Slice"
  bottom: "pair_data"
  top: "data"
  top: "data_p"
  slice_param {
    slice_dim: 1
    slice_point: 1
  }
}
layer {
  name: "conv1"
  type: "Convolution"
  bottom: "data"
  top: "conv1"
  param {
    name: "conv1_w"
    lr_mult: 1
  }
  param {
    name: "conv1_b"
    lr_mult: 2
  }
  convolution_param {
    num_output: 20
    kernel_size: 5
    stride: 1
    weight_filler {
      type: "xavier"
    }
    bias_filler {
      type: "constant"
    }
  }
}
layer {
  name: "pool1"
  type: "Pooling"
  bottom: "conv1"
  top: "pool1"
  pooling_param {
    pool: MAX
    kernel_size: 2
    stride: 2
  }
}
layer {
  name: "conv2"
  type: "Convolution"
  bottom: "pool1"
  top: "conv2"
  param {
    name: "conv2_w"
    lr_mult: 1
  }
  param {
    name: "conv2_b"
    lr_mult: 2
  }
  convolution_param {
    num_output: 50
    kernel_size: 5
    stride: 1
    weight_filler {
      type: "xavier"
    }
    bias_filler {
      type: "constant"
    }
  }
}
layer {
  name: "pool2"
  type: "Pooling"
  bottom: "conv2"
  top: "pool2"
  pooling_param {
    pool: MAX
    kernel_size: 2
    stride: 2
  }
}
layer {
  name: "ip1"
  type: "InnerProduct"
  bottom: "pool2"
  top: "ip1"
  param {
    name: "ip1_w"
    lr_mult: 1
  }
  param {
    name: "ip1_b"
    lr_mult: 2
  }
  inner_product_param {
    num_output: 500
    weight_filler {
      type: "xavier"
    }
    bias_filler {
      type: "constant"
    }
  }
}
layer {
  name: "relu1"
  type: "ReLU"
  bottom: "ip1"
  top: "ip1"
}
layer {
  name: "ip2"
  type: "InnerProduct"
  bottom: "ip1"
  top: "ip2"
  param {
    name: "ip2_w"
    lr_mult: 1
  }
  param {
    name: "ip2_b"
    lr_mult: 2
  }
  inner_product_param {
    num_output: 10
    weight_filler {
      type: "xavier"
    }
    bias_filler {
      type: "constant"
    }
  }
}
layer {
  name: "feat"
  type: "InnerProduct"
  bottom: "ip2"
  top: "feat"
  param {
    name: "feat_w"
    lr_mult: 1
  }
  param {
    name: "feat_b"
    lr_mult: 2
  }
  inner_product_param {
    num_output: 2
    weight_filler {
      type: "xavier"
    }
    bias_filler {
      type: "constant"
    }
  }
}
layer {
  name: "conv1_p"
  type: "Convolution"
  bottom: "data_p"
  top: "conv1_p"
  param {
    name: "conv1_w"
    lr_mult: 1
  }
  param {
    name: "conv1_b"
    lr_mult: 2
  }
  convolution_param {
    num_output: 20
    kernel_size: 5
    stride: 1
    weight_filler {
      type: "xavier"
    }
    bias_filler {
      type: "constant"
    }
  }
}
layer {
  name: "pool1_p"
  type: "Pooling"
  bottom: "conv1_p"
  top: "pool1_p"
  pooling_param {
    pool: MAX
    kernel_size: 2
    stride: 2
  }
}
layer {
  name: "conv2_p"
  type: "Convolution"
  bottom: "pool1_p"
  top: "conv2_p"
  param {
    name: "conv2_w"
    lr_mult: 1
  }
  param {
    name: "conv2_b"
    lr_mult: 2
  }
  convolution_param {
    num_output: 50
    kernel_size: 5
    stride: 1
    weight_filler {
      type: "xavier"
    }
    bias_filler {
      type: "constant"
    }
  }
}
layer {
  name: "pool2_p"
  type: "Pooling"
  bottom: "conv2_p"
  top: "pool2_p"
  pooling_param {
    pool: MAX
    kernel_size: 2
    stride: 2
  }
}
layer {
  name: "ip1_p"
  type: "InnerProduct"
  bottom: "pool2_p"
  top: "ip1_p"
  param {
    name: "ip1_w"
    lr_mult: 1
  }
  param {
    name: "ip1_b"
    lr_mult: 2
  }
  inner_product_param {
    num_output: 500
    weight_filler {
      type: "xavier"
    }
    bias_filler {
      type: "constant"
    }
  }
}
layer {
  name: "relu1_p"
  type: "ReLU"
  bottom: "ip1_p"
  top: "ip1_p"
}
layer {
  name: "ip2_p"
  type: "InnerProduct"
  bottom: "ip1_p"
  top: "ip2_p"
  param {
    name: "ip2_w"
    lr_mult: 1
  }
  param {
    name: "ip2_b"
    lr_mult: 2
  }
  inner_product_param {
    num_output: 10
    weight_filler {
      type: "xavier"
    }
    bias_filler {
      type: "constant"
    }
  }
}
layer {
  name: "feat_p"
  type: "InnerProduct"
  bottom: "ip2_p"
  top: "feat_p"
  param {
    name: "feat_w"
    lr_mult: 1
  }
  param {
    name: "feat_b"
    lr_mult: 2
  }
  inner_product_param {
    num_output: 2
    weight_filler {
      type: "xavier"
    }
    bias_filler {
      type: "constant"
    }
  }
}
layer {
  name: "loss"
  type: "ContrastiveLoss"
  bottom: "feat"
  bottom: "feat_p"
  bottom: "sim"
  top: "loss"
  contrastive_loss_param {
    margin: 1
  }
}
I0712 21:44:45.055596 14691 layer_factory.hpp:77] Creating layer pair_data
I0712 21:44:45.056188 14691 net.cpp:91] Creating Layer pair_data
I0712 21:44:45.056227 14691 net.cpp:399] pair_data -> pair_data
I0712 21:44:45.056267 14691 net.cpp:399] pair_data -> sim
I0712 21:44:45.068184 14695 db_leveldb.cpp:18] Opened leveldb examples/siamese/mnist_siamese_train_leveldb_0to2
I0712 21:44:45.078680 14691 data_layer.cpp:41] output data size: 64,2,28,28
I0712 21:44:45.079474 14691 net.cpp:141] Setting up pair_data
I0712 21:44:45.079510 14691 net.cpp:148] Top shape: 64 2 28 28 (100352)
I0712 21:44:45.079519 14691 net.cpp:148] Top shape: 64 (64)
I0712 21:44:45.079522 14691 net.cpp:156] Memory required for data: 401664
I0712 21:44:45.079538 14691 layer_factory.hpp:77] Creating layer slice_pair
I0712 21:44:45.079562 14691 net.cpp:91] Creating Layer slice_pair
I0712 21:44:45.079569 14691 net.cpp:425] slice_pair <- pair_data
I0712 21:44:45.079583 14691 net.cpp:399] slice_pair -> data
I0712 21:44:45.079598 14691 net.cpp:399] slice_pair -> data_p
I0712 21:44:45.079596 14696 blocking_queue.cpp:50] Waiting for data
I0712 21:44:45.079617 14691 net.cpp:141] Setting up slice_pair
I0712 21:44:45.079624 14691 net.cpp:148] Top shape: 64 1 28 28 (50176)
I0712 21:44:45.079630 14691 net.cpp:148] Top shape: 64 1 28 28 (50176)
I0712 21:44:45.079634 14691 net.cpp:156] Memory required for data: 803072
I0712 21:44:45.079638 14691 layer_factory.hpp:77] Creating layer conv1
I0712 21:44:45.079659 14691 net.cpp:91] Creating Layer conv1
I0712 21:44:45.079664 14691 net.cpp:425] conv1 <- data
I0712 21:44:45.079673 14691 net.cpp:399] conv1 -> conv1
I0712 21:44:45.079808 14691 net.cpp:141] Setting up conv1
I0712 21:44:45.079826 14691 net.cpp:148] Top shape: 64 20 24 24 (737280)
I0712 21:44:45.079831 14691 net.cpp:156] Memory required for data: 3752192
I0712 21:44:45.079845 14691 layer_factory.hpp:77] Creating layer pool1
I0712 21:44:45.079854 14691 net.cpp:91] Creating Layer pool1
I0712 21:44:45.079859 14691 net.cpp:425] pool1 <- conv1
I0712 21:44:45.079865 14691 net.cpp:399] pool1 -> pool1
I0712 21:44:45.079891 14691 net.cpp:141] Setting up pool1
I0712 21:44:45.079898 14691 net.cpp:148] Top shape: 64 20 12 12 (184320)
I0712 21:44:45.079902 14691 net.cpp:156] Memory required for data: 4489472
I0712 21:44:45.079906 14691 layer_factory.hpp:77] Creating layer conv2
I0712 21:44:45.079926 14691 net.cpp:91] Creating Layer conv2
I0712 21:44:45.079931 14691 net.cpp:425] conv2 <- pool1
I0712 21:44:45.079937 14691 net.cpp:399] conv2 -> conv2
I0712 21:44:45.080283 14691 net.cpp:141] Setting up conv2
I0712 21:44:45.080307 14691 net.cpp:148] Top shape: 64 50 8 8 (204800)
I0712 21:44:45.080310 14691 net.cpp:156] Memory required for data: 5308672
I0712 21:44:45.080319 14691 layer_factory.hpp:77] Creating layer pool2
I0712 21:44:45.080351 14691 net.cpp:91] Creating Layer pool2
I0712 21:44:45.080358 14691 net.cpp:425] pool2 <- conv2
I0712 21:44:45.080365 14691 net.cpp:399] pool2 -> pool2
I0712 21:44:45.080376 14691 net.cpp:141] Setting up pool2
I0712 21:44:45.080382 14691 net.cpp:148] Top shape: 64 50 4 4 (51200)
I0712 21:44:45.080386 14691 net.cpp:156] Memory required for data: 5513472
I0712 21:44:45.080389 14691 layer_factory.hpp:77] Creating layer ip1
I0712 21:44:45.080404 14691 net.cpp:91] Creating Layer ip1
I0712 21:44:45.080410 14691 net.cpp:425] ip1 <- pool2
I0712 21:44:45.080420 14691 net.cpp:399] ip1 -> ip1
I0712 21:44:45.085413 14691 net.cpp:141] Setting up ip1
I0712 21:44:45.087790 14691 net.cpp:148] Top shape: 64 500 (32000)
I0712 21:44:45.087971 14691 net.cpp:156] Memory required for data: 5641472
I0712 21:44:45.088052 14691 layer_factory.hpp:77] Creating layer relu1
I0712 21:44:45.088112 14691 net.cpp:91] Creating Layer relu1
I0712 21:44:45.088157 14691 net.cpp:425] relu1 <- ip1
I0712 21:44:45.088186 14691 net.cpp:386] relu1 -> ip1 (in-place)
I0712 21:44:45.088243 14691 net.cpp:141] Setting up relu1
I0712 21:44:45.088275 14691 net.cpp:148] Top shape: 64 500 (32000)
I0712 21:44:45.088456 14691 net.cpp:156] Memory required for data: 5769472
I0712 21:44:45.088511 14691 layer_factory.hpp:77] Creating layer ip2
I0712 21:44:45.088556 14691 net.cpp:91] Creating Layer ip2
I0712 21:44:45.088603 14691 net.cpp:425] ip2 <- ip1
I0712 21:44:45.088649 14691 net.cpp:399] ip2 -> ip2
I0712 21:44:45.088790 14691 net.cpp:141] Setting up ip2
I0712 21:44:45.088858 14691 net.cpp:148] Top shape: 64 10 (640)
I0712 21:44:45.088887 14691 net.cpp:156] Memory required for data: 5772032
I0712 21:44:45.089094 14691 layer_factory.hpp:77] Creating layer feat
I0712 21:44:45.089172 14691 net.cpp:91] Creating Layer feat
I0712 21:44:45.089203 14691 net.cpp:425] feat <- ip2
I0712 21:44:45.089296 14691 net.cpp:399] feat -> feat
I0712 21:44:45.089375 14691 net.cpp:141] Setting up feat
I0712 21:44:45.089407 14691 net.cpp:148] Top shape: 64 2 (128)
I0712 21:44:45.089431 14691 net.cpp:156] Memory required for data: 5772544
I0712 21:44:45.089464 14691 layer_factory.hpp:77] Creating layer conv1_p
I0712 21:44:45.089509 14691 net.cpp:91] Creating Layer conv1_p
I0712 21:44:45.089536 14691 net.cpp:425] conv1_p <- data_p
I0712 21:44:45.089565 14691 net.cpp:399] conv1_p -> conv1_p
I0712 21:44:45.089629 14691 net.cpp:141] Setting up conv1_p
I0712 21:44:45.089660 14691 net.cpp:148] Top shape: 64 20 24 24 (737280)
I0712 21:44:45.089684 14691 net.cpp:156] Memory required for data: 8721664
I0712 21:44:45.089707 14691 net.cpp:484] Sharing parameters 'conv1_w' owned by layer 'conv1', param index 0
I0712 21:44:45.089733 14691 net.cpp:484] Sharing parameters 'conv1_b' owned by layer 'conv1', param index 1
I0712 21:44:45.089758 14691 layer_factory.hpp:77] Creating layer pool1_p
I0712 21:44:45.089787 14691 net.cpp:91] Creating Layer pool1_p
I0712 21:44:45.089812 14691 net.cpp:425] pool1_p <- conv1_p
I0712 21:44:45.089911 14691 net.cpp:399] pool1_p -> pool1_p
I0712 21:44:45.089958 14691 net.cpp:141] Setting up pool1_p
I0712 21:44:45.089988 14691 net.cpp:148] Top shape: 64 20 12 12 (184320)
I0712 21:44:45.090006 14691 net.cpp:156] Memory required for data: 9458944
I0712 21:44:45.090024 14691 layer_factory.hpp:77] Creating layer conv2_p
I0712 21:44:45.090056 14691 net.cpp:91] Creating Layer conv2_p
I0712 21:44:45.090077 14691 net.cpp:425] conv2_p <- pool1_p
I0712 21:44:45.090102 14691 net.cpp:399] conv2_p -> conv2_p
I0712 21:44:45.090454 14691 net.cpp:141] Setting up conv2_p
I0712 21:44:45.091500 14691 net.cpp:148] Top shape: 64 50 8 8 (204800)
I0712 21:44:45.091610 14691 net.cpp:156] Memory required for data: 10278144
I0712 21:44:45.091644 14691 net.cpp:484] Sharing parameters 'conv2_w' owned by layer 'conv2', param index 0
I0712 21:44:45.091673 14691 net.cpp:484] Sharing parameters 'conv2_b' owned by layer 'conv2', param index 1
I0712 21:44:45.091773 14691 layer_factory.hpp:77] Creating layer pool2_p
I0712 21:44:45.091806 14691 net.cpp:91] Creating Layer pool2_p
I0712 21:44:45.091838 14691 net.cpp:425] pool2_p <- conv2_p
I0712 21:44:45.091876 14691 net.cpp:399] pool2_p -> pool2_p
I0712 21:44:45.091912 14691 net.cpp:141] Setting up pool2_p
I0712 21:44:45.091934 14691 net.cpp:148] Top shape: 64 50 4 4 (51200)
I0712 21:44:45.091953 14691 net.cpp:156] Memory required for data: 10482944
I0712 21:44:45.091970 14691 layer_factory.hpp:77] Creating layer ip1_p
I0712 21:44:45.091998 14691 net.cpp:91] Creating Layer ip1_p
I0712 21:44:45.092017 14691 net.cpp:425] ip1_p <- pool2_p
I0712 21:44:45.092039 14691 net.cpp:399] ip1_p -> ip1_p
I0712 21:44:45.104058 14691 net.cpp:141] Setting up ip1_p
I0712 21:44:45.104408 14691 net.cpp:148] Top shape: 64 500 (32000)
I0712 21:44:45.104467 14691 net.cpp:156] Memory required for data: 10610944
I0712 21:44:45.104493 14691 net.cpp:484] Sharing parameters 'ip1_w' owned by layer 'ip1', param index 0
I0712 21:44:45.104513 14691 net.cpp:484] Sharing parameters 'ip1_b' owned by layer 'ip1', param index 1
I0712 21:44:45.104531 14691 layer_factory.hpp:77] Creating layer relu1_p
I0712 21:44:45.104554 14691 net.cpp:91] Creating Layer relu1_p
I0712 21:44:45.104571 14691 net.cpp:425] relu1_p <- ip1_p
I0712 21:44:45.104598 14691 net.cpp:386] relu1_p -> ip1_p (in-place)
I0712 21:44:45.104624 14691 net.cpp:141] Setting up relu1_p
I0712 21:44:45.104642 14691 net.cpp:148] Top shape: 64 500 (32000)
I0712 21:44:45.104657 14691 net.cpp:156] Memory required for data: 10738944
I0712 21:44:45.104672 14691 layer_factory.hpp:77] Creating layer ip2_p
I0712 21:44:45.104696 14691 net.cpp:91] Creating Layer ip2_p
I0712 21:44:45.104714 14691 net.cpp:425] ip2_p <- ip1_p
I0712 21:44:45.104735 14691 net.cpp:399] ip2_p -> ip2_p
I0712 21:44:45.104814 14691 net.cpp:141] Setting up ip2_p
I0712 21:44:45.104835 14691 net.cpp:148] Top shape: 64 10 (640)
I0712 21:44:45.104848 14691 net.cpp:156] Memory required for data: 10741504
I0712 21:44:45.104866 14691 net.cpp:484] Sharing parameters 'ip2_w' owned by layer 'ip2', param index 0
I0712 21:44:45.104883 14691 net.cpp:484] Sharing parameters 'ip2_b' owned by layer 'ip2', param index 1
I0712 21:44:45.104897 14691 layer_factory.hpp:77] Creating layer feat_p
I0712 21:44:45.104915 14691 net.cpp:91] Creating Layer feat_p
I0712 21:44:45.104930 14691 net.cpp:425] feat_p <- ip2_p
I0712 21:44:45.104949 14691 net.cpp:399] feat_p -> feat_p
I0712 21:44:45.104974 14691 net.cpp:141] Setting up feat_p
I0712 21:44:45.104991 14691 net.cpp:148] Top shape: 64 2 (128)
I0712 21:44:45.105005 14691 net.cpp:156] Memory required for data: 10742016
I0712 21:44:45.105020 14691 net.cpp:484] Sharing parameters 'feat_w' owned by layer 'feat', param index 0
I0712 21:44:45.105036 14691 net.cpp:484] Sharing parameters 'feat_b' owned by layer 'feat', param index 1
I0712 21:44:45.105051 14691 layer_factory.hpp:77] Creating layer loss
I0712 21:44:45.105074 14691 net.cpp:91] Creating Layer loss
…
I0712 21:44:45.106204 14691 solver.cpp:181] Creating test net (#0) specified by net file: examples/siamese/mnist_siamese_train_test.prototxt
I0712 21:44:45.106259 14691 net.cpp:313] The NetState phase (1) differed from the phase (0) specified by a rule in layer pair_data
I0712 21:44:45.106400 14691 net.cpp:49] Initializing net from parameters: 
name: "mnist_siamese_train_test"
state {
  phase: TEST
}
layer {
  name: "pair_data"
  type: "Data"
  top: "pair_data"
  top: "sim"
  include {
    phase: TEST
  }
  transform_param {
    scale: 0.00390625
  }
  data_param {
    source: "examples/siamese/mnist_siamese_test_leveldb_789"
    batch_size: 100
  }
}
layer {
  name: "slice_pair"
  type: "Slice"
  bottom: "pair_data"
  top: "data"
  top: "data_p"
  slice_param {
    slice_dim: 1
    slice_point: 1
  }
}
layer {
  name: "conv1"
  type: "Convolution"
  bottom: "data"
  top: "conv1"
  param {
    name: "conv1_w"
    lr_mult: 1
  }
  param {
    name: "conv1_b"
    lr_mult: 2
  }
  convolution_param {
    num_output: 20
    kernel_size: 5
    stride: 1
    weight_filler {
      type: "xavier"
    }
    bias_filler {
      type: "constant"
    }
  }
}
layer {
  name: "pool1"
  type: "Pooling"
  bottom: "conv1"
  top: "pool1"
  pooling_param {
    pool: MAX
    kernel_size: 2
    stride: 2
  }
}
layer {
  name: "conv2"
  type: "Convolution"
  bottom: "pool1"
  top: "conv2"
  param {
    name: "conv2_w"
    lr_mult: 1
  }
  param {
    name: "conv2_b"
    lr_mult: 2
  }
  convolution_param {
    num_output: 50
    kernel_size: 5
    stride: 1
    weight_filler {
      type: "xavier"
    }
    bias_filler {
      type: "constant"
    }
  }
}
layer {
  name: "pool2"
  type: "Pooling"
  bottom: "conv2"
  top: "pool2"
  pooling_param {
    pool: MAX
    kernel_size: 2
    stride: 2
  }
}
layer {
  name: "ip1"
  type: "InnerProduct"
  bottom: "pool2"
  top: "ip1"
  param {
    name: "ip1_w"
    lr_mult: 1
  }
  param {
    name: "ip1_b"
    lr_mult: 2
  }
  inner_product_param {
    num_output: 500
    weight_filler {
      type: "xavier"
    }
    bias_filler {
      type: "constant"
    }
  }
}
layer {
  name: "relu1"
  type: "ReLU"
  bottom: "ip1"
  top: "ip1"
}
layer {
  name: "ip2"
  type: "InnerProduct"
  bottom: "ip1"
  top: "ip2"
  param {
    name: "ip2_w"
    lr_mult: 1
  }
  param {
    name: "ip2_b"
    lr_mult: 2
  }
  inner_product_param {
    num_output: 10
    weight_filler {
      type: "xavier"
    }
    bias_filler {
      type: "constant"
    }
  }
}
layer {
  name: "feat"
  type: "InnerProduct"
  bottom: "ip2"
  top: "feat"
  param {
    name: "feat_w"
    lr_mult: 1
  }
  param {
    name: "feat_b"
    lr_mult: 2
  }
  inner_product_param {
    num_output: 2
    weight_filler {
      type: "xavier"
    }
    bias_filler {
      type: "constant"
    }
  }
}
layer {
  name: "conv1_p"
  type: "Convolution"
  bottom: "data_p"
  top: "conv1_p"
  param {
    name: "conv1_w"
    lr_mult: 1
  }
  param {
    name: "conv1_b"
    lr_mult: 2
  }
  convolution_param {
    num_output: 20
    kernel_size: 5
    stride: 1
    weight_filler {
      type: "xavier"
    }
    bias_filler {
      type: "constant"
    }
  }
}
layer {
  name: "pool1_p"
  type: "Pooling"
  bottom: "conv1_p"
  top: "pool1_p"
  pooling_param {
    pool: MAX
    kernel_size: 2
    stride: 2
  }
}
layer {
  name: "conv2_p"
  type: "Convolution"
  bottom: "pool1_p"
  top: "conv2_p"
  param {
    name: "conv2_w"
    lr_mult: 1
  }
  param {
    name: "conv2_b"
    lr_mult: 2
  }
  convolution_param {
    num_output: 50
    kernel_size: 5
    stride: 1
    weight_filler {
      type: "xavier"
    }
    bias_filler {
      type: "constant"
    }
  }
}
layer {
  name: "pool2_p"
  type: "Pooling"
  bottom: "conv2_p"
  top: "pool2_p"
  pooling_param {
    pool: MAX
    kernel_size: 2
    stride: 2
  }
}
layer {
  name: "ip1_p"
  type: "InnerProduct"
  bottom: "pool2_p"
  top: "ip1_p"
  param {
    name: "ip1_w"
    lr_mult: 1
  }
  param {
    name: "ip1_b"
    lr_mult: 2
  }
  inner_product_param {
    num_output: 500
    weight_filler {
      type: "xavier"
    }
    bias_filler {
      type: "constant"
    }
  }
}
layer {
  name: "relu1_p"
  type: "ReLU"
  bottom: "ip1_p"
  top: "ip1_p"
}
layer {
  name: "ip2_p"
  type: "InnerProduct"
  bottom: "ip1_p"
  top: "ip2_p"
  param {
    name: "ip2_w"
    lr_mult: 1
  }
  param {
    name: "ip2_b"
    lr_mult: 2
  }
  inner_product_param {
    num_output: 10
    weight_filler {
      type: "xavier"
    }
    bias_filler {
      type: "constant"
    }
  }
}
layer {
  name: "feat_p"
  type: "InnerProduct"
  bottom: "ip2_p"
  top: "feat_p"
  param {
    name: "feat_w"
    lr_mult: 1
  }
  param {
    name: "feat_b"
    lr_mult: 2
  }
  inner_product_param {
    num_output: 2
    weight_filler {
      type: "xavier"
    }
    bias_filler {
      type: "constant"
    }
  }
}
layer {
  name: "loss"
  type: "ContrastiveLoss"
  bottom: "feat"
  bottom: "feat_p"
  bottom: "sim"
  top: "loss"
  contrastive_loss_param {
    margin: 1
  }
}
I0712 21:44:45.108384 14691 layer_factory.hpp:77] Creating layer pair_data
I0712 21:44:45.108783 14691 net.cpp:91] Creating Layer pair_data
I0712 21:44:45.108826 14691 net.cpp:399] pair_data -> pair_data
I0712 21:44:45.108856 14691 net.cpp:399] pair_data -> sim
I0712 21:44:45.119595 14697 db_leveldb.cpp:18] Opened leveldb examples/siamese/mnist_siamese_test_leveldb_789
I0712 21:44:45.119946 14691 data_layer.cpp:41] output data size: 100,2,28,28
I0712 21:44:45.120964 14691 net.cpp:141] Setting up pair_data
I0712 21:44:45.120985 14691 net.cpp:148] Top shape: 100 2 28 28 (156800)
I0712 21:44:45.120990 14691 net.cpp:148] Top shape: 100 (100)
I0712 21:44:45.120995 14691 net.cpp:156] Memory required for data: 627600
I0712 21:44:45.121001 14691 layer_factory.hpp:77] Creating layer slice_pair
I0712 21:44:45.121016 14691 net.cpp:91] Creating Layer slice_pair
I0712 21:44:45.121021 14691 net.cpp:425] slice_pair <- pair_data
I0712 21:44:45.121026 14691 net.cpp:399] slice_pair -> data
I0712 21:44:45.121037 14691 net.cpp:399] slice_pair -> data_p
I0712 21:44:45.121047 14691 net.cpp:141] Setting up slice_pair
I0712 21:44:45.121052 14691 net.cpp:148] Top shape: 100 1 28 28 (78400)
I0712 21:44:45.121057 14691 net.cpp:148] Top shape: 100 1 28 28 (78400)
I0712 21:44:45.121060 14691 net.cpp:156] Memory required for data: 1254800
I0712 21:44:45.121063 14691 layer_factory.hpp:77] Creating layer conv1
I0712 21:44:45.121074 14691 net.cpp:91] Creating Layer conv1
I0712 21:44:45.121078 14691 net.cpp:425] conv1 <- data
I0712 21:44:45.121083 14691 net.cpp:399] conv1 -> conv1
I0712 21:44:45.121112 14691 net.cpp:141] Setting up conv1
I0712 21:44:45.121117 14691 net.cpp:148] Top shape: 100 20 24 24 (1152000)
I0712 21:44:45.121120 14691 net.cpp:156] Memory required for data: 5862800
I0712 21:44:45.121129 14691 layer_factory.hpp:77] Creating layer pool1
I0712 21:44:45.121135 14691 net.cpp:91] Creating Layer pool1
I0712 21:44:45.121139 14691 net.cpp:425] pool1 <- conv1
I0712 21:44:45.121142 14691 net.cpp:399] pool1 -> pool1
I0712 21:44:45.121150 14691 net.cpp:141] Setting up pool1
I0712 21:44:45.121155 14691 net.cpp:148] Top shape: 100 20 12 12 (288000)
I0712 21:44:45.121157 14691 net.cpp:156] Memory required for data: 7014800
I0712 21:44:45.121160 14691 layer_factory.hpp:77] Creating layer conv2
I0712 21:44:45.121188 14691 net.cpp:91] Creating Layer conv2
I0712 21:44:45.121192 14691 net.cpp:425] conv2 <- pool1
I0712 21:44:45.121206 14691 net.cpp:399] conv2 -> conv2
I0712 21:44:45.121444 14691 net.cpp:141] Setting up conv2
I0712 21:44:45.121454 14691 net.cpp:148] Top shape: 100 50 8 8 (320000)
I0712 21:44:45.121456 14691 net.cpp:156] Memory required for data: 8294800
I0712 21:44:45.121464 14691 layer_factory.hpp:77] Creating layer pool2
I0712 21:44:45.121470 14691 net.cpp:91] Creating Layer pool2
I0712 21:44:45.121474 14691 net.cpp:425] pool2 <- conv2
I0712 21:44:45.121479 14691 net.cpp:399] pool2 -> pool2
I0712 21:44:45.121486 14691 net.cpp:141] Setting up pool2
I0712 21:44:45.121490 14691 net.cpp:148] Top shape: 100 50 4 4 (80000)
I0712 21:44:45.121492 14691 net.cpp:156] Memory required for data: 8614800
I0712 21:44:45.121495 14691 layer_factory.hpp:77] Creating layer ip1
I0712 21:44:45.121502 14691 net.cpp:91] Creating Layer ip1
I0712 21:44:45.121505 14691 net.cpp:425] ip1 <- pool2
I0712 21:44:45.121510 14691 net.cpp:399] ip1 -> ip1
I0712 21:44:45.124536 14691 net.cpp:141] Setting up ip1
I0712 21:44:45.124624 14691 net.cpp:148] Top shape: 100 500 (50000)
I0712 21:44:45.124656 14691 net.cpp:156] Memory required for data: 8814800
I0712 21:44:45.124691 14691 layer_factory.hpp:77] Creating layer relu1
I0712 21:44:45.124717 14691 net.cpp:91] Creating Layer relu1
I0712 21:44:45.124735 14691 net.cpp:425] relu1 <- ip1
I0712 21:44:45.124757 14691 net.cpp:386] relu1 -> ip1 (in-place)
I0712 21:44:45.124778 14691 net.cpp:141] Setting up relu1
I0712 21:44:45.124796 14691 net.cpp:148] Top shape: 100 500 (50000)
I0712 21:44:45.124810 14691 net.cpp:156] Memory required for data: 9014800
I0712 21:44:45.124824 14691 layer_factory.hpp:77] Creating layer ip2
I0712 21:44:45.124848 14691 net.cpp:91] Creating Layer ip2
I0712 21:44:45.124863 14691 net.cpp:425] ip2 <- ip1
I0712 21:44:45.124879 14691 net.cpp:399] ip2 -> ip2
I0712 21:44:45.124948 14691 net.cpp:141] Setting up ip2
I0712 21:44:45.124966 14691 net.cpp:148] Top shape: 100 10 (1000)
I0712 21:44:45.124979 14691 net.cpp:156] Memory required for data: 9018800
I0712 21:44:45.124995 14691 layer_factory.hpp:77] Creating layer feat
I0712 21:44:45.125012 14691 net.cpp:91] Creating Layer feat
I0712 21:44:45.125025 14691 net.cpp:425] feat <- ip2
I0712 21:44:45.125041 14691 net.cpp:399] feat -> feat
I0712 21:44:45.125066 14691 net.cpp:141] Setting up feat
I0712 21:44:45.125082 14691 net.cpp:148] Top shape: 100 2 (200)
I0712 21:44:45.125094 14691 net.cpp:156] Memory required for data: 9019600
I0712 21:44:45.125111 14691 layer_factory.hpp:77] Creating layer conv1_p
I0712 21:44:45.125133 14691 net.cpp:91] Creating Layer conv1_p
I0712 21:44:45.125145 14691 net.cpp:425] conv1_p <- data_p
I0712 21:44:45.125161 14691 net.cpp:399] conv1_p -> conv1_p
I0712 21:44:45.125200 14691 net.cpp:141] Setting up conv1_p
I0712 21:44:45.125221 14691 net.cpp:148] Top shape: 100 20 24 24 (1152000)
I0712 21:44:45.125233 14691 net.cpp:156] Memory required for data: 13627600
I0712 21:44:45.125247 14691 net.cpp:484] Sharing parameters 'conv1_w' owned by layer 'conv1', param index 0
I0712 21:44:45.125260 14691 net.cpp:484] Sharing parameters 'conv1_b' owned by layer 'conv1', param index 1
I0712 21:44:45.125277 14691 layer_factory.hpp:77] Creating layer pool1_p
I0712 21:44:45.125293 14691 net.cpp:91] Creating Layer pool1_p
I0712 21:44:45.125305 14691 net.cpp:425] pool1_p <- conv1_p
I0712 21:44:45.125320 14691 net.cpp:399] pool1_p -> pool1_p
I0712 21:44:45.125340 14691 net.cpp:141] Setting up pool1_p
I0712 21:44:45.125355 14691 net.cpp:148] Top shape: 100 20 12 12 (288000)
I0712 21:44:45.125367 14691 net.cpp:156] Memory required for data: 14779600
I0712 21:44:45.125380 14691 layer_factory.hpp:77] Creating layer conv2_p
I0712 21:44:45.125402 14691 net.cpp:91] Creating Layer conv2_p
I0712 21:44:45.125416 14691 net.cpp:425] conv2_p <- pool1_p
I0712 21:44:45.125432 14691 net.cpp:399] conv2_p -> conv2_p
I0712 21:44:45.126585 14691 net.cpp:141] Setting up conv2_p
I0712 21:44:45.126629 14691 net.cpp:148] Top shape: 100 50 8 8 (320000)
I0712 21:44:45.126663 14691 net.cpp:156] Memory required for data: 16059600
I0712 21:44:45.126679 14691 net.cpp:484] Sharing parameters 'conv2_w' owned by layer 'conv2', param index 0
I0712 21:44:45.126694 14691 net.cpp:484] Sharing parameters 'conv2_b' owned by layer 'conv2', param index 1
I0712 21:44:45.126708 14691 layer_factory.hpp:77] Creating layer pool2_p
I0712 21:44:45.126726 14691 net.cpp:91] Creating Layer pool2_p
I0712 21:44:45.126741 14691 net.cpp:425] pool2_p <- conv2_p
I0712 21:44:45.126807 14691 net.cpp:399] pool2_p -> pool2_p
I0712 21:44:45.126839 14691 net.cpp:141] Setting up pool2_p
I0712 21:44:45.126858 14691 net.cpp:148] Top shape: 100 50 4 4 (80000)
I0712 21:44:45.126871 14691 net.cpp:156] Memory required for data: 16379600
I0712 21:44:45.126885 14691 layer_factory.hpp:77] Creating layer ip1_p
I0712 21:44:45.126912 14691 net.cpp:91] Creating Layer ip1_p
I0712 21:44:45.126929 14691 net.cpp:425] ip1_p <- pool2_p
I0712 21:44:45.126946 14691 net.cpp:399] ip1_p -> ip1_p
I0712 21:44:45.136765 14691 net.cpp:141] Setting up ip1_p
I0712 21:44:45.136876 14691 net.cpp:148] Top shape: 100 500 (50000)
I0712 21:44:45.136896 14691 net.cpp:156] Memory required for data: 16579600
I0712 21:44:45.136915 14691 net.cpp:484] Sharing parameters 'ip1_w' owned by layer 'ip1', param index 0
I0712 21:44:45.136931 14691 net.cpp:484] Sharing parameters 'ip1_b' owned by layer 'ip1', param index 1
I0712 21:44:45.136945 14691 layer_factory.hpp:77] Creating layer relu1_p
I0712 21:44:45.136965 14691 net.cpp:91] Creating Layer relu1_p
I0712 21:44:45.136978 14691 net.cpp:425] relu1_p <- ip1_p
I0712 21:44:45.136997 14691 net.cpp:386] relu1_p -> ip1_p (in-place)
I0712 21:44:45.137018 14691 net.cpp:141] Setting up relu1_p
I0712 21:44:45.137033 14691 net.cpp:148] Top shape: 100 500 (50000)
I0712 21:44:45.137045 14691 net.cpp:156] Memory required for data: 16779600
I0712 21:44:45.137058 14691 layer_factory.hpp:77] Creating layer ip2_p
I0712 21:44:45.137078 14691 net.cpp:91] Creating Layer ip2_p
I0712 21:44:45.137090 14691 net.cpp:425] ip2_p <- ip1_p
I0712 21:44:45.137105 14691 net.cpp:399] ip2_p -> ip2_p
I0712 21:44:45.137172 14691 net.cpp:141] Setting up ip2_p
I0712 21:44:45.137190 14691 net.cpp:148] Top shape: 100 10 (1000)
I0712 21:44:45.137202 14691 net.cpp:156] Memory required for data: 16783600
I0712 21:44:45.137219 14691 net.cpp:484] Sharing parameters 'ip2_w' owned by layer 'ip2', param index 0
I0712 21:44:45.137234 14691 net.cpp:484] Sharing parameters 'ip2_b' owned by layer 'ip2', param index 1
I0712 21:44:45.137248 14691 layer_factory.hpp:77] Creating layer feat_p
I0712 21:44:45.137264 14691 net.cpp:91] Creating Layer feat_p
I0712 21:44:45.137277 14691 net.cpp:425] feat_p <- ip2_p
I0712 21:44:45.137292 14691 net.cpp:399] feat_p -> feat_p
I0712 21:44:45.137315 14691 net.cpp:141] Setting up feat_p
I0712 21:44:45.137331 14691 net.cpp:148] Top shape: 100 2 (200)
I0712 21:44:45.137343 14691 net.cpp:156] Memory required for data: 16784400
I0712 21:44:45.137383 14691 net.cpp:484] Sharing parameters 'feat_w' owned by layer 'feat', param index 0
I0712 21:44:45.137400 14691 net.cpp:484] Sharing parameters 'feat_b' owned by layer 'feat', param index 1
I0712 21:44:45.137415 14691 layer_factory.hpp:77] Creating layer loss
I0712 21:44:45.137434 14691 net.cpp:91] Creating Layer loss
…
