…
I0712 22:45:01.540539 15171 solver.cpp:91] Creating training net from net file: examples/siamese/mnist_siamese_train_test.prototxt
I0712 22:45:01.541069 15171 net.cpp:313] The NetState phase (0) differed from the phase (1) specified by a rule in layer pair_data
I0712 22:45:01.541250 15171 net.cpp:49] Initializing net from parameters: 
name: "mnist_siamese_train_test"
state {
  phase: TRAIN
}
layer {
  name: "pair_data"
  type: "Data"
  top: "pair_data"
  top: "sim"
  include {
    phase: TRAIN
  }
  transform_param {
    scale: 0.00390625
  }
  data_param {
    source: "examples/siamese/mnist_siamese_train_leveldb_0to4"
    batch_size: 64
  }
}
layer {
  name: "slice_pair"
  type: "Slice"
  bottom: "pair_data"
  top: "data"
  top: "data_p"
  slice_param {
    slice_dim: 1
    slice_point: 1
  }
}
layer {
  name: "conv1"
  type: "Convolution"
  bottom: "data"
  top: "conv1"
  param {
    name: "conv1_w"
    lr_mult: 1
  }
  param {
    name: "conv1_b"
    lr_mult: 2
  }
  convolution_param {
    num_output: 20
    kernel_size: 5
    stride: 1
    weight_filler {
      type: "xavier"
    }
    bias_filler {
      type: "constant"
    }
  }
}
layer {
  name: "pool1"
  type: "Pooling"
  bottom: "conv1"
  top: "pool1"
  pooling_param {
    pool: MAX
    kernel_size: 2
    stride: 2
  }
}
layer {
  name: "conv2"
  type: "Convolution"
  bottom: "pool1"
  top: "conv2"
  param {
    name: "conv2_w"
    lr_mult: 1
  }
  param {
    name: "conv2_b"
    lr_mult: 2
  }
  convolution_param {
    num_output: 50
    kernel_size: 5
    stride: 1
    weight_filler {
      type: "xavier"
    }
    bias_filler {
      type: "constant"
    }
  }
}
layer {
  name: "pool2"
  type: "Pooling"
  bottom: "conv2"
  top: "pool2"
  pooling_param {
    pool: MAX
    kernel_size: 2
    stride: 2
  }
}
layer {
  name: "ip1"
  type: "InnerProduct"
  bottom: "pool2"
  top: "ip1"
  param {
    name: "ip1_w"
    lr_mult: 1
  }
  param {
    name: "ip1_b"
    lr_mult: 2
  }
  inner_product_param {
    num_output: 500
    weight_filler {
      type: "xavier"
    }
    bias_filler {
      type: "constant"
    }
  }
}
layer {
  name: "relu1"
  type: "ReLU"
  bottom: "ip1"
  top: "ip1"
}
layer {
  name: "ip2"
  type: "InnerProduct"
  bottom: "ip1"
  top: "ip2"
  param {
    name: "ip2_w"
    lr_mult: 1
  }
  param {
    name: "ip2_b"
    lr_mult: 2
  }
  inner_product_param {
    num_output: 10
    weight_filler {
      type: "xavier"
    }
    bias_filler {
      type: "constant"
    }
  }
}
layer {
  name: "feat"
  type: "InnerProduct"
  bottom: "ip2"
  top: "feat"
  param {
    name: "feat_w"
    lr_mult: 1
  }
  param {
    name: "feat_b"
    lr_mult: 2
  }
  inner_product_param {
    num_output: 2
    weight_filler {
      type: "xavier"
    }
    bias_filler {
      type: "constant"
    }
  }
}
layer {
  name: "conv1_p"
  type: "Convolution"
  bottom: "data_p"
  top: "conv1_p"
  param {
    name: "conv1_w"
    lr_mult: 1
  }
  param {
    name: "conv1_b"
    lr_mult: 2
  }
  convolution_param {
    num_output: 20
    kernel_size: 5
    stride: 1
    weight_filler {
      type: "xavier"
    }
    bias_filler {
      type: "constant"
    }
  }
}
layer {
  name: "pool1_p"
  type: "Pooling"
  bottom: "conv1_p"
  top: "pool1_p"
  pooling_param {
    pool: MAX
    kernel_size: 2
    stride: 2
  }
}
layer {
  name: "conv2_p"
  type: "Convolution"
  bottom: "pool1_p"
  top: "conv2_p"
  param {
    name: "conv2_w"
    lr_mult: 1
  }
  param {
    name: "conv2_b"
    lr_mult: 2
  }
  convolution_param {
    num_output: 50
    kernel_size: 5
    stride: 1
    weight_filler {
      type: "xavier"
    }
    bias_filler {
      type: "constant"
    }
  }
}
layer {
  name: "pool2_p"
  type: "Pooling"
  bottom: "conv2_p"
  top: "pool2_p"
  pooling_param {
    pool: MAX
    kernel_size: 2
    stride: 2
  }
}
layer {
  name: "ip1_p"
  type: "InnerProduct"
  bottom: "pool2_p"
  top: "ip1_p"
  param {
    name: "ip1_w"
    lr_mult: 1
  }
  param {
    name: "ip1_b"
    lr_mult: 2
  }
  inner_product_param {
    num_output: 500
    weight_filler {
      type: "xavier"
    }
    bias_filler {
      type: "constant"
    }
  }
}
layer {
  name: "relu1_p"
  type: "ReLU"
  bottom: "ip1_p"
  top: "ip1_p"
}
layer {
  name: "ip2_p"
  type: "InnerProduct"
  bottom: "ip1_p"
  top: "ip2_p"
  param {
    name: "ip2_w"
    lr_mult: 1
  }
  param {
    name: "ip2_b"
    lr_mult: 2
  }
  inner_product_param {
    num_output: 10
    weight_filler {
      type: "xavier"
    }
    bias_filler {
      type: "constant"
    }
  }
}
layer {
  name: "feat_p"
  type: "InnerProduct"
  bottom: "ip2_p"
  top: "feat_p"
  param {
    name: "feat_w"
    lr_mult: 1
  }
  param {
    name: "feat_b"
    lr_mult: 2
  }
  inner_product_param {
    num_output: 2
    weight_filler {
      type: "xavier"
    }
    bias_filler {
      type: "constant"
    }
  }
}
layer {
  name: "loss"
  type: "ContrastiveLoss"
  bottom: "feat"
  bottom: "feat_p"
  bottom: "sim"
  top: "loss"
  contrastive_loss_param {
    margin: 1
  }
}
I0712 22:45:01.542238 15171 layer_factory.hpp:77] Creating layer pair_data
I0712 22:45:01.542768 15171 net.cpp:91] Creating Layer pair_data
I0712 22:45:01.542803 15171 net.cpp:399] pair_data -> pair_data
I0712 22:45:01.542840 15171 net.cpp:399] pair_data -> sim
I0712 22:45:01.572674 15175 db_leveldb.cpp:18] Opened leveldb examples/siamese/mnist_siamese_train_leveldb_0to4
I0712 22:45:01.573909 15171 data_layer.cpp:41] output data size: 64,2,28,28
I0712 22:45:01.574784 15171 net.cpp:141] Setting up pair_data
I0712 22:45:01.574838 15171 net.cpp:148] Top shape: 64 2 28 28 (100352)
I0712 22:45:01.574857 15171 net.cpp:148] Top shape: 64 (64)
I0712 22:45:01.574862 15171 net.cpp:156] Memory required for data: 401664
I0712 22:45:01.574880 15171 layer_factory.hpp:77] Creating layer slice_pair
I0712 22:45:01.574905 15171 net.cpp:91] Creating Layer slice_pair
I0712 22:45:01.574915 15171 net.cpp:425] slice_pair <- pair_data
I0712 22:45:01.574933 15171 net.cpp:399] slice_pair -> data
I0712 22:45:01.574949 15171 net.cpp:399] slice_pair -> data_p
I0712 22:45:01.574967 15171 net.cpp:141] Setting up slice_pair
I0712 22:45:01.574975 15171 net.cpp:148] Top shape: 64 1 28 28 (50176)
I0712 22:45:01.574980 15171 net.cpp:148] Top shape: 64 1 28 28 (50176)
I0712 22:45:01.574982 15171 net.cpp:156] Memory required for data: 803072
I0712 22:45:01.574986 15171 layer_factory.hpp:77] Creating layer conv1
I0712 22:45:01.575006 15171 net.cpp:91] Creating Layer conv1
I0712 22:45:01.575011 15171 net.cpp:425] conv1 <- data
I0712 22:45:01.575017 15171 net.cpp:399] conv1 -> conv1
I0712 22:45:01.575089 15171 net.cpp:141] Setting up conv1
I0712 22:45:01.575098 15171 net.cpp:148] Top shape: 64 20 24 24 (737280)
I0712 22:45:01.575100 15171 net.cpp:156] Memory required for data: 3752192
I0712 22:45:01.575112 15171 layer_factory.hpp:77] Creating layer pool1
I0712 22:45:01.575120 15171 net.cpp:91] Creating Layer pool1
I0712 22:45:01.575124 15171 net.cpp:425] pool1 <- conv1
I0712 22:45:01.575129 15171 net.cpp:399] pool1 -> pool1
I0712 22:45:01.575151 15171 net.cpp:141] Setting up pool1
I0712 22:45:01.575156 15171 net.cpp:148] Top shape: 64 20 12 12 (184320)
I0712 22:45:01.575160 15171 net.cpp:156] Memory required for data: 4489472
I0712 22:45:01.575162 15171 layer_factory.hpp:77] Creating layer conv2
I0712 22:45:01.575179 15171 net.cpp:91] Creating Layer conv2
I0712 22:45:01.575183 15171 net.cpp:425] conv2 <- pool1
I0712 22:45:01.575189 15171 net.cpp:399] conv2 -> conv2
I0712 22:45:01.575503 15171 net.cpp:141] Setting up conv2
I0712 22:45:01.575537 15171 net.cpp:148] Top shape: 64 50 8 8 (204800)
I0712 22:45:01.575548 15171 net.cpp:156] Memory required for data: 5308672
I0712 22:45:01.575573 15171 layer_factory.hpp:77] Creating layer pool2
I0712 22:45:01.575609 15171 net.cpp:91] Creating Layer pool2
I0712 22:45:01.575696 15171 net.cpp:425] pool2 <- conv2
I0712 22:45:01.575716 15171 net.cpp:399] pool2 -> pool2
I0712 22:45:01.575748 15171 net.cpp:141] Setting up pool2
I0712 22:45:01.575922 15171 net.cpp:148] Top shape: 64 50 4 4 (51200)
I0712 22:45:01.575937 15171 net.cpp:156] Memory required for data: 5513472
I0712 22:45:01.575947 15171 layer_factory.hpp:77] Creating layer ip1
I0712 22:45:01.575989 15171 net.cpp:91] Creating Layer ip1
I0712 22:45:01.576001 15171 net.cpp:425] ip1 <- pool2
I0712 22:45:01.576027 15171 net.cpp:399] ip1 -> ip1
I0712 22:45:01.588944 15171 net.cpp:141] Setting up ip1
I0712 22:45:01.589710 15171 net.cpp:148] Top shape: 64 500 (32000)
I0712 22:45:01.590014 15171 net.cpp:156] Memory required for data: 5641472
I0712 22:45:01.590131 15171 layer_factory.hpp:77] Creating layer relu1
I0712 22:45:01.590277 15171 net.cpp:91] Creating Layer relu1
I0712 22:45:01.590363 15171 net.cpp:425] relu1 <- ip1
I0712 22:45:01.590507 15171 net.cpp:386] relu1 -> ip1 (in-place)
I0712 22:45:01.590769 15171 net.cpp:141] Setting up relu1
I0712 22:45:01.591521 15171 net.cpp:148] Top shape: 64 500 (32000)
I0712 22:45:01.603359 15171 net.cpp:156] Memory required for data: 5769472
I0712 22:45:01.603440 15171 layer_factory.hpp:77] Creating layer ip2
I0712 22:45:01.603497 15171 net.cpp:91] Creating Layer ip2
I0712 22:45:01.603509 15171 net.cpp:425] ip2 <- ip1
I0712 22:45:01.603528 15171 net.cpp:399] ip2 -> ip2
I0712 22:45:01.603628 15171 net.cpp:141] Setting up ip2
I0712 22:45:01.603643 15171 net.cpp:148] Top shape: 64 10 (640)
I0712 22:45:01.603648 15171 net.cpp:156] Memory required for data: 5772032
I0712 22:45:01.603659 15171 layer_factory.hpp:77] Creating layer feat
I0712 22:45:01.603672 15171 net.cpp:91] Creating Layer feat
I0712 22:45:01.603677 15171 net.cpp:425] feat <- ip2
I0712 22:45:01.603689 15171 net.cpp:399] feat -> feat
I0712 22:45:01.603708 15171 net.cpp:141] Setting up feat
I0712 22:45:01.603718 15171 net.cpp:148] Top shape: 64 2 (128)
I0712 22:45:01.603721 15171 net.cpp:156] Memory required for data: 5772544
I0712 22:45:01.603734 15171 layer_factory.hpp:77] Creating layer conv1_p
I0712 22:45:01.603754 15171 net.cpp:91] Creating Layer conv1_p
I0712 22:45:01.603760 15171 net.cpp:425] conv1_p <- data_p
I0712 22:45:01.603770 15171 net.cpp:399] conv1_p -> conv1_p
I0712 22:45:01.603814 15171 net.cpp:141] Setting up conv1_p
I0712 22:45:01.603824 15171 net.cpp:148] Top shape: 64 20 24 24 (737280)
I0712 22:45:01.603828 15171 net.cpp:156] Memory required for data: 8721664
I0712 22:45:01.603834 15171 net.cpp:484] Sharing parameters 'conv1_w' owned by layer 'conv1', param index 0
I0712 22:45:01.603840 15171 net.cpp:484] Sharing parameters 'conv1_b' owned by layer 'conv1', param index 1
I0712 22:45:01.603847 15171 layer_factory.hpp:77] Creating layer pool1_p
I0712 22:45:01.603855 15171 net.cpp:91] Creating Layer pool1_p
I0712 22:45:01.603860 15171 net.cpp:425] pool1_p <- conv1_p
I0712 22:45:01.603868 15171 net.cpp:399] pool1_p -> pool1_p
I0712 22:45:01.603889 15171 net.cpp:141] Setting up pool1_p
I0712 22:45:01.603901 15171 net.cpp:148] Top shape: 64 20 12 12 (184320)
I0712 22:45:01.603909 15171 net.cpp:156] Memory required for data: 9458944
I0712 22:45:01.603914 15171 layer_factory.hpp:77] Creating layer conv2_p
I0712 22:45:01.603950 15171 net.cpp:91] Creating Layer conv2_p
I0712 22:45:01.603956 15171 net.cpp:425] conv2_p <- pool1_p
I0712 22:45:01.603970 15171 net.cpp:399] conv2_p -> conv2_p
I0712 22:45:01.604305 15171 net.cpp:141] Setting up conv2_p
I0712 22:45:01.604322 15171 net.cpp:148] Top shape: 64 50 8 8 (204800)
I0712 22:45:01.604326 15171 net.cpp:156] Memory required for data: 10278144
I0712 22:45:01.604334 15171 net.cpp:484] Sharing parameters 'conv2_w' owned by layer 'conv2', param index 0
I0712 22:45:01.604341 15171 net.cpp:484] Sharing parameters 'conv2_b' owned by layer 'conv2', param index 1
I0712 22:45:01.604346 15171 layer_factory.hpp:77] Creating layer pool2_p
I0712 22:45:01.604356 15171 net.cpp:91] Creating Layer pool2_p
I0712 22:45:01.604362 15171 net.cpp:425] pool2_p <- conv2_p
I0712 22:45:01.604372 15171 net.cpp:399] pool2_p -> pool2_p
I0712 22:45:01.604552 15171 net.cpp:141] Setting up pool2_p
I0712 22:45:01.604565 15171 net.cpp:148] Top shape: 64 50 4 4 (51200)
I0712 22:45:01.604568 15171 net.cpp:156] Memory required for data: 10482944
I0712 22:45:01.604571 15171 layer_factory.hpp:77] Creating layer ip1_p
I0712 22:45:01.604585 15171 net.cpp:91] Creating Layer ip1_p
I0712 22:45:01.604589 15171 net.cpp:425] ip1_p <- pool2_p
I0712 22:45:01.604594 15171 net.cpp:399] ip1_p -> ip1_p
I0712 22:45:01.607884 15171 net.cpp:141] Setting up ip1_p
I0712 22:45:01.607918 15171 net.cpp:148] Top shape: 64 500 (32000)
I0712 22:45:01.607921 15171 net.cpp:156] Memory required for data: 10610944
I0712 22:45:01.607928 15171 net.cpp:484] Sharing parameters 'ip1_w' owned by layer 'ip1', param index 0
I0712 22:45:01.607933 15171 net.cpp:484] Sharing parameters 'ip1_b' owned by layer 'ip1', param index 1
I0712 22:45:01.607936 15171 layer_factory.hpp:77] Creating layer relu1_p
I0712 22:45:01.607944 15171 net.cpp:91] Creating Layer relu1_p
I0712 22:45:01.607947 15171 net.cpp:425] relu1_p <- ip1_p
I0712 22:45:01.607954 15171 net.cpp:386] relu1_p -> ip1_p (in-place)
I0712 22:45:01.607962 15171 net.cpp:141] Setting up relu1_p
I0712 22:45:01.607966 15171 net.cpp:148] Top shape: 64 500 (32000)
I0712 22:45:01.607969 15171 net.cpp:156] Memory required for data: 10738944
I0712 22:45:01.607971 15171 layer_factory.hpp:77] Creating layer ip2_p
I0712 22:45:01.607981 15171 net.cpp:91] Creating Layer ip2_p
I0712 22:45:01.607985 15171 net.cpp:425] ip2_p <- ip1_p
I0712 22:45:01.607990 15171 net.cpp:399] ip2_p -> ip2_p
I0712 22:45:01.608045 15171 net.cpp:141] Setting up ip2_p
I0712 22:45:01.608050 15171 net.cpp:148] Top shape: 64 10 (640)
I0712 22:45:01.608053 15171 net.cpp:156] Memory required for data: 10741504
I0712 22:45:01.608058 15171 net.cpp:484] Sharing parameters 'ip2_w' owned by layer 'ip2', param index 0
I0712 22:45:01.608062 15171 net.cpp:484] Sharing parameters 'ip2_b' owned by layer 'ip2', param index 1
I0712 22:45:01.608065 15171 layer_factory.hpp:77] Creating layer feat_p
I0712 22:45:01.608070 15171 net.cpp:91] Creating Layer feat_p
I0712 22:45:01.608073 15171 net.cpp:425] feat_p <- ip2_p
I0712 22:45:01.608079 15171 net.cpp:399] feat_p -> feat_p
I0712 22:45:01.608088 15171 net.cpp:141] Setting up feat_p
I0712 22:45:01.608093 15171 net.cpp:148] Top shape: 64 2 (128)
I0712 22:45:01.608095 15171 net.cpp:156] Memory required for data: 10742016
I0712 22:45:01.608098 15171 net.cpp:484] Sharing parameters 'feat_w' owned by layer 'feat', param index 0
I0712 22:45:01.608101 15171 net.cpp:484] Sharing parameters 'feat_b' owned by layer 'feat', param index 1
I0712 22:45:01.608104 15171 layer_factory.hpp:77] Creating layer loss
I0712 22:45:01.608116 15171 net.cpp:91] Creating Layer loss
…
I0712 22:45:01.608917 15171 solver.cpp:181] Creating test net (#0) specified by net file: examples/siamese/mnist_siamese_train_test.prototxt
I0712 22:45:01.608955 15171 net.cpp:313] The NetState phase (1) differed from the phase (0) specified by a rule in layer pair_data
I0712 22:45:01.609089 15171 net.cpp:49] Initializing net from parameters: 
name: "mnist_siamese_train_test"
state {
  phase: TEST
}
layer {
  name: "pair_data"
  type: "Data"
  top: "pair_data"
  top: "sim"
  include {
    phase: TEST
  }
  transform_param {
    scale: 0.00390625
  }
  data_param {
    source: "examples/siamese/mnist_siamese_test_leveldb_789"
    batch_size: 100
  }
}
layer {
  name: "slice_pair"
  type: "Slice"
  bottom: "pair_data"
  top: "data"
  top: "data_p"
  slice_param {
    slice_dim: 1
    slice_point: 1
  }
}
layer {
  name: "conv1"
  type: "Convolution"
  bottom: "data"
  top: "conv1"
  param {
    name: "conv1_w"
    lr_mult: 1
  }
  param {
    name: "conv1_b"
    lr_mult: 2
  }
  convolution_param {
    num_output: 20
    kernel_size: 5
    stride: 1
    weight_filler {
      type: "xavier"
    }
    bias_filler {
      type: "constant"
    }
  }
}
layer {
  name: "pool1"
  type: "Pooling"
  bottom: "conv1"
  top: "pool1"
  pooling_param {
    pool: MAX
    kernel_size: 2
    stride: 2
  }
}
layer {
  name: "conv2"
  type: "Convolution"
  bottom: "pool1"
  top: "conv2"
  param {
    name: "conv2_w"
    lr_mult: 1
  }
  param {
    name: "conv2_b"
    lr_mult: 2
  }
  convolution_param {
    num_output: 50
    kernel_size: 5
    stride: 1
    weight_filler {
      type: "xavier"
    }
    bias_filler {
      type: "constant"
    }
  }
}
layer {
  name: "pool2"
  type: "Pooling"
  bottom: "conv2"
  top: "pool2"
  pooling_param {
    pool: MAX
    kernel_size: 2
    stride: 2
  }
}
layer {
  name: "ip1"
  type: "InnerProduct"
  bottom: "pool2"
  top: "ip1"
  param {
    name: "ip1_w"
    lr_mult: 1
  }
  param {
    name: "ip1_b"
    lr_mult: 2
  }
  inner_product_param {
    num_output: 500
    weight_filler {
      type: "xavier"
    }
    bias_filler {
      type: "constant"
    }
  }
}
layer {
  name: "relu1"
  type: "ReLU"
  bottom: "ip1"
  top: "ip1"
}
layer {
  name: "ip2"
  type: "InnerProduct"
  bottom: "ip1"
  top: "ip2"
  param {
    name: "ip2_w"
    lr_mult: 1
  }
  param {
    name: "ip2_b"
    lr_mult: 2
  }
  inner_product_param {
    num_output: 10
    weight_filler {
      type: "xavier"
    }
    bias_filler {
      type: "constant"
    }
  }
}
layer {
  name: "feat"
  type: "InnerProduct"
  bottom: "ip2"
  top: "feat"
  param {
    name: "feat_w"
    lr_mult: 1
  }
  param {
    name: "feat_b"
    lr_mult: 2
  }
  inner_product_param {
    num_output: 2
    weight_filler {
      type: "xavier"
    }
    bias_filler {
      type: "constant"
    }
  }
}
layer {
  name: "conv1_p"
  type: "Convolution"
  bottom: "data_p"
  top: "conv1_p"
  param {
    name: "conv1_w"
    lr_mult: 1
  }
  param {
    name: "conv1_b"
    lr_mult: 2
  }
  convolution_param {
    num_output: 20
    kernel_size: 5
    stride: 1
    weight_filler {
      type: "xavier"
    }
    bias_filler {
      type: "constant"
    }
  }
}
layer {
  name: "pool1_p"
  type: "Pooling"
  bottom: "conv1_p"
  top: "pool1_p"
  pooling_param {
    pool: MAX
    kernel_size: 2
    stride: 2
  }
}
layer {
  name: "conv2_p"
  type: "Convolution"
  bottom: "pool1_p"
  top: "conv2_p"
  param {
    name: "conv2_w"
    lr_mult: 1
  }
  param {
    name: "conv2_b"
    lr_mult: 2
  }
  convolution_param {
    num_output: 50
    kernel_size: 5
    stride: 1
    weight_filler {
      type: "xavier"
    }
    bias_filler {
      type: "constant"
    }
  }
}
layer {
  name: "pool2_p"
  type: "Pooling"
  bottom: "conv2_p"
  top: "pool2_p"
  pooling_param {
    pool: MAX
    kernel_size: 2
    stride: 2
  }
}
layer {
  name: "ip1_p"
  type: "InnerProduct"
  bottom: "pool2_p"
  top: "ip1_p"
  param {
    name: "ip1_w"
    lr_mult: 1
  }
  param {
    name: "ip1_b"
    lr_mult: 2
  }
  inner_product_param {
    num_output: 500
    weight_filler {
      type: "xavier"
    }
    bias_filler {
      type: "constant"
    }
  }
}
layer {
  name: "relu1_p"
  type: "ReLU"
  bottom: "ip1_p"
  top: "ip1_p"
}
layer {
  name: "ip2_p"
  type: "InnerProduct"
  bottom: "ip1_p"
  top: "ip2_p"
  param {
    name: "ip2_w"
    lr_mult: 1
  }
  param {
    name: "ip2_b"
    lr_mult: 2
  }
  inner_product_param {
    num_output: 10
    weight_filler {
      type: "xavier"
    }
    bias_filler {
      type: "constant"
    }
  }
}
layer {
  name: "feat_p"
  type: "InnerProduct"
  bottom: "ip2_p"
  top: "feat_p"
  param {
    name: "feat_w"
    lr_mult: 1
  }
  param {
    name: "feat_b"
    lr_mult: 2
  }
  inner_product_param {
    num_output: 2
    weight_filler {
      type: "xavier"
    }
    bias_filler {
      type: "constant"
    }
  }
}
layer {
  name: "loss"
  type: "ContrastiveLoss"
  bottom: "feat"
  bottom: "feat_p"
  bottom: "sim"
  top: "loss"
  contrastive_loss_param {
    margin: 1
  }
}
I0712 22:45:01.609170 15171 layer_factory.hpp:77] Creating layer pair_data
I0712 22:45:01.609302 15171 net.cpp:91] Creating Layer pair_data
I0712 22:45:01.609311 15171 net.cpp:399] pair_data -> pair_data
I0712 22:45:01.609320 15171 net.cpp:399] pair_data -> sim
I0712 22:45:01.618999 15177 db_leveldb.cpp:18] Opened leveldb examples/siamese/mnist_siamese_test_leveldb_789
I0712 22:45:01.619305 15171 data_layer.cpp:41] output data size: 100,2,28,28
I0712 22:45:01.624379 15171 net.cpp:141] Setting up pair_data
I0712 22:45:01.624538 15171 net.cpp:148] Top shape: 100 2 28 28 (156800)
I0712 22:45:01.624550 15171 net.cpp:148] Top shape: 100 (100)
I0712 22:45:01.624575 15171 net.cpp:156] Memory required for data: 627600
I0712 22:45:01.624603 15171 layer_factory.hpp:77] Creating layer slice_pair
I0712 22:45:01.624630 15171 net.cpp:91] Creating Layer slice_pair
I0712 22:45:01.624637 15171 net.cpp:425] slice_pair <- pair_data
I0712 22:45:01.624649 15171 net.cpp:399] slice_pair -> data
I0712 22:45:01.624661 15171 net.cpp:399] slice_pair -> data_p
I0712 22:45:01.624698 15171 net.cpp:141] Setting up slice_pair
I0712 22:45:01.624707 15171 net.cpp:148] Top shape: 100 1 28 28 (78400)
I0712 22:45:01.624712 15171 net.cpp:148] Top shape: 100 1 28 28 (78400)
I0712 22:45:01.624716 15171 net.cpp:156] Memory required for data: 1254800
I0712 22:45:01.624719 15171 layer_factory.hpp:77] Creating layer conv1
I0712 22:45:01.624742 15171 net.cpp:91] Creating Layer conv1
I0712 22:45:01.624765 15171 net.cpp:425] conv1 <- data
I0712 22:45:01.624774 15171 net.cpp:399] conv1 -> conv1
I0712 22:45:01.624815 15171 net.cpp:141] Setting up conv1
I0712 22:45:01.624850 15171 net.cpp:148] Top shape: 100 20 24 24 (1152000)
I0712 22:45:01.624856 15171 net.cpp:156] Memory required for data: 5862800
I0712 22:45:01.624877 15171 layer_factory.hpp:77] Creating layer pool1
I0712 22:45:01.624898 15171 net.cpp:91] Creating Layer pool1
I0712 22:45:01.624908 15171 net.cpp:425] pool1 <- conv1
I0712 22:45:01.624919 15171 net.cpp:399] pool1 -> pool1
I0712 22:45:01.624948 15171 net.cpp:141] Setting up pool1
I0712 22:45:01.624960 15171 net.cpp:148] Top shape: 100 20 12 12 (288000)
I0712 22:45:01.624994 15171 net.cpp:156] Memory required for data: 7014800
I0712 22:45:01.625000 15171 layer_factory.hpp:77] Creating layer conv2
I0712 22:45:01.625044 15171 net.cpp:91] Creating Layer conv2
I0712 22:45:01.625054 15171 net.cpp:425] conv2 <- pool1
I0712 22:45:01.625097 15171 net.cpp:399] conv2 -> conv2
I0712 22:45:01.625408 15171 net.cpp:141] Setting up conv2
I0712 22:45:01.625526 15171 net.cpp:148] Top shape: 100 50 8 8 (320000)
I0712 22:45:01.625533 15171 net.cpp:156] Memory required for data: 8294800
I0712 22:45:01.625546 15171 layer_factory.hpp:77] Creating layer pool2
I0712 22:45:01.625556 15171 net.cpp:91] Creating Layer pool2
I0712 22:45:01.625561 15171 net.cpp:425] pool2 <- conv2
I0712 22:45:01.625569 15171 net.cpp:399] pool2 -> pool2
I0712 22:45:01.625582 15171 net.cpp:141] Setting up pool2
I0712 22:45:01.625588 15171 net.cpp:148] Top shape: 100 50 4 4 (80000)
I0712 22:45:01.625592 15171 net.cpp:156] Memory required for data: 8614800
I0712 22:45:01.625597 15171 layer_factory.hpp:77] Creating layer ip1
I0712 22:45:01.625605 15171 net.cpp:91] Creating Layer ip1
I0712 22:45:01.625608 15171 net.cpp:425] ip1 <- pool2
I0712 22:45:01.625614 15171 net.cpp:399] ip1 -> ip1
I0712 22:45:01.626884 15178 blocking_queue.cpp:50] Waiting for data
I0712 22:45:01.629984 15171 net.cpp:141] Setting up ip1
I0712 22:45:01.630447 15171 net.cpp:148] Top shape: 100 500 (50000)
I0712 22:45:01.632979 15171 net.cpp:156] Memory required for data: 8814800
I0712 22:45:01.633152 15171 layer_factory.hpp:77] Creating layer relu1
I0712 22:45:01.633271 15171 net.cpp:91] Creating Layer relu1
I0712 22:45:01.633364 15171 net.cpp:425] relu1 <- ip1
I0712 22:45:01.633445 15171 net.cpp:386] relu1 -> ip1 (in-place)
I0712 22:45:01.633539 15171 net.cpp:141] Setting up relu1
I0712 22:45:01.633625 15171 net.cpp:148] Top shape: 100 500 (50000)
I0712 22:45:01.633752 15171 net.cpp:156] Memory required for data: 9014800
I0712 22:45:01.633821 15171 layer_factory.hpp:77] Creating layer ip2
I0712 22:45:01.633884 15171 net.cpp:91] Creating Layer ip2
I0712 22:45:01.634001 15171 net.cpp:425] ip2 <- ip1
I0712 22:45:01.634121 15171 net.cpp:399] ip2 -> ip2
I0712 22:45:01.634301 15171 net.cpp:141] Setting up ip2
I0712 22:45:01.636827 15171 net.cpp:148] Top shape: 100 10 (1000)
I0712 22:45:01.636971 15171 net.cpp:156] Memory required for data: 9018800
I0712 22:45:01.637081 15171 layer_factory.hpp:77] Creating layer feat
I0712 22:45:01.637212 15171 net.cpp:91] Creating Layer feat
I0712 22:45:01.637430 15171 net.cpp:425] feat <- ip2
I0712 22:45:01.637769 15171 net.cpp:399] feat -> feat
I0712 22:45:01.638016 15171 net.cpp:141] Setting up feat
I0712 22:45:01.638416 15171 net.cpp:148] Top shape: 100 2 (200)
I0712 22:45:01.638633 15171 net.cpp:156] Memory required for data: 9019600
I0712 22:45:01.638806 15171 layer_factory.hpp:77] Creating layer conv1_p
I0712 22:45:01.639106 15171 net.cpp:91] Creating Layer conv1_p
I0712 22:45:01.639322 15171 net.cpp:425] conv1_p <- data_p
I0712 22:45:01.639487 15171 net.cpp:399] conv1_p -> conv1_p
I0712 22:45:01.639861 15171 net.cpp:141] Setting up conv1_p
I0712 22:45:01.639950 15171 net.cpp:148] Top shape: 100 20 24 24 (1152000)
I0712 22:45:01.640102 15171 net.cpp:156] Memory required for data: 13627600
I0712 22:45:01.640183 15171 net.cpp:484] Sharing parameters 'conv1_w' owned by layer 'conv1', param index 0
I0712 22:45:01.640266 15171 net.cpp:484] Sharing parameters 'conv1_b' owned by layer 'conv1', param index 1
I0712 22:45:01.640382 15171 layer_factory.hpp:77] Creating layer pool1_p
I0712 22:45:01.640491 15171 net.cpp:91] Creating Layer pool1_p
I0712 22:45:01.640614 15171 net.cpp:425] pool1_p <- conv1_p
I0712 22:45:01.640693 15171 net.cpp:399] pool1_p -> pool1_p
I0712 22:45:01.640817 15171 net.cpp:141] Setting up pool1_p
I0712 22:45:01.640954 15171 net.cpp:148] Top shape: 100 20 12 12 (288000)
I0712 22:45:01.641058 15171 net.cpp:156] Memory required for data: 14779600
I0712 22:45:01.641176 15171 layer_factory.hpp:77] Creating layer conv2_p
I0712 22:45:01.641273 15171 net.cpp:91] Creating Layer conv2_p
I0712 22:45:01.641386 15171 net.cpp:425] conv2_p <- pool1_p
I0712 22:45:01.641454 15171 net.cpp:399] conv2_p -> conv2_p
I0712 22:45:01.641852 15171 net.cpp:141] Setting up conv2_p
I0712 22:45:01.641980 15171 net.cpp:148] Top shape: 100 50 8 8 (320000)
I0712 22:45:01.642040 15171 net.cpp:156] Memory required for data: 16059600
I0712 22:45:01.642067 15171 net.cpp:484] Sharing parameters 'conv2_w' owned by layer 'conv2', param index 0
I0712 22:45:01.642091 15171 net.cpp:484] Sharing parameters 'conv2_b' owned by layer 'conv2', param index 1
I0712 22:45:01.642113 15171 layer_factory.hpp:77] Creating layer pool2_p
I0712 22:45:01.642143 15171 net.cpp:91] Creating Layer pool2_p
I0712 22:45:01.642165 15171 net.cpp:425] pool2_p <- conv2_p
I0712 22:45:01.642191 15171 net.cpp:399] pool2_p -> pool2_p
I0712 22:45:01.642223 15171 net.cpp:141] Setting up pool2_p
I0712 22:45:01.642248 15171 net.cpp:148] Top shape: 100 50 4 4 (80000)
I0712 22:45:01.642266 15171 net.cpp:156] Memory required for data: 16379600
I0712 22:45:01.642285 15171 layer_factory.hpp:77] Creating layer ip1_p
I0712 22:45:01.642310 15171 net.cpp:91] Creating Layer ip1_p
I0712 22:45:01.642331 15171 net.cpp:425] ip1_p <- pool2_p
I0712 22:45:01.642359 15171 net.cpp:399] ip1_p -> ip1_p
I0712 22:45:01.652505 15171 net.cpp:141] Setting up ip1_p
I0712 22:45:01.652765 15171 net.cpp:148] Top shape: 100 500 (50000)
I0712 22:45:01.652869 15171 net.cpp:156] Memory required for data: 16579600
I0712 22:45:01.652962 15171 net.cpp:484] Sharing parameters 'ip1_w' owned by layer 'ip1', param index 0
I0712 22:45:01.653112 15171 net.cpp:484] Sharing parameters 'ip1_b' owned by layer 'ip1', param index 1
I0712 22:45:01.653195 15171 layer_factory.hpp:77] Creating layer relu1_p
I0712 22:45:01.653277 15171 net.cpp:91] Creating Layer relu1_p
I0712 22:45:01.653345 15171 net.cpp:425] relu1_p <- ip1_p
I0712 22:45:01.653434 15171 net.cpp:386] relu1_p -> ip1_p (in-place)
I0712 22:45:01.653517 15171 net.cpp:141] Setting up relu1_p
I0712 22:45:01.653705 15171 net.cpp:148] Top shape: 100 500 (50000)
I0712 22:45:01.653750 15171 net.cpp:156] Memory required for data: 16779600
I0712 22:45:01.653789 15171 layer_factory.hpp:77] Creating layer ip2_p
I0712 22:45:01.654088 15171 net.cpp:91] Creating Layer ip2_p
I0712 22:45:01.654119 15171 net.cpp:425] ip2_p <- ip1_p
I0712 22:45:01.654157 15171 net.cpp:399] ip2_p -> ip2_p
I0712 22:45:01.654273 15171 net.cpp:141] Setting up ip2_p
I0712 22:45:01.654304 15171 net.cpp:148] Top shape: 100 10 (1000)
I0712 22:45:01.654325 15171 net.cpp:156] Memory required for data: 16783600
I0712 22:45:01.654356 15171 net.cpp:484] Sharing parameters 'ip2_w' owned by layer 'ip2', param index 0
I0712 22:45:01.654383 15171 net.cpp:484] Sharing parameters 'ip2_b' owned by layer 'ip2', param index 1
I0712 22:45:01.654407 15171 layer_factory.hpp:77] Creating layer feat_p
I0712 22:45:01.654435 15171 net.cpp:91] Creating Layer feat_p
I0712 22:45:01.654458 15171 net.cpp:425] feat_p <- ip2_p
I0712 22:45:01.654536 15171 net.cpp:399] feat_p -> feat_p
I0712 22:45:01.654609 15171 net.cpp:141] Setting up feat_p
I0712 22:45:01.654644 15171 net.cpp:148] Top shape: 100 2 (200)
I0712 22:45:01.654665 15171 net.cpp:156] Memory required for data: 16784400
I0712 22:45:01.654688 15171 net.cpp:484] Sharing parameters 'feat_w' owned by layer 'feat', param index 0
I0712 22:45:01.654712 15171 net.cpp:484] Sharing parameters 'feat_b' owned by layer 'feat', param index 1
I0712 22:45:01.654734 15171 layer_factory.hpp:77] Creating layer loss
I0712 22:45:01.654762 15171 net.cpp:91] Creating Layer loss
…
