…
I0711 11:57:31.937816 32141 solver.cpp:91] Creating training net from net file: examples/siamese/mnist_siamese_train_test.prototxt
I0711 11:57:31.939816 32141 net.cpp:313] The NetState phase (0) differed from the phase (1) specified by a rule in layer pair_data
I0711 11:57:31.940084 32141 net.cpp:49] Initializing net from parameters: 
name: "mnist_siamese_train_test"
state {
  phase: TRAIN
}
layer {
  name: "pair_data"
  type: "Data"
  top: "pair_data"
  top: "sim"
  include {
    phase: TRAIN
  }
  transform_param {
    scale: 0.00390625
  }
  data_param {
    source: "examples/siamese/mnist_siamese_train_leveldb_0to6_l"
    batch_size: 64
  }
}
layer {
  name: "slice_pair"
  type: "Slice"
  bottom: "pair_data"
  top: "data"
  top: "data_p"
  slice_param {
    slice_dim: 1
    slice_point: 1
  }
}
layer {
  name: "conv1"
  type: "Convolution"
  bottom: "data"
  top: "conv1"
  param {
    name: "conv1_w"
    lr_mult: 1
  }
  param {
    name: "conv1_b"
    lr_mult: 2
  }
  convolution_param {
    num_output: 20
    kernel_size: 5
    stride: 1
    weight_filler {
      type: "xavier"
    }
    bias_filler {
      type: "constant"
    }
  }
}
layer {
  name: "pool1"
  type: "Pooling"
  bottom: "conv1"
  top: "pool1"
  pooling_param {
    pool: MAX
    kernel_size: 2
    stride: 2
  }
}
layer {
  name: "conv2"
  type: "Convolution"
  bottom: "pool1"
  top: "conv2"
  param {
    name: "conv2_w"
    lr_mult: 1
  }
  param {
    name: "conv2_b"
    lr_mult: 2
  }
  convolution_param {
    num_output: 50
    kernel_size: 5
    stride: 1
    weight_filler {
      type: "xavier"
    }
    bias_filler {
      type: "constant"
    }
  }
}
layer {
  name: "pool2"
  type: "Pooling"
  bottom: "conv2"
  top: "pool2"
  pooling_param {
    pool: MAX
    kernel_size: 2
    stride: 2
  }
}
layer {
  name: "ip1"
  type: "InnerProduct"
  bottom: "pool2"
  top: "ip1"
  param {
    name: "ip1_w"
    lr_mult: 1
  }
  param {
    name: "ip1_b"
    lr_mult: 2
  }
  inner_product_param {
    num_output: 500
    weight_filler {
      type: "xavier"
    }
    bias_filler {
      type: "constant"
    }
  }
}
layer {
  name: "relu1"
  type: "ReLU"
  bottom: "ip1"
  top: "ip1"
}
layer {
  name: "ip2"
  type: "InnerProduct"
  bottom: "ip1"
  top: "ip2"
  param {
    name: "ip2_w"
    lr_mult: 1
  }
  param {
    name: "ip2_b"
    lr_mult: 2
  }
  inner_product_param {
    num_output: 10
    weight_filler {
      type: "xavier"
    }
    bias_filler {
      type: "constant"
    }
  }
}
layer {
  name: "feat"
  type: "InnerProduct"
  bottom: "ip2"
  top: "feat"
  param {
    name: "feat_w"
    lr_mult: 1
  }
  param {
    name: "feat_b"
    lr_mult: 2
  }
  inner_product_param {
    num_output: 2
    weight_filler {
      type: "xavier"
    }
    bias_filler {
      type: "constant"
    }
  }
}
layer {
  name: "conv1_p"
  type: "Convolution"
  bottom: "data_p"
  top: "conv1_p"
  param {
    name: "conv1_w"
    lr_mult: 1
  }
  param {
    name: "conv1_b"
    lr_mult: 2
  }
  convolution_param {
    num_output: 20
    kernel_size: 5
    stride: 1
    weight_filler {
      type: "xavier"
    }
    bias_filler {
      type: "constant"
    }
  }
}
layer {
  name: "pool1_p"
  type: "Pooling"
  bottom: "conv1_p"
  top: "pool1_p"
  pooling_param {
    pool: MAX
    kernel_size: 2
    stride: 2
  }
}
layer {
  name: "conv2_p"
  type: "Convolution"
  bottom: "pool1_p"
  top: "conv2_p"
  param {
    name: "conv2_w"
    lr_mult: 1
  }
  param {
    name: "conv2_b"
    lr_mult: 2
  }
  convolution_param {
    num_output: 50
    kernel_size: 5
    stride: 1
    weight_filler {
      type: "xavier"
    }
    bias_filler {
      type: "constant"
    }
  }
}
layer {
  name: "pool2_p"
  type: "Pooling"
  bottom: "conv2_p"
  top: "pool2_p"
  pooling_param {
    pool: MAX
    kernel_size: 2
    stride: 2
  }
}
layer {
  name: "ip1_p"
  type: "InnerProduct"
  bottom: "pool2_p"
  top: "ip1_p"
  param {
    name: "ip1_w"
    lr_mult: 1
  }
  param {
    name: "ip1_b"
    lr_mult: 2
  }
  inner_product_param {
    num_output: 500
    weight_filler {
      type: "xavier"
    }
    bias_filler {
      type: "constant"
    }
  }
}
layer {
  name: "relu1_p"
  type: "ReLU"
  bottom: "ip1_p"
  top: "ip1_p"
}
layer {
  name: "ip2_p"
  type: "InnerProduct"
  bottom: "ip1_p"
  top: "ip2_p"
  param {
    name: "ip2_w"
    lr_mult: 1
  }
  param {
    name: "ip2_b"
    lr_mult: 2
  }
  inner_product_param {
    num_output: 10
    weight_filler {
      type: "xavier"
    }
    bias_filler {
      type: "constant"
    }
  }
}
layer {
  name: "feat_p"
  type: "InnerProduct"
  bottom: "ip2_p"
  top: "feat_p"
  param {
    name: "feat_w"
    lr_mult: 1
  }
  param {
    name: "feat_b"
    lr_mult: 2
  }
  inner_product_param {
    num_output: 2
    weight_filler {
      type: "xavier"
    }
    bias_filler {
      type: "constant"
    }
  }
}
layer {
  name: "loss"
  type: "ContrastiveLoss"
  bottom: "feat"
  bottom: "feat_p"
  bottom: "sim"
  top: "loss"
  contrastive_loss_param {
    margin: 1
  }
}
I0711 11:57:31.940242 32141 layer_factory.hpp:77] Creating layer pair_data
I0711 11:57:31.945197 32141 net.cpp:91] Creating Layer pair_data
I0711 11:57:31.945217 32141 net.cpp:399] pair_data -> pair_data
I0711 11:57:31.945256 32141 net.cpp:399] pair_data -> sim
I0711 11:57:32.191545 32147 db_leveldb.cpp:18] Opened leveldb examples/siamese/mnist_siamese_train_leveldb_0to6_l
I0711 11:57:32.389544 32141 data_layer.cpp:41] output data size: 64,2,28,28
I0711 11:57:32.411795 32141 net.cpp:141] Setting up pair_data
I0711 11:57:32.411833 32141 net.cpp:148] Top shape: 64 2 28 28 (100352)
I0711 11:57:32.411842 32141 net.cpp:148] Top shape: 64 (64)
I0711 11:57:32.411849 32141 net.cpp:156] Memory required for data: 401664
I0711 11:57:32.411864 32141 layer_factory.hpp:77] Creating layer slice_pair
I0711 11:57:32.434351 32141 net.cpp:91] Creating Layer slice_pair
I0711 11:57:32.434386 32141 net.cpp:425] slice_pair <- pair_data
I0711 11:57:32.434411 32141 net.cpp:399] slice_pair -> data
I0711 11:57:32.434438 32141 net.cpp:399] slice_pair -> data_p
I0711 11:57:32.434550 32141 net.cpp:141] Setting up slice_pair
I0711 11:57:32.434569 32141 net.cpp:148] Top shape: 64 1 28 28 (50176)
I0711 11:57:32.434584 32141 net.cpp:148] Top shape: 64 1 28 28 (50176)
I0711 11:57:32.434595 32141 net.cpp:156] Memory required for data: 803072
I0711 11:57:32.434607 32141 layer_factory.hpp:77] Creating layer conv1
I0711 11:57:32.434653 32141 net.cpp:91] Creating Layer conv1
I0711 11:57:32.434669 32141 net.cpp:425] conv1 <- data
I0711 11:57:32.434691 32141 net.cpp:399] conv1 -> conv1
I0711 11:57:32.445201 32141 net.cpp:141] Setting up conv1
I0711 11:57:32.445251 32141 net.cpp:148] Top shape: 64 20 24 24 (737280)
I0711 11:57:32.445264 32141 net.cpp:156] Memory required for data: 3752192
I0711 11:57:32.445297 32141 layer_factory.hpp:77] Creating layer pool1
I0711 11:57:32.445320 32141 net.cpp:91] Creating Layer pool1
I0711 11:57:32.445335 32141 net.cpp:425] pool1 <- conv1
I0711 11:57:32.445365 32141 net.cpp:399] pool1 -> pool1
I0711 11:57:32.445494 32141 net.cpp:141] Setting up pool1
I0711 11:57:32.445515 32141 net.cpp:148] Top shape: 64 20 12 12 (184320)
I0711 11:57:32.445528 32141 net.cpp:156] Memory required for data: 4489472
I0711 11:57:32.445538 32141 layer_factory.hpp:77] Creating layer conv2
I0711 11:57:32.445564 32141 net.cpp:91] Creating Layer conv2
I0711 11:57:32.445576 32141 net.cpp:425] conv2 <- pool1
I0711 11:57:32.445595 32141 net.cpp:399] conv2 -> conv2
I0711 11:57:32.447134 32141 net.cpp:141] Setting up conv2
I0711 11:57:32.447155 32141 net.cpp:148] Top shape: 64 50 8 8 (204800)
I0711 11:57:32.447165 32141 net.cpp:156] Memory required for data: 5308672
I0711 11:57:32.447181 32141 layer_factory.hpp:77] Creating layer pool2
I0711 11:57:32.447268 32141 net.cpp:91] Creating Layer pool2
I0711 11:57:32.447280 32141 net.cpp:425] pool2 <- conv2
I0711 11:57:32.447295 32141 net.cpp:399] pool2 -> pool2
I0711 11:57:32.447378 32141 net.cpp:141] Setting up pool2
I0711 11:57:32.447396 32141 net.cpp:148] Top shape: 64 50 4 4 (51200)
I0711 11:57:32.447405 32141 net.cpp:156] Memory required for data: 5513472
I0711 11:57:32.447415 32141 layer_factory.hpp:77] Creating layer ip1
I0711 11:57:32.447432 32141 net.cpp:91] Creating Layer ip1
I0711 11:57:32.447441 32141 net.cpp:425] ip1 <- pool2
I0711 11:57:32.447459 32141 net.cpp:399] ip1 -> ip1
I0711 11:57:32.452896 32141 net.cpp:141] Setting up ip1
I0711 11:57:32.452918 32141 net.cpp:148] Top shape: 64 500 (32000)
I0711 11:57:32.452924 32141 net.cpp:156] Memory required for data: 5641472
I0711 11:57:32.452941 32141 layer_factory.hpp:77] Creating layer relu1
I0711 11:57:32.452952 32141 net.cpp:91] Creating Layer relu1
I0711 11:57:32.452960 32141 net.cpp:425] relu1 <- ip1
I0711 11:57:32.452971 32141 net.cpp:386] relu1 -> ip1 (in-place)
I0711 11:57:32.452986 32141 net.cpp:141] Setting up relu1
I0711 11:57:32.452994 32141 net.cpp:148] Top shape: 64 500 (32000)
I0711 11:57:32.453001 32141 net.cpp:156] Memory required for data: 5769472
I0711 11:57:32.453008 32141 layer_factory.hpp:77] Creating layer ip2
I0711 11:57:32.453027 32141 net.cpp:91] Creating Layer ip2
I0711 11:57:32.453033 32141 net.cpp:425] ip2 <- ip1
I0711 11:57:32.453048 32141 net.cpp:399] ip2 -> ip2
I0711 11:57:32.453860 32141 net.cpp:141] Setting up ip2
I0711 11:57:32.453876 32141 net.cpp:148] Top shape: 64 10 (640)
I0711 11:57:32.453882 32141 net.cpp:156] Memory required for data: 5772032
I0711 11:57:32.453891 32141 layer_factory.hpp:77] Creating layer feat
I0711 11:57:32.453904 32141 net.cpp:91] Creating Layer feat
I0711 11:57:32.453954 32141 net.cpp:425] feat <- ip2
I0711 11:57:32.453966 32141 net.cpp:399] feat -> feat
I0711 11:57:32.454097 32141 net.cpp:141] Setting up feat
I0711 11:57:32.454105 32141 net.cpp:148] Top shape: 64 2 (128)
I0711 11:57:32.454111 32141 net.cpp:156] Memory required for data: 5772544
I0711 11:57:32.454123 32141 layer_factory.hpp:77] Creating layer conv1_p
I0711 11:57:32.454138 32141 net.cpp:91] Creating Layer conv1_p
I0711 11:57:32.454144 32141 net.cpp:425] conv1_p <- data_p
I0711 11:57:32.454182 32141 net.cpp:399] conv1_p -> conv1_p
I0711 11:57:32.454488 32141 net.cpp:141] Setting up conv1_p
I0711 11:57:32.454496 32141 net.cpp:148] Top shape: 64 20 24 24 (737280)
I0711 11:57:32.454501 32141 net.cpp:156] Memory required for data: 8721664
I0711 11:57:32.454507 32141 net.cpp:484] Sharing parameters 'conv1_w' owned by layer 'conv1', param index 0
I0711 11:57:32.454515 32141 net.cpp:484] Sharing parameters 'conv1_b' owned by layer 'conv1', param index 1
I0711 11:57:32.454521 32141 layer_factory.hpp:77] Creating layer pool1_p
I0711 11:57:32.454535 32141 net.cpp:91] Creating Layer pool1_p
I0711 11:57:32.454541 32141 net.cpp:425] pool1_p <- conv1_p
I0711 11:57:32.454552 32141 net.cpp:399] pool1_p -> pool1_p
I0711 11:57:32.454601 32141 net.cpp:141] Setting up pool1_p
I0711 11:57:32.454608 32141 net.cpp:148] Top shape: 64 20 12 12 (184320)
I0711 11:57:32.454614 32141 net.cpp:156] Memory required for data: 9458944
I0711 11:57:32.454619 32141 layer_factory.hpp:77] Creating layer conv2_p
I0711 11:57:32.454632 32141 net.cpp:91] Creating Layer conv2_p
I0711 11:57:32.454638 32141 net.cpp:425] conv2_p <- pool1_p
I0711 11:57:32.454650 32141 net.cpp:399] conv2_p -> conv2_p
I0711 11:57:32.455181 32141 net.cpp:141] Setting up conv2_p
I0711 11:57:32.455189 32141 net.cpp:148] Top shape: 64 50 8 8 (204800)
I0711 11:57:32.455194 32141 net.cpp:156] Memory required for data: 10278144
I0711 11:57:32.455216 32141 net.cpp:484] Sharing parameters 'conv2_w' owned by layer 'conv2', param index 0
I0711 11:57:32.455224 32141 net.cpp:484] Sharing parameters 'conv2_b' owned by layer 'conv2', param index 1
I0711 11:57:32.455231 32141 layer_factory.hpp:77] Creating layer pool2_p
I0711 11:57:32.455242 32141 net.cpp:91] Creating Layer pool2_p
I0711 11:57:32.455266 32141 net.cpp:425] pool2_p <- conv2_p
I0711 11:57:32.455277 32141 net.cpp:399] pool2_p -> pool2_p
I0711 11:57:32.455324 32141 net.cpp:141] Setting up pool2_p
I0711 11:57:32.455332 32141 net.cpp:148] Top shape: 64 50 4 4 (51200)
I0711 11:57:32.455338 32141 net.cpp:156] Memory required for data: 10482944
I0711 11:57:32.455343 32141 layer_factory.hpp:77] Creating layer ip1_p
I0711 11:57:32.455355 32141 net.cpp:91] Creating Layer ip1_p
I0711 11:57:32.455363 32141 net.cpp:425] ip1_p <- pool2_p
I0711 11:57:32.455374 32141 net.cpp:399] ip1_p -> ip1_p
I0711 11:57:32.459439 32141 net.cpp:141] Setting up ip1_p
I0711 11:57:32.459455 32141 net.cpp:148] Top shape: 64 500 (32000)
I0711 11:57:32.459461 32141 net.cpp:156] Memory required for data: 10610944
I0711 11:57:32.459470 32141 net.cpp:484] Sharing parameters 'ip1_w' owned by layer 'ip1', param index 0
I0711 11:57:32.459476 32141 net.cpp:484] Sharing parameters 'ip1_b' owned by layer 'ip1', param index 1
I0711 11:57:32.459482 32141 layer_factory.hpp:77] Creating layer relu1_p
I0711 11:57:32.459494 32141 net.cpp:91] Creating Layer relu1_p
I0711 11:57:32.459501 32141 net.cpp:425] relu1_p <- ip1_p
I0711 11:57:32.459509 32141 net.cpp:386] relu1_p -> ip1_p (in-place)
I0711 11:57:32.459519 32141 net.cpp:141] Setting up relu1_p
I0711 11:57:32.459527 32141 net.cpp:148] Top shape: 64 500 (32000)
I0711 11:57:32.459532 32141 net.cpp:156] Memory required for data: 10738944
I0711 11:57:32.459538 32141 layer_factory.hpp:77] Creating layer ip2_p
I0711 11:57:32.459553 32141 net.cpp:91] Creating Layer ip2_p
I0711 11:57:32.459559 32141 net.cpp:425] ip2_p <- ip1_p
I0711 11:57:32.459568 32141 net.cpp:399] ip2_p -> ip2_p
I0711 11:57:32.459738 32141 net.cpp:141] Setting up ip2_p
I0711 11:57:32.459749 32141 net.cpp:148] Top shape: 64 10 (640)
I0711 11:57:32.459755 32141 net.cpp:156] Memory required for data: 10741504
I0711 11:57:32.459767 32141 net.cpp:484] Sharing parameters 'ip2_w' owned by layer 'ip2', param index 0
I0711 11:57:32.459775 32141 net.cpp:484] Sharing parameters 'ip2_b' owned by layer 'ip2', param index 1
I0711 11:57:32.459781 32141 layer_factory.hpp:77] Creating layer feat_p
I0711 11:57:32.459792 32141 net.cpp:91] Creating Layer feat_p
I0711 11:57:32.459799 32141 net.cpp:425] feat_p <- ip2_p
I0711 11:57:32.459806 32141 net.cpp:399] feat_p -> feat_p
I0711 11:57:32.459931 32141 net.cpp:141] Setting up feat_p
I0711 11:57:32.459941 32141 net.cpp:148] Top shape: 64 2 (128)
I0711 11:57:32.459947 32141 net.cpp:156] Memory required for data: 10742016
I0711 11:57:32.459954 32141 net.cpp:484] Sharing parameters 'feat_w' owned by layer 'feat', param index 0
I0711 11:57:32.459959 32141 net.cpp:484] Sharing parameters 'feat_b' owned by layer 'feat', param index 1
I0711 11:57:32.459965 32141 layer_factory.hpp:77] Creating layer loss
I0711 11:57:32.459976 32141 net.cpp:91] Creating Layer loss
…
I0711 11:57:32.461993 32141 solver.cpp:181] Creating test net (#0) specified by net file: examples/siamese/mnist_siamese_train_test.prototxt
I0711 11:57:32.462059 32141 net.cpp:313] The NetState phase (1) differed from the phase (0) specified by a rule in layer pair_data
I0711 11:57:32.462312 32141 net.cpp:49] Initializing net from parameters: 
name: "mnist_siamese_train_test"
state {
  phase: TEST
}
layer {
  name: "pair_data"
  type: "Data"
  top: "pair_data"
  top: "sim"
  include {
    phase: TEST
  }
  transform_param {
    scale: 0.00390625
  }
  data_param {
    source: "examples/siamese/mnist_siamese_test_leveldb_0to6_l"
    batch_size: 100
  }
}
layer {
  name: "slice_pair"
  type: "Slice"
  bottom: "pair_data"
  top: "data"
  top: "data_p"
  slice_param {
    slice_dim: 1
    slice_point: 1
  }
}
layer {
  name: "conv1"
  type: "Convolution"
  bottom: "data"
  top: "conv1"
  param {
    name: "conv1_w"
    lr_mult: 1
  }
  param {
    name: "conv1_b"
    lr_mult: 2
  }
  convolution_param {
    num_output: 20
    kernel_size: 5
    stride: 1
    weight_filler {
      type: "xavier"
    }
    bias_filler {
      type: "constant"
    }
  }
}
layer {
  name: "pool1"
  type: "Pooling"
  bottom: "conv1"
  top: "pool1"
  pooling_param {
    pool: MAX
    kernel_size: 2
    stride: 2
  }
}
layer {
  name: "conv2"
  type: "Convolution"
  bottom: "pool1"
  top: "conv2"
  param {
    name: "conv2_w"
    lr_mult: 1
  }
  param {
    name: "conv2_b"
    lr_mult: 2
  }
  convolution_param {
    num_output: 50
    kernel_size: 5
    stride: 1
    weight_filler {
      type: "xavier"
    }
    bias_filler {
      type: "constant"
    }
  }
}
layer {
  name: "pool2"
  type: "Pooling"
  bottom: "conv2"
  top: "pool2"
  pooling_param {
    pool: MAX
    kernel_size: 2
    stride: 2
  }
}
layer {
  name: "ip1"
  type: "InnerProduct"
  bottom: "pool2"
  top: "ip1"
  param {
    name: "ip1_w"
    lr_mult: 1
  }
  param {
    name: "ip1_b"
    lr_mult: 2
  }
  inner_product_param {
    num_output: 500
    weight_filler {
      type: "xavier"
    }
    bias_filler {
      type: "constant"
    }
  }
}
layer {
  name: "relu1"
  type: "ReLU"
  bottom: "ip1"
  top: "ip1"
}
layer {
  name: "ip2"
  type: "InnerProduct"
  bottom: "ip1"
  top: "ip2"
  param {
    name: "ip2_w"
    lr_mult: 1
  }
  param {
    name: "ip2_b"
    lr_mult: 2
  }
  inner_product_param {
    num_output: 10
    weight_filler {
      type: "xavier"
    }
    bias_filler {
      type: "constant"
    }
  }
}
layer {
  name: "feat"
  type: "InnerProduct"
  bottom: "ip2"
  top: "feat"
  param {
    name: "feat_w"
    lr_mult: 1
  }
  param {
    name: "feat_b"
    lr_mult: 2
  }
  inner_product_param {
    num_output: 2
    weight_filler {
      type: "xavier"
    }
    bias_filler {
      type: "constant"
    }
  }
}
layer {
  name: "conv1_p"
  type: "Convolution"
  bottom: "data_p"
  top: "conv1_p"
  param {
    name: "conv1_w"
    lr_mult: 1
  }
  param {
    name: "conv1_b"
    lr_mult: 2
  }
  convolution_param {
    num_output: 20
    kernel_size: 5
    stride: 1
    weight_filler {
      type: "xavier"
    }
    bias_filler {
      type: "constant"
    }
  }
}
layer {
  name: "pool1_p"
  type: "Pooling"
  bottom: "conv1_p"
  top: "pool1_p"
  pooling_param {
    pool: MAX
    kernel_size: 2
    stride: 2
  }
}
layer {
  name: "conv2_p"
  type: "Convolution"
  bottom: "pool1_p"
  top: "conv2_p"
  param {
    name: "conv2_w"
    lr_mult: 1
  }
  param {
    name: "conv2_b"
    lr_mult: 2
  }
  convolution_param {
    num_output: 50
    kernel_size: 5
    stride: 1
    weight_filler {
      type: "xavier"
    }
    bias_filler {
      type: "constant"
    }
  }
}
layer {
  name: "pool2_p"
  type: "Pooling"
  bottom: "conv2_p"
  top: "pool2_p"
  pooling_param {
    pool: MAX
    kernel_size: 2
    stride: 2
  }
}
layer {
  name: "ip1_p"
  type: "InnerProduct"
  bottom: "pool2_p"
  top: "ip1_p"
  param {
    name: "ip1_w"
    lr_mult: 1
  }
  param {
    name: "ip1_b"
    lr_mult: 2
  }
  inner_product_param {
    num_output: 500
    weight_filler {
      type: "xavier"
    }
    bias_filler {
      type: "constant"
    }
  }
}
layer {
  name: "relu1_p"
  type: "ReLU"
  bottom: "ip1_p"
  top: "ip1_p"
}
layer {
  name: "ip2_p"
  type: "InnerProduct"
  bottom: "ip1_p"
  top: "ip2_p"
  param {
    name: "ip2_w"
    lr_mult: 1
  }
  param {
    name: "ip2_b"
    lr_mult: 2
  }
  inner_product_param {
    num_output: 10
    weight_filler {
      type: "xavier"
    }
    bias_filler {
      type: "constant"
    }
  }
}
layer {
  name: "feat_p"
  type: "InnerProduct"
  bottom: "ip2_p"
  top: "feat_p"
  param {
    name: "feat_w"
    lr_mult: 1
  }
  param {
    name: "feat_b"
    lr_mult: 2
  }
  inner_product_param {
    num_output: 2
    weight_filler {
      type: "xavier"
    }
    bias_filler {
      type: "constant"
    }
  }
}
layer {
  name: "loss"
  type: "ContrastiveLoss"
  bottom: "feat"
  bottom: "feat_p"
  bottom: "sim"
  top: "loss"
  contrastive_loss_param {
    margin: 1
  }
}
I0711 11:57:32.462433 32141 layer_factory.hpp:77] Creating layer pair_data
I0711 11:57:32.462585 32141 net.cpp:91] Creating Layer pair_data
I0711 11:57:32.462597 32141 net.cpp:399] pair_data -> pair_data
I0711 11:57:32.462611 32141 net.cpp:399] pair_data -> sim
I0711 11:57:32.659503 32151 db_leveldb.cpp:18] Opened leveldb examples/siamese/mnist_siamese_test_leveldb_0to6_l
I0711 11:57:32.660104 32141 data_layer.cpp:41] output data size: 100,2,28,28
I0711 11:57:32.664784 32141 net.cpp:141] Setting up pair_data
I0711 11:57:32.664834 32141 net.cpp:148] Top shape: 100 2 28 28 (156800)
I0711 11:57:32.664860 32141 net.cpp:148] Top shape: 100 (100)
I0711 11:57:32.664877 32141 net.cpp:156] Memory required for data: 627600
I0711 11:57:32.664898 32141 layer_factory.hpp:77] Creating layer slice_pair
I0711 11:57:32.664933 32141 net.cpp:91] Creating Layer slice_pair
I0711 11:57:32.664950 32141 net.cpp:425] slice_pair <- pair_data
I0711 11:57:32.664978 32141 net.cpp:399] slice_pair -> data
I0711 11:57:32.665014 32141 net.cpp:399] slice_pair -> data_p
I0711 11:57:32.665171 32141 net.cpp:141] Setting up slice_pair
I0711 11:57:32.665202 32141 net.cpp:148] Top shape: 100 1 28 28 (78400)
I0711 11:57:32.665225 32141 net.cpp:148] Top shape: 100 1 28 28 (78400)
I0711 11:57:32.665241 32141 net.cpp:156] Memory required for data: 1254800
I0711 11:57:32.665257 32141 layer_factory.hpp:77] Creating layer conv1
I0711 11:57:32.665302 32141 net.cpp:91] Creating Layer conv1
I0711 11:57:32.665318 32141 net.cpp:425] conv1 <- data
I0711 11:57:32.665345 32141 net.cpp:399] conv1 -> conv1
I0711 11:57:32.666173 32141 net.cpp:141] Setting up conv1
I0711 11:57:32.666206 32141 net.cpp:148] Top shape: 100 20 24 24 (1152000)
I0711 11:57:32.666223 32141 net.cpp:156] Memory required for data: 5862800
I0711 11:57:32.666256 32141 layer_factory.hpp:77] Creating layer pool1
I0711 11:57:32.666288 32141 net.cpp:91] Creating Layer pool1
I0711 11:57:32.666306 32141 net.cpp:425] pool1 <- conv1
I0711 11:57:32.666334 32141 net.cpp:399] pool1 -> pool1
I0711 11:57:32.666453 32141 net.cpp:141] Setting up pool1
I0711 11:57:32.666483 32141 net.cpp:148] Top shape: 100 20 12 12 (288000)
I0711 11:57:32.666499 32141 net.cpp:156] Memory required for data: 7014800
I0711 11:57:32.666517 32141 layer_factory.hpp:77] Creating layer conv2
I0711 11:57:32.666594 32141 net.cpp:91] Creating Layer conv2
I0711 11:57:32.666620 32141 net.cpp:425] conv2 <- pool1
I0711 11:57:32.666656 32141 net.cpp:399] conv2 -> conv2
I0711 11:57:32.667556 32141 net.cpp:141] Setting up conv2
I0711 11:57:32.667572 32141 net.cpp:148] Top shape: 100 50 8 8 (320000)
I0711 11:57:32.667579 32141 net.cpp:156] Memory required for data: 8294800
I0711 11:57:32.667593 32141 layer_factory.hpp:77] Creating layer pool2
I0711 11:57:32.667604 32141 net.cpp:91] Creating Layer pool2
I0711 11:57:32.667613 32141 net.cpp:425] pool2 <- conv2
I0711 11:57:32.667628 32141 net.cpp:399] pool2 -> pool2
I0711 11:57:32.667682 32141 net.cpp:141] Setting up pool2
I0711 11:57:32.667697 32141 net.cpp:148] Top shape: 100 50 4 4 (80000)
I0711 11:57:32.667704 32141 net.cpp:156] Memory required for data: 8614800
I0711 11:57:32.667712 32141 layer_factory.hpp:77] Creating layer ip1
I0711 11:57:32.667728 32141 net.cpp:91] Creating Layer ip1
I0711 11:57:32.667737 32141 net.cpp:425] ip1 <- pool2
I0711 11:57:32.667750 32141 net.cpp:399] ip1 -> ip1
I0711 11:57:32.671866 32141 net.cpp:141] Setting up ip1
I0711 11:57:32.671890 32141 net.cpp:148] Top shape: 100 500 (50000)
I0711 11:57:32.671898 32141 net.cpp:156] Memory required for data: 8814800
I0711 11:57:32.671916 32141 layer_factory.hpp:77] Creating layer relu1
I0711 11:57:32.671931 32141 net.cpp:91] Creating Layer relu1
I0711 11:57:32.671939 32141 net.cpp:425] relu1 <- ip1
I0711 11:57:32.671950 32141 net.cpp:386] relu1 -> ip1 (in-place)
I0711 11:57:32.671963 32141 net.cpp:141] Setting up relu1
I0711 11:57:32.671973 32141 net.cpp:148] Top shape: 100 500 (50000)
I0711 11:57:32.671982 32141 net.cpp:156] Memory required for data: 9014800
I0711 11:57:32.671988 32141 layer_factory.hpp:77] Creating layer ip2
I0711 11:57:32.672073 32141 net.cpp:91] Creating Layer ip2
I0711 11:57:32.672111 32141 net.cpp:425] ip2 <- ip1
I0711 11:57:32.672143 32141 net.cpp:399] ip2 -> ip2
I0711 11:57:32.672394 32141 net.cpp:141] Setting up ip2
I0711 11:57:32.672435 32141 net.cpp:148] Top shape: 100 10 (1000)
I0711 11:57:32.672463 32141 net.cpp:156] Memory required for data: 9018800
I0711 11:57:32.672494 32141 layer_factory.hpp:77] Creating layer feat
I0711 11:57:32.672533 32141 net.cpp:91] Creating Layer feat
I0711 11:57:32.672677 32141 net.cpp:425] feat <- ip2
I0711 11:57:32.672718 32141 net.cpp:399] feat -> feat
I0711 11:57:32.672915 32141 net.cpp:141] Setting up feat
I0711 11:57:32.672953 32141 net.cpp:148] Top shape: 100 2 (200)
I0711 11:57:32.672981 32141 net.cpp:156] Memory required for data: 9019600
I0711 11:57:32.673015 32141 layer_factory.hpp:77] Creating layer conv1_p
I0711 11:57:32.673059 32141 net.cpp:91] Creating Layer conv1_p
I0711 11:57:32.673070 32141 net.cpp:425] conv1_p <- data_p
I0711 11:57:32.673086 32141 net.cpp:399] conv1_p -> conv1_p
I0711 11:57:32.673444 32141 net.cpp:141] Setting up conv1_p
I0711 11:57:32.673455 32141 net.cpp:148] Top shape: 100 20 24 24 (1152000)
I0711 11:57:32.673461 32141 net.cpp:156] Memory required for data: 13627600
I0711 11:57:32.673468 32141 net.cpp:484] Sharing parameters 'conv1_w' owned by layer 'conv1', param index 0
I0711 11:57:32.673476 32141 net.cpp:484] Sharing parameters 'conv1_b' owned by layer 'conv1', param index 1
I0711 11:57:32.673482 32141 layer_factory.hpp:77] Creating layer pool1_p
I0711 11:57:32.673491 32141 net.cpp:91] Creating Layer pool1_p
I0711 11:57:32.673497 32141 net.cpp:425] pool1_p <- conv1_p
I0711 11:57:32.673507 32141 net.cpp:399] pool1_p -> pool1_p
I0711 11:57:32.673554 32141 net.cpp:141] Setting up pool1_p
I0711 11:57:32.673564 32141 net.cpp:148] Top shape: 100 20 12 12 (288000)
I0711 11:57:32.673569 32141 net.cpp:156] Memory required for data: 14779600
I0711 11:57:32.673575 32141 layer_factory.hpp:77] Creating layer conv2_p
I0711 11:57:32.673588 32141 net.cpp:91] Creating Layer conv2_p
I0711 11:57:32.673594 32141 net.cpp:425] conv2_p <- pool1_p
I0711 11:57:32.673605 32141 net.cpp:399] conv2_p -> conv2_p
I0711 11:57:32.674109 32141 net.cpp:141] Setting up conv2_p
I0711 11:57:32.674124 32141 net.cpp:148] Top shape: 100 50 8 8 (320000)
I0711 11:57:32.674150 32141 net.cpp:156] Memory required for data: 16059600
I0711 11:57:32.674160 32141 net.cpp:484] Sharing parameters 'conv2_w' owned by layer 'conv2', param index 0
I0711 11:57:32.674167 32141 net.cpp:484] Sharing parameters 'conv2_b' owned by layer 'conv2', param index 1
I0711 11:57:32.674176 32141 layer_factory.hpp:77] Creating layer pool2_p
I0711 11:57:32.674187 32141 net.cpp:91] Creating Layer pool2_p
I0711 11:57:32.674196 32141 net.cpp:425] pool2_p <- conv2_p
I0711 11:57:32.674211 32141 net.cpp:399] pool2_p -> pool2_p
I0711 11:57:32.674266 32141 net.cpp:141] Setting up pool2_p
I0711 11:57:32.674280 32141 net.cpp:148] Top shape: 100 50 4 4 (80000)
I0711 11:57:32.674288 32141 net.cpp:156] Memory required for data: 16379600
I0711 11:57:32.674294 32141 layer_factory.hpp:77] Creating layer ip1_p
I0711 11:57:32.674312 32141 net.cpp:91] Creating Layer ip1_p
I0711 11:57:32.674321 32141 net.cpp:425] ip1_p <- pool2_p
I0711 11:57:32.674335 32141 net.cpp:399] ip1_p -> ip1_p
I0711 11:57:32.679069 32141 net.cpp:141] Setting up ip1_p
I0711 11:57:32.679103 32141 net.cpp:148] Top shape: 100 500 (50000)
I0711 11:57:32.679111 32141 net.cpp:156] Memory required for data: 16579600
I0711 11:57:32.679119 32141 net.cpp:484] Sharing parameters 'ip1_w' owned by layer 'ip1', param index 0
I0711 11:57:32.679127 32141 net.cpp:484] Sharing parameters 'ip1_b' owned by layer 'ip1', param index 1
I0711 11:57:32.679136 32141 layer_factory.hpp:77] Creating layer relu1_p
I0711 11:57:32.679149 32141 net.cpp:91] Creating Layer relu1_p
I0711 11:57:32.679157 32141 net.cpp:425] relu1_p <- ip1_p
I0711 11:57:32.679167 32141 net.cpp:386] relu1_p -> ip1_p (in-place)
I0711 11:57:32.679179 32141 net.cpp:141] Setting up relu1_p
I0711 11:57:32.679188 32141 net.cpp:148] Top shape: 100 500 (50000)
I0711 11:57:32.679193 32141 net.cpp:156] Memory required for data: 16779600
I0711 11:57:32.679219 32141 layer_factory.hpp:77] Creating layer ip2_p
I0711 11:57:32.679236 32141 net.cpp:91] Creating Layer ip2_p
I0711 11:57:32.679244 32141 net.cpp:425] ip2_p <- ip1_p
I0711 11:57:32.679262 32141 net.cpp:399] ip2_p -> ip2_p
I0711 11:57:32.679461 32141 net.cpp:141] Setting up ip2_p
I0711 11:57:32.679472 32141 net.cpp:148] Top shape: 100 10 (1000)
I0711 11:57:32.679479 32141 net.cpp:156] Memory required for data: 16783600
I0711 11:57:32.679491 32141 net.cpp:484] Sharing parameters 'ip2_w' owned by layer 'ip2', param index 0
I0711 11:57:32.679499 32141 net.cpp:484] Sharing parameters 'ip2_b' owned by layer 'ip2', param index 1
I0711 11:57:32.679505 32141 layer_factory.hpp:77] Creating layer feat_p
I0711 11:57:32.679518 32141 net.cpp:91] Creating Layer feat_p
I0711 11:57:32.679525 32141 net.cpp:425] feat_p <- ip2_p
I0711 11:57:32.679535 32141 net.cpp:399] feat_p -> feat_p
I0711 11:57:32.679677 32141 net.cpp:141] Setting up feat_p
I0711 11:57:32.679688 32141 net.cpp:148] Top shape: 100 2 (200)
I0711 11:57:32.679694 32141 net.cpp:156] Memory required for data: 16784400
I0711 11:57:32.679702 32141 net.cpp:484] Sharing parameters 'feat_w' owned by layer 'feat', param index 0
I0711 11:57:32.679709 32141 net.cpp:484] Sharing parameters 'feat_b' owned by layer 'feat', param index 1
I0711 11:57:32.679716 32141 layer_factory.hpp:77] Creating layer loss
I0711 11:57:32.679729 32141 net.cpp:91] Creating Layer loss
…
