…
I0712 18:54:11.222255 14366 solver.cpp:91] Creating training net from net file: examples/siamese/mnist_siamese_train_test.prototxt
I0712 18:54:11.222779 14366 net.cpp:313] The NetState phase (0) differed from the phase (1) specified by a rule in layer pair_data
I0712 18:54:11.222975 14366 net.cpp:49] Initializing net from parameters: 
name: "mnist_siamese_train_test"
state {
  phase: TRAIN
}
layer {
  name: "pair_data"
  type: "Data"
  top: "pair_data"
  top: "sim"
  include {
    phase: TRAIN
  }
  transform_param {
    scale: 0.00390625
  }
  data_param {
    source: "examples/siamese/mnist_siamese_train_leveldb_0to6"
    batch_size: 64
  }
}
layer {
  name: "slice_pair"
  type: "Slice"
  bottom: "pair_data"
  top: "data"
  top: "data_p"
  slice_param {
    slice_dim: 1
    slice_point: 1
  }
}
layer {
  name: "conv1"
  type: "Convolution"
  bottom: "data"
  top: "conv1"
  param {
    name: "conv1_w"
    lr_mult: 1
  }
  param {
    name: "conv1_b"
    lr_mult: 2
  }
  convolution_param {
    num_output: 20
    kernel_size: 5
    stride: 1
    weight_filler {
      type: "xavier"
    }
    bias_filler {
      type: "constant"
    }
  }
}
layer {
  name: "pool1"
  type: "Pooling"
  bottom: "conv1"
  top: "pool1"
  pooling_param {
    pool: MAX
    kernel_size: 2
    stride: 2
  }
}
layer {
  name: "conv2"
  type: "Convolution"
  bottom: "pool1"
  top: "conv2"
  param {
    name: "conv2_w"
    lr_mult: 1
  }
  param {
    name: "conv2_b"
    lr_mult: 2
  }
  convolution_param {
    num_output: 50
    kernel_size: 5
    stride: 1
    weight_filler {
      type: "xavier"
    }
    bias_filler {
      type: "constant"
    }
  }
}
layer {
  name: "pool2"
  type: "Pooling"
  bottom: "conv2"
  top: "pool2"
  pooling_param {
    pool: MAX
    kernel_size: 2
    stride: 2
  }
}
layer {
  name: "ip1"
  type: "InnerProduct"
  bottom: "pool2"
  top: "ip1"
  param {
    name: "ip1_w"
    lr_mult: 1
  }
  param {
    name: "ip1_b"
    lr_mult: 2
  }
  inner_product_param {
    num_output: 500
    weight_filler {
      type: "xavier"
    }
    bias_filler {
      type: "constant"
    }
  }
}
layer {
  name: "relu1"
  type: "ReLU"
  bottom: "ip1"
  top: "ip1"
}
layer {
  name: "ip2"
  type: "InnerProduct"
  bottom: "ip1"
  top: "ip2"
  param {
    name: "ip2_w"
    lr_mult: 1
  }
  param {
    name: "ip2_b"
    lr_mult: 2
  }
  inner_product_param {
    num_output: 10
    weight_filler {
      type: "xavier"
    }
    bias_filler {
      type: "constant"
    }
  }
}
layer {
  name: "feat"
  type: "InnerProduct"
  bottom: "ip2"
  top: "feat"
  param {
    name: "feat_w"
    lr_mult: 1
  }
  param {
    name: "feat_b"
    lr_mult: 2
  }
  inner_product_param {
    num_output: 2
    weight_filler {
      type: "xavier"
    }
    bias_filler {
      type: "constant"
    }
  }
}
layer {
  name: "conv1_p"
  type: "Convolution"
  bottom: "data_p"
  top: "conv1_p"
  param {
    name: "conv1_w"
    lr_mult: 1
  }
  param {
    name: "conv1_b"
    lr_mult: 2
  }
  convolution_param {
    num_output: 20
    kernel_size: 5
    stride: 1
    weight_filler {
      type: "xavier"
    }
    bias_filler {
      type: "constant"
    }
  }
}
layer {
  name: "pool1_p"
  type: "Pooling"
  bottom: "conv1_p"
  top: "pool1_p"
  pooling_param {
    pool: MAX
    kernel_size: 2
    stride: 2
  }
}
layer {
  name: "conv2_p"
  type: "Convolution"
  bottom: "pool1_p"
  top: "conv2_p"
  param {
    name: "conv2_w"
    lr_mult: 1
  }
  param {
    name: "conv2_b"
    lr_mult: 2
  }
  convolution_param {
    num_output: 50
    kernel_size: 5
    stride: 1
    weight_filler {
      type: "xavier"
    }
    bias_filler {
      type: "constant"
    }
  }
}
layer {
  name: "pool2_p"
  type: "Pooling"
  bottom: "conv2_p"
  top: "pool2_p"
  pooling_param {
    pool: MAX
    kernel_size: 2
    stride: 2
  }
}
layer {
  name: "ip1_p"
  type: "InnerProduct"
  bottom: "pool2_p"
  top: "ip1_p"
  param {
    name: "ip1_w"
    lr_mult: 1
  }
  param {
    name: "ip1_b"
    lr_mult: 2
  }
  inner_product_param {
    num_output: 500
    weight_filler {
      type: "xavier"
    }
    bias_filler {
      type: "constant"
    }
  }
}
layer {
  name: "relu1_p"
  type: "ReLU"
  bottom: "ip1_p"
  top: "ip1_p"
}
layer {
  name: "ip2_p"
  type: "InnerProduct"
  bottom: "ip1_p"
  top: "ip2_p"
  param {
    name: "ip2_w"
    lr_mult: 1
  }
  param {
    name: "ip2_b"
    lr_mult: 2
  }
  inner_product_param {
    num_output: 10
    weight_filler {
      type: "xavier"
    }
    bias_filler {
      type: "constant"
    }
  }
}
layer {
  name: "feat_p"
  type: "InnerProduct"
  bottom: "ip2_p"
  top: "feat_p"
  param {
    name: "feat_w"
    lr_mult: 1
  }
  param {
    name: "feat_b"
    lr_mult: 2
  }
  inner_product_param {
    num_output: 2
    weight_filler {
      type: "xavier"
    }
    bias_filler {
      type: "constant"
    }
  }
}
layer {
  name: "loss"
  type: "ContrastiveLoss"
  bottom: "feat"
  bottom: "feat_p"
  bottom: "sim"
  top: "loss"
  contrastive_loss_param {
    margin: 1
  }
}
I0712 18:54:11.225029 14366 layer_factory.hpp:77] Creating layer pair_data
I0712 18:54:11.225782 14366 net.cpp:91] Creating Layer pair_data
I0712 18:54:11.225848 14366 net.cpp:399] pair_data -> pair_data
I0712 18:54:11.225905 14366 net.cpp:399] pair_data -> sim
I0712 18:54:11.241786 14370 db_leveldb.cpp:18] Opened leveldb examples/siamese/mnist_siamese_train_leveldb_0to6
I0712 18:54:11.252038 14366 data_layer.cpp:41] output data size: 64,2,28,28
I0712 18:54:11.256814 14366 net.cpp:141] Setting up pair_data
I0712 18:54:11.256849 14366 net.cpp:148] Top shape: 64 2 28 28 (100352)
I0712 18:54:11.256855 14366 net.cpp:148] Top shape: 64 (64)
I0712 18:54:11.256858 14366 net.cpp:156] Memory required for data: 401664
I0712 18:54:11.256868 14366 layer_factory.hpp:77] Creating layer slice_pair
I0712 18:54:11.256886 14366 net.cpp:91] Creating Layer slice_pair
I0712 18:54:11.256891 14366 net.cpp:425] slice_pair <- pair_data
I0712 18:54:11.256902 14366 net.cpp:399] slice_pair -> data
I0712 18:54:11.256913 14366 net.cpp:399] slice_pair -> data_p
I0712 18:54:11.256956 14366 net.cpp:141] Setting up slice_pair
I0712 18:54:11.256964 14366 net.cpp:148] Top shape: 64 1 28 28 (50176)
I0712 18:54:11.256968 14366 net.cpp:148] Top shape: 64 1 28 28 (50176)
I0712 18:54:11.256970 14366 net.cpp:156] Memory required for data: 803072
I0712 18:54:11.256973 14366 layer_factory.hpp:77] Creating layer conv1
I0712 18:54:11.256989 14366 net.cpp:91] Creating Layer conv1
I0712 18:54:11.256992 14366 net.cpp:425] conv1 <- data
I0712 18:54:11.257006 14366 net.cpp:399] conv1 -> conv1
I0712 18:54:11.257057 14366 net.cpp:141] Setting up conv1
I0712 18:54:11.257063 14366 net.cpp:148] Top shape: 64 20 24 24 (737280)
I0712 18:54:11.257066 14366 net.cpp:156] Memory required for data: 3752192
I0712 18:54:11.257076 14366 layer_factory.hpp:77] Creating layer pool1
I0712 18:54:11.257081 14366 net.cpp:91] Creating Layer pool1
I0712 18:54:11.257084 14366 net.cpp:425] pool1 <- conv1
I0712 18:54:11.257088 14366 net.cpp:399] pool1 -> pool1
I0712 18:54:11.257109 14366 net.cpp:141] Setting up pool1
I0712 18:54:11.257113 14366 net.cpp:148] Top shape: 64 20 12 12 (184320)
I0712 18:54:11.257117 14366 net.cpp:156] Memory required for data: 4489472
I0712 18:54:11.257119 14366 layer_factory.hpp:77] Creating layer conv2
I0712 18:54:11.257129 14366 net.cpp:91] Creating Layer conv2
I0712 18:54:11.257133 14366 net.cpp:425] conv2 <- pool1
I0712 18:54:11.257138 14366 net.cpp:399] conv2 -> conv2
I0712 18:54:11.257388 14366 net.cpp:141] Setting up conv2
I0712 18:54:11.257396 14366 net.cpp:148] Top shape: 64 50 8 8 (204800)
I0712 18:54:11.257400 14366 net.cpp:156] Memory required for data: 5308672
I0712 18:54:11.257406 14366 layer_factory.hpp:77] Creating layer pool2
I0712 18:54:11.257412 14366 net.cpp:91] Creating Layer pool2
I0712 18:54:11.257517 14366 net.cpp:425] pool2 <- conv2
I0712 18:54:11.257540 14366 net.cpp:399] pool2 -> pool2
I0712 18:54:11.257558 14366 net.cpp:141] Setting up pool2
I0712 18:54:11.257567 14366 net.cpp:148] Top shape: 64 50 4 4 (51200)
I0712 18:54:11.257572 14366 net.cpp:156] Memory required for data: 5513472
I0712 18:54:11.257634 14366 layer_factory.hpp:77] Creating layer ip1
I0712 18:54:11.257663 14366 net.cpp:91] Creating Layer ip1
I0712 18:54:11.257668 14366 net.cpp:425] ip1 <- pool2
I0712 18:54:11.257678 14366 net.cpp:399] ip1 -> ip1
I0712 18:54:11.258103 14371 blocking_queue.cpp:50] Waiting for data
I0712 18:54:11.260800 14366 net.cpp:141] Setting up ip1
I0712 18:54:11.261179 14366 net.cpp:148] Top shape: 64 500 (32000)
I0712 18:54:11.261200 14366 net.cpp:156] Memory required for data: 5641472
I0712 18:54:11.261231 14366 layer_factory.hpp:77] Creating layer relu1
I0712 18:54:11.261260 14366 net.cpp:91] Creating Layer relu1
I0712 18:54:11.261277 14366 net.cpp:425] relu1 <- ip1
I0712 18:54:11.261294 14366 net.cpp:386] relu1 -> ip1 (in-place)
I0712 18:54:11.261319 14366 net.cpp:141] Setting up relu1
I0712 18:54:11.261334 14366 net.cpp:148] Top shape: 64 500 (32000)
I0712 18:54:11.261348 14366 net.cpp:156] Memory required for data: 5769472
I0712 18:54:11.261359 14366 layer_factory.hpp:77] Creating layer ip2
I0712 18:54:11.261380 14366 net.cpp:91] Creating Layer ip2
I0712 18:54:11.261395 14366 net.cpp:425] ip2 <- ip1
I0712 18:54:11.261410 14366 net.cpp:399] ip2 -> ip2
I0712 18:54:11.261477 14366 net.cpp:141] Setting up ip2
I0712 18:54:11.261495 14366 net.cpp:148] Top shape: 64 10 (640)
I0712 18:54:11.261508 14366 net.cpp:156] Memory required for data: 5772032
I0712 18:54:11.261523 14366 layer_factory.hpp:77] Creating layer feat
I0712 18:54:11.261538 14366 net.cpp:91] Creating Layer feat
I0712 18:54:11.261551 14366 net.cpp:425] feat <- ip2
I0712 18:54:11.261565 14366 net.cpp:399] feat -> feat
I0712 18:54:11.261590 14366 net.cpp:141] Setting up feat
I0712 18:54:11.261605 14366 net.cpp:148] Top shape: 64 2 (128)
I0712 18:54:11.261617 14366 net.cpp:156] Memory required for data: 5772544
I0712 18:54:11.261634 14366 layer_factory.hpp:77] Creating layer conv1_p
I0712 18:54:11.261652 14366 net.cpp:91] Creating Layer conv1_p
I0712 18:54:11.261665 14366 net.cpp:425] conv1_p <- data_p
I0712 18:54:11.261682 14366 net.cpp:399] conv1_p -> conv1_p
I0712 18:54:11.261723 14366 net.cpp:141] Setting up conv1_p
I0712 18:54:11.261741 14366 net.cpp:148] Top shape: 64 20 24 24 (737280)
I0712 18:54:11.261754 14366 net.cpp:156] Memory required for data: 8721664
I0712 18:54:11.261768 14366 net.cpp:484] Sharing parameters 'conv1_w' owned by layer 'conv1', param index 0
I0712 18:54:11.261782 14366 net.cpp:484] Sharing parameters 'conv1_b' owned by layer 'conv1', param index 1
I0712 18:54:11.261797 14366 layer_factory.hpp:77] Creating layer pool1_p
I0712 18:54:11.261824 14366 net.cpp:91] Creating Layer pool1_p
I0712 18:54:11.261840 14366 net.cpp:425] pool1_p <- conv1_p
I0712 18:54:11.261859 14366 net.cpp:399] pool1_p -> pool1_p
I0712 18:54:11.261880 14366 net.cpp:141] Setting up pool1_p
I0712 18:54:11.261895 14366 net.cpp:148] Top shape: 64 20 12 12 (184320)
I0712 18:54:11.261906 14366 net.cpp:156] Memory required for data: 9458944
I0712 18:54:11.261919 14366 layer_factory.hpp:77] Creating layer conv2_p
I0712 18:54:11.261939 14366 net.cpp:91] Creating Layer conv2_p
I0712 18:54:11.261953 14366 net.cpp:425] conv2_p <- pool1_p
I0712 18:54:11.261970 14366 net.cpp:399] conv2_p -> conv2_p
I0712 18:54:11.262182 14366 net.cpp:141] Setting up conv2_p
I0712 18:54:11.263160 14366 net.cpp:148] Top shape: 64 50 8 8 (204800)
I0712 18:54:11.263229 14366 net.cpp:156] Memory required for data: 10278144
I0712 18:54:11.263250 14366 net.cpp:484] Sharing parameters 'conv2_w' owned by layer 'conv2', param index 0
I0712 18:54:11.263267 14366 net.cpp:484] Sharing parameters 'conv2_b' owned by layer 'conv2', param index 1
I0712 18:54:11.263280 14366 layer_factory.hpp:77] Creating layer pool2_p
I0712 18:54:11.263299 14366 net.cpp:91] Creating Layer pool2_p
I0712 18:54:11.263321 14366 net.cpp:425] pool2_p <- conv2_p
I0712 18:54:11.263351 14366 net.cpp:399] pool2_p -> pool2_p
I0712 18:54:11.263377 14366 net.cpp:141] Setting up pool2_p
I0712 18:54:11.263394 14366 net.cpp:148] Top shape: 64 50 4 4 (51200)
I0712 18:54:11.263406 14366 net.cpp:156] Memory required for data: 10482944
I0712 18:54:11.263419 14366 layer_factory.hpp:77] Creating layer ip1_p
I0712 18:54:11.263439 14366 net.cpp:91] Creating Layer ip1_p
I0712 18:54:11.263545 14366 net.cpp:425] ip1_p <- pool2_p
I0712 18:54:11.263594 14366 net.cpp:399] ip1_p -> ip1_p
I0712 18:54:11.267400 14366 net.cpp:141] Setting up ip1_p
I0712 18:54:11.267705 14366 net.cpp:148] Top shape: 64 500 (32000)
I0712 18:54:11.268028 14366 net.cpp:156] Memory required for data: 10610944
I0712 18:54:11.268316 14366 net.cpp:484] Sharing parameters 'ip1_w' owned by layer 'ip1', param index 0
I0712 18:54:11.268501 14366 net.cpp:484] Sharing parameters 'ip1_b' owned by layer 'ip1', param index 1
I0712 18:54:11.268602 14366 layer_factory.hpp:77] Creating layer relu1_p
I0712 18:54:11.268777 14366 net.cpp:91] Creating Layer relu1_p
I0712 18:54:11.268853 14366 net.cpp:425] relu1_p <- ip1_p
I0712 18:54:11.268939 14366 net.cpp:386] relu1_p -> ip1_p (in-place)
I0712 18:54:11.269004 14366 net.cpp:141] Setting up relu1_p
I0712 18:54:11.269062 14366 net.cpp:148] Top shape: 64 500 (32000)
I0712 18:54:11.269109 14366 net.cpp:156] Memory required for data: 10738944
I0712 18:54:11.269151 14366 layer_factory.hpp:77] Creating layer ip2_p
I0712 18:54:11.269206 14366 net.cpp:91] Creating Layer ip2_p
I0712 18:54:11.269248 14366 net.cpp:425] ip2_p <- ip1_p
I0712 18:54:11.269301 14366 net.cpp:399] ip2_p -> ip2_p
I0712 18:54:11.269456 14366 net.cpp:141] Setting up ip2_p
I0712 18:54:11.269508 14366 net.cpp:148] Top shape: 64 10 (640)
I0712 18:54:11.269546 14366 net.cpp:156] Memory required for data: 10741504
I0712 18:54:11.269588 14366 net.cpp:484] Sharing parameters 'ip2_w' owned by layer 'ip2', param index 0
I0712 18:54:11.269626 14366 net.cpp:484] Sharing parameters 'ip2_b' owned by layer 'ip2', param index 1
I0712 18:54:11.269659 14366 layer_factory.hpp:77] Creating layer feat_p
I0712 18:54:11.269697 14366 net.cpp:91] Creating Layer feat_p
I0712 18:54:11.269733 14366 net.cpp:425] feat_p <- ip2_p
I0712 18:54:11.269793 14366 net.cpp:399] feat_p -> feat_p
I0712 18:54:11.269876 14366 net.cpp:141] Setting up feat_p
I0712 18:54:11.269925 14366 net.cpp:148] Top shape: 64 2 (128)
I0712 18:54:11.269963 14366 net.cpp:156] Memory required for data: 10742016
I0712 18:54:11.270005 14366 net.cpp:484] Sharing parameters 'feat_w' owned by layer 'feat', param index 0
I0712 18:54:11.270035 14366 net.cpp:484] Sharing parameters 'feat_b' owned by layer 'feat', param index 1
I0712 18:54:11.270057 14366 layer_factory.hpp:77] Creating layer loss
I0712 18:54:11.270092 14366 net.cpp:91] Creating Layer loss
…
I0712 18:54:11.272552 14366 solver.cpp:181] Creating test net (#0) specified by net file: examples/siamese/mnist_siamese_train_test.prototxt
I0712 18:54:11.273407 14366 net.cpp:313] The NetState phase (1) differed from the phase (0) specified by a rule in layer pair_data
I0712 18:54:11.274219 14366 net.cpp:49] Initializing net from parameters: 
name: "mnist_siamese_train_test"
state {
  phase: TEST
}
layer {
  name: "pair_data"
  type: "Data"
  top: "pair_data"
  top: "sim"
  include {
    phase: TEST
  }
  transform_param {
    scale: 0.00390625
  }
  data_param {
    source: "examples/siamese/mnist_siamese_test_leveldb_789"
    batch_size: 100
  }
}
layer {
  name: "slice_pair"
  type: "Slice"
  bottom: "pair_data"
  top: "data"
  top: "data_p"
  slice_param {
    slice_dim: 1
    slice_point: 1
  }
}
layer {
  name: "conv1"
  type: "Convolution"
  bottom: "data"
  top: "conv1"
  param {
    name: "conv1_w"
    lr_mult: 1
  }
  param {
    name: "conv1_b"
    lr_mult: 2
  }
  convolution_param {
    num_output: 20
    kernel_size: 5
    stride: 1
    weight_filler {
      type: "xavier"
    }
    bias_filler {
      type: "constant"
    }
  }
}
layer {
  name: "pool1"
  type: "Pooling"
  bottom: "conv1"
  top: "pool1"
  pooling_param {
    pool: MAX
    kernel_size: 2
    stride: 2
  }
}
layer {
  name: "conv2"
  type: "Convolution"
  bottom: "pool1"
  top: "conv2"
  param {
    name: "conv2_w"
    lr_mult: 1
  }
  param {
    name: "conv2_b"
    lr_mult: 2
  }
  convolution_param {
    num_output: 50
    kernel_size: 5
    stride: 1
    weight_filler {
      type: "xavier"
    }
    bias_filler {
      type: "constant"
    }
  }
}
layer {
  name: "pool2"
  type: "Pooling"
  bottom: "conv2"
  top: "pool2"
  pooling_param {
    pool: MAX
    kernel_size: 2
    stride: 2
  }
}
layer {
  name: "ip1"
  type: "InnerProduct"
  bottom: "pool2"
  top: "ip1"
  param {
    name: "ip1_w"
    lr_mult: 1
  }
  param {
    name: "ip1_b"
    lr_mult: 2
  }
  inner_product_param {
    num_output: 500
    weight_filler {
      type: "xavier"
    }
    bias_filler {
      type: "constant"
    }
  }
}
layer {
  name: "relu1"
  type: "ReLU"
  bottom: "ip1"
  top: "ip1"
}
layer {
  name: "ip2"
  type: "InnerProduct"
  bottom: "ip1"
  top: "ip2"
  param {
    name: "ip2_w"
    lr_mult: 1
  }
  param {
    name: "ip2_b"
    lr_mult: 2
  }
  inner_product_param {
    num_output: 10
    weight_filler {
      type: "xavier"
    }
    bias_filler {
      type: "constant"
    }
  }
}
layer {
  name: "feat"
  type: "InnerProduct"
  bottom: "ip2"
  top: "feat"
  param {
    name: "feat_w"
    lr_mult: 1
  }
  param {
    name: "feat_b"
    lr_mult: 2
  }
  inner_product_param {
    num_output: 2
    weight_filler {
      type: "xavier"
    }
    bias_filler {
      type: "constant"
    }
  }
}
layer {
  name: "conv1_p"
  type: "Convolution"
  bottom: "data_p"
  top: "conv1_p"
  param {
    name: "conv1_w"
    lr_mult: 1
  }
  param {
    name: "conv1_b"
    lr_mult: 2
  }
  convolution_param {
    num_output: 20
    kernel_size: 5
    stride: 1
    weight_filler {
      type: "xavier"
    }
    bias_filler {
      type: "constant"
    }
  }
}
layer {
  name: "pool1_p"
  type: "Pooling"
  bottom: "conv1_p"
  top: "pool1_p"
  pooling_param {
    pool: MAX
    kernel_size: 2
    stride: 2
  }
}
layer {
  name: "conv2_p"
  type: "Convolution"
  bottom: "pool1_p"
  top: "conv2_p"
  param {
    name: "conv2_w"
    lr_mult: 1
  }
  param {
    name: "conv2_b"
    lr_mult: 2
  }
  convolution_param {
    num_output: 50
    kernel_size: 5
    stride: 1
    weight_filler {
      type: "xavier"
    }
    bias_filler {
      type: "constant"
    }
  }
}
layer {
  name: "pool2_p"
  type: "Pooling"
  bottom: "conv2_p"
  top: "pool2_p"
  pooling_param {
    pool: MAX
    kernel_size: 2
    stride: 2
  }
}
layer {
  name: "ip1_p"
  type: "InnerProduct"
  bottom: "pool2_p"
  top: "ip1_p"
  param {
    name: "ip1_w"
    lr_mult: 1
  }
  param {
    name: "ip1_b"
    lr_mult: 2
  }
  inner_product_param {
    num_output: 500
    weight_filler {
      type: "xavier"
    }
    bias_filler {
      type: "constant"
    }
  }
}
layer {
  name: "relu1_p"
  type: "ReLU"
  bottom: "ip1_p"
  top: "ip1_p"
}
layer {
  name: "ip2_p"
  type: "InnerProduct"
  bottom: "ip1_p"
  top: "ip2_p"
  param {
    name: "ip2_w"
    lr_mult: 1
  }
  param {
    name: "ip2_b"
    lr_mult: 2
  }
  inner_product_param {
    num_output: 10
    weight_filler {
      type: "xavier"
    }
    bias_filler {
      type: "constant"
    }
  }
}
layer {
  name: "feat_p"
  type: "InnerProduct"
  bottom: "ip2_p"
  top: "feat_p"
  param {
    name: "feat_w"
    lr_mult: 1
  }
  param {
    name: "feat_b"
    lr_mult: 2
  }
  inner_product_param {
    num_output: 2
    weight_filler {
      type: "xavier"
    }
    bias_filler {
      type: "constant"
    }
  }
}
layer {
  name: "loss"
  type: "ContrastiveLoss"
  bottom: "feat"
  bottom: "feat_p"
  bottom: "sim"
  top: "loss"
  contrastive_loss_param {
    margin: 1
  }
}
I0712 18:54:11.278941 14366 layer_factory.hpp:77] Creating layer pair_data
I0712 18:54:11.279773 14366 net.cpp:91] Creating Layer pair_data
I0712 18:54:11.280161 14366 net.cpp:399] pair_data -> pair_data
I0712 18:54:11.280410 14366 net.cpp:399] pair_data -> sim
I0712 18:54:11.331084 14372 db_leveldb.cpp:18] Opened leveldb examples/siamese/mnist_siamese_test_leveldb_789
I0712 18:54:11.331517 14366 data_layer.cpp:41] output data size: 100,2,28,28
I0712 18:54:11.332465 14366 net.cpp:141] Setting up pair_data
I0712 18:54:11.332505 14366 net.cpp:148] Top shape: 100 2 28 28 (156800)
I0712 18:54:11.332515 14366 net.cpp:148] Top shape: 100 (100)
I0712 18:54:11.332521 14366 net.cpp:156] Memory required for data: 627600
I0712 18:54:11.332533 14366 layer_factory.hpp:77] Creating layer slice_pair
I0712 18:54:11.332557 14366 net.cpp:91] Creating Layer slice_pair
I0712 18:54:11.332566 14366 net.cpp:425] slice_pair <- pair_data
I0712 18:54:11.332579 14366 net.cpp:399] slice_pair -> data
I0712 18:54:11.332599 14366 net.cpp:399] slice_pair -> data_p
I0712 18:54:11.332620 14366 net.cpp:141] Setting up slice_pair
I0712 18:54:11.332631 14366 net.cpp:148] Top shape: 100 1 28 28 (78400)
I0712 18:54:11.332639 14366 net.cpp:148] Top shape: 100 1 28 28 (78400)
I0712 18:54:11.332644 14366 net.cpp:156] Memory required for data: 1254800
I0712 18:54:11.332649 14366 layer_factory.hpp:77] Creating layer conv1
I0712 18:54:11.332669 14366 net.cpp:91] Creating Layer conv1
I0712 18:54:11.332676 14366 net.cpp:425] conv1 <- data
I0712 18:54:11.332686 14366 net.cpp:399] conv1 -> conv1
I0712 18:54:11.332739 14366 net.cpp:141] Setting up conv1
I0712 18:54:11.332749 14366 net.cpp:148] Top shape: 100 20 24 24 (1152000)
I0712 18:54:11.332753 14366 net.cpp:156] Memory required for data: 5862800
I0712 18:54:11.332762 14366 layer_factory.hpp:77] Creating layer pool1
I0712 18:54:11.332772 14366 net.cpp:91] Creating Layer pool1
I0712 18:54:11.332775 14366 net.cpp:425] pool1 <- conv1
I0712 18:54:11.332780 14366 net.cpp:399] pool1 -> pool1
I0712 18:54:11.332790 14366 net.cpp:141] Setting up pool1
I0712 18:54:11.332797 14366 net.cpp:148] Top shape: 100 20 12 12 (288000)
I0712 18:54:11.332799 14366 net.cpp:156] Memory required for data: 7014800
I0712 18:54:11.332803 14366 layer_factory.hpp:77] Creating layer conv2
I0712 18:54:11.332859 14366 net.cpp:91] Creating Layer conv2
I0712 18:54:11.332864 14366 net.cpp:425] conv2 <- pool1
I0712 18:54:11.332871 14366 net.cpp:399] conv2 -> conv2
I0712 18:54:11.333122 14366 net.cpp:141] Setting up conv2
I0712 18:54:11.333135 14366 net.cpp:148] Top shape: 100 50 8 8 (320000)
I0712 18:54:11.333142 14366 net.cpp:156] Memory required for data: 8294800
I0712 18:54:11.333153 14366 layer_factory.hpp:77] Creating layer pool2
I0712 18:54:11.333160 14366 net.cpp:91] Creating Layer pool2
I0712 18:54:11.333165 14366 net.cpp:425] pool2 <- conv2
I0712 18:54:11.333173 14366 net.cpp:399] pool2 -> pool2
I0712 18:54:11.333181 14366 net.cpp:141] Setting up pool2
I0712 18:54:11.333189 14366 net.cpp:148] Top shape: 100 50 4 4 (80000)
I0712 18:54:11.333191 14366 net.cpp:156] Memory required for data: 8614800
I0712 18:54:11.333194 14366 layer_factory.hpp:77] Creating layer ip1
I0712 18:54:11.333206 14366 net.cpp:91] Creating Layer ip1
I0712 18:54:11.333212 14366 net.cpp:425] ip1 <- pool2
I0712 18:54:11.333220 14366 net.cpp:399] ip1 -> ip1
I0712 18:54:11.336833 14366 net.cpp:141] Setting up ip1
I0712 18:54:11.336958 14366 net.cpp:148] Top shape: 100 500 (50000)
I0712 18:54:11.337007 14366 net.cpp:156] Memory required for data: 8814800
I0712 18:54:11.337056 14366 layer_factory.hpp:77] Creating layer relu1
I0712 18:54:11.337097 14366 net.cpp:91] Creating Layer relu1
I0712 18:54:11.337146 14366 net.cpp:425] relu1 <- ip1
I0712 18:54:11.337177 14366 net.cpp:386] relu1 -> ip1 (in-place)
I0712 18:54:11.337210 14366 net.cpp:141] Setting up relu1
I0712 18:54:11.337250 14366 net.cpp:148] Top shape: 100 500 (50000)
I0712 18:54:11.337270 14366 net.cpp:156] Memory required for data: 9014800
I0712 18:54:11.337286 14366 layer_factory.hpp:77] Creating layer ip2
I0712 18:54:11.337311 14366 net.cpp:91] Creating Layer ip2
I0712 18:54:11.337347 14366 net.cpp:425] ip2 <- ip1
I0712 18:54:11.337368 14366 net.cpp:399] ip2 -> ip2
I0712 18:54:11.337447 14366 net.cpp:141] Setting up ip2
I0712 18:54:11.337486 14366 net.cpp:148] Top shape: 100 10 (1000)
I0712 18:54:11.337501 14366 net.cpp:156] Memory required for data: 9018800
I0712 18:54:11.337519 14366 layer_factory.hpp:77] Creating layer feat
I0712 18:54:11.337538 14366 net.cpp:91] Creating Layer feat
I0712 18:54:11.337553 14366 net.cpp:425] feat <- ip2
I0712 18:54:11.337570 14366 net.cpp:399] feat -> feat
I0712 18:54:11.337599 14366 net.cpp:141] Setting up feat
I0712 18:54:11.337616 14366 net.cpp:148] Top shape: 100 2 (200)
I0712 18:54:11.337630 14366 net.cpp:156] Memory required for data: 9019600
I0712 18:54:11.337648 14366 layer_factory.hpp:77] Creating layer conv1_p
I0712 18:54:11.337671 14366 net.cpp:91] Creating Layer conv1_p
I0712 18:54:11.337684 14366 net.cpp:425] conv1_p <- data_p
I0712 18:54:11.337702 14366 net.cpp:399] conv1_p -> conv1_p
I0712 18:54:11.337745 14366 net.cpp:141] Setting up conv1_p
I0712 18:54:11.337766 14366 net.cpp:148] Top shape: 100 20 24 24 (1152000)
I0712 18:54:11.337779 14366 net.cpp:156] Memory required for data: 13627600
I0712 18:54:11.337795 14366 net.cpp:484] Sharing parameters 'conv1_w' owned by layer 'conv1', param index 0
I0712 18:54:11.337810 14366 net.cpp:484] Sharing parameters 'conv1_b' owned by layer 'conv1', param index 1
I0712 18:54:11.337823 14366 layer_factory.hpp:77] Creating layer pool1_p
I0712 18:54:11.337841 14366 net.cpp:91] Creating Layer pool1_p
I0712 18:54:11.337854 14366 net.cpp:425] pool1_p <- conv1_p
I0712 18:54:11.337869 14366 net.cpp:399] pool1_p -> pool1_p
I0712 18:54:11.337890 14366 net.cpp:141] Setting up pool1_p
I0712 18:54:11.337906 14366 net.cpp:148] Top shape: 100 20 12 12 (288000)
I0712 18:54:11.337918 14366 net.cpp:156] Memory required for data: 14779600
I0712 18:54:11.337931 14366 layer_factory.hpp:77] Creating layer conv2_p
I0712 18:54:11.337954 14366 net.cpp:91] Creating Layer conv2_p
I0712 18:54:11.337967 14366 net.cpp:425] conv2_p <- pool1_p
I0712 18:54:11.337983 14366 net.cpp:399] conv2_p -> conv2_p
I0712 18:54:11.338217 14366 net.cpp:141] Setting up conv2_p
I0712 18:54:11.338238 14366 net.cpp:148] Top shape: 100 50 8 8 (320000)
I0712 18:54:11.338270 14366 net.cpp:156] Memory required for data: 16059600
I0712 18:54:11.338285 14366 net.cpp:484] Sharing parameters 'conv2_w' owned by layer 'conv2', param index 0
I0712 18:54:11.338299 14366 net.cpp:484] Sharing parameters 'conv2_b' owned by layer 'conv2', param index 1
I0712 18:54:11.338313 14366 layer_factory.hpp:77] Creating layer pool2_p
I0712 18:54:11.338330 14366 net.cpp:91] Creating Layer pool2_p
I0712 18:54:11.338343 14366 net.cpp:425] pool2_p <- conv2_p
I0712 18:54:11.338361 14366 net.cpp:399] pool2_p -> pool2_p
I0712 18:54:11.338382 14366 net.cpp:141] Setting up pool2_p
I0712 18:54:11.338397 14366 net.cpp:148] Top shape: 100 50 4 4 (80000)
I0712 18:54:11.338409 14366 net.cpp:156] Memory required for data: 16379600
I0712 18:54:11.338421 14366 layer_factory.hpp:77] Creating layer ip1_p
I0712 18:54:11.338439 14366 net.cpp:91] Creating Layer ip1_p
I0712 18:54:11.338452 14366 net.cpp:425] ip1_p <- pool2_p
I0712 18:54:11.338470 14366 net.cpp:399] ip1_p -> ip1_p
I0712 18:54:11.354743 14366 net.cpp:141] Setting up ip1_p
I0712 18:54:11.356206 14366 net.cpp:148] Top shape: 100 500 (50000)
I0712 18:54:11.356370 14366 net.cpp:156] Memory required for data: 16579600
I0712 18:54:11.356472 14366 net.cpp:484] Sharing parameters 'ip1_w' owned by layer 'ip1', param index 0
I0712 18:54:11.356566 14366 net.cpp:484] Sharing parameters 'ip1_b' owned by layer 'ip1', param index 1
I0712 18:54:11.356655 14366 layer_factory.hpp:77] Creating layer relu1_p
I0712 18:54:11.356771 14366 net.cpp:91] Creating Layer relu1_p
I0712 18:54:11.356866 14366 net.cpp:425] relu1_p <- ip1_p
I0712 18:54:11.356979 14366 net.cpp:386] relu1_p -> ip1_p (in-place)
I0712 18:54:11.357121 14366 net.cpp:141] Setting up relu1_p
I0712 18:54:11.357244 14366 net.cpp:148] Top shape: 100 500 (50000)
I0712 18:54:11.357411 14366 net.cpp:156] Memory required for data: 16779600
I0712 18:54:11.357627 14366 layer_factory.hpp:77] Creating layer ip2_p
I0712 18:54:11.357812 14366 net.cpp:91] Creating Layer ip2_p
I0712 18:54:11.357974 14366 net.cpp:425] ip2_p <- ip1_p
I0712 18:54:11.358141 14366 net.cpp:399] ip2_p -> ip2_p
I0712 18:54:11.358428 14366 net.cpp:141] Setting up ip2_p
I0712 18:54:11.358630 14366 net.cpp:148] Top shape: 100 10 (1000)
I0712 18:54:11.358786 14366 net.cpp:156] Memory required for data: 16783600
I0712 18:54:11.358954 14366 net.cpp:484] Sharing parameters 'ip2_w' owned by layer 'ip2', param index 0
I0712 18:54:11.359117 14366 net.cpp:484] Sharing parameters 'ip2_b' owned by layer 'ip2', param index 1
I0712 18:54:11.359454 14366 layer_factory.hpp:77] Creating layer feat_p
I0712 18:54:11.359858 14366 net.cpp:91] Creating Layer feat_p
I0712 18:54:11.360172 14366 net.cpp:425] feat_p <- ip2_p
I0712 18:54:11.360287 14366 net.cpp:399] feat_p -> feat_p
I0712 18:54:11.360502 14366 net.cpp:141] Setting up feat_p
I0712 18:54:11.360584 14366 net.cpp:148] Top shape: 100 2 (200)
I0712 18:54:11.360646 14366 net.cpp:156] Memory required for data: 16784400
I0712 18:54:11.360709 14366 net.cpp:484] Sharing parameters 'feat_w' owned by layer 'feat', param index 0
I0712 18:54:11.360772 14366 net.cpp:484] Sharing parameters 'feat_b' owned by layer 'feat', param index 1
I0712 18:54:11.360833 14366 layer_factory.hpp:77] Creating layer loss
I0712 18:54:11.360930 14366 net.cpp:91] Creating Layer loss
…
