…
I0712 17:19:56.388962 13346 solver.cpp:91] Creating training net from net file: examples/siamese/mnist_siamese_train_test.prototxt
I0712 17:19:56.389436 13346 net.cpp:313] The NetState phase (0) differed from the phase (1) specified by a rule in layer pair_data
I0712 17:19:56.389580 13346 net.cpp:49] Initializing net from parameters: 
name: "mnist_siamese_train_test"
state {
  phase: TRAIN
}
layer {
  name: "pair_data"
  type: "Data"
  top: "pair_data"
  top: "sim"
  include {
    phase: TRAIN
  }
  transform_param {
    scale: 0.00390625
  }
  data_param {
    source: "examples/siamese/mnist_siamese_train_leveldb_0to1c"
    batch_size: 64
  }
}
layer {
  name: "slice_pair"
  type: "Slice"
  bottom: "pair_data"
  top: "data"
  top: "data_p"
  slice_param {
    slice_dim: 1
    slice_point: 1
  }
}
layer {
  name: "conv1"
  type: "Convolution"
  bottom: "data"
  top: "conv1"
  param {
    name: "conv1_w"
    lr_mult: 1
  }
  param {
    name: "conv1_b"
    lr_mult: 2
  }
  convolution_param {
    num_output: 20
    kernel_size: 5
    stride: 1
    weight_filler {
      type: "xavier"
    }
    bias_filler {
      type: "constant"
    }
  }
}
layer {
  name: "pool1"
  type: "Pooling"
  bottom: "conv1"
  top: "pool1"
  pooling_param {
    pool: MAX
    kernel_size: 2
    stride: 2
  }
}
layer {
  name: "conv2"
  type: "Convolution"
  bottom: "pool1"
  top: "conv2"
  param {
    name: "conv2_w"
    lr_mult: 1
  }
  param {
    name: "conv2_b"
    lr_mult: 2
  }
  convolution_param {
    num_output: 50
    kernel_size: 5
    stride: 1
    weight_filler {
      type: "xavier"
    }
    bias_filler {
      type: "constant"
    }
  }
}
layer {
  name: "pool2"
  type: "Pooling"
  bottom: "conv2"
  top: "pool2"
  pooling_param {
    pool: MAX
    kernel_size: 2
    stride: 2
  }
}
layer {
  name: "ip1"
  type: "InnerProduct"
  bottom: "pool2"
  top: "ip1"
  param {
    name: "ip1_w"
    lr_mult: 1
  }
  param {
    name: "ip1_b"
    lr_mult: 2
  }
  inner_product_param {
    num_output: 500
    weight_filler {
      type: "xavier"
    }
    bias_filler {
      type: "constant"
    }
  }
}
layer {
  name: "relu1"
  type: "ReLU"
  bottom: "ip1"
  top: "ip1"
}
layer {
  name: "ip2"
  type: "InnerProduct"
  bottom: "ip1"
  top: "ip2"
  param {
    name: "ip2_w"
    lr_mult: 1
  }
  param {
    name: "ip2_b"
    lr_mult: 2
  }
  inner_product_param {
    num_output: 10
    weight_filler {
      type: "xavier"
    }
    bias_filler {
      type: "constant"
    }
  }
}
layer {
  name: "feat"
  type: "InnerProduct"
  bottom: "ip2"
  top: "feat"
  param {
    name: "feat_w"
    lr_mult: 1
  }
  param {
    name: "feat_b"
    lr_mult: 2
  }
  inner_product_param {
    num_output: 2
    weight_filler {
      type: "xavier"
    }
    bias_filler {
      type: "constant"
    }
  }
}
layer {
  name: "conv1_p"
  type: "Convolution"
  bottom: "data_p"
  top: "conv1_p"
  param {
    name: "conv1_w"
    lr_mult: 1
  }
  param {
    name: "conv1_b"
    lr_mult: 2
  }
  convolution_param {
    num_output: 20
    kernel_size: 5
    stride: 1
    weight_filler {
      type: "xavier"
    }
    bias_filler {
      type: "constant"
    }
  }
}
layer {
  name: "pool1_p"
  type: "Pooling"
  bottom: "conv1_p"
  top: "pool1_p"
  pooling_param {
    pool: MAX
    kernel_size: 2
    stride: 2
  }
}
layer {
  name: "conv2_p"
  type: "Convolution"
  bottom: "pool1_p"
  top: "conv2_p"
  param {
    name: "conv2_w"
    lr_mult: 1
  }
  param {
    name: "conv2_b"
    lr_mult: 2
  }
  convolution_param {
    num_output: 50
    kernel_size: 5
    stride: 1
    weight_filler {
      type: "xavier"
    }
    bias_filler {
      type: "constant"
    }
  }
}
layer {
  name: "pool2_p"
  type: "Pooling"
  bottom: "conv2_p"
  top: "pool2_p"
  pooling_param {
    pool: MAX
    kernel_size: 2
    stride: 2
  }
}
layer {
  name: "ip1_p"
  type: "InnerProduct"
  bottom: "pool2_p"
  top: "ip1_p"
  param {
    name: "ip1_w"
    lr_mult: 1
  }
  param {
    name: "ip1_b"
    lr_mult: 2
  }
  inner_product_param {
    num_output: 500
    weight_filler {
      type: "xavier"
    }
    bias_filler {
      type: "constant"
    }
  }
}
layer {
  name: "relu1_p"
  type: "ReLU"
  bottom: "ip1_p"
  top: "ip1_p"
}
layer {
  name: "ip2_p"
  type: "InnerProduct"
  bottom: "ip1_p"
  top: "ip2_p"
  param {
    name: "ip2_w"
    lr_mult: 1
  }
  param {
    name: "ip2_b"
    lr_mult: 2
  }
  inner_product_param {
    num_output: 10
    weight_filler {
      type: "xavier"
    }
    bias_filler {
      type: "constant"
    }
  }
}
layer {
  name: "feat_p"
  type: "InnerProduct"
  bottom: "ip2_p"
  top: "feat_p"
  param {
    name: "feat_w"
    lr_mult: 1
  }
  param {
    name: "feat_b"
    lr_mult: 2
  }
  inner_product_param {
    num_output: 2
    weight_filler {
      type: "xavier"
    }
    bias_filler {
      type: "constant"
    }
  }
}
layer {
  name: "loss"
  type: "ContrastiveLoss"
  bottom: "feat"
  bottom: "feat_p"
  bottom: "sim"
  top: "loss"
  contrastive_loss_param {
    margin: 1
  }
}
I0712 17:19:56.389695 13346 layer_factory.hpp:77] Creating layer pair_data
I0712 17:19:56.390230 13346 net.cpp:91] Creating Layer pair_data
I0712 17:19:56.390254 13346 net.cpp:399] pair_data -> pair_data
I0712 17:19:56.390277 13346 net.cpp:399] pair_data -> sim
I0712 17:19:56.417834 13350 db_leveldb.cpp:18] Opened leveldb examples/siamese/mnist_siamese_train_leveldb_0to1c
I0712 17:19:56.418911 13346 data_layer.cpp:41] output data size: 64,2,28,28
I0712 17:19:56.419533 13346 net.cpp:141] Setting up pair_data
I0712 17:19:56.419638 13346 net.cpp:148] Top shape: 64 2 28 28 (100352)
I0712 17:19:56.419703 13346 net.cpp:148] Top shape: 64 (64)
I0712 17:19:56.419747 13346 net.cpp:156] Memory required for data: 401664
I0712 17:19:56.419914 13346 layer_factory.hpp:77] Creating layer slice_pair
I0712 17:19:56.419973 13346 net.cpp:91] Creating Layer slice_pair
I0712 17:19:56.420011 13346 net.cpp:425] slice_pair <- pair_data
I0712 17:19:56.420054 13346 net.cpp:399] slice_pair -> data
I0712 17:19:56.420095 13346 net.cpp:399] slice_pair -> data_p
I0712 17:19:56.420140 13346 net.cpp:141] Setting up slice_pair
I0712 17:19:56.420169 13346 net.cpp:148] Top shape: 64 1 28 28 (50176)
I0712 17:19:56.420195 13346 net.cpp:148] Top shape: 64 1 28 28 (50176)
I0712 17:19:56.420217 13346 net.cpp:156] Memory required for data: 803072
I0712 17:19:56.420239 13346 layer_factory.hpp:77] Creating layer conv1
I0712 17:19:56.420284 13346 net.cpp:91] Creating Layer conv1
I0712 17:19:56.420308 13346 net.cpp:425] conv1 <- data
I0712 17:19:56.420334 13346 net.cpp:399] conv1 -> conv1
I0712 17:19:56.420457 13346 net.cpp:141] Setting up conv1
I0712 17:19:56.420492 13346 net.cpp:148] Top shape: 64 20 24 24 (737280)
I0712 17:19:56.420511 13346 net.cpp:156] Memory required for data: 3752192
I0712 17:19:56.420539 13346 layer_factory.hpp:77] Creating layer pool1
I0712 17:19:56.420563 13346 net.cpp:91] Creating Layer pool1
I0712 17:19:56.420580 13346 net.cpp:425] pool1 <- conv1
I0712 17:19:56.420598 13346 net.cpp:399] pool1 -> pool1
I0712 17:19:56.420639 13346 net.cpp:141] Setting up pool1
I0712 17:19:56.420660 13346 net.cpp:148] Top shape: 64 20 12 12 (184320)
I0712 17:19:56.420675 13346 net.cpp:156] Memory required for data: 4489472
I0712 17:19:56.420687 13346 layer_factory.hpp:77] Creating layer conv2
I0712 17:19:56.420711 13346 net.cpp:91] Creating Layer conv2
I0712 17:19:56.420727 13346 net.cpp:425] conv2 <- pool1
I0712 17:19:56.420754 13346 net.cpp:399] conv2 -> conv2
I0712 17:19:56.421005 13346 net.cpp:141] Setting up conv2
I0712 17:19:56.421036 13346 net.cpp:148] Top shape: 64 50 8 8 (204800)
I0712 17:19:56.421051 13346 net.cpp:156] Memory required for data: 5308672
I0712 17:19:56.421072 13346 layer_factory.hpp:77] Creating layer pool2
I0712 17:19:56.421105 13346 net.cpp:91] Creating Layer pool2
I0712 17:19:56.421139 13346 net.cpp:425] pool2 <- conv2
I0712 17:19:56.421162 13346 net.cpp:399] pool2 -> pool2
I0712 17:19:56.421187 13346 net.cpp:141] Setting up pool2
I0712 17:19:56.421206 13346 net.cpp:148] Top shape: 64 50 4 4 (51200)
I0712 17:19:56.421219 13346 net.cpp:156] Memory required for data: 5513472
I0712 17:19:56.421232 13346 layer_factory.hpp:77] Creating layer ip1
I0712 17:19:56.421262 13346 net.cpp:91] Creating Layer ip1
I0712 17:19:56.421277 13346 net.cpp:425] ip1 <- pool2
I0712 17:19:56.421294 13346 net.cpp:399] ip1 -> ip1
I0712 17:19:56.424834 13346 net.cpp:141] Setting up ip1
I0712 17:19:56.424942 13346 net.cpp:148] Top shape: 64 500 (32000)
I0712 17:19:56.424969 13346 net.cpp:156] Memory required for data: 5641472
I0712 17:19:56.425001 13346 layer_factory.hpp:77] Creating layer relu1
I0712 17:19:56.425026 13346 net.cpp:91] Creating Layer relu1
I0712 17:19:56.425045 13346 net.cpp:425] relu1 <- ip1
I0712 17:19:56.425066 13346 net.cpp:386] relu1 -> ip1 (in-place)
I0712 17:19:56.425093 13346 net.cpp:141] Setting up relu1
I0712 17:19:56.425112 13346 net.cpp:148] Top shape: 64 500 (32000)
I0712 17:19:56.425125 13346 net.cpp:156] Memory required for data: 5769472
I0712 17:19:56.425139 13346 layer_factory.hpp:77] Creating layer ip2
I0712 17:19:56.425161 13346 net.cpp:91] Creating Layer ip2
I0712 17:19:56.425179 13346 net.cpp:425] ip2 <- ip1
I0712 17:19:56.425199 13346 net.cpp:399] ip2 -> ip2
I0712 17:19:56.425266 13346 net.cpp:141] Setting up ip2
I0712 17:19:56.425287 13346 net.cpp:148] Top shape: 64 10 (640)
I0712 17:19:56.425298 13346 net.cpp:156] Memory required for data: 5772032
I0712 17:19:56.425325 13346 layer_factory.hpp:77] Creating layer feat
I0712 17:19:56.425346 13346 net.cpp:91] Creating Layer feat
I0712 17:19:56.425362 13346 net.cpp:425] feat <- ip2
I0712 17:19:56.425380 13346 net.cpp:399] feat -> feat
I0712 17:19:56.425405 13346 net.cpp:141] Setting up feat
I0712 17:19:56.425425 13346 net.cpp:148] Top shape: 64 2 (128)
I0712 17:19:56.425438 13346 net.cpp:156] Memory required for data: 5772544
I0712 17:19:56.425458 13346 layer_factory.hpp:77] Creating layer conv1_p
I0712 17:19:56.425482 13346 net.cpp:91] Creating Layer conv1_p
I0712 17:19:56.425498 13346 net.cpp:425] conv1_p <- data_p
I0712 17:19:56.425515 13346 net.cpp:399] conv1_p -> conv1_p
I0712 17:19:56.425560 13346 net.cpp:141] Setting up conv1_p
I0712 17:19:56.425581 13346 net.cpp:148] Top shape: 64 20 24 24 (737280)
I0712 17:19:56.425595 13346 net.cpp:156] Memory required for data: 8721664
I0712 17:19:56.425611 13346 net.cpp:484] Sharing parameters 'conv1_w' owned by layer 'conv1', param index 0
I0712 17:19:56.425626 13346 net.cpp:484] Sharing parameters 'conv1_b' owned by layer 'conv1', param index 1
I0712 17:19:56.425642 13346 layer_factory.hpp:77] Creating layer pool1_p
I0712 17:19:56.425662 13346 net.cpp:91] Creating Layer pool1_p
I0712 17:19:56.425676 13346 net.cpp:425] pool1_p <- conv1_p
I0712 17:19:56.425698 13346 net.cpp:399] pool1_p -> pool1_p
I0712 17:19:56.425722 13346 net.cpp:141] Setting up pool1_p
I0712 17:19:56.425740 13346 net.cpp:148] Top shape: 64 20 12 12 (184320)
I0712 17:19:56.425755 13346 net.cpp:156] Memory required for data: 9458944
I0712 17:19:56.425768 13346 layer_factory.hpp:77] Creating layer conv2_p
I0712 17:19:56.425791 13346 net.cpp:91] Creating Layer conv2_p
I0712 17:19:56.425806 13346 net.cpp:425] conv2_p <- pool1_p
I0712 17:19:56.425827 13346 net.cpp:399] conv2_p -> conv2_p
I0712 17:19:56.426075 13346 net.cpp:141] Setting up conv2_p
I0712 17:19:56.426115 13346 net.cpp:148] Top shape: 64 50 8 8 (204800)
I0712 17:19:56.426136 13346 net.cpp:156] Memory required for data: 10278144
I0712 17:19:56.426161 13346 net.cpp:484] Sharing parameters 'conv2_w' owned by layer 'conv2', param index 0
I0712 17:19:56.426184 13346 net.cpp:484] Sharing parameters 'conv2_b' owned by layer 'conv2', param index 1
I0712 17:19:56.426204 13346 layer_factory.hpp:77] Creating layer pool2_p
I0712 17:19:56.426226 13346 net.cpp:91] Creating Layer pool2_p
I0712 17:19:56.426244 13346 net.cpp:425] pool2_p <- conv2_p
I0712 17:19:56.426326 13346 net.cpp:399] pool2_p -> pool2_p
I0712 17:19:56.426410 13346 net.cpp:141] Setting up pool2_p
I0712 17:19:56.426434 13346 net.cpp:148] Top shape: 64 50 4 4 (51200)
I0712 17:19:56.426450 13346 net.cpp:156] Memory required for data: 10482944
I0712 17:19:56.426465 13346 layer_factory.hpp:77] Creating layer ip1_p
I0712 17:19:56.426496 13346 net.cpp:91] Creating Layer ip1_p
I0712 17:19:56.426514 13346 net.cpp:425] ip1_p <- pool2_p
I0712 17:19:56.426537 13346 net.cpp:399] ip1_p -> ip1_p
I0712 17:19:56.443048 13346 net.cpp:141] Setting up ip1_p
I0712 17:19:56.443177 13346 net.cpp:148] Top shape: 64 500 (32000)
I0712 17:19:56.443208 13346 net.cpp:156] Memory required for data: 10610944
I0712 17:19:56.443238 13346 net.cpp:484] Sharing parameters 'ip1_w' owned by layer 'ip1', param index 0
I0712 17:19:56.443274 13346 net.cpp:484] Sharing parameters 'ip1_b' owned by layer 'ip1', param index 1
I0712 17:19:56.443301 13346 layer_factory.hpp:77] Creating layer relu1_p
I0712 17:19:56.443337 13346 net.cpp:91] Creating Layer relu1_p
I0712 17:19:56.443367 13346 net.cpp:425] relu1_p <- ip1_p
I0712 17:19:56.443404 13346 net.cpp:386] relu1_p -> ip1_p (in-place)
I0712 17:19:56.443431 13346 net.cpp:141] Setting up relu1_p
I0712 17:19:56.443450 13346 net.cpp:148] Top shape: 64 500 (32000)
I0712 17:19:56.443464 13346 net.cpp:156] Memory required for data: 10738944
I0712 17:19:56.443477 13346 layer_factory.hpp:77] Creating layer ip2_p
I0712 17:19:56.443501 13346 net.cpp:91] Creating Layer ip2_p
I0712 17:19:56.443517 13346 net.cpp:425] ip2_p <- ip1_p
I0712 17:19:56.443536 13346 net.cpp:399] ip2_p -> ip2_p
I0712 17:19:56.443624 13346 net.cpp:141] Setting up ip2_p
I0712 17:19:56.443655 13346 net.cpp:148] Top shape: 64 10 (640)
I0712 17:19:56.443666 13346 net.cpp:156] Memory required for data: 10741504
I0712 17:19:56.443682 13346 net.cpp:484] Sharing parameters 'ip2_w' owned by layer 'ip2', param index 0
I0712 17:19:56.443711 13346 net.cpp:484] Sharing parameters 'ip2_b' owned by layer 'ip2', param index 1
I0712 17:19:56.443735 13346 layer_factory.hpp:77] Creating layer feat_p
I0712 17:19:56.443886 13346 net.cpp:91] Creating Layer feat_p
I0712 17:19:56.443922 13346 net.cpp:425] feat_p <- ip2_p
I0712 17:19:56.443948 13346 net.cpp:399] feat_p -> feat_p
I0712 17:19:56.443984 13346 net.cpp:141] Setting up feat_p
I0712 17:19:56.444005 13346 net.cpp:148] Top shape: 64 2 (128)
I0712 17:19:56.444016 13346 net.cpp:156] Memory required for data: 10742016
I0712 17:19:56.444031 13346 net.cpp:484] Sharing parameters 'feat_w' owned by layer 'feat', param index 0
I0712 17:19:56.444046 13346 net.cpp:484] Sharing parameters 'feat_b' owned by layer 'feat', param index 1
I0712 17:19:56.444058 13346 layer_factory.hpp:77] Creating layer loss
I0712 17:19:56.444083 13346 net.cpp:91] Creating Layer loss
…
I0712 17:19:56.445236 13346 solver.cpp:181] Creating test net (#0) specified by net file: examples/siamese/mnist_siamese_train_test.prototxt
I0712 17:19:56.447536 13346 net.cpp:313] The NetState phase (1) differed from the phase (0) specified by a rule in layer pair_data
I0712 17:19:56.447938 13346 net.cpp:49] Initializing net from parameters: 
name: "mnist_siamese_train_test"
state {
  phase: TEST
}
layer {
  name: "pair_data"
  type: "Data"
  top: "pair_data"
  top: "sim"
  include {
    phase: TEST
  }
  transform_param {
    scale: 0.00390625
  }
  data_param {
    source: "examples/siamese/mnist_siamese_test_leveldb_0to1c"
    batch_size: 100
  }
}
layer {
  name: "slice_pair"
  type: "Slice"
  bottom: "pair_data"
  top: "data"
  top: "data_p"
  slice_param {
    slice_dim: 1
    slice_point: 1
  }
}
layer {
  name: "conv1"
  type: "Convolution"
  bottom: "data"
  top: "conv1"
  param {
    name: "conv1_w"
    lr_mult: 1
  }
  param {
    name: "conv1_b"
    lr_mult: 2
  }
  convolution_param {
    num_output: 20
    kernel_size: 5
    stride: 1
    weight_filler {
      type: "xavier"
    }
    bias_filler {
      type: "constant"
    }
  }
}
layer {
  name: "pool1"
  type: "Pooling"
  bottom: "conv1"
  top: "pool1"
  pooling_param {
    pool: MAX
    kernel_size: 2
    stride: 2
  }
}
layer {
  name: "conv2"
  type: "Convolution"
  bottom: "pool1"
  top: "conv2"
  param {
    name: "conv2_w"
    lr_mult: 1
  }
  param {
    name: "conv2_b"
    lr_mult: 2
  }
  convolution_param {
    num_output: 50
    kernel_size: 5
    stride: 1
    weight_filler {
      type: "xavier"
    }
    bias_filler {
      type: "constant"
    }
  }
}
layer {
  name: "pool2"
  type: "Pooling"
  bottom: "conv2"
  top: "pool2"
  pooling_param {
    pool: MAX
    kernel_size: 2
    stride: 2
  }
}
layer {
  name: "ip1"
  type: "InnerProduct"
  bottom: "pool2"
  top: "ip1"
  param {
    name: "ip1_w"
    lr_mult: 1
  }
  param {
    name: "ip1_b"
    lr_mult: 2
  }
  inner_product_param {
    num_output: 500
    weight_filler {
      type: "xavier"
    }
    bias_filler {
      type: "constant"
    }
  }
}
layer {
  name: "relu1"
  type: "ReLU"
  bottom: "ip1"
  top: "ip1"
}
layer {
  name: "ip2"
  type: "InnerProduct"
  bottom: "ip1"
  top: "ip2"
  param {
    name: "ip2_w"
    lr_mult: 1
  }
  param {
    name: "ip2_b"
    lr_mult: 2
  }
  inner_product_param {
    num_output: 10
    weight_filler {
      type: "xavier"
    }
    bias_filler {
      type: "constant"
    }
  }
}
layer {
  name: "feat"
  type: "InnerProduct"
  bottom: "ip2"
  top: "feat"
  param {
    name: "feat_w"
    lr_mult: 1
  }
  param {
    name: "feat_b"
    lr_mult: 2
  }
  inner_product_param {
    num_output: 2
    weight_filler {
      type: "xavier"
    }
    bias_filler {
      type: "constant"
    }
  }
}
layer {
  name: "conv1_p"
  type: "Convolution"
  bottom: "data_p"
  top: "conv1_p"
  param {
    name: "conv1_w"
    lr_mult: 1
  }
  param {
    name: "conv1_b"
    lr_mult: 2
  }
  convolution_param {
    num_output: 20
    kernel_size: 5
    stride: 1
    weight_filler {
      type: "xavier"
    }
    bias_filler {
      type: "constant"
    }
  }
}
layer {
  name: "pool1_p"
  type: "Pooling"
  bottom: "conv1_p"
  top: "pool1_p"
  pooling_param {
    pool: MAX
    kernel_size: 2
    stride: 2
  }
}
layer {
  name: "conv2_p"
  type: "Convolution"
  bottom: "pool1_p"
  top: "conv2_p"
  param {
    name: "conv2_w"
    lr_mult: 1
  }
  param {
    name: "conv2_b"
    lr_mult: 2
  }
  convolution_param {
    num_output: 50
    kernel_size: 5
    stride: 1
    weight_filler {
      type: "xavier"
    }
    bias_filler {
      type: "constant"
    }
  }
}
layer {
  name: "pool2_p"
  type: "Pooling"
  bottom: "conv2_p"
  top: "pool2_p"
  pooling_param {
    pool: MAX
    kernel_size: 2
    stride: 2
  }
}
layer {
  name: "ip1_p"
  type: "InnerProduct"
  bottom: "pool2_p"
  top: "ip1_p"
  param {
    name: "ip1_w"
    lr_mult: 1
  }
  param {
    name: "ip1_b"
    lr_mult: 2
  }
  inner_product_param {
    num_output: 500
    weight_filler {
      type: "xavier"
    }
    bias_filler {
      type: "constant"
    }
  }
}
layer {
  name: "relu1_p"
  type: "ReLU"
  bottom: "ip1_p"
  top: "ip1_p"
}
layer {
  name: "ip2_p"
  type: "InnerProduct"
  bottom: "ip1_p"
  top: "ip2_p"
  param {
    name: "ip2_w"
    lr_mult: 1
  }
  param {
    name: "ip2_b"
    lr_mult: 2
  }
  inner_product_param {
    num_output: 10
    weight_filler {
      type: "xavier"
    }
    bias_filler {
      type: "constant"
    }
  }
}
layer {
  name: "feat_p"
  type: "InnerProduct"
  bottom: "ip2_p"
  top: "feat_p"
  param {
    name: "feat_w"
    lr_mult: 1
  }
  param {
    name: "feat_b"
    lr_mult: 2
  }
  inner_product_param {
    num_output: 2
    weight_filler {
      type: "xavier"
    }
    bias_filler {
      type: "constant"
    }
  }
}
layer {
  name: "loss"
  type: "ContrastiveLoss"
  bottom: "feat"
  bottom: "feat_p"
  bottom: "sim"
  top: "loss"
  contrastive_loss_param {
    margin: 1
  }
}
I0712 17:19:56.450069 13346 layer_factory.hpp:77] Creating layer pair_data
I0712 17:19:56.450825 13346 net.cpp:91] Creating Layer pair_data
I0712 17:19:56.452337 13346 net.cpp:399] pair_data -> pair_data
I0712 17:19:56.452679 13346 net.cpp:399] pair_data -> sim
I0712 17:19:56.516649 13352 db_leveldb.cpp:18] Opened leveldb examples/siamese/mnist_siamese_test_leveldb_0to1c
I0712 17:19:56.517073 13346 data_layer.cpp:41] output data size: 100,2,28,28
I0712 17:19:56.517951 13346 net.cpp:141] Setting up pair_data
I0712 17:19:56.517972 13346 net.cpp:148] Top shape: 100 2 28 28 (156800)
I0712 17:19:56.517981 13346 net.cpp:148] Top shape: 100 (100)
I0712 17:19:56.517985 13346 net.cpp:156] Memory required for data: 627600
I0712 17:19:56.517995 13346 layer_factory.hpp:77] Creating layer slice_pair
I0712 17:19:56.518013 13346 net.cpp:91] Creating Layer slice_pair
I0712 17:19:56.518019 13346 net.cpp:425] slice_pair <- pair_data
I0712 17:19:56.518029 13346 net.cpp:399] slice_pair -> data
I0712 17:19:56.518044 13346 net.cpp:399] slice_pair -> data_p
I0712 17:19:56.518059 13346 net.cpp:141] Setting up slice_pair
I0712 17:19:56.518066 13346 net.cpp:148] Top shape: 100 1 28 28 (78400)
I0712 17:19:56.518072 13346 net.cpp:148] Top shape: 100 1 28 28 (78400)
I0712 17:19:56.518076 13346 net.cpp:156] Memory required for data: 1254800
I0712 17:19:56.518081 13346 layer_factory.hpp:77] Creating layer conv1
I0712 17:19:56.518100 13346 net.cpp:91] Creating Layer conv1
I0712 17:19:56.518105 13346 net.cpp:425] conv1 <- data
I0712 17:19:56.518113 13346 net.cpp:399] conv1 -> conv1
I0712 17:19:56.518159 13346 net.cpp:141] Setting up conv1
I0712 17:19:56.518168 13346 net.cpp:148] Top shape: 100 20 24 24 (1152000)
I0712 17:19:56.518173 13346 net.cpp:156] Memory required for data: 5862800
I0712 17:19:56.518184 13346 layer_factory.hpp:77] Creating layer pool1
I0712 17:19:56.518194 13346 net.cpp:91] Creating Layer pool1
I0712 17:19:56.518199 13346 net.cpp:425] pool1 <- conv1
I0712 17:19:56.518206 13346 net.cpp:399] pool1 -> pool1
I0712 17:19:56.518219 13346 net.cpp:141] Setting up pool1
I0712 17:19:56.518226 13346 net.cpp:148] Top shape: 100 20 12 12 (288000)
I0712 17:19:56.518230 13346 net.cpp:156] Memory required for data: 7014800
I0712 17:19:56.518234 13346 layer_factory.hpp:77] Creating layer conv2
I0712 17:19:56.518249 13346 net.cpp:91] Creating Layer conv2
I0712 17:19:56.518290 13346 net.cpp:425] conv2 <- pool1
I0712 17:19:56.518302 13346 net.cpp:399] conv2 -> conv2
I0712 17:19:56.518587 13346 net.cpp:141] Setting up conv2
I0712 17:19:56.518596 13346 net.cpp:148] Top shape: 100 50 8 8 (320000)
I0712 17:19:56.518600 13346 net.cpp:156] Memory required for data: 8294800
I0712 17:19:56.518610 13346 layer_factory.hpp:77] Creating layer pool2
I0712 17:19:56.518617 13346 net.cpp:91] Creating Layer pool2
I0712 17:19:56.518622 13346 net.cpp:425] pool2 <- conv2
I0712 17:19:56.518630 13346 net.cpp:399] pool2 -> pool2
I0712 17:19:56.518638 13346 net.cpp:141] Setting up pool2
I0712 17:19:56.518645 13346 net.cpp:148] Top shape: 100 50 4 4 (80000)
I0712 17:19:56.518648 13346 net.cpp:156] Memory required for data: 8614800
I0712 17:19:56.518653 13346 layer_factory.hpp:77] Creating layer ip1
I0712 17:19:56.518662 13346 net.cpp:91] Creating Layer ip1
I0712 17:19:56.518667 13346 net.cpp:425] ip1 <- pool2
I0712 17:19:56.518674 13346 net.cpp:399] ip1 -> ip1
I0712 17:19:56.523175 13346 net.cpp:141] Setting up ip1
I0712 17:19:56.528092 13346 net.cpp:148] Top shape: 100 500 (50000)
I0712 17:19:56.528848 13346 net.cpp:156] Memory required for data: 8814800
I0712 17:19:56.528934 13346 layer_factory.hpp:77] Creating layer relu1
I0712 17:19:56.528957 13346 net.cpp:91] Creating Layer relu1
I0712 17:19:56.528971 13346 net.cpp:425] relu1 <- ip1
I0712 17:19:56.528986 13346 net.cpp:386] relu1 -> ip1 (in-place)
I0712 17:19:56.529006 13346 net.cpp:141] Setting up relu1
I0712 17:19:56.529022 13346 net.cpp:148] Top shape: 100 500 (50000)
I0712 17:19:56.529058 13346 net.cpp:156] Memory required for data: 9014800
I0712 17:19:56.529078 13346 layer_factory.hpp:77] Creating layer ip2
I0712 17:19:56.529104 13346 net.cpp:91] Creating Layer ip2
I0712 17:19:56.529116 13346 net.cpp:425] ip2 <- ip1
I0712 17:19:56.529129 13346 net.cpp:399] ip2 -> ip2
I0712 17:19:56.529196 13346 net.cpp:141] Setting up ip2
I0712 17:19:56.529211 13346 net.cpp:148] Top shape: 100 10 (1000)
I0712 17:19:56.529222 13346 net.cpp:156] Memory required for data: 9018800
I0712 17:19:56.529234 13346 layer_factory.hpp:77] Creating layer feat
I0712 17:19:56.529247 13346 net.cpp:91] Creating Layer feat
I0712 17:19:56.529258 13346 net.cpp:425] feat <- ip2
I0712 17:19:56.529270 13346 net.cpp:399] feat -> feat
I0712 17:19:56.529290 13346 net.cpp:141] Setting up feat
I0712 17:19:56.529304 13346 net.cpp:148] Top shape: 100 2 (200)
I0712 17:19:56.529314 13346 net.cpp:156] Memory required for data: 9019600
I0712 17:19:56.529326 13346 layer_factory.hpp:77] Creating layer conv1_p
I0712 17:19:56.529343 13346 net.cpp:91] Creating Layer conv1_p
I0712 17:19:56.529355 13346 net.cpp:425] conv1_p <- data_p
I0712 17:19:56.529367 13346 net.cpp:399] conv1_p -> conv1_p
I0712 17:19:56.529402 13346 net.cpp:141] Setting up conv1_p
I0712 17:19:56.529443 13346 net.cpp:148] Top shape: 100 20 24 24 (1152000)
I0712 17:19:56.529459 13346 net.cpp:156] Memory required for data: 13627600
I0712 17:19:56.529471 13346 net.cpp:484] Sharing parameters 'conv1_w' owned by layer 'conv1', param index 0
I0712 17:19:56.529482 13346 net.cpp:484] Sharing parameters 'conv1_b' owned by layer 'conv1', param index 1
I0712 17:19:56.529494 13346 layer_factory.hpp:77] Creating layer pool1_p
I0712 17:19:56.529510 13346 net.cpp:91] Creating Layer pool1_p
I0712 17:19:56.529521 13346 net.cpp:425] pool1_p <- conv1_p
I0712 17:19:56.529534 13346 net.cpp:399] pool1_p -> pool1_p
I0712 17:19:56.529551 13346 net.cpp:141] Setting up pool1_p
I0712 17:19:56.529619 13346 net.cpp:148] Top shape: 100 20 12 12 (288000)
I0712 17:19:56.529633 13346 net.cpp:156] Memory required for data: 14779600
I0712 17:19:56.529644 13346 layer_factory.hpp:77] Creating layer conv2_p
I0712 17:19:56.529662 13346 net.cpp:91] Creating Layer conv2_p
I0712 17:19:56.529675 13346 net.cpp:425] conv2_p <- pool1_p
I0712 17:19:56.529688 13346 net.cpp:399] conv2_p -> conv2_p
I0712 17:19:56.529899 13346 net.cpp:141] Setting up conv2_p
I0712 17:19:56.529917 13346 net.cpp:148] Top shape: 100 50 8 8 (320000)
I0712 17:19:56.529934 13346 net.cpp:156] Memory required for data: 16059600
I0712 17:19:56.529958 13346 net.cpp:484] Sharing parameters 'conv2_w' owned by layer 'conv2', param index 0
I0712 17:19:56.529969 13346 net.cpp:484] Sharing parameters 'conv2_b' owned by layer 'conv2', param index 1
I0712 17:19:56.529979 13346 layer_factory.hpp:77] Creating layer pool2_p
I0712 17:19:56.529994 13346 net.cpp:91] Creating Layer pool2_p
I0712 17:19:56.530004 13346 net.cpp:425] pool2_p <- conv2_p
I0712 17:19:56.530016 13346 net.cpp:399] pool2_p -> pool2_p
I0712 17:19:56.530035 13346 net.cpp:141] Setting up pool2_p
I0712 17:19:56.530047 13346 net.cpp:148] Top shape: 100 50 4 4 (80000)
I0712 17:19:56.530056 13346 net.cpp:156] Memory required for data: 16379600
I0712 17:19:56.530066 13346 layer_factory.hpp:77] Creating layer ip1_p
I0712 17:19:56.530079 13346 net.cpp:91] Creating Layer ip1_p
I0712 17:19:56.530091 13346 net.cpp:425] ip1_p <- pool2_p
I0712 17:19:56.530104 13346 net.cpp:399] ip1_p -> ip1_p
I0712 17:19:56.539930 13346 net.cpp:141] Setting up ip1_p
I0712 17:19:56.540086 13346 net.cpp:148] Top shape: 100 500 (50000)
I0712 17:19:56.540143 13346 net.cpp:156] Memory required for data: 16579600
I0712 17:19:56.540180 13346 net.cpp:484] Sharing parameters 'ip1_w' owned by layer 'ip1', param index 0
I0712 17:19:56.540215 13346 net.cpp:484] Sharing parameters 'ip1_b' owned by layer 'ip1', param index 1
I0712 17:19:56.540242 13346 layer_factory.hpp:77] Creating layer relu1_p
I0712 17:19:56.540266 13346 net.cpp:91] Creating Layer relu1_p
I0712 17:19:56.540282 13346 net.cpp:425] relu1_p <- ip1_p
I0712 17:19:56.540302 13346 net.cpp:386] relu1_p -> ip1_p (in-place)
I0712 17:19:56.540326 13346 net.cpp:141] Setting up relu1_p
I0712 17:19:56.540345 13346 net.cpp:148] Top shape: 100 500 (50000)
I0712 17:19:56.540359 13346 net.cpp:156] Memory required for data: 16779600
I0712 17:19:56.540374 13346 layer_factory.hpp:77] Creating layer ip2_p
I0712 17:19:56.540412 13346 net.cpp:91] Creating Layer ip2_p
I0712 17:19:56.540431 13346 net.cpp:425] ip2_p <- ip1_p
I0712 17:19:56.540452 13346 net.cpp:399] ip2_p -> ip2_p
I0712 17:19:56.540607 13346 net.cpp:141] Setting up ip2_p
I0712 17:19:56.540671 13346 net.cpp:148] Top shape: 100 10 (1000)
I0712 17:19:56.540702 13346 net.cpp:156] Memory required for data: 16783600
I0712 17:19:56.540743 13346 net.cpp:484] Sharing parameters 'ip2_w' owned by layer 'ip2', param index 0
I0712 17:19:56.540778 13346 net.cpp:484] Sharing parameters 'ip2_b' owned by layer 'ip2', param index 1
I0712 17:19:56.540805 13346 layer_factory.hpp:77] Creating layer feat_p
I0712 17:19:56.540843 13346 net.cpp:91] Creating Layer feat_p
I0712 17:19:56.540877 13346 net.cpp:425] feat_p <- ip2_p
I0712 17:19:56.540911 13346 net.cpp:399] feat_p -> feat_p
I0712 17:19:56.540980 13346 net.cpp:141] Setting up feat_p
I0712 17:19:56.541019 13346 net.cpp:148] Top shape: 100 2 (200)
I0712 17:19:56.541043 13346 net.cpp:156] Memory required for data: 16784400
I0712 17:19:56.541066 13346 net.cpp:484] Sharing parameters 'feat_w' owned by layer 'feat', param index 0
I0712 17:19:56.541091 13346 net.cpp:484] Sharing parameters 'feat_b' owned by layer 'feat', param index 1
I0712 17:19:56.541116 13346 layer_factory.hpp:77] Creating layer loss
I0712 17:19:56.541146 13346 net.cpp:91] Creating Layer loss
…
