…
I0922 13:33:01.031898 12885 net.cpp:313] The NetState phase (0) differed from the phase (1) specified by a rule in layer pair_data
I0922 13:33:01.032157 12885 net.cpp:49] Initializing net from parameters: 
name: "mnist_siamese_train_test_sim"
state {
  phase: TRAIN
}
layer {
  name: "pair_data"
  type: "Data"
  top: "pair_data"
  top: "label"
  include {
    phase: TRAIN
  }
  transform_param {
    scale: 0.00390625
  }
  data_param {
    source: "/home/shaogang/caffe/examples/siamese/mnist_siamese_train_leveldb_0to4"
    batch_size: 64
    backend: LEVELDB
  }
}
layer {
  name: "slice_pair"
  type: "Slice"
  bottom: "pair_data"
  top: "data"
  top: "data_p"
  slice_param {
    slice_dim: 1
    slice_point: 1
  }
}
layer {
  name: "conv1"
  type: "Convolution"
  bottom: "data"
  top: "conv1"
  param {
    name: "conv1_w"
    lr_mult: 1
  }
  param {
    name: "conv1_b"
    lr_mult: 2
  }
  convolution_param {
    num_output: 20
    kernel_size: 5
    stride: 1
    weight_filler {
      type: "xavier"
    }
    bias_filler {
      type: "constant"
    }
  }
}
layer {
  name: "pool1"
  type: "Pooling"
  bottom: "conv1"
  top: "pool1"
  pooling_param {
    pool: MAX
    kernel_size: 2
    stride: 2
  }
}
layer {
  name: "conv2"
  type: "Convolution"
  bottom: "pool1"
  top: "conv2"
  param {
    name: "conv2_w"
    lr_mult: 1
  }
  param {
    name: "conv2_b"
    lr_mult: 2
  }
  convolution_param {
    num_output: 50
    kernel_size: 5
    stride: 1
    weight_filler {
      type: "xavier"
    }
    bias_filler {
      type: "constant"
    }
  }
}
layer {
  name: "pool2"
  type: "Pooling"
  bottom: "conv2"
  top: "pool2"
  pooling_param {
    pool: MAX
    kernel_size: 2
    stride: 2
  }
}
layer {
  name: "ip1"
  type: "InnerProduct"
  bottom: "pool2"
  top: "ip1"
  param {
    name: "ip1_w"
    lr_mult: 1
  }
  param {
    name: "ip1_b"
    lr_mult: 2
  }
  inner_product_param {
    num_output: 500
    weight_filler {
      type: "xavier"
    }
    bias_filler {
      type: "constant"
    }
  }
}
layer {
  name: "relu1"
  type: "ReLU"
  bottom: "ip1"
  top: "ip1"
}
layer {
  name: "ip2"
  type: "InnerProduct"
  bottom: "ip1"
  top: "ip2"
  param {
    name: "ip2_w"
    lr_mult: 1
  }
  param {
    name: "ip2_b"
    lr_mult: 2
  }
  inner_product_param {
    num_output: 10
    weight_filler {
      type: "xavier"
    }
    bias_filler {
      type: "constant"
    }
  }
}
layer {
  name: "feat"
  type: "InnerProduct"
  bottom: "ip2"
  top: "feat"
  param {
    name: "feat_w"
    lr_mult: 1
  }
  param {
    name: "feat_b"
    lr_mult: 2
  }
  inner_product_param {
    num_output: 2
    weight_filler {
      type: "xavier"
    }
    bias_filler {
      type: "constant"
    }
  }
}
layer {
  name: "conv1_p"
  type: "Convolution"
  bottom: "data_p"
  top: "conv1_p"
  param {
    name: "conv1_w"
    lr_mult: 1
  }
  param {
    name: "conv1_b"
    lr_mult: 2
  }
  convolution_param {
    num_output: 20
    kernel_size: 5
    stride: 1
    weight_filler {
      type: "xavier"
    }
    bias_filler {
      type: "constant"
    }
  }
}
layer {
  name: "pool1_p"
  type: "Pooling"
  bottom: "conv1_p"
  top: "pool1_p"
  pooling_param {
    pool: MAX
    kernel_size: 2
    stride: 2
  }
}
layer {
  name: "conv2_p"
  type: "Convolution"
  bottom: "pool1_p"
  top: "conv2_p"
  param {
    name: "conv2_w"
    lr_mult: 1
  }
  param {
    name: "conv2_b"
    lr_mult: 2
  }
  convolution_param {
    num_output: 50
    kernel_size: 5
    stride: 1
    weight_filler {
      type: "xavier"
    }
    bias_filler {
      type: "constant"
    }
  }
}
layer {
  name: "pool2_p"
  type: "Pooling"
  bottom: "conv2_p"
  top: "pool2_p"
  pooling_param {
    pool: MAX
    kernel_size: 2
    stride: 2
  }
}
layer {
  name: "ip1_p"
  type: "InnerProduct"
  bottom: "pool2_p"
  top: "ip1_p"
  param {
    name: "ip1_w"
    lr_mult: 1
  }
  param {
    name: "ip1_b"
    lr_mult: 2
  }
  inner_product_param {
    num_output: 500
    weight_filler {
      type: "xavier"
    }
    bias_filler {
      type: "constant"
    }
  }
}
layer {
  name: "relu1_p"
  type: "ReLU"
  bottom: "ip1_p"
  top: "ip1_p"
}
layer {
  name: "ip2_p"
  type: "InnerProduct"
  bottom: "ip1_p"
  top: "ip2_p"
  param {
    name: "ip2_w"
    lr_mult: 1
  }
  param {
    name: "ip2_b"
    lr_mult: 2
  }
  inner_product_param {
    num_output: 10
    weight_filler {
      type: "xavier"
    }
    bias_filler {
      type: "constant"
    }
  }
}
layer {
  name: "feat_p"
  type: "InnerProduct"
  bottom: "ip2_p"
  top: "feat_p"
  param {
    name: "feat_w"
    lr_mult: 1
  }
  param {
    name: "feat_b"
    lr_mult: 2
  }
  inner_product_param {
    num_output: 2
    weight_filler {
      type: "xavier"
    }
    bias_filler {
      type: "constant"
    }
  }
}
layer {
  name: "concat"
  type: "Concat"
  bottom: "feat"
  bottom: "feat_p"
  top: "comb"
  concat_param {
    axis: 1
  }
}
layer {
  name: "fc1"
  type: "InnerProduct"
  bottom: "comb"
  top: "fc1"
  param {
    name: "fc1_w"
    lr_mult: 1
  }
  param {
    name: "fc1_b"
    lr_mult: 2
  }
  inner_product_param {
    num_output: 100
    weight_filler {
      type: "xavier"
    }
    bias_filler {
      type: "constant"
    }
  }
}
layer {
  name: "relu1_fc1"
  type: "ReLU"
  bottom: "fc1"
  top: "fc1"
}
layer {
  name: "fc2"
  type: "InnerProduct"
  bottom: "fc1"
  top: "fc2"
  param {
    name: "fc2_w"
    lr_mult: 1
  }
  param {
    name: "fc2_b"
    lr_mult: 2
  }
  inner_product_param {
    num_output: 50
    weight_filler {
      type: "xavier"
    }
    bias_filler {
      type: "constant"
    }
  }
}
layer {
  name: "relu2_fc2"
  type: "ReLU"
  bottom: "fc2"
  top: "fc2"
}
layer {
  name: "fc3"
  type: "InnerProduct"
  bottom: "fc2"
  top: "fc3"
  param {
    name: "fc3_w"
    lr_mult: 1
  }
  param {
    name: "fc3_b"
    lr_mult: 2
  }
  inner_product_param {
    num_output: 2
    weight_filler {
      type: "xavier"
    }
    bias_filler {
      type: "constant"
    }
  }
}
layer {
  name: "loss"
  type: "SoftmaxWithLoss"
  bottom: "fc3"
  bottom: "label"
  top: "loss"
}
layer {
  name: "accuracy"
  type: "Accuracy"
  bottom: "fc3"
  bottom: "label"
  top: "accuracy"
}
I0922 13:33:01.033635 12885 layer_factory.hpp:77] Creating layer pair_data
I0922 13:33:01.034500 12885 net.cpp:91] Creating Layer pair_data
I0922 13:33:01.034617 12885 net.cpp:399] pair_data -> pair_data
I0922 13:33:01.034698 12885 net.cpp:399] pair_data -> label
I0922 13:33:01.062780 12889 db_leveldb.cpp:18] Opened leveldb /home/shaogang/caffe/examples/siamese/mnist_siamese_train_leveldb_0to4
I0922 13:33:01.070611 12885 data_layer.cpp:41] output data size: 64,2,28,28
I0922 13:33:01.082447 12885 net.cpp:141] Setting up pair_data
I0922 13:33:01.082532 12885 net.cpp:148] Top shape: 64 2 28 28 (100352)
I0922 13:33:01.082551 12885 net.cpp:148] Top shape: 64 (64)
I0922 13:33:01.082563 12885 net.cpp:156] Memory required for data: 401664
I0922 13:33:01.082584 12885 layer_factory.hpp:77] Creating layer label_pair_data_1_split
I0922 13:33:01.082607 12885 net.cpp:91] Creating Layer label_pair_data_1_split
I0922 13:33:01.082626 12885 net.cpp:425] label_pair_data_1_split <- label
I0922 13:33:01.082659 12885 net.cpp:399] label_pair_data_1_split -> label_pair_data_1_split_0
I0922 13:33:01.082698 12885 net.cpp:399] label_pair_data_1_split -> label_pair_data_1_split_1
I0922 13:33:01.082758 12885 net.cpp:141] Setting up label_pair_data_1_split
I0922 13:33:01.082784 12885 net.cpp:148] Top shape: 64 (64)
I0922 13:33:01.082798 12885 net.cpp:148] Top shape: 64 (64)
I0922 13:33:01.082808 12885 net.cpp:156] Memory required for data: 402176
I0922 13:33:01.082828 12885 layer_factory.hpp:77] Creating layer slice_pair
I0922 13:33:01.082864 12885 net.cpp:91] Creating Layer slice_pair
I0922 13:33:01.082876 12885 net.cpp:425] slice_pair <- pair_data
I0922 13:33:01.082892 12885 net.cpp:399] slice_pair -> data
I0922 13:33:01.082911 12885 net.cpp:399] slice_pair -> data_p
I0922 13:33:01.082933 12885 net.cpp:141] Setting up slice_pair
I0922 13:33:01.082949 12885 net.cpp:148] Top shape: 64 1 28 28 (50176)
I0922 13:33:01.082962 12885 net.cpp:148] Top shape: 64 1 28 28 (50176)
I0922 13:33:01.082978 12885 net.cpp:156] Memory required for data: 803584
I0922 13:33:01.082998 12885 layer_factory.hpp:77] Creating layer conv1
I0922 13:33:01.083029 12885 net.cpp:91] Creating Layer conv1
I0922 13:33:01.083041 12885 net.cpp:425] conv1 <- data
I0922 13:33:01.083060 12885 net.cpp:399] conv1 -> conv1
I0922 13:33:01.083122 12885 net.cpp:141] Setting up conv1
I0922 13:33:01.083139 12885 net.cpp:148] Top shape: 64 20 24 24 (737280)
I0922 13:33:01.083150 12885 net.cpp:156] Memory required for data: 3752704
I0922 13:33:01.083170 12885 layer_factory.hpp:77] Creating layer pool1
I0922 13:33:01.083204 12885 net.cpp:91] Creating Layer pool1
I0922 13:33:01.083220 12885 net.cpp:425] pool1 <- conv1
I0922 13:33:01.083289 12885 net.cpp:399] pool1 -> pool1
I0922 13:33:01.083366 12885 net.cpp:141] Setting up pool1
I0922 13:33:01.083397 12885 net.cpp:148] Top shape: 64 20 12 12 (184320)
I0922 13:33:01.083420 12885 net.cpp:156] Memory required for data: 4489984
I0922 13:33:01.083441 12885 layer_factory.hpp:77] Creating layer conv2
I0922 13:33:01.083638 12885 net.cpp:91] Creating Layer conv2
I0922 13:33:01.083669 12885 net.cpp:425] conv2 <- pool1
I0922 13:33:01.083691 12885 net.cpp:399] conv2 -> conv2
I0922 13:33:01.085191 12885 net.cpp:141] Setting up conv2
I0922 13:33:01.085275 12885 net.cpp:148] Top shape: 64 50 8 8 (204800)
I0922 13:33:01.085300 12885 net.cpp:156] Memory required for data: 5309184
I0922 13:33:01.085327 12885 layer_factory.hpp:77] Creating layer pool2
I0922 13:33:01.085350 12885 net.cpp:91] Creating Layer pool2
I0922 13:33:01.085367 12885 net.cpp:425] pool2 <- conv2
I0922 13:33:01.085386 12885 net.cpp:399] pool2 -> pool2
I0922 13:33:01.085412 12885 net.cpp:141] Setting up pool2
I0922 13:33:01.085429 12885 net.cpp:148] Top shape: 64 50 4 4 (51200)
I0922 13:33:01.085444 12885 net.cpp:156] Memory required for data: 5513984
I0922 13:33:01.085458 12885 layer_factory.hpp:77] Creating layer ip1
I0922 13:33:01.085603 12885 net.cpp:91] Creating Layer ip1
I0922 13:33:01.085908 12885 net.cpp:425] ip1 <- pool2
I0922 13:33:01.085942 12885 net.cpp:399] ip1 -> ip1
I0922 13:33:01.089097 12885 net.cpp:141] Setting up ip1
I0922 13:33:01.089232 12885 net.cpp:148] Top shape: 64 500 (32000)
I0922 13:33:01.089303 12885 net.cpp:156] Memory required for data: 5641984
I0922 13:33:01.089373 12885 layer_factory.hpp:77] Creating layer relu1
I0922 13:33:01.089448 12885 net.cpp:91] Creating Layer relu1
I0922 13:33:01.089512 12885 net.cpp:425] relu1 <- ip1
I0922 13:33:01.089560 12885 net.cpp:386] relu1 -> ip1 (in-place)
I0922 13:33:01.089583 12885 net.cpp:141] Setting up relu1
I0922 13:33:01.089601 12885 net.cpp:148] Top shape: 64 500 (32000)
I0922 13:33:01.089615 12885 net.cpp:156] Memory required for data: 5769984
I0922 13:33:01.089637 12885 layer_factory.hpp:77] Creating layer ip2
I0922 13:33:01.089661 12885 net.cpp:91] Creating Layer ip2
I0922 13:33:01.089678 12885 net.cpp:425] ip2 <- ip1
I0922 13:33:01.089696 12885 net.cpp:399] ip2 -> ip2
I0922 13:33:01.089763 12885 net.cpp:141] Setting up ip2
I0922 13:33:01.089782 12885 net.cpp:148] Top shape: 64 10 (640)
I0922 13:33:01.089795 12885 net.cpp:156] Memory required for data: 5772544
I0922 13:33:01.089812 12885 layer_factory.hpp:77] Creating layer feat
I0922 13:33:01.089831 12885 net.cpp:91] Creating Layer feat
I0922 13:33:01.089846 12885 net.cpp:425] feat <- ip2
I0922 13:33:01.089864 12885 net.cpp:399] feat -> feat
I0922 13:33:01.089889 12885 net.cpp:141] Setting up feat
I0922 13:33:01.089906 12885 net.cpp:148] Top shape: 64 2 (128)
I0922 13:33:01.089920 12885 net.cpp:156] Memory required for data: 5773056
I0922 13:33:01.089956 12885 layer_factory.hpp:77] Creating layer conv1_p
I0922 13:33:01.089982 12885 net.cpp:91] Creating Layer conv1_p
I0922 13:33:01.089999 12885 net.cpp:425] conv1_p <- data_p
I0922 13:33:01.090016 12885 net.cpp:399] conv1_p -> conv1_p
I0922 13:33:01.090061 12885 net.cpp:141] Setting up conv1_p
I0922 13:33:01.090081 12885 net.cpp:148] Top shape: 64 20 24 24 (737280)
I0922 13:33:01.090095 12885 net.cpp:156] Memory required for data: 8722176
I0922 13:33:01.090111 12885 net.cpp:484] Sharing parameters 'conv1_w' owned by layer 'conv1', param index 0
I0922 13:33:01.090126 12885 net.cpp:484] Sharing parameters 'conv1_b' owned by layer 'conv1', param index 1
I0922 13:33:01.090142 12885 layer_factory.hpp:77] Creating layer pool1_p
I0922 13:33:01.090159 12885 net.cpp:91] Creating Layer pool1_p
I0922 13:33:01.090174 12885 net.cpp:425] pool1_p <- conv1_p
I0922 13:33:01.090190 12885 net.cpp:399] pool1_p -> pool1_p
I0922 13:33:01.090214 12885 net.cpp:141] Setting up pool1_p
I0922 13:33:01.090230 12885 net.cpp:148] Top shape: 64 20 12 12 (184320)
I0922 13:33:01.090245 12885 net.cpp:156] Memory required for data: 9459456
I0922 13:33:01.090258 12885 layer_factory.hpp:77] Creating layer conv2_p
I0922 13:33:01.090278 12885 net.cpp:91] Creating Layer conv2_p
I0922 13:33:01.090294 12885 net.cpp:425] conv2_p <- pool1_p
I0922 13:33:01.090312 12885 net.cpp:399] conv2_p -> conv2_p
I0922 13:33:01.090536 12885 net.cpp:141] Setting up conv2_p
I0922 13:33:01.090559 12885 net.cpp:148] Top shape: 64 50 8 8 (204800)
I0922 13:33:01.090574 12885 net.cpp:156] Memory required for data: 10278656
I0922 13:33:01.090589 12885 net.cpp:484] Sharing parameters 'conv2_w' owned by layer 'conv2', param index 0
I0922 13:33:01.090605 12885 net.cpp:484] Sharing parameters 'conv2_b' owned by layer 'conv2', param index 1
I0922 13:33:01.090620 12885 layer_factory.hpp:77] Creating layer pool2_p
I0922 13:33:01.090636 12885 net.cpp:91] Creating Layer pool2_p
I0922 13:33:01.090651 12885 net.cpp:425] pool2_p <- conv2_p
I0922 13:33:01.090669 12885 net.cpp:399] pool2_p -> pool2_p
I0922 13:33:01.090692 12885 net.cpp:141] Setting up pool2_p
I0922 13:33:01.090709 12885 net.cpp:148] Top shape: 64 50 4 4 (51200)
I0922 13:33:01.090723 12885 net.cpp:156] Memory required for data: 10483456
I0922 13:33:01.090736 12885 layer_factory.hpp:77] Creating layer ip1_p
I0922 13:33:01.090755 12885 net.cpp:91] Creating Layer ip1_p
I0922 13:33:01.090770 12885 net.cpp:425] ip1_p <- pool2_p
I0922 13:33:01.090790 12885 net.cpp:399] ip1_p -> ip1_p
I0922 13:33:01.094519 12885 net.cpp:141] Setting up ip1_p
I0922 13:33:01.094811 12885 net.cpp:148] Top shape: 64 500 (32000)
I0922 13:33:01.094895 12885 net.cpp:156] Memory required for data: 10611456
I0922 13:33:01.095003 12885 net.cpp:484] Sharing parameters 'ip1_w' owned by layer 'ip1', param index 0
I0922 13:33:01.095149 12885 net.cpp:484] Sharing parameters 'ip1_b' owned by layer 'ip1', param index 1
I0922 13:33:01.095252 12885 layer_factory.hpp:77] Creating layer relu1_p
I0922 13:33:01.095532 12885 net.cpp:91] Creating Layer relu1_p
I0922 13:33:01.095885 12885 net.cpp:425] relu1_p <- ip1_p
I0922 13:33:01.096042 12885 net.cpp:386] relu1_p -> ip1_p (in-place)
I0922 13:33:01.096078 12885 net.cpp:141] Setting up relu1_p
I0922 13:33:01.096104 12885 net.cpp:148] Top shape: 64 500 (32000)
I0922 13:33:01.096123 12885 net.cpp:156] Memory required for data: 10739456
I0922 13:33:01.096144 12885 layer_factory.hpp:77] Creating layer ip2_p
I0922 13:33:01.096171 12885 net.cpp:91] Creating Layer ip2_p
I0922 13:33:01.096187 12885 net.cpp:425] ip2_p <- ip1_p
I0922 13:33:01.096220 12885 net.cpp:399] ip2_p -> ip2_p
I0922 13:33:01.096324 12885 net.cpp:141] Setting up ip2_p
I0922 13:33:01.096395 12885 net.cpp:148] Top shape: 64 10 (640)
I0922 13:33:01.096418 12885 net.cpp:156] Memory required for data: 10742016
I0922 13:33:01.096472 12885 net.cpp:484] Sharing parameters 'ip2_w' owned by layer 'ip2', param index 0
I0922 13:33:01.096498 12885 net.cpp:484] Sharing parameters 'ip2_b' owned by layer 'ip2', param index 1
I0922 13:33:01.096527 12885 layer_factory.hpp:77] Creating layer feat_p
I0922 13:33:01.096570 12885 net.cpp:91] Creating Layer feat_p
I0922 13:33:01.096590 12885 net.cpp:425] feat_p <- ip2_p
I0922 13:33:01.096626 12885 net.cpp:399] feat_p -> feat_p
I0922 13:33:01.096680 12885 net.cpp:141] Setting up feat_p
I0922 13:33:01.096700 12885 net.cpp:148] Top shape: 64 2 (128)
I0922 13:33:01.096717 12885 net.cpp:156] Memory required for data: 10742528
I0922 13:33:01.096748 12885 net.cpp:484] Sharing parameters 'feat_w' owned by layer 'feat', param index 0
I0922 13:33:01.096781 12885 net.cpp:484] Sharing parameters 'feat_b' owned by layer 'feat', param index 1
I0922 13:33:01.096814 12885 layer_factory.hpp:77] Creating layer concat
I0922 13:33:01.096896 12885 net.cpp:91] Creating Layer concat
I0922 13:33:01.096935 12885 net.cpp:425] concat <- feat
I0922 13:33:01.096964 12885 net.cpp:425] concat <- feat_p
I0922 13:33:01.096989 12885 net.cpp:399] concat -> comb
I0922 13:33:01.097024 12885 net.cpp:141] Setting up concat
I0922 13:33:01.097050 12885 net.cpp:148] Top shape: 64 4 (256)
I0922 13:33:01.097069 12885 net.cpp:156] Memory required for data: 10743552
I0922 13:33:01.097085 12885 layer_factory.hpp:77] Creating layer fc1
I0922 13:33:01.097112 12885 net.cpp:91] Creating Layer fc1
I0922 13:33:01.097132 12885 net.cpp:425] fc1 <- comb
I0922 13:33:01.097152 12885 net.cpp:399] fc1 -> fc1
I0922 13:33:01.097190 12885 net.cpp:141] Setting up fc1
I0922 13:33:01.097239 12885 net.cpp:148] Top shape: 64 100 (6400)
I0922 13:33:01.097270 12885 net.cpp:156] Memory required for data: 10769152
I0922 13:33:01.097309 12885 layer_factory.hpp:77] Creating layer relu1_fc1
I0922 13:33:01.097357 12885 net.cpp:91] Creating Layer relu1_fc1
I0922 13:33:01.097381 12885 net.cpp:425] relu1_fc1 <- fc1
I0922 13:33:01.097425 12885 net.cpp:386] relu1_fc1 -> fc1 (in-place)
I0922 13:33:01.097455 12885 net.cpp:141] Setting up relu1_fc1
I0922 13:33:01.097476 12885 net.cpp:148] Top shape: 64 100 (6400)
I0922 13:33:01.097494 12885 net.cpp:156] Memory required for data: 10794752
I0922 13:33:01.097513 12885 layer_factory.hpp:77] Creating layer fc2
I0922 13:33:01.097543 12885 net.cpp:91] Creating Layer fc2
I0922 13:33:01.097561 12885 net.cpp:425] fc2 <- fc1
I0922 13:33:01.097592 12885 net.cpp:399] fc2 -> fc2
I0922 13:33:01.097684 12885 net.cpp:141] Setting up fc2
I0922 13:33:01.097741 12885 net.cpp:148] Top shape: 64 50 (3200)
I0922 13:33:01.097771 12885 net.cpp:156] Memory required for data: 10807552
I0922 13:33:01.097816 12885 layer_factory.hpp:77] Creating layer relu2_fc2
I0922 13:33:01.097851 12885 net.cpp:91] Creating Layer relu2_fc2
I0922 13:33:01.097885 12885 net.cpp:425] relu2_fc2 <- fc2
I0922 13:33:01.097919 12885 net.cpp:386] relu2_fc2 -> fc2 (in-place)
I0922 13:33:01.097944 12885 net.cpp:141] Setting up relu2_fc2
I0922 13:33:01.097965 12885 net.cpp:148] Top shape: 64 50 (3200)
I0922 13:33:01.097983 12885 net.cpp:156] Memory required for data: 10820352
I0922 13:33:01.098002 12885 layer_factory.hpp:77] Creating layer fc3
I0922 13:33:01.098023 12885 net.cpp:91] Creating Layer fc3
I0922 13:33:01.098042 12885 net.cpp:425] fc3 <- fc2
I0922 13:33:01.098062 12885 net.cpp:399] fc3 -> fc3
I0922 13:33:01.098105 12885 net.cpp:141] Setting up fc3
I0922 13:33:01.098126 12885 net.cpp:148] Top shape: 64 2 (128)
I0922 13:33:01.098145 12885 net.cpp:156] Memory required for data: 10820864
I0922 13:33:01.098184 12885 layer_factory.hpp:77] Creating layer fc3_fc3_0_split
I0922 13:33:01.098223 12885 net.cpp:91] Creating Layer fc3_fc3_0_split
I0922 13:33:01.098251 12885 net.cpp:425] fc3_fc3_0_split <- fc3
I0922 13:33:01.098287 12885 net.cpp:399] fc3_fc3_0_split -> fc3_fc3_0_split_0
I0922 13:33:01.098315 12885 net.cpp:399] fc3_fc3_0_split -> fc3_fc3_0_split_1
I0922 13:33:01.098357 12885 net.cpp:141] Setting up fc3_fc3_0_split
I0922 13:33:01.098381 12885 net.cpp:148] Top shape: 64 2 (128)
I0922 13:33:01.098398 12885 net.cpp:148] Top shape: 64 2 (128)
I0922 13:33:01.098415 12885 net.cpp:156] Memory required for data: 10821888
I0922 13:33:01.098434 12885 layer_factory.hpp:77] Creating layer loss
I0922 13:33:01.098466 12885 net.cpp:91] Creating Layer loss
I0922 13:33:01.098497 12885 net.cpp:425] loss <- fc3_fc3_0_split_0
I0922 13:33:01.098516 12885 net.cpp:425] loss <- label_pair_data_1_split_0
I0922 13:33:01.098539 12885 net.cpp:399] loss -> loss
…
I0922 13:33:01.108511 12885 net.cpp:313] The NetState phase (1) differed from the phase (0) specified by a rule in layer pair_data
I0922 13:33:01.108868 12885 net.cpp:49] Initializing net from parameters: 
name: "mnist_siamese_train_test_sim"
state {
  phase: TEST
}
layer {
  name: "pair_data"
  type: "Data"
  top: "pair_data"
  top: "label"
  include {
    phase: TEST
  }
  transform_param {
    scale: 0.00390625
  }
  data_param {
    source: "/home/shaogang/caffe/examples/siamese/mnist_siamese_test_leveldb_89"
    batch_size: 100
    backend: LEVELDB
  }
}
layer {
  name: "slice_pair"
  type: "Slice"
  bottom: "pair_data"
  top: "data"
  top: "data_p"
  slice_param {
    slice_dim: 1
    slice_point: 1
  }
}
layer {
  name: "conv1"
  type: "Convolution"
  bottom: "data"
  top: "conv1"
  param {
    name: "conv1_w"
    lr_mult: 1
  }
  param {
    name: "conv1_b"
    lr_mult: 2
  }
  convolution_param {
    num_output: 20
    kernel_size: 5
    stride: 1
    weight_filler {
      type: "xavier"
    }
    bias_filler {
      type: "constant"
    }
  }
}
layer {
  name: "pool1"
  type: "Pooling"
  bottom: "conv1"
  top: "pool1"
  pooling_param {
    pool: MAX
    kernel_size: 2
    stride: 2
  }
}
layer {
  name: "conv2"
  type: "Convolution"
  bottom: "pool1"
  top: "conv2"
  param {
    name: "conv2_w"
    lr_mult: 1
  }
  param {
    name: "conv2_b"
    lr_mult: 2
  }
  convolution_param {
    num_output: 50
    kernel_size: 5
    stride: 1
    weight_filler {
      type: "xavier"
    }
    bias_filler {
      type: "constant"
    }
  }
}
layer {
  name: "pool2"
  type: "Pooling"
  bottom: "conv2"
  top: "pool2"
  pooling_param {
    pool: MAX
    kernel_size: 2
    stride: 2
  }
}
layer {
  name: "ip1"
  type: "InnerProduct"
  bottom: "pool2"
  top: "ip1"
  param {
    name: "ip1_w"
    lr_mult: 1
  }
  param {
    name: "ip1_b"
    lr_mult: 2
  }
  inner_product_param {
    num_output: 500
    weight_filler {
      type: "xavier"
    }
    bias_filler {
      type: "constant"
    }
  }
}
layer {
  name: "relu1"
  type: "ReLU"
  bottom: "ip1"
  top: "ip1"
}
layer {
  name: "ip2"
  type: "InnerProduct"
  bottom: "ip1"
  top: "ip2"
  param {
    name: "ip2_w"
    lr_mult: 1
  }
  param {
    name: "ip2_b"
    lr_mult: 2
  }
  inner_product_param {
    num_output: 10
    weight_filler {
      type: "xavier"
    }
    bias_filler {
      type: "constant"
    }
  }
}
layer {
  name: "feat"
  type: "InnerProduct"
  bottom: "ip2"
  top: "feat"
  param {
    name: "feat_w"
    lr_mult: 1
  }
  param {
    name: "feat_b"
    lr_mult: 2
  }
  inner_product_param {
    num_output: 2
    weight_filler {
      type: "xavier"
    }
    bias_filler {
      type: "constant"
    }
  }
}
layer {
  name: "conv1_p"
  type: "Convolution"
  bottom: "data_p"
  top: "conv1_p"
  param {
    name: "conv1_w"
    lr_mult: 1
  }
  param {
    name: "conv1_b"
    lr_mult: 2
  }
  convolution_param {
    num_output: 20
    kernel_size: 5
    stride: 1
    weight_filler {
      type: "xavier"
    }
    bias_filler {
      type: "constant"
    }
  }
}
layer {
  name: "pool1_p"
  type: "Pooling"
  bottom: "conv1_p"
  top: "pool1_p"
  pooling_param {
    pool: MAX
    kernel_size: 2
    stride: 2
  }
}
layer {
  name: "conv2_p"
  type: "Convolution"
  bottom: "pool1_p"
  top: "conv2_p"
  param {
    name: "conv2_w"
    lr_mult: 1
  }
  param {
    name: "conv2_b"
    lr_mult: 2
  }
  convolution_param {
    num_output: 50
    kernel_size: 5
    stride: 1
    weight_filler {
      type: "xavier"
    }
    bias_filler {
      type: "constant"
    }
  }
}
layer {
  name: "pool2_p"
  type: "Pooling"
  bottom: "conv2_p"
  top: "pool2_p"
  pooling_param {
    pool: MAX
    kernel_size: 2
    stride: 2
  }
}
layer {
  name: "ip1_p"
  type: "InnerProduct"
  bottom: "pool2_p"
  top: "ip1_p"
  param {
    name: "ip1_w"
    lr_mult: 1
  }
  param {
    name: "ip1_b"
    lr_mult: 2
  }
  inner_product_param {
    num_output: 500
    weight_filler {
      type: "xavier"
    }
    bias_filler {
      type: "constant"
    }
  }
}
layer {
  name: "relu1_p"
  type: "ReLU"
  bottom: "ip1_p"
  top: "ip1_p"
}
layer {
  name: "ip2_p"
  type: "InnerProduct"
  bottom: "ip1_p"
  top: "ip2_p"
  param {
    name: "ip2_w"
    lr_mult: 1
  }
  param {
    name: "ip2_b"
    lr_mult: 2
  }
  inner_product_param {
    num_output: 10
    weight_filler {
      type: "xavier"
    }
    bias_filler {
      type: "constant"
    }
  }
}
layer {
  name: "feat_p"
  type: "InnerProduct"
  bottom: "ip2_p"
  top: "feat_p"
  param {
    name: "feat_w"
    lr_mult: 1
  }
  param {
    name: "feat_b"
    lr_mult: 2
  }
  inner_product_param {
    num_output: 2
    weight_filler {
      type: "xavier"
    }
    bias_filler {
      type: "constant"
    }
  }
}
layer {
  name: "concat"
  type: "Concat"
  bottom: "feat"
  bottom: "feat_p"
  top: "comb"
  concat_param {
    axis: 1
  }
}
layer {
  name: "fc1"
  type: "InnerProduct"
  bottom: "comb"
  top: "fc1"
  param {
    name: "fc1_w"
    lr_mult: 1
  }
  param {
    name: "fc1_b"
    lr_mult: 2
  }
  inner_product_param {
    num_output: 100
    weight_filler {
      type: "xavier"
    }
    bias_filler {
      type: "constant"
    }
  }
}
layer {
  name: "relu1_fc1"
  type: "ReLU"
  bottom: "fc1"
  top: "fc1"
}
layer {
  name: "fc2"
  type: "InnerProduct"
  bottom: "fc1"
  top: "fc2"
  param {
    name: "fc2_w"
    lr_mult: 1
  }
  param {
    name: "fc2_b"
    lr_mult: 2
  }
  inner_product_param {
    num_output: 50
    weight_filler {
      type: "xavier"
    }
    bias_filler {
      type: "constant"
    }
  }
}
layer {
  name: "relu2_fc2"
  type: "ReLU"
  bottom: "fc2"
  top: "fc2"
}
layer {
  name: "fc3"
  type: "InnerProduct"
  bottom: "fc2"
  top: "fc3"
  param {
    name: "fc3_w"
    lr_mult: 1
  }
  param {
    name: "fc3_b"
    lr_mult: 2
  }
  inner_product_param {
    num_output: 2
    weight_filler {
      type: "xavier"
    }
    bias_filler {
      type: "constant"
    }
  }
}
layer {
  name: "loss"
  type: "SoftmaxWithLoss"
  bottom: "fc3"
  bottom: "label"
  top: "loss"
}
layer {
  name: "accuracy"
  type: "Accuracy"
  bottom: "fc3"
  bottom: "label"
  top: "accuracy"
}
I0922 13:33:01.110342 12885 layer_factory.hpp:77] Creating layer pair_data
I0922 13:33:01.110538 12885 net.cpp:91] Creating Layer pair_data
I0922 13:33:01.110575 12885 net.cpp:399] pair_data -> pair_data
I0922 13:33:01.110612 12885 net.cpp:399] pair_data -> label
I0922 13:33:01.124089 12891 db_leveldb.cpp:18] Opened leveldb /home/shaogang/caffe/examples/siamese/mnist_siamese_test_leveldb_89
I0922 13:33:01.124415 12885 data_layer.cpp:41] output data size: 100,2,28,28
I0922 13:33:01.125082 12885 net.cpp:141] Setting up pair_data
I0922 13:33:01.125108 12885 net.cpp:148] Top shape: 100 2 28 28 (156800)
I0922 13:33:01.125114 12885 net.cpp:148] Top shape: 100 (100)
I0922 13:33:01.125118 12885 net.cpp:156] Memory required for data: 627600
I0922 13:33:01.125126 12885 layer_factory.hpp:77] Creating layer label_pair_data_1_split
I0922 13:33:01.125143 12885 net.cpp:91] Creating Layer label_pair_data_1_split
I0922 13:33:01.125147 12885 net.cpp:425] label_pair_data_1_split <- label
I0922 13:33:01.125154 12885 net.cpp:399] label_pair_data_1_split -> label_pair_data_1_split_0
I0922 13:33:01.125165 12885 net.cpp:399] label_pair_data_1_split -> label_pair_data_1_split_1
I0922 13:33:01.125176 12885 net.cpp:141] Setting up label_pair_data_1_split
I0922 13:33:01.125180 12885 net.cpp:148] Top shape: 100 (100)
I0922 13:33:01.125185 12885 net.cpp:148] Top shape: 100 (100)
I0922 13:33:01.125186 12885 net.cpp:156] Memory required for data: 628400
I0922 13:33:01.125190 12885 layer_factory.hpp:77] Creating layer slice_pair
I0922 13:33:01.125198 12885 net.cpp:91] Creating Layer slice_pair
I0922 13:33:01.125201 12885 net.cpp:425] slice_pair <- pair_data
I0922 13:33:01.125206 12885 net.cpp:399] slice_pair -> data
I0922 13:33:01.125212 12885 net.cpp:399] slice_pair -> data_p
I0922 13:33:01.125221 12885 net.cpp:141] Setting up slice_pair
I0922 13:33:01.125224 12885 net.cpp:148] Top shape: 100 1 28 28 (78400)
I0922 13:33:01.125228 12885 net.cpp:148] Top shape: 100 1 28 28 (78400)
I0922 13:33:01.125231 12885 net.cpp:156] Memory required for data: 1255600
I0922 13:33:01.125233 12885 layer_factory.hpp:77] Creating layer conv1
I0922 13:33:01.125247 12885 net.cpp:91] Creating Layer conv1
I0922 13:33:01.125249 12885 net.cpp:425] conv1 <- data
I0922 13:33:01.125254 12885 net.cpp:399] conv1 -> conv1
I0922 13:33:01.125286 12885 net.cpp:141] Setting up conv1
I0922 13:33:01.125291 12885 net.cpp:148] Top shape: 100 20 24 24 (1152000)
I0922 13:33:01.125294 12885 net.cpp:156] Memory required for data: 5863600
I0922 13:33:01.125340 12885 layer_factory.hpp:77] Creating layer pool1
I0922 13:33:01.125349 12885 net.cpp:91] Creating Layer pool1
I0922 13:33:01.125352 12885 net.cpp:425] pool1 <- conv1
I0922 13:33:01.125357 12885 net.cpp:399] pool1 -> pool1
I0922 13:33:01.125366 12885 net.cpp:141] Setting up pool1
I0922 13:33:01.125371 12885 net.cpp:148] Top shape: 100 20 12 12 (288000)
I0922 13:33:01.125373 12885 net.cpp:156] Memory required for data: 7015600
I0922 13:33:01.125376 12885 layer_factory.hpp:77] Creating layer conv2
I0922 13:33:01.125385 12885 net.cpp:91] Creating Layer conv2
I0922 13:33:01.125386 12885 net.cpp:425] conv2 <- pool1
I0922 13:33:01.125391 12885 net.cpp:399] conv2 -> conv2
I0922 13:33:01.125603 12885 net.cpp:141] Setting up conv2
I0922 13:33:01.125609 12885 net.cpp:148] Top shape: 100 50 8 8 (320000)
I0922 13:33:01.125612 12885 net.cpp:156] Memory required for data: 8295600
I0922 13:33:01.125618 12885 layer_factory.hpp:77] Creating layer pool2
I0922 13:33:01.125623 12885 net.cpp:91] Creating Layer pool2
I0922 13:33:01.125627 12885 net.cpp:425] pool2 <- conv2
I0922 13:33:01.125630 12885 net.cpp:399] pool2 -> pool2
I0922 13:33:01.125635 12885 net.cpp:141] Setting up pool2
I0922 13:33:01.125639 12885 net.cpp:148] Top shape: 100 50 4 4 (80000)
I0922 13:33:01.125643 12885 net.cpp:156] Memory required for data: 8615600
I0922 13:33:01.125645 12885 layer_factory.hpp:77] Creating layer ip1
I0922 13:33:01.125653 12885 net.cpp:91] Creating Layer ip1
I0922 13:33:01.125654 12885 net.cpp:425] ip1 <- pool2
I0922 13:33:01.125659 12885 net.cpp:399] ip1 -> ip1
I0922 13:33:01.131486 12885 net.cpp:141] Setting up ip1
I0922 13:33:01.135918 12885 net.cpp:148] Top shape: 100 500 (50000)
I0922 13:33:01.136019 12885 net.cpp:156] Memory required for data: 8815600
I0922 13:33:01.136072 12885 layer_factory.hpp:77] Creating layer relu1
I0922 13:33:01.136116 12885 net.cpp:91] Creating Layer relu1
I0922 13:33:01.136145 12885 net.cpp:425] relu1 <- ip1
I0922 13:33:01.136175 12885 net.cpp:386] relu1 -> ip1 (in-place)
I0922 13:33:01.136214 12885 net.cpp:141] Setting up relu1
I0922 13:33:01.136250 12885 net.cpp:148] Top shape: 100 500 (50000)
I0922 13:33:01.136273 12885 net.cpp:156] Memory required for data: 9015600
I0922 13:33:01.136298 12885 layer_factory.hpp:77] Creating layer ip2
I0922 13:33:01.136330 12885 net.cpp:91] Creating Layer ip2
I0922 13:33:01.136358 12885 net.cpp:425] ip2 <- ip1
I0922 13:33:01.136386 12885 net.cpp:399] ip2 -> ip2
I0922 13:33:01.136487 12885 net.cpp:141] Setting up ip2
I0922 13:33:01.136519 12885 net.cpp:148] Top shape: 100 10 (1000)
I0922 13:33:01.138607 12885 net.cpp:156] Memory required for data: 9019600
I0922 13:33:01.140930 12885 layer_factory.hpp:77] Creating layer feat
I0922 13:33:01.140992 12885 net.cpp:91] Creating Layer feat
I0922 13:33:01.141019 12885 net.cpp:425] feat <- ip2
I0922 13:33:01.141050 12885 net.cpp:399] feat -> feat
I0922 13:33:01.141108 12885 net.cpp:141] Setting up feat
I0922 13:33:01.141142 12885 net.cpp:148] Top shape: 100 2 (200)
I0922 13:33:01.141165 12885 net.cpp:156] Memory required for data: 9020400
I0922 13:33:01.141196 12885 layer_factory.hpp:77] Creating layer conv1_p
I0922 13:33:01.141243 12885 net.cpp:91] Creating Layer conv1_p
I0922 13:33:01.141268 12885 net.cpp:425] conv1_p <- data_p
I0922 13:33:01.141296 12885 net.cpp:399] conv1_p -> conv1_p
I0922 13:33:01.141397 12885 net.cpp:141] Setting up conv1_p
I0922 13:33:01.141434 12885 net.cpp:148] Top shape: 100 20 24 24 (1152000)
I0922 13:33:01.141464 12885 net.cpp:156] Memory required for data: 13628400
I0922 13:33:01.141497 12885 net.cpp:484] Sharing parameters 'conv1_w' owned by layer 'conv1', param index 0
I0922 13:33:01.141535 12885 net.cpp:484] Sharing parameters 'conv1_b' owned by layer 'conv1', param index 1
I0922 13:33:01.141568 12885 layer_factory.hpp:77] Creating layer pool1_p
I0922 13:33:01.141618 12885 net.cpp:91] Creating Layer pool1_p
I0922 13:33:01.141650 12885 net.cpp:425] pool1_p <- conv1_p
I0922 13:33:01.141692 12885 net.cpp:399] pool1_p -> pool1_p
I0922 13:33:01.141763 12885 net.cpp:141] Setting up pool1_p
I0922 13:33:01.141819 12885 net.cpp:148] Top shape: 100 20 12 12 (288000)
I0922 13:33:01.141842 12885 net.cpp:156] Memory required for data: 14780400
I0922 13:33:01.141868 12885 layer_factory.hpp:77] Creating layer conv2_p
I0922 13:33:01.141921 12885 net.cpp:91] Creating Layer conv2_p
I0922 13:33:01.141944 12885 net.cpp:425] conv2_p <- pool1_p
I0922 13:33:01.141975 12885 net.cpp:399] conv2_p -> conv2_p
I0922 13:33:01.142318 12885 net.cpp:141] Setting up conv2_p
I0922 13:33:01.142410 12885 net.cpp:148] Top shape: 100 50 8 8 (320000)
I0922 13:33:01.142570 12885 net.cpp:156] Memory required for data: 16060400
I0922 13:33:01.142632 12885 net.cpp:484] Sharing parameters 'conv2_w' owned by layer 'conv2', param index 0
I0922 13:33:01.142663 12885 net.cpp:484] Sharing parameters 'conv2_b' owned by layer 'conv2', param index 1
I0922 13:33:01.142760 12885 layer_factory.hpp:77] Creating layer pool2_p
I0922 13:33:01.143115 12885 net.cpp:91] Creating Layer pool2_p
I0922 13:33:01.143265 12885 net.cpp:425] pool2_p <- conv2_p
I0922 13:33:01.143338 12885 net.cpp:399] pool2_p -> pool2_p
I0922 13:33:01.143452 12885 net.cpp:141] Setting up pool2_p
I0922 13:33:01.143523 12885 net.cpp:148] Top shape: 100 50 4 4 (80000)
I0922 13:33:01.143569 12885 net.cpp:156] Memory required for data: 16380400
I0922 13:33:01.143748 12885 layer_factory.hpp:77] Creating layer ip1_p
I0922 13:33:01.143801 12885 net.cpp:91] Creating Layer ip1_p
I0922 13:33:01.143833 12885 net.cpp:425] ip1_p <- pool2_p
I0922 13:33:01.143880 12885 net.cpp:399] ip1_p -> ip1_p
I0922 13:33:01.153499 12885 net.cpp:141] Setting up ip1_p
I0922 13:33:01.153628 12885 net.cpp:148] Top shape: 100 500 (50000)
I0922 13:33:01.153656 12885 net.cpp:156] Memory required for data: 16580400
I0922 13:33:01.153676 12885 net.cpp:484] Sharing parameters 'ip1_w' owned by layer 'ip1', param index 0
I0922 13:33:01.153693 12885 net.cpp:484] Sharing parameters 'ip1_b' owned by layer 'ip1', param index 1
I0922 13:33:01.153708 12885 layer_factory.hpp:77] Creating layer relu1_p
I0922 13:33:01.153733 12885 net.cpp:91] Creating Layer relu1_p
I0922 13:33:01.153750 12885 net.cpp:425] relu1_p <- ip1_p
I0922 13:33:01.153767 12885 net.cpp:386] relu1_p -> ip1_p (in-place)
I0922 13:33:01.153790 12885 net.cpp:141] Setting up relu1_p
I0922 13:33:01.153806 12885 net.cpp:148] Top shape: 100 500 (50000)
I0922 13:33:01.153820 12885 net.cpp:156] Memory required for data: 16780400
I0922 13:33:01.153833 12885 layer_factory.hpp:77] Creating layer ip2_p
I0922 13:33:01.153856 12885 net.cpp:91] Creating Layer ip2_p
I0922 13:33:01.153870 12885 net.cpp:425] ip2_p <- ip1_p
I0922 13:33:01.153889 12885 net.cpp:399] ip2_p -> ip2_p
I0922 13:33:01.153959 12885 net.cpp:141] Setting up ip2_p
I0922 13:33:01.153980 12885 net.cpp:148] Top shape: 100 10 (1000)
I0922 13:33:01.153992 12885 net.cpp:156] Memory required for data: 16784400
I0922 13:33:01.154011 12885 net.cpp:484] Sharing parameters 'ip2_w' owned by layer 'ip2', param index 0
I0922 13:33:01.154026 12885 net.cpp:484] Sharing parameters 'ip2_b' owned by layer 'ip2', param index 1
I0922 13:33:01.154041 12885 layer_factory.hpp:77] Creating layer feat_p
I0922 13:33:01.154059 12885 net.cpp:91] Creating Layer feat_p
I0922 13:33:01.154074 12885 net.cpp:425] feat_p <- ip2_p
I0922 13:33:01.154090 12885 net.cpp:399] feat_p -> feat_p
I0922 13:33:01.154114 12885 net.cpp:141] Setting up feat_p
I0922 13:33:01.154131 12885 net.cpp:148] Top shape: 100 2 (200)
I0922 13:33:01.154145 12885 net.cpp:156] Memory required for data: 16785200
I0922 13:33:01.154158 12885 net.cpp:484] Sharing parameters 'feat_w' owned by layer 'feat', param index 0
I0922 13:33:01.154173 12885 net.cpp:484] Sharing parameters 'feat_b' owned by layer 'feat', param index 1
I0922 13:33:01.154188 12885 layer_factory.hpp:77] Creating layer concat
I0922 13:33:01.154208 12885 net.cpp:91] Creating Layer concat
I0922 13:33:01.154223 12885 net.cpp:425] concat <- feat
I0922 13:33:01.154238 12885 net.cpp:425] concat <- feat_p
I0922 13:33:01.154254 12885 net.cpp:399] concat -> comb
I0922 13:33:01.154284 12885 net.cpp:141] Setting up concat
I0922 13:33:01.154314 12885 net.cpp:148] Top shape: 100 4 (400)
I0922 13:33:01.154327 12885 net.cpp:156] Memory required for data: 16786800
I0922 13:33:01.154341 12885 layer_factory.hpp:77] Creating layer fc1
I0922 13:33:01.154358 12885 net.cpp:91] Creating Layer fc1
I0922 13:33:01.154373 12885 net.cpp:425] fc1 <- comb
I0922 13:33:01.154389 12885 net.cpp:399] fc1 -> fc1
I0922 13:33:01.154418 12885 net.cpp:141] Setting up fc1
I0922 13:33:01.154436 12885 net.cpp:148] Top shape: 100 100 (10000)
I0922 13:33:01.154449 12885 net.cpp:156] Memory required for data: 16826800
I0922 13:33:01.154465 12885 layer_factory.hpp:77] Creating layer relu1_fc1
I0922 13:33:01.154481 12885 net.cpp:91] Creating Layer relu1_fc1
I0922 13:33:01.154495 12885 net.cpp:425] relu1_fc1 <- fc1
I0922 13:33:01.154512 12885 net.cpp:386] relu1_fc1 -> fc1 (in-place)
I0922 13:33:01.154531 12885 net.cpp:141] Setting up relu1_fc1
I0922 13:33:01.154546 12885 net.cpp:148] Top shape: 100 100 (10000)
I0922 13:33:01.154561 12885 net.cpp:156] Memory required for data: 16866800
I0922 13:33:01.154574 12885 layer_factory.hpp:77] Creating layer fc2
I0922 13:33:01.154592 12885 net.cpp:91] Creating Layer fc2
I0922 13:33:01.154608 12885 net.cpp:425] fc2 <- fc1
I0922 13:33:01.154624 12885 net.cpp:399] fc2 -> fc2
I0922 13:33:01.154691 12885 net.cpp:141] Setting up fc2
I0922 13:33:01.154709 12885 net.cpp:148] Top shape: 100 50 (5000)
I0922 13:33:01.154722 12885 net.cpp:156] Memory required for data: 16886800
I0922 13:33:01.154738 12885 layer_factory.hpp:77] Creating layer relu2_fc2
I0922 13:33:01.154755 12885 net.cpp:91] Creating Layer relu2_fc2
I0922 13:33:01.154769 12885 net.cpp:425] relu2_fc2 <- fc2
I0922 13:33:01.154784 12885 net.cpp:386] relu2_fc2 -> fc2 (in-place)
I0922 13:33:01.154801 12885 net.cpp:141] Setting up relu2_fc2
I0922 13:33:01.154816 12885 net.cpp:148] Top shape: 100 50 (5000)
I0922 13:33:01.154829 12885 net.cpp:156] Memory required for data: 16906800
I0922 13:33:01.154844 12885 layer_factory.hpp:77] Creating layer fc3
I0922 13:33:01.154860 12885 net.cpp:91] Creating Layer fc3
I0922 13:33:01.154875 12885 net.cpp:425] fc3 <- fc2
I0922 13:33:01.154891 12885 net.cpp:399] fc3 -> fc3
I0922 13:33:01.154914 12885 net.cpp:141] Setting up fc3
I0922 13:33:01.154932 12885 net.cpp:148] Top shape: 100 2 (200)
I0922 13:33:01.154944 12885 net.cpp:156] Memory required for data: 16907600
I0922 13:33:01.154959 12885 layer_factory.hpp:77] Creating layer fc3_fc3_0_split
I0922 13:33:01.154976 12885 net.cpp:91] Creating Layer fc3_fc3_0_split
I0922 13:33:01.154990 12885 net.cpp:425] fc3_fc3_0_split <- fc3
I0922 13:33:01.155005 12885 net.cpp:399] fc3_fc3_0_split -> fc3_fc3_0_split_0
I0922 13:33:01.155024 12885 net.cpp:399] fc3_fc3_0_split -> fc3_fc3_0_split_1
I0922 13:33:01.155042 12885 net.cpp:141] Setting up fc3_fc3_0_split
I0922 13:33:01.155057 12885 net.cpp:148] Top shape: 100 2 (200)
I0922 13:33:01.155072 12885 net.cpp:148] Top shape: 100 2 (200)
I0922 13:33:01.155084 12885 net.cpp:156] Memory required for data: 16909200
I0922 13:33:01.155098 12885 layer_factory.hpp:77] Creating layer loss
I0922 13:33:01.155117 12885 net.cpp:91] Creating Layer loss
I0922 13:33:01.155130 12885 net.cpp:425] loss <- fc3_fc3_0_split_0
I0922 13:33:01.155145 12885 net.cpp:425] loss <- label_pair_data_1_split_0
I0922 13:33:01.155163 12885 net.cpp:399] loss -> loss
…
