…
I0713 15:32:59.986397 29118 solver.cpp:91] Creating training net from net file: examples/siamese/mnist_siamese_train_test.prototxt
I0713 15:32:59.987372 29118 net.cpp:313] The NetState phase (0) differed from the phase (1) specified by a rule in layer pair_data
I0713 15:32:59.987597 29118 net.cpp:49] Initializing net from parameters: 
name: "mnist_siamese_train_test"
state {
  phase: TRAIN
}
layer {
  name: "pair_data"
  type: "Data"
  top: "pair_data"
  top: "sim"
  include {
    phase: TRAIN
  }
  transform_param {
    scale: 0.00390625
  }
  data_param {
    source: "examples/siamese/mnist_siamese_train_leveldb_0to6_l"
    batch_size: 64
  }
}
layer {
  name: "slice_pair"
  type: "Slice"
  bottom: "pair_data"
  top: "data"
  top: "data_p"
  slice_param {
    slice_dim: 1
    slice_point: 1
  }
}
layer {
  name: "conv1"
  type: "Convolution"
  bottom: "data"
  top: "conv1"
  param {
    name: "conv1_w"
    lr_mult: 1
  }
  param {
    name: "conv1_b"
    lr_mult: 2
  }
  convolution_param {
    num_output: 20
    kernel_size: 5
    stride: 1
    weight_filler {
      type: "xavier"
    }
    bias_filler {
      type: "constant"
    }
  }
}
layer {
  name: "pool1"
  type: "Pooling"
  bottom: "conv1"
  top: "pool1"
  pooling_param {
    pool: MAX
    kernel_size: 2
    stride: 2
  }
}
layer {
  name: "conv2"
  type: "Convolution"
  bottom: "pool1"
  top: "conv2"
  param {
    name: "conv2_w"
    lr_mult: 1
  }
  param {
    name: "conv2_b"
    lr_mult: 2
  }
  convolution_param {
    num_output: 50
    kernel_size: 5
    stride: 1
    weight_filler {
      type: "xavier"
    }
    bias_filler {
      type: "constant"
    }
  }
}
layer {
  name: "pool2"
  type: "Pooling"
  bottom: "conv2"
  top: "pool2"
  pooling_param {
    pool: MAX
    kernel_size: 2
    stride: 2
  }
}
layer {
  name: "ip1"
  type: "InnerProduct"
  bottom: "pool2"
  top: "ip1"
  param {
    name: "ip1_w"
    lr_mult: 1
  }
  param {
    name: "ip1_b"
    lr_mult: 2
  }
  inner_product_param {
    num_output: 500
    weight_filler {
      type: "xavier"
    }
    bias_filler {
      type: "constant"
    }
  }
}
layer {
  name: "relu1"
  type: "ReLU"
  bottom: "ip1"
  top: "ip1"
}
layer {
  name: "ip2"
  type: "InnerProduct"
  bottom: "ip1"
  top: "ip2"
  param {
    name: "ip2_w"
    lr_mult: 1
  }
  param {
    name: "ip2_b"
    lr_mult: 2
  }
  inner_product_param {
    num_output: 10
    weight_filler {
      type: "xavier"
    }
    bias_filler {
      type: "constant"
    }
  }
}
layer {
  name: "feat"
  type: "InnerProduct"
  bottom: "ip2"
  top: "feat"
  param {
    name: "feat_w"
    lr_mult: 1
  }
  param {
    name: "feat_b"
    lr_mult: 2
  }
  inner_product_param {
    num_output: 2
    weight_filler {
      type: "xavier"
    }
    bias_filler {
      type: "constant"
    }
  }
}
layer {
  name: "conv1_p"
  type: "Convolution"
  bottom: "data_p"
  top: "conv1_p"
  param {
    name: "conv1_w"
    lr_mult: 1
  }
  param {
    name: "conv1_b"
    lr_mult: 2
  }
  convolution_param {
    num_output: 20
    kernel_size: 5
    stride: 1
    weight_filler {
      type: "xavier"
    }
    bias_filler {
      type: "constant"
    }
  }
}
layer {
  name: "pool1_p"
  type: "Pooling"
  bottom: "conv1_p"
  top: "pool1_p"
  pooling_param {
    pool: MAX
    kernel_size: 2
    stride: 2
  }
}
layer {
  name: "conv2_p"
  type: "Convolution"
  bottom: "pool1_p"
  top: "conv2_p"
  param {
    name: "conv2_w"
    lr_mult: 1
  }
  param {
    name: "conv2_b"
    lr_mult: 2
  }
  convolution_param {
    num_output: 50
    kernel_size: 5
    stride: 1
    weight_filler {
      type: "xavier"
    }
    bias_filler {
      type: "constant"
    }
  }
}
layer {
  name: "pool2_p"
  type: "Pooling"
  bottom: "conv2_p"
  top: "pool2_p"
  pooling_param {
    pool: MAX
    kernel_size: 2
    stride: 2
  }
}
layer {
  name: "ip1_p"
  type: "InnerProduct"
  bottom: "pool2_p"
  top: "ip1_p"
  param {
    name: "ip1_w"
    lr_mult: 1
  }
  param {
    name: "ip1_b"
    lr_mult: 2
  }
  inner_product_param {
    num_output: 500
    weight_filler {
      type: "xavier"
    }
    bias_filler {
      type: "constant"
    }
  }
}
layer {
  name: "relu1_p"
  type: "ReLU"
  bottom: "ip1_p"
  top: "ip1_p"
}
layer {
  name: "ip2_p"
  type: "InnerProduct"
  bottom: "ip1_p"
  top: "ip2_p"
  param {
    name: "ip2_w"
    lr_mult: 1
  }
  param {
    name: "ip2_b"
    lr_mult: 2
  }
  inner_product_param {
    num_output: 10
    weight_filler {
      type: "xavier"
    }
    bias_filler {
      type: "constant"
    }
  }
}
layer {
  name: "feat_p"
  type: "InnerProduct"
  bottom: "ip2_p"
  top: "feat_p"
  param {
    name: "feat_w"
    lr_mult: 1
  }
  param {
    name: "feat_b"
    lr_mult: 2
  }
  inner_product_param {
    num_output: 2
    weight_filler {
      type: "xavier"
    }
    bias_filler {
      type: "constant"
    }
  }
}
layer {
  name: "loss"
  type: "ContrastiveLoss"
  bottom: "feat"
  bottom: "feat_p"
  bottom: "sim"
  top: "loss"
  contrastive_loss_param {
    margin: 1
  }
}
I0713 15:32:59.987792 29118 layer_factory.hpp:77] Creating layer pair_data
I0713 15:32:59.988487 29118 net.cpp:91] Creating Layer pair_data
I0713 15:32:59.988533 29118 net.cpp:399] pair_data -> pair_data
I0713 15:32:59.988575 29118 net.cpp:399] pair_data -> sim
I0713 15:33:00.007380 29122 db_leveldb.cpp:18] Opened leveldb examples/siamese/mnist_siamese_train_leveldb_0to6_l
I0713 15:33:00.026770 29118 data_layer.cpp:41] output data size: 64,2,28,28
I0713 15:33:00.036516 29118 net.cpp:141] Setting up pair_data
I0713 15:33:00.036664 29118 net.cpp:148] Top shape: 64 2 28 28 (100352)
I0713 15:33:00.036715 29118 net.cpp:148] Top shape: 64 (64)
I0713 15:33:00.036730 29118 net.cpp:156] Memory required for data: 401664
I0713 15:33:00.036751 29118 layer_factory.hpp:77] Creating layer slice_pair
I0713 15:33:00.036798 29118 net.cpp:91] Creating Layer slice_pair
I0713 15:33:00.036818 29118 net.cpp:425] slice_pair <- pair_data
I0713 15:33:00.036840 29118 net.cpp:399] slice_pair -> data
I0713 15:33:00.036887 29118 net.cpp:399] slice_pair -> data_p
I0713 15:33:00.036918 29118 net.cpp:141] Setting up slice_pair
I0713 15:33:00.036938 29118 net.cpp:148] Top shape: 64 1 28 28 (50176)
I0713 15:33:00.036955 29118 net.cpp:148] Top shape: 64 1 28 28 (50176)
I0713 15:33:00.036970 29118 net.cpp:156] Memory required for data: 803072
I0713 15:33:00.036986 29118 layer_factory.hpp:77] Creating layer conv1
I0713 15:33:00.037025 29118 net.cpp:91] Creating Layer conv1
I0713 15:33:00.037075 29118 net.cpp:425] conv1 <- data
I0713 15:33:00.037102 29118 net.cpp:399] conv1 -> conv1
I0713 15:33:00.039046 29118 net.cpp:141] Setting up conv1
I0713 15:33:00.039129 29118 net.cpp:148] Top shape: 64 20 24 24 (737280)
I0713 15:33:00.039149 29118 net.cpp:156] Memory required for data: 3752192
I0713 15:33:00.039177 29118 layer_factory.hpp:77] Creating layer pool1
I0713 15:33:00.039201 29118 net.cpp:91] Creating Layer pool1
I0713 15:33:00.039217 29118 net.cpp:425] pool1 <- conv1
I0713 15:33:00.039237 29118 net.cpp:399] pool1 -> pool1
I0713 15:33:00.039278 29118 net.cpp:141] Setting up pool1
I0713 15:33:00.039299 29118 net.cpp:148] Top shape: 64 20 12 12 (184320)
I0713 15:33:00.039314 29118 net.cpp:156] Memory required for data: 4489472
I0713 15:33:00.039330 29118 layer_factory.hpp:77] Creating layer conv2
I0713 15:33:00.039353 29118 net.cpp:91] Creating Layer conv2
I0713 15:33:00.039371 29118 net.cpp:425] conv2 <- pool1
I0713 15:33:00.039397 29118 net.cpp:399] conv2 -> conv2
I0713 15:33:00.039988 29118 net.cpp:141] Setting up conv2
I0713 15:33:00.040020 29118 net.cpp:148] Top shape: 64 50 8 8 (204800)
I0713 15:33:00.040025 29118 net.cpp:156] Memory required for data: 5308672
I0713 15:33:00.040033 29118 layer_factory.hpp:77] Creating layer pool2
I0713 15:33:00.040045 29118 net.cpp:91] Creating Layer pool2
I0713 15:33:00.040072 29118 net.cpp:425] pool2 <- conv2
I0713 15:33:00.040078 29118 net.cpp:399] pool2 -> pool2
I0713 15:33:00.040088 29118 net.cpp:141] Setting up pool2
I0713 15:33:00.040093 29118 net.cpp:148] Top shape: 64 50 4 4 (51200)
I0713 15:33:00.040096 29118 net.cpp:156] Memory required for data: 5513472
I0713 15:33:00.040099 29118 layer_factory.hpp:77] Creating layer ip1
I0713 15:33:00.040117 29118 net.cpp:91] Creating Layer ip1
I0713 15:33:00.040119 29118 net.cpp:425] ip1 <- pool2
I0713 15:33:00.040125 29118 net.cpp:399] ip1 -> ip1
I0713 15:33:00.045352 29118 net.cpp:141] Setting up ip1
I0713 15:33:00.045408 29118 net.cpp:148] Top shape: 64 500 (32000)
I0713 15:33:00.045413 29118 net.cpp:156] Memory required for data: 5641472
I0713 15:33:00.045428 29118 layer_factory.hpp:77] Creating layer relu1
I0713 15:33:00.045444 29118 net.cpp:91] Creating Layer relu1
I0713 15:33:00.045449 29118 net.cpp:425] relu1 <- ip1
I0713 15:33:00.045454 29118 net.cpp:386] relu1 -> ip1 (in-place)
I0713 15:33:00.045465 29118 net.cpp:141] Setting up relu1
I0713 15:33:00.045483 29118 net.cpp:148] Top shape: 64 500 (32000)
I0713 15:33:00.045487 29118 net.cpp:156] Memory required for data: 5769472
I0713 15:33:00.045490 29118 layer_factory.hpp:77] Creating layer ip2
I0713 15:33:00.045501 29118 net.cpp:91] Creating Layer ip2
I0713 15:33:00.045506 29118 net.cpp:425] ip2 <- ip1
I0713 15:33:00.045512 29118 net.cpp:399] ip2 -> ip2
I0713 15:33:00.045583 29118 net.cpp:141] Setting up ip2
I0713 15:33:00.045601 29118 net.cpp:148] Top shape: 64 10 (640)
I0713 15:33:00.045604 29118 net.cpp:156] Memory required for data: 5772032
I0713 15:33:00.045609 29118 layer_factory.hpp:77] Creating layer feat
I0713 15:33:00.045615 29118 net.cpp:91] Creating Layer feat
I0713 15:33:00.045619 29118 net.cpp:425] feat <- ip2
I0713 15:33:00.045624 29118 net.cpp:399] feat -> feat
I0713 15:33:00.045635 29118 net.cpp:141] Setting up feat
I0713 15:33:00.045651 29118 net.cpp:148] Top shape: 64 2 (128)
I0713 15:33:00.045655 29118 net.cpp:156] Memory required for data: 5772544
I0713 15:33:00.045660 29118 layer_factory.hpp:77] Creating layer conv1_p
I0713 15:33:00.045672 29118 net.cpp:91] Creating Layer conv1_p
I0713 15:33:00.045675 29118 net.cpp:425] conv1_p <- data_p
I0713 15:33:00.045681 29118 net.cpp:399] conv1_p -> conv1_p
I0713 15:33:00.045722 29118 net.cpp:141] Setting up conv1_p
I0713 15:33:00.045727 29118 net.cpp:148] Top shape: 64 20 24 24 (737280)
I0713 15:33:00.045730 29118 net.cpp:156] Memory required for data: 8721664
I0713 15:33:00.045733 29118 net.cpp:484] Sharing parameters 'conv1_w' owned by layer 'conv1', param index 0
I0713 15:33:00.045737 29118 net.cpp:484] Sharing parameters 'conv1_b' owned by layer 'conv1', param index 1
I0713 15:33:00.045753 29118 layer_factory.hpp:77] Creating layer pool1_p
I0713 15:33:00.045759 29118 net.cpp:91] Creating Layer pool1_p
I0713 15:33:00.045763 29118 net.cpp:425] pool1_p <- conv1_p
I0713 15:33:00.045768 29118 net.cpp:399] pool1_p -> pool1_p
I0713 15:33:00.045819 29118 net.cpp:141] Setting up pool1_p
I0713 15:33:00.045840 29118 net.cpp:148] Top shape: 64 20 12 12 (184320)
I0713 15:33:00.045842 29118 net.cpp:156] Memory required for data: 9458944
I0713 15:33:00.045845 29118 layer_factory.hpp:77] Creating layer conv2_p
I0713 15:33:00.045857 29118 net.cpp:91] Creating Layer conv2_p
I0713 15:33:00.045861 29118 net.cpp:425] conv2_p <- pool1_p
I0713 15:33:00.045866 29118 net.cpp:399] conv2_p -> conv2_p
I0713 15:33:00.046095 29118 net.cpp:141] Setting up conv2_p
I0713 15:33:00.046114 29118 net.cpp:148] Top shape: 64 50 8 8 (204800)
I0713 15:33:00.046118 29118 net.cpp:156] Memory required for data: 10278144
I0713 15:33:00.046121 29118 net.cpp:484] Sharing parameters 'conv2_w' owned by layer 'conv2', param index 0
I0713 15:33:00.046125 29118 net.cpp:484] Sharing parameters 'conv2_b' owned by layer 'conv2', param index 1
I0713 15:33:00.046128 29118 layer_factory.hpp:77] Creating layer pool2_p
I0713 15:33:00.046133 29118 net.cpp:91] Creating Layer pool2_p
I0713 15:33:00.046136 29118 net.cpp:425] pool2_p <- conv2_p
I0713 15:33:00.046146 29118 net.cpp:399] pool2_p -> pool2_p
I0713 15:33:00.046185 29118 net.cpp:141] Setting up pool2_p
I0713 15:33:00.046190 29118 net.cpp:148] Top shape: 64 50 4 4 (51200)
I0713 15:33:00.046193 29118 net.cpp:156] Memory required for data: 10482944
I0713 15:33:00.046196 29118 layer_factory.hpp:77] Creating layer ip1_p
I0713 15:33:00.046205 29118 net.cpp:91] Creating Layer ip1_p
I0713 15:33:00.046208 29118 net.cpp:425] ip1_p <- pool2_p
I0713 15:33:00.046213 29118 net.cpp:399] ip1_p -> ip1_p
I0713 15:33:00.049453 29118 net.cpp:141] Setting up ip1_p
I0713 15:33:00.049527 29118 net.cpp:148] Top shape: 64 500 (32000)
I0713 15:33:00.049535 29118 net.cpp:156] Memory required for data: 10610944
I0713 15:33:00.049543 29118 net.cpp:484] Sharing parameters 'ip1_w' owned by layer 'ip1', param index 0
I0713 15:33:00.049548 29118 net.cpp:484] Sharing parameters 'ip1_b' owned by layer 'ip1', param index 1
I0713 15:33:00.049552 29118 layer_factory.hpp:77] Creating layer relu1_p
I0713 15:33:00.049562 29118 net.cpp:91] Creating Layer relu1_p
I0713 15:33:00.049566 29118 net.cpp:425] relu1_p <- ip1_p
I0713 15:33:00.049576 29118 net.cpp:386] relu1_p -> ip1_p (in-place)
I0713 15:33:00.049597 29118 net.cpp:141] Setting up relu1_p
I0713 15:33:00.049603 29118 net.cpp:148] Top shape: 64 500 (32000)
I0713 15:33:00.049607 29118 net.cpp:156] Memory required for data: 10738944
I0713 15:33:00.049609 29118 layer_factory.hpp:77] Creating layer ip2_p
I0713 15:33:00.049618 29118 net.cpp:91] Creating Layer ip2_p
I0713 15:33:00.049621 29118 net.cpp:425] ip2_p <- ip1_p
I0713 15:33:00.049628 29118 net.cpp:399] ip2_p -> ip2_p
I0713 15:33:00.049685 29118 net.cpp:141] Setting up ip2_p
I0713 15:33:00.049703 29118 net.cpp:148] Top shape: 64 10 (640)
I0713 15:33:00.049706 29118 net.cpp:156] Memory required for data: 10741504
I0713 15:33:00.049712 29118 net.cpp:484] Sharing parameters 'ip2_w' owned by layer 'ip2', param index 0
I0713 15:33:00.049716 29118 net.cpp:484] Sharing parameters 'ip2_b' owned by layer 'ip2', param index 1
I0713 15:33:00.049720 29118 layer_factory.hpp:77] Creating layer feat_p
I0713 15:33:00.049724 29118 net.cpp:91] Creating Layer feat_p
I0713 15:33:00.049727 29118 net.cpp:425] feat_p <- ip2_p
I0713 15:33:00.049734 29118 net.cpp:399] feat_p -> feat_p
I0713 15:33:00.049757 29118 net.cpp:141] Setting up feat_p
I0713 15:33:00.049762 29118 net.cpp:148] Top shape: 64 2 (128)
I0713 15:33:00.049764 29118 net.cpp:156] Memory required for data: 10742016
I0713 15:33:00.049767 29118 net.cpp:484] Sharing parameters 'feat_w' owned by layer 'feat', param index 0
I0713 15:33:00.049772 29118 net.cpp:484] Sharing parameters 'feat_b' owned by layer 'feat', param index 1
I0713 15:33:00.049774 29118 layer_factory.hpp:77] Creating layer loss
I0713 15:33:00.049788 29118 net.cpp:91] Creating Layer loss
…
I0713 15:33:00.050673 29118 solver.cpp:181] Creating test net (#0) specified by net file: examples/siamese/mnist_siamese_train_test.prototxt
I0713 15:33:00.050746 29118 net.cpp:313] The NetState phase (1) differed from the phase (0) specified by a rule in layer pair_data
I0713 15:33:00.050899 29118 net.cpp:49] Initializing net from parameters: 
name: "mnist_siamese_train_test"
state {
  phase: TEST
}
layer {
  name: "pair_data"
  type: "Data"
  top: "pair_data"
  top: "sim"
  include {
    phase: TEST
  }
  transform_param {
    scale: 0.00390625
  }
  data_param {
    source: "examples/siamese/mnist_siamese_test_leveldb_0to6"
    batch_size: 100
  }
}
layer {
  name: "slice_pair"
  type: "Slice"
  bottom: "pair_data"
  top: "data"
  top: "data_p"
  slice_param {
    slice_dim: 1
    slice_point: 1
  }
}
layer {
  name: "conv1"
  type: "Convolution"
  bottom: "data"
  top: "conv1"
  param {
    name: "conv1_w"
    lr_mult: 1
  }
  param {
    name: "conv1_b"
    lr_mult: 2
  }
  convolution_param {
    num_output: 20
    kernel_size: 5
    stride: 1
    weight_filler {
      type: "xavier"
    }
    bias_filler {
      type: "constant"
    }
  }
}
layer {
  name: "pool1"
  type: "Pooling"
  bottom: "conv1"
  top: "pool1"
  pooling_param {
    pool: MAX
    kernel_size: 2
    stride: 2
  }
}
layer {
  name: "conv2"
  type: "Convolution"
  bottom: "pool1"
  top: "conv2"
  param {
    name: "conv2_w"
    lr_mult: 1
  }
  param {
    name: "conv2_b"
    lr_mult: 2
  }
  convolution_param {
    num_output: 50
    kernel_size: 5
    stride: 1
    weight_filler {
      type: "xavier"
    }
    bias_filler {
      type: "constant"
    }
  }
}
layer {
  name: "pool2"
  type: "Pooling"
  bottom: "conv2"
  top: "pool2"
  pooling_param {
    pool: MAX
    kernel_size: 2
    stride: 2
  }
}
layer {
  name: "ip1"
  type: "InnerProduct"
  bottom: "pool2"
  top: "ip1"
  param {
    name: "ip1_w"
    lr_mult: 1
  }
  param {
    name: "ip1_b"
    lr_mult: 2
  }
  inner_product_param {
    num_output: 500
    weight_filler {
      type: "xavier"
    }
    bias_filler {
      type: "constant"
    }
  }
}
layer {
  name: "relu1"
  type: "ReLU"
  bottom: "ip1"
  top: "ip1"
}
layer {
  name: "ip2"
  type: "InnerProduct"
  bottom: "ip1"
  top: "ip2"
  param {
    name: "ip2_w"
    lr_mult: 1
  }
  param {
    name: "ip2_b"
    lr_mult: 2
  }
  inner_product_param {
    num_output: 10
    weight_filler {
      type: "xavier"
    }
    bias_filler {
      type: "constant"
    }
  }
}
layer {
  name: "feat"
  type: "InnerProduct"
  bottom: "ip2"
  top: "feat"
  param {
    name: "feat_w"
    lr_mult: 1
  }
  param {
    name: "feat_b"
    lr_mult: 2
  }
  inner_product_param {
    num_output: 2
    weight_filler {
      type: "xavier"
    }
    bias_filler {
      type: "constant"
    }
  }
}
layer {
  name: "conv1_p"
  type: "Convolution"
  bottom: "data_p"
  top: "conv1_p"
  param {
    name: "conv1_w"
    lr_mult: 1
  }
  param {
    name: "conv1_b"
    lr_mult: 2
  }
  convolution_param {
    num_output: 20
    kernel_size: 5
    stride: 1
    weight_filler {
      type: "xavier"
    }
    bias_filler {
      type: "constant"
    }
  }
}
layer {
  name: "pool1_p"
  type: "Pooling"
  bottom: "conv1_p"
  top: "pool1_p"
  pooling_param {
    pool: MAX
    kernel_size: 2
    stride: 2
  }
}
layer {
  name: "conv2_p"
  type: "Convolution"
  bottom: "pool1_p"
  top: "conv2_p"
  param {
    name: "conv2_w"
    lr_mult: 1
  }
  param {
    name: "conv2_b"
    lr_mult: 2
  }
  convolution_param {
    num_output: 50
    kernel_size: 5
    stride: 1
    weight_filler {
      type: "xavier"
    }
    bias_filler {
      type: "constant"
    }
  }
}
layer {
  name: "pool2_p"
  type: "Pooling"
  bottom: "conv2_p"
  top: "pool2_p"
  pooling_param {
    pool: MAX
    kernel_size: 2
    stride: 2
  }
}
layer {
  name: "ip1_p"
  type: "InnerProduct"
  bottom: "pool2_p"
  top: "ip1_p"
  param {
    name: "ip1_w"
    lr_mult: 1
  }
  param {
    name: "ip1_b"
    lr_mult: 2
  }
  inner_product_param {
    num_output: 500
    weight_filler {
      type: "xavier"
    }
    bias_filler {
      type: "constant"
    }
  }
}
layer {
  name: "relu1_p"
  type: "ReLU"
  bottom: "ip1_p"
  top: "ip1_p"
}
layer {
  name: "ip2_p"
  type: "InnerProduct"
  bottom: "ip1_p"
  top: "ip2_p"
  param {
    name: "ip2_w"
    lr_mult: 1
  }
  param {
    name: "ip2_b"
    lr_mult: 2
  }
  inner_product_param {
    num_output: 10
    weight_filler {
      type: "xavier"
    }
    bias_filler {
      type: "constant"
    }
  }
}
layer {
  name: "feat_p"
  type: "InnerProduct"
  bottom: "ip2_p"
  top: "feat_p"
  param {
    name: "feat_w"
    lr_mult: 1
  }
  param {
    name: "feat_b"
    lr_mult: 2
  }
  inner_product_param {
    num_output: 2
    weight_filler {
      type: "xavier"
    }
    bias_filler {
      type: "constant"
    }
  }
}
layer {
  name: "loss"
  type: "ContrastiveLoss"
  bottom: "feat"
  bottom: "feat_p"
  bottom: "sim"
  top: "loss"
  contrastive_loss_param {
    margin: 1
  }
}
I0713 15:33:00.050997 29118 layer_factory.hpp:77] Creating layer pair_data
I0713 15:33:00.051105 29118 net.cpp:91] Creating Layer pair_data
I0713 15:33:00.051126 29118 net.cpp:399] pair_data -> pair_data
I0713 15:33:00.051136 29118 net.cpp:399] pair_data -> sim
I0713 15:33:00.056080 29124 db_leveldb.cpp:18] Opened leveldb examples/siamese/mnist_siamese_test_leveldb_0to6
I0713 15:33:00.056301 29118 data_layer.cpp:41] output data size: 100,2,28,28
I0713 15:33:00.057059 29118 net.cpp:141] Setting up pair_data
I0713 15:33:00.057111 29118 net.cpp:148] Top shape: 100 2 28 28 (156800)
I0713 15:33:00.057117 29118 net.cpp:148] Top shape: 100 (100)
I0713 15:33:00.057121 29118 net.cpp:156] Memory required for data: 627600
I0713 15:33:00.057127 29118 layer_factory.hpp:77] Creating layer slice_pair
I0713 15:33:00.057142 29118 net.cpp:91] Creating Layer slice_pair
I0713 15:33:00.057145 29118 net.cpp:425] slice_pair <- pair_data
I0713 15:33:00.057152 29118 net.cpp:399] slice_pair -> data
I0713 15:33:00.057160 29118 net.cpp:399] slice_pair -> data_p
I0713 15:33:00.057169 29118 net.cpp:141] Setting up slice_pair
I0713 15:33:00.057173 29118 net.cpp:148] Top shape: 100 1 28 28 (78400)
I0713 15:33:00.057178 29118 net.cpp:148] Top shape: 100 1 28 28 (78400)
I0713 15:33:00.057191 29118 net.cpp:156] Memory required for data: 1254800
I0713 15:33:00.057195 29118 layer_factory.hpp:77] Creating layer conv1
I0713 15:33:00.057206 29118 net.cpp:91] Creating Layer conv1
I0713 15:33:00.057209 29118 net.cpp:425] conv1 <- data
I0713 15:33:00.057214 29118 net.cpp:399] conv1 -> conv1
I0713 15:33:00.057242 29118 net.cpp:141] Setting up conv1
I0713 15:33:00.057258 29118 net.cpp:148] Top shape: 100 20 24 24 (1152000)
I0713 15:33:00.057261 29118 net.cpp:156] Memory required for data: 5862800
I0713 15:33:00.057345 29118 layer_factory.hpp:77] Creating layer pool1
I0713 15:33:00.057356 29118 net.cpp:91] Creating Layer pool1
I0713 15:33:00.057359 29118 net.cpp:425] pool1 <- conv1
I0713 15:33:00.057364 29118 net.cpp:399] pool1 -> pool1
I0713 15:33:00.057394 29118 net.cpp:141] Setting up pool1
I0713 15:33:00.057411 29118 net.cpp:148] Top shape: 100 20 12 12 (288000)
I0713 15:33:00.057415 29118 net.cpp:156] Memory required for data: 7014800
I0713 15:33:00.057417 29118 layer_factory.hpp:77] Creating layer conv2
I0713 15:33:00.057426 29118 net.cpp:91] Creating Layer conv2
I0713 15:33:00.057461 29118 net.cpp:425] conv2 <- pool1
I0713 15:33:00.057468 29118 net.cpp:399] conv2 -> conv2
I0713 15:33:00.057672 29118 net.cpp:141] Setting up conv2
I0713 15:33:00.057688 29118 net.cpp:148] Top shape: 100 50 8 8 (320000)
I0713 15:33:00.057693 29118 net.cpp:156] Memory required for data: 8294800
I0713 15:33:00.057698 29118 layer_factory.hpp:77] Creating layer pool2
I0713 15:33:00.057703 29118 net.cpp:91] Creating Layer pool2
I0713 15:33:00.057706 29118 net.cpp:425] pool2 <- conv2
I0713 15:33:00.057710 29118 net.cpp:399] pool2 -> pool2
I0713 15:33:00.057718 29118 net.cpp:141] Setting up pool2
I0713 15:33:00.057732 29118 net.cpp:148] Top shape: 100 50 4 4 (80000)
I0713 15:33:00.057735 29118 net.cpp:156] Memory required for data: 8614800
I0713 15:33:00.057739 29118 layer_factory.hpp:77] Creating layer ip1
I0713 15:33:00.057744 29118 net.cpp:91] Creating Layer ip1
I0713 15:33:00.057747 29118 net.cpp:425] ip1 <- pool2
I0713 15:33:00.057752 29118 net.cpp:399] ip1 -> ip1
I0713 15:33:00.059432 29125 blocking_queue.cpp:50] Waiting for data
I0713 15:33:00.060648 29118 net.cpp:141] Setting up ip1
I0713 15:33:00.060680 29118 net.cpp:148] Top shape: 100 500 (50000)
I0713 15:33:00.060684 29118 net.cpp:156] Memory required for data: 8814800
I0713 15:33:00.060695 29118 layer_factory.hpp:77] Creating layer relu1
I0713 15:33:00.060703 29118 net.cpp:91] Creating Layer relu1
I0713 15:33:00.060706 29118 net.cpp:425] relu1 <- ip1
I0713 15:33:00.060711 29118 net.cpp:386] relu1 -> ip1 (in-place)
I0713 15:33:00.060719 29118 net.cpp:141] Setting up relu1
I0713 15:33:00.060724 29118 net.cpp:148] Top shape: 100 500 (50000)
I0713 15:33:00.060725 29118 net.cpp:156] Memory required for data: 9014800
I0713 15:33:00.060729 29118 layer_factory.hpp:77] Creating layer ip2
I0713 15:33:00.060736 29118 net.cpp:91] Creating Layer ip2
I0713 15:33:00.060739 29118 net.cpp:425] ip2 <- ip1
I0713 15:33:00.060744 29118 net.cpp:399] ip2 -> ip2
I0713 15:33:00.060791 29118 net.cpp:141] Setting up ip2
I0713 15:33:00.060807 29118 net.cpp:148] Top shape: 100 10 (1000)
I0713 15:33:00.060811 29118 net.cpp:156] Memory required for data: 9018800
I0713 15:33:00.060816 29118 layer_factory.hpp:77] Creating layer feat
I0713 15:33:00.060853 29118 net.cpp:91] Creating Layer feat
I0713 15:33:00.060868 29118 net.cpp:425] feat <- ip2
I0713 15:33:00.060873 29118 net.cpp:399] feat -> feat
I0713 15:33:00.060883 29118 net.cpp:141] Setting up feat
I0713 15:33:00.060888 29118 net.cpp:148] Top shape: 100 2 (200)
I0713 15:33:00.060890 29118 net.cpp:156] Memory required for data: 9019600
I0713 15:33:00.060896 29118 layer_factory.hpp:77] Creating layer conv1_p
I0713 15:33:00.060904 29118 net.cpp:91] Creating Layer conv1_p
I0713 15:33:00.060907 29118 net.cpp:425] conv1_p <- data_p
I0713 15:33:00.060912 29118 net.cpp:399] conv1_p -> conv1_p
I0713 15:33:00.060937 29118 net.cpp:141] Setting up conv1_p
I0713 15:33:00.060953 29118 net.cpp:148] Top shape: 100 20 24 24 (1152000)
I0713 15:33:00.060956 29118 net.cpp:156] Memory required for data: 13627600
I0713 15:33:00.060961 29118 net.cpp:484] Sharing parameters 'conv1_w' owned by layer 'conv1', param index 0
I0713 15:33:00.060963 29118 net.cpp:484] Sharing parameters 'conv1_b' owned by layer 'conv1', param index 1
I0713 15:33:00.060967 29118 layer_factory.hpp:77] Creating layer pool1_p
I0713 15:33:00.060973 29118 net.cpp:91] Creating Layer pool1_p
I0713 15:33:00.060976 29118 net.cpp:425] pool1_p <- conv1_p
I0713 15:33:00.060981 29118 net.cpp:399] pool1_p -> pool1_p
I0713 15:33:00.060988 29118 net.cpp:141] Setting up pool1_p
I0713 15:33:00.060993 29118 net.cpp:148] Top shape: 100 20 12 12 (288000)
I0713 15:33:00.060995 29118 net.cpp:156] Memory required for data: 14779600
I0713 15:33:00.060998 29118 layer_factory.hpp:77] Creating layer conv2_p
I0713 15:33:00.061004 29118 net.cpp:91] Creating Layer conv2_p
I0713 15:33:00.061007 29118 net.cpp:425] conv2_p <- pool1_p
I0713 15:33:00.061013 29118 net.cpp:399] conv2_p -> conv2_p
I0713 15:33:00.061416 29118 net.cpp:141] Setting up conv2_p
I0713 15:33:00.061432 29118 net.cpp:148] Top shape: 100 50 8 8 (320000)
I0713 15:33:00.061453 29118 net.cpp:156] Memory required for data: 16059600
I0713 15:33:00.061458 29118 net.cpp:484] Sharing parameters 'conv2_w' owned by layer 'conv2', param index 0
I0713 15:33:00.061463 29118 net.cpp:484] Sharing parameters 'conv2_b' owned by layer 'conv2', param index 1
I0713 15:33:00.061466 29118 layer_factory.hpp:77] Creating layer pool2_p
I0713 15:33:00.061472 29118 net.cpp:91] Creating Layer pool2_p
I0713 15:33:00.061475 29118 net.cpp:425] pool2_p <- conv2_p
I0713 15:33:00.061480 29118 net.cpp:399] pool2_p -> pool2_p
I0713 15:33:00.061491 29118 net.cpp:141] Setting up pool2_p
I0713 15:33:00.061496 29118 net.cpp:148] Top shape: 100 50 4 4 (80000)
I0713 15:33:00.061498 29118 net.cpp:156] Memory required for data: 16379600
I0713 15:33:00.061501 29118 layer_factory.hpp:77] Creating layer ip1_p
I0713 15:33:00.061507 29118 net.cpp:91] Creating Layer ip1_p
I0713 15:33:00.061509 29118 net.cpp:425] ip1_p <- pool2_p
I0713 15:33:00.061516 29118 net.cpp:399] ip1_p -> ip1_p
I0713 15:33:00.064556 29118 net.cpp:141] Setting up ip1_p
I0713 15:33:00.064626 29118 net.cpp:148] Top shape: 100 500 (50000)
I0713 15:33:00.064630 29118 net.cpp:156] Memory required for data: 16579600
I0713 15:33:00.064637 29118 net.cpp:484] Sharing parameters 'ip1_w' owned by layer 'ip1', param index 0
I0713 15:33:00.064642 29118 net.cpp:484] Sharing parameters 'ip1_b' owned by layer 'ip1', param index 1
I0713 15:33:00.064646 29118 layer_factory.hpp:77] Creating layer relu1_p
I0713 15:33:00.064657 29118 net.cpp:91] Creating Layer relu1_p
I0713 15:33:00.064661 29118 net.cpp:425] relu1_p <- ip1_p
I0713 15:33:00.064668 29118 net.cpp:386] relu1_p -> ip1_p (in-place)
I0713 15:33:00.064678 29118 net.cpp:141] Setting up relu1_p
I0713 15:33:00.064682 29118 net.cpp:148] Top shape: 100 500 (50000)
I0713 15:33:00.064684 29118 net.cpp:156] Memory required for data: 16779600
I0713 15:33:00.064687 29118 layer_factory.hpp:77] Creating layer ip2_p
I0713 15:33:00.064700 29118 net.cpp:91] Creating Layer ip2_p
I0713 15:33:00.064703 29118 net.cpp:425] ip2_p <- ip1_p
I0713 15:33:00.064709 29118 net.cpp:399] ip2_p -> ip2_p
I0713 15:33:00.064764 29118 net.cpp:141] Setting up ip2_p
I0713 15:33:00.064769 29118 net.cpp:148] Top shape: 100 10 (1000)
I0713 15:33:00.064770 29118 net.cpp:156] Memory required for data: 16783600
I0713 15:33:00.064776 29118 net.cpp:484] Sharing parameters 'ip2_w' owned by layer 'ip2', param index 0
I0713 15:33:00.064780 29118 net.cpp:484] Sharing parameters 'ip2_b' owned by layer 'ip2', param index 1
I0713 15:33:00.064784 29118 layer_factory.hpp:77] Creating layer feat_p
I0713 15:33:00.064788 29118 net.cpp:91] Creating Layer feat_p
I0713 15:33:00.064791 29118 net.cpp:425] feat_p <- ip2_p
I0713 15:33:00.064796 29118 net.cpp:399] feat_p -> feat_p
I0713 15:33:00.064805 29118 net.cpp:141] Setting up feat_p
I0713 15:33:00.064810 29118 net.cpp:148] Top shape: 100 2 (200)
I0713 15:33:00.064811 29118 net.cpp:156] Memory required for data: 16784400
I0713 15:33:00.064815 29118 net.cpp:484] Sharing parameters 'feat_w' owned by layer 'feat', param index 0
I0713 15:33:00.064817 29118 net.cpp:484] Sharing parameters 'feat_b' owned by layer 'feat', param index 1
I0713 15:33:00.064821 29118 layer_factory.hpp:77] Creating layer loss
I0713 15:33:00.064826 29118 net.cpp:91] Creating Layer loss
…
