…
I0715 11:42:47.115526 18762 net.cpp:313] The NetState phase (0) differed from the phase (1) specified by a rule in layer accuracy
I0715 11:42:47.115664 18762 net.cpp:49] Initializing net from parameters: 
name: "mnist_siamese_train_test_sim"
state {
  phase: TRAIN
}
layer {
  name: "pair_data"
  type: "Data"
  top: "pair_data"
  top: "label"
  include {
    phase: TRAIN
  }
  transform_param {
    scale: 0.00390625
  }
  data_param {
    source: "/home/shaogang/caffe/examples/siamese/mnist_siamese_train_leveldb_0to6"
    batch_size: 64
    backend: LEVELDB
  }
}
layer {
  name: "slice_pair"
  type: "Slice"
  bottom: "pair_data"
  top: "data"
  top: "data_p"
  slice_param {
    slice_dim: 1
    slice_point: 1
  }
}
layer {
  name: "conv1"
  type: "Convolution"
  bottom: "data"
  top: "conv1"
  param {
    name: "conv1_w"
    lr_mult: 1
  }
  param {
    name: "conv1_b"
    lr_mult: 2
  }
  convolution_param {
    num_output: 20
    kernel_size: 5
    stride: 1
    weight_filler {
      type: "xavier"
    }
    bias_filler {
      type: "constant"
    }
  }
}
layer {
  name: "pool1"
  type: "Pooling"
  bottom: "conv1"
  top: "pool1"
  pooling_param {
    pool: MAX
    kernel_size: 2
    stride: 2
  }
}
layer {
  name: "conv2"
  type: "Convolution"
  bottom: "pool1"
  top: "conv2"
  param {
    name: "conv2_w"
    lr_mult: 1
  }
  param {
    name: "conv2_b"
    lr_mult: 2
  }
  convolution_param {
    num_output: 50
    kernel_size: 5
    stride: 1
    weight_filler {
      type: "xavier"
    }
    bias_filler {
      type: "constant"
    }
  }
}
layer {
  name: "pool2"
  type: "Pooling"
  bottom: "conv2"
  top: "pool2"
  pooling_param {
    pool: MAX
    kernel_size: 2
    stride: 2
  }
}
layer {
  name: "ip1"
  type: "InnerProduct"
  bottom: "pool2"
  top: "ip1"
  param {
    name: "ip1_w"
    lr_mult: 1
  }
  param {
    name: "ip1_b"
    lr_mult: 2
  }
  inner_product_param {
    num_output: 500
    weight_filler {
      type: "xavier"
    }
    bias_filler {
      type: "constant"
    }
  }
}
layer {
  name: "relu1"
  type: "ReLU"
  bottom: "ip1"
  top: "ip1"
}
layer {
  name: "ip2"
  type: "InnerProduct"
  bottom: "ip1"
  top: "ip2"
  param {
    name: "ip2_w"
    lr_mult: 1
  }
  param {
    name: "ip2_b"
    lr_mult: 2
  }
  inner_product_param {
    num_output: 10
    weight_filler {
      type: "xavier"
    }
    bias_filler {
      type: "constant"
    }
  }
}
layer {
  name: "feat"
  type: "InnerProduct"
  bottom: "ip2"
  top: "feat"
  param {
    name: "feat_w"
    lr_mult: 1
  }
  param {
    name: "feat_b"
    lr_mult: 2
  }
  inner_product_param {
    num_output: 2
    weight_filler {
      type: "xavier"
    }
    bias_filler {
      type: "constant"
    }
  }
}
layer {
  name: "conv1_p"
  type: "Convolution"
  bottom: "data_p"
  top: "conv1_p"
  param {
    name: "conv1_w"
    lr_mult: 1
  }
  param {
    name: "conv1_b"
    lr_mult: 2
  }
  convolution_param {
    num_output: 20
    kernel_size: 5
    stride: 1
    weight_filler {
      type: "xavier"
    }
    bias_filler {
      type: "constant"
    }
  }
}
layer {
  name: "pool1_p"
  type: "Pooling"
  bottom: "conv1_p"
  top: "pool1_p"
  pooling_param {
    pool: MAX
    kernel_size: 2
    stride: 2
  }
}
layer {
  name: "conv2_p"
  type: "Convolution"
  bottom: "pool1_p"
  top: "conv2_p"
  param {
    name: "conv2_w"
    lr_mult: 1
  }
  param {
    name: "conv2_b"
    lr_mult: 2
  }
  convolution_param {
    num_output: 50
    kernel_size: 5
    stride: 1
    weight_filler {
      type: "xavier"
    }
    bias_filler {
      type: "constant"
    }
  }
}
layer {
  name: "pool2_p"
  type: "Pooling"
  bottom: "conv2_p"
  top: "pool2_p"
  pooling_param {
    pool: MAX
    kernel_size: 2
    stride: 2
  }
}
layer {
  name: "ip1_p"
  type: "InnerProduct"
  bottom: "pool2_p"
  top: "ip1_p"
  param {
    name: "ip1_w"
    lr_mult: 1
  }
  param {
    name: "ip1_b"
    lr_mult: 2
  }
  inner_product_param {
    num_output: 500
    weight_filler {
      type: "xavier"
    }
    bias_filler {
      type: "constant"
    }
  }
}
layer {
  name: "relu1_p"
  type: "ReLU"
  bottom: "ip1_p"
  top: "ip1_p"
}
layer {
  name: "ip2_p"
  type: "InnerProduct"
  bottom: "ip1_p"
  top: "ip2_p"
  param {
    name: "ip2_w"
    lr_mult: 1
  }
  param {
    name: "ip2_b"
    lr_mult: 2
  }
  inner_product_param {
    num_output: 10
    weight_filler {
      type: "xavier"
    }
    bias_filler {
      type: "constant"
    }
  }
}
layer {
  name: "feat_p"
  type: "InnerProduct"
  bottom: "ip2_p"
  top: "feat_p"
  param {
    name: "feat_w"
    lr_mult: 1
  }
  param {
    name: "feat_b"
    lr_mult: 2
  }
  inner_product_param {
    num_output: 2
    weight_filler {
      type: "xavier"
    }
    bias_filler {
      type: "constant"
    }
  }
}
layer {
  name: "concat"
  type: "Concat"
  bottom: "feat"
  bottom: "feat_p"
  top: "comb"
  concat_param {
    axis: 1
  }
}
layer {
  name: "fc1"
  type: "InnerProduct"
  bottom: "comb"
  top: "fc1"
  param {
    name: "fc1_w"
    lr_mult: 1
  }
  param {
    name: "fc1_b"
    lr_mult: 2
  }
  inner_product_param {
    num_output: 100
    weight_filler {
      type: "xavier"
    }
    bias_filler {
      type: "constant"
    }
  }
}
layer {
  name: "relu1_fc1"
  type: "ReLU"
  bottom: "fc1"
  top: "fc1"
}
layer {
  name: "fc2"
  type: "InnerProduct"
  bottom: "fc1"
  top: "fc2"
  param {
    name: "fc2_w"
    lr_mult: 1
  }
  param {
    name: "fc2_b"
    lr_mult: 2
  }
  inner_product_param {
    num_output: 50
    weight_filler {
      type: "xavier"
    }
    bias_filler {
      type: "constant"
    }
  }
}
layer {
  name: "relu2_fc2"
  type: "ReLU"
  bottom: "fc2"
  top: "fc2"
}
layer {
  name: "fc3"
  type: "InnerProduct"
  bottom: "fc2"
  top: "fc3"
  param {
    name: "fc3_w"
    lr_mult: 1
  }
  param {
    name: "fc3_b"
    lr_mult: 2
  }
  inner_product_param {
    num_output: 2
    weight_filler {
      type: "xavier"
    }
    bias_filler {
      type: "constant"
    }
  }
}
layer {
  name: "loss"
  type: "SoftmaxWithLoss"
  bottom: "fc3"
  bottom: "label"
  top: "loss"
}
I0715 11:42:47.115779 18762 layer_factory.hpp:77] Creating layer pair_data
I0715 11:42:47.116268 18762 net.cpp:91] Creating Layer pair_data
I0715 11:42:47.116282 18762 net.cpp:399] pair_data -> pair_data
I0715 11:42:47.116307 18762 net.cpp:399] pair_data -> label
I0715 11:42:47.128381 18766 db_leveldb.cpp:18] Opened leveldb /home/shaogang/caffe/examples/siamese/mnist_siamese_train_leveldb_0to6
I0715 11:42:47.143268 18762 data_layer.cpp:41] output data size: 64,2,28,28
I0715 11:42:47.144322 18762 net.cpp:141] Setting up pair_data
I0715 11:42:47.144397 18762 net.cpp:148] Top shape: 64 2 28 28 (100352)
I0715 11:42:47.144407 18762 net.cpp:148] Top shape: 64 (64)
I0715 11:42:47.144412 18762 net.cpp:156] Memory required for data: 401664
I0715 11:42:47.144426 18762 layer_factory.hpp:77] Creating layer slice_pair
I0715 11:42:47.144456 18762 net.cpp:91] Creating Layer slice_pair
I0715 11:42:47.144484 18762 net.cpp:425] slice_pair <- pair_data
I0715 11:42:47.144501 18762 net.cpp:399] slice_pair -> data
I0715 11:42:47.144518 18762 net.cpp:399] slice_pair -> data_p
I0715 11:42:47.144737 18762 net.cpp:141] Setting up slice_pair
I0715 11:42:47.144770 18762 net.cpp:148] Top shape: 64 1 28 28 (50176)
I0715 11:42:47.144778 18762 net.cpp:148] Top shape: 64 1 28 28 (50176)
I0715 11:42:47.144783 18762 net.cpp:156] Memory required for data: 803072
I0715 11:42:47.144788 18762 layer_factory.hpp:77] Creating layer conv1
I0715 11:42:47.144811 18762 net.cpp:91] Creating Layer conv1
I0715 11:42:47.144858 18762 net.cpp:425] conv1 <- data
I0715 11:42:47.144871 18762 net.cpp:399] conv1 -> conv1
I0715 11:42:47.144948 18762 net.cpp:141] Setting up conv1
I0715 11:42:47.144987 18762 net.cpp:148] Top shape: 64 20 24 24 (737280)
I0715 11:42:47.144995 18762 net.cpp:156] Memory required for data: 3752192
I0715 11:42:47.145010 18762 layer_factory.hpp:77] Creating layer pool1
I0715 11:42:47.145043 18762 net.cpp:91] Creating Layer pool1
I0715 11:42:47.145051 18762 net.cpp:425] pool1 <- conv1
I0715 11:42:47.145057 18762 net.cpp:399] pool1 -> pool1
I0715 11:42:47.145083 18762 net.cpp:141] Setting up pool1
I0715 11:42:47.145112 18762 net.cpp:148] Top shape: 64 20 12 12 (184320)
I0715 11:42:47.145119 18762 net.cpp:156] Memory required for data: 4489472
I0715 11:42:47.145124 18762 layer_factory.hpp:77] Creating layer conv2
I0715 11:42:47.145140 18762 net.cpp:91] Creating Layer conv2
I0715 11:42:47.145146 18762 net.cpp:425] conv2 <- pool1
I0715 11:42:47.145154 18762 net.cpp:399] conv2 -> conv2
I0715 11:42:47.145485 18762 net.cpp:141] Setting up conv2
I0715 11:42:47.145534 18762 net.cpp:148] Top shape: 64 50 8 8 (204800)
I0715 11:42:47.145542 18762 net.cpp:156] Memory required for data: 5308672
I0715 11:42:47.145555 18762 layer_factory.hpp:77] Creating layer pool2
I0715 11:42:47.145565 18762 net.cpp:91] Creating Layer pool2
I0715 11:42:47.145570 18762 net.cpp:425] pool2 <- conv2
I0715 11:42:47.145582 18762 net.cpp:399] pool2 -> pool2
I0715 11:42:47.145596 18762 net.cpp:141] Setting up pool2
I0715 11:42:47.145604 18762 net.cpp:148] Top shape: 64 50 4 4 (51200)
I0715 11:42:47.145609 18762 net.cpp:156] Memory required for data: 5513472
I0715 11:42:47.145615 18762 layer_factory.hpp:77] Creating layer ip1
I0715 11:42:47.145633 18762 net.cpp:91] Creating Layer ip1
I0715 11:42:47.145664 18762 net.cpp:425] ip1 <- pool2
I0715 11:42:47.145680 18762 net.cpp:399] ip1 -> ip1
I0715 11:42:47.154109 18762 net.cpp:141] Setting up ip1
I0715 11:42:47.154274 18762 net.cpp:148] Top shape: 64 500 (32000)
I0715 11:42:47.154335 18762 net.cpp:156] Memory required for data: 5641472
I0715 11:42:47.154427 18762 layer_factory.hpp:77] Creating layer relu1
I0715 11:42:47.154484 18762 net.cpp:91] Creating Layer relu1
I0715 11:42:47.154647 18762 net.cpp:425] relu1 <- ip1
I0715 11:42:47.154803 18762 net.cpp:386] relu1 -> ip1 (in-place)
I0715 11:42:47.155037 18762 net.cpp:141] Setting up relu1
I0715 11:42:47.155163 18762 net.cpp:148] Top shape: 64 500 (32000)
I0715 11:42:47.155509 18762 net.cpp:156] Memory required for data: 5769472
I0715 11:42:47.155710 18762 layer_factory.hpp:77] Creating layer ip2
I0715 11:42:47.155936 18762 net.cpp:91] Creating Layer ip2
I0715 11:42:47.156015 18762 net.cpp:425] ip2 <- ip1
I0715 11:42:47.156075 18762 net.cpp:399] ip2 -> ip2
I0715 11:42:47.156229 18762 net.cpp:141] Setting up ip2
I0715 11:42:47.156291 18762 net.cpp:148] Top shape: 64 10 (640)
I0715 11:42:47.156550 18762 net.cpp:156] Memory required for data: 5772032
I0715 11:42:47.156656 18762 layer_factory.hpp:77] Creating layer feat
I0715 11:42:47.156736 18762 net.cpp:91] Creating Layer feat
I0715 11:42:47.156800 18762 net.cpp:425] feat <- ip2
I0715 11:42:47.156847 18762 net.cpp:399] feat -> feat
I0715 11:42:47.157079 18762 net.cpp:141] Setting up feat
I0715 11:42:47.157153 18762 net.cpp:148] Top shape: 64 2 (128)
I0715 11:42:47.157210 18762 net.cpp:156] Memory required for data: 5772544
I0715 11:42:47.157258 18762 layer_factory.hpp:77] Creating layer conv1_p
I0715 11:42:47.157367 18762 net.cpp:91] Creating Layer conv1_p
I0715 11:42:47.157424 18762 net.cpp:425] conv1_p <- data_p
I0715 11:42:47.157515 18762 net.cpp:399] conv1_p -> conv1_p
I0715 11:42:47.157652 18762 net.cpp:141] Setting up conv1_p
I0715 11:42:47.157722 18762 net.cpp:148] Top shape: 64 20 24 24 (737280)
I0715 11:42:47.157747 18762 net.cpp:156] Memory required for data: 8721664
I0715 11:42:47.157815 18762 net.cpp:484] Sharing parameters 'conv1_w' owned by layer 'conv1', param index 0
I0715 11:42:47.157857 18762 net.cpp:484] Sharing parameters 'conv1_b' owned by layer 'conv1', param index 1
I0715 11:42:47.158004 18762 layer_factory.hpp:77] Creating layer pool1_p
I0715 11:42:47.158078 18762 net.cpp:91] Creating Layer pool1_p
I0715 11:42:47.158149 18762 net.cpp:425] pool1_p <- conv1_p
I0715 11:42:47.158186 18762 net.cpp:399] pool1_p -> pool1_p
I0715 11:42:47.158249 18762 net.cpp:141] Setting up pool1_p
I0715 11:42:47.158419 18762 net.cpp:148] Top shape: 64 20 12 12 (184320)
I0715 11:42:47.158491 18762 net.cpp:156] Memory required for data: 9458944
I0715 11:42:47.158519 18762 layer_factory.hpp:77] Creating layer conv2_p
I0715 11:42:47.158583 18762 net.cpp:91] Creating Layer conv2_p
I0715 11:42:47.158645 18762 net.cpp:425] conv2_p <- pool1_p
I0715 11:42:47.158716 18762 net.cpp:399] conv2_p -> conv2_p
I0715 11:42:47.159852 18762 net.cpp:141] Setting up conv2_p
I0715 11:42:47.160063 18762 net.cpp:148] Top shape: 64 50 8 8 (204800)
I0715 11:42:47.160317 18762 net.cpp:156] Memory required for data: 10278144
I0715 11:42:47.160396 18762 net.cpp:484] Sharing parameters 'conv2_w' owned by layer 'conv2', param index 0
I0715 11:42:47.160498 18762 net.cpp:484] Sharing parameters 'conv2_b' owned by layer 'conv2', param index 1
I0715 11:42:47.160569 18762 layer_factory.hpp:77] Creating layer pool2_p
I0715 11:42:47.160739 18762 net.cpp:91] Creating Layer pool2_p
I0715 11:42:47.160841 18762 net.cpp:425] pool2_p <- conv2_p
I0715 11:42:47.160897 18762 net.cpp:399] pool2_p -> pool2_p
I0715 11:42:47.161031 18762 net.cpp:141] Setting up pool2_p
I0715 11:42:47.161178 18762 net.cpp:148] Top shape: 64 50 4 4 (51200)
I0715 11:42:47.161298 18762 net.cpp:156] Memory required for data: 10482944
I0715 11:42:47.161344 18762 layer_factory.hpp:77] Creating layer ip1_p
I0715 11:42:47.161396 18762 net.cpp:91] Creating Layer ip1_p
I0715 11:42:47.161429 18762 net.cpp:425] ip1_p <- pool2_p
I0715 11:42:47.161541 18762 net.cpp:399] ip1_p -> ip1_p
I0715 11:42:47.166189 18762 net.cpp:141] Setting up ip1_p
I0715 11:42:47.166298 18762 net.cpp:148] Top shape: 64 500 (32000)
I0715 11:42:47.166321 18762 net.cpp:156] Memory required for data: 10610944
I0715 11:42:47.166339 18762 net.cpp:484] Sharing parameters 'ip1_w' owned by layer 'ip1', param index 0
I0715 11:42:47.166357 18762 net.cpp:484] Sharing parameters 'ip1_b' owned by layer 'ip1', param index 1
I0715 11:42:47.166370 18762 layer_factory.hpp:77] Creating layer relu1_p
I0715 11:42:47.166393 18762 net.cpp:91] Creating Layer relu1_p
I0715 11:42:47.166407 18762 net.cpp:425] relu1_p <- ip1_p
I0715 11:42:47.166424 18762 net.cpp:386] relu1_p -> ip1_p (in-place)
I0715 11:42:47.166445 18762 net.cpp:141] Setting up relu1_p
I0715 11:42:47.166460 18762 net.cpp:148] Top shape: 64 500 (32000)
I0715 11:42:47.166473 18762 net.cpp:156] Memory required for data: 10738944
I0715 11:42:47.166486 18762 layer_factory.hpp:77] Creating layer ip2_p
I0715 11:42:47.166509 18762 net.cpp:91] Creating Layer ip2_p
I0715 11:42:47.166524 18762 net.cpp:425] ip2_p <- ip1_p
I0715 11:42:47.166541 18762 net.cpp:399] ip2_p -> ip2_p
I0715 11:42:47.166609 18762 net.cpp:141] Setting up ip2_p
I0715 11:42:47.166626 18762 net.cpp:148] Top shape: 64 10 (640)
I0715 11:42:47.166640 18762 net.cpp:156] Memory required for data: 10741504
I0715 11:42:47.166664 18762 net.cpp:484] Sharing parameters 'ip2_w' owned by layer 'ip2', param index 0
I0715 11:42:47.166682 18762 net.cpp:484] Sharing parameters 'ip2_b' owned by layer 'ip2', param index 1
I0715 11:42:47.166697 18762 layer_factory.hpp:77] Creating layer feat_p
I0715 11:42:47.166712 18762 net.cpp:91] Creating Layer feat_p
I0715 11:42:47.166726 18762 net.cpp:425] feat_p <- ip2_p
I0715 11:42:47.166743 18762 net.cpp:399] feat_p -> feat_p
I0715 11:42:47.166766 18762 net.cpp:141] Setting up feat_p
I0715 11:42:47.166784 18762 net.cpp:148] Top shape: 64 2 (128)
I0715 11:42:47.166796 18762 net.cpp:156] Memory required for data: 10742016
I0715 11:42:47.166810 18762 net.cpp:484] Sharing parameters 'feat_w' owned by layer 'feat', param index 0
I0715 11:42:47.166823 18762 net.cpp:484] Sharing parameters 'feat_b' owned by layer 'feat', param index 1
I0715 11:42:47.166846 18762 layer_factory.hpp:77] Creating layer concat
I0715 11:42:47.166880 18762 net.cpp:91] Creating Layer concat
I0715 11:42:47.166894 18762 net.cpp:425] concat <- feat
I0715 11:42:47.166908 18762 net.cpp:425] concat <- feat_p
I0715 11:42:47.166923 18762 net.cpp:399] concat -> comb
I0715 11:42:47.166945 18762 net.cpp:141] Setting up concat
I0715 11:42:47.166961 18762 net.cpp:148] Top shape: 64 4 (256)
I0715 11:42:47.166975 18762 net.cpp:156] Memory required for data: 10743040
I0715 11:42:47.166987 18762 layer_factory.hpp:77] Creating layer fc1
I0715 11:42:47.167007 18762 net.cpp:91] Creating Layer fc1
I0715 11:42:47.167022 18762 net.cpp:425] fc1 <- comb
I0715 11:42:47.167040 18762 net.cpp:399] fc1 -> fc1
I0715 11:42:47.167491 18762 net.cpp:141] Setting up fc1
I0715 11:42:47.167573 18762 net.cpp:148] Top shape: 64 100 (6400)
I0715 11:42:47.167590 18762 net.cpp:156] Memory required for data: 10768640
I0715 11:42:47.167608 18762 layer_factory.hpp:77] Creating layer relu1_fc1
I0715 11:42:47.167630 18762 net.cpp:91] Creating Layer relu1_fc1
I0715 11:42:47.167645 18762 net.cpp:425] relu1_fc1 <- fc1
I0715 11:42:47.167660 18762 net.cpp:386] relu1_fc1 -> fc1 (in-place)
I0715 11:42:47.167681 18762 net.cpp:141] Setting up relu1_fc1
I0715 11:42:47.167703 18762 net.cpp:148] Top shape: 64 100 (6400)
I0715 11:42:47.167719 18762 net.cpp:156] Memory required for data: 10794240
I0715 11:42:47.167732 18762 layer_factory.hpp:77] Creating layer fc2
I0715 11:42:47.167749 18762 net.cpp:91] Creating Layer fc2
I0715 11:42:47.167762 18762 net.cpp:425] fc2 <- fc1
I0715 11:42:47.167778 18762 net.cpp:399] fc2 -> fc2
I0715 11:42:47.167837 18762 net.cpp:141] Setting up fc2
I0715 11:42:47.167855 18762 net.cpp:148] Top shape: 64 50 (3200)
I0715 11:42:47.167867 18762 net.cpp:156] Memory required for data: 10807040
I0715 11:42:47.167882 18762 layer_factory.hpp:77] Creating layer relu2_fc2
I0715 11:42:47.167897 18762 net.cpp:91] Creating Layer relu2_fc2
I0715 11:42:47.167911 18762 net.cpp:425] relu2_fc2 <- fc2
I0715 11:42:47.167923 18762 net.cpp:386] relu2_fc2 -> fc2 (in-place)
I0715 11:42:47.167939 18762 net.cpp:141] Setting up relu2_fc2
I0715 11:42:47.167953 18762 net.cpp:148] Top shape: 64 50 (3200)
I0715 11:42:47.167965 18762 net.cpp:156] Memory required for data: 10819840
I0715 11:42:47.167978 18762 layer_factory.hpp:77] Creating layer fc3
I0715 11:42:47.167994 18762 net.cpp:91] Creating Layer fc3
I0715 11:42:47.168006 18762 net.cpp:425] fc3 <- fc2
I0715 11:42:47.168023 18762 net.cpp:399] fc3 -> fc3
I0715 11:42:47.168050 18762 net.cpp:141] Setting up fc3
I0715 11:42:47.168069 18762 net.cpp:148] Top shape: 64 2 (128)
I0715 11:42:47.168082 18762 net.cpp:156] Memory required for data: 10820352
I0715 11:42:47.168097 18762 layer_factory.hpp:77] Creating layer loss
I0715 11:42:47.168120 18762 net.cpp:91] Creating Layer loss
I0715 11:42:47.168134 18762 net.cpp:425] loss <- fc3
I0715 11:42:47.168148 18762 net.cpp:425] loss <- label
I0715 11:42:47.168172 18762 net.cpp:399] loss -> loss
I0715 11:42:47.168198 18762 layer_factory.hpp:77] Creating layer loss
…
I0715 11:42:47.169745 18762 net.cpp:313] The NetState phase (1) differed from the phase (0) specified by a rule in layer pair_data
I0715 11:42:47.170189 18762 net.cpp:49] Initializing net from parameters: 
name: "mnist_siamese_train_test_sim"
state {
  phase: TEST
}
layer {
  name: "pair_data"
  type: "Data"
  top: "pair_data"
  top: "label"
  include {
    phase: TEST
  }
  transform_param {
    scale: 0.00390625
  }
  data_param {
    source: "/home/shaogang/caffe/examples/siamese/mnist_siamese_test_leveldb_789"
    batch_size: 100
    backend: LEVELDB
  }
}
layer {
  name: "slice_pair"
  type: "Slice"
  bottom: "pair_data"
  top: "data"
  top: "data_p"
  slice_param {
    slice_dim: 1
    slice_point: 1
  }
}
layer {
  name: "conv1"
  type: "Convolution"
  bottom: "data"
  top: "conv1"
  param {
    name: "conv1_w"
    lr_mult: 1
  }
  param {
    name: "conv1_b"
    lr_mult: 2
  }
  convolution_param {
    num_output: 20
    kernel_size: 5
    stride: 1
    weight_filler {
      type: "xavier"
    }
    bias_filler {
      type: "constant"
    }
  }
}
layer {
  name: "pool1"
  type: "Pooling"
  bottom: "conv1"
  top: "pool1"
  pooling_param {
    pool: MAX
    kernel_size: 2
    stride: 2
  }
}
layer {
  name: "conv2"
  type: "Convolution"
  bottom: "pool1"
  top: "conv2"
  param {
    name: "conv2_w"
    lr_mult: 1
  }
  param {
    name: "conv2_b"
    lr_mult: 2
  }
  convolution_param {
    num_output: 50
    kernel_size: 5
    stride: 1
    weight_filler {
      type: "xavier"
    }
    bias_filler {
      type: "constant"
    }
  }
}
layer {
  name: "pool2"
  type: "Pooling"
  bottom: "conv2"
  top: "pool2"
  pooling_param {
    pool: MAX
    kernel_size: 2
    stride: 2
  }
}
layer {
  name: "ip1"
  type: "InnerProduct"
  bottom: "pool2"
  top: "ip1"
  param {
    name: "ip1_w"
    lr_mult: 1
  }
  param {
    name: "ip1_b"
    lr_mult: 2
  }
  inner_product_param {
    num_output: 500
    weight_filler {
      type: "xavier"
    }
    bias_filler {
      type: "constant"
    }
  }
}
layer {
  name: "relu1"
  type: "ReLU"
  bottom: "ip1"
  top: "ip1"
}
layer {
  name: "ip2"
  type: "InnerProduct"
  bottom: "ip1"
  top: "ip2"
  param {
    name: "ip2_w"
    lr_mult: 1
  }
  param {
    name: "ip2_b"
    lr_mult: 2
  }
  inner_product_param {
    num_output: 10
    weight_filler {
      type: "xavier"
    }
    bias_filler {
      type: "constant"
    }
  }
}
layer {
  name: "feat"
  type: "InnerProduct"
  bottom: "ip2"
  top: "feat"
  param {
    name: "feat_w"
    lr_mult: 1
  }
  param {
    name: "feat_b"
    lr_mult: 2
  }
  inner_product_param {
    num_output: 2
    weight_filler {
      type: "xavier"
    }
    bias_filler {
      type: "constant"
    }
  }
}
layer {
  name: "conv1_p"
  type: "Convolution"
  bottom: "data_p"
  top: "conv1_p"
  param {
    name: "conv1_w"
    lr_mult: 1
  }
  param {
    name: "conv1_b"
    lr_mult: 2
  }
  convolution_param {
    num_output: 20
    kernel_size: 5
    stride: 1
    weight_filler {
      type: "xavier"
    }
    bias_filler {
      type: "constant"
    }
  }
}
layer {
  name: "pool1_p"
  type: "Pooling"
  bottom: "conv1_p"
  top: "pool1_p"
  pooling_param {
    pool: MAX
    kernel_size: 2
    stride: 2
  }
}
layer {
  name: "conv2_p"
  type: "Convolution"
  bottom: "pool1_p"
  top: "conv2_p"
  param {
    name: "conv2_w"
    lr_mult: 1
  }
  param {
    name: "conv2_b"
    lr_mult: 2
  }
  convolution_param {
    num_output: 50
    kernel_size: 5
    stride: 1
    weight_filler {
      type: "xavier"
    }
    bias_filler {
      type: "constant"
    }
  }
}
layer {
  name: "pool2_p"
  type: "Pooling"
  bottom: "conv2_p"
  top: "pool2_p"
  pooling_param {
    pool: MAX
    kernel_size: 2
    stride: 2
  }
}
layer {
  name: "ip1_p"
  type: "InnerProduct"
  bottom: "pool2_p"
  top: "ip1_p"
  param {
    name: "ip1_w"
    lr_mult: 1
  }
  param {
    name: "ip1_b"
    lr_mult: 2
  }
  inner_product_param {
    num_output: 500
    weight_filler {
      type: "xavier"
    }
    bias_filler {
      type: "constant"
    }
  }
}
layer {
  name: "relu1_p"
  type: "ReLU"
  bottom: "ip1_p"
  top: "ip1_p"
}
layer {
  name: "ip2_p"
  type: "InnerProduct"
  bottom: "ip1_p"
  top: "ip2_p"
  param {
    name: "ip2_w"
    lr_mult: 1
  }
  param {
    name: "ip2_b"
    lr_mult: 2
  }
  inner_product_param {
    num_output: 10
    weight_filler {
      type: "xavier"
    }
    bias_filler {
      type: "constant"
    }
  }
}
layer {
  name: "feat_p"
  type: "InnerProduct"
  bottom: "ip2_p"
  top: "feat_p"
  param {
    name: "feat_w"
    lr_mult: 1
  }
  param {
    name: "feat_b"
    lr_mult: 2
  }
  inner_product_param {
    num_output: 2
    weight_filler {
      type: "xavier"
    }
    bias_filler {
      type: "constant"
    }
  }
}
layer {
  name: "concat"
  type: "Concat"
  bottom: "feat"
  bottom: "feat_p"
  top: "comb"
  concat_param {
    axis: 1
  }
}
layer {
  name: "fc1"
  type: "InnerProduct"
  bottom: "comb"
  top: "fc1"
  param {
    name: "fc1_w"
    lr_mult: 1
  }
  param {
    name: "fc1_b"
    lr_mult: 2
  }
  inner_product_param {
    num_output: 100
    weight_filler {
      type: "xavier"
    }
    bias_filler {
      type: "constant"
    }
  }
}
layer {
  name: "relu1_fc1"
  type: "ReLU"
  bottom: "fc1"
  top: "fc1"
}
layer {
  name: "fc2"
  type: "InnerProduct"
  bottom: "fc1"
  top: "fc2"
  param {
    name: "fc2_w"
    lr_mult: 1
  }
  param {
    name: "fc2_b"
    lr_mult: 2
  }
  inner_product_param {
    num_output: 50
    weight_filler {
      type: "xavier"
    }
    bias_filler {
      type: "constant"
    }
  }
}
layer {
  name: "relu2_fc2"
  type: "ReLU"
  bottom: "fc2"
  top: "fc2"
}
layer {
  name: "fc3"
  type: "InnerProduct"
  bottom: "fc2"
  top: "fc3"
  param {
    name: "fc3_w"
    lr_mult: 1
  }
  param {
    name: "fc3_b"
    lr_mult: 2
  }
  inner_product_param {
    num_output: 2
    weight_filler {
      type: "xavier"
    }
    bias_filler {
      type: "constant"
    }
  }
}
layer {
  name: "loss"
  type: "SoftmaxWithLoss"
  bottom: "fc3"
  bottom: "label"
  top: "loss"
}
layer {
  name: "accuracy"
  type: "Accuracy"
  bottom: "fc3"
  bottom: "label"
  top: "accuracy"
  include {
    phase: TEST
  }
}
I0715 11:42:47.172260 18762 layer_factory.hpp:77] Creating layer pair_data
I0715 11:42:47.172482 18762 net.cpp:91] Creating Layer pair_data
I0715 11:42:47.172515 18762 net.cpp:399] pair_data -> pair_data
I0715 11:42:47.172547 18762 net.cpp:399] pair_data -> label
I0715 11:42:47.184653 18768 db_leveldb.cpp:18] Opened leveldb /home/shaogang/caffe/examples/siamese/mnist_siamese_test_leveldb_789
I0715 11:42:47.185111 18762 data_layer.cpp:41] output data size: 100,2,28,28
I0715 11:42:47.186046 18762 net.cpp:141] Setting up pair_data
I0715 11:42:47.186075 18762 net.cpp:148] Top shape: 100 2 28 28 (156800)
I0715 11:42:47.186117 18762 net.cpp:148] Top shape: 100 (100)
I0715 11:42:47.186122 18762 net.cpp:156] Memory required for data: 627600
I0715 11:42:47.186132 18762 layer_factory.hpp:77] Creating layer label_pair_data_1_split
I0715 11:42:47.186151 18762 net.cpp:91] Creating Layer label_pair_data_1_split
I0715 11:42:47.186156 18762 net.cpp:425] label_pair_data_1_split <- label
I0715 11:42:47.186167 18762 net.cpp:399] label_pair_data_1_split -> label_pair_data_1_split_0
I0715 11:42:47.186179 18762 net.cpp:399] label_pair_data_1_split -> label_pair_data_1_split_1
I0715 11:42:47.186192 18762 net.cpp:141] Setting up label_pair_data_1_split
I0715 11:42:47.186198 18762 net.cpp:148] Top shape: 100 (100)
I0715 11:42:47.186203 18762 net.cpp:148] Top shape: 100 (100)
I0715 11:42:47.186208 18762 net.cpp:156] Memory required for data: 628400
I0715 11:42:47.186211 18762 layer_factory.hpp:77] Creating layer slice_pair
I0715 11:42:47.186223 18762 net.cpp:91] Creating Layer slice_pair
I0715 11:42:47.186228 18762 net.cpp:425] slice_pair <- pair_data
I0715 11:42:47.186233 18762 net.cpp:399] slice_pair -> data
I0715 11:42:47.186244 18762 net.cpp:399] slice_pair -> data_p
I0715 11:42:47.186254 18762 net.cpp:141] Setting up slice_pair
I0715 11:42:47.186262 18762 net.cpp:148] Top shape: 100 1 28 28 (78400)
I0715 11:42:47.186269 18762 net.cpp:148] Top shape: 100 1 28 28 (78400)
I0715 11:42:47.186274 18762 net.cpp:156] Memory required for data: 1255600
I0715 11:42:47.186278 18762 layer_factory.hpp:77] Creating layer conv1
I0715 11:42:47.186295 18762 net.cpp:91] Creating Layer conv1
I0715 11:42:47.186300 18762 net.cpp:425] conv1 <- data
I0715 11:42:47.186307 18762 net.cpp:399] conv1 -> conv1
I0715 11:42:47.186349 18762 net.cpp:141] Setting up conv1
I0715 11:42:47.186357 18762 net.cpp:148] Top shape: 100 20 24 24 (1152000)
I0715 11:42:47.186362 18762 net.cpp:156] Memory required for data: 5863600
I0715 11:42:47.186373 18762 layer_factory.hpp:77] Creating layer pool1
I0715 11:42:47.186384 18762 net.cpp:91] Creating Layer pool1
I0715 11:42:47.186389 18762 net.cpp:425] pool1 <- conv1
I0715 11:42:47.186396 18762 net.cpp:399] pool1 -> pool1
I0715 11:42:47.186408 18762 net.cpp:141] Setting up pool1
I0715 11:42:47.186414 18762 net.cpp:148] Top shape: 100 20 12 12 (288000)
I0715 11:42:47.186419 18762 net.cpp:156] Memory required for data: 7015600
I0715 11:42:47.186424 18762 layer_factory.hpp:77] Creating layer conv2
I0715 11:42:47.186435 18762 net.cpp:91] Creating Layer conv2
I0715 11:42:47.186440 18762 net.cpp:425] conv2 <- pool1
I0715 11:42:47.186453 18762 net.cpp:399] conv2 -> conv2
I0715 11:42:47.186753 18762 net.cpp:141] Setting up conv2
I0715 11:42:47.186764 18762 net.cpp:148] Top shape: 100 50 8 8 (320000)
I0715 11:42:47.186769 18762 net.cpp:156] Memory required for data: 8295600
I0715 11:42:47.186777 18762 layer_factory.hpp:77] Creating layer pool2
I0715 11:42:47.186784 18762 net.cpp:91] Creating Layer pool2
I0715 11:42:47.186789 18762 net.cpp:425] pool2 <- conv2
I0715 11:42:47.186796 18762 net.cpp:399] pool2 -> pool2
I0715 11:42:47.186806 18762 net.cpp:141] Setting up pool2
I0715 11:42:47.186812 18762 net.cpp:148] Top shape: 100 50 4 4 (80000)
I0715 11:42:47.186817 18762 net.cpp:156] Memory required for data: 8615600
I0715 11:42:47.186822 18762 layer_factory.hpp:77] Creating layer ip1
I0715 11:42:47.186832 18762 net.cpp:91] Creating Layer ip1
I0715 11:42:47.186837 18762 net.cpp:425] ip1 <- pool2
I0715 11:42:47.186844 18762 net.cpp:399] ip1 -> ip1
I0715 11:42:47.190392 18762 net.cpp:141] Setting up ip1
I0715 11:42:47.191395 18769 blocking_queue.cpp:50] Waiting for data
I0715 11:42:47.194619 18762 net.cpp:148] Top shape: 100 500 (50000)
I0715 11:42:47.194954 18762 net.cpp:156] Memory required for data: 8815600
I0715 11:42:47.195224 18762 layer_factory.hpp:77] Creating layer relu1
I0715 11:42:47.195263 18762 net.cpp:91] Creating Layer relu1
I0715 11:42:47.195281 18762 net.cpp:425] relu1 <- ip1
I0715 11:42:47.195297 18762 net.cpp:386] relu1 -> ip1 (in-place)
I0715 11:42:47.195318 18762 net.cpp:141] Setting up relu1
I0715 11:42:47.195345 18762 net.cpp:148] Top shape: 100 500 (50000)
I0715 11:42:47.195368 18762 net.cpp:156] Memory required for data: 9015600
I0715 11:42:47.195380 18762 layer_factory.hpp:77] Creating layer ip2
I0715 11:42:47.195399 18762 net.cpp:91] Creating Layer ip2
I0715 11:42:47.195412 18762 net.cpp:425] ip2 <- ip1
I0715 11:42:47.195427 18762 net.cpp:399] ip2 -> ip2
I0715 11:42:47.195502 18762 net.cpp:141] Setting up ip2
I0715 11:42:47.195519 18762 net.cpp:148] Top shape: 100 10 (1000)
I0715 11:42:47.195533 18762 net.cpp:156] Memory required for data: 9019600
I0715 11:42:47.195547 18762 layer_factory.hpp:77] Creating layer feat
I0715 11:42:47.195564 18762 net.cpp:91] Creating Layer feat
I0715 11:42:47.195577 18762 net.cpp:425] feat <- ip2
I0715 11:42:47.195592 18762 net.cpp:399] feat -> feat
I0715 11:42:47.195613 18762 net.cpp:141] Setting up feat
I0715 11:42:47.195629 18762 net.cpp:148] Top shape: 100 2 (200)
I0715 11:42:47.195641 18762 net.cpp:156] Memory required for data: 9020400
I0715 11:42:47.195658 18762 layer_factory.hpp:77] Creating layer conv1_p
I0715 11:42:47.195678 18762 net.cpp:91] Creating Layer conv1_p
I0715 11:42:47.195693 18762 net.cpp:425] conv1_p <- data_p
I0715 11:42:47.195708 18762 net.cpp:399] conv1_p -> conv1_p
I0715 11:42:47.195746 18762 net.cpp:141] Setting up conv1_p
I0715 11:42:47.195765 18762 net.cpp:148] Top shape: 100 20 24 24 (1152000)
I0715 11:42:47.195776 18762 net.cpp:156] Memory required for data: 13628400
I0715 11:42:47.195791 18762 net.cpp:484] Sharing parameters 'conv1_w' owned by layer 'conv1', param index 0
I0715 11:42:47.195803 18762 net.cpp:484] Sharing parameters 'conv1_b' owned by layer 'conv1', param index 1
I0715 11:42:47.195816 18762 layer_factory.hpp:77] Creating layer pool1_p
I0715 11:42:47.195832 18762 net.cpp:91] Creating Layer pool1_p
I0715 11:42:47.195845 18762 net.cpp:425] pool1_p <- conv1_p
I0715 11:42:47.195863 18762 net.cpp:399] pool1_p -> pool1_p
I0715 11:42:47.195881 18762 net.cpp:141] Setting up pool1_p
I0715 11:42:47.195897 18762 net.cpp:148] Top shape: 100 20 12 12 (288000)
I0715 11:42:47.195909 18762 net.cpp:156] Memory required for data: 14780400
I0715 11:42:47.195921 18762 layer_factory.hpp:77] Creating layer conv2_p
I0715 11:42:47.195941 18762 net.cpp:91] Creating Layer conv2_p
I0715 11:42:47.195955 18762 net.cpp:425] conv2_p <- pool1_p
I0715 11:42:47.195971 18762 net.cpp:399] conv2_p -> conv2_p
I0715 11:42:47.196185 18762 net.cpp:141] Setting up conv2_p
I0715 11:42:47.197917 18762 net.cpp:148] Top shape: 100 50 8 8 (320000)
I0715 11:42:47.202765 18762 net.cpp:156] Memory required for data: 16060400
I0715 11:42:47.203322 18762 net.cpp:484] Sharing parameters 'conv2_w' owned by layer 'conv2', param index 0
I0715 11:42:47.205026 18762 net.cpp:484] Sharing parameters 'conv2_b' owned by layer 'conv2', param index 1
I0715 11:42:47.206342 18762 layer_factory.hpp:77] Creating layer pool2_p
I0715 11:42:47.206431 18762 net.cpp:91] Creating Layer pool2_p
I0715 11:42:47.206509 18762 net.cpp:425] pool2_p <- conv2_p
I0715 11:42:47.206570 18762 net.cpp:399] pool2_p -> pool2_p
I0715 11:42:47.206718 18762 net.cpp:141] Setting up pool2_p
I0715 11:42:47.206776 18762 net.cpp:148] Top shape: 100 50 4 4 (80000)
I0715 11:42:47.206799 18762 net.cpp:156] Memory required for data: 16380400
I0715 11:42:47.206836 18762 layer_factory.hpp:77] Creating layer ip1_p
I0715 11:42:47.206872 18762 net.cpp:91] Creating Layer ip1_p
I0715 11:42:47.206902 18762 net.cpp:425] ip1_p <- pool2_p
I0715 11:42:47.206955 18762 net.cpp:399] ip1_p -> ip1_p
I0715 11:42:47.222939 18762 net.cpp:141] Setting up ip1_p
I0715 11:42:47.223275 18762 net.cpp:148] Top shape: 100 500 (50000)
I0715 11:42:47.223306 18762 net.cpp:156] Memory required for data: 16580400
I0715 11:42:47.223333 18762 net.cpp:484] Sharing parameters 'ip1_w' owned by layer 'ip1', param index 0
I0715 11:42:47.223358 18762 net.cpp:484] Sharing parameters 'ip1_b' owned by layer 'ip1', param index 1
I0715 11:42:47.223381 18762 layer_factory.hpp:77] Creating layer relu1_p
I0715 11:42:47.223414 18762 net.cpp:91] Creating Layer relu1_p
I0715 11:42:47.223449 18762 net.cpp:425] relu1_p <- ip1_p
I0715 11:42:47.223489 18762 net.cpp:386] relu1_p -> ip1_p (in-place)
I0715 11:42:47.223521 18762 net.cpp:141] Setting up relu1_p
I0715 11:42:47.223546 18762 net.cpp:148] Top shape: 100 500 (50000)
I0715 11:42:47.223565 18762 net.cpp:156] Memory required for data: 16780400
I0715 11:42:47.223585 18762 layer_factory.hpp:77] Creating layer ip2_p
I0715 11:42:47.223616 18762 net.cpp:91] Creating Layer ip2_p
I0715 11:42:47.223639 18762 net.cpp:425] ip2_p <- ip1_p
I0715 11:42:47.223666 18762 net.cpp:399] ip2_p -> ip2_p
I0715 11:42:47.223767 18762 net.cpp:141] Setting up ip2_p
I0715 11:42:47.223794 18762 net.cpp:148] Top shape: 100 10 (1000)
I0715 11:42:47.223814 18762 net.cpp:156] Memory required for data: 16784400
I0715 11:42:47.223839 18762 net.cpp:484] Sharing parameters 'ip2_w' owned by layer 'ip2', param index 0
I0715 11:42:47.223862 18762 net.cpp:484] Sharing parameters 'ip2_b' owned by layer 'ip2', param index 1
I0715 11:42:47.223883 18762 layer_factory.hpp:77] Creating layer feat_p
I0715 11:42:47.223912 18762 net.cpp:91] Creating Layer feat_p
I0715 11:42:47.223934 18762 net.cpp:425] feat_p <- ip2_p
I0715 11:42:47.223958 18762 net.cpp:399] feat_p -> feat_p
I0715 11:42:47.223994 18762 net.cpp:141] Setting up feat_p
I0715 11:42:47.224020 18762 net.cpp:148] Top shape: 100 2 (200)
I0715 11:42:47.224040 18762 net.cpp:156] Memory required for data: 16785200
I0715 11:42:47.224061 18762 net.cpp:484] Sharing parameters 'feat_w' owned by layer 'feat', param index 0
I0715 11:42:47.224081 18762 net.cpp:484] Sharing parameters 'feat_b' owned by layer 'feat', param index 1
I0715 11:42:47.224102 18762 layer_factory.hpp:77] Creating layer concat
I0715 11:42:47.224135 18762 net.cpp:91] Creating Layer concat
I0715 11:42:47.224158 18762 net.cpp:425] concat <- feat
I0715 11:42:47.224469 18762 net.cpp:425] concat <- feat_p
I0715 11:42:47.224539 18762 net.cpp:399] concat -> comb
I0715 11:42:47.224582 18762 net.cpp:141] Setting up concat
I0715 11:42:47.224611 18762 net.cpp:148] Top shape: 100 4 (400)
I0715 11:42:47.224632 18762 net.cpp:156] Memory required for data: 16786800
I0715 11:42:47.224653 18762 layer_factory.hpp:77] Creating layer fc1
I0715 11:42:47.224684 18762 net.cpp:91] Creating Layer fc1
I0715 11:42:47.224706 18762 net.cpp:425] fc1 <- comb
I0715 11:42:47.224743 18762 net.cpp:399] fc1 -> fc1
I0715 11:42:47.224800 18762 net.cpp:141] Setting up fc1
I0715 11:42:47.224828 18762 net.cpp:148] Top shape: 100 100 (10000)
I0715 11:42:47.224846 18762 net.cpp:156] Memory required for data: 16826800
I0715 11:42:47.224872 18762 layer_factory.hpp:77] Creating layer relu1_fc1
I0715 11:42:47.224900 18762 net.cpp:91] Creating Layer relu1_fc1
I0715 11:42:47.224922 18762 net.cpp:425] relu1_fc1 <- fc1
I0715 11:42:47.224946 18762 net.cpp:386] relu1_fc1 -> fc1 (in-place)
I0715 11:42:47.224972 18762 net.cpp:141] Setting up relu1_fc1
I0715 11:42:47.224993 18762 net.cpp:148] Top shape: 100 100 (10000)
I0715 11:42:47.225013 18762 net.cpp:156] Memory required for data: 16866800
I0715 11:42:47.225034 18762 layer_factory.hpp:77] Creating layer fc2
I0715 11:42:47.225062 18762 net.cpp:91] Creating Layer fc2
I0715 11:42:47.225085 18762 net.cpp:425] fc2 <- fc1
I0715 11:42:47.225108 18762 net.cpp:399] fc2 -> fc2
I0715 11:42:47.225198 18762 net.cpp:141] Setting up fc2
I0715 11:42:47.225226 18762 net.cpp:148] Top shape: 100 50 (5000)
I0715 11:42:47.225245 18762 net.cpp:156] Memory required for data: 16886800
I0715 11:42:47.225268 18762 layer_factory.hpp:77] Creating layer relu2_fc2
I0715 11:42:47.225292 18762 net.cpp:91] Creating Layer relu2_fc2
I0715 11:42:47.225312 18762 net.cpp:425] relu2_fc2 <- fc2
I0715 11:42:47.225333 18762 net.cpp:386] relu2_fc2 -> fc2 (in-place)
I0715 11:42:47.225358 18762 net.cpp:141] Setting up relu2_fc2
I0715 11:42:47.225379 18762 net.cpp:148] Top shape: 100 50 (5000)
I0715 11:42:47.225397 18762 net.cpp:156] Memory required for data: 16906800
I0715 11:42:47.225417 18762 layer_factory.hpp:77] Creating layer fc3
I0715 11:42:47.225441 18762 net.cpp:91] Creating Layer fc3
I0715 11:42:47.225476 18762 net.cpp:425] fc3 <- fc2
I0715 11:42:47.225517 18762 net.cpp:399] fc3 -> fc3
I0715 11:42:47.225555 18762 net.cpp:141] Setting up fc3
I0715 11:42:47.225580 18762 net.cpp:148] Top shape: 100 2 (200)
I0715 11:42:47.225617 18762 net.cpp:156] Memory required for data: 16907600
I0715 11:42:47.225646 18762 layer_factory.hpp:77] Creating layer fc3_fc3_0_split
I0715 11:42:47.225675 18762 net.cpp:91] Creating Layer fc3_fc3_0_split
I0715 11:42:47.225699 18762 net.cpp:425] fc3_fc3_0_split <- fc3
I0715 11:42:47.225724 18762 net.cpp:399] fc3_fc3_0_split -> fc3_fc3_0_split_0
I0715 11:42:47.225764 18762 net.cpp:399] fc3_fc3_0_split -> fc3_fc3_0_split_1
I0715 11:42:47.225795 18762 net.cpp:141] Setting up fc3_fc3_0_split
I0715 11:42:47.225819 18762 net.cpp:148] Top shape: 100 2 (200)
I0715 11:42:47.225841 18762 net.cpp:148] Top shape: 100 2 (200)
I0715 11:42:47.225859 18762 net.cpp:156] Memory required for data: 16909200
I0715 11:42:47.225879 18762 layer_factory.hpp:77] Creating layer loss
I0715 11:42:47.225903 18762 net.cpp:91] Creating Layer loss
I0715 11:42:47.225924 18762 net.cpp:425] loss <- fc3_fc3_0_split_0
I0715 11:42:47.225945 18762 net.cpp:425] loss <- label_pair_data_1_split_0
I0715 11:42:47.225971 18762 net.cpp:399] loss -> loss
…
