…
I0712 21:17:25.159049 14570 solver.cpp:91] Creating training net from net file: examples/siamese/mnist_siamese_train_test.prototxt
I0712 21:17:25.159582 14570 net.cpp:313] The NetState phase (0) differed from the phase (1) specified by a rule in layer pair_data
I0712 21:17:25.159720 14570 net.cpp:49] Initializing net from parameters: 
name: "mnist_siamese_train_test"
state {
  phase: TRAIN
}
layer {
  name: "pair_data"
  type: "Data"
  top: "pair_data"
  top: "sim"
  include {
    phase: TRAIN
  }
  transform_param {
    scale: 0.00390625
  }
  data_param {
    source: "examples/siamese/mnist_siamese_train_leveldb_0to6_l"
    batch_size: 64
  }
}
layer {
  name: "slice_pair"
  type: "Slice"
  bottom: "pair_data"
  top: "data"
  top: "data_p"
  slice_param {
    slice_dim: 1
    slice_point: 1
  }
}
layer {
  name: "conv1"
  type: "Convolution"
  bottom: "data"
  top: "conv1"
  param {
    name: "conv1_w"
    lr_mult: 1
  }
  param {
    name: "conv1_b"
    lr_mult: 2
  }
  convolution_param {
    num_output: 20
    kernel_size: 5
    stride: 1
    weight_filler {
      type: "xavier"
    }
    bias_filler {
      type: "constant"
    }
  }
}
layer {
  name: "pool1"
  type: "Pooling"
  bottom: "conv1"
  top: "pool1"
  pooling_param {
    pool: MAX
    kernel_size: 2
    stride: 2
  }
}
layer {
  name: "conv2"
  type: "Convolution"
  bottom: "pool1"
  top: "conv2"
  param {
    name: "conv2_w"
    lr_mult: 1
  }
  param {
    name: "conv2_b"
    lr_mult: 2
  }
  convolution_param {
    num_output: 50
    kernel_size: 5
    stride: 1
    weight_filler {
      type: "xavier"
    }
    bias_filler {
      type: "constant"
    }
  }
}
layer {
  name: "pool2"
  type: "Pooling"
  bottom: "conv2"
  top: "pool2"
  pooling_param {
    pool: MAX
    kernel_size: 2
    stride: 2
  }
}
layer {
  name: "ip1"
  type: "InnerProduct"
  bottom: "pool2"
  top: "ip1"
  param {
    name: "ip1_w"
    lr_mult: 1
  }
  param {
    name: "ip1_b"
    lr_mult: 2
  }
  inner_product_param {
    num_output: 500
    weight_filler {
      type: "xavier"
    }
    bias_filler {
      type: "constant"
    }
  }
}
layer {
  name: "relu1"
  type: "ReLU"
  bottom: "ip1"
  top: "ip1"
}
layer {
  name: "ip2"
  type: "InnerProduct"
  bottom: "ip1"
  top: "ip2"
  param {
    name: "ip2_w"
    lr_mult: 1
  }
  param {
    name: "ip2_b"
    lr_mult: 2
  }
  inner_product_param {
    num_output: 10
    weight_filler {
      type: "xavier"
    }
    bias_filler {
      type: "constant"
    }
  }
}
layer {
  name: "feat"
  type: "InnerProduct"
  bottom: "ip2"
  top: "feat"
  param {
    name: "feat_w"
    lr_mult: 1
  }
  param {
    name: "feat_b"
    lr_mult: 2
  }
  inner_product_param {
    num_output: 2
    weight_filler {
      type: "xavier"
    }
    bias_filler {
      type: "constant"
    }
  }
}
layer {
  name: "conv1_p"
  type: "Convolution"
  bottom: "data_p"
  top: "conv1_p"
  param {
    name: "conv1_w"
    lr_mult: 1
  }
  param {
    name: "conv1_b"
    lr_mult: 2
  }
  convolution_param {
    num_output: 20
    kernel_size: 5
    stride: 1
    weight_filler {
      type: "xavier"
    }
    bias_filler {
      type: "constant"
    }
  }
}
layer {
  name: "pool1_p"
  type: "Pooling"
  bottom: "conv1_p"
  top: "pool1_p"
  pooling_param {
    pool: MAX
    kernel_size: 2
    stride: 2
  }
}
layer {
  name: "conv2_p"
  type: "Convolution"
  bottom: "pool1_p"
  top: "conv2_p"
  param {
    name: "conv2_w"
    lr_mult: 1
  }
  param {
    name: "conv2_b"
    lr_mult: 2
  }
  convolution_param {
    num_output: 50
    kernel_size: 5
    stride: 1
    weight_filler {
      type: "xavier"
    }
    bias_filler {
      type: "constant"
    }
  }
}
layer {
  name: "pool2_p"
  type: "Pooling"
  bottom: "conv2_p"
  top: "pool2_p"
  pooling_param {
    pool: MAX
    kernel_size: 2
    stride: 2
  }
}
layer {
  name: "ip1_p"
  type: "InnerProduct"
  bottom: "pool2_p"
  top: "ip1_p"
  param {
    name: "ip1_w"
    lr_mult: 1
  }
  param {
    name: "ip1_b"
    lr_mult: 2
  }
  inner_product_param {
    num_output: 500
    weight_filler {
      type: "xavier"
    }
    bias_filler {
      type: "constant"
    }
  }
}
layer {
  name: "relu1_p"
  type: "ReLU"
  bottom: "ip1_p"
  top: "ip1_p"
}
layer {
  name: "ip2_p"
  type: "InnerProduct"
  bottom: "ip1_p"
  top: "ip2_p"
  param {
    name: "ip2_w"
    lr_mult: 1
  }
  param {
    name: "ip2_b"
    lr_mult: 2
  }
  inner_product_param {
    num_output: 10
    weight_filler {
      type: "xavier"
    }
    bias_filler {
      type: "constant"
    }
  }
}
layer {
  name: "feat_p"
  type: "InnerProduct"
  bottom: "ip2_p"
  top: "feat_p"
  param {
    name: "feat_w"
    lr_mult: 1
  }
  param {
    name: "feat_b"
    lr_mult: 2
  }
  inner_product_param {
    num_output: 2
    weight_filler {
      type: "xavier"
    }
    bias_filler {
      type: "constant"
    }
  }
}
layer {
  name: "loss"
  type: "ContrastiveLoss"
  bottom: "feat"
  bottom: "feat_p"
  bottom: "sim"
  top: "loss"
  contrastive_loss_param {
    margin: 1
  }
}
I0712 21:17:25.159826 14570 layer_factory.hpp:77] Creating layer pair_data
I0712 21:17:25.160320 14570 net.cpp:91] Creating Layer pair_data
I0712 21:17:25.160333 14570 net.cpp:399] pair_data -> pair_data
I0712 21:17:25.160356 14570 net.cpp:399] pair_data -> sim
I0712 21:17:25.169147 14574 db_leveldb.cpp:18] Opened leveldb examples/siamese/mnist_siamese_train_leveldb_0to6_l
I0712 21:17:25.172732 14570 data_layer.cpp:41] output data size: 64,2,28,28
I0712 21:17:25.173310 14570 net.cpp:141] Setting up pair_data
I0712 21:17:25.173360 14570 net.cpp:148] Top shape: 64 2 28 28 (100352)
I0712 21:17:25.173382 14570 net.cpp:148] Top shape: 64 (64)
I0712 21:17:25.173398 14570 net.cpp:156] Memory required for data: 401664
I0712 21:17:25.173420 14570 layer_factory.hpp:77] Creating layer slice_pair
I0712 21:17:25.173449 14570 net.cpp:91] Creating Layer slice_pair
I0712 21:17:25.173467 14570 net.cpp:425] slice_pair <- pair_data
I0712 21:17:25.173491 14570 net.cpp:399] slice_pair -> data
I0712 21:17:25.173516 14570 net.cpp:399] slice_pair -> data_p
I0712 21:17:25.173542 14570 net.cpp:141] Setting up slice_pair
I0712 21:17:25.173560 14570 net.cpp:148] Top shape: 64 1 28 28 (50176)
I0712 21:17:25.173574 14570 net.cpp:148] Top shape: 64 1 28 28 (50176)
I0712 21:17:25.173588 14570 net.cpp:156] Memory required for data: 803072
I0712 21:17:25.173600 14570 layer_factory.hpp:77] Creating layer conv1
I0712 21:17:25.173626 14570 net.cpp:91] Creating Layer conv1
I0712 21:17:25.173641 14570 net.cpp:425] conv1 <- data
I0712 21:17:25.173658 14570 net.cpp:399] conv1 -> conv1
I0712 21:17:25.173720 14570 net.cpp:141] Setting up conv1
I0712 21:17:25.173740 14570 net.cpp:148] Top shape: 64 20 24 24 (737280)
I0712 21:17:25.173753 14570 net.cpp:156] Memory required for data: 3752192
I0712 21:17:25.173773 14570 layer_factory.hpp:77] Creating layer pool1
I0712 21:17:25.173790 14570 net.cpp:91] Creating Layer pool1
I0712 21:17:25.173804 14570 net.cpp:425] pool1 <- conv1
I0712 21:17:25.173820 14570 net.cpp:399] pool1 -> pool1
I0712 21:17:25.173847 14570 net.cpp:141] Setting up pool1
I0712 21:17:25.173864 14570 net.cpp:148] Top shape: 64 20 12 12 (184320)
I0712 21:17:25.173877 14570 net.cpp:156] Memory required for data: 4489472
I0712 21:17:25.173889 14570 layer_factory.hpp:77] Creating layer conv2
I0712 21:17:25.173907 14570 net.cpp:91] Creating Layer conv2
I0712 21:17:25.173921 14570 net.cpp:425] conv2 <- pool1
I0712 21:17:25.173941 14570 net.cpp:399] conv2 -> conv2
I0712 21:17:25.174156 14570 net.cpp:141] Setting up conv2
I0712 21:17:25.174176 14570 net.cpp:148] Top shape: 64 50 8 8 (204800)
I0712 21:17:25.174190 14570 net.cpp:156] Memory required for data: 5308672
I0712 21:17:25.174206 14570 layer_factory.hpp:77] Creating layer pool2
I0712 21:17:25.174228 14570 net.cpp:91] Creating Layer pool2
I0712 21:17:25.174255 14570 net.cpp:425] pool2 <- conv2
I0712 21:17:25.174273 14570 net.cpp:399] pool2 -> pool2
I0712 21:17:25.174294 14570 net.cpp:141] Setting up pool2
I0712 21:17:25.174310 14570 net.cpp:148] Top shape: 64 50 4 4 (51200)
I0712 21:17:25.174322 14570 net.cpp:156] Memory required for data: 5513472
I0712 21:17:25.174335 14570 layer_factory.hpp:77] Creating layer ip1
I0712 21:17:25.174358 14570 net.cpp:91] Creating Layer ip1
I0712 21:17:25.174373 14570 net.cpp:425] ip1 <- pool2
I0712 21:17:25.174389 14570 net.cpp:399] ip1 -> ip1
I0712 21:17:25.177670 14570 net.cpp:141] Setting up ip1
I0712 21:17:25.177748 14570 net.cpp:148] Top shape: 64 500 (32000)
I0712 21:17:25.177772 14570 net.cpp:156] Memory required for data: 5641472
I0712 21:17:25.177798 14570 layer_factory.hpp:77] Creating layer relu1
I0712 21:17:25.177821 14570 net.cpp:91] Creating Layer relu1
I0712 21:17:25.177839 14570 net.cpp:425] relu1 <- ip1
I0712 21:17:25.177860 14570 net.cpp:386] relu1 -> ip1 (in-place)
I0712 21:17:25.177883 14570 net.cpp:141] Setting up relu1
I0712 21:17:25.177902 14570 net.cpp:148] Top shape: 64 500 (32000)
I0712 21:17:25.177917 14570 net.cpp:156] Memory required for data: 5769472
I0712 21:17:25.177932 14570 layer_factory.hpp:77] Creating layer ip2
I0712 21:17:25.177953 14570 net.cpp:91] Creating Layer ip2
I0712 21:17:25.177968 14570 net.cpp:425] ip2 <- ip1
I0712 21:17:25.177989 14570 net.cpp:399] ip2 -> ip2
I0712 21:17:25.178058 14570 net.cpp:141] Setting up ip2
I0712 21:17:25.178079 14570 net.cpp:148] Top shape: 64 10 (640)
I0712 21:17:25.178093 14570 net.cpp:156] Memory required for data: 5772032
I0712 21:17:25.178109 14570 layer_factory.hpp:77] Creating layer feat
I0712 21:17:25.178129 14570 net.cpp:91] Creating Layer feat
I0712 21:17:25.178143 14570 net.cpp:425] feat <- ip2
I0712 21:17:25.178160 14570 net.cpp:399] feat -> feat
I0712 21:17:25.178185 14570 net.cpp:141] Setting up feat
I0712 21:17:25.178202 14570 net.cpp:148] Top shape: 64 2 (128)
I0712 21:17:25.178215 14570 net.cpp:156] Memory required for data: 5772544
I0712 21:17:25.178236 14570 layer_factory.hpp:77] Creating layer conv1_p
I0712 21:17:25.178257 14570 net.cpp:91] Creating Layer conv1_p
I0712 21:17:25.178272 14570 net.cpp:425] conv1_p <- data_p
I0712 21:17:25.178288 14570 net.cpp:399] conv1_p -> conv1_p
I0712 21:17:25.178328 14570 net.cpp:141] Setting up conv1_p
I0712 21:17:25.178347 14570 net.cpp:148] Top shape: 64 20 24 24 (737280)
I0712 21:17:25.178361 14570 net.cpp:156] Memory required for data: 8721664
I0712 21:17:25.178375 14570 net.cpp:484] Sharing parameters 'conv1_w' owned by layer 'conv1', param index 0
I0712 21:17:25.178390 14570 net.cpp:484] Sharing parameters 'conv1_b' owned by layer 'conv1', param index 1
I0712 21:17:25.178405 14570 layer_factory.hpp:77] Creating layer pool1_p
I0712 21:17:25.178421 14570 net.cpp:91] Creating Layer pool1_p
I0712 21:17:25.178434 14570 net.cpp:425] pool1_p <- conv1_p
I0712 21:17:25.178453 14570 net.cpp:399] pool1_p -> pool1_p
I0712 21:17:25.178475 14570 net.cpp:141] Setting up pool1_p
I0712 21:17:25.178491 14570 net.cpp:148] Top shape: 64 20 12 12 (184320)
I0712 21:17:25.178504 14570 net.cpp:156] Memory required for data: 9458944
I0712 21:17:25.178517 14570 layer_factory.hpp:77] Creating layer conv2_p
I0712 21:17:25.178537 14570 net.cpp:91] Creating Layer conv2_p
I0712 21:17:25.178552 14570 net.cpp:425] conv2_p <- pool1_p
I0712 21:17:25.178571 14570 net.cpp:399] conv2_p -> conv2_p
I0712 21:17:25.178897 14570 net.cpp:141] Setting up conv2_p
I0712 21:17:25.178930 14570 net.cpp:148] Top shape: 64 50 8 8 (204800)
I0712 21:17:25.178944 14570 net.cpp:156] Memory required for data: 10278144
I0712 21:17:25.178959 14570 net.cpp:484] Sharing parameters 'conv2_w' owned by layer 'conv2', param index 0
I0712 21:17:25.178974 14570 net.cpp:484] Sharing parameters 'conv2_b' owned by layer 'conv2', param index 1
I0712 21:17:25.178988 14570 layer_factory.hpp:77] Creating layer pool2_p
I0712 21:17:25.179005 14570 net.cpp:91] Creating Layer pool2_p
I0712 21:17:25.179019 14570 net.cpp:425] pool2_p <- conv2_p
I0712 21:17:25.179044 14570 net.cpp:399] pool2_p -> pool2_p
I0712 21:17:25.179075 14570 net.cpp:141] Setting up pool2_p
I0712 21:17:25.179091 14570 net.cpp:148] Top shape: 64 50 4 4 (51200)
I0712 21:17:25.179105 14570 net.cpp:156] Memory required for data: 10482944
I0712 21:17:25.179117 14570 layer_factory.hpp:77] Creating layer ip1_p
I0712 21:17:25.179137 14570 net.cpp:91] Creating Layer ip1_p
I0712 21:17:25.179152 14570 net.cpp:425] ip1_p <- pool2_p
I0712 21:17:25.179170 14570 net.cpp:399] ip1_p -> ip1_p
I0712 21:17:25.182709 14570 net.cpp:141] Setting up ip1_p
I0712 21:17:25.185075 14570 net.cpp:148] Top shape: 64 500 (32000)
I0712 21:17:25.185202 14570 net.cpp:156] Memory required for data: 10610944
I0712 21:17:25.185228 14570 net.cpp:484] Sharing parameters 'ip1_w' owned by layer 'ip1', param index 0
I0712 21:17:25.185247 14570 net.cpp:484] Sharing parameters 'ip1_b' owned by layer 'ip1', param index 1
I0712 21:17:25.185262 14570 layer_factory.hpp:77] Creating layer relu1_p
I0712 21:17:25.185283 14570 net.cpp:91] Creating Layer relu1_p
I0712 21:17:25.185298 14570 net.cpp:425] relu1_p <- ip1_p
I0712 21:17:25.185315 14570 net.cpp:386] relu1_p -> ip1_p (in-place)
I0712 21:17:25.185338 14570 net.cpp:141] Setting up relu1_p
I0712 21:17:25.185354 14570 net.cpp:148] Top shape: 64 500 (32000)
I0712 21:17:25.185367 14570 net.cpp:156] Memory required for data: 10738944
I0712 21:17:25.185380 14570 layer_factory.hpp:77] Creating layer ip2_p
I0712 21:17:25.185405 14570 net.cpp:91] Creating Layer ip2_p
I0712 21:17:25.185421 14570 net.cpp:425] ip2_p <- ip1_p
I0712 21:17:25.185438 14570 net.cpp:399] ip2_p -> ip2_p
I0712 21:17:25.185518 14570 net.cpp:141] Setting up ip2_p
I0712 21:17:25.185537 14570 net.cpp:148] Top shape: 64 10 (640)
I0712 21:17:25.185550 14570 net.cpp:156] Memory required for data: 10741504
I0712 21:17:25.185567 14570 net.cpp:484] Sharing parameters 'ip2_w' owned by layer 'ip2', param index 0
I0712 21:17:25.185583 14570 net.cpp:484] Sharing parameters 'ip2_b' owned by layer 'ip2', param index 1
I0712 21:17:25.185597 14570 layer_factory.hpp:77] Creating layer feat_p
I0712 21:17:25.185616 14570 net.cpp:91] Creating Layer feat_p
I0712 21:17:25.185631 14570 net.cpp:425] feat_p <- ip2_p
I0712 21:17:25.185647 14570 net.cpp:399] feat_p -> feat_p
I0712 21:17:25.185670 14570 net.cpp:141] Setting up feat_p
I0712 21:17:25.185688 14570 net.cpp:148] Top shape: 64 2 (128)
I0712 21:17:25.185700 14570 net.cpp:156] Memory required for data: 10742016
I0712 21:17:25.185714 14570 net.cpp:484] Sharing parameters 'feat_w' owned by layer 'feat', param index 0
I0712 21:17:25.185729 14570 net.cpp:484] Sharing parameters 'feat_b' owned by layer 'feat', param index 1
I0712 21:17:25.185744 14570 layer_factory.hpp:77] Creating layer loss
I0712 21:17:25.185770 14570 net.cpp:91] Creating Layer loss
…
I0712 21:17:25.186918 14570 solver.cpp:181] Creating test net (#0) specified by net file: examples/siamese/mnist_siamese_train_test.prototxt
I0712 21:17:25.186976 14570 net.cpp:313] The NetState phase (1) differed from the phase (0) specified by a rule in layer pair_data
I0712 21:17:25.187134 14570 net.cpp:49] Initializing net from parameters: 
name: "mnist_siamese_train_test"
state {
  phase: TEST
}
layer {
  name: "pair_data"
  type: "Data"
  top: "pair_data"
  top: "sim"
  include {
    phase: TEST
  }
  transform_param {
    scale: 0.00390625
  }
  data_param {
    source: "examples/siamese/mnist_siamese_test_leveldb_789"
    batch_size: 100
  }
}
layer {
  name: "slice_pair"
  type: "Slice"
  bottom: "pair_data"
  top: "data"
  top: "data_p"
  slice_param {
    slice_dim: 1
    slice_point: 1
  }
}
layer {
  name: "conv1"
  type: "Convolution"
  bottom: "data"
  top: "conv1"
  param {
    name: "conv1_w"
    lr_mult: 1
  }
  param {
    name: "conv1_b"
    lr_mult: 2
  }
  convolution_param {
    num_output: 20
    kernel_size: 5
    stride: 1
    weight_filler {
      type: "xavier"
    }
    bias_filler {
      type: "constant"
    }
  }
}
layer {
  name: "pool1"
  type: "Pooling"
  bottom: "conv1"
  top: "pool1"
  pooling_param {
    pool: MAX
    kernel_size: 2
    stride: 2
  }
}
layer {
  name: "conv2"
  type: "Convolution"
  bottom: "pool1"
  top: "conv2"
  param {
    name: "conv2_w"
    lr_mult: 1
  }
  param {
    name: "conv2_b"
    lr_mult: 2
  }
  convolution_param {
    num_output: 50
    kernel_size: 5
    stride: 1
    weight_filler {
      type: "xavier"
    }
    bias_filler {
      type: "constant"
    }
  }
}
layer {
  name: "pool2"
  type: "Pooling"
  bottom: "conv2"
  top: "pool2"
  pooling_param {
    pool: MAX
    kernel_size: 2
    stride: 2
  }
}
layer {
  name: "ip1"
  type: "InnerProduct"
  bottom: "pool2"
  top: "ip1"
  param {
    name: "ip1_w"
    lr_mult: 1
  }
  param {
    name: "ip1_b"
    lr_mult: 2
  }
  inner_product_param {
    num_output: 500
    weight_filler {
      type: "xavier"
    }
    bias_filler {
      type: "constant"
    }
  }
}
layer {
  name: "relu1"
  type: "ReLU"
  bottom: "ip1"
  top: "ip1"
}
layer {
  name: "ip2"
  type: "InnerProduct"
  bottom: "ip1"
  top: "ip2"
  param {
    name: "ip2_w"
    lr_mult: 1
  }
  param {
    name: "ip2_b"
    lr_mult: 2
  }
  inner_product_param {
    num_output: 10
    weight_filler {
      type: "xavier"
    }
    bias_filler {
      type: "constant"
    }
  }
}
layer {
  name: "feat"
  type: "InnerProduct"
  bottom: "ip2"
  top: "feat"
  param {
    name: "feat_w"
    lr_mult: 1
  }
  param {
    name: "feat_b"
    lr_mult: 2
  }
  inner_product_param {
    num_output: 2
    weight_filler {
      type: "xavier"
    }
    bias_filler {
      type: "constant"
    }
  }
}
layer {
  name: "conv1_p"
  type: "Convolution"
  bottom: "data_p"
  top: "conv1_p"
  param {
    name: "conv1_w"
    lr_mult: 1
  }
  param {
    name: "conv1_b"
    lr_mult: 2
  }
  convolution_param {
    num_output: 20
    kernel_size: 5
    stride: 1
    weight_filler {
      type: "xavier"
    }
    bias_filler {
      type: "constant"
    }
  }
}
layer {
  name: "pool1_p"
  type: "Pooling"
  bottom: "conv1_p"
  top: "pool1_p"
  pooling_param {
    pool: MAX
    kernel_size: 2
    stride: 2
  }
}
layer {
  name: "conv2_p"
  type: "Convolution"
  bottom: "pool1_p"
  top: "conv2_p"
  param {
    name: "conv2_w"
    lr_mult: 1
  }
  param {
    name: "conv2_b"
    lr_mult: 2
  }
  convolution_param {
    num_output: 50
    kernel_size: 5
    stride: 1
    weight_filler {
      type: "xavier"
    }
    bias_filler {
      type: "constant"
    }
  }
}
layer {
  name: "pool2_p"
  type: "Pooling"
  bottom: "conv2_p"
  top: "pool2_p"
  pooling_param {
    pool: MAX
    kernel_size: 2
    stride: 2
  }
}
layer {
  name: "ip1_p"
  type: "InnerProduct"
  bottom: "pool2_p"
  top: "ip1_p"
  param {
    name: "ip1_w"
    lr_mult: 1
  }
  param {
    name: "ip1_b"
    lr_mult: 2
  }
  inner_product_param {
    num_output: 500
    weight_filler {
      type: "xavier"
    }
    bias_filler {
      type: "constant"
    }
  }
}
layer {
  name: "relu1_p"
  type: "ReLU"
  bottom: "ip1_p"
  top: "ip1_p"
}
layer {
  name: "ip2_p"
  type: "InnerProduct"
  bottom: "ip1_p"
  top: "ip2_p"
  param {
    name: "ip2_w"
    lr_mult: 1
  }
  param {
    name: "ip2_b"
    lr_mult: 2
  }
  inner_product_param {
    num_output: 10
    weight_filler {
      type: "xavier"
    }
    bias_filler {
      type: "constant"
    }
  }
}
layer {
  name: "feat_p"
  type: "InnerProduct"
  bottom: "ip2_p"
  top: "feat_p"
  param {
    name: "feat_w"
    lr_mult: 1
  }
  param {
    name: "feat_b"
    lr_mult: 2
  }
  inner_product_param {
    num_output: 2
    weight_filler {
      type: "xavier"
    }
    bias_filler {
      type: "constant"
    }
  }
}
layer {
  name: "loss"
  type: "ContrastiveLoss"
  bottom: "feat"
  bottom: "feat_p"
  bottom: "sim"
  top: "loss"
  contrastive_loss_param {
    margin: 1
  }
}
I0712 21:17:25.187978 14570 layer_factory.hpp:77] Creating layer pair_data
I0712 21:17:25.188302 14570 net.cpp:91] Creating Layer pair_data
I0712 21:17:25.188339 14570 net.cpp:399] pair_data -> pair_data
I0712 21:17:25.188364 14570 net.cpp:399] pair_data -> sim
I0712 21:17:25.199409 14576 db_leveldb.cpp:18] Opened leveldb examples/siamese/mnist_siamese_test_leveldb_789
I0712 21:17:25.199827 14570 data_layer.cpp:41] output data size: 100,2,28,28
I0712 21:17:25.200918 14570 net.cpp:141] Setting up pair_data
I0712 21:17:25.200949 14570 net.cpp:148] Top shape: 100 2 28 28 (156800)
I0712 21:17:25.200958 14570 net.cpp:148] Top shape: 100 (100)
I0712 21:17:25.200963 14570 net.cpp:156] Memory required for data: 627600
I0712 21:17:25.200973 14570 layer_factory.hpp:77] Creating layer slice_pair
I0712 21:17:25.200990 14570 net.cpp:91] Creating Layer slice_pair
I0712 21:17:25.200996 14570 net.cpp:425] slice_pair <- pair_data
I0712 21:17:25.201006 14570 net.cpp:399] slice_pair -> data
I0712 21:17:25.201020 14570 net.cpp:399] slice_pair -> data_p
I0712 21:17:25.201035 14570 net.cpp:141] Setting up slice_pair
I0712 21:17:25.201041 14570 net.cpp:148] Top shape: 100 1 28 28 (78400)
I0712 21:17:25.201048 14570 net.cpp:148] Top shape: 100 1 28 28 (78400)
I0712 21:17:25.201052 14570 net.cpp:156] Memory required for data: 1254800
I0712 21:17:25.201057 14570 layer_factory.hpp:77] Creating layer conv1
I0712 21:17:25.201073 14570 net.cpp:91] Creating Layer conv1
I0712 21:17:25.201078 14570 net.cpp:425] conv1 <- data
I0712 21:17:25.201086 14570 net.cpp:399] conv1 -> conv1
I0712 21:17:25.201128 14570 net.cpp:141] Setting up conv1
I0712 21:17:25.201135 14570 net.cpp:148] Top shape: 100 20 24 24 (1152000)
I0712 21:17:25.201139 14570 net.cpp:156] Memory required for data: 5862800
I0712 21:17:25.201150 14570 layer_factory.hpp:77] Creating layer pool1
I0712 21:17:25.201159 14570 net.cpp:91] Creating Layer pool1
I0712 21:17:25.201164 14570 net.cpp:425] pool1 <- conv1
I0712 21:17:25.201170 14570 net.cpp:399] pool1 -> pool1
I0712 21:17:25.201182 14570 net.cpp:141] Setting up pool1
I0712 21:17:25.201189 14570 net.cpp:148] Top shape: 100 20 12 12 (288000)
I0712 21:17:25.201194 14570 net.cpp:156] Memory required for data: 7014800
I0712 21:17:25.201198 14570 layer_factory.hpp:77] Creating layer conv2
I0712 21:17:25.201210 14570 net.cpp:91] Creating Layer conv2
I0712 21:17:25.201215 14570 net.cpp:425] conv2 <- pool1
I0712 21:17:25.201282 14570 net.cpp:399] conv2 -> conv2
I0712 21:17:25.201609 14570 net.cpp:141] Setting up conv2
I0712 21:17:25.201637 14570 net.cpp:148] Top shape: 100 50 8 8 (320000)
I0712 21:17:25.201642 14570 net.cpp:156] Memory required for data: 8294800
I0712 21:17:25.201658 14570 layer_factory.hpp:77] Creating layer pool2
I0712 21:17:25.201675 14570 net.cpp:91] Creating Layer pool2
I0712 21:17:25.201681 14570 net.cpp:425] pool2 <- conv2
I0712 21:17:25.201690 14570 net.cpp:399] pool2 -> pool2
I0712 21:17:25.201706 14570 net.cpp:141] Setting up pool2
I0712 21:17:25.201714 14570 net.cpp:148] Top shape: 100 50 4 4 (80000)
I0712 21:17:25.201717 14570 net.cpp:156] Memory required for data: 8614800
I0712 21:17:25.201721 14570 layer_factory.hpp:77] Creating layer ip1
I0712 21:17:25.201735 14570 net.cpp:91] Creating Layer ip1
I0712 21:17:25.201740 14570 net.cpp:425] ip1 <- pool2
I0712 21:17:25.201748 14570 net.cpp:399] ip1 -> ip1
I0712 21:17:25.205469 14570 net.cpp:141] Setting up ip1
I0712 21:17:25.205500 14570 net.cpp:148] Top shape: 100 500 (50000)
I0712 21:17:25.205503 14570 net.cpp:156] Memory required for data: 8814800
I0712 21:17:25.205516 14570 layer_factory.hpp:77] Creating layer relu1
I0712 21:17:25.205526 14570 net.cpp:91] Creating Layer relu1
I0712 21:17:25.205530 14570 net.cpp:425] relu1 <- ip1
I0712 21:17:25.205535 14570 net.cpp:386] relu1 -> ip1 (in-place)
I0712 21:17:25.205543 14570 net.cpp:141] Setting up relu1
I0712 21:17:25.205546 14570 net.cpp:148] Top shape: 100 500 (50000)
I0712 21:17:25.205549 14570 net.cpp:156] Memory required for data: 9014800
I0712 21:17:25.205551 14570 layer_factory.hpp:77] Creating layer ip2
I0712 21:17:25.205559 14570 net.cpp:91] Creating Layer ip2
I0712 21:17:25.205562 14570 net.cpp:425] ip2 <- ip1
I0712 21:17:25.205567 14570 net.cpp:399] ip2 -> ip2
I0712 21:17:25.205620 14570 net.cpp:141] Setting up ip2
I0712 21:17:25.205624 14570 net.cpp:148] Top shape: 100 10 (1000)
I0712 21:17:25.205626 14570 net.cpp:156] Memory required for data: 9018800
I0712 21:17:25.205631 14570 layer_factory.hpp:77] Creating layer feat
I0712 21:17:25.205636 14570 net.cpp:91] Creating Layer feat
I0712 21:17:25.205639 14570 net.cpp:425] feat <- ip2
I0712 21:17:25.205643 14570 net.cpp:399] feat -> feat
I0712 21:17:25.205652 14570 net.cpp:141] Setting up feat
I0712 21:17:25.205656 14570 net.cpp:148] Top shape: 100 2 (200)
I0712 21:17:25.205658 14570 net.cpp:156] Memory required for data: 9019600
I0712 21:17:25.205663 14570 layer_factory.hpp:77] Creating layer conv1_p
I0712 21:17:25.205672 14570 net.cpp:91] Creating Layer conv1_p
I0712 21:17:25.205674 14570 net.cpp:425] conv1_p <- data_p
I0712 21:17:25.205679 14570 net.cpp:399] conv1_p -> conv1_p
I0712 21:17:25.205703 14570 net.cpp:141] Setting up conv1_p
I0712 21:17:25.205708 14570 net.cpp:148] Top shape: 100 20 24 24 (1152000)
I0712 21:17:25.205710 14570 net.cpp:156] Memory required for data: 13627600
I0712 21:17:25.205713 14570 net.cpp:484] Sharing parameters 'conv1_w' owned by layer 'conv1', param index 0
I0712 21:17:25.205718 14570 net.cpp:484] Sharing parameters 'conv1_b' owned by layer 'conv1', param index 1
I0712 21:17:25.205719 14570 layer_factory.hpp:77] Creating layer pool1_p
I0712 21:17:25.205724 14570 net.cpp:91] Creating Layer pool1_p
I0712 21:17:25.205726 14570 net.cpp:425] pool1_p <- conv1_p
I0712 21:17:25.205730 14570 net.cpp:399] pool1_p -> pool1_p
I0712 21:17:25.205737 14570 net.cpp:141] Setting up pool1_p
I0712 21:17:25.205741 14570 net.cpp:148] Top shape: 100 20 12 12 (288000)
I0712 21:17:25.205744 14570 net.cpp:156] Memory required for data: 14779600
I0712 21:17:25.205746 14570 layer_factory.hpp:77] Creating layer conv2_p
I0712 21:17:25.205754 14570 net.cpp:91] Creating Layer conv2_p
I0712 21:17:25.205756 14570 net.cpp:425] conv2_p <- pool1_p
I0712 21:17:25.205761 14570 net.cpp:399] conv2_p -> conv2_p
I0712 21:17:25.205957 14570 net.cpp:141] Setting up conv2_p
I0712 21:17:25.205962 14570 net.cpp:148] Top shape: 100 50 8 8 (320000)
I0712 21:17:25.205965 14570 net.cpp:156] Memory required for data: 16059600
I0712 21:17:25.205993 14570 net.cpp:484] Sharing parameters 'conv2_w' owned by layer 'conv2', param index 0
I0712 21:17:25.205997 14570 net.cpp:484] Sharing parameters 'conv2_b' owned by layer 'conv2', param index 1
I0712 21:17:25.205999 14570 layer_factory.hpp:77] Creating layer pool2_p
I0712 21:17:25.206004 14570 net.cpp:91] Creating Layer pool2_p
I0712 21:17:25.206007 14570 net.cpp:425] pool2_p <- conv2_p
I0712 21:17:25.206012 14570 net.cpp:399] pool2_p -> pool2_p
I0712 21:17:25.206018 14570 net.cpp:141] Setting up pool2_p
I0712 21:17:25.206022 14570 net.cpp:148] Top shape: 100 50 4 4 (80000)
I0712 21:17:25.206023 14570 net.cpp:156] Memory required for data: 16379600
I0712 21:17:25.206027 14570 layer_factory.hpp:77] Creating layer ip1_p
I0712 21:17:25.206032 14570 net.cpp:91] Creating Layer ip1_p
I0712 21:17:25.206033 14570 net.cpp:425] ip1_p <- pool2_p
I0712 21:17:25.206038 14570 net.cpp:399] ip1_p -> ip1_p
I0712 21:17:25.213330 14570 net.cpp:141] Setting up ip1_p
I0712 21:17:25.214711 14570 net.cpp:148] Top shape: 100 500 (50000)
I0712 21:17:25.214776 14570 net.cpp:156] Memory required for data: 16579600
I0712 21:17:25.214802 14570 net.cpp:484] Sharing parameters 'ip1_w' owned by layer 'ip1', param index 0
I0712 21:17:25.214824 14570 net.cpp:484] Sharing parameters 'ip1_b' owned by layer 'ip1', param index 1
I0712 21:17:25.214843 14570 layer_factory.hpp:77] Creating layer relu1_p
I0712 21:17:25.214869 14570 net.cpp:91] Creating Layer relu1_p
I0712 21:17:25.214889 14570 net.cpp:425] relu1_p <- ip1_p
I0712 21:17:25.214910 14570 net.cpp:386] relu1_p -> ip1_p (in-place)
I0712 21:17:25.214938 14570 net.cpp:141] Setting up relu1_p
I0712 21:17:25.214962 14570 net.cpp:148] Top shape: 100 500 (50000)
I0712 21:17:25.214980 14570 net.cpp:156] Memory required for data: 16779600
I0712 21:17:25.214999 14570 layer_factory.hpp:77] Creating layer ip2_p
I0712 21:17:25.215029 14570 net.cpp:91] Creating Layer ip2_p
I0712 21:17:25.215047 14570 net.cpp:425] ip2_p <- ip1_p
I0712 21:17:25.215072 14570 net.cpp:399] ip2_p -> ip2_p
I0712 21:17:25.215169 14570 net.cpp:141] Setting up ip2_p
I0712 21:17:25.215194 14570 net.cpp:148] Top shape: 100 10 (1000)
I0712 21:17:25.215212 14570 net.cpp:156] Memory required for data: 16783600
I0712 21:17:25.215234 14570 net.cpp:484] Sharing parameters 'ip2_w' owned by layer 'ip2', param index 0
I0712 21:17:25.215260 14570 net.cpp:484] Sharing parameters 'ip2_b' owned by layer 'ip2', param index 1
I0712 21:17:25.215278 14570 layer_factory.hpp:77] Creating layer feat_p
I0712 21:17:25.215302 14570 net.cpp:91] Creating Layer feat_p
I0712 21:17:25.215322 14570 net.cpp:425] feat_p <- ip2_p
I0712 21:17:25.215343 14570 net.cpp:399] feat_p -> feat_p
I0712 21:17:25.215374 14570 net.cpp:141] Setting up feat_p
I0712 21:17:25.215396 14570 net.cpp:148] Top shape: 100 2 (200)
I0712 21:17:25.215414 14570 net.cpp:156] Memory required for data: 16784400
I0712 21:17:25.215431 14570 net.cpp:484] Sharing parameters 'feat_w' owned by layer 'feat', param index 0
I0712 21:17:25.215451 14570 net.cpp:484] Sharing parameters 'feat_b' owned by layer 'feat', param index 1
I0712 21:17:25.215468 14570 layer_factory.hpp:77] Creating layer loss
I0712 21:17:25.215494 14570 net.cpp:91] Creating Layer loss
…
