…
I0715 12:52:15.102514 19421 net.cpp:313] The NetState phase (0) differed from the phase (1) specified by a rule in layer accuracy
I0715 12:52:15.102730 19421 net.cpp:49] Initializing net from parameters: 
name: "mnist_siamese_train_test_sim"
state {
  phase: TRAIN
}
layer {
  name: "pair_data"
  type: "Data"
  top: "pair_data"
  top: "label"
  include {
    phase: TRAIN
  }
  transform_param {
    scale: 0.00390625
  }
  data_param {
    source: "/home/shaogang/caffe/examples/siamese/mnist_siamese_train_leveldb_0to6"
    batch_size: 64
    backend: LEVELDB
  }
}
layer {
  name: "slice_pair"
  type: "Slice"
  bottom: "pair_data"
  top: "data"
  top: "data_p"
  slice_param {
    slice_dim: 1
    slice_point: 1
  }
}
layer {
  name: "conv1"
  type: "Convolution"
  bottom: "data"
  top: "conv1"
  param {
    name: "conv1_w"
    lr_mult: 1
  }
  param {
    name: "conv1_b"
    lr_mult: 2
  }
  convolution_param {
    num_output: 20
    kernel_size: 5
    stride: 1
    weight_filler {
      type: "xavier"
    }
    bias_filler {
      type: "constant"
    }
  }
}
layer {
  name: "pool1"
  type: "Pooling"
  bottom: "conv1"
  top: "pool1"
  pooling_param {
    pool: MAX
    kernel_size: 2
    stride: 2
  }
}
layer {
  name: "conv2"
  type: "Convolution"
  bottom: "pool1"
  top: "conv2"
  param {
    name: "conv2_w"
    lr_mult: 1
  }
  param {
    name: "conv2_b"
    lr_mult: 2
  }
  convolution_param {
    num_output: 50
    kernel_size: 5
    stride: 1
    weight_filler {
      type: "xavier"
    }
    bias_filler {
      type: "constant"
    }
  }
}
layer {
  name: "pool2"
  type: "Pooling"
  bottom: "conv2"
  top: "pool2"
  pooling_param {
    pool: MAX
    kernel_size: 2
    stride: 2
  }
}
layer {
  name: "ip1"
  type: "InnerProduct"
  bottom: "pool2"
  top: "ip1"
  param {
    name: "ip1_w"
    lr_mult: 1
  }
  param {
    name: "ip1_b"
    lr_mult: 2
  }
  inner_product_param {
    num_output: 500
    weight_filler {
      type: "xavier"
    }
    bias_filler {
      type: "constant"
    }
  }
}
layer {
  name: "relu1"
  type: "ReLU"
  bottom: "ip1"
  top: "ip1"
}
layer {
  name: "ip2"
  type: "InnerProduct"
  bottom: "ip1"
  top: "ip2"
  param {
    name: "ip2_w"
    lr_mult: 1
  }
  param {
    name: "ip2_b"
    lr_mult: 2
  }
  inner_product_param {
    num_output: 10
    weight_filler {
      type: "xavier"
    }
    bias_filler {
      type: "constant"
    }
  }
}
layer {
  name: "feat"
  type: "InnerProduct"
  bottom: "ip2"
  top: "feat"
  param {
    name: "feat_w"
    lr_mult: 1
  }
  param {
    name: "feat_b"
    lr_mult: 2
  }
  inner_product_param {
    num_output: 2
    weight_filler {
      type: "xavier"
    }
    bias_filler {
      type: "constant"
    }
  }
}
layer {
  name: "conv1_p"
  type: "Convolution"
  bottom: "data_p"
  top: "conv1_p"
  param {
    name: "conv1_w"
    lr_mult: 1
  }
  param {
    name: "conv1_b"
    lr_mult: 2
  }
  convolution_param {
    num_output: 20
    kernel_size: 5
    stride: 1
    weight_filler {
      type: "xavier"
    }
    bias_filler {
      type: "constant"
    }
  }
}
layer {
  name: "pool1_p"
  type: "Pooling"
  bottom: "conv1_p"
  top: "pool1_p"
  pooling_param {
    pool: MAX
    kernel_size: 2
    stride: 2
  }
}
layer {
  name: "conv2_p"
  type: "Convolution"
  bottom: "pool1_p"
  top: "conv2_p"
  param {
    name: "conv2_w"
    lr_mult: 1
  }
  param {
    name: "conv2_b"
    lr_mult: 2
  }
  convolution_param {
    num_output: 50
    kernel_size: 5
    stride: 1
    weight_filler {
      type: "xavier"
    }
    bias_filler {
      type: "constant"
    }
  }
}
layer {
  name: "pool2_p"
  type: "Pooling"
  bottom: "conv2_p"
  top: "pool2_p"
  pooling_param {
    pool: MAX
    kernel_size: 2
    stride: 2
  }
}
layer {
  name: "ip1_p"
  type: "InnerProduct"
  bottom: "pool2_p"
  top: "ip1_p"
  param {
    name: "ip1_w"
    lr_mult: 1
  }
  param {
    name: "ip1_b"
    lr_mult: 2
  }
  inner_product_param {
    num_output: 500
    weight_filler {
      type: "xavier"
    }
    bias_filler {
      type: "constant"
    }
  }
}
layer {
  name: "relu1_p"
  type: "ReLU"
  bottom: "ip1_p"
  top: "ip1_p"
}
layer {
  name: "ip2_p"
  type: "InnerProduct"
  bottom: "ip1_p"
  top: "ip2_p"
  param {
    name: "ip2_w"
    lr_mult: 1
  }
  param {
    name: "ip2_b"
    lr_mult: 2
  }
  inner_product_param {
    num_output: 10
    weight_filler {
      type: "xavier"
    }
    bias_filler {
      type: "constant"
    }
  }
}
layer {
  name: "feat_p"
  type: "InnerProduct"
  bottom: "ip2_p"
  top: "feat_p"
  param {
    name: "feat_w"
    lr_mult: 1
  }
  param {
    name: "feat_b"
    lr_mult: 2
  }
  inner_product_param {
    num_output: 2
    weight_filler {
      type: "xavier"
    }
    bias_filler {
      type: "constant"
    }
  }
}
layer {
  name: "concat"
  type: "Concat"
  bottom: "feat"
  bottom: "feat_p"
  top: "comb"
  concat_param {
    axis: 1
  }
}
layer {
  name: "fc1"
  type: "InnerProduct"
  bottom: "comb"
  top: "fc1"
  param {
    name: "fc1_w"
    lr_mult: 1
  }
  param {
    name: "fc1_b"
    lr_mult: 2
  }
  inner_product_param {
    num_output: 100
    weight_filler {
      type: "xavier"
    }
    bias_filler {
      type: "constant"
    }
  }
}
layer {
  name: "relu1_fc1"
  type: "ReLU"
  bottom: "fc1"
  top: "fc1"
}
layer {
  name: "fc2"
  type: "InnerProduct"
  bottom: "fc1"
  top: "fc2"
  param {
    name: "fc2_w"
    lr_mult: 1
  }
  param {
    name: "fc2_b"
    lr_mult: 2
  }
  inner_product_param {
    num_output: 50
    weight_filler {
      type: "xavier"
    }
    bias_filler {
      type: "constant"
    }
  }
}
layer {
  name: "relu2_fc2"
  type: "ReLU"
  bottom: "fc2"
  top: "fc2"
}
layer {
  name: "fc3"
  type: "InnerProduct"
  bottom: "fc2"
  top: "fc3"
  param {
    name: "fc3_w"
    lr_mult: 1
  }
  param {
    name: "fc3_b"
    lr_mult: 2
  }
  inner_product_param {
    num_output: 2
    weight_filler {
      type: "xavier"
    }
    bias_filler {
      type: "constant"
    }
  }
}
layer {
  name: "loss"
  type: "SoftmaxWithLoss"
  bottom: "fc3"
  bottom: "label"
  top: "loss"
}
I0715 12:52:15.102864 19421 layer_factory.hpp:77] Creating layer pair_data
I0715 12:52:15.103381 19421 net.cpp:91] Creating Layer pair_data
I0715 12:52:15.103406 19421 net.cpp:399] pair_data -> pair_data
I0715 12:52:15.103442 19421 net.cpp:399] pair_data -> label
I0715 12:52:15.109977 19425 db_leveldb.cpp:18] Opened leveldb /home/shaogang/caffe/examples/siamese/mnist_siamese_train_leveldb_0to6
I0715 12:52:15.113431 19421 data_layer.cpp:41] output data size: 64,2,28,28
I0715 12:52:15.113945 19421 net.cpp:141] Setting up pair_data
I0715 12:52:15.113975 19421 net.cpp:148] Top shape: 64 2 28 28 (100352)
I0715 12:52:15.113981 19421 net.cpp:148] Top shape: 64 (64)
I0715 12:52:15.113983 19421 net.cpp:156] Memory required for data: 401664
I0715 12:52:15.113993 19421 layer_factory.hpp:77] Creating layer slice_pair
I0715 12:52:15.114013 19421 net.cpp:91] Creating Layer slice_pair
I0715 12:52:15.114019 19421 net.cpp:425] slice_pair <- pair_data
I0715 12:52:15.114029 19421 net.cpp:399] slice_pair -> data
I0715 12:52:15.114040 19421 net.cpp:399] slice_pair -> data_p
I0715 12:52:15.114054 19421 net.cpp:141] Setting up slice_pair
I0715 12:52:15.114073 19421 net.cpp:148] Top shape: 64 1 28 28 (50176)
I0715 12:52:15.114078 19421 net.cpp:148] Top shape: 64 1 28 28 (50176)
I0715 12:52:15.114079 19421 net.cpp:156] Memory required for data: 803072
I0715 12:52:15.114083 19421 layer_factory.hpp:77] Creating layer conv1
I0715 12:52:15.114178 19421 net.cpp:91] Creating Layer conv1
I0715 12:52:15.114204 19421 net.cpp:425] conv1 <- data
I0715 12:52:15.114213 19421 net.cpp:399] conv1 -> conv1
I0715 12:52:15.114320 19421 net.cpp:141] Setting up conv1
I0715 12:52:15.114348 19421 net.cpp:148] Top shape: 64 20 24 24 (737280)
I0715 12:52:15.114351 19421 net.cpp:156] Memory required for data: 3752192
I0715 12:52:15.114362 19421 layer_factory.hpp:77] Creating layer pool1
I0715 12:52:15.119211 19421 net.cpp:91] Creating Layer pool1
I0715 12:52:15.119272 19421 net.cpp:425] pool1 <- conv1
I0715 12:52:15.119319 19421 net.cpp:399] pool1 -> pool1
I0715 12:52:15.119393 19421 net.cpp:141] Setting up pool1
I0715 12:52:15.119437 19421 net.cpp:148] Top shape: 64 20 12 12 (184320)
I0715 12:52:15.119460 19421 net.cpp:156] Memory required for data: 4489472
I0715 12:52:15.119483 19421 layer_factory.hpp:77] Creating layer conv2
I0715 12:52:15.119526 19421 net.cpp:91] Creating Layer conv2
I0715 12:52:15.119552 19421 net.cpp:425] conv2 <- pool1
I0715 12:52:15.119580 19421 net.cpp:399] conv2 -> conv2
I0715 12:52:15.119897 19421 net.cpp:141] Setting up conv2
I0715 12:52:15.119964 19421 net.cpp:148] Top shape: 64 50 8 8 (204800)
I0715 12:52:15.119995 19421 net.cpp:156] Memory required for data: 5308672
I0715 12:52:15.120035 19421 layer_factory.hpp:77] Creating layer pool2
I0715 12:52:15.120075 19421 net.cpp:91] Creating Layer pool2
I0715 12:52:15.120103 19421 net.cpp:425] pool2 <- conv2
I0715 12:52:15.120134 19421 net.cpp:399] pool2 -> pool2
I0715 12:52:15.120173 19421 net.cpp:141] Setting up pool2
I0715 12:52:15.120203 19421 net.cpp:148] Top shape: 64 50 4 4 (51200)
I0715 12:52:15.120235 19421 net.cpp:156] Memory required for data: 5513472
I0715 12:52:15.120261 19421 layer_factory.hpp:77] Creating layer ip1
I0715 12:52:15.120312 19421 net.cpp:91] Creating Layer ip1
I0715 12:52:15.120340 19421 net.cpp:425] ip1 <- pool2
I0715 12:52:15.120371 19421 net.cpp:399] ip1 -> ip1
I0715 12:52:15.124598 19421 net.cpp:141] Setting up ip1
I0715 12:52:15.124742 19421 net.cpp:148] Top shape: 64 500 (32000)
I0715 12:52:15.124795 19421 net.cpp:156] Memory required for data: 5641472
I0715 12:52:15.124860 19421 layer_factory.hpp:77] Creating layer relu1
I0715 12:52:15.124920 19421 net.cpp:91] Creating Layer relu1
I0715 12:52:15.124964 19421 net.cpp:425] relu1 <- ip1
I0715 12:52:15.125006 19421 net.cpp:386] relu1 -> ip1 (in-place)
I0715 12:52:15.125057 19421 net.cpp:141] Setting up relu1
I0715 12:52:15.125095 19421 net.cpp:148] Top shape: 64 500 (32000)
I0715 12:52:15.125124 19421 net.cpp:156] Memory required for data: 5769472
I0715 12:52:15.125154 19421 layer_factory.hpp:77] Creating layer ip2
I0715 12:52:15.125203 19421 net.cpp:91] Creating Layer ip2
I0715 12:52:15.125236 19421 net.cpp:425] ip2 <- ip1
I0715 12:52:15.125269 19421 net.cpp:399] ip2 -> ip2
I0715 12:52:15.125387 19421 net.cpp:141] Setting up ip2
I0715 12:52:15.125428 19421 net.cpp:148] Top shape: 64 10 (640)
I0715 12:52:15.125452 19421 net.cpp:156] Memory required for data: 5772032
I0715 12:52:15.125483 19421 layer_factory.hpp:77] Creating layer feat
I0715 12:52:15.125515 19421 net.cpp:91] Creating Layer feat
I0715 12:52:15.125542 19421 net.cpp:425] feat <- ip2
I0715 12:52:15.125573 19421 net.cpp:399] feat -> feat
I0715 12:52:15.125623 19421 net.cpp:141] Setting up feat
I0715 12:52:15.125656 19421 net.cpp:148] Top shape: 64 2 (128)
I0715 12:52:15.125680 19421 net.cpp:156] Memory required for data: 5772544
I0715 12:52:15.125715 19421 layer_factory.hpp:77] Creating layer conv1_p
I0715 12:52:15.125751 19421 net.cpp:91] Creating Layer conv1_p
I0715 12:52:15.125774 19421 net.cpp:425] conv1_p <- data_p
I0715 12:52:15.125809 19421 net.cpp:399] conv1_p -> conv1_p
I0715 12:52:15.125883 19421 net.cpp:141] Setting up conv1_p
I0715 12:52:15.125917 19421 net.cpp:148] Top shape: 64 20 24 24 (737280)
I0715 12:52:15.125941 19421 net.cpp:156] Memory required for data: 8721664
I0715 12:52:15.125967 19421 net.cpp:484] Sharing parameters 'conv1_w' owned by layer 'conv1', param index 0
I0715 12:52:15.125993 19421 net.cpp:484] Sharing parameters 'conv1_b' owned by layer 'conv1', param index 1
I0715 12:52:15.126051 19421 layer_factory.hpp:77] Creating layer pool1_p
I0715 12:52:15.126088 19421 net.cpp:91] Creating Layer pool1_p
I0715 12:52:15.126111 19421 net.cpp:425] pool1_p <- conv1_p
I0715 12:52:15.126137 19421 net.cpp:399] pool1_p -> pool1_p
I0715 12:52:15.126174 19421 net.cpp:141] Setting up pool1_p
I0715 12:52:15.126202 19421 net.cpp:148] Top shape: 64 20 12 12 (184320)
I0715 12:52:15.126224 19421 net.cpp:156] Memory required for data: 9458944
I0715 12:52:15.126246 19421 layer_factory.hpp:77] Creating layer conv2_p
I0715 12:52:15.126281 19421 net.cpp:91] Creating Layer conv2_p
I0715 12:52:15.126307 19421 net.cpp:425] conv2_p <- pool1_p
I0715 12:52:15.126333 19421 net.cpp:399] conv2_p -> conv2_p
I0715 12:52:15.126775 19421 net.cpp:141] Setting up conv2_p
I0715 12:52:15.126848 19421 net.cpp:148] Top shape: 64 50 8 8 (204800)
I0715 12:52:15.126875 19421 net.cpp:156] Memory required for data: 10278144
I0715 12:52:15.126900 19421 net.cpp:484] Sharing parameters 'conv2_w' owned by layer 'conv2', param index 0
I0715 12:52:15.126926 19421 net.cpp:484] Sharing parameters 'conv2_b' owned by layer 'conv2', param index 1
I0715 12:52:15.126950 19421 layer_factory.hpp:77] Creating layer pool2_p
I0715 12:52:15.126977 19421 net.cpp:91] Creating Layer pool2_p
I0715 12:52:15.127001 19421 net.cpp:425] pool2_p <- conv2_p
I0715 12:52:15.127038 19421 net.cpp:399] pool2_p -> pool2_p
I0715 12:52:15.127074 19421 net.cpp:141] Setting up pool2_p
I0715 12:52:15.127100 19421 net.cpp:148] Top shape: 64 50 4 4 (51200)
I0715 12:52:15.127122 19421 net.cpp:156] Memory required for data: 10482944
I0715 12:52:15.127145 19421 layer_factory.hpp:77] Creating layer ip1_p
I0715 12:52:15.127177 19421 net.cpp:91] Creating Layer ip1_p
I0715 12:52:15.127202 19421 net.cpp:425] ip1_p <- pool2_p
I0715 12:52:15.127228 19421 net.cpp:399] ip1_p -> ip1_p
I0715 12:52:15.131575 19421 net.cpp:141] Setting up ip1_p
I0715 12:52:15.131676 19421 net.cpp:148] Top shape: 64 500 (32000)
I0715 12:52:15.131700 19421 net.cpp:156] Memory required for data: 10610944
I0715 12:52:15.131726 19421 net.cpp:484] Sharing parameters 'ip1_w' owned by layer 'ip1', param index 0
I0715 12:52:15.131749 19421 net.cpp:484] Sharing parameters 'ip1_b' owned by layer 'ip1', param index 1
I0715 12:52:15.131772 19421 layer_factory.hpp:77] Creating layer relu1_p
I0715 12:52:15.131799 19421 net.cpp:91] Creating Layer relu1_p
I0715 12:52:15.131821 19421 net.cpp:425] relu1_p <- ip1_p
I0715 12:52:15.131845 19421 net.cpp:386] relu1_p -> ip1_p (in-place)
I0715 12:52:15.131875 19421 net.cpp:141] Setting up relu1_p
I0715 12:52:15.131897 19421 net.cpp:148] Top shape: 64 500 (32000)
I0715 12:52:15.131916 19421 net.cpp:156] Memory required for data: 10738944
I0715 12:52:15.131937 19421 layer_factory.hpp:77] Creating layer ip2_p
I0715 12:52:15.131970 19421 net.cpp:91] Creating Layer ip2_p
I0715 12:52:15.131994 19421 net.cpp:425] ip2_p <- ip1_p
I0715 12:52:15.132019 19421 net.cpp:399] ip2_p -> ip2_p
I0715 12:52:15.132117 19421 net.cpp:141] Setting up ip2_p
I0715 12:52:15.132144 19421 net.cpp:148] Top shape: 64 10 (640)
I0715 12:52:15.132164 19421 net.cpp:156] Memory required for data: 10741504
I0715 12:52:15.132190 19421 net.cpp:484] Sharing parameters 'ip2_w' owned by layer 'ip2', param index 0
I0715 12:52:15.132215 19421 net.cpp:484] Sharing parameters 'ip2_b' owned by layer 'ip2', param index 1
I0715 12:52:15.132236 19421 layer_factory.hpp:77] Creating layer feat_p
I0715 12:52:15.132259 19421 net.cpp:91] Creating Layer feat_p
I0715 12:52:15.132280 19421 net.cpp:425] feat_p <- ip2_p
I0715 12:52:15.132303 19421 net.cpp:399] feat_p -> feat_p
I0715 12:52:15.132339 19421 net.cpp:141] Setting up feat_p
I0715 12:52:15.132364 19421 net.cpp:148] Top shape: 64 2 (128)
I0715 12:52:15.132383 19421 net.cpp:156] Memory required for data: 10742016
I0715 12:52:15.132405 19421 net.cpp:484] Sharing parameters 'feat_w' owned by layer 'feat', param index 0
I0715 12:52:15.132426 19421 net.cpp:484] Sharing parameters 'feat_b' owned by layer 'feat', param index 1
I0715 12:52:15.132457 19421 layer_factory.hpp:77] Creating layer concat
I0715 12:52:15.132501 19421 net.cpp:91] Creating Layer concat
I0715 12:52:15.132524 19421 net.cpp:425] concat <- feat
I0715 12:52:15.132544 19421 net.cpp:425] concat <- feat_p
I0715 12:52:15.132567 19421 net.cpp:399] concat -> comb
I0715 12:52:15.132597 19421 net.cpp:141] Setting up concat
I0715 12:52:15.132621 19421 net.cpp:148] Top shape: 64 4 (256)
I0715 12:52:15.132639 19421 net.cpp:156] Memory required for data: 10743040
I0715 12:52:15.132659 19421 layer_factory.hpp:77] Creating layer fc1
I0715 12:52:15.132683 19421 net.cpp:91] Creating Layer fc1
I0715 12:52:15.132704 19421 net.cpp:425] fc1 <- comb
I0715 12:52:15.132730 19421 net.cpp:399] fc1 -> fc1
I0715 12:52:15.132778 19421 net.cpp:141] Setting up fc1
I0715 12:52:15.132803 19421 net.cpp:148] Top shape: 64 100 (6400)
I0715 12:52:15.132823 19421 net.cpp:156] Memory required for data: 10768640
I0715 12:52:15.132846 19421 layer_factory.hpp:77] Creating layer relu1_fc1
I0715 12:52:15.132874 19421 net.cpp:91] Creating Layer relu1_fc1
I0715 12:52:15.132894 19421 net.cpp:425] relu1_fc1 <- fc1
I0715 12:52:15.132916 19421 net.cpp:386] relu1_fc1 -> fc1 (in-place)
I0715 12:52:15.132946 19421 net.cpp:141] Setting up relu1_fc1
I0715 12:52:15.132967 19421 net.cpp:148] Top shape: 64 100 (6400)
I0715 12:52:15.132987 19421 net.cpp:156] Memory required for data: 10794240
I0715 12:52:15.133007 19421 layer_factory.hpp:77] Creating layer fc2
I0715 12:52:15.133030 19421 net.cpp:91] Creating Layer fc2
I0715 12:52:15.133050 19421 net.cpp:425] fc2 <- fc1
I0715 12:52:15.133074 19421 net.cpp:399] fc2 -> fc2
I0715 12:52:15.133165 19421 net.cpp:141] Setting up fc2
I0715 12:52:15.133193 19421 net.cpp:148] Top shape: 64 50 (3200)
I0715 12:52:15.133213 19421 net.cpp:156] Memory required for data: 10807040
I0715 12:52:15.133237 19421 layer_factory.hpp:77] Creating layer relu2_fc2
I0715 12:52:15.133261 19421 net.cpp:91] Creating Layer relu2_fc2
I0715 12:52:15.133282 19421 net.cpp:425] relu2_fc2 <- fc2
I0715 12:52:15.133304 19421 net.cpp:386] relu2_fc2 -> fc2 (in-place)
I0715 12:52:15.133328 19421 net.cpp:141] Setting up relu2_fc2
I0715 12:52:15.133352 19421 net.cpp:148] Top shape: 64 50 (3200)
I0715 12:52:15.133371 19421 net.cpp:156] Memory required for data: 10819840
I0715 12:52:15.133391 19421 layer_factory.hpp:77] Creating layer fc3
I0715 12:52:15.133416 19421 net.cpp:91] Creating Layer fc3
I0715 12:52:15.133437 19421 net.cpp:425] fc3 <- fc2
I0715 12:52:15.133466 19421 net.cpp:399] fc3 -> fc3
I0715 12:52:15.133503 19421 net.cpp:141] Setting up fc3
I0715 12:52:15.133533 19421 net.cpp:148] Top shape: 64 2 (128)
I0715 12:52:15.133553 19421 net.cpp:156] Memory required for data: 10820352
I0715 12:52:15.133575 19421 layer_factory.hpp:77] Creating layer loss
I0715 12:52:15.133600 19421 net.cpp:91] Creating Layer loss
I0715 12:52:15.133621 19421 net.cpp:425] loss <- fc3
I0715 12:52:15.133643 19421 net.cpp:425] loss <- label
I0715 12:52:15.133674 19421 net.cpp:399] loss -> loss
I0715 12:52:15.133723 19421 layer_factory.hpp:77] Creating layer loss
…
I0715 12:52:15.136435 19421 net.cpp:313] The NetState phase (1) differed from the phase (0) specified by a rule in layer pair_data
I0715 12:52:15.136785 19421 net.cpp:49] Initializing net from parameters: 
name: "mnist_siamese_train_test_sim"
state {
  phase: TEST
}
layer {
  name: "pair_data"
  type: "Data"
  top: "pair_data"
  top: "label"
  include {
    phase: TEST
  }
  transform_param {
    scale: 0.00390625
  }
  data_param {
    source: "/home/shaogang/caffe/examples/siamese/mnist_siamese_test_leveldb_89"
    batch_size: 100
    backend: LEVELDB
  }
}
layer {
  name: "slice_pair"
  type: "Slice"
  bottom: "pair_data"
  top: "data"
  top: "data_p"
  slice_param {
    slice_dim: 1
    slice_point: 1
  }
}
layer {
  name: "conv1"
  type: "Convolution"
  bottom: "data"
  top: "conv1"
  param {
    name: "conv1_w"
    lr_mult: 1
  }
  param {
    name: "conv1_b"
    lr_mult: 2
  }
  convolution_param {
    num_output: 20
    kernel_size: 5
    stride: 1
    weight_filler {
      type: "xavier"
    }
    bias_filler {
      type: "constant"
    }
  }
}
layer {
  name: "pool1"
  type: "Pooling"
  bottom: "conv1"
  top: "pool1"
  pooling_param {
    pool: MAX
    kernel_size: 2
    stride: 2
  }
}
layer {
  name: "conv2"
  type: "Convolution"
  bottom: "pool1"
  top: "conv2"
  param {
    name: "conv2_w"
    lr_mult: 1
  }
  param {
    name: "conv2_b"
    lr_mult: 2
  }
  convolution_param {
    num_output: 50
    kernel_size: 5
    stride: 1
    weight_filler {
      type: "xavier"
    }
    bias_filler {
      type: "constant"
    }
  }
}
layer {
  name: "pool2"
  type: "Pooling"
  bottom: "conv2"
  top: "pool2"
  pooling_param {
    pool: MAX
    kernel_size: 2
    stride: 2
  }
}
layer {
  name: "ip1"
  type: "InnerProduct"
  bottom: "pool2"
  top: "ip1"
  param {
    name: "ip1_w"
    lr_mult: 1
  }
  param {
    name: "ip1_b"
    lr_mult: 2
  }
  inner_product_param {
    num_output: 500
    weight_filler {
      type: "xavier"
    }
    bias_filler {
      type: "constant"
    }
  }
}
layer {
  name: "relu1"
  type: "ReLU"
  bottom: "ip1"
  top: "ip1"
}
layer {
  name: "ip2"
  type: "InnerProduct"
  bottom: "ip1"
  top: "ip2"
  param {
    name: "ip2_w"
    lr_mult: 1
  }
  param {
    name: "ip2_b"
    lr_mult: 2
  }
  inner_product_param {
    num_output: 10
    weight_filler {
      type: "xavier"
    }
    bias_filler {
      type: "constant"
    }
  }
}
layer {
  name: "feat"
  type: "InnerProduct"
  bottom: "ip2"
  top: "feat"
  param {
    name: "feat_w"
    lr_mult: 1
  }
  param {
    name: "feat_b"
    lr_mult: 2
  }
  inner_product_param {
    num_output: 2
    weight_filler {
      type: "xavier"
    }
    bias_filler {
      type: "constant"
    }
  }
}
layer {
  name: "conv1_p"
  type: "Convolution"
  bottom: "data_p"
  top: "conv1_p"
  param {
    name: "conv1_w"
    lr_mult: 1
  }
  param {
    name: "conv1_b"
    lr_mult: 2
  }
  convolution_param {
    num_output: 20
    kernel_size: 5
    stride: 1
    weight_filler {
      type: "xavier"
    }
    bias_filler {
      type: "constant"
    }
  }
}
layer {
  name: "pool1_p"
  type: "Pooling"
  bottom: "conv1_p"
  top: "pool1_p"
  pooling_param {
    pool: MAX
    kernel_size: 2
    stride: 2
  }
}
layer {
  name: "conv2_p"
  type: "Convolution"
  bottom: "pool1_p"
  top: "conv2_p"
  param {
    name: "conv2_w"
    lr_mult: 1
  }
  param {
    name: "conv2_b"
    lr_mult: 2
  }
  convolution_param {
    num_output: 50
    kernel_size: 5
    stride: 1
    weight_filler {
      type: "xavier"
    }
    bias_filler {
      type: "constant"
    }
  }
}
layer {
  name: "pool2_p"
  type: "Pooling"
  bottom: "conv2_p"
  top: "pool2_p"
  pooling_param {
    pool: MAX
    kernel_size: 2
    stride: 2
  }
}
layer {
  name: "ip1_p"
  type: "InnerProduct"
  bottom: "pool2_p"
  top: "ip1_p"
  param {
    name: "ip1_w"
    lr_mult: 1
  }
  param {
    name: "ip1_b"
    lr_mult: 2
  }
  inner_product_param {
    num_output: 500
    weight_filler {
      type: "xavier"
    }
    bias_filler {
      type: "constant"
    }
  }
}
layer {
  name: "relu1_p"
  type: "ReLU"
  bottom: "ip1_p"
  top: "ip1_p"
}
layer {
  name: "ip2_p"
  type: "InnerProduct"
  bottom: "ip1_p"
  top: "ip2_p"
  param {
    name: "ip2_w"
    lr_mult: 1
  }
  param {
    name: "ip2_b"
    lr_mult: 2
  }
  inner_product_param {
    num_output: 10
    weight_filler {
      type: "xavier"
    }
    bias_filler {
      type: "constant"
    }
  }
}
layer {
  name: "feat_p"
  type: "InnerProduct"
  bottom: "ip2_p"
  top: "feat_p"
  param {
    name: "feat_w"
    lr_mult: 1
  }
  param {
    name: "feat_b"
    lr_mult: 2
  }
  inner_product_param {
    num_output: 2
    weight_filler {
      type: "xavier"
    }
    bias_filler {
      type: "constant"
    }
  }
}
layer {
  name: "concat"
  type: "Concat"
  bottom: "feat"
  bottom: "feat_p"
  top: "comb"
  concat_param {
    axis: 1
  }
}
layer {
  name: "fc1"
  type: "InnerProduct"
  bottom: "comb"
  top: "fc1"
  param {
    name: "fc1_w"
    lr_mult: 1
  }
  param {
    name: "fc1_b"
    lr_mult: 2
  }
  inner_product_param {
    num_output: 100
    weight_filler {
      type: "xavier"
    }
    bias_filler {
      type: "constant"
    }
  }
}
layer {
  name: "relu1_fc1"
  type: "ReLU"
  bottom: "fc1"
  top: "fc1"
}
layer {
  name: "fc2"
  type: "InnerProduct"
  bottom: "fc1"
  top: "fc2"
  param {
    name: "fc2_w"
    lr_mult: 1
  }
  param {
    name: "fc2_b"
    lr_mult: 2
  }
  inner_product_param {
    num_output: 50
    weight_filler {
      type: "xavier"
    }
    bias_filler {
      type: "constant"
    }
  }
}
layer {
  name: "relu2_fc2"
  type: "ReLU"
  bottom: "fc2"
  top: "fc2"
}
layer {
  name: "fc3"
  type: "InnerProduct"
  bottom: "fc2"
  top: "fc3"
  param {
    name: "fc3_w"
    lr_mult: 1
  }
  param {
    name: "fc3_b"
    lr_mult: 2
  }
  inner_product_param {
    num_output: 2
    weight_filler {
      type: "xavier"
    }
    bias_filler {
      type: "constant"
    }
  }
}
layer {
  name: "loss"
  type: "SoftmaxWithLoss"
  bottom: "fc3"
  bottom: "label"
  top: "loss"
}
layer {
  name: "accuracy"
  type: "Accuracy"
  bottom: "fc3"
  bottom: "label"
  top: "accuracy"
  include {
    phase: TEST
  }
}
I0715 12:52:15.137910 19421 layer_factory.hpp:77] Creating layer pair_data
I0715 12:52:15.138073 19421 net.cpp:91] Creating Layer pair_data
I0715 12:52:15.138085 19421 net.cpp:399] pair_data -> pair_data
I0715 12:52:15.138101 19421 net.cpp:399] pair_data -> label
I0715 12:52:15.185781 19427 db_leveldb.cpp:18] Opened leveldb /home/shaogang/caffe/examples/siamese/mnist_siamese_test_leveldb_89
I0715 12:52:15.186244 19421 data_layer.cpp:41] output data size: 100,2,28,28
I0715 12:52:15.187163 19421 net.cpp:141] Setting up pair_data
I0715 12:52:15.187309 19428 blocking_queue.cpp:50] Waiting for data
I0715 12:52:15.187315 19421 net.cpp:148] Top shape: 100 2 28 28 (156800)
I0715 12:52:15.187489 19421 net.cpp:148] Top shape: 100 (100)
I0715 12:52:15.187496 19421 net.cpp:156] Memory required for data: 627600
I0715 12:52:15.187505 19421 layer_factory.hpp:77] Creating layer label_pair_data_1_split
I0715 12:52:15.187521 19421 net.cpp:91] Creating Layer label_pair_data_1_split
I0715 12:52:15.187527 19421 net.cpp:425] label_pair_data_1_split <- label
I0715 12:52:15.187536 19421 net.cpp:399] label_pair_data_1_split -> label_pair_data_1_split_0
I0715 12:52:15.187549 19421 net.cpp:399] label_pair_data_1_split -> label_pair_data_1_split_1
I0715 12:52:15.187562 19421 net.cpp:141] Setting up label_pair_data_1_split
I0715 12:52:15.187569 19421 net.cpp:148] Top shape: 100 (100)
I0715 12:52:15.187575 19421 net.cpp:148] Top shape: 100 (100)
I0715 12:52:15.187579 19421 net.cpp:156] Memory required for data: 628400
I0715 12:52:15.187584 19421 layer_factory.hpp:77] Creating layer slice_pair
I0715 12:52:15.187597 19421 net.cpp:91] Creating Layer slice_pair
I0715 12:52:15.187602 19421 net.cpp:425] slice_pair <- pair_data
I0715 12:52:15.187608 19421 net.cpp:399] slice_pair -> data
I0715 12:52:15.187618 19421 net.cpp:399] slice_pair -> data_p
I0715 12:52:15.187629 19421 net.cpp:141] Setting up slice_pair
I0715 12:52:15.187636 19421 net.cpp:148] Top shape: 100 1 28 28 (78400)
I0715 12:52:15.187643 19421 net.cpp:148] Top shape: 100 1 28 28 (78400)
I0715 12:52:15.187647 19421 net.cpp:156] Memory required for data: 1255600
I0715 12:52:15.187651 19421 layer_factory.hpp:77] Creating layer conv1
I0715 12:52:15.187667 19421 net.cpp:91] Creating Layer conv1
I0715 12:52:15.187672 19421 net.cpp:425] conv1 <- data
I0715 12:52:15.187680 19421 net.cpp:399] conv1 -> conv1
I0715 12:52:15.187747 19421 net.cpp:141] Setting up conv1
I0715 12:52:15.187760 19421 net.cpp:148] Top shape: 100 20 24 24 (1152000)
I0715 12:52:15.187765 19421 net.cpp:156] Memory required for data: 5863600
I0715 12:52:15.187778 19421 layer_factory.hpp:77] Creating layer pool1
I0715 12:52:15.187790 19421 net.cpp:91] Creating Layer pool1
I0715 12:52:15.187795 19421 net.cpp:425] pool1 <- conv1
I0715 12:52:15.187803 19421 net.cpp:399] pool1 -> pool1
I0715 12:52:15.187815 19421 net.cpp:141] Setting up pool1
I0715 12:52:15.187822 19421 net.cpp:148] Top shape: 100 20 12 12 (288000)
I0715 12:52:15.187826 19421 net.cpp:156] Memory required for data: 7015600
I0715 12:52:15.187831 19421 layer_factory.hpp:77] Creating layer conv2
I0715 12:52:15.187844 19421 net.cpp:91] Creating Layer conv2
I0715 12:52:15.187849 19421 net.cpp:425] conv2 <- pool1
I0715 12:52:15.187862 19421 net.cpp:399] conv2 -> conv2
I0715 12:52:15.188199 19421 net.cpp:141] Setting up conv2
I0715 12:52:15.188212 19421 net.cpp:148] Top shape: 100 50 8 8 (320000)
I0715 12:52:15.188217 19421 net.cpp:156] Memory required for data: 8295600
I0715 12:52:15.188230 19421 layer_factory.hpp:77] Creating layer pool2
I0715 12:52:15.188241 19421 net.cpp:91] Creating Layer pool2
I0715 12:52:15.188247 19421 net.cpp:425] pool2 <- conv2
I0715 12:52:15.188254 19421 net.cpp:399] pool2 -> pool2
I0715 12:52:15.188266 19421 net.cpp:141] Setting up pool2
I0715 12:52:15.188273 19421 net.cpp:148] Top shape: 100 50 4 4 (80000)
I0715 12:52:15.188278 19421 net.cpp:156] Memory required for data: 8615600
I0715 12:52:15.188283 19421 layer_factory.hpp:77] Creating layer ip1
I0715 12:52:15.188297 19421 net.cpp:91] Creating Layer ip1
I0715 12:52:15.188302 19421 net.cpp:425] ip1 <- pool2
I0715 12:52:15.188311 19421 net.cpp:399] ip1 -> ip1
I0715 12:52:15.193716 19421 net.cpp:141] Setting up ip1
I0715 12:52:15.193792 19421 net.cpp:148] Top shape: 100 500 (50000)
I0715 12:52:15.194783 19421 net.cpp:156] Memory required for data: 8815600
I0715 12:52:15.194818 19421 layer_factory.hpp:77] Creating layer relu1
I0715 12:52:15.194844 19421 net.cpp:91] Creating Layer relu1
I0715 12:52:15.194861 19421 net.cpp:425] relu1 <- ip1
I0715 12:52:15.194880 19421 net.cpp:386] relu1 -> ip1 (in-place)
I0715 12:52:15.194902 19421 net.cpp:141] Setting up relu1
I0715 12:52:15.194931 19421 net.cpp:148] Top shape: 100 500 (50000)
I0715 12:52:15.194958 19421 net.cpp:156] Memory required for data: 9015600
I0715 12:52:15.194973 19421 layer_factory.hpp:77] Creating layer ip2
I0715 12:52:15.195067 19421 net.cpp:91] Creating Layer ip2
I0715 12:52:15.195083 19421 net.cpp:425] ip2 <- ip1
I0715 12:52:15.195101 19421 net.cpp:399] ip2 -> ip2
I0715 12:52:15.195178 19421 net.cpp:141] Setting up ip2
I0715 12:52:15.195199 19421 net.cpp:148] Top shape: 100 10 (1000)
I0715 12:52:15.195211 19421 net.cpp:156] Memory required for data: 9019600
I0715 12:52:15.195227 19421 layer_factory.hpp:77] Creating layer feat
I0715 12:52:15.195245 19421 net.cpp:91] Creating Layer feat
I0715 12:52:15.195260 19421 net.cpp:425] feat <- ip2
I0715 12:52:15.195276 19421 net.cpp:399] feat -> feat
I0715 12:52:15.195298 19421 net.cpp:141] Setting up feat
I0715 12:52:15.195315 19421 net.cpp:148] Top shape: 100 2 (200)
I0715 12:52:15.195328 19421 net.cpp:156] Memory required for data: 9020400
I0715 12:52:15.195346 19421 layer_factory.hpp:77] Creating layer conv1_p
I0715 12:52:15.195368 19421 net.cpp:91] Creating Layer conv1_p
I0715 12:52:15.195381 19421 net.cpp:425] conv1_p <- data_p
I0715 12:52:15.195397 19421 net.cpp:399] conv1_p -> conv1_p
I0715 12:52:15.195437 19421 net.cpp:141] Setting up conv1_p
I0715 12:52:15.195456 19421 net.cpp:148] Top shape: 100 20 24 24 (1152000)
I0715 12:52:15.195468 19421 net.cpp:156] Memory required for data: 13628400
I0715 12:52:15.195482 19421 net.cpp:484] Sharing parameters 'conv1_w' owned by layer 'conv1', param index 0
I0715 12:52:15.195497 19421 net.cpp:484] Sharing parameters 'conv1_b' owned by layer 'conv1', param index 1
I0715 12:52:15.195510 19421 layer_factory.hpp:77] Creating layer pool1_p
I0715 12:52:15.195528 19421 net.cpp:91] Creating Layer pool1_p
I0715 12:52:15.195540 19421 net.cpp:425] pool1_p <- conv1_p
I0715 12:52:15.195637 19421 net.cpp:399] pool1_p -> pool1_p
I0715 12:52:15.195698 19421 net.cpp:141] Setting up pool1_p
I0715 12:52:15.195761 19421 net.cpp:148] Top shape: 100 20 12 12 (288000)
I0715 12:52:15.195852 19421 net.cpp:156] Memory required for data: 14780400
I0715 12:52:15.195878 19421 layer_factory.hpp:77] Creating layer conv2_p
I0715 12:52:15.195916 19421 net.cpp:91] Creating Layer conv2_p
I0715 12:52:15.195960 19421 net.cpp:425] conv2_p <- pool1_p
I0715 12:52:15.196022 19421 net.cpp:399] conv2_p -> conv2_p
I0715 12:52:15.196760 19421 net.cpp:141] Setting up conv2_p
I0715 12:52:15.200803 19421 net.cpp:148] Top shape: 100 50 8 8 (320000)
I0715 12:52:15.202625 19421 net.cpp:156] Memory required for data: 16060400
I0715 12:52:15.202667 19421 net.cpp:484] Sharing parameters 'conv2_w' owned by layer 'conv2', param index 0
I0715 12:52:15.202693 19421 net.cpp:484] Sharing parameters 'conv2_b' owned by layer 'conv2', param index 1
I0715 12:52:15.202713 19421 layer_factory.hpp:77] Creating layer pool2_p
I0715 12:52:15.202739 19421 net.cpp:91] Creating Layer pool2_p
I0715 12:52:15.202757 19421 net.cpp:425] pool2_p <- conv2_p
I0715 12:52:15.202785 19421 net.cpp:399] pool2_p -> pool2_p
I0715 12:52:15.202819 19421 net.cpp:141] Setting up pool2_p
I0715 12:52:15.202844 19421 net.cpp:148] Top shape: 100 50 4 4 (80000)
I0715 12:52:15.202859 19421 net.cpp:156] Memory required for data: 16380400
I0715 12:52:15.202874 19421 layer_factory.hpp:77] Creating layer ip1_p
I0715 12:52:15.202895 19421 net.cpp:91] Creating Layer ip1_p
I0715 12:52:15.202911 19421 net.cpp:425] ip1_p <- pool2_p
I0715 12:52:15.202997 19421 net.cpp:399] ip1_p -> ip1_p
I0715 12:52:15.206256 19421 net.cpp:141] Setting up ip1_p
I0715 12:52:15.208297 19421 net.cpp:148] Top shape: 100 500 (50000)
I0715 12:52:15.208349 19421 net.cpp:156] Memory required for data: 16580400
I0715 12:52:15.208366 19421 net.cpp:484] Sharing parameters 'ip1_w' owned by layer 'ip1', param index 0
I0715 12:52:15.208386 19421 net.cpp:484] Sharing parameters 'ip1_b' owned by layer 'ip1', param index 1
I0715 12:52:15.208392 19421 layer_factory.hpp:77] Creating layer relu1_p
I0715 12:52:15.208407 19421 net.cpp:91] Creating Layer relu1_p
I0715 12:52:15.208422 19421 net.cpp:425] relu1_p <- ip1_p
I0715 12:52:15.208452 19421 net.cpp:386] relu1_p -> ip1_p (in-place)
I0715 12:52:15.208477 19421 net.cpp:141] Setting up relu1_p
I0715 12:52:15.208483 19421 net.cpp:148] Top shape: 100 500 (50000)
I0715 12:52:15.208487 19421 net.cpp:156] Memory required for data: 16780400
I0715 12:52:15.208489 19421 layer_factory.hpp:77] Creating layer ip2_p
I0715 12:52:15.208505 19421 net.cpp:91] Creating Layer ip2_p
I0715 12:52:15.208523 19421 net.cpp:425] ip2_p <- ip1_p
I0715 12:52:15.208530 19421 net.cpp:399] ip2_p -> ip2_p
I0715 12:52:15.208595 19421 net.cpp:141] Setting up ip2_p
I0715 12:52:15.208600 19421 net.cpp:148] Top shape: 100 10 (1000)
I0715 12:52:15.208602 19421 net.cpp:156] Memory required for data: 16784400
I0715 12:52:15.208611 19421 net.cpp:484] Sharing parameters 'ip2_w' owned by layer 'ip2', param index 0
I0715 12:52:15.208627 19421 net.cpp:484] Sharing parameters 'ip2_b' owned by layer 'ip2', param index 1
I0715 12:52:15.208631 19421 layer_factory.hpp:77] Creating layer feat_p
I0715 12:52:15.208639 19421 net.cpp:91] Creating Layer feat_p
I0715 12:52:15.208642 19421 net.cpp:425] feat_p <- ip2_p
I0715 12:52:15.208647 19421 net.cpp:399] feat_p -> feat_p
I0715 12:52:15.208659 19421 net.cpp:141] Setting up feat_p
I0715 12:52:15.208663 19421 net.cpp:148] Top shape: 100 2 (200)
I0715 12:52:15.208667 19421 net.cpp:156] Memory required for data: 16785200
I0715 12:52:15.208669 19421 net.cpp:484] Sharing parameters 'feat_w' owned by layer 'feat', param index 0
I0715 12:52:15.208673 19421 net.cpp:484] Sharing parameters 'feat_b' owned by layer 'feat', param index 1
I0715 12:52:15.208675 19421 layer_factory.hpp:77] Creating layer concat
I0715 12:52:15.208684 19421 net.cpp:91] Creating Layer concat
I0715 12:52:15.208699 19421 net.cpp:425] concat <- feat
I0715 12:52:15.208703 19421 net.cpp:425] concat <- feat_p
I0715 12:52:15.208709 19421 net.cpp:399] concat -> comb
I0715 12:52:15.208715 19421 net.cpp:141] Setting up concat
I0715 12:52:15.208719 19421 net.cpp:148] Top shape: 100 4 (400)
I0715 12:52:15.208722 19421 net.cpp:156] Memory required for data: 16786800
I0715 12:52:15.208725 19421 layer_factory.hpp:77] Creating layer fc1
I0715 12:52:15.208731 19421 net.cpp:91] Creating Layer fc1
I0715 12:52:15.208734 19421 net.cpp:425] fc1 <- comb
I0715 12:52:15.208740 19421 net.cpp:399] fc1 -> fc1
I0715 12:52:15.208760 19421 net.cpp:141] Setting up fc1
I0715 12:52:15.208776 19421 net.cpp:148] Top shape: 100 100 (10000)
I0715 12:52:15.208780 19421 net.cpp:156] Memory required for data: 16826800
I0715 12:52:15.208784 19421 layer_factory.hpp:77] Creating layer relu1_fc1
I0715 12:52:15.208791 19421 net.cpp:91] Creating Layer relu1_fc1
I0715 12:52:15.208794 19421 net.cpp:425] relu1_fc1 <- fc1
I0715 12:52:15.208798 19421 net.cpp:386] relu1_fc1 -> fc1 (in-place)
I0715 12:52:15.208803 19421 net.cpp:141] Setting up relu1_fc1
I0715 12:52:15.208807 19421 net.cpp:148] Top shape: 100 100 (10000)
I0715 12:52:15.208811 19421 net.cpp:156] Memory required for data: 16866800
I0715 12:52:15.208813 19421 layer_factory.hpp:77] Creating layer fc2
I0715 12:52:15.208820 19421 net.cpp:91] Creating Layer fc2
I0715 12:52:15.208835 19421 net.cpp:425] fc2 <- fc1
I0715 12:52:15.208840 19421 net.cpp:399] fc2 -> fc2
I0715 12:52:15.208940 19421 net.cpp:141] Setting up fc2
I0715 12:52:15.208969 19421 net.cpp:148] Top shape: 100 50 (5000)
I0715 12:52:15.208972 19421 net.cpp:156] Memory required for data: 16886800
I0715 12:52:15.208981 19421 layer_factory.hpp:77] Creating layer relu2_fc2
I0715 12:52:15.208987 19421 net.cpp:91] Creating Layer relu2_fc2
I0715 12:52:15.208991 19421 net.cpp:425] relu2_fc2 <- fc2
I0715 12:52:15.208995 19421 net.cpp:386] relu2_fc2 -> fc2 (in-place)
I0715 12:52:15.209002 19421 net.cpp:141] Setting up relu2_fc2
I0715 12:52:15.209005 19421 net.cpp:148] Top shape: 100 50 (5000)
I0715 12:52:15.209007 19421 net.cpp:156] Memory required for data: 16906800
I0715 12:52:15.209010 19421 layer_factory.hpp:77] Creating layer fc3
I0715 12:52:15.209017 19421 net.cpp:91] Creating Layer fc3
I0715 12:52:15.209019 19421 net.cpp:425] fc3 <- fc2
I0715 12:52:15.209041 19421 net.cpp:399] fc3 -> fc3
I0715 12:52:15.209055 19421 net.cpp:141] Setting up fc3
I0715 12:52:15.209059 19421 net.cpp:148] Top shape: 100 2 (200)
I0715 12:52:15.209062 19421 net.cpp:156] Memory required for data: 16907600
I0715 12:52:15.209066 19421 layer_factory.hpp:77] Creating layer fc3_fc3_0_split
I0715 12:52:15.209071 19421 net.cpp:91] Creating Layer fc3_fc3_0_split
I0715 12:52:15.209074 19421 net.cpp:425] fc3_fc3_0_split <- fc3
I0715 12:52:15.209079 19421 net.cpp:399] fc3_fc3_0_split -> fc3_fc3_0_split_0
I0715 12:52:15.209084 19421 net.cpp:399] fc3_fc3_0_split -> fc3_fc3_0_split_1
I0715 12:52:15.209091 19421 net.cpp:141] Setting up fc3_fc3_0_split
I0715 12:52:15.209095 19421 net.cpp:148] Top shape: 100 2 (200)
I0715 12:52:15.209100 19421 net.cpp:148] Top shape: 100 2 (200)
I0715 12:52:15.209115 19421 net.cpp:156] Memory required for data: 16909200
I0715 12:52:15.209118 19421 layer_factory.hpp:77] Creating layer loss
I0715 12:52:15.209125 19421 net.cpp:91] Creating Layer loss
I0715 12:52:15.209127 19421 net.cpp:425] loss <- fc3_fc3_0_split_0
I0715 12:52:15.209131 19421 net.cpp:425] loss <- label_pair_data_1_split_0
I0715 12:52:15.209137 19421 net.cpp:399] loss -> loss
…
