…
I0713 22:30:26.073156 31570 net.cpp:313] The NetState phase (0) differed from the phase (1) specified by a rule in layer pair_data
I0713 22:30:26.073192 31570 net.cpp:313] The NetState phase (0) differed from the phase (1) specified by a rule in layer accuracy
I0713 22:30:26.073364 31570 net.cpp:49] Initializing net from parameters: 
name: "mnist_siamese_train_test_sim"
state {
  phase: TRAIN
}
layer {
  name: "pair_data"
  type: "Data"
  top: "pair_data"
  top: "sim"
  include {
    phase: TRAIN
  }
  transform_param {
    scale: 0.00390625
  }
  data_param {
    source: "examples/siamese/mnist_siamese_train_leveldb_0to1"
    batch_size: 64
  }
}
layer {
  name: "slice_pair"
  type: "Slice"
  bottom: "pair_data"
  top: "data"
  top: "data_p"
  slice_param {
    slice_dim: 1
    slice_point: 1
  }
}
layer {
  name: "conv1"
  type: "Convolution"
  bottom: "data"
  top: "conv1"
  param {
    name: "conv1_w"
    lr_mult: 1
  }
  param {
    name: "conv1_b"
    lr_mult: 2
  }
  convolution_param {
    num_output: 20
    kernel_size: 5
    stride: 1
    weight_filler {
      type: "xavier"
    }
    bias_filler {
      type: "constant"
    }
  }
}
layer {
  name: "pool1"
  type: "Pooling"
  bottom: "conv1"
  top: "pool1"
  pooling_param {
    pool: MAX
    kernel_size: 2
    stride: 2
  }
}
layer {
  name: "conv2"
  type: "Convolution"
  bottom: "pool1"
  top: "conv2"
  param {
    name: "conv2_w"
    lr_mult: 1
  }
  param {
    name: "conv2_b"
    lr_mult: 2
  }
  convolution_param {
    num_output: 50
    kernel_size: 5
    stride: 1
    weight_filler {
      type: "xavier"
    }
    bias_filler {
      type: "constant"
    }
  }
}
layer {
  name: "pool2"
  type: "Pooling"
  bottom: "conv2"
  top: "pool2"
  pooling_param {
    pool: MAX
    kernel_size: 2
    stride: 2
  }
}
layer {
  name: "ip1"
  type: "InnerProduct"
  bottom: "pool2"
  top: "ip1"
  param {
    name: "ip1_w"
    lr_mult: 1
  }
  param {
    name: "ip1_b"
    lr_mult: 2
  }
  inner_product_param {
    num_output: 500
    weight_filler {
      type: "xavier"
    }
    bias_filler {
      type: "constant"
    }
  }
}
layer {
  name: "relu1"
  type: "ReLU"
  bottom: "ip1"
  top: "ip1"
}
layer {
  name: "ip2"
  type: "InnerProduct"
  bottom: "ip1"
  top: "ip2"
  param {
    name: "ip2_w"
    lr_mult: 1
  }
  param {
    name: "ip2_b"
    lr_mult: 2
  }
  inner_product_param {
    num_output: 10
    weight_filler {
      type: "xavier"
    }
    bias_filler {
      type: "constant"
    }
  }
}
layer {
  name: "feat"
  type: "InnerProduct"
  bottom: "ip2"
  top: "feat"
  param {
    name: "feat_w"
    lr_mult: 1
  }
  param {
    name: "feat_b"
    lr_mult: 2
  }
  inner_product_param {
    num_output: 2
    weight_filler {
      type: "xavier"
    }
    bias_filler {
      type: "constant"
    }
  }
}
layer {
  name: "conv1_p"
  type: "Convolution"
  bottom: "data_p"
  top: "conv1_p"
  param {
    name: "conv1_w"
    lr_mult: 1
  }
  param {
    name: "conv1_b"
    lr_mult: 2
  }
  convolution_param {
    num_output: 20
    kernel_size: 5
    stride: 1
    weight_filler {
      type: "xavier"
    }
    bias_filler {
      type: "constant"
    }
  }
}
layer {
  name: "pool1_p"
  type: "Pooling"
  bottom: "conv1_p"
  top: "pool1_p"
  pooling_param {
    pool: MAX
    kernel_size: 2
    stride: 2
  }
}
layer {
  name: "conv2_p"
  type: "Convolution"
  bottom: "pool1_p"
  top: "conv2_p"
  param {
    name: "conv2_w"
    lr_mult: 1
  }
  param {
    name: "conv2_b"
    lr_mult: 2
  }
  convolution_param {
    num_output: 50
    kernel_size: 5
    stride: 1
    weight_filler {
      type: "xavier"
    }
    bias_filler {
      type: "constant"
    }
  }
}
layer {
  name: "pool2_p"
  type: "Pooling"
  bottom: "conv2_p"
  top: "pool2_p"
  pooling_param {
    pool: MAX
    kernel_size: 2
    stride: 2
  }
}
layer {
  name: "ip1_p"
  type: "InnerProduct"
  bottom: "pool2_p"
  top: "ip1_p"
  param {
    name: "ip1_w"
    lr_mult: 1
  }
  param {
    name: "ip1_b"
    lr_mult: 2
  }
  inner_product_param {
    num_output: 500
    weight_filler {
      type: "xavier"
    }
    bias_filler {
      type: "constant"
    }
  }
}
layer {
  name: "relu1_p"
  type: "ReLU"
  bottom: "ip1_p"
  top: "ip1_p"
}
layer {
  name: "ip2_p"
  type: "InnerProduct"
  bottom: "ip1_p"
  top: "ip2_p"
  param {
    name: "ip2_w"
    lr_mult: 1
  }
  param {
    name: "ip2_b"
    lr_mult: 2
  }
  inner_product_param {
    num_output: 10
    weight_filler {
      type: "xavier"
    }
    bias_filler {
      type: "constant"
    }
  }
}
layer {
  name: "feat_p"
  type: "InnerProduct"
  bottom: "ip2_p"
  top: "feat_p"
  param {
    name: "feat_w"
    lr_mult: 1
  }
  param {
    name: "feat_b"
    lr_mult: 2
  }
  inner_product_param {
    num_output: 2
    weight_filler {
      type: "xavier"
    }
    bias_filler {
      type: "constant"
    }
  }
}
layer {
  name: "concat"
  type: "Concat"
  bottom: "feat"
  bottom: "feat_p"
  top: "comb"
  concat_param {
    axis: 1
  }
}
layer {
  name: "fc1"
  type: "InnerProduct"
  bottom: "comb"
  top: "fc1"
  param {
    name: "fc1_w"
    lr_mult: 1
  }
  param {
    name: "fc1_b"
    lr_mult: 2
  }
  inner_product_param {
    num_output: 100
    weight_filler {
      type: "xavier"
    }
    bias_filler {
      type: "constant"
    }
  }
}
layer {
  name: "relu1_fc1"
  type: "ReLU"
  bottom: "fc1"
  top: "fc1"
}
layer {
  name: "fc2"
  type: "InnerProduct"
  bottom: "fc1"
  top: "fc2"
  param {
    name: "fc2_w"
    lr_mult: 1
  }
  param {
    name: "fc2_b"
    lr_mult: 2
  }
  inner_product_param {
    num_output: 50
    weight_filler {
      type: "xavier"
    }
    bias_filler {
      type: "constant"
    }
  }
}
layer {
  name: "relu2_fc2"
  type: "ReLU"
  bottom: "fc2"
  top: "fc2"
}
layer {
  name: "fc3"
  type: "InnerProduct"
  bottom: "fc2"
  top: "fc3"
  param {
    name: "fc3_w"
    lr_mult: 1
  }
  param {
    name: "fc3_b"
    lr_mult: 2
  }
  inner_product_param {
    num_output: 1
    weight_filler {
      type: "xavier"
    }
    bias_filler {
      type: "constant"
    }
  }
}
layer {
  type: "Sigmoid"
  bottom: "fc3"
  top: "prob"
}
layer {
  name: "loss"
  type: "HingeLoss"
  bottom: "fc3"
  bottom: "sim"
  top: "loss"
}
I0713 22:30:26.073518 31570 layer_factory.hpp:77] Creating layer pair_data
I0713 22:30:26.074095 31570 net.cpp:91] Creating Layer pair_data
I0713 22:30:26.074120 31570 net.cpp:399] pair_data -> pair_data
I0713 22:30:26.074146 31570 net.cpp:399] pair_data -> sim
I0713 22:30:26.089539 31574 db_leveldb.cpp:18] Opened leveldb examples/siamese/mnist_siamese_train_leveldb_0to1
I0713 22:30:26.089917 31570 data_layer.cpp:41] output data size: 64,2,28,28
I0713 22:30:26.093570 31570 net.cpp:141] Setting up pair_data
I0713 22:30:26.093601 31570 net.cpp:148] Top shape: 64 2 28 28 (100352)
I0713 22:30:26.093606 31570 net.cpp:148] Top shape: 64 (64)
I0713 22:30:26.093610 31570 net.cpp:156] Memory required for data: 401664
I0713 22:30:26.093619 31570 layer_factory.hpp:77] Creating layer slice_pair
I0713 22:30:26.093637 31570 net.cpp:91] Creating Layer slice_pair
I0713 22:30:26.093642 31570 net.cpp:425] slice_pair <- pair_data
I0713 22:30:26.093653 31570 net.cpp:399] slice_pair -> data
I0713 22:30:26.093664 31570 net.cpp:399] slice_pair -> data_p
I0713 22:30:26.093678 31570 net.cpp:141] Setting up slice_pair
I0713 22:30:26.093683 31570 net.cpp:148] Top shape: 64 1 28 28 (50176)
I0713 22:30:26.093685 31570 net.cpp:148] Top shape: 64 1 28 28 (50176)
I0713 22:30:26.093688 31570 net.cpp:156] Memory required for data: 803072
I0713 22:30:26.093690 31570 layer_factory.hpp:77] Creating layer conv1
I0713 22:30:26.093708 31570 net.cpp:91] Creating Layer conv1
I0713 22:30:26.093736 31570 net.cpp:425] conv1 <- data
I0713 22:30:26.093749 31570 net.cpp:399] conv1 -> conv1
I0713 22:30:26.093811 31570 net.cpp:141] Setting up conv1
I0713 22:30:26.093817 31570 net.cpp:148] Top shape: 64 20 24 24 (737280)
I0713 22:30:26.093819 31570 net.cpp:156] Memory required for data: 3752192
I0713 22:30:26.093829 31570 layer_factory.hpp:77] Creating layer pool1
I0713 22:30:26.093837 31570 net.cpp:91] Creating Layer pool1
I0713 22:30:26.093838 31570 net.cpp:425] pool1 <- conv1
I0713 22:30:26.093842 31570 net.cpp:399] pool1 -> pool1
I0713 22:30:26.093859 31570 net.cpp:141] Setting up pool1
I0713 22:30:26.093863 31570 net.cpp:148] Top shape: 64 20 12 12 (184320)
I0713 22:30:26.093865 31570 net.cpp:156] Memory required for data: 4489472
I0713 22:30:26.093868 31570 layer_factory.hpp:77] Creating layer conv2
I0713 22:30:26.093875 31570 net.cpp:91] Creating Layer conv2
I0713 22:30:26.093878 31570 net.cpp:425] conv2 <- pool1
I0713 22:30:26.093883 31570 net.cpp:399] conv2 -> conv2
I0713 22:30:26.094070 31570 net.cpp:141] Setting up conv2
I0713 22:30:26.094079 31570 net.cpp:148] Top shape: 64 50 8 8 (204800)
I0713 22:30:26.094080 31570 net.cpp:156] Memory required for data: 5308672
I0713 22:30:26.094086 31570 layer_factory.hpp:77] Creating layer pool2
I0713 22:30:26.094090 31570 net.cpp:91] Creating Layer pool2
I0713 22:30:26.094092 31570 net.cpp:425] pool2 <- conv2
I0713 22:30:26.094099 31570 net.cpp:399] pool2 -> pool2
I0713 22:30:26.094105 31570 net.cpp:141] Setting up pool2
I0713 22:30:26.094107 31570 net.cpp:148] Top shape: 64 50 4 4 (51200)
I0713 22:30:26.094110 31570 net.cpp:156] Memory required for data: 5513472
I0713 22:30:26.094112 31570 layer_factory.hpp:77] Creating layer ip1
I0713 22:30:26.094125 31570 net.cpp:91] Creating Layer ip1
I0713 22:30:26.094127 31570 net.cpp:425] ip1 <- pool2
I0713 22:30:26.094132 31570 net.cpp:399] ip1 -> ip1
I0713 22:30:26.096264 31575 blocking_queue.cpp:50] Waiting for data
I0713 22:30:26.097313 31570 net.cpp:141] Setting up ip1
I0713 22:30:26.097352 31570 net.cpp:148] Top shape: 64 500 (32000)
I0713 22:30:26.097365 31570 net.cpp:156] Memory required for data: 5641472
I0713 22:30:26.097388 31570 layer_factory.hpp:77] Creating layer relu1
I0713 22:30:26.097407 31570 net.cpp:91] Creating Layer relu1
I0713 22:30:26.097420 31570 net.cpp:425] relu1 <- ip1
I0713 22:30:26.097434 31570 net.cpp:386] relu1 -> ip1 (in-place)
I0713 22:30:26.097455 31570 net.cpp:141] Setting up relu1
I0713 22:30:26.097468 31570 net.cpp:148] Top shape: 64 500 (32000)
I0713 22:30:26.097481 31570 net.cpp:156] Memory required for data: 5769472
I0713 22:30:26.097492 31570 layer_factory.hpp:77] Creating layer ip2
I0713 22:30:26.097510 31570 net.cpp:91] Creating Layer ip2
I0713 22:30:26.097523 31570 net.cpp:425] ip2 <- ip1
I0713 22:30:26.097540 31570 net.cpp:399] ip2 -> ip2
I0713 22:30:26.097601 31570 net.cpp:141] Setting up ip2
I0713 22:30:26.097617 31570 net.cpp:148] Top shape: 64 10 (640)
I0713 22:30:26.097628 31570 net.cpp:156] Memory required for data: 5772032
I0713 22:30:26.097642 31570 layer_factory.hpp:77] Creating layer feat
I0713 22:30:26.097657 31570 net.cpp:91] Creating Layer feat
I0713 22:30:26.097671 31570 net.cpp:425] feat <- ip2
I0713 22:30:26.097687 31570 net.cpp:399] feat -> feat
I0713 22:30:26.097707 31570 net.cpp:141] Setting up feat
I0713 22:30:26.097723 31570 net.cpp:148] Top shape: 64 2 (128)
I0713 22:30:26.097733 31570 net.cpp:156] Memory required for data: 5772544
I0713 22:30:26.097749 31570 layer_factory.hpp:77] Creating layer conv1_p
I0713 22:30:26.097770 31570 net.cpp:91] Creating Layer conv1_p
I0713 22:30:26.097784 31570 net.cpp:425] conv1_p <- data_p
I0713 22:30:26.097798 31570 net.cpp:399] conv1_p -> conv1_p
I0713 22:30:26.097833 31570 net.cpp:141] Setting up conv1_p
I0713 22:30:26.097849 31570 net.cpp:148] Top shape: 64 20 24 24 (737280)
I0713 22:30:26.097862 31570 net.cpp:156] Memory required for data: 8721664
I0713 22:30:26.097874 31570 net.cpp:484] Sharing parameters 'conv1_w' owned by layer 'conv1', param index 0
I0713 22:30:26.097895 31570 net.cpp:484] Sharing parameters 'conv1_b' owned by layer 'conv1', param index 1
I0713 22:30:26.097916 31570 layer_factory.hpp:77] Creating layer pool1_p
I0713 22:30:26.097934 31570 net.cpp:91] Creating Layer pool1_p
I0713 22:30:26.097945 31570 net.cpp:425] pool1_p <- conv1_p
I0713 22:30:26.097960 31570 net.cpp:399] pool1_p -> pool1_p
I0713 22:30:26.097980 31570 net.cpp:141] Setting up pool1_p
I0713 22:30:26.097993 31570 net.cpp:148] Top shape: 64 20 12 12 (184320)
I0713 22:30:26.098004 31570 net.cpp:156] Memory required for data: 9458944
I0713 22:30:26.098016 31570 layer_factory.hpp:77] Creating layer conv2_p
I0713 22:30:26.098040 31570 net.cpp:91] Creating Layer conv2_p
I0713 22:30:26.098054 31570 net.cpp:425] conv2_p <- pool1_p
I0713 22:30:26.098070 31570 net.cpp:399] conv2_p -> conv2_p
I0713 22:30:26.099403 31570 net.cpp:141] Setting up conv2_p
I0713 22:30:26.099453 31570 net.cpp:148] Top shape: 64 50 8 8 (204800)
I0713 22:30:26.099470 31570 net.cpp:156] Memory required for data: 10278144
I0713 22:30:26.099486 31570 net.cpp:484] Sharing parameters 'conv2_w' owned by layer 'conv2', param index 0
I0713 22:30:26.099501 31570 net.cpp:484] Sharing parameters 'conv2_b' owned by layer 'conv2', param index 1
I0713 22:30:26.099515 31570 layer_factory.hpp:77] Creating layer pool2_p
I0713 22:30:26.099535 31570 net.cpp:91] Creating Layer pool2_p
I0713 22:30:26.099721 31570 net.cpp:425] pool2_p <- conv2_p
I0713 22:30:26.099763 31570 net.cpp:399] pool2_p -> pool2_p
I0713 22:30:26.099792 31570 net.cpp:141] Setting up pool2_p
I0713 22:30:26.099817 31570 net.cpp:148] Top shape: 64 50 4 4 (51200)
I0713 22:30:26.099828 31570 net.cpp:156] Memory required for data: 10482944
I0713 22:30:26.099841 31570 layer_factory.hpp:77] Creating layer ip1_p
I0713 22:30:26.099860 31570 net.cpp:91] Creating Layer ip1_p
I0713 22:30:26.099874 31570 net.cpp:425] ip1_p <- pool2_p
I0713 22:30:26.099898 31570 net.cpp:399] ip1_p -> ip1_p
I0713 22:30:26.103924 31570 net.cpp:141] Setting up ip1_p
I0713 22:30:26.104043 31570 net.cpp:148] Top shape: 64 500 (32000)
I0713 22:30:26.104066 31570 net.cpp:156] Memory required for data: 10610944
I0713 22:30:26.104092 31570 net.cpp:484] Sharing parameters 'ip1_w' owned by layer 'ip1', param index 0
I0713 22:30:26.104116 31570 net.cpp:484] Sharing parameters 'ip1_b' owned by layer 'ip1', param index 1
I0713 22:30:26.104137 31570 layer_factory.hpp:77] Creating layer relu1_p
I0713 22:30:26.104174 31570 net.cpp:91] Creating Layer relu1_p
I0713 22:30:26.104200 31570 net.cpp:425] relu1_p <- ip1_p
I0713 22:30:26.104226 31570 net.cpp:386] relu1_p -> ip1_p (in-place)
I0713 22:30:26.104259 31570 net.cpp:141] Setting up relu1_p
I0713 22:30:26.104285 31570 net.cpp:148] Top shape: 64 500 (32000)
I0713 22:30:26.104305 31570 net.cpp:156] Memory required for data: 10738944
I0713 22:30:26.104326 31570 layer_factory.hpp:77] Creating layer ip2_p
I0713 22:30:26.104367 31570 net.cpp:91] Creating Layer ip2_p
I0713 22:30:26.104394 31570 net.cpp:425] ip2_p <- ip1_p
I0713 22:30:26.104418 31570 net.cpp:399] ip2_p -> ip2_p
I0713 22:30:26.104518 31570 net.cpp:141] Setting up ip2_p
I0713 22:30:26.104552 31570 net.cpp:148] Top shape: 64 10 (640)
I0713 22:30:26.104571 31570 net.cpp:156] Memory required for data: 10741504
I0713 22:30:26.104598 31570 net.cpp:484] Sharing parameters 'ip2_w' owned by layer 'ip2', param index 0
I0713 22:30:26.104621 31570 net.cpp:484] Sharing parameters 'ip2_b' owned by layer 'ip2', param index 1
I0713 22:30:26.104640 31570 layer_factory.hpp:77] Creating layer feat_p
I0713 22:30:26.104660 31570 net.cpp:91] Creating Layer feat_p
I0713 22:30:26.104677 31570 net.cpp:425] feat_p <- ip2_p
I0713 22:30:26.104707 31570 net.cpp:399] feat_p -> feat_p
I0713 22:30:26.104746 31570 net.cpp:141] Setting up feat_p
I0713 22:30:26.104775 31570 net.cpp:148] Top shape: 64 2 (128)
I0713 22:30:26.104794 31570 net.cpp:156] Memory required for data: 10742016
I0713 22:30:26.104811 31570 net.cpp:484] Sharing parameters 'feat_w' owned by layer 'feat', param index 0
I0713 22:30:26.104828 31570 net.cpp:484] Sharing parameters 'feat_b' owned by layer 'feat', param index 1
I0713 22:30:26.104879 31570 layer_factory.hpp:77] Creating layer concat
I0713 22:30:26.104912 31570 net.cpp:91] Creating Layer concat
I0713 22:30:26.104934 31570 net.cpp:425] concat <- feat
I0713 22:30:26.104956 31570 net.cpp:425] concat <- feat_p
I0713 22:30:26.104982 31570 net.cpp:399] concat -> comb
I0713 22:30:26.105017 31570 net.cpp:141] Setting up concat
I0713 22:30:26.105043 31570 net.cpp:148] Top shape: 64 4 (256)
I0713 22:30:26.105065 31570 net.cpp:156] Memory required for data: 10743040
I0713 22:30:26.105085 31570 layer_factory.hpp:77] Creating layer fc1
I0713 22:30:26.105116 31570 net.cpp:91] Creating Layer fc1
I0713 22:30:26.105139 31570 net.cpp:425] fc1 <- comb
I0713 22:30:26.105166 31570 net.cpp:399] fc1 -> fc1
I0713 22:30:26.105212 31570 net.cpp:141] Setting up fc1
I0713 22:30:26.105240 31570 net.cpp:148] Top shape: 64 100 (6400)
I0713 22:30:26.105260 31570 net.cpp:156] Memory required for data: 10768640
I0713 22:30:26.105285 31570 layer_factory.hpp:77] Creating layer relu1_fc1
I0713 22:30:26.105314 31570 net.cpp:91] Creating Layer relu1_fc1
I0713 22:30:26.105337 31570 net.cpp:425] relu1_fc1 <- fc1
I0713 22:30:26.105362 31570 net.cpp:386] relu1_fc1 -> fc1 (in-place)
I0713 22:30:26.105386 31570 net.cpp:141] Setting up relu1_fc1
I0713 22:30:26.105406 31570 net.cpp:148] Top shape: 64 100 (6400)
I0713 22:30:26.105424 31570 net.cpp:156] Memory required for data: 10794240
I0713 22:30:26.105443 31570 layer_factory.hpp:77] Creating layer fc2
I0713 22:30:26.105466 31570 net.cpp:91] Creating Layer fc2
I0713 22:30:26.105485 31570 net.cpp:425] fc2 <- fc1
I0713 22:30:26.105515 31570 net.cpp:399] fc2 -> fc2
I0713 22:30:26.105597 31570 net.cpp:141] Setting up fc2
I0713 22:30:26.105629 31570 net.cpp:148] Top shape: 64 50 (3200)
I0713 22:30:26.105651 31570 net.cpp:156] Memory required for data: 10807040
I0713 22:30:26.105677 31570 layer_factory.hpp:77] Creating layer relu2_fc2
I0713 22:30:26.105706 31570 net.cpp:91] Creating Layer relu2_fc2
I0713 22:30:26.105728 31570 net.cpp:425] relu2_fc2 <- fc2
I0713 22:30:26.105751 31570 net.cpp:386] relu2_fc2 -> fc2 (in-place)
I0713 22:30:26.105777 31570 net.cpp:141] Setting up relu2_fc2
I0713 22:30:26.105800 31570 net.cpp:148] Top shape: 64 50 (3200)
I0713 22:30:26.105818 31570 net.cpp:156] Memory required for data: 10819840
I0713 22:30:26.105836 31570 layer_factory.hpp:77] Creating layer fc3
I0713 22:30:26.105868 31570 net.cpp:91] Creating Layer fc3
I0713 22:30:26.105890 31570 net.cpp:425] fc3 <- fc2
I0713 22:30:26.105914 31570 net.cpp:399] fc3 -> fc3
I0713 22:30:26.105973 31570 net.cpp:141] Setting up fc3
I0713 22:30:26.106029 31570 net.cpp:148] Top shape: 64 1 (64)
I0713 22:30:26.106076 31570 net.cpp:156] Memory required for data: 10820096
I0713 22:30:26.106133 31570 layer_factory.hpp:77] Creating layer fc3_fc3_0_split
I0713 22:30:26.106194 31570 net.cpp:91] Creating Layer fc3_fc3_0_split
I0713 22:30:26.106237 31570 net.cpp:425] fc3_fc3_0_split <- fc3
I0713 22:30:26.106284 31570 net.cpp:399] fc3_fc3_0_split -> fc3_fc3_0_split_0
I0713 22:30:26.106335 31570 net.cpp:399] fc3_fc3_0_split -> fc3_fc3_0_split_1
I0713 22:30:26.106387 31570 net.cpp:141] Setting up fc3_fc3_0_split
I0713 22:30:26.106431 31570 net.cpp:148] Top shape: 64 1 (64)
I0713 22:30:26.106462 31570 net.cpp:148] Top shape: 64 1 (64)
I0713 22:30:26.106482 31570 net.cpp:156] Memory required for data: 10820608
I0713 22:30:26.106513 31570 layer_factory.hpp:77] Creating layer 
I0713 22:30:26.106537 31570 net.cpp:91] Creating Layer 
I0713 22:30:26.106556 31570 net.cpp:425]  <- fc3_fc3_0_split_0
I0713 22:30:26.106580 31570 net.cpp:399]  -> prob
I0713 22:30:26.106607 31570 net.cpp:141] Setting up 
I0713 22:30:26.106638 31570 net.cpp:148] Top shape: 64 1 (64)
I0713 22:30:26.106655 31570 net.cpp:156] Memory required for data: 10820864
I0713 22:30:26.106674 31570 layer_factory.hpp:77] Creating layer loss
I0713 22:30:26.106715 31570 net.cpp:91] Creating Layer loss
I0713 22:30:26.106739 31570 net.cpp:425] loss <- fc3_fc3_0_split_1
I0713 22:30:26.106760 31570 net.cpp:425] loss <- sim
I0713 22:30:26.106804 31570 net.cpp:399] loss -> loss
I0713 22:30:26.106855 31570 net.cpp:141] Setting up loss
…
I0713 22:30:26.109011 31570 solver.cpp:181] Creating test net (#0) specified by net file: examples/siamese/mnist_siamese_train_test_sim.prototxt
I0713 22:30:26.109201 31570 net.cpp:313] The NetState phase (1) differed from the phase (0) specified by a rule in layer pair_data
I0713 22:30:26.109527 31570 net.cpp:49] Initializing net from parameters: 
name: "mnist_siamese_train_test_sim"
state {
  phase: TEST
}
layer {
  name: "pair_data"
  type: "Data"
  top: "pair_data"
  top: "sim"
  include {
    phase: TEST
  }
  transform_param {
    scale: 0.00390625
  }
  data_param {
    source: "examples/siamese/mnist_siamese_test_leveldb_0to1"
    batch_size: 100
  }
}
layer {
  name: "slice_pair"
  type: "Slice"
  bottom: "pair_data"
  top: "data"
  top: "data_p"
  slice_param {
    slice_dim: 1
    slice_point: 1
  }
}
layer {
  name: "conv1"
  type: "Convolution"
  bottom: "data"
  top: "conv1"
  param {
    name: "conv1_w"
    lr_mult: 1
  }
  param {
    name: "conv1_b"
    lr_mult: 2
  }
  convolution_param {
    num_output: 20
    kernel_size: 5
    stride: 1
    weight_filler {
      type: "xavier"
    }
    bias_filler {
      type: "constant"
    }
  }
}
layer {
  name: "pool1"
  type: "Pooling"
  bottom: "conv1"
  top: "pool1"
  pooling_param {
    pool: MAX
    kernel_size: 2
    stride: 2
  }
}
layer {
  name: "conv2"
  type: "Convolution"
  bottom: "pool1"
  top: "conv2"
  param {
    name: "conv2_w"
    lr_mult: 1
  }
  param {
    name: "conv2_b"
    lr_mult: 2
  }
  convolution_param {
    num_output: 50
    kernel_size: 5
    stride: 1
    weight_filler {
      type: "xavier"
    }
    bias_filler {
      type: "constant"
    }
  }
}
layer {
  name: "pool2"
  type: "Pooling"
  bottom: "conv2"
  top: "pool2"
  pooling_param {
    pool: MAX
    kernel_size: 2
    stride: 2
  }
}
layer {
  name: "ip1"
  type: "InnerProduct"
  bottom: "pool2"
  top: "ip1"
  param {
    name: "ip1_w"
    lr_mult: 1
  }
  param {
    name: "ip1_b"
    lr_mult: 2
  }
  inner_product_param {
    num_output: 500
    weight_filler {
      type: "xavier"
    }
    bias_filler {
      type: "constant"
    }
  }
}
layer {
  name: "relu1"
  type: "ReLU"
  bottom: "ip1"
  top: "ip1"
}
layer {
  name: "ip2"
  type: "InnerProduct"
  bottom: "ip1"
  top: "ip2"
  param {
    name: "ip2_w"
    lr_mult: 1
  }
  param {
    name: "ip2_b"
    lr_mult: 2
  }
  inner_product_param {
    num_output: 10
    weight_filler {
      type: "xavier"
    }
    bias_filler {
      type: "constant"
    }
  }
}
layer {
  name: "feat"
  type: "InnerProduct"
  bottom: "ip2"
  top: "feat"
  param {
    name: "feat_w"
    lr_mult: 1
  }
  param {
    name: "feat_b"
    lr_mult: 2
  }
  inner_product_param {
    num_output: 2
    weight_filler {
      type: "xavier"
    }
    bias_filler {
      type: "constant"
    }
  }
}
layer {
  name: "conv1_p"
  type: "Convolution"
  bottom: "data_p"
  top: "conv1_p"
  param {
    name: "conv1_w"
    lr_mult: 1
  }
  param {
    name: "conv1_b"
    lr_mult: 2
  }
  convolution_param {
    num_output: 20
    kernel_size: 5
    stride: 1
    weight_filler {
      type: "xavier"
    }
    bias_filler {
      type: "constant"
    }
  }
}
layer {
  name: "pool1_p"
  type: "Pooling"
  bottom: "conv1_p"
  top: "pool1_p"
  pooling_param {
    pool: MAX
    kernel_size: 2
    stride: 2
  }
}
layer {
  name: "conv2_p"
  type: "Convolution"
  bottom: "pool1_p"
  top: "conv2_p"
  param {
    name: "conv2_w"
    lr_mult: 1
  }
  param {
    name: "conv2_b"
    lr_mult: 2
  }
  convolution_param {
    num_output: 50
    kernel_size: 5
    stride: 1
    weight_filler {
      type: "xavier"
    }
    bias_filler {
      type: "constant"
    }
  }
}
layer {
  name: "pool2_p"
  type: "Pooling"
  bottom: "conv2_p"
  top: "pool2_p"
  pooling_param {
    pool: MAX
    kernel_size: 2
    stride: 2
  }
}
layer {
  name: "ip1_p"
  type: "InnerProduct"
  bottom: "pool2_p"
  top: "ip1_p"
  param {
    name: "ip1_w"
    lr_mult: 1
  }
  param {
    name: "ip1_b"
    lr_mult: 2
  }
  inner_product_param {
    num_output: 500
    weight_filler {
      type: "xavier"
    }
    bias_filler {
      type: "constant"
    }
  }
}
layer {
  name: "relu1_p"
  type: "ReLU"
  bottom: "ip1_p"
  top: "ip1_p"
}
layer {
  name: "ip2_p"
  type: "InnerProduct"
  bottom: "ip1_p"
  top: "ip2_p"
  param {
    name: "ip2_w"
    lr_mult: 1
  }
  param {
    name: "ip2_b"
    lr_mult: 2
  }
  inner_product_param {
    num_output: 10
    weight_filler {
      type: "xavier"
    }
    bias_filler {
      type: "constant"
    }
  }
}
layer {
  name: "feat_p"
  type: "InnerProduct"
  bottom: "ip2_p"
  top: "feat_p"
  param {
    name: "feat_w"
    lr_mult: 1
  }
  param {
    name: "feat_b"
    lr_mult: 2
  }
  inner_product_param {
    num_output: 2
    weight_filler {
      type: "xavier"
    }
    bias_filler {
      type: "constant"
    }
  }
}
layer {
  name: "concat"
  type: "Concat"
  bottom: "feat"
  bottom: "feat_p"
  top: "comb"
  concat_param {
    axis: 1
  }
}
layer {
  name: "fc1"
  type: "InnerProduct"
  bottom: "comb"
  top: "fc1"
  param {
    name: "fc1_w"
    lr_mult: 1
  }
  param {
    name: "fc1_b"
    lr_mult: 2
  }
  inner_product_param {
    num_output: 100
    weight_filler {
      type: "xavier"
    }
    bias_filler {
      type: "constant"
    }
  }
}
layer {
  name: "relu1_fc1"
  type: "ReLU"
  bottom: "fc1"
  top: "fc1"
}
layer {
  name: "fc2"
  type: "InnerProduct"
  bottom: "fc1"
  top: "fc2"
  param {
    name: "fc2_w"
    lr_mult: 1
  }
  param {
    name: "fc2_b"
    lr_mult: 2
  }
  inner_product_param {
    num_output: 50
    weight_filler {
      type: "xavier"
    }
    bias_filler {
      type: "constant"
    }
  }
}
layer {
  name: "relu2_fc2"
  type: "ReLU"
  bottom: "fc2"
  top: "fc2"
}
layer {
  name: "fc3"
  type: "InnerProduct"
  bottom: "fc2"
  top: "fc3"
  param {
    name: "fc3_w"
    lr_mult: 1
  }
  param {
    name: "fc3_b"
    lr_mult: 2
  }
  inner_product_param {
    num_output: 1
    weight_filler {
      type: "xavier"
    }
    bias_filler {
      type: "constant"
    }
  }
}
layer {
  type: "Sigmoid"
  bottom: "fc3"
  top: "prob"
}
layer {
  name: "loss"
  type: "HingeLoss"
  bottom: "fc3"
  bottom: "sim"
  top: "loss"
}
layer {
  name: "accuracy"
  type: "Accuracy"
  bottom: "prob"
  bottom: "sim"
  top: "accuracy"
  include {
    phase: TEST
  }
}
I0713 22:30:26.119755 31570 layer_factory.hpp:77] Creating layer pair_data
I0713 22:30:26.120041 31570 net.cpp:91] Creating Layer pair_data
I0713 22:30:26.120087 31570 net.cpp:399] pair_data -> pair_data
I0713 22:30:26.120129 31570 net.cpp:399] pair_data -> sim
I0713 22:30:26.131515 31576 db_leveldb.cpp:18] Opened leveldb examples/siamese/mnist_siamese_test_leveldb_0to1
I0713 22:30:26.133330 31570 data_layer.cpp:41] output data size: 100,2,28,28
I0713 22:30:26.134222 31570 net.cpp:141] Setting up pair_data
I0713 22:30:26.134322 31570 net.cpp:148] Top shape: 100 2 28 28 (156800)
I0713 22:30:26.134354 31570 net.cpp:148] Top shape: 100 (100)
I0713 22:30:26.134374 31570 net.cpp:156] Memory required for data: 627600
I0713 22:30:26.134395 31570 layer_factory.hpp:77] Creating layer sim_pair_data_1_split
I0713 22:30:26.134425 31570 net.cpp:91] Creating Layer sim_pair_data_1_split
I0713 22:30:26.134443 31570 net.cpp:425] sim_pair_data_1_split <- sim
I0713 22:30:26.134464 31570 net.cpp:399] sim_pair_data_1_split -> sim_pair_data_1_split_0
I0713 22:30:26.134488 31570 net.cpp:399] sim_pair_data_1_split -> sim_pair_data_1_split_1
I0713 22:30:26.134511 31570 net.cpp:141] Setting up sim_pair_data_1_split
I0713 22:30:26.134528 31570 net.cpp:148] Top shape: 100 (100)
I0713 22:30:26.134542 31570 net.cpp:148] Top shape: 100 (100)
I0713 22:30:26.134554 31570 net.cpp:156] Memory required for data: 628400
I0713 22:30:26.134567 31570 layer_factory.hpp:77] Creating layer slice_pair
I0713 22:30:26.134585 31570 net.cpp:91] Creating Layer slice_pair
I0713 22:30:26.134599 31570 net.cpp:425] slice_pair <- pair_data
I0713 22:30:26.134614 31570 net.cpp:399] slice_pair -> data
I0713 22:30:26.134632 31570 net.cpp:399] slice_pair -> data_p
I0713 22:30:26.134652 31570 net.cpp:141] Setting up slice_pair
I0713 22:30:26.134667 31570 net.cpp:148] Top shape: 100 1 28 28 (78400)
I0713 22:30:26.134681 31570 net.cpp:148] Top shape: 100 1 28 28 (78400)
I0713 22:30:26.134692 31570 net.cpp:156] Memory required for data: 1255600
I0713 22:30:26.134706 31570 layer_factory.hpp:77] Creating layer conv1
I0713 22:30:26.134726 31570 net.cpp:91] Creating Layer conv1
I0713 22:30:26.134739 31570 net.cpp:425] conv1 <- data
I0713 22:30:26.134758 31570 net.cpp:399] conv1 -> conv1
I0713 22:30:26.134855 31570 net.cpp:141] Setting up conv1
I0713 22:30:26.134892 31570 net.cpp:148] Top shape: 100 20 24 24 (1152000)
I0713 22:30:26.134923 31570 net.cpp:156] Memory required for data: 5863600
I0713 22:30:26.134969 31570 layer_factory.hpp:77] Creating layer pool1
I0713 22:30:26.135001 31570 net.cpp:91] Creating Layer pool1
I0713 22:30:26.135020 31570 net.cpp:425] pool1 <- conv1
I0713 22:30:26.135035 31570 net.cpp:399] pool1 -> pool1
I0713 22:30:26.135057 31570 net.cpp:141] Setting up pool1
I0713 22:30:26.135074 31570 net.cpp:148] Top shape: 100 20 12 12 (288000)
I0713 22:30:26.135087 31570 net.cpp:156] Memory required for data: 7015600
I0713 22:30:26.135100 31570 layer_factory.hpp:77] Creating layer conv2
I0713 22:30:26.135119 31570 net.cpp:91] Creating Layer conv2
I0713 22:30:26.135134 31570 net.cpp:425] conv2 <- pool1
I0713 22:30:26.135151 31570 net.cpp:399] conv2 -> conv2
I0713 22:30:26.135421 31570 net.cpp:141] Setting up conv2
I0713 22:30:26.135628 31570 net.cpp:148] Top shape: 100 50 8 8 (320000)
I0713 22:30:26.135664 31570 net.cpp:156] Memory required for data: 8295600
I0713 22:30:26.135707 31570 layer_factory.hpp:77] Creating layer pool2
I0713 22:30:26.135802 31570 net.cpp:91] Creating Layer pool2
I0713 22:30:26.135830 31570 net.cpp:425] pool2 <- conv2
I0713 22:30:26.135854 31570 net.cpp:399] pool2 -> pool2
I0713 22:30:26.135895 31570 net.cpp:141] Setting up pool2
I0713 22:30:26.135927 31570 net.cpp:148] Top shape: 100 50 4 4 (80000)
I0713 22:30:26.135948 31570 net.cpp:156] Memory required for data: 8615600
I0713 22:30:26.135972 31570 layer_factory.hpp:77] Creating layer ip1
I0713 22:30:26.136008 31570 net.cpp:91] Creating Layer ip1
I0713 22:30:26.136036 31570 net.cpp:425] ip1 <- pool2
I0713 22:30:26.136067 31570 net.cpp:399] ip1 -> ip1
I0713 22:30:26.145825 31570 net.cpp:141] Setting up ip1
I0713 22:30:26.146152 31570 net.cpp:148] Top shape: 100 500 (50000)
I0713 22:30:26.146194 31570 net.cpp:156] Memory required for data: 8815600
I0713 22:30:26.146230 31570 layer_factory.hpp:77] Creating layer relu1
I0713 22:30:26.146258 31570 net.cpp:91] Creating Layer relu1
I0713 22:30:26.146311 31570 net.cpp:425] relu1 <- ip1
I0713 22:30:26.146333 31570 net.cpp:386] relu1 -> ip1 (in-place)
I0713 22:30:26.146400 31570 net.cpp:141] Setting up relu1
I0713 22:30:26.146461 31570 net.cpp:148] Top shape: 100 500 (50000)
I0713 22:30:26.146512 31570 net.cpp:156] Memory required for data: 9015600
I0713 22:30:26.146546 31570 layer_factory.hpp:77] Creating layer ip2
I0713 22:30:26.146585 31570 net.cpp:91] Creating Layer ip2
I0713 22:30:26.146631 31570 net.cpp:425] ip2 <- ip1
I0713 22:30:26.146670 31570 net.cpp:399] ip2 -> ip2
I0713 22:30:26.146766 31570 net.cpp:141] Setting up ip2
I0713 22:30:26.146934 31570 net.cpp:148] Top shape: 100 10 (1000)
I0713 22:30:26.147598 31570 net.cpp:156] Memory required for data: 9019600
I0713 22:30:26.147655 31570 layer_factory.hpp:77] Creating layer feat
I0713 22:30:26.147701 31570 net.cpp:91] Creating Layer feat
I0713 22:30:26.147800 31570 net.cpp:425] feat <- ip2
I0713 22:30:26.147831 31570 net.cpp:399] feat -> feat
I0713 22:30:26.147863 31570 net.cpp:141] Setting up feat
I0713 22:30:26.147892 31570 net.cpp:148] Top shape: 100 2 (200)
I0713 22:30:26.147927 31570 net.cpp:156] Memory required for data: 9020400
I0713 22:30:26.147965 31570 layer_factory.hpp:77] Creating layer conv1_p
I0713 22:30:26.148025 31570 net.cpp:91] Creating Layer conv1_p
I0713 22:30:26.148073 31570 net.cpp:425] conv1_p <- data_p
I0713 22:30:26.148180 31570 net.cpp:399] conv1_p -> conv1_p
I0713 22:30:26.148257 31570 net.cpp:141] Setting up conv1_p
I0713 22:30:26.148367 31570 net.cpp:148] Top shape: 100 20 24 24 (1152000)
I0713 22:30:26.148403 31570 net.cpp:156] Memory required for data: 13628400
I0713 22:30:26.148435 31570 net.cpp:484] Sharing parameters 'conv1_w' owned by layer 'conv1', param index 0
I0713 22:30:26.148476 31570 net.cpp:484] Sharing parameters 'conv1_b' owned by layer 'conv1', param index 1
I0713 22:30:26.148510 31570 layer_factory.hpp:77] Creating layer pool1_p
I0713 22:30:26.148558 31570 net.cpp:91] Creating Layer pool1_p
I0713 22:30:26.148608 31570 net.cpp:425] pool1_p <- conv1_p
I0713 22:30:26.148644 31570 net.cpp:399] pool1_p -> pool1_p
I0713 22:30:26.148682 31570 net.cpp:141] Setting up pool1_p
I0713 22:30:26.148736 31570 net.cpp:148] Top shape: 100 20 12 12 (288000)
I0713 22:30:26.148764 31570 net.cpp:156] Memory required for data: 14780400
I0713 22:30:26.148802 31570 layer_factory.hpp:77] Creating layer conv2_p
I0713 22:30:26.148826 31570 net.cpp:91] Creating Layer conv2_p
I0713 22:30:26.148994 31570 net.cpp:425] conv2_p <- pool1_p
I0713 22:30:26.149032 31570 net.cpp:399] conv2_p -> conv2_p
I0713 22:30:26.149333 31570 net.cpp:141] Setting up conv2_p
I0713 22:30:26.149821 31570 net.cpp:148] Top shape: 100 50 8 8 (320000)
I0713 22:30:26.149924 31570 net.cpp:156] Memory required for data: 16060400
I0713 22:30:26.149962 31570 net.cpp:484] Sharing parameters 'conv2_w' owned by layer 'conv2', param index 0
I0713 22:30:26.150018 31570 net.cpp:484] Sharing parameters 'conv2_b' owned by layer 'conv2', param index 1
I0713 22:30:26.150053 31570 layer_factory.hpp:77] Creating layer pool2_p
I0713 22:30:26.150099 31570 net.cpp:91] Creating Layer pool2_p
I0713 22:30:26.150179 31570 net.cpp:425] pool2_p <- conv2_p
I0713 22:30:26.150202 31570 net.cpp:399] pool2_p -> pool2_p
I0713 22:30:26.150275 31570 net.cpp:141] Setting up pool2_p
I0713 22:30:26.150346 31570 net.cpp:148] Top shape: 100 50 4 4 (80000)
I0713 22:30:26.150377 31570 net.cpp:156] Memory required for data: 16380400
I0713 22:30:26.150415 31570 layer_factory.hpp:77] Creating layer ip1_p
I0713 22:30:26.150437 31570 net.cpp:91] Creating Layer ip1_p
I0713 22:30:26.150477 31570 net.cpp:425] ip1_p <- pool2_p
I0713 22:30:26.150524 31570 net.cpp:399] ip1_p -> ip1_p
I0713 22:30:26.157158 31570 net.cpp:141] Setting up ip1_p
I0713 22:30:26.157248 31570 net.cpp:148] Top shape: 100 500 (50000)
I0713 22:30:26.157265 31570 net.cpp:156] Memory required for data: 16580400
I0713 22:30:26.157282 31570 net.cpp:484] Sharing parameters 'ip1_w' owned by layer 'ip1', param index 0
I0713 22:30:26.157297 31570 net.cpp:484] Sharing parameters 'ip1_b' owned by layer 'ip1', param index 1
I0713 22:30:26.157315 31570 layer_factory.hpp:77] Creating layer relu1_p
I0713 22:30:26.157335 31570 net.cpp:91] Creating Layer relu1_p
I0713 22:30:26.157395 31570 net.cpp:425] relu1_p <- ip1_p
I0713 22:30:26.157425 31570 net.cpp:386] relu1_p -> ip1_p (in-place)
I0713 22:30:26.157452 31570 net.cpp:141] Setting up relu1_p
I0713 22:30:26.157474 31570 net.cpp:148] Top shape: 100 500 (50000)
I0713 22:30:26.157490 31570 net.cpp:156] Memory required for data: 16780400
I0713 22:30:26.157507 31570 layer_factory.hpp:77] Creating layer ip2_p
I0713 22:30:26.157531 31570 net.cpp:91] Creating Layer ip2_p
I0713 22:30:26.157552 31570 net.cpp:425] ip2_p <- ip1_p
I0713 22:30:26.157573 31570 net.cpp:399] ip2_p -> ip2_p
I0713 22:30:26.157658 31570 net.cpp:141] Setting up ip2_p
I0713 22:30:26.157682 31570 net.cpp:148] Top shape: 100 10 (1000)
I0713 22:30:26.157699 31570 net.cpp:156] Memory required for data: 16784400
I0713 22:30:26.157723 31570 net.cpp:484] Sharing parameters 'ip2_w' owned by layer 'ip2', param index 0
I0713 22:30:26.157743 31570 net.cpp:484] Sharing parameters 'ip2_b' owned by layer 'ip2', param index 1
I0713 22:30:26.157762 31570 layer_factory.hpp:77] Creating layer feat_p
I0713 22:30:26.157783 31570 net.cpp:91] Creating Layer feat_p
I0713 22:30:26.157801 31570 net.cpp:425] feat_p <- ip2_p
I0713 22:30:26.157822 31570 net.cpp:399] feat_p -> feat_p
I0713 22:30:26.157855 31570 net.cpp:141] Setting up feat_p
I0713 22:30:26.157877 31570 net.cpp:148] Top shape: 100 2 (200)
I0713 22:30:26.157893 31570 net.cpp:156] Memory required for data: 16785200
I0713 22:30:26.157912 31570 net.cpp:484] Sharing parameters 'feat_w' owned by layer 'feat', param index 0
I0713 22:30:26.157930 31570 net.cpp:484] Sharing parameters 'feat_b' owned by layer 'feat', param index 1
I0713 22:30:26.157948 31570 layer_factory.hpp:77] Creating layer concat
I0713 22:30:26.157969 31570 net.cpp:91] Creating Layer concat
I0713 22:30:26.157986 31570 net.cpp:425] concat <- feat
I0713 22:30:26.158005 31570 net.cpp:425] concat <- feat_p
I0713 22:30:26.158026 31570 net.cpp:399] concat -> comb
I0713 22:30:26.158051 31570 net.cpp:141] Setting up concat
I0713 22:30:26.158071 31570 net.cpp:148] Top shape: 100 4 (400)
I0713 22:30:26.158087 31570 net.cpp:156] Memory required for data: 16786800
I0713 22:30:26.158104 31570 layer_factory.hpp:77] Creating layer fc1
I0713 22:30:26.158125 31570 net.cpp:91] Creating Layer fc1
I0713 22:30:26.158143 31570 net.cpp:425] fc1 <- comb
I0713 22:30:26.158166 31570 net.cpp:399] fc1 -> fc1
I0713 22:30:26.158205 31570 net.cpp:141] Setting up fc1
I0713 22:30:26.158228 31570 net.cpp:148] Top shape: 100 100 (10000)
I0713 22:30:26.158246 31570 net.cpp:156] Memory required for data: 16826800
I0713 22:30:26.158264 31570 layer_factory.hpp:77] Creating layer relu1_fc1
I0713 22:30:26.158284 31570 net.cpp:91] Creating Layer relu1_fc1
I0713 22:30:26.158303 31570 net.cpp:425] relu1_fc1 <- fc1
I0713 22:30:26.158324 31570 net.cpp:386] relu1_fc1 -> fc1 (in-place)
I0713 22:30:26.158345 31570 net.cpp:141] Setting up relu1_fc1
I0713 22:30:26.158373 31570 net.cpp:148] Top shape: 100 100 (10000)
I0713 22:30:26.158401 31570 net.cpp:156] Memory required for data: 16866800
I0713 22:30:26.158419 31570 layer_factory.hpp:77] Creating layer fc2
I0713 22:30:26.158440 31570 net.cpp:91] Creating Layer fc2
I0713 22:30:26.158458 31570 net.cpp:425] fc2 <- fc1
I0713 22:30:26.158502 31570 net.cpp:399] fc2 -> fc2
I0713 22:30:26.158567 31570 net.cpp:141] Setting up fc2
I0713 22:30:26.158586 31570 net.cpp:148] Top shape: 100 50 (5000)
I0713 22:30:26.158597 31570 net.cpp:156] Memory required for data: 16886800
I0713 22:30:26.158612 31570 layer_factory.hpp:77] Creating layer relu2_fc2
I0713 22:30:26.158627 31570 net.cpp:91] Creating Layer relu2_fc2
I0713 22:30:26.158638 31570 net.cpp:425] relu2_fc2 <- fc2
I0713 22:30:26.158653 31570 net.cpp:386] relu2_fc2 -> fc2 (in-place)
I0713 22:30:26.158668 31570 net.cpp:141] Setting up relu2_fc2
I0713 22:30:26.158681 31570 net.cpp:148] Top shape: 100 50 (5000)
I0713 22:30:26.158692 31570 net.cpp:156] Memory required for data: 16906800
I0713 22:30:26.158704 31570 layer_factory.hpp:77] Creating layer fc3
I0713 22:30:26.158720 31570 net.cpp:91] Creating Layer fc3
I0713 22:30:26.158731 31570 net.cpp:425] fc3 <- fc2
I0713 22:30:26.158747 31570 net.cpp:399] fc3 -> fc3
I0713 22:30:26.158769 31570 net.cpp:141] Setting up fc3
I0713 22:30:26.158784 31570 net.cpp:148] Top shape: 100 1 (100)
I0713 22:30:26.158795 31570 net.cpp:156] Memory required for data: 16907200
I0713 22:30:26.158809 31570 layer_factory.hpp:77] Creating layer fc3_fc3_0_split
I0713 22:30:26.158824 31570 net.cpp:91] Creating Layer fc3_fc3_0_split
I0713 22:30:26.158836 31570 net.cpp:425] fc3_fc3_0_split <- fc3
I0713 22:30:26.158851 31570 net.cpp:399] fc3_fc3_0_split -> fc3_fc3_0_split_0
I0713 22:30:26.158867 31570 net.cpp:399] fc3_fc3_0_split -> fc3_fc3_0_split_1
I0713 22:30:26.158885 31570 net.cpp:141] Setting up fc3_fc3_0_split
I0713 22:30:26.158898 31570 net.cpp:148] Top shape: 100 1 (100)
I0713 22:30:26.158911 31570 net.cpp:148] Top shape: 100 1 (100)
I0713 22:30:26.158922 31570 net.cpp:156] Memory required for data: 16908000
I0713 22:30:26.158934 31570 layer_factory.hpp:77] Creating layer 
I0713 22:30:26.158948 31570 net.cpp:91] Creating Layer 
I0713 22:30:26.158960 31570 net.cpp:425]  <- fc3_fc3_0_split_0
I0713 22:30:26.158974 31570 net.cpp:399]  -> prob
I0713 22:30:26.158990 31570 net.cpp:141] Setting up 
I0713 22:30:26.159004 31570 net.cpp:148] Top shape: 100 1 (100)
I0713 22:30:26.159015 31570 net.cpp:156] Memory required for data: 16908400
I0713 22:30:26.159026 31570 layer_factory.hpp:77] Creating layer loss
I0713 22:30:26.159041 31570 net.cpp:91] Creating Layer loss
I0713 22:30:26.159054 31570 net.cpp:425] loss <- fc3_fc3_0_split_1
I0713 22:30:26.159066 31570 net.cpp:425] loss <- sim_pair_data_1_split_0
I0713 22:30:26.159082 31570 net.cpp:399] loss -> loss
…
