…
I0712 18:09:59.467284 13750 solver.cpp:91] Creating training net from net file: examples/siamese/mnist_siamese_train_test.prototxt
I0712 18:09:59.467772 13750 net.cpp:313] The NetState phase (0) differed from the phase (1) specified by a rule in layer pair_data
I0712 18:09:59.468412 13750 net.cpp:49] Initializing net from parameters: 
name: "mnist_siamese_train_test"
state {
  phase: TRAIN
}
layer {
  name: "pair_data"
  type: "Data"
  top: "pair_data"
  top: "sim"
  include {
    phase: TRAIN
  }
  transform_param {
    scale: 0.00390625
  }
  data_param {
    source: "examples/siamese/mnist_siamese_train_leveldb_0to6c"
    batch_size: 64
  }
}
layer {
  name: "slice_pair"
  type: "Slice"
  bottom: "pair_data"
  top: "data"
  top: "data_p"
  slice_param {
    slice_dim: 1
    slice_point: 1
  }
}
layer {
  name: "conv1"
  type: "Convolution"
  bottom: "data"
  top: "conv1"
  param {
    name: "conv1_w"
    lr_mult: 1
  }
  param {
    name: "conv1_b"
    lr_mult: 2
  }
  convolution_param {
    num_output: 20
    kernel_size: 5
    stride: 1
    weight_filler {
      type: "xavier"
    }
    bias_filler {
      type: "constant"
    }
  }
}
layer {
  name: "pool1"
  type: "Pooling"
  bottom: "conv1"
  top: "pool1"
  pooling_param {
    pool: MAX
    kernel_size: 2
    stride: 2
  }
}
layer {
  name: "conv2"
  type: "Convolution"
  bottom: "pool1"
  top: "conv2"
  param {
    name: "conv2_w"
    lr_mult: 1
  }
  param {
    name: "conv2_b"
    lr_mult: 2
  }
  convolution_param {
    num_output: 50
    kernel_size: 5
    stride: 1
    weight_filler {
      type: "xavier"
    }
    bias_filler {
      type: "constant"
    }
  }
}
layer {
  name: "pool2"
  type: "Pooling"
  bottom: "conv2"
  top: "pool2"
  pooling_param {
    pool: MAX
    kernel_size: 2
    stride: 2
  }
}
layer {
  name: "ip1"
  type: "InnerProduct"
  bottom: "pool2"
  top: "ip1"
  param {
    name: "ip1_w"
    lr_mult: 1
  }
  param {
    name: "ip1_b"
    lr_mult: 2
  }
  inner_product_param {
    num_output: 500
    weight_filler {
      type: "xavier"
    }
    bias_filler {
      type: "constant"
    }
  }
}
layer {
  name: "relu1"
  type: "ReLU"
  bottom: "ip1"
  top: "ip1"
}
layer {
  name: "ip2"
  type: "InnerProduct"
  bottom: "ip1"
  top: "ip2"
  param {
    name: "ip2_w"
    lr_mult: 1
  }
  param {
    name: "ip2_b"
    lr_mult: 2
  }
  inner_product_param {
    num_output: 10
    weight_filler {
      type: "xavier"
    }
    bias_filler {
      type: "constant"
    }
  }
}
layer {
  name: "feat"
  type: "InnerProduct"
  bottom: "ip2"
  top: "feat"
  param {
    name: "feat_w"
    lr_mult: 1
  }
  param {
    name: "feat_b"
    lr_mult: 2
  }
  inner_product_param {
    num_output: 2
    weight_filler {
      type: "xavier"
    }
    bias_filler {
      type: "constant"
    }
  }
}
layer {
  name: "conv1_p"
  type: "Convolution"
  bottom: "data_p"
  top: "conv1_p"
  param {
    name: "conv1_w"
    lr_mult: 1
  }
  param {
    name: "conv1_b"
    lr_mult: 2
  }
  convolution_param {
    num_output: 20
    kernel_size: 5
    stride: 1
    weight_filler {
      type: "xavier"
    }
    bias_filler {
      type: "constant"
    }
  }
}
layer {
  name: "pool1_p"
  type: "Pooling"
  bottom: "conv1_p"
  top: "pool1_p"
  pooling_param {
    pool: MAX
    kernel_size: 2
    stride: 2
  }
}
layer {
  name: "conv2_p"
  type: "Convolution"
  bottom: "pool1_p"
  top: "conv2_p"
  param {
    name: "conv2_w"
    lr_mult: 1
  }
  param {
    name: "conv2_b"
    lr_mult: 2
  }
  convolution_param {
    num_output: 50
    kernel_size: 5
    stride: 1
    weight_filler {
      type: "xavier"
    }
    bias_filler {
      type: "constant"
    }
  }
}
layer {
  name: "pool2_p"
  type: "Pooling"
  bottom: "conv2_p"
  top: "pool2_p"
  pooling_param {
    pool: MAX
    kernel_size: 2
    stride: 2
  }
}
layer {
  name: "ip1_p"
  type: "InnerProduct"
  bottom: "pool2_p"
  top: "ip1_p"
  param {
    name: "ip1_w"
    lr_mult: 1
  }
  param {
    name: "ip1_b"
    lr_mult: 2
  }
  inner_product_param {
    num_output: 500
    weight_filler {
      type: "xavier"
    }
    bias_filler {
      type: "constant"
    }
  }
}
layer {
  name: "relu1_p"
  type: "ReLU"
  bottom: "ip1_p"
  top: "ip1_p"
}
layer {
  name: "ip2_p"
  type: "InnerProduct"
  bottom: "ip1_p"
  top: "ip2_p"
  param {
    name: "ip2_w"
    lr_mult: 1
  }
  param {
    name: "ip2_b"
    lr_mult: 2
  }
  inner_product_param {
    num_output: 10
    weight_filler {
      type: "xavier"
    }
    bias_filler {
      type: "constant"
    }
  }
}
layer {
  name: "feat_p"
  type: "InnerProduct"
  bottom: "ip2_p"
  top: "feat_p"
  param {
    name: "feat_w"
    lr_mult: 1
  }
  param {
    name: "feat_b"
    lr_mult: 2
  }
  inner_product_param {
    num_output: 2
    weight_filler {
      type: "xavier"
    }
    bias_filler {
      type: "constant"
    }
  }
}
layer {
  name: "loss"
  type: "ContrastiveLoss"
  bottom: "feat"
  bottom: "feat_p"
  bottom: "sim"
  top: "loss"
  contrastive_loss_param {
    margin: 1
  }
}
I0712 18:09:59.470386 13750 layer_factory.hpp:77] Creating layer pair_data
I0712 18:09:59.476868 13750 net.cpp:91] Creating Layer pair_data
I0712 18:09:59.476938 13750 net.cpp:399] pair_data -> pair_data
I0712 18:09:59.476986 13750 net.cpp:399] pair_data -> sim
I0712 18:09:59.549278 13754 db_leveldb.cpp:18] Opened leveldb examples/siamese/mnist_siamese_train_leveldb_0to6c
I0712 18:09:59.549960 13750 data_layer.cpp:41] output data size: 64,2,28,28
I0712 18:09:59.550710 13750 net.cpp:141] Setting up pair_data
I0712 18:09:59.550870 13750 net.cpp:148] Top shape: 64 2 28 28 (100352)
I0712 18:09:59.550889 13750 net.cpp:148] Top shape: 64 (64)
I0712 18:09:59.550894 13750 net.cpp:156] Memory required for data: 401664
I0712 18:09:59.550914 13750 layer_factory.hpp:77] Creating layer slice_pair
I0712 18:09:59.550940 13750 net.cpp:91] Creating Layer slice_pair
I0712 18:09:59.550950 13750 net.cpp:425] slice_pair <- pair_data
I0712 18:09:59.550966 13750 net.cpp:399] slice_pair -> data
I0712 18:09:59.550983 13750 net.cpp:399] slice_pair -> data_p
I0712 18:09:59.551028 13750 net.cpp:141] Setting up slice_pair
I0712 18:09:59.551041 13750 net.cpp:148] Top shape: 64 1 28 28 (50176)
I0712 18:09:59.551048 13750 net.cpp:148] Top shape: 64 1 28 28 (50176)
I0712 18:09:59.551053 13750 net.cpp:156] Memory required for data: 803072
I0712 18:09:59.551057 13750 layer_factory.hpp:77] Creating layer conv1
I0712 18:09:59.551079 13750 net.cpp:91] Creating Layer conv1
I0712 18:09:59.551108 13750 net.cpp:425] conv1 <- data
I0712 18:09:59.551121 13750 net.cpp:399] conv1 -> conv1
I0712 18:09:59.551203 13750 net.cpp:141] Setting up conv1
I0712 18:09:59.551236 13750 net.cpp:148] Top shape: 64 20 24 24 (737280)
I0712 18:09:59.551242 13750 net.cpp:156] Memory required for data: 3752192
I0712 18:09:59.551259 13750 layer_factory.hpp:77] Creating layer pool1
I0712 18:09:59.551270 13750 net.cpp:91] Creating Layer pool1
I0712 18:09:59.551275 13750 net.cpp:425] pool1 <- conv1
I0712 18:09:59.551282 13750 net.cpp:399] pool1 -> pool1
I0712 18:09:59.551316 13750 net.cpp:141] Setting up pool1
I0712 18:09:59.551347 13750 net.cpp:148] Top shape: 64 20 12 12 (184320)
I0712 18:09:59.551352 13750 net.cpp:156] Memory required for data: 4489472
I0712 18:09:59.551357 13750 layer_factory.hpp:77] Creating layer conv2
I0712 18:09:59.551379 13750 net.cpp:91] Creating Layer conv2
I0712 18:09:59.551388 13750 net.cpp:425] conv2 <- pool1
I0712 18:09:59.551398 13750 net.cpp:399] conv2 -> conv2
I0712 18:09:59.551686 13750 net.cpp:141] Setting up conv2
I0712 18:09:59.551719 13750 net.cpp:148] Top shape: 64 50 8 8 (204800)
I0712 18:09:59.551725 13750 net.cpp:156] Memory required for data: 5308672
I0712 18:09:59.551736 13750 layer_factory.hpp:77] Creating layer pool2
I0712 18:09:59.551745 13750 net.cpp:91] Creating Layer pool2
I0712 18:09:59.551848 13750 net.cpp:425] pool2 <- conv2
I0712 18:09:59.551903 13750 net.cpp:399] pool2 -> pool2
I0712 18:09:59.551942 13750 net.cpp:141] Setting up pool2
I0712 18:09:59.551954 13750 net.cpp:148] Top shape: 64 50 4 4 (51200)
I0712 18:09:59.551957 13750 net.cpp:156] Memory required for data: 5513472
I0712 18:09:59.551962 13750 layer_factory.hpp:77] Creating layer ip1
I0712 18:09:59.551985 13750 net.cpp:91] Creating Layer ip1
I0712 18:09:59.551991 13750 net.cpp:425] ip1 <- pool2
I0712 18:09:59.552000 13750 net.cpp:399] ip1 -> ip1
I0712 18:09:59.557415 13750 net.cpp:141] Setting up ip1
I0712 18:09:59.557911 13750 net.cpp:148] Top shape: 64 500 (32000)
I0712 18:09:59.558882 13750 net.cpp:156] Memory required for data: 5641472
I0712 18:09:59.558929 13750 layer_factory.hpp:77] Creating layer relu1
I0712 18:09:59.558971 13750 net.cpp:91] Creating Layer relu1
I0712 18:09:59.558997 13750 net.cpp:425] relu1 <- ip1
I0712 18:09:59.559029 13750 net.cpp:386] relu1 -> ip1 (in-place)
I0712 18:09:59.559059 13750 net.cpp:141] Setting up relu1
I0712 18:09:59.559072 13750 net.cpp:148] Top shape: 64 500 (32000)
I0712 18:09:59.559077 13750 net.cpp:156] Memory required for data: 5769472
I0712 18:09:59.559092 13750 layer_factory.hpp:77] Creating layer ip2
I0712 18:09:59.559196 13750 net.cpp:91] Creating Layer ip2
I0712 18:09:59.559242 13750 net.cpp:425] ip2 <- ip1
I0712 18:09:59.559674 13750 net.cpp:399] ip2 -> ip2
I0712 18:09:59.560717 13750 net.cpp:141] Setting up ip2
I0712 18:09:59.560860 13750 net.cpp:148] Top shape: 64 10 (640)
I0712 18:09:59.560874 13750 net.cpp:156] Memory required for data: 5772032
I0712 18:09:59.560983 13750 layer_factory.hpp:77] Creating layer feat
I0712 18:09:59.561442 13750 net.cpp:91] Creating Layer feat
I0712 18:09:59.561547 13750 net.cpp:425] feat <- ip2
I0712 18:09:59.561573 13750 net.cpp:399] feat -> feat
I0712 18:09:59.561647 13750 net.cpp:141] Setting up feat
I0712 18:09:59.561669 13750 net.cpp:148] Top shape: 64 2 (128)
I0712 18:09:59.561678 13750 net.cpp:156] Memory required for data: 5772544
I0712 18:09:59.561761 13750 layer_factory.hpp:77] Creating layer conv1_p
I0712 18:09:59.561936 13750 net.cpp:91] Creating Layer conv1_p
I0712 18:09:59.561946 13750 net.cpp:425] conv1_p <- data_p
I0712 18:09:59.561954 13750 net.cpp:399] conv1_p -> conv1_p
I0712 18:09:59.562146 13750 net.cpp:141] Setting up conv1_p
I0712 18:09:59.562217 13750 net.cpp:148] Top shape: 64 20 24 24 (737280)
I0712 18:09:59.562224 13750 net.cpp:156] Memory required for data: 8721664
I0712 18:09:59.562233 13750 net.cpp:484] Sharing parameters 'conv1_w' owned by layer 'conv1', param index 0
I0712 18:09:59.562239 13750 net.cpp:484] Sharing parameters 'conv1_b' owned by layer 'conv1', param index 1
I0712 18:09:59.562315 13750 layer_factory.hpp:77] Creating layer pool1_p
I0712 18:09:59.562345 13750 net.cpp:91] Creating Layer pool1_p
I0712 18:09:59.562351 13750 net.cpp:425] pool1_p <- conv1_p
I0712 18:09:59.562361 13750 net.cpp:399] pool1_p -> pool1_p
I0712 18:09:59.562391 13750 net.cpp:141] Setting up pool1_p
I0712 18:09:59.562402 13750 net.cpp:148] Top shape: 64 20 12 12 (184320)
I0712 18:09:59.562404 13750 net.cpp:156] Memory required for data: 9458944
I0712 18:09:59.562412 13750 layer_factory.hpp:77] Creating layer conv2_p
I0712 18:09:59.562584 13750 net.cpp:91] Creating Layer conv2_p
I0712 18:09:59.562598 13750 net.cpp:425] conv2_p <- pool1_p
I0712 18:09:59.562716 13750 net.cpp:399] conv2_p -> conv2_p
I0712 18:09:59.563822 13750 net.cpp:141] Setting up conv2_p
I0712 18:09:59.563887 13750 net.cpp:148] Top shape: 64 50 8 8 (204800)
I0712 18:09:59.563896 13750 net.cpp:156] Memory required for data: 10278144
I0712 18:09:59.563905 13750 net.cpp:484] Sharing parameters 'conv2_w' owned by layer 'conv2', param index 0
I0712 18:09:59.563915 13750 net.cpp:484] Sharing parameters 'conv2_b' owned by layer 'conv2', param index 1
I0712 18:09:59.563920 13750 layer_factory.hpp:77] Creating layer pool2_p
I0712 18:09:59.563935 13750 net.cpp:91] Creating Layer pool2_p
I0712 18:09:59.563943 13750 net.cpp:425] pool2_p <- conv2_p
I0712 18:09:59.563957 13750 net.cpp:399] pool2_p -> pool2_p
I0712 18:09:59.564008 13750 net.cpp:141] Setting up pool2_p
I0712 18:09:59.564015 13750 net.cpp:148] Top shape: 64 50 4 4 (51200)
I0712 18:09:59.564018 13750 net.cpp:156] Memory required for data: 10482944
I0712 18:09:59.564021 13750 layer_factory.hpp:77] Creating layer ip1_p
I0712 18:09:59.564033 13750 net.cpp:91] Creating Layer ip1_p
I0712 18:09:59.564038 13750 net.cpp:425] ip1_p <- pool2_p
I0712 18:09:59.564043 13750 net.cpp:399] ip1_p -> ip1_p
I0712 18:09:59.566999 13750 net.cpp:141] Setting up ip1_p
I0712 18:09:59.567088 13750 net.cpp:148] Top shape: 64 500 (32000)
I0712 18:09:59.567097 13750 net.cpp:156] Memory required for data: 10610944
I0712 18:09:59.567107 13750 net.cpp:484] Sharing parameters 'ip1_w' owned by layer 'ip1', param index 0
I0712 18:09:59.567116 13750 net.cpp:484] Sharing parameters 'ip1_b' owned by layer 'ip1', param index 1
I0712 18:09:59.567121 13750 layer_factory.hpp:77] Creating layer relu1_p
I0712 18:09:59.567133 13750 net.cpp:91] Creating Layer relu1_p
I0712 18:09:59.567140 13750 net.cpp:425] relu1_p <- ip1_p
I0712 18:09:59.567152 13750 net.cpp:386] relu1_p -> ip1_p (in-place)
I0712 18:09:59.567167 13750 net.cpp:141] Setting up relu1_p
I0712 18:09:59.567178 13750 net.cpp:148] Top shape: 64 500 (32000)
I0712 18:09:59.567184 13750 net.cpp:156] Memory required for data: 10738944
I0712 18:09:59.567190 13750 layer_factory.hpp:77] Creating layer ip2_p
I0712 18:09:59.567276 13750 net.cpp:91] Creating Layer ip2_p
I0712 18:09:59.567291 13750 net.cpp:425] ip2_p <- ip1_p
I0712 18:09:59.567303 13750 net.cpp:399] ip2_p -> ip2_p
I0712 18:09:59.567363 13750 net.cpp:141] Setting up ip2_p
I0712 18:09:59.567387 13750 net.cpp:148] Top shape: 64 10 (640)
I0712 18:09:59.567390 13750 net.cpp:156] Memory required for data: 10741504
I0712 18:09:59.567397 13750 net.cpp:484] Sharing parameters 'ip2_w' owned by layer 'ip2', param index 0
I0712 18:09:59.567401 13750 net.cpp:484] Sharing parameters 'ip2_b' owned by layer 'ip2', param index 1
I0712 18:09:59.567404 13750 layer_factory.hpp:77] Creating layer feat_p
I0712 18:09:59.567411 13750 net.cpp:91] Creating Layer feat_p
I0712 18:09:59.570971 13750 net.cpp:425] feat_p <- ip2_p
I0712 18:09:59.571024 13750 net.cpp:399] feat_p -> feat_p
I0712 18:09:59.571079 13750 net.cpp:141] Setting up feat_p
I0712 18:09:59.571091 13750 net.cpp:148] Top shape: 64 2 (128)
I0712 18:09:59.571096 13750 net.cpp:156] Memory required for data: 10742016
I0712 18:09:59.571105 13750 net.cpp:484] Sharing parameters 'feat_w' owned by layer 'feat', param index 0
I0712 18:09:59.571112 13750 net.cpp:484] Sharing parameters 'feat_b' owned by layer 'feat', param index 1
I0712 18:09:59.571118 13750 layer_factory.hpp:77] Creating layer loss
I0712 18:09:59.571460 13750 net.cpp:91] Creating Layer loss
…
I0712 18:09:59.578269 13750 solver.cpp:181] Creating test net (#0) specified by net file: examples/siamese/mnist_siamese_train_test.prototxt
I0712 18:09:59.578410 13750 net.cpp:313] The NetState phase (1) differed from the phase (0) specified by a rule in layer pair_data
I0712 18:09:59.578873 13750 net.cpp:49] Initializing net from parameters: 
name: "mnist_siamese_train_test"
state {
  phase: TEST
}
layer {
  name: "pair_data"
  type: "Data"
  top: "pair_data"
  top: "sim"
  include {
    phase: TEST
  }
  transform_param {
    scale: 0.00390625
  }
  data_param {
    source: "examples/siamese/mnist_siamese_test_leveldb_0to6c"
    batch_size: 100
  }
}
layer {
  name: "slice_pair"
  type: "Slice"
  bottom: "pair_data"
  top: "data"
  top: "data_p"
  slice_param {
    slice_dim: 1
    slice_point: 1
  }
}
layer {
  name: "conv1"
  type: "Convolution"
  bottom: "data"
  top: "conv1"
  param {
    name: "conv1_w"
    lr_mult: 1
  }
  param {
    name: "conv1_b"
    lr_mult: 2
  }
  convolution_param {
    num_output: 20
    kernel_size: 5
    stride: 1
    weight_filler {
      type: "xavier"
    }
    bias_filler {
      type: "constant"
    }
  }
}
layer {
  name: "pool1"
  type: "Pooling"
  bottom: "conv1"
  top: "pool1"
  pooling_param {
    pool: MAX
    kernel_size: 2
    stride: 2
  }
}
layer {
  name: "conv2"
  type: "Convolution"
  bottom: "pool1"
  top: "conv2"
  param {
    name: "conv2_w"
    lr_mult: 1
  }
  param {
    name: "conv2_b"
    lr_mult: 2
  }
  convolution_param {
    num_output: 50
    kernel_size: 5
    stride: 1
    weight_filler {
      type: "xavier"
    }
    bias_filler {
      type: "constant"
    }
  }
}
layer {
  name: "pool2"
  type: "Pooling"
  bottom: "conv2"
  top: "pool2"
  pooling_param {
    pool: MAX
    kernel_size: 2
    stride: 2
  }
}
layer {
  name: "ip1"
  type: "InnerProduct"
  bottom: "pool2"
  top: "ip1"
  param {
    name: "ip1_w"
    lr_mult: 1
  }
  param {
    name: "ip1_b"
    lr_mult: 2
  }
  inner_product_param {
    num_output: 500
    weight_filler {
      type: "xavier"
    }
    bias_filler {
      type: "constant"
    }
  }
}
layer {
  name: "relu1"
  type: "ReLU"
  bottom: "ip1"
  top: "ip1"
}
layer {
  name: "ip2"
  type: "InnerProduct"
  bottom: "ip1"
  top: "ip2"
  param {
    name: "ip2_w"
    lr_mult: 1
  }
  param {
    name: "ip2_b"
    lr_mult: 2
  }
  inner_product_param {
    num_output: 10
    weight_filler {
      type: "xavier"
    }
    bias_filler {
      type: "constant"
    }
  }
}
layer {
  name: "feat"
  type: "InnerProduct"
  bottom: "ip2"
  top: "feat"
  param {
    name: "feat_w"
    lr_mult: 1
  }
  param {
    name: "feat_b"
    lr_mult: 2
  }
  inner_product_param {
    num_output: 2
    weight_filler {
      type: "xavier"
    }
    bias_filler {
      type: "constant"
    }
  }
}
layer {
  name: "conv1_p"
  type: "Convolution"
  bottom: "data_p"
  top: "conv1_p"
  param {
    name: "conv1_w"
    lr_mult: 1
  }
  param {
    name: "conv1_b"
    lr_mult: 2
  }
  convolution_param {
    num_output: 20
    kernel_size: 5
    stride: 1
    weight_filler {
      type: "xavier"
    }
    bias_filler {
      type: "constant"
    }
  }
}
layer {
  name: "pool1_p"
  type: "Pooling"
  bottom: "conv1_p"
  top: "pool1_p"
  pooling_param {
    pool: MAX
    kernel_size: 2
    stride: 2
  }
}
layer {
  name: "conv2_p"
  type: "Convolution"
  bottom: "pool1_p"
  top: "conv2_p"
  param {
    name: "conv2_w"
    lr_mult: 1
  }
  param {
    name: "conv2_b"
    lr_mult: 2
  }
  convolution_param {
    num_output: 50
    kernel_size: 5
    stride: 1
    weight_filler {
      type: "xavier"
    }
    bias_filler {
      type: "constant"
    }
  }
}
layer {
  name: "pool2_p"
  type: "Pooling"
  bottom: "conv2_p"
  top: "pool2_p"
  pooling_param {
    pool: MAX
    kernel_size: 2
    stride: 2
  }
}
layer {
  name: "ip1_p"
  type: "InnerProduct"
  bottom: "pool2_p"
  top: "ip1_p"
  param {
    name: "ip1_w"
    lr_mult: 1
  }
  param {
    name: "ip1_b"
    lr_mult: 2
  }
  inner_product_param {
    num_output: 500
    weight_filler {
      type: "xavier"
    }
    bias_filler {
      type: "constant"
    }
  }
}
layer {
  name: "relu1_p"
  type: "ReLU"
  bottom: "ip1_p"
  top: "ip1_p"
}
layer {
  name: "ip2_p"
  type: "InnerProduct"
  bottom: "ip1_p"
  top: "ip2_p"
  param {
    name: "ip2_w"
    lr_mult: 1
  }
  param {
    name: "ip2_b"
    lr_mult: 2
  }
  inner_product_param {
    num_output: 10
    weight_filler {
      type: "xavier"
    }
    bias_filler {
      type: "constant"
    }
  }
}
layer {
  name: "feat_p"
  type: "InnerProduct"
  bottom: "ip2_p"
  top: "feat_p"
  param {
    name: "feat_w"
    lr_mult: 1
  }
  param {
    name: "feat_b"
    lr_mult: 2
  }
  inner_product_param {
    num_output: 2
    weight_filler {
      type: "xavier"
    }
    bias_filler {
      type: "constant"
    }
  }
}
layer {
  name: "loss"
  type: "ContrastiveLoss"
  bottom: "feat"
  bottom: "feat_p"
  bottom: "sim"
  top: "loss"
  contrastive_loss_param {
    margin: 1
  }
}
I0712 18:09:59.580950 13750 layer_factory.hpp:77] Creating layer pair_data
I0712 18:09:59.581267 13750 net.cpp:91] Creating Layer pair_data
I0712 18:09:59.581352 13750 net.cpp:399] pair_data -> pair_data
I0712 18:09:59.581409 13750 net.cpp:399] pair_data -> sim
I0712 18:09:59.626055 13756 db_leveldb.cpp:18] Opened leveldb examples/siamese/mnist_siamese_test_leveldb_0to6c
I0712 18:09:59.626380 13750 data_layer.cpp:41] output data size: 100,2,28,28
I0712 18:09:59.627053 13750 net.cpp:141] Setting up pair_data
I0712 18:09:59.627091 13750 net.cpp:148] Top shape: 100 2 28 28 (156800)
I0712 18:09:59.627099 13750 net.cpp:148] Top shape: 100 (100)
I0712 18:09:59.627101 13750 net.cpp:156] Memory required for data: 627600
I0712 18:09:59.627110 13750 layer_factory.hpp:77] Creating layer slice_pair
I0712 18:09:59.627131 13750 net.cpp:91] Creating Layer slice_pair
I0712 18:09:59.627136 13750 net.cpp:425] slice_pair <- pair_data
I0712 18:09:59.627143 13750 net.cpp:399] slice_pair -> data
I0712 18:09:59.627156 13750 net.cpp:399] slice_pair -> data_p
I0712 18:09:59.627168 13750 net.cpp:141] Setting up slice_pair
I0712 18:09:59.627172 13750 net.cpp:148] Top shape: 100 1 28 28 (78400)
I0712 18:09:59.627177 13750 net.cpp:148] Top shape: 100 1 28 28 (78400)
I0712 18:09:59.627178 13750 net.cpp:156] Memory required for data: 1254800
I0712 18:09:59.627182 13750 layer_factory.hpp:77] Creating layer conv1
I0712 18:09:59.627194 13750 net.cpp:91] Creating Layer conv1
I0712 18:09:59.627198 13750 net.cpp:425] conv1 <- data
I0712 18:09:59.627203 13750 net.cpp:399] conv1 -> conv1
I0712 18:09:59.627238 13750 net.cpp:141] Setting up conv1
I0712 18:09:59.627241 13750 net.cpp:148] Top shape: 100 20 24 24 (1152000)
I0712 18:09:59.627244 13750 net.cpp:156] Memory required for data: 5862800
I0712 18:09:59.627252 13750 layer_factory.hpp:77] Creating layer pool1
I0712 18:09:59.627259 13750 net.cpp:91] Creating Layer pool1
I0712 18:09:59.627262 13750 net.cpp:425] pool1 <- conv1
I0712 18:09:59.627266 13750 net.cpp:399] pool1 -> pool1
I0712 18:09:59.627274 13750 net.cpp:141] Setting up pool1
I0712 18:09:59.627279 13750 net.cpp:148] Top shape: 100 20 12 12 (288000)
I0712 18:09:59.627281 13750 net.cpp:156] Memory required for data: 7014800
I0712 18:09:59.627284 13750 layer_factory.hpp:77] Creating layer conv2
I0712 18:09:59.627291 13750 net.cpp:91] Creating Layer conv2
I0712 18:09:59.627324 13750 net.cpp:425] conv2 <- pool1
I0712 18:09:59.627329 13750 net.cpp:399] conv2 -> conv2
I0712 18:09:59.627527 13750 net.cpp:141] Setting up conv2
I0712 18:09:59.627534 13750 net.cpp:148] Top shape: 100 50 8 8 (320000)
I0712 18:09:59.627537 13750 net.cpp:156] Memory required for data: 8294800
I0712 18:09:59.627542 13750 layer_factory.hpp:77] Creating layer pool2
I0712 18:09:59.627547 13750 net.cpp:91] Creating Layer pool2
I0712 18:09:59.627545 13757 blocking_queue.cpp:50] Waiting for data
I0712 18:09:59.627549 13750 net.cpp:425] pool2 <- conv2
I0712 18:09:59.627750 13750 net.cpp:399] pool2 -> pool2
I0712 18:09:59.627763 13750 net.cpp:141] Setting up pool2
I0712 18:09:59.627766 13750 net.cpp:148] Top shape: 100 50 4 4 (80000)
I0712 18:09:59.627769 13750 net.cpp:156] Memory required for data: 8614800
I0712 18:09:59.627773 13750 layer_factory.hpp:77] Creating layer ip1
I0712 18:09:59.627779 13750 net.cpp:91] Creating Layer ip1
I0712 18:09:59.627781 13750 net.cpp:425] ip1 <- pool2
I0712 18:09:59.627786 13750 net.cpp:399] ip1 -> ip1
I0712 18:09:59.631096 13750 net.cpp:141] Setting up ip1
I0712 18:09:59.633086 13750 net.cpp:148] Top shape: 100 500 (50000)
I0712 18:09:59.633148 13750 net.cpp:156] Memory required for data: 8814800
I0712 18:09:59.633186 13750 layer_factory.hpp:77] Creating layer relu1
I0712 18:09:59.633216 13750 net.cpp:91] Creating Layer relu1
I0712 18:09:59.633252 13750 net.cpp:425] relu1 <- ip1
I0712 18:09:59.633275 13750 net.cpp:386] relu1 -> ip1 (in-place)
I0712 18:09:59.633301 13750 net.cpp:141] Setting up relu1
I0712 18:09:59.633322 13750 net.cpp:148] Top shape: 100 500 (50000)
I0712 18:09:59.633337 13750 net.cpp:156] Memory required for data: 9014800
I0712 18:09:59.633353 13750 layer_factory.hpp:77] Creating layer ip2
I0712 18:09:59.633378 13750 net.cpp:91] Creating Layer ip2
I0712 18:09:59.633410 13750 net.cpp:425] ip2 <- ip1
I0712 18:09:59.633430 13750 net.cpp:399] ip2 -> ip2
I0712 18:09:59.633512 13750 net.cpp:141] Setting up ip2
I0712 18:09:59.633534 13750 net.cpp:148] Top shape: 100 10 (1000)
I0712 18:09:59.633549 13750 net.cpp:156] Memory required for data: 9018800
I0712 18:09:59.633568 13750 layer_factory.hpp:77] Creating layer feat
I0712 18:09:59.633586 13750 net.cpp:91] Creating Layer feat
I0712 18:09:59.633601 13750 net.cpp:425] feat <- ip2
I0712 18:09:59.633620 13750 net.cpp:399] feat -> feat
I0712 18:09:59.633646 13750 net.cpp:141] Setting up feat
I0712 18:09:59.633664 13750 net.cpp:148] Top shape: 100 2 (200)
I0712 18:09:59.633678 13750 net.cpp:156] Memory required for data: 9019600
I0712 18:09:59.633700 13750 layer_factory.hpp:77] Creating layer conv1_p
I0712 18:09:59.633723 13750 net.cpp:91] Creating Layer conv1_p
I0712 18:09:59.633738 13750 net.cpp:425] conv1_p <- data_p
I0712 18:09:59.633756 13750 net.cpp:399] conv1_p -> conv1_p
I0712 18:09:59.633800 13750 net.cpp:141] Setting up conv1_p
I0712 18:09:59.633821 13750 net.cpp:148] Top shape: 100 20 24 24 (1152000)
I0712 18:09:59.633836 13750 net.cpp:156] Memory required for data: 13627600
I0712 18:09:59.633851 13750 net.cpp:484] Sharing parameters 'conv1_w' owned by layer 'conv1', param index 0
I0712 18:09:59.633867 13750 net.cpp:484] Sharing parameters 'conv1_b' owned by layer 'conv1', param index 1
I0712 18:09:59.633880 13750 layer_factory.hpp:77] Creating layer pool1_p
I0712 18:09:59.633898 13750 net.cpp:91] Creating Layer pool1_p
I0712 18:09:59.633911 13750 net.cpp:425] pool1_p <- conv1_p
I0712 18:09:59.633927 13750 net.cpp:399] pool1_p -> pool1_p
I0712 18:09:59.633949 13750 net.cpp:141] Setting up pool1_p
I0712 18:09:59.633965 13750 net.cpp:148] Top shape: 100 20 12 12 (288000)
I0712 18:09:59.633987 13750 net.cpp:156] Memory required for data: 14779600
I0712 18:09:59.634001 13750 layer_factory.hpp:77] Creating layer conv2_p
I0712 18:09:59.634029 13750 net.cpp:91] Creating Layer conv2_p
I0712 18:09:59.634043 13750 net.cpp:425] conv2_p <- pool1_p
I0712 18:09:59.634058 13750 net.cpp:399] conv2_p -> conv2_p
I0712 18:09:59.634268 13750 net.cpp:141] Setting up conv2_p
I0712 18:09:59.634295 13750 net.cpp:148] Top shape: 100 50 8 8 (320000)
I0712 18:09:59.634344 13750 net.cpp:156] Memory required for data: 16059600
I0712 18:09:59.634366 13750 net.cpp:484] Sharing parameters 'conv2_w' owned by layer 'conv2', param index 0
I0712 18:09:59.634380 13750 net.cpp:484] Sharing parameters 'conv2_b' owned by layer 'conv2', param index 1
I0712 18:09:59.634393 13750 layer_factory.hpp:77] Creating layer pool2_p
I0712 18:09:59.634409 13750 net.cpp:91] Creating Layer pool2_p
I0712 18:09:59.634423 13750 net.cpp:425] pool2_p <- conv2_p
I0712 18:09:59.634439 13750 net.cpp:399] pool2_p -> pool2_p
I0712 18:09:59.634459 13750 net.cpp:141] Setting up pool2_p
I0712 18:09:59.634474 13750 net.cpp:148] Top shape: 100 50 4 4 (80000)
I0712 18:09:59.634486 13750 net.cpp:156] Memory required for data: 16379600
I0712 18:09:59.634498 13750 layer_factory.hpp:77] Creating layer ip1_p
I0712 18:09:59.634516 13750 net.cpp:91] Creating Layer ip1_p
I0712 18:09:59.634582 13750 net.cpp:425] ip1_p <- pool2_p
I0712 18:09:59.634608 13750 net.cpp:399] ip1_p -> ip1_p
I0712 18:09:59.642470 13750 net.cpp:141] Setting up ip1_p
I0712 18:09:59.642572 13750 net.cpp:148] Top shape: 100 500 (50000)
I0712 18:09:59.642590 13750 net.cpp:156] Memory required for data: 16579600
I0712 18:09:59.642608 13750 net.cpp:484] Sharing parameters 'ip1_w' owned by layer 'ip1', param index 0
I0712 18:09:59.642627 13750 net.cpp:484] Sharing parameters 'ip1_b' owned by layer 'ip1', param index 1
I0712 18:09:59.642642 13750 layer_factory.hpp:77] Creating layer relu1_p
I0712 18:09:59.642660 13750 net.cpp:91] Creating Layer relu1_p
I0712 18:09:59.642674 13750 net.cpp:425] relu1_p <- ip1_p
I0712 18:09:59.642690 13750 net.cpp:386] relu1_p -> ip1_p (in-place)
I0712 18:09:59.642711 13750 net.cpp:141] Setting up relu1_p
I0712 18:09:59.642726 13750 net.cpp:148] Top shape: 100 500 (50000)
I0712 18:09:59.642738 13750 net.cpp:156] Memory required for data: 16779600
I0712 18:09:59.642750 13750 layer_factory.hpp:77] Creating layer ip2_p
I0712 18:09:59.642771 13750 net.cpp:91] Creating Layer ip2_p
I0712 18:09:59.642783 13750 net.cpp:425] ip2_p <- ip1_p
I0712 18:09:59.642798 13750 net.cpp:399] ip2_p -> ip2_p
I0712 18:09:59.642864 13750 net.cpp:141] Setting up ip2_p
I0712 18:09:59.642884 13750 net.cpp:148] Top shape: 100 10 (1000)
I0712 18:09:59.642896 13750 net.cpp:156] Memory required for data: 16783600
I0712 18:09:59.642912 13750 net.cpp:484] Sharing parameters 'ip2_w' owned by layer 'ip2', param index 0
I0712 18:09:59.642927 13750 net.cpp:484] Sharing parameters 'ip2_b' owned by layer 'ip2', param index 1
I0712 18:09:59.642940 13750 layer_factory.hpp:77] Creating layer feat_p
I0712 18:09:59.642956 13750 net.cpp:91] Creating Layer feat_p
I0712 18:09:59.642971 13750 net.cpp:425] feat_p <- ip2_p
I0712 18:09:59.642985 13750 net.cpp:399] feat_p -> feat_p
I0712 18:09:59.643009 13750 net.cpp:141] Setting up feat_p
I0712 18:09:59.643025 13750 net.cpp:148] Top shape: 100 2 (200)
I0712 18:09:59.643038 13750 net.cpp:156] Memory required for data: 16784400
I0712 18:09:59.643050 13750 net.cpp:484] Sharing parameters 'feat_w' owned by layer 'feat', param index 0
I0712 18:09:59.643064 13750 net.cpp:484] Sharing parameters 'feat_b' owned by layer 'feat', param index 1
I0712 18:09:59.643076 13750 layer_factory.hpp:77] Creating layer loss
I0712 18:09:59.643092 13750 net.cpp:91] Creating Layer loss
…
