…
I0711 13:33:04.145987  1147 solver.cpp:91] Creating training net from net file: examples/siamese/mnist_siamese_train_test.prototxt
I0711 13:33:04.146970  1147 net.cpp:313] The NetState phase (0) differed from the phase (1) specified by a rule in layer pair_data
I0711 13:33:04.147248  1147 net.cpp:49] Initializing net from parameters: 
name: "mnist_siamese_train_test"
state {
  phase: TRAIN
}
layer {
  name: "pair_data"
  type: "Data"
  top: "pair_data"
  top: "sim"
  include {
    phase: TRAIN
  }
  transform_param {
    scale: 0.00390625
  }
  data_param {
    source: "examples/siamese/mnist_siamese_train_leveldb_0to9l"
    batch_size: 64
  }
}
layer {
  name: "slice_pair"
  type: "Slice"
  bottom: "pair_data"
  top: "data"
  top: "data_p"
  slice_param {
    slice_dim: 1
    slice_point: 1
  }
}
layer {
  name: "conv1"
  type: "Convolution"
  bottom: "data"
  top: "conv1"
  param {
    name: "conv1_w"
    lr_mult: 1
  }
  param {
    name: "conv1_b"
    lr_mult: 2
  }
  convolution_param {
    num_output: 20
    kernel_size: 5
    stride: 1
    weight_filler {
      type: "xavier"
    }
    bias_filler {
      type: "constant"
    }
  }
}
layer {
  name: "pool1"
  type: "Pooling"
  bottom: "conv1"
  top: "pool1"
  pooling_param {
    pool: MAX
    kernel_size: 2
    stride: 2
  }
}
layer {
  name: "conv2"
  type: "Convolution"
  bottom: "pool1"
  top: "conv2"
  param {
    name: "conv2_w"
    lr_mult: 1
  }
  param {
    name: "conv2_b"
    lr_mult: 2
  }
  convolution_param {
    num_output: 50
    kernel_size: 5
    stride: 1
    weight_filler {
      type: "xavier"
    }
    bias_filler {
      type: "constant"
    }
  }
}
layer {
  name: "pool2"
  type: "Pooling"
  bottom: "conv2"
  top: "pool2"
  pooling_param {
    pool: MAX
    kernel_size: 2
    stride: 2
  }
}
layer {
  name: "ip1"
  type: "InnerProduct"
  bottom: "pool2"
  top: "ip1"
  param {
    name: "ip1_w"
    lr_mult: 1
  }
  param {
    name: "ip1_b"
    lr_mult: 2
  }
  inner_product_param {
    num_output: 500
    weight_filler {
      type: "xavier"
    }
    bias_filler {
      type: "constant"
    }
  }
}
layer {
  name: "relu1"
  type: "ReLU"
  bottom: "ip1"
  top: "ip1"
}
layer {
  name: "ip2"
  type: "InnerProduct"
  bottom: "ip1"
  top: "ip2"
  param {
    name: "ip2_w"
    lr_mult: 1
  }
  param {
    name: "ip2_b"
    lr_mult: 2
  }
  inner_product_param {
    num_output: 10
    weight_filler {
      type: "xavier"
    }
    bias_filler {
      type: "constant"
    }
  }
}
layer {
  name: "feat"
  type: "InnerProduct"
  bottom: "ip2"
  top: "feat"
  param {
    name: "feat_w"
    lr_mult: 1
  }
  param {
    name: "feat_b"
    lr_mult: 2
  }
  inner_product_param {
    num_output: 2
    weight_filler {
      type: "xavier"
    }
    bias_filler {
      type: "constant"
    }
  }
}
layer {
  name: "conv1_p"
  type: "Convolution"
  bottom: "data_p"
  top: "conv1_p"
  param {
    name: "conv1_w"
    lr_mult: 1
  }
  param {
    name: "conv1_b"
    lr_mult: 2
  }
  convolution_param {
    num_output: 20
    kernel_size: 5
    stride: 1
    weight_filler {
      type: "xavier"
    }
    bias_filler {
      type: "constant"
    }
  }
}
layer {
  name: "pool1_p"
  type: "Pooling"
  bottom: "conv1_p"
  top: "pool1_p"
  pooling_param {
    pool: MAX
    kernel_size: 2
    stride: 2
  }
}
layer {
  name: "conv2_p"
  type: "Convolution"
  bottom: "pool1_p"
  top: "conv2_p"
  param {
    name: "conv2_w"
    lr_mult: 1
  }
  param {
    name: "conv2_b"
    lr_mult: 2
  }
  convolution_param {
    num_output: 50
    kernel_size: 5
    stride: 1
    weight_filler {
      type: "xavier"
    }
    bias_filler {
      type: "constant"
    }
  }
}
layer {
  name: "pool2_p"
  type: "Pooling"
  bottom: "conv2_p"
  top: "pool2_p"
  pooling_param {
    pool: MAX
    kernel_size: 2
    stride: 2
  }
}
layer {
  name: "ip1_p"
  type: "InnerProduct"
  bottom: "pool2_p"
  top: "ip1_p"
  param {
    name: "ip1_w"
    lr_mult: 1
  }
  param {
    name: "ip1_b"
    lr_mult: 2
  }
  inner_product_param {
    num_output: 500
    weight_filler {
      type: "xavier"
    }
    bias_filler {
      type: "constant"
    }
  }
}
layer {
  name: "relu1_p"
  type: "ReLU"
  bottom: "ip1_p"
  top: "ip1_p"
}
layer {
  name: "ip2_p"
  type: "InnerProduct"
  bottom: "ip1_p"
  top: "ip2_p"
  param {
    name: "ip2_w"
    lr_mult: 1
  }
  param {
    name: "ip2_b"
    lr_mult: 2
  }
  inner_product_param {
    num_output: 10
    weight_filler {
      type: "xavier"
    }
    bias_filler {
      type: "constant"
    }
  }
}
layer {
  name: "feat_p"
  type: "InnerProduct"
  bottom: "ip2_p"
  top: "feat_p"
  param {
    name: "feat_w"
    lr_mult: 1
  }
  param {
    name: "feat_b"
    lr_mult: 2
  }
  inner_product_param {
    num_output: 2
    weight_filler {
      type: "xavier"
    }
    bias_filler {
      type: "constant"
    }
  }
}
layer {
  name: "loss"
  type: "ContrastiveLoss"
  bottom: "feat"
  bottom: "feat_p"
  bottom: "sim"
  top: "loss"
  contrastive_loss_param {
    margin: 1
  }
}
I0711 13:33:04.147406  1147 layer_factory.hpp:77] Creating layer pair_data
I0711 13:33:04.147825  1147 net.cpp:91] Creating Layer pair_data
I0711 13:33:04.147837  1147 net.cpp:399] pair_data -> pair_data
I0711 13:33:04.147866  1147 net.cpp:399] pair_data -> sim
I0711 13:33:04.355651  1153 db_leveldb.cpp:18] Opened leveldb examples/siamese/mnist_siamese_train_leveldb_0to9l
I0711 13:33:04.377264  1147 data_layer.cpp:41] output data size: 64,2,28,28
I0711 13:33:04.379272  1147 net.cpp:141] Setting up pair_data
I0711 13:33:04.379297  1147 net.cpp:148] Top shape: 64 2 28 28 (100352)
I0711 13:33:04.379307  1147 net.cpp:148] Top shape: 64 (64)
I0711 13:33:04.379312  1147 net.cpp:156] Memory required for data: 401664
I0711 13:33:04.379335  1147 layer_factory.hpp:77] Creating layer slice_pair
I0711 13:33:04.379359  1147 net.cpp:91] Creating Layer slice_pair
I0711 13:33:04.379367  1147 net.cpp:425] slice_pair <- pair_data
I0711 13:33:04.379382  1147 net.cpp:399] slice_pair -> data
I0711 13:33:04.379401  1147 net.cpp:399] slice_pair -> data_p
I0711 13:33:04.379468  1147 net.cpp:141] Setting up slice_pair
I0711 13:33:04.379477  1147 net.cpp:148] Top shape: 64 1 28 28 (50176)
I0711 13:33:04.379485  1147 net.cpp:148] Top shape: 64 1 28 28 (50176)
I0711 13:33:04.379490  1147 net.cpp:156] Memory required for data: 803072
I0711 13:33:04.379497  1147 layer_factory.hpp:77] Creating layer conv1
I0711 13:33:04.379518  1147 net.cpp:91] Creating Layer conv1
I0711 13:33:04.379524  1147 net.cpp:425] conv1 <- data
I0711 13:33:04.379536  1147 net.cpp:399] conv1 -> conv1
I0711 13:33:04.380699  1147 net.cpp:141] Setting up conv1
I0711 13:33:04.380715  1147 net.cpp:148] Top shape: 64 20 24 24 (737280)
I0711 13:33:04.380722  1147 net.cpp:156] Memory required for data: 3752192
I0711 13:33:04.380741  1147 layer_factory.hpp:77] Creating layer pool1
I0711 13:33:04.380753  1147 net.cpp:91] Creating Layer pool1
I0711 13:33:04.380761  1147 net.cpp:425] pool1 <- conv1
I0711 13:33:04.380772  1147 net.cpp:399] pool1 -> pool1
I0711 13:33:04.380852  1147 net.cpp:141] Setting up pool1
I0711 13:33:04.380863  1147 net.cpp:148] Top shape: 64 20 12 12 (184320)
I0711 13:33:04.380873  1147 net.cpp:156] Memory required for data: 4489472
I0711 13:33:04.380882  1147 layer_factory.hpp:77] Creating layer conv2
I0711 13:33:04.380902  1147 net.cpp:91] Creating Layer conv2
I0711 13:33:04.380909  1147 net.cpp:425] conv2 <- pool1
I0711 13:33:04.380921  1147 net.cpp:399] conv2 -> conv2
I0711 13:33:04.382210  1147 net.cpp:141] Setting up conv2
I0711 13:33:04.382232  1147 net.cpp:148] Top shape: 64 50 8 8 (204800)
I0711 13:33:04.382241  1147 net.cpp:156] Memory required for data: 5308672
I0711 13:33:04.382257  1147 layer_factory.hpp:77] Creating layer pool2
I0711 13:33:04.382290  1147 net.cpp:91] Creating Layer pool2
I0711 13:33:04.382297  1147 net.cpp:425] pool2 <- conv2
I0711 13:33:04.382310  1147 net.cpp:399] pool2 -> pool2
I0711 13:33:04.382382  1147 net.cpp:141] Setting up pool2
I0711 13:33:04.382392  1147 net.cpp:148] Top shape: 64 50 4 4 (51200)
I0711 13:33:04.382398  1147 net.cpp:156] Memory required for data: 5513472
I0711 13:33:04.382405  1147 layer_factory.hpp:77] Creating layer ip1
I0711 13:33:04.382419  1147 net.cpp:91] Creating Layer ip1
I0711 13:33:04.382426  1147 net.cpp:425] ip1 <- pool2
I0711 13:33:04.382438  1147 net.cpp:399] ip1 -> ip1
I0711 13:33:04.386746  1147 net.cpp:141] Setting up ip1
I0711 13:33:04.386771  1147 net.cpp:148] Top shape: 64 500 (32000)
I0711 13:33:04.386780  1147 net.cpp:156] Memory required for data: 5641472
I0711 13:33:04.386797  1147 layer_factory.hpp:77] Creating layer relu1
I0711 13:33:04.386808  1147 net.cpp:91] Creating Layer relu1
I0711 13:33:04.386816  1147 net.cpp:425] relu1 <- ip1
I0711 13:33:04.386836  1147 net.cpp:386] relu1 -> ip1 (in-place)
I0711 13:33:04.386850  1147 net.cpp:141] Setting up relu1
I0711 13:33:04.386859  1147 net.cpp:148] Top shape: 64 500 (32000)
I0711 13:33:04.386868  1147 net.cpp:156] Memory required for data: 5769472
I0711 13:33:04.386875  1147 layer_factory.hpp:77] Creating layer ip2
I0711 13:33:04.386890  1147 net.cpp:91] Creating Layer ip2
I0711 13:33:04.386898  1147 net.cpp:425] ip2 <- ip1
I0711 13:33:04.386912  1147 net.cpp:399] ip2 -> ip2
I0711 13:33:04.387842  1147 net.cpp:141] Setting up ip2
I0711 13:33:04.387861  1147 net.cpp:148] Top shape: 64 10 (640)
I0711 13:33:04.387868  1147 net.cpp:156] Memory required for data: 5772032
I0711 13:33:04.387881  1147 layer_factory.hpp:77] Creating layer feat
I0711 13:33:04.387898  1147 net.cpp:91] Creating Layer feat
I0711 13:33:04.387905  1147 net.cpp:425] feat <- ip2
I0711 13:33:04.387920  1147 net.cpp:399] feat -> feat
I0711 13:33:04.388097  1147 net.cpp:141] Setting up feat
I0711 13:33:04.388108  1147 net.cpp:148] Top shape: 64 2 (128)
I0711 13:33:04.388116  1147 net.cpp:156] Memory required for data: 5772544
I0711 13:33:04.388133  1147 layer_factory.hpp:77] Creating layer conv1_p
I0711 13:33:04.388151  1147 net.cpp:91] Creating Layer conv1_p
I0711 13:33:04.388160  1147 net.cpp:425] conv1_p <- data_p
I0711 13:33:04.388175  1147 net.cpp:399] conv1_p -> conv1_p
I0711 13:33:04.388576  1147 net.cpp:141] Setting up conv1_p
I0711 13:33:04.388593  1147 net.cpp:148] Top shape: 64 20 24 24 (737280)
I0711 13:33:04.388602  1147 net.cpp:156] Memory required for data: 8721664
I0711 13:33:04.388609  1147 net.cpp:484] Sharing parameters 'conv1_w' owned by layer 'conv1', param index 0
I0711 13:33:04.388618  1147 net.cpp:484] Sharing parameters 'conv1_b' owned by layer 'conv1', param index 1
I0711 13:33:04.388627  1147 layer_factory.hpp:77] Creating layer pool1_p
I0711 13:33:04.388638  1147 net.cpp:91] Creating Layer pool1_p
I0711 13:33:04.388645  1147 net.cpp:425] pool1_p <- conv1_p
I0711 13:33:04.388659  1147 net.cpp:399] pool1_p -> pool1_p
I0711 13:33:04.388720  1147 net.cpp:141] Setting up pool1_p
I0711 13:33:04.388734  1147 net.cpp:148] Top shape: 64 20 12 12 (184320)
I0711 13:33:04.388741  1147 net.cpp:156] Memory required for data: 9458944
I0711 13:33:04.388748  1147 layer_factory.hpp:77] Creating layer conv2_p
I0711 13:33:04.388766  1147 net.cpp:91] Creating Layer conv2_p
I0711 13:33:04.388773  1147 net.cpp:425] conv2_p <- pool1_p
I0711 13:33:04.388787  1147 net.cpp:399] conv2_p -> conv2_p
I0711 13:33:04.389463  1147 net.cpp:141] Setting up conv2_p
I0711 13:33:04.389482  1147 net.cpp:148] Top shape: 64 50 8 8 (204800)
I0711 13:33:04.389487  1147 net.cpp:156] Memory required for data: 10278144
I0711 13:33:04.389497  1147 net.cpp:484] Sharing parameters 'conv2_w' owned by layer 'conv2', param index 0
I0711 13:33:04.389505  1147 net.cpp:484] Sharing parameters 'conv2_b' owned by layer 'conv2', param index 1
I0711 13:33:04.389514  1147 layer_factory.hpp:77] Creating layer pool2_p
I0711 13:33:04.389529  1147 net.cpp:91] Creating Layer pool2_p
I0711 13:33:04.389556  1147 net.cpp:425] pool2_p <- conv2_p
I0711 13:33:04.389567  1147 net.cpp:399] pool2_p -> pool2_p
I0711 13:33:04.389623  1147 net.cpp:141] Setting up pool2_p
I0711 13:33:04.389636  1147 net.cpp:148] Top shape: 64 50 4 4 (51200)
I0711 13:33:04.389642  1147 net.cpp:156] Memory required for data: 10482944
I0711 13:33:04.389647  1147 layer_factory.hpp:77] Creating layer ip1_p
I0711 13:33:04.389660  1147 net.cpp:91] Creating Layer ip1_p
I0711 13:33:04.389667  1147 net.cpp:425] ip1_p <- pool2_p
I0711 13:33:04.389677  1147 net.cpp:399] ip1_p -> ip1_p
I0711 13:33:04.393854  1147 net.cpp:141] Setting up ip1_p
I0711 13:33:04.393882  1147 net.cpp:148] Top shape: 64 500 (32000)
I0711 13:33:04.393888  1147 net.cpp:156] Memory required for data: 10610944
I0711 13:33:04.393895  1147 net.cpp:484] Sharing parameters 'ip1_w' owned by layer 'ip1', param index 0
I0711 13:33:04.393903  1147 net.cpp:484] Sharing parameters 'ip1_b' owned by layer 'ip1', param index 1
I0711 13:33:04.393909  1147 layer_factory.hpp:77] Creating layer relu1_p
I0711 13:33:04.393918  1147 net.cpp:91] Creating Layer relu1_p
I0711 13:33:04.393924  1147 net.cpp:425] relu1_p <- ip1_p
I0711 13:33:04.393937  1147 net.cpp:386] relu1_p -> ip1_p (in-place)
I0711 13:33:04.393949  1147 net.cpp:141] Setting up relu1_p
I0711 13:33:04.393955  1147 net.cpp:148] Top shape: 64 500 (32000)
I0711 13:33:04.393961  1147 net.cpp:156] Memory required for data: 10738944
I0711 13:33:04.393966  1147 layer_factory.hpp:77] Creating layer ip2_p
I0711 13:33:04.393980  1147 net.cpp:91] Creating Layer ip2_p
I0711 13:33:04.393985  1147 net.cpp:425] ip2_p <- ip1_p
I0711 13:33:04.393996  1147 net.cpp:399] ip2_p -> ip2_p
I0711 13:33:04.394166  1147 net.cpp:141] Setting up ip2_p
I0711 13:33:04.394177  1147 net.cpp:148] Top shape: 64 10 (640)
I0711 13:33:04.394183  1147 net.cpp:156] Memory required for data: 10741504
I0711 13:33:04.394192  1147 net.cpp:484] Sharing parameters 'ip2_w' owned by layer 'ip2', param index 0
I0711 13:33:04.394199  1147 net.cpp:484] Sharing parameters 'ip2_b' owned by layer 'ip2', param index 1
I0711 13:33:04.394206  1147 layer_factory.hpp:77] Creating layer feat_p
I0711 13:33:04.394217  1147 net.cpp:91] Creating Layer feat_p
I0711 13:33:04.394222  1147 net.cpp:425] feat_p <- ip2_p
I0711 13:33:04.394232  1147 net.cpp:399] feat_p -> feat_p
I0711 13:33:04.394354  1147 net.cpp:141] Setting up feat_p
I0711 13:33:04.394364  1147 net.cpp:148] Top shape: 64 2 (128)
I0711 13:33:04.394371  1147 net.cpp:156] Memory required for data: 10742016
I0711 13:33:04.394376  1147 net.cpp:484] Sharing parameters 'feat_w' owned by layer 'feat', param index 0
I0711 13:33:04.394382  1147 net.cpp:484] Sharing parameters 'feat_b' owned by layer 'feat', param index 1
I0711 13:33:04.394388  1147 layer_factory.hpp:77] Creating layer loss
I0711 13:33:04.394399  1147 net.cpp:91] Creating Layer loss
…
I0711 13:33:04.396311  1147 solver.cpp:181] Creating test net (#0) specified by net file: examples/siamese/mnist_siamese_train_test.prototxt
I0711 13:33:04.396375  1147 net.cpp:313] The NetState phase (1) differed from the phase (0) specified by a rule in layer pair_data
I0711 13:33:04.396632  1147 net.cpp:49] Initializing net from parameters: 
name: "mnist_siamese_train_test"
state {
  phase: TEST
}
layer {
  name: "pair_data"
  type: "Data"
  top: "pair_data"
  top: "sim"
  include {
    phase: TEST
  }
  transform_param {
    scale: 0.00390625
  }
  data_param {
    source: "examples/siamese/mnist_siamese_test_leveldb_0to9l"
    batch_size: 100
  }
}
layer {
  name: "slice_pair"
  type: "Slice"
  bottom: "pair_data"
  top: "data"
  top: "data_p"
  slice_param {
    slice_dim: 1
    slice_point: 1
  }
}
layer {
  name: "conv1"
  type: "Convolution"
  bottom: "data"
  top: "conv1"
  param {
    name: "conv1_w"
    lr_mult: 1
  }
  param {
    name: "conv1_b"
    lr_mult: 2
  }
  convolution_param {
    num_output: 20
    kernel_size: 5
    stride: 1
    weight_filler {
      type: "xavier"
    }
    bias_filler {
      type: "constant"
    }
  }
}
layer {
  name: "pool1"
  type: "Pooling"
  bottom: "conv1"
  top: "pool1"
  pooling_param {
    pool: MAX
    kernel_size: 2
    stride: 2
  }
}
layer {
  name: "conv2"
  type: "Convolution"
  bottom: "pool1"
  top: "conv2"
  param {
    name: "conv2_w"
    lr_mult: 1
  }
  param {
    name: "conv2_b"
    lr_mult: 2
  }
  convolution_param {
    num_output: 50
    kernel_size: 5
    stride: 1
    weight_filler {
      type: "xavier"
    }
    bias_filler {
      type: "constant"
    }
  }
}
layer {
  name: "pool2"
  type: "Pooling"
  bottom: "conv2"
  top: "pool2"
  pooling_param {
    pool: MAX
    kernel_size: 2
    stride: 2
  }
}
layer {
  name: "ip1"
  type: "InnerProduct"
  bottom: "pool2"
  top: "ip1"
  param {
    name: "ip1_w"
    lr_mult: 1
  }
  param {
    name: "ip1_b"
    lr_mult: 2
  }
  inner_product_param {
    num_output: 500
    weight_filler {
      type: "xavier"
    }
    bias_filler {
      type: "constant"
    }
  }
}
layer {
  name: "relu1"
  type: "ReLU"
  bottom: "ip1"
  top: "ip1"
}
layer {
  name: "ip2"
  type: "InnerProduct"
  bottom: "ip1"
  top: "ip2"
  param {
    name: "ip2_w"
    lr_mult: 1
  }
  param {
    name: "ip2_b"
    lr_mult: 2
  }
  inner_product_param {
    num_output: 10
    weight_filler {
      type: "xavier"
    }
    bias_filler {
      type: "constant"
    }
  }
}
layer {
  name: "feat"
  type: "InnerProduct"
  bottom: "ip2"
  top: "feat"
  param {
    name: "feat_w"
    lr_mult: 1
  }
  param {
    name: "feat_b"
    lr_mult: 2
  }
  inner_product_param {
    num_output: 2
    weight_filler {
      type: "xavier"
    }
    bias_filler {
      type: "constant"
    }
  }
}
layer {
  name: "conv1_p"
  type: "Convolution"
  bottom: "data_p"
  top: "conv1_p"
  param {
    name: "conv1_w"
    lr_mult: 1
  }
  param {
    name: "conv1_b"
    lr_mult: 2
  }
  convolution_param {
    num_output: 20
    kernel_size: 5
    stride: 1
    weight_filler {
      type: "xavier"
    }
    bias_filler {
      type: "constant"
    }
  }
}
layer {
  name: "pool1_p"
  type: "Pooling"
  bottom: "conv1_p"
  top: "pool1_p"
  pooling_param {
    pool: MAX
    kernel_size: 2
    stride: 2
  }
}
layer {
  name: "conv2_p"
  type: "Convolution"
  bottom: "pool1_p"
  top: "conv2_p"
  param {
    name: "conv2_w"
    lr_mult: 1
  }
  param {
    name: "conv2_b"
    lr_mult: 2
  }
  convolution_param {
    num_output: 50
    kernel_size: 5
    stride: 1
    weight_filler {
      type: "xavier"
    }
    bias_filler {
      type: "constant"
    }
  }
}
layer {
  name: "pool2_p"
  type: "Pooling"
  bottom: "conv2_p"
  top: "pool2_p"
  pooling_param {
    pool: MAX
    kernel_size: 2
    stride: 2
  }
}
layer {
  name: "ip1_p"
  type: "InnerProduct"
  bottom: "pool2_p"
  top: "ip1_p"
  param {
    name: "ip1_w"
    lr_mult: 1
  }
  param {
    name: "ip1_b"
    lr_mult: 2
  }
  inner_product_param {
    num_output: 500
    weight_filler {
      type: "xavier"
    }
    bias_filler {
      type: "constant"
    }
  }
}
layer {
  name: "relu1_p"
  type: "ReLU"
  bottom: "ip1_p"
  top: "ip1_p"
}
layer {
  name: "ip2_p"
  type: "InnerProduct"
  bottom: "ip1_p"
  top: "ip2_p"
  param {
    name: "ip2_w"
    lr_mult: 1
  }
  param {
    name: "ip2_b"
    lr_mult: 2
  }
  inner_product_param {
    num_output: 10
    weight_filler {
      type: "xavier"
    }
    bias_filler {
      type: "constant"
    }
  }
}
layer {
  name: "feat_p"
  type: "InnerProduct"
  bottom: "ip2_p"
  top: "feat_p"
  param {
    name: "feat_w"
    lr_mult: 1
  }
  param {
    name: "feat_b"
    lr_mult: 2
  }
  inner_product_param {
    num_output: 2
    weight_filler {
      type: "xavier"
    }
    bias_filler {
      type: "constant"
    }
  }
}
layer {
  name: "loss"
  type: "ContrastiveLoss"
  bottom: "feat"
  bottom: "feat_p"
  bottom: "sim"
  top: "loss"
  contrastive_loss_param {
    margin: 1
  }
}
I0711 13:33:04.396754  1147 layer_factory.hpp:77] Creating layer pair_data
I0711 13:33:04.396901  1147 net.cpp:91] Creating Layer pair_data
I0711 13:33:04.396914  1147 net.cpp:399] pair_data -> pair_data
I0711 13:33:04.396929  1147 net.cpp:399] pair_data -> sim
I0711 13:33:04.632593  1155 db_leveldb.cpp:18] Opened leveldb examples/siamese/mnist_siamese_test_leveldb_0to9l
I0711 13:33:04.633591  1147 data_layer.cpp:41] output data size: 100,2,28,28
I0711 13:33:04.638383  1147 net.cpp:141] Setting up pair_data
I0711 13:33:04.638439  1147 net.cpp:148] Top shape: 100 2 28 28 (156800)
I0711 13:33:04.638470  1147 net.cpp:148] Top shape: 100 (100)
I0711 13:33:04.638489  1147 net.cpp:156] Memory required for data: 627600
I0711 13:33:04.638514  1147 layer_factory.hpp:77] Creating layer slice_pair
I0711 13:33:04.638556  1147 net.cpp:91] Creating Layer slice_pair
I0711 13:33:04.638577  1147 net.cpp:425] slice_pair <- pair_data
I0711 13:33:04.638607  1147 net.cpp:399] slice_pair -> data
I0711 13:33:04.638653  1147 net.cpp:399] slice_pair -> data_p
I0711 13:33:04.638872  1147 net.cpp:141] Setting up slice_pair
I0711 13:33:04.638903  1147 net.cpp:148] Top shape: 100 1 28 28 (78400)
I0711 13:33:04.638927  1147 net.cpp:148] Top shape: 100 1 28 28 (78400)
I0711 13:33:04.638947  1147 net.cpp:156] Memory required for data: 1254800
I0711 13:33:04.638965  1147 layer_factory.hpp:77] Creating layer conv1
I0711 13:33:04.639017  1147 net.cpp:91] Creating Layer conv1
I0711 13:33:04.639037  1147 net.cpp:425] conv1 <- data
I0711 13:33:04.639075  1147 net.cpp:399] conv1 -> conv1
I0711 13:33:04.639991  1147 net.cpp:141] Setting up conv1
I0711 13:33:04.640023  1147 net.cpp:148] Top shape: 100 20 24 24 (1152000)
I0711 13:33:04.640043  1147 net.cpp:156] Memory required for data: 5862800
I0711 13:33:04.640082  1147 layer_factory.hpp:77] Creating layer pool1
I0711 13:33:04.640112  1147 net.cpp:91] Creating Layer pool1
I0711 13:33:04.640132  1147 net.cpp:425] pool1 <- conv1
I0711 13:33:04.640168  1147 net.cpp:399] pool1 -> pool1
I0711 13:33:04.640372  1147 net.cpp:141] Setting up pool1
I0711 13:33:04.640400  1147 net.cpp:148] Top shape: 100 20 12 12 (288000)
I0711 13:33:04.640420  1147 net.cpp:156] Memory required for data: 7014800
I0711 13:33:04.640440  1147 layer_factory.hpp:77] Creating layer conv2
I0711 13:33:04.640548  1147 net.cpp:91] Creating Layer conv2
I0711 13:33:04.640578  1147 net.cpp:425] conv2 <- pool1
I0711 13:33:04.640610  1147 net.cpp:399] conv2 -> conv2
I0711 13:33:04.641959  1147 net.cpp:141] Setting up conv2
I0711 13:33:04.641989  1147 net.cpp:148] Top shape: 100 50 8 8 (320000)
I0711 13:33:04.642009  1147 net.cpp:156] Memory required for data: 8294800
I0711 13:33:04.642042  1147 layer_factory.hpp:77] Creating layer pool2
I0711 13:33:04.642077  1147 net.cpp:91] Creating Layer pool2
I0711 13:33:04.642098  1147 net.cpp:425] pool2 <- conv2
I0711 13:33:04.642127  1147 net.cpp:399] pool2 -> pool2
I0711 13:33:04.642271  1147 net.cpp:141] Setting up pool2
I0711 13:33:04.642300  1147 net.cpp:148] Top shape: 100 50 4 4 (80000)
I0711 13:33:04.642319  1147 net.cpp:156] Memory required for data: 8614800
I0711 13:33:04.642338  1147 layer_factory.hpp:77] Creating layer ip1
I0711 13:33:04.642374  1147 net.cpp:91] Creating Layer ip1
I0711 13:33:04.642402  1147 net.cpp:425] ip1 <- pool2
I0711 13:33:04.642438  1147 net.cpp:399] ip1 -> ip1
I0711 13:33:04.650866  1147 net.cpp:141] Setting up ip1
I0711 13:33:04.650890  1147 net.cpp:148] Top shape: 100 500 (50000)
I0711 13:33:04.650897  1147 net.cpp:156] Memory required for data: 8814800
I0711 13:33:04.650919  1147 layer_factory.hpp:77] Creating layer relu1
I0711 13:33:04.650933  1147 net.cpp:91] Creating Layer relu1
I0711 13:33:04.650943  1147 net.cpp:425] relu1 <- ip1
I0711 13:33:04.650956  1147 net.cpp:386] relu1 -> ip1 (in-place)
I0711 13:33:04.650971  1147 net.cpp:141] Setting up relu1
I0711 13:33:04.650981  1147 net.cpp:148] Top shape: 100 500 (50000)
I0711 13:33:04.650988  1147 net.cpp:156] Memory required for data: 9014800
I0711 13:33:04.650996  1147 layer_factory.hpp:77] Creating layer ip2
I0711 13:33:04.651012  1147 net.cpp:91] Creating Layer ip2
I0711 13:33:04.651020  1147 net.cpp:425] ip2 <- ip1
I0711 13:33:04.651033  1147 net.cpp:399] ip2 -> ip2
I0711 13:33:04.651233  1147 net.cpp:141] Setting up ip2
I0711 13:33:04.651247  1147 net.cpp:148] Top shape: 100 10 (1000)
I0711 13:33:04.651255  1147 net.cpp:156] Memory required for data: 9018800
I0711 13:33:04.651265  1147 layer_factory.hpp:77] Creating layer feat
I0711 13:33:04.651281  1147 net.cpp:91] Creating Layer feat
I0711 13:33:04.651288  1147 net.cpp:425] feat <- ip2
I0711 13:33:04.651304  1147 net.cpp:399] feat -> feat
I0711 13:33:04.651442  1147 net.cpp:141] Setting up feat
I0711 13:33:04.651453  1147 net.cpp:148] Top shape: 100 2 (200)
I0711 13:33:04.651461  1147 net.cpp:156] Memory required for data: 9019600
I0711 13:33:04.651475  1147 layer_factory.hpp:77] Creating layer conv1_p
I0711 13:33:04.651494  1147 net.cpp:91] Creating Layer conv1_p
I0711 13:33:04.651504  1147 net.cpp:425] conv1_p <- data_p
I0711 13:33:04.651515  1147 net.cpp:399] conv1_p -> conv1_p
I0711 13:33:04.651829  1147 net.cpp:141] Setting up conv1_p
I0711 13:33:04.651840  1147 net.cpp:148] Top shape: 100 20 24 24 (1152000)
I0711 13:33:04.651847  1147 net.cpp:156] Memory required for data: 13627600
I0711 13:33:04.651855  1147 net.cpp:484] Sharing parameters 'conv1_w' owned by layer 'conv1', param index 0
I0711 13:33:04.651865  1147 net.cpp:484] Sharing parameters 'conv1_b' owned by layer 'conv1', param index 1
I0711 13:33:04.651872  1147 layer_factory.hpp:77] Creating layer pool1_p
I0711 13:33:04.651883  1147 net.cpp:91] Creating Layer pool1_p
I0711 13:33:04.651890  1147 net.cpp:425] pool1_p <- conv1_p
I0711 13:33:04.651904  1147 net.cpp:399] pool1_p -> pool1_p
I0711 13:33:04.651963  1147 net.cpp:141] Setting up pool1_p
I0711 13:33:04.651983  1147 net.cpp:148] Top shape: 100 20 12 12 (288000)
I0711 13:33:04.651991  1147 net.cpp:156] Memory required for data: 14779600
I0711 13:33:04.651998  1147 layer_factory.hpp:77] Creating layer conv2_p
I0711 13:33:04.652015  1147 net.cpp:91] Creating Layer conv2_p
I0711 13:33:04.652024  1147 net.cpp:425] conv2_p <- pool1_p
I0711 13:33:04.652035  1147 net.cpp:399] conv2_p -> conv2_p
I0711 13:33:04.652545  1147 net.cpp:141] Setting up conv2_p
I0711 13:33:04.652556  1147 net.cpp:148] Top shape: 100 50 8 8 (320000)
I0711 13:33:04.652583  1147 net.cpp:156] Memory required for data: 16059600
I0711 13:33:04.652591  1147 net.cpp:484] Sharing parameters 'conv2_w' owned by layer 'conv2', param index 0
I0711 13:33:04.652601  1147 net.cpp:484] Sharing parameters 'conv2_b' owned by layer 'conv2', param index 1
I0711 13:33:04.652608  1147 layer_factory.hpp:77] Creating layer pool2_p
I0711 13:33:04.652623  1147 net.cpp:91] Creating Layer pool2_p
I0711 13:33:04.652631  1147 net.cpp:425] pool2_p <- conv2_p
I0711 13:33:04.652640  1147 net.cpp:399] pool2_p -> pool2_p
I0711 13:33:04.652698  1147 net.cpp:141] Setting up pool2_p
I0711 13:33:04.652709  1147 net.cpp:148] Top shape: 100 50 4 4 (80000)
I0711 13:33:04.652719  1147 net.cpp:156] Memory required for data: 16379600
I0711 13:33:04.652725  1147 layer_factory.hpp:77] Creating layer ip1_p
I0711 13:33:04.652740  1147 net.cpp:91] Creating Layer ip1_p
I0711 13:33:04.652746  1147 net.cpp:425] ip1_p <- pool2_p
I0711 13:33:04.652758  1147 net.cpp:399] ip1_p -> ip1_p
I0711 13:33:04.656833  1147 net.cpp:141] Setting up ip1_p
I0711 13:33:04.656855  1147 net.cpp:148] Top shape: 100 500 (50000)
I0711 13:33:04.656862  1147 net.cpp:156] Memory required for data: 16579600
I0711 13:33:04.656869  1147 net.cpp:484] Sharing parameters 'ip1_w' owned by layer 'ip1', param index 0
I0711 13:33:04.656877  1147 net.cpp:484] Sharing parameters 'ip1_b' owned by layer 'ip1', param index 1
I0711 13:33:04.656883  1147 layer_factory.hpp:77] Creating layer relu1_p
I0711 13:33:04.656893  1147 net.cpp:91] Creating Layer relu1_p
I0711 13:33:04.656898  1147 net.cpp:425] relu1_p <- ip1_p
I0711 13:33:04.656909  1147 net.cpp:386] relu1_p -> ip1_p (in-place)
I0711 13:33:04.656919  1147 net.cpp:141] Setting up relu1_p
I0711 13:33:04.656926  1147 net.cpp:148] Top shape: 100 500 (50000)
I0711 13:33:04.656932  1147 net.cpp:156] Memory required for data: 16779600
I0711 13:33:04.656937  1147 layer_factory.hpp:77] Creating layer ip2_p
I0711 13:33:04.656950  1147 net.cpp:91] Creating Layer ip2_p
I0711 13:33:04.656955  1147 net.cpp:425] ip2_p <- ip1_p
I0711 13:33:04.656966  1147 net.cpp:399] ip2_p -> ip2_p
I0711 13:33:04.657137  1147 net.cpp:141] Setting up ip2_p
I0711 13:33:04.657147  1147 net.cpp:148] Top shape: 100 10 (1000)
I0711 13:33:04.657153  1147 net.cpp:156] Memory required for data: 16783600
I0711 13:33:04.657162  1147 net.cpp:484] Sharing parameters 'ip2_w' owned by layer 'ip2', param index 0
I0711 13:33:04.657169  1147 net.cpp:484] Sharing parameters 'ip2_b' owned by layer 'ip2', param index 1
I0711 13:33:04.657176  1147 layer_factory.hpp:77] Creating layer feat_p
I0711 13:33:04.657186  1147 net.cpp:91] Creating Layer feat_p
I0711 13:33:04.657192  1147 net.cpp:425] feat_p <- ip2_p
I0711 13:33:04.657202  1147 net.cpp:399] feat_p -> feat_p
I0711 13:33:04.657328  1147 net.cpp:141] Setting up feat_p
I0711 13:33:04.657338  1147 net.cpp:148] Top shape: 100 2 (200)
I0711 13:33:04.657343  1147 net.cpp:156] Memory required for data: 16784400
I0711 13:33:04.657349  1147 net.cpp:484] Sharing parameters 'feat_w' owned by layer 'feat', param index 0
I0711 13:33:04.657356  1147 net.cpp:484] Sharing parameters 'feat_b' owned by layer 'feat', param index 1
I0711 13:33:04.657362  1147 layer_factory.hpp:77] Creating layer loss
I0711 13:33:04.657373  1147 net.cpp:91] Creating Layer loss
…
