…
I0718 14:18:14.316807  8422 net.cpp:313] The NetState phase (0) differed from the phase (1) specified by a rule in layer pair_data
I0718 14:18:14.316869  8422 net.cpp:313] The NetState phase (0) differed from the phase (1) specified by a rule in layer accuracy
I0718 14:18:14.317160  8422 net.cpp:49] Initializing net from parameters: 
name: "mnist_siamese_train_test_sim"
state {
  phase: TRAIN
}
layer {
  name: "pair_data"
  type: "Data"
  top: "pair_data"
  top: "label"
  include {
    phase: TRAIN
  }
  transform_param {
    scale: 0.00130208
  }
  data_param {
    source: "examples/scene/train_pairs.lmdb"
    batch_size: 32
    backend: LMDB
  }
}
layer {
  name: "slice_pair"
  type: "Slice"
  bottom: "pair_data"
  top: "data"
  top: "data_p"
  slice_param {
    slice_dim: 1
    slice_point: 3
  }
}
layer {
  name: "conv1"
  type: "Convolution"
  bottom: "data"
  top: "conv1"
  param {
    name: "conv1_w"
    lr_mult: 1
  }
  param {
    name: "conv1_b"
    lr_mult: 2
  }
  convolution_param {
    num_output: 20
    kernel_size: 5
    stride: 1
    weight_filler {
      type: "xavier"
    }
    bias_filler {
      type: "constant"
    }
  }
}
layer {
  name: "pool1"
  type: "Pooling"
  bottom: "conv1"
  top: "pool1"
  pooling_param {
    pool: MAX
    kernel_size: 2
    stride: 2
  }
}
layer {
  name: "conv2"
  type: "Convolution"
  bottom: "pool1"
  top: "conv2"
  param {
    name: "conv2_w"
    lr_mult: 1
  }
  param {
    name: "conv2_b"
    lr_mult: 2
  }
  convolution_param {
    num_output: 50
    kernel_size: 5
    stride: 1
    weight_filler {
      type: "xavier"
    }
    bias_filler {
      type: "constant"
    }
  }
}
layer {
  name: "pool2"
  type: "Pooling"
  bottom: "conv2"
  top: "pool2"
  pooling_param {
    pool: MAX
    kernel_size: 2
    stride: 2
  }
}
layer {
  name: "ip1"
  type: "InnerProduct"
  bottom: "pool2"
  top: "ip1"
  param {
    name: "ip1_w"
    lr_mult: 1
  }
  param {
    name: "ip1_b"
    lr_mult: 2
  }
  inner_product_param {
    num_output: 500
    weight_filler {
      type: "xavier"
    }
    bias_filler {
      type: "constant"
    }
  }
}
layer {
  name: "relu1"
  type: "ReLU"
  bottom: "ip1"
  top: "ip1"
}
layer {
  name: "ip2"
  type: "InnerProduct"
  bottom: "ip1"
  top: "ip2"
  param {
    name: "ip2_w"
    lr_mult: 1
  }
  param {
    name: "ip2_b"
    lr_mult: 2
  }
  inner_product_param {
    num_output: 10
    weight_filler {
      type: "xavier"
    }
    bias_filler {
      type: "constant"
    }
  }
}
layer {
  name: "feat"
  type: "InnerProduct"
  bottom: "ip2"
  top: "feat"
  param {
    name: "feat_w"
    lr_mult: 1
  }
  param {
    name: "feat_b"
    lr_mult: 2
  }
  inner_product_param {
    num_output: 2
    weight_filler {
      type: "xavier"
    }
    bias_filler {
      type: "constant"
    }
  }
}
layer {
  name: "conv1_p"
  type: "Convolution"
  bottom: "data_p"
  top: "conv1_p"
  param {
    name: "conv1_w"
    lr_mult: 1
  }
  param {
    name: "conv1_b"
    lr_mult: 2
  }
  convolution_param {
    num_output: 20
    kernel_size: 5
    stride: 1
    weight_filler {
      type: "xavier"
    }
    bias_filler {
      type: "constant"
    }
  }
}
layer {
  name: "pool1_p"
  type: "Pooling"
  bottom: "conv1_p"
  top: "pool1_p"
  pooling_param {
    pool: MAX
    kernel_size: 2
    stride: 2
  }
}
layer {
  name: "conv2_p"
  type: "Convolution"
  bottom: "pool1_p"
  top: "conv2_p"
  param {
    name: "conv2_w"
    lr_mult: 1
  }
  param {
    name: "conv2_b"
    lr_mult: 2
  }
  convolution_param {
    num_output: 50
    kernel_size: 5
    stride: 1
    weight_filler {
      type: "xavier"
    }
    bias_filler {
      type: "constant"
    }
  }
}
layer {
  name: "pool2_p"
  type: "Pooling"
  bottom: "conv2_p"
  top: "pool2_p"
  pooling_param {
    pool: MAX
    kernel_size: 2
    stride: 2
  }
}
layer {
  name: "ip1_p"
  type: "InnerProduct"
  bottom: "pool2_p"
  top: "ip1_p"
  param {
    name: "ip1_w"
    lr_mult: 1
  }
  param {
    name: "ip1_b"
    lr_mult: 2
  }
  inner_product_param {
    num_output: 500
    weight_filler {
      type: "xavier"
    }
    bias_filler {
      type: "constant"
    }
  }
}
layer {
  name: "relu1_p"
  type: "ReLU"
  bottom: "ip1_p"
  top: "ip1_p"
}
layer {
  name: "ip2_p"
  type: "InnerProduct"
  bottom: "ip1_p"
  top: "ip2_p"
  param {
    name: "ip2_w"
    lr_mult: 1
  }
  param {
    name: "ip2_b"
    lr_mult: 2
  }
  inner_product_param {
    num_output: 10
    weight_filler {
      type: "xavier"
    }
    bias_filler {
      type: "constant"
    }
  }
}
layer {
  name: "feat_p"
  type: "InnerProduct"
  bottom: "ip2_p"
  top: "feat_p"
  param {
    name: "feat_w"
    lr_mult: 1
  }
  param {
    name: "feat_b"
    lr_mult: 2
  }
  inner_product_param {
    num_output: 2
    weight_filler {
      type: "xavier"
    }
    bias_filler {
      type: "constant"
    }
  }
}
layer {
  name: "concat"
  type: "Concat"
  bottom: "feat"
  bottom: "feat_p"
  top: "comb"
  concat_param {
    axis: 1
  }
}
layer {
  name: "fc1"
  type: "InnerProduct"
  bottom: "comb"
  top: "fc1"
  param {
    name: "fc1_w"
    lr_mult: 1
  }
  param {
    name: "fc1_b"
    lr_mult: 2
  }
  inner_product_param {
    num_output: 100
    weight_filler {
      type: "xavier"
    }
    bias_filler {
      type: "constant"
    }
  }
}
layer {
  name: "relu1_fc1"
  type: "ReLU"
  bottom: "fc1"
  top: "fc1"
}
layer {
  name: "fc2"
  type: "InnerProduct"
  bottom: "fc1"
  top: "fc2"
  param {
    name: "fc2_w"
    lr_mult: 1
  }
  param {
    name: "fc2_b"
    lr_mult: 2
  }
  inner_product_param {
    num_output: 50
    weight_filler {
      type: "xavier"
    }
    bias_filler {
      type: "constant"
    }
  }
}
layer {
  name: "relu2_fc2"
  type: "ReLU"
  bottom: "fc2"
  top: "fc2"
}
layer {
  name: "fc3"
  type: "InnerProduct"
  bottom: "fc2"
  top: "fc3"
  param {
    name: "fc3_w"
    lr_mult: 1
  }
  param {
    name: "fc3_b"
    lr_mult: 2
  }
  inner_product_param {
    num_output: 2
    weight_filler {
      type: "xavier"
    }
    bias_filler {
      type: "constant"
    }
  }
}
layer {
  name: "loss"
  type: "SoftmaxWithLoss"
  bottom: "fc3"
  bottom: "label"
  top: "loss"
}
I0718 14:18:14.317387  8422 layer_factory.hpp:77] Creating layer pair_data
I0718 14:18:14.319411  8422 net.cpp:91] Creating Layer pair_data
I0718 14:18:14.319429  8422 net.cpp:399] pair_data -> pair_data
I0718 14:18:14.319468  8422 net.cpp:399] pair_data -> label
I0718 14:18:14.356391  8428 db_lmdb.cpp:35] Opened lmdb examples/scene/train_pairs.lmdb
I0718 14:18:14.414126  8422 data_layer.cpp:41] output data size: 32,6,128,128
I0718 14:18:14.447804  8422 net.cpp:141] Setting up pair_data
I0718 14:18:14.447849  8422 net.cpp:148] Top shape: 32 6 128 128 (3145728)
I0718 14:18:14.447860  8422 net.cpp:148] Top shape: 32 (32)
I0718 14:18:14.447866  8422 net.cpp:156] Memory required for data: 12583040
I0718 14:18:14.447883  8422 layer_factory.hpp:77] Creating layer slice_pair
I0718 14:18:14.447908  8422 net.cpp:91] Creating Layer slice_pair
I0718 14:18:14.447917  8422 net.cpp:425] slice_pair <- pair_data
I0718 14:18:14.447937  8422 net.cpp:399] slice_pair -> data
I0718 14:18:14.447954  8422 net.cpp:399] slice_pair -> data_p
I0718 14:18:14.448068  8422 net.cpp:141] Setting up slice_pair
I0718 14:18:14.448081  8422 net.cpp:148] Top shape: 32 3 128 128 (1572864)
I0718 14:18:14.448088  8422 net.cpp:148] Top shape: 32 3 128 128 (1572864)
I0718 14:18:14.448094  8422 net.cpp:156] Memory required for data: 25165952
I0718 14:18:14.448099  8422 layer_factory.hpp:77] Creating layer conv1
I0718 14:18:14.448120  8422 net.cpp:91] Creating Layer conv1
I0718 14:18:14.448127  8422 net.cpp:425] conv1 <- data
I0718 14:18:14.448161  8422 net.cpp:399] conv1 -> conv1
I0718 14:18:14.450013  8422 net.cpp:141] Setting up conv1
I0718 14:18:14.450033  8422 net.cpp:148] Top shape: 32 20 124 124 (9840640)
I0718 14:18:14.450039  8422 net.cpp:156] Memory required for data: 64528512
I0718 14:18:14.450057  8422 layer_factory.hpp:77] Creating layer pool1
I0718 14:18:14.450073  8422 net.cpp:91] Creating Layer pool1
I0718 14:18:14.450078  8422 net.cpp:425] pool1 <- conv1
I0718 14:18:14.450088  8422 net.cpp:399] pool1 -> pool1
I0718 14:18:14.450146  8422 net.cpp:141] Setting up pool1
I0718 14:18:14.450156  8422 net.cpp:148] Top shape: 32 20 62 62 (2460160)
I0718 14:18:14.450162  8422 net.cpp:156] Memory required for data: 74369152
I0718 14:18:14.450168  8422 layer_factory.hpp:77] Creating layer conv2
I0718 14:18:14.450182  8422 net.cpp:91] Creating Layer conv2
I0718 14:18:14.450191  8422 net.cpp:425] conv2 <- pool1
I0718 14:18:14.450201  8422 net.cpp:399] conv2 -> conv2
I0718 14:18:14.453227  8422 net.cpp:141] Setting up conv2
I0718 14:18:14.453248  8422 net.cpp:148] Top shape: 32 50 58 58 (5382400)
I0718 14:18:14.453254  8422 net.cpp:156] Memory required for data: 95898752
I0718 14:18:14.453268  8422 layer_factory.hpp:77] Creating layer pool2
I0718 14:18:14.453279  8422 net.cpp:91] Creating Layer pool2
I0718 14:18:14.453284  8422 net.cpp:425] pool2 <- conv2
I0718 14:18:14.453294  8422 net.cpp:399] pool2 -> pool2
I0718 14:18:14.453347  8422 net.cpp:141] Setting up pool2
I0718 14:18:14.453359  8422 net.cpp:148] Top shape: 32 50 29 29 (1345600)
I0718 14:18:14.453366  8422 net.cpp:156] Memory required for data: 101281152
I0718 14:18:14.453372  8422 layer_factory.hpp:77] Creating layer ip1
I0718 14:18:14.453383  8422 net.cpp:91] Creating Layer ip1
I0718 14:18:14.453390  8422 net.cpp:425] ip1 <- pool2
I0718 14:18:14.453399  8422 net.cpp:399] ip1 -> ip1
I0718 14:18:14.666187  8422 net.cpp:141] Setting up ip1
I0718 14:18:14.666235  8422 net.cpp:148] Top shape: 32 500 (16000)
I0718 14:18:14.666242  8422 net.cpp:156] Memory required for data: 101345152
I0718 14:18:14.666261  8422 layer_factory.hpp:77] Creating layer relu1
I0718 14:18:14.666285  8422 net.cpp:91] Creating Layer relu1
I0718 14:18:14.666291  8422 net.cpp:425] relu1 <- ip1
I0718 14:18:14.666301  8422 net.cpp:386] relu1 -> ip1 (in-place)
I0718 14:18:14.666316  8422 net.cpp:141] Setting up relu1
I0718 14:18:14.666324  8422 net.cpp:148] Top shape: 32 500 (16000)
I0718 14:18:14.666330  8422 net.cpp:156] Memory required for data: 101409152
I0718 14:18:14.666335  8422 layer_factory.hpp:77] Creating layer ip2
I0718 14:18:14.666349  8422 net.cpp:91] Creating Layer ip2
I0718 14:18:14.666355  8422 net.cpp:425] ip2 <- ip1
I0718 14:18:14.666365  8422 net.cpp:399] ip2 -> ip2
I0718 14:18:14.666543  8422 net.cpp:141] Setting up ip2
I0718 14:18:14.666553  8422 net.cpp:148] Top shape: 32 10 (320)
I0718 14:18:14.666558  8422 net.cpp:156] Memory required for data: 101410432
I0718 14:18:14.666566  8422 layer_factory.hpp:77] Creating layer feat
I0718 14:18:14.666580  8422 net.cpp:91] Creating Layer feat
I0718 14:18:14.666586  8422 net.cpp:425] feat <- ip2
I0718 14:18:14.666595  8422 net.cpp:399] feat -> feat
I0718 14:18:14.666718  8422 net.cpp:141] Setting up feat
I0718 14:18:14.666728  8422 net.cpp:148] Top shape: 32 2 (64)
I0718 14:18:14.666733  8422 net.cpp:156] Memory required for data: 101410688
I0718 14:18:14.666745  8422 layer_factory.hpp:77] Creating layer conv1_p
I0718 14:18:14.666759  8422 net.cpp:91] Creating Layer conv1_p
I0718 14:18:14.666764  8422 net.cpp:425] conv1_p <- data_p
I0718 14:18:14.666774  8422 net.cpp:399] conv1_p -> conv1_p
I0718 14:18:14.667109  8422 net.cpp:141] Setting up conv1_p
I0718 14:18:14.667119  8422 net.cpp:148] Top shape: 32 20 124 124 (9840640)
I0718 14:18:14.667124  8422 net.cpp:156] Memory required for data: 140773248
I0718 14:18:14.667130  8422 net.cpp:484] Sharing parameters 'conv1_w' owned by layer 'conv1', param index 0
I0718 14:18:14.667140  8422 net.cpp:484] Sharing parameters 'conv1_b' owned by layer 'conv1', param index 1
I0718 14:18:14.667174  8422 layer_factory.hpp:77] Creating layer pool1_p
I0718 14:18:14.667183  8422 net.cpp:91] Creating Layer pool1_p
I0718 14:18:14.667189  8422 net.cpp:425] pool1_p <- conv1_p
I0718 14:18:14.667198  8422 net.cpp:399] pool1_p -> pool1_p
I0718 14:18:14.667245  8422 net.cpp:141] Setting up pool1_p
I0718 14:18:14.667254  8422 net.cpp:148] Top shape: 32 20 62 62 (2460160)
I0718 14:18:14.667260  8422 net.cpp:156] Memory required for data: 150613888
I0718 14:18:14.667266  8422 layer_factory.hpp:77] Creating layer conv2_p
I0718 14:18:14.667278  8422 net.cpp:91] Creating Layer conv2_p
I0718 14:18:14.667284  8422 net.cpp:425] conv2_p <- pool1_p
I0718 14:18:14.667292  8422 net.cpp:399] conv2_p -> conv2_p
I0718 14:18:14.667803  8422 net.cpp:141] Setting up conv2_p
I0718 14:18:14.667814  8422 net.cpp:148] Top shape: 32 50 58 58 (5382400)
I0718 14:18:14.667819  8422 net.cpp:156] Memory required for data: 172143488
I0718 14:18:14.667826  8422 net.cpp:484] Sharing parameters 'conv2_w' owned by layer 'conv2', param index 0
I0718 14:18:14.667834  8422 net.cpp:484] Sharing parameters 'conv2_b' owned by layer 'conv2', param index 1
I0718 14:18:14.667840  8422 layer_factory.hpp:77] Creating layer pool2_p
I0718 14:18:14.667847  8422 net.cpp:91] Creating Layer pool2_p
I0718 14:18:14.667853  8422 net.cpp:425] pool2_p <- conv2_p
I0718 14:18:14.667861  8422 net.cpp:399] pool2_p -> pool2_p
I0718 14:18:14.667904  8422 net.cpp:141] Setting up pool2_p
I0718 14:18:14.667912  8422 net.cpp:148] Top shape: 32 50 29 29 (1345600)
I0718 14:18:14.667917  8422 net.cpp:156] Memory required for data: 177525888
I0718 14:18:14.667923  8422 layer_factory.hpp:77] Creating layer ip1_p
I0718 14:18:14.667932  8422 net.cpp:91] Creating Layer ip1_p
I0718 14:18:14.667937  8422 net.cpp:425] ip1_p <- pool2_p
I0718 14:18:14.667948  8422 net.cpp:399] ip1_p -> ip1_p
I0718 14:18:14.871264  8422 net.cpp:141] Setting up ip1_p
I0718 14:18:14.871304  8422 net.cpp:148] Top shape: 32 500 (16000)
I0718 14:18:14.871314  8422 net.cpp:156] Memory required for data: 177589888
I0718 14:18:14.871325  8422 net.cpp:484] Sharing parameters 'ip1_w' owned by layer 'ip1', param index 0
I0718 14:18:14.871333  8422 net.cpp:484] Sharing parameters 'ip1_b' owned by layer 'ip1', param index 1
I0718 14:18:14.871340  8422 layer_factory.hpp:77] Creating layer relu1_p
I0718 14:18:14.871353  8422 net.cpp:91] Creating Layer relu1_p
I0718 14:18:14.871361  8422 net.cpp:425] relu1_p <- ip1_p
I0718 14:18:14.871371  8422 net.cpp:386] relu1_p -> ip1_p (in-place)
I0718 14:18:14.871384  8422 net.cpp:141] Setting up relu1_p
I0718 14:18:14.871392  8422 net.cpp:148] Top shape: 32 500 (16000)
I0718 14:18:14.871397  8422 net.cpp:156] Memory required for data: 177653888
I0718 14:18:14.871403  8422 layer_factory.hpp:77] Creating layer ip2_p
I0718 14:18:14.871419  8422 net.cpp:91] Creating Layer ip2_p
I0718 14:18:14.871425  8422 net.cpp:425] ip2_p <- ip1_p
I0718 14:18:14.871435  8422 net.cpp:399] ip2_p -> ip2_p
I0718 14:18:14.871613  8422 net.cpp:141] Setting up ip2_p
I0718 14:18:14.871625  8422 net.cpp:148] Top shape: 32 10 (320)
I0718 14:18:14.871631  8422 net.cpp:156] Memory required for data: 177655168
I0718 14:18:14.871642  8422 net.cpp:484] Sharing parameters 'ip2_w' owned by layer 'ip2', param index 0
I0718 14:18:14.871650  8422 net.cpp:484] Sharing parameters 'ip2_b' owned by layer 'ip2', param index 1
I0718 14:18:14.871656  8422 layer_factory.hpp:77] Creating layer feat_p
I0718 14:18:14.871665  8422 net.cpp:91] Creating Layer feat_p
I0718 14:18:14.871670  8422 net.cpp:425] feat_p <- ip2_p
I0718 14:18:14.871682  8422 net.cpp:399] feat_p -> feat_p
I0718 14:18:14.871820  8422 net.cpp:141] Setting up feat_p
I0718 14:18:14.871831  8422 net.cpp:148] Top shape: 32 2 (64)
I0718 14:18:14.871836  8422 net.cpp:156] Memory required for data: 177655424
I0718 14:18:14.871843  8422 net.cpp:484] Sharing parameters 'feat_w' owned by layer 'feat', param index 0
I0718 14:18:14.871850  8422 net.cpp:484] Sharing parameters 'feat_b' owned by layer 'feat', param index 1
I0718 14:18:14.871856  8422 layer_factory.hpp:77] Creating layer concat
I0718 14:18:14.871909  8422 net.cpp:91] Creating Layer concat
I0718 14:18:14.871917  8422 net.cpp:425] concat <- feat
I0718 14:18:14.871923  8422 net.cpp:425] concat <- feat_p
I0718 14:18:14.871932  8422 net.cpp:399] concat -> comb
I0718 14:18:14.871964  8422 net.cpp:141] Setting up concat
I0718 14:18:14.871975  8422 net.cpp:148] Top shape: 32 4 (128)
I0718 14:18:14.871981  8422 net.cpp:156] Memory required for data: 177655936
I0718 14:18:14.871987  8422 layer_factory.hpp:77] Creating layer fc1
I0718 14:18:14.871996  8422 net.cpp:91] Creating Layer fc1
I0718 14:18:14.872001  8422 net.cpp:425] fc1 <- comb
I0718 14:18:14.872011  8422 net.cpp:399] fc1 -> fc1
I0718 14:18:14.872138  8422 net.cpp:141] Setting up fc1
I0718 14:18:14.872148  8422 net.cpp:148] Top shape: 32 100 (3200)
I0718 14:18:14.872154  8422 net.cpp:156] Memory required for data: 177668736
I0718 14:18:14.872162  8422 layer_factory.hpp:77] Creating layer relu1_fc1
I0718 14:18:14.872170  8422 net.cpp:91] Creating Layer relu1_fc1
I0718 14:18:14.872175  8422 net.cpp:425] relu1_fc1 <- fc1
I0718 14:18:14.872184  8422 net.cpp:386] relu1_fc1 -> fc1 (in-place)
I0718 14:18:14.872194  8422 net.cpp:141] Setting up relu1_fc1
I0718 14:18:14.872200  8422 net.cpp:148] Top shape: 32 100 (3200)
I0718 14:18:14.872205  8422 net.cpp:156] Memory required for data: 177681536
I0718 14:18:14.872211  8422 layer_factory.hpp:77] Creating layer fc2
I0718 14:18:14.872220  8422 net.cpp:91] Creating Layer fc2
I0718 14:18:14.872226  8422 net.cpp:425] fc2 <- fc1
I0718 14:18:14.872236  8422 net.cpp:399] fc2 -> fc2
I0718 14:18:14.872401  8422 net.cpp:141] Setting up fc2
I0718 14:18:14.872411  8422 net.cpp:148] Top shape: 32 50 (1600)
I0718 14:18:14.872417  8422 net.cpp:156] Memory required for data: 177687936
I0718 14:18:14.872426  8422 layer_factory.hpp:77] Creating layer relu2_fc2
I0718 14:18:14.872433  8422 net.cpp:91] Creating Layer relu2_fc2
I0718 14:18:14.872439  8422 net.cpp:425] relu2_fc2 <- fc2
I0718 14:18:14.872447  8422 net.cpp:386] relu2_fc2 -> fc2 (in-place)
I0718 14:18:14.872455  8422 net.cpp:141] Setting up relu2_fc2
I0718 14:18:14.872463  8422 net.cpp:148] Top shape: 32 50 (1600)
I0718 14:18:14.872468  8422 net.cpp:156] Memory required for data: 177694336
I0718 14:18:14.872474  8422 layer_factory.hpp:77] Creating layer fc3
I0718 14:18:14.872483  8422 net.cpp:91] Creating Layer fc3
I0718 14:18:14.872489  8422 net.cpp:425] fc3 <- fc2
I0718 14:18:14.872498  8422 net.cpp:399] fc3 -> fc3
I0718 14:18:14.872622  8422 net.cpp:141] Setting up fc3
I0718 14:18:14.872632  8422 net.cpp:148] Top shape: 32 2 (64)
I0718 14:18:14.872637  8422 net.cpp:156] Memory required for data: 177694592
I0718 14:18:14.872645  8422 layer_factory.hpp:77] Creating layer loss
I0718 14:18:14.872653  8422 net.cpp:91] Creating Layer loss
I0718 14:18:14.872659  8422 net.cpp:425] loss <- fc3
I0718 14:18:14.872666  8422 net.cpp:425] loss <- label
I0718 14:18:14.872675  8422 net.cpp:399] loss -> loss
I0718 14:18:14.872692  8422 layer_factory.hpp:77] Creating layer loss
…
I0718 14:18:14.889896  8422 solver.cpp:181] Creating test net (#0) specified by net file: examples/scene/scene_train_test.prototxt
I0718 14:18:14.889971  8422 net.cpp:313] The NetState phase (1) differed from the phase (0) specified by a rule in layer pair_data
I0718 14:18:14.890295  8422 net.cpp:49] Initializing net from parameters: 
name: "mnist_siamese_train_test_sim"
state {
  phase: TEST
}
layer {
  name: "pair_data"
  type: "Data"
  top: "pair_data"
  top: "label"
  include {
    phase: TEST
  }
  transform_param {
    scale: 0.00130208
  }
  data_param {
    source: "examples/scene/test_pairs.lmdb"
    batch_size: 10
    backend: LMDB
  }
}
layer {
  name: "slice_pair"
  type: "Slice"
  bottom: "pair_data"
  top: "data"
  top: "data_p"
  slice_param {
    slice_dim: 1
    slice_point: 3
  }
}
layer {
  name: "conv1"
  type: "Convolution"
  bottom: "data"
  top: "conv1"
  param {
    name: "conv1_w"
    lr_mult: 1
  }
  param {
    name: "conv1_b"
    lr_mult: 2
  }
  convolution_param {
    num_output: 20
    kernel_size: 5
    stride: 1
    weight_filler {
      type: "xavier"
    }
    bias_filler {
      type: "constant"
    }
  }
}
layer {
  name: "pool1"
  type: "Pooling"
  bottom: "conv1"
  top: "pool1"
  pooling_param {
    pool: MAX
    kernel_size: 2
    stride: 2
  }
}
layer {
  name: "conv2"
  type: "Convolution"
  bottom: "pool1"
  top: "conv2"
  param {
    name: "conv2_w"
    lr_mult: 1
  }
  param {
    name: "conv2_b"
    lr_mult: 2
  }
  convolution_param {
    num_output: 50
    kernel_size: 5
    stride: 1
    weight_filler {
      type: "xavier"
    }
    bias_filler {
      type: "constant"
    }
  }
}
layer {
  name: "pool2"
  type: "Pooling"
  bottom: "conv2"
  top: "pool2"
  pooling_param {
    pool: MAX
    kernel_size: 2
    stride: 2
  }
}
layer {
  name: "ip1"
  type: "InnerProduct"
  bottom: "pool2"
  top: "ip1"
  param {
    name: "ip1_w"
    lr_mult: 1
  }
  param {
    name: "ip1_b"
    lr_mult: 2
  }
  inner_product_param {
    num_output: 500
    weight_filler {
      type: "xavier"
    }
    bias_filler {
      type: "constant"
    }
  }
}
layer {
  name: "relu1"
  type: "ReLU"
  bottom: "ip1"
  top: "ip1"
}
layer {
  name: "ip2"
  type: "InnerProduct"
  bottom: "ip1"
  top: "ip2"
  param {
    name: "ip2_w"
    lr_mult: 1
  }
  param {
    name: "ip2_b"
    lr_mult: 2
  }
  inner_product_param {
    num_output: 10
    weight_filler {
      type: "xavier"
    }
    bias_filler {
      type: "constant"
    }
  }
}
layer {
  name: "feat"
  type: "InnerProduct"
  bottom: "ip2"
  top: "feat"
  param {
    name: "feat_w"
    lr_mult: 1
  }
  param {
    name: "feat_b"
    lr_mult: 2
  }
  inner_product_param {
    num_output: 2
    weight_filler {
      type: "xavier"
    }
    bias_filler {
      type: "constant"
    }
  }
}
layer {
  name: "conv1_p"
  type: "Convolution"
  bottom: "data_p"
  top: "conv1_p"
  param {
    name: "conv1_w"
    lr_mult: 1
  }
  param {
    name: "conv1_b"
    lr_mult: 2
  }
  convolution_param {
    num_output: 20
    kernel_size: 5
    stride: 1
    weight_filler {
      type: "xavier"
    }
    bias_filler {
      type: "constant"
    }
  }
}
layer {
  name: "pool1_p"
  type: "Pooling"
  bottom: "conv1_p"
  top: "pool1_p"
  pooling_param {
    pool: MAX
    kernel_size: 2
    stride: 2
  }
}
layer {
  name: "conv2_p"
  type: "Convolution"
  bottom: "pool1_p"
  top: "conv2_p"
  param {
    name: "conv2_w"
    lr_mult: 1
  }
  param {
    name: "conv2_b"
    lr_mult: 2
  }
  convolution_param {
    num_output: 50
    kernel_size: 5
    stride: 1
    weight_filler {
      type: "xavier"
    }
    bias_filler {
      type: "constant"
    }
  }
}
layer {
  name: "pool2_p"
  type: "Pooling"
  bottom: "conv2_p"
  top: "pool2_p"
  pooling_param {
    pool: MAX
    kernel_size: 2
    stride: 2
  }
}
layer {
  name: "ip1_p"
  type: "InnerProduct"
  bottom: "pool2_p"
  top: "ip1_p"
  param {
    name: "ip1_w"
    lr_mult: 1
  }
  param {
    name: "ip1_b"
    lr_mult: 2
  }
  inner_product_param {
    num_output: 500
    weight_filler {
      type: "xavier"
    }
    bias_filler {
      type: "constant"
    }
  }
}
layer {
  name: "relu1_p"
  type: "ReLU"
  bottom: "ip1_p"
  top: "ip1_p"
}
layer {
  name: "ip2_p"
  type: "InnerProduct"
  bottom: "ip1_p"
  top: "ip2_p"
  param {
    name: "ip2_w"
    lr_mult: 1
  }
  param {
    name: "ip2_b"
    lr_mult: 2
  }
  inner_product_param {
    num_output: 10
    weight_filler {
      type: "xavier"
    }
    bias_filler {
      type: "constant"
    }
  }
}
layer {
  name: "feat_p"
  type: "InnerProduct"
  bottom: "ip2_p"
  top: "feat_p"
  param {
    name: "feat_w"
    lr_mult: 1
  }
  param {
    name: "feat_b"
    lr_mult: 2
  }
  inner_product_param {
    num_output: 2
    weight_filler {
      type: "xavier"
    }
    bias_filler {
      type: "constant"
    }
  }
}
layer {
  name: "concat"
  type: "Concat"
  bottom: "feat"
  bottom: "feat_p"
  top: "comb"
  concat_param {
    axis: 1
  }
}
layer {
  name: "fc1"
  type: "InnerProduct"
  bottom: "comb"
  top: "fc1"
  param {
    name: "fc1_w"
    lr_mult: 1
  }
  param {
    name: "fc1_b"
    lr_mult: 2
  }
  inner_product_param {
    num_output: 100
    weight_filler {
      type: "xavier"
    }
    bias_filler {
      type: "constant"
    }
  }
}
layer {
  name: "relu1_fc1"
  type: "ReLU"
  bottom: "fc1"
  top: "fc1"
}
layer {
  name: "fc2"
  type: "InnerProduct"
  bottom: "fc1"
  top: "fc2"
  param {
    name: "fc2_w"
    lr_mult: 1
  }
  param {
    name: "fc2_b"
    lr_mult: 2
  }
  inner_product_param {
    num_output: 50
    weight_filler {
      type: "xavier"
    }
    bias_filler {
      type: "constant"
    }
  }
}
layer {
  name: "relu2_fc2"
  type: "ReLU"
  bottom: "fc2"
  top: "fc2"
}
layer {
  name: "fc3"
  type: "InnerProduct"
  bottom: "fc2"
  top: "fc3"
  param {
    name: "fc3_w"
    lr_mult: 1
  }
  param {
    name: "fc3_b"
    lr_mult: 2
  }
  inner_product_param {
    num_output: 2
    weight_filler {
      type: "xavier"
    }
    bias_filler {
      type: "constant"
    }
  }
}
layer {
  name: "loss"
  type: "SoftmaxWithLoss"
  bottom: "fc3"
  bottom: "label"
  top: "loss"
}
layer {
  name: "accuracy"
  type: "Accuracy"
  bottom: "fc3"
  bottom: "label"
  top: "accuracy"
  include {
    phase: TEST
  }
}
I0718 14:18:14.890497  8422 layer_factory.hpp:77] Creating layer pair_data
I0718 14:18:14.890585  8422 net.cpp:91] Creating Layer pair_data
I0718 14:18:14.890596  8422 net.cpp:399] pair_data -> pair_data
I0718 14:18:14.890611  8422 net.cpp:399] pair_data -> label
I0718 14:18:14.932274  8431 db_lmdb.cpp:35] Opened lmdb examples/scene/test_pairs.lmdb
I0718 14:18:14.941740  8422 data_layer.cpp:41] output data size: 10,6,128,128
I0718 14:18:14.955474  8422 net.cpp:141] Setting up pair_data
I0718 14:18:14.955508  8422 net.cpp:148] Top shape: 10 6 128 128 (983040)
I0718 14:18:14.955519  8422 net.cpp:148] Top shape: 10 (10)
I0718 14:18:14.955533  8422 net.cpp:156] Memory required for data: 3932200
I0718 14:18:14.955567  8422 layer_factory.hpp:77] Creating layer label_pair_data_1_split
I0718 14:18:14.955592  8422 net.cpp:91] Creating Layer label_pair_data_1_split
I0718 14:18:14.955600  8422 net.cpp:425] label_pair_data_1_split <- label
I0718 14:18:14.955611  8422 net.cpp:399] label_pair_data_1_split -> label_pair_data_1_split_0
I0718 14:18:14.955629  8422 net.cpp:399] label_pair_data_1_split -> label_pair_data_1_split_1
I0718 14:18:14.955852  8422 net.cpp:141] Setting up label_pair_data_1_split
I0718 14:18:14.955865  8422 net.cpp:148] Top shape: 10 (10)
I0718 14:18:14.955875  8422 net.cpp:148] Top shape: 10 (10)
I0718 14:18:14.955881  8422 net.cpp:156] Memory required for data: 3932280
I0718 14:18:14.955888  8422 layer_factory.hpp:77] Creating layer slice_pair
I0718 14:18:14.955899  8422 net.cpp:91] Creating Layer slice_pair
I0718 14:18:14.955906  8422 net.cpp:425] slice_pair <- pair_data
I0718 14:18:14.955915  8422 net.cpp:399] slice_pair -> data
I0718 14:18:14.955929  8422 net.cpp:399] slice_pair -> data_p
I0718 14:18:14.956015  8422 net.cpp:141] Setting up slice_pair
I0718 14:18:14.956028  8422 net.cpp:148] Top shape: 10 3 128 128 (491520)
I0718 14:18:14.956035  8422 net.cpp:148] Top shape: 10 3 128 128 (491520)
I0718 14:18:14.956042  8422 net.cpp:156] Memory required for data: 7864440
I0718 14:18:14.956048  8422 layer_factory.hpp:77] Creating layer conv1
I0718 14:18:14.956063  8422 net.cpp:91] Creating Layer conv1
I0718 14:18:14.956069  8422 net.cpp:425] conv1 <- data
I0718 14:18:14.956079  8422 net.cpp:399] conv1 -> conv1
I0718 14:18:14.956501  8422 net.cpp:141] Setting up conv1
I0718 14:18:14.956516  8422 net.cpp:148] Top shape: 10 20 124 124 (3075200)
I0718 14:18:14.956522  8422 net.cpp:156] Memory required for data: 20165240
I0718 14:18:14.956535  8422 layer_factory.hpp:77] Creating layer pool1
I0718 14:18:14.956547  8422 net.cpp:91] Creating Layer pool1
I0718 14:18:14.956553  8422 net.cpp:425] pool1 <- conv1
I0718 14:18:14.956562  8422 net.cpp:399] pool1 -> pool1
I0718 14:18:14.956609  8422 net.cpp:141] Setting up pool1
I0718 14:18:14.956615  8422 net.cpp:148] Top shape: 10 20 62 62 (768800)
I0718 14:18:14.956621  8422 net.cpp:156] Memory required for data: 23240440
I0718 14:18:14.956627  8422 layer_factory.hpp:77] Creating layer conv2
I0718 14:18:14.956640  8422 net.cpp:91] Creating Layer conv2
I0718 14:18:14.956645  8422 net.cpp:425] conv2 <- pool1
I0718 14:18:14.956655  8422 net.cpp:399] conv2 -> conv2
I0718 14:18:14.957212  8422 net.cpp:141] Setting up conv2
I0718 14:18:14.957237  8422 net.cpp:148] Top shape: 10 50 58 58 (1682000)
I0718 14:18:14.957245  8422 net.cpp:156] Memory required for data: 29968440
I0718 14:18:14.957258  8422 layer_factory.hpp:77] Creating layer pool2
I0718 14:18:14.957269  8422 net.cpp:91] Creating Layer pool2
I0718 14:18:14.957278  8422 net.cpp:425] pool2 <- conv2
I0718 14:18:14.957288  8422 net.cpp:399] pool2 -> pool2
I0718 14:18:14.957370  8422 net.cpp:141] Setting up pool2
I0718 14:18:14.957381  8422 net.cpp:148] Top shape: 10 50 29 29 (420500)
I0718 14:18:14.957387  8422 net.cpp:156] Memory required for data: 31650440
I0718 14:18:14.957393  8422 layer_factory.hpp:77] Creating layer ip1
I0718 14:18:14.957404  8422 net.cpp:91] Creating Layer ip1
I0718 14:18:14.957411  8422 net.cpp:425] ip1 <- pool2
I0718 14:18:14.957420  8422 net.cpp:399] ip1 -> ip1
I0718 14:18:15.168238  8422 net.cpp:141] Setting up ip1
I0718 14:18:15.168275  8422 net.cpp:148] Top shape: 10 500 (5000)
I0718 14:18:15.168282  8422 net.cpp:156] Memory required for data: 31670440
I0718 14:18:15.168303  8422 layer_factory.hpp:77] Creating layer relu1
I0718 14:18:15.168320  8422 net.cpp:91] Creating Layer relu1
I0718 14:18:15.168328  8422 net.cpp:425] relu1 <- ip1
I0718 14:18:15.168337  8422 net.cpp:386] relu1 -> ip1 (in-place)
I0718 14:18:15.168350  8422 net.cpp:141] Setting up relu1
I0718 14:18:15.168359  8422 net.cpp:148] Top shape: 10 500 (5000)
I0718 14:18:15.168367  8422 net.cpp:156] Memory required for data: 31690440
I0718 14:18:15.168375  8422 layer_factory.hpp:77] Creating layer ip2
I0718 14:18:15.168417  8422 net.cpp:91] Creating Layer ip2
I0718 14:18:15.168423  8422 net.cpp:425] ip2 <- ip1
I0718 14:18:15.168433  8422 net.cpp:399] ip2 -> ip2
I0718 14:18:15.168614  8422 net.cpp:141] Setting up ip2
I0718 14:18:15.168625  8422 net.cpp:148] Top shape: 10 10 (100)
I0718 14:18:15.168632  8422 net.cpp:156] Memory required for data: 31690840
I0718 14:18:15.168639  8422 layer_factory.hpp:77] Creating layer feat
I0718 14:18:15.168653  8422 net.cpp:91] Creating Layer feat
I0718 14:18:15.168663  8422 net.cpp:425] feat <- ip2
I0718 14:18:15.168671  8422 net.cpp:399] feat -> feat
I0718 14:18:15.168802  8422 net.cpp:141] Setting up feat
I0718 14:18:15.168812  8422 net.cpp:148] Top shape: 10 2 (20)
I0718 14:18:15.168817  8422 net.cpp:156] Memory required for data: 31690920
I0718 14:18:15.168828  8422 layer_factory.hpp:77] Creating layer conv1_p
I0718 14:18:15.168845  8422 net.cpp:91] Creating Layer conv1_p
I0718 14:18:15.168853  8422 net.cpp:425] conv1_p <- data_p
I0718 14:18:15.168864  8422 net.cpp:399] conv1_p -> conv1_p
I0718 14:18:15.169208  8422 net.cpp:141] Setting up conv1_p
I0718 14:18:15.169217  8422 net.cpp:148] Top shape: 10 20 124 124 (3075200)
I0718 14:18:15.169224  8422 net.cpp:156] Memory required for data: 43991720
I0718 14:18:15.169229  8422 net.cpp:484] Sharing parameters 'conv1_w' owned by layer 'conv1', param index 0
I0718 14:18:15.169240  8422 net.cpp:484] Sharing parameters 'conv1_b' owned by layer 'conv1', param index 1
I0718 14:18:15.169247  8422 layer_factory.hpp:77] Creating layer pool1_p
I0718 14:18:15.169256  8422 net.cpp:91] Creating Layer pool1_p
I0718 14:18:15.169265  8422 net.cpp:425] pool1_p <- conv1_p
I0718 14:18:15.169275  8422 net.cpp:399] pool1_p -> pool1_p
I0718 14:18:15.169319  8422 net.cpp:141] Setting up pool1_p
I0718 14:18:15.169329  8422 net.cpp:148] Top shape: 10 20 62 62 (768800)
I0718 14:18:15.169334  8422 net.cpp:156] Memory required for data: 47066920
I0718 14:18:15.169340  8422 layer_factory.hpp:77] Creating layer conv2_p
I0718 14:18:15.169353  8422 net.cpp:91] Creating Layer conv2_p
I0718 14:18:15.169360  8422 net.cpp:425] conv2_p <- pool1_p
I0718 14:18:15.169370  8422 net.cpp:399] conv2_p -> conv2_p
I0718 14:18:15.169875  8422 net.cpp:141] Setting up conv2_p
I0718 14:18:15.169885  8422 net.cpp:148] Top shape: 10 50 58 58 (1682000)
I0718 14:18:15.169891  8422 net.cpp:156] Memory required for data: 53794920
I0718 14:18:15.169898  8422 net.cpp:484] Sharing parameters 'conv2_w' owned by layer 'conv2', param index 0
I0718 14:18:15.169904  8422 net.cpp:484] Sharing parameters 'conv2_b' owned by layer 'conv2', param index 1
I0718 14:18:15.169914  8422 layer_factory.hpp:77] Creating layer pool2_p
I0718 14:18:15.169921  8422 net.cpp:91] Creating Layer pool2_p
I0718 14:18:15.169929  8422 net.cpp:425] pool2_p <- conv2_p
I0718 14:18:15.169940  8422 net.cpp:399] pool2_p -> pool2_p
I0718 14:18:15.169989  8422 net.cpp:141] Setting up pool2_p
I0718 14:18:15.169999  8422 net.cpp:148] Top shape: 10 50 29 29 (420500)
I0718 14:18:15.170006  8422 net.cpp:156] Memory required for data: 55476920
I0718 14:18:15.170011  8422 layer_factory.hpp:77] Creating layer ip1_p
I0718 14:18:15.170023  8422 net.cpp:91] Creating Layer ip1_p
I0718 14:18:15.170029  8422 net.cpp:425] ip1_p <- pool2_p
I0718 14:18:15.170039  8422 net.cpp:399] ip1_p -> ip1_p
I0718 14:18:15.373777  8422 net.cpp:141] Setting up ip1_p
I0718 14:18:15.373823  8422 net.cpp:148] Top shape: 10 500 (5000)
I0718 14:18:15.373831  8422 net.cpp:156] Memory required for data: 55496920
I0718 14:18:15.373847  8422 net.cpp:484] Sharing parameters 'ip1_w' owned by layer 'ip1', param index 0
I0718 14:18:15.373858  8422 net.cpp:484] Sharing parameters 'ip1_b' owned by layer 'ip1', param index 1
I0718 14:18:15.373867  8422 layer_factory.hpp:77] Creating layer relu1_p
I0718 14:18:15.373889  8422 net.cpp:91] Creating Layer relu1_p
I0718 14:18:15.373899  8422 net.cpp:425] relu1_p <- ip1_p
I0718 14:18:15.373911  8422 net.cpp:386] relu1_p -> ip1_p (in-place)
I0718 14:18:15.373929  8422 net.cpp:141] Setting up relu1_p
I0718 14:18:15.373971  8422 net.cpp:148] Top shape: 10 500 (5000)
I0718 14:18:15.373980  8422 net.cpp:156] Memory required for data: 55516920
I0718 14:18:15.373988  8422 layer_factory.hpp:77] Creating layer ip2_p
I0718 14:18:15.374002  8422 net.cpp:91] Creating Layer ip2_p
I0718 14:18:15.374011  8422 net.cpp:425] ip2_p <- ip1_p
I0718 14:18:15.374023  8422 net.cpp:399] ip2_p -> ip2_p
I0718 14:18:15.374241  8422 net.cpp:141] Setting up ip2_p
I0718 14:18:15.374253  8422 net.cpp:148] Top shape: 10 10 (100)
I0718 14:18:15.374259  8422 net.cpp:156] Memory required for data: 55517320
I0718 14:18:15.374274  8422 net.cpp:484] Sharing parameters 'ip2_w' owned by layer 'ip2', param index 0
I0718 14:18:15.374285  8422 net.cpp:484] Sharing parameters 'ip2_b' owned by layer 'ip2', param index 1
I0718 14:18:15.374292  8422 layer_factory.hpp:77] Creating layer feat_p
I0718 14:18:15.374305  8422 net.cpp:91] Creating Layer feat_p
I0718 14:18:15.374311  8422 net.cpp:425] feat_p <- ip2_p
I0718 14:18:15.374323  8422 net.cpp:399] feat_p -> feat_p
I0718 14:18:15.374490  8422 net.cpp:141] Setting up feat_p
I0718 14:18:15.374500  8422 net.cpp:148] Top shape: 10 2 (20)
I0718 14:18:15.374506  8422 net.cpp:156] Memory required for data: 55517400
I0718 14:18:15.374514  8422 net.cpp:484] Sharing parameters 'feat_w' owned by layer 'feat', param index 0
I0718 14:18:15.374524  8422 net.cpp:484] Sharing parameters 'feat_b' owned by layer 'feat', param index 1
I0718 14:18:15.374531  8422 layer_factory.hpp:77] Creating layer concat
I0718 14:18:15.374543  8422 net.cpp:91] Creating Layer concat
I0718 14:18:15.374552  8422 net.cpp:425] concat <- feat
I0718 14:18:15.374560  8422 net.cpp:425] concat <- feat_p
I0718 14:18:15.374572  8422 net.cpp:399] concat -> comb
I0718 14:18:15.374608  8422 net.cpp:141] Setting up concat
I0718 14:18:15.374619  8422 net.cpp:148] Top shape: 10 4 (40)
I0718 14:18:15.374625  8422 net.cpp:156] Memory required for data: 55517560
I0718 14:18:15.374632  8422 layer_factory.hpp:77] Creating layer fc1
I0718 14:18:15.374644  8422 net.cpp:91] Creating Layer fc1
I0718 14:18:15.374651  8422 net.cpp:425] fc1 <- comb
I0718 14:18:15.374665  8422 net.cpp:399] fc1 -> fc1
I0718 14:18:15.374831  8422 net.cpp:141] Setting up fc1
I0718 14:18:15.374841  8422 net.cpp:148] Top shape: 10 100 (1000)
I0718 14:18:15.374850  8422 net.cpp:156] Memory required for data: 55521560
I0718 14:18:15.374860  8422 layer_factory.hpp:77] Creating layer relu1_fc1
I0718 14:18:15.374869  8422 net.cpp:91] Creating Layer relu1_fc1
I0718 14:18:15.374877  8422 net.cpp:425] relu1_fc1 <- fc1
I0718 14:18:15.374888  8422 net.cpp:386] relu1_fc1 -> fc1 (in-place)
I0718 14:18:15.374899  8422 net.cpp:141] Setting up relu1_fc1
I0718 14:18:15.374908  8422 net.cpp:148] Top shape: 10 100 (1000)
I0718 14:18:15.374915  8422 net.cpp:156] Memory required for data: 55525560
I0718 14:18:15.374923  8422 layer_factory.hpp:77] Creating layer fc2
I0718 14:18:15.374934  8422 net.cpp:91] Creating Layer fc2
I0718 14:18:15.374941  8422 net.cpp:425] fc2 <- fc1
I0718 14:18:15.374953  8422 net.cpp:399] fc2 -> fc2
I0718 14:18:15.375164  8422 net.cpp:141] Setting up fc2
I0718 14:18:15.375175  8422 net.cpp:148] Top shape: 10 50 (500)
I0718 14:18:15.375182  8422 net.cpp:156] Memory required for data: 55527560
I0718 14:18:15.375193  8422 layer_factory.hpp:77] Creating layer relu2_fc2
I0718 14:18:15.375203  8422 net.cpp:91] Creating Layer relu2_fc2
I0718 14:18:15.375211  8422 net.cpp:425] relu2_fc2 <- fc2
I0718 14:18:15.375221  8422 net.cpp:386] relu2_fc2 -> fc2 (in-place)
I0718 14:18:15.375232  8422 net.cpp:141] Setting up relu2_fc2
I0718 14:18:15.375242  8422 net.cpp:148] Top shape: 10 50 (500)
I0718 14:18:15.375249  8422 net.cpp:156] Memory required for data: 55529560
I0718 14:18:15.375257  8422 layer_factory.hpp:77] Creating layer fc3
I0718 14:18:15.375267  8422 net.cpp:91] Creating Layer fc3
I0718 14:18:15.375275  8422 net.cpp:425] fc3 <- fc2
I0718 14:18:15.375288  8422 net.cpp:399] fc3 -> fc3
I0718 14:18:15.375448  8422 net.cpp:141] Setting up fc3
I0718 14:18:15.375459  8422 net.cpp:148] Top shape: 10 2 (20)
I0718 14:18:15.375478  8422 net.cpp:156] Memory required for data: 55529640
I0718 14:18:15.375489  8422 layer_factory.hpp:77] Creating layer fc3_fc3_0_split
I0718 14:18:15.375500  8422 net.cpp:91] Creating Layer fc3_fc3_0_split
I0718 14:18:15.375509  8422 net.cpp:425] fc3_fc3_0_split <- fc3
I0718 14:18:15.375519  8422 net.cpp:399] fc3_fc3_0_split -> fc3_fc3_0_split_0
I0718 14:18:15.375531  8422 net.cpp:399] fc3_fc3_0_split -> fc3_fc3_0_split_1
I0718 14:18:15.375587  8422 net.cpp:141] Setting up fc3_fc3_0_split
I0718 14:18:15.375598  8422 net.cpp:148] Top shape: 10 2 (20)
I0718 14:18:15.375607  8422 net.cpp:148] Top shape: 10 2 (20)
I0718 14:18:15.375615  8422 net.cpp:156] Memory required for data: 55529800
I0718 14:18:15.375622  8422 layer_factory.hpp:77] Creating layer loss
I0718 14:18:15.375633  8422 net.cpp:91] Creating Layer loss
I0718 14:18:15.375639  8422 net.cpp:425] loss <- fc3_fc3_0_split_0
I0718 14:18:15.375649  8422 net.cpp:425] loss <- label_pair_data_1_split_0
I0718 14:18:15.375660  8422 net.cpp:399] loss -> loss
…
