…
I0711 14:33:16.680629  1325 net.cpp:313] The NetState phase (0) differed from the phase (1) specified by a rule in layer mnist
I0711 14:33:16.680649  1325 net.cpp:313] The NetState phase (0) differed from the phase (1) specified by a rule in layer accuracy
I0711 14:33:16.680755  1325 net.cpp:49] Initializing net from parameters: 
name: "LeNet"
state {
  phase: TRAIN
}
layer {
  name: "mnist"
  type: "Data"
  top: "data"
  top: "label"
  include {
    phase: TRAIN
  }
  transform_param {
    scale: 0.00390625
  }
  data_param {
    source: "examples/mnist/mnist_train_lmdb"
    batch_size: 64
    backend: LMDB
  }
}
layer {
  name: "conv1"
  type: "Convolution"
  bottom: "data"
  top: "conv1"
  param {
    lr_mult: 0
  }
  param {
    lr_mult: 0
  }
  convolution_param {
    num_output: 20
    kernel_size: 5
    stride: 1
    weight_filler {
      type: "xavier"
    }
    bias_filler {
      type: "constant"
    }
  }
}
layer {
  name: "pool1"
  type: "Pooling"
  bottom: "conv1"
  top: "pool1"
  pooling_param {
    pool: MAX
    kernel_size: 2
    stride: 2
  }
}
layer {
  name: "conv2"
  type: "Convolution"
  bottom: "pool1"
  top: "conv2"
  param {
    lr_mult: 0
  }
  param {
    lr_mult: 0
  }
  convolution_param {
    num_output: 50
    kernel_size: 5
    stride: 1
    weight_filler {
      type: "xavier"
    }
    bias_filler {
      type: "constant"
    }
  }
}
layer {
  name: "pool2"
  type: "Pooling"
  bottom: "conv2"
  top: "pool2"
  pooling_param {
    pool: MAX
    kernel_size: 2
    stride: 2
  }
}
layer {
  name: "ip1"
  type: "InnerProduct"
  bottom: "pool2"
  top: "ip1"
  param {
    lr_mult: 0
  }
  param {
    lr_mult: 0
  }
  inner_product_param {
    num_output: 500
    weight_filler {
      type: "xavier"
    }
    bias_filler {
      type: "constant"
    }
  }
}
layer {
  name: "relu1"
  type: "ReLU"
  bottom: "ip1"
  top: "ip1"
}
layer {
  name: "ip2"
  type: "InnerProduct"
  bottom: "ip1"
  top: "ip2"
  param {
    lr_mult: 1
  }
  param {
    lr_mult: 2
  }
  inner_product_param {
    num_output: 10
    weight_filler {
      type: "xavier"
    }
    bias_filler {
      type: "constant"
    }
  }
}
layer {
  name: "loss"
  type: "SoftmaxWithLoss"
  bottom: "ip2"
  bottom: "label"
  top: "loss"
}
I0711 14:33:16.680842  1325 layer_factory.hpp:77] Creating layer mnist
I0711 14:33:16.681270  1325 net.cpp:91] Creating Layer mnist
I0711 14:33:16.681282  1325 net.cpp:399] mnist -> data
I0711 14:33:16.681308  1325 net.cpp:399] mnist -> label
I0711 14:33:16.682049  1333 db_lmdb.cpp:35] Opened lmdb examples/mnist/mnist_train_lmdb
I0711 14:33:16.700465  1325 data_layer.cpp:41] output data size: 64,1,28,28
I0711 14:33:16.701608  1325 net.cpp:141] Setting up mnist
I0711 14:33:16.701629  1325 net.cpp:148] Top shape: 64 1 28 28 (50176)
I0711 14:33:16.701638  1325 net.cpp:148] Top shape: 64 (64)
I0711 14:33:16.701644  1325 net.cpp:156] Memory required for data: 200960
I0711 14:33:16.701659  1325 layer_factory.hpp:77] Creating layer conv1
I0711 14:33:16.701697  1325 net.cpp:91] Creating Layer conv1
I0711 14:33:16.701706  1325 net.cpp:425] conv1 <- data
I0711 14:33:16.701724  1325 net.cpp:399] conv1 -> conv1
I0711 14:33:16.702760  1325 net.cpp:141] Setting up conv1
I0711 14:33:16.702776  1325 net.cpp:148] Top shape: 64 20 24 24 (737280)
I0711 14:33:16.702783  1325 net.cpp:156] Memory required for data: 3150080
I0711 14:33:16.702803  1325 layer_factory.hpp:77] Creating layer pool1
I0711 14:33:16.702816  1325 net.cpp:91] Creating Layer pool1
I0711 14:33:16.702822  1325 net.cpp:425] pool1 <- conv1
I0711 14:33:16.702853  1325 net.cpp:399] pool1 -> pool1
I0711 14:33:16.702916  1325 net.cpp:141] Setting up pool1
I0711 14:33:16.702926  1325 net.cpp:148] Top shape: 64 20 12 12 (184320)
I0711 14:33:16.702932  1325 net.cpp:156] Memory required for data: 3887360
I0711 14:33:16.702939  1325 layer_factory.hpp:77] Creating layer conv2
I0711 14:33:16.702950  1325 net.cpp:91] Creating Layer conv2
I0711 14:33:16.702956  1325 net.cpp:425] conv2 <- pool1
I0711 14:33:16.702965  1325 net.cpp:399] conv2 -> conv2
I0711 14:33:16.703464  1325 net.cpp:141] Setting up conv2
I0711 14:33:16.703476  1325 net.cpp:148] Top shape: 64 50 8 8 (204800)
I0711 14:33:16.703482  1325 net.cpp:156] Memory required for data: 4706560
I0711 14:33:16.703495  1325 layer_factory.hpp:77] Creating layer pool2
I0711 14:33:16.703505  1325 net.cpp:91] Creating Layer pool2
I0711 14:33:16.703510  1325 net.cpp:425] pool2 <- conv2
I0711 14:33:16.703518  1325 net.cpp:399] pool2 -> pool2
I0711 14:33:16.703560  1325 net.cpp:141] Setting up pool2
I0711 14:33:16.703568  1325 net.cpp:148] Top shape: 64 50 4 4 (51200)
I0711 14:33:16.703574  1325 net.cpp:156] Memory required for data: 4911360
I0711 14:33:16.703579  1325 layer_factory.hpp:77] Creating layer ip1
I0711 14:33:16.703589  1325 net.cpp:91] Creating Layer ip1
I0711 14:33:16.703595  1325 net.cpp:425] ip1 <- pool2
I0711 14:33:16.703604  1325 net.cpp:399] ip1 -> ip1
I0711 14:33:16.707623  1325 net.cpp:141] Setting up ip1
I0711 14:33:16.707643  1325 net.cpp:148] Top shape: 64 500 (32000)
I0711 14:33:16.707650  1325 net.cpp:156] Memory required for data: 5039360
I0711 14:33:16.707665  1325 layer_factory.hpp:77] Creating layer relu1
I0711 14:33:16.707675  1325 net.cpp:91] Creating Layer relu1
I0711 14:33:16.707682  1325 net.cpp:425] relu1 <- ip1
I0711 14:33:16.707691  1325 net.cpp:386] relu1 -> ip1 (in-place)
I0711 14:33:16.707702  1325 net.cpp:141] Setting up relu1
I0711 14:33:16.707710  1325 net.cpp:148] Top shape: 64 500 (32000)
I0711 14:33:16.707716  1325 net.cpp:156] Memory required for data: 5167360
I0711 14:33:16.707722  1325 layer_factory.hpp:77] Creating layer ip2
I0711 14:33:16.707731  1325 net.cpp:91] Creating Layer ip2
I0711 14:33:16.707737  1325 net.cpp:425] ip2 <- ip1
I0711 14:33:16.707746  1325 net.cpp:399] ip2 -> ip2
I0711 14:33:16.708499  1325 net.cpp:141] Setting up ip2
I0711 14:33:16.708515  1325 net.cpp:148] Top shape: 64 10 (640)
I0711 14:33:16.708521  1325 net.cpp:156] Memory required for data: 5169920
I0711 14:33:16.708533  1325 layer_factory.hpp:77] Creating layer loss
I0711 14:33:16.708549  1325 net.cpp:91] Creating Layer loss
I0711 14:33:16.708555  1325 net.cpp:425] loss <- ip2
I0711 14:33:16.708562  1325 net.cpp:425] loss <- label
I0711 14:33:16.708572  1325 net.cpp:399] loss -> loss
I0711 14:33:16.708595  1325 layer_factory.hpp:77] Creating layer loss
…
I0711 14:33:16.709327  1325 solver.cpp:181] Creating test net (#0) specified by net file: examples/mnist/lenet_train_test_fine.prototxt
I0711 14:33:16.709375  1325 net.cpp:313] The NetState phase (1) differed from the phase (0) specified by a rule in layer mnist
I0711 14:33:16.709501  1325 net.cpp:49] Initializing net from parameters: 
name: "LeNet"
state {
  phase: TEST
}
layer {
  name: "mnist"
  type: "Data"
  top: "data"
  top: "label"
  include {
    phase: TEST
  }
  transform_param {
    scale: 0.00390625
  }
  data_param {
    source: "examples/mnist/mnist_test_lmdb"
    batch_size: 100
    backend: LMDB
  }
}
layer {
  name: "conv1"
  type: "Convolution"
  bottom: "data"
  top: "conv1"
  param {
    lr_mult: 0
  }
  param {
    lr_mult: 0
  }
  convolution_param {
    num_output: 20
    kernel_size: 5
    stride: 1
    weight_filler {
      type: "xavier"
    }
    bias_filler {
      type: "constant"
    }
  }
}
layer {
  name: "pool1"
  type: "Pooling"
  bottom: "conv1"
  top: "pool1"
  pooling_param {
    pool: MAX
    kernel_size: 2
    stride: 2
  }
}
layer {
  name: "conv2"
  type: "Convolution"
  bottom: "pool1"
  top: "conv2"
  param {
    lr_mult: 0
  }
  param {
    lr_mult: 0
  }
  convolution_param {
    num_output: 50
    kernel_size: 5
    stride: 1
    weight_filler {
      type: "xavier"
    }
    bias_filler {
      type: "constant"
    }
  }
}
layer {
  name: "pool2"
  type: "Pooling"
  bottom: "conv2"
  top: "pool2"
  pooling_param {
    pool: MAX
    kernel_size: 2
    stride: 2
  }
}
layer {
  name: "ip1"
  type: "InnerProduct"
  bottom: "pool2"
  top: "ip1"
  param {
    lr_mult: 0
  }
  param {
    lr_mult: 0
  }
  inner_product_param {
    num_output: 500
    weight_filler {
      type: "xavier"
    }
    bias_filler {
      type: "constant"
    }
  }
}
layer {
  name: "relu1"
  type: "ReLU"
  bottom: "ip1"
  top: "ip1"
}
layer {
  name: "ip2"
  type: "InnerProduct"
  bottom: "ip1"
  top: "ip2"
  param {
    lr_mult: 1
  }
  param {
    lr_mult: 2
  }
  inner_product_param {
    num_output: 10
    weight_filler {
      type: "xavier"
    }
    bias_filler {
      type: "constant"
    }
  }
}
layer {
  name: "accuracy"
  type: "Accuracy"
  bottom: "ip2"
  bottom: "label"
  top: "accuracy"
  include {
    phase: TEST
  }
}
layer {
  name: "loss"
  type: "SoftmaxWithLoss"
  bottom: "ip2"
  bottom: "label"
  top: "loss"
}
I0711 14:33:16.709590  1325 layer_factory.hpp:77] Creating layer mnist
I0711 14:33:16.709727  1325 net.cpp:91] Creating Layer mnist
I0711 14:33:16.709738  1325 net.cpp:399] mnist -> data
I0711 14:33:16.709754  1325 net.cpp:399] mnist -> label
I0711 14:33:16.710467  1335 db_lmdb.cpp:35] Opened lmdb examples/mnist/mnist_test_lmdb
I0711 14:33:16.710628  1325 data_layer.cpp:41] output data size: 100,1,28,28
I0711 14:33:16.712210  1325 net.cpp:141] Setting up mnist
I0711 14:33:16.712230  1325 net.cpp:148] Top shape: 100 1 28 28 (78400)
I0711 14:33:16.712239  1325 net.cpp:148] Top shape: 100 (100)
I0711 14:33:16.712244  1325 net.cpp:156] Memory required for data: 314000
I0711 14:33:16.712250  1325 layer_factory.hpp:77] Creating layer label_mnist_1_split
I0711 14:33:16.712263  1325 net.cpp:91] Creating Layer label_mnist_1_split
I0711 14:33:16.712277  1325 net.cpp:425] label_mnist_1_split <- label
I0711 14:33:16.712287  1325 net.cpp:399] label_mnist_1_split -> label_mnist_1_split_0
I0711 14:33:16.712299  1325 net.cpp:399] label_mnist_1_split -> label_mnist_1_split_1
I0711 14:33:16.712352  1325 net.cpp:141] Setting up label_mnist_1_split
I0711 14:33:16.712363  1325 net.cpp:148] Top shape: 100 (100)
I0711 14:33:16.712369  1325 net.cpp:148] Top shape: 100 (100)
I0711 14:33:16.712375  1325 net.cpp:156] Memory required for data: 314800
I0711 14:33:16.712380  1325 layer_factory.hpp:77] Creating layer conv1
I0711 14:33:16.712396  1325 net.cpp:91] Creating Layer conv1
I0711 14:33:16.712402  1325 net.cpp:425] conv1 <- data
I0711 14:33:16.712414  1325 net.cpp:399] conv1 -> conv1
I0711 14:33:16.712852  1325 net.cpp:141] Setting up conv1
I0711 14:33:16.712862  1325 net.cpp:148] Top shape: 100 20 24 24 (1152000)
I0711 14:33:16.712868  1325 net.cpp:156] Memory required for data: 4922800
I0711 14:33:16.712882  1325 layer_factory.hpp:77] Creating layer pool1
I0711 14:33:16.712910  1325 net.cpp:91] Creating Layer pool1
I0711 14:33:16.712918  1325 net.cpp:425] pool1 <- conv1
I0711 14:33:16.712927  1325 net.cpp:399] pool1 -> pool1
I0711 14:33:16.712973  1325 net.cpp:141] Setting up pool1
I0711 14:33:16.712985  1325 net.cpp:148] Top shape: 100 20 12 12 (288000)
I0711 14:33:16.712990  1325 net.cpp:156] Memory required for data: 6074800
I0711 14:33:16.712996  1325 layer_factory.hpp:77] Creating layer conv2
I0711 14:33:16.713011  1325 net.cpp:91] Creating Layer conv2
I0711 14:33:16.713016  1325 net.cpp:425] conv2 <- pool1
I0711 14:33:16.713026  1325 net.cpp:399] conv2 -> conv2
I0711 14:33:16.713526  1325 net.cpp:141] Setting up conv2
I0711 14:33:16.713533  1325 net.cpp:148] Top shape: 100 50 8 8 (320000)
I0711 14:33:16.713539  1325 net.cpp:156] Memory required for data: 7354800
I0711 14:33:16.713551  1325 layer_factory.hpp:77] Creating layer pool2
I0711 14:33:16.713558  1325 net.cpp:91] Creating Layer pool2
I0711 14:33:16.713563  1325 net.cpp:425] pool2 <- conv2
I0711 14:33:16.713572  1325 net.cpp:399] pool2 -> pool2
I0711 14:33:16.713616  1325 net.cpp:141] Setting up pool2
I0711 14:33:16.713624  1325 net.cpp:148] Top shape: 100 50 4 4 (80000)
I0711 14:33:16.713629  1325 net.cpp:156] Memory required for data: 7674800
I0711 14:33:16.713634  1325 layer_factory.hpp:77] Creating layer ip1
I0711 14:33:16.713646  1325 net.cpp:91] Creating Layer ip1
I0711 14:33:16.713652  1325 net.cpp:425] ip1 <- pool2
I0711 14:33:16.713662  1325 net.cpp:399] ip1 -> ip1
I0711 14:33:16.717761  1325 net.cpp:141] Setting up ip1
I0711 14:33:16.717787  1325 net.cpp:148] Top shape: 100 500 (50000)
I0711 14:33:16.717795  1325 net.cpp:156] Memory required for data: 7874800
I0711 14:33:16.717815  1325 layer_factory.hpp:77] Creating layer relu1
I0711 14:33:16.717829  1325 net.cpp:91] Creating Layer relu1
I0711 14:33:16.717839  1325 net.cpp:425] relu1 <- ip1
I0711 14:33:16.717850  1325 net.cpp:386] relu1 -> ip1 (in-place)
I0711 14:33:16.717864  1325 net.cpp:141] Setting up relu1
I0711 14:33:16.717875  1325 net.cpp:148] Top shape: 100 500 (50000)
I0711 14:33:16.717882  1325 net.cpp:156] Memory required for data: 8074800
I0711 14:33:16.717890  1325 layer_factory.hpp:77] Creating layer ip2
I0711 14:33:16.717911  1325 net.cpp:91] Creating Layer ip2
I0711 14:33:16.717919  1325 net.cpp:425] ip2 <- ip1
I0711 14:33:16.717933  1325 net.cpp:399] ip2 -> ip2
I0711 14:33:16.718156  1325 net.cpp:141] Setting up ip2
I0711 14:33:16.718171  1325 net.cpp:148] Top shape: 100 10 (1000)
I0711 14:33:16.718180  1325 net.cpp:156] Memory required for data: 8078800
I0711 14:33:16.718194  1325 layer_factory.hpp:77] Creating layer ip2_ip2_0_split
I0711 14:33:16.718205  1325 net.cpp:91] Creating Layer ip2_ip2_0_split
I0711 14:33:16.718214  1325 net.cpp:425] ip2_ip2_0_split <- ip2
I0711 14:33:16.718225  1325 net.cpp:399] ip2_ip2_0_split -> ip2_ip2_0_split_0
I0711 14:33:16.718238  1325 net.cpp:399] ip2_ip2_0_split -> ip2_ip2_0_split_1
I0711 14:33:16.718303  1325 net.cpp:141] Setting up ip2_ip2_0_split
I0711 14:33:16.718315  1325 net.cpp:148] Top shape: 100 10 (1000)
I0711 14:33:16.718339  1325 net.cpp:148] Top shape: 100 10 (1000)
I0711 14:33:16.718345  1325 net.cpp:156] Memory required for data: 8086800
I0711 14:33:16.718353  1325 layer_factory.hpp:77] Creating layer accuracy
I0711 14:33:16.718367  1325 net.cpp:91] Creating Layer accuracy
I0711 14:33:16.718375  1325 net.cpp:425] accuracy <- ip2_ip2_0_split_0
I0711 14:33:16.718386  1325 net.cpp:425] accuracy <- label_mnist_1_split_0
I0711 14:33:16.718397  1325 net.cpp:399] accuracy -> accuracy
…
