…
I0711 15:15:57.061244  1709 net.cpp:313] The NetState phase (0) differed from the phase (1) specified by a rule in layer mnist
I0711 15:15:57.061271  1709 net.cpp:313] The NetState phase (0) differed from the phase (1) specified by a rule in layer accuracy
I0711 15:15:57.061395  1709 net.cpp:49] Initializing net from parameters: 
name: "LeNet"
state {
  phase: TRAIN
}
layer {
  name: "mnist"
  type: "Data"
  top: "data"
  top: "label"
  include {
    phase: TRAIN
  }
  transform_param {
    scale: 0.00390625
  }
  data_param {
    source: "examples/mnist/mnist_train_lmdb"
    batch_size: 64
    backend: LMDB
  }
}
layer {
  name: "conv1"
  type: "Convolution"
  bottom: "data"
  top: "conv1"
  param {
    lr_mult: 0.1
  }
  param {
    lr_mult: 0.2
  }
  convolution_param {
    num_output: 20
    kernel_size: 5
    stride: 1
    weight_filler {
      type: "xavier"
    }
    bias_filler {
      type: "constant"
    }
  }
}
layer {
  name: "pool1"
  type: "Pooling"
  bottom: "conv1"
  top: "pool1"
  pooling_param {
    pool: MAX
    kernel_size: 2
    stride: 2
  }
}
layer {
  name: "conv2"
  type: "Convolution"
  bottom: "pool1"
  top: "conv2"
  param {
    lr_mult: 0.1
  }
  param {
    lr_mult: 0.2
  }
  convolution_param {
    num_output: 50
    kernel_size: 5
    stride: 1
    weight_filler {
      type: "xavier"
    }
    bias_filler {
      type: "constant"
    }
  }
}
layer {
  name: "pool2"
  type: "Pooling"
  bottom: "conv2"
  top: "pool2"
  pooling_param {
    pool: MAX
    kernel_size: 2
    stride: 2
  }
}
layer {
  name: "ip1"
  type: "InnerProduct"
  bottom: "pool2"
  top: "ip1"
  param {
    lr_mult: 0.1
  }
  param {
    lr_mult: 0.2
  }
  inner_product_param {
    num_output: 500
    weight_filler {
      type: "xavier"
    }
    bias_filler {
      type: "constant"
    }
  }
}
layer {
  name: "relu1"
  type: "ReLU"
  bottom: "ip1"
  top: "ip1"
}
layer {
  name: "ip2"
  type: "InnerProduct"
  bottom: "ip1"
  top: "ip2"
  param {
    lr_mult: 1
  }
  param {
    lr_mult: 2
  }
  inner_product_param {
    num_output: 10
    weight_filler {
      type: "xavier"
    }
    bias_filler {
      type: "constant"
    }
  }
}
layer {
  name: "loss"
  type: "SoftmaxWithLoss"
  bottom: "ip2"
  bottom: "label"
  top: "loss"
}
I0711 15:15:57.061503  1709 layer_factory.hpp:77] Creating layer mnist
I0711 15:15:57.061996  1709 net.cpp:91] Creating Layer mnist
I0711 15:15:57.062011  1709 net.cpp:399] mnist -> data
I0711 15:15:57.062050  1709 net.cpp:399] mnist -> label
I0711 15:15:57.063494  1715 db_lmdb.cpp:35] Opened lmdb examples/mnist/mnist_train_lmdb
I0711 15:15:57.083058  1709 data_layer.cpp:41] output data size: 64,1,28,28
I0711 15:15:57.084373  1709 net.cpp:141] Setting up mnist
I0711 15:15:57.084400  1709 net.cpp:148] Top shape: 64 1 28 28 (50176)
I0711 15:15:57.084414  1709 net.cpp:148] Top shape: 64 (64)
I0711 15:15:57.084421  1709 net.cpp:156] Memory required for data: 200960
I0711 15:15:57.084436  1709 layer_factory.hpp:77] Creating layer conv1
I0711 15:15:57.084496  1709 net.cpp:91] Creating Layer conv1
I0711 15:15:57.084511  1709 net.cpp:425] conv1 <- data
I0711 15:15:57.084532  1709 net.cpp:399] conv1 -> conv1
I0711 15:15:57.085633  1709 net.cpp:141] Setting up conv1
I0711 15:15:57.085652  1709 net.cpp:148] Top shape: 64 20 24 24 (737280)
I0711 15:15:57.085660  1709 net.cpp:156] Memory required for data: 3150080
I0711 15:15:57.085686  1709 layer_factory.hpp:77] Creating layer pool1
I0711 15:15:57.085708  1709 net.cpp:91] Creating Layer pool1
I0711 15:15:57.085718  1709 net.cpp:425] pool1 <- conv1
I0711 15:15:57.085752  1709 net.cpp:399] pool1 -> pool1
I0711 15:15:57.085821  1709 net.cpp:141] Setting up pool1
I0711 15:15:57.085835  1709 net.cpp:148] Top shape: 64 20 12 12 (184320)
I0711 15:15:57.085844  1709 net.cpp:156] Memory required for data: 3887360
I0711 15:15:57.085851  1709 layer_factory.hpp:77] Creating layer conv2
I0711 15:15:57.085870  1709 net.cpp:91] Creating Layer conv2
I0711 15:15:57.085878  1709 net.cpp:425] conv2 <- pool1
I0711 15:15:57.085893  1709 net.cpp:399] conv2 -> conv2
I0711 15:15:57.086395  1709 net.cpp:141] Setting up conv2
I0711 15:15:57.086412  1709 net.cpp:148] Top shape: 64 50 8 8 (204800)
I0711 15:15:57.086421  1709 net.cpp:156] Memory required for data: 4706560
I0711 15:15:57.086437  1709 layer_factory.hpp:77] Creating layer pool2
I0711 15:15:57.086450  1709 net.cpp:91] Creating Layer pool2
I0711 15:15:57.086458  1709 net.cpp:425] pool2 <- conv2
I0711 15:15:57.086472  1709 net.cpp:399] pool2 -> pool2
I0711 15:15:57.086526  1709 net.cpp:141] Setting up pool2
I0711 15:15:57.086540  1709 net.cpp:148] Top shape: 64 50 4 4 (51200)
I0711 15:15:57.086549  1709 net.cpp:156] Memory required for data: 4911360
I0711 15:15:57.086556  1709 layer_factory.hpp:77] Creating layer ip1
I0711 15:15:57.086571  1709 net.cpp:91] Creating Layer ip1
I0711 15:15:57.086580  1709 net.cpp:425] ip1 <- pool2
I0711 15:15:57.086591  1709 net.cpp:399] ip1 -> ip1
I0711 15:15:57.090610  1709 net.cpp:141] Setting up ip1
I0711 15:15:57.090633  1709 net.cpp:148] Top shape: 64 500 (32000)
I0711 15:15:57.090641  1709 net.cpp:156] Memory required for data: 5039360
I0711 15:15:57.090664  1709 layer_factory.hpp:77] Creating layer relu1
I0711 15:15:57.090677  1709 net.cpp:91] Creating Layer relu1
I0711 15:15:57.090687  1709 net.cpp:425] relu1 <- ip1
I0711 15:15:57.090700  1709 net.cpp:386] relu1 -> ip1 (in-place)
I0711 15:15:57.090715  1709 net.cpp:141] Setting up relu1
I0711 15:15:57.090734  1709 net.cpp:148] Top shape: 64 500 (32000)
I0711 15:15:57.090742  1709 net.cpp:156] Memory required for data: 5167360
I0711 15:15:57.090749  1709 layer_factory.hpp:77] Creating layer ip2
I0711 15:15:57.090762  1709 net.cpp:91] Creating Layer ip2
I0711 15:15:57.090770  1709 net.cpp:425] ip2 <- ip1
I0711 15:15:57.090781  1709 net.cpp:399] ip2 -> ip2
I0711 15:15:57.091559  1709 net.cpp:141] Setting up ip2
I0711 15:15:57.091578  1709 net.cpp:148] Top shape: 64 10 (640)
I0711 15:15:57.091586  1709 net.cpp:156] Memory required for data: 5169920
I0711 15:15:57.091601  1709 layer_factory.hpp:77] Creating layer loss
I0711 15:15:57.091624  1709 net.cpp:91] Creating Layer loss
I0711 15:15:57.091634  1709 net.cpp:425] loss <- ip2
I0711 15:15:57.091645  1709 net.cpp:425] loss <- label
I0711 15:15:57.091656  1709 net.cpp:399] loss -> loss
I0711 15:15:57.091684  1709 layer_factory.hpp:77] Creating layer loss
…
I0711 15:15:57.092481  1709 solver.cpp:181] Creating test net (#0) specified by net file: examples/mnist/lenet_train_test_fine.prototxt
I0711 15:15:57.092525  1709 net.cpp:313] The NetState phase (1) differed from the phase (0) specified by a rule in layer mnist
I0711 15:15:57.092684  1709 net.cpp:49] Initializing net from parameters: 
name: "LeNet"
state {
  phase: TEST
}
layer {
  name: "mnist"
  type: "Data"
  top: "data"
  top: "label"
  include {
    phase: TEST
  }
  transform_param {
    scale: 0.00390625
  }
  data_param {
    source: "examples/mnist/mnist_test_lmdb"
    batch_size: 100
    backend: LMDB
  }
}
layer {
  name: "conv1"
  type: "Convolution"
  bottom: "data"
  top: "conv1"
  param {
    lr_mult: 0.1
  }
  param {
    lr_mult: 0.2
  }
  convolution_param {
    num_output: 20
    kernel_size: 5
    stride: 1
    weight_filler {
      type: "xavier"
    }
    bias_filler {
      type: "constant"
    }
  }
}
layer {
  name: "pool1"
  type: "Pooling"
  bottom: "conv1"
  top: "pool1"
  pooling_param {
    pool: MAX
    kernel_size: 2
    stride: 2
  }
}
layer {
  name: "conv2"
  type: "Convolution"
  bottom: "pool1"
  top: "conv2"
  param {
    lr_mult: 0.1
  }
  param {
    lr_mult: 0.2
  }
  convolution_param {
    num_output: 50
    kernel_size: 5
    stride: 1
    weight_filler {
      type: "xavier"
    }
    bias_filler {
      type: "constant"
    }
  }
}
layer {
  name: "pool2"
  type: "Pooling"
  bottom: "conv2"
  top: "pool2"
  pooling_param {
    pool: MAX
    kernel_size: 2
    stride: 2
  }
}
layer {
  name: "ip1"
  type: "InnerProduct"
  bottom: "pool2"
  top: "ip1"
  param {
    lr_mult: 0.1
  }
  param {
    lr_mult: 0.2
  }
  inner_product_param {
    num_output: 500
    weight_filler {
      type: "xavier"
    }
    bias_filler {
      type: "constant"
    }
  }
}
layer {
  name: "relu1"
  type: "ReLU"
  bottom: "ip1"
  top: "ip1"
}
layer {
  name: "ip2"
  type: "InnerProduct"
  bottom: "ip1"
  top: "ip2"
  param {
    lr_mult: 1
  }
  param {
    lr_mult: 2
  }
  inner_product_param {
    num_output: 10
    weight_filler {
      type: "xavier"
    }
    bias_filler {
      type: "constant"
    }
  }
}
layer {
  name: "accuracy"
  type: "Accuracy"
  bottom: "ip2"
  bottom: "label"
  top: "accuracy"
  include {
    phase: TEST
  }
}
layer {
  name: "loss"
  type: "SoftmaxWithLoss"
  bottom: "ip2"
  bottom: "label"
  top: "loss"
}
I0711 15:15:57.092813  1709 layer_factory.hpp:77] Creating layer mnist
I0711 15:15:57.092994  1709 net.cpp:91] Creating Layer mnist
I0711 15:15:57.093008  1709 net.cpp:399] mnist -> data
I0711 15:15:57.093025  1709 net.cpp:399] mnist -> label
I0711 15:15:57.093991  1717 db_lmdb.cpp:35] Opened lmdb examples/mnist/mnist_test_lmdb
I0711 15:15:57.094166  1709 data_layer.cpp:41] output data size: 100,1,28,28
I0711 15:15:57.095888  1709 net.cpp:141] Setting up mnist
I0711 15:15:57.095914  1709 net.cpp:148] Top shape: 100 1 28 28 (78400)
I0711 15:15:57.095928  1709 net.cpp:148] Top shape: 100 (100)
I0711 15:15:57.095937  1709 net.cpp:156] Memory required for data: 314000
I0711 15:15:57.095945  1709 layer_factory.hpp:77] Creating layer label_mnist_1_split
I0711 15:15:57.095963  1709 net.cpp:91] Creating Layer label_mnist_1_split
I0711 15:15:57.095970  1709 net.cpp:425] label_mnist_1_split <- label
I0711 15:15:57.095980  1709 net.cpp:399] label_mnist_1_split -> label_mnist_1_split_0
I0711 15:15:57.095994  1709 net.cpp:399] label_mnist_1_split -> label_mnist_1_split_1
I0711 15:15:57.096106  1709 net.cpp:141] Setting up label_mnist_1_split
I0711 15:15:57.096120  1709 net.cpp:148] Top shape: 100 (100)
I0711 15:15:57.096128  1709 net.cpp:148] Top shape: 100 (100)
I0711 15:15:57.096134  1709 net.cpp:156] Memory required for data: 314800
I0711 15:15:57.096140  1709 layer_factory.hpp:77] Creating layer conv1
I0711 15:15:57.096155  1709 net.cpp:91] Creating Layer conv1
I0711 15:15:57.096161  1709 net.cpp:425] conv1 <- data
I0711 15:15:57.096174  1709 net.cpp:399] conv1 -> conv1
I0711 15:15:57.096530  1709 net.cpp:141] Setting up conv1
I0711 15:15:57.096541  1709 net.cpp:148] Top shape: 100 20 24 24 (1152000)
I0711 15:15:57.096547  1709 net.cpp:156] Memory required for data: 4922800
I0711 15:15:57.096561  1709 layer_factory.hpp:77] Creating layer pool1
I0711 15:15:57.096591  1709 net.cpp:91] Creating Layer pool1
I0711 15:15:57.096597  1709 net.cpp:425] pool1 <- conv1
I0711 15:15:57.096606  1709 net.cpp:399] pool1 -> pool1
I0711 15:15:57.096654  1709 net.cpp:141] Setting up pool1
I0711 15:15:57.096662  1709 net.cpp:148] Top shape: 100 20 12 12 (288000)
I0711 15:15:57.096668  1709 net.cpp:156] Memory required for data: 6074800
I0711 15:15:57.096673  1709 layer_factory.hpp:77] Creating layer conv2
I0711 15:15:57.096688  1709 net.cpp:91] Creating Layer conv2
I0711 15:15:57.096693  1709 net.cpp:425] conv2 <- pool1
I0711 15:15:57.096704  1709 net.cpp:399] conv2 -> conv2
I0711 15:15:57.097199  1709 net.cpp:141] Setting up conv2
I0711 15:15:57.097210  1709 net.cpp:148] Top shape: 100 50 8 8 (320000)
I0711 15:15:57.097216  1709 net.cpp:156] Memory required for data: 7354800
I0711 15:15:57.097229  1709 layer_factory.hpp:77] Creating layer pool2
I0711 15:15:57.097237  1709 net.cpp:91] Creating Layer pool2
I0711 15:15:57.097244  1709 net.cpp:425] pool2 <- conv2
I0711 15:15:57.097254  1709 net.cpp:399] pool2 -> pool2
I0711 15:15:57.097306  1709 net.cpp:141] Setting up pool2
I0711 15:15:57.097316  1709 net.cpp:148] Top shape: 100 50 4 4 (80000)
I0711 15:15:57.097332  1709 net.cpp:156] Memory required for data: 7674800
I0711 15:15:57.097337  1709 layer_factory.hpp:77] Creating layer ip1
I0711 15:15:57.097348  1709 net.cpp:91] Creating Layer ip1
I0711 15:15:57.097355  1709 net.cpp:425] ip1 <- pool2
I0711 15:15:57.097367  1709 net.cpp:399] ip1 -> ip1
I0711 15:15:57.101577  1709 net.cpp:141] Setting up ip1
I0711 15:15:57.101598  1709 net.cpp:148] Top shape: 100 500 (50000)
I0711 15:15:57.101606  1709 net.cpp:156] Memory required for data: 7874800
I0711 15:15:57.101624  1709 layer_factory.hpp:77] Creating layer relu1
I0711 15:15:57.101634  1709 net.cpp:91] Creating Layer relu1
I0711 15:15:57.101644  1709 net.cpp:425] relu1 <- ip1
I0711 15:15:57.101655  1709 net.cpp:386] relu1 -> ip1 (in-place)
I0711 15:15:57.101668  1709 net.cpp:141] Setting up relu1
I0711 15:15:57.101677  1709 net.cpp:148] Top shape: 100 500 (50000)
I0711 15:15:57.101686  1709 net.cpp:156] Memory required for data: 8074800
I0711 15:15:57.101693  1709 layer_factory.hpp:77] Creating layer ip2
I0711 15:15:57.101706  1709 net.cpp:91] Creating Layer ip2
I0711 15:15:57.101714  1709 net.cpp:425] ip2 <- ip1
I0711 15:15:57.101727  1709 net.cpp:399] ip2 -> ip2
I0711 15:15:57.101915  1709 net.cpp:141] Setting up ip2
I0711 15:15:57.101927  1709 net.cpp:148] Top shape: 100 10 (1000)
I0711 15:15:57.101933  1709 net.cpp:156] Memory required for data: 8078800
I0711 15:15:57.101943  1709 layer_factory.hpp:77] Creating layer ip2_ip2_0_split
I0711 15:15:57.101953  1709 net.cpp:91] Creating Layer ip2_ip2_0_split
I0711 15:15:57.101959  1709 net.cpp:425] ip2_ip2_0_split <- ip2
I0711 15:15:57.101968  1709 net.cpp:399] ip2_ip2_0_split -> ip2_ip2_0_split_0
I0711 15:15:57.101981  1709 net.cpp:399] ip2_ip2_0_split -> ip2_ip2_0_split_1
I0711 15:15:57.102028  1709 net.cpp:141] Setting up ip2_ip2_0_split
I0711 15:15:57.102040  1709 net.cpp:148] Top shape: 100 10 (1000)
I0711 15:15:57.102047  1709 net.cpp:148] Top shape: 100 10 (1000)
I0711 15:15:57.102054  1709 net.cpp:156] Memory required for data: 8086800
I0711 15:15:57.102061  1709 layer_factory.hpp:77] Creating layer accuracy
I0711 15:15:57.102072  1709 net.cpp:91] Creating Layer accuracy
I0711 15:15:57.102079  1709 net.cpp:425] accuracy <- ip2_ip2_0_split_0
I0711 15:15:57.102088  1709 net.cpp:425] accuracy <- label_mnist_1_split_0
I0711 15:15:57.102097  1709 net.cpp:399] accuracy -> accuracy
…
