…
I0711 14:50:45.018193  1522 net.cpp:313] The NetState phase (0) differed from the phase (1) specified by a rule in layer mnist
I0711 14:50:45.018216  1522 net.cpp:313] The NetState phase (0) differed from the phase (1) specified by a rule in layer accuracy
I0711 14:50:45.018334  1522 net.cpp:49] Initializing net from parameters: 
name: "LeNet"
state {
  phase: TRAIN
}
layer {
  name: "mnist"
  type: "Data"
  top: "data"
  top: "label"
  include {
    phase: TRAIN
  }
  transform_param {
    scale: 0.00390625
  }
  data_param {
    source: "examples/mnist/mnist_train_lmdb"
    batch_size: 64
    backend: LMDB
  }
}
layer {
  name: "conv1"
  type: "Convolution"
  bottom: "data"
  top: "conv1"
  param {
    lr_mult: 0.1
  }
  param {
    lr_mult: 0.2
  }
  convolution_param {
    num_output: 20
    kernel_size: 5
    stride: 1
    weight_filler {
      type: "xavier"
    }
    bias_filler {
      type: "constant"
    }
  }
}
layer {
  name: "pool1"
  type: "Pooling"
  bottom: "conv1"
  top: "pool1"
  pooling_param {
    pool: MAX
    kernel_size: 2
    stride: 2
  }
}
layer {
  name: "conv2"
  type: "Convolution"
  bottom: "pool1"
  top: "conv2"
  param {
    lr_mult: 0.1
  }
  param {
    lr_mult: 0.2
  }
  convolution_param {
    num_output: 50
    kernel_size: 5
    stride: 1
    weight_filler {
      type: "xavier"
    }
    bias_filler {
      type: "constant"
    }
  }
}
layer {
  name: "pool2"
  type: "Pooling"
  bottom: "conv2"
  top: "pool2"
  pooling_param {
    pool: MAX
    kernel_size: 2
    stride: 2
  }
}
layer {
  name: "ip1"
  type: "InnerProduct"
  bottom: "pool2"
  top: "ip1"
  param {
    lr_mult: 0.1
  }
  param {
    lr_mult: 0.2
  }
  inner_product_param {
    num_output: 500
    weight_filler {
      type: "xavier"
    }
    bias_filler {
      type: "constant"
    }
  }
}
layer {
  name: "relu1"
  type: "ReLU"
  bottom: "ip1"
  top: "ip1"
}
layer {
  name: "ip2"
  type: "InnerProduct"
  bottom: "ip1"
  top: "ip2"
  param {
    lr_mult: 2
  }
  param {
    lr_mult: 4
  }
  inner_product_param {
    num_output: 10
    weight_filler {
      type: "xavier"
    }
    bias_filler {
      type: "constant"
    }
  }
}
layer {
  name: "loss"
  type: "SoftmaxWithLoss"
  bottom: "ip2"
  bottom: "label"
  top: "loss"
}
I0711 14:50:45.018427  1522 layer_factory.hpp:77] Creating layer mnist
I0711 14:50:45.018914  1522 net.cpp:91] Creating Layer mnist
I0711 14:50:45.018930  1522 net.cpp:399] mnist -> data
I0711 14:50:45.018964  1522 net.cpp:399] mnist -> label
I0711 14:50:45.019737  1528 db_lmdb.cpp:35] Opened lmdb examples/mnist/mnist_train_lmdb
I0711 14:50:45.039315  1522 data_layer.cpp:41] output data size: 64,1,28,28
I0711 14:50:45.040555  1522 net.cpp:141] Setting up mnist
I0711 14:50:45.040578  1522 net.cpp:148] Top shape: 64 1 28 28 (50176)
I0711 14:50:45.040587  1522 net.cpp:148] Top shape: 64 (64)
I0711 14:50:45.040593  1522 net.cpp:156] Memory required for data: 200960
I0711 14:50:45.040607  1522 layer_factory.hpp:77] Creating layer conv1
I0711 14:50:45.040643  1522 net.cpp:91] Creating Layer conv1
I0711 14:50:45.040652  1522 net.cpp:425] conv1 <- data
I0711 14:50:45.040669  1522 net.cpp:399] conv1 -> conv1
I0711 14:50:45.041791  1522 net.cpp:141] Setting up conv1
I0711 14:50:45.041810  1522 net.cpp:148] Top shape: 64 20 24 24 (737280)
I0711 14:50:45.041815  1522 net.cpp:156] Memory required for data: 3150080
I0711 14:50:45.041837  1522 layer_factory.hpp:77] Creating layer pool1
I0711 14:50:45.041851  1522 net.cpp:91] Creating Layer pool1
I0711 14:50:45.041857  1522 net.cpp:425] pool1 <- conv1
I0711 14:50:45.041887  1522 net.cpp:399] pool1 -> pool1
I0711 14:50:45.041951  1522 net.cpp:141] Setting up pool1
I0711 14:50:45.041960  1522 net.cpp:148] Top shape: 64 20 12 12 (184320)
I0711 14:50:45.041965  1522 net.cpp:156] Memory required for data: 3887360
I0711 14:50:45.041970  1522 layer_factory.hpp:77] Creating layer conv2
I0711 14:50:45.041982  1522 net.cpp:91] Creating Layer conv2
I0711 14:50:45.041987  1522 net.cpp:425] conv2 <- pool1
I0711 14:50:45.041997  1522 net.cpp:399] conv2 -> conv2
I0711 14:50:45.042472  1522 net.cpp:141] Setting up conv2
I0711 14:50:45.042480  1522 net.cpp:148] Top shape: 64 50 8 8 (204800)
I0711 14:50:45.042486  1522 net.cpp:156] Memory required for data: 4706560
I0711 14:50:45.042498  1522 layer_factory.hpp:77] Creating layer pool2
I0711 14:50:45.042507  1522 net.cpp:91] Creating Layer pool2
I0711 14:50:45.042513  1522 net.cpp:425] pool2 <- conv2
I0711 14:50:45.042521  1522 net.cpp:399] pool2 -> pool2
I0711 14:50:45.042562  1522 net.cpp:141] Setting up pool2
I0711 14:50:45.042569  1522 net.cpp:148] Top shape: 64 50 4 4 (51200)
I0711 14:50:45.042574  1522 net.cpp:156] Memory required for data: 4911360
I0711 14:50:45.042580  1522 layer_factory.hpp:77] Creating layer ip1
I0711 14:50:45.042590  1522 net.cpp:91] Creating Layer ip1
I0711 14:50:45.042596  1522 net.cpp:425] ip1 <- pool2
I0711 14:50:45.042605  1522 net.cpp:399] ip1 -> ip1
I0711 14:50:45.046869  1522 net.cpp:141] Setting up ip1
I0711 14:50:45.046891  1522 net.cpp:148] Top shape: 64 500 (32000)
I0711 14:50:45.046900  1522 net.cpp:156] Memory required for data: 5039360
I0711 14:50:45.046921  1522 layer_factory.hpp:77] Creating layer relu1
I0711 14:50:45.046933  1522 net.cpp:91] Creating Layer relu1
I0711 14:50:45.046942  1522 net.cpp:425] relu1 <- ip1
I0711 14:50:45.046953  1522 net.cpp:386] relu1 -> ip1 (in-place)
I0711 14:50:45.046968  1522 net.cpp:141] Setting up relu1
I0711 14:50:45.046977  1522 net.cpp:148] Top shape: 64 500 (32000)
I0711 14:50:45.046985  1522 net.cpp:156] Memory required for data: 5167360
I0711 14:50:45.046993  1522 layer_factory.hpp:77] Creating layer ip2
I0711 14:50:45.047004  1522 net.cpp:91] Creating Layer ip2
I0711 14:50:45.047013  1522 net.cpp:425] ip2 <- ip1
I0711 14:50:45.047024  1522 net.cpp:399] ip2 -> ip2
I0711 14:50:45.048252  1522 net.cpp:141] Setting up ip2
I0711 14:50:45.048274  1522 net.cpp:148] Top shape: 64 10 (640)
I0711 14:50:45.048282  1522 net.cpp:156] Memory required for data: 5169920
I0711 14:50:45.048300  1522 layer_factory.hpp:77] Creating layer loss
I0711 14:50:45.048321  1522 net.cpp:91] Creating Layer loss
I0711 14:50:45.048331  1522 net.cpp:425] loss <- ip2
I0711 14:50:45.048339  1522 net.cpp:425] loss <- label
I0711 14:50:45.048352  1522 net.cpp:399] loss -> loss
I0711 14:50:45.048378  1522 layer_factory.hpp:77] Creating layer loss
…
I0711 14:50:45.049401  1522 solver.cpp:181] Creating test net (#0) specified by net file: examples/mnist/lenet_train_test_fine.prototxt
I0711 14:50:45.049448  1522 net.cpp:313] The NetState phase (1) differed from the phase (0) specified by a rule in layer mnist
I0711 14:50:45.049655  1522 net.cpp:49] Initializing net from parameters: 
name: "LeNet"
state {
  phase: TEST
}
layer {
  name: "mnist"
  type: "Data"
  top: "data"
  top: "label"
  include {
    phase: TEST
  }
  transform_param {
    scale: 0.00390625
  }
  data_param {
    source: "examples/mnist/mnist_test_lmdb"
    batch_size: 100
    backend: LMDB
  }
}
layer {
  name: "conv1"
  type: "Convolution"
  bottom: "data"
  top: "conv1"
  param {
    lr_mult: 0.1
  }
  param {
    lr_mult: 0.2
  }
  convolution_param {
    num_output: 20
    kernel_size: 5
    stride: 1
    weight_filler {
      type: "xavier"
    }
    bias_filler {
      type: "constant"
    }
  }
}
layer {
  name: "pool1"
  type: "Pooling"
  bottom: "conv1"
  top: "pool1"
  pooling_param {
    pool: MAX
    kernel_size: 2
    stride: 2
  }
}
layer {
  name: "conv2"
  type: "Convolution"
  bottom: "pool1"
  top: "conv2"
  param {
    lr_mult: 0.1
  }
  param {
    lr_mult: 0.2
  }
  convolution_param {
    num_output: 50
    kernel_size: 5
    stride: 1
    weight_filler {
      type: "xavier"
    }
    bias_filler {
      type: "constant"
    }
  }
}
layer {
  name: "pool2"
  type: "Pooling"
  bottom: "conv2"
  top: "pool2"
  pooling_param {
    pool: MAX
    kernel_size: 2
    stride: 2
  }
}
layer {
  name: "ip1"
  type: "InnerProduct"
  bottom: "pool2"
  top: "ip1"
  param {
    lr_mult: 0.1
  }
  param {
    lr_mult: 0.2
  }
  inner_product_param {
    num_output: 500
    weight_filler {
      type: "xavier"
    }
    bias_filler {
      type: "constant"
    }
  }
}
layer {
  name: "relu1"
  type: "ReLU"
  bottom: "ip1"
  top: "ip1"
}
layer {
  name: "ip2"
  type: "InnerProduct"
  bottom: "ip1"
  top: "ip2"
  param {
    lr_mult: 2
  }
  param {
    lr_mult: 4
  }
  inner_product_param {
    num_output: 10
    weight_filler {
      type: "xavier"
    }
    bias_filler {
      type: "constant"
    }
  }
}
layer {
  name: "accuracy"
  type: "Accuracy"
  bottom: "ip2"
  bottom: "label"
  top: "accuracy"
  include {
    phase: TEST
  }
}
layer {
  name: "loss"
  type: "SoftmaxWithLoss"
  bottom: "ip2"
  bottom: "label"
  top: "loss"
}
I0711 14:50:45.049777  1522 layer_factory.hpp:77] Creating layer mnist
I0711 14:50:45.049957  1522 net.cpp:91] Creating Layer mnist
I0711 14:50:45.049969  1522 net.cpp:399] mnist -> data
I0711 14:50:45.049985  1522 net.cpp:399] mnist -> label
I0711 14:50:45.050990  1530 db_lmdb.cpp:35] Opened lmdb examples/mnist/mnist_test_lmdb
I0711 14:50:45.051159  1522 data_layer.cpp:41] output data size: 100,1,28,28
I0711 14:50:45.054266  1522 net.cpp:141] Setting up mnist
I0711 14:50:45.054294  1522 net.cpp:148] Top shape: 100 1 28 28 (78400)
I0711 14:50:45.054307  1522 net.cpp:148] Top shape: 100 (100)
I0711 14:50:45.054316  1522 net.cpp:156] Memory required for data: 314000
I0711 14:50:45.054327  1522 layer_factory.hpp:77] Creating layer label_mnist_1_split
I0711 14:50:45.054342  1522 net.cpp:91] Creating Layer label_mnist_1_split
I0711 14:50:45.054350  1522 net.cpp:425] label_mnist_1_split <- label
I0711 14:50:45.054363  1522 net.cpp:399] label_mnist_1_split -> label_mnist_1_split_0
I0711 14:50:45.054381  1522 net.cpp:399] label_mnist_1_split -> label_mnist_1_split_1
I0711 14:50:45.054455  1522 net.cpp:141] Setting up label_mnist_1_split
I0711 14:50:45.054472  1522 net.cpp:148] Top shape: 100 (100)
I0711 14:50:45.054483  1522 net.cpp:148] Top shape: 100 (100)
I0711 14:50:45.054491  1522 net.cpp:156] Memory required for data: 314800
I0711 14:50:45.054500  1522 layer_factory.hpp:77] Creating layer conv1
I0711 14:50:45.054518  1522 net.cpp:91] Creating Layer conv1
I0711 14:50:45.054527  1522 net.cpp:425] conv1 <- data
I0711 14:50:45.054541  1522 net.cpp:399] conv1 -> conv1
I0711 14:50:45.055229  1522 net.cpp:141] Setting up conv1
I0711 14:50:45.055260  1522 net.cpp:148] Top shape: 100 20 24 24 (1152000)
I0711 14:50:45.055270  1522 net.cpp:156] Memory required for data: 4922800
I0711 14:50:45.055291  1522 layer_factory.hpp:77] Creating layer pool1
I0711 14:50:45.055325  1522 net.cpp:91] Creating Layer pool1
I0711 14:50:45.055332  1522 net.cpp:425] pool1 <- conv1
I0711 14:50:45.055342  1522 net.cpp:399] pool1 -> pool1
I0711 14:50:45.055400  1522 net.cpp:141] Setting up pool1
I0711 14:50:45.055413  1522 net.cpp:148] Top shape: 100 20 12 12 (288000)
I0711 14:50:45.055420  1522 net.cpp:156] Memory required for data: 6074800
I0711 14:50:45.055428  1522 layer_factory.hpp:77] Creating layer conv2
I0711 14:50:45.055443  1522 net.cpp:91] Creating Layer conv2
I0711 14:50:45.055450  1522 net.cpp:425] conv2 <- pool1
I0711 14:50:45.055461  1522 net.cpp:399] conv2 -> conv2
I0711 14:50:45.056144  1522 net.cpp:141] Setting up conv2
I0711 14:50:45.056161  1522 net.cpp:148] Top shape: 100 50 8 8 (320000)
I0711 14:50:45.056169  1522 net.cpp:156] Memory required for data: 7354800
I0711 14:50:45.056185  1522 layer_factory.hpp:77] Creating layer pool2
I0711 14:50:45.056201  1522 net.cpp:91] Creating Layer pool2
I0711 14:50:45.056210  1522 net.cpp:425] pool2 <- conv2
I0711 14:50:45.056221  1522 net.cpp:399] pool2 -> pool2
I0711 14:50:45.056282  1522 net.cpp:141] Setting up pool2
I0711 14:50:45.056295  1522 net.cpp:148] Top shape: 100 50 4 4 (80000)
I0711 14:50:45.056303  1522 net.cpp:156] Memory required for data: 7674800
I0711 14:50:45.056311  1522 layer_factory.hpp:77] Creating layer ip1
I0711 14:50:45.056324  1522 net.cpp:91] Creating Layer ip1
I0711 14:50:45.056332  1522 net.cpp:425] ip1 <- pool2
I0711 14:50:45.056345  1522 net.cpp:399] ip1 -> ip1
I0711 14:50:45.061036  1522 net.cpp:141] Setting up ip1
I0711 14:50:45.061058  1522 net.cpp:148] Top shape: 100 500 (50000)
I0711 14:50:45.061065  1522 net.cpp:156] Memory required for data: 7874800
I0711 14:50:45.061082  1522 layer_factory.hpp:77] Creating layer relu1
I0711 14:50:45.061094  1522 net.cpp:91] Creating Layer relu1
I0711 14:50:45.061100  1522 net.cpp:425] relu1 <- ip1
I0711 14:50:45.061110  1522 net.cpp:386] relu1 -> ip1 (in-place)
I0711 14:50:45.061122  1522 net.cpp:141] Setting up relu1
I0711 14:50:45.061131  1522 net.cpp:148] Top shape: 100 500 (50000)
I0711 14:50:45.061138  1522 net.cpp:156] Memory required for data: 8074800
I0711 14:50:45.061144  1522 layer_factory.hpp:77] Creating layer ip2
I0711 14:50:45.061157  1522 net.cpp:91] Creating Layer ip2
I0711 14:50:45.061163  1522 net.cpp:425] ip2 <- ip1
I0711 14:50:45.061174  1522 net.cpp:399] ip2 -> ip2
I0711 14:50:45.061365  1522 net.cpp:141] Setting up ip2
I0711 14:50:45.061378  1522 net.cpp:148] Top shape: 100 10 (1000)
I0711 14:50:45.061383  1522 net.cpp:156] Memory required for data: 8078800
I0711 14:50:45.061394  1522 layer_factory.hpp:77] Creating layer ip2_ip2_0_split
I0711 14:50:45.061403  1522 net.cpp:91] Creating Layer ip2_ip2_0_split
I0711 14:50:45.061410  1522 net.cpp:425] ip2_ip2_0_split <- ip2
I0711 14:50:45.061419  1522 net.cpp:399] ip2_ip2_0_split -> ip2_ip2_0_split_0
I0711 14:50:45.061430  1522 net.cpp:399] ip2_ip2_0_split -> ip2_ip2_0_split_1
I0711 14:50:45.061477  1522 net.cpp:141] Setting up ip2_ip2_0_split
I0711 14:50:45.061487  1522 net.cpp:148] Top shape: 100 10 (1000)
I0711 14:50:45.061496  1522 net.cpp:148] Top shape: 100 10 (1000)
I0711 14:50:45.061501  1522 net.cpp:156] Memory required for data: 8086800
I0711 14:50:45.061507  1522 layer_factory.hpp:77] Creating layer accuracy
I0711 14:50:45.061517  1522 net.cpp:91] Creating Layer accuracy
I0711 14:50:45.061524  1522 net.cpp:425] accuracy <- ip2_ip2_0_split_0
I0711 14:50:45.061532  1522 net.cpp:425] accuracy <- label_mnist_1_split_0
I0711 14:50:45.061542  1522 net.cpp:399] accuracy -> accuracy
…
