…
I0711 14:22:23.125860  1274 net.cpp:313] The NetState phase (0) differed from the phase (1) specified by a rule in layer mnist
I0711 14:22:23.125885  1274 net.cpp:313] The NetState phase (0) differed from the phase (1) specified by a rule in layer accuracy
I0711 14:22:23.125991  1274 net.cpp:49] Initializing net from parameters: 
name: "LeNet"
state {
  phase: TRAIN
}
layer {
  name: "mnist"
  type: "Data"
  top: "data"
  top: "label"
  include {
    phase: TRAIN
  }
  transform_param {
    scale: 0.00390625
  }
  data_param {
    source: "examples/mnist/mnist_train_lmdb"
    batch_size: 64
    backend: LMDB
  }
}
layer {
  name: "conv1"
  type: "Convolution"
  bottom: "data"
  top: "conv1"
  param {
    lr_mult: 1
  }
  param {
    lr_mult: 2
  }
  convolution_param {
    num_output: 20
    kernel_size: 5
    stride: 1
    weight_filler {
      type: "xavier"
    }
    bias_filler {
      type: "constant"
    }
  }
}
layer {
  name: "pool1"
  type: "Pooling"
  bottom: "conv1"
  top: "pool1"
  pooling_param {
    pool: MAX
    kernel_size: 2
    stride: 2
  }
}
layer {
  name: "conv2"
  type: "Convolution"
  bottom: "pool1"
  top: "conv2"
  param {
    lr_mult: 1
  }
  param {
    lr_mult: 2
  }
  convolution_param {
    num_output: 50
    kernel_size: 5
    stride: 1
    weight_filler {
      type: "xavier"
    }
    bias_filler {
      type: "constant"
    }
  }
}
layer {
  name: "pool2"
  type: "Pooling"
  bottom: "conv2"
  top: "pool2"
  pooling_param {
    pool: MAX
    kernel_size: 2
    stride: 2
  }
}
layer {
  name: "ip1"
  type: "InnerProduct"
  bottom: "pool2"
  top: "ip1"
  param {
    lr_mult: 1
  }
  param {
    lr_mult: 2
  }
  inner_product_param {
    num_output: 500
    weight_filler {
      type: "xavier"
    }
    bias_filler {
      type: "constant"
    }
  }
}
layer {
  name: "relu1"
  type: "ReLU"
  bottom: "ip1"
  top: "ip1"
}
layer {
  name: "ip2"
  type: "InnerProduct"
  bottom: "ip1"
  top: "ip2"
  param {
    lr_mult: 1
  }
  param {
    lr_mult: 2
  }
  inner_product_param {
    num_output: 10
    weight_filler {
      type: "xavier"
    }
    bias_filler {
      type: "constant"
    }
  }
}
layer {
  name: "loss"
  type: "SoftmaxWithLoss"
  bottom: "ip2"
  bottom: "label"
  top: "loss"
}
I0711 14:22:23.126076  1274 layer_factory.hpp:77] Creating layer mnist
I0711 14:22:23.131525  1274 net.cpp:91] Creating Layer mnist
I0711 14:22:23.131548  1274 net.cpp:399] mnist -> data
I0711 14:22:23.131582  1274 net.cpp:399] mnist -> label
I0711 14:22:23.132427  1280 db_lmdb.cpp:35] Opened lmdb examples/mnist/mnist_train_lmdb
I0711 14:22:23.151513  1274 data_layer.cpp:41] output data size: 64,1,28,28
I0711 14:22:23.153383  1274 net.cpp:141] Setting up mnist
I0711 14:22:23.153445  1274 net.cpp:148] Top shape: 64 1 28 28 (50176)
I0711 14:22:23.153483  1274 net.cpp:148] Top shape: 64 (64)
I0711 14:22:23.153496  1274 net.cpp:156] Memory required for data: 200960
I0711 14:22:23.153517  1274 layer_factory.hpp:77] Creating layer conv1
I0711 14:22:23.153553  1274 net.cpp:91] Creating Layer conv1
I0711 14:22:23.153568  1274 net.cpp:425] conv1 <- data
I0711 14:22:23.153599  1274 net.cpp:399] conv1 -> conv1
I0711 14:22:23.155016  1274 net.cpp:141] Setting up conv1
I0711 14:22:23.155041  1274 net.cpp:148] Top shape: 64 20 24 24 (737280)
I0711 14:22:23.155051  1274 net.cpp:156] Memory required for data: 3150080
I0711 14:22:23.155087  1274 layer_factory.hpp:77] Creating layer pool1
I0711 14:22:23.155112  1274 net.cpp:91] Creating Layer pool1
I0711 14:22:23.155122  1274 net.cpp:425] pool1 <- conv1
I0711 14:22:23.155165  1274 net.cpp:399] pool1 -> pool1
I0711 14:22:23.155354  1274 net.cpp:141] Setting up pool1
I0711 14:22:23.155377  1274 net.cpp:148] Top shape: 64 20 12 12 (184320)
I0711 14:22:23.155390  1274 net.cpp:156] Memory required for data: 3887360
I0711 14:22:23.155405  1274 layer_factory.hpp:77] Creating layer conv2
I0711 14:22:23.155438  1274 net.cpp:91] Creating Layer conv2
I0711 14:22:23.155452  1274 net.cpp:425] conv2 <- pool1
I0711 14:22:23.155480  1274 net.cpp:399] conv2 -> conv2
I0711 14:22:23.156632  1274 net.cpp:141] Setting up conv2
I0711 14:22:23.156654  1274 net.cpp:148] Top shape: 64 50 8 8 (204800)
I0711 14:22:23.156667  1274 net.cpp:156] Memory required for data: 4706560
I0711 14:22:23.156700  1274 layer_factory.hpp:77] Creating layer pool2
I0711 14:22:23.156729  1274 net.cpp:91] Creating Layer pool2
I0711 14:22:23.156744  1274 net.cpp:425] pool2 <- conv2
I0711 14:22:23.156764  1274 net.cpp:399] pool2 -> pool2
I0711 14:22:23.156874  1274 net.cpp:141] Setting up pool2
I0711 14:22:23.156894  1274 net.cpp:148] Top shape: 64 50 4 4 (51200)
I0711 14:22:23.156913  1274 net.cpp:156] Memory required for data: 4911360
I0711 14:22:23.156929  1274 layer_factory.hpp:77] Creating layer ip1
I0711 14:22:23.156952  1274 net.cpp:91] Creating Layer ip1
I0711 14:22:23.156977  1274 net.cpp:425] ip1 <- pool2
I0711 14:22:23.157004  1274 net.cpp:399] ip1 -> ip1
I0711 14:22:23.164460  1274 net.cpp:141] Setting up ip1
I0711 14:22:23.164485  1274 net.cpp:148] Top shape: 64 500 (32000)
I0711 14:22:23.164491  1274 net.cpp:156] Memory required for data: 5039360
I0711 14:22:23.164506  1274 layer_factory.hpp:77] Creating layer relu1
I0711 14:22:23.164518  1274 net.cpp:91] Creating Layer relu1
I0711 14:22:23.164525  1274 net.cpp:425] relu1 <- ip1
I0711 14:22:23.164533  1274 net.cpp:386] relu1 -> ip1 (in-place)
I0711 14:22:23.164553  1274 net.cpp:141] Setting up relu1
I0711 14:22:23.164561  1274 net.cpp:148] Top shape: 64 500 (32000)
I0711 14:22:23.164566  1274 net.cpp:156] Memory required for data: 5167360
I0711 14:22:23.164572  1274 layer_factory.hpp:77] Creating layer ip2
I0711 14:22:23.164583  1274 net.cpp:91] Creating Layer ip2
I0711 14:22:23.164592  1274 net.cpp:425] ip2 <- ip1
I0711 14:22:23.164599  1274 net.cpp:399] ip2 -> ip2
I0711 14:22:23.165351  1274 net.cpp:141] Setting up ip2
I0711 14:22:23.165365  1274 net.cpp:148] Top shape: 64 10 (640)
I0711 14:22:23.165371  1274 net.cpp:156] Memory required for data: 5169920
I0711 14:22:23.165382  1274 layer_factory.hpp:77] Creating layer loss
I0711 14:22:23.165398  1274 net.cpp:91] Creating Layer loss
I0711 14:22:23.165405  1274 net.cpp:425] loss <- ip2
I0711 14:22:23.165411  1274 net.cpp:425] loss <- label
I0711 14:22:23.165423  1274 net.cpp:399] loss -> loss
I0711 14:22:23.165446  1274 layer_factory.hpp:77] Creating layer loss
…
I0711 14:22:23.166183  1274 solver.cpp:181] Creating test net (#0) specified by net file: examples/mnist/lenet_train_test.prototxt
I0711 14:22:23.166220  1274 net.cpp:313] The NetState phase (1) differed from the phase (0) specified by a rule in layer mnist
I0711 14:22:23.166373  1274 net.cpp:49] Initializing net from parameters: 
name: "LeNet"
state {
  phase: TEST
}
layer {
  name: "mnist"
  type: "Data"
  top: "data"
  top: "label"
  include {
    phase: TEST
  }
  transform_param {
    scale: 0.00390625
  }
  data_param {
    source: "examples/mnist/mnist_test_lmdb"
    batch_size: 100
    backend: LMDB
  }
}
layer {
  name: "conv1"
  type: "Convolution"
  bottom: "data"
  top: "conv1"
  param {
    lr_mult: 1
  }
  param {
    lr_mult: 2
  }
  convolution_param {
    num_output: 20
    kernel_size: 5
    stride: 1
    weight_filler {
      type: "xavier"
    }
    bias_filler {
      type: "constant"
    }
  }
}
layer {
  name: "pool1"
  type: "Pooling"
  bottom: "conv1"
  top: "pool1"
  pooling_param {
    pool: MAX
    kernel_size: 2
    stride: 2
  }
}
layer {
  name: "conv2"
  type: "Convolution"
  bottom: "pool1"
  top: "conv2"
  param {
    lr_mult: 1
  }
  param {
    lr_mult: 2
  }
  convolution_param {
    num_output: 50
    kernel_size: 5
    stride: 1
    weight_filler {
      type: "xavier"
    }
    bias_filler {
      type: "constant"
    }
  }
}
layer {
  name: "pool2"
  type: "Pooling"
  bottom: "conv2"
  top: "pool2"
  pooling_param {
    pool: MAX
    kernel_size: 2
    stride: 2
  }
}
layer {
  name: "ip1"
  type: "InnerProduct"
  bottom: "pool2"
  top: "ip1"
  param {
    lr_mult: 1
  }
  param {
    lr_mult: 2
  }
  inner_product_param {
    num_output: 500
    weight_filler {
      type: "xavier"
    }
    bias_filler {
      type: "constant"
    }
  }
}
layer {
  name: "relu1"
  type: "ReLU"
  bottom: "ip1"
  top: "ip1"
}
layer {
  name: "ip2"
  type: "InnerProduct"
  bottom: "ip1"
  top: "ip2"
  param {
    lr_mult: 1
  }
  param {
    lr_mult: 2
  }
  inner_product_param {
    num_output: 10
    weight_filler {
      type: "xavier"
    }
    bias_filler {
      type: "constant"
    }
  }
}
layer {
  name: "accuracy"
  type: "Accuracy"
  bottom: "ip2"
  bottom: "label"
  top: "accuracy"
  include {
    phase: TEST
  }
}
layer {
  name: "loss"
  type: "SoftmaxWithLoss"
  bottom: "ip2"
  bottom: "label"
  top: "loss"
}
I0711 14:22:23.166471  1274 layer_factory.hpp:77] Creating layer mnist
I0711 14:22:23.166625  1274 net.cpp:91] Creating Layer mnist
I0711 14:22:23.166642  1274 net.cpp:399] mnist -> data
I0711 14:22:23.166653  1274 net.cpp:399] mnist -> label
I0711 14:22:23.167670  1282 db_lmdb.cpp:35] Opened lmdb examples/mnist/mnist_test_lmdb
I0711 14:22:23.167851  1274 data_layer.cpp:41] output data size: 100,1,28,28
I0711 14:22:23.169205  1274 net.cpp:141] Setting up mnist
I0711 14:22:23.169227  1274 net.cpp:148] Top shape: 100 1 28 28 (78400)
I0711 14:22:23.169239  1274 net.cpp:148] Top shape: 100 (100)
I0711 14:22:23.169247  1274 net.cpp:156] Memory required for data: 314000
I0711 14:22:23.169255  1274 layer_factory.hpp:77] Creating layer label_mnist_1_split
I0711 14:22:23.169272  1274 net.cpp:91] Creating Layer label_mnist_1_split
I0711 14:22:23.169280  1274 net.cpp:425] label_mnist_1_split <- label
I0711 14:22:23.169291  1274 net.cpp:399] label_mnist_1_split -> label_mnist_1_split_0
I0711 14:22:23.169307  1274 net.cpp:399] label_mnist_1_split -> label_mnist_1_split_1
I0711 14:22:23.169404  1274 net.cpp:141] Setting up label_mnist_1_split
I0711 14:22:23.169419  1274 net.cpp:148] Top shape: 100 (100)
I0711 14:22:23.169431  1274 net.cpp:148] Top shape: 100 (100)
I0711 14:22:23.169440  1274 net.cpp:156] Memory required for data: 314800
I0711 14:22:23.169450  1274 layer_factory.hpp:77] Creating layer conv1
I0711 14:22:23.169483  1274 net.cpp:91] Creating Layer conv1
I0711 14:22:23.169503  1274 net.cpp:425] conv1 <- data
I0711 14:22:23.169529  1274 net.cpp:399] conv1 -> conv1
I0711 14:22:23.169966  1274 net.cpp:141] Setting up conv1
I0711 14:22:23.169983  1274 net.cpp:148] Top shape: 100 20 24 24 (1152000)
I0711 14:22:23.169989  1274 net.cpp:156] Memory required for data: 4922800
I0711 14:22:23.170009  1274 layer_factory.hpp:77] Creating layer pool1
I0711 14:22:23.170020  1274 net.cpp:91] Creating Layer pool1
I0711 14:22:23.170047  1274 net.cpp:425] pool1 <- conv1
I0711 14:22:23.170061  1274 net.cpp:399] pool1 -> pool1
I0711 14:22:23.170207  1274 net.cpp:141] Setting up pool1
I0711 14:22:23.170220  1274 net.cpp:148] Top shape: 100 20 12 12 (288000)
I0711 14:22:23.170228  1274 net.cpp:156] Memory required for data: 6074800
I0711 14:22:23.170234  1274 layer_factory.hpp:77] Creating layer conv2
I0711 14:22:23.170255  1274 net.cpp:91] Creating Layer conv2
I0711 14:22:23.170263  1274 net.cpp:425] conv2 <- pool1
I0711 14:22:23.170274  1274 net.cpp:399] conv2 -> conv2
I0711 14:22:23.170853  1274 net.cpp:141] Setting up conv2
I0711 14:22:23.170866  1274 net.cpp:148] Top shape: 100 50 8 8 (320000)
I0711 14:22:23.170873  1274 net.cpp:156] Memory required for data: 7354800
I0711 14:22:23.170889  1274 layer_factory.hpp:77] Creating layer pool2
I0711 14:22:23.170902  1274 net.cpp:91] Creating Layer pool2
I0711 14:22:23.170908  1274 net.cpp:425] pool2 <- conv2
I0711 14:22:23.170919  1274 net.cpp:399] pool2 -> pool2
I0711 14:22:23.170976  1274 net.cpp:141] Setting up pool2
I0711 14:22:23.170989  1274 net.cpp:148] Top shape: 100 50 4 4 (80000)
I0711 14:22:23.170995  1274 net.cpp:156] Memory required for data: 7674800
I0711 14:22:23.171003  1274 layer_factory.hpp:77] Creating layer ip1
I0711 14:22:23.171015  1274 net.cpp:91] Creating Layer ip1
I0711 14:22:23.171021  1274 net.cpp:425] ip1 <- pool2
I0711 14:22:23.171038  1274 net.cpp:399] ip1 -> ip1
I0711 14:22:23.175310  1274 net.cpp:141] Setting up ip1
I0711 14:22:23.175329  1274 net.cpp:148] Top shape: 100 500 (50000)
I0711 14:22:23.175336  1274 net.cpp:156] Memory required for data: 7874800
I0711 14:22:23.175354  1274 layer_factory.hpp:77] Creating layer relu1
I0711 14:22:23.175364  1274 net.cpp:91] Creating Layer relu1
I0711 14:22:23.175371  1274 net.cpp:425] relu1 <- ip1
I0711 14:22:23.175380  1274 net.cpp:386] relu1 -> ip1 (in-place)
I0711 14:22:23.175392  1274 net.cpp:141] Setting up relu1
I0711 14:22:23.175400  1274 net.cpp:148] Top shape: 100 500 (50000)
I0711 14:22:23.175405  1274 net.cpp:156] Memory required for data: 8074800
I0711 14:22:23.175412  1274 layer_factory.hpp:77] Creating layer ip2
I0711 14:22:23.175428  1274 net.cpp:91] Creating Layer ip2
I0711 14:22:23.175434  1274 net.cpp:425] ip2 <- ip1
I0711 14:22:23.175446  1274 net.cpp:399] ip2 -> ip2
I0711 14:22:23.175631  1274 net.cpp:141] Setting up ip2
I0711 14:22:23.175642  1274 net.cpp:148] Top shape: 100 10 (1000)
I0711 14:22:23.175648  1274 net.cpp:156] Memory required for data: 8078800
I0711 14:22:23.175659  1274 layer_factory.hpp:77] Creating layer ip2_ip2_0_split
I0711 14:22:23.175668  1274 net.cpp:91] Creating Layer ip2_ip2_0_split
I0711 14:22:23.175674  1274 net.cpp:425] ip2_ip2_0_split <- ip2
I0711 14:22:23.175683  1274 net.cpp:399] ip2_ip2_0_split -> ip2_ip2_0_split_0
I0711 14:22:23.175694  1274 net.cpp:399] ip2_ip2_0_split -> ip2_ip2_0_split_1
I0711 14:22:23.175745  1274 net.cpp:141] Setting up ip2_ip2_0_split
I0711 14:22:23.175756  1274 net.cpp:148] Top shape: 100 10 (1000)
I0711 14:22:23.175765  1274 net.cpp:148] Top shape: 100 10 (1000)
I0711 14:22:23.175770  1274 net.cpp:156] Memory required for data: 8086800
I0711 14:22:23.175776  1274 layer_factory.hpp:77] Creating layer accuracy
I0711 14:22:23.175788  1274 net.cpp:91] Creating Layer accuracy
I0711 14:22:23.175794  1274 net.cpp:425] accuracy <- ip2_ip2_0_split_0
I0711 14:22:23.175802  1274 net.cpp:425] accuracy <- label_mnist_1_split_0
I0711 14:22:23.175812  1274 net.cpp:399] accuracy -> accuracy
…
