…
I0715 10:28:33.130326 16176 net.cpp:313] The NetState phase (0) differed from the phase (1) specified by a rule in layer mnist
I0715 10:28:33.130535 16176 net.cpp:313] The NetState phase (0) differed from the phase (1) specified by a rule in layer accuracy
I0715 10:28:33.130805 16176 net.cpp:49] Initializing net from parameters: 
name: "LeNet"
state {
  phase: TRAIN
}
layer {
  name: "mnist"
  type: "Data"
  top: "data"
  top: "label"
  include {
    phase: TRAIN
  }
  transform_param {
    scale: 0.00390625
  }
  data_param {
    source: "examples/mnist/mnist_test_lmdb"
    batch_size: 64
    backend: LMDB
  }
}
layer {
  name: "conv1"
  type: "Convolution"
  bottom: "data"
  top: "conv1"
  param {
    lr_mult: 1
  }
  param {
    lr_mult: 2
  }
  convolution_param {
    num_output: 20
    kernel_size: 5
    stride: 1
    weight_filler {
      type: "xavier"
    }
    bias_filler {
      type: "constant"
    }
  }
}
layer {
  name: "pool1"
  type: "Pooling"
  bottom: "conv1"
  top: "pool1"
  pooling_param {
    pool: MAX
    kernel_size: 2
    stride: 2
  }
}
layer {
  name: "conv2"
  type: "Convolution"
  bottom: "pool1"
  top: "conv2"
  param {
    lr_mult: 1
  }
  param {
    lr_mult: 2
  }
  convolution_param {
    num_output: 50
    kernel_size: 5
    stride: 1
    weight_filler {
      type: "xavier"
    }
    bias_filler {
      type: "constant"
    }
  }
}
layer {
  name: "pool2"
  type: "Pooling"
  bottom: "conv2"
  top: "pool2"
  pooling_param {
    pool: MAX
    kernel_size: 2
    stride: 2
  }
}
layer {
  name: "ip1"
  type: "InnerProduct"
  bottom: "pool2"
  top: "ip1"
  param {
    lr_mult: 1
  }
  param {
    lr_mult: 2
  }
  inner_product_param {
    num_output: 500
    weight_filler {
      type: "xavier"
    }
    bias_filler {
      type: "constant"
    }
  }
}
layer {
  name: "relu1"
  type: "ReLU"
  bottom: "ip1"
  top: "ip1"
}
layer {
  name: "ip2"
  type: "InnerProduct"
  bottom: "ip1"
  top: "ip2"
  param {
    lr_mult: 1
  }
  param {
    lr_mult: 2
  }
  inner_product_param {
    num_output: 10
    weight_filler {
      type: "xavier"
    }
    bias_filler {
      type: "constant"
    }
  }
}
layer {
  name: "loss"
  type: "SoftmaxWithLoss"
  bottom: "ip2"
  bottom: "label"
  top: "loss"
}
I0715 10:28:33.131976 16176 layer_factory.hpp:77] Creating layer mnist
I0715 10:28:33.133095 16176 net.cpp:91] Creating Layer mnist
I0715 10:28:33.133167 16176 net.cpp:399] mnist -> data
I0715 10:28:33.133381 16180 db_lmdb.cpp:35] Opened lmdb examples/mnist/mnist_test_lmdb
I0715 10:28:33.133513 16176 net.cpp:399] mnist -> label
I0715 10:28:33.134268 16176 data_layer.cpp:41] output data size: 64,1,28,28
I0715 10:28:33.134810 16176 base_data_layer.cpp:69] Initializing prefetch
I0715 10:28:33.135463 16176 base_data_layer.cpp:72] Prefetch initialized.
I0715 10:28:33.135547 16176 net.cpp:141] Setting up mnist
I0715 10:28:33.135773 16176 net.cpp:148] Top shape: 64 1 28 28 (50176)
I0715 10:28:33.135814 16176 net.cpp:148] Top shape: 64 (64)
I0715 10:28:33.135821 16176 net.cpp:156] Memory required for data: 200960
I0715 10:28:33.135949 16176 layer_factory.hpp:77] Creating layer conv1
I0715 10:28:33.136150 16176 net.cpp:91] Creating Layer conv1
I0715 10:28:33.136206 16176 net.cpp:425] conv1 <- data
I0715 10:28:33.136382 16176 net.cpp:399] conv1 -> conv1
I0715 10:28:33.136793 16176 net.cpp:141] Setting up conv1
I0715 10:28:33.136869 16176 net.cpp:148] Top shape: 64 20 24 24 (737280)
I0715 10:28:33.136878 16176 net.cpp:156] Memory required for data: 3150080
I0715 10:28:33.137107 16176 layer_factory.hpp:77] Creating layer pool1
I0715 10:28:33.137197 16176 net.cpp:91] Creating Layer pool1
I0715 10:28:33.137257 16176 net.cpp:425] pool1 <- conv1
I0715 10:28:33.137310 16176 net.cpp:399] pool1 -> pool1
I0715 10:28:33.137409 16176 net.cpp:141] Setting up pool1
I0715 10:28:33.137455 16176 net.cpp:148] Top shape: 64 20 12 12 (184320)
I0715 10:28:33.137465 16176 net.cpp:156] Memory required for data: 3887360
I0715 10:28:33.137475 16176 layer_factory.hpp:77] Creating layer conv2
I0715 10:28:33.137516 16176 net.cpp:91] Creating Layer conv2
I0715 10:28:33.137550 16176 net.cpp:425] conv2 <- pool1
I0715 10:28:33.137588 16176 net.cpp:399] conv2 -> conv2
I0715 10:28:33.138808 16181 data_layer.cpp:102] Prefetch batch: 2 ms.
I0715 10:28:33.138885 16181 data_layer.cpp:103]      Read time: 0.266 ms.
I0715 10:28:33.138908 16181 data_layer.cpp:104] Transform time: 1.401 ms.
I0715 10:28:33.143656 16181 data_layer.cpp:102] Prefetch batch: 4 ms.
I0715 10:28:33.143772 16181 data_layer.cpp:103]      Read time: 0.18 ms.
I0715 10:28:33.143800 16181 data_layer.cpp:104] Transform time: 0.956 ms.
I0715 10:28:33.145931 16181 data_layer.cpp:102] Prefetch batch: 2 ms.
I0715 10:28:33.146021 16181 data_layer.cpp:103]      Read time: 0.158 ms.
I0715 10:28:33.146040 16181 data_layer.cpp:104] Transform time: 1.015 ms.
I0715 10:28:33.153626 16176 net.cpp:141] Setting up conv2
I0715 10:28:33.153694 16176 net.cpp:148] Top shape: 64 50 8 8 (204800)
I0715 10:28:33.153700 16176 net.cpp:156] Memory required for data: 4706560
I0715 10:28:33.153738 16176 layer_factory.hpp:77] Creating layer pool2
I0715 10:28:33.153775 16176 net.cpp:91] Creating Layer pool2
I0715 10:28:33.153785 16176 net.cpp:425] pool2 <- conv2
I0715 10:28:33.153878 16176 net.cpp:399] pool2 -> pool2
I0715 10:28:33.153923 16176 net.cpp:141] Setting up pool2
I0715 10:28:33.153933 16176 net.cpp:148] Top shape: 64 50 4 4 (51200)
I0715 10:28:33.153935 16176 net.cpp:156] Memory required for data: 4911360
I0715 10:28:33.153940 16176 layer_factory.hpp:77] Creating layer ip1
I0715 10:28:33.153962 16176 net.cpp:91] Creating Layer ip1
I0715 10:28:33.153985 16176 net.cpp:425] ip1 <- pool2
I0715 10:28:33.154001 16176 net.cpp:399] ip1 -> ip1
I0715 10:28:33.212512 16176 net.cpp:141] Setting up ip1
I0715 10:28:33.212661 16176 net.cpp:148] Top shape: 64 500 (32000)
I0715 10:28:33.212674 16176 net.cpp:156] Memory required for data: 5039360
I0715 10:28:33.212733 16176 layer_factory.hpp:77] Creating layer relu1
I0715 10:28:33.212807 16176 net.cpp:91] Creating Layer relu1
I0715 10:28:33.212847 16176 net.cpp:425] relu1 <- ip1
I0715 10:28:33.212882 16176 net.cpp:386] relu1 -> ip1 (in-place)
I0715 10:28:33.212939 16176 net.cpp:141] Setting up relu1
I0715 10:28:33.212951 16176 net.cpp:148] Top shape: 64 500 (32000)
I0715 10:28:33.212977 16176 net.cpp:156] Memory required for data: 5167360
I0715 10:28:33.212988 16176 layer_factory.hpp:77] Creating layer ip2
I0715 10:28:33.213237 16176 net.cpp:91] Creating Layer ip2
I0715 10:28:33.213831 16176 net.cpp:425] ip2 <- ip1
I0715 10:28:33.214330 16176 net.cpp:399] ip2 -> ip2
I0715 10:28:33.216369 16176 net.cpp:141] Setting up ip2
I0715 10:28:33.216531 16176 net.cpp:148] Top shape: 64 10 (640)
I0715 10:28:33.216537 16176 net.cpp:156] Memory required for data: 5169920
I0715 10:28:33.216567 16176 layer_factory.hpp:77] Creating layer loss
I0715 10:28:33.216622 16176 net.cpp:91] Creating Layer loss
I0715 10:28:33.216645 16176 net.cpp:425] loss <- ip2
I0715 10:28:33.216673 16176 net.cpp:425] loss <- label
I0715 10:28:33.216701 16176 net.cpp:399] loss -> loss
I0715 10:28:33.216737 16176 layer_factory.hpp:77] Creating layer loss
…
I0715 10:28:33.217331 16176 solver.cpp:181] Creating test net (#0) specified by net file: examples/mnist/lenet_train_test.prototxt
I0715 10:28:33.217408 16176 net.cpp:313] The NetState phase (1) differed from the phase (0) specified by a rule in layer mnist
I0715 10:28:33.217496 16176 net.cpp:49] Initializing net from parameters: 
name: "LeNet"
state {
  phase: TEST
}
layer {
  name: "mnist"
  type: "Data"
  top: "data"
  top: "label"
  include {
    phase: TEST
  }
  transform_param {
    scale: 0.00390625
  }
  data_param {
    source: "examples/mnist/mnist_train_lmdb"
    batch_size: 100
    backend: LMDB
  }
}
layer {
  name: "conv1"
  type: "Convolution"
  bottom: "data"
  top: "conv1"
  param {
    lr_mult: 1
  }
  param {
    lr_mult: 2
  }
  convolution_param {
    num_output: 20
    kernel_size: 5
    stride: 1
    weight_filler {
      type: "xavier"
    }
    bias_filler {
      type: "constant"
    }
  }
}
layer {
  name: "pool1"
  type: "Pooling"
  bottom: "conv1"
  top: "pool1"
  pooling_param {
    pool: MAX
    kernel_size: 2
    stride: 2
  }
}
layer {
  name: "conv2"
  type: "Convolution"
  bottom: "pool1"
  top: "conv2"
  param {
    lr_mult: 1
  }
  param {
    lr_mult: 2
  }
  convolution_param {
    num_output: 50
    kernel_size: 5
    stride: 1
    weight_filler {
      type: "xavier"
    }
    bias_filler {
      type: "constant"
    }
  }
}
layer {
  name: "pool2"
  type: "Pooling"
  bottom: "conv2"
  top: "pool2"
  pooling_param {
    pool: MAX
    kernel_size: 2
    stride: 2
  }
}
layer {
  name: "ip1"
  type: "InnerProduct"
  bottom: "pool2"
  top: "ip1"
  param {
    lr_mult: 1
  }
  param {
    lr_mult: 2
  }
  inner_product_param {
    num_output: 500
    weight_filler {
      type: "xavier"
    }
    bias_filler {
      type: "constant"
    }
  }
}
layer {
  name: "relu1"
  type: "ReLU"
  bottom: "ip1"
  top: "ip1"
}
layer {
  name: "ip2"
  type: "InnerProduct"
  bottom: "ip1"
  top: "ip2"
  param {
    lr_mult: 1
  }
  param {
    lr_mult: 2
  }
  inner_product_param {
    num_output: 10
    weight_filler {
      type: "xavier"
    }
    bias_filler {
      type: "constant"
    }
  }
}
layer {
  name: "accuracy"
  type: "Accuracy"
  bottom: "ip2"
  bottom: "label"
  top: "accuracy"
  include {
    phase: TEST
  }
}
layer {
  name: "loss"
  type: "SoftmaxWithLoss"
  bottom: "ip2"
  bottom: "label"
  top: "loss"
}
I0715 10:28:33.217705 16176 layer_factory.hpp:77] Creating layer mnist
I0715 10:28:33.217919 16176 net.cpp:91] Creating Layer mnist
I0715 10:28:33.217947 16176 net.cpp:399] mnist -> data
I0715 10:28:33.217972 16176 net.cpp:399] mnist -> label
I0715 10:28:33.218087 16182 db_lmdb.cpp:35] Opened lmdb examples/mnist/mnist_train_lmdb
I0715 10:28:33.218235 16176 data_layer.cpp:41] output data size: 100,1,28,28
I0715 10:28:33.227797 16176 base_data_layer.cpp:69] Initializing prefetch
I0715 10:28:33.228595 16176 base_data_layer.cpp:72] Prefetch initialized.
I0715 10:28:33.228726 16176 net.cpp:141] Setting up mnist
I0715 10:28:33.228847 16176 net.cpp:148] Top shape: 100 1 28 28 (78400)
I0715 10:28:33.228873 16176 net.cpp:148] Top shape: 100 (100)
I0715 10:28:33.228880 16176 net.cpp:156] Memory required for data: 314000
I0715 10:28:33.228921 16176 layer_factory.hpp:77] Creating layer label_mnist_1_split
I0715 10:28:33.228984 16176 net.cpp:91] Creating Layer label_mnist_1_split
I0715 10:28:33.229017 16176 net.cpp:425] label_mnist_1_split <- label
I0715 10:28:33.229115 16176 net.cpp:399] label_mnist_1_split -> label_mnist_1_split_0
I0715 10:28:33.229200 16176 net.cpp:399] label_mnist_1_split -> label_mnist_1_split_1
I0715 10:28:33.229425 16176 net.cpp:141] Setting up label_mnist_1_split
I0715 10:28:33.229457 16176 net.cpp:148] Top shape: 100 (100)
I0715 10:28:33.229466 16176 net.cpp:148] Top shape: 100 (100)
I0715 10:28:33.229472 16176 net.cpp:156] Memory required for data: 314800
I0715 10:28:33.229485 16176 layer_factory.hpp:77] Creating layer conv1
I0715 10:28:33.229635 16176 net.cpp:91] Creating Layer conv1
I0715 10:28:33.229712 16176 net.cpp:425] conv1 <- data
I0715 10:28:33.229768 16176 net.cpp:399] conv1 -> conv1
I0715 10:28:33.229990 16176 net.cpp:141] Setting up conv1
I0715 10:28:33.230031 16176 net.cpp:148] Top shape: 100 20 24 24 (1152000)
I0715 10:28:33.230038 16176 net.cpp:156] Memory required for data: 4922800
I0715 10:28:33.230087 16176 layer_factory.hpp:77] Creating layer pool1
I0715 10:28:33.230124 16176 net.cpp:91] Creating Layer pool1
I0715 10:28:33.230137 16176 net.cpp:425] pool1 <- conv1
I0715 10:28:33.230170 16176 net.cpp:399] pool1 -> pool1
I0715 10:28:33.230226 16176 net.cpp:141] Setting up pool1
I0715 10:28:33.230242 16176 net.cpp:148] Top shape: 100 20 12 12 (288000)
I0715 10:28:33.230247 16176 net.cpp:156] Memory required for data: 6074800
I0715 10:28:33.230257 16176 layer_factory.hpp:77] Creating layer conv2
I0715 10:28:33.230299 16176 net.cpp:91] Creating Layer conv2
I0715 10:28:33.230314 16176 net.cpp:425] conv2 <- pool1
I0715 10:28:33.230356 16176 net.cpp:399] conv2 -> conv2
I0715 10:28:33.233224 16176 net.cpp:141] Setting up conv2
I0715 10:28:33.233300 16176 net.cpp:148] Top shape: 100 50 8 8 (320000)
I0715 10:28:33.233309 16176 net.cpp:156] Memory required for data: 7354800
I0715 10:28:33.233376 16176 layer_factory.hpp:77] Creating layer pool2
I0715 10:28:33.233427 16176 net.cpp:91] Creating Layer pool2
I0715 10:28:33.233445 16176 net.cpp:425] pool2 <- conv2
I0715 10:28:33.233479 16176 net.cpp:399] pool2 -> pool2
I0715 10:28:33.233944 16176 net.cpp:141] Setting up pool2
I0715 10:28:33.233971 16176 net.cpp:148] Top shape: 100 50 4 4 (80000)
I0715 10:28:33.233978 16176 net.cpp:156] Memory required for data: 7674800
I0715 10:28:33.233989 16176 layer_factory.hpp:77] Creating layer ip1
I0715 10:28:33.234048 16176 net.cpp:91] Creating Layer ip1
I0715 10:28:33.234087 16176 net.cpp:425] ip1 <- pool2
I0715 10:28:33.234134 16176 net.cpp:399] ip1 -> ip1
I0715 10:28:33.253264 16183 data_layer.cpp:102] Prefetch batch: 17 ms.
I0715 10:28:33.253332 16183 data_layer.cpp:103]      Read time: 0.253 ms.
I0715 10:28:33.253345 16183 data_layer.cpp:104] Transform time: 10.54 ms.
I0715 10:28:33.256119 16183 data_layer.cpp:102] Prefetch batch: 2 ms.
I0715 10:28:33.256541 16183 data_layer.cpp:103]      Read time: 0.196 ms.
I0715 10:28:33.256652 16183 data_layer.cpp:104] Transform time: 1.804 ms.
I0715 10:28:33.258368 16183 data_layer.cpp:102] Prefetch batch: 1 ms.
I0715 10:28:33.260753 16183 data_layer.cpp:103]      Read time: 0.086 ms.
I0715 10:28:33.260799 16183 data_layer.cpp:104] Transform time: 1.268 ms.
I0715 10:28:33.304782 16176 net.cpp:141] Setting up ip1
I0715 10:28:33.304966 16176 net.cpp:148] Top shape: 100 500 (50000)
I0715 10:28:33.305006 16176 net.cpp:156] Memory required for data: 7874800
I0715 10:28:33.305064 16176 layer_factory.hpp:77] Creating layer relu1
I0715 10:28:33.305130 16176 net.cpp:91] Creating Layer relu1
I0715 10:28:33.305171 16176 net.cpp:425] relu1 <- ip1
I0715 10:28:33.305208 16176 net.cpp:386] relu1 -> ip1 (in-place)
I0715 10:28:33.305263 16176 net.cpp:141] Setting up relu1
I0715 10:28:33.305301 16176 net.cpp:148] Top shape: 100 500 (50000)
I0715 10:28:33.305317 16176 net.cpp:156] Memory required for data: 8074800
I0715 10:28:33.305344 16176 layer_factory.hpp:77] Creating layer ip2
I0715 10:28:33.305398 16176 net.cpp:91] Creating Layer ip2
I0715 10:28:33.305438 16176 net.cpp:425] ip2 <- ip1
I0715 10:28:33.305476 16176 net.cpp:399] ip2 -> ip2
I0715 10:28:33.306233 16176 net.cpp:141] Setting up ip2
I0715 10:28:33.306385 16176 net.cpp:148] Top shape: 100 10 (1000)
I0715 10:28:33.306427 16176 net.cpp:156] Memory required for data: 8078800
I0715 10:28:33.306769 16176 layer_factory.hpp:77] Creating layer ip2_ip2_0_split
I0715 10:28:33.307065 16176 net.cpp:91] Creating Layer ip2_ip2_0_split
I0715 10:28:33.307445 16176 net.cpp:425] ip2_ip2_0_split <- ip2
I0715 10:28:33.307605 16176 net.cpp:399] ip2_ip2_0_split -> ip2_ip2_0_split_0
I0715 10:28:33.307842 16176 net.cpp:399] ip2_ip2_0_split -> ip2_ip2_0_split_1
I0715 10:28:33.308087 16176 net.cpp:141] Setting up ip2_ip2_0_split
I0715 10:28:33.308610 16176 net.cpp:148] Top shape: 100 10 (1000)
I0715 10:28:33.309026 16176 net.cpp:148] Top shape: 100 10 (1000)
I0715 10:28:33.309180 16176 net.cpp:156] Memory required for data: 8086800
I0715 10:28:33.309289 16176 layer_factory.hpp:77] Creating layer accuracy
I0715 10:28:33.310313 16176 net.cpp:91] Creating Layer accuracy
I0715 10:28:33.312003 16176 net.cpp:425] accuracy <- ip2_ip2_0_split_0
I0715 10:28:33.312074 16176 net.cpp:425] accuracy <- label_mnist_1_split_0
I0715 10:28:33.312127 16176 net.cpp:399] accuracy -> accuracy
…
