…
I0711 15:01:24.176486  1649 net.cpp:313] The NetState phase (0) differed from the phase (1) specified by a rule in layer mnist
I0711 15:01:24.176508  1649 net.cpp:313] The NetState phase (0) differed from the phase (1) specified by a rule in layer accuracy
I0711 15:01:24.176615  1649 net.cpp:49] Initializing net from parameters: 
name: "LeNet"
state {
  phase: TRAIN
}
layer {
  name: "mnist"
  type: "Data"
  top: "data"
  top: "label"
  include {
    phase: TRAIN
  }
  transform_param {
    scale: 0.00390625
  }
  data_param {
    source: "examples/mnist/mnist_train_lmdb"
    batch_size: 64
    backend: LMDB
  }
}
layer {
  name: "conv1"
  type: "Convolution"
  bottom: "data"
  top: "conv1"
  param {
    lr_mult: 0
  }
  param {
    lr_mult: 0
  }
  convolution_param {
    num_output: 20
    kernel_size: 5
    stride: 1
    weight_filler {
      type: "xavier"
    }
    bias_filler {
      type: "constant"
    }
  }
}
layer {
  name: "pool1"
  type: "Pooling"
  bottom: "conv1"
  top: "pool1"
  pooling_param {
    pool: MAX
    kernel_size: 2
    stride: 2
  }
}
layer {
  name: "conv2"
  type: "Convolution"
  bottom: "pool1"
  top: "conv2"
  param {
    lr_mult: 0
  }
  param {
    lr_mult: 0
  }
  convolution_param {
    num_output: 50
    kernel_size: 5
    stride: 1
    weight_filler {
      type: "xavier"
    }
    bias_filler {
      type: "constant"
    }
  }
}
layer {
  name: "pool2"
  type: "Pooling"
  bottom: "conv2"
  top: "pool2"
  pooling_param {
    pool: MAX
    kernel_size: 2
    stride: 2
  }
}
layer {
  name: "ip1"
  type: "InnerProduct"
  bottom: "pool2"
  top: "ip1"
  param {
    lr_mult: 0
  }
  param {
    lr_mult: 0
  }
  inner_product_param {
    num_output: 500
    weight_filler {
      type: "xavier"
    }
    bias_filler {
      type: "constant"
    }
  }
}
layer {
  name: "relu1"
  type: "ReLU"
  bottom: "ip1"
  top: "ip1"
}
layer {
  name: "ip2"
  type: "InnerProduct"
  bottom: "ip1"
  top: "ip2"
  param {
    lr_mult: 1
  }
  param {
    lr_mult: 2
  }
  inner_product_param {
    num_output: 10
    weight_filler {
      type: "xavier"
    }
    bias_filler {
      type: "constant"
    }
  }
}
layer {
  name: "loss"
  type: "SoftmaxWithLoss"
  bottom: "ip2"
  bottom: "label"
  top: "loss"
}
I0711 15:01:24.176693  1649 layer_factory.hpp:77] Creating layer mnist
I0711 15:01:24.177112  1649 net.cpp:91] Creating Layer mnist
I0711 15:01:24.177124  1649 net.cpp:399] mnist -> data
I0711 15:01:24.177151  1649 net.cpp:399] mnist -> label
I0711 15:01:24.178963  1655 db_lmdb.cpp:35] Opened lmdb examples/mnist/mnist_train_lmdb
I0711 15:01:24.199399  1649 data_layer.cpp:41] output data size: 64,1,28,28
I0711 15:01:24.200599  1649 net.cpp:141] Setting up mnist
I0711 15:01:24.200623  1649 net.cpp:148] Top shape: 64 1 28 28 (50176)
I0711 15:01:24.200631  1649 net.cpp:148] Top shape: 64 (64)
I0711 15:01:24.200637  1649 net.cpp:156] Memory required for data: 200960
I0711 15:01:24.200649  1649 layer_factory.hpp:77] Creating layer conv1
I0711 15:01:24.200754  1649 net.cpp:91] Creating Layer conv1
I0711 15:01:24.200765  1649 net.cpp:425] conv1 <- data
I0711 15:01:24.200781  1649 net.cpp:399] conv1 -> conv1
I0711 15:01:24.201869  1649 net.cpp:141] Setting up conv1
I0711 15:01:24.201885  1649 net.cpp:148] Top shape: 64 20 24 24 (737280)
I0711 15:01:24.201891  1649 net.cpp:156] Memory required for data: 3150080
I0711 15:01:24.201912  1649 layer_factory.hpp:77] Creating layer pool1
I0711 15:01:24.201928  1649 net.cpp:91] Creating Layer pool1
I0711 15:01:24.201934  1649 net.cpp:425] pool1 <- conv1
I0711 15:01:24.201966  1649 net.cpp:399] pool1 -> pool1
I0711 15:01:24.202026  1649 net.cpp:141] Setting up pool1
I0711 15:01:24.202034  1649 net.cpp:148] Top shape: 64 20 12 12 (184320)
I0711 15:01:24.202039  1649 net.cpp:156] Memory required for data: 3887360
I0711 15:01:24.202045  1649 layer_factory.hpp:77] Creating layer conv2
I0711 15:01:24.202059  1649 net.cpp:91] Creating Layer conv2
I0711 15:01:24.202064  1649 net.cpp:425] conv2 <- pool1
I0711 15:01:24.202075  1649 net.cpp:399] conv2 -> conv2
I0711 15:01:24.202559  1649 net.cpp:141] Setting up conv2
I0711 15:01:24.202571  1649 net.cpp:148] Top shape: 64 50 8 8 (204800)
I0711 15:01:24.202577  1649 net.cpp:156] Memory required for data: 4706560
I0711 15:01:24.202589  1649 layer_factory.hpp:77] Creating layer pool2
I0711 15:01:24.202599  1649 net.cpp:91] Creating Layer pool2
I0711 15:01:24.202605  1649 net.cpp:425] pool2 <- conv2
I0711 15:01:24.202615  1649 net.cpp:399] pool2 -> pool2
I0711 15:01:24.202658  1649 net.cpp:141] Setting up pool2
I0711 15:01:24.202666  1649 net.cpp:148] Top shape: 64 50 4 4 (51200)
I0711 15:01:24.202671  1649 net.cpp:156] Memory required for data: 4911360
I0711 15:01:24.202677  1649 layer_factory.hpp:77] Creating layer ip1
I0711 15:01:24.202688  1649 net.cpp:91] Creating Layer ip1
I0711 15:01:24.202693  1649 net.cpp:425] ip1 <- pool2
I0711 15:01:24.202704  1649 net.cpp:399] ip1 -> ip1
I0711 15:01:24.206717  1649 net.cpp:141] Setting up ip1
I0711 15:01:24.206737  1649 net.cpp:148] Top shape: 64 500 (32000)
I0711 15:01:24.206743  1649 net.cpp:156] Memory required for data: 5039360
I0711 15:01:24.206758  1649 layer_factory.hpp:77] Creating layer relu1
I0711 15:01:24.206771  1649 net.cpp:91] Creating Layer relu1
I0711 15:01:24.206779  1649 net.cpp:425] relu1 <- ip1
I0711 15:01:24.206786  1649 net.cpp:386] relu1 -> ip1 (in-place)
I0711 15:01:24.206799  1649 net.cpp:141] Setting up relu1
I0711 15:01:24.206805  1649 net.cpp:148] Top shape: 64 500 (32000)
I0711 15:01:24.206811  1649 net.cpp:156] Memory required for data: 5167360
I0711 15:01:24.206817  1649 layer_factory.hpp:77] Creating layer ip2
I0711 15:01:24.206826  1649 net.cpp:91] Creating Layer ip2
I0711 15:01:24.206832  1649 net.cpp:425] ip2 <- ip1
I0711 15:01:24.206843  1649 net.cpp:399] ip2 -> ip2
I0711 15:01:24.207655  1649 net.cpp:141] Setting up ip2
I0711 15:01:24.207671  1649 net.cpp:148] Top shape: 64 10 (640)
I0711 15:01:24.207718  1649 net.cpp:156] Memory required for data: 5169920
I0711 15:01:24.207729  1649 layer_factory.hpp:77] Creating layer loss
I0711 15:01:24.207752  1649 net.cpp:91] Creating Layer loss
I0711 15:01:24.207763  1649 net.cpp:425] loss <- ip2
I0711 15:01:24.207772  1649 net.cpp:425] loss <- label
I0711 15:01:24.207787  1649 net.cpp:399] loss -> loss
I0711 15:01:24.207808  1649 layer_factory.hpp:77] Creating layer loss
…
I0711 15:01:24.208658  1649 solver.cpp:181] Creating test net (#0) specified by net file: examples/mnist/lenet_train_test_fine.prototxt
I0711 15:01:24.208714  1649 net.cpp:313] The NetState phase (1) differed from the phase (0) specified by a rule in layer mnist
I0711 15:01:24.208853  1649 net.cpp:49] Initializing net from parameters: 
name: "LeNet"
state {
  phase: TEST
}
layer {
  name: "mnist"
  type: "Data"
  top: "data"
  top: "label"
  include {
    phase: TEST
  }
  transform_param {
    scale: 0.00390625
  }
  data_param {
    source: "examples/mnist/mnist_test_lmdb"
    batch_size: 100
    backend: LMDB
  }
}
layer {
  name: "conv1"
  type: "Convolution"
  bottom: "data"
  top: "conv1"
  param {
    lr_mult: 0
  }
  param {
    lr_mult: 0
  }
  convolution_param {
    num_output: 20
    kernel_size: 5
    stride: 1
    weight_filler {
      type: "xavier"
    }
    bias_filler {
      type: "constant"
    }
  }
}
layer {
  name: "pool1"
  type: "Pooling"
  bottom: "conv1"
  top: "pool1"
  pooling_param {
    pool: MAX
    kernel_size: 2
    stride: 2
  }
}
layer {
  name: "conv2"
  type: "Convolution"
  bottom: "pool1"
  top: "conv2"
  param {
    lr_mult: 0
  }
  param {
    lr_mult: 0
  }
  convolution_param {
    num_output: 50
    kernel_size: 5
    stride: 1
    weight_filler {
      type: "xavier"
    }
    bias_filler {
      type: "constant"
    }
  }
}
layer {
  name: "pool2"
  type: "Pooling"
  bottom: "conv2"
  top: "pool2"
  pooling_param {
    pool: MAX
    kernel_size: 2
    stride: 2
  }
}
layer {
  name: "ip1"
  type: "InnerProduct"
  bottom: "pool2"
  top: "ip1"
  param {
    lr_mult: 0
  }
  param {
    lr_mult: 0
  }
  inner_product_param {
    num_output: 500
    weight_filler {
      type: "xavier"
    }
    bias_filler {
      type: "constant"
    }
  }
}
layer {
  name: "relu1"
  type: "ReLU"
  bottom: "ip1"
  top: "ip1"
}
layer {
  name: "ip2"
  type: "InnerProduct"
  bottom: "ip1"
  top: "ip2"
  param {
    lr_mult: 1
  }
  param {
    lr_mult: 2
  }
  inner_product_param {
    num_output: 10
    weight_filler {
      type: "xavier"
    }
    bias_filler {
      type: "constant"
    }
  }
}
layer {
  name: "accuracy"
  type: "Accuracy"
  bottom: "ip2"
  bottom: "label"
  top: "accuracy"
  include {
    phase: TEST
  }
}
layer {
  name: "loss"
  type: "SoftmaxWithLoss"
  bottom: "ip2"
  bottom: "label"
  top: "loss"
}
I0711 15:01:24.208992  1649 layer_factory.hpp:77] Creating layer mnist
I0711 15:01:24.209180  1649 net.cpp:91] Creating Layer mnist
I0711 15:01:24.209198  1649 net.cpp:399] mnist -> data
I0711 15:01:24.209216  1649 net.cpp:399] mnist -> label
I0711 15:01:24.209904  1657 db_lmdb.cpp:35] Opened lmdb examples/mnist/mnist_test_lmdb
I0711 15:01:24.210094  1649 data_layer.cpp:41] output data size: 100,1,28,28
I0711 15:01:24.211696  1649 net.cpp:141] Setting up mnist
I0711 15:01:24.211719  1649 net.cpp:148] Top shape: 100 1 28 28 (78400)
I0711 15:01:24.211727  1649 net.cpp:148] Top shape: 100 (100)
I0711 15:01:24.211732  1649 net.cpp:156] Memory required for data: 314000
I0711 15:01:24.211740  1649 layer_factory.hpp:77] Creating layer label_mnist_1_split
I0711 15:01:24.211750  1649 net.cpp:91] Creating Layer label_mnist_1_split
I0711 15:01:24.211756  1649 net.cpp:425] label_mnist_1_split <- label
I0711 15:01:24.211766  1649 net.cpp:399] label_mnist_1_split -> label_mnist_1_split_0
I0711 15:01:24.211777  1649 net.cpp:399] label_mnist_1_split -> label_mnist_1_split_1
I0711 15:01:24.211827  1649 net.cpp:141] Setting up label_mnist_1_split
I0711 15:01:24.211835  1649 net.cpp:148] Top shape: 100 (100)
I0711 15:01:24.211843  1649 net.cpp:148] Top shape: 100 (100)
I0711 15:01:24.211848  1649 net.cpp:156] Memory required for data: 314800
I0711 15:01:24.211853  1649 layer_factory.hpp:77] Creating layer conv1
I0711 15:01:24.211869  1649 net.cpp:91] Creating Layer conv1
I0711 15:01:24.211874  1649 net.cpp:425] conv1 <- data
I0711 15:01:24.211884  1649 net.cpp:399] conv1 -> conv1
I0711 15:01:24.212219  1649 net.cpp:141] Setting up conv1
I0711 15:01:24.212229  1649 net.cpp:148] Top shape: 100 20 24 24 (1152000)
I0711 15:01:24.212234  1649 net.cpp:156] Memory required for data: 4922800
I0711 15:01:24.212249  1649 layer_factory.hpp:77] Creating layer pool1
I0711 15:01:24.212276  1649 net.cpp:91] Creating Layer pool1
I0711 15:01:24.212282  1649 net.cpp:425] pool1 <- conv1
I0711 15:01:24.212291  1649 net.cpp:399] pool1 -> pool1
I0711 15:01:24.212463  1649 net.cpp:141] Setting up pool1
I0711 15:01:24.212481  1649 net.cpp:148] Top shape: 100 20 12 12 (288000)
I0711 15:01:24.212487  1649 net.cpp:156] Memory required for data: 6074800
I0711 15:01:24.212494  1649 layer_factory.hpp:77] Creating layer conv2
I0711 15:01:24.212513  1649 net.cpp:91] Creating Layer conv2
I0711 15:01:24.212522  1649 net.cpp:425] conv2 <- pool1
I0711 15:01:24.212535  1649 net.cpp:399] conv2 -> conv2
I0711 15:01:24.213157  1649 net.cpp:141] Setting up conv2
I0711 15:01:24.213176  1649 net.cpp:148] Top shape: 100 50 8 8 (320000)
I0711 15:01:24.213184  1649 net.cpp:156] Memory required for data: 7354800
I0711 15:01:24.213201  1649 layer_factory.hpp:77] Creating layer pool2
I0711 15:01:24.213215  1649 net.cpp:91] Creating Layer pool2
I0711 15:01:24.213224  1649 net.cpp:425] pool2 <- conv2
I0711 15:01:24.213239  1649 net.cpp:399] pool2 -> pool2
I0711 15:01:24.213366  1649 net.cpp:141] Setting up pool2
I0711 15:01:24.213382  1649 net.cpp:148] Top shape: 100 50 4 4 (80000)
I0711 15:01:24.213389  1649 net.cpp:156] Memory required for data: 7674800
I0711 15:01:24.213397  1649 layer_factory.hpp:77] Creating layer ip1
I0711 15:01:24.213413  1649 net.cpp:91] Creating Layer ip1
I0711 15:01:24.213420  1649 net.cpp:425] ip1 <- pool2
I0711 15:01:24.213434  1649 net.cpp:399] ip1 -> ip1
I0711 15:01:24.217936  1649 net.cpp:141] Setting up ip1
I0711 15:01:24.217960  1649 net.cpp:148] Top shape: 100 500 (50000)
I0711 15:01:24.217967  1649 net.cpp:156] Memory required for data: 7874800
I0711 15:01:24.217983  1649 layer_factory.hpp:77] Creating layer relu1
I0711 15:01:24.217993  1649 net.cpp:91] Creating Layer relu1
I0711 15:01:24.218000  1649 net.cpp:425] relu1 <- ip1
I0711 15:01:24.218011  1649 net.cpp:386] relu1 -> ip1 (in-place)
I0711 15:01:24.218022  1649 net.cpp:141] Setting up relu1
I0711 15:01:24.218029  1649 net.cpp:148] Top shape: 100 500 (50000)
I0711 15:01:24.218035  1649 net.cpp:156] Memory required for data: 8074800
I0711 15:01:24.218040  1649 layer_factory.hpp:77] Creating layer ip2
I0711 15:01:24.218052  1649 net.cpp:91] Creating Layer ip2
I0711 15:01:24.218058  1649 net.cpp:425] ip2 <- ip1
I0711 15:01:24.218070  1649 net.cpp:399] ip2 -> ip2
I0711 15:01:24.218237  1649 net.cpp:141] Setting up ip2
I0711 15:01:24.218247  1649 net.cpp:148] Top shape: 100 10 (1000)
I0711 15:01:24.218253  1649 net.cpp:156] Memory required for data: 8078800
I0711 15:01:24.218262  1649 layer_factory.hpp:77] Creating layer ip2_ip2_0_split
I0711 15:01:24.218271  1649 net.cpp:91] Creating Layer ip2_ip2_0_split
I0711 15:01:24.218276  1649 net.cpp:425] ip2_ip2_0_split <- ip2
I0711 15:01:24.218286  1649 net.cpp:399] ip2_ip2_0_split -> ip2_ip2_0_split_0
I0711 15:01:24.218296  1649 net.cpp:399] ip2_ip2_0_split -> ip2_ip2_0_split_1
I0711 15:01:24.218339  1649 net.cpp:141] Setting up ip2_ip2_0_split
I0711 15:01:24.218348  1649 net.cpp:148] Top shape: 100 10 (1000)
I0711 15:01:24.218355  1649 net.cpp:148] Top shape: 100 10 (1000)
I0711 15:01:24.218361  1649 net.cpp:156] Memory required for data: 8086800
I0711 15:01:24.218366  1649 layer_factory.hpp:77] Creating layer accuracy
I0711 15:01:24.218384  1649 net.cpp:91] Creating Layer accuracy
I0711 15:01:24.218389  1649 net.cpp:425] accuracy <- ip2_ip2_0_split_0
I0711 15:01:24.218399  1649 net.cpp:425] accuracy <- label_mnist_1_split_0
I0711 15:01:24.218408  1649 net.cpp:399] accuracy -> accuracy
…
